…
      source: "/home/share/storage/datasets/imagenet/144px/lmdb/ilsvrc12_128_train_lmdb"
      batch_size: 256
      backend: LMDB
    }
  }
  layer {
    name: "data"
    type: "Data"
    top: "data"
    top: "label"
    include {
      phase: TEST
    }
    transform_param {
      scale: 0.04
      mirror: false
      crop_size: 128
      mean_value: 104
      mean_value: 117
      mean_value: 123
      force_color: true
    }
    data_param {
      source: "/home/share/storage/datasets/imagenet/144px/lmdb/ilsvrc12_128_val_lmdb"
      batch_size: 50
      backend: LMDB
    }
  }
  layer {
    name: "conv1"
    type: "Convolution"
    bottom: "data"
    top: "conv1"
    param {
      lr_mult: 1
      decay_mult: 1
    }
    param {
      lr_mult: 2
      decay_mult: 0
    }
    convolution_param {
      num_output: 96
      kernel_size: 11
      stride: 4
      weight_filler {
        type: "gaussian"
        std: 0.01
      }
      bias_filler {
        type: "constant"
      }
    }
  }
  layer {
    name: "relu1"
    type: "ELU"
    bottom: "conv1"
    top: "relu1"
    elu_param {
      alpha: 1
    }
  }
  layer {
    name: "pool1"
    type: "Pooling"
    bottom: "relu1"
    top: "pool1"
    pooling_param {
      pool: MAX
      kernel_size: 3
      stride: 2
    }
  }
  layer {
    name: "conv2"
    type: "Convolution"
    bottom: "pool1"
    top: "conv2"
    param {
      lr_mult: 1
      decay_mult: 1
    }
    param {
      lr_mult: 2
      decay_mult: 0
    }
    convolution_param {
      num_output: 256
      pad: 2
      kernel_size: 5
      group: 2
      weight_filler {
        type: "gaussian"
        std: 0.01
      }
      bias_filler {
        type: "constant"
      }
    }
  }
  layer {
    name: "relu2"
    type: "ELU"
    bottom: "conv2"
    top: "relu2"
    elu_param {
      alpha: 1
    }
  }
  layer {
    name: "pool2"
    type: "Pooling"
    bottom: "relu2"
    top: "pool2"
    pooling_param {
      pool: MAX
      kernel_size: 3
      stride: 2
    }
  }
  layer {
    name: "conv3"
    type: "Convolution"
    bottom: "pool2"
    top: "conv3"
    param {
      lr_mult: 1
      decay_mult: 1
    }
    param {
      lr_mult: 2
      decay_mult: 0
    }
    convolution_param {
      num_output: 384
      pad: 1
      kernel_size: 3
      weight_filler {
        type: "gaussian"
        std: 0.01
      }
      bias_filler {
        type: "constant"
      }
    }
  }
  layer {
    name: "relu3"
    type: "ELU"
    bottom: "conv3"
    top: "relu3"
    elu_param {
      alpha: 1
    }
  }
  layer {
    name: "conv4"
    type: "Convolution"
    bottom: "relu3"
    top: "conv4"
    param {
      lr_mult: 1
      decay_mult: 1
    }
    param {
      lr_mult: 2
      decay_mult: 0
    }
    convolution_param {
      num_output: 384
      pad: 1
      kernel_size: 3
      group: 2
      weight_filler {
        type: "gaussian"
        std: 0.01
      }
      bias_filler {
        type: "constant"
      }
    }
  }
  layer {
    name: "relu4"
    type: "ELU"
    bottom: "conv4"
    top: "relu4"
    elu_param {
      alpha: 1
    }
  }
  layer {
    name: "conv5"
    type: "Convolution"
    bottom: "relu4"
    top: "conv5"
    param {
      lr_mult: 1
      decay_mult: 1
    }
    param {
      lr_mult: 2
      decay_mult: 0
    }
    convolution_param {
      num_output: 256
      pad: 1
      kernel_size: 3
      group: 2
      weight_filler {
        type: "gaussian"
        std: 0.01
      }
      bias_filler {
        type: "constant"
      }
    }
  }
  layer {
    name: "relu5"
    type: "ELU"
    bottom: "conv5"
    top: "relu5"
    elu_param {
      alpha: 1
    }
  }
  layer {
    name: "pool5"
    type: "Pooling"
    bottom: "relu5"
    top: "pool5"
    pooling_param {
      pool: MAX
      kernel_size: 3
      stride: 2
    }
  }
  layer {
    name: "fc6"
    type: "Convolution"
    bottom: "pool5"
    top: "fc6"
    param {
      lr_mult: 1
      decay_mult: 1
    }
    param {
      lr_mult: 2
      decay_mult: 0
    }
    convolution_param {
      num_output: 2048
      pad: 1
      kernel_size: 3
      weight_filler {
        type: "gaussian"
        std: 0.01
      }
      bias_filler {
        type: "constant"
      }
    }
  }
  layer {
    name: "relu6"
    type: "ELU"
    bottom: "fc6"
    top: "relu6"
    elu_param {
      alpha: 1
    }
  }
  layer {
    name: "drop6"
    type: "Dropout"
    bottom: "relu6"
    top: "drop6"
    dropout_param {
      dropout_ratio: 0.5
    }
  }
  layer {
    name: "fc7"
    type: "Convolution"
    bottom: "drop6"
    top: "fc7"
    param {
      lr_mult: 1
      decay_mult: 1
    }
    param {
      lr_mult: 2
      decay_mult: 0
    }
    convolution_param {
      num_output: 2048
      kernel_size: 1
      weight_filler {
        type: "gaussian"
        std: 0.01
      }
      bias_filler {
        type: "constant"
      }
    }
  }
  layer {
    name: "relu7"
    type: "ELU"
    bottom: "fc7"
    top: "relu7"
    elu_param {
      alpha: 1
    }
  }
  layer {
    name: "drop7"
    type: "Dropout"
    bottom: "relu7"
    top: "drop7"
    dropout_param {
      dropout_ratio: 0.5
    }
  }
  layer {
    name: "fc7_bottleneck"
    type: "Convolution"
    bottom: "drop7"
    top: "fc7_bottleneck"
    param {
      lr_mult: 1
      decay_mult: 1
    }
    param {
      lr_mult: 2
      decay_mult: 0
    }
    convolution_param {
      num_output: 512
      kernel_size: 1
      weight_filler {
        type: "gaussian"
        std: 0.01
      }
      bias_filler {
        type: "constant"
      }
    }
  }
  layer {
    name: "relu8"
    type: "ELU"
    bottom: "fc7_bottleneck"
    top: "relu8"
    elu_param {
      alpha: 1
    }
  }
  layer {
    name: "drop8"
    type: "Dropout"
    bottom: "relu8"
    top: "drop8"
    dropout_param {
      dropout_ratio: 0.2
    }
  }
  layer {
    name: "fc8"
    type: "Convolution"
    bottom: "drop8"
    top: "fc8"
    param {
      lr_mult: 1
      decay_mult: 1
    }
    param {
      lr_mult: 2
      decay_mult: 0
    }
    convolution_param {
      num_output: 1000
      kernel_size: 1
      weight_filler {
        type: "gaussian"
        std: 0.01
      }
      bias_filler {
        type: "constant"
      }
    }
  }
  layer {
    name: "fc8ave"
    type: "Pooling"
    bottom: "fc8"
    top: "fc8ave"
    pooling_param {
      pool: AVE
      global_pooling: true
    }
  }
  layer {
    name: "accuracy"
    type: "Accuracy"
    bottom: "fc8ave"
    bottom: "label"
    top: "accuracy"
    include {
      phase: TEST
    }
  }
  layer {
    name: "loss"
    type: "SoftmaxWithLoss"
    bottom: "fc8ave"
    bottom: "label"
    top: "loss"
  }
}
iter_size: 1
type: "SGD"
I0304 16:00:15.312463  5857 solver.cpp:86] Creating training net specified in net_param.
I0304 16:00:15.312577  5857 net.cpp:322] The NetState phase (0) differed from the phase (1) specified by a rule in layer data
I0304 16:00:15.312595  5857 net.cpp:322] The NetState phase (0) differed from the phase (1) specified by a rule in layer accuracy
I0304 16:00:15.312747  5857 net.cpp:49] Initializing net from parameters: 
name: "CaffeNet"
state {
  phase: TRAIN
}
layer {
  name: "data"
  type: "Data"
  top: "data"
  top: "label"
  include {
    phase: TRAIN
  }
  transform_param {
    scale: 0.04
    mirror: true
    crop_size: 128
    mean_value: 104
    mean_value: 117
    mean_value: 124
    force_color: true
  }
  data_param {
    source: "/home/share/storage/datasets/imagenet/144px/lmdb/ilsvrc12_128_train_lmdb"
    batch_size: 256
    backend: LMDB
  }
}
layer {
  name: "conv1"
  type: "Convolution"
  bottom: "data"
  top: "conv1"
  param {
    lr_mult: 1
    decay_mult: 1
  }
  param {
    lr_mult: 2
    decay_mult: 0
  }
  convolution_param {
    num_output: 96
    kernel_size: 11
    stride: 4
    weight_filler {
      type: "gaussian"
      std: 0.01
    }
    bias_filler {
      type: "constant"
    }
  }
}
layer {
  name: "relu1"
  type: "ELU"
  bottom: "conv1"
  top: "relu1"
  elu_param {
    alpha: 1
  }
}
layer {
  name: "pool1"
  type: "Pooling"
  bottom: "relu1"
  top: "pool1"
  pooling_param {
    pool: MAX
    kernel_size: 3
    stride: 2
  }
}
layer {
  name: "conv2"
  type: "Convolution"
  bottom: "pool1"
  top: "conv2"
  param {
    lr_mult: 1
    decay_mult: 1
  }
  param {
    lr_mult: 2
    decay_mult: 0
  }
  convolution_param {
    num_output: 256
    pad: 2
    kernel_size: 5
    group: 2
    weight_filler {
      type: "gaussian"
      std: 0.01
    }
    bias_filler {
      type: "constant"
    }
  }
}
layer {
  name: "relu2"
  type: "ELU"
  bottom: "conv2"
  top: "relu2"
  elu_param {
    alpha: 1
  }
}
layer {
  name: "pool2"
  type: "Pooling"
  bottom: "relu2"
  top: "pool2"
  pooling_param {
    pool: MAX
    kernel_size: 3
    stride: 2
  }
}
layer {
  name: "conv3"
  type: "Convolution"
  bottom: "pool2"
  top: "conv3"
  param {
    lr_mult: 1
    decay_mult: 1
  }
  param {
    lr_mult: 2
    decay_mult: 0
  }
  convolution_param {
    num_output: 384
    pad: 1
    kernel_size: 3
    weight_filler {
      type: "gaussian"
      std: 0.01
    }
    bias_filler {
      type: "constant"
    }
  }
}
layer {
  name: "relu3"
  type: "ELU"
  bottom: "conv3"
  top: "relu3"
  elu_param {
    alpha: 1
  }
}
layer {
  name: "conv4"
  type: "Convolution"
  bottom: "relu3"
  top: "conv4"
  param {
    lr_mult: 1
    decay_mult: 1
  }
  param {
    lr_mult: 2
    decay_mult: 0
  }
  convolution_param {
    num_output: 384
    pad: 1
    kernel_size: 3
    group: 2
    weight_filler {
      type: "gaussian"
      std: 0.01
    }
    bias_filler {
      type: "constant"
    }
  }
}
layer {
  name: "relu4"
  type: "ELU"
  bottom: "conv4"
  top: "relu4"
  elu_param {
    alpha: 1
  }
}
layer {
  name: "conv5"
  type: "Convolution"
  bottom: "relu4"
  top: "conv5"
  param {
    lr_mult: 1
    decay_mult: 1
  }
  param {
    lr_mult: 2
    decay_mult: 0
  }
  convolution_param {
    num_output: 256
    pad: 1
    kernel_size: 3
    group: 2
    weight_filler {
      type: "gaussian"
      std: 0.01
    }
    bias_filler {
      type: "constant"
    }
  }
}
layer {
  name: "relu5"
  type: "ELU"
  bottom: "conv5"
  top: "relu5"
  elu_param {
    alpha: 1
  }
}
layer {
  name: "pool5"
  type: "Pooling"
  bottom: "relu5"
  top: "pool5"
  pooling_param {
    pool: MAX
    kernel_size: 3
    stride: 2
  }
}
layer {
  name: "fc6"
  type: "Convolution"
  bottom: "pool5"
  top: "fc6"
  param {
    lr_mult: 1
    decay_mult: 1
  }
  param {
    lr_mult: 2
    decay_mult: 0
  }
  convolution_param {
    num_output: 2048
    pad: 1
    kernel_size: 3
    weight_filler {
      type: "gaussian"
      std: 0.01
    }
    bias_filler {
      type: "constant"
    }
  }
}
layer {
  name: "relu6"
  type: "ELU"
  bottom: "fc6"
  top: "relu6"
  elu_param {
    alpha: 1
  }
}
layer {
  name: "drop6"
  type: "Dropout"
  bottom: "relu6"
  top: "drop6"
  dropout_param {
    dropout_ratio: 0.5
  }
}
layer {
  name: "fc7"
  type: "Convolution"
  bottom: "drop6"
  top: "fc7"
  param {
    lr_mult: 1
    decay_mult: 1
  }
  param {
    lr_mult: 2
    decay_mult: 0
  }
  convolution_param {
    num_output: 2048
    kernel_size: 1
    weight_filler {
      type: "gaussian"
      std: 0.01
    }
    bias_filler {
      type: "constant"
    }
  }
}
layer {
  name: "relu7"
  type: "ELU"
  bottom: "fc7"
  top: "relu7"
  elu_param {
    alpha: 1
  }
}
layer {
  name: "drop7"
  type: "Dropout"
  bottom: "relu7"
  top: "drop7"
  dropout_param {
    dropout_ratio: 0.5
  }
}
layer {
  name: "fc7_bottleneck"
  type: "Convolution"
  bottom: "drop7"
  top: "fc7_bottleneck"
  param {
    lr_mult: 1
    decay_mult: 1
  }
  param {
    lr_mult: 2
    decay_mult: 0
  }
  convolution_param {
    num_output: 512
    kernel_size: 1
    weight_filler {
      type: "gaussian"
      std: 0.01
    }
    bias_filler {
      type: "constant"
    }
  }
}
layer {
  name: "relu8"
  type: "ELU"
  bottom: "fc7_bottleneck"
  top: "relu8"
  elu_param {
    alpha: 1
  }
}
layer {
  name: "drop8"
  type: "Dropout"
  bottom: "relu8"
  top: "drop8"
  dropout_param {
    dropout_ratio: 0.2
  }
}
layer {
  name: "fc8"
  type: "Convolution"
  bottom: "drop8"
  top: "fc8"
  param {
    lr_mult: 1
    decay_mult: 1
  }
  param {
    lr_mult: 2
    decay_mult: 0
  }
  convolution_param {
    num_output: 1000
    kernel_size: 1
    weight_filler {
      type: "gaussian"
      std: 0.01
    }
    bias_filler {
      type: "constant"
    }
  }
}
layer {
  name: "fc8ave"
  type: "Pooling"
  bottom: "fc8"
  top: "fc8ave"
  pooling_param {
    pool: AVE
    global_pooling: true
  }
}
layer {
  name: "loss"
  type: "SoftmaxWithLoss"
  bottom: "fc8ave"
  bottom: "label"
  top: "loss"
}
I0304 16:00:15.312845  5857 layer_factory.hpp:76] Creating layer data
I0304 16:00:15.313377  5857 net.cpp:106] Creating Layer data
I0304 16:00:15.313395  5857 net.cpp:411] data -> data
I0304 16:00:15.313418  5857 net.cpp:411] data -> label
I0304 16:00:15.314195  5861 db_lmdb.cpp:38] Opened lmdb /home/share/storage/datasets/imagenet/144px/lmdb/ilsvrc12_128_train_lmdb
I0304 16:00:15.323230  5857 data_layer.cpp:41] output data size: 256,3,128,128
I0304 16:00:15.392819  5857 net.cpp:150] Setting up data
I0304 16:00:15.392854  5857 net.cpp:157] Top shape: 256 3 128 128 (12582912)
I0304 16:00:15.392858  5857 net.cpp:157] Top shape: 256 (256)
I0304 16:00:15.392860  5857 net.cpp:165] Memory required for data: 50332672
I0304 16:00:15.392868  5857 layer_factory.hpp:76] Creating layer conv1
I0304 16:00:15.392882  5857 net.cpp:106] Creating Layer conv1
I0304 16:00:15.392897  5857 net.cpp:454] conv1 <- data
I0304 16:00:15.392907  5857 net.cpp:411] conv1 -> conv1
I0304 16:00:15.503744  5857 net.cpp:150] Setting up conv1
I0304 16:00:15.503774  5857 net.cpp:157] Top shape: 256 96 30 30 (22118400)
I0304 16:00:15.503778  5857 net.cpp:165] Memory required for data: 138806272
I0304 16:00:15.503793  5857 layer_factory.hpp:76] Creating layer relu1
I0304 16:00:15.503803  5857 net.cpp:106] Creating Layer relu1
I0304 16:00:15.503808  5857 net.cpp:454] relu1 <- conv1
I0304 16:00:15.503821  5857 net.cpp:411] relu1 -> relu1
I0304 16:00:15.503854  5857 net.cpp:150] Setting up relu1
I0304 16:00:15.503857  5857 net.cpp:157] Top shape: 256 96 30 30 (22118400)
I0304 16:00:15.503859  5857 net.cpp:165] Memory required for data: 227279872
I0304 16:00:15.503861  5857 layer_factory.hpp:76] Creating layer pool1
I0304 16:00:15.503868  5857 net.cpp:106] Creating Layer pool1
I0304 16:00:15.503870  5857 net.cpp:454] pool1 <- relu1
I0304 16:00:15.503873  5857 net.cpp:411] pool1 -> pool1
I0304 16:00:15.504070  5857 net.cpp:150] Setting up pool1
I0304 16:00:15.504077  5857 net.cpp:157] Top shape: 256 96 15 15 (5529600)
I0304 16:00:15.504088  5857 net.cpp:165] Memory required for data: 249398272
I0304 16:00:15.504091  5857 layer_factory.hpp:76] Creating layer conv2
I0304 16:00:15.504099  5857 net.cpp:106] Creating Layer conv2
I0304 16:00:15.504111  5857 net.cpp:454] conv2 <- pool1
I0304 16:00:15.504114  5857 net.cpp:411] conv2 -> conv2
I0304 16:00:15.512769  5857 net.cpp:150] Setting up conv2
I0304 16:00:15.512802  5857 net.cpp:157] Top shape: 256 256 15 15 (14745600)
I0304 16:00:15.512805  5857 net.cpp:165] Memory required for data: 308380672
I0304 16:00:15.512822  5857 layer_factory.hpp:76] Creating layer relu2
I0304 16:00:15.512857  5857 net.cpp:106] Creating Layer relu2
I0304 16:00:15.512861  5857 net.cpp:454] relu2 <- conv2
I0304 16:00:15.512866  5857 net.cpp:411] relu2 -> relu2
I0304 16:00:15.512895  5857 net.cpp:150] Setting up relu2
I0304 16:00:15.512898  5857 net.cpp:157] Top shape: 256 256 15 15 (14745600)
I0304 16:00:15.512900  5857 net.cpp:165] Memory required for data: 367363072
I0304 16:00:15.512902  5857 layer_factory.hpp:76] Creating layer pool2
I0304 16:00:15.512908  5857 net.cpp:106] Creating Layer pool2
I0304 16:00:15.512910  5857 net.cpp:454] pool2 <- relu2
I0304 16:00:15.512923  5857 net.cpp:411] pool2 -> pool2
I0304 16:00:15.513069  5857 net.cpp:150] Setting up pool2
I0304 16:00:15.513075  5857 net.cpp:157] Top shape: 256 256 7 7 (3211264)
I0304 16:00:15.513077  5857 net.cpp:165] Memory required for data: 380208128
I0304 16:00:15.513088  5857 layer_factory.hpp:76] Creating layer conv3
I0304 16:00:15.513095  5857 net.cpp:106] Creating Layer conv3
I0304 16:00:15.513098  5857 net.cpp:454] conv3 <- pool2
I0304 16:00:15.513101  5857 net.cpp:411] conv3 -> conv3
I0304 16:00:15.539760  5857 net.cpp:150] Setting up conv3
I0304 16:00:15.539789  5857 net.cpp:157] Top shape: 256 384 7 7 (4816896)
I0304 16:00:15.539793  5857 net.cpp:165] Memory required for data: 399475712
I0304 16:00:15.539803  5857 layer_factory.hpp:76] Creating layer relu3
I0304 16:00:15.539824  5857 net.cpp:106] Creating Layer relu3
I0304 16:00:15.539827  5857 net.cpp:454] relu3 <- conv3
I0304 16:00:15.539834  5857 net.cpp:411] relu3 -> relu3
I0304 16:00:15.539866  5857 net.cpp:150] Setting up relu3
I0304 16:00:15.539882  5857 net.cpp:157] Top shape: 256 384 7 7 (4816896)
I0304 16:00:15.539885  5857 net.cpp:165] Memory required for data: 418743296
I0304 16:00:15.539885  5857 layer_factory.hpp:76] Creating layer conv4
I0304 16:00:15.539902  5857 net.cpp:106] Creating Layer conv4
I0304 16:00:15.539904  5857 net.cpp:454] conv4 <- relu3
I0304 16:00:15.539909  5857 net.cpp:411] conv4 -> conv4
I0304 16:00:15.557271  5857 net.cpp:150] Setting up conv4
I0304 16:00:15.557298  5857 net.cpp:157] Top shape: 256 384 7 7 (4816896)
I0304 16:00:15.557302  5857 net.cpp:165] Memory required for data: 438010880
I0304 16:00:15.557312  5857 layer_factory.hpp:76] Creating layer relu4
I0304 16:00:15.557329  5857 net.cpp:106] Creating Layer relu4
I0304 16:00:15.557333  5857 net.cpp:454] relu4 <- conv4
I0304 16:00:15.557340  5857 net.cpp:411] relu4 -> relu4
I0304 16:00:15.557363  5857 net.cpp:150] Setting up relu4
I0304 16:00:15.557368  5857 net.cpp:157] Top shape: 256 384 7 7 (4816896)
I0304 16:00:15.557379  5857 net.cpp:165] Memory required for data: 457278464
I0304 16:00:15.557381  5857 layer_factory.hpp:76] Creating layer conv5
I0304 16:00:15.557399  5857 net.cpp:106] Creating Layer conv5
I0304 16:00:15.557401  5857 net.cpp:454] conv5 <- relu4
I0304 16:00:15.557405  5857 net.cpp:411] conv5 -> conv5
I0304 16:00:15.569783  5857 net.cpp:150] Setting up conv5
I0304 16:00:15.569810  5857 net.cpp:157] Top shape: 256 256 7 7 (3211264)
I0304 16:00:15.569814  5857 net.cpp:165] Memory required for data: 470123520
I0304 16:00:15.569824  5857 layer_factory.hpp:76] Creating layer relu5
I0304 16:00:15.569842  5857 net.cpp:106] Creating Layer relu5
I0304 16:00:15.569845  5857 net.cpp:454] relu5 <- conv5
I0304 16:00:15.569852  5857 net.cpp:411] relu5 -> relu5
I0304 16:00:15.569875  5857 net.cpp:150] Setting up relu5
I0304 16:00:15.569881  5857 net.cpp:157] Top shape: 256 256 7 7 (3211264)
I0304 16:00:15.569891  5857 net.cpp:165] Memory required for data: 482968576
I0304 16:00:15.569893  5857 layer_factory.hpp:76] Creating layer pool5
I0304 16:00:15.569911  5857 net.cpp:106] Creating Layer pool5
I0304 16:00:15.569912  5857 net.cpp:454] pool5 <- relu5
I0304 16:00:15.569916  5857 net.cpp:411] pool5 -> pool5
I0304 16:00:15.570199  5857 net.cpp:150] Setting up pool5
I0304 16:00:15.570206  5857 net.cpp:157] Top shape: 256 256 3 3 (589824)
I0304 16:00:15.570219  5857 net.cpp:165] Memory required for data: 485327872
I0304 16:00:15.570220  5857 layer_factory.hpp:76] Creating layer fc6
I0304 16:00:15.570247  5857 net.cpp:106] Creating Layer fc6
I0304 16:00:15.570250  5857 net.cpp:454] fc6 <- pool5
I0304 16:00:15.570255  5857 net.cpp:411] fc6 -> fc6
I0304 16:00:15.683925  5857 net.cpp:150] Setting up fc6
I0304 16:00:15.683957  5857 net.cpp:157] Top shape: 256 2048 3 3 (4718592)
I0304 16:00:15.683959  5857 net.cpp:165] Memory required for data: 504202240
I0304 16:00:15.683967  5857 layer_factory.hpp:76] Creating layer relu6
I0304 16:00:15.683974  5857 net.cpp:106] Creating Layer relu6
I0304 16:00:15.683987  5857 net.cpp:454] relu6 <- fc6
I0304 16:00:15.683993  5857 net.cpp:411] relu6 -> relu6
I0304 16:00:15.684015  5857 net.cpp:150] Setting up relu6
I0304 16:00:15.684020  5857 net.cpp:157] Top shape: 256 2048 3 3 (4718592)
I0304 16:00:15.684031  5857 net.cpp:165] Memory required for data: 523076608
I0304 16:00:15.684033  5857 layer_factory.hpp:76] Creating layer drop6
I0304 16:00:15.684051  5857 net.cpp:106] Creating Layer drop6
I0304 16:00:15.684053  5857 net.cpp:454] drop6 <- relu6
I0304 16:00:15.684067  5857 net.cpp:411] drop6 -> drop6
I0304 16:00:15.684108  5857 net.cpp:150] Setting up drop6
I0304 16:00:15.684111  5857 net.cpp:157] Top shape: 256 2048 3 3 (4718592)
I0304 16:00:15.684113  5857 net.cpp:165] Memory required for data: 541950976
I0304 16:00:15.684124  5857 layer_factory.hpp:76] Creating layer fc7
I0304 16:00:15.684133  5857 net.cpp:106] Creating Layer fc7
I0304 16:00:15.684144  5857 net.cpp:454] fc7 <- drop6
I0304 16:00:15.684146  5857 net.cpp:411] fc7 -> fc7
I0304 16:00:15.785799  5857 net.cpp:150] Setting up fc7
I0304 16:00:15.785835  5857 net.cpp:157] Top shape: 256 2048 3 3 (4718592)
I0304 16:00:15.785836  5857 net.cpp:165] Memory required for data: 560825344
I0304 16:00:15.785843  5857 layer_factory.hpp:76] Creating layer relu7
I0304 16:00:15.785861  5857 net.cpp:106] Creating Layer relu7
I0304 16:00:15.785864  5857 net.cpp:454] relu7 <- fc7
I0304 16:00:15.785869  5857 net.cpp:411] relu7 -> relu7
I0304 16:00:15.785890  5857 net.cpp:150] Setting up relu7
I0304 16:00:15.785894  5857 net.cpp:157] Top shape: 256 2048 3 3 (4718592)
I0304 16:00:15.785897  5857 net.cpp:165] Memory required for data: 579699712
I0304 16:00:15.785907  5857 layer_factory.hpp:76] Creating layer drop7
I0304 16:00:15.785912  5857 net.cpp:106] Creating Layer drop7
I0304 16:00:15.785914  5857 net.cpp:454] drop7 <- relu7
I0304 16:00:15.785928  5857 net.cpp:411] drop7 -> drop7
I0304 16:00:15.785950  5857 net.cpp:150] Setting up drop7
I0304 16:00:15.785954  5857 net.cpp:157] Top shape: 256 2048 3 3 (4718592)
I0304 16:00:15.785956  5857 net.cpp:165] Memory required for data: 598574080
I0304 16:00:15.785958  5857 layer_factory.hpp:76] Creating layer fc7_bottleneck
I0304 16:00:15.785965  5857 net.cpp:106] Creating Layer fc7_bottleneck
I0304 16:00:15.785967  5857 net.cpp:454] fc7_bottleneck <- drop7
I0304 16:00:15.785970  5857 net.cpp:411] fc7_bottleneck -> fc7_bottleneck
I0304 16:00:15.811620  5857 net.cpp:150] Setting up fc7_bottleneck
I0304 16:00:15.811647  5857 net.cpp:157] Top shape: 256 512 3 3 (1179648)
I0304 16:00:15.811650  5857 net.cpp:165] Memory required for data: 603292672
I0304 16:00:15.811657  5857 layer_factory.hpp:76] Creating layer relu8
I0304 16:00:15.811663  5857 net.cpp:106] Creating Layer relu8
I0304 16:00:15.811667  5857 net.cpp:454] relu8 <- fc7_bottleneck
I0304 16:00:15.811672  5857 net.cpp:411] relu8 -> relu8
I0304 16:00:15.811693  5857 net.cpp:150] Setting up relu8
I0304 16:00:15.811697  5857 net.cpp:157] Top shape: 256 512 3 3 (1179648)
I0304 16:00:15.811699  5857 net.cpp:165] Memory required for data: 608011264
I0304 16:00:15.811702  5857 layer_factory.hpp:76] Creating layer drop8
I0304 16:00:15.811707  5857 net.cpp:106] Creating Layer drop8
I0304 16:00:15.811708  5857 net.cpp:454] drop8 <- relu8
I0304 16:00:15.811710  5857 net.cpp:411] drop8 -> drop8
I0304 16:00:15.811744  5857 net.cpp:150] Setting up drop8
I0304 16:00:15.811748  5857 net.cpp:157] Top shape: 256 512 3 3 (1179648)
I0304 16:00:15.811749  5857 net.cpp:165] Memory required for data: 612729856
I0304 16:00:15.811750  5857 layer_factory.hpp:76] Creating layer fc8
I0304 16:00:15.811794  5857 net.cpp:106] Creating Layer fc8
I0304 16:00:15.811797  5857 net.cpp:454] fc8 <- drop8
I0304 16:00:15.811801  5857 net.cpp:411] fc8 -> fc8
I0304 16:00:15.824484  5857 net.cpp:150] Setting up fc8
I0304 16:00:15.824501  5857 net.cpp:157] Top shape: 256 1000 3 3 (2304000)
I0304 16:00:15.824503  5857 net.cpp:165] Memory required for data: 621945856
I0304 16:00:15.824512  5857 layer_factory.hpp:76] Creating layer fc8ave
I0304 16:00:15.824519  5857 net.cpp:106] Creating Layer fc8ave
I0304 16:00:15.824532  5857 net.cpp:454] fc8ave <- fc8
I0304 16:00:15.824535  5857 net.cpp:411] fc8ave -> fc8ave
I0304 16:00:15.824774  5857 net.cpp:150] Setting up fc8ave
I0304 16:00:15.824781  5857 net.cpp:157] Top shape: 256 1000 1 1 (256000)
I0304 16:00:15.824784  5857 net.cpp:165] Memory required for data: 622969856
I0304 16:00:15.824785  5857 layer_factory.hpp:76] Creating layer loss
I0304 16:00:15.824793  5857 net.cpp:106] Creating Layer loss
I0304 16:00:15.824795  5857 net.cpp:454] loss <- fc8ave
I0304 16:00:15.824798  5857 net.cpp:454] loss <- label
I0304 16:00:15.824812  5857 net.cpp:411] loss -> loss
I0304 16:00:15.824822  5857 layer_factory.hpp:76] Creating layer loss
…
I0304 16:00:15.825644  5857 net.cpp:322] The NetState phase (1) differed from the phase (0) specified by a rule in layer data
I0304 16:00:15.825783  5857 net.cpp:49] Initializing net from parameters: 
name: "CaffeNet"
state {
  phase: TEST
}
layer {
  name: "data"
  type: "Data"
  top: "data"
  top: "label"
  include {
    phase: TEST
  }
  transform_param {
    scale: 0.04
    mirror: false
    crop_size: 128
    mean_value: 104
    mean_value: 117
    mean_value: 123
    force_color: true
  }
  data_param {
    source: "/home/share/storage/datasets/imagenet/144px/lmdb/ilsvrc12_128_val_lmdb"
    batch_size: 50
    backend: LMDB
  }
}
layer {
  name: "conv1"
  type: "Convolution"
  bottom: "data"
  top: "conv1"
  param {
    lr_mult: 1
    decay_mult: 1
  }
  param {
    lr_mult: 2
    decay_mult: 0
  }
  convolution_param {
    num_output: 96
    kernel_size: 11
    stride: 4
    weight_filler {
      type: "gaussian"
      std: 0.01
    }
    bias_filler {
      type: "constant"
    }
  }
}
layer {
  name: "relu1"
  type: "ELU"
  bottom: "conv1"
  top: "relu1"
  elu_param {
    alpha: 1
  }
}
layer {
  name: "pool1"
  type: "Pooling"
  bottom: "relu1"
  top: "pool1"
  pooling_param {
    pool: MAX
    kernel_size: 3
    stride: 2
  }
}
layer {
  name: "conv2"
  type: "Convolution"
  bottom: "pool1"
  top: "conv2"
  param {
    lr_mult: 1
    decay_mult: 1
  }
  param {
    lr_mult: 2
    decay_mult: 0
  }
  convolution_param {
    num_output: 256
    pad: 2
    kernel_size: 5
    group: 2
    weight_filler {
      type: "gaussian"
      std: 0.01
    }
    bias_filler {
      type: "constant"
    }
  }
}
layer {
  name: "relu2"
  type: "ELU"
  bottom: "conv2"
  top: "relu2"
  elu_param {
    alpha: 1
  }
}
layer {
  name: "pool2"
  type: "Pooling"
  bottom: "relu2"
  top: "pool2"
  pooling_param {
    pool: MAX
    kernel_size: 3
    stride: 2
  }
}
layer {
  name: "conv3"
  type: "Convolution"
  bottom: "pool2"
  top: "conv3"
  param {
    lr_mult: 1
    decay_mult: 1
  }
  param {
    lr_mult: 2
    decay_mult: 0
  }
  convolution_param {
    num_output: 384
    pad: 1
    kernel_size: 3
    weight_filler {
      type: "gaussian"
      std: 0.01
    }
    bias_filler {
      type: "constant"
    }
  }
}
layer {
  name: "relu3"
  type: "ELU"
  bottom: "conv3"
  top: "relu3"
  elu_param {
    alpha: 1
  }
}
layer {
  name: "conv4"
  type: "Convolution"
  bottom: "relu3"
  top: "conv4"
  param {
    lr_mult: 1
    decay_mult: 1
  }
  param {
    lr_mult: 2
    decay_mult: 0
  }
  convolution_param {
    num_output: 384
    pad: 1
    kernel_size: 3
    group: 2
    weight_filler {
      type: "gaussian"
      std: 0.01
    }
    bias_filler {
      type: "constant"
    }
  }
}
layer {
  name: "relu4"
  type: "ELU"
  bottom: "conv4"
  top: "relu4"
  elu_param {
    alpha: 1
  }
}
layer {
  name: "conv5"
  type: "Convolution"
  bottom: "relu4"
  top: "conv5"
  param {
    lr_mult: 1
    decay_mult: 1
  }
  param {
    lr_mult: 2
    decay_mult: 0
  }
  convolution_param {
    num_output: 256
    pad: 1
    kernel_size: 3
    group: 2
    weight_filler {
      type: "gaussian"
      std: 0.01
    }
    bias_filler {
      type: "constant"
    }
  }
}
layer {
  name: "relu5"
  type: "ELU"
  bottom: "conv5"
  top: "relu5"
  elu_param {
    alpha: 1
  }
}
layer {
  name: "pool5"
  type: "Pooling"
  bottom: "relu5"
  top: "pool5"
  pooling_param {
    pool: MAX
    kernel_size: 3
    stride: 2
  }
}
layer {
  name: "fc6"
  type: "Convolution"
  bottom: "pool5"
  top: "fc6"
  param {
    lr_mult: 1
    decay_mult: 1
  }
  param {
    lr_mult: 2
    decay_mult: 0
  }
  convolution_param {
    num_output: 2048
    pad: 1
    kernel_size: 3
    weight_filler {
      type: "gaussian"
      std: 0.01
    }
    bias_filler {
      type: "constant"
    }
  }
}
layer {
  name: "relu6"
  type: "ELU"
  bottom: "fc6"
  top: "relu6"
  elu_param {
    alpha: 1
  }
}
layer {
  name: "drop6"
  type: "Dropout"
  bottom: "relu6"
  top: "drop6"
  dropout_param {
    dropout_ratio: 0.5
  }
}
layer {
  name: "fc7"
  type: "Convolution"
  bottom: "drop6"
  top: "fc7"
  param {
    lr_mult: 1
    decay_mult: 1
  }
  param {
    lr_mult: 2
    decay_mult: 0
  }
  convolution_param {
    num_output: 2048
    kernel_size: 1
    weight_filler {
      type: "gaussian"
      std: 0.01
    }
    bias_filler {
      type: "constant"
    }
  }
}
layer {
  name: "relu7"
  type: "ELU"
  bottom: "fc7"
  top: "relu7"
  elu_param {
    alpha: 1
  }
}
layer {
  name: "drop7"
  type: "Dropout"
  bottom: "relu7"
  top: "drop7"
  dropout_param {
    dropout_ratio: 0.5
  }
}
layer {
  name: "fc7_bottleneck"
  type: "Convolution"
  bottom: "drop7"
  top: "fc7_bottleneck"
  param {
    lr_mult: 1
    decay_mult: 1
  }
  param {
    lr_mult: 2
    decay_mult: 0
  }
  convolution_param {
    num_output: 512
    kernel_size: 1
    weight_filler {
      type: "gaussian"
      std: 0.01
    }
    bias_filler {
      type: "constant"
    }
  }
}
layer {
  name: "relu8"
  type: "ELU"
  bottom: "fc7_bottleneck"
  top: "relu8"
  elu_param {
    alpha: 1
  }
}
layer {
  name: "drop8"
  type: "Dropout"
  bottom: "relu8"
  top: "drop8"
  dropout_param {
    dropout_ratio: 0.2
  }
}
layer {
  name: "fc8"
  type: "Convolution"
  bottom: "drop8"
  top: "fc8"
  param {
    lr_mult: 1
    decay_mult: 1
  }
  param {
    lr_mult: 2
    decay_mult: 0
  }
  convolution_param {
    num_output: 1000
    kernel_size: 1
    weight_filler {
      type: "gaussian"
      std: 0.01
    }
    bias_filler {
      type: "constant"
    }
  }
}
layer {
  name: "fc8ave"
  type: "Pooling"
  bottom: "fc8"
  top: "fc8ave"
  pooling_param {
    pool: AVE
    global_pooling: true
  }
}
layer {
  name: "accuracy"
  type: "Accuracy"
  bottom: "fc8ave"
  bottom: "label"
  top: "accuracy"
  include {
    phase: TEST
  }
}
layer {
  name: "loss"
  type: "SoftmaxWithLoss"
  bottom: "fc8ave"
  bottom: "label"
  top: "loss"
}
I0304 16:00:15.825901  5857 layer_factory.hpp:76] Creating layer data
I0304 16:00:15.825968  5857 net.cpp:106] Creating Layer data
I0304 16:00:15.825973  5857 net.cpp:411] data -> data
I0304 16:00:15.825985  5857 net.cpp:411] data -> label
I0304 16:00:15.826606  5863 db_lmdb.cpp:38] Opened lmdb /home/share/storage/datasets/imagenet/144px/lmdb/ilsvrc12_128_val_lmdb
I0304 16:00:15.827139  5857 data_layer.cpp:41] output data size: 50,3,128,128
I0304 16:00:15.841969  5857 net.cpp:150] Setting up data
I0304 16:00:15.841990  5857 net.cpp:157] Top shape: 50 3 128 128 (2457600)
I0304 16:00:15.841995  5857 net.cpp:157] Top shape: 50 (50)
I0304 16:00:15.841997  5857 net.cpp:165] Memory required for data: 9830600
I0304 16:00:15.842002  5857 layer_factory.hpp:76] Creating layer label_data_1_split
I0304 16:00:15.842015  5857 net.cpp:106] Creating Layer label_data_1_split
I0304 16:00:15.842018  5857 net.cpp:454] label_data_1_split <- label
I0304 16:00:15.842025  5857 net.cpp:411] label_data_1_split -> label_data_1_split_0
I0304 16:00:15.842031  5857 net.cpp:411] label_data_1_split -> label_data_1_split_1
I0304 16:00:15.842083  5857 net.cpp:150] Setting up label_data_1_split
I0304 16:00:15.842088  5857 net.cpp:157] Top shape: 50 (50)
I0304 16:00:15.842092  5857 net.cpp:157] Top shape: 50 (50)
I0304 16:00:15.842093  5857 net.cpp:165] Memory required for data: 9831000
I0304 16:00:15.842095  5857 layer_factory.hpp:76] Creating layer conv1
I0304 16:00:15.842103  5857 net.cpp:106] Creating Layer conv1
I0304 16:00:15.842105  5857 net.cpp:454] conv1 <- data
I0304 16:00:15.842109  5857 net.cpp:411] conv1 -> conv1
I0304 16:00:15.845715  5857 net.cpp:150] Setting up conv1
I0304 16:00:15.845729  5857 net.cpp:157] Top shape: 50 96 30 30 (4320000)
I0304 16:00:15.845732  5857 net.cpp:165] Memory required for data: 27111000
I0304 16:00:15.845741  5857 layer_factory.hpp:76] Creating layer relu1
I0304 16:00:15.845748  5857 net.cpp:106] Creating Layer relu1
I0304 16:00:15.845751  5857 net.cpp:454] relu1 <- conv1
I0304 16:00:15.845754  5857 net.cpp:411] relu1 -> relu1
I0304 16:00:15.845778  5857 net.cpp:150] Setting up relu1
I0304 16:00:15.845783  5857 net.cpp:157] Top shape: 50 96 30 30 (4320000)
I0304 16:00:15.845785  5857 net.cpp:165] Memory required for data: 44391000
I0304 16:00:15.845788  5857 layer_factory.hpp:76] Creating layer pool1
I0304 16:00:15.845793  5857 net.cpp:106] Creating Layer pool1
I0304 16:00:15.845795  5857 net.cpp:454] pool1 <- relu1
I0304 16:00:15.845799  5857 net.cpp:411] pool1 -> pool1
I0304 16:00:15.846076  5857 net.cpp:150] Setting up pool1
I0304 16:00:15.846084  5857 net.cpp:157] Top shape: 50 96 15 15 (1080000)
I0304 16:00:15.846099  5857 net.cpp:165] Memory required for data: 48711000
I0304 16:00:15.846101  5857 layer_factory.hpp:76] Creating layer conv2
I0304 16:00:15.846109  5857 net.cpp:106] Creating Layer conv2
I0304 16:00:15.846112  5857 net.cpp:454] conv2 <- pool1
I0304 16:00:15.846117  5857 net.cpp:411] conv2 -> conv2
I0304 16:00:15.855841  5857 net.cpp:150] Setting up conv2
I0304 16:00:15.855860  5857 net.cpp:157] Top shape: 50 256 15 15 (2880000)
I0304 16:00:15.855864  5857 net.cpp:165] Memory required for data: 60231000
I0304 16:00:15.855873  5857 layer_factory.hpp:76] Creating layer relu2
I0304 16:00:15.855880  5857 net.cpp:106] Creating Layer relu2
I0304 16:00:15.855885  5857 net.cpp:454] relu2 <- conv2
I0304 16:00:15.855890  5857 net.cpp:411] relu2 -> relu2
I0304 16:00:15.855916  5857 net.cpp:150] Setting up relu2
I0304 16:00:15.855921  5857 net.cpp:157] Top shape: 50 256 15 15 (2880000)
I0304 16:00:15.855923  5857 net.cpp:165] Memory required for data: 71751000
I0304 16:00:15.855926  5857 layer_factory.hpp:76] Creating layer pool2
I0304 16:00:15.855931  5857 net.cpp:106] Creating Layer pool2
I0304 16:00:15.855932  5857 net.cpp:454] pool2 <- relu2
I0304 16:00:15.855936  5857 net.cpp:411] pool2 -> pool2
I0304 16:00:15.856294  5857 net.cpp:150] Setting up pool2
I0304 16:00:15.856302  5857 net.cpp:157] Top shape: 50 256 7 7 (627200)
I0304 16:00:15.856313  5857 net.cpp:165] Memory required for data: 74259800
I0304 16:00:15.856317  5857 layer_factory.hpp:76] Creating layer conv3
I0304 16:00:15.856324  5857 net.cpp:106] Creating Layer conv3
I0304 16:00:15.856326  5857 net.cpp:454] conv3 <- pool2
I0304 16:00:15.856330  5857 net.cpp:411] conv3 -> conv3
I0304 16:00:15.878813  5857 net.cpp:150] Setting up conv3
I0304 16:00:15.878839  5857 net.cpp:157] Top shape: 50 384 7 7 (940800)
I0304 16:00:15.878842  5857 net.cpp:165] Memory required for data: 78023000
I0304 16:00:15.878851  5857 layer_factory.hpp:76] Creating layer relu3
I0304 16:00:15.878859  5857 net.cpp:106] Creating Layer relu3
I0304 16:00:15.878870  5857 net.cpp:454] relu3 <- conv3
I0304 16:00:15.878875  5857 net.cpp:411] relu3 -> relu3
I0304 16:00:15.878900  5857 net.cpp:150] Setting up relu3
I0304 16:00:15.878903  5857 net.cpp:157] Top shape: 50 384 7 7 (940800)
I0304 16:00:15.878906  5857 net.cpp:165] Memory required for data: 81786200
I0304 16:00:15.878907  5857 layer_factory.hpp:76] Creating layer conv4
I0304 16:00:15.878914  5857 net.cpp:106] Creating Layer conv4
I0304 16:00:15.878916  5857 net.cpp:454] conv4 <- relu3
I0304 16:00:15.878921  5857 net.cpp:411] conv4 -> conv4
I0304 16:00:15.896363  5857 net.cpp:150] Setting up conv4
I0304 16:00:15.896390  5857 net.cpp:157] Top shape: 50 384 7 7 (940800)
I0304 16:00:15.896394  5857 net.cpp:165] Memory required for data: 85549400
I0304 16:00:15.896400  5857 layer_factory.hpp:76] Creating layer relu4
I0304 16:00:15.896409  5857 net.cpp:106] Creating Layer relu4
I0304 16:00:15.896411  5857 net.cpp:454] relu4 <- conv4
I0304 16:00:15.896427  5857 net.cpp:411] relu4 -> relu4
I0304 16:00:15.896455  5857 net.cpp:150] Setting up relu4
I0304 16:00:15.896459  5857 net.cpp:157] Top shape: 50 384 7 7 (940800)
I0304 16:00:15.896469  5857 net.cpp:165] Memory required for data: 89312600
I0304 16:00:15.896471  5857 layer_factory.hpp:76] Creating layer conv5
I0304 16:00:15.896488  5857 net.cpp:106] Creating Layer conv5
I0304 16:00:15.896491  5857 net.cpp:454] conv5 <- relu4
I0304 16:00:15.896494  5857 net.cpp:411] conv5 -> conv5
I0304 16:00:15.908680  5857 net.cpp:150] Setting up conv5
I0304 16:00:15.908707  5857 net.cpp:157] Top shape: 50 256 7 7 (627200)
I0304 16:00:15.908710  5857 net.cpp:165] Memory required for data: 91821400
I0304 16:00:15.908720  5857 layer_factory.hpp:76] Creating layer relu5
I0304 16:00:15.908740  5857 net.cpp:106] Creating Layer relu5
I0304 16:00:15.908745  5857 net.cpp:454] relu5 <- conv5
I0304 16:00:15.908749  5857 net.cpp:411] relu5 -> relu5
I0304 16:00:15.908773  5857 net.cpp:150] Setting up relu5
I0304 16:00:15.908777  5857 net.cpp:157] Top shape: 50 256 7 7 (627200)
I0304 16:00:15.908779  5857 net.cpp:165] Memory required for data: 94330200
I0304 16:00:15.908807  5857 layer_factory.hpp:76] Creating layer pool5
I0304 16:00:15.908824  5857 net.cpp:106] Creating Layer pool5
I0304 16:00:15.908826  5857 net.cpp:454] pool5 <- relu5
I0304 16:00:15.908829  5857 net.cpp:411] pool5 -> pool5
I0304 16:00:15.908989  5857 net.cpp:150] Setting up pool5
I0304 16:00:15.908995  5857 net.cpp:157] Top shape: 50 256 3 3 (115200)
I0304 16:00:15.909008  5857 net.cpp:165] Memory required for data: 94791000
I0304 16:00:15.909009  5857 layer_factory.hpp:76] Creating layer fc6
I0304 16:00:15.909018  5857 net.cpp:106] Creating Layer fc6
I0304 16:00:15.909019  5857 net.cpp:454] fc6 <- pool5
I0304 16:00:15.909032  5857 net.cpp:411] fc6 -> fc6
I0304 16:00:16.018306  5857 net.cpp:150] Setting up fc6
I0304 16:00:16.018326  5857 net.cpp:157] Top shape: 50 2048 3 3 (921600)
I0304 16:00:16.018328  5857 net.cpp:165] Memory required for data: 98477400
I0304 16:00:16.018334  5857 layer_factory.hpp:76] Creating layer relu6
I0304 16:00:16.018343  5857 net.cpp:106] Creating Layer relu6
I0304 16:00:16.018347  5857 net.cpp:454] relu6 <- fc6
I0304 16:00:16.018362  5857 net.cpp:411] relu6 -> relu6
I0304 16:00:16.018386  5857 net.cpp:150] Setting up relu6
I0304 16:00:16.018393  5857 net.cpp:157] Top shape: 50 2048 3 3 (921600)
I0304 16:00:16.018394  5857 net.cpp:165] Memory required for data: 102163800
I0304 16:00:16.018396  5857 layer_factory.hpp:76] Creating layer drop6
I0304 16:00:16.018401  5857 net.cpp:106] Creating Layer drop6
I0304 16:00:16.018404  5857 net.cpp:454] drop6 <- relu6
I0304 16:00:16.018405  5857 net.cpp:411] drop6 -> drop6
I0304 16:00:16.018445  5857 net.cpp:150] Setting up drop6
I0304 16:00:16.018448  5857 net.cpp:157] Top shape: 50 2048 3 3 (921600)
I0304 16:00:16.018450  5857 net.cpp:165] Memory required for data: 105850200
I0304 16:00:16.018451  5857 layer_factory.hpp:76] Creating layer fc7
I0304 16:00:16.018457  5857 net.cpp:106] Creating Layer fc7
I0304 16:00:16.018460  5857 net.cpp:454] fc7 <- drop6
I0304 16:00:16.018463  5857 net.cpp:411] fc7 -> fc7
I0304 16:00:16.115586  5857 net.cpp:150] Setting up fc7
I0304 16:00:16.115607  5857 net.cpp:157] Top shape: 50 2048 3 3 (921600)
I0304 16:00:16.115609  5857 net.cpp:165] Memory required for data: 109536600
I0304 16:00:16.115617  5857 layer_factory.hpp:76] Creating layer relu7
I0304 16:00:16.115633  5857 net.cpp:106] Creating Layer relu7
I0304 16:00:16.115638  5857 net.cpp:454] relu7 <- fc7
I0304 16:00:16.115643  5857 net.cpp:411] relu7 -> relu7
I0304 16:00:16.115669  5857 net.cpp:150] Setting up relu7
I0304 16:00:16.115674  5857 net.cpp:157] Top shape: 50 2048 3 3 (921600)
I0304 16:00:16.115675  5857 net.cpp:165] Memory required for data: 113223000
I0304 16:00:16.115677  5857 layer_factory.hpp:76] Creating layer drop7
I0304 16:00:16.115681  5857 net.cpp:106] Creating Layer drop7
I0304 16:00:16.115684  5857 net.cpp:454] drop7 <- relu7
I0304 16:00:16.115686  5857 net.cpp:411] drop7 -> drop7
I0304 16:00:16.115713  5857 net.cpp:150] Setting up drop7
I0304 16:00:16.115717  5857 net.cpp:157] Top shape: 50 2048 3 3 (921600)
I0304 16:00:16.115727  5857 net.cpp:165] Memory required for data: 116909400
I0304 16:00:16.115730  5857 layer_factory.hpp:76] Creating layer fc7_bottleneck
I0304 16:00:16.115746  5857 net.cpp:106] Creating Layer fc7_bottleneck
I0304 16:00:16.115747  5857 net.cpp:454] fc7_bottleneck <- drop7
I0304 16:00:16.115751  5857 net.cpp:411] fc7_bottleneck -> fc7_bottleneck
I0304 16:00:16.140831  5857 net.cpp:150] Setting up fc7_bottleneck
I0304 16:00:16.140849  5857 net.cpp:157] Top shape: 50 512 3 3 (230400)
I0304 16:00:16.140852  5857 net.cpp:165] Memory required for data: 117831000
I0304 16:00:16.140859  5857 layer_factory.hpp:76] Creating layer relu8
I0304 16:00:16.140877  5857 net.cpp:106] Creating Layer relu8
I0304 16:00:16.140880  5857 net.cpp:454] relu8 <- fc7_bottleneck
I0304 16:00:16.140885  5857 net.cpp:411] relu8 -> relu8
I0304 16:00:16.140913  5857 net.cpp:150] Setting up relu8
I0304 16:00:16.140925  5857 net.cpp:157] Top shape: 50 512 3 3 (230400)
I0304 16:00:16.140926  5857 net.cpp:165] Memory required for data: 118752600
I0304 16:00:16.140952  5857 layer_factory.hpp:76] Creating layer drop8
I0304 16:00:16.140967  5857 net.cpp:106] Creating Layer drop8
I0304 16:00:16.140969  5857 net.cpp:454] drop8 <- relu8
I0304 16:00:16.140974  5857 net.cpp:411] drop8 -> drop8
I0304 16:00:16.141013  5857 net.cpp:150] Setting up drop8
I0304 16:00:16.141017  5857 net.cpp:157] Top shape: 50 512 3 3 (230400)
I0304 16:00:16.141027  5857 net.cpp:165] Memory required for data: 119674200
I0304 16:00:16.141029  5857 layer_factory.hpp:76] Creating layer fc8
I0304 16:00:16.141047  5857 net.cpp:106] Creating Layer fc8
I0304 16:00:16.141048  5857 net.cpp:454] fc8 <- drop8
I0304 16:00:16.141052  5857 net.cpp:411] fc8 -> fc8
I0304 16:00:16.153784  5857 net.cpp:150] Setting up fc8
I0304 16:00:16.153800  5857 net.cpp:157] Top shape: 50 1000 3 3 (450000)
I0304 16:00:16.153802  5857 net.cpp:165] Memory required for data: 121474200
I0304 16:00:16.153811  5857 layer_factory.hpp:76] Creating layer fc8ave
I0304 16:00:16.153817  5857 net.cpp:106] Creating Layer fc8ave
I0304 16:00:16.153820  5857 net.cpp:454] fc8ave <- fc8
I0304 16:00:16.153836  5857 net.cpp:411] fc8ave -> fc8ave
I0304 16:00:16.153982  5857 net.cpp:150] Setting up fc8ave
I0304 16:00:16.153988  5857 net.cpp:157] Top shape: 50 1000 1 1 (50000)
I0304 16:00:16.153990  5857 net.cpp:165] Memory required for data: 121674200
I0304 16:00:16.153991  5857 layer_factory.hpp:76] Creating layer fc8ave_fc8ave_0_split
I0304 16:00:16.153996  5857 net.cpp:106] Creating Layer fc8ave_fc8ave_0_split
I0304 16:00:16.153998  5857 net.cpp:454] fc8ave_fc8ave_0_split <- fc8ave
I0304 16:00:16.154001  5857 net.cpp:411] fc8ave_fc8ave_0_split -> fc8ave_fc8ave_0_split_0
I0304 16:00:16.154006  5857 net.cpp:411] fc8ave_fc8ave_0_split -> fc8ave_fc8ave_0_split_1
I0304 16:00:16.154043  5857 net.cpp:150] Setting up fc8ave_fc8ave_0_split
I0304 16:00:16.154047  5857 net.cpp:157] Top shape: 50 1000 1 1 (50000)
I0304 16:00:16.154050  5857 net.cpp:157] Top shape: 50 1000 1 1 (50000)
I0304 16:00:16.154052  5857 net.cpp:165] Memory required for data: 122074200
I0304 16:00:16.154053  5857 layer_factory.hpp:76] Creating layer accuracy
I0304 16:00:16.154060  5857 net.cpp:106] Creating Layer accuracy
I0304 16:00:16.154062  5857 net.cpp:454] accuracy <- fc8ave_fc8ave_0_split_0
I0304 16:00:16.154065  5857 net.cpp:454] accuracy <- label_data_1_split_0
I0304 16:00:16.154069  5857 net.cpp:411] accuracy -> accuracy
…
