…
      mirror: false
      crop_size: 128
      mean_value: 104
      mean_value: 117
      mean_value: 123
      force_color: true
      resize_param {
        prob: 1
        resize_mode: FIT_SMALL_SIZE
        height: 144
        width: 144
        pad_mode: MIRRORED
        pad_value: 104
        pad_value: 117
        pad_value: 124
        interp_mode: LINEAR
        center_object: false
        max_angle: 0
      }
    }
    data_param {
      source: "/local/temporary/imagenet_clc_orig/ilsvrc12_val_lmdb"
      batch_size: 50
      backend: LMDB
    }
  }
  layer {
    name: "conv1"
    type: "Convolution"
    bottom: "data"
    top: "conv1"
    param {
      lr_mult: 1
      decay_mult: 1
    }
    param {
      lr_mult: 2
      decay_mult: 0
    }
    convolution_param {
      num_output: 96
      kernel_size: 11
      stride: 4
      weight_filler {
        type: "gaussian"
        std: 0.01
      }
      bias_filler {
        type: "constant"
      }
    }
  }
  layer {
    name: "relu1"
    type: "ReLU"
    bottom: "conv1"
    top: "relu1"
  }
  layer {
    name: "pool1"
    type: "Pooling"
    bottom: "relu1"
    top: "pool1"
    pooling_param {
      pool: MAX
      kernel_size: 3
      stride: 2
    }
  }
  layer {
    name: "conv2"
    type: "Convolution"
    bottom: "pool1"
    top: "conv2"
    param {
      lr_mult: 1
      decay_mult: 1
    }
    param {
      lr_mult: 2
      decay_mult: 0
    }
    convolution_param {
      num_output: 256
      pad: 2
      kernel_size: 5
      group: 2
      weight_filler {
        type: "gaussian"
        std: 0.01
      }
      bias_filler {
        type: "constant"
      }
    }
  }
  layer {
    name: "relu2"
    type: "ReLU"
    bottom: "conv2"
    top: "relu2"
  }
  layer {
    name: "pool2"
    type: "Pooling"
    bottom: "relu2"
    top: "pool2"
    pooling_param {
      pool: MAX
      kernel_size: 3
      stride: 2
    }
  }
  layer {
    name: "conv3"
    type: "Convolution"
    bottom: "pool2"
    top: "conv3"
    param {
      lr_mult: 1
      decay_mult: 1
    }
    param {
      lr_mult: 2
      decay_mult: 0
    }
    convolution_param {
      num_output: 384
      pad: 1
      kernel_size: 3
      weight_filler {
        type: "gaussian"
        std: 0.01
      }
      bias_filler {
        type: "constant"
      }
    }
  }
  layer {
    name: "relu3"
    type: "ReLU"
    bottom: "conv3"
    top: "relu3"
  }
  layer {
    name: "conv4"
    type: "Convolution"
    bottom: "relu3"
    top: "conv4"
    param {
      lr_mult: 1
      decay_mult: 1
    }
    param {
      lr_mult: 2
      decay_mult: 0
    }
    convolution_param {
      num_output: 384
      pad: 1
      kernel_size: 3
      group: 2
      weight_filler {
        type: "gaussian"
        std: 0.01
      }
      bias_filler {
        type: "constant"
      }
    }
  }
  layer {
    name: "relu4"
    type: "ReLU"
    bottom: "conv4"
    top: "relu4"
  }
  layer {
    name: "conv5"
    type: "Convolution"
    bottom: "relu4"
    top: "conv5"
    param {
      lr_mult: 1
      decay_mult: 1
    }
    param {
      lr_mult: 2
      decay_mult: 0
    }
    convolution_param {
      num_output: 256
      pad: 1
      kernel_size: 3
      group: 2
      weight_filler {
        type: "gaussian"
        std: 0.01
      }
      bias_filler {
        type: "constant"
      }
    }
  }
  layer {
    name: "relu5"
    type: "ReLU"
    bottom: "conv5"
    top: "relu5"
  }
  layer {
    name: "pool5"
    type: "Pooling"
    bottom: "relu5"
    top: "pool5"
    pooling_param {
      pool: MAX
      kernel_size: 3
      stride: 2
    }
  }
  layer {
    name: "fc6"
    type: "InnerProduct"
    bottom: "pool5"
    top: "fc6"
    param {
      lr_mult: 1
      decay_mult: 1
    }
    param {
      lr_mult: 2
      decay_mult: 0
    }
    inner_product_param {
      num_output: 2048
      weight_filler {
        type: "gaussian"
        std: 0.005
      }
      bias_filler {
        type: "constant"
      }
    }
  }
  layer {
    name: "relu6"
    type: "ReLU"
    bottom: "fc6"
    top: "relu6"
  }
  layer {
    name: "drop6"
    type: "Dropout"
    bottom: "relu6"
    top: "drop6"
    dropout_param {
      dropout_ratio: 0.5
    }
  }
  layer {
    name: "fc7"
    type: "InnerProduct"
    bottom: "drop6"
    top: "fc7"
    param {
      lr_mult: 1
      decay_mult: 1
    }
    param {
      lr_mult: 2
      decay_mult: 0
    }
    inner_product_param {
      num_output: 2048
      weight_filler {
        type: "gaussian"
        std: 0.005
      }
      bias_filler {
        type: "constant"
      }
    }
  }
  layer {
    name: "relu7"
    type: "ReLU"
    bottom: "fc7"
    top: "relu7"
  }
  layer {
    name: "drop7"
    type: "Dropout"
    bottom: "relu7"
    top: "drop7"
    dropout_param {
      dropout_ratio: 0.5
    }
  }
  layer {
    name: "fc8"
    type: "InnerProduct"
    bottom: "drop7"
    top: "fc8"
    param {
      lr_mult: 1
      decay_mult: 1
    }
    param {
      lr_mult: 2
      decay_mult: 0
    }
    inner_product_param {
      num_output: 1000
      weight_filler {
        type: "gaussian"
        std: 0.01
      }
      bias_filler {
        type: "constant"
      }
    }
  }
  layer {
    name: "accuracy"
    type: "Accuracy"
    bottom: "fc8"
    bottom: "label"
    top: "accuracy"
    include {
      phase: TEST
    }
  }
  layer {
    name: "loss"
    type: "SoftmaxWithLoss"
    bottom: "fc8"
    bottom: "label"
    top: "loss"
  }
}
test_initialization: false
iter_size: 1
type: "AdaGrad"
I0123 16:32:46.139077  5582 solver.cpp:85] Creating training net specified in net_param.
I0123 16:32:46.139261  5582 net.cpp:322] The NetState phase (0) differed from the phase (1) specified by a rule in layer data
I0123 16:32:46.139298  5582 net.cpp:322] The NetState phase (0) differed from the phase (1) specified by a rule in layer accuracy
I0123 16:32:46.139708  5582 net.cpp:49] Initializing net from parameters: 
name: "CaffeNet"
state {
  phase: TRAIN
}
layer {
  name: "data"
  type: "Data"
  top: "data"
  top: "label"
  include {
    phase: TRAIN
  }
  transform_param {
    scale: 0.04
    mirror: true
    crop_size: 128
    mean_value: 104
    mean_value: 117
    mean_value: 124
    force_color: true
    resize_param {
      prob: 1
      resize_mode: FIT_SMALL_SIZE
      height: 144
      width: 144
      pad_mode: MIRRORED
      pad_value: 104
      pad_value: 117
      pad_value: 124
      interp_mode: LINEAR
      center_object: false
      max_angle: 0
    }
  }
  data_param {
    source: "/local/temporary/imagenet_clc_orig/ilsvrc12_train_shuffle_lmdb"
    batch_size: 128
    backend: LMDB
  }
}
layer {
  name: "conv1"
  type: "Convolution"
  bottom: "data"
  top: "conv1"
  param {
    lr_mult: 1
    decay_mult: 1
  }
  param {
    lr_mult: 2
    decay_mult: 0
  }
  convolution_param {
    num_output: 96
    kernel_size: 11
    stride: 4
    weight_filler {
      type: "gaussian"
      std: 0.01
    }
    bias_filler {
      type: "constant"
    }
  }
}
layer {
  name: "relu1"
  type: "ReLU"
  bottom: "conv1"
  top: "relu1"
}
layer {
  name: "pool1"
  type: "Pooling"
  bottom: "relu1"
  top: "pool1"
  pooling_param {
    pool: MAX
    kernel_size: 3
    stride: 2
  }
}
layer {
  name: "conv2"
  type: "Convolution"
  bottom: "pool1"
  top: "conv2"
  param {
    lr_mult: 1
    decay_mult: 1
  }
  param {
    lr_mult: 2
    decay_mult: 0
  }
  convolution_param {
    num_output: 256
    pad: 2
    kernel_size: 5
    group: 2
    weight_filler {
      type: "gaussian"
      std: 0.01
    }
    bias_filler {
      type: "constant"
    }
  }
}
layer {
  name: "relu2"
  type: "ReLU"
  bottom: "conv2"
  top: "relu2"
}
layer {
  name: "pool2"
  type: "Pooling"
  bottom: "relu2"
  top: "pool2"
  pooling_param {
    pool: MAX
    kernel_size: 3
    stride: 2
  }
}
layer {
  name: "conv3"
  type: "Convolution"
  bottom: "pool2"
  top: "conv3"
  param {
    lr_mult: 1
    decay_mult: 1
  }
  param {
    lr_mult: 2
    decay_mult: 0
  }
  convolution_param {
    num_output: 384
    pad: 1
    kernel_size: 3
    weight_filler {
      type: "gaussian"
      std: 0.01
    }
    bias_filler {
      type: "constant"
    }
  }
}
layer {
  name: "relu3"
  type: "ReLU"
  bottom: "conv3"
  top: "relu3"
}
layer {
  name: "conv4"
  type: "Convolution"
  bottom: "relu3"
  top: "conv4"
  param {
    lr_mult: 1
    decay_mult: 1
  }
  param {
    lr_mult: 2
    decay_mult: 0
  }
  convolution_param {
    num_output: 384
    pad: 1
    kernel_size: 3
    group: 2
    weight_filler {
      type: "gaussian"
      std: 0.01
    }
    bias_filler {
      type: "constant"
    }
  }
}
layer {
  name: "relu4"
  type: "ReLU"
  bottom: "conv4"
  top: "relu4"
}
layer {
  name: "conv5"
  type: "Convolution"
  bottom: "relu4"
  top: "conv5"
  param {
    lr_mult: 1
    decay_mult: 1
  }
  param {
    lr_mult: 2
    decay_mult: 0
  }
  convolution_param {
    num_output: 256
    pad: 1
    kernel_size: 3
    group: 2
    weight_filler {
      type: "gaussian"
      std: 0.01
    }
    bias_filler {
      type: "constant"
    }
  }
}
layer {
  name: "relu5"
  type: "ReLU"
  bottom: "conv5"
  top: "relu5"
}
layer {
  name: "pool5"
  type: "Pooling"
  bottom: "relu5"
  top: "pool5"
  pooling_param {
    pool: MAX
    kernel_size: 3
    stride: 2
  }
}
layer {
  name: "fc6"
  type: "InnerProduct"
  bottom: "pool5"
  top: "fc6"
  param {
    lr_mult: 1
    decay_mult: 1
  }
  param {
    lr_mult: 2
    decay_mult: 0
  }
  inner_product_param {
    num_output: 2048
    weight_filler {
      type: "gaussian"
      std: 0.005
    }
    bias_filler {
      type: "constant"
    }
  }
}
layer {
  name: "relu6"
  type: "ReLU"
  bottom: "fc6"
  top: "relu6"
}
layer {
  name: "drop6"
  type: "Dropout"
  bottom: "relu6"
  top: "drop6"
  dropout_param {
    dropout_ratio: 0.5
  }
}
layer {
  name: "fc7"
  type: "InnerProduct"
  bottom: "drop6"
  top: "fc7"
  param {
    lr_mult: 1
    decay_mult: 1
  }
  param {
    lr_mult: 2
    decay_mult: 0
  }
  inner_product_param {
    num_output: 2048
    weight_filler {
      type: "gaussian"
      std: 0.005
    }
    bias_filler {
      type: "constant"
    }
  }
}
layer {
  name: "relu7"
  type: "ReLU"
  bottom: "fc7"
  top: "relu7"
}
layer {
  name: "drop7"
  type: "Dropout"
  bottom: "relu7"
  top: "drop7"
  dropout_param {
    dropout_ratio: 0.5
  }
}
layer {
  name: "fc8"
  type: "InnerProduct"
  bottom: "drop7"
  top: "fc8"
  param {
    lr_mult: 1
    decay_mult: 1
  }
  param {
    lr_mult: 2
    decay_mult: 0
  }
  inner_product_param {
    num_output: 1000
    weight_filler {
      type: "gaussian"
      std: 0.01
    }
    bias_filler {
      type: "constant"
    }
  }
}
layer {
  name: "loss"
  type: "SoftmaxWithLoss"
  bottom: "fc8"
  bottom: "label"
  top: "loss"
}
I0123 16:32:46.139910  5582 layer_factory.hpp:76] Creating layer data
I0123 16:32:46.140848  5582 net.cpp:106] Creating Layer data
I0123 16:32:46.140895  5582 net.cpp:411] data -> data
I0123 16:32:46.140961  5582 net.cpp:411] data -> label
I0123 16:32:46.141846  5619 db_lmdb.cpp:38] Opened lmdb /local/temporary/imagenet_clc_orig/ilsvrc12_train_shuffle_lmdb
I0123 16:32:46.158579  5582 data_layer.cpp:41] output data size: 128,3,128,128
I0123 16:32:46.208987  5582 net.cpp:150] Setting up data
I0123 16:32:46.209033  5582 net.cpp:157] Top shape: 128 3 128 128 (6291456)
I0123 16:32:46.209039  5582 net.cpp:157] Top shape: 128 (128)
I0123 16:32:46.209043  5582 net.cpp:165] Memory required for data: 25166336
I0123 16:32:46.209053  5582 layer_factory.hpp:76] Creating layer conv1
I0123 16:32:46.209072  5582 net.cpp:106] Creating Layer conv1
I0123 16:32:46.209077  5582 net.cpp:454] conv1 <- data
I0123 16:32:46.209092  5582 net.cpp:411] conv1 -> conv1
I0123 16:32:46.325683  5582 cudnn_conv_layer.cpp:194] Reallocating workspace storage: 4356
I0123 16:32:46.325837  5582 net.cpp:150] Setting up conv1
I0123 16:32:46.325851  5582 net.cpp:157] Top shape: 128 96 30 30 (11059200)
I0123 16:32:46.325855  5582 net.cpp:165] Memory required for data: 69403136
I0123 16:32:46.325875  5582 layer_factory.hpp:76] Creating layer relu1
I0123 16:32:46.325887  5582 net.cpp:106] Creating Layer relu1
I0123 16:32:46.325891  5582 net.cpp:454] relu1 <- conv1
I0123 16:32:46.325897  5582 net.cpp:411] relu1 -> relu1
I0123 16:32:46.326094  5582 net.cpp:150] Setting up relu1
I0123 16:32:46.326103  5582 net.cpp:157] Top shape: 128 96 30 30 (11059200)
I0123 16:32:46.326107  5582 net.cpp:165] Memory required for data: 113639936
I0123 16:32:46.326113  5582 layer_factory.hpp:76] Creating layer pool1
I0123 16:32:46.326119  5582 net.cpp:106] Creating Layer pool1
I0123 16:32:46.326122  5582 net.cpp:454] pool1 <- relu1
I0123 16:32:46.326128  5582 net.cpp:411] pool1 -> pool1
I0123 16:32:46.326447  5582 net.cpp:150] Setting up pool1
I0123 16:32:46.326457  5582 net.cpp:157] Top shape: 128 96 15 15 (2764800)
I0123 16:32:46.326460  5582 net.cpp:165] Memory required for data: 124699136
I0123 16:32:46.326464  5582 layer_factory.hpp:76] Creating layer conv2
I0123 16:32:46.326489  5582 net.cpp:106] Creating Layer conv2
I0123 16:32:46.326493  5582 net.cpp:454] conv2 <- pool1
I0123 16:32:46.326503  5582 net.cpp:411] conv2 -> conv2
I0123 16:32:46.336460  5582 cudnn_conv_layer.cpp:194] Reallocating workspace storage: 28800
I0123 16:32:46.336504  5582 net.cpp:150] Setting up conv2
I0123 16:32:46.336510  5582 net.cpp:157] Top shape: 128 256 15 15 (7372800)
I0123 16:32:46.336513  5582 net.cpp:165] Memory required for data: 154190336
I0123 16:32:46.336536  5582 layer_factory.hpp:76] Creating layer relu2
I0123 16:32:46.336542  5582 net.cpp:106] Creating Layer relu2
I0123 16:32:46.336546  5582 net.cpp:454] relu2 <- conv2
I0123 16:32:46.336557  5582 net.cpp:411] relu2 -> relu2
I0123 16:32:46.336736  5582 net.cpp:150] Setting up relu2
I0123 16:32:46.336745  5582 net.cpp:157] Top shape: 128 256 15 15 (7372800)
I0123 16:32:46.336750  5582 net.cpp:165] Memory required for data: 183681536
I0123 16:32:46.336753  5582 layer_factory.hpp:76] Creating layer pool2
I0123 16:32:46.336760  5582 net.cpp:106] Creating Layer pool2
I0123 16:32:46.336765  5582 net.cpp:454] pool2 <- relu2
I0123 16:32:46.336771  5582 net.cpp:411] pool2 -> pool2
I0123 16:32:46.337085  5582 net.cpp:150] Setting up pool2
I0123 16:32:46.337095  5582 net.cpp:157] Top shape: 128 256 7 7 (1605632)
I0123 16:32:46.337110  5582 net.cpp:165] Memory required for data: 190104064
I0123 16:32:46.337112  5582 layer_factory.hpp:76] Creating layer conv3
I0123 16:32:46.337133  5582 net.cpp:106] Creating Layer conv3
I0123 16:32:46.337136  5582 net.cpp:454] conv3 <- pool2
I0123 16:32:46.337141  5582 net.cpp:411] conv3 -> conv3
I0123 16:32:46.361461  5582 net.cpp:150] Setting up conv3
I0123 16:32:46.361487  5582 net.cpp:157] Top shape: 128 384 7 7 (2408448)
I0123 16:32:46.361490  5582 net.cpp:165] Memory required for data: 199737856
I0123 16:32:46.361503  5582 layer_factory.hpp:76] Creating layer relu3
I0123 16:32:46.361510  5582 net.cpp:106] Creating Layer relu3
I0123 16:32:46.361515  5582 net.cpp:454] relu3 <- conv3
I0123 16:32:46.361531  5582 net.cpp:411] relu3 -> relu3
I0123 16:32:46.361886  5582 net.cpp:150] Setting up relu3
I0123 16:32:46.361909  5582 net.cpp:157] Top shape: 128 384 7 7 (2408448)
I0123 16:32:46.361913  5582 net.cpp:165] Memory required for data: 209371648
I0123 16:32:46.361928  5582 layer_factory.hpp:76] Creating layer conv4
I0123 16:32:46.361950  5582 net.cpp:106] Creating Layer conv4
I0123 16:32:46.361953  5582 net.cpp:454] conv4 <- relu3
I0123 16:32:46.361959  5582 net.cpp:411] conv4 -> conv4
I0123 16:32:46.381078  5582 net.cpp:150] Setting up conv4
I0123 16:32:46.381091  5582 net.cpp:157] Top shape: 128 384 7 7 (2408448)
I0123 16:32:46.381106  5582 net.cpp:165] Memory required for data: 219005440
I0123 16:32:46.381114  5582 layer_factory.hpp:76] Creating layer relu4
I0123 16:32:46.381120  5582 net.cpp:106] Creating Layer relu4
I0123 16:32:46.381126  5582 net.cpp:454] relu4 <- conv4
I0123 16:32:46.381131  5582 net.cpp:411] relu4 -> relu4
I0123 16:32:46.381330  5582 net.cpp:150] Setting up relu4
I0123 16:32:46.381340  5582 net.cpp:157] Top shape: 128 384 7 7 (2408448)
I0123 16:32:46.381342  5582 net.cpp:165] Memory required for data: 228639232
I0123 16:32:46.381350  5582 layer_factory.hpp:76] Creating layer conv5
I0123 16:32:46.381368  5582 net.cpp:106] Creating Layer conv5
I0123 16:32:46.381372  5582 net.cpp:454] conv5 <- relu4
I0123 16:32:46.381378  5582 net.cpp:411] conv5 -> conv5
I0123 16:32:46.395030  5582 net.cpp:150] Setting up conv5
I0123 16:32:46.395041  5582 net.cpp:157] Top shape: 128 256 7 7 (1605632)
I0123 16:32:46.395056  5582 net.cpp:165] Memory required for data: 235061760
I0123 16:32:46.395066  5582 layer_factory.hpp:76] Creating layer relu5
I0123 16:32:46.395071  5582 net.cpp:106] Creating Layer relu5
I0123 16:32:46.395081  5582 net.cpp:454] relu5 <- conv5
I0123 16:32:46.395087  5582 net.cpp:411] relu5 -> relu5
I0123 16:32:46.395303  5582 net.cpp:150] Setting up relu5
I0123 16:32:46.395313  5582 net.cpp:157] Top shape: 128 256 7 7 (1605632)
I0123 16:32:46.395315  5582 net.cpp:165] Memory required for data: 241484288
I0123 16:32:46.395320  5582 layer_factory.hpp:76] Creating layer pool5
I0123 16:32:46.395329  5582 net.cpp:106] Creating Layer pool5
I0123 16:32:46.395334  5582 net.cpp:454] pool5 <- relu5
I0123 16:32:46.395339  5582 net.cpp:411] pool5 -> pool5
I0123 16:32:46.395684  5582 net.cpp:150] Setting up pool5
I0123 16:32:46.395695  5582 net.cpp:157] Top shape: 128 256 3 3 (294912)
I0123 16:32:46.395709  5582 net.cpp:165] Memory required for data: 242663936
I0123 16:32:46.395712  5582 layer_factory.hpp:76] Creating layer fc6
I0123 16:32:46.395722  5582 net.cpp:106] Creating Layer fc6
I0123 16:32:46.395726  5582 net.cpp:454] fc6 <- pool5
I0123 16:32:46.395732  5582 net.cpp:411] fc6 -> fc6
I0123 16:32:46.524087  5582 net.cpp:150] Setting up fc6
I0123 16:32:46.524107  5582 net.cpp:157] Top shape: 128 2048 (262144)
I0123 16:32:46.524122  5582 net.cpp:165] Memory required for data: 243712512
I0123 16:32:46.524130  5582 layer_factory.hpp:76] Creating layer relu6
I0123 16:32:46.524138  5582 net.cpp:106] Creating Layer relu6
I0123 16:32:46.524142  5582 net.cpp:454] relu6 <- fc6
I0123 16:32:46.524154  5582 net.cpp:411] relu6 -> relu6
I0123 16:32:46.524399  5582 net.cpp:150] Setting up relu6
I0123 16:32:46.524410  5582 net.cpp:157] Top shape: 128 2048 (262144)
I0123 16:32:46.524412  5582 net.cpp:165] Memory required for data: 244761088
I0123 16:32:46.524415  5582 layer_factory.hpp:76] Creating layer drop6
I0123 16:32:46.524426  5582 net.cpp:106] Creating Layer drop6
I0123 16:32:46.524432  5582 net.cpp:454] drop6 <- relu6
I0123 16:32:46.524449  5582 net.cpp:411] drop6 -> drop6
I0123 16:32:46.524504  5582 net.cpp:150] Setting up drop6
I0123 16:32:46.524510  5582 net.cpp:157] Top shape: 128 2048 (262144)
I0123 16:32:46.524513  5582 net.cpp:165] Memory required for data: 245809664
I0123 16:32:46.524516  5582 layer_factory.hpp:76] Creating layer fc7
I0123 16:32:46.524523  5582 net.cpp:106] Creating Layer fc7
I0123 16:32:46.524528  5582 net.cpp:454] fc7 <- drop6
I0123 16:32:46.524541  5582 net.cpp:411] fc7 -> fc7
I0123 16:32:46.637151  5582 net.cpp:150] Setting up fc7
I0123 16:32:46.637202  5582 net.cpp:157] Top shape: 128 2048 (262144)
I0123 16:32:46.637207  5582 net.cpp:165] Memory required for data: 246858240
I0123 16:32:46.637215  5582 layer_factory.hpp:76] Creating layer relu7
I0123 16:32:46.637223  5582 net.cpp:106] Creating Layer relu7
I0123 16:32:46.637226  5582 net.cpp:454] relu7 <- fc7
I0123 16:32:46.637233  5582 net.cpp:411] relu7 -> relu7
I0123 16:32:46.637609  5582 net.cpp:150] Setting up relu7
I0123 16:32:46.637632  5582 net.cpp:157] Top shape: 128 2048 (262144)
I0123 16:32:46.637636  5582 net.cpp:165] Memory required for data: 247906816
I0123 16:32:46.637647  5582 layer_factory.hpp:76] Creating layer drop7
I0123 16:32:46.637660  5582 net.cpp:106] Creating Layer drop7
I0123 16:32:46.637663  5582 net.cpp:454] drop7 <- relu7
I0123 16:32:46.637668  5582 net.cpp:411] drop7 -> drop7
I0123 16:32:46.637709  5582 net.cpp:150] Setting up drop7
I0123 16:32:46.637717  5582 net.cpp:157] Top shape: 128 2048 (262144)
I0123 16:32:46.637718  5582 net.cpp:165] Memory required for data: 248955392
I0123 16:32:46.637722  5582 layer_factory.hpp:76] Creating layer fc8
I0123 16:32:46.637728  5582 net.cpp:106] Creating Layer fc8
I0123 16:32:46.637735  5582 net.cpp:454] fc8 <- drop7
I0123 16:32:46.637751  5582 net.cpp:411] fc8 -> fc8
I0123 16:32:46.692162  5582 net.cpp:150] Setting up fc8
I0123 16:32:46.692188  5582 net.cpp:157] Top shape: 128 1000 (128000)
I0123 16:32:46.692191  5582 net.cpp:165] Memory required for data: 249467392
I0123 16:32:46.692199  5582 layer_factory.hpp:76] Creating layer loss
I0123 16:32:46.692209  5582 net.cpp:106] Creating Layer loss
I0123 16:32:46.692211  5582 net.cpp:454] loss <- fc8
I0123 16:32:46.692215  5582 net.cpp:454] loss <- label
I0123 16:32:46.692224  5582 net.cpp:411] loss -> loss
I0123 16:32:46.692234  5582 layer_factory.hpp:76] Creating layer loss
…
  }
  transform_param {
    scale: 0.04
    mirror: false
    crop_size: 128
    mean_value: 104
    mean_value: 117
    mean_value: 123
    force_color: true
    resize_param {
      prob: 1
      resize_mode: FIT_SMALL_SIZE
      height: 144
      width: 144
      pad_mode: MIRRORED
      pad_value: 104
      pad_value: 117
      pad_value: 124
      interp_mode: LINEAR
      center_object: false
      max_angle: 0
    }
  }
  data_param {
    source: "/local/temporary/imagenet_clc_orig/ilsvrc12_val_lmdb"
    batch_size: 50
    backend: LMDB
  }
}
layer {
  name: "conv1"
  type: "Convolution"
  bottom: "data"
  top: "conv1"
  param {
    lr_mult: 1
    decay_mult: 1
  }
  param {
    lr_mult: 2
    decay_mult: 0
  }
  convolution_param {
    num_output: 96
    kernel_size: 11
    stride: 4
    weight_filler {
      type: "gaussian"
      std: 0.01
    }
    bias_filler {
      type: "constant"
    }
  }
}
layer {
  name: "relu1"
  type: "ReLU"
  bottom: "conv1"
  top: "relu1"
}
layer {
  name: "pool1"
  type: "Pooling"
  bottom: "relu1"
  top: "pool1"
  pooling_param {
    pool: MAX
    kernel_size: 3
    stride: 2
  }
}
layer {
  name: "conv2"
  type: "Convolution"
  bottom: "pool1"
  top: "conv2"
  param {
    lr_mult: 1
    decay_mult: 1
  }
  param {
    lr_mult: 2
    decay_mult: 0
  }
  convolution_param {
    num_output: 256
    pad: 2
    kernel_size: 5
    group: 2
    weight_filler {
      type: "gaussian"
      std: 0.01
    }
    bias_filler {
      type: "constant"
    }
  }
}
layer {
  name: "relu2"
  type: "ReLU"
  bottom: "conv2"
  top: "relu2"
}
layer {
  name: "pool2"
  type: "Pooling"
  bottom: "relu2"
  top: "pool2"
  pooling_param {
    pool: MAX
    kernel_size: 3
    stride: 2
  }
}
layer {
  name: "conv3"
  type: "Convolution"
  bottom: "pool2"
  top: "conv3"
  param {
    lr_mult: 1
    decay_mult: 1
  }
  param {
    lr_mult: 2
    decay_mult: 0
  }
  convolution_param {
    num_output: 384
    pad: 1
    kernel_size: 3
    weight_filler {
      type: "gaussian"
      std: 0.01
    }
    bias_filler {
      type: "constant"
    }
  }
}
layer {
  name: "relu3"
  type: "ReLU"
  bottom: "conv3"
  top: "relu3"
}
layer {
  name: "conv4"
  type: "Convolution"
  bottom: "relu3"
  top: "conv4"
  param {
    lr_mult: 1
    decay_mult: 1
  }
  param {
    lr_mult: 2
    decay_mult: 0
  }
  convolution_param {
    num_output: 384
    pad: 1
    kernel_size: 3
    group: 2
    weight_filler {
      type: "gaussian"
      std: 0.01
    }
    bias_filler {
      type: "constant"
    }
  }
}
layer {
  name: "relu4"
  type: "ReLU"
  bottom: "conv4"
  top: "relu4"
}
layer {
  name: "conv5"
  type: "Convolution"
  bottom: "relu4"
  top: "conv5"
  param {
    lr_mult: 1
    decay_mult: 1
  }
  param {
    lr_mult: 2
    decay_mult: 0
  }
  convolution_param {
    num_output: 256
    pad: 1
    kernel_size: 3
    group: 2
    weight_filler {
      type: "gaussian"
      std: 0.01
    }
    bias_filler {
      type: "constant"
    }
  }
}
layer {
  name: "relu5"
  type: "ReLU"
  bottom: "conv5"
  top: "relu5"
}
layer {
  name: "pool5"
  type: "Pooling"
  bottom: "relu5"
  top: "pool5"
  pooling_param {
    pool: MAX
    kernel_size: 3
    stride: 2
  }
}
layer {
  name: "fc6"
  type: "InnerProduct"
  bottom: "pool5"
  top: "fc6"
  param {
    lr_mult: 1
    decay_mult: 1
  }
  param {
    lr_mult: 2
    decay_mult: 0
  }
  inner_product_param {
    num_output: 2048
    weight_filler {
      type: "gaussian"
      std: 0.005
    }
    bias_filler {
      type: "constant"
    }
  }
}
layer {
  name: "relu6"
  type: "ReLU"
  bottom: "fc6"
  top: "relu6"
}
layer {
  name: "drop6"
  type: "Dropout"
  bottom: "relu6"
  top: "drop6"
  dropout_param {
    dropout_ratio: 0.5
  }
}
layer {
  name: "fc7"
  type: "InnerProduct"
  bottom: "drop6"
  top: "fc7"
  param {
    lr_mult: 1
    decay_mult: 1
  }
  param {
    lr_mult: 2
    decay_mult: 0
  }
  inner_product_param {
    num_output: 2048
    weight_filler {
      type: "gaussian"
      std: 0.005
    }
    bias_filler {
      type: "constant"
    }
  }
}
layer {
  name: "relu7"
  type: "ReLU"
  bottom: "fc7"
  top: "relu7"
}
layer {
  name: "drop7"
  type: "Dropout"
  bottom: "relu7"
  top: "drop7"
  dropout_param {
    dropout_ratio: 0.5
  }
}
layer {
  name: "fc8"
  type: "InnerProduct"
  bottom: "drop7"
  top: "fc8"
  param {
    lr_mult: 1
    decay_mult: 1
  }
  param {
    lr_mult: 2
    decay_mult: 0
  }
  inner_product_param {
    num_output: 1000
    weight_filler {
      type: "gaussian"
      std: 0.01
    }
    bias_filler {
      type: "constant"
    }
  }
}
layer {
  name: "accuracy"
  type: "Accuracy"
  bottom: "fc8"
  bottom: "label"
  top: "accuracy"
  include {
    phase: TEST
  }
}
layer {
  name: "loss"
  type: "SoftmaxWithLoss"
  bottom: "fc8"
  bottom: "label"
  top: "loss"
}
I0123 16:32:46.694106  5582 layer_factory.hpp:76] Creating layer data
I0123 16:32:46.694216  5582 net.cpp:106] Creating Layer data
I0123 16:32:46.694247  5582 net.cpp:411] data -> data
I0123 16:32:46.694257  5582 net.cpp:411] data -> label
I0123 16:32:46.695502  5621 db_lmdb.cpp:38] Opened lmdb /local/temporary/imagenet_clc_orig/ilsvrc12_val_lmdb
I0123 16:32:46.698011  5582 data_layer.cpp:41] output data size: 50,3,128,128
I0123 16:32:46.716706  5582 net.cpp:150] Setting up data
I0123 16:32:46.716740  5582 net.cpp:157] Top shape: 50 3 128 128 (2457600)
I0123 16:32:46.716745  5582 net.cpp:157] Top shape: 50 (50)
I0123 16:32:46.716748  5582 net.cpp:165] Memory required for data: 9830600
I0123 16:32:46.716753  5582 layer_factory.hpp:76] Creating layer label_data_1_split
I0123 16:32:46.716773  5582 net.cpp:106] Creating Layer label_data_1_split
I0123 16:32:46.716778  5582 net.cpp:454] label_data_1_split <- label
I0123 16:32:46.716784  5582 net.cpp:411] label_data_1_split -> label_data_1_split_0
I0123 16:32:46.716796  5582 net.cpp:411] label_data_1_split -> label_data_1_split_1
I0123 16:32:46.716859  5582 net.cpp:150] Setting up label_data_1_split
I0123 16:32:46.716867  5582 net.cpp:157] Top shape: 50 (50)
I0123 16:32:46.716871  5582 net.cpp:157] Top shape: 50 (50)
I0123 16:32:46.716874  5582 net.cpp:165] Memory required for data: 9831000
I0123 16:32:46.716876  5582 layer_factory.hpp:76] Creating layer conv1
I0123 16:32:46.716888  5582 net.cpp:106] Creating Layer conv1
I0123 16:32:46.716893  5582 net.cpp:454] conv1 <- data
I0123 16:32:46.716910  5582 net.cpp:411] conv1 -> conv1
I0123 16:32:46.719069  5582 cudnn_conv_layer.cpp:194] Reallocating workspace storage: 4356
I0123 16:32:46.719115  5582 net.cpp:150] Setting up conv1
I0123 16:32:46.719135  5582 net.cpp:157] Top shape: 50 96 30 30 (4320000)
I0123 16:32:46.719140  5582 net.cpp:165] Memory required for data: 27111000
I0123 16:32:46.719162  5582 layer_factory.hpp:76] Creating layer relu1
I0123 16:32:46.719175  5582 net.cpp:106] Creating Layer relu1
I0123 16:32:46.719178  5582 net.cpp:454] relu1 <- conv1
I0123 16:32:46.719183  5582 net.cpp:411] relu1 -> relu1
I0123 16:32:46.719496  5582 net.cpp:150] Setting up relu1
I0123 16:32:46.719507  5582 net.cpp:157] Top shape: 50 96 30 30 (4320000)
I0123 16:32:46.719512  5582 net.cpp:165] Memory required for data: 44391000
I0123 16:32:46.719516  5582 layer_factory.hpp:76] Creating layer pool1
I0123 16:32:46.719526  5582 net.cpp:106] Creating Layer pool1
I0123 16:32:46.719529  5582 net.cpp:454] pool1 <- relu1
I0123 16:32:46.719535  5582 net.cpp:411] pool1 -> pool1
I0123 16:32:46.719738  5582 net.cpp:150] Setting up pool1
I0123 16:32:46.719748  5582 net.cpp:157] Top shape: 50 96 15 15 (1080000)
I0123 16:32:46.719751  5582 net.cpp:165] Memory required for data: 48711000
I0123 16:32:46.719754  5582 layer_factory.hpp:76] Creating layer conv2
I0123 16:32:46.719763  5582 net.cpp:106] Creating Layer conv2
I0123 16:32:46.719766  5582 net.cpp:454] conv2 <- pool1
I0123 16:32:46.719772  5582 net.cpp:411] conv2 -> conv2
I0123 16:32:46.729807  5582 cudnn_conv_layer.cpp:194] Reallocating workspace storage: 28800
I0123 16:32:46.729863  5582 net.cpp:150] Setting up conv2
I0123 16:32:46.729869  5582 net.cpp:157] Top shape: 50 256 15 15 (2880000)
I0123 16:32:46.729872  5582 net.cpp:165] Memory required for data: 60231000
I0123 16:32:46.729882  5582 layer_factory.hpp:76] Creating layer relu2
I0123 16:32:46.729887  5582 net.cpp:106] Creating Layer relu2
I0123 16:32:46.729892  5582 net.cpp:454] relu2 <- conv2
I0123 16:32:46.729897  5582 net.cpp:411] relu2 -> relu2
I0123 16:32:46.730093  5582 net.cpp:150] Setting up relu2
I0123 16:32:46.730101  5582 net.cpp:157] Top shape: 50 256 15 15 (2880000)
I0123 16:32:46.730104  5582 net.cpp:165] Memory required for data: 71751000
I0123 16:32:46.730108  5582 layer_factory.hpp:76] Creating layer pool2
I0123 16:32:46.730113  5582 net.cpp:106] Creating Layer pool2
I0123 16:32:46.730118  5582 net.cpp:454] pool2 <- relu2
I0123 16:32:46.730136  5582 net.cpp:411] pool2 -> pool2
I0123 16:32:46.730461  5582 net.cpp:150] Setting up pool2
I0123 16:32:46.730484  5582 net.cpp:157] Top shape: 50 256 7 7 (627200)
I0123 16:32:46.730486  5582 net.cpp:165] Memory required for data: 74259800
I0123 16:32:46.730500  5582 layer_factory.hpp:76] Creating layer conv3
I0123 16:32:46.730520  5582 net.cpp:106] Creating Layer conv3
I0123 16:32:46.730525  5582 net.cpp:454] conv3 <- pool2
I0123 16:32:46.730531  5582 net.cpp:411] conv3 -> conv3
I0123 16:32:46.755653  5582 cudnn_conv_layer.cpp:194] Reallocating workspace storage: 27648
I0123 16:32:46.755686  5582 net.cpp:150] Setting up conv3
I0123 16:32:46.755693  5582 net.cpp:157] Top shape: 50 384 7 7 (940800)
I0123 16:32:46.755697  5582 net.cpp:165] Memory required for data: 78023000
I0123 16:32:46.755717  5582 layer_factory.hpp:76] Creating layer relu3
I0123 16:32:46.755738  5582 net.cpp:106] Creating Layer relu3
I0123 16:32:46.755740  5582 net.cpp:454] relu3 <- conv3
I0123 16:32:46.755760  5582 net.cpp:411] relu3 -> relu3
I0123 16:32:46.755965  5582 net.cpp:150] Setting up relu3
I0123 16:32:46.755975  5582 net.cpp:157] Top shape: 50 384 7 7 (940800)
I0123 16:32:46.755978  5582 net.cpp:165] Memory required for data: 81786200
I0123 16:32:46.755982  5582 layer_factory.hpp:76] Creating layer conv4
I0123 16:32:46.756006  5582 net.cpp:106] Creating Layer conv4
I0123 16:32:46.756021  5582 net.cpp:454] conv4 <- relu3
I0123 16:32:46.756027  5582 net.cpp:411] conv4 -> conv4
I0123 16:32:46.775768  5582 net.cpp:150] Setting up conv4
I0123 16:32:46.775781  5582 net.cpp:157] Top shape: 50 384 7 7 (940800)
I0123 16:32:46.775796  5582 net.cpp:165] Memory required for data: 85549400
I0123 16:32:46.775802  5582 layer_factory.hpp:76] Creating layer relu4
I0123 16:32:46.775810  5582 net.cpp:106] Creating Layer relu4
I0123 16:32:46.775812  5582 net.cpp:454] relu4 <- conv4
I0123 16:32:46.775817  5582 net.cpp:411] relu4 -> relu4
I0123 16:32:46.776010  5582 net.cpp:150] Setting up relu4
I0123 16:32:46.776031  5582 net.cpp:157] Top shape: 50 384 7 7 (940800)
I0123 16:32:46.776034  5582 net.cpp:165] Memory required for data: 89312600
I0123 16:32:46.776037  5582 layer_factory.hpp:76] Creating layer conv5
I0123 16:32:46.776046  5582 net.cpp:106] Creating Layer conv5
I0123 16:32:46.776051  5582 net.cpp:454] conv5 <- relu4
I0123 16:32:46.776069  5582 net.cpp:411] conv5 -> conv5
I0123 16:32:46.789569  5582 net.cpp:150] Setting up conv5
I0123 16:32:46.789582  5582 net.cpp:157] Top shape: 50 256 7 7 (627200)
I0123 16:32:46.789597  5582 net.cpp:165] Memory required for data: 91821400
I0123 16:32:46.789604  5582 layer_factory.hpp:76] Creating layer relu5
I0123 16:32:46.789613  5582 net.cpp:106] Creating Layer relu5
I0123 16:32:46.789616  5582 net.cpp:454] relu5 <- conv5
I0123 16:32:46.789620  5582 net.cpp:411] relu5 -> relu5
I0123 16:32:46.789949  5582 net.cpp:150] Setting up relu5
I0123 16:32:46.789963  5582 net.cpp:157] Top shape: 50 256 7 7 (627200)
I0123 16:32:46.789966  5582 net.cpp:165] Memory required for data: 94330200
I0123 16:32:46.789969  5582 layer_factory.hpp:76] Creating layer pool5
I0123 16:32:46.789976  5582 net.cpp:106] Creating Layer pool5
I0123 16:32:46.789981  5582 net.cpp:454] pool5 <- relu5
I0123 16:32:46.790019  5582 net.cpp:411] pool5 -> pool5
I0123 16:32:46.790246  5582 net.cpp:150] Setting up pool5
I0123 16:32:46.790256  5582 net.cpp:157] Top shape: 50 256 3 3 (115200)
I0123 16:32:46.790261  5582 net.cpp:165] Memory required for data: 94791000
I0123 16:32:46.790266  5582 layer_factory.hpp:76] Creating layer fc6
I0123 16:32:46.790273  5582 net.cpp:106] Creating Layer fc6
I0123 16:32:46.790277  5582 net.cpp:454] fc6 <- pool5
I0123 16:32:46.790282  5582 net.cpp:411] fc6 -> fc6
I0123 16:32:46.922292  5582 net.cpp:150] Setting up fc6
I0123 16:32:46.922327  5582 net.cpp:157] Top shape: 50 2048 (102400)
I0123 16:32:46.922330  5582 net.cpp:165] Memory required for data: 95200600
I0123 16:32:46.922339  5582 layer_factory.hpp:76] Creating layer relu6
I0123 16:32:46.922353  5582 net.cpp:106] Creating Layer relu6
I0123 16:32:46.922356  5582 net.cpp:454] relu6 <- fc6
I0123 16:32:46.922364  5582 net.cpp:411] relu6 -> relu6
I0123 16:32:46.922819  5582 net.cpp:150] Setting up relu6
I0123 16:32:46.922829  5582 net.cpp:157] Top shape: 50 2048 (102400)
I0123 16:32:46.922845  5582 net.cpp:165] Memory required for data: 95610200
I0123 16:32:46.922848  5582 layer_factory.hpp:76] Creating layer drop6
I0123 16:32:46.922855  5582 net.cpp:106] Creating Layer drop6
I0123 16:32:46.922858  5582 net.cpp:454] drop6 <- relu6
I0123 16:32:46.922863  5582 net.cpp:411] drop6 -> drop6
I0123 16:32:46.922904  5582 net.cpp:150] Setting up drop6
I0123 16:32:46.922910  5582 net.cpp:157] Top shape: 50 2048 (102400)
I0123 16:32:46.922914  5582 net.cpp:165] Memory required for data: 96019800
I0123 16:32:46.922916  5582 layer_factory.hpp:76] Creating layer fc7
I0123 16:32:46.922925  5582 net.cpp:106] Creating Layer fc7
I0123 16:32:46.922930  5582 net.cpp:454] fc7 <- drop6
I0123 16:32:46.922948  5582 net.cpp:411] fc7 -> fc7
I0123 16:32:47.036124  5582 net.cpp:150] Setting up fc7
I0123 16:32:47.036171  5582 net.cpp:157] Top shape: 50 2048 (102400)
I0123 16:32:47.036183  5582 net.cpp:165] Memory required for data: 96429400
I0123 16:32:47.036193  5582 layer_factory.hpp:76] Creating layer relu7
I0123 16:32:47.036203  5582 net.cpp:106] Creating Layer relu7
I0123 16:32:47.036207  5582 net.cpp:454] relu7 <- fc7
I0123 16:32:47.036214  5582 net.cpp:411] relu7 -> relu7
I0123 16:32:47.036491  5582 net.cpp:150] Setting up relu7
I0123 16:32:47.036499  5582 net.cpp:157] Top shape: 50 2048 (102400)
I0123 16:32:47.036502  5582 net.cpp:165] Memory required for data: 96839000
I0123 16:32:47.036512  5582 layer_factory.hpp:76] Creating layer drop7
I0123 16:32:47.036519  5582 net.cpp:106] Creating Layer drop7
I0123 16:32:47.036521  5582 net.cpp:454] drop7 <- relu7
I0123 16:32:47.036528  5582 net.cpp:411] drop7 -> drop7
I0123 16:32:47.036577  5582 net.cpp:150] Setting up drop7
I0123 16:32:47.036582  5582 net.cpp:157] Top shape: 50 2048 (102400)
I0123 16:32:47.036584  5582 net.cpp:165] Memory required for data: 97248600
I0123 16:32:47.036587  5582 layer_factory.hpp:76] Creating layer fc8
I0123 16:32:47.036597  5582 net.cpp:106] Creating Layer fc8
I0123 16:32:47.036599  5582 net.cpp:454] fc8 <- drop7
I0123 16:32:47.036617  5582 net.cpp:411] fc8 -> fc8
I0123 16:32:47.091652  5582 net.cpp:150] Setting up fc8
I0123 16:32:47.091682  5582 net.cpp:157] Top shape: 50 1000 (50000)
I0123 16:32:47.091686  5582 net.cpp:165] Memory required for data: 97448600
I0123 16:32:47.091693  5582 layer_factory.hpp:76] Creating layer fc8_fc8_0_split
I0123 16:32:47.091701  5582 net.cpp:106] Creating Layer fc8_fc8_0_split
I0123 16:32:47.091706  5582 net.cpp:454] fc8_fc8_0_split <- fc8
I0123 16:32:47.091711  5582 net.cpp:411] fc8_fc8_0_split -> fc8_fc8_0_split_0
I0123 16:32:47.091732  5582 net.cpp:411] fc8_fc8_0_split -> fc8_fc8_0_split_1
I0123 16:32:47.091792  5582 net.cpp:150] Setting up fc8_fc8_0_split
I0123 16:32:47.091799  5582 net.cpp:157] Top shape: 50 1000 (50000)
I0123 16:32:47.091804  5582 net.cpp:157] Top shape: 50 1000 (50000)
I0123 16:32:47.091805  5582 net.cpp:165] Memory required for data: 97848600
I0123 16:32:47.091809  5582 layer_factory.hpp:76] Creating layer accuracy
I0123 16:32:47.091840  5582 net.cpp:106] Creating Layer accuracy
I0123 16:32:47.091845  5582 net.cpp:454] accuracy <- fc8_fc8_0_split_0
I0123 16:32:47.091850  5582 net.cpp:454] accuracy <- label_data_1_split_0
I0123 16:32:47.091855  5582 net.cpp:411] accuracy -> accuracy
…
