…
      mirror: false
      crop_size: 128
      mean_value: 104
      mean_value: 117
      mean_value: 123
      force_color: true
      resize_param {
        prob: 1
        resize_mode: FIT_SMALL_SIZE
        height: 144
        width: 144
        pad_mode: MIRRORED
        pad_value: 104
        pad_value: 117
        pad_value: 124
        interp_mode: LINEAR
        center_object: false
        max_angle: 0
      }
    }
    data_param {
      source: "/home/old-ufo/datasets/imagenet/ilsvrc12_val_lmdb"
      batch_size: 250
      backend: LMDB
    }
  }
  layer {
    name: "conv1"
    type: "Convolution"
    bottom: "data"
    top: "conv1"
    param {
      lr_mult: 1
      decay_mult: 1
    }
    param {
      lr_mult: 2
      decay_mult: 0
    }
    convolution_param {
      num_output: 96
      kernel_size: 11
      stride: 4
      weight_filler {
        type: "gaussian"
        std: 0.01
      }
      bias_filler {
        type: "constant"
      }
    }
  }
  layer {
    name: "relu1"
    type: "ReLU"
    bottom: "conv1"
    top: "relu1"
  }
  layer {
    name: "pool1"
    type: "Pooling"
    bottom: "relu1"
    top: "pool1"
    pooling_param {
      pool: MAX
      kernel_size: 3
      stride: 2
    }
  }
  layer {
    name: "conv2"
    type: "Convolution"
    bottom: "pool1"
    top: "conv2"
    param {
      lr_mult: 1
      decay_mult: 1
    }
    param {
      lr_mult: 2
      decay_mult: 0
    }
    convolution_param {
      num_output: 256
      pad: 2
      kernel_size: 5
      group: 2
      weight_filler {
        type: "gaussian"
        std: 0.01
      }
      bias_filler {
        type: "constant"
      }
    }
  }
  layer {
    name: "relu2"
    type: "ReLU"
    bottom: "conv2"
    top: "conv2"
  }
  layer {
    name: "pool2"
    type: "Pooling"
    bottom: "conv2"
    top: "pool2"
    pooling_param {
      pool: MAX
      kernel_size: 3
      stride: 2
    }
  }
  layer {
    name: "conv3"
    type: "Convolution"
    bottom: "pool2"
    top: "conv3"
    param {
      lr_mult: 1
      decay_mult: 1
    }
    param {
      lr_mult: 2
      decay_mult: 0
    }
    convolution_param {
      num_output: 384
      pad: 1
      kernel_size: 3
      weight_filler {
        type: "gaussian"
        std: 0.01
      }
      bias_filler {
        type: "constant"
      }
    }
  }
  layer {
    name: "relu3"
    type: "ReLU"
    bottom: "conv3"
    top: "conv3"
  }
  layer {
    name: "conv4"
    type: "Convolution"
    bottom: "conv3"
    top: "conv4"
    param {
      lr_mult: 1
      decay_mult: 1
    }
    param {
      lr_mult: 2
      decay_mult: 0
    }
    convolution_param {
      num_output: 384
      pad: 1
      kernel_size: 3
      group: 2
      weight_filler {
        type: "gaussian"
        std: 0.01
      }
      bias_filler {
        type: "constant"
      }
    }
  }
  layer {
    name: "relu4"
    type: "ReLU"
    bottom: "conv4"
    top: "conv4"
  }
  layer {
    name: "conv5"
    type: "Convolution"
    bottom: "conv4"
    top: "conv5"
    param {
      lr_mult: 1
      decay_mult: 1
    }
    param {
      lr_mult: 2
      decay_mult: 0
    }
    convolution_param {
      num_output: 256
      pad: 1
      kernel_size: 3
      group: 2
      weight_filler {
        type: "gaussian"
        std: 0.01
      }
      bias_filler {
        type: "constant"
      }
    }
  }
  layer {
    name: "relu5"
    type: "ReLU"
    bottom: "conv5"
    top: "conv5"
  }
  layer {
    name: "pool5"
    type: "Pooling"
    bottom: "conv5"
    top: "pool5"
    pooling_param {
      pool: MAX
      kernel_size: 3
      stride: 2
    }
  }
  layer {
    name: "fc6"
    type: "InnerProduct"
    bottom: "pool5"
    top: "fc6"
    param {
      lr_mult: 1
      decay_mult: 1
    }
    param {
      lr_mult: 2
      decay_mult: 0
    }
    inner_product_param {
      num_output: 2048
      weight_filler {
        type: "gaussian"
        std: 0.005
      }
      bias_filler {
        type: "constant"
      }
    }
  }
  layer {
    name: "relu6"
    type: "ReLU"
    bottom: "fc6"
    top: "fc6"
  }
  layer {
    name: "drop6"
    type: "Dropout"
    bottom: "fc6"
    top: "fc6"
    dropout_param {
      dropout_ratio: 0.5
    }
  }
  layer {
    name: "fc7"
    type: "InnerProduct"
    bottom: "fc6"
    top: "fc7"
    param {
      lr_mult: 1
      decay_mult: 1
    }
    param {
      lr_mult: 2
      decay_mult: 0
    }
    inner_product_param {
      num_output: 2048
      weight_filler {
        type: "gaussian"
        std: 0.005
      }
      bias_filler {
        type: "constant"
      }
    }
  }
  layer {
    name: "relu7"
    type: "ReLU"
    bottom: "fc7"
    top: "fc7"
  }
  layer {
    name: "drop7"
    type: "Dropout"
    bottom: "fc7"
    top: "fc7"
    dropout_param {
      dropout_ratio: 0.5
    }
  }
  layer {
    name: "fc8"
    type: "InnerProduct"
    bottom: "fc7"
    top: "fc8"
    param {
      lr_mult: 1
      decay_mult: 1
    }
    param {
      lr_mult: 2
      decay_mult: 0
    }
    inner_product_param {
      num_output: 1000
      weight_filler {
        type: "gaussian"
        std: 0.01
      }
      bias_filler {
        type: "constant"
      }
    }
  }
  layer {
    name: "accuracy"
    type: "Accuracy"
    bottom: "fc8"
    bottom: "label"
    top: "accuracy"
    include {
      phase: TEST
    }
  }
  layer {
    name: "loss"
    type: "SoftmaxWithLoss"
    bottom: "fc8"
    bottom: "label"
    top: "loss"
  }
}
test_initialization: false
average_loss: 20
iter_size: 1
momentum2: 0.999
type: "Adam"
I0124 12:41:11.224367 27399 solver.cpp:86] Creating training net specified in net_param.
I0124 12:41:11.224516 27399 net.cpp:322] The NetState phase (0) differed from the phase (1) specified by a rule in layer data
I0124 12:41:11.224542 27399 net.cpp:322] The NetState phase (0) differed from the phase (1) specified by a rule in layer accuracy
I0124 12:41:11.224745 27399 net.cpp:49] Initializing net from parameters: 
name: "CaffeNet"
state {
  phase: TRAIN
}
layer {
  name: "data"
  type: "Data"
  top: "data"
  top: "label"
  include {
    phase: TRAIN
  }
  transform_param {
    scale: 0.04
    mirror: true
    crop_size: 128
    mean_value: 104
    mean_value: 117
    mean_value: 124
    force_color: true
    resize_param {
      prob: 1
      resize_mode: FIT_SMALL_SIZE
      height: 144
      width: 144
      pad_mode: MIRRORED
      pad_value: 104
      pad_value: 117
      pad_value: 124
      interp_mode: LINEAR
      center_object: false
      max_angle: 0
    }
  }
  data_param {
    source: "/home/old-ufo/datasets/imagenet/ilsvrc12_train_shuffle_lmdb"
    batch_size: 256
    backend: LMDB
  }
}
layer {
  name: "conv1"
  type: "Convolution"
  bottom: "data"
  top: "conv1"
  param {
    lr_mult: 1
    decay_mult: 1
  }
  param {
    lr_mult: 2
    decay_mult: 0
  }
  convolution_param {
    num_output: 96
    kernel_size: 11
    stride: 4
    weight_filler {
      type: "gaussian"
      std: 0.01
    }
    bias_filler {
      type: "constant"
    }
  }
}
layer {
  name: "relu1"
  type: "ReLU"
  bottom: "conv1"
  top: "relu1"
}
layer {
  name: "pool1"
  type: "Pooling"
  bottom: "relu1"
  top: "pool1"
  pooling_param {
    pool: MAX
    kernel_size: 3
    stride: 2
  }
}
layer {
  name: "conv2"
  type: "Convolution"
  bottom: "pool1"
  top: "conv2"
  param {
    lr_mult: 1
    decay_mult: 1
  }
  param {
    lr_mult: 2
    decay_mult: 0
  }
  convolution_param {
    num_output: 256
    pad: 2
    kernel_size: 5
    group: 2
    weight_filler {
      type: "gaussian"
      std: 0.01
    }
    bias_filler {
      type: "constant"
    }
  }
}
layer {
  name: "relu2"
  type: "ReLU"
  bottom: "conv2"
  top: "conv2"
}
layer {
  name: "pool2"
  type: "Pooling"
  bottom: "conv2"
  top: "pool2"
  pooling_param {
    pool: MAX
    kernel_size: 3
    stride: 2
  }
}
layer {
  name: "conv3"
  type: "Convolution"
  bottom: "pool2"
  top: "conv3"
  param {
    lr_mult: 1
    decay_mult: 1
  }
  param {
    lr_mult: 2
    decay_mult: 0
  }
  convolution_param {
    num_output: 384
    pad: 1
    kernel_size: 3
    weight_filler {
      type: "gaussian"
      std: 0.01
    }
    bias_filler {
      type: "constant"
    }
  }
}
layer {
  name: "relu3"
  type: "ReLU"
  bottom: "conv3"
  top: "conv3"
}
layer {
  name: "conv4"
  type: "Convolution"
  bottom: "conv3"
  top: "conv4"
  param {
    lr_mult: 1
    decay_mult: 1
  }
  param {
    lr_mult: 2
    decay_mult: 0
  }
  convolution_param {
    num_output: 384
    pad: 1
    kernel_size: 3
    group: 2
    weight_filler {
      type: "gaussian"
      std: 0.01
    }
    bias_filler {
      type: "constant"
    }
  }
}
layer {
  name: "relu4"
  type: "ReLU"
  bottom: "conv4"
  top: "conv4"
}
layer {
  name: "conv5"
  type: "Convolution"
  bottom: "conv4"
  top: "conv5"
  param {
    lr_mult: 1
    decay_mult: 1
  }
  param {
    lr_mult: 2
    decay_mult: 0
  }
  convolution_param {
    num_output: 256
    pad: 1
    kernel_size: 3
    group: 2
    weight_filler {
      type: "gaussian"
      std: 0.01
    }
    bias_filler {
      type: "constant"
    }
  }
}
layer {
  name: "relu5"
  type: "ReLU"
  bottom: "conv5"
  top: "conv5"
}
layer {
  name: "pool5"
  type: "Pooling"
  bottom: "conv5"
  top: "pool5"
  pooling_param {
    pool: MAX
    kernel_size: 3
    stride: 2
  }
}
layer {
  name: "fc6"
  type: "InnerProduct"
  bottom: "pool5"
  top: "fc6"
  param {
    lr_mult: 1
    decay_mult: 1
  }
  param {
    lr_mult: 2
    decay_mult: 0
  }
  inner_product_param {
    num_output: 2048
    weight_filler {
      type: "gaussian"
      std: 0.005
    }
    bias_filler {
      type: "constant"
    }
  }
}
layer {
  name: "relu6"
  type: "ReLU"
  bottom: "fc6"
  top: "fc6"
}
layer {
  name: "drop6"
  type: "Dropout"
  bottom: "fc6"
  top: "fc6"
  dropout_param {
    dropout_ratio: 0.5
  }
}
layer {
  name: "fc7"
  type: "InnerProduct"
  bottom: "fc6"
  top: "fc7"
  param {
    lr_mult: 1
    decay_mult: 1
  }
  param {
    lr_mult: 2
    decay_mult: 0
  }
  inner_product_param {
    num_output: 2048
    weight_filler {
      type: "gaussian"
      std: 0.005
    }
    bias_filler {
      type: "constant"
    }
  }
}
layer {
  name: "relu7"
  type: "ReLU"
  bottom: "fc7"
  top: "fc7"
}
layer {
  name: "drop7"
  type: "Dropout"
  bottom: "fc7"
  top: "fc7"
  dropout_param {
    dropout_ratio: 0.5
  }
}
layer {
  name: "fc8"
  type: "InnerProduct"
  bottom: "fc7"
  top: "fc8"
  param {
    lr_mult: 1
    decay_mult: 1
  }
  param {
    lr_mult: 2
    decay_mult: 0
  }
  inner_product_param {
    num_output: 1000
    weight_filler {
      type: "gaussian"
      std: 0.01
    }
    bias_filler {
      type: "constant"
    }
  }
}
layer {
  name: "loss"
  type: "SoftmaxWithLoss"
  bottom: "fc8"
  bottom: "label"
  top: "loss"
}
I0124 12:41:11.224874 27399 layer_factory.hpp:76] Creating layer data
I0124 12:41:11.225680 27399 net.cpp:106] Creating Layer data
I0124 12:41:11.225692 27399 net.cpp:411] data -> data
I0124 12:41:11.225759 27399 net.cpp:411] data -> label
I0124 12:41:11.227219 27403 db_lmdb.cpp:38] Opened lmdb /home/old-ufo/datasets/imagenet/ilsvrc12_train_shuffle_lmdb
I0124 12:41:11.241104 27399 data_layer.cpp:41] output data size: 256,3,128,128
I0124 12:41:11.309856 27399 net.cpp:150] Setting up data
I0124 12:41:11.309890 27399 net.cpp:157] Top shape: 256 3 128 128 (12582912)
I0124 12:41:11.309900 27399 net.cpp:157] Top shape: 256 (256)
I0124 12:41:11.309906 27399 net.cpp:165] Memory required for data: 50332672
I0124 12:41:11.309918 27399 layer_factory.hpp:76] Creating layer conv1
I0124 12:41:11.309937 27399 net.cpp:106] Creating Layer conv1
I0124 12:41:11.309942 27399 net.cpp:454] conv1 <- data
I0124 12:41:11.309959 27399 net.cpp:411] conv1 -> conv1
I0124 12:41:11.492379 27399 net.cpp:150] Setting up conv1
I0124 12:41:11.492408 27399 net.cpp:157] Top shape: 256 96 30 30 (22118400)
I0124 12:41:11.492413 27399 net.cpp:165] Memory required for data: 138806272
I0124 12:41:11.492437 27399 layer_factory.hpp:76] Creating layer relu1
I0124 12:41:11.492460 27399 net.cpp:106] Creating Layer relu1
I0124 12:41:11.492465 27399 net.cpp:454] relu1 <- conv1
I0124 12:41:11.492472 27399 net.cpp:411] relu1 -> relu1
I0124 12:41:11.493185 27399 net.cpp:150] Setting up relu1
I0124 12:41:11.493198 27399 net.cpp:157] Top shape: 256 96 30 30 (22118400)
I0124 12:41:11.493202 27399 net.cpp:165] Memory required for data: 227279872
I0124 12:41:11.493207 27399 layer_factory.hpp:76] Creating layer pool1
I0124 12:41:11.493216 27399 net.cpp:106] Creating Layer pool1
I0124 12:41:11.493221 27399 net.cpp:454] pool1 <- relu1
I0124 12:41:11.493227 27399 net.cpp:411] pool1 -> pool1
I0124 12:41:11.493945 27399 net.cpp:150] Setting up pool1
I0124 12:41:11.493958 27399 net.cpp:157] Top shape: 256 96 15 15 (5529600)
I0124 12:41:11.493963 27399 net.cpp:165] Memory required for data: 249398272
I0124 12:41:11.493968 27399 layer_factory.hpp:76] Creating layer conv2
I0124 12:41:11.493980 27399 net.cpp:106] Creating Layer conv2
I0124 12:41:11.493984 27399 net.cpp:454] conv2 <- pool1
I0124 12:41:11.493990 27399 net.cpp:411] conv2 -> conv2
I0124 12:41:11.509901 27399 net.cpp:150] Setting up conv2
I0124 12:41:11.509928 27399 net.cpp:157] Top shape: 256 256 15 15 (14745600)
I0124 12:41:11.509933 27399 net.cpp:165] Memory required for data: 308380672
I0124 12:41:11.509950 27399 layer_factory.hpp:76] Creating layer relu2
I0124 12:41:11.509961 27399 net.cpp:106] Creating Layer relu2
I0124 12:41:11.509968 27399 net.cpp:454] relu2 <- conv2
I0124 12:41:11.509976 27399 net.cpp:397] relu2 -> conv2 (in-place)
I0124 12:41:11.510702 27399 net.cpp:150] Setting up relu2
I0124 12:41:11.510715 27399 net.cpp:157] Top shape: 256 256 15 15 (14745600)
I0124 12:41:11.510720 27399 net.cpp:165] Memory required for data: 367363072
I0124 12:41:11.510725 27399 layer_factory.hpp:76] Creating layer pool2
I0124 12:41:11.510735 27399 net.cpp:106] Creating Layer pool2
I0124 12:41:11.510738 27399 net.cpp:454] pool2 <- conv2
I0124 12:41:11.510746 27399 net.cpp:411] pool2 -> pool2
I0124 12:41:11.511613 27399 net.cpp:150] Setting up pool2
I0124 12:41:11.511626 27399 net.cpp:157] Top shape: 256 256 7 7 (3211264)
I0124 12:41:11.511631 27399 net.cpp:165] Memory required for data: 380208128
I0124 12:41:11.511634 27399 layer_factory.hpp:76] Creating layer conv3
I0124 12:41:11.511646 27399 net.cpp:106] Creating Layer conv3
I0124 12:41:11.511651 27399 net.cpp:454] conv3 <- pool2
I0124 12:41:11.511659 27399 net.cpp:411] conv3 -> conv3
I0124 12:41:11.546068 27399 net.cpp:150] Setting up conv3
I0124 12:41:11.546094 27399 net.cpp:157] Top shape: 256 384 7 7 (4816896)
I0124 12:41:11.546100 27399 net.cpp:165] Memory required for data: 399475712
I0124 12:41:11.546116 27399 layer_factory.hpp:76] Creating layer relu3
I0124 12:41:11.546130 27399 net.cpp:106] Creating Layer relu3
I0124 12:41:11.546136 27399 net.cpp:454] relu3 <- conv3
I0124 12:41:11.546144 27399 net.cpp:397] relu3 -> conv3 (in-place)
I0124 12:41:11.546898 27399 net.cpp:150] Setting up relu3
I0124 12:41:11.546912 27399 net.cpp:157] Top shape: 256 384 7 7 (4816896)
I0124 12:41:11.546916 27399 net.cpp:165] Memory required for data: 418743296
I0124 12:41:11.546941 27399 layer_factory.hpp:76] Creating layer conv4
I0124 12:41:11.546953 27399 net.cpp:106] Creating Layer conv4
I0124 12:41:11.546958 27399 net.cpp:454] conv4 <- conv3
I0124 12:41:11.546967 27399 net.cpp:411] conv4 -> conv4
I0124 12:41:11.575824 27399 net.cpp:150] Setting up conv4
I0124 12:41:11.575853 27399 net.cpp:157] Top shape: 256 384 7 7 (4816896)
I0124 12:41:11.575860 27399 net.cpp:165] Memory required for data: 438010880
I0124 12:41:11.575871 27399 layer_factory.hpp:76] Creating layer relu4
I0124 12:41:11.575883 27399 net.cpp:106] Creating Layer relu4
I0124 12:41:11.575889 27399 net.cpp:454] relu4 <- conv4
I0124 12:41:11.575901 27399 net.cpp:397] relu4 -> conv4 (in-place)
I0124 12:41:11.576655 27399 net.cpp:150] Setting up relu4
I0124 12:41:11.576669 27399 net.cpp:157] Top shape: 256 384 7 7 (4816896)
I0124 12:41:11.576673 27399 net.cpp:165] Memory required for data: 457278464
I0124 12:41:11.576678 27399 layer_factory.hpp:76] Creating layer conv5
I0124 12:41:11.576691 27399 net.cpp:106] Creating Layer conv5
I0124 12:41:11.576696 27399 net.cpp:454] conv5 <- conv4
I0124 12:41:11.576704 27399 net.cpp:411] conv5 -> conv5
I0124 12:41:11.597650 27399 net.cpp:150] Setting up conv5
I0124 12:41:11.597677 27399 net.cpp:157] Top shape: 256 256 7 7 (3211264)
I0124 12:41:11.597682 27399 net.cpp:165] Memory required for data: 470123520
I0124 12:41:11.597704 27399 layer_factory.hpp:76] Creating layer relu5
I0124 12:41:11.597715 27399 net.cpp:106] Creating Layer relu5
I0124 12:41:11.597720 27399 net.cpp:454] relu5 <- conv5
I0124 12:41:11.597728 27399 net.cpp:397] relu5 -> conv5 (in-place)
I0124 12:41:11.598467 27399 net.cpp:150] Setting up relu5
I0124 12:41:11.598480 27399 net.cpp:157] Top shape: 256 256 7 7 (3211264)
I0124 12:41:11.598484 27399 net.cpp:165] Memory required for data: 482968576
I0124 12:41:11.598489 27399 layer_factory.hpp:76] Creating layer pool5
I0124 12:41:11.598496 27399 net.cpp:106] Creating Layer pool5
I0124 12:41:11.598500 27399 net.cpp:454] pool5 <- conv5
I0124 12:41:11.598508 27399 net.cpp:411] pool5 -> pool5
I0124 12:41:11.599329 27399 net.cpp:150] Setting up pool5
I0124 12:41:11.599344 27399 net.cpp:157] Top shape: 256 256 3 3 (589824)
I0124 12:41:11.599347 27399 net.cpp:165] Memory required for data: 485327872
I0124 12:41:11.599352 27399 layer_factory.hpp:76] Creating layer fc6
I0124 12:41:11.599364 27399 net.cpp:106] Creating Layer fc6
I0124 12:41:11.599369 27399 net.cpp:454] fc6 <- pool5
I0124 12:41:11.599377 27399 net.cpp:411] fc6 -> fc6
I0124 12:41:11.767125 27399 net.cpp:150] Setting up fc6
I0124 12:41:11.767153 27399 net.cpp:157] Top shape: 256 2048 (524288)
I0124 12:41:11.767158 27399 net.cpp:165] Memory required for data: 487425024
I0124 12:41:11.767169 27399 layer_factory.hpp:76] Creating layer relu6
I0124 12:41:11.767181 27399 net.cpp:106] Creating Layer relu6
I0124 12:41:11.767187 27399 net.cpp:454] relu6 <- fc6
I0124 12:41:11.767195 27399 net.cpp:397] relu6 -> fc6 (in-place)
I0124 12:41:11.768100 27399 net.cpp:150] Setting up relu6
I0124 12:41:11.768113 27399 net.cpp:157] Top shape: 256 2048 (524288)
I0124 12:41:11.768117 27399 net.cpp:165] Memory required for data: 489522176
I0124 12:41:11.768122 27399 layer_factory.hpp:76] Creating layer drop6
I0124 12:41:11.768133 27399 net.cpp:106] Creating Layer drop6
I0124 12:41:11.768138 27399 net.cpp:454] drop6 <- fc6
I0124 12:41:11.768146 27399 net.cpp:397] drop6 -> fc6 (in-place)
I0124 12:41:11.768182 27399 net.cpp:150] Setting up drop6
I0124 12:41:11.768189 27399 net.cpp:157] Top shape: 256 2048 (524288)
I0124 12:41:11.768193 27399 net.cpp:165] Memory required for data: 491619328
I0124 12:41:11.768198 27399 layer_factory.hpp:76] Creating layer fc7
I0124 12:41:11.768208 27399 net.cpp:106] Creating Layer fc7
I0124 12:41:11.768211 27399 net.cpp:454] fc7 <- fc6
I0124 12:41:11.768218 27399 net.cpp:411] fc7 -> fc7
I0124 12:41:11.917537 27399 net.cpp:150] Setting up fc7
I0124 12:41:11.917565 27399 net.cpp:157] Top shape: 256 2048 (524288)
I0124 12:41:11.917570 27399 net.cpp:165] Memory required for data: 493716480
I0124 12:41:11.917609 27399 layer_factory.hpp:76] Creating layer relu7
I0124 12:41:11.917621 27399 net.cpp:106] Creating Layer relu7
I0124 12:41:11.917628 27399 net.cpp:454] relu7 <- fc7
I0124 12:41:11.917635 27399 net.cpp:397] relu7 -> fc7 (in-place)
I0124 12:41:11.918606 27399 net.cpp:150] Setting up relu7
I0124 12:41:11.918619 27399 net.cpp:157] Top shape: 256 2048 (524288)
I0124 12:41:11.918623 27399 net.cpp:165] Memory required for data: 495813632
I0124 12:41:11.918627 27399 layer_factory.hpp:76] Creating layer drop7
I0124 12:41:11.918637 27399 net.cpp:106] Creating Layer drop7
I0124 12:41:11.918640 27399 net.cpp:454] drop7 <- fc7
I0124 12:41:11.918648 27399 net.cpp:397] drop7 -> fc7 (in-place)
I0124 12:41:11.918680 27399 net.cpp:150] Setting up drop7
I0124 12:41:11.918689 27399 net.cpp:157] Top shape: 256 2048 (524288)
I0124 12:41:11.918692 27399 net.cpp:165] Memory required for data: 497910784
I0124 12:41:11.918695 27399 layer_factory.hpp:76] Creating layer fc8
I0124 12:41:11.918706 27399 net.cpp:106] Creating Layer fc8
I0124 12:41:11.918710 27399 net.cpp:454] fc8 <- fc7
I0124 12:41:11.918715 27399 net.cpp:411] fc8 -> fc8
I0124 12:41:11.991945 27399 net.cpp:150] Setting up fc8
I0124 12:41:11.991973 27399 net.cpp:157] Top shape: 256 1000 (256000)
I0124 12:41:11.991978 27399 net.cpp:165] Memory required for data: 498934784
I0124 12:41:11.991991 27399 layer_factory.hpp:76] Creating layer loss
I0124 12:41:11.992004 27399 net.cpp:106] Creating Layer loss
I0124 12:41:11.992010 27399 net.cpp:454] loss <- fc8
I0124 12:41:11.992017 27399 net.cpp:454] loss <- label
I0124 12:41:11.992025 27399 net.cpp:411] loss -> loss
I0124 12:41:11.992038 27399 layer_factory.hpp:76] Creating layer loss
…
    phase: TEST
  }
  transform_param {
    scale: 0.04
    mirror: false
    crop_size: 128
    mean_value: 104
    mean_value: 117
    mean_value: 123
    force_color: true
    resize_param {
      prob: 1
      resize_mode: FIT_SMALL_SIZE
      height: 144
      width: 144
      pad_mode: MIRRORED
      pad_value: 104
      pad_value: 117
      pad_value: 124
      interp_mode: LINEAR
      center_object: false
      max_angle: 0
    }
  }
  data_param {
    source: "/home/old-ufo/datasets/imagenet/ilsvrc12_val_lmdb"
    batch_size: 250
    backend: LMDB
  }
}
layer {
  name: "conv1"
  type: "Convolution"
  bottom: "data"
  top: "conv1"
  param {
    lr_mult: 1
    decay_mult: 1
  }
  param {
    lr_mult: 2
    decay_mult: 0
  }
  convolution_param {
    num_output: 96
    kernel_size: 11
    stride: 4
    weight_filler {
      type: "gaussian"
      std: 0.01
    }
    bias_filler {
      type: "constant"
    }
  }
}
layer {
  name: "relu1"
  type: "ReLU"
  bottom: "conv1"
  top: "relu1"
}
layer {
  name: "pool1"
  type: "Pooling"
  bottom: "relu1"
  top: "pool1"
  pooling_param {
    pool: MAX
    kernel_size: 3
    stride: 2
  }
}
layer {
  name: "conv2"
  type: "Convolution"
  bottom: "pool1"
  top: "conv2"
  param {
    lr_mult: 1
    decay_mult: 1
  }
  param {
    lr_mult: 2
    decay_mult: 0
  }
  convolution_param {
    num_output: 256
    pad: 2
    kernel_size: 5
    group: 2
    weight_filler {
      type: "gaussian"
      std: 0.01
    }
    bias_filler {
      type: "constant"
    }
  }
}
layer {
  name: "relu2"
  type: "ReLU"
  bottom: "conv2"
  top: "conv2"
}
layer {
  name: "pool2"
  type: "Pooling"
  bottom: "conv2"
  top: "pool2"
  pooling_param {
    pool: MAX
    kernel_size: 3
    stride: 2
  }
}
layer {
  name: "conv3"
  type: "Convolution"
  bottom: "pool2"
  top: "conv3"
  param {
    lr_mult: 1
    decay_mult: 1
  }
  param {
    lr_mult: 2
    decay_mult: 0
  }
  convolution_param {
    num_output: 384
    pad: 1
    kernel_size: 3
    weight_filler {
      type: "gaussian"
      std: 0.01
    }
    bias_filler {
      type: "constant"
    }
  }
}
layer {
  name: "relu3"
  type: "ReLU"
  bottom: "conv3"
  top: "conv3"
}
layer {
  name: "conv4"
  type: "Convolution"
  bottom: "conv3"
  top: "conv4"
  param {
    lr_mult: 1
    decay_mult: 1
  }
  param {
    lr_mult: 2
    decay_mult: 0
  }
  convolution_param {
    num_output: 384
    pad: 1
    kernel_size: 3
    group: 2
    weight_filler {
      type: "gaussian"
      std: 0.01
    }
    bias_filler {
      type: "constant"
    }
  }
}
layer {
  name: "relu4"
  type: "ReLU"
  bottom: "conv4"
  top: "conv4"
}
layer {
  name: "conv5"
  type: "Convolution"
  bottom: "conv4"
  top: "conv5"
  param {
    lr_mult: 1
    decay_mult: 1
  }
  param {
    lr_mult: 2
    decay_mult: 0
  }
  convolution_param {
    num_output: 256
    pad: 1
    kernel_size: 3
    group: 2
    weight_filler {
      type: "gaussian"
      std: 0.01
    }
    bias_filler {
      type: "constant"
    }
  }
}
layer {
  name: "relu5"
  type: "ReLU"
  bottom: "conv5"
  top: "conv5"
}
layer {
  name: "pool5"
  type: "Pooling"
  bottom: "conv5"
  top: "pool5"
  pooling_param {
    pool: MAX
    kernel_size: 3
    stride: 2
  }
}
layer {
  name: "fc6"
  type: "InnerProduct"
  bottom: "pool5"
  top: "fc6"
  param {
    lr_mult: 1
    decay_mult: 1
  }
  param {
    lr_mult: 2
    decay_mult: 0
  }
  inner_product_param {
    num_output: 2048
    weight_filler {
      type: "gaussian"
      std: 0.005
    }
    bias_filler {
      type: "constant"
    }
  }
}
layer {
  name: "relu6"
  type: "ReLU"
  bottom: "fc6"
  top: "fc6"
}
layer {
  name: "drop6"
  type: "Dropout"
  bottom: "fc6"
  top: "fc6"
  dropout_param {
    dropout_ratio: 0.5
  }
}
layer {
  name: "fc7"
  type: "InnerProduct"
  bottom: "fc6"
  top: "fc7"
  param {
    lr_mult: 1
    decay_mult: 1
  }
  param {
    lr_mult: 2
    decay_mult: 0
  }
  inner_product_param {
    num_output: 2048
    weight_filler {
      type: "gaussian"
      std: 0.005
    }
    bias_filler {
      type: "constant"
    }
  }
}
layer {
  name: "relu7"
  type: "ReLU"
  bottom: "fc7"
  top: "fc7"
}
layer {
  name: "drop7"
  type: "Dropout"
  bottom: "fc7"
  top: "fc7"
  dropout_param {
    dropout_ratio: 0.5
  }
}
layer {
  name: "fc8"
  type: "InnerProduct"
  bottom: "fc7"
  top: "fc8"
  param {
    lr_mult: 1
    decay_mult: 1
  }
  param {
    lr_mult: 2
    decay_mult: 0
  }
  inner_product_param {
    num_output: 1000
    weight_filler {
      type: "gaussian"
      std: 0.01
    }
    bias_filler {
      type: "constant"
    }
  }
}
layer {
  name: "accuracy"
  type: "Accuracy"
  bottom: "fc8"
  bottom: "label"
  top: "accuracy"
  include {
    phase: TEST
  }
}
layer {
  name: "loss"
  type: "SoftmaxWithLoss"
  bottom: "fc8"
  bottom: "label"
  top: "loss"
}
I0124 12:41:11.994616 27399 layer_factory.hpp:76] Creating layer data
I0124 12:41:11.994830 27399 net.cpp:106] Creating Layer data
I0124 12:41:11.994848 27399 net.cpp:411] data -> data
I0124 12:41:11.994859 27399 net.cpp:411] data -> label
I0124 12:41:11.995694 27412 db_lmdb.cpp:38] Opened lmdb /home/old-ufo/datasets/imagenet/ilsvrc12_val_lmdb
I0124 12:41:11.998345 27399 data_layer.cpp:41] output data size: 250,3,128,128
I0124 12:41:12.069275 27399 net.cpp:150] Setting up data
I0124 12:41:12.069308 27399 net.cpp:157] Top shape: 250 3 128 128 (12288000)
I0124 12:41:12.069315 27399 net.cpp:157] Top shape: 250 (250)
I0124 12:41:12.069319 27399 net.cpp:165] Memory required for data: 49153000
I0124 12:41:12.069327 27399 layer_factory.hpp:76] Creating layer label_data_1_split
I0124 12:41:12.069341 27399 net.cpp:106] Creating Layer label_data_1_split
I0124 12:41:12.069346 27399 net.cpp:454] label_data_1_split <- label
I0124 12:41:12.069355 27399 net.cpp:411] label_data_1_split -> label_data_1_split_0
I0124 12:41:12.069365 27399 net.cpp:411] label_data_1_split -> label_data_1_split_1
I0124 12:41:12.069535 27399 net.cpp:150] Setting up label_data_1_split
I0124 12:41:12.069545 27399 net.cpp:157] Top shape: 250 (250)
I0124 12:41:12.069550 27399 net.cpp:157] Top shape: 250 (250)
I0124 12:41:12.069553 27399 net.cpp:165] Memory required for data: 49155000
I0124 12:41:12.069557 27399 layer_factory.hpp:76] Creating layer conv1
I0124 12:41:12.069569 27399 net.cpp:106] Creating Layer conv1
I0124 12:41:12.069574 27399 net.cpp:454] conv1 <- data
I0124 12:41:12.069581 27399 net.cpp:411] conv1 -> conv1
I0124 12:41:12.078006 27399 net.cpp:150] Setting up conv1
I0124 12:41:12.078037 27399 net.cpp:157] Top shape: 250 96 30 30 (21600000)
I0124 12:41:12.078042 27399 net.cpp:165] Memory required for data: 135555000
I0124 12:41:12.078058 27399 layer_factory.hpp:76] Creating layer relu1
I0124 12:41:12.078073 27399 net.cpp:106] Creating Layer relu1
I0124 12:41:12.078079 27399 net.cpp:454] relu1 <- conv1
I0124 12:41:12.078086 27399 net.cpp:411] relu1 -> relu1
I0124 12:41:12.078985 27399 net.cpp:150] Setting up relu1
I0124 12:41:12.079002 27399 net.cpp:157] Top shape: 250 96 30 30 (21600000)
I0124 12:41:12.079007 27399 net.cpp:165] Memory required for data: 221955000
I0124 12:41:12.079013 27399 layer_factory.hpp:76] Creating layer pool1
I0124 12:41:12.079025 27399 net.cpp:106] Creating Layer pool1
I0124 12:41:12.079030 27399 net.cpp:454] pool1 <- relu1
I0124 12:41:12.079041 27399 net.cpp:411] pool1 -> pool1
I0124 12:41:12.079972 27399 net.cpp:150] Setting up pool1
I0124 12:41:12.079990 27399 net.cpp:157] Top shape: 250 96 15 15 (5400000)
I0124 12:41:12.079995 27399 net.cpp:165] Memory required for data: 243555000
I0124 12:41:12.080000 27399 layer_factory.hpp:76] Creating layer conv2
I0124 12:41:12.080014 27399 net.cpp:106] Creating Layer conv2
I0124 12:41:12.080019 27399 net.cpp:454] conv2 <- pool1
I0124 12:41:12.080029 27399 net.cpp:411] conv2 -> conv2
I0124 12:41:12.096714 27399 net.cpp:150] Setting up conv2
I0124 12:41:12.096742 27399 net.cpp:157] Top shape: 250 256 15 15 (14400000)
I0124 12:41:12.096748 27399 net.cpp:165] Memory required for data: 301155000
I0124 12:41:12.096762 27399 layer_factory.hpp:76] Creating layer relu2
I0124 12:41:12.096774 27399 net.cpp:106] Creating Layer relu2
I0124 12:41:12.096806 27399 net.cpp:454] relu2 <- conv2
I0124 12:41:12.096817 27399 net.cpp:397] relu2 -> conv2 (in-place)
I0124 12:41:12.097614 27399 net.cpp:150] Setting up relu2
I0124 12:41:12.097625 27399 net.cpp:157] Top shape: 250 256 15 15 (14400000)
I0124 12:41:12.097630 27399 net.cpp:165] Memory required for data: 358755000
I0124 12:41:12.097635 27399 layer_factory.hpp:76] Creating layer pool2
I0124 12:41:12.097645 27399 net.cpp:106] Creating Layer pool2
I0124 12:41:12.097651 27399 net.cpp:454] pool2 <- conv2
I0124 12:41:12.097658 27399 net.cpp:411] pool2 -> pool2
I0124 12:41:12.098532 27399 net.cpp:150] Setting up pool2
I0124 12:41:12.098551 27399 net.cpp:157] Top shape: 250 256 7 7 (3136000)
I0124 12:41:12.098556 27399 net.cpp:165] Memory required for data: 371299000
I0124 12:41:12.098559 27399 layer_factory.hpp:76] Creating layer conv3
I0124 12:41:12.098575 27399 net.cpp:106] Creating Layer conv3
I0124 12:41:12.098580 27399 net.cpp:454] conv3 <- pool2
I0124 12:41:12.098589 27399 net.cpp:411] conv3 -> conv3
I0124 12:41:12.133920 27399 net.cpp:150] Setting up conv3
I0124 12:41:12.133949 27399 net.cpp:157] Top shape: 250 384 7 7 (4704000)
I0124 12:41:12.133954 27399 net.cpp:165] Memory required for data: 390115000
I0124 12:41:12.133968 27399 layer_factory.hpp:76] Creating layer relu3
I0124 12:41:12.133980 27399 net.cpp:106] Creating Layer relu3
I0124 12:41:12.133986 27399 net.cpp:454] relu3 <- conv3
I0124 12:41:12.133994 27399 net.cpp:397] relu3 -> conv3 (in-place)
I0124 12:41:12.134805 27399 net.cpp:150] Setting up relu3
I0124 12:41:12.134819 27399 net.cpp:157] Top shape: 250 384 7 7 (4704000)
I0124 12:41:12.134822 27399 net.cpp:165] Memory required for data: 408931000
I0124 12:41:12.134827 27399 layer_factory.hpp:76] Creating layer conv4
I0124 12:41:12.134840 27399 net.cpp:106] Creating Layer conv4
I0124 12:41:12.134843 27399 net.cpp:454] conv4 <- conv3
I0124 12:41:12.134852 27399 net.cpp:411] conv4 -> conv4
I0124 12:41:12.164448 27399 net.cpp:150] Setting up conv4
I0124 12:41:12.164475 27399 net.cpp:157] Top shape: 250 384 7 7 (4704000)
I0124 12:41:12.164480 27399 net.cpp:165] Memory required for data: 427747000
I0124 12:41:12.164490 27399 layer_factory.hpp:76] Creating layer relu4
I0124 12:41:12.164500 27399 net.cpp:106] Creating Layer relu4
I0124 12:41:12.164505 27399 net.cpp:454] relu4 <- conv4
I0124 12:41:12.164512 27399 net.cpp:397] relu4 -> conv4 (in-place)
I0124 12:41:12.165304 27399 net.cpp:150] Setting up relu4
I0124 12:41:12.165318 27399 net.cpp:157] Top shape: 250 384 7 7 (4704000)
I0124 12:41:12.165323 27399 net.cpp:165] Memory required for data: 446563000
I0124 12:41:12.165326 27399 layer_factory.hpp:76] Creating layer conv5
I0124 12:41:12.165338 27399 net.cpp:106] Creating Layer conv5
I0124 12:41:12.165343 27399 net.cpp:454] conv5 <- conv4
I0124 12:41:12.165350 27399 net.cpp:411] conv5 -> conv5
I0124 12:41:12.186942 27399 net.cpp:150] Setting up conv5
I0124 12:41:12.186969 27399 net.cpp:157] Top shape: 250 256 7 7 (3136000)
I0124 12:41:12.186975 27399 net.cpp:165] Memory required for data: 459107000
I0124 12:41:12.186988 27399 layer_factory.hpp:76] Creating layer relu5
I0124 12:41:12.186998 27399 net.cpp:106] Creating Layer relu5
I0124 12:41:12.187003 27399 net.cpp:454] relu5 <- conv5
I0124 12:41:12.187012 27399 net.cpp:397] relu5 -> conv5 (in-place)
I0124 12:41:12.187782 27399 net.cpp:150] Setting up relu5
I0124 12:41:12.187795 27399 net.cpp:157] Top shape: 250 256 7 7 (3136000)
I0124 12:41:12.187799 27399 net.cpp:165] Memory required for data: 471651000
I0124 12:41:12.187803 27399 layer_factory.hpp:76] Creating layer pool5
I0124 12:41:12.187814 27399 net.cpp:106] Creating Layer pool5
I0124 12:41:12.187819 27399 net.cpp:454] pool5 <- conv5
I0124 12:41:12.187826 27399 net.cpp:411] pool5 -> pool5
I0124 12:41:12.188652 27399 net.cpp:150] Setting up pool5
I0124 12:41:12.188663 27399 net.cpp:157] Top shape: 250 256 3 3 (576000)
I0124 12:41:12.188668 27399 net.cpp:165] Memory required for data: 473955000
I0124 12:41:12.188671 27399 layer_factory.hpp:76] Creating layer fc6
I0124 12:41:12.188699 27399 net.cpp:106] Creating Layer fc6
I0124 12:41:12.188702 27399 net.cpp:454] fc6 <- pool5
I0124 12:41:12.188714 27399 net.cpp:411] fc6 -> fc6
I0124 12:41:12.356142 27399 net.cpp:150] Setting up fc6
I0124 12:41:12.356173 27399 net.cpp:157] Top shape: 250 2048 (512000)
I0124 12:41:12.356178 27399 net.cpp:165] Memory required for data: 476003000
I0124 12:41:12.356189 27399 layer_factory.hpp:76] Creating layer relu6
I0124 12:41:12.356204 27399 net.cpp:106] Creating Layer relu6
I0124 12:41:12.356211 27399 net.cpp:454] relu6 <- fc6
I0124 12:41:12.356220 27399 net.cpp:397] relu6 -> fc6 (in-place)
I0124 12:41:12.357422 27399 net.cpp:150] Setting up relu6
I0124 12:41:12.357437 27399 net.cpp:157] Top shape: 250 2048 (512000)
I0124 12:41:12.357442 27399 net.cpp:165] Memory required for data: 478051000
I0124 12:41:12.357446 27399 layer_factory.hpp:76] Creating layer drop6
I0124 12:41:12.357456 27399 net.cpp:106] Creating Layer drop6
I0124 12:41:12.357460 27399 net.cpp:454] drop6 <- fc6
I0124 12:41:12.357467 27399 net.cpp:397] drop6 -> fc6 (in-place)
I0124 12:41:12.357514 27399 net.cpp:150] Setting up drop6
I0124 12:41:12.357522 27399 net.cpp:157] Top shape: 250 2048 (512000)
I0124 12:41:12.357525 27399 net.cpp:165] Memory required for data: 480099000
I0124 12:41:12.357529 27399 layer_factory.hpp:76] Creating layer fc7
I0124 12:41:12.357537 27399 net.cpp:106] Creating Layer fc7
I0124 12:41:12.357543 27399 net.cpp:454] fc7 <- fc6
I0124 12:41:12.357549 27399 net.cpp:411] fc7 -> fc7
I0124 12:41:12.506841 27399 net.cpp:150] Setting up fc7
I0124 12:41:12.506871 27399 net.cpp:157] Top shape: 250 2048 (512000)
I0124 12:41:12.506877 27399 net.cpp:165] Memory required for data: 482147000
I0124 12:41:12.506889 27399 layer_factory.hpp:76] Creating layer relu7
I0124 12:41:12.506901 27399 net.cpp:106] Creating Layer relu7
I0124 12:41:12.506906 27399 net.cpp:454] relu7 <- fc7
I0124 12:41:12.506916 27399 net.cpp:397] relu7 -> fc7 (in-place)
I0124 12:41:12.507987 27399 net.cpp:150] Setting up relu7
I0124 12:41:12.508002 27399 net.cpp:157] Top shape: 250 2048 (512000)
I0124 12:41:12.508005 27399 net.cpp:165] Memory required for data: 484195000
I0124 12:41:12.508010 27399 layer_factory.hpp:76] Creating layer drop7
I0124 12:41:12.508019 27399 net.cpp:106] Creating Layer drop7
I0124 12:41:12.508024 27399 net.cpp:454] drop7 <- fc7
I0124 12:41:12.508030 27399 net.cpp:397] drop7 -> fc7 (in-place)
I0124 12:41:12.508077 27399 net.cpp:150] Setting up drop7
I0124 12:41:12.508085 27399 net.cpp:157] Top shape: 250 2048 (512000)
I0124 12:41:12.508087 27399 net.cpp:165] Memory required for data: 486243000
I0124 12:41:12.508091 27399 layer_factory.hpp:76] Creating layer fc8
I0124 12:41:12.508100 27399 net.cpp:106] Creating Layer fc8
I0124 12:41:12.508103 27399 net.cpp:454] fc8 <- fc7
I0124 12:41:12.508111 27399 net.cpp:411] fc8 -> fc8
I0124 12:41:12.581620 27399 net.cpp:150] Setting up fc8
I0124 12:41:12.581650 27399 net.cpp:157] Top shape: 250 1000 (250000)
I0124 12:41:12.581655 27399 net.cpp:165] Memory required for data: 487243000
I0124 12:41:12.581666 27399 layer_factory.hpp:76] Creating layer fc8_fc8_0_split
I0124 12:41:12.581678 27399 net.cpp:106] Creating Layer fc8_fc8_0_split
I0124 12:41:12.581684 27399 net.cpp:454] fc8_fc8_0_split <- fc8
I0124 12:41:12.581692 27399 net.cpp:411] fc8_fc8_0_split -> fc8_fc8_0_split_0
I0124 12:41:12.581709 27399 net.cpp:411] fc8_fc8_0_split -> fc8_fc8_0_split_1
I0124 12:41:12.581794 27399 net.cpp:150] Setting up fc8_fc8_0_split
I0124 12:41:12.581802 27399 net.cpp:157] Top shape: 250 1000 (250000)
I0124 12:41:12.581807 27399 net.cpp:157] Top shape: 250 1000 (250000)
I0124 12:41:12.581811 27399 net.cpp:165] Memory required for data: 489243000
I0124 12:41:12.581815 27399 layer_factory.hpp:76] Creating layer accuracy
I0124 12:41:12.581828 27399 net.cpp:106] Creating Layer accuracy
I0124 12:41:12.581833 27399 net.cpp:454] accuracy <- fc8_fc8_0_split_0
I0124 12:41:12.581838 27399 net.cpp:454] accuracy <- label_data_1_split_0
I0124 12:41:12.581845 27399 net.cpp:411] accuracy -> accuracy
…
