…
      mirror: false
      crop_size: 128
      mean_value: 104
      mean_value: 117
      mean_value: 123
      force_color: true
      resize_param {
        prob: 1
        resize_mode: FIT_SMALL_SIZE
        height: 144
        width: 144
        pad_mode: MIRRORED
        pad_value: 104
        pad_value: 117
        pad_value: 124
        interp_mode: LINEAR
        center_object: false
        max_angle: 0
      }
    }
    data_param {
      source: "/home/old-ufo/datasets/imagenet/ilsvrc12_val_lmdb"
      batch_size: 250
      backend: LMDB
    }
  }
  layer {
    name: "conv1"
    type: "Convolution"
    bottom: "data"
    top: "conv1"
    param {
      lr_mult: 1
      decay_mult: 1
    }
    param {
      lr_mult: 2
      decay_mult: 0
    }
    convolution_param {
      num_output: 96
      kernel_size: 11
      stride: 4
      weight_filler {
        type: "gaussian"
        std: 0.01
      }
      bias_filler {
        type: "constant"
      }
    }
  }
  layer {
    name: "relu1"
    type: "ReLU"
    bottom: "conv1"
    top: "relu1"
  }
  layer {
    name: "pool1"
    type: "Pooling"
    bottom: "relu1"
    top: "pool1"
    pooling_param {
      pool: MAX
      kernel_size: 3
      stride: 2
    }
  }
  layer {
    name: "conv2"
    type: "Convolution"
    bottom: "pool1"
    top: "conv2"
    param {
      lr_mult: 1
      decay_mult: 1
    }
    param {
      lr_mult: 2
      decay_mult: 0
    }
    convolution_param {
      num_output: 256
      pad: 2
      kernel_size: 5
      group: 2
      weight_filler {
        type: "gaussian"
        std: 0.01
      }
      bias_filler {
        type: "constant"
      }
    }
  }
  layer {
    name: "relu2"
    type: "ReLU"
    bottom: "conv2"
    top: "conv2"
  }
  layer {
    name: "pool2"
    type: "Pooling"
    bottom: "conv2"
    top: "pool2"
    pooling_param {
      pool: MAX
      kernel_size: 3
      stride: 2
    }
  }
  layer {
    name: "conv3"
    type: "Convolution"
    bottom: "pool2"
    top: "conv3"
    param {
      lr_mult: 1
      decay_mult: 1
    }
    param {
      lr_mult: 2
      decay_mult: 0
    }
    convolution_param {
      num_output: 384
      pad: 1
      kernel_size: 3
      weight_filler {
        type: "gaussian"
        std: 0.01
      }
      bias_filler {
        type: "constant"
      }
    }
  }
  layer {
    name: "relu3"
    type: "ReLU"
    bottom: "conv3"
    top: "conv3"
  }
  layer {
    name: "conv4"
    type: "Convolution"
    bottom: "conv3"
    top: "conv4"
    param {
      lr_mult: 1
      decay_mult: 1
    }
    param {
      lr_mult: 2
      decay_mult: 0
    }
    convolution_param {
      num_output: 384
      pad: 1
      kernel_size: 3
      group: 2
      weight_filler {
        type: "gaussian"
        std: 0.01
      }
      bias_filler {
        type: "constant"
      }
    }
  }
  layer {
    name: "relu4"
    type: "ReLU"
    bottom: "conv4"
    top: "conv4"
  }
  layer {
    name: "conv5"
    type: "Convolution"
    bottom: "conv4"
    top: "conv5"
    param {
      lr_mult: 1
      decay_mult: 1
    }
    param {
      lr_mult: 2
      decay_mult: 0
    }
    convolution_param {
      num_output: 256
      pad: 1
      kernel_size: 3
      group: 2
      weight_filler {
        type: "gaussian"
        std: 0.01
      }
      bias_filler {
        type: "constant"
      }
    }
  }
  layer {
    name: "relu5"
    type: "ReLU"
    bottom: "conv5"
    top: "conv5"
  }
  layer {
    name: "pool5"
    type: "Pooling"
    bottom: "conv5"
    top: "pool5"
    pooling_param {
      pool: MAX
      kernel_size: 3
      stride: 2
    }
  }
  layer {
    name: "fc6"
    type: "InnerProduct"
    bottom: "pool5"
    top: "fc6"
    param {
      lr_mult: 1
      decay_mult: 1
    }
    param {
      lr_mult: 2
      decay_mult: 0
    }
    inner_product_param {
      num_output: 2048
      weight_filler {
        type: "gaussian"
        std: 0.005
      }
      bias_filler {
        type: "constant"
      }
    }
  }
  layer {
    name: "relu6"
    type: "ReLU"
    bottom: "fc6"
    top: "fc6"
  }
  layer {
    name: "drop6"
    type: "Dropout"
    bottom: "fc6"
    top: "fc6"
    dropout_param {
      dropout_ratio: 0.5
    }
  }
  layer {
    name: "fc7"
    type: "InnerProduct"
    bottom: "fc6"
    top: "fc7"
    param {
      lr_mult: 1
      decay_mult: 1
    }
    param {
      lr_mult: 2
      decay_mult: 0
    }
    inner_product_param {
      num_output: 2048
      weight_filler {
        type: "gaussian"
        std: 0.005
      }
      bias_filler {
        type: "constant"
      }
    }
  }
  layer {
    name: "relu7"
    type: "ReLU"
    bottom: "fc7"
    top: "fc7"
  }
  layer {
    name: "drop7"
    type: "Dropout"
    bottom: "fc7"
    top: "fc7"
    dropout_param {
      dropout_ratio: 0.5
    }
  }
  layer {
    name: "fc8"
    type: "InnerProduct"
    bottom: "fc7"
    top: "fc8"
    param {
      lr_mult: 1
      decay_mult: 1
    }
    param {
      lr_mult: 2
      decay_mult: 0
    }
    inner_product_param {
      num_output: 1000
      weight_filler {
        type: "gaussian"
        std: 0.01
      }
      bias_filler {
        type: "constant"
      }
    }
  }
  layer {
    name: "accuracy"
    type: "Accuracy"
    bottom: "fc8"
    bottom: "label"
    top: "accuracy"
    include {
      phase: TEST
    }
  }
  layer {
    name: "loss"
    type: "SoftmaxWithLoss"
    bottom: "fc8"
    bottom: "label"
    top: "loss"
  }
}
test_initialization: false
average_loss: 20
iter_size: 1
rms_decay: 0.5
type: "RMSProp"
I0124 14:44:37.008152 32217 solver.cpp:86] Creating training net specified in net_param.
I0124 14:44:37.008281 32217 net.cpp:322] The NetState phase (0) differed from the phase (1) specified by a rule in layer data
I0124 14:44:37.008306 32217 net.cpp:322] The NetState phase (0) differed from the phase (1) specified by a rule in layer accuracy
I0124 14:44:37.008463 32217 net.cpp:49] Initializing net from parameters: 
name: "CaffeNet"
state {
  phase: TRAIN
}
layer {
  name: "data"
  type: "Data"
  top: "data"
  top: "label"
  include {
    phase: TRAIN
  }
  transform_param {
    scale: 0.04
    mirror: true
    crop_size: 128
    mean_value: 104
    mean_value: 117
    mean_value: 124
    force_color: true
    resize_param {
      prob: 1
      resize_mode: FIT_SMALL_SIZE
      height: 144
      width: 144
      pad_mode: MIRRORED
      pad_value: 104
      pad_value: 117
      pad_value: 124
      interp_mode: LINEAR
      center_object: false
      max_angle: 0
    }
  }
  data_param {
    source: "/home/old-ufo/datasets/imagenet/ilsvrc12_train_shuffle_lmdb"
    batch_size: 256
    backend: LMDB
  }
}
layer {
  name: "conv1"
  type: "Convolution"
  bottom: "data"
  top: "conv1"
  param {
    lr_mult: 1
    decay_mult: 1
  }
  param {
    lr_mult: 2
    decay_mult: 0
  }
  convolution_param {
    num_output: 96
    kernel_size: 11
    stride: 4
    weight_filler {
      type: "gaussian"
      std: 0.01
    }
    bias_filler {
      type: "constant"
    }
  }
}
layer {
  name: "relu1"
  type: "ReLU"
  bottom: "conv1"
  top: "relu1"
}
layer {
  name: "pool1"
  type: "Pooling"
  bottom: "relu1"
  top: "pool1"
  pooling_param {
    pool: MAX
    kernel_size: 3
    stride: 2
  }
}
layer {
  name: "conv2"
  type: "Convolution"
  bottom: "pool1"
  top: "conv2"
  param {
    lr_mult: 1
    decay_mult: 1
  }
  param {
    lr_mult: 2
    decay_mult: 0
  }
  convolution_param {
    num_output: 256
    pad: 2
    kernel_size: 5
    group: 2
    weight_filler {
      type: "gaussian"
      std: 0.01
    }
    bias_filler {
      type: "constant"
    }
  }
}
layer {
  name: "relu2"
  type: "ReLU"
  bottom: "conv2"
  top: "conv2"
}
layer {
  name: "pool2"
  type: "Pooling"
  bottom: "conv2"
  top: "pool2"
  pooling_param {
    pool: MAX
    kernel_size: 3
    stride: 2
  }
}
layer {
  name: "conv3"
  type: "Convolution"
  bottom: "pool2"
  top: "conv3"
  param {
    lr_mult: 1
    decay_mult: 1
  }
  param {
    lr_mult: 2
    decay_mult: 0
  }
  convolution_param {
    num_output: 384
    pad: 1
    kernel_size: 3
    weight_filler {
      type: "gaussian"
      std: 0.01
    }
    bias_filler {
      type: "constant"
    }
  }
}
layer {
  name: "relu3"
  type: "ReLU"
  bottom: "conv3"
  top: "conv3"
}
layer {
  name: "conv4"
  type: "Convolution"
  bottom: "conv3"
  top: "conv4"
  param {
    lr_mult: 1
    decay_mult: 1
  }
  param {
    lr_mult: 2
    decay_mult: 0
  }
  convolution_param {
    num_output: 384
    pad: 1
    kernel_size: 3
    group: 2
    weight_filler {
      type: "gaussian"
      std: 0.01
    }
    bias_filler {
      type: "constant"
    }
  }
}
layer {
  name: "relu4"
  type: "ReLU"
  bottom: "conv4"
  top: "conv4"
}
layer {
  name: "conv5"
  type: "Convolution"
  bottom: "conv4"
  top: "conv5"
  param {
    lr_mult: 1
    decay_mult: 1
  }
  param {
    lr_mult: 2
    decay_mult: 0
  }
  convolution_param {
    num_output: 256
    pad: 1
    kernel_size: 3
    group: 2
    weight_filler {
      type: "gaussian"
      std: 0.01
    }
    bias_filler {
      type: "constant"
    }
  }
}
layer {
  name: "relu5"
  type: "ReLU"
  bottom: "conv5"
  top: "conv5"
}
layer {
  name: "pool5"
  type: "Pooling"
  bottom: "conv5"
  top: "pool5"
  pooling_param {
    pool: MAX
    kernel_size: 3
    stride: 2
  }
}
layer {
  name: "fc6"
  type: "InnerProduct"
  bottom: "pool5"
  top: "fc6"
  param {
    lr_mult: 1
    decay_mult: 1
  }
  param {
    lr_mult: 2
    decay_mult: 0
  }
  inner_product_param {
    num_output: 2048
    weight_filler {
      type: "gaussian"
      std: 0.005
    }
    bias_filler {
      type: "constant"
    }
  }
}
layer {
  name: "relu6"
  type: "ReLU"
  bottom: "fc6"
  top: "fc6"
}
layer {
  name: "drop6"
  type: "Dropout"
  bottom: "fc6"
  top: "fc6"
  dropout_param {
    dropout_ratio: 0.5
  }
}
layer {
  name: "fc7"
  type: "InnerProduct"
  bottom: "fc6"
  top: "fc7"
  param {
    lr_mult: 1
    decay_mult: 1
  }
  param {
    lr_mult: 2
    decay_mult: 0
  }
  inner_product_param {
    num_output: 2048
    weight_filler {
      type: "gaussian"
      std: 0.005
    }
    bias_filler {
      type: "constant"
    }
  }
}
layer {
  name: "relu7"
  type: "ReLU"
  bottom: "fc7"
  top: "fc7"
}
layer {
  name: "drop7"
  type: "Dropout"
  bottom: "fc7"
  top: "fc7"
  dropout_param {
    dropout_ratio: 0.5
  }
}
layer {
  name: "fc8"
  type: "InnerProduct"
  bottom: "fc7"
  top: "fc8"
  param {
    lr_mult: 1
    decay_mult: 1
  }
  param {
    lr_mult: 2
    decay_mult: 0
  }
  inner_product_param {
    num_output: 1000
    weight_filler {
      type: "gaussian"
      std: 0.01
    }
    bias_filler {
      type: "constant"
    }
  }
}
layer {
  name: "loss"
  type: "SoftmaxWithLoss"
  bottom: "fc8"
  bottom: "label"
  top: "loss"
}
I0124 14:44:37.008579 32217 layer_factory.hpp:76] Creating layer data
I0124 14:44:37.009127 32217 net.cpp:106] Creating Layer data
I0124 14:44:37.009160 32217 net.cpp:411] data -> data
I0124 14:44:37.009196 32217 net.cpp:411] data -> label
I0124 14:44:37.009894 32221 db_lmdb.cpp:38] Opened lmdb /home/old-ufo/datasets/imagenet/ilsvrc12_train_shuffle_lmdb
I0124 14:44:37.022939 32217 data_layer.cpp:41] output data size: 256,3,128,128
I0124 14:44:37.093852 32217 net.cpp:150] Setting up data
I0124 14:44:37.093937 32217 net.cpp:157] Top shape: 256 3 128 128 (12582912)
I0124 14:44:37.093961 32217 net.cpp:157] Top shape: 256 (256)
I0124 14:44:37.093977 32217 net.cpp:165] Memory required for data: 50332672
I0124 14:44:37.094004 32217 layer_factory.hpp:76] Creating layer conv1
I0124 14:44:37.094036 32217 net.cpp:106] Creating Layer conv1
I0124 14:44:37.094060 32217 net.cpp:454] conv1 <- data
I0124 14:44:37.094094 32217 net.cpp:411] conv1 -> conv1
I0124 14:44:37.265898 32217 net.cpp:150] Setting up conv1
I0124 14:44:37.265926 32217 net.cpp:157] Top shape: 256 96 30 30 (22118400)
I0124 14:44:37.265931 32217 net.cpp:165] Memory required for data: 138806272
I0124 14:44:37.265956 32217 layer_factory.hpp:76] Creating layer relu1
I0124 14:44:37.265971 32217 net.cpp:106] Creating Layer relu1
I0124 14:44:37.265977 32217 net.cpp:454] relu1 <- conv1
I0124 14:44:37.265985 32217 net.cpp:411] relu1 -> relu1
I0124 14:44:37.266536 32217 net.cpp:150] Setting up relu1
I0124 14:44:37.266549 32217 net.cpp:157] Top shape: 256 96 30 30 (22118400)
I0124 14:44:37.266554 32217 net.cpp:165] Memory required for data: 227279872
I0124 14:44:37.266559 32217 layer_factory.hpp:76] Creating layer pool1
I0124 14:44:37.266568 32217 net.cpp:106] Creating Layer pool1
I0124 14:44:37.266573 32217 net.cpp:454] pool1 <- relu1
I0124 14:44:37.266580 32217 net.cpp:411] pool1 -> pool1
I0124 14:44:37.267161 32217 net.cpp:150] Setting up pool1
I0124 14:44:37.267174 32217 net.cpp:157] Top shape: 256 96 15 15 (5529600)
I0124 14:44:37.267179 32217 net.cpp:165] Memory required for data: 249398272
I0124 14:44:37.267184 32217 layer_factory.hpp:76] Creating layer conv2
I0124 14:44:37.267197 32217 net.cpp:106] Creating Layer conv2
I0124 14:44:37.267202 32217 net.cpp:454] conv2 <- pool1
I0124 14:44:37.267211 32217 net.cpp:411] conv2 -> conv2
I0124 14:44:37.279141 32217 net.cpp:150] Setting up conv2
I0124 14:44:37.279170 32217 net.cpp:157] Top shape: 256 256 15 15 (14745600)
I0124 14:44:37.279175 32217 net.cpp:165] Memory required for data: 308380672
I0124 14:44:37.279191 32217 layer_factory.hpp:76] Creating layer relu2
I0124 14:44:37.279202 32217 net.cpp:106] Creating Layer relu2
I0124 14:44:37.279207 32217 net.cpp:454] relu2 <- conv2
I0124 14:44:37.279218 32217 net.cpp:397] relu2 -> conv2 (in-place)
I0124 14:44:37.280017 32217 net.cpp:150] Setting up relu2
I0124 14:44:37.280032 32217 net.cpp:157] Top shape: 256 256 15 15 (14745600)
I0124 14:44:37.280037 32217 net.cpp:165] Memory required for data: 367363072
I0124 14:44:37.280041 32217 layer_factory.hpp:76] Creating layer pool2
I0124 14:44:37.280051 32217 net.cpp:106] Creating Layer pool2
I0124 14:44:37.280056 32217 net.cpp:454] pool2 <- conv2
I0124 14:44:37.280063 32217 net.cpp:411] pool2 -> pool2
I0124 14:44:37.280889 32217 net.cpp:150] Setting up pool2
I0124 14:44:37.280901 32217 net.cpp:157] Top shape: 256 256 7 7 (3211264)
I0124 14:44:37.280905 32217 net.cpp:165] Memory required for data: 380208128
I0124 14:44:37.280910 32217 layer_factory.hpp:76] Creating layer conv3
I0124 14:44:37.280922 32217 net.cpp:106] Creating Layer conv3
I0124 14:44:37.280928 32217 net.cpp:454] conv3 <- pool2
I0124 14:44:37.280937 32217 net.cpp:411] conv3 -> conv3
I0124 14:44:37.306291 32217 net.cpp:150] Setting up conv3
I0124 14:44:37.306315 32217 net.cpp:157] Top shape: 256 384 7 7 (4816896)
I0124 14:44:37.306321 32217 net.cpp:165] Memory required for data: 399475712
I0124 14:44:37.306335 32217 layer_factory.hpp:76] Creating layer relu3
I0124 14:44:37.306349 32217 net.cpp:106] Creating Layer relu3
I0124 14:44:37.306355 32217 net.cpp:454] relu3 <- conv3
I0124 14:44:37.306365 32217 net.cpp:397] relu3 -> conv3 (in-place)
I0124 14:44:37.306943 32217 net.cpp:150] Setting up relu3
I0124 14:44:37.306954 32217 net.cpp:157] Top shape: 256 384 7 7 (4816896)
I0124 14:44:37.306958 32217 net.cpp:165] Memory required for data: 418743296
I0124 14:44:37.306980 32217 layer_factory.hpp:76] Creating layer conv4
I0124 14:44:37.306994 32217 net.cpp:106] Creating Layer conv4
I0124 14:44:37.307001 32217 net.cpp:454] conv4 <- conv3
I0124 14:44:37.307010 32217 net.cpp:411] conv4 -> conv4
I0124 14:44:37.330099 32217 net.cpp:150] Setting up conv4
I0124 14:44:37.330126 32217 net.cpp:157] Top shape: 256 384 7 7 (4816896)
I0124 14:44:37.330132 32217 net.cpp:165] Memory required for data: 438010880
I0124 14:44:37.330143 32217 layer_factory.hpp:76] Creating layer relu4
I0124 14:44:37.330154 32217 net.cpp:106] Creating Layer relu4
I0124 14:44:37.330162 32217 net.cpp:454] relu4 <- conv4
I0124 14:44:37.330171 32217 net.cpp:397] relu4 -> conv4 (in-place)
I0124 14:44:37.330914 32217 net.cpp:150] Setting up relu4
I0124 14:44:37.330931 32217 net.cpp:157] Top shape: 256 384 7 7 (4816896)
I0124 14:44:37.330935 32217 net.cpp:165] Memory required for data: 457278464
I0124 14:44:37.330940 32217 layer_factory.hpp:76] Creating layer conv5
I0124 14:44:37.330956 32217 net.cpp:106] Creating Layer conv5
I0124 14:44:37.330961 32217 net.cpp:454] conv5 <- conv4
I0124 14:44:37.330971 32217 net.cpp:411] conv5 -> conv5
I0124 14:44:37.346673 32217 net.cpp:150] Setting up conv5
I0124 14:44:37.346698 32217 net.cpp:157] Top shape: 256 256 7 7 (3211264)
I0124 14:44:37.346704 32217 net.cpp:165] Memory required for data: 470123520
I0124 14:44:37.346720 32217 layer_factory.hpp:76] Creating layer relu5
I0124 14:44:37.346731 32217 net.cpp:106] Creating Layer relu5
I0124 14:44:37.346738 32217 net.cpp:454] relu5 <- conv5
I0124 14:44:37.346747 32217 net.cpp:397] relu5 -> conv5 (in-place)
I0124 14:44:37.347314 32217 net.cpp:150] Setting up relu5
I0124 14:44:37.347327 32217 net.cpp:157] Top shape: 256 256 7 7 (3211264)
I0124 14:44:37.347332 32217 net.cpp:165] Memory required for data: 482968576
I0124 14:44:37.347335 32217 layer_factory.hpp:76] Creating layer pool5
I0124 14:44:37.347344 32217 net.cpp:106] Creating Layer pool5
I0124 14:44:37.347349 32217 net.cpp:454] pool5 <- conv5
I0124 14:44:37.347357 32217 net.cpp:411] pool5 -> pool5
I0124 14:44:37.347966 32217 net.cpp:150] Setting up pool5
I0124 14:44:37.347978 32217 net.cpp:157] Top shape: 256 256 3 3 (589824)
I0124 14:44:37.347982 32217 net.cpp:165] Memory required for data: 485327872
I0124 14:44:37.347986 32217 layer_factory.hpp:76] Creating layer fc6
I0124 14:44:37.348001 32217 net.cpp:106] Creating Layer fc6
I0124 14:44:37.348006 32217 net.cpp:454] fc6 <- pool5
I0124 14:44:37.348014 32217 net.cpp:411] fc6 -> fc6
I0124 14:44:37.485819 32217 net.cpp:150] Setting up fc6
I0124 14:44:37.485844 32217 net.cpp:157] Top shape: 256 2048 (524288)
I0124 14:44:37.485849 32217 net.cpp:165] Memory required for data: 487425024
I0124 14:44:37.485862 32217 layer_factory.hpp:76] Creating layer relu6
I0124 14:44:37.485875 32217 net.cpp:106] Creating Layer relu6
I0124 14:44:37.485882 32217 net.cpp:454] relu6 <- fc6
I0124 14:44:37.485889 32217 net.cpp:397] relu6 -> fc6 (in-place)
I0124 14:44:37.486600 32217 net.cpp:150] Setting up relu6
I0124 14:44:37.486613 32217 net.cpp:157] Top shape: 256 2048 (524288)
I0124 14:44:37.486616 32217 net.cpp:165] Memory required for data: 489522176
I0124 14:44:37.486621 32217 layer_factory.hpp:76] Creating layer drop6
I0124 14:44:37.486632 32217 net.cpp:106] Creating Layer drop6
I0124 14:44:37.486639 32217 net.cpp:454] drop6 <- fc6
I0124 14:44:37.486649 32217 net.cpp:397] drop6 -> fc6 (in-place)
I0124 14:44:37.486685 32217 net.cpp:150] Setting up drop6
I0124 14:44:37.486693 32217 net.cpp:157] Top shape: 256 2048 (524288)
I0124 14:44:37.486696 32217 net.cpp:165] Memory required for data: 491619328
I0124 14:44:37.486701 32217 layer_factory.hpp:76] Creating layer fc7
I0124 14:44:37.486711 32217 net.cpp:106] Creating Layer fc7
I0124 14:44:37.486716 32217 net.cpp:454] fc7 <- fc6
I0124 14:44:37.486722 32217 net.cpp:411] fc7 -> fc7
I0124 14:44:37.597237 32217 net.cpp:150] Setting up fc7
I0124 14:44:37.597262 32217 net.cpp:157] Top shape: 256 2048 (524288)
I0124 14:44:37.597266 32217 net.cpp:165] Memory required for data: 493716480
I0124 14:44:37.597301 32217 layer_factory.hpp:76] Creating layer relu7
I0124 14:44:37.597312 32217 net.cpp:106] Creating Layer relu7
I0124 14:44:37.597317 32217 net.cpp:454] relu7 <- fc7
I0124 14:44:37.597324 32217 net.cpp:397] relu7 -> fc7 (in-place)
I0124 14:44:37.598100 32217 net.cpp:150] Setting up relu7
I0124 14:44:37.598112 32217 net.cpp:157] Top shape: 256 2048 (524288)
I0124 14:44:37.598116 32217 net.cpp:165] Memory required for data: 495813632
I0124 14:44:37.598120 32217 layer_factory.hpp:76] Creating layer drop7
I0124 14:44:37.598127 32217 net.cpp:106] Creating Layer drop7
I0124 14:44:37.598131 32217 net.cpp:454] drop7 <- fc7
I0124 14:44:37.598140 32217 net.cpp:397] drop7 -> fc7 (in-place)
I0124 14:44:37.598168 32217 net.cpp:150] Setting up drop7
I0124 14:44:37.598176 32217 net.cpp:157] Top shape: 256 2048 (524288)
I0124 14:44:37.598178 32217 net.cpp:165] Memory required for data: 497910784
I0124 14:44:37.598182 32217 layer_factory.hpp:76] Creating layer fc8
I0124 14:44:37.598193 32217 net.cpp:106] Creating Layer fc8
I0124 14:44:37.598197 32217 net.cpp:454] fc8 <- fc7
I0124 14:44:37.598203 32217 net.cpp:411] fc8 -> fc8
I0124 14:44:37.654048 32217 net.cpp:150] Setting up fc8
I0124 14:44:37.654072 32217 net.cpp:157] Top shape: 256 1000 (256000)
I0124 14:44:37.654077 32217 net.cpp:165] Memory required for data: 498934784
I0124 14:44:37.654088 32217 layer_factory.hpp:76] Creating layer loss
I0124 14:44:37.654100 32217 net.cpp:106] Creating Layer loss
I0124 14:44:37.654106 32217 net.cpp:454] loss <- fc8
I0124 14:44:37.654114 32217 net.cpp:454] loss <- label
I0124 14:44:37.654119 32217 net.cpp:411] loss -> loss
I0124 14:44:37.654131 32217 layer_factory.hpp:76] Creating layer loss
…
    phase: TEST
  }
  transform_param {
    scale: 0.04
    mirror: false
    crop_size: 128
    mean_value: 104
    mean_value: 117
    mean_value: 123
    force_color: true
    resize_param {
      prob: 1
      resize_mode: FIT_SMALL_SIZE
      height: 144
      width: 144
      pad_mode: MIRRORED
      pad_value: 104
      pad_value: 117
      pad_value: 124
      interp_mode: LINEAR
      center_object: false
      max_angle: 0
    }
  }
  data_param {
    source: "/home/old-ufo/datasets/imagenet/ilsvrc12_val_lmdb"
    batch_size: 250
    backend: LMDB
  }
}
layer {
  name: "conv1"
  type: "Convolution"
  bottom: "data"
  top: "conv1"
  param {
    lr_mult: 1
    decay_mult: 1
  }
  param {
    lr_mult: 2
    decay_mult: 0
  }
  convolution_param {
    num_output: 96
    kernel_size: 11
    stride: 4
    weight_filler {
      type: "gaussian"
      std: 0.01
    }
    bias_filler {
      type: "constant"
    }
  }
}
layer {
  name: "relu1"
  type: "ReLU"
  bottom: "conv1"
  top: "relu1"
}
layer {
  name: "pool1"
  type: "Pooling"
  bottom: "relu1"
  top: "pool1"
  pooling_param {
    pool: MAX
    kernel_size: 3
    stride: 2
  }
}
layer {
  name: "conv2"
  type: "Convolution"
  bottom: "pool1"
  top: "conv2"
  param {
    lr_mult: 1
    decay_mult: 1
  }
  param {
    lr_mult: 2
    decay_mult: 0
  }
  convolution_param {
    num_output: 256
    pad: 2
    kernel_size: 5
    group: 2
    weight_filler {
      type: "gaussian"
      std: 0.01
    }
    bias_filler {
      type: "constant"
    }
  }
}
layer {
  name: "relu2"
  type: "ReLU"
  bottom: "conv2"
  top: "conv2"
}
layer {
  name: "pool2"
  type: "Pooling"
  bottom: "conv2"
  top: "pool2"
  pooling_param {
    pool: MAX
    kernel_size: 3
    stride: 2
  }
}
layer {
  name: "conv3"
  type: "Convolution"
  bottom: "pool2"
  top: "conv3"
  param {
    lr_mult: 1
    decay_mult: 1
  }
  param {
    lr_mult: 2
    decay_mult: 0
  }
  convolution_param {
    num_output: 384
    pad: 1
    kernel_size: 3
    weight_filler {
      type: "gaussian"
      std: 0.01
    }
    bias_filler {
      type: "constant"
    }
  }
}
layer {
  name: "relu3"
  type: "ReLU"
  bottom: "conv3"
  top: "conv3"
}
layer {
  name: "conv4"
  type: "Convolution"
  bottom: "conv3"
  top: "conv4"
  param {
    lr_mult: 1
    decay_mult: 1
  }
  param {
    lr_mult: 2
    decay_mult: 0
  }
  convolution_param {
    num_output: 384
    pad: 1
    kernel_size: 3
    group: 2
    weight_filler {
      type: "gaussian"
      std: 0.01
    }
    bias_filler {
      type: "constant"
    }
  }
}
layer {
  name: "relu4"
  type: "ReLU"
  bottom: "conv4"
  top: "conv4"
}
layer {
  name: "conv5"
  type: "Convolution"
  bottom: "conv4"
  top: "conv5"
  param {
    lr_mult: 1
    decay_mult: 1
  }
  param {
    lr_mult: 2
    decay_mult: 0
  }
  convolution_param {
    num_output: 256
    pad: 1
    kernel_size: 3
    group: 2
    weight_filler {
      type: "gaussian"
      std: 0.01
    }
    bias_filler {
      type: "constant"
    }
  }
}
layer {
  name: "relu5"
  type: "ReLU"
  bottom: "conv5"
  top: "conv5"
}
layer {
  name: "pool5"
  type: "Pooling"
  bottom: "conv5"
  top: "pool5"
  pooling_param {
    pool: MAX
    kernel_size: 3
    stride: 2
  }
}
layer {
  name: "fc6"
  type: "InnerProduct"
  bottom: "pool5"
  top: "fc6"
  param {
    lr_mult: 1
    decay_mult: 1
  }
  param {
    lr_mult: 2
    decay_mult: 0
  }
  inner_product_param {
    num_output: 2048
    weight_filler {
      type: "gaussian"
      std: 0.005
    }
    bias_filler {
      type: "constant"
    }
  }
}
layer {
  name: "relu6"
  type: "ReLU"
  bottom: "fc6"
  top: "fc6"
}
layer {
  name: "drop6"
  type: "Dropout"
  bottom: "fc6"
  top: "fc6"
  dropout_param {
    dropout_ratio: 0.5
  }
}
layer {
  name: "fc7"
  type: "InnerProduct"
  bottom: "fc6"
  top: "fc7"
  param {
    lr_mult: 1
    decay_mult: 1
  }
  param {
    lr_mult: 2
    decay_mult: 0
  }
  inner_product_param {
    num_output: 2048
    weight_filler {
      type: "gaussian"
      std: 0.005
    }
    bias_filler {
      type: "constant"
    }
  }
}
layer {
  name: "relu7"
  type: "ReLU"
  bottom: "fc7"
  top: "fc7"
}
layer {
  name: "drop7"
  type: "Dropout"
  bottom: "fc7"
  top: "fc7"
  dropout_param {
    dropout_ratio: 0.5
  }
}
layer {
  name: "fc8"
  type: "InnerProduct"
  bottom: "fc7"
  top: "fc8"
  param {
    lr_mult: 1
    decay_mult: 1
  }
  param {
    lr_mult: 2
    decay_mult: 0
  }
  inner_product_param {
    num_output: 1000
    weight_filler {
      type: "gaussian"
      std: 0.01
    }
    bias_filler {
      type: "constant"
    }
  }
}
layer {
  name: "accuracy"
  type: "Accuracy"
  bottom: "fc8"
  bottom: "label"
  top: "accuracy"
  include {
    phase: TEST
  }
}
layer {
  name: "loss"
  type: "SoftmaxWithLoss"
  bottom: "fc8"
  bottom: "label"
  top: "loss"
}
I0124 14:44:37.656226 32217 layer_factory.hpp:76] Creating layer data
I0124 14:44:37.656575 32217 net.cpp:106] Creating Layer data
I0124 14:44:37.656597 32217 net.cpp:411] data -> data
I0124 14:44:37.656610 32217 net.cpp:411] data -> label
I0124 14:44:37.657570 32230 db_lmdb.cpp:38] Opened lmdb /home/old-ufo/datasets/imagenet/ilsvrc12_val_lmdb
I0124 14:44:37.660946 32217 data_layer.cpp:41] output data size: 250,3,128,128
I0124 14:44:37.732638 32217 net.cpp:150] Setting up data
I0124 14:44:37.732712 32217 net.cpp:157] Top shape: 250 3 128 128 (12288000)
I0124 14:44:37.732734 32217 net.cpp:157] Top shape: 250 (250)
I0124 14:44:37.732751 32217 net.cpp:165] Memory required for data: 49153000
I0124 14:44:37.732769 32217 layer_factory.hpp:76] Creating layer label_data_1_split
I0124 14:44:37.732784 32217 net.cpp:106] Creating Layer label_data_1_split
I0124 14:44:37.732789 32217 net.cpp:454] label_data_1_split <- label
I0124 14:44:37.732797 32217 net.cpp:411] label_data_1_split -> label_data_1_split_0
I0124 14:44:37.732808 32217 net.cpp:411] label_data_1_split -> label_data_1_split_1
I0124 14:44:37.732872 32217 net.cpp:150] Setting up label_data_1_split
I0124 14:44:37.732882 32217 net.cpp:157] Top shape: 250 (250)
I0124 14:44:37.732887 32217 net.cpp:157] Top shape: 250 (250)
I0124 14:44:37.732890 32217 net.cpp:165] Memory required for data: 49155000
I0124 14:44:37.732895 32217 layer_factory.hpp:76] Creating layer conv1
I0124 14:44:37.732908 32217 net.cpp:106] Creating Layer conv1
I0124 14:44:37.732911 32217 net.cpp:454] conv1 <- data
I0124 14:44:37.732918 32217 net.cpp:411] conv1 -> conv1
I0124 14:44:37.741075 32217 net.cpp:150] Setting up conv1
I0124 14:44:37.741108 32217 net.cpp:157] Top shape: 250 96 30 30 (21600000)
I0124 14:44:37.741114 32217 net.cpp:165] Memory required for data: 135555000
I0124 14:44:37.741132 32217 layer_factory.hpp:76] Creating layer relu1
I0124 14:44:37.741149 32217 net.cpp:106] Creating Layer relu1
I0124 14:44:37.741155 32217 net.cpp:454] relu1 <- conv1
I0124 14:44:37.741163 32217 net.cpp:411] relu1 -> relu1
I0124 14:44:37.742194 32217 net.cpp:150] Setting up relu1
I0124 14:44:37.742210 32217 net.cpp:157] Top shape: 250 96 30 30 (21600000)
I0124 14:44:37.742215 32217 net.cpp:165] Memory required for data: 221955000
I0124 14:44:37.742219 32217 layer_factory.hpp:76] Creating layer pool1
I0124 14:44:37.742230 32217 net.cpp:106] Creating Layer pool1
I0124 14:44:37.742235 32217 net.cpp:454] pool1 <- relu1
I0124 14:44:37.742244 32217 net.cpp:411] pool1 -> pool1
I0124 14:44:37.743118 32217 net.cpp:150] Setting up pool1
I0124 14:44:37.743132 32217 net.cpp:157] Top shape: 250 96 15 15 (5400000)
I0124 14:44:37.743136 32217 net.cpp:165] Memory required for data: 243555000
I0124 14:44:37.743140 32217 layer_factory.hpp:76] Creating layer conv2
I0124 14:44:37.743154 32217 net.cpp:106] Creating Layer conv2
I0124 14:44:37.743156 32217 net.cpp:454] conv2 <- pool1
I0124 14:44:37.743165 32217 net.cpp:411] conv2 -> conv2
I0124 14:44:37.759768 32217 net.cpp:150] Setting up conv2
I0124 14:44:37.759800 32217 net.cpp:157] Top shape: 250 256 15 15 (14400000)
I0124 14:44:37.759807 32217 net.cpp:165] Memory required for data: 301155000
I0124 14:44:37.759824 32217 layer_factory.hpp:76] Creating layer relu2
I0124 14:44:37.759835 32217 net.cpp:106] Creating Layer relu2
I0124 14:44:37.759861 32217 net.cpp:454] relu2 <- conv2
I0124 14:44:37.759876 32217 net.cpp:397] relu2 -> conv2 (in-place)
I0124 14:44:37.760699 32217 net.cpp:150] Setting up relu2
I0124 14:44:37.760715 32217 net.cpp:157] Top shape: 250 256 15 15 (14400000)
I0124 14:44:37.760720 32217 net.cpp:165] Memory required for data: 358755000
I0124 14:44:37.760725 32217 layer_factory.hpp:76] Creating layer pool2
I0124 14:44:37.760738 32217 net.cpp:106] Creating Layer pool2
I0124 14:44:37.760743 32217 net.cpp:454] pool2 <- conv2
I0124 14:44:37.760752 32217 net.cpp:411] pool2 -> pool2
I0124 14:44:37.765897 32217 net.cpp:150] Setting up pool2
I0124 14:44:37.765964 32217 net.cpp:157] Top shape: 250 256 7 7 (3136000)
I0124 14:44:37.765990 32217 net.cpp:165] Memory required for data: 371299000
I0124 14:44:37.766016 32217 layer_factory.hpp:76] Creating layer conv3
I0124 14:44:37.766052 32217 net.cpp:106] Creating Layer conv3
I0124 14:44:37.766077 32217 net.cpp:454] conv3 <- pool2
I0124 14:44:37.766103 32217 net.cpp:411] conv3 -> conv3
I0124 14:44:37.803220 32217 net.cpp:150] Setting up conv3
I0124 14:44:37.803376 32217 net.cpp:157] Top shape: 250 384 7 7 (4704000)
I0124 14:44:37.803447 32217 net.cpp:165] Memory required for data: 390115000
I0124 14:44:37.803522 32217 layer_factory.hpp:76] Creating layer relu3
I0124 14:44:37.803593 32217 net.cpp:106] Creating Layer relu3
I0124 14:44:37.803661 32217 net.cpp:454] relu3 <- conv3
I0124 14:44:37.803728 32217 net.cpp:397] relu3 -> conv3 (in-place)
I0124 14:44:37.804651 32217 net.cpp:150] Setting up relu3
I0124 14:44:37.804739 32217 net.cpp:157] Top shape: 250 384 7 7 (4704000)
I0124 14:44:37.804805 32217 net.cpp:165] Memory required for data: 408931000
I0124 14:44:37.804868 32217 layer_factory.hpp:76] Creating layer conv4
I0124 14:44:37.804940 32217 net.cpp:106] Creating Layer conv4
I0124 14:44:37.805006 32217 net.cpp:454] conv4 <- conv3
I0124 14:44:37.805074 32217 net.cpp:411] conv4 -> conv4
I0124 14:44:37.842893 32217 net.cpp:150] Setting up conv4
I0124 14:44:37.842923 32217 net.cpp:157] Top shape: 250 384 7 7 (4704000)
I0124 14:44:37.842927 32217 net.cpp:165] Memory required for data: 427747000
I0124 14:44:37.842937 32217 layer_factory.hpp:76] Creating layer relu4
I0124 14:44:37.842949 32217 net.cpp:106] Creating Layer relu4
I0124 14:44:37.842955 32217 net.cpp:454] relu4 <- conv4
I0124 14:44:37.843019 32217 net.cpp:397] relu4 -> conv4 (in-place)
I0124 14:44:37.843619 32217 net.cpp:150] Setting up relu4
I0124 14:44:37.843631 32217 net.cpp:157] Top shape: 250 384 7 7 (4704000)
I0124 14:44:37.843636 32217 net.cpp:165] Memory required for data: 446563000
I0124 14:44:37.843639 32217 layer_factory.hpp:76] Creating layer conv5
I0124 14:44:37.843654 32217 net.cpp:106] Creating Layer conv5
I0124 14:44:37.843658 32217 net.cpp:454] conv5 <- conv4
I0124 14:44:37.843667 32217 net.cpp:411] conv5 -> conv5
I0124 14:44:37.860105 32217 net.cpp:150] Setting up conv5
I0124 14:44:37.860127 32217 net.cpp:157] Top shape: 250 256 7 7 (3136000)
I0124 14:44:37.860131 32217 net.cpp:165] Memory required for data: 459107000
I0124 14:44:37.860146 32217 layer_factory.hpp:76] Creating layer relu5
I0124 14:44:37.860155 32217 net.cpp:106] Creating Layer relu5
I0124 14:44:37.860162 32217 net.cpp:454] relu5 <- conv5
I0124 14:44:37.860172 32217 net.cpp:397] relu5 -> conv5 (in-place)
I0124 14:44:37.860759 32217 net.cpp:150] Setting up relu5
I0124 14:44:37.860769 32217 net.cpp:157] Top shape: 250 256 7 7 (3136000)
I0124 14:44:37.860774 32217 net.cpp:165] Memory required for data: 471651000
I0124 14:44:37.860777 32217 layer_factory.hpp:76] Creating layer pool5
I0124 14:44:37.860786 32217 net.cpp:106] Creating Layer pool5
I0124 14:44:37.860792 32217 net.cpp:454] pool5 <- conv5
I0124 14:44:37.860798 32217 net.cpp:411] pool5 -> pool5
I0124 14:44:37.861398 32217 net.cpp:150] Setting up pool5
I0124 14:44:37.861409 32217 net.cpp:157] Top shape: 250 256 3 3 (576000)
I0124 14:44:37.861413 32217 net.cpp:165] Memory required for data: 473955000
I0124 14:44:37.861418 32217 layer_factory.hpp:76] Creating layer fc6
I0124 14:44:37.861443 32217 net.cpp:106] Creating Layer fc6
I0124 14:44:37.861449 32217 net.cpp:454] fc6 <- pool5
I0124 14:44:37.861455 32217 net.cpp:411] fc6 -> fc6
I0124 14:44:38.005194 32217 net.cpp:150] Setting up fc6
I0124 14:44:38.005224 32217 net.cpp:157] Top shape: 250 2048 (512000)
I0124 14:44:38.005230 32217 net.cpp:165] Memory required for data: 476003000
I0124 14:44:38.005241 32217 layer_factory.hpp:76] Creating layer relu6
I0124 14:44:38.005259 32217 net.cpp:106] Creating Layer relu6
I0124 14:44:38.005265 32217 net.cpp:454] relu6 <- fc6
I0124 14:44:38.005273 32217 net.cpp:397] relu6 -> fc6 (in-place)
I0124 14:44:38.006584 32217 net.cpp:150] Setting up relu6
I0124 14:44:38.006602 32217 net.cpp:157] Top shape: 250 2048 (512000)
I0124 14:44:38.006606 32217 net.cpp:165] Memory required for data: 478051000
I0124 14:44:38.006611 32217 layer_factory.hpp:76] Creating layer drop6
I0124 14:44:38.006623 32217 net.cpp:106] Creating Layer drop6
I0124 14:44:38.006628 32217 net.cpp:454] drop6 <- fc6
I0124 14:44:38.006634 32217 net.cpp:397] drop6 -> fc6 (in-place)
I0124 14:44:38.006683 32217 net.cpp:150] Setting up drop6
I0124 14:44:38.006691 32217 net.cpp:157] Top shape: 250 2048 (512000)
I0124 14:44:38.006695 32217 net.cpp:165] Memory required for data: 480099000
I0124 14:44:38.006698 32217 layer_factory.hpp:76] Creating layer fc7
I0124 14:44:38.006707 32217 net.cpp:106] Creating Layer fc7
I0124 14:44:38.006713 32217 net.cpp:454] fc7 <- fc6
I0124 14:44:38.006719 32217 net.cpp:411] fc7 -> fc7
I0124 14:44:38.126934 32217 net.cpp:150] Setting up fc7
I0124 14:44:38.126962 32217 net.cpp:157] Top shape: 250 2048 (512000)
I0124 14:44:38.126968 32217 net.cpp:165] Memory required for data: 482147000
I0124 14:44:38.126981 32217 layer_factory.hpp:76] Creating layer relu7
I0124 14:44:38.126991 32217 net.cpp:106] Creating Layer relu7
I0124 14:44:38.126997 32217 net.cpp:454] relu7 <- fc7
I0124 14:44:38.127007 32217 net.cpp:397] relu7 -> fc7 (in-place)
I0124 14:44:38.127846 32217 net.cpp:150] Setting up relu7
I0124 14:44:38.127857 32217 net.cpp:157] Top shape: 250 2048 (512000)
I0124 14:44:38.127861 32217 net.cpp:165] Memory required for data: 484195000
I0124 14:44:38.127864 32217 layer_factory.hpp:76] Creating layer drop7
I0124 14:44:38.127874 32217 net.cpp:106] Creating Layer drop7
I0124 14:44:38.127879 32217 net.cpp:454] drop7 <- fc7
I0124 14:44:38.127885 32217 net.cpp:397] drop7 -> fc7 (in-place)
I0124 14:44:38.127930 32217 net.cpp:150] Setting up drop7
I0124 14:44:38.127938 32217 net.cpp:157] Top shape: 250 2048 (512000)
I0124 14:44:38.127940 32217 net.cpp:165] Memory required for data: 486243000
I0124 14:44:38.127943 32217 layer_factory.hpp:76] Creating layer fc8
I0124 14:44:38.127954 32217 net.cpp:106] Creating Layer fc8
I0124 14:44:38.127957 32217 net.cpp:454] fc8 <- fc7
I0124 14:44:38.127965 32217 net.cpp:411] fc8 -> fc8
I0124 14:44:38.182971 32217 net.cpp:150] Setting up fc8
I0124 14:44:38.182996 32217 net.cpp:157] Top shape: 250 1000 (250000)
I0124 14:44:38.183001 32217 net.cpp:165] Memory required for data: 487243000
I0124 14:44:38.183008 32217 layer_factory.hpp:76] Creating layer fc8_fc8_0_split
I0124 14:44:38.183025 32217 net.cpp:106] Creating Layer fc8_fc8_0_split
I0124 14:44:38.183032 32217 net.cpp:454] fc8_fc8_0_split <- fc8
I0124 14:44:38.183039 32217 net.cpp:411] fc8_fc8_0_split -> fc8_fc8_0_split_0
I0124 14:44:38.183051 32217 net.cpp:411] fc8_fc8_0_split -> fc8_fc8_0_split_1
I0124 14:44:38.183135 32217 net.cpp:150] Setting up fc8_fc8_0_split
I0124 14:44:38.183143 32217 net.cpp:157] Top shape: 250 1000 (250000)
I0124 14:44:38.183146 32217 net.cpp:157] Top shape: 250 1000 (250000)
I0124 14:44:38.183151 32217 net.cpp:165] Memory required for data: 489243000
I0124 14:44:38.183153 32217 layer_factory.hpp:76] Creating layer accuracy
I0124 14:44:38.183168 32217 net.cpp:106] Creating Layer accuracy
I0124 14:44:38.183176 32217 net.cpp:454] accuracy <- fc8_fc8_0_split_0
I0124 14:44:38.183181 32217 net.cpp:454] accuracy <- label_data_1_split_0
I0124 14:44:38.183188 32217 net.cpp:411] accuracy -> accuracy
…
