…
      mirror: false
      crop_size: 128
      mean_value: 104
      mean_value: 117
      mean_value: 123
      force_color: true
      resize_param {
        prob: 1
        resize_mode: FIT_SMALL_SIZE
        height: 144
        width: 144
        pad_mode: MIRRORED
        pad_value: 104
        pad_value: 117
        pad_value: 124
        interp_mode: LINEAR
        center_object: false
        max_angle: 0
      }
    }
    data_param {
      source: "/home/old-ufo/datasets/imagenet/ilsvrc12_val_lmdb"
      batch_size: 250
      backend: LMDB
    }
  }
  layer {
    name: "conv1"
    type: "Convolution"
    bottom: "data"
    top: "conv1"
    param {
      lr_mult: 1
      decay_mult: 1
    }
    param {
      lr_mult: 2
      decay_mult: 0
    }
    convolution_param {
      num_output: 96
      kernel_size: 11
      stride: 4
      weight_filler {
        type: "gaussian"
        std: 0.01
      }
      bias_filler {
        type: "constant"
      }
    }
  }
  layer {
    name: "relu1"
    type: "ReLU"
    bottom: "conv1"
    top: "relu1"
  }
  layer {
    name: "pool1"
    type: "Pooling"
    bottom: "relu1"
    top: "pool1"
    pooling_param {
      pool: MAX
      kernel_size: 3
      stride: 2
    }
  }
  layer {
    name: "conv2"
    type: "Convolution"
    bottom: "pool1"
    top: "conv2"
    param {
      lr_mult: 1
      decay_mult: 1
    }
    param {
      lr_mult: 2
      decay_mult: 0
    }
    convolution_param {
      num_output: 256
      pad: 2
      kernel_size: 5
      group: 2
      weight_filler {
        type: "gaussian"
        std: 0.01
      }
      bias_filler {
        type: "constant"
      }
    }
  }
  layer {
    name: "relu2"
    type: "ReLU"
    bottom: "conv2"
    top: "conv2"
  }
  layer {
    name: "pool2"
    type: "Pooling"
    bottom: "conv2"
    top: "pool2"
    pooling_param {
      pool: MAX
      kernel_size: 3
      stride: 2
    }
  }
  layer {
    name: "conv3"
    type: "Convolution"
    bottom: "pool2"
    top: "conv3"
    param {
      lr_mult: 1
      decay_mult: 1
    }
    param {
      lr_mult: 2
      decay_mult: 0
    }
    convolution_param {
      num_output: 384
      pad: 1
      kernel_size: 3
      weight_filler {
        type: "gaussian"
        std: 0.01
      }
      bias_filler {
        type: "constant"
      }
    }
  }
  layer {
    name: "relu3"
    type: "ReLU"
    bottom: "conv3"
    top: "conv3"
  }
  layer {
    name: "conv4"
    type: "Convolution"
    bottom: "conv3"
    top: "conv4"
    param {
      lr_mult: 1
      decay_mult: 1
    }
    param {
      lr_mult: 2
      decay_mult: 0
    }
    convolution_param {
      num_output: 384
      pad: 1
      kernel_size: 3
      group: 2
      weight_filler {
        type: "gaussian"
        std: 0.01
      }
      bias_filler {
        type: "constant"
      }
    }
  }
  layer {
    name: "relu4"
    type: "ReLU"
    bottom: "conv4"
    top: "conv4"
  }
  layer {
    name: "conv5"
    type: "Convolution"
    bottom: "conv4"
    top: "conv5"
    param {
      lr_mult: 1
      decay_mult: 1
    }
    param {
      lr_mult: 2
      decay_mult: 0
    }
    convolution_param {
      num_output: 256
      pad: 1
      kernel_size: 3
      group: 2
      weight_filler {
        type: "gaussian"
        std: 0.01
      }
      bias_filler {
        type: "constant"
      }
    }
  }
  layer {
    name: "relu5"
    type: "ReLU"
    bottom: "conv5"
    top: "conv5"
  }
  layer {
    name: "pool5"
    type: "Pooling"
    bottom: "conv5"
    top: "pool5"
    pooling_param {
      pool: MAX
      kernel_size: 3
      stride: 2
    }
  }
  layer {
    name: "fc6"
    type: "InnerProduct"
    bottom: "pool5"
    top: "fc6"
    param {
      lr_mult: 1
      decay_mult: 1
    }
    param {
      lr_mult: 2
      decay_mult: 0
    }
    inner_product_param {
      num_output: 2048
      weight_filler {
        type: "gaussian"
        std: 0.005
      }
      bias_filler {
        type: "constant"
      }
    }
  }
  layer {
    name: "relu6"
    type: "ReLU"
    bottom: "fc6"
    top: "fc6"
  }
  layer {
    name: "drop6"
    type: "Dropout"
    bottom: "fc6"
    top: "fc6"
    dropout_param {
      dropout_ratio: 0.5
    }
  }
  layer {
    name: "fc7"
    type: "InnerProduct"
    bottom: "fc6"
    top: "fc7"
    param {
      lr_mult: 1
      decay_mult: 1
    }
    param {
      lr_mult: 2
      decay_mult: 0
    }
    inner_product_param {
      num_output: 2048
      weight_filler {
        type: "gaussian"
        std: 0.005
      }
      bias_filler {
        type: "constant"
      }
    }
  }
  layer {
    name: "relu7"
    type: "ReLU"
    bottom: "fc7"
    top: "fc7"
  }
  layer {
    name: "drop7"
    type: "Dropout"
    bottom: "fc7"
    top: "fc7"
    dropout_param {
      dropout_ratio: 0.5
    }
  }
  layer {
    name: "fc8"
    type: "InnerProduct"
    bottom: "fc7"
    top: "fc8"
    param {
      lr_mult: 1
      decay_mult: 1
    }
    param {
      lr_mult: 2
      decay_mult: 0
    }
    inner_product_param {
      num_output: 1000
      weight_filler {
        type: "gaussian"
        std: 0.01
      }
      bias_filler {
        type: "constant"
      }
    }
  }
  layer {
    name: "accuracy"
    type: "Accuracy"
    bottom: "fc8"
    bottom: "label"
    top: "accuracy"
    include {
      phase: TEST
    }
  }
  layer {
    name: "loss"
    type: "SoftmaxWithLoss"
    bottom: "fc8"
    bottom: "label"
    top: "loss"
  }
}
test_initialization: false
average_loss: 20
iter_size: 1
momentum2: 0.99
type: "Adam"
I0124 13:23:21.404083 27773 solver.cpp:86] Creating training net specified in net_param.
I0124 13:23:21.404217 27773 net.cpp:322] The NetState phase (0) differed from the phase (1) specified by a rule in layer data
I0124 13:23:21.404237 27773 net.cpp:322] The NetState phase (0) differed from the phase (1) specified by a rule in layer accuracy
I0124 13:23:21.404407 27773 net.cpp:49] Initializing net from parameters: 
name: "CaffeNet"
state {
  phase: TRAIN
}
layer {
  name: "data"
  type: "Data"
  top: "data"
  top: "label"
  include {
    phase: TRAIN
  }
  transform_param {
    scale: 0.04
    mirror: true
    crop_size: 128
    mean_value: 104
    mean_value: 117
    mean_value: 124
    force_color: true
    resize_param {
      prob: 1
      resize_mode: FIT_SMALL_SIZE
      height: 144
      width: 144
      pad_mode: MIRRORED
      pad_value: 104
      pad_value: 117
      pad_value: 124
      interp_mode: LINEAR
      center_object: false
      max_angle: 0
    }
  }
  data_param {
    source: "/home/old-ufo/datasets/imagenet/ilsvrc12_train_shuffle_lmdb"
    batch_size: 256
    backend: LMDB
  }
}
layer {
  name: "conv1"
  type: "Convolution"
  bottom: "data"
  top: "conv1"
  param {
    lr_mult: 1
    decay_mult: 1
  }
  param {
    lr_mult: 2
    decay_mult: 0
  }
  convolution_param {
    num_output: 96
    kernel_size: 11
    stride: 4
    weight_filler {
      type: "gaussian"
      std: 0.01
    }
    bias_filler {
      type: "constant"
    }
  }
}
layer {
  name: "relu1"
  type: "ReLU"
  bottom: "conv1"
  top: "relu1"
}
layer {
  name: "pool1"
  type: "Pooling"
  bottom: "relu1"
  top: "pool1"
  pooling_param {
    pool: MAX
    kernel_size: 3
    stride: 2
  }
}
layer {
  name: "conv2"
  type: "Convolution"
  bottom: "pool1"
  top: "conv2"
  param {
    lr_mult: 1
    decay_mult: 1
  }
  param {
    lr_mult: 2
    decay_mult: 0
  }
  convolution_param {
    num_output: 256
    pad: 2
    kernel_size: 5
    group: 2
    weight_filler {
      type: "gaussian"
      std: 0.01
    }
    bias_filler {
      type: "constant"
    }
  }
}
layer {
  name: "relu2"
  type: "ReLU"
  bottom: "conv2"
  top: "conv2"
}
layer {
  name: "pool2"
  type: "Pooling"
  bottom: "conv2"
  top: "pool2"
  pooling_param {
    pool: MAX
    kernel_size: 3
    stride: 2
  }
}
layer {
  name: "conv3"
  type: "Convolution"
  bottom: "pool2"
  top: "conv3"
  param {
    lr_mult: 1
    decay_mult: 1
  }
  param {
    lr_mult: 2
    decay_mult: 0
  }
  convolution_param {
    num_output: 384
    pad: 1
    kernel_size: 3
    weight_filler {
      type: "gaussian"
      std: 0.01
    }
    bias_filler {
      type: "constant"
    }
  }
}
layer {
  name: "relu3"
  type: "ReLU"
  bottom: "conv3"
  top: "conv3"
}
layer {
  name: "conv4"
  type: "Convolution"
  bottom: "conv3"
  top: "conv4"
  param {
    lr_mult: 1
    decay_mult: 1
  }
  param {
    lr_mult: 2
    decay_mult: 0
  }
  convolution_param {
    num_output: 384
    pad: 1
    kernel_size: 3
    group: 2
    weight_filler {
      type: "gaussian"
      std: 0.01
    }
    bias_filler {
      type: "constant"
    }
  }
}
layer {
  name: "relu4"
  type: "ReLU"
  bottom: "conv4"
  top: "conv4"
}
layer {
  name: "conv5"
  type: "Convolution"
  bottom: "conv4"
  top: "conv5"
  param {
    lr_mult: 1
    decay_mult: 1
  }
  param {
    lr_mult: 2
    decay_mult: 0
  }
  convolution_param {
    num_output: 256
    pad: 1
    kernel_size: 3
    group: 2
    weight_filler {
      type: "gaussian"
      std: 0.01
    }
    bias_filler {
      type: "constant"
    }
  }
}
layer {
  name: "relu5"
  type: "ReLU"
  bottom: "conv5"
  top: "conv5"
}
layer {
  name: "pool5"
  type: "Pooling"
  bottom: "conv5"
  top: "pool5"
  pooling_param {
    pool: MAX
    kernel_size: 3
    stride: 2
  }
}
layer {
  name: "fc6"
  type: "InnerProduct"
  bottom: "pool5"
  top: "fc6"
  param {
    lr_mult: 1
    decay_mult: 1
  }
  param {
    lr_mult: 2
    decay_mult: 0
  }
  inner_product_param {
    num_output: 2048
    weight_filler {
      type: "gaussian"
      std: 0.005
    }
    bias_filler {
      type: "constant"
    }
  }
}
layer {
  name: "relu6"
  type: "ReLU"
  bottom: "fc6"
  top: "fc6"
}
layer {
  name: "drop6"
  type: "Dropout"
  bottom: "fc6"
  top: "fc6"
  dropout_param {
    dropout_ratio: 0.5
  }
}
layer {
  name: "fc7"
  type: "InnerProduct"
  bottom: "fc6"
  top: "fc7"
  param {
    lr_mult: 1
    decay_mult: 1
  }
  param {
    lr_mult: 2
    decay_mult: 0
  }
  inner_product_param {
    num_output: 2048
    weight_filler {
      type: "gaussian"
      std: 0.005
    }
    bias_filler {
      type: "constant"
    }
  }
}
layer {
  name: "relu7"
  type: "ReLU"
  bottom: "fc7"
  top: "fc7"
}
layer {
  name: "drop7"
  type: "Dropout"
  bottom: "fc7"
  top: "fc7"
  dropout_param {
    dropout_ratio: 0.5
  }
}
layer {
  name: "fc8"
  type: "InnerProduct"
  bottom: "fc7"
  top: "fc8"
  param {
    lr_mult: 1
    decay_mult: 1
  }
  param {
    lr_mult: 2
    decay_mult: 0
  }
  inner_product_param {
    num_output: 1000
    weight_filler {
      type: "gaussian"
      std: 0.01
    }
    bias_filler {
      type: "constant"
    }
  }
}
layer {
  name: "loss"
  type: "SoftmaxWithLoss"
  bottom: "fc8"
  bottom: "label"
  top: "loss"
}
I0124 13:23:21.404516 27773 layer_factory.hpp:76] Creating layer data
I0124 13:23:21.405314 27773 net.cpp:106] Creating Layer data
I0124 13:23:21.405326 27773 net.cpp:411] data -> data
I0124 13:23:21.405382 27773 net.cpp:411] data -> label
I0124 13:23:21.406682 27777 db_lmdb.cpp:38] Opened lmdb /home/old-ufo/datasets/imagenet/ilsvrc12_train_shuffle_lmdb
I0124 13:23:21.426440 27773 data_layer.cpp:41] output data size: 256,3,128,128
I0124 13:23:21.501735 27773 net.cpp:150] Setting up data
I0124 13:23:21.501763 27773 net.cpp:157] Top shape: 256 3 128 128 (12582912)
I0124 13:23:21.501770 27773 net.cpp:157] Top shape: 256 (256)
I0124 13:23:21.501772 27773 net.cpp:165] Memory required for data: 50332672
I0124 13:23:21.501782 27773 layer_factory.hpp:76] Creating layer conv1
I0124 13:23:21.501796 27773 net.cpp:106] Creating Layer conv1
I0124 13:23:21.501804 27773 net.cpp:454] conv1 <- data
I0124 13:23:21.501817 27773 net.cpp:411] conv1 -> conv1
I0124 13:23:21.651387 27773 net.cpp:150] Setting up conv1
I0124 13:23:21.651412 27773 net.cpp:157] Top shape: 256 96 30 30 (22118400)
I0124 13:23:21.651415 27773 net.cpp:165] Memory required for data: 138806272
I0124 13:23:21.651433 27773 layer_factory.hpp:76] Creating layer relu1
I0124 13:23:21.651448 27773 net.cpp:106] Creating Layer relu1
I0124 13:23:21.651453 27773 net.cpp:454] relu1 <- conv1
I0124 13:23:21.651458 27773 net.cpp:411] relu1 -> relu1
I0124 13:23:21.652042 27773 net.cpp:150] Setting up relu1
I0124 13:23:21.652052 27773 net.cpp:157] Top shape: 256 96 30 30 (22118400)
I0124 13:23:21.652055 27773 net.cpp:165] Memory required for data: 227279872
I0124 13:23:21.652058 27773 layer_factory.hpp:76] Creating layer pool1
I0124 13:23:21.652066 27773 net.cpp:106] Creating Layer pool1
I0124 13:23:21.652070 27773 net.cpp:454] pool1 <- relu1
I0124 13:23:21.652077 27773 net.cpp:411] pool1 -> pool1
I0124 13:23:21.652637 27773 net.cpp:150] Setting up pool1
I0124 13:23:21.652647 27773 net.cpp:157] Top shape: 256 96 15 15 (5529600)
I0124 13:23:21.652648 27773 net.cpp:165] Memory required for data: 249398272
I0124 13:23:21.652652 27773 layer_factory.hpp:76] Creating layer conv2
I0124 13:23:21.652665 27773 net.cpp:106] Creating Layer conv2
I0124 13:23:21.652672 27773 net.cpp:454] conv2 <- pool1
I0124 13:23:21.652678 27773 net.cpp:411] conv2 -> conv2
I0124 13:23:21.665323 27773 net.cpp:150] Setting up conv2
I0124 13:23:21.665343 27773 net.cpp:157] Top shape: 256 256 15 15 (14745600)
I0124 13:23:21.665346 27773 net.cpp:165] Memory required for data: 308380672
I0124 13:23:21.665357 27773 layer_factory.hpp:76] Creating layer relu2
I0124 13:23:21.665370 27773 net.cpp:106] Creating Layer relu2
I0124 13:23:21.665375 27773 net.cpp:454] relu2 <- conv2
I0124 13:23:21.665382 27773 net.cpp:397] relu2 -> conv2 (in-place)
I0124 13:23:21.665937 27773 net.cpp:150] Setting up relu2
I0124 13:23:21.665947 27773 net.cpp:157] Top shape: 256 256 15 15 (14745600)
I0124 13:23:21.665951 27773 net.cpp:165] Memory required for data: 367363072
I0124 13:23:21.665953 27773 layer_factory.hpp:76] Creating layer pool2
I0124 13:23:21.665961 27773 net.cpp:106] Creating Layer pool2
I0124 13:23:21.665964 27773 net.cpp:454] pool2 <- conv2
I0124 13:23:21.665972 27773 net.cpp:411] pool2 -> pool2
I0124 13:23:21.666604 27773 net.cpp:150] Setting up pool2
I0124 13:23:21.666612 27773 net.cpp:157] Top shape: 256 256 7 7 (3211264)
I0124 13:23:21.666615 27773 net.cpp:165] Memory required for data: 380208128
I0124 13:23:21.666618 27773 layer_factory.hpp:76] Creating layer conv3
I0124 13:23:21.666630 27773 net.cpp:106] Creating Layer conv3
I0124 13:23:21.666635 27773 net.cpp:454] conv3 <- pool2
I0124 13:23:21.666643 27773 net.cpp:411] conv3 -> conv3
I0124 13:23:21.692394 27773 net.cpp:150] Setting up conv3
I0124 13:23:21.692414 27773 net.cpp:157] Top shape: 256 384 7 7 (4816896)
I0124 13:23:21.692417 27773 net.cpp:165] Memory required for data: 399475712
I0124 13:23:21.692428 27773 layer_factory.hpp:76] Creating layer relu3
I0124 13:23:21.692441 27773 net.cpp:106] Creating Layer relu3
I0124 13:23:21.692446 27773 net.cpp:454] relu3 <- conv3
I0124 13:23:21.692452 27773 net.cpp:397] relu3 -> conv3 (in-place)
I0124 13:23:21.693011 27773 net.cpp:150] Setting up relu3
I0124 13:23:21.693022 27773 net.cpp:157] Top shape: 256 384 7 7 (4816896)
I0124 13:23:21.693023 27773 net.cpp:165] Memory required for data: 418743296
I0124 13:23:21.693048 27773 layer_factory.hpp:76] Creating layer conv4
I0124 13:23:21.693060 27773 net.cpp:106] Creating Layer conv4
I0124 13:23:21.693064 27773 net.cpp:454] conv4 <- conv3
I0124 13:23:21.693073 27773 net.cpp:411] conv4 -> conv4
I0124 13:23:21.714354 27773 net.cpp:150] Setting up conv4
I0124 13:23:21.714378 27773 net.cpp:157] Top shape: 256 384 7 7 (4816896)
I0124 13:23:21.714381 27773 net.cpp:165] Memory required for data: 438010880
I0124 13:23:21.714390 27773 layer_factory.hpp:76] Creating layer relu4
I0124 13:23:21.714401 27773 net.cpp:106] Creating Layer relu4
I0124 13:23:21.714406 27773 net.cpp:454] relu4 <- conv4
I0124 13:23:21.714413 27773 net.cpp:397] relu4 -> conv4 (in-place)
I0124 13:23:21.714969 27773 net.cpp:150] Setting up relu4
I0124 13:23:21.714978 27773 net.cpp:157] Top shape: 256 384 7 7 (4816896)
I0124 13:23:21.714982 27773 net.cpp:165] Memory required for data: 457278464
I0124 13:23:21.714984 27773 layer_factory.hpp:76] Creating layer conv5
I0124 13:23:21.714997 27773 net.cpp:106] Creating Layer conv5
I0124 13:23:21.715000 27773 net.cpp:454] conv5 <- conv4
I0124 13:23:21.715009 27773 net.cpp:411] conv5 -> conv5
I0124 13:23:21.730304 27773 net.cpp:150] Setting up conv5
I0124 13:23:21.730329 27773 net.cpp:157] Top shape: 256 256 7 7 (3211264)
I0124 13:23:21.730331 27773 net.cpp:165] Memory required for data: 470123520
I0124 13:23:21.730341 27773 layer_factory.hpp:76] Creating layer relu5
I0124 13:23:21.730352 27773 net.cpp:106] Creating Layer relu5
I0124 13:23:21.730357 27773 net.cpp:454] relu5 <- conv5
I0124 13:23:21.730365 27773 net.cpp:397] relu5 -> conv5 (in-place)
I0124 13:23:21.730916 27773 net.cpp:150] Setting up relu5
I0124 13:23:21.730924 27773 net.cpp:157] Top shape: 256 256 7 7 (3211264)
I0124 13:23:21.730927 27773 net.cpp:165] Memory required for data: 482968576
I0124 13:23:21.730931 27773 layer_factory.hpp:76] Creating layer pool5
I0124 13:23:21.730939 27773 net.cpp:106] Creating Layer pool5
I0124 13:23:21.730943 27773 net.cpp:454] pool5 <- conv5
I0124 13:23:21.730949 27773 net.cpp:411] pool5 -> pool5
I0124 13:23:21.731539 27773 net.cpp:150] Setting up pool5
I0124 13:23:21.731549 27773 net.cpp:157] Top shape: 256 256 3 3 (589824)
I0124 13:23:21.731551 27773 net.cpp:165] Memory required for data: 485327872
I0124 13:23:21.731555 27773 layer_factory.hpp:76] Creating layer fc6
I0124 13:23:21.731564 27773 net.cpp:106] Creating Layer fc6
I0124 13:23:21.731569 27773 net.cpp:454] fc6 <- pool5
I0124 13:23:21.731577 27773 net.cpp:411] fc6 -> fc6
I0124 13:23:21.854473 27773 net.cpp:150] Setting up fc6
I0124 13:23:21.854496 27773 net.cpp:157] Top shape: 256 2048 (524288)
I0124 13:23:21.854498 27773 net.cpp:165] Memory required for data: 487425024
I0124 13:23:21.854507 27773 layer_factory.hpp:76] Creating layer relu6
I0124 13:23:21.854516 27773 net.cpp:106] Creating Layer relu6
I0124 13:23:21.854518 27773 net.cpp:454] relu6 <- fc6
I0124 13:23:21.854526 27773 net.cpp:397] relu6 -> fc6 (in-place)
I0124 13:23:21.855149 27773 net.cpp:150] Setting up relu6
I0124 13:23:21.855156 27773 net.cpp:157] Top shape: 256 2048 (524288)
I0124 13:23:21.855159 27773 net.cpp:165] Memory required for data: 489522176
I0124 13:23:21.855161 27773 layer_factory.hpp:76] Creating layer drop6
I0124 13:23:21.855175 27773 net.cpp:106] Creating Layer drop6
I0124 13:23:21.855178 27773 net.cpp:454] drop6 <- fc6
I0124 13:23:21.855181 27773 net.cpp:397] drop6 -> fc6 (in-place)
I0124 13:23:21.855207 27773 net.cpp:150] Setting up drop6
I0124 13:23:21.855211 27773 net.cpp:157] Top shape: 256 2048 (524288)
I0124 13:23:21.855213 27773 net.cpp:165] Memory required for data: 491619328
I0124 13:23:21.855216 27773 layer_factory.hpp:76] Creating layer fc7
I0124 13:23:21.855221 27773 net.cpp:106] Creating Layer fc7
I0124 13:23:21.855223 27773 net.cpp:454] fc7 <- fc6
I0124 13:23:21.855228 27773 net.cpp:411] fc7 -> fc7
I0124 13:23:21.968389 27773 net.cpp:150] Setting up fc7
I0124 13:23:21.968411 27773 net.cpp:157] Top shape: 256 2048 (524288)
I0124 13:23:21.968415 27773 net.cpp:165] Memory required for data: 493716480
I0124 13:23:21.968454 27773 layer_factory.hpp:76] Creating layer relu7
I0124 13:23:21.968467 27773 net.cpp:106] Creating Layer relu7
I0124 13:23:21.968473 27773 net.cpp:454] relu7 <- fc7
I0124 13:23:21.968480 27773 net.cpp:397] relu7 -> fc7 (in-place)
I0124 13:23:21.969275 27773 net.cpp:150] Setting up relu7
I0124 13:23:21.969288 27773 net.cpp:157] Top shape: 256 2048 (524288)
I0124 13:23:21.969293 27773 net.cpp:165] Memory required for data: 495813632
I0124 13:23:21.969297 27773 layer_factory.hpp:76] Creating layer drop7
I0124 13:23:21.969305 27773 net.cpp:106] Creating Layer drop7
I0124 13:23:21.969310 27773 net.cpp:454] drop7 <- fc7
I0124 13:23:21.969316 27773 net.cpp:397] drop7 -> fc7 (in-place)
I0124 13:23:21.969353 27773 net.cpp:150] Setting up drop7
I0124 13:23:21.969360 27773 net.cpp:157] Top shape: 256 2048 (524288)
I0124 13:23:21.969364 27773 net.cpp:165] Memory required for data: 497910784
I0124 13:23:21.969368 27773 layer_factory.hpp:76] Creating layer fc8
I0124 13:23:21.969377 27773 net.cpp:106] Creating Layer fc8
I0124 13:23:21.969382 27773 net.cpp:454] fc8 <- fc7
I0124 13:23:21.969390 27773 net.cpp:411] fc8 -> fc8
I0124 13:23:22.023836 27773 net.cpp:150] Setting up fc8
I0124 13:23:22.023860 27773 net.cpp:157] Top shape: 256 1000 (256000)
I0124 13:23:22.023864 27773 net.cpp:165] Memory required for data: 498934784
I0124 13:23:22.023874 27773 layer_factory.hpp:76] Creating layer loss
I0124 13:23:22.023885 27773 net.cpp:106] Creating Layer loss
I0124 13:23:22.023888 27773 net.cpp:454] loss <- fc8
I0124 13:23:22.023895 27773 net.cpp:454] loss <- label
I0124 13:23:22.023902 27773 net.cpp:411] loss -> loss
I0124 13:23:22.023915 27773 layer_factory.hpp:76] Creating layer loss
…
    phase: TEST
  }
  transform_param {
    scale: 0.04
    mirror: false
    crop_size: 128
    mean_value: 104
    mean_value: 117
    mean_value: 123
    force_color: true
    resize_param {
      prob: 1
      resize_mode: FIT_SMALL_SIZE
      height: 144
      width: 144
      pad_mode: MIRRORED
      pad_value: 104
      pad_value: 117
      pad_value: 124
      interp_mode: LINEAR
      center_object: false
      max_angle: 0
    }
  }
  data_param {
    source: "/home/old-ufo/datasets/imagenet/ilsvrc12_val_lmdb"
    batch_size: 250
    backend: LMDB
  }
}
layer {
  name: "conv1"
  type: "Convolution"
  bottom: "data"
  top: "conv1"
  param {
    lr_mult: 1
    decay_mult: 1
  }
  param {
    lr_mult: 2
    decay_mult: 0
  }
  convolution_param {
    num_output: 96
    kernel_size: 11
    stride: 4
    weight_filler {
      type: "gaussian"
      std: 0.01
    }
    bias_filler {
      type: "constant"
    }
  }
}
layer {
  name: "relu1"
  type: "ReLU"
  bottom: "conv1"
  top: "relu1"
}
layer {
  name: "pool1"
  type: "Pooling"
  bottom: "relu1"
  top: "pool1"
  pooling_param {
    pool: MAX
    kernel_size: 3
    stride: 2
  }
}
layer {
  name: "conv2"
  type: "Convolution"
  bottom: "pool1"
  top: "conv2"
  param {
    lr_mult: 1
    decay_mult: 1
  }
  param {
    lr_mult: 2
    decay_mult: 0
  }
  convolution_param {
    num_output: 256
    pad: 2
    kernel_size: 5
    group: 2
    weight_filler {
      type: "gaussian"
      std: 0.01
    }
    bias_filler {
      type: "constant"
    }
  }
}
layer {
  name: "relu2"
  type: "ReLU"
  bottom: "conv2"
  top: "conv2"
}
layer {
  name: "pool2"
  type: "Pooling"
  bottom: "conv2"
  top: "pool2"
  pooling_param {
    pool: MAX
    kernel_size: 3
    stride: 2
  }
}
layer {
  name: "conv3"
  type: "Convolution"
  bottom: "pool2"
  top: "conv3"
  param {
    lr_mult: 1
    decay_mult: 1
  }
  param {
    lr_mult: 2
    decay_mult: 0
  }
  convolution_param {
    num_output: 384
    pad: 1
    kernel_size: 3
    weight_filler {
      type: "gaussian"
      std: 0.01
    }
    bias_filler {
      type: "constant"
    }
  }
}
layer {
  name: "relu3"
  type: "ReLU"
  bottom: "conv3"
  top: "conv3"
}
layer {
  name: "conv4"
  type: "Convolution"
  bottom: "conv3"
  top: "conv4"
  param {
    lr_mult: 1
    decay_mult: 1
  }
  param {
    lr_mult: 2
    decay_mult: 0
  }
  convolution_param {
    num_output: 384
    pad: 1
    kernel_size: 3
    group: 2
    weight_filler {
      type: "gaussian"
      std: 0.01
    }
    bias_filler {
      type: "constant"
    }
  }
}
layer {
  name: "relu4"
  type: "ReLU"
  bottom: "conv4"
  top: "conv4"
}
layer {
  name: "conv5"
  type: "Convolution"
  bottom: "conv4"
  top: "conv5"
  param {
    lr_mult: 1
    decay_mult: 1
  }
  param {
    lr_mult: 2
    decay_mult: 0
  }
  convolution_param {
    num_output: 256
    pad: 1
    kernel_size: 3
    group: 2
    weight_filler {
      type: "gaussian"
      std: 0.01
    }
    bias_filler {
      type: "constant"
    }
  }
}
layer {
  name: "relu5"
  type: "ReLU"
  bottom: "conv5"
  top: "conv5"
}
layer {
  name: "pool5"
  type: "Pooling"
  bottom: "conv5"
  top: "pool5"
  pooling_param {
    pool: MAX
    kernel_size: 3
    stride: 2
  }
}
layer {
  name: "fc6"
  type: "InnerProduct"
  bottom: "pool5"
  top: "fc6"
  param {
    lr_mult: 1
    decay_mult: 1
  }
  param {
    lr_mult: 2
    decay_mult: 0
  }
  inner_product_param {
    num_output: 2048
    weight_filler {
      type: "gaussian"
      std: 0.005
    }
    bias_filler {
      type: "constant"
    }
  }
}
layer {
  name: "relu6"
  type: "ReLU"
  bottom: "fc6"
  top: "fc6"
}
layer {
  name: "drop6"
  type: "Dropout"
  bottom: "fc6"
  top: "fc6"
  dropout_param {
    dropout_ratio: 0.5
  }
}
layer {
  name: "fc7"
  type: "InnerProduct"
  bottom: "fc6"
  top: "fc7"
  param {
    lr_mult: 1
    decay_mult: 1
  }
  param {
    lr_mult: 2
    decay_mult: 0
  }
  inner_product_param {
    num_output: 2048
    weight_filler {
      type: "gaussian"
      std: 0.005
    }
    bias_filler {
      type: "constant"
    }
  }
}
layer {
  name: "relu7"
  type: "ReLU"
  bottom: "fc7"
  top: "fc7"
}
layer {
  name: "drop7"
  type: "Dropout"
  bottom: "fc7"
  top: "fc7"
  dropout_param {
    dropout_ratio: 0.5
  }
}
layer {
  name: "fc8"
  type: "InnerProduct"
  bottom: "fc7"
  top: "fc8"
  param {
    lr_mult: 1
    decay_mult: 1
  }
  param {
    lr_mult: 2
    decay_mult: 0
  }
  inner_product_param {
    num_output: 1000
    weight_filler {
      type: "gaussian"
      std: 0.01
    }
    bias_filler {
      type: "constant"
    }
  }
}
layer {
  name: "accuracy"
  type: "Accuracy"
  bottom: "fc8"
  bottom: "label"
  top: "accuracy"
  include {
    phase: TEST
  }
}
layer {
  name: "loss"
  type: "SoftmaxWithLoss"
  bottom: "fc8"
  bottom: "label"
  top: "loss"
}
I0124 13:23:22.026036 27773 layer_factory.hpp:76] Creating layer data
I0124 13:23:22.026365 27773 net.cpp:106] Creating Layer data
I0124 13:23:22.026376 27773 net.cpp:411] data -> data
I0124 13:23:22.026391 27773 net.cpp:411] data -> label
I0124 13:23:22.027325 27786 db_lmdb.cpp:38] Opened lmdb /home/old-ufo/datasets/imagenet/ilsvrc12_val_lmdb
I0124 13:23:22.030133 27773 data_layer.cpp:41] output data size: 250,3,128,128
I0124 13:23:22.099014 27773 net.cpp:150] Setting up data
I0124 13:23:22.099043 27773 net.cpp:157] Top shape: 250 3 128 128 (12288000)
I0124 13:23:22.099048 27773 net.cpp:157] Top shape: 250 (250)
I0124 13:23:22.099050 27773 net.cpp:165] Memory required for data: 49153000
I0124 13:23:22.099056 27773 layer_factory.hpp:76] Creating layer label_data_1_split
I0124 13:23:22.099064 27773 net.cpp:106] Creating Layer label_data_1_split
I0124 13:23:22.099067 27773 net.cpp:454] label_data_1_split <- label
I0124 13:23:22.099073 27773 net.cpp:411] label_data_1_split -> label_data_1_split_0
I0124 13:23:22.099081 27773 net.cpp:411] label_data_1_split -> label_data_1_split_1
I0124 13:23:22.099129 27773 net.cpp:150] Setting up label_data_1_split
I0124 13:23:22.099133 27773 net.cpp:157] Top shape: 250 (250)
I0124 13:23:22.099135 27773 net.cpp:157] Top shape: 250 (250)
I0124 13:23:22.099138 27773 net.cpp:165] Memory required for data: 49155000
I0124 13:23:22.099139 27773 layer_factory.hpp:76] Creating layer conv1
I0124 13:23:22.099148 27773 net.cpp:106] Creating Layer conv1
I0124 13:23:22.099150 27773 net.cpp:454] conv1 <- data
I0124 13:23:22.099153 27773 net.cpp:411] conv1 -> conv1
I0124 13:23:22.107224 27773 net.cpp:150] Setting up conv1
I0124 13:23:22.107255 27773 net.cpp:157] Top shape: 250 96 30 30 (21600000)
I0124 13:23:22.107260 27773 net.cpp:165] Memory required for data: 135555000
I0124 13:23:22.107276 27773 layer_factory.hpp:76] Creating layer relu1
I0124 13:23:22.107290 27773 net.cpp:106] Creating Layer relu1
I0124 13:23:22.107293 27773 net.cpp:454] relu1 <- conv1
I0124 13:23:22.107300 27773 net.cpp:411] relu1 -> relu1
I0124 13:23:22.108307 27773 net.cpp:150] Setting up relu1
I0124 13:23:22.108337 27773 net.cpp:157] Top shape: 250 96 30 30 (21600000)
I0124 13:23:22.108341 27773 net.cpp:165] Memory required for data: 221955000
I0124 13:23:22.108347 27773 layer_factory.hpp:76] Creating layer pool1
I0124 13:23:22.108361 27773 net.cpp:106] Creating Layer pool1
I0124 13:23:22.108366 27773 net.cpp:454] pool1 <- relu1
I0124 13:23:22.108374 27773 net.cpp:411] pool1 -> pool1
I0124 13:23:22.109328 27773 net.cpp:150] Setting up pool1
I0124 13:23:22.109352 27773 net.cpp:157] Top shape: 250 96 15 15 (5400000)
I0124 13:23:22.109356 27773 net.cpp:165] Memory required for data: 243555000
I0124 13:23:22.109362 27773 layer_factory.hpp:76] Creating layer conv2
I0124 13:23:22.109377 27773 net.cpp:106] Creating Layer conv2
I0124 13:23:22.109382 27773 net.cpp:454] conv2 <- pool1
I0124 13:23:22.109392 27773 net.cpp:411] conv2 -> conv2
I0124 13:23:22.126180 27773 net.cpp:150] Setting up conv2
I0124 13:23:22.126207 27773 net.cpp:157] Top shape: 250 256 15 15 (14400000)
I0124 13:23:22.126211 27773 net.cpp:165] Memory required for data: 301155000
I0124 13:23:22.126226 27773 layer_factory.hpp:76] Creating layer relu2
I0124 13:23:22.126236 27773 net.cpp:106] Creating Layer relu2
I0124 13:23:22.126266 27773 net.cpp:454] relu2 <- conv2
I0124 13:23:22.126273 27773 net.cpp:397] relu2 -> conv2 (in-place)
I0124 13:23:22.127035 27773 net.cpp:150] Setting up relu2
I0124 13:23:22.127048 27773 net.cpp:157] Top shape: 250 256 15 15 (14400000)
I0124 13:23:22.127053 27773 net.cpp:165] Memory required for data: 358755000
I0124 13:23:22.127056 27773 layer_factory.hpp:76] Creating layer pool2
I0124 13:23:22.127066 27773 net.cpp:106] Creating Layer pool2
I0124 13:23:22.127071 27773 net.cpp:454] pool2 <- conv2
I0124 13:23:22.127079 27773 net.cpp:411] pool2 -> pool2
I0124 13:23:22.127888 27773 net.cpp:150] Setting up pool2
I0124 13:23:22.127902 27773 net.cpp:157] Top shape: 250 256 7 7 (3136000)
I0124 13:23:22.127905 27773 net.cpp:165] Memory required for data: 371299000
I0124 13:23:22.127909 27773 layer_factory.hpp:76] Creating layer conv3
I0124 13:23:22.127923 27773 net.cpp:106] Creating Layer conv3
I0124 13:23:22.127928 27773 net.cpp:454] conv3 <- pool2
I0124 13:23:22.127935 27773 net.cpp:411] conv3 -> conv3
I0124 13:23:22.162530 27773 net.cpp:150] Setting up conv3
I0124 13:23:22.162564 27773 net.cpp:157] Top shape: 250 384 7 7 (4704000)
I0124 13:23:22.162569 27773 net.cpp:165] Memory required for data: 390115000
I0124 13:23:22.162582 27773 layer_factory.hpp:76] Creating layer relu3
I0124 13:23:22.162595 27773 net.cpp:106] Creating Layer relu3
I0124 13:23:22.162600 27773 net.cpp:454] relu3 <- conv3
I0124 13:23:22.162606 27773 net.cpp:397] relu3 -> conv3 (in-place)
I0124 13:23:22.163369 27773 net.cpp:150] Setting up relu3
I0124 13:23:22.163382 27773 net.cpp:157] Top shape: 250 384 7 7 (4704000)
I0124 13:23:22.163385 27773 net.cpp:165] Memory required for data: 408931000
I0124 13:23:22.163389 27773 layer_factory.hpp:76] Creating layer conv4
I0124 13:23:22.163400 27773 net.cpp:106] Creating Layer conv4
I0124 13:23:22.163404 27773 net.cpp:454] conv4 <- conv3
I0124 13:23:22.163411 27773 net.cpp:411] conv4 -> conv4
I0124 13:23:22.192411 27773 net.cpp:150] Setting up conv4
I0124 13:23:22.192438 27773 net.cpp:157] Top shape: 250 384 7 7 (4704000)
I0124 13:23:22.192442 27773 net.cpp:165] Memory required for data: 427747000
I0124 13:23:22.192453 27773 layer_factory.hpp:76] Creating layer relu4
I0124 13:23:22.192466 27773 net.cpp:106] Creating Layer relu4
I0124 13:23:22.192471 27773 net.cpp:454] relu4 <- conv4
I0124 13:23:22.192478 27773 net.cpp:397] relu4 -> conv4 (in-place)
I0124 13:23:22.193243 27773 net.cpp:150] Setting up relu4
I0124 13:23:22.193254 27773 net.cpp:157] Top shape: 250 384 7 7 (4704000)
I0124 13:23:22.193259 27773 net.cpp:165] Memory required for data: 446563000
I0124 13:23:22.193264 27773 layer_factory.hpp:76] Creating layer conv5
I0124 13:23:22.193274 27773 net.cpp:106] Creating Layer conv5
I0124 13:23:22.193277 27773 net.cpp:454] conv5 <- conv4
I0124 13:23:22.193285 27773 net.cpp:411] conv5 -> conv5
I0124 13:23:22.214645 27773 net.cpp:150] Setting up conv5
I0124 13:23:22.214674 27773 net.cpp:157] Top shape: 250 256 7 7 (3136000)
I0124 13:23:22.214679 27773 net.cpp:165] Memory required for data: 459107000
I0124 13:23:22.214694 27773 layer_factory.hpp:76] Creating layer relu5
I0124 13:23:22.214704 27773 net.cpp:106] Creating Layer relu5
I0124 13:23:22.214709 27773 net.cpp:454] relu5 <- conv5
I0124 13:23:22.214715 27773 net.cpp:397] relu5 -> conv5 (in-place)
I0124 13:23:22.215574 27773 net.cpp:150] Setting up relu5
I0124 13:23:22.215587 27773 net.cpp:157] Top shape: 250 256 7 7 (3136000)
I0124 13:23:22.215591 27773 net.cpp:165] Memory required for data: 471651000
I0124 13:23:22.215595 27773 layer_factory.hpp:76] Creating layer pool5
I0124 13:23:22.215603 27773 net.cpp:106] Creating Layer pool5
I0124 13:23:22.215607 27773 net.cpp:454] pool5 <- conv5
I0124 13:23:22.215615 27773 net.cpp:411] pool5 -> pool5
I0124 13:23:22.216444 27773 net.cpp:150] Setting up pool5
I0124 13:23:22.216455 27773 net.cpp:157] Top shape: 250 256 3 3 (576000)
I0124 13:23:22.216459 27773 net.cpp:165] Memory required for data: 473955000
I0124 13:23:22.216464 27773 layer_factory.hpp:76] Creating layer fc6
I0124 13:23:22.216490 27773 net.cpp:106] Creating Layer fc6
I0124 13:23:22.216495 27773 net.cpp:454] fc6 <- pool5
I0124 13:23:22.216501 27773 net.cpp:411] fc6 -> fc6
I0124 13:23:22.385401 27773 net.cpp:150] Setting up fc6
I0124 13:23:22.385427 27773 net.cpp:157] Top shape: 250 2048 (512000)
I0124 13:23:22.385432 27773 net.cpp:165] Memory required for data: 476003000
I0124 13:23:22.385512 27773 layer_factory.hpp:76] Creating layer relu6
I0124 13:23:22.385552 27773 net.cpp:106] Creating Layer relu6
I0124 13:23:22.385560 27773 net.cpp:454] relu6 <- fc6
I0124 13:23:22.385593 27773 net.cpp:397] relu6 -> fc6 (in-place)
I0124 13:23:22.386677 27773 net.cpp:150] Setting up relu6
I0124 13:23:22.386690 27773 net.cpp:157] Top shape: 250 2048 (512000)
I0124 13:23:22.386729 27773 net.cpp:165] Memory required for data: 478051000
I0124 13:23:22.386760 27773 layer_factory.hpp:76] Creating layer drop6
I0124 13:23:22.386817 27773 net.cpp:106] Creating Layer drop6
I0124 13:23:22.386824 27773 net.cpp:454] drop6 <- fc6
I0124 13:23:22.386859 27773 net.cpp:397] drop6 -> fc6 (in-place)
I0124 13:23:22.386926 27773 net.cpp:150] Setting up drop6
I0124 13:23:22.386935 27773 net.cpp:157] Top shape: 250 2048 (512000)
I0124 13:23:22.386967 27773 net.cpp:165] Memory required for data: 480099000
I0124 13:23:22.386997 27773 layer_factory.hpp:76] Creating layer fc7
I0124 13:23:22.387035 27773 net.cpp:106] Creating Layer fc7
I0124 13:23:22.387042 27773 net.cpp:454] fc7 <- fc6
I0124 13:23:22.387075 27773 net.cpp:411] fc7 -> fc7
I0124 13:23:22.538274 27773 net.cpp:150] Setting up fc7
I0124 13:23:22.538301 27773 net.cpp:157] Top shape: 250 2048 (512000)
I0124 13:23:22.538306 27773 net.cpp:165] Memory required for data: 482147000
I0124 13:23:22.538318 27773 layer_factory.hpp:76] Creating layer relu7
I0124 13:23:22.538329 27773 net.cpp:106] Creating Layer relu7
I0124 13:23:22.538334 27773 net.cpp:454] relu7 <- fc7
I0124 13:23:22.538342 27773 net.cpp:397] relu7 -> fc7 (in-place)
I0124 13:23:22.539412 27773 net.cpp:150] Setting up relu7
I0124 13:23:22.539429 27773 net.cpp:157] Top shape: 250 2048 (512000)
I0124 13:23:22.539433 27773 net.cpp:165] Memory required for data: 484195000
I0124 13:23:22.539438 27773 layer_factory.hpp:76] Creating layer drop7
I0124 13:23:22.539446 27773 net.cpp:106] Creating Layer drop7
I0124 13:23:22.539451 27773 net.cpp:454] drop7 <- fc7
I0124 13:23:22.539458 27773 net.cpp:397] drop7 -> fc7 (in-place)
I0124 13:23:22.539506 27773 net.cpp:150] Setting up drop7
I0124 13:23:22.539513 27773 net.cpp:157] Top shape: 250 2048 (512000)
I0124 13:23:22.539516 27773 net.cpp:165] Memory required for data: 486243000
I0124 13:23:22.539520 27773 layer_factory.hpp:76] Creating layer fc8
I0124 13:23:22.539528 27773 net.cpp:106] Creating Layer fc8
I0124 13:23:22.539532 27773 net.cpp:454] fc8 <- fc7
I0124 13:23:22.539540 27773 net.cpp:411] fc8 -> fc8
I0124 13:23:22.613267 27773 net.cpp:150] Setting up fc8
I0124 13:23:22.613294 27773 net.cpp:157] Top shape: 250 1000 (250000)
I0124 13:23:22.613298 27773 net.cpp:165] Memory required for data: 487243000
I0124 13:23:22.613309 27773 layer_factory.hpp:76] Creating layer fc8_fc8_0_split
I0124 13:23:22.613319 27773 net.cpp:106] Creating Layer fc8_fc8_0_split
I0124 13:23:22.613324 27773 net.cpp:454] fc8_fc8_0_split <- fc8
I0124 13:23:22.613333 27773 net.cpp:411] fc8_fc8_0_split -> fc8_fc8_0_split_0
I0124 13:23:22.613344 27773 net.cpp:411] fc8_fc8_0_split -> fc8_fc8_0_split_1
I0124 13:23:22.613395 27773 net.cpp:150] Setting up fc8_fc8_0_split
I0124 13:23:22.613404 27773 net.cpp:157] Top shape: 250 1000 (250000)
I0124 13:23:22.613409 27773 net.cpp:157] Top shape: 250 1000 (250000)
I0124 13:23:22.613411 27773 net.cpp:165] Memory required for data: 489243000
I0124 13:23:22.613415 27773 layer_factory.hpp:76] Creating layer accuracy
I0124 13:23:22.613427 27773 net.cpp:106] Creating Layer accuracy
I0124 13:23:22.613431 27773 net.cpp:454] accuracy <- fc8_fc8_0_split_0
I0124 13:23:22.613436 27773 net.cpp:454] accuracy <- label_data_1_split_0
I0124 13:23:22.613442 27773 net.cpp:411] accuracy -> accuracy
…
