…
      mirror: false
      crop_size: 128
      mean_value: 104
      mean_value: 117
      mean_value: 123
      force_color: true
      resize_param {
        prob: 1
        resize_mode: FIT_SMALL_SIZE
        height: 144
        width: 144
        pad_mode: MIRRORED
        pad_value: 104
        pad_value: 117
        pad_value: 124
        interp_mode: LINEAR
        center_object: false
        max_angle: 0
      }
    }
    data_param {
      source: "/local/temporary/imagenet_clc_orig/ilsvrc12_val_lmdb"
      batch_size: 50
      backend: LMDB
    }
  }
  layer {
    name: "conv1"
    type: "Convolution"
    bottom: "data"
    top: "conv1"
    param {
      lr_mult: 1
      decay_mult: 1
    }
    param {
      lr_mult: 2
      decay_mult: 0
    }
    convolution_param {
      num_output: 96
      kernel_size: 11
      stride: 4
      weight_filler {
        type: "gaussian"
        std: 0.01
      }
      bias_filler {
        type: "constant"
      }
    }
  }
  layer {
    name: "relu1"
    type: "ReLU"
    bottom: "conv1"
    top: "relu1"
  }
  layer {
    name: "pool1"
    type: "Pooling"
    bottom: "relu1"
    top: "pool1"
    pooling_param {
      pool: MAX
      kernel_size: 3
      stride: 2
    }
  }
  layer {
    name: "conv2"
    type: "Convolution"
    bottom: "pool1"
    top: "conv2"
    param {
      lr_mult: 1
      decay_mult: 1
    }
    param {
      lr_mult: 2
      decay_mult: 0
    }
    convolution_param {
      num_output: 256
      pad: 2
      kernel_size: 5
      group: 2
      weight_filler {
        type: "gaussian"
        std: 0.01
      }
      bias_filler {
        type: "constant"
      }
    }
  }
  layer {
    name: "relu2"
    type: "ReLU"
    bottom: "conv2"
    top: "relu2"
  }
  layer {
    name: "pool2"
    type: "Pooling"
    bottom: "relu2"
    top: "pool2"
    pooling_param {
      pool: MAX
      kernel_size: 3
      stride: 2
    }
  }
  layer {
    name: "conv3"
    type: "Convolution"
    bottom: "pool2"
    top: "conv3"
    param {
      lr_mult: 1
      decay_mult: 1
    }
    param {
      lr_mult: 2
      decay_mult: 0
    }
    convolution_param {
      num_output: 384
      pad: 1
      kernel_size: 3
      weight_filler {
        type: "gaussian"
        std: 0.01
      }
      bias_filler {
        type: "constant"
      }
    }
  }
  layer {
    name: "relu3"
    type: "ReLU"
    bottom: "conv3"
    top: "relu3"
  }
  layer {
    name: "conv4"
    type: "Convolution"
    bottom: "relu3"
    top: "conv4"
    param {
      lr_mult: 1
      decay_mult: 1
    }
    param {
      lr_mult: 2
      decay_mult: 0
    }
    convolution_param {
      num_output: 384
      pad: 1
      kernel_size: 3
      group: 2
      weight_filler {
        type: "gaussian"
        std: 0.01
      }
      bias_filler {
        type: "constant"
      }
    }
  }
  layer {
    name: "relu4"
    type: "ReLU"
    bottom: "conv4"
    top: "relu4"
  }
  layer {
    name: "conv5"
    type: "Convolution"
    bottom: "relu4"
    top: "conv5"
    param {
      lr_mult: 1
      decay_mult: 1
    }
    param {
      lr_mult: 2
      decay_mult: 0
    }
    convolution_param {
      num_output: 256
      pad: 1
      kernel_size: 3
      group: 2
      weight_filler {
        type: "gaussian"
        std: 0.01
      }
      bias_filler {
        type: "constant"
      }
    }
  }
  layer {
    name: "relu5"
    type: "ReLU"
    bottom: "conv5"
    top: "relu5"
  }
  layer {
    name: "pool5"
    type: "Pooling"
    bottom: "relu5"
    top: "pool5"
    pooling_param {
      pool: MAX
      kernel_size: 3
      stride: 2
    }
  }
  layer {
    name: "fc6"
    type: "InnerProduct"
    bottom: "pool5"
    top: "fc6"
    param {
      lr_mult: 1
      decay_mult: 1
    }
    param {
      lr_mult: 2
      decay_mult: 0
    }
    inner_product_param {
      num_output: 2048
      weight_filler {
        type: "gaussian"
        std: 0.005
      }
      bias_filler {
        type: "constant"
      }
    }
  }
  layer {
    name: "relu6"
    type: "ReLU"
    bottom: "fc6"
    top: "relu6"
  }
  layer {
    name: "drop6"
    type: "Dropout"
    bottom: "relu6"
    top: "drop6"
    dropout_param {
      dropout_ratio: 0.5
    }
  }
  layer {
    name: "fc7"
    type: "InnerProduct"
    bottom: "drop6"
    top: "fc7"
    param {
      lr_mult: 1
      decay_mult: 1
    }
    param {
      lr_mult: 2
      decay_mult: 0
    }
    inner_product_param {
      num_output: 2048
      weight_filler {
        type: "gaussian"
        std: 0.005
      }
      bias_filler {
        type: "constant"
      }
    }
  }
  layer {
    name: "relu7"
    type: "ReLU"
    bottom: "fc7"
    top: "relu7"
  }
  layer {
    name: "drop7"
    type: "Dropout"
    bottom: "relu7"
    top: "drop7"
    dropout_param {
      dropout_ratio: 0.5
    }
  }
  layer {
    name: "fc8"
    type: "InnerProduct"
    bottom: "drop7"
    top: "fc8"
    param {
      lr_mult: 1
      decay_mult: 1
    }
    param {
      lr_mult: 2
      decay_mult: 0
    }
    inner_product_param {
      num_output: 1000
      weight_filler {
        type: "gaussian"
        std: 0.01
      }
      bias_filler {
        type: "constant"
      }
    }
  }
  layer {
    name: "accuracy"
    type: "Accuracy"
    bottom: "fc8"
    bottom: "label"
    top: "accuracy"
    include {
      phase: TEST
    }
  }
  layer {
    name: "loss"
    type: "SoftmaxWithLoss"
    bottom: "fc8"
    bottom: "label"
    top: "loss"
  }
}
delta: 1e-06
test_initialization: false
iter_size: 1
type: "AdaDelta"
I0123 16:34:51.363090 13729 solver.cpp:85] Creating training net specified in net_param.
I0123 16:34:51.363260 13729 net.cpp:322] The NetState phase (0) differed from the phase (1) specified by a rule in layer data
I0123 16:34:51.363302 13729 net.cpp:322] The NetState phase (0) differed from the phase (1) specified by a rule in layer accuracy
I0123 16:34:51.363725 13729 net.cpp:49] Initializing net from parameters: 
name: "CaffeNet"
state {
  phase: TRAIN
}
layer {
  name: "data"
  type: "Data"
  top: "data"
  top: "label"
  include {
    phase: TRAIN
  }
  transform_param {
    scale: 0.04
    mirror: true
    crop_size: 128
    mean_value: 104
    mean_value: 117
    mean_value: 124
    force_color: true
    resize_param {
      prob: 1
      resize_mode: FIT_SMALL_SIZE
      height: 144
      width: 144
      pad_mode: MIRRORED
      pad_value: 104
      pad_value: 117
      pad_value: 124
      interp_mode: LINEAR
      center_object: false
      max_angle: 0
    }
  }
  data_param {
    source: "/local/temporary/imagenet_clc_orig/ilsvrc12_train_shuffle_lmdb"
    batch_size: 128
    backend: LMDB
  }
}
layer {
  name: "conv1"
  type: "Convolution"
  bottom: "data"
  top: "conv1"
  param {
    lr_mult: 1
    decay_mult: 1
  }
  param {
    lr_mult: 2
    decay_mult: 0
  }
  convolution_param {
    num_output: 96
    kernel_size: 11
    stride: 4
    weight_filler {
      type: "gaussian"
      std: 0.01
    }
    bias_filler {
      type: "constant"
    }
  }
}
layer {
  name: "relu1"
  type: "ReLU"
  bottom: "conv1"
  top: "relu1"
}
layer {
  name: "pool1"
  type: "Pooling"
  bottom: "relu1"
  top: "pool1"
  pooling_param {
    pool: MAX
    kernel_size: 3
    stride: 2
  }
}
layer {
  name: "conv2"
  type: "Convolution"
  bottom: "pool1"
  top: "conv2"
  param {
    lr_mult: 1
    decay_mult: 1
  }
  param {
    lr_mult: 2
    decay_mult: 0
  }
  convolution_param {
    num_output: 256
    pad: 2
    kernel_size: 5
    group: 2
    weight_filler {
      type: "gaussian"
      std: 0.01
    }
    bias_filler {
      type: "constant"
    }
  }
}
layer {
  name: "relu2"
  type: "ReLU"
  bottom: "conv2"
  top: "relu2"
}
layer {
  name: "pool2"
  type: "Pooling"
  bottom: "relu2"
  top: "pool2"
  pooling_param {
    pool: MAX
    kernel_size: 3
    stride: 2
  }
}
layer {
  name: "conv3"
  type: "Convolution"
  bottom: "pool2"
  top: "conv3"
  param {
    lr_mult: 1
    decay_mult: 1
  }
  param {
    lr_mult: 2
    decay_mult: 0
  }
  convolution_param {
    num_output: 384
    pad: 1
    kernel_size: 3
    weight_filler {
      type: "gaussian"
      std: 0.01
    }
    bias_filler {
      type: "constant"
    }
  }
}
layer {
  name: "relu3"
  type: "ReLU"
  bottom: "conv3"
  top: "relu3"
}
layer {
  name: "conv4"
  type: "Convolution"
  bottom: "relu3"
  top: "conv4"
  param {
    lr_mult: 1
    decay_mult: 1
  }
  param {
    lr_mult: 2
    decay_mult: 0
  }
  convolution_param {
    num_output: 384
    pad: 1
    kernel_size: 3
    group: 2
    weight_filler {
      type: "gaussian"
      std: 0.01
    }
    bias_filler {
      type: "constant"
    }
  }
}
layer {
  name: "relu4"
  type: "ReLU"
  bottom: "conv4"
  top: "relu4"
}
layer {
  name: "conv5"
  type: "Convolution"
  bottom: "relu4"
  top: "conv5"
  param {
    lr_mult: 1
    decay_mult: 1
  }
  param {
    lr_mult: 2
    decay_mult: 0
  }
  convolution_param {
    num_output: 256
    pad: 1
    kernel_size: 3
    group: 2
    weight_filler {
      type: "gaussian"
      std: 0.01
    }
    bias_filler {
      type: "constant"
    }
  }
}
layer {
  name: "relu5"
  type: "ReLU"
  bottom: "conv5"
  top: "relu5"
}
layer {
  name: "pool5"
  type: "Pooling"
  bottom: "relu5"
  top: "pool5"
  pooling_param {
    pool: MAX
    kernel_size: 3
    stride: 2
  }
}
layer {
  name: "fc6"
  type: "InnerProduct"
  bottom: "pool5"
  top: "fc6"
  param {
    lr_mult: 1
    decay_mult: 1
  }
  param {
    lr_mult: 2
    decay_mult: 0
  }
  inner_product_param {
    num_output: 2048
    weight_filler {
      type: "gaussian"
      std: 0.005
    }
    bias_filler {
      type: "constant"
    }
  }
}
layer {
  name: "relu6"
  type: "ReLU"
  bottom: "fc6"
  top: "relu6"
}
layer {
  name: "drop6"
  type: "Dropout"
  bottom: "relu6"
  top: "drop6"
  dropout_param {
    dropout_ratio: 0.5
  }
}
layer {
  name: "fc7"
  type: "InnerProduct"
  bottom: "drop6"
  top: "fc7"
  param {
    lr_mult: 1
    decay_mult: 1
  }
  param {
    lr_mult: 2
    decay_mult: 0
  }
  inner_product_param {
    num_output: 2048
    weight_filler {
      type: "gaussian"
      std: 0.005
    }
    bias_filler {
      type: "constant"
    }
  }
}
layer {
  name: "relu7"
  type: "ReLU"
  bottom: "fc7"
  top: "relu7"
}
layer {
  name: "drop7"
  type: "Dropout"
  bottom: "relu7"
  top: "drop7"
  dropout_param {
    dropout_ratio: 0.5
  }
}
layer {
  name: "fc8"
  type: "InnerProduct"
  bottom: "drop7"
  top: "fc8"
  param {
    lr_mult: 1
    decay_mult: 1
  }
  param {
    lr_mult: 2
    decay_mult: 0
  }
  inner_product_param {
    num_output: 1000
    weight_filler {
      type: "gaussian"
      std: 0.01
    }
    bias_filler {
      type: "constant"
    }
  }
}
layer {
  name: "loss"
  type: "SoftmaxWithLoss"
  bottom: "fc8"
  bottom: "label"
  top: "loss"
}
I0123 16:34:51.363930 13729 layer_factory.hpp:76] Creating layer data
I0123 16:34:51.364831 13729 net.cpp:106] Creating Layer data
I0123 16:34:51.364857 13729 net.cpp:411] data -> data
I0123 16:34:51.364899 13729 net.cpp:411] data -> label
I0123 16:34:51.365870 13825 db_lmdb.cpp:38] Opened lmdb /local/temporary/imagenet_clc_orig/ilsvrc12_train_shuffle_lmdb
I0123 16:34:51.383958 13729 data_layer.cpp:41] output data size: 128,3,128,128
I0123 16:34:51.440672 13729 net.cpp:150] Setting up data
I0123 16:34:51.440716 13729 net.cpp:157] Top shape: 128 3 128 128 (6291456)
I0123 16:34:51.440721 13729 net.cpp:157] Top shape: 128 (128)
I0123 16:34:51.440726 13729 net.cpp:165] Memory required for data: 25166336
I0123 16:34:51.440747 13729 layer_factory.hpp:76] Creating layer conv1
I0123 16:34:51.440768 13729 net.cpp:106] Creating Layer conv1
I0123 16:34:51.440773 13729 net.cpp:454] conv1 <- data
I0123 16:34:51.440799 13729 net.cpp:411] conv1 -> conv1
I0123 16:34:51.577159 13729 cudnn_conv_layer.cpp:194] Reallocating workspace storage: 4356
I0123 16:34:51.577306 13729 net.cpp:150] Setting up conv1
I0123 16:34:51.577322 13729 net.cpp:157] Top shape: 128 96 30 30 (11059200)
I0123 16:34:51.577325 13729 net.cpp:165] Memory required for data: 69403136
I0123 16:34:51.577345 13729 layer_factory.hpp:76] Creating layer relu1
I0123 16:34:51.577364 13729 net.cpp:106] Creating Layer relu1
I0123 16:34:51.577371 13729 net.cpp:454] relu1 <- conv1
I0123 16:34:51.577383 13729 net.cpp:411] relu1 -> relu1
I0123 16:34:51.577612 13729 net.cpp:150] Setting up relu1
I0123 16:34:51.577626 13729 net.cpp:157] Top shape: 128 96 30 30 (11059200)
I0123 16:34:51.577632 13729 net.cpp:165] Memory required for data: 113639936
I0123 16:34:51.577638 13729 layer_factory.hpp:76] Creating layer pool1
I0123 16:34:51.577662 13729 net.cpp:106] Creating Layer pool1
I0123 16:34:51.577669 13729 net.cpp:454] pool1 <- relu1
I0123 16:34:51.577678 13729 net.cpp:411] pool1 -> pool1
I0123 16:34:51.578029 13729 net.cpp:150] Setting up pool1
I0123 16:34:51.578045 13729 net.cpp:157] Top shape: 128 96 15 15 (2764800)
I0123 16:34:51.578052 13729 net.cpp:165] Memory required for data: 124699136
I0123 16:34:51.578073 13729 layer_factory.hpp:76] Creating layer conv2
I0123 16:34:51.578091 13729 net.cpp:106] Creating Layer conv2
I0123 16:34:51.578099 13729 net.cpp:454] conv2 <- pool1
I0123 16:34:51.578109 13729 net.cpp:411] conv2 -> conv2
I0123 16:34:51.589854 13729 cudnn_conv_layer.cpp:194] Reallocating workspace storage: 28800
I0123 16:34:51.589882 13729 net.cpp:150] Setting up conv2
I0123 16:34:51.589901 13729 net.cpp:157] Top shape: 128 256 15 15 (7372800)
I0123 16:34:51.589906 13729 net.cpp:165] Memory required for data: 154190336
I0123 16:34:51.589923 13729 layer_factory.hpp:76] Creating layer relu2
I0123 16:34:51.589931 13729 net.cpp:106] Creating Layer relu2
I0123 16:34:51.589934 13729 net.cpp:454] relu2 <- conv2
I0123 16:34:51.589941 13729 net.cpp:411] relu2 -> relu2
I0123 16:34:51.590137 13729 net.cpp:150] Setting up relu2
I0123 16:34:51.590147 13729 net.cpp:157] Top shape: 128 256 15 15 (7372800)
I0123 16:34:51.590149 13729 net.cpp:165] Memory required for data: 183681536
I0123 16:34:51.590153 13729 layer_factory.hpp:76] Creating layer pool2
I0123 16:34:51.590160 13729 net.cpp:106] Creating Layer pool2
I0123 16:34:51.590167 13729 net.cpp:454] pool2 <- relu2
I0123 16:34:51.590172 13729 net.cpp:411] pool2 -> pool2
I0123 16:34:51.590517 13729 net.cpp:150] Setting up pool2
I0123 16:34:51.590528 13729 net.cpp:157] Top shape: 128 256 7 7 (1605632)
I0123 16:34:51.590538 13729 net.cpp:165] Memory required for data: 190104064
I0123 16:34:51.590543 13729 layer_factory.hpp:76] Creating layer conv3
I0123 16:34:51.590551 13729 net.cpp:106] Creating Layer conv3
I0123 16:34:51.590554 13729 net.cpp:454] conv3 <- pool2
I0123 16:34:51.590561 13729 net.cpp:411] conv3 -> conv3
I0123 16:34:51.619915 13729 net.cpp:150] Setting up conv3
I0123 16:34:51.619941 13729 net.cpp:157] Top shape: 128 384 7 7 (2408448)
I0123 16:34:51.619946 13729 net.cpp:165] Memory required for data: 199737856
I0123 16:34:51.619969 13729 layer_factory.hpp:76] Creating layer relu3
I0123 16:34:51.619999 13729 net.cpp:106] Creating Layer relu3
I0123 16:34:51.620007 13729 net.cpp:454] relu3 <- conv3
I0123 16:34:51.620018 13729 net.cpp:411] relu3 -> relu3
I0123 16:34:51.620375 13729 net.cpp:150] Setting up relu3
I0123 16:34:51.620425 13729 net.cpp:157] Top shape: 128 384 7 7 (2408448)
I0123 16:34:51.620432 13729 net.cpp:165] Memory required for data: 209371648
I0123 16:34:51.620453 13729 layer_factory.hpp:76] Creating layer conv4
I0123 16:34:51.620473 13729 net.cpp:106] Creating Layer conv4
I0123 16:34:51.620481 13729 net.cpp:454] conv4 <- relu3
I0123 16:34:51.620492 13729 net.cpp:411] conv4 -> conv4
I0123 16:34:51.643573 13729 net.cpp:150] Setting up conv4
I0123 16:34:51.643594 13729 net.cpp:157] Top shape: 128 384 7 7 (2408448)
I0123 16:34:51.643599 13729 net.cpp:165] Memory required for data: 219005440
I0123 16:34:51.643612 13729 layer_factory.hpp:76] Creating layer relu4
I0123 16:34:51.643636 13729 net.cpp:106] Creating Layer relu4
I0123 16:34:51.643642 13729 net.cpp:454] relu4 <- conv4
I0123 16:34:51.643656 13729 net.cpp:411] relu4 -> relu4
I0123 16:34:51.643873 13729 net.cpp:150] Setting up relu4
I0123 16:34:51.643883 13729 net.cpp:157] Top shape: 128 384 7 7 (2408448)
I0123 16:34:51.643887 13729 net.cpp:165] Memory required for data: 228639232
I0123 16:34:51.643890 13729 layer_factory.hpp:76] Creating layer conv5
I0123 16:34:51.643901 13729 net.cpp:106] Creating Layer conv5
I0123 16:34:51.643906 13729 net.cpp:454] conv5 <- relu4
I0123 16:34:51.643913 13729 net.cpp:411] conv5 -> conv5
I0123 16:34:51.660095 13729 net.cpp:150] Setting up conv5
I0123 16:34:51.660110 13729 net.cpp:157] Top shape: 128 256 7 7 (1605632)
I0123 16:34:51.660115 13729 net.cpp:165] Memory required for data: 235061760
I0123 16:34:51.660130 13729 layer_factory.hpp:76] Creating layer relu5
I0123 16:34:51.660138 13729 net.cpp:106] Creating Layer relu5
I0123 16:34:51.660142 13729 net.cpp:454] relu5 <- conv5
I0123 16:34:51.660152 13729 net.cpp:411] relu5 -> relu5
I0123 16:34:51.660403 13729 net.cpp:150] Setting up relu5
I0123 16:34:51.660414 13729 net.cpp:157] Top shape: 128 256 7 7 (1605632)
I0123 16:34:51.660418 13729 net.cpp:165] Memory required for data: 241484288
I0123 16:34:51.660421 13729 layer_factory.hpp:76] Creating layer pool5
I0123 16:34:51.660429 13729 net.cpp:106] Creating Layer pool5
I0123 16:34:51.660434 13729 net.cpp:454] pool5 <- relu5
I0123 16:34:51.660441 13729 net.cpp:411] pool5 -> pool5
I0123 16:34:51.660787 13729 net.cpp:150] Setting up pool5
I0123 16:34:51.660799 13729 net.cpp:157] Top shape: 128 256 3 3 (294912)
I0123 16:34:51.660801 13729 net.cpp:165] Memory required for data: 242663936
I0123 16:34:51.660805 13729 layer_factory.hpp:76] Creating layer fc6
I0123 16:34:51.660822 13729 net.cpp:106] Creating Layer fc6
I0123 16:34:51.660827 13729 net.cpp:454] fc6 <- pool5
I0123 16:34:51.660840 13729 net.cpp:411] fc6 -> fc6
I0123 16:34:51.814355 13729 net.cpp:150] Setting up fc6
I0123 16:34:51.814388 13729 net.cpp:157] Top shape: 128 2048 (262144)
I0123 16:34:51.814391 13729 net.cpp:165] Memory required for data: 243712512
I0123 16:34:51.814401 13729 layer_factory.hpp:76] Creating layer relu6
I0123 16:34:51.814420 13729 net.cpp:106] Creating Layer relu6
I0123 16:34:51.814424 13729 net.cpp:454] relu6 <- fc6
I0123 16:34:51.814431 13729 net.cpp:411] relu6 -> relu6
I0123 16:34:51.814710 13729 net.cpp:150] Setting up relu6
I0123 16:34:51.814720 13729 net.cpp:157] Top shape: 128 2048 (262144)
I0123 16:34:51.814724 13729 net.cpp:165] Memory required for data: 244761088
I0123 16:34:51.814728 13729 layer_factory.hpp:76] Creating layer drop6
I0123 16:34:51.814738 13729 net.cpp:106] Creating Layer drop6
I0123 16:34:51.814743 13729 net.cpp:454] drop6 <- relu6
I0123 16:34:51.814749 13729 net.cpp:411] drop6 -> drop6
I0123 16:34:51.814795 13729 net.cpp:150] Setting up drop6
I0123 16:34:51.814803 13729 net.cpp:157] Top shape: 128 2048 (262144)
I0123 16:34:51.814806 13729 net.cpp:165] Memory required for data: 245809664
I0123 16:34:51.814810 13729 layer_factory.hpp:76] Creating layer fc7
I0123 16:34:51.814823 13729 net.cpp:106] Creating Layer fc7
I0123 16:34:51.814829 13729 net.cpp:454] fc7 <- drop6
I0123 16:34:51.814836 13729 net.cpp:411] fc7 -> fc7
I0123 16:34:51.950034 13729 net.cpp:150] Setting up fc7
I0123 16:34:51.950109 13729 net.cpp:157] Top shape: 128 2048 (262144)
I0123 16:34:51.950112 13729 net.cpp:165] Memory required for data: 246858240
I0123 16:34:51.950124 13729 layer_factory.hpp:76] Creating layer relu7
I0123 16:34:51.950134 13729 net.cpp:106] Creating Layer relu7
I0123 16:34:51.950137 13729 net.cpp:454] relu7 <- fc7
I0123 16:34:51.950146 13729 net.cpp:411] relu7 -> relu7
I0123 16:34:51.950706 13729 net.cpp:150] Setting up relu7
I0123 16:34:51.950719 13729 net.cpp:157] Top shape: 128 2048 (262144)
I0123 16:34:51.950729 13729 net.cpp:165] Memory required for data: 247906816
I0123 16:34:51.950733 13729 layer_factory.hpp:76] Creating layer drop7
I0123 16:34:51.950742 13729 net.cpp:106] Creating Layer drop7
I0123 16:34:51.950747 13729 net.cpp:454] drop7 <- relu7
I0123 16:34:51.950753 13729 net.cpp:411] drop7 -> drop7
I0123 16:34:51.950800 13729 net.cpp:150] Setting up drop7
I0123 16:34:51.950808 13729 net.cpp:157] Top shape: 128 2048 (262144)
I0123 16:34:51.950810 13729 net.cpp:165] Memory required for data: 248955392
I0123 16:34:51.950819 13729 layer_factory.hpp:76] Creating layer fc8
I0123 16:34:51.950839 13729 net.cpp:106] Creating Layer fc8
I0123 16:34:51.950841 13729 net.cpp:454] fc8 <- drop7
I0123 16:34:51.950846 13729 net.cpp:411] fc8 -> fc8
I0123 16:34:52.016700 13729 net.cpp:150] Setting up fc8
I0123 16:34:52.016734 13729 net.cpp:157] Top shape: 128 1000 (128000)
I0123 16:34:52.016738 13729 net.cpp:165] Memory required for data: 249467392
I0123 16:34:52.016748 13729 layer_factory.hpp:76] Creating layer loss
I0123 16:34:52.016760 13729 net.cpp:106] Creating Layer loss
I0123 16:34:52.016764 13729 net.cpp:454] loss <- fc8
I0123 16:34:52.016770 13729 net.cpp:454] loss <- label
I0123 16:34:52.016778 13729 net.cpp:411] loss -> loss
I0123 16:34:52.016793 13729 layer_factory.hpp:76] Creating layer loss
…
  }
  transform_param {
    scale: 0.04
    mirror: false
    crop_size: 128
    mean_value: 104
    mean_value: 117
    mean_value: 123
    force_color: true
    resize_param {
      prob: 1
      resize_mode: FIT_SMALL_SIZE
      height: 144
      width: 144
      pad_mode: MIRRORED
      pad_value: 104
      pad_value: 117
      pad_value: 124
      interp_mode: LINEAR
      center_object: false
      max_angle: 0
    }
  }
  data_param {
    source: "/local/temporary/imagenet_clc_orig/ilsvrc12_val_lmdb"
    batch_size: 50
    backend: LMDB
  }
}
layer {
  name: "conv1"
  type: "Convolution"
  bottom: "data"
  top: "conv1"
  param {
    lr_mult: 1
    decay_mult: 1
  }
  param {
    lr_mult: 2
    decay_mult: 0
  }
  convolution_param {
    num_output: 96
    kernel_size: 11
    stride: 4
    weight_filler {
      type: "gaussian"
      std: 0.01
    }
    bias_filler {
      type: "constant"
    }
  }
}
layer {
  name: "relu1"
  type: "ReLU"
  bottom: "conv1"
  top: "relu1"
}
layer {
  name: "pool1"
  type: "Pooling"
  bottom: "relu1"
  top: "pool1"
  pooling_param {
    pool: MAX
    kernel_size: 3
    stride: 2
  }
}
layer {
  name: "conv2"
  type: "Convolution"
  bottom: "pool1"
  top: "conv2"
  param {
    lr_mult: 1
    decay_mult: 1
  }
  param {
    lr_mult: 2
    decay_mult: 0
  }
  convolution_param {
    num_output: 256
    pad: 2
    kernel_size: 5
    group: 2
    weight_filler {
      type: "gaussian"
      std: 0.01
    }
    bias_filler {
      type: "constant"
    }
  }
}
layer {
  name: "relu2"
  type: "ReLU"
  bottom: "conv2"
  top: "relu2"
}
layer {
  name: "pool2"
  type: "Pooling"
  bottom: "relu2"
  top: "pool2"
  pooling_param {
    pool: MAX
    kernel_size: 3
    stride: 2
  }
}
layer {
  name: "conv3"
  type: "Convolution"
  bottom: "pool2"
  top: "conv3"
  param {
    lr_mult: 1
    decay_mult: 1
  }
  param {
    lr_mult: 2
    decay_mult: 0
  }
  convolution_param {
    num_output: 384
    pad: 1
    kernel_size: 3
    weight_filler {
      type: "gaussian"
      std: 0.01
    }
    bias_filler {
      type: "constant"
    }
  }
}
layer {
  name: "relu3"
  type: "ReLU"
  bottom: "conv3"
  top: "relu3"
}
layer {
  name: "conv4"
  type: "Convolution"
  bottom: "relu3"
  top: "conv4"
  param {
    lr_mult: 1
    decay_mult: 1
  }
  param {
    lr_mult: 2
    decay_mult: 0
  }
  convolution_param {
    num_output: 384
    pad: 1
    kernel_size: 3
    group: 2
    weight_filler {
      type: "gaussian"
      std: 0.01
    }
    bias_filler {
      type: "constant"
    }
  }
}
layer {
  name: "relu4"
  type: "ReLU"
  bottom: "conv4"
  top: "relu4"
}
layer {
  name: "conv5"
  type: "Convolution"
  bottom: "relu4"
  top: "conv5"
  param {
    lr_mult: 1
    decay_mult: 1
  }
  param {
    lr_mult: 2
    decay_mult: 0
  }
  convolution_param {
    num_output: 256
    pad: 1
    kernel_size: 3
    group: 2
    weight_filler {
      type: "gaussian"
      std: 0.01
    }
    bias_filler {
      type: "constant"
    }
  }
}
layer {
  name: "relu5"
  type: "ReLU"
  bottom: "conv5"
  top: "relu5"
}
layer {
  name: "pool5"
  type: "Pooling"
  bottom: "relu5"
  top: "pool5"
  pooling_param {
    pool: MAX
    kernel_size: 3
    stride: 2
  }
}
layer {
  name: "fc6"
  type: "InnerProduct"
  bottom: "pool5"
  top: "fc6"
  param {
    lr_mult: 1
    decay_mult: 1
  }
  param {
    lr_mult: 2
    decay_mult: 0
  }
  inner_product_param {
    num_output: 2048
    weight_filler {
      type: "gaussian"
      std: 0.005
    }
    bias_filler {
      type: "constant"
    }
  }
}
layer {
  name: "relu6"
  type: "ReLU"
  bottom: "fc6"
  top: "relu6"
}
layer {
  name: "drop6"
  type: "Dropout"
  bottom: "relu6"
  top: "drop6"
  dropout_param {
    dropout_ratio: 0.5
  }
}
layer {
  name: "fc7"
  type: "InnerProduct"
  bottom: "drop6"
  top: "fc7"
  param {
    lr_mult: 1
    decay_mult: 1
  }
  param {
    lr_mult: 2
    decay_mult: 0
  }
  inner_product_param {
    num_output: 2048
    weight_filler {
      type: "gaussian"
      std: 0.005
    }
    bias_filler {
      type: "constant"
    }
  }
}
layer {
  name: "relu7"
  type: "ReLU"
  bottom: "fc7"
  top: "relu7"
}
layer {
  name: "drop7"
  type: "Dropout"
  bottom: "relu7"
  top: "drop7"
  dropout_param {
    dropout_ratio: 0.5
  }
}
layer {
  name: "fc8"
  type: "InnerProduct"
  bottom: "drop7"
  top: "fc8"
  param {
    lr_mult: 1
    decay_mult: 1
  }
  param {
    lr_mult: 2
    decay_mult: 0
  }
  inner_product_param {
    num_output: 1000
    weight_filler {
      type: "gaussian"
      std: 0.01
    }
    bias_filler {
      type: "constant"
    }
  }
}
layer {
  name: "accuracy"
  type: "Accuracy"
  bottom: "fc8"
  bottom: "label"
  top: "accuracy"
  include {
    phase: TEST
  }
}
layer {
  name: "loss"
  type: "SoftmaxWithLoss"
  bottom: "fc8"
  bottom: "label"
  top: "loss"
}
I0123 16:34:52.018803 13729 layer_factory.hpp:76] Creating layer data
I0123 16:34:52.018918 13729 net.cpp:106] Creating Layer data
I0123 16:34:52.018949 13729 net.cpp:411] data -> data
I0123 16:34:52.018961 13729 net.cpp:411] data -> label
I0123 16:34:52.020489 14032 db_lmdb.cpp:38] Opened lmdb /local/temporary/imagenet_clc_orig/ilsvrc12_val_lmdb
I0123 16:34:52.023308 13729 data_layer.cpp:41] output data size: 50,3,128,128
I0123 16:34:52.043844 13729 net.cpp:150] Setting up data
I0123 16:34:52.043877 13729 net.cpp:157] Top shape: 50 3 128 128 (2457600)
I0123 16:34:52.043889 13729 net.cpp:157] Top shape: 50 (50)
I0123 16:34:52.043891 13729 net.cpp:165] Memory required for data: 9830600
I0123 16:34:52.043897 13729 layer_factory.hpp:76] Creating layer label_data_1_split
I0123 16:34:52.043912 13729 net.cpp:106] Creating Layer label_data_1_split
I0123 16:34:52.043916 13729 net.cpp:454] label_data_1_split <- label
I0123 16:34:52.043931 13729 net.cpp:411] label_data_1_split -> label_data_1_split_0
I0123 16:34:52.043942 13729 net.cpp:411] label_data_1_split -> label_data_1_split_1
I0123 16:34:52.044011 13729 net.cpp:150] Setting up label_data_1_split
I0123 16:34:52.044018 13729 net.cpp:157] Top shape: 50 (50)
I0123 16:34:52.044023 13729 net.cpp:157] Top shape: 50 (50)
I0123 16:34:52.044028 13729 net.cpp:165] Memory required for data: 9831000
I0123 16:34:52.044030 13729 layer_factory.hpp:76] Creating layer conv1
I0123 16:34:52.044042 13729 net.cpp:106] Creating Layer conv1
I0123 16:34:52.044047 13729 net.cpp:454] conv1 <- data
I0123 16:34:52.044054 13729 net.cpp:411] conv1 -> conv1
I0123 16:34:52.046524 13729 cudnn_conv_layer.cpp:194] Reallocating workspace storage: 4356
I0123 16:34:52.046568 13729 net.cpp:150] Setting up conv1
I0123 16:34:52.046576 13729 net.cpp:157] Top shape: 50 96 30 30 (4320000)
I0123 16:34:52.046579 13729 net.cpp:165] Memory required for data: 27111000
I0123 16:34:52.046591 13729 layer_factory.hpp:76] Creating layer relu1
I0123 16:34:52.046608 13729 net.cpp:106] Creating Layer relu1
I0123 16:34:52.046612 13729 net.cpp:454] relu1 <- conv1
I0123 16:34:52.046617 13729 net.cpp:411] relu1 -> relu1
I0123 16:34:52.046946 13729 net.cpp:150] Setting up relu1
I0123 16:34:52.046957 13729 net.cpp:157] Top shape: 50 96 30 30 (4320000)
I0123 16:34:52.046962 13729 net.cpp:165] Memory required for data: 44391000
I0123 16:34:52.046964 13729 layer_factory.hpp:76] Creating layer pool1
I0123 16:34:52.046973 13729 net.cpp:106] Creating Layer pool1
I0123 16:34:52.046977 13729 net.cpp:454] pool1 <- relu1
I0123 16:34:52.046983 13729 net.cpp:411] pool1 -> pool1
I0123 16:34:52.047194 13729 net.cpp:150] Setting up pool1
I0123 16:34:52.047202 13729 net.cpp:157] Top shape: 50 96 15 15 (1080000)
I0123 16:34:52.047207 13729 net.cpp:165] Memory required for data: 48711000
I0123 16:34:52.047211 13729 layer_factory.hpp:76] Creating layer conv2
I0123 16:34:52.047229 13729 net.cpp:106] Creating Layer conv2
I0123 16:34:52.047232 13729 net.cpp:454] conv2 <- pool1
I0123 16:34:52.047246 13729 net.cpp:411] conv2 -> conv2
I0123 16:34:52.059118 13729 cudnn_conv_layer.cpp:194] Reallocating workspace storage: 28800
I0123 16:34:52.059166 13729 net.cpp:150] Setting up conv2
I0123 16:34:52.059175 13729 net.cpp:157] Top shape: 50 256 15 15 (2880000)
I0123 16:34:52.059180 13729 net.cpp:165] Memory required for data: 60231000
I0123 16:34:52.059190 13729 layer_factory.hpp:76] Creating layer relu2
I0123 16:34:52.059197 13729 net.cpp:106] Creating Layer relu2
I0123 16:34:52.059201 13729 net.cpp:454] relu2 <- conv2
I0123 16:34:52.059206 13729 net.cpp:411] relu2 -> relu2
I0123 16:34:52.059433 13729 net.cpp:150] Setting up relu2
I0123 16:34:52.059443 13729 net.cpp:157] Top shape: 50 256 15 15 (2880000)
I0123 16:34:52.059447 13729 net.cpp:165] Memory required for data: 71751000
I0123 16:34:52.059450 13729 layer_factory.hpp:76] Creating layer pool2
I0123 16:34:52.059458 13729 net.cpp:106] Creating Layer pool2
I0123 16:34:52.059463 13729 net.cpp:454] pool2 <- relu2
I0123 16:34:52.059468 13729 net.cpp:411] pool2 -> pool2
I0123 16:34:52.059856 13729 net.cpp:150] Setting up pool2
I0123 16:34:52.059869 13729 net.cpp:157] Top shape: 50 256 7 7 (627200)
I0123 16:34:52.059880 13729 net.cpp:165] Memory required for data: 74259800
I0123 16:34:52.059883 13729 layer_factory.hpp:76] Creating layer conv3
I0123 16:34:52.059906 13729 net.cpp:106] Creating Layer conv3
I0123 16:34:52.059917 13729 net.cpp:454] conv3 <- pool2
I0123 16:34:52.059931 13729 net.cpp:411] conv3 -> conv3
I0123 16:34:52.088135 13729 cudnn_conv_layer.cpp:194] Reallocating workspace storage: 27648
I0123 16:34:52.088202 13729 net.cpp:150] Setting up conv3
I0123 16:34:52.088212 13729 net.cpp:157] Top shape: 50 384 7 7 (940800)
I0123 16:34:52.088214 13729 net.cpp:165] Memory required for data: 78023000
I0123 16:34:52.088225 13729 layer_factory.hpp:76] Creating layer relu3
I0123 16:34:52.088235 13729 net.cpp:106] Creating Layer relu3
I0123 16:34:52.088240 13729 net.cpp:454] relu3 <- conv3
I0123 16:34:52.088253 13729 net.cpp:411] relu3 -> relu3
I0123 16:34:52.088457 13729 net.cpp:150] Setting up relu3
I0123 16:34:52.088466 13729 net.cpp:157] Top shape: 50 384 7 7 (940800)
I0123 16:34:52.088469 13729 net.cpp:165] Memory required for data: 81786200
I0123 16:34:52.088474 13729 layer_factory.hpp:76] Creating layer conv4
I0123 16:34:52.088493 13729 net.cpp:106] Creating Layer conv4
I0123 16:34:52.088497 13729 net.cpp:454] conv4 <- relu3
I0123 16:34:52.088510 13729 net.cpp:411] conv4 -> conv4
I0123 16:34:52.109673 13729 net.cpp:150] Setting up conv4
I0123 16:34:52.109690 13729 net.cpp:157] Top shape: 50 384 7 7 (940800)
I0123 16:34:52.109694 13729 net.cpp:165] Memory required for data: 85549400
I0123 16:34:52.109701 13729 layer_factory.hpp:76] Creating layer relu4
I0123 16:34:52.109709 13729 net.cpp:106] Creating Layer relu4
I0123 16:34:52.109711 13729 net.cpp:454] relu4 <- conv4
I0123 16:34:52.109717 13729 net.cpp:411] relu4 -> relu4
I0123 16:34:52.109936 13729 net.cpp:150] Setting up relu4
I0123 16:34:52.109946 13729 net.cpp:157] Top shape: 50 384 7 7 (940800)
I0123 16:34:52.109948 13729 net.cpp:165] Memory required for data: 89312600
I0123 16:34:52.109952 13729 layer_factory.hpp:76] Creating layer conv5
I0123 16:34:52.109964 13729 net.cpp:106] Creating Layer conv5
I0123 16:34:52.109968 13729 net.cpp:454] conv5 <- relu4
I0123 16:34:52.109976 13729 net.cpp:411] conv5 -> conv5
I0123 16:34:52.124354 13729 net.cpp:150] Setting up conv5
I0123 16:34:52.124380 13729 net.cpp:157] Top shape: 50 256 7 7 (627200)
I0123 16:34:52.124383 13729 net.cpp:165] Memory required for data: 91821400
I0123 16:34:52.124397 13729 layer_factory.hpp:76] Creating layer relu5
I0123 16:34:52.124402 13729 net.cpp:106] Creating Layer relu5
I0123 16:34:52.124405 13729 net.cpp:454] relu5 <- conv5
I0123 16:34:52.124411 13729 net.cpp:411] relu5 -> relu5
I0123 16:34:52.124742 13729 net.cpp:150] Setting up relu5
I0123 16:34:52.124752 13729 net.cpp:157] Top shape: 50 256 7 7 (627200)
I0123 16:34:52.124768 13729 net.cpp:165] Memory required for data: 94330200
I0123 16:34:52.124770 13729 layer_factory.hpp:76] Creating layer pool5
I0123 16:34:52.124778 13729 net.cpp:106] Creating Layer pool5
I0123 16:34:52.124780 13729 net.cpp:454] pool5 <- relu5
I0123 16:34:52.124810 13729 net.cpp:411] pool5 -> pool5
I0123 16:34:52.125021 13729 net.cpp:150] Setting up pool5
I0123 16:34:52.125031 13729 net.cpp:157] Top shape: 50 256 3 3 (115200)
I0123 16:34:52.125035 13729 net.cpp:165] Memory required for data: 94791000
I0123 16:34:52.125037 13729 layer_factory.hpp:76] Creating layer fc6
I0123 16:34:52.125046 13729 net.cpp:106] Creating Layer fc6
I0123 16:34:52.125051 13729 net.cpp:454] fc6 <- pool5
I0123 16:34:52.125057 13729 net.cpp:411] fc6 -> fc6
I0123 16:34:52.259948 13729 net.cpp:150] Setting up fc6
I0123 16:34:52.259984 13729 net.cpp:157] Top shape: 50 2048 (102400)
I0123 16:34:52.259987 13729 net.cpp:165] Memory required for data: 95200600
I0123 16:34:52.259997 13729 layer_factory.hpp:76] Creating layer relu6
I0123 16:34:52.260009 13729 net.cpp:106] Creating Layer relu6
I0123 16:34:52.260012 13729 net.cpp:454] relu6 <- fc6
I0123 16:34:52.260021 13729 net.cpp:411] relu6 -> relu6
I0123 16:34:52.260583 13729 net.cpp:150] Setting up relu6
I0123 16:34:52.260596 13729 net.cpp:157] Top shape: 50 2048 (102400)
I0123 16:34:52.260609 13729 net.cpp:165] Memory required for data: 95610200
I0123 16:34:52.260613 13729 layer_factory.hpp:76] Creating layer drop6
I0123 16:34:52.260620 13729 net.cpp:106] Creating Layer drop6
I0123 16:34:52.260623 13729 net.cpp:454] drop6 <- relu6
I0123 16:34:52.260630 13729 net.cpp:411] drop6 -> drop6
I0123 16:34:52.260673 13729 net.cpp:150] Setting up drop6
I0123 16:34:52.260679 13729 net.cpp:157] Top shape: 50 2048 (102400)
I0123 16:34:52.260681 13729 net.cpp:165] Memory required for data: 96019800
I0123 16:34:52.260684 13729 layer_factory.hpp:76] Creating layer fc7
I0123 16:34:52.260696 13729 net.cpp:106] Creating Layer fc7
I0123 16:34:52.260699 13729 net.cpp:454] fc7 <- drop6
I0123 16:34:52.260705 13729 net.cpp:411] fc7 -> fc7
I0123 16:34:52.377624 13729 net.cpp:150] Setting up fc7
I0123 16:34:52.377660 13729 net.cpp:157] Top shape: 50 2048 (102400)
I0123 16:34:52.377662 13729 net.cpp:165] Memory required for data: 96429400
I0123 16:34:52.377671 13729 layer_factory.hpp:76] Creating layer relu7
I0123 16:34:52.377681 13729 net.cpp:106] Creating Layer relu7
I0123 16:34:52.377686 13729 net.cpp:454] relu7 <- fc7
I0123 16:34:52.377692 13729 net.cpp:411] relu7 -> relu7
I0123 16:34:52.377966 13729 net.cpp:150] Setting up relu7
I0123 16:34:52.377975 13729 net.cpp:157] Top shape: 50 2048 (102400)
I0123 16:34:52.377979 13729 net.cpp:165] Memory required for data: 96839000
I0123 16:34:52.377981 13729 layer_factory.hpp:76] Creating layer drop7
I0123 16:34:52.377990 13729 net.cpp:106] Creating Layer drop7
I0123 16:34:52.377992 13729 net.cpp:454] drop7 <- relu7
I0123 16:34:52.378000 13729 net.cpp:411] drop7 -> drop7
I0123 16:34:52.378056 13729 net.cpp:150] Setting up drop7
I0123 16:34:52.378068 13729 net.cpp:157] Top shape: 50 2048 (102400)
I0123 16:34:52.378070 13729 net.cpp:165] Memory required for data: 97248600
I0123 16:34:52.378085 13729 layer_factory.hpp:76] Creating layer fc8
I0123 16:34:52.378093 13729 net.cpp:106] Creating Layer fc8
I0123 16:34:52.378096 13729 net.cpp:454] fc8 <- drop7
I0123 16:34:52.378103 13729 net.cpp:411] fc8 -> fc8
I0123 16:34:52.433071 13729 net.cpp:150] Setting up fc8
I0123 16:34:52.433106 13729 net.cpp:157] Top shape: 50 1000 (50000)
I0123 16:34:52.433110 13729 net.cpp:165] Memory required for data: 97448600
I0123 16:34:52.433120 13729 layer_factory.hpp:76] Creating layer fc8_fc8_0_split
I0123 16:34:52.433128 13729 net.cpp:106] Creating Layer fc8_fc8_0_split
I0123 16:34:52.433132 13729 net.cpp:454] fc8_fc8_0_split <- fc8
I0123 16:34:52.433145 13729 net.cpp:411] fc8_fc8_0_split -> fc8_fc8_0_split_0
I0123 16:34:52.433167 13729 net.cpp:411] fc8_fc8_0_split -> fc8_fc8_0_split_1
I0123 16:34:52.433223 13729 net.cpp:150] Setting up fc8_fc8_0_split
I0123 16:34:52.433230 13729 net.cpp:157] Top shape: 50 1000 (50000)
I0123 16:34:52.433234 13729 net.cpp:157] Top shape: 50 1000 (50000)
I0123 16:34:52.433238 13729 net.cpp:165] Memory required for data: 97848600
I0123 16:34:52.433241 13729 layer_factory.hpp:76] Creating layer accuracy
I0123 16:34:52.433275 13729 net.cpp:106] Creating Layer accuracy
I0123 16:34:52.433280 13729 net.cpp:454] accuracy <- fc8_fc8_0_split_0
I0123 16:34:52.433284 13729 net.cpp:454] accuracy <- label_data_1_split_0
I0123 16:34:52.433290 13729 net.cpp:411] accuracy -> accuracy
…
