…
      source: "/home/old-ufo/storage/datasets/imagenet/imgs128/lmdb/ilsvrc12_128_train_lmdb"
      batch_size: 256
      backend: LMDB
    }
  }
  layer {
    name: "data"
    type: "Data"
    top: "data"
    top: "label"
    include {
      phase: TEST
    }
    transform_param {
      scale: 0.04
      mirror: false
      crop_size: 128
      mean_value: 104
      mean_value: 117
      mean_value: 123
      force_color: true
    }
    data_param {
      source: "/home/old-ufo/storage/datasets/imagenet/imgs128/lmdb/ilsvrc12_128_val_lmdb"
      batch_size: 50
      backend: LMDB
    }
  }
  layer {
    name: "conv1"
    type: "Convolution"
    bottom: "data"
    top: "conv1"
    param {
      lr_mult: 1
      decay_mult: 1
    }
    param {
      lr_mult: 2
      decay_mult: 0
    }
    convolution_param {
      num_output: 96
      kernel_size: 11
      stride: 4
      weight_filler {
        type: "gaussian"
        std: 0.01
      }
      bias_filler {
        type: "constant"
      }
    }
  }
  layer {
    name: "relu1"
    type: "ReLU"
    bottom: "conv1"
    top: "relu1"
  }
  layer {
    name: "pool1"
    type: "Pooling"
    bottom: "relu1"
    top: "pool1"
    pooling_param {
      pool: MAX
      kernel_size: 3
      stride: 2
    }
  }
  layer {
    name: "conv2"
    type: "Convolution"
    bottom: "pool1"
    top: "conv2"
    param {
      lr_mult: 1
      decay_mult: 1
    }
    param {
      lr_mult: 2
      decay_mult: 0
    }
    convolution_param {
      num_output: 256
      pad: 2
      kernel_size: 5
      group: 2
      weight_filler {
        type: "gaussian"
        std: 0.01
      }
      bias_filler {
        type: "constant"
      }
    }
  }
  layer {
    name: "relu2"
    type: "ReLU"
    bottom: "conv2"
    top: "relu2"
  }
  layer {
    name: "pool2"
    type: "Pooling"
    bottom: "relu2"
    top: "pool2"
    pooling_param {
      pool: MAX
      kernel_size: 3
      stride: 2
    }
  }
  layer {
    name: "conv3"
    type: "Convolution"
    bottom: "pool2"
    top: "conv3"
    param {
      lr_mult: 1
      decay_mult: 1
    }
    param {
      lr_mult: 2
      decay_mult: 0
    }
    convolution_param {
      num_output: 384
      pad: 1
      kernel_size: 3
      weight_filler {
        type: "gaussian"
        std: 0.01
      }
      bias_filler {
        type: "constant"
      }
    }
  }
  layer {
    name: "relu3"
    type: "ReLU"
    bottom: "conv3"
    top: "relu3"
  }
  layer {
    name: "conv4"
    type: "Convolution"
    bottom: "relu3"
    top: "conv4"
    param {
      lr_mult: 1
      decay_mult: 1
    }
    param {
      lr_mult: 2
      decay_mult: 0
    }
    convolution_param {
      num_output: 384
      pad: 1
      kernel_size: 3
      group: 2
      weight_filler {
        type: "gaussian"
        std: 0.01
      }
      bias_filler {
        type: "constant"
      }
    }
  }
  layer {
    name: "relu4"
    type: "ReLU"
    bottom: "conv4"
    top: "relu4"
  }
  layer {
    name: "conv5"
    type: "Convolution"
    bottom: "relu4"
    top: "conv5"
    param {
      lr_mult: 1
      decay_mult: 1
    }
    param {
      lr_mult: 2
      decay_mult: 0
    }
    convolution_param {
      num_output: 256
      pad: 1
      kernel_size: 3
      group: 2
      weight_filler {
        type: "gaussian"
        std: 0.01
      }
      bias_filler {
        type: "constant"
      }
    }
  }
  layer {
    name: "relu5"
    type: "ReLU"
    bottom: "conv5"
    top: "relu5"
  }
  layer {
    name: "pool5"
    type: "Pooling"
    bottom: "relu5"
    top: "pool5"
    pooling_param {
      pool: MAX
      kernel_size: 3
      stride: 2
    }
  }
  layer {
    name: "fc6"
    type: "InnerProduct"
    bottom: "pool5"
    top: "fc6"
    param {
      lr_mult: 1
      decay_mult: 1
    }
    param {
      lr_mult: 2
      decay_mult: 0
    }
    inner_product_param {
      num_output: 2048
      weight_filler {
        type: "gaussian"
        std: 0.005
      }
      bias_filler {
        type: "constant"
      }
    }
  }
  layer {
    name: "relu6"
    type: "ReLU"
    bottom: "fc6"
    top: "relu6"
  }
  layer {
    name: "drop6"
    type: "Dropout"
    bottom: "relu6"
    top: "drop6"
    dropout_param {
      dropout_ratio: 0.5
    }
  }
  layer {
    name: "fc7"
    type: "InnerProduct"
    bottom: "drop6"
    top: "fc7"
    param {
      lr_mult: 1
      decay_mult: 1
    }
    param {
      lr_mult: 2
      decay_mult: 0
    }
    inner_product_param {
      num_output: 2048
      weight_filler {
        type: "gaussian"
        std: 0.005
      }
      bias_filler {
        type: "constant"
      }
    }
  }
  layer {
    name: "relu7"
    type: "ReLU"
    bottom: "fc7"
    top: "relu7"
  }
  layer {
    name: "drop7"
    type: "Dropout"
    bottom: "relu7"
    top: "drop7"
    dropout_param {
      dropout_ratio: 0.5
    }
  }
  layer {
    name: "fc8"
    type: "InnerProduct"
    bottom: "drop7"
    top: "fc8"
    param {
      lr_mult: 1
      decay_mult: 1
    }
    param {
      lr_mult: 2
      decay_mult: 0
    }
    inner_product_param {
      num_output: 1000
      weight_filler {
        type: "gaussian"
        std: 0.01
      }
      bias_filler {
        type: "constant"
      }
    }
  }
  layer {
    name: "accuracy"
    type: "Accuracy"
    bottom: "fc8"
    bottom: "label"
    top: "accuracy"
    include {
      phase: TEST
    }
  }
  layer {
    name: "loss"
    type: "SoftmaxWithLoss"
    bottom: "fc8"
    bottom: "label"
    top: "loss"
  }
}
delta: 1
test_initialization: true
average_loss: 20
iter_size: 1
rms_decay: 0.95
type: "RMSProp"
I0315 10:03:04.535940 28801 solver.cpp:86] Creating training net specified in net_param.
I0315 10:03:04.536034 28801 net.cpp:313] The NetState phase (0) differed from the phase (1) specified by a rule in layer data
I0315 10:03:04.536053 28801 net.cpp:313] The NetState phase (0) differed from the phase (1) specified by a rule in layer accuracy
I0315 10:03:04.536172 28801 net.cpp:49] Initializing net from parameters: 
name: "CaffeNet"
state {
  phase: TRAIN
}
layer {
  name: "data"
  type: "Data"
  top: "data"
  top: "label"
  include {
    phase: TRAIN
  }
  transform_param {
    scale: 0.04
    mirror: true
    crop_size: 128
    mean_value: 104
    mean_value: 117
    mean_value: 124
    force_color: true
  }
  data_param {
    source: "/home/old-ufo/storage/datasets/imagenet/imgs128/lmdb/ilsvrc12_128_train_lmdb"
    batch_size: 256
    backend: LMDB
  }
}
layer {
  name: "conv1"
  type: "Convolution"
  bottom: "data"
  top: "conv1"
  param {
    lr_mult: 1
    decay_mult: 1
  }
  param {
    lr_mult: 2
    decay_mult: 0
  }
  convolution_param {
    num_output: 96
    kernel_size: 11
    stride: 4
    weight_filler {
      type: "gaussian"
      std: 0.01
    }
    bias_filler {
      type: "constant"
    }
  }
}
layer {
  name: "relu1"
  type: "ReLU"
  bottom: "conv1"
  top: "relu1"
}
layer {
  name: "pool1"
  type: "Pooling"
  bottom: "relu1"
  top: "pool1"
  pooling_param {
    pool: MAX
    kernel_size: 3
    stride: 2
  }
}
layer {
  name: "conv2"
  type: "Convolution"
  bottom: "pool1"
  top: "conv2"
  param {
    lr_mult: 1
    decay_mult: 1
  }
  param {
    lr_mult: 2
    decay_mult: 0
  }
  convolution_param {
    num_output: 256
    pad: 2
    kernel_size: 5
    group: 2
    weight_filler {
      type: "gaussian"
      std: 0.01
    }
    bias_filler {
      type: "constant"
    }
  }
}
layer {
  name: "relu2"
  type: "ReLU"
  bottom: "conv2"
  top: "relu2"
}
layer {
  name: "pool2"
  type: "Pooling"
  bottom: "relu2"
  top: "pool2"
  pooling_param {
    pool: MAX
    kernel_size: 3
    stride: 2
  }
}
layer {
  name: "conv3"
  type: "Convolution"
  bottom: "pool2"
  top: "conv3"
  param {
    lr_mult: 1
    decay_mult: 1
  }
  param {
    lr_mult: 2
    decay_mult: 0
  }
  convolution_param {
    num_output: 384
    pad: 1
    kernel_size: 3
    weight_filler {
      type: "gaussian"
      std: 0.01
    }
    bias_filler {
      type: "constant"
    }
  }
}
layer {
  name: "relu3"
  type: "ReLU"
  bottom: "conv3"
  top: "relu3"
}
layer {
  name: "conv4"
  type: "Convolution"
  bottom: "relu3"
  top: "conv4"
  param {
    lr_mult: 1
    decay_mult: 1
  }
  param {
    lr_mult: 2
    decay_mult: 0
  }
  convolution_param {
    num_output: 384
    pad: 1
    kernel_size: 3
    group: 2
    weight_filler {
      type: "gaussian"
      std: 0.01
    }
    bias_filler {
      type: "constant"
    }
  }
}
layer {
  name: "relu4"
  type: "ReLU"
  bottom: "conv4"
  top: "relu4"
}
layer {
  name: "conv5"
  type: "Convolution"
  bottom: "relu4"
  top: "conv5"
  param {
    lr_mult: 1
    decay_mult: 1
  }
  param {
    lr_mult: 2
    decay_mult: 0
  }
  convolution_param {
    num_output: 256
    pad: 1
    kernel_size: 3
    group: 2
    weight_filler {
      type: "gaussian"
      std: 0.01
    }
    bias_filler {
      type: "constant"
    }
  }
}
layer {
  name: "relu5"
  type: "ReLU"
  bottom: "conv5"
  top: "relu5"
}
layer {
  name: "pool5"
  type: "Pooling"
  bottom: "relu5"
  top: "pool5"
  pooling_param {
    pool: MAX
    kernel_size: 3
    stride: 2
  }
}
layer {
  name: "fc6"
  type: "InnerProduct"
  bottom: "pool5"
  top: "fc6"
  param {
    lr_mult: 1
    decay_mult: 1
  }
  param {
    lr_mult: 2
    decay_mult: 0
  }
  inner_product_param {
    num_output: 2048
    weight_filler {
      type: "gaussian"
      std: 0.005
    }
    bias_filler {
      type: "constant"
    }
  }
}
layer {
  name: "relu6"
  type: "ReLU"
  bottom: "fc6"
  top: "relu6"
}
layer {
  name: "drop6"
  type: "Dropout"
  bottom: "relu6"
  top: "drop6"
  dropout_param {
    dropout_ratio: 0.5
  }
}
layer {
  name: "fc7"
  type: "InnerProduct"
  bottom: "drop6"
  top: "fc7"
  param {
    lr_mult: 1
    decay_mult: 1
  }
  param {
    lr_mult: 2
    decay_mult: 0
  }
  inner_product_param {
    num_output: 2048
    weight_filler {
      type: "gaussian"
      std: 0.005
    }
    bias_filler {
      type: "constant"
    }
  }
}
layer {
  name: "relu7"
  type: "ReLU"
  bottom: "fc7"
  top: "relu7"
}
layer {
  name: "drop7"
  type: "Dropout"
  bottom: "relu7"
  top: "drop7"
  dropout_param {
    dropout_ratio: 0.5
  }
}
layer {
  name: "fc8"
  type: "InnerProduct"
  bottom: "drop7"
  top: "fc8"
  param {
    lr_mult: 1
    decay_mult: 1
  }
  param {
    lr_mult: 2
    decay_mult: 0
  }
  inner_product_param {
    num_output: 1000
    weight_filler {
      type: "gaussian"
      std: 0.01
    }
    bias_filler {
      type: "constant"
    }
  }
}
layer {
  name: "loss"
  type: "SoftmaxWithLoss"
  bottom: "fc8"
  bottom: "label"
  top: "loss"
}
I0315 10:03:04.536268 28801 layer_factory.hpp:77] Creating layer data
I0315 10:03:04.536922 28801 net.cpp:91] Creating Layer data
I0315 10:03:04.536937 28801 net.cpp:399] data -> data
I0315 10:03:04.536962 28801 net.cpp:399] data -> label
I0315 10:03:04.537693 28807 db_lmdb.cpp:38] Opened lmdb /home/old-ufo/storage/datasets/imagenet/imgs128/lmdb/ilsvrc12_128_train_lmdb
I0315 10:03:04.545459 28801 data_layer.cpp:41] output data size: 256,3,128,128
I0315 10:03:04.610923 28801 net.cpp:141] Setting up data
I0315 10:03:04.610949 28801 net.cpp:148] Top shape: 256 3 128 128 (12582912)
I0315 10:03:04.610959 28801 net.cpp:148] Top shape: 256 (256)
I0315 10:03:04.610962 28801 net.cpp:156] Memory required for data: 50332672
I0315 10:03:04.610973 28801 layer_factory.hpp:77] Creating layer conv1
I0315 10:03:04.611001 28801 net.cpp:91] Creating Layer conv1
I0315 10:03:04.611008 28801 net.cpp:425] conv1 <- data
I0315 10:03:04.611023 28801 net.cpp:399] conv1 -> conv1
I0315 10:03:04.736609 28801 net.cpp:141] Setting up conv1
I0315 10:03:04.736642 28801 net.cpp:148] Top shape: 256 96 30 30 (22118400)
I0315 10:03:04.736650 28801 net.cpp:156] Memory required for data: 138806272
I0315 10:03:04.736675 28801 layer_factory.hpp:77] Creating layer relu1
I0315 10:03:04.736690 28801 net.cpp:91] Creating Layer relu1
I0315 10:03:04.736696 28801 net.cpp:425] relu1 <- conv1
I0315 10:03:04.736704 28801 net.cpp:399] relu1 -> relu1
I0315 10:03:04.737529 28801 net.cpp:141] Setting up relu1
I0315 10:03:04.737548 28801 net.cpp:148] Top shape: 256 96 30 30 (22118400)
I0315 10:03:04.737555 28801 net.cpp:156] Memory required for data: 227279872
I0315 10:03:04.737560 28801 layer_factory.hpp:77] Creating layer pool1
I0315 10:03:04.737571 28801 net.cpp:91] Creating Layer pool1
I0315 10:03:04.737576 28801 net.cpp:425] pool1 <- relu1
I0315 10:03:04.737584 28801 net.cpp:399] pool1 -> pool1
I0315 10:03:04.737685 28801 net.cpp:141] Setting up pool1
I0315 10:03:04.737696 28801 net.cpp:148] Top shape: 256 96 15 15 (5529600)
I0315 10:03:04.737701 28801 net.cpp:156] Memory required for data: 249398272
I0315 10:03:04.737706 28801 layer_factory.hpp:77] Creating layer conv2
I0315 10:03:04.737725 28801 net.cpp:91] Creating Layer conv2
I0315 10:03:04.737730 28801 net.cpp:425] conv2 <- pool1
I0315 10:03:04.737738 28801 net.cpp:399] conv2 -> conv2
I0315 10:03:04.753947 28801 net.cpp:141] Setting up conv2
I0315 10:03:04.753975 28801 net.cpp:148] Top shape: 256 256 15 15 (14745600)
I0315 10:03:04.753981 28801 net.cpp:156] Memory required for data: 308380672
I0315 10:03:04.754000 28801 layer_factory.hpp:77] Creating layer relu2
I0315 10:03:04.754014 28801 net.cpp:91] Creating Layer relu2
I0315 10:03:04.754019 28801 net.cpp:425] relu2 <- conv2
I0315 10:03:04.754027 28801 net.cpp:399] relu2 -> relu2
I0315 10:03:04.754914 28801 net.cpp:141] Setting up relu2
I0315 10:03:04.754932 28801 net.cpp:148] Top shape: 256 256 15 15 (14745600)
I0315 10:03:04.754940 28801 net.cpp:156] Memory required for data: 367363072
I0315 10:03:04.754945 28801 layer_factory.hpp:77] Creating layer pool2
I0315 10:03:04.754952 28801 net.cpp:91] Creating Layer pool2
I0315 10:03:04.754956 28801 net.cpp:425] pool2 <- relu2
I0315 10:03:04.754964 28801 net.cpp:399] pool2 -> pool2
I0315 10:03:04.755010 28801 net.cpp:141] Setting up pool2
I0315 10:03:04.755019 28801 net.cpp:148] Top shape: 256 256 7 7 (3211264)
I0315 10:03:04.755023 28801 net.cpp:156] Memory required for data: 380208128
I0315 10:03:04.755028 28801 layer_factory.hpp:77] Creating layer conv3
I0315 10:03:04.755040 28801 net.cpp:91] Creating Layer conv3
I0315 10:03:04.755045 28801 net.cpp:425] conv3 <- pool2
I0315 10:03:04.755055 28801 net.cpp:399] conv3 -> conv3
I0315 10:03:04.790364 28801 net.cpp:141] Setting up conv3
I0315 10:03:04.790393 28801 net.cpp:148] Top shape: 256 384 7 7 (4816896)
I0315 10:03:04.790400 28801 net.cpp:156] Memory required for data: 399475712
I0315 10:03:04.790422 28801 layer_factory.hpp:77] Creating layer relu3
I0315 10:03:04.790437 28801 net.cpp:91] Creating Layer relu3
I0315 10:03:04.790443 28801 net.cpp:425] relu3 <- conv3
I0315 10:03:04.790452 28801 net.cpp:399] relu3 -> relu3
I0315 10:03:04.791363 28801 net.cpp:141] Setting up relu3
I0315 10:03:04.791379 28801 net.cpp:148] Top shape: 256 384 7 7 (4816896)
I0315 10:03:04.791385 28801 net.cpp:156] Memory required for data: 418743296
I0315 10:03:04.791391 28801 layer_factory.hpp:77] Creating layer conv4
I0315 10:03:04.791409 28801 net.cpp:91] Creating Layer conv4
I0315 10:03:04.791415 28801 net.cpp:425] conv4 <- relu3
I0315 10:03:04.791425 28801 net.cpp:399] conv4 -> conv4
I0315 10:03:04.818233 28801 net.cpp:141] Setting up conv4
I0315 10:03:04.818261 28801 net.cpp:148] Top shape: 256 384 7 7 (4816896)
I0315 10:03:04.818266 28801 net.cpp:156] Memory required for data: 438010880
I0315 10:03:04.818279 28801 layer_factory.hpp:77] Creating layer relu4
I0315 10:03:04.818289 28801 net.cpp:91] Creating Layer relu4
I0315 10:03:04.818295 28801 net.cpp:425] relu4 <- conv4
I0315 10:03:04.818307 28801 net.cpp:399] relu4 -> relu4
I0315 10:03:04.819139 28801 net.cpp:141] Setting up relu4
I0315 10:03:04.819156 28801 net.cpp:148] Top shape: 256 384 7 7 (4816896)
I0315 10:03:04.819160 28801 net.cpp:156] Memory required for data: 457278464
I0315 10:03:04.819164 28801 layer_factory.hpp:77] Creating layer conv5
I0315 10:03:04.819180 28801 net.cpp:91] Creating Layer conv5
I0315 10:03:04.819185 28801 net.cpp:425] conv5 <- relu4
I0315 10:03:04.819195 28801 net.cpp:399] conv5 -> conv5
I0315 10:03:04.836220 28801 net.cpp:141] Setting up conv5
I0315 10:03:04.836246 28801 net.cpp:148] Top shape: 256 256 7 7 (3211264)
I0315 10:03:04.836251 28801 net.cpp:156] Memory required for data: 470123520
I0315 10:03:04.836266 28801 layer_factory.hpp:77] Creating layer relu5
I0315 10:03:04.836280 28801 net.cpp:91] Creating Layer relu5
I0315 10:03:04.836287 28801 net.cpp:425] relu5 <- conv5
I0315 10:03:04.836297 28801 net.cpp:399] relu5 -> relu5
I0315 10:03:04.837098 28801 net.cpp:141] Setting up relu5
I0315 10:03:04.837110 28801 net.cpp:148] Top shape: 256 256 7 7 (3211264)
I0315 10:03:04.837113 28801 net.cpp:156] Memory required for data: 482968576
I0315 10:03:04.837116 28801 layer_factory.hpp:77] Creating layer pool5
I0315 10:03:04.837123 28801 net.cpp:91] Creating Layer pool5
I0315 10:03:04.837127 28801 net.cpp:425] pool5 <- relu5
I0315 10:03:04.837136 28801 net.cpp:399] pool5 -> pool5
I0315 10:03:04.837184 28801 net.cpp:141] Setting up pool5
I0315 10:03:04.837190 28801 net.cpp:148] Top shape: 256 256 3 3 (589824)
I0315 10:03:04.837193 28801 net.cpp:156] Memory required for data: 485327872
I0315 10:03:04.837195 28801 layer_factory.hpp:77] Creating layer fc6
I0315 10:03:04.837203 28801 net.cpp:91] Creating Layer fc6
I0315 10:03:04.837208 28801 net.cpp:425] fc6 <- pool5
I0315 10:03:04.837216 28801 net.cpp:399] fc6 -> fc6
I0315 10:03:04.961171 28801 net.cpp:141] Setting up fc6
I0315 10:03:04.961194 28801 net.cpp:148] Top shape: 256 2048 (524288)
I0315 10:03:04.961196 28801 net.cpp:156] Memory required for data: 487425024
I0315 10:03:04.961205 28801 layer_factory.hpp:77] Creating layer relu6
I0315 10:03:04.961212 28801 net.cpp:91] Creating Layer relu6
I0315 10:03:04.961216 28801 net.cpp:425] relu6 <- fc6
I0315 10:03:04.961223 28801 net.cpp:399] relu6 -> relu6
I0315 10:03:04.961952 28801 net.cpp:141] Setting up relu6
I0315 10:03:04.961971 28801 net.cpp:148] Top shape: 256 2048 (524288)
I0315 10:03:04.962000 28801 net.cpp:156] Memory required for data: 489522176
I0315 10:03:04.962007 28801 layer_factory.hpp:77] Creating layer drop6
I0315 10:03:04.962019 28801 net.cpp:91] Creating Layer drop6
I0315 10:03:04.962025 28801 net.cpp:425] drop6 <- relu6
I0315 10:03:04.962035 28801 net.cpp:399] drop6 -> drop6
I0315 10:03:04.962095 28801 net.cpp:141] Setting up drop6
I0315 10:03:04.962105 28801 net.cpp:148] Top shape: 256 2048 (524288)
I0315 10:03:04.962107 28801 net.cpp:156] Memory required for data: 491619328
I0315 10:03:04.962110 28801 layer_factory.hpp:77] Creating layer fc7
I0315 10:03:04.962118 28801 net.cpp:91] Creating Layer fc7
I0315 10:03:04.962121 28801 net.cpp:425] fc7 <- drop6
I0315 10:03:04.962126 28801 net.cpp:399] fc7 -> fc7
I0315 10:03:05.082847 28801 net.cpp:141] Setting up fc7
I0315 10:03:05.082870 28801 net.cpp:148] Top shape: 256 2048 (524288)
I0315 10:03:05.082873 28801 net.cpp:156] Memory required for data: 493716480
I0315 10:03:05.082881 28801 layer_factory.hpp:77] Creating layer relu7
I0315 10:03:05.082890 28801 net.cpp:91] Creating Layer relu7
I0315 10:03:05.082893 28801 net.cpp:425] relu7 <- fc7
I0315 10:03:05.082901 28801 net.cpp:399] relu7 -> relu7
I0315 10:03:05.083608 28801 net.cpp:141] Setting up relu7
I0315 10:03:05.083619 28801 net.cpp:148] Top shape: 256 2048 (524288)
I0315 10:03:05.083622 28801 net.cpp:156] Memory required for data: 495813632
I0315 10:03:05.083626 28801 layer_factory.hpp:77] Creating layer drop7
I0315 10:03:05.083637 28801 net.cpp:91] Creating Layer drop7
I0315 10:03:05.083642 28801 net.cpp:425] drop7 <- relu7
I0315 10:03:05.083649 28801 net.cpp:399] drop7 -> drop7
I0315 10:03:05.083693 28801 net.cpp:141] Setting up drop7
I0315 10:03:05.083710 28801 net.cpp:148] Top shape: 256 2048 (524288)
I0315 10:03:05.083714 28801 net.cpp:156] Memory required for data: 497910784
I0315 10:03:05.083719 28801 layer_factory.hpp:77] Creating layer fc8
I0315 10:03:05.083729 28801 net.cpp:91] Creating Layer fc8
I0315 10:03:05.083732 28801 net.cpp:425] fc8 <- drop7
I0315 10:03:05.083744 28801 net.cpp:399] fc8 -> fc8
I0315 10:03:05.136631 28801 net.cpp:141] Setting up fc8
I0315 10:03:05.136653 28801 net.cpp:148] Top shape: 256 1000 (256000)
I0315 10:03:05.136656 28801 net.cpp:156] Memory required for data: 498934784
I0315 10:03:05.136664 28801 layer_factory.hpp:77] Creating layer loss
I0315 10:03:05.136672 28801 net.cpp:91] Creating Layer loss
I0315 10:03:05.136677 28801 net.cpp:425] loss <- fc8
I0315 10:03:05.136682 28801 net.cpp:425] loss <- label
I0315 10:03:05.136688 28801 net.cpp:399] loss -> loss
I0315 10:03:05.136701 28801 layer_factory.hpp:77] Creating layer loss
…
I0315 10:03:05.138162 28801 net.cpp:313] The NetState phase (1) differed from the phase (0) specified by a rule in layer data
I0315 10:03:05.138308 28801 net.cpp:49] Initializing net from parameters: 
name: "CaffeNet"
state {
  phase: TEST
}
layer {
  name: "data"
  type: "Data"
  top: "data"
  top: "label"
  include {
    phase: TEST
  }
  transform_param {
    scale: 0.04
    mirror: false
    crop_size: 128
    mean_value: 104
    mean_value: 117
    mean_value: 123
    force_color: true
  }
  data_param {
    source: "/home/old-ufo/storage/datasets/imagenet/imgs128/lmdb/ilsvrc12_128_val_lmdb"
    batch_size: 50
    backend: LMDB
  }
}
layer {
  name: "conv1"
  type: "Convolution"
  bottom: "data"
  top: "conv1"
  param {
    lr_mult: 1
    decay_mult: 1
  }
  param {
    lr_mult: 2
    decay_mult: 0
  }
  convolution_param {
    num_output: 96
    kernel_size: 11
    stride: 4
    weight_filler {
      type: "gaussian"
      std: 0.01
    }
    bias_filler {
      type: "constant"
    }
  }
}
layer {
  name: "relu1"
  type: "ReLU"
  bottom: "conv1"
  top: "relu1"
}
layer {
  name: "pool1"
  type: "Pooling"
  bottom: "relu1"
  top: "pool1"
  pooling_param {
    pool: MAX
    kernel_size: 3
    stride: 2
  }
}
layer {
  name: "conv2"
  type: "Convolution"
  bottom: "pool1"
  top: "conv2"
  param {
    lr_mult: 1
    decay_mult: 1
  }
  param {
    lr_mult: 2
    decay_mult: 0
  }
  convolution_param {
    num_output: 256
    pad: 2
    kernel_size: 5
    group: 2
    weight_filler {
      type: "gaussian"
      std: 0.01
    }
    bias_filler {
      type: "constant"
    }
  }
}
layer {
  name: "relu2"
  type: "ReLU"
  bottom: "conv2"
  top: "relu2"
}
layer {
  name: "pool2"
  type: "Pooling"
  bottom: "relu2"
  top: "pool2"
  pooling_param {
    pool: MAX
    kernel_size: 3
    stride: 2
  }
}
layer {
  name: "conv3"
  type: "Convolution"
  bottom: "pool2"
  top: "conv3"
  param {
    lr_mult: 1
    decay_mult: 1
  }
  param {
    lr_mult: 2
    decay_mult: 0
  }
  convolution_param {
    num_output: 384
    pad: 1
    kernel_size: 3
    weight_filler {
      type: "gaussian"
      std: 0.01
    }
    bias_filler {
      type: "constant"
    }
  }
}
layer {
  name: "relu3"
  type: "ReLU"
  bottom: "conv3"
  top: "relu3"
}
layer {
  name: "conv4"
  type: "Convolution"
  bottom: "relu3"
  top: "conv4"
  param {
    lr_mult: 1
    decay_mult: 1
  }
  param {
    lr_mult: 2
    decay_mult: 0
  }
  convolution_param {
    num_output: 384
    pad: 1
    kernel_size: 3
    group: 2
    weight_filler {
      type: "gaussian"
      std: 0.01
    }
    bias_filler {
      type: "constant"
    }
  }
}
layer {
  name: "relu4"
  type: "ReLU"
  bottom: "conv4"
  top: "relu4"
}
layer {
  name: "conv5"
  type: "Convolution"
  bottom: "relu4"
  top: "conv5"
  param {
    lr_mult: 1
    decay_mult: 1
  }
  param {
    lr_mult: 2
    decay_mult: 0
  }
  convolution_param {
    num_output: 256
    pad: 1
    kernel_size: 3
    group: 2
    weight_filler {
      type: "gaussian"
      std: 0.01
    }
    bias_filler {
      type: "constant"
    }
  }
}
layer {
  name: "relu5"
  type: "ReLU"
  bottom: "conv5"
  top: "relu5"
}
layer {
  name: "pool5"
  type: "Pooling"
  bottom: "relu5"
  top: "pool5"
  pooling_param {
    pool: MAX
    kernel_size: 3
    stride: 2
  }
}
layer {
  name: "fc6"
  type: "InnerProduct"
  bottom: "pool5"
  top: "fc6"
  param {
    lr_mult: 1
    decay_mult: 1
  }
  param {
    lr_mult: 2
    decay_mult: 0
  }
  inner_product_param {
    num_output: 2048
    weight_filler {
      type: "gaussian"
      std: 0.005
    }
    bias_filler {
      type: "constant"
    }
  }
}
layer {
  name: "relu6"
  type: "ReLU"
  bottom: "fc6"
  top: "relu6"
}
layer {
  name: "drop6"
  type: "Dropout"
  bottom: "relu6"
  top: "drop6"
  dropout_param {
    dropout_ratio: 0.5
  }
}
layer {
  name: "fc7"
  type: "InnerProduct"
  bottom: "drop6"
  top: "fc7"
  param {
    lr_mult: 1
    decay_mult: 1
  }
  param {
    lr_mult: 2
    decay_mult: 0
  }
  inner_product_param {
    num_output: 2048
    weight_filler {
      type: "gaussian"
      std: 0.005
    }
    bias_filler {
      type: "constant"
    }
  }
}
layer {
  name: "relu7"
  type: "ReLU"
  bottom: "fc7"
  top: "relu7"
}
layer {
  name: "drop7"
  type: "Dropout"
  bottom: "relu7"
  top: "drop7"
  dropout_param {
    dropout_ratio: 0.5
  }
}
layer {
  name: "fc8"
  type: "InnerProduct"
  bottom: "drop7"
  top: "fc8"
  param {
    lr_mult: 1
    decay_mult: 1
  }
  param {
    lr_mult: 2
    decay_mult: 0
  }
  inner_product_param {
    num_output: 1000
    weight_filler {
      type: "gaussian"
      std: 0.01
    }
    bias_filler {
      type: "constant"
    }
  }
}
layer {
  name: "accuracy"
  type: "Accuracy"
  bottom: "fc8"
  bottom: "label"
  top: "accuracy"
  include {
    phase: TEST
  }
}
layer {
  name: "loss"
  type: "SoftmaxWithLoss"
  bottom: "fc8"
  bottom: "label"
  top: "loss"
}
I0315 10:03:05.138417 28801 layer_factory.hpp:77] Creating layer data
I0315 10:03:05.138486 28801 net.cpp:91] Creating Layer data
I0315 10:03:05.138492 28801 net.cpp:399] data -> data
I0315 10:03:05.138506 28801 net.cpp:399] data -> label
I0315 10:03:05.139441 28809 db_lmdb.cpp:38] Opened lmdb /home/old-ufo/storage/datasets/imagenet/imgs128/lmdb/ilsvrc12_128_val_lmdb
I0315 10:03:05.140035 28801 data_layer.cpp:41] output data size: 50,3,128,128
I0315 10:03:05.153745 28801 net.cpp:141] Setting up data
I0315 10:03:05.153769 28801 net.cpp:148] Top shape: 50 3 128 128 (2457600)
I0315 10:03:05.153774 28801 net.cpp:148] Top shape: 50 (50)
I0315 10:03:05.153776 28801 net.cpp:156] Memory required for data: 9830600
I0315 10:03:05.153784 28801 layer_factory.hpp:77] Creating layer label_data_1_split
I0315 10:03:05.153796 28801 net.cpp:91] Creating Layer label_data_1_split
I0315 10:03:05.153800 28801 net.cpp:425] label_data_1_split <- label
I0315 10:03:05.153806 28801 net.cpp:399] label_data_1_split -> label_data_1_split_0
I0315 10:03:05.153815 28801 net.cpp:399] label_data_1_split -> label_data_1_split_1
I0315 10:03:05.153882 28801 net.cpp:141] Setting up label_data_1_split
I0315 10:03:05.153889 28801 net.cpp:148] Top shape: 50 (50)
I0315 10:03:05.153892 28801 net.cpp:148] Top shape: 50 (50)
I0315 10:03:05.153894 28801 net.cpp:156] Memory required for data: 9831000
I0315 10:03:05.153897 28801 layer_factory.hpp:77] Creating layer conv1
I0315 10:03:05.153906 28801 net.cpp:91] Creating Layer conv1
I0315 10:03:05.153909 28801 net.cpp:425] conv1 <- data
I0315 10:03:05.153913 28801 net.cpp:399] conv1 -> conv1
I0315 10:03:05.157721 28801 net.cpp:141] Setting up conv1
I0315 10:03:05.157737 28801 net.cpp:148] Top shape: 50 96 30 30 (4320000)
I0315 10:03:05.157740 28801 net.cpp:156] Memory required for data: 27111000
I0315 10:03:05.157750 28801 layer_factory.hpp:77] Creating layer relu1
I0315 10:03:05.157757 28801 net.cpp:91] Creating Layer relu1
I0315 10:03:05.157760 28801 net.cpp:425] relu1 <- conv1
I0315 10:03:05.157764 28801 net.cpp:399] relu1 -> relu1
I0315 10:03:05.158355 28801 net.cpp:141] Setting up relu1
I0315 10:03:05.158365 28801 net.cpp:148] Top shape: 50 96 30 30 (4320000)
I0315 10:03:05.158368 28801 net.cpp:156] Memory required for data: 44391000
I0315 10:03:05.158373 28801 layer_factory.hpp:77] Creating layer pool1
I0315 10:03:05.158385 28801 net.cpp:91] Creating Layer pool1
I0315 10:03:05.158390 28801 net.cpp:425] pool1 <- relu1
I0315 10:03:05.158398 28801 net.cpp:399] pool1 -> pool1
I0315 10:03:05.158450 28801 net.cpp:141] Setting up pool1
I0315 10:03:05.158460 28801 net.cpp:148] Top shape: 50 96 15 15 (1080000)
I0315 10:03:05.158465 28801 net.cpp:156] Memory required for data: 48711000
I0315 10:03:05.158469 28801 layer_factory.hpp:77] Creating layer conv2
I0315 10:03:05.158483 28801 net.cpp:91] Creating Layer conv2
I0315 10:03:05.158489 28801 net.cpp:425] conv2 <- pool1
I0315 10:03:05.158499 28801 net.cpp:399] conv2 -> conv2
I0315 10:03:05.170897 28801 net.cpp:141] Setting up conv2
I0315 10:03:05.170919 28801 net.cpp:148] Top shape: 50 256 15 15 (2880000)
I0315 10:03:05.170922 28801 net.cpp:156] Memory required for data: 60231000
I0315 10:03:05.170936 28801 layer_factory.hpp:77] Creating layer relu2
I0315 10:03:05.170948 28801 net.cpp:91] Creating Layer relu2
I0315 10:03:05.170953 28801 net.cpp:425] relu2 <- conv2
I0315 10:03:05.170964 28801 net.cpp:399] relu2 -> relu2
I0315 10:03:05.171561 28801 net.cpp:141] Setting up relu2
I0315 10:03:05.171571 28801 net.cpp:148] Top shape: 50 256 15 15 (2880000)
I0315 10:03:05.171573 28801 net.cpp:156] Memory required for data: 71751000
I0315 10:03:05.171578 28801 layer_factory.hpp:77] Creating layer pool2
I0315 10:03:05.171586 28801 net.cpp:91] Creating Layer pool2
I0315 10:03:05.171591 28801 net.cpp:425] pool2 <- relu2
I0315 10:03:05.171598 28801 net.cpp:399] pool2 -> pool2
I0315 10:03:05.171646 28801 net.cpp:141] Setting up pool2
I0315 10:03:05.171653 28801 net.cpp:148] Top shape: 50 256 7 7 (627200)
I0315 10:03:05.171655 28801 net.cpp:156] Memory required for data: 74259800
I0315 10:03:05.171659 28801 layer_factory.hpp:77] Creating layer conv3
I0315 10:03:05.171679 28801 net.cpp:91] Creating Layer conv3
I0315 10:03:05.171685 28801 net.cpp:425] conv3 <- pool2
I0315 10:03:05.171708 28801 net.cpp:399] conv3 -> conv3
I0315 10:03:05.199656 28801 net.cpp:141] Setting up conv3
I0315 10:03:05.199682 28801 net.cpp:148] Top shape: 50 384 7 7 (940800)
I0315 10:03:05.199687 28801 net.cpp:156] Memory required for data: 78023000
I0315 10:03:05.199705 28801 layer_factory.hpp:77] Creating layer relu3
I0315 10:03:05.199717 28801 net.cpp:91] Creating Layer relu3
I0315 10:03:05.199723 28801 net.cpp:425] relu3 <- conv3
I0315 10:03:05.199731 28801 net.cpp:399] relu3 -> relu3
I0315 10:03:05.200630 28801 net.cpp:141] Setting up relu3
I0315 10:03:05.200649 28801 net.cpp:148] Top shape: 50 384 7 7 (940800)
I0315 10:03:05.200654 28801 net.cpp:156] Memory required for data: 81786200
I0315 10:03:05.200659 28801 layer_factory.hpp:77] Creating layer conv4
I0315 10:03:05.200675 28801 net.cpp:91] Creating Layer conv4
I0315 10:03:05.200681 28801 net.cpp:425] conv4 <- relu3
I0315 10:03:05.200692 28801 net.cpp:399] conv4 -> conv4
I0315 10:03:05.223582 28801 net.cpp:141] Setting up conv4
I0315 10:03:05.223609 28801 net.cpp:148] Top shape: 50 384 7 7 (940800)
I0315 10:03:05.223614 28801 net.cpp:156] Memory required for data: 85549400
I0315 10:03:05.223625 28801 layer_factory.hpp:77] Creating layer relu4
I0315 10:03:05.223637 28801 net.cpp:91] Creating Layer relu4
I0315 10:03:05.223644 28801 net.cpp:425] relu4 <- conv4
I0315 10:03:05.223654 28801 net.cpp:399] relu4 -> relu4
I0315 10:03:05.224468 28801 net.cpp:141] Setting up relu4
I0315 10:03:05.224481 28801 net.cpp:148] Top shape: 50 384 7 7 (940800)
I0315 10:03:05.224484 28801 net.cpp:156] Memory required for data: 89312600
I0315 10:03:05.224488 28801 layer_factory.hpp:77] Creating layer conv5
I0315 10:03:05.224500 28801 net.cpp:91] Creating Layer conv5
I0315 10:03:05.224504 28801 net.cpp:425] conv5 <- relu4
I0315 10:03:05.224511 28801 net.cpp:399] conv5 -> conv5
I0315 10:03:05.241901 28801 net.cpp:141] Setting up conv5
I0315 10:03:05.241931 28801 net.cpp:148] Top shape: 50 256 7 7 (627200)
I0315 10:03:05.241936 28801 net.cpp:156] Memory required for data: 91821400
I0315 10:03:05.241955 28801 layer_factory.hpp:77] Creating layer relu5
I0315 10:03:05.241966 28801 net.cpp:91] Creating Layer relu5
I0315 10:03:05.241971 28801 net.cpp:425] relu5 <- conv5
I0315 10:03:05.241978 28801 net.cpp:399] relu5 -> relu5
I0315 10:03:05.242738 28801 net.cpp:141] Setting up relu5
I0315 10:03:05.242753 28801 net.cpp:148] Top shape: 50 256 7 7 (627200)
I0315 10:03:05.242758 28801 net.cpp:156] Memory required for data: 94330200
I0315 10:03:05.242763 28801 layer_factory.hpp:77] Creating layer pool5
I0315 10:03:05.242770 28801 net.cpp:91] Creating Layer pool5
I0315 10:03:05.242776 28801 net.cpp:425] pool5 <- relu5
I0315 10:03:05.242784 28801 net.cpp:399] pool5 -> pool5
I0315 10:03:05.242841 28801 net.cpp:141] Setting up pool5
I0315 10:03:05.242851 28801 net.cpp:148] Top shape: 50 256 3 3 (115200)
I0315 10:03:05.242853 28801 net.cpp:156] Memory required for data: 94791000
I0315 10:03:05.242858 28801 layer_factory.hpp:77] Creating layer fc6
I0315 10:03:05.242869 28801 net.cpp:91] Creating Layer fc6
I0315 10:03:05.242873 28801 net.cpp:425] fc6 <- pool5
I0315 10:03:05.242879 28801 net.cpp:399] fc6 -> fc6
I0315 10:03:05.371289 28801 net.cpp:141] Setting up fc6
I0315 10:03:05.371318 28801 net.cpp:148] Top shape: 50 2048 (102400)
I0315 10:03:05.371321 28801 net.cpp:156] Memory required for data: 95200600
I0315 10:03:05.371330 28801 layer_factory.hpp:77] Creating layer relu6
I0315 10:03:05.371345 28801 net.cpp:91] Creating Layer relu6
I0315 10:03:05.371350 28801 net.cpp:425] relu6 <- fc6
I0315 10:03:05.371358 28801 net.cpp:399] relu6 -> relu6
I0315 10:03:05.372110 28801 net.cpp:141] Setting up relu6
I0315 10:03:05.372122 28801 net.cpp:148] Top shape: 50 2048 (102400)
I0315 10:03:05.372124 28801 net.cpp:156] Memory required for data: 95610200
I0315 10:03:05.372128 28801 layer_factory.hpp:77] Creating layer drop6
I0315 10:03:05.372133 28801 net.cpp:91] Creating Layer drop6
I0315 10:03:05.372138 28801 net.cpp:425] drop6 <- relu6
I0315 10:03:05.372143 28801 net.cpp:399] drop6 -> drop6
I0315 10:03:05.372195 28801 net.cpp:141] Setting up drop6
I0315 10:03:05.372201 28801 net.cpp:148] Top shape: 50 2048 (102400)
I0315 10:03:05.372205 28801 net.cpp:156] Memory required for data: 96019800
I0315 10:03:05.372206 28801 layer_factory.hpp:77] Creating layer fc7
I0315 10:03:05.372215 28801 net.cpp:91] Creating Layer fc7
I0315 10:03:05.372217 28801 net.cpp:425] fc7 <- drop6
I0315 10:03:05.372222 28801 net.cpp:399] fc7 -> fc7
I0315 10:03:05.481245 28801 net.cpp:141] Setting up fc7
I0315 10:03:05.481271 28801 net.cpp:148] Top shape: 50 2048 (102400)
I0315 10:03:05.481276 28801 net.cpp:156] Memory required for data: 96429400
I0315 10:03:05.481284 28801 layer_factory.hpp:77] Creating layer relu7
I0315 10:03:05.481294 28801 net.cpp:91] Creating Layer relu7
I0315 10:03:05.481302 28801 net.cpp:425] relu7 <- fc7
I0315 10:03:05.481312 28801 net.cpp:399] relu7 -> relu7
I0315 10:03:05.482252 28801 net.cpp:141] Setting up relu7
I0315 10:03:05.482265 28801 net.cpp:148] Top shape: 50 2048 (102400)
I0315 10:03:05.482269 28801 net.cpp:156] Memory required for data: 96839000
I0315 10:03:05.482272 28801 layer_factory.hpp:77] Creating layer drop7
I0315 10:03:05.482280 28801 net.cpp:91] Creating Layer drop7
I0315 10:03:05.482286 28801 net.cpp:425] drop7 <- relu7
I0315 10:03:05.482296 28801 net.cpp:399] drop7 -> drop7
I0315 10:03:05.482358 28801 net.cpp:141] Setting up drop7
I0315 10:03:05.482365 28801 net.cpp:148] Top shape: 50 2048 (102400)
I0315 10:03:05.482368 28801 net.cpp:156] Memory required for data: 97248600
I0315 10:03:05.482370 28801 layer_factory.hpp:77] Creating layer fc8
I0315 10:03:05.482378 28801 net.cpp:91] Creating Layer fc8
I0315 10:03:05.482384 28801 net.cpp:425] fc8 <- drop7
I0315 10:03:05.482391 28801 net.cpp:399] fc8 -> fc8
I0315 10:03:05.537556 28801 net.cpp:141] Setting up fc8
I0315 10:03:05.537582 28801 net.cpp:148] Top shape: 50 1000 (50000)
I0315 10:03:05.537586 28801 net.cpp:156] Memory required for data: 97448600
I0315 10:03:05.537595 28801 layer_factory.hpp:77] Creating layer fc8_fc8_0_split
I0315 10:03:05.537607 28801 net.cpp:91] Creating Layer fc8_fc8_0_split
I0315 10:03:05.537616 28801 net.cpp:425] fc8_fc8_0_split <- fc8
I0315 10:03:05.537627 28801 net.cpp:399] fc8_fc8_0_split -> fc8_fc8_0_split_0
I0315 10:03:05.537639 28801 net.cpp:399] fc8_fc8_0_split -> fc8_fc8_0_split_1
I0315 10:03:05.537734 28801 net.cpp:141] Setting up fc8_fc8_0_split
I0315 10:03:05.537744 28801 net.cpp:148] Top shape: 50 1000 (50000)
I0315 10:03:05.537750 28801 net.cpp:148] Top shape: 50 1000 (50000)
I0315 10:03:05.537755 28801 net.cpp:156] Memory required for data: 97848600
I0315 10:03:05.537760 28801 layer_factory.hpp:77] Creating layer accuracy
I0315 10:03:05.537777 28801 net.cpp:91] Creating Layer accuracy
I0315 10:03:05.537783 28801 net.cpp:425] accuracy <- fc8_fc8_0_split_0
I0315 10:03:05.537791 28801 net.cpp:425] accuracy <- label_data_1_split_0
I0315 10:03:05.537799 28801 net.cpp:399] accuracy -> accuracy
…
