…
      source: "/local/temporary/imagenet144pxlmdb/ilsvrc12_128_train_lmdb"
      batch_size: 256
      backend: LMDB
    }
  }
  layer {
    name: "data"
    type: "Data"
    top: "data"
    top: "label"
    include {
      phase: TEST
    }
    transform_param {
      scale: 0.04
      mirror: false
      crop_size: 128
      mean_value: 104
      mean_value: 117
      mean_value: 123
      force_color: true
    }
    data_param {
      source: "/local/temporary/imagenet144pxlmdb/ilsvrc12_128_val_lmdb"
      batch_size: 50
      backend: LMDB
    }
  }
  layer {
    name: "conv1"
    type: "Convolution"
    bottom: "data"
    top: "conv1"
    param {
      lr_mult: 1
      decay_mult: 1
    }
    param {
      lr_mult: 2
      decay_mult: 0
    }
    convolution_param {
      num_output: 96
      kernel_size: 11
      stride: 4
      weight_filler {
        type: "gaussian"
        std: 0.01
      }
      bias_filler {
        type: "constant"
      }
    }
  }
  layer {
    name: "pool1"
    type: "Pooling"
    bottom: "conv1"
    top: "pool1"
    pooling_param {
      pool: MAX
      kernel_size: 3
      stride: 2
    }
  }
  layer {
    name: "conv2"
    type: "Convolution"
    bottom: "pool1"
    top: "conv2"
    param {
      lr_mult: 1
      decay_mult: 1
    }
    param {
      lr_mult: 2
      decay_mult: 0
    }
    convolution_param {
      num_output: 256
      pad: 2
      kernel_size: 5
      group: 2
      weight_filler {
        type: "gaussian"
        std: 0.01
      }
      bias_filler {
        type: "constant"
      }
    }
  }
  layer {
    name: "pool2"
    type: "Pooling"
    bottom: "conv2"
    top: "pool2"
    pooling_param {
      pool: MAX
      kernel_size: 3
      stride: 2
    }
  }
  layer {
    name: "conv3"
    type: "Convolution"
    bottom: "pool2"
    top: "conv3"
    param {
      lr_mult: 1
      decay_mult: 1
    }
    param {
      lr_mult: 2
      decay_mult: 0
    }
    convolution_param {
      num_output: 384
      pad: 1
      kernel_size: 3
      weight_filler {
        type: "gaussian"
        std: 0.01
      }
      bias_filler {
        type: "constant"
      }
    }
  }
  layer {
    name: "conv4"
    type: "Convolution"
    bottom: "conv3"
    top: "conv4"
    param {
      lr_mult: 1
      decay_mult: 1
    }
    param {
      lr_mult: 2
      decay_mult: 0
    }
    convolution_param {
      num_output: 384
      pad: 1
      kernel_size: 3
      group: 2
      weight_filler {
        type: "gaussian"
        std: 0.01
      }
      bias_filler {
        type: "constant"
      }
    }
  }
  layer {
    name: "conv5"
    type: "Convolution"
    bottom: "conv4"
    top: "conv5"
    param {
      lr_mult: 1
      decay_mult: 1
    }
    param {
      lr_mult: 2
      decay_mult: 0
    }
    convolution_param {
      num_output: 256
      pad: 1
      kernel_size: 3
      group: 2
      weight_filler {
        type: "gaussian"
        std: 0.01
      }
      bias_filler {
        type: "constant"
      }
    }
  }
  layer {
    name: "pool5"
    type: "Pooling"
    bottom: "conv5"
    top: "pool5"
    pooling_param {
      pool: MAX
      kernel_size: 3
      stride: 2
    }
  }
  layer {
    name: "fc6"
    type: "InnerProduct"
    bottom: "pool5"
    top: "fc6"
    param {
      lr_mult: 1
      decay_mult: 1
    }
    param {
      lr_mult: 2
      decay_mult: 0
    }
    inner_product_param {
      num_output: 2048
      weight_filler {
        type: "gaussian"
        std: 0.005
      }
      bias_filler {
        type: "constant"
      }
    }
  }
  layer {
    name: "drop6"
    type: "Dropout"
    bottom: "fc6"
    top: "drop6"
  }
  layer {
    name: "fc7"
    type: "InnerProduct"
    bottom: "drop6"
    top: "fc7"
    param {
      lr_mult: 1
      decay_mult: 1
    }
    param {
      lr_mult: 2
      decay_mult: 0
    }
    inner_product_param {
      num_output: 2048
      weight_filler {
        type: "gaussian"
        std: 0.005
      }
      bias_filler {
        type: "constant"
      }
    }
  }
  layer {
    name: "drop7"
    type: "Dropout"
    bottom: "fc7"
    top: "drop7"
  }
  layer {
    name: "fc8"
    type: "InnerProduct"
    bottom: "drop7"
    top: "fc8"
    param {
      lr_mult: 1
      decay_mult: 1
    }
    param {
      lr_mult: 2
      decay_mult: 0
    }
    inner_product_param {
      num_output: 1000
      weight_filler {
        type: "gaussian"
        std: 0.01
      }
      bias_filler {
        type: "constant"
      }
    }
  }
  layer {
    name: "accuracy"
    type: "Accuracy"
    bottom: "fc8"
    bottom: "label"
    top: "accuracy"
    include {
      phase: TEST
    }
  }
  layer {
    name: "loss"
    type: "SoftmaxWithLoss"
    bottom: "fc8"
    bottom: "label"
    top: "loss"
  }
}
test_initialization: false
average_loss: 20
iter_size: 1
type: "SGD"
I0318 23:21:49.376584 11980 solver.cpp:86] Creating training net specified in net_param.
I0318 23:21:49.376673 11980 net.cpp:322] The NetState phase (0) differed from the phase (1) specified by a rule in layer data
I0318 23:21:49.376693 11980 net.cpp:322] The NetState phase (0) differed from the phase (1) specified by a rule in layer accuracy
I0318 23:21:49.376896 11980 net.cpp:49] Initializing net from parameters: 
name: "CaffeNet"
state {
  phase: TRAIN
}
layer {
  name: "data"
  type: "Data"
  top: "data"
  top: "label"
  include {
    phase: TRAIN
  }
  transform_param {
    scale: 0.04
    mirror: true
    crop_size: 128
    mean_value: 104
    mean_value: 117
    mean_value: 124
    force_color: true
  }
  data_param {
    source: "/local/temporary/imagenet144pxlmdb/ilsvrc12_128_train_lmdb"
    batch_size: 256
    backend: LMDB
  }
}
layer {
  name: "conv1"
  type: "Convolution"
  bottom: "data"
  top: "conv1"
  param {
    lr_mult: 1
    decay_mult: 1
  }
  param {
    lr_mult: 2
    decay_mult: 0
  }
  convolution_param {
    num_output: 96
    kernel_size: 11
    stride: 4
    weight_filler {
      type: "gaussian"
      std: 0.01
    }
    bias_filler {
      type: "constant"
    }
  }
}
layer {
  name: "pool1"
  type: "Pooling"
  bottom: "conv1"
  top: "pool1"
  pooling_param {
    pool: MAX
    kernel_size: 3
    stride: 2
  }
}
layer {
  name: "conv2"
  type: "Convolution"
  bottom: "pool1"
  top: "conv2"
  param {
    lr_mult: 1
    decay_mult: 1
  }
  param {
    lr_mult: 2
    decay_mult: 0
  }
  convolution_param {
    num_output: 256
    pad: 2
    kernel_size: 5
    group: 2
    weight_filler {
      type: "gaussian"
      std: 0.01
    }
    bias_filler {
      type: "constant"
    }
  }
}
layer {
  name: "pool2"
  type: "Pooling"
  bottom: "conv2"
  top: "pool2"
  pooling_param {
    pool: MAX
    kernel_size: 3
    stride: 2
  }
}
layer {
  name: "conv3"
  type: "Convolution"
  bottom: "pool2"
  top: "conv3"
  param {
    lr_mult: 1
    decay_mult: 1
  }
  param {
    lr_mult: 2
    decay_mult: 0
  }
  convolution_param {
    num_output: 384
    pad: 1
    kernel_size: 3
    weight_filler {
      type: "gaussian"
      std: 0.01
    }
    bias_filler {
      type: "constant"
    }
  }
}
layer {
  name: "conv4"
  type: "Convolution"
  bottom: "conv3"
  top: "conv4"
  param {
    lr_mult: 1
    decay_mult: 1
  }
  param {
    lr_mult: 2
    decay_mult: 0
  }
  convolution_param {
    num_output: 384
    pad: 1
    kernel_size: 3
    group: 2
    weight_filler {
      type: "gaussian"
      std: 0.01
    }
    bias_filler {
      type: "constant"
    }
  }
}
layer {
  name: "conv5"
  type: "Convolution"
  bottom: "conv4"
  top: "conv5"
  param {
    lr_mult: 1
    decay_mult: 1
  }
  param {
    lr_mult: 2
    decay_mult: 0
  }
  convolution_param {
    num_output: 256
    pad: 1
    kernel_size: 3
    group: 2
    weight_filler {
      type: "gaussian"
      std: 0.01
    }
    bias_filler {
      type: "constant"
    }
  }
}
layer {
  name: "pool5"
  type: "Pooling"
  bottom: "conv5"
  top: "pool5"
  pooling_param {
    pool: MAX
    kernel_size: 3
    stride: 2
  }
}
layer {
  name: "fc6"
  type: "InnerProduct"
  bottom: "pool5"
  top: "fc6"
  param {
    lr_mult: 1
    decay_mult: 1
  }
  param {
    lr_mult: 2
    decay_mult: 0
  }
  inner_product_param {
    num_output: 2048
    weight_filler {
      type: "gaussian"
      std: 0.005
    }
    bias_filler {
      type: "constant"
    }
  }
}
layer {
  name: "drop6"
  type: "Dropout"
  bottom: "fc6"
  top: "drop6"
}
layer {
  name: "fc7"
  type: "InnerProduct"
  bottom: "drop6"
  top: "fc7"
  param {
    lr_mult: 1
    decay_mult: 1
  }
  param {
    lr_mult: 2
    decay_mult: 0
  }
  inner_product_param {
    num_output: 2048
    weight_filler {
      type: "gaussian"
      std: 0.005
    }
    bias_filler {
      type: "constant"
    }
  }
}
layer {
  name: "drop7"
  type: "Dropout"
  bottom: "fc7"
  top: "drop7"
}
layer {
  name: "fc8"
  type: "InnerProduct"
  bottom: "drop7"
  top: "fc8"
  param {
    lr_mult: 1
    decay_mult: 1
  }
  param {
    lr_mult: 2
    decay_mult: 0
  }
  inner_product_param {
    num_output: 1000
    weight_filler {
      type: "gaussian"
      std: 0.01
    }
    bias_filler {
      type: "constant"
    }
  }
}
layer {
  name: "loss"
  type: "SoftmaxWithLoss"
  bottom: "fc8"
  bottom: "label"
  top: "loss"
}
I0318 23:21:49.376988 11980 layer_factory.hpp:76] Creating layer data
I0318 23:21:49.377701 11980 net.cpp:106] Creating Layer data
I0318 23:21:49.377730 11980 net.cpp:411] data -> data
I0318 23:21:49.377779 11980 net.cpp:411] data -> label
I0318 23:21:49.378721 12017 db_lmdb.cpp:38] Opened lmdb /local/temporary/imagenet144pxlmdb/ilsvrc12_128_train_lmdb
I0318 23:21:49.412241 11980 data_layer.cpp:41] output data size: 256,3,128,128
I0318 23:21:49.527281 11980 net.cpp:150] Setting up data
I0318 23:21:49.527323 11980 net.cpp:157] Top shape: 256 3 128 128 (12582912)
I0318 23:21:49.527330 11980 net.cpp:157] Top shape: 256 (256)
I0318 23:21:49.527334 11980 net.cpp:165] Memory required for data: 50332672
I0318 23:21:49.527348 11980 layer_factory.hpp:76] Creating layer conv1
I0318 23:21:49.527382 11980 net.cpp:106] Creating Layer conv1
I0318 23:21:49.527389 11980 net.cpp:454] conv1 <- data
I0318 23:21:49.527408 11980 net.cpp:411] conv1 -> conv1
I0318 23:21:49.697974 11980 net.cpp:150] Setting up conv1
I0318 23:21:49.698005 11980 net.cpp:157] Top shape: 256 96 30 30 (22118400)
I0318 23:21:49.698010 11980 net.cpp:165] Memory required for data: 138806272
I0318 23:21:49.698029 11980 layer_factory.hpp:76] Creating layer pool1
I0318 23:21:49.698040 11980 net.cpp:106] Creating Layer pool1
I0318 23:21:49.698045 11980 net.cpp:454] pool1 <- conv1
I0318 23:21:49.698055 11980 net.cpp:411] pool1 -> pool1
I0318 23:21:49.698313 11980 net.cpp:150] Setting up pool1
I0318 23:21:49.698324 11980 net.cpp:157] Top shape: 256 96 15 15 (5529600)
I0318 23:21:49.698329 11980 net.cpp:165] Memory required for data: 160924672
I0318 23:21:49.698333 11980 layer_factory.hpp:76] Creating layer conv2
I0318 23:21:49.698346 11980 net.cpp:106] Creating Layer conv2
I0318 23:21:49.698350 11980 net.cpp:454] conv2 <- pool1
I0318 23:21:49.698359 11980 net.cpp:411] conv2 -> conv2
I0318 23:21:49.717123 11980 net.cpp:150] Setting up conv2
I0318 23:21:49.717156 11980 net.cpp:157] Top shape: 256 256 15 15 (14745600)
I0318 23:21:49.717160 11980 net.cpp:165] Memory required for data: 219907072
I0318 23:21:49.717216 11980 layer_factory.hpp:76] Creating layer pool2
I0318 23:21:49.717229 11980 net.cpp:106] Creating Layer pool2
I0318 23:21:49.717234 11980 net.cpp:454] pool2 <- conv2
I0318 23:21:49.717239 11980 net.cpp:411] pool2 -> pool2
I0318 23:21:49.718443 11980 net.cpp:150] Setting up pool2
I0318 23:21:49.718456 11980 net.cpp:157] Top shape: 256 256 7 7 (3211264)
I0318 23:21:49.718468 11980 net.cpp:165] Memory required for data: 232752128
I0318 23:21:49.718472 11980 layer_factory.hpp:76] Creating layer conv3
I0318 23:21:49.718482 11980 net.cpp:106] Creating Layer conv3
I0318 23:21:49.718485 11980 net.cpp:454] conv3 <- pool2
I0318 23:21:49.718493 11980 net.cpp:411] conv3 -> conv3
I0318 23:21:49.750246 11980 net.cpp:150] Setting up conv3
I0318 23:21:49.750272 11980 net.cpp:157] Top shape: 256 384 7 7 (4816896)
I0318 23:21:49.750279 11980 net.cpp:165] Memory required for data: 252019712
I0318 23:21:49.750293 11980 layer_factory.hpp:76] Creating layer conv4
I0318 23:21:49.750308 11980 net.cpp:106] Creating Layer conv4
I0318 23:21:49.750311 11980 net.cpp:454] conv4 <- conv3
I0318 23:21:49.750320 11980 net.cpp:411] conv4 -> conv4
I0318 23:21:49.775387 11980 net.cpp:150] Setting up conv4
I0318 23:21:49.775410 11980 net.cpp:157] Top shape: 256 384 7 7 (4816896)
I0318 23:21:49.775414 11980 net.cpp:165] Memory required for data: 271287296
I0318 23:21:49.775425 11980 layer_factory.hpp:76] Creating layer conv5
I0318 23:21:49.775456 11980 net.cpp:106] Creating Layer conv5
I0318 23:21:49.775461 11980 net.cpp:454] conv5 <- conv4
I0318 23:21:49.775467 11980 net.cpp:411] conv5 -> conv5
I0318 23:21:49.794262 11980 net.cpp:150] Setting up conv5
I0318 23:21:49.794282 11980 net.cpp:157] Top shape: 256 256 7 7 (3211264)
I0318 23:21:49.794286 11980 net.cpp:165] Memory required for data: 284132352
I0318 23:21:49.794298 11980 layer_factory.hpp:76] Creating layer pool5
I0318 23:21:49.794312 11980 net.cpp:106] Creating Layer pool5
I0318 23:21:49.794317 11980 net.cpp:454] pool5 <- conv5
I0318 23:21:49.794323 11980 net.cpp:411] pool5 -> pool5
I0318 23:21:49.794569 11980 net.cpp:150] Setting up pool5
I0318 23:21:49.794580 11980 net.cpp:157] Top shape: 256 256 3 3 (589824)
I0318 23:21:49.794585 11980 net.cpp:165] Memory required for data: 286491648
I0318 23:21:49.794589 11980 layer_factory.hpp:76] Creating layer fc6
I0318 23:21:49.794598 11980 net.cpp:106] Creating Layer fc6
I0318 23:21:49.794603 11980 net.cpp:454] fc6 <- pool5
I0318 23:21:49.794612 11980 net.cpp:411] fc6 -> fc6
I0318 23:21:49.947100 11980 net.cpp:150] Setting up fc6
I0318 23:21:49.947132 11980 net.cpp:157] Top shape: 256 2048 (524288)
I0318 23:21:49.947135 11980 net.cpp:165] Memory required for data: 288588800
I0318 23:21:49.947146 11980 layer_factory.hpp:76] Creating layer drop6
I0318 23:21:49.947155 11980 net.cpp:106] Creating Layer drop6
I0318 23:21:49.947160 11980 net.cpp:454] drop6 <- fc6
I0318 23:21:49.947168 11980 net.cpp:411] drop6 -> drop6
I0318 23:21:49.947219 11980 net.cpp:150] Setting up drop6
I0318 23:21:49.947227 11980 net.cpp:157] Top shape: 256 2048 (524288)
I0318 23:21:49.947230 11980 net.cpp:165] Memory required for data: 290685952
I0318 23:21:49.947234 11980 layer_factory.hpp:76] Creating layer fc7
I0318 23:21:49.947250 11980 net.cpp:106] Creating Layer fc7
I0318 23:21:49.947254 11980 net.cpp:454] fc7 <- drop6
I0318 23:21:49.947262 11980 net.cpp:411] fc7 -> fc7
I0318 23:21:50.082180 11980 net.cpp:150] Setting up fc7
I0318 23:21:50.082219 11980 net.cpp:157] Top shape: 256 2048 (524288)
I0318 23:21:50.082223 11980 net.cpp:165] Memory required for data: 292783104
I0318 23:21:50.082233 11980 layer_factory.hpp:76] Creating layer drop7
I0318 23:21:50.082242 11980 net.cpp:106] Creating Layer drop7
I0318 23:21:50.082247 11980 net.cpp:454] drop7 <- fc7
I0318 23:21:50.082254 11980 net.cpp:411] drop7 -> drop7
I0318 23:21:50.082304 11980 net.cpp:150] Setting up drop7
I0318 23:21:50.082310 11980 net.cpp:157] Top shape: 256 2048 (524288)
I0318 23:21:50.082314 11980 net.cpp:165] Memory required for data: 294880256
I0318 23:21:50.082343 11980 layer_factory.hpp:76] Creating layer fc8
I0318 23:21:50.082353 11980 net.cpp:106] Creating Layer fc8
I0318 23:21:50.082358 11980 net.cpp:454] fc8 <- drop7
I0318 23:21:50.082363 11980 net.cpp:411] fc8 -> fc8
I0318 23:21:50.148018 11980 net.cpp:150] Setting up fc8
I0318 23:21:50.148048 11980 net.cpp:157] Top shape: 256 1000 (256000)
I0318 23:21:50.148052 11980 net.cpp:165] Memory required for data: 295904256
I0318 23:21:50.148069 11980 layer_factory.hpp:76] Creating layer loss
I0318 23:21:50.148087 11980 net.cpp:106] Creating Layer loss
I0318 23:21:50.148090 11980 net.cpp:454] loss <- fc8
I0318 23:21:50.148097 11980 net.cpp:454] loss <- label
I0318 23:21:50.148110 11980 net.cpp:411] loss -> loss
I0318 23:21:50.148123 11980 layer_factory.hpp:76] Creating layer loss
…
I0318 23:21:50.149894 11980 net.cpp:322] The NetState phase (1) differed from the phase (0) specified by a rule in layer data
I0318 23:21:50.150166 11980 net.cpp:49] Initializing net from parameters: 
name: "CaffeNet"
state {
  phase: TEST
}
layer {
  name: "data"
  type: "Data"
  top: "data"
  top: "label"
  include {
    phase: TEST
  }
  transform_param {
    scale: 0.04
    mirror: false
    crop_size: 128
    mean_value: 104
    mean_value: 117
    mean_value: 123
    force_color: true
  }
  data_param {
    source: "/local/temporary/imagenet144pxlmdb/ilsvrc12_128_val_lmdb"
    batch_size: 50
    backend: LMDB
  }
}
layer {
  name: "conv1"
  type: "Convolution"
  bottom: "data"
  top: "conv1"
  param {
    lr_mult: 1
    decay_mult: 1
  }
  param {
    lr_mult: 2
    decay_mult: 0
  }
  convolution_param {
    num_output: 96
    kernel_size: 11
    stride: 4
    weight_filler {
      type: "gaussian"
      std: 0.01
    }
    bias_filler {
      type: "constant"
    }
  }
}
layer {
  name: "pool1"
  type: "Pooling"
  bottom: "conv1"
  top: "pool1"
  pooling_param {
    pool: MAX
    kernel_size: 3
    stride: 2
  }
}
layer {
  name: "conv2"
  type: "Convolution"
  bottom: "pool1"
  top: "conv2"
  param {
    lr_mult: 1
    decay_mult: 1
  }
  param {
    lr_mult: 2
    decay_mult: 0
  }
  convolution_param {
    num_output: 256
    pad: 2
    kernel_size: 5
    group: 2
    weight_filler {
      type: "gaussian"
      std: 0.01
    }
    bias_filler {
      type: "constant"
    }
  }
}
layer {
  name: "pool2"
  type: "Pooling"
  bottom: "conv2"
  top: "pool2"
  pooling_param {
    pool: MAX
    kernel_size: 3
    stride: 2
  }
}
layer {
  name: "conv3"
  type: "Convolution"
  bottom: "pool2"
  top: "conv3"
  param {
    lr_mult: 1
    decay_mult: 1
  }
  param {
    lr_mult: 2
    decay_mult: 0
  }
  convolution_param {
    num_output: 384
    pad: 1
    kernel_size: 3
    weight_filler {
      type: "gaussian"
      std: 0.01
    }
    bias_filler {
      type: "constant"
    }
  }
}
layer {
  name: "conv4"
  type: "Convolution"
  bottom: "conv3"
  top: "conv4"
  param {
    lr_mult: 1
    decay_mult: 1
  }
  param {
    lr_mult: 2
    decay_mult: 0
  }
  convolution_param {
    num_output: 384
    pad: 1
    kernel_size: 3
    group: 2
    weight_filler {
      type: "gaussian"
      std: 0.01
    }
    bias_filler {
      type: "constant"
    }
  }
}
layer {
  name: "conv5"
  type: "Convolution"
  bottom: "conv4"
  top: "conv5"
  param {
    lr_mult: 1
    decay_mult: 1
  }
  param {
    lr_mult: 2
    decay_mult: 0
  }
  convolution_param {
    num_output: 256
    pad: 1
    kernel_size: 3
    group: 2
    weight_filler {
      type: "gaussian"
      std: 0.01
    }
    bias_filler {
      type: "constant"
    }
  }
}
layer {
  name: "pool5"
  type: "Pooling"
  bottom: "conv5"
  top: "pool5"
  pooling_param {
    pool: MAX
    kernel_size: 3
    stride: 2
  }
}
layer {
  name: "fc6"
  type: "InnerProduct"
  bottom: "pool5"
  top: "fc6"
  param {
    lr_mult: 1
    decay_mult: 1
  }
  param {
    lr_mult: 2
    decay_mult: 0
  }
  inner_product_param {
    num_output: 2048
    weight_filler {
      type: "gaussian"
      std: 0.005
    }
    bias_filler {
      type: "constant"
    }
  }
}
layer {
  name: "drop6"
  type: "Dropout"
  bottom: "fc6"
  top: "drop6"
}
layer {
  name: "fc7"
  type: "InnerProduct"
  bottom: "drop6"
  top: "fc7"
  param {
    lr_mult: 1
    decay_mult: 1
  }
  param {
    lr_mult: 2
    decay_mult: 0
  }
  inner_product_param {
    num_output: 2048
    weight_filler {
      type: "gaussian"
      std: 0.005
    }
    bias_filler {
      type: "constant"
    }
  }
}
layer {
  name: "drop7"
  type: "Dropout"
  bottom: "fc7"
  top: "drop7"
}
layer {
  name: "fc8"
  type: "InnerProduct"
  bottom: "drop7"
  top: "fc8"
  param {
    lr_mult: 1
    decay_mult: 1
  }
  param {
    lr_mult: 2
    decay_mult: 0
  }
  inner_product_param {
    num_output: 1000
    weight_filler {
      type: "gaussian"
      std: 0.01
    }
    bias_filler {
      type: "constant"
    }
  }
}
layer {
  name: "accuracy"
  type: "Accuracy"
  bottom: "fc8"
  bottom: "label"
  top: "accuracy"
  include {
    phase: TEST
  }
}
layer {
  name: "loss"
  type: "SoftmaxWithLoss"
  bottom: "fc8"
  bottom: "label"
  top: "loss"
}
I0318 23:21:50.150326 11980 layer_factory.hpp:76] Creating layer data
I0318 23:21:50.150430 11980 net.cpp:106] Creating Layer data
I0318 23:21:50.150441 11980 net.cpp:411] data -> data
I0318 23:21:50.150452 11980 net.cpp:411] data -> label
I0318 23:21:50.151515 12019 db_lmdb.cpp:38] Opened lmdb /local/temporary/imagenet144pxlmdb/ilsvrc12_128_val_lmdb
I0318 23:21:50.152457 11980 data_layer.cpp:41] output data size: 50,3,128,128
I0318 23:21:50.172071 11980 net.cpp:150] Setting up data
I0318 23:21:50.172101 11980 net.cpp:157] Top shape: 50 3 128 128 (2457600)
I0318 23:21:50.172109 11980 net.cpp:157] Top shape: 50 (50)
I0318 23:21:50.172112 11980 net.cpp:165] Memory required for data: 9830600
I0318 23:21:50.172118 11980 layer_factory.hpp:76] Creating layer label_data_1_split
I0318 23:21:50.172132 11980 net.cpp:106] Creating Layer label_data_1_split
I0318 23:21:50.172135 11980 net.cpp:454] label_data_1_split <- label
I0318 23:21:50.172143 11980 net.cpp:411] label_data_1_split -> label_data_1_split_0
I0318 23:21:50.172154 11980 net.cpp:411] label_data_1_split -> label_data_1_split_1
I0318 23:21:50.172271 11980 net.cpp:150] Setting up label_data_1_split
I0318 23:21:50.172279 11980 net.cpp:157] Top shape: 50 (50)
I0318 23:21:50.172286 11980 net.cpp:157] Top shape: 50 (50)
I0318 23:21:50.172291 11980 net.cpp:165] Memory required for data: 9831000
I0318 23:21:50.172296 11980 layer_factory.hpp:76] Creating layer conv1
I0318 23:21:50.172307 11980 net.cpp:106] Creating Layer conv1
I0318 23:21:50.172343 11980 net.cpp:454] conv1 <- data
I0318 23:21:50.172350 11980 net.cpp:411] conv1 -> conv1
I0318 23:21:50.175439 11980 net.cpp:150] Setting up conv1
I0318 23:21:50.175457 11980 net.cpp:157] Top shape: 50 96 30 30 (4320000)
I0318 23:21:50.175459 11980 net.cpp:165] Memory required for data: 27111000
I0318 23:21:50.175472 11980 layer_factory.hpp:76] Creating layer pool1
I0318 23:21:50.175482 11980 net.cpp:106] Creating Layer pool1
I0318 23:21:50.175487 11980 net.cpp:454] pool1 <- conv1
I0318 23:21:50.175492 11980 net.cpp:411] pool1 -> pool1
I0318 23:21:50.175736 11980 net.cpp:150] Setting up pool1
I0318 23:21:50.175746 11980 net.cpp:157] Top shape: 50 96 15 15 (1080000)
I0318 23:21:50.175751 11980 net.cpp:165] Memory required for data: 31431000
I0318 23:21:50.175755 11980 layer_factory.hpp:76] Creating layer conv2
I0318 23:21:50.175770 11980 net.cpp:106] Creating Layer conv2
I0318 23:21:50.175775 11980 net.cpp:454] conv2 <- pool1
I0318 23:21:50.175782 11980 net.cpp:411] conv2 -> conv2
I0318 23:21:50.189409 11980 net.cpp:150] Setting up conv2
I0318 23:21:50.189425 11980 net.cpp:157] Top shape: 50 256 15 15 (2880000)
I0318 23:21:50.189429 11980 net.cpp:165] Memory required for data: 42951000
I0318 23:21:50.189438 11980 layer_factory.hpp:76] Creating layer pool2
I0318 23:21:50.189446 11980 net.cpp:106] Creating Layer pool2
I0318 23:21:50.189450 11980 net.cpp:454] pool2 <- conv2
I0318 23:21:50.189457 11980 net.cpp:411] pool2 -> pool2
I0318 23:21:50.190498 11980 net.cpp:150] Setting up pool2
I0318 23:21:50.190508 11980 net.cpp:157] Top shape: 50 256 7 7 (627200)
I0318 23:21:50.190512 11980 net.cpp:165] Memory required for data: 45459800
I0318 23:21:50.190515 11980 layer_factory.hpp:76] Creating layer conv3
I0318 23:21:50.190526 11980 net.cpp:106] Creating Layer conv3
I0318 23:21:50.190529 11980 net.cpp:454] conv3 <- pool2
I0318 23:21:50.190544 11980 net.cpp:411] conv3 -> conv3
I0318 23:21:50.222543 11980 net.cpp:150] Setting up conv3
I0318 23:21:50.222573 11980 net.cpp:157] Top shape: 50 384 7 7 (940800)
I0318 23:21:50.222579 11980 net.cpp:165] Memory required for data: 49223000
I0318 23:21:50.222592 11980 layer_factory.hpp:76] Creating layer conv4
I0318 23:21:50.222610 11980 net.cpp:106] Creating Layer conv4
I0318 23:21:50.222615 11980 net.cpp:454] conv4 <- conv3
I0318 23:21:50.222635 11980 net.cpp:411] conv4 -> conv4
I0318 23:21:50.246637 11980 net.cpp:150] Setting up conv4
I0318 23:21:50.246668 11980 net.cpp:157] Top shape: 50 384 7 7 (940800)
I0318 23:21:50.246672 11980 net.cpp:165] Memory required for data: 52986200
I0318 23:21:50.246682 11980 layer_factory.hpp:76] Creating layer conv5
I0318 23:21:50.246697 11980 net.cpp:106] Creating Layer conv5
I0318 23:21:50.246702 11980 net.cpp:454] conv5 <- conv4
I0318 23:21:50.246713 11980 net.cpp:411] conv5 -> conv5
I0318 23:21:50.269243 11980 net.cpp:150] Setting up conv5
I0318 23:21:50.269271 11980 net.cpp:157] Top shape: 50 256 7 7 (627200)
I0318 23:21:50.269275 11980 net.cpp:165] Memory required for data: 55495000
I0318 23:21:50.269287 11980 layer_factory.hpp:76] Creating layer pool5
I0318 23:21:50.269301 11980 net.cpp:106] Creating Layer pool5
I0318 23:21:50.269305 11980 net.cpp:454] pool5 <- conv5
I0318 23:21:50.269315 11980 net.cpp:411] pool5 -> pool5
I0318 23:21:50.269691 11980 net.cpp:150] Setting up pool5
I0318 23:21:50.269704 11980 net.cpp:157] Top shape: 50 256 3 3 (115200)
I0318 23:21:50.269707 11980 net.cpp:165] Memory required for data: 55955800
I0318 23:21:50.269716 11980 layer_factory.hpp:76] Creating layer fc6
I0318 23:21:50.269726 11980 net.cpp:106] Creating Layer fc6
I0318 23:21:50.269731 11980 net.cpp:454] fc6 <- pool5
I0318 23:21:50.269737 11980 net.cpp:411] fc6 -> fc6
I0318 23:21:50.405792 11980 net.cpp:150] Setting up fc6
I0318 23:21:50.405830 11980 net.cpp:157] Top shape: 50 2048 (102400)
I0318 23:21:50.405834 11980 net.cpp:165] Memory required for data: 56365400
I0318 23:21:50.405843 11980 layer_factory.hpp:76] Creating layer drop6
I0318 23:21:50.405851 11980 net.cpp:106] Creating Layer drop6
I0318 23:21:50.405855 11980 net.cpp:454] drop6 <- fc6
I0318 23:21:50.405905 11980 net.cpp:411] drop6 -> drop6
I0318 23:21:50.405957 11980 net.cpp:150] Setting up drop6
I0318 23:21:50.405963 11980 net.cpp:157] Top shape: 50 2048 (102400)
I0318 23:21:50.405966 11980 net.cpp:165] Memory required for data: 56775000
I0318 23:21:50.405972 11980 layer_factory.hpp:76] Creating layer fc7
I0318 23:21:50.405999 11980 net.cpp:106] Creating Layer fc7
I0318 23:21:50.406002 11980 net.cpp:454] fc7 <- drop6
I0318 23:21:50.406009 11980 net.cpp:411] fc7 -> fc7
I0318 23:21:50.523979 11980 net.cpp:150] Setting up fc7
I0318 23:21:50.524020 11980 net.cpp:157] Top shape: 50 2048 (102400)
I0318 23:21:50.524025 11980 net.cpp:165] Memory required for data: 57184600
I0318 23:21:50.524035 11980 layer_factory.hpp:76] Creating layer drop7
I0318 23:21:50.524044 11980 net.cpp:106] Creating Layer drop7
I0318 23:21:50.524047 11980 net.cpp:454] drop7 <- fc7
I0318 23:21:50.524052 11980 net.cpp:411] drop7 -> drop7
I0318 23:21:50.524114 11980 net.cpp:150] Setting up drop7
I0318 23:21:50.524121 11980 net.cpp:157] Top shape: 50 2048 (102400)
I0318 23:21:50.524123 11980 net.cpp:165] Memory required for data: 57594200
I0318 23:21:50.524128 11980 layer_factory.hpp:76] Creating layer fc8
I0318 23:21:50.524147 11980 net.cpp:106] Creating Layer fc8
I0318 23:21:50.524152 11980 net.cpp:454] fc8 <- drop7
I0318 23:21:50.524158 11980 net.cpp:411] fc8 -> fc8
I0318 23:21:50.580860 11980 net.cpp:150] Setting up fc8
I0318 23:21:50.580893 11980 net.cpp:157] Top shape: 50 1000 (50000)
I0318 23:21:50.580898 11980 net.cpp:165] Memory required for data: 57794200
I0318 23:21:50.580905 11980 layer_factory.hpp:76] Creating layer fc8_fc8_0_split
I0318 23:21:50.580927 11980 net.cpp:106] Creating Layer fc8_fc8_0_split
I0318 23:21:50.580932 11980 net.cpp:454] fc8_fc8_0_split <- fc8
I0318 23:21:50.580950 11980 net.cpp:411] fc8_fc8_0_split -> fc8_fc8_0_split_0
I0318 23:21:50.580965 11980 net.cpp:411] fc8_fc8_0_split -> fc8_fc8_0_split_1
I0318 23:21:50.581012 11980 net.cpp:150] Setting up fc8_fc8_0_split
I0318 23:21:50.581017 11980 net.cpp:157] Top shape: 50 1000 (50000)
I0318 23:21:50.581022 11980 net.cpp:157] Top shape: 50 1000 (50000)
I0318 23:21:50.581025 11980 net.cpp:165] Memory required for data: 58194200
I0318 23:21:50.581028 11980 layer_factory.hpp:76] Creating layer accuracy
I0318 23:21:50.581038 11980 net.cpp:106] Creating Layer accuracy
I0318 23:21:50.581043 11980 net.cpp:454] accuracy <- fc8_fc8_0_split_0
I0318 23:21:50.581046 11980 net.cpp:454] accuracy <- label_data_1_split_0
I0318 23:21:50.581053 11980 net.cpp:411] accuracy -> accuracy
…
