…
      mirror: false
      crop_size: 128
      mean_value: 104
      mean_value: 117
      mean_value: 123
      force_color: true
      resize_param {
        prob: 1
        resize_mode: FIT_SMALL_SIZE
        height: 144
        width: 144
        pad_mode: MIRRORED
        pad_value: 104
        pad_value: 117
        pad_value: 124
        interp_mode: CUBIC
        center_object: false
        max_angle: 0
      }
    }
    data_param {
      source: "/home/old-ufo/datasets/imagenet/ilsvrc12_val_lmdb"
      batch_size: 250
      backend: LMDB
    }
  }
  layer {
    name: "conv1"
    type: "Convolution"
    bottom: "data"
    top: "conv1"
    param {
      lr_mult: 1
      decay_mult: 1
    }
    param {
      lr_mult: 2
      decay_mult: 0
    }
    convolution_param {
      num_output: 96
      kernel_size: 11
      stride: 4
      weight_filler {
        type: "gaussian"
        std: 0.01
      }
      bias_filler {
        type: "constant"
      }
    }
  }
  layer {
    name: "relu1"
    type: "RReLU"
    bottom: "conv1"
    top: "conv1"
    rrelu_param {
      lb: 10
      ub: 30
    }
  }
  layer {
    name: "pool1"
    type: "Pooling"
    bottom: "conv1"
    top: "pool1"
    pooling_param {
      pool: MAX
      kernel_size: 3
      stride: 2
    }
  }
  layer {
    name: "conv2"
    type: "Convolution"
    bottom: "pool1"
    top: "conv2"
    param {
      lr_mult: 1
      decay_mult: 1
    }
    param {
      lr_mult: 2
      decay_mult: 0
    }
    convolution_param {
      num_output: 256
      pad: 2
      kernel_size: 5
      group: 2
      weight_filler {
        type: "gaussian"
        std: 0.01
      }
      bias_filler {
        type: "constant"
      }
    }
  }
  layer {
    name: "relu2"
    type: "RReLU"
    bottom: "conv2"
    top: "conv2"
    rrelu_param {
      lb: 10
      ub: 30
    }
  }
  layer {
    name: "pool2"
    type: "Pooling"
    bottom: "conv2"
    top: "pool2"
    pooling_param {
      pool: MAX
      kernel_size: 3
      stride: 2
    }
  }
  layer {
    name: "conv3"
    type: "Convolution"
    bottom: "pool2"
    top: "conv3"
    param {
      lr_mult: 1
      decay_mult: 1
    }
    param {
      lr_mult: 2
      decay_mult: 0
    }
    convolution_param {
      num_output: 384
      pad: 1
      kernel_size: 3
      weight_filler {
        type: "gaussian"
        std: 0.01
      }
      bias_filler {
        type: "constant"
      }
    }
  }
  layer {
    name: "relu3"
    type: "RReLU"
    bottom: "conv3"
    top: "conv3"
    rrelu_param {
      lb: 10
      ub: 30
    }
  }
  layer {
    name: "conv4"
    type: "Convolution"
    bottom: "conv3"
    top: "conv4"
    param {
      lr_mult: 1
      decay_mult: 1
    }
    param {
      lr_mult: 2
      decay_mult: 0
    }
    convolution_param {
      num_output: 384
      pad: 1
      kernel_size: 3
      group: 2
      weight_filler {
        type: "gaussian"
        std: 0.01
      }
      bias_filler {
        type: "constant"
      }
    }
  }
  layer {
    name: "relu4"
    type: "RReLU"
    bottom: "conv4"
    top: "conv4"
    rrelu_param {
      lb: 10
      ub: 30
    }
  }
  layer {
    name: "conv5"
    type: "Convolution"
    bottom: "conv4"
    top: "conv5"
    param {
      lr_mult: 1
      decay_mult: 1
    }
    param {
      lr_mult: 2
      decay_mult: 0
    }
    convolution_param {
      num_output: 256
      pad: 1
      kernel_size: 3
      group: 2
      weight_filler {
        type: "gaussian"
        std: 0.01
      }
      bias_filler {
        type: "constant"
      }
    }
  }
  layer {
    name: "relu5"
    type: "RReLU"
    bottom: "conv5"
    top: "conv5"
    rrelu_param {
      lb: 10
      ub: 30
    }
  }
  layer {
    name: "pool5"
    type: "Pooling"
    bottom: "conv5"
    top: "pool5"
    pooling_param {
      pool: MAX
      kernel_size: 3
      stride: 2
    }
  }
  layer {
    name: "fc6"
    type: "InnerProduct"
    bottom: "pool5"
    top: "fc6"
    param {
      lr_mult: 1
      decay_mult: 1
    }
    param {
      lr_mult: 2
      decay_mult: 0
    }
    inner_product_param {
      num_output: 2048
      weight_filler {
        type: "gaussian"
        std: 0.005
      }
      bias_filler {
        type: "constant"
      }
    }
  }
  layer {
    name: "relu6"
    type: "RReLU"
    bottom: "fc6"
    top: "fc6"
    rrelu_param {
      lb: 10
      ub: 30
    }
  }
  layer {
    name: "drop6"
    type: "Dropout"
    bottom: "fc6"
    top: "fc6"
    dropout_param {
      dropout_ratio: 0.5
    }
  }
  layer {
    name: "fc7"
    type: "InnerProduct"
    bottom: "fc6"
    top: "fc7"
    param {
      lr_mult: 1
      decay_mult: 1
    }
    param {
      lr_mult: 2
      decay_mult: 0
    }
    inner_product_param {
      num_output: 2048
      weight_filler {
        type: "gaussian"
        std: 0.005
      }
      bias_filler {
        type: "constant"
      }
    }
  }
  layer {
    name: "relu7"
    type: "RReLU"
    bottom: "fc7"
    top: "fc7"
    rrelu_param {
      lb: 10
      ub: 30
    }
  }
  layer {
    name: "drop7"
    type: "Dropout"
    bottom: "fc7"
    top: "fc7"
    dropout_param {
      dropout_ratio: 0.5
    }
  }
  layer {
    name: "fc8"
    type: "InnerProduct"
    bottom: "fc7"
    top: "fc8"
    param {
      lr_mult: 1
      decay_mult: 1
    }
    param {
      lr_mult: 2
      decay_mult: 0
    }
    inner_product_param {
      num_output: 1000
      weight_filler {
        type: "gaussian"
        std: 0.01
      }
      bias_filler {
        type: "constant"
      }
    }
  }
  layer {
    name: "accuracy"
    type: "Accuracy"
    bottom: "fc8"
    bottom: "label"
    top: "accuracy"
    include {
      phase: TEST
    }
  }
  layer {
    name: "loss"
    type: "SoftmaxWithLoss"
    bottom: "fc8"
    bottom: "label"
    top: "loss"
  }
}
iter_size: 1
type: "SGD"
I1209 23:48:20.912178 13688 solver.cpp:85] Creating training net specified in net_param.
I1209 23:48:20.912298 13688 net.cpp:322] The NetState phase (0) differed from the phase (1) specified by a rule in layer data
I1209 23:48:20.912328 13688 net.cpp:322] The NetState phase (0) differed from the phase (1) specified by a rule in layer accuracy
I1209 23:48:20.912555 13688 net.cpp:49] Initializing net from parameters: 
name: "CaffeNet"
state {
  phase: TRAIN
}
layer {
  name: "data"
  type: "Data"
  top: "data"
  top: "label"
  include {
    phase: TRAIN
  }
  transform_param {
    scale: 0.04
    mirror: true
    crop_size: 128
    mean_value: 104
    mean_value: 117
    mean_value: 124
    force_color: true
    resize_param {
      prob: 1
      resize_mode: FIT_SMALL_SIZE
      height: 144
      width: 144
      pad_mode: MIRRORED
      pad_value: 104
      pad_value: 117
      pad_value: 124
      interp_mode: CUBIC
      center_object: false
      max_angle: 0
    }
  }
  data_param {
    source: "/home/old-ufo/datasets/imagenet/ilsvrc12_train_shuffle_lmdb"
    batch_size: 256
    backend: LMDB
  }
}
layer {
  name: "conv1"
  type: "Convolution"
  bottom: "data"
  top: "conv1"
  param {
    lr_mult: 1
    decay_mult: 1
  }
  param {
    lr_mult: 2
    decay_mult: 0
  }
  convolution_param {
    num_output: 96
    kernel_size: 11
    stride: 4
    weight_filler {
      type: "gaussian"
      std: 0.01
    }
    bias_filler {
      type: "constant"
    }
  }
}
layer {
  name: "relu1"
  type: "RReLU"
  bottom: "conv1"
  top: "conv1"
  rrelu_param {
    lb: 10
    ub: 30
  }
}
layer {
  name: "pool1"
  type: "Pooling"
  bottom: "conv1"
  top: "pool1"
  pooling_param {
    pool: MAX
    kernel_size: 3
    stride: 2
  }
}
layer {
  name: "conv2"
  type: "Convolution"
  bottom: "pool1"
  top: "conv2"
  param {
    lr_mult: 1
    decay_mult: 1
  }
  param {
    lr_mult: 2
    decay_mult: 0
  }
  convolution_param {
    num_output: 256
    pad: 2
    kernel_size: 5
    group: 2
    weight_filler {
      type: "gaussian"
      std: 0.01
    }
    bias_filler {
      type: "constant"
    }
  }
}
layer {
  name: "relu2"
  type: "RReLU"
  bottom: "conv2"
  top: "conv2"
  rrelu_param {
    lb: 10
    ub: 30
  }
}
layer {
  name: "pool2"
  type: "Pooling"
  bottom: "conv2"
  top: "pool2"
  pooling_param {
    pool: MAX
    kernel_size: 3
    stride: 2
  }
}
layer {
  name: "conv3"
  type: "Convolution"
  bottom: "pool2"
  top: "conv3"
  param {
    lr_mult: 1
    decay_mult: 1
  }
  param {
    lr_mult: 2
    decay_mult: 0
  }
  convolution_param {
    num_output: 384
    pad: 1
    kernel_size: 3
    weight_filler {
      type: "gaussian"
      std: 0.01
    }
    bias_filler {
      type: "constant"
    }
  }
}
layer {
  name: "relu3"
  type: "RReLU"
  bottom: "conv3"
  top: "conv3"
  rrelu_param {
    lb: 10
    ub: 30
  }
}
layer {
  name: "conv4"
  type: "Convolution"
  bottom: "conv3"
  top: "conv4"
  param {
    lr_mult: 1
    decay_mult: 1
  }
  param {
    lr_mult: 2
    decay_mult: 0
  }
  convolution_param {
    num_output: 384
    pad: 1
    kernel_size: 3
    group: 2
    weight_filler {
      type: "gaussian"
      std: 0.01
    }
    bias_filler {
      type: "constant"
    }
  }
}
layer {
  name: "relu4"
  type: "RReLU"
  bottom: "conv4"
  top: "conv4"
  rrelu_param {
    lb: 10
    ub: 30
  }
}
layer {
  name: "conv5"
  type: "Convolution"
  bottom: "conv4"
  top: "conv5"
  param {
    lr_mult: 1
    decay_mult: 1
  }
  param {
    lr_mult: 2
    decay_mult: 0
  }
  convolution_param {
    num_output: 256
    pad: 1
    kernel_size: 3
    group: 2
    weight_filler {
      type: "gaussian"
      std: 0.01
    }
    bias_filler {
      type: "constant"
    }
  }
}
layer {
  name: "relu5"
  type: "RReLU"
  bottom: "conv5"
  top: "conv5"
  rrelu_param {
    lb: 10
    ub: 30
  }
}
layer {
  name: "pool5"
  type: "Pooling"
  bottom: "conv5"
  top: "pool5"
  pooling_param {
    pool: MAX
    kernel_size: 3
    stride: 2
  }
}
layer {
  name: "fc6"
  type: "InnerProduct"
  bottom: "pool5"
  top: "fc6"
  param {
    lr_mult: 1
    decay_mult: 1
  }
  param {
    lr_mult: 2
    decay_mult: 0
  }
  inner_product_param {
    num_output: 2048
    weight_filler {
      type: "gaussian"
      std: 0.005
    }
    bias_filler {
      type: "constant"
    }
  }
}
layer {
  name: "relu6"
  type: "RReLU"
  bottom: "fc6"
  top: "fc6"
  rrelu_param {
    lb: 10
    ub: 30
  }
}
layer {
  name: "drop6"
  type: "Dropout"
  bottom: "fc6"
  top: "fc6"
  dropout_param {
    dropout_ratio: 0.5
  }
}
layer {
  name: "fc7"
  type: "InnerProduct"
  bottom: "fc6"
  top: "fc7"
  param {
    lr_mult: 1
    decay_mult: 1
  }
  param {
    lr_mult: 2
    decay_mult: 0
  }
  inner_product_param {
    num_output: 2048
    weight_filler {
      type: "gaussian"
      std: 0.005
    }
    bias_filler {
      type: "constant"
    }
  }
}
layer {
  name: "relu7"
  type: "RReLU"
  bottom: "fc7"
  top: "fc7"
  rrelu_param {
    lb: 10
    ub: 30
  }
}
layer {
  name: "drop7"
  type: "Dropout"
  bottom: "fc7"
  top: "fc7"
  dropout_param {
    dropout_ratio: 0.5
  }
}
layer {
  name: "fc8"
  type: "InnerProduct"
  bottom: "fc7"
  top: "fc8"
  param {
    lr_mult: 1
    decay_mult: 1
  }
  param {
    lr_mult: 2
    decay_mult: 0
  }
  inner_product_param {
    num_output: 1000
    weight_filler {
      type: "gaussian"
      std: 0.01
    }
    bias_filler {
      type: "constant"
    }
  }
}
layer {
  name: "loss"
  type: "SoftmaxWithLoss"
  bottom: "fc8"
  bottom: "label"
  top: "loss"
}
I1209 23:48:20.912706 13688 layer_factory.hpp:76] Creating layer data
I1209 23:48:20.913480 13688 net.cpp:106] Creating Layer data
I1209 23:48:20.913496 13688 net.cpp:411] data -> data
I1209 23:48:20.913529 13688 net.cpp:411] data -> label
I1209 23:48:20.914314 13692 db_lmdb.cpp:38] Opened lmdb /home/old-ufo/datasets/imagenet/ilsvrc12_train_shuffle_lmdb
I1209 23:48:20.926362 13688 data_layer.cpp:41] output data size: 256,3,128,128
I1209 23:48:20.996933 13688 net.cpp:150] Setting up data
I1209 23:48:20.996973 13688 net.cpp:157] Top shape: 256 3 128 128 (12582912)
I1209 23:48:20.996981 13688 net.cpp:157] Top shape: 256 (256)
I1209 23:48:20.996986 13688 net.cpp:165] Memory required for data: 50332672
I1209 23:48:20.996997 13688 layer_factory.hpp:76] Creating layer conv1
I1209 23:48:20.997025 13688 net.cpp:106] Creating Layer conv1
I1209 23:48:20.997032 13688 net.cpp:454] conv1 <- data
I1209 23:48:20.997046 13688 net.cpp:411] conv1 -> conv1
I1209 23:48:21.177280 13688 cudnn_conv_layer.cpp:194] Reallocating workspace storage: 72408
I1209 23:48:21.177520 13688 net.cpp:150] Setting up conv1
I1209 23:48:21.177570 13688 net.cpp:157] Top shape: 256 96 30 30 (22118400)
I1209 23:48:21.177579 13688 net.cpp:165] Memory required for data: 138806272
I1209 23:48:21.177626 13688 layer_factory.hpp:76] Creating layer relu1
I1209 23:48:21.177640 13688 net.cpp:106] Creating Layer relu1
I1209 23:48:21.177646 13688 net.cpp:454] relu1 <- conv1
I1209 23:48:21.177654 13688 net.cpp:397] relu1 -> conv1 (in-place)
I1209 23:48:21.177713 13688 net.cpp:150] Setting up relu1
I1209 23:48:21.177722 13688 net.cpp:157] Top shape: 256 96 30 30 (22118400)
I1209 23:48:21.177726 13688 net.cpp:165] Memory required for data: 227279872
I1209 23:48:21.177731 13688 layer_factory.hpp:76] Creating layer pool1
I1209 23:48:21.177737 13688 net.cpp:106] Creating Layer pool1
I1209 23:48:21.177742 13688 net.cpp:454] pool1 <- conv1
I1209 23:48:21.177747 13688 net.cpp:411] pool1 -> pool1
I1209 23:48:21.178447 13688 net.cpp:150] Setting up pool1
I1209 23:48:21.178458 13688 net.cpp:157] Top shape: 256 96 15 15 (5529600)
I1209 23:48:21.178463 13688 net.cpp:165] Memory required for data: 249398272
I1209 23:48:21.178467 13688 layer_factory.hpp:76] Creating layer conv2
I1209 23:48:21.178479 13688 net.cpp:106] Creating Layer conv2
I1209 23:48:21.178483 13688 net.cpp:454] conv2 <- pool1
I1209 23:48:21.178490 13688 net.cpp:411] conv2 -> conv2
I1209 23:48:21.191429 13688 cudnn_conv_layer.cpp:194] Reallocating workspace storage: 27096
I1209 23:48:21.191463 13688 net.cpp:150] Setting up conv2
I1209 23:48:21.191547 13688 net.cpp:157] Top shape: 256 256 15 15 (14745600)
I1209 23:48:21.191553 13688 net.cpp:165] Memory required for data: 308380672
I1209 23:48:21.191591 13688 layer_factory.hpp:76] Creating layer relu2
I1209 23:48:21.191624 13688 net.cpp:106] Creating Layer relu2
I1209 23:48:21.191632 13688 net.cpp:454] relu2 <- conv2
I1209 23:48:21.191682 13688 net.cpp:397] relu2 -> conv2 (in-place)
I1209 23:48:21.191736 13688 net.cpp:150] Setting up relu2
I1209 23:48:21.191745 13688 net.cpp:157] Top shape: 256 256 15 15 (14745600)
I1209 23:48:21.191748 13688 net.cpp:165] Memory required for data: 367363072
I1209 23:48:21.191751 13688 layer_factory.hpp:76] Creating layer pool2
I1209 23:48:21.191795 13688 net.cpp:106] Creating Layer pool2
I1209 23:48:21.191812 13688 net.cpp:454] pool2 <- conv2
I1209 23:48:21.191845 13688 net.cpp:411] pool2 -> pool2
I1209 23:48:21.192528 13688 net.cpp:150] Setting up pool2
I1209 23:48:21.192592 13688 net.cpp:157] Top shape: 256 256 7 7 (3211264)
I1209 23:48:21.192615 13688 net.cpp:165] Memory required for data: 380208128
I1209 23:48:21.192632 13688 layer_factory.hpp:76] Creating layer conv3
I1209 23:48:21.192658 13688 net.cpp:106] Creating Layer conv3
I1209 23:48:21.192665 13688 net.cpp:454] conv3 <- pool2
I1209 23:48:21.192674 13688 net.cpp:411] conv3 -> conv3
I1209 23:48:21.220371 13688 cudnn_conv_layer.cpp:194] Reallocating workspace storage: 7788
I1209 23:48:21.220520 13688 net.cpp:150] Setting up conv3
I1209 23:48:21.220535 13688 net.cpp:157] Top shape: 256 384 7 7 (4816896)
I1209 23:48:21.220540 13688 net.cpp:165] Memory required for data: 399475712
I1209 23:48:21.220556 13688 layer_factory.hpp:76] Creating layer relu3
I1209 23:48:21.220569 13688 net.cpp:106] Creating Layer relu3
I1209 23:48:21.220576 13688 net.cpp:454] relu3 <- conv3
I1209 23:48:21.220582 13688 net.cpp:397] relu3 -> conv3 (in-place)
I1209 23:48:21.220618 13688 net.cpp:150] Setting up relu3
I1209 23:48:21.220625 13688 net.cpp:157] Top shape: 256 384 7 7 (4816896)
I1209 23:48:21.220629 13688 net.cpp:165] Memory required for data: 418743296
I1209 23:48:21.220633 13688 layer_factory.hpp:76] Creating layer conv4
I1209 23:48:21.220644 13688 net.cpp:106] Creating Layer conv4
I1209 23:48:21.220649 13688 net.cpp:454] conv4 <- conv3
I1209 23:48:21.220657 13688 net.cpp:411] conv4 -> conv4
I1209 23:48:21.243633 13688 cudnn_conv_layer.cpp:194] Reallocating workspace storage: 15576
I1209 23:48:21.243719 13688 net.cpp:150] Setting up conv4
I1209 23:48:21.243754 13688 net.cpp:157] Top shape: 256 384 7 7 (4816896)
I1209 23:48:21.243762 13688 net.cpp:165] Memory required for data: 438010880
I1209 23:48:21.243775 13688 layer_factory.hpp:76] Creating layer relu4
I1209 23:48:21.243788 13688 net.cpp:106] Creating Layer relu4
I1209 23:48:21.243793 13688 net.cpp:454] relu4 <- conv4
I1209 23:48:21.243800 13688 net.cpp:397] relu4 -> conv4 (in-place)
I1209 23:48:21.243863 13688 net.cpp:150] Setting up relu4
I1209 23:48:21.243872 13688 net.cpp:157] Top shape: 256 384 7 7 (4816896)
I1209 23:48:21.243903 13688 net.cpp:165] Memory required for data: 457278464
I1209 23:48:21.243911 13688 layer_factory.hpp:76] Creating layer conv5
I1209 23:48:21.243953 13688 net.cpp:106] Creating Layer conv5
I1209 23:48:21.243960 13688 net.cpp:454] conv5 <- conv4
I1209 23:48:21.243994 13688 net.cpp:411] conv5 -> conv5
I1209 23:48:21.259901 13688 cudnn_conv_layer.cpp:194] Reallocating workspace storage: 15576
I1209 23:48:21.260007 13688 net.cpp:150] Setting up conv5
I1209 23:48:21.260042 13688 net.cpp:157] Top shape: 256 256 7 7 (3211264)
I1209 23:48:21.260049 13688 net.cpp:165] Memory required for data: 470123520
I1209 23:48:21.260087 13688 layer_factory.hpp:76] Creating layer relu5
I1209 23:48:21.260120 13688 net.cpp:106] Creating Layer relu5
I1209 23:48:21.260128 13688 net.cpp:454] relu5 <- conv5
I1209 23:48:21.260160 13688 net.cpp:397] relu5 -> conv5 (in-place)
I1209 23:48:21.260216 13688 net.cpp:150] Setting up relu5
I1209 23:48:21.260224 13688 net.cpp:157] Top shape: 256 256 7 7 (3211264)
I1209 23:48:21.260253 13688 net.cpp:165] Memory required for data: 482968576
I1209 23:48:21.260259 13688 layer_factory.hpp:76] Creating layer pool5
I1209 23:48:21.260289 13688 net.cpp:106] Creating Layer pool5
I1209 23:48:21.260295 13688 net.cpp:454] pool5 <- conv5
I1209 23:48:21.260326 13688 net.cpp:411] pool5 -> pool5
I1209 23:48:21.260962 13688 net.cpp:150] Setting up pool5
I1209 23:48:21.260973 13688 net.cpp:157] Top shape: 256 256 3 3 (589824)
I1209 23:48:21.261008 13688 net.cpp:165] Memory required for data: 485327872
I1209 23:48:21.261015 13688 layer_factory.hpp:76] Creating layer fc6
I1209 23:48:21.261071 13688 net.cpp:106] Creating Layer fc6
I1209 23:48:21.261078 13688 net.cpp:454] fc6 <- pool5
I1209 23:48:21.261128 13688 net.cpp:411] fc6 -> fc6
I1209 23:48:21.437352 13688 net.cpp:150] Setting up fc6
I1209 23:48:21.437523 13688 net.cpp:157] Top shape: 256 2048 (524288)
I1209 23:48:21.437584 13688 net.cpp:165] Memory required for data: 487425024
I1209 23:48:21.437638 13688 layer_factory.hpp:76] Creating layer relu6
I1209 23:48:21.437692 13688 net.cpp:106] Creating Layer relu6
I1209 23:48:21.437741 13688 net.cpp:454] relu6 <- fc6
I1209 23:48:21.437783 13688 net.cpp:397] relu6 -> fc6 (in-place)
I1209 23:48:21.437861 13688 net.cpp:150] Setting up relu6
I1209 23:48:21.437904 13688 net.cpp:157] Top shape: 256 2048 (524288)
I1209 23:48:21.437938 13688 net.cpp:165] Memory required for data: 489522176
I1209 23:48:21.437973 13688 layer_factory.hpp:76] Creating layer drop6
I1209 23:48:21.438015 13688 net.cpp:106] Creating Layer drop6
I1209 23:48:21.438050 13688 net.cpp:454] drop6 <- fc6
I1209 23:48:21.438089 13688 net.cpp:397] drop6 -> fc6 (in-place)
I1209 23:48:21.438168 13688 net.cpp:150] Setting up drop6
I1209 23:48:21.438210 13688 net.cpp:157] Top shape: 256 2048 (524288)
I1209 23:48:21.438243 13688 net.cpp:165] Memory required for data: 491619328
I1209 23:48:21.438277 13688 layer_factory.hpp:76] Creating layer fc7
I1209 23:48:21.438318 13688 net.cpp:106] Creating Layer fc7
I1209 23:48:21.438352 13688 net.cpp:454] fc7 <- fc6
I1209 23:48:21.438390 13688 net.cpp:411] fc7 -> fc7
I1209 23:48:21.593366 13688 net.cpp:150] Setting up fc7
I1209 23:48:21.593502 13688 net.cpp:157] Top shape: 256 2048 (524288)
I1209 23:48:21.593544 13688 net.cpp:165] Memory required for data: 493716480
I1209 23:48:21.593586 13688 layer_factory.hpp:76] Creating layer relu7
I1209 23:48:21.593627 13688 net.cpp:106] Creating Layer relu7
I1209 23:48:21.593662 13688 net.cpp:454] relu7 <- fc7
I1209 23:48:21.593701 13688 net.cpp:397] relu7 -> fc7 (in-place)
I1209 23:48:21.593776 13688 net.cpp:150] Setting up relu7
I1209 23:48:21.593816 13688 net.cpp:157] Top shape: 256 2048 (524288)
I1209 23:48:21.593850 13688 net.cpp:165] Memory required for data: 495813632
I1209 23:48:21.593885 13688 layer_factory.hpp:76] Creating layer drop7
I1209 23:48:21.593925 13688 net.cpp:106] Creating Layer drop7
I1209 23:48:21.593961 13688 net.cpp:454] drop7 <- fc7
I1209 23:48:21.593998 13688 net.cpp:397] drop7 -> fc7 (in-place)
I1209 23:48:21.594069 13688 net.cpp:150] Setting up drop7
I1209 23:48:21.594115 13688 net.cpp:157] Top shape: 256 2048 (524288)
I1209 23:48:21.594149 13688 net.cpp:165] Memory required for data: 497910784
I1209 23:48:21.594183 13688 layer_factory.hpp:76] Creating layer fc8
I1209 23:48:21.594221 13688 net.cpp:106] Creating Layer fc8
I1209 23:48:21.594256 13688 net.cpp:454] fc8 <- fc7
I1209 23:48:21.594293 13688 net.cpp:411] fc8 -> fc8
I1209 23:48:21.672231 13688 net.cpp:150] Setting up fc8
I1209 23:48:21.672341 13688 net.cpp:157] Top shape: 256 1000 (256000)
I1209 23:48:21.672387 13688 net.cpp:165] Memory required for data: 498934784
I1209 23:48:21.672436 13688 layer_factory.hpp:76] Creating layer loss
I1209 23:48:21.672479 13688 net.cpp:106] Creating Layer loss
I1209 23:48:21.672514 13688 net.cpp:454] loss <- fc8
I1209 23:48:21.672549 13688 net.cpp:454] loss <- label
I1209 23:48:21.672590 13688 net.cpp:411] loss -> loss
I1209 23:48:21.672633 13688 layer_factory.hpp:76] Creating layer loss
…
    phase: TEST
  }
  transform_param {
    scale: 0.04
    mirror: false
    crop_size: 128
    mean_value: 104
    mean_value: 117
    mean_value: 123
    force_color: true
    resize_param {
      prob: 1
      resize_mode: FIT_SMALL_SIZE
      height: 144
      width: 144
      pad_mode: MIRRORED
      pad_value: 104
      pad_value: 117
      pad_value: 124
      interp_mode: CUBIC
      center_object: false
      max_angle: 0
    }
  }
  data_param {
    source: "/home/old-ufo/datasets/imagenet/ilsvrc12_val_lmdb"
    batch_size: 250
    backend: LMDB
  }
}
layer {
  name: "conv1"
  type: "Convolution"
  bottom: "data"
  top: "conv1"
  param {
    lr_mult: 1
    decay_mult: 1
  }
  param {
    lr_mult: 2
    decay_mult: 0
  }
  convolution_param {
    num_output: 96
    kernel_size: 11
    stride: 4
    weight_filler {
      type: "gaussian"
      std: 0.01
    }
    bias_filler {
      type: "constant"
    }
  }
}
layer {
  name: "relu1"
  type: "RReLU"
  bottom: "conv1"
  top: "conv1"
  rrelu_param {
    lb: 10
    ub: 30
  }
}
layer {
  name: "pool1"
  type: "Pooling"
  bottom: "conv1"
  top: "pool1"
  pooling_param {
    pool: MAX
    kernel_size: 3
    stride: 2
  }
}
layer {
  name: "conv2"
  type: "Convolution"
  bottom: "pool1"
  top: "conv2"
  param {
    lr_mult: 1
    decay_mult: 1
  }
  param {
    lr_mult: 2
    decay_mult: 0
  }
  convolution_param {
    num_output: 256
    pad: 2
    kernel_size: 5
    group: 2
    weight_filler {
      type: "gaussian"
      std: 0.01
    }
    bias_filler {
      type: "constant"
    }
  }
}
layer {
  name: "relu2"
  type: "RReLU"
  bottom: "conv2"
  top: "conv2"
  rrelu_param {
    lb: 10
    ub: 30
  }
}
layer {
  name: "pool2"
  type: "Pooling"
  bottom: "conv2"
  top: "pool2"
  pooling_param {
    pool: MAX
    kernel_size: 3
    stride: 2
  }
}
layer {
  name: "conv3"
  type: "Convolution"
  bottom: "pool2"
  top: "conv3"
  param {
    lr_mult: 1
    decay_mult: 1
  }
  param {
    lr_mult: 2
    decay_mult: 0
  }
  convolution_param {
    num_output: 384
    pad: 1
    kernel_size: 3
    weight_filler {
      type: "gaussian"
      std: 0.01
    }
    bias_filler {
      type: "constant"
    }
  }
}
layer {
  name: "relu3"
  type: "RReLU"
  bottom: "conv3"
  top: "conv3"
  rrelu_param {
    lb: 10
    ub: 30
  }
}
layer {
  name: "conv4"
  type: "Convolution"
  bottom: "conv3"
  top: "conv4"
  param {
    lr_mult: 1
    decay_mult: 1
  }
  param {
    lr_mult: 2
    decay_mult: 0
  }
  convolution_param {
    num_output: 384
    pad: 1
    kernel_size: 3
    group: 2
    weight_filler {
      type: "gaussian"
      std: 0.01
    }
    bias_filler {
      type: "constant"
    }
  }
}
layer {
  name: "relu4"
  type: "RReLU"
  bottom: "conv4"
  top: "conv4"
  rrelu_param {
    lb: 10
    ub: 30
  }
}
layer {
  name: "conv5"
  type: "Convolution"
  bottom: "conv4"
  top: "conv5"
  param {
    lr_mult: 1
    decay_mult: 1
  }
  param {
    lr_mult: 2
    decay_mult: 0
  }
  convolution_param {
    num_output: 256
    pad: 1
    kernel_size: 3
    group: 2
    weight_filler {
      type: "gaussian"
      std: 0.01
    }
    bias_filler {
      type: "constant"
    }
  }
}
layer {
  name: "relu5"
  type: "RReLU"
  bottom: "conv5"
  top: "conv5"
  rrelu_param {
    lb: 10
    ub: 30
  }
}
layer {
  name: "pool5"
  type: "Pooling"
  bottom: "conv5"
  top: "pool5"
  pooling_param {
    pool: MAX
    kernel_size: 3
    stride: 2
  }
}
layer {
  name: "fc6"
  type: "InnerProduct"
  bottom: "pool5"
  top: "fc6"
  param {
    lr_mult: 1
    decay_mult: 1
  }
  param {
    lr_mult: 2
    decay_mult: 0
  }
  inner_product_param {
    num_output: 2048
    weight_filler {
      type: "gaussian"
      std: 0.005
    }
    bias_filler {
      type: "constant"
    }
  }
}
layer {
  name: "relu6"
  type: "RReLU"
  bottom: "fc6"
  top: "fc6"
  rrelu_param {
    lb: 10
    ub: 30
  }
}
layer {
  name: "drop6"
  type: "Dropout"
  bottom: "fc6"
  top: "fc6"
  dropout_param {
    dropout_ratio: 0.5
  }
}
layer {
  name: "fc7"
  type: "InnerProduct"
  bottom: "fc6"
  top: "fc7"
  param {
    lr_mult: 1
    decay_mult: 1
  }
  param {
    lr_mult: 2
    decay_mult: 0
  }
  inner_product_param {
    num_output: 2048
    weight_filler {
      type: "gaussian"
      std: 0.005
    }
    bias_filler {
      type: "constant"
    }
  }
}
layer {
  name: "relu7"
  type: "RReLU"
  bottom: "fc7"
  top: "fc7"
  rrelu_param {
    lb: 10
    ub: 30
  }
}
layer {
  name: "drop7"
  type: "Dropout"
  bottom: "fc7"
  top: "fc7"
  dropout_param {
    dropout_ratio: 0.5
  }
}
layer {
  name: "fc8"
  type: "InnerProduct"
  bottom: "fc7"
  top: "fc8"
  param {
    lr_mult: 1
    decay_mult: 1
  }
  param {
    lr_mult: 2
    decay_mult: 0
  }
  inner_product_param {
    num_output: 1000
    weight_filler {
      type: "gaussian"
      std: 0.01
    }
    bias_filler {
      type: "constant"
    }
  }
}
layer {
  name: "accuracy"
  type: "Accuracy"
  bottom: "fc8"
  bottom: "label"
  top: "accuracy"
  include {
    phase: TEST
  }
}
layer {
  name: "loss"
  type: "SoftmaxWithLoss"
  bottom: "fc8"
  bottom: "label"
  top: "loss"
}
I1209 23:48:21.679925 13688 layer_factory.hpp:76] Creating layer data
I1209 23:48:21.680192 13688 net.cpp:106] Creating Layer data
I1209 23:48:21.680238 13688 net.cpp:411] data -> data
I1209 23:48:21.680284 13688 net.cpp:411] data -> label
I1209 23:48:21.681354 13701 db_lmdb.cpp:38] Opened lmdb /home/old-ufo/datasets/imagenet/ilsvrc12_val_lmdb
I1209 23:48:21.684105 13688 data_layer.cpp:41] output data size: 250,3,128,128
I1209 23:48:21.763339 13688 net.cpp:150] Setting up data
I1209 23:48:21.763422 13688 net.cpp:157] Top shape: 250 3 128 128 (12288000)
I1209 23:48:21.763449 13688 net.cpp:157] Top shape: 250 (250)
I1209 23:48:21.763469 13688 net.cpp:165] Memory required for data: 49153000
I1209 23:48:21.763489 13688 layer_factory.hpp:76] Creating layer label_data_1_split
I1209 23:48:21.763512 13688 net.cpp:106] Creating Layer label_data_1_split
I1209 23:48:21.763533 13688 net.cpp:454] label_data_1_split <- label
I1209 23:48:21.763555 13688 net.cpp:411] label_data_1_split -> label_data_1_split_0
I1209 23:48:21.763581 13688 net.cpp:411] label_data_1_split -> label_data_1_split_1
I1209 23:48:21.763844 13688 net.cpp:150] Setting up label_data_1_split
I1209 23:48:21.763876 13688 net.cpp:157] Top shape: 250 (250)
I1209 23:48:21.763895 13688 net.cpp:157] Top shape: 250 (250)
I1209 23:48:21.763911 13688 net.cpp:165] Memory required for data: 49155000
I1209 23:48:21.763936 13688 layer_factory.hpp:76] Creating layer conv1
I1209 23:48:21.763972 13688 net.cpp:106] Creating Layer conv1
I1209 23:48:21.764003 13688 net.cpp:454] conv1 <- data
I1209 23:48:21.764025 13688 net.cpp:411] conv1 -> conv1
I1209 23:48:21.768376 13688 cudnn_conv_layer.cpp:194] Reallocating workspace storage: 72408
I1209 23:48:21.768470 13688 net.cpp:150] Setting up conv1
I1209 23:48:21.768503 13688 net.cpp:157] Top shape: 250 96 30 30 (21600000)
I1209 23:48:21.768523 13688 net.cpp:165] Memory required for data: 135555000
I1209 23:48:21.768555 13688 layer_factory.hpp:76] Creating layer relu1
I1209 23:48:21.768582 13688 net.cpp:106] Creating Layer relu1
I1209 23:48:21.768600 13688 net.cpp:454] relu1 <- conv1
I1209 23:48:21.768622 13688 net.cpp:397] relu1 -> conv1 (in-place)
I1209 23:48:21.768682 13688 net.cpp:150] Setting up relu1
I1209 23:48:21.768705 13688 net.cpp:157] Top shape: 250 96 30 30 (21600000)
I1209 23:48:21.768720 13688 net.cpp:165] Memory required for data: 221955000
I1209 23:48:21.768736 13688 layer_factory.hpp:76] Creating layer pool1
I1209 23:48:21.768762 13688 net.cpp:106] Creating Layer pool1
I1209 23:48:21.768780 13688 net.cpp:454] pool1 <- conv1
I1209 23:48:21.768800 13688 net.cpp:411] pool1 -> pool1
I1209 23:48:21.769721 13688 net.cpp:150] Setting up pool1
I1209 23:48:21.769758 13688 net.cpp:157] Top shape: 250 96 15 15 (5400000)
I1209 23:48:21.769778 13688 net.cpp:165] Memory required for data: 243555000
I1209 23:48:21.769794 13688 layer_factory.hpp:76] Creating layer conv2
I1209 23:48:21.769820 13688 net.cpp:106] Creating Layer conv2
I1209 23:48:21.769840 13688 net.cpp:454] conv2 <- pool1
I1209 23:48:21.769865 13688 net.cpp:411] conv2 -> conv2
I1209 23:48:21.786054 13688 cudnn_conv_layer.cpp:194] Reallocating workspace storage: 27096
I1209 23:48:21.786144 13688 net.cpp:150] Setting up conv2
I1209 23:48:21.786170 13688 net.cpp:157] Top shape: 250 256 15 15 (14400000)
I1209 23:48:21.786186 13688 net.cpp:165] Memory required for data: 301155000
I1209 23:48:21.786213 13688 layer_factory.hpp:76] Creating layer relu2
I1209 23:48:21.786242 13688 net.cpp:106] Creating Layer relu2
I1209 23:48:21.786258 13688 net.cpp:454] relu2 <- conv2
I1209 23:48:21.786278 13688 net.cpp:397] relu2 -> conv2 (in-place)
I1209 23:48:21.786342 13688 net.cpp:150] Setting up relu2
I1209 23:48:21.786370 13688 net.cpp:157] Top shape: 250 256 15 15 (14400000)
I1209 23:48:21.786387 13688 net.cpp:165] Memory required for data: 358755000
I1209 23:48:21.786406 13688 layer_factory.hpp:76] Creating layer pool2
I1209 23:48:21.786427 13688 net.cpp:106] Creating Layer pool2
I1209 23:48:21.786442 13688 net.cpp:454] pool2 <- conv2
I1209 23:48:21.786463 13688 net.cpp:411] pool2 -> pool2
I1209 23:48:21.787364 13688 net.cpp:150] Setting up pool2
I1209 23:48:21.787397 13688 net.cpp:157] Top shape: 250 256 7 7 (3136000)
I1209 23:48:21.787415 13688 net.cpp:165] Memory required for data: 371299000
I1209 23:48:21.787431 13688 layer_factory.hpp:76] Creating layer conv3
I1209 23:48:21.787458 13688 net.cpp:106] Creating Layer conv3
I1209 23:48:21.787479 13688 net.cpp:454] conv3 <- pool2
I1209 23:48:21.787502 13688 net.cpp:411] conv3 -> conv3
I1209 23:48:21.821806 13688 cudnn_conv_layer.cpp:194] Reallocating workspace storage: 7788
I1209 23:48:21.821916 13688 net.cpp:150] Setting up conv3
I1209 23:48:21.821946 13688 net.cpp:157] Top shape: 250 384 7 7 (4704000)
I1209 23:48:21.821964 13688 net.cpp:165] Memory required for data: 390115000
I1209 23:48:21.821993 13688 layer_factory.hpp:76] Creating layer relu3
I1209 23:48:21.822019 13688 net.cpp:106] Creating Layer relu3
I1209 23:48:21.822037 13688 net.cpp:454] relu3 <- conv3
I1209 23:48:21.822062 13688 net.cpp:397] relu3 -> conv3 (in-place)
I1209 23:48:21.822123 13688 net.cpp:150] Setting up relu3
I1209 23:48:21.822149 13688 net.cpp:157] Top shape: 250 384 7 7 (4704000)
I1209 23:48:21.822165 13688 net.cpp:165] Memory required for data: 408931000
I1209 23:48:21.822183 13688 layer_factory.hpp:76] Creating layer conv4
I1209 23:48:21.822211 13688 net.cpp:106] Creating Layer conv4
I1209 23:48:21.822244 13688 net.cpp:454] conv4 <- conv3
I1209 23:48:21.822265 13688 net.cpp:411] conv4 -> conv4
I1209 23:48:21.851389 13688 cudnn_conv_layer.cpp:194] Reallocating workspace storage: 15576
I1209 23:48:21.851502 13688 net.cpp:150] Setting up conv4
I1209 23:48:21.851528 13688 net.cpp:157] Top shape: 250 384 7 7 (4704000)
I1209 23:48:21.851546 13688 net.cpp:165] Memory required for data: 427747000
I1209 23:48:21.851570 13688 layer_factory.hpp:76] Creating layer relu4
I1209 23:48:21.851596 13688 net.cpp:106] Creating Layer relu4
I1209 23:48:21.851613 13688 net.cpp:454] relu4 <- conv4
I1209 23:48:21.851632 13688 net.cpp:397] relu4 -> conv4 (in-place)
I1209 23:48:21.851691 13688 net.cpp:150] Setting up relu4
I1209 23:48:21.851716 13688 net.cpp:157] Top shape: 250 384 7 7 (4704000)
I1209 23:48:21.851732 13688 net.cpp:165] Memory required for data: 446563000
I1209 23:48:21.851748 13688 layer_factory.hpp:76] Creating layer conv5
I1209 23:48:21.851773 13688 net.cpp:106] Creating Layer conv5
I1209 23:48:21.851790 13688 net.cpp:454] conv5 <- conv4
I1209 23:48:21.851814 13688 net.cpp:411] conv5 -> conv5
I1209 23:48:21.872900 13688 cudnn_conv_layer.cpp:194] Reallocating workspace storage: 15576
I1209 23:48:21.872997 13688 net.cpp:150] Setting up conv5
I1209 23:48:21.873041 13688 net.cpp:157] Top shape: 250 256 7 7 (3136000)
I1209 23:48:21.873064 13688 net.cpp:165] Memory required for data: 459107000
I1209 23:48:21.873095 13688 layer_factory.hpp:76] Creating layer relu5
I1209 23:48:21.873123 13688 net.cpp:106] Creating Layer relu5
I1209 23:48:21.873145 13688 net.cpp:454] relu5 <- conv5
I1209 23:48:21.873167 13688 net.cpp:397] relu5 -> conv5 (in-place)
I1209 23:48:21.873229 13688 net.cpp:150] Setting up relu5
I1209 23:48:21.873258 13688 net.cpp:157] Top shape: 250 256 7 7 (3136000)
I1209 23:48:21.873275 13688 net.cpp:165] Memory required for data: 471651000
I1209 23:48:21.873292 13688 layer_factory.hpp:76] Creating layer pool5
I1209 23:48:21.873316 13688 net.cpp:106] Creating Layer pool5
I1209 23:48:21.873334 13688 net.cpp:454] pool5 <- conv5
I1209 23:48:21.873355 13688 net.cpp:411] pool5 -> pool5
I1209 23:48:21.874368 13688 net.cpp:150] Setting up pool5
I1209 23:48:21.874415 13688 net.cpp:157] Top shape: 250 256 3 3 (576000)
I1209 23:48:21.874436 13688 net.cpp:165] Memory required for data: 473955000
I1209 23:48:21.874454 13688 layer_factory.hpp:76] Creating layer fc6
I1209 23:48:21.874478 13688 net.cpp:106] Creating Layer fc6
I1209 23:48:21.874495 13688 net.cpp:454] fc6 <- pool5
I1209 23:48:21.874514 13688 net.cpp:411] fc6 -> fc6
I1209 23:48:22.041658 13688 net.cpp:150] Setting up fc6
I1209 23:48:22.041744 13688 net.cpp:157] Top shape: 250 2048 (512000)
I1209 23:48:22.041771 13688 net.cpp:165] Memory required for data: 476003000
I1209 23:48:22.041805 13688 layer_factory.hpp:76] Creating layer relu6
I1209 23:48:22.041837 13688 net.cpp:106] Creating Layer relu6
I1209 23:48:22.041859 13688 net.cpp:454] relu6 <- fc6
I1209 23:48:22.041882 13688 net.cpp:397] relu6 -> fc6 (in-place)
I1209 23:48:22.041968 13688 net.cpp:150] Setting up relu6
I1209 23:48:22.041996 13688 net.cpp:157] Top shape: 250 2048 (512000)
I1209 23:48:22.042014 13688 net.cpp:165] Memory required for data: 478051000
I1209 23:48:22.042034 13688 layer_factory.hpp:76] Creating layer drop6
I1209 23:48:22.042055 13688 net.cpp:106] Creating Layer drop6
I1209 23:48:22.042074 13688 net.cpp:454] drop6 <- fc6
I1209 23:48:22.042098 13688 net.cpp:397] drop6 -> fc6 (in-place)
I1209 23:48:22.042165 13688 net.cpp:150] Setting up drop6
I1209 23:48:22.042191 13688 net.cpp:157] Top shape: 250 2048 (512000)
I1209 23:48:22.042208 13688 net.cpp:165] Memory required for data: 480099000
I1209 23:48:22.042224 13688 layer_factory.hpp:76] Creating layer fc7
I1209 23:48:22.042246 13688 net.cpp:106] Creating Layer fc7
I1209 23:48:22.042264 13688 net.cpp:454] fc7 <- fc6
I1209 23:48:22.042289 13688 net.cpp:411] fc7 -> fc7
I1209 23:48:22.191376 13688 net.cpp:150] Setting up fc7
I1209 23:48:22.191458 13688 net.cpp:157] Top shape: 250 2048 (512000)
I1209 23:48:22.191495 13688 net.cpp:165] Memory required for data: 482147000
I1209 23:48:22.191526 13688 layer_factory.hpp:76] Creating layer relu7
I1209 23:48:22.191552 13688 net.cpp:106] Creating Layer relu7
I1209 23:48:22.191587 13688 net.cpp:454] relu7 <- fc7
I1209 23:48:22.191614 13688 net.cpp:397] relu7 -> fc7 (in-place)
I1209 23:48:22.191689 13688 net.cpp:150] Setting up relu7
I1209 23:48:22.191716 13688 net.cpp:157] Top shape: 250 2048 (512000)
I1209 23:48:22.191733 13688 net.cpp:165] Memory required for data: 484195000
I1209 23:48:22.191751 13688 layer_factory.hpp:76] Creating layer drop7
I1209 23:48:22.191772 13688 net.cpp:106] Creating Layer drop7
I1209 23:48:22.191790 13688 net.cpp:454] drop7 <- fc7
I1209 23:48:22.191810 13688 net.cpp:397] drop7 -> fc7 (in-place)
I1209 23:48:22.191874 13688 net.cpp:150] Setting up drop7
I1209 23:48:22.191900 13688 net.cpp:157] Top shape: 250 2048 (512000)
I1209 23:48:22.191915 13688 net.cpp:165] Memory required for data: 486243000
I1209 23:48:22.191931 13688 layer_factory.hpp:76] Creating layer fc8
I1209 23:48:22.191959 13688 net.cpp:106] Creating Layer fc8
I1209 23:48:22.191979 13688 net.cpp:454] fc8 <- fc7
I1209 23:48:22.192005 13688 net.cpp:411] fc8 -> fc8
I1209 23:48:22.265252 13688 net.cpp:150] Setting up fc8
I1209 23:48:22.265334 13688 net.cpp:157] Top shape: 250 1000 (250000)
I1209 23:48:22.265364 13688 net.cpp:165] Memory required for data: 487243000
I1209 23:48:22.265396 13688 layer_factory.hpp:76] Creating layer fc8_fc8_0_split
I1209 23:48:22.265426 13688 net.cpp:106] Creating Layer fc8_fc8_0_split
I1209 23:48:22.265449 13688 net.cpp:454] fc8_fc8_0_split <- fc8
I1209 23:48:22.265471 13688 net.cpp:411] fc8_fc8_0_split -> fc8_fc8_0_split_0
I1209 23:48:22.265496 13688 net.cpp:411] fc8_fc8_0_split -> fc8_fc8_0_split_1
I1209 23:48:22.265631 13688 net.cpp:150] Setting up fc8_fc8_0_split
I1209 23:48:22.265661 13688 net.cpp:157] Top shape: 250 1000 (250000)
I1209 23:48:22.265679 13688 net.cpp:157] Top shape: 250 1000 (250000)
I1209 23:48:22.265693 13688 net.cpp:165] Memory required for data: 489243000
I1209 23:48:22.265710 13688 layer_factory.hpp:76] Creating layer accuracy
I1209 23:48:22.265736 13688 net.cpp:106] Creating Layer accuracy
I1209 23:48:22.265754 13688 net.cpp:454] accuracy <- fc8_fc8_0_split_0
I1209 23:48:22.265774 13688 net.cpp:454] accuracy <- label_data_1_split_0
I1209 23:48:22.265795 13688 net.cpp:411] accuracy -> accuracy
…
