…
      mirror: false
      crop_size: 128
      mean_value: 104
      mean_value: 117
      mean_value: 123
      force_color: true
      resize_param {
        prob: 1
        resize_mode: FIT_SMALL_SIZE
        height: 144
        width: 144
        pad_mode: MIRRORED
        pad_value: 104
        pad_value: 117
        pad_value: 124
        interp_mode: CUBIC
        center_object: false
        max_angle: 0
      }
    }
    data_param {
      source: "/home/old-ufo/datasets/imagenet/ilsvrc12_val_lmdb"
      batch_size: 250
      backend: LMDB
    }
  }
  layer {
    name: "conv1_a"
    type: "Convolution"
    bottom: "data"
    top: "conv1_a"
    param {
      lr_mult: 1
      decay_mult: 1
    }
    param {
      lr_mult: 2
      decay_mult: 0
    }
    convolution_param {
      num_output: 68
      kernel_size: 11
      stride: 4
      weight_filler {
        type: "gaussian"
        std: 0.01
      }
      bias_filler {
        type: "constant"
      }
    }
  }
  layer {
    name: "conv1_b"
    type: "Convolution"
    bottom: "data"
    top: "conv1_b"
    param {
      lr_mult: 1
      decay_mult: 1
    }
    param {
      lr_mult: 2
      decay_mult: 0
    }
    convolution_param {
      num_output: 68
      kernel_size: 11
      stride: 4
      weight_filler {
        type: "gaussian"
        std: 0.01
      }
      bias_filler {
        type: "constant"
      }
    }
  }
  layer {
    name: "maxout1"
    type: "Eltwise"
    bottom: "conv1_a"
    bottom: "conv1_b"
    top: "conv1"
    eltwise_param {
      operation: MAX
    }
  }
  layer {
    name: "pool1"
    type: "Pooling"
    bottom: "conv1"
    top: "pool1"
    pooling_param {
      pool: MAX
      kernel_size: 3
      stride: 2
    }
  }
  layer {
    name: "conv2_a"
    type: "Convolution"
    bottom: "pool1"
    top: "conv2_a"
    param {
      lr_mult: 1
      decay_mult: 1
    }
    param {
      lr_mult: 2
      decay_mult: 0
    }
    convolution_param {
      num_output: 182
      pad: 2
      kernel_size: 5
      group: 2
      weight_filler {
        type: "gaussian"
        std: 0.01
      }
      bias_filler {
        type: "constant"
      }
    }
  }
  layer {
    name: "conv2_b"
    type: "Convolution"
    bottom: "pool1"
    top: "conv2_b"
    param {
      lr_mult: 1
      decay_mult: 1
    }
    param {
      lr_mult: 2
      decay_mult: 0
    }
    convolution_param {
      num_output: 182
      pad: 2
      kernel_size: 5
      group: 2
      weight_filler {
        type: "gaussian"
        std: 0.01
      }
      bias_filler {
        type: "constant"
      }
    }
  }
  layer {
    name: "maxout2"
    type: "Eltwise"
    bottom: "conv2_a"
    bottom: "conv2_b"
    top: "conv2"
    eltwise_param {
      operation: MAX
    }
  }
  layer {
    name: "pool2"
    type: "Pooling"
    bottom: "conv2"
    top: "pool2"
    pooling_param {
      pool: MAX
      kernel_size: 3
      stride: 2
    }
  }
  layer {
    name: "conv3_a"
    type: "Convolution"
    bottom: "pool2"
    top: "conv3_a"
    param {
      lr_mult: 1
      decay_mult: 1
    }
    param {
      lr_mult: 2
      decay_mult: 0
    }
    convolution_param {
      num_output: 272
      pad: 1
      kernel_size: 3
      weight_filler {
        type: "gaussian"
        std: 0.01
      }
      bias_filler {
        type: "constant"
      }
    }
  }
  layer {
    name: "conv3_b"
    type: "Convolution"
    bottom: "pool2"
    top: "conv3_b"
    param {
      lr_mult: 1
      decay_mult: 1
    }
    param {
      lr_mult: 2
      decay_mult: 0
    }
    convolution_param {
      num_output: 272
      pad: 1
      kernel_size: 3
      weight_filler {
        type: "gaussian"
        std: 0.01
      }
      bias_filler {
        type: "constant"
      }
    }
  }
  layer {
    name: "maxout3"
    type: "Eltwise"
    bottom: "conv3_a"
    bottom: "conv3_b"
    top: "conv3"
    eltwise_param {
      operation: MAX
    }
  }
  layer {
    name: "conv4_a"
    type: "Convolution"
    bottom: "conv3"
    top: "conv4_a"
    param {
      lr_mult: 1
      decay_mult: 1
    }
    param {
      lr_mult: 2
      decay_mult: 0
    }
    convolution_param {
      num_output: 272
      pad: 1
      kernel_size: 3
      group: 2
      weight_filler {
        type: "gaussian"
        std: 0.01
      }
      bias_filler {
        type: "constant"
      }
    }
  }
  layer {
    name: "conv4_b"
    type: "Convolution"
    bottom: "conv3"
    top: "conv4_b"
    param {
      lr_mult: 1
      decay_mult: 1
    }
    param {
      lr_mult: 2
      decay_mult: 0
    }
    convolution_param {
      num_output: 272
      pad: 1
      kernel_size: 3
      group: 2
      weight_filler {
        type: "gaussian"
        std: 0.01
      }
      bias_filler {
        type: "constant"
      }
    }
  }
  layer {
    name: "maxout4"
    type: "Eltwise"
    bottom: "conv4_a"
    bottom: "conv4_b"
    top: "conv4"
    eltwise_param {
      operation: MAX
    }
  }
  layer {
    name: "conv5_a"
    type: "Convolution"
    bottom: "conv4"
    top: "conv5_a"
    param {
      lr_mult: 1
      decay_mult: 1
    }
    param {
      lr_mult: 2
      decay_mult: 0
    }
    convolution_param {
      num_output: 172
      pad: 1
      kernel_size: 3
      group: 2
      weight_filler {
        type: "gaussian"
        std: 0.01
      }
      bias_filler {
        type: "constant"
      }
    }
  }
  layer {
    name: "conv5_b"
    type: "Convolution"
    bottom: "conv4"
    top: "conv5_b"
    param {
      lr_mult: 1
      decay_mult: 1
    }
    param {
      lr_mult: 2
      decay_mult: 0
    }
    convolution_param {
      num_output: 172
      pad: 1
      kernel_size: 3
      group: 2
      weight_filler {
        type: "gaussian"
        std: 0.01
      }
      bias_filler {
        type: "constant"
      }
    }
  }
  layer {
    name: "maxout5"
    type: "Eltwise"
    bottom: "conv5_a"
    bottom: "conv5_b"
    top: "conv5"
    eltwise_param {
      operation: MAX
    }
  }
  layer {
    name: "pool5"
    type: "Pooling"
    bottom: "conv5"
    top: "pool5"
    pooling_param {
      pool: MAX
      kernel_size: 3
      stride: 2
    }
  }
  layer {
    name: "fc6_a"
    type: "InnerProduct"
    bottom: "pool5"
    top: "fc6_a"
    param {
      lr_mult: 1
      decay_mult: 1
    }
    param {
      lr_mult: 2
      decay_mult: 0
    }
    inner_product_param {
      num_output: 1448
      weight_filler {
        type: "gaussian"
        std: 0.005
      }
      bias_filler {
        type: "constant"
      }
    }
  }
  layer {
    name: "fc6_b"
    type: "InnerProduct"
    bottom: "pool5"
    top: "fc6_b"
    param {
      lr_mult: 1
      decay_mult: 1
    }
    param {
      lr_mult: 2
      decay_mult: 0
    }
    inner_product_param {
      num_output: 1448
      weight_filler {
        type: "gaussian"
        std: 0.005
      }
      bias_filler {
        type: "constant"
      }
    }
  }
  layer {
    name: "fc6"
    type: "Eltwise"
    bottom: "fc6_a"
    bottom: "fc6_b"
    top: "fc6"
    eltwise_param {
      operation: MAX
    }
  }
  layer {
    name: "drop6"
    type: "Dropout"
    bottom: "fc6"
    top: "drop6"
    dropout_param {
      dropout_ratio: 0.5
    }
  }
  layer {
    name: "fc7_a"
    type: "InnerProduct"
    bottom: "drop6"
    top: "fc7_a"
    param {
      lr_mult: 1
      decay_mult: 1
    }
    param {
      lr_mult: 2
      decay_mult: 0
    }
    inner_product_param {
      num_output: 1448
      weight_filler {
        type: "gaussian"
        std: 0.005
      }
      bias_filler {
        type: "constant"
      }
    }
  }
  layer {
    name: "fc7_b"
    type: "InnerProduct"
    bottom: "drop6"
    top: "fc7_b"
    param {
      lr_mult: 1
      decay_mult: 1
    }
    param {
      lr_mult: 2
      decay_mult: 0
    }
    inner_product_param {
      num_output: 1448
      weight_filler {
        type: "gaussian"
        std: 0.005
      }
      bias_filler {
        type: "constant"
      }
    }
  }
  layer {
    name: "fc7"
    type: "Eltwise"
    bottom: "fc7_a"
    bottom: "fc7_b"
    top: "fc7"
    eltwise_param {
      operation: MAX
    }
  }
  layer {
    name: "drop7"
    type: "Dropout"
    bottom: "fc7"
    top: "drop7"
    dropout_param {
      dropout_ratio: 0.5
    }
  }
  layer {
    name: "fc8"
    type: "InnerProduct"
    bottom: "drop7"
    top: "fc8"
    param {
      lr_mult: 1
      decay_mult: 1
    }
    param {
      lr_mult: 2
      decay_mult: 0
    }
    inner_product_param {
      num_output: 1000
      weight_filler {
        type: "gaussian"
        std: 0.01
      }
      bias_filler {
        type: "constant"
      }
    }
  }
  layer {
    name: "accuracy"
    type: "Accuracy"
    bottom: "fc8"
    bottom: "label"
    top: "accuracy"
    include {
      phase: TEST
    }
  }
  layer {
    name: "loss"
    type: "SoftmaxWithLoss"
    bottom: "fc8"
    bottom: "label"
    top: "loss"
  }
}
iter_size: 1
type: "SGD"
I1209 23:40:14.154942 12764 solver.cpp:85] Creating training net specified in net_param.
I1209 23:40:14.155035 12764 net.cpp:322] The NetState phase (0) differed from the phase (1) specified by a rule in layer data
I1209 23:40:14.155055 12764 net.cpp:322] The NetState phase (0) differed from the phase (1) specified by a rule in layer accuracy
I1209 23:40:14.155207 12764 net.cpp:49] Initializing net from parameters: 
name: "CaffeNet"
state {
  phase: TRAIN
}
layer {
  name: "data"
  type: "Data"
  top: "data"
  top: "label"
  include {
    phase: TRAIN
  }
  transform_param {
    scale: 0.04
    mirror: true
    crop_size: 128
    mean_value: 104
    mean_value: 117
    mean_value: 124
    force_color: true
    resize_param {
      prob: 1
      resize_mode: FIT_SMALL_SIZE
      height: 144
      width: 144
      pad_mode: MIRRORED
      pad_value: 104
      pad_value: 117
      pad_value: 124
      interp_mode: CUBIC
      center_object: false
      max_angle: 0
    }
  }
  data_param {
    source: "/home/old-ufo/datasets/imagenet/ilsvrc12_train_shuffle_lmdb"
    batch_size: 256
    backend: LMDB
  }
}
layer {
  name: "conv1_a"
  type: "Convolution"
  bottom: "data"
  top: "conv1_a"
  param {
    lr_mult: 1
    decay_mult: 1
  }
  param {
    lr_mult: 2
    decay_mult: 0
  }
  convolution_param {
    num_output: 68
    kernel_size: 11
    stride: 4
    weight_filler {
      type: "gaussian"
      std: 0.01
    }
    bias_filler {
      type: "constant"
    }
  }
}
layer {
  name: "conv1_b"
  type: "Convolution"
  bottom: "data"
  top: "conv1_b"
  param {
    lr_mult: 1
    decay_mult: 1
  }
  param {
    lr_mult: 2
    decay_mult: 0
  }
  convolution_param {
    num_output: 68
    kernel_size: 11
    stride: 4
    weight_filler {
      type: "gaussian"
      std: 0.01
    }
    bias_filler {
      type: "constant"
    }
  }
}
layer {
  name: "maxout1"
  type: "Eltwise"
  bottom: "conv1_a"
  bottom: "conv1_b"
  top: "conv1"
  eltwise_param {
    operation: MAX
  }
}
layer {
  name: "pool1"
  type: "Pooling"
  bottom: "conv1"
  top: "pool1"
  pooling_param {
    pool: MAX
    kernel_size: 3
    stride: 2
  }
}
layer {
  name: "conv2_a"
  type: "Convolution"
  bottom: "pool1"
  top: "conv2_a"
  param {
    lr_mult: 1
    decay_mult: 1
  }
  param {
    lr_mult: 2
    decay_mult: 0
  }
  convolution_param {
    num_output: 182
    pad: 2
    kernel_size: 5
    group: 2
    weight_filler {
      type: "gaussian"
      std: 0.01
    }
    bias_filler {
      type: "constant"
    }
  }
}
layer {
  name: "conv2_b"
  type: "Convolution"
  bottom: "pool1"
  top: "conv2_b"
  param {
    lr_mult: 1
    decay_mult: 1
  }
  param {
    lr_mult: 2
    decay_mult: 0
  }
  convolution_param {
    num_output: 182
    pad: 2
    kernel_size: 5
    group: 2
    weight_filler {
      type: "gaussian"
      std: 0.01
    }
    bias_filler {
      type: "constant"
    }
  }
}
layer {
  name: "maxout2"
  type: "Eltwise"
  bottom: "conv2_a"
  bottom: "conv2_b"
  top: "conv2"
  eltwise_param {
    operation: MAX
  }
}
layer {
  name: "pool2"
  type: "Pooling"
  bottom: "conv2"
  top: "pool2"
  pooling_param {
    pool: MAX
    kernel_size: 3
    stride: 2
  }
}
layer {
  name: "conv3_a"
  type: "Convolution"
  bottom: "pool2"
  top: "conv3_a"
  param {
    lr_mult: 1
    decay_mult: 1
  }
  param {
    lr_mult: 2
    decay_mult: 0
  }
  convolution_param {
    num_output: 272
    pad: 1
    kernel_size: 3
    weight_filler {
      type: "gaussian"
      std: 0.01
    }
    bias_filler {
      type: "constant"
    }
  }
}
layer {
  name: "conv3_b"
  type: "Convolution"
  bottom: "pool2"
  top: "conv3_b"
  param {
    lr_mult: 1
    decay_mult: 1
  }
  param {
    lr_mult: 2
    decay_mult: 0
  }
  convolution_param {
    num_output: 272
    pad: 1
    kernel_size: 3
    weight_filler {
      type: "gaussian"
      std: 0.01
    }
    bias_filler {
      type: "constant"
    }
  }
}
layer {
  name: "maxout3"
  type: "Eltwise"
  bottom: "conv3_a"
  bottom: "conv3_b"
  top: "conv3"
  eltwise_param {
    operation: MAX
  }
}
layer {
  name: "conv4_a"
  type: "Convolution"
  bottom: "conv3"
  top: "conv4_a"
  param {
    lr_mult: 1
    decay_mult: 1
  }
  param {
    lr_mult: 2
    decay_mult: 0
  }
  convolution_param {
    num_output: 272
    pad: 1
    kernel_size: 3
    group: 2
    weight_filler {
      type: "gaussian"
      std: 0.01
    }
    bias_filler {
      type: "constant"
    }
  }
}
layer {
  name: "conv4_b"
  type: "Convolution"
  bottom: "conv3"
  top: "conv4_b"
  param {
    lr_mult: 1
    decay_mult: 1
  }
  param {
    lr_mult: 2
    decay_mult: 0
  }
  convolution_param {
    num_output: 272
    pad: 1
    kernel_size: 3
    group: 2
    weight_filler {
      type: "gaussian"
      std: 0.01
    }
    bias_filler {
      type: "constant"
    }
  }
}
layer {
  name: "maxout4"
  type: "Eltwise"
  bottom: "conv4_a"
  bottom: "conv4_b"
  top: "conv4"
  eltwise_param {
    operation: MAX
  }
}
layer {
  name: "conv5_a"
  type: "Convolution"
  bottom: "conv4"
  top: "conv5_a"
  param {
    lr_mult: 1
    decay_mult: 1
  }
  param {
    lr_mult: 2
    decay_mult: 0
  }
  convolution_param {
    num_output: 172
    pad: 1
    kernel_size: 3
    group: 2
    weight_filler {
      type: "gaussian"
      std: 0.01
    }
    bias_filler {
      type: "constant"
    }
  }
}
layer {
  name: "conv5_b"
  type: "Convolution"
  bottom: "conv4"
  top: "conv5_b"
  param {
    lr_mult: 1
    decay_mult: 1
  }
  param {
    lr_mult: 2
    decay_mult: 0
  }
  convolution_param {
    num_output: 172
    pad: 1
    kernel_size: 3
    group: 2
    weight_filler {
      type: "gaussian"
      std: 0.01
    }
    bias_filler {
      type: "constant"
    }
  }
}
layer {
  name: "maxout5"
  type: "Eltwise"
  bottom: "conv5_a"
  bottom: "conv5_b"
  top: "conv5"
  eltwise_param {
    operation: MAX
  }
}
layer {
  name: "pool5"
  type: "Pooling"
  bottom: "conv5"
  top: "pool5"
  pooling_param {
    pool: MAX
    kernel_size: 3
    stride: 2
  }
}
layer {
  name: "fc6_a"
  type: "InnerProduct"
  bottom: "pool5"
  top: "fc6_a"
  param {
    lr_mult: 1
    decay_mult: 1
  }
  param {
    lr_mult: 2
    decay_mult: 0
  }
  inner_product_param {
    num_output: 1448
    weight_filler {
      type: "gaussian"
      std: 0.005
    }
    bias_filler {
      type: "constant"
    }
  }
}
layer {
  name: "fc6_b"
  type: "InnerProduct"
  bottom: "pool5"
  top: "fc6_b"
  param {
    lr_mult: 1
    decay_mult: 1
  }
  param {
    lr_mult: 2
    decay_mult: 0
  }
  inner_product_param {
    num_output: 1448
    weight_filler {
      type: "gaussian"
      std: 0.005
    }
    bias_filler {
      type: "constant"
    }
  }
}
layer {
  name: "fc6"
  type: "Eltwise"
  bottom: "fc6_a"
  bottom: "fc6_b"
  top: "fc6"
  eltwise_param {
    operation: MAX
  }
}
layer {
  name: "drop6"
  type: "Dropout"
  bottom: "fc6"
  top: "drop6"
  dropout_param {
    dropout_ratio: 0.5
  }
}
layer {
  name: "fc7_a"
  type: "InnerProduct"
  bottom: "drop6"
  top: "fc7_a"
  param {
    lr_mult: 1
    decay_mult: 1
  }
  param {
    lr_mult: 2
    decay_mult: 0
  }
  inner_product_param {
    num_output: 1448
    weight_filler {
      type: "gaussian"
      std: 0.005
    }
    bias_filler {
      type: "constant"
    }
  }
}
layer {
  name: "fc7_b"
  type: "InnerProduct"
  bottom: "drop6"
  top: "fc7_b"
  param {
    lr_mult: 1
    decay_mult: 1
  }
  param {
    lr_mult: 2
    decay_mult: 0
  }
  inner_product_param {
    num_output: 1448
    weight_filler {
      type: "gaussian"
      std: 0.005
    }
    bias_filler {
      type: "constant"
    }
  }
}
layer {
  name: "fc7"
  type: "Eltwise"
  bottom: "fc7_a"
  bottom: "fc7_b"
  top: "fc7"
  eltwise_param {
    operation: MAX
  }
}
layer {
  name: "drop7"
  type: "Dropout"
  bottom: "fc7"
  top: "drop7"
  dropout_param {
    dropout_ratio: 0.5
  }
}
layer {
  name: "fc8"
  type: "InnerProduct"
  bottom: "drop7"
  top: "fc8"
  param {
    lr_mult: 1
    decay_mult: 1
  }
  param {
    lr_mult: 2
    decay_mult: 0
  }
  inner_product_param {
    num_output: 1000
    weight_filler {
      type: "gaussian"
      std: 0.01
    }
    bias_filler {
      type: "constant"
    }
  }
}
layer {
  name: "loss"
  type: "SoftmaxWithLoss"
  bottom: "fc8"
  bottom: "label"
  top: "loss"
}
I1209 23:40:14.155362 12764 layer_factory.hpp:76] Creating layer data
I1209 23:40:14.155889 12764 net.cpp:106] Creating Layer data
I1209 23:40:14.155897 12764 net.cpp:411] data -> data
I1209 23:40:14.155926 12764 net.cpp:411] data -> label
I1209 23:40:14.156805 12768 db_lmdb.cpp:38] Opened lmdb /home/old-ufo/datasets/imagenet/ilsvrc12_train_shuffle_lmdb
I1209 23:40:14.167759 12764 data_layer.cpp:41] output data size: 256,3,128,128
I1209 23:40:14.235210 12764 net.cpp:150] Setting up data
I1209 23:40:14.235234 12764 net.cpp:157] Top shape: 256 3 128 128 (12582912)
I1209 23:40:14.235239 12764 net.cpp:157] Top shape: 256 (256)
I1209 23:40:14.235241 12764 net.cpp:165] Memory required for data: 50332672
I1209 23:40:14.235249 12764 layer_factory.hpp:76] Creating layer data_data_0_split
I1209 23:40:14.235258 12764 net.cpp:106] Creating Layer data_data_0_split
I1209 23:40:14.235262 12764 net.cpp:454] data_data_0_split <- data
I1209 23:40:14.235271 12764 net.cpp:411] data_data_0_split -> data_data_0_split_0
I1209 23:40:14.235280 12764 net.cpp:411] data_data_0_split -> data_data_0_split_1
I1209 23:40:14.235328 12764 net.cpp:150] Setting up data_data_0_split
I1209 23:40:14.235334 12764 net.cpp:157] Top shape: 256 3 128 128 (12582912)
I1209 23:40:14.235337 12764 net.cpp:157] Top shape: 256 3 128 128 (12582912)
I1209 23:40:14.235339 12764 net.cpp:165] Memory required for data: 150995968
I1209 23:40:14.235342 12764 layer_factory.hpp:76] Creating layer conv1_a
I1209 23:40:14.235352 12764 net.cpp:106] Creating Layer conv1_a
I1209 23:40:14.235353 12764 net.cpp:454] conv1_a <- data_data_0_split_0
I1209 23:40:14.235370 12764 net.cpp:411] conv1_a -> conv1_a
I1209 23:40:14.380633 12764 cudnn_conv_layer.cpp:194] Reallocating workspace storage: 72408
I1209 23:40:14.380743 12764 net.cpp:150] Setting up conv1_a
I1209 23:40:14.380754 12764 net.cpp:157] Top shape: 256 68 30 30 (15667200)
I1209 23:40:14.380756 12764 net.cpp:165] Memory required for data: 213664768
I1209 23:40:14.380772 12764 layer_factory.hpp:76] Creating layer conv1_b
I1209 23:40:14.380782 12764 net.cpp:106] Creating Layer conv1_b
I1209 23:40:14.380786 12764 net.cpp:454] conv1_b <- data_data_0_split_1
I1209 23:40:14.380790 12764 net.cpp:411] conv1_b -> conv1_b
I1209 23:40:14.383052 12764 cudnn_conv_layer.cpp:194] Reallocating workspace storage: 72408
I1209 23:40:14.383072 12764 net.cpp:150] Setting up conv1_b
I1209 23:40:14.383077 12764 net.cpp:157] Top shape: 256 68 30 30 (15667200)
I1209 23:40:14.383080 12764 net.cpp:165] Memory required for data: 276333568
I1209 23:40:14.383087 12764 layer_factory.hpp:76] Creating layer maxout1
I1209 23:40:14.383098 12764 net.cpp:106] Creating Layer maxout1
I1209 23:40:14.383102 12764 net.cpp:454] maxout1 <- conv1_a
I1209 23:40:14.383108 12764 net.cpp:454] maxout1 <- conv1_b
I1209 23:40:14.383115 12764 net.cpp:411] maxout1 -> conv1
I1209 23:40:14.383175 12764 net.cpp:150] Setting up maxout1
I1209 23:40:14.383184 12764 net.cpp:157] Top shape: 256 68 30 30 (15667200)
I1209 23:40:14.383188 12764 net.cpp:165] Memory required for data: 339002368
I1209 23:40:14.383193 12764 layer_factory.hpp:76] Creating layer pool1
I1209 23:40:14.383199 12764 net.cpp:106] Creating Layer pool1
I1209 23:40:14.383219 12764 net.cpp:454] pool1 <- conv1
I1209 23:40:14.383241 12764 net.cpp:411] pool1 -> pool1
I1209 23:40:14.383857 12764 net.cpp:150] Setting up pool1
I1209 23:40:14.383868 12764 net.cpp:157] Top shape: 256 68 15 15 (3916800)
I1209 23:40:14.383872 12764 net.cpp:165] Memory required for data: 354669568
I1209 23:40:14.383877 12764 layer_factory.hpp:76] Creating layer pool1_pool1_0_split
I1209 23:40:14.383884 12764 net.cpp:106] Creating Layer pool1_pool1_0_split
I1209 23:40:14.383905 12764 net.cpp:454] pool1_pool1_0_split <- pool1
I1209 23:40:14.383927 12764 net.cpp:411] pool1_pool1_0_split -> pool1_pool1_0_split_0
I1209 23:40:14.383955 12764 net.cpp:411] pool1_pool1_0_split -> pool1_pool1_0_split_1
I1209 23:40:14.384006 12764 net.cpp:150] Setting up pool1_pool1_0_split
I1209 23:40:14.384016 12764 net.cpp:157] Top shape: 256 68 15 15 (3916800)
I1209 23:40:14.384021 12764 net.cpp:157] Top shape: 256 68 15 15 (3916800)
I1209 23:40:14.384024 12764 net.cpp:165] Memory required for data: 386003968
I1209 23:40:14.384028 12764 layer_factory.hpp:76] Creating layer conv2_a
I1209 23:40:14.384053 12764 net.cpp:106] Creating Layer conv2_a
I1209 23:40:14.384060 12764 net.cpp:454] conv2_a <- pool1_pool1_0_split_0
I1209 23:40:14.384068 12764 net.cpp:411] conv2_a -> conv2_a
I1209 23:40:14.392087 12764 cudnn_conv_layer.cpp:194] Reallocating workspace storage: 27096
I1209 23:40:14.392169 12764 net.cpp:150] Setting up conv2_a
I1209 23:40:14.392194 12764 net.cpp:157] Top shape: 256 182 15 15 (10483200)
I1209 23:40:14.392213 12764 net.cpp:165] Memory required for data: 427936768
I1209 23:40:14.392241 12764 layer_factory.hpp:76] Creating layer conv2_b
I1209 23:40:14.392269 12764 net.cpp:106] Creating Layer conv2_b
I1209 23:40:14.392287 12764 net.cpp:454] conv2_b <- pool1_pool1_0_split_1
I1209 23:40:14.392310 12764 net.cpp:411] conv2_b -> conv2_b
I1209 23:40:14.400703 12764 cudnn_conv_layer.cpp:194] Reallocating workspace storage: 27096
I1209 23:40:14.400738 12764 net.cpp:150] Setting up conv2_b
I1209 23:40:14.400748 12764 net.cpp:157] Top shape: 256 182 15 15 (10483200)
I1209 23:40:14.400751 12764 net.cpp:165] Memory required for data: 469869568
I1209 23:40:14.400763 12764 layer_factory.hpp:76] Creating layer maxout2
I1209 23:40:14.400794 12764 net.cpp:106] Creating Layer maxout2
I1209 23:40:14.400821 12764 net.cpp:454] maxout2 <- conv2_a
I1209 23:40:14.400830 12764 net.cpp:454] maxout2 <- conv2_b
I1209 23:40:14.400840 12764 net.cpp:411] maxout2 -> conv2
I1209 23:40:14.400907 12764 net.cpp:150] Setting up maxout2
I1209 23:40:14.400914 12764 net.cpp:157] Top shape: 256 182 15 15 (10483200)
I1209 23:40:14.400918 12764 net.cpp:165] Memory required for data: 511802368
I1209 23:40:14.400923 12764 layer_factory.hpp:76] Creating layer pool2
I1209 23:40:14.400931 12764 net.cpp:106] Creating Layer pool2
I1209 23:40:14.400951 12764 net.cpp:454] pool2 <- conv2
I1209 23:40:14.400976 12764 net.cpp:411] pool2 -> pool2
I1209 23:40:14.401563 12764 net.cpp:150] Setting up pool2
I1209 23:40:14.401574 12764 net.cpp:157] Top shape: 256 182 7 7 (2283008)
I1209 23:40:14.401578 12764 net.cpp:165] Memory required for data: 520934400
I1209 23:40:14.401582 12764 layer_factory.hpp:76] Creating layer pool2_pool2_0_split
I1209 23:40:14.401589 12764 net.cpp:106] Creating Layer pool2_pool2_0_split
I1209 23:40:14.401612 12764 net.cpp:454] pool2_pool2_0_split <- pool2
I1209 23:40:14.401631 12764 net.cpp:411] pool2_pool2_0_split -> pool2_pool2_0_split_0
I1209 23:40:14.401654 12764 net.cpp:411] pool2_pool2_0_split -> pool2_pool2_0_split_1
I1209 23:40:14.401706 12764 net.cpp:150] Setting up pool2_pool2_0_split
I1209 23:40:14.401715 12764 net.cpp:157] Top shape: 256 182 7 7 (2283008)
I1209 23:40:14.401720 12764 net.cpp:157] Top shape: 256 182 7 7 (2283008)
I1209 23:40:14.401723 12764 net.cpp:165] Memory required for data: 539198464
I1209 23:40:14.401727 12764 layer_factory.hpp:76] Creating layer conv3_a
I1209 23:40:14.401738 12764 net.cpp:106] Creating Layer conv3_a
I1209 23:40:14.401758 12764 net.cpp:454] conv3_a <- pool2_pool2_0_split_0
I1209 23:40:14.401770 12764 net.cpp:411] conv3_a -> conv3_a
I1209 23:40:14.416458 12764 cudnn_conv_layer.cpp:194] Reallocating workspace storage: 7788
I1209 23:40:14.416584 12764 net.cpp:150] Setting up conv3_a
I1209 23:40:14.416599 12764 net.cpp:157] Top shape: 256 272 7 7 (3411968)
I1209 23:40:14.416604 12764 net.cpp:165] Memory required for data: 552846336
I1209 23:40:14.416620 12764 layer_factory.hpp:76] Creating layer conv3_b
I1209 23:40:14.416658 12764 net.cpp:106] Creating Layer conv3_b
I1209 23:40:14.416666 12764 net.cpp:454] conv3_b <- pool2_pool2_0_split_1
I1209 23:40:14.416674 12764 net.cpp:411] conv3_b -> conv3_b
I1209 23:40:14.431148 12764 cudnn_conv_layer.cpp:194] Reallocating workspace storage: 7788
I1209 23:40:14.431247 12764 net.cpp:150] Setting up conv3_b
I1209 23:40:14.431289 12764 net.cpp:157] Top shape: 256 272 7 7 (3411968)
I1209 23:40:14.431311 12764 net.cpp:165] Memory required for data: 566494208
I1209 23:40:14.431341 12764 layer_factory.hpp:76] Creating layer maxout3
I1209 23:40:14.431371 12764 net.cpp:106] Creating Layer maxout3
I1209 23:40:14.431393 12764 net.cpp:454] maxout3 <- conv3_a
I1209 23:40:14.431416 12764 net.cpp:454] maxout3 <- conv3_b
I1209 23:40:14.431439 12764 net.cpp:411] maxout3 -> conv3
I1209 23:40:14.431525 12764 net.cpp:150] Setting up maxout3
I1209 23:40:14.431557 12764 net.cpp:157] Top shape: 256 272 7 7 (3411968)
I1209 23:40:14.431576 12764 net.cpp:165] Memory required for data: 580142080
I1209 23:40:14.431592 12764 layer_factory.hpp:76] Creating layer conv3_maxout3_0_split
I1209 23:40:14.431612 12764 net.cpp:106] Creating Layer conv3_maxout3_0_split
I1209 23:40:14.431630 12764 net.cpp:454] conv3_maxout3_0_split <- conv3
I1209 23:40:14.431651 12764 net.cpp:411] conv3_maxout3_0_split -> conv3_maxout3_0_split_0
I1209 23:40:14.431674 12764 net.cpp:411] conv3_maxout3_0_split -> conv3_maxout3_0_split_1
I1209 23:40:14.431740 12764 net.cpp:150] Setting up conv3_maxout3_0_split
I1209 23:40:14.431762 12764 net.cpp:157] Top shape: 256 272 7 7 (3411968)
I1209 23:40:14.431782 12764 net.cpp:157] Top shape: 256 272 7 7 (3411968)
I1209 23:40:14.431797 12764 net.cpp:165] Memory required for data: 607437824
I1209 23:40:14.431813 12764 layer_factory.hpp:76] Creating layer conv4_a
I1209 23:40:14.431838 12764 net.cpp:106] Creating Layer conv4_a
I1209 23:40:14.431865 12764 net.cpp:454] conv4_a <- conv3_maxout3_0_split_0
I1209 23:40:14.431890 12764 net.cpp:411] conv4_a -> conv4_a
I1209 23:40:14.446555 12764 cudnn_conv_layer.cpp:194] Reallocating workspace storage: 15576
I1209 23:40:14.446610 12764 net.cpp:150] Setting up conv4_a
I1209 23:40:14.446641 12764 net.cpp:157] Top shape: 256 272 7 7 (3411968)
I1209 23:40:14.446658 12764 net.cpp:165] Memory required for data: 621085696
I1209 23:40:14.446681 12764 layer_factory.hpp:76] Creating layer conv4_b
I1209 23:40:14.446699 12764 net.cpp:106] Creating Layer conv4_b
I1209 23:40:14.446722 12764 net.cpp:454] conv4_b <- conv3_maxout3_0_split_1
I1209 23:40:14.446733 12764 net.cpp:411] conv4_b -> conv4_b
I1209 23:40:14.459291 12764 cudnn_conv_layer.cpp:194] Reallocating workspace storage: 15576
I1209 23:40:14.459333 12764 net.cpp:150] Setting up conv4_b
I1209 23:40:14.459347 12764 net.cpp:157] Top shape: 256 272 7 7 (3411968)
I1209 23:40:14.459350 12764 net.cpp:165] Memory required for data: 634733568
I1209 23:40:14.459362 12764 layer_factory.hpp:76] Creating layer maxout4
I1209 23:40:14.459398 12764 net.cpp:106] Creating Layer maxout4
I1209 23:40:14.459419 12764 net.cpp:454] maxout4 <- conv4_a
I1209 23:40:14.459439 12764 net.cpp:454] maxout4 <- conv4_b
I1209 23:40:14.459460 12764 net.cpp:411] maxout4 -> conv4
I1209 23:40:14.459527 12764 net.cpp:150] Setting up maxout4
I1209 23:40:14.459534 12764 net.cpp:157] Top shape: 256 272 7 7 (3411968)
I1209 23:40:14.459538 12764 net.cpp:165] Memory required for data: 648381440
I1209 23:40:14.459542 12764 layer_factory.hpp:76] Creating layer conv4_maxout4_0_split
I1209 23:40:14.459549 12764 net.cpp:106] Creating Layer conv4_maxout4_0_split
I1209 23:40:14.459553 12764 net.cpp:454] conv4_maxout4_0_split <- conv4
I1209 23:40:14.459558 12764 net.cpp:411] conv4_maxout4_0_split -> conv4_maxout4_0_split_0
I1209 23:40:14.459564 12764 net.cpp:411] conv4_maxout4_0_split -> conv4_maxout4_0_split_1
I1209 23:40:14.459605 12764 net.cpp:150] Setting up conv4_maxout4_0_split
I1209 23:40:14.459612 12764 net.cpp:157] Top shape: 256 272 7 7 (3411968)
I1209 23:40:14.459617 12764 net.cpp:157] Top shape: 256 272 7 7 (3411968)
I1209 23:40:14.459620 12764 net.cpp:165] Memory required for data: 675677184
I1209 23:40:14.459624 12764 layer_factory.hpp:76] Creating layer conv5_a
I1209 23:40:14.459633 12764 net.cpp:106] Creating Layer conv5_a
I1209 23:40:14.459637 12764 net.cpp:454] conv5_a <- conv4_maxout4_0_split_0
I1209 23:40:14.459643 12764 net.cpp:411] conv5_a -> conv5_a
I1209 23:40:14.472451 12764 cudnn_conv_layer.cpp:194] Reallocating workspace storage: 15576
I1209 23:40:14.472533 12764 net.cpp:150] Setting up conv5_a
I1209 23:40:14.472558 12764 net.cpp:157] Top shape: 256 172 7 7 (2157568)
I1209 23:40:14.472573 12764 net.cpp:165] Memory required for data: 684307456
I1209 23:40:14.472599 12764 layer_factory.hpp:76] Creating layer conv5_b
I1209 23:40:14.472625 12764 net.cpp:106] Creating Layer conv5_b
I1209 23:40:14.472642 12764 net.cpp:454] conv5_b <- conv4_maxout4_0_split_1
I1209 23:40:14.472664 12764 net.cpp:411] conv5_b -> conv5_b
I1209 23:40:14.485556 12764 cudnn_conv_layer.cpp:194] Reallocating workspace storage: 15576
I1209 23:40:14.485597 12764 net.cpp:150] Setting up conv5_b
I1209 23:40:14.485606 12764 net.cpp:157] Top shape: 256 172 7 7 (2157568)
I1209 23:40:14.485611 12764 net.cpp:165] Memory required for data: 692937728
I1209 23:40:14.485621 12764 layer_factory.hpp:76] Creating layer maxout5
I1209 23:40:14.485635 12764 net.cpp:106] Creating Layer maxout5
I1209 23:40:14.485642 12764 net.cpp:454] maxout5 <- conv5_a
I1209 23:40:14.485647 12764 net.cpp:454] maxout5 <- conv5_b
I1209 23:40:14.485656 12764 net.cpp:411] maxout5 -> conv5
I1209 23:40:14.485705 12764 net.cpp:150] Setting up maxout5
I1209 23:40:14.485713 12764 net.cpp:157] Top shape: 256 172 7 7 (2157568)
I1209 23:40:14.485716 12764 net.cpp:165] Memory required for data: 701568000
I1209 23:40:14.485720 12764 layer_factory.hpp:76] Creating layer pool5
I1209 23:40:14.485728 12764 net.cpp:106] Creating Layer pool5
I1209 23:40:14.485733 12764 net.cpp:454] pool5 <- conv5
I1209 23:40:14.485738 12764 net.cpp:411] pool5 -> pool5
I1209 23:40:14.486511 12764 net.cpp:150] Setting up pool5
I1209 23:40:14.486522 12764 net.cpp:157] Top shape: 256 172 3 3 (396288)
I1209 23:40:14.486539 12764 net.cpp:165] Memory required for data: 703153152
I1209 23:40:14.486543 12764 layer_factory.hpp:76] Creating layer pool5_pool5_0_split
I1209 23:40:14.486549 12764 net.cpp:106] Creating Layer pool5_pool5_0_split
I1209 23:40:14.486553 12764 net.cpp:454] pool5_pool5_0_split <- pool5
I1209 23:40:14.486558 12764 net.cpp:411] pool5_pool5_0_split -> pool5_pool5_0_split_0
I1209 23:40:14.486567 12764 net.cpp:411] pool5_pool5_0_split -> pool5_pool5_0_split_1
I1209 23:40:14.486611 12764 net.cpp:150] Setting up pool5_pool5_0_split
I1209 23:40:14.486618 12764 net.cpp:157] Top shape: 256 172 3 3 (396288)
I1209 23:40:14.486623 12764 net.cpp:157] Top shape: 256 172 3 3 (396288)
I1209 23:40:14.486626 12764 net.cpp:165] Memory required for data: 706323456
I1209 23:40:14.486629 12764 layer_factory.hpp:76] Creating layer fc6_a
I1209 23:40:14.486644 12764 net.cpp:106] Creating Layer fc6_a
I1209 23:40:14.486649 12764 net.cpp:454] fc6_a <- pool5_pool5_0_split_0
I1209 23:40:14.486655 12764 net.cpp:411] fc6_a -> fc6_a
I1209 23:40:14.568337 12764 net.cpp:150] Setting up fc6_a
I1209 23:40:14.568366 12764 net.cpp:157] Top shape: 256 1448 (370688)
I1209 23:40:14.568369 12764 net.cpp:165] Memory required for data: 707806208
I1209 23:40:14.568382 12764 layer_factory.hpp:76] Creating layer fc6_b
I1209 23:40:14.568394 12764 net.cpp:106] Creating Layer fc6_b
I1209 23:40:14.568399 12764 net.cpp:454] fc6_b <- pool5_pool5_0_split_1
I1209 23:40:14.568410 12764 net.cpp:411] fc6_b -> fc6_b
I1209 23:40:14.649534 12764 net.cpp:150] Setting up fc6_b
I1209 23:40:14.649560 12764 net.cpp:157] Top shape: 256 1448 (370688)
I1209 23:40:14.649565 12764 net.cpp:165] Memory required for data: 709288960
I1209 23:40:14.649577 12764 layer_factory.hpp:76] Creating layer fc6
I1209 23:40:14.649590 12764 net.cpp:106] Creating Layer fc6
I1209 23:40:14.649595 12764 net.cpp:454] fc6 <- fc6_a
I1209 23:40:14.649601 12764 net.cpp:454] fc6 <- fc6_b
I1209 23:40:14.649611 12764 net.cpp:411] fc6 -> fc6
I1209 23:40:14.649690 12764 net.cpp:150] Setting up fc6
I1209 23:40:14.649700 12764 net.cpp:157] Top shape: 256 1448 (370688)
I1209 23:40:14.649704 12764 net.cpp:165] Memory required for data: 710771712
I1209 23:40:14.649708 12764 layer_factory.hpp:76] Creating layer drop6
I1209 23:40:14.649723 12764 net.cpp:106] Creating Layer drop6
I1209 23:40:14.649755 12764 net.cpp:454] drop6 <- fc6
I1209 23:40:14.649777 12764 net.cpp:411] drop6 -> drop6
I1209 23:40:14.649863 12764 net.cpp:150] Setting up drop6
I1209 23:40:14.649873 12764 net.cpp:157] Top shape: 256 1448 (370688)
I1209 23:40:14.649878 12764 net.cpp:165] Memory required for data: 712254464
I1209 23:40:14.649880 12764 layer_factory.hpp:76] Creating layer drop6_drop6_0_split
I1209 23:40:14.649886 12764 net.cpp:106] Creating Layer drop6_drop6_0_split
I1209 23:40:14.649890 12764 net.cpp:454] drop6_drop6_0_split <- drop6
I1209 23:40:14.649895 12764 net.cpp:411] drop6_drop6_0_split -> drop6_drop6_0_split_0
I1209 23:40:14.649919 12764 net.cpp:411] drop6_drop6_0_split -> drop6_drop6_0_split_1
I1209 23:40:14.649993 12764 net.cpp:150] Setting up drop6_drop6_0_split
I1209 23:40:14.650002 12764 net.cpp:157] Top shape: 256 1448 (370688)
I1209 23:40:14.650007 12764 net.cpp:157] Top shape: 256 1448 (370688)
I1209 23:40:14.650009 12764 net.cpp:165] Memory required for data: 715219968
I1209 23:40:14.650013 12764 layer_factory.hpp:76] Creating layer fc7_a
I1209 23:40:14.650027 12764 net.cpp:106] Creating Layer fc7_a
I1209 23:40:14.650030 12764 net.cpp:454] fc7_a <- drop6_drop6_0_split_0
I1209 23:40:14.650038 12764 net.cpp:411] fc7_a -> fc7_a
I1209 23:40:14.725018 12764 net.cpp:150] Setting up fc7_a
I1209 23:40:14.725042 12764 net.cpp:157] Top shape: 256 1448 (370688)
I1209 23:40:14.725046 12764 net.cpp:165] Memory required for data: 716702720
I1209 23:40:14.725057 12764 layer_factory.hpp:76] Creating layer fc7_b
I1209 23:40:14.725069 12764 net.cpp:106] Creating Layer fc7_b
I1209 23:40:14.725075 12764 net.cpp:454] fc7_b <- drop6_drop6_0_split_1
I1209 23:40:14.725085 12764 net.cpp:411] fc7_b -> fc7_b
I1209 23:40:14.800186 12764 net.cpp:150] Setting up fc7_b
I1209 23:40:14.800211 12764 net.cpp:157] Top shape: 256 1448 (370688)
I1209 23:40:14.800216 12764 net.cpp:165] Memory required for data: 718185472
I1209 23:40:14.800230 12764 layer_factory.hpp:76] Creating layer fc7
I1209 23:40:14.800242 12764 net.cpp:106] Creating Layer fc7
I1209 23:40:14.800248 12764 net.cpp:454] fc7 <- fc7_a
I1209 23:40:14.800254 12764 net.cpp:454] fc7 <- fc7_b
I1209 23:40:14.800266 12764 net.cpp:411] fc7 -> fc7
I1209 23:40:14.800333 12764 net.cpp:150] Setting up fc7
I1209 23:40:14.800341 12764 net.cpp:157] Top shape: 256 1448 (370688)
I1209 23:40:14.800345 12764 net.cpp:165] Memory required for data: 719668224
I1209 23:40:14.800349 12764 layer_factory.hpp:76] Creating layer drop7
I1209 23:40:14.800357 12764 net.cpp:106] Creating Layer drop7
I1209 23:40:14.800364 12764 net.cpp:454] drop7 <- fc7
I1209 23:40:14.800369 12764 net.cpp:411] drop7 -> drop7
I1209 23:40:14.800425 12764 net.cpp:150] Setting up drop7
I1209 23:40:14.800431 12764 net.cpp:157] Top shape: 256 1448 (370688)
I1209 23:40:14.800436 12764 net.cpp:165] Memory required for data: 721150976
I1209 23:40:14.800438 12764 layer_factory.hpp:76] Creating layer fc8
I1209 23:40:14.800447 12764 net.cpp:106] Creating Layer fc8
I1209 23:40:14.800452 12764 net.cpp:454] fc8 <- drop7
I1209 23:40:14.800458 12764 net.cpp:411] fc8 -> fc8
I1209 23:40:14.852470 12764 net.cpp:150] Setting up fc8
I1209 23:40:14.852494 12764 net.cpp:157] Top shape: 256 1000 (256000)
I1209 23:40:14.852499 12764 net.cpp:165] Memory required for data: 722174976
I1209 23:40:14.852510 12764 layer_factory.hpp:76] Creating layer loss
I1209 23:40:14.852520 12764 net.cpp:106] Creating Layer loss
I1209 23:40:14.852525 12764 net.cpp:454] loss <- fc8
I1209 23:40:14.852531 12764 net.cpp:454] loss <- label
I1209 23:40:14.852541 12764 net.cpp:411] loss -> loss
I1209 23:40:14.852553 12764 layer_factory.hpp:76] Creating layer loss
…
  }
  transform_param {
    scale: 0.04
    mirror: false
    crop_size: 128
    mean_value: 104
    mean_value: 117
    mean_value: 123
    force_color: true
    resize_param {
      prob: 1
      resize_mode: FIT_SMALL_SIZE
      height: 144
      width: 144
      pad_mode: MIRRORED
      pad_value: 104
      pad_value: 117
      pad_value: 124
      interp_mode: CUBIC
      center_object: false
      max_angle: 0
    }
  }
  data_param {
    source: "/home/old-ufo/datasets/imagenet/ilsvrc12_val_lmdb"
    batch_size: 250
    backend: LMDB
  }
}
layer {
  name: "conv1_a"
  type: "Convolution"
  bottom: "data"
  top: "conv1_a"
  param {
    lr_mult: 1
    decay_mult: 1
  }
  param {
    lr_mult: 2
    decay_mult: 0
  }
  convolution_param {
    num_output: 68
    kernel_size: 11
    stride: 4
    weight_filler {
      type: "gaussian"
      std: 0.01
    }
    bias_filler {
      type: "constant"
    }
  }
}
layer {
  name: "conv1_b"
  type: "Convolution"
  bottom: "data"
  top: "conv1_b"
  param {
    lr_mult: 1
    decay_mult: 1
  }
  param {
    lr_mult: 2
    decay_mult: 0
  }
  convolution_param {
    num_output: 68
    kernel_size: 11
    stride: 4
    weight_filler {
      type: "gaussian"
      std: 0.01
    }
    bias_filler {
      type: "constant"
    }
  }
}
layer {
  name: "maxout1"
  type: "Eltwise"
  bottom: "conv1_a"
  bottom: "conv1_b"
  top: "conv1"
  eltwise_param {
    operation: MAX
  }
}
layer {
  name: "pool1"
  type: "Pooling"
  bottom: "conv1"
  top: "pool1"
  pooling_param {
    pool: MAX
    kernel_size: 3
    stride: 2
  }
}
layer {
  name: "conv2_a"
  type: "Convolution"
  bottom: "pool1"
  top: "conv2_a"
  param {
    lr_mult: 1
    decay_mult: 1
  }
  param {
    lr_mult: 2
    decay_mult: 0
  }
  convolution_param {
    num_output: 182
    pad: 2
    kernel_size: 5
    group: 2
    weight_filler {
      type: "gaussian"
      std: 0.01
    }
    bias_filler {
      type: "constant"
    }
  }
}
layer {
  name: "conv2_b"
  type: "Convolution"
  bottom: "pool1"
  top: "conv2_b"
  param {
    lr_mult: 1
    decay_mult: 1
  }
  param {
    lr_mult: 2
    decay_mult: 0
  }
  convolution_param {
    num_output: 182
    pad: 2
    kernel_size: 5
    group: 2
    weight_filler {
      type: "gaussian"
      std: 0.01
    }
    bias_filler {
      type: "constant"
    }
  }
}
layer {
  name: "maxout2"
  type: "Eltwise"
  bottom: "conv2_a"
  bottom: "conv2_b"
  top: "conv2"
  eltwise_param {
    operation: MAX
  }
}
layer {
  name: "pool2"
  type: "Pooling"
  bottom: "conv2"
  top: "pool2"
  pooling_param {
    pool: MAX
    kernel_size: 3
    stride: 2
  }
}
layer {
  name: "conv3_a"
  type: "Convolution"
  bottom: "pool2"
  top: "conv3_a"
  param {
    lr_mult: 1
    decay_mult: 1
  }
  param {
    lr_mult: 2
    decay_mult: 0
  }
  convolution_param {
    num_output: 272
    pad: 1
    kernel_size: 3
    weight_filler {
      type: "gaussian"
      std: 0.01
    }
    bias_filler {
      type: "constant"
    }
  }
}
layer {
  name: "conv3_b"
  type: "Convolution"
  bottom: "pool2"
  top: "conv3_b"
  param {
    lr_mult: 1
    decay_mult: 1
  }
  param {
    lr_mult: 2
    decay_mult: 0
  }
  convolution_param {
    num_output: 272
    pad: 1
    kernel_size: 3
    weight_filler {
      type: "gaussian"
      std: 0.01
    }
    bias_filler {
      type: "constant"
    }
  }
}
layer {
  name: "maxout3"
  type: "Eltwise"
  bottom: "conv3_a"
  bottom: "conv3_b"
  top: "conv3"
  eltwise_param {
    operation: MAX
  }
}
layer {
  name: "conv4_a"
  type: "Convolution"
  bottom: "conv3"
  top: "conv4_a"
  param {
    lr_mult: 1
    decay_mult: 1
  }
  param {
    lr_mult: 2
    decay_mult: 0
  }
  convolution_param {
    num_output: 272
    pad: 1
    kernel_size: 3
    group: 2
    weight_filler {
      type: "gaussian"
      std: 0.01
    }
    bias_filler {
      type: "constant"
    }
  }
}
layer {
  name: "conv4_b"
  type: "Convolution"
  bottom: "conv3"
  top: "conv4_b"
  param {
    lr_mult: 1
    decay_mult: 1
  }
  param {
    lr_mult: 2
    decay_mult: 0
  }
  convolution_param {
    num_output: 272
    pad: 1
    kernel_size: 3
    group: 2
    weight_filler {
      type: "gaussian"
      std: 0.01
    }
    bias_filler {
      type: "constant"
    }
  }
}
layer {
  name: "maxout4"
  type: "Eltwise"
  bottom: "conv4_a"
  bottom: "conv4_b"
  top: "conv4"
  eltwise_param {
    operation: MAX
  }
}
layer {
  name: "conv5_a"
  type: "Convolution"
  bottom: "conv4"
  top: "conv5_a"
  param {
    lr_mult: 1
    decay_mult: 1
  }
  param {
    lr_mult: 2
    decay_mult: 0
  }
  convolution_param {
    num_output: 172
    pad: 1
    kernel_size: 3
    group: 2
    weight_filler {
      type: "gaussian"
      std: 0.01
    }
    bias_filler {
      type: "constant"
    }
  }
}
layer {
  name: "conv5_b"
  type: "Convolution"
  bottom: "conv4"
  top: "conv5_b"
  param {
    lr_mult: 1
    decay_mult: 1
  }
  param {
    lr_mult: 2
    decay_mult: 0
  }
  convolution_param {
    num_output: 172
    pad: 1
    kernel_size: 3
    group: 2
    weight_filler {
      type: "gaussian"
      std: 0.01
    }
    bias_filler {
      type: "constant"
    }
  }
}
layer {
  name: "maxout5"
  type: "Eltwise"
  bottom: "conv5_a"
  bottom: "conv5_b"
  top: "conv5"
  eltwise_param {
    operation: MAX
  }
}
layer {
  name: "pool5"
  type: "Pooling"
  bottom: "conv5"
  top: "pool5"
  pooling_param {
    pool: MAX
    kernel_size: 3
    stride: 2
  }
}
layer {
  name: "fc6_a"
  type: "InnerProduct"
  bottom: "pool5"
  top: "fc6_a"
  param {
    lr_mult: 1
    decay_mult: 1
  }
  param {
    lr_mult: 2
    decay_mult: 0
  }
  inner_product_param {
    num_output: 1448
    weight_filler {
      type: "gaussian"
      std: 0.005
    }
    bias_filler {
      type: "constant"
    }
  }
}
layer {
  name: "fc6_b"
  type: "InnerProduct"
  bottom: "pool5"
  top: "fc6_b"
  param {
    lr_mult: 1
    decay_mult: 1
  }
  param {
    lr_mult: 2
    decay_mult: 0
  }
  inner_product_param {
    num_output: 1448
    weight_filler {
      type: "gaussian"
      std: 0.005
    }
    bias_filler {
      type: "constant"
    }
  }
}
layer {
  name: "fc6"
  type: "Eltwise"
  bottom: "fc6_a"
  bottom: "fc6_b"
  top: "fc6"
  eltwise_param {
    operation: MAX
  }
}
layer {
  name: "drop6"
  type: "Dropout"
  bottom: "fc6"
  top: "drop6"
  dropout_param {
    dropout_ratio: 0.5
  }
}
layer {
  name: "fc7_a"
  type: "InnerProduct"
  bottom: "drop6"
  top: "fc7_a"
  param {
    lr_mult: 1
    decay_mult: 1
  }
  param {
    lr_mult: 2
    decay_mult: 0
  }
  inner_product_param {
    num_output: 1448
    weight_filler {
      type: "gaussian"
      std: 0.005
    }
    bias_filler {
      type: "constant"
    }
  }
}
layer {
  name: "fc7_b"
  type: "InnerProduct"
  bottom: "drop6"
  top: "fc7_b"
  param {
    lr_mult: 1
    decay_mult: 1
  }
  param {
    lr_mult: 2
    decay_mult: 0
  }
  inner_product_param {
    num_output: 1448
    weight_filler {
      type: "gaussian"
      std: 0.005
    }
    bias_filler {
      type: "constant"
    }
  }
}
layer {
  name: "fc7"
  type: "Eltwise"
  bottom: "fc7_a"
  bottom: "fc7_b"
  top: "fc7"
  eltwise_param {
    operation: MAX
  }
}
layer {
  name: "drop7"
  type: "Dropout"
  bottom: "fc7"
  top: "drop7"
  dropout_param {
    dropout_ratio: 0.5
  }
}
layer {
  name: "fc8"
  type: "InnerProduct"
  bottom: "drop7"
  top: "fc8"
  param {
    lr_mult: 1
    decay_mult: 1
  }
  param {
    lr_mult: 2
    decay_mult: 0
  }
  inner_product_param {
    num_output: 1000
    weight_filler {
      type: "gaussian"
      std: 0.01
    }
    bias_filler {
      type: "constant"
    }
  }
}
layer {
  name: "accuracy"
  type: "Accuracy"
  bottom: "fc8"
  bottom: "label"
  top: "accuracy"
  include {
    phase: TEST
  }
}
layer {
  name: "loss"
  type: "SoftmaxWithLoss"
  bottom: "fc8"
  bottom: "label"
  top: "loss"
}
I1209 23:40:14.855475 12764 layer_factory.hpp:76] Creating layer data
I1209 23:40:14.855690 12764 net.cpp:106] Creating Layer data
I1209 23:40:14.855700 12764 net.cpp:411] data -> data
I1209 23:40:14.855710 12764 net.cpp:411] data -> label
I1209 23:40:14.856374 12777 db_lmdb.cpp:38] Opened lmdb /home/old-ufo/datasets/imagenet/ilsvrc12_val_lmdb
I1209 23:40:14.859097 12764 data_layer.cpp:41] output data size: 250,3,128,128
I1209 23:40:14.927186 12764 net.cpp:150] Setting up data
I1209 23:40:14.927268 12764 net.cpp:157] Top shape: 250 3 128 128 (12288000)
I1209 23:40:14.927296 12764 net.cpp:157] Top shape: 250 (250)
I1209 23:40:14.927320 12764 net.cpp:165] Memory required for data: 49153000
I1209 23:40:14.927342 12764 layer_factory.hpp:76] Creating layer data_data_0_split
I1209 23:40:14.927372 12764 net.cpp:106] Creating Layer data_data_0_split
I1209 23:40:14.927394 12764 net.cpp:454] data_data_0_split <- data
I1209 23:40:14.927417 12764 net.cpp:411] data_data_0_split -> data_data_0_split_0
I1209 23:40:14.927443 12764 net.cpp:411] data_data_0_split -> data_data_0_split_1
I1209 23:40:14.927610 12764 net.cpp:150] Setting up data_data_0_split
I1209 23:40:14.927644 12764 net.cpp:157] Top shape: 250 3 128 128 (12288000)
I1209 23:40:14.927662 12764 net.cpp:157] Top shape: 250 3 128 128 (12288000)
I1209 23:40:14.927677 12764 net.cpp:165] Memory required for data: 147457000
I1209 23:40:14.927695 12764 layer_factory.hpp:76] Creating layer label_data_1_split
I1209 23:40:14.927716 12764 net.cpp:106] Creating Layer label_data_1_split
I1209 23:40:14.927732 12764 net.cpp:454] label_data_1_split <- label
I1209 23:40:14.927752 12764 net.cpp:411] label_data_1_split -> label_data_1_split_0
I1209 23:40:14.927775 12764 net.cpp:411] label_data_1_split -> label_data_1_split_1
I1209 23:40:14.927853 12764 net.cpp:150] Setting up label_data_1_split
I1209 23:40:14.927877 12764 net.cpp:157] Top shape: 250 (250)
I1209 23:40:14.927899 12764 net.cpp:157] Top shape: 250 (250)
I1209 23:40:14.927916 12764 net.cpp:165] Memory required for data: 147459000
I1209 23:40:14.927933 12764 layer_factory.hpp:76] Creating layer conv1_a
I1209 23:40:14.927971 12764 net.cpp:106] Creating Layer conv1_a
I1209 23:40:14.927992 12764 net.cpp:454] conv1_a <- data_data_0_split_0
I1209 23:40:14.928012 12764 net.cpp:411] conv1_a -> conv1_a
I1209 23:40:14.932286 12764 cudnn_conv_layer.cpp:194] Reallocating workspace storage: 72408
I1209 23:40:14.933302 12764 net.cpp:150] Setting up conv1_a
I1209 23:40:14.933320 12764 net.cpp:157] Top shape: 250 68 30 30 (15300000)
I1209 23:40:14.933325 12764 net.cpp:165] Memory required for data: 208659000
I1209 23:40:14.933341 12764 layer_factory.hpp:76] Creating layer conv1_b
I1209 23:40:14.933358 12764 net.cpp:106] Creating Layer conv1_b
I1209 23:40:14.933367 12764 net.cpp:454] conv1_b <- data_data_0_split_1
I1209 23:40:14.933373 12764 net.cpp:411] conv1_b -> conv1_b
I1209 23:40:14.940979 12764 cudnn_conv_layer.cpp:194] Reallocating workspace storage: 72408
I1209 23:40:14.941027 12764 net.cpp:150] Setting up conv1_b
I1209 23:40:14.941038 12764 net.cpp:157] Top shape: 250 68 30 30 (15300000)
I1209 23:40:14.941042 12764 net.cpp:165] Memory required for data: 269859000
I1209 23:40:14.941057 12764 layer_factory.hpp:76] Creating layer maxout1
I1209 23:40:14.941071 12764 net.cpp:106] Creating Layer maxout1
I1209 23:40:14.941076 12764 net.cpp:454] maxout1 <- conv1_a
I1209 23:40:14.941082 12764 net.cpp:454] maxout1 <- conv1_b
I1209 23:40:14.941088 12764 net.cpp:411] maxout1 -> conv1
I1209 23:40:14.941151 12764 net.cpp:150] Setting up maxout1
I1209 23:40:14.941160 12764 net.cpp:157] Top shape: 250 68 30 30 (15300000)
I1209 23:40:14.941164 12764 net.cpp:165] Memory required for data: 331059000
I1209 23:40:14.941169 12764 layer_factory.hpp:76] Creating layer pool1
I1209 23:40:14.941179 12764 net.cpp:106] Creating Layer pool1
I1209 23:40:14.941182 12764 net.cpp:454] pool1 <- conv1
I1209 23:40:14.941189 12764 net.cpp:411] pool1 -> pool1
I1209 23:40:14.942080 12764 net.cpp:150] Setting up pool1
I1209 23:40:14.942093 12764 net.cpp:157] Top shape: 250 68 15 15 (3825000)
I1209 23:40:14.942097 12764 net.cpp:165] Memory required for data: 346359000
I1209 23:40:14.942101 12764 layer_factory.hpp:76] Creating layer pool1_pool1_0_split
I1209 23:40:14.942108 12764 net.cpp:106] Creating Layer pool1_pool1_0_split
I1209 23:40:14.942112 12764 net.cpp:454] pool1_pool1_0_split <- pool1
I1209 23:40:14.942118 12764 net.cpp:411] pool1_pool1_0_split -> pool1_pool1_0_split_0
I1209 23:40:14.942126 12764 net.cpp:411] pool1_pool1_0_split -> pool1_pool1_0_split_1
I1209 23:40:14.942181 12764 net.cpp:150] Setting up pool1_pool1_0_split
I1209 23:40:14.942189 12764 net.cpp:157] Top shape: 250 68 15 15 (3825000)
I1209 23:40:14.942194 12764 net.cpp:157] Top shape: 250 68 15 15 (3825000)
I1209 23:40:14.942198 12764 net.cpp:165] Memory required for data: 376959000
I1209 23:40:14.942203 12764 layer_factory.hpp:76] Creating layer conv2_a
I1209 23:40:14.942214 12764 net.cpp:106] Creating Layer conv2_a
I1209 23:40:14.942219 12764 net.cpp:454] conv2_a <- pool1_pool1_0_split_0
I1209 23:40:14.942227 12764 net.cpp:411] conv2_a -> conv2_a
I1209 23:40:14.955405 12764 cudnn_conv_layer.cpp:194] Reallocating workspace storage: 27096
I1209 23:40:14.955492 12764 net.cpp:150] Setting up conv2_a
I1209 23:40:14.955523 12764 net.cpp:157] Top shape: 250 182 15 15 (10237500)
I1209 23:40:14.955544 12764 net.cpp:165] Memory required for data: 417909000
I1209 23:40:14.955575 12764 layer_factory.hpp:76] Creating layer conv2_b
I1209 23:40:14.955605 12764 net.cpp:106] Creating Layer conv2_b
I1209 23:40:14.955622 12764 net.cpp:454] conv2_b <- pool1_pool1_0_split_1
I1209 23:40:14.955646 12764 net.cpp:411] conv2_b -> conv2_b
I1209 23:40:14.966555 12764 cudnn_conv_layer.cpp:194] Reallocating workspace storage: 27096
I1209 23:40:14.966637 12764 net.cpp:150] Setting up conv2_b
I1209 23:40:14.966665 12764 net.cpp:157] Top shape: 250 182 15 15 (10237500)
I1209 23:40:14.966684 12764 net.cpp:165] Memory required for data: 458859000
I1209 23:40:14.966708 12764 layer_factory.hpp:76] Creating layer maxout2
I1209 23:40:14.966732 12764 net.cpp:106] Creating Layer maxout2
I1209 23:40:14.966752 12764 net.cpp:454] maxout2 <- conv2_a
I1209 23:40:14.966769 12764 net.cpp:454] maxout2 <- conv2_b
I1209 23:40:14.966792 12764 net.cpp:411] maxout2 -> conv2
I1209 23:40:14.966877 12764 net.cpp:150] Setting up maxout2
I1209 23:40:14.966905 12764 net.cpp:157] Top shape: 250 182 15 15 (10237500)
I1209 23:40:14.966922 12764 net.cpp:165] Memory required for data: 499809000
I1209 23:40:14.966941 12764 layer_factory.hpp:76] Creating layer pool2
I1209 23:40:14.966964 12764 net.cpp:106] Creating Layer pool2
I1209 23:40:14.966982 12764 net.cpp:454] pool2 <- conv2
I1209 23:40:14.967001 12764 net.cpp:411] pool2 -> pool2
I1209 23:40:14.967875 12764 net.cpp:150] Setting up pool2
I1209 23:40:14.967916 12764 net.cpp:157] Top shape: 250 182 7 7 (2229500)
I1209 23:40:14.967936 12764 net.cpp:165] Memory required for data: 508727000
I1209 23:40:14.967978 12764 layer_factory.hpp:76] Creating layer pool2_pool2_0_split
I1209 23:40:14.967998 12764 net.cpp:106] Creating Layer pool2_pool2_0_split
I1209 23:40:14.968017 12764 net.cpp:454] pool2_pool2_0_split <- pool2
I1209 23:40:14.968039 12764 net.cpp:411] pool2_pool2_0_split -> pool2_pool2_0_split_0
I1209 23:40:14.968062 12764 net.cpp:411] pool2_pool2_0_split -> pool2_pool2_0_split_1
I1209 23:40:14.968135 12764 net.cpp:150] Setting up pool2_pool2_0_split
I1209 23:40:14.968160 12764 net.cpp:157] Top shape: 250 182 7 7 (2229500)
I1209 23:40:14.968179 12764 net.cpp:157] Top shape: 250 182 7 7 (2229500)
I1209 23:40:14.968197 12764 net.cpp:165] Memory required for data: 526563000
I1209 23:40:14.968214 12764 layer_factory.hpp:76] Creating layer conv3_a
I1209 23:40:14.968241 12764 net.cpp:106] Creating Layer conv3_a
I1209 23:40:14.968261 12764 net.cpp:454] conv3_a <- pool2_pool2_0_split_0
I1209 23:40:14.968281 12764 net.cpp:411] conv3_a -> conv3_a
I1209 23:40:14.987467 12764 cudnn_conv_layer.cpp:194] Reallocating workspace storage: 7788
I1209 23:40:14.987560 12764 net.cpp:150] Setting up conv3_a
I1209 23:40:14.987591 12764 net.cpp:157] Top shape: 250 272 7 7 (3332000)
I1209 23:40:14.987612 12764 net.cpp:165] Memory required for data: 539891000
I1209 23:40:14.987639 12764 layer_factory.hpp:76] Creating layer conv3_b
I1209 23:40:14.987666 12764 net.cpp:106] Creating Layer conv3_b
I1209 23:40:14.987685 12764 net.cpp:454] conv3_b <- pool2_pool2_0_split_1
I1209 23:40:14.987709 12764 net.cpp:411] conv3_b -> conv3_b
I1209 23:40:15.004042 12764 cudnn_conv_layer.cpp:194] Reallocating workspace storage: 7788
I1209 23:40:15.004086 12764 net.cpp:150] Setting up conv3_b
I1209 23:40:15.004097 12764 net.cpp:157] Top shape: 250 272 7 7 (3332000)
I1209 23:40:15.004101 12764 net.cpp:165] Memory required for data: 553219000
I1209 23:40:15.004112 12764 layer_factory.hpp:76] Creating layer maxout3
I1209 23:40:15.004122 12764 net.cpp:106] Creating Layer maxout3
I1209 23:40:15.004127 12764 net.cpp:454] maxout3 <- conv3_a
I1209 23:40:15.004134 12764 net.cpp:454] maxout3 <- conv3_b
I1209 23:40:15.004142 12764 net.cpp:411] maxout3 -> conv3
I1209 23:40:15.004211 12764 net.cpp:150] Setting up maxout3
I1209 23:40:15.004220 12764 net.cpp:157] Top shape: 250 272 7 7 (3332000)
I1209 23:40:15.004223 12764 net.cpp:165] Memory required for data: 566547000
I1209 23:40:15.004227 12764 layer_factory.hpp:76] Creating layer conv3_maxout3_0_split
I1209 23:40:15.004237 12764 net.cpp:106] Creating Layer conv3_maxout3_0_split
I1209 23:40:15.004242 12764 net.cpp:454] conv3_maxout3_0_split <- conv3
I1209 23:40:15.004250 12764 net.cpp:411] conv3_maxout3_0_split -> conv3_maxout3_0_split_0
I1209 23:40:15.004256 12764 net.cpp:411] conv3_maxout3_0_split -> conv3_maxout3_0_split_1
I1209 23:40:15.004313 12764 net.cpp:150] Setting up conv3_maxout3_0_split
I1209 23:40:15.004322 12764 net.cpp:157] Top shape: 250 272 7 7 (3332000)
I1209 23:40:15.004326 12764 net.cpp:157] Top shape: 250 272 7 7 (3332000)
I1209 23:40:15.004330 12764 net.cpp:165] Memory required for data: 593203000
I1209 23:40:15.004333 12764 layer_factory.hpp:76] Creating layer conv4_a
I1209 23:40:15.004344 12764 net.cpp:106] Creating Layer conv4_a
I1209 23:40:15.004348 12764 net.cpp:454] conv4_a <- conv3_maxout3_0_split_0
I1209 23:40:15.004356 12764 net.cpp:411] conv4_a -> conv4_a
I1209 23:40:15.020464 12764 cudnn_conv_layer.cpp:194] Reallocating workspace storage: 15576
I1209 23:40:15.020556 12764 net.cpp:150] Setting up conv4_a
I1209 23:40:15.020589 12764 net.cpp:157] Top shape: 250 272 7 7 (3332000)
I1209 23:40:15.020608 12764 net.cpp:165] Memory required for data: 606531000
I1209 23:40:15.020632 12764 layer_factory.hpp:76] Creating layer conv4_b
I1209 23:40:15.020659 12764 net.cpp:106] Creating Layer conv4_b
I1209 23:40:15.020678 12764 net.cpp:454] conv4_b <- conv3_maxout3_0_split_1
I1209 23:40:15.020709 12764 net.cpp:411] conv4_b -> conv4_b
I1209 23:40:15.037895 12764 cudnn_conv_layer.cpp:194] Reallocating workspace storage: 15576
I1209 23:40:15.037992 12764 net.cpp:150] Setting up conv4_b
I1209 23:40:15.038035 12764 net.cpp:157] Top shape: 250 272 7 7 (3332000)
I1209 23:40:15.038053 12764 net.cpp:165] Memory required for data: 619859000
I1209 23:40:15.038077 12764 layer_factory.hpp:76] Creating layer maxout4
I1209 23:40:15.038103 12764 net.cpp:106] Creating Layer maxout4
I1209 23:40:15.038121 12764 net.cpp:454] maxout4 <- conv4_a
I1209 23:40:15.038139 12764 net.cpp:454] maxout4 <- conv4_b
I1209 23:40:15.038161 12764 net.cpp:411] maxout4 -> conv4
I1209 23:40:15.038249 12764 net.cpp:150] Setting up maxout4
I1209 23:40:15.038274 12764 net.cpp:157] Top shape: 250 272 7 7 (3332000)
I1209 23:40:15.038290 12764 net.cpp:165] Memory required for data: 633187000
I1209 23:40:15.038305 12764 layer_factory.hpp:76] Creating layer conv4_maxout4_0_split
I1209 23:40:15.038322 12764 net.cpp:106] Creating Layer conv4_maxout4_0_split
I1209 23:40:15.038339 12764 net.cpp:454] conv4_maxout4_0_split <- conv4
I1209 23:40:15.038359 12764 net.cpp:411] conv4_maxout4_0_split -> conv4_maxout4_0_split_0
I1209 23:40:15.038380 12764 net.cpp:411] conv4_maxout4_0_split -> conv4_maxout4_0_split_1
I1209 23:40:15.038455 12764 net.cpp:150] Setting up conv4_maxout4_0_split
I1209 23:40:15.038480 12764 net.cpp:157] Top shape: 250 272 7 7 (3332000)
I1209 23:40:15.038496 12764 net.cpp:157] Top shape: 250 272 7 7 (3332000)
I1209 23:40:15.038514 12764 net.cpp:165] Memory required for data: 659843000
I1209 23:40:15.038529 12764 layer_factory.hpp:76] Creating layer conv5_a
I1209 23:40:15.038552 12764 net.cpp:106] Creating Layer conv5_a
I1209 23:40:15.038571 12764 net.cpp:454] conv5_a <- conv4_maxout4_0_split_0
I1209 23:40:15.038589 12764 net.cpp:411] conv5_a -> conv5_a
I1209 23:40:15.052763 12764 cudnn_conv_layer.cpp:194] Reallocating workspace storage: 15576
I1209 23:40:15.052876 12764 net.cpp:150] Setting up conv5_a
I1209 23:40:15.052906 12764 net.cpp:157] Top shape: 250 172 7 7 (2107000)
I1209 23:40:15.052924 12764 net.cpp:165] Memory required for data: 668271000
I1209 23:40:15.052952 12764 layer_factory.hpp:76] Creating layer conv5_b
I1209 23:40:15.052979 12764 net.cpp:106] Creating Layer conv5_b
I1209 23:40:15.052999 12764 net.cpp:454] conv5_b <- conv4_maxout4_0_split_1
I1209 23:40:15.053020 12764 net.cpp:411] conv5_b -> conv5_b
I1209 23:40:15.067272 12764 cudnn_conv_layer.cpp:194] Reallocating workspace storage: 15576
I1209 23:40:15.067371 12764 net.cpp:150] Setting up conv5_b
I1209 23:40:15.067400 12764 net.cpp:157] Top shape: 250 172 7 7 (2107000)
I1209 23:40:15.067420 12764 net.cpp:165] Memory required for data: 676699000
I1209 23:40:15.067445 12764 layer_factory.hpp:76] Creating layer maxout5
I1209 23:40:15.067471 12764 net.cpp:106] Creating Layer maxout5
I1209 23:40:15.067492 12764 net.cpp:454] maxout5 <- conv5_a
I1209 23:40:15.067512 12764 net.cpp:454] maxout5 <- conv5_b
I1209 23:40:15.067533 12764 net.cpp:411] maxout5 -> conv5
I1209 23:40:15.067622 12764 net.cpp:150] Setting up maxout5
I1209 23:40:15.067649 12764 net.cpp:157] Top shape: 250 172 7 7 (2107000)
I1209 23:40:15.067665 12764 net.cpp:165] Memory required for data: 685127000
I1209 23:40:15.067682 12764 layer_factory.hpp:76] Creating layer pool5
I1209 23:40:15.067703 12764 net.cpp:106] Creating Layer pool5
I1209 23:40:15.067721 12764 net.cpp:454] pool5 <- conv5
I1209 23:40:15.067742 12764 net.cpp:411] pool5 -> pool5
I1209 23:40:15.068668 12764 net.cpp:150] Setting up pool5
I1209 23:40:15.068711 12764 net.cpp:157] Top shape: 250 172 3 3 (387000)
I1209 23:40:15.068729 12764 net.cpp:165] Memory required for data: 686675000
I1209 23:40:15.068749 12764 layer_factory.hpp:76] Creating layer pool5_pool5_0_split
I1209 23:40:15.068770 12764 net.cpp:106] Creating Layer pool5_pool5_0_split
I1209 23:40:15.068789 12764 net.cpp:454] pool5_pool5_0_split <- pool5
I1209 23:40:15.068807 12764 net.cpp:411] pool5_pool5_0_split -> pool5_pool5_0_split_0
I1209 23:40:15.068831 12764 net.cpp:411] pool5_pool5_0_split -> pool5_pool5_0_split_1
I1209 23:40:15.068920 12764 net.cpp:150] Setting up pool5_pool5_0_split
I1209 23:40:15.068945 12764 net.cpp:157] Top shape: 250 172 3 3 (387000)
I1209 23:40:15.068974 12764 net.cpp:157] Top shape: 250 172 3 3 (387000)
I1209 23:40:15.068989 12764 net.cpp:165] Memory required for data: 689771000
I1209 23:40:15.069005 12764 layer_factory.hpp:76] Creating layer fc6_a
I1209 23:40:15.069027 12764 net.cpp:106] Creating Layer fc6_a
I1209 23:40:15.069043 12764 net.cpp:454] fc6_a <- pool5_pool5_0_split_0
I1209 23:40:15.069062 12764 net.cpp:411] fc6_a -> fc6_a
I1209 23:40:15.133081 12764 net.cpp:150] Setting up fc6_a
I1209 23:40:15.133106 12764 net.cpp:157] Top shape: 250 1448 (362000)
I1209 23:40:15.133111 12764 net.cpp:165] Memory required for data: 691219000
I1209 23:40:15.133122 12764 layer_factory.hpp:76] Creating layer fc6_b
I1209 23:40:15.133137 12764 net.cpp:106] Creating Layer fc6_b
I1209 23:40:15.133165 12764 net.cpp:454] fc6_b <- pool5_pool5_0_split_1
I1209 23:40:15.133190 12764 net.cpp:411] fc6_b -> fc6_b
I1209 23:40:15.192857 12764 net.cpp:150] Setting up fc6_b
I1209 23:40:15.192883 12764 net.cpp:157] Top shape: 250 1448 (362000)
I1209 23:40:15.192886 12764 net.cpp:165] Memory required for data: 692667000
I1209 23:40:15.192898 12764 layer_factory.hpp:76] Creating layer fc6
I1209 23:40:15.192909 12764 net.cpp:106] Creating Layer fc6
I1209 23:40:15.192914 12764 net.cpp:454] fc6 <- fc6_a
I1209 23:40:15.192920 12764 net.cpp:454] fc6 <- fc6_b
I1209 23:40:15.192926 12764 net.cpp:411] fc6 -> fc6
I1209 23:40:15.192999 12764 net.cpp:150] Setting up fc6
I1209 23:40:15.193008 12764 net.cpp:157] Top shape: 250 1448 (362000)
I1209 23:40:15.193011 12764 net.cpp:165] Memory required for data: 694115000
I1209 23:40:15.193016 12764 layer_factory.hpp:76] Creating layer drop6
I1209 23:40:15.193022 12764 net.cpp:106] Creating Layer drop6
I1209 23:40:15.193025 12764 net.cpp:454] drop6 <- fc6
I1209 23:40:15.193033 12764 net.cpp:411] drop6 -> drop6
I1209 23:40:15.193109 12764 net.cpp:150] Setting up drop6
I1209 23:40:15.193120 12764 net.cpp:157] Top shape: 250 1448 (362000)
I1209 23:40:15.193123 12764 net.cpp:165] Memory required for data: 695563000
I1209 23:40:15.193127 12764 layer_factory.hpp:76] Creating layer drop6_drop6_0_split
I1209 23:40:15.193135 12764 net.cpp:106] Creating Layer drop6_drop6_0_split
I1209 23:40:15.193155 12764 net.cpp:454] drop6_drop6_0_split <- drop6
I1209 23:40:15.193174 12764 net.cpp:411] drop6_drop6_0_split -> drop6_drop6_0_split_0
I1209 23:40:15.193197 12764 net.cpp:411] drop6_drop6_0_split -> drop6_drop6_0_split_1
I1209 23:40:15.193269 12764 net.cpp:150] Setting up drop6_drop6_0_split
I1209 23:40:15.193276 12764 net.cpp:157] Top shape: 250 1448 (362000)
I1209 23:40:15.193281 12764 net.cpp:157] Top shape: 250 1448 (362000)
I1209 23:40:15.193284 12764 net.cpp:165] Memory required for data: 698459000
I1209 23:40:15.193289 12764 layer_factory.hpp:76] Creating layer fc7_a
I1209 23:40:15.193297 12764 net.cpp:106] Creating Layer fc7_a
I1209 23:40:15.193317 12764 net.cpp:454] fc7_a <- drop6_drop6_0_split_0
I1209 23:40:15.193341 12764 net.cpp:411] fc7_a -> fc7_a
I1209 23:40:15.262583 12764 net.cpp:150] Setting up fc7_a
I1209 23:40:15.262651 12764 net.cpp:157] Top shape: 250 1448 (362000)
I1209 23:40:15.262670 12764 net.cpp:165] Memory required for data: 699907000
I1209 23:40:15.262693 12764 layer_factory.hpp:76] Creating layer fc7_b
I1209 23:40:15.262722 12764 net.cpp:106] Creating Layer fc7_b
I1209 23:40:15.262742 12764 net.cpp:454] fc7_b <- drop6_drop6_0_split_1
I1209 23:40:15.262768 12764 net.cpp:411] fc7_b -> fc7_b
I1209 23:40:15.336838 12764 net.cpp:150] Setting up fc7_b
I1209 23:40:15.336905 12764 net.cpp:157] Top shape: 250 1448 (362000)
I1209 23:40:15.336921 12764 net.cpp:165] Memory required for data: 701355000
I1209 23:40:15.336946 12764 layer_factory.hpp:76] Creating layer fc7
I1209 23:40:15.336971 12764 net.cpp:106] Creating Layer fc7
I1209 23:40:15.336992 12764 net.cpp:454] fc7 <- fc7_a
I1209 23:40:15.337013 12764 net.cpp:454] fc7 <- fc7_b
I1209 23:40:15.337033 12764 net.cpp:411] fc7 -> fc7
I1209 23:40:15.337127 12764 net.cpp:150] Setting up fc7
I1209 23:40:15.337152 12764 net.cpp:157] Top shape: 250 1448 (362000)
I1209 23:40:15.337167 12764 net.cpp:165] Memory required for data: 702803000
I1209 23:40:15.337194 12764 layer_factory.hpp:76] Creating layer drop7
I1209 23:40:15.337213 12764 net.cpp:106] Creating Layer drop7
I1209 23:40:15.337230 12764 net.cpp:454] drop7 <- fc7
I1209 23:40:15.337251 12764 net.cpp:411] drop7 -> drop7
I1209 23:40:15.337332 12764 net.cpp:150] Setting up drop7
I1209 23:40:15.337355 12764 net.cpp:157] Top shape: 250 1448 (362000)
I1209 23:40:15.337371 12764 net.cpp:165] Memory required for data: 704251000
I1209 23:40:15.337388 12764 layer_factory.hpp:76] Creating layer fc8
I1209 23:40:15.337410 12764 net.cpp:106] Creating Layer fc8
I1209 23:40:15.337429 12764 net.cpp:454] fc8 <- drop7
I1209 23:40:15.337447 12764 net.cpp:411] fc8 -> fc8
I1209 23:40:15.385032 12764 net.cpp:150] Setting up fc8
I1209 23:40:15.385102 12764 net.cpp:157] Top shape: 250 1000 (250000)
I1209 23:40:15.385120 12764 net.cpp:165] Memory required for data: 705251000
I1209 23:40:15.385144 12764 layer_factory.hpp:76] Creating layer fc8_fc8_0_split
I1209 23:40:15.385171 12764 net.cpp:106] Creating Layer fc8_fc8_0_split
I1209 23:40:15.385192 12764 net.cpp:454] fc8_fc8_0_split <- fc8
I1209 23:40:15.385215 12764 net.cpp:411] fc8_fc8_0_split -> fc8_fc8_0_split_0
I1209 23:40:15.385241 12764 net.cpp:411] fc8_fc8_0_split -> fc8_fc8_0_split_1
I1209 23:40:15.385329 12764 net.cpp:150] Setting up fc8_fc8_0_split
I1209 23:40:15.385354 12764 net.cpp:157] Top shape: 250 1000 (250000)
I1209 23:40:15.385372 12764 net.cpp:157] Top shape: 250 1000 (250000)
I1209 23:40:15.385390 12764 net.cpp:165] Memory required for data: 707251000
I1209 23:40:15.385406 12764 layer_factory.hpp:76] Creating layer accuracy
I1209 23:40:15.385431 12764 net.cpp:106] Creating Layer accuracy
I1209 23:40:15.385449 12764 net.cpp:454] accuracy <- fc8_fc8_0_split_0
I1209 23:40:15.385467 12764 net.cpp:454] accuracy <- label_data_1_split_0
I1209 23:40:15.385485 12764 net.cpp:411] accuracy -> accuracy
…
