…
      mirror: false
      crop_size: 128
      mean_value: 104
      mean_value: 117
      mean_value: 123
      force_color: true
      resize_param {
        prob: 1
        resize_mode: FIT_SMALL_SIZE
        height: 144
        width: 144
        pad_mode: MIRRORED
        pad_value: 104
        pad_value: 117
        pad_value: 124
        interp_mode: CUBIC
        center_object: false
        max_angle: 0
      }
    }
    data_param {
      source: "/home/old-ufo/datasets/imagenet/ilsvrc12_val_lmdb"
      batch_size: 250
      backend: LMDB
    }
  }
  layer {
    name: "conv1"
    type: "Convolution"
    bottom: "data"
    top: "conv1"
    param {
      lr_mult: 1
      decay_mult: 1
    }
    param {
      lr_mult: 2
      decay_mult: 0
    }
    convolution_param {
      num_output: 96
      kernel_size: 11
      stride: 4
      weight_filler {
        type: "gaussian"
        std: 0.01
      }
      bias_filler {
        type: "constant"
      }
    }
  }
  layer {
    name: "relu1"
    type: "PReLU"
    bottom: "conv1"
    top: "relu1"
    prelu_param {
      filler {
        type: "constant"
        value: 0.3
      }
      channel_shared: false
    }
  }
  layer {
    name: "pool1"
    type: "Pooling"
    bottom: "relu1"
    top: "pool1"
    pooling_param {
      pool: MAX
      kernel_size: 3
      stride: 2
    }
  }
  layer {
    name: "conv2"
    type: "Convolution"
    bottom: "pool1"
    top: "conv2"
    param {
      lr_mult: 1
      decay_mult: 1
    }
    param {
      lr_mult: 2
      decay_mult: 0
    }
    convolution_param {
      num_output: 256
      pad: 2
      kernel_size: 5
      group: 2
      weight_filler {
        type: "gaussian"
        std: 0.01
      }
      bias_filler {
        type: "constant"
      }
    }
  }
  layer {
    name: "relu2"
    type: "PReLU"
    bottom: "conv2"
    top: "relu2"
    prelu_param {
      filler {
        type: "constant"
        value: 0.3
      }
      channel_shared: false
    }
  }
  layer {
    name: "pool2"
    type: "Pooling"
    bottom: "relu2"
    top: "pool2"
    pooling_param {
      pool: MAX
      kernel_size: 3
      stride: 2
    }
  }
  layer {
    name: "conv3"
    type: "Convolution"
    bottom: "pool2"
    top: "conv3"
    param {
      lr_mult: 1
      decay_mult: 1
    }
    param {
      lr_mult: 2
      decay_mult: 0
    }
    convolution_param {
      num_output: 384
      pad: 1
      kernel_size: 3
      weight_filler {
        type: "gaussian"
        std: 0.01
      }
      bias_filler {
        type: "constant"
      }
    }
  }
  layer {
    name: "relu3"
    type: "PReLU"
    bottom: "conv3"
    top: "relu3"
    prelu_param {
      filler {
        type: "constant"
        value: 0.3
      }
      channel_shared: false
    }
  }
  layer {
    name: "conv4"
    type: "Convolution"
    bottom: "relu3"
    top: "conv4"
    param {
      lr_mult: 1
      decay_mult: 1
    }
    param {
      lr_mult: 2
      decay_mult: 0
    }
    convolution_param {
      num_output: 384
      pad: 1
      kernel_size: 3
      group: 2
      weight_filler {
        type: "gaussian"
        std: 0.01
      }
      bias_filler {
        type: "constant"
      }
    }
  }
  layer {
    name: "relu4"
    type: "PReLU"
    bottom: "conv4"
    top: "relu4"
    prelu_param {
      filler {
        type: "constant"
        value: 0.3
      }
      channel_shared: false
    }
  }
  layer {
    name: "conv5"
    type: "Convolution"
    bottom: "relu4"
    top: "conv5"
    param {
      lr_mult: 1
      decay_mult: 1
    }
    param {
      lr_mult: 2
      decay_mult: 0
    }
    convolution_param {
      num_output: 256
      pad: 1
      kernel_size: 3
      group: 2
      weight_filler {
        type: "gaussian"
        std: 0.01
      }
      bias_filler {
        type: "constant"
      }
    }
  }
  layer {
    name: "relu5"
    type: "PReLU"
    bottom: "conv5"
    top: "relu5"
    prelu_param {
      filler {
        type: "constant"
        value: 0.3
      }
      channel_shared: false
    }
  }
  layer {
    name: "pool5"
    type: "Pooling"
    bottom: "relu5"
    top: "pool5"
    pooling_param {
      pool: MAX
      kernel_size: 3
      stride: 2
    }
  }
  layer {
    name: "fc6"
    type: "InnerProduct"
    bottom: "pool5"
    top: "fc6"
    param {
      lr_mult: 1
      decay_mult: 1
    }
    param {
      lr_mult: 2
      decay_mult: 0
    }
    inner_product_param {
      num_output: 2048
      weight_filler {
        type: "gaussian"
        std: 0.005
      }
      bias_filler {
        type: "constant"
      }
    }
  }
  layer {
    name: "relu6"
    type: "PReLU"
    bottom: "fc6"
    top: "relu6"
    prelu_param {
      filler {
        type: "constant"
        value: 0.3
      }
      channel_shared: false
    }
  }
  layer {
    name: "drop6"
    type: "Dropout"
    bottom: "relu6"
    top: "drop6"
    dropout_param {
      dropout_ratio: 0.5
    }
  }
  layer {
    name: "fc7"
    type: "InnerProduct"
    bottom: "drop6"
    top: "fc7"
    param {
      lr_mult: 1
      decay_mult: 1
    }
    param {
      lr_mult: 2
      decay_mult: 0
    }
    inner_product_param {
      num_output: 2048
      weight_filler {
        type: "gaussian"
        std: 0.005
      }
      bias_filler {
        type: "constant"
      }
    }
  }
  layer {
    name: "relu7"
    type: "PReLU"
    bottom: "fc7"
    top: "relu7"
    prelu_param {
      filler {
        type: "constant"
        value: 0.3
      }
      channel_shared: false
    }
  }
  layer {
    name: "drop7"
    type: "Dropout"
    bottom: "relu7"
    top: "drop7"
    dropout_param {
      dropout_ratio: 0.5
    }
  }
  layer {
    name: "fc8"
    type: "InnerProduct"
    bottom: "drop7"
    top: "fc8"
    param {
      lr_mult: 1
      decay_mult: 1
    }
    param {
      lr_mult: 2
      decay_mult: 0
    }
    inner_product_param {
      num_output: 1000
      weight_filler {
        type: "gaussian"
        std: 0.01
      }
      bias_filler {
        type: "constant"
      }
    }
  }
  layer {
    name: "accuracy"
    type: "Accuracy"
    bottom: "fc8"
    bottom: "label"
    top: "accuracy"
    include {
      phase: TEST
    }
  }
  layer {
    name: "loss"
    type: "SoftmaxWithLoss"
    bottom: "fc8"
    bottom: "label"
    top: "loss"
  }
}
iter_size: 1
type: "SGD"
I1210 00:02:05.973399 14599 solver.cpp:85] Creating training net specified in net_param.
I1210 00:02:05.973580 14599 net.cpp:322] The NetState phase (0) differed from the phase (1) specified by a rule in layer data
I1210 00:02:05.973639 14599 net.cpp:322] The NetState phase (0) differed from the phase (1) specified by a rule in layer accuracy
I1210 00:02:05.973891 14599 net.cpp:49] Initializing net from parameters: 
name: "CaffeNet"
state {
  phase: TRAIN
}
layer {
  name: "data"
  type: "Data"
  top: "data"
  top: "label"
  include {
    phase: TRAIN
  }
  transform_param {
    scale: 0.04
    mirror: true
    crop_size: 128
    mean_value: 104
    mean_value: 117
    mean_value: 124
    force_color: true
    resize_param {
      prob: 1
      resize_mode: FIT_SMALL_SIZE
      height: 144
      width: 144
      pad_mode: MIRRORED
      pad_value: 104
      pad_value: 117
      pad_value: 124
      interp_mode: CUBIC
      center_object: false
      max_angle: 0
    }
  }
  data_param {
    source: "/home/old-ufo/datasets/imagenet/ilsvrc12_train_shuffle_lmdb"
    batch_size: 256
    backend: LMDB
  }
}
layer {
  name: "conv1"
  type: "Convolution"
  bottom: "data"
  top: "conv1"
  param {
    lr_mult: 1
    decay_mult: 1
  }
  param {
    lr_mult: 2
    decay_mult: 0
  }
  convolution_param {
    num_output: 96
    kernel_size: 11
    stride: 4
    weight_filler {
      type: "gaussian"
      std: 0.01
    }
    bias_filler {
      type: "constant"
    }
  }
}
layer {
  name: "relu1"
  type: "PReLU"
  bottom: "conv1"
  top: "relu1"
  prelu_param {
    filler {
      type: "constant"
      value: 0.3
    }
    channel_shared: false
  }
}
layer {
  name: "pool1"
  type: "Pooling"
  bottom: "relu1"
  top: "pool1"
  pooling_param {
    pool: MAX
    kernel_size: 3
    stride: 2
  }
}
layer {
  name: "conv2"
  type: "Convolution"
  bottom: "pool1"
  top: "conv2"
  param {
    lr_mult: 1
    decay_mult: 1
  }
  param {
    lr_mult: 2
    decay_mult: 0
  }
  convolution_param {
    num_output: 256
    pad: 2
    kernel_size: 5
    group: 2
    weight_filler {
      type: "gaussian"
      std: 0.01
    }
    bias_filler {
      type: "constant"
    }
  }
}
layer {
  name: "relu2"
  type: "PReLU"
  bottom: "conv2"
  top: "relu2"
  prelu_param {
    filler {
      type: "constant"
      value: 0.3
    }
    channel_shared: false
  }
}
layer {
  name: "pool2"
  type: "Pooling"
  bottom: "relu2"
  top: "pool2"
  pooling_param {
    pool: MAX
    kernel_size: 3
    stride: 2
  }
}
layer {
  name: "conv3"
  type: "Convolution"
  bottom: "pool2"
  top: "conv3"
  param {
    lr_mult: 1
    decay_mult: 1
  }
  param {
    lr_mult: 2
    decay_mult: 0
  }
  convolution_param {
    num_output: 384
    pad: 1
    kernel_size: 3
    weight_filler {
      type: "gaussian"
      std: 0.01
    }
    bias_filler {
      type: "constant"
    }
  }
}
layer {
  name: "relu3"
  type: "PReLU"
  bottom: "conv3"
  top: "relu3"
  prelu_param {
    filler {
      type: "constant"
      value: 0.3
    }
    channel_shared: false
  }
}
layer {
  name: "conv4"
  type: "Convolution"
  bottom: "relu3"
  top: "conv4"
  param {
    lr_mult: 1
    decay_mult: 1
  }
  param {
    lr_mult: 2
    decay_mult: 0
  }
  convolution_param {
    num_output: 384
    pad: 1
    kernel_size: 3
    group: 2
    weight_filler {
      type: "gaussian"
      std: 0.01
    }
    bias_filler {
      type: "constant"
    }
  }
}
layer {
  name: "relu4"
  type: "PReLU"
  bottom: "conv4"
  top: "relu4"
  prelu_param {
    filler {
      type: "constant"
      value: 0.3
    }
    channel_shared: false
  }
}
layer {
  name: "conv5"
  type: "Convolution"
  bottom: "relu4"
  top: "conv5"
  param {
    lr_mult: 1
    decay_mult: 1
  }
  param {
    lr_mult: 2
    decay_mult: 0
  }
  convolution_param {
    num_output: 256
    pad: 1
    kernel_size: 3
    group: 2
    weight_filler {
      type: "gaussian"
      std: 0.01
    }
    bias_filler {
      type: "constant"
    }
  }
}
layer {
  name: "relu5"
  type: "PReLU"
  bottom: "conv5"
  top: "relu5"
  prelu_param {
    filler {
      type: "constant"
      value: 0.3
    }
    channel_shared: false
  }
}
layer {
  name: "pool5"
  type: "Pooling"
  bottom: "relu5"
  top: "pool5"
  pooling_param {
    pool: MAX
    kernel_size: 3
    stride: 2
  }
}
layer {
  name: "fc6"
  type: "InnerProduct"
  bottom: "pool5"
  top: "fc6"
  param {
    lr_mult: 1
    decay_mult: 1
  }
  param {
    lr_mult: 2
    decay_mult: 0
  }
  inner_product_param {
    num_output: 2048
    weight_filler {
      type: "gaussian"
      std: 0.005
    }
    bias_filler {
      type: "constant"
    }
  }
}
layer {
  name: "relu6"
  type: "PReLU"
  bottom: "fc6"
  top: "relu6"
  prelu_param {
    filler {
      type: "constant"
      value: 0.3
    }
    channel_shared: false
  }
}
layer {
  name: "drop6"
  type: "Dropout"
  bottom: "relu6"
  top: "drop6"
  dropout_param {
    dropout_ratio: 0.5
  }
}
layer {
  name: "fc7"
  type: "InnerProduct"
  bottom: "drop6"
  top: "fc7"
  param {
    lr_mult: 1
    decay_mult: 1
  }
  param {
    lr_mult: 2
    decay_mult: 0
  }
  inner_product_param {
    num_output: 2048
    weight_filler {
      type: "gaussian"
      std: 0.005
    }
    bias_filler {
      type: "constant"
    }
  }
}
layer {
  name: "relu7"
  type: "PReLU"
  bottom: "fc7"
  top: "relu7"
  prelu_param {
    filler {
      type: "constant"
      value: 0.3
    }
    channel_shared: false
  }
}
layer {
  name: "drop7"
  type: "Dropout"
  bottom: "relu7"
  top: "drop7"
  dropout_param {
    dropout_ratio: 0.5
  }
}
layer {
  name: "fc8"
  type: "InnerProduct"
  bottom: "drop7"
  top: "fc8"
  param {
    lr_mult: 1
    decay_mult: 1
  }
  param {
    lr_mult: 2
    decay_mult: 0
  }
  inner_product_param {
    num_output: 1000
    weight_filler {
      type: "gaussian"
      std: 0.01
    }
    bias_filler {
      type: "constant"
    }
  }
}
layer {
  name: "loss"
  type: "SoftmaxWithLoss"
  bottom: "fc8"
  bottom: "label"
  top: "loss"
}
I1210 00:02:05.974030 14599 layer_factory.hpp:76] Creating layer data
I1210 00:02:05.974830 14599 net.cpp:106] Creating Layer data
I1210 00:02:05.974859 14599 net.cpp:411] data -> data
I1210 00:02:05.974902 14599 net.cpp:411] data -> label
I1210 00:02:05.976637 14603 db_lmdb.cpp:38] Opened lmdb /home/old-ufo/datasets/imagenet/ilsvrc12_train_shuffle_lmdb
I1210 00:02:06.038094 14599 data_layer.cpp:41] output data size: 256,3,128,128
I1210 00:02:06.135799 14599 net.cpp:150] Setting up data
I1210 00:02:06.135892 14599 net.cpp:157] Top shape: 256 3 128 128 (12582912)
I1210 00:02:06.135990 14599 net.cpp:157] Top shape: 256 (256)
I1210 00:02:06.136021 14599 net.cpp:165] Memory required for data: 50332672
I1210 00:02:06.136056 14599 layer_factory.hpp:76] Creating layer conv1
I1210 00:02:06.136097 14599 net.cpp:106] Creating Layer conv1
I1210 00:02:06.136129 14599 net.cpp:454] conv1 <- data
I1210 00:02:06.136173 14599 net.cpp:411] conv1 -> conv1
I1210 00:02:06.573700 14599 cudnn_conv_layer.cpp:194] Reallocating workspace storage: 72408
I1210 00:02:06.575337 14599 net.cpp:150] Setting up conv1
I1210 00:02:06.575439 14599 net.cpp:157] Top shape: 256 96 30 30 (22118400)
I1210 00:02:06.575480 14599 net.cpp:165] Memory required for data: 138806272
I1210 00:02:06.575534 14599 layer_factory.hpp:76] Creating layer relu1
I1210 00:02:06.575583 14599 net.cpp:106] Creating Layer relu1
I1210 00:02:06.575620 14599 net.cpp:454] relu1 <- conv1
I1210 00:02:06.575656 14599 net.cpp:411] relu1 -> relu1
I1210 00:02:06.577567 14599 net.cpp:150] Setting up relu1
I1210 00:02:06.577641 14599 net.cpp:157] Top shape: 256 96 30 30 (22118400)
I1210 00:02:06.577677 14599 net.cpp:165] Memory required for data: 227279872
I1210 00:02:06.577714 14599 layer_factory.hpp:76] Creating layer pool1
I1210 00:02:06.577751 14599 net.cpp:106] Creating Layer pool1
I1210 00:02:06.577785 14599 net.cpp:454] pool1 <- relu1
I1210 00:02:06.577816 14599 net.cpp:411] pool1 -> pool1
I1210 00:02:06.579934 14599 net.cpp:150] Setting up pool1
I1210 00:02:06.580042 14599 net.cpp:157] Top shape: 256 96 15 15 (5529600)
I1210 00:02:06.580081 14599 net.cpp:165] Memory required for data: 249398272
I1210 00:02:06.580114 14599 layer_factory.hpp:76] Creating layer conv2
I1210 00:02:06.580165 14599 net.cpp:106] Creating Layer conv2
I1210 00:02:06.580282 14599 net.cpp:454] conv2 <- pool1
I1210 00:02:06.580329 14599 net.cpp:411] conv2 -> conv2
I1210 00:02:06.619665 14599 cudnn_conv_layer.cpp:194] Reallocating workspace storage: 27096
I1210 00:02:06.620825 14599 net.cpp:150] Setting up conv2
I1210 00:02:06.620993 14599 net.cpp:157] Top shape: 256 256 15 15 (14745600)
I1210 00:02:06.622041 14599 net.cpp:165] Memory required for data: 308380672
I1210 00:02:06.622122 14599 layer_factory.hpp:76] Creating layer relu2
I1210 00:02:06.622172 14599 net.cpp:106] Creating Layer relu2
I1210 00:02:06.622208 14599 net.cpp:454] relu2 <- conv2
I1210 00:02:06.622244 14599 net.cpp:411] relu2 -> relu2
I1210 00:02:06.622495 14599 net.cpp:150] Setting up relu2
I1210 00:02:06.622537 14599 net.cpp:157] Top shape: 256 256 15 15 (14745600)
I1210 00:02:06.622567 14599 net.cpp:165] Memory required for data: 367363072
I1210 00:02:06.622598 14599 layer_factory.hpp:76] Creating layer pool2
I1210 00:02:06.622632 14599 net.cpp:106] Creating Layer pool2
I1210 00:02:06.622659 14599 net.cpp:454] pool2 <- relu2
I1210 00:02:06.622689 14599 net.cpp:411] pool2 -> pool2
I1210 00:02:06.624517 14599 net.cpp:150] Setting up pool2
I1210 00:02:06.624618 14599 net.cpp:157] Top shape: 256 256 7 7 (3211264)
I1210 00:02:06.624661 14599 net.cpp:165] Memory required for data: 380208128
I1210 00:02:06.625095 14599 layer_factory.hpp:76] Creating layer conv3
I1210 00:02:06.625159 14599 net.cpp:106] Creating Layer conv3
I1210 00:02:06.625195 14599 net.cpp:454] conv3 <- pool2
I1210 00:02:06.625233 14599 net.cpp:411] conv3 -> conv3
I1210 00:02:06.713676 14599 cudnn_conv_layer.cpp:194] Reallocating workspace storage: 7788
I1210 00:02:06.714504 14599 net.cpp:150] Setting up conv3
I1210 00:02:06.714530 14599 net.cpp:157] Top shape: 256 384 7 7 (4816896)
I1210 00:02:06.714540 14599 net.cpp:165] Memory required for data: 399475712
I1210 00:02:06.714558 14599 layer_factory.hpp:76] Creating layer relu3
I1210 00:02:06.714576 14599 net.cpp:106] Creating Layer relu3
I1210 00:02:06.714587 14599 net.cpp:454] relu3 <- conv3
I1210 00:02:06.714601 14599 net.cpp:411] relu3 -> relu3
I1210 00:02:06.714725 14599 net.cpp:150] Setting up relu3
I1210 00:02:06.714742 14599 net.cpp:157] Top shape: 256 384 7 7 (4816896)
I1210 00:02:06.714751 14599 net.cpp:165] Memory required for data: 418743296
I1210 00:02:06.714766 14599 layer_factory.hpp:76] Creating layer conv4
I1210 00:02:06.714783 14599 net.cpp:106] Creating Layer conv4
I1210 00:02:06.714793 14599 net.cpp:454] conv4 <- relu3
I1210 00:02:06.714805 14599 net.cpp:411] conv4 -> conv4
I1210 00:02:06.783819 14599 cudnn_conv_layer.cpp:194] Reallocating workspace storage: 15576
I1210 00:02:06.783888 14599 net.cpp:150] Setting up conv4
I1210 00:02:06.783906 14599 net.cpp:157] Top shape: 256 384 7 7 (4816896)
I1210 00:02:06.783916 14599 net.cpp:165] Memory required for data: 438010880
I1210 00:02:06.783933 14599 layer_factory.hpp:76] Creating layer relu4
I1210 00:02:06.783963 14599 net.cpp:106] Creating Layer relu4
I1210 00:02:06.784145 14599 net.cpp:454] relu4 <- conv4
I1210 00:02:06.784164 14599 net.cpp:411] relu4 -> relu4
I1210 00:02:06.784291 14599 net.cpp:150] Setting up relu4
I1210 00:02:06.784642 14599 net.cpp:157] Top shape: 256 384 7 7 (4816896)
I1210 00:02:06.784657 14599 net.cpp:165] Memory required for data: 457278464
I1210 00:02:06.784668 14599 layer_factory.hpp:76] Creating layer conv5
I1210 00:02:06.784685 14599 net.cpp:106] Creating Layer conv5
I1210 00:02:06.784695 14599 net.cpp:454] conv5 <- relu4
I1210 00:02:06.784708 14599 net.cpp:411] conv5 -> conv5
I1210 00:02:06.837925 14599 cudnn_conv_layer.cpp:194] Reallocating workspace storage: 15576
I1210 00:02:06.837986 14599 net.cpp:150] Setting up conv5
I1210 00:02:06.838001 14599 net.cpp:157] Top shape: 256 256 7 7 (3211264)
I1210 00:02:06.838006 14599 net.cpp:165] Memory required for data: 470123520
I1210 00:02:06.838021 14599 layer_factory.hpp:76] Creating layer relu5
I1210 00:02:06.838032 14599 net.cpp:106] Creating Layer relu5
I1210 00:02:06.838040 14599 net.cpp:454] relu5 <- conv5
I1210 00:02:06.838049 14599 net.cpp:411] relu5 -> relu5
I1210 00:02:06.839607 14599 net.cpp:150] Setting up relu5
I1210 00:02:06.839655 14599 net.cpp:157] Top shape: 256 256 7 7 (3211264)
I1210 00:02:06.839661 14599 net.cpp:165] Memory required for data: 482968576
I1210 00:02:06.839674 14599 layer_factory.hpp:76] Creating layer pool5
I1210 00:02:06.839686 14599 net.cpp:106] Creating Layer pool5
I1210 00:02:06.839694 14599 net.cpp:454] pool5 <- relu5
I1210 00:02:06.839704 14599 net.cpp:411] pool5 -> pool5
I1210 00:02:06.840569 14599 net.cpp:150] Setting up pool5
I1210 00:02:06.840584 14599 net.cpp:157] Top shape: 256 256 3 3 (589824)
I1210 00:02:06.840590 14599 net.cpp:165] Memory required for data: 485327872
I1210 00:02:06.840596 14599 layer_factory.hpp:76] Creating layer fc6
I1210 00:02:06.840613 14599 net.cpp:106] Creating Layer fc6
I1210 00:02:06.840620 14599 net.cpp:454] fc6 <- pool5
I1210 00:02:06.840629 14599 net.cpp:411] fc6 -> fc6
I1210 00:02:07.222270 14599 net.cpp:150] Setting up fc6
I1210 00:02:07.222354 14599 net.cpp:157] Top shape: 256 2048 (524288)
I1210 00:02:07.222373 14599 net.cpp:165] Memory required for data: 487425024
I1210 00:02:07.222409 14599 layer_factory.hpp:76] Creating layer relu6
I1210 00:02:07.222439 14599 net.cpp:106] Creating Layer relu6
I1210 00:02:07.222815 14599 net.cpp:454] relu6 <- fc6
I1210 00:02:07.222944 14599 net.cpp:411] relu6 -> relu6
I1210 00:02:07.223127 14599 net.cpp:150] Setting up relu6
I1210 00:02:07.223148 14599 net.cpp:157] Top shape: 256 2048 (524288)
I1210 00:02:07.223160 14599 net.cpp:165] Memory required for data: 489522176
I1210 00:02:07.223175 14599 layer_factory.hpp:76] Creating layer drop6
I1210 00:02:07.223197 14599 net.cpp:106] Creating Layer drop6
I1210 00:02:07.223209 14599 net.cpp:454] drop6 <- relu6
I1210 00:02:07.223223 14599 net.cpp:411] drop6 -> drop6
I1210 00:02:07.223296 14599 net.cpp:150] Setting up drop6
I1210 00:02:07.223922 14599 net.cpp:157] Top shape: 256 2048 (524288)
I1210 00:02:07.223937 14599 net.cpp:165] Memory required for data: 491619328
I1210 00:02:07.223970 14599 layer_factory.hpp:76] Creating layer fc7
I1210 00:02:07.223989 14599 net.cpp:106] Creating Layer fc7
I1210 00:02:07.223999 14599 net.cpp:454] fc7 <- drop6
I1210 00:02:07.224012 14599 net.cpp:411] fc7 -> fc7
I1210 00:02:07.537035 14599 net.cpp:150] Setting up fc7
I1210 00:02:07.539878 14599 net.cpp:157] Top shape: 256 2048 (524288)
I1210 00:02:07.539914 14599 net.cpp:165] Memory required for data: 493716480
I1210 00:02:07.539935 14599 layer_factory.hpp:76] Creating layer relu7
I1210 00:02:07.539963 14599 net.cpp:106] Creating Layer relu7
I1210 00:02:07.539978 14599 net.cpp:454] relu7 <- fc7
I1210 00:02:07.539993 14599 net.cpp:411] relu7 -> relu7
I1210 00:02:07.540159 14599 net.cpp:150] Setting up relu7
I1210 00:02:07.540179 14599 net.cpp:157] Top shape: 256 2048 (524288)
I1210 00:02:07.540187 14599 net.cpp:165] Memory required for data: 495813632
I1210 00:02:07.540199 14599 layer_factory.hpp:76] Creating layer drop7
I1210 00:02:07.540213 14599 net.cpp:106] Creating Layer drop7
I1210 00:02:07.540223 14599 net.cpp:454] drop7 <- relu7
I1210 00:02:07.540235 14599 net.cpp:411] drop7 -> drop7
I1210 00:02:07.540285 14599 net.cpp:150] Setting up drop7
I1210 00:02:07.540299 14599 net.cpp:157] Top shape: 256 2048 (524288)
I1210 00:02:07.540308 14599 net.cpp:165] Memory required for data: 497910784
I1210 00:02:07.540318 14599 layer_factory.hpp:76] Creating layer fc8
I1210 00:02:07.540333 14599 net.cpp:106] Creating Layer fc8
I1210 00:02:07.540343 14599 net.cpp:454] fc8 <- drop7
I1210 00:02:07.540354 14599 net.cpp:411] fc8 -> fc8
I1210 00:02:07.687150 14599 net.cpp:150] Setting up fc8
I1210 00:02:07.687209 14599 net.cpp:157] Top shape: 256 1000 (256000)
I1210 00:02:07.687224 14599 net.cpp:165] Memory required for data: 498934784
I1210 00:02:07.687244 14599 layer_factory.hpp:76] Creating layer loss
I1210 00:02:07.687263 14599 net.cpp:106] Creating Layer loss
I1210 00:02:07.687275 14599 net.cpp:454] loss <- fc8
I1210 00:02:07.687289 14599 net.cpp:454] loss <- label
I1210 00:02:07.687314 14599 net.cpp:411] loss -> loss
I1210 00:02:07.687336 14599 layer_factory.hpp:76] Creating layer loss
…
    phase: TEST
  }
  transform_param {
    scale: 0.04
    mirror: false
    crop_size: 128
    mean_value: 104
    mean_value: 117
    mean_value: 123
    force_color: true
    resize_param {
      prob: 1
      resize_mode: FIT_SMALL_SIZE
      height: 144
      width: 144
      pad_mode: MIRRORED
      pad_value: 104
      pad_value: 117
      pad_value: 124
      interp_mode: CUBIC
      center_object: false
      max_angle: 0
    }
  }
  data_param {
    source: "/home/old-ufo/datasets/imagenet/ilsvrc12_val_lmdb"
    batch_size: 250
    backend: LMDB
  }
}
layer {
  name: "conv1"
  type: "Convolution"
  bottom: "data"
  top: "conv1"
  param {
    lr_mult: 1
    decay_mult: 1
  }
  param {
    lr_mult: 2
    decay_mult: 0
  }
  convolution_param {
    num_output: 96
    kernel_size: 11
    stride: 4
    weight_filler {
      type: "gaussian"
      std: 0.01
    }
    bias_filler {
      type: "constant"
    }
  }
}
layer {
  name: "relu1"
  type: "PReLU"
  bottom: "conv1"
  top: "relu1"
  prelu_param {
    filler {
      type: "constant"
      value: 0.3
    }
    channel_shared: false
  }
}
layer {
  name: "pool1"
  type: "Pooling"
  bottom: "relu1"
  top: "pool1"
  pooling_param {
    pool: MAX
    kernel_size: 3
    stride: 2
  }
}
layer {
  name: "conv2"
  type: "Convolution"
  bottom: "pool1"
  top: "conv2"
  param {
    lr_mult: 1
    decay_mult: 1
  }
  param {
    lr_mult: 2
    decay_mult: 0
  }
  convolution_param {
    num_output: 256
    pad: 2
    kernel_size: 5
    group: 2
    weight_filler {
      type: "gaussian"
      std: 0.01
    }
    bias_filler {
      type: "constant"
    }
  }
}
layer {
  name: "relu2"
  type: "PReLU"
  bottom: "conv2"
  top: "relu2"
  prelu_param {
    filler {
      type: "constant"
      value: 0.3
    }
    channel_shared: false
  }
}
layer {
  name: "pool2"
  type: "Pooling"
  bottom: "relu2"
  top: "pool2"
  pooling_param {
    pool: MAX
    kernel_size: 3
    stride: 2
  }
}
layer {
  name: "conv3"
  type: "Convolution"
  bottom: "pool2"
  top: "conv3"
  param {
    lr_mult: 1
    decay_mult: 1
  }
  param {
    lr_mult: 2
    decay_mult: 0
  }
  convolution_param {
    num_output: 384
    pad: 1
    kernel_size: 3
    weight_filler {
      type: "gaussian"
      std: 0.01
    }
    bias_filler {
      type: "constant"
    }
  }
}
layer {
  name: "relu3"
  type: "PReLU"
  bottom: "conv3"
  top: "relu3"
  prelu_param {
    filler {
      type: "constant"
      value: 0.3
    }
    channel_shared: false
  }
}
layer {
  name: "conv4"
  type: "Convolution"
  bottom: "relu3"
  top: "conv4"
  param {
    lr_mult: 1
    decay_mult: 1
  }
  param {
    lr_mult: 2
    decay_mult: 0
  }
  convolution_param {
    num_output: 384
    pad: 1
    kernel_size: 3
    group: 2
    weight_filler {
      type: "gaussian"
      std: 0.01
    }
    bias_filler {
      type: "constant"
    }
  }
}
layer {
  name: "relu4"
  type: "PReLU"
  bottom: "conv4"
  top: "relu4"
  prelu_param {
    filler {
      type: "constant"
      value: 0.3
    }
    channel_shared: false
  }
}
layer {
  name: "conv5"
  type: "Convolution"
  bottom: "relu4"
  top: "conv5"
  param {
    lr_mult: 1
    decay_mult: 1
  }
  param {
    lr_mult: 2
    decay_mult: 0
  }
  convolution_param {
    num_output: 256
    pad: 1
    kernel_size: 3
    group: 2
    weight_filler {
      type: "gaussian"
      std: 0.01
    }
    bias_filler {
      type: "constant"
    }
  }
}
layer {
  name: "relu5"
  type: "PReLU"
  bottom: "conv5"
  top: "relu5"
  prelu_param {
    filler {
      type: "constant"
      value: 0.3
    }
    channel_shared: false
  }
}
layer {
  name: "pool5"
  type: "Pooling"
  bottom: "relu5"
  top: "pool5"
  pooling_param {
    pool: MAX
    kernel_size: 3
    stride: 2
  }
}
layer {
  name: "fc6"
  type: "InnerProduct"
  bottom: "pool5"
  top: "fc6"
  param {
    lr_mult: 1
    decay_mult: 1
  }
  param {
    lr_mult: 2
    decay_mult: 0
  }
  inner_product_param {
    num_output: 2048
    weight_filler {
      type: "gaussian"
      std: 0.005
    }
    bias_filler {
      type: "constant"
    }
  }
}
layer {
  name: "relu6"
  type: "PReLU"
  bottom: "fc6"
  top: "relu6"
  prelu_param {
    filler {
      type: "constant"
      value: 0.3
    }
    channel_shared: false
  }
}
layer {
  name: "drop6"
  type: "Dropout"
  bottom: "relu6"
  top: "drop6"
  dropout_param {
    dropout_ratio: 0.5
  }
}
layer {
  name: "fc7"
  type: "InnerProduct"
  bottom: "drop6"
  top: "fc7"
  param {
    lr_mult: 1
    decay_mult: 1
  }
  param {
    lr_mult: 2
    decay_mult: 0
  }
  inner_product_param {
    num_output: 2048
    weight_filler {
      type: "gaussian"
      std: 0.005
    }
    bias_filler {
      type: "constant"
    }
  }
}
layer {
  name: "relu7"
  type: "PReLU"
  bottom: "fc7"
  top: "relu7"
  prelu_param {
    filler {
      type: "constant"
      value: 0.3
    }
    channel_shared: false
  }
}
layer {
  name: "drop7"
  type: "Dropout"
  bottom: "relu7"
  top: "drop7"
  dropout_param {
    dropout_ratio: 0.5
  }
}
layer {
  name: "fc8"
  type: "InnerProduct"
  bottom: "drop7"
  top: "fc8"
  param {
    lr_mult: 1
    decay_mult: 1
  }
  param {
    lr_mult: 2
    decay_mult: 0
  }
  inner_product_param {
    num_output: 1000
    weight_filler {
      type: "gaussian"
      std: 0.01
    }
    bias_filler {
      type: "constant"
    }
  }
}
layer {
  name: "accuracy"
  type: "Accuracy"
  bottom: "fc8"
  bottom: "label"
  top: "accuracy"
  include {
    phase: TEST
  }
}
layer {
  name: "loss"
  type: "SoftmaxWithLoss"
  bottom: "fc8"
  bottom: "label"
  top: "loss"
}
I1210 00:02:07.692908 14599 layer_factory.hpp:76] Creating layer data
I1210 00:02:07.693120 14599 net.cpp:106] Creating Layer data
I1210 00:02:07.694862 14599 net.cpp:411] data -> data
I1210 00:02:07.694903 14599 net.cpp:411] data -> label
I1210 00:02:07.703455 14613 db_lmdb.cpp:38] Opened lmdb /home/old-ufo/datasets/imagenet/ilsvrc12_val_lmdb
I1210 00:02:07.716959 14599 data_layer.cpp:41] output data size: 250,3,128,128
I1210 00:02:07.859624 14599 net.cpp:150] Setting up data
I1210 00:02:07.859735 14599 net.cpp:157] Top shape: 250 3 128 128 (12288000)
I1210 00:02:07.859769 14599 net.cpp:157] Top shape: 250 (250)
I1210 00:02:07.859797 14599 net.cpp:165] Memory required for data: 49153000
I1210 00:02:07.859827 14599 layer_factory.hpp:76] Creating layer label_data_1_split
I1210 00:02:07.859861 14599 net.cpp:106] Creating Layer label_data_1_split
I1210 00:02:07.859889 14599 net.cpp:454] label_data_1_split <- label
I1210 00:02:07.859920 14599 net.cpp:411] label_data_1_split -> label_data_1_split_0
I1210 00:02:07.859961 14599 net.cpp:411] label_data_1_split -> label_data_1_split_1
I1210 00:02:07.860056 14599 net.cpp:150] Setting up label_data_1_split
I1210 00:02:07.860093 14599 net.cpp:157] Top shape: 250 (250)
I1210 00:02:07.860123 14599 net.cpp:157] Top shape: 250 (250)
I1210 00:02:07.860151 14599 net.cpp:165] Memory required for data: 49155000
I1210 00:02:07.860180 14599 layer_factory.hpp:76] Creating layer conv1
I1210 00:02:07.860221 14599 net.cpp:106] Creating Layer conv1
I1210 00:02:07.860260 14599 net.cpp:454] conv1 <- data
I1210 00:02:07.860296 14599 net.cpp:411] conv1 -> conv1
I1210 00:02:07.863965 14599 cudnn_conv_layer.cpp:194] Reallocating workspace storage: 72408
I1210 00:02:07.864094 14599 net.cpp:150] Setting up conv1
I1210 00:02:07.864132 14599 net.cpp:157] Top shape: 250 96 30 30 (21600000)
I1210 00:02:07.864161 14599 net.cpp:165] Memory required for data: 135555000
I1210 00:02:07.864199 14599 layer_factory.hpp:76] Creating layer relu1
I1210 00:02:07.864234 14599 net.cpp:106] Creating Layer relu1
I1210 00:02:07.864264 14599 net.cpp:454] relu1 <- conv1
I1210 00:02:07.864295 14599 net.cpp:411] relu1 -> relu1
I1210 00:02:07.864512 14599 net.cpp:150] Setting up relu1
I1210 00:02:07.864550 14599 net.cpp:157] Top shape: 250 96 30 30 (21600000)
I1210 00:02:07.864578 14599 net.cpp:165] Memory required for data: 221955000
I1210 00:02:07.864610 14599 layer_factory.hpp:76] Creating layer pool1
I1210 00:02:07.864644 14599 net.cpp:106] Creating Layer pool1
I1210 00:02:07.864671 14599 net.cpp:454] pool1 <- relu1
I1210 00:02:07.864701 14599 net.cpp:411] pool1 -> pool1
I1210 00:02:07.865473 14599 net.cpp:150] Setting up pool1
I1210 00:02:07.865520 14599 net.cpp:157] Top shape: 250 96 15 15 (5400000)
I1210 00:02:07.865550 14599 net.cpp:165] Memory required for data: 243555000
I1210 00:02:07.865578 14599 layer_factory.hpp:76] Creating layer conv2
I1210 00:02:07.865614 14599 net.cpp:106] Creating Layer conv2
I1210 00:02:07.865643 14599 net.cpp:454] conv2 <- pool1
I1210 00:02:07.865674 14599 net.cpp:411] conv2 -> conv2
I1210 00:02:07.894433 14599 cudnn_conv_layer.cpp:194] Reallocating workspace storage: 27096
I1210 00:02:07.894556 14599 net.cpp:150] Setting up conv2
I1210 00:02:07.894595 14599 net.cpp:157] Top shape: 250 256 15 15 (14400000)
I1210 00:02:07.894624 14599 net.cpp:165] Memory required for data: 301155000
I1210 00:02:07.894662 14599 layer_factory.hpp:76] Creating layer relu2
I1210 00:02:07.894700 14599 net.cpp:106] Creating Layer relu2
I1210 00:02:07.894729 14599 net.cpp:454] relu2 <- conv2
I1210 00:02:07.894762 14599 net.cpp:411] relu2 -> relu2
I1210 00:02:07.894963 14599 net.cpp:150] Setting up relu2
I1210 00:02:07.895001 14599 net.cpp:157] Top shape: 250 256 15 15 (14400000)
I1210 00:02:07.895030 14599 net.cpp:165] Memory required for data: 358755000
I1210 00:02:07.895061 14599 layer_factory.hpp:76] Creating layer pool2
I1210 00:02:07.895092 14599 net.cpp:106] Creating Layer pool2
I1210 00:02:07.895120 14599 net.cpp:454] pool2 <- relu2
I1210 00:02:07.895149 14599 net.cpp:411] pool2 -> pool2
I1210 00:02:07.895951 14599 net.cpp:150] Setting up pool2
I1210 00:02:07.896001 14599 net.cpp:157] Top shape: 250 256 7 7 (3136000)
I1210 00:02:07.896034 14599 net.cpp:165] Memory required for data: 371299000
I1210 00:02:07.896076 14599 layer_factory.hpp:76] Creating layer conv3
I1210 00:02:07.896113 14599 net.cpp:106] Creating Layer conv3
I1210 00:02:07.896155 14599 net.cpp:454] conv3 <- pool2
I1210 00:02:07.896188 14599 net.cpp:411] conv3 -> conv3
I1210 00:02:07.961475 14599 cudnn_conv_layer.cpp:194] Reallocating workspace storage: 7788
I1210 00:02:07.961607 14599 net.cpp:150] Setting up conv3
I1210 00:02:07.961647 14599 net.cpp:157] Top shape: 250 384 7 7 (4704000)
I1210 00:02:07.961676 14599 net.cpp:165] Memory required for data: 390115000
I1210 00:02:07.961711 14599 layer_factory.hpp:76] Creating layer relu3
I1210 00:02:07.961750 14599 net.cpp:106] Creating Layer relu3
I1210 00:02:07.961781 14599 net.cpp:454] relu3 <- conv3
I1210 00:02:07.961814 14599 net.cpp:411] relu3 -> relu3
I1210 00:02:07.961982 14599 net.cpp:150] Setting up relu3
I1210 00:02:07.962018 14599 net.cpp:157] Top shape: 250 384 7 7 (4704000)
I1210 00:02:07.962046 14599 net.cpp:165] Memory required for data: 408931000
I1210 00:02:07.962080 14599 layer_factory.hpp:76] Creating layer conv4
I1210 00:02:07.962116 14599 net.cpp:106] Creating Layer conv4
I1210 00:02:07.962144 14599 net.cpp:454] conv4 <- relu3
I1210 00:02:07.962175 14599 net.cpp:411] conv4 -> conv4
I1210 00:02:08.003576 14599 cudnn_conv_layer.cpp:194] Reallocating workspace storage: 15576
I1210 00:02:08.003716 14599 net.cpp:150] Setting up conv4
I1210 00:02:08.003756 14599 net.cpp:157] Top shape: 250 384 7 7 (4704000)
I1210 00:02:08.003785 14599 net.cpp:165] Memory required for data: 427747000
I1210 00:02:08.003820 14599 layer_factory.hpp:76] Creating layer relu4
I1210 00:02:08.003859 14599 net.cpp:106] Creating Layer relu4
I1210 00:02:08.003890 14599 net.cpp:454] relu4 <- conv4
I1210 00:02:08.003923 14599 net.cpp:411] relu4 -> relu4
I1210 00:02:08.004115 14599 net.cpp:150] Setting up relu4
I1210 00:02:08.004158 14599 net.cpp:157] Top shape: 250 384 7 7 (4704000)
I1210 00:02:08.004186 14599 net.cpp:165] Memory required for data: 446563000
I1210 00:02:08.004215 14599 layer_factory.hpp:76] Creating layer conv5
I1210 00:02:08.004251 14599 net.cpp:106] Creating Layer conv5
I1210 00:02:08.004281 14599 net.cpp:454] conv5 <- relu4
I1210 00:02:08.004312 14599 net.cpp:411] conv5 -> conv5
I1210 00:02:08.047253 14599 cudnn_conv_layer.cpp:194] Reallocating workspace storage: 15576
I1210 00:02:08.047665 14599 net.cpp:150] Setting up conv5
I1210 00:02:08.047710 14599 net.cpp:157] Top shape: 250 256 7 7 (3136000)
I1210 00:02:08.047740 14599 net.cpp:165] Memory required for data: 459107000
I1210 00:02:08.047776 14599 layer_factory.hpp:76] Creating layer relu5
I1210 00:02:08.047812 14599 net.cpp:106] Creating Layer relu5
I1210 00:02:08.047842 14599 net.cpp:454] relu5 <- conv5
I1210 00:02:08.047875 14599 net.cpp:411] relu5 -> relu5
I1210 00:02:08.048048 14599 net.cpp:150] Setting up relu5
I1210 00:02:08.048089 14599 net.cpp:157] Top shape: 250 256 7 7 (3136000)
I1210 00:02:08.048120 14599 net.cpp:165] Memory required for data: 471651000
I1210 00:02:08.048149 14599 layer_factory.hpp:76] Creating layer pool5
I1210 00:02:08.048180 14599 net.cpp:106] Creating Layer pool5
I1210 00:02:08.048208 14599 net.cpp:454] pool5 <- relu5
I1210 00:02:08.048238 14599 net.cpp:411] pool5 -> pool5
I1210 00:02:08.049163 14599 net.cpp:150] Setting up pool5
I1210 00:02:08.049218 14599 net.cpp:157] Top shape: 250 256 3 3 (576000)
I1210 00:02:08.049249 14599 net.cpp:165] Memory required for data: 473955000
I1210 00:02:08.049278 14599 layer_factory.hpp:76] Creating layer fc6
I1210 00:02:08.049317 14599 net.cpp:106] Creating Layer fc6
I1210 00:02:08.049347 14599 net.cpp:454] fc6 <- pool5
I1210 00:02:08.049378 14599 net.cpp:411] fc6 -> fc6
I1210 00:02:08.445899 14599 net.cpp:150] Setting up fc6
I1210 00:02:08.446030 14599 net.cpp:157] Top shape: 250 2048 (512000)
I1210 00:02:08.446069 14599 net.cpp:165] Memory required for data: 476003000
I1210 00:02:08.446127 14599 layer_factory.hpp:76] Creating layer relu6
I1210 00:02:08.446174 14599 net.cpp:106] Creating Layer relu6
I1210 00:02:08.446213 14599 net.cpp:454] relu6 <- fc6
I1210 00:02:08.446264 14599 net.cpp:411] relu6 -> relu6
I1210 00:02:08.446426 14599 net.cpp:150] Setting up relu6
I1210 00:02:08.446471 14599 net.cpp:157] Top shape: 250 2048 (512000)
I1210 00:02:08.446504 14599 net.cpp:165] Memory required for data: 478051000
I1210 00:02:08.446542 14599 layer_factory.hpp:76] Creating layer drop6
I1210 00:02:08.446581 14599 net.cpp:106] Creating Layer drop6
I1210 00:02:08.446614 14599 net.cpp:454] drop6 <- relu6
I1210 00:02:08.446651 14599 net.cpp:411] drop6 -> drop6
I1210 00:02:08.446738 14599 net.cpp:150] Setting up drop6
I1210 00:02:08.446779 14599 net.cpp:157] Top shape: 250 2048 (512000)
I1210 00:02:08.446813 14599 net.cpp:165] Memory required for data: 480099000
I1210 00:02:08.446846 14599 layer_factory.hpp:76] Creating layer fc7
I1210 00:02:08.446885 14599 net.cpp:106] Creating Layer fc7
I1210 00:02:08.446921 14599 net.cpp:454] fc7 <- drop6
I1210 00:02:08.446959 14599 net.cpp:411] fc7 -> fc7
I1210 00:02:08.675938 14599 net.cpp:150] Setting up fc7
I1210 00:02:08.676018 14599 net.cpp:157] Top shape: 250 2048 (512000)
I1210 00:02:08.676036 14599 net.cpp:165] Memory required for data: 482147000
I1210 00:02:08.676057 14599 layer_factory.hpp:76] Creating layer relu7
I1210 00:02:08.676076 14599 net.cpp:106] Creating Layer relu7
I1210 00:02:08.676090 14599 net.cpp:454] relu7 <- fc7
I1210 00:02:08.676105 14599 net.cpp:411] relu7 -> relu7
I1210 00:02:08.676285 14599 net.cpp:150] Setting up relu7
I1210 00:02:08.676303 14599 net.cpp:157] Top shape: 250 2048 (512000)
I1210 00:02:08.676312 14599 net.cpp:165] Memory required for data: 484195000
I1210 00:02:08.676326 14599 layer_factory.hpp:76] Creating layer drop7
I1210 00:02:08.676338 14599 net.cpp:106] Creating Layer drop7
I1210 00:02:08.676348 14599 net.cpp:454] drop7 <- relu7
I1210 00:02:08.676362 14599 net.cpp:411] drop7 -> drop7
I1210 00:02:08.676442 14599 net.cpp:150] Setting up drop7
I1210 00:02:08.676460 14599 net.cpp:157] Top shape: 250 2048 (512000)
I1210 00:02:08.676470 14599 net.cpp:165] Memory required for data: 486243000
I1210 00:02:08.676481 14599 layer_factory.hpp:76] Creating layer fc8
I1210 00:02:08.676494 14599 net.cpp:106] Creating Layer fc8
I1210 00:02:08.676503 14599 net.cpp:454] fc8 <- drop7
I1210 00:02:08.676518 14599 net.cpp:411] fc8 -> fc8
I1210 00:02:08.846601 14599 net.cpp:150] Setting up fc8
I1210 00:02:08.846658 14599 net.cpp:157] Top shape: 250 1000 (250000)
I1210 00:02:08.846670 14599 net.cpp:165] Memory required for data: 487243000
I1210 00:02:08.846688 14599 layer_factory.hpp:76] Creating layer fc8_fc8_0_split
I1210 00:02:08.846704 14599 net.cpp:106] Creating Layer fc8_fc8_0_split
I1210 00:02:08.846715 14599 net.cpp:454] fc8_fc8_0_split <- fc8
I1210 00:02:08.846731 14599 net.cpp:411] fc8_fc8_0_split -> fc8_fc8_0_split_0
I1210 00:02:08.846748 14599 net.cpp:411] fc8_fc8_0_split -> fc8_fc8_0_split_1
I1210 00:02:08.846809 14599 net.cpp:150] Setting up fc8_fc8_0_split
I1210 00:02:08.846827 14599 net.cpp:157] Top shape: 250 1000 (250000)
I1210 00:02:08.846838 14599 net.cpp:157] Top shape: 250 1000 (250000)
I1210 00:02:08.846848 14599 net.cpp:165] Memory required for data: 489243000
I1210 00:02:08.846856 14599 layer_factory.hpp:76] Creating layer accuracy
I1210 00:02:08.846925 14599 net.cpp:106] Creating Layer accuracy
I1210 00:02:08.846938 14599 net.cpp:454] accuracy <- fc8_fc8_0_split_0
I1210 00:02:08.846949 14599 net.cpp:454] accuracy <- label_data_1_split_0
I1210 00:02:08.846961 14599 net.cpp:411] accuracy -> accuracy
…
