…
      mirror: false
      crop_size: 128
      mean_value: 104
      mean_value: 117
      mean_value: 123
      force_color: true
      resize_param {
        prob: 1
        resize_mode: FIT_SMALL_SIZE
        height: 144
        width: 144
        pad_mode: MIRRORED
        pad_value: 104
        pad_value: 117
        pad_value: 124
        interp_mode: CUBIC
        center_object: false
        max_angle: 0
      }
    }
    data_param {
      source: "/home/old-ufo/datasets/imagenet/ilsvrc12_val_lmdb"
      batch_size: 250
      backend: LMDB
    }
  }
  layer {
    name: "conv1"
    type: "Convolution"
    bottom: "data"
    top: "conv1"
    param {
      lr_mult: 1
      decay_mult: 1
    }
    param {
      lr_mult: 2
      decay_mult: 0
    }
    convolution_param {
      num_output: 96
      kernel_size: 11
      stride: 4
      weight_filler {
        type: "gaussian"
        std: 0.01
      }
      bias_filler {
        type: "constant"
      }
    }
  }
  layer {
    name: "relu1"
    type: "ReLU"
    bottom: "conv1"
    top: "conv1"
  }
  layer {
    name: "pool1"
    type: "Pooling"
    bottom: "conv1"
    top: "pool1"
    pooling_param {
      pool: MAX
      kernel_size: 3
      stride: 2
    }
  }
  layer {
    name: "conv2"
    type: "Convolution"
    bottom: "pool1"
    top: "conv2"
    param {
      lr_mult: 1
      decay_mult: 1
    }
    param {
      lr_mult: 2
      decay_mult: 0
    }
    convolution_param {
      num_output: 256
      pad: 2
      kernel_size: 5
      group: 2
      weight_filler {
        type: "gaussian"
        std: 0.01
      }
      bias_filler {
        type: "constant"
      }
    }
  }
  layer {
    name: "relu2"
    type: "ReLU"
    bottom: "conv2"
    top: "conv2"
  }
  layer {
    name: "pool2"
    type: "Pooling"
    bottom: "conv2"
    top: "pool2"
    pooling_param {
      pool: MAX
      kernel_size: 3
      stride: 2
    }
  }
  layer {
    name: "conv3"
    type: "Convolution"
    bottom: "pool2"
    top: "conv3"
    param {
      lr_mult: 1
      decay_mult: 1
    }
    param {
      lr_mult: 2
      decay_mult: 0
    }
    convolution_param {
      num_output: 384
      pad: 1
      kernel_size: 3
      weight_filler {
        type: "gaussian"
        std: 0.01
      }
      bias_filler {
        type: "constant"
      }
    }
  }
  layer {
    name: "relu3"
    type: "ReLU"
    bottom: "conv3"
    top: "conv3"
  }
  layer {
    name: "conv4"
    type: "Convolution"
    bottom: "conv3"
    top: "conv4"
    param {
      lr_mult: 1
      decay_mult: 1
    }
    param {
      lr_mult: 2
      decay_mult: 0
    }
    convolution_param {
      num_output: 384
      pad: 1
      kernel_size: 3
      group: 2
      weight_filler {
        type: "gaussian"
        std: 0.01
      }
      bias_filler {
        type: "constant"
      }
    }
  }
  layer {
    name: "relu4"
    type: "ReLU"
    bottom: "conv4"
    top: "conv4"
  }
  layer {
    name: "conv5"
    type: "Convolution"
    bottom: "conv4"
    top: "conv5"
    param {
      lr_mult: 1
      decay_mult: 1
    }
    param {
      lr_mult: 2
      decay_mult: 0
    }
    convolution_param {
      num_output: 256
      pad: 1
      kernel_size: 3
      group: 2
      weight_filler {
        type: "gaussian"
        std: 0.01
      }
      bias_filler {
        type: "constant"
      }
    }
  }
  layer {
    name: "relu5"
    type: "ReLU"
    bottom: "conv5"
    top: "conv5"
  }
  layer {
    name: "pool5"
    type: "Pooling"
    bottom: "conv5"
    top: "pool5"
    pooling_param {
      pool: MAX
      kernel_size: 3
      stride: 2
    }
  }
  layer {
    name: "fc6"
    type: "InnerProduct"
    bottom: "pool5"
    top: "fc6"
    param {
      lr_mult: 1
      decay_mult: 1
    }
    param {
      lr_mult: 2
      decay_mult: 0
    }
    inner_product_param {
      num_output: 2048
      weight_filler {
        type: "gaussian"
        std: 0.005
      }
      bias_filler {
        type: "constant"
      }
    }
  }
  layer {
    name: "relu6"
    type: "ReLU"
    bottom: "fc6"
    top: "fc6"
  }
  layer {
    name: "drop6"
    type: "Dropout"
    bottom: "fc6"
    top: "fc6"
    dropout_param {
      dropout_ratio: 0.5
    }
  }
  layer {
    name: "fc7"
    type: "InnerProduct"
    bottom: "fc6"
    top: "fc7"
    param {
      lr_mult: 1
      decay_mult: 1
    }
    param {
      lr_mult: 2
      decay_mult: 0
    }
    inner_product_param {
      num_output: 2048
      weight_filler {
        type: "gaussian"
        std: 0.005
      }
      bias_filler {
        type: "constant"
      }
    }
  }
  layer {
    name: "relu7"
    type: "ReLU"
    bottom: "fc7"
    top: "fc7"
  }
  layer {
    name: "drop7"
    type: "Dropout"
    bottom: "fc7"
    top: "fc7"
    dropout_param {
      dropout_ratio: 0.5
    }
  }
  layer {
    name: "fc8"
    type: "InnerProduct"
    bottom: "fc7"
    top: "fc8"
    param {
      lr_mult: 1
      decay_mult: 1
    }
    param {
      lr_mult: 2
      decay_mult: 0
    }
    inner_product_param {
      num_output: 1000
      weight_filler {
        type: "gaussian"
        std: 0.01
      }
      bias_filler {
        type: "constant"
      }
    }
  }
  layer {
    name: "accuracy"
    type: "Accuracy"
    bottom: "fc8"
    bottom: "label"
    top: "accuracy"
    include {
      phase: TEST
    }
  }
  layer {
    name: "loss"
    type: "SoftmaxWithLoss"
    bottom: "fc8"
    bottom: "label"
    top: "loss"
  }
}
iter_size: 1
type: "SGD"
I1202 00:12:46.102190  3167 solver.cpp:85] Creating training net specified in net_param.
I1202 00:12:46.102286  3167 net.cpp:322] The NetState phase (0) differed from the phase (1) specified by a rule in layer data
I1202 00:12:46.102310  3167 net.cpp:322] The NetState phase (0) differed from the phase (1) specified by a rule in layer accuracy
I1202 00:12:46.102475  3167 net.cpp:49] Initializing net from parameters: 
name: "CaffeNet"
state {
  phase: TRAIN
}
layer {
  name: "data"
  type: "Data"
  top: "data"
  top: "label"
  include {
    phase: TRAIN
  }
  transform_param {
    scale: 0.04
    mirror: true
    crop_size: 128
    mean_value: 104
    mean_value: 117
    mean_value: 124
    force_color: true
    resize_param {
      prob: 1
      resize_mode: FIT_SMALL_SIZE
      height: 144
      width: 144
      pad_mode: MIRRORED
      pad_value: 104
      pad_value: 117
      pad_value: 124
      interp_mode: CUBIC
      center_object: false
      max_angle: 0
    }
  }
  data_param {
    source: "/home/old-ufo/datasets/imagenet/ilsvrc12_train_shuffle_lmdb"
    batch_size: 256
    backend: LMDB
  }
}
layer {
  name: "conv1"
  type: "Convolution"
  bottom: "data"
  top: "conv1"
  param {
    lr_mult: 1
    decay_mult: 1
  }
  param {
    lr_mult: 2
    decay_mult: 0
  }
  convolution_param {
    num_output: 96
    kernel_size: 11
    stride: 4
    weight_filler {
      type: "gaussian"
      std: 0.01
    }
    bias_filler {
      type: "constant"
    }
  }
}
layer {
  name: "relu1"
  type: "ReLU"
  bottom: "conv1"
  top: "conv1"
}
layer {
  name: "pool1"
  type: "Pooling"
  bottom: "conv1"
  top: "pool1"
  pooling_param {
    pool: MAX
    kernel_size: 3
    stride: 2
  }
}
layer {
  name: "conv2"
  type: "Convolution"
  bottom: "pool1"
  top: "conv2"
  param {
    lr_mult: 1
    decay_mult: 1
  }
  param {
    lr_mult: 2
    decay_mult: 0
  }
  convolution_param {
    num_output: 256
    pad: 2
    kernel_size: 5
    group: 2
    weight_filler {
      type: "gaussian"
      std: 0.01
    }
    bias_filler {
      type: "constant"
    }
  }
}
layer {
  name: "relu2"
  type: "ReLU"
  bottom: "conv2"
  top: "conv2"
}
layer {
  name: "pool2"
  type: "Pooling"
  bottom: "conv2"
  top: "pool2"
  pooling_param {
    pool: MAX
    kernel_size: 3
    stride: 2
  }
}
layer {
  name: "conv3"
  type: "Convolution"
  bottom: "pool2"
  top: "conv3"
  param {
    lr_mult: 1
    decay_mult: 1
  }
  param {
    lr_mult: 2
    decay_mult: 0
  }
  convolution_param {
    num_output: 384
    pad: 1
    kernel_size: 3
    weight_filler {
      type: "gaussian"
      std: 0.01
    }
    bias_filler {
      type: "constant"
    }
  }
}
layer {
  name: "relu3"
  type: "ReLU"
  bottom: "conv3"
  top: "conv3"
}
layer {
  name: "conv4"
  type: "Convolution"
  bottom: "conv3"
  top: "conv4"
  param {
    lr_mult: 1
    decay_mult: 1
  }
  param {
    lr_mult: 2
    decay_mult: 0
  }
  convolution_param {
    num_output: 384
    pad: 1
    kernel_size: 3
    group: 2
    weight_filler {
      type: "gaussian"
      std: 0.01
    }
    bias_filler {
      type: "constant"
    }
  }
}
layer {
  name: "relu4"
  type: "ReLU"
  bottom: "conv4"
  top: "conv4"
}
layer {
  name: "conv5"
  type: "Convolution"
  bottom: "conv4"
  top: "conv5"
  param {
    lr_mult: 1
    decay_mult: 1
  }
  param {
    lr_mult: 2
    decay_mult: 0
  }
  convolution_param {
    num_output: 256
    pad: 1
    kernel_size: 3
    group: 2
    weight_filler {
      type: "gaussian"
      std: 0.01
    }
    bias_filler {
      type: "constant"
    }
  }
}
layer {
  name: "relu5"
  type: "ReLU"
  bottom: "conv5"
  top: "conv5"
}
layer {
  name: "pool5"
  type: "Pooling"
  bottom: "conv5"
  top: "pool5"
  pooling_param {
    pool: MAX
    kernel_size: 3
    stride: 2
  }
}
layer {
  name: "fc6"
  type: "InnerProduct"
  bottom: "pool5"
  top: "fc6"
  param {
    lr_mult: 1
    decay_mult: 1
  }
  param {
    lr_mult: 2
    decay_mult: 0
  }
  inner_product_param {
    num_output: 2048
    weight_filler {
      type: "gaussian"
      std: 0.005
    }
    bias_filler {
      type: "constant"
    }
  }
}
layer {
  name: "relu6"
  type: "ReLU"
  bottom: "fc6"
  top: "fc6"
}
layer {
  name: "drop6"
  type: "Dropout"
  bottom: "fc6"
  top: "fc6"
  dropout_param {
    dropout_ratio: 0.5
  }
}
layer {
  name: "fc7"
  type: "InnerProduct"
  bottom: "fc6"
  top: "fc7"
  param {
    lr_mult: 1
    decay_mult: 1
  }
  param {
    lr_mult: 2
    decay_mult: 0
  }
  inner_product_param {
    num_output: 2048
    weight_filler {
      type: "gaussian"
      std: 0.005
    }
    bias_filler {
      type: "constant"
    }
  }
}
layer {
  name: "relu7"
  type: "ReLU"
  bottom: "fc7"
  top: "fc7"
}
layer {
  name: "drop7"
  type: "Dropout"
  bottom: "fc7"
  top: "fc7"
  dropout_param {
    dropout_ratio: 0.5
  }
}
layer {
  name: "fc8"
  type: "InnerProduct"
  bottom: "fc7"
  top: "fc8"
  param {
    lr_mult: 1
    decay_mult: 1
  }
  param {
    lr_mult: 2
    decay_mult: 0
  }
  inner_product_param {
    num_output: 1000
    weight_filler {
      type: "gaussian"
      std: 0.01
    }
    bias_filler {
      type: "constant"
    }
  }
}
layer {
  name: "loss"
  type: "SoftmaxWithLoss"
  bottom: "fc8"
  bottom: "label"
  top: "loss"
}
I1202 00:12:46.102591  3167 layer_factory.hpp:76] Creating layer data
I1202 00:12:46.103324  3167 net.cpp:106] Creating Layer data
I1202 00:12:46.103338  3167 net.cpp:411] data -> data
I1202 00:12:46.103376  3167 net.cpp:411] data -> label
I1202 00:12:46.104089  3171 db_lmdb.cpp:38] Opened lmdb /home/old-ufo/datasets/imagenet/ilsvrc12_train_shuffle_lmdb
I1202 00:12:46.117655  3167 data_layer.cpp:41] output data size: 256,3,128,128
I1202 00:12:46.193060  3167 net.cpp:150] Setting up data
I1202 00:12:46.193087  3167 net.cpp:157] Top shape: 256 3 128 128 (12582912)
I1202 00:12:46.193091  3167 net.cpp:157] Top shape: 256 (256)
I1202 00:12:46.193094  3167 net.cpp:165] Memory required for data: 50332672
I1202 00:12:46.193101  3167 layer_factory.hpp:76] Creating layer conv1
I1202 00:12:46.193114  3167 net.cpp:106] Creating Layer conv1
I1202 00:12:46.193120  3167 net.cpp:454] conv1 <- data
I1202 00:12:46.193130  3167 net.cpp:411] conv1 -> conv1
I1202 00:12:46.341328  3167 cudnn_conv_layer.cpp:194] Reallocating workspace storage: 72408
I1202 00:12:46.341454  3167 net.cpp:150] Setting up conv1
I1202 00:12:46.341465  3167 net.cpp:157] Top shape: 256 96 30 30 (22118400)
I1202 00:12:46.341469  3167 net.cpp:165] Memory required for data: 138806272
I1202 00:12:46.341490  3167 layer_factory.hpp:76] Creating layer relu1
I1202 00:12:46.341505  3167 net.cpp:106] Creating Layer relu1
I1202 00:12:46.341509  3167 net.cpp:454] relu1 <- conv1
I1202 00:12:46.341516  3167 net.cpp:397] relu1 -> conv1 (in-place)
I1202 00:12:46.342036  3167 net.cpp:150] Setting up relu1
I1202 00:12:46.342044  3167 net.cpp:157] Top shape: 256 96 30 30 (22118400)
I1202 00:12:46.342047  3167 net.cpp:165] Memory required for data: 227279872
I1202 00:12:46.342051  3167 layer_factory.hpp:76] Creating layer pool1
I1202 00:12:46.342057  3167 net.cpp:106] Creating Layer pool1
I1202 00:12:46.342061  3167 net.cpp:454] pool1 <- conv1
I1202 00:12:46.342067  3167 net.cpp:411] pool1 -> pool1
I1202 00:12:46.342619  3167 net.cpp:150] Setting up pool1
I1202 00:12:46.342628  3167 net.cpp:157] Top shape: 256 96 15 15 (5529600)
I1202 00:12:46.342630  3167 net.cpp:165] Memory required for data: 249398272
I1202 00:12:46.342633  3167 layer_factory.hpp:76] Creating layer conv2
I1202 00:12:46.342648  3167 net.cpp:106] Creating Layer conv2
I1202 00:12:46.342656  3167 net.cpp:454] conv2 <- pool1
I1202 00:12:46.342664  3167 net.cpp:411] conv2 -> conv2
I1202 00:12:46.354635  3167 cudnn_conv_layer.cpp:194] Reallocating workspace storage: 27096
I1202 00:12:46.354663  3167 net.cpp:150] Setting up conv2
I1202 00:12:46.354671  3167 net.cpp:157] Top shape: 256 256 15 15 (14745600)
I1202 00:12:46.354683  3167 net.cpp:165] Memory required for data: 308380672
I1202 00:12:46.354698  3167 layer_factory.hpp:76] Creating layer relu2
I1202 00:12:46.354712  3167 net.cpp:106] Creating Layer relu2
I1202 00:12:46.354717  3167 net.cpp:454] relu2 <- conv2
I1202 00:12:46.354724  3167 net.cpp:397] relu2 -> conv2 (in-place)
I1202 00:12:46.355254  3167 net.cpp:150] Setting up relu2
I1202 00:12:46.355263  3167 net.cpp:157] Top shape: 256 256 15 15 (14745600)
I1202 00:12:46.355267  3167 net.cpp:165] Memory required for data: 367363072
I1202 00:12:46.355269  3167 layer_factory.hpp:76] Creating layer pool2
I1202 00:12:46.355278  3167 net.cpp:106] Creating Layer pool2
I1202 00:12:46.355283  3167 net.cpp:454] pool2 <- conv2
I1202 00:12:46.355288  3167 net.cpp:411] pool2 -> pool2
I1202 00:12:46.355929  3167 net.cpp:150] Setting up pool2
I1202 00:12:46.355939  3167 net.cpp:157] Top shape: 256 256 7 7 (3211264)
I1202 00:12:46.355942  3167 net.cpp:165] Memory required for data: 380208128
I1202 00:12:46.355944  3167 layer_factory.hpp:76] Creating layer conv3
I1202 00:12:46.355955  3167 net.cpp:106] Creating Layer conv3
I1202 00:12:46.355960  3167 net.cpp:454] conv3 <- pool2
I1202 00:12:46.355967  3167 net.cpp:411] conv3 -> conv3
I1202 00:12:46.382194  3167 cudnn_conv_layer.cpp:194] Reallocating workspace storage: 7788
I1202 00:12:46.382354  3167 net.cpp:150] Setting up conv3
I1202 00:12:46.382369  3167 net.cpp:157] Top shape: 256 384 7 7 (4816896)
I1202 00:12:46.382375  3167 net.cpp:165] Memory required for data: 399475712
I1202 00:12:46.382387  3167 layer_factory.hpp:76] Creating layer relu3
I1202 00:12:46.382400  3167 net.cpp:106] Creating Layer relu3
I1202 00:12:46.382405  3167 net.cpp:454] relu3 <- conv3
I1202 00:12:46.382413  3167 net.cpp:397] relu3 -> conv3 (in-place)
I1202 00:12:46.383149  3167 net.cpp:150] Setting up relu3
I1202 00:12:46.383162  3167 net.cpp:157] Top shape: 256 384 7 7 (4816896)
I1202 00:12:46.383167  3167 net.cpp:165] Memory required for data: 418743296
I1202 00:12:46.383170  3167 layer_factory.hpp:76] Creating layer conv4
I1202 00:12:46.383183  3167 net.cpp:106] Creating Layer conv4
I1202 00:12:46.383188  3167 net.cpp:454] conv4 <- conv3
I1202 00:12:46.383196  3167 net.cpp:411] conv4 -> conv4
I1202 00:12:46.411767  3167 cudnn_conv_layer.cpp:194] Reallocating workspace storage: 15576
I1202 00:12:46.411805  3167 net.cpp:150] Setting up conv4
I1202 00:12:46.411814  3167 net.cpp:157] Top shape: 256 384 7 7 (4816896)
I1202 00:12:46.411818  3167 net.cpp:165] Memory required for data: 438010880
I1202 00:12:46.411828  3167 layer_factory.hpp:76] Creating layer relu4
I1202 00:12:46.411840  3167 net.cpp:106] Creating Layer relu4
I1202 00:12:46.411846  3167 net.cpp:454] relu4 <- conv4
I1202 00:12:46.411852  3167 net.cpp:397] relu4 -> conv4 (in-place)
I1202 00:12:46.412582  3167 net.cpp:150] Setting up relu4
I1202 00:12:46.412595  3167 net.cpp:157] Top shape: 256 384 7 7 (4816896)
I1202 00:12:46.412600  3167 net.cpp:165] Memory required for data: 457278464
I1202 00:12:46.412603  3167 layer_factory.hpp:76] Creating layer conv5
I1202 00:12:46.412613  3167 net.cpp:106] Creating Layer conv5
I1202 00:12:46.412617  3167 net.cpp:454] conv5 <- conv4
I1202 00:12:46.412624  3167 net.cpp:411] conv5 -> conv5
I1202 00:12:46.433318  3167 cudnn_conv_layer.cpp:194] Reallocating workspace storage: 15576
I1202 00:12:46.433370  3167 net.cpp:150] Setting up conv5
I1202 00:12:46.433382  3167 net.cpp:157] Top shape: 256 256 7 7 (3211264)
I1202 00:12:46.433390  3167 net.cpp:165] Memory required for data: 470123520
I1202 00:12:46.433403  3167 layer_factory.hpp:76] Creating layer relu5
I1202 00:12:46.433415  3167 net.cpp:106] Creating Layer relu5
I1202 00:12:46.433420  3167 net.cpp:454] relu5 <- conv5
I1202 00:12:46.433428  3167 net.cpp:397] relu5 -> conv5 (in-place)
I1202 00:12:46.434160  3167 net.cpp:150] Setting up relu5
I1202 00:12:46.434173  3167 net.cpp:157] Top shape: 256 256 7 7 (3211264)
I1202 00:12:46.434177  3167 net.cpp:165] Memory required for data: 482968576
I1202 00:12:46.434181  3167 layer_factory.hpp:76] Creating layer pool5
I1202 00:12:46.434188  3167 net.cpp:106] Creating Layer pool5
I1202 00:12:46.434192  3167 net.cpp:454] pool5 <- conv5
I1202 00:12:46.434197  3167 net.cpp:411] pool5 -> pool5
I1202 00:12:46.435014  3167 net.cpp:150] Setting up pool5
I1202 00:12:46.435026  3167 net.cpp:157] Top shape: 256 256 3 3 (589824)
I1202 00:12:46.435030  3167 net.cpp:165] Memory required for data: 485327872
I1202 00:12:46.435035  3167 layer_factory.hpp:76] Creating layer fc6
I1202 00:12:46.435045  3167 net.cpp:106] Creating Layer fc6
I1202 00:12:46.435048  3167 net.cpp:454] fc6 <- pool5
I1202 00:12:46.435057  3167 net.cpp:411] fc6 -> fc6
I1202 00:12:46.602138  3167 net.cpp:150] Setting up fc6
I1202 00:12:46.602164  3167 net.cpp:157] Top shape: 256 2048 (524288)
I1202 00:12:46.602169  3167 net.cpp:165] Memory required for data: 487425024
I1202 00:12:46.602180  3167 layer_factory.hpp:76] Creating layer relu6
I1202 00:12:46.602190  3167 net.cpp:106] Creating Layer relu6
I1202 00:12:46.602195  3167 net.cpp:454] relu6 <- fc6
I1202 00:12:46.602203  3167 net.cpp:397] relu6 -> fc6 (in-place)
I1202 00:12:46.603009  3167 net.cpp:150] Setting up relu6
I1202 00:12:46.603021  3167 net.cpp:157] Top shape: 256 2048 (524288)
I1202 00:12:46.603025  3167 net.cpp:165] Memory required for data: 489522176
I1202 00:12:46.603030  3167 layer_factory.hpp:76] Creating layer drop6
I1202 00:12:46.603065  3167 net.cpp:106] Creating Layer drop6
I1202 00:12:46.603072  3167 net.cpp:454] drop6 <- fc6
I1202 00:12:46.603080  3167 net.cpp:397] drop6 -> fc6 (in-place)
I1202 00:12:46.603109  3167 net.cpp:150] Setting up drop6
I1202 00:12:46.603116  3167 net.cpp:157] Top shape: 256 2048 (524288)
I1202 00:12:46.603119  3167 net.cpp:165] Memory required for data: 491619328
I1202 00:12:46.603123  3167 layer_factory.hpp:76] Creating layer fc7
I1202 00:12:46.603132  3167 net.cpp:106] Creating Layer fc7
I1202 00:12:46.603134  3167 net.cpp:454] fc7 <- fc6
I1202 00:12:46.603142  3167 net.cpp:411] fc7 -> fc7
I1202 00:12:46.752112  3167 net.cpp:150] Setting up fc7
I1202 00:12:46.752141  3167 net.cpp:157] Top shape: 256 2048 (524288)
I1202 00:12:46.752146  3167 net.cpp:165] Memory required for data: 493716480
I1202 00:12:46.752158  3167 layer_factory.hpp:76] Creating layer relu7
I1202 00:12:46.752168  3167 net.cpp:106] Creating Layer relu7
I1202 00:12:46.752174  3167 net.cpp:454] relu7 <- fc7
I1202 00:12:46.752184  3167 net.cpp:397] relu7 -> fc7 (in-place)
I1202 00:12:46.753123  3167 net.cpp:150] Setting up relu7
I1202 00:12:46.753137  3167 net.cpp:157] Top shape: 256 2048 (524288)
I1202 00:12:46.753142  3167 net.cpp:165] Memory required for data: 495813632
I1202 00:12:46.753146  3167 layer_factory.hpp:76] Creating layer drop7
I1202 00:12:46.753154  3167 net.cpp:106] Creating Layer drop7
I1202 00:12:46.753159  3167 net.cpp:454] drop7 <- fc7
I1202 00:12:46.753165  3167 net.cpp:397] drop7 -> fc7 (in-place)
I1202 00:12:46.753201  3167 net.cpp:150] Setting up drop7
I1202 00:12:46.753208  3167 net.cpp:157] Top shape: 256 2048 (524288)
I1202 00:12:46.753212  3167 net.cpp:165] Memory required for data: 497910784
I1202 00:12:46.753216  3167 layer_factory.hpp:76] Creating layer fc8
I1202 00:12:46.753224  3167 net.cpp:106] Creating Layer fc8
I1202 00:12:46.753227  3167 net.cpp:454] fc8 <- fc7
I1202 00:12:46.753233  3167 net.cpp:411] fc8 -> fc8
I1202 00:12:46.826134  3167 net.cpp:150] Setting up fc8
I1202 00:12:46.826161  3167 net.cpp:157] Top shape: 256 1000 (256000)
I1202 00:12:46.826165  3167 net.cpp:165] Memory required for data: 498934784
I1202 00:12:46.826176  3167 layer_factory.hpp:76] Creating layer loss
I1202 00:12:46.826186  3167 net.cpp:106] Creating Layer loss
I1202 00:12:46.826191  3167 net.cpp:454] loss <- fc8
I1202 00:12:46.826197  3167 net.cpp:454] loss <- label
I1202 00:12:46.826205  3167 net.cpp:411] loss -> loss
I1202 00:12:46.826218  3167 layer_factory.hpp:76] Creating layer loss
…
    phase: TEST
  }
  transform_param {
    scale: 0.04
    mirror: false
    crop_size: 128
    mean_value: 104
    mean_value: 117
    mean_value: 123
    force_color: true
    resize_param {
      prob: 1
      resize_mode: FIT_SMALL_SIZE
      height: 144
      width: 144
      pad_mode: MIRRORED
      pad_value: 104
      pad_value: 117
      pad_value: 124
      interp_mode: CUBIC
      center_object: false
      max_angle: 0
    }
  }
  data_param {
    source: "/home/old-ufo/datasets/imagenet/ilsvrc12_val_lmdb"
    batch_size: 250
    backend: LMDB
  }
}
layer {
  name: "conv1"
  type: "Convolution"
  bottom: "data"
  top: "conv1"
  param {
    lr_mult: 1
    decay_mult: 1
  }
  param {
    lr_mult: 2
    decay_mult: 0
  }
  convolution_param {
    num_output: 96
    kernel_size: 11
    stride: 4
    weight_filler {
      type: "gaussian"
      std: 0.01
    }
    bias_filler {
      type: "constant"
    }
  }
}
layer {
  name: "relu1"
  type: "ReLU"
  bottom: "conv1"
  top: "conv1"
}
layer {
  name: "pool1"
  type: "Pooling"
  bottom: "conv1"
  top: "pool1"
  pooling_param {
    pool: MAX
    kernel_size: 3
    stride: 2
  }
}
layer {
  name: "conv2"
  type: "Convolution"
  bottom: "pool1"
  top: "conv2"
  param {
    lr_mult: 1
    decay_mult: 1
  }
  param {
    lr_mult: 2
    decay_mult: 0
  }
  convolution_param {
    num_output: 256
    pad: 2
    kernel_size: 5
    group: 2
    weight_filler {
      type: "gaussian"
      std: 0.01
    }
    bias_filler {
      type: "constant"
    }
  }
}
layer {
  name: "relu2"
  type: "ReLU"
  bottom: "conv2"
  top: "conv2"
}
layer {
  name: "pool2"
  type: "Pooling"
  bottom: "conv2"
  top: "pool2"
  pooling_param {
    pool: MAX
    kernel_size: 3
    stride: 2
  }
}
layer {
  name: "conv3"
  type: "Convolution"
  bottom: "pool2"
  top: "conv3"
  param {
    lr_mult: 1
    decay_mult: 1
  }
  param {
    lr_mult: 2
    decay_mult: 0
  }
  convolution_param {
    num_output: 384
    pad: 1
    kernel_size: 3
    weight_filler {
      type: "gaussian"
      std: 0.01
    }
    bias_filler {
      type: "constant"
    }
  }
}
layer {
  name: "relu3"
  type: "ReLU"
  bottom: "conv3"
  top: "conv3"
}
layer {
  name: "conv4"
  type: "Convolution"
  bottom: "conv3"
  top: "conv4"
  param {
    lr_mult: 1
    decay_mult: 1
  }
  param {
    lr_mult: 2
    decay_mult: 0
  }
  convolution_param {
    num_output: 384
    pad: 1
    kernel_size: 3
    group: 2
    weight_filler {
      type: "gaussian"
      std: 0.01
    }
    bias_filler {
      type: "constant"
    }
  }
}
layer {
  name: "relu4"
  type: "ReLU"
  bottom: "conv4"
  top: "conv4"
}
layer {
  name: "conv5"
  type: "Convolution"
  bottom: "conv4"
  top: "conv5"
  param {
    lr_mult: 1
    decay_mult: 1
  }
  param {
    lr_mult: 2
    decay_mult: 0
  }
  convolution_param {
    num_output: 256
    pad: 1
    kernel_size: 3
    group: 2
    weight_filler {
      type: "gaussian"
      std: 0.01
    }
    bias_filler {
      type: "constant"
    }
  }
}
layer {
  name: "relu5"
  type: "ReLU"
  bottom: "conv5"
  top: "conv5"
}
layer {
  name: "pool5"
  type: "Pooling"
  bottom: "conv5"
  top: "pool5"
  pooling_param {
    pool: MAX
    kernel_size: 3
    stride: 2
  }
}
layer {
  name: "fc6"
  type: "InnerProduct"
  bottom: "pool5"
  top: "fc6"
  param {
    lr_mult: 1
    decay_mult: 1
  }
  param {
    lr_mult: 2
    decay_mult: 0
  }
  inner_product_param {
    num_output: 2048
    weight_filler {
      type: "gaussian"
      std: 0.005
    }
    bias_filler {
      type: "constant"
    }
  }
}
layer {
  name: "relu6"
  type: "ReLU"
  bottom: "fc6"
  top: "fc6"
}
layer {
  name: "drop6"
  type: "Dropout"
  bottom: "fc6"
  top: "fc6"
  dropout_param {
    dropout_ratio: 0.5
  }
}
layer {
  name: "fc7"
  type: "InnerProduct"
  bottom: "fc6"
  top: "fc7"
  param {
    lr_mult: 1
    decay_mult: 1
  }
  param {
    lr_mult: 2
    decay_mult: 0
  }
  inner_product_param {
    num_output: 2048
    weight_filler {
      type: "gaussian"
      std: 0.005
    }
    bias_filler {
      type: "constant"
    }
  }
}
layer {
  name: "relu7"
  type: "ReLU"
  bottom: "fc7"
  top: "fc7"
}
layer {
  name: "drop7"
  type: "Dropout"
  bottom: "fc7"
  top: "fc7"
  dropout_param {
    dropout_ratio: 0.5
  }
}
layer {
  name: "fc8"
  type: "InnerProduct"
  bottom: "fc7"
  top: "fc8"
  param {
    lr_mult: 1
    decay_mult: 1
  }
  param {
    lr_mult: 2
    decay_mult: 0
  }
  inner_product_param {
    num_output: 1000
    weight_filler {
      type: "gaussian"
      std: 0.01
    }
    bias_filler {
      type: "constant"
    }
  }
}
layer {
  name: "accuracy"
  type: "Accuracy"
  bottom: "fc8"
  bottom: "label"
  top: "accuracy"
  include {
    phase: TEST
  }
}
layer {
  name: "loss"
  type: "SoftmaxWithLoss"
  bottom: "fc8"
  bottom: "label"
  top: "loss"
}
I1202 00:12:46.828531  3167 layer_factory.hpp:76] Creating layer data
I1202 00:12:46.828742  3167 net.cpp:106] Creating Layer data
I1202 00:12:46.828749  3167 net.cpp:411] data -> data
I1202 00:12:46.828760  3167 net.cpp:411] data -> label
I1202 00:12:46.829583  3180 db_lmdb.cpp:38] Opened lmdb /home/old-ufo/datasets/imagenet/ilsvrc12_val_lmdb
I1202 00:12:46.832262  3167 data_layer.cpp:41] output data size: 250,3,128,128
I1202 00:12:46.897622  3167 net.cpp:150] Setting up data
I1202 00:12:46.897649  3167 net.cpp:157] Top shape: 250 3 128 128 (12288000)
I1202 00:12:46.897655  3167 net.cpp:157] Top shape: 250 (250)
I1202 00:12:46.897657  3167 net.cpp:165] Memory required for data: 49153000
I1202 00:12:46.897663  3167 layer_factory.hpp:76] Creating layer label_data_1_split
I1202 00:12:46.897675  3167 net.cpp:106] Creating Layer label_data_1_split
I1202 00:12:46.897680  3167 net.cpp:454] label_data_1_split <- label
I1202 00:12:46.897687  3167 net.cpp:411] label_data_1_split -> label_data_1_split_0
I1202 00:12:46.897697  3167 net.cpp:411] label_data_1_split -> label_data_1_split_1
I1202 00:12:46.897790  3167 net.cpp:150] Setting up label_data_1_split
I1202 00:12:46.897799  3167 net.cpp:157] Top shape: 250 (250)
I1202 00:12:46.897804  3167 net.cpp:157] Top shape: 250 (250)
I1202 00:12:46.897807  3167 net.cpp:165] Memory required for data: 49155000
I1202 00:12:46.897811  3167 layer_factory.hpp:76] Creating layer conv1
I1202 00:12:46.897822  3167 net.cpp:106] Creating Layer conv1
I1202 00:12:46.897826  3167 net.cpp:454] conv1 <- data
I1202 00:12:46.897832  3167 net.cpp:411] conv1 -> conv1
I1202 00:12:46.905524  3167 cudnn_conv_layer.cpp:194] Reallocating workspace storage: 72408
I1202 00:12:46.905568  3167 net.cpp:150] Setting up conv1
I1202 00:12:46.905578  3167 net.cpp:157] Top shape: 250 96 30 30 (21600000)
I1202 00:12:46.905586  3167 net.cpp:165] Memory required for data: 135555000
I1202 00:12:46.905597  3167 layer_factory.hpp:76] Creating layer relu1
I1202 00:12:46.905608  3167 net.cpp:106] Creating Layer relu1
I1202 00:12:46.905616  3167 net.cpp:454] relu1 <- conv1
I1202 00:12:46.905622  3167 net.cpp:397] relu1 -> conv1 (in-place)
I1202 00:12:46.906297  3167 net.cpp:150] Setting up relu1
I1202 00:12:46.906311  3167 net.cpp:157] Top shape: 250 96 30 30 (21600000)
I1202 00:12:46.906314  3167 net.cpp:165] Memory required for data: 221955000
I1202 00:12:46.906318  3167 layer_factory.hpp:76] Creating layer pool1
I1202 00:12:46.906352  3167 net.cpp:106] Creating Layer pool1
I1202 00:12:46.906357  3167 net.cpp:454] pool1 <- conv1
I1202 00:12:46.906363  3167 net.cpp:411] pool1 -> pool1
I1202 00:12:46.907191  3167 net.cpp:150] Setting up pool1
I1202 00:12:46.907204  3167 net.cpp:157] Top shape: 250 96 15 15 (5400000)
I1202 00:12:46.907208  3167 net.cpp:165] Memory required for data: 243555000
I1202 00:12:46.907212  3167 layer_factory.hpp:76] Creating layer conv2
I1202 00:12:46.907223  3167 net.cpp:106] Creating Layer conv2
I1202 00:12:46.907227  3167 net.cpp:454] conv2 <- pool1
I1202 00:12:46.907233  3167 net.cpp:411] conv2 -> conv2
I1202 00:12:46.923434  3167 cudnn_conv_layer.cpp:194] Reallocating workspace storage: 27096
I1202 00:12:46.923470  3167 net.cpp:150] Setting up conv2
I1202 00:12:46.923478  3167 net.cpp:157] Top shape: 250 256 15 15 (14400000)
I1202 00:12:46.923482  3167 net.cpp:165] Memory required for data: 301155000
I1202 00:12:46.923496  3167 layer_factory.hpp:76] Creating layer relu2
I1202 00:12:46.923508  3167 net.cpp:106] Creating Layer relu2
I1202 00:12:46.923513  3167 net.cpp:454] relu2 <- conv2
I1202 00:12:46.923521  3167 net.cpp:397] relu2 -> conv2 (in-place)
I1202 00:12:46.924288  3167 net.cpp:150] Setting up relu2
I1202 00:12:46.924299  3167 net.cpp:157] Top shape: 250 256 15 15 (14400000)
I1202 00:12:46.924304  3167 net.cpp:165] Memory required for data: 358755000
I1202 00:12:46.924309  3167 layer_factory.hpp:76] Creating layer pool2
I1202 00:12:46.924317  3167 net.cpp:106] Creating Layer pool2
I1202 00:12:46.924321  3167 net.cpp:454] pool2 <- conv2
I1202 00:12:46.924329  3167 net.cpp:411] pool2 -> pool2
I1202 00:12:46.925115  3167 net.cpp:150] Setting up pool2
I1202 00:12:46.925127  3167 net.cpp:157] Top shape: 250 256 7 7 (3136000)
I1202 00:12:46.925132  3167 net.cpp:165] Memory required for data: 371299000
I1202 00:12:46.925135  3167 layer_factory.hpp:76] Creating layer conv3
I1202 00:12:46.925148  3167 net.cpp:106] Creating Layer conv3
I1202 00:12:46.925151  3167 net.cpp:454] conv3 <- pool2
I1202 00:12:46.925158  3167 net.cpp:411] conv3 -> conv3
I1202 00:12:46.960047  3167 cudnn_conv_layer.cpp:194] Reallocating workspace storage: 7788
I1202 00:12:46.960140  3167 net.cpp:150] Setting up conv3
I1202 00:12:46.960170  3167 net.cpp:157] Top shape: 250 384 7 7 (4704000)
I1202 00:12:46.960189  3167 net.cpp:165] Memory required for data: 390115000
I1202 00:12:46.960216  3167 layer_factory.hpp:76] Creating layer relu3
I1202 00:12:46.960238  3167 net.cpp:106] Creating Layer relu3
I1202 00:12:46.960253  3167 net.cpp:454] relu3 <- conv3
I1202 00:12:46.960271  3167 net.cpp:397] relu3 -> conv3 (in-place)
I1202 00:12:46.961081  3167 net.cpp:150] Setting up relu3
I1202 00:12:46.961118  3167 net.cpp:157] Top shape: 250 384 7 7 (4704000)
I1202 00:12:46.961133  3167 net.cpp:165] Memory required for data: 408931000
I1202 00:12:46.961149  3167 layer_factory.hpp:76] Creating layer conv4
I1202 00:12:46.961172  3167 net.cpp:106] Creating Layer conv4
I1202 00:12:46.961189  3167 net.cpp:454] conv4 <- conv3
I1202 00:12:46.961210  3167 net.cpp:411] conv4 -> conv4
I1202 00:12:46.990125  3167 cudnn_conv_layer.cpp:194] Reallocating workspace storage: 15576
I1202 00:12:46.990214  3167 net.cpp:150] Setting up conv4
I1202 00:12:46.990237  3167 net.cpp:157] Top shape: 250 384 7 7 (4704000)
I1202 00:12:46.990252  3167 net.cpp:165] Memory required for data: 427747000
I1202 00:12:46.990272  3167 layer_factory.hpp:76] Creating layer relu4
I1202 00:12:46.990293  3167 net.cpp:106] Creating Layer relu4
I1202 00:12:46.990308  3167 net.cpp:454] relu4 <- conv4
I1202 00:12:46.990325  3167 net.cpp:397] relu4 -> conv4 (in-place)
I1202 00:12:46.991114  3167 net.cpp:150] Setting up relu4
I1202 00:12:46.991142  3167 net.cpp:157] Top shape: 250 384 7 7 (4704000)
I1202 00:12:46.991155  3167 net.cpp:165] Memory required for data: 446563000
I1202 00:12:46.991168  3167 layer_factory.hpp:76] Creating layer conv5
I1202 00:12:46.991197  3167 net.cpp:106] Creating Layer conv5
I1202 00:12:46.991212  3167 net.cpp:454] conv5 <- conv4
I1202 00:12:46.991230  3167 net.cpp:411] conv5 -> conv5
I1202 00:12:47.012163  3167 cudnn_conv_layer.cpp:194] Reallocating workspace storage: 15576
I1202 00:12:47.012256  3167 net.cpp:150] Setting up conv5
I1202 00:12:47.012280  3167 net.cpp:157] Top shape: 250 256 7 7 (3136000)
I1202 00:12:47.012296  3167 net.cpp:165] Memory required for data: 459107000
I1202 00:12:47.012320  3167 layer_factory.hpp:76] Creating layer relu5
I1202 00:12:47.012344  3167 net.cpp:106] Creating Layer relu5
I1202 00:12:47.012362  3167 net.cpp:454] relu5 <- conv5
I1202 00:12:47.012378  3167 net.cpp:397] relu5 -> conv5 (in-place)
I1202 00:12:47.013171  3167 net.cpp:150] Setting up relu5
I1202 00:12:47.013201  3167 net.cpp:157] Top shape: 250 256 7 7 (3136000)
I1202 00:12:47.013217  3167 net.cpp:165] Memory required for data: 471651000
I1202 00:12:47.013232  3167 layer_factory.hpp:76] Creating layer pool5
I1202 00:12:47.013248  3167 net.cpp:106] Creating Layer pool5
I1202 00:12:47.013264  3167 net.cpp:454] pool5 <- conv5
I1202 00:12:47.013283  3167 net.cpp:411] pool5 -> pool5
I1202 00:12:47.014107  3167 net.cpp:150] Setting up pool5
I1202 00:12:47.014137  3167 net.cpp:157] Top shape: 250 256 3 3 (576000)
I1202 00:12:47.014154  3167 net.cpp:165] Memory required for data: 473955000
I1202 00:12:47.014168  3167 layer_factory.hpp:76] Creating layer fc6
I1202 00:12:47.014189  3167 net.cpp:106] Creating Layer fc6
I1202 00:12:47.014204  3167 net.cpp:454] fc6 <- pool5
I1202 00:12:47.014219  3167 net.cpp:411] fc6 -> fc6
I1202 00:12:47.181926  3167 net.cpp:150] Setting up fc6
I1202 00:12:47.181993  3167 net.cpp:157] Top shape: 250 2048 (512000)
I1202 00:12:47.182013  3167 net.cpp:165] Memory required for data: 476003000
I1202 00:12:47.182034  3167 layer_factory.hpp:76] Creating layer relu6
I1202 00:12:47.182060  3167 net.cpp:106] Creating Layer relu6
I1202 00:12:47.182096  3167 net.cpp:454] relu6 <- fc6
I1202 00:12:47.182132  3167 net.cpp:397] relu6 -> fc6 (in-place)
I1202 00:12:47.183364  3167 net.cpp:150] Setting up relu6
I1202 00:12:47.183378  3167 net.cpp:157] Top shape: 250 2048 (512000)
I1202 00:12:47.183382  3167 net.cpp:165] Memory required for data: 478051000
I1202 00:12:47.183387  3167 layer_factory.hpp:76] Creating layer drop6
I1202 00:12:47.183395  3167 net.cpp:106] Creating Layer drop6
I1202 00:12:47.183399  3167 net.cpp:454] drop6 <- fc6
I1202 00:12:47.183405  3167 net.cpp:397] drop6 -> fc6 (in-place)
I1202 00:12:47.183452  3167 net.cpp:150] Setting up drop6
I1202 00:12:47.183459  3167 net.cpp:157] Top shape: 250 2048 (512000)
I1202 00:12:47.183464  3167 net.cpp:165] Memory required for data: 480099000
I1202 00:12:47.183467  3167 layer_factory.hpp:76] Creating layer fc7
I1202 00:12:47.183476  3167 net.cpp:106] Creating Layer fc7
I1202 00:12:47.183480  3167 net.cpp:454] fc7 <- fc6
I1202 00:12:47.183486  3167 net.cpp:411] fc7 -> fc7
I1202 00:12:47.341033  3167 net.cpp:150] Setting up fc7
I1202 00:12:47.341063  3167 net.cpp:157] Top shape: 250 2048 (512000)
I1202 00:12:47.341068  3167 net.cpp:165] Memory required for data: 482147000
I1202 00:12:47.341079  3167 layer_factory.hpp:76] Creating layer relu7
I1202 00:12:47.341091  3167 net.cpp:106] Creating Layer relu7
I1202 00:12:47.341097  3167 net.cpp:454] relu7 <- fc7
I1202 00:12:47.341104  3167 net.cpp:397] relu7 -> fc7 (in-place)
I1202 00:12:47.342149  3167 net.cpp:150] Setting up relu7
I1202 00:12:47.342164  3167 net.cpp:157] Top shape: 250 2048 (512000)
I1202 00:12:47.342169  3167 net.cpp:165] Memory required for data: 484195000
I1202 00:12:47.342172  3167 layer_factory.hpp:76] Creating layer drop7
I1202 00:12:47.342180  3167 net.cpp:106] Creating Layer drop7
I1202 00:12:47.342185  3167 net.cpp:454] drop7 <- fc7
I1202 00:12:47.342192  3167 net.cpp:397] drop7 -> fc7 (in-place)
I1202 00:12:47.342236  3167 net.cpp:150] Setting up drop7
I1202 00:12:47.342242  3167 net.cpp:157] Top shape: 250 2048 (512000)
I1202 00:12:47.342245  3167 net.cpp:165] Memory required for data: 486243000
I1202 00:12:47.342249  3167 layer_factory.hpp:76] Creating layer fc8
I1202 00:12:47.342258  3167 net.cpp:106] Creating Layer fc8
I1202 00:12:47.342262  3167 net.cpp:454] fc8 <- fc7
I1202 00:12:47.342286  3167 net.cpp:411] fc8 -> fc8
I1202 00:12:47.418015  3167 net.cpp:150] Setting up fc8
I1202 00:12:47.418041  3167 net.cpp:157] Top shape: 250 1000 (250000)
I1202 00:12:47.418045  3167 net.cpp:165] Memory required for data: 487243000
I1202 00:12:47.418057  3167 layer_factory.hpp:76] Creating layer fc8_fc8_0_split
I1202 00:12:47.418067  3167 net.cpp:106] Creating Layer fc8_fc8_0_split
I1202 00:12:47.418073  3167 net.cpp:454] fc8_fc8_0_split <- fc8
I1202 00:12:47.418082  3167 net.cpp:411] fc8_fc8_0_split -> fc8_fc8_0_split_0
I1202 00:12:47.418093  3167 net.cpp:411] fc8_fc8_0_split -> fc8_fc8_0_split_1
I1202 00:12:47.418174  3167 net.cpp:150] Setting up fc8_fc8_0_split
I1202 00:12:47.418180  3167 net.cpp:157] Top shape: 250 1000 (250000)
I1202 00:12:47.418185  3167 net.cpp:157] Top shape: 250 1000 (250000)
I1202 00:12:47.418190  3167 net.cpp:165] Memory required for data: 489243000
I1202 00:12:47.418193  3167 layer_factory.hpp:76] Creating layer accuracy
I1202 00:12:47.418207  3167 net.cpp:106] Creating Layer accuracy
I1202 00:12:47.418211  3167 net.cpp:454] accuracy <- fc8_fc8_0_split_0
I1202 00:12:47.418216  3167 net.cpp:454] accuracy <- label_data_1_split_0
I1202 00:12:47.418221  3167 net.cpp:411] accuracy -> accuracy
…
