…
      source: "/local/temporary/imagenet144pxlmdb/ilsvrc12_128_train_lmdb"
      batch_size: 256
      backend: LMDB
    }
  }
  layer {
    name: "data"
    type: "Data"
    top: "data"
    top: "label"
    include {
      phase: TEST
    }
    transform_param {
      scale: 0.04
      mirror: false
      crop_size: 128
      mean_value: 104
      mean_value: 117
      mean_value: 123
      force_color: true
    }
    data_param {
      source: "/local/temporary/imagenet144pxlmdb/ilsvrc12_128_val_lmdb"
      batch_size: 50
      backend: LMDB
    }
  }
  layer {
    name: "conv1"
    type: "Convolution"
    bottom: "data"
    top: "conv1"
    param {
      lr_mult: 1
      decay_mult: 1
    }
    param {
      lr_mult: 2
      decay_mult: 0
    }
    convolution_param {
      num_output: 96
      kernel_size: 11
      stride: 4
      weight_filler {
        type: "gaussian"
        std: 0.01
      }
      bias_filler {
        type: "constant"
      }
    }
  }
  layer {
    name: "relu1"
    type: "ReLU"
    bottom: "conv1"
    top: "conv1"
  }
  layer {
    name: "conv1_BN"
    type: "BatchNorm"
    bottom: "conv1"
    top: "conv1_BN"
    param {
      lr_mult: 0
      decay_mult: 0
    }
    param {
      lr_mult: 0
      decay_mult: 0
    }
    param {
      lr_mult: 0
      decay_mult: 0
    }
    include {
      phase: TRAIN
    }
    batch_norm_param {
      use_global_stats: false
      moving_average_fraction: 0.95
    }
  }
  layer {
    name: "conv1_BN"
    type: "BatchNorm"
    bottom: "conv1"
    top: "conv1_BN"
    param {
      lr_mult: 0
      decay_mult: 0
    }
    param {
      lr_mult: 0
      decay_mult: 0
    }
    param {
      lr_mult: 0
      decay_mult: 0
    }
    include {
      phase: TEST
    }
    batch_norm_param {
      use_global_stats: true
      moving_average_fraction: 0.95
    }
  }
  layer {
    name: "pool1"
    type: "Pooling"
    bottom: "conv1_BN"
    top: "pool1"
    pooling_param {
      pool: MAX
      kernel_size: 3
      stride: 2
    }
  }
  layer {
    name: "conv2"
    type: "Convolution"
    bottom: "pool1"
    top: "conv2"
    param {
      lr_mult: 1
      decay_mult: 1
    }
    param {
      lr_mult: 2
      decay_mult: 0
    }
    convolution_param {
      num_output: 256
      pad: 2
      kernel_size: 5
      group: 2
      weight_filler {
        type: "gaussian"
        std: 0.01
      }
      bias_filler {
        type: "constant"
      }
    }
  }
  layer {
    name: "relu2"
    type: "ReLU"
    bottom: "conv2"
    top: "conv2"
  }
  layer {
    name: "conv2_BN"
    type: "BatchNorm"
    bottom: "conv2"
    top: "conv2_BN"
    param {
      lr_mult: 0
      decay_mult: 0
    }
    param {
      lr_mult: 0
      decay_mult: 0
    }
    param {
      lr_mult: 0
      decay_mult: 0
    }
    include {
      phase: TRAIN
    }
    batch_norm_param {
      use_global_stats: false
      moving_average_fraction: 0.95
    }
  }
  layer {
    name: "conv2_BN"
    type: "BatchNorm"
    bottom: "conv2"
    top: "conv2_BN"
    param {
      lr_mult: 0
      decay_mult: 0
    }
    param {
      lr_mult: 0
      decay_mult: 0
    }
    param {
      lr_mult: 0
      decay_mult: 0
    }
    include {
      phase: TEST
    }
    batch_norm_param {
      use_global_stats: true
      moving_average_fraction: 0.95
    }
  }
  layer {
    name: "pool2"
    type: "Pooling"
    bottom: "conv2_BN"
    top: "pool2"
    pooling_param {
      pool: MAX
      kernel_size: 3
      stride: 2
    }
  }
  layer {
    name: "conv3"
    type: "Convolution"
    bottom: "pool2"
    top: "conv3"
    param {
      lr_mult: 1
      decay_mult: 1
    }
    param {
      lr_mult: 2
      decay_mult: 0
    }
    convolution_param {
      num_output: 384
      pad: 1
      kernel_size: 3
      weight_filler {
        type: "gaussian"
        std: 0.01
      }
      bias_filler {
        type: "constant"
      }
    }
  }
  layer {
    name: "relu3"
    type: "ReLU"
    bottom: "conv3"
    top: "conv3"
  }
  layer {
    name: "conv3_BN"
    type: "BatchNorm"
    bottom: "conv3"
    top: "conv3_BN"
    param {
      lr_mult: 0
      decay_mult: 0
    }
    param {
      lr_mult: 0
      decay_mult: 0
    }
    param {
      lr_mult: 0
      decay_mult: 0
    }
    include {
      phase: TRAIN
    }
    batch_norm_param {
      use_global_stats: false
      moving_average_fraction: 0.95
    }
  }
  layer {
    name: "conv3_BN"
    type: "BatchNorm"
    bottom: "conv3"
    top: "conv3_BN"
    param {
      lr_mult: 0
      decay_mult: 0
    }
    param {
      lr_mult: 0
      decay_mult: 0
    }
    param {
      lr_mult: 0
      decay_mult: 0
    }
    include {
      phase: TEST
    }
    batch_norm_param {
      use_global_stats: true
      moving_average_fraction: 0.95
    }
  }
  layer {
    name: "conv4"
    type: "Convolution"
    bottom: "conv3_BN"
    top: "conv4"
    param {
      lr_mult: 1
      decay_mult: 1
    }
    param {
      lr_mult: 2
      decay_mult: 0
    }
    convolution_param {
      num_output: 384
      pad: 1
      kernel_size: 3
      group: 2
      weight_filler {
        type: "gaussian"
        std: 0.01
      }
      bias_filler {
        type: "constant"
      }
    }
  }
  layer {
    name: "relu4"
    type: "ReLU"
    bottom: "conv4"
    top: "conv4"
  }
  layer {
    name: "conv4_BN"
    type: "BatchNorm"
    bottom: "conv4"
    top: "conv4_BN"
    param {
      lr_mult: 0
      decay_mult: 0
    }
    param {
      lr_mult: 0
      decay_mult: 0
    }
    param {
      lr_mult: 0
      decay_mult: 0
    }
    include {
      phase: TRAIN
    }
    batch_norm_param {
      use_global_stats: false
      moving_average_fraction: 0.95
    }
  }
  layer {
    name: "conv4_BN"
    type: "BatchNorm"
    bottom: "conv4"
    top: "conv4_BN"
    param {
      lr_mult: 0
      decay_mult: 0
    }
    param {
      lr_mult: 0
      decay_mult: 0
    }
    param {
      lr_mult: 0
      decay_mult: 0
    }
    include {
      phase: TEST
    }
    batch_norm_param {
      use_global_stats: true
      moving_average_fraction: 0.95
    }
  }
  layer {
    name: "conv5"
    type: "Convolution"
    bottom: "conv4_BN"
    top: "conv5"
    param {
      lr_mult: 1
      decay_mult: 1
    }
    param {
      lr_mult: 2
      decay_mult: 0
    }
    convolution_param {
      num_output: 256
      pad: 1
      kernel_size: 3
      group: 2
      weight_filler {
        type: "gaussian"
        std: 0.01
      }
      bias_filler {
        type: "constant"
      }
    }
  }
  layer {
    name: "relu5"
    type: "ReLU"
    bottom: "conv5"
    top: "conv5"
  }
  layer {
    name: "conv5_BN"
    type: "BatchNorm"
    bottom: "conv5"
    top: "conv5_BN"
    param {
      lr_mult: 0
      decay_mult: 0
    }
    param {
      lr_mult: 0
      decay_mult: 0
    }
    param {
      lr_mult: 0
      decay_mult: 0
    }
    include {
      phase: TRAIN
    }
    batch_norm_param {
      use_global_stats: false
      moving_average_fraction: 0.95
    }
  }
  layer {
    name: "conv5_BN"
    type: "BatchNorm"
    bottom: "conv5"
    top: "conv5_BN"
    param {
      lr_mult: 0
      decay_mult: 0
    }
    param {
      lr_mult: 0
      decay_mult: 0
    }
    param {
      lr_mult: 0
      decay_mult: 0
    }
    include {
      phase: TEST
    }
    batch_norm_param {
      use_global_stats: true
      moving_average_fraction: 0.95
    }
  }
  layer {
    name: "pool5"
    type: "Pooling"
    bottom: "conv5_BN"
    top: "pool5"
    pooling_param {
      pool: MAX
      kernel_size: 3
      stride: 2
    }
  }
  layer {
    name: "fc6"
    type: "InnerProduct"
    bottom: "pool5"
    top: "fc6"
    param {
      lr_mult: 1
      decay_mult: 1
    }
    param {
      lr_mult: 2
      decay_mult: 0
    }
    inner_product_param {
      num_output: 2048
      weight_filler {
        type: "gaussian"
        std: 0.005
      }
      bias_filler {
        type: "constant"
      }
    }
  }
  layer {
    name: "relu6"
    type: "ReLU"
    bottom: "fc6"
    top: "fc6"
  }
  layer {
    name: "fc6_BN"
    type: "BatchNorm"
    bottom: "fc6"
    top: "fc6_BN"
    param {
      lr_mult: 0
      decay_mult: 0
    }
    param {
      lr_mult: 0
      decay_mult: 0
    }
    param {
      lr_mult: 0
      decay_mult: 0
    }
    include {
      phase: TRAIN
    }
    batch_norm_param {
      use_global_stats: false
      moving_average_fraction: 0.95
    }
  }
  layer {
    name: "fc6_BN"
    type: "BatchNorm"
    bottom: "fc6"
    top: "fc6_BN"
    param {
      lr_mult: 0
      decay_mult: 0
    }
    param {
      lr_mult: 0
      decay_mult: 0
    }
    param {
      lr_mult: 0
      decay_mult: 0
    }
    include {
      phase: TEST
    }
    batch_norm_param {
      use_global_stats: true
      moving_average_fraction: 0.95
    }
  }
  layer {
    name: "drop6"
    type: "Dropout"
    bottom: "fc6_BN"
    top: "drop6"
    dropout_param {
      dropout_ratio: 0.5
    }
  }
  layer {
    name: "fc7"
    type: "InnerProduct"
    bottom: "drop6"
    top: "fc7"
    param {
      lr_mult: 1
      decay_mult: 1
    }
    param {
      lr_mult: 2
      decay_mult: 0
    }
    inner_product_param {
      num_output: 2048
      weight_filler {
        type: "gaussian"
        std: 0.005
      }
      bias_filler {
        type: "constant"
      }
    }
  }
  layer {
    name: "relu7"
    type: "ReLU"
    bottom: "fc7"
    top: "fc7"
  }
  layer {
    name: "fc7_BN"
    type: "BatchNorm"
    bottom: "fc7"
    top: "fc7_BN"
    param {
      lr_mult: 0
      decay_mult: 0
    }
    param {
      lr_mult: 0
      decay_mult: 0
    }
    param {
      lr_mult: 0
      decay_mult: 0
    }
    include {
      phase: TRAIN
    }
    batch_norm_param {
      use_global_stats: false
      moving_average_fraction: 0.95
    }
  }
  layer {
    name: "fc7_BN"
    type: "BatchNorm"
    bottom: "fc7"
    top: "fc7_BN"
    param {
      lr_mult: 0
      decay_mult: 0
    }
    param {
      lr_mult: 0
      decay_mult: 0
    }
    param {
      lr_mult: 0
      decay_mult: 0
    }
    include {
      phase: TEST
    }
    batch_norm_param {
      use_global_stats: true
      moving_average_fraction: 0.95
    }
  }
  layer {
    name: "drop7"
    type: "Dropout"
    bottom: "fc7_BN"
    top: "drop7"
    dropout_param {
      dropout_ratio: 0.5
    }
  }
  layer {
    name: "fc8"
    type: "InnerProduct"
    bottom: "drop7"
    top: "fc8"
    param {
      lr_mult: 1
      decay_mult: 1
    }
    param {
      lr_mult: 2
      decay_mult: 0
    }
    inner_product_param {
      num_output: 1000
      weight_filler {
        type: "gaussian"
        std: 0.01
      }
      bias_filler {
        type: "constant"
      }
    }
  }
  layer {
    name: "accuracy"
    type: "Accuracy"
    bottom: "fc8"
    bottom: "label"
    top: "accuracy"
    include {
      phase: TEST
    }
  }
  layer {
    name: "loss"
    type: "SoftmaxWithLoss"
    bottom: "fc8"
    bottom: "label"
    top: "loss"
  }
}
iter_size: 1
type: "SGD"
I0316 16:52:21.464936  4405 solver.cpp:86] Creating training net specified in net_param.
I0316 16:52:21.465234  4405 net.cpp:322] The NetState phase (0) differed from the phase (1) specified by a rule in layer data
I0316 16:52:21.465262  4405 net.cpp:322] The NetState phase (0) differed from the phase (1) specified by a rule in layer conv1_BN
I0316 16:52:21.465309  4405 net.cpp:322] The NetState phase (0) differed from the phase (1) specified by a rule in layer conv2_BN
…
I0316 16:52:21.465383  4405 net.cpp:322] The NetState phase (0) differed from the phase (1) specified by a rule in layer accuracy
I0316 16:52:21.466195  4405 net.cpp:49] Initializing net from parameters: 
name: "CaffeNet"
state {
  phase: TRAIN
}
layer {
  name: "data"
  type: "Data"
  top: "data"
  top: "label"
  include {
    phase: TRAIN
  }
  transform_param {
    scale: 0.04
    mirror: true
    crop_size: 128
    mean_value: 104
    mean_value: 117
    mean_value: 124
    force_color: true
  }
  data_param {
    source: "/local/temporary/imagenet144pxlmdb/ilsvrc12_128_train_lmdb"
    batch_size: 256
    backend: LMDB
  }
}
layer {
  name: "conv1"
  type: "Convolution"
  bottom: "data"
  top: "conv1"
  param {
    lr_mult: 1
    decay_mult: 1
  }
  param {
    lr_mult: 2
    decay_mult: 0
  }
  convolution_param {
    num_output: 96
    kernel_size: 11
    stride: 4
    weight_filler {
      type: "gaussian"
      std: 0.01
    }
    bias_filler {
      type: "constant"
    }
  }
}
layer {
  name: "relu1"
  type: "ReLU"
  bottom: "conv1"
  top: "conv1"
}
layer {
  name: "conv1_BN"
  type: "BatchNorm"
  bottom: "conv1"
  top: "conv1_BN"
  param {
    lr_mult: 0
    decay_mult: 0
  }
  param {
    lr_mult: 0
    decay_mult: 0
  }
  param {
    lr_mult: 0
    decay_mult: 0
  }
  include {
    phase: TRAIN
  }
  batch_norm_param {
    use_global_stats: false
    moving_average_fraction: 0.95
  }
}
layer {
  name: "pool1"
  type: "Pooling"
  bottom: "conv1_BN"
  top: "pool1"
  pooling_param {
    pool: MAX
    kernel_size: 3
    stride: 2
  }
}
layer {
  name: "conv2"
  type: "Convolution"
  bottom: "pool1"
  top: "conv2"
  param {
    lr_mult: 1
    decay_mult: 1
  }
  param {
    lr_mult: 2
    decay_mult: 0
  }
  convolution_param {
    num_output: 256
    pad: 2
    kernel_size: 5
    group: 2
    weight_filler {
      type: "gaussian"
      std: 0.01
    }
    bias_filler {
      type: "constant"
    }
  }
}
layer {
  name: "relu2"
  type: "ReLU"
  bottom: "conv2"
  top: "conv2"
}
layer {
  name: "conv2_BN"
  type: "BatchNorm"
  bottom: "conv2"
  top: "conv2_BN"
  param {
    lr_mult: 0
    decay_mult: 0
  }
  param {
    lr_mult: 0
    decay_mult: 0
  }
  param {
    lr_mult: 0
    decay_mult: 0
  }
  include {
    phase: TRAIN
  }
  batch_norm_param {
    use_global_stats: false
    moving_average_fraction: 0.95
  }
}
layer {
  name: "pool2"
  type: "Pooling"
  bottom: "conv2_BN"
  top: "pool2"
  pooling_param {
    pool: MAX
    kernel_size: 3
    stride: 2
  }
}
layer {
  name: "conv3"
  type: "Convolution"
  bottom: "pool2"
  top: "conv3"
  param {
    lr_mult: 1
    decay_mult: 1
  }
  param {
    lr_mult: 2
    decay_mult: 0
  }
  convolution_param {
    num_output: 384
    pad: 1
    kernel_size: 3
    weight_filler {
      type: "gaussian"
      std: 0.01
    }
    bias_filler {
      type: "constant"
    }
  }
}
layer {
  name: "relu3"
  type: "ReLU"
  bottom: "conv3"
  top: "conv3"
}
layer {
  name: "conv3_BN"
  type: "BatchNorm"
  bottom: "conv3"
  top: "conv3_BN"
  param {
    lr_mult: 0
    decay_mult: 0
  }
  param {
    lr_mult: 0
    decay_mult: 0
  }
  param {
    lr_mult: 0
    decay_mult: 0
  }
  include {
    phase: TRAIN
  }
  batch_norm_param {
    use_global_stats: false
    moving_average_fraction: 0.95
  }
}
layer {
  name: "conv4"
  type: "Convolution"
  bottom: "conv3_BN"
  top: "conv4"
  param {
    lr_mult: 1
    decay_mult: 1
  }
  param {
    lr_mult: 2
    decay_mult: 0
  }
  convolution_param {
    num_output: 384
    pad: 1
    kernel_size: 3
    group: 2
    weight_filler {
      type: "gaussian"
      std: 0.01
    }
    bias_filler {
      type: "constant"
    }
  }
}
layer {
  name: "relu4"
  type: "ReLU"
  bottom: "conv4"
  top: "conv4"
}
layer {
  name: "conv4_BN"
  type: "BatchNorm"
  bottom: "conv4"
  top: "conv4_BN"
  param {
    lr_mult: 0
    decay_mult: 0
  }
  param {
    lr_mult: 0
    decay_mult: 0
  }
  param {
    lr_mult: 0
    decay_mult: 0
  }
  include {
    phase: TRAIN
  }
  batch_norm_param {
    use_global_stats: false
    moving_average_fraction: 0.95
  }
}
layer {
  name: "conv5"
  type: "Convolution"
  bottom: "conv4_BN"
  top: "conv5"
  param {
    lr_mult: 1
    decay_mult: 1
  }
  param {
    lr_mult: 2
    decay_mult: 0
  }
  convolution_param {
    num_output: 256
    pad: 1
    kernel_size: 3
    group: 2
    weight_filler {
      type: "gaussian"
      std: 0.01
    }
    bias_filler {
      type: "constant"
    }
  }
}
layer {
  name: "relu5"
  type: "ReLU"
  bottom: "conv5"
  top: "conv5"
}
layer {
  name: "conv5_BN"
  type: "BatchNorm"
  bottom: "conv5"
  top: "conv5_BN"
  param {
    lr_mult: 0
    decay_mult: 0
  }
  param {
    lr_mult: 0
    decay_mult: 0
  }
  param {
    lr_mult: 0
    decay_mult: 0
  }
  include {
    phase: TRAIN
  }
  batch_norm_param {
    use_global_stats: false
    moving_average_fraction: 0.95
  }
}
layer {
  name: "pool5"
  type: "Pooling"
  bottom: "conv5_BN"
  top: "pool5"
  pooling_param {
    pool: MAX
    kernel_size: 3
    stride: 2
  }
}
layer {
  name: "fc6"
  type: "InnerProduct"
  bottom: "pool5"
  top: "fc6"
  param {
    lr_mult: 1
    decay_mult: 1
  }
  param {
    lr_mult: 2
    decay_mult: 0
  }
  inner_product_param {
    num_output: 2048
    weight_filler {
      type: "gaussian"
      std: 0.005
    }
    bias_filler {
      type: "constant"
    }
  }
}
layer {
  name: "relu6"
  type: "ReLU"
  bottom: "fc6"
  top: "fc6"
}
layer {
  name: "fc6_BN"
  type: "BatchNorm"
  bottom: "fc6"
  top: "fc6_BN"
  param {
    lr_mult: 0
    decay_mult: 0
  }
  param {
    lr_mult: 0
    decay_mult: 0
  }
  param {
    lr_mult: 0
    decay_mult: 0
  }
  include {
    phase: TRAIN
  }
  batch_norm_param {
    use_global_stats: false
    moving_average_fraction: 0.95
  }
}
layer {
  name: "drop6"
  type: "Dropout"
  bottom: "fc6_BN"
  top: "drop6"
  dropout_param {
    dropout_ratio: 0.5
  }
}
layer {
  name: "fc7"
  type: "InnerProduct"
  bottom: "drop6"
  top: "fc7"
  param {
    lr_mult: 1
    decay_mult: 1
  }
  param {
    lr_mult: 2
    decay_mult: 0
  }
  inner_product_param {
    num_output: 2048
    weight_filler {
      type: "gaussian"
      std: 0.005
    }
    bias_filler {
      type: "constant"
    }
  }
}
layer {
  name: "relu7"
  type: "ReLU"
  bottom: "fc7"
  top: "fc7"
}
layer {
  name: "fc7_BN"
  type: "BatchNorm"
  bottom: "fc7"
  top: "fc7_BN"
  param {
    lr_mult: 0
    decay_mult: 0
  }
  param {
    lr_mult: 0
    decay_mult: 0
  }
  param {
    lr_mult: 0
    decay_mult: 0
  }
  include {
    phase: TRAIN
  }
  batch_norm_param {
    use_global_stats: false
    moving_average_fraction: 0.95
  }
}
layer {
  name: "drop7"
  type: "Dropout"
  bottom: "fc7_BN"
  top: "drop7"
  dropout_param {
    dropout_ratio: 0.5
  }
}
layer {
  name: "fc8"
  type: "InnerProduct"
  bottom: "drop7"
  top: "fc8"
  param {
    lr_mult: 1
    decay_mult: 1
  }
  param {
    lr_mult: 2
    decay_mult: 0
  }
  inner_product_param {
    num_output: 1000
    weight_filler {
      type: "gaussian"
      std: 0.01
    }
    bias_filler {
      type: "constant"
    }
  }
}
layer {
  name: "loss"
  type: "SoftmaxWithLoss"
  bottom: "fc8"
  bottom: "label"
  top: "loss"
}
I0316 16:52:21.466475  4405 layer_factory.hpp:76] Creating layer data
I0316 16:52:21.467793  4405 net.cpp:106] Creating Layer data
I0316 16:52:21.467835  4405 net.cpp:411] data -> data
I0316 16:52:21.467880  4405 net.cpp:411] data -> label
I0316 16:52:21.468751  4442 db_lmdb.cpp:38] Opened lmdb /local/temporary/imagenet144pxlmdb/ilsvrc12_128_train_lmdb
I0316 16:52:21.490564  4405 data_layer.cpp:41] output data size: 256,3,128,128
I0316 16:52:21.597172  4405 net.cpp:150] Setting up data
I0316 16:52:21.597213  4405 net.cpp:157] Top shape: 256 3 128 128 (12582912)
I0316 16:52:21.597220  4405 net.cpp:157] Top shape: 256 (256)
I0316 16:52:21.597223  4405 net.cpp:165] Memory required for data: 50332672
I0316 16:52:21.597235  4405 layer_factory.hpp:76] Creating layer conv1
I0316 16:52:21.597259  4405 net.cpp:106] Creating Layer conv1
I0316 16:52:21.597265  4405 net.cpp:454] conv1 <- data
I0316 16:52:21.597281  4405 net.cpp:411] conv1 -> conv1
I0316 16:52:21.729077  4405 net.cpp:150] Setting up conv1
I0316 16:52:21.729106  4405 net.cpp:157] Top shape: 256 96 30 30 (22118400)
I0316 16:52:21.729111  4405 net.cpp:165] Memory required for data: 138806272
I0316 16:52:21.729135  4405 layer_factory.hpp:76] Creating layer relu1
I0316 16:52:21.729147  4405 net.cpp:106] Creating Layer relu1
I0316 16:52:21.729151  4405 net.cpp:454] relu1 <- conv1
I0316 16:52:21.729157  4405 net.cpp:397] relu1 -> conv1 (in-place)
I0316 16:52:21.729349  4405 net.cpp:150] Setting up relu1
I0316 16:52:21.729358  4405 net.cpp:157] Top shape: 256 96 30 30 (22118400)
I0316 16:52:21.729362  4405 net.cpp:165] Memory required for data: 227279872
I0316 16:52:21.729367  4405 layer_factory.hpp:76] Creating layer conv1_BN
I0316 16:52:21.729375  4405 net.cpp:106] Creating Layer conv1_BN
I0316 16:52:21.729382  4405 net.cpp:454] conv1_BN <- conv1
I0316 16:52:21.729387  4405 net.cpp:411] conv1_BN -> conv1_BN
I0316 16:52:21.729607  4405 net.cpp:150] Setting up conv1_BN
I0316 16:52:21.729621  4405 net.cpp:157] Top shape: 256 96 30 30 (22118400)
I0316 16:52:21.729626  4405 net.cpp:165] Memory required for data: 315753472
I0316 16:52:21.729638  4405 layer_factory.hpp:76] Creating layer pool1
I0316 16:52:21.729648  4405 net.cpp:106] Creating Layer pool1
I0316 16:52:21.729652  4405 net.cpp:454] pool1 <- conv1_BN
I0316 16:52:21.729657  4405 net.cpp:411] pool1 -> pool1
I0316 16:52:21.729992  4405 net.cpp:150] Setting up pool1
I0316 16:52:21.730006  4405 net.cpp:157] Top shape: 256 96 15 15 (5529600)
I0316 16:52:21.730010  4405 net.cpp:165] Memory required for data: 337871872
I0316 16:52:21.730015  4405 layer_factory.hpp:76] Creating layer conv2
I0316 16:52:21.730025  4405 net.cpp:106] Creating Layer conv2
I0316 16:52:21.730029  4405 net.cpp:454] conv2 <- pool1
I0316 16:52:21.730036  4405 net.cpp:411] conv2 -> conv2
I0316 16:52:21.742308  4405 net.cpp:150] Setting up conv2
I0316 16:52:21.742324  4405 net.cpp:157] Top shape: 256 256 15 15 (14745600)
I0316 16:52:21.742328  4405 net.cpp:165] Memory required for data: 396854272
I0316 16:52:21.742336  4405 layer_factory.hpp:76] Creating layer relu2
I0316 16:52:21.742342  4405 net.cpp:106] Creating Layer relu2
I0316 16:52:21.742347  4405 net.cpp:454] relu2 <- conv2
I0316 16:52:21.742354  4405 net.cpp:397] relu2 -> conv2 (in-place)
I0316 16:52:21.742534  4405 net.cpp:150] Setting up relu2
I0316 16:52:21.742543  4405 net.cpp:157] Top shape: 256 256 15 15 (14745600)
I0316 16:52:21.742547  4405 net.cpp:165] Memory required for data: 455836672
I0316 16:52:21.742549  4405 layer_factory.hpp:76] Creating layer conv2_BN
I0316 16:52:21.742558  4405 net.cpp:106] Creating Layer conv2_BN
I0316 16:52:21.742563  4405 net.cpp:454] conv2_BN <- conv2
I0316 16:52:21.742571  4405 net.cpp:411] conv2_BN -> conv2_BN
I0316 16:52:21.742786  4405 net.cpp:150] Setting up conv2_BN
I0316 16:52:21.742810  4405 net.cpp:157] Top shape: 256 256 15 15 (14745600)
I0316 16:52:21.742815  4405 net.cpp:165] Memory required for data: 514819072
I0316 16:52:21.742828  4405 layer_factory.hpp:76] Creating layer pool2
I0316 16:52:21.742837  4405 net.cpp:106] Creating Layer pool2
I0316 16:52:21.742841  4405 net.cpp:454] pool2 <- conv2_BN
I0316 16:52:21.742846  4405 net.cpp:411] pool2 -> pool2
I0316 16:52:21.743232  4405 net.cpp:150] Setting up pool2
I0316 16:52:21.743247  4405 net.cpp:157] Top shape: 256 256 7 7 (3211264)
I0316 16:52:21.743250  4405 net.cpp:165] Memory required for data: 527664128
I0316 16:52:21.743254  4405 layer_factory.hpp:76] Creating layer conv3
I0316 16:52:21.743263  4405 net.cpp:106] Creating Layer conv3
I0316 16:52:21.743268  4405 net.cpp:454] conv3 <- pool2
I0316 16:52:21.743275  4405 net.cpp:411] conv3 -> conv3
I0316 16:52:21.774265  4405 net.cpp:150] Setting up conv3
I0316 16:52:21.774282  4405 net.cpp:157] Top shape: 256 384 7 7 (4816896)
I0316 16:52:21.774286  4405 net.cpp:165] Memory required for data: 546931712
I0316 16:52:21.774294  4405 layer_factory.hpp:76] Creating layer relu3
I0316 16:52:21.774317  4405 net.cpp:106] Creating Layer relu3
I0316 16:52:21.774320  4405 net.cpp:454] relu3 <- conv3
I0316 16:52:21.774327  4405 net.cpp:397] relu3 -> conv3 (in-place)
I0316 16:52:21.774641  4405 net.cpp:150] Setting up relu3
I0316 16:52:21.774653  4405 net.cpp:157] Top shape: 256 384 7 7 (4816896)
I0316 16:52:21.774657  4405 net.cpp:165] Memory required for data: 566199296
I0316 16:52:21.774660  4405 layer_factory.hpp:76] Creating layer conv3_BN
I0316 16:52:21.774670  4405 net.cpp:106] Creating Layer conv3_BN
I0316 16:52:21.774675  4405 net.cpp:454] conv3_BN <- conv3
I0316 16:52:21.774682  4405 net.cpp:411] conv3_BN -> conv3_BN
I0316 16:52:21.774893  4405 net.cpp:150] Setting up conv3_BN
I0316 16:52:21.774901  4405 net.cpp:157] Top shape: 256 384 7 7 (4816896)
I0316 16:52:21.774904  4405 net.cpp:165] Memory required for data: 585466880
I0316 16:52:21.774920  4405 layer_factory.hpp:76] Creating layer conv4
I0316 16:52:21.774930  4405 net.cpp:106] Creating Layer conv4
I0316 16:52:21.774935  4405 net.cpp:454] conv4 <- conv3_BN
I0316 16:52:21.774942  4405 net.cpp:411] conv4 -> conv4
I0316 16:52:21.799268  4405 net.cpp:150] Setting up conv4
I0316 16:52:21.799283  4405 net.cpp:157] Top shape: 256 384 7 7 (4816896)
I0316 16:52:21.799288  4405 net.cpp:165] Memory required for data: 604734464
I0316 16:52:21.799299  4405 layer_factory.hpp:76] Creating layer relu4
I0316 16:52:21.799306  4405 net.cpp:106] Creating Layer relu4
I0316 16:52:21.799309  4405 net.cpp:454] relu4 <- conv4
I0316 16:52:21.799315  4405 net.cpp:397] relu4 -> conv4 (in-place)
I0316 16:52:21.799505  4405 net.cpp:150] Setting up relu4
I0316 16:52:21.799515  4405 net.cpp:157] Top shape: 256 384 7 7 (4816896)
I0316 16:52:21.799520  4405 net.cpp:165] Memory required for data: 624002048
I0316 16:52:21.799530  4405 layer_factory.hpp:76] Creating layer conv4_BN
I0316 16:52:21.799538  4405 net.cpp:106] Creating Layer conv4_BN
I0316 16:52:21.799541  4405 net.cpp:454] conv4_BN <- conv4
I0316 16:52:21.799549  4405 net.cpp:411] conv4_BN -> conv4_BN
I0316 16:52:21.799763  4405 net.cpp:150] Setting up conv4_BN
I0316 16:52:21.799770  4405 net.cpp:157] Top shape: 256 384 7 7 (4816896)
I0316 16:52:21.799773  4405 net.cpp:165] Memory required for data: 643269632
I0316 16:52:21.799782  4405 layer_factory.hpp:76] Creating layer conv5
I0316 16:52:21.799793  4405 net.cpp:106] Creating Layer conv5
I0316 16:52:21.799798  4405 net.cpp:454] conv5 <- conv4_BN
I0316 16:52:21.799803  4405 net.cpp:411] conv5 -> conv5
I0316 16:52:21.816815  4405 net.cpp:150] Setting up conv5
I0316 16:52:21.816829  4405 net.cpp:157] Top shape: 256 256 7 7 (3211264)
I0316 16:52:21.816833  4405 net.cpp:165] Memory required for data: 656114688
I0316 16:52:21.816840  4405 layer_factory.hpp:76] Creating layer relu5
I0316 16:52:21.816850  4405 net.cpp:106] Creating Layer relu5
I0316 16:52:21.816854  4405 net.cpp:454] relu5 <- conv5
I0316 16:52:21.816859  4405 net.cpp:397] relu5 -> conv5 (in-place)
I0316 16:52:21.817052  4405 net.cpp:150] Setting up relu5
I0316 16:52:21.817062  4405 net.cpp:157] Top shape: 256 256 7 7 (3211264)
I0316 16:52:21.817065  4405 net.cpp:165] Memory required for data: 668959744
I0316 16:52:21.817070  4405 layer_factory.hpp:76] Creating layer conv5_BN
I0316 16:52:21.817081  4405 net.cpp:106] Creating Layer conv5_BN
I0316 16:52:21.817085  4405 net.cpp:454] conv5_BN <- conv5
I0316 16:52:21.817119  4405 net.cpp:411] conv5_BN -> conv5_BN
I0316 16:52:21.817327  4405 net.cpp:150] Setting up conv5_BN
I0316 16:52:21.817335  4405 net.cpp:157] Top shape: 256 256 7 7 (3211264)
I0316 16:52:21.817338  4405 net.cpp:165] Memory required for data: 681804800
I0316 16:52:21.817347  4405 layer_factory.hpp:76] Creating layer pool5
I0316 16:52:21.817355  4405 net.cpp:106] Creating Layer pool5
I0316 16:52:21.817358  4405 net.cpp:454] pool5 <- conv5_BN
I0316 16:52:21.817368  4405 net.cpp:411] pool5 -> pool5
I0316 16:52:21.817706  4405 net.cpp:150] Setting up pool5
I0316 16:52:21.817718  4405 net.cpp:157] Top shape: 256 256 3 3 (589824)
I0316 16:52:21.817723  4405 net.cpp:165] Memory required for data: 684164096
I0316 16:52:21.817725  4405 layer_factory.hpp:76] Creating layer fc6
I0316 16:52:21.817734  4405 net.cpp:106] Creating Layer fc6
I0316 16:52:21.817739  4405 net.cpp:454] fc6 <- pool5
I0316 16:52:21.817746  4405 net.cpp:411] fc6 -> fc6
I0316 16:52:21.969319  4405 net.cpp:150] Setting up fc6
I0316 16:52:21.969343  4405 net.cpp:157] Top shape: 256 2048 (524288)
I0316 16:52:21.969347  4405 net.cpp:165] Memory required for data: 686261248
I0316 16:52:21.969357  4405 layer_factory.hpp:76] Creating layer relu6
I0316 16:52:21.969367  4405 net.cpp:106] Creating Layer relu6
I0316 16:52:21.969372  4405 net.cpp:454] relu6 <- fc6
I0316 16:52:21.969380  4405 net.cpp:397] relu6 -> fc6 (in-place)
I0316 16:52:21.969627  4405 net.cpp:150] Setting up relu6
I0316 16:52:21.969636  4405 net.cpp:157] Top shape: 256 2048 (524288)
I0316 16:52:21.969641  4405 net.cpp:165] Memory required for data: 688358400
I0316 16:52:21.969645  4405 layer_factory.hpp:76] Creating layer fc6_BN
I0316 16:52:21.969655  4405 net.cpp:106] Creating Layer fc6_BN
I0316 16:52:21.969660  4405 net.cpp:454] fc6_BN <- fc6
I0316 16:52:21.969669  4405 net.cpp:411] fc6_BN -> fc6_BN
I0316 16:52:21.969883  4405 net.cpp:150] Setting up fc6_BN
I0316 16:52:21.969892  4405 net.cpp:157] Top shape: 256 2048 (524288)
I0316 16:52:21.969894  4405 net.cpp:165] Memory required for data: 690455552
I0316 16:52:21.969902  4405 layer_factory.hpp:76] Creating layer drop6
I0316 16:52:21.969910  4405 net.cpp:106] Creating Layer drop6
I0316 16:52:21.969914  4405 net.cpp:454] drop6 <- fc6_BN
I0316 16:52:21.969921  4405 net.cpp:411] drop6 -> drop6
I0316 16:52:21.969957  4405 net.cpp:150] Setting up drop6
I0316 16:52:21.969964  4405 net.cpp:157] Top shape: 256 2048 (524288)
I0316 16:52:21.969967  4405 net.cpp:165] Memory required for data: 692552704
I0316 16:52:21.969970  4405 layer_factory.hpp:76] Creating layer fc7
I0316 16:52:21.969980  4405 net.cpp:106] Creating Layer fc7
I0316 16:52:21.969985  4405 net.cpp:454] fc7 <- drop6
I0316 16:52:21.969991  4405 net.cpp:411] fc7 -> fc7
I0316 16:52:22.104332  4405 net.cpp:150] Setting up fc7
I0316 16:52:22.104357  4405 net.cpp:157] Top shape: 256 2048 (524288)
I0316 16:52:22.104360  4405 net.cpp:165] Memory required for data: 694649856
I0316 16:52:22.104370  4405 layer_factory.hpp:76] Creating layer relu7
I0316 16:52:22.104380  4405 net.cpp:106] Creating Layer relu7
I0316 16:52:22.104384  4405 net.cpp:454] relu7 <- fc7
I0316 16:52:22.104392  4405 net.cpp:397] relu7 -> fc7 (in-place)
I0316 16:52:22.104856  4405 net.cpp:150] Setting up relu7
I0316 16:52:22.104869  4405 net.cpp:157] Top shape: 256 2048 (524288)
I0316 16:52:22.104872  4405 net.cpp:165] Memory required for data: 696747008
I0316 16:52:22.104876  4405 layer_factory.hpp:76] Creating layer fc7_BN
I0316 16:52:22.104887  4405 net.cpp:106] Creating Layer fc7_BN
I0316 16:52:22.104895  4405 net.cpp:454] fc7_BN <- fc7
I0316 16:52:22.104902  4405 net.cpp:411] fc7_BN -> fc7_BN
I0316 16:52:22.105113  4405 net.cpp:150] Setting up fc7_BN
I0316 16:52:22.105119  4405 net.cpp:157] Top shape: 256 2048 (524288)
I0316 16:52:22.105123  4405 net.cpp:165] Memory required for data: 698844160
I0316 16:52:22.105141  4405 layer_factory.hpp:76] Creating layer drop7
I0316 16:52:22.105149  4405 net.cpp:106] Creating Layer drop7
I0316 16:52:22.105154  4405 net.cpp:454] drop7 <- fc7_BN
I0316 16:52:22.105190  4405 net.cpp:411] drop7 -> drop7
I0316 16:52:22.105233  4405 net.cpp:150] Setting up drop7
I0316 16:52:22.105240  4405 net.cpp:157] Top shape: 256 2048 (524288)
I0316 16:52:22.105244  4405 net.cpp:165] Memory required for data: 700941312
I0316 16:52:22.105247  4405 layer_factory.hpp:76] Creating layer fc8
I0316 16:52:22.105255  4405 net.cpp:106] Creating Layer fc8
I0316 16:52:22.105259  4405 net.cpp:454] fc8 <- drop7
I0316 16:52:22.105267  4405 net.cpp:411] fc8 -> fc8
I0316 16:52:22.170918  4405 net.cpp:150] Setting up fc8
I0316 16:52:22.170944  4405 net.cpp:157] Top shape: 256 1000 (256000)
I0316 16:52:22.170948  4405 net.cpp:165] Memory required for data: 701965312
I0316 16:52:22.170958  4405 layer_factory.hpp:76] Creating layer loss
I0316 16:52:22.170969  4405 net.cpp:106] Creating Layer loss
I0316 16:52:22.170974  4405 net.cpp:454] loss <- fc8
I0316 16:52:22.170979  4405 net.cpp:454] loss <- label
I0316 16:52:22.170989  4405 net.cpp:411] loss -> loss
I0316 16:52:22.171001  4405 layer_factory.hpp:76] Creating layer loss
…
I0316 16:52:22.172808  4405 net.cpp:322] The NetState phase (1) differed from the phase (0) specified by a rule in layer fc7_BN
I0316 16:52:22.173230  4405 net.cpp:49] Initializing net from parameters: 
name: "CaffeNet"
state {
  phase: TEST
}
layer {
  name: "data"
  type: "Data"
  top: "data"
  top: "label"
  include {
    phase: TEST
  }
  transform_param {
    scale: 0.04
    mirror: false
    crop_size: 128
    mean_value: 104
    mean_value: 117
    mean_value: 123
    force_color: true
  }
  data_param {
    source: "/local/temporary/imagenet144pxlmdb/ilsvrc12_128_val_lmdb"
    batch_size: 50
    backend: LMDB
  }
}
layer {
  name: "conv1"
  type: "Convolution"
  bottom: "data"
  top: "conv1"
  param {
    lr_mult: 1
    decay_mult: 1
  }
  param {
    lr_mult: 2
    decay_mult: 0
  }
  convolution_param {
    num_output: 96
    kernel_size: 11
    stride: 4
    weight_filler {
      type: "gaussian"
      std: 0.01
    }
    bias_filler {
      type: "constant"
    }
  }
}
layer {
  name: "relu1"
  type: "ReLU"
  bottom: "conv1"
  top: "conv1"
}
layer {
  name: "conv1_BN"
  type: "BatchNorm"
  bottom: "conv1"
  top: "conv1_BN"
  param {
    lr_mult: 0
    decay_mult: 0
  }
  param {
    lr_mult: 0
    decay_mult: 0
  }
  param {
    lr_mult: 0
    decay_mult: 0
  }
  include {
    phase: TEST
  }
  batch_norm_param {
    use_global_stats: true
    moving_average_fraction: 0.95
  }
}
layer {
  name: "pool1"
  type: "Pooling"
  bottom: "conv1_BN"
  top: "pool1"
  pooling_param {
    pool: MAX
    kernel_size: 3
    stride: 2
  }
}
layer {
  name: "conv2"
  type: "Convolution"
  bottom: "pool1"
  top: "conv2"
  param {
    lr_mult: 1
    decay_mult: 1
  }
  param {
    lr_mult: 2
    decay_mult: 0
  }
  convolution_param {
    num_output: 256
    pad: 2
    kernel_size: 5
    group: 2
    weight_filler {
      type: "gaussian"
      std: 0.01
    }
    bias_filler {
      type: "constant"
    }
  }
}
layer {
  name: "relu2"
  type: "ReLU"
  bottom: "conv2"
  top: "conv2"
}
layer {
  name: "conv2_BN"
  type: "BatchNorm"
  bottom: "conv2"
  top: "conv2_BN"
  param {
    lr_mult: 0
    decay_mult: 0
  }
  param {
    lr_mult: 0
    decay_mult: 0
  }
  param {
    lr_mult: 0
    decay_mult: 0
  }
  include {
    phase: TEST
  }
  batch_norm_param {
    use_global_stats: true
    moving_average_fraction: 0.95
  }
}
layer {
  name: "pool2"
  type: "Pooling"
  bottom: "conv2_BN"
  top: "pool2"
  pooling_param {
    pool: MAX
    kernel_size: 3
    stride: 2
  }
}
layer {
  name: "conv3"
  type: "Convolution"
  bottom: "pool2"
  top: "conv3"
  param {
    lr_mult: 1
    decay_mult: 1
  }
  param {
    lr_mult: 2
    decay_mult: 0
  }
  convolution_param {
    num_output: 384
    pad: 1
    kernel_size: 3
    weight_filler {
      type: "gaussian"
      std: 0.01
    }
    bias_filler {
      type: "constant"
    }
  }
}
layer {
  name: "relu3"
  type: "ReLU"
  bottom: "conv3"
  top: "conv3"
}
layer {
  name: "conv3_BN"
  type: "BatchNorm"
  bottom: "conv3"
  top: "conv3_BN"
  param {
    lr_mult: 0
    decay_mult: 0
  }
  param {
    lr_mult: 0
    decay_mult: 0
  }
  param {
    lr_mult: 0
    decay_mult: 0
  }
  include {
    phase: TEST
  }
  batch_norm_param {
    use_global_stats: true
    moving_average_fraction: 0.95
  }
}
layer {
  name: "conv4"
  type: "Convolution"
  bottom: "conv3_BN"
  top: "conv4"
  param {
    lr_mult: 1
    decay_mult: 1
  }
  param {
    lr_mult: 2
    decay_mult: 0
  }
  convolution_param {
    num_output: 384
    pad: 1
    kernel_size: 3
    group: 2
    weight_filler {
      type: "gaussian"
      std: 0.01
    }
    bias_filler {
      type: "constant"
    }
  }
}
layer {
  name: "relu4"
  type: "ReLU"
  bottom: "conv4"
  top: "conv4"
}
layer {
  name: "conv4_BN"
  type: "BatchNorm"
  bottom: "conv4"
  top: "conv4_BN"
  param {
    lr_mult: 0
    decay_mult: 0
  }
  param {
    lr_mult: 0
    decay_mult: 0
  }
  param {
    lr_mult: 0
    decay_mult: 0
  }
  include {
    phase: TEST
  }
  batch_norm_param {
    use_global_stats: true
    moving_average_fraction: 0.95
  }
}
layer {
  name: "conv5"
  type: "Convolution"
  bottom: "conv4_BN"
  top: "conv5"
  param {
    lr_mult: 1
    decay_mult: 1
  }
  param {
    lr_mult: 2
    decay_mult: 0
  }
  convolution_param {
    num_output: 256
    pad: 1
    kernel_size: 3
    group: 2
    weight_filler {
      type: "gaussian"
      std: 0.01
    }
    bias_filler {
      type: "constant"
    }
  }
}
layer {
  name: "relu5"
  type: "ReLU"
  bottom: "conv5"
  top: "conv5"
}
layer {
  name: "conv5_BN"
  type: "BatchNorm"
  bottom: "conv5"
  top: "conv5_BN"
  param {
    lr_mult: 0
    decay_mult: 0
  }
  param {
    lr_mult: 0
    decay_mult: 0
  }
  param {
    lr_mult: 0
    decay_mult: 0
  }
  include {
    phase: TEST
  }
  batch_norm_param {
    use_global_stats: true
    moving_average_fraction: 0.95
  }
}
layer {
  name: "pool5"
  type: "Pooling"
  bottom: "conv5_BN"
  top: "pool5"
  pooling_param {
    pool: MAX
    kernel_size: 3
    stride: 2
  }
}
layer {
  name: "fc6"
  type: "InnerProduct"
  bottom: "pool5"
  top: "fc6"
  param {
    lr_mult: 1
    decay_mult: 1
  }
  param {
    lr_mult: 2
    decay_mult: 0
  }
  inner_product_param {
    num_output: 2048
    weight_filler {
      type: "gaussian"
      std: 0.005
    }
    bias_filler {
      type: "constant"
    }
  }
}
layer {
  name: "relu6"
  type: "ReLU"
  bottom: "fc6"
  top: "fc6"
}
layer {
  name: "fc6_BN"
  type: "BatchNorm"
  bottom: "fc6"
  top: "fc6_BN"
  param {
    lr_mult: 0
    decay_mult: 0
  }
  param {
    lr_mult: 0
    decay_mult: 0
  }
  param {
    lr_mult: 0
    decay_mult: 0
  }
  include {
    phase: TEST
  }
  batch_norm_param {
    use_global_stats: true
    moving_average_fraction: 0.95
  }
}
layer {
  name: "drop6"
  type: "Dropout"
  bottom: "fc6_BN"
  top: "drop6"
  dropout_param {
    dropout_ratio: 0.5
  }
}
layer {
  name: "fc7"
  type: "InnerProduct"
  bottom: "drop6"
  top: "fc7"
  param {
    lr_mult: 1
    decay_mult: 1
  }
  param {
    lr_mult: 2
    decay_mult: 0
  }
  inner_product_param {
    num_output: 2048
    weight_filler {
      type: "gaussian"
      std: 0.005
    }
    bias_filler {
      type: "constant"
    }
  }
}
layer {
  name: "relu7"
  type: "ReLU"
  bottom: "fc7"
  top: "fc7"
}
layer {
  name: "fc7_BN"
  type: "BatchNorm"
  bottom: "fc7"
  top: "fc7_BN"
  param {
    lr_mult: 0
    decay_mult: 0
  }
  param {
    lr_mult: 0
    decay_mult: 0
  }
  param {
    lr_mult: 0
    decay_mult: 0
  }
  include {
    phase: TEST
  }
  batch_norm_param {
    use_global_stats: true
    moving_average_fraction: 0.95
  }
}
layer {
  name: "drop7"
  type: "Dropout"
  bottom: "fc7_BN"
  top: "drop7"
  dropout_param {
    dropout_ratio: 0.5
  }
}
layer {
  name: "fc8"
  type: "InnerProduct"
  bottom: "drop7"
  top: "fc8"
  param {
    lr_mult: 1
    decay_mult: 1
  }
  param {
    lr_mult: 2
    decay_mult: 0
  }
  inner_product_param {
    num_output: 1000
    weight_filler {
      type: "gaussian"
      std: 0.01
    }
    bias_filler {
      type: "constant"
    }
  }
}
layer {
  name: "accuracy"
  type: "Accuracy"
  bottom: "fc8"
  bottom: "label"
  top: "accuracy"
  include {
    phase: TEST
  }
}
layer {
  name: "loss"
  type: "SoftmaxWithLoss"
  bottom: "fc8"
  bottom: "label"
  top: "loss"
}
I0316 16:52:22.173398  4405 layer_factory.hpp:76] Creating layer data
I0316 16:52:22.173507  4405 net.cpp:106] Creating Layer data
I0316 16:52:22.173516  4405 net.cpp:411] data -> data
I0316 16:52:22.173524  4405 net.cpp:411] data -> label
I0316 16:52:22.174526  4445 db_lmdb.cpp:38] Opened lmdb /local/temporary/imagenet144pxlmdb/ilsvrc12_128_val_lmdb
I0316 16:52:22.175495  4405 data_layer.cpp:41] output data size: 50,3,128,128
I0316 16:52:22.193393  4405 net.cpp:150] Setting up data
I0316 16:52:22.193426  4405 net.cpp:157] Top shape: 50 3 128 128 (2457600)
I0316 16:52:22.193431  4405 net.cpp:157] Top shape: 50 (50)
I0316 16:52:22.193434  4405 net.cpp:165] Memory required for data: 9830600
I0316 16:52:22.193446  4405 layer_factory.hpp:76] Creating layer label_data_1_split
I0316 16:52:22.193459  4405 net.cpp:106] Creating Layer label_data_1_split
I0316 16:52:22.193462  4405 net.cpp:454] label_data_1_split <- label
I0316 16:52:22.193470  4405 net.cpp:411] label_data_1_split -> label_data_1_split_0
I0316 16:52:22.193481  4405 net.cpp:411] label_data_1_split -> label_data_1_split_1
I0316 16:52:22.193583  4405 net.cpp:150] Setting up label_data_1_split
I0316 16:52:22.193590  4405 net.cpp:157] Top shape: 50 (50)
I0316 16:52:22.193594  4405 net.cpp:157] Top shape: 50 (50)
I0316 16:52:22.193598  4405 net.cpp:165] Memory required for data: 9831000
I0316 16:52:22.193601  4405 layer_factory.hpp:76] Creating layer conv1
I0316 16:52:22.193613  4405 net.cpp:106] Creating Layer conv1
I0316 16:52:22.193617  4405 net.cpp:454] conv1 <- data
I0316 16:52:22.193625  4405 net.cpp:411] conv1 -> conv1
I0316 16:52:22.195938  4405 net.cpp:150] Setting up conv1
I0316 16:52:22.195952  4405 net.cpp:157] Top shape: 50 96 30 30 (4320000)
I0316 16:52:22.195956  4405 net.cpp:165] Memory required for data: 27111000
I0316 16:52:22.195967  4405 layer_factory.hpp:76] Creating layer relu1
I0316 16:52:22.195976  4405 net.cpp:106] Creating Layer relu1
I0316 16:52:22.195981  4405 net.cpp:454] relu1 <- conv1
I0316 16:52:22.195986  4405 net.cpp:397] relu1 -> conv1 (in-place)
I0316 16:52:22.196300  4405 net.cpp:150] Setting up relu1
I0316 16:52:22.196311  4405 net.cpp:157] Top shape: 50 96 30 30 (4320000)
I0316 16:52:22.196316  4405 net.cpp:165] Memory required for data: 44391000
I0316 16:52:22.196321  4405 layer_factory.hpp:76] Creating layer conv1_BN
I0316 16:52:22.196331  4405 net.cpp:106] Creating Layer conv1_BN
I0316 16:52:22.196333  4405 net.cpp:454] conv1_BN <- conv1
I0316 16:52:22.196346  4405 net.cpp:411] conv1_BN -> conv1_BN
I0316 16:52:22.196589  4405 net.cpp:150] Setting up conv1_BN
I0316 16:52:22.196598  4405 net.cpp:157] Top shape: 50 96 30 30 (4320000)
I0316 16:52:22.196600  4405 net.cpp:165] Memory required for data: 61671000
I0316 16:52:22.196614  4405 layer_factory.hpp:76] Creating layer pool1
I0316 16:52:22.196624  4405 net.cpp:106] Creating Layer pool1
I0316 16:52:22.196626  4405 net.cpp:454] pool1 <- conv1_BN
I0316 16:52:22.196631  4405 net.cpp:411] pool1 -> pool1
I0316 16:52:22.197787  4405 net.cpp:150] Setting up pool1
I0316 16:52:22.197799  4405 net.cpp:157] Top shape: 50 96 15 15 (1080000)
I0316 16:52:22.197803  4405 net.cpp:165] Memory required for data: 65991000
I0316 16:52:22.197806  4405 layer_factory.hpp:76] Creating layer conv2
I0316 16:52:22.197818  4405 net.cpp:106] Creating Layer conv2
I0316 16:52:22.197823  4405 net.cpp:454] conv2 <- pool1
I0316 16:52:22.197829  4405 net.cpp:411] conv2 -> conv2
I0316 16:52:22.209679  4405 net.cpp:150] Setting up conv2
I0316 16:52:22.209695  4405 net.cpp:157] Top shape: 50 256 15 15 (2880000)
I0316 16:52:22.209699  4405 net.cpp:165] Memory required for data: 77511000
I0316 16:52:22.209708  4405 layer_factory.hpp:76] Creating layer relu2
I0316 16:52:22.209717  4405 net.cpp:106] Creating Layer relu2
I0316 16:52:22.209722  4405 net.cpp:454] relu2 <- conv2
I0316 16:52:22.209728  4405 net.cpp:397] relu2 -> conv2 (in-place)
I0316 16:52:22.209918  4405 net.cpp:150] Setting up relu2
I0316 16:52:22.209928  4405 net.cpp:157] Top shape: 50 256 15 15 (2880000)
I0316 16:52:22.209930  4405 net.cpp:165] Memory required for data: 89031000
I0316 16:52:22.209934  4405 layer_factory.hpp:76] Creating layer conv2_BN
I0316 16:52:22.209945  4405 net.cpp:106] Creating Layer conv2_BN
I0316 16:52:22.209950  4405 net.cpp:454] conv2_BN <- conv2
I0316 16:52:22.209965  4405 net.cpp:411] conv2_BN -> conv2_BN
I0316 16:52:22.210193  4405 net.cpp:150] Setting up conv2_BN
I0316 16:52:22.210234  4405 net.cpp:157] Top shape: 50 256 15 15 (2880000)
I0316 16:52:22.210237  4405 net.cpp:165] Memory required for data: 100551000
I0316 16:52:22.210250  4405 layer_factory.hpp:76] Creating layer pool2
I0316 16:52:22.210258  4405 net.cpp:106] Creating Layer pool2
I0316 16:52:22.210261  4405 net.cpp:454] pool2 <- conv2_BN
I0316 16:52:22.210266  4405 net.cpp:411] pool2 -> pool2
I0316 16:52:22.210628  4405 net.cpp:150] Setting up pool2
I0316 16:52:22.210640  4405 net.cpp:157] Top shape: 50 256 7 7 (627200)
I0316 16:52:22.210644  4405 net.cpp:165] Memory required for data: 103059800
I0316 16:52:22.210651  4405 layer_factory.hpp:76] Creating layer conv3
I0316 16:52:22.210662  4405 net.cpp:106] Creating Layer conv3
I0316 16:52:22.210665  4405 net.cpp:454] conv3 <- pool2
I0316 16:52:22.210674  4405 net.cpp:411] conv3 -> conv3
I0316 16:52:22.240103  4405 net.cpp:150] Setting up conv3
I0316 16:52:22.240120  4405 net.cpp:157] Top shape: 50 384 7 7 (940800)
I0316 16:52:22.240124  4405 net.cpp:165] Memory required for data: 106823000
I0316 16:52:22.240131  4405 layer_factory.hpp:76] Creating layer relu3
I0316 16:52:22.240139  4405 net.cpp:106] Creating Layer relu3
I0316 16:52:22.240144  4405 net.cpp:454] relu3 <- conv3
I0316 16:52:22.240149  4405 net.cpp:397] relu3 -> conv3 (in-place)
I0316 16:52:22.240339  4405 net.cpp:150] Setting up relu3
I0316 16:52:22.240348  4405 net.cpp:157] Top shape: 50 384 7 7 (940800)
I0316 16:52:22.240352  4405 net.cpp:165] Memory required for data: 110586200
I0316 16:52:22.240356  4405 layer_factory.hpp:76] Creating layer conv3_BN
I0316 16:52:22.240365  4405 net.cpp:106] Creating Layer conv3_BN
I0316 16:52:22.240368  4405 net.cpp:454] conv3_BN <- conv3
I0316 16:52:22.240375  4405 net.cpp:411] conv3_BN -> conv3_BN
I0316 16:52:22.240609  4405 net.cpp:150] Setting up conv3_BN
I0316 16:52:22.240617  4405 net.cpp:157] Top shape: 50 384 7 7 (940800)
I0316 16:52:22.240619  4405 net.cpp:165] Memory required for data: 114349400
I0316 16:52:22.240628  4405 layer_factory.hpp:76] Creating layer conv4
I0316 16:52:22.240643  4405 net.cpp:106] Creating Layer conv4
I0316 16:52:22.240645  4405 net.cpp:454] conv4 <- conv3_BN
I0316 16:52:22.240651  4405 net.cpp:411] conv4 -> conv4
I0316 16:52:22.263921  4405 net.cpp:150] Setting up conv4
I0316 16:52:22.263938  4405 net.cpp:157] Top shape: 50 384 7 7 (940800)
I0316 16:52:22.263942  4405 net.cpp:165] Memory required for data: 118112600
I0316 16:52:22.263953  4405 layer_factory.hpp:76] Creating layer relu4
I0316 16:52:22.263963  4405 net.cpp:106] Creating Layer relu4
I0316 16:52:22.263967  4405 net.cpp:454] relu4 <- conv4
I0316 16:52:22.263973  4405 net.cpp:397] relu4 -> conv4 (in-place)
I0316 16:52:22.264169  4405 net.cpp:150] Setting up relu4
I0316 16:52:22.264179  4405 net.cpp:157] Top shape: 50 384 7 7 (940800)
I0316 16:52:22.264183  4405 net.cpp:165] Memory required for data: 121875800
I0316 16:52:22.264186  4405 layer_factory.hpp:76] Creating layer conv4_BN
I0316 16:52:22.264194  4405 net.cpp:106] Creating Layer conv4_BN
I0316 16:52:22.264199  4405 net.cpp:454] conv4_BN <- conv4
I0316 16:52:22.264206  4405 net.cpp:411] conv4_BN -> conv4_BN
I0316 16:52:22.264461  4405 net.cpp:150] Setting up conv4_BN
I0316 16:52:22.264468  4405 net.cpp:157] Top shape: 50 384 7 7 (940800)
I0316 16:52:22.264472  4405 net.cpp:165] Memory required for data: 125639000
I0316 16:52:22.264480  4405 layer_factory.hpp:76] Creating layer conv5
I0316 16:52:22.264492  4405 net.cpp:106] Creating Layer conv5
I0316 16:52:22.264497  4405 net.cpp:454] conv5 <- conv4_BN
I0316 16:52:22.264503  4405 net.cpp:411] conv5 -> conv5
I0316 16:52:22.280555  4405 net.cpp:150] Setting up conv5
I0316 16:52:22.280571  4405 net.cpp:157] Top shape: 50 256 7 7 (627200)
I0316 16:52:22.280575  4405 net.cpp:165] Memory required for data: 128147800
I0316 16:52:22.280582  4405 layer_factory.hpp:76] Creating layer relu5
I0316 16:52:22.280592  4405 net.cpp:106] Creating Layer relu5
I0316 16:52:22.280596  4405 net.cpp:454] relu5 <- conv5
I0316 16:52:22.280601  4405 net.cpp:397] relu5 -> conv5 (in-place)
I0316 16:52:22.280946  4405 net.cpp:150] Setting up relu5
I0316 16:52:22.280958  4405 net.cpp:157] Top shape: 50 256 7 7 (627200)
I0316 16:52:22.280963  4405 net.cpp:165] Memory required for data: 130656600
I0316 16:52:22.280967  4405 layer_factory.hpp:76] Creating layer conv5_BN
I0316 16:52:22.280975  4405 net.cpp:106] Creating Layer conv5_BN
I0316 16:52:22.280979  4405 net.cpp:454] conv5_BN <- conv5
I0316 16:52:22.280987  4405 net.cpp:411] conv5_BN -> conv5_BN
I0316 16:52:22.281234  4405 net.cpp:150] Setting up conv5_BN
I0316 16:52:22.281240  4405 net.cpp:157] Top shape: 50 256 7 7 (627200)
I0316 16:52:22.281244  4405 net.cpp:165] Memory required for data: 133165400
I0316 16:52:22.281251  4405 layer_factory.hpp:76] Creating layer pool5
I0316 16:52:22.281261  4405 net.cpp:106] Creating Layer pool5
I0316 16:52:22.281265  4405 net.cpp:454] pool5 <- conv5_BN
I0316 16:52:22.281271  4405 net.cpp:411] pool5 -> pool5
I0316 16:52:22.281512  4405 net.cpp:150] Setting up pool5
I0316 16:52:22.281522  4405 net.cpp:157] Top shape: 50 256 3 3 (115200)
I0316 16:52:22.281527  4405 net.cpp:165] Memory required for data: 133626200
I0316 16:52:22.281529  4405 layer_factory.hpp:76] Creating layer fc6
I0316 16:52:22.281538  4405 net.cpp:106] Creating Layer fc6
I0316 16:52:22.281543  4405 net.cpp:454] fc6 <- pool5
I0316 16:52:22.281549  4405 net.cpp:411] fc6 -> fc6
I0316 16:52:22.407109  4405 net.cpp:150] Setting up fc6
I0316 16:52:22.407143  4405 net.cpp:157] Top shape: 50 2048 (102400)
I0316 16:52:22.407146  4405 net.cpp:165] Memory required for data: 134035800
I0316 16:52:22.407157  4405 layer_factory.hpp:76] Creating layer relu6
I0316 16:52:22.407166  4405 net.cpp:106] Creating Layer relu6
I0316 16:52:22.407169  4405 net.cpp:454] relu6 <- fc6
I0316 16:52:22.407176  4405 net.cpp:397] relu6 -> fc6 (in-place)
I0316 16:52:22.407603  4405 net.cpp:150] Setting up relu6
I0316 16:52:22.407626  4405 net.cpp:157] Top shape: 50 2048 (102400)
I0316 16:52:22.407629  4405 net.cpp:165] Memory required for data: 134445400
I0316 16:52:22.407632  4405 layer_factory.hpp:76] Creating layer fc6_BN
I0316 16:52:22.407640  4405 net.cpp:106] Creating Layer fc6_BN
I0316 16:52:22.407644  4405 net.cpp:454] fc6_BN <- fc6
I0316 16:52:22.407650  4405 net.cpp:411] fc6_BN -> fc6_BN
I0316 16:52:22.407868  4405 net.cpp:150] Setting up fc6_BN
I0316 16:52:22.407874  4405 net.cpp:157] Top shape: 50 2048 (102400)
I0316 16:52:22.407877  4405 net.cpp:165] Memory required for data: 134855000
I0316 16:52:22.407884  4405 layer_factory.hpp:76] Creating layer drop6
I0316 16:52:22.407893  4405 net.cpp:106] Creating Layer drop6
I0316 16:52:22.407896  4405 net.cpp:454] drop6 <- fc6_BN
I0316 16:52:22.407902  4405 net.cpp:411] drop6 -> drop6
I0316 16:52:22.407938  4405 net.cpp:150] Setting up drop6
I0316 16:52:22.407944  4405 net.cpp:157] Top shape: 50 2048 (102400)
I0316 16:52:22.407946  4405 net.cpp:165] Memory required for data: 135264600
I0316 16:52:22.407950  4405 layer_factory.hpp:76] Creating layer fc7
I0316 16:52:22.407959  4405 net.cpp:106] Creating Layer fc7
I0316 16:52:22.407963  4405 net.cpp:454] fc7 <- drop6
I0316 16:52:22.407968  4405 net.cpp:411] fc7 -> fc7
I0316 16:52:22.514472  4405 net.cpp:150] Setting up fc7
I0316 16:52:22.514490  4405 net.cpp:157] Top shape: 50 2048 (102400)
I0316 16:52:22.514493  4405 net.cpp:165] Memory required for data: 135674200
I0316 16:52:22.514502  4405 layer_factory.hpp:76] Creating layer relu7
I0316 16:52:22.514508  4405 net.cpp:106] Creating Layer relu7
I0316 16:52:22.514513  4405 net.cpp:454] relu7 <- fc7
I0316 16:52:22.514531  4405 net.cpp:397] relu7 -> fc7 (in-place)
I0316 16:52:22.514737  4405 net.cpp:150] Setting up relu7
I0316 16:52:22.514745  4405 net.cpp:157] Top shape: 50 2048 (102400)
I0316 16:52:22.514749  4405 net.cpp:165] Memory required for data: 136083800
I0316 16:52:22.514757  4405 layer_factory.hpp:76] Creating layer fc7_BN
I0316 16:52:22.514765  4405 net.cpp:106] Creating Layer fc7_BN
I0316 16:52:22.514768  4405 net.cpp:454] fc7_BN <- fc7
I0316 16:52:22.514775  4405 net.cpp:411] fc7_BN -> fc7_BN
I0316 16:52:22.515018  4405 net.cpp:150] Setting up fc7_BN
I0316 16:52:22.515025  4405 net.cpp:157] Top shape: 50 2048 (102400)
I0316 16:52:22.515028  4405 net.cpp:165] Memory required for data: 136493400
I0316 16:52:22.515041  4405 layer_factory.hpp:76] Creating layer drop7
I0316 16:52:22.515048  4405 net.cpp:106] Creating Layer drop7
I0316 16:52:22.515051  4405 net.cpp:454] drop7 <- fc7_BN
I0316 16:52:22.515055  4405 net.cpp:411] drop7 -> drop7
I0316 16:52:22.515095  4405 net.cpp:150] Setting up drop7
I0316 16:52:22.515101  4405 net.cpp:157] Top shape: 50 2048 (102400)
I0316 16:52:22.515105  4405 net.cpp:165] Memory required for data: 136903000
I0316 16:52:22.515120  4405 layer_factory.hpp:76] Creating layer fc8
I0316 16:52:22.515125  4405 net.cpp:106] Creating Layer fc8
I0316 16:52:22.515130  4405 net.cpp:454] fc8 <- drop7
I0316 16:52:22.515136  4405 net.cpp:411] fc8 -> fc8
I0316 16:52:22.569211  4405 net.cpp:150] Setting up fc8
I0316 16:52:22.569237  4405 net.cpp:157] Top shape: 50 1000 (50000)
I0316 16:52:22.569241  4405 net.cpp:165] Memory required for data: 137103000
I0316 16:52:22.569247  4405 layer_factory.hpp:76] Creating layer fc8_fc8_0_split
I0316 16:52:22.569255  4405 net.cpp:106] Creating Layer fc8_fc8_0_split
I0316 16:52:22.569258  4405 net.cpp:454] fc8_fc8_0_split <- fc8
I0316 16:52:22.569263  4405 net.cpp:411] fc8_fc8_0_split -> fc8_fc8_0_split_0
I0316 16:52:22.569269  4405 net.cpp:411] fc8_fc8_0_split -> fc8_fc8_0_split_1
I0316 16:52:22.569319  4405 net.cpp:150] Setting up fc8_fc8_0_split
I0316 16:52:22.569325  4405 net.cpp:157] Top shape: 50 1000 (50000)
I0316 16:52:22.569329  4405 net.cpp:157] Top shape: 50 1000 (50000)
I0316 16:52:22.569331  4405 net.cpp:165] Memory required for data: 137503000
I0316 16:52:22.569334  4405 layer_factory.hpp:76] Creating layer accuracy
I0316 16:52:22.569340  4405 net.cpp:106] Creating Layer accuracy
I0316 16:52:22.569345  4405 net.cpp:454] accuracy <- fc8_fc8_0_split_0
I0316 16:52:22.569349  4405 net.cpp:454] accuracy <- label_data_1_split_0
I0316 16:52:22.569355  4405 net.cpp:411] accuracy -> accuracy
…
