…
      source: "/local/temporary/imagenet144pxlmdb/ilsvrc12_128_train_lmdb"
      batch_size: 64
      backend: LMDB
    }
  }
  layer {
    name: "data"
    type: "Data"
    top: "data"
    top: "label"
    include {
      phase: TEST
    }
    transform_param {
      scale: 0.04
      mirror: false
      crop_size: 128
      mean_value: 104
      mean_value: 117
      mean_value: 123
      force_color: true
    }
    data_param {
      source: "/local/temporary/imagenet144pxlmdb/ilsvrc12_128_val_lmdb"
      batch_size: 20
      backend: LMDB
    }
  }
  layer {
    name: "conv1/7x7_s2"
    type: "Convolution"
    bottom: "data"
    top: "conv1/7x7_s2"
    param {
      lr_mult: 1
      decay_mult: 1
    }
    param {
      lr_mult: 2
      decay_mult: 0
    }
    convolution_param {
      num_output: 64
      pad: 3
      kernel_size: 7
      stride: 2
      weight_filler {
        type: "xavier"
      }
      bias_filler {
        type: "constant"
      }
    }
  }
  layer {
    name: "conv1/relu_7x7"
    type: "ReLU"
    bottom: "conv1/7x7_s2"
    top: "conv1/7x7_s2"
  }
  layer {
    name: "conv1/7x7_s2_bn"
    type: "BatchNorm"
    bottom: "conv1/7x7_s2"
    top: "conv1/7x7_s2_bn"
    param {
      lr_mult: 0
      decay_mult: 0
    }
    param {
      lr_mult: 0
      decay_mult: 0
    }
    param {
      lr_mult: 0
      decay_mult: 0
    }
    batch_norm_param {
      use_global_stats: false
      moving_average_fraction: 0.95
    }
  }
  layer {
    name: "pool1/3x3_s2"
    type: "Pooling"
    bottom: "conv1/7x7_s2_bn"
    top: "pool1/3x3_s2"
    pooling_param {
      pool: MAX
      kernel_size: 3
      stride: 2
    }
  }
  layer {
    name: "pool1/norm1"
    type: "LRN"
    bottom: "pool1/3x3_s2"
    top: "pool1/norm1"
    lrn_param {
      local_size: 5
      alpha: 0.0001
      beta: 0.75
    }
  }
  layer {
    name: "conv2/3x3_reduce"
    type: "Convolution"
    bottom: "pool1/norm1"
    top: "conv2/3x3_reduce"
    param {
      lr_mult: 1
      decay_mult: 1
    }
    param {
      lr_mult: 2
      decay_mult: 0
    }
    convolution_param {
      num_output: 64
      kernel_size: 1
      weight_filler {
        type: "xavier"
      }
      bias_filler {
        type: "constant"
      }
    }
  }
  layer {
    name: "conv2/relu_3x3_reduce"
    type: "ReLU"
    bottom: "conv2/3x3_reduce"
    top: "conv2/3x3_reduce"
  }
  layer {
    name: "conv2/3x3_reduce_bn"
    type: "BatchNorm"
    bottom: "conv2/3x3_reduce"
    top: "conv2/3x3_reduce_bn"
    param {
      lr_mult: 0
      decay_mult: 0
    }
    param {
      lr_mult: 0
      decay_mult: 0
    }
    param {
      lr_mult: 0
      decay_mult: 0
    }
    batch_norm_param {
      use_global_stats: false
      moving_average_fraction: 0.95
    }
  }
  layer {
    name: "conv2/3x3"
    type: "Convolution"
    bottom: "conv2/3x3_reduce_bn"
    top: "conv2/3x3"
    param {
      lr_mult: 1
      decay_mult: 1
    }
    param {
      lr_mult: 2
      decay_mult: 0
    }
    convolution_param {
      num_output: 192
      pad: 1
      kernel_size: 3
      weight_filler {
        type: "xavier"
      }
      bias_filler {
        type: "constant"
      }
    }
  }
  layer {
    name: "conv2/relu_3x3"
    type: "ReLU"
    bottom: "conv2/3x3"
    top: "conv2/3x3"
  }
  layer {
    name: "conv2/3x3_bn"
    type: "BatchNorm"
    bottom: "conv2/3x3"
    top: "conv2/3x3_bn"
    param {
      lr_mult: 0
      decay_mult: 0
    }
    param {
      lr_mult: 0
      decay_mult: 0
    }
    param {
      lr_mult: 0
      decay_mult: 0
    }
    batch_norm_param {
      use_global_stats: false
      moving_average_fraction: 0.95
    }
  }
  layer {
    name: "conv2/norm2"
    type: "LRN"
    bottom: "conv2/3x3_bn"
    top: "conv2/norm2"
    lrn_param {
      local_size: 5
      alpha: 0.0001
      beta: 0.75
    }
  }
  layer {
    name: "pool2/3x3_s2"
    type: "Pooling"
    bottom: "conv2/norm2"
    top: "pool2/3x3_s2"
    pooling_param {
      pool: MAX
      kernel_size: 3
      stride: 2
    }
  }
  layer {
    name: "inception_3a/1x1"
    type: "Convolution"
    bottom: "pool2/3x3_s2"
    top: "inception_3a/1x1"
    param {
      lr_mult: 1
      decay_mult: 1
    }
    param {
      lr_mult: 2
      decay_mult: 0
    }
    convolution_param {
      num_output: 64
      kernel_size: 1
      weight_filler {
        type: "xavier"
      }
      bias_filler {
        type: "constant"
      }
    }
  }
  layer {
    name: "inception_3a/relu_1x1"
    type: "ReLU"
    bottom: "inception_3a/1x1"
    top: "inception_3a/1x1"
  }
  layer {
    name: "inception_3a/1x1_bn"
    type: "BatchNorm"
    bottom: "inception_3a/1x1"
    top: "inception_3a/1x1_bn"
    param {
      lr_mult: 0
      decay_mult: 0
    }
    param {
      lr_mult: 0
      decay_mult: 0
    }
    param {
      lr_mult: 0
      decay_mult: 0
    }
    batch_norm_param {
      use_global_stats: false
      moving_average_fraction: 0.95
    }
  }
  layer {
    name: "inception_3a/3x3_reduce"
    type: "Convolution"
    bottom: "pool2/3x3_s2"
    top: "inception_3a/3x3_reduce"
    param {
      lr_mult: 1
      decay_mult: 1
    }
    param {
      lr_mult: 2
      decay_mult: 0
    }
    convolution_param {
      num_output: 96
      kernel_size: 1
      weight_filler {
        type: "xavier"
      }
      bias_filler {
        type: "constant"
      }
    }
  }
  layer {
    name: "inception_3a/relu_3x3_reduce"
    type: "ReLU"
    bottom: "inception_3a/3x3_reduce"
    top: "inception_3a/3x3_reduce"
  }
  layer {
    name: "inception_3a/3x3_reduce_bn"
    type: "BatchNorm"
    bottom: "inception_3a/3x3_reduce"
    top: "inception_3a/3x3_reduce_bn"
    param {
      lr_mult: 0
      decay_mult: 0
    }
    param {
      lr_mult: 0
      decay_mult: 0
    }
    param {
      lr_mult: 0
      decay_mult: 0
    }
    batch_norm_param {
      use_global_stats: false
      moving_average_fraction: 0.95
    }
  }
  layer {
    name: "inception_3a/3x3"
    type: "Convolution"
    bottom: "inception_3a/3x3_reduce_bn"
    top: "inception_3a/3x3"
    param {
      lr_mult: 1
      decay_mult: 1
    }
    param {
      lr_mult: 2
      decay_mult: 0
    }
    convolution_param {
      num_output: 128
      pad: 1
      kernel_size: 3
      weight_filler {
        type: "xavier"
      }
      bias_filler {
        type: "constant"
      }
    }
  }
  layer {
    name: "inception_3a/relu_3x3"
    type: "ReLU"
    bottom: "inception_3a/3x3"
    top: "inception_3a/3x3"
  }
  layer {
    name: "inception_3a/3x3_bn"
    type: "BatchNorm"
    bottom: "inception_3a/3x3"
    top: "inception_3a/3x3_bn"
    param {
      lr_mult: 0
      decay_mult: 0
    }
    param {
      lr_mult: 0
      decay_mult: 0
    }
    param {
      lr_mult: 0
      decay_mult: 0
    }
    batch_norm_param {
      use_global_stats: false
      moving_average_fraction: 0.95
    }
  }
  layer {
    name: "inception_3a/5x5_reduce"
    type: "Convolution"
    bottom: "pool2/3x3_s2"
    top: "inception_3a/5x5_reduce"
    param {
      lr_mult: 1
      decay_mult: 1
    }
    param {
      lr_mult: 2
      decay_mult: 0
    }
    convolution_param {
      num_output: 16
      kernel_size: 1
      weight_filler {
        type: "xavier"
      }
      bias_filler {
        type: "constant"
      }
    }
  }
  layer {
    name: "inception_3a/relu_5x5_reduce"
    type: "ReLU"
    bottom: "inception_3a/5x5_reduce"
    top: "inception_3a/5x5_reduce"
  }
  layer {
    name: "inception_3a/5x5_reduce_bn"
    type: "BatchNorm"
    bottom: "inception_3a/5x5_reduce"
    top: "inception_3a/5x5_reduce_bn"
    param {
      lr_mult: 0
      decay_mult: 0
    }
    param {
      lr_mult: 0
      decay_mult: 0
    }
    param {
      lr_mult: 0
      decay_mult: 0
    }
    batch_norm_param {
      use_global_stats: false
      moving_average_fraction: 0.95
    }
  }
  layer {
    name: "inception_3a/5x5"
    type: "Convolution"
    bottom: "inception_3a/5x5_reduce_bn"
    top: "inception_3a/5x5"
    param {
      lr_mult: 1
      decay_mult: 1
    }
    param {
      lr_mult: 2
      decay_mult: 0
    }
    convolution_param {
      num_output: 32
      pad: 2
      kernel_size: 5
      weight_filler {
        type: "xavier"
      }
      bias_filler {
        type: "constant"
      }
    }
  }
  layer {
    name: "inception_3a/relu_5x5"
    type: "ReLU"
    bottom: "inception_3a/5x5"
    top: "inception_3a/5x5"
  }
  layer {
    name: "inception_3a/5x5_bn"
    type: "BatchNorm"
    bottom: "inception_3a/5x5"
    top: "inception_3a/5x5_bn"
    param {
      lr_mult: 0
      decay_mult: 0
    }
    param {
      lr_mult: 0
      decay_mult: 0
    }
    param {
      lr_mult: 0
      decay_mult: 0
    }
    batch_norm_param {
      use_global_stats: false
      moving_average_fraction: 0.95
    }
  }
  layer {
    name: "inception_3a/pool"
    type: "Pooling"
    bottom: "pool2/3x3_s2"
    top: "inception_3a/pool"
    pooling_param {
      pool: MAX
      kernel_size: 3
      stride: 1
      pad: 1
    }
  }
  layer {
    name: "inception_3a/pool_proj"
    type: "Convolution"
    bottom: "inception_3a/pool"
    top: "inception_3a/pool_proj"
    param {
      lr_mult: 1
      decay_mult: 1
    }
    param {
      lr_mult: 2
      decay_mult: 0
    }
    convolution_param {
      num_output: 32
      kernel_size: 1
      weight_filler {
        type: "xavier"
      }
      bias_filler {
        type: "constant"
      }
    }
  }
  layer {
    name: "inception_3a/relu_pool_proj"
    type: "ReLU"
    bottom: "inception_3a/pool_proj"
    top: "inception_3a/pool_proj"
  }
  layer {
    name: "inception_3a/pool_proj_bn"
    type: "BatchNorm"
    bottom: "inception_3a/pool_proj"
    top: "inception_3a/pool_proj_bn"
    param {
      lr_mult: 0
      decay_mult: 0
    }
    param {
      lr_mult: 0
      decay_mult: 0
    }
    param {
      lr_mult: 0
      decay_mult: 0
    }
    batch_norm_param {
      use_global_stats: false
      moving_average_fraction: 0.95
    }
  }
  layer {
    name: "inception_3a/output"
    type: "Concat"
    bottom: "inception_3a/1x1_bn"
    bottom: "inception_3a/3x3_bn"
    bottom: "inception_3a/5x5_bn"
    bottom: "inception_3a/pool_proj_bn"
    top: "inception_3a/output"
  }
  layer {
    name: "inception_3b/1x1"
    type: "Convolution"
    bottom: "inception_3a/output"
    top: "inception_3b/1x1"
    param {
      lr_mult: 1
      decay_mult: 1
    }
    param {
      lr_mult: 2
      decay_mult: 0
    }
    convolution_param {
      num_output: 128
      kernel_size: 1
      weight_filler {
        type: "xavier"
      }
      bias_filler {
        type: "constant"
      }
    }
  }
  layer {
    name: "inception_3b/relu_1x1"
    type: "ReLU"
    bottom: "inception_3b/1x1"
    top: "inception_3b/1x1"
  }
  layer {
    name: "inception_3b/1x1_bn"
    type: "BatchNorm"
    bottom: "inception_3b/1x1"
    top: "inception_3b/1x1_bn"
    param {
      lr_mult: 0
      decay_mult: 0
    }
    param {
      lr_mult: 0
      decay_mult: 0
    }
    param {
      lr_mult: 0
      decay_mult: 0
    }
    batch_norm_param {
      use_global_stats: false
      moving_average_fraction: 0.95
    }
  }
  layer {
    name: "inception_3b/3x3_reduce"
    type: "Convolution"
    bottom: "inception_3a/output"
    top: "inception_3b/3x3_reduce"
    param {
      lr_mult: 1
      decay_mult: 1
    }
    param {
      lr_mult: 2
      decay_mult: 0
    }
    convolution_param {
      num_output: 128
      kernel_size: 1
      weight_filler {
        type: "xavier"
      }
      bias_filler {
        type: "constant"
      }
    }
  }
  layer {
    name: "inception_3b/relu_3x3_reduce"
    type: "ReLU"
    bottom: "inception_3b/3x3_reduce"
    top: "inception_3b/3x3_reduce"
  }
  layer {
    name: "inception_3b/3x3_reduce_bn"
    type: "BatchNorm"
    bottom: "inception_3b/3x3_reduce"
    top: "inception_3b/3x3_reduce_bn"
    param {
      lr_mult: 0
      decay_mult: 0
    }
    param {
      lr_mult: 0
      decay_mult: 0
    }
    param {
      lr_mult: 0
      decay_mult: 0
    }
    batch_norm_param {
      use_global_stats: false
      moving_average_fraction: 0.95
    }
  }
  layer {
    name: "inception_3b/3x3"
    type: "Convolution"
    bottom: "inception_3b/3x3_reduce_bn"
    top: "inception_3b/3x3"
    param {
      lr_mult: 1
      decay_mult: 1
    }
    param {
      lr_mult: 2
      decay_mult: 0
    }
    convolution_param {
      num_output: 192
      pad: 1
      kernel_size: 3
      weight_filler {
        type: "xavier"
      }
      bias_filler {
        type: "constant"
      }
    }
  }
  layer {
    name: "inception_3b/relu_3x3"
    type: "ReLU"
    bottom: "inception_3b/3x3"
    top: "inception_3b/3x3"
  }
  layer {
    name: "inception_3b/3x3_bn"
    type: "BatchNorm"
    bottom: "inception_3b/3x3"
    top: "inception_3b/3x3_bn"
    param {
      lr_mult: 0
      decay_mult: 0
    }
    param {
      lr_mult: 0
      decay_mult: 0
    }
    param {
      lr_mult: 0
      decay_mult: 0
    }
    batch_norm_param {
      use_global_stats: false
      moving_average_fraction: 0.95
    }
  }
  layer {
    name: "inception_3b/5x5_reduce"
    type: "Convolution"
    bottom: "inception_3a/output"
    top: "inception_3b/5x5_reduce"
    param {
      lr_mult: 1
      decay_mult: 1
    }
    param {
      lr_mult: 2
      decay_mult: 0
    }
    convolution_param {
      num_output: 32
      kernel_size: 1
      weight_filler {
        type: "xavier"
      }
      bias_filler {
        type: "constant"
      }
    }
  }
  layer {
    name: "inception_3b/relu_5x5_reduce"
    type: "ReLU"
    bottom: "inception_3b/5x5_reduce"
    top: "inception_3b/5x5_reduce"
  }
  layer {
    name: "inception_3b/5x5_reduce_bn"
    type: "BatchNorm"
    bottom: "inception_3b/5x5_reduce"
    top: "inception_3b/5x5_reduce_bn"
    param {
      lr_mult: 0
      decay_mult: 0
    }
    param {
      lr_mult: 0
      decay_mult: 0
    }
    param {
      lr_mult: 0
      decay_mult: 0
    }
    batch_norm_param {
      use_global_stats: false
      moving_average_fraction: 0.95
    }
  }
  layer {
    name: "inception_3b/5x5"
    type: "Convolution"
    bottom: "inception_3b/5x5_reduce_bn"
    top: "inception_3b/5x5"
    param {
      lr_mult: 1
      decay_mult: 1
    }
    param {
      lr_mult: 2
      decay_mult: 0
    }
    convolution_param {
      num_output: 96
      pad: 2
      kernel_size: 5
      weight_filler {
        type: "xavier"
      }
      bias_filler {
        type: "constant"
      }
    }
  }
  layer {
    name: "inception_3b/relu_5x5"
    type: "ReLU"
    bottom: "inception_3b/5x5"
    top: "inception_3b/5x5"
  }
  layer {
    name: "inception_3b/5x5_bn"
    type: "BatchNorm"
    bottom: "inception_3b/5x5"
    top: "inception_3b/5x5_bn"
    param {
      lr_mult: 0
      decay_mult: 0
    }
    param {
      lr_mult: 0
      decay_mult: 0
    }
    param {
      lr_mult: 0
      decay_mult: 0
    }
    batch_norm_param {
      use_global_stats: false
      moving_average_fraction: 0.95
    }
  }
  layer {
    name: "inception_3b/pool"
    type: "Pooling"
    bottom: "inception_3a/output"
    top: "inception_3b/pool"
    pooling_param {
      pool: MAX
      kernel_size: 3
      stride: 1
      pad: 1
    }
  }
  layer {
    name: "inception_3b/pool_proj"
    type: "Convolution"
    bottom: "inception_3b/pool"
    top: "inception_3b/pool_proj"
    param {
      lr_mult: 1
      decay_mult: 1
    }
    param {
      lr_mult: 2
      decay_mult: 0
    }
    convolution_param {
      num_output: 64
      kernel_size: 1
      weight_filler {
        type: "xavier"
      }
      bias_filler {
        type: "constant"
      }
    }
  }
  layer {
    name: "inception_3b/relu_pool_proj"
    type: "ReLU"
    bottom: "inception_3b/pool_proj"
    top: "inception_3b/pool_proj"
  }
  layer {
    name: "inception_3b/pool_proj_bn"
    type: "BatchNorm"
    bottom: "inception_3b/pool_proj"
    top: "inception_3b/pool_proj_bn"
    param {
      lr_mult: 0
      decay_mult: 0
    }
    param {
      lr_mult: 0
      decay_mult: 0
    }
    param {
      lr_mult: 0
      decay_mult: 0
    }
    batch_norm_param {
      use_global_stats: false
      moving_average_fraction: 0.95
    }
  }
  layer {
    name: "inception_3b/output"
    type: "Concat"
    bottom: "inception_3b/1x1_bn"
    bottom: "inception_3b/3x3_bn"
    bottom: "inception_3b/5x5_bn"
    bottom: "inception_3b/pool_proj_bn"
    top: "inception_3b/output"
  }
  layer {
    name: "pool3/3x3_s2"
    type: "Pooling"
    bottom: "inception_3b/output"
    top: "pool3/3x3_s2"
    pooling_param {
      pool: MAX
      kernel_size: 3
      stride: 2
    }
  }
  layer {
    name: "inception_4a/1x1"
    type: "Convolution"
    bottom: "pool3/3x3_s2"
    top: "inception_4a/1x1"
    param {
      lr_mult: 1
      decay_mult: 1
    }
    param {
      lr_mult: 2
      decay_mult: 0
    }
    convolution_param {
      num_output: 192
      kernel_size: 1
      weight_filler {
        type: "xavier"
      }
      bias_filler {
        type: "constant"
      }
    }
  }
  layer {
    name: "inception_4a/relu_1x1"
    type: "ReLU"
    bottom: "inception_4a/1x1"
    top: "inception_4a/1x1"
  }
  layer {
    name: "inception_4a/1x1_bn"
    type: "BatchNorm"
    bottom: "inception_4a/1x1"
    top: "inception_4a/1x1_bn"
    param {
      lr_mult: 0
      decay_mult: 0
    }
    param {
      lr_mult: 0
      decay_mult: 0
    }
    param {
      lr_mult: 0
      decay_mult: 0
    }
    batch_norm_param {
      use_global_stats: false
      moving_average_fraction: 0.95
    }
  }
  layer {
    name: "inception_4a/3x3_reduce"
    type: "Convolution"
    bottom: "pool3/3x3_s2"
    top: "inception_4a/3x3_reduce"
    param {
      lr_mult: 1
      decay_mult: 1
    }
    param {
      lr_mult: 2
      decay_mult: 0
    }
    convolution_param {
      num_output: 96
      kernel_size: 1
      weight_filler {
        type: "xavier"
      }
      bias_filler {
        type: "constant"
      }
    }
  }
  layer {
    name: "inception_4a/relu_3x3_reduce"
    type: "ReLU"
    bottom: "inception_4a/3x3_reduce"
    top: "inception_4a/3x3_reduce"
  }
  layer {
    name: "inception_4a/3x3_reduce_bn"
    type: "BatchNorm"
    bottom: "inception_4a/3x3_reduce"
    top: "inception_4a/3x3_reduce_bn"
    param {
      lr_mult: 0
      decay_mult: 0
    }
    param {
      lr_mult: 0
      decay_mult: 0
    }
    param {
      lr_mult: 0
      decay_mult: 0
    }
    batch_norm_param {
      use_global_stats: false
      moving_average_fraction: 0.95
    }
  }
  layer {
    name: "inception_4a/3x3"
    type: "Convolution"
    bottom: "inception_4a/3x3_reduce_bn"
    top: "inception_4a/3x3"
    param {
      lr_mult: 1
      decay_mult: 1
    }
    param {
      lr_mult: 2
      decay_mult: 0
    }
    convolution_param {
      num_output: 208
      pad: 1
      kernel_size: 3
      weight_filler {
        type: "xavier"
      }
      bias_filler {
        type: "constant"
      }
    }
  }
  layer {
    name: "inception_4a/relu_3x3"
    type: "ReLU"
    bottom: "inception_4a/3x3"
    top: "inception_4a/3x3"
  }
  layer {
    name: "inception_4a/3x3_bn"
    type: "BatchNorm"
    bottom: "inception_4a/3x3"
    top: "inception_4a/3x3_bn"
    param {
      lr_mult: 0
      decay_mult: 0
    }
    param {
      lr_mult: 0
      decay_mult: 0
    }
    param {
      lr_mult: 0
      decay_mult: 0
    }
    batch_norm_param {
      use_global_stats: false
      moving_average_fraction: 0.95
    }
  }
  layer {
    name: "inception_4a/5x5_reduce"
    type: "Convolution"
    bottom: "pool3/3x3_s2"
    top: "inception_4a/5x5_reduce"
    param {
      lr_mult: 1
      decay_mult: 1
    }
    param {
      lr_mult: 2
      decay_mult: 0
    }
    convolution_param {
      num_output: 16
      kernel_size: 1
      weight_filler {
        type: "xavier"
      }
      bias_filler {
        type: "constant"
      }
    }
  }
  layer {
    name: "inception_4a/relu_5x5_reduce"
    type: "ReLU"
    bottom: "inception_4a/5x5_reduce"
    top: "inception_4a/5x5_reduce"
  }
  layer {
    name: "inception_4a/5x5_reduce_bn"
    type: "BatchNorm"
    bottom: "inception_4a/5x5_reduce"
    top: "inception_4a/5x5_reduce_bn"
    param {
      lr_mult: 0
      decay_mult: 0
    }
    param {
      lr_mult: 0
      decay_mult: 0
    }
    param {
      lr_mult: 0
      decay_mult: 0
    }
    batch_norm_param {
      use_global_stats: false
      moving_average_fraction: 0.95
    }
  }
  layer {
    name: "inception_4a/5x5"
    type: "Convolution"
    bottom: "inception_4a/5x5_reduce_bn"
    top: "inception_4a/5x5"
    param {
      lr_mult: 1
      decay_mult: 1
    }
    param {
      lr_mult: 2
      decay_mult: 0
    }
    convolution_param {
      num_output: 48
      pad: 2
      kernel_size: 5
      weight_filler {
        type: "xavier"
      }
      bias_filler {
        type: "constant"
      }
    }
  }
  layer {
    name: "inception_4a/relu_5x5"
    type: "ReLU"
    bottom: "inception_4a/5x5"
    top: "inception_4a/5x5"
  }
  layer {
    name: "inception_4a/5x5_bn"
    type: "BatchNorm"
    bottom: "inception_4a/5x5"
    top: "inception_4a/5x5_bn"
    param {
      lr_mult: 0
      decay_mult: 0
    }
    param {
      lr_mult: 0
      decay_mult: 0
    }
    param {
      lr_mult: 0
      decay_mult: 0
    }
    batch_norm_param {
      use_global_stats: false
      moving_average_fraction: 0.95
    }
  }
  layer {
    name: "inception_4a/pool"
    type: "Pooling"
    bottom: "pool3/3x3_s2"
    top: "inception_4a/pool"
    pooling_param {
      pool: MAX
      kernel_size: 3
      stride: 1
      pad: 1
    }
  }
  layer {
    name: "inception_4a/pool_proj"
    type: "Convolution"
    bottom: "inception_4a/pool"
    top: "inception_4a/pool_proj"
    param {
      lr_mult: 1
      decay_mult: 1
    }
    param {
      lr_mult: 2
      decay_mult: 0
    }
    convolution_param {
      num_output: 64
      kernel_size: 1
      weight_filler {
        type: "xavier"
      }
      bias_filler {
        type: "constant"
      }
    }
  }
  layer {
    name: "inception_4a/relu_pool_proj"
    type: "ReLU"
    bottom: "inception_4a/pool_proj"
    top: "inception_4a/pool_proj"
  }
  layer {
    name: "inception_4a/pool_proj_bn"
    type: "BatchNorm"
    bottom: "inception_4a/pool_proj"
    top: "inception_4a/pool_proj_bn"
    param {
      lr_mult: 0
      decay_mult: 0
    }
    param {
      lr_mult: 0
      decay_mult: 0
    }
    param {
      lr_mult: 0
      decay_mult: 0
    }
    batch_norm_param {
      use_global_stats: false
      moving_average_fraction: 0.95
    }
  }
  layer {
    name: "inception_4a/output"
    type: "Concat"
    bottom: "inception_4a/1x1_bn"
    bottom: "inception_4a/3x3_bn"
    bottom: "inception_4a/5x5_bn"
    bottom: "inception_4a/pool_proj_bn"
    top: "inception_4a/output"
  }
  layer {
    name: "loss1/ave_pool"
    type: "Pooling"
    bottom: "inception_4a/output"
    top: "loss1/ave_pool"
    pooling_param {
      pool: AVE
      kernel_size: 5
      stride: 3
    }
  }
  layer {
    name: "loss1/conv"
    type: "Convolution"
    bottom: "loss1/ave_pool"
    top: "loss1/conv"
    param {
      lr_mult: 1
      decay_mult: 1
    }
    param {
      lr_mult: 2
      decay_mult: 0
    }
    convolution_param {
      num_output: 128
      kernel_size: 1
      weight_filler {
        type: "xavier"
      }
      bias_filler {
        type: "constant"
      }
    }
  }
  layer {
    name: "loss1/relu_conv"
    type: "ReLU"
    bottom: "loss1/conv"
    top: "loss1/conv"
  }
  layer {
    name: "loss1/conv_bn"
    type: "BatchNorm"
    bottom: "loss1/conv"
    top: "loss1/conv_bn"
    param {
      lr_mult: 0
      decay_mult: 0
    }
    param {
      lr_mult: 0
      decay_mult: 0
    }
    param {
      lr_mult: 0
      decay_mult: 0
    }
    batch_norm_param {
      use_global_stats: false
      moving_average_fraction: 0.95
    }
  }
  layer {
    name: "loss1/fc"
    type: "InnerProduct"
    bottom: "loss1/conv_bn"
    top: "loss1/fc"
    param {
      lr_mult: 1
      decay_mult: 1
    }
    param {
      lr_mult: 2
      decay_mult: 0
    }
    inner_product_param {
      num_output: 1024
      weight_filler {
        type: "xavier"
      }
      bias_filler {
        type: "constant"
      }
    }
  }
  layer {
    name: "loss1/relu_fc"
    type: "ReLU"
    bottom: "loss1/fc"
    top: "loss1/fc"
  }
  layer {
    name: "loss1/fc_bn"
    type: "BatchNorm"
    bottom: "loss1/fc"
    top: "loss1/fc_bn"
    param {
      lr_mult: 0
      decay_mult: 0
    }
    param {
      lr_mult: 0
      decay_mult: 0
    }
    param {
      lr_mult: 0
      decay_mult: 0
    }
    batch_norm_param {
      use_global_stats: false
      moving_average_fraction: 0.95
    }
  }
  layer {
    name: "loss1/drop_fc"
    type: "Dropout"
    bottom: "loss1/fc_bn"
    top: "loss1/drop_fc"
    dropout_param {
      dropout_ratio: 0.7
    }
  }
  layer {
    name: "loss1/classifier"
    type: "InnerProduct"
    bottom: "loss1/drop_fc"
    top: "loss1/classifier"
    param {
      lr_mult: 1
      decay_mult: 1
    }
    param {
      lr_mult: 2
      decay_mult: 0
    }
    inner_product_param {
      num_output: 1000
      weight_filler {
        type: "xavier"
      }
      bias_filler {
        type: "constant"
        value: 0
      }
    }
  }
  layer {
    name: "loss1/loss"
    type: "SoftmaxWithLoss"
    bottom: "loss1/classifier"
    bottom: "label"
    top: "loss1/loss1"
    loss_weight: 0.3
  }
  layer {
    name: "loss1/top-1"
    type: "Accuracy"
    bottom: "loss1/classifier"
    bottom: "label"
    top: "loss1/top-1"
    include {
      phase: TEST
    }
  }
  layer {
    name: "loss1/top-5"
    type: "Accuracy"
    bottom: "loss1/classifier"
    bottom: "label"
    top: "loss1/top-5"
    include {
      phase: TEST
    }
    accuracy_param {
      top_k: 5
    }
  }
  layer {
    name: "inception_4b/1x1"
    type: "Convolution"
    bottom: "inception_4a/output"
    top: "inception_4b/1x1"
    param {
      lr_mult: 1
      decay_mult: 1
    }
    param {
      lr_mult: 2
      decay_mult: 0
    }
    convolution_param {
      num_output: 160
      kernel_size: 1
      weight_filler {
        type: "xavier"
      }
      bias_filler {
        type: "constant"
      }
    }
  }
  layer {
    name: "inception_4b/relu_1x1"
    type: "ReLU"
    bottom: "inception_4b/1x1"
    top: "inception_4b/1x1"
  }
  layer {
    name: "inception_4b/1x1_bn"
    type: "BatchNorm"
    bottom: "inception_4b/1x1"
    top: "inception_4b/1x1_bn"
    param {
      lr_mult: 0
      decay_mult: 0
    }
    param {
      lr_mult: 0
      decay_mult: 0
    }
    param {
      lr_mult: 0
      decay_mult: 0
    }
    batch_norm_param {
      use_global_stats: false
      moving_average_fraction: 0.95
    }
  }
  layer {
    name: "inception_4b/3x3_reduce"
    type: "Convolution"
    bottom: "inception_4a/output"
    top: "inception_4b/3x3_reduce"
    param {
      lr_mult: 1
      decay_mult: 1
    }
    param {
      lr_mult: 2
      decay_mult: 0
    }
    convolution_param {
      num_output: 112
      kernel_size: 1
      weight_filler {
        type: "xavier"
      }
      bias_filler {
        type: "constant"
      }
    }
  }
  layer {
    name: "inception_4b/relu_3x3_reduce"
    type: "ReLU"
    bottom: "inception_4b/3x3_reduce"
    top: "inception_4b/3x3_reduce"
  }
  layer {
    name: "inception_4b/3x3_reduce_bn"
    type: "BatchNorm"
    bottom: "inception_4b/3x3_reduce"
    top: "inception_4b/3x3_reduce_bn"
    param {
      lr_mult: 0
      decay_mult: 0
    }
    param {
      lr_mult: 0
      decay_mult: 0
    }
    param {
      lr_mult: 0
      decay_mult: 0
    }
    batch_norm_param {
      use_global_stats: false
      moving_average_fraction: 0.95
    }
  }
  layer {
    name: "inception_4b/3x3"
    type: "Convolution"
    bottom: "inception_4b/3x3_reduce_bn"
    top: "inception_4b/3x3"
    param {
      lr_mult: 1
      decay_mult: 1
    }
    param {
      lr_mult: 2
      decay_mult: 0
    }
    convolution_param {
      num_output: 224
      pad: 1
      kernel_size: 3
      weight_filler {
        type: "xavier"
      }
      bias_filler {
        type: "constant"
      }
    }
  }
  layer {
    name: "inception_4b/relu_3x3"
    type: "ReLU"
    bottom: "inception_4b/3x3"
    top: "inception_4b/3x3"
  }
  layer {
    name: "inception_4b/3x3_bn"
    type: "BatchNorm"
    bottom: "inception_4b/3x3"
    top: "inception_4b/3x3_bn"
    param {
      lr_mult: 0
      decay_mult: 0
    }
    param {
      lr_mult: 0
      decay_mult: 0
    }
    param {
      lr_mult: 0
      decay_mult: 0
    }
    batch_norm_param {
      use_global_stats: false
      moving_average_fraction: 0.95
    }
  }
  layer {
    name: "inception_4b/5x5_reduce"
    type: "Convolution"
    bottom: "inception_4a/output"
    top: "inception_4b/5x5_reduce"
    param {
      lr_mult: 1
      decay_mult: 1
    }
    param {
      lr_mult: 2
      decay_mult: 0
    }
    convolution_param {
      num_output: 24
      kernel_size: 1
      weight_filler {
        type: "xavier"
      }
      bias_filler {
        type: "constant"
      }
    }
  }
  layer {
    name: "inception_4b/relu_5x5_reduce"
    type: "ReLU"
    bottom: "inception_4b/5x5_re
I0315 23:59:42.870002  8308 solver.cpp:86] Creating training net specified in net_param.
I0315 23:59:42.871356  8308 net.cpp:322] The NetState phase (0) differed from the phase (1) specified by a rule in layer data
I0315 23:59:42.871498  8308 net.cpp:322] The NetState phase (0) differed from the phase (1) specified by a rule in layer loss1/top-1
I0315 23:59:42.871510  8308 net.cpp:322] The NetState phase (0) differed from the phase (1) specified by a rule in layer loss1/top-5
…
I0315 23:59:42.871706  8308 net.cpp:322] The NetState phase (0) differed from the phase (1) specified by a rule in layer loss3/top-5
I0315 23:59:42.876364  8308 net.cpp:49] Initializing net from parameters: 
state {
  phase: TRAIN
}
layer {
  name: "data"
  type: "Data"
  top: "data"
  top: "label"
  include {
    phase: TRAIN
  }
  transform_param {
    scale: 0.04
    mirror: true
    crop_size: 128
    mean_value: 104
    mean_value: 117
    mean_value: 124
    force_color: true
  }
  data_param {
    source: "/local/temporary/imagenet144pxlmdb/ilsvrc12_128_train_lmdb"
    batch_size: 64
    backend: LMDB
  }
}
layer {
  name: "conv1/7x7_s2"
  type: "Convolution"
  bottom: "data"
  top: "conv1/7x7_s2"
  param {
    lr_mult: 1
    decay_mult: 1
  }
  param {
    lr_mult: 2
    decay_mult: 0
  }
  convolution_param {
    num_output: 64
    pad: 3
    kernel_size: 7
    stride: 2
    weight_filler {
      type: "xavier"
    }
    bias_filler {
      type: "constant"
    }
  }
}
layer {
  name: "conv1/relu_7x7"
  type: "ReLU"
  bottom: "conv1/7x7_s2"
  top: "conv1/7x7_s2"
}
layer {
  name: "conv1/7x7_s2_bn"
  type: "BatchNorm"
  bottom: "conv1/7x7_s2"
  top: "conv1/7x7_s2_bn"
  param {
    lr_mult: 0
    decay_mult: 0
  }
  param {
    lr_mult: 0
    decay_mult: 0
  }
  param {
    lr_mult: 0
    decay_mult: 0
  }
  batch_norm_param {
    use_global_stats: false
    moving_average_fraction: 0.95
  }
}
layer {
  name: "pool1/3x3_s2"
  type: "Pooling"
  bottom: "conv1/7x7_s2_bn"
  top: "pool1/3x3_s2"
  pooling_param {
    pool: MAX
    kernel_size: 3
    stride: 2
  }
}
layer {
  name: "pool1/norm1"
  type: "LRN"
  bottom: "pool1/3x3_s2"
  top: "pool1/norm1"
  lrn_param {
    local_size: 5
    alpha: 0.0001
    beta: 0.75
  }
}
layer {
  name: "conv2/3x3_reduce"
  type: "Convolution"
  bottom: "pool1/norm1"
  top: "conv2/3x3_reduce"
  param {
    lr_mult: 1
    decay_mult: 1
  }
  param {
    lr_mult: 2
    decay_mult: 0
  }
  convolution_param {
    num_output: 64
    kernel_size: 1
    weight_filler {
      type: "xavier"
    }
    bias_filler {
      type: "constant"
    }
  }
}
layer {
  name: "conv2/relu_3x3_reduce"
  type: "ReLU"
  bottom: "conv2/3x3_reduce"
  top: "conv2/3x3_reduce"
}
layer {
  name: "conv2/3x3_reduce_bn"
  type: "BatchNorm"
  bottom: "conv2/3x3_reduce"
  top: "conv2/3x3_reduce_bn"
  param {
    lr_mult: 0
    decay_mult: 0
  }
  param {
    lr_mult: 0
    decay_mult: 0
  }
  param {
    lr_mult: 0
    decay_mult: 0
  }
  batch_norm_param {
    use_global_stats: false
    moving_average_fraction: 0.95
  }
}
layer {
  name: "conv2/3x3"
  type: "Convolution"
  bottom: "conv2/3x3_reduce_bn"
  top: "conv2/3x3"
  param {
    lr_mult: 1
    decay_mult: 1
  }
  param {
    lr_mult: 2
    decay_mult: 0
  }
  convolution_param {
    num_output: 192
    pad: 1
    kernel_size: 3
    weight_filler {
      type: "xavier"
    }
    bias_filler {
      type: "constant"
    }
  }
}
layer {
  name: "conv2/relu_3x3"
  type: "ReLU"
  bottom: "conv2/3x3"
  top: "conv2/3x3"
}
layer {
  name: "conv2/3x3_bn"
  type: "BatchNorm"
  bottom: "conv2/3x3"
  top: "conv2/3x3_bn"
  param {
    lr_mult: 0
    decay_mult: 0
  }
  param {
    lr_mult: 0
    decay_mult: 0
  }
  param {
    lr_mult: 0
    decay_mult: 0
  }
  batch_norm_param {
    use_global_stats: false
    moving_average_fraction: 0.95
  }
}
layer {
  name: "conv2/norm2"
  type: "LRN"
  bottom: "conv2/3x3_bn"
  top: "conv2/norm2"
  lrn_param {
    local_size: 5
    alpha: 0.0001
    beta: 0.75
  }
}
layer {
  name: "pool2/3x3_s2"
  type: "Pooling"
  bottom: "conv2/norm2"
  top: "pool2/3x3_s2"
  pooling_param {
    pool: MAX
    kernel_size: 3
    stride: 2
  }
}
layer {
  name: "inception_3a/1x1"
  type: "Convolution"
  bottom: "pool2/3x3_s2"
  top: "inception_3a/1x1"
  param {
    lr_mult: 1
    decay_mult: 1
  }
  param {
    lr_mult: 2
    decay_mult: 0
  }
  convolution_param {
    num_output: 64
    kernel_size: 1
    weight_filler {
      type: "xavier"
    }
    bias_filler {
      type: "constant"
    }
  }
}
layer {
  name: "inception_3a/relu_1x1"
  type: "ReLU"
  bottom: "inception_3a/1x1"
  top: "inception_3a/1x1"
}
layer {
  name: "inception_3a/1x1_bn"
  type: "BatchNorm"
  bottom: "inception_3a/1x1"
  top: "inception_3a/1x1_bn"
  param {
    lr_mult: 0
    decay_mult: 0
  }
  param {
    lr_mult: 0
    decay_mult: 0
  }
  param {
    lr_mult: 0
    decay_mult: 0
  }
  batch_norm_param {
    use_global_stats: false
    moving_average_fraction: 0.95
  }
}
layer {
  name: "inception_3a/3x3_reduce"
  type: "Convolution"
  bottom: "pool2/3x3_s2"
  top: "inception_3a/3x3_reduce"
  param {
    lr_mult: 1
    decay_mult: 1
  }
  param {
    lr_mult: 2
    decay_mult: 0
  }
  convolution_param {
    num_output: 96
    kernel_size: 1
    weight_filler {
      type: "xavier"
    }
    bias_filler {
      type: "constant"
    }
  }
}
layer {
  name: "inception_3a/relu_3x3_reduce"
  type: "ReLU"
  bottom: "inception_3a/3x3_reduce"
  top: "inception_3a/3x3_reduce"
}
layer {
  name: "inception_3a/3x3_reduce_bn"
  type: "BatchNorm"
  bottom: "inception_3a/3x3_reduce"
  top: "inception_3a/3x3_reduce_bn"
  param {
    lr_mult: 0
    decay_mult: 0
  }
  param {
    lr_mult: 0
    decay_mult: 0
  }
  param {
    lr_mult: 0
    decay_mult: 0
  }
  batch_norm_param {
    use_global_stats: false
    moving_average_fraction: 0.95
  }
}
layer {
  name: "inception_3a/3x3"
  type: "Convolution"
  bottom: "inception_3a/3x3_reduce_bn"
  top: "inception_3a/3x3"
  param {
    lr_mult: 1
    decay_mult: 1
  }
  param {
    lr_mult: 2
    decay_mult: 0
  }
  convolution_param {
    num_output: 128
    pad: 1
    kernel_size: 3
    weight_filler {
      type: "xavier"
    }
    bias_filler {
      type: "constant"
    }
  }
}
layer {
  name: "inception_3a/relu_3x3"
  type: "ReLU"
  bottom: "inception_3a/3x3"
  top: "inception_3a/3x3"
}
layer {
  name: "inception_3a/3x3_bn"
  type: "BatchNorm"
  bottom: "inception_3a/3x3"
  top: "inception_3a/3x3_bn"
  param {
    lr_mult: 0
    decay_mult: 0
  }
  param {
    lr_mult: 0
    decay_mult: 0
  }
  param {
    lr_mult: 0
    decay_mult: 0
  }
  batch_norm_param {
    use_global_stats: false
    moving_average_fraction: 0.95
  }
}
layer {
  name: "inception_3a/5x5_reduce"
  type: "Convolution"
  bottom: "pool2/3x3_s2"
  top: "inception_3a/5x5_reduce"
  param {
    lr_mult: 1
    decay_mult: 1
  }
  param {
    lr_mult: 2
    decay_mult: 0
  }
  convolution_param {
    num_output: 16
    kernel_size: 1
    weight_filler {
      type: "xavier"
    }
    bias_filler {
      type: "constant"
    }
  }
}
layer {
  name: "inception_3a/relu_5x5_reduce"
  type: "ReLU"
  bottom: "inception_3a/5x5_reduce"
  top: "inception_3a/5x5_reduce"
}
layer {
  name: "inception_3a/5x5_reduce_bn"
  type: "BatchNorm"
  bottom: "inception_3a/5x5_reduce"
  top: "inception_3a/5x5_reduce_bn"
  param {
    lr_mult: 0
    decay_mult: 0
  }
  param {
    lr_mult: 0
    decay_mult: 0
  }
  param {
    lr_mult: 0
    decay_mult: 0
  }
  batch_norm_param {
    use_global_stats: false
    moving_average_fraction: 0.95
  }
}
layer {
  name: "inception_3a/5x5"
  type: "Convolution"
  bottom: "inception_3a/5x5_reduce_bn"
  top: "inception_3a/5x5"
  param {
    lr_mult: 1
    decay_mult: 1
  }
  param {
    lr_mult: 2
    decay_mult: 0
  }
  convolution_param {
    num_output: 32
    pad: 2
    kernel_size: 5
    weight_filler {
      type: "xavier"
    }
    bias_filler {
      type: "constant"
    }
  }
}
layer {
  name: "inception_3a/relu_5x5"
  type: "ReLU"
  bottom: "inception_3a/5x5"
  top: "inception_3a/5x5"
}
layer {
  name: "inception_3a/5x5_bn"
  type: "BatchNorm"
  bottom: "inception_3a/5x5"
  top: "inception_3a/5x5_bn"
  param {
    lr_mult: 0
    decay_mult: 0
  }
  param {
    lr_mult: 0
    decay_mult: 0
  }
  param {
    lr_mult: 0
    decay_mult: 0
  }
  batch_norm_param {
    use_global_stats: false
    moving_average_fraction: 0.95
  }
}
layer {
  name: "inception_3a/pool"
  type: "Pooling"
  bottom: "pool2/3x3_s2"
  top: "inception_3a/pool"
  pooling_param {
    pool: MAX
    kernel_size: 3
    stride: 1
    pad: 1
  }
}
layer {
  name: "inception_3a/pool_proj"
  type: "Convolution"
  bottom: "inception_3a/pool"
  top: "inception_3a/pool_proj"
  param {
    lr_mult: 1
    decay_mult: 1
  }
  param {
    lr_mult: 2
    decay_mult: 0
  }
  convolution_param {
    num_output: 32
    kernel_size: 1
    weight_filler {
      type: "xavier"
    }
    bias_filler {
      type: "constant"
    }
  }
}
layer {
  name: "inception_3a/relu_pool_proj"
  type: "ReLU"
  bottom: "inception_3a/pool_proj"
  top: "inception_3a/pool_proj"
}
layer {
  name: "inception_3a/pool_proj_bn"
  type: "BatchNorm"
  bottom: "inception_3a/pool_proj"
  top: "inception_3a/pool_proj_bn"
  param {
    lr_mult: 0
    decay_mult: 0
  }
  param {
    lr_mult: 0
    decay_mult: 0
  }
  param {
    lr_mult: 0
    decay_mult: 0
  }
  batch_norm_param {
    use_global_stats: false
    moving_average_fraction: 0.95
  }
}
layer {
  name: "inception_3a/output"
  type: "Concat"
  bottom: "inception_3a/1x1_bn"
  bottom: "inception_3a/3x3_bn"
  bottom: "inception_3a/5x5_bn"
  bottom: "inception_3a/pool_proj_bn"
  top: "inception_3a/output"
}
layer {
  name: "inception_3b/1x1"
  type: "Convolution"
  bottom: "inception_3a/output"
  top: "inception_3b/1x1"
  param {
    lr_mult: 1
    decay_mult: 1
  }
  param {
    lr_mult: 2
    decay_mult: 0
  }
  convolution_param {
    num_output: 128
    kernel_size: 1
    weight_filler {
      type: "xavier"
    }
    bias_filler {
      type: "constant"
    }
  }
}
layer {
  name: "inception_3b/relu_1x1"
  type: "ReLU"
  bottom: "inception_3b/1x1"
  top: "inception_3b/1x1"
}
layer {
  name: "inception_3b/1x1_bn"
  type: "BatchNorm"
  bottom: "inception_3b/1x1"
  top: "inception_3b/1x1_bn"
  param {
    lr_mult: 0
    decay_mult: 0
  }
  param {
    lr_mult: 0
    decay_mult: 0
  }
  param {
    lr_mult: 0
    decay_mult: 0
  }
  batch_norm_param {
    use_global_stats: false
    moving_average_fraction: 0.95
  }
}
layer {
  name: "inception_3b/3x3_reduce"
  type: "Convolution"
  bottom: "inception_3a/output"
  top: "inception_3b/3x3_reduce"
  param {
    lr_mult: 1
    decay_mult: 1
  }
  param {
    lr_mult: 2
    decay_mult: 0
  }
  convolution_param {
    num_output: 128
    kernel_size: 1
    weight_filler {
      type: "xavier"
    }
    bias_filler {
      type: "constant"
    }
  }
}
layer {
  name: "inception_3b/relu_3x3_reduce"
  type: "ReLU"
  bottom: "inception_3b/3x3_reduce"
  top: "inception_3b/3x3_reduce"
}
layer {
  name: "inception_3b/3x3_reduce_bn"
  type: "BatchNorm"
  bottom: "inception_3b/3x3_reduce"
  top: "inception_3b/3x3_reduce_bn"
  param {
    lr_mult: 0
    decay_mult: 0
  }
  param {
    lr_mult: 0
    decay_mult: 0
  }
  param {
    lr_mult: 0
    decay_mult: 0
  }
  batch_norm_param {
    use_global_stats: false
    moving_average_fraction: 0.95
  }
}
layer {
  name: "inception_3b/3x3"
  type: "Convolution"
  bottom: "inception_3b/3x3_reduce_bn"
  top: "inception_3b/3x3"
  param {
    lr_mult: 1
    decay_mult: 1
  }
  param {
    lr_mult: 2
    decay_mult: 0
  }
  convolution_param {
    num_output: 192
    pad: 1
    kernel_size: 3
    weight_filler {
      type: "xavier"
    }
    bias_filler {
      type: "constant"
    }
  }
}
layer {
  name: "inception_3b/relu_3x3"
  type: "ReLU"
  bottom: "inception_3b/3x3"
  top: "inception_3b/3x3"
}
layer {
  name: "inception_3b/3x3_bn"
  type: "BatchNorm"
  bottom: "inception_3b/3x3"
  top: "inception_3b/3x3_bn"
  param {
    lr_mult: 0
    decay_mult: 0
  }
  param {
    lr_mult: 0
    decay_mult: 0
  }
  param {
    lr_mult: 0
    decay_mult: 0
  }
  batch_norm_param {
    use_global_stats: false
    moving_average_fraction: 0.95
  }
}
layer {
  name: "inception_3b/5x5_reduce"
  type: "Convolution"
  bottom: "inception_3a/output"
  top: "inception_3b/5x5_reduce"
  param {
    lr_mult: 1
    decay_mult: 1
  }
  param {
    lr_mult: 2
    decay_mult: 0
  }
  convolution_param {
    num_output: 32
    kernel_size: 1
    weight_filler {
      type: "xavier"
    }
    bias_filler {
      type: "constant"
    }
  }
}
layer {
  name: "inception_3b/relu_5x5_reduce"
  type: "ReLU"
  bottom: "inception_3b/5x5_reduce"
  top: "inception_3b/5x5_reduce"
}
layer {
  name: "inception_3b/5x5_reduce_bn"
  type: "BatchNorm"
  bottom: "inception_3b/5x5_reduce"
  top: "inception_3b/5x5_reduce_bn"
  param {
    lr_mult: 0
    decay_mult: 0
  }
  param {
    lr_mult: 0
    decay_mult: 0
  }
  param {
    lr_mult: 0
    decay_mult: 0
  }
  batch_norm_param {
    use_global_stats: false
    moving_average_fraction: 0.95
  }
}
layer {
  name: "inception_3b/5x5"
  type: "Convolution"
  bottom: "inception_3b/5x5_reduce_bn"
  top: "inception_3b/5x5"
  param {
    lr_mult: 1
    decay_mult: 1
  }
  param {
    lr_mult: 2
    decay_mult: 0
  }
  convolution_param {
    num_output: 96
    pad: 2
    kernel_size: 5
    weight_filler {
      type: "xavier"
    }
    bias_filler {
      type: "constant"
    }
  }
}
layer {
  name: "inception_3b/relu_5x5"
  type: "ReLU"
  bottom: "inception_3b/5x5"
  top: "inception_3b/5x5"
}
layer {
  name: "inception_3b/5x5_bn"
  type: "BatchNorm"
  bottom: "inception_3b/5x5"
  top: "inception_3b/5x5_bn"
  param {
    lr_mult: 0
    decay_mult: 0
  }
  param {
    lr_mult: 0
    decay_mult: 0
  }
  param {
    lr_mult: 0
    decay_mult: 0
  }
  batch_norm_param {
    use_global_stats: false
    moving_average_fraction: 0.95
  }
}
layer {
  name: "inception_3b/pool"
  type: "Pooling"
  bottom: "inception_3a/output"
  top: "inception_3b/pool"
  pooling_param {
    pool: MAX
    kernel_size: 3
    stride: 1
    pad: 1
  }
}
layer {
  name: "inception_3b/pool_proj"
  type: "Convolution"
  bottom: "inception_3b/pool"
  top: "inception_3b/pool_proj"
  param {
    lr_mult: 1
    decay_mult: 1
  }
  param {
    lr_mult: 2
    decay_mult: 0
  }
  convolution_param {
    num_output: 64
    kernel_size: 1
    weight_filler {
      type: "xavier"
    }
    bias_filler {
      type: "constant"
    }
  }
}
layer {
  name: "inception_3b/relu_pool_proj"
  type: "ReLU"
  bottom: "inception_3b/pool_proj"
  top: "inception_3b/pool_proj"
}
layer {
  name: "inception_3b/pool_proj_bn"
  type: "BatchNorm"
  bottom: "inception_3b/pool_proj"
  top: "inception_3b/pool_proj_bn"
  param {
    lr_mult: 0
    decay_mult: 0
  }
  param {
    lr_mult: 0
    decay_mult: 0
  }
  param {
    lr_mult: 0
    decay_mult: 0
  }
  batch_norm_param {
    use_global_stats: false
    moving_average_fraction: 0.95
  }
}
layer {
  name: "inception_3b/output"
  type: "Concat"
  bottom: "inception_3b/1x1_bn"
  bottom: "inception_3b/3x3_bn"
  bottom: "inception_3b/5x5_bn"
  bottom: "inception_3b/pool_proj_bn"
  top: "inception_3b/output"
}
layer {
  name: "pool3/3x3_s2"
  type: "Pooling"
  bottom: "inception_3b/output"
  top: "pool3/3x3_s2"
  pooling_param {
    pool: MAX
    kernel_size: 3
    stride: 2
  }
}
layer {
  name: "inception_4a/1x1"
  type: "Convolution"
  bottom: "pool3/3x3_s2"
  top: "inception_4a/1x1"
  param {
    lr_mult: 1
    decay_mult: 1
  }
  param {
    lr_mult: 2
    decay_mult: 0
  }
  convolution_param {
    num_output: 192
    kernel_size: 1
    weight_filler {
      type: "xavier"
    }
    bias_filler {
      type: "constant"
    }
  }
}
layer {
  name: "inception_4a/relu_1x1"
  type: "ReLU"
  bottom: "inception_4a/1x1"
  top: "inception_4a/1x1"
}
layer {
  name: "inception_4a/1x1_bn"
  type: "BatchNorm"
  bottom: "inception_4a/1x1"
  top: "inception_4a/1x1_bn"
  param {
    lr_mult: 0
    decay_mult: 0
  }
  param {
    lr_mult: 0
    decay_mult: 0
  }
  param {
    lr_mult: 0
    decay_mult: 0
  }
  batch_norm_param {
    use_global_stats: false
    moving_average_fraction: 0.95
  }
}
layer {
  name: "inception_4a/3x3_reduce"
  type: "Convolution"
  bottom: "pool3/3x3_s2"
  top: "inception_4a/3x3_reduce"
  param {
    lr_mult: 1
    decay_mult: 1
  }
  param {
    lr_mult: 2
    decay_mult: 0
  }
  convolution_param {
    num_output: 96
    kernel_size: 1
    weight_filler {
      type: "xavier"
    }
    bias_filler {
      type: "constant"
    }
  }
}
layer {
  name: "inception_4a/relu_3x3_reduce"
  type: "ReLU"
  bottom: "inception_4a/3x3_reduce"
  top: "inception_4a/3x3_reduce"
}
layer {
  name: "inception_4a/3x3_reduce_bn"
  type: "BatchNorm"
  bottom: "inception_4a/3x3_reduce"
  top: "inception_4a/3x3_reduce_bn"
  param {
    lr_mult: 0
    decay_mult: 0
  }
  param {
    lr_mult: 0
    decay_mult: 0
  }
  param {
    lr_mult: 0
    decay_mult: 0
  }
  batch_norm_param {
    use_global_stats: false
    moving_average_fraction: 0.95
  }
}
layer {
  name: "inception_4a/3x3"
  type: "Convolution"
  bottom: "inception_4a/3x3_reduce_bn"
  top: "inception_4a/3x3"
  param {
    lr_mult: 1
    decay_mult: 1
  }
  param {
    lr_mult: 2
    decay_mult: 0
  }
  convolution_param {
    num_output: 208
    pad: 1
    kernel_size: 3
    weight_filler {
      type: "xavier"
    }
    bias_filler {
      type: "constant"
    }
  }
}
layer {
  name: "inception_4a/relu_3x3"
  type: "ReLU"
  bottom: "inception_4a/3x3"
  top: "inception_4a/3x3"
}
layer {
  name: "inception_4a/3x3_bn"
  type: "BatchNorm"
  bottom: "inception_4a/3x3"
  top: "inception_4a/3x3_bn"
  param {
    lr_mult: 0
    decay_mult: 0
  }
  param {
    lr_mult: 0
    decay_mult: 0
  }
  param {
    lr_mult: 0
    decay_mult: 0
  }
  batch_norm_param {
    use_global_stats: false
    moving_average_fraction: 0.95
  }
}
layer {
  name: "inception_4a/5x5_reduce"
  type: "Convolution"
  bottom: "pool3/3x3_s2"
  top: "inception_4a/5x5_reduce"
  param {
    lr_mult: 1
    decay_mult: 1
  }
  param {
    lr_mult: 2
    decay_mult: 0
  }
  convolution_param {
    num_output: 16
    kernel_size: 1
    weight_filler {
      type: "xavier"
    }
    bias_filler {
      type: "constant"
    }
  }
}
layer {
  name: "inception_4a/relu_5x5_reduce"
  type: "ReLU"
  bottom: "inception_4a/5x5_reduce"
  top: "inception_4a/5x5_reduce"
}
layer {
  name: "inception_4a/5x5_reduce_bn"
  type: "BatchNorm"
  bottom: "inception_4a/5x5_reduce"
  top: "inception_4a/5x5_reduce_bn"
  param {
    lr_mult: 0
    decay_mult: 0
  }
  param {
    lr_mult: 0
    decay_mult: 0
  }
  param {
    lr_mult: 0
    decay_mult: 0
  }
  batch_norm_param {
    use_global_stats: false
    moving_average_fraction: 0.95
  }
}
layer {
  name: "inception_4a/5x5"
  type: "Convolution"
  bottom: "inception_4a/5x5_reduce_bn"
  top: "inception_4a/5x5"
  param {
    lr_mult: 1
    decay_mult: 1
  }
  param {
    lr_mult: 2
    decay_mult: 0
  }
  convolution_param {
    num_output: 48
    pad: 2
    kernel_size: 5
    weight_filler {
      type: "xavier"
    }
    bias_filler {
      type: "constant"
    }
  }
}
layer {
  name: "inception_4a/relu_5x5"
  type: "ReLU"
  bottom: "inception_4a/5x5"
  top: "inception_4a/5x5"
}
layer {
  name: "inception_4a/5x5_bn"
  type: "BatchNorm"
  bottom: "inception_4a/5x5"
  top: "inception_4a/5x5_bn"
  param {
    lr_mult: 0
    decay_mult: 0
  }
  param {
    lr_mult: 0
    decay_mult: 0
  }
  param {
    lr_mult: 0
    decay_mult: 0
  }
  batch_norm_param {
    use_global_stats: false
    moving_average_fraction: 0.95
  }
}
layer {
  name: "inception_4a/pool"
  type: "Pooling"
  bottom: "pool3/3x3_s2"
  top: "inception_4a/pool"
  pooling_param {
    pool: MAX
    kernel_size: 3
    stride: 1
    pad: 1
  }
}
layer {
  name: "inception_4a/pool_proj"
  type: "Convolution"
  bottom: "inception_4a/pool"
  top: "inception_4a/pool_proj"
  param {
    lr_mult: 1
    decay_mult: 1
  }
  param {
    lr_mult: 2
    decay_mult: 0
  }
  convolution_param {
    num_output: 64
    kernel_size: 1
    weight_filler {
      type: "xavier"
    }
    bias_filler {
      type: "constant"
    }
  }
}
layer {
  name: "inception_4a/relu_pool_proj"
  type: "ReLU"
  bottom: "inception_4a/pool_proj"
  top: "inception_4a/pool_proj"
}
layer {
  name: "inception_4a/pool_proj_bn"
  type: "BatchNorm"
  bottom: "inception_4a/pool_proj"
  top: "inception_4a/pool_proj_bn"
  param {
    lr_mult: 0
    decay_mult: 0
  }
  param {
    lr_mult: 0
    decay_mult: 0
  }
  param {
    lr_mult: 0
    decay_mult: 0
  }
  batch_norm_param {
    use_global_stats: false
    moving_average_fraction: 0.95
  }
}
layer {
  name: "inception_4a/output"
  type: "Concat"
  bottom: "inception_4a/1x1_bn"
  bottom: "inception_4a/3x3_bn"
  bottom: "inception_4a/5x5_bn"
  bottom: "inception_4a/pool_proj_bn"
  top: "inception_4a/output"
}
layer {
  name: "loss1/ave_pool"
  type: "Pooling"
  bottom: "inception_4a/output"
  top: "loss1/ave_pool"
  pooling_param {
    pool: AVE
    kernel_size: 5
    stride: 3
  }
}
layer {
  name: "loss1/conv"
  type: "Convolution"
  bottom: "loss1/ave_pool"
  top: "loss1/conv"
  param {
    lr_mult: 1
    decay_mult: 1
  }
  param {
    lr_mult: 2
    decay_mult: 0
  }
  convolution_param {
    num_output: 128
    kernel_size: 1
    weight_filler {
      type: "xavier"
    }
    bias_filler {
      type: "constant"
    }
  }
}
layer {
  name: "loss1/relu_conv"
  type: "ReLU"
  bottom: "loss1/conv"
  top: "loss1/conv"
}
layer {
  name: "loss1/conv_bn"
  type: "BatchNorm"
  bottom: "loss1/conv"
  top: "loss1/conv_bn"
  param {
    lr_mult: 0
    decay_mult: 0
  }
  param {
    lr_mult: 0
    decay_mult: 0
  }
  param {
    lr_mult: 0
    decay_mult: 0
  }
  batch_norm_param {
    use_global_stats: false
    moving_average_fraction: 0.95
  }
}
layer {
  name: "loss1/fc"
  type: "InnerProduct"
  bottom: "loss1/conv_bn"
  top: "loss1/fc"
  param {
    lr_mult: 1
    decay_mult: 1
  }
  param {
    lr_mult: 2
    decay_mult: 0
  }
  inner_product_param {
    num_output: 1024
    weight_filler {
      type: "xavier"
    }
    bias_filler {
      type: "constant"
    }
  }
}
layer {
  name: "loss1/relu_fc"
  type: "ReLU"
  bottom: "loss1/fc"
  top: "loss1/fc"
}
layer {
  name: "loss1/fc_bn"
  type: "BatchNorm"
  bottom: "loss1/fc"
  top: "loss1/fc_bn"
  param {
    lr_mult: 0
    decay_mult: 0
  }
  param {
    lr_mult: 0
    decay_mult: 0
  }
  param {
    lr_mult: 0
    decay_mult: 0
  }
  batch_norm_param {
    use_global_stats: false
    moving_average_fraction: 0.95
  }
}
layer {
  name: "loss1/drop_fc"
  type: "Dropout"
  bottom: "loss1/fc_bn"
  top: "loss1/drop_fc"
  dropout_param {
    dropout_ratio: 0.7
  }
}
layer {
  name: "loss1/classifier"
  type: "InnerProduct"
  bottom: "loss1/drop_fc"
  top: "loss1/classifier"
  param {
    lr_mult: 1
    decay_mult: 1
  }
  param {
    lr_mult: 2
    decay_mult: 0
  }
  inner_product_param {
    num_output: 1000
    weight_filler {
      type: "xavier"
    }
    bias_filler {
      type: "constant"
      value: 0
    }
  }
}
layer {
  name: "loss1/loss"
  type: "SoftmaxWithLoss"
  bottom: "loss1/classifier"
  bottom: "label"
  top: "loss1/loss1"
  loss_weight: 0.3
}
layer {
  name: "inception_4b/1x1"
  type: "Convolution"
  bottom: "inception_4a/output"
  top: "inception_4b/1x1"
  param {
    lr_mult: 1
    decay_mult: 1
  }
  param {
    lr_mult: 2
    decay_mult: 0
  }
  convolution_param {
    num_output: 160
    kernel_size: 1
    weight_filler {
      type: "xavier"
    }
    bias_filler {
      type: "constant"
    }
  }
}
layer {
  name: "inception_4b/relu_1x1"
  type: "ReLU"
  bottom: "inception_4b/1x1"
  top: "inception_4b/1x1"
}
layer {
  name: "inception_4b/1x1_bn"
  type: "BatchNorm"
  bottom: "inception_4b/1x1"
  top: "inception_4b/1x1_bn"
  param {
    lr_mult: 0
    decay_mult: 0
  }
  param {
    lr_mult: 0
    decay_mult: 0
  }
  param {
    lr_mult: 0
    decay_mult: 0
  }
  batch_norm_param {
    use_global_stats: false
    moving_average_fraction: 0.95
  }
}
layer {
  name: "inception_4b/3x3_reduce"
  type: "Convolution"
  bottom: "inception_4a/output"
  top: "inception_4b/3x3_reduce"
  param {
    lr_mult: 1
    decay_mult: 1
  }
  param {
    lr_mult: 2
    decay_mult: 0
  }
  convolution_param {
    num_output: 112
    kernel_size: 1
    weight_filler {
      type: "xavier"
    }
    bias_filler {
      type: "constant"
    }
  }
}
layer {
  name: "inception_4b/relu_3x3_reduce"
  type: "ReLU"
  bottom: "inception_4b/3x3_reduce"
  top: "inception_4b/3x3_reduce"
}
layer {
  name: "inception_4b/3x3_reduce_bn"
  type: "BatchNorm"
  bottom: "inception_4b/3x3_reduce"
  top: "inception_4b/3x3_reduce_bn"
  param {
    lr_mult: 0
    decay_mult: 0
  }
  param {
    lr_mult: 0
    decay_mult: 0
  }
  param {
    lr_mult: 0
    decay_mult: 0
  }
  batch_norm_param {
    use_global_stats: false
    moving_average_fraction: 0.95
  }
}
layer {
  name: "inception_4b/3x3"
  type: "Convolution"
  bottom: "inception_4b/3x3_reduce_bn"
  top: "inception_4b/3x3"
  param {
    lr_mult: 1
    decay_mult: 1
  }
  param {
    lr_mult: 2
    decay_mult: 0
  }
  convolution_param {
    num_output: 224
    pad: 1
    kernel_size: 3
    weight_filler {
      type: "xavier"
    }
    bias_filler {
      type: "constant"
    }
  }
}
layer {
  name: "inception_4b/relu_3x3"
  type: "ReLU"
  bottom: "inception_4b/3x3"
  top: "inception_4b/3x3"
}
layer {
  name: "inception_4b/3x3_bn"
  type: "BatchNorm"
  bottom: "inception_4b/3x3"
  top: "inception_4b/3x3_bn"
  param {
    lr_mult: 0
    decay_mult: 0
  }
  param {
    lr_mult: 0
    decay_mult: 0
  }
  param {
    lr_mult: 0
    decay_mult: 0
  }
  batch_norm_param {
    use_global_stats: false
    moving_average_fraction: 0.95
  }
}
layer {
  name: "inception_4b/5x5_reduce"
  type: "Convolution"
  bottom: "inception_4a/output"
  top: "inception_4b/5x5_reduce"
  param {
    lr_mult: 1
    decay_mult: 1
  }
  param {
    lr_mult: 2
    decay_mult: 0
  }
  convolution_param {
    num_output: 24
    kernel_size: 1
    weight_filler {
      type: "xavier"
    }
    bias_filler {
      type: "constant"
    }
  }
}
layer {
  name: "inception_4b/relu_5x5_reduce"
  type: "ReLU"
  bottom: "inception_4b/5x5_reduce"
  top: "inception_4b/5x5_reduce"
}
layer {
  name: "inception_4b/5x5_reduce_bn"
  type: "BatchNorm"
  bottom: "inception_4b/5x5_reduce"
  top: "inception_4b/5x5_reduce_bn"
  param {
    lr_mult: 0
    decay_mult: 0
  }
  param {
    lr_mult: 0
    decay_mult: 0
  }
  param {
    lr_mult: 0
    decay_mult: 0
  }
  batch_norm_param {
    use_global_stats: false
    moving_average_fraction: 0.95
  }
}
layer {
  name: "inception_4b/5x5"
  type: "Convolution"
  bottom: "inception_4b/5x5_reduce_bn"
  top: "inception_4b/5x5"
  param {
    lr_mult: 1
    decay_mult: 1
  }
  param {
    lr_mult: 2
    decay_mult: 0
  }
  convolution_param {
    num_output: 64
    pad: 2
    kernel_size: 5
    weight_filler {
      type: "xavier"
    }
    bias_filler {
      type: "constant"
    }
  }
}
layer {
  name: "inception_4b/relu_5x5"
  type: "ReLU"
  bottom: "inception_4b/5x5"
  top: "inception_4b/5x5"
}
layer {
  name: "inception_4b/5x5_bn"
  type: "BatchNorm"
  bottom: "inception_4b/5x5"
  top: "inception_4b/5x5_bn"
  param {
    lr_mult: 0
    decay_mult: 0
  }
  param {
    lr_mult: 0
    decay_mult: 0
  }
  param {
    lr_mult: 0
    decay_mult: 0
  }
  batch_norm_param {
    use_global_stats: false
    moving_average_fraction: 0.95
  }
}
layer {
  name: "inception_4b/pool"
  type: "Pooling"
  bottom: "inception_4a/output"
  top: "inception_4b/pool"
  pooling_param {
    pool: MAX
    kernel_size: 3
    stride: 1
    pad: 1
  }
}
layer {
  name: "inception_4b/pool_proj"
  type: "Convolution"
  bottom: "inception_4b/pool"
  top: "inception_4b/pool_proj"
  param {
    lr_mult: 1
    decay_mult: 1
  }
  param {
    lr_mult: 2
    decay_mult: 0
  }
  convolution_param {
    num_output: 64
    kernel_size: 1
    weight_filler {
      type: "xavier"
    }
    bias_filler {
      type: "constant"
    }
  }
}
layer {
  name: "inception_4b/relu_pool_proj"
  type: "ReLU"
  bottom: "inception_4b/pool_proj"
  top: "inception_4b/pool_proj"
}
layer {
  name: "inception_4b/pool_proj_bn"
  type: "BatchNorm"
  bottom: "inception_4b/pool_proj"
  top: "inception_4b/pool_proj_bn"
  param {
    lr_mult: 0
    decay_mult: 0
  }
  param {
    lr_mult: 0
    decay_mult: 0
  }
  param {
    lr_mult: 0
    decay_mult: 0
  }
  batch_norm_param {
    use_global_stats: false
    moving_average_fraction: 0.95
  }
}
layer {
  name: "inception_4b/output"
  type: "Concat"
  bottom: "inception_4b/1x1_bn"
  bottom: "inception_4b/3x3_bn"
  bottom: "inception_4b/5x5_bn"
  bottom: "inception_4b/pool_proj_bn"
  top: "inception_4b/output"
}
layer {
  name: "inception_4c/1x1"
  type: "Convolution"
  bottom: "inception_4b/output"
  top: "inception_4c/1x1"
  param {
    lr_mult: 1
    decay_mult: 1
  }
  param {
    lr_mult: 2
    decay_mult: 0
  }
  convolution_param {
    num_output: 128
    kernel_size: 1
    weight_filler {
      type: "xavier"
    }
    bias_filler {
      type: "constant"
    }
  }
}
layer {
  name: "inception_4c/relu_1x1"
  type: "ReLU"
  bottom: "inception_4c/1x1"
  top: "inception_4c/1x1"
}
layer {
  name: "inception_4c/1x1_bn"
  type: "BatchNorm"
  bottom: "inception_4c/1x1"
  top: "inception_4c/1x1_bn"
  param {
    lr_mult: 0
    decay_mult: 0
  }
  param {
    lr_mult: 0
    decay_mult: 0
  }
  param {
    lr_mult: 0
    decay_mult: 0
  }
  batch_norm_param {
    use_global_stats: false
    moving_average_fraction: 0.95
  }
}
layer {
  name: "inception_4c/3x3_reduce"
  type: "Convolution"
  bottom: "inception_4b/output"
  top: "inception_4c/3x3_reduce"
  param {
    lr_mult: 1
    decay_mult: 1
  }
  param {
    lr_mult: 2
    decay_mult: 0
  }
  convolution_param {
    num_output: 128
    kernel_size: 1
    weight_filler {
      type: "xavier"
    }
    bias_filler {
      type: "constant"
    }
  }
}
layer {
  name: "inception_4c/relu_3x3_reduce"
  type: "ReLU"
  bottom: "inception_4c/3x3_reduce"
  top: "inception_4c/3x3_reduce"
}
layer {
  name: "inception_4c/3x3_reduce_bn"
  type: "BatchNorm"
  bottom: "inception_4c/3x3_reduce"
  top: "inception_4c/3x3_reduce_bn"
  param {
    lr_mult: 0
    decay_mult: 0
  }
  param {
    lr_mult: 0
    decay_mult: 0
  }
  param {
    lr_mult: 0
    decay_mult: 0
  }
  batch_norm_param {
    use_global_stats: false
    moving_avera
I0315 23:59:42.878531  8308 layer_factory.hpp:76] Creating layer data
I0315 23:59:42.879472  8308 net.cpp:106] Creating Layer data
I0315 23:59:42.879492  8308 net.cpp:411] data -> data
I0315 23:59:42.879533  8308 net.cpp:411] data -> label
I0315 23:59:42.881207  8344 db_lmdb.cpp:38] Opened lmdb /local/temporary/imagenet144pxlmdb/ilsvrc12_128_train_lmdb
I0315 23:59:42.901424  8308 data_layer.cpp:41] output data size: 64,3,128,128
I0315 23:59:42.929206  8308 net.cpp:150] Setting up data
I0315 23:59:42.929286  8308 net.cpp:157] Top shape: 64 3 128 128 (3145728)
I0315 23:59:42.929296  8308 net.cpp:157] Top shape: 64 (64)
I0315 23:59:42.929299  8308 net.cpp:165] Memory required for data: 12583168
I0315 23:59:42.929313  8308 layer_factory.hpp:76] Creating layer label_data_1_split
I0315 23:59:42.929337  8308 net.cpp:106] Creating Layer label_data_1_split
I0315 23:59:42.929343  8308 net.cpp:454] label_data_1_split <- label
I0315 23:59:42.929365  8308 net.cpp:411] label_data_1_split -> label_data_1_split_0
I0315 23:59:42.929386  8308 net.cpp:411] label_data_1_split -> label_data_1_split_1
I0315 23:59:42.929399  8308 net.cpp:411] label_data_1_split -> label_data_1_split_2
I0315 23:59:42.929503  8308 net.cpp:150] Setting up label_data_1_split
I0315 23:59:42.929514  8308 net.cpp:157] Top shape: 64 (64)
I0315 23:59:42.929522  8308 net.cpp:157] Top shape: 64 (64)
I0315 23:59:42.929527  8308 net.cpp:157] Top shape: 64 (64)
I0315 23:59:42.929533  8308 net.cpp:165] Memory required for data: 12583936
I0315 23:59:42.929538  8308 layer_factory.hpp:76] Creating layer conv1/7x7_s2
I0315 23:59:42.929556  8308 net.cpp:106] Creating Layer conv1/7x7_s2
I0315 23:59:42.929563  8308 net.cpp:454] conv1/7x7_s2 <- data
I0315 23:59:42.929574  8308 net.cpp:411] conv1/7x7_s2 -> conv1/7x7_s2
I0315 23:59:43.068538  8308 net.cpp:150] Setting up conv1/7x7_s2
I0315 23:59:43.068569  8308 net.cpp:157] Top shape: 64 64 64 64 (16777216)
I0315 23:59:43.068574  8308 net.cpp:165] Memory required for data: 79692800
I0315 23:59:43.068594  8308 layer_factory.hpp:76] Creating layer conv1/relu_7x7
I0315 23:59:43.068605  8308 net.cpp:106] Creating Layer conv1/relu_7x7
I0315 23:59:43.068610  8308 net.cpp:454] conv1/relu_7x7 <- conv1/7x7_s2
I0315 23:59:43.068616  8308 net.cpp:397] conv1/relu_7x7 -> conv1/7x7_s2 (in-place)
I0315 23:59:43.068821  8308 net.cpp:150] Setting up conv1/relu_7x7
I0315 23:59:43.068831  8308 net.cpp:157] Top shape: 64 64 64 64 (16777216)
I0315 23:59:43.068835  8308 net.cpp:165] Memory required for data: 146801664
I0315 23:59:43.068838  8308 layer_factory.hpp:76] Creating layer conv1/7x7_s2_bn
I0315 23:59:43.068848  8308 net.cpp:106] Creating Layer conv1/7x7_s2_bn
I0315 23:59:43.068853  8308 net.cpp:454] conv1/7x7_s2_bn <- conv1/7x7_s2
I0315 23:59:43.068861  8308 net.cpp:411] conv1/7x7_s2_bn -> conv1/7x7_s2_bn
I0315 23:59:43.069069  8308 net.cpp:150] Setting up conv1/7x7_s2_bn
I0315 23:59:43.069077  8308 net.cpp:157] Top shape: 64 64 64 64 (16777216)
I0315 23:59:43.069080  8308 net.cpp:165] Memory required for data: 213910528
I0315 23:59:43.069099  8308 layer_factory.hpp:76] Creating layer pool1/3x3_s2
I0315 23:59:43.069108  8308 net.cpp:106] Creating Layer pool1/3x3_s2
I0315 23:59:43.069111  8308 net.cpp:454] pool1/3x3_s2 <- conv1/7x7_s2_bn
I0315 23:59:43.069119  8308 net.cpp:411] pool1/3x3_s2 -> pool1/3x3_s2
I0315 23:59:43.069481  8308 net.cpp:150] Setting up pool1/3x3_s2
I0315 23:59:43.069494  8308 net.cpp:157] Top shape: 64 64 32 32 (4194304)
I0315 23:59:43.069497  8308 net.cpp:165] Memory required for data: 230687744
I0315 23:59:43.069500  8308 layer_factory.hpp:76] Creating layer pool1/norm1
I0315 23:59:43.069512  8308 net.cpp:106] Creating Layer pool1/norm1
I0315 23:59:43.069516  8308 net.cpp:454] pool1/norm1 <- pool1/3x3_s2
I0315 23:59:43.069521  8308 net.cpp:411] pool1/norm1 -> pool1/norm1
I0315 23:59:43.069885  8308 net.cpp:150] Setting up pool1/norm1
I0315 23:59:43.069898  8308 net.cpp:157] Top shape: 64 64 32 32 (4194304)
I0315 23:59:43.069901  8308 net.cpp:165] Memory required for data: 247464960
I0315 23:59:43.069905  8308 layer_factory.hpp:76] Creating layer conv2/3x3_reduce
I0315 23:59:43.069918  8308 net.cpp:106] Creating Layer conv2/3x3_reduce
I0315 23:59:43.069922  8308 net.cpp:454] conv2/3x3_reduce <- pool1/norm1
I0315 23:59:43.069929  8308 net.cpp:411] conv2/3x3_reduce -> conv2/3x3_reduce
I0315 23:59:43.073484  8308 net.cpp:150] Setting up conv2/3x3_reduce
I0315 23:59:43.073498  8308 net.cpp:157] Top shape: 64 64 32 32 (4194304)
I0315 23:59:43.073501  8308 net.cpp:165] Memory required for data: 264242176
I0315 23:59:43.073534  8308 layer_factory.hpp:76] Creating layer conv2/relu_3x3_reduce
I0315 23:59:43.073544  8308 net.cpp:106] Creating Layer conv2/relu_3x3_reduce
I0315 23:59:43.073547  8308 net.cpp:454] conv2/relu_3x3_reduce <- conv2/3x3_reduce
I0315 23:59:43.073552  8308 net.cpp:397] conv2/relu_3x3_reduce -> conv2/3x3_reduce (in-place)
I0315 23:59:43.073879  8308 net.cpp:150] Setting up conv2/relu_3x3_reduce
I0315 23:59:43.073890  8308 net.cpp:157] Top shape: 64 64 32 32 (4194304)
I0315 23:59:43.073894  8308 net.cpp:165] Memory required for data: 281019392
I0315 23:59:43.073897  8308 layer_factory.hpp:76] Creating layer conv2/3x3_reduce_bn
I0315 23:59:43.073905  8308 net.cpp:106] Creating Layer conv2/3x3_reduce_bn
I0315 23:59:43.073909  8308 net.cpp:454] conv2/3x3_reduce_bn <- conv2/3x3_reduce
I0315 23:59:43.073916  8308 net.cpp:411] conv2/3x3_reduce_bn -> conv2/3x3_reduce_bn
I0315 23:59:43.074131  8308 net.cpp:150] Setting up conv2/3x3_reduce_bn
I0315 23:59:43.074139  8308 net.cpp:157] Top shape: 64 64 32 32 (4194304)
I0315 23:59:43.074142  8308 net.cpp:165] Memory required for data: 297796608
I0315 23:59:43.074152  8308 layer_factory.hpp:76] Creating layer conv2/3x3
I0315 23:59:43.074164  8308 net.cpp:106] Creating Layer conv2/3x3
I0315 23:59:43.074168  8308 net.cpp:454] conv2/3x3 <- conv2/3x3_reduce_bn
I0315 23:59:43.074175  8308 net.cpp:411] conv2/3x3 -> conv2/3x3
I0315 23:59:43.076457  8308 net.cpp:150] Setting up conv2/3x3
I0315 23:59:43.076470  8308 net.cpp:157] Top shape: 64 192 32 32 (12582912)
I0315 23:59:43.076474  8308 net.cpp:165] Memory required for data: 348128256
I0315 23:59:43.076481  8308 layer_factory.hpp:76] Creating layer conv2/relu_3x3
I0315 23:59:43.076490  8308 net.cpp:106] Creating Layer conv2/relu_3x3
I0315 23:59:43.076493  8308 net.cpp:454] conv2/relu_3x3 <- conv2/3x3
I0315 23:59:43.076499  8308 net.cpp:397] conv2/relu_3x3 -> conv2/3x3 (in-place)
I0315 23:59:43.076694  8308 net.cpp:150] Setting up conv2/relu_3x3
I0315 23:59:43.076704  8308 net.cpp:157] Top shape: 64 192 32 32 (12582912)
I0315 23:59:43.076709  8308 net.cpp:165] Memory required for data: 398459904
I0315 23:59:43.076711  8308 layer_factory.hpp:76] Creating layer conv2/3x3_bn
I0315 23:59:43.076717  8308 net.cpp:106] Creating Layer conv2/3x3_bn
I0315 23:59:43.076722  8308 net.cpp:454] conv2/3x3_bn <- conv2/3x3
I0315 23:59:43.076730  8308 net.cpp:411] conv2/3x3_bn -> conv2/3x3_bn
I0315 23:59:43.076946  8308 net.cpp:150] Setting up conv2/3x3_bn
I0315 23:59:43.076953  8308 net.cpp:157] Top shape: 64 192 32 32 (12582912)
I0315 23:59:43.076956  8308 net.cpp:165] Memory required for data: 448791552
I0315 23:59:43.076964  8308 layer_factory.hpp:76] Creating layer conv2/norm2
I0315 23:59:43.076974  8308 net.cpp:106] Creating Layer conv2/norm2
I0315 23:59:43.076978  8308 net.cpp:454] conv2/norm2 <- conv2/3x3_bn
I0315 23:59:43.076984  8308 net.cpp:411] conv2/norm2 -> conv2/norm2
I0315 23:59:43.077342  8308 net.cpp:150] Setting up conv2/norm2
I0315 23:59:43.077353  8308 net.cpp:157] Top shape: 64 192 32 32 (12582912)
I0315 23:59:43.077356  8308 net.cpp:165] Memory required for data: 499123200
I0315 23:59:43.077359  8308 layer_factory.hpp:76] Creating layer pool2/3x3_s2
I0315 23:59:43.077368  8308 net.cpp:106] Creating Layer pool2/3x3_s2
I0315 23:59:43.077371  8308 net.cpp:454] pool2/3x3_s2 <- conv2/norm2
I0315 23:59:43.077376  8308 net.cpp:411] pool2/3x3_s2 -> pool2/3x3_s2
I0315 23:59:43.077595  8308 net.cpp:150] Setting up pool2/3x3_s2
I0315 23:59:43.077605  8308 net.cpp:157] Top shape: 64 192 16 16 (3145728)
I0315 23:59:43.077607  8308 net.cpp:165] Memory required for data: 511706112
I0315 23:59:43.077611  8308 layer_factory.hpp:76] Creating layer pool2/3x3_s2_pool2/3x3_s2_0_split
I0315 23:59:43.077618  8308 net.cpp:106] Creating Layer pool2/3x3_s2_pool2/3x3_s2_0_split
I0315 23:59:43.077622  8308 net.cpp:454] pool2/3x3_s2_pool2/3x3_s2_0_split <- pool2/3x3_s2
I0315 23:59:43.077630  8308 net.cpp:411] pool2/3x3_s2_pool2/3x3_s2_0_split -> pool2/3x3_s2_pool2/3x3_s2_0_split_0
I0315 23:59:43.077638  8308 net.cpp:411] pool2/3x3_s2_pool2/3x3_s2_0_split -> pool2/3x3_s2_pool2/3x3_s2_0_split_1
I0315 23:59:43.077659  8308 net.cpp:411] pool2/3x3_s2_pool2/3x3_s2_0_split -> pool2/3x3_s2_pool2/3x3_s2_0_split_2
I0315 23:59:43.077664  8308 net.cpp:411] pool2/3x3_s2_pool2/3x3_s2_0_split -> pool2/3x3_s2_pool2/3x3_s2_0_split_3
I0315 23:59:43.077725  8308 net.cpp:150] Setting up pool2/3x3_s2_pool2/3x3_s2_0_split
I0315 23:59:43.077733  8308 net.cpp:157] Top shape: 64 192 16 16 (3145728)
I0315 23:59:43.077738  8308 net.cpp:157] Top shape: 64 192 16 16 (3145728)
I0315 23:59:43.077740  8308 net.cpp:157] Top shape: 64 192 16 16 (3145728)
I0315 23:59:43.077744  8308 net.cpp:157] Top shape: 64 192 16 16 (3145728)
I0315 23:59:43.077747  8308 net.cpp:165] Memory required for data: 562037760
I0315 23:59:43.077751  8308 layer_factory.hpp:76] Creating layer inception_3a/1x1
I0315 23:59:43.077762  8308 net.cpp:106] Creating Layer inception_3a/1x1
I0315 23:59:43.077767  8308 net.cpp:454] inception_3a/1x1 <- pool2/3x3_s2_pool2/3x3_s2_0_split_0
I0315 23:59:43.077775  8308 net.cpp:411] inception_3a/1x1 -> inception_3a/1x1
I0315 23:59:43.078996  8308 net.cpp:150] Setting up inception_3a/1x1
I0315 23:59:43.079010  8308 net.cpp:157] Top shape: 64 64 16 16 (1048576)
I0315 23:59:43.079013  8308 net.cpp:165] Memory required for data: 566232064
I0315 23:59:43.079025  8308 layer_factory.hpp:76] Creating layer inception_3a/relu_1x1
I0315 23:59:43.079030  8308 net.cpp:106] Creating Layer inception_3a/relu_1x1
I0315 23:59:43.079035  8308 net.cpp:454] inception_3a/relu_1x1 <- inception_3a/1x1
I0315 23:59:43.079041  8308 net.cpp:397] inception_3a/relu_1x1 -> inception_3a/1x1 (in-place)
I0315 23:59:43.079365  8308 net.cpp:150] Setting up inception_3a/relu_1x1
I0315 23:59:43.079376  8308 net.cpp:157] Top shape: 64 64 16 16 (1048576)
I0315 23:59:43.079380  8308 net.cpp:165] Memory required for data: 570426368
I0315 23:59:43.079383  8308 layer_factory.hpp:76] Creating layer inception_3a/1x1_bn
I0315 23:59:43.079392  8308 net.cpp:106] Creating Layer inception_3a/1x1_bn
I0315 23:59:43.079397  8308 net.cpp:454] inception_3a/1x1_bn <- inception_3a/1x1
I0315 23:59:43.079411  8308 net.cpp:411] inception_3a/1x1_bn -> inception_3a/1x1_bn
I0315 23:59:43.079619  8308 net.cpp:150] Setting up inception_3a/1x1_bn
I0315 23:59:43.079627  8308 net.cpp:157] Top shape: 64 64 16 16 (1048576)
I0315 23:59:43.079630  8308 net.cpp:165] Memory required for data: 574620672
I0315 23:59:43.079638  8308 layer_factory.hpp:76] Creating layer inception_3a/3x3_reduce
I0315 23:59:43.079648  8308 net.cpp:106] Creating Layer inception_3a/3x3_reduce
I0315 23:59:43.079653  8308 net.cpp:454] inception_3a/3x3_reduce <- pool2/3x3_s2_pool2/3x3_s2_0_split_1
I0315 23:59:43.079663  8308 net.cpp:411] inception_3a/3x3_reduce -> inception_3a/3x3_reduce
I0315 23:59:43.081264  8308 net.cpp:150] Setting up inception_3a/3x3_reduce
I0315 23:59:43.081276  8308 net.cpp:157] Top shape: 64 96 16 16 (1572864)
I0315 23:59:43.081280  8308 net.cpp:165] Memory required for data: 580912128
I0315 23:59:43.081287  8308 layer_factory.hpp:76] Creating layer inception_3a/relu_3x3_reduce
I0315 23:59:43.081295  8308 net.cpp:106] Creating Layer inception_3a/relu_3x3_reduce
I0315 23:59:43.081300  8308 net.cpp:454] inception_3a/relu_3x3_reduce <- inception_3a/3x3_reduce
I0315 23:59:43.081305  8308 net.cpp:397] inception_3a/relu_3x3_reduce -> inception_3a/3x3_reduce (in-place)
I0315 23:59:43.081616  8308 net.cpp:150] Setting up inception_3a/relu_3x3_reduce
I0315 23:59:43.081629  8308 net.cpp:157] Top shape: 64 96 16 16 (1572864)
I0315 23:59:43.081631  8308 net.cpp:165] Memory required for data: 587203584
I0315 23:59:43.081634  8308 layer_factory.hpp:76] Creating layer inception_3a/3x3_reduce_bn
I0315 23:59:43.081643  8308 net.cpp:106] Creating Layer inception_3a/3x3_reduce_bn
I0315 23:59:43.081648  8308 net.cpp:454] inception_3a/3x3_reduce_bn <- inception_3a/3x3_reduce
I0315 23:59:43.081655  8308 net.cpp:411] inception_3a/3x3_reduce_bn -> inception_3a/3x3_reduce_bn
I0315 23:59:43.081863  8308 net.cpp:150] Setting up inception_3a/3x3_reduce_bn
I0315 23:59:43.081883  8308 net.cpp:157] Top shape: 64 96 16 16 (1572864)
I0315 23:59:43.081887  8308 net.cpp:165] Memory required for data: 593495040
I0315 23:59:43.081894  8308 layer_factory.hpp:76] Creating layer inception_3a/3x3
I0315 23:59:43.081903  8308 net.cpp:106] Creating Layer inception_3a/3x3
I0315 23:59:43.081909  8308 net.cpp:454] inception_3a/3x3 <- inception_3a/3x3_reduce_bn
I0315 23:59:43.081918  8308 net.cpp:411] inception_3a/3x3 -> inception_3a/3x3
I0315 23:59:43.083588  8308 net.cpp:150] Setting up inception_3a/3x3
I0315 23:59:43.083602  8308 net.cpp:157] Top shape: 64 128 16 16 (2097152)
I0315 23:59:43.083606  8308 net.cpp:165] Memory required for data: 601883648
I0315 23:59:43.083612  8308 layer_factory.hpp:76] Creating layer inception_3a/relu_3x3
I0315 23:59:43.083621  8308 net.cpp:106] Creating Layer inception_3a/relu_3x3
I0315 23:59:43.083624  8308 net.cpp:454] inception_3a/relu_3x3 <- inception_3a/3x3
I0315 23:59:43.083629  8308 net.cpp:397] inception_3a/relu_3x3 -> inception_3a/3x3 (in-place)
I0315 23:59:43.083819  8308 net.cpp:150] Setting up inception_3a/relu_3x3
I0315 23:59:43.083828  8308 net.cpp:157] Top shape: 64 128 16 16 (2097152)
I0315 23:59:43.083832  8308 net.cpp:165] Memory required for data: 610272256
I0315 23:59:43.083835  8308 layer_factory.hpp:76] Creating layer inception_3a/3x3_bn
I0315 23:59:43.083847  8308 net.cpp:106] Creating Layer inception_3a/3x3_bn
I0315 23:59:43.083852  8308 net.cpp:454] inception_3a/3x3_bn <- inception_3a/3x3
I0315 23:59:43.083858  8308 net.cpp:411] inception_3a/3x3_bn -> inception_3a/3x3_bn
I0315 23:59:43.084053  8308 net.cpp:150] Setting up inception_3a/3x3_bn
I0315 23:59:43.084060  8308 net.cpp:157] Top shape: 64 128 16 16 (2097152)
I0315 23:59:43.084064  8308 net.cpp:165] Memory required for data: 618660864
I0315 23:59:43.084072  8308 layer_factory.hpp:76] Creating layer inception_3a/5x5_reduce
I0315 23:59:43.084080  8308 net.cpp:106] Creating Layer inception_3a/5x5_reduce
I0315 23:59:43.084085  8308 net.cpp:454] inception_3a/5x5_reduce <- pool2/3x3_s2_pool2/3x3_s2_0_split_2
I0315 23:59:43.084094  8308 net.cpp:411] inception_3a/5x5_reduce -> inception_3a/5x5_reduce
I0315 23:59:43.085258  8308 net.cpp:150] Setting up inception_3a/5x5_reduce
I0315 23:59:43.085271  8308 net.cpp:157] Top shape: 64 16 16 16 (262144)
I0315 23:59:43.085275  8308 net.cpp:165] Memory required for data: 619709440
I0315 23:59:43.085283  8308 layer_factory.hpp:76] Creating layer inception_3a/relu_5x5_reduce
I0315 23:59:43.085289  8308 net.cpp:106] Creating Layer inception_3a/relu_5x5_reduce
I0315 23:59:43.085292  8308 net.cpp:454] inception_3a/relu_5x5_reduce <- inception_3a/5x5_reduce
I0315 23:59:43.085299  8308 net.cpp:397] inception_3a/relu_5x5_reduce -> inception_3a/5x5_reduce (in-place)
I0315 23:59:43.085609  8308 net.cpp:150] Setting up inception_3a/relu_5x5_reduce
I0315 23:59:43.085621  8308 net.cpp:157] Top shape: 64 16 16 16 (262144)
I0315 23:59:43.085624  8308 net.cpp:165] Memory required for data: 620758016
I0315 23:59:43.085628  8308 layer_factory.hpp:76] Creating layer inception_3a/5x5_reduce_bn
I0315 23:59:43.085636  8308 net.cpp:106] Creating Layer inception_3a/5x5_reduce_bn
I0315 23:59:43.085640  8308 net.cpp:454] inception_3a/5x5_reduce_bn <- inception_3a/5x5_reduce
I0315 23:59:43.085649  8308 net.cpp:411] inception_3a/5x5_reduce_bn -> inception_3a/5x5_reduce_bn
I0315 23:59:43.085860  8308 net.cpp:150] Setting up inception_3a/5x5_reduce_bn
I0315 23:59:43.085866  8308 net.cpp:157] Top shape: 64 16 16 16 (262144)
I0315 23:59:43.085870  8308 net.cpp:165] Memory required for data: 621806592
I0315 23:59:43.085880  8308 layer_factory.hpp:76] Creating layer inception_3a/5x5
I0315 23:59:43.085892  8308 net.cpp:106] Creating Layer inception_3a/5x5
I0315 23:59:43.085896  8308 net.cpp:454] inception_3a/5x5 <- inception_3a/5x5_reduce_bn
I0315 23:59:43.085902  8308 net.cpp:411] inception_3a/5x5 -> inception_3a/5x5
I0315 23:59:43.086894  8308 net.cpp:150] Setting up inception_3a/5x5
I0315 23:59:43.086906  8308 net.cpp:157] Top shape: 64 32 16 16 (524288)
I0315 23:59:43.086910  8308 net.cpp:165] Memory required for data: 623903744
I0315 23:59:43.086930  8308 layer_factory.hpp:76] Creating layer inception_3a/relu_5x5
I0315 23:59:43.086935  8308 net.cpp:106] Creating Layer inception_3a/relu_5x5
I0315 23:59:43.086940  8308 net.cpp:454] inception_3a/relu_5x5 <- inception_3a/5x5
I0315 23:59:43.086946  8308 net.cpp:397] inception_3a/relu_5x5 -> inception_3a/5x5 (in-place)
I0315 23:59:43.087262  8308 net.cpp:150] Setting up inception_3a/relu_5x5
I0315 23:59:43.087275  8308 net.cpp:157] Top shape: 64 32 16 16 (524288)
I0315 23:59:43.087277  8308 net.cpp:165] Memory required for data: 626000896
I0315 23:59:43.087281  8308 layer_factory.hpp:76] Creating layer inception_3a/5x5_bn
I0315 23:59:43.087288  8308 net.cpp:106] Creating Layer inception_3a/5x5_bn
I0315 23:59:43.087292  8308 net.cpp:454] inception_3a/5x5_bn <- inception_3a/5x5
I0315 23:59:43.087301  8308 net.cpp:411] inception_3a/5x5_bn -> inception_3a/5x5_bn
I0315 23:59:43.087522  8308 net.cpp:150] Setting up inception_3a/5x5_bn
I0315 23:59:43.087529  8308 net.cpp:157] Top shape: 64 32 16 16 (524288)
I0315 23:59:43.087532  8308 net.cpp:165] Memory required for data: 628098048
I0315 23:59:43.087540  8308 layer_factory.hpp:76] Creating layer inception_3a/pool
I0315 23:59:43.087549  8308 net.cpp:106] Creating Layer inception_3a/pool
I0315 23:59:43.087553  8308 net.cpp:454] inception_3a/pool <- pool2/3x3_s2_pool2/3x3_s2_0_split_3
I0315 23:59:43.087559  8308 net.cpp:411] inception_3a/pool -> inception_3a/pool
I0315 23:59:43.087785  8308 net.cpp:150] Setting up inception_3a/pool
I0315 23:59:43.087793  8308 net.cpp:157] Top shape: 64 192 16 16 (3145728)
I0315 23:59:43.087796  8308 net.cpp:165] Memory required for data: 640680960
I0315 23:59:43.087800  8308 layer_factory.hpp:76] Creating layer inception_3a/pool_proj
I0315 23:59:43.087813  8308 net.cpp:106] Creating Layer inception_3a/pool_proj
I0315 23:59:43.087818  8308 net.cpp:454] inception_3a/pool_proj <- inception_3a/pool
I0315 23:59:43.087824  8308 net.cpp:411] inception_3a/pool_proj -> inception_3a/pool_proj
I0315 23:59:43.088912  8308 net.cpp:150] Setting up inception_3a/pool_proj
I0315 23:59:43.088925  8308 net.cpp:157] Top shape: 64 32 16 16 (524288)
I0315 23:59:43.088929  8308 net.cpp:165] Memory required for data: 642778112
I0315 23:59:43.088935  8308 layer_factory.hpp:76] Creating layer inception_3a/relu_pool_proj
I0315 23:59:43.088943  8308 net.cpp:106] Creating Layer inception_3a/relu_pool_proj
I0315 23:59:43.088948  8308 net.cpp:454] inception_3a/relu_pool_proj <- inception_3a/pool_proj
I0315 23:59:43.088954  8308 net.cpp:397] inception_3a/relu_pool_proj -> inception_3a/pool_proj (in-place)
I0315 23:59:43.089268  8308 net.cpp:150] Setting up inception_3a/relu_pool_proj
I0315 23:59:43.089280  8308 net.cpp:157] Top shape: 64 32 16 16 (524288)
I0315 23:59:43.089283  8308 net.cpp:165] Memory required for data: 644875264
I0315 23:59:43.089287  8308 layer_factory.hpp:76] Creating layer inception_3a/pool_proj_bn
I0315 23:59:43.089298  8308 net.cpp:106] Creating Layer inception_3a/pool_proj_bn
I0315 23:59:43.089301  8308 net.cpp:454] inception_3a/pool_proj_bn <- inception_3a/pool_proj
I0315 23:59:43.089308  8308 net.cpp:411] inception_3a/pool_proj_bn -> inception_3a/pool_proj_bn
I0315 23:59:43.089530  8308 net.cpp:150] Setting up inception_3a/pool_proj_bn
I0315 23:59:43.089537  8308 net.cpp:157] Top shape: 64 32 16 16 (524288)
I0315 23:59:43.089540  8308 net.cpp:165] Memory required for data: 646972416
I0315 23:59:43.089548  8308 layer_factory.hpp:76] Creating layer inception_3a/output
I0315 23:59:43.089555  8308 net.cpp:106] Creating Layer inception_3a/output
I0315 23:59:43.089558  8308 net.cpp:454] inception_3a/output <- inception_3a/1x1_bn
I0315 23:59:43.089563  8308 net.cpp:454] inception_3a/output <- inception_3a/3x3_bn
I0315 23:59:43.089567  8308 net.cpp:454] inception_3a/output <- inception_3a/5x5_bn
I0315 23:59:43.089571  8308 net.cpp:454] inception_3a/output <- inception_3a/pool_proj_bn
I0315 23:59:43.089576  8308 net.cpp:411] inception_3a/output -> inception_3a/output
I0315 23:59:43.089602  8308 net.cpp:150] Setting up inception_3a/output
I0315 23:59:43.089623  8308 net.cpp:157] Top shape: 64 256 16 16 (4194304)
I0315 23:59:43.089627  8308 net.cpp:165] Memory required for data: 663749632
I0315 23:59:43.089630  8308 layer_factory.hpp:76] Creating layer inception_3a/output_inception_3a/output_0_split
I0315 23:59:43.089637  8308 net.cpp:106] Creating Layer inception_3a/output_inception_3a/output_0_split
I0315 23:59:43.089640  8308 net.cpp:454] inception_3a/output_inception_3a/output_0_split <- inception_3a/output
I0315 23:59:43.089645  8308 net.cpp:411] inception_3a/output_inception_3a/output_0_split -> inception_3a/output_inception_3a/output_0_split_0
I0315 23:59:43.089653  8308 net.cpp:411] inception_3a/output_inception_3a/output_0_split -> inception_3a/output_inception_3a/output_0_split_1
I0315 23:59:43.089660  8308 net.cpp:411] inception_3a/output_inception_3a/output_0_split -> inception_3a/output_inception_3a/output_0_split_2
I0315 23:59:43.089665  8308 net.cpp:411] inception_3a/output_inception_3a/output_0_split -> inception_3a/output_inception_3a/output_0_split_3
I0315 23:59:43.089732  8308 net.cpp:150] Setting up inception_3a/output_inception_3a/output_0_split
I0315 23:59:43.089740  8308 net.cpp:157] Top shape: 64 256 16 16 (4194304)
I0315 23:59:43.089743  8308 net.cpp:157] Top shape: 64 256 16 16 (4194304)
I0315 23:59:43.089747  8308 net.cpp:157] Top shape: 64 256 16 16 (4194304)
I0315 23:59:43.089751  8308 net.cpp:157] Top shape: 64 256 16 16 (4194304)
I0315 23:59:43.089753  8308 net.cpp:165] Memory required for data: 730858496
I0315 23:59:43.089756  8308 layer_factory.hpp:76] Creating layer inception_3b/1x1
I0315 23:59:43.089766  8308 net.cpp:106] Creating Layer inception_3b/1x1
I0315 23:59:43.089769  8308 net.cpp:454] inception_3b/1x1 <- inception_3a/output_inception_3a/output_0_split_0
I0315 23:59:43.089776  8308 net.cpp:411] inception_3b/1x1 -> inception_3b/1x1
I0315 23:59:43.091009  8308 net.cpp:150] Setting up inception_3b/1x1
I0315 23:59:43.091022  8308 net.cpp:157] Top shape: 64 128 16 16 (2097152)
I0315 23:59:43.091027  8308 net.cpp:165] Memory required for data: 739247104
I0315 23:59:43.091032  8308 layer_factory.hpp:76] Creating layer inception_3b/relu_1x1
I0315 23:59:43.091040  8308 net.cpp:106] Creating Layer inception_3b/relu_1x1
I0315 23:59:43.091044  8308 net.cpp:454] inception_3b/relu_1x1 <- inception_3b/1x1
I0315 23:59:43.091049  8308 net.cpp:397] inception_3b/relu_1x1 -> inception_3b/1x1 (in-place)
I0315 23:59:43.091236  8308 net.cpp:150] Setting up inception_3b/relu_1x1
I0315 23:59:43.091245  8308 net.cpp:157] Top shape: 64 128 16 16 (2097152)
I0315 23:59:43.091248  8308 net.cpp:165] Memory required for data: 747635712
I0315 23:59:43.091251  8308 layer_factory.hpp:76] Creating layer inception_3b/1x1_bn
I0315 23:59:43.091264  8308 net.cpp:106] Creating Layer inception_3b/1x1_bn
I0315 23:59:43.091267  8308 net.cpp:454] inception_3b/1x1_bn <- inception_3b/1x1
I0315 23:59:43.091272  8308 net.cpp:411] inception_3b/1x1_bn -> inception_3b/1x1_bn
I0315 23:59:43.091483  8308 net.cpp:150] Setting up inception_3b/1x1_bn
I0315 23:59:43.091490  8308 net.cpp:157] Top shape: 64 128 16 16 (2097152)
I0315 23:59:43.091493  8308 net.cpp:165] Memory required for data: 756024320
I0315 23:59:43.091501  8308 layer_factory.hpp:76] Creating layer inception_3b/3x3_reduce
I0315 23:59:43.091509  8308 net.cpp:106] Creating Layer inception_3b/3x3_reduce
I0315 23:59:43.091512  8308 net.cpp:454] inception_3b/3x3_reduce <- inception_3a/output_inception_3a/output_0_split_1
I0315 23:59:43.091522  8308 net.cpp:411] inception_3b/3x3_reduce -> inception_3b/3x3_reduce
I0315 23:59:43.092743  8308 net.cpp:150] Setting up inception_3b/3x3_reduce
I0315 23:59:43.092758  8308 net.cpp:157] Top shape: 64 128 16 16 (2097152)
I0315 23:59:43.092761  8308 net.cpp:165] Memory required for data: 764412928
I0315 23:59:43.092768  8308 layer_factory.hpp:76] Creating layer inception_3b/relu_3x3_reduce
I0315 23:59:43.092774  8308 net.cpp:106] Creating Layer inception_3b/relu_3x3_reduce
I0315 23:59:43.092778  8308 net.cpp:454] inception_3b/relu_3x3_reduce <- inception_3b/3x3_reduce
I0315 23:59:43.092810  8308 net.cpp:397] inception_3b/relu_3x3_reduce -> inception_3b/3x3_reduce (in-place)
I0315 23:59:43.093003  8308 net.cpp:150] Setting up inception_3b/relu_3x3_reduce
I0315 23:59:43.093013  8308 net.cpp:157] Top shape: 64 128 16 16 (2097152)
I0315 23:59:43.093016  8308 net.cpp:165] Memory required for data: 772801536
I0315 23:59:43.093019  8308 layer_factory.hpp:76] Creating layer inception_3b/3x3_reduce_bn
I0315 23:59:43.093027  8308 net.cpp:106] Creating Layer inception_3b/3x3_reduce_bn
I0315 23:59:43.093032  8308 net.cpp:454] inception_3b/3x3_reduce_bn <- inception_3b/3x3_reduce
I0315 23:59:43.093037  8308 net.cpp:411] inception_3b/3x3_reduce_bn -> inception_3b/3x3_reduce_bn
I0315 23:59:43.093251  8308 net.cpp:150] Setting up inception_3b/3x3_reduce_bn
I0315 23:59:43.093258  8308 net.cpp:157] Top shape: 64 128 16 16 (2097152)
I0315 23:59:43.093261  8308 net.cpp:165] Memory required for data: 781190144
I0315 23:59:43.093269  8308 layer_factory.hpp:76] Creating layer inception_3b/3x3
I0315 23:59:43.093277  8308 net.cpp:106] Creating Layer inception_3b/3x3
I0315 23:59:43.093281  8308 net.cpp:454] inception_3b/3x3 <- inception_3b/3x3_reduce_bn
I0315 23:59:43.093288  8308 net.cpp:411] inception_3b/3x3 -> inception_3b/3x3
I0315 23:59:43.096101  8308 net.cpp:150] Setting up inception_3b/3x3
I0315 23:59:43.096115  8308 net.cpp:157] Top shape: 64 192 16 16 (3145728)
I0315 23:59:43.096118  8308 net.cpp:165] Memory required for data: 793773056
I0315 23:59:43.096125  8308 layer_factory.hpp:76] Creating layer inception_3b/relu_3x3
I0315 23:59:43.096132  8308 net.cpp:106] Creating Layer inception_3b/relu_3x3
I0315 23:59:43.096137  8308 net.cpp:454] inception_3b/relu_3x3 <- inception_3b/3x3
I0315 23:59:43.096143  8308 net.cpp:397] inception_3b/relu_3x3 -> inception_3b/3x3 (in-place)
I0315 23:59:43.096457  8308 net.cpp:150] Setting up inception_3b/relu_3x3
I0315 23:59:43.096469  8308 net.cpp:157] Top shape: 64 192 16 16 (3145728)
I0315 23:59:43.096472  8308 net.cpp:165] Memory required for data: 806355968
I0315 23:59:43.096477  8308 layer_factory.hpp:76] Creating layer inception_3b/3x3_bn
I0315 23:59:43.096484  8308 net.cpp:106] Creating Layer inception_3b/3x3_bn
I0315 23:59:43.096488  8308 net.cpp:454] inception_3b/3x3_bn <- inception_3b/3x3
I0315 23:59:43.096494  8308 net.cpp:411] inception_3b/3x3_bn -> inception_3b/3x3_bn
I0315 23:59:43.096719  8308 net.cpp:150] Setting up inception_3b/3x3_bn
I0315 23:59:43.096726  8308 net.cpp:157] Top shape: 64 192 16 16 (3145728)
I0315 23:59:43.096729  8308 net.cpp:165] Memory required for data: 818938880
I0315 23:59:43.096737  8308 layer_factory.hpp:76] Creating layer inception_3b/5x5_reduce
I0315 23:59:43.096747  8308 net.cpp:106] Creating Layer inception_3b/5x5_reduce
I0315 23:59:43.096750  8308 net.cpp:454] inception_3b/5x5_reduce <- inception_3a/output_inception_3a/output_0_split_2
I0315 23:59:43.096758  8308 net.cpp:411] inception_3b/5x5_reduce -> inception_3b/5x5_reduce
I0315 23:59:43.097865  8308 net.cpp:150] Setting up inception_3b/5x5_reduce
I0315 23:59:43.097878  8308 net.cpp:157] Top shape: 64 32 16 16 (524288)
I0315 23:59:43.097882  8308 net.cpp:165] Memory required for data: 821036032
I0315 23:59:43.097888  8308 layer_factory.hpp:76] Creating layer inception_3b/relu_5x5_reduce
I0315 23:59:43.097897  8308 net.cpp:106] Creating Layer inception_3b/relu_5x5_reduce
I0315 23:59:43.097900  8308 net.cpp:454] inception_3b/relu_5x5_reduce <- inception_3b/5x5_reduce
I0315 23:59:43.097906  8308 net.cpp:397] inception_3b/relu_5x5_reduce -> inception_3b/5x5_reduce (in-place)
I0315 23:59:43.098098  8308 net.cpp:150] Setting up inception_3b/relu_5x5_reduce
I0315 23:59:43.098105  8308 net.cpp:157] Top shape: 64 32 16 16 (524288)
I0315 23:59:43.098109  8308 net.cpp:165] Memory required for data: 823133184
I0315 23:59:43.098112  8308 layer_factory.hpp:76] Creating layer inception_3b/5x5_reduce_bn
I0315 23:59:43.098121  8308 net.cpp:106] Creating Layer inception_3b/5x5_reduce_bn
I0315 23:59:43.098125  8308 net.cpp:454] inception_3b/5x5_reduce_bn <- inception_3b/5x5_reduce
I0315 23:59:43.098145  8308 net.cpp:411] inception_3b/5x5_reduce_bn -> inception_3b/5x5_reduce_bn
I0315 23:59:43.098368  8308 net.cpp:150] Setting up inception_3b/5x5_reduce_bn
I0315 23:59:43.098376  8308 net.cpp:157] Top shape: 64 32 16 16 (524288)
I0315 23:59:43.098378  8308 net.cpp:165] Memory required for data: 825230336
I0315 23:59:43.098393  8308 layer_factory.hpp:76] Creating layer inception_3b/5x5
I0315 23:59:43.098403  8308 net.cpp:106] Creating Layer inception_3b/5x5
I0315 23:59:43.098409  8308 net.cpp:454] inception_3b/5x5 <- inception_3b/5x5_reduce_bn
I0315 23:59:43.098415  8308 net.cpp:411] inception_3b/5x5 -> inception_3b/5x5
I0315 23:59:43.100453  8308 net.cpp:150] Setting up inception_3b/5x5
I0315 23:59:43.100468  8308 net.cpp:157] Top shape: 64 96 16 16 (1572864)
I0315 23:59:43.100472  8308 net.cpp:165] Memory required for data: 831521792
I0315 23:59:43.100479  8308 layer_factory.hpp:76] Creating layer inception_3b/relu_5x5
I0315 23:59:43.100486  8308 net.cpp:106] Creating Layer inception_3b/relu_5x5
I0315 23:59:43.100489  8308 net.cpp:454] inception_3b/relu_5x5 <- inception_3b/5x5
I0315 23:59:43.100494  8308 net.cpp:397] inception_3b/relu_5x5 -> inception_3b/5x5 (in-place)
I0315 23:59:43.100682  8308 net.cpp:150] Setting up inception_3b/relu_5x5
I0315 23:59:43.100690  8308 net.cpp:157] Top shape: 64 96 16 16 (1572864)
I0315 23:59:43.100694  8308 net.cpp:165] Memory required for data: 837813248
I0315 23:59:43.100697  8308 layer_factory.hpp:76] Creating layer inception_3b/5x5_bn
I0315 23:59:43.100705  8308 net.cpp:106] Creating Layer inception_3b/5x5_bn
I0315 23:59:43.100709  8308 net.cpp:454] inception_3b/5x5_bn <- inception_3b/5x5
I0315 23:59:43.100716  8308 net.cpp:411] inception_3b/5x5_bn -> inception_3b/5x5_bn
I0315 23:59:43.100946  8308 net.cpp:150] Setting up inception_3b/5x5_bn
I0315 23:59:43.100955  8308 net.cpp:157] Top shape: 64 96 16 16 (1572864)
I0315 23:59:43.100958  8308 net.cpp:165] Memory required for data: 844104704
I0315 23:59:43.100966  8308 layer_factory.hpp:76] Creating layer inception_3b/pool
I0315 23:59:43.100972  8308 net.cpp:106] Creating Layer inception_3b/pool
I0315 23:59:43.100976  8308 net.cpp:454] inception_3b/pool <- inception_3a/output_inception_3a/output_0_split_3
I0315 23:59:43.100981  8308 net.cpp:411] inception_3b/pool -> inception_3b/pool
I0315 23:59:43.101517  8308 net.cpp:150] Setting up inception_3b/pool
I0315 23:59:43.101529  8308 net.cpp:157] Top shape: 64 256 16 16 (4194304)
I0315 23:59:43.101532  8308 net.cpp:165] Memory required for data: 860881920
I0315 23:59:43.101536  8308 layer_factory.hpp:76] Creating layer inception_3b/pool_proj
I0315 23:59:43.101547  8308 net.cpp:106] Creating Layer inception_3b/pool_proj
I0315 23:59:43.101552  8308 net.cpp:454] inception_3b/pool_proj <- inception_3b/pool
I0315 23:59:43.101557  8308 net.cpp:411] inception_3b/pool_proj -> inception_3b/pool_proj
I0315 23:59:43.102733  8308 net.cpp:150] Setting up inception_3b/pool_proj
I0315 23:59:43.102748  8308 net.cpp:157] Top shape: 64 64 16 16 (1048576)
I0315 23:59:43.102751  8308 net.cpp:165] Memory required for data: 865076224
I0315 23:59:43.102759  8308 layer_factory.hpp:76] Creating layer inception_3b/relu_pool_proj
I0315 23:59:43.102766  8308 net.cpp:106] Creating Layer inception_3b/relu_pool_proj
I0315 23:59:43.102769  8308 net.cpp:454] inception_3b/relu_pool_proj <- inception_3b/pool_proj
I0315 23:59:43.102774  8308 net.cpp:397] inception_3b/relu_pool_proj -> inception_3b/pool_proj (in-place)
I0315 23:59:43.102967  8308 net.cpp:150] Setting up inception_3b/relu_pool_proj
I0315 23:59:43.102977  8308 net.cpp:157] Top shape: 64 64 16 16 (1048576)
I0315 23:59:43.102979  8308 net.cpp:165] Memory required for data: 869270528
I0315 23:59:43.102983  8308 layer_factory.hpp:76] Creating layer inception_3b/pool_proj_bn
I0315 23:59:43.102991  8308 net.cpp:106] Creating Layer inception_3b/pool_proj_bn
I0315 23:59:43.102995  8308 net.cpp:454] inception_3b/pool_proj_bn <- inception_3b/pool_proj
I0315 23:59:43.103001  8308 net.cpp:411] inception_3b/pool_proj_bn -> inception_3b/pool_proj_bn
I0315 23:59:43.103242  8308 net.cpp:150] Setting up inception_3b/pool_proj_bn
I0315 23:59:43.103250  8308 net.cpp:157] Top shape: 64 64 16 16 (1048576)
I0315 23:59:43.103253  8308 net.cpp:165] Memory required for data: 873464832
I0315 23:59:43.103261  8308 layer_factory.hpp:76] Creating layer inception_3b/output
I0315 23:59:43.103267  8308 net.cpp:106] Creating Layer inception_3b/output
I0315 23:59:43.103271  8308 net.cpp:454] inception_3b/output <- inception_3b/1x1_bn
I0315 23:59:43.103276  8308 net.cpp:454] inception_3b/output <- inception_3b/3x3_bn
I0315 23:59:43.103279  8308 net.cpp:454] inception_3b/output <- inception_3b/5x5_bn
I0315 23:59:43.103283  8308 net.cpp:454] inception_3b/output <- inception_3b/pool_proj_bn
I0315 23:59:43.103288  8308 net.cpp:411] inception_3b/output -> inception_3b/output
I0315 23:59:43.103314  8308 net.cpp:150] Setting up inception_3b/output
I0315 23:59:43.103324  8308 net.cpp:157] Top shape: 64 480 16 16 (7864320)
I0315 23:59:43.103327  8308 net.cpp:165] Memory required for data: 904922112
I0315 23:59:43.103330  8308 layer_factory.hpp:76] Creating layer pool3/3x3_s2
I0315 23:59:43.103338  8308 net.cpp:106] Creating Layer pool3/3x3_s2
I0315 23:59:43.103341  8308 net.cpp:454] pool3/3x3_s2 <- inception_3b/output
I0315 23:59:43.103346  8308 net.cpp:411] pool3/3x3_s2 -> pool3/3x3_s2
I0315 23:59:43.103708  8308 net.cpp:150] Setting up pool3/3x3_s2
I0315 23:59:43.103723  8308 net.cpp:157] Top shape: 64 480 8 8 (1966080)
I0315 23:59:43.103725  8308 net.cpp:165] Memory required for data: 912786432
I0315 23:59:43.103729  8308 layer_factory.hpp:76] Creating layer pool3/3x3_s2_pool3/3x3_s2_0_split
I0315 23:59:43.103735  8308 net.cpp:106] Creating Layer pool3/3x3_s2_pool3/3x3_s2_0_split
I0315 23:59:43.103739  8308 net.cpp:454] pool3/3x3_s2_pool3/3x3_s2_0_split <- pool3/3x3_s2
I0315 23:59:43.103744  8308 net.cpp:411] pool3/3x3_s2_pool3/3x3_s2_0_split -> pool3/3x3_s2_pool3/3x3_s2_0_split_0
I0315 23:59:43.103751  8308 net.cpp:411] pool3/3x3_s2_pool3/3x3_s2_0_split -> pool3/3x3_s2_pool3/3x3_s2_0_split_1
I0315 23:59:43.103760  8308 net.cpp:411] pool3/3x3_s2_pool3/3x3_s2_0_split -> pool3/3x3_s2_pool3/3x3_s2_0_split_2
I0315 23:59:43.103765  8308 net.cpp:411] pool3/3x3_s2_pool3/3x3_s2_0_split -> pool3/3x3_s2_pool3/3x3_s2_0_split_3
I0315 23:59:43.103832  8308 net.cpp:150] Setting up pool3/3x3_s2_pool3/3x3_s2_0_split
I0315 23:59:43.103839  8308 net.cpp:157] Top shape: 64 480 8 8 (1966080)
I0315 23:59:43.103843  8308 net.cpp:157] Top shape: 64 480 8 8 (1966080)
I0315 23:59:43.103847  8308 net.cpp:157] Top shape: 64 480 8 8 (1966080)
I0315 23:59:43.103850  8308 net.cpp:157] Top shape: 64 480 8 8 (1966080)
I0315 23:59:43.103853  8308 net.cpp:165] Memory required for data: 944243712
I0315 23:59:43.103857  8308 layer_factory.hpp:76] Creating layer inception_4a/1x1
I0315 23:59:43.103868  8308 net.cpp:106] Creating Layer inception_4a/1x1
I0315 23:59:43.103873  8308 net.cpp:454] inception_4a/1x1 <- pool3/3x3_s2_pool3/3x3_s2_0_split_0
I0315 23:59:43.103879  8308 net.cpp:411] inception_4a/1x1 -> inception_4a/1x1
I0315 23:59:43.105464  8308 net.cpp:150] Setting up inception_4a/1x1
I0315 23:59:43.105478  8308 net.cpp:157] Top shape: 64 192 8 8 (786432)
I0315 23:59:43.105480  8308 net.cpp:165] Memory required for data: 947389440
I0315 23:59:43.105487  8308 layer_factory.hpp:76] Creating layer inception_4a/relu_1x1
I0315 23:59:43.105497  8308 net.cpp:106] Creating Layer inception_4a/relu_1x1
I0315 23:59:43.105501  8308 net.cpp:454] inception_4a/relu_1x1 <- inception_4a/1x1
I0315 23:59:43.105506  8308 net.cpp:397] inception_4a/relu_1x1 -> inception_4a/1x1 (in-place)
I0315 23:59:43.105697  8308 net.cpp:150] Setting up inception_4a/relu_1x1
I0315 23:59:43.105706  8308 net.cpp:157] Top shape: 64 192 8 8 (786432)
I0315 23:59:43.105710  8308 net.cpp:165] Memory required for data: 950535168
I0315 23:59:43.105712  8308 layer_factory.hpp:76] Creating layer inception_4a/1x1_bn
I0315 23:59:43.105722  8308 net.cpp:106] Creating Layer inception_4a/1x1_bn
I0315 23:59:43.105726  8308 net.cpp:454] inception_4a/1x1_bn <- inception_4a/1x1
I0315 23:59:43.105747  8308 net.cpp:411] inception_4a/1x1_bn -> inception_4a/1x1_bn
I0315 23:59:43.105985  8308 net.cpp:150] Setting up inception_4a/1x1_bn
I0315 23:59:43.105993  8308 net.cpp:157] Top shape: 64 192 8 8 (786432)
I0315 23:59:43.105995  8308 net.cpp:165] Memory required for data: 953680896
I0315 23:59:43.106003  8308 layer_factory.hpp:76] Creating layer inception_4a/3x3_reduce
I0315 23:59:43.106014  8308 net.cpp:106] Creating Layer inception_4a/3x3_reduce
I0315 23:59:43.106017  8308 net.cpp:454] inception_4a/3x3_reduce <- pool3/3x3_s2_pool3/3x3_s2_0_split_1
I0315 23:59:43.106024  8308 net.cpp:411] inception_4a/3x3_reduce -> inception_4a/3x3_reduce
I0315 23:59:43.107412  8308 net.cpp:150] Setting up inception_4a/3x3_reduce
I0315 23:59:43.107427  8308 net.cpp:157] Top shape: 64 96 8 8 (393216)
I0315 23:59:43.107431  8308 net.cpp:165] Memory required for data: 955253760
I0315 23:59:43.107439  8308 layer_factory.hpp:76] Creating layer inception_4a/relu_3x3_reduce
I0315 23:59:43.107445  8308 net.cpp:106] Creating Layer inception_4a/relu_3x3_reduce
I0315 23:59:43.107448  8308 net.cpp:454] inception_4a/relu_3x3_reduce <- inception_4a/3x3_reduce
I0315 23:59:43.107455  8308 net.cpp:397] inception_4a/relu_3x3_reduce -> inception_4a/3x3_reduce (in-place)
I0315 23:59:43.107772  8308 net.cpp:150] Setting up inception_4a/relu_3x3_reduce
I0315 23:59:43.107784  8308 net.cpp:157] Top shape: 64 96 8 8 (393216)
I0315 23:59:43.107787  8308 net.cpp:165] Memory required for data: 956826624
I0315 23:59:43.107790  8308 layer_factory.hpp:76] Creating layer inception_4a/3x3_reduce_bn
I0315 23:59:43.107801  8308 net.cpp:106] Creating Layer inception_4a/3x3_reduce_bn
I0315 23:59:43.107805  8308 net.cpp:454] inception_4a/3x3_reduce_bn <- inception_4a/3x3_reduce
I0315 23:59:43.107813  8308 net.cpp:411] inception_4a/3x3_reduce_bn -> inception_4a/3x3_reduce_bn
I0315 23:59:43.108064  8308 net.cpp:150] Setting up inception_4a/3x3_reduce_bn
I0315 23:59:43.108073  8308 net.cpp:157] Top shape: 64 96 8 8 (393216)
I0315 23:59:43.108077  8308 net.cpp:165] Memory required for data: 958399488
I0315 23:59:43.108084  8308 layer_factory.hpp:76] Creating layer inception_4a/3x3
I0315 23:59:43.108093  8308 net.cpp:106] Creating Layer inception_4a/3x3
I0315 23:59:43.108096  8308 net.cpp:454] inception_4a/3x3 <- inception_4a/3x3_reduce_bn
I0315 23:59:43.108103  8308 net.cpp:411] inception_4a/3x3 -> inception_4a/3x3
I0315 23:59:43.110613  8308 net.cpp:150] Setting up inception_4a/3x3
I0315 23:59:43.110626  8308 net.cpp:157] Top shape: 64 208 8 8 (851968)
I0315 23:59:43.110630  8308 net.cpp:165] Memory required for data: 961807360
I0315 23:59:43.110637  8308 layer_factory.hpp:76] Creating layer inception_4a/relu_3x3
I0315 23:59:43.110646  8308 net.cpp:106] Creating Layer inception_4a/relu_3x3
I0315 23:59:43.110649  8308 net.cpp:454] inception_4a/relu_3x3 <- inception_4a/3x3
I0315 23:59:43.110656  8308 net.cpp:397] inception_4a/relu_3x3 -> inception_4a/3x3 (in-place)
I0315 23:59:43.110991  8308 net.cpp:150] Setting up inception_4a/relu_3x3
I0315 23:59:43.111002  8308 net.cpp:157] Top shape: 64 208 8 8 (851968)
I0315 23:59:43.111006  8308 net.cpp:165] Memory required for data: 965215232
I0315 23:59:43.111009  8308 layer_factory.hpp:76] Creating layer inception_4a/3x3_bn
I0315 23:59:43.111017  8308 net.cpp:106] Creating Layer inception_4a/3x3_bn
I0315 23:59:43.111021  8308 net.cpp:454] inception_4a/3x3_bn <- inception_4a/3x3
I0315 23:59:43.111029  8308 net.cpp:411] inception_4a/3x3_bn -> inception_4a/3x3_bn
I0315 23:59:43.111277  8308 net.cpp:150] Setting up inception_4a/3x3_bn
I0315 23:59:43.111286  8308 net.cpp:157] Top shape: 64 208 8 8 (851968)
I0315 23:59:43.111289  8308 net.cpp:165] Memory required for data: 968623104
I0315 23:59:43.111297  8308 layer_factory.hpp:76] Creating layer inception_4a/5x5_reduce
I0315 23:59:43.111306  8308 net.cpp:106] Creating Layer inception_4a/5x5_reduce
I0315 23:59:43.111310  8308 net.cpp:454] inception_4a/5x5_reduce <- pool3/3x3_s2_pool3/3x3_s2_0_split_2
I0315 23:59:43.111318  8308 net.cpp:411] inception_4a/5x5_reduce -> inception_4a/5x5_reduce
I0315 23:59:43.112484  8308 net.cpp:150] Setting up inception_4a/5x5_reduce
I0315 23:59:43.112498  8308 net.cpp:157] Top shape: 64 16 8 8 (65536)
I0315 23:59:43.112500  8308 net.cpp:165] Memory required for data: 968885248
I0315 23:59:43.112507  8308 layer_factory.hpp:76] Creating layer inception_4a/relu_5x5_reduce
I0315 23:59:43.112515  8308 net.cpp:106] Creating Layer inception_4a/relu_5x5_reduce
I0315 23:59:43.112519  8308 net.cpp:454] inception_4a/relu_5x5_reduce <- inception_4a/5x5_reduce
I0315 23:59:43.112525  8308 net.cpp:397] inception_4a/relu_5x5_reduce -> inception_4a/5x5_reduce (in-place)
I0315 23:59:43.112727  8308 net.cpp:150] Setting up inception_4a/relu_5x5_reduce
I0315 23:59:43.112737  8308 net.cpp:157] Top shape: 64 16 8 8 (65536)
I0315 23:59:43.112740  8308 net.cpp:165] Memory required for data: 969147392
I0315 23:59:43.112745  8308 layer_factory.hpp:76] Creating layer inception_4a/5x5_reduce_bn
I0315 23:59:43.112752  8308 net.cpp:106] Creating Layer inception_4a/5x5_reduce_bn
I0315 23:59:43.112756  8308 net.cpp:454] inception_4a/5x5_reduce_bn <- inception_4a/5x5_reduce
I0315 23:59:43.112764  8308 net.cpp:411] inception_4a/5x5_reduce_bn -> inception_4a/5x5_reduce_bn
I0315 23:59:43.113021  8308 net.cpp:150] Setting up inception_4a/5x5_reduce_bn
I0315 23:59:43.113030  8308 net.cpp:157] Top shape: 64 16 8 8 (65536)
I0315 23:59:43.113034  8308 net.cpp:165] Memory required for data: 969409536
I0315 23:59:43.113041  8308 layer_factory.hpp:76] Creating layer inception_4a/5x5
I0315 23:59:43.113051  8308 net.cpp:106] Creating Layer inception_4a/5x5
I0315 23:59:43.113054  8308 net.cpp:454] inception_4a/5x5 <- inception_4a/5x5_reduce_bn
I0315 23:59:43.113062  8308 net.cpp:411] inception_4a/5x5 -> inception_4a/5x5
I0315 23:59:43.114259  8308 net.cpp:150] Setting up inception_4a/5x5
I0315 23:59:43.114272  8308 net.cpp:157] Top shape: 64 48 8 8 (196608)
I0315 23:59:43.114276  8308 net.cpp:165] Memory required for data: 970195968
I0315 23:59:43.114284  8308 layer_factory.hpp:76] Creating layer inception_4a/relu_5x5
I0315 23:59:43.114289  8308 net.cpp:106] Creating Layer inception_4a/relu_5x5
I0315 23:59:43.114294  8308 net.cpp:454] inception_4a/relu_5x5 <- inception_4a/5x5
I0315 23:59:43.114300  8308 net.cpp:397] inception_4a/relu_5x5 -> inception_4a/5x5 (in-place)
I0315 23:59:43.114616  8308 net.cpp:150] Setting up inception_4a/relu_5x5
I0315 23:59:43.114627  8308 net.cpp:157] Top shape: 64 48 8 8 (196608)
I0315 23:59:43.114630  8308 net.cpp:165] Memory required for data: 970982400
I0315 23:59:43.114634  8308 layer_factory.hpp:76] Creating layer inception_4a/5x5_bn
I0315 23:59:43.114644  8308 net.cpp:106] Creating Layer inception_4a/5x5_bn
I0315 23:59:43.114647  8308 net.cpp:454] inception_4a/5x5_bn <- inception_4a/5x5
I0315 23:59:43.114652  8308 net.cpp:411] inception_4a/5x5_bn -> inception_4a/5x5_bn
I0315 23:59:43.114898  8308 net.cpp:150] Setting up inception_4a/5x5_bn
I0315 23:59:43.114905  8308 net.cpp:157] Top shape: 64 48 8 8 (196608)
I0315 23:59:43.114909  8308 net.cpp:165] Memory required for data: 971768832
I0315 23:59:43.114917  8308 layer_factory.hpp:76] Creating layer inception_4a/pool
I0315 23:59:43.114925  8308 net.cpp:106] Creating Layer inception_4a/pool
I0315 23:59:43.114928  8308 net.cpp:454] inception_4a/pool <- pool3/3x3_s2_pool3/3x3_s2_0_split_3
I0315 23:59:43.114934  8308 net.cpp:411] inception_4a/pool -> inception_4a/pool
I0315 23:59:43.115172  8308 net.cpp:150] Setting up inception_4a/pool
I0315 23:59:43.115181  8308 net.cpp:157] Top shape: 64 480 8 8 (1966080)
I0315 23:59:43.115185  8308 net.cpp:165] Memory required for data: 979633152
I0315 23:59:43.115188  8308 layer_factory.hpp:76] Creating layer inception_4a/pool_proj
I0315 23:59:43.115198  8308 net.cpp:106] Creating Layer inception_4a/pool_proj
I0315 23:59:43.115202  8308 net.cpp:454] inception_4a/pool_proj <- inception_4a/pool
I0315 23:59:43.115211  8308 net.cpp:411] inception_4a/pool_proj -> inception_4a/pool_proj
I0315 23:59:43.116477  8308 net.cpp:150] Setting up inception_4a/pool_proj
I0315 23:59:43.116503  8308 net.cpp:157] Top shape: 64 64 8 8 (262144)
I0315 23:59:43.116506  8308 net.cpp:165] Memory required for data: 980681728
I0315 23:59:43.116513  8308 layer_factory.hpp:76] Creating layer inception_4a/relu_pool_proj
I0315 23:59:43.116521  8308 net.cpp:106] Creating Layer inception_4a/relu_pool_proj
I0315 23:59:43.116526  8308 net.cpp:454] inception_4a/relu_pool_proj <- inception_4a/pool_proj
I0315 23:59:43.116531  8308 net.cpp:397] inception_4a/relu_pool_proj -> inception_4a/pool_proj (in-place)
I0315 23:59:43.116732  8308 net.cpp:150] Setting up inception_4a/relu_pool_proj
I0315 23:59:43.116741  8308 net.cpp:157] Top shape: 64 64 8 8 (262144)
I0315 23:59:43.116745  8308 net.cpp:165] Memory required for data: 981730304
I0315 23:59:43.116749  8308 layer_factory.hpp:76] Creating layer inception_4a/pool_proj_bn
I0315 23:59:43.116756  8308 net.cpp:106] Creating Layer inception_4a/pool_proj_bn
I0315 23:59:43.116760  8308 net.cpp:454] inception_4a/pool_proj_bn <- inception_4a/pool_proj
I0315 23:59:43.116766  8308 net.cpp:411] inception_4a/pool_proj_bn -> inception_4a/pool_proj_bn
I0315 23:59:43.117024  8308 net.cpp:150] Setting up inception_4a/pool_proj_bn
I0315 23:59:43.117033  8308 net.cpp:157] Top shape: 64 64 8 8 (262144)
I0315 23:59:43.117035  8308 net.cpp:165] Memory required for data: 982778880
I0315 23:59:43.117043  8308 layer_factory.hpp:76] Creating layer inception_4a/output
I0315 23:59:43.117049  8308 net.cpp:106] Creating Layer inception_4a/output
I0315 23:59:43.117053  8308 net.cpp:454] inception_4a/output <- inception_4a/1x1_bn
I0315 23:59:43.117058  8308 net.cpp:454] inception_4a/output <- inception_4a/3x3_bn
I0315 23:59:43.117063  8308 net.cpp:454] inception_4a/output <- inception_4a/5x5_bn
I0315 23:59:43.117065  8308 net.cpp:454] inception_4a/output <- inception_4a/pool_proj_bn
I0315 23:59:43.117070  8308 net.cpp:411] inception_4a/output -> inception_4a/output
I0315 23:59:43.117099  8308 net.cpp:150] Setting up inception_4a/output
I0315 23:59:43.117105  8308 net.cpp:157] Top shape: 64 512 8 8 (2097152)
I0315 23:59:43.117108  8308 net.cpp:165] Memory required for data: 991167488
I0315 23:59:43.117111  8308 layer_factory.hpp:76] Creating layer inception_4a/output_inception_4a/output_0_split
I0315 23:59:43.117117  8308 net.cpp:106] Creating Layer inception_4a/output_inception_4a/output_0_split
I0315 23:59:43.117120  8308 net.cpp:454] inception_4a/output_inception_4a/output_0_split <- inception_4a/output
I0315 23:59:43.117127  8308 net.cpp:411] inception_4a/output_inception_4a/output_0_split -> inception_4a/output_inception_4a/output_0_split_0
I0315 23:59:43.117133  8308 net.cpp:411] inception_4a/output_inception_4a/output_0_split -> inception_4a/output_inception_4a/output_0_split_1
I0315 23:59:43.117139  8308 net.cpp:411] inception_4a/output_inception_4a/output_0_split -> inception_4a/output_inception_4a/output_0_split_2
I0315 23:59:43.117146  8308 net.cpp:411] inception_4a/output_inception_4a/output_0_split -> inception_4a/output_inception_4a/output_0_split_3
I0315 23:59:43.117151  8308 net.cpp:411] inception_4a/output_inception_4a/output_0_split -> inception_4a/output_inception_4a/output_0_split_4
I0315 23:59:43.117236  8308 net.cpp:150] Setting up inception_4a/output_inception_4a/output_0_split
I0315 23:59:43.117244  8308 net.cpp:157] Top shape: 64 512 8 8 (2097152)
I0315 23:59:43.117247  8308 net.cpp:157] Top shape: 64 512 8 8 (2097152)
I0315 23:59:43.117250  8308 net.cpp:157] Top shape: 64 512 8 8 (2097152)
I0315 23:59:43.117255  8308 net.cpp:157] Top shape: 64 512 8 8 (2097152)
I0315 23:59:43.117259  8308 net.cpp:157] Top shape: 64 512 8 8 (2097152)
I0315 23:59:43.117261  8308 net.cpp:165] Memory required for data: 1033110528
I0315 23:59:43.117264  8308 layer_factory.hpp:76] Creating layer loss1/ave_pool
I0315 23:59:43.117271  8308 net.cpp:106] Creating Layer loss1/ave_pool
I0315 23:59:43.117275  8308 net.cpp:454] loss1/ave_pool <- inception_4a/output_inception_4a/output_0_split_0
I0315 23:59:43.117281  8308 net.cpp:411] loss1/ave_pool -> loss1/ave_pool
I0315 23:59:43.117621  8308 net.cpp:150] Setting up loss1/ave_pool
I0315 23:59:43.117646  8308 net.cpp:157] Top shape: 64 512 2 2 (131072)
I0315 23:59:43.117650  8308 net.cpp:165] Memory required for data: 1033634816
I0315 23:59:43.117653  8308 layer_factory.hpp:76] Creating layer loss1/conv
I0315 23:59:43.117665  8308 net.cpp:106] Creating Layer loss1/conv
I0315 23:59:43.117669  8308 net.cpp:454] loss1/conv <- loss1/ave_pool
I0315 23:59:43.117676  8308 net.cpp:411] loss1/conv -> loss1/conv
I0315 23:59:43.119293  8308 net.cpp:150] Setting up loss1/conv
I0315 23:59:43.119305  8308 net.cpp:157] Top shape: 64 128 2 2 (32768)
I0315 23:59:43.119309  8308 net.cpp:165] Memory required for data: 1033765888
I0315 23:59:43.119316  8308 layer_factory.hpp:76] Creating layer loss1/relu_conv
I0315 23:59:43.119324  8308 net.cpp:106] Creating Layer loss1/relu_conv
I0315 23:59:43.119328  8308 net.cpp:454] loss1/relu_conv <- loss1/conv
I0315 23:59:43.119334  8308 net.cpp:397] loss1/relu_conv -> loss1/conv (in-place)
I0315 23:59:43.119534  8308 net.cpp:150] Setting up loss1/relu_conv
I0315 23:59:43.119544  8308 net.cpp:157] Top shape: 64 128 2 2 (32768)
I0315 23:59:43.119547  8308 net.cpp:165] Memory required for data: 1033896960
I0315 23:59:43.119550  8308 layer_factory.hpp:76] Creating layer loss1/conv_bn
I0315 23:59:43.119560  8308 net.cpp:106] Creating Layer loss1/conv_bn
I0315 23:59:43.119562  8308 net.cpp:454] loss1/conv_bn <- loss1/conv
I0315 23:59:43.119570  8308 net.cpp:411] loss1/conv_bn -> loss1/conv_bn
I0315 23:59:43.119813  8308 net.cpp:150] Setting up loss1/conv_bn
I0315 23:59:43.119822  8308 net.cpp:157] Top shape: 64 128 2 2 (32768)
I0315 23:59:43.119825  8308 net.cpp:165] Memory required for data: 1034028032
I0315 23:59:43.119833  8308 layer_factory.hpp:76] Creating layer loss1/fc
I0315 23:59:43.119843  8308 net.cpp:106] Creating Layer loss1/fc
I0315 23:59:43.119845  8308 net.cpp:454] loss1/fc <- loss1/conv_bn
I0315 23:59:43.119851  8308 net.cpp:411] loss1/fc -> loss1/fc
I0315 23:59:43.123749  8308 net.cpp:150] Setting up loss1/fc
I0315 23:59:43.123760  8308 net.cpp:157] Top shape: 64 1024 (65536)
I0315 23:59:43.123764  8308 net.cpp:165] Memory required for data: 1034290176
I0315 23:59:43.123770  8308 layer_factory.hpp:76] Creating layer loss1/relu_fc
I0315 23:59:43.123776  8308 net.cpp:106] Creating Layer loss1/relu_fc
I0315 23:59:43.123780  8308 net.cpp:454] loss1/relu_fc <- loss1/fc
I0315 23:59:43.123787  8308 net.cpp:397] loss1/relu_fc -> loss1/fc (in-place)
I0315 23:59:43.124116  8308 net.cpp:150] Setting up loss1/relu_fc
I0315 23:59:43.124127  8308 net.cpp:157] Top shape: 64 1024 (65536)
I0315 23:59:43.124130  8308 net.cpp:165] Memory required for data: 1034552320
I0315 23:59:43.124135  8308 layer_factory.hpp:76] Creating layer loss1/fc_bn
I0315 23:59:43.124142  8308 net.cpp:106] Creating Layer loss1/fc_bn
I0315 23:59:43.124146  8308 net.cpp:454] loss1/fc_bn <- loss1/fc
I0315 23:59:43.124152  8308 net.cpp:411] loss1/fc_bn -> loss1/fc_bn
I0315 23:59:43.124409  8308 net.cpp:150] Setting up loss1/fc_bn
I0315 23:59:43.124416  8308 net.cpp:157] Top shape: 64 1024 (65536)
I0315 23:59:43.124420  8308 net.cpp:165] Memory required for data: 1034814464
I0315 23:59:43.124428  8308 layer_factory.hpp:76] Creating layer loss1/drop_fc
I0315 23:59:43.124434  8308 net.cpp:106] Creating Layer loss1/drop_fc
I0315 23:59:43.124439  8308 net.cpp:454] loss1/drop_fc <- loss1/fc_bn
I0315 23:59:43.124444  8308 net.cpp:411] loss1/drop_fc -> loss1/drop_fc
I0315 23:59:43.124493  8308 net.cpp:150] Setting up loss1/drop_fc
I0315 23:59:43.124500  8308 net.cpp:157] Top shape: 64 1024 (65536)
I0315 23:59:43.124503  8308 net.cpp:165] Memory required for data: 1035076608
I0315 23:59:43.124505  8308 layer_factory.hpp:76] Creating layer loss1/classifier
I0315 23:59:43.124514  8308 net.cpp:106] Creating Layer loss1/classifier
I0315 23:59:43.124518  8308 net.cpp:454] loss1/classifier <- loss1/drop_fc
I0315 23:59:43.124526  8308 net.cpp:411] loss1/classifier -> loss1/classifier
I0315 23:59:43.131834  8308 net.cpp:150] Setting up loss1/classifier
I0315 23:59:43.131849  8308 net.cpp:157] Top shape: 64 1000 (64000)
I0315 23:59:43.131865  8308 net.cpp:165] Memory required for data: 1035332608
I0315 23:59:43.131871  8308 layer_factory.hpp:76] Creating layer loss1/loss
I0315 23:59:43.131880  8308 net.cpp:106] Creating Layer loss1/loss
I0315 23:59:43.131883  8308 net.cpp:454] loss1/loss <- loss1/classifier
I0315 23:59:43.131887  8308 net.cpp:454] loss1/loss <- label_data_1_split_0
I0315 23:59:43.131893  8308 net.cpp:411] loss1/loss -> loss1/loss1
I0315 23:59:43.131903  8308 layer_factory.hpp:76] Creating layer loss1/loss
I0315 23:59:43.132812  8308 net.cpp:150] Setting up loss1/loss
I0315 23:59:43.132827  8308 net.cpp:157] Top shape: (1)
I0315 23:59:43.132829  8308 net.cpp:160]     with loss weight 0.3
I0315 23:59:43.132853  8308 net.cpp:165] Memory required for data: 1035332612
I0315 23:59:43.132858  8308 layer_factory.hpp:76] Creating layer inception_4b/1x1
I0315 23:59:43.132865  8308 net.cpp:106] Creating Layer inception_4b/1x1
I0315 23:59:43.132869  8308 net.cpp:454] inception_4b/1x1 <- inception_4a/output_inception_4a/output_0_split_1
I0315 23:59:43.132884  8308 net.cpp:411] inception_4b/1x1 -> inception_4b/1x1
I0315 23:59:43.134469  8308 net.cpp:150] Setting up inception_4b/1x1
I0315 23:59:43.134482  8308 net.cpp:157] Top shape: 64 160 8 8 (655360)
I0315 23:59:43.134485  8308 net.cpp:165] Memory required for data: 1037954052
I0315 23:59:43.134493  8308 layer_factory.hpp:76] Creating layer inception_4b/relu_1x1
I0315 23:59:43.134501  8308 net.cpp:106] Creating Layer inception_4b/relu_1x1
I0315 23:59:43.134505  8308 net.cpp:454] inception_4b/relu_1x1 <- inception_4b/1x1
I0315 23:59:43.134511  8308 net.cpp:397] inception_4b/relu_1x1 -> inception_4b/1x1 (in-place)
I0315 23:59:43.134840  8308 net.cpp:150] Setting up inception_4b/relu_1x1
I0315 23:59:43.134851  8308 net.cpp:157] Top shape: 64 160 8 8 (655360)
I0315 23:59:43.134855  8308 net.cpp:165] Memory required for data: 1040575492
I0315 23:59:43.134858  8308 layer_factory.hpp:76] Creating layer inception_4b/1x1_bn
I0315 23:59:43.134868  8308 net.cpp:106] Creating Layer inception_4b/1x1_bn
I0315 23:59:43.134872  8308 net.cpp:454] inception_4b/1x1_bn <- inception_4b/1x1
I0315 23:59:43.134878  8308 net.cpp:411] inception_4b/1x1_bn -> inception_4b/1x1_bn
I0315 23:59:43.135133  8308 net.cpp:150] Setting up inception_4b/1x1_bn
I0315 23:59:43.135141  8308 net.cpp:157] Top shape: 64 160 8 8 (655360)
I0315 23:59:43.135144  8308 net.cpp:165] Memory required for data: 1043196932
I0315 23:59:43.135151  8308 layer_factory.hpp:76] Creating layer inception_4b/3x3_reduce
I0315 23:59:43.135164  8308 net.cpp:106] Creating Layer inception_4b/3x3_reduce
I0315 23:59:43.135167  8308 net.cpp:454] inception_4b/3x3_reduce <- inception_4a/output_inception_4a/output_0_split_2
I0315 23:59:43.135175  8308 net.cpp:411] inception_4b/3x3_reduce -> inception_4b/3x3_reduce
I0315 23:59:43.136490  8308 net.cpp:150] Setting up inception_4b/3x3_reduce
I0315 23:59:43.136502  8308 net.cpp:157] Top shape: 64 112 8 8 (458752)
I0315 23:59:43.136505  8308 net.cpp:165] Memory required for data: 1045031940
I0315 23:59:43.136512  8308 layer_factory.hpp:76] Creating layer inception_4b/relu_3x3_reduce
I0315 23:59:43.136520  8308 net.cpp:106] Creating Layer inception_4b/relu_3x3_reduce
I0315 23:59:43.136525  8308 net.cpp:454] inception_4b/relu_3x3_reduce <- inception_4b/3x3_reduce
I0315 23:59:43.136530  8308 net.cpp:397] inception_4b/relu_3x3_reduce -> inception_4b/3x3_reduce (in-place)
I0315 23:59:43.136857  8308 net.cpp:150] Setting up inception_4b/relu_3x3_reduce
I0315 23:59:43.136868  8308 net.cpp:157] Top shape: 64 112 8 8 (458752)
I0315 23:59:43.136872  8308 net.cpp:165] Memory required for data: 1046866948
I0315 23:59:43.136875  8308 layer_factory.hpp:76] Creating layer inception_4b/3x3_reduce_bn
I0315 23:59:43.136884  8308 net.cpp:106] Creating Layer inception_4b/3x3_reduce_bn
I0315 23:59:43.136888  8308 net.cpp:454] inception_4b/3x3_reduce_bn <- inception_4b/3x3_reduce
I0315 23:59:43.136895  8308 net.cpp:411] inception_4b/3x3_reduce_bn -> inception_4b/3x3_reduce_bn
I0315 23:59:43.137156  8308 net.cpp:150] Setting up inception_4b/3x3_reduce_bn
I0315 23:59:43.137176  8308 net.cpp:157] Top shape: 64 112 8 8 (458752)
I0315 23:59:43.137179  8308 net.cpp:165] Memory required for data: 1048701956
I0315 23:59:43.137187  8308 layer_factory.hpp:76] Creating layer inception_4b/3x3
I0315 23:59:43.137202  8308 net.cpp:106] Creating Layer inception_4b/3x3
I0315 23:59:43.137207  8308 net.cpp:454] inception_4b/3x3 <- inception_4b/3x3_reduce_bn
I0315 23:59:43.137214  8308 net.cpp:411] inception_4b/3x3 -> inception_4b/3x3
I0315 23:59:43.140106  8308 net.cpp:150] Setting up inception_4b/3x3
I0315 23:59:43.140120  8308 net.cpp:157] Top shape: 64 224 8 8 (917504)
I0315 23:59:43.140123  8308 net.cpp:165] Memory required for data: 1052371972
I0315 23:59:43.140143  8308 layer_factory.hpp:76] Creating layer inception_4b/relu_3x3
I0315 23:59:43.140151  8308 net.cpp:106] Creating Layer inception_4b/relu_3x3
I0315 23:59:43.140156  8308 net.cpp:454] inception_4b/relu_3x3 <- inception_4b/3x3
I0315 23:59:43.140161  8308 net.cpp:397] inception_4b/relu_3x3 -> inception_4b/3x3 (in-place)
I0315 23:59:43.140362  8308 net.cpp:150] Setting up inception_4b/relu_3x3
I0315 23:59:43.140372  8308 net.cpp:157] Top shape: 64 224 8 8 (917504)
I0315 23:59:43.140374  8308 net.cpp:165] Memory required for data: 1056041988
I0315 23:59:43.140378  8308 layer_factory.hpp:76] Creating layer inception_4b/3x3_bn
I0315 23:59:43.140386  8308 net.cpp:106] Creating Layer inception_4b/3x3_bn
I0315 23:59:43.140390  8308 net.cpp:454] inception_4b/3x3_bn <- inception_4b/3x3
I0315 23:59:43.140398  8308 net.cpp:411] inception_4b/3x3_bn -> inception_4b/3x3_bn
I0315 23:59:43.140657  8308 net.cpp:150] Setting up inception_4b/3x3_bn
I0315 23:59:43.140666  8308 net.cpp:157] Top shape: 64 224 8 8 (917504)
I0315 23:59:43.140668  8308 net.cpp:165] Memory required for data: 1059712004
I0315 23:59:43.140676  8308 layer_factory.hpp:76] Creating layer inception_4b/5x5_reduce
I0315 23:59:43.140684  8308 net.cpp:106] Creating Layer inception_4b/5x5_reduce
I0315 23:59:43.140687  8308 net.cpp:454] inception_4b/5x5_reduce <- inception_4a/output_inception_4a/output_0_split_3
I0315 23:59:43.140696  8308 net.cpp:411] inception_4b/5x5_reduce -> inception_4b/5x5_reduce
I0315 23:59:43.141904  8308 net.cpp:150] Setting up inception_4b/5x5_reduce
I0315 23:59:43.141927  8308 net.cpp:157] Top shape: 64 24 8 8 (98304)
I0315 23:59:43.141930  8308 net.cpp:165] Memory required for data: 1060105220
I0315 23:59:43.141937  8308 layer_factory.hpp:76] Creating layer inception_4b/relu_5x5_reduce
I0315 23:59:43.141944  8308 net.cpp:106] Creating Layer inception_4b/relu_5x5_reduce
I0315 23:59:43.141948  8308 net.cpp:454] inception_4b/relu_5x5_reduce <- inception_4b/5x5_reduce
I0315 23:59:43.141955  8308 net.cpp:397] inception_4b/relu_5x5_reduce -> inception_4b/5x5_reduce (in-place)
I0315 23:59:43.142287  8308 net.cpp:150] Setting up inception_4b/relu_5x5_reduce
I0315 23:59:43.142298  8308 net.cpp:157] Top shape: 64 24 8 8 (98304)
I0315 23:59:43.142302  8308 net.cpp:165] Memory required for data: 1060498436
I0315 23:59:43.142305  8308 layer_factory.hpp:76] Creating layer inception_4b/5x5_reduce_bn
I0315 23:59:43.142313  8308 net.cpp:106] Creating Layer inception_4b/5x5_reduce_bn
I0315 23:59:43.142318  8308 net.cpp:454] inception_4b/5x5_reduce_bn <- inception_4b/5x5_reduce
I0315 23:59:43.142323  8308 net.cpp:411] inception_4b/5x5_reduce_bn -> inception_4b/5x5_reduce_bn
I0315 23:59:43.142585  8308 net.cpp:150] Setting up inception_4b/5x5_reduce_bn
I0315 23:59:43.142592  8308 net.cpp:157] Top shape: 64 24 8 8 (98304)
I0315 23:59:43.142596  8308 net.cpp:165] Memory required for data: 1060891652
I0315 23:59:43.142603  8308 layer_factory.hpp:76] Creating layer inception_4b/5x5
I0315 23:59:43.142613  8308 net.cpp:106] Creating Layer inception_4b/5x5
I0315 23:59:43.142617  8308 net.cpp:454] inception_4b/5x5 <- inception_4b/5x5_reduce_bn
I0315 23:59:43.142624  8308 net.cpp:411] inception_4b/5x5 -> inception_4b/5x5
I0315 23:59:43.143862  8308 net.cpp:150] Setting up inception_4b/5x5
I0315 23:59:43.143874  8308 net.cpp:157] Top shape: 64 64 8 8 (262144)
I0315 23:59:43.143890  8308 net.cpp:165] Memory required for data: 1061940228
I0315 23:59:43.143898  8308 layer_factory.hpp:76] Creating layer inception_4b/relu_5x5
I0315 23:59:43.143903  8308 net.cpp:106] Creating Layer inception_4b/relu_5x5
I0315 23:59:43.143908  8308 net.cpp:454] inception_4b/relu_5x5 <- inception_4b/5x5
I0315 23:59:43.143915  8308 net.cpp:397] inception_4b/relu_5x5 -> inception_4b/5x5 (in-place)
I0315 23:59:43.144244  8308 net.cpp:150] Setting up inception_4b/relu_5x5
I0315 23:59:43.144256  8308 net.cpp:157] Top shape: 64 64 8 8 (262144)
I0315 23:59:43.144259  8308 net.cpp:165] Memory required for data: 1062988804
I0315 23:59:43.144263  8308 layer_factory.hpp:76] Creating layer inception_4b/5x5_bn
I0315 23:59:43.144271  8308 net.cpp:106] Creating Layer inception_4b/5x5_bn
I0315 23:59:43.144275  8308 net.cpp:454] inception_4b/5x5_bn <- inception_4b/5x5
I0315 23:59:43.144284  8308 net.cpp:411] inception_4b/5x5_bn -> inception_4b/5x5_bn
I0315 23:59:43.144544  8308 net.cpp:150] Setting up inception_4b/5x5_bn
I0315 23:59:43.144551  8308 net.cpp:157] Top shape: 64 64 8 8 (262144)
I0315 23:59:43.144554  8308 net.cpp:165] Memory required for data: 1064037380
I0315 23:59:43.144562  8308 layer_factory.hpp:76] Creating layer inception_4b/pool
I0315 23:59:43.144569  8308 net.cpp:106] Creating Layer inception_4b/pool
I0315 23:59:43.144573  8308 net.cpp:454] inception_4b/pool <- inception_4a/output_inception_4a/output_0_split_4
I0315 23:59:43.144579  8308 net.cpp:411] inception_4b/pool -> inception_4b/pool
I0315 23:59:43.144954  8308 net.cpp:150] Setting up inception_4b/pool
I0315 23:59:43.144966  8308 net.cpp:157] Top shape: 64 512 8 8 (2097152)
I0315 23:59:43.144969  8308 net.cpp:165] Memory required for data: 1072425988
I0315 23:59:43.144973  8308 layer_factory.hpp:76] Creating layer inception_4b/pool_proj
I0315 23:59:43.144983  8308 net.cpp:106] Creating Layer inception_4b/pool_proj
I0315 23:59:43.144986  8308 net.cpp:454] inception_4b/pool_proj <- inception_4b/pool
I0315 23:59:43.144994  8308 net.cpp:411] inception_4b/pool_proj -> inception_4b/pool_proj
I0315 23:59:43.146176  8308 net.cpp:150] Setting up inception_4b/pool_proj
I0315 23:59:43.146189  8308 net.cpp:157] Top shape: 64 64 8 8 (262144)
I0315 23:59:43.146193  8308 net.cpp:165] Memory required for data: 1073474564
I0315 23:59:43.146199  8308 layer_factory.hpp:76] Creating layer inception_4b/relu_pool_proj
I0315 23:59:43.146208  8308 net.cpp:106] Creating Layer inception_4b/relu_pool_proj
I0315 23:59:43.146212  8308 net.cpp:454] inception_4b/relu_pool_proj <- inception_4b/pool_proj
I0315 23:59:43.146217  8308 net.cpp:397] inception_4b/relu_pool_proj -> inception_4b/pool_proj (in-place)
I0315 23:59:43.146544  8308 net.cpp:150] Setting up inception_4b/relu_pool_proj
I0315 23:59:43.146558  8308 net.cpp:157] Top shape: 64 64 8 8 (262144)
I0315 23:59:43.146560  8308 net.cpp:165] Memory required for data: 1074523140
I0315 23:59:43.146564  8308 layer_factory.hpp:76] Creating layer inception_4b/pool_proj_bn
I0315 23:59:43.146570  8308 net.cpp:106] Creating Layer inception_4b/pool_proj_bn
I0315 23:59:43.146574  8308 net.cpp:454] inception_4b/pool_proj_bn <- inception_4b/pool_proj
I0315 23:59:43.146584  8308 net.cpp:411] inception_4b/pool_proj_bn -> inception_4b/pool_proj_bn
I0315 23:59:43.146849  8308 net.cpp:150] Setting up inception_4b/pool_proj_bn
I0315 23:59:43.146857  8308 net.cpp:157] Top shape: 64 64 8 8 (262144)
I0315 23:59:43.146859  8308 net.cpp:165] Memory required for data: 1075571716
I0315 23:59:43.146867  8308 layer_factory.hpp:76] Creating layer inception_4b/output
I0315 23:59:43.146875  8308 net.cpp:106] Creating Layer inception_4b/output
I0315 23:59:43.146879  8308 net.cpp:454] inception_4b/output <- inception_4b/1x1_bn
I0315 23:59:43.146884  8308 net.cpp:454] inception_4b/output <- inception_4b/3x3_bn
I0315 23:59:43.146888  8308 net.cpp:454] inception_4b/output <- inception_4b/5x5_bn
I0315 23:59:43.146891  8308 net.cpp:454] inception_4b/output <- inception_4b/pool_proj_bn
I0315 23:59:43.146898  8308 net.cpp:411] inception_4b/output -> inception_4b/output
I0315 23:59:43.146940  8308 net.cpp:150] Setting up inception_4b/output
I0315 23:59:43.146947  8308 net.cpp:157] Top shape: 64 512 8 8 (2097152)
I0315 23:59:43.146950  8308 net.cpp:165] Memory required for data: 1083960324
I0315 23:59:43.146953  8308 layer_factory.hpp:76] Creating layer inception_4b/output_inception_4b/output_0_split
I0315 23:59:43.146961  8308 net.cpp:106] Creating Layer inception_4b/output_inception_4b/output_0_split
I0315 23:59:43.146965  8308 net.cpp:454] inception_4b/output_inception_4b/output_0_split <- inception_4b/output
I0315 23:59:43.146970  8308 net.cpp:411] inception_4b/output_inception_4b/output_0_split -> inception_4b/output_inception_4b/output_0_split_0
I0315 23:59:43.146977  8308 net.cpp:411] inception_4b/output_inception_4b/output_0_split -> inception_4b/output_inception_4b/output_0_split_1
I0315 23:59:43.146986  8308 net.cpp:411] inception_4b/output_inception_4b/output_0_split -> inception_4b/output_inception_4b/output_0_split_2
I0315 23:59:43.146991  8308 net.cpp:411] inception_4b/output_inception_4b/output_0_split -> inception_4b/output_inception_4b/output_0_split_3
I0315 23:59:43.147060  8308 net.cpp:150] Setting up inception_4b/output_inception_4b/output_0_split
I0315 23:59:43.147068  8308 net.cpp:157] Top shape: 64 512 8 8 (2097152)
I0315 23:59:43.147071  8308 net.cpp:157] Top shape: 64 512 8 8 (2097152)
I0315 23:59:43.147075  8308 net.cpp:157] Top shape: 64 512 8 8 (2097152)
I0315 23:59:43.147079  8308 net.cpp:157] Top shape: 64 512 8 8 (2097152)
I0315 23:59:43.147083  8308 net.cpp:165] Memory required for data: 1117514756
I0315 23:59:43.147085  8308 layer_factory.hpp:76] Creating layer inception_4c/1x1
I0315 23:59:43.147094  8308 net.cpp:106] Creating Layer inception_4c/1x1
I0315 23:59:43.147097  8308 net.cpp:454] inception_4c/1x1 <- inception_4b/output_inception_4b/output_0_split_0
I0315 23:59:43.147105  8308 net.cpp:411] inception_4c/1x1 -> inception_4c/1x1
I0315 23:59:43.148713  8308 net.cpp:150] Setting up inception_4c/1x1
I0315 23:59:43.148725  8308 net.cpp:157] Top shape: 64 128 8 8 (524288)
I0315 23:59:43.148730  8308 net.cpp:165] Memory required for data: 1119611908
I0315 23:59:43.148736  8308 layer_factory.hpp:76] Creating layer inception_4c/relu_1x1
I0315 23:59:43.148744  8308 net.cpp:106] Creating Layer inception_4c/relu_1x1
I0315 23:59:43.148748  8308 net.cpp:454] inception_4c/relu_1x1 <- inception_4c/1x1
I0315 23:59:43.148754  8308 net.cpp:397] inception_4c/relu_1x1 -> inception_4c/1x1 (in-place)
I0315 23:59:43.148967  8308 net.cpp:150] Setting up inception_4c/relu_1x1
I0315 23:59:43.148977  8308 net.cpp:157] Top shape: 64 128 8 8 (524288)
I0315 23:59:43.148980  8308 net.cpp:165] Memory required for data: 1121709060
I0315 23:59:43.148984  8308 layer_factory.hpp:76] Creating layer inception_4c/1x1_bn
I0315 23:59:43.148991  8308 net.cpp:106] Creating Layer inception_4c/1x1_bn
I0315 23:59:43.148995  8308 net.cpp:454] inception_4c/1x1_bn <- inception_4c/1x1
I0315 23:59:43.149003  8308 net.cpp:411] inception_4c/1x1_bn -> inception_4c/1x1_bn
I0315 23:59:43.149255  8308 net.cpp:150] Setting up inception_4c/1x1_bn
I0315 23:59:43.149263  8308 net.cpp:157] Top shape: 64 128 8 8 (524288)
I0315 23:59:43.149266  8308 net.cpp:165] Memory required for data: 1123806212
I0315 23:59:43.149274  8308 layer_factory.hpp:76] Creating layer inception_4c/3x3_reduce
I0315 23:59:43.149283  8308 net.cpp:106] Creating Layer inception_4c/3x3_reduce
I0315 23:59:43.149287  8308 net.cpp:454] inception_4c/3x3_reduce <- inception_4b/output_inception_4b/output_0_split_1
I0315 23:59:43.149293  8308 net.cpp:411] inception_4c/3x3_reduce -> inception_4c/3x3_reduce
I0315 23:59:43.151325  8308 net.cpp:150] Setting up inception_4c/3x3_reduce
I0315 23:59:43.151338  8308 net.cpp:157] Top shape: 64 128 8 8 (524288)
I0315 23:59:43.151342  8308 net.cpp:165] Memory required for data: 1125903364
I0315 23:59:43.151350  8308 layer_factory.hpp:76] Creating layer inception_4c/relu_3x3_reduce
I0315 23:59:43.151355  8308 net.cpp:106] Creating Layer inception_4c/relu_3x3_reduce
I0315 23:59:43.151371  8308 net.cpp:454] inception_4c/relu_3x3_reduce <- inception_4c/3x3_reduce
I0315 23:59:43.151377  8308 net.cpp:397] inception_4c/relu_3x3_reduce -> inception_4c/3x3_reduce (in-place)
I0315 23:59:43.151711  8308 net.cpp:150] Setting up inception_4c/relu_3x3_reduce
I0315 23:59:43.151722  8308 net.cpp:157] Top shape: 64 128 8 8 (524288)
I0315 23:59:43.151726  8308 net.cpp:165] Memory required for data: 1128000516
I0315 23:59:43.151729  8308 layer_factory.hpp:76] Creating layer inception_4c/3x3_reduce_bn
I0315 23:59:43.151738  8308 net.cpp:106] Creating Layer inception_4c/3x3_reduce_bn
I0315 23:59:43.151742  8308 net.cpp:454] inception_4c/3x3_reduce_bn <- inception_4c/3x3_reduce
I0315 23:59:43.151748  8308 net.cpp:411] inception_4c/3x3_reduce_bn -> inception_4c/3x3_reduce_bn
I0315 23:59:43.152010  8308 net.cpp:150] Setting up inception_4c/3x3_reduce_bn
I0315 23:59:43.152019  8308 net.cpp:157] Top shape: 64 128 8 8 (524288)
I0315 23:59:43.152021  8308 net.cpp:165] Memory required for data: 1130097668
I0315 23:59:43.152029  8308 layer_factory.hpp:76] Creating layer inception_4c/3x3
I0315 23:59:43.152039  8308 net.cpp:106] Creating Layer inception_4c/3x3
I0315 23:59:43.152042  8308 net.cpp:454] inception_4c/3x3 <- inception_4c/3x3_reduce_bn
I0315 23:59:43.152048  8308 net.cpp:411] inception_4c/3x3 -> inception_4c/3x3
I0315 23:59:43.155261  8308 net.cpp:150] Setting up inception_4c/3x3
I0315 23:59:43.155277  8308 net.cpp:157] Top shape: 64 256 8 8 (1048576)
I0315 23:59:43.155280  8308 net.cpp:165] Memory required for data: 1134291972
I0315 23:59:43.155287  8308 layer_factory.hpp:76] Creating layer inception_4c/relu_3x3
I0315 23:59:43.155293  8308 net.cpp:106] Creating Layer inception_4c/relu_3x3
I0315 23:59:43.155297  8308 net.cpp:454] inception_4c/relu_3x3 <- inception_4c/3x3
I0315 23:59:43.155303  8308 net.cpp:397] inception_4c/relu_3x3 -> inception_4c/3x3 (in-place)
I0315 23:59:43.155638  8308 net.cpp:150] Setting up inception_4c/relu_3x3
I0315 23:59:43.155650  8308 net.cpp:157] Top shape: 64 256 8 8 (1048576)
I0315 23:59:43.155653  8308 net.cpp:165] Memory required for data: 1138486276
I0315 23:59:43.155658  8308 layer_factory.hpp:76] Creating layer inception_4c/3x3_bn
I0315 23:59:43.155664  8308 net.cpp:106] Creating Layer inception_4c/3x3_bn
I0315 23:59:43.155668  8308 net.cpp:454] inception_4c/3x3_bn <- inception_4c/3x3
I0315 23:59:43.155676  8308 net.cpp:411] inception_4c/3x3_bn -> inception_4c/3x3_bn
I0315 23:59:43.155946  8308 net.cpp:150] Setting up inception_4c/3x3_bn
I0315 23:59:43.155954  8308 net.cpp:157] Top shape: 64 256 8 8 (1048576)
I0315 23:59:43.155957  8308 net.cpp:165] Memory required for data: 1142680580
I0315 23:59:43.155964  8308 layer_factory.hpp:76] Creating layer inception_4c/5x5_reduce
I0315 23:59:43.155975  8308 net.cpp:106] Creating Layer inception_4c/5x5_reduce
I0315 23:59:43.155978  8308 net.cpp:454] inception_4c/5x5_reduce <- inception_4b/output_inception_4b/output_0_split_2
I0315 23:59:43.155984  8308 net.cpp:411] inception_4c/5x5_reduce -> inception_4c/5x5_reduce
I0315 23:59:43.157217  8308 net.cpp:150] Setting up inception_4c/5x5_reduce
I0315 23:59:43.157230  8308 net.cpp:157] Top shape: 64 24 8 8 (98304)
I0315 23:59:43.157234  8308 net.cpp:165] Memory required for data: 1143073796
I0315 23:59:43.157241  8308 layer_factory.hpp:76] Creating layer inception_4c/relu_5x5_reduce
I0315 23:59:43.157248  8308 net.cpp:106] Creating Layer inception_4c/relu_5x5_reduce
I0315 23:59:43.157251  8308 net.cpp:454] inception_4c/relu_5x5_reduce <- inception_4c/5x5_reduce
I0315 23:59:43.157258  8308 net.cpp:397] inception_4c/relu_5x5_reduce -> inception_4c/5x5_reduce (in-place)
I0315 23:59:43.157459  8308 net.cpp:150] Setting up inception_4c/relu_5x5_reduce
I0315 23:59:43.157469  8308 net.cpp:157] Top shape: 64 24 8 8 (98304)
I0315 23:59:43.157471  8308 net.cpp:165] Memory required for data: 1143467012
I0315 23:59:43.157474  8308 layer_factory.hpp:76] Creating layer inception_4c/5x5_reduce_bn
I0315 23:59:43.157482  8308 net.cpp:106] Creating Layer inception_4c/5x5_reduce_bn
I0315 23:59:43.157498  8308 net.cpp:454] inception_4c/5x5_reduce_bn <- inception_4c/5x5_reduce
I0315 23:59:43.157505  8308 net.cpp:411] inception_4c/5x5_reduce_bn -> inception_4c/5x5_reduce_bn
I0315 23:59:43.157778  8308 net.cpp:150] Setting up inception_4c/5x5_reduce_bn
I0315 23:59:43.157788  8308 net.cpp:157] Top shape: 64 24 8 8 (98304)
I0315 23:59:43.157790  8308 net.cpp:165] Memory required for data: 1143860228
I0315 23:59:43.157798  8308 layer_factory.hpp:76] Creating layer inception_4c/5x5
I0315 23:59:43.157809  8308 net.cpp:106] Creating Layer inception_4c/5x5
I0315 23:59:43.157814  8308 net.cpp:454] inception_4c/5x5 <- inception_4c/5x5_reduce_bn
I0315 23:59:43.157821  8308 net.cpp:411] inception_4c/5x5 -> inception_4c/5x5
I0315 23:59:43.159178  8308 net.cpp:150] Setting up inception_4c/5x5
I0315 23:59:43.159190  8308 net.cpp:157] Top shape: 64 64 8 8 (262144)
I0315 23:59:43.159194  8308 net.cpp:165] Memory required for data: 1144908804
I0315 23:59:43.159201  8308 layer_factory.hpp:76] Creating layer inception_4c/relu_5x5
I0315 23:59:43.159212  8308 net.cpp:106] Creating Layer inception_4c/relu_5x5
I0315 23:59:43.159216  8308 net.cpp:454] inception_4c/relu_5x5 <- inception_4c/5x5
I0315 23:59:43.159221  8308 net.cpp:397] inception_4c/relu_5x5 -> inception_4c/5x5 (in-place)
I0315 23:59:43.159548  8308 net.cpp:150] Setting up inception_4c/relu_5x5
I0315 23:59:43.159559  8308 net.cpp:157] Top shape: 64 64 8 8 (262144)
I0315 23:59:43.159561  8308 net.cpp:165] Memory required for data: 1145957380
I0315 23:59:43.159565  8308 layer_factory.hpp:76] Creating layer inception_4c/5x5_bn
I0315 23:59:43.159574  8308 net.cpp:106] Creating Layer inception_4c/5x5_bn
I0315 23:59:43.159579  8308 net.cpp:454] inception_4c/5x5_bn <- inception_4c/5x5
I0315 23:59:43.159586  8308 net.cpp:411] inception_4c/5x5_bn -> inception_4c/5x5_bn
I0315 23:59:43.159862  8308 net.cpp:150] Setting up inception_4c/5x5_bn
I0315 23:59:43.159869  8308 net.cpp:157] Top shape: 64 64 8 8 (262144)
I0315 23:59:43.159873  8308 net.cpp:165] Memory required for data: 1147005956
I0315 23:59:43.159879  8308 layer_factory.hpp:76] Creating layer inception_4c/pool
I0315 23:59:43.159886  8308 net.cpp:106] Creating Layer inception_4c/pool
I0315 23:59:43.159889  8308 net.cpp:454] inception_4c/pool <- inception_4b/output_inception_4b/output_0_split_3
I0315 23:59:43.159898  8308 net.cpp:411] inception_4c/pool -> inception_4c/pool
I0315 23:59:43.160141  8308 net.cpp:150] Setting up inception_4c/pool
I0315 23:59:43.160151  8308 net.cpp:157] Top shape: 64 512 8 8 (2097152)
I0315 23:59:43.160158  8308 net.cpp:165] Memory required for data: 1155394564
I0315 23:59:43.160161  8308 layer_factory.hpp:76] Creating layer inception_4c/pool_proj
I0315 23:59:43.160169  8308 net.cpp:106] Creating Layer inception_4c/pool_proj
I0315 23:59:43.160173  8308 net.cpp:454] inception_4c/pool_proj <- inception_4c/pool
I0315 23:59:43.160181  8308 net.cpp:411] inception_4c/pool_proj -> inception_4c/pool_proj
I0315 23:59:43.161516  8308 net.cpp:150] Setting up inception_4c/pool_proj
I0315 23:59:43.161530  8308 net.cpp:157] Top shape: 64 64 8 8 (262144)
I0315 23:59:43.161532  8308 net.cpp:165] Memory required for data: 1156443140
I0315 23:59:43.161540  8308 layer_factory.hpp:76] Creating layer inception_4c/relu_pool_proj
I0315 23:59:43.161551  8308 net.cpp:106] Creating Layer inception_4c/relu_pool_proj
I0315 23:59:43.161556  8308 net.cpp:454] inception_4c/relu_pool_proj <- inception_4c/pool_proj
I0315 23:59:43.161561  8308 net.cpp:397] inception_4c/relu_pool_proj -> inception_4c/pool_proj (in-place)
I0315 23:59:43.161763  8308 net.cpp:150] Setting up inception_4c/relu_pool_proj
I0315 23:59:43.161772  8308 net.cpp:157] Top shape: 64 64 8 8 (262144)
I0315 23:59:43.161775  8308 net.cpp:165] Memory required for data: 1157491716
I0315 23:59:43.161779  8308 layer_factory.hpp:76] Creating layer inception_4c/pool_proj_bn
I0315 23:59:43.161788  8308 net.cpp:106] Creating Layer inception_4c/pool_proj_bn
I0315 23:59:43.161792  8308 net.cpp:454] inception_4c/pool_proj_bn <- inception_4c/pool_proj
I0315 23:59:43.161798  8308 net.cpp:411] inception_4c/pool_proj_bn -> inception_4c/pool_proj_bn
I0315 23:59:43.162084  8308 net.cpp:150] Setting up inception_4c/pool_proj_bn
I0315 23:59:43.162092  8308 net.cpp:157] Top shape: 64 64 8 8 (262144)
I0315 23:59:43.162096  8308 net.cpp:165] Memory required for data: 1158540292
I0315 23:59:43.162103  8308 layer_factory.hpp:76] Creating layer inception_4c/output
I0315 23:59:43.162109  8308 net.cpp:106] Creating Layer inception_4c/output
I0315 23:59:43.162113  8308 net.cpp:454] inception_4c/output <- inception_4c/1x1_bn
I0315 23:59:43.162120  8308 net.cpp:454] inception_4c/output <- inception_4c/3x3_bn
I0315 23:59:43.162124  8308 net.cpp:454] inception_4c/output <- inception_4c/5x5_bn
I0315 23:59:43.162127  8308 net.cpp:454] inception_4c/output <- inception_4c/pool_proj_bn
I0315 23:59:43.162132  8308 net.cpp:411] inception_4c/output -> inception_4c/output
I0315 23:59:43.162163  8308 net.cpp:150] Setting up inception_4c/output
I0315 23:59:43.162169  8308 net.cpp:157] Top shape: 64 512 8 8 (2097152)
I0315 23:59:43.162173  8308 net.cpp:165] Memory required for data: 1166928900
I0315 23:59:43.162175  8308 layer_factory.hpp:76] Creating layer inception_4c/output_inception_4c/output_0_split
I0315 23:59:43.162180  8308 net.cpp:106] Creating Layer inception_4c/output_inception_4c/output_0_split
I0315 23:59:43.162184  8308 net.cpp:454] inception_4c/output_inception_4c/output_0_split <- inception_4c/output
I0315 23:59:43.162191  8308 net.cpp:411] inception_4c/output_inception_4c/output_0_split -> inception_4c/output_inception_4c/output_0_split_0
I0315 23:59:43.162197  8308 net.cpp:411] inception_4c/output_inception_4c/output_0_split -> inception_4c/output_inception_4c/output_0_split_1
I0315 23:59:43.162204  8308 net.cpp:411] inception_4c/output_inception_4c/output_0_split -> inception_4c/output_inception_4c/output_0_split_2
I0315 23:59:43.162209  8308 net.cpp:411] inception_4c/output_inception_4c/output_0_split -> inception_4c/output_inception_4c/output_0_split_3
I0315 23:59:43.162282  8308 net.cpp:150] Setting up inception_4c/output_inception_4c/output_0_split
I0315 23:59:43.162288  8308 net.cpp:157] Top shape: 64 512 8 8 (2097152)
I0315 23:59:43.162292  8308 net.cpp:157] Top shape: 64 512 8 8 (2097152)
I0315 23:59:43.162297  8308 net.cpp:157] Top shape: 64 512 8 8 (2097152)
I0315 23:59:43.162299  8308 net.cpp:157] Top shape: 64 512 8 8 (2097152)
I0315 23:59:43.162302  8308 net.cpp:165] Memory required for data: 1200483332
I0315 23:59:43.162305  8308 layer_factory.hpp:76] Creating layer inception_4d/1x1
I0315 23:59:43.162318  8308 net.cpp:106] Creating Layer inception_4d/1x1
I0315 23:59:43.162322  8308 net.cpp:454] inception_4d/1x1 <- inception_4c/output_inception_4c/output_0_split_0
I0315 23:59:43.162328  8308 net.cpp:411] inception_4d/1x1 -> inception_4d/1x1
I0315 23:59:43.163792  8308 net.cpp:150] Setting up inception_4d/1x1
I0315 23:59:43.163816  8308 net.cpp:157] Top shape: 64 112 8 8 (458752)
I0315 23:59:43.163820  8308 net.cpp:165] Memory required for data: 1202318340
I0315 23:59:43.163827  8308 layer_factory.hpp:76] Creating layer inception_4d/relu_1x1
I0315 23:59:43.163833  8308 net.cpp:106] Creating Layer inception_4d/relu_1x1
I0315 23:59:43.163837  8308 net.cpp:454] inception_4d/relu_1x1 <- inception_4d/1x1
I0315 23:59:43.163843  8308 net.cpp:397] inception_4d/relu_1x1 -> inception_4d/1x1 (in-place)
I0315 23:59:43.164187  8308 net.cpp:150] Setting up inception_4d/relu_1x1
I0315 23:59:43.164199  8308 net.cpp:157] Top shape: 64 112 8 8 (458752)
I0315 23:59:43.164202  8308 net.cpp:165] Memory required for data: 1204153348
I0315 23:59:43.164206  8308 layer_factory.hpp:76] Creating layer inception_4d/1x1_bn
I0315 23:59:43.164212  8308 net.cpp:106] Creating Layer inception_4d/1x1_bn
I0315 23:59:43.164216  8308 net.cpp:454] inception_4d/1x1_bn <- inception_4d/1x1
I0315 23:59:43.164224  8308 net.cpp:411] inception_4d/1x1_bn -> inception_4d/1x1_bn
I0315 23:59:43.164507  8308 net.cpp:150] Setting up inception_4d/1x1_bn
I0315 23:59:43.164515  8308 net.cpp:157] Top shape: 64 112 8 8 (458752)
I0315 23:59:43.164518  8308 net.cpp:165] Memory required for data: 1205988356
I0315 23:59:43.164538  8308 layer_factory.hpp:76] Creating layer inception_4d/3x3_reduce
I0315 23:59:43.164546  8308 net.cpp:106] Creating Layer inception_4d/3x3_reduce
I0315 23:59:43.164551  8308 net.cpp:454] inception_4d/3x3_reduce <- inception_4c/output_inception_4c/output_0_split_1
I0315 23:59:43.164558  8308 net.cpp:411] inception_4d/3x3_reduce -> inception_4d/3x3_reduce
I0315 23:59:43.166182  8308 net.cpp:150] Setting up inception_4d/3x3_reduce
I0315 23:59:43.166195  8308 net.cpp:157] Top shape: 64 144 8 8 (589824)
I0315 23:59:43.166199  8308 net.cpp:165] Memory required for data: 1208347652
I0315 23:59:43.166206  8308 layer_factory.hpp:76] Creating layer inception_4d/relu_3x3_reduce
I0315 23:59:43.166213  8308 net.cpp:106] Creating Layer inception_4d/relu_3x3_reduce
I0315 23:59:43.166216  8308 net.cpp:454] inception_4d/relu_3x3_reduce <- inception_4d/3x3_reduce
I0315 23:59:43.166223  8308 net.cpp:397] inception_4d/relu_3x3_reduce -> inception_4d/3x3_reduce (in-place)
I0315 23:59:43.166424  8308 net.cpp:150] Setting up inception_4d/relu_3x3_reduce
I0315 23:59:43.166432  8308 net.cpp:157] Top shape: 64 144 8 8 (589824)
I0315 23:59:43.166435  8308 net.cpp:165] Memory required for data: 1210706948
I0315 23:59:43.166440  8308 layer_factory.hpp:76] Creating layer inception_4d/3x3_reduce_bn
I0315 23:59:43.166448  8308 net.cpp:106] Creating Layer inception_4d/3x3_reduce_bn
I0315 23:59:43.166452  8308 net.cpp:454] inception_4d/3x3_reduce_bn <- inception_4d/3x3_reduce
I0315 23:59:43.166458  8308 net.cpp:411] inception_4d/3x3_reduce_bn -> inception_4d/3x3_reduce_bn
I0315 23:59:43.166730  8308 net.cpp:150] Setting up inception_4d/3x3_reduce_bn
I0315 23:59:43.166738  8308 net.cpp:157] Top shape: 64 144 8 8 (589824)
I0315 23:59:43.166741  8308 net.cpp:165] Memory required for data: 1213066244
I0315 23:59:43.166749  8308 layer_factory.hpp:76] Creating layer inception_4d/3x3
I0315 23:59:43.166759  8308 net.cpp:106] Creating Layer inception_4d/3x3
I0315 23:59:43.166762  8308 net.cpp:454] inception_4d/3x3 <- inception_4d/3x3_reduce_bn
I0315 23:59:43.166770  8308 net.cpp:411] inception_4d/3x3 -> inception_4d/3x3
I0315 23:59:43.170783  8308 net.cpp:150] Setting up inception_4d/3x3
I0315 23:59:43.170796  8308 net.cpp:157] Top shape: 64 288 8 8 (1179648)
I0315 23:59:43.170800  8308 net.cpp:165] Memory required for data: 1217784836
I0315 23:59:43.170806  8308 layer_factory.hpp:76] Creating layer inception_4d/relu_3x3
I0315 23:59:43.170812  8308 net.cpp:106] Creating Layer inception_4d/relu_3x3
I0315 23:59:43.170816  8308 net.cpp:454] inception_4d/relu_3x3 <- inception_4d/3x3
I0315 23:59:43.170825  8308 net.cpp:397] inception_4d/relu_3x3 -> inception_4d/3x3 (in-place)
I0315 23:59:43.171026  8308 net.cpp:150] Setting up inception_4d/relu_3x3
I0315 23:59:43.171037  8308 net.cpp:157] Top shape: 64 288 8 8 (1179648)
I0315 23:59:43.171041  8308 net.cpp:165] Memory required for data: 1222503428
I0315 23:59:43.171044  8308 layer_factory.hpp:76] Creating layer inception_4d/3x3_bn
I0315 23:59:43.171051  8308 net.cpp:106] Creating Layer inception_4d/3x3_bn
I0315 23:59:43.171054  8308 net.cpp:454] inception_4d/3x3_bn <- inception_4d/3x3
I0315 23:59:43.171062  8308 net.cpp:411] inception_4d/3x3_bn -> inception_4d/3x3_bn
I0315 23:59:43.171345  8308 net.cpp:150] Setting up inception_4d/3x3_bn
I0315 23:59:43.171352  8308 net.cpp:157] Top shape: 64 288 8 8 (1179648)
I0315 23:59:43.171355  8308 net.cpp:165] Memory required for data: 1227222020
I0315 23:59:43.171363  8308 layer_factory.hpp:76] Creating layer inception_4d/5x5_reduce
I0315 23:59:43.171371  8308 net.cpp:106] Creating Layer inception_4d/5x5_reduce
I0315 23:59:43.171375  8308 net.cpp:454] inception_4d/5x5_reduce <- inception_4c/output_inception_4c/output_0_split_2
I0315 23:59:43.171383  8308 net.cpp:411] inception_4d/5x5_reduce -> inception_4d/5x5_reduce
I0315 23:59:43.172623  8308 net.cpp:150] Setting up inception_4d/5x5_reduce
I0315 23:59:43.172636  8308 net.cpp:157] Top shape: 64 32 8 8 (131072)
I0315 23:59:43.172641  8308 net.cpp:165] Memory required for data: 1227746308
I0315 23:59:43.172660  8308 layer_factory.hpp:76] Creating layer inception_4d/relu_5x5_reduce
I0315 23:59:43.172667  8308 net.cpp:106] Creating Layer inception_4d/relu_5x5_reduce
I0315 23:59:43.172672  8308 net.cpp:454] inception_4d/relu_5x5_reduce <- inception_4d/5x5_reduce
I0315 23:59:43.172678  8308 net.cpp:397] inception_4d/relu_5x5_reduce -> inception_4d/5x5_reduce (in-place)
I0315 23:59:43.173020  8308 net.cpp:150] Setting up inception_4d/relu_5x5_reduce
I0315 23:59:43.173032  8308 net.cpp:157] Top shape: 64 32 8 8 (131072)
I0315 23:59:43.173035  8308 net.cpp:165] Memory required for data: 1228270596
I0315 23:59:43.173039  8308 layer_factory.hpp:76] Creating layer inception_4d/5x5_reduce_bn
I0315 23:59:43.173048  8308 net.cpp:106] Creating Layer inception_4d/5x5_reduce_bn
I0315 23:59:43.173053  8308 net.cpp:454] inception_4d/5x5_reduce_bn <- inception_4d/5x5_reduce
I0315 23:59:43.173058  8308 net.cpp:411] inception_4d/5x5_reduce_bn -> inception_4d/5x5_reduce_bn
I0315 23:59:43.173349  8308 net.cpp:150] Setting up inception_4d/5x5_reduce_bn
I0315 23:59:43.173358  8308 net.cpp:157] Top shape: 64 32 8 8 (131072)
I0315 23:59:43.173362  8308 net.cpp:165] Memory required for data: 1228794884
I0315 23:59:43.173368  8308 layer_factory.hpp:76] Creating layer inception_4d/5x5
I0315 23:59:43.173380  8308 net.cpp:106] Creating Layer inception_4d/5x5
I0315 23:59:43.173384  8308 net.cpp:454] inception_4d/5x5 <- inception_4d/5x5_reduce_bn
I0315 23:59:43.173390  8308 net.cpp:411] inception_4d/5x5 -> inception_4d/5x5
I0315 23:59:43.174829  8308 net.cpp:150] Setting up inception_4d/5x5
I0315 23:59:43.174840  8308 net.cpp:157] Top shape: 64 64 8 8 (262144)
I0315 23:59:43.174844  8308 net.cpp:165] Memory required for data: 1229843460
I0315 23:59:43.174851  8308 layer_factory.hpp:76] Creating layer inception_4d/relu_5x5
I0315 23:59:43.174859  8308 net.cpp:106] Creating Layer inception_4d/relu_5x5
I0315 23:59:43.174862  8308 net.cpp:454] inception_4d/relu_5x5 <- inception_4d/5x5
I0315 23:59:43.174868  8308 net.cpp:397] inception_4d/relu_5x5 -> inception_4d/5x5 (in-place)
I0315 23:59:43.175073  8308 net.cpp:150] Setting up inception_4d/relu_5x5
I0315 23:59:43.175082  8308 net.cpp:157] Top shape: 64 64 8 8 (262144)
I0315 23:59:43.175086  8308 net.cpp:165] Memory required for data: 1230892036
I0315 23:59:43.175088  8308 layer_factory.hpp:76] Creating layer inception_4d/5x5_bn
I0315 23:59:43.175097  8308 net.cpp:106] Creating Layer inception_4d/5x5_bn
I0315 23:59:43.175101  8308 net.cpp:454] inception_4d/5x5_bn <- inception_4d/5x5
I0315 23:59:43.175110  8308 net.cpp:411] inception_4d/5x5_bn -> inception_4d/5x5_bn
I0315 23:59:43.175396  8308 net.cpp:150] Setting up inception_4d/5x5_bn
I0315 23:59:43.175406  8308 net.cpp:157] Top shape: 64 64 8 8 (262144)
I0315 23:59:43.175410  8308 net.cpp:165] Memory required for data: 1231940612
I0315 23:59:43.175417  8308 layer_factory.hpp:76] Creating layer inception_4d/pool
I0315 23:59:43.175423  8308 net.cpp:106] Creating Layer inception_4d/pool
I0315 23:59:43.175426  8308 net.cpp:454] inception_4d/pool <- inception_4c/output_inception_4c/output_0_split_3
I0315 23:59:43.175432  8308 net.cpp:411] inception_4d/pool -> inception_4d/pool
I0315 23:59:43.175813  8308 net.cpp:150] Setting up inception_4d/pool
I0315 23:59:43.175824  8308 net.cpp:157] Top shape: 64 512 8 8 (2097152)
I0315 23:59:43.175827  8308 net.cpp:165] Memory required for data: 1240329220
I0315 23:59:43.175832  8308 layer_factory.hpp:76] Creating layer inception_4d/pool_proj
…
I0315 23:59:43.402308  8308 net.cpp:411] inception_4d/pool_proj_bn -> inception_4d/pool_proj_bn
I0315 23:59:43.402595  8308 net.cpp:150] Setting up inception_4d/pool_proj_bn
I0315 23:59:43.402602  8308 net.cpp:157] Top shape: 20 64 8 8 (81920)
I0315 23:59:43.402606  8308 net.cpp:165] Memory required for data: 388826412
I0315 23:59:43.402613  8308 layer_factory.hpp:76] Creating layer inception_4d/output
I0315 23:59:43.402619  8308 net.cpp:106] Creating Layer inception_4d/output
I0315 23:59:43.402623  8308 net.cpp:454] inception_4d/output <- inception_4d/1x1_bn
I0315 23:59:43.402628  8308 net.cpp:454] inception_4d/output <- inception_4d/3x3_bn
I0315 23:59:43.402632  8308 net.cpp:454] inception_4d/output <- inception_4d/5x5_bn
I0315 23:59:43.402637  8308 net.cpp:454] inception_4d/output <- inception_4d/pool_proj_bn
I0315 23:59:43.402642  8308 net.cpp:411] inception_4d/output -> inception_4d/output
I0315 23:59:43.402675  8308 net.cpp:150] Setting up inception_4d/output
I0315 23:59:43.402681  8308 net.cpp:157] Top shape: 20 528 8 8 (675840)
I0315 23:59:43.402684  8308 net.cpp:165] Memory required for data: 391529772
I0315 23:59:43.402688  8308 layer_factory.hpp:76] Creating layer inception_4d/output_inception_4d/output_0_split
I0315 23:59:43.402694  8308 net.cpp:106] Creating Layer inception_4d/output_inception_4d/output_0_split
I0315 23:59:43.402698  8308 net.cpp:454] inception_4d/output_inception_4d/output_0_split <- inception_4d/output
I0315 23:59:43.402703  8308 net.cpp:411] inception_4d/output_inception_4d/output_0_split -> inception_4d/output_inception_4d/output_0_split_0
I0315 23:59:43.402724  8308 net.cpp:411] inception_4d/output_inception_4d/output_0_split -> inception_4d/output_inception_4d/output_0_split_1
I0315 23:59:43.402731  8308 net.cpp:411] inception_4d/output_inception_4d/output_0_split -> inception_4d/output_inception_4d/output_0_split_2
I0315 23:59:43.402737  8308 net.cpp:411] inception_4d/output_inception_4d/output_0_split -> inception_4d/output_inception_4d/output_0_split_3
I0315 23:59:43.402742  8308 net.cpp:411] inception_4d/output_inception_4d/output_0_split -> inception_4d/output_inception_4d/output_0_split_4
I0315 23:59:43.402840  8308 net.cpp:150] Setting up inception_4d/output_inception_4d/output_0_split
I0315 23:59:43.402848  8308 net.cpp:157] Top shape: 20 528 8 8 (675840)
I0315 23:59:43.402853  8308 net.cpp:157] Top shape: 20 528 8 8 (675840)
I0315 23:59:43.402856  8308 net.cpp:157] Top shape: 20 528 8 8 (675840)
I0315 23:59:43.402860  8308 net.cpp:157] Top shape: 20 528 8 8 (675840)
I0315 23:59:43.402864  8308 net.cpp:157] Top shape: 20 528 8 8 (675840)
I0315 23:59:43.402868  8308 net.cpp:165] Memory required for data: 405046572
I0315 23:59:43.402870  8308 layer_factory.hpp:76] Creating layer loss2/ave_pool
I0315 23:59:43.402875  8308 net.cpp:106] Creating Layer loss2/ave_pool
I0315 23:59:43.402879  8308 net.cpp:454] loss2/ave_pool <- inception_4d/output_inception_4d/output_0_split_0
I0315 23:59:43.402884  8308 net.cpp:411] loss2/ave_pool -> loss2/ave_pool
I0315 23:59:43.403148  8308 net.cpp:150] Setting up loss2/ave_pool
I0315 23:59:43.403157  8308 net.cpp:157] Top shape: 20 528 2 2 (42240)
I0315 23:59:43.403161  8308 net.cpp:165] Memory required for data: 405215532
I0315 23:59:43.403164  8308 layer_factory.hpp:76] Creating layer loss2/conv
I0315 23:59:43.403173  8308 net.cpp:106] Creating Layer loss2/conv
I0315 23:59:43.403177  8308 net.cpp:454] loss2/conv <- loss2/ave_pool
I0315 23:59:43.403185  8308 net.cpp:411] loss2/conv -> loss2/conv
I0315 23:59:43.405441  8308 net.cpp:150] Setting up loss2/conv
I0315 23:59:43.405457  8308 net.cpp:157] Top shape: 20 128 2 2 (10240)
I0315 23:59:43.405459  8308 net.cpp:165] Memory required for data: 405256492
I0315 23:59:43.405467  8308 layer_factory.hpp:76] Creating layer loss2/relu_conv
I0315 23:59:43.405472  8308 net.cpp:106] Creating Layer loss2/relu_conv
I0315 23:59:43.405477  8308 net.cpp:454] loss2/relu_conv <- loss2/conv
I0315 23:59:43.405481  8308 net.cpp:397] loss2/relu_conv -> loss2/conv (in-place)
I0315 23:59:43.405872  8308 net.cpp:150] Setting up loss2/relu_conv
I0315 23:59:43.405884  8308 net.cpp:157] Top shape: 20 128 2 2 (10240)
I0315 23:59:43.405887  8308 net.cpp:165] Memory required for data: 405297452
I0315 23:59:43.405891  8308 layer_factory.hpp:76] Creating layer loss2/conv_bn
I0315 23:59:43.405900  8308 net.cpp:106] Creating Layer loss2/conv_bn
I0315 23:59:43.405903  8308 net.cpp:454] loss2/conv_bn <- loss2/conv
I0315 23:59:43.405910  8308 net.cpp:411] loss2/conv_bn -> loss2/conv_bn
I0315 23:59:43.406191  8308 net.cpp:150] Setting up loss2/conv_bn
I0315 23:59:43.406199  8308 net.cpp:157] Top shape: 20 128 2 2 (10240)
I0315 23:59:43.406203  8308 net.cpp:165] Memory required for data: 405338412
I0315 23:59:43.406210  8308 layer_factory.hpp:76] Creating layer loss2/fc
I0315 23:59:43.406220  8308 net.cpp:106] Creating Layer loss2/fc
I0315 23:59:43.406224  8308 net.cpp:454] loss2/fc <- loss2/conv_bn
I0315 23:59:43.406230  8308 net.cpp:411] loss2/fc -> loss2/fc
I0315 23:59:43.410166  8308 net.cpp:150] Setting up loss2/fc
I0315 23:59:43.410177  8308 net.cpp:157] Top shape: 20 1024 (20480)
I0315 23:59:43.410181  8308 net.cpp:165] Memory required for data: 405420332
I0315 23:59:43.410187  8308 layer_factory.hpp:76] Creating layer loss2/relu_fc
I0315 23:59:43.410195  8308 net.cpp:106] Creating Layer loss2/relu_fc
I0315 23:59:43.410198  8308 net.cpp:454] loss2/relu_fc <- loss2/fc
I0315 23:59:43.410203  8308 net.cpp:397] loss2/relu_fc -> loss2/fc (in-place)
I0315 23:59:43.410454  8308 net.cpp:150] Setting up loss2/relu_fc
I0315 23:59:43.410476  8308 net.cpp:157] Top shape: 20 1024 (20480)
I0315 23:59:43.410480  8308 net.cpp:165] Memory required for data: 405502252
I0315 23:59:43.410483  8308 layer_factory.hpp:76] Creating layer loss2/fc_bn
I0315 23:59:43.410490  8308 net.cpp:106] Creating Layer loss2/fc_bn
I0315 23:59:43.410493  8308 net.cpp:454] loss2/fc_bn <- loss2/fc
I0315 23:59:43.410501  8308 net.cpp:411] loss2/fc_bn -> loss2/fc_bn
I0315 23:59:43.410810  8308 net.cpp:150] Setting up loss2/fc_bn
I0315 23:59:43.410817  8308 net.cpp:157] Top shape: 20 1024 (20480)
I0315 23:59:43.410820  8308 net.cpp:165] Memory required for data: 405584172
I0315 23:59:43.410828  8308 layer_factory.hpp:76] Creating layer loss2/drop_fc
I0315 23:59:43.410837  8308 net.cpp:106] Creating Layer loss2/drop_fc
I0315 23:59:43.410841  8308 net.cpp:454] loss2/drop_fc <- loss2/fc_bn
I0315 23:59:43.410850  8308 net.cpp:397] loss2/drop_fc -> loss2/fc_bn (in-place)
I0315 23:59:43.410881  8308 net.cpp:150] Setting up loss2/drop_fc
I0315 23:59:43.410886  8308 net.cpp:157] Top shape: 20 1024 (20480)
I0315 23:59:43.410888  8308 net.cpp:165] Memory required for data: 405666092
I0315 23:59:43.410892  8308 layer_factory.hpp:76] Creating layer loss2/classifier
I0315 23:59:43.410900  8308 net.cpp:106] Creating Layer loss2/classifier
I0315 23:59:43.410904  8308 net.cpp:454] loss2/classifier <- loss2/fc_bn
I0315 23:59:43.410909  8308 net.cpp:411] loss2/classifier -> loss2/classifier
I0315 23:59:43.418243  8308 net.cpp:150] Setting up loss2/classifier
I0315 23:59:43.418257  8308 net.cpp:157] Top shape: 20 1000 (20000)
I0315 23:59:43.418261  8308 net.cpp:165] Memory required for data: 405746092
I0315 23:59:43.418267  8308 layer_factory.hpp:76] Creating layer loss2/classifier_loss2/classifier_0_split
I0315 23:59:43.418273  8308 net.cpp:106] Creating Layer loss2/classifier_loss2/classifier_0_split
I0315 23:59:43.418277  8308 net.cpp:454] loss2/classifier_loss2/classifier_0_split <- loss2/classifier
I0315 23:59:43.418283  8308 net.cpp:411] loss2/classifier_loss2/classifier_0_split -> loss2/classifier_loss2/classifier_0_split_0
I0315 23:59:43.418290  8308 net.cpp:411] loss2/classifier_loss2/classifier_0_split -> loss2/classifier_loss2/classifier_0_split_1
I0315 23:59:43.418297  8308 net.cpp:411] loss2/classifier_loss2/classifier_0_split -> loss2/classifier_loss2/classifier_0_split_2
I0315 23:59:43.418366  8308 net.cpp:150] Setting up loss2/classifier_loss2/classifier_0_split
I0315 23:59:43.418378  8308 net.cpp:157] Top shape: 20 1000 (20000)
I0315 23:59:43.418382  8308 net.cpp:157] Top shape: 20 1000 (20000)
I0315 23:59:43.418386  8308 net.cpp:157] Top shape: 20 1000 (20000)
I0315 23:59:43.418390  8308 net.cpp:165] Memory required for data: 405986092
I0315 23:59:43.418392  8308 layer_factory.hpp:76] Creating layer loss2/loss
I0315 23:59:43.418398  8308 net.cpp:106] Creating Layer loss2/loss
I0315 23:59:43.418401  8308 net.cpp:454] loss2/loss <- loss2/classifier_loss2/classifier_0_split_0
I0315 23:59:43.418406  8308 net.cpp:454] loss2/loss <- label_data_1_split_3
…
I0315 23:59:43.419631  8308 net.cpp:150] Setting up loss2/top-5
I0315 23:59:43.419636  8308 net.cpp:157] Top shape: (1)
I0315 23:59:43.419638  8308 net.cpp:165] Memory required for data: 405986104
I0315 23:59:43.419646  8308 layer_factory.hpp:76] Creating layer inception_4e/1x1
I0315 23:59:43.419654  8308 net.cpp:106] Creating Layer inception_4e/1x1
I0315 23:59:43.419658  8308 net.cpp:454] inception_4e/1x1 <- inception_4d/output_inception_4d/output_0_split_1
I0315 23:59:43.419666  8308 net.cpp:411] inception_4e/1x1 -> inception_4e/1x1
I0315 23:59:43.421761  8308 net.cpp:150] Setting up inception_4e/1x1
I0315 23:59:43.421774  8308 net.cpp:157] Top shape: 20 256 8 8 (327680)
I0315 23:59:43.421777  8308 net.cpp:165] Memory required for data: 407296824
I0315 23:59:43.421784  8308 layer_factory.hpp:76] Creating layer inception_4e/relu_1x1
I0315 23:59:43.421792  8308 net.cpp:106] Creating Layer inception_4e/relu_1x1
I0315 23:59:43.421797  8308 net.cpp:454] inception_4e/relu_1x1 <- inception_4e/1x1
I0315 23:59:43.421802  8308 net.cpp:397] inception_4e/relu_1x1 -> inception_4e/1x1 (in-place)
I0315 23:59:43.422176  8308 net.cpp:150] Setting up inception_4e/relu_1x1
I0315 23:59:43.422188  8308 net.cpp:157] Top shape: 20 256 8 8 (327680)
I0315 23:59:43.422191  8308 net.cpp:165] Memory required for data: 408607544
I0315 23:59:43.422194  8308 layer_factory.hpp:76] Creating layer inception_4e/1x1_bn
I0315 23:59:43.422204  8308 net.cpp:106] Creating Layer inception_4e/1x1_bn
I0315 23:59:43.422207  8308 net.cpp:454] inception_4e/1x1_bn <- inception_4e/1x1
I0315 23:59:43.422214  8308 net.cpp:411] inception_4e/1x1_bn -> inception_4e/1x1_bn
I0315 23:59:43.422497  8308 net.cpp:150] Setting up inception_4e/1x1_bn
I0315 23:59:43.422504  8308 net.cpp:157] Top shape: 20 256 8 8 (327680)
I0315 23:59:43.422508  8308 net.cpp:165] Memory required for data: 409918264
I0315 23:59:43.422515  8308 layer_factory.hpp:76] Creating layer inception_4e/3x3_reduce
I0315 23:59:43.422523  8308 net.cpp:106] Creating Layer inception_4e/3x3_reduce
I0315 23:59:43.422528  8308 net.cpp:454] inception_4e/3x3_reduce <- inception_4d/output_inception_4d/output_0_split_2
I0315 23:59:43.422538  8308 net.cpp:411] inception_4e/3x3_reduce -> inception_4e/3x3_reduce
I0315 23:59:43.424906  8308 net.cpp:150] Setting up inception_4e/3x3_reduce
I0315 23:59:43.424919  8308 net.cpp:157] Top shape: 20 160 8 8 (204800)
I0315 23:59:43.424922  8308 net.cpp:165] Memory required for data: 410737464
I0315 23:59:43.424929  8308 layer_factory.hpp:76] Creating layer inception_4e/relu_3x3_reduce
I0315 23:59:43.424937  8308 net.cpp:106] Creating Layer inception_4e/relu_3x3_reduce
I0315 23:59:43.424942  8308 net.cpp:454] inception_4e/relu_3x3_reduce <- inception_4e/3x3_reduce
I0315 23:59:43.424947  8308 net.cpp:397] inception_4e/relu_3x3_reduce -> inception_4e/3x3_reduce (in-place)
I0315 23:59:43.425338  8308 net.cpp:150] Setting up inception_4e/relu_3x3_reduce
I0315 23:59:43.425349  8308 net.cpp:157] Top shape: 20 160 8 8 (204800)
I0315 23:59:43.425354  8308 net.cpp:165] Memory required for data: 411556664
I0315 23:59:43.425357  8308 layer_factory.hpp:76] Creating layer inception_4e/3x3_reduce_bn
I0315 23:59:43.425364  8308 net.cpp:106] Creating Layer inception_4e/3x3_reduce_bn
I0315 23:59:43.425369  8308 net.cpp:454] inception_4e/3x3_reduce_bn <- inception_4e/3x3_reduce
I0315 23:59:43.425376  8308 net.cpp:411] inception_4e/3x3_reduce_bn -> inception_4e/3x3_reduce_bn
I0315 23:59:43.425673  8308 net.cpp:150] Setting up inception_4e/3x3_reduce_bn
I0315 23:59:43.425681  8308 net.cpp:157] Top shape: 20 160 8 8 (204800)
I0315 23:59:43.425684  8308 net.cpp:165] Memory required for data: 412375864
I0315 23:59:43.425693  8308 layer_factory.hpp:76] Creating layer inception_4e/3x3
I0315 23:59:43.425715  8308 net.cpp:106] Creating Layer inception_4e/3x3
I0315 23:59:43.425719  8308 net.cpp:454] inception_4e/3x3 <- inception_4e/3x3_reduce_bn
I0315 23:59:43.425726  8308 net.cpp:411] inception_4e/3x3 -> inception_4e/3x3
I0315 23:59:43.430408  8308 net.cpp:150] Setting up inception_4e/3x3
I0315 23:59:43.430421  8308 net.cpp:157] Top shape: 20 320 8 8 (409600)
I0315 23:59:43.430424  8308 net.cpp:165] Memory required for data: 414014264
I0315 23:59:43.430433  8308 layer_factory.hpp:76] Creating layer inception_4e/relu_3x3
I0315 23:59:43.430439  8308 net.cpp:106] Creating Layer inception_4e/relu_3x3
I0315 23:59:43.430444  8308 net.cpp:454] inception_4e/relu_3x3 <- inception_4e/3x3
I0315 23:59:43.430451  8308 net.cpp:397] inception_4e/relu_3x3 -> inception_4e/3x3 (in-place)
I0315 23:59:43.430842  8308 net.cpp:150] Setting up inception_4e/relu_3x3
I0315 23:59:43.430853  8308 net.cpp:157] Top shape: 20 320 8 8 (409600)
I0315 23:59:43.430857  8308 net.cpp:165] Memory required for data: 415652664
I0315 23:59:43.430860  8308 layer_factory.hpp:76] Creating layer inception_4e/3x3_bn
I0315 23:59:43.430869  8308 net.cpp:106] Creating Layer inception_4e/3x3_bn
I0315 23:59:43.430873  8308 net.cpp:454] inception_4e/3x3_bn <- inception_4e/3x3
I0315 23:59:43.430879  8308 net.cpp:411] inception_4e/3x3_bn -> inception_4e/3x3_bn
I0315 23:59:43.431216  8308 net.cpp:150] Setting up inception_4e/3x3_bn
I0315 23:59:43.431223  8308 net.cpp:157] Top shape: 20 320 8 8 (409600)
I0315 23:59:43.431226  8308 net.cpp:165] Memory required for data: 417291064
I0315 23:59:43.431234  8308 layer_factory.hpp:76] Creating layer inception_4e/5x5_reduce
I0315 23:59:43.431244  8308 net.cpp:106] Creating Layer inception_4e/5x5_reduce
I0315 23:59:43.431248  8308 net.cpp:454] inception_4e/5x5_reduce <- inception_4d/output_inception_4d/output_0_split_3
I0315 23:59:43.431257  8308 net.cpp:411] inception_4e/5x5_reduce -> inception_4e/5x5_reduce
I0315 23:59:43.432715  8308 net.cpp:150] Setting up inception_4e/5x5_reduce
I0315 23:59:43.432729  8308 net.cpp:157] Top shape: 20 32 8 8 (40960)
I0315 23:59:43.432734  8308 net.cpp:165] Memory required for data: 417454904
I0315 23:59:43.432740  8308 layer_factory.hpp:76] Creating layer inception_4e/relu_5x5_reduce
I0315 23:59:43.432746  8308 net.cpp:106] Creating Layer inception_4e/relu_5x5_reduce
I0315 23:59:43.432750  8308 net.cpp:454] inception_4e/relu_5x5_reduce <- inception_4e/5x5_reduce
I0315 23:59:43.432756  8308 net.cpp:397] inception_4e/relu_5x5_reduce -> inception_4e/5x5_reduce (in-place)
I0315 23:59:43.433006  8308 net.cpp:150] Setting up inception_4e/relu_5x5_reduce
I0315 23:59:43.433017  8308 net.cpp:157] Top shape: 20 32 8 8 (40960)
I0315 23:59:43.433019  8308 net.cpp:165] Memory required for data: 417618744
I0315 23:59:43.433022  8308 layer_factory.hpp:76] Creating layer inception_4e/5x5_reduce_bn
I0315 23:59:43.433032  8308 net.cpp:106] Creating Layer inception_4e/5x5_reduce_bn
I0315 23:59:43.433035  8308 net.cpp:454] inception_4e/5x5_reduce_bn <- inception_4e/5x5_reduce
I0315 23:59:43.433040  8308 net.cpp:411] inception_4e/5x5_reduce_bn -> inception_4e/5x5_reduce_bn
I0315 23:59:43.433336  8308 net.cpp:150] Setting up inception_4e/5x5_reduce_bn
I0315 23:59:43.433344  8308 net.cpp:157] Top shape: 20 32 8 8 (40960)
I0315 23:59:43.433346  8308 net.cpp:165] Memory required for data: 417782584
I0315 23:59:43.433354  8308 layer_factory.hpp:76] Creating layer inception_4e/5x5
I0315 23:59:43.433370  8308 net.cpp:106] Creating Layer inception_4e/5x5
I0315 23:59:43.433374  8308 net.cpp:454] inception_4e/5x5 <- inception_4e/5x5_reduce_bn
I0315 23:59:43.433382  8308 net.cpp:411] inception_4e/5x5 -> inception_4e/5x5
I0315 23:59:43.435252  8308 net.cpp:150] Setting up inception_4e/5x5
I0315 23:59:43.435266  8308 net.cpp:157] Top shape: 20 128 8 8 (163840)
I0315 23:59:43.435268  8308 net.cpp:165] Memory required for data: 418437944
I0315 23:59:43.435276  8308 layer_factory.hpp:76] Creating layer inception_4e/relu_5x5
I0315 23:59:43.435283  8308 net.cpp:106] Creating Layer inception_4e/relu_5x5
I0315 23:59:43.435302  8308 net.cpp:454] inception_4e/relu_5x5 <- inception_4e/5x5
I0315 23:59:43.435308  8308 net.cpp:397] inception_4e/relu_5x5 -> inception_4e/5x5 (in-place)
I0315 23:59:43.435699  8308 net.cpp:150] Setting up inception_4e/relu_5x5
I0315 23:59:43.435711  8308 net.cpp:157] Top shape: 20 128 8 8 (163840)
I0315 23:59:43.435714  8308 net.cpp:165] Memory required for data: 419093304
I0315 23:59:43.435719  8308 layer_factory.hpp:76] Creating layer inception_4e/5x5_bn
I0315 23:59:43.435727  8308 net.cpp:106] Creating Layer inception_4e/5x5_bn
I0315 23:59:43.435731  8308 net.cpp:454] inception_4e/5x5_bn <- inception_4e/5x5
I0315 23:59:43.435741  8308 net.cpp:411] inception_4e/5x5_bn -> inception_4e/5x5_bn
I0315 23:59:43.436033  8308 net.cpp:150] Setting up inception_4e/5x5_bn
I0315 23:59:43.436040  8308 net.cpp:157] Top shape: 20 128 8 8 (163840)
I0315 23:59:43.436043  8308 net.cpp:165] Memory required for data: 419748664
I0315 23:59:43.436051  8308 layer_factory.hpp:76] Creating layer inception_4e/pool
I0315 23:59:43.436058  8308 net.cpp:106] Creating Layer inception_4e/pool
I0315 23:59:43.436061  8308 net.cpp:454] inception_4e/pool <- inception_4d/output_inception_4d/output_0_split_4
I0315 23:59:43.436067  8308 net.cpp:411] inception_4e/pool -> inception_4e/pool
I0315 23:59:43.436357  8308 net.cpp:150] Setting up inception_4e/pool
I0315 23:59:43.436367  8308 net.cpp:157] Top shape: 20 528 8 8 (675840)
I0315 23:59:43.436369  8308 net.cpp:165] Memory required for data: 422452024
I0315 23:59:43.436373  8308 layer_factory.hpp:76] Creating layer inception_4e/pool_proj
I0315 23:59:43.436384  8308 net.cpp:106] Creating Layer inception_4e/pool_proj
I0315 23:59:43.436388  8308 net.cpp:454] inception_4e/pool_proj <- inception_4e/pool
I0315 23:59:43.436394  8308 net.cpp:411] inception_4e/pool_proj -> inception_4e/pool_proj
I0315 23:59:43.438125  8308 net.cpp:150] Setting up inception_4e/pool_proj
I0315 23:59:43.438140  8308 net.cpp:157] Top shape: 20 128 8 8 (163840)
I0315 23:59:43.438144  8308 net.cpp:165] Memory required for data: 423107384
I0315 23:59:43.438151  8308 layer_factory.hpp:76] Creating layer inception_4e/relu_pool_proj
I0315 23:59:43.438158  8308 net.cpp:106] Creating Layer inception_4e/relu_pool_proj
I0315 23:59:43.438161  8308 net.cpp:454] inception_4e/relu_pool_proj <- inception_4e/pool_proj
I0315 23:59:43.438168  8308 net.cpp:397] inception_4e/relu_pool_proj -> inception_4e/pool_proj (in-place)
I0315 23:59:43.438406  8308 net.cpp:150] Setting up inception_4e/relu_pool_proj
I0315 23:59:43.438416  8308 net.cpp:157] Top shape: 20 128 8 8 (163840)
I0315 23:59:43.438418  8308 net.cpp:165] Memory required for data: 423762744
I0315 23:59:43.438422  8308 layer_factory.hpp:76] Creating layer inception_4e/pool_proj_bn
I0315 23:59:43.438431  8308 net.cpp:106] Creating Layer inception_4e/pool_proj_bn
I0315 23:59:43.438434  8308 net.cpp:454] inception_4e/pool_proj_bn <- inception_4e/pool_proj
I0315 23:59:43.438441  8308 net.cpp:411] inception_4e/pool_proj_bn -> inception_4e/pool_proj_bn
I0315 23:59:43.438730  8308 net.cpp:150] Setting up inception_4e/pool_proj_bn
I0315 23:59:43.438738  8308 net.cpp:157] Top shape: 20 128 8 8 (163840)
I0315 23:59:43.438740  8308 net.cpp:165] Memory required for data: 424418104
I0315 23:59:43.438748  8308 layer_factory.hpp:76] Creating layer inception_4e/output
I0315 23:59:43.438755  8308 net.cpp:106] Creating Layer inception_4e/output
I0315 23:59:43.438758  8308 net.cpp:454] inception_4e/output <- inception_4e/1x1_bn
I0315 23:59:43.438762  8308 net.cpp:454] inception_4e/output <- inception_4e/3x3_bn
I0315 23:59:43.438766  8308 net.cpp:454] inception_4e/output <- inception_4e/5x5_bn
I0315 23:59:43.438771  8308 net.cpp:454] inception_4e/output <- inception_4e/pool_proj_bn
I0315 23:59:43.438777  8308 net.cpp:411] inception_4e/output -> inception_4e/output
I0315 23:59:43.438809  8308 net.cpp:150] Setting up inception_4e/output
I0315 23:59:43.438817  8308 net.cpp:157] Top shape: 20 832 8 8 (1064960)
I0315 23:59:43.438819  8308 net.cpp:165] Memory required for data: 428677944
I0315 23:59:43.438834  8308 layer_factory.hpp:76] Creating layer pool4/3x3_s2
I0315 23:59:43.438841  8308 net.cpp:106] Creating Layer pool4/3x3_s2
I0315 23:59:43.438844  8308 net.cpp:454] pool4/3x3_s2 <- inception_4e/output
I0315 23:59:43.438850  8308 net.cpp:411] pool4/3x3_s2 -> pool4/3x3_s2
I0315 23:59:43.439299  8308 net.cpp:150] Setting up pool4/3x3_s2
I0315 23:59:43.439311  8308 net.cpp:157] Top shape: 20 832 4 4 (266240)
I0315 23:59:43.439313  8308 net.cpp:165] Memory required for data: 429742904
I0315 23:59:43.439317  8308 layer_factory.hpp:76] Creating layer pool4/3x3_s2_pool4/3x3_s2_0_split
I0315 23:59:43.439324  8308 net.cpp:106] Creating Layer pool4/3x3_s2_pool4/3x3_s2_0_split
I0315 23:59:43.439327  8308 net.cpp:454] pool4/3x3_s2_pool4/3x3_s2_0_split <- pool4/3x3_s2
I0315 23:59:43.439333  8308 net.cpp:411] pool4/3x3_s2_pool4/3x3_s2_0_split -> pool4/3x3_s2_pool4/3x3_s2_0_split_0
I0315 23:59:43.439342  8308 net.cpp:411] pool4/3x3_s2_pool4/3x3_s2_0_split -> pool4/3x3_s2_pool4/3x3_s2_0_split_1
I0315 23:59:43.439348  8308 net.cpp:411] pool4/3x3_s2_pool4/3x3_s2_0_split -> pool4/3x3_s2_pool4/3x3_s2_0_split_2
I0315 23:59:43.439354  8308 net.cpp:411] pool4/3x3_s2_pool4/3x3_s2_0_split -> pool4/3x3_s2_pool4/3x3_s2_0_split_3
I0315 23:59:43.439438  8308 net.cpp:150] Setting up pool4/3x3_s2_pool4/3x3_s2_0_split
I0315 23:59:43.439445  8308 net.cpp:157] Top shape: 20 832 4 4 (266240)
I0315 23:59:43.439450  8308 net.cpp:157] Top shape: 20 832 4 4 (266240)
I0315 23:59:43.439453  8308 net.cpp:157] Top shape: 20 832 4 4 (266240)
I0315 23:59:43.439456  8308 net.cpp:157] Top shape: 20 832 4 4 (266240)
I0315 23:59:43.439460  8308 net.cpp:165] Memory required for data: 434002744
I0315 23:59:43.439462  8308 layer_factory.hpp:76] Creating layer inception_5a/1x1
I0315 23:59:43.439471  8308 net.cpp:106] Creating Layer inception_5a/1x1
I0315 23:59:43.439476  8308 net.cpp:454] inception_5a/1x1 <- pool4/3x3_s2_pool4/3x3_s2_0_split_0
I0315 23:59:43.439482  8308 net.cpp:411] inception_5a/1x1 -> inception_5a/1x1
I0315 23:59:43.442564  8308 net.cpp:150] Setting up inception_5a/1x1
I0315 23:59:43.442577  8308 net.cpp:157] Top shape: 20 256 4 4 (81920)
I0315 23:59:43.442580  8308 net.cpp:165] Memory required for data: 434330424
I0315 23:59:43.442589  8308 layer_factory.hpp:76] Creating layer inception_5a/relu_1x1
I0315 23:59:43.442595  8308 net.cpp:106] Creating Layer inception_5a/relu_1x1
I0315 23:59:43.442598  8308 net.cpp:454] inception_5a/relu_1x1 <- inception_5a/1x1
I0315 23:59:43.442605  8308 net.cpp:397] inception_5a/relu_1x1 -> inception_5a/1x1 (in-place)
I0315 23:59:43.442847  8308 net.cpp:150] Setting up inception_5a/relu_1x1
I0315 23:59:43.442857  8308 net.cpp:157] Top shape: 20 256 4 4 (81920)
I0315 23:59:43.442859  8308 net.cpp:165] Memory required for data: 434658104
I0315 23:59:43.442863  8308 layer_factory.hpp:76] Creating layer inception_5a/1x1_bn
I0315 23:59:43.442873  8308 net.cpp:106] Creating Layer inception_5a/1x1_bn
I0315 23:59:43.442876  8308 net.cpp:454] inception_5a/1x1_bn <- inception_5a/1x1
I0315 23:59:43.442883  8308 net.cpp:411] inception_5a/1x1_bn -> inception_5a/1x1_bn
I0315 23:59:43.443177  8308 net.cpp:150] Setting up inception_5a/1x1_bn
I0315 23:59:43.443192  8308 net.cpp:157] Top shape: 20 256 4 4 (81920)
I0315 23:59:43.443195  8308 net.cpp:165] Memory required for data: 434985784
I0315 23:59:43.443203  8308 layer_factory.hpp:76] Creating layer inception_5a/3x3_reduce
I0315 23:59:43.443212  8308 net.cpp:106] Creating Layer inception_5a/3x3_reduce
I0315 23:59:43.443217  8308 net.cpp:454] inception_5a/3x3_reduce <- pool4/3x3_s2_pool4/3x3_s2_0_split_1
I0315 23:59:43.443222  8308 net.cpp:411] inception_5a/3x3_reduce -> inception_5a/3x3_reduce
I0315 23:59:43.445996  8308 net.cpp:150] Setting up inception_5a/3x3_reduce
I0315 23:59:43.446010  8308 net.cpp:157] Top shape: 20 160 4 4 (51200)
I0315 23:59:43.446014  8308 net.cpp:165] Memory required for data: 435190584
I0315 23:59:43.446022  8308 layer_factory.hpp:76] Creating layer inception_5a/relu_3x3_reduce
I0315 23:59:43.446027  8308 net.cpp:106] Creating Layer inception_5a/relu_3x3_reduce
I0315 23:59:43.446045  8308 net.cpp:454] inception_5a/relu_3x3_reduce <- inception_5a/3x3_reduce
I0315 23:59:43.446050  8308 net.cpp:397] inception_5a/relu_3x3_reduce -> inception_5a/3x3_reduce (in-place)
I0315 23:59:43.446439  8308 net.cpp:150] Setting up inception_5a/relu_3x3_reduce
I0315 23:59:43.446450  8308 net.cpp:157] Top shape: 20 160 4 4 (51200)
I0315 23:59:43.446454  8308 net.cpp:165] Memory required for data: 435395384
I0315 23:59:43.446456  8308 layer_factory.hpp:76] Creating layer inception_5a/3x3_reduce_bn
I0315 23:59:43.446465  8308 net.cpp:106] Creating Layer inception_5a/3x3_reduce_bn
I0315 23:59:43.446470  8308 net.cpp:454] inception_5a/3x3_reduce_bn <- inception_5a/3x3_reduce
I0315 23:59:43.446477  8308 net.cpp:411] inception_5a/3x3_reduce_bn -> inception_5a/3x3_reduce_bn
I0315 23:59:43.446784  8308 net.cpp:150] Setting up inception_5a/3x3_reduce_bn
I0315 23:59:43.446794  8308 net.cpp:157] Top shape: 20 160 4 4 (51200)
I0315 23:59:43.446796  8308 net.cpp:165] Memory required for data: 435600184
I0315 23:59:43.446821  8308 layer_factory.hpp:76] Creating layer inception_5a/3x3
I0315 23:59:43.446830  8308 net.cpp:106] Creating Layer inception_5a/3x3
I0315 23:59:43.446835  8308 net.cpp:454] inception_5a/3x3 <- inception_5a/3x3_reduce_bn
I0315 23:59:43.446841  8308 net.cpp:411] inception_5a/3x3 -> inception_5a/3x3
I0315 23:59:43.451697  8308 net.cpp:150] Setting up inception_5a/3x3
I0315 23:59:43.451711  8308 net.cpp:157] Top shape: 20 320 4 4 (102400)
I0315 23:59:43.451715  8308 net.cpp:165] Memory required for data: 436009784
I0315 23:59:43.451725  8308 layer_factory.hpp:76] Creating layer inception_5a/relu_3x3
I0315 23:59:43.451731  8308 net.cpp:106] Creating Layer inception_5a/relu_3x3
I0315 23:59:43.451742  8308 net.cpp:454] inception_5a/relu_3x3 <- inception_5a/3x3
I0315 23:59:43.451748  8308 net.cpp:397] inception_5a/relu_3x3 -> inception_5a/3x3 (in-place)
I0315 23:59:43.452148  8308 net.cpp:150] Setting up inception_5a/relu_3x3
I0315 23:59:43.452162  8308 net.cpp:157] Top shape: 20 320 4 4 (102400)
I0315 23:59:43.452164  8308 net.cpp:165] Memory required for data: 436419384
I0315 23:59:43.452168  8308 layer_factory.hpp:76] Creating layer inception_5a/3x3_bn
I0315 23:59:43.452180  8308 net.cpp:106] Creating Layer inception_5a/3x3_bn
I0315 23:59:43.452184  8308 net.cpp:454] inception_5a/3x3_bn <- inception_5a/3x3
I0315 23:59:43.452193  8308 net.cpp:411] inception_5a/3x3_bn -> inception_5a/3x3_bn
I0315 23:59:43.452544  8308 net.cpp:150] Setting up inception_5a/3x3_bn
I0315 23:59:43.452553  8308 net.cpp:157] Top shape: 20 320 4 4 (102400)
I0315 23:59:43.452556  8308 net.cpp:165] Memory required for data: 436828984
I0315 23:59:43.452564  8308 layer_factory.hpp:76] Creating layer inception_5a/5x5_reduce
I0315 23:59:43.452574  8308 net.cpp:106] Creating Layer inception_5a/5x5_reduce
I0315 23:59:43.452579  8308 net.cpp:454] inception_5a/5x5_reduce <- pool4/3x3_s2_pool4/3x3_s2_0_split_2
I0315 23:59:43.452584  8308 net.cpp:411] inception_5a/5x5_reduce -> inception_5a/5x5_reduce
I0315 23:59:43.454109  8308 net.cpp:150] Setting up inception_5a/5x5_reduce
I0315 23:59:43.454123  8308 net.cpp:157] Top shape: 20 32 4 4 (10240)
I0315 23:59:43.454133  8308 net.cpp:165] Memory required for data: 436869944
I0315 23:59:43.454139  8308 layer_factory.hpp:76] Creating layer inception_5a/relu_5x5_reduce
I0315 23:59:43.454145  8308 net.cpp:106] Creating Layer inception_5a/relu_5x5_reduce
I0315 23:59:43.454149  8308 net.cpp:454] inception_5a/relu_5x5_reduce <- inception_5a/5x5_reduce
I0315 23:59:43.454157  8308 net.cpp:397] inception_5a/relu_5x5_reduce -> inception_5a/5x5_reduce (in-place)
I0315 23:59:43.454397  8308 net.cpp:150] Setting up inception_5a/relu_5x5_reduce
I0315 23:59:43.454406  8308 net.cpp:157] Top shape: 20 32 4 4 (10240)
I0315 23:59:43.454409  8308 net.cpp:165] Memory required for data: 436910904
I0315 23:59:43.454412  8308 layer_factory.hpp:76] Creating layer inception_5a/5x5_reduce_bn
I0315 23:59:43.454421  8308 net.cpp:106] Creating Layer inception_5a/5x5_reduce_bn
I0315 23:59:43.454438  8308 net.cpp:454] inception_5a/5x5_reduce_bn <- inception_5a/5x5_reduce
I0315 23:59:43.454447  8308 net.cpp:411] inception_5a/5x5_reduce_bn -> inception_5a/5x5_reduce_bn
I0315 23:59:43.454768  8308 net.cpp:150] Setting up inception_5a/5x5_reduce_bn
I0315 23:59:43.454777  8308 net.cpp:157] Top shape: 20 32 4 4 (10240)
I0315 23:59:43.454780  8308 net.cpp:165] Memory required for data: 436951864
I0315 23:59:43.454787  8308 layer_factory.hpp:76] Creating layer inception_5a/5x5
I0315 23:59:43.454797  8308 net.cpp:106] Creating Layer inception_5a/5x5
I0315 23:59:43.454802  8308 net.cpp:454] inception_5a/5x5 <- inception_5a/5x5_reduce_bn
I0315 23:59:43.454807  8308 net.cpp:411] inception_5a/5x5 -> inception_5a/5x5
I0315 23:59:43.456718  8308 net.cpp:150] Setting up inception_5a/5x5
I0315 23:59:43.456730  8308 net.cpp:157] Top shape: 20 128 4 4 (40960)
I0315 23:59:43.456734  8308 net.cpp:165] Memory required for data: 437115704
I0315 23:59:43.456740  8308 layer_factory.hpp:76] Creating layer inception_5a/relu_5x5
I0315 23:59:43.456746  8308 net.cpp:106] Creating Layer inception_5a/relu_5x5
I0315 23:59:43.456750  8308 net.cpp:454] inception_5a/relu_5x5 <- inception_5a/5x5
I0315 23:59:43.456758  8308 net.cpp:397] inception_5a/relu_5x5 -> inception_5a/5x5 (in-place)
I0315 23:59:43.457270  8308 net.cpp:150] Setting up inception_5a/relu_5x5
I0315 23:59:43.457283  8308 net.cpp:157] Top shape: 20 128 4 4 (40960)
I0315 23:59:43.457285  8308 net.cpp:165] Memory required for data: 437279544
I0315 23:59:43.457288  8308 layer_factory.hpp:76] Creating layer inception_5a/5x5_bn
I0315 23:59:43.457298  8308 net.cpp:106] Creating Layer inception_5a/5x5_bn
I0315 23:59:43.457301  8308 net.cpp:454] inception_5a/5x5_bn <- inception_5a/5x5
I0315 23:59:43.457307  8308 net.cpp:411] inception_5a/5x5_bn -> inception_5a/5x5_bn
I0315 23:59:43.457612  8308 net.cpp:150] Setting up inception_5a/5x5_bn
I0315 23:59:43.457619  8308 net.cpp:157] Top shape: 20 128 4 4 (40960)
I0315 23:59:43.457623  8308 net.cpp:165] Memory required for data: 437443384
I0315 23:59:43.457630  8308 layer_factory.hpp:76] Creating layer inception_5a/pool
I0315 23:59:43.457638  8308 net.cpp:106] Creating Layer inception_5a/pool
I0315 23:59:43.457643  8308 net.cpp:454] inception_5a/pool <- pool4/3x3_s2_pool4/3x3_s2_0_split_3
I0315 23:59:43.457648  8308 net.cpp:411] inception_5a/pool -> inception_5a/pool
I0315 23:59:43.457949  8308 net.cpp:150] Setting up inception_5a/pool
I0315 23:59:43.457959  8308 net.cpp:157] Top shape: 20 832 4 4 (266240)
I0315 23:59:43.457962  8308 net.cpp:165] Memory required for data: 438508344
I0315 23:59:43.457965  8308 layer_factory.hpp:76] Creating layer inception_5a/pool_proj
I0315 23:59:43.457974  8308 net.cpp:106] Creating Layer inception_5a/pool_proj
I0315 23:59:43.457978  8308 net.cpp:454] inception_5a/pool_proj <- inception_5a/pool
I0315 23:59:43.457988  8308 net.cpp:411] inception_5a/pool_proj -> inception_5a/pool_proj
I0315 23:59:43.460790  8308 net.cpp:150] Setting up inception_5a/pool_proj
I0315 23:59:43.460809  8308 net.cpp:157] Top shape: 20 128 4 4 (40960)
I0315 23:59:43.460813  8308 net.cpp:165] Memory required for data: 438672184
I0315 23:59:43.460821  8308 layer_factory.hpp:76] Creating layer inception_5a/relu_pool_proj
I0315 23:59:43.460830  8308 net.cpp:106] Creating Layer inception_5a/relu_pool_proj
I0315 23:59:43.460835  8308 net.cpp:454] inception_5a/relu_pool_proj <- inception_5a/pool_proj
I0315 23:59:43.460841  8308 net.cpp:397] inception_5a/relu_pool_proj -> inception_5a/pool_proj (in-place)
I0315 23:59:43.461086  8308 net.cpp:150] Setting up inception_5a/relu_pool_proj
I0315 23:59:43.461096  8308 net.cpp:157] Top shape: 20 128 4 4 (40960)
I0315 23:59:43.461098  8308 net.cpp:165] Memory required for data: 438836024
I0315 23:59:43.461102  8308 layer_factory.hpp:76] Creating layer inception_5a/pool_proj_bn
I0315 23:59:43.461108  8308 net.cpp:106] Creating Layer inception_5a/pool_proj_bn
I0315 23:59:43.461112  8308 net.cpp:454] inception_5a/pool_proj_bn <- inception_5a/pool_proj
I0315 23:59:43.461120  8308 net.cpp:411] inception_5a/pool_proj_bn -> inception_5a/pool_proj_bn
I0315 23:59:43.461441  8308 net.cpp:150] Setting up inception_5a/pool_proj_bn
I0315 23:59:43.461449  8308 net.cpp:157] Top shape: 20 128 4 4 (40960)
I0315 23:59:43.461452  8308 net.cpp:165] Memory required for data: 438999864
I0315 23:59:43.461459  8308 layer_factory.hpp:76] Creating layer inception_5a/output
I0315 23:59:43.461468  8308 net.cpp:106] Creating Layer inception_5a/output
I0315 23:59:43.461472  8308 net.cpp:454] inception_5a/output <- inception_5a/1x1_bn
I0315 23:59:43.461477  8308 net.cpp:454] inception_5a/output <- inception_5a/3x3_bn
I0315 23:59:43.461480  8308 net.cpp:454] inception_5a/output <- inception_5a/5x5_bn
I0315 23:59:43.461484  8308 net.cpp:454] inception_5a/output <- inception_5a/pool_proj_bn
I0315 23:59:43.461489  8308 net.cpp:411] inception_5a/output -> inception_5a/output
I0315 23:59:43.461524  8308 net.cpp:150] Setting up inception_5a/output
I0315 23:59:43.461529  8308 net.cpp:157] Top shape: 20 832 4 4 (266240)
I0315 23:59:43.461531  8308 net.cpp:165] Memory required for data: 440064824
I0315 23:59:43.461534  8308 layer_factory.hpp:76] Creating layer inception_5a/output_inception_5a/output_0_split
I0315 23:59:43.461540  8308 net.cpp:106] Creating Layer inception_5a/output_inception_5a/output_0_split
I0315 23:59:43.461544  8308 net.cpp:454] inception_5a/output_inception_5a/output_0_split <- inception_5a/output
I0315 23:59:43.461550  8308 net.cpp:411] inception_5a/output_inception_5a/output_0_split -> inception_5a/output_inception_5a/output_0_split_0
I0315 23:59:43.461557  8308 net.cpp:411] inception_5a/output_inception_5a/output_0_split -> inception_5a/output_inception_5a/output_0_split_1
I0315 23:59:43.461563  8308 net.cpp:411] inception_5a/output_inception_5a/output_0_split -> inception_5a/output_inception_5a/output_0_split_2
I0315 23:59:43.461570  8308 net.cpp:411] inception_5a/output_inception_5a/output_0_split -> inception_5a/output_inception_5a/output_0_split_3
I0315 23:59:43.461654  8308 net.cpp:150] Setting up inception_5a/output_inception_5a/output_0_split
I0315 23:59:43.461663  8308 net.cpp:157] Top shape: 20 832 4 4 (266240)
I0315 23:59:43.461668  8308 net.cpp:157] Top shape: 20 832 4 4 (266240)
I0315 23:59:43.461671  8308 net.cpp:157] Top shape: 20 832 4 4 (266240)
I0315 23:59:43.461674  8308 net.cpp:157] Top shape: 20 832 4 4 (266240)
I0315 23:59:43.461678  8308 net.cpp:165] Memory required for data: 444324664
I0315 23:59:43.461680  8308 layer_factory.hpp:76] Creating layer inception_5b/1x1
I0315 23:59:43.461693  8308 net.cpp:106] Creating Layer inception_5b/1x1
I0315 23:59:43.461695  8308 net.cpp:454] inception_5b/1x1 <- inception_5a/output_inception_5a/output_0_split_0
I0315 23:59:43.461701  8308 net.cpp:411] inception_5b/1x1 -> inception_5b/1x1
I0315 23:59:43.465517  8308 net.cpp:150] Setting up inception_5b/1x1
I0315 23:59:43.465529  8308 net.cpp:157] Top shape: 20 384 4 4 (122880)
I0315 23:59:43.465533  8308 net.cpp:165] Memory required for data: 444816184
I0315 23:59:43.465540  8308 layer_factory.hpp:76] Creating layer inception_5b/relu_1x1
I0315 23:59:43.465548  8308 net.cpp:106] Creating Layer inception_5b/relu_1x1
I0315 23:59:43.465553  8308 net.cpp:454] inception_5b/relu_1x1 <- inception_5b/1x1
I0315 23:59:43.465559  8308 net.cpp:397] inception_5b/relu_1x1 -> inception_5b/1x1 (in-place)
I0315 23:59:43.465999  8308 net.cpp:150] Setting up inception_5b/relu_1x1
I0315 23:59:43.466012  8308 net.cpp:157] Top shape: 20 384 4 4 (122880)
I0315 23:59:43.466014  8308 net.cpp:165] Memory required for data: 445307704
I0315 23:59:43.466018  8308 layer_factory.hpp:76] Creating layer inception_5b/1x1_bn
I0315 23:59:43.466028  8308 net.cpp:106] Creating Layer inception_5b/1x1_bn
I0315 23:59:43.466032  8308 net.cpp:454] inception_5b/1x1_bn <- inception_5b/1x1
I0315 23:59:43.466044  8308 net.cpp:411] inception_5b/1x1_bn -> inception_5b/1x1_bn
I0315 23:59:43.466377  8308 net.cpp:150] Setting up inception_5b/1x1_bn
I0315 23:59:43.466384  8308 net.cpp:157] Top shape: 20 384 4 4 (122880)
I0315 23:59:43.466387  8308 net.cpp:165] Memory required for data: 445799224
I0315 23:59:43.466411  8308 layer_factory.hpp:76] Creating layer inception_5b/3x3_reduce
I0315 23:59:43.466420  8308 net.cpp:106] Creating Layer inception_5b/3x3_reduce
I0315 23:59:43.466424  8308 net.cpp:454] inception_5b/3x3_reduce <- inception_5a/output_inception_5a/output_0_split_1
I0315 23:59:43.466434  8308 net.cpp:411] inception_5b/3x3_reduce -> inception_5b/3x3_reduce
I0315 23:59:43.469310  8308 net.cpp:150] Setting up inception_5b/3x3_reduce
I0315 23:59:43.469324  8308 net.cpp:157] Top shape: 20 192 4 4 (61440)
I0315 23:59:43.469336  8308 net.cpp:165] Memory required for data: 446044984
I0315 23:59:43.469342  8308 layer_factory.hpp:76] Creating layer inception_5b/relu_3x3_reduce
I0315 23:59:43.469348  8308 net.cpp:106] Creating Layer inception_5b/relu_3x3_reduce
I0315 23:59:43.469353  8308 net.cpp:454] inception_5b/relu_3x3_reduce <- inception_5b/3x3_reduce
I0315 23:59:43.469358  8308 net.cpp:397] inception_5b/relu_3x3_reduce -> inception_5b/3x3_reduce (in-place)
I0315 23:59:43.469614  8308 net.cpp:150] Setting up inception_5b/relu_3x3_reduce
I0315 23:59:43.469624  8308 net.cpp:157] Top shape: 20 192 4 4 (61440)
I0315 23:59:43.469627  8308 net.cpp:165] Memory required for data: 446290744
I0315 23:59:43.469631  8308 layer_factory.hpp:76] Creating layer inception_5b/3x3_reduce_bn
I0315 23:59:43.469640  8308 net.cpp:106] Creating Layer inception_5b/3x3_reduce_bn
I0315 23:59:43.469643  8308 net.cpp:454] inception_5b/3x3_reduce_bn <- inception_5b/3x3_reduce
I0315 23:59:43.469650  8308 net.cpp:411] inception_5b/3x3_reduce_bn -> inception_5b/3x3_reduce_bn
I0315 23:59:43.469969  8308 net.cpp:150] Setting up inception_5b/3x3_reduce_bn
I0315 23:59:43.469975  8308 net.cpp:157] Top shape: 20 192 4 4 (61440)
I0315 23:59:43.469979  8308 net.cpp:165] Memory required for data: 446536504
I0315 23:59:43.469986  8308 layer_factory.hpp:76] Creating layer inception_5b/3x3
I0315 23:59:43.469995  8308 net.cpp:106] Creating Layer inception_5b/3x3
I0315 23:59:43.470000  8308 net.cpp:454] inception_5b/3x3 <- inception_5b/3x3_reduce_bn
I0315 23:59:43.470006  8308 net.cpp:411] inception_5b/3x3 -> inception_5b/3x3
I0315 23:59:43.476302  8308 net.cpp:150] Setting up inception_5b/3x3
I0315 23:59:43.476316  8308 net.cpp:157] Top shape: 20 384 4 4 (122880)
I0315 23:59:43.476320  8308 net.cpp:165] Memory required for data: 447028024
I0315 23:59:43.476327  8308 layer_factory.hpp:76] Creating layer inception_5b/relu_3x3
I0315 23:59:43.476333  8308 net.cpp:106] Creating Layer inception_5b/relu_3x3
I0315 23:59:43.476337  8308 net.cpp:454] inception_5b/relu_3x3 <- inception_5b/3x3
I0315 23:59:43.476344  8308 net.cpp:397] inception_5b/relu_3x3 -> inception_5b/3x3 (in-place)
I0315 23:59:43.476609  8308 net.cpp:150] Setting up inception_5b/relu_3x3
I0315 23:59:43.476619  8308 net.cpp:157] Top shape: 20 384 4 4 (122880)
I0315 23:59:43.476622  8308 net.cpp:165] Memory required for data: 447519544
I0315 23:59:43.476626  8308 layer_factory.hpp:76] Creating layer inception_5b/3x3_bn
I0315 23:59:43.476632  8308 net.cpp:106] Creating Layer inception_5b/3x3_bn
I0315 23:59:43.476637  8308 net.cpp:454] inception_5b/3x3_bn <- inception_5b/3x3
I0315 23:59:43.476644  8308 net.cpp:411] inception_5b/3x3_bn -> inception_5b/3x3_bn
I0315 23:59:43.476996  8308 net.cpp:150] Setting up inception_5b/3x3_bn
I0315 23:59:43.477005  8308 net.cpp:157] Top shape: 20 384 4 4 (122880)
I0315 23:59:43.477007  8308 net.cpp:165] Memory required for data: 448011064
I0315 23:59:43.477015  8308 layer_factory.hpp:76] Creating layer inception_5b/5x5_reduce
I0315 23:59:43.477025  8308 net.cpp:106] Creating Layer inception_5b/5x5_reduce
I0315 23:59:43.477030  8308 net.cpp:454] inception_5b/5x5_reduce <- inception_5a/output_inception_5a/output_0_split_2
I0315 23:59:43.477036  8308 net.cpp:411] inception_5b/5x5_reduce -> inception_5b/5x5_reduce
I0315 23:59:43.478693  8308 net.cpp:150] Setting up inception_5b/5x5_reduce
I0315 23:59:43.478708  8308 net.cpp:157] Top shape: 20 48 4 4 (15360)
I0315 23:59:43.478710  8308 net.cpp:165] Memory required for data: 448072504
I0315 23:59:43.478730  8308 layer_factory.hpp:76] Creating layer inception_5b/relu_5x5_reduce
I0315 23:59:43.478737  8308 net.cpp:106] Creating Layer inception_5b/relu_5x5_reduce
I0315 23:59:43.478741  8308 net.cpp:454] inception_5b/relu_5x5_reduce <- inception_5b/5x5_reduce
I0315 23:59:43.478747  8308 net.cpp:397] inception_5b/relu_5x5_reduce -> inception_5b/5x5_reduce (in-place)
I0315 23:59:43.479146  8308 net.cpp:150] Setting up inception_5b/relu_5x5_reduce
I0315 23:59:43.479159  8308 net.cpp:157] Top shape: 20 48 4 4 (15360)
I0315 23:59:43.479163  8308 net.cpp:165] Memory required for data: 448133944
I0315 23:59:43.479166  8308 layer_factory.hpp:76] Creating layer inception_5b/5x5_reduce_bn
I0315 23:59:43.479173  8308 net.cpp:106] Creating Layer inception_5b/5x5_reduce_bn
I0315 23:59:43.479178  8308 net.cpp:454] inception_5b/5x5_reduce_bn <- inception_5b/5x5_reduce
I0315 23:59:43.479187  8308 net.cpp:411] inception_5b/5x5_reduce_bn -> inception_5b/5x5_reduce_bn
I0315 23:59:43.479521  8308 net.cpp:150] Setting up inception_5b/5x5_reduce_bn
I0315 23:59:43.479528  8308 net.cpp:157] Top shape: 20 48 4 4 (15360)
I0315 23:59:43.479532  8308 net.cpp:165] Memory required for data: 448195384
I0315 23:59:43.479539  8308 layer_factory.hpp:76] Creating layer inception_5b/5x5
I0315 23:59:43.479549  8308 net.cpp:106] Creating Layer inception_5b/5x5
I0315 23:59:43.479553  8308 net.cpp:454] inception_5b/5x5 <- inception_5b/5x5_reduce_bn
I0315 23:59:43.479559  8308 net.cpp:411] inception_5b/5x5 -> inception_5b/5x5
I0315 23:59:43.481935  8308 net.cpp:150] Setting up inception_5b/5x5
I0315 23:59:43.481950  8308 net.cpp:157] Top shape: 20 128 4 4 (40960)
I0315 23:59:43.481952  8308 net.cpp:165] Memory required for data: 448359224
I0315 23:59:43.481961  8308 layer_factory.hpp:76] Creating layer inception_5b/relu_5x5
I0315 23:59:43.481966  8308 net.cpp:106] Creating Layer inception_5b/relu_5x5
I0315 23:59:43.481971  8308 net.cpp:454] inception_5b/relu_5x5 <- inception_5b/5x5
I0315 23:59:43.481978  8308 net.cpp:397] inception_5b/relu_5x5 -> inception_5b/5x5 (in-place)
I0315 23:59:43.482224  8308 net.cpp:150] Setting up inception_5b/relu_5x5
I0315 23:59:43.482234  8308 net.cpp:157] Top shape: 20 128 4 4 (40960)
I0315 23:59:43.482236  8308 net.cpp:165] Memory required for data: 448523064
I0315 23:59:43.482240  8308 layer_factory.hpp:76] Creating layer inception_5b/5x5_bn
I0315 23:59:43.482249  8308 net.cpp:106] Creating Layer inception_5b/5x5_bn
I0315 23:59:43.482252  8308 net.cpp:454] inception_5b/5x5_bn <- inception_5b/5x5
I0315 23:59:43.482260  8308 net.cpp:411] inception_5b/5x5_bn -> inception_5b/5x5_bn
I0315 23:59:43.482584  8308 net.cpp:150] Setting up inception_5b/5x5_bn
I0315 23:59:43.482592  8308 net.cpp:157] Top shape: 20 128 4 4 (40960)
I0315 23:59:43.482595  8308 net.cpp:165] Memory required for data: 448686904
I0315 23:59:43.482604  8308 layer_factory.hpp:76] Creating layer inception_5b/pool
I0315 23:59:43.482609  8308 net.cpp:106] Creating Layer inception_5b/pool
I0315 23:59:43.482614  8308 net.cpp:454] inception_5b/pool <- inception_5a/output_inception_5a/output_0_split_3
I0315 23:59:43.482620  8308 net.cpp:411] inception_5b/pool -> inception_5b/pool
I0315 23:59:43.483091  8308 net.cpp:150] Setting up inception_5b/pool
I0315 23:59:43.483103  8308 net.cpp:157] Top shape: 20 832 4 4 (266240)
I0315 23:59:43.483105  8308 net.cpp:165] Memory required for data: 449751864
I0315 23:59:43.483113  8308 layer_factory.hpp:76] Creating layer inception_5b/pool_proj
I0315 23:59:43.483122  8308 net.cpp:106] Creating Layer inception_5b/pool_proj
I0315 23:59:43.483127  8308 net.cpp:454] inception_5b/pool_proj <- inception_5b/pool
I0315 23:59:43.483136  8308 net.cpp:411] inception_5b/pool_proj -> inception_5b/pool_proj
I0315 23:59:43.485569  8308 net.cpp:150] Setting up inception_5b/pool_proj
I0315 23:59:43.485582  8308 net.cpp:157] Top shape: 20 128 4 4 (40960)
I0315 23:59:43.485586  8308 net.cpp:165] Memory required for data: 449915704
I0315 23:59:43.485594  8308 layer_factory.hpp:76] Creating layer inception_5b/relu_pool_proj
I0315 23:59:43.485615  8308 net.cpp:106] Creating Layer inception_5b/relu_pool_proj
I0315 23:59:43.485620  8308 net.cpp:454] inception_5b/relu_pool_proj <- inception_5b/pool_proj
I0315 23:59:43.485625  8308 net.cpp:397] inception_5b/relu_pool_proj -> inception_5b/pool_proj (in-place)
I0315 23:59:43.486029  8308 net.cpp:150] Setting up inception_5b/relu_pool_proj
I0315 23:59:43.486040  8308 net.cpp:157] Top shape: 20 128 4 4 (40960)
I0315 23:59:43.486044  8308 net.cpp:165] Memory required for data: 450079544
I0315 23:59:43.486047  8308 layer_factory.hpp:76] Creating layer inception_5b/pool_proj_bn
I0315 23:59:43.486057  8308 net.cpp:106] Creating Layer inception_5b/pool_proj_bn
I0315 23:59:43.486062  8308 net.cpp:454] inception_5b/pool_proj_bn <- inception_5b/pool_proj
I0315 23:59:43.486068  8308 net.cpp:411] inception_5b/pool_proj_bn -> inception_5b/pool_proj_bn
I0315 23:59:43.486387  8308 net.cpp:150] Setting up inception_5b/pool_proj_bn
I0315 23:59:43.486395  8308 net.cpp:157] Top shape: 20 128 4 4 (40960)
I0315 23:59:43.486398  8308 net.cpp:165] Memory required for data: 450243384
I0315 23:59:43.486413  8308 layer_factory.hpp:76] Creating layer inception_5b/output
I0315 23:59:43.486418  8308 net.cpp:106] Creating Layer inception_5b/output
I0315 23:59:43.486423  8308 net.cpp:454] inception_5b/output <- inception_5b/1x1_bn
I0315 23:59:43.486428  8308 net.cpp:454] inception_5b/output <- inception_5b/3x3_bn
I0315 23:59:43.486431  8308 net.cpp:454] inception_5b/output <- inception_5b/5x5_bn
I0315 23:59:43.486435  8308 net.cpp:454] inception_5b/output <- inception_5b/pool_proj_bn
I0315 23:59:43.486443  8308 net.cpp:411] inception_5b/output -> inception_5b/output
I0315 23:59:43.486477  8308 net.cpp:150] Setting up inception_5b/output
I0315 23:59:43.486492  8308 net.cpp:157] Top shape: 20 1024 4 4 (327680)
I0315 23:59:43.486495  8308 net.cpp:165] Memory required for data: 451554104
I0315 23:59:43.486498  8308 layer_factory.hpp:76] Creating layer pool5/7x7_s1
I0315 23:59:43.486505  8308 net.cpp:106] Creating Layer pool5/7x7_s1
I0315 23:59:43.486508  8308 net.cpp:454] pool5/7x7_s1 <- inception_5b/output
I0315 23:59:43.486513  8308 net.cpp:411] pool5/7x7_s1 -> pool5/7x7_s1
I0315 23:59:43.486959  8308 net.cpp:150] Setting up pool5/7x7_s1
I0315 23:59:43.486970  8308 net.cpp:157] Top shape: 20 1024 1 1 (20480)
I0315 23:59:43.486974  8308 net.cpp:165] Memory required for data: 451636024
I0315 23:59:43.486980  8308 layer_factory.hpp:76] Creating layer pool5/drop_7x7_s1
I0315 23:59:43.486987  8308 net.cpp:106] Creating Layer pool5/drop_7x7_s1
I0315 23:59:43.486991  8308 net.cpp:454] pool5/drop_7x7_s1 <- pool5/7x7_s1
I0315 23:59:43.486999  8308 net.cpp:411] pool5/drop_7x7_s1 -> pool5/drop_7x7_s1
I0315 23:59:43.487056  8308 net.cpp:150] Setting up pool5/drop_7x7_s1
I0315 23:59:43.487063  8308 net.cpp:157] Top shape: 20 1024 1 1 (20480)
I0315 23:59:43.487066  8308 net.cpp:165] Memory required for data: 451717944
I0315 23:59:43.487069  8308 layer_factory.hpp:76] Creating layer loss3/classifier
I0315 23:59:43.487077  8308 net.cpp:106] Creating Layer loss3/classifier
I0315 23:59:43.487082  8308 net.cpp:454] loss3/classifier <- pool5/drop_7x7_s1
I0315 23:59:43.487089  8308 net.cpp:411] loss3/classifier -> loss3/classifier
I0315 23:59:43.494623  8308 net.cpp:150] Setting up loss3/classifier
I0315 23:59:43.494649  8308 net.cpp:157] Top shape: 20 1000 (20000)
I0315 23:59:43.494652  8308 net.cpp:165] Memory required for data: 451797944
I0315 23:59:43.494662  8308 layer_factory.hpp:76] Creating layer loss3/classifier_loss3/classifier_0_split
I0315 23:59:43.494670  8308 net.cpp:106] Creating Layer loss3/classifier_loss3/classifier_0_split
I0315 23:59:43.494675  8308 net.cpp:454] loss3/classifier_loss3/classifier_0_split <- loss3/classifier
I0315 23:59:43.494683  8308 net.cpp:411] loss3/classifier_loss3/classifier_0_split -> loss3/classifier_loss3/classifier_0_split_0
I0315 23:59:43.494693  8308 net.cpp:411] loss3/classifier_loss3/classifier_0_split -> loss3/classifier_loss3/classifier_0_split_1
I0315 23:59:43.494699  8308 net.cpp:411] loss3/classifier_loss3/classifier_0_split -> loss3/classifier_loss3/classifier_0_split_2
I0315 23:59:43.494806  8308 net.cpp:150] Setting up loss3/classifier_loss3/classifier_0_split
I0315 23:59:43.494813  8308 net.cpp:157] Top shape: 20 1000 (20000)
I0315 23:59:43.494817  8308 net.cpp:157] Top shape: 20 1000 (20000)
I0315 23:59:43.494822  8308 net.cpp:157] Top shape: 20 1000 (20000)
I0315 23:59:43.494824  8308 net.cpp:165] Memory required for data: 452037944
I0315 23:59:43.494827  8308 layer_factory.hpp:76] Creating layer loss3/loss3
I0315 23:59:43.494838  8308 net.cpp:106] Creating Layer loss3/loss3
I0315 23:59:43.494843  8308 net.cpp:454] loss3/loss3 <- loss3/classifier_loss3/classifier_0_split_0
I0315 23:59:43.494848  8308 net.cpp:454] loss3/loss3 <- label_data_1_split_6
…
