…
      mirror: false
      crop_size: 128
      mean_value: 104
      mean_value: 117
      mean_value: 123
      force_color: true
      resize_param {
        prob: 1
        resize_mode: FIT_SMALL_SIZE
        height: 144
        width: 144
        pad_mode: MIRRORED
        pad_value: 104
        pad_value: 117
        pad_value: 124
        interp_mode: CUBIC
        center_object: false
        max_angle: 0
      }
    }
    data_param {
      source: "/home/old-ufo/datasets/imagenet/ilsvrc12_val_lmdb"
      batch_size: 250
      backend: LMDB
    }
  }
  layer {
    name: "conv1"
    type: "Convolution"
    bottom: "data"
    top: "conv1"
    param {
      lr_mult: 1
      decay_mult: 1
    }
    param {
      lr_mult: 2
      decay_mult: 0
    }
    convolution_param {
      num_output: 96
      kernel_size: 11
      stride: 4
      weight_filler {
        type: "gaussian"
        std: 0.01
      }
      bias_filler {
        type: "constant"
      }
    }
  }
  layer {
    name: "relu1"
    type: "ReLU"
    bottom: "conv1"
    top: "conv1"
  }
  layer {
    name: "conv1_BN"
    type: "BatchNorm"
    bottom: "conv1"
    top: "conv1_BN"
    param {
      lr_mult: 0
      decay_mult: 0
    }
    param {
      lr_mult: 0
      decay_mult: 0
    }
    param {
      lr_mult: 0
      decay_mult: 0
    }
    include {
      phase: TRAIN
    }
    batch_norm_param {
      use_global_stats: false
      moving_average_fraction: 0.95
    }
  }
  layer {
    name: "conv1_BN"
    type: "BatchNorm"
    bottom: "conv1"
    top: "conv1_BN"
    param {
      lr_mult: 0
      decay_mult: 0
    }
    param {
      lr_mult: 0
      decay_mult: 0
    }
    param {
      lr_mult: 0
      decay_mult: 0
    }
    include {
      phase: TEST
    }
    batch_norm_param {
      use_global_stats: true
      moving_average_fraction: 0.95
    }
  }
  layer {
    name: "pool1"
    type: "Pooling"
    bottom: "conv1_BN"
    top: "pool1"
    pooling_param {
      pool: MAX
      kernel_size: 3
      stride: 2
    }
  }
  layer {
    name: "conv2"
    type: "Convolution"
    bottom: "pool1"
    top: "conv2"
    param {
      lr_mult: 1
      decay_mult: 1
    }
    param {
      lr_mult: 2
      decay_mult: 0
    }
    convolution_param {
      num_output: 256
      pad: 2
      kernel_size: 5
      group: 2
      weight_filler {
        type: "gaussian"
        std: 0.01
      }
      bias_filler {
        type: "constant"
      }
    }
  }
  layer {
    name: "relu2"
    type: "ReLU"
    bottom: "conv2"
    top: "conv2"
  }
  layer {
    name: "conv2_BN"
    type: "BatchNorm"
    bottom: "conv2"
    top: "conv2_BN"
    param {
      lr_mult: 0
      decay_mult: 0
    }
    param {
      lr_mult: 0
      decay_mult: 0
    }
    param {
      lr_mult: 0
      decay_mult: 0
    }
    include {
      phase: TRAIN
    }
    batch_norm_param {
      use_global_stats: false
      moving_average_fraction: 0.95
    }
  }
  layer {
    name: "conv2_BN"
    type: "BatchNorm"
    bottom: "conv2"
    top: "conv2_BN"
    param {
      lr_mult: 0
      decay_mult: 0
    }
    param {
      lr_mult: 0
      decay_mult: 0
    }
    param {
      lr_mult: 0
      decay_mult: 0
    }
    include {
      phase: TEST
    }
    batch_norm_param {
      use_global_stats: true
      moving_average_fraction: 0.95
    }
  }
  layer {
    name: "pool2"
    type: "Pooling"
    bottom: "conv2_BN"
    top: "pool2"
    pooling_param {
      pool: MAX
      kernel_size: 3
      stride: 2
    }
  }
  layer {
    name: "conv3"
    type: "Convolution"
    bottom: "pool2"
    top: "conv3"
    param {
      lr_mult: 1
      decay_mult: 1
    }
    param {
      lr_mult: 2
      decay_mult: 0
    }
    convolution_param {
      num_output: 384
      pad: 1
      kernel_size: 3
      weight_filler {
        type: "gaussian"
        std: 0.01
      }
      bias_filler {
        type: "constant"
      }
    }
  }
  layer {
    name: "relu3"
    type: "ReLU"
    bottom: "conv3"
    top: "conv3"
  }
  layer {
    name: "conv3_BN"
    type: "BatchNorm"
    bottom: "conv3"
    top: "conv3_BN"
    param {
      lr_mult: 0
      decay_mult: 0
    }
    param {
      lr_mult: 0
      decay_mult: 0
    }
    param {
      lr_mult: 0
      decay_mult: 0
    }
    include {
      phase: TRAIN
    }
    batch_norm_param {
      use_global_stats: false
      moving_average_fraction: 0.95
    }
  }
  layer {
    name: "conv3_BN"
    type: "BatchNorm"
    bottom: "conv3"
    top: "conv3_BN"
    param {
      lr_mult: 0
      decay_mult: 0
    }
    param {
      lr_mult: 0
      decay_mult: 0
    }
    param {
      lr_mult: 0
      decay_mult: 0
    }
    include {
      phase: TEST
    }
    batch_norm_param {
      use_global_stats: true
      moving_average_fraction: 0.95
    }
  }
  layer {
    name: "conv4"
    type: "Convolution"
    bottom: "conv3_BN"
    top: "conv4"
    param {
      lr_mult: 1
      decay_mult: 1
    }
    param {
      lr_mult: 2
      decay_mult: 0
    }
    convolution_param {
      num_output: 384
      pad: 1
      kernel_size: 3
      group: 2
      weight_filler {
        type: "gaussian"
        std: 0.01
      }
      bias_filler {
        type: "constant"
      }
    }
  }
  layer {
    name: "relu4"
    type: "ReLU"
    bottom: "conv4"
    top: "conv4"
  }
  layer {
    name: "conv4_BN"
    type: "BatchNorm"
    bottom: "conv4"
    top: "conv4_BN"
    param {
      lr_mult: 0
      decay_mult: 0
    }
    param {
      lr_mult: 0
      decay_mult: 0
    }
    param {
      lr_mult: 0
      decay_mult: 0
    }
    include {
      phase: TRAIN
    }
    batch_norm_param {
      use_global_stats: false
      moving_average_fraction: 0.95
    }
  }
  layer {
    name: "conv4_BN"
    type: "BatchNorm"
    bottom: "conv4"
    top: "conv4_BN"
    param {
      lr_mult: 0
      decay_mult: 0
    }
    param {
      lr_mult: 0
      decay_mult: 0
    }
    param {
      lr_mult: 0
      decay_mult: 0
    }
    include {
      phase: TEST
    }
    batch_norm_param {
      use_global_stats: true
      moving_average_fraction: 0.95
    }
  }
  layer {
    name: "conv5"
    type: "Convolution"
    bottom: "conv4_BN"
    top: "conv5"
    param {
      lr_mult: 1
      decay_mult: 1
    }
    param {
      lr_mult: 2
      decay_mult: 0
    }
    convolution_param {
      num_output: 256
      pad: 1
      kernel_size: 3
      group: 2
      weight_filler {
        type: "gaussian"
        std: 0.01
      }
      bias_filler {
        type: "constant"
      }
    }
  }
  layer {
    name: "relu5"
    type: "ReLU"
    bottom: "conv5"
    top: "conv5"
  }
  layer {
    name: "conv5_BN"
    type: "BatchNorm"
    bottom: "conv5"
    top: "conv5_BN"
    param {
      lr_mult: 0
      decay_mult: 0
    }
    param {
      lr_mult: 0
      decay_mult: 0
    }
    param {
      lr_mult: 0
      decay_mult: 0
    }
    include {
      phase: TRAIN
    }
    batch_norm_param {
      use_global_stats: false
      moving_average_fraction: 0.95
    }
  }
  layer {
    name: "conv5_BN"
    type: "BatchNorm"
    bottom: "conv5"
    top: "conv5_BN"
    param {
      lr_mult: 0
      decay_mult: 0
    }
    param {
      lr_mult: 0
      decay_mult: 0
    }
    param {
      lr_mult: 0
      decay_mult: 0
    }
    include {
      phase: TEST
    }
    batch_norm_param {
      use_global_stats: true
      moving_average_fraction: 0.95
    }
  }
  layer {
    name: "pool5"
    type: "Pooling"
    bottom: "conv5_BN"
    top: "pool5"
    pooling_param {
      pool: MAX
      kernel_size: 3
      stride: 2
    }
  }
  layer {
    name: "fc6"
    type: "InnerProduct"
    bottom: "pool5"
    top: "fc6"
    param {
      lr_mult: 1
      decay_mult: 1
    }
    param {
      lr_mult: 2
      decay_mult: 0
    }
    inner_product_param {
      num_output: 2048
      weight_filler {
        type: "gaussian"
        std: 0.005
      }
      bias_filler {
        type: "constant"
      }
    }
  }
  layer {
    name: "relu6"
    type: "ReLU"
    bottom: "fc6"
    top: "fc6"
  }
  layer {
    name: "fc6_BN"
    type: "BatchNorm"
    bottom: "fc6"
    top: "fc6_BN"
    param {
      lr_mult: 0
      decay_mult: 0
    }
    param {
      lr_mult: 0
      decay_mult: 0
    }
    param {
      lr_mult: 0
      decay_mult: 0
    }
    include {
      phase: TRAIN
    }
    batch_norm_param {
      use_global_stats: false
      moving_average_fraction: 0.95
    }
  }
  layer {
    name: "fc6_BN"
    type: "BatchNorm"
    bottom: "fc6"
    top: "fc6_BN"
    param {
      lr_mult: 0
      decay_mult: 0
    }
    param {
      lr_mult: 0
      decay_mult: 0
    }
    param {
      lr_mult: 0
      decay_mult: 0
    }
    include {
      phase: TEST
    }
    batch_norm_param {
      use_global_stats: true
      moving_average_fraction: 0.95
    }
  }
  layer {
    name: "drop6"
    type: "Dropout"
    bottom: "fc6_BN"
    top: "drop6"
    dropout_param {
      dropout_ratio: 0.2
    }
  }
  layer {
    name: "fc7"
    type: "InnerProduct"
    bottom: "drop6"
    top: "fc7"
    param {
      lr_mult: 1
      decay_mult: 1
    }
    param {
      lr_mult: 2
      decay_mult: 0
    }
    inner_product_param {
      num_output: 2048
      weight_filler {
        type: "gaussian"
        std: 0.005
      }
      bias_filler {
        type: "constant"
      }
    }
  }
  layer {
    name: "relu7"
    type: "ReLU"
    bottom: "fc7"
    top: "fc7"
  }
  layer {
    name: "fc7_BN"
    type: "BatchNorm"
    bottom: "fc7"
    top: "fc7_BN"
    param {
      lr_mult: 0
      decay_mult: 0
    }
    param {
      lr_mult: 0
      decay_mult: 0
    }
    param {
      lr_mult: 0
      decay_mult: 0
    }
    include {
      phase: TRAIN
    }
    batch_norm_param {
      use_global_stats: false
      moving_average_fraction: 0.95
    }
  }
  layer {
    name: "fc7_BN"
    type: "BatchNorm"
    bottom: "fc7"
    top: "fc7_BN"
    param {
      lr_mult: 0
      decay_mult: 0
    }
    param {
      lr_mult: 0
      decay_mult: 0
    }
    param {
      lr_mult: 0
      decay_mult: 0
    }
    include {
      phase: TEST
    }
    batch_norm_param {
      use_global_stats: true
      moving_average_fraction: 0.95
    }
  }
  layer {
    name: "drop7"
    type: "Dropout"
    bottom: "fc7_BN"
    top: "drop7"
    dropout_param {
      dropout_ratio: 0.2
    }
  }
  layer {
    name: "fc8"
    type: "InnerProduct"
    bottom: "drop7"
    top: "fc8"
    param {
      lr_mult: 1
      decay_mult: 1
    }
    param {
      lr_mult: 2
      decay_mult: 0
    }
    inner_product_param {
      num_output: 1000
      weight_filler {
        type: "gaussian"
        std: 0.01
      }
      bias_filler {
        type: "constant"
      }
    }
  }
  layer {
    name: "accuracy"
    type: "Accuracy"
    bottom: "fc8"
    bottom: "label"
    top: "accuracy"
    include {
      phase: TEST
    }
  }
  layer {
    name: "loss"
    type: "SoftmaxWithLoss"
    bottom: "fc8"
    bottom: "label"
    top: "loss"
  }
}
test_initialization: false
average_loss: 20
iter_size: 1
type: "SGD"
I0118 13:25:46.219315  3141 solver.cpp:86] Creating training net specified in net_param.
I0118 13:25:46.219447  3141 net.cpp:322] The NetState phase (0) differed from the phase (1) specified by a rule in layer data
I0118 13:25:46.219460  3141 net.cpp:322] The NetState phase (0) differed from the phase (1) specified by a rule in layer conv1_BN
…
  transform_param {
    scale: 0.04
    mirror: true
    crop_size: 128
    mean_value: 104
    mean_value: 117
    mean_value: 124
    force_color: true
    resize_param {
      prob: 1
      resize_mode: FIT_SMALL_SIZE
      height: 144
      width: 144
      pad_mode: MIRRORED
      pad_value: 104
      pad_value: 117
      pad_value: 124
      interp_mode: CUBIC
      center_object: false
      max_angle: 0
    }
  }
  data_param {
    source: "/home/old-ufo/datasets/imagenet/ilsvrc12_train_shuffle_lmdb"
    batch_size: 256
    backend: LMDB
  }
}
layer {
  name: "conv1"
  type: "Convolution"
  bottom: "data"
  top: "conv1"
  param {
    lr_mult: 1
    decay_mult: 1
  }
  param {
    lr_mult: 2
    decay_mult: 0
  }
  convolution_param {
    num_output: 96
    kernel_size: 11
    stride: 4
    weight_filler {
      type: "gaussian"
      std: 0.01
    }
    bias_filler {
      type: "constant"
    }
  }
}
layer {
  name: "relu1"
  type: "ReLU"
  bottom: "conv1"
  top: "conv1"
}
layer {
  name: "conv1_BN"
  type: "BatchNorm"
  bottom: "conv1"
  top: "conv1_BN"
  param {
    lr_mult: 0
    decay_mult: 0
  }
  param {
    lr_mult: 0
    decay_mult: 0
  }
  param {
    lr_mult: 0
    decay_mult: 0
  }
  include {
    phase: TRAIN
  }
  batch_norm_param {
    use_global_stats: false
    moving_average_fraction: 0.95
  }
}
layer {
  name: "pool1"
  type: "Pooling"
  bottom: "conv1_BN"
  top: "pool1"
  pooling_param {
    pool: MAX
    kernel_size: 3
    stride: 2
  }
}
layer {
  name: "conv2"
  type: "Convolution"
  bottom: "pool1"
  top: "conv2"
  param {
    lr_mult: 1
    decay_mult: 1
  }
  param {
    lr_mult: 2
    decay_mult: 0
  }
  convolution_param {
    num_output: 256
    pad: 2
    kernel_size: 5
    group: 2
    weight_filler {
      type: "gaussian"
      std: 0.01
    }
    bias_filler {
      type: "constant"
    }
  }
}
layer {
  name: "relu2"
  type: "ReLU"
  bottom: "conv2"
  top: "conv2"
}
layer {
  name: "conv2_BN"
  type: "BatchNorm"
  bottom: "conv2"
  top: "conv2_BN"
  param {
    lr_mult: 0
    decay_mult: 0
  }
  param {
    lr_mult: 0
    decay_mult: 0
  }
  param {
    lr_mult: 0
    decay_mult: 0
  }
  include {
    phase: TRAIN
  }
  batch_norm_param {
    use_global_stats: false
    moving_average_fraction: 0.95
  }
}
layer {
  name: "pool2"
  type: "Pooling"
  bottom: "conv2_BN"
  top: "pool2"
  pooling_param {
    pool: MAX
    kernel_size: 3
    stride: 2
  }
}
layer {
  name: "conv3"
  type: "Convolution"
  bottom: "pool2"
  top: "conv3"
  param {
    lr_mult: 1
    decay_mult: 1
  }
  param {
    lr_mult: 2
    decay_mult: 0
  }
  convolution_param {
    num_output: 384
    pad: 1
    kernel_size: 3
    weight_filler {
      type: "gaussian"
      std: 0.01
    }
    bias_filler {
      type: "constant"
    }
  }
}
layer {
  name: "relu3"
  type: "ReLU"
  bottom: "conv3"
  top: "conv3"
}
layer {
  name: "conv3_BN"
  type: "BatchNorm"
  bottom: "conv3"
  top: "conv3_BN"
  param {
    lr_mult: 0
    decay_mult: 0
  }
  param {
    lr_mult: 0
    decay_mult: 0
  }
  param {
    lr_mult: 0
    decay_mult: 0
  }
  include {
    phase: TRAIN
  }
  batch_norm_param {
    use_global_stats: false
    moving_average_fraction: 0.95
  }
}
layer {
  name: "conv4"
  type: "Convolution"
  bottom: "conv3_BN"
  top: "conv4"
  param {
    lr_mult: 1
    decay_mult: 1
  }
  param {
    lr_mult: 2
    decay_mult: 0
  }
  convolution_param {
    num_output: 384
    pad: 1
    kernel_size: 3
    group: 2
    weight_filler {
      type: "gaussian"
      std: 0.01
    }
    bias_filler {
      type: "constant"
    }
  }
}
layer {
  name: "relu4"
  type: "ReLU"
  bottom: "conv4"
  top: "conv4"
}
layer {
  name: "conv4_BN"
  type: "BatchNorm"
  bottom: "conv4"
  top: "conv4_BN"
  param {
    lr_mult: 0
    decay_mult: 0
  }
  param {
    lr_mult: 0
    decay_mult: 0
  }
  param {
    lr_mult: 0
    decay_mult: 0
  }
  include {
    phase: TRAIN
  }
  batch_norm_param {
    use_global_stats: false
    moving_average_fraction: 0.95
  }
}
layer {
  name: "conv5"
  type: "Convolution"
  bottom: "conv4_BN"
  top: "conv5"
  param {
    lr_mult: 1
    decay_mult: 1
  }
  param {
    lr_mult: 2
    decay_mult: 0
  }
  convolution_param {
    num_output: 256
    pad: 1
    kernel_size: 3
    group: 2
    weight_filler {
      type: "gaussian"
      std: 0.01
    }
    bias_filler {
      type: "constant"
    }
  }
}
layer {
  name: "relu5"
  type: "ReLU"
  bottom: "conv5"
  top: "conv5"
}
layer {
  name: "conv5_BN"
  type: "BatchNorm"
  bottom: "conv5"
  top: "conv5_BN"
  param {
    lr_mult: 0
    decay_mult: 0
  }
  param {
    lr_mult: 0
    decay_mult: 0
  }
  param {
    lr_mult: 0
    decay_mult: 0
  }
  include {
    phase: TRAIN
  }
  batch_norm_param {
    use_global_stats: false
    moving_average_fraction: 0.95
  }
}
layer {
  name: "pool5"
  type: "Pooling"
  bottom: "conv5_BN"
  top: "pool5"
  pooling_param {
    pool: MAX
    kernel_size: 3
    stride: 2
  }
}
layer {
  name: "fc6"
  type: "InnerProduct"
  bottom: "pool5"
  top: "fc6"
  param {
    lr_mult: 1
    decay_mult: 1
  }
  param {
    lr_mult: 2
    decay_mult: 0
  }
  inner_product_param {
    num_output: 2048
    weight_filler {
      type: "gaussian"
      std: 0.005
    }
    bias_filler {
      type: "constant"
    }
  }
}
layer {
  name: "relu6"
  type: "ReLU"
  bottom: "fc6"
  top: "fc6"
}
layer {
  name: "fc6_BN"
  type: "BatchNorm"
  bottom: "fc6"
  top: "fc6_BN"
  param {
    lr_mult: 0
    decay_mult: 0
  }
  param {
    lr_mult: 0
    decay_mult: 0
  }
  param {
    lr_mult: 0
    decay_mult: 0
  }
  include {
    phase: TRAIN
  }
  batch_norm_param {
    use_global_stats: false
    moving_average_fraction: 0.95
  }
}
layer {
  name: "drop6"
  type: "Dropout"
  bottom: "fc6_BN"
  top: "drop6"
  dropout_param {
    dropout_ratio: 0.2
  }
}
layer {
  name: "fc7"
  type: "InnerProduct"
  bottom: "drop6"
  top: "fc7"
  param {
    lr_mult: 1
    decay_mult: 1
  }
  param {
    lr_mult: 2
    decay_mult: 0
  }
  inner_product_param {
    num_output: 2048
    weight_filler {
      type: "gaussian"
      std: 0.005
    }
    bias_filler {
      type: "constant"
    }
  }
}
layer {
  name: "relu7"
  type: "ReLU"
  bottom: "fc7"
  top: "fc7"
}
layer {
  name: "fc7_BN"
  type: "BatchNorm"
  bottom: "fc7"
  top: "fc7_BN"
  param {
    lr_mult: 0
    decay_mult: 0
  }
  param {
    lr_mult: 0
    decay_mult: 0
  }
  param {
    lr_mult: 0
    decay_mult: 0
  }
  include {
    phase: TRAIN
  }
  batch_norm_param {
    use_global_stats: false
    moving_average_fraction: 0.95
  }
}
layer {
  name: "drop7"
  type: "Dropout"
  bottom: "fc7_BN"
  top: "drop7"
  dropout_param {
    dropout_ratio: 0.2
  }
}
layer {
  name: "fc8"
  type: "InnerProduct"
  bottom: "drop7"
  top: "fc8"
  param {
    lr_mult: 1
    decay_mult: 1
  }
  param {
    lr_mult: 2
    decay_mult: 0
  }
  inner_product_param {
    num_output: 1000
    weight_filler {
      type: "gaussian"
      std: 0.01
    }
    bias_filler {
      type: "constant"
    }
  }
}
layer {
  name: "loss"
  type: "SoftmaxWithLoss"
  bottom: "fc8"
  bottom: "label"
  top: "loss"
}
I0118 13:25:46.219926  3141 layer_factory.hpp:76] Creating layer data
I0118 13:25:46.256749  3141 net.cpp:106] Creating Layer data
I0118 13:25:46.256835  3141 net.cpp:411] data -> data
I0118 13:25:46.256909  3141 net.cpp:411] data -> label
I0118 13:25:46.258059  3145 db_lmdb.cpp:38] Opened lmdb /home/old-ufo/datasets/imagenet/ilsvrc12_train_shuffle_lmdb
I0118 13:25:46.270927  3141 data_layer.cpp:41] output data size: 256,3,128,128
I0118 13:25:46.340523  3141 net.cpp:150] Setting up data
I0118 13:25:46.340606  3141 net.cpp:157] Top shape: 256 3 128 128 (12582912)
I0118 13:25:46.340636  3141 net.cpp:157] Top shape: 256 (256)
I0118 13:25:46.340657  3141 net.cpp:165] Memory required for data: 50332672
I0118 13:25:46.340682  3141 layer_factory.hpp:76] Creating layer conv1
I0118 13:25:46.340714  3141 net.cpp:106] Creating Layer conv1
I0118 13:25:46.340737  3141 net.cpp:454] conv1 <- data
I0118 13:25:46.340769  3141 net.cpp:411] conv1 -> conv1
I0118 13:25:47.025785  3141 net.cpp:150] Setting up conv1
I0118 13:25:47.025812  3141 net.cpp:157] Top shape: 256 96 30 30 (22118400)
I0118 13:25:47.025817  3141 net.cpp:165] Memory required for data: 138806272
I0118 13:25:47.025838  3141 layer_factory.hpp:76] Creating layer relu1
I0118 13:25:47.025851  3141 net.cpp:106] Creating Layer relu1
I0118 13:25:47.025854  3141 net.cpp:454] relu1 <- conv1
I0118 13:25:47.025861  3141 net.cpp:397] relu1 -> conv1 (in-place)
I0118 13:25:47.026607  3141 net.cpp:150] Setting up relu1
I0118 13:25:47.026618  3141 net.cpp:157] Top shape: 256 96 30 30 (22118400)
I0118 13:25:47.026623  3141 net.cpp:165] Memory required for data: 227279872
I0118 13:25:47.026628  3141 layer_factory.hpp:76] Creating layer conv1_BN
I0118 13:25:47.026638  3141 net.cpp:106] Creating Layer conv1_BN
I0118 13:25:47.026643  3141 net.cpp:454] conv1_BN <- conv1
I0118 13:25:47.026649  3141 net.cpp:411] conv1_BN -> conv1_BN
I0118 13:25:47.026876  3141 net.cpp:150] Setting up conv1_BN
I0118 13:25:47.026887  3141 net.cpp:157] Top shape: 256 96 30 30 (22118400)
I0118 13:25:47.026891  3141 net.cpp:165] Memory required for data: 315753472
I0118 13:25:47.026906  3141 layer_factory.hpp:76] Creating layer pool1
I0118 13:25:47.026916  3141 net.cpp:106] Creating Layer pool1
I0118 13:25:47.026921  3141 net.cpp:454] pool1 <- conv1_BN
I0118 13:25:47.026927  3141 net.cpp:411] pool1 -> pool1
I0118 13:25:47.027600  3141 net.cpp:150] Setting up pool1
I0118 13:25:47.027611  3141 net.cpp:157] Top shape: 256 96 15 15 (5529600)
I0118 13:25:47.027616  3141 net.cpp:165] Memory required for data: 337871872
I0118 13:25:47.027621  3141 layer_factory.hpp:76] Creating layer conv2
I0118 13:25:47.027632  3141 net.cpp:106] Creating Layer conv2
I0118 13:25:47.027637  3141 net.cpp:454] conv2 <- pool1
I0118 13:25:47.027643  3141 net.cpp:411] conv2 -> conv2
I0118 13:25:47.039199  3141 net.cpp:150] Setting up conv2
I0118 13:25:47.039225  3141 net.cpp:157] Top shape: 256 256 15 15 (14745600)
I0118 13:25:47.039229  3141 net.cpp:165] Memory required for data: 396854272
I0118 13:25:47.039239  3141 layer_factory.hpp:76] Creating layer relu2
I0118 13:25:47.039249  3141 net.cpp:106] Creating Layer relu2
I0118 13:25:47.039254  3141 net.cpp:454] relu2 <- conv2
I0118 13:25:47.039260  3141 net.cpp:397] relu2 -> conv2 (in-place)
I0118 13:25:47.040066  3141 net.cpp:150] Setting up relu2
I0118 13:25:47.040091  3141 net.cpp:157] Top shape: 256 256 15 15 (14745600)
I0118 13:25:47.040102  3141 net.cpp:165] Memory required for data: 455836672
I0118 13:25:47.040107  3141 layer_factory.hpp:76] Creating layer conv2_BN
I0118 13:25:47.040119  3141 net.cpp:106] Creating Layer conv2_BN
I0118 13:25:47.040124  3141 net.cpp:454] conv2_BN <- conv2
I0118 13:25:47.040134  3141 net.cpp:411] conv2_BN -> conv2_BN
I0118 13:25:47.040400  3141 net.cpp:150] Setting up conv2_BN
I0118 13:25:47.040411  3141 net.cpp:157] Top shape: 256 256 15 15 (14745600)
I0118 13:25:47.040416  3141 net.cpp:165] Memory required for data: 514819072
I0118 13:25:47.040429  3141 layer_factory.hpp:76] Creating layer pool2
I0118 13:25:47.040439  3141 net.cpp:106] Creating Layer pool2
I0118 13:25:47.040444  3141 net.cpp:454] pool2 <- conv2_BN
I0118 13:25:47.040451  3141 net.cpp:411] pool2 -> pool2
I0118 13:25:47.041172  3141 net.cpp:150] Setting up pool2
I0118 13:25:47.041182  3141 net.cpp:157] Top shape: 256 256 7 7 (3211264)
I0118 13:25:47.041188  3141 net.cpp:165] Memory required for data: 527664128
I0118 13:25:47.041191  3141 layer_factory.hpp:76] Creating layer conv3
I0118 13:25:47.041203  3141 net.cpp:106] Creating Layer conv3
I0118 13:25:47.041208  3141 net.cpp:454] conv3 <- pool2
I0118 13:25:47.041216  3141 net.cpp:411] conv3 -> conv3
I0118 13:25:47.068020  3141 net.cpp:150] Setting up conv3
I0118 13:25:47.068047  3141 net.cpp:157] Top shape: 256 384 7 7 (4816896)
I0118 13:25:47.068050  3141 net.cpp:165] Memory required for data: 546931712
I0118 13:25:47.068208  3141 layer_factory.hpp:76] Creating layer relu3
I0118 13:25:47.068275  3141 net.cpp:106] Creating Layer relu3
I0118 13:25:47.068284  3141 net.cpp:454] relu3 <- conv3
I0118 13:25:47.068354  3141 net.cpp:397] relu3 -> conv3 (in-place)
I0118 13:25:47.068984  3141 net.cpp:150] Setting up relu3
I0118 13:25:47.068996  3141 net.cpp:157] Top shape: 256 384 7 7 (4816896)
I0118 13:25:47.069058  3141 net.cpp:165] Memory required for data: 566199296
I0118 13:25:47.069110  3141 layer_factory.hpp:76] Creating layer conv3_BN
I0118 13:25:47.069213  3141 net.cpp:106] Creating Layer conv3_BN
I0118 13:25:47.069221  3141 net.cpp:454] conv3_BN <- conv3
I0118 13:25:47.069289  3141 net.cpp:411] conv3_BN -> conv3_BN
I0118 13:25:47.069499  3141 net.cpp:150] Setting up conv3_BN
I0118 13:25:47.069509  3141 net.cpp:157] Top shape: 256 384 7 7 (4816896)
I0118 13:25:47.069552  3141 net.cpp:165] Memory required for data: 585466880
I0118 13:25:47.069630  3141 layer_factory.hpp:76] Creating layer conv4
I0118 13:25:47.069679  3141 net.cpp:106] Creating Layer conv4
I0118 13:25:47.069685  3141 net.cpp:454] conv4 <- conv3_BN
I0118 13:25:47.069738  3141 net.cpp:411] conv4 -> conv4
I0118 13:25:47.090795  3141 net.cpp:150] Setting up conv4
I0118 13:25:47.090821  3141 net.cpp:157] Top shape: 256 384 7 7 (4816896)
I0118 13:25:47.090824  3141 net.cpp:165] Memory required for data: 604734464
I0118 13:25:47.090942  3141 layer_factory.hpp:76] Creating layer relu4
I0118 13:25:47.091023  3141 net.cpp:106] Creating Layer relu4
I0118 13:25:47.091091  3141 net.cpp:454] relu4 <- conv4
I0118 13:25:47.091158  3141 net.cpp:397] relu4 -> conv4 (in-place)
I0118 13:25:47.091795  3141 net.cpp:150] Setting up relu4
I0118 13:25:47.091807  3141 net.cpp:157] Top shape: 256 384 7 7 (4816896)
I0118 13:25:47.091812  3141 net.cpp:165] Memory required for data: 624002048
I0118 13:25:47.091816  3141 layer_factory.hpp:76] Creating layer conv4_BN
I0118 13:25:47.091830  3141 net.cpp:106] Creating Layer conv4_BN
I0118 13:25:47.091833  3141 net.cpp:454] conv4_BN <- conv4
I0118 13:25:47.091840  3141 net.cpp:411] conv4_BN -> conv4_BN
I0118 13:25:47.092129  3141 net.cpp:150] Setting up conv4_BN
I0118 13:25:47.092139  3141 net.cpp:157] Top shape: 256 384 7 7 (4816896)
I0118 13:25:47.092144  3141 net.cpp:165] Memory required for data: 643269632
I0118 13:25:47.092156  3141 layer_factory.hpp:76] Creating layer conv5
I0118 13:25:47.092170  3141 net.cpp:106] Creating Layer conv5
I0118 13:25:47.092175  3141 net.cpp:454] conv5 <- conv4_BN
I0118 13:25:47.092200  3141 net.cpp:411] conv5 -> conv5
I0118 13:25:47.107568  3141 net.cpp:150] Setting up conv5
I0118 13:25:47.107594  3141 net.cpp:157] Top shape: 256 256 7 7 (3211264)
I0118 13:25:47.107599  3141 net.cpp:165] Memory required for data: 656114688
I0118 13:25:47.107611  3141 layer_factory.hpp:76] Creating layer relu5
I0118 13:25:47.107625  3141 net.cpp:106] Creating Layer relu5
I0118 13:25:47.107631  3141 net.cpp:454] relu5 <- conv5
I0118 13:25:47.107640  3141 net.cpp:397] relu5 -> conv5 (in-place)
I0118 13:25:47.108448  3141 net.cpp:150] Setting up relu5
I0118 13:25:47.108461  3141 net.cpp:157] Top shape: 256 256 7 7 (3211264)
I0118 13:25:47.108500  3141 net.cpp:165] Memory required for data: 668959744
I0118 13:25:47.108507  3141 layer_factory.hpp:76] Creating layer conv5_BN
I0118 13:25:47.108564  3141 net.cpp:106] Creating Layer conv5_BN
I0118 13:25:47.108573  3141 net.cpp:454] conv5_BN <- conv5
I0118 13:25:47.108605  3141 net.cpp:411] conv5_BN -> conv5_BN
I0118 13:25:47.108846  3141 net.cpp:150] Setting up conv5_BN
I0118 13:25:47.108856  3141 net.cpp:157] Top shape: 256 256 7 7 (3211264)
I0118 13:25:47.108886  3141 net.cpp:165] Memory required for data: 681804800
I0118 13:25:47.108942  3141 layer_factory.hpp:76] Creating layer pool5
I0118 13:25:47.108976  3141 net.cpp:106] Creating Layer pool5
I0118 13:25:47.108988  3141 net.cpp:454] pool5 <- conv5_BN
I0118 13:25:47.109036  3141 net.cpp:411] pool5 -> pool5
I0118 13:25:47.109670  3141 net.cpp:150] Setting up pool5
I0118 13:25:47.109683  3141 net.cpp:157] Top shape: 256 256 3 3 (589824)
I0118 13:25:47.109714  3141 net.cpp:165] Memory required for data: 684164096
I0118 13:25:47.109721  3141 layer_factory.hpp:76] Creating layer fc6
I0118 13:25:47.109791  3141 net.cpp:106] Creating Layer fc6
I0118 13:25:47.109797  3141 net.cpp:454] fc6 <- pool5
I0118 13:25:47.109849  3141 net.cpp:411] fc6 -> fc6
I0118 13:25:47.234369  3141 net.cpp:150] Setting up fc6
I0118 13:25:47.234395  3141 net.cpp:157] Top shape: 256 2048 (524288)
I0118 13:25:47.234401  3141 net.cpp:165] Memory required for data: 686261248
I0118 13:25:47.234508  3141 layer_factory.hpp:76] Creating layer relu6
I0118 13:25:47.234524  3141 net.cpp:106] Creating Layer relu6
I0118 13:25:47.234531  3141 net.cpp:454] relu6 <- fc6
I0118 13:25:47.234539  3141 net.cpp:397] relu6 -> fc6 (in-place)
I0118 13:25:47.235363  3141 net.cpp:150] Setting up relu6
I0118 13:25:47.235375  3141 net.cpp:157] Top shape: 256 2048 (524288)
I0118 13:25:47.235419  3141 net.cpp:165] Memory required for data: 688358400
I0118 13:25:47.235430  3141 layer_factory.hpp:76] Creating layer fc6_BN
I0118 13:25:47.235442  3141 net.cpp:106] Creating Layer fc6_BN
I0118 13:25:47.235448  3141 net.cpp:454] fc6_BN <- fc6
I0118 13:25:47.235549  3141 net.cpp:411] fc6_BN -> fc6_BN
I0118 13:25:47.235857  3141 net.cpp:150] Setting up fc6_BN
I0118 13:25:47.235906  3141 net.cpp:157] Top shape: 256 2048 (524288)
I0118 13:25:47.235914  3141 net.cpp:165] Memory required for data: 690455552
I0118 13:25:47.235926  3141 layer_factory.hpp:76] Creating layer drop6
I0118 13:25:47.235980  3141 net.cpp:106] Creating Layer drop6
I0118 13:25:47.236030  3141 net.cpp:454] drop6 <- fc6_BN
I0118 13:25:47.236066  3141 net.cpp:411] drop6 -> drop6
I0118 13:25:47.236150  3141 net.cpp:150] Setting up drop6
I0118 13:25:47.236160  3141 net.cpp:157] Top shape: 256 2048 (524288)
I0118 13:25:47.236186  3141 net.cpp:165] Memory required for data: 692552704
I0118 13:25:47.236213  3141 layer_factory.hpp:76] Creating layer fc7
I0118 13:25:47.236270  3141 net.cpp:106] Creating Layer fc7
I0118 13:25:47.236279  3141 net.cpp:454] fc7 <- drop6
I0118 13:25:47.236310  3141 net.cpp:411] fc7 -> fc7
I0118 13:25:47.346894  3141 net.cpp:150] Setting up fc7
I0118 13:25:47.346920  3141 net.cpp:157] Top shape: 256 2048 (524288)
I0118 13:25:47.346927  3141 net.cpp:165] Memory required for data: 694649856
I0118 13:25:47.347033  3141 layer_factory.hpp:76] Creating layer relu7
I0118 13:25:47.347048  3141 net.cpp:106] Creating Layer relu7
I0118 13:25:47.347054  3141 net.cpp:454] relu7 <- fc7
I0118 13:25:47.347167  3141 net.cpp:397] relu7 -> fc7 (in-place)
I0118 13:25:47.347978  3141 net.cpp:150] Setting up relu7
I0118 13:25:47.347991  3141 net.cpp:157] Top shape: 256 2048 (524288)
I0118 13:25:47.348033  3141 net.cpp:165] Memory required for data: 696747008
I0118 13:25:47.348043  3141 layer_factory.hpp:76] Creating layer fc7_BN
I0118 13:25:47.348089  3141 net.cpp:106] Creating Layer fc7_BN
I0118 13:25:47.348098  3141 net.cpp:454] fc7_BN <- fc7
I0118 13:25:47.348106  3141 net.cpp:411] fc7_BN -> fc7_BN
I0118 13:25:47.348404  3141 net.cpp:150] Setting up fc7_BN
I0118 13:25:47.348414  3141 net.cpp:157] Top shape: 256 2048 (524288)
I0118 13:25:47.348451  3141 net.cpp:165] Memory required for data: 698844160
I0118 13:25:47.348470  3141 layer_factory.hpp:76] Creating layer drop7
I0118 13:25:47.348527  3141 net.cpp:106] Creating Layer drop7
I0118 13:25:47.348533  3141 net.cpp:454] drop7 <- fc7_BN
I0118 13:25:47.348592  3141 net.cpp:411] drop7 -> drop7
I0118 13:25:47.348665  3141 net.cpp:150] Setting up drop7
I0118 13:25:47.348675  3141 net.cpp:157] Top shape: 256 2048 (524288)
I0118 13:25:47.348703  3141 net.cpp:165] Memory required for data: 700941312
I0118 13:25:47.348728  3141 layer_factory.hpp:76] Creating layer fc8
I0118 13:25:47.348783  3141 net.cpp:106] Creating Layer fc8
I0118 13:25:47.348790  3141 net.cpp:454] fc8 <- drop7
I0118 13:25:47.348821  3141 net.cpp:411] fc8 -> fc8
I0118 13:25:47.412894  3141 net.cpp:150] Setting up fc8
I0118 13:25:47.413070  3141 net.cpp:157] Top shape: 256 1000 (256000)
I0118 13:25:47.413138  3141 net.cpp:165] Memory required for data: 701965312
I0118 13:25:47.413210  3141 layer_factory.hpp:76] Creating layer loss
I0118 13:25:47.413281  3141 net.cpp:106] Creating Layer loss
I0118 13:25:47.413357  3141 net.cpp:454] loss <- fc8
I0118 13:25:47.413427  3141 net.cpp:454] loss <- label
I0118 13:25:47.413491  3141 net.cpp:411] loss -> loss
I0118 13:25:47.413553  3141 layer_factory.hpp:76] Creating layer loss
…
    phase: TEST
  }
  transform_param {
    scale: 0.04
    mirror: false
    crop_size: 128
    mean_value: 104
    mean_value: 117
    mean_value: 123
    force_color: true
    resize_param {
      prob: 1
      resize_mode: FIT_SMALL_SIZE
      height: 144
      width: 144
      pad_mode: MIRRORED
      pad_value: 104
      pad_value: 117
      pad_value: 124
      interp_mode: CUBIC
      center_object: false
      max_angle: 0
    }
  }
  data_param {
    source: "/home/old-ufo/datasets/imagenet/ilsvrc12_val_lmdb"
    batch_size: 250
    backend: LMDB
  }
}
layer {
  name: "conv1"
  type: "Convolution"
  bottom: "data"
  top: "conv1"
  param {
    lr_mult: 1
    decay_mult: 1
  }
  param {
    lr_mult: 2
    decay_mult: 0
  }
  convolution_param {
    num_output: 96
    kernel_size: 11
    stride: 4
    weight_filler {
      type: "gaussian"
      std: 0.01
    }
    bias_filler {
      type: "constant"
    }
  }
}
layer {
  name: "relu1"
  type: "ReLU"
  bottom: "conv1"
  top: "conv1"
}
layer {
  name: "conv1_BN"
  type: "BatchNorm"
  bottom: "conv1"
  top: "conv1_BN"
  param {
    lr_mult: 0
    decay_mult: 0
  }
  param {
    lr_mult: 0
    decay_mult: 0
  }
  param {
    lr_mult: 0
    decay_mult: 0
  }
  include {
    phase: TEST
  }
  batch_norm_param {
    use_global_stats: true
    moving_average_fraction: 0.95
  }
}
layer {
  name: "pool1"
  type: "Pooling"
  bottom: "conv1_BN"
  top: "pool1"
  pooling_param {
    pool: MAX
    kernel_size: 3
    stride: 2
  }
}
layer {
  name: "conv2"
  type: "Convolution"
  bottom: "pool1"
  top: "conv2"
  param {
    lr_mult: 1
    decay_mult: 1
  }
  param {
    lr_mult: 2
    decay_mult: 0
  }
  convolution_param {
    num_output: 256
    pad: 2
    kernel_size: 5
    group: 2
    weight_filler {
      type: "gaussian"
      std: 0.01
    }
    bias_filler {
      type: "constant"
    }
  }
}
layer {
  name: "relu2"
  type: "ReLU"
  bottom: "conv2"
  top: "conv2"
}
layer {
  name: "conv2_BN"
  type: "BatchNorm"
  bottom: "conv2"
  top: "conv2_BN"
  param {
    lr_mult: 0
    decay_mult: 0
  }
  param {
    lr_mult: 0
    decay_mult: 0
  }
  param {
    lr_mult: 0
    decay_mult: 0
  }
  include {
    phase: TEST
  }
  batch_norm_param {
    use_global_stats: true
    moving_average_fraction: 0.95
  }
}
layer {
  name: "pool2"
  type: "Pooling"
  bottom: "conv2_BN"
  top: "pool2"
  pooling_param {
    pool: MAX
    kernel_size: 3
    stride: 2
  }
}
layer {
  name: "conv3"
  type: "Convolution"
  bottom: "pool2"
  top: "conv3"
  param {
    lr_mult: 1
    decay_mult: 1
  }
  param {
    lr_mult: 2
    decay_mult: 0
  }
  convolution_param {
    num_output: 384
    pad: 1
    kernel_size: 3
    weight_filler {
      type: "gaussian"
      std: 0.01
    }
    bias_filler {
      type: "constant"
    }
  }
}
layer {
  name: "relu3"
  type: "ReLU"
  bottom: "conv3"
  top: "conv3"
}
layer {
  name: "conv3_BN"
  type: "BatchNorm"
  bottom: "conv3"
  top: "conv3_BN"
  param {
    lr_mult: 0
    decay_mult: 0
  }
  param {
    lr_mult: 0
    decay_mult: 0
  }
  param {
    lr_mult: 0
    decay_mult: 0
  }
  include {
    phase: TEST
  }
  batch_norm_param {
    use_global_stats: true
    moving_average_fraction: 0.95
  }
}
layer {
  name: "conv4"
  type: "Convolution"
  bottom: "conv3_BN"
  top: "conv4"
  param {
    lr_mult: 1
    decay_mult: 1
  }
  param {
    lr_mult: 2
    decay_mult: 0
  }
  convolution_param {
    num_output: 384
    pad: 1
    kernel_size: 3
    group: 2
    weight_filler {
      type: "gaussian"
      std: 0.01
    }
    bias_filler {
      type: "constant"
    }
  }
}
layer {
  name: "relu4"
  type: "ReLU"
  bottom: "conv4"
  top: "conv4"
}
layer {
  name: "conv4_BN"
  type: "BatchNorm"
  bottom: "conv4"
  top: "conv4_BN"
  param {
    lr_mult: 0
    decay_mult: 0
  }
  param {
    lr_mult: 0
    decay_mult: 0
  }
  param {
    lr_mult: 0
    decay_mult: 0
  }
  include {
    phase: TEST
  }
  batch_norm_param {
    use_global_stats: true
    moving_average_fraction: 0.95
  }
}
layer {
  name: "conv5"
  type: "Convolution"
  bottom: "conv4_BN"
  top: "conv5"
  param {
    lr_mult: 1
    decay_mult: 1
  }
  param {
    lr_mult: 2
    decay_mult: 0
  }
  convolution_param {
    num_output: 256
    pad: 1
    kernel_size: 3
    group: 2
    weight_filler {
      type: "gaussian"
      std: 0.01
    }
    bias_filler {
      type: "constant"
    }
  }
}
layer {
  name: "relu5"
  type: "ReLU"
  bottom: "conv5"
  top: "conv5"
}
layer {
  name: "conv5_BN"
  type: "BatchNorm"
  bottom: "conv5"
  top: "conv5_BN"
  param {
    lr_mult: 0
    decay_mult: 0
  }
  param {
    lr_mult: 0
    decay_mult: 0
  }
  param {
    lr_mult: 0
    decay_mult: 0
  }
  include {
    phase: TEST
  }
  batch_norm_param {
    use_global_stats: true
    moving_average_fraction: 0.95
  }
}
layer {
  name: "pool5"
  type: "Pooling"
  bottom: "conv5_BN"
  top: "pool5"
  pooling_param {
    pool: MAX
    kernel_size: 3
    stride: 2
  }
}
layer {
  name: "fc6"
  type: "InnerProduct"
  bottom: "pool5"
  top: "fc6"
  param {
    lr_mult: 1
    decay_mult: 1
  }
  param {
    lr_mult: 2
    decay_mult: 0
  }
  inner_product_param {
    num_output: 2048
    weight_filler {
      type: "gaussian"
      std: 0.005
    }
    bias_filler {
      type: "constant"
    }
  }
}
layer {
  name: "relu6"
  type: "ReLU"
  bottom: "fc6"
  top: "fc6"
}
layer {
  name: "fc6_BN"
  type: "BatchNorm"
  bottom: "fc6"
  top: "fc6_BN"
  param {
    lr_mult: 0
    decay_mult: 0
  }
  param {
    lr_mult: 0
    decay_mult: 0
  }
  param {
    lr_mult: 0
    decay_mult: 0
  }
  include {
    phase: TEST
  }
  batch_norm_param {
    use_global_stats: true
    moving_average_fraction: 0.95
  }
}
layer {
  name: "drop6"
  type: "Dropout"
  bottom: "fc6_BN"
  top: "drop6"
  dropout_param {
    dropout_ratio: 0.2
  }
}
layer {
  name: "fc7"
  type: "InnerProduct"
  bottom: "drop6"
  top: "fc7"
  param {
    lr_mult: 1
    decay_mult: 1
  }
  param {
    lr_mult: 2
    decay_mult: 0
  }
  inner_product_param {
    num_output: 2048
    weight_filler {
      type: "gaussian"
      std: 0.005
    }
    bias_filler {
      type: "constant"
    }
  }
}
layer {
  name: "relu7"
  type: "ReLU"
  bottom: "fc7"
  top: "fc7"
}
layer {
  name: "fc7_BN"
  type: "BatchNorm"
  bottom: "fc7"
  top: "fc7_BN"
  param {
    lr_mult: 0
    decay_mult: 0
  }
  param {
    lr_mult: 0
    decay_mult: 0
  }
  param {
    lr_mult: 0
    decay_mult: 0
  }
  include {
    phase: TEST
  }
  batch_norm_param {
    use_global_stats: true
    moving_average_fraction: 0.95
  }
}
layer {
  name: "drop7"
  type: "Dropout"
  bottom: "fc7_BN"
  top: "drop7"
  dropout_param {
    dropout_ratio: 0.2
  }
}
layer {
  name: "fc8"
  type: "InnerProduct"
  bottom: "drop7"
  top: "fc8"
  param {
    lr_mult: 1
    decay_mult: 1
  }
  param {
    lr_mult: 2
    decay_mult: 0
  }
  inner_product_param {
    num_output: 1000
    weight_filler {
      type: "gaussian"
      std: 0.01
    }
    bias_filler {
      type: "constant"
    }
  }
}
layer {
  name: "accuracy"
  type: "Accuracy"
  bottom: "fc8"
  bottom: "label"
  top: "accuracy"
  include {
    phase: TEST
  }
}
layer {
  name: "loss"
  type: "SoftmaxWithLoss"
  bottom: "fc8"
  bottom: "label"
  top: "loss"
}
I0118 13:25:47.423087  3141 layer_factory.hpp:76] Creating layer data
I0118 13:25:47.423324  3141 net.cpp:106] Creating Layer data
I0118 13:25:47.423334  3141 net.cpp:411] data -> data
I0118 13:25:47.423352  3141 net.cpp:411] data -> label
I0118 13:25:47.424716  3154 db_lmdb.cpp:38] Opened lmdb /home/old-ufo/datasets/imagenet/ilsvrc12_val_lmdb
I0118 13:25:47.430032  3141 data_layer.cpp:41] output data size: 250,3,128,128
I0118 13:25:47.564750  3141 net.cpp:150] Setting up data
I0118 13:25:47.564949  3141 net.cpp:157] Top shape: 250 3 128 128 (12288000)
I0118 13:25:47.565049  3141 net.cpp:157] Top shape: 250 (250)
I0118 13:25:47.565122  3141 net.cpp:165] Memory required for data: 49153000
I0118 13:25:47.565198  3141 layer_factory.hpp:76] Creating layer label_data_1_split
I0118 13:25:47.565279  3141 net.cpp:106] Creating Layer label_data_1_split
I0118 13:25:47.565346  3141 net.cpp:454] label_data_1_split <- label
I0118 13:25:47.565418  3141 net.cpp:411] label_data_1_split -> label_data_1_split_0
I0118 13:25:47.565492  3141 net.cpp:411] label_data_1_split -> label_data_1_split_1
I0118 13:25:47.565687  3141 net.cpp:150] Setting up label_data_1_split
I0118 13:25:47.565754  3141 net.cpp:157] Top shape: 250 (250)
I0118 13:25:47.565812  3141 net.cpp:157] Top shape: 250 (250)
I0118 13:25:47.565863  3141 net.cpp:165] Memory required for data: 49155000
I0118 13:25:47.565917  3141 layer_factory.hpp:76] Creating layer conv1
I0118 13:25:47.565979  3141 net.cpp:106] Creating Layer conv1
I0118 13:25:47.566032  3141 net.cpp:454] conv1 <- data
I0118 13:25:47.566102  3141 net.cpp:411] conv1 -> conv1
I0118 13:25:47.570823  3141 net.cpp:150] Setting up conv1
I0118 13:25:47.571013  3141 net.cpp:157] Top shape: 250 96 30 30 (21600000)
I0118 13:25:47.571120  3141 net.cpp:165] Memory required for data: 135555000
I0118 13:25:47.571230  3141 layer_factory.hpp:76] Creating layer relu1
I0118 13:25:47.571317  3141 net.cpp:106] Creating Layer relu1
I0118 13:25:47.571395  3141 net.cpp:454] relu1 <- conv1
I0118 13:25:47.571475  3141 net.cpp:397] relu1 -> conv1 (in-place)
I0118 13:25:47.572657  3141 net.cpp:150] Setting up relu1
I0118 13:25:47.572824  3141 net.cpp:157] Top shape: 250 96 30 30 (21600000)
I0118 13:25:47.572897  3141 net.cpp:165] Memory required for data: 221955000
I0118 13:25:47.572967  3141 layer_factory.hpp:76] Creating layer conv1_BN
I0118 13:25:47.573045  3141 net.cpp:106] Creating Layer conv1_BN
I0118 13:25:47.573108  3141 net.cpp:454] conv1_BN <- conv1
I0118 13:25:47.573184  3141 net.cpp:411] conv1_BN -> conv1_BN
I0118 13:25:47.573704  3141 net.cpp:150] Setting up conv1_BN
I0118 13:25:47.573777  3141 net.cpp:157] Top shape: 250 96 30 30 (21600000)
I0118 13:25:47.573833  3141 net.cpp:165] Memory required for data: 308355000
I0118 13:25:47.573904  3141 layer_factory.hpp:76] Creating layer pool1
I0118 13:25:47.573971  3141 net.cpp:106] Creating Layer pool1
I0118 13:25:47.574029  3141 net.cpp:454] pool1 <- conv1_BN
I0118 13:25:47.574091  3141 net.cpp:411] pool1 -> pool1
I0118 13:25:47.585402  3141 net.cpp:150] Setting up pool1
I0118 13:25:47.585436  3141 net.cpp:157] Top shape: 250 96 15 15 (5400000)
I0118 13:25:47.585441  3141 net.cpp:165] Memory required for data: 329955000
I0118 13:25:47.585449  3141 layer_factory.hpp:76] Creating layer conv2
I0118 13:25:47.585494  3141 net.cpp:106] Creating Layer conv2
I0118 13:25:47.585500  3141 net.cpp:454] conv2 <- pool1
I0118 13:25:47.585510  3141 net.cpp:411] conv2 -> conv2
I0118 13:25:47.611335  3141 net.cpp:150] Setting up conv2
I0118 13:25:47.611559  3141 net.cpp:157] Top shape: 250 256 15 15 (14400000)
I0118 13:25:47.611627  3141 net.cpp:165] Memory required for data: 387555000
I0118 13:25:47.611699  3141 layer_factory.hpp:76] Creating layer relu2
I0118 13:25:47.611781  3141 net.cpp:106] Creating Layer relu2
I0118 13:25:47.611845  3141 net.cpp:454] relu2 <- conv2
I0118 13:25:47.611915  3141 net.cpp:397] relu2 -> conv2 (in-place)
I0118 13:25:47.612843  3141 net.cpp:150] Setting up relu2
I0118 13:25:47.612928  3141 net.cpp:157] Top shape: 250 256 15 15 (14400000)
I0118 13:25:47.613082  3141 net.cpp:165] Memory required for data: 445155000
I0118 13:25:47.613153  3141 layer_factory.hpp:76] Creating layer conv2_BN
I0118 13:25:47.613225  3141 net.cpp:106] Creating Layer conv2_BN
I0118 13:25:47.613288  3141 net.cpp:454] conv2_BN <- conv2
I0118 13:25:47.613359  3141 net.cpp:411] conv2_BN -> conv2_BN
I0118 13:25:47.613726  3141 net.cpp:150] Setting up conv2_BN
I0118 13:25:47.613797  3141 net.cpp:157] Top shape: 250 256 15 15 (14400000)
I0118 13:25:47.613840  3141 net.cpp:165] Memory required for data: 502755000
I0118 13:25:47.613889  3141 layer_factory.hpp:76] Creating layer pool2
I0118 13:25:47.613932  3141 net.cpp:106] Creating Layer pool2
I0118 13:25:47.613978  3141 net.cpp:454] pool2 <- conv2_BN
I0118 13:25:47.614022  3141 net.cpp:411] pool2 -> pool2
I0118 13:25:47.615175  3141 net.cpp:150] Setting up pool2
I0118 13:25:47.615285  3141 net.cpp:157] Top shape: 250 256 7 7 (3136000)
I0118 13:25:47.615350  3141 net.cpp:165] Memory required for data: 515299000
I0118 13:25:47.615440  3141 layer_factory.hpp:76] Creating layer conv3
I0118 13:25:47.615517  3141 net.cpp:106] Creating Layer conv3
I0118 13:25:47.615579  3141 net.cpp:454] conv3 <- pool2
I0118 13:25:47.615649  3141 net.cpp:411] conv3 -> conv3
I0118 13:25:47.653903  3141 net.cpp:150] Setting up conv3
I0118 13:25:47.654091  3141 net.cpp:157] Top shape: 250 384 7 7 (4704000)
I0118 13:25:47.654156  3141 net.cpp:165] Memory required for data: 534115000
I0118 13:25:47.654225  3141 layer_factory.hpp:76] Creating layer relu3
I0118 13:25:47.654304  3141 net.cpp:106] Creating Layer relu3
I0118 13:25:47.654363  3141 net.cpp:454] relu3 <- conv3
I0118 13:25:47.654427  3141 net.cpp:397] relu3 -> conv3 (in-place)
I0118 13:25:47.655441  3141 net.cpp:150] Setting up relu3
I0118 13:25:47.655544  3141 net.cpp:157] Top shape: 250 384 7 7 (4704000)
I0118 13:25:47.655607  3141 net.cpp:165] Memory required for data: 552931000
I0118 13:25:47.655670  3141 layer_factory.hpp:76] Creating layer conv3_BN
I0118 13:25:47.655758  3141 net.cpp:106] Creating Layer conv3_BN
I0118 13:25:47.655822  3141 net.cpp:454] conv3_BN <- conv3
I0118 13:25:47.655894  3141 net.cpp:411] conv3_BN -> conv3_BN
I0118 13:25:47.656307  3141 net.cpp:150] Setting up conv3_BN
I0118 13:25:47.656369  3141 net.cpp:157] Top shape: 250 384 7 7 (4704000)
I0118 13:25:47.656409  3141 net.cpp:165] Memory required for data: 571747000
I0118 13:25:47.656455  3141 layer_factory.hpp:76] Creating layer conv4
I0118 13:25:47.656502  3141 net.cpp:106] Creating Layer conv4
I0118 13:25:47.656540  3141 net.cpp:454] conv4 <- conv3_BN
I0118 13:25:47.656585  3141 net.cpp:411] conv4 -> conv4
I0118 13:25:47.688801  3141 net.cpp:150] Setting up conv4
I0118 13:25:47.688937  3141 net.cpp:157] Top shape: 250 384 7 7 (4704000)
I0118 13:25:47.688979  3141 net.cpp:165] Memory required for data: 590563000
I0118 13:25:47.689028  3141 layer_factory.hpp:76] Creating layer relu4
I0118 13:25:47.689072  3141 net.cpp:106] Creating Layer relu4
I0118 13:25:47.689110  3141 net.cpp:454] relu4 <- conv4
I0118 13:25:47.689154  3141 net.cpp:397] relu4 -> conv4 (in-place)
I0118 13:25:47.690104  3141 net.cpp:150] Setting up relu4
I0118 13:25:47.690172  3141 net.cpp:157] Top shape: 250 384 7 7 (4704000)
I0118 13:25:47.690213  3141 net.cpp:165] Memory required for data: 609379000
I0118 13:25:47.690345  3141 layer_factory.hpp:76] Creating layer conv4_BN
I0118 13:25:47.690392  3141 net.cpp:106] Creating Layer conv4_BN
I0118 13:25:47.690433  3141 net.cpp:454] conv4_BN <- conv4
I0118 13:25:47.690477  3141 net.cpp:411] conv4_BN -> conv4_BN
I0118 13:25:47.690829  3141 net.cpp:150] Setting up conv4_BN
I0118 13:25:47.690878  3141 net.cpp:157] Top shape: 250 384 7 7 (4704000)
I0118 13:25:47.690917  3141 net.cpp:165] Memory required for data: 628195000
I0118 13:25:47.690963  3141 layer_factory.hpp:76] Creating layer conv5
I0118 13:25:47.691010  3141 net.cpp:106] Creating Layer conv5
I0118 13:25:47.691050  3141 net.cpp:454] conv5 <- conv4_BN
I0118 13:25:47.691093  3141 net.cpp:411] conv5 -> conv5
I0118 13:25:47.714231  3141 net.cpp:150] Setting up conv5
I0118 13:25:47.714395  3141 net.cpp:157] Top shape: 250 256 7 7 (3136000)
I0118 13:25:47.714462  3141 net.cpp:165] Memory required for data: 640739000
I0118 13:25:47.714548  3141 layer_factory.hpp:76] Creating layer relu5
I0118 13:25:47.714622  3141 net.cpp:106] Creating Layer relu5
I0118 13:25:47.714684  3141 net.cpp:454] relu5 <- conv5
I0118 13:25:47.714746  3141 net.cpp:397] relu5 -> conv5 (in-place)
I0118 13:25:47.715728  3141 net.cpp:150] Setting up relu5
I0118 13:25:47.715811  3141 net.cpp:157] Top shape: 250 256 7 7 (3136000)
I0118 13:25:47.715876  3141 net.cpp:165] Memory required for data: 653283000
I0118 13:25:47.715966  3141 layer_factory.hpp:76] Creating layer conv5_BN
I0118 13:25:47.716032  3141 net.cpp:106] Creating Layer conv5_BN
I0118 13:25:47.716094  3141 net.cpp:454] conv5_BN <- conv5
I0118 13:25:47.716181  3141 net.cpp:411] conv5_BN -> conv5_BN
I0118 13:25:47.716549  3141 net.cpp:150] Setting up conv5_BN
I0118 13:25:47.716616  3141 net.cpp:157] Top shape: 250 256 7 7 (3136000)
I0118 13:25:47.716657  3141 net.cpp:165] Memory required for data: 665827000
I0118 13:25:47.716703  3141 layer_factory.hpp:76] Creating layer pool5
I0118 13:25:47.716750  3141 net.cpp:106] Creating Layer pool5
I0118 13:25:47.716797  3141 net.cpp:454] pool5 <- conv5_BN
I0118 13:25:47.716838  3141 net.cpp:411] pool5 -> pool5
I0118 13:25:47.718039  3141 net.cpp:150] Setting up pool5
I0118 13:25:47.718179  3141 net.cpp:157] Top shape: 250 256 3 3 (576000)
I0118 13:25:47.718245  3141 net.cpp:165] Memory required for data: 668131000
I0118 13:25:47.718315  3141 layer_factory.hpp:76] Creating layer fc6
I0118 13:25:47.718452  3141 net.cpp:106] Creating Layer fc6
I0118 13:25:47.718523  3141 net.cpp:454] fc6 <- pool5
I0118 13:25:47.718693  3141 net.cpp:411] fc6 -> fc6
I0118 13:25:47.903771  3141 net.cpp:150] Setting up fc6
I0118 13:25:47.904144  3141 net.cpp:157] Top shape: 250 2048 (512000)
I0118 13:25:47.904270  3141 net.cpp:165] Memory required for data: 670179000
I0118 13:25:47.904402  3141 layer_factory.hpp:76] Creating layer relu6
I0118 13:25:47.904526  3141 net.cpp:106] Creating Layer relu6
I0118 13:25:47.904647  3141 net.cpp:454] relu6 <- fc6
I0118 13:25:47.904769  3141 net.cpp:397] relu6 -> fc6 (in-place)
I0118 13:25:47.905968  3141 net.cpp:150] Setting up relu6
I0118 13:25:47.906097  3141 net.cpp:157] Top shape: 250 2048 (512000)
I0118 13:25:47.906165  3141 net.cpp:165] Memory required for data: 672227000
I0118 13:25:47.906239  3141 layer_factory.hpp:76] Creating layer fc6_BN
I0118 13:25:47.906313  3141 net.cpp:106] Creating Layer fc6_BN
I0118 13:25:47.906380  3141 net.cpp:454] fc6_BN <- fc6
I0118 13:25:47.906452  3141 net.cpp:411] fc6_BN -> fc6_BN
I0118 13:25:47.907018  3141 net.cpp:150] Setting up fc6_BN
I0118 13:25:47.907112  3141 net.cpp:157] Top shape: 250 2048 (512000)
I0118 13:25:47.907178  3141 net.cpp:165] Memory required for data: 674275000
I0118 13:25:47.907402  3141 layer_factory.hpp:76] Creating layer drop6
I0118 13:25:47.907526  3141 net.cpp:106] Creating Layer drop6
I0118 13:25:47.907748  3141 net.cpp:454] drop6 <- fc6_BN
I0118 13:25:47.907922  3141 net.cpp:411] drop6 -> drop6
I0118 13:25:47.908108  3141 net.cpp:150] Setting up drop6
I0118 13:25:47.908236  3141 net.cpp:157] Top shape: 250 2048 (512000)
I0118 13:25:47.908349  3141 net.cpp:165] Memory required for data: 676323000
I0118 13:25:47.908437  3141 layer_factory.hpp:76] Creating layer fc7
I0118 13:25:47.908512  3141 net.cpp:106] Creating Layer fc7
I0118 13:25:47.908579  3141 net.cpp:454] fc7 <- drop6
I0118 13:25:47.908653  3141 net.cpp:411] fc7 -> fc7
I0118 13:25:48.150979  3141 net.cpp:150] Setting up fc7
I0118 13:25:48.151296  3141 net.cpp:157] Top shape: 250 2048 (512000)
I0118 13:25:48.151428  3141 net.cpp:165] Memory required for data: 678371000
I0118 13:25:48.151562  3141 layer_factory.hpp:76] Creating layer relu7
I0118 13:25:48.151690  3141 net.cpp:106] Creating Layer relu7
I0118 13:25:48.151808  3141 net.cpp:454] relu7 <- fc7
I0118 13:25:48.151885  3141 net.cpp:397] relu7 -> fc7 (in-place)
I0118 13:25:48.152983  3141 net.cpp:150] Setting up relu7
I0118 13:25:48.153100  3141 net.cpp:157] Top shape: 250 2048 (512000)
I0118 13:25:48.153169  3141 net.cpp:165] Memory required for data: 680419000
I0118 13:25:48.153239  3141 layer_factory.hpp:76] Creating layer fc7_BN
I0118 13:25:48.153316  3141 net.cpp:106] Creating Layer fc7_BN
I0118 13:25:48.153383  3141 net.cpp:454] fc7_BN <- fc7
I0118 13:25:48.153457  3141 net.cpp:411] fc7_BN -> fc7_BN
I0118 13:25:48.153935  3141 net.cpp:150] Setting up fc7_BN
I0118 13:25:48.154063  3141 net.cpp:157] Top shape: 250 2048 (512000)
I0118 13:25:48.154165  3141 net.cpp:165] Memory required for data: 682467000
I0118 13:25:48.154242  3141 layer_factory.hpp:76] Creating layer drop7
I0118 13:25:48.154402  3141 net.cpp:106] Creating Layer drop7
I0118 13:25:48.154531  3141 net.cpp:454] drop7 <- fc7_BN
I0118 13:25:48.154656  3141 net.cpp:411] drop7 -> drop7
I0118 13:25:48.154814  3141 net.cpp:150] Setting up drop7
I0118 13:25:48.154896  3141 net.cpp:157] Top shape: 250 2048 (512000)
I0118 13:25:48.154960  3141 net.cpp:165] Memory required for data: 684515000
I0118 13:25:48.155025  3141 layer_factory.hpp:76] Creating layer fc8
I0118 13:25:48.155097  3141 net.cpp:106] Creating Layer fc8
I0118 13:25:48.155160  3141 net.cpp:454] fc8 <- drop7
I0118 13:25:48.155230  3141 net.cpp:411] fc8 -> fc8
I0118 13:25:48.232772  3141 net.cpp:150] Setting up fc8
I0118 13:25:48.233060  3141 net.cpp:157] Top shape: 250 1000 (250000)
I0118 13:25:48.233193  3141 net.cpp:165] Memory required for data: 685515000
I0118 13:25:48.233325  3141 layer_factory.hpp:76] Creating layer fc8_fc8_0_split
I0118 13:25:48.233449  3141 net.cpp:106] Creating Layer fc8_fc8_0_split
I0118 13:25:48.233571  3141 net.cpp:454] fc8_fc8_0_split <- fc8
I0118 13:25:48.233674  3141 net.cpp:411] fc8_fc8_0_split -> fc8_fc8_0_split_0
I0118 13:25:48.233763  3141 net.cpp:411] fc8_fc8_0_split -> fc8_fc8_0_split_1
I0118 13:25:48.233892  3141 net.cpp:150] Setting up fc8_fc8_0_split
I0118 13:25:48.233968  3141 net.cpp:157] Top shape: 250 1000 (250000)
I0118 13:25:48.234033  3141 net.cpp:157] Top shape: 250 1000 (250000)
I0118 13:25:48.234097  3141 net.cpp:165] Memory required for data: 687515000
I0118 13:25:48.234160  3141 layer_factory.hpp:76] Creating layer accuracy
I0118 13:25:48.234241  3141 net.cpp:106] Creating Layer accuracy
I0118 13:25:48.234311  3141 net.cpp:454] accuracy <- fc8_fc8_0_split_0
I0118 13:25:48.234380  3141 net.cpp:454] accuracy <- label_data_1_split_0
I0118 13:25:48.234447  3141 net.cpp:411] accuracy -> accuracy
…
