…
      mirror: false
      crop_size: 128
      mean_value: 104
      mean_value: 117
      mean_value: 123
      force_color: true
      resize_param {
        prob: 1
        resize_mode: FIT_SMALL_SIZE
        height: 144
        width: 144
        pad_mode: MIRRORED
        pad_value: 104
        pad_value: 117
        pad_value: 124
        interp_mode: CUBIC
        center_object: false
        max_angle: 0
      }
    }
    data_param {
      source: "/home/dima/datasets/ilsvrc12_val_lmdb"
      batch_size: 50
      backend: LMDB
    }
  }
  layer {
    name: "conv1"
    type: "Convolution"
    bottom: "data"
    top: "conv1"
    param {
      lr_mult: 1
      decay_mult: 1
    }
    param {
      lr_mult: 2
      decay_mult: 0
    }
    convolution_param {
      num_output: 96
      kernel_size: 11
      stride: 4
      weight_filler {
        type: "gaussian"
        std: 0.01
      }
      bias_filler {
        type: "constant"
      }
    }
  }
  layer {
    name: "relu1"
    type: "ReLU"
    bottom: "conv1"
    top: "conv1"
  }
  layer {
    name: "pool1"
    type: "Pooling"
    bottom: "conv1"
    top: "pool1"
    pooling_param {
      pool: MAX
      kernel_size: 3
      stride: 2
    }
  }
  layer {
    name: "conv2"
    type: "Convolution"
    bottom: "pool1"
    top: "conv2"
    param {
      lr_mult: 1
      decay_mult: 1
    }
    param {
      lr_mult: 2
      decay_mult: 0
    }
    convolution_param {
      num_output: 256
      pad: 2
      kernel_size: 5
      group: 2
      weight_filler {
        type: "gaussian"
        std: 0.01
      }
      bias_filler {
        type: "constant"
      }
    }
  }
  layer {
    name: "relu2"
    type: "ReLU"
    bottom: "conv2"
    top: "conv2"
  }
  layer {
    name: "pool2"
    type: "Pooling"
    bottom: "conv2"
    top: "pool2"
    pooling_param {
      pool: MAX
      kernel_size: 3
      stride: 2
    }
  }
  layer {
    name: "conv3"
    type: "Convolution"
    bottom: "pool2"
    top: "conv3"
    param {
      lr_mult: 1
      decay_mult: 1
    }
    param {
      lr_mult: 2
      decay_mult: 0
    }
    convolution_param {
      num_output: 384
      pad: 1
      kernel_size: 3
      weight_filler {
        type: "gaussian"
        std: 0.01
      }
      bias_filler {
        type: "constant"
      }
    }
  }
  layer {
    name: "relu3"
    type: "ReLU"
    bottom: "conv3"
    top: "conv3"
  }
  layer {
    name: "conv4"
    type: "Convolution"
    bottom: "conv3"
    top: "conv4"
    param {
      lr_mult: 1
      decay_mult: 1
    }
    param {
      lr_mult: 2
      decay_mult: 0
    }
    convolution_param {
      num_output: 384
      pad: 1
      kernel_size: 3
      group: 2
      weight_filler {
        type: "gaussian"
        std: 0.01
      }
      bias_filler {
        type: "constant"
      }
    }
  }
  layer {
    name: "relu4"
    type: "ReLU"
    bottom: "conv4"
    top: "conv4"
  }
  layer {
    name: "conv5"
    type: "Convolution"
    bottom: "conv4"
    top: "conv5"
    param {
      lr_mult: 1
      decay_mult: 1
    }
    param {
      lr_mult: 2
      decay_mult: 0
    }
    convolution_param {
      num_output: 256
      pad: 1
      kernel_size: 3
      group: 2
      weight_filler {
        type: "gaussian"
        std: 0.01
      }
      bias_filler {
        type: "constant"
      }
    }
  }
  layer {
    name: "relu5"
    type: "ReLU"
    bottom: "conv5"
    top: "conv5"
  }
  layer {
    name: "pool5"
    type: "Pooling"
    bottom: "conv5"
    top: "pool5"
    pooling_param {
      pool: MAX
      kernel_size: 3
      stride: 2
    }
  }
  layer {
    name: "fc6"
    type: "InnerProduct"
    bottom: "pool5"
    top: "fc6"
    param {
      lr_mult: 1
      decay_mult: 1
    }
    param {
      lr_mult: 2
      decay_mult: 0
    }
    inner_product_param {
      num_output: 2048
      weight_filler {
        type: "gaussian"
        std: 0.005
      }
      bias_filler {
        type: "constant"
      }
    }
  }
  layer {
    name: "relu6"
    type: "ReLU"
    bottom: "fc6"
    top: "fc6"
  }
  layer {
    name: "drop6"
    type: "Dropout"
    bottom: "fc6"
    top: "fc6"
    dropout_param {
      dropout_ratio: 0.5
    }
  }
  layer {
    name: "fc7"
    type: "InnerProduct"
    bottom: "fc6"
    top: "fc7"
    param {
      lr_mult: 1
      decay_mult: 1
    }
    param {
      lr_mult: 2
      decay_mult: 0
    }
    inner_product_param {
      num_output: 2048
      weight_filler {
        type: "gaussian"
        std: 0.005
      }
      bias_filler {
        type: "constant"
      }
    }
  }
  layer {
    name: "relu7"
    type: "ReLU"
    bottom: "fc7"
    top: "fc7"
  }
  layer {
    name: "drop7"
    type: "Dropout"
    bottom: "fc7"
    top: "fc7"
    dropout_param {
      dropout_ratio: 0.5
    }
  }
  layer {
    name: "fc8"
    type: "InnerProduct"
    bottom: "fc7"
    top: "fc8"
    param {
      lr_mult: 1
      decay_mult: 1
    }
    param {
      lr_mult: 2
      decay_mult: 0
    }
    inner_product_param {
      num_output: 1000
      weight_filler {
        type: "gaussian"
        std: 0.01
      }
      bias_filler {
        type: "constant"
      }
    }
  }
  layer {
    name: "accuracy"
    type: "Accuracy"
    bottom: "fc8"
    bottom: "label"
    top: "accuracy"
    include {
      phase: TEST
    }
  }
  layer {
    name: "loss"
    type: "SoftmaxWithLoss"
    bottom: "fc8"
    bottom: "label"
    top: "loss"
  }
}
average_loss: 20
iter_size: 1
type: "SGD"
I0111 10:49:19.031424  8738 solver.cpp:85] Creating training net specified in net_param.
I0111 10:49:19.031497  8738 net.cpp:322] The NetState phase (0) differed from the phase (1) specified by a rule in layer data
I0111 10:49:19.031515  8738 net.cpp:322] The NetState phase (0) differed from the phase (1) specified by a rule in layer accuracy
I0111 10:49:19.031651  8738 net.cpp:49] Initializing net from parameters: 
name: "CaffeNet"
state {
  phase: TRAIN
}
layer {
  name: "data"
  type: "Data"
  top: "data"
  top: "label"
  include {
    phase: TRAIN
  }
  transform_param {
    scale: 0.04
    mirror: true
    crop_size: 128
    mean_value: 104
    mean_value: 117
    mean_value: 124
    force_color: true
    resize_param {
      prob: 1
      resize_mode: FIT_SMALL_SIZE
      height: 144
      width: 144
      pad_mode: MIRRORED
      pad_value: 104
      pad_value: 117
      pad_value: 124
      interp_mode: CUBIC
      center_object: false
      max_angle: 0
    }
  }
  data_param {
    source: "/home/dima/datasets/ilsvrc12_train_lmdb"
    batch_size: 256
    backend: LMDB
  }
}
layer {
  name: "conv1"
  type: "Convolution"
  bottom: "data"
  top: "conv1"
  param {
    lr_mult: 1
    decay_mult: 1
  }
  param {
    lr_mult: 2
    decay_mult: 0
  }
  convolution_param {
    num_output: 96
    kernel_size: 11
    stride: 4
    weight_filler {
      type: "gaussian"
      std: 0.01
    }
    bias_filler {
      type: "constant"
    }
  }
}
layer {
  name: "relu1"
  type: "ReLU"
  bottom: "conv1"
  top: "conv1"
}
layer {
  name: "pool1"
  type: "Pooling"
  bottom: "conv1"
  top: "pool1"
  pooling_param {
    pool: MAX
    kernel_size: 3
    stride: 2
  }
}
layer {
  name: "conv2"
  type: "Convolution"
  bottom: "pool1"
  top: "conv2"
  param {
    lr_mult: 1
    decay_mult: 1
  }
  param {
    lr_mult: 2
    decay_mult: 0
  }
  convolution_param {
    num_output: 256
    pad: 2
    kernel_size: 5
    group: 2
    weight_filler {
      type: "gaussian"
      std: 0.01
    }
    bias_filler {
      type: "constant"
    }
  }
}
layer {
  name: "relu2"
  type: "ReLU"
  bottom: "conv2"
  top: "conv2"
}
layer {
  name: "pool2"
  type: "Pooling"
  bottom: "conv2"
  top: "pool2"
  pooling_param {
    pool: MAX
    kernel_size: 3
    stride: 2
  }
}
layer {
  name: "conv3"
  type: "Convolution"
  bottom: "pool2"
  top: "conv3"
  param {
    lr_mult: 1
    decay_mult: 1
  }
  param {
    lr_mult: 2
    decay_mult: 0
  }
  convolution_param {
    num_output: 384
    pad: 1
    kernel_size: 3
    weight_filler {
      type: "gaussian"
      std: 0.01
    }
    bias_filler {
      type: "constant"
    }
  }
}
layer {
  name: "relu3"
  type: "ReLU"
  bottom: "conv3"
  top: "conv3"
}
layer {
  name: "conv4"
  type: "Convolution"
  bottom: "conv3"
  top: "conv4"
  param {
    lr_mult: 1
    decay_mult: 1
  }
  param {
    lr_mult: 2
    decay_mult: 0
  }
  convolution_param {
    num_output: 384
    pad: 1
    kernel_size: 3
    group: 2
    weight_filler {
      type: "gaussian"
      std: 0.01
    }
    bias_filler {
      type: "constant"
    }
  }
}
layer {
  name: "relu4"
  type: "ReLU"
  bottom: "conv4"
  top: "conv4"
}
layer {
  name: "conv5"
  type: "Convolution"
  bottom: "conv4"
  top: "conv5"
  param {
    lr_mult: 1
    decay_mult: 1
  }
  param {
    lr_mult: 2
    decay_mult: 0
  }
  convolution_param {
    num_output: 256
    pad: 1
    kernel_size: 3
    group: 2
    weight_filler {
      type: "gaussian"
      std: 0.01
    }
    bias_filler {
      type: "constant"
    }
  }
}
layer {
  name: "relu5"
  type: "ReLU"
  bottom: "conv5"
  top: "conv5"
}
layer {
  name: "pool5"
  type: "Pooling"
  bottom: "conv5"
  top: "pool5"
  pooling_param {
    pool: MAX
    kernel_size: 3
    stride: 2
  }
}
layer {
  name: "fc6"
  type: "InnerProduct"
  bottom: "pool5"
  top: "fc6"
  param {
    lr_mult: 1
    decay_mult: 1
  }
  param {
    lr_mult: 2
    decay_mult: 0
  }
  inner_product_param {
    num_output: 2048
    weight_filler {
      type: "gaussian"
      std: 0.005
    }
    bias_filler {
      type: "constant"
    }
  }
}
layer {
  name: "relu6"
  type: "ReLU"
  bottom: "fc6"
  top: "fc6"
}
layer {
  name: "drop6"
  type: "Dropout"
  bottom: "fc6"
  top: "fc6"
  dropout_param {
    dropout_ratio: 0.5
  }
}
layer {
  name: "fc7"
  type: "InnerProduct"
  bottom: "fc6"
  top: "fc7"
  param {
    lr_mult: 1
    decay_mult: 1
  }
  param {
    lr_mult: 2
    decay_mult: 0
  }
  inner_product_param {
    num_output: 2048
    weight_filler {
      type: "gaussian"
      std: 0.005
    }
    bias_filler {
      type: "constant"
    }
  }
}
layer {
  name: "relu7"
  type: "ReLU"
  bottom: "fc7"
  top: "fc7"
}
layer {
  name: "drop7"
  type: "Dropout"
  bottom: "fc7"
  top: "fc7"
  dropout_param {
    dropout_ratio: 0.5
  }
}
layer {
  name: "fc8"
  type: "InnerProduct"
  bottom: "fc7"
  top: "fc8"
  param {
    lr_mult: 1
    decay_mult: 1
  }
  param {
    lr_mult: 2
    decay_mult: 0
  }
  inner_product_param {
    num_output: 1000
    weight_filler {
      type: "gaussian"
      std: 0.01
    }
    bias_filler {
      type: "constant"
    }
  }
}
layer {
  name: "loss"
  type: "SoftmaxWithLoss"
  bottom: "fc8"
  bottom: "label"
  top: "loss"
}
I0111 10:49:19.031760  8738 layer_factory.hpp:76] Creating layer data
I0111 10:49:19.032500  8738 net.cpp:106] Creating Layer data
I0111 10:49:19.032536  8738 net.cpp:411] data -> data
I0111 10:49:19.032569  8738 net.cpp:411] data -> label
I0111 10:49:19.033196  8745 db_lmdb.cpp:38] Opened lmdb /home/dima/datasets/ilsvrc12_train_lmdb
I0111 10:49:19.048537  8738 data_layer.cpp:41] output data size: 256,3,128,128
I0111 10:49:19.121372  8738 net.cpp:150] Setting up data
I0111 10:49:19.121415  8738 net.cpp:157] Top shape: 256 3 128 128 (12582912)
I0111 10:49:19.121420  8738 net.cpp:157] Top shape: 256 (256)
I0111 10:49:19.121433  8738 net.cpp:165] Memory required for data: 50332672
I0111 10:49:19.121439  8738 layer_factory.hpp:76] Creating layer conv1
I0111 10:49:19.121464  8738 net.cpp:106] Creating Layer conv1
I0111 10:49:19.121467  8738 net.cpp:454] conv1 <- data
I0111 10:49:19.121479  8738 net.cpp:411] conv1 -> conv1
I0111 10:49:19.220664  8738 cudnn_conv_layer.cpp:194] Reallocating workspace storage: 4356
I0111 10:49:19.220854  8738 net.cpp:150] Setting up conv1
I0111 10:49:19.220875  8738 net.cpp:157] Top shape: 256 96 30 30 (22118400)
I0111 10:49:19.220877  8738 net.cpp:165] Memory required for data: 138806272
I0111 10:49:19.220895  8738 layer_factory.hpp:76] Creating layer relu1
I0111 10:49:19.220904  8738 net.cpp:106] Creating Layer relu1
I0111 10:49:19.220907  8738 net.cpp:454] relu1 <- conv1
I0111 10:49:19.220911  8738 net.cpp:397] relu1 -> conv1 (in-place)
I0111 10:49:19.221094  8738 net.cpp:150] Setting up relu1
I0111 10:49:19.221122  8738 net.cpp:157] Top shape: 256 96 30 30 (22118400)
I0111 10:49:19.221153  8738 net.cpp:165] Memory required for data: 227279872
I0111 10:49:19.221156  8738 layer_factory.hpp:76] Creating layer pool1
I0111 10:49:19.221161  8738 net.cpp:106] Creating Layer pool1
I0111 10:49:19.221164  8738 net.cpp:454] pool1 <- conv1
I0111 10:49:19.221168  8738 net.cpp:411] pool1 -> pool1
I0111 10:49:19.221521  8738 net.cpp:150] Setting up pool1
I0111 10:49:19.221529  8738 net.cpp:157] Top shape: 256 96 15 15 (5529600)
I0111 10:49:19.221541  8738 net.cpp:165] Memory required for data: 249398272
I0111 10:49:19.221544  8738 layer_factory.hpp:76] Creating layer conv2
I0111 10:49:19.221561  8738 net.cpp:106] Creating Layer conv2
I0111 10:49:19.221565  8738 net.cpp:454] conv2 <- pool1
I0111 10:49:19.221568  8738 net.cpp:411] conv2 -> conv2
I0111 10:49:19.229954  8738 cudnn_conv_layer.cpp:194] Reallocating workspace storage: 28800
I0111 10:49:19.229982  8738 net.cpp:150] Setting up conv2
I0111 10:49:19.229989  8738 net.cpp:157] Top shape: 256 256 15 15 (14745600)
I0111 10:49:19.229991  8738 net.cpp:165] Memory required for data: 308380672
I0111 10:49:19.230038  8738 layer_factory.hpp:76] Creating layer relu2
I0111 10:49:19.230056  8738 net.cpp:106] Creating Layer relu2
I0111 10:49:19.230058  8738 net.cpp:454] relu2 <- conv2
I0111 10:49:19.230062  8738 net.cpp:397] relu2 -> conv2 (in-place)
I0111 10:49:19.230218  8738 net.cpp:150] Setting up relu2
I0111 10:49:19.230226  8738 net.cpp:157] Top shape: 256 256 15 15 (14745600)
I0111 10:49:19.230237  8738 net.cpp:165] Memory required for data: 367363072
I0111 10:49:19.230239  8738 layer_factory.hpp:76] Creating layer pool2
I0111 10:49:19.230262  8738 net.cpp:106] Creating Layer pool2
I0111 10:49:19.230265  8738 net.cpp:454] pool2 <- conv2
I0111 10:49:19.230269  8738 net.cpp:411] pool2 -> pool2
I0111 10:49:19.230566  8738 net.cpp:150] Setting up pool2
I0111 10:49:19.230572  8738 net.cpp:157] Top shape: 256 256 7 7 (3211264)
I0111 10:49:19.230584  8738 net.cpp:165] Memory required for data: 380208128
I0111 10:49:19.230587  8738 layer_factory.hpp:76] Creating layer conv3
I0111 10:49:19.230624  8738 net.cpp:106] Creating Layer conv3
I0111 10:49:19.230629  8738 net.cpp:454] conv3 <- pool2
I0111 10:49:19.230644  8738 net.cpp:411] conv3 -> conv3
I0111 10:49:19.251938  8738 cudnn_conv_layer.cpp:194] Reallocating workspace storage: 27648
I0111 10:49:19.251971  8738 net.cpp:150] Setting up conv3
I0111 10:49:19.251978  8738 net.cpp:157] Top shape: 256 384 7 7 (4816896)
I0111 10:49:19.251981  8738 net.cpp:165] Memory required for data: 399475712
I0111 10:49:19.252001  8738 layer_factory.hpp:76] Creating layer relu3
I0111 10:49:19.252010  8738 net.cpp:106] Creating Layer relu3
I0111 10:49:19.252013  8738 net.cpp:454] relu3 <- conv3
I0111 10:49:19.252019  8738 net.cpp:397] relu3 -> conv3 (in-place)
I0111 10:49:19.252288  8738 net.cpp:150] Setting up relu3
I0111 10:49:19.252296  8738 net.cpp:157] Top shape: 256 384 7 7 (4816896)
I0111 10:49:19.252308  8738 net.cpp:165] Memory required for data: 418743296
I0111 10:49:19.252310  8738 layer_factory.hpp:76] Creating layer conv4
I0111 10:49:19.252320  8738 net.cpp:106] Creating Layer conv4
I0111 10:49:19.252331  8738 net.cpp:454] conv4 <- conv3
I0111 10:49:19.252352  8738 net.cpp:411] conv4 -> conv4
I0111 10:49:19.269140  8738 cudnn_conv_layer.cpp:194] Reallocating workspace storage: 41472
I0111 10:49:19.269170  8738 net.cpp:150] Setting up conv4
I0111 10:49:19.269177  8738 net.cpp:157] Top shape: 256 384 7 7 (4816896)
I0111 10:49:19.269179  8738 net.cpp:165] Memory required for data: 438010880
I0111 10:49:19.269196  8738 layer_factory.hpp:76] Creating layer relu4
I0111 10:49:19.269203  8738 net.cpp:106] Creating Layer relu4
I0111 10:49:19.269207  8738 net.cpp:454] relu4 <- conv4
I0111 10:49:19.269213  8738 net.cpp:397] relu4 -> conv4 (in-place)
I0111 10:49:19.269363  8738 net.cpp:150] Setting up relu4
I0111 10:49:19.269371  8738 net.cpp:157] Top shape: 256 384 7 7 (4816896)
I0111 10:49:19.269381  8738 net.cpp:165] Memory required for data: 457278464
I0111 10:49:19.269383  8738 layer_factory.hpp:76] Creating layer conv5
I0111 10:49:19.269392  8738 net.cpp:106] Creating Layer conv5
I0111 10:49:19.269394  8738 net.cpp:454] conv5 <- conv4
I0111 10:49:19.269398  8738 net.cpp:411] conv5 -> conv5
I0111 10:49:19.281123  8738 cudnn_conv_layer.cpp:194] Reallocating workspace storage: 41472
I0111 10:49:19.281152  8738 net.cpp:150] Setting up conv5
I0111 10:49:19.281158  8738 net.cpp:157] Top shape: 256 256 7 7 (3211264)
I0111 10:49:19.281162  8738 net.cpp:165] Memory required for data: 470123520
I0111 10:49:19.281182  8738 layer_factory.hpp:76] Creating layer relu5
I0111 10:49:19.281188  8738 net.cpp:106] Creating Layer relu5
I0111 10:49:19.281191  8738 net.cpp:454] relu5 <- conv5
I0111 10:49:19.281195  8738 net.cpp:397] relu5 -> conv5 (in-place)
I0111 10:49:19.281347  8738 net.cpp:150] Setting up relu5
I0111 10:49:19.281353  8738 net.cpp:157] Top shape: 256 256 7 7 (3211264)
I0111 10:49:19.281365  8738 net.cpp:165] Memory required for data: 482968576
I0111 10:49:19.281368  8738 layer_factory.hpp:76] Creating layer pool5
I0111 10:49:19.281371  8738 net.cpp:106] Creating Layer pool5
I0111 10:49:19.281373  8738 net.cpp:454] pool5 <- conv5
I0111 10:49:19.281388  8738 net.cpp:411] pool5 -> pool5
I0111 10:49:19.281733  8738 net.cpp:150] Setting up pool5
I0111 10:49:19.281739  8738 net.cpp:157] Top shape: 256 256 3 3 (589824)
I0111 10:49:19.281757  8738 net.cpp:165] Memory required for data: 485327872
I0111 10:49:19.281760  8738 layer_factory.hpp:76] Creating layer fc6
I0111 10:49:19.281781  8738 net.cpp:106] Creating Layer fc6
I0111 10:49:19.281783  8738 net.cpp:454] fc6 <- pool5
I0111 10:49:19.281787  8738 net.cpp:411] fc6 -> fc6
I0111 10:49:19.391748  8738 net.cpp:150] Setting up fc6
I0111 10:49:19.391775  8738 net.cpp:157] Top shape: 256 2048 (524288)
I0111 10:49:19.391779  8738 net.cpp:165] Memory required for data: 487425024
I0111 10:49:19.391788  8738 layer_factory.hpp:76] Creating layer relu6
I0111 10:49:19.391805  8738 net.cpp:106] Creating Layer relu6
I0111 10:49:19.391809  8738 net.cpp:454] relu6 <- fc6
I0111 10:49:19.391815  8738 net.cpp:397] relu6 -> fc6 (in-place)
I0111 10:49:19.392041  8738 net.cpp:150] Setting up relu6
I0111 10:49:19.392067  8738 net.cpp:157] Top shape: 256 2048 (524288)
I0111 10:49:19.392069  8738 net.cpp:165] Memory required for data: 489522176
I0111 10:49:19.392072  8738 layer_factory.hpp:76] Creating layer drop6
I0111 10:49:19.392108  8738 net.cpp:106] Creating Layer drop6
I0111 10:49:19.392112  8738 net.cpp:454] drop6 <- fc6
I0111 10:49:19.392115  8738 net.cpp:397] drop6 -> fc6 (in-place)
I0111 10:49:19.392164  8738 net.cpp:150] Setting up drop6
I0111 10:49:19.392169  8738 net.cpp:157] Top shape: 256 2048 (524288)
I0111 10:49:19.392171  8738 net.cpp:165] Memory required for data: 491619328
I0111 10:49:19.392174  8738 layer_factory.hpp:76] Creating layer fc7
I0111 10:49:19.392195  8738 net.cpp:106] Creating Layer fc7
I0111 10:49:19.392199  8738 net.cpp:454] fc7 <- fc6
I0111 10:49:19.392204  8738 net.cpp:411] fc7 -> fc7
I0111 10:49:19.489528  8738 net.cpp:150] Setting up fc7
I0111 10:49:19.489557  8738 net.cpp:157] Top shape: 256 2048 (524288)
I0111 10:49:19.489559  8738 net.cpp:165] Memory required for data: 493716480
I0111 10:49:19.489567  8738 layer_factory.hpp:76] Creating layer relu7
I0111 10:49:19.489576  8738 net.cpp:106] Creating Layer relu7
I0111 10:49:19.489589  8738 net.cpp:454] relu7 <- fc7
I0111 10:49:19.489594  8738 net.cpp:397] relu7 -> fc7 (in-place)
I0111 10:49:19.490031  8738 net.cpp:150] Setting up relu7
I0111 10:49:19.490048  8738 net.cpp:157] Top shape: 256 2048 (524288)
I0111 10:49:19.490051  8738 net.cpp:165] Memory required for data: 495813632
I0111 10:49:19.490062  8738 layer_factory.hpp:76] Creating layer drop7
I0111 10:49:19.490069  8738 net.cpp:106] Creating Layer drop7
I0111 10:49:19.490072  8738 net.cpp:454] drop7 <- fc7
I0111 10:49:19.490077  8738 net.cpp:397] drop7 -> fc7 (in-place)
I0111 10:49:19.490106  8738 net.cpp:150] Setting up drop7
I0111 10:49:19.490125  8738 net.cpp:157] Top shape: 256 2048 (524288)
I0111 10:49:19.490128  8738 net.cpp:165] Memory required for data: 497910784
I0111 10:49:19.490129  8738 layer_factory.hpp:76] Creating layer fc8
I0111 10:49:19.490137  8738 net.cpp:106] Creating Layer fc8
I0111 10:49:19.490139  8738 net.cpp:454] fc8 <- fc7
I0111 10:49:19.490144  8738 net.cpp:411] fc8 -> fc8
I0111 10:49:19.537988  8738 net.cpp:150] Setting up fc8
I0111 10:49:19.538014  8738 net.cpp:157] Top shape: 256 1000 (256000)
I0111 10:49:19.538017  8738 net.cpp:165] Memory required for data: 498934784
I0111 10:49:19.538025  8738 layer_factory.hpp:76] Creating layer loss
I0111 10:49:19.538044  8738 net.cpp:106] Creating Layer loss
I0111 10:49:19.538048  8738 net.cpp:454] loss <- fc8
I0111 10:49:19.538053  8738 net.cpp:454] loss <- label
I0111 10:49:19.538060  8738 net.cpp:411] loss -> loss
I0111 10:49:19.538082  8738 layer_factory.hpp:76] Creating layer loss
…
    phase: TEST
  }
  transform_param {
    scale: 0.04
    mirror: false
    crop_size: 128
    mean_value: 104
    mean_value: 117
    mean_value: 123
    force_color: true
    resize_param {
      prob: 1
      resize_mode: FIT_SMALL_SIZE
      height: 144
      width: 144
      pad_mode: MIRRORED
      pad_value: 104
      pad_value: 117
      pad_value: 124
      interp_mode: CUBIC
      center_object: false
      max_angle: 0
    }
  }
  data_param {
    source: "/home/dima/datasets/ilsvrc12_val_lmdb"
    batch_size: 50
    backend: LMDB
  }
}
layer {
  name: "conv1"
  type: "Convolution"
  bottom: "data"
  top: "conv1"
  param {
    lr_mult: 1
    decay_mult: 1
  }
  param {
    lr_mult: 2
    decay_mult: 0
  }
  convolution_param {
    num_output: 96
    kernel_size: 11
    stride: 4
    weight_filler {
      type: "gaussian"
      std: 0.01
    }
    bias_filler {
      type: "constant"
    }
  }
}
layer {
  name: "relu1"
  type: "ReLU"
  bottom: "conv1"
  top: "conv1"
}
layer {
  name: "pool1"
  type: "Pooling"
  bottom: "conv1"
  top: "pool1"
  pooling_param {
    pool: MAX
    kernel_size: 3
    stride: 2
  }
}
layer {
  name: "conv2"
  type: "Convolution"
  bottom: "pool1"
  top: "conv2"
  param {
    lr_mult: 1
    decay_mult: 1
  }
  param {
    lr_mult: 2
    decay_mult: 0
  }
  convolution_param {
    num_output: 256
    pad: 2
    kernel_size: 5
    group: 2
    weight_filler {
      type: "gaussian"
      std: 0.01
    }
    bias_filler {
      type: "constant"
    }
  }
}
layer {
  name: "relu2"
  type: "ReLU"
  bottom: "conv2"
  top: "conv2"
}
layer {
  name: "pool2"
  type: "Pooling"
  bottom: "conv2"
  top: "pool2"
  pooling_param {
    pool: MAX
    kernel_size: 3
    stride: 2
  }
}
layer {
  name: "conv3"
  type: "Convolution"
  bottom: "pool2"
  top: "conv3"
  param {
    lr_mult: 1
    decay_mult: 1
  }
  param {
    lr_mult: 2
    decay_mult: 0
  }
  convolution_param {
    num_output: 384
    pad: 1
    kernel_size: 3
    weight_filler {
      type: "gaussian"
      std: 0.01
    }
    bias_filler {
      type: "constant"
    }
  }
}
layer {
  name: "relu3"
  type: "ReLU"
  bottom: "conv3"
  top: "conv3"
}
layer {
  name: "conv4"
  type: "Convolution"
  bottom: "conv3"
  top: "conv4"
  param {
    lr_mult: 1
    decay_mult: 1
  }
  param {
    lr_mult: 2
    decay_mult: 0
  }
  convolution_param {
    num_output: 384
    pad: 1
    kernel_size: 3
    group: 2
    weight_filler {
      type: "gaussian"
      std: 0.01
    }
    bias_filler {
      type: "constant"
    }
  }
}
layer {
  name: "relu4"
  type: "ReLU"
  bottom: "conv4"
  top: "conv4"
}
layer {
  name: "conv5"
  type: "Convolution"
  bottom: "conv4"
  top: "conv5"
  param {
    lr_mult: 1
    decay_mult: 1
  }
  param {
    lr_mult: 2
    decay_mult: 0
  }
  convolution_param {
    num_output: 256
    pad: 1
    kernel_size: 3
    group: 2
    weight_filler {
      type: "gaussian"
      std: 0.01
    }
    bias_filler {
      type: "constant"
    }
  }
}
layer {
  name: "relu5"
  type: "ReLU"
  bottom: "conv5"
  top: "conv5"
}
layer {
  name: "pool5"
  type: "Pooling"
  bottom: "conv5"
  top: "pool5"
  pooling_param {
    pool: MAX
    kernel_size: 3
    stride: 2
  }
}
layer {
  name: "fc6"
  type: "InnerProduct"
  bottom: "pool5"
  top: "fc6"
  param {
    lr_mult: 1
    decay_mult: 1
  }
  param {
    lr_mult: 2
    decay_mult: 0
  }
  inner_product_param {
    num_output: 2048
    weight_filler {
      type: "gaussian"
      std: 0.005
    }
    bias_filler {
      type: "constant"
    }
  }
}
layer {
  name: "relu6"
  type: "ReLU"
  bottom: "fc6"
  top: "fc6"
}
layer {
  name: "drop6"
  type: "Dropout"
  bottom: "fc6"
  top: "fc6"
  dropout_param {
    dropout_ratio: 0.5
  }
}
layer {
  name: "fc7"
  type: "InnerProduct"
  bottom: "fc6"
  top: "fc7"
  param {
    lr_mult: 1
    decay_mult: 1
  }
  param {
    lr_mult: 2
    decay_mult: 0
  }
  inner_product_param {
    num_output: 2048
    weight_filler {
      type: "gaussian"
      std: 0.005
    }
    bias_filler {
      type: "constant"
    }
  }
}
layer {
  name: "relu7"
  type: "ReLU"
  bottom: "fc7"
  top: "fc7"
}
layer {
  name: "drop7"
  type: "Dropout"
  bottom: "fc7"
  top: "fc7"
  dropout_param {
    dropout_ratio: 0.5
  }
}
layer {
  name: "fc8"
  type: "InnerProduct"
  bottom: "fc7"
  top: "fc8"
  param {
    lr_mult: 1
    decay_mult: 1
  }
  param {
    lr_mult: 2
    decay_mult: 0
  }
  inner_product_param {
    num_output: 1000
    weight_filler {
      type: "gaussian"
      std: 0.01
    }
    bias_filler {
      type: "constant"
    }
  }
}
layer {
  name: "accuracy"
  type: "Accuracy"
  bottom: "fc8"
  bottom: "label"
  top: "accuracy"
  include {
    phase: TEST
  }
}
layer {
  name: "loss"
  type: "SoftmaxWithLoss"
  bottom: "fc8"
  bottom: "label"
  top: "loss"
}
I0111 10:49:19.539796  8738 layer_factory.hpp:76] Creating layer data
I0111 10:49:19.540016  8738 net.cpp:106] Creating Layer data
I0111 10:49:19.540031  8738 net.cpp:411] data -> data
I0111 10:49:19.540040  8738 net.cpp:411] data -> label
I0111 10:49:19.541229  8754 db_lmdb.cpp:38] Opened lmdb /home/dima/datasets/ilsvrc12_val_lmdb
I0111 10:49:19.543087  8738 data_layer.cpp:41] output data size: 50,3,128,128
I0111 10:49:19.558949  8738 net.cpp:150] Setting up data
I0111 10:49:19.559003  8738 net.cpp:157] Top shape: 50 3 128 128 (2457600)
I0111 10:49:19.559010  8738 net.cpp:157] Top shape: 50 (50)
I0111 10:49:19.559012  8738 net.cpp:165] Memory required for data: 9830600
I0111 10:49:19.559017  8738 layer_factory.hpp:76] Creating layer label_data_1_split
I0111 10:49:19.559054  8738 net.cpp:106] Creating Layer label_data_1_split
I0111 10:49:19.559059  8738 net.cpp:454] label_data_1_split <- label
I0111 10:49:19.559065  8738 net.cpp:411] label_data_1_split -> label_data_1_split_0
I0111 10:49:19.559074  8738 net.cpp:411] label_data_1_split -> label_data_1_split_1
I0111 10:49:19.559136  8738 net.cpp:150] Setting up label_data_1_split
I0111 10:49:19.559168  8738 net.cpp:157] Top shape: 50 (50)
I0111 10:49:19.559172  8738 net.cpp:157] Top shape: 50 (50)
I0111 10:49:19.559175  8738 net.cpp:165] Memory required for data: 9831000
I0111 10:49:19.559177  8738 layer_factory.hpp:76] Creating layer conv1
I0111 10:49:19.559186  8738 net.cpp:106] Creating Layer conv1
I0111 10:49:19.559190  8738 net.cpp:454] conv1 <- data
I0111 10:49:19.559193  8738 net.cpp:411] conv1 -> conv1
I0111 10:49:19.561051  8738 cudnn_conv_layer.cpp:194] Reallocating workspace storage: 4356
I0111 10:49:19.561089  8738 net.cpp:150] Setting up conv1
I0111 10:49:19.561094  8738 net.cpp:157] Top shape: 50 96 30 30 (4320000)
I0111 10:49:19.561097  8738 net.cpp:165] Memory required for data: 27111000
I0111 10:49:19.561105  8738 layer_factory.hpp:76] Creating layer relu1
I0111 10:49:19.561110  8738 net.cpp:106] Creating Layer relu1
I0111 10:49:19.561112  8738 net.cpp:454] relu1 <- conv1
I0111 10:49:19.561116  8738 net.cpp:397] relu1 -> conv1 (in-place)
I0111 10:49:19.562891  8738 net.cpp:150] Setting up relu1
I0111 10:49:19.562898  8738 net.cpp:157] Top shape: 50 96 30 30 (4320000)
I0111 10:49:19.562911  8738 net.cpp:165] Memory required for data: 44391000
I0111 10:49:19.562913  8738 layer_factory.hpp:76] Creating layer pool1
I0111 10:49:19.562919  8738 net.cpp:106] Creating Layer pool1
I0111 10:49:19.562922  8738 net.cpp:454] pool1 <- conv1
I0111 10:49:19.562925  8738 net.cpp:411] pool1 -> pool1
I0111 10:49:19.563163  8738 net.cpp:150] Setting up pool1
I0111 10:49:19.563171  8738 net.cpp:157] Top shape: 50 96 15 15 (1080000)
I0111 10:49:19.563184  8738 net.cpp:165] Memory required for data: 48711000
I0111 10:49:19.563185  8738 layer_factory.hpp:76] Creating layer conv2
I0111 10:49:19.563192  8738 net.cpp:106] Creating Layer conv2
I0111 10:49:19.563213  8738 net.cpp:454] conv2 <- pool1
I0111 10:49:19.563217  8738 net.cpp:411] conv2 -> conv2
I0111 10:49:19.572314  8738 cudnn_conv_layer.cpp:194] Reallocating workspace storage: 28800
I0111 10:49:19.572429  8738 net.cpp:150] Setting up conv2
I0111 10:49:19.572453  8738 net.cpp:157] Top shape: 50 256 15 15 (2880000)
I0111 10:49:19.572456  8738 net.cpp:165] Memory required for data: 60231000
I0111 10:49:19.572466  8738 layer_factory.hpp:76] Creating layer relu2
I0111 10:49:19.572489  8738 net.cpp:106] Creating Layer relu2
I0111 10:49:19.572494  8738 net.cpp:454] relu2 <- conv2
I0111 10:49:19.572509  8738 net.cpp:397] relu2 -> conv2 (in-place)
I0111 10:49:19.572734  8738 net.cpp:150] Setting up relu2
I0111 10:49:19.572756  8738 net.cpp:157] Top shape: 50 256 15 15 (2880000)
I0111 10:49:19.572758  8738 net.cpp:165] Memory required for data: 71751000
I0111 10:49:19.572772  8738 layer_factory.hpp:76] Creating layer pool2
I0111 10:49:19.572785  8738 net.cpp:106] Creating Layer pool2
I0111 10:49:19.572788  8738 net.cpp:454] pool2 <- conv2
I0111 10:49:19.572827  8738 net.cpp:411] pool2 -> pool2
I0111 10:49:19.573168  8738 net.cpp:150] Setting up pool2
I0111 10:49:19.573186  8738 net.cpp:157] Top shape: 50 256 7 7 (627200)
I0111 10:49:19.573189  8738 net.cpp:165] Memory required for data: 74259800
I0111 10:49:19.573192  8738 layer_factory.hpp:76] Creating layer conv3
I0111 10:49:19.573201  8738 net.cpp:106] Creating Layer conv3
I0111 10:49:19.573204  8738 net.cpp:454] conv3 <- pool2
I0111 10:49:19.573210  8738 net.cpp:411] conv3 -> conv3
I0111 10:49:19.595418  8738 cudnn_conv_layer.cpp:194] Reallocating workspace storage: 27648
I0111 10:49:19.595556  8738 net.cpp:150] Setting up conv3
I0111 10:49:19.595582  8738 net.cpp:157] Top shape: 50 384 7 7 (940800)
I0111 10:49:19.595584  8738 net.cpp:165] Memory required for data: 78023000
I0111 10:49:19.595594  8738 layer_factory.hpp:76] Creating layer relu3
I0111 10:49:19.595602  8738 net.cpp:106] Creating Layer relu3
I0111 10:49:19.595607  8738 net.cpp:454] relu3 <- conv3
I0111 10:49:19.595618  8738 net.cpp:397] relu3 -> conv3 (in-place)
I0111 10:49:19.595784  8738 net.cpp:150] Setting up relu3
I0111 10:49:19.595791  8738 net.cpp:157] Top shape: 50 384 7 7 (940800)
I0111 10:49:19.595795  8738 net.cpp:165] Memory required for data: 81786200
I0111 10:49:19.595798  8738 layer_factory.hpp:76] Creating layer conv4
I0111 10:49:19.595804  8738 net.cpp:106] Creating Layer conv4
I0111 10:49:19.595806  8738 net.cpp:454] conv4 <- conv3
I0111 10:49:19.595811  8738 net.cpp:411] conv4 -> conv4
I0111 10:49:19.613574  8738 net.cpp:150] Setting up conv4
I0111 10:49:19.613610  8738 net.cpp:157] Top shape: 50 384 7 7 (940800)
I0111 10:49:19.613613  8738 net.cpp:165] Memory required for data: 85549400
I0111 10:49:19.613620  8738 layer_factory.hpp:76] Creating layer relu4
I0111 10:49:19.613628  8738 net.cpp:106] Creating Layer relu4
I0111 10:49:19.613631  8738 net.cpp:454] relu4 <- conv4
I0111 10:49:19.613637  8738 net.cpp:397] relu4 -> conv4 (in-place)
I0111 10:49:19.613826  8738 net.cpp:150] Setting up relu4
I0111 10:49:19.613833  8738 net.cpp:157] Top shape: 50 384 7 7 (940800)
I0111 10:49:19.613837  8738 net.cpp:165] Memory required for data: 89312600
I0111 10:49:19.613838  8738 layer_factory.hpp:76] Creating layer conv5
I0111 10:49:19.613847  8738 net.cpp:106] Creating Layer conv5
I0111 10:49:19.613849  8738 net.cpp:454] conv5 <- conv4
I0111 10:49:19.613857  8738 net.cpp:411] conv5 -> conv5
I0111 10:49:19.626143  8738 net.cpp:150] Setting up conv5
I0111 10:49:19.626173  8738 net.cpp:157] Top shape: 50 256 7 7 (627200)
I0111 10:49:19.626175  8738 net.cpp:165] Memory required for data: 91821400
I0111 10:49:19.626186  8738 layer_factory.hpp:76] Creating layer relu5
I0111 10:49:19.626245  8738 net.cpp:106] Creating Layer relu5
I0111 10:49:19.626250  8738 net.cpp:454] relu5 <- conv5
I0111 10:49:19.626257  8738 net.cpp:397] relu5 -> conv5 (in-place)
I0111 10:49:19.626538  8738 net.cpp:150] Setting up relu5
I0111 10:49:19.626556  8738 net.cpp:157] Top shape: 50 256 7 7 (627200)
I0111 10:49:19.626576  8738 net.cpp:165] Memory required for data: 94330200
I0111 10:49:19.626579  8738 layer_factory.hpp:76] Creating layer pool5
I0111 10:49:19.626585  8738 net.cpp:106] Creating Layer pool5
I0111 10:49:19.626588  8738 net.cpp:454] pool5 <- conv5
I0111 10:49:19.626595  8738 net.cpp:411] pool5 -> pool5
I0111 10:49:19.626835  8738 net.cpp:150] Setting up pool5
I0111 10:49:19.626853  8738 net.cpp:157] Top shape: 50 256 3 3 (115200)
I0111 10:49:19.626857  8738 net.cpp:165] Memory required for data: 94791000
I0111 10:49:19.626858  8738 layer_factory.hpp:76] Creating layer fc6
I0111 10:49:19.626865  8738 net.cpp:106] Creating Layer fc6
I0111 10:49:19.626868  8738 net.cpp:454] fc6 <- pool5
I0111 10:49:19.626873  8738 net.cpp:411] fc6 -> fc6
I0111 10:49:19.740473  8738 net.cpp:150] Setting up fc6
I0111 10:49:19.740501  8738 net.cpp:157] Top shape: 50 2048 (102400)
I0111 10:49:19.740504  8738 net.cpp:165] Memory required for data: 95200600
I0111 10:49:19.740514  8738 layer_factory.hpp:76] Creating layer relu6
I0111 10:49:19.740523  8738 net.cpp:106] Creating Layer relu6
I0111 10:49:19.740527  8738 net.cpp:454] relu6 <- fc6
I0111 10:49:19.740535  8738 net.cpp:397] relu6 -> fc6 (in-place)
I0111 10:49:19.740973  8738 net.cpp:150] Setting up relu6
I0111 10:49:19.740983  8738 net.cpp:157] Top shape: 50 2048 (102400)
I0111 10:49:19.740995  8738 net.cpp:165] Memory required for data: 95610200
I0111 10:49:19.740998  8738 layer_factory.hpp:76] Creating layer drop6
I0111 10:49:19.741003  8738 net.cpp:106] Creating Layer drop6
I0111 10:49:19.741006  8738 net.cpp:454] drop6 <- fc6
I0111 10:49:19.741014  8738 net.cpp:397] drop6 -> fc6 (in-place)
I0111 10:49:19.741042  8738 net.cpp:150] Setting up drop6
I0111 10:49:19.741046  8738 net.cpp:157] Top shape: 50 2048 (102400)
I0111 10:49:19.741047  8738 net.cpp:165] Memory required for data: 96019800
I0111 10:49:19.741050  8738 layer_factory.hpp:76] Creating layer fc7
I0111 10:49:19.741058  8738 net.cpp:106] Creating Layer fc7
I0111 10:49:19.741060  8738 net.cpp:454] fc7 <- fc6
I0111 10:49:19.741065  8738 net.cpp:411] fc7 -> fc7
I0111 10:49:19.841007  8738 net.cpp:150] Setting up fc7
I0111 10:49:19.841033  8738 net.cpp:157] Top shape: 50 2048 (102400)
I0111 10:49:19.841037  8738 net.cpp:165] Memory required for data: 96429400
I0111 10:49:19.841044  8738 layer_factory.hpp:76] Creating layer relu7
I0111 10:49:19.841053  8738 net.cpp:106] Creating Layer relu7
I0111 10:49:19.841066  8738 net.cpp:454] relu7 <- fc7
I0111 10:49:19.841071  8738 net.cpp:397] relu7 -> fc7 (in-place)
I0111 10:49:19.841385  8738 net.cpp:150] Setting up relu7
I0111 10:49:19.841393  8738 net.cpp:157] Top shape: 50 2048 (102400)
I0111 10:49:19.841405  8738 net.cpp:165] Memory required for data: 96839000
I0111 10:49:19.841408  8738 layer_factory.hpp:76] Creating layer drop7
I0111 10:49:19.841414  8738 net.cpp:106] Creating Layer drop7
I0111 10:49:19.841416  8738 net.cpp:454] drop7 <- fc7
I0111 10:49:19.841430  8738 net.cpp:397] drop7 -> fc7 (in-place)
I0111 10:49:19.841459  8738 net.cpp:150] Setting up drop7
I0111 10:49:19.841462  8738 net.cpp:157] Top shape: 50 2048 (102400)
I0111 10:49:19.841464  8738 net.cpp:165] Memory required for data: 97248600
I0111 10:49:19.841466  8738 layer_factory.hpp:76] Creating layer fc8
I0111 10:49:19.841473  8738 net.cpp:106] Creating Layer fc8
I0111 10:49:19.841475  8738 net.cpp:454] fc8 <- fc7
I0111 10:49:19.841480  8738 net.cpp:411] fc8 -> fc8
I0111 10:49:19.889238  8738 net.cpp:150] Setting up fc8
I0111 10:49:19.889266  8738 net.cpp:157] Top shape: 50 1000 (50000)
I0111 10:49:19.889268  8738 net.cpp:165] Memory required for data: 97448600
I0111 10:49:19.889277  8738 layer_factory.hpp:76] Creating layer fc8_fc8_0_split
I0111 10:49:19.889286  8738 net.cpp:106] Creating Layer fc8_fc8_0_split
I0111 10:49:19.889299  8738 net.cpp:454] fc8_fc8_0_split <- fc8
I0111 10:49:19.889307  8738 net.cpp:411] fc8_fc8_0_split -> fc8_fc8_0_split_0
I0111 10:49:19.889375  8738 net.cpp:411] fc8_fc8_0_split -> fc8_fc8_0_split_1
I0111 10:49:19.889436  8738 net.cpp:150] Setting up fc8_fc8_0_split
I0111 10:49:19.889462  8738 net.cpp:157] Top shape: 50 1000 (50000)
I0111 10:49:19.889467  8738 net.cpp:157] Top shape: 50 1000 (50000)
I0111 10:49:19.889469  8738 net.cpp:165] Memory required for data: 97848600
I0111 10:49:19.889472  8738 layer_factory.hpp:76] Creating layer accuracy
I0111 10:49:19.889480  8738 net.cpp:106] Creating Layer accuracy
I0111 10:49:19.889483  8738 net.cpp:454] accuracy <- fc8_fc8_0_split_0
I0111 10:49:19.889487  8738 net.cpp:454] accuracy <- label_data_1_split_0
I0111 10:49:19.889492  8738 net.cpp:411] accuracy -> accuracy
…
