…
      mirror: false
      crop_size: 128
      mean_value: 104
      mean_value: 117
      mean_value: 123
      force_color: true
      resize_param {
        prob: 1
        resize_mode: FIT_SMALL_SIZE
        height: 144
        width: 144
        pad_mode: MIRRORED
        pad_value: 104
        pad_value: 117
        pad_value: 124
        interp_mode: CUBIC
        center_object: false
        max_angle: 0
      }
    }
    data_param {
      source: "/home/old-ufo/datasets/imagenet/ilsvrc12_val_lmdb"
      batch_size: 250
      backend: LMDB
    }
  }
  layer {
    name: "conv1"
    type: "Convolution"
    bottom: "data"
    top: "conv1"
    param {
      lr_mult: 1
      decay_mult: 1
    }
    param {
      lr_mult: 2
      decay_mult: 0
    }
    convolution_param {
      num_output: 96
      kernel_size: 11
      stride: 4
      weight_filler {
        type: "gaussian"
        std: 0.01
      }
      bias_filler {
        type: "constant"
      }
    }
  }
  layer {
    name: "relu1"
    type: "ReLU"
    bottom: "conv1"
    top: "conv1"
  }
  layer {
    name: "conv1_BN"
    type: "BatchNorm"
    bottom: "conv1"
    top: "conv1_BN"
    param {
      lr_mult: 0
      decay_mult: 0
    }
    param {
      lr_mult: 0
      decay_mult: 0
    }
    param {
      lr_mult: 0
      decay_mult: 0
    }
    include {
      phase: TRAIN
    }
    batch_norm_param {
      use_global_stats: false
      moving_average_fraction: 0.95
    }
  }
  layer {
    name: "conv1_BN"
    type: "BatchNorm"
    bottom: "conv1"
    top: "conv1_BN"
    param {
      lr_mult: 0
      decay_mult: 0
    }
    param {
      lr_mult: 0
      decay_mult: 0
    }
    param {
      lr_mult: 0
      decay_mult: 0
    }
    include {
      phase: TEST
    }
    batch_norm_param {
      use_global_stats: true
      moving_average_fraction: 0.95
    }
  }
  layer {
    name: "pool1"
    type: "Pooling"
    bottom: "conv1_BN"
    top: "pool1"
    pooling_param {
      pool: MAX
      kernel_size: 3
      stride: 2
    }
  }
  layer {
    name: "conv2"
    type: "Convolution"
    bottom: "pool1"
    top: "conv2"
    param {
      lr_mult: 1
      decay_mult: 1
    }
    param {
      lr_mult: 2
      decay_mult: 0
    }
    convolution_param {
      num_output: 256
      pad: 2
      kernel_size: 5
      group: 2
      weight_filler {
        type: "gaussian"
        std: 0.01
      }
      bias_filler {
        type: "constant"
      }
    }
  }
  layer {
    name: "relu2"
    type: "ReLU"
    bottom: "conv2"
    top: "conv2"
  }
  layer {
    name: "conv2_BN"
    type: "BatchNorm"
    bottom: "conv2"
    top: "conv2_BN"
    param {
      lr_mult: 0
      decay_mult: 0
    }
    param {
      lr_mult: 0
      decay_mult: 0
    }
    param {
      lr_mult: 0
      decay_mult: 0
    }
    include {
      phase: TRAIN
    }
    batch_norm_param {
      use_global_stats: false
      moving_average_fraction: 0.95
    }
  }
  layer {
    name: "conv2_BN"
    type: "BatchNorm"
    bottom: "conv2"
    top: "conv2_BN"
    param {
      lr_mult: 0
      decay_mult: 0
    }
    param {
      lr_mult: 0
      decay_mult: 0
    }
    param {
      lr_mult: 0
      decay_mult: 0
    }
    include {
      phase: TEST
    }
    batch_norm_param {
      use_global_stats: true
      moving_average_fraction: 0.95
    }
  }
  layer {
    name: "pool2"
    type: "Pooling"
    bottom: "conv2_BN"
    top: "pool2"
    pooling_param {
      pool: MAX
      kernel_size: 3
      stride: 2
    }
  }
  layer {
    name: "conv3"
    type: "Convolution"
    bottom: "pool2"
    top: "conv3"
    param {
      lr_mult: 1
      decay_mult: 1
    }
    param {
      lr_mult: 2
      decay_mult: 0
    }
    convolution_param {
      num_output: 384
      pad: 1
      kernel_size: 3
      weight_filler {
        type: "gaussian"
        std: 0.01
      }
      bias_filler {
        type: "constant"
      }
    }
  }
  layer {
    name: "relu3"
    type: "ReLU"
    bottom: "conv3"
    top: "conv3"
  }
  layer {
    name: "conv3_BN"
    type: "BatchNorm"
    bottom: "conv3"
    top: "conv3_BN"
    param {
      lr_mult: 0
      decay_mult: 0
    }
    param {
      lr_mult: 0
      decay_mult: 0
    }
    param {
      lr_mult: 0
      decay_mult: 0
    }
    include {
      phase: TRAIN
    }
    batch_norm_param {
      use_global_stats: false
      moving_average_fraction: 0.95
    }
  }
  layer {
    name: "conv3_BN"
    type: "BatchNorm"
    bottom: "conv3"
    top: "conv3_BN"
    param {
      lr_mult: 0
      decay_mult: 0
    }
    param {
      lr_mult: 0
      decay_mult: 0
    }
    param {
      lr_mult: 0
      decay_mult: 0
    }
    include {
      phase: TEST
    }
    batch_norm_param {
      use_global_stats: true
      moving_average_fraction: 0.95
    }
  }
  layer {
    name: "conv4"
    type: "Convolution"
    bottom: "conv3_BN"
    top: "conv4"
    param {
      lr_mult: 1
      decay_mult: 1
    }
    param {
      lr_mult: 2
      decay_mult: 0
    }
    convolution_param {
      num_output: 384
      pad: 1
      kernel_size: 3
      group: 2
      weight_filler {
        type: "gaussian"
        std: 0.01
      }
      bias_filler {
        type: "constant"
      }
    }
  }
  layer {
    name: "relu4"
    type: "ReLU"
    bottom: "conv4"
    top: "conv4"
  }
  layer {
    name: "conv4_BN"
    type: "BatchNorm"
    bottom: "conv4"
    top: "conv4_BN"
    param {
      lr_mult: 0
      decay_mult: 0
    }
    param {
      lr_mult: 0
      decay_mult: 0
    }
    param {
      lr_mult: 0
      decay_mult: 0
    }
    include {
      phase: TRAIN
    }
    batch_norm_param {
      use_global_stats: false
      moving_average_fraction: 0.95
    }
  }
  layer {
    name: "conv4_BN"
    type: "BatchNorm"
    bottom: "conv4"
    top: "conv4_BN"
    param {
      lr_mult: 0
      decay_mult: 0
    }
    param {
      lr_mult: 0
      decay_mult: 0
    }
    param {
      lr_mult: 0
      decay_mult: 0
    }
    include {
      phase: TEST
    }
    batch_norm_param {
      use_global_stats: true
      moving_average_fraction: 0.95
    }
  }
  layer {
    name: "conv5"
    type: "Convolution"
    bottom: "conv4_BN"
    top: "conv5"
    param {
      lr_mult: 1
      decay_mult: 1
    }
    param {
      lr_mult: 2
      decay_mult: 0
    }
    convolution_param {
      num_output: 256
      pad: 1
      kernel_size: 3
      group: 2
      weight_filler {
        type: "gaussian"
        std: 0.01
      }
      bias_filler {
        type: "constant"
      }
    }
  }
  layer {
    name: "relu5"
    type: "ReLU"
    bottom: "conv5"
    top: "conv5"
  }
  layer {
    name: "conv5_BN"
    type: "BatchNorm"
    bottom: "conv5"
    top: "conv5_BN"
    param {
      lr_mult: 0
      decay_mult: 0
    }
    param {
      lr_mult: 0
      decay_mult: 0
    }
    param {
      lr_mult: 0
      decay_mult: 0
    }
    include {
      phase: TRAIN
    }
    batch_norm_param {
      use_global_stats: false
      moving_average_fraction: 0.95
    }
  }
  layer {
    name: "conv5_BN"
    type: "BatchNorm"
    bottom: "conv5"
    top: "conv5_BN"
    param {
      lr_mult: 0
      decay_mult: 0
    }
    param {
      lr_mult: 0
      decay_mult: 0
    }
    param {
      lr_mult: 0
      decay_mult: 0
    }
    include {
      phase: TEST
    }
    batch_norm_param {
      use_global_stats: true
      moving_average_fraction: 0.95
    }
  }
  layer {
    name: "pool5"
    type: "Pooling"
    bottom: "conv5_BN"
    top: "pool5"
    pooling_param {
      pool: MAX
      kernel_size: 3
      stride: 2
    }
  }
  layer {
    name: "fc6"
    type: "InnerProduct"
    bottom: "pool5"
    top: "fc6"
    param {
      lr_mult: 1
      decay_mult: 1
    }
    param {
      lr_mult: 2
      decay_mult: 0
    }
    inner_product_param {
      num_output: 2048
      weight_filler {
        type: "gaussian"
        std: 0.005
      }
      bias_filler {
        type: "constant"
      }
    }
  }
  layer {
    name: "relu6"
    type: "ReLU"
    bottom: "fc6"
    top: "fc6"
  }
  layer {
    name: "fc6_BN"
    type: "BatchNorm"
    bottom: "fc6"
    top: "fc6_BN"
    param {
      lr_mult: 0
      decay_mult: 0
    }
    param {
      lr_mult: 0
      decay_mult: 0
    }
    param {
      lr_mult: 0
      decay_mult: 0
    }
    include {
      phase: TRAIN
    }
    batch_norm_param {
      use_global_stats: false
      moving_average_fraction: 0.95
    }
  }
  layer {
    name: "fc6_BN"
    type: "BatchNorm"
    bottom: "fc6"
    top: "fc6_BN"
    param {
      lr_mult: 0
      decay_mult: 0
    }
    param {
      lr_mult: 0
      decay_mult: 0
    }
    param {
      lr_mult: 0
      decay_mult: 0
    }
    include {
      phase: TEST
    }
    batch_norm_param {
      use_global_stats: true
      moving_average_fraction: 0.95
    }
  }
  layer {
    name: "drop6"
    type: "Dropout"
    bottom: "fc6_BN"
    top: "drop6"
    dropout_param {
      dropout_ratio: 0.2
    }
  }
  layer {
    name: "fc7"
    type: "InnerProduct"
    bottom: "drop6"
    top: "fc7"
    param {
      lr_mult: 1
      decay_mult: 1
    }
    param {
      lr_mult: 2
      decay_mult: 0
    }
    inner_product_param {
      num_output: 2048
      weight_filler {
        type: "gaussian"
        std: 0.005
      }
      bias_filler {
        type: "constant"
      }
    }
  }
  layer {
    name: "relu7"
    type: "ReLU"
    bottom: "fc7"
    top: "fc7"
  }
  layer {
    name: "fc7_BN"
    type: "BatchNorm"
    bottom: "fc7"
    top: "fc7_BN"
    param {
      lr_mult: 0
      decay_mult: 0
    }
    param {
      lr_mult: 0
      decay_mult: 0
    }
    param {
      lr_mult: 0
      decay_mult: 0
    }
    include {
      phase: TRAIN
    }
    batch_norm_param {
      use_global_stats: false
      moving_average_fraction: 0.95
    }
  }
  layer {
    name: "fc7_BN"
    type: "BatchNorm"
    bottom: "fc7"
    top: "fc7_BN"
    param {
      lr_mult: 0
      decay_mult: 0
    }
    param {
      lr_mult: 0
      decay_mult: 0
    }
    param {
      lr_mult: 0
      decay_mult: 0
    }
    include {
      phase: TEST
    }
    batch_norm_param {
      use_global_stats: true
      moving_average_fraction: 0.95
    }
  }
  layer {
    name: "drop7"
    type: "Dropout"
    bottom: "fc7_BN"
    top: "drop7"
    dropout_param {
      dropout_ratio: 0.2
    }
  }
  layer {
    name: "fc8"
    type: "InnerProduct"
    bottom: "drop7"
    top: "fc8"
    param {
      lr_mult: 1
      decay_mult: 1
    }
    param {
      lr_mult: 2
      decay_mult: 0
    }
    inner_product_param {
      num_output: 1000
      weight_filler {
        type: "gaussian"
        std: 0.01
      }
      bias_filler {
        type: "constant"
      }
    }
  }
  layer {
    name: "accuracy"
    type: "Accuracy"
    bottom: "fc8"
    bottom: "label"
    top: "accuracy"
    include {
      phase: TEST
    }
  }
  layer {
    name: "loss"
    type: "SoftmaxWithLoss"
    bottom: "fc8"
    bottom: "label"
    top: "loss"
  }
}
test_initialization: false
average_loss: 20
iter_size: 1
type: "SGD"
I0117 13:58:05.191637 17780 solver.cpp:86] Creating training net specified in net_param.
I0117 13:58:05.191743 17780 net.cpp:322] The NetState phase (0) differed from the phase (1) specified by a rule in layer data
I0117 13:58:05.191753 17780 net.cpp:322] The NetState phase (0) differed from the phase (1) specified by a rule in layer conv1_BN
…
  transform_param {
    scale: 0.04
    mirror: true
    crop_size: 128
    mean_value: 104
    mean_value: 117
    mean_value: 124
    force_color: true
    resize_param {
      prob: 1
      resize_mode: FIT_SMALL_SIZE
      height: 144
      width: 144
      pad_mode: MIRRORED
      pad_value: 104
      pad_value: 117
      pad_value: 124
      interp_mode: CUBIC
      center_object: false
      max_angle: 0
    }
  }
  data_param {
    source: "/home/old-ufo/datasets/imagenet/ilsvrc12_train_shuffle_lmdb"
    batch_size: 256
    backend: LMDB
  }
}
layer {
  name: "conv1"
  type: "Convolution"
  bottom: "data"
  top: "conv1"
  param {
    lr_mult: 1
    decay_mult: 1
  }
  param {
    lr_mult: 2
    decay_mult: 0
  }
  convolution_param {
    num_output: 96
    kernel_size: 11
    stride: 4
    weight_filler {
      type: "gaussian"
      std: 0.01
    }
    bias_filler {
      type: "constant"
    }
  }
}
layer {
  name: "relu1"
  type: "ReLU"
  bottom: "conv1"
  top: "conv1"
}
layer {
  name: "conv1_BN"
  type: "BatchNorm"
  bottom: "conv1"
  top: "conv1_BN"
  param {
    lr_mult: 0
    decay_mult: 0
  }
  param {
    lr_mult: 0
    decay_mult: 0
  }
  param {
    lr_mult: 0
    decay_mult: 0
  }
  include {
    phase: TRAIN
  }
  batch_norm_param {
    use_global_stats: false
    moving_average_fraction: 0.95
  }
}
layer {
  name: "pool1"
  type: "Pooling"
  bottom: "conv1_BN"
  top: "pool1"
  pooling_param {
    pool: MAX
    kernel_size: 3
    stride: 2
  }
}
layer {
  name: "conv2"
  type: "Convolution"
  bottom: "pool1"
  top: "conv2"
  param {
    lr_mult: 1
    decay_mult: 1
  }
  param {
    lr_mult: 2
    decay_mult: 0
  }
  convolution_param {
    num_output: 256
    pad: 2
    kernel_size: 5
    group: 2
    weight_filler {
      type: "gaussian"
      std: 0.01
    }
    bias_filler {
      type: "constant"
    }
  }
}
layer {
  name: "relu2"
  type: "ReLU"
  bottom: "conv2"
  top: "conv2"
}
layer {
  name: "conv2_BN"
  type: "BatchNorm"
  bottom: "conv2"
  top: "conv2_BN"
  param {
    lr_mult: 0
    decay_mult: 0
  }
  param {
    lr_mult: 0
    decay_mult: 0
  }
  param {
    lr_mult: 0
    decay_mult: 0
  }
  include {
    phase: TRAIN
  }
  batch_norm_param {
    use_global_stats: false
    moving_average_fraction: 0.95
  }
}
layer {
  name: "pool2"
  type: "Pooling"
  bottom: "conv2_BN"
  top: "pool2"
  pooling_param {
    pool: MAX
    kernel_size: 3
    stride: 2
  }
}
layer {
  name: "conv3"
  type: "Convolution"
  bottom: "pool2"
  top: "conv3"
  param {
    lr_mult: 1
    decay_mult: 1
  }
  param {
    lr_mult: 2
    decay_mult: 0
  }
  convolution_param {
    num_output: 384
    pad: 1
    kernel_size: 3
    weight_filler {
      type: "gaussian"
      std: 0.01
    }
    bias_filler {
      type: "constant"
    }
  }
}
layer {
  name: "relu3"
  type: "ReLU"
  bottom: "conv3"
  top: "conv3"
}
layer {
  name: "conv3_BN"
  type: "BatchNorm"
  bottom: "conv3"
  top: "conv3_BN"
  param {
    lr_mult: 0
    decay_mult: 0
  }
  param {
    lr_mult: 0
    decay_mult: 0
  }
  param {
    lr_mult: 0
    decay_mult: 0
  }
  include {
    phase: TRAIN
  }
  batch_norm_param {
    use_global_stats: false
    moving_average_fraction: 0.95
  }
}
layer {
  name: "conv4"
  type: "Convolution"
  bottom: "conv3_BN"
  top: "conv4"
  param {
    lr_mult: 1
    decay_mult: 1
  }
  param {
    lr_mult: 2
    decay_mult: 0
  }
  convolution_param {
    num_output: 384
    pad: 1
    kernel_size: 3
    group: 2
    weight_filler {
      type: "gaussian"
      std: 0.01
    }
    bias_filler {
      type: "constant"
    }
  }
}
layer {
  name: "relu4"
  type: "ReLU"
  bottom: "conv4"
  top: "conv4"
}
layer {
  name: "conv4_BN"
  type: "BatchNorm"
  bottom: "conv4"
  top: "conv4_BN"
  param {
    lr_mult: 0
    decay_mult: 0
  }
  param {
    lr_mult: 0
    decay_mult: 0
  }
  param {
    lr_mult: 0
    decay_mult: 0
  }
  include {
    phase: TRAIN
  }
  batch_norm_param {
    use_global_stats: false
    moving_average_fraction: 0.95
  }
}
layer {
  name: "conv5"
  type: "Convolution"
  bottom: "conv4_BN"
  top: "conv5"
  param {
    lr_mult: 1
    decay_mult: 1
  }
  param {
    lr_mult: 2
    decay_mult: 0
  }
  convolution_param {
    num_output: 256
    pad: 1
    kernel_size: 3
    group: 2
    weight_filler {
      type: "gaussian"
      std: 0.01
    }
    bias_filler {
      type: "constant"
    }
  }
}
layer {
  name: "relu5"
  type: "ReLU"
  bottom: "conv5"
  top: "conv5"
}
layer {
  name: "conv5_BN"
  type: "BatchNorm"
  bottom: "conv5"
  top: "conv5_BN"
  param {
    lr_mult: 0
    decay_mult: 0
  }
  param {
    lr_mult: 0
    decay_mult: 0
  }
  param {
    lr_mult: 0
    decay_mult: 0
  }
  include {
    phase: TRAIN
  }
  batch_norm_param {
    use_global_stats: false
    moving_average_fraction: 0.95
  }
}
layer {
  name: "pool5"
  type: "Pooling"
  bottom: "conv5_BN"
  top: "pool5"
  pooling_param {
    pool: MAX
    kernel_size: 3
    stride: 2
  }
}
layer {
  name: "fc6"
  type: "InnerProduct"
  bottom: "pool5"
  top: "fc6"
  param {
    lr_mult: 1
    decay_mult: 1
  }
  param {
    lr_mult: 2
    decay_mult: 0
  }
  inner_product_param {
    num_output: 2048
    weight_filler {
      type: "gaussian"
      std: 0.005
    }
    bias_filler {
      type: "constant"
    }
  }
}
layer {
  name: "relu6"
  type: "ReLU"
  bottom: "fc6"
  top: "fc6"
}
layer {
  name: "fc6_BN"
  type: "BatchNorm"
  bottom: "fc6"
  top: "fc6_BN"
  param {
    lr_mult: 0
    decay_mult: 0
  }
  param {
    lr_mult: 0
    decay_mult: 0
  }
  param {
    lr_mult: 0
    decay_mult: 0
  }
  include {
    phase: TRAIN
  }
  batch_norm_param {
    use_global_stats: false
    moving_average_fraction: 0.95
  }
}
layer {
  name: "drop6"
  type: "Dropout"
  bottom: "fc6_BN"
  top: "drop6"
  dropout_param {
    dropout_ratio: 0.2
  }
}
layer {
  name: "fc7"
  type: "InnerProduct"
  bottom: "drop6"
  top: "fc7"
  param {
    lr_mult: 1
    decay_mult: 1
  }
  param {
    lr_mult: 2
    decay_mult: 0
  }
  inner_product_param {
    num_output: 2048
    weight_filler {
      type: "gaussian"
      std: 0.005
    }
    bias_filler {
      type: "constant"
    }
  }
}
layer {
  name: "relu7"
  type: "ReLU"
  bottom: "fc7"
  top: "fc7"
}
layer {
  name: "fc7_BN"
  type: "BatchNorm"
  bottom: "fc7"
  top: "fc7_BN"
  param {
    lr_mult: 0
    decay_mult: 0
  }
  param {
    lr_mult: 0
    decay_mult: 0
  }
  param {
    lr_mult: 0
    decay_mult: 0
  }
  include {
    phase: TRAIN
  }
  batch_norm_param {
    use_global_stats: false
    moving_average_fraction: 0.95
  }
}
layer {
  name: "drop7"
  type: "Dropout"
  bottom: "fc7_BN"
  top: "drop7"
  dropout_param {
    dropout_ratio: 0.2
  }
}
layer {
  name: "fc8"
  type: "InnerProduct"
  bottom: "drop7"
  top: "fc8"
  param {
    lr_mult: 1
    decay_mult: 1
  }
  param {
    lr_mult: 2
    decay_mult: 0
  }
  inner_product_param {
    num_output: 1000
    weight_filler {
      type: "gaussian"
      std: 0.01
    }
    bias_filler {
      type: "constant"
    }
  }
}
layer {
  name: "loss"
  type: "SoftmaxWithLoss"
  bottom: "fc8"
  bottom: "label"
  top: "loss"
}
I0117 13:58:05.192046 17780 layer_factory.hpp:76] Creating layer data
I0117 13:58:05.192574 17780 net.cpp:106] Creating Layer data
I0117 13:58:05.192585 17780 net.cpp:411] data -> data
I0117 13:58:05.192620 17780 net.cpp:411] data -> label
I0117 13:58:05.193410 17786 db_lmdb.cpp:38] Opened lmdb /home/old-ufo/datasets/imagenet/ilsvrc12_train_shuffle_lmdb
I0117 13:58:05.203807 17780 data_layer.cpp:41] output data size: 256,3,128,128
I0117 13:58:05.271323 17780 net.cpp:150] Setting up data
I0117 13:58:05.271349 17780 net.cpp:157] Top shape: 256 3 128 128 (12582912)
I0117 13:58:05.271358 17780 net.cpp:157] Top shape: 256 (256)
I0117 13:58:05.271363 17780 net.cpp:165] Memory required for data: 50332672
I0117 13:58:05.271376 17780 layer_factory.hpp:76] Creating layer conv1
I0117 13:58:05.271400 17780 net.cpp:106] Creating Layer conv1
I0117 13:58:05.271407 17780 net.cpp:454] conv1 <- data
I0117 13:58:05.271423 17780 net.cpp:411] conv1 -> conv1
I0117 13:58:05.460098 17780 net.cpp:150] Setting up conv1
I0117 13:58:05.460219 17780 net.cpp:157] Top shape: 256 96 30 30 (22118400)
I0117 13:58:05.460229 17780 net.cpp:165] Memory required for data: 138806272
I0117 13:58:05.460283 17780 layer_factory.hpp:76] Creating layer relu1
I0117 13:58:05.460320 17780 net.cpp:106] Creating Layer relu1
I0117 13:58:05.460328 17780 net.cpp:454] relu1 <- conv1
I0117 13:58:05.460377 17780 net.cpp:397] relu1 -> conv1 (in-place)
I0117 13:58:05.461199 17780 net.cpp:150] Setting up relu1
I0117 13:58:05.461212 17780 net.cpp:157] Top shape: 256 96 30 30 (22118400)
I0117 13:58:05.461217 17780 net.cpp:165] Memory required for data: 227279872
I0117 13:58:05.461251 17780 layer_factory.hpp:76] Creating layer conv1_BN
I0117 13:58:05.461264 17780 net.cpp:106] Creating Layer conv1_BN
I0117 13:58:05.461269 17780 net.cpp:454] conv1_BN <- conv1
I0117 13:58:05.461275 17780 net.cpp:411] conv1_BN -> conv1_BN
I0117 13:58:05.461544 17780 net.cpp:150] Setting up conv1_BN
I0117 13:58:05.461552 17780 net.cpp:157] Top shape: 256 96 30 30 (22118400)
I0117 13:58:05.461556 17780 net.cpp:165] Memory required for data: 315753472
I0117 13:58:05.461571 17780 layer_factory.hpp:76] Creating layer pool1
I0117 13:58:05.461580 17780 net.cpp:106] Creating Layer pool1
I0117 13:58:05.461585 17780 net.cpp:454] pool1 <- conv1_BN
I0117 13:58:05.461591 17780 net.cpp:411] pool1 -> pool1
I0117 13:58:05.462524 17780 net.cpp:150] Setting up pool1
I0117 13:58:05.462543 17780 net.cpp:157] Top shape: 256 96 15 15 (5529600)
I0117 13:58:05.462546 17780 net.cpp:165] Memory required for data: 337871872
I0117 13:58:05.462586 17780 layer_factory.hpp:76] Creating layer conv2
I0117 13:58:05.462638 17780 net.cpp:106] Creating Layer conv2
I0117 13:58:05.462646 17780 net.cpp:454] conv2 <- pool1
I0117 13:58:05.462688 17780 net.cpp:411] conv2 -> conv2
I0117 13:58:05.478885 17780 net.cpp:150] Setting up conv2
I0117 13:58:05.478912 17780 net.cpp:157] Top shape: 256 256 15 15 (14745600)
I0117 13:58:05.478919 17780 net.cpp:165] Memory required for data: 396854272
I0117 13:58:05.478993 17780 layer_factory.hpp:76] Creating layer relu2
I0117 13:58:05.479040 17780 net.cpp:106] Creating Layer relu2
I0117 13:58:05.479049 17780 net.cpp:454] relu2 <- conv2
I0117 13:58:05.479058 17780 net.cpp:397] relu2 -> conv2 (in-place)
I0117 13:58:05.479840 17780 net.cpp:150] Setting up relu2
I0117 13:58:05.479871 17780 net.cpp:157] Top shape: 256 256 15 15 (14745600)
I0117 13:58:05.479907 17780 net.cpp:165] Memory required for data: 455836672
I0117 13:58:05.479930 17780 layer_factory.hpp:76] Creating layer conv2_BN
I0117 13:58:05.479976 17780 net.cpp:106] Creating Layer conv2_BN
I0117 13:58:05.479982 17780 net.cpp:454] conv2_BN <- conv2
I0117 13:58:05.480025 17780 net.cpp:411] conv2_BN -> conv2_BN
I0117 13:58:05.480304 17780 net.cpp:150] Setting up conv2_BN
I0117 13:58:05.480316 17780 net.cpp:157] Top shape: 256 256 15 15 (14745600)
I0117 13:58:05.480320 17780 net.cpp:165] Memory required for data: 514819072
I0117 13:58:05.480378 17780 layer_factory.hpp:76] Creating layer pool2
I0117 13:58:05.480409 17780 net.cpp:106] Creating Layer pool2
I0117 13:58:05.480417 17780 net.cpp:454] pool2 <- conv2_BN
I0117 13:58:05.480440 17780 net.cpp:411] pool2 -> pool2
I0117 13:58:05.481401 17780 net.cpp:150] Setting up pool2
I0117 13:58:05.481416 17780 net.cpp:157] Top shape: 256 256 7 7 (3211264)
I0117 13:58:05.481420 17780 net.cpp:165] Memory required for data: 527664128
I0117 13:58:05.481458 17780 layer_factory.hpp:76] Creating layer conv3
I0117 13:58:05.481506 17780 net.cpp:106] Creating Layer conv3
I0117 13:58:05.481513 17780 net.cpp:454] conv3 <- pool2
I0117 13:58:05.481557 17780 net.cpp:411] conv3 -> conv3
I0117 13:58:05.515799 17780 net.cpp:150] Setting up conv3
I0117 13:58:05.515825 17780 net.cpp:157] Top shape: 256 384 7 7 (4816896)
I0117 13:58:05.515828 17780 net.cpp:165] Memory required for data: 546931712
I0117 13:58:05.515839 17780 layer_factory.hpp:76] Creating layer relu3
I0117 13:58:05.515909 17780 net.cpp:106] Creating Layer relu3
I0117 13:58:05.515918 17780 net.cpp:454] relu3 <- conv3
I0117 13:58:05.515924 17780 net.cpp:397] relu3 -> conv3 (in-place)
I0117 13:58:05.516674 17780 net.cpp:150] Setting up relu3
I0117 13:58:05.516710 17780 net.cpp:157] Top shape: 256 384 7 7 (4816896)
I0117 13:58:05.516717 17780 net.cpp:165] Memory required for data: 566199296
I0117 13:58:05.516721 17780 layer_factory.hpp:76] Creating layer conv3_BN
I0117 13:58:05.516749 17780 net.cpp:106] Creating Layer conv3_BN
I0117 13:58:05.516755 17780 net.cpp:454] conv3_BN <- conv3
I0117 13:58:05.516795 17780 net.cpp:411] conv3_BN -> conv3_BN
I0117 13:58:05.517024 17780 net.cpp:150] Setting up conv3_BN
I0117 13:58:05.517053 17780 net.cpp:157] Top shape: 256 384 7 7 (4816896)
I0117 13:58:05.517058 17780 net.cpp:165] Memory required for data: 585466880
I0117 13:58:05.517101 17780 layer_factory.hpp:76] Creating layer conv4
I0117 13:58:05.517129 17780 net.cpp:106] Creating Layer conv4
I0117 13:58:05.517137 17780 net.cpp:454] conv4 <- conv3_BN
I0117 13:58:05.517181 17780 net.cpp:411] conv4 -> conv4
I0117 13:58:05.545889 17780 net.cpp:150] Setting up conv4
I0117 13:58:05.545917 17780 net.cpp:157] Top shape: 256 384 7 7 (4816896)
I0117 13:58:05.545922 17780 net.cpp:165] Memory required for data: 604734464
I0117 13:58:05.545935 17780 layer_factory.hpp:76] Creating layer relu4
I0117 13:58:05.545948 17780 net.cpp:106] Creating Layer relu4
I0117 13:58:05.545954 17780 net.cpp:454] relu4 <- conv4
I0117 13:58:05.545963 17780 net.cpp:397] relu4 -> conv4 (in-place)
I0117 13:58:05.546706 17780 net.cpp:150] Setting up relu4
I0117 13:58:05.546720 17780 net.cpp:157] Top shape: 256 384 7 7 (4816896)
I0117 13:58:05.546725 17780 net.cpp:165] Memory required for data: 624002048
I0117 13:58:05.546730 17780 layer_factory.hpp:76] Creating layer conv4_BN
I0117 13:58:05.546741 17780 net.cpp:106] Creating Layer conv4_BN
I0117 13:58:05.546746 17780 net.cpp:454] conv4_BN <- conv4
I0117 13:58:05.546752 17780 net.cpp:411] conv4_BN -> conv4_BN
I0117 13:58:05.546982 17780 net.cpp:150] Setting up conv4_BN
I0117 13:58:05.546989 17780 net.cpp:157] Top shape: 256 384 7 7 (4816896)
I0117 13:58:05.546994 17780 net.cpp:165] Memory required for data: 643269632
I0117 13:58:05.547003 17780 layer_factory.hpp:76] Creating layer conv5
I0117 13:58:05.547014 17780 net.cpp:106] Creating Layer conv5
I0117 13:58:05.547019 17780 net.cpp:454] conv5 <- conv4_BN
I0117 13:58:05.547039 17780 net.cpp:411] conv5 -> conv5
I0117 13:58:05.569190 17780 net.cpp:150] Setting up conv5
I0117 13:58:05.569216 17780 net.cpp:157] Top shape: 256 256 7 7 (3211264)
I0117 13:58:05.569219 17780 net.cpp:165] Memory required for data: 656114688
I0117 13:58:05.569231 17780 layer_factory.hpp:76] Creating layer relu5
I0117 13:58:05.569243 17780 net.cpp:106] Creating Layer relu5
I0117 13:58:05.569252 17780 net.cpp:454] relu5 <- conv5
I0117 13:58:05.569259 17780 net.cpp:397] relu5 -> conv5 (in-place)
I0117 13:58:05.569969 17780 net.cpp:150] Setting up relu5
I0117 13:58:05.569983 17780 net.cpp:157] Top shape: 256 256 7 7 (3211264)
I0117 13:58:05.569986 17780 net.cpp:165] Memory required for data: 668959744
I0117 13:58:05.569991 17780 layer_factory.hpp:76] Creating layer conv5_BN
I0117 13:58:05.569999 17780 net.cpp:106] Creating Layer conv5_BN
I0117 13:58:05.570006 17780 net.cpp:454] conv5_BN <- conv5
I0117 13:58:05.570014 17780 net.cpp:411] conv5_BN -> conv5_BN
I0117 13:58:05.570247 17780 net.cpp:150] Setting up conv5_BN
I0117 13:58:05.570255 17780 net.cpp:157] Top shape: 256 256 7 7 (3211264)
I0117 13:58:05.570258 17780 net.cpp:165] Memory required for data: 681804800
I0117 13:58:05.570267 17780 layer_factory.hpp:76] Creating layer pool5
I0117 13:58:05.570277 17780 net.cpp:106] Creating Layer pool5
I0117 13:58:05.570282 17780 net.cpp:454] pool5 <- conv5_BN
I0117 13:58:05.570288 17780 net.cpp:411] pool5 -> pool5
I0117 13:58:05.571099 17780 net.cpp:150] Setting up pool5
I0117 13:58:05.571110 17780 net.cpp:157] Top shape: 256 256 3 3 (589824)
I0117 13:58:05.571115 17780 net.cpp:165] Memory required for data: 684164096
I0117 13:58:05.571120 17780 layer_factory.hpp:76] Creating layer fc6
I0117 13:58:05.571130 17780 net.cpp:106] Creating Layer fc6
I0117 13:58:05.571135 17780 net.cpp:454] fc6 <- pool5
I0117 13:58:05.571141 17780 net.cpp:411] fc6 -> fc6
I0117 13:58:05.739573 17780 net.cpp:150] Setting up fc6
I0117 13:58:05.739598 17780 net.cpp:157] Top shape: 256 2048 (524288)
I0117 13:58:05.739603 17780 net.cpp:165] Memory required for data: 686261248
I0117 13:58:05.739615 17780 layer_factory.hpp:76] Creating layer relu6
I0117 13:58:05.739626 17780 net.cpp:106] Creating Layer relu6
I0117 13:58:05.739634 17780 net.cpp:454] relu6 <- fc6
I0117 13:58:05.739642 17780 net.cpp:397] relu6 -> fc6 (in-place)
I0117 13:58:05.740623 17780 net.cpp:150] Setting up relu6
I0117 13:58:05.740643 17780 net.cpp:157] Top shape: 256 2048 (524288)
I0117 13:58:05.740648 17780 net.cpp:165] Memory required for data: 688358400
I0117 13:58:05.740653 17780 layer_factory.hpp:76] Creating layer fc6_BN
I0117 13:58:05.740665 17780 net.cpp:106] Creating Layer fc6_BN
I0117 13:58:05.740671 17780 net.cpp:454] fc6_BN <- fc6
I0117 13:58:05.740679 17780 net.cpp:411] fc6_BN -> fc6_BN
I0117 13:58:05.740962 17780 net.cpp:150] Setting up fc6_BN
I0117 13:58:05.740972 17780 net.cpp:157] Top shape: 256 2048 (524288)
I0117 13:58:05.740977 17780 net.cpp:165] Memory required for data: 690455552
I0117 13:58:05.740988 17780 layer_factory.hpp:76] Creating layer drop6
I0117 13:58:05.740996 17780 net.cpp:106] Creating Layer drop6
I0117 13:58:05.741000 17780 net.cpp:454] drop6 <- fc6_BN
I0117 13:58:05.741006 17780 net.cpp:411] drop6 -> drop6
I0117 13:58:05.741055 17780 net.cpp:150] Setting up drop6
I0117 13:58:05.741061 17780 net.cpp:157] Top shape: 256 2048 (524288)
I0117 13:58:05.741065 17780 net.cpp:165] Memory required for data: 692552704
I0117 13:58:05.741068 17780 layer_factory.hpp:76] Creating layer fc7
I0117 13:58:05.741077 17780 net.cpp:106] Creating Layer fc7
I0117 13:58:05.741081 17780 net.cpp:454] fc7 <- drop6
I0117 13:58:05.741088 17780 net.cpp:411] fc7 -> fc7
I0117 13:58:05.890652 17780 net.cpp:150] Setting up fc7
I0117 13:58:05.890681 17780 net.cpp:157] Top shape: 256 2048 (524288)
I0117 13:58:05.890687 17780 net.cpp:165] Memory required for data: 694649856
I0117 13:58:05.890700 17780 layer_factory.hpp:76] Creating layer relu7
I0117 13:58:05.890712 17780 net.cpp:106] Creating Layer relu7
I0117 13:58:05.890718 17780 net.cpp:454] relu7 <- fc7
I0117 13:58:05.890727 17780 net.cpp:397] relu7 -> fc7 (in-place)
I0117 13:58:05.891763 17780 net.cpp:150] Setting up relu7
I0117 13:58:05.891784 17780 net.cpp:157] Top shape: 256 2048 (524288)
I0117 13:58:05.891789 17780 net.cpp:165] Memory required for data: 696747008
I0117 13:58:05.891795 17780 layer_factory.hpp:76] Creating layer fc7_BN
I0117 13:58:05.891808 17780 net.cpp:106] Creating Layer fc7_BN
I0117 13:58:05.891814 17780 net.cpp:454] fc7_BN <- fc7
I0117 13:58:05.891824 17780 net.cpp:411] fc7_BN -> fc7_BN
I0117 13:58:05.892124 17780 net.cpp:150] Setting up fc7_BN
I0117 13:58:05.892133 17780 net.cpp:157] Top shape: 256 2048 (524288)
I0117 13:58:05.892138 17780 net.cpp:165] Memory required for data: 698844160
I0117 13:58:05.892155 17780 layer_factory.hpp:76] Creating layer drop7
I0117 13:58:05.892163 17780 net.cpp:106] Creating Layer drop7
I0117 13:58:05.892168 17780 net.cpp:454] drop7 <- fc7_BN
I0117 13:58:05.892174 17780 net.cpp:411] drop7 -> drop7
I0117 13:58:05.892215 17780 net.cpp:150] Setting up drop7
I0117 13:58:05.892223 17780 net.cpp:157] Top shape: 256 2048 (524288)
I0117 13:58:05.892226 17780 net.cpp:165] Memory required for data: 700941312
I0117 13:58:05.892230 17780 layer_factory.hpp:76] Creating layer fc8
I0117 13:58:05.892238 17780 net.cpp:106] Creating Layer fc8
I0117 13:58:05.892242 17780 net.cpp:454] fc8 <- drop7
I0117 13:58:05.892249 17780 net.cpp:411] fc8 -> fc8
I0117 13:58:05.965828 17780 net.cpp:150] Setting up fc8
I0117 13:58:05.965862 17780 net.cpp:157] Top shape: 256 1000 (256000)
I0117 13:58:05.965868 17780 net.cpp:165] Memory required for data: 701965312
I0117 13:58:05.965883 17780 layer_factory.hpp:76] Creating layer loss
I0117 13:58:05.965898 17780 net.cpp:106] Creating Layer loss
I0117 13:58:05.965903 17780 net.cpp:454] loss <- fc8
I0117 13:58:05.965911 17780 net.cpp:454] loss <- label
I0117 13:58:05.965921 17780 net.cpp:411] loss -> loss
I0117 13:58:05.965944 17780 layer_factory.hpp:76] Creating layer loss
…
    phase: TEST
  }
  transform_param {
    scale: 0.04
    mirror: false
    crop_size: 128
    mean_value: 104
    mean_value: 117
    mean_value: 123
    force_color: true
    resize_param {
      prob: 1
      resize_mode: FIT_SMALL_SIZE
      height: 144
      width: 144
      pad_mode: MIRRORED
      pad_value: 104
      pad_value: 117
      pad_value: 124
      interp_mode: CUBIC
      center_object: false
      max_angle: 0
    }
  }
  data_param {
    source: "/home/old-ufo/datasets/imagenet/ilsvrc12_val_lmdb"
    batch_size: 250
    backend: LMDB
  }
}
layer {
  name: "conv1"
  type: "Convolution"
  bottom: "data"
  top: "conv1"
  param {
    lr_mult: 1
    decay_mult: 1
  }
  param {
    lr_mult: 2
    decay_mult: 0
  }
  convolution_param {
    num_output: 96
    kernel_size: 11
    stride: 4
    weight_filler {
      type: "gaussian"
      std: 0.01
    }
    bias_filler {
      type: "constant"
    }
  }
}
layer {
  name: "relu1"
  type: "ReLU"
  bottom: "conv1"
  top: "conv1"
}
layer {
  name: "conv1_BN"
  type: "BatchNorm"
  bottom: "conv1"
  top: "conv1_BN"
  param {
    lr_mult: 0
    decay_mult: 0
  }
  param {
    lr_mult: 0
    decay_mult: 0
  }
  param {
    lr_mult: 0
    decay_mult: 0
  }
  include {
    phase: TEST
  }
  batch_norm_param {
    use_global_stats: true
    moving_average_fraction: 0.95
  }
}
layer {
  name: "pool1"
  type: "Pooling"
  bottom: "conv1_BN"
  top: "pool1"
  pooling_param {
    pool: MAX
    kernel_size: 3
    stride: 2
  }
}
layer {
  name: "conv2"
  type: "Convolution"
  bottom: "pool1"
  top: "conv2"
  param {
    lr_mult: 1
    decay_mult: 1
  }
  param {
    lr_mult: 2
    decay_mult: 0
  }
  convolution_param {
    num_output: 256
    pad: 2
    kernel_size: 5
    group: 2
    weight_filler {
      type: "gaussian"
      std: 0.01
    }
    bias_filler {
      type: "constant"
    }
  }
}
layer {
  name: "relu2"
  type: "ReLU"
  bottom: "conv2"
  top: "conv2"
}
layer {
  name: "conv2_BN"
  type: "BatchNorm"
  bottom: "conv2"
  top: "conv2_BN"
  param {
    lr_mult: 0
    decay_mult: 0
  }
  param {
    lr_mult: 0
    decay_mult: 0
  }
  param {
    lr_mult: 0
    decay_mult: 0
  }
  include {
    phase: TEST
  }
  batch_norm_param {
    use_global_stats: true
    moving_average_fraction: 0.95
  }
}
layer {
  name: "pool2"
  type: "Pooling"
  bottom: "conv2_BN"
  top: "pool2"
  pooling_param {
    pool: MAX
    kernel_size: 3
    stride: 2
  }
}
layer {
  name: "conv3"
  type: "Convolution"
  bottom: "pool2"
  top: "conv3"
  param {
    lr_mult: 1
    decay_mult: 1
  }
  param {
    lr_mult: 2
    decay_mult: 0
  }
  convolution_param {
    num_output: 384
    pad: 1
    kernel_size: 3
    weight_filler {
      type: "gaussian"
      std: 0.01
    }
    bias_filler {
      type: "constant"
    }
  }
}
layer {
  name: "relu3"
  type: "ReLU"
  bottom: "conv3"
  top: "conv3"
}
layer {
  name: "conv3_BN"
  type: "BatchNorm"
  bottom: "conv3"
  top: "conv3_BN"
  param {
    lr_mult: 0
    decay_mult: 0
  }
  param {
    lr_mult: 0
    decay_mult: 0
  }
  param {
    lr_mult: 0
    decay_mult: 0
  }
  include {
    phase: TEST
  }
  batch_norm_param {
    use_global_stats: true
    moving_average_fraction: 0.95
  }
}
layer {
  name: "conv4"
  type: "Convolution"
  bottom: "conv3_BN"
  top: "conv4"
  param {
    lr_mult: 1
    decay_mult: 1
  }
  param {
    lr_mult: 2
    decay_mult: 0
  }
  convolution_param {
    num_output: 384
    pad: 1
    kernel_size: 3
    group: 2
    weight_filler {
      type: "gaussian"
      std: 0.01
    }
    bias_filler {
      type: "constant"
    }
  }
}
layer {
  name: "relu4"
  type: "ReLU"
  bottom: "conv4"
  top: "conv4"
}
layer {
  name: "conv4_BN"
  type: "BatchNorm"
  bottom: "conv4"
  top: "conv4_BN"
  param {
    lr_mult: 0
    decay_mult: 0
  }
  param {
    lr_mult: 0
    decay_mult: 0
  }
  param {
    lr_mult: 0
    decay_mult: 0
  }
  include {
    phase: TEST
  }
  batch_norm_param {
    use_global_stats: true
    moving_average_fraction: 0.95
  }
}
layer {
  name: "conv5"
  type: "Convolution"
  bottom: "conv4_BN"
  top: "conv5"
  param {
    lr_mult: 1
    decay_mult: 1
  }
  param {
    lr_mult: 2
    decay_mult: 0
  }
  convolution_param {
    num_output: 256
    pad: 1
    kernel_size: 3
    group: 2
    weight_filler {
      type: "gaussian"
      std: 0.01
    }
    bias_filler {
      type: "constant"
    }
  }
}
layer {
  name: "relu5"
  type: "ReLU"
  bottom: "conv5"
  top: "conv5"
}
layer {
  name: "conv5_BN"
  type: "BatchNorm"
  bottom: "conv5"
  top: "conv5_BN"
  param {
    lr_mult: 0
    decay_mult: 0
  }
  param {
    lr_mult: 0
    decay_mult: 0
  }
  param {
    lr_mult: 0
    decay_mult: 0
  }
  include {
    phase: TEST
  }
  batch_norm_param {
    use_global_stats: true
    moving_average_fraction: 0.95
  }
}
layer {
  name: "pool5"
  type: "Pooling"
  bottom: "conv5_BN"
  top: "pool5"
  pooling_param {
    pool: MAX
    kernel_size: 3
    stride: 2
  }
}
layer {
  name: "fc6"
  type: "InnerProduct"
  bottom: "pool5"
  top: "fc6"
  param {
    lr_mult: 1
    decay_mult: 1
  }
  param {
    lr_mult: 2
    decay_mult: 0
  }
  inner_product_param {
    num_output: 2048
    weight_filler {
      type: "gaussian"
      std: 0.005
    }
    bias_filler {
      type: "constant"
    }
  }
}
layer {
  name: "relu6"
  type: "ReLU"
  bottom: "fc6"
  top: "fc6"
}
layer {
  name: "fc6_BN"
  type: "BatchNorm"
  bottom: "fc6"
  top: "fc6_BN"
  param {
    lr_mult: 0
    decay_mult: 0
  }
  param {
    lr_mult: 0
    decay_mult: 0
  }
  param {
    lr_mult: 0
    decay_mult: 0
  }
  include {
    phase: TEST
  }
  batch_norm_param {
    use_global_stats: true
    moving_average_fraction: 0.95
  }
}
layer {
  name: "drop6"
  type: "Dropout"
  bottom: "fc6_BN"
  top: "drop6"
  dropout_param {
    dropout_ratio: 0.2
  }
}
layer {
  name: "fc7"
  type: "InnerProduct"
  bottom: "drop6"
  top: "fc7"
  param {
    lr_mult: 1
    decay_mult: 1
  }
  param {
    lr_mult: 2
    decay_mult: 0
  }
  inner_product_param {
    num_output: 2048
    weight_filler {
      type: "gaussian"
      std: 0.005
    }
    bias_filler {
      type: "constant"
    }
  }
}
layer {
  name: "relu7"
  type: "ReLU"
  bottom: "fc7"
  top: "fc7"
}
layer {
  name: "fc7_BN"
  type: "BatchNorm"
  bottom: "fc7"
  top: "fc7_BN"
  param {
    lr_mult: 0
    decay_mult: 0
  }
  param {
    lr_mult: 0
    decay_mult: 0
  }
  param {
    lr_mult: 0
    decay_mult: 0
  }
  include {
    phase: TEST
  }
  batch_norm_param {
    use_global_stats: true
    moving_average_fraction: 0.95
  }
}
layer {
  name: "drop7"
  type: "Dropout"
  bottom: "fc7_BN"
  top: "drop7"
  dropout_param {
    dropout_ratio: 0.2
  }
}
layer {
  name: "fc8"
  type: "InnerProduct"
  bottom: "drop7"
  top: "fc8"
  param {
    lr_mult: 1
    decay_mult: 1
  }
  param {
    lr_mult: 2
    decay_mult: 0
  }
  inner_product_param {
    num_output: 1000
    weight_filler {
      type: "gaussian"
      std: 0.01
    }
    bias_filler {
      type: "constant"
    }
  }
}
layer {
  name: "accuracy"
  type: "Accuracy"
  bottom: "fc8"
  bottom: "label"
  top: "accuracy"
  include {
    phase: TEST
  }
}
layer {
  name: "loss"
  type: "SoftmaxWithLoss"
  bottom: "fc8"
  bottom: "label"
  top: "loss"
}
I0117 13:58:05.968899 17780 layer_factory.hpp:76] Creating layer data
I0117 13:58:05.969110 17780 net.cpp:106] Creating Layer data
I0117 13:58:05.969118 17780 net.cpp:411] data -> data
I0117 13:58:05.969128 17780 net.cpp:411] data -> label
I0117 13:58:05.969810 17796 db_lmdb.cpp:38] Opened lmdb /home/old-ufo/datasets/imagenet/ilsvrc12_val_lmdb
I0117 13:58:05.972522 17780 data_layer.cpp:41] output data size: 250,3,128,128
I0117 13:58:06.042332 17780 net.cpp:150] Setting up data
I0117 13:58:06.042388 17780 net.cpp:157] Top shape: 250 3 128 128 (12288000)
I0117 13:58:06.042402 17780 net.cpp:157] Top shape: 250 (250)
I0117 13:58:06.042407 17780 net.cpp:165] Memory required for data: 49153000
I0117 13:58:06.042414 17780 layer_factory.hpp:76] Creating layer label_data_1_split
I0117 13:58:06.042428 17780 net.cpp:106] Creating Layer label_data_1_split
I0117 13:58:06.042434 17780 net.cpp:454] label_data_1_split <- label
I0117 13:58:06.042444 17780 net.cpp:411] label_data_1_split -> label_data_1_split_0
I0117 13:58:06.042457 17780 net.cpp:411] label_data_1_split -> label_data_1_split_1
I0117 13:58:06.042616 17780 net.cpp:150] Setting up label_data_1_split
I0117 13:58:06.042631 17780 net.cpp:157] Top shape: 250 (250)
I0117 13:58:06.042635 17780 net.cpp:157] Top shape: 250 (250)
I0117 13:58:06.042639 17780 net.cpp:165] Memory required for data: 49155000
I0117 13:58:06.042644 17780 layer_factory.hpp:76] Creating layer conv1
I0117 13:58:06.042656 17780 net.cpp:106] Creating Layer conv1
I0117 13:58:06.042660 17780 net.cpp:454] conv1 <- data
I0117 13:58:06.042667 17780 net.cpp:411] conv1 -> conv1
I0117 13:58:06.047344 17780 net.cpp:150] Setting up conv1
I0117 13:58:06.047379 17780 net.cpp:157] Top shape: 250 96 30 30 (21600000)
I0117 13:58:06.047389 17780 net.cpp:165] Memory required for data: 135555000
I0117 13:58:06.047405 17780 layer_factory.hpp:76] Creating layer relu1
I0117 13:58:06.047417 17780 net.cpp:106] Creating Layer relu1
I0117 13:58:06.047423 17780 net.cpp:454] relu1 <- conv1
I0117 13:58:06.047431 17780 net.cpp:397] relu1 -> conv1 (in-place)
I0117 13:58:06.048310 17780 net.cpp:150] Setting up relu1
I0117 13:58:06.048326 17780 net.cpp:157] Top shape: 250 96 30 30 (21600000)
I0117 13:58:06.048331 17780 net.cpp:165] Memory required for data: 221955000
I0117 13:58:06.048336 17780 layer_factory.hpp:76] Creating layer conv1_BN
I0117 13:58:06.048351 17780 net.cpp:106] Creating Layer conv1_BN
I0117 13:58:06.048357 17780 net.cpp:454] conv1_BN <- conv1
I0117 13:58:06.048365 17780 net.cpp:411] conv1_BN -> conv1_BN
I0117 13:58:06.048712 17780 net.cpp:150] Setting up conv1_BN
I0117 13:58:06.048722 17780 net.cpp:157] Top shape: 250 96 30 30 (21600000)
I0117 13:58:06.048727 17780 net.cpp:165] Memory required for data: 308355000
I0117 13:58:06.048740 17780 layer_factory.hpp:76] Creating layer pool1
I0117 13:58:06.048750 17780 net.cpp:106] Creating Layer pool1
I0117 13:58:06.048755 17780 net.cpp:454] pool1 <- conv1_BN
I0117 13:58:06.048763 17780 net.cpp:411] pool1 -> pool1
I0117 13:58:06.049806 17780 net.cpp:150] Setting up pool1
I0117 13:58:06.049835 17780 net.cpp:157] Top shape: 250 96 15 15 (5400000)
I0117 13:58:06.049842 17780 net.cpp:165] Memory required for data: 329955000
I0117 13:58:06.049849 17780 layer_factory.hpp:76] Creating layer conv2
I0117 13:58:06.049892 17780 net.cpp:106] Creating Layer conv2
I0117 13:58:06.049901 17780 net.cpp:454] conv2 <- pool1
I0117 13:58:06.049913 17780 net.cpp:411] conv2 -> conv2
I0117 13:58:06.079890 17780 net.cpp:150] Setting up conv2
I0117 13:58:06.079922 17780 net.cpp:157] Top shape: 250 256 15 15 (14400000)
I0117 13:58:06.079928 17780 net.cpp:165] Memory required for data: 387555000
I0117 13:58:06.079941 17780 layer_factory.hpp:76] Creating layer relu2
I0117 13:58:06.079957 17780 net.cpp:106] Creating Layer relu2
I0117 13:58:06.079963 17780 net.cpp:454] relu2 <- conv2
I0117 13:58:06.079969 17780 net.cpp:397] relu2 -> conv2 (in-place)
I0117 13:58:06.083060 17780 net.cpp:150] Setting up relu2
I0117 13:58:06.083084 17780 net.cpp:157] Top shape: 250 256 15 15 (14400000)
I0117 13:58:06.083088 17780 net.cpp:165] Memory required for data: 445155000
I0117 13:58:06.083094 17780 layer_factory.hpp:76] Creating layer conv2_BN
I0117 13:58:06.083111 17780 net.cpp:106] Creating Layer conv2_BN
I0117 13:58:06.083115 17780 net.cpp:454] conv2_BN <- conv2
I0117 13:58:06.083124 17780 net.cpp:411] conv2_BN -> conv2_BN
I0117 13:58:06.083421 17780 net.cpp:150] Setting up conv2_BN
I0117 13:58:06.083431 17780 net.cpp:157] Top shape: 250 256 15 15 (14400000)
I0117 13:58:06.083434 17780 net.cpp:165] Memory required for data: 502755000
I0117 13:58:06.083451 17780 layer_factory.hpp:76] Creating layer pool2
I0117 13:58:06.083458 17780 net.cpp:106] Creating Layer pool2
I0117 13:58:06.083462 17780 net.cpp:454] pool2 <- conv2_BN
I0117 13:58:06.083467 17780 net.cpp:411] pool2 -> pool2
I0117 13:58:06.084380 17780 net.cpp:150] Setting up pool2
I0117 13:58:06.084394 17780 net.cpp:157] Top shape: 250 256 7 7 (3136000)
I0117 13:58:06.084400 17780 net.cpp:165] Memory required for data: 515299000
I0117 13:58:06.084405 17780 layer_factory.hpp:76] Creating layer conv3
I0117 13:58:06.084416 17780 net.cpp:106] Creating Layer conv3
I0117 13:58:06.084421 17780 net.cpp:454] conv3 <- pool2
I0117 13:58:06.084429 17780 net.cpp:411] conv3 -> conv3
I0117 13:58:06.127151 17780 net.cpp:150] Setting up conv3
I0117 13:58:06.127204 17780 net.cpp:157] Top shape: 250 384 7 7 (4704000)
I0117 13:58:06.127216 17780 net.cpp:165] Memory required for data: 534115000
I0117 13:58:06.127233 17780 layer_factory.hpp:76] Creating layer relu3
I0117 13:58:06.127251 17780 net.cpp:106] Creating Layer relu3
I0117 13:58:06.127267 17780 net.cpp:454] relu3 <- conv3
I0117 13:58:06.127282 17780 net.cpp:397] relu3 -> conv3 (in-place)
I0117 13:58:06.128201 17780 net.cpp:150] Setting up relu3
I0117 13:58:06.128242 17780 net.cpp:157] Top shape: 250 384 7 7 (4704000)
I0117 13:58:06.128255 17780 net.cpp:165] Memory required for data: 552931000
I0117 13:58:06.128265 17780 layer_factory.hpp:76] Creating layer conv3_BN
I0117 13:58:06.128283 17780 net.cpp:106] Creating Layer conv3_BN
I0117 13:58:06.128293 17780 net.cpp:454] conv3_BN <- conv3
I0117 13:58:06.128309 17780 net.cpp:411] conv3_BN -> conv3_BN
I0117 13:58:06.128612 17780 net.cpp:150] Setting up conv3_BN
I0117 13:58:06.128628 17780 net.cpp:157] Top shape: 250 384 7 7 (4704000)
I0117 13:58:06.128638 17780 net.cpp:165] Memory required for data: 571747000
I0117 13:58:06.128654 17780 layer_factory.hpp:76] Creating layer conv4
I0117 13:58:06.128674 17780 net.cpp:106] Creating Layer conv4
I0117 13:58:06.128686 17780 net.cpp:454] conv4 <- conv3_BN
I0117 13:58:06.128698 17780 net.cpp:411] conv4 -> conv4
I0117 13:58:06.164929 17780 net.cpp:150] Setting up conv4
I0117 13:58:06.164991 17780 net.cpp:157] Top shape: 250 384 7 7 (4704000)
I0117 13:58:06.165004 17780 net.cpp:165] Memory required for data: 590563000
I0117 13:58:06.165027 17780 layer_factory.hpp:76] Creating layer relu4
I0117 13:58:06.165045 17780 net.cpp:106] Creating Layer relu4
I0117 13:58:06.165057 17780 net.cpp:454] relu4 <- conv4
I0117 13:58:06.165076 17780 net.cpp:397] relu4 -> conv4 (in-place)
I0117 13:58:06.165923 17780 net.cpp:150] Setting up relu4
I0117 13:58:06.165953 17780 net.cpp:157] Top shape: 250 384 7 7 (4704000)
I0117 13:58:06.165964 17780 net.cpp:165] Memory required for data: 609379000
I0117 13:58:06.165987 17780 layer_factory.hpp:76] Creating layer conv4_BN
I0117 13:58:06.166004 17780 net.cpp:106] Creating Layer conv4_BN
I0117 13:58:06.166016 17780 net.cpp:454] conv4_BN <- conv4
I0117 13:58:06.166030 17780 net.cpp:411] conv4_BN -> conv4_BN
I0117 13:58:06.166383 17780 net.cpp:150] Setting up conv4_BN
I0117 13:58:06.166412 17780 net.cpp:157] Top shape: 250 384 7 7 (4704000)
I0117 13:58:06.166424 17780 net.cpp:165] Memory required for data: 628195000
I0117 13:58:06.166442 17780 layer_factory.hpp:76] Creating layer conv5
I0117 13:58:06.166462 17780 net.cpp:106] Creating Layer conv5
I0117 13:58:06.166473 17780 net.cpp:454] conv5 <- conv4_BN
I0117 13:58:06.166488 17780 net.cpp:411] conv5 -> conv5
I0117 13:58:06.188112 17780 net.cpp:150] Setting up conv5
I0117 13:58:06.188135 17780 net.cpp:157] Top shape: 250 256 7 7 (3136000)
I0117 13:58:06.188139 17780 net.cpp:165] Memory required for data: 640739000
I0117 13:58:06.188207 17780 layer_factory.hpp:76] Creating layer relu5
I0117 13:58:06.188238 17780 net.cpp:106] Creating Layer relu5
I0117 13:58:06.188246 17780 net.cpp:454] relu5 <- conv5
I0117 13:58:06.188287 17780 net.cpp:397] relu5 -> conv5 (in-place)
I0117 13:58:06.189100 17780 net.cpp:150] Setting up relu5
I0117 13:58:06.189115 17780 net.cpp:157] Top shape: 250 256 7 7 (3136000)
I0117 13:58:06.189118 17780 net.cpp:165] Memory required for data: 653283000
I0117 13:58:06.189152 17780 layer_factory.hpp:76] Creating layer conv5_BN
I0117 13:58:06.189182 17780 net.cpp:106] Creating Layer conv5_BN
I0117 13:58:06.189188 17780 net.cpp:454] conv5_BN <- conv5
I0117 13:58:06.189229 17780 net.cpp:411] conv5_BN -> conv5_BN
I0117 13:58:06.189553 17780 net.cpp:150] Setting up conv5_BN
I0117 13:58:06.189563 17780 net.cpp:157] Top shape: 250 256 7 7 (3136000)
I0117 13:58:06.189587 17780 net.cpp:165] Memory required for data: 665827000
I0117 13:58:06.189616 17780 layer_factory.hpp:76] Creating layer pool5
I0117 13:58:06.189642 17780 net.cpp:106] Creating Layer pool5
I0117 13:58:06.189648 17780 net.cpp:454] pool5 <- conv5_BN
I0117 13:58:06.189685 17780 net.cpp:411] pool5 -> pool5
I0117 13:58:06.190523 17780 net.cpp:150] Setting up pool5
I0117 13:58:06.190536 17780 net.cpp:157] Top shape: 250 256 3 3 (576000)
I0117 13:58:06.190567 17780 net.cpp:165] Memory required for data: 668131000
I0117 13:58:06.190588 17780 layer_factory.hpp:76] Creating layer fc6
I0117 13:58:06.190629 17780 net.cpp:106] Creating Layer fc6
I0117 13:58:06.190634 17780 net.cpp:454] fc6 <- pool5
I0117 13:58:06.190659 17780 net.cpp:411] fc6 -> fc6
I0117 13:58:06.369307 17780 net.cpp:150] Setting up fc6
I0117 13:58:06.369331 17780 net.cpp:157] Top shape: 250 2048 (512000)
I0117 13:58:06.369335 17780 net.cpp:165] Memory required for data: 670179000
I0117 13:58:06.369348 17780 layer_factory.hpp:76] Creating layer relu6
I0117 13:58:06.369418 17780 net.cpp:106] Creating Layer relu6
I0117 13:58:06.369427 17780 net.cpp:454] relu6 <- fc6
I0117 13:58:06.369453 17780 net.cpp:397] relu6 -> fc6 (in-place)
I0117 13:58:06.370488 17780 net.cpp:150] Setting up relu6
I0117 13:58:06.371357 17780 net.cpp:157] Top shape: 250 2048 (512000)
I0117 13:58:06.371364 17780 net.cpp:165] Memory required for data: 672227000
I0117 13:58:06.371369 17780 layer_factory.hpp:76] Creating layer fc6_BN
I0117 13:58:06.371382 17780 net.cpp:106] Creating Layer fc6_BN
I0117 13:58:06.371388 17780 net.cpp:454] fc6_BN <- fc6
I0117 13:58:06.371399 17780 net.cpp:411] fc6_BN -> fc6_BN
I0117 13:58:06.371734 17780 net.cpp:150] Setting up fc6_BN
I0117 13:58:06.371742 17780 net.cpp:157] Top shape: 250 2048 (512000)
I0117 13:58:06.371745 17780 net.cpp:165] Memory required for data: 674275000
I0117 13:58:06.371757 17780 layer_factory.hpp:76] Creating layer drop6
I0117 13:58:06.371764 17780 net.cpp:106] Creating Layer drop6
I0117 13:58:06.371768 17780 net.cpp:454] drop6 <- fc6_BN
I0117 13:58:06.371774 17780 net.cpp:411] drop6 -> drop6
I0117 13:58:06.371822 17780 net.cpp:150] Setting up drop6
I0117 13:58:06.371831 17780 net.cpp:157] Top shape: 250 2048 (512000)
I0117 13:58:06.371834 17780 net.cpp:165] Memory required for data: 676323000
I0117 13:58:06.371861 17780 layer_factory.hpp:76] Creating layer fc7
I0117 13:58:06.371870 17780 net.cpp:106] Creating Layer fc7
I0117 13:58:06.371875 17780 net.cpp:454] fc7 <- drop6
I0117 13:58:06.371881 17780 net.cpp:411] fc7 -> fc7
I0117 13:58:06.533159 17780 net.cpp:150] Setting up fc7
I0117 13:58:06.533215 17780 net.cpp:157] Top shape: 250 2048 (512000)
I0117 13:58:06.533226 17780 net.cpp:165] Memory required for data: 678371000
I0117 13:58:06.533243 17780 layer_factory.hpp:76] Creating layer relu7
I0117 13:58:06.533259 17780 net.cpp:106] Creating Layer relu7
I0117 13:58:06.533270 17780 net.cpp:454] relu7 <- fc7
I0117 13:58:06.533288 17780 net.cpp:397] relu7 -> fc7 (in-place)
I0117 13:58:06.534219 17780 net.cpp:150] Setting up relu7
I0117 13:58:06.534242 17780 net.cpp:157] Top shape: 250 2048 (512000)
I0117 13:58:06.534252 17780 net.cpp:165] Memory required for data: 680419000
I0117 13:58:06.534262 17780 layer_factory.hpp:76] Creating layer fc7_BN
I0117 13:58:06.534278 17780 net.cpp:106] Creating Layer fc7_BN
I0117 13:58:06.534291 17780 net.cpp:454] fc7_BN <- fc7
I0117 13:58:06.534302 17780 net.cpp:411] fc7_BN -> fc7_BN
I0117 13:58:06.534615 17780 net.cpp:150] Setting up fc7_BN
I0117 13:58:06.534636 17780 net.cpp:157] Top shape: 250 2048 (512000)
I0117 13:58:06.534646 17780 net.cpp:165] Memory required for data: 682467000
I0117 13:58:06.534665 17780 layer_factory.hpp:76] Creating layer drop7
I0117 13:58:06.534679 17780 net.cpp:106] Creating Layer drop7
I0117 13:58:06.534689 17780 net.cpp:454] drop7 <- fc7_BN
I0117 13:58:06.534704 17780 net.cpp:411] drop7 -> drop7
I0117 13:58:06.534765 17780 net.cpp:150] Setting up drop7
I0117 13:58:06.534780 17780 net.cpp:157] Top shape: 250 2048 (512000)
I0117 13:58:06.534790 17780 net.cpp:165] Memory required for data: 684515000
I0117 13:58:06.534800 17780 layer_factory.hpp:76] Creating layer fc8
I0117 13:58:06.534816 17780 net.cpp:106] Creating Layer fc8
I0117 13:58:06.534826 17780 net.cpp:454] fc8 <- drop7
I0117 13:58:06.534839 17780 net.cpp:411] fc8 -> fc8
I0117 13:58:06.610141 17780 net.cpp:150] Setting up fc8
I0117 13:58:06.610194 17780 net.cpp:157] Top shape: 250 1000 (250000)
I0117 13:58:06.610204 17780 net.cpp:165] Memory required for data: 685515000
I0117 13:58:06.610221 17780 layer_factory.hpp:76] Creating layer fc8_fc8_0_split
I0117 13:58:06.610239 17780 net.cpp:106] Creating Layer fc8_fc8_0_split
I0117 13:58:06.610249 17780 net.cpp:454] fc8_fc8_0_split <- fc8
I0117 13:58:06.610262 17780 net.cpp:411] fc8_fc8_0_split -> fc8_fc8_0_split_0
I0117 13:58:06.610277 17780 net.cpp:411] fc8_fc8_0_split -> fc8_fc8_0_split_1
I0117 13:58:06.610344 17780 net.cpp:150] Setting up fc8_fc8_0_split
I0117 13:58:06.610360 17780 net.cpp:157] Top shape: 250 1000 (250000)
I0117 13:58:06.610370 17780 net.cpp:157] Top shape: 250 1000 (250000)
I0117 13:58:06.610379 17780 net.cpp:165] Memory required for data: 687515000
I0117 13:58:06.610391 17780 layer_factory.hpp:76] Creating layer accuracy
I0117 13:58:06.610410 17780 net.cpp:106] Creating Layer accuracy
I0117 13:58:06.610420 17780 net.cpp:454] accuracy <- fc8_fc8_0_split_0
I0117 13:58:06.610431 17780 net.cpp:454] accuracy <- label_data_1_split_0
I0117 13:58:06.610442 17780 net.cpp:411] accuracy -> accuracy
…
