…
      mirror: false
      crop_size: 128
      mean_value: 104
      mean_value: 117
      mean_value: 123
      force_color: true
      resize_param {
        prob: 1
        resize_mode: FIT_SMALL_SIZE
        height: 144
        width: 144
        pad_mode: MIRRORED
        pad_value: 104
        pad_value: 117
        pad_value: 124
        interp_mode: CUBIC
        center_object: false
        max_angle: 0
      }
    }
    data_param {
      source: "/home/old-ufo/datasets/imagenet/ilsvrc12_val_lmdb"
      batch_size: 250
      backend: LMDB
    }
  }
  layer {
    name: "conv1"
    type: "Convolution"
    bottom: "data"
    top: "conv1"
    param {
      lr_mult: 1
      decay_mult: 1
    }
    param {
      lr_mult: 2
      decay_mult: 0
    }
    convolution_param {
      num_output: 96
      kernel_size: 11
      stride: 4
      weight_filler {
        type: "gaussian"
        std: 0.01
      }
      bias_filler {
        type: "constant"
      }
    }
  }
  layer {
    name: "relu1"
    type: "ReLU"
    bottom: "conv1"
    top: "conv1"
  }
  layer {
    name: "conv1_BN"
    type: "BatchNorm"
    bottom: "conv1"
    top: "conv1_BN"
    param {
      lr_mult: 0
      decay_mult: 0
    }
    param {
      lr_mult: 0
      decay_mult: 0
    }
    param {
      lr_mult: 0
      decay_mult: 0
    }
    include {
      phase: TRAIN
    }
    batch_norm_param {
      use_global_stats: false
      moving_average_fraction: 0.95
    }
  }
  layer {
    name: "conv1_BN"
    type: "BatchNorm"
    bottom: "conv1"
    top: "conv1_BN"
    param {
      lr_mult: 0
      decay_mult: 0
    }
    param {
      lr_mult: 0
      decay_mult: 0
    }
    param {
      lr_mult: 0
      decay_mult: 0
    }
    include {
      phase: TEST
    }
    batch_norm_param {
      use_global_stats: true
      moving_average_fraction: 0.95
    }
  }
  layer {
    name: "pool1"
    type: "Pooling"
    bottom: "conv1_BN"
    top: "pool1"
    pooling_param {
      pool: MAX
      kernel_size: 3
      stride: 2
    }
  }
  layer {
    name: "conv2"
    type: "Convolution"
    bottom: "pool1"
    top: "conv2"
    param {
      lr_mult: 1
      decay_mult: 1
    }
    param {
      lr_mult: 2
      decay_mult: 0
    }
    convolution_param {
      num_output: 256
      pad: 2
      kernel_size: 5
      group: 2
      weight_filler {
        type: "gaussian"
        std: 0.01
      }
      bias_filler {
        type: "constant"
      }
    }
  }
  layer {
    name: "relu2"
    type: "ReLU"
    bottom: "conv2"
    top: "conv2"
  }
  layer {
    name: "conv2_BN"
    type: "BatchNorm"
    bottom: "conv2"
    top: "conv2_BN"
    param {
      lr_mult: 0
      decay_mult: 0
    }
    param {
      lr_mult: 0
      decay_mult: 0
    }
    param {
      lr_mult: 0
      decay_mult: 0
    }
    include {
      phase: TRAIN
    }
    batch_norm_param {
      use_global_stats: false
      moving_average_fraction: 0.95
    }
  }
  layer {
    name: "conv2_BN"
    type: "BatchNorm"
    bottom: "conv2"
    top: "conv2_BN"
    param {
      lr_mult: 0
      decay_mult: 0
    }
    param {
      lr_mult: 0
      decay_mult: 0
    }
    param {
      lr_mult: 0
      decay_mult: 0
    }
    include {
      phase: TEST
    }
    batch_norm_param {
      use_global_stats: true
      moving_average_fraction: 0.95
    }
  }
  layer {
    name: "pool2"
    type: "Pooling"
    bottom: "conv2_BN"
    top: "pool2"
    pooling_param {
      pool: MAX
      kernel_size: 3
      stride: 2
    }
  }
  layer {
    name: "conv3"
    type: "Convolution"
    bottom: "pool2"
    top: "conv3"
    param {
      lr_mult: 1
      decay_mult: 1
    }
    param {
      lr_mult: 2
      decay_mult: 0
    }
    convolution_param {
      num_output: 384
      pad: 1
      kernel_size: 3
      weight_filler {
        type: "gaussian"
        std: 0.01
      }
      bias_filler {
        type: "constant"
      }
    }
  }
  layer {
    name: "relu3"
    type: "ReLU"
    bottom: "conv3"
    top: "conv3"
  }
  layer {
    name: "conv3_BN"
    type: "BatchNorm"
    bottom: "conv3"
    top: "conv3_BN"
    param {
      lr_mult: 0
      decay_mult: 0
    }
    param {
      lr_mult: 0
      decay_mult: 0
    }
    param {
      lr_mult: 0
      decay_mult: 0
    }
    include {
      phase: TRAIN
    }
    batch_norm_param {
      use_global_stats: false
      moving_average_fraction: 0.95
    }
  }
  layer {
    name: "conv3_BN"
    type: "BatchNorm"
    bottom: "conv3"
    top: "conv3_BN"
    param {
      lr_mult: 0
      decay_mult: 0
    }
    param {
      lr_mult: 0
      decay_mult: 0
    }
    param {
      lr_mult: 0
      decay_mult: 0
    }
    include {
      phase: TEST
    }
    batch_norm_param {
      use_global_stats: true
      moving_average_fraction: 0.95
    }
  }
  layer {
    name: "conv4"
    type: "Convolution"
    bottom: "conv3_BN"
    top: "conv4"
    param {
      lr_mult: 1
      decay_mult: 1
    }
    param {
      lr_mult: 2
      decay_mult: 0
    }
    convolution_param {
      num_output: 384
      pad: 1
      kernel_size: 3
      group: 2
      weight_filler {
        type: "gaussian"
        std: 0.01
      }
      bias_filler {
        type: "constant"
      }
    }
  }
  layer {
    name: "relu4"
    type: "ReLU"
    bottom: "conv4"
    top: "conv4"
  }
  layer {
    name: "conv4_BN"
    type: "BatchNorm"
    bottom: "conv4"
    top: "conv4_BN"
    param {
      lr_mult: 0
      decay_mult: 0
    }
    param {
      lr_mult: 0
      decay_mult: 0
    }
    param {
      lr_mult: 0
      decay_mult: 0
    }
    include {
      phase: TRAIN
    }
    batch_norm_param {
      use_global_stats: false
      moving_average_fraction: 0.95
    }
  }
  layer {
    name: "conv4_BN"
    type: "BatchNorm"
    bottom: "conv4"
    top: "conv4_BN"
    param {
      lr_mult: 0
      decay_mult: 0
    }
    param {
      lr_mult: 0
      decay_mult: 0
    }
    param {
      lr_mult: 0
      decay_mult: 0
    }
    include {
      phase: TEST
    }
    batch_norm_param {
      use_global_stats: true
      moving_average_fraction: 0.95
    }
  }
  layer {
    name: "conv5"
    type: "Convolution"
    bottom: "conv4_BN"
    top: "conv5"
    param {
      lr_mult: 1
      decay_mult: 1
    }
    param {
      lr_mult: 2
      decay_mult: 0
    }
    convolution_param {
      num_output: 256
      pad: 1
      kernel_size: 3
      group: 2
      weight_filler {
        type: "gaussian"
        std: 0.01
      }
      bias_filler {
        type: "constant"
      }
    }
  }
  layer {
    name: "relu5"
    type: "ReLU"
    bottom: "conv5"
    top: "conv5"
  }
  layer {
    name: "conv5_BN"
    type: "BatchNorm"
    bottom: "conv5"
    top: "conv5_BN"
    param {
      lr_mult: 0
      decay_mult: 0
    }
    param {
      lr_mult: 0
      decay_mult: 0
    }
    param {
      lr_mult: 0
      decay_mult: 0
    }
    include {
      phase: TRAIN
    }
    batch_norm_param {
      use_global_stats: false
      moving_average_fraction: 0.95
    }
  }
  layer {
    name: "conv5_BN"
    type: "BatchNorm"
    bottom: "conv5"
    top: "conv5_BN"
    param {
      lr_mult: 0
      decay_mult: 0
    }
    param {
      lr_mult: 0
      decay_mult: 0
    }
    param {
      lr_mult: 0
      decay_mult: 0
    }
    include {
      phase: TEST
    }
    batch_norm_param {
      use_global_stats: true
      moving_average_fraction: 0.95
    }
  }
  layer {
    name: "pool5"
    type: "Pooling"
    bottom: "conv5_BN"
    top: "pool5"
    pooling_param {
      pool: MAX
      kernel_size: 3
      stride: 2
    }
  }
  layer {
    name: "fc6"
    type: "InnerProduct"
    bottom: "pool5"
    top: "fc6"
    param {
      lr_mult: 1
      decay_mult: 1
    }
    param {
      lr_mult: 2
      decay_mult: 0
    }
    inner_product_param {
      num_output: 2048
      weight_filler {
        type: "gaussian"
        std: 0.005
      }
      bias_filler {
        type: "constant"
      }
    }
  }
  layer {
    name: "relu6"
    type: "ReLU"
    bottom: "fc6"
    top: "fc6"
  }
  layer {
    name: "fc6_BN"
    type: "BatchNorm"
    bottom: "fc6"
    top: "fc6_BN"
    param {
      lr_mult: 0
      decay_mult: 0
    }
    param {
      lr_mult: 0
      decay_mult: 0
    }
    param {
      lr_mult: 0
      decay_mult: 0
    }
    include {
      phase: TRAIN
    }
    batch_norm_param {
      use_global_stats: false
      moving_average_fraction: 0.95
    }
  }
  layer {
    name: "fc6_BN"
    type: "BatchNorm"
    bottom: "fc6"
    top: "fc6_BN"
    param {
      lr_mult: 0
      decay_mult: 0
    }
    param {
      lr_mult: 0
      decay_mult: 0
    }
    param {
      lr_mult: 0
      decay_mult: 0
    }
    include {
      phase: TEST
    }
    batch_norm_param {
      use_global_stats: true
      moving_average_fraction: 0.95
    }
  }
  layer {
    name: "drop6"
    type: "Dropout"
    bottom: "fc6_BN"
    top: "drop6"
    dropout_param {
      dropout_ratio: 0.2
    }
  }
  layer {
    name: "fc7"
    type: "InnerProduct"
    bottom: "drop6"
    top: "fc7"
    param {
      lr_mult: 1
      decay_mult: 1
    }
    param {
      lr_mult: 2
      decay_mult: 0
    }
    inner_product_param {
      num_output: 2048
      weight_filler {
        type: "gaussian"
        std: 0.005
      }
      bias_filler {
        type: "constant"
      }
    }
  }
  layer {
    name: "relu7"
    type: "ReLU"
    bottom: "fc7"
    top: "fc7"
  }
  layer {
    name: "fc7_BN"
    type: "BatchNorm"
    bottom: "fc7"
    top: "fc7_BN"
    param {
      lr_mult: 0
      decay_mult: 0
    }
    param {
      lr_mult: 0
      decay_mult: 0
    }
    param {
      lr_mult: 0
      decay_mult: 0
    }
    include {
      phase: TRAIN
    }
    batch_norm_param {
      use_global_stats: false
      moving_average_fraction: 0.95
    }
  }
  layer {
    name: "fc7_BN"
    type: "BatchNorm"
    bottom: "fc7"
    top: "fc7_BN"
    param {
      lr_mult: 0
      decay_mult: 0
    }
    param {
      lr_mult: 0
      decay_mult: 0
    }
    param {
      lr_mult: 0
      decay_mult: 0
    }
    include {
      phase: TEST
    }
    batch_norm_param {
      use_global_stats: true
      moving_average_fraction: 0.95
    }
  }
  layer {
    name: "drop7"
    type: "Dropout"
    bottom: "fc7_BN"
    top: "drop7"
    dropout_param {
      dropout_ratio: 0.2
    }
  }
  layer {
    name: "fc8"
    type: "InnerProduct"
    bottom: "drop7"
    top: "fc8"
    param {
      lr_mult: 1
      decay_mult: 1
    }
    param {
      lr_mult: 2
      decay_mult: 0
    }
    inner_product_param {
      num_output: 1000
      weight_filler {
        type: "gaussian"
        std: 0.01
      }
      bias_filler {
        type: "constant"
      }
    }
  }
  layer {
    name: "accuracy"
    type: "Accuracy"
    bottom: "fc8"
    bottom: "label"
    top: "accuracy"
    include {
      phase: TEST
    }
  }
  layer {
    name: "loss"
    type: "SoftmaxWithLoss"
    bottom: "fc8"
    bottom: "label"
    top: "loss"
  }
}
test_initialization: false
average_loss: 20
iter_size: 1
type: "SGD"
I0118 08:44:16.127332 31386 solver.cpp:86] Creating training net specified in net_param.
I0118 08:44:16.127429 31386 net.cpp:322] The NetState phase (0) differed from the phase (1) specified by a rule in layer data
I0118 08:44:16.127436 31386 net.cpp:322] The NetState phase (0) differed from the phase (1) specified by a rule in layer conv1_BN
…
  transform_param {
    scale: 0.04
    mirror: true
    crop_size: 128
    mean_value: 104
    mean_value: 117
    mean_value: 124
    force_color: true
    resize_param {
      prob: 1
      resize_mode: FIT_SMALL_SIZE
      height: 144
      width: 144
      pad_mode: MIRRORED
      pad_value: 104
      pad_value: 117
      pad_value: 124
      interp_mode: CUBIC
      center_object: false
      max_angle: 0
    }
  }
  data_param {
    source: "/home/old-ufo/datasets/imagenet/ilsvrc12_train_shuffle_lmdb"
    batch_size: 256
    backend: LMDB
  }
}
layer {
  name: "conv1"
  type: "Convolution"
  bottom: "data"
  top: "conv1"
  param {
    lr_mult: 1
    decay_mult: 1
  }
  param {
    lr_mult: 2
    decay_mult: 0
  }
  convolution_param {
    num_output: 96
    kernel_size: 11
    stride: 4
    weight_filler {
      type: "gaussian"
      std: 0.01
    }
    bias_filler {
      type: "constant"
    }
  }
}
layer {
  name: "relu1"
  type: "ReLU"
  bottom: "conv1"
  top: "conv1"
}
layer {
  name: "conv1_BN"
  type: "BatchNorm"
  bottom: "conv1"
  top: "conv1_BN"
  param {
    lr_mult: 0
    decay_mult: 0
  }
  param {
    lr_mult: 0
    decay_mult: 0
  }
  param {
    lr_mult: 0
    decay_mult: 0
  }
  include {
    phase: TRAIN
  }
  batch_norm_param {
    use_global_stats: false
    moving_average_fraction: 0.95
  }
}
layer {
  name: "pool1"
  type: "Pooling"
  bottom: "conv1_BN"
  top: "pool1"
  pooling_param {
    pool: MAX
    kernel_size: 3
    stride: 2
  }
}
layer {
  name: "conv2"
  type: "Convolution"
  bottom: "pool1"
  top: "conv2"
  param {
    lr_mult: 1
    decay_mult: 1
  }
  param {
    lr_mult: 2
    decay_mult: 0
  }
  convolution_param {
    num_output: 256
    pad: 2
    kernel_size: 5
    group: 2
    weight_filler {
      type: "gaussian"
      std: 0.01
    }
    bias_filler {
      type: "constant"
    }
  }
}
layer {
  name: "relu2"
  type: "ReLU"
  bottom: "conv2"
  top: "conv2"
}
layer {
  name: "conv2_BN"
  type: "BatchNorm"
  bottom: "conv2"
  top: "conv2_BN"
  param {
    lr_mult: 0
    decay_mult: 0
  }
  param {
    lr_mult: 0
    decay_mult: 0
  }
  param {
    lr_mult: 0
    decay_mult: 0
  }
  include {
    phase: TRAIN
  }
  batch_norm_param {
    use_global_stats: false
    moving_average_fraction: 0.95
  }
}
layer {
  name: "pool2"
  type: "Pooling"
  bottom: "conv2_BN"
  top: "pool2"
  pooling_param {
    pool: MAX
    kernel_size: 3
    stride: 2
  }
}
layer {
  name: "conv3"
  type: "Convolution"
  bottom: "pool2"
  top: "conv3"
  param {
    lr_mult: 1
    decay_mult: 1
  }
  param {
    lr_mult: 2
    decay_mult: 0
  }
  convolution_param {
    num_output: 384
    pad: 1
    kernel_size: 3
    weight_filler {
      type: "gaussian"
      std: 0.01
    }
    bias_filler {
      type: "constant"
    }
  }
}
layer {
  name: "relu3"
  type: "ReLU"
  bottom: "conv3"
  top: "conv3"
}
layer {
  name: "conv3_BN"
  type: "BatchNorm"
  bottom: "conv3"
  top: "conv3_BN"
  param {
    lr_mult: 0
    decay_mult: 0
  }
  param {
    lr_mult: 0
    decay_mult: 0
  }
  param {
    lr_mult: 0
    decay_mult: 0
  }
  include {
    phase: TRAIN
  }
  batch_norm_param {
    use_global_stats: false
    moving_average_fraction: 0.95
  }
}
layer {
  name: "conv4"
  type: "Convolution"
  bottom: "conv3_BN"
  top: "conv4"
  param {
    lr_mult: 1
    decay_mult: 1
  }
  param {
    lr_mult: 2
    decay_mult: 0
  }
  convolution_param {
    num_output: 384
    pad: 1
    kernel_size: 3
    group: 2
    weight_filler {
      type: "gaussian"
      std: 0.01
    }
    bias_filler {
      type: "constant"
    }
  }
}
layer {
  name: "relu4"
  type: "ReLU"
  bottom: "conv4"
  top: "conv4"
}
layer {
  name: "conv4_BN"
  type: "BatchNorm"
  bottom: "conv4"
  top: "conv4_BN"
  param {
    lr_mult: 0
    decay_mult: 0
  }
  param {
    lr_mult: 0
    decay_mult: 0
  }
  param {
    lr_mult: 0
    decay_mult: 0
  }
  include {
    phase: TRAIN
  }
  batch_norm_param {
    use_global_stats: false
    moving_average_fraction: 0.95
  }
}
layer {
  name: "conv5"
  type: "Convolution"
  bottom: "conv4_BN"
  top: "conv5"
  param {
    lr_mult: 1
    decay_mult: 1
  }
  param {
    lr_mult: 2
    decay_mult: 0
  }
  convolution_param {
    num_output: 256
    pad: 1
    kernel_size: 3
    group: 2
    weight_filler {
      type: "gaussian"
      std: 0.01
    }
    bias_filler {
      type: "constant"
    }
  }
}
layer {
  name: "relu5"
  type: "ReLU"
  bottom: "conv5"
  top: "conv5"
}
layer {
  name: "conv5_BN"
  type: "BatchNorm"
  bottom: "conv5"
  top: "conv5_BN"
  param {
    lr_mult: 0
    decay_mult: 0
  }
  param {
    lr_mult: 0
    decay_mult: 0
  }
  param {
    lr_mult: 0
    decay_mult: 0
  }
  include {
    phase: TRAIN
  }
  batch_norm_param {
    use_global_stats: false
    moving_average_fraction: 0.95
  }
}
layer {
  name: "pool5"
  type: "Pooling"
  bottom: "conv5_BN"
  top: "pool5"
  pooling_param {
    pool: MAX
    kernel_size: 3
    stride: 2
  }
}
layer {
  name: "fc6"
  type: "InnerProduct"
  bottom: "pool5"
  top: "fc6"
  param {
    lr_mult: 1
    decay_mult: 1
  }
  param {
    lr_mult: 2
    decay_mult: 0
  }
  inner_product_param {
    num_output: 2048
    weight_filler {
      type: "gaussian"
      std: 0.005
    }
    bias_filler {
      type: "constant"
    }
  }
}
layer {
  name: "relu6"
  type: "ReLU"
  bottom: "fc6"
  top: "fc6"
}
layer {
  name: "fc6_BN"
  type: "BatchNorm"
  bottom: "fc6"
  top: "fc6_BN"
  param {
    lr_mult: 0
    decay_mult: 0
  }
  param {
    lr_mult: 0
    decay_mult: 0
  }
  param {
    lr_mult: 0
    decay_mult: 0
  }
  include {
    phase: TRAIN
  }
  batch_norm_param {
    use_global_stats: false
    moving_average_fraction: 0.95
  }
}
layer {
  name: "drop6"
  type: "Dropout"
  bottom: "fc6_BN"
  top: "drop6"
  dropout_param {
    dropout_ratio: 0.2
  }
}
layer {
  name: "fc7"
  type: "InnerProduct"
  bottom: "drop6"
  top: "fc7"
  param {
    lr_mult: 1
    decay_mult: 1
  }
  param {
    lr_mult: 2
    decay_mult: 0
  }
  inner_product_param {
    num_output: 2048
    weight_filler {
      type: "gaussian"
      std: 0.005
    }
    bias_filler {
      type: "constant"
    }
  }
}
layer {
  name: "relu7"
  type: "ReLU"
  bottom: "fc7"
  top: "fc7"
}
layer {
  name: "fc7_BN"
  type: "BatchNorm"
  bottom: "fc7"
  top: "fc7_BN"
  param {
    lr_mult: 0
    decay_mult: 0
  }
  param {
    lr_mult: 0
    decay_mult: 0
  }
  param {
    lr_mult: 0
    decay_mult: 0
  }
  include {
    phase: TRAIN
  }
  batch_norm_param {
    use_global_stats: false
    moving_average_fraction: 0.95
  }
}
layer {
  name: "drop7"
  type: "Dropout"
  bottom: "fc7_BN"
  top: "drop7"
  dropout_param {
    dropout_ratio: 0.2
  }
}
layer {
  name: "fc8"
  type: "InnerProduct"
  bottom: "drop7"
  top: "fc8"
  param {
    lr_mult: 1
    decay_mult: 1
  }
  param {
    lr_mult: 2
    decay_mult: 0
  }
  inner_product_param {
    num_output: 1000
    weight_filler {
      type: "gaussian"
      std: 0.01
    }
    bias_filler {
      type: "constant"
    }
  }
}
layer {
  name: "loss"
  type: "SoftmaxWithLoss"
  bottom: "fc8"
  bottom: "label"
  top: "loss"
}
I0118 08:44:16.127708 31386 layer_factory.hpp:76] Creating layer data
I0118 08:44:16.128255 31386 net.cpp:106] Creating Layer data
I0118 08:44:16.128265 31386 net.cpp:411] data -> data
I0118 08:44:16.128290 31386 net.cpp:411] data -> label
I0118 08:44:16.130098 31390 db_lmdb.cpp:38] Opened lmdb /home/old-ufo/datasets/imagenet/ilsvrc12_train_shuffle_lmdb
I0118 08:44:16.141319 31386 data_layer.cpp:41] output data size: 256,3,128,128
I0118 08:44:16.208055 31386 net.cpp:150] Setting up data
I0118 08:44:16.208086 31386 net.cpp:157] Top shape: 256 3 128 128 (12582912)
I0118 08:44:16.208092 31386 net.cpp:157] Top shape: 256 (256)
I0118 08:44:16.208096 31386 net.cpp:165] Memory required for data: 50332672
I0118 08:44:16.208106 31386 layer_factory.hpp:76] Creating layer conv1
I0118 08:44:16.208124 31386 net.cpp:106] Creating Layer conv1
I0118 08:44:16.208132 31386 net.cpp:454] conv1 <- data
I0118 08:44:16.208145 31386 net.cpp:411] conv1 -> conv1
I0118 08:44:16.349598 31386 net.cpp:150] Setting up conv1
I0118 08:44:16.349622 31386 net.cpp:157] Top shape: 256 96 30 30 (22118400)
I0118 08:44:16.349628 31386 net.cpp:165] Memory required for data: 138806272
I0118 08:44:16.349653 31386 layer_factory.hpp:76] Creating layer relu1
I0118 08:44:16.349666 31386 net.cpp:106] Creating Layer relu1
I0118 08:44:16.349673 31386 net.cpp:454] relu1 <- conv1
I0118 08:44:16.349678 31386 net.cpp:397] relu1 -> conv1 (in-place)
I0118 08:44:16.350436 31386 net.cpp:150] Setting up relu1
I0118 08:44:16.350450 31386 net.cpp:157] Top shape: 256 96 30 30 (22118400)
I0118 08:44:16.350455 31386 net.cpp:165] Memory required for data: 227279872
I0118 08:44:16.350458 31386 layer_factory.hpp:76] Creating layer conv1_BN
I0118 08:44:16.350471 31386 net.cpp:106] Creating Layer conv1_BN
I0118 08:44:16.350476 31386 net.cpp:454] conv1_BN <- conv1
I0118 08:44:16.350482 31386 net.cpp:411] conv1_BN -> conv1_BN
I0118 08:44:16.350730 31386 net.cpp:150] Setting up conv1_BN
I0118 08:44:16.350741 31386 net.cpp:157] Top shape: 256 96 30 30 (22118400)
I0118 08:44:16.350745 31386 net.cpp:165] Memory required for data: 315753472
I0118 08:44:16.350759 31386 layer_factory.hpp:76] Creating layer pool1
I0118 08:44:16.350770 31386 net.cpp:106] Creating Layer pool1
I0118 08:44:16.350775 31386 net.cpp:454] pool1 <- conv1_BN
I0118 08:44:16.350781 31386 net.cpp:411] pool1 -> pool1
I0118 08:44:16.351405 31386 net.cpp:150] Setting up pool1
I0118 08:44:16.351418 31386 net.cpp:157] Top shape: 256 96 15 15 (5529600)
I0118 08:44:16.351423 31386 net.cpp:165] Memory required for data: 337871872
I0118 08:44:16.351428 31386 layer_factory.hpp:76] Creating layer conv2
I0118 08:44:16.351439 31386 net.cpp:106] Creating Layer conv2
I0118 08:44:16.351444 31386 net.cpp:454] conv2 <- pool1
I0118 08:44:16.351451 31386 net.cpp:411] conv2 -> conv2
I0118 08:44:16.363023 31386 net.cpp:150] Setting up conv2
I0118 08:44:16.363049 31386 net.cpp:157] Top shape: 256 256 15 15 (14745600)
I0118 08:44:16.363054 31386 net.cpp:165] Memory required for data: 396854272
I0118 08:44:16.363065 31386 layer_factory.hpp:76] Creating layer relu2
I0118 08:44:16.363075 31386 net.cpp:106] Creating Layer relu2
I0118 08:44:16.363080 31386 net.cpp:454] relu2 <- conv2
I0118 08:44:16.363090 31386 net.cpp:397] relu2 -> conv2 (in-place)
I0118 08:44:16.363673 31386 net.cpp:150] Setting up relu2
I0118 08:44:16.363699 31386 net.cpp:157] Top shape: 256 256 15 15 (14745600)
I0118 08:44:16.363704 31386 net.cpp:165] Memory required for data: 455836672
I0118 08:44:16.363709 31386 layer_factory.hpp:76] Creating layer conv2_BN
I0118 08:44:16.363721 31386 net.cpp:106] Creating Layer conv2_BN
I0118 08:44:16.363726 31386 net.cpp:454] conv2_BN <- conv2
I0118 08:44:16.363735 31386 net.cpp:411] conv2_BN -> conv2_BN
I0118 08:44:16.363935 31386 net.cpp:150] Setting up conv2_BN
I0118 08:44:16.363945 31386 net.cpp:157] Top shape: 256 256 15 15 (14745600)
I0118 08:44:16.363950 31386 net.cpp:165] Memory required for data: 514819072
I0118 08:44:16.363965 31386 layer_factory.hpp:76] Creating layer pool2
I0118 08:44:16.363996 31386 net.cpp:106] Creating Layer pool2
I0118 08:44:16.364018 31386 net.cpp:454] pool2 <- conv2_BN
I0118 08:44:16.364027 31386 net.cpp:411] pool2 -> pool2
I0118 08:44:16.364683 31386 net.cpp:150] Setting up pool2
I0118 08:44:16.364694 31386 net.cpp:157] Top shape: 256 256 7 7 (3211264)
I0118 08:44:16.364698 31386 net.cpp:165] Memory required for data: 527664128
I0118 08:44:16.364702 31386 layer_factory.hpp:76] Creating layer conv3
I0118 08:44:16.364714 31386 net.cpp:106] Creating Layer conv3
I0118 08:44:16.364719 31386 net.cpp:454] conv3 <- pool2
I0118 08:44:16.364728 31386 net.cpp:411] conv3 -> conv3
I0118 08:44:16.390332 31386 net.cpp:150] Setting up conv3
I0118 08:44:16.390359 31386 net.cpp:157] Top shape: 256 384 7 7 (4816896)
I0118 08:44:16.390364 31386 net.cpp:165] Memory required for data: 546931712
I0118 08:44:16.390377 31386 layer_factory.hpp:76] Creating layer relu3
I0118 08:44:16.390388 31386 net.cpp:106] Creating Layer relu3
I0118 08:44:16.390394 31386 net.cpp:454] relu3 <- conv3
I0118 08:44:16.390403 31386 net.cpp:397] relu3 -> conv3 (in-place)
I0118 08:44:16.391008 31386 net.cpp:150] Setting up relu3
I0118 08:44:16.391021 31386 net.cpp:157] Top shape: 256 384 7 7 (4816896)
I0118 08:44:16.391026 31386 net.cpp:165] Memory required for data: 566199296
I0118 08:44:16.391031 31386 layer_factory.hpp:76] Creating layer conv3_BN
I0118 08:44:16.391043 31386 net.cpp:106] Creating Layer conv3_BN
I0118 08:44:16.391049 31386 net.cpp:454] conv3_BN <- conv3
I0118 08:44:16.391057 31386 net.cpp:411] conv3_BN -> conv3_BN
I0118 08:44:16.391265 31386 net.cpp:150] Setting up conv3_BN
I0118 08:44:16.391275 31386 net.cpp:157] Top shape: 256 384 7 7 (4816896)
I0118 08:44:16.391279 31386 net.cpp:165] Memory required for data: 585466880
I0118 08:44:16.391290 31386 layer_factory.hpp:76] Creating layer conv4
I0118 08:44:16.391305 31386 net.cpp:106] Creating Layer conv4
I0118 08:44:16.391310 31386 net.cpp:454] conv4 <- conv3_BN
I0118 08:44:16.391317 31386 net.cpp:411] conv4 -> conv4
I0118 08:44:16.412163 31386 net.cpp:150] Setting up conv4
I0118 08:44:16.412189 31386 net.cpp:157] Top shape: 256 384 7 7 (4816896)
I0118 08:44:16.412192 31386 net.cpp:165] Memory required for data: 604734464
I0118 08:44:16.412207 31386 layer_factory.hpp:76] Creating layer relu4
I0118 08:44:16.412223 31386 net.cpp:106] Creating Layer relu4
I0118 08:44:16.412230 31386 net.cpp:454] relu4 <- conv4
I0118 08:44:16.412238 31386 net.cpp:397] relu4 -> conv4 (in-place)
I0118 08:44:16.412820 31386 net.cpp:150] Setting up relu4
I0118 08:44:16.412833 31386 net.cpp:157] Top shape: 256 384 7 7 (4816896)
I0118 08:44:16.412837 31386 net.cpp:165] Memory required for data: 624002048
I0118 08:44:16.412842 31386 layer_factory.hpp:76] Creating layer conv4_BN
I0118 08:44:16.412854 31386 net.cpp:106] Creating Layer conv4_BN
I0118 08:44:16.412859 31386 net.cpp:454] conv4_BN <- conv4
I0118 08:44:16.412868 31386 net.cpp:411] conv4_BN -> conv4_BN
I0118 08:44:16.413091 31386 net.cpp:150] Setting up conv4_BN
I0118 08:44:16.413102 31386 net.cpp:157] Top shape: 256 384 7 7 (4816896)
I0118 08:44:16.413106 31386 net.cpp:165] Memory required for data: 643269632
I0118 08:44:16.413116 31386 layer_factory.hpp:76] Creating layer conv5
I0118 08:44:16.413128 31386 net.cpp:106] Creating Layer conv5
I0118 08:44:16.413136 31386 net.cpp:454] conv5 <- conv4_BN
I0118 08:44:16.413162 31386 net.cpp:411] conv5 -> conv5
I0118 08:44:16.428714 31386 net.cpp:150] Setting up conv5
I0118 08:44:16.428738 31386 net.cpp:157] Top shape: 256 256 7 7 (3211264)
I0118 08:44:16.428743 31386 net.cpp:165] Memory required for data: 656114688
I0118 08:44:16.428755 31386 layer_factory.hpp:76] Creating layer relu5
I0118 08:44:16.428769 31386 net.cpp:106] Creating Layer relu5
I0118 08:44:16.428776 31386 net.cpp:454] relu5 <- conv5
I0118 08:44:16.428784 31386 net.cpp:397] relu5 -> conv5 (in-place)
I0118 08:44:16.429373 31386 net.cpp:150] Setting up relu5
I0118 08:44:16.429385 31386 net.cpp:157] Top shape: 256 256 7 7 (3211264)
I0118 08:44:16.429390 31386 net.cpp:165] Memory required for data: 668959744
I0118 08:44:16.429395 31386 layer_factory.hpp:76] Creating layer conv5_BN
I0118 08:44:16.429406 31386 net.cpp:106] Creating Layer conv5_BN
I0118 08:44:16.429411 31386 net.cpp:454] conv5_BN <- conv5
I0118 08:44:16.429420 31386 net.cpp:411] conv5_BN -> conv5_BN
I0118 08:44:16.429641 31386 net.cpp:150] Setting up conv5_BN
I0118 08:44:16.429651 31386 net.cpp:157] Top shape: 256 256 7 7 (3211264)
I0118 08:44:16.429656 31386 net.cpp:165] Memory required for data: 681804800
I0118 08:44:16.429666 31386 layer_factory.hpp:76] Creating layer pool5
I0118 08:44:16.429674 31386 net.cpp:106] Creating Layer pool5
I0118 08:44:16.429678 31386 net.cpp:454] pool5 <- conv5_BN
I0118 08:44:16.429685 31386 net.cpp:411] pool5 -> pool5
I0118 08:44:16.430320 31386 net.cpp:150] Setting up pool5
I0118 08:44:16.430333 31386 net.cpp:157] Top shape: 256 256 3 3 (589824)
I0118 08:44:16.430338 31386 net.cpp:165] Memory required for data: 684164096
I0118 08:44:16.430342 31386 layer_factory.hpp:76] Creating layer fc6
I0118 08:44:16.430352 31386 net.cpp:106] Creating Layer fc6
I0118 08:44:16.430356 31386 net.cpp:454] fc6 <- pool5
I0118 08:44:16.430366 31386 net.cpp:411] fc6 -> fc6
I0118 08:44:16.552939 31386 net.cpp:150] Setting up fc6
I0118 08:44:16.552964 31386 net.cpp:157] Top shape: 256 2048 (524288)
I0118 08:44:16.552969 31386 net.cpp:165] Memory required for data: 686261248
I0118 08:44:16.552981 31386 layer_factory.hpp:76] Creating layer relu6
I0118 08:44:16.552994 31386 net.cpp:106] Creating Layer relu6
I0118 08:44:16.553000 31386 net.cpp:454] relu6 <- fc6
I0118 08:44:16.553009 31386 net.cpp:397] relu6 -> fc6 (in-place)
I0118 08:44:16.553771 31386 net.cpp:150] Setting up relu6
I0118 08:44:16.553786 31386 net.cpp:157] Top shape: 256 2048 (524288)
I0118 08:44:16.553791 31386 net.cpp:165] Memory required for data: 688358400
I0118 08:44:16.553797 31386 layer_factory.hpp:76] Creating layer fc6_BN
I0118 08:44:16.553812 31386 net.cpp:106] Creating Layer fc6_BN
I0118 08:44:16.553820 31386 net.cpp:454] fc6_BN <- fc6
I0118 08:44:16.553828 31386 net.cpp:411] fc6_BN -> fc6_BN
I0118 08:44:16.554088 31386 net.cpp:150] Setting up fc6_BN
I0118 08:44:16.554100 31386 net.cpp:157] Top shape: 256 2048 (524288)
I0118 08:44:16.554103 31386 net.cpp:165] Memory required for data: 690455552
I0118 08:44:16.554114 31386 layer_factory.hpp:76] Creating layer drop6
I0118 08:44:16.554124 31386 net.cpp:106] Creating Layer drop6
I0118 08:44:16.554128 31386 net.cpp:454] drop6 <- fc6_BN
I0118 08:44:16.554134 31386 net.cpp:411] drop6 -> drop6
I0118 08:44:16.554188 31386 net.cpp:150] Setting up drop6
I0118 08:44:16.554198 31386 net.cpp:157] Top shape: 256 2048 (524288)
I0118 08:44:16.554203 31386 net.cpp:165] Memory required for data: 692552704
I0118 08:44:16.554206 31386 layer_factory.hpp:76] Creating layer fc7
I0118 08:44:16.554217 31386 net.cpp:106] Creating Layer fc7
I0118 08:44:16.554222 31386 net.cpp:454] fc7 <- drop6
I0118 08:44:16.554229 31386 net.cpp:411] fc7 -> fc7
I0118 08:44:16.662451 31386 net.cpp:150] Setting up fc7
I0118 08:44:16.662477 31386 net.cpp:157] Top shape: 256 2048 (524288)
I0118 08:44:16.662482 31386 net.cpp:165] Memory required for data: 694649856
I0118 08:44:16.662497 31386 layer_factory.hpp:76] Creating layer relu7
I0118 08:44:16.662518 31386 net.cpp:106] Creating Layer relu7
I0118 08:44:16.662526 31386 net.cpp:454] relu7 <- fc7
I0118 08:44:16.662534 31386 net.cpp:397] relu7 -> fc7 (in-place)
I0118 08:44:16.663342 31386 net.cpp:150] Setting up relu7
I0118 08:44:16.663357 31386 net.cpp:157] Top shape: 256 2048 (524288)
I0118 08:44:16.663362 31386 net.cpp:165] Memory required for data: 696747008
I0118 08:44:16.663367 31386 layer_factory.hpp:76] Creating layer fc7_BN
I0118 08:44:16.663378 31386 net.cpp:106] Creating Layer fc7_BN
I0118 08:44:16.663384 31386 net.cpp:454] fc7_BN <- fc7
I0118 08:44:16.663391 31386 net.cpp:411] fc7_BN -> fc7_BN
I0118 08:44:16.663684 31386 net.cpp:150] Setting up fc7_BN
I0118 08:44:16.663696 31386 net.cpp:157] Top shape: 256 2048 (524288)
I0118 08:44:16.663699 31386 net.cpp:165] Memory required for data: 698844160
I0118 08:44:16.663714 31386 layer_factory.hpp:76] Creating layer drop7
I0118 08:44:16.663727 31386 net.cpp:106] Creating Layer drop7
I0118 08:44:16.663733 31386 net.cpp:454] drop7 <- fc7_BN
I0118 08:44:16.663743 31386 net.cpp:411] drop7 -> drop7
I0118 08:44:16.663779 31386 net.cpp:150] Setting up drop7
I0118 08:44:16.663785 31386 net.cpp:157] Top shape: 256 2048 (524288)
I0118 08:44:16.663789 31386 net.cpp:165] Memory required for data: 700941312
I0118 08:44:16.663794 31386 layer_factory.hpp:76] Creating layer fc8
I0118 08:44:16.663803 31386 net.cpp:106] Creating Layer fc8
I0118 08:44:16.663807 31386 net.cpp:454] fc8 <- drop7
I0118 08:44:16.663815 31386 net.cpp:411] fc8 -> fc8
I0118 08:44:16.716748 31386 net.cpp:150] Setting up fc8
I0118 08:44:16.716774 31386 net.cpp:157] Top shape: 256 1000 (256000)
I0118 08:44:16.716779 31386 net.cpp:165] Memory required for data: 701965312
I0118 08:44:16.716791 31386 layer_factory.hpp:76] Creating layer loss
I0118 08:44:16.716802 31386 net.cpp:106] Creating Layer loss
I0118 08:44:16.716809 31386 net.cpp:454] loss <- fc8
I0118 08:44:16.716816 31386 net.cpp:454] loss <- label
I0118 08:44:16.716826 31386 net.cpp:411] loss -> loss
I0118 08:44:16.716841 31386 layer_factory.hpp:76] Creating layer loss
…
    phase: TEST
  }
  transform_param {
    scale: 0.04
    mirror: false
    crop_size: 128
    mean_value: 104
    mean_value: 117
    mean_value: 123
    force_color: true
    resize_param {
      prob: 1
      resize_mode: FIT_SMALL_SIZE
      height: 144
      width: 144
      pad_mode: MIRRORED
      pad_value: 104
      pad_value: 117
      pad_value: 124
      interp_mode: CUBIC
      center_object: false
      max_angle: 0
    }
  }
  data_param {
    source: "/home/old-ufo/datasets/imagenet/ilsvrc12_val_lmdb"
    batch_size: 250
    backend: LMDB
  }
}
layer {
  name: "conv1"
  type: "Convolution"
  bottom: "data"
  top: "conv1"
  param {
    lr_mult: 1
    decay_mult: 1
  }
  param {
    lr_mult: 2
    decay_mult: 0
  }
  convolution_param {
    num_output: 96
    kernel_size: 11
    stride: 4
    weight_filler {
      type: "gaussian"
      std: 0.01
    }
    bias_filler {
      type: "constant"
    }
  }
}
layer {
  name: "relu1"
  type: "ReLU"
  bottom: "conv1"
  top: "conv1"
}
layer {
  name: "conv1_BN"
  type: "BatchNorm"
  bottom: "conv1"
  top: "conv1_BN"
  param {
    lr_mult: 0
    decay_mult: 0
  }
  param {
    lr_mult: 0
    decay_mult: 0
  }
  param {
    lr_mult: 0
    decay_mult: 0
  }
  include {
    phase: TEST
  }
  batch_norm_param {
    use_global_stats: true
    moving_average_fraction: 0.95
  }
}
layer {
  name: "pool1"
  type: "Pooling"
  bottom: "conv1_BN"
  top: "pool1"
  pooling_param {
    pool: MAX
    kernel_size: 3
    stride: 2
  }
}
layer {
  name: "conv2"
  type: "Convolution"
  bottom: "pool1"
  top: "conv2"
  param {
    lr_mult: 1
    decay_mult: 1
  }
  param {
    lr_mult: 2
    decay_mult: 0
  }
  convolution_param {
    num_output: 256
    pad: 2
    kernel_size: 5
    group: 2
    weight_filler {
      type: "gaussian"
      std: 0.01
    }
    bias_filler {
      type: "constant"
    }
  }
}
layer {
  name: "relu2"
  type: "ReLU"
  bottom: "conv2"
  top: "conv2"
}
layer {
  name: "conv2_BN"
  type: "BatchNorm"
  bottom: "conv2"
  top: "conv2_BN"
  param {
    lr_mult: 0
    decay_mult: 0
  }
  param {
    lr_mult: 0
    decay_mult: 0
  }
  param {
    lr_mult: 0
    decay_mult: 0
  }
  include {
    phase: TEST
  }
  batch_norm_param {
    use_global_stats: true
    moving_average_fraction: 0.95
  }
}
layer {
  name: "pool2"
  type: "Pooling"
  bottom: "conv2_BN"
  top: "pool2"
  pooling_param {
    pool: MAX
    kernel_size: 3
    stride: 2
  }
}
layer {
  name: "conv3"
  type: "Convolution"
  bottom: "pool2"
  top: "conv3"
  param {
    lr_mult: 1
    decay_mult: 1
  }
  param {
    lr_mult: 2
    decay_mult: 0
  }
  convolution_param {
    num_output: 384
    pad: 1
    kernel_size: 3
    weight_filler {
      type: "gaussian"
      std: 0.01
    }
    bias_filler {
      type: "constant"
    }
  }
}
layer {
  name: "relu3"
  type: "ReLU"
  bottom: "conv3"
  top: "conv3"
}
layer {
  name: "conv3_BN"
  type: "BatchNorm"
  bottom: "conv3"
  top: "conv3_BN"
  param {
    lr_mult: 0
    decay_mult: 0
  }
  param {
    lr_mult: 0
    decay_mult: 0
  }
  param {
    lr_mult: 0
    decay_mult: 0
  }
  include {
    phase: TEST
  }
  batch_norm_param {
    use_global_stats: true
    moving_average_fraction: 0.95
  }
}
layer {
  name: "conv4"
  type: "Convolution"
  bottom: "conv3_BN"
  top: "conv4"
  param {
    lr_mult: 1
    decay_mult: 1
  }
  param {
    lr_mult: 2
    decay_mult: 0
  }
  convolution_param {
    num_output: 384
    pad: 1
    kernel_size: 3
    group: 2
    weight_filler {
      type: "gaussian"
      std: 0.01
    }
    bias_filler {
      type: "constant"
    }
  }
}
layer {
  name: "relu4"
  type: "ReLU"
  bottom: "conv4"
  top: "conv4"
}
layer {
  name: "conv4_BN"
  type: "BatchNorm"
  bottom: "conv4"
  top: "conv4_BN"
  param {
    lr_mult: 0
    decay_mult: 0
  }
  param {
    lr_mult: 0
    decay_mult: 0
  }
  param {
    lr_mult: 0
    decay_mult: 0
  }
  include {
    phase: TEST
  }
  batch_norm_param {
    use_global_stats: true
    moving_average_fraction: 0.95
  }
}
layer {
  name: "conv5"
  type: "Convolution"
  bottom: "conv4_BN"
  top: "conv5"
  param {
    lr_mult: 1
    decay_mult: 1
  }
  param {
    lr_mult: 2
    decay_mult: 0
  }
  convolution_param {
    num_output: 256
    pad: 1
    kernel_size: 3
    group: 2
    weight_filler {
      type: "gaussian"
      std: 0.01
    }
    bias_filler {
      type: "constant"
    }
  }
}
layer {
  name: "relu5"
  type: "ReLU"
  bottom: "conv5"
  top: "conv5"
}
layer {
  name: "conv5_BN"
  type: "BatchNorm"
  bottom: "conv5"
  top: "conv5_BN"
  param {
    lr_mult: 0
    decay_mult: 0
  }
  param {
    lr_mult: 0
    decay_mult: 0
  }
  param {
    lr_mult: 0
    decay_mult: 0
  }
  include {
    phase: TEST
  }
  batch_norm_param {
    use_global_stats: true
    moving_average_fraction: 0.95
  }
}
layer {
  name: "pool5"
  type: "Pooling"
  bottom: "conv5_BN"
  top: "pool5"
  pooling_param {
    pool: MAX
    kernel_size: 3
    stride: 2
  }
}
layer {
  name: "fc6"
  type: "InnerProduct"
  bottom: "pool5"
  top: "fc6"
  param {
    lr_mult: 1
    decay_mult: 1
  }
  param {
    lr_mult: 2
    decay_mult: 0
  }
  inner_product_param {
    num_output: 2048
    weight_filler {
      type: "gaussian"
      std: 0.005
    }
    bias_filler {
      type: "constant"
    }
  }
}
layer {
  name: "relu6"
  type: "ReLU"
  bottom: "fc6"
  top: "fc6"
}
layer {
  name: "fc6_BN"
  type: "BatchNorm"
  bottom: "fc6"
  top: "fc6_BN"
  param {
    lr_mult: 0
    decay_mult: 0
  }
  param {
    lr_mult: 0
    decay_mult: 0
  }
  param {
    lr_mult: 0
    decay_mult: 0
  }
  include {
    phase: TEST
  }
  batch_norm_param {
    use_global_stats: true
    moving_average_fraction: 0.95
  }
}
layer {
  name: "drop6"
  type: "Dropout"
  bottom: "fc6_BN"
  top: "drop6"
  dropout_param {
    dropout_ratio: 0.2
  }
}
layer {
  name: "fc7"
  type: "InnerProduct"
  bottom: "drop6"
  top: "fc7"
  param {
    lr_mult: 1
    decay_mult: 1
  }
  param {
    lr_mult: 2
    decay_mult: 0
  }
  inner_product_param {
    num_output: 2048
    weight_filler {
      type: "gaussian"
      std: 0.005
    }
    bias_filler {
      type: "constant"
    }
  }
}
layer {
  name: "relu7"
  type: "ReLU"
  bottom: "fc7"
  top: "fc7"
}
layer {
  name: "fc7_BN"
  type: "BatchNorm"
  bottom: "fc7"
  top: "fc7_BN"
  param {
    lr_mult: 0
    decay_mult: 0
  }
  param {
    lr_mult: 0
    decay_mult: 0
  }
  param {
    lr_mult: 0
    decay_mult: 0
  }
  include {
    phase: TEST
  }
  batch_norm_param {
    use_global_stats: true
    moving_average_fraction: 0.95
  }
}
layer {
  name: "drop7"
  type: "Dropout"
  bottom: "fc7_BN"
  top: "drop7"
  dropout_param {
    dropout_ratio: 0.2
  }
}
layer {
  name: "fc8"
  type: "InnerProduct"
  bottom: "drop7"
  top: "fc8"
  param {
    lr_mult: 1
    decay_mult: 1
  }
  param {
    lr_mult: 2
    decay_mult: 0
  }
  inner_product_param {
    num_output: 1000
    weight_filler {
      type: "gaussian"
      std: 0.01
    }
    bias_filler {
      type: "constant"
    }
  }
}
layer {
  name: "accuracy"
  type: "Accuracy"
  bottom: "fc8"
  bottom: "label"
  top: "accuracy"
  include {
    phase: TEST
  }
}
layer {
  name: "loss"
  type: "SoftmaxWithLoss"
  bottom: "fc8"
  bottom: "label"
  top: "loss"
}
I0118 08:44:16.719288 31386 layer_factory.hpp:76] Creating layer data
I0118 08:44:16.719506 31386 net.cpp:106] Creating Layer data
I0118 08:44:16.719514 31386 net.cpp:411] data -> data
I0118 08:44:16.719527 31386 net.cpp:411] data -> label
I0118 08:44:16.720994 31399 db_lmdb.cpp:38] Opened lmdb /home/old-ufo/datasets/imagenet/ilsvrc12_val_lmdb
I0118 08:44:16.723664 31386 data_layer.cpp:41] output data size: 250,3,128,128
I0118 08:44:16.792982 31386 net.cpp:150] Setting up data
I0118 08:44:16.793074 31386 net.cpp:157] Top shape: 250 3 128 128 (12288000)
I0118 08:44:16.793112 31386 net.cpp:157] Top shape: 250 (250)
I0118 08:44:16.793133 31386 net.cpp:165] Memory required for data: 49153000
I0118 08:44:16.793154 31386 layer_factory.hpp:76] Creating layer label_data_1_split
I0118 08:44:16.793179 31386 net.cpp:106] Creating Layer label_data_1_split
I0118 08:44:16.793196 31386 net.cpp:454] label_data_1_split <- label
I0118 08:44:16.793217 31386 net.cpp:411] label_data_1_split -> label_data_1_split_0
I0118 08:44:16.793241 31386 net.cpp:411] label_data_1_split -> label_data_1_split_1
I0118 08:44:16.793705 31386 net.cpp:150] Setting up label_data_1_split
I0118 08:44:16.793747 31386 net.cpp:157] Top shape: 250 (250)
I0118 08:44:16.793771 31386 net.cpp:157] Top shape: 250 (250)
I0118 08:44:16.793792 31386 net.cpp:165] Memory required for data: 49155000
I0118 08:44:16.793808 31386 layer_factory.hpp:76] Creating layer conv1
I0118 08:44:16.793835 31386 net.cpp:106] Creating Layer conv1
I0118 08:44:16.793853 31386 net.cpp:454] conv1 <- data
I0118 08:44:16.793875 31386 net.cpp:411] conv1 -> conv1
I0118 08:44:16.803014 31386 net.cpp:150] Setting up conv1
I0118 08:44:16.803042 31386 net.cpp:157] Top shape: 250 96 30 30 (21600000)
I0118 08:44:16.803047 31386 net.cpp:165] Memory required for data: 135555000
I0118 08:44:16.803064 31386 layer_factory.hpp:76] Creating layer relu1
I0118 08:44:16.803078 31386 net.cpp:106] Creating Layer relu1
I0118 08:44:16.803084 31386 net.cpp:454] relu1 <- conv1
I0118 08:44:16.803100 31386 net.cpp:397] relu1 -> conv1 (in-place)
I0118 08:44:16.803845 31386 net.cpp:150] Setting up relu1
I0118 08:44:16.803858 31386 net.cpp:157] Top shape: 250 96 30 30 (21600000)
I0118 08:44:16.803863 31386 net.cpp:165] Memory required for data: 221955000
I0118 08:44:16.803867 31386 layer_factory.hpp:76] Creating layer conv1_BN
I0118 08:44:16.803882 31386 net.cpp:106] Creating Layer conv1_BN
I0118 08:44:16.803889 31386 net.cpp:454] conv1_BN <- conv1
I0118 08:44:16.803899 31386 net.cpp:411] conv1_BN -> conv1_BN
I0118 08:44:16.804114 31386 net.cpp:150] Setting up conv1_BN
I0118 08:44:16.804123 31386 net.cpp:157] Top shape: 250 96 30 30 (21600000)
I0118 08:44:16.804127 31386 net.cpp:165] Memory required for data: 308355000
I0118 08:44:16.804141 31386 layer_factory.hpp:76] Creating layer pool1
I0118 08:44:16.804152 31386 net.cpp:106] Creating Layer pool1
I0118 08:44:16.804157 31386 net.cpp:454] pool1 <- conv1_BN
I0118 08:44:16.804167 31386 net.cpp:411] pool1 -> pool1
I0118 08:44:16.804836 31386 net.cpp:150] Setting up pool1
I0118 08:44:16.804847 31386 net.cpp:157] Top shape: 250 96 15 15 (5400000)
I0118 08:44:16.804852 31386 net.cpp:165] Memory required for data: 329955000
I0118 08:44:16.804857 31386 layer_factory.hpp:76] Creating layer conv2
I0118 08:44:16.804879 31386 net.cpp:106] Creating Layer conv2
I0118 08:44:16.804885 31386 net.cpp:454] conv2 <- pool1
I0118 08:44:16.804894 31386 net.cpp:411] conv2 -> conv2
I0118 08:44:16.816896 31386 net.cpp:150] Setting up conv2
I0118 08:44:16.816922 31386 net.cpp:157] Top shape: 250 256 15 15 (14400000)
I0118 08:44:16.816927 31386 net.cpp:165] Memory required for data: 387555000
I0118 08:44:16.816938 31386 layer_factory.hpp:76] Creating layer relu2
I0118 08:44:16.816949 31386 net.cpp:106] Creating Layer relu2
I0118 08:44:16.816954 31386 net.cpp:454] relu2 <- conv2
I0118 08:44:16.816964 31386 net.cpp:397] relu2 -> conv2 (in-place)
I0118 08:44:16.817632 31386 net.cpp:150] Setting up relu2
I0118 08:44:16.817644 31386 net.cpp:157] Top shape: 250 256 15 15 (14400000)
I0118 08:44:16.817649 31386 net.cpp:165] Memory required for data: 445155000
I0118 08:44:16.817653 31386 layer_factory.hpp:76] Creating layer conv2_BN
I0118 08:44:16.817670 31386 net.cpp:106] Creating Layer conv2_BN
I0118 08:44:16.817675 31386 net.cpp:454] conv2_BN <- conv2
I0118 08:44:16.817683 31386 net.cpp:411] conv2_BN -> conv2_BN
I0118 08:44:16.817931 31386 net.cpp:150] Setting up conv2_BN
I0118 08:44:16.817942 31386 net.cpp:157] Top shape: 250 256 15 15 (14400000)
I0118 08:44:16.817946 31386 net.cpp:165] Memory required for data: 502755000
I0118 08:44:16.817960 31386 layer_factory.hpp:76] Creating layer pool2
I0118 08:44:16.817970 31386 net.cpp:106] Creating Layer pool2
I0118 08:44:16.817975 31386 net.cpp:454] pool2 <- conv2_BN
I0118 08:44:16.817982 31386 net.cpp:411] pool2 -> pool2
I0118 08:44:16.818645 31386 net.cpp:150] Setting up pool2
I0118 08:44:16.818656 31386 net.cpp:157] Top shape: 250 256 7 7 (3136000)
I0118 08:44:16.818661 31386 net.cpp:165] Memory required for data: 515299000
I0118 08:44:16.818665 31386 layer_factory.hpp:76] Creating layer conv3
I0118 08:44:16.818677 31386 net.cpp:106] Creating Layer conv3
I0118 08:44:16.818683 31386 net.cpp:454] conv3 <- pool2
I0118 08:44:16.818692 31386 net.cpp:411] conv3 -> conv3
I0118 08:44:16.844219 31386 net.cpp:150] Setting up conv3
I0118 08:44:16.844244 31386 net.cpp:157] Top shape: 250 384 7 7 (4704000)
I0118 08:44:16.844249 31386 net.cpp:165] Memory required for data: 534115000
I0118 08:44:16.844259 31386 layer_factory.hpp:76] Creating layer relu3
I0118 08:44:16.844271 31386 net.cpp:106] Creating Layer relu3
I0118 08:44:16.844277 31386 net.cpp:454] relu3 <- conv3
I0118 08:44:16.844287 31386 net.cpp:397] relu3 -> conv3 (in-place)
I0118 08:44:16.844957 31386 net.cpp:150] Setting up relu3
I0118 08:44:16.844970 31386 net.cpp:157] Top shape: 250 384 7 7 (4704000)
I0118 08:44:16.844974 31386 net.cpp:165] Memory required for data: 552931000
I0118 08:44:16.844980 31386 layer_factory.hpp:76] Creating layer conv3_BN
I0118 08:44:16.844991 31386 net.cpp:106] Creating Layer conv3_BN
I0118 08:44:16.844996 31386 net.cpp:454] conv3_BN <- conv3
I0118 08:44:16.845006 31386 net.cpp:411] conv3_BN -> conv3_BN
I0118 08:44:16.845302 31386 net.cpp:150] Setting up conv3_BN
I0118 08:44:16.845346 31386 net.cpp:157] Top shape: 250 384 7 7 (4704000)
I0118 08:44:16.845367 31386 net.cpp:165] Memory required for data: 571747000
I0118 08:44:16.845394 31386 layer_factory.hpp:76] Creating layer conv4
I0118 08:44:16.845422 31386 net.cpp:106] Creating Layer conv4
I0118 08:44:16.845443 31386 net.cpp:454] conv4 <- conv3_BN
I0118 08:44:16.845468 31386 net.cpp:411] conv4 -> conv4
I0118 08:44:16.867054 31386 net.cpp:150] Setting up conv4
I0118 08:44:16.867081 31386 net.cpp:157] Top shape: 250 384 7 7 (4704000)
I0118 08:44:16.867086 31386 net.cpp:165] Memory required for data: 590563000
I0118 08:44:16.867101 31386 layer_factory.hpp:76] Creating layer relu4
I0118 08:44:16.867112 31386 net.cpp:106] Creating Layer relu4
I0118 08:44:16.867117 31386 net.cpp:454] relu4 <- conv4
I0118 08:44:16.867127 31386 net.cpp:397] relu4 -> conv4 (in-place)
I0118 08:44:16.867817 31386 net.cpp:150] Setting up relu4
I0118 08:44:16.867831 31386 net.cpp:157] Top shape: 250 384 7 7 (4704000)
I0118 08:44:16.867836 31386 net.cpp:165] Memory required for data: 609379000
I0118 08:44:16.867853 31386 layer_factory.hpp:76] Creating layer conv4_BN
I0118 08:44:16.867867 31386 net.cpp:106] Creating Layer conv4_BN
I0118 08:44:16.867872 31386 net.cpp:454] conv4_BN <- conv4
I0118 08:44:16.867880 31386 net.cpp:411] conv4_BN -> conv4_BN
I0118 08:44:16.868160 31386 net.cpp:150] Setting up conv4_BN
I0118 08:44:16.868171 31386 net.cpp:157] Top shape: 250 384 7 7 (4704000)
I0118 08:44:16.868175 31386 net.cpp:165] Memory required for data: 628195000
I0118 08:44:16.868186 31386 layer_factory.hpp:76] Creating layer conv5
I0118 08:44:16.868201 31386 net.cpp:106] Creating Layer conv5
I0118 08:44:16.868207 31386 net.cpp:454] conv5 <- conv4_BN
I0118 08:44:16.868216 31386 net.cpp:411] conv5 -> conv5
I0118 08:44:16.886154 31386 net.cpp:150] Setting up conv5
I0118 08:44:16.886229 31386 net.cpp:157] Top shape: 250 256 7 7 (3136000)
I0118 08:44:16.886255 31386 net.cpp:165] Memory required for data: 640739000
I0118 08:44:16.886282 31386 layer_factory.hpp:76] Creating layer relu5
I0118 08:44:16.886309 31386 net.cpp:106] Creating Layer relu5
I0118 08:44:16.886328 31386 net.cpp:454] relu5 <- conv5
I0118 08:44:16.886351 31386 net.cpp:397] relu5 -> conv5 (in-place)
I0118 08:44:16.887198 31386 net.cpp:150] Setting up relu5
I0118 08:44:16.887235 31386 net.cpp:157] Top shape: 250 256 7 7 (3136000)
I0118 08:44:16.887258 31386 net.cpp:165] Memory required for data: 653283000
I0118 08:44:16.887279 31386 layer_factory.hpp:76] Creating layer conv5_BN
I0118 08:44:16.887305 31386 net.cpp:106] Creating Layer conv5_BN
I0118 08:44:16.887328 31386 net.cpp:454] conv5_BN <- conv5
I0118 08:44:16.887352 31386 net.cpp:411] conv5_BN -> conv5_BN
I0118 08:44:16.887684 31386 net.cpp:150] Setting up conv5_BN
I0118 08:44:16.887714 31386 net.cpp:157] Top shape: 250 256 7 7 (3136000)
I0118 08:44:16.887733 31386 net.cpp:165] Memory required for data: 665827000
I0118 08:44:16.887760 31386 layer_factory.hpp:76] Creating layer pool5
I0118 08:44:16.887785 31386 net.cpp:106] Creating Layer pool5
I0118 08:44:16.887804 31386 net.cpp:454] pool5 <- conv5_BN
I0118 08:44:16.887830 31386 net.cpp:411] pool5 -> pool5
I0118 08:44:16.888717 31386 net.cpp:150] Setting up pool5
I0118 08:44:16.888757 31386 net.cpp:157] Top shape: 250 256 3 3 (576000)
I0118 08:44:16.888780 31386 net.cpp:165] Memory required for data: 668131000
I0118 08:44:16.888799 31386 layer_factory.hpp:76] Creating layer fc6
I0118 08:44:16.888824 31386 net.cpp:106] Creating Layer fc6
I0118 08:44:16.888844 31386 net.cpp:454] fc6 <- pool5
I0118 08:44:16.888870 31386 net.cpp:411] fc6 -> fc6
I0118 08:44:17.023831 31386 net.cpp:150] Setting up fc6
I0118 08:44:17.023856 31386 net.cpp:157] Top shape: 250 2048 (512000)
I0118 08:44:17.023861 31386 net.cpp:165] Memory required for data: 670179000
I0118 08:44:17.023872 31386 layer_factory.hpp:76] Creating layer relu6
I0118 08:44:17.023883 31386 net.cpp:106] Creating Layer relu6
I0118 08:44:17.023890 31386 net.cpp:454] relu6 <- fc6
I0118 08:44:17.023900 31386 net.cpp:397] relu6 -> fc6 (in-place)
I0118 08:44:17.024920 31386 net.cpp:150] Setting up relu6
I0118 08:44:17.024936 31386 net.cpp:157] Top shape: 250 2048 (512000)
I0118 08:44:17.024940 31386 net.cpp:165] Memory required for data: 672227000
I0118 08:44:17.024945 31386 layer_factory.hpp:76] Creating layer fc6_BN
I0118 08:44:17.024960 31386 net.cpp:106] Creating Layer fc6_BN
I0118 08:44:17.024986 31386 net.cpp:454] fc6_BN <- fc6
I0118 08:44:17.025012 31386 net.cpp:411] fc6_BN -> fc6_BN
I0118 08:44:17.025305 31386 net.cpp:150] Setting up fc6_BN
I0118 08:44:17.025315 31386 net.cpp:157] Top shape: 250 2048 (512000)
I0118 08:44:17.025320 31386 net.cpp:165] Memory required for data: 674275000
I0118 08:44:17.025331 31386 layer_factory.hpp:76] Creating layer drop6
I0118 08:44:17.025357 31386 net.cpp:106] Creating Layer drop6
I0118 08:44:17.025377 31386 net.cpp:454] drop6 <- fc6_BN
I0118 08:44:17.025408 31386 net.cpp:411] drop6 -> drop6
I0118 08:44:17.025497 31386 net.cpp:150] Setting up drop6
I0118 08:44:17.025524 31386 net.cpp:157] Top shape: 250 2048 (512000)
I0118 08:44:17.025542 31386 net.cpp:165] Memory required for data: 676323000
I0118 08:44:17.025570 31386 layer_factory.hpp:76] Creating layer fc7
I0118 08:44:17.025596 31386 net.cpp:106] Creating Layer fc7
I0118 08:44:17.025614 31386 net.cpp:454] fc7 <- drop6
I0118 08:44:17.025635 31386 net.cpp:411] fc7 -> fc7
I0118 08:44:17.155624 31386 net.cpp:150] Setting up fc7
I0118 08:44:17.155699 31386 net.cpp:157] Top shape: 250 2048 (512000)
I0118 08:44:17.155715 31386 net.cpp:165] Memory required for data: 678371000
I0118 08:44:17.155738 31386 layer_factory.hpp:76] Creating layer relu7
I0118 08:44:17.155761 31386 net.cpp:106] Creating Layer relu7
I0118 08:44:17.155781 31386 net.cpp:454] relu7 <- fc7
I0118 08:44:17.155802 31386 net.cpp:397] relu7 -> fc7 (in-place)
I0118 08:44:17.156738 31386 net.cpp:150] Setting up relu7
I0118 08:44:17.156774 31386 net.cpp:157] Top shape: 250 2048 (512000)
I0118 08:44:17.156792 31386 net.cpp:165] Memory required for data: 680419000
I0118 08:44:17.156812 31386 layer_factory.hpp:76] Creating layer fc7_BN
I0118 08:44:17.156837 31386 net.cpp:106] Creating Layer fc7_BN
I0118 08:44:17.156857 31386 net.cpp:454] fc7_BN <- fc7
I0118 08:44:17.156877 31386 net.cpp:411] fc7_BN -> fc7_BN
I0118 08:44:17.157188 31386 net.cpp:150] Setting up fc7_BN
I0118 08:44:17.157215 31386 net.cpp:157] Top shape: 250 2048 (512000)
I0118 08:44:17.157232 31386 net.cpp:165] Memory required for data: 682467000
I0118 08:44:17.157264 31386 layer_factory.hpp:76] Creating layer drop7
I0118 08:44:17.157289 31386 net.cpp:106] Creating Layer drop7
I0118 08:44:17.157310 31386 net.cpp:454] drop7 <- fc7_BN
I0118 08:44:17.157331 31386 net.cpp:411] drop7 -> drop7
I0118 08:44:17.157407 31386 net.cpp:150] Setting up drop7
I0118 08:44:17.157434 31386 net.cpp:157] Top shape: 250 2048 (512000)
I0118 08:44:17.157454 31386 net.cpp:165] Memory required for data: 684515000
I0118 08:44:17.157474 31386 layer_factory.hpp:76] Creating layer fc8
I0118 08:44:17.157501 31386 net.cpp:106] Creating Layer fc8
I0118 08:44:17.157523 31386 net.cpp:454] fc8 <- drop7
I0118 08:44:17.157547 31386 net.cpp:411] fc8 -> fc8
I0118 08:44:17.217427 31386 net.cpp:150] Setting up fc8
I0118 08:44:17.217453 31386 net.cpp:157] Top shape: 250 1000 (250000)
I0118 08:44:17.217456 31386 net.cpp:165] Memory required for data: 685515000
I0118 08:44:17.217468 31386 layer_factory.hpp:76] Creating layer fc8_fc8_0_split
I0118 08:44:17.217480 31386 net.cpp:106] Creating Layer fc8_fc8_0_split
I0118 08:44:17.217488 31386 net.cpp:454] fc8_fc8_0_split <- fc8
I0118 08:44:17.217495 31386 net.cpp:411] fc8_fc8_0_split -> fc8_fc8_0_split_0
I0118 08:44:17.217506 31386 net.cpp:411] fc8_fc8_0_split -> fc8_fc8_0_split_1
I0118 08:44:17.217605 31386 net.cpp:150] Setting up fc8_fc8_0_split
I0118 08:44:17.217617 31386 net.cpp:157] Top shape: 250 1000 (250000)
I0118 08:44:17.217622 31386 net.cpp:157] Top shape: 250 1000 (250000)
I0118 08:44:17.217627 31386 net.cpp:165] Memory required for data: 687515000
I0118 08:44:17.217630 31386 layer_factory.hpp:76] Creating layer accuracy
I0118 08:44:17.217644 31386 net.cpp:106] Creating Layer accuracy
I0118 08:44:17.217650 31386 net.cpp:454] accuracy <- fc8_fc8_0_split_0
I0118 08:44:17.217656 31386 net.cpp:454] accuracy <- label_data_1_split_0
I0118 08:44:17.217664 31386 net.cpp:411] accuracy -> accuracy
…
