…
      source: "/local/temporary/imagenet144pxlmdb/ilsvrc12_128_train_lmdb"
      batch_size: 256
      backend: LMDB
    }
  }
  layer {
    name: "data"
    type: "Data"
    top: "data"
    top: "label"
    include {
      phase: TEST
    }
    transform_param {
      scale: 0.04
      mirror: false
      crop_size: 128
      mean_value: 104
      mean_value: 117
      mean_value: 123
      force_color: true
    }
    data_param {
      source: "/local/temporary/imagenet144pxlmdb/ilsvrc12_128_val_lmdb"
      batch_size: 50
      backend: LMDB
    }
  }
  layer {
    name: "conv1"
    type: "Convolution"
    bottom: "data"
    top: "conv1"
    param {
      lr_mult: 1
      decay_mult: 1
    }
    param {
      lr_mult: 2
      decay_mult: 0
    }
    convolution_param {
      num_output: 96
      kernel_size: 11
      stride: 4
      weight_filler {
        type: "gaussian"
        std: 0.01
      }
      bias_filler {
        type: "constant"
      }
    }
  }
  layer {
    name: "relu1"
    type: "ReLU"
    bottom: "conv1"
    top: "relu1"
  }
  layer {
    name: "pool1"
    type: "Pooling"
    bottom: "relu1"
    top: "pool1"
    pooling_param {
      pool: MAX
      kernel_size: 3
      stride: 2
    }
  }
  layer {
    name: "conv2"
    type: "Convolution"
    bottom: "pool1"
    top: "conv2"
    param {
      lr_mult: 1
      decay_mult: 1
    }
    param {
      lr_mult: 2
      decay_mult: 0
    }
    convolution_param {
      num_output: 256
      pad: 2
      kernel_size: 5
      group: 2
      weight_filler {
        type: "gaussian"
        std: 0.01
      }
      bias_filler {
        type: "constant"
      }
    }
  }
  layer {
    name: "relu2"
    type: "ReLU"
    bottom: "conv2"
    top: "relu2"
  }
  layer {
    name: "pool2"
    type: "Pooling"
    bottom: "relu2"
    top: "pool2"
    pooling_param {
      pool: MAX
      kernel_size: 3
      stride: 2
    }
  }
  layer {
    name: "conv3"
    type: "Convolution"
    bottom: "pool2"
    top: "conv3"
    param {
      lr_mult: 1
      decay_mult: 1
    }
    param {
      lr_mult: 2
      decay_mult: 0
    }
    convolution_param {
      num_output: 384
      pad: 1
      kernel_size: 3
      weight_filler {
        type: "gaussian"
        std: 0.01
      }
      bias_filler {
        type: "constant"
      }
    }
  }
  layer {
    name: "relu3"
    type: "ReLU"
    bottom: "conv3"
    top: "relu3"
  }
  layer {
    name: "conv4"
    type: "Convolution"
    bottom: "relu3"
    top: "conv4"
    param {
      lr_mult: 1
      decay_mult: 1
    }
    param {
      lr_mult: 2
      decay_mult: 0
    }
    convolution_param {
      num_output: 384
      pad: 1
      kernel_size: 3
      group: 2
      weight_filler {
        type: "gaussian"
        std: 0.01
      }
      bias_filler {
        type: "constant"
      }
    }
  }
  layer {
    name: "relu4"
    type: "ReLU"
    bottom: "conv4"
    top: "relu4"
  }
  layer {
    name: "conv5"
    type: "Convolution"
    bottom: "relu4"
    top: "conv5"
    param {
      lr_mult: 1
      decay_mult: 1
    }
    param {
      lr_mult: 2
      decay_mult: 0
    }
    convolution_param {
      num_output: 256
      pad: 1
      kernel_size: 3
      group: 2
      weight_filler {
        type: "gaussian"
        std: 0.01
      }
      bias_filler {
        type: "constant"
      }
    }
  }
  layer {
    name: "relu5"
    type: "ReLU"
    bottom: "conv5"
    top: "relu5"
  }
  layer {
    name: "pool5"
    type: "Pooling"
    bottom: "relu5"
    top: "pool5"
    pooling_param {
      pool: MAX
      kernel_size: 3
      stride: 2
    }
  }
  layer {
    name: "fc6"
    type: "Convolution"
    bottom: "pool5"
    top: "fc6"
    param {
      lr_mult: 1
      decay_mult: 1
    }
    param {
      lr_mult: 2
      decay_mult: 0
    }
    convolution_param {
      num_output: 2048
      pad: 1
      kernel_size: 3
      weight_filler {
        type: "gaussian"
        std: 0.01
      }
      bias_filler {
        type: "constant"
      }
    }
  }
  layer {
    name: "relu6"
    type: "ReLU"
    bottom: "fc6"
    top: "relu6"
  }
  layer {
    name: "drop6"
    type: "Dropout"
    bottom: "relu6"
    top: "drop6"
    dropout_param {
      dropout_ratio: 0.5
    }
  }
  layer {
    name: "fc7"
    type: "Convolution"
    bottom: "drop6"
    top: "fc7"
    param {
      lr_mult: 1
      decay_mult: 1
    }
    param {
      lr_mult: 2
      decay_mult: 0
    }
    convolution_param {
      num_output: 2048
      kernel_size: 1
      weight_filler {
        type: "gaussian"
        std: 0.01
      }
      bias_filler {
        type: "constant"
      }
    }
  }
  layer {
    name: "relu7"
    type: "ReLU"
    bottom: "fc7"
    top: "relu7"
  }
  layer {
    name: "drop7"
    type: "Dropout"
    bottom: "relu7"
    top: "drop7"
    dropout_param {
      dropout_ratio: 0.5
    }
  }
  layer {
    name: "fc8"
    type: "Convolution"
    bottom: "drop7"
    top: "fc8"
    param {
      lr_mult: 1
      decay_mult: 1
    }
    param {
      lr_mult: 2
      decay_mult: 0
    }
    convolution_param {
      num_output: 1000
      kernel_size: 1
      weight_filler {
        type: "gaussian"
        std: 0.01
      }
      bias_filler {
        type: "constant"
      }
    }
  }
  layer {
    name: "fc8ave"
    type: "Pooling"
    bottom: "fc8"
    top: "fc8ave"
    pooling_param {
      pool: MAX
      global_pooling: true
    }
  }
  layer {
    name: "accuracy"
    type: "Accuracy"
    bottom: "fc8ave"
    bottom: "label"
    top: "accuracy"
    include {
      phase: TEST
    }
  }
  layer {
    name: "loss"
    type: "SoftmaxWithLoss"
    bottom: "fc8ave"
    bottom: "label"
    top: "loss"
  }
}
average_loss: 20
iter_size: 1
type: "SGD"
I0602 17:58:49.079697  6915 solver.cpp:86] Creating training net specified in net_param.
I0602 17:58:49.079859  6915 net.cpp:322] The NetState phase (0) differed from the phase (1) specified by a rule in layer data
I0602 17:58:49.079903  6915 net.cpp:322] The NetState phase (0) differed from the phase (1) specified by a rule in layer accuracy
I0602 17:58:49.080369  6915 net.cpp:49] Initializing net from parameters: 
name: "CaffeNet"
state {
  phase: TRAIN
}
layer {
  name: "data"
  type: "Data"
  top: "data"
  top: "label"
  include {
    phase: TRAIN
  }
  transform_param {
    scale: 0.04
    mirror: true
    crop_size: 128
    mean_value: 104
    mean_value: 117
    mean_value: 124
    force_color: true
  }
  data_param {
    source: "/local/temporary/imagenet144pxlmdb/ilsvrc12_128_train_lmdb"
    batch_size: 256
    backend: LMDB
  }
}
layer {
  name: "conv1"
  type: "Convolution"
  bottom: "data"
  top: "conv1"
  param {
    lr_mult: 1
    decay_mult: 1
  }
  param {
    lr_mult: 2
    decay_mult: 0
  }
  convolution_param {
    num_output: 96
    kernel_size: 11
    stride: 4
    weight_filler {
      type: "gaussian"
      std: 0.01
    }
    bias_filler {
      type: "constant"
    }
  }
}
layer {
  name: "relu1"
  type: "ReLU"
  bottom: "conv1"
  top: "relu1"
}
layer {
  name: "pool1"
  type: "Pooling"
  bottom: "relu1"
  top: "pool1"
  pooling_param {
    pool: MAX
    kernel_size: 3
    stride: 2
  }
}
layer {
  name: "conv2"
  type: "Convolution"
  bottom: "pool1"
  top: "conv2"
  param {
    lr_mult: 1
    decay_mult: 1
  }
  param {
    lr_mult: 2
    decay_mult: 0
  }
  convolution_param {
    num_output: 256
    pad: 2
    kernel_size: 5
    group: 2
    weight_filler {
      type: "gaussian"
      std: 0.01
    }
    bias_filler {
      type: "constant"
    }
  }
}
layer {
  name: "relu2"
  type: "ReLU"
  bottom: "conv2"
  top: "relu2"
}
layer {
  name: "pool2"
  type: "Pooling"
  bottom: "relu2"
  top: "pool2"
  pooling_param {
    pool: MAX
    kernel_size: 3
    stride: 2
  }
}
layer {
  name: "conv3"
  type: "Convolution"
  bottom: "pool2"
  top: "conv3"
  param {
    lr_mult: 1
    decay_mult: 1
  }
  param {
    lr_mult: 2
    decay_mult: 0
  }
  convolution_param {
    num_output: 384
    pad: 1
    kernel_size: 3
    weight_filler {
      type: "gaussian"
      std: 0.01
    }
    bias_filler {
      type: "constant"
    }
  }
}
layer {
  name: "relu3"
  type: "ReLU"
  bottom: "conv3"
  top: "relu3"
}
layer {
  name: "conv4"
  type: "Convolution"
  bottom: "relu3"
  top: "conv4"
  param {
    lr_mult: 1
    decay_mult: 1
  }
  param {
    lr_mult: 2
    decay_mult: 0
  }
  convolution_param {
    num_output: 384
    pad: 1
    kernel_size: 3
    group: 2
    weight_filler {
      type: "gaussian"
      std: 0.01
    }
    bias_filler {
      type: "constant"
    }
  }
}
layer {
  name: "relu4"
  type: "ReLU"
  bottom: "conv4"
  top: "relu4"
}
layer {
  name: "conv5"
  type: "Convolution"
  bottom: "relu4"
  top: "conv5"
  param {
    lr_mult: 1
    decay_mult: 1
  }
  param {
    lr_mult: 2
    decay_mult: 0
  }
  convolution_param {
    num_output: 256
    pad: 1
    kernel_size: 3
    group: 2
    weight_filler {
      type: "gaussian"
      std: 0.01
    }
    bias_filler {
      type: "constant"
    }
  }
}
layer {
  name: "relu5"
  type: "ReLU"
  bottom: "conv5"
  top: "relu5"
}
layer {
  name: "pool5"
  type: "Pooling"
  bottom: "relu5"
  top: "pool5"
  pooling_param {
    pool: MAX
    kernel_size: 3
    stride: 2
  }
}
layer {
  name: "fc6"
  type: "Convolution"
  bottom: "pool5"
  top: "fc6"
  param {
    lr_mult: 1
    decay_mult: 1
  }
  param {
    lr_mult: 2
    decay_mult: 0
  }
  convolution_param {
    num_output: 2048
    pad: 1
    kernel_size: 3
    weight_filler {
      type: "gaussian"
      std: 0.01
    }
    bias_filler {
      type: "constant"
    }
  }
}
layer {
  name: "relu6"
  type: "ReLU"
  bottom: "fc6"
  top: "relu6"
}
layer {
  name: "drop6"
  type: "Dropout"
  bottom: "relu6"
  top: "drop6"
  dropout_param {
    dropout_ratio: 0.5
  }
}
layer {
  name: "fc7"
  type: "Convolution"
  bottom: "drop6"
  top: "fc7"
  param {
    lr_mult: 1
    decay_mult: 1
  }
  param {
    lr_mult: 2
    decay_mult: 0
  }
  convolution_param {
    num_output: 2048
    kernel_size: 1
    weight_filler {
      type: "gaussian"
      std: 0.01
    }
    bias_filler {
      type: "constant"
    }
  }
}
layer {
  name: "relu7"
  type: "ReLU"
  bottom: "fc7"
  top: "relu7"
}
layer {
  name: "drop7"
  type: "Dropout"
  bottom: "relu7"
  top: "drop7"
  dropout_param {
    dropout_ratio: 0.5
  }
}
layer {
  name: "fc8"
  type: "Convolution"
  bottom: "drop7"
  top: "fc8"
  param {
    lr_mult: 1
    decay_mult: 1
  }
  param {
    lr_mult: 2
    decay_mult: 0
  }
  convolution_param {
    num_output: 1000
    kernel_size: 1
    weight_filler {
      type: "gaussian"
      std: 0.01
    }
    bias_filler {
      type: "constant"
    }
  }
}
layer {
  name: "fc8ave"
  type: "Pooling"
  bottom: "fc8"
  top: "fc8ave"
  pooling_param {
    pool: MAX
    global_pooling: true
  }
}
layer {
  name: "loss"
  type: "SoftmaxWithLoss"
  bottom: "fc8ave"
  bottom: "label"
  top: "loss"
}
I0602 17:58:49.080579  6915 layer_factory.hpp:76] Creating layer data
I0602 17:58:49.081646  6915 net.cpp:106] Creating Layer data
I0602 17:58:49.081686  6915 net.cpp:411] data -> data
I0602 17:58:49.081737  6915 net.cpp:411] data -> label
I0602 17:58:49.082886  6958 db_lmdb.cpp:38] Opened lmdb /local/temporary/imagenet144pxlmdb/ilsvrc12_128_train_lmdb
I0602 17:58:49.102187  6915 data_layer.cpp:41] output data size: 256,3,128,128
I0602 17:58:49.215076  6915 net.cpp:150] Setting up data
I0602 17:58:49.215136  6915 net.cpp:157] Top shape: 256 3 128 128 (12582912)
I0602 17:58:49.215173  6915 net.cpp:157] Top shape: 256 (256)
I0602 17:58:49.215194  6915 net.cpp:165] Memory required for data: 50332672
I0602 17:58:49.215226  6915 layer_factory.hpp:76] Creating layer conv1
I0602 17:58:49.215270  6915 net.cpp:106] Creating Layer conv1
I0602 17:58:49.215294  6915 net.cpp:454] conv1 <- data
I0602 17:58:49.215339  6915 net.cpp:411] conv1 -> conv1
I0602 17:58:49.398113  6915 net.cpp:150] Setting up conv1
I0602 17:58:49.398191  6915 net.cpp:157] Top shape: 256 96 30 30 (22118400)
I0602 17:58:49.398213  6915 net.cpp:165] Memory required for data: 138806272
I0602 17:58:49.398255  6915 layer_factory.hpp:76] Creating layer relu1
I0602 17:58:49.398288  6915 net.cpp:106] Creating Layer relu1
I0602 17:58:49.398311  6915 net.cpp:454] relu1 <- conv1
I0602 17:58:49.398337  6915 net.cpp:411] relu1 -> relu1
I0602 17:58:49.398659  6915 net.cpp:150] Setting up relu1
I0602 17:58:49.398692  6915 net.cpp:157] Top shape: 256 96 30 30 (22118400)
I0602 17:58:49.398721  6915 net.cpp:165] Memory required for data: 227279872
I0602 17:58:49.398742  6915 layer_factory.hpp:76] Creating layer pool1
I0602 17:58:49.398771  6915 net.cpp:106] Creating Layer pool1
I0602 17:58:49.398790  6915 net.cpp:454] pool1 <- relu1
I0602 17:58:49.398814  6915 net.cpp:411] pool1 -> pool1
I0602 17:58:49.399644  6915 net.cpp:150] Setting up pool1
I0602 17:58:49.399682  6915 net.cpp:157] Top shape: 256 96 15 15 (5529600)
I0602 17:58:49.399704  6915 net.cpp:165] Memory required for data: 249398272
I0602 17:58:49.399725  6915 layer_factory.hpp:76] Creating layer conv2
I0602 17:58:49.399756  6915 net.cpp:106] Creating Layer conv2
I0602 17:58:49.399778  6915 net.cpp:454] conv2 <- pool1
I0602 17:58:49.399802  6915 net.cpp:411] conv2 -> conv2
I0602 17:58:49.425689  6915 net.cpp:150] Setting up conv2
I0602 17:58:49.425760  6915 net.cpp:157] Top shape: 256 256 15 15 (14745600)
I0602 17:58:49.425781  6915 net.cpp:165] Memory required for data: 308380672
I0602 17:58:49.425833  6915 layer_factory.hpp:76] Creating layer relu2
I0602 17:58:49.425855  6915 net.cpp:106] Creating Layer relu2
I0602 17:58:49.428436  6915 net.cpp:454] relu2 <- conv2
I0602 17:58:49.428481  6915 net.cpp:411] relu2 -> relu2
I0602 17:58:49.428841  6915 net.cpp:150] Setting up relu2
I0602 17:58:49.428861  6915 net.cpp:157] Top shape: 256 256 15 15 (14745600)
I0602 17:58:49.428889  6915 net.cpp:165] Memory required for data: 367363072
I0602 17:58:49.428910  6915 layer_factory.hpp:76] Creating layer pool2
I0602 17:58:49.428932  6915 net.cpp:106] Creating Layer pool2
I0602 17:58:49.428952  6915 net.cpp:454] pool2 <- relu2
I0602 17:58:49.428992  6915 net.cpp:411] pool2 -> pool2
I0602 17:58:49.429502  6915 net.cpp:150] Setting up pool2
I0602 17:58:49.429536  6915 net.cpp:157] Top shape: 256 256 7 7 (3211264)
I0602 17:58:49.429559  6915 net.cpp:165] Memory required for data: 380208128
I0602 17:58:49.429574  6915 layer_factory.hpp:76] Creating layer conv3
I0602 17:58:49.429605  6915 net.cpp:106] Creating Layer conv3
I0602 17:58:49.429621  6915 net.cpp:454] conv3 <- pool2
I0602 17:58:49.429644  6915 net.cpp:411] conv3 -> conv3
I0602 17:58:49.473956  6915 net.cpp:150] Setting up conv3
I0602 17:58:49.473992  6915 net.cpp:157] Top shape: 256 384 7 7 (4816896)
I0602 17:58:49.473999  6915 net.cpp:165] Memory required for data: 399475712
I0602 17:58:49.474020  6915 layer_factory.hpp:76] Creating layer relu3
I0602 17:58:49.474050  6915 net.cpp:106] Creating Layer relu3
I0602 17:58:49.474063  6915 net.cpp:454] relu3 <- conv3
I0602 17:58:49.474079  6915 net.cpp:411] relu3 -> relu3
I0602 17:58:49.474565  6915 net.cpp:150] Setting up relu3
I0602 17:58:49.474581  6915 net.cpp:157] Top shape: 256 384 7 7 (4816896)
I0602 17:58:49.474587  6915 net.cpp:165] Memory required for data: 418743296
I0602 17:58:49.474593  6915 layer_factory.hpp:76] Creating layer conv4
I0602 17:58:49.474648  6915 net.cpp:106] Creating Layer conv4
I0602 17:58:49.474655  6915 net.cpp:454] conv4 <- relu3
I0602 17:58:49.474668  6915 net.cpp:411] conv4 -> conv4
I0602 17:58:49.509860  6915 net.cpp:150] Setting up conv4
I0602 17:58:49.509893  6915 net.cpp:157] Top shape: 256 384 7 7 (4816896)
I0602 17:58:49.509899  6915 net.cpp:165] Memory required for data: 438010880
I0602 17:58:49.509918  6915 layer_factory.hpp:76] Creating layer relu4
I0602 17:58:49.509953  6915 net.cpp:106] Creating Layer relu4
I0602 17:58:49.509965  6915 net.cpp:454] relu4 <- conv4
I0602 17:58:49.509977  6915 net.cpp:411] relu4 -> relu4
I0602 17:58:49.514622  6915 net.cpp:150] Setting up relu4
I0602 17:58:49.514643  6915 net.cpp:157] Top shape: 256 384 7 7 (4816896)
I0602 17:58:49.514668  6915 net.cpp:165] Memory required for data: 457278464
I0602 17:58:49.514686  6915 layer_factory.hpp:76] Creating layer conv5
I0602 17:58:49.514716  6915 net.cpp:106] Creating Layer conv5
I0602 17:58:49.514734  6915 net.cpp:454] conv5 <- relu4
I0602 17:58:49.514758  6915 net.cpp:411] conv5 -> conv5
I0602 17:58:49.539068  6915 net.cpp:150] Setting up conv5
I0602 17:58:49.539134  6915 net.cpp:157] Top shape: 256 256 7 7 (3211264)
I0602 17:58:49.539155  6915 net.cpp:165] Memory required for data: 470123520
I0602 17:58:49.539187  6915 layer_factory.hpp:76] Creating layer relu5
I0602 17:58:49.539212  6915 net.cpp:106] Creating Layer relu5
I0602 17:58:49.539229  6915 net.cpp:454] relu5 <- conv5
I0602 17:58:49.539255  6915 net.cpp:411] relu5 -> relu5
I0602 17:58:49.539580  6915 net.cpp:150] Setting up relu5
I0602 17:58:49.539609  6915 net.cpp:157] Top shape: 256 256 7 7 (3211264)
I0602 17:58:49.539633  6915 net.cpp:165] Memory required for data: 482968576
I0602 17:58:49.539654  6915 layer_factory.hpp:76] Creating layer pool5
I0602 17:58:49.539679  6915 net.cpp:106] Creating Layer pool5
I0602 17:58:49.539695  6915 net.cpp:454] pool5 <- relu5
I0602 17:58:49.539716  6915 net.cpp:411] pool5 -> pool5
I0602 17:58:49.540206  6915 net.cpp:150] Setting up pool5
I0602 17:58:49.540240  6915 net.cpp:157] Top shape: 256 256 3 3 (589824)
I0602 17:58:49.540257  6915 net.cpp:165] Memory required for data: 485327872
I0602 17:58:49.540273  6915 layer_factory.hpp:76] Creating layer fc6
I0602 17:58:49.540300  6915 net.cpp:106] Creating Layer fc6
I0602 17:58:49.540318  6915 net.cpp:454] fc6 <- pool5
I0602 17:58:49.540338  6915 net.cpp:411] fc6 -> fc6
I0602 17:58:49.770913  6915 net.cpp:150] Setting up fc6
I0602 17:58:49.770951  6915 net.cpp:157] Top shape: 256 2048 3 3 (4718592)
I0602 17:58:49.770959  6915 net.cpp:165] Memory required for data: 504202240
I0602 17:58:49.770977  6915 layer_factory.hpp:76] Creating layer relu6
I0602 17:58:49.771020  6915 net.cpp:106] Creating Layer relu6
I0602 17:58:49.771042  6915 net.cpp:454] relu6 <- fc6
I0602 17:58:49.771071  6915 net.cpp:411] relu6 -> relu6
I0602 17:58:49.771427  6915 net.cpp:150] Setting up relu6
I0602 17:58:49.771461  6915 net.cpp:157] Top shape: 256 2048 3 3 (4718592)
I0602 17:58:49.771486  6915 net.cpp:165] Memory required for data: 523076608
I0602 17:58:49.771507  6915 layer_factory.hpp:76] Creating layer drop6
I0602 17:58:49.771536  6915 net.cpp:106] Creating Layer drop6
I0602 17:58:49.771558  6915 net.cpp:454] drop6 <- relu6
I0602 17:58:49.771585  6915 net.cpp:411] drop6 -> drop6
I0602 17:58:49.771677  6915 net.cpp:150] Setting up drop6
I0602 17:58:49.771705  6915 net.cpp:157] Top shape: 256 2048 3 3 (4718592)
I0602 17:58:49.771723  6915 net.cpp:165] Memory required for data: 541950976
I0602 17:58:49.771742  6915 layer_factory.hpp:76] Creating layer fc7
I0602 17:58:49.771770  6915 net.cpp:106] Creating Layer fc7
I0602 17:58:49.771791  6915 net.cpp:454] fc7 <- drop6
I0602 17:58:49.771819  6915 net.cpp:411] fc7 -> fc7
I0602 17:58:49.981289  6915 net.cpp:150] Setting up fc7
I0602 17:58:49.981329  6915 net.cpp:157] Top shape: 256 2048 3 3 (4718592)
I0602 17:58:49.981335  6915 net.cpp:165] Memory required for data: 560825344
I0602 17:58:49.981351  6915 layer_factory.hpp:76] Creating layer relu7
I0602 17:58:49.981412  6915 net.cpp:106] Creating Layer relu7
I0602 17:58:49.981425  6915 net.cpp:454] relu7 <- fc7
I0602 17:58:49.981441  6915 net.cpp:411] relu7 -> relu7
I0602 17:58:49.981753  6915 net.cpp:150] Setting up relu7
I0602 17:58:49.981771  6915 net.cpp:157] Top shape: 256 2048 3 3 (4718592)
I0602 17:58:49.981780  6915 net.cpp:165] Memory required for data: 579699712
I0602 17:58:49.981791  6915 layer_factory.hpp:76] Creating layer drop7
I0602 17:58:49.981804  6915 net.cpp:106] Creating Layer drop7
I0602 17:58:49.981809  6915 net.cpp:454] drop7 <- relu7
I0602 17:58:49.981817  6915 net.cpp:411] drop7 -> drop7
I0602 17:58:49.981880  6915 net.cpp:150] Setting up drop7
I0602 17:58:49.981890  6915 net.cpp:157] Top shape: 256 2048 3 3 (4718592)
I0602 17:58:49.981895  6915 net.cpp:165] Memory required for data: 598574080
I0602 17:58:49.981899  6915 layer_factory.hpp:76] Creating layer fc8
I0602 17:58:49.981914  6915 net.cpp:106] Creating Layer fc8
I0602 17:58:49.981922  6915 net.cpp:454] fc8 <- drop7
I0602 17:58:49.981940  6915 net.cpp:411] fc8 -> fc8
I0602 17:58:50.060250  6915 net.cpp:150] Setting up fc8
I0602 17:58:50.060291  6915 net.cpp:157] Top shape: 256 1000 3 3 (2304000)
I0602 17:58:50.060297  6915 net.cpp:165] Memory required for data: 607790080
I0602 17:58:50.060312  6915 layer_factory.hpp:76] Creating layer fc8ave
I0602 17:58:50.060348  6915 net.cpp:106] Creating Layer fc8ave
I0602 17:58:50.060359  6915 net.cpp:454] fc8ave <- fc8
I0602 17:58:50.060379  6915 net.cpp:411] fc8ave -> fc8ave
I0602 17:58:50.060765  6915 net.cpp:150] Setting up fc8ave
I0602 17:58:50.060781  6915 net.cpp:157] Top shape: 256 1000 1 1 (256000)
I0602 17:58:50.060786  6915 net.cpp:165] Memory required for data: 608814080
I0602 17:58:50.060793  6915 layer_factory.hpp:76] Creating layer loss
I0602 17:58:50.060818  6915 net.cpp:106] Creating Layer loss
I0602 17:58:50.060825  6915 net.cpp:454] loss <- fc8ave
I0602 17:58:50.060832  6915 net.cpp:454] loss <- label
I0602 17:58:50.060856  6915 net.cpp:411] loss -> loss
I0602 17:58:50.060875  6915 layer_factory.hpp:76] Creating layer loss
…
I0602 17:58:50.062572  6915 net.cpp:322] The NetState phase (1) differed from the phase (0) specified by a rule in layer data
I0602 17:58:50.062942  6915 net.cpp:49] Initializing net from parameters: 
name: "CaffeNet"
state {
  phase: TEST
}
layer {
  name: "data"
  type: "Data"
  top: "data"
  top: "label"
  include {
    phase: TEST
  }
  transform_param {
    scale: 0.04
    mirror: false
    crop_size: 128
    mean_value: 104
    mean_value: 117
    mean_value: 123
    force_color: true
  }
  data_param {
    source: "/local/temporary/imagenet144pxlmdb/ilsvrc12_128_val_lmdb"
    batch_size: 50
    backend: LMDB
  }
}
layer {
  name: "conv1"
  type: "Convolution"
  bottom: "data"
  top: "conv1"
  param {
    lr_mult: 1
    decay_mult: 1
  }
  param {
    lr_mult: 2
    decay_mult: 0
  }
  convolution_param {
    num_output: 96
    kernel_size: 11
    stride: 4
    weight_filler {
      type: "gaussian"
      std: 0.01
    }
    bias_filler {
      type: "constant"
    }
  }
}
layer {
  name: "relu1"
  type: "ReLU"
  bottom: "conv1"
  top: "relu1"
}
layer {
  name: "pool1"
  type: "Pooling"
  bottom: "relu1"
  top: "pool1"
  pooling_param {
    pool: MAX
    kernel_size: 3
    stride: 2
  }
}
layer {
  name: "conv2"
  type: "Convolution"
  bottom: "pool1"
  top: "conv2"
  param {
    lr_mult: 1
    decay_mult: 1
  }
  param {
    lr_mult: 2
    decay_mult: 0
  }
  convolution_param {
    num_output: 256
    pad: 2
    kernel_size: 5
    group: 2
    weight_filler {
      type: "gaussian"
      std: 0.01
    }
    bias_filler {
      type: "constant"
    }
  }
}
layer {
  name: "relu2"
  type: "ReLU"
  bottom: "conv2"
  top: "relu2"
}
layer {
  name: "pool2"
  type: "Pooling"
  bottom: "relu2"
  top: "pool2"
  pooling_param {
    pool: MAX
    kernel_size: 3
    stride: 2
  }
}
layer {
  name: "conv3"
  type: "Convolution"
  bottom: "pool2"
  top: "conv3"
  param {
    lr_mult: 1
    decay_mult: 1
  }
  param {
    lr_mult: 2
    decay_mult: 0
  }
  convolution_param {
    num_output: 384
    pad: 1
    kernel_size: 3
    weight_filler {
      type: "gaussian"
      std: 0.01
    }
    bias_filler {
      type: "constant"
    }
  }
}
layer {
  name: "relu3"
  type: "ReLU"
  bottom: "conv3"
  top: "relu3"
}
layer {
  name: "conv4"
  type: "Convolution"
  bottom: "relu3"
  top: "conv4"
  param {
    lr_mult: 1
    decay_mult: 1
  }
  param {
    lr_mult: 2
    decay_mult: 0
  }
  convolution_param {
    num_output: 384
    pad: 1
    kernel_size: 3
    group: 2
    weight_filler {
      type: "gaussian"
      std: 0.01
    }
    bias_filler {
      type: "constant"
    }
  }
}
layer {
  name: "relu4"
  type: "ReLU"
  bottom: "conv4"
  top: "relu4"
}
layer {
  name: "conv5"
  type: "Convolution"
  bottom: "relu4"
  top: "conv5"
  param {
    lr_mult: 1
    decay_mult: 1
  }
  param {
    lr_mult: 2
    decay_mult: 0
  }
  convolution_param {
    num_output: 256
    pad: 1
    kernel_size: 3
    group: 2
    weight_filler {
      type: "gaussian"
      std: 0.01
    }
    bias_filler {
      type: "constant"
    }
  }
}
layer {
  name: "relu5"
  type: "ReLU"
  bottom: "conv5"
  top: "relu5"
}
layer {
  name: "pool5"
  type: "Pooling"
  bottom: "relu5"
  top: "pool5"
  pooling_param {
    pool: MAX
    kernel_size: 3
    stride: 2
  }
}
layer {
  name: "fc6"
  type: "Convolution"
  bottom: "pool5"
  top: "fc6"
  param {
    lr_mult: 1
    decay_mult: 1
  }
  param {
    lr_mult: 2
    decay_mult: 0
  }
  convolution_param {
    num_output: 2048
    pad: 1
    kernel_size: 3
    weight_filler {
      type: "gaussian"
      std: 0.01
    }
    bias_filler {
      type: "constant"
    }
  }
}
layer {
  name: "relu6"
  type: "ReLU"
  bottom: "fc6"
  top: "relu6"
}
layer {
  name: "drop6"
  type: "Dropout"
  bottom: "relu6"
  top: "drop6"
  dropout_param {
    dropout_ratio: 0.5
  }
}
layer {
  name: "fc7"
  type: "Convolution"
  bottom: "drop6"
  top: "fc7"
  param {
    lr_mult: 1
    decay_mult: 1
  }
  param {
    lr_mult: 2
    decay_mult: 0
  }
  convolution_param {
    num_output: 2048
    kernel_size: 1
    weight_filler {
      type: "gaussian"
      std: 0.01
    }
    bias_filler {
      type: "constant"
    }
  }
}
layer {
  name: "relu7"
  type: "ReLU"
  bottom: "fc7"
  top: "relu7"
}
layer {
  name: "drop7"
  type: "Dropout"
  bottom: "relu7"
  top: "drop7"
  dropout_param {
    dropout_ratio: 0.5
  }
}
layer {
  name: "fc8"
  type: "Convolution"
  bottom: "drop7"
  top: "fc8"
  param {
    lr_mult: 1
    decay_mult: 1
  }
  param {
    lr_mult: 2
    decay_mult: 0
  }
  convolution_param {
    num_output: 1000
    kernel_size: 1
    weight_filler {
      type: "gaussian"
      std: 0.01
    }
    bias_filler {
      type: "constant"
    }
  }
}
layer {
  name: "fc8ave"
  type: "Pooling"
  bottom: "fc8"
  top: "fc8ave"
  pooling_param {
    pool: MAX
    global_pooling: true
  }
}
layer {
  name: "accuracy"
  type: "Accuracy"
  bottom: "fc8ave"
  bottom: "label"
  top: "accuracy"
  include {
    phase: TEST
  }
}
layer {
  name: "loss"
  type: "SoftmaxWithLoss"
  bottom: "fc8ave"
  bottom: "label"
  top: "loss"
}
I0602 17:58:50.063164  6915 layer_factory.hpp:76] Creating layer data
I0602 17:58:50.063308  6915 net.cpp:106] Creating Layer data
I0602 17:58:50.063324  6915 net.cpp:411] data -> data
I0602 17:58:50.063339  6915 net.cpp:411] data -> label
I0602 17:58:50.064967  6963 db_lmdb.cpp:38] Opened lmdb /local/temporary/imagenet144pxlmdb/ilsvrc12_128_val_lmdb
I0602 17:58:50.065937  6915 data_layer.cpp:41] output data size: 50,3,128,128
I0602 17:58:50.087455  6915 net.cpp:150] Setting up data
I0602 17:58:50.087549  6915 net.cpp:157] Top shape: 50 3 128 128 (2457600)
I0602 17:58:50.087571  6915 net.cpp:157] Top shape: 50 (50)
I0602 17:58:50.087587  6915 net.cpp:165] Memory required for data: 9830600
I0602 17:58:50.087610  6915 layer_factory.hpp:76] Creating layer label_data_1_split
I0602 17:58:50.087642  6915 net.cpp:106] Creating Layer label_data_1_split
I0602 17:58:50.087664  6915 net.cpp:454] label_data_1_split <- label
I0602 17:58:50.087688  6915 net.cpp:411] label_data_1_split -> label_data_1_split_0
I0602 17:58:50.087723  6915 net.cpp:411] label_data_1_split -> label_data_1_split_1
I0602 17:58:50.087880  6915 net.cpp:150] Setting up label_data_1_split
I0602 17:58:50.087913  6915 net.cpp:157] Top shape: 50 (50)
I0602 17:58:50.087934  6915 net.cpp:157] Top shape: 50 (50)
I0602 17:58:50.087951  6915 net.cpp:165] Memory required for data: 9831000
I0602 17:58:50.087970  6915 layer_factory.hpp:76] Creating layer conv1
I0602 17:58:50.088004  6915 net.cpp:106] Creating Layer conv1
I0602 17:58:50.088024  6915 net.cpp:454] conv1 <- data
I0602 17:58:50.088048  6915 net.cpp:411] conv1 -> conv1
I0602 17:58:50.092828  6915 net.cpp:150] Setting up conv1
I0602 17:58:50.092854  6915 net.cpp:157] Top shape: 50 96 30 30 (4320000)
I0602 17:58:50.092861  6915 net.cpp:165] Memory required for data: 27111000
I0602 17:58:50.092880  6915 layer_factory.hpp:76] Creating layer relu1
I0602 17:58:50.092921  6915 net.cpp:106] Creating Layer relu1
I0602 17:58:50.092941  6915 net.cpp:454] relu1 <- conv1
I0602 17:58:50.092965  6915 net.cpp:411] relu1 -> relu1
I0602 17:58:50.093461  6915 net.cpp:150] Setting up relu1
I0602 17:58:50.093497  6915 net.cpp:157] Top shape: 50 96 30 30 (4320000)
I0602 17:58:50.093513  6915 net.cpp:165] Memory required for data: 44391000
I0602 17:58:50.093529  6915 layer_factory.hpp:76] Creating layer pool1
I0602 17:58:50.093554  6915 net.cpp:106] Creating Layer pool1
I0602 17:58:50.093569  6915 net.cpp:454] pool1 <- relu1
I0602 17:58:50.093590  6915 net.cpp:411] pool1 -> pool1
I0602 17:58:50.093922  6915 net.cpp:150] Setting up pool1
I0602 17:58:50.093958  6915 net.cpp:157] Top shape: 50 96 15 15 (1080000)
I0602 17:58:50.093979  6915 net.cpp:165] Memory required for data: 48711000
I0602 17:58:50.094012  6915 layer_factory.hpp:76] Creating layer conv2
I0602 17:58:50.094043  6915 net.cpp:106] Creating Layer conv2
I0602 17:58:50.094097  6915 net.cpp:454] conv2 <- pool1
I0602 17:58:50.094132  6915 net.cpp:411] conv2 -> conv2
I0602 17:58:50.112258  6915 net.cpp:150] Setting up conv2
I0602 17:58:50.112341  6915 net.cpp:157] Top shape: 50 256 15 15 (2880000)
I0602 17:58:50.112362  6915 net.cpp:165] Memory required for data: 60231000
I0602 17:58:50.112403  6915 layer_factory.hpp:76] Creating layer relu2
I0602 17:58:50.112438  6915 net.cpp:106] Creating Layer relu2
I0602 17:58:50.112458  6915 net.cpp:454] relu2 <- conv2
I0602 17:58:50.112481  6915 net.cpp:411] relu2 -> relu2
I0602 17:58:50.112836  6915 net.cpp:150] Setting up relu2
I0602 17:58:50.112866  6915 net.cpp:157] Top shape: 50 256 15 15 (2880000)
I0602 17:58:50.112884  6915 net.cpp:165] Memory required for data: 71751000
I0602 17:58:50.112901  6915 layer_factory.hpp:76] Creating layer pool2
I0602 17:58:50.112927  6915 net.cpp:106] Creating Layer pool2
I0602 17:58:50.112944  6915 net.cpp:454] pool2 <- relu2
I0602 17:58:50.112963  6915 net.cpp:411] pool2 -> pool2
I0602 17:58:50.113494  6915 net.cpp:150] Setting up pool2
I0602 17:58:50.113530  6915 net.cpp:157] Top shape: 50 256 7 7 (627200)
I0602 17:58:50.113546  6915 net.cpp:165] Memory required for data: 74259800
I0602 17:58:50.113562  6915 layer_factory.hpp:76] Creating layer conv3
I0602 17:58:50.113595  6915 net.cpp:106] Creating Layer conv3
I0602 17:58:50.113612  6915 net.cpp:454] conv3 <- pool2
I0602 17:58:50.113632  6915 net.cpp:411] conv3 -> conv3
I0602 17:58:50.159775  6915 net.cpp:150] Setting up conv3
I0602 17:58:50.159817  6915 net.cpp:157] Top shape: 50 384 7 7 (940800)
I0602 17:58:50.159824  6915 net.cpp:165] Memory required for data: 78023000
I0602 17:58:50.159847  6915 layer_factory.hpp:76] Creating layer relu3
I0602 17:58:50.159885  6915 net.cpp:106] Creating Layer relu3
I0602 17:58:50.159900  6915 net.cpp:454] relu3 <- conv3
I0602 17:58:50.159912  6915 net.cpp:411] relu3 -> relu3
I0602 17:58:50.160274  6915 net.cpp:150] Setting up relu3
I0602 17:58:50.160290  6915 net.cpp:157] Top shape: 50 384 7 7 (940800)
I0602 17:58:50.160306  6915 net.cpp:165] Memory required for data: 81786200
I0602 17:58:50.160327  6915 layer_factory.hpp:76] Creating layer conv4
I0602 17:58:50.160362  6915 net.cpp:106] Creating Layer conv4
I0602 17:58:50.160400  6915 net.cpp:454] conv4 <- relu3
I0602 17:58:50.160424  6915 net.cpp:411] conv4 -> conv4
I0602 17:58:50.198355  6915 net.cpp:150] Setting up conv4
I0602 17:58:50.198392  6915 net.cpp:157] Top shape: 50 384 7 7 (940800)
I0602 17:58:50.198397  6915 net.cpp:165] Memory required for data: 85549400
I0602 17:58:50.198415  6915 layer_factory.hpp:76] Creating layer relu4
I0602 17:58:50.198459  6915 net.cpp:106] Creating Layer relu4
I0602 17:58:50.198477  6915 net.cpp:454] relu4 <- conv4
I0602 17:58:50.198498  6915 net.cpp:411] relu4 -> relu4
I0602 17:58:50.198860  6915 net.cpp:150] Setting up relu4
I0602 17:58:50.198889  6915 net.cpp:157] Top shape: 50 384 7 7 (940800)
I0602 17:58:50.198904  6915 net.cpp:165] Memory required for data: 89312600
I0602 17:58:50.198917  6915 layer_factory.hpp:76] Creating layer conv5
I0602 17:58:50.198956  6915 net.cpp:106] Creating Layer conv5
I0602 17:58:50.198971  6915 net.cpp:454] conv5 <- relu4
I0602 17:58:50.198984  6915 net.cpp:411] conv5 -> conv5
I0602 17:58:50.223559  6915 net.cpp:150] Setting up conv5
I0602 17:58:50.223599  6915 net.cpp:157] Top shape: 50 256 7 7 (627200)
I0602 17:58:50.223605  6915 net.cpp:165] Memory required for data: 91821400
I0602 17:58:50.223628  6915 layer_factory.hpp:76] Creating layer relu5
I0602 17:58:50.223647  6915 net.cpp:106] Creating Layer relu5
I0602 17:58:50.223654  6915 net.cpp:454] relu5 <- conv5
I0602 17:58:50.223670  6915 net.cpp:411] relu5 -> relu5
I0602 17:58:50.224185  6915 net.cpp:150] Setting up relu5
I0602 17:58:50.224221  6915 net.cpp:157] Top shape: 50 256 7 7 (627200)
I0602 17:58:50.224237  6915 net.cpp:165] Memory required for data: 94330200
I0602 17:58:50.224262  6915 layer_factory.hpp:76] Creating layer pool5
I0602 17:58:50.224288  6915 net.cpp:106] Creating Layer pool5
I0602 17:58:50.224308  6915 net.cpp:454] pool5 <- relu5
I0602 17:58:50.224364  6915 net.cpp:411] pool5 -> pool5
I0602 17:58:50.224643  6915 net.cpp:150] Setting up pool5
I0602 17:58:50.224658  6915 net.cpp:157] Top shape: 50 256 3 3 (115200)
I0602 17:58:50.224663  6915 net.cpp:165] Memory required for data: 94791000
I0602 17:58:50.224683  6915 layer_factory.hpp:76] Creating layer fc6
I0602 17:58:50.224701  6915 net.cpp:106] Creating Layer fc6
I0602 17:58:50.224707  6915 net.cpp:454] fc6 <- pool5
I0602 17:58:50.224720  6915 net.cpp:411] fc6 -> fc6
I0602 17:58:50.370981  6915 net.cpp:150] Setting up fc6
I0602 17:58:50.371016  6915 net.cpp:157] Top shape: 50 2048 3 3 (921600)
I0602 17:58:50.371021  6915 net.cpp:165] Memory required for data: 98477400
I0602 17:58:50.371036  6915 layer_factory.hpp:76] Creating layer relu6
I0602 17:58:50.371055  6915 net.cpp:106] Creating Layer relu6
I0602 17:58:50.371064  6915 net.cpp:454] relu6 <- fc6
I0602 17:58:50.371079  6915 net.cpp:411] relu6 -> relu6
I0602 17:58:50.371301  6915 net.cpp:150] Setting up relu6
I0602 17:58:50.371314  6915 net.cpp:157] Top shape: 50 2048 3 3 (921600)
I0602 17:58:50.371320  6915 net.cpp:165] Memory required for data: 102163800
I0602 17:58:50.371341  6915 layer_factory.hpp:76] Creating layer drop6
I0602 17:58:50.371358  6915 net.cpp:106] Creating Layer drop6
I0602 17:58:50.371366  6915 net.cpp:454] drop6 <- relu6
I0602 17:58:50.371373  6915 net.cpp:411] drop6 -> drop6
I0602 17:58:50.371433  6915 net.cpp:150] Setting up drop6
I0602 17:58:50.371443  6915 net.cpp:157] Top shape: 50 2048 3 3 (921600)
I0602 17:58:50.371448  6915 net.cpp:165] Memory required for data: 105850200
I0602 17:58:50.371464  6915 layer_factory.hpp:76] Creating layer fc7
I0602 17:58:50.371481  6915 net.cpp:106] Creating Layer fc7
I0602 17:58:50.371486  6915 net.cpp:454] fc7 <- drop6
I0602 17:58:50.371498  6915 net.cpp:411] fc7 -> fc7
I0602 17:58:50.509245  6915 net.cpp:150] Setting up fc7
I0602 17:58:50.509285  6915 net.cpp:157] Top shape: 50 2048 3 3 (921600)
I0602 17:58:50.509291  6915 net.cpp:165] Memory required for data: 109536600
I0602 17:58:50.509310  6915 layer_factory.hpp:76] Creating layer relu7
I0602 17:58:50.509330  6915 net.cpp:106] Creating Layer relu7
I0602 17:58:50.509356  6915 net.cpp:454] relu7 <- fc7
I0602 17:58:50.509382  6915 net.cpp:411] relu7 -> relu7
I0602 17:58:50.509775  6915 net.cpp:150] Setting up relu7
I0602 17:58:50.509791  6915 net.cpp:157] Top shape: 50 2048 3 3 (921600)
I0602 17:58:50.509798  6915 net.cpp:165] Memory required for data: 113223000
I0602 17:58:50.509804  6915 layer_factory.hpp:76] Creating layer drop7
I0602 17:58:50.509834  6915 net.cpp:106] Creating Layer drop7
I0602 17:58:50.509853  6915 net.cpp:454] drop7 <- relu7
I0602 17:58:50.509877  6915 net.cpp:411] drop7 -> drop7
I0602 17:58:50.509953  6915 net.cpp:150] Setting up drop7
I0602 17:58:50.509965  6915 net.cpp:157] Top shape: 50 2048 3 3 (921600)
I0602 17:58:50.509970  6915 net.cpp:165] Memory required for data: 116909400
I0602 17:58:50.509976  6915 layer_factory.hpp:76] Creating layer fc8
I0602 17:58:50.510010  6915 net.cpp:106] Creating Layer fc8
I0602 17:58:50.510028  6915 net.cpp:454] fc8 <- drop7
I0602 17:58:50.510053  6915 net.cpp:411] fc8 -> fc8
I0602 17:58:50.575443  6915 net.cpp:150] Setting up fc8
I0602 17:58:50.575482  6915 net.cpp:157] Top shape: 50 1000 3 3 (450000)
I0602 17:58:50.575487  6915 net.cpp:165] Memory required for data: 118709400
I0602 17:58:50.575503  6915 layer_factory.hpp:76] Creating layer fc8ave
I0602 17:58:50.575523  6915 net.cpp:106] Creating Layer fc8ave
I0602 17:58:50.575551  6915 net.cpp:454] fc8ave <- fc8
I0602 17:58:50.575578  6915 net.cpp:411] fc8ave -> fc8ave
I0602 17:58:50.575850  6915 net.cpp:150] Setting up fc8ave
I0602 17:58:50.575863  6915 net.cpp:157] Top shape: 50 1000 1 1 (50000)
I0602 17:58:50.575868  6915 net.cpp:165] Memory required for data: 118909400
I0602 17:58:50.575875  6915 layer_factory.hpp:76] Creating layer fc8ave_fc8ave_0_split
I0602 17:58:50.575908  6915 net.cpp:106] Creating Layer fc8ave_fc8ave_0_split
I0602 17:58:50.575928  6915 net.cpp:454] fc8ave_fc8ave_0_split <- fc8ave
I0602 17:58:50.575991  6915 net.cpp:411] fc8ave_fc8ave_0_split -> fc8ave_fc8ave_0_split_0
I0602 17:58:50.576020  6915 net.cpp:411] fc8ave_fc8ave_0_split -> fc8ave_fc8ave_0_split_1
I0602 17:58:50.576097  6915 net.cpp:150] Setting up fc8ave_fc8ave_0_split
I0602 17:58:50.576107  6915 net.cpp:157] Top shape: 50 1000 1 1 (50000)
I0602 17:58:50.576115  6915 net.cpp:157] Top shape: 50 1000 1 1 (50000)
I0602 17:58:50.576131  6915 net.cpp:165] Memory required for data: 119309400
I0602 17:58:50.576148  6915 layer_factory.hpp:76] Creating layer accuracy
I0602 17:58:50.576169  6915 net.cpp:106] Creating Layer accuracy
I0602 17:58:50.576177  6915 net.cpp:454] accuracy <- fc8ave_fc8ave_0_split_0
I0602 17:58:50.576184  6915 net.cpp:454] accuracy <- label_data_1_split_0
I0602 17:58:50.576195  6915 net.cpp:411] accuracy -> accuracy
…
