…
      source: "/local/temporary/imagenet144pxlmdb/ilsvrc12_128_train_lmdb"
      batch_size: 256
      backend: LMDB
    }
  }
  layer {
    name: "data"
    type: "Data"
    top: "data"
    top: "label"
    include {
      phase: TEST
    }
    transform_param {
      scale: 0.04
      mirror: false
      crop_size: 128
      mean_value: 104
      mean_value: 117
      mean_value: 123
      force_color: true
    }
    data_param {
      source: "/local/temporary/imagenet144pxlmdb/ilsvrc12_128_val_lmdb"
      batch_size: 50
      backend: LMDB
    }
  }
  layer {
    name: "conv1"
    type: "Convolution"
    bottom: "data"
    top: "conv1"
    param {
      lr_mult: 1
      decay_mult: 1
    }
    param {
      lr_mult: 2
      decay_mult: 0
    }
    convolution_param {
      num_output: 96
      kernel_size: 11
      stride: 4
      weight_filler {
        type: "gaussian"
        std: 0.01
      }
      bias_filler {
        type: "constant"
      }
    }
  }
  layer {
    name: "relu1"
    type: "ReLU"
    bottom: "conv1"
    top: "relu1"
  }
  layer {
    name: "pool1"
    type: "Pooling"
    bottom: "relu1"
    top: "pool1"
    pooling_param {
      pool: MAX
      kernel_size: 3
      stride: 2
    }
  }
  layer {
    name: "conv2"
    type: "Convolution"
    bottom: "pool1"
    top: "conv2"
    param {
      lr_mult: 1
      decay_mult: 1
    }
    param {
      lr_mult: 2
      decay_mult: 0
    }
    convolution_param {
      num_output: 256
      pad: 2
      kernel_size: 5
      group: 2
      weight_filler {
        type: "gaussian"
        std: 0.01
      }
      bias_filler {
        type: "constant"
      }
    }
  }
  layer {
    name: "relu2"
    type: "ReLU"
    bottom: "conv2"
    top: "relu2"
  }
  layer {
    name: "pool2"
    type: "Pooling"
    bottom: "relu2"
    top: "pool2"
    pooling_param {
      pool: MAX
      kernel_size: 3
      stride: 2
    }
  }
  layer {
    name: "conv3"
    type: "Convolution"
    bottom: "pool2"
    top: "conv3"
    param {
      lr_mult: 1
      decay_mult: 1
    }
    param {
      lr_mult: 2
      decay_mult: 0
    }
    convolution_param {
      num_output: 384
      pad: 1
      kernel_size: 3
      weight_filler {
        type: "gaussian"
        std: 0.01
      }
      bias_filler {
        type: "constant"
      }
    }
  }
  layer {
    name: "relu3"
    type: "ReLU"
    bottom: "conv3"
    top: "relu3"
  }
  layer {
    name: "conv4"
    type: "Convolution"
    bottom: "relu3"
    top: "conv4"
    param {
      lr_mult: 1
      decay_mult: 1
    }
    param {
      lr_mult: 2
      decay_mult: 0
    }
    convolution_param {
      num_output: 384
      pad: 1
      kernel_size: 3
      group: 2
      weight_filler {
        type: "gaussian"
        std: 0.01
      }
      bias_filler {
        type: "constant"
      }
    }
  }
  layer {
    name: "relu4"
    type: "ReLU"
    bottom: "conv4"
    top: "relu4"
  }
  layer {
    name: "conv5"
    type: "Convolution"
    bottom: "relu4"
    top: "conv5"
    param {
      lr_mult: 1
      decay_mult: 1
    }
    param {
      lr_mult: 2
      decay_mult: 0
    }
    convolution_param {
      num_output: 256
      pad: 1
      kernel_size: 3
      group: 2
      weight_filler {
        type: "gaussian"
        std: 0.01
      }
      bias_filler {
        type: "constant"
      }
    }
  }
  layer {
    name: "relu5"
    type: "ReLU"
    bottom: "conv5"
    top: "relu5"
  }
  layer {
    name: "pool5"
    type: "Pooling"
    bottom: "relu5"
    top: "pool5"
    pooling_param {
      pool: MAX
      kernel_size: 3
      stride: 2
    }
  }
  layer {
    name: "fc6"
    type: "Convolution"
    bottom: "pool5"
    top: "fc6"
    param {
      lr_mult: 1
      decay_mult: 1
    }
    param {
      lr_mult: 2
      decay_mult: 0
    }
    convolution_param {
      num_output: 2048
      pad: 1
      kernel_size: 3
      weight_filler {
        type: "gaussian"
        std: 0.01
      }
      bias_filler {
        type: "constant"
      }
    }
  }
  layer {
    name: "relu6"
    type: "ReLU"
    bottom: "fc6"
    top: "relu6"
  }
  layer {
    name: "drop6"
    type: "Dropout"
    bottom: "relu6"
    top: "drop6"
    dropout_param {
      dropout_ratio: 0.5
    }
  }
  layer {
    name: "fc7"
    type: "Convolution"
    bottom: "drop6"
    top: "fc7"
    param {
      lr_mult: 1
      decay_mult: 1
    }
    param {
      lr_mult: 2
      decay_mult: 0
    }
    convolution_param {
      num_output: 2048
      kernel_size: 1
      weight_filler {
        type: "gaussian"
        std: 0.01
      }
      bias_filler {
        type: "constant"
      }
    }
  }
  layer {
    name: "relu7"
    type: "ReLU"
    bottom: "fc7"
    top: "relu7"
  }
  layer {
    name: "drop7"
    type: "Dropout"
    bottom: "relu7"
    top: "drop7"
    dropout_param {
      dropout_ratio: 0.5
    }
  }
  layer {
    name: "fc8"
    type: "Convolution"
    bottom: "drop7"
    top: "fc8"
    param {
      lr_mult: 1
      decay_mult: 1
    }
    param {
      lr_mult: 2
      decay_mult: 0
    }
    convolution_param {
      num_output: 1000
      kernel_size: 1
      weight_filler {
        type: "gaussian"
        std: 0.01
      }
      bias_filler {
        type: "constant"
      }
    }
  }
  layer {
    name: "fc8ave"
    type: "Pooling"
    bottom: "fc8"
    top: "fc8ave"
    pooling_param {
      pool: AVE
      global_pooling: true
    }
  }
  layer {
    name: "accuracy"
    type: "Accuracy"
    bottom: "fc8ave"
    bottom: "label"
    top: "accuracy"
    include {
      phase: TEST
    }
  }
  layer {
    name: "loss"
    type: "SoftmaxWithLoss"
    bottom: "fc8ave"
    bottom: "label"
    top: "loss"
  }
}
average_loss: 20
iter_size: 1
type: "SGD"
I0602 17:45:02.829438  3553 solver.cpp:86] Creating training net specified in net_param.
I0602 17:45:02.829561  3553 net.cpp:322] The NetState phase (0) differed from the phase (1) specified by a rule in layer data
I0602 17:45:02.829591  3553 net.cpp:322] The NetState phase (0) differed from the phase (1) specified by a rule in layer accuracy
I0602 17:45:02.829877  3553 net.cpp:49] Initializing net from parameters: 
name: "CaffeNet"
state {
  phase: TRAIN
}
layer {
  name: "data"
  type: "Data"
  top: "data"
  top: "label"
  include {
    phase: TRAIN
  }
  transform_param {
    scale: 0.04
    mirror: true
    crop_size: 128
    mean_value: 104
    mean_value: 117
    mean_value: 124
    force_color: true
  }
  data_param {
    source: "/local/temporary/imagenet144pxlmdb/ilsvrc12_128_train_lmdb"
    batch_size: 256
    backend: LMDB
  }
}
layer {
  name: "conv1"
  type: "Convolution"
  bottom: "data"
  top: "conv1"
  param {
    lr_mult: 1
    decay_mult: 1
  }
  param {
    lr_mult: 2
    decay_mult: 0
  }
  convolution_param {
    num_output: 96
    kernel_size: 11
    stride: 4
    weight_filler {
      type: "gaussian"
      std: 0.01
    }
    bias_filler {
      type: "constant"
    }
  }
}
layer {
  name: "relu1"
  type: "ReLU"
  bottom: "conv1"
  top: "relu1"
}
layer {
  name: "pool1"
  type: "Pooling"
  bottom: "relu1"
  top: "pool1"
  pooling_param {
    pool: MAX
    kernel_size: 3
    stride: 2
  }
}
layer {
  name: "conv2"
  type: "Convolution"
  bottom: "pool1"
  top: "conv2"
  param {
    lr_mult: 1
    decay_mult: 1
  }
  param {
    lr_mult: 2
    decay_mult: 0
  }
  convolution_param {
    num_output: 256
    pad: 2
    kernel_size: 5
    group: 2
    weight_filler {
      type: "gaussian"
      std: 0.01
    }
    bias_filler {
      type: "constant"
    }
  }
}
layer {
  name: "relu2"
  type: "ReLU"
  bottom: "conv2"
  top: "relu2"
}
layer {
  name: "pool2"
  type: "Pooling"
  bottom: "relu2"
  top: "pool2"
  pooling_param {
    pool: MAX
    kernel_size: 3
    stride: 2
  }
}
layer {
  name: "conv3"
  type: "Convolution"
  bottom: "pool2"
  top: "conv3"
  param {
    lr_mult: 1
    decay_mult: 1
  }
  param {
    lr_mult: 2
    decay_mult: 0
  }
  convolution_param {
    num_output: 384
    pad: 1
    kernel_size: 3
    weight_filler {
      type: "gaussian"
      std: 0.01
    }
    bias_filler {
      type: "constant"
    }
  }
}
layer {
  name: "relu3"
  type: "ReLU"
  bottom: "conv3"
  top: "relu3"
}
layer {
  name: "conv4"
  type: "Convolution"
  bottom: "relu3"
  top: "conv4"
  param {
    lr_mult: 1
    decay_mult: 1
  }
  param {
    lr_mult: 2
    decay_mult: 0
  }
  convolution_param {
    num_output: 384
    pad: 1
    kernel_size: 3
    group: 2
    weight_filler {
      type: "gaussian"
      std: 0.01
    }
    bias_filler {
      type: "constant"
    }
  }
}
layer {
  name: "relu4"
  type: "ReLU"
  bottom: "conv4"
  top: "relu4"
}
layer {
  name: "conv5"
  type: "Convolution"
  bottom: "relu4"
  top: "conv5"
  param {
    lr_mult: 1
    decay_mult: 1
  }
  param {
    lr_mult: 2
    decay_mult: 0
  }
  convolution_param {
    num_output: 256
    pad: 1
    kernel_size: 3
    group: 2
    weight_filler {
      type: "gaussian"
      std: 0.01
    }
    bias_filler {
      type: "constant"
    }
  }
}
layer {
  name: "relu5"
  type: "ReLU"
  bottom: "conv5"
  top: "relu5"
}
layer {
  name: "pool5"
  type: "Pooling"
  bottom: "relu5"
  top: "pool5"
  pooling_param {
    pool: MAX
    kernel_size: 3
    stride: 2
  }
}
layer {
  name: "fc6"
  type: "Convolution"
  bottom: "pool5"
  top: "fc6"
  param {
    lr_mult: 1
    decay_mult: 1
  }
  param {
    lr_mult: 2
    decay_mult: 0
  }
  convolution_param {
    num_output: 2048
    pad: 1
    kernel_size: 3
    weight_filler {
      type: "gaussian"
      std: 0.01
    }
    bias_filler {
      type: "constant"
    }
  }
}
layer {
  name: "relu6"
  type: "ReLU"
  bottom: "fc6"
  top: "relu6"
}
layer {
  name: "drop6"
  type: "Dropout"
  bottom: "relu6"
  top: "drop6"
  dropout_param {
    dropout_ratio: 0.5
  }
}
layer {
  name: "fc7"
  type: "Convolution"
  bottom: "drop6"
  top: "fc7"
  param {
    lr_mult: 1
    decay_mult: 1
  }
  param {
    lr_mult: 2
    decay_mult: 0
  }
  convolution_param {
    num_output: 2048
    kernel_size: 1
    weight_filler {
      type: "gaussian"
      std: 0.01
    }
    bias_filler {
      type: "constant"
    }
  }
}
layer {
  name: "relu7"
  type: "ReLU"
  bottom: "fc7"
  top: "relu7"
}
layer {
  name: "drop7"
  type: "Dropout"
  bottom: "relu7"
  top: "drop7"
  dropout_param {
    dropout_ratio: 0.5
  }
}
layer {
  name: "fc8"
  type: "Convolution"
  bottom: "drop7"
  top: "fc8"
  param {
    lr_mult: 1
    decay_mult: 1
  }
  param {
    lr_mult: 2
    decay_mult: 0
  }
  convolution_param {
    num_output: 1000
    kernel_size: 1
    weight_filler {
      type: "gaussian"
      std: 0.01
    }
    bias_filler {
      type: "constant"
    }
  }
}
layer {
  name: "fc8ave"
  type: "Pooling"
  bottom: "fc8"
  top: "fc8ave"
  pooling_param {
    pool: AVE
    global_pooling: true
  }
}
layer {
  name: "loss"
  type: "SoftmaxWithLoss"
  bottom: "fc8ave"
  bottom: "label"
  top: "loss"
}
I0602 17:45:02.830013  3553 layer_factory.hpp:76] Creating layer data
I0602 17:45:02.830731  3553 net.cpp:106] Creating Layer data
I0602 17:45:02.830747  3553 net.cpp:411] data -> data
I0602 17:45:02.830783  3553 net.cpp:411] data -> label
I0602 17:45:02.831698  3592 db_lmdb.cpp:38] Opened lmdb /local/temporary/imagenet144pxlmdb/ilsvrc12_128_train_lmdb
I0602 17:45:02.845005  3553 data_layer.cpp:41] output data size: 256,3,128,128
I0602 17:45:02.942469  3553 net.cpp:150] Setting up data
I0602 17:45:02.942523  3553 net.cpp:157] Top shape: 256 3 128 128 (12582912)
I0602 17:45:02.942530  3553 net.cpp:157] Top shape: 256 (256)
I0602 17:45:02.942535  3553 net.cpp:165] Memory required for data: 50332672
I0602 17:45:02.942570  3553 layer_factory.hpp:76] Creating layer conv1
I0602 17:45:02.942601  3553 net.cpp:106] Creating Layer conv1
I0602 17:45:02.942610  3553 net.cpp:454] conv1 <- data
I0602 17:45:02.942642  3553 net.cpp:411] conv1 -> conv1
I0602 17:45:03.077574  3553 net.cpp:150] Setting up conv1
I0602 17:45:03.077664  3553 net.cpp:157] Top shape: 256 96 30 30 (22118400)
I0602 17:45:03.077687  3553 net.cpp:165] Memory required for data: 138806272
I0602 17:45:03.077728  3553 layer_factory.hpp:76] Creating layer relu1
I0602 17:45:03.077757  3553 net.cpp:106] Creating Layer relu1
I0602 17:45:03.077778  3553 net.cpp:454] relu1 <- conv1
I0602 17:45:03.077800  3553 net.cpp:411] relu1 -> relu1
I0602 17:45:03.078121  3553 net.cpp:150] Setting up relu1
I0602 17:45:03.078153  3553 net.cpp:157] Top shape: 256 96 30 30 (22118400)
I0602 17:45:03.078176  3553 net.cpp:165] Memory required for data: 227279872
I0602 17:45:03.078194  3553 layer_factory.hpp:76] Creating layer pool1
I0602 17:45:03.078219  3553 net.cpp:106] Creating Layer pool1
I0602 17:45:03.078236  3553 net.cpp:454] pool1 <- relu1
I0602 17:45:03.078254  3553 net.cpp:411] pool1 -> pool1
I0602 17:45:03.078757  3553 net.cpp:150] Setting up pool1
I0602 17:45:03.078794  3553 net.cpp:157] Top shape: 256 96 15 15 (5529600)
I0602 17:45:03.078815  3553 net.cpp:165] Memory required for data: 249398272
I0602 17:45:03.078835  3553 layer_factory.hpp:76] Creating layer conv2
I0602 17:45:03.078866  3553 net.cpp:106] Creating Layer conv2
I0602 17:45:03.078886  3553 net.cpp:454] conv2 <- pool1
I0602 17:45:03.078908  3553 net.cpp:411] conv2 -> conv2
I0602 17:45:03.096583  3553 net.cpp:150] Setting up conv2
I0602 17:45:03.096616  3553 net.cpp:157] Top shape: 256 256 15 15 (14745600)
I0602 17:45:03.096622  3553 net.cpp:165] Memory required for data: 308380672
I0602 17:45:03.096642  3553 layer_factory.hpp:76] Creating layer relu2
I0602 17:45:03.096684  3553 net.cpp:106] Creating Layer relu2
I0602 17:45:03.096705  3553 net.cpp:454] relu2 <- conv2
I0602 17:45:03.096735  3553 net.cpp:411] relu2 -> relu2
I0602 17:45:03.097057  3553 net.cpp:150] Setting up relu2
I0602 17:45:03.097090  3553 net.cpp:157] Top shape: 256 256 15 15 (14745600)
I0602 17:45:03.097115  3553 net.cpp:165] Memory required for data: 367363072
I0602 17:45:03.097136  3553 layer_factory.hpp:76] Creating layer pool2
I0602 17:45:03.097163  3553 net.cpp:106] Creating Layer pool2
I0602 17:45:03.097182  3553 net.cpp:454] pool2 <- relu2
I0602 17:45:03.097200  3553 net.cpp:411] pool2 -> pool2
I0602 17:45:03.097689  3553 net.cpp:150] Setting up pool2
I0602 17:45:03.097723  3553 net.cpp:157] Top shape: 256 256 7 7 (3211264)
I0602 17:45:03.097743  3553 net.cpp:165] Memory required for data: 380208128
I0602 17:45:03.097760  3553 layer_factory.hpp:76] Creating layer conv3
I0602 17:45:03.097790  3553 net.cpp:106] Creating Layer conv3
I0602 17:45:03.097808  3553 net.cpp:454] conv3 <- pool2
I0602 17:45:03.097832  3553 net.cpp:411] conv3 -> conv3
I0602 17:45:03.142875  3553 net.cpp:150] Setting up conv3
I0602 17:45:03.142915  3553 net.cpp:157] Top shape: 256 384 7 7 (4816896)
I0602 17:45:03.142922  3553 net.cpp:165] Memory required for data: 399475712
I0602 17:45:03.142942  3553 layer_factory.hpp:76] Creating layer relu3
I0602 17:45:03.142992  3553 net.cpp:106] Creating Layer relu3
I0602 17:45:03.143013  3553 net.cpp:454] relu3 <- conv3
I0602 17:45:03.143035  3553 net.cpp:411] relu3 -> relu3
I0602 17:45:03.143533  3553 net.cpp:150] Setting up relu3
I0602 17:45:03.143571  3553 net.cpp:157] Top shape: 256 384 7 7 (4816896)
I0602 17:45:03.143604  3553 net.cpp:165] Memory required for data: 418743296
I0602 17:45:03.143664  3553 layer_factory.hpp:76] Creating layer conv4
I0602 17:45:03.143761  3553 net.cpp:106] Creating Layer conv4
I0602 17:45:03.143771  3553 net.cpp:454] conv4 <- relu3
I0602 17:45:03.143811  3553 net.cpp:411] conv4 -> conv4
I0602 17:45:03.178719  3553 net.cpp:150] Setting up conv4
I0602 17:45:03.178757  3553 net.cpp:157] Top shape: 256 384 7 7 (4816896)
I0602 17:45:03.178764  3553 net.cpp:165] Memory required for data: 438010880
I0602 17:45:03.178782  3553 layer_factory.hpp:76] Creating layer relu4
I0602 17:45:03.178812  3553 net.cpp:106] Creating Layer relu4
I0602 17:45:03.178824  3553 net.cpp:454] relu4 <- conv4
I0602 17:45:03.178836  3553 net.cpp:411] relu4 -> relu4
I0602 17:45:03.179167  3553 net.cpp:150] Setting up relu4
I0602 17:45:03.179182  3553 net.cpp:157] Top shape: 256 384 7 7 (4816896)
I0602 17:45:03.179190  3553 net.cpp:165] Memory required for data: 457278464
I0602 17:45:03.179213  3553 layer_factory.hpp:76] Creating layer conv5
I0602 17:45:03.179240  3553 net.cpp:106] Creating Layer conv5
I0602 17:45:03.179262  3553 net.cpp:454] conv5 <- relu4
I0602 17:45:03.179313  3553 net.cpp:411] conv5 -> conv5
I0602 17:45:03.205072  3553 net.cpp:150] Setting up conv5
I0602 17:45:03.205106  3553 net.cpp:157] Top shape: 256 256 7 7 (3211264)
I0602 17:45:03.205113  3553 net.cpp:165] Memory required for data: 470123520
I0602 17:45:03.205134  3553 layer_factory.hpp:76] Creating layer relu5
I0602 17:45:03.205166  3553 net.cpp:106] Creating Layer relu5
I0602 17:45:03.205179  3553 net.cpp:454] relu5 <- conv5
I0602 17:45:03.205194  3553 net.cpp:411] relu5 -> relu5
I0602 17:45:03.205516  3553 net.cpp:150] Setting up relu5
I0602 17:45:03.205531  3553 net.cpp:157] Top shape: 256 256 7 7 (3211264)
I0602 17:45:03.205545  3553 net.cpp:165] Memory required for data: 482968576
I0602 17:45:03.205557  3553 layer_factory.hpp:76] Creating layer pool5
I0602 17:45:03.205585  3553 net.cpp:106] Creating Layer pool5
I0602 17:45:03.205612  3553 net.cpp:454] pool5 <- relu5
I0602 17:45:03.205646  3553 net.cpp:411] pool5 -> pool5
I0602 17:45:03.206212  3553 net.cpp:150] Setting up pool5
I0602 17:45:03.206248  3553 net.cpp:157] Top shape: 256 256 3 3 (589824)
I0602 17:45:03.206267  3553 net.cpp:165] Memory required for data: 485327872
I0602 17:45:03.206284  3553 layer_factory.hpp:76] Creating layer fc6
I0602 17:45:03.206315  3553 net.cpp:106] Creating Layer fc6
I0602 17:45:03.206332  3553 net.cpp:454] fc6 <- pool5
I0602 17:45:03.206372  3553 net.cpp:411] fc6 -> fc6
I0602 17:45:03.438144  3553 net.cpp:150] Setting up fc6
I0602 17:45:03.438181  3553 net.cpp:157] Top shape: 256 2048 3 3 (4718592)
I0602 17:45:03.438189  3553 net.cpp:165] Memory required for data: 504202240
I0602 17:45:03.438205  3553 layer_factory.hpp:76] Creating layer relu6
I0602 17:45:03.438249  3553 net.cpp:106] Creating Layer relu6
I0602 17:45:03.438269  3553 net.cpp:454] relu6 <- fc6
I0602 17:45:03.438292  3553 net.cpp:411] relu6 -> relu6
I0602 17:45:03.438611  3553 net.cpp:150] Setting up relu6
I0602 17:45:03.438643  3553 net.cpp:157] Top shape: 256 2048 3 3 (4718592)
I0602 17:45:03.438658  3553 net.cpp:165] Memory required for data: 523076608
I0602 17:45:03.438675  3553 layer_factory.hpp:76] Creating layer drop6
I0602 17:45:03.438706  3553 net.cpp:106] Creating Layer drop6
I0602 17:45:03.438725  3553 net.cpp:454] drop6 <- relu6
I0602 17:45:03.438745  3553 net.cpp:411] drop6 -> drop6
I0602 17:45:03.438828  3553 net.cpp:150] Setting up drop6
I0602 17:45:03.438853  3553 net.cpp:157] Top shape: 256 2048 3 3 (4718592)
I0602 17:45:03.438868  3553 net.cpp:165] Memory required for data: 541950976
I0602 17:45:03.438884  3553 layer_factory.hpp:76] Creating layer fc7
I0602 17:45:03.438910  3553 net.cpp:106] Creating Layer fc7
I0602 17:45:03.438927  3553 net.cpp:454] fc7 <- drop6
I0602 17:45:03.438951  3553 net.cpp:411] fc7 -> fc7
I0602 17:45:03.588965  3553 net.cpp:150] Setting up fc7
I0602 17:45:03.588996  3553 net.cpp:157] Top shape: 256 2048 3 3 (4718592)
I0602 17:45:03.589000  3553 net.cpp:165] Memory required for data: 560825344
I0602 17:45:03.589011  3553 layer_factory.hpp:76] Creating layer relu7
I0602 17:45:03.589056  3553 net.cpp:106] Creating Layer relu7
I0602 17:45:03.589063  3553 net.cpp:454] relu7 <- fc7
I0602 17:45:03.589089  3553 net.cpp:411] relu7 -> relu7
I0602 17:45:03.589319  3553 net.cpp:150] Setting up relu7
I0602 17:45:03.589332  3553 net.cpp:157] Top shape: 256 2048 3 3 (4718592)
I0602 17:45:03.589337  3553 net.cpp:165] Memory required for data: 579699712
I0602 17:45:03.589355  3553 layer_factory.hpp:76] Creating layer drop7
I0602 17:45:03.589366  3553 net.cpp:106] Creating Layer drop7
I0602 17:45:03.589373  3553 net.cpp:454] drop7 <- relu7
I0602 17:45:03.589385  3553 net.cpp:411] drop7 -> drop7
I0602 17:45:03.589434  3553 net.cpp:150] Setting up drop7
I0602 17:45:03.589444  3553 net.cpp:157] Top shape: 256 2048 3 3 (4718592)
I0602 17:45:03.589459  3553 net.cpp:165] Memory required for data: 598574080
I0602 17:45:03.589467  3553 layer_factory.hpp:76] Creating layer fc8
I0602 17:45:03.589484  3553 net.cpp:106] Creating Layer fc8
I0602 17:45:03.589489  3553 net.cpp:454] fc8 <- drop7
I0602 17:45:03.589499  3553 net.cpp:411] fc8 -> fc8
I0602 17:45:03.652135  3553 net.cpp:150] Setting up fc8
I0602 17:45:03.652169  3553 net.cpp:157] Top shape: 256 1000 3 3 (2304000)
I0602 17:45:03.652174  3553 net.cpp:165] Memory required for data: 607790080
I0602 17:45:03.652187  3553 layer_factory.hpp:76] Creating layer fc8ave
I0602 17:45:03.652202  3553 net.cpp:106] Creating Layer fc8ave
I0602 17:45:03.652228  3553 net.cpp:454] fc8ave <- fc8
I0602 17:45:03.652246  3553 net.cpp:411] fc8ave -> fc8ave
I0602 17:45:03.652597  3553 net.cpp:150] Setting up fc8ave
I0602 17:45:03.652611  3553 net.cpp:157] Top shape: 256 1000 1 1 (256000)
I0602 17:45:03.652616  3553 net.cpp:165] Memory required for data: 608814080
I0602 17:45:03.652621  3553 layer_factory.hpp:76] Creating layer loss
I0602 17:45:03.652647  3553 net.cpp:106] Creating Layer loss
I0602 17:45:03.652654  3553 net.cpp:454] loss <- fc8ave
I0602 17:45:03.652662  3553 net.cpp:454] loss <- label
I0602 17:45:03.652683  3553 net.cpp:411] loss -> loss
I0602 17:45:03.652709  3553 layer_factory.hpp:76] Creating layer loss
…
I0602 17:45:03.654294  3553 net.cpp:322] The NetState phase (1) differed from the phase (0) specified by a rule in layer data
I0602 17:45:03.654631  3553 net.cpp:49] Initializing net from parameters: 
name: "CaffeNet"
state {
  phase: TEST
}
layer {
  name: "data"
  type: "Data"
  top: "data"
  top: "label"
  include {
    phase: TEST
  }
  transform_param {
    scale: 0.04
    mirror: false
    crop_size: 128
    mean_value: 104
    mean_value: 117
    mean_value: 123
    force_color: true
  }
  data_param {
    source: "/local/temporary/imagenet144pxlmdb/ilsvrc12_128_val_lmdb"
    batch_size: 50
    backend: LMDB
  }
}
layer {
  name: "conv1"
  type: "Convolution"
  bottom: "data"
  top: "conv1"
  param {
    lr_mult: 1
    decay_mult: 1
  }
  param {
    lr_mult: 2
    decay_mult: 0
  }
  convolution_param {
    num_output: 96
    kernel_size: 11
    stride: 4
    weight_filler {
      type: "gaussian"
      std: 0.01
    }
    bias_filler {
      type: "constant"
    }
  }
}
layer {
  name: "relu1"
  type: "ReLU"
  bottom: "conv1"
  top: "relu1"
}
layer {
  name: "pool1"
  type: "Pooling"
  bottom: "relu1"
  top: "pool1"
  pooling_param {
    pool: MAX
    kernel_size: 3
    stride: 2
  }
}
layer {
  name: "conv2"
  type: "Convolution"
  bottom: "pool1"
  top: "conv2"
  param {
    lr_mult: 1
    decay_mult: 1
  }
  param {
    lr_mult: 2
    decay_mult: 0
  }
  convolution_param {
    num_output: 256
    pad: 2
    kernel_size: 5
    group: 2
    weight_filler {
      type: "gaussian"
      std: 0.01
    }
    bias_filler {
      type: "constant"
    }
  }
}
layer {
  name: "relu2"
  type: "ReLU"
  bottom: "conv2"
  top: "relu2"
}
layer {
  name: "pool2"
  type: "Pooling"
  bottom: "relu2"
  top: "pool2"
  pooling_param {
    pool: MAX
    kernel_size: 3
    stride: 2
  }
}
layer {
  name: "conv3"
  type: "Convolution"
  bottom: "pool2"
  top: "conv3"
  param {
    lr_mult: 1
    decay_mult: 1
  }
  param {
    lr_mult: 2
    decay_mult: 0
  }
  convolution_param {
    num_output: 384
    pad: 1
    kernel_size: 3
    weight_filler {
      type: "gaussian"
      std: 0.01
    }
    bias_filler {
      type: "constant"
    }
  }
}
layer {
  name: "relu3"
  type: "ReLU"
  bottom: "conv3"
  top: "relu3"
}
layer {
  name: "conv4"
  type: "Convolution"
  bottom: "relu3"
  top: "conv4"
  param {
    lr_mult: 1
    decay_mult: 1
  }
  param {
    lr_mult: 2
    decay_mult: 0
  }
  convolution_param {
    num_output: 384
    pad: 1
    kernel_size: 3
    group: 2
    weight_filler {
      type: "gaussian"
      std: 0.01
    }
    bias_filler {
      type: "constant"
    }
  }
}
layer {
  name: "relu4"
  type: "ReLU"
  bottom: "conv4"
  top: "relu4"
}
layer {
  name: "conv5"
  type: "Convolution"
  bottom: "relu4"
  top: "conv5"
  param {
    lr_mult: 1
    decay_mult: 1
  }
  param {
    lr_mult: 2
    decay_mult: 0
  }
  convolution_param {
    num_output: 256
    pad: 1
    kernel_size: 3
    group: 2
    weight_filler {
      type: "gaussian"
      std: 0.01
    }
    bias_filler {
      type: "constant"
    }
  }
}
layer {
  name: "relu5"
  type: "ReLU"
  bottom: "conv5"
  top: "relu5"
}
layer {
  name: "pool5"
  type: "Pooling"
  bottom: "relu5"
  top: "pool5"
  pooling_param {
    pool: MAX
    kernel_size: 3
    stride: 2
  }
}
layer {
  name: "fc6"
  type: "Convolution"
  bottom: "pool5"
  top: "fc6"
  param {
    lr_mult: 1
    decay_mult: 1
  }
  param {
    lr_mult: 2
    decay_mult: 0
  }
  convolution_param {
    num_output: 2048
    pad: 1
    kernel_size: 3
    weight_filler {
      type: "gaussian"
      std: 0.01
    }
    bias_filler {
      type: "constant"
    }
  }
}
layer {
  name: "relu6"
  type: "ReLU"
  bottom: "fc6"
  top: "relu6"
}
layer {
  name: "drop6"
  type: "Dropout"
  bottom: "relu6"
  top: "drop6"
  dropout_param {
    dropout_ratio: 0.5
  }
}
layer {
  name: "fc7"
  type: "Convolution"
  bottom: "drop6"
  top: "fc7"
  param {
    lr_mult: 1
    decay_mult: 1
  }
  param {
    lr_mult: 2
    decay_mult: 0
  }
  convolution_param {
    num_output: 2048
    kernel_size: 1
    weight_filler {
      type: "gaussian"
      std: 0.01
    }
    bias_filler {
      type: "constant"
    }
  }
}
layer {
  name: "relu7"
  type: "ReLU"
  bottom: "fc7"
  top: "relu7"
}
layer {
  name: "drop7"
  type: "Dropout"
  bottom: "relu7"
  top: "drop7"
  dropout_param {
    dropout_ratio: 0.5
  }
}
layer {
  name: "fc8"
  type: "Convolution"
  bottom: "drop7"
  top: "fc8"
  param {
    lr_mult: 1
    decay_mult: 1
  }
  param {
    lr_mult: 2
    decay_mult: 0
  }
  convolution_param {
    num_output: 1000
    kernel_size: 1
    weight_filler {
      type: "gaussian"
      std: 0.01
    }
    bias_filler {
      type: "constant"
    }
  }
}
layer {
  name: "fc8ave"
  type: "Pooling"
  bottom: "fc8"
  top: "fc8ave"
  pooling_param {
    pool: AVE
    global_pooling: true
  }
}
layer {
  name: "accuracy"
  type: "Accuracy"
  bottom: "fc8ave"
  bottom: "label"
  top: "accuracy"
  include {
    phase: TEST
  }
}
layer {
  name: "loss"
  type: "SoftmaxWithLoss"
  bottom: "fc8ave"
  bottom: "label"
  top: "loss"
}
I0602 17:45:03.654834  3553 layer_factory.hpp:76] Creating layer data
I0602 17:45:03.654960  3553 net.cpp:106] Creating Layer data
I0602 17:45:03.654996  3553 net.cpp:411] data -> data
I0602 17:45:03.655026  3553 net.cpp:411] data -> label
I0602 17:45:03.655961  3594 db_lmdb.cpp:38] Opened lmdb /local/temporary/imagenet144pxlmdb/ilsvrc12_128_val_lmdb
I0602 17:45:03.657302  3553 data_layer.cpp:41] output data size: 50,3,128,128
I0602 17:45:03.678016  3553 net.cpp:150] Setting up data
I0602 17:45:03.678055  3553 net.cpp:157] Top shape: 50 3 128 128 (2457600)
I0602 17:45:03.678063  3553 net.cpp:157] Top shape: 50 (50)
I0602 17:45:03.678069  3553 net.cpp:165] Memory required for data: 9830600
I0602 17:45:03.678078  3553 layer_factory.hpp:76] Creating layer label_data_1_split
I0602 17:45:03.678097  3553 net.cpp:106] Creating Layer label_data_1_split
I0602 17:45:03.678104  3553 net.cpp:454] label_data_1_split <- label
I0602 17:45:03.678117  3553 net.cpp:411] label_data_1_split -> label_data_1_split_0
I0602 17:45:03.678134  3553 net.cpp:411] label_data_1_split -> label_data_1_split_1
I0602 17:45:03.678236  3553 net.cpp:150] Setting up label_data_1_split
I0602 17:45:03.678246  3553 net.cpp:157] Top shape: 50 (50)
I0602 17:45:03.678253  3553 net.cpp:157] Top shape: 50 (50)
I0602 17:45:03.678258  3553 net.cpp:165] Memory required for data: 9831000
I0602 17:45:03.678264  3553 layer_factory.hpp:76] Creating layer conv1
I0602 17:45:03.678306  3553 net.cpp:106] Creating Layer conv1
I0602 17:45:03.678325  3553 net.cpp:454] conv1 <- data
I0602 17:45:03.678352  3553 net.cpp:411] conv1 -> conv1
I0602 17:45:03.683224  3553 net.cpp:150] Setting up conv1
I0602 17:45:03.683269  3553 net.cpp:157] Top shape: 50 96 30 30 (4320000)
I0602 17:45:03.683286  3553 net.cpp:165] Memory required for data: 27111000
I0602 17:45:03.683312  3553 layer_factory.hpp:76] Creating layer relu1
I0602 17:45:03.683336  3553 net.cpp:106] Creating Layer relu1
I0602 17:45:03.683351  3553 net.cpp:454] relu1 <- conv1
I0602 17:45:03.683372  3553 net.cpp:411] relu1 -> relu1
I0602 17:45:03.683866  3553 net.cpp:150] Setting up relu1
I0602 17:45:03.683900  3553 net.cpp:157] Top shape: 50 96 30 30 (4320000)
I0602 17:45:03.683922  3553 net.cpp:165] Memory required for data: 44391000
I0602 17:45:03.683938  3553 layer_factory.hpp:76] Creating layer pool1
I0602 17:45:03.683966  3553 net.cpp:106] Creating Layer pool1
I0602 17:45:03.683984  3553 net.cpp:454] pool1 <- relu1
I0602 17:45:03.684005  3553 net.cpp:411] pool1 -> pool1
I0602 17:45:03.684353  3553 net.cpp:150] Setting up pool1
I0602 17:45:03.684391  3553 net.cpp:157] Top shape: 50 96 15 15 (1080000)
I0602 17:45:03.684409  3553 net.cpp:165] Memory required for data: 48711000
I0602 17:45:03.684427  3553 layer_factory.hpp:76] Creating layer conv2
I0602 17:45:03.684454  3553 net.cpp:106] Creating Layer conv2
I0602 17:45:03.684507  3553 net.cpp:454] conv2 <- pool1
I0602 17:45:03.684531  3553 net.cpp:411] conv2 -> conv2
I0602 17:45:03.702503  3553 net.cpp:150] Setting up conv2
I0602 17:45:03.702579  3553 net.cpp:157] Top shape: 50 256 15 15 (2880000)
I0602 17:45:03.702599  3553 net.cpp:165] Memory required for data: 60231000
I0602 17:45:03.702630  3553 layer_factory.hpp:76] Creating layer relu2
I0602 17:45:03.702654  3553 net.cpp:106] Creating Layer relu2
I0602 17:45:03.702672  3553 net.cpp:454] relu2 <- conv2
I0602 17:45:03.702695  3553 net.cpp:411] relu2 -> relu2
I0602 17:45:03.703039  3553 net.cpp:150] Setting up relu2
I0602 17:45:03.703073  3553 net.cpp:157] Top shape: 50 256 15 15 (2880000)
I0602 17:45:03.703091  3553 net.cpp:165] Memory required for data: 71751000
I0602 17:45:03.703111  3553 layer_factory.hpp:76] Creating layer pool2
I0602 17:45:03.703136  3553 net.cpp:106] Creating Layer pool2
I0602 17:45:03.703153  3553 net.cpp:454] pool2 <- relu2
I0602 17:45:03.703176  3553 net.cpp:411] pool2 -> pool2
I0602 17:45:03.703711  3553 net.cpp:150] Setting up pool2
I0602 17:45:03.703745  3553 net.cpp:157] Top shape: 50 256 7 7 (627200)
I0602 17:45:03.703763  3553 net.cpp:165] Memory required for data: 74259800
I0602 17:45:03.703780  3553 layer_factory.hpp:76] Creating layer conv3
I0602 17:45:03.703811  3553 net.cpp:106] Creating Layer conv3
I0602 17:45:03.703830  3553 net.cpp:454] conv3 <- pool2
I0602 17:45:03.703863  3553 net.cpp:411] conv3 -> conv3
I0602 17:45:03.748627  3553 net.cpp:150] Setting up conv3
I0602 17:45:03.748704  3553 net.cpp:157] Top shape: 50 384 7 7 (940800)
I0602 17:45:03.748724  3553 net.cpp:165] Memory required for data: 78023000
I0602 17:45:03.748756  3553 layer_factory.hpp:76] Creating layer relu3
I0602 17:45:03.748790  3553 net.cpp:106] Creating Layer relu3
I0602 17:45:03.748811  3553 net.cpp:454] relu3 <- conv3
I0602 17:45:03.748832  3553 net.cpp:411] relu3 -> relu3
I0602 17:45:03.749176  3553 net.cpp:150] Setting up relu3
I0602 17:45:03.749210  3553 net.cpp:157] Top shape: 50 384 7 7 (940800)
I0602 17:45:03.749234  3553 net.cpp:165] Memory required for data: 81786200
I0602 17:45:03.749255  3553 layer_factory.hpp:76] Creating layer conv4
I0602 17:45:03.749287  3553 net.cpp:106] Creating Layer conv4
I0602 17:45:03.749305  3553 net.cpp:454] conv4 <- relu3
I0602 17:45:03.749326  3553 net.cpp:411] conv4 -> conv4
I0602 17:45:03.784412  3553 net.cpp:150] Setting up conv4
I0602 17:45:03.784502  3553 net.cpp:157] Top shape: 50 384 7 7 (940800)
I0602 17:45:03.784523  3553 net.cpp:165] Memory required for data: 85549400
I0602 17:45:03.784549  3553 layer_factory.hpp:76] Creating layer relu4
I0602 17:45:03.784574  3553 net.cpp:106] Creating Layer relu4
I0602 17:45:03.784592  3553 net.cpp:454] relu4 <- conv4
I0602 17:45:03.784618  3553 net.cpp:411] relu4 -> relu4
I0602 17:45:03.784955  3553 net.cpp:150] Setting up relu4
I0602 17:45:03.784986  3553 net.cpp:157] Top shape: 50 384 7 7 (940800)
I0602 17:45:03.785004  3553 net.cpp:165] Memory required for data: 89312600
I0602 17:45:03.785020  3553 layer_factory.hpp:76] Creating layer conv5
I0602 17:45:03.785049  3553 net.cpp:106] Creating Layer conv5
I0602 17:45:03.785068  3553 net.cpp:454] conv5 <- relu4
I0602 17:45:03.785094  3553 net.cpp:411] conv5 -> conv5
I0602 17:45:03.811072  3553 net.cpp:150] Setting up conv5
I0602 17:45:03.811105  3553 net.cpp:157] Top shape: 50 256 7 7 (627200)
I0602 17:45:03.811113  3553 net.cpp:165] Memory required for data: 91821400
I0602 17:45:03.811136  3553 layer_factory.hpp:76] Creating layer relu5
I0602 17:45:03.811177  3553 net.cpp:106] Creating Layer relu5
I0602 17:45:03.811197  3553 net.cpp:454] relu5 <- conv5
I0602 17:45:03.811219  3553 net.cpp:411] relu5 -> relu5
I0602 17:45:03.811722  3553 net.cpp:150] Setting up relu5
I0602 17:45:03.811756  3553 net.cpp:157] Top shape: 50 256 7 7 (627200)
I0602 17:45:03.811781  3553 net.cpp:165] Memory required for data: 94330200
I0602 17:45:03.811803  3553 layer_factory.hpp:76] Creating layer pool5
I0602 17:45:03.811831  3553 net.cpp:106] Creating Layer pool5
I0602 17:45:03.811849  3553 net.cpp:454] pool5 <- relu5
I0602 17:45:03.811918  3553 net.cpp:411] pool5 -> pool5
I0602 17:45:03.812285  3553 net.cpp:150] Setting up pool5
I0602 17:45:03.812317  3553 net.cpp:157] Top shape: 50 256 3 3 (115200)
I0602 17:45:03.812335  3553 net.cpp:165] Memory required for data: 94791000
I0602 17:45:03.812351  3553 layer_factory.hpp:76] Creating layer fc6
I0602 17:45:03.812386  3553 net.cpp:106] Creating Layer fc6
I0602 17:45:03.812407  3553 net.cpp:454] fc6 <- pool5
I0602 17:45:03.812428  3553 net.cpp:411] fc6 -> fc6
I0602 17:45:04.040629  3553 net.cpp:150] Setting up fc6
I0602 17:45:04.040673  3553 net.cpp:157] Top shape: 50 2048 3 3 (921600)
I0602 17:45:04.040681  3553 net.cpp:165] Memory required for data: 98477400
I0602 17:45:04.040699  3553 layer_factory.hpp:76] Creating layer relu6
I0602 17:45:04.040745  3553 net.cpp:106] Creating Layer relu6
I0602 17:45:04.040765  3553 net.cpp:454] relu6 <- fc6
I0602 17:45:04.040788  3553 net.cpp:411] relu6 -> relu6
I0602 17:45:04.041162  3553 net.cpp:150] Setting up relu6
I0602 17:45:04.041194  3553 net.cpp:157] Top shape: 50 2048 3 3 (921600)
I0602 17:45:04.041221  3553 net.cpp:165] Memory required for data: 102163800
I0602 17:45:04.041239  3553 layer_factory.hpp:76] Creating layer drop6
I0602 17:45:04.041271  3553 net.cpp:106] Creating Layer drop6
I0602 17:45:04.041292  3553 net.cpp:454] drop6 <- relu6
I0602 17:45:04.041317  3553 net.cpp:411] drop6 -> drop6
I0602 17:45:04.041425  3553 net.cpp:150] Setting up drop6
I0602 17:45:04.041458  3553 net.cpp:157] Top shape: 50 2048 3 3 (921600)
I0602 17:45:04.041476  3553 net.cpp:165] Memory required for data: 105850200
I0602 17:45:04.041492  3553 layer_factory.hpp:76] Creating layer fc7
I0602 17:45:04.041522  3553 net.cpp:106] Creating Layer fc7
I0602 17:45:04.041551  3553 net.cpp:454] fc7 <- drop6
I0602 17:45:04.041579  3553 net.cpp:411] fc7 -> fc7
I0602 17:45:04.244163  3553 net.cpp:150] Setting up fc7
I0602 17:45:04.244254  3553 net.cpp:157] Top shape: 50 2048 3 3 (921600)
I0602 17:45:04.244274  3553 net.cpp:165] Memory required for data: 109536600
I0602 17:45:04.244303  3553 layer_factory.hpp:76] Creating layer relu7
I0602 17:45:04.244329  3553 net.cpp:106] Creating Layer relu7
I0602 17:45:04.244348  3553 net.cpp:454] relu7 <- fc7
I0602 17:45:04.244370  3553 net.cpp:411] relu7 -> relu7
I0602 17:45:04.244881  3553 net.cpp:150] Setting up relu7
I0602 17:45:04.244916  3553 net.cpp:157] Top shape: 50 2048 3 3 (921600)
I0602 17:45:04.244945  3553 net.cpp:165] Memory required for data: 113223000
I0602 17:45:04.244966  3553 layer_factory.hpp:76] Creating layer drop7
I0602 17:45:04.244995  3553 net.cpp:106] Creating Layer drop7
I0602 17:45:04.245013  3553 net.cpp:454] drop7 <- relu7
I0602 17:45:04.245035  3553 net.cpp:411] drop7 -> drop7
I0602 17:45:04.245121  3553 net.cpp:150] Setting up drop7
I0602 17:45:04.245146  3553 net.cpp:157] Top shape: 50 2048 3 3 (921600)
I0602 17:45:04.245162  3553 net.cpp:165] Memory required for data: 116909400
I0602 17:45:04.245177  3553 layer_factory.hpp:76] Creating layer fc8
I0602 17:45:04.245205  3553 net.cpp:106] Creating Layer fc8
I0602 17:45:04.245223  3553 net.cpp:454] fc8 <- drop7
I0602 17:45:04.245246  3553 net.cpp:411] fc8 -> fc8
I0602 17:45:04.344420  3553 net.cpp:150] Setting up fc8
I0602 17:45:04.344504  3553 net.cpp:157] Top shape: 50 1000 3 3 (450000)
I0602 17:45:04.344522  3553 net.cpp:165] Memory required for data: 118709400
I0602 17:45:04.344549  3553 layer_factory.hpp:76] Creating layer fc8ave
I0602 17:45:04.344579  3553 net.cpp:106] Creating Layer fc8ave
I0602 17:45:04.344599  3553 net.cpp:454] fc8ave <- fc8
I0602 17:45:04.344619  3553 net.cpp:411] fc8ave -> fc8ave
I0602 17:45:04.344964  3553 net.cpp:150] Setting up fc8ave
I0602 17:45:04.344995  3553 net.cpp:157] Top shape: 50 1000 1 1 (50000)
I0602 17:45:04.345012  3553 net.cpp:165] Memory required for data: 118909400
I0602 17:45:04.345036  3553 layer_factory.hpp:76] Creating layer fc8ave_fc8ave_0_split
I0602 17:45:04.345060  3553 net.cpp:106] Creating Layer fc8ave_fc8ave_0_split
I0602 17:45:04.345078  3553 net.cpp:454] fc8ave_fc8ave_0_split <- fc8ave
I0602 17:45:04.345141  3553 net.cpp:411] fc8ave_fc8ave_0_split -> fc8ave_fc8ave_0_split_0
I0602 17:45:04.345167  3553 net.cpp:411] fc8ave_fc8ave_0_split -> fc8ave_fc8ave_0_split_1
I0602 17:45:04.345252  3553 net.cpp:150] Setting up fc8ave_fc8ave_0_split
I0602 17:45:04.345280  3553 net.cpp:157] Top shape: 50 1000 1 1 (50000)
I0602 17:45:04.345300  3553 net.cpp:157] Top shape: 50 1000 1 1 (50000)
I0602 17:45:04.345315  3553 net.cpp:165] Memory required for data: 119309400
I0602 17:45:04.345331  3553 layer_factory.hpp:76] Creating layer accuracy
I0602 17:45:04.345352  3553 net.cpp:106] Creating Layer accuracy
I0602 17:45:04.345369  3553 net.cpp:454] accuracy <- fc8ave_fc8ave_0_split_0
I0602 17:45:04.345386  3553 net.cpp:454] accuracy <- label_data_1_split_0
I0602 17:45:04.345407  3553 net.cpp:411] accuracy -> accuracy
…
