…
      mirror: false
      crop_size: 128
      mean_value: 104
      mean_value: 117
      mean_value: 123
      force_color: true
      resize_param {
        prob: 1
        resize_mode: FIT_SMALL_SIZE
        height: 144
        width: 144
        pad_mode: MIRRORED
        pad_value: 104
        pad_value: 117
        pad_value: 124
        interp_mode: CUBIC
        center_object: false
        max_angle: 0
      }
    }
    data_param {
      source: "/home/old-ufo/datasets/imagenet/ilsvrc12_val_lmdb"
      batch_size: 50
      backend: LMDB
    }
  }
  layer {
    name: "conv1"
    type: "Convolution"
    bottom: "data"
    top: "conv1"
    param {
      lr_mult: 1
      decay_mult: 1
    }
    param {
      lr_mult: 2
      decay_mult: 0
    }
    convolution_param {
      num_output: 96
      kernel_size: 11
      stride: 4
      weight_filler {
        type: "gaussian"
        std: 0.01
      }
      bias_filler {
        type: "constant"
      }
    }
  }
  layer {
    name: "relu1"
    type: "ELU"
    bottom: "conv1"
    top: "relu1"
    elu_param {
      alpha: 1
    }
  }
  layer {
    name: "pool1"
    type: "Pooling"
    bottom: "relu1"
    top: "pool1"
    pooling_param {
      pool: MAX
      kernel_size: 3
      stride: 2
    }
  }
  layer {
    name: "conv2"
    type: "Convolution"
    bottom: "pool1"
    top: "conv2"
    param {
      lr_mult: 1
      decay_mult: 1
    }
    param {
      lr_mult: 2
      decay_mult: 0
    }
    convolution_param {
      num_output: 256
      pad: 2
      kernel_size: 5
      group: 2
      weight_filler {
        type: "gaussian"
        std: 0.01
      }
      bias_filler {
        type: "constant"
      }
    }
  }
  layer {
    name: "relu2"
    type: "ELU"
    bottom: "conv2"
    top: "relu2"
    elu_param {
      alpha: 1
    }
  }
  layer {
    name: "pool2"
    type: "Pooling"
    bottom: "relu2"
    top: "pool2"
    pooling_param {
      pool: MAX
      kernel_size: 3
      stride: 2
    }
  }
  layer {
    name: "conv3"
    type: "Convolution"
    bottom: "pool2"
    top: "conv3"
    param {
      lr_mult: 1
      decay_mult: 1
    }
    param {
      lr_mult: 2
      decay_mult: 0
    }
    convolution_param {
      num_output: 384
      pad: 1
      kernel_size: 3
      weight_filler {
        type: "gaussian"
        std: 0.01
      }
      bias_filler {
        type: "constant"
      }
    }
  }
  layer {
    name: "relu3"
    type: "ELU"
    bottom: "conv3"
    top: "relu3"
    elu_param {
      alpha: 1
    }
  }
  layer {
    name: "conv4"
    type: "Convolution"
    bottom: "relu3"
    top: "conv4"
    param {
      lr_mult: 1
      decay_mult: 1
    }
    param {
      lr_mult: 2
      decay_mult: 0
    }
    convolution_param {
      num_output: 384
      pad: 1
      kernel_size: 3
      group: 2
      weight_filler {
        type: "gaussian"
        std: 0.01
      }
      bias_filler {
        type: "constant"
      }
    }
  }
  layer {
    name: "relu4"
    type: "ELU"
    bottom: "conv4"
    top: "relu4"
    elu_param {
      alpha: 1
    }
  }
  layer {
    name: "conv5"
    type: "Convolution"
    bottom: "relu4"
    top: "conv5"
    param {
      lr_mult: 1
      decay_mult: 1
    }
    param {
      lr_mult: 2
      decay_mult: 0
    }
    convolution_param {
      num_output: 256
      pad: 1
      kernel_size: 3
      group: 2
      weight_filler {
        type: "gaussian"
        std: 0.01
      }
      bias_filler {
        type: "constant"
      }
    }
  }
  layer {
    name: "relu5"
    type: "ELU"
    bottom: "conv5"
    top: "relu5"
    elu_param {
      alpha: 1
    }
  }
  layer {
    name: "pool5"
    type: "Pooling"
    bottom: "relu5"
    top: "pool5"
    pooling_param {
      pool: MAX
      kernel_size: 3
      stride: 2
    }
  }
  layer {
    name: "fc6"
    type: "Convolution"
    bottom: "pool5"
    top: "fc6"
    param {
      lr_mult: 1
      decay_mult: 1
    }
    param {
      lr_mult: 2
      decay_mult: 0
    }
    convolution_param {
      num_output: 2048
      pad: 1
      kernel_size: 3
      weight_filler {
        type: "gaussian"
        std: 0.01
      }
      bias_filler {
        type: "constant"
      }
    }
  }
  layer {
    name: "relu6"
    type: "ELU"
    bottom: "fc6"
    top: "relu6"
    elu_param {
      alpha: 1
    }
  }
  layer {
    name: "drop6"
    type: "Dropout"
    bottom: "relu6"
    top: "drop6"
    dropout_param {
      dropout_ratio: 0.5
    }
  }
  layer {
    name: "fc7"
    type: "Convolution"
    bottom: "drop6"
    top: "fc7"
    param {
      lr_mult: 1
      decay_mult: 1
    }
    param {
      lr_mult: 2
      decay_mult: 0
    }
    convolution_param {
      num_output: 2048
      kernel_size: 1
      weight_filler {
        type: "gaussian"
        std: 0.01
      }
      bias_filler {
        type: "constant"
      }
    }
  }
  layer {
    name: "relu7"
    type: "ELU"
    bottom: "fc7"
    top: "relu7"
    elu_param {
      alpha: 1
    }
  }
  layer {
    name: "drop7"
    type: "Dropout"
    bottom: "relu7"
    top: "drop7"
    dropout_param {
      dropout_ratio: 0.5
    }
  }
  layer {
    name: "fc8"
    type: "Convolution"
    bottom: "drop7"
    top: "fc8"
    param {
      lr_mult: 1
      decay_mult: 1
    }
    param {
      lr_mult: 2
      decay_mult: 0
    }
    convolution_param {
      num_output: 1000
      kernel_size: 1
      weight_filler {
        type: "gaussian"
        std: 0.01
      }
      bias_filler {
        type: "constant"
      }
    }
  }
  layer {
    name: "fc8ave"
    type: "Pooling"
    bottom: "fc8"
    top: "fc8ave"
    pooling_param {
      pool: AVE
      global_pooling: true
    }
  }
  layer {
    name: "accuracy"
    type: "Accuracy"
    bottom: "fc8ave"
    bottom: "label"
    top: "accuracy"
    include {
      phase: TEST
    }
  }
  layer {
    name: "loss"
    type: "SoftmaxWithLoss"
    bottom: "fc8ave"
    bottom: "label"
    top: "loss"
  }
}
iter_size: 1
type: "SGD"
I0128 17:18:01.297047  8866 solver.cpp:86] Creating training net specified in net_param.
I0128 17:18:01.297221  8866 net.cpp:322] The NetState phase (0) differed from the phase (1) specified by a rule in layer data
I0128 17:18:01.297287  8866 net.cpp:322] The NetState phase (0) differed from the phase (1) specified by a rule in layer accuracy
I0128 17:18:01.297480  8866 net.cpp:49] Initializing net from parameters: 
name: "CaffeNet"
state {
  phase: TRAIN
}
layer {
  name: "data"
  type: "Data"
  top: "data"
  top: "label"
  include {
    phase: TRAIN
  }
  transform_param {
    scale: 0.04
    mirror: true
    crop_size: 128
    mean_value: 104
    mean_value: 117
    mean_value: 124
    force_color: true
    resize_param {
      prob: 1
      resize_mode: FIT_SMALL_SIZE
      height: 144
      width: 144
      pad_mode: MIRRORED
      pad_value: 104
      pad_value: 117
      pad_value: 124
      interp_mode: CUBIC
      center_object: false
      max_angle: 0
    }
  }
  data_param {
    source: "/home/old-ufo/datasets/imagenet/ilsvrc12_train_shuffle_lmdb"
    batch_size: 256
    backend: LMDB
  }
}
layer {
  name: "conv1"
  type: "Convolution"
  bottom: "data"
  top: "conv1"
  param {
    lr_mult: 1
    decay_mult: 1
  }
  param {
    lr_mult: 2
    decay_mult: 0
  }
  convolution_param {
    num_output: 96
    kernel_size: 11
    stride: 4
    weight_filler {
      type: "gaussian"
      std: 0.01
    }
    bias_filler {
      type: "constant"
    }
  }
}
layer {
  name: "relu1"
  type: "ELU"
  bottom: "conv1"
  top: "relu1"
  elu_param {
    alpha: 1
  }
}
layer {
  name: "pool1"
  type: "Pooling"
  bottom: "relu1"
  top: "pool1"
  pooling_param {
    pool: MAX
    kernel_size: 3
    stride: 2
  }
}
layer {
  name: "conv2"
  type: "Convolution"
  bottom: "pool1"
  top: "conv2"
  param {
    lr_mult: 1
    decay_mult: 1
  }
  param {
    lr_mult: 2
    decay_mult: 0
  }
  convolution_param {
    num_output: 256
    pad: 2
    kernel_size: 5
    group: 2
    weight_filler {
      type: "gaussian"
      std: 0.01
    }
    bias_filler {
      type: "constant"
    }
  }
}
layer {
  name: "relu2"
  type: "ELU"
  bottom: "conv2"
  top: "relu2"
  elu_param {
    alpha: 1
  }
}
layer {
  name: "pool2"
  type: "Pooling"
  bottom: "relu2"
  top: "pool2"
  pooling_param {
    pool: MAX
    kernel_size: 3
    stride: 2
  }
}
layer {
  name: "conv3"
  type: "Convolution"
  bottom: "pool2"
  top: "conv3"
  param {
    lr_mult: 1
    decay_mult: 1
  }
  param {
    lr_mult: 2
    decay_mult: 0
  }
  convolution_param {
    num_output: 384
    pad: 1
    kernel_size: 3
    weight_filler {
      type: "gaussian"
      std: 0.01
    }
    bias_filler {
      type: "constant"
    }
  }
}
layer {
  name: "relu3"
  type: "ELU"
  bottom: "conv3"
  top: "relu3"
  elu_param {
    alpha: 1
  }
}
layer {
  name: "conv4"
  type: "Convolution"
  bottom: "relu3"
  top: "conv4"
  param {
    lr_mult: 1
    decay_mult: 1
  }
  param {
    lr_mult: 2
    decay_mult: 0
  }
  convolution_param {
    num_output: 384
    pad: 1
    kernel_size: 3
    group: 2
    weight_filler {
      type: "gaussian"
      std: 0.01
    }
    bias_filler {
      type: "constant"
    }
  }
}
layer {
  name: "relu4"
  type: "ELU"
  bottom: "conv4"
  top: "relu4"
  elu_param {
    alpha: 1
  }
}
layer {
  name: "conv5"
  type: "Convolution"
  bottom: "relu4"
  top: "conv5"
  param {
    lr_mult: 1
    decay_mult: 1
  }
  param {
    lr_mult: 2
    decay_mult: 0
  }
  convolution_param {
    num_output: 256
    pad: 1
    kernel_size: 3
    group: 2
    weight_filler {
      type: "gaussian"
      std: 0.01
    }
    bias_filler {
      type: "constant"
    }
  }
}
layer {
  name: "relu5"
  type: "ELU"
  bottom: "conv5"
  top: "relu5"
  elu_param {
    alpha: 1
  }
}
layer {
  name: "pool5"
  type: "Pooling"
  bottom: "relu5"
  top: "pool5"
  pooling_param {
    pool: MAX
    kernel_size: 3
    stride: 2
  }
}
layer {
  name: "fc6"
  type: "Convolution"
  bottom: "pool5"
  top: "fc6"
  param {
    lr_mult: 1
    decay_mult: 1
  }
  param {
    lr_mult: 2
    decay_mult: 0
  }
  convolution_param {
    num_output: 2048
    pad: 1
    kernel_size: 3
    weight_filler {
      type: "gaussian"
      std: 0.01
    }
    bias_filler {
      type: "constant"
    }
  }
}
layer {
  name: "relu6"
  type: "ELU"
  bottom: "fc6"
  top: "relu6"
  elu_param {
    alpha: 1
  }
}
layer {
  name: "drop6"
  type: "Dropout"
  bottom: "relu6"
  top: "drop6"
  dropout_param {
    dropout_ratio: 0.5
  }
}
layer {
  name: "fc7"
  type: "Convolution"
  bottom: "drop6"
  top: "fc7"
  param {
    lr_mult: 1
    decay_mult: 1
  }
  param {
    lr_mult: 2
    decay_mult: 0
  }
  convolution_param {
    num_output: 2048
    kernel_size: 1
    weight_filler {
      type: "gaussian"
      std: 0.01
    }
    bias_filler {
      type: "constant"
    }
  }
}
layer {
  name: "relu7"
  type: "ELU"
  bottom: "fc7"
  top: "relu7"
  elu_param {
    alpha: 1
  }
}
layer {
  name: "drop7"
  type: "Dropout"
  bottom: "relu7"
  top: "drop7"
  dropout_param {
    dropout_ratio: 0.5
  }
}
layer {
  name: "fc8"
  type: "Convolution"
  bottom: "drop7"
  top: "fc8"
  param {
    lr_mult: 1
    decay_mult: 1
  }
  param {
    lr_mult: 2
    decay_mult: 0
  }
  convolution_param {
    num_output: 1000
    kernel_size: 1
    weight_filler {
      type: "gaussian"
      std: 0.01
    }
    bias_filler {
      type: "constant"
    }
  }
}
layer {
  name: "fc8ave"
  type: "Pooling"
  bottom: "fc8"
  top: "fc8ave"
  pooling_param {
    pool: AVE
    global_pooling: true
  }
}
layer {
  name: "loss"
  type: "SoftmaxWithLoss"
  bottom: "fc8ave"
  bottom: "label"
  top: "loss"
}
I0128 17:18:01.297670  8866 layer_factory.hpp:76] Creating layer data
I0128 17:18:01.298250  8866 net.cpp:106] Creating Layer data
I0128 17:18:01.298282  8866 net.cpp:411] data -> data
I0128 17:18:01.298336  8866 net.cpp:411] data -> label
I0128 17:18:01.299118  8870 db_lmdb.cpp:38] Opened lmdb /home/old-ufo/datasets/imagenet/ilsvrc12_train_shuffle_lmdb
I0128 17:18:01.375077  8866 data_layer.cpp:41] output data size: 256,3,128,128
I0128 17:18:01.465844  8866 net.cpp:150] Setting up data
I0128 17:18:01.465925  8866 net.cpp:157] Top shape: 256 3 128 128 (12582912)
I0128 17:18:01.465955  8866 net.cpp:157] Top shape: 256 (256)
I0128 17:18:01.465971  8866 net.cpp:165] Memory required for data: 50332672
I0128 17:18:01.465994  8866 layer_factory.hpp:76] Creating layer conv1
I0128 17:18:01.466022  8866 net.cpp:106] Creating Layer conv1
I0128 17:18:01.466039  8866 net.cpp:454] conv1 <- data
I0128 17:18:01.466066  8866 net.cpp:411] conv1 -> conv1
I0128 17:18:02.654881  8866 net.cpp:150] Setting up conv1
I0128 17:18:02.654914  8866 net.cpp:157] Top shape: 256 96 30 30 (22118400)
I0128 17:18:02.654920  8866 net.cpp:165] Memory required for data: 138806272
I0128 17:18:02.654943  8866 layer_factory.hpp:76] Creating layer relu1
I0128 17:18:02.654956  8866 net.cpp:106] Creating Layer relu1
I0128 17:18:02.654961  8866 net.cpp:454] relu1 <- conv1
I0128 17:18:02.654968  8866 net.cpp:411] relu1 -> relu1
I0128 17:18:02.655005  8866 net.cpp:150] Setting up relu1
I0128 17:18:02.655014  8866 net.cpp:157] Top shape: 256 96 30 30 (22118400)
I0128 17:18:02.655017  8866 net.cpp:165] Memory required for data: 227279872
I0128 17:18:02.655022  8866 layer_factory.hpp:76] Creating layer pool1
I0128 17:18:02.655030  8866 net.cpp:106] Creating Layer pool1
I0128 17:18:02.655035  8866 net.cpp:454] pool1 <- relu1
I0128 17:18:02.655040  8866 net.cpp:411] pool1 -> pool1
I0128 17:18:02.657151  8866 net.cpp:150] Setting up pool1
I0128 17:18:02.657177  8866 net.cpp:157] Top shape: 256 96 15 15 (5529600)
I0128 17:18:02.657182  8866 net.cpp:165] Memory required for data: 249398272
I0128 17:18:02.657189  8866 layer_factory.hpp:76] Creating layer conv2
I0128 17:18:02.657205  8866 net.cpp:106] Creating Layer conv2
I0128 17:18:02.657212  8866 net.cpp:454] conv2 <- pool1
I0128 17:18:02.657220  8866 net.cpp:411] conv2 -> conv2
I0128 17:18:02.673506  8866 net.cpp:150] Setting up conv2
I0128 17:18:02.673538  8866 net.cpp:157] Top shape: 256 256 15 15 (14745600)
I0128 17:18:02.673542  8866 net.cpp:165] Memory required for data: 308380672
I0128 17:18:02.673558  8866 layer_factory.hpp:76] Creating layer relu2
I0128 17:18:02.673569  8866 net.cpp:106] Creating Layer relu2
I0128 17:18:02.673574  8866 net.cpp:454] relu2 <- conv2
I0128 17:18:02.673584  8866 net.cpp:411] relu2 -> relu2
I0128 17:18:02.673620  8866 net.cpp:150] Setting up relu2
I0128 17:18:02.673629  8866 net.cpp:157] Top shape: 256 256 15 15 (14745600)
I0128 17:18:02.673634  8866 net.cpp:165] Memory required for data: 367363072
I0128 17:18:02.673636  8866 layer_factory.hpp:76] Creating layer pool2
I0128 17:18:02.673646  8866 net.cpp:106] Creating Layer pool2
I0128 17:18:02.673669  8866 net.cpp:454] pool2 <- relu2
I0128 17:18:02.673677  8866 net.cpp:411] pool2 -> pool2
I0128 17:18:02.674424  8866 net.cpp:150] Setting up pool2
I0128 17:18:02.674438  8866 net.cpp:157] Top shape: 256 256 7 7 (3211264)
I0128 17:18:02.674443  8866 net.cpp:165] Memory required for data: 380208128
I0128 17:18:02.674448  8866 layer_factory.hpp:76] Creating layer conv3
I0128 17:18:02.674460  8866 net.cpp:106] Creating Layer conv3
I0128 17:18:02.674465  8866 net.cpp:454] conv3 <- pool2
I0128 17:18:02.674474  8866 net.cpp:411] conv3 -> conv3
I0128 17:18:02.709857  8866 net.cpp:150] Setting up conv3
I0128 17:18:02.709889  8866 net.cpp:157] Top shape: 256 384 7 7 (4816896)
I0128 17:18:02.709895  8866 net.cpp:165] Memory required for data: 399475712
I0128 17:18:02.709910  8866 layer_factory.hpp:76] Creating layer relu3
I0128 17:18:02.709923  8866 net.cpp:106] Creating Layer relu3
I0128 17:18:02.709929  8866 net.cpp:454] relu3 <- conv3
I0128 17:18:02.709938  8866 net.cpp:411] relu3 -> relu3
I0128 17:18:02.709977  8866 net.cpp:150] Setting up relu3
I0128 17:18:02.709986  8866 net.cpp:157] Top shape: 256 384 7 7 (4816896)
I0128 17:18:02.709990  8866 net.cpp:165] Memory required for data: 418743296
I0128 17:18:02.709995  8866 layer_factory.hpp:76] Creating layer conv4
I0128 17:18:02.710006  8866 net.cpp:106] Creating Layer conv4
I0128 17:18:02.710011  8866 net.cpp:454] conv4 <- relu3
I0128 17:18:02.710018  8866 net.cpp:411] conv4 -> conv4
I0128 17:18:02.739575  8866 net.cpp:150] Setting up conv4
I0128 17:18:02.739605  8866 net.cpp:157] Top shape: 256 384 7 7 (4816896)
I0128 17:18:02.739612  8866 net.cpp:165] Memory required for data: 438010880
I0128 17:18:02.739624  8866 layer_factory.hpp:76] Creating layer relu4
I0128 17:18:02.739641  8866 net.cpp:106] Creating Layer relu4
I0128 17:18:02.739648  8866 net.cpp:454] relu4 <- conv4
I0128 17:18:02.739660  8866 net.cpp:411] relu4 -> relu4
I0128 17:18:02.739693  8866 net.cpp:150] Setting up relu4
I0128 17:18:02.739703  8866 net.cpp:157] Top shape: 256 384 7 7 (4816896)
I0128 17:18:02.739706  8866 net.cpp:165] Memory required for data: 457278464
I0128 17:18:02.739711  8866 layer_factory.hpp:76] Creating layer conv5
I0128 17:18:02.739724  8866 net.cpp:106] Creating Layer conv5
I0128 17:18:02.739729  8866 net.cpp:454] conv5 <- relu4
I0128 17:18:02.739737  8866 net.cpp:411] conv5 -> conv5
I0128 17:18:02.760946  8866 net.cpp:150] Setting up conv5
I0128 17:18:02.760977  8866 net.cpp:157] Top shape: 256 256 7 7 (3211264)
I0128 17:18:02.760982  8866 net.cpp:165] Memory required for data: 470123520
I0128 17:18:02.760999  8866 layer_factory.hpp:76] Creating layer relu5
I0128 17:18:02.761013  8866 net.cpp:106] Creating Layer relu5
I0128 17:18:02.761019  8866 net.cpp:454] relu5 <- conv5
I0128 17:18:02.761028  8866 net.cpp:411] relu5 -> relu5
I0128 17:18:02.761065  8866 net.cpp:150] Setting up relu5
I0128 17:18:02.761075  8866 net.cpp:157] Top shape: 256 256 7 7 (3211264)
I0128 17:18:02.761078  8866 net.cpp:165] Memory required for data: 482968576
I0128 17:18:02.761082  8866 layer_factory.hpp:76] Creating layer pool5
I0128 17:18:02.761090  8866 net.cpp:106] Creating Layer pool5
I0128 17:18:02.761095  8866 net.cpp:454] pool5 <- relu5
I0128 17:18:02.761101  8866 net.cpp:411] pool5 -> pool5
I0128 17:18:02.761922  8866 net.cpp:150] Setting up pool5
I0128 17:18:02.761937  8866 net.cpp:157] Top shape: 256 256 3 3 (589824)
I0128 17:18:02.761941  8866 net.cpp:165] Memory required for data: 485327872
I0128 17:18:02.761945  8866 layer_factory.hpp:76] Creating layer fc6
I0128 17:18:02.761958  8866 net.cpp:106] Creating Layer fc6
I0128 17:18:02.761965  8866 net.cpp:454] fc6 <- pool5
I0128 17:18:02.761971  8866 net.cpp:411] fc6 -> fc6
I0128 17:18:02.933747  8866 net.cpp:150] Setting up fc6
I0128 17:18:02.933778  8866 net.cpp:157] Top shape: 256 2048 3 3 (4718592)
I0128 17:18:02.933782  8866 net.cpp:165] Memory required for data: 504202240
I0128 17:18:02.933795  8866 layer_factory.hpp:76] Creating layer relu6
I0128 17:18:02.933807  8866 net.cpp:106] Creating Layer relu6
I0128 17:18:02.933831  8866 net.cpp:454] relu6 <- fc6
I0128 17:18:02.933842  8866 net.cpp:411] relu6 -> relu6
I0128 17:18:02.933882  8866 net.cpp:150] Setting up relu6
I0128 17:18:02.933893  8866 net.cpp:157] Top shape: 256 2048 3 3 (4718592)
I0128 17:18:02.933897  8866 net.cpp:165] Memory required for data: 523076608
I0128 17:18:02.933902  8866 layer_factory.hpp:76] Creating layer drop6
I0128 17:18:02.933910  8866 net.cpp:106] Creating Layer drop6
I0128 17:18:02.933915  8866 net.cpp:454] drop6 <- relu6
I0128 17:18:02.933923  8866 net.cpp:411] drop6 -> drop6
I0128 17:18:02.933979  8866 net.cpp:150] Setting up drop6
I0128 17:18:02.933987  8866 net.cpp:157] Top shape: 256 2048 3 3 (4718592)
I0128 17:18:02.933991  8866 net.cpp:165] Memory required for data: 541950976
I0128 17:18:02.933995  8866 layer_factory.hpp:76] Creating layer fc7
I0128 17:18:02.934005  8866 net.cpp:106] Creating Layer fc7
I0128 17:18:02.934008  8866 net.cpp:454] fc7 <- drop6
I0128 17:18:02.934016  8866 net.cpp:411] fc7 -> fc7
I0128 17:18:03.090504  8866 net.cpp:150] Setting up fc7
I0128 17:18:03.090539  8866 net.cpp:157] Top shape: 256 2048 3 3 (4718592)
I0128 17:18:03.090545  8866 net.cpp:165] Memory required for data: 560825344
I0128 17:18:03.090559  8866 layer_factory.hpp:76] Creating layer relu7
I0128 17:18:03.090574  8866 net.cpp:106] Creating Layer relu7
I0128 17:18:03.090580  8866 net.cpp:454] relu7 <- fc7
I0128 17:18:03.090590  8866 net.cpp:411] relu7 -> relu7
I0128 17:18:03.090628  8866 net.cpp:150] Setting up relu7
I0128 17:18:03.090639  8866 net.cpp:157] Top shape: 256 2048 3 3 (4718592)
I0128 17:18:03.090643  8866 net.cpp:165] Memory required for data: 579699712
I0128 17:18:03.090647  8866 layer_factory.hpp:76] Creating layer drop7
I0128 17:18:03.090656  8866 net.cpp:106] Creating Layer drop7
I0128 17:18:03.090659  8866 net.cpp:454] drop7 <- relu7
I0128 17:18:03.090667  8866 net.cpp:411] drop7 -> drop7
I0128 17:18:03.090719  8866 net.cpp:150] Setting up drop7
I0128 17:18:03.090728  8866 net.cpp:157] Top shape: 256 2048 3 3 (4718592)
I0128 17:18:03.090730  8866 net.cpp:165] Memory required for data: 598574080
I0128 17:18:03.090734  8866 layer_factory.hpp:76] Creating layer fc8
I0128 17:18:03.090747  8866 net.cpp:106] Creating Layer fc8
I0128 17:18:03.090751  8866 net.cpp:454] fc8 <- drop7
I0128 17:18:03.090759  8866 net.cpp:411] fc8 -> fc8
I0128 17:18:03.169872  8866 net.cpp:150] Setting up fc8
I0128 17:18:03.169909  8866 net.cpp:157] Top shape: 256 1000 3 3 (2304000)
I0128 17:18:03.169915  8866 net.cpp:165] Memory required for data: 607790080
I0128 17:18:03.169927  8866 layer_factory.hpp:76] Creating layer fc8ave
I0128 17:18:03.169941  8866 net.cpp:106] Creating Layer fc8ave
I0128 17:18:03.169947  8866 net.cpp:454] fc8ave <- fc8
I0128 17:18:03.169958  8866 net.cpp:411] fc8ave -> fc8ave
I0128 17:18:03.172122  8866 net.cpp:150] Setting up fc8ave
I0128 17:18:03.172143  8866 net.cpp:157] Top shape: 256 1000 1 1 (256000)
I0128 17:18:03.172147  8866 net.cpp:165] Memory required for data: 608814080
I0128 17:18:03.172152  8866 layer_factory.hpp:76] Creating layer loss
I0128 17:18:03.172164  8866 net.cpp:106] Creating Layer loss
I0128 17:18:03.172169  8866 net.cpp:454] loss <- fc8ave
I0128 17:18:03.172176  8866 net.cpp:454] loss <- label
I0128 17:18:03.172184  8866 net.cpp:411] loss -> loss
I0128 17:18:03.172195  8866 layer_factory.hpp:76] Creating layer loss
…
    phase: TEST
  }
  transform_param {
    scale: 0.04
    mirror: false
    crop_size: 128
    mean_value: 104
    mean_value: 117
    mean_value: 123
    force_color: true
    resize_param {
      prob: 1
      resize_mode: FIT_SMALL_SIZE
      height: 144
      width: 144
      pad_mode: MIRRORED
      pad_value: 104
      pad_value: 117
      pad_value: 124
      interp_mode: CUBIC
      center_object: false
      max_angle: 0
    }
  }
  data_param {
    source: "/home/old-ufo/datasets/imagenet/ilsvrc12_val_lmdb"
    batch_size: 50
    backend: LMDB
  }
}
layer {
  name: "conv1"
  type: "Convolution"
  bottom: "data"
  top: "conv1"
  param {
    lr_mult: 1
    decay_mult: 1
  }
  param {
    lr_mult: 2
    decay_mult: 0
  }
  convolution_param {
    num_output: 96
    kernel_size: 11
    stride: 4
    weight_filler {
      type: "gaussian"
      std: 0.01
    }
    bias_filler {
      type: "constant"
    }
  }
}
layer {
  name: "relu1"
  type: "ELU"
  bottom: "conv1"
  top: "relu1"
  elu_param {
    alpha: 1
  }
}
layer {
  name: "pool1"
  type: "Pooling"
  bottom: "relu1"
  top: "pool1"
  pooling_param {
    pool: MAX
    kernel_size: 3
    stride: 2
  }
}
layer {
  name: "conv2"
  type: "Convolution"
  bottom: "pool1"
  top: "conv2"
  param {
    lr_mult: 1
    decay_mult: 1
  }
  param {
    lr_mult: 2
    decay_mult: 0
  }
  convolution_param {
    num_output: 256
    pad: 2
    kernel_size: 5
    group: 2
    weight_filler {
      type: "gaussian"
      std: 0.01
    }
    bias_filler {
      type: "constant"
    }
  }
}
layer {
  name: "relu2"
  type: "ELU"
  bottom: "conv2"
  top: "relu2"
  elu_param {
    alpha: 1
  }
}
layer {
  name: "pool2"
  type: "Pooling"
  bottom: "relu2"
  top: "pool2"
  pooling_param {
    pool: MAX
    kernel_size: 3
    stride: 2
  }
}
layer {
  name: "conv3"
  type: "Convolution"
  bottom: "pool2"
  top: "conv3"
  param {
    lr_mult: 1
    decay_mult: 1
  }
  param {
    lr_mult: 2
    decay_mult: 0
  }
  convolution_param {
    num_output: 384
    pad: 1
    kernel_size: 3
    weight_filler {
      type: "gaussian"
      std: 0.01
    }
    bias_filler {
      type: "constant"
    }
  }
}
layer {
  name: "relu3"
  type: "ELU"
  bottom: "conv3"
  top: "relu3"
  elu_param {
    alpha: 1
  }
}
layer {
  name: "conv4"
  type: "Convolution"
  bottom: "relu3"
  top: "conv4"
  param {
    lr_mult: 1
    decay_mult: 1
  }
  param {
    lr_mult: 2
    decay_mult: 0
  }
  convolution_param {
    num_output: 384
    pad: 1
    kernel_size: 3
    group: 2
    weight_filler {
      type: "gaussian"
      std: 0.01
    }
    bias_filler {
      type: "constant"
    }
  }
}
layer {
  name: "relu4"
  type: "ELU"
  bottom: "conv4"
  top: "relu4"
  elu_param {
    alpha: 1
  }
}
layer {
  name: "conv5"
  type: "Convolution"
  bottom: "relu4"
  top: "conv5"
  param {
    lr_mult: 1
    decay_mult: 1
  }
  param {
    lr_mult: 2
    decay_mult: 0
  }
  convolution_param {
    num_output: 256
    pad: 1
    kernel_size: 3
    group: 2
    weight_filler {
      type: "gaussian"
      std: 0.01
    }
    bias_filler {
      type: "constant"
    }
  }
}
layer {
  name: "relu5"
  type: "ELU"
  bottom: "conv5"
  top: "relu5"
  elu_param {
    alpha: 1
  }
}
layer {
  name: "pool5"
  type: "Pooling"
  bottom: "relu5"
  top: "pool5"
  pooling_param {
    pool: MAX
    kernel_size: 3
    stride: 2
  }
}
layer {
  name: "fc6"
  type: "Convolution"
  bottom: "pool5"
  top: "fc6"
  param {
    lr_mult: 1
    decay_mult: 1
  }
  param {
    lr_mult: 2
    decay_mult: 0
  }
  convolution_param {
    num_output: 2048
    pad: 1
    kernel_size: 3
    weight_filler {
      type: "gaussian"
      std: 0.01
    }
    bias_filler {
      type: "constant"
    }
  }
}
layer {
  name: "relu6"
  type: "ELU"
  bottom: "fc6"
  top: "relu6"
  elu_param {
    alpha: 1
  }
}
layer {
  name: "drop6"
  type: "Dropout"
  bottom: "relu6"
  top: "drop6"
  dropout_param {
    dropout_ratio: 0.5
  }
}
layer {
  name: "fc7"
  type: "Convolution"
  bottom: "drop6"
  top: "fc7"
  param {
    lr_mult: 1
    decay_mult: 1
  }
  param {
    lr_mult: 2
    decay_mult: 0
  }
  convolution_param {
    num_output: 2048
    kernel_size: 1
    weight_filler {
      type: "gaussian"
      std: 0.01
    }
    bias_filler {
      type: "constant"
    }
  }
}
layer {
  name: "relu7"
  type: "ELU"
  bottom: "fc7"
  top: "relu7"
  elu_param {
    alpha: 1
  }
}
layer {
  name: "drop7"
  type: "Dropout"
  bottom: "relu7"
  top: "drop7"
  dropout_param {
    dropout_ratio: 0.5
  }
}
layer {
  name: "fc8"
  type: "Convolution"
  bottom: "drop7"
  top: "fc8"
  param {
    lr_mult: 1
    decay_mult: 1
  }
  param {
    lr_mult: 2
    decay_mult: 0
  }
  convolution_param {
    num_output: 1000
    kernel_size: 1
    weight_filler {
      type: "gaussian"
      std: 0.01
    }
    bias_filler {
      type: "constant"
    }
  }
}
layer {
  name: "fc8ave"
  type: "Pooling"
  bottom: "fc8"
  top: "fc8ave"
  pooling_param {
    pool: AVE
    global_pooling: true
  }
}
layer {
  name: "accuracy"
  type: "Accuracy"
  bottom: "fc8ave"
  bottom: "label"
  top: "accuracy"
  include {
    phase: TEST
  }
}
layer {
  name: "loss"
  type: "SoftmaxWithLoss"
  bottom: "fc8ave"
  bottom: "label"
  top: "loss"
}
I0128 17:18:03.176126  8866 layer_factory.hpp:76] Creating layer data
I0128 17:18:03.176215  8866 net.cpp:106] Creating Layer data
I0128 17:18:03.176224  8866 net.cpp:411] data -> data
I0128 17:18:03.176234  8866 net.cpp:411] data -> label
I0128 17:18:03.177621  8879 db_lmdb.cpp:38] Opened lmdb /home/old-ufo/datasets/imagenet/ilsvrc12_val_lmdb
I0128 17:18:03.183449  8866 data_layer.cpp:41] output data size: 50,3,128,128
I0128 17:18:03.244485  8866 net.cpp:150] Setting up data
I0128 17:18:03.244525  8866 net.cpp:157] Top shape: 50 3 128 128 (2457600)
I0128 17:18:03.244537  8866 net.cpp:157] Top shape: 50 (50)
I0128 17:18:03.244542  8866 net.cpp:165] Memory required for data: 9830600
I0128 17:18:03.244551  8866 layer_factory.hpp:76] Creating layer label_data_1_split
I0128 17:18:03.244575  8866 net.cpp:106] Creating Layer label_data_1_split
I0128 17:18:03.244583  8866 net.cpp:454] label_data_1_split <- label
I0128 17:18:03.244593  8866 net.cpp:411] label_data_1_split -> label_data_1_split_0
I0128 17:18:03.244607  8866 net.cpp:411] label_data_1_split -> label_data_1_split_1
I0128 17:18:03.244822  8866 net.cpp:150] Setting up label_data_1_split
I0128 17:18:03.244855  8866 net.cpp:157] Top shape: 50 (50)
I0128 17:18:03.244861  8866 net.cpp:157] Top shape: 50 (50)
I0128 17:18:03.244865  8866 net.cpp:165] Memory required for data: 9831000
I0128 17:18:03.244869  8866 layer_factory.hpp:76] Creating layer conv1
I0128 17:18:03.244884  8866 net.cpp:106] Creating Layer conv1
I0128 17:18:03.244887  8866 net.cpp:454] conv1 <- data
I0128 17:18:03.244894  8866 net.cpp:411] conv1 -> conv1
I0128 17:18:03.267767  8866 net.cpp:150] Setting up conv1
I0128 17:18:03.267797  8866 net.cpp:157] Top shape: 50 96 30 30 (4320000)
I0128 17:18:03.267802  8866 net.cpp:165] Memory required for data: 27111000
I0128 17:18:03.267817  8866 layer_factory.hpp:76] Creating layer relu1
I0128 17:18:03.267827  8866 net.cpp:106] Creating Layer relu1
I0128 17:18:03.267832  8866 net.cpp:454] relu1 <- conv1
I0128 17:18:03.267841  8866 net.cpp:411] relu1 -> relu1
I0128 17:18:03.267879  8866 net.cpp:150] Setting up relu1
I0128 17:18:03.267884  8866 net.cpp:157] Top shape: 50 96 30 30 (4320000)
I0128 17:18:03.267887  8866 net.cpp:165] Memory required for data: 44391000
I0128 17:18:03.267891  8866 layer_factory.hpp:76] Creating layer pool1
I0128 17:18:03.267899  8866 net.cpp:106] Creating Layer pool1
I0128 17:18:03.267902  8866 net.cpp:454] pool1 <- relu1
I0128 17:18:03.267910  8866 net.cpp:411] pool1 -> pool1
I0128 17:18:03.271467  8866 net.cpp:150] Setting up pool1
I0128 17:18:03.271491  8866 net.cpp:157] Top shape: 50 96 15 15 (1080000)
I0128 17:18:03.271495  8866 net.cpp:165] Memory required for data: 48711000
I0128 17:18:03.271502  8866 layer_factory.hpp:76] Creating layer conv2
I0128 17:18:03.271518  8866 net.cpp:106] Creating Layer conv2
I0128 17:18:03.271522  8866 net.cpp:454] conv2 <- pool1
I0128 17:18:03.271533  8866 net.cpp:411] conv2 -> conv2
I0128 17:18:03.298663  8866 net.cpp:150] Setting up conv2
I0128 17:18:03.298694  8866 net.cpp:157] Top shape: 50 256 15 15 (2880000)
I0128 17:18:03.298699  8866 net.cpp:165] Memory required for data: 60231000
I0128 17:18:03.298714  8866 layer_factory.hpp:76] Creating layer relu2
I0128 17:18:03.298725  8866 net.cpp:106] Creating Layer relu2
I0128 17:18:03.298730  8866 net.cpp:454] relu2 <- conv2
I0128 17:18:03.298744  8866 net.cpp:411] relu2 -> relu2
I0128 17:18:03.298786  8866 net.cpp:150] Setting up relu2
I0128 17:18:03.298794  8866 net.cpp:157] Top shape: 50 256 15 15 (2880000)
I0128 17:18:03.298797  8866 net.cpp:165] Memory required for data: 71751000
I0128 17:18:03.298801  8866 layer_factory.hpp:76] Creating layer pool2
I0128 17:18:03.298810  8866 net.cpp:106] Creating Layer pool2
I0128 17:18:03.298815  8866 net.cpp:454] pool2 <- relu2
I0128 17:18:03.298821  8866 net.cpp:411] pool2 -> pool2
I0128 17:18:03.299729  8866 net.cpp:150] Setting up pool2
I0128 17:18:03.299747  8866 net.cpp:157] Top shape: 50 256 7 7 (627200)
I0128 17:18:03.299751  8866 net.cpp:165] Memory required for data: 74259800
I0128 17:18:03.299757  8866 layer_factory.hpp:76] Creating layer conv3
I0128 17:18:03.299772  8866 net.cpp:106] Creating Layer conv3
I0128 17:18:03.299777  8866 net.cpp:454] conv3 <- pool2
I0128 17:18:03.299784  8866 net.cpp:411] conv3 -> conv3
I0128 17:18:03.346860  8866 net.cpp:150] Setting up conv3
I0128 17:18:03.346899  8866 net.cpp:157] Top shape: 50 384 7 7 (940800)
I0128 17:18:03.346906  8866 net.cpp:165] Memory required for data: 78023000
I0128 17:18:03.346922  8866 layer_factory.hpp:76] Creating layer relu3
I0128 17:18:03.346935  8866 net.cpp:106] Creating Layer relu3
I0128 17:18:03.346941  8866 net.cpp:454] relu3 <- conv3
I0128 17:18:03.346951  8866 net.cpp:411] relu3 -> relu3
I0128 17:18:03.346999  8866 net.cpp:150] Setting up relu3
I0128 17:18:03.347007  8866 net.cpp:157] Top shape: 50 384 7 7 (940800)
I0128 17:18:03.347010  8866 net.cpp:165] Memory required for data: 81786200
I0128 17:18:03.347014  8866 layer_factory.hpp:76] Creating layer conv4
I0128 17:18:03.347026  8866 net.cpp:106] Creating Layer conv4
I0128 17:18:03.347030  8866 net.cpp:454] conv4 <- relu3
I0128 17:18:03.347038  8866 net.cpp:411] conv4 -> conv4
I0128 17:18:03.389005  8866 net.cpp:150] Setting up conv4
I0128 17:18:03.389041  8866 net.cpp:157] Top shape: 50 384 7 7 (940800)
I0128 17:18:03.389047  8866 net.cpp:165] Memory required for data: 85549400
I0128 17:18:03.389060  8866 layer_factory.hpp:76] Creating layer relu4
I0128 17:18:03.389070  8866 net.cpp:106] Creating Layer relu4
I0128 17:18:03.389075  8866 net.cpp:454] relu4 <- conv4
I0128 17:18:03.389086  8866 net.cpp:411] relu4 -> relu4
I0128 17:18:03.389129  8866 net.cpp:150] Setting up relu4
I0128 17:18:03.389137  8866 net.cpp:157] Top shape: 50 384 7 7 (940800)
I0128 17:18:03.389140  8866 net.cpp:165] Memory required for data: 89312600
I0128 17:18:03.389144  8866 layer_factory.hpp:76] Creating layer conv5
I0128 17:18:03.389156  8866 net.cpp:106] Creating Layer conv5
I0128 17:18:03.389160  8866 net.cpp:454] conv5 <- relu4
I0128 17:18:03.389168  8866 net.cpp:411] conv5 -> conv5
I0128 17:18:03.440860  8866 net.cpp:150] Setting up conv5
I0128 17:18:03.440893  8866 net.cpp:157] Top shape: 50 256 7 7 (627200)
I0128 17:18:03.440901  8866 net.cpp:165] Memory required for data: 91821400
I0128 17:18:03.440917  8866 layer_factory.hpp:76] Creating layer relu5
I0128 17:18:03.440928  8866 net.cpp:106] Creating Layer relu5
I0128 17:18:03.440933  8866 net.cpp:454] relu5 <- conv5
I0128 17:18:03.440943  8866 net.cpp:411] relu5 -> relu5
I0128 17:18:03.440985  8866 net.cpp:150] Setting up relu5
I0128 17:18:03.440992  8866 net.cpp:157] Top shape: 50 256 7 7 (627200)
I0128 17:18:03.440996  8866 net.cpp:165] Memory required for data: 94330200
I0128 17:18:03.441000  8866 layer_factory.hpp:76] Creating layer pool5
I0128 17:18:03.441010  8866 net.cpp:106] Creating Layer pool5
I0128 17:18:03.441015  8866 net.cpp:454] pool5 <- relu5
I0128 17:18:03.441020  8866 net.cpp:411] pool5 -> pool5
I0128 17:18:03.441931  8866 net.cpp:150] Setting up pool5
I0128 17:18:03.441943  8866 net.cpp:157] Top shape: 50 256 3 3 (115200)
I0128 17:18:03.441947  8866 net.cpp:165] Memory required for data: 94791000
I0128 17:18:03.441951  8866 layer_factory.hpp:76] Creating layer fc6
I0128 17:18:03.441964  8866 net.cpp:106] Creating Layer fc6
I0128 17:18:03.441968  8866 net.cpp:454] fc6 <- pool5
I0128 17:18:03.441977  8866 net.cpp:411] fc6 -> fc6
I0128 17:18:03.706109  8866 net.cpp:150] Setting up fc6
I0128 17:18:03.706140  8866 net.cpp:157] Top shape: 50 2048 3 3 (921600)
I0128 17:18:03.706146  8866 net.cpp:165] Memory required for data: 98477400
I0128 17:18:03.706157  8866 layer_factory.hpp:76] Creating layer relu6
I0128 17:18:03.706169  8866 net.cpp:106] Creating Layer relu6
I0128 17:18:03.706174  8866 net.cpp:454] relu6 <- fc6
I0128 17:18:03.706185  8866 net.cpp:411] relu6 -> relu6
I0128 17:18:03.706226  8866 net.cpp:150] Setting up relu6
I0128 17:18:03.706235  8866 net.cpp:157] Top shape: 50 2048 3 3 (921600)
I0128 17:18:03.706239  8866 net.cpp:165] Memory required for data: 102163800
I0128 17:18:03.706243  8866 layer_factory.hpp:76] Creating layer drop6
I0128 17:18:03.706249  8866 net.cpp:106] Creating Layer drop6
I0128 17:18:03.706254  8866 net.cpp:454] drop6 <- relu6
I0128 17:18:03.706259  8866 net.cpp:411] drop6 -> drop6
I0128 17:18:03.706313  8866 net.cpp:150] Setting up drop6
I0128 17:18:03.706320  8866 net.cpp:157] Top shape: 50 2048 3 3 (921600)
I0128 17:18:03.706323  8866 net.cpp:165] Memory required for data: 105850200
I0128 17:18:03.706326  8866 layer_factory.hpp:76] Creating layer fc7
I0128 17:18:03.706338  8866 net.cpp:106] Creating Layer fc7
I0128 17:18:03.706342  8866 net.cpp:454] fc7 <- drop6
I0128 17:18:03.706349  8866 net.cpp:411] fc7 -> fc7
I0128 17:18:03.981047  8866 net.cpp:150] Setting up fc7
I0128 17:18:03.981262  8866 net.cpp:157] Top shape: 50 2048 3 3 (921600)
I0128 17:18:03.981292  8866 net.cpp:165] Memory required for data: 109536600
I0128 17:18:03.981323  8866 layer_factory.hpp:76] Creating layer relu7
I0128 17:18:03.981348  8866 net.cpp:106] Creating Layer relu7
I0128 17:18:03.981379  8866 net.cpp:454] relu7 <- fc7
I0128 17:18:03.981401  8866 net.cpp:411] relu7 -> relu7
I0128 17:18:03.981468  8866 net.cpp:150] Setting up relu7
I0128 17:18:03.981504  8866 net.cpp:157] Top shape: 50 2048 3 3 (921600)
I0128 17:18:03.981518  8866 net.cpp:165] Memory required for data: 113223000
I0128 17:18:03.981533  8866 layer_factory.hpp:76] Creating layer drop7
I0128 17:18:03.981549  8866 net.cpp:106] Creating Layer drop7
I0128 17:18:03.981566  8866 net.cpp:454] drop7 <- relu7
I0128 17:18:03.981582  8866 net.cpp:411] drop7 -> drop7
I0128 17:18:03.981663  8866 net.cpp:150] Setting up drop7
I0128 17:18:03.981685  8866 net.cpp:157] Top shape: 50 2048 3 3 (921600)
I0128 17:18:03.981709  8866 net.cpp:165] Memory required for data: 116909400
I0128 17:18:03.981725  8866 layer_factory.hpp:76] Creating layer fc8
I0128 17:18:03.981746  8866 net.cpp:106] Creating Layer fc8
I0128 17:18:03.981761  8866 net.cpp:454] fc8 <- drop7
I0128 17:18:03.981778  8866 net.cpp:411] fc8 -> fc8
I0128 17:18:04.063431  8866 net.cpp:150] Setting up fc8
I0128 17:18:04.063506  8866 net.cpp:157] Top shape: 50 1000 3 3 (450000)
I0128 17:18:04.063530  8866 net.cpp:165] Memory required for data: 118709400
I0128 17:18:04.063560  8866 layer_factory.hpp:76] Creating layer fc8ave
I0128 17:18:04.063585  8866 net.cpp:106] Creating Layer fc8ave
I0128 17:18:04.063602  8866 net.cpp:454] fc8ave <- fc8
I0128 17:18:04.063624  8866 net.cpp:411] fc8ave -> fc8ave
I0128 17:18:04.065500  8866 net.cpp:150] Setting up fc8ave
I0128 17:18:04.065649  8866 net.cpp:157] Top shape: 50 1000 1 1 (50000)
I0128 17:18:04.065670  8866 net.cpp:165] Memory required for data: 118909400
I0128 17:18:04.065731  8866 layer_factory.hpp:76] Creating layer fc8ave_fc8ave_0_split
I0128 17:18:04.065757  8866 net.cpp:106] Creating Layer fc8ave_fc8ave_0_split
I0128 17:18:04.065783  8866 net.cpp:454] fc8ave_fc8ave_0_split <- fc8ave
I0128 17:18:04.065805  8866 net.cpp:411] fc8ave_fc8ave_0_split -> fc8ave_fc8ave_0_split_0
I0128 17:18:04.065829  8866 net.cpp:411] fc8ave_fc8ave_0_split -> fc8ave_fc8ave_0_split_1
I0128 17:18:04.065932  8866 net.cpp:150] Setting up fc8ave_fc8ave_0_split
I0128 17:18:04.065953  8866 net.cpp:157] Top shape: 50 1000 1 1 (50000)
I0128 17:18:04.065968  8866 net.cpp:157] Top shape: 50 1000 1 1 (50000)
I0128 17:18:04.065982  8866 net.cpp:165] Memory required for data: 119309400
I0128 17:18:04.065999  8866 layer_factory.hpp:76] Creating layer accuracy
I0128 17:18:04.066030  8866 net.cpp:106] Creating Layer accuracy
I0128 17:18:04.066050  8866 net.cpp:454] accuracy <- fc8ave_fc8ave_0_split_0
I0128 17:18:04.066064  8866 net.cpp:454] accuracy <- label_data_1_split_0
I0128 17:18:04.066082  8866 net.cpp:411] accuracy -> accuracy
…
