…
      crop_size: 224
      mean_value: 104
      mean_value: 117
      mean_value: 123
      force_color: true
      resize_param {
        prob: 1
        resize_mode: FIT_SMALL_SIZE
        height: 256
        width: 256
        pad_mode: MIRRORED
        pad_value: 104
        pad_value: 117
        pad_value: 124
        interp_mode: CUBIC
        center_object: false
        max_angle: 0
      }
    }
    data_param {
      source: "/home/share/storage/datasets/imagenet/lmdb/ilsvrc12_val_lmdb"
      batch_size: 250
      backend: LMDB
    }
  }
  layer {
    name: "conv1"
    type: "Convolution"
    bottom: "data"
    top: "conv1"
    param {
      lr_mult: 1
      decay_mult: 1
    }
    param {
      lr_mult: 2
      decay_mult: 0
    }
    convolution_param {
      num_output: 96
      kernel_size: 11
      stride: 8
      weight_filler {
        type: "gaussian"
        std: 0.01
      }
      bias_filler {
        type: "constant"
      }
    }
  }
  layer {
    name: "relu1"
    type: "ReLU"
    bottom: "conv1"
    top: "conv1"
    relu_param {
      negative_slope: 0
    }
  }
  layer {
    name: "pool1"
    type: "Pooling"
    bottom: "conv1"
    top: "pool1"
    pooling_param {
      pool: MAX
      kernel_size: 3
      stride: 2
    }
  }
  layer {
    name: "conv2"
    type: "Convolution"
    bottom: "pool1"
    top: "conv2"
    param {
      lr_mult: 1
      decay_mult: 1
    }
    param {
      lr_mult: 2
      decay_mult: 0
    }
    convolution_param {
      num_output: 256
      pad: 2
      kernel_size: 5
      group: 2
      weight_filler {
        type: "gaussian"
        std: 0.01
      }
      bias_filler {
        type: "constant"
      }
    }
  }
  layer {
    name: "relu2"
    type: "ReLU"
    bottom: "conv2"
    top: "conv2"
    relu_param {
      negative_slope: 0
    }
  }
  layer {
    name: "pool2"
    type: "Pooling"
    bottom: "conv2"
    top: "pool2"
    pooling_param {
      pool: MAX
      kernel_size: 3
      stride: 2
    }
  }
  layer {
    name: "conv3"
    type: "Convolution"
    bottom: "pool2"
    top: "conv3"
    param {
      lr_mult: 1
      decay_mult: 1
    }
    param {
      lr_mult: 2
      decay_mult: 0
    }
    convolution_param {
      num_output: 384
      pad: 1
      kernel_size: 3
      weight_filler {
        type: "gaussian"
        std: 0.01
      }
      bias_filler {
        type: "constant"
      }
    }
  }
  layer {
    name: "relu3"
    type: "ReLU"
    bottom: "conv3"
    top: "conv3"
    relu_param {
      negative_slope: 0
    }
  }
  layer {
    name: "conv4"
    type: "Convolution"
    bottom: "conv3"
    top: "conv4"
    param {
      lr_mult: 1
      decay_mult: 1
    }
    param {
      lr_mult: 2
      decay_mult: 0
    }
    convolution_param {
      num_output: 384
      pad: 1
      kernel_size: 3
      group: 2
      weight_filler {
        type: "gaussian"
        std: 0.01
      }
      bias_filler {
        type: "constant"
      }
    }
  }
  layer {
    name: "relu4"
    type: "ReLU"
    bottom: "conv4"
    top: "conv4"
    relu_param {
      negative_slope: 0
    }
  }
  layer {
    name: "conv5"
    type: "Convolution"
    bottom: "conv4"
    top: "conv5"
    param {
      lr_mult: 1
      decay_mult: 1
    }
    param {
      lr_mult: 2
      decay_mult: 0
    }
    convolution_param {
      num_output: 256
      pad: 1
      kernel_size: 3
      group: 2
      weight_filler {
        type: "gaussian"
        std: 0.01
      }
      bias_filler {
        type: "constant"
      }
    }
  }
  layer {
    name: "relu5"
    type: "ReLU"
    bottom: "conv5"
    top: "conv5"
    relu_param {
      negative_slope: 0
    }
  }
  layer {
    name: "pool5"
    type: "Pooling"
    bottom: "conv5"
    top: "pool5"
    pooling_param {
      pool: MAX
      kernel_size: 3
      stride: 2
    }
  }
  layer {
    name: "fc6"
    type: "InnerProduct"
    bottom: "pool5"
    top: "fc6"
    param {
      lr_mult: 1
      decay_mult: 1
    }
    param {
      lr_mult: 2
      decay_mult: 0
    }
    inner_product_param {
      num_output: 2048
      weight_filler {
        type: "gaussian"
        std: 0.005
      }
      bias_filler {
        type: "constant"
      }
    }
  }
  layer {
    name: "relu6"
    type: "ReLU"
    bottom: "fc6"
    top: "fc6"
    relu_param {
      negative_slope: 0
    }
  }
  layer {
    name: "drop6"
    type: "Dropout"
    bottom: "fc6"
    top: "fc6"
    dropout_param {
      dropout_ratio: 0.5
    }
  }
  layer {
    name: "fc7"
    type: "InnerProduct"
    bottom: "fc6"
    top: "fc7"
    param {
      lr_mult: 1
      decay_mult: 1
    }
    param {
      lr_mult: 2
      decay_mult: 0
    }
    inner_product_param {
      num_output: 2048
      weight_filler {
        type: "gaussian"
        std: 0.005
      }
      bias_filler {
        type: "constant"
      }
    }
  }
  layer {
    name: "relu7"
    type: "ReLU"
    bottom: "fc7"
    top: "fc7"
    relu_param {
      negative_slope: 0
    }
  }
  layer {
    name: "drop7"
    type: "Dropout"
    bottom: "fc7"
    top: "fc7"
    dropout_param {
      dropout_ratio: 0.5
    }
  }
  layer {
    name: "fc8"
    type: "InnerProduct"
    bottom: "fc7"
    top: "fc8"
    param {
      lr_mult: 1
      decay_mult: 1
    }
    param {
      lr_mult: 2
      decay_mult: 0
    }
    inner_product_param {
      num_output: 1000
      weight_filler {
        type: "gaussian"
        std: 0.01
      }
      bias_filler {
        type: "constant"
      }
    }
  }
  layer {
    name: "accuracy"
    type: "Accuracy"
    bottom: "fc8"
    bottom: "label"
    top: "accuracy"
    include {
      phase: TEST
    }
  }
  layer {
    name: "loss"
    type: "SoftmaxWithLoss"
    bottom: "fc8"
    bottom: "label"
    top: "loss"
  }
}
test_initialization: false
iter_size: 1
type: "SGD"
I0102 13:17:23.759098 17634 solver.cpp:86] Creating training net specified in net_param.
I0102 13:17:23.759208 17634 net.cpp:322] The NetState phase (0) differed from the phase (1) specified by a rule in layer data
I0102 13:17:23.759232 17634 net.cpp:322] The NetState phase (0) differed from the phase (1) specified by a rule in layer accuracy
I0102 13:17:23.759356 17634 net.cpp:49] Initializing net from parameters: 
name: "CaffeNet"
state {
  phase: TRAIN
}
layer {
  name: "data"
  type: "Data"
  top: "data"
  top: "label"
  include {
    phase: TRAIN
  }
  transform_param {
    scale: 0.04
    mirror: true
    crop_size: 224
    mean_value: 104
    mean_value: 117
    mean_value: 124
    force_color: true
    resize_param {
      prob: 1
      resize_mode: FIT_SMALL_SIZE
      height: 256
      width: 256
      pad_mode: MIRRORED
      pad_value: 104
      pad_value: 117
      pad_value: 124
      interp_mode: CUBIC
      center_object: false
      max_angle: 0
    }
  }
  data_param {
    source: "/home/share/storage/datasets/imagenet/lmdb/ilsvrc12_train_lmdb"
    batch_size: 256
    backend: LMDB
  }
}
layer {
  name: "conv1"
  type: "Convolution"
  bottom: "data"
  top: "conv1"
  param {
    lr_mult: 1
    decay_mult: 1
  }
  param {
    lr_mult: 2
    decay_mult: 0
  }
  convolution_param {
    num_output: 96
    kernel_size: 11
    stride: 8
    weight_filler {
      type: "gaussian"
      std: 0.01
    }
    bias_filler {
      type: "constant"
    }
  }
}
layer {
  name: "relu1"
  type: "ReLU"
  bottom: "conv1"
  top: "conv1"
  relu_param {
    negative_slope: 0
  }
}
layer {
  name: "pool1"
  type: "Pooling"
  bottom: "conv1"
  top: "pool1"
  pooling_param {
    pool: MAX
    kernel_size: 3
    stride: 2
  }
}
layer {
  name: "conv2"
  type: "Convolution"
  bottom: "pool1"
  top: "conv2"
  param {
    lr_mult: 1
    decay_mult: 1
  }
  param {
    lr_mult: 2
    decay_mult: 0
  }
  convolution_param {
    num_output: 256
    pad: 2
    kernel_size: 5
    group: 2
    weight_filler {
      type: "gaussian"
      std: 0.01
    }
    bias_filler {
      type: "constant"
    }
  }
}
layer {
  name: "relu2"
  type: "ReLU"
  bottom: "conv2"
  top: "conv2"
  relu_param {
    negative_slope: 0
  }
}
layer {
  name: "pool2"
  type: "Pooling"
  bottom: "conv2"
  top: "pool2"
  pooling_param {
    pool: MAX
    kernel_size: 3
    stride: 2
  }
}
layer {
  name: "conv3"
  type: "Convolution"
  bottom: "pool2"
  top: "conv3"
  param {
    lr_mult: 1
    decay_mult: 1
  }
  param {
    lr_mult: 2
    decay_mult: 0
  }
  convolution_param {
    num_output: 384
    pad: 1
    kernel_size: 3
    weight_filler {
      type: "gaussian"
      std: 0.01
    }
    bias_filler {
      type: "constant"
    }
  }
}
layer {
  name: "relu3"
  type: "ReLU"
  bottom: "conv3"
  top: "conv3"
  relu_param {
    negative_slope: 0
  }
}
layer {
  name: "conv4"
  type: "Convolution"
  bottom: "conv3"
  top: "conv4"
  param {
    lr_mult: 1
    decay_mult: 1
  }
  param {
    lr_mult: 2
    decay_mult: 0
  }
  convolution_param {
    num_output: 384
    pad: 1
    kernel_size: 3
    group: 2
    weight_filler {
      type: "gaussian"
      std: 0.01
    }
    bias_filler {
      type: "constant"
    }
  }
}
layer {
  name: "relu4"
  type: "ReLU"
  bottom: "conv4"
  top: "conv4"
  relu_param {
    negative_slope: 0
  }
}
layer {
  name: "conv5"
  type: "Convolution"
  bottom: "conv4"
  top: "conv5"
  param {
    lr_mult: 1
    decay_mult: 1
  }
  param {
    lr_mult: 2
    decay_mult: 0
  }
  convolution_param {
    num_output: 256
    pad: 1
    kernel_size: 3
    group: 2
    weight_filler {
      type: "gaussian"
      std: 0.01
    }
    bias_filler {
      type: "constant"
    }
  }
}
layer {
  name: "relu5"
  type: "ReLU"
  bottom: "conv5"
  top: "conv5"
  relu_param {
    negative_slope: 0
  }
}
layer {
  name: "pool5"
  type: "Pooling"
  bottom: "conv5"
  top: "pool5"
  pooling_param {
    pool: MAX
    kernel_size: 3
    stride: 2
  }
}
layer {
  name: "fc6"
  type: "InnerProduct"
  bottom: "pool5"
  top: "fc6"
  param {
    lr_mult: 1
    decay_mult: 1
  }
  param {
    lr_mult: 2
    decay_mult: 0
  }
  inner_product_param {
    num_output: 2048
    weight_filler {
      type: "gaussian"
      std: 0.005
    }
    bias_filler {
      type: "constant"
    }
  }
}
layer {
  name: "relu6"
  type: "ReLU"
  bottom: "fc6"
  top: "fc6"
  relu_param {
    negative_slope: 0
  }
}
layer {
  name: "drop6"
  type: "Dropout"
  bottom: "fc6"
  top: "fc6"
  dropout_param {
    dropout_ratio: 0.5
  }
}
layer {
  name: "fc7"
  type: "InnerProduct"
  bottom: "fc6"
  top: "fc7"
  param {
    lr_mult: 1
    decay_mult: 1
  }
  param {
    lr_mult: 2
    decay_mult: 0
  }
  inner_product_param {
    num_output: 2048
    weight_filler {
      type: "gaussian"
      std: 0.005
    }
    bias_filler {
      type: "constant"
    }
  }
}
layer {
  name: "relu7"
  type: "ReLU"
  bottom: "fc7"
  top: "fc7"
  relu_param {
    negative_slope: 0
  }
}
layer {
  name: "drop7"
  type: "Dropout"
  bottom: "fc7"
  top: "fc7"
  dropout_param {
    dropout_ratio: 0.5
  }
}
layer {
  name: "fc8"
  type: "InnerProduct"
  bottom: "fc7"
  top: "fc8"
  param {
    lr_mult: 1
    decay_mult: 1
  }
  param {
    lr_mult: 2
    decay_mult: 0
  }
  inner_product_param {
    num_output: 1000
    weight_filler {
      type: "gaussian"
      std: 0.01
    }
    bias_filler {
      type: "constant"
    }
  }
}
layer {
  name: "loss"
  type: "SoftmaxWithLoss"
  bottom: "fc8"
  bottom: "label"
  top: "loss"
}
I0102 13:17:23.759464 17634 layer_factory.hpp:76] Creating layer data
I0102 13:17:23.759995 17634 net.cpp:106] Creating Layer data
I0102 13:17:23.760023 17634 net.cpp:411] data -> data
I0102 13:17:23.760072 17634 net.cpp:411] data -> label
I0102 13:17:23.760746 17638 db_lmdb.cpp:38] Opened lmdb /home/share/storage/datasets/imagenet/lmdb/ilsvrc12_train_lmdb
I0102 13:17:23.770233 17634 data_layer.cpp:41] output data size: 256,3,224,224
I0102 13:17:23.986906 17634 net.cpp:150] Setting up data
I0102 13:17:23.986942 17634 net.cpp:157] Top shape: 256 3 224 224 (38535168)
I0102 13:17:23.986945 17634 net.cpp:157] Top shape: 256 (256)
I0102 13:17:23.986948 17634 net.cpp:165] Memory required for data: 154141696
I0102 13:17:23.986954 17634 layer_factory.hpp:76] Creating layer conv1
I0102 13:17:23.986979 17634 net.cpp:106] Creating Layer conv1
I0102 13:17:23.986984 17634 net.cpp:454] conv1 <- data
I0102 13:17:23.986996 17634 net.cpp:411] conv1 -> conv1
I0102 13:17:24.136124 17634 net.cpp:150] Setting up conv1
I0102 13:17:24.136157 17634 net.cpp:157] Top shape: 256 96 27 27 (17915904)
I0102 13:17:24.136159 17634 net.cpp:165] Memory required for data: 225805312
I0102 13:17:24.136174 17634 layer_factory.hpp:76] Creating layer relu1
I0102 13:17:24.136193 17634 net.cpp:106] Creating Layer relu1
I0102 13:17:24.136196 17634 net.cpp:454] relu1 <- conv1
I0102 13:17:24.136200 17634 net.cpp:397] relu1 -> conv1 (in-place)
I0102 13:17:24.136350 17634 net.cpp:150] Setting up relu1
I0102 13:17:24.136358 17634 net.cpp:157] Top shape: 256 96 27 27 (17915904)
I0102 13:17:24.136368 17634 net.cpp:165] Memory required for data: 297468928
I0102 13:17:24.136370 17634 layer_factory.hpp:76] Creating layer pool1
I0102 13:17:24.136375 17634 net.cpp:106] Creating Layer pool1
I0102 13:17:24.136378 17634 net.cpp:454] pool1 <- conv1
I0102 13:17:24.136380 17634 net.cpp:411] pool1 -> pool1
I0102 13:17:24.136665 17634 net.cpp:150] Setting up pool1
I0102 13:17:24.136673 17634 net.cpp:157] Top shape: 256 96 13 13 (4153344)
I0102 13:17:24.136684 17634 net.cpp:165] Memory required for data: 314082304
I0102 13:17:24.136687 17634 layer_factory.hpp:76] Creating layer conv2
I0102 13:17:24.136695 17634 net.cpp:106] Creating Layer conv2
I0102 13:17:24.136698 17634 net.cpp:454] conv2 <- pool1
I0102 13:17:24.136711 17634 net.cpp:411] conv2 -> conv2
I0102 13:17:24.145088 17634 net.cpp:150] Setting up conv2
I0102 13:17:24.145113 17634 net.cpp:157] Top shape: 256 256 13 13 (11075584)
I0102 13:17:24.145115 17634 net.cpp:165] Memory required for data: 358384640
I0102 13:17:24.145124 17634 layer_factory.hpp:76] Creating layer relu2
I0102 13:17:24.145130 17634 net.cpp:106] Creating Layer relu2
I0102 13:17:24.145143 17634 net.cpp:454] relu2 <- conv2
I0102 13:17:24.145148 17634 net.cpp:397] relu2 -> conv2 (in-place)
I0102 13:17:24.145393 17634 net.cpp:150] Setting up relu2
I0102 13:17:24.145401 17634 net.cpp:157] Top shape: 256 256 13 13 (11075584)
I0102 13:17:24.145402 17634 net.cpp:165] Memory required for data: 402686976
I0102 13:17:24.145404 17634 layer_factory.hpp:76] Creating layer pool2
I0102 13:17:24.145418 17634 net.cpp:106] Creating Layer pool2
I0102 13:17:24.145421 17634 net.cpp:454] pool2 <- conv2
I0102 13:17:24.145424 17634 net.cpp:411] pool2 -> pool2
I0102 13:17:24.145687 17634 net.cpp:150] Setting up pool2
I0102 13:17:24.145694 17634 net.cpp:157] Top shape: 256 256 6 6 (2359296)
I0102 13:17:24.145731 17634 net.cpp:165] Memory required for data: 412124160
I0102 13:17:24.145735 17634 layer_factory.hpp:76] Creating layer conv3
I0102 13:17:24.145741 17634 net.cpp:106] Creating Layer conv3
I0102 13:17:24.145743 17634 net.cpp:454] conv3 <- pool2
I0102 13:17:24.145747 17634 net.cpp:411] conv3 -> conv3
I0102 13:17:24.167111 17634 net.cpp:150] Setting up conv3
I0102 13:17:24.167140 17634 net.cpp:157] Top shape: 256 384 6 6 (3538944)
I0102 13:17:24.167141 17634 net.cpp:165] Memory required for data: 426279936
I0102 13:17:24.167151 17634 layer_factory.hpp:76] Creating layer relu3
I0102 13:17:24.167170 17634 net.cpp:106] Creating Layer relu3
I0102 13:17:24.167172 17634 net.cpp:454] relu3 <- conv3
I0102 13:17:24.167177 17634 net.cpp:397] relu3 -> conv3 (in-place)
I0102 13:17:24.167428 17634 net.cpp:150] Setting up relu3
I0102 13:17:24.167434 17634 net.cpp:157] Top shape: 256 384 6 6 (3538944)
I0102 13:17:24.167446 17634 net.cpp:165] Memory required for data: 440435712
I0102 13:17:24.167448 17634 layer_factory.hpp:76] Creating layer conv4
I0102 13:17:24.167454 17634 net.cpp:106] Creating Layer conv4
I0102 13:17:24.167456 17634 net.cpp:454] conv4 <- conv3
I0102 13:17:24.167470 17634 net.cpp:411] conv4 -> conv4
I0102 13:17:24.184389 17634 net.cpp:150] Setting up conv4
I0102 13:17:24.184415 17634 net.cpp:157] Top shape: 256 384 6 6 (3538944)
I0102 13:17:24.184418 17634 net.cpp:165] Memory required for data: 454591488
I0102 13:17:24.184425 17634 layer_factory.hpp:76] Creating layer relu4
I0102 13:17:24.184432 17634 net.cpp:106] Creating Layer relu4
I0102 13:17:24.184435 17634 net.cpp:454] relu4 <- conv4
I0102 13:17:24.184449 17634 net.cpp:397] relu4 -> conv4 (in-place)
I0102 13:17:24.184692 17634 net.cpp:150] Setting up relu4
I0102 13:17:24.184700 17634 net.cpp:157] Top shape: 256 384 6 6 (3538944)
I0102 13:17:24.184711 17634 net.cpp:165] Memory required for data: 468747264
I0102 13:17:24.184713 17634 layer_factory.hpp:76] Creating layer conv5
I0102 13:17:24.184720 17634 net.cpp:106] Creating Layer conv5
I0102 13:17:24.184721 17634 net.cpp:454] conv5 <- conv4
I0102 13:17:24.184736 17634 net.cpp:411] conv5 -> conv5
I0102 13:17:24.196439 17634 net.cpp:150] Setting up conv5
I0102 13:17:24.196465 17634 net.cpp:157] Top shape: 256 256 6 6 (2359296)
I0102 13:17:24.196468 17634 net.cpp:165] Memory required for data: 478184448
I0102 13:17:24.196478 17634 layer_factory.hpp:76] Creating layer relu5
I0102 13:17:24.196494 17634 net.cpp:106] Creating Layer relu5
I0102 13:17:24.196497 17634 net.cpp:454] relu5 <- conv5
I0102 13:17:24.196502 17634 net.cpp:397] relu5 -> conv5 (in-place)
I0102 13:17:24.196637 17634 net.cpp:150] Setting up relu5
I0102 13:17:24.196643 17634 net.cpp:157] Top shape: 256 256 6 6 (2359296)
I0102 13:17:24.196645 17634 net.cpp:165] Memory required for data: 487621632
I0102 13:17:24.196647 17634 layer_factory.hpp:76] Creating layer pool5
I0102 13:17:24.196652 17634 net.cpp:106] Creating Layer pool5
I0102 13:17:24.196663 17634 net.cpp:454] pool5 <- conv5
I0102 13:17:24.196666 17634 net.cpp:411] pool5 -> pool5
I0102 13:17:24.196964 17634 net.cpp:150] Setting up pool5
I0102 13:17:24.196970 17634 net.cpp:157] Top shape: 256 256 3 3 (589824)
I0102 13:17:24.196982 17634 net.cpp:165] Memory required for data: 489980928
I0102 13:17:24.196985 17634 layer_factory.hpp:76] Creating layer fc6
I0102 13:17:24.196993 17634 net.cpp:106] Creating Layer fc6
I0102 13:17:24.197005 17634 net.cpp:454] fc6 <- pool5
I0102 13:17:24.197010 17634 net.cpp:411] fc6 -> fc6
I0102 13:17:24.309551 17634 net.cpp:150] Setting up fc6
I0102 13:17:24.309569 17634 net.cpp:157] Top shape: 256 2048 (524288)
I0102 13:17:24.309571 17634 net.cpp:165] Memory required for data: 492078080
I0102 13:17:24.309581 17634 layer_factory.hpp:76] Creating layer relu6
I0102 13:17:24.309589 17634 net.cpp:106] Creating Layer relu6
I0102 13:17:24.309593 17634 net.cpp:454] relu6 <- fc6
I0102 13:17:24.309598 17634 net.cpp:397] relu6 -> fc6 (in-place)
I0102 13:17:24.309785 17634 net.cpp:150] Setting up relu6
I0102 13:17:24.309793 17634 net.cpp:157] Top shape: 256 2048 (524288)
I0102 13:17:24.309811 17634 net.cpp:165] Memory required for data: 494175232
I0102 13:17:24.309814 17634 layer_factory.hpp:76] Creating layer drop6
I0102 13:17:24.309825 17634 net.cpp:106] Creating Layer drop6
I0102 13:17:24.309828 17634 net.cpp:454] drop6 <- fc6
I0102 13:17:24.309831 17634 net.cpp:397] drop6 -> fc6 (in-place)
I0102 13:17:24.309856 17634 net.cpp:150] Setting up drop6
I0102 13:17:24.309861 17634 net.cpp:157] Top shape: 256 2048 (524288)
I0102 13:17:24.309864 17634 net.cpp:165] Memory required for data: 496272384
I0102 13:17:24.309865 17634 layer_factory.hpp:76] Creating layer fc7
I0102 13:17:24.309871 17634 net.cpp:106] Creating Layer fc7
I0102 13:17:24.309873 17634 net.cpp:454] fc7 <- fc6
I0102 13:17:24.309876 17634 net.cpp:411] fc7 -> fc7
I0102 13:17:24.408628 17634 net.cpp:150] Setting up fc7
I0102 13:17:24.408654 17634 net.cpp:157] Top shape: 256 2048 (524288)
I0102 13:17:24.408656 17634 net.cpp:165] Memory required for data: 498369536
I0102 13:17:24.408664 17634 layer_factory.hpp:76] Creating layer relu7
I0102 13:17:24.408671 17634 net.cpp:106] Creating Layer relu7
I0102 13:17:24.408684 17634 net.cpp:454] relu7 <- fc7
I0102 13:17:24.408689 17634 net.cpp:397] relu7 -> fc7 (in-place)
I0102 13:17:24.409067 17634 net.cpp:150] Setting up relu7
I0102 13:17:24.409075 17634 net.cpp:157] Top shape: 256 2048 (524288)
I0102 13:17:24.409086 17634 net.cpp:165] Memory required for data: 500466688
I0102 13:17:24.409088 17634 layer_factory.hpp:76] Creating layer drop7
I0102 13:17:24.409093 17634 net.cpp:106] Creating Layer drop7
I0102 13:17:24.409095 17634 net.cpp:454] drop7 <- fc7
I0102 13:17:24.409098 17634 net.cpp:397] drop7 -> fc7 (in-place)
I0102 13:17:24.409124 17634 net.cpp:150] Setting up drop7
I0102 13:17:24.409131 17634 net.cpp:157] Top shape: 256 2048 (524288)
I0102 13:17:24.409132 17634 net.cpp:165] Memory required for data: 502563840
I0102 13:17:24.409133 17634 layer_factory.hpp:76] Creating layer fc8
I0102 13:17:24.409142 17634 net.cpp:106] Creating Layer fc8
I0102 13:17:24.409142 17634 net.cpp:454] fc8 <- fc7
I0102 13:17:24.409145 17634 net.cpp:411] fc8 -> fc8
I0102 13:17:24.457396 17634 net.cpp:150] Setting up fc8
I0102 13:17:24.457423 17634 net.cpp:157] Top shape: 256 1000 (256000)
I0102 13:17:24.457427 17634 net.cpp:165] Memory required for data: 503587840
I0102 13:17:24.457435 17634 layer_factory.hpp:76] Creating layer loss
I0102 13:17:24.457459 17634 net.cpp:106] Creating Layer loss
I0102 13:17:24.457463 17634 net.cpp:454] loss <- fc8
I0102 13:17:24.457468 17634 net.cpp:454] loss <- label
I0102 13:17:24.457473 17634 net.cpp:411] loss -> loss
I0102 13:17:24.457486 17634 layer_factory.hpp:76] Creating layer loss
…
  transform_param {
    scale: 0.04
    mirror: false
    crop_size: 224
    mean_value: 104
    mean_value: 117
    mean_value: 123
    force_color: true
    resize_param {
      prob: 1
      resize_mode: FIT_SMALL_SIZE
      height: 256
      width: 256
      pad_mode: MIRRORED
      pad_value: 104
      pad_value: 117
      pad_value: 124
      interp_mode: CUBIC
      center_object: false
      max_angle: 0
    }
  }
  data_param {
    source: "/home/share/storage/datasets/imagenet/lmdb/ilsvrc12_val_lmdb"
    batch_size: 250
    backend: LMDB
  }
}
layer {
  name: "conv1"
  type: "Convolution"
  bottom: "data"
  top: "conv1"
  param {
    lr_mult: 1
    decay_mult: 1
  }
  param {
    lr_mult: 2
    decay_mult: 0
  }
  convolution_param {
    num_output: 96
    kernel_size: 11
    stride: 8
    weight_filler {
      type: "gaussian"
      std: 0.01
    }
    bias_filler {
      type: "constant"
    }
  }
}
layer {
  name: "relu1"
  type: "ReLU"
  bottom: "conv1"
  top: "conv1"
  relu_param {
    negative_slope: 0
  }
}
layer {
  name: "pool1"
  type: "Pooling"
  bottom: "conv1"
  top: "pool1"
  pooling_param {
    pool: MAX
    kernel_size: 3
    stride: 2
  }
}
layer {
  name: "conv2"
  type: "Convolution"
  bottom: "pool1"
  top: "conv2"
  param {
    lr_mult: 1
    decay_mult: 1
  }
  param {
    lr_mult: 2
    decay_mult: 0
  }
  convolution_param {
    num_output: 256
    pad: 2
    kernel_size: 5
    group: 2
    weight_filler {
      type: "gaussian"
      std: 0.01
    }
    bias_filler {
      type: "constant"
    }
  }
}
layer {
  name: "relu2"
  type: "ReLU"
  bottom: "conv2"
  top: "conv2"
  relu_param {
    negative_slope: 0
  }
}
layer {
  name: "pool2"
  type: "Pooling"
  bottom: "conv2"
  top: "pool2"
  pooling_param {
    pool: MAX
    kernel_size: 3
    stride: 2
  }
}
layer {
  name: "conv3"
  type: "Convolution"
  bottom: "pool2"
  top: "conv3"
  param {
    lr_mult: 1
    decay_mult: 1
  }
  param {
    lr_mult: 2
    decay_mult: 0
  }
  convolution_param {
    num_output: 384
    pad: 1
    kernel_size: 3
    weight_filler {
      type: "gaussian"
      std: 0.01
    }
    bias_filler {
      type: "constant"
    }
  }
}
layer {
  name: "relu3"
  type: "ReLU"
  bottom: "conv3"
  top: "conv3"
  relu_param {
    negative_slope: 0
  }
}
layer {
  name: "conv4"
  type: "Convolution"
  bottom: "conv3"
  top: "conv4"
  param {
    lr_mult: 1
    decay_mult: 1
  }
  param {
    lr_mult: 2
    decay_mult: 0
  }
  convolution_param {
    num_output: 384
    pad: 1
    kernel_size: 3
    group: 2
    weight_filler {
      type: "gaussian"
      std: 0.01
    }
    bias_filler {
      type: "constant"
    }
  }
}
layer {
  name: "relu4"
  type: "ReLU"
  bottom: "conv4"
  top: "conv4"
  relu_param {
    negative_slope: 0
  }
}
layer {
  name: "conv5"
  type: "Convolution"
  bottom: "conv4"
  top: "conv5"
  param {
    lr_mult: 1
    decay_mult: 1
  }
  param {
    lr_mult: 2
    decay_mult: 0
  }
  convolution_param {
    num_output: 256
    pad: 1
    kernel_size: 3
    group: 2
    weight_filler {
      type: "gaussian"
      std: 0.01
    }
    bias_filler {
      type: "constant"
    }
  }
}
layer {
  name: "relu5"
  type: "ReLU"
  bottom: "conv5"
  top: "conv5"
  relu_param {
    negative_slope: 0
  }
}
layer {
  name: "pool5"
  type: "Pooling"
  bottom: "conv5"
  top: "pool5"
  pooling_param {
    pool: MAX
    kernel_size: 3
    stride: 2
  }
}
layer {
  name: "fc6"
  type: "InnerProduct"
  bottom: "pool5"
  top: "fc6"
  param {
    lr_mult: 1
    decay_mult: 1
  }
  param {
    lr_mult: 2
    decay_mult: 0
  }
  inner_product_param {
    num_output: 2048
    weight_filler {
      type: "gaussian"
      std: 0.005
    }
    bias_filler {
      type: "constant"
    }
  }
}
layer {
  name: "relu6"
  type: "ReLU"
  bottom: "fc6"
  top: "fc6"
  relu_param {
    negative_slope: 0
  }
}
layer {
  name: "drop6"
  type: "Dropout"
  bottom: "fc6"
  top: "fc6"
  dropout_param {
    dropout_ratio: 0.5
  }
}
layer {
  name: "fc7"
  type: "InnerProduct"
  bottom: "fc6"
  top: "fc7"
  param {
    lr_mult: 1
    decay_mult: 1
  }
  param {
    lr_mult: 2
    decay_mult: 0
  }
  inner_product_param {
    num_output: 2048
    weight_filler {
      type: "gaussian"
      std: 0.005
    }
    bias_filler {
      type: "constant"
    }
  }
}
layer {
  name: "relu7"
  type: "ReLU"
  bottom: "fc7"
  top: "fc7"
  relu_param {
    negative_slope: 0
  }
}
layer {
  name: "drop7"
  type: "Dropout"
  bottom: "fc7"
  top: "fc7"
  dropout_param {
    dropout_ratio: 0.5
  }
}
layer {
  name: "fc8"
  type: "InnerProduct"
  bottom: "fc7"
  top: "fc8"
  param {
    lr_mult: 1
    decay_mult: 1
  }
  param {
    lr_mult: 2
    decay_mult: 0
  }
  inner_product_param {
    num_output: 1000
    weight_filler {
      type: "gaussian"
      std: 0.01
    }
    bias_filler {
      type: "constant"
    }
  }
}
layer {
  name: "accuracy"
  type: "Accuracy"
  bottom: "fc8"
  bottom: "label"
  top: "accuracy"
  include {
    phase: TEST
  }
}
layer {
  name: "loss"
  type: "SoftmaxWithLoss"
  bottom: "fc8"
  bottom: "label"
  top: "loss"
}
I0102 13:17:24.458923 17634 layer_factory.hpp:76] Creating layer data
I0102 13:17:24.459065 17634 net.cpp:106] Creating Layer data
I0102 13:17:24.459070 17634 net.cpp:411] data -> data
I0102 13:17:24.459077 17634 net.cpp:411] data -> label
I0102 13:17:24.460239 17650 db_lmdb.cpp:38] Opened lmdb /home/share/storage/datasets/imagenet/lmdb/ilsvrc12_val_lmdb
I0102 13:17:24.461506 17634 data_layer.cpp:41] output data size: 250,3,224,224
I0102 13:17:24.679718 17634 net.cpp:150] Setting up data
I0102 13:17:24.679738 17634 net.cpp:157] Top shape: 250 3 224 224 (37632000)
I0102 13:17:24.679740 17634 net.cpp:157] Top shape: 250 (250)
I0102 13:17:24.679743 17634 net.cpp:165] Memory required for data: 150529000
I0102 13:17:24.679746 17634 layer_factory.hpp:76] Creating layer label_data_1_split
I0102 13:17:24.680282 17634 net.cpp:106] Creating Layer label_data_1_split
I0102 13:17:24.680289 17634 net.cpp:454] label_data_1_split <- label
I0102 13:17:24.680295 17634 net.cpp:411] label_data_1_split -> label_data_1_split_0
I0102 13:17:24.680302 17634 net.cpp:411] label_data_1_split -> label_data_1_split_1
I0102 13:17:24.680389 17634 net.cpp:150] Setting up label_data_1_split
I0102 13:17:24.680400 17634 net.cpp:157] Top shape: 250 (250)
I0102 13:17:24.680403 17634 net.cpp:157] Top shape: 250 (250)
I0102 13:17:24.680404 17634 net.cpp:165] Memory required for data: 150531000
I0102 13:17:24.680408 17634 layer_factory.hpp:76] Creating layer conv1
I0102 13:17:24.680416 17634 net.cpp:106] Creating Layer conv1
I0102 13:17:24.680418 17634 net.cpp:454] conv1 <- data
I0102 13:17:24.680423 17634 net.cpp:411] conv1 -> conv1
I0102 13:17:24.705824 17634 net.cpp:150] Setting up conv1
I0102 13:17:24.705853 17634 net.cpp:157] Top shape: 250 96 27 27 (17496000)
I0102 13:17:24.705855 17634 net.cpp:165] Memory required for data: 220515000
I0102 13:17:24.705865 17634 layer_factory.hpp:76] Creating layer relu1
I0102 13:17:24.705874 17634 net.cpp:106] Creating Layer relu1
I0102 13:17:24.705878 17634 net.cpp:454] relu1 <- conv1
I0102 13:17:24.705906 17634 net.cpp:397] relu1 -> conv1 (in-place)
I0102 13:17:24.706164 17634 net.cpp:150] Setting up relu1
I0102 13:17:24.706172 17634 net.cpp:157] Top shape: 250 96 27 27 (17496000)
I0102 13:17:24.706174 17634 net.cpp:165] Memory required for data: 290499000
I0102 13:17:24.706176 17634 layer_factory.hpp:76] Creating layer pool1
I0102 13:17:24.706182 17634 net.cpp:106] Creating Layer pool1
I0102 13:17:24.706184 17634 net.cpp:454] pool1 <- conv1
I0102 13:17:24.706187 17634 net.cpp:411] pool1 -> pool1
I0102 13:17:24.706378 17634 net.cpp:150] Setting up pool1
I0102 13:17:24.706384 17634 net.cpp:157] Top shape: 250 96 13 13 (4056000)
I0102 13:17:24.706387 17634 net.cpp:165] Memory required for data: 306723000
I0102 13:17:24.706388 17634 layer_factory.hpp:76] Creating layer conv2
I0102 13:17:24.706395 17634 net.cpp:106] Creating Layer conv2
I0102 13:17:24.706398 17634 net.cpp:454] conv2 <- pool1
I0102 13:17:24.706400 17634 net.cpp:411] conv2 -> conv2
I0102 13:17:24.715535 17634 net.cpp:150] Setting up conv2
I0102 13:17:24.715564 17634 net.cpp:157] Top shape: 250 256 13 13 (10816000)
I0102 13:17:24.715566 17634 net.cpp:165] Memory required for data: 349987000
I0102 13:17:24.715576 17634 layer_factory.hpp:76] Creating layer relu2
I0102 13:17:24.715584 17634 net.cpp:106] Creating Layer relu2
I0102 13:17:24.715587 17634 net.cpp:454] relu2 <- conv2
I0102 13:17:24.715591 17634 net.cpp:397] relu2 -> conv2 (in-place)
I0102 13:17:24.715747 17634 net.cpp:150] Setting up relu2
I0102 13:17:24.715752 17634 net.cpp:157] Top shape: 250 256 13 13 (10816000)
I0102 13:17:24.715754 17634 net.cpp:165] Memory required for data: 393251000
I0102 13:17:24.715766 17634 layer_factory.hpp:76] Creating layer pool2
I0102 13:17:24.715771 17634 net.cpp:106] Creating Layer pool2
I0102 13:17:24.715773 17634 net.cpp:454] pool2 <- conv2
I0102 13:17:24.715776 17634 net.cpp:411] pool2 -> pool2
I0102 13:17:24.716233 17634 net.cpp:150] Setting up pool2
I0102 13:17:24.716240 17634 net.cpp:157] Top shape: 250 256 6 6 (2304000)
I0102 13:17:24.716253 17634 net.cpp:165] Memory required for data: 402467000
I0102 13:17:24.716254 17634 layer_factory.hpp:76] Creating layer conv3
I0102 13:17:24.716264 17634 net.cpp:106] Creating Layer conv3
I0102 13:17:24.716265 17634 net.cpp:454] conv3 <- pool2
I0102 13:17:24.716270 17634 net.cpp:411] conv3 -> conv3
I0102 13:17:24.738639 17634 net.cpp:150] Setting up conv3
I0102 13:17:24.738667 17634 net.cpp:157] Top shape: 250 384 6 6 (3456000)
I0102 13:17:24.738669 17634 net.cpp:165] Memory required for data: 416291000
I0102 13:17:24.738679 17634 layer_factory.hpp:76] Creating layer relu3
I0102 13:17:24.738687 17634 net.cpp:106] Creating Layer relu3
I0102 13:17:24.738690 17634 net.cpp:454] relu3 <- conv3
I0102 13:17:24.738697 17634 net.cpp:397] relu3 -> conv3 (in-place)
I0102 13:17:24.738848 17634 net.cpp:150] Setting up relu3
I0102 13:17:24.738855 17634 net.cpp:157] Top shape: 250 384 6 6 (3456000)
I0102 13:17:24.738867 17634 net.cpp:165] Memory required for data: 430115000
I0102 13:17:24.738868 17634 layer_factory.hpp:76] Creating layer conv4
I0102 13:17:24.738874 17634 net.cpp:106] Creating Layer conv4
I0102 13:17:24.738876 17634 net.cpp:454] conv4 <- conv3
I0102 13:17:24.738880 17634 net.cpp:411] conv4 -> conv4
I0102 13:17:24.756492 17634 net.cpp:150] Setting up conv4
I0102 13:17:24.756520 17634 net.cpp:157] Top shape: 250 384 6 6 (3456000)
I0102 13:17:24.756522 17634 net.cpp:165] Memory required for data: 443939000
I0102 13:17:24.756531 17634 layer_factory.hpp:76] Creating layer relu4
I0102 13:17:24.756537 17634 net.cpp:106] Creating Layer relu4
I0102 13:17:24.756541 17634 net.cpp:454] relu4 <- conv4
I0102 13:17:24.756546 17634 net.cpp:397] relu4 -> conv4 (in-place)
I0102 13:17:24.756695 17634 net.cpp:150] Setting up relu4
I0102 13:17:24.756710 17634 net.cpp:157] Top shape: 250 384 6 6 (3456000)
I0102 13:17:24.756711 17634 net.cpp:165] Memory required for data: 457763000
I0102 13:17:24.756713 17634 layer_factory.hpp:76] Creating layer conv5
I0102 13:17:24.756742 17634 net.cpp:106] Creating Layer conv5
I0102 13:17:24.756762 17634 net.cpp:454] conv5 <- conv4
I0102 13:17:24.756767 17634 net.cpp:411] conv5 -> conv5
I0102 13:17:24.768959 17634 net.cpp:150] Setting up conv5
I0102 13:17:24.768987 17634 net.cpp:157] Top shape: 250 256 6 6 (2304000)
I0102 13:17:24.768990 17634 net.cpp:165] Memory required for data: 466979000
I0102 13:17:24.769002 17634 layer_factory.hpp:76] Creating layer relu5
I0102 13:17:24.769009 17634 net.cpp:106] Creating Layer relu5
I0102 13:17:24.769012 17634 net.cpp:454] relu5 <- conv5
I0102 13:17:24.769017 17634 net.cpp:397] relu5 -> conv5 (in-place)
I0102 13:17:24.769162 17634 net.cpp:150] Setting up relu5
I0102 13:17:24.769177 17634 net.cpp:157] Top shape: 250 256 6 6 (2304000)
I0102 13:17:24.769179 17634 net.cpp:165] Memory required for data: 476195000
I0102 13:17:24.769181 17634 layer_factory.hpp:76] Creating layer pool5
I0102 13:17:24.769186 17634 net.cpp:106] Creating Layer pool5
I0102 13:17:24.769196 17634 net.cpp:454] pool5 <- conv5
I0102 13:17:24.769201 17634 net.cpp:411] pool5 -> pool5
I0102 13:17:24.769476 17634 net.cpp:150] Setting up pool5
I0102 13:17:24.769484 17634 net.cpp:157] Top shape: 250 256 3 3 (576000)
I0102 13:17:24.769495 17634 net.cpp:165] Memory required for data: 478499000
I0102 13:17:24.769497 17634 layer_factory.hpp:76] Creating layer fc6
I0102 13:17:24.769503 17634 net.cpp:106] Creating Layer fc6
I0102 13:17:24.769505 17634 net.cpp:454] fc6 <- pool5
I0102 13:17:24.769510 17634 net.cpp:411] fc6 -> fc6
I0102 13:17:24.885845 17634 net.cpp:150] Setting up fc6
I0102 13:17:24.885872 17634 net.cpp:157] Top shape: 250 2048 (512000)
I0102 13:17:24.885874 17634 net.cpp:165] Memory required for data: 480547000
I0102 13:17:24.885884 17634 layer_factory.hpp:76] Creating layer relu6
I0102 13:17:24.885892 17634 net.cpp:106] Creating Layer relu6
I0102 13:17:24.885896 17634 net.cpp:454] relu6 <- fc6
I0102 13:17:24.885902 17634 net.cpp:397] relu6 -> fc6 (in-place)
I0102 13:17:24.886296 17634 net.cpp:150] Setting up relu6
I0102 13:17:24.886303 17634 net.cpp:157] Top shape: 250 2048 (512000)
I0102 13:17:24.886315 17634 net.cpp:165] Memory required for data: 482595000
I0102 13:17:24.886317 17634 layer_factory.hpp:76] Creating layer drop6
I0102 13:17:24.886322 17634 net.cpp:106] Creating Layer drop6
I0102 13:17:24.886324 17634 net.cpp:454] drop6 <- fc6
I0102 13:17:24.886328 17634 net.cpp:397] drop6 -> fc6 (in-place)
I0102 13:17:24.886349 17634 net.cpp:150] Setting up drop6
I0102 13:17:24.886353 17634 net.cpp:157] Top shape: 250 2048 (512000)
I0102 13:17:24.886354 17634 net.cpp:165] Memory required for data: 484643000
I0102 13:17:24.886356 17634 layer_factory.hpp:76] Creating layer fc7
I0102 13:17:24.886361 17634 net.cpp:106] Creating Layer fc7
I0102 13:17:24.886363 17634 net.cpp:454] fc7 <- fc6
I0102 13:17:24.886368 17634 net.cpp:411] fc7 -> fc7
I0102 13:17:24.990304 17634 net.cpp:150] Setting up fc7
I0102 13:17:24.990332 17634 net.cpp:157] Top shape: 250 2048 (512000)
I0102 13:17:24.990335 17634 net.cpp:165] Memory required for data: 486691000
I0102 13:17:24.990344 17634 layer_factory.hpp:76] Creating layer relu7
I0102 13:17:24.990351 17634 net.cpp:106] Creating Layer relu7
I0102 13:17:24.990355 17634 net.cpp:454] relu7 <- fc7
I0102 13:17:24.990360 17634 net.cpp:397] relu7 -> fc7 (in-place)
I0102 13:17:24.990572 17634 net.cpp:150] Setting up relu7
I0102 13:17:24.990579 17634 net.cpp:157] Top shape: 250 2048 (512000)
I0102 13:17:24.990591 17634 net.cpp:165] Memory required for data: 488739000
I0102 13:17:24.990592 17634 layer_factory.hpp:76] Creating layer drop7
I0102 13:17:24.990598 17634 net.cpp:106] Creating Layer drop7
I0102 13:17:24.990600 17634 net.cpp:454] drop7 <- fc7
I0102 13:17:24.990603 17634 net.cpp:397] drop7 -> fc7 (in-place)
I0102 13:17:24.990623 17634 net.cpp:150] Setting up drop7
I0102 13:17:24.990627 17634 net.cpp:157] Top shape: 250 2048 (512000)
I0102 13:17:24.990628 17634 net.cpp:165] Memory required for data: 490787000
I0102 13:17:24.990630 17634 layer_factory.hpp:76] Creating layer fc8
I0102 13:17:24.990636 17634 net.cpp:106] Creating Layer fc8
I0102 13:17:24.990666 17634 net.cpp:454] fc8 <- fc7
I0102 13:17:24.990671 17634 net.cpp:411] fc8 -> fc8
I0102 13:17:25.041693 17634 net.cpp:150] Setting up fc8
I0102 13:17:25.041743 17634 net.cpp:157] Top shape: 250 1000 (250000)
I0102 13:17:25.041754 17634 net.cpp:165] Memory required for data: 491787000
I0102 13:17:25.041769 17634 layer_factory.hpp:76] Creating layer fc8_fc8_0_split
I0102 13:17:25.041784 17634 net.cpp:106] Creating Layer fc8_fc8_0_split
I0102 13:17:25.041793 17634 net.cpp:454] fc8_fc8_0_split <- fc8
I0102 13:17:25.041806 17634 net.cpp:411] fc8_fc8_0_split -> fc8_fc8_0_split_0
I0102 13:17:25.041820 17634 net.cpp:411] fc8_fc8_0_split -> fc8_fc8_0_split_1
I0102 13:17:25.041863 17634 net.cpp:150] Setting up fc8_fc8_0_split
I0102 13:17:25.041877 17634 net.cpp:157] Top shape: 250 1000 (250000)
I0102 13:17:25.041887 17634 net.cpp:157] Top shape: 250 1000 (250000)
I0102 13:17:25.041895 17634 net.cpp:165] Memory required for data: 493787000
I0102 13:17:25.041903 17634 layer_factory.hpp:76] Creating layer accuracy
I0102 13:17:25.041918 17634 net.cpp:106] Creating Layer accuracy
I0102 13:17:25.041926 17634 net.cpp:454] accuracy <- fc8_fc8_0_split_0
I0102 13:17:25.041935 17634 net.cpp:454] accuracy <- label_data_1_split_0
I0102 13:17:25.041947 17634 net.cpp:411] accuracy -> accuracy
…
