…
      source: "/local/temporary/mishkdmy/imagenet144pxlmdb/ilsvrc12_128_train_lmdb"
      batch_size: 256
      backend: LMDB
    }
  }
  layer {
    name: "data"
    type: "Data"
    top: "data"
    top: "label"
    include {
      phase: TEST
    }
    transform_param {
      scale: 0.04
      mirror: false
      crop_size: 128
      mean_value: 104
      mean_value: 117
      mean_value: 123
      force_color: true
    }
    data_param {
      source: "/local/temporary/mishkdmy/imagenet144pxlmdb/ilsvrc12_128_val_lmdb"
      batch_size: 50
      backend: LMDB
    }
  }
  layer {
    name: "conv1"
    type: "Convolution"
    bottom: "data"
    top: "conv1"
    param {
      lr_mult: 1
      decay_mult: 1
    }
    param {
      lr_mult: 2
      decay_mult: 0
    }
    convolution_param {
      num_output: 96
      kernel_size: 11
      stride: 4
      weight_filler {
        type: "gaussian"
        std: 0.01
      }
      bias_filler {
        type: "constant"
      }
    }
  }
  layer {
    name: "relu1"
    type: "ReLU"
    bottom: "conv1"
    top: "relu1"
  }
  layer {
    name: "conv1_nin"
    type: "Convolution"
    bottom: "relu1"
    top: "conv1_nin"
    param {
      lr_mult: 1
      decay_mult: 1
    }
    param {
      lr_mult: 2
      decay_mult: 0
    }
    convolution_param {
      num_output: 96
      kernel_size: 1
      stride: 1
      weight_filler {
        type: "gaussian"
        std: 0.01
      }
      bias_filler {
        type: "constant"
      }
    }
  }
  layer {
    name: "relu_nin1"
    type: "ReLU"
    bottom: "conv1_nin"
    top: "relu_nin1"
  }
  layer {
    name: "conv1_nin2"
    type: "Convolution"
    bottom: "relu_nin1"
    top: "conv1_nin2"
    param {
      lr_mult: 1
      decay_mult: 1
    }
    param {
      lr_mult: 2
      decay_mult: 0
    }
    convolution_param {
      num_output: 96
      kernel_size: 1
      stride: 1
      weight_filler {
        type: "gaussian"
        std: 0.01
      }
      bias_filler {
        type: "constant"
      }
    }
  }
  layer {
    name: "relu_nin2"
    type: "ReLU"
    bottom: "conv1_nin2"
    top: "relu_nin2"
  }
  layer {
    name: "relu_nin2_res"
    type: "Eltwise"
    bottom: "relu_nin2"
    bottom: "relu1"
    top: "relu_nin2_res"
    eltwise_param {
      operation: SUM
    }
  }
  layer {
    name: "conv1_nin3"
    type: "Convolution"
    bottom: "relu_nin2_res"
    top: "conv1_nin3"
    param {
      lr_mult: 1
      decay_mult: 1
    }
    param {
      lr_mult: 2
      decay_mult: 0
    }
    convolution_param {
      num_output: 96
      kernel_size: 1
      stride: 1
      weight_filler {
        type: "gaussian"
        std: 0.01
      }
      bias_filler {
        type: "constant"
      }
    }
  }
  layer {
    name: "relu_nin3"
    type: "ReLU"
    bottom: "conv1_nin3"
    top: "relu_nin3"
  }
  layer {
    name: "conv1_nin4"
    type: "Convolution"
    bottom: "relu_nin3"
    top: "conv1_nin4"
    param {
      lr_mult: 1
      decay_mult: 1
    }
    param {
      lr_mult: 2
      decay_mult: 0
    }
    convolution_param {
      num_output: 96
      kernel_size: 1
      stride: 1
      weight_filler {
        type: "gaussian"
        std: 0.01
      }
      bias_filler {
        type: "constant"
      }
    }
  }
  layer {
    name: "relu_nin4"
    type: "ReLU"
    bottom: "conv1_nin4"
    top: "relu_nin4"
  }
  layer {
    name: "relu_nin4_res"
    type: "Eltwise"
    bottom: "relu_nin4"
    bottom: "relu_nin2_res"
    top: "relu_nin4_res"
    eltwise_param {
      operation: SUM
    }
  }
  layer {
    name: "conv1_nin5"
    type: "Convolution"
    bottom: "relu_nin4_res"
    top: "conv1_nin5"
    param {
      lr_mult: 1
      decay_mult: 1
    }
    param {
      lr_mult: 2
      decay_mult: 0
    }
    convolution_param {
      num_output: 96
      kernel_size: 1
      stride: 1
      weight_filler {
        type: "gaussian"
        std: 0.01
      }
      bias_filler {
        type: "constant"
      }
    }
  }
  layer {
    name: "relu_nin5"
    type: "ReLU"
    bottom: "conv1_nin5"
    top: "relu_nin5"
  }
  layer {
    name: "conv1_nin6"
    type: "Convolution"
    bottom: "relu_nin5"
    top: "conv1_nin6"
    param {
      lr_mult: 1
      decay_mult: 1
    }
    param {
      lr_mult: 2
      decay_mult: 0
    }
    convolution_param {
      num_output: 96
      kernel_size: 1
      stride: 1
      weight_filler {
        type: "gaussian"
        std: 0.01
      }
      bias_filler {
        type: "constant"
      }
    }
  }
  layer {
    name: "relu_nin6"
    type: "ReLU"
    bottom: "conv1_nin6"
    top: "relu_nin6"
  }
  layer {
    name: "relu_nin6_res"
    type: "Eltwise"
    bottom: "relu_nin6"
    bottom: "relu_nin4_res"
    top: "relu_nin6_res"
    eltwise_param {
      operation: SUM
    }
  }
  layer {
    name: "conv1_nin7"
    type: "Convolution"
    bottom: "relu_nin6_res"
    top: "conv1_nin7"
    param {
      lr_mult: 1
      decay_mult: 1
    }
    param {
      lr_mult: 2
      decay_mult: 0
    }
    convolution_param {
      num_output: 96
      kernel_size: 1
      stride: 1
      weight_filler {
        type: "gaussian"
        std: 0.01
      }
      bias_filler {
        type: "constant"
      }
    }
  }
  layer {
    name: "relu_nin7"
    type: "ReLU"
    bottom: "conv1_nin7"
    top: "relu_nin7"
  }
  layer {
    name: "conv1_nin8"
    type: "Convolution"
    bottom: "relu_nin7"
    top: "conv1_nin8"
    param {
      lr_mult: 1
      decay_mult: 1
    }
    param {
      lr_mult: 2
      decay_mult: 0
    }
    convolution_param {
      num_output: 96
      kernel_size: 1
      stride: 1
      weight_filler {
        type: "gaussian"
        std: 0.01
      }
      bias_filler {
        type: "constant"
      }
    }
  }
  layer {
    name: "relu_nin8"
    type: "ReLU"
    bottom: "conv1_nin8"
    top: "relu_nin8"
  }
  layer {
    name: "relu_nin8_res"
    type: "Eltwise"
    bottom: "relu_nin8"
    bottom: "relu_nin6_res"
    top: "relu_nin8_res"
    eltwise_param {
      operation: SUM
    }
  }
  layer {
    name: "conv1_nin9"
    type: "Convolution"
    bottom: "relu_nin8_res"
    top: "conv1_nin9"
    param {
      lr_mult: 1
      decay_mult: 1
    }
    param {
      lr_mult: 2
      decay_mult: 0
    }
    convolution_param {
      num_output: 96
      kernel_size: 1
      stride: 1
      weight_filler {
        type: "gaussian"
        std: 0.01
      }
      bias_filler {
        type: "constant"
      }
    }
  }
  layer {
    name: "relu_nin9"
    type: "ReLU"
    bottom: "conv1_nin9"
    top: "relu_nin9"
  }
  layer {
    name: "pool1"
    type: "Pooling"
    bottom: "relu_nin9"
    top: "pool1"
    pooling_param {
      pool: MAX
      kernel_size: 3
      stride: 2
    }
  }
  layer {
    name: "conv2"
    type: "Convolution"
    bottom: "pool1"
    top: "conv2"
    param {
      lr_mult: 1
      decay_mult: 1
    }
    param {
      lr_mult: 2
      decay_mult: 0
    }
    convolution_param {
      num_output: 256
      pad: 2
      kernel_size: 5
      group: 2
      weight_filler {
        type: "gaussian"
        std: 0.01
      }
      bias_filler {
        type: "constant"
      }
    }
  }
  layer {
    name: "relu2"
    type: "ReLU"
    bottom: "conv2"
    top: "relu2"
  }
  layer {
    name: "pool2"
    type: "Pooling"
    bottom: "relu2"
    top: "pool2"
    pooling_param {
      pool: MAX
      kernel_size: 3
      stride: 2
    }
  }
  layer {
    name: "conv3"
    type: "Convolution"
    bottom: "pool2"
    top: "conv3"
    param {
      lr_mult: 1
      decay_mult: 1
    }
    param {
      lr_mult: 2
      decay_mult: 0
    }
    convolution_param {
      num_output: 384
      pad: 1
      kernel_size: 3
      weight_filler {
        type: "gaussian"
        std: 0.01
      }
      bias_filler {
        type: "constant"
      }
    }
  }
  layer {
    name: "relu3"
    type: "ReLU"
    bottom: "conv3"
    top: "relu3"
  }
  layer {
    name: "conv4"
    type: "Convolution"
    bottom: "relu3"
    top: "conv4"
    param {
      lr_mult: 1
      decay_mult: 1
    }
    param {
      lr_mult: 2
      decay_mult: 0
    }
    convolution_param {
      num_output: 384
      pad: 1
      kernel_size: 3
      group: 2
      weight_filler {
        type: "gaussian"
        std: 0.01
      }
      bias_filler {
        type: "constant"
      }
    }
  }
  layer {
    name: "relu4"
    type: "ReLU"
    bottom: "conv4"
    top: "relu4"
  }
  layer {
    name: "conv5"
    type: "Convolution"
    bottom: "relu4"
    top: "conv5"
    param {
      lr_mult: 1
      decay_mult: 1
    }
    param {
      lr_mult: 2
      decay_mult: 0
    }
    convolution_param {
      num_output: 256
      pad: 1
      kernel_size: 3
      group: 2
      weight_filler {
        type: "gaussian"
        std: 0.01
      }
      bias_filler {
        type: "constant"
      }
    }
  }
  layer {
    name: "relu5"
    type: "ReLU"
    bottom: "conv5"
    top: "relu5"
  }
  layer {
    name: "pool5"
    type: "Pooling"
    bottom: "relu5"
    top: "pool5"
    pooling_param {
      pool: MAX
      kernel_size: 3
      stride: 2
    }
  }
  layer {
    name: "fc6"
    type: "InnerProduct"
    bottom: "pool5"
    top: "fc6"
    param {
      lr_mult: 1
      decay_mult: 1
    }
    param {
      lr_mult: 2
      decay_mult: 0
    }
    inner_product_param {
      num_output: 2048
      weight_filler {
        type: "gaussian"
        std: 0.005
      }
      bias_filler {
        type: "constant"
      }
    }
  }
  layer {
    name: "relu6"
    type: "ReLU"
    bottom: "fc6"
    top: "relu6"
  }
  layer {
    name: "drop6"
    type: "Dropout"
    bottom: "relu6"
    top: "drop6"
    dropout_param {
      dropout_ratio: 0.5
    }
  }
  layer {
    name: "fc7"
    type: "InnerProduct"
    bottom: "drop6"
    top: "fc7"
    param {
      lr_mult: 1
      decay_mult: 1
    }
    param {
      lr_mult: 2
      decay_mult: 0
    }
    inner_product_param {
      num_output: 2048
      weight_filler {
        type: "gaussian"
        std: 0.005
      }
      bias_filler {
        type: "constant"
      }
    }
  }
  layer {
    name: "relu7"
    type: "ReLU"
    bottom: "fc7"
    top: "relu7"
  }
  layer {
    name: "drop7"
    type: "Dropout"
    bottom: "relu7"
    top: "drop7"
    dropout_param {
      dropout_ratio: 0.5
    }
  }
  layer {
    name: "fc8"
    type: "InnerProduct"
    bottom: "drop7"
    top: "fc8"
    param {
      lr_mult: 1
      decay_mult: 1
    }
    param {
      lr_mult: 2
      decay_mult: 0
    }
    inner_product_param {
      num_output: 1000
      weight_filler {
        type: "gaussian"
        std: 0.01
      }
      bias_filler {
        type: "constant"
      }
    }
  }
  layer {
    name: "accuracy"
    type: "Accuracy"
    bottom: "fc8"
    bottom: "label"
    top: "accuracy"
    include {
      phase: TEST
    }
  }
  layer {
    name: "loss"
    type: "SoftmaxWithLoss"
    bottom: "fc8"
    bottom: "label"
    top: "loss"
  }
}
test_initialization: true
average_loss: 20
iter_size: 1
type: "SGD"
I0920 17:26:23.693305  7814 solver.cpp:86] Creating training net specified in net_param.
I0920 17:26:23.693620  7814 net.cpp:322] The NetState phase (0) differed from the phase (1) specified by a rule in layer data
I0920 17:26:23.693692  7814 net.cpp:322] The NetState phase (0) differed from the phase (1) specified by a rule in layer accuracy
I0920 17:26:23.694629  7814 net.cpp:49] Initializing net from parameters: 
name: "CaffeNet"
state {
  phase: TRAIN
}
layer {
  name: "data"
  type: "Data"
  top: "data"
  top: "label"
  include {
    phase: TRAIN
  }
  transform_param {
    scale: 0.04
    mirror: true
    crop_size: 128
    mean_value: 104
    mean_value: 117
    mean_value: 124
    force_color: true
  }
  data_param {
    source: "/local/temporary/mishkdmy/imagenet144pxlmdb/ilsvrc12_128_train_lmdb"
    batch_size: 256
    backend: LMDB
  }
}
layer {
  name: "conv1"
  type: "Convolution"
  bottom: "data"
  top: "conv1"
  param {
    lr_mult: 1
    decay_mult: 1
  }
  param {
    lr_mult: 2
    decay_mult: 0
  }
  convolution_param {
    num_output: 96
    kernel_size: 11
    stride: 4
    weight_filler {
      type: "gaussian"
      std: 0.01
    }
    bias_filler {
      type: "constant"
    }
  }
}
layer {
  name: "relu1"
  type: "ReLU"
  bottom: "conv1"
  top: "relu1"
}
layer {
  name: "conv1_nin"
  type: "Convolution"
  bottom: "relu1"
  top: "conv1_nin"
  param {
    lr_mult: 1
    decay_mult: 1
  }
  param {
    lr_mult: 2
    decay_mult: 0
  }
  convolution_param {
    num_output: 96
    kernel_size: 1
    stride: 1
    weight_filler {
      type: "gaussian"
      std: 0.01
    }
    bias_filler {
      type: "constant"
    }
  }
}
layer {
  name: "relu_nin1"
  type: "ReLU"
  bottom: "conv1_nin"
  top: "relu_nin1"
}
layer {
  name: "conv1_nin2"
  type: "Convolution"
  bottom: "relu_nin1"
  top: "conv1_nin2"
  param {
    lr_mult: 1
    decay_mult: 1
  }
  param {
    lr_mult: 2
    decay_mult: 0
  }
  convolution_param {
    num_output: 96
    kernel_size: 1
    stride: 1
    weight_filler {
      type: "gaussian"
      std: 0.01
    }
    bias_filler {
      type: "constant"
    }
  }
}
layer {
  name: "relu_nin2"
  type: "ReLU"
  bottom: "conv1_nin2"
  top: "relu_nin2"
}
layer {
  name: "relu_nin2_res"
  type: "Eltwise"
  bottom: "relu_nin2"
  bottom: "relu1"
  top: "relu_nin2_res"
  eltwise_param {
    operation: SUM
  }
}
layer {
  name: "conv1_nin3"
  type: "Convolution"
  bottom: "relu_nin2_res"
  top: "conv1_nin3"
  param {
    lr_mult: 1
    decay_mult: 1
  }
  param {
    lr_mult: 2
    decay_mult: 0
  }
  convolution_param {
    num_output: 96
    kernel_size: 1
    stride: 1
    weight_filler {
      type: "gaussian"
      std: 0.01
    }
    bias_filler {
      type: "constant"
    }
  }
}
layer {
  name: "relu_nin3"
  type: "ReLU"
  bottom: "conv1_nin3"
  top: "relu_nin3"
}
layer {
  name: "conv1_nin4"
  type: "Convolution"
  bottom: "relu_nin3"
  top: "conv1_nin4"
  param {
    lr_mult: 1
    decay_mult: 1
  }
  param {
    lr_mult: 2
    decay_mult: 0
  }
  convolution_param {
    num_output: 96
    kernel_size: 1
    stride: 1
    weight_filler {
      type: "gaussian"
      std: 0.01
    }
    bias_filler {
      type: "constant"
    }
  }
}
layer {
  name: "relu_nin4"
  type: "ReLU"
  bottom: "conv1_nin4"
  top: "relu_nin4"
}
layer {
  name: "relu_nin4_res"
  type: "Eltwise"
  bottom: "relu_nin4"
  bottom: "relu_nin2_res"
  top: "relu_nin4_res"
  eltwise_param {
    operation: SUM
  }
}
layer {
  name: "conv1_nin5"
  type: "Convolution"
  bottom: "relu_nin4_res"
  top: "conv1_nin5"
  param {
    lr_mult: 1
    decay_mult: 1
  }
  param {
    lr_mult: 2
    decay_mult: 0
  }
  convolution_param {
    num_output: 96
    kernel_size: 1
    stride: 1
    weight_filler {
      type: "gaussian"
      std: 0.01
    }
    bias_filler {
      type: "constant"
    }
  }
}
layer {
  name: "relu_nin5"
  type: "ReLU"
  bottom: "conv1_nin5"
  top: "relu_nin5"
}
layer {
  name: "conv1_nin6"
  type: "Convolution"
  bottom: "relu_nin5"
  top: "conv1_nin6"
  param {
    lr_mult: 1
    decay_mult: 1
  }
  param {
    lr_mult: 2
    decay_mult: 0
  }
  convolution_param {
    num_output: 96
    kernel_size: 1
    stride: 1
    weight_filler {
      type: "gaussian"
      std: 0.01
    }
    bias_filler {
      type: "constant"
    }
  }
}
layer {
  name: "relu_nin6"
  type: "ReLU"
  bottom: "conv1_nin6"
  top: "relu_nin6"
}
layer {
  name: "relu_nin6_res"
  type: "Eltwise"
  bottom: "relu_nin6"
  bottom: "relu_nin4_res"
  top: "relu_nin6_res"
  eltwise_param {
    operation: SUM
  }
}
layer {
  name: "conv1_nin7"
  type: "Convolution"
  bottom: "relu_nin6_res"
  top: "conv1_nin7"
  param {
    lr_mult: 1
    decay_mult: 1
  }
  param {
    lr_mult: 2
    decay_mult: 0
  }
  convolution_param {
    num_output: 96
    kernel_size: 1
    stride: 1
    weight_filler {
      type: "gaussian"
      std: 0.01
    }
    bias_filler {
      type: "constant"
    }
  }
}
layer {
  name: "relu_nin7"
  type: "ReLU"
  bottom: "conv1_nin7"
  top: "relu_nin7"
}
layer {
  name: "conv1_nin8"
  type: "Convolution"
  bottom: "relu_nin7"
  top: "conv1_nin8"
  param {
    lr_mult: 1
    decay_mult: 1
  }
  param {
    lr_mult: 2
    decay_mult: 0
  }
  convolution_param {
    num_output: 96
    kernel_size: 1
    stride: 1
    weight_filler {
      type: "gaussian"
      std: 0.01
    }
    bias_filler {
      type: "constant"
    }
  }
}
layer {
  name: "relu_nin8"
  type: "ReLU"
  bottom: "conv1_nin8"
  top: "relu_nin8"
}
layer {
  name: "relu_nin8_res"
  type: "Eltwise"
  bottom: "relu_nin8"
  bottom: "relu_nin6_res"
  top: "relu_nin8_res"
  eltwise_param {
    operation: SUM
  }
}
layer {
  name: "conv1_nin9"
  type: "Convolution"
  bottom: "relu_nin8_res"
  top: "conv1_nin9"
  param {
    lr_mult: 1
    decay_mult: 1
  }
  param {
    lr_mult: 2
    decay_mult: 0
  }
  convolution_param {
    num_output: 96
    kernel_size: 1
    stride: 1
    weight_filler {
      type: "gaussian"
      std: 0.01
    }
    bias_filler {
      type: "constant"
    }
  }
}
layer {
  name: "relu_nin9"
  type: "ReLU"
  bottom: "conv1_nin9"
  top: "relu_nin9"
}
layer {
  name: "pool1"
  type: "Pooling"
  bottom: "relu_nin9"
  top: "pool1"
  pooling_param {
    pool: MAX
    kernel_size: 3
    stride: 2
  }
}
layer {
  name: "conv2"
  type: "Convolution"
  bottom: "pool1"
  top: "conv2"
  param {
    lr_mult: 1
    decay_mult: 1
  }
  param {
    lr_mult: 2
    decay_mult: 0
  }
  convolution_param {
    num_output: 256
    pad: 2
    kernel_size: 5
    group: 2
    weight_filler {
      type: "gaussian"
      std: 0.01
    }
    bias_filler {
      type: "constant"
    }
  }
}
layer {
  name: "relu2"
  type: "ReLU"
  bottom: "conv2"
  top: "relu2"
}
layer {
  name: "pool2"
  type: "Pooling"
  bottom: "relu2"
  top: "pool2"
  pooling_param {
    pool: MAX
    kernel_size: 3
    stride: 2
  }
}
layer {
  name: "conv3"
  type: "Convolution"
  bottom: "pool2"
  top: "conv3"
  param {
    lr_mult: 1
    decay_mult: 1
  }
  param {
    lr_mult: 2
    decay_mult: 0
  }
  convolution_param {
    num_output: 384
    pad: 1
    kernel_size: 3
    weight_filler {
      type: "gaussian"
      std: 0.01
    }
    bias_filler {
      type: "constant"
    }
  }
}
layer {
  name: "relu3"
  type: "ReLU"
  bottom: "conv3"
  top: "relu3"
}
layer {
  name: "conv4"
  type: "Convolution"
  bottom: "relu3"
  top: "conv4"
  param {
    lr_mult: 1
    decay_mult: 1
  }
  param {
    lr_mult: 2
    decay_mult: 0
  }
  convolution_param {
    num_output: 384
    pad: 1
    kernel_size: 3
    group: 2
    weight_filler {
      type: "gaussian"
      std: 0.01
    }
    bias_filler {
      type: "constant"
    }
  }
}
layer {
  name: "relu4"
  type: "ReLU"
  bottom: "conv4"
  top: "relu4"
}
layer {
  name: "conv5"
  type: "Convolution"
  bottom: "relu4"
  top: "conv5"
  param {
    lr_mult: 1
    decay_mult: 1
  }
  param {
    lr_mult: 2
    decay_mult: 0
  }
  convolution_param {
    num_output: 256
    pad: 1
    kernel_size: 3
    group: 2
    weight_filler {
      type: "gaussian"
      std: 0.01
    }
    bias_filler {
      type: "constant"
    }
  }
}
layer {
  name: "relu5"
  type: "ReLU"
  bottom: "conv5"
  top: "relu5"
}
layer {
  name: "pool5"
  type: "Pooling"
  bottom: "relu5"
  top: "pool5"
  pooling_param {
    pool: MAX
    kernel_size: 3
    stride: 2
  }
}
layer {
  name: "fc6"
  type: "InnerProduct"
  bottom: "pool5"
  top: "fc6"
  param {
    lr_mult: 1
    decay_mult: 1
  }
  param {
    lr_mult: 2
    decay_mult: 0
  }
  inner_product_param {
    num_output: 2048
    weight_filler {
      type: "gaussian"
      std: 0.005
    }
    bias_filler {
      type: "constant"
    }
  }
}
layer {
  name: "relu6"
  type: "ReLU"
  bottom: "fc6"
  top: "relu6"
}
layer {
  name: "drop6"
  type: "Dropout"
  bottom: "relu6"
  top: "drop6"
  dropout_param {
    dropout_ratio: 0.5
  }
}
layer {
  name: "fc7"
  type: "InnerProduct"
  bottom: "drop6"
  top: "fc7"
  param {
    lr_mult: 1
    decay_mult: 1
  }
  param {
    lr_mult: 2
    decay_mult: 0
  }
  inner_product_param {
    num_output: 2048
    weight_filler {
      type: "gaussian"
      std: 0.005
    }
    bias_filler {
      type: "constant"
    }
  }
}
layer {
  name: "relu7"
  type: "ReLU"
  bottom: "fc7"
  top: "relu7"
}
layer {
  name: "drop7"
  type: "Dropout"
  bottom: "relu7"
  top: "drop7"
  dropout_param {
    dropout_ratio: 0.5
  }
}
layer {
  name: "fc8"
  type: "InnerProduct"
  bottom: "drop7"
  top: "fc8"
  param {
    lr_mult: 1
    decay_mult: 1
  }
  param {
    lr_mult: 2
    decay_mult: 0
  }
  inner_product_param {
    num_output: 1000
    weight_filler {
      type: "gaussian"
      std: 0.01
    }
    bias_filler {
      type: "constant"
    }
  }
}
layer {
  name: "loss"
  type: "SoftmaxWithLoss"
  bottom: "fc8"
  bottom: "label"
  top: "loss"
}
I0920 17:26:23.695114  7814 layer_factory.hpp:77] Creating layer data
I0920 17:26:23.696338  7814 net.cpp:106] Creating Layer data
I0920 17:26:23.696367  7814 net.cpp:411] data -> data
I0920 17:26:23.696405  7814 net.cpp:411] data -> label
I0920 17:26:23.698187  7851 db_lmdb.cpp:38] Opened lmdb /local/temporary/mishkdmy/imagenet144pxlmdb/ilsvrc12_128_train_lmdb
I0920 17:26:23.715916  7814 data_layer.cpp:41] output data size: 256,3,128,128
I0920 17:26:23.823370  7814 net.cpp:150] Setting up data
I0920 17:26:23.823434  7814 net.cpp:157] Top shape: 256 3 128 128 (12582912)
I0920 17:26:23.823441  7814 net.cpp:157] Top shape: 256 (256)
I0920 17:26:23.823446  7814 net.cpp:165] Memory required for data: 50332672
I0920 17:26:23.823463  7814 layer_factory.hpp:77] Creating layer conv1
I0920 17:26:23.823516  7814 net.cpp:106] Creating Layer conv1
I0920 17:26:23.823523  7814 net.cpp:454] conv1 <- data
I0920 17:26:23.823545  7814 net.cpp:411] conv1 -> conv1
I0920 17:26:24.043939  7814 net.cpp:150] Setting up conv1
I0920 17:26:24.043985  7814 net.cpp:157] Top shape: 256 96 30 30 (22118400)
I0920 17:26:24.043992  7814 net.cpp:165] Memory required for data: 138806272
I0920 17:26:24.044020  7814 layer_factory.hpp:77] Creating layer relu1
I0920 17:26:24.044037  7814 net.cpp:106] Creating Layer relu1
I0920 17:26:24.044049  7814 net.cpp:454] relu1 <- conv1
I0920 17:26:24.044066  7814 net.cpp:411] relu1 -> relu1
I0920 17:26:24.044591  7814 net.cpp:150] Setting up relu1
I0920 17:26:24.044610  7814 net.cpp:157] Top shape: 256 96 30 30 (22118400)
I0920 17:26:24.044617  7814 net.cpp:165] Memory required for data: 227279872
I0920 17:26:24.044623  7814 layer_factory.hpp:77] Creating layer relu1_relu1_0_split
I0920 17:26:24.044634  7814 net.cpp:106] Creating Layer relu1_relu1_0_split
I0920 17:26:24.044639  7814 net.cpp:454] relu1_relu1_0_split <- relu1
I0920 17:26:24.044649  7814 net.cpp:411] relu1_relu1_0_split -> relu1_relu1_0_split_0
I0920 17:26:24.044662  7814 net.cpp:411] relu1_relu1_0_split -> relu1_relu1_0_split_1
I0920 17:26:24.044733  7814 net.cpp:150] Setting up relu1_relu1_0_split
I0920 17:26:24.044744  7814 net.cpp:157] Top shape: 256 96 30 30 (22118400)
I0920 17:26:24.044751  7814 net.cpp:157] Top shape: 256 96 30 30 (22118400)
I0920 17:26:24.044757  7814 net.cpp:165] Memory required for data: 404227072
I0920 17:26:24.044764  7814 layer_factory.hpp:77] Creating layer conv1_nin
I0920 17:26:24.044785  7814 net.cpp:106] Creating Layer conv1_nin
I0920 17:26:24.044792  7814 net.cpp:454] conv1_nin <- relu1_relu1_0_split_0
I0920 17:26:24.044803  7814 net.cpp:411] conv1_nin -> conv1_nin
I0920 17:26:24.047540  7814 net.cpp:150] Setting up conv1_nin
I0920 17:26:24.047564  7814 net.cpp:157] Top shape: 256 96 30 30 (22118400)
I0920 17:26:24.047570  7814 net.cpp:165] Memory required for data: 492700672
I0920 17:26:24.047590  7814 layer_factory.hpp:77] Creating layer relu_nin1
I0920 17:26:24.047602  7814 net.cpp:106] Creating Layer relu_nin1
I0920 17:26:24.047648  7814 net.cpp:454] relu_nin1 <- conv1_nin
I0920 17:26:24.047659  7814 net.cpp:411] relu_nin1 -> relu_nin1
I0920 17:26:24.048163  7814 net.cpp:150] Setting up relu_nin1
I0920 17:26:24.048182  7814 net.cpp:157] Top shape: 256 96 30 30 (22118400)
I0920 17:26:24.048189  7814 net.cpp:165] Memory required for data: 581174272
I0920 17:26:24.048198  7814 layer_factory.hpp:77] Creating layer conv1_nin2
I0920 17:26:24.048218  7814 net.cpp:106] Creating Layer conv1_nin2
I0920 17:26:24.048225  7814 net.cpp:454] conv1_nin2 <- relu_nin1
I0920 17:26:24.048238  7814 net.cpp:411] conv1_nin2 -> conv1_nin2
I0920 17:26:24.050338  7814 net.cpp:150] Setting up conv1_nin2
I0920 17:26:24.050359  7814 net.cpp:157] Top shape: 256 96 30 30 (22118400)
I0920 17:26:24.050374  7814 net.cpp:165] Memory required for data: 669647872
I0920 17:26:24.050391  7814 layer_factory.hpp:77] Creating layer relu_nin2
I0920 17:26:24.050403  7814 net.cpp:106] Creating Layer relu_nin2
I0920 17:26:24.050410  7814 net.cpp:454] relu_nin2 <- conv1_nin2
I0920 17:26:24.050421  7814 net.cpp:411] relu_nin2 -> relu_nin2
I0920 17:26:24.050748  7814 net.cpp:150] Setting up relu_nin2
I0920 17:26:24.050761  7814 net.cpp:157] Top shape: 256 96 30 30 (22118400)
I0920 17:26:24.050767  7814 net.cpp:165] Memory required for data: 758121472
I0920 17:26:24.050775  7814 layer_factory.hpp:77] Creating layer relu_nin2_res
I0920 17:26:24.050791  7814 net.cpp:106] Creating Layer relu_nin2_res
I0920 17:26:24.050797  7814 net.cpp:454] relu_nin2_res <- relu_nin2
I0920 17:26:24.050807  7814 net.cpp:454] relu_nin2_res <- relu1_relu1_0_split_1
I0920 17:26:24.050823  7814 net.cpp:411] relu_nin2_res -> relu_nin2_res
I0920 17:26:24.050868  7814 net.cpp:150] Setting up relu_nin2_res
I0920 17:26:24.050879  7814 net.cpp:157] Top shape: 256 96 30 30 (22118400)
I0920 17:26:24.050885  7814 net.cpp:165] Memory required for data: 846595072
I0920 17:26:24.050891  7814 layer_factory.hpp:77] Creating layer relu_nin2_res_relu_nin2_res_0_split
I0920 17:26:24.050901  7814 net.cpp:106] Creating Layer relu_nin2_res_relu_nin2_res_0_split
I0920 17:26:24.050907  7814 net.cpp:454] relu_nin2_res_relu_nin2_res_0_split <- relu_nin2_res
I0920 17:26:24.050917  7814 net.cpp:411] relu_nin2_res_relu_nin2_res_0_split -> relu_nin2_res_relu_nin2_res_0_split_0
I0920 17:26:24.050945  7814 net.cpp:411] relu_nin2_res_relu_nin2_res_0_split -> relu_nin2_res_relu_nin2_res_0_split_1
I0920 17:26:24.051003  7814 net.cpp:150] Setting up relu_nin2_res_relu_nin2_res_0_split
I0920 17:26:24.051013  7814 net.cpp:157] Top shape: 256 96 30 30 (22118400)
I0920 17:26:24.051021  7814 net.cpp:157] Top shape: 256 96 30 30 (22118400)
I0920 17:26:24.051026  7814 net.cpp:165] Memory required for data: 1023542272
I0920 17:26:24.051033  7814 layer_factory.hpp:77] Creating layer conv1_nin3
I0920 17:26:24.051049  7814 net.cpp:106] Creating Layer conv1_nin3
I0920 17:26:24.051056  7814 net.cpp:454] conv1_nin3 <- relu_nin2_res_relu_nin2_res_0_split_0
I0920 17:26:24.051069  7814 net.cpp:411] conv1_nin3 -> conv1_nin3
I0920 17:26:24.053246  7814 net.cpp:150] Setting up conv1_nin3
I0920 17:26:24.053269  7814 net.cpp:157] Top shape: 256 96 30 30 (22118400)
I0920 17:26:24.053277  7814 net.cpp:165] Memory required for data: 1112015872
I0920 17:26:24.053297  7814 layer_factory.hpp:77] Creating layer relu_nin3
I0920 17:26:24.053308  7814 net.cpp:106] Creating Layer relu_nin3
I0920 17:26:24.053314  7814 net.cpp:454] relu_nin3 <- conv1_nin3
I0920 17:26:24.053324  7814 net.cpp:411] relu_nin3 -> relu_nin3
I0920 17:26:24.053825  7814 net.cpp:150] Setting up relu_nin3
I0920 17:26:24.053844  7814 net.cpp:157] Top shape: 256 96 30 30 (22118400)
I0920 17:26:24.053853  7814 net.cpp:165] Memory required for data: 1200489472
I0920 17:26:24.053858  7814 layer_factory.hpp:77] Creating layer conv1_nin4
I0920 17:26:24.053875  7814 net.cpp:106] Creating Layer conv1_nin4
I0920 17:26:24.053884  7814 net.cpp:454] conv1_nin4 <- relu_nin3
I0920 17:26:24.053897  7814 net.cpp:411] conv1_nin4 -> conv1_nin4
I0920 17:26:24.055852  7814 net.cpp:150] Setting up conv1_nin4
I0920 17:26:24.055899  7814 net.cpp:157] Top shape: 256 96 30 30 (22118400)
I0920 17:26:24.055907  7814 net.cpp:165] Memory required for data: 1288963072
I0920 17:26:24.055929  7814 layer_factory.hpp:77] Creating layer relu_nin4
I0920 17:26:24.055940  7814 net.cpp:106] Creating Layer relu_nin4
I0920 17:26:24.055946  7814 net.cpp:454] relu_nin4 <- conv1_nin4
I0920 17:26:24.055955  7814 net.cpp:411] relu_nin4 -> relu_nin4
I0920 17:26:24.056435  7814 net.cpp:150] Setting up relu_nin4
I0920 17:26:24.056453  7814 net.cpp:157] Top shape: 256 96 30 30 (22118400)
I0920 17:26:24.056459  7814 net.cpp:165] Memory required for data: 1377436672
I0920 17:26:24.056464  7814 layer_factory.hpp:77] Creating layer relu_nin4_res
I0920 17:26:24.056476  7814 net.cpp:106] Creating Layer relu_nin4_res
I0920 17:26:24.056481  7814 net.cpp:454] relu_nin4_res <- relu_nin4
I0920 17:26:24.056488  7814 net.cpp:454] relu_nin4_res <- relu_nin2_res_relu_nin2_res_0_split_1
I0920 17:26:24.056499  7814 net.cpp:411] relu_nin4_res -> relu_nin4_res
I0920 17:26:24.056540  7814 net.cpp:150] Setting up relu_nin4_res
I0920 17:26:24.056550  7814 net.cpp:157] Top shape: 256 96 30 30 (22118400)
I0920 17:26:24.056553  7814 net.cpp:165] Memory required for data: 1465910272
I0920 17:26:24.056558  7814 layer_factory.hpp:77] Creating layer relu_nin4_res_relu_nin4_res_0_split
I0920 17:26:24.056571  7814 net.cpp:106] Creating Layer relu_nin4_res_relu_nin4_res_0_split
I0920 17:26:24.056576  7814 net.cpp:454] relu_nin4_res_relu_nin4_res_0_split <- relu_nin4_res
I0920 17:26:24.056584  7814 net.cpp:411] relu_nin4_res_relu_nin4_res_0_split -> relu_nin4_res_relu_nin4_res_0_split_0
I0920 17:26:24.056593  7814 net.cpp:411] relu_nin4_res_relu_nin4_res_0_split -> relu_nin4_res_relu_nin4_res_0_split_1
I0920 17:26:24.056648  7814 net.cpp:150] Setting up relu_nin4_res_relu_nin4_res_0_split
I0920 17:26:24.056656  7814 net.cpp:157] Top shape: 256 96 30 30 (22118400)
I0920 17:26:24.056663  7814 net.cpp:157] Top shape: 256 96 30 30 (22118400)
I0920 17:26:24.056668  7814 net.cpp:165] Memory required for data: 1642857472
I0920 17:26:24.056673  7814 layer_factory.hpp:77] Creating layer conv1_nin5
I0920 17:26:24.056699  7814 net.cpp:106] Creating Layer conv1_nin5
I0920 17:26:24.056705  7814 net.cpp:454] conv1_nin5 <- relu_nin4_res_relu_nin4_res_0_split_0
I0920 17:26:24.056715  7814 net.cpp:411] conv1_nin5 -> conv1_nin5
I0920 17:26:24.058737  7814 net.cpp:150] Setting up conv1_nin5
I0920 17:26:24.058756  7814 net.cpp:157] Top shape: 256 96 30 30 (22118400)
I0920 17:26:24.058773  7814 net.cpp:165] Memory required for data: 1731331072
I0920 17:26:24.058792  7814 layer_factory.hpp:77] Creating layer relu_nin5
I0920 17:26:24.058801  7814 net.cpp:106] Creating Layer relu_nin5
I0920 17:26:24.058807  7814 net.cpp:454] relu_nin5 <- conv1_nin5
I0920 17:26:24.058816  7814 net.cpp:411] relu_nin5 -> relu_nin5
I0920 17:26:24.059139  7814 net.cpp:150] Setting up relu_nin5
I0920 17:26:24.059152  7814 net.cpp:157] Top shape: 256 96 30 30 (22118400)
I0920 17:26:24.059157  7814 net.cpp:165] Memory required for data: 1819804672
I0920 17:26:24.059162  7814 layer_factory.hpp:77] Creating layer conv1_nin6
I0920 17:26:24.059178  7814 net.cpp:106] Creating Layer conv1_nin6
I0920 17:26:24.059183  7814 net.cpp:454] conv1_nin6 <- relu_nin5
I0920 17:26:24.059193  7814 net.cpp:411] conv1_nin6 -> conv1_nin6
I0920 17:26:24.061342  7814 net.cpp:150] Setting up conv1_nin6
I0920 17:26:24.061368  7814 net.cpp:157] Top shape: 256 96 30 30 (22118400)
I0920 17:26:24.061374  7814 net.cpp:165] Memory required for data: 1908278272
I0920 17:26:24.061385  7814 layer_factory.hpp:77] Creating layer relu_nin6
I0920 17:26:24.061395  7814 net.cpp:106] Creating Layer relu_nin6
I0920 17:26:24.061400  7814 net.cpp:454] relu_nin6 <- conv1_nin6
I0920 17:26:24.061409  7814 net.cpp:411] relu_nin6 -> relu_nin6
I0920 17:26:24.061900  7814 net.cpp:150] Setting up relu_nin6
I0920 17:26:24.061928  7814 net.cpp:157] Top shape: 256 96 30 30 (22118400)
I0920 17:26:24.061933  7814 net.cpp:165] Memory required for data: 1996751872
I0920 17:26:24.061939  7814 layer_factory.hpp:77] Creating layer relu_nin6_res
I0920 17:26:24.061974  7814 net.cpp:106] Creating Layer relu_nin6_res
I0920 17:26:24.061980  7814 net.cpp:454] relu_nin6_res <- relu_nin6
I0920 17:26:24.061990  7814 net.cpp:454] relu_nin6_res <- relu_nin4_res_relu_nin4_res_0_split_1
I0920 17:26:24.062005  7814 net.cpp:411] relu_nin6_res -> relu_nin6_res
I0920 17:26:24.062049  7814 net.cpp:150] Setting up relu_nin6_res
I0920 17:26:24.062058  7814 net.cpp:157] Top shape: 256 96 30 30 (22118400)
I0920 17:26:24.062064  7814 net.cpp:165] Memory required for data: 2085225472
I0920 17:26:24.062070  7814 layer_factory.hpp:77] Creating layer relu_nin6_res_relu_nin6_res_0_split
I0920 17:26:24.062079  7814 net.cpp:106] Creating Layer relu_nin6_res_relu_nin6_res_0_split
I0920 17:26:24.062086  7814 net.cpp:454] relu_nin6_res_relu_nin6_res_0_split <- relu_nin6_res
I0920 17:26:24.062095  7814 net.cpp:411] relu_nin6_res_relu_nin6_res_0_split -> relu_nin6_res_relu_nin6_res_0_split_0
I0920 17:26:24.062104  7814 net.cpp:411] relu_nin6_res_relu_nin6_res_0_split -> relu_nin6_res_relu_nin6_res_0_split_1
I0920 17:26:24.062161  7814 net.cpp:150] Setting up relu_nin6_res_relu_nin6_res_0_split
I0920 17:26:24.062170  7814 net.cpp:157] Top shape: 256 96 30 30 (22118400)
I0920 17:26:24.062177  7814 net.cpp:157] Top shape: 256 96 30 30 (22118400)
I0920 17:26:24.062182  7814 net.cpp:165] Memory required for data: 2262172672
I0920 17:26:24.062188  7814 layer_factory.hpp:77] Creating layer conv1_nin7
I0920 17:26:24.062206  7814 net.cpp:106] Creating Layer conv1_nin7
I0920 17:26:24.062211  7814 net.cpp:454] conv1_nin7 <- relu_nin6_res_relu_nin6_res_0_split_0
I0920 17:26:24.062222  7814 net.cpp:411] conv1_nin7 -> conv1_nin7
I0920 17:26:24.064103  7814 net.cpp:150] Setting up conv1_nin7
I0920 17:26:24.064122  7814 net.cpp:157] Top shape: 256 96 30 30 (22118400)
I0920 17:26:24.064129  7814 net.cpp:165] Memory required for data: 2350646272
I0920 17:26:24.064146  7814 layer_factory.hpp:77] Creating layer relu_nin7
I0920 17:26:24.064157  7814 net.cpp:106] Creating Layer relu_nin7
I0920 17:26:24.064162  7814 net.cpp:454] relu_nin7 <- conv1_nin7
I0920 17:26:24.064172  7814 net.cpp:411] relu_nin7 -> relu_nin7
I0920 17:26:24.064647  7814 net.cpp:150] Setting up relu_nin7
I0920 17:26:24.064663  7814 net.cpp:157] Top shape: 256 96 30 30 (22118400)
I0920 17:26:24.064671  7814 net.cpp:165] Memory required for data: 2439119872
I0920 17:26:24.064680  7814 layer_factory.hpp:77] Creating layer conv1_nin8
I0920 17:26:24.064698  7814 net.cpp:106] Creating Layer conv1_nin8
I0920 17:26:24.064705  7814 net.cpp:454] conv1_nin8 <- relu_nin7
I0920 17:26:24.064718  7814 net.cpp:411] conv1_nin8 -> conv1_nin8
I0920 17:26:24.066730  7814 net.cpp:150] Setting up conv1_nin8
I0920 17:26:24.066748  7814 net.cpp:157] Top shape: 256 96 30 30 (22118400)
I0920 17:26:24.066754  7814 net.cpp:165] Memory required for data: 2527593472
I0920 17:26:24.066773  7814 layer_factory.hpp:77] Creating layer relu_nin8
I0920 17:26:24.066783  7814 net.cpp:106] Creating Layer relu_nin8
I0920 17:26:24.066790  7814 net.cpp:454] relu_nin8 <- conv1_nin8
I0920 17:26:24.066799  7814 net.cpp:411] relu_nin8 -> relu_nin8
I0920 17:26:24.067131  7814 net.cpp:150] Setting up relu_nin8
I0920 17:26:24.067143  7814 net.cpp:157] Top shape: 256 96 30 30 (22118400)
I0920 17:26:24.067149  7814 net.cpp:165] Memory required for data: 2616067072
I0920 17:26:24.067160  7814 layer_factory.hpp:77] Creating layer relu_nin8_res
I0920 17:26:24.067178  7814 net.cpp:106] Creating Layer relu_nin8_res
I0920 17:26:24.067183  7814 net.cpp:454] relu_nin8_res <- relu_nin8
I0920 17:26:24.067191  7814 net.cpp:454] relu_nin8_res <- relu_nin6_res_relu_nin6_res_0_split_1
I0920 17:26:24.067200  7814 net.cpp:411] relu_nin8_res -> relu_nin8_res
I0920 17:26:24.067239  7814 net.cpp:150] Setting up relu_nin8_res
I0920 17:26:24.067248  7814 net.cpp:157] Top shape: 256 96 30 30 (22118400)
I0920 17:26:24.067253  7814 net.cpp:165] Memory required for data: 2704540672
I0920 17:26:24.067258  7814 layer_factory.hpp:77] Creating layer conv1_nin9
I0920 17:26:24.067275  7814 net.cpp:106] Creating Layer conv1_nin9
I0920 17:26:24.067299  7814 net.cpp:454] conv1_nin9 <- relu_nin8_res
I0920 17:26:24.067313  7814 net.cpp:411] conv1_nin9 -> conv1_nin9
I0920 17:26:24.069299  7814 net.cpp:150] Setting up conv1_nin9
I0920 17:26:24.069329  7814 net.cpp:157] Top shape: 256 96 30 30 (22118400)
I0920 17:26:24.069332  7814 net.cpp:165] Memory required for data: 2793014272
I0920 17:26:24.069342  7814 layer_factory.hpp:77] Creating layer relu_nin9
I0920 17:26:24.069355  7814 net.cpp:106] Creating Layer relu_nin9
I0920 17:26:24.069360  7814 net.cpp:454] relu_nin9 <- conv1_nin9
I0920 17:26:24.069368  7814 net.cpp:411] relu_nin9 -> relu_nin9
I0920 17:26:24.069851  7814 net.cpp:150] Setting up relu_nin9
I0920 17:26:24.069867  7814 net.cpp:157] Top shape: 256 96 30 30 (22118400)
I0920 17:26:24.069877  7814 net.cpp:165] Memory required for data: 2881487872
I0920 17:26:24.069882  7814 layer_factory.hpp:77] Creating layer pool1
I0920 17:26:24.069895  7814 net.cpp:106] Creating Layer pool1
I0920 17:26:24.069900  7814 net.cpp:454] pool1 <- relu_nin9
I0920 17:26:24.069912  7814 net.cpp:411] pool1 -> pool1
I0920 17:26:24.069993  7814 net.cpp:150] Setting up pool1
I0920 17:26:24.070003  7814 net.cpp:157] Top shape: 256 96 15 15 (5529600)
I0920 17:26:24.070008  7814 net.cpp:165] Memory required for data: 2903606272
I0920 17:26:24.070011  7814 layer_factory.hpp:77] Creating layer conv2
I0920 17:26:24.070031  7814 net.cpp:106] Creating Layer conv2
I0920 17:26:24.070037  7814 net.cpp:454] conv2 <- pool1
I0920 17:26:24.070053  7814 net.cpp:411] conv2 -> conv2
I0920 17:26:24.086926  7814 net.cpp:150] Setting up conv2
I0920 17:26:24.086951  7814 net.cpp:157] Top shape: 256 256 15 15 (14745600)
I0920 17:26:24.086956  7814 net.cpp:165] Memory required for data: 2962588672
I0920 17:26:24.086967  7814 layer_factory.hpp:77] Creating layer relu2
I0920 17:26:24.086990  7814 net.cpp:106] Creating Layer relu2
I0920 17:26:24.086997  7814 net.cpp:454] relu2 <- conv2
I0920 17:26:24.087013  7814 net.cpp:411] relu2 -> relu2
I0920 17:26:24.087469  7814 net.cpp:150] Setting up relu2
I0920 17:26:24.087484  7814 net.cpp:157] Top shape: 256 256 15 15 (14745600)
I0920 17:26:24.087494  7814 net.cpp:165] Memory required for data: 3021571072
I0920 17:26:24.087499  7814 layer_factory.hpp:77] Creating layer pool2
I0920 17:26:24.087518  7814 net.cpp:106] Creating Layer pool2
I0920 17:26:24.087523  7814 net.cpp:454] pool2 <- relu2
I0920 17:26:24.087532  7814 net.cpp:411] pool2 -> pool2
I0920 17:26:24.087599  7814 net.cpp:150] Setting up pool2
I0920 17:26:24.087608  7814 net.cpp:157] Top shape: 256 256 7 7 (3211264)
I0920 17:26:24.087612  7814 net.cpp:165] Memory required for data: 3034416128
I0920 17:26:24.087616  7814 layer_factory.hpp:77] Creating layer conv3
I0920 17:26:24.087631  7814 net.cpp:106] Creating Layer conv3
I0920 17:26:24.087638  7814 net.cpp:454] conv3 <- pool2
I0920 17:26:24.087648  7814 net.cpp:411] conv3 -> conv3
I0920 17:26:24.125473  7814 net.cpp:150] Setting up conv3
I0920 17:26:24.125507  7814 net.cpp:157] Top shape: 256 384 7 7 (4816896)
I0920 17:26:24.125512  7814 net.cpp:165] Memory required for data: 3053683712
I0920 17:26:24.125522  7814 layer_factory.hpp:77] Creating layer relu3
I0920 17:26:24.125533  7814 net.cpp:106] Creating Layer relu3
I0920 17:26:24.125538  7814 net.cpp:454] relu3 <- conv3
I0920 17:26:24.125546  7814 net.cpp:411] relu3 -> relu3
I0920 17:26:24.125838  7814 net.cpp:150] Setting up relu3
I0920 17:26:24.125849  7814 net.cpp:157] Top shape: 256 384 7 7 (4816896)
I0920 17:26:24.125852  7814 net.cpp:165] Memory required for data: 3072951296
I0920 17:26:24.125856  7814 layer_factory.hpp:77] Creating layer conv4
I0920 17:26:24.125871  7814 net.cpp:106] Creating Layer conv4
I0920 17:26:24.125879  7814 net.cpp:454] conv4 <- relu3
I0920 17:26:24.125887  7814 net.cpp:411] conv4 -> conv4
I0920 17:26:24.152420  7814 net.cpp:150] Setting up conv4
I0920 17:26:24.152452  7814 net.cpp:157] Top shape: 256 384 7 7 (4816896)
I0920 17:26:24.152456  7814 net.cpp:165] Memory required for data: 3092218880
I0920 17:26:24.152464  7814 layer_factory.hpp:77] Creating layer relu4
I0920 17:26:24.152503  7814 net.cpp:106] Creating Layer relu4
I0920 17:26:24.152508  7814 net.cpp:454] relu4 <- conv4
I0920 17:26:24.152518  7814 net.cpp:411] relu4 -> relu4
I0920 17:26:24.152787  7814 net.cpp:150] Setting up relu4
I0920 17:26:24.152796  7814 net.cpp:157] Top shape: 256 384 7 7 (4816896)
I0920 17:26:24.152801  7814 net.cpp:165] Memory required for data: 3111486464
I0920 17:26:24.152803  7814 layer_factory.hpp:77] Creating layer conv5
I0920 17:26:24.152824  7814 net.cpp:106] Creating Layer conv5
I0920 17:26:24.152829  7814 net.cpp:454] conv5 <- relu4
I0920 17:26:24.152843  7814 net.cpp:411] conv5 -> conv5
I0920 17:26:24.169808  7814 net.cpp:150] Setting up conv5
I0920 17:26:24.169838  7814 net.cpp:157] Top shape: 256 256 7 7 (3211264)
I0920 17:26:24.169842  7814 net.cpp:165] Memory required for data: 3124331520
I0920 17:26:24.169850  7814 layer_factory.hpp:77] Creating layer relu5
I0920 17:26:24.169858  7814 net.cpp:106] Creating Layer relu5
I0920 17:26:24.169862  7814 net.cpp:454] relu5 <- conv5
I0920 17:26:24.169869  7814 net.cpp:411] relu5 -> relu5
I0920 17:26:24.170111  7814 net.cpp:150] Setting up relu5
I0920 17:26:24.170121  7814 net.cpp:157] Top shape: 256 256 7 7 (3211264)
I0920 17:26:24.170125  7814 net.cpp:165] Memory required for data: 3137176576
I0920 17:26:24.170127  7814 layer_factory.hpp:77] Creating layer pool5
I0920 17:26:24.170135  7814 net.cpp:106] Creating Layer pool5
I0920 17:26:24.170140  7814 net.cpp:454] pool5 <- relu5
I0920 17:26:24.170147  7814 net.cpp:411] pool5 -> pool5
I0920 17:26:24.170194  7814 net.cpp:150] Setting up pool5
I0920 17:26:24.170200  7814 net.cpp:157] Top shape: 256 256 3 3 (589824)
I0920 17:26:24.170203  7814 net.cpp:165] Memory required for data: 3139535872
I0920 17:26:24.170207  7814 layer_factory.hpp:77] Creating layer fc6
I0920 17:26:24.170214  7814 net.cpp:106] Creating Layer fc6
I0920 17:26:24.170219  7814 net.cpp:454] fc6 <- pool5
I0920 17:26:24.170227  7814 net.cpp:411] fc6 -> fc6
I0920 17:26:24.322047  7814 net.cpp:150] Setting up fc6
I0920 17:26:24.322087  7814 net.cpp:157] Top shape: 256 2048 (524288)
I0920 17:26:24.322090  7814 net.cpp:165] Memory required for data: 3141633024
I0920 17:26:24.322100  7814 layer_factory.hpp:77] Creating layer relu6
I0920 17:26:24.322110  7814 net.cpp:106] Creating Layer relu6
I0920 17:26:24.322115  7814 net.cpp:454] relu6 <- fc6
I0920 17:26:24.322124  7814 net.cpp:411] relu6 -> relu6
I0920 17:26:24.322551  7814 net.cpp:150] Setting up relu6
I0920 17:26:24.322563  7814 net.cpp:157] Top shape: 256 2048 (524288)
I0920 17:26:24.322572  7814 net.cpp:165] Memory required for data: 3143730176
I0920 17:26:24.322576  7814 layer_factory.hpp:77] Creating layer drop6
I0920 17:26:24.322583  7814 net.cpp:106] Creating Layer drop6
I0920 17:26:24.322587  7814 net.cpp:454] drop6 <- relu6
I0920 17:26:24.322593  7814 net.cpp:411] drop6 -> drop6
I0920 17:26:24.322649  7814 net.cpp:150] Setting up drop6
I0920 17:26:24.322656  7814 net.cpp:157] Top shape: 256 2048 (524288)
I0920 17:26:24.322659  7814 net.cpp:165] Memory required for data: 3145827328
I0920 17:26:24.322662  7814 layer_factory.hpp:77] Creating layer fc7
I0920 17:26:24.322672  7814 net.cpp:106] Creating Layer fc7
I0920 17:26:24.322679  7814 net.cpp:454] fc7 <- drop6
I0920 17:26:24.322684  7814 net.cpp:411] fc7 -> fc7
I0920 17:26:24.456894  7814 net.cpp:150] Setting up fc7
I0920 17:26:24.456929  7814 net.cpp:157] Top shape: 256 2048 (524288)
I0920 17:26:24.456933  7814 net.cpp:165] Memory required for data: 3147924480
I0920 17:26:24.456943  7814 layer_factory.hpp:77] Creating layer relu7
I0920 17:26:24.456953  7814 net.cpp:106] Creating Layer relu7
I0920 17:26:24.456957  7814 net.cpp:454] relu7 <- fc7
I0920 17:26:24.456965  7814 net.cpp:411] relu7 -> relu7
I0920 17:26:24.457255  7814 net.cpp:150] Setting up relu7
I0920 17:26:24.457263  7814 net.cpp:157] Top shape: 256 2048 (524288)
I0920 17:26:24.457267  7814 net.cpp:165] Memory required for data: 3150021632
I0920 17:26:24.457270  7814 layer_factory.hpp:77] Creating layer drop7
I0920 17:26:24.457309  7814 net.cpp:106] Creating Layer drop7
I0920 17:26:24.457312  7814 net.cpp:454] drop7 <- relu7
I0920 17:26:24.457320  7814 net.cpp:411] drop7 -> drop7
I0920 17:26:24.457365  7814 net.cpp:150] Setting up drop7
I0920 17:26:24.457371  7814 net.cpp:157] Top shape: 256 2048 (524288)
I0920 17:26:24.457375  7814 net.cpp:165] Memory required for data: 3152118784
I0920 17:26:24.457377  7814 layer_factory.hpp:77] Creating layer fc8
I0920 17:26:24.457387  7814 net.cpp:106] Creating Layer fc8
I0920 17:26:24.457392  7814 net.cpp:454] fc8 <- drop7
I0920 17:26:24.457401  7814 net.cpp:411] fc8 -> fc8
I0920 17:26:24.522889  7814 net.cpp:150] Setting up fc8
I0920 17:26:24.522927  7814 net.cpp:157] Top shape: 256 1000 (256000)
I0920 17:26:24.522933  7814 net.cpp:165] Memory required for data: 3153142784
I0920 17:26:24.522953  7814 layer_factory.hpp:77] Creating layer loss
I0920 17:26:24.522964  7814 net.cpp:106] Creating Layer loss
I0920 17:26:24.522970  7814 net.cpp:454] loss <- fc8
I0920 17:26:24.522982  7814 net.cpp:454] loss <- label
I0920 17:26:24.522989  7814 net.cpp:411] loss -> loss
I0920 17:26:24.523010  7814 layer_factory.hpp:77] Creating layer loss
…
I0920 17:26:24.525020  7814 net.cpp:322] The NetState phase (1) differed from the phase (0) specified by a rule in layer data
I0920 17:26:24.525585  7814 net.cpp:49] Initializing net from parameters: 
name: "CaffeNet"
state {
  phase: TEST
}
layer {
  name: "data"
  type: "Data"
  top: "data"
  top: "label"
  include {
    phase: TEST
  }
  transform_param {
    scale: 0.04
    mirror: false
    crop_size: 128
    mean_value: 104
    mean_value: 117
    mean_value: 123
    force_color: true
  }
  data_param {
    source: "/local/temporary/mishkdmy/imagenet144pxlmdb/ilsvrc12_128_val_lmdb"
    batch_size: 50
    backend: LMDB
  }
}
layer {
  name: "conv1"
  type: "Convolution"
  bottom: "data"
  top: "conv1"
  param {
    lr_mult: 1
    decay_mult: 1
  }
  param {
    lr_mult: 2
    decay_mult: 0
  }
  convolution_param {
    num_output: 96
    kernel_size: 11
    stride: 4
    weight_filler {
      type: "gaussian"
      std: 0.01
    }
    bias_filler {
      type: "constant"
    }
  }
}
layer {
  name: "relu1"
  type: "ReLU"
  bottom: "conv1"
  top: "relu1"
}
layer {
  name: "conv1_nin"
  type: "Convolution"
  bottom: "relu1"
  top: "conv1_nin"
  param {
    lr_mult: 1
    decay_mult: 1
  }
  param {
    lr_mult: 2
    decay_mult: 0
  }
  convolution_param {
    num_output: 96
    kernel_size: 1
    stride: 1
    weight_filler {
      type: "gaussian"
      std: 0.01
    }
    bias_filler {
      type: "constant"
    }
  }
}
layer {
  name: "relu_nin1"
  type: "ReLU"
  bottom: "conv1_nin"
  top: "relu_nin1"
}
layer {
  name: "conv1_nin2"
  type: "Convolution"
  bottom: "relu_nin1"
  top: "conv1_nin2"
  param {
    lr_mult: 1
    decay_mult: 1
  }
  param {
    lr_mult: 2
    decay_mult: 0
  }
  convolution_param {
    num_output: 96
    kernel_size: 1
    stride: 1
    weight_filler {
      type: "gaussian"
      std: 0.01
    }
    bias_filler {
      type: "constant"
    }
  }
}
layer {
  name: "relu_nin2"
  type: "ReLU"
  bottom: "conv1_nin2"
  top: "relu_nin2"
}
layer {
  name: "relu_nin2_res"
  type: "Eltwise"
  bottom: "relu_nin2"
  bottom: "relu1"
  top: "relu_nin2_res"
  eltwise_param {
    operation: SUM
  }
}
layer {
  name: "conv1_nin3"
  type: "Convolution"
  bottom: "relu_nin2_res"
  top: "conv1_nin3"
  param {
    lr_mult: 1
    decay_mult: 1
  }
  param {
    lr_mult: 2
    decay_mult: 0
  }
  convolution_param {
    num_output: 96
    kernel_size: 1
    stride: 1
    weight_filler {
      type: "gaussian"
      std: 0.01
    }
    bias_filler {
      type: "constant"
    }
  }
}
layer {
  name: "relu_nin3"
  type: "ReLU"
  bottom: "conv1_nin3"
  top: "relu_nin3"
}
layer {
  name: "conv1_nin4"
  type: "Convolution"
  bottom: "relu_nin3"
  top: "conv1_nin4"
  param {
    lr_mult: 1
    decay_mult: 1
  }
  param {
    lr_mult: 2
    decay_mult: 0
  }
  convolution_param {
    num_output: 96
    kernel_size: 1
    stride: 1
    weight_filler {
      type: "gaussian"
      std: 0.01
    }
    bias_filler {
      type: "constant"
    }
  }
}
layer {
  name: "relu_nin4"
  type: "ReLU"
  bottom: "conv1_nin4"
  top: "relu_nin4"
}
layer {
  name: "relu_nin4_res"
  type: "Eltwise"
  bottom: "relu_nin4"
  bottom: "relu_nin2_res"
  top: "relu_nin4_res"
  eltwise_param {
    operation: SUM
  }
}
layer {
  name: "conv1_nin5"
  type: "Convolution"
  bottom: "relu_nin4_res"
  top: "conv1_nin5"
  param {
    lr_mult: 1
    decay_mult: 1
  }
  param {
    lr_mult: 2
    decay_mult: 0
  }
  convolution_param {
    num_output: 96
    kernel_size: 1
    stride: 1
    weight_filler {
      type: "gaussian"
      std: 0.01
    }
    bias_filler {
      type: "constant"
    }
  }
}
layer {
  name: "relu_nin5"
  type: "ReLU"
  bottom: "conv1_nin5"
  top: "relu_nin5"
}
layer {
  name: "conv1_nin6"
  type: "Convolution"
  bottom: "relu_nin5"
  top: "conv1_nin6"
  param {
    lr_mult: 1
    decay_mult: 1
  }
  param {
    lr_mult: 2
    decay_mult: 0
  }
  convolution_param {
    num_output: 96
    kernel_size: 1
    stride: 1
    weight_filler {
      type: "gaussian"
      std: 0.01
    }
    bias_filler {
      type: "constant"
    }
  }
}
layer {
  name: "relu_nin6"
  type: "ReLU"
  bottom: "conv1_nin6"
  top: "relu_nin6"
}
layer {
  name: "relu_nin6_res"
  type: "Eltwise"
  bottom: "relu_nin6"
  bottom: "relu_nin4_res"
  top: "relu_nin6_res"
  eltwise_param {
    operation: SUM
  }
}
layer {
  name: "conv1_nin7"
  type: "Convolution"
  bottom: "relu_nin6_res"
  top: "conv1_nin7"
  param {
    lr_mult: 1
    decay_mult: 1
  }
  param {
    lr_mult: 2
    decay_mult: 0
  }
  convolution_param {
    num_output: 96
    kernel_size: 1
    stride: 1
    weight_filler {
      type: "gaussian"
      std: 0.01
    }
    bias_filler {
      type: "constant"
    }
  }
}
layer {
  name: "relu_nin7"
  type: "ReLU"
  bottom: "conv1_nin7"
  top: "relu_nin7"
}
layer {
  name: "conv1_nin8"
  type: "Convolution"
  bottom: "relu_nin7"
  top: "conv1_nin8"
  param {
    lr_mult: 1
    decay_mult: 1
  }
  param {
    lr_mult: 2
    decay_mult: 0
  }
  convolution_param {
    num_output: 96
    kernel_size: 1
    stride: 1
    weight_filler {
      type: "gaussian"
      std: 0.01
    }
    bias_filler {
      type: "constant"
    }
  }
}
layer {
  name: "relu_nin8"
  type: "ReLU"
  bottom: "conv1_nin8"
  top: "relu_nin8"
}
layer {
  name: "relu_nin8_res"
  type: "Eltwise"
  bottom: "relu_nin8"
  bottom: "relu_nin6_res"
  top: "relu_nin8_res"
  eltwise_param {
    operation: SUM
  }
}
layer {
  name: "conv1_nin9"
  type: "Convolution"
  bottom: "relu_nin8_res"
  top: "conv1_nin9"
  param {
    lr_mult: 1
    decay_mult: 1
  }
  param {
    lr_mult: 2
    decay_mult: 0
  }
  convolution_param {
    num_output: 96
    kernel_size: 1
    stride: 1
    weight_filler {
      type: "gaussian"
      std: 0.01
    }
    bias_filler {
      type: "constant"
    }
  }
}
layer {
  name: "relu_nin9"
  type: "ReLU"
  bottom: "conv1_nin9"
  top: "relu_nin9"
}
layer {
  name: "pool1"
  type: "Pooling"
  bottom: "relu_nin9"
  top: "pool1"
  pooling_param {
    pool: MAX
    kernel_size: 3
    stride: 2
  }
}
layer {
  name: "conv2"
  type: "Convolution"
  bottom: "pool1"
  top: "conv2"
  param {
    lr_mult: 1
    decay_mult: 1
  }
  param {
    lr_mult: 2
    decay_mult: 0
  }
  convolution_param {
    num_output: 256
    pad: 2
    kernel_size: 5
    group: 2
    weight_filler {
      type: "gaussian"
      std: 0.01
    }
    bias_filler {
      type: "constant"
    }
  }
}
layer {
  name: "relu2"
  type: "ReLU"
  bottom: "conv2"
  top: "relu2"
}
layer {
  name: "pool2"
  type: "Pooling"
  bottom: "relu2"
  top: "pool2"
  pooling_param {
    pool: MAX
    kernel_size: 3
    stride: 2
  }
}
layer {
  name: "conv3"
  type: "Convolution"
  bottom: "pool2"
  top: "conv3"
  param {
    lr_mult: 1
    decay_mult: 1
  }
  param {
    lr_mult: 2
    decay_mult: 0
  }
  convolution_param {
    num_output: 384
    pad: 1
    kernel_size: 3
    weight_filler {
      type: "gaussian"
      std: 0.01
    }
    bias_filler {
      type: "constant"
    }
  }
}
layer {
  name: "relu3"
  type: "ReLU"
  bottom: "conv3"
  top: "relu3"
}
layer {
  name: "conv4"
  type: "Convolution"
  bottom: "relu3"
  top: "conv4"
  param {
    lr_mult: 1
    decay_mult: 1
  }
  param {
    lr_mult: 2
    decay_mult: 0
  }
  convolution_param {
    num_output: 384
    pad: 1
    kernel_size: 3
    group: 2
    weight_filler {
      type: "gaussian"
      std: 0.01
    }
    bias_filler {
      type: "constant"
    }
  }
}
layer {
  name: "relu4"
  type: "ReLU"
  bottom: "conv4"
  top: "relu4"
}
layer {
  name: "conv5"
  type: "Convolution"
  bottom: "relu4"
  top: "conv5"
  param {
    lr_mult: 1
    decay_mult: 1
  }
  param {
    lr_mult: 2
    decay_mult: 0
  }
  convolution_param {
    num_output: 256
    pad: 1
    kernel_size: 3
    group: 2
    weight_filler {
      type: "gaussian"
      std: 0.01
    }
    bias_filler {
      type: "constant"
    }
  }
}
layer {
  name: "relu5"
  type: "ReLU"
  bottom: "conv5"
  top: "relu5"
}
layer {
  name: "pool5"
  type: "Pooling"
  bottom: "relu5"
  top: "pool5"
  pooling_param {
    pool: MAX
    kernel_size: 3
    stride: 2
  }
}
layer {
  name: "fc6"
  type: "InnerProduct"
  bottom: "pool5"
  top: "fc6"
  param {
    lr_mult: 1
    decay_mult: 1
  }
  param {
    lr_mult: 2
    decay_mult: 0
  }
  inner_product_param {
    num_output: 2048
    weight_filler {
      type: "gaussian"
      std: 0.005
    }
    bias_filler {
      type: "constant"
    }
  }
}
layer {
  name: "relu6"
  type: "ReLU"
  bottom: "fc6"
  top: "relu6"
}
layer {
  name: "drop6"
  type: "Dropout"
  bottom: "relu6"
  top: "drop6"
  dropout_param {
    dropout_ratio: 0.5
  }
}
layer {
  name: "fc7"
  type: "InnerProduct"
  bottom: "drop6"
  top: "fc7"
  param {
    lr_mult: 1
    decay_mult: 1
  }
  param {
    lr_mult: 2
    decay_mult: 0
  }
  inner_product_param {
    num_output: 2048
    weight_filler {
      type: "gaussian"
      std: 0.005
    }
    bias_filler {
      type: "constant"
    }
  }
}
layer {
  name: "relu7"
  type: "ReLU"
  bottom: "fc7"
  top: "relu7"
}
layer {
  name: "drop7"
  type: "Dropout"
  bottom: "relu7"
  top: "drop7"
  dropout_param {
    dropout_ratio: 0.5
  }
}
layer {
  name: "fc8"
  type: "InnerProduct"
  bottom: "drop7"
  top: "fc8"
  param {
    lr_mult: 1
    decay_mult: 1
  }
  param {
    lr_mult: 2
    decay_mult: 0
  }
  inner_product_param {
    num_output: 1000
    weight_filler {
      type: "gaussian"
      std: 0.01
    }
    bias_filler {
      type: "constant"
    }
  }
}
layer {
  name: "accuracy"
  type: "Accuracy"
  bottom: "fc8"
  bottom: "label"
  top: "accuracy"
  include {
    phase: TEST
  }
}
layer {
  name: "loss"
  type: "SoftmaxWithLoss"
  bottom: "fc8"
  bottom: "label"
  top: "loss"
}
I0920 17:26:24.525853  7814 layer_factory.hpp:77] Creating layer data
I0920 17:26:24.525960  7814 net.cpp:106] Creating Layer data
I0920 17:26:24.525969  7814 net.cpp:411] data -> data
I0920 17:26:24.525990  7814 net.cpp:411] data -> label
I0920 17:26:24.526979  7856 db_lmdb.cpp:38] Opened lmdb /local/temporary/mishkdmy/imagenet144pxlmdb/ilsvrc12_128_val_lmdb
I0920 17:26:24.527916  7814 data_layer.cpp:41] output data size: 50,3,128,128
I0920 17:26:24.552135  7814 net.cpp:150] Setting up data
I0920 17:26:24.552191  7814 net.cpp:157] Top shape: 50 3 128 128 (2457600)
I0920 17:26:24.552202  7814 net.cpp:157] Top shape: 50 (50)
I0920 17:26:24.552211  7814 net.cpp:165] Memory required for data: 9830600
I0920 17:26:24.552222  7814 layer_factory.hpp:77] Creating layer label_data_1_split
I0920 17:26:24.552263  7814 net.cpp:106] Creating Layer label_data_1_split
I0920 17:26:24.552270  7814 net.cpp:454] label_data_1_split <- label
I0920 17:26:24.552289  7814 net.cpp:411] label_data_1_split -> label_data_1_split_0
I0920 17:26:24.552310  7814 net.cpp:411] label_data_1_split -> label_data_1_split_1
I0920 17:26:24.552542  7814 net.cpp:150] Setting up label_data_1_split
I0920 17:26:24.552603  7814 net.cpp:157] Top shape: 50 (50)
I0920 17:26:24.552610  7814 net.cpp:157] Top shape: 50 (50)
I0920 17:26:24.552618  7814 net.cpp:165] Memory required for data: 9831000
I0920 17:26:24.552623  7814 layer_factory.hpp:77] Creating layer conv1
I0920 17:26:24.552659  7814 net.cpp:106] Creating Layer conv1
I0920 17:26:24.552664  7814 net.cpp:454] conv1 <- data
I0920 17:26:24.552677  7814 net.cpp:411] conv1 -> conv1
I0920 17:26:24.557809  7814 net.cpp:150] Setting up conv1
I0920 17:26:24.557845  7814 net.cpp:157] Top shape: 50 96 30 30 (4320000)
I0920 17:26:24.557852  7814 net.cpp:165] Memory required for data: 27111000
I0920 17:26:24.557886  7814 layer_factory.hpp:77] Creating layer relu1
I0920 17:26:24.557904  7814 net.cpp:106] Creating Layer relu1
I0920 17:26:24.557919  7814 net.cpp:454] relu1 <- conv1
I0920 17:26:24.557932  7814 net.cpp:411] relu1 -> relu1
I0920 17:26:24.558409  7814 net.cpp:150] Setting up relu1
I0920 17:26:24.558429  7814 net.cpp:157] Top shape: 50 96 30 30 (4320000)
I0920 17:26:24.558437  7814 net.cpp:165] Memory required for data: 44391000
I0920 17:26:24.558444  7814 layer_factory.hpp:77] Creating layer relu1_relu1_0_split
I0920 17:26:24.558462  7814 net.cpp:106] Creating Layer relu1_relu1_0_split
I0920 17:26:24.558468  7814 net.cpp:454] relu1_relu1_0_split <- relu1
I0920 17:26:24.558481  7814 net.cpp:411] relu1_relu1_0_split -> relu1_relu1_0_split_0
I0920 17:26:24.558493  7814 net.cpp:411] relu1_relu1_0_split -> relu1_relu1_0_split_1
I0920 17:26:24.558578  7814 net.cpp:150] Setting up relu1_relu1_0_split
I0920 17:26:24.558588  7814 net.cpp:157] Top shape: 50 96 30 30 (4320000)
I0920 17:26:24.558596  7814 net.cpp:157] Top shape: 50 96 30 30 (4320000)
I0920 17:26:24.558601  7814 net.cpp:165] Memory required for data: 78951000
I0920 17:26:24.558609  7814 layer_factory.hpp:77] Creating layer conv1_nin
I0920 17:26:24.558640  7814 net.cpp:106] Creating Layer conv1_nin
I0920 17:26:24.558647  7814 net.cpp:454] conv1_nin <- relu1_relu1_0_split_0
I0920 17:26:24.558661  7814 net.cpp:411] conv1_nin -> conv1_nin
I0920 17:26:24.561309  7814 net.cpp:150] Setting up conv1_nin
I0920 17:26:24.561339  7814 net.cpp:157] Top shape: 50 96 30 30 (4320000)
I0920 17:26:24.561345  7814 net.cpp:165] Memory required for data: 96231000
I0920 17:26:24.561364  7814 layer_factory.hpp:77] Creating layer relu_nin1
I0920 17:26:24.561388  7814 net.cpp:106] Creating Layer relu_nin1
I0920 17:26:24.561393  7814 net.cpp:454] relu_nin1 <- conv1_nin
I0920 17:26:24.561403  7814 net.cpp:411] relu_nin1 -> relu_nin1
I0920 17:26:24.562017  7814 net.cpp:150] Setting up relu_nin1
I0920 17:26:24.562038  7814 net.cpp:157] Top shape: 50 96 30 30 (4320000)
I0920 17:26:24.562047  7814 net.cpp:165] Memory required for data: 113511000
I0920 17:26:24.562053  7814 layer_factory.hpp:77] Creating layer conv1_nin2
I0920 17:26:24.562084  7814 net.cpp:106] Creating Layer conv1_nin2
I0920 17:26:24.562091  7814 net.cpp:454] conv1_nin2 <- relu_nin1
I0920 17:26:24.562103  7814 net.cpp:411] conv1_nin2 -> conv1_nin2
I0920 17:26:24.564416  7814 net.cpp:150] Setting up conv1_nin2
I0920 17:26:24.564445  7814 net.cpp:157] Top shape: 50 96 30 30 (4320000)
I0920 17:26:24.564450  7814 net.cpp:165] Memory required for data: 130791000
I0920 17:26:24.564467  7814 layer_factory.hpp:77] Creating layer relu_nin2
I0920 17:26:24.564487  7814 net.cpp:106] Creating Layer relu_nin2
I0920 17:26:24.564493  7814 net.cpp:454] relu_nin2 <- conv1_nin2
I0920 17:26:24.564502  7814 net.cpp:411] relu_nin2 -> relu_nin2
I0920 17:26:24.565057  7814 net.cpp:150] Setting up relu_nin2
I0920 17:26:24.565083  7814 net.cpp:157] Top shape: 50 96 30 30 (4320000)
I0920 17:26:24.565089  7814 net.cpp:165] Memory required for data: 148071000
I0920 17:26:24.565095  7814 layer_factory.hpp:77] Creating layer relu_nin2_res
I0920 17:26:24.565119  7814 net.cpp:106] Creating Layer relu_nin2_res
I0920 17:26:24.565124  7814 net.cpp:454] relu_nin2_res <- relu_nin2
I0920 17:26:24.565132  7814 net.cpp:454] relu_nin2_res <- relu1_relu1_0_split_1
I0920 17:26:24.565173  7814 net.cpp:411] relu_nin2_res -> relu_nin2_res
I0920 17:26:24.565229  7814 net.cpp:150] Setting up relu_nin2_res
I0920 17:26:24.565239  7814 net.cpp:157] Top shape: 50 96 30 30 (4320000)
I0920 17:26:24.565244  7814 net.cpp:165] Memory required for data: 165351000
I0920 17:26:24.565249  7814 layer_factory.hpp:77] Creating layer relu_nin2_res_relu_nin2_res_0_split
I0920 17:26:24.565258  7814 net.cpp:106] Creating Layer relu_nin2_res_relu_nin2_res_0_split
I0920 17:26:24.565263  7814 net.cpp:454] relu_nin2_res_relu_nin2_res_0_split <- relu_nin2_res
I0920 17:26:24.565274  7814 net.cpp:411] relu_nin2_res_relu_nin2_res_0_split -> relu_nin2_res_relu_nin2_res_0_split_0
I0920 17:26:24.565289  7814 net.cpp:411] relu_nin2_res_relu_nin2_res_0_split -> relu_nin2_res_relu_nin2_res_0_split_1
I0920 17:26:24.565357  7814 net.cpp:150] Setting up relu_nin2_res_relu_nin2_res_0_split
I0920 17:26:24.565373  7814 net.cpp:157] Top shape: 50 96 30 30 (4320000)
I0920 17:26:24.565382  7814 net.cpp:157] Top shape: 50 96 30 30 (4320000)
I0920 17:26:24.565387  7814 net.cpp:165] Memory required for data: 199911000
I0920 17:26:24.565392  7814 layer_factory.hpp:77] Creating layer conv1_nin3
I0920 17:26:24.565414  7814 net.cpp:106] Creating Layer conv1_nin3
I0920 17:26:24.565421  7814 net.cpp:454] conv1_nin3 <- relu_nin2_res_relu_nin2_res_0_split_0
I0920 17:26:24.565431  7814 net.cpp:411] conv1_nin3 -> conv1_nin3
I0920 17:26:24.567980  7814 net.cpp:150] Setting up conv1_nin3
I0920 17:26:24.567999  7814 net.cpp:157] Top shape: 50 96 30 30 (4320000)
I0920 17:26:24.568006  7814 net.cpp:165] Memory required for data: 217191000
I0920 17:26:24.568017  7814 layer_factory.hpp:77] Creating layer relu_nin3
I0920 17:26:24.568030  7814 net.cpp:106] Creating Layer relu_nin3
I0920 17:26:24.568037  7814 net.cpp:454] relu_nin3 <- conv1_nin3
I0920 17:26:24.568047  7814 net.cpp:411] relu_nin3 -> relu_nin3
I0920 17:26:24.568420  7814 net.cpp:150] Setting up relu_nin3
I0920 17:26:24.568436  7814 net.cpp:157] Top shape: 50 96 30 30 (4320000)
I0920 17:26:24.568441  7814 net.cpp:165] Memory required for data: 234471000
I0920 17:26:24.568446  7814 layer_factory.hpp:77] Creating layer conv1_nin4
I0920 17:26:24.568465  7814 net.cpp:106] Creating Layer conv1_nin4
I0920 17:26:24.568471  7814 net.cpp:454] conv1_nin4 <- relu_nin3
I0920 17:26:24.568485  7814 net.cpp:411] conv1_nin4 -> conv1_nin4
I0920 17:26:24.570858  7814 net.cpp:150] Setting up conv1_nin4
I0920 17:26:24.570880  7814 net.cpp:157] Top shape: 50 96 30 30 (4320000)
I0920 17:26:24.570890  7814 net.cpp:165] Memory required for data: 251751000
I0920 17:26:24.570909  7814 layer_factory.hpp:77] Creating layer relu_nin4
I0920 17:26:24.570937  7814 net.cpp:106] Creating Layer relu_nin4
I0920 17:26:24.570943  7814 net.cpp:454] relu_nin4 <- conv1_nin4
I0920 17:26:24.570952  7814 net.cpp:411] relu_nin4 -> relu_nin4
I0920 17:26:24.571517  7814 net.cpp:150] Setting up relu_nin4
I0920 17:26:24.571535  7814 net.cpp:157] Top shape: 50 96 30 30 (4320000)
I0920 17:26:24.571542  7814 net.cpp:165] Memory required for data: 269031000
I0920 17:26:24.571547  7814 layer_factory.hpp:77] Creating layer relu_nin4_res
I0920 17:26:24.571559  7814 net.cpp:106] Creating Layer relu_nin4_res
I0920 17:26:24.571565  7814 net.cpp:454] relu_nin4_res <- relu_nin4
I0920 17:26:24.571573  7814 net.cpp:454] relu_nin4_res <- relu_nin2_res_relu_nin2_res_0_split_1
I0920 17:26:24.571583  7814 net.cpp:411] relu_nin4_res -> relu_nin4_res
I0920 17:26:24.571640  7814 net.cpp:150] Setting up relu_nin4_res
I0920 17:26:24.571653  7814 net.cpp:157] Top shape: 50 96 30 30 (4320000)
I0920 17:26:24.571657  7814 net.cpp:165] Memory required for data: 286311000
I0920 17:26:24.571662  7814 layer_factory.hpp:77] Creating layer relu_nin4_res_relu_nin4_res_0_split
I0920 17:26:24.571676  7814 net.cpp:106] Creating Layer relu_nin4_res_relu_nin4_res_0_split
I0920 17:26:24.571686  7814 net.cpp:454] relu_nin4_res_relu_nin4_res_0_split <- relu_nin4_res
I0920 17:26:24.571694  7814 net.cpp:411] relu_nin4_res_relu_nin4_res_0_split -> relu_nin4_res_relu_nin4_res_0_split_0
I0920 17:26:24.571732  7814 net.cpp:411] relu_nin4_res_relu_nin4_res_0_split -> relu_nin4_res_relu_nin4_res_0_split_1
I0920 17:26:24.571811  7814 net.cpp:150] Setting up relu_nin4_res_relu_nin4_res_0_split
I0920 17:26:24.571822  7814 net.cpp:157] Top shape: 50 96 30 30 (4320000)
I0920 17:26:24.571830  7814 net.cpp:157] Top shape: 50 96 30 30 (4320000)
I0920 17:26:24.571833  7814 net.cpp:165] Memory required for data: 320871000
I0920 17:26:24.571838  7814 layer_factory.hpp:77] Creating layer conv1_nin5
I0920 17:26:24.571862  7814 net.cpp:106] Creating Layer conv1_nin5
I0920 17:26:24.571871  7814 net.cpp:454] conv1_nin5 <- relu_nin4_res_relu_nin4_res_0_split_0
I0920 17:26:24.571880  7814 net.cpp:411] conv1_nin5 -> conv1_nin5
I0920 17:26:24.574112  7814 net.cpp:150] Setting up conv1_nin5
I0920 17:26:24.574142  7814 net.cpp:157] Top shape: 50 96 30 30 (4320000)
I0920 17:26:24.574156  7814 net.cpp:165] Memory required for data: 338151000
I0920 17:26:24.574168  7814 layer_factory.hpp:77] Creating layer relu_nin5
I0920 17:26:24.574188  7814 net.cpp:106] Creating Layer relu_nin5
I0920 17:26:24.574195  7814 net.cpp:454] relu_nin5 <- conv1_nin5
I0920 17:26:24.574205  7814 net.cpp:411] relu_nin5 -> relu_nin5
I0920 17:26:24.574754  7814 net.cpp:150] Setting up relu_nin5
I0920 17:26:24.574775  7814 net.cpp:157] Top shape: 50 96 30 30 (4320000)
I0920 17:26:24.574780  7814 net.cpp:165] Memory required for data: 355431000
I0920 17:26:24.574786  7814 layer_factory.hpp:77] Creating layer conv1_nin6
I0920 17:26:24.574806  7814 net.cpp:106] Creating Layer conv1_nin6
I0920 17:26:24.574813  7814 net.cpp:454] conv1_nin6 <- relu_nin5
I0920 17:26:24.574827  7814 net.cpp:411] conv1_nin6 -> conv1_nin6
I0920 17:26:24.577110  7814 net.cpp:150] Setting up conv1_nin6
I0920 17:26:24.577134  7814 net.cpp:157] Top shape: 50 96 30 30 (4320000)
I0920 17:26:24.577139  7814 net.cpp:165] Memory required for data: 372711000
I0920 17:26:24.577150  7814 layer_factory.hpp:77] Creating layer relu_nin6
I0920 17:26:24.577162  7814 net.cpp:106] Creating Layer relu_nin6
I0920 17:26:24.577168  7814 net.cpp:454] relu_nin6 <- conv1_nin6
I0920 17:26:24.577183  7814 net.cpp:411] relu_nin6 -> relu_nin6
I0920 17:26:24.577543  7814 net.cpp:150] Setting up relu_nin6
I0920 17:26:24.577556  7814 net.cpp:157] Top shape: 50 96 30 30 (4320000)
I0920 17:26:24.577561  7814 net.cpp:165] Memory required for data: 389991000
I0920 17:26:24.577566  7814 layer_factory.hpp:77] Creating layer relu_nin6_res
I0920 17:26:24.577576  7814 net.cpp:106] Creating Layer relu_nin6_res
I0920 17:26:24.577581  7814 net.cpp:454] relu_nin6_res <- relu_nin6
I0920 17:26:24.577589  7814 net.cpp:454] relu_nin6_res <- relu_nin4_res_relu_nin4_res_0_split_1
I0920 17:26:24.577600  7814 net.cpp:411] relu_nin6_res -> relu_nin6_res
I0920 17:26:24.577651  7814 net.cpp:150] Setting up relu_nin6_res
I0920 17:26:24.577667  7814 net.cpp:157] Top shape: 50 96 30 30 (4320000)
I0920 17:26:24.577672  7814 net.cpp:165] Memory required for data: 407271000
I0920 17:26:24.577675  7814 layer_factory.hpp:77] Creating layer relu_nin6_res_relu_nin6_res_0_split
I0920 17:26:24.577687  7814 net.cpp:106] Creating Layer relu_nin6_res_relu_nin6_res_0_split
I0920 17:26:24.577692  7814 net.cpp:454] relu_nin6_res_relu_nin6_res_0_split <- relu_nin6_res
I0920 17:26:24.577699  7814 net.cpp:411] relu_nin6_res_relu_nin6_res_0_split -> relu_nin6_res_relu_nin6_res_0_split_0
I0920 17:26:24.577710  7814 net.cpp:411] relu_nin6_res_relu_nin6_res_0_split -> relu_nin6_res_relu_nin6_res_0_split_1
I0920 17:26:24.577775  7814 net.cpp:150] Setting up relu_nin6_res_relu_nin6_res_0_split
I0920 17:26:24.577785  7814 net.cpp:157] Top shape: 50 96 30 30 (4320000)
I0920 17:26:24.577790  7814 net.cpp:157] Top shape: 50 96 30 30 (4320000)
I0920 17:26:24.577795  7814 net.cpp:165] Memory required for data: 441831000
I0920 17:26:24.577800  7814 layer_factory.hpp:77] Creating layer conv1_nin7
I0920 17:26:24.577816  7814 net.cpp:106] Creating Layer conv1_nin7
I0920 17:26:24.577821  7814 net.cpp:454] conv1_nin7 <- relu_nin6_res_relu_nin6_res_0_split_0
I0920 17:26:24.577832  7814 net.cpp:411] conv1_nin7 -> conv1_nin7
I0920 17:26:24.580065  7814 net.cpp:150] Setting up conv1_nin7
I0920 17:26:24.580093  7814 net.cpp:157] Top shape: 50 96 30 30 (4320000)
I0920 17:26:24.580099  7814 net.cpp:165] Memory required for data: 459111000
I0920 17:26:24.580109  7814 layer_factory.hpp:77] Creating layer relu_nin7
I0920 17:26:24.580119  7814 net.cpp:106] Creating Layer relu_nin7
I0920 17:26:24.580124  7814 net.cpp:454] relu_nin7 <- conv1_nin7
I0920 17:26:24.580135  7814 net.cpp:411] relu_nin7 -> relu_nin7
I0920 17:26:24.580670  7814 net.cpp:150] Setting up relu_nin7
I0920 17:26:24.580688  7814 net.cpp:157] Top shape: 50 96 30 30 (4320000)
I0920 17:26:24.580701  7814 net.cpp:165] Memory required for data: 476391000
I0920 17:26:24.580708  7814 layer_factory.hpp:77] Creating layer conv1_nin8
I0920 17:26:24.580725  7814 net.cpp:106] Creating Layer conv1_nin8
I0920 17:26:24.580730  7814 net.cpp:454] conv1_nin8 <- relu_nin7
I0920 17:26:24.580740  7814 net.cpp:411] conv1_nin8 -> conv1_nin8
I0920 17:26:24.582828  7814 net.cpp:150] Setting up conv1_nin8
I0920 17:26:24.582847  7814 net.cpp:157] Top shape: 50 96 30 30 (4320000)
I0920 17:26:24.582852  7814 net.cpp:165] Memory required for data: 493671000
I0920 17:26:24.582873  7814 layer_factory.hpp:77] Creating layer relu_nin8
I0920 17:26:24.582883  7814 net.cpp:106] Creating Layer relu_nin8
I0920 17:26:24.582888  7814 net.cpp:454] relu_nin8 <- conv1_nin8
I0920 17:26:24.582901  7814 net.cpp:411] relu_nin8 -> relu_nin8
I0920 17:26:24.583449  7814 net.cpp:150] Setting up relu_nin8
I0920 17:26:24.583468  7814 net.cpp:157] Top shape: 50 96 30 30 (4320000)
I0920 17:26:24.583478  7814 net.cpp:165] Memory required for data: 510951000
I0920 17:26:24.583483  7814 layer_factory.hpp:77] Creating layer relu_nin8_res
I0920 17:26:24.583495  7814 net.cpp:106] Creating Layer relu_nin8_res
I0920 17:26:24.583503  7814 net.cpp:454] relu_nin8_res <- relu_nin8
I0920 17:26:24.583516  7814 net.cpp:454] relu_nin8_res <- relu_nin6_res_relu_nin6_res_0_split_1
I0920 17:26:24.583524  7814 net.cpp:411] relu_nin8_res -> relu_nin8_res
I0920 17:26:24.583576  7814 net.cpp:150] Setting up relu_nin8_res
I0920 17:26:24.583595  7814 net.cpp:157] Top shape: 50 96 30 30 (4320000)
I0920 17:26:24.583600  7814 net.cpp:165] Memory required for data: 528231000
I0920 17:26:24.583603  7814 layer_factory.hpp:77] Creating layer conv1_nin9
I0920 17:26:24.583626  7814 net.cpp:106] Creating Layer conv1_nin9
I0920 17:26:24.583632  7814 net.cpp:454] conv1_nin9 <- relu_nin8_res
I0920 17:26:24.583642  7814 net.cpp:411] conv1_nin9 -> conv1_nin9
I0920 17:26:24.585899  7814 net.cpp:150] Setting up conv1_nin9
I0920 17:26:24.585919  7814 net.cpp:157] Top shape: 50 96 30 30 (4320000)
I0920 17:26:24.585928  7814 net.cpp:165] Memory required for data: 545511000
I0920 17:26:24.585944  7814 layer_factory.hpp:77] Creating layer relu_nin9
I0920 17:26:24.585953  7814 net.cpp:106] Creating Layer relu_nin9
I0920 17:26:24.585959  7814 net.cpp:454] relu_nin9 <- conv1_nin9
I0920 17:26:24.585974  7814 net.cpp:411] relu_nin9 -> relu_nin9
I0920 17:26:24.586338  7814 net.cpp:150] Setting up relu_nin9
I0920 17:26:24.586351  7814 net.cpp:157] Top shape: 50 96 30 30 (4320000)
I0920 17:26:24.586356  7814 net.cpp:165] Memory required for data: 562791000
I0920 17:26:24.586361  7814 layer_factory.hpp:77] Creating layer pool1
I0920 17:26:24.586372  7814 net.cpp:106] Creating Layer pool1
I0920 17:26:24.586377  7814 net.cpp:454] pool1 <- relu_nin9
I0920 17:26:24.586385  7814 net.cpp:411] pool1 -> pool1
I0920 17:26:24.586465  7814 net.cpp:150] Setting up pool1
I0920 17:26:24.586474  7814 net.cpp:157] Top shape: 50 96 15 15 (1080000)
I0920 17:26:24.586478  7814 net.cpp:165] Memory required for data: 567111000
I0920 17:26:24.586483  7814 layer_factory.hpp:77] Creating layer conv2
I0920 17:26:24.586500  7814 net.cpp:106] Creating Layer conv2
I0920 17:26:24.586509  7814 net.cpp:454] conv2 <- pool1
I0920 17:26:24.586519  7814 net.cpp:411] conv2 -> conv2
I0920 17:26:24.604403  7814 net.cpp:150] Setting up conv2
I0920 17:26:24.604459  7814 net.cpp:157] Top shape: 50 256 15 15 (2880000)
I0920 17:26:24.604499  7814 net.cpp:165] Memory required for data: 578631000
I0920 17:26:24.604526  7814 layer_factory.hpp:77] Creating layer relu2
I0920 17:26:24.604557  7814 net.cpp:106] Creating Layer relu2
I0920 17:26:24.604565  7814 net.cpp:454] relu2 <- conv2
I0920 17:26:24.604576  7814 net.cpp:411] relu2 -> relu2
I0920 17:26:24.604960  7814 net.cpp:150] Setting up relu2
I0920 17:26:24.604972  7814 net.cpp:157] Top shape: 50 256 15 15 (2880000)
I0920 17:26:24.604984  7814 net.cpp:165] Memory required for data: 590151000
I0920 17:26:24.604989  7814 layer_factory.hpp:77] Creating layer pool2
I0920 17:26:24.605000  7814 net.cpp:106] Creating Layer pool2
I0920 17:26:24.605005  7814 net.cpp:454] pool2 <- relu2
I0920 17:26:24.605022  7814 net.cpp:411] pool2 -> pool2
I0920 17:26:24.605090  7814 net.cpp:150] Setting up pool2
I0920 17:26:24.605101  7814 net.cpp:157] Top shape: 50 256 7 7 (627200)
I0920 17:26:24.605105  7814 net.cpp:165] Memory required for data: 592659800
I0920 17:26:24.605110  7814 layer_factory.hpp:77] Creating layer conv3
I0920 17:26:24.605132  7814 net.cpp:106] Creating Layer conv3
I0920 17:26:24.605139  7814 net.cpp:454] conv3 <- pool2
I0920 17:26:24.605147  7814 net.cpp:411] conv3 -> conv3
I0920 17:26:24.643707  7814 net.cpp:150] Setting up conv3
I0920 17:26:24.643750  7814 net.cpp:157] Top shape: 50 384 7 7 (940800)
I0920 17:26:24.643755  7814 net.cpp:165] Memory required for data: 596423000
I0920 17:26:24.643769  7814 layer_factory.hpp:77] Creating layer relu3
I0920 17:26:24.643784  7814 net.cpp:106] Creating Layer relu3
I0920 17:26:24.643790  7814 net.cpp:454] relu3 <- conv3
I0920 17:26:24.643810  7814 net.cpp:411] relu3 -> relu3
I0920 17:26:24.644245  7814 net.cpp:150] Setting up relu3
I0920 17:26:24.644260  7814 net.cpp:157] Top shape: 50 384 7 7 (940800)
I0920 17:26:24.644270  7814 net.cpp:165] Memory required for data: 600186200
I0920 17:26:24.644275  7814 layer_factory.hpp:77] Creating layer conv4
I0920 17:26:24.644297  7814 net.cpp:106] Creating Layer conv4
I0920 17:26:24.644309  7814 net.cpp:454] conv4 <- relu3
I0920 17:26:24.644318  7814 net.cpp:411] conv4 -> conv4
I0920 17:26:24.670711  7814 net.cpp:150] Setting up conv4
I0920 17:26:24.670755  7814 net.cpp:157] Top shape: 50 384 7 7 (940800)
I0920 17:26:24.670759  7814 net.cpp:165] Memory required for data: 603949400
I0920 17:26:24.670771  7814 layer_factory.hpp:77] Creating layer relu4
I0920 17:26:24.670785  7814 net.cpp:106] Creating Layer relu4
I0920 17:26:24.670791  7814 net.cpp:454] relu4 <- conv4
I0920 17:26:24.670809  7814 net.cpp:411] relu4 -> relu4
I0920 17:26:24.671250  7814 net.cpp:150] Setting up relu4
I0920 17:26:24.671262  7814 net.cpp:157] Top shape: 50 384 7 7 (940800)
I0920 17:26:24.671272  7814 net.cpp:165] Memory required for data: 607712600
I0920 17:26:24.671277  7814 layer_factory.hpp:77] Creating layer conv5
I0920 17:26:24.671294  7814 net.cpp:106] Creating Layer conv5
I0920 17:26:24.671298  7814 net.cpp:454] conv5 <- relu4
I0920 17:26:24.671314  7814 net.cpp:411] conv5 -> conv5
I0920 17:26:24.688747  7814 net.cpp:150] Setting up conv5
I0920 17:26:24.688787  7814 net.cpp:157] Top shape: 50 256 7 7 (627200)
I0920 17:26:24.688791  7814 net.cpp:165] Memory required for data: 610221400
I0920 17:26:24.688802  7814 layer_factory.hpp:77] Creating layer relu5
I0920 17:26:24.688819  7814 net.cpp:106] Creating Layer relu5
I0920 17:26:24.688825  7814 net.cpp:454] relu5 <- conv5
I0920 17:26:24.688841  7814 net.cpp:411] relu5 -> relu5
I0920 17:26:24.689077  7814 net.cpp:150] Setting up relu5
I0920 17:26:24.689087  7814 net.cpp:157] Top shape: 50 256 7 7 (627200)
I0920 17:26:24.689091  7814 net.cpp:165] Memory required for data: 612730200
I0920 17:26:24.689095  7814 layer_factory.hpp:77] Creating layer pool5
I0920 17:26:24.689105  7814 net.cpp:106] Creating Layer pool5
I0920 17:26:24.689110  7814 net.cpp:454] pool5 <- relu5
I0920 17:26:24.689116  7814 net.cpp:411] pool5 -> pool5
I0920 17:26:24.689167  7814 net.cpp:150] Setting up pool5
I0920 17:26:24.689173  7814 net.cpp:157] Top shape: 50 256 3 3 (115200)
I0920 17:26:24.689203  7814 net.cpp:165] Memory required for data: 613191000
I0920 17:26:24.689208  7814 layer_factory.hpp:77] Creating layer fc6
I0920 17:26:24.689218  7814 net.cpp:106] Creating Layer fc6
I0920 17:26:24.689221  7814 net.cpp:454] fc6 <- pool5
I0920 17:26:24.689227  7814 net.cpp:411] fc6 -> fc6
I0920 17:26:24.840791  7814 net.cpp:150] Setting up fc6
I0920 17:26:24.840836  7814 net.cpp:157] Top shape: 50 2048 (102400)
I0920 17:26:24.840839  7814 net.cpp:165] Memory required for data: 613600600
I0920 17:26:24.840852  7814 layer_factory.hpp:77] Creating layer relu6
I0920 17:26:24.840867  7814 net.cpp:106] Creating Layer relu6
I0920 17:26:24.840873  7814 net.cpp:454] relu6 <- fc6
I0920 17:26:24.840893  7814 net.cpp:411] relu6 -> relu6
I0920 17:26:24.841500  7814 net.cpp:150] Setting up relu6
I0920 17:26:24.841513  7814 net.cpp:157] Top shape: 50 2048 (102400)
I0920 17:26:24.841523  7814 net.cpp:165] Memory required for data: 614010200
I0920 17:26:24.841528  7814 layer_factory.hpp:77] Creating layer drop6
I0920 17:26:24.841538  7814 net.cpp:106] Creating Layer drop6
I0920 17:26:24.841543  7814 net.cpp:454] drop6 <- relu6
I0920 17:26:24.841552  7814 net.cpp:411] drop6 -> drop6
I0920 17:26:24.841612  7814 net.cpp:150] Setting up drop6
I0920 17:26:24.841627  7814 net.cpp:157] Top shape: 50 2048 (102400)
I0920 17:26:24.841630  7814 net.cpp:165] Memory required for data: 614419800
I0920 17:26:24.841634  7814 layer_factory.hpp:77] Creating layer fc7
I0920 17:26:24.841646  7814 net.cpp:106] Creating Layer fc7
I0920 17:26:24.841650  7814 net.cpp:454] fc7 <- drop6
I0920 17:26:24.841658  7814 net.cpp:411] fc7 -> fc7
I0920 17:26:24.976388  7814 net.cpp:150] Setting up fc7
I0920 17:26:24.976433  7814 net.cpp:157] Top shape: 50 2048 (102400)
I0920 17:26:24.976438  7814 net.cpp:165] Memory required for data: 614829400
I0920 17:26:24.976450  7814 layer_factory.hpp:77] Creating layer relu7
I0920 17:26:24.976465  7814 net.cpp:106] Creating Layer relu7
I0920 17:26:24.976471  7814 net.cpp:454] relu7 <- fc7
I0920 17:26:24.976488  7814 net.cpp:411] relu7 -> relu7
I0920 17:26:24.976829  7814 net.cpp:150] Setting up relu7
I0920 17:26:24.976843  7814 net.cpp:157] Top shape: 50 2048 (102400)
I0920 17:26:24.976847  7814 net.cpp:165] Memory required for data: 615239000
I0920 17:26:24.976858  7814 layer_factory.hpp:77] Creating layer drop7
I0920 17:26:24.976866  7814 net.cpp:106] Creating Layer drop7
I0920 17:26:24.976877  7814 net.cpp:454] drop7 <- relu7
I0920 17:26:24.976886  7814 net.cpp:411] drop7 -> drop7
I0920 17:26:24.976944  7814 net.cpp:150] Setting up drop7
I0920 17:26:24.976949  7814 net.cpp:157] Top shape: 50 2048 (102400)
I0920 17:26:24.976953  7814 net.cpp:165] Memory required for data: 615648600
I0920 17:26:24.976955  7814 layer_factory.hpp:77] Creating layer fc8
I0920 17:26:24.976966  7814 net.cpp:106] Creating Layer fc8
I0920 17:26:24.976970  7814 net.cpp:454] fc8 <- drop7
I0920 17:26:24.976977  7814 net.cpp:411] fc8 -> fc8
I0920 17:26:25.043020  7814 net.cpp:150] Setting up fc8
I0920 17:26:25.043059  7814 net.cpp:157] Top shape: 50 1000 (50000)
I0920 17:26:25.043063  7814 net.cpp:165] Memory required for data: 615848600
I0920 17:26:25.043087  7814 layer_factory.hpp:77] Creating layer fc8_fc8_0_split
I0920 17:26:25.043102  7814 net.cpp:106] Creating Layer fc8_fc8_0_split
I0920 17:26:25.043108  7814 net.cpp:454] fc8_fc8_0_split <- fc8
I0920 17:26:25.043119  7814 net.cpp:411] fc8_fc8_0_split -> fc8_fc8_0_split_0
I0920 17:26:25.043133  7814 net.cpp:411] fc8_fc8_0_split -> fc8_fc8_0_split_1
I0920 17:26:25.043190  7814 net.cpp:150] Setting up fc8_fc8_0_split
I0920 17:26:25.043197  7814 net.cpp:157] Top shape: 50 1000 (50000)
I0920 17:26:25.043201  7814 net.cpp:157] Top shape: 50 1000 (50000)
I0920 17:26:25.043205  7814 net.cpp:165] Memory required for data: 616248600
I0920 17:26:25.043208  7814 layer_factory.hpp:77] Creating layer accuracy
I0920 17:26:25.043216  7814 net.cpp:106] Creating Layer accuracy
I0920 17:26:25.043220  7814 net.cpp:454] accuracy <- fc8_fc8_0_split_0
I0920 17:26:25.043225  7814 net.cpp:454] accuracy <- label_data_1_split_0
I0920 17:26:25.043262  7814 net.cpp:411] accuracy -> accuracy
…
