…
      crop_size: 128
      mean_value: 104
      mean_value: 117
      mean_value: 123
      force_color: true
      resize_param {
        prob: 1
        resize_mode: FIT_SMALL_SIZE
        height: 144
        width: 144
        pad_mode: MIRRORED
        pad_value: 104
        pad_value: 117
        pad_value: 124
        interp_mode: LINEAR
        center_object: false
        max_angle: 0
      }
    }
    data_param {
      source: "/home/share/storage/datasets/imagenet/lmdb/ilsvrc12_val_lmdb"
      batch_size: 50
      backend: LMDB
    }
  }
  layer {
    name: "conv1"
    type: "Convolution"
    bottom: "data"
    top: "conv1"
    param {
      lr_mult: 1
      decay_mult: 1
    }
    param {
      lr_mult: 2
      decay_mult: 0
    }
    convolution_param {
      num_output: 96
      kernel_size: 11
      stride: 4
      weight_filler {
        type: "gaussian"
        std: 0.01
      }
      bias_filler {
        type: "constant"
      }
    }
  }
  layer {
    name: "relu1"
    type: "ReLU"
    bottom: "conv1"
    top: "relu1"
  }
  layer {
    name: "pool1"
    type: "Pooling"
    bottom: "relu1"
    top: "pool1"
    pooling_param {
      pool: MAX
      kernel_size: 3
      stride: 2
    }
  }
  layer {
    name: "conv2"
    type: "Convolution"
    bottom: "pool1"
    top: "conv2"
    param {
      lr_mult: 1
      decay_mult: 1
    }
    param {
      lr_mult: 2
      decay_mult: 0
    }
    convolution_param {
      num_output: 256
      pad: 2
      kernel_size: 5
      group: 2
      weight_filler {
        type: "gaussian"
        std: 0.01
      }
      bias_filler {
        type: "constant"
      }
    }
  }
  layer {
    name: "relu2"
    type: "ReLU"
    bottom: "conv2"
    top: "relu2"
  }
  layer {
    name: "pool2"
    type: "Pooling"
    bottom: "relu2"
    top: "pool2"
    pooling_param {
      pool: MAX
      kernel_size: 3
      stride: 2
    }
  }
  layer {
    name: "conv3"
    type: "Convolution"
    bottom: "pool2"
    top: "conv3"
    param {
      lr_mult: 1
      decay_mult: 1
    }
    param {
      lr_mult: 2
      decay_mult: 0
    }
    convolution_param {
      num_output: 384
      pad: 1
      kernel_size: 3
      weight_filler {
        type: "gaussian"
        std: 0.01
      }
      bias_filler {
        type: "constant"
      }
    }
  }
  layer {
    name: "relu3"
    type: "ReLU"
    bottom: "conv3"
    top: "relu3"
  }
  layer {
    name: "conv4"
    type: "Convolution"
    bottom: "relu3"
    top: "conv4"
    param {
      lr_mult: 1
      decay_mult: 1
    }
    param {
      lr_mult: 2
      decay_mult: 0
    }
    convolution_param {
      num_output: 384
      pad: 1
      kernel_size: 3
      group: 2
      weight_filler {
        type: "gaussian"
        std: 0.01
      }
      bias_filler {
        type: "constant"
      }
    }
  }
  layer {
    name: "relu4"
    type: "ReLU"
    bottom: "conv4"
    top: "relu4"
  }
  layer {
    name: "conv5"
    type: "Convolution"
    bottom: "relu4"
    top: "conv5"
    param {
      lr_mult: 1
      decay_mult: 1
    }
    param {
      lr_mult: 2
      decay_mult: 0
    }
    convolution_param {
      num_output: 256
      pad: 1
      kernel_size: 3
      group: 2
      weight_filler {
        type: "gaussian"
        std: 0.01
      }
      bias_filler {
        type: "constant"
      }
    }
  }
  layer {
    name: "relu5"
    type: "ReLU"
    bottom: "conv5"
    top: "relu5"
  }
  layer {
    name: "pool5"
    type: "Pooling"
    bottom: "relu5"
    top: "pool5"
    pooling_param {
      pool: MAX
      kernel_size: 3
      stride: 2
    }
  }
  layer {
    name: "fc6"
    type: "InnerProduct"
    bottom: "pool5"
    top: "fc6"
    param {
      lr_mult: 1
      decay_mult: 1
    }
    param {
      lr_mult: 2
      decay_mult: 0
    }
    inner_product_param {
      num_output: 2048
      weight_filler {
        type: "gaussian"
        std: 0.005
      }
      bias_filler {
        type: "constant"
      }
    }
  }
  layer {
    name: "relu6"
    type: "ReLU"
    bottom: "fc6"
    top: "relu6"
  }
  layer {
    name: "drop6"
    type: "Dropout"
    bottom: "relu6"
    top: "drop6"
    dropout_param {
      dropout_ratio: 0.3
    }
  }
  layer {
    name: "fc7"
    type: "InnerProduct"
    bottom: "drop6"
    top: "fc7"
    param {
      lr_mult: 1
      decay_mult: 1
    }
    param {
      lr_mult: 2
      decay_mult: 0
    }
    inner_product_param {
      num_output: 2048
      weight_filler {
        type: "gaussian"
        std: 0.005
      }
      bias_filler {
        type: "constant"
      }
    }
  }
  layer {
    name: "relu7"
    type: "ReLU"
    bottom: "fc7"
    top: "relu7"
  }
  layer {
    name: "drop7"
    type: "Dropout"
    bottom: "relu7"
    top: "drop7"
    dropout_param {
      dropout_ratio: 0.3
    }
  }
  layer {
    name: "fc8"
    type: "InnerProduct"
    bottom: "drop7"
    top: "fc8"
    param {
      lr_mult: 1
      decay_mult: 1
    }
    param {
      lr_mult: 2
      decay_mult: 0
    }
    inner_product_param {
      num_output: 1000
      weight_filler {
        type: "gaussian"
        std: 0.01
      }
      bias_filler {
        type: "constant"
      }
    }
  }
  layer {
    name: "accuracy"
    type: "Accuracy"
    bottom: "fc8"
    bottom: "label"
    top: "accuracy"
    include {
      phase: TEST
    }
  }
  layer {
    name: "loss"
    type: "SoftmaxWithLoss"
    bottom: "fc8"
    bottom: "label"
    top: "loss"
  }
}
test_initialization: false
iter_size: 1
type: "SGD"
I0214 20:56:42.369226   458 solver.cpp:86] Creating training net specified in net_param.
I0214 20:56:42.369288   458 net.cpp:322] The NetState phase (0) differed from the phase (1) specified by a rule in layer data
I0214 20:56:42.369302   458 net.cpp:322] The NetState phase (0) differed from the phase (1) specified by a rule in layer accuracy
I0214 20:56:42.369400   458 net.cpp:49] Initializing net from parameters: 
name: "CaffeNet"
state {
  phase: TRAIN
}
layer {
  name: "data"
  type: "Data"
  top: "data"
  top: "label"
  include {
    phase: TRAIN
  }
  transform_param {
    scale: 0.04
    mirror: true
    crop_size: 128
    mean_value: 104
    mean_value: 117
    mean_value: 124
    force_color: true
    resize_param {
      prob: 1
      resize_mode: FIT_SMALL_SIZE
      height: 144
      width: 144
      pad_mode: MIRRORED
      pad_value: 104
      pad_value: 117
      pad_value: 124
      interp_mode: LINEAR
      center_object: false
      max_angle: 0
    }
  }
  data_param {
    source: "/home/share/storage/datasets/imagenet/lmdb/ilsvrc12_train_lmdb"
    batch_size: 256
    backend: LMDB
  }
}
layer {
  name: "conv1"
  type: "Convolution"
  bottom: "data"
  top: "conv1"
  param {
    lr_mult: 1
    decay_mult: 1
  }
  param {
    lr_mult: 2
    decay_mult: 0
  }
  convolution_param {
    num_output: 96
    kernel_size: 11
    stride: 4
    weight_filler {
      type: "gaussian"
      std: 0.01
    }
    bias_filler {
      type: "constant"
    }
  }
}
layer {
  name: "relu1"
  type: "ReLU"
  bottom: "conv1"
  top: "relu1"
}
layer {
  name: "pool1"
  type: "Pooling"
  bottom: "relu1"
  top: "pool1"
  pooling_param {
    pool: MAX
    kernel_size: 3
    stride: 2
  }
}
layer {
  name: "conv2"
  type: "Convolution"
  bottom: "pool1"
  top: "conv2"
  param {
    lr_mult: 1
    decay_mult: 1
  }
  param {
    lr_mult: 2
    decay_mult: 0
  }
  convolution_param {
    num_output: 256
    pad: 2
    kernel_size: 5
    group: 2
    weight_filler {
      type: "gaussian"
      std: 0.01
    }
    bias_filler {
      type: "constant"
    }
  }
}
layer {
  name: "relu2"
  type: "ReLU"
  bottom: "conv2"
  top: "relu2"
}
layer {
  name: "pool2"
  type: "Pooling"
  bottom: "relu2"
  top: "pool2"
  pooling_param {
    pool: MAX
    kernel_size: 3
    stride: 2
  }
}
layer {
  name: "conv3"
  type: "Convolution"
  bottom: "pool2"
  top: "conv3"
  param {
    lr_mult: 1
    decay_mult: 1
  }
  param {
    lr_mult: 2
    decay_mult: 0
  }
  convolution_param {
    num_output: 384
    pad: 1
    kernel_size: 3
    weight_filler {
      type: "gaussian"
      std: 0.01
    }
    bias_filler {
      type: "constant"
    }
  }
}
layer {
  name: "relu3"
  type: "ReLU"
  bottom: "conv3"
  top: "relu3"
}
layer {
  name: "conv4"
  type: "Convolution"
  bottom: "relu3"
  top: "conv4"
  param {
    lr_mult: 1
    decay_mult: 1
  }
  param {
    lr_mult: 2
    decay_mult: 0
  }
  convolution_param {
    num_output: 384
    pad: 1
    kernel_size: 3
    group: 2
    weight_filler {
      type: "gaussian"
      std: 0.01
    }
    bias_filler {
      type: "constant"
    }
  }
}
layer {
  name: "relu4"
  type: "ReLU"
  bottom: "conv4"
  top: "relu4"
}
layer {
  name: "conv5"
  type: "Convolution"
  bottom: "relu4"
  top: "conv5"
  param {
    lr_mult: 1
    decay_mult: 1
  }
  param {
    lr_mult: 2
    decay_mult: 0
  }
  convolution_param {
    num_output: 256
    pad: 1
    kernel_size: 3
    group: 2
    weight_filler {
      type: "gaussian"
      std: 0.01
    }
    bias_filler {
      type: "constant"
    }
  }
}
layer {
  name: "relu5"
  type: "ReLU"
  bottom: "conv5"
  top: "relu5"
}
layer {
  name: "pool5"
  type: "Pooling"
  bottom: "relu5"
  top: "pool5"
  pooling_param {
    pool: MAX
    kernel_size: 3
    stride: 2
  }
}
layer {
  name: "fc6"
  type: "InnerProduct"
  bottom: "pool5"
  top: "fc6"
  param {
    lr_mult: 1
    decay_mult: 1
  }
  param {
    lr_mult: 2
    decay_mult: 0
  }
  inner_product_param {
    num_output: 2048
    weight_filler {
      type: "gaussian"
      std: 0.005
    }
    bias_filler {
      type: "constant"
    }
  }
}
layer {
  name: "relu6"
  type: "ReLU"
  bottom: "fc6"
  top: "relu6"
}
layer {
  name: "drop6"
  type: "Dropout"
  bottom: "relu6"
  top: "drop6"
  dropout_param {
    dropout_ratio: 0.3
  }
}
layer {
  name: "fc7"
  type: "InnerProduct"
  bottom: "drop6"
  top: "fc7"
  param {
    lr_mult: 1
    decay_mult: 1
  }
  param {
    lr_mult: 2
    decay_mult: 0
  }
  inner_product_param {
    num_output: 2048
    weight_filler {
      type: "gaussian"
      std: 0.005
    }
    bias_filler {
      type: "constant"
    }
  }
}
layer {
  name: "relu7"
  type: "ReLU"
  bottom: "fc7"
  top: "relu7"
}
layer {
  name: "drop7"
  type: "Dropout"
  bottom: "relu7"
  top: "drop7"
  dropout_param {
    dropout_ratio: 0.3
  }
}
layer {
  name: "fc8"
  type: "InnerProduct"
  bottom: "drop7"
  top: "fc8"
  param {
    lr_mult: 1
    decay_mult: 1
  }
  param {
    lr_mult: 2
    decay_mult: 0
  }
  inner_product_param {
    num_output: 1000
    weight_filler {
      type: "gaussian"
      std: 0.01
    }
    bias_filler {
      type: "constant"
    }
  }
}
layer {
  name: "loss"
  type: "SoftmaxWithLoss"
  bottom: "fc8"
  bottom: "label"
  top: "loss"
}
I0214 20:56:42.369479   458 layer_factory.hpp:76] Creating layer data
I0214 20:56:42.369946   458 net.cpp:106] Creating Layer data
I0214 20:56:42.369972   458 net.cpp:411] data -> data
I0214 20:56:42.370014   458 net.cpp:411] data -> label
I0214 20:56:42.370648   462 db_lmdb.cpp:38] Opened lmdb /home/share/storage/datasets/imagenet/lmdb/ilsvrc12_train_lmdb
I0214 20:56:42.380002   458 data_layer.cpp:41] output data size: 256,3,128,128
I0214 20:56:42.456020   458 net.cpp:150] Setting up data
I0214 20:56:42.456059   458 net.cpp:157] Top shape: 256 3 128 128 (12582912)
I0214 20:56:42.456064   458 net.cpp:157] Top shape: 256 (256)
I0214 20:56:42.456068   458 net.cpp:165] Memory required for data: 50332672
I0214 20:56:42.456074   458 layer_factory.hpp:76] Creating layer conv1
I0214 20:56:42.456091   458 net.cpp:106] Creating Layer conv1
I0214 20:56:42.456097   458 net.cpp:454] conv1 <- data
I0214 20:56:42.456110   458 net.cpp:411] conv1 -> conv1
I0214 20:56:42.584872   458 net.cpp:150] Setting up conv1
I0214 20:56:42.584899   458 net.cpp:157] Top shape: 256 96 30 30 (22118400)
I0214 20:56:42.584903   458 net.cpp:165] Memory required for data: 138806272
I0214 20:56:42.584916   458 layer_factory.hpp:76] Creating layer relu1
I0214 20:56:42.584929   458 net.cpp:106] Creating Layer relu1
I0214 20:56:42.584933   458 net.cpp:454] relu1 <- conv1
I0214 20:56:42.584936   458 net.cpp:411] relu1 -> relu1
I0214 20:56:42.585083   458 net.cpp:150] Setting up relu1
I0214 20:56:42.585088   458 net.cpp:157] Top shape: 256 96 30 30 (22118400)
I0214 20:56:42.585100   458 net.cpp:165] Memory required for data: 227279872
I0214 20:56:42.585103   458 layer_factory.hpp:76] Creating layer pool1
I0214 20:56:42.585108   458 net.cpp:106] Creating Layer pool1
I0214 20:56:42.585109   458 net.cpp:454] pool1 <- relu1
I0214 20:56:42.585116   458 net.cpp:411] pool1 -> pool1
I0214 20:56:42.585355   458 net.cpp:150] Setting up pool1
I0214 20:56:42.585363   458 net.cpp:157] Top shape: 256 96 15 15 (5529600)
I0214 20:56:42.585376   458 net.cpp:165] Memory required for data: 249398272
I0214 20:56:42.585377   458 layer_factory.hpp:76] Creating layer conv2
I0214 20:56:42.585384   458 net.cpp:106] Creating Layer conv2
I0214 20:56:42.585388   458 net.cpp:454] conv2 <- pool1
I0214 20:56:42.585391   458 net.cpp:411] conv2 -> conv2
I0214 20:56:42.593775   458 net.cpp:150] Setting up conv2
I0214 20:56:42.593802   458 net.cpp:157] Top shape: 256 256 15 15 (14745600)
I0214 20:56:42.593806   458 net.cpp:165] Memory required for data: 308380672
I0214 20:56:42.593824   458 layer_factory.hpp:76] Creating layer relu2
I0214 20:56:42.593832   458 net.cpp:106] Creating Layer relu2
I0214 20:56:42.593837   458 net.cpp:454] relu2 <- conv2
I0214 20:56:42.593852   458 net.cpp:411] relu2 -> relu2
I0214 20:56:42.594079   458 net.cpp:150] Setting up relu2
I0214 20:56:42.594085   458 net.cpp:157] Top shape: 256 256 15 15 (14745600)
I0214 20:56:42.594096   458 net.cpp:165] Memory required for data: 367363072
I0214 20:56:42.594099   458 layer_factory.hpp:76] Creating layer pool2
I0214 20:56:42.594104   458 net.cpp:106] Creating Layer pool2
I0214 20:56:42.594106   458 net.cpp:454] pool2 <- relu2
I0214 20:56:42.594110   458 net.cpp:411] pool2 -> pool2
I0214 20:56:42.594331   458 net.cpp:150] Setting up pool2
I0214 20:56:42.594338   458 net.cpp:157] Top shape: 256 256 7 7 (3211264)
I0214 20:56:42.594349   458 net.cpp:165] Memory required for data: 380208128
I0214 20:56:42.594352   458 layer_factory.hpp:76] Creating layer conv3
I0214 20:56:42.594358   458 net.cpp:106] Creating Layer conv3
I0214 20:56:42.594360   458 net.cpp:454] conv3 <- pool2
I0214 20:56:42.594364   458 net.cpp:411] conv3 -> conv3
I0214 20:56:42.616155   458 net.cpp:150] Setting up conv3
I0214 20:56:42.616183   458 net.cpp:157] Top shape: 256 384 7 7 (4816896)
I0214 20:56:42.616186   458 net.cpp:165] Memory required for data: 399475712
I0214 20:56:42.616195   458 layer_factory.hpp:76] Creating layer relu3
I0214 20:56:42.616231   458 net.cpp:106] Creating Layer relu3
I0214 20:56:42.616235   458 net.cpp:454] relu3 <- conv3
I0214 20:56:42.616242   458 net.cpp:411] relu3 -> relu3
I0214 20:56:42.616506   458 net.cpp:150] Setting up relu3
I0214 20:56:42.616513   458 net.cpp:157] Top shape: 256 384 7 7 (4816896)
I0214 20:56:42.616525   458 net.cpp:165] Memory required for data: 418743296
I0214 20:56:42.616528   458 layer_factory.hpp:76] Creating layer conv4
I0214 20:56:42.616534   458 net.cpp:106] Creating Layer conv4
I0214 20:56:42.616538   458 net.cpp:454] conv4 <- relu3
I0214 20:56:42.616541   458 net.cpp:411] conv4 -> conv4
I0214 20:56:42.633029   458 net.cpp:150] Setting up conv4
I0214 20:56:42.633056   458 net.cpp:157] Top shape: 256 384 7 7 (4816896)
I0214 20:56:42.633059   458 net.cpp:165] Memory required for data: 438010880
I0214 20:56:42.633064   458 layer_factory.hpp:76] Creating layer relu4
I0214 20:56:42.633080   458 net.cpp:106] Creating Layer relu4
I0214 20:56:42.633083   458 net.cpp:454] relu4 <- conv4
I0214 20:56:42.633091   458 net.cpp:411] relu4 -> relu4
I0214 20:56:42.633314   458 net.cpp:150] Setting up relu4
I0214 20:56:42.633322   458 net.cpp:157] Top shape: 256 384 7 7 (4816896)
I0214 20:56:42.633333   458 net.cpp:165] Memory required for data: 457278464
I0214 20:56:42.633335   458 layer_factory.hpp:76] Creating layer conv5
I0214 20:56:42.633342   458 net.cpp:106] Creating Layer conv5
I0214 20:56:42.633347   458 net.cpp:454] conv5 <- relu4
I0214 20:56:42.633350   458 net.cpp:411] conv5 -> conv5
I0214 20:56:42.644847   458 net.cpp:150] Setting up conv5
I0214 20:56:42.644870   458 net.cpp:157] Top shape: 256 256 7 7 (3211264)
I0214 20:56:42.644872   458 net.cpp:165] Memory required for data: 470123520
I0214 20:56:42.644881   458 layer_factory.hpp:76] Creating layer relu5
I0214 20:56:42.644886   458 net.cpp:106] Creating Layer relu5
I0214 20:56:42.644891   458 net.cpp:454] relu5 <- conv5
I0214 20:56:42.644894   458 net.cpp:411] relu5 -> relu5
I0214 20:56:42.645020   458 net.cpp:150] Setting up relu5
I0214 20:56:42.645025   458 net.cpp:157] Top shape: 256 256 7 7 (3211264)
I0214 20:56:42.645037   458 net.cpp:165] Memory required for data: 482968576
I0214 20:56:42.645038   458 layer_factory.hpp:76] Creating layer pool5
I0214 20:56:42.645043   458 net.cpp:106] Creating Layer pool5
I0214 20:56:42.645045   458 net.cpp:454] pool5 <- relu5
I0214 20:56:42.645047   458 net.cpp:411] pool5 -> pool5
I0214 20:56:42.645311   458 net.cpp:150] Setting up pool5
I0214 20:56:42.645319   458 net.cpp:157] Top shape: 256 256 3 3 (589824)
I0214 20:56:42.645330   458 net.cpp:165] Memory required for data: 485327872
I0214 20:56:42.645333   458 layer_factory.hpp:76] Creating layer fc6
I0214 20:56:42.645340   458 net.cpp:106] Creating Layer fc6
I0214 20:56:42.645344   458 net.cpp:454] fc6 <- pool5
I0214 20:56:42.645346   458 net.cpp:411] fc6 -> fc6
I0214 20:56:42.756182   458 net.cpp:150] Setting up fc6
I0214 20:56:42.756209   458 net.cpp:157] Top shape: 256 2048 (524288)
I0214 20:56:42.756212   458 net.cpp:165] Memory required for data: 487425024
I0214 20:56:42.756222   458 layer_factory.hpp:76] Creating layer relu6
I0214 20:56:42.756229   458 net.cpp:106] Creating Layer relu6
I0214 20:56:42.756234   458 net.cpp:454] relu6 <- fc6
I0214 20:56:42.756242   458 net.cpp:411] relu6 -> relu6
I0214 20:56:42.756428   458 net.cpp:150] Setting up relu6
I0214 20:56:42.756435   458 net.cpp:157] Top shape: 256 2048 (524288)
I0214 20:56:42.756438   458 net.cpp:165] Memory required for data: 489522176
I0214 20:56:42.756439   458 layer_factory.hpp:76] Creating layer drop6
I0214 20:56:42.756449   458 net.cpp:106] Creating Layer drop6
I0214 20:56:42.756453   458 net.cpp:454] drop6 <- relu6
I0214 20:56:42.756458   458 net.cpp:411] drop6 -> drop6
I0214 20:56:42.756491   458 net.cpp:150] Setting up drop6
I0214 20:56:42.756496   458 net.cpp:157] Top shape: 256 2048 (524288)
I0214 20:56:42.756499   458 net.cpp:165] Memory required for data: 491619328
I0214 20:56:42.756500   458 layer_factory.hpp:76] Creating layer fc7
I0214 20:56:42.756505   458 net.cpp:106] Creating Layer fc7
I0214 20:56:42.756522   458 net.cpp:454] fc7 <- drop6
I0214 20:56:42.756538   458 net.cpp:411] fc7 -> fc7
I0214 20:56:42.854754   458 net.cpp:150] Setting up fc7
I0214 20:56:42.854782   458 net.cpp:157] Top shape: 256 2048 (524288)
I0214 20:56:42.854785   458 net.cpp:165] Memory required for data: 493716480
I0214 20:56:42.854794   458 layer_factory.hpp:76] Creating layer relu7
I0214 20:56:42.854800   458 net.cpp:106] Creating Layer relu7
I0214 20:56:42.854805   458 net.cpp:454] relu7 <- fc7
I0214 20:56:42.854812   458 net.cpp:411] relu7 -> relu7
I0214 20:56:42.855147   458 net.cpp:150] Setting up relu7
I0214 20:56:42.855154   458 net.cpp:157] Top shape: 256 2048 (524288)
I0214 20:56:42.855166   458 net.cpp:165] Memory required for data: 495813632
I0214 20:56:42.855168   458 layer_factory.hpp:76] Creating layer drop7
I0214 20:56:42.855175   458 net.cpp:106] Creating Layer drop7
I0214 20:56:42.855180   458 net.cpp:454] drop7 <- relu7
I0214 20:56:42.855183   458 net.cpp:411] drop7 -> drop7
I0214 20:56:42.855221   458 net.cpp:150] Setting up drop7
I0214 20:56:42.855223   458 net.cpp:157] Top shape: 256 2048 (524288)
I0214 20:56:42.855226   458 net.cpp:165] Memory required for data: 497910784
I0214 20:56:42.855237   458 layer_factory.hpp:76] Creating layer fc8
I0214 20:56:42.855242   458 net.cpp:106] Creating Layer fc8
I0214 20:56:42.855244   458 net.cpp:454] fc8 <- drop7
I0214 20:56:42.855249   458 net.cpp:411] fc8 -> fc8
I0214 20:56:42.903080   458 net.cpp:150] Setting up fc8
I0214 20:56:42.903107   458 net.cpp:157] Top shape: 256 1000 (256000)
I0214 20:56:42.903110   458 net.cpp:165] Memory required for data: 498934784
I0214 20:56:42.903117   458 layer_factory.hpp:76] Creating layer loss
I0214 20:56:42.903126   458 net.cpp:106] Creating Layer loss
I0214 20:56:42.903131   458 net.cpp:454] loss <- fc8
I0214 20:56:42.903136   458 net.cpp:454] loss <- label
I0214 20:56:42.903142   458 net.cpp:411] loss -> loss
I0214 20:56:42.903154   458 layer_factory.hpp:76] Creating layer loss
…
  transform_param {
    scale: 0.04
    mirror: false
    crop_size: 128
    mean_value: 104
    mean_value: 117
    mean_value: 123
    force_color: true
    resize_param {
      prob: 1
      resize_mode: FIT_SMALL_SIZE
      height: 144
      width: 144
      pad_mode: MIRRORED
      pad_value: 104
      pad_value: 117
      pad_value: 124
      interp_mode: LINEAR
      center_object: false
      max_angle: 0
    }
  }
  data_param {
    source: "/home/share/storage/datasets/imagenet/lmdb/ilsvrc12_val_lmdb"
    batch_size: 50
    backend: LMDB
  }
}
layer {
  name: "conv1"
  type: "Convolution"
  bottom: "data"
  top: "conv1"
  param {
    lr_mult: 1
    decay_mult: 1
  }
  param {
    lr_mult: 2
    decay_mult: 0
  }
  convolution_param {
    num_output: 96
    kernel_size: 11
    stride: 4
    weight_filler {
      type: "gaussian"
      std: 0.01
    }
    bias_filler {
      type: "constant"
    }
  }
}
layer {
  name: "relu1"
  type: "ReLU"
  bottom: "conv1"
  top: "relu1"
}
layer {
  name: "pool1"
  type: "Pooling"
  bottom: "relu1"
  top: "pool1"
  pooling_param {
    pool: MAX
    kernel_size: 3
    stride: 2
  }
}
layer {
  name: "conv2"
  type: "Convolution"
  bottom: "pool1"
  top: "conv2"
  param {
    lr_mult: 1
    decay_mult: 1
  }
  param {
    lr_mult: 2
    decay_mult: 0
  }
  convolution_param {
    num_output: 256
    pad: 2
    kernel_size: 5
    group: 2
    weight_filler {
      type: "gaussian"
      std: 0.01
    }
    bias_filler {
      type: "constant"
    }
  }
}
layer {
  name: "relu2"
  type: "ReLU"
  bottom: "conv2"
  top: "relu2"
}
layer {
  name: "pool2"
  type: "Pooling"
  bottom: "relu2"
  top: "pool2"
  pooling_param {
    pool: MAX
    kernel_size: 3
    stride: 2
  }
}
layer {
  name: "conv3"
  type: "Convolution"
  bottom: "pool2"
  top: "conv3"
  param {
    lr_mult: 1
    decay_mult: 1
  }
  param {
    lr_mult: 2
    decay_mult: 0
  }
  convolution_param {
    num_output: 384
    pad: 1
    kernel_size: 3
    weight_filler {
      type: "gaussian"
      std: 0.01
    }
    bias_filler {
      type: "constant"
    }
  }
}
layer {
  name: "relu3"
  type: "ReLU"
  bottom: "conv3"
  top: "relu3"
}
layer {
  name: "conv4"
  type: "Convolution"
  bottom: "relu3"
  top: "conv4"
  param {
    lr_mult: 1
    decay_mult: 1
  }
  param {
    lr_mult: 2
    decay_mult: 0
  }
  convolution_param {
    num_output: 384
    pad: 1
    kernel_size: 3
    group: 2
    weight_filler {
      type: "gaussian"
      std: 0.01
    }
    bias_filler {
      type: "constant"
    }
  }
}
layer {
  name: "relu4"
  type: "ReLU"
  bottom: "conv4"
  top: "relu4"
}
layer {
  name: "conv5"
  type: "Convolution"
  bottom: "relu4"
  top: "conv5"
  param {
    lr_mult: 1
    decay_mult: 1
  }
  param {
    lr_mult: 2
    decay_mult: 0
  }
  convolution_param {
    num_output: 256
    pad: 1
    kernel_size: 3
    group: 2
    weight_filler {
      type: "gaussian"
      std: 0.01
    }
    bias_filler {
      type: "constant"
    }
  }
}
layer {
  name: "relu5"
  type: "ReLU"
  bottom: "conv5"
  top: "relu5"
}
layer {
  name: "pool5"
  type: "Pooling"
  bottom: "relu5"
  top: "pool5"
  pooling_param {
    pool: MAX
    kernel_size: 3
    stride: 2
  }
}
layer {
  name: "fc6"
  type: "InnerProduct"
  bottom: "pool5"
  top: "fc6"
  param {
    lr_mult: 1
    decay_mult: 1
  }
  param {
    lr_mult: 2
    decay_mult: 0
  }
  inner_product_param {
    num_output: 2048
    weight_filler {
      type: "gaussian"
      std: 0.005
    }
    bias_filler {
      type: "constant"
    }
  }
}
layer {
  name: "relu6"
  type: "ReLU"
  bottom: "fc6"
  top: "relu6"
}
layer {
  name: "drop6"
  type: "Dropout"
  bottom: "relu6"
  top: "drop6"
  dropout_param {
    dropout_ratio: 0.3
  }
}
layer {
  name: "fc7"
  type: "InnerProduct"
  bottom: "drop6"
  top: "fc7"
  param {
    lr_mult: 1
    decay_mult: 1
  }
  param {
    lr_mult: 2
    decay_mult: 0
  }
  inner_product_param {
    num_output: 2048
    weight_filler {
      type: "gaussian"
      std: 0.005
    }
    bias_filler {
      type: "constant"
    }
  }
}
layer {
  name: "relu7"
  type: "ReLU"
  bottom: "fc7"
  top: "relu7"
}
layer {
  name: "drop7"
  type: "Dropout"
  bottom: "relu7"
  top: "drop7"
  dropout_param {
    dropout_ratio: 0.3
  }
}
layer {
  name: "fc8"
  type: "InnerProduct"
  bottom: "drop7"
  top: "fc8"
  param {
    lr_mult: 1
    decay_mult: 1
  }
  param {
    lr_mult: 2
    decay_mult: 0
  }
  inner_product_param {
    num_output: 1000
    weight_filler {
      type: "gaussian"
      std: 0.01
    }
    bias_filler {
      type: "constant"
    }
  }
}
layer {
  name: "accuracy"
  type: "Accuracy"
  bottom: "fc8"
  bottom: "label"
  top: "accuracy"
  include {
    phase: TEST
  }
}
layer {
  name: "loss"
  type: "SoftmaxWithLoss"
  bottom: "fc8"
  bottom: "label"
  top: "loss"
}
I0214 20:56:42.904361   458 layer_factory.hpp:76] Creating layer data
I0214 20:56:42.904527   458 net.cpp:106] Creating Layer data
I0214 20:56:42.904549   458 net.cpp:411] data -> data
I0214 20:56:42.904556   458 net.cpp:411] data -> label
I0214 20:56:42.905246   473 db_lmdb.cpp:38] Opened lmdb /home/share/storage/datasets/imagenet/lmdb/ilsvrc12_val_lmdb
I0214 20:56:42.906410   458 data_layer.cpp:41] output data size: 50,3,128,128
I0214 20:56:42.923066   458 net.cpp:150] Setting up data
I0214 20:56:42.923095   458 net.cpp:157] Top shape: 50 3 128 128 (2457600)
I0214 20:56:42.923099   458 net.cpp:157] Top shape: 50 (50)
I0214 20:56:42.923100   458 net.cpp:165] Memory required for data: 9830600
I0214 20:56:42.923105   458 layer_factory.hpp:76] Creating layer label_data_1_split
I0214 20:56:42.923115   458 net.cpp:106] Creating Layer label_data_1_split
I0214 20:56:42.923120   458 net.cpp:454] label_data_1_split <- label
I0214 20:56:42.923126   458 net.cpp:411] label_data_1_split -> label_data_1_split_0
I0214 20:56:42.923136   458 net.cpp:411] label_data_1_split -> label_data_1_split_1
I0214 20:56:42.923215   458 net.cpp:150] Setting up label_data_1_split
I0214 20:56:42.923229   458 net.cpp:157] Top shape: 50 (50)
I0214 20:56:42.923233   458 net.cpp:157] Top shape: 50 (50)
I0214 20:56:42.923233   458 net.cpp:165] Memory required for data: 9831000
I0214 20:56:42.923244   458 layer_factory.hpp:76] Creating layer conv1
I0214 20:56:42.923252   458 net.cpp:106] Creating Layer conv1
I0214 20:56:42.923254   458 net.cpp:454] conv1 <- data
I0214 20:56:42.923259   458 net.cpp:411] conv1 -> conv1
I0214 20:56:42.924793   458 net.cpp:150] Setting up conv1
I0214 20:56:42.924803   458 net.cpp:157] Top shape: 50 96 30 30 (4320000)
I0214 20:56:42.924814   458 net.cpp:165] Memory required for data: 27111000
I0214 20:56:42.924821   458 layer_factory.hpp:76] Creating layer relu1
I0214 20:56:42.924826   458 net.cpp:106] Creating Layer relu1
I0214 20:56:42.924829   458 net.cpp:454] relu1 <- conv1
I0214 20:56:42.924832   458 net.cpp:411] relu1 -> relu1
I0214 20:56:42.926638   458 net.cpp:150] Setting up relu1
I0214 20:56:42.926646   458 net.cpp:157] Top shape: 50 96 30 30 (4320000)
I0214 20:56:42.926657   458 net.cpp:165] Memory required for data: 44391000
I0214 20:56:42.926661   458 layer_factory.hpp:76] Creating layer pool1
I0214 20:56:42.926666   458 net.cpp:106] Creating Layer pool1
I0214 20:56:42.926669   458 net.cpp:454] pool1 <- relu1
I0214 20:56:42.926672   458 net.cpp:411] pool1 -> pool1
I0214 20:56:42.926812   458 net.cpp:150] Setting up pool1
I0214 20:56:42.926818   458 net.cpp:157] Top shape: 50 96 15 15 (1080000)
I0214 20:56:42.926830   458 net.cpp:165] Memory required for data: 48711000
I0214 20:56:42.926831   458 layer_factory.hpp:76] Creating layer conv2
I0214 20:56:42.926836   458 net.cpp:106] Creating Layer conv2
I0214 20:56:42.926838   458 net.cpp:454] conv2 <- pool1
I0214 20:56:42.926842   458 net.cpp:411] conv2 -> conv2
I0214 20:56:42.935681   458 net.cpp:150] Setting up conv2
I0214 20:56:42.935708   458 net.cpp:157] Top shape: 50 256 15 15 (2880000)
I0214 20:56:42.935710   458 net.cpp:165] Memory required for data: 60231000
I0214 20:56:42.935722   458 layer_factory.hpp:76] Creating layer relu2
I0214 20:56:42.935734   458 net.cpp:106] Creating Layer relu2
I0214 20:56:42.935737   458 net.cpp:454] relu2 <- conv2
I0214 20:56:42.935741   458 net.cpp:411] relu2 -> relu2
I0214 20:56:42.935899   458 net.cpp:150] Setting up relu2
I0214 20:56:42.935905   458 net.cpp:157] Top shape: 50 256 15 15 (2880000)
I0214 20:56:42.935916   458 net.cpp:165] Memory required for data: 71751000
I0214 20:56:42.935919   458 layer_factory.hpp:76] Creating layer pool2
I0214 20:56:42.935924   458 net.cpp:106] Creating Layer pool2
I0214 20:56:42.935925   458 net.cpp:454] pool2 <- relu2
I0214 20:56:42.935930   458 net.cpp:411] pool2 -> pool2
I0214 20:56:42.936202   458 net.cpp:150] Setting up pool2
I0214 20:56:42.936208   458 net.cpp:157] Top shape: 50 256 7 7 (627200)
I0214 20:56:42.936220   458 net.cpp:165] Memory required for data: 74259800
I0214 20:56:42.936223   458 layer_factory.hpp:76] Creating layer conv3
I0214 20:56:42.936231   458 net.cpp:106] Creating Layer conv3
I0214 20:56:42.936233   458 net.cpp:454] conv3 <- pool2
I0214 20:56:42.936238   458 net.cpp:411] conv3 -> conv3
I0214 20:56:42.958515   458 net.cpp:150] Setting up conv3
I0214 20:56:42.958544   458 net.cpp:157] Top shape: 50 384 7 7 (940800)
I0214 20:56:42.958546   458 net.cpp:165] Memory required for data: 78023000
I0214 20:56:42.958555   458 layer_factory.hpp:76] Creating layer relu3
I0214 20:56:42.958564   458 net.cpp:106] Creating Layer relu3
I0214 20:56:42.958567   458 net.cpp:454] relu3 <- conv3
I0214 20:56:42.958573   458 net.cpp:411] relu3 -> relu3
I0214 20:56:42.958715   458 net.cpp:150] Setting up relu3
I0214 20:56:42.958720   458 net.cpp:157] Top shape: 50 384 7 7 (940800)
I0214 20:56:42.958724   458 net.cpp:165] Memory required for data: 81786200
I0214 20:56:42.958725   458 layer_factory.hpp:76] Creating layer conv4
I0214 20:56:42.958734   458 net.cpp:106] Creating Layer conv4
I0214 20:56:42.958736   458 net.cpp:454] conv4 <- relu3
I0214 20:56:42.958740   458 net.cpp:411] conv4 -> conv4
I0214 20:56:42.976209   458 net.cpp:150] Setting up conv4
I0214 20:56:42.976238   458 net.cpp:157] Top shape: 50 384 7 7 (940800)
I0214 20:56:42.976239   458 net.cpp:165] Memory required for data: 85549400
I0214 20:56:42.976246   458 layer_factory.hpp:76] Creating layer relu4
I0214 20:56:42.976254   458 net.cpp:106] Creating Layer relu4
I0214 20:56:42.976258   458 net.cpp:454] relu4 <- conv4
I0214 20:56:42.976264   458 net.cpp:411] relu4 -> relu4
I0214 20:56:42.976419   458 net.cpp:150] Setting up relu4
I0214 20:56:42.976425   458 net.cpp:157] Top shape: 50 384 7 7 (940800)
I0214 20:56:42.976438   458 net.cpp:165] Memory required for data: 89312600
I0214 20:56:42.976439   458 layer_factory.hpp:76] Creating layer conv5
I0214 20:56:42.976446   458 net.cpp:106] Creating Layer conv5
I0214 20:56:42.976450   458 net.cpp:454] conv5 <- relu4
I0214 20:56:42.976454   458 net.cpp:411] conv5 -> conv5
I0214 20:56:42.988629   458 net.cpp:150] Setting up conv5
I0214 20:56:42.988656   458 net.cpp:157] Top shape: 50 256 7 7 (627200)
I0214 20:56:42.988658   458 net.cpp:165] Memory required for data: 91821400
I0214 20:56:42.988667   458 layer_factory.hpp:76] Creating layer relu5
I0214 20:56:42.988674   458 net.cpp:106] Creating Layer relu5
I0214 20:56:42.988678   458 net.cpp:454] relu5 <- conv5
I0214 20:56:42.988684   458 net.cpp:411] relu5 -> relu5
I0214 20:56:42.988836   458 net.cpp:150] Setting up relu5
I0214 20:56:42.988842   458 net.cpp:157] Top shape: 50 256 7 7 (627200)
I0214 20:56:42.988852   458 net.cpp:165] Memory required for data: 94330200
I0214 20:56:42.988855   458 layer_factory.hpp:76] Creating layer pool5
I0214 20:56:42.988859   458 net.cpp:106] Creating Layer pool5
I0214 20:56:42.988862   458 net.cpp:454] pool5 <- relu5
I0214 20:56:42.988865   458 net.cpp:411] pool5 -> pool5
I0214 20:56:42.989140   458 net.cpp:150] Setting up pool5
I0214 20:56:42.989148   458 net.cpp:157] Top shape: 50 256 3 3 (115200)
I0214 20:56:42.989161   458 net.cpp:165] Memory required for data: 94791000
I0214 20:56:42.989162   458 layer_factory.hpp:76] Creating layer fc6
I0214 20:56:42.989169   458 net.cpp:106] Creating Layer fc6
I0214 20:56:42.989173   458 net.cpp:454] fc6 <- pool5
I0214 20:56:42.989176   458 net.cpp:411] fc6 -> fc6
I0214 20:56:43.103386   458 net.cpp:150] Setting up fc6
I0214 20:56:43.103423   458 net.cpp:157] Top shape: 50 2048 (102400)
I0214 20:56:43.103425   458 net.cpp:165] Memory required for data: 95200600
I0214 20:56:43.103432   458 layer_factory.hpp:76] Creating layer relu6
I0214 20:56:43.103442   458 net.cpp:106] Creating Layer relu6
I0214 20:56:43.103446   458 net.cpp:454] relu6 <- fc6
I0214 20:56:43.103452   458 net.cpp:411] relu6 -> relu6
I0214 20:56:43.103806   458 net.cpp:150] Setting up relu6
I0214 20:56:43.103814   458 net.cpp:157] Top shape: 50 2048 (102400)
I0214 20:56:43.103826   458 net.cpp:165] Memory required for data: 95610200
I0214 20:56:43.103828   458 layer_factory.hpp:76] Creating layer drop6
I0214 20:56:43.103833   458 net.cpp:106] Creating Layer drop6
I0214 20:56:43.103835   458 net.cpp:454] drop6 <- relu6
I0214 20:56:43.103840   458 net.cpp:411] drop6 -> drop6
I0214 20:56:43.103880   458 net.cpp:150] Setting up drop6
I0214 20:56:43.103884   458 net.cpp:157] Top shape: 50 2048 (102400)
I0214 20:56:43.103886   458 net.cpp:165] Memory required for data: 96019800
I0214 20:56:43.103899   458 layer_factory.hpp:76] Creating layer fc7
I0214 20:56:43.103907   458 net.cpp:106] Creating Layer fc7
I0214 20:56:43.103910   458 net.cpp:454] fc7 <- drop6
I0214 20:56:43.103914   458 net.cpp:411] fc7 -> fc7
I0214 20:56:43.203603   458 net.cpp:150] Setting up fc7
I0214 20:56:43.203629   458 net.cpp:157] Top shape: 50 2048 (102400)
I0214 20:56:43.203632   458 net.cpp:165] Memory required for data: 96429400
I0214 20:56:43.203639   458 layer_factory.hpp:76] Creating layer relu7
I0214 20:56:43.203646   458 net.cpp:106] Creating Layer relu7
I0214 20:56:43.203652   458 net.cpp:454] relu7 <- fc7
I0214 20:56:43.203658   458 net.cpp:411] relu7 -> relu7
I0214 20:56:43.203855   458 net.cpp:150] Setting up relu7
I0214 20:56:43.203860   458 net.cpp:157] Top shape: 50 2048 (102400)
I0214 20:56:43.203871   458 net.cpp:165] Memory required for data: 96839000
I0214 20:56:43.203873   458 layer_factory.hpp:76] Creating layer drop7
I0214 20:56:43.203878   458 net.cpp:106] Creating Layer drop7
I0214 20:56:43.203881   458 net.cpp:454] drop7 <- relu7
I0214 20:56:43.203886   458 net.cpp:411] drop7 -> drop7
I0214 20:56:43.203922   458 net.cpp:150] Setting up drop7
I0214 20:56:43.203925   458 net.cpp:157] Top shape: 50 2048 (102400)
I0214 20:56:43.203927   458 net.cpp:165] Memory required for data: 97248600
I0214 20:56:43.203938   458 layer_factory.hpp:76] Creating layer fc8
I0214 20:56:43.203945   458 net.cpp:106] Creating Layer fc8
I0214 20:56:43.203948   458 net.cpp:454] fc8 <- drop7
I0214 20:56:43.203953   458 net.cpp:411] fc8 -> fc8
I0214 20:56:43.258321   458 net.cpp:150] Setting up fc8
I0214 20:56:43.258348   458 net.cpp:157] Top shape: 50 1000 (50000)
I0214 20:56:43.258350   458 net.cpp:165] Memory required for data: 97448600
I0214 20:56:43.258358   458 layer_factory.hpp:76] Creating layer fc8_fc8_0_split
I0214 20:56:43.258365   458 net.cpp:106] Creating Layer fc8_fc8_0_split
I0214 20:56:43.258371   458 net.cpp:454] fc8_fc8_0_split <- fc8
I0214 20:56:43.258378   458 net.cpp:411] fc8_fc8_0_split -> fc8_fc8_0_split_0
I0214 20:56:43.258386   458 net.cpp:411] fc8_fc8_0_split -> fc8_fc8_0_split_1
I0214 20:56:43.258425   458 net.cpp:150] Setting up fc8_fc8_0_split
I0214 20:56:43.258430   458 net.cpp:157] Top shape: 50 1000 (50000)
I0214 20:56:43.258441   458 net.cpp:157] Top shape: 50 1000 (50000)
I0214 20:56:43.258442   458 net.cpp:165] Memory required for data: 97848600
I0214 20:56:43.258445   458 layer_factory.hpp:76] Creating layer accuracy
I0214 20:56:43.258452   458 net.cpp:106] Creating Layer accuracy
I0214 20:56:43.258471   458 net.cpp:454] accuracy <- fc8_fc8_0_split_0
I0214 20:56:43.258473   458 net.cpp:454] accuracy <- label_data_1_split_0
I0214 20:56:43.258487   458 net.cpp:411] accuracy -> accuracy
…
