…
      force_gray: true
    }
    data_param {
      source: "/local/temporary/imagenet144pxlmdb/ilsvrc12_128_train_lmdb"
      batch_size: 256
      backend: LMDB
    }
  }
  layer {
    name: "data"
    type: "Data"
    top: "data"
    top: "label"
    include {
      phase: TEST
    }
    transform_param {
      scale: 0.04
      mirror: false
      crop_size: 128
      mean_value: 117.64
      force_gray: true
    }
    data_param {
      source: "/local/temporary/imagenet144pxlmdb/ilsvrc12_128_val_lmdb"
      batch_size: 50
      backend: LMDB
    }
  }
  layer {
    name: "conv1"
    type: "Convolution"
    bottom: "data"
    top: "conv1"
    param {
      lr_mult: 1
      decay_mult: 1
    }
    param {
      lr_mult: 2
      decay_mult: 0
    }
    convolution_param {
      num_output: 96
      kernel_size: 11
      stride: 4
      weight_filler {
        type: "gaussian"
        std: 0.01
      }
      bias_filler {
        type: "constant"
      }
    }
  }
  layer {
    name: "relu1"
    type: "ReLU"
    bottom: "conv1"
    top: "relu1"
  }
  layer {
    name: "pool1"
    type: "Pooling"
    bottom: "relu1"
    top: "pool1"
    pooling_param {
      pool: MAX
      kernel_size: 3
      stride: 2
    }
  }
  layer {
    name: "conv2"
    type: "Convolution"
    bottom: "pool1"
    top: "conv2"
    param {
      lr_mult: 1
      decay_mult: 1
    }
    param {
      lr_mult: 2
      decay_mult: 0
    }
    convolution_param {
      num_output: 256
      pad: 2
      kernel_size: 5
      group: 2
      weight_filler {
        type: "gaussian"
        std: 0.01
      }
      bias_filler {
        type: "constant"
      }
    }
  }
  layer {
    name: "relu2"
    type: "ReLU"
    bottom: "conv2"
    top: "relu2"
  }
  layer {
    name: "pool2"
    type: "Pooling"
    bottom: "relu2"
    top: "pool2"
    pooling_param {
      pool: MAX
      kernel_size: 3
      stride: 2
    }
  }
  layer {
    name: "conv3"
    type: "Convolution"
    bottom: "pool2"
    top: "conv3"
    param {
      lr_mult: 1
      decay_mult: 1
    }
    param {
      lr_mult: 2
      decay_mult: 0
    }
    convolution_param {
      num_output: 384
      pad: 1
      kernel_size: 3
      weight_filler {
        type: "gaussian"
        std: 0.01
      }
      bias_filler {
        type: "constant"
      }
    }
  }
  layer {
    name: "relu3"
    type: "ReLU"
    bottom: "conv3"
    top: "relu3"
  }
  layer {
    name: "conv4"
    type: "Convolution"
    bottom: "relu3"
    top: "conv4"
    param {
      lr_mult: 1
      decay_mult: 1
    }
    param {
      lr_mult: 2
      decay_mult: 0
    }
    convolution_param {
      num_output: 384
      pad: 1
      kernel_size: 3
      group: 2
      weight_filler {
        type: "gaussian"
        std: 0.01
      }
      bias_filler {
        type: "constant"
      }
    }
  }
  layer {
    name: "relu4"
    type: "ReLU"
    bottom: "conv4"
    top: "relu4"
  }
  layer {
    name: "conv5"
    type: "Convolution"
    bottom: "relu4"
    top: "conv5"
    param {
      lr_mult: 1
      decay_mult: 1
    }
    param {
      lr_mult: 2
      decay_mult: 0
    }
    convolution_param {
      num_output: 256
      pad: 1
      kernel_size: 3
      group: 2
      weight_filler {
        type: "gaussian"
        std: 0.01
      }
      bias_filler {
        type: "constant"
      }
    }
  }
  layer {
    name: "relu5"
    type: "ReLU"
    bottom: "conv5"
    top: "relu5"
  }
  layer {
    name: "pool5"
    type: "Pooling"
    bottom: "relu5"
    top: "pool5"
    pooling_param {
      pool: MAX
      kernel_size: 3
      stride: 2
    }
  }
  layer {
    name: "fc6"
    type: "InnerProduct"
    bottom: "pool5"
    top: "fc6"
    param {
      lr_mult: 1
      decay_mult: 1
    }
    param {
      lr_mult: 2
      decay_mult: 0
    }
    inner_product_param {
      num_output: 2048
      weight_filler {
        type: "gaussian"
        std: 0.005
      }
      bias_filler {
        type: "constant"
      }
    }
  }
  layer {
    name: "relu6"
    type: "ReLU"
    bottom: "fc6"
    top: "relu6"
  }
  layer {
    name: "drop6"
    type: "Dropout"
    bottom: "relu6"
    top: "drop6"
    dropout_param {
      dropout_ratio: 0.5
    }
  }
  layer {
    name: "fc7"
    type: "InnerProduct"
    bottom: "drop6"
    top: "fc7"
    param {
      lr_mult: 1
      decay_mult: 1
    }
    param {
      lr_mult: 2
      decay_mult: 0
    }
    inner_product_param {
      num_output: 2048
      weight_filler {
        type: "gaussian"
        std: 0.005
      }
      bias_filler {
        type: "constant"
      }
    }
  }
  layer {
    name: "relu7"
    type: "ReLU"
    bottom: "fc7"
    top: "relu7"
  }
  layer {
    name: "drop7"
    type: "Dropout"
    bottom: "relu7"
    top: "drop7"
    dropout_param {
      dropout_ratio: 0.5
    }
  }
  layer {
    name: "fc8"
    type: "InnerProduct"
    bottom: "drop7"
    top: "fc8"
    param {
      lr_mult: 1
      decay_mult: 1
    }
    param {
      lr_mult: 2
      decay_mult: 0
    }
    inner_product_param {
      num_output: 1000
      weight_filler {
        type: "gaussian"
        std: 0.01
      }
      bias_filler {
        type: "constant"
      }
    }
  }
  layer {
    name: "accuracy"
    type: "Accuracy"
    bottom: "fc8"
    bottom: "label"
    top: "accuracy"
    include {
      phase: TEST
    }
  }
  layer {
    name: "loss"
    type: "SoftmaxWithLoss"
    bottom: "fc8"
    bottom: "label"
    top: "loss"
  }
}
test_initialization: true
average_loss: 20
iter_size: 1
type: "SGD"
I0324 00:55:15.706652 28227 solver.cpp:86] Creating training net specified in net_param.
I0324 00:55:15.706769 28227 net.cpp:322] The NetState phase (0) differed from the phase (1) specified by a rule in layer data
I0324 00:55:15.706799 28227 net.cpp:322] The NetState phase (0) differed from the phase (1) specified by a rule in layer accuracy
I0324 00:55:15.707087 28227 net.cpp:49] Initializing net from parameters: 
name: "CaffeNet"
state {
  phase: TRAIN
}
layer {
  name: "data"
  type: "Data"
  top: "data"
  top: "label"
  include {
    phase: TRAIN
  }
  transform_param {
    scale: 0.04
    mirror: true
    crop_size: 128
    mean_value: 117.64
    force_gray: true
  }
  data_param {
    source: "/local/temporary/imagenet144pxlmdb/ilsvrc12_128_train_lmdb"
    batch_size: 256
    backend: LMDB
  }
}
layer {
  name: "conv1"
  type: "Convolution"
  bottom: "data"
  top: "conv1"
  param {
    lr_mult: 1
    decay_mult: 1
  }
  param {
    lr_mult: 2
    decay_mult: 0
  }
  convolution_param {
    num_output: 96
    kernel_size: 11
    stride: 4
    weight_filler {
      type: "gaussian"
      std: 0.01
    }
    bias_filler {
      type: "constant"
    }
  }
}
layer {
  name: "relu1"
  type: "ReLU"
  bottom: "conv1"
  top: "relu1"
}
layer {
  name: "pool1"
  type: "Pooling"
  bottom: "relu1"
  top: "pool1"
  pooling_param {
    pool: MAX
    kernel_size: 3
    stride: 2
  }
}
layer {
  name: "conv2"
  type: "Convolution"
  bottom: "pool1"
  top: "conv2"
  param {
    lr_mult: 1
    decay_mult: 1
  }
  param {
    lr_mult: 2
    decay_mult: 0
  }
  convolution_param {
    num_output: 256
    pad: 2
    kernel_size: 5
    group: 2
    weight_filler {
      type: "gaussian"
      std: 0.01
    }
    bias_filler {
      type: "constant"
    }
  }
}
layer {
  name: "relu2"
  type: "ReLU"
  bottom: "conv2"
  top: "relu2"
}
layer {
  name: "pool2"
  type: "Pooling"
  bottom: "relu2"
  top: "pool2"
  pooling_param {
    pool: MAX
    kernel_size: 3
    stride: 2
  }
}
layer {
  name: "conv3"
  type: "Convolution"
  bottom: "pool2"
  top: "conv3"
  param {
    lr_mult: 1
    decay_mult: 1
  }
  param {
    lr_mult: 2
    decay_mult: 0
  }
  convolution_param {
    num_output: 384
    pad: 1
    kernel_size: 3
    weight_filler {
      type: "gaussian"
      std: 0.01
    }
    bias_filler {
      type: "constant"
    }
  }
}
layer {
  name: "relu3"
  type: "ReLU"
  bottom: "conv3"
  top: "relu3"
}
layer {
  name: "conv4"
  type: "Convolution"
  bottom: "relu3"
  top: "conv4"
  param {
    lr_mult: 1
    decay_mult: 1
  }
  param {
    lr_mult: 2
    decay_mult: 0
  }
  convolution_param {
    num_output: 384
    pad: 1
    kernel_size: 3
    group: 2
    weight_filler {
      type: "gaussian"
      std: 0.01
    }
    bias_filler {
      type: "constant"
    }
  }
}
layer {
  name: "relu4"
  type: "ReLU"
  bottom: "conv4"
  top: "relu4"
}
layer {
  name: "conv5"
  type: "Convolution"
  bottom: "relu4"
  top: "conv5"
  param {
    lr_mult: 1
    decay_mult: 1
  }
  param {
    lr_mult: 2
    decay_mult: 0
  }
  convolution_param {
    num_output: 256
    pad: 1
    kernel_size: 3
    group: 2
    weight_filler {
      type: "gaussian"
      std: 0.01
    }
    bias_filler {
      type: "constant"
    }
  }
}
layer {
  name: "relu5"
  type: "ReLU"
  bottom: "conv5"
  top: "relu5"
}
layer {
  name: "pool5"
  type: "Pooling"
  bottom: "relu5"
  top: "pool5"
  pooling_param {
    pool: MAX
    kernel_size: 3
    stride: 2
  }
}
layer {
  name: "fc6"
  type: "InnerProduct"
  bottom: "pool5"
  top: "fc6"
  param {
    lr_mult: 1
    decay_mult: 1
  }
  param {
    lr_mult: 2
    decay_mult: 0
  }
  inner_product_param {
    num_output: 2048
    weight_filler {
      type: "gaussian"
      std: 0.005
    }
    bias_filler {
      type: "constant"
    }
  }
}
layer {
  name: "relu6"
  type: "ReLU"
  bottom: "fc6"
  top: "relu6"
}
layer {
  name: "drop6"
  type: "Dropout"
  bottom: "relu6"
  top: "drop6"
  dropout_param {
    dropout_ratio: 0.5
  }
}
layer {
  name: "fc7"
  type: "InnerProduct"
  bottom: "drop6"
  top: "fc7"
  param {
    lr_mult: 1
    decay_mult: 1
  }
  param {
    lr_mult: 2
    decay_mult: 0
  }
  inner_product_param {
    num_output: 2048
    weight_filler {
      type: "gaussian"
      std: 0.005
    }
    bias_filler {
      type: "constant"
    }
  }
}
layer {
  name: "relu7"
  type: "ReLU"
  bottom: "fc7"
  top: "relu7"
}
layer {
  name: "drop7"
  type: "Dropout"
  bottom: "relu7"
  top: "drop7"
  dropout_param {
    dropout_ratio: 0.5
  }
}
layer {
  name: "fc8"
  type: "InnerProduct"
  bottom: "drop7"
  top: "fc8"
  param {
    lr_mult: 1
    decay_mult: 1
  }
  param {
    lr_mult: 2
    decay_mult: 0
  }
  inner_product_param {
    num_output: 1000
    weight_filler {
      type: "gaussian"
      std: 0.01
    }
    bias_filler {
      type: "constant"
    }
  }
}
layer {
  name: "loss"
  type: "SoftmaxWithLoss"
  bottom: "fc8"
  bottom: "label"
  top: "loss"
}
I0324 00:55:15.707231 28227 layer_factory.hpp:76] Creating layer data
I0324 00:55:15.707960 28227 net.cpp:106] Creating Layer data
I0324 00:55:15.707972 28227 net.cpp:411] data -> data
I0324 00:55:15.708006 28227 net.cpp:411] data -> label
I0324 00:55:15.709168 28263 db_lmdb.cpp:38] Opened lmdb /local/temporary/imagenet144pxlmdb/ilsvrc12_128_train_lmdb
I0324 00:55:15.817145 28227 data_layer.cpp:41] output data size: 256,1,128,128
I0324 00:55:15.856106 28227 net.cpp:150] Setting up data
I0324 00:55:15.856143 28227 net.cpp:157] Top shape: 256 1 128 128 (4194304)
I0324 00:55:15.856150 28227 net.cpp:157] Top shape: 256 (256)
I0324 00:55:15.856154 28227 net.cpp:165] Memory required for data: 16778240
I0324 00:55:15.856165 28227 layer_factory.hpp:76] Creating layer conv1
I0324 00:55:15.856189 28227 net.cpp:106] Creating Layer conv1
I0324 00:55:15.856195 28227 net.cpp:454] conv1 <- data
I0324 00:55:15.856227 28227 net.cpp:411] conv1 -> conv1
I0324 00:55:16.163007 28227 net.cpp:150] Setting up conv1
I0324 00:55:16.163043 28227 net.cpp:157] Top shape: 256 96 30 30 (22118400)
I0324 00:55:16.163048 28227 net.cpp:165] Memory required for data: 105251840
I0324 00:55:16.163065 28227 layer_factory.hpp:76] Creating layer relu1
I0324 00:55:16.163105 28227 net.cpp:106] Creating Layer relu1
I0324 00:55:16.163111 28227 net.cpp:454] relu1 <- conv1
I0324 00:55:16.163117 28227 net.cpp:411] relu1 -> relu1
I0324 00:55:16.164407 28227 net.cpp:150] Setting up relu1
I0324 00:55:16.164418 28227 net.cpp:157] Top shape: 256 96 30 30 (22118400)
I0324 00:55:16.164422 28227 net.cpp:165] Memory required for data: 193725440
I0324 00:55:16.164425 28227 layer_factory.hpp:76] Creating layer pool1
I0324 00:55:16.164433 28227 net.cpp:106] Creating Layer pool1
I0324 00:55:16.164436 28227 net.cpp:454] pool1 <- relu1
I0324 00:55:16.164441 28227 net.cpp:411] pool1 -> pool1
I0324 00:55:16.166658 28227 net.cpp:150] Setting up pool1
I0324 00:55:16.166671 28227 net.cpp:157] Top shape: 256 96 15 15 (5529600)
I0324 00:55:16.166674 28227 net.cpp:165] Memory required for data: 215843840
I0324 00:55:16.166678 28227 layer_factory.hpp:76] Creating layer conv2
I0324 00:55:16.166690 28227 net.cpp:106] Creating Layer conv2
I0324 00:55:16.166694 28227 net.cpp:454] conv2 <- pool1
I0324 00:55:16.166700 28227 net.cpp:411] conv2 -> conv2
I0324 00:55:16.186738 28227 net.cpp:150] Setting up conv2
I0324 00:55:16.186753 28227 net.cpp:157] Top shape: 256 256 15 15 (14745600)
I0324 00:55:16.186758 28227 net.cpp:165] Memory required for data: 274826240
I0324 00:55:16.186766 28227 layer_factory.hpp:76] Creating layer relu2
I0324 00:55:16.186774 28227 net.cpp:106] Creating Layer relu2
I0324 00:55:16.186776 28227 net.cpp:454] relu2 <- conv2
I0324 00:55:16.186784 28227 net.cpp:411] relu2 -> relu2
I0324 00:55:16.188863 28227 net.cpp:150] Setting up relu2
I0324 00:55:16.188874 28227 net.cpp:157] Top shape: 256 256 15 15 (14745600)
I0324 00:55:16.188877 28227 net.cpp:165] Memory required for data: 333808640
I0324 00:55:16.188881 28227 layer_factory.hpp:76] Creating layer pool2
I0324 00:55:16.188887 28227 net.cpp:106] Creating Layer pool2
I0324 00:55:16.188891 28227 net.cpp:454] pool2 <- relu2
I0324 00:55:16.188896 28227 net.cpp:411] pool2 -> pool2
I0324 00:55:16.191097 28227 net.cpp:150] Setting up pool2
I0324 00:55:16.191108 28227 net.cpp:157] Top shape: 256 256 7 7 (3211264)
I0324 00:55:16.191112 28227 net.cpp:165] Memory required for data: 346653696
I0324 00:55:16.191115 28227 layer_factory.hpp:76] Creating layer conv3
I0324 00:55:16.191126 28227 net.cpp:106] Creating Layer conv3
I0324 00:55:16.191130 28227 net.cpp:454] conv3 <- pool2
I0324 00:55:16.191138 28227 net.cpp:411] conv3 -> conv3
I0324 00:55:16.223320 28227 net.cpp:150] Setting up conv3
I0324 00:55:16.223337 28227 net.cpp:157] Top shape: 256 384 7 7 (4816896)
I0324 00:55:16.223341 28227 net.cpp:165] Memory required for data: 365921280
I0324 00:55:16.223351 28227 layer_factory.hpp:76] Creating layer relu3
I0324 00:55:16.223361 28227 net.cpp:106] Creating Layer relu3
I0324 00:55:16.223363 28227 net.cpp:454] relu3 <- conv3
I0324 00:55:16.223371 28227 net.cpp:411] relu3 -> relu3
I0324 00:55:16.228256 28227 net.cpp:150] Setting up relu3
I0324 00:55:16.228268 28227 net.cpp:157] Top shape: 256 384 7 7 (4816896)
I0324 00:55:16.228272 28227 net.cpp:165] Memory required for data: 385188864
I0324 00:55:16.228276 28227 layer_factory.hpp:76] Creating layer conv4
I0324 00:55:16.228286 28227 net.cpp:106] Creating Layer conv4
I0324 00:55:16.228289 28227 net.cpp:454] conv4 <- relu3
I0324 00:55:16.228297 28227 net.cpp:411] conv4 -> conv4
I0324 00:55:16.261318 28227 net.cpp:150] Setting up conv4
I0324 00:55:16.261334 28227 net.cpp:157] Top shape: 256 384 7 7 (4816896)
I0324 00:55:16.261338 28227 net.cpp:165] Memory required for data: 404456448
I0324 00:55:16.261346 28227 layer_factory.hpp:76] Creating layer relu4
I0324 00:55:16.261354 28227 net.cpp:106] Creating Layer relu4
I0324 00:55:16.261358 28227 net.cpp:454] relu4 <- conv4
I0324 00:55:16.261364 28227 net.cpp:411] relu4 -> relu4
I0324 00:55:16.263439 28227 net.cpp:150] Setting up relu4
I0324 00:55:16.263449 28227 net.cpp:157] Top shape: 256 384 7 7 (4816896)
I0324 00:55:16.263453 28227 net.cpp:165] Memory required for data: 423724032
I0324 00:55:16.263455 28227 layer_factory.hpp:76] Creating layer conv5
I0324 00:55:16.263495 28227 net.cpp:106] Creating Layer conv5
I0324 00:55:16.263500 28227 net.cpp:454] conv5 <- relu4
I0324 00:55:16.263506 28227 net.cpp:411] conv5 -> conv5
I0324 00:55:16.289320 28227 net.cpp:150] Setting up conv5
I0324 00:55:16.289337 28227 net.cpp:157] Top shape: 256 256 7 7 (3211264)
I0324 00:55:16.289341 28227 net.cpp:165] Memory required for data: 436569088
I0324 00:55:16.289351 28227 layer_factory.hpp:76] Creating layer relu5
I0324 00:55:16.289361 28227 net.cpp:106] Creating Layer relu5
I0324 00:55:16.289365 28227 net.cpp:454] relu5 <- conv5
I0324 00:55:16.289369 28227 net.cpp:411] relu5 -> relu5
I0324 00:55:16.303314 28227 net.cpp:150] Setting up relu5
I0324 00:55:16.303325 28227 net.cpp:157] Top shape: 256 256 7 7 (3211264)
I0324 00:55:16.303329 28227 net.cpp:165] Memory required for data: 449414144
I0324 00:55:16.303333 28227 layer_factory.hpp:76] Creating layer pool5
I0324 00:55:16.303339 28227 net.cpp:106] Creating Layer pool5
I0324 00:55:16.303344 28227 net.cpp:454] pool5 <- relu5
I0324 00:55:16.303351 28227 net.cpp:411] pool5 -> pool5
I0324 00:55:16.311489 28227 net.cpp:150] Setting up pool5
I0324 00:55:16.311501 28227 net.cpp:157] Top shape: 256 256 3 3 (589824)
I0324 00:55:16.311504 28227 net.cpp:165] Memory required for data: 451773440
I0324 00:55:16.311508 28227 layer_factory.hpp:76] Creating layer fc6
I0324 00:55:16.311518 28227 net.cpp:106] Creating Layer fc6
I0324 00:55:16.311522 28227 net.cpp:454] fc6 <- pool5
I0324 00:55:16.311528 28227 net.cpp:411] fc6 -> fc6
I0324 00:55:16.450230 28227 net.cpp:150] Setting up fc6
I0324 00:55:16.450268 28227 net.cpp:157] Top shape: 256 2048 (524288)
I0324 00:55:16.450271 28227 net.cpp:165] Memory required for data: 453870592
I0324 00:55:16.450280 28227 layer_factory.hpp:76] Creating layer relu6
I0324 00:55:16.450289 28227 net.cpp:106] Creating Layer relu6
I0324 00:55:16.450294 28227 net.cpp:454] relu6 <- fc6
I0324 00:55:16.450299 28227 net.cpp:411] relu6 -> relu6
I0324 00:55:16.450554 28227 net.cpp:150] Setting up relu6
I0324 00:55:16.450563 28227 net.cpp:157] Top shape: 256 2048 (524288)
I0324 00:55:16.450567 28227 net.cpp:165] Memory required for data: 455967744
I0324 00:55:16.450570 28227 layer_factory.hpp:76] Creating layer drop6
I0324 00:55:16.450578 28227 net.cpp:106] Creating Layer drop6
I0324 00:55:16.450582 28227 net.cpp:454] drop6 <- relu6
I0324 00:55:16.450601 28227 net.cpp:411] drop6 -> drop6
I0324 00:55:16.450642 28227 net.cpp:150] Setting up drop6
I0324 00:55:16.450649 28227 net.cpp:157] Top shape: 256 2048 (524288)
I0324 00:55:16.450651 28227 net.cpp:165] Memory required for data: 458064896
I0324 00:55:16.450655 28227 layer_factory.hpp:76] Creating layer fc7
I0324 00:55:16.450665 28227 net.cpp:106] Creating Layer fc7
I0324 00:55:16.450670 28227 net.cpp:454] fc7 <- drop6
I0324 00:55:16.450676 28227 net.cpp:411] fc7 -> fc7
I0324 00:55:16.567061 28227 net.cpp:150] Setting up fc7
I0324 00:55:16.567100 28227 net.cpp:157] Top shape: 256 2048 (524288)
I0324 00:55:16.567103 28227 net.cpp:165] Memory required for data: 460162048
I0324 00:55:16.567112 28227 layer_factory.hpp:76] Creating layer relu7
I0324 00:55:16.567122 28227 net.cpp:106] Creating Layer relu7
I0324 00:55:16.567126 28227 net.cpp:454] relu7 <- fc7
I0324 00:55:16.567134 28227 net.cpp:411] relu7 -> relu7
I0324 00:55:16.567595 28227 net.cpp:150] Setting up relu7
I0324 00:55:16.567606 28227 net.cpp:157] Top shape: 256 2048 (524288)
I0324 00:55:16.567610 28227 net.cpp:165] Memory required for data: 462259200
I0324 00:55:16.567613 28227 layer_factory.hpp:76] Creating layer drop7
I0324 00:55:16.567620 28227 net.cpp:106] Creating Layer drop7
I0324 00:55:16.567625 28227 net.cpp:454] drop7 <- relu7
I0324 00:55:16.567642 28227 net.cpp:411] drop7 -> drop7
I0324 00:55:16.567680 28227 net.cpp:150] Setting up drop7
I0324 00:55:16.567687 28227 net.cpp:157] Top shape: 256 2048 (524288)
I0324 00:55:16.567692 28227 net.cpp:165] Memory required for data: 464356352
I0324 00:55:16.567694 28227 layer_factory.hpp:76] Creating layer fc8
I0324 00:55:16.567701 28227 net.cpp:106] Creating Layer fc8
I0324 00:55:16.567730 28227 net.cpp:454] fc8 <- drop7
I0324 00:55:16.567739 28227 net.cpp:411] fc8 -> fc8
I0324 00:55:16.623605 28227 net.cpp:150] Setting up fc8
I0324 00:55:16.623636 28227 net.cpp:157] Top shape: 256 1000 (256000)
I0324 00:55:16.623641 28227 net.cpp:165] Memory required for data: 465380352
I0324 00:55:16.623648 28227 layer_factory.hpp:76] Creating layer loss
I0324 00:55:16.623657 28227 net.cpp:106] Creating Layer loss
I0324 00:55:16.623661 28227 net.cpp:454] loss <- fc8
I0324 00:55:16.623666 28227 net.cpp:454] loss <- label
I0324 00:55:16.623673 28227 net.cpp:411] loss -> loss
I0324 00:55:16.623697 28227 layer_factory.hpp:76] Creating layer loss
…
I0324 00:55:16.625072 28227 net.cpp:322] The NetState phase (1) differed from the phase (0) specified by a rule in layer data
I0324 00:55:16.625385 28227 net.cpp:49] Initializing net from parameters: 
name: "CaffeNet"
state {
  phase: TEST
}
layer {
  name: "data"
  type: "Data"
  top: "data"
  top: "label"
  include {
    phase: TEST
  }
  transform_param {
    scale: 0.04
    mirror: false
    crop_size: 128
    mean_value: 117.64
    force_gray: true
  }
  data_param {
    source: "/local/temporary/imagenet144pxlmdb/ilsvrc12_128_val_lmdb"
    batch_size: 50
    backend: LMDB
  }
}
layer {
  name: "conv1"
  type: "Convolution"
  bottom: "data"
  top: "conv1"
  param {
    lr_mult: 1
    decay_mult: 1
  }
  param {
    lr_mult: 2
    decay_mult: 0
  }
  convolution_param {
    num_output: 96
    kernel_size: 11
    stride: 4
    weight_filler {
      type: "gaussian"
      std: 0.01
    }
    bias_filler {
      type: "constant"
    }
  }
}
layer {
  name: "relu1"
  type: "ReLU"
  bottom: "conv1"
  top: "relu1"
}
layer {
  name: "pool1"
  type: "Pooling"
  bottom: "relu1"
  top: "pool1"
  pooling_param {
    pool: MAX
    kernel_size: 3
    stride: 2
  }
}
layer {
  name: "conv2"
  type: "Convolution"
  bottom: "pool1"
  top: "conv2"
  param {
    lr_mult: 1
    decay_mult: 1
  }
  param {
    lr_mult: 2
    decay_mult: 0
  }
  convolution_param {
    num_output: 256
    pad: 2
    kernel_size: 5
    group: 2
    weight_filler {
      type: "gaussian"
      std: 0.01
    }
    bias_filler {
      type: "constant"
    }
  }
}
layer {
  name: "relu2"
  type: "ReLU"
  bottom: "conv2"
  top: "relu2"
}
layer {
  name: "pool2"
  type: "Pooling"
  bottom: "relu2"
  top: "pool2"
  pooling_param {
    pool: MAX
    kernel_size: 3
    stride: 2
  }
}
layer {
  name: "conv3"
  type: "Convolution"
  bottom: "pool2"
  top: "conv3"
  param {
    lr_mult: 1
    decay_mult: 1
  }
  param {
    lr_mult: 2
    decay_mult: 0
  }
  convolution_param {
    num_output: 384
    pad: 1
    kernel_size: 3
    weight_filler {
      type: "gaussian"
      std: 0.01
    }
    bias_filler {
      type: "constant"
    }
  }
}
layer {
  name: "relu3"
  type: "ReLU"
  bottom: "conv3"
  top: "relu3"
}
layer {
  name: "conv4"
  type: "Convolution"
  bottom: "relu3"
  top: "conv4"
  param {
    lr_mult: 1
    decay_mult: 1
  }
  param {
    lr_mult: 2
    decay_mult: 0
  }
  convolution_param {
    num_output: 384
    pad: 1
    kernel_size: 3
    group: 2
    weight_filler {
      type: "gaussian"
      std: 0.01
    }
    bias_filler {
      type: "constant"
    }
  }
}
layer {
  name: "relu4"
  type: "ReLU"
  bottom: "conv4"
  top: "relu4"
}
layer {
  name: "conv5"
  type: "Convolution"
  bottom: "relu4"
  top: "conv5"
  param {
    lr_mult: 1
    decay_mult: 1
  }
  param {
    lr_mult: 2
    decay_mult: 0
  }
  convolution_param {
    num_output: 256
    pad: 1
    kernel_size: 3
    group: 2
    weight_filler {
      type: "gaussian"
      std: 0.01
    }
    bias_filler {
      type: "constant"
    }
  }
}
layer {
  name: "relu5"
  type: "ReLU"
  bottom: "conv5"
  top: "relu5"
}
layer {
  name: "pool5"
  type: "Pooling"
  bottom: "relu5"
  top: "pool5"
  pooling_param {
    pool: MAX
    kernel_size: 3
    stride: 2
  }
}
layer {
  name: "fc6"
  type: "InnerProduct"
  bottom: "pool5"
  top: "fc6"
  param {
    lr_mult: 1
    decay_mult: 1
  }
  param {
    lr_mult: 2
    decay_mult: 0
  }
  inner_product_param {
    num_output: 2048
    weight_filler {
      type: "gaussian"
      std: 0.005
    }
    bias_filler {
      type: "constant"
    }
  }
}
layer {
  name: "relu6"
  type: "ReLU"
  bottom: "fc6"
  top: "relu6"
}
layer {
  name: "drop6"
  type: "Dropout"
  bottom: "relu6"
  top: "drop6"
  dropout_param {
    dropout_ratio: 0.5
  }
}
layer {
  name: "fc7"
  type: "InnerProduct"
  bottom: "drop6"
  top: "fc7"
  param {
    lr_mult: 1
    decay_mult: 1
  }
  param {
    lr_mult: 2
    decay_mult: 0
  }
  inner_product_param {
    num_output: 2048
    weight_filler {
      type: "gaussian"
      std: 0.005
    }
    bias_filler {
      type: "constant"
    }
  }
}
layer {
  name: "relu7"
  type: "ReLU"
  bottom: "fc7"
  top: "relu7"
}
layer {
  name: "drop7"
  type: "Dropout"
  bottom: "relu7"
  top: "drop7"
  dropout_param {
    dropout_ratio: 0.5
  }
}
layer {
  name: "fc8"
  type: "InnerProduct"
  bottom: "drop7"
  top: "fc8"
  param {
    lr_mult: 1
    decay_mult: 1
  }
  param {
    lr_mult: 2
    decay_mult: 0
  }
  inner_product_param {
    num_output: 1000
    weight_filler {
      type: "gaussian"
      std: 0.01
    }
    bias_filler {
      type: "constant"
    }
  }
}
layer {
  name: "accuracy"
  type: "Accuracy"
  bottom: "fc8"
  bottom: "label"
  top: "accuracy"
  include {
    phase: TEST
  }
}
layer {
  name: "loss"
  type: "SoftmaxWithLoss"
  bottom: "fc8"
  bottom: "label"
  top: "loss"
}
I0324 00:55:16.625555 28227 layer_factory.hpp:76] Creating layer data
I0324 00:55:16.625658 28227 net.cpp:106] Creating Layer data
I0324 00:55:16.625668 28227 net.cpp:411] data -> data
I0324 00:55:16.625689 28227 net.cpp:411] data -> label
I0324 00:55:16.626688 28265 db_lmdb.cpp:38] Opened lmdb /local/temporary/imagenet144pxlmdb/ilsvrc12_128_val_lmdb
I0324 00:55:16.627349 28227 data_layer.cpp:41] output data size: 50,1,128,128
I0324 00:55:16.639624 28227 net.cpp:150] Setting up data
I0324 00:55:16.639672 28227 net.cpp:157] Top shape: 50 1 128 128 (819200)
I0324 00:55:16.639678 28227 net.cpp:157] Top shape: 50 (50)
I0324 00:55:16.639679 28227 net.cpp:165] Memory required for data: 3277000
I0324 00:55:16.639684 28227 layer_factory.hpp:76] Creating layer label_data_1_split
I0324 00:55:16.639694 28227 net.cpp:106] Creating Layer label_data_1_split
I0324 00:55:16.639698 28227 net.cpp:454] label_data_1_split <- label
I0324 00:55:16.639708 28227 net.cpp:411] label_data_1_split -> label_data_1_split_0
I0324 00:55:16.639731 28227 net.cpp:411] label_data_1_split -> label_data_1_split_1
I0324 00:55:16.639852 28227 net.cpp:150] Setting up label_data_1_split
I0324 00:55:16.639859 28227 net.cpp:157] Top shape: 50 (50)
I0324 00:55:16.639863 28227 net.cpp:157] Top shape: 50 (50)
I0324 00:55:16.639865 28227 net.cpp:165] Memory required for data: 3277400
I0324 00:55:16.639868 28227 layer_factory.hpp:76] Creating layer conv1
I0324 00:55:16.639878 28227 net.cpp:106] Creating Layer conv1
I0324 00:55:16.639883 28227 net.cpp:454] conv1 <- data
I0324 00:55:16.639889 28227 net.cpp:411] conv1 -> conv1
I0324 00:55:16.649860 28227 net.cpp:150] Setting up conv1
I0324 00:55:16.649883 28227 net.cpp:157] Top shape: 50 96 30 30 (4320000)
I0324 00:55:16.649886 28227 net.cpp:165] Memory required for data: 20557400
I0324 00:55:16.649898 28227 layer_factory.hpp:76] Creating layer relu1
I0324 00:55:16.649904 28227 net.cpp:106] Creating Layer relu1
I0324 00:55:16.649909 28227 net.cpp:454] relu1 <- conv1
I0324 00:55:16.649926 28227 net.cpp:411] relu1 -> relu1
I0324 00:55:16.650279 28227 net.cpp:150] Setting up relu1
I0324 00:55:16.650288 28227 net.cpp:157] Top shape: 50 96 30 30 (4320000)
I0324 00:55:16.650303 28227 net.cpp:165] Memory required for data: 37837400
I0324 00:55:16.650306 28227 layer_factory.hpp:76] Creating layer pool1
I0324 00:55:16.650324 28227 net.cpp:106] Creating Layer pool1
I0324 00:55:16.650327 28227 net.cpp:454] pool1 <- relu1
I0324 00:55:16.650336 28227 net.cpp:411] pool1 -> pool1
I0324 00:55:16.652544 28227 net.cpp:150] Setting up pool1
I0324 00:55:16.652554 28227 net.cpp:157] Top shape: 50 96 15 15 (1080000)
I0324 00:55:16.652556 28227 net.cpp:165] Memory required for data: 42157400
I0324 00:55:16.652570 28227 layer_factory.hpp:76] Creating layer conv2
I0324 00:55:16.652590 28227 net.cpp:106] Creating Layer conv2
I0324 00:55:16.652593 28227 net.cpp:454] conv2 <- pool1
I0324 00:55:16.652607 28227 net.cpp:411] conv2 -> conv2
I0324 00:55:16.662935 28227 net.cpp:150] Setting up conv2
I0324 00:55:16.662946 28227 net.cpp:157] Top shape: 50 256 15 15 (2880000)
I0324 00:55:16.662961 28227 net.cpp:165] Memory required for data: 53677400
I0324 00:55:16.662969 28227 layer_factory.hpp:76] Creating layer relu2
I0324 00:55:16.662976 28227 net.cpp:106] Creating Layer relu2
I0324 00:55:16.662978 28227 net.cpp:454] relu2 <- conv2
I0324 00:55:16.662982 28227 net.cpp:411] relu2 -> relu2
I0324 00:55:16.663209 28227 net.cpp:150] Setting up relu2
I0324 00:55:16.663219 28227 net.cpp:157] Top shape: 50 256 15 15 (2880000)
I0324 00:55:16.663223 28227 net.cpp:165] Memory required for data: 65197400
I0324 00:55:16.663226 28227 layer_factory.hpp:76] Creating layer pool2
I0324 00:55:16.663234 28227 net.cpp:106] Creating Layer pool2
I0324 00:55:16.663239 28227 net.cpp:454] pool2 <- relu2
I0324 00:55:16.663245 28227 net.cpp:411] pool2 -> pool2
I0324 00:55:16.663599 28227 net.cpp:150] Setting up pool2
I0324 00:55:16.663609 28227 net.cpp:157] Top shape: 50 256 7 7 (627200)
I0324 00:55:16.663624 28227 net.cpp:165] Memory required for data: 67706200
I0324 00:55:16.663626 28227 layer_factory.hpp:76] Creating layer conv3
I0324 00:55:16.663635 28227 net.cpp:106] Creating Layer conv3
I0324 00:55:16.663640 28227 net.cpp:454] conv3 <- pool2
I0324 00:55:16.663656 28227 net.cpp:411] conv3 -> conv3
I0324 00:55:16.694442 28227 net.cpp:150] Setting up conv3
I0324 00:55:16.694456 28227 net.cpp:157] Top shape: 50 384 7 7 (940800)
I0324 00:55:16.694471 28227 net.cpp:165] Memory required for data: 71469400
I0324 00:55:16.694492 28227 layer_factory.hpp:76] Creating layer relu3
I0324 00:55:16.694525 28227 net.cpp:106] Creating Layer relu3
I0324 00:55:16.694530 28227 net.cpp:454] relu3 <- conv3
I0324 00:55:16.694536 28227 net.cpp:411] relu3 -> relu3
I0324 00:55:16.694742 28227 net.cpp:150] Setting up relu3
I0324 00:55:16.694753 28227 net.cpp:157] Top shape: 50 384 7 7 (940800)
I0324 00:55:16.694757 28227 net.cpp:165] Memory required for data: 75232600
I0324 00:55:16.694761 28227 layer_factory.hpp:76] Creating layer conv4
I0324 00:55:16.694768 28227 net.cpp:106] Creating Layer conv4
I0324 00:55:16.694772 28227 net.cpp:454] conv4 <- relu3
I0324 00:55:16.694778 28227 net.cpp:411] conv4 -> conv4
I0324 00:55:16.724273 28227 net.cpp:150] Setting up conv4
I0324 00:55:16.724301 28227 net.cpp:157] Top shape: 50 384 7 7 (940800)
I0324 00:55:16.724304 28227 net.cpp:165] Memory required for data: 78995800
I0324 00:55:16.724311 28227 layer_factory.hpp:76] Creating layer relu4
I0324 00:55:16.724319 28227 net.cpp:106] Creating Layer relu4
I0324 00:55:16.724323 28227 net.cpp:454] relu4 <- conv4
I0324 00:55:16.724328 28227 net.cpp:411] relu4 -> relu4
I0324 00:55:16.726400 28227 net.cpp:150] Setting up relu4
I0324 00:55:16.726408 28227 net.cpp:157] Top shape: 50 384 7 7 (940800)
I0324 00:55:16.726423 28227 net.cpp:165] Memory required for data: 82759000
I0324 00:55:16.726426 28227 layer_factory.hpp:76] Creating layer conv5
I0324 00:55:16.726435 28227 net.cpp:106] Creating Layer conv5
I0324 00:55:16.726439 28227 net.cpp:454] conv5 <- relu4
I0324 00:55:16.726446 28227 net.cpp:411] conv5 -> conv5
I0324 00:55:16.750311 28227 net.cpp:150] Setting up conv5
I0324 00:55:16.750326 28227 net.cpp:157] Top shape: 50 256 7 7 (627200)
I0324 00:55:16.750341 28227 net.cpp:165] Memory required for data: 85267800
I0324 00:55:16.750350 28227 layer_factory.hpp:76] Creating layer relu5
I0324 00:55:16.750360 28227 net.cpp:106] Creating Layer relu5
I0324 00:55:16.750362 28227 net.cpp:454] relu5 <- conv5
I0324 00:55:16.750367 28227 net.cpp:411] relu5 -> relu5
I0324 00:55:16.752447 28227 net.cpp:150] Setting up relu5
I0324 00:55:16.752460 28227 net.cpp:157] Top shape: 50 256 7 7 (627200)
I0324 00:55:16.752473 28227 net.cpp:165] Memory required for data: 87776600
I0324 00:55:16.752477 28227 layer_factory.hpp:76] Creating layer pool5
I0324 00:55:16.752483 28227 net.cpp:106] Creating Layer pool5
I0324 00:55:16.752486 28227 net.cpp:454] pool5 <- relu5
I0324 00:55:16.752491 28227 net.cpp:411] pool5 -> pool5
I0324 00:55:16.754705 28227 net.cpp:150] Setting up pool5
I0324 00:55:16.754722 28227 net.cpp:157] Top shape: 50 256 3 3 (115200)
I0324 00:55:16.754739 28227 net.cpp:165] Memory required for data: 88237400
I0324 00:55:16.754742 28227 layer_factory.hpp:76] Creating layer fc6
I0324 00:55:16.754750 28227 net.cpp:106] Creating Layer fc6
I0324 00:55:16.754752 28227 net.cpp:454] fc6 <- pool5
I0324 00:55:16.754758 28227 net.cpp:411] fc6 -> fc6
I0324 00:55:16.885933 28227 net.cpp:150] Setting up fc6
I0324 00:55:16.885969 28227 net.cpp:157] Top shape: 50 2048 (102400)
I0324 00:55:16.885973 28227 net.cpp:165] Memory required for data: 88647000
I0324 00:55:16.885982 28227 layer_factory.hpp:76] Creating layer relu6
I0324 00:55:16.885993 28227 net.cpp:106] Creating Layer relu6
I0324 00:55:16.885998 28227 net.cpp:454] relu6 <- fc6
I0324 00:55:16.886004 28227 net.cpp:411] relu6 -> relu6
I0324 00:55:16.886497 28227 net.cpp:150] Setting up relu6
I0324 00:55:16.886507 28227 net.cpp:157] Top shape: 50 2048 (102400)
I0324 00:55:16.886510 28227 net.cpp:165] Memory required for data: 89056600
I0324 00:55:16.886514 28227 layer_factory.hpp:76] Creating layer drop6
I0324 00:55:16.886521 28227 net.cpp:106] Creating Layer drop6
I0324 00:55:16.886523 28227 net.cpp:454] drop6 <- relu6
I0324 00:55:16.886531 28227 net.cpp:411] drop6 -> drop6
I0324 00:55:16.886574 28227 net.cpp:150] Setting up drop6
I0324 00:55:16.886580 28227 net.cpp:157] Top shape: 50 2048 (102400)
I0324 00:55:16.886584 28227 net.cpp:165] Memory required for data: 89466200
I0324 00:55:16.886587 28227 layer_factory.hpp:76] Creating layer fc7
I0324 00:55:16.886596 28227 net.cpp:106] Creating Layer fc7
I0324 00:55:16.886626 28227 net.cpp:454] fc7 <- drop6
I0324 00:55:16.886644 28227 net.cpp:411] fc7 -> fc7
I0324 00:55:16.997365 28227 net.cpp:150] Setting up fc7
I0324 00:55:16.997402 28227 net.cpp:157] Top shape: 50 2048 (102400)
I0324 00:55:16.997406 28227 net.cpp:165] Memory required for data: 89875800
I0324 00:55:16.997416 28227 layer_factory.hpp:76] Creating layer relu7
I0324 00:55:16.997424 28227 net.cpp:106] Creating Layer relu7
I0324 00:55:16.997428 28227 net.cpp:454] relu7 <- fc7
I0324 00:55:16.997437 28227 net.cpp:411] relu7 -> relu7
I0324 00:55:16.997720 28227 net.cpp:150] Setting up relu7
I0324 00:55:16.997728 28227 net.cpp:157] Top shape: 50 2048 (102400)
I0324 00:55:16.997742 28227 net.cpp:165] Memory required for data: 90285400
I0324 00:55:16.997745 28227 layer_factory.hpp:76] Creating layer drop7
I0324 00:55:16.997766 28227 net.cpp:106] Creating Layer drop7
I0324 00:55:16.997768 28227 net.cpp:454] drop7 <- relu7
I0324 00:55:16.997773 28227 net.cpp:411] drop7 -> drop7
I0324 00:55:16.997814 28227 net.cpp:150] Setting up drop7
I0324 00:55:16.997820 28227 net.cpp:157] Top shape: 50 2048 (102400)
I0324 00:55:16.997822 28227 net.cpp:165] Memory required for data: 90695000
I0324 00:55:16.997825 28227 layer_factory.hpp:76] Creating layer fc8
I0324 00:55:16.997834 28227 net.cpp:106] Creating Layer fc8
I0324 00:55:16.997838 28227 net.cpp:454] fc8 <- drop7
I0324 00:55:16.997843 28227 net.cpp:411] fc8 -> fc8
I0324 00:55:17.054428 28227 net.cpp:150] Setting up fc8
I0324 00:55:17.054473 28227 net.cpp:157] Top shape: 50 1000 (50000)
I0324 00:55:17.054476 28227 net.cpp:165] Memory required for data: 90895000
I0324 00:55:17.054486 28227 layer_factory.hpp:76] Creating layer fc8_fc8_0_split
I0324 00:55:17.054494 28227 net.cpp:106] Creating Layer fc8_fc8_0_split
I0324 00:55:17.054498 28227 net.cpp:454] fc8_fc8_0_split <- fc8
I0324 00:55:17.054513 28227 net.cpp:411] fc8_fc8_0_split -> fc8_fc8_0_split_0
I0324 00:55:17.054522 28227 net.cpp:411] fc8_fc8_0_split -> fc8_fc8_0_split_1
I0324 00:55:17.054576 28227 net.cpp:150] Setting up fc8_fc8_0_split
I0324 00:55:17.054582 28227 net.cpp:157] Top shape: 50 1000 (50000)
I0324 00:55:17.054585 28227 net.cpp:157] Top shape: 50 1000 (50000)
I0324 00:55:17.054589 28227 net.cpp:165] Memory required for data: 91295000
I0324 00:55:17.054591 28227 layer_factory.hpp:76] Creating layer accuracy
I0324 00:55:17.054599 28227 net.cpp:106] Creating Layer accuracy
I0324 00:55:17.054602 28227 net.cpp:454] accuracy <- fc8_fc8_0_split_0
I0324 00:55:17.054606 28227 net.cpp:454] accuracy <- label_data_1_split_0
I0324 00:55:17.054623 28227 net.cpp:411] accuracy -> accuracy
…
