…
      source: "/local/temporary/imagenet144pxlmdb/ilsvrc12_128_train_lmdb"
      batch_size: 256
      backend: LMDB
    }
  }
  layer {
    name: "data"
    type: "Data"
    top: "data"
    top: "label"
    include {
      phase: TEST
    }
    transform_param {
      scale: 0.04
      mirror: false
      crop_size: 128
      mean_value: 104
      mean_value: 117
      mean_value: 123
      force_color: true
    }
    data_param {
      source: "/local/temporary/imagenet144pxlmdb/ilsvrc12_128_val_lmdb"
      batch_size: 50
      backend: LMDB
    }
  }
  layer {
    name: "gray_data"
    type: "Convolution"
    bottom: "data"
    top: "gray_data"
    param {
      lr_mult: 1
      decay_mult: 1
    }
    param {
      lr_mult: 2
      decay_mult: 0
    }
    convolution_param {
      num_output: 1
      kernel_size: 1
      stride: 1
      weight_filler {
        type: "gaussian"
        std: 0.01
      }
      bias_filler {
        type: "constant"
      }
    }
  }
  layer {
    name: "conv1"
    type: "Convolution"
    bottom: "gray_data"
    top: "conv1"
    param {
      lr_mult: 1
      decay_mult: 1
    }
    param {
      lr_mult: 2
      decay_mult: 0
    }
    convolution_param {
      num_output: 96
      kernel_size: 11
      stride: 4
      weight_filler {
        type: "gaussian"
        std: 0.01
      }
      bias_filler {
        type: "constant"
      }
    }
  }
  layer {
    name: "relu1"
    type: "ReLU"
    bottom: "conv1"
    top: "relu1"
  }
  layer {
    name: "pool1"
    type: "Pooling"
    bottom: "relu1"
    top: "pool1"
    pooling_param {
      pool: MAX
      kernel_size: 3
      stride: 2
    }
  }
  layer {
    name: "conv2"
    type: "Convolution"
    bottom: "pool1"
    top: "conv2"
    param {
      lr_mult: 1
      decay_mult: 1
    }
    param {
      lr_mult: 2
      decay_mult: 0
    }
    convolution_param {
      num_output: 256
      pad: 2
      kernel_size: 5
      group: 2
      weight_filler {
        type: "gaussian"
        std: 0.01
      }
      bias_filler {
        type: "constant"
      }
    }
  }
  layer {
    name: "relu2"
    type: "ReLU"
    bottom: "conv2"
    top: "relu2"
  }
  layer {
    name: "pool2"
    type: "Pooling"
    bottom: "relu2"
    top: "pool2"
    pooling_param {
      pool: MAX
      kernel_size: 3
      stride: 2
    }
  }
  layer {
    name: "conv3"
    type: "Convolution"
    bottom: "pool2"
    top: "conv3"
    param {
      lr_mult: 1
      decay_mult: 1
    }
    param {
      lr_mult: 2
      decay_mult: 0
    }
    convolution_param {
      num_output: 384
      pad: 1
      kernel_size: 3
      weight_filler {
        type: "gaussian"
        std: 0.01
      }
      bias_filler {
        type: "constant"
      }
    }
  }
  layer {
    name: "relu3"
    type: "ReLU"
    bottom: "conv3"
    top: "relu3"
  }
  layer {
    name: "conv4"
    type: "Convolution"
    bottom: "relu3"
    top: "conv4"
    param {
      lr_mult: 1
      decay_mult: 1
    }
    param {
      lr_mult: 2
      decay_mult: 0
    }
    convolution_param {
      num_output: 384
      pad: 1
      kernel_size: 3
      group: 2
      weight_filler {
        type: "gaussian"
        std: 0.01
      }
      bias_filler {
        type: "constant"
      }
    }
  }
  layer {
    name: "relu4"
    type: "ReLU"
    bottom: "conv4"
    top: "relu4"
  }
  layer {
    name: "conv5"
    type: "Convolution"
    bottom: "relu4"
    top: "conv5"
    param {
      lr_mult: 1
      decay_mult: 1
    }
    param {
      lr_mult: 2
      decay_mult: 0
    }
    convolution_param {
      num_output: 256
      pad: 1
      kernel_size: 3
      group: 2
      weight_filler {
        type: "gaussian"
        std: 0.01
      }
      bias_filler {
        type: "constant"
      }
    }
  }
  layer {
    name: "relu5"
    type: "ReLU"
    bottom: "conv5"
    top: "relu5"
  }
  layer {
    name: "pool5"
    type: "Pooling"
    bottom: "relu5"
    top: "pool5"
    pooling_param {
      pool: MAX
      kernel_size: 3
      stride: 2
    }
  }
  layer {
    name: "fc6"
    type: "InnerProduct"
    bottom: "pool5"
    top: "fc6"
    param {
      lr_mult: 1
      decay_mult: 1
    }
    param {
      lr_mult: 2
      decay_mult: 0
    }
    inner_product_param {
      num_output: 2048
      weight_filler {
        type: "gaussian"
        std: 0.005
      }
      bias_filler {
        type: "constant"
      }
    }
  }
  layer {
    name: "relu6"
    type: "ReLU"
    bottom: "fc6"
    top: "relu6"
  }
  layer {
    name: "drop6"
    type: "Dropout"
    bottom: "relu6"
    top: "drop6"
    dropout_param {
      dropout_ratio: 0.5
    }
  }
  layer {
    name: "fc7"
    type: "InnerProduct"
    bottom: "drop6"
    top: "fc7"
    param {
      lr_mult: 1
      decay_mult: 1
    }
    param {
      lr_mult: 2
      decay_mult: 0
    }
    inner_product_param {
      num_output: 2048
      weight_filler {
        type: "gaussian"
        std: 0.005
      }
      bias_filler {
        type: "constant"
      }
    }
  }
  layer {
    name: "relu7"
    type: "ReLU"
    bottom: "fc7"
    top: "relu7"
  }
  layer {
    name: "drop7"
    type: "Dropout"
    bottom: "relu7"
    top: "drop7"
    dropout_param {
      dropout_ratio: 0.5
    }
  }
  layer {
    name: "fc8"
    type: "InnerProduct"
    bottom: "drop7"
    top: "fc8"
    param {
      lr_mult: 1
      decay_mult: 1
    }
    param {
      lr_mult: 2
      decay_mult: 0
    }
    inner_product_param {
      num_output: 1000
      weight_filler {
        type: "gaussian"
        std: 0.01
      }
      bias_filler {
        type: "constant"
      }
    }
  }
  layer {
    name: "accuracy"
    type: "Accuracy"
    bottom: "fc8"
    bottom: "label"
    top: "accuracy"
    include {
      phase: TEST
    }
  }
  layer {
    name: "loss"
    type: "SoftmaxWithLoss"
    bottom: "fc8"
    bottom: "label"
    top: "loss"
  }
}
test_initialization: true
average_loss: 20
iter_size: 1
type: "SGD"
I0322 16:48:55.567193  8698 solver.cpp:86] Creating training net specified in net_param.
I0322 16:48:55.567317  8698 net.cpp:322] The NetState phase (0) differed from the phase (1) specified by a rule in layer data
I0322 16:48:55.567345  8698 net.cpp:322] The NetState phase (0) differed from the phase (1) specified by a rule in layer accuracy
I0322 16:48:55.567643  8698 net.cpp:49] Initializing net from parameters: 
name: "CaffeNet"
state {
  phase: TRAIN
}
layer {
  name: "data"
  type: "Data"
  top: "data"
  top: "label"
  include {
    phase: TRAIN
  }
  transform_param {
    scale: 0.04
    mirror: true
    crop_size: 128
    mean_value: 104
    mean_value: 117
    mean_value: 124
    force_color: true
  }
  data_param {
    source: "/local/temporary/imagenet144pxlmdb/ilsvrc12_128_train_lmdb"
    batch_size: 256
    backend: LMDB
  }
}
layer {
  name: "gray_data"
  type: "Convolution"
  bottom: "data"
  top: "gray_data"
  param {
    lr_mult: 1
    decay_mult: 1
  }
  param {
    lr_mult: 2
    decay_mult: 0
  }
  convolution_param {
    num_output: 1
    kernel_size: 1
    stride: 1
    weight_filler {
      type: "gaussian"
      std: 0.01
    }
    bias_filler {
      type: "constant"
    }
  }
}
layer {
  name: "conv1"
  type: "Convolution"
  bottom: "gray_data"
  top: "conv1"
  param {
    lr_mult: 1
    decay_mult: 1
  }
  param {
    lr_mult: 2
    decay_mult: 0
  }
  convolution_param {
    num_output: 96
    kernel_size: 11
    stride: 4
    weight_filler {
      type: "gaussian"
      std: 0.01
    }
    bias_filler {
      type: "constant"
    }
  }
}
layer {
  name: "relu1"
  type: "ReLU"
  bottom: "conv1"
  top: "relu1"
}
layer {
  name: "pool1"
  type: "Pooling"
  bottom: "relu1"
  top: "pool1"
  pooling_param {
    pool: MAX
    kernel_size: 3
    stride: 2
  }
}
layer {
  name: "conv2"
  type: "Convolution"
  bottom: "pool1"
  top: "conv2"
  param {
    lr_mult: 1
    decay_mult: 1
  }
  param {
    lr_mult: 2
    decay_mult: 0
  }
  convolution_param {
    num_output: 256
    pad: 2
    kernel_size: 5
    group: 2
    weight_filler {
      type: "gaussian"
      std: 0.01
    }
    bias_filler {
      type: "constant"
    }
  }
}
layer {
  name: "relu2"
  type: "ReLU"
  bottom: "conv2"
  top: "relu2"
}
layer {
  name: "pool2"
  type: "Pooling"
  bottom: "relu2"
  top: "pool2"
  pooling_param {
    pool: MAX
    kernel_size: 3
    stride: 2
  }
}
layer {
  name: "conv3"
  type: "Convolution"
  bottom: "pool2"
  top: "conv3"
  param {
    lr_mult: 1
    decay_mult: 1
  }
  param {
    lr_mult: 2
    decay_mult: 0
  }
  convolution_param {
    num_output: 384
    pad: 1
    kernel_size: 3
    weight_filler {
      type: "gaussian"
      std: 0.01
    }
    bias_filler {
      type: "constant"
    }
  }
}
layer {
  name: "relu3"
  type: "ReLU"
  bottom: "conv3"
  top: "relu3"
}
layer {
  name: "conv4"
  type: "Convolution"
  bottom: "relu3"
  top: "conv4"
  param {
    lr_mult: 1
    decay_mult: 1
  }
  param {
    lr_mult: 2
    decay_mult: 0
  }
  convolution_param {
    num_output: 384
    pad: 1
    kernel_size: 3
    group: 2
    weight_filler {
      type: "gaussian"
      std: 0.01
    }
    bias_filler {
      type: "constant"
    }
  }
}
layer {
  name: "relu4"
  type: "ReLU"
  bottom: "conv4"
  top: "relu4"
}
layer {
  name: "conv5"
  type: "Convolution"
  bottom: "relu4"
  top: "conv5"
  param {
    lr_mult: 1
    decay_mult: 1
  }
  param {
    lr_mult: 2
    decay_mult: 0
  }
  convolution_param {
    num_output: 256
    pad: 1
    kernel_size: 3
    group: 2
    weight_filler {
      type: "gaussian"
      std: 0.01
    }
    bias_filler {
      type: "constant"
    }
  }
}
layer {
  name: "relu5"
  type: "ReLU"
  bottom: "conv5"
  top: "relu5"
}
layer {
  name: "pool5"
  type: "Pooling"
  bottom: "relu5"
  top: "pool5"
  pooling_param {
    pool: MAX
    kernel_size: 3
    stride: 2
  }
}
layer {
  name: "fc6"
  type: "InnerProduct"
  bottom: "pool5"
  top: "fc6"
  param {
    lr_mult: 1
    decay_mult: 1
  }
  param {
    lr_mult: 2
    decay_mult: 0
  }
  inner_product_param {
    num_output: 2048
    weight_filler {
      type: "gaussian"
      std: 0.005
    }
    bias_filler {
      type: "constant"
    }
  }
}
layer {
  name: "relu6"
  type: "ReLU"
  bottom: "fc6"
  top: "relu6"
}
layer {
  name: "drop6"
  type: "Dropout"
  bottom: "relu6"
  top: "drop6"
  dropout_param {
    dropout_ratio: 0.5
  }
}
layer {
  name: "fc7"
  type: "InnerProduct"
  bottom: "drop6"
  top: "fc7"
  param {
    lr_mult: 1
    decay_mult: 1
  }
  param {
    lr_mult: 2
    decay_mult: 0
  }
  inner_product_param {
    num_output: 2048
    weight_filler {
      type: "gaussian"
      std: 0.005
    }
    bias_filler {
      type: "constant"
    }
  }
}
layer {
  name: "relu7"
  type: "ReLU"
  bottom: "fc7"
  top: "relu7"
}
layer {
  name: "drop7"
  type: "Dropout"
  bottom: "relu7"
  top: "drop7"
  dropout_param {
    dropout_ratio: 0.5
  }
}
layer {
  name: "fc8"
  type: "InnerProduct"
  bottom: "drop7"
  top: "fc8"
  param {
    lr_mult: 1
    decay_mult: 1
  }
  param {
    lr_mult: 2
    decay_mult: 0
  }
  inner_product_param {
    num_output: 1000
    weight_filler {
      type: "gaussian"
      std: 0.01
    }
    bias_filler {
      type: "constant"
    }
  }
}
layer {
  name: "loss"
  type: "SoftmaxWithLoss"
  bottom: "fc8"
  bottom: "label"
  top: "loss"
}
I0322 16:48:55.567777  8698 layer_factory.hpp:76] Creating layer data
I0322 16:48:55.568517  8698 net.cpp:106] Creating Layer data
I0322 16:48:55.568538  8698 net.cpp:411] data -> data
I0322 16:48:55.568564  8698 net.cpp:411] data -> label
I0322 16:48:55.570225  8734 db_lmdb.cpp:38] Opened lmdb /local/temporary/imagenet144pxlmdb/ilsvrc12_128_train_lmdb
I0322 16:48:55.584091  8698 data_layer.cpp:41] output data size: 256,3,128,128
I0322 16:48:55.685107  8698 net.cpp:150] Setting up data
I0322 16:48:55.685147  8698 net.cpp:157] Top shape: 256 3 128 128 (12582912)
I0322 16:48:55.685153  8698 net.cpp:157] Top shape: 256 (256)
I0322 16:48:55.685156  8698 net.cpp:165] Memory required for data: 50332672
I0322 16:48:55.685168  8698 layer_factory.hpp:76] Creating layer gray_data
I0322 16:48:55.685200  8698 net.cpp:106] Creating Layer gray_data
I0322 16:48:55.685214  8698 net.cpp:454] gray_data <- data
I0322 16:48:55.685232  8698 net.cpp:411] gray_data -> gray_data
I0322 16:48:55.818243  8698 net.cpp:150] Setting up gray_data
I0322 16:48:55.818279  8698 net.cpp:157] Top shape: 256 1 128 128 (4194304)
I0322 16:48:55.818284  8698 net.cpp:165] Memory required for data: 67109888
I0322 16:48:55.818301  8698 layer_factory.hpp:76] Creating layer conv1
I0322 16:48:55.818322  8698 net.cpp:106] Creating Layer conv1
I0322 16:48:55.818326  8698 net.cpp:454] conv1 <- gray_data
I0322 16:48:55.818336  8698 net.cpp:411] conv1 -> conv1
I0322 16:48:55.820454  8698 net.cpp:150] Setting up conv1
I0322 16:48:55.820468  8698 net.cpp:157] Top shape: 256 96 30 30 (22118400)
I0322 16:48:55.820472  8698 net.cpp:165] Memory required for data: 155583488
I0322 16:48:55.820482  8698 layer_factory.hpp:76] Creating layer relu1
I0322 16:48:55.820492  8698 net.cpp:106] Creating Layer relu1
I0322 16:48:55.820495  8698 net.cpp:454] relu1 <- conv1
I0322 16:48:55.820500  8698 net.cpp:411] relu1 -> relu1
I0322 16:48:55.820731  8698 net.cpp:150] Setting up relu1
I0322 16:48:55.820741  8698 net.cpp:157] Top shape: 256 96 30 30 (22118400)
I0322 16:48:55.820745  8698 net.cpp:165] Memory required for data: 244057088
I0322 16:48:55.820749  8698 layer_factory.hpp:76] Creating layer pool1
I0322 16:48:55.820757  8698 net.cpp:106] Creating Layer pool1
I0322 16:48:55.820766  8698 net.cpp:454] pool1 <- relu1
I0322 16:48:55.820773  8698 net.cpp:411] pool1 -> pool1
I0322 16:48:55.821153  8698 net.cpp:150] Setting up pool1
I0322 16:48:55.821166  8698 net.cpp:157] Top shape: 256 96 15 15 (5529600)
I0322 16:48:55.821169  8698 net.cpp:165] Memory required for data: 266175488
I0322 16:48:55.821172  8698 layer_factory.hpp:76] Creating layer conv2
I0322 16:48:55.821187  8698 net.cpp:106] Creating Layer conv2
I0322 16:48:55.821190  8698 net.cpp:454] conv2 <- pool1
I0322 16:48:55.821197  8698 net.cpp:411] conv2 -> conv2
I0322 16:48:55.833449  8698 net.cpp:150] Setting up conv2
I0322 16:48:55.833463  8698 net.cpp:157] Top shape: 256 256 15 15 (14745600)
I0322 16:48:55.833475  8698 net.cpp:165] Memory required for data: 325157888
I0322 16:48:55.833485  8698 layer_factory.hpp:76] Creating layer relu2
I0322 16:48:55.833492  8698 net.cpp:106] Creating Layer relu2
I0322 16:48:55.833495  8698 net.cpp:454] relu2 <- conv2
I0322 16:48:55.833506  8698 net.cpp:411] relu2 -> relu2
I0322 16:48:55.833853  8698 net.cpp:150] Setting up relu2
I0322 16:48:55.833866  8698 net.cpp:157] Top shape: 256 256 15 15 (14745600)
I0322 16:48:55.833869  8698 net.cpp:165] Memory required for data: 384140288
I0322 16:48:55.833873  8698 layer_factory.hpp:76] Creating layer pool2
I0322 16:48:55.833880  8698 net.cpp:106] Creating Layer pool2
I0322 16:48:55.833884  8698 net.cpp:454] pool2 <- relu2
I0322 16:48:55.833889  8698 net.cpp:411] pool2 -> pool2
I0322 16:48:55.834118  8698 net.cpp:150] Setting up pool2
I0322 16:48:55.834128  8698 net.cpp:157] Top shape: 256 256 7 7 (3211264)
I0322 16:48:55.834131  8698 net.cpp:165] Memory required for data: 396985344
I0322 16:48:55.834136  8698 layer_factory.hpp:76] Creating layer conv3
I0322 16:48:55.834146  8698 net.cpp:106] Creating Layer conv3
I0322 16:48:55.834151  8698 net.cpp:454] conv3 <- pool2
I0322 16:48:55.834164  8698 net.cpp:411] conv3 -> conv3
I0322 16:48:55.865231  8698 net.cpp:150] Setting up conv3
I0322 16:48:55.865245  8698 net.cpp:157] Top shape: 256 384 7 7 (4816896)
I0322 16:48:55.865249  8698 net.cpp:165] Memory required for data: 416252928
I0322 16:48:55.865284  8698 layer_factory.hpp:76] Creating layer relu3
I0322 16:48:55.865301  8698 net.cpp:106] Creating Layer relu3
I0322 16:48:55.865305  8698 net.cpp:454] relu3 <- conv3
I0322 16:48:55.865310  8698 net.cpp:411] relu3 -> relu3
I0322 16:48:55.865653  8698 net.cpp:150] Setting up relu3
I0322 16:48:55.865664  8698 net.cpp:157] Top shape: 256 384 7 7 (4816896)
I0322 16:48:55.865669  8698 net.cpp:165] Memory required for data: 435520512
I0322 16:48:55.865671  8698 layer_factory.hpp:76] Creating layer conv4
I0322 16:48:55.865682  8698 net.cpp:106] Creating Layer conv4
I0322 16:48:55.865685  8698 net.cpp:454] conv4 <- relu3
I0322 16:48:55.865692  8698 net.cpp:411] conv4 -> conv4
I0322 16:48:55.889971  8698 net.cpp:150] Setting up conv4
I0322 16:48:55.889986  8698 net.cpp:157] Top shape: 256 384 7 7 (4816896)
I0322 16:48:55.889991  8698 net.cpp:165] Memory required for data: 454788096
I0322 16:48:55.890000  8698 layer_factory.hpp:76] Creating layer relu4
I0322 16:48:55.890012  8698 net.cpp:106] Creating Layer relu4
I0322 16:48:55.890015  8698 net.cpp:454] relu4 <- conv4
I0322 16:48:55.890022  8698 net.cpp:411] relu4 -> relu4
I0322 16:48:55.890480  8698 net.cpp:150] Setting up relu4
I0322 16:48:55.890491  8698 net.cpp:157] Top shape: 256 384 7 7 (4816896)
I0322 16:48:55.890496  8698 net.cpp:165] Memory required for data: 474055680
I0322 16:48:55.890498  8698 layer_factory.hpp:76] Creating layer conv5
I0322 16:48:55.890509  8698 net.cpp:106] Creating Layer conv5
I0322 16:48:55.890512  8698 net.cpp:454] conv5 <- relu4
I0322 16:48:55.890521  8698 net.cpp:411] conv5 -> conv5
I0322 16:48:55.913430  8698 net.cpp:150] Setting up conv5
I0322 16:48:55.913444  8698 net.cpp:157] Top shape: 256 256 7 7 (3211264)
I0322 16:48:55.913447  8698 net.cpp:165] Memory required for data: 486900736
I0322 16:48:55.913455  8698 layer_factory.hpp:76] Creating layer relu5
I0322 16:48:55.913470  8698 net.cpp:106] Creating Layer relu5
I0322 16:48:55.913475  8698 net.cpp:454] relu5 <- conv5
I0322 16:48:55.913480  8698 net.cpp:411] relu5 -> relu5
I0322 16:48:55.913683  8698 net.cpp:150] Setting up relu5
I0322 16:48:55.913693  8698 net.cpp:157] Top shape: 256 256 7 7 (3211264)
I0322 16:48:55.913697  8698 net.cpp:165] Memory required for data: 499745792
I0322 16:48:55.913702  8698 layer_factory.hpp:76] Creating layer pool5
I0322 16:48:55.913710  8698 net.cpp:106] Creating Layer pool5
I0322 16:48:55.913713  8698 net.cpp:454] pool5 <- relu5
I0322 16:48:55.913720  8698 net.cpp:411] pool5 -> pool5
I0322 16:48:55.914074  8698 net.cpp:150] Setting up pool5
I0322 16:48:55.914085  8698 net.cpp:157] Top shape: 256 256 3 3 (589824)
I0322 16:48:55.914089  8698 net.cpp:165] Memory required for data: 502105088
I0322 16:48:55.914093  8698 layer_factory.hpp:76] Creating layer fc6
I0322 16:48:55.914103  8698 net.cpp:106] Creating Layer fc6
I0322 16:48:55.914106  8698 net.cpp:454] fc6 <- pool5
I0322 16:48:55.914113  8698 net.cpp:411] fc6 -> fc6
I0322 16:48:56.065990  8698 net.cpp:150] Setting up fc6
I0322 16:48:56.066023  8698 net.cpp:157] Top shape: 256 2048 (524288)
I0322 16:48:56.066027  8698 net.cpp:165] Memory required for data: 504202240
I0322 16:48:56.066050  8698 layer_factory.hpp:76] Creating layer relu6
I0322 16:48:56.066062  8698 net.cpp:106] Creating Layer relu6
I0322 16:48:56.066066  8698 net.cpp:454] relu6 <- fc6
I0322 16:48:56.066073  8698 net.cpp:411] relu6 -> relu6
I0322 16:48:56.066365  8698 net.cpp:150] Setting up relu6
I0322 16:48:56.066375  8698 net.cpp:157] Top shape: 256 2048 (524288)
I0322 16:48:56.066380  8698 net.cpp:165] Memory required for data: 506299392
I0322 16:48:56.066383  8698 layer_factory.hpp:76] Creating layer drop6
I0322 16:48:56.066397  8698 net.cpp:106] Creating Layer drop6
I0322 16:48:56.066401  8698 net.cpp:454] drop6 <- relu6
I0322 16:48:56.066406  8698 net.cpp:411] drop6 -> drop6
I0322 16:48:56.066454  8698 net.cpp:150] Setting up drop6
I0322 16:48:56.066462  8698 net.cpp:157] Top shape: 256 2048 (524288)
I0322 16:48:56.066464  8698 net.cpp:165] Memory required for data: 508396544
I0322 16:48:56.066469  8698 layer_factory.hpp:76] Creating layer fc7
I0322 16:48:56.066504  8698 net.cpp:106] Creating Layer fc7
I0322 16:48:56.066509  8698 net.cpp:454] fc7 <- drop6
I0322 16:48:56.066516  8698 net.cpp:411] fc7 -> fc7
I0322 16:48:56.200919  8698 net.cpp:150] Setting up fc7
I0322 16:48:56.200954  8698 net.cpp:157] Top shape: 256 2048 (524288)
I0322 16:48:56.200958  8698 net.cpp:165] Memory required for data: 510493696
I0322 16:48:56.200968  8698 layer_factory.hpp:76] Creating layer relu7
I0322 16:48:56.200978  8698 net.cpp:106] Creating Layer relu7
I0322 16:48:56.200981  8698 net.cpp:454] relu7 <- fc7
I0322 16:48:56.200989  8698 net.cpp:411] relu7 -> relu7
I0322 16:48:56.201489  8698 net.cpp:150] Setting up relu7
I0322 16:48:56.201501  8698 net.cpp:157] Top shape: 256 2048 (524288)
I0322 16:48:56.201505  8698 net.cpp:165] Memory required for data: 512590848
I0322 16:48:56.201508  8698 layer_factory.hpp:76] Creating layer drop7
I0322 16:48:56.201519  8698 net.cpp:106] Creating Layer drop7
I0322 16:48:56.201522  8698 net.cpp:454] drop7 <- relu7
I0322 16:48:56.201529  8698 net.cpp:411] drop7 -> drop7
I0322 16:48:56.201578  8698 net.cpp:150] Setting up drop7
I0322 16:48:56.201586  8698 net.cpp:157] Top shape: 256 2048 (524288)
I0322 16:48:56.201591  8698 net.cpp:165] Memory required for data: 514688000
I0322 16:48:56.201593  8698 layer_factory.hpp:76] Creating layer fc8
I0322 16:48:56.201609  8698 net.cpp:106] Creating Layer fc8
I0322 16:48:56.201612  8698 net.cpp:454] fc8 <- drop7
I0322 16:48:56.201617  8698 net.cpp:411] fc8 -> fc8
I0322 16:48:56.264032  8698 net.cpp:150] Setting up fc8
I0322 16:48:56.264060  8698 net.cpp:157] Top shape: 256 1000 (256000)
I0322 16:48:56.264073  8698 net.cpp:165] Memory required for data: 515712000
I0322 16:48:56.264087  8698 layer_factory.hpp:76] Creating layer loss
I0322 16:48:56.264099  8698 net.cpp:106] Creating Layer loss
I0322 16:48:56.264102  8698 net.cpp:454] loss <- fc8
I0322 16:48:56.264106  8698 net.cpp:454] loss <- label
I0322 16:48:56.264114  8698 net.cpp:411] loss -> loss
I0322 16:48:56.264124  8698 layer_factory.hpp:76] Creating layer loss
…
I0322 16:48:56.265614  8698 net.cpp:322] The NetState phase (1) differed from the phase (0) specified by a rule in layer data
I0322 16:48:56.265938  8698 net.cpp:49] Initializing net from parameters: 
name: "CaffeNet"
state {
  phase: TEST
}
layer {
  name: "data"
  type: "Data"
  top: "data"
  top: "label"
  include {
    phase: TEST
  }
  transform_param {
    scale: 0.04
    mirror: false
    crop_size: 128
    mean_value: 104
    mean_value: 117
    mean_value: 123
    force_color: true
  }
  data_param {
    source: "/local/temporary/imagenet144pxlmdb/ilsvrc12_128_val_lmdb"
    batch_size: 50
    backend: LMDB
  }
}
layer {
  name: "gray_data"
  type: "Convolution"
  bottom: "data"
  top: "gray_data"
  param {
    lr_mult: 1
    decay_mult: 1
  }
  param {
    lr_mult: 2
    decay_mult: 0
  }
  convolution_param {
    num_output: 1
    kernel_size: 1
    stride: 1
    weight_filler {
      type: "gaussian"
      std: 0.01
    }
    bias_filler {
      type: "constant"
    }
  }
}
layer {
  name: "conv1"
  type: "Convolution"
  bottom: "gray_data"
  top: "conv1"
  param {
    lr_mult: 1
    decay_mult: 1
  }
  param {
    lr_mult: 2
    decay_mult: 0
  }
  convolution_param {
    num_output: 96
    kernel_size: 11
    stride: 4
    weight_filler {
      type: "gaussian"
      std: 0.01
    }
    bias_filler {
      type: "constant"
    }
  }
}
layer {
  name: "relu1"
  type: "ReLU"
  bottom: "conv1"
  top: "relu1"
}
layer {
  name: "pool1"
  type: "Pooling"
  bottom: "relu1"
  top: "pool1"
  pooling_param {
    pool: MAX
    kernel_size: 3
    stride: 2
  }
}
layer {
  name: "conv2"
  type: "Convolution"
  bottom: "pool1"
  top: "conv2"
  param {
    lr_mult: 1
    decay_mult: 1
  }
  param {
    lr_mult: 2
    decay_mult: 0
  }
  convolution_param {
    num_output: 256
    pad: 2
    kernel_size: 5
    group: 2
    weight_filler {
      type: "gaussian"
      std: 0.01
    }
    bias_filler {
      type: "constant"
    }
  }
}
layer {
  name: "relu2"
  type: "ReLU"
  bottom: "conv2"
  top: "relu2"
}
layer {
  name: "pool2"
  type: "Pooling"
  bottom: "relu2"
  top: "pool2"
  pooling_param {
    pool: MAX
    kernel_size: 3
    stride: 2
  }
}
layer {
  name: "conv3"
  type: "Convolution"
  bottom: "pool2"
  top: "conv3"
  param {
    lr_mult: 1
    decay_mult: 1
  }
  param {
    lr_mult: 2
    decay_mult: 0
  }
  convolution_param {
    num_output: 384
    pad: 1
    kernel_size: 3
    weight_filler {
      type: "gaussian"
      std: 0.01
    }
    bias_filler {
      type: "constant"
    }
  }
}
layer {
  name: "relu3"
  type: "ReLU"
  bottom: "conv3"
  top: "relu3"
}
layer {
  name: "conv4"
  type: "Convolution"
  bottom: "relu3"
  top: "conv4"
  param {
    lr_mult: 1
    decay_mult: 1
  }
  param {
    lr_mult: 2
    decay_mult: 0
  }
  convolution_param {
    num_output: 384
    pad: 1
    kernel_size: 3
    group: 2
    weight_filler {
      type: "gaussian"
      std: 0.01
    }
    bias_filler {
      type: "constant"
    }
  }
}
layer {
  name: "relu4"
  type: "ReLU"
  bottom: "conv4"
  top: "relu4"
}
layer {
  name: "conv5"
  type: "Convolution"
  bottom: "relu4"
  top: "conv5"
  param {
    lr_mult: 1
    decay_mult: 1
  }
  param {
    lr_mult: 2
    decay_mult: 0
  }
  convolution_param {
    num_output: 256
    pad: 1
    kernel_size: 3
    group: 2
    weight_filler {
      type: "gaussian"
      std: 0.01
    }
    bias_filler {
      type: "constant"
    }
  }
}
layer {
  name: "relu5"
  type: "ReLU"
  bottom: "conv5"
  top: "relu5"
}
layer {
  name: "pool5"
  type: "Pooling"
  bottom: "relu5"
  top: "pool5"
  pooling_param {
    pool: MAX
    kernel_size: 3
    stride: 2
  }
}
layer {
  name: "fc6"
  type: "InnerProduct"
  bottom: "pool5"
  top: "fc6"
  param {
    lr_mult: 1
    decay_mult: 1
  }
  param {
    lr_mult: 2
    decay_mult: 0
  }
  inner_product_param {
    num_output: 2048
    weight_filler {
      type: "gaussian"
      std: 0.005
    }
    bias_filler {
      type: "constant"
    }
  }
}
layer {
  name: "relu6"
  type: "ReLU"
  bottom: "fc6"
  top: "relu6"
}
layer {
  name: "drop6"
  type: "Dropout"
  bottom: "relu6"
  top: "drop6"
  dropout_param {
    dropout_ratio: 0.5
  }
}
layer {
  name: "fc7"
  type: "InnerProduct"
  bottom: "drop6"
  top: "fc7"
  param {
    lr_mult: 1
    decay_mult: 1
  }
  param {
    lr_mult: 2
    decay_mult: 0
  }
  inner_product_param {
    num_output: 2048
    weight_filler {
      type: "gaussian"
      std: 0.005
    }
    bias_filler {
      type: "constant"
    }
  }
}
layer {
  name: "relu7"
  type: "ReLU"
  bottom: "fc7"
  top: "relu7"
}
layer {
  name: "drop7"
  type: "Dropout"
  bottom: "relu7"
  top: "drop7"
  dropout_param {
    dropout_ratio: 0.5
  }
}
layer {
  name: "fc8"
  type: "InnerProduct"
  bottom: "drop7"
  top: "fc8"
  param {
    lr_mult: 1
    decay_mult: 1
  }
  param {
    lr_mult: 2
    decay_mult: 0
  }
  inner_product_param {
    num_output: 1000
    weight_filler {
      type: "gaussian"
      std: 0.01
    }
    bias_filler {
      type: "constant"
    }
  }
}
layer {
  name: "accuracy"
  type: "Accuracy"
  bottom: "fc8"
  bottom: "label"
  top: "accuracy"
  include {
    phase: TEST
  }
}
layer {
  name: "loss"
  type: "SoftmaxWithLoss"
  bottom: "fc8"
  bottom: "label"
  top: "loss"
}
I0322 16:48:56.266072  8698 layer_factory.hpp:76] Creating layer data
I0322 16:48:56.266180  8698 net.cpp:106] Creating Layer data
I0322 16:48:56.266188  8698 net.cpp:411] data -> data
I0322 16:48:56.266196  8698 net.cpp:411] data -> label
I0322 16:48:56.267202  8736 db_lmdb.cpp:38] Opened lmdb /local/temporary/imagenet144pxlmdb/ilsvrc12_128_val_lmdb
I0322 16:48:56.268069  8698 data_layer.cpp:41] output data size: 50,3,128,128
I0322 16:48:56.287632  8698 net.cpp:150] Setting up data
I0322 16:48:56.287672  8698 net.cpp:157] Top shape: 50 3 128 128 (2457600)
I0322 16:48:56.287678  8698 net.cpp:157] Top shape: 50 (50)
I0322 16:48:56.287679  8698 net.cpp:165] Memory required for data: 9830600
I0322 16:48:56.287685  8698 layer_factory.hpp:76] Creating layer label_data_1_split
I0322 16:48:56.287708  8698 net.cpp:106] Creating Layer label_data_1_split
I0322 16:48:56.287711  8698 net.cpp:454] label_data_1_split <- label
I0322 16:48:56.287719  8698 net.cpp:411] label_data_1_split -> label_data_1_split_0
I0322 16:48:56.287729  8698 net.cpp:411] label_data_1_split -> label_data_1_split_1
I0322 16:48:56.287825  8698 net.cpp:150] Setting up label_data_1_split
I0322 16:48:56.287832  8698 net.cpp:157] Top shape: 50 (50)
I0322 16:48:56.287835  8698 net.cpp:157] Top shape: 50 (50)
I0322 16:48:56.287837  8698 net.cpp:165] Memory required for data: 9831000
I0322 16:48:56.287840  8698 layer_factory.hpp:76] Creating layer gray_data
I0322 16:48:56.287852  8698 net.cpp:106] Creating Layer gray_data
I0322 16:48:56.287855  8698 net.cpp:454] gray_data <- data
I0322 16:48:56.287861  8698 net.cpp:411] gray_data -> gray_data
I0322 16:48:56.289288  8698 net.cpp:150] Setting up gray_data
I0322 16:48:56.289312  8698 net.cpp:157] Top shape: 50 1 128 128 (819200)
I0322 16:48:56.289315  8698 net.cpp:165] Memory required for data: 13107800
I0322 16:48:56.289324  8698 layer_factory.hpp:76] Creating layer conv1
I0322 16:48:56.289337  8698 net.cpp:106] Creating Layer conv1
I0322 16:48:56.289340  8698 net.cpp:454] conv1 <- gray_data
I0322 16:48:56.289345  8698 net.cpp:411] conv1 -> conv1
I0322 16:48:56.290726  8698 net.cpp:150] Setting up conv1
I0322 16:48:56.290737  8698 net.cpp:157] Top shape: 50 96 30 30 (4320000)
I0322 16:48:56.290751  8698 net.cpp:165] Memory required for data: 30387800
I0322 16:48:56.290760  8698 layer_factory.hpp:76] Creating layer relu1
I0322 16:48:56.290766  8698 net.cpp:106] Creating Layer relu1
I0322 16:48:56.290769  8698 net.cpp:454] relu1 <- conv1
I0322 16:48:56.290773  8698 net.cpp:411] relu1 -> relu1
I0322 16:48:56.290952  8698 net.cpp:150] Setting up relu1
I0322 16:48:56.290961  8698 net.cpp:157] Top shape: 50 96 30 30 (4320000)
I0322 16:48:56.290987  8698 net.cpp:165] Memory required for data: 47667800
I0322 16:48:56.290992  8698 layer_factory.hpp:76] Creating layer pool1
I0322 16:48:56.290997  8698 net.cpp:106] Creating Layer pool1
I0322 16:48:56.291002  8698 net.cpp:454] pool1 <- relu1
I0322 16:48:56.291020  8698 net.cpp:411] pool1 -> pool1
I0322 16:48:56.291385  8698 net.cpp:150] Setting up pool1
I0322 16:48:56.291395  8698 net.cpp:157] Top shape: 50 96 15 15 (1080000)
I0322 16:48:56.291409  8698 net.cpp:165] Memory required for data: 51987800
I0322 16:48:56.291412  8698 layer_factory.hpp:76] Creating layer conv2
I0322 16:48:56.291420  8698 net.cpp:106] Creating Layer conv2
I0322 16:48:56.291424  8698 net.cpp:454] conv2 <- pool1
I0322 16:48:56.291429  8698 net.cpp:411] conv2 -> conv2
I0322 16:48:56.301517  8698 net.cpp:150] Setting up conv2
I0322 16:48:56.301530  8698 net.cpp:157] Top shape: 50 256 15 15 (2880000)
I0322 16:48:56.301533  8698 net.cpp:165] Memory required for data: 63507800
I0322 16:48:56.301542  8698 layer_factory.hpp:76] Creating layer relu2
I0322 16:48:56.301547  8698 net.cpp:106] Creating Layer relu2
I0322 16:48:56.301549  8698 net.cpp:454] relu2 <- conv2
I0322 16:48:56.301555  8698 net.cpp:411] relu2 -> relu2
I0322 16:48:56.301735  8698 net.cpp:150] Setting up relu2
I0322 16:48:56.301744  8698 net.cpp:157] Top shape: 50 256 15 15 (2880000)
I0322 16:48:56.301748  8698 net.cpp:165] Memory required for data: 75027800
I0322 16:48:56.301750  8698 layer_factory.hpp:76] Creating layer pool2
I0322 16:48:56.301756  8698 net.cpp:106] Creating Layer pool2
I0322 16:48:56.301761  8698 net.cpp:454] pool2 <- relu2
I0322 16:48:56.301779  8698 net.cpp:411] pool2 -> pool2
I0322 16:48:56.302240  8698 net.cpp:150] Setting up pool2
I0322 16:48:56.302250  8698 net.cpp:157] Top shape: 50 256 7 7 (627200)
I0322 16:48:56.302264  8698 net.cpp:165] Memory required for data: 77536600
I0322 16:48:56.302268  8698 layer_factory.hpp:76] Creating layer conv3
I0322 16:48:56.302276  8698 net.cpp:106] Creating Layer conv3
I0322 16:48:56.302279  8698 net.cpp:454] conv3 <- pool2
I0322 16:48:56.302285  8698 net.cpp:411] conv3 -> conv3
I0322 16:48:56.326766  8698 net.cpp:150] Setting up conv3
I0322 16:48:56.326778  8698 net.cpp:157] Top shape: 50 384 7 7 (940800)
I0322 16:48:56.326793  8698 net.cpp:165] Memory required for data: 81299800
I0322 16:48:56.326799  8698 layer_factory.hpp:76] Creating layer relu3
I0322 16:48:56.326815  8698 net.cpp:106] Creating Layer relu3
I0322 16:48:56.326819  8698 net.cpp:454] relu3 <- conv3
I0322 16:48:56.326823  8698 net.cpp:411] relu3 -> relu3
I0322 16:48:56.327134  8698 net.cpp:150] Setting up relu3
I0322 16:48:56.327144  8698 net.cpp:157] Top shape: 50 384 7 7 (940800)
I0322 16:48:56.327147  8698 net.cpp:165] Memory required for data: 85063000
I0322 16:48:56.327150  8698 layer_factory.hpp:76] Creating layer conv4
I0322 16:48:56.327160  8698 net.cpp:106] Creating Layer conv4
I0322 16:48:56.327164  8698 net.cpp:454] conv4 <- relu3
I0322 16:48:56.327181  8698 net.cpp:411] conv4 -> conv4
I0322 16:48:56.346416  8698 net.cpp:150] Setting up conv4
I0322 16:48:56.346427  8698 net.cpp:157] Top shape: 50 384 7 7 (940800)
I0322 16:48:56.346442  8698 net.cpp:165] Memory required for data: 88826200
I0322 16:48:56.346452  8698 layer_factory.hpp:76] Creating layer relu4
I0322 16:48:56.346458  8698 net.cpp:106] Creating Layer relu4
I0322 16:48:56.346462  8698 net.cpp:454] relu4 <- conv4
I0322 16:48:56.346482  8698 net.cpp:411] relu4 -> relu4
I0322 16:48:56.346668  8698 net.cpp:150] Setting up relu4
I0322 16:48:56.346676  8698 net.cpp:157] Top shape: 50 384 7 7 (940800)
I0322 16:48:56.346681  8698 net.cpp:165] Memory required for data: 92589400
I0322 16:48:56.346684  8698 layer_factory.hpp:76] Creating layer conv5
I0322 16:48:56.346710  8698 net.cpp:106] Creating Layer conv5
I0322 16:48:56.346716  8698 net.cpp:454] conv5 <- relu4
I0322 16:48:56.346724  8698 net.cpp:411] conv5 -> conv5
I0322 16:48:56.360281  8698 net.cpp:150] Setting up conv5
I0322 16:48:56.360292  8698 net.cpp:157] Top shape: 50 256 7 7 (627200)
I0322 16:48:56.360306  8698 net.cpp:165] Memory required for data: 95098200
I0322 16:48:56.360347  8698 layer_factory.hpp:76] Creating layer relu5
I0322 16:48:56.360368  8698 net.cpp:106] Creating Layer relu5
I0322 16:48:56.360373  8698 net.cpp:454] relu5 <- conv5
I0322 16:48:56.360378  8698 net.cpp:411] relu5 -> relu5
I0322 16:48:56.360568  8698 net.cpp:150] Setting up relu5
I0322 16:48:56.360576  8698 net.cpp:157] Top shape: 50 256 7 7 (627200)
I0322 16:48:56.360579  8698 net.cpp:165] Memory required for data: 97607000
I0322 16:48:56.360582  8698 layer_factory.hpp:76] Creating layer pool5
I0322 16:48:56.360589  8698 net.cpp:106] Creating Layer pool5
I0322 16:48:56.360592  8698 net.cpp:454] pool5 <- relu5
I0322 16:48:56.360599  8698 net.cpp:411] pool5 -> pool5
I0322 16:48:56.360971  8698 net.cpp:150] Setting up pool5
I0322 16:48:56.360981  8698 net.cpp:157] Top shape: 50 256 3 3 (115200)
I0322 16:48:56.360996  8698 net.cpp:165] Memory required for data: 98067800
I0322 16:48:56.360998  8698 layer_factory.hpp:76] Creating layer fc6
I0322 16:48:56.361013  8698 net.cpp:106] Creating Layer fc6
I0322 16:48:56.361016  8698 net.cpp:454] fc6 <- pool5
I0322 16:48:56.361023  8698 net.cpp:411] fc6 -> fc6
I0322 16:48:56.485786  8698 net.cpp:150] Setting up fc6
I0322 16:48:56.485821  8698 net.cpp:157] Top shape: 50 2048 (102400)
I0322 16:48:56.485824  8698 net.cpp:165] Memory required for data: 98477400
I0322 16:48:56.485833  8698 layer_factory.hpp:76] Creating layer relu6
I0322 16:48:56.485842  8698 net.cpp:106] Creating Layer relu6
I0322 16:48:56.485846  8698 net.cpp:454] relu6 <- fc6
I0322 16:48:56.485852  8698 net.cpp:411] relu6 -> relu6
I0322 16:48:56.486129  8698 net.cpp:150] Setting up relu6
I0322 16:48:56.486137  8698 net.cpp:157] Top shape: 50 2048 (102400)
I0322 16:48:56.486140  8698 net.cpp:165] Memory required for data: 98887000
I0322 16:48:56.486143  8698 layer_factory.hpp:76] Creating layer drop6
I0322 16:48:56.486151  8698 net.cpp:106] Creating Layer drop6
I0322 16:48:56.486156  8698 net.cpp:454] drop6 <- relu6
I0322 16:48:56.486172  8698 net.cpp:411] drop6 -> drop6
I0322 16:48:56.486213  8698 net.cpp:150] Setting up drop6
I0322 16:48:56.486219  8698 net.cpp:157] Top shape: 50 2048 (102400)
I0322 16:48:56.486222  8698 net.cpp:165] Memory required for data: 99296600
I0322 16:48:56.486225  8698 layer_factory.hpp:76] Creating layer fc7
I0322 16:48:56.486233  8698 net.cpp:106] Creating Layer fc7
I0322 16:48:56.486238  8698 net.cpp:454] fc7 <- drop6
I0322 16:48:56.486243  8698 net.cpp:411] fc7 -> fc7
I0322 16:48:56.596282  8698 net.cpp:150] Setting up fc7
I0322 16:48:56.596318  8698 net.cpp:157] Top shape: 50 2048 (102400)
I0322 16:48:56.596320  8698 net.cpp:165] Memory required for data: 99706200
I0322 16:48:56.596328  8698 layer_factory.hpp:76] Creating layer relu7
I0322 16:48:56.596338  8698 net.cpp:106] Creating Layer relu7
I0322 16:48:56.596343  8698 net.cpp:454] relu7 <- fc7
I0322 16:48:56.596349  8698 net.cpp:411] relu7 -> relu7
I0322 16:48:56.596827  8698 net.cpp:150] Setting up relu7
I0322 16:48:56.596837  8698 net.cpp:157] Top shape: 50 2048 (102400)
I0322 16:48:56.596851  8698 net.cpp:165] Memory required for data: 100115800
I0322 16:48:56.596854  8698 layer_factory.hpp:76] Creating layer drop7
I0322 16:48:56.596863  8698 net.cpp:106] Creating Layer drop7
I0322 16:48:56.596866  8698 net.cpp:454] drop7 <- relu7
I0322 16:48:56.596871  8698 net.cpp:411] drop7 -> drop7
I0322 16:48:56.596912  8698 net.cpp:150] Setting up drop7
I0322 16:48:56.596925  8698 net.cpp:157] Top shape: 50 2048 (102400)
I0322 16:48:56.596928  8698 net.cpp:165] Memory required for data: 100525400
I0322 16:48:56.596930  8698 layer_factory.hpp:76] Creating layer fc8
I0322 16:48:56.596937  8698 net.cpp:106] Creating Layer fc8
I0322 16:48:56.596940  8698 net.cpp:454] fc8 <- drop7
I0322 16:48:56.596947  8698 net.cpp:411] fc8 -> fc8
I0322 16:48:56.649507  8698 net.cpp:150] Setting up fc8
I0322 16:48:56.649533  8698 net.cpp:157] Top shape: 50 1000 (50000)
I0322 16:48:56.649534  8698 net.cpp:165] Memory required for data: 100725400
I0322 16:48:56.649547  8698 layer_factory.hpp:76] Creating layer fc8_fc8_0_split
I0322 16:48:56.649590  8698 net.cpp:106] Creating Layer fc8_fc8_0_split
I0322 16:48:56.649600  8698 net.cpp:454] fc8_fc8_0_split <- fc8
I0322 16:48:56.649605  8698 net.cpp:411] fc8_fc8_0_split -> fc8_fc8_0_split_0
I0322 16:48:56.649612  8698 net.cpp:411] fc8_fc8_0_split -> fc8_fc8_0_split_1
I0322 16:48:56.649668  8698 net.cpp:150] Setting up fc8_fc8_0_split
I0322 16:48:56.649675  8698 net.cpp:157] Top shape: 50 1000 (50000)
I0322 16:48:56.649678  8698 net.cpp:157] Top shape: 50 1000 (50000)
I0322 16:48:56.649682  8698 net.cpp:165] Memory required for data: 101125400
I0322 16:48:56.649684  8698 layer_factory.hpp:76] Creating layer accuracy
I0322 16:48:56.649690  8698 net.cpp:106] Creating Layer accuracy
I0322 16:48:56.649694  8698 net.cpp:454] accuracy <- fc8_fc8_0_split_0
I0322 16:48:56.649698  8698 net.cpp:454] accuracy <- label_data_1_split_0
I0322 16:48:56.649704  8698 net.cpp:411] accuracy -> accuracy
…
