…
      phase: TEST
    }
    transform_param {
      mirror: false
      crop_size: 128
      force_color: true
      resize_param {
        prob: 1
        resize_mode: FIT_SMALL_SIZE
        height: 144
        width: 144
        pad_mode: MIRRORED
        interp_mode: LINEAR
        center_object: false
        max_angle: 0
      }
      noise_param {
        prob: 1
        convert_to_lab: true
      }
    }
    data_param {
      source: "/home/share/storage/datasets/imagenet/lmdb/ilsvrc12_val_lmdb"
      batch_size: 50
      backend: LMDB
    }
  }
  layer {
    name: "data_lab_BN"
    type: "BatchNorm"
    bottom: "data"
    top: "data_lab_BN"
    param {
      lr_mult: 0
      decay_mult: 0
    }
    param {
      lr_mult: 0
      decay_mult: 0
    }
    param {
      lr_mult: 0
      decay_mult: 0
    }
    include {
      phase: TRAIN
    }
    batch_norm_param {
      use_global_stats: false
      moving_average_fraction: 0.95
    }
  }
  layer {
    name: "data_lab_BN"
    type: "BatchNorm"
    bottom: "data"
    top: "data_lab_BN"
    param {
      lr_mult: 0
      decay_mult: 0
    }
    param {
      lr_mult: 0
      decay_mult: 0
    }
    param {
      lr_mult: 0
      decay_mult: 0
    }
    include {
      phase: TEST
    }
    batch_norm_param {
      use_global_stats: true
      moving_average_fraction: 0.95
    }
  }
  layer {
    name: "conv1"
    type: "Convolution"
    bottom: "data_lab_BN"
    top: "conv1"
    param {
      lr_mult: 1
      decay_mult: 1
    }
    param {
      lr_mult: 2
      decay_mult: 0
    }
    convolution_param {
      num_output: 96
      kernel_size: 11
      stride: 4
      weight_filler {
        type: "gaussian"
        std: 0.01
      }
      bias_filler {
        type: "constant"
      }
    }
  }
  layer {
    name: "relu1"
    type: "ReLU"
    bottom: "conv1"
    top: "relu1"
  }
  layer {
    name: "pool1"
    type: "Pooling"
    bottom: "relu1"
    top: "pool1"
    pooling_param {
      pool: MAX
      kernel_size: 3
      stride: 2
    }
  }
  layer {
    name: "conv2"
    type: "Convolution"
    bottom: "pool1"
    top: "conv2"
    param {
      lr_mult: 1
      decay_mult: 1
    }
    param {
      lr_mult: 2
      decay_mult: 0
    }
    convolution_param {
      num_output: 256
      pad: 2
      kernel_size: 5
      group: 2
      weight_filler {
        type: "gaussian"
        std: 0.01
      }
      bias_filler {
        type: "constant"
      }
    }
  }
  layer {
    name: "relu2"
    type: "ReLU"
    bottom: "conv2"
    top: "relu2"
  }
  layer {
    name: "pool2"
    type: "Pooling"
    bottom: "relu2"
    top: "pool2"
    pooling_param {
      pool: MAX
      kernel_size: 3
      stride: 2
    }
  }
  layer {
    name: "conv3"
    type: "Convolution"
    bottom: "pool2"
    top: "conv3"
    param {
      lr_mult: 1
      decay_mult: 1
    }
    param {
      lr_mult: 2
      decay_mult: 0
    }
    convolution_param {
      num_output: 384
      pad: 1
      kernel_size: 3
      weight_filler {
        type: "gaussian"
        std: 0.01
      }
      bias_filler {
        type: "constant"
      }
    }
  }
  layer {
    name: "relu3"
    type: "ReLU"
    bottom: "conv3"
    top: "relu3"
  }
  layer {
    name: "conv4"
    type: "Convolution"
    bottom: "relu3"
    top: "conv4"
    param {
      lr_mult: 1
      decay_mult: 1
    }
    param {
      lr_mult: 2
      decay_mult: 0
    }
    convolution_param {
      num_output: 384
      pad: 1
      kernel_size: 3
      group: 2
      weight_filler {
        type: "gaussian"
        std: 0.01
      }
      bias_filler {
        type: "constant"
      }
    }
  }
  layer {
    name: "relu4"
    type: "ReLU"
    bottom: "conv4"
    top: "relu4"
  }
  layer {
    name: "conv5"
    type: "Convolution"
    bottom: "relu4"
    top: "conv5"
    param {
      lr_mult: 1
      decay_mult: 1
    }
    param {
      lr_mult: 2
      decay_mult: 0
    }
    convolution_param {
      num_output: 256
      pad: 1
      kernel_size: 3
      group: 2
      weight_filler {
        type: "gaussian"
        std: 0.01
      }
      bias_filler {
        type: "constant"
      }
    }
  }
  layer {
    name: "relu5"
    type: "ReLU"
    bottom: "conv5"
    top: "relu5"
  }
  layer {
    name: "pool5"
    type: "Pooling"
    bottom: "relu5"
    top: "pool5"
    pooling_param {
      pool: MAX
      kernel_size: 3
      stride: 2
    }
  }
  layer {
    name: "fc6"
    type: "InnerProduct"
    bottom: "pool5"
    top: "fc6"
    param {
      lr_mult: 1
      decay_mult: 1
    }
    param {
      lr_mult: 2
      decay_mult: 0
    }
    inner_product_param {
      num_output: 2048
      weight_filler {
        type: "gaussian"
        std: 0.005
      }
      bias_filler {
        type: "constant"
      }
    }
  }
  layer {
    name: "relu6"
    type: "ReLU"
    bottom: "fc6"
    top: "relu6"
  }
  layer {
    name: "drop6"
    type: "Dropout"
    bottom: "relu6"
    top: "drop6"
    dropout_param {
      dropout_ratio: 0.5
    }
  }
  layer {
    name: "fc7"
    type: "InnerProduct"
    bottom: "drop6"
    top: "fc7"
    param {
      lr_mult: 1
      decay_mult: 1
    }
    param {
      lr_mult: 2
      decay_mult: 0
    }
    inner_product_param {
      num_output: 2048
      weight_filler {
        type: "gaussian"
        std: 0.005
      }
      bias_filler {
        type: "constant"
      }
    }
  }
  layer {
    name: "relu7"
    type: "ReLU"
    bottom: "fc7"
    top: "relu7"
  }
  layer {
    name: "drop7"
    type: "Dropout"
    bottom: "relu7"
    top: "drop7"
    dropout_param {
      dropout_ratio: 0.5
    }
  }
  layer {
    name: "fc8"
    type: "InnerProduct"
    bottom: "drop7"
    top: "fc8"
    param {
      lr_mult: 1
      decay_mult: 1
    }
    param {
      lr_mult: 2
      decay_mult: 0
    }
    inner_product_param {
      num_output: 1000
      weight_filler {
        type: "gaussian"
        std: 0.01
      }
      bias_filler {
        type: "constant"
      }
    }
  }
  layer {
    name: "accuracy"
    type: "Accuracy"
    bottom: "fc8"
    bottom: "label"
    top: "accuracy"
    include {
      phase: TEST
    }
  }
  layer {
    name: "loss"
    type: "SoftmaxWithLoss"
    bottom: "fc8"
    bottom: "label"
    top: "loss"
  }
}
iter_size: 1
type: "SGD"
I0120 20:02:17.889325 17443 solver.cpp:86] Creating training net specified in net_param.
I0120 20:02:17.889427 17443 net.cpp:322] The NetState phase (0) differed from the phase (1) specified by a rule in layer data
I0120 20:02:17.889436 17443 net.cpp:322] The NetState phase (0) differed from the phase (1) specified by a rule in layer data_lab_BN
I0120 20:02:17.889456 17443 net.cpp:322] The NetState phase (0) differed from the phase (1) specified by a rule in layer accuracy
I0120 20:02:17.889610 17443 net.cpp:49] Initializing net from parameters: 
name: "CaffeNet"
state {
  phase: TRAIN
}
layer {
  name: "data"
  type: "Data"
  top: "data"
  top: "label"
  include {
    phase: TRAIN
  }
  transform_param {
    mirror: true
    crop_size: 128
    force_color: true
    resize_param {
      prob: 1
      resize_mode: FIT_SMALL_SIZE
      height: 144
      width: 144
      pad_mode: MIRRORED
      interp_mode: LINEAR
      center_object: false
      max_angle: 0
    }
    noise_param {
      prob: 1
      convert_to_lab: true
    }
  }
  data_param {
    source: "/home/share/storage/datasets/imagenet/lmdb/ilsvrc12_train_lmdb"
    batch_size: 256
    backend: LMDB
  }
}
layer {
  name: "data_lab_BN"
  type: "BatchNorm"
  bottom: "data"
  top: "data_lab_BN"
  param {
    lr_mult: 0
    decay_mult: 0
  }
  param {
    lr_mult: 0
    decay_mult: 0
  }
  param {
    lr_mult: 0
    decay_mult: 0
  }
  include {
    phase: TRAIN
  }
  batch_norm_param {
    use_global_stats: false
    moving_average_fraction: 0.95
  }
}
layer {
  name: "conv1"
  type: "Convolution"
  bottom: "data_lab_BN"
  top: "conv1"
  param {
    lr_mult: 1
    decay_mult: 1
  }
  param {
    lr_mult: 2
    decay_mult: 0
  }
  convolution_param {
    num_output: 96
    kernel_size: 11
    stride: 4
    weight_filler {
      type: "gaussian"
      std: 0.01
    }
    bias_filler {
      type: "constant"
    }
  }
}
layer {
  name: "relu1"
  type: "ReLU"
  bottom: "conv1"
  top: "relu1"
}
layer {
  name: "pool1"
  type: "Pooling"
  bottom: "relu1"
  top: "pool1"
  pooling_param {
    pool: MAX
    kernel_size: 3
    stride: 2
  }
}
layer {
  name: "conv2"
  type: "Convolution"
  bottom: "pool1"
  top: "conv2"
  param {
    lr_mult: 1
    decay_mult: 1
  }
  param {
    lr_mult: 2
    decay_mult: 0
  }
  convolution_param {
    num_output: 256
    pad: 2
    kernel_size: 5
    group: 2
    weight_filler {
      type: "gaussian"
      std: 0.01
    }
    bias_filler {
      type: "constant"
    }
  }
}
layer {
  name: "relu2"
  type: "ReLU"
  bottom: "conv2"
  top: "relu2"
}
layer {
  name: "pool2"
  type: "Pooling"
  bottom: "relu2"
  top: "pool2"
  pooling_param {
    pool: MAX
    kernel_size: 3
    stride: 2
  }
}
layer {
  name: "conv3"
  type: "Convolution"
  bottom: "pool2"
  top: "conv3"
  param {
    lr_mult: 1
    decay_mult: 1
  }
  param {
    lr_mult: 2
    decay_mult: 0
  }
  convolution_param {
    num_output: 384
    pad: 1
    kernel_size: 3
    weight_filler {
      type: "gaussian"
      std: 0.01
    }
    bias_filler {
      type: "constant"
    }
  }
}
layer {
  name: "relu3"
  type: "ReLU"
  bottom: "conv3"
  top: "relu3"
}
layer {
  name: "conv4"
  type: "Convolution"
  bottom: "relu3"
  top: "conv4"
  param {
    lr_mult: 1
    decay_mult: 1
  }
  param {
    lr_mult: 2
    decay_mult: 0
  }
  convolution_param {
    num_output: 384
    pad: 1
    kernel_size: 3
    group: 2
    weight_filler {
      type: "gaussian"
      std: 0.01
    }
    bias_filler {
      type: "constant"
    }
  }
}
layer {
  name: "relu4"
  type: "ReLU"
  bottom: "conv4"
  top: "relu4"
}
layer {
  name: "conv5"
  type: "Convolution"
  bottom: "relu4"
  top: "conv5"
  param {
    lr_mult: 1
    decay_mult: 1
  }
  param {
    lr_mult: 2
    decay_mult: 0
  }
  convolution_param {
    num_output: 256
    pad: 1
    kernel_size: 3
    group: 2
    weight_filler {
      type: "gaussian"
      std: 0.01
    }
    bias_filler {
      type: "constant"
    }
  }
}
layer {
  name: "relu5"
  type: "ReLU"
  bottom: "conv5"
  top: "relu5"
}
layer {
  name: "pool5"
  type: "Pooling"
  bottom: "relu5"
  top: "pool5"
  pooling_param {
    pool: MAX
    kernel_size: 3
    stride: 2
  }
}
layer {
  name: "fc6"
  type: "InnerProduct"
  bottom: "pool5"
  top: "fc6"
  param {
    lr_mult: 1
    decay_mult: 1
  }
  param {
    lr_mult: 2
    decay_mult: 0
  }
  inner_product_param {
    num_output: 2048
    weight_filler {
      type: "gaussian"
      std: 0.005
    }
    bias_filler {
      type: "constant"
    }
  }
}
layer {
  name: "relu6"
  type: "ReLU"
  bottom: "fc6"
  top: "relu6"
}
layer {
  name: "drop6"
  type: "Dropout"
  bottom: "relu6"
  top: "drop6"
  dropout_param {
    dropout_ratio: 0.5
  }
}
layer {
  name: "fc7"
  type: "InnerProduct"
  bottom: "drop6"
  top: "fc7"
  param {
    lr_mult: 1
    decay_mult: 1
  }
  param {
    lr_mult: 2
    decay_mult: 0
  }
  inner_product_param {
    num_output: 2048
    weight_filler {
      type: "gaussian"
      std: 0.005
    }
    bias_filler {
      type: "constant"
    }
  }
}
layer {
  name: "relu7"
  type: "ReLU"
  bottom: "fc7"
  top: "relu7"
}
layer {
  name: "drop7"
  type: "Dropout"
  bottom: "relu7"
  top: "drop7"
  dropout_param {
    dropout_ratio: 0.5
  }
}
layer {
  name: "fc8"
  type: "InnerProduct"
  bottom: "drop7"
  top: "fc8"
  param {
    lr_mult: 1
    decay_mult: 1
  }
  param {
    lr_mult: 2
    decay_mult: 0
  }
  inner_product_param {
    num_output: 1000
    weight_filler {
      type: "gaussian"
      std: 0.01
    }
    bias_filler {
      type: "constant"
    }
  }
}
layer {
  name: "loss"
  type: "SoftmaxWithLoss"
  bottom: "fc8"
  bottom: "label"
  top: "loss"
}
I0120 20:02:17.889721 17443 layer_factory.hpp:76] Creating layer data
I0120 20:02:17.890377 17443 net.cpp:106] Creating Layer data
I0120 20:02:17.890413 17443 net.cpp:411] data -> data
I0120 20:02:17.890439 17443 net.cpp:411] data -> label
I0120 20:02:17.891145 17447 db_lmdb.cpp:38] Opened lmdb /home/share/storage/datasets/imagenet/lmdb/ilsvrc12_train_lmdb
I0120 20:02:17.901692 17443 data_layer.cpp:41] output data size: 256,3,128,128
I0120 20:02:17.979883 17443 net.cpp:150] Setting up data
I0120 20:02:17.979923 17443 net.cpp:157] Top shape: 256 3 128 128 (12582912)
I0120 20:02:17.979928 17443 net.cpp:157] Top shape: 256 (256)
I0120 20:02:17.979929 17443 net.cpp:165] Memory required for data: 50332672
I0120 20:02:17.979938 17443 layer_factory.hpp:76] Creating layer data_lab_BN
I0120 20:02:17.979953 17443 net.cpp:106] Creating Layer data_lab_BN
I0120 20:02:17.979959 17443 net.cpp:454] data_lab_BN <- data
I0120 20:02:17.979974 17443 net.cpp:411] data_lab_BN -> data_lab_BN
I0120 20:02:17.980550 17443 net.cpp:150] Setting up data_lab_BN
I0120 20:02:17.980569 17443 net.cpp:157] Top shape: 256 3 128 128 (12582912)
I0120 20:02:17.980571 17443 net.cpp:165] Memory required for data: 100664320
I0120 20:02:17.980592 17443 layer_factory.hpp:76] Creating layer conv1
I0120 20:02:17.980605 17443 net.cpp:106] Creating Layer conv1
I0120 20:02:17.980607 17443 net.cpp:454] conv1 <- data_lab_BN
I0120 20:02:17.980612 17443 net.cpp:411] conv1 -> conv1
I0120 20:02:18.115329 17443 net.cpp:150] Setting up conv1
I0120 20:02:18.115353 17443 net.cpp:157] Top shape: 256 96 30 30 (22118400)
I0120 20:02:18.115356 17443 net.cpp:165] Memory required for data: 189137920
I0120 20:02:18.115367 17443 layer_factory.hpp:76] Creating layer relu1
I0120 20:02:18.115377 17443 net.cpp:106] Creating Layer relu1
I0120 20:02:18.115381 17443 net.cpp:454] relu1 <- conv1
I0120 20:02:18.115386 17443 net.cpp:411] relu1 -> relu1
I0120 20:02:18.115527 17443 net.cpp:150] Setting up relu1
I0120 20:02:18.115535 17443 net.cpp:157] Top shape: 256 96 30 30 (22118400)
I0120 20:02:18.115537 17443 net.cpp:165] Memory required for data: 277611520
I0120 20:02:18.115540 17443 layer_factory.hpp:76] Creating layer pool1
I0120 20:02:18.115545 17443 net.cpp:106] Creating Layer pool1
I0120 20:02:18.115547 17443 net.cpp:454] pool1 <- relu1
I0120 20:02:18.115551 17443 net.cpp:411] pool1 -> pool1
I0120 20:02:18.115818 17443 net.cpp:150] Setting up pool1
I0120 20:02:18.115826 17443 net.cpp:157] Top shape: 256 96 15 15 (5529600)
I0120 20:02:18.115838 17443 net.cpp:165] Memory required for data: 299729920
I0120 20:02:18.115840 17443 layer_factory.hpp:76] Creating layer conv2
I0120 20:02:18.115847 17443 net.cpp:106] Creating Layer conv2
I0120 20:02:18.115849 17443 net.cpp:454] conv2 <- pool1
I0120 20:02:18.115854 17443 net.cpp:411] conv2 -> conv2
I0120 20:02:18.124231 17443 net.cpp:150] Setting up conv2
I0120 20:02:18.124245 17443 net.cpp:157] Top shape: 256 256 15 15 (14745600)
I0120 20:02:18.124269 17443 net.cpp:165] Memory required for data: 358712320
I0120 20:02:18.124275 17443 layer_factory.hpp:76] Creating layer relu2
I0120 20:02:18.124282 17443 net.cpp:106] Creating Layer relu2
I0120 20:02:18.124285 17443 net.cpp:454] relu2 <- conv2
I0120 20:02:18.124289 17443 net.cpp:411] relu2 -> relu2
I0120 20:02:18.124538 17443 net.cpp:150] Setting up relu2
I0120 20:02:18.124547 17443 net.cpp:157] Top shape: 256 256 15 15 (14745600)
I0120 20:02:18.124548 17443 net.cpp:165] Memory required for data: 417694720
I0120 20:02:18.124552 17443 layer_factory.hpp:76] Creating layer pool2
I0120 20:02:18.124557 17443 net.cpp:106] Creating Layer pool2
I0120 20:02:18.124559 17443 net.cpp:454] pool2 <- relu2
I0120 20:02:18.124563 17443 net.cpp:411] pool2 -> pool2
I0120 20:02:18.124830 17443 net.cpp:150] Setting up pool2
I0120 20:02:18.124837 17443 net.cpp:157] Top shape: 256 256 7 7 (3211264)
I0120 20:02:18.124850 17443 net.cpp:165] Memory required for data: 430539776
I0120 20:02:18.124851 17443 layer_factory.hpp:76] Creating layer conv3
I0120 20:02:18.124860 17443 net.cpp:106] Creating Layer conv3
I0120 20:02:18.124861 17443 net.cpp:454] conv3 <- pool2
I0120 20:02:18.124876 17443 net.cpp:411] conv3 -> conv3
I0120 20:02:18.146252 17443 net.cpp:150] Setting up conv3
I0120 20:02:18.146281 17443 net.cpp:157] Top shape: 256 384 7 7 (4816896)
I0120 20:02:18.146282 17443 net.cpp:165] Memory required for data: 449807360
I0120 20:02:18.146294 17443 layer_factory.hpp:76] Creating layer relu3
I0120 20:02:18.146311 17443 net.cpp:106] Creating Layer relu3
I0120 20:02:18.146313 17443 net.cpp:454] relu3 <- conv3
I0120 20:02:18.146319 17443 net.cpp:411] relu3 -> relu3
I0120 20:02:18.146558 17443 net.cpp:150] Setting up relu3
I0120 20:02:18.146565 17443 net.cpp:157] Top shape: 256 384 7 7 (4816896)
I0120 20:02:18.146567 17443 net.cpp:165] Memory required for data: 469074944
I0120 20:02:18.146569 17443 layer_factory.hpp:76] Creating layer conv4
I0120 20:02:18.146587 17443 net.cpp:106] Creating Layer conv4
I0120 20:02:18.146589 17443 net.cpp:454] conv4 <- relu3
I0120 20:02:18.146595 17443 net.cpp:411] conv4 -> conv4
I0120 20:02:18.163452 17443 net.cpp:150] Setting up conv4
I0120 20:02:18.163480 17443 net.cpp:157] Top shape: 256 384 7 7 (4816896)
I0120 20:02:18.163483 17443 net.cpp:165] Memory required for data: 488342528
I0120 20:02:18.163489 17443 layer_factory.hpp:76] Creating layer relu4
I0120 20:02:18.163496 17443 net.cpp:106] Creating Layer relu4
I0120 20:02:18.163499 17443 net.cpp:454] relu4 <- conv4
I0120 20:02:18.163516 17443 net.cpp:411] relu4 -> relu4
I0120 20:02:18.163777 17443 net.cpp:150] Setting up relu4
I0120 20:02:18.163784 17443 net.cpp:157] Top shape: 256 384 7 7 (4816896)
I0120 20:02:18.163796 17443 net.cpp:165] Memory required for data: 507610112
I0120 20:02:18.163799 17443 layer_factory.hpp:76] Creating layer conv5
I0120 20:02:18.163806 17443 net.cpp:106] Creating Layer conv5
I0120 20:02:18.163808 17443 net.cpp:454] conv5 <- relu4
I0120 20:02:18.163812 17443 net.cpp:411] conv5 -> conv5
I0120 20:02:18.175572 17443 net.cpp:150] Setting up conv5
I0120 20:02:18.175596 17443 net.cpp:157] Top shape: 256 256 7 7 (3211264)
I0120 20:02:18.175598 17443 net.cpp:165] Memory required for data: 520455168
I0120 20:02:18.175604 17443 layer_factory.hpp:76] Creating layer relu5
I0120 20:02:18.175609 17443 net.cpp:106] Creating Layer relu5
I0120 20:02:18.175613 17443 net.cpp:454] relu5 <- conv5
I0120 20:02:18.175627 17443 net.cpp:411] relu5 -> relu5
I0120 20:02:18.175796 17443 net.cpp:150] Setting up relu5
I0120 20:02:18.175802 17443 net.cpp:157] Top shape: 256 256 7 7 (3211264)
I0120 20:02:18.175814 17443 net.cpp:165] Memory required for data: 533300224
I0120 20:02:18.175817 17443 layer_factory.hpp:76] Creating layer pool5
I0120 20:02:18.175822 17443 net.cpp:106] Creating Layer pool5
I0120 20:02:18.175823 17443 net.cpp:454] pool5 <- relu5
I0120 20:02:18.175827 17443 net.cpp:411] pool5 -> pool5
I0120 20:02:18.176127 17443 net.cpp:150] Setting up pool5
I0120 20:02:18.176134 17443 net.cpp:157] Top shape: 256 256 3 3 (589824)
I0120 20:02:18.176172 17443 net.cpp:165] Memory required for data: 535659520
I0120 20:02:18.176174 17443 layer_factory.hpp:76] Creating layer fc6
I0120 20:02:18.176184 17443 net.cpp:106] Creating Layer fc6
I0120 20:02:18.176187 17443 net.cpp:454] fc6 <- pool5
I0120 20:02:18.176192 17443 net.cpp:411] fc6 -> fc6
I0120 20:02:18.287709 17443 net.cpp:150] Setting up fc6
I0120 20:02:18.287737 17443 net.cpp:157] Top shape: 256 2048 (524288)
I0120 20:02:18.287740 17443 net.cpp:165] Memory required for data: 537756672
I0120 20:02:18.287749 17443 layer_factory.hpp:76] Creating layer relu6
I0120 20:02:18.287757 17443 net.cpp:106] Creating Layer relu6
I0120 20:02:18.287771 17443 net.cpp:454] relu6 <- fc6
I0120 20:02:18.287776 17443 net.cpp:411] relu6 -> relu6
I0120 20:02:18.287992 17443 net.cpp:150] Setting up relu6
I0120 20:02:18.287997 17443 net.cpp:157] Top shape: 256 2048 (524288)
I0120 20:02:18.288009 17443 net.cpp:165] Memory required for data: 539853824
I0120 20:02:18.288012 17443 layer_factory.hpp:76] Creating layer drop6
I0120 20:02:18.288022 17443 net.cpp:106] Creating Layer drop6
I0120 20:02:18.288033 17443 net.cpp:454] drop6 <- relu6
I0120 20:02:18.288036 17443 net.cpp:411] drop6 -> drop6
I0120 20:02:18.288075 17443 net.cpp:150] Setting up drop6
I0120 20:02:18.288079 17443 net.cpp:157] Top shape: 256 2048 (524288)
I0120 20:02:18.288081 17443 net.cpp:165] Memory required for data: 541950976
I0120 20:02:18.288094 17443 layer_factory.hpp:76] Creating layer fc7
I0120 20:02:18.288100 17443 net.cpp:106] Creating Layer fc7
I0120 20:02:18.288101 17443 net.cpp:454] fc7 <- drop6
I0120 20:02:18.288105 17443 net.cpp:411] fc7 -> fc7
I0120 20:02:18.386684 17443 net.cpp:150] Setting up fc7
I0120 20:02:18.386703 17443 net.cpp:157] Top shape: 256 2048 (524288)
I0120 20:02:18.386706 17443 net.cpp:165] Memory required for data: 544048128
I0120 20:02:18.386718 17443 layer_factory.hpp:76] Creating layer relu7
I0120 20:02:18.386726 17443 net.cpp:106] Creating Layer relu7
I0120 20:02:18.386729 17443 net.cpp:454] relu7 <- fc7
I0120 20:02:18.386734 17443 net.cpp:411] relu7 -> relu7
I0120 20:02:18.387096 17443 net.cpp:150] Setting up relu7
I0120 20:02:18.387104 17443 net.cpp:157] Top shape: 256 2048 (524288)
I0120 20:02:18.387106 17443 net.cpp:165] Memory required for data: 546145280
I0120 20:02:18.387109 17443 layer_factory.hpp:76] Creating layer drop7
I0120 20:02:18.387115 17443 net.cpp:106] Creating Layer drop7
I0120 20:02:18.387116 17443 net.cpp:454] drop7 <- relu7
I0120 20:02:18.387121 17443 net.cpp:411] drop7 -> drop7
I0120 20:02:18.387150 17443 net.cpp:150] Setting up drop7
I0120 20:02:18.387153 17443 net.cpp:157] Top shape: 256 2048 (524288)
I0120 20:02:18.387156 17443 net.cpp:165] Memory required for data: 548242432
I0120 20:02:18.387157 17443 layer_factory.hpp:76] Creating layer fc8
I0120 20:02:18.387163 17443 net.cpp:106] Creating Layer fc8
I0120 20:02:18.387166 17443 net.cpp:454] fc8 <- drop7
I0120 20:02:18.387169 17443 net.cpp:411] fc8 -> fc8
I0120 20:02:18.435734 17443 net.cpp:150] Setting up fc8
I0120 20:02:18.435751 17443 net.cpp:157] Top shape: 256 1000 (256000)
I0120 20:02:18.435753 17443 net.cpp:165] Memory required for data: 549266432
I0120 20:02:18.435761 17443 layer_factory.hpp:76] Creating layer loss
I0120 20:02:18.435772 17443 net.cpp:106] Creating Layer loss
I0120 20:02:18.435775 17443 net.cpp:454] loss <- fc8
I0120 20:02:18.435780 17443 net.cpp:454] loss <- label
I0120 20:02:18.435786 17443 net.cpp:411] loss -> loss
I0120 20:02:18.435799 17443 layer_factory.hpp:76] Creating layer loss
…
  type: "Data"
  top: "data"
  top: "label"
  include {
    phase: TEST
  }
  transform_param {
    mirror: false
    crop_size: 128
    force_color: true
    resize_param {
      prob: 1
      resize_mode: FIT_SMALL_SIZE
      height: 144
      width: 144
      pad_mode: MIRRORED
      interp_mode: LINEAR
      center_object: false
      max_angle: 0
    }
    noise_param {
      prob: 1
      convert_to_lab: true
    }
  }
  data_param {
    source: "/home/share/storage/datasets/imagenet/lmdb/ilsvrc12_val_lmdb"
    batch_size: 50
    backend: LMDB
  }
}
layer {
  name: "data_lab_BN"
  type: "BatchNorm"
  bottom: "data"
  top: "data_lab_BN"
  param {
    lr_mult: 0
    decay_mult: 0
  }
  param {
    lr_mult: 0
    decay_mult: 0
  }
  param {
    lr_mult: 0
    decay_mult: 0
  }
  include {
    phase: TEST
  }
  batch_norm_param {
    use_global_stats: true
    moving_average_fraction: 0.95
  }
}
layer {
  name: "conv1"
  type: "Convolution"
  bottom: "data_lab_BN"
  top: "conv1"
  param {
    lr_mult: 1
    decay_mult: 1
  }
  param {
    lr_mult: 2
    decay_mult: 0
  }
  convolution_param {
    num_output: 96
    kernel_size: 11
    stride: 4
    weight_filler {
      type: "gaussian"
      std: 0.01
    }
    bias_filler {
      type: "constant"
    }
  }
}
layer {
  name: "relu1"
  type: "ReLU"
  bottom: "conv1"
  top: "relu1"
}
layer {
  name: "pool1"
  type: "Pooling"
  bottom: "relu1"
  top: "pool1"
  pooling_param {
    pool: MAX
    kernel_size: 3
    stride: 2
  }
}
layer {
  name: "conv2"
  type: "Convolution"
  bottom: "pool1"
  top: "conv2"
  param {
    lr_mult: 1
    decay_mult: 1
  }
  param {
    lr_mult: 2
    decay_mult: 0
  }
  convolution_param {
    num_output: 256
    pad: 2
    kernel_size: 5
    group: 2
    weight_filler {
      type: "gaussian"
      std: 0.01
    }
    bias_filler {
      type: "constant"
    }
  }
}
layer {
  name: "relu2"
  type: "ReLU"
  bottom: "conv2"
  top: "relu2"
}
layer {
  name: "pool2"
  type: "Pooling"
  bottom: "relu2"
  top: "pool2"
  pooling_param {
    pool: MAX
    kernel_size: 3
    stride: 2
  }
}
layer {
  name: "conv3"
  type: "Convolution"
  bottom: "pool2"
  top: "conv3"
  param {
    lr_mult: 1
    decay_mult: 1
  }
  param {
    lr_mult: 2
    decay_mult: 0
  }
  convolution_param {
    num_output: 384
    pad: 1
    kernel_size: 3
    weight_filler {
      type: "gaussian"
      std: 0.01
    }
    bias_filler {
      type: "constant"
    }
  }
}
layer {
  name: "relu3"
  type: "ReLU"
  bottom: "conv3"
  top: "relu3"
}
layer {
  name: "conv4"
  type: "Convolution"
  bottom: "relu3"
  top: "conv4"
  param {
    lr_mult: 1
    decay_mult: 1
  }
  param {
    lr_mult: 2
    decay_mult: 0
  }
  convolution_param {
    num_output: 384
    pad: 1
    kernel_size: 3
    group: 2
    weight_filler {
      type: "gaussian"
      std: 0.01
    }
    bias_filler {
      type: "constant"
    }
  }
}
layer {
  name: "relu4"
  type: "ReLU"
  bottom: "conv4"
  top: "relu4"
}
layer {
  name: "conv5"
  type: "Convolution"
  bottom: "relu4"
  top: "conv5"
  param {
    lr_mult: 1
    decay_mult: 1
  }
  param {
    lr_mult: 2
    decay_mult: 0
  }
  convolution_param {
    num_output: 256
    pad: 1
    kernel_size: 3
    group: 2
    weight_filler {
      type: "gaussian"
      std: 0.01
    }
    bias_filler {
      type: "constant"
    }
  }
}
layer {
  name: "relu5"
  type: "ReLU"
  bottom: "conv5"
  top: "relu5"
}
layer {
  name: "pool5"
  type: "Pooling"
  bottom: "relu5"
  top: "pool5"
  pooling_param {
    pool: MAX
    kernel_size: 3
    stride: 2
  }
}
layer {
  name: "fc6"
  type: "InnerProduct"
  bottom: "pool5"
  top: "fc6"
  param {
    lr_mult: 1
    decay_mult: 1
  }
  param {
    lr_mult: 2
    decay_mult: 0
  }
  inner_product_param {
    num_output: 2048
    weight_filler {
      type: "gaussian"
      std: 0.005
    }
    bias_filler {
      type: "constant"
    }
  }
}
layer {
  name: "relu6"
  type: "ReLU"
  bottom: "fc6"
  top: "relu6"
}
layer {
  name: "drop6"
  type: "Dropout"
  bottom: "relu6"
  top: "drop6"
  dropout_param {
    dropout_ratio: 0.5
  }
}
layer {
  name: "fc7"
  type: "InnerProduct"
  bottom: "drop6"
  top: "fc7"
  param {
    lr_mult: 1
    decay_mult: 1
  }
  param {
    lr_mult: 2
    decay_mult: 0
  }
  inner_product_param {
    num_output: 2048
    weight_filler {
      type: "gaussian"
      std: 0.005
    }
    bias_filler {
      type: "constant"
    }
  }
}
layer {
  name: "relu7"
  type: "ReLU"
  bottom: "fc7"
  top: "relu7"
}
layer {
  name: "drop7"
  type: "Dropout"
  bottom: "relu7"
  top: "drop7"
  dropout_param {
    dropout_ratio: 0.5
  }
}
layer {
  name: "fc8"
  type: "InnerProduct"
  bottom: "drop7"
  top: "fc8"
  param {
    lr_mult: 1
    decay_mult: 1
  }
  param {
    lr_mult: 2
    decay_mult: 0
  }
  inner_product_param {
    num_output: 1000
    weight_filler {
      type: "gaussian"
      std: 0.01
    }
    bias_filler {
      type: "constant"
    }
  }
}
layer {
  name: "accuracy"
  type: "Accuracy"
  bottom: "fc8"
  bottom: "label"
  top: "accuracy"
  include {
    phase: TEST
  }
}
layer {
  name: "loss"
  type: "SoftmaxWithLoss"
  bottom: "fc8"
  bottom: "label"
  top: "loss"
}
I0120 20:02:18.437199 17443 layer_factory.hpp:76] Creating layer data
I0120 20:02:18.437259 17443 net.cpp:106] Creating Layer data
I0120 20:02:18.437265 17443 net.cpp:411] data -> data
I0120 20:02:18.437271 17443 net.cpp:411] data -> label
I0120 20:02:18.438542 17456 db_lmdb.cpp:38] Opened lmdb /home/share/storage/datasets/imagenet/lmdb/ilsvrc12_val_lmdb
I0120 20:02:18.439810 17443 data_layer.cpp:41] output data size: 50,3,128,128
I0120 20:02:18.456985 17443 net.cpp:150] Setting up data
I0120 20:02:18.457020 17443 net.cpp:157] Top shape: 50 3 128 128 (2457600)
I0120 20:02:18.457023 17443 net.cpp:157] Top shape: 50 (50)
I0120 20:02:18.457026 17443 net.cpp:165] Memory required for data: 9830600
I0120 20:02:18.457031 17443 layer_factory.hpp:76] Creating layer label_data_1_split
I0120 20:02:18.457166 17443 net.cpp:106] Creating Layer label_data_1_split
I0120 20:02:18.457172 17443 net.cpp:454] label_data_1_split <- label
I0120 20:02:18.457196 17443 net.cpp:411] label_data_1_split -> label_data_1_split_0
I0120 20:02:18.457243 17443 net.cpp:411] label_data_1_split -> label_data_1_split_1
I0120 20:02:18.457340 17443 net.cpp:150] Setting up label_data_1_split
I0120 20:02:18.457345 17443 net.cpp:157] Top shape: 50 (50)
I0120 20:02:18.457348 17443 net.cpp:157] Top shape: 50 (50)
I0120 20:02:18.457350 17443 net.cpp:165] Memory required for data: 9831000
I0120 20:02:18.457352 17443 layer_factory.hpp:76] Creating layer data_lab_BN
I0120 20:02:18.457401 17443 net.cpp:106] Creating Layer data_lab_BN
I0120 20:02:18.457404 17443 net.cpp:454] data_lab_BN <- data
I0120 20:02:18.457432 17443 net.cpp:411] data_lab_BN -> data_lab_BN
I0120 20:02:18.457636 17443 net.cpp:150] Setting up data_lab_BN
I0120 20:02:18.457643 17443 net.cpp:157] Top shape: 50 3 128 128 (2457600)
I0120 20:02:18.457645 17443 net.cpp:165] Memory required for data: 19661400
I0120 20:02:18.457687 17443 layer_factory.hpp:76] Creating layer conv1
I0120 20:02:18.457726 17443 net.cpp:106] Creating Layer conv1
I0120 20:02:18.457729 17443 net.cpp:454] conv1 <- data_lab_BN
I0120 20:02:18.457742 17443 net.cpp:411] conv1 -> conv1
I0120 20:02:18.460991 17443 net.cpp:150] Setting up conv1
I0120 20:02:18.461000 17443 net.cpp:157] Top shape: 50 96 30 30 (4320000)
I0120 20:02:18.461050 17443 net.cpp:165] Memory required for data: 36941400
I0120 20:02:18.461056 17443 layer_factory.hpp:76] Creating layer relu1
I0120 20:02:18.461061 17443 net.cpp:106] Creating Layer relu1
I0120 20:02:18.461064 17443 net.cpp:454] relu1 <- conv1
I0120 20:02:18.461067 17443 net.cpp:411] relu1 -> relu1
I0120 20:02:18.461357 17443 net.cpp:150] Setting up relu1
I0120 20:02:18.461374 17443 net.cpp:157] Top shape: 50 96 30 30 (4320000)
I0120 20:02:18.461376 17443 net.cpp:165] Memory required for data: 54221400
I0120 20:02:18.461379 17443 layer_factory.hpp:76] Creating layer pool1
I0120 20:02:18.461393 17443 net.cpp:106] Creating Layer pool1
I0120 20:02:18.461395 17443 net.cpp:454] pool1 <- relu1
I0120 20:02:18.461398 17443 net.cpp:411] pool1 -> pool1
I0120 20:02:18.461603 17443 net.cpp:150] Setting up pool1
I0120 20:02:18.461611 17443 net.cpp:157] Top shape: 50 96 15 15 (1080000)
I0120 20:02:18.461622 17443 net.cpp:165] Memory required for data: 58541400
I0120 20:02:18.461624 17443 layer_factory.hpp:76] Creating layer conv2
I0120 20:02:18.461629 17443 net.cpp:106] Creating Layer conv2
I0120 20:02:18.461668 17443 net.cpp:454] conv2 <- pool1
I0120 20:02:18.461674 17443 net.cpp:411] conv2 -> conv2
I0120 20:02:18.470770 17443 net.cpp:150] Setting up conv2
I0120 20:02:18.470798 17443 net.cpp:157] Top shape: 50 256 15 15 (2880000)
I0120 20:02:18.470800 17443 net.cpp:165] Memory required for data: 70061400
I0120 20:02:18.470806 17443 layer_factory.hpp:76] Creating layer relu2
I0120 20:02:18.470916 17443 net.cpp:106] Creating Layer relu2
I0120 20:02:18.470922 17443 net.cpp:454] relu2 <- conv2
I0120 20:02:18.470929 17443 net.cpp:411] relu2 -> relu2
I0120 20:02:18.471124 17443 net.cpp:150] Setting up relu2
I0120 20:02:18.471132 17443 net.cpp:157] Top shape: 50 256 15 15 (2880000)
I0120 20:02:18.471145 17443 net.cpp:165] Memory required for data: 81581400
I0120 20:02:18.471148 17443 layer_factory.hpp:76] Creating layer pool2
I0120 20:02:18.471191 17443 net.cpp:106] Creating Layer pool2
I0120 20:02:18.471196 17443 net.cpp:454] pool2 <- relu2
I0120 20:02:18.471200 17443 net.cpp:411] pool2 -> pool2
I0120 20:02:18.471493 17443 net.cpp:150] Setting up pool2
I0120 20:02:18.471500 17443 net.cpp:157] Top shape: 50 256 7 7 (627200)
I0120 20:02:18.471513 17443 net.cpp:165] Memory required for data: 84090200
I0120 20:02:18.471514 17443 layer_factory.hpp:76] Creating layer conv3
I0120 20:02:18.471578 17443 net.cpp:106] Creating Layer conv3
I0120 20:02:18.471583 17443 net.cpp:454] conv3 <- pool2
I0120 20:02:18.471590 17443 net.cpp:411] conv3 -> conv3
I0120 20:02:18.494084 17443 net.cpp:150] Setting up conv3
I0120 20:02:18.494103 17443 net.cpp:157] Top shape: 50 384 7 7 (940800)
I0120 20:02:18.494107 17443 net.cpp:165] Memory required for data: 87853400
I0120 20:02:18.494236 17443 layer_factory.hpp:76] Creating layer relu3
I0120 20:02:18.494245 17443 net.cpp:106] Creating Layer relu3
I0120 20:02:18.494248 17443 net.cpp:454] relu3 <- conv3
I0120 20:02:18.494254 17443 net.cpp:411] relu3 -> relu3
I0120 20:02:18.494457 17443 net.cpp:150] Setting up relu3
I0120 20:02:18.494464 17443 net.cpp:157] Top shape: 50 384 7 7 (940800)
I0120 20:02:18.494477 17443 net.cpp:165] Memory required for data: 91616600
I0120 20:02:18.494479 17443 layer_factory.hpp:76] Creating layer conv4
I0120 20:02:18.494524 17443 net.cpp:106] Creating Layer conv4
I0120 20:02:18.494527 17443 net.cpp:454] conv4 <- relu3
I0120 20:02:18.494532 17443 net.cpp:411] conv4 -> conv4
I0120 20:02:18.512248 17443 net.cpp:150] Setting up conv4
I0120 20:02:18.512277 17443 net.cpp:157] Top shape: 50 384 7 7 (940800)
I0120 20:02:18.512280 17443 net.cpp:165] Memory required for data: 95379800
I0120 20:02:18.512287 17443 layer_factory.hpp:76] Creating layer relu4
I0120 20:02:18.512392 17443 net.cpp:106] Creating Layer relu4
I0120 20:02:18.512398 17443 net.cpp:454] relu4 <- conv4
I0120 20:02:18.512404 17443 net.cpp:411] relu4 -> relu4
I0120 20:02:18.512626 17443 net.cpp:150] Setting up relu4
I0120 20:02:18.512634 17443 net.cpp:157] Top shape: 50 384 7 7 (940800)
I0120 20:02:18.512637 17443 net.cpp:165] Memory required for data: 99143000
I0120 20:02:18.512639 17443 layer_factory.hpp:76] Creating layer conv5
I0120 20:02:18.512681 17443 net.cpp:106] Creating Layer conv5
I0120 20:02:18.512686 17443 net.cpp:454] conv5 <- relu4
I0120 20:02:18.512714 17443 net.cpp:411] conv5 -> conv5
I0120 20:02:18.524998 17443 net.cpp:150] Setting up conv5
I0120 20:02:18.525019 17443 net.cpp:157] Top shape: 50 256 7 7 (627200)
I0120 20:02:18.525022 17443 net.cpp:165] Memory required for data: 101651800
I0120 20:02:18.525125 17443 layer_factory.hpp:76] Creating layer relu5
I0120 20:02:18.525133 17443 net.cpp:106] Creating Layer relu5
I0120 20:02:18.525137 17443 net.cpp:454] relu5 <- conv5
I0120 20:02:18.525141 17443 net.cpp:411] relu5 -> relu5
I0120 20:02:18.525346 17443 net.cpp:150] Setting up relu5
I0120 20:02:18.525352 17443 net.cpp:157] Top shape: 50 256 7 7 (627200)
I0120 20:02:18.525364 17443 net.cpp:165] Memory required for data: 104160600
I0120 20:02:18.525367 17443 layer_factory.hpp:76] Creating layer pool5
I0120 20:02:18.525372 17443 net.cpp:106] Creating Layer pool5
I0120 20:02:18.525409 17443 net.cpp:454] pool5 <- relu5
I0120 20:02:18.525414 17443 net.cpp:411] pool5 -> pool5
I0120 20:02:18.525734 17443 net.cpp:150] Setting up pool5
I0120 20:02:18.525743 17443 net.cpp:157] Top shape: 50 256 3 3 (115200)
I0120 20:02:18.525754 17443 net.cpp:165] Memory required for data: 104621400
I0120 20:02:18.525756 17443 layer_factory.hpp:76] Creating layer fc6
I0120 20:02:18.525821 17443 net.cpp:106] Creating Layer fc6
I0120 20:02:18.525827 17443 net.cpp:454] fc6 <- pool5
I0120 20:02:18.525833 17443 net.cpp:411] fc6 -> fc6
I0120 20:02:18.640190 17443 net.cpp:150] Setting up fc6
I0120 20:02:18.640220 17443 net.cpp:157] Top shape: 50 2048 (102400)
I0120 20:02:18.640223 17443 net.cpp:165] Memory required for data: 105031000
I0120 20:02:18.640230 17443 layer_factory.hpp:76] Creating layer relu6
I0120 20:02:18.640346 17443 net.cpp:106] Creating Layer relu6
I0120 20:02:18.640352 17443 net.cpp:454] relu6 <- fc6
I0120 20:02:18.640357 17443 net.cpp:411] relu6 -> relu6
I0120 20:02:18.640775 17443 net.cpp:150] Setting up relu6
I0120 20:02:18.640782 17443 net.cpp:157] Top shape: 50 2048 (102400)
I0120 20:02:18.640795 17443 net.cpp:165] Memory required for data: 105440600
I0120 20:02:18.640797 17443 layer_factory.hpp:76] Creating layer drop6
I0120 20:02:18.640802 17443 net.cpp:106] Creating Layer drop6
I0120 20:02:18.640846 17443 net.cpp:454] drop6 <- relu6
I0120 20:02:18.640853 17443 net.cpp:411] drop6 -> drop6
I0120 20:02:18.640919 17443 net.cpp:150] Setting up drop6
I0120 20:02:18.640925 17443 net.cpp:157] Top shape: 50 2048 (102400)
I0120 20:02:18.640938 17443 net.cpp:165] Memory required for data: 105850200
I0120 20:02:18.640985 17443 layer_factory.hpp:76] Creating layer fc7
I0120 20:02:18.640991 17443 net.cpp:106] Creating Layer fc7
I0120 20:02:18.640993 17443 net.cpp:454] fc7 <- drop6
I0120 20:02:18.640998 17443 net.cpp:411] fc7 -> fc7
I0120 20:02:18.742513 17443 net.cpp:150] Setting up fc7
I0120 20:02:18.742552 17443 net.cpp:157] Top shape: 50 2048 (102400)
I0120 20:02:18.742553 17443 net.cpp:165] Memory required for data: 106259800
I0120 20:02:18.742565 17443 layer_factory.hpp:76] Creating layer relu7
I0120 20:02:18.742674 17443 net.cpp:106] Creating Layer relu7
I0120 20:02:18.742681 17443 net.cpp:454] relu7 <- fc7
I0120 20:02:18.742686 17443 net.cpp:411] relu7 -> relu7
I0120 20:02:18.742936 17443 net.cpp:150] Setting up relu7
I0120 20:02:18.742945 17443 net.cpp:157] Top shape: 50 2048 (102400)
I0120 20:02:18.742947 17443 net.cpp:165] Memory required for data: 106669400
I0120 20:02:18.742949 17443 layer_factory.hpp:76] Creating layer drop7
I0120 20:02:18.742955 17443 net.cpp:106] Creating Layer drop7
I0120 20:02:18.742957 17443 net.cpp:454] drop7 <- relu7
I0120 20:02:18.742960 17443 net.cpp:411] drop7 -> drop7
I0120 20:02:18.743083 17443 net.cpp:150] Setting up drop7
I0120 20:02:18.743088 17443 net.cpp:157] Top shape: 50 2048 (102400)
I0120 20:02:18.743090 17443 net.cpp:165] Memory required for data: 107079000
I0120 20:02:18.743093 17443 layer_factory.hpp:76] Creating layer fc8
I0120 20:02:18.743099 17443 net.cpp:106] Creating Layer fc8
I0120 20:02:18.743101 17443 net.cpp:454] fc8 <- drop7
I0120 20:02:18.743104 17443 net.cpp:411] fc8 -> fc8
I0120 20:02:18.793084 17443 net.cpp:150] Setting up fc8
I0120 20:02:18.793105 17443 net.cpp:157] Top shape: 50 1000 (50000)
I0120 20:02:18.793107 17443 net.cpp:165] Memory required for data: 107279000
I0120 20:02:18.793115 17443 layer_factory.hpp:76] Creating layer fc8_fc8_0_split
I0120 20:02:18.793123 17443 net.cpp:106] Creating Layer fc8_fc8_0_split
I0120 20:02:18.793125 17443 net.cpp:454] fc8_fc8_0_split <- fc8
I0120 20:02:18.793130 17443 net.cpp:411] fc8_fc8_0_split -> fc8_fc8_0_split_0
I0120 20:02:18.793136 17443 net.cpp:411] fc8_fc8_0_split -> fc8_fc8_0_split_1
I0120 20:02:18.793171 17443 net.cpp:150] Setting up fc8_fc8_0_split
I0120 20:02:18.793175 17443 net.cpp:157] Top shape: 50 1000 (50000)
I0120 20:02:18.793179 17443 net.cpp:157] Top shape: 50 1000 (50000)
I0120 20:02:18.793179 17443 net.cpp:165] Memory required for data: 107679000
I0120 20:02:18.793181 17443 layer_factory.hpp:76] Creating layer accuracy
I0120 20:02:18.793190 17443 net.cpp:106] Creating Layer accuracy
I0120 20:02:18.793192 17443 net.cpp:454] accuracy <- fc8_fc8_0_split_0
I0120 20:02:18.793195 17443 net.cpp:454] accuracy <- label_data_1_split_0
I0120 20:02:18.793200 17443 net.cpp:411] accuracy -> accuracy
…
