…
      source: "/local/temporary/imagenet144pxlmdb/ilsvrc12_128_train_lmdb"
      batch_size: 256
      backend: LMDB
    }
  }
  layer {
    name: "data"
    type: "Data"
    top: "data"
    top: "label"
    include {
      phase: TEST
    }
    transform_param {
      scale: 0.04
      mirror: true
      crop_size: 128
      mean_value: 104
      mean_value: 117
      mean_value: 124
      force_color: true
    }
    data_param {
      source: "/local/temporary/imagenet144pxlmdb/ilsvrc12_128_val_lmdb"
      batch_size: 50
      backend: LMDB
    }
  }
  layer {
    name: "data_conv1"
    type: "Convolution"
    bottom: "data"
    top: "data_conv1"
    param {
      lr_mult: 1
      decay_mult: 1
    }
    param {
      lr_mult: 2
      decay_mult: 0
    }
    convolution_param {
      num_output: 10
      kernel_size: 1
      weight_filler {
        type: "gaussian"
        std: 0.01
      }
      bias_filler {
        type: "constant"
      }
    }
  }
  layer {
    name: "data_conv1_tanh"
    type: "ELU"
    bottom: "data_conv1"
    top: "data_conv1_tanh"
    elu_param {
      alpha: 1
    }
  }
  layer {
    name: "data_conv2"
    type: "Convolution"
    bottom: "data_conv1_tanh"
    top: "data_conv2"
    param {
      lr_mult: 1
      decay_mult: 1
    }
    param {
      lr_mult: 2
      decay_mult: 0
    }
    convolution_param {
      num_output: 3
      kernel_size: 1
      weight_filler {
        type: "gaussian"
        std: 0.01
      }
      bias_filler {
        type: "constant"
      }
    }
  }
  layer {
    name: "data_conv2_tanh"
    type: "ELU"
    bottom: "data_conv2"
    top: "data_conv2_tanh"
    elu_param {
      alpha: 1
    }
  }
  layer {
    name: "conv1"
    type: "Convolution"
    bottom: "data_conv2_tanh"
    top: "conv1"
    param {
      lr_mult: 1
      decay_mult: 1
    }
    param {
      lr_mult: 2
      decay_mult: 0
    }
    convolution_param {
      num_output: 96
      kernel_size: 11
      stride: 4
      weight_filler {
        type: "gaussian"
        std: 0.01
      }
      bias_filler {
        type: "constant"
      }
    }
  }
  layer {
    name: "relu1"
    type: "ReLU"
    bottom: "conv1"
    top: "relu1"
  }
  layer {
    name: "pool1"
    type: "Pooling"
    bottom: "relu1"
    top: "pool1"
    pooling_param {
      pool: MAX
      kernel_size: 3
      stride: 2
    }
  }
  layer {
    name: "conv2"
    type: "Convolution"
    bottom: "pool1"
    top: "conv2"
    param {
      lr_mult: 1
      decay_mult: 1
    }
    param {
      lr_mult: 2
      decay_mult: 0
    }
    convolution_param {
      num_output: 256
      pad: 2
      kernel_size: 5
      group: 2
      weight_filler {
        type: "gaussian"
        std: 0.01
      }
      bias_filler {
        type: "constant"
      }
    }
  }
  layer {
    name: "relu2"
    type: "ReLU"
    bottom: "conv2"
    top: "conv2"
  }
  layer {
    name: "pool2"
    type: "Pooling"
    bottom: "conv2"
    top: "pool2"
    pooling_param {
      pool: MAX
      kernel_size: 3
      stride: 2
    }
  }
  layer {
    name: "conv3"
    type: "Convolution"
    bottom: "pool2"
    top: "conv3"
    param {
      lr_mult: 1
      decay_mult: 1
    }
    param {
      lr_mult: 2
      decay_mult: 0
    }
    convolution_param {
      num_output: 384
      pad: 1
      kernel_size: 3
      weight_filler {
        type: "gaussian"
        std: 0.01
      }
      bias_filler {
        type: "constant"
      }
    }
  }
  layer {
    name: "relu3"
    type: "ReLU"
    bottom: "conv3"
    top: "conv3"
  }
  layer {
    name: "conv4"
    type: "Convolution"
    bottom: "conv3"
    top: "conv4"
    param {
      lr_mult: 1
      decay_mult: 1
    }
    param {
      lr_mult: 2
      decay_mult: 0
    }
    convolution_param {
      num_output: 384
      pad: 1
      kernel_size: 3
      group: 2
      weight_filler {
        type: "gaussian"
        std: 0.01
      }
      bias_filler {
        type: "constant"
      }
    }
  }
  layer {
    name: "relu4"
    type: "ReLU"
    bottom: "conv4"
    top: "conv4"
  }
  layer {
    name: "conv5"
    type: "Convolution"
    bottom: "conv4"
    top: "conv5"
    param {
      lr_mult: 1
      decay_mult: 1
    }
    param {
      lr_mult: 2
      decay_mult: 0
    }
    convolution_param {
      num_output: 256
      pad: 1
      kernel_size: 3
      group: 2
      weight_filler {
        type: "gaussian"
        std: 0.01
      }
      bias_filler {
        type: "constant"
      }
    }
  }
  layer {
    name: "relu5"
    type: "ReLU"
    bottom: "conv5"
    top: "conv5"
  }
  layer {
    name: "pool5"
    type: "Pooling"
    bottom: "conv5"
    top: "pool5"
    pooling_param {
      pool: MAX
      kernel_size: 3
      stride: 2
    }
  }
  layer {
    name: "fc6"
    type: "InnerProduct"
    bottom: "pool5"
    top: "fc6"
    param {
      lr_mult: 1
      decay_mult: 1
    }
    param {
      lr_mult: 2
      decay_mult: 0
    }
    inner_product_param {
      num_output: 2048
      weight_filler {
        type: "gaussian"
        std: 0.005
      }
      bias_filler {
        type: "constant"
      }
    }
  }
  layer {
    name: "relu6"
    type: "ReLU"
    bottom: "fc6"
    top: "fc6"
  }
  layer {
    name: "drop6"
    type: "Dropout"
    bottom: "fc6"
    top: "fc6"
    dropout_param {
      dropout_ratio: 0.5
    }
  }
  layer {
    name: "fc7"
    type: "InnerProduct"
    bottom: "fc6"
    top: "fc7"
    param {
      lr_mult: 1
      decay_mult: 1
    }
    param {
      lr_mult: 2
      decay_mult: 0
    }
    inner_product_param {
      num_output: 2048
      weight_filler {
        type: "gaussian"
        std: 0.005
      }
      bias_filler {
        type: "constant"
      }
    }
  }
  layer {
    name: "relu7"
    type: "ReLU"
    bottom: "fc7"
    top: "fc7"
  }
  layer {
    name: "drop7"
    type: "Dropout"
    bottom: "fc7"
    top: "fc7"
    dropout_param {
      dropout_ratio: 0.5
    }
  }
  layer {
    name: "fc8"
    type: "InnerProduct"
    bottom: "fc7"
    top: "fc8"
    param {
      lr_mult: 1
      decay_mult: 1
    }
    param {
      lr_mult: 2
      decay_mult: 0
    }
    inner_product_param {
      num_output: 1000
      weight_filler {
        type: "gaussian"
        std: 0.01
      }
      bias_filler {
        type: "constant"
      }
    }
  }
  layer {
    name: "accuracy"
    type: "Accuracy"
    bottom: "fc8"
    bottom: "label"
    top: "accuracy"
    include {
      phase: TEST
    }
  }
  layer {
    name: "loss"
    type: "SoftmaxWithLoss"
    bottom: "fc8"
    bottom: "label"
    top: "loss"
  }
}
average_loss: 20
iter_size: 1
type: "SGD"
I0604 12:55:39.981050 27734 solver.cpp:86] Creating training net specified in net_param.
I0604 12:55:39.981178 27734 net.cpp:322] The NetState phase (0) differed from the phase (1) specified by a rule in layer data
I0604 12:55:39.981210 27734 net.cpp:322] The NetState phase (0) differed from the phase (1) specified by a rule in layer accuracy
I0604 12:55:39.981535 27734 net.cpp:49] Initializing net from parameters: 
name: "CaffeNet"
state {
  phase: TRAIN
}
layer {
  name: "data"
  type: "Data"
  top: "data"
  top: "label"
  include {
    phase: TRAIN
  }
  transform_param {
    scale: 0.04
    mirror: true
    crop_size: 128
    mean_value: 104
    mean_value: 117
    mean_value: 124
    force_color: true
  }
  data_param {
    source: "/local/temporary/imagenet144pxlmdb/ilsvrc12_128_train_lmdb"
    batch_size: 256
    backend: LMDB
  }
}
layer {
  name: "data_conv1"
  type: "Convolution"
  bottom: "data"
  top: "data_conv1"
  param {
    lr_mult: 1
    decay_mult: 1
  }
  param {
    lr_mult: 2
    decay_mult: 0
  }
  convolution_param {
    num_output: 10
    kernel_size: 1
    weight_filler {
      type: "gaussian"
      std: 0.01
    }
    bias_filler {
      type: "constant"
    }
  }
}
layer {
  name: "data_conv1_tanh"
  type: "ELU"
  bottom: "data_conv1"
  top: "data_conv1_tanh"
  elu_param {
    alpha: 1
  }
}
layer {
  name: "data_conv2"
  type: "Convolution"
  bottom: "data_conv1_tanh"
  top: "data_conv2"
  param {
    lr_mult: 1
    decay_mult: 1
  }
  param {
    lr_mult: 2
    decay_mult: 0
  }
  convolution_param {
    num_output: 3
    kernel_size: 1
    weight_filler {
      type: "gaussian"
      std: 0.01
    }
    bias_filler {
      type: "constant"
    }
  }
}
layer {
  name: "data_conv2_tanh"
  type: "ELU"
  bottom: "data_conv2"
  top: "data_conv2_tanh"
  elu_param {
    alpha: 1
  }
}
layer {
  name: "conv1"
  type: "Convolution"
  bottom: "data_conv2_tanh"
  top: "conv1"
  param {
    lr_mult: 1
    decay_mult: 1
  }
  param {
    lr_mult: 2
    decay_mult: 0
  }
  convolution_param {
    num_output: 96
    kernel_size: 11
    stride: 4
    weight_filler {
      type: "gaussian"
      std: 0.01
    }
    bias_filler {
      type: "constant"
    }
  }
}
layer {
  name: "relu1"
  type: "ReLU"
  bottom: "conv1"
  top: "relu1"
}
layer {
  name: "pool1"
  type: "Pooling"
  bottom: "relu1"
  top: "pool1"
  pooling_param {
    pool: MAX
    kernel_size: 3
    stride: 2
  }
}
layer {
  name: "conv2"
  type: "Convolution"
  bottom: "pool1"
  top: "conv2"
  param {
    lr_mult: 1
    decay_mult: 1
  }
  param {
    lr_mult: 2
    decay_mult: 0
  }
  convolution_param {
    num_output: 256
    pad: 2
    kernel_size: 5
    group: 2
    weight_filler {
      type: "gaussian"
      std: 0.01
    }
    bias_filler {
      type: "constant"
    }
  }
}
layer {
  name: "relu2"
  type: "ReLU"
  bottom: "conv2"
  top: "conv2"
}
layer {
  name: "pool2"
  type: "Pooling"
  bottom: "conv2"
  top: "pool2"
  pooling_param {
    pool: MAX
    kernel_size: 3
    stride: 2
  }
}
layer {
  name: "conv3"
  type: "Convolution"
  bottom: "pool2"
  top: "conv3"
  param {
    lr_mult: 1
    decay_mult: 1
  }
  param {
    lr_mult: 2
    decay_mult: 0
  }
  convolution_param {
    num_output: 384
    pad: 1
    kernel_size: 3
    weight_filler {
      type: "gaussian"
      std: 0.01
    }
    bias_filler {
      type: "constant"
    }
  }
}
layer {
  name: "relu3"
  type: "ReLU"
  bottom: "conv3"
  top: "conv3"
}
layer {
  name: "conv4"
  type: "Convolution"
  bottom: "conv3"
  top: "conv4"
  param {
    lr_mult: 1
    decay_mult: 1
  }
  param {
    lr_mult: 2
    decay_mult: 0
  }
  convolution_param {
    num_output: 384
    pad: 1
    kernel_size: 3
    group: 2
    weight_filler {
      type: "gaussian"
      std: 0.01
    }
    bias_filler {
      type: "constant"
    }
  }
}
layer {
  name: "relu4"
  type: "ReLU"
  bottom: "conv4"
  top: "conv4"
}
layer {
  name: "conv5"
  type: "Convolution"
  bottom: "conv4"
  top: "conv5"
  param {
    lr_mult: 1
    decay_mult: 1
  }
  param {
    lr_mult: 2
    decay_mult: 0
  }
  convolution_param {
    num_output: 256
    pad: 1
    kernel_size: 3
    group: 2
    weight_filler {
      type: "gaussian"
      std: 0.01
    }
    bias_filler {
      type: "constant"
    }
  }
}
layer {
  name: "relu5"
  type: "ReLU"
  bottom: "conv5"
  top: "conv5"
}
layer {
  name: "pool5"
  type: "Pooling"
  bottom: "conv5"
  top: "pool5"
  pooling_param {
    pool: MAX
    kernel_size: 3
    stride: 2
  }
}
layer {
  name: "fc6"
  type: "InnerProduct"
  bottom: "pool5"
  top: "fc6"
  param {
    lr_mult: 1
    decay_mult: 1
  }
  param {
    lr_mult: 2
    decay_mult: 0
  }
  inner_product_param {
    num_output: 2048
    weight_filler {
      type: "gaussian"
      std: 0.005
    }
    bias_filler {
      type: "constant"
    }
  }
}
layer {
  name: "relu6"
  type: "ReLU"
  bottom: "fc6"
  top: "fc6"
}
layer {
  name: "drop6"
  type: "Dropout"
  bottom: "fc6"
  top: "fc6"
  dropout_param {
    dropout_ratio: 0.5
  }
}
layer {
  name: "fc7"
  type: "InnerProduct"
  bottom: "fc6"
  top: "fc7"
  param {
    lr_mult: 1
    decay_mult: 1
  }
  param {
    lr_mult: 2
    decay_mult: 0
  }
  inner_product_param {
    num_output: 2048
    weight_filler {
      type: "gaussian"
      std: 0.005
    }
    bias_filler {
      type: "constant"
    }
  }
}
layer {
  name: "relu7"
  type: "ReLU"
  bottom: "fc7"
  top: "fc7"
}
layer {
  name: "drop7"
  type: "Dropout"
  bottom: "fc7"
  top: "fc7"
  dropout_param {
    dropout_ratio: 0.5
  }
}
layer {
  name: "fc8"
  type: "InnerProduct"
  bottom: "fc7"
  top: "fc8"
  param {
    lr_mult: 1
    decay_mult: 1
  }
  param {
    lr_mult: 2
    decay_mult: 0
  }
  inner_product_param {
    num_output: 1000
    weight_filler {
      type: "gaussian"
      std: 0.01
    }
    bias_filler {
      type: "constant"
    }
  }
}
layer {
  name: "loss"
  type: "SoftmaxWithLoss"
  bottom: "fc8"
  bottom: "label"
  top: "loss"
}
I0604 12:55:39.981685 27734 layer_factory.hpp:76] Creating layer data
I0604 12:55:39.982403 27734 net.cpp:106] Creating Layer data
I0604 12:55:39.982437 27734 net.cpp:411] data -> data
I0604 12:55:39.982472 27734 net.cpp:411] data -> label
I0604 12:55:39.983495 27774 db_lmdb.cpp:38] Opened lmdb /local/temporary/imagenet144pxlmdb/ilsvrc12_128_train_lmdb
I0604 12:55:39.996917 27734 data_layer.cpp:41] output data size: 256,3,128,128
I0604 12:55:40.089995 27734 net.cpp:150] Setting up data
I0604 12:55:40.090035 27734 net.cpp:157] Top shape: 256 3 128 128 (12582912)
I0604 12:55:40.090044 27734 net.cpp:157] Top shape: 256 (256)
I0604 12:55:40.090047 27734 net.cpp:165] Memory required for data: 50332672
I0604 12:55:40.090057 27734 layer_factory.hpp:76] Creating layer data_conv1
I0604 12:55:40.090080 27734 net.cpp:106] Creating Layer data_conv1
I0604 12:55:40.090086 27734 net.cpp:454] data_conv1 <- data
I0604 12:55:40.090103 27734 net.cpp:411] data_conv1 -> data_conv1
I0604 12:55:40.215261 27734 net.cpp:150] Setting up data_conv1
I0604 12:55:40.215294 27734 net.cpp:157] Top shape: 256 10 128 128 (41943040)
I0604 12:55:40.215298 27734 net.cpp:165] Memory required for data: 218104832
I0604 12:55:40.215318 27734 layer_factory.hpp:76] Creating layer data_conv1_tanh
I0604 12:55:40.215332 27734 net.cpp:106] Creating Layer data_conv1_tanh
I0604 12:55:40.215337 27734 net.cpp:454] data_conv1_tanh <- data_conv1
I0604 12:55:40.215347 27734 net.cpp:411] data_conv1_tanh -> data_conv1_tanh
I0604 12:55:40.215379 27734 net.cpp:150] Setting up data_conv1_tanh
I0604 12:55:40.215386 27734 net.cpp:157] Top shape: 256 10 128 128 (41943040)
I0604 12:55:40.215391 27734 net.cpp:165] Memory required for data: 385876992
I0604 12:55:40.215394 27734 layer_factory.hpp:76] Creating layer data_conv2
I0604 12:55:40.215404 27734 net.cpp:106] Creating Layer data_conv2
I0604 12:55:40.215409 27734 net.cpp:454] data_conv2 <- data_conv1_tanh
I0604 12:55:40.215415 27734 net.cpp:411] data_conv2 -> data_conv2
I0604 12:55:40.216364 27734 net.cpp:150] Setting up data_conv2
I0604 12:55:40.216383 27734 net.cpp:157] Top shape: 256 3 128 128 (12582912)
I0604 12:55:40.216388 27734 net.cpp:165] Memory required for data: 436208640
I0604 12:55:40.216398 27734 layer_factory.hpp:76] Creating layer data_conv2_tanh
I0604 12:55:40.216408 27734 net.cpp:106] Creating Layer data_conv2_tanh
I0604 12:55:40.216413 27734 net.cpp:454] data_conv2_tanh <- data_conv2
I0604 12:55:40.216418 27734 net.cpp:411] data_conv2_tanh -> data_conv2_tanh
I0604 12:55:40.216444 27734 net.cpp:150] Setting up data_conv2_tanh
I0604 12:55:40.216451 27734 net.cpp:157] Top shape: 256 3 128 128 (12582912)
I0604 12:55:40.216455 27734 net.cpp:165] Memory required for data: 486540288
I0604 12:55:40.216459 27734 layer_factory.hpp:76] Creating layer conv1
I0604 12:55:40.216466 27734 net.cpp:106] Creating Layer conv1
I0604 12:55:40.216470 27734 net.cpp:454] conv1 <- data_conv2_tanh
I0604 12:55:40.216475 27734 net.cpp:411] conv1 -> conv1
I0604 12:55:40.219746 27734 net.cpp:150] Setting up conv1
I0604 12:55:40.219761 27734 net.cpp:157] Top shape: 256 96 30 30 (22118400)
I0604 12:55:40.219795 27734 net.cpp:165] Memory required for data: 575013888
I0604 12:55:40.219806 27734 layer_factory.hpp:76] Creating layer relu1
I0604 12:55:40.219815 27734 net.cpp:106] Creating Layer relu1
I0604 12:55:40.219818 27734 net.cpp:454] relu1 <- conv1
I0604 12:55:40.219825 27734 net.cpp:411] relu1 -> relu1
I0604 12:55:40.220044 27734 net.cpp:150] Setting up relu1
I0604 12:55:40.220054 27734 net.cpp:157] Top shape: 256 96 30 30 (22118400)
I0604 12:55:40.220058 27734 net.cpp:165] Memory required for data: 663487488
I0604 12:55:40.220062 27734 layer_factory.hpp:76] Creating layer pool1
I0604 12:55:40.220070 27734 net.cpp:106] Creating Layer pool1
I0604 12:55:40.220075 27734 net.cpp:454] pool1 <- relu1
I0604 12:55:40.220080 27734 net.cpp:411] pool1 -> pool1
I0604 12:55:40.220446 27734 net.cpp:150] Setting up pool1
I0604 12:55:40.220458 27734 net.cpp:157] Top shape: 256 96 15 15 (5529600)
I0604 12:55:40.220463 27734 net.cpp:165] Memory required for data: 685605888
I0604 12:55:40.220465 27734 layer_factory.hpp:76] Creating layer conv2
I0604 12:55:40.220485 27734 net.cpp:106] Creating Layer conv2
I0604 12:55:40.220489 27734 net.cpp:454] conv2 <- pool1
I0604 12:55:40.220494 27734 net.cpp:411] conv2 -> conv2
I0604 12:55:40.232487 27734 net.cpp:150] Setting up conv2
I0604 12:55:40.232508 27734 net.cpp:157] Top shape: 256 256 15 15 (14745600)
I0604 12:55:40.232512 27734 net.cpp:165] Memory required for data: 744588288
I0604 12:55:40.232519 27734 layer_factory.hpp:76] Creating layer relu2
I0604 12:55:40.232527 27734 net.cpp:106] Creating Layer relu2
I0604 12:55:40.232532 27734 net.cpp:454] relu2 <- conv2
I0604 12:55:40.232537 27734 net.cpp:397] relu2 -> conv2 (in-place)
I0604 12:55:40.232851 27734 net.cpp:150] Setting up relu2
I0604 12:55:40.232863 27734 net.cpp:157] Top shape: 256 256 15 15 (14745600)
I0604 12:55:40.232867 27734 net.cpp:165] Memory required for data: 803570688
I0604 12:55:40.232872 27734 layer_factory.hpp:76] Creating layer pool2
I0604 12:55:40.232878 27734 net.cpp:106] Creating Layer pool2
I0604 12:55:40.232882 27734 net.cpp:454] pool2 <- conv2
I0604 12:55:40.232889 27734 net.cpp:411] pool2 -> pool2
I0604 12:55:40.233098 27734 net.cpp:150] Setting up pool2
I0604 12:55:40.233108 27734 net.cpp:157] Top shape: 256 256 7 7 (3211264)
I0604 12:55:40.233110 27734 net.cpp:165] Memory required for data: 816415744
I0604 12:55:40.233114 27734 layer_factory.hpp:76] Creating layer conv3
I0604 12:55:40.233125 27734 net.cpp:106] Creating Layer conv3
I0604 12:55:40.233130 27734 net.cpp:454] conv3 <- pool2
I0604 12:55:40.233136 27734 net.cpp:411] conv3 -> conv3
I0604 12:55:40.263926 27734 net.cpp:150] Setting up conv3
I0604 12:55:40.263957 27734 net.cpp:157] Top shape: 256 384 7 7 (4816896)
I0604 12:55:40.263962 27734 net.cpp:165] Memory required for data: 835683328
I0604 12:55:40.263975 27734 layer_factory.hpp:76] Creating layer relu3
I0604 12:55:40.263994 27734 net.cpp:106] Creating Layer relu3
I0604 12:55:40.263999 27734 net.cpp:454] relu3 <- conv3
I0604 12:55:40.264011 27734 net.cpp:397] relu3 -> conv3 (in-place)
I0604 12:55:40.264333 27734 net.cpp:150] Setting up relu3
I0604 12:55:40.264346 27734 net.cpp:157] Top shape: 256 384 7 7 (4816896)
I0604 12:55:40.264356 27734 net.cpp:165] Memory required for data: 854950912
I0604 12:55:40.264360 27734 layer_factory.hpp:76] Creating layer conv4
I0604 12:55:40.264379 27734 net.cpp:106] Creating Layer conv4
I0604 12:55:40.264382 27734 net.cpp:454] conv4 <- conv3
I0604 12:55:40.264390 27734 net.cpp:411] conv4 -> conv4
I0604 12:55:40.288681 27734 net.cpp:150] Setting up conv4
I0604 12:55:40.288717 27734 net.cpp:157] Top shape: 256 384 7 7 (4816896)
I0604 12:55:40.288722 27734 net.cpp:165] Memory required for data: 874218496
I0604 12:55:40.288732 27734 layer_factory.hpp:76] Creating layer relu4
I0604 12:55:40.288743 27734 net.cpp:106] Creating Layer relu4
I0604 12:55:40.288750 27734 net.cpp:454] relu4 <- conv4
I0604 12:55:40.288756 27734 net.cpp:397] relu4 -> conv4 (in-place)
I0604 12:55:40.289083 27734 net.cpp:150] Setting up relu4
I0604 12:55:40.289134 27734 net.cpp:157] Top shape: 256 384 7 7 (4816896)
I0604 12:55:40.289137 27734 net.cpp:165] Memory required for data: 893486080
I0604 12:55:40.289142 27734 layer_factory.hpp:76] Creating layer conv5
I0604 12:55:40.289155 27734 net.cpp:106] Creating Layer conv5
I0604 12:55:40.289157 27734 net.cpp:454] conv5 <- conv4
I0604 12:55:40.289167 27734 net.cpp:411] conv5 -> conv5
I0604 12:55:40.305762 27734 net.cpp:150] Setting up conv5
I0604 12:55:40.305779 27734 net.cpp:157] Top shape: 256 256 7 7 (3211264)
I0604 12:55:40.305786 27734 net.cpp:165] Memory required for data: 906331136
I0604 12:55:40.305794 27734 layer_factory.hpp:76] Creating layer relu5
I0604 12:55:40.305805 27734 net.cpp:106] Creating Layer relu5
I0604 12:55:40.305809 27734 net.cpp:454] relu5 <- conv5
I0604 12:55:40.305815 27734 net.cpp:397] relu5 -> conv5 (in-place)
I0604 12:55:40.306125 27734 net.cpp:150] Setting up relu5
I0604 12:55:40.306138 27734 net.cpp:157] Top shape: 256 256 7 7 (3211264)
I0604 12:55:40.306143 27734 net.cpp:165] Memory required for data: 919176192
I0604 12:55:40.306146 27734 layer_factory.hpp:76] Creating layer pool5
I0604 12:55:40.306159 27734 net.cpp:106] Creating Layer pool5
I0604 12:55:40.306162 27734 net.cpp:454] pool5 <- conv5
I0604 12:55:40.306169 27734 net.cpp:411] pool5 -> pool5
I0604 12:55:40.306387 27734 net.cpp:150] Setting up pool5
I0604 12:55:40.306397 27734 net.cpp:157] Top shape: 256 256 3 3 (589824)
I0604 12:55:40.306401 27734 net.cpp:165] Memory required for data: 921535488
I0604 12:55:40.306403 27734 layer_factory.hpp:76] Creating layer fc6
I0604 12:55:40.306413 27734 net.cpp:106] Creating Layer fc6
I0604 12:55:40.306419 27734 net.cpp:454] fc6 <- pool5
I0604 12:55:40.306426 27734 net.cpp:411] fc6 -> fc6
I0604 12:55:40.462687 27734 net.cpp:150] Setting up fc6
I0604 12:55:40.462713 27734 net.cpp:157] Top shape: 256 2048 (524288)
I0604 12:55:40.462716 27734 net.cpp:165] Memory required for data: 923632640
I0604 12:55:40.462726 27734 layer_factory.hpp:76] Creating layer relu6
I0604 12:55:40.462750 27734 net.cpp:106] Creating Layer relu6
I0604 12:55:40.462755 27734 net.cpp:454] relu6 <- fc6
I0604 12:55:40.462761 27734 net.cpp:397] relu6 -> fc6 (in-place)
I0604 12:55:40.463111 27734 net.cpp:150] Setting up relu6
I0604 12:55:40.463121 27734 net.cpp:157] Top shape: 256 2048 (524288)
I0604 12:55:40.463136 27734 net.cpp:165] Memory required for data: 925729792
I0604 12:55:40.463140 27734 layer_factory.hpp:76] Creating layer drop6
I0604 12:55:40.463147 27734 net.cpp:106] Creating Layer drop6
I0604 12:55:40.463151 27734 net.cpp:454] drop6 <- fc6
I0604 12:55:40.463155 27734 net.cpp:397] drop6 -> fc6 (in-place)
I0604 12:55:40.463181 27734 net.cpp:150] Setting up drop6
I0604 12:55:40.463187 27734 net.cpp:157] Top shape: 256 2048 (524288)
I0604 12:55:40.463201 27734 net.cpp:165] Memory required for data: 927826944
I0604 12:55:40.463204 27734 layer_factory.hpp:76] Creating layer fc7
I0604 12:55:40.463215 27734 net.cpp:106] Creating Layer fc7
I0604 12:55:40.463218 27734 net.cpp:454] fc7 <- fc6
I0604 12:55:40.463224 27734 net.cpp:411] fc7 -> fc7
I0604 12:55:40.579713 27734 net.cpp:150] Setting up fc7
I0604 12:55:40.579748 27734 net.cpp:157] Top shape: 256 2048 (524288)
I0604 12:55:40.579751 27734 net.cpp:165] Memory required for data: 929924096
I0604 12:55:40.579766 27734 layer_factory.hpp:76] Creating layer relu7
I0604 12:55:40.579774 27734 net.cpp:106] Creating Layer relu7
I0604 12:55:40.579777 27734 net.cpp:454] relu7 <- fc7
I0604 12:55:40.579784 27734 net.cpp:397] relu7 -> fc7 (in-place)
I0604 12:55:40.579991 27734 net.cpp:150] Setting up relu7
I0604 12:55:40.579999 27734 net.cpp:157] Top shape: 256 2048 (524288)
I0604 12:55:40.580003 27734 net.cpp:165] Memory required for data: 932021248
I0604 12:55:40.580005 27734 layer_factory.hpp:76] Creating layer drop7
I0604 12:55:40.580011 27734 net.cpp:106] Creating Layer drop7
I0604 12:55:40.580015 27734 net.cpp:454] drop7 <- fc7
I0604 12:55:40.580021 27734 net.cpp:397] drop7 -> fc7 (in-place)
I0604 12:55:40.580041 27734 net.cpp:150] Setting up drop7
I0604 12:55:40.580049 27734 net.cpp:157] Top shape: 256 2048 (524288)
I0604 12:55:40.580078 27734 net.cpp:165] Memory required for data: 934118400
I0604 12:55:40.580081 27734 layer_factory.hpp:76] Creating layer fc8
I0604 12:55:40.580088 27734 net.cpp:106] Creating Layer fc8
I0604 12:55:40.580092 27734 net.cpp:454] fc8 <- fc7
I0604 12:55:40.580098 27734 net.cpp:411] fc8 -> fc8
I0604 12:55:40.637192 27734 net.cpp:150] Setting up fc8
I0604 12:55:40.637205 27734 net.cpp:157] Top shape: 256 1000 (256000)
I0604 12:55:40.637207 27734 net.cpp:165] Memory required for data: 935142400
I0604 12:55:40.637214 27734 layer_factory.hpp:76] Creating layer loss
I0604 12:55:40.637222 27734 net.cpp:106] Creating Layer loss
I0604 12:55:40.637225 27734 net.cpp:454] loss <- fc8
I0604 12:55:40.637240 27734 net.cpp:454] loss <- label
I0604 12:55:40.637249 27734 net.cpp:411] loss -> loss
I0604 12:55:40.637259 27734 layer_factory.hpp:76] Creating layer loss
…
I0604 12:55:40.638625 27734 net.cpp:322] The NetState phase (1) differed from the phase (0) specified by a rule in layer data
I0604 12:55:40.638948 27734 net.cpp:49] Initializing net from parameters: 
name: "CaffeNet"
state {
  phase: TEST
}
layer {
  name: "data"
  type: "Data"
  top: "data"
  top: "label"
  include {
    phase: TEST
  }
  transform_param {
    scale: 0.04
    mirror: true
    crop_size: 128
    mean_value: 104
    mean_value: 117
    mean_value: 124
    force_color: true
  }
  data_param {
    source: "/local/temporary/imagenet144pxlmdb/ilsvrc12_128_val_lmdb"
    batch_size: 50
    backend: LMDB
  }
}
layer {
  name: "data_conv1"
  type: "Convolution"
  bottom: "data"
  top: "data_conv1"
  param {
    lr_mult: 1
    decay_mult: 1
  }
  param {
    lr_mult: 2
    decay_mult: 0
  }
  convolution_param {
    num_output: 10
    kernel_size: 1
    weight_filler {
      type: "gaussian"
      std: 0.01
    }
    bias_filler {
      type: "constant"
    }
  }
}
layer {
  name: "data_conv1_tanh"
  type: "ELU"
  bottom: "data_conv1"
  top: "data_conv1_tanh"
  elu_param {
    alpha: 1
  }
}
layer {
  name: "data_conv2"
  type: "Convolution"
  bottom: "data_conv1_tanh"
  top: "data_conv2"
  param {
    lr_mult: 1
    decay_mult: 1
  }
  param {
    lr_mult: 2
    decay_mult: 0
  }
  convolution_param {
    num_output: 3
    kernel_size: 1
    weight_filler {
      type: "gaussian"
      std: 0.01
    }
    bias_filler {
      type: "constant"
    }
  }
}
layer {
  name: "data_conv2_tanh"
  type: "ELU"
  bottom: "data_conv2"
  top: "data_conv2_tanh"
  elu_param {
    alpha: 1
  }
}
layer {
  name: "conv1"
  type: "Convolution"
  bottom: "data_conv2_tanh"
  top: "conv1"
  param {
    lr_mult: 1
    decay_mult: 1
  }
  param {
    lr_mult: 2
    decay_mult: 0
  }
  convolution_param {
    num_output: 96
    kernel_size: 11
    stride: 4
    weight_filler {
      type: "gaussian"
      std: 0.01
    }
    bias_filler {
      type: "constant"
    }
  }
}
layer {
  name: "relu1"
  type: "ReLU"
  bottom: "conv1"
  top: "relu1"
}
layer {
  name: "pool1"
  type: "Pooling"
  bottom: "relu1"
  top: "pool1"
  pooling_param {
    pool: MAX
    kernel_size: 3
    stride: 2
  }
}
layer {
  name: "conv2"
  type: "Convolution"
  bottom: "pool1"
  top: "conv2"
  param {
    lr_mult: 1
    decay_mult: 1
  }
  param {
    lr_mult: 2
    decay_mult: 0
  }
  convolution_param {
    num_output: 256
    pad: 2
    kernel_size: 5
    group: 2
    weight_filler {
      type: "gaussian"
      std: 0.01
    }
    bias_filler {
      type: "constant"
    }
  }
}
layer {
  name: "relu2"
  type: "ReLU"
  bottom: "conv2"
  top: "conv2"
}
layer {
  name: "pool2"
  type: "Pooling"
  bottom: "conv2"
  top: "pool2"
  pooling_param {
    pool: MAX
    kernel_size: 3
    stride: 2
  }
}
layer {
  name: "conv3"
  type: "Convolution"
  bottom: "pool2"
  top: "conv3"
  param {
    lr_mult: 1
    decay_mult: 1
  }
  param {
    lr_mult: 2
    decay_mult: 0
  }
  convolution_param {
    num_output: 384
    pad: 1
    kernel_size: 3
    weight_filler {
      type: "gaussian"
      std: 0.01
    }
    bias_filler {
      type: "constant"
    }
  }
}
layer {
  name: "relu3"
  type: "ReLU"
  bottom: "conv3"
  top: "conv3"
}
layer {
  name: "conv4"
  type: "Convolution"
  bottom: "conv3"
  top: "conv4"
  param {
    lr_mult: 1
    decay_mult: 1
  }
  param {
    lr_mult: 2
    decay_mult: 0
  }
  convolution_param {
    num_output: 384
    pad: 1
    kernel_size: 3
    group: 2
    weight_filler {
      type: "gaussian"
      std: 0.01
    }
    bias_filler {
      type: "constant"
    }
  }
}
layer {
  name: "relu4"
  type: "ReLU"
  bottom: "conv4"
  top: "conv4"
}
layer {
  name: "conv5"
  type: "Convolution"
  bottom: "conv4"
  top: "conv5"
  param {
    lr_mult: 1
    decay_mult: 1
  }
  param {
    lr_mult: 2
    decay_mult: 0
  }
  convolution_param {
    num_output: 256
    pad: 1
    kernel_size: 3
    group: 2
    weight_filler {
      type: "gaussian"
      std: 0.01
    }
    bias_filler {
      type: "constant"
    }
  }
}
layer {
  name: "relu5"
  type: "ReLU"
  bottom: "conv5"
  top: "conv5"
}
layer {
  name: "pool5"
  type: "Pooling"
  bottom: "conv5"
  top: "pool5"
  pooling_param {
    pool: MAX
    kernel_size: 3
    stride: 2
  }
}
layer {
  name: "fc6"
  type: "InnerProduct"
  bottom: "pool5"
  top: "fc6"
  param {
    lr_mult: 1
    decay_mult: 1
  }
  param {
    lr_mult: 2
    decay_mult: 0
  }
  inner_product_param {
    num_output: 2048
    weight_filler {
      type: "gaussian"
      std: 0.005
    }
    bias_filler {
      type: "constant"
    }
  }
}
layer {
  name: "relu6"
  type: "ReLU"
  bottom: "fc6"
  top: "fc6"
}
layer {
  name: "drop6"
  type: "Dropout"
  bottom: "fc6"
  top: "fc6"
  dropout_param {
    dropout_ratio: 0.5
  }
}
layer {
  name: "fc7"
  type: "InnerProduct"
  bottom: "fc6"
  top: "fc7"
  param {
    lr_mult: 1
    decay_mult: 1
  }
  param {
    lr_mult: 2
    decay_mult: 0
  }
  inner_product_param {
    num_output: 2048
    weight_filler {
      type: "gaussian"
      std: 0.005
    }
    bias_filler {
      type: "constant"
    }
  }
}
layer {
  name: "relu7"
  type: "ReLU"
  bottom: "fc7"
  top: "fc7"
}
layer {
  name: "drop7"
  type: "Dropout"
  bottom: "fc7"
  top: "fc7"
  dropout_param {
    dropout_ratio: 0.5
  }
}
layer {
  name: "fc8"
  type: "InnerProduct"
  bottom: "fc7"
  top: "fc8"
  param {
    lr_mult: 1
    decay_mult: 1
  }
  param {
    lr_mult: 2
    decay_mult: 0
  }
  inner_product_param {
    num_output: 1000
    weight_filler {
      type: "gaussian"
      std: 0.01
    }
    bias_filler {
      type: "constant"
    }
  }
}
layer {
  name: "accuracy"
  type: "Accuracy"
  bottom: "fc8"
  bottom: "label"
  top: "accuracy"
  include {
    phase: TEST
  }
}
layer {
  name: "loss"
  type: "SoftmaxWithLoss"
  bottom: "fc8"
  bottom: "label"
  top: "loss"
}
I0604 12:55:40.639117 27734 layer_factory.hpp:76] Creating layer data
I0604 12:55:40.639221 27734 net.cpp:106] Creating Layer data
I0604 12:55:40.639242 27734 net.cpp:411] data -> data
I0604 12:55:40.639253 27734 net.cpp:411] data -> label
I0604 12:55:40.640229 27776 db_lmdb.cpp:38] Opened lmdb /local/temporary/imagenet144pxlmdb/ilsvrc12_128_val_lmdb
I0604 12:55:40.641010 27734 data_layer.cpp:41] output data size: 50,3,128,128
I0604 12:55:40.656882 27734 net.cpp:150] Setting up data
I0604 12:55:40.656908 27734 net.cpp:157] Top shape: 50 3 128 128 (2457600)
I0604 12:55:40.656913 27734 net.cpp:157] Top shape: 50 (50)
I0604 12:55:40.656915 27734 net.cpp:165] Memory required for data: 9830600
I0604 12:55:40.656921 27734 layer_factory.hpp:76] Creating layer label_data_1_split
I0604 12:55:40.656947 27734 net.cpp:106] Creating Layer label_data_1_split
I0604 12:55:40.656950 27734 net.cpp:454] label_data_1_split <- label
I0604 12:55:40.656957 27734 net.cpp:411] label_data_1_split -> label_data_1_split_0
I0604 12:55:40.656970 27734 net.cpp:411] label_data_1_split -> label_data_1_split_1
I0604 12:55:40.657021 27734 net.cpp:150] Setting up label_data_1_split
I0604 12:55:40.657028 27734 net.cpp:157] Top shape: 50 (50)
I0604 12:55:40.657032 27734 net.cpp:157] Top shape: 50 (50)
I0604 12:55:40.657035 27734 net.cpp:165] Memory required for data: 9831000
I0604 12:55:40.657038 27734 layer_factory.hpp:76] Creating layer data_conv1
I0604 12:55:40.657061 27734 net.cpp:106] Creating Layer data_conv1
I0604 12:55:40.657064 27734 net.cpp:454] data_conv1 <- data
I0604 12:55:40.657069 27734 net.cpp:411] data_conv1 -> data_conv1
I0604 12:55:40.658216 27734 net.cpp:150] Setting up data_conv1
I0604 12:55:40.658241 27734 net.cpp:157] Top shape: 50 10 128 128 (8192000)
I0604 12:55:40.658244 27734 net.cpp:165] Memory required for data: 42599000
I0604 12:55:40.658255 27734 layer_factory.hpp:76] Creating layer data_conv1_tanh
I0604 12:55:40.658263 27734 net.cpp:106] Creating Layer data_conv1_tanh
I0604 12:55:40.658279 27734 net.cpp:454] data_conv1_tanh <- data_conv1
I0604 12:55:40.658296 27734 net.cpp:411] data_conv1_tanh -> data_conv1_tanh
I0604 12:55:40.658324 27734 net.cpp:150] Setting up data_conv1_tanh
I0604 12:55:40.658331 27734 net.cpp:157] Top shape: 50 10 128 128 (8192000)
I0604 12:55:40.658334 27734 net.cpp:165] Memory required for data: 75367000
I0604 12:55:40.658337 27734 layer_factory.hpp:76] Creating layer data_conv2
I0604 12:55:40.658350 27734 net.cpp:106] Creating Layer data_conv2
I0604 12:55:40.658354 27734 net.cpp:454] data_conv2 <- data_conv1_tanh
I0604 12:55:40.658360 27734 net.cpp:411] data_conv2 -> data_conv2
I0604 12:55:40.660859 27734 net.cpp:150] Setting up data_conv2
I0604 12:55:40.660883 27734 net.cpp:157] Top shape: 50 3 128 128 (2457600)
I0604 12:55:40.660887 27734 net.cpp:165] Memory required for data: 85197400
I0604 12:55:40.660897 27734 layer_factory.hpp:76] Creating layer data_conv2_tanh
I0604 12:55:40.660905 27734 net.cpp:106] Creating Layer data_conv2_tanh
I0604 12:55:40.660933 27734 net.cpp:454] data_conv2_tanh <- data_conv2
I0604 12:55:40.660939 27734 net.cpp:411] data_conv2_tanh -> data_conv2_tanh
I0604 12:55:40.660981 27734 net.cpp:150] Setting up data_conv2_tanh
I0604 12:55:40.660989 27734 net.cpp:157] Top shape: 50 3 128 128 (2457600)
I0604 12:55:40.660991 27734 net.cpp:165] Memory required for data: 95027800
I0604 12:55:40.660995 27734 layer_factory.hpp:76] Creating layer conv1
I0604 12:55:40.661003 27734 net.cpp:106] Creating Layer conv1
I0604 12:55:40.661006 27734 net.cpp:454] conv1 <- data_conv2_tanh
I0604 12:55:40.661013 27734 net.cpp:411] conv1 -> conv1
I0604 12:55:40.662932 27734 net.cpp:150] Setting up conv1
I0604 12:55:40.662943 27734 net.cpp:157] Top shape: 50 96 30 30 (4320000)
I0604 12:55:40.662947 27734 net.cpp:165] Memory required for data: 112307800
I0604 12:55:40.662967 27734 layer_factory.hpp:76] Creating layer relu1
I0604 12:55:40.662986 27734 net.cpp:106] Creating Layer relu1
I0604 12:55:40.662988 27734 net.cpp:454] relu1 <- conv1
I0604 12:55:40.662994 27734 net.cpp:411] relu1 -> relu1
I0604 12:55:40.663305 27734 net.cpp:150] Setting up relu1
I0604 12:55:40.663317 27734 net.cpp:157] Top shape: 50 96 30 30 (4320000)
I0604 12:55:40.663321 27734 net.cpp:165] Memory required for data: 129587800
I0604 12:55:40.663323 27734 layer_factory.hpp:76] Creating layer pool1
I0604 12:55:40.663332 27734 net.cpp:106] Creating Layer pool1
I0604 12:55:40.663337 27734 net.cpp:454] pool1 <- relu1
I0604 12:55:40.663342 27734 net.cpp:411] pool1 -> pool1
I0604 12:55:40.663693 27734 net.cpp:150] Setting up pool1
I0604 12:55:40.663717 27734 net.cpp:157] Top shape: 50 96 15 15 (1080000)
I0604 12:55:40.663720 27734 net.cpp:165] Memory required for data: 133907800
I0604 12:55:40.663723 27734 layer_factory.hpp:76] Creating layer conv2
I0604 12:55:40.663732 27734 net.cpp:106] Creating Layer conv2
I0604 12:55:40.663734 27734 net.cpp:454] conv2 <- pool1
I0604 12:55:40.663753 27734 net.cpp:411] conv2 -> conv2
I0604 12:55:40.674475 27734 net.cpp:150] Setting up conv2
I0604 12:55:40.674487 27734 net.cpp:157] Top shape: 50 256 15 15 (2880000)
I0604 12:55:40.674502 27734 net.cpp:165] Memory required for data: 145427800
I0604 12:55:40.674509 27734 layer_factory.hpp:76] Creating layer relu2
I0604 12:55:40.674515 27734 net.cpp:106] Creating Layer relu2
I0604 12:55:40.674517 27734 net.cpp:454] relu2 <- conv2
I0604 12:55:40.674525 27734 net.cpp:397] relu2 -> conv2 (in-place)
I0604 12:55:40.674818 27734 net.cpp:150] Setting up relu2
I0604 12:55:40.674829 27734 net.cpp:157] Top shape: 50 256 15 15 (2880000)
I0604 12:55:40.674832 27734 net.cpp:165] Memory required for data: 156947800
I0604 12:55:40.674835 27734 layer_factory.hpp:76] Creating layer pool2
I0604 12:55:40.674844 27734 net.cpp:106] Creating Layer pool2
I0604 12:55:40.674849 27734 net.cpp:454] pool2 <- conv2
I0604 12:55:40.674854 27734 net.cpp:411] pool2 -> pool2
I0604 12:55:40.675051 27734 net.cpp:150] Setting up pool2
I0604 12:55:40.675060 27734 net.cpp:157] Top shape: 50 256 7 7 (627200)
I0604 12:55:40.675063 27734 net.cpp:165] Memory required for data: 159456600
I0604 12:55:40.675066 27734 layer_factory.hpp:76] Creating layer conv3
I0604 12:55:40.675076 27734 net.cpp:106] Creating Layer conv3
I0604 12:55:40.675081 27734 net.cpp:454] conv3 <- pool2
I0604 12:55:40.675088 27734 net.cpp:411] conv3 -> conv3
I0604 12:55:40.701856 27734 net.cpp:150] Setting up conv3
I0604 12:55:40.701871 27734 net.cpp:157] Top shape: 50 384 7 7 (940800)
I0604 12:55:40.701874 27734 net.cpp:165] Memory required for data: 163219800
I0604 12:55:40.701884 27734 layer_factory.hpp:76] Creating layer relu3
I0604 12:55:40.701890 27734 net.cpp:106] Creating Layer relu3
I0604 12:55:40.701894 27734 net.cpp:454] relu3 <- conv3
I0604 12:55:40.701900 27734 net.cpp:397] relu3 -> conv3 (in-place)
I0604 12:55:40.702265 27734 net.cpp:150] Setting up relu3
I0604 12:55:40.702275 27734 net.cpp:157] Top shape: 50 384 7 7 (940800)
I0604 12:55:40.702280 27734 net.cpp:165] Memory required for data: 166983000
I0604 12:55:40.702283 27734 layer_factory.hpp:76] Creating layer conv4
I0604 12:55:40.702313 27734 net.cpp:106] Creating Layer conv4
I0604 12:55:40.702318 27734 net.cpp:454] conv4 <- conv3
I0604 12:55:40.702325 27734 net.cpp:411] conv4 -> conv4
I0604 12:55:40.728807 27734 net.cpp:150] Setting up conv4
I0604 12:55:40.728822 27734 net.cpp:157] Top shape: 50 384 7 7 (940800)
I0604 12:55:40.728827 27734 net.cpp:165] Memory required for data: 170746200
I0604 12:55:40.728845 27734 layer_factory.hpp:76] Creating layer relu4
I0604 12:55:40.728853 27734 net.cpp:106] Creating Layer relu4
I0604 12:55:40.728857 27734 net.cpp:454] relu4 <- conv4
I0604 12:55:40.728862 27734 net.cpp:397] relu4 -> conv4 (in-place)
I0604 12:55:40.729167 27734 net.cpp:150] Setting up relu4
I0604 12:55:40.729178 27734 net.cpp:157] Top shape: 50 384 7 7 (940800)
I0604 12:55:40.729193 27734 net.cpp:165] Memory required for data: 174509400
I0604 12:55:40.729197 27734 layer_factory.hpp:76] Creating layer conv5
I0604 12:55:40.729209 27734 net.cpp:106] Creating Layer conv5
I0604 12:55:40.729212 27734 net.cpp:454] conv5 <- conv4
I0604 12:55:40.729219 27734 net.cpp:411] conv5 -> conv5
I0604 12:55:40.745359 27734 net.cpp:150] Setting up conv5
I0604 12:55:40.745373 27734 net.cpp:157] Top shape: 50 256 7 7 (627200)
I0604 12:55:40.745388 27734 net.cpp:165] Memory required for data: 177018200
I0604 12:55:40.745394 27734 layer_factory.hpp:76] Creating layer relu5
I0604 12:55:40.745401 27734 net.cpp:106] Creating Layer relu5
I0604 12:55:40.745405 27734 net.cpp:454] relu5 <- conv5
I0604 12:55:40.745410 27734 net.cpp:397] relu5 -> conv5 (in-place)
I0604 12:55:40.745720 27734 net.cpp:150] Setting up relu5
I0604 12:55:40.745731 27734 net.cpp:157] Top shape: 50 256 7 7 (627200)
I0604 12:55:40.745746 27734 net.cpp:165] Memory required for data: 179527000
I0604 12:55:40.745749 27734 layer_factory.hpp:76] Creating layer pool5
I0604 12:55:40.745759 27734 net.cpp:106] Creating Layer pool5
I0604 12:55:40.745761 27734 net.cpp:454] pool5 <- conv5
I0604 12:55:40.745766 27734 net.cpp:411] pool5 -> pool5
I0604 12:55:40.745977 27734 net.cpp:150] Setting up pool5
I0604 12:55:40.745986 27734 net.cpp:157] Top shape: 50 256 3 3 (115200)
I0604 12:55:40.745990 27734 net.cpp:165] Memory required for data: 179987800
I0604 12:55:40.745992 27734 layer_factory.hpp:76] Creating layer fc6
I0604 12:55:40.746002 27734 net.cpp:106] Creating Layer fc6
I0604 12:55:40.746007 27734 net.cpp:454] fc6 <- pool5
I0604 12:55:40.746014 27734 net.cpp:411] fc6 -> fc6
I0604 12:55:40.886036 27734 net.cpp:150] Setting up fc6
I0604 12:55:40.886070 27734 net.cpp:157] Top shape: 50 2048 (102400)
I0604 12:55:40.886073 27734 net.cpp:165] Memory required for data: 180397400
I0604 12:55:40.886082 27734 layer_factory.hpp:76] Creating layer relu6
I0604 12:55:40.886091 27734 net.cpp:106] Creating Layer relu6
I0604 12:55:40.886095 27734 net.cpp:454] relu6 <- fc6
I0604 12:55:40.886101 27734 net.cpp:397] relu6 -> fc6 (in-place)
I0604 12:55:40.886550 27734 net.cpp:150] Setting up relu6
I0604 12:55:40.886560 27734 net.cpp:157] Top shape: 50 2048 (102400)
I0604 12:55:40.886575 27734 net.cpp:165] Memory required for data: 180807000
I0604 12:55:40.886579 27734 layer_factory.hpp:76] Creating layer drop6
I0604 12:55:40.886585 27734 net.cpp:106] Creating Layer drop6
I0604 12:55:40.886590 27734 net.cpp:454] drop6 <- fc6
I0604 12:55:40.886595 27734 net.cpp:397] drop6 -> fc6 (in-place)
I0604 12:55:40.886627 27734 net.cpp:150] Setting up drop6
I0604 12:55:40.886633 27734 net.cpp:157] Top shape: 50 2048 (102400)
I0604 12:55:40.886639 27734 net.cpp:165] Memory required for data: 181216600
I0604 12:55:40.886642 27734 layer_factory.hpp:76] Creating layer fc7
I0604 12:55:40.886649 27734 net.cpp:106] Creating Layer fc7
I0604 12:55:40.886653 27734 net.cpp:454] fc7 <- fc6
I0604 12:55:40.886661 27734 net.cpp:411] fc7 -> fc7
I0604 12:55:41.009318 27734 net.cpp:150] Setting up fc7
I0604 12:55:41.009353 27734 net.cpp:157] Top shape: 50 2048 (102400)
I0604 12:55:41.009356 27734 net.cpp:165] Memory required for data: 181626200
I0604 12:55:41.009371 27734 layer_factory.hpp:76] Creating layer relu7
I0604 12:55:41.009380 27734 net.cpp:106] Creating Layer relu7
I0604 12:55:41.009413 27734 net.cpp:454] relu7 <- fc7
I0604 12:55:41.009419 27734 net.cpp:397] relu7 -> fc7 (in-place)
I0604 12:55:41.009652 27734 net.cpp:150] Setting up relu7
I0604 12:55:41.009661 27734 net.cpp:157] Top shape: 50 2048 (102400)
I0604 12:55:41.009665 27734 net.cpp:165] Memory required for data: 182035800
I0604 12:55:41.009668 27734 layer_factory.hpp:76] Creating layer drop7
I0604 12:55:41.009676 27734 net.cpp:106] Creating Layer drop7
I0604 12:55:41.009680 27734 net.cpp:454] drop7 <- fc7
I0604 12:55:41.009685 27734 net.cpp:397] drop7 -> fc7 (in-place)
I0604 12:55:41.009716 27734 net.cpp:150] Setting up drop7
I0604 12:55:41.009721 27734 net.cpp:157] Top shape: 50 2048 (102400)
I0604 12:55:41.009723 27734 net.cpp:165] Memory required for data: 182445400
I0604 12:55:41.009727 27734 layer_factory.hpp:76] Creating layer fc8
I0604 12:55:41.009734 27734 net.cpp:106] Creating Layer fc8
I0604 12:55:41.009738 27734 net.cpp:454] fc8 <- fc7
I0604 12:55:41.009743 27734 net.cpp:411] fc8 -> fc8
I0604 12:55:41.069509 27734 net.cpp:150] Setting up fc8
I0604 12:55:41.069521 27734 net.cpp:157] Top shape: 50 1000 (50000)
I0604 12:55:41.069525 27734 net.cpp:165] Memory required for data: 182645400
I0604 12:55:41.069530 27734 layer_factory.hpp:76] Creating layer fc8_fc8_0_split
I0604 12:55:41.069551 27734 net.cpp:106] Creating Layer fc8_fc8_0_split
I0604 12:55:41.069555 27734 net.cpp:454] fc8_fc8_0_split <- fc8
I0604 12:55:41.069571 27734 net.cpp:411] fc8_fc8_0_split -> fc8_fc8_0_split_0
I0604 12:55:41.069577 27734 net.cpp:411] fc8_fc8_0_split -> fc8_fc8_0_split_1
I0604 12:55:41.069619 27734 net.cpp:150] Setting up fc8_fc8_0_split
I0604 12:55:41.069625 27734 net.cpp:157] Top shape: 50 1000 (50000)
I0604 12:55:41.069629 27734 net.cpp:157] Top shape: 50 1000 (50000)
I0604 12:55:41.069631 27734 net.cpp:165] Memory required for data: 183045400
I0604 12:55:41.069636 27734 layer_factory.hpp:76] Creating layer accuracy
I0604 12:55:41.069643 27734 net.cpp:106] Creating Layer accuracy
I0604 12:55:41.069646 27734 net.cpp:454] accuracy <- fc8_fc8_0_split_0
I0604 12:55:41.069649 27734 net.cpp:454] accuracy <- label_data_1_split_0
I0604 12:55:41.069656 27734 net.cpp:411] accuracy -> accuracy
…
