…
      phase: TEST
    }
    transform_param {
      mirror: false
      crop_size: 128
      force_color: true
      resize_param {
        prob: 1
        resize_mode: FIT_SMALL_SIZE
        height: 144
        width: 144
        pad_mode: MIRRORED
        interp_mode: LINEAR
        center_object: false
        max_angle: 0
      }
      noise_param {
        prob: 1
        convert_to_ycrcb: true
      }
    }
    data_param {
      source: "/home/share/storage/datasets/imagenet/lmdb/ilsvrc12_val_lmdb"
      batch_size: 50
      backend: LMDB
    }
  }
  layer {
    name: "data_lab_BN"
    type: "BatchNorm"
    bottom: "data"
    top: "data_lab_BN"
    param {
      lr_mult: 0
      decay_mult: 0
    }
    param {
      lr_mult: 0
      decay_mult: 0
    }
    param {
      lr_mult: 0
      decay_mult: 0
    }
    include {
      phase: TRAIN
    }
    batch_norm_param {
      use_global_stats: false
      moving_average_fraction: 0.95
    }
  }
  layer {
    name: "data_lab_BN"
    type: "BatchNorm"
    bottom: "data"
    top: "data_lab_BN"
    param {
      lr_mult: 0
      decay_mult: 0
    }
    param {
      lr_mult: 0
      decay_mult: 0
    }
    param {
      lr_mult: 0
      decay_mult: 0
    }
    include {
      phase: TEST
    }
    batch_norm_param {
      use_global_stats: true
      moving_average_fraction: 0.95
    }
  }
  layer {
    name: "conv1"
    type: "Convolution"
    bottom: "data_lab_BN"
    top: "conv1"
    param {
      lr_mult: 1
      decay_mult: 1
    }
    param {
      lr_mult: 2
      decay_mult: 0
    }
    convolution_param {
      num_output: 96
      kernel_size: 11
      stride: 4
      weight_filler {
        type: "gaussian"
        std: 0.01
      }
      bias_filler {
        type: "constant"
      }
    }
  }
  layer {
    name: "relu1"
    type: "ReLU"
    bottom: "conv1"
    top: "relu1"
  }
  layer {
    name: "pool1"
    type: "Pooling"
    bottom: "relu1"
    top: "pool1"
    pooling_param {
      pool: MAX
      kernel_size: 3
      stride: 2
    }
  }
  layer {
    name: "conv2"
    type: "Convolution"
    bottom: "pool1"
    top: "conv2"
    param {
      lr_mult: 1
      decay_mult: 1
    }
    param {
      lr_mult: 2
      decay_mult: 0
    }
    convolution_param {
      num_output: 256
      pad: 2
      kernel_size: 5
      group: 2
      weight_filler {
        type: "gaussian"
        std: 0.01
      }
      bias_filler {
        type: "constant"
      }
    }
  }
  layer {
    name: "relu2"
    type: "ReLU"
    bottom: "conv2"
    top: "relu2"
  }
  layer {
    name: "pool2"
    type: "Pooling"
    bottom: "relu2"
    top: "pool2"
    pooling_param {
      pool: MAX
      kernel_size: 3
      stride: 2
    }
  }
  layer {
    name: "conv3"
    type: "Convolution"
    bottom: "pool2"
    top: "conv3"
    param {
      lr_mult: 1
      decay_mult: 1
    }
    param {
      lr_mult: 2
      decay_mult: 0
    }
    convolution_param {
      num_output: 384
      pad: 1
      kernel_size: 3
      weight_filler {
        type: "gaussian"
        std: 0.01
      }
      bias_filler {
        type: "constant"
      }
    }
  }
  layer {
    name: "relu3"
    type: "ReLU"
    bottom: "conv3"
    top: "relu3"
  }
  layer {
    name: "conv4"
    type: "Convolution"
    bottom: "relu3"
    top: "conv4"
    param {
      lr_mult: 1
      decay_mult: 1
    }
    param {
      lr_mult: 2
      decay_mult: 0
    }
    convolution_param {
      num_output: 384
      pad: 1
      kernel_size: 3
      group: 2
      weight_filler {
        type: "gaussian"
        std: 0.01
      }
      bias_filler {
        type: "constant"
      }
    }
  }
  layer {
    name: "relu4"
    type: "ReLU"
    bottom: "conv4"
    top: "relu4"
  }
  layer {
    name: "conv5"
    type: "Convolution"
    bottom: "relu4"
    top: "conv5"
    param {
      lr_mult: 1
      decay_mult: 1
    }
    param {
      lr_mult: 2
      decay_mult: 0
    }
    convolution_param {
      num_output: 256
      pad: 1
      kernel_size: 3
      group: 2
      weight_filler {
        type: "gaussian"
        std: 0.01
      }
      bias_filler {
        type: "constant"
      }
    }
  }
  layer {
    name: "relu5"
    type: "ReLU"
    bottom: "conv5"
    top: "relu5"
  }
  layer {
    name: "pool5"
    type: "Pooling"
    bottom: "relu5"
    top: "pool5"
    pooling_param {
      pool: MAX
      kernel_size: 3
      stride: 2
    }
  }
  layer {
    name: "fc6"
    type: "InnerProduct"
    bottom: "pool5"
    top: "fc6"
    param {
      lr_mult: 1
      decay_mult: 1
    }
    param {
      lr_mult: 2
      decay_mult: 0
    }
    inner_product_param {
      num_output: 2048
      weight_filler {
        type: "gaussian"
        std: 0.005
      }
      bias_filler {
        type: "constant"
      }
    }
  }
  layer {
    name: "relu6"
    type: "ReLU"
    bottom: "fc6"
    top: "relu6"
  }
  layer {
    name: "drop6"
    type: "Dropout"
    bottom: "relu6"
    top: "drop6"
    dropout_param {
      dropout_ratio: 0.5
    }
  }
  layer {
    name: "fc7"
    type: "InnerProduct"
    bottom: "drop6"
    top: "fc7"
    param {
      lr_mult: 1
      decay_mult: 1
    }
    param {
      lr_mult: 2
      decay_mult: 0
    }
    inner_product_param {
      num_output: 2048
      weight_filler {
        type: "gaussian"
        std: 0.005
      }
      bias_filler {
        type: "constant"
      }
    }
  }
  layer {
    name: "relu7"
    type: "ReLU"
    bottom: "fc7"
    top: "relu7"
  }
  layer {
    name: "drop7"
    type: "Dropout"
    bottom: "relu7"
    top: "drop7"
    dropout_param {
      dropout_ratio: 0.5
    }
  }
  layer {
    name: "fc8"
    type: "InnerProduct"
    bottom: "drop7"
    top: "fc8"
    param {
      lr_mult: 1
      decay_mult: 1
    }
    param {
      lr_mult: 2
      decay_mult: 0
    }
    inner_product_param {
      num_output: 1000
      weight_filler {
        type: "gaussian"
        std: 0.01
      }
      bias_filler {
        type: "constant"
      }
    }
  }
  layer {
    name: "accuracy"
    type: "Accuracy"
    bottom: "fc8"
    bottom: "label"
    top: "accuracy"
    include {
      phase: TEST
    }
  }
  layer {
    name: "loss"
    type: "SoftmaxWithLoss"
    bottom: "fc8"
    bottom: "label"
    top: "loss"
  }
}
test_initialization: false
iter_size: 1
type: "SGD"
I0123 17:12:52.405876 29630 solver.cpp:86] Creating training net specified in net_param.
I0123 17:12:52.405943 29630 net.cpp:322] The NetState phase (0) differed from the phase (1) specified by a rule in layer data
I0123 17:12:52.405949 29630 net.cpp:322] The NetState phase (0) differed from the phase (1) specified by a rule in layer data_lab_BN
I0123 17:12:52.405959 29630 net.cpp:322] The NetState phase (0) differed from the phase (1) specified by a rule in layer accuracy
I0123 17:12:52.406070 29630 net.cpp:49] Initializing net from parameters: 
name: "CaffeNet"
state {
  phase: TRAIN
}
layer {
  name: "data"
  type: "Data"
  top: "data"
  top: "label"
  include {
    phase: TRAIN
  }
  transform_param {
    mirror: true
    crop_size: 128
    force_color: true
    resize_param {
      prob: 1
      resize_mode: FIT_SMALL_SIZE
      height: 144
      width: 144
      pad_mode: MIRRORED
      interp_mode: LINEAR
      center_object: false
      max_angle: 0
    }
    noise_param {
      prob: 1
      convert_to_ycrcb: true
    }
  }
  data_param {
    source: "/home/share/storage/datasets/imagenet/lmdb/ilsvrc12_train_lmdb"
    batch_size: 256
    backend: LMDB
  }
}
layer {
  name: "data_lab_BN"
  type: "BatchNorm"
  bottom: "data"
  top: "data_lab_BN"
  param {
    lr_mult: 0
    decay_mult: 0
  }
  param {
    lr_mult: 0
    decay_mult: 0
  }
  param {
    lr_mult: 0
    decay_mult: 0
  }
  include {
    phase: TRAIN
  }
  batch_norm_param {
    use_global_stats: false
    moving_average_fraction: 0.95
  }
}
layer {
  name: "conv1"
  type: "Convolution"
  bottom: "data_lab_BN"
  top: "conv1"
  param {
    lr_mult: 1
    decay_mult: 1
  }
  param {
    lr_mult: 2
    decay_mult: 0
  }
  convolution_param {
    num_output: 96
    kernel_size: 11
    stride: 4
    weight_filler {
      type: "gaussian"
      std: 0.01
    }
    bias_filler {
      type: "constant"
    }
  }
}
layer {
  name: "relu1"
  type: "ReLU"
  bottom: "conv1"
  top: "relu1"
}
layer {
  name: "pool1"
  type: "Pooling"
  bottom: "relu1"
  top: "pool1"
  pooling_param {
    pool: MAX
    kernel_size: 3
    stride: 2
  }
}
layer {
  name: "conv2"
  type: "Convolution"
  bottom: "pool1"
  top: "conv2"
  param {
    lr_mult: 1
    decay_mult: 1
  }
  param {
    lr_mult: 2
    decay_mult: 0
  }
  convolution_param {
    num_output: 256
    pad: 2
    kernel_size: 5
    group: 2
    weight_filler {
      type: "gaussian"
      std: 0.01
    }
    bias_filler {
      type: "constant"
    }
  }
}
layer {
  name: "relu2"
  type: "ReLU"
  bottom: "conv2"
  top: "relu2"
}
layer {
  name: "pool2"
  type: "Pooling"
  bottom: "relu2"
  top: "pool2"
  pooling_param {
    pool: MAX
    kernel_size: 3
    stride: 2
  }
}
layer {
  name: "conv3"
  type: "Convolution"
  bottom: "pool2"
  top: "conv3"
  param {
    lr_mult: 1
    decay_mult: 1
  }
  param {
    lr_mult: 2
    decay_mult: 0
  }
  convolution_param {
    num_output: 384
    pad: 1
    kernel_size: 3
    weight_filler {
      type: "gaussian"
      std: 0.01
    }
    bias_filler {
      type: "constant"
    }
  }
}
layer {
  name: "relu3"
  type: "ReLU"
  bottom: "conv3"
  top: "relu3"
}
layer {
  name: "conv4"
  type: "Convolution"
  bottom: "relu3"
  top: "conv4"
  param {
    lr_mult: 1
    decay_mult: 1
  }
  param {
    lr_mult: 2
    decay_mult: 0
  }
  convolution_param {
    num_output: 384
    pad: 1
    kernel_size: 3
    group: 2
    weight_filler {
      type: "gaussian"
      std: 0.01
    }
    bias_filler {
      type: "constant"
    }
  }
}
layer {
  name: "relu4"
  type: "ReLU"
  bottom: "conv4"
  top: "relu4"
}
layer {
  name: "conv5"
  type: "Convolution"
  bottom: "relu4"
  top: "conv5"
  param {
    lr_mult: 1
    decay_mult: 1
  }
  param {
    lr_mult: 2
    decay_mult: 0
  }
  convolution_param {
    num_output: 256
    pad: 1
    kernel_size: 3
    group: 2
    weight_filler {
      type: "gaussian"
      std: 0.01
    }
    bias_filler {
      type: "constant"
    }
  }
}
layer {
  name: "relu5"
  type: "ReLU"
  bottom: "conv5"
  top: "relu5"
}
layer {
  name: "pool5"
  type: "Pooling"
  bottom: "relu5"
  top: "pool5"
  pooling_param {
    pool: MAX
    kernel_size: 3
    stride: 2
  }
}
layer {
  name: "fc6"
  type: "InnerProduct"
  bottom: "pool5"
  top: "fc6"
  param {
    lr_mult: 1
    decay_mult: 1
  }
  param {
    lr_mult: 2
    decay_mult: 0
  }
  inner_product_param {
    num_output: 2048
    weight_filler {
      type: "gaussian"
      std: 0.005
    }
    bias_filler {
      type: "constant"
    }
  }
}
layer {
  name: "relu6"
  type: "ReLU"
  bottom: "fc6"
  top: "relu6"
}
layer {
  name: "drop6"
  type: "Dropout"
  bottom: "relu6"
  top: "drop6"
  dropout_param {
    dropout_ratio: 0.5
  }
}
layer {
  name: "fc7"
  type: "InnerProduct"
  bottom: "drop6"
  top: "fc7"
  param {
    lr_mult: 1
    decay_mult: 1
  }
  param {
    lr_mult: 2
    decay_mult: 0
  }
  inner_product_param {
    num_output: 2048
    weight_filler {
      type: "gaussian"
      std: 0.005
    }
    bias_filler {
      type: "constant"
    }
  }
}
layer {
  name: "relu7"
  type: "ReLU"
  bottom: "fc7"
  top: "relu7"
}
layer {
  name: "drop7"
  type: "Dropout"
  bottom: "relu7"
  top: "drop7"
  dropout_param {
    dropout_ratio: 0.5
  }
}
layer {
  name: "fc8"
  type: "InnerProduct"
  bottom: "drop7"
  top: "fc8"
  param {
    lr_mult: 1
    decay_mult: 1
  }
  param {
    lr_mult: 2
    decay_mult: 0
  }
  inner_product_param {
    num_output: 1000
    weight_filler {
      type: "gaussian"
      std: 0.01
    }
    bias_filler {
      type: "constant"
    }
  }
}
layer {
  name: "loss"
  type: "SoftmaxWithLoss"
  bottom: "fc8"
  bottom: "label"
  top: "loss"
}
I0123 17:12:52.406147 29630 layer_factory.hpp:76] Creating layer data
I0123 17:12:52.406643 29630 net.cpp:106] Creating Layer data
I0123 17:12:52.406653 29630 net.cpp:411] data -> data
I0123 17:12:52.406678 29630 net.cpp:411] data -> label
I0123 17:12:52.407923 29634 db_lmdb.cpp:38] Opened lmdb /home/share/storage/datasets/imagenet/lmdb/ilsvrc12_train_lmdb
I0123 17:12:52.417537 29630 data_layer.cpp:41] output data size: 256,3,128,128
I0123 17:12:52.493885 29630 net.cpp:150] Setting up data
I0123 17:12:52.493922 29630 net.cpp:157] Top shape: 256 3 128 128 (12582912)
I0123 17:12:52.493927 29630 net.cpp:157] Top shape: 256 (256)
I0123 17:12:52.493930 29630 net.cpp:165] Memory required for data: 50332672
I0123 17:12:52.493947 29630 layer_factory.hpp:76] Creating layer data_lab_BN
I0123 17:12:52.493963 29630 net.cpp:106] Creating Layer data_lab_BN
I0123 17:12:52.493968 29630 net.cpp:454] data_lab_BN <- data
I0123 17:12:52.493983 29630 net.cpp:411] data_lab_BN -> data_lab_BN
I0123 17:12:52.494555 29630 net.cpp:150] Setting up data_lab_BN
I0123 17:12:52.494565 29630 net.cpp:157] Top shape: 256 3 128 128 (12582912)
I0123 17:12:52.494575 29630 net.cpp:165] Memory required for data: 100664320
I0123 17:12:52.494606 29630 layer_factory.hpp:76] Creating layer conv1
I0123 17:12:52.494616 29630 net.cpp:106] Creating Layer conv1
I0123 17:12:52.494619 29630 net.cpp:454] conv1 <- data_lab_BN
I0123 17:12:52.494624 29630 net.cpp:411] conv1 -> conv1
I0123 17:12:52.626510 29630 net.cpp:150] Setting up conv1
I0123 17:12:52.626539 29630 net.cpp:157] Top shape: 256 96 30 30 (22118400)
I0123 17:12:52.626543 29630 net.cpp:165] Memory required for data: 189137920
I0123 17:12:52.626554 29630 layer_factory.hpp:76] Creating layer relu1
I0123 17:12:52.626574 29630 net.cpp:106] Creating Layer relu1
I0123 17:12:52.626576 29630 net.cpp:454] relu1 <- conv1
I0123 17:12:52.626581 29630 net.cpp:411] relu1 -> relu1
I0123 17:12:52.626749 29630 net.cpp:150] Setting up relu1
I0123 17:12:52.626756 29630 net.cpp:157] Top shape: 256 96 30 30 (22118400)
I0123 17:12:52.626768 29630 net.cpp:165] Memory required for data: 277611520
I0123 17:12:52.626771 29630 layer_factory.hpp:76] Creating layer pool1
I0123 17:12:52.626777 29630 net.cpp:106] Creating Layer pool1
I0123 17:12:52.626788 29630 net.cpp:454] pool1 <- relu1
I0123 17:12:52.626791 29630 net.cpp:411] pool1 -> pool1
I0123 17:12:52.627106 29630 net.cpp:150] Setting up pool1
I0123 17:12:52.627115 29630 net.cpp:157] Top shape: 256 96 15 15 (5529600)
I0123 17:12:52.627126 29630 net.cpp:165] Memory required for data: 299729920
I0123 17:12:52.627128 29630 layer_factory.hpp:76] Creating layer conv2
I0123 17:12:52.627136 29630 net.cpp:106] Creating Layer conv2
I0123 17:12:52.627140 29630 net.cpp:454] conv2 <- pool1
I0123 17:12:52.627152 29630 net.cpp:411] conv2 -> conv2
I0123 17:12:52.635601 29630 net.cpp:150] Setting up conv2
I0123 17:12:52.635639 29630 net.cpp:157] Top shape: 256 256 15 15 (14745600)
I0123 17:12:52.635643 29630 net.cpp:165] Memory required for data: 358712320
I0123 17:12:52.635658 29630 layer_factory.hpp:76] Creating layer relu2
I0123 17:12:52.635664 29630 net.cpp:106] Creating Layer relu2
I0123 17:12:52.635668 29630 net.cpp:454] relu2 <- conv2
I0123 17:12:52.635671 29630 net.cpp:411] relu2 -> relu2
I0123 17:12:52.635957 29630 net.cpp:150] Setting up relu2
I0123 17:12:52.635974 29630 net.cpp:157] Top shape: 256 256 15 15 (14745600)
I0123 17:12:52.635977 29630 net.cpp:165] Memory required for data: 417694720
I0123 17:12:52.635979 29630 layer_factory.hpp:76] Creating layer pool2
I0123 17:12:52.635998 29630 net.cpp:106] Creating Layer pool2
I0123 17:12:52.636000 29630 net.cpp:454] pool2 <- relu2
I0123 17:12:52.636004 29630 net.cpp:411] pool2 -> pool2
I0123 17:12:52.636286 29630 net.cpp:150] Setting up pool2
I0123 17:12:52.636293 29630 net.cpp:157] Top shape: 256 256 7 7 (3211264)
I0123 17:12:52.636296 29630 net.cpp:165] Memory required for data: 430539776
I0123 17:12:52.636298 29630 layer_factory.hpp:76] Creating layer conv3
I0123 17:12:52.636306 29630 net.cpp:106] Creating Layer conv3
I0123 17:12:52.636307 29630 net.cpp:454] conv3 <- pool2
I0123 17:12:52.636312 29630 net.cpp:411] conv3 -> conv3
I0123 17:12:52.657963 29630 net.cpp:150] Setting up conv3
I0123 17:12:52.657989 29630 net.cpp:157] Top shape: 256 384 7 7 (4816896)
I0123 17:12:52.657992 29630 net.cpp:165] Memory required for data: 449807360
I0123 17:12:52.658002 29630 layer_factory.hpp:76] Creating layer relu3
I0123 17:12:52.658020 29630 net.cpp:106] Creating Layer relu3
I0123 17:12:52.658022 29630 net.cpp:454] relu3 <- conv3
I0123 17:12:52.658028 29630 net.cpp:411] relu3 -> relu3
I0123 17:12:52.658320 29630 net.cpp:150] Setting up relu3
I0123 17:12:52.658339 29630 net.cpp:157] Top shape: 256 384 7 7 (4816896)
I0123 17:12:52.658340 29630 net.cpp:165] Memory required for data: 469074944
I0123 17:12:52.658342 29630 layer_factory.hpp:76] Creating layer conv4
I0123 17:12:52.658351 29630 net.cpp:106] Creating Layer conv4
I0123 17:12:52.658362 29630 net.cpp:454] conv4 <- relu3
I0123 17:12:52.658367 29630 net.cpp:411] conv4 -> conv4
I0123 17:12:52.675168 29630 net.cpp:150] Setting up conv4
I0123 17:12:52.675192 29630 net.cpp:157] Top shape: 256 384 7 7 (4816896)
I0123 17:12:52.675195 29630 net.cpp:165] Memory required for data: 488342528
I0123 17:12:52.675201 29630 layer_factory.hpp:76] Creating layer relu4
I0123 17:12:52.675209 29630 net.cpp:106] Creating Layer relu4
I0123 17:12:52.675222 29630 net.cpp:454] relu4 <- conv4
I0123 17:12:52.675226 29630 net.cpp:411] relu4 -> relu4
I0123 17:12:52.675490 29630 net.cpp:150] Setting up relu4
I0123 17:12:52.675498 29630 net.cpp:157] Top shape: 256 384 7 7 (4816896)
I0123 17:12:52.675509 29630 net.cpp:165] Memory required for data: 507610112
I0123 17:12:52.675511 29630 layer_factory.hpp:76] Creating layer conv5
I0123 17:12:52.675519 29630 net.cpp:106] Creating Layer conv5
I0123 17:12:52.675521 29630 net.cpp:454] conv5 <- relu4
I0123 17:12:52.675536 29630 net.cpp:411] conv5 -> conv5
I0123 17:12:52.687357 29630 net.cpp:150] Setting up conv5
I0123 17:12:52.687381 29630 net.cpp:157] Top shape: 256 256 7 7 (3211264)
I0123 17:12:52.687383 29630 net.cpp:165] Memory required for data: 520455168
I0123 17:12:52.687391 29630 layer_factory.hpp:76] Creating layer relu5
I0123 17:12:52.687397 29630 net.cpp:106] Creating Layer relu5
I0123 17:12:52.687410 29630 net.cpp:454] relu5 <- conv5
I0123 17:12:52.687414 29630 net.cpp:411] relu5 -> relu5
I0123 17:12:52.687588 29630 net.cpp:150] Setting up relu5
I0123 17:12:52.687594 29630 net.cpp:157] Top shape: 256 256 7 7 (3211264)
I0123 17:12:52.687607 29630 net.cpp:165] Memory required for data: 533300224
I0123 17:12:52.687608 29630 layer_factory.hpp:76] Creating layer pool5
I0123 17:12:52.687614 29630 net.cpp:106] Creating Layer pool5
I0123 17:12:52.687616 29630 net.cpp:454] pool5 <- relu5
I0123 17:12:52.687620 29630 net.cpp:411] pool5 -> pool5
I0123 17:12:52.687927 29630 net.cpp:150] Setting up pool5
I0123 17:12:52.687935 29630 net.cpp:157] Top shape: 256 256 3 3 (589824)
I0123 17:12:52.687973 29630 net.cpp:165] Memory required for data: 535659520
I0123 17:12:52.687975 29630 layer_factory.hpp:76] Creating layer fc6
I0123 17:12:52.687986 29630 net.cpp:106] Creating Layer fc6
I0123 17:12:52.687989 29630 net.cpp:454] fc6 <- pool5
I0123 17:12:52.687994 29630 net.cpp:411] fc6 -> fc6
I0123 17:12:52.798390 29630 net.cpp:150] Setting up fc6
I0123 17:12:52.798418 29630 net.cpp:157] Top shape: 256 2048 (524288)
I0123 17:12:52.798421 29630 net.cpp:165] Memory required for data: 537756672
I0123 17:12:52.798429 29630 layer_factory.hpp:76] Creating layer relu6
I0123 17:12:52.798447 29630 net.cpp:106] Creating Layer relu6
I0123 17:12:52.798451 29630 net.cpp:454] relu6 <- fc6
I0123 17:12:52.798457 29630 net.cpp:411] relu6 -> relu6
I0123 17:12:52.798698 29630 net.cpp:150] Setting up relu6
I0123 17:12:52.798705 29630 net.cpp:157] Top shape: 256 2048 (524288)
I0123 17:12:52.798717 29630 net.cpp:165] Memory required for data: 539853824
I0123 17:12:52.798719 29630 layer_factory.hpp:76] Creating layer drop6
I0123 17:12:52.798728 29630 net.cpp:106] Creating Layer drop6
I0123 17:12:52.798732 29630 net.cpp:454] drop6 <- relu6
I0123 17:12:52.798748 29630 net.cpp:411] drop6 -> drop6
I0123 17:12:52.798784 29630 net.cpp:150] Setting up drop6
I0123 17:12:52.798796 29630 net.cpp:157] Top shape: 256 2048 (524288)
I0123 17:12:52.798799 29630 net.cpp:165] Memory required for data: 541950976
I0123 17:12:52.798800 29630 layer_factory.hpp:76] Creating layer fc7
I0123 17:12:52.798816 29630 net.cpp:106] Creating Layer fc7
I0123 17:12:52.798818 29630 net.cpp:454] fc7 <- drop6
I0123 17:12:52.798822 29630 net.cpp:411] fc7 -> fc7
I0123 17:12:52.896687 29630 net.cpp:150] Setting up fc7
I0123 17:12:52.896715 29630 net.cpp:157] Top shape: 256 2048 (524288)
I0123 17:12:52.896718 29630 net.cpp:165] Memory required for data: 544048128
I0123 17:12:52.896728 29630 layer_factory.hpp:76] Creating layer relu7
I0123 17:12:52.896746 29630 net.cpp:106] Creating Layer relu7
I0123 17:12:52.896749 29630 net.cpp:454] relu7 <- fc7
I0123 17:12:52.896756 29630 net.cpp:411] relu7 -> relu7
I0123 17:12:52.897217 29630 net.cpp:150] Setting up relu7
I0123 17:12:52.897225 29630 net.cpp:157] Top shape: 256 2048 (524288)
I0123 17:12:52.897238 29630 net.cpp:165] Memory required for data: 546145280
I0123 17:12:52.897239 29630 layer_factory.hpp:76] Creating layer drop7
I0123 17:12:52.897246 29630 net.cpp:106] Creating Layer drop7
I0123 17:12:52.897249 29630 net.cpp:454] drop7 <- relu7
I0123 17:12:52.897264 29630 net.cpp:411] drop7 -> drop7
I0123 17:12:52.897295 29630 net.cpp:150] Setting up drop7
I0123 17:12:52.897308 29630 net.cpp:157] Top shape: 256 2048 (524288)
I0123 17:12:52.897310 29630 net.cpp:165] Memory required for data: 548242432
I0123 17:12:52.897311 29630 layer_factory.hpp:76] Creating layer fc8
I0123 17:12:52.897327 29630 net.cpp:106] Creating Layer fc8
I0123 17:12:52.897330 29630 net.cpp:454] fc8 <- drop7
I0123 17:12:52.897333 29630 net.cpp:411] fc8 -> fc8
I0123 17:12:52.945158 29630 net.cpp:150] Setting up fc8
I0123 17:12:52.945185 29630 net.cpp:157] Top shape: 256 1000 (256000)
I0123 17:12:52.945188 29630 net.cpp:165] Memory required for data: 549266432
I0123 17:12:52.945197 29630 layer_factory.hpp:76] Creating layer loss
I0123 17:12:52.945219 29630 net.cpp:106] Creating Layer loss
I0123 17:12:52.945224 29630 net.cpp:454] loss <- fc8
I0123 17:12:52.945230 29630 net.cpp:454] loss <- label
I0123 17:12:52.945235 29630 net.cpp:411] loss -> loss
I0123 17:12:52.945250 29630 layer_factory.hpp:76] Creating layer loss
…
  type: "Data"
  top: "data"
  top: "label"
  include {
    phase: TEST
  }
  transform_param {
    mirror: false
    crop_size: 128
    force_color: true
    resize_param {
      prob: 1
      resize_mode: FIT_SMALL_SIZE
      height: 144
      width: 144
      pad_mode: MIRRORED
      interp_mode: LINEAR
      center_object: false
      max_angle: 0
    }
    noise_param {
      prob: 1
      convert_to_ycrcb: true
    }
  }
  data_param {
    source: "/home/share/storage/datasets/imagenet/lmdb/ilsvrc12_val_lmdb"
    batch_size: 50
    backend: LMDB
  }
}
layer {
  name: "data_lab_BN"
  type: "BatchNorm"
  bottom: "data"
  top: "data_lab_BN"
  param {
    lr_mult: 0
    decay_mult: 0
  }
  param {
    lr_mult: 0
    decay_mult: 0
  }
  param {
    lr_mult: 0
    decay_mult: 0
  }
  include {
    phase: TEST
  }
  batch_norm_param {
    use_global_stats: true
    moving_average_fraction: 0.95
  }
}
layer {
  name: "conv1"
  type: "Convolution"
  bottom: "data_lab_BN"
  top: "conv1"
  param {
    lr_mult: 1
    decay_mult: 1
  }
  param {
    lr_mult: 2
    decay_mult: 0
  }
  convolution_param {
    num_output: 96
    kernel_size: 11
    stride: 4
    weight_filler {
      type: "gaussian"
      std: 0.01
    }
    bias_filler {
      type: "constant"
    }
  }
}
layer {
  name: "relu1"
  type: "ReLU"
  bottom: "conv1"
  top: "relu1"
}
layer {
  name: "pool1"
  type: "Pooling"
  bottom: "relu1"
  top: "pool1"
  pooling_param {
    pool: MAX
    kernel_size: 3
    stride: 2
  }
}
layer {
  name: "conv2"
  type: "Convolution"
  bottom: "pool1"
  top: "conv2"
  param {
    lr_mult: 1
    decay_mult: 1
  }
  param {
    lr_mult: 2
    decay_mult: 0
  }
  convolution_param {
    num_output: 256
    pad: 2
    kernel_size: 5
    group: 2
    weight_filler {
      type: "gaussian"
      std: 0.01
    }
    bias_filler {
      type: "constant"
    }
  }
}
layer {
  name: "relu2"
  type: "ReLU"
  bottom: "conv2"
  top: "relu2"
}
layer {
  name: "pool2"
  type: "Pooling"
  bottom: "relu2"
  top: "pool2"
  pooling_param {
    pool: MAX
    kernel_size: 3
    stride: 2
  }
}
layer {
  name: "conv3"
  type: "Convolution"
  bottom: "pool2"
  top: "conv3"
  param {
    lr_mult: 1
    decay_mult: 1
  }
  param {
    lr_mult: 2
    decay_mult: 0
  }
  convolution_param {
    num_output: 384
    pad: 1
    kernel_size: 3
    weight_filler {
      type: "gaussian"
      std: 0.01
    }
    bias_filler {
      type: "constant"
    }
  }
}
layer {
  name: "relu3"
  type: "ReLU"
  bottom: "conv3"
  top: "relu3"
}
layer {
  name: "conv4"
  type: "Convolution"
  bottom: "relu3"
  top: "conv4"
  param {
    lr_mult: 1
    decay_mult: 1
  }
  param {
    lr_mult: 2
    decay_mult: 0
  }
  convolution_param {
    num_output: 384
    pad: 1
    kernel_size: 3
    group: 2
    weight_filler {
      type: "gaussian"
      std: 0.01
    }
    bias_filler {
      type: "constant"
    }
  }
}
layer {
  name: "relu4"
  type: "ReLU"
  bottom: "conv4"
  top: "relu4"
}
layer {
  name: "conv5"
  type: "Convolution"
  bottom: "relu4"
  top: "conv5"
  param {
    lr_mult: 1
    decay_mult: 1
  }
  param {
    lr_mult: 2
    decay_mult: 0
  }
  convolution_param {
    num_output: 256
    pad: 1
    kernel_size: 3
    group: 2
    weight_filler {
      type: "gaussian"
      std: 0.01
    }
    bias_filler {
      type: "constant"
    }
  }
}
layer {
  name: "relu5"
  type: "ReLU"
  bottom: "conv5"
  top: "relu5"
}
layer {
  name: "pool5"
  type: "Pooling"
  bottom: "relu5"
  top: "pool5"
  pooling_param {
    pool: MAX
    kernel_size: 3
    stride: 2
  }
}
layer {
  name: "fc6"
  type: "InnerProduct"
  bottom: "pool5"
  top: "fc6"
  param {
    lr_mult: 1
    decay_mult: 1
  }
  param {
    lr_mult: 2
    decay_mult: 0
  }
  inner_product_param {
    num_output: 2048
    weight_filler {
      type: "gaussian"
      std: 0.005
    }
    bias_filler {
      type: "constant"
    }
  }
}
layer {
  name: "relu6"
  type: "ReLU"
  bottom: "fc6"
  top: "relu6"
}
layer {
  name: "drop6"
  type: "Dropout"
  bottom: "relu6"
  top: "drop6"
  dropout_param {
    dropout_ratio: 0.5
  }
}
layer {
  name: "fc7"
  type: "InnerProduct"
  bottom: "drop6"
  top: "fc7"
  param {
    lr_mult: 1
    decay_mult: 1
  }
  param {
    lr_mult: 2
    decay_mult: 0
  }
  inner_product_param {
    num_output: 2048
    weight_filler {
      type: "gaussian"
      std: 0.005
    }
    bias_filler {
      type: "constant"
    }
  }
}
layer {
  name: "relu7"
  type: "ReLU"
  bottom: "fc7"
  top: "relu7"
}
layer {
  name: "drop7"
  type: "Dropout"
  bottom: "relu7"
  top: "drop7"
  dropout_param {
    dropout_ratio: 0.5
  }
}
layer {
  name: "fc8"
  type: "InnerProduct"
  bottom: "drop7"
  top: "fc8"
  param {
    lr_mult: 1
    decay_mult: 1
  }
  param {
    lr_mult: 2
    decay_mult: 0
  }
  inner_product_param {
    num_output: 1000
    weight_filler {
      type: "gaussian"
      std: 0.01
    }
    bias_filler {
      type: "constant"
    }
  }
}
layer {
  name: "accuracy"
  type: "Accuracy"
  bottom: "fc8"
  bottom: "label"
  top: "accuracy"
  include {
    phase: TEST
  }
}
layer {
  name: "loss"
  type: "SoftmaxWithLoss"
  bottom: "fc8"
  bottom: "label"
  top: "loss"
}
I0123 17:12:52.946815 29630 layer_factory.hpp:76] Creating layer data
I0123 17:12:52.947057 29630 net.cpp:106] Creating Layer data
I0123 17:12:52.947062 29630 net.cpp:411] data -> data
I0123 17:12:52.947069 29630 net.cpp:411] data -> label
I0123 17:12:52.948196 29643 db_lmdb.cpp:38] Opened lmdb /home/share/storage/datasets/imagenet/lmdb/ilsvrc12_val_lmdb
I0123 17:12:52.949384 29630 data_layer.cpp:41] output data size: 50,3,128,128
I0123 17:12:52.972772 29630 net.cpp:150] Setting up data
I0123 17:12:52.972805 29630 net.cpp:157] Top shape: 50 3 128 128 (2457600)
I0123 17:12:52.972810 29630 net.cpp:157] Top shape: 50 (50)
I0123 17:12:52.972811 29630 net.cpp:165] Memory required for data: 9830600
I0123 17:12:52.972816 29630 layer_factory.hpp:76] Creating layer label_data_1_split
I0123 17:12:52.972831 29630 net.cpp:106] Creating Layer label_data_1_split
I0123 17:12:52.972857 29630 net.cpp:454] label_data_1_split <- label
I0123 17:12:52.972863 29630 net.cpp:411] label_data_1_split -> label_data_1_split_0
I0123 17:12:52.972872 29630 net.cpp:411] label_data_1_split -> label_data_1_split_1
I0123 17:12:52.973271 29630 net.cpp:150] Setting up label_data_1_split
I0123 17:12:52.973280 29630 net.cpp:157] Top shape: 50 (50)
I0123 17:12:52.973284 29630 net.cpp:157] Top shape: 50 (50)
I0123 17:12:52.973285 29630 net.cpp:165] Memory required for data: 9831000
I0123 17:12:52.973328 29630 layer_factory.hpp:76] Creating layer data_lab_BN
I0123 17:12:52.973352 29630 net.cpp:106] Creating Layer data_lab_BN
I0123 17:12:52.973356 29630 net.cpp:454] data_lab_BN <- data
I0123 17:12:52.973361 29630 net.cpp:411] data_lab_BN -> data_lab_BN
I0123 17:12:52.973633 29630 net.cpp:150] Setting up data_lab_BN
I0123 17:12:52.973639 29630 net.cpp:157] Top shape: 50 3 128 128 (2457600)
I0123 17:12:52.973661 29630 net.cpp:165] Memory required for data: 19661400
I0123 17:12:52.973701 29630 layer_factory.hpp:76] Creating layer conv1
I0123 17:12:52.973727 29630 net.cpp:106] Creating Layer conv1
I0123 17:12:52.973731 29630 net.cpp:454] conv1 <- data_lab_BN
I0123 17:12:52.973754 29630 net.cpp:411] conv1 -> conv1
I0123 17:12:52.976919 29630 net.cpp:150] Setting up conv1
I0123 17:12:52.976929 29630 net.cpp:157] Top shape: 50 96 30 30 (4320000)
I0123 17:12:52.976933 29630 net.cpp:165] Memory required for data: 36941400
I0123 17:12:52.976938 29630 layer_factory.hpp:76] Creating layer relu1
I0123 17:12:52.976944 29630 net.cpp:106] Creating Layer relu1
I0123 17:12:52.976946 29630 net.cpp:454] relu1 <- conv1
I0123 17:12:52.977020 29630 net.cpp:411] relu1 -> relu1
I0123 17:12:52.977341 29630 net.cpp:150] Setting up relu1
I0123 17:12:52.977349 29630 net.cpp:157] Top shape: 50 96 30 30 (4320000)
I0123 17:12:52.977360 29630 net.cpp:165] Memory required for data: 54221400
I0123 17:12:52.977363 29630 layer_factory.hpp:76] Creating layer pool1
I0123 17:12:52.977368 29630 net.cpp:106] Creating Layer pool1
I0123 17:12:52.977370 29630 net.cpp:454] pool1 <- relu1
I0123 17:12:52.977373 29630 net.cpp:411] pool1 -> pool1
I0123 17:12:52.977644 29630 net.cpp:150] Setting up pool1
I0123 17:12:52.977651 29630 net.cpp:157] Top shape: 50 96 15 15 (1080000)
I0123 17:12:52.977653 29630 net.cpp:165] Memory required for data: 58541400
I0123 17:12:52.977656 29630 layer_factory.hpp:76] Creating layer conv2
I0123 17:12:52.977663 29630 net.cpp:106] Creating Layer conv2
I0123 17:12:52.977664 29630 net.cpp:454] conv2 <- pool1
I0123 17:12:52.977669 29630 net.cpp:411] conv2 -> conv2
I0123 17:12:52.986816 29630 net.cpp:150] Setting up conv2
I0123 17:12:52.986841 29630 net.cpp:157] Top shape: 50 256 15 15 (2880000)
I0123 17:12:52.986843 29630 net.cpp:165] Memory required for data: 70061400
I0123 17:12:52.986850 29630 layer_factory.hpp:76] Creating layer relu2
I0123 17:12:52.986958 29630 net.cpp:106] Creating Layer relu2
I0123 17:12:52.986964 29630 net.cpp:454] relu2 <- conv2
I0123 17:12:52.986974 29630 net.cpp:411] relu2 -> relu2
I0123 17:12:52.987213 29630 net.cpp:150] Setting up relu2
I0123 17:12:52.987221 29630 net.cpp:157] Top shape: 50 256 15 15 (2880000)
I0123 17:12:52.987232 29630 net.cpp:165] Memory required for data: 81581400
I0123 17:12:52.987234 29630 layer_factory.hpp:76] Creating layer pool2
I0123 17:12:52.987279 29630 net.cpp:106] Creating Layer pool2
I0123 17:12:52.987284 29630 net.cpp:454] pool2 <- relu2
I0123 17:12:52.987289 29630 net.cpp:411] pool2 -> pool2
I0123 17:12:52.987627 29630 net.cpp:150] Setting up pool2
I0123 17:12:52.987634 29630 net.cpp:157] Top shape: 50 256 7 7 (627200)
I0123 17:12:52.987645 29630 net.cpp:165] Memory required for data: 84090200
I0123 17:12:52.987648 29630 layer_factory.hpp:76] Creating layer conv3
I0123 17:12:52.987715 29630 net.cpp:106] Creating Layer conv3
I0123 17:12:52.987720 29630 net.cpp:454] conv3 <- pool2
I0123 17:12:52.987751 29630 net.cpp:411] conv3 -> conv3
I0123 17:12:53.010341 29630 net.cpp:150] Setting up conv3
I0123 17:12:53.010368 29630 net.cpp:157] Top shape: 50 384 7 7 (940800)
I0123 17:12:53.010838 29630 net.cpp:165] Memory required for data: 87853400
I0123 17:12:53.010851 29630 layer_factory.hpp:76] Creating layer relu3
I0123 17:12:53.010864 29630 net.cpp:106] Creating Layer relu3
I0123 17:12:53.010867 29630 net.cpp:454] relu3 <- conv3
I0123 17:12:53.010872 29630 net.cpp:411] relu3 -> relu3
I0123 17:12:53.011138 29630 net.cpp:150] Setting up relu3
I0123 17:12:53.011157 29630 net.cpp:157] Top shape: 50 384 7 7 (940800)
I0123 17:12:53.011159 29630 net.cpp:165] Memory required for data: 91616600
I0123 17:12:53.011162 29630 layer_factory.hpp:76] Creating layer conv4
I0123 17:12:53.011170 29630 net.cpp:106] Creating Layer conv4
I0123 17:12:53.011243 29630 net.cpp:454] conv4 <- relu3
I0123 17:12:53.011251 29630 net.cpp:411] conv4 -> conv4
I0123 17:12:53.029263 29630 net.cpp:150] Setting up conv4
I0123 17:12:53.029289 29630 net.cpp:157] Top shape: 50 384 7 7 (940800)
I0123 17:12:53.029292 29630 net.cpp:165] Memory required for data: 95379800
I0123 17:12:53.029299 29630 layer_factory.hpp:76] Creating layer relu4
I0123 17:12:53.029412 29630 net.cpp:106] Creating Layer relu4
I0123 17:12:53.029418 29630 net.cpp:454] relu4 <- conv4
I0123 17:12:53.029424 29630 net.cpp:411] relu4 -> relu4
I0123 17:12:53.029674 29630 net.cpp:150] Setting up relu4
I0123 17:12:53.029692 29630 net.cpp:157] Top shape: 50 384 7 7 (940800)
I0123 17:12:53.029695 29630 net.cpp:165] Memory required for data: 99143000
I0123 17:12:53.029697 29630 layer_factory.hpp:76] Creating layer conv5
I0123 17:12:53.029769 29630 net.cpp:106] Creating Layer conv5
I0123 17:12:53.029774 29630 net.cpp:454] conv5 <- relu4
I0123 17:12:53.029808 29630 net.cpp:411] conv5 -> conv5
I0123 17:12:53.042237 29630 net.cpp:150] Setting up conv5
I0123 17:12:53.042263 29630 net.cpp:157] Top shape: 50 256 7 7 (627200)
I0123 17:12:53.042265 29630 net.cpp:165] Memory required for data: 101651800
I0123 17:12:53.042273 29630 layer_factory.hpp:76] Creating layer relu5
I0123 17:12:53.042387 29630 net.cpp:106] Creating Layer relu5
I0123 17:12:53.042394 29630 net.cpp:454] relu5 <- conv5
I0123 17:12:53.042400 29630 net.cpp:411] relu5 -> relu5
I0123 17:12:53.042645 29630 net.cpp:150] Setting up relu5
I0123 17:12:53.042664 29630 net.cpp:157] Top shape: 50 256 7 7 (627200)
I0123 17:12:53.042665 29630 net.cpp:165] Memory required for data: 104160600
I0123 17:12:53.042668 29630 layer_factory.hpp:76] Creating layer pool5
I0123 17:12:53.042729 29630 net.cpp:106] Creating Layer pool5
I0123 17:12:53.042732 29630 net.cpp:454] pool5 <- relu5
I0123 17:12:53.042735 29630 net.cpp:411] pool5 -> pool5
I0123 17:12:53.043037 29630 net.cpp:150] Setting up pool5
I0123 17:12:53.043046 29630 net.cpp:157] Top shape: 50 256 3 3 (115200)
I0123 17:12:53.043073 29630 net.cpp:165] Memory required for data: 104621400
I0123 17:12:53.043076 29630 layer_factory.hpp:76] Creating layer fc6
I0123 17:12:53.043117 29630 net.cpp:106] Creating Layer fc6
I0123 17:12:53.043120 29630 net.cpp:454] fc6 <- pool5
I0123 17:12:53.043150 29630 net.cpp:411] fc6 -> fc6
I0123 17:12:53.157471 29630 net.cpp:150] Setting up fc6
I0123 17:12:53.157491 29630 net.cpp:157] Top shape: 50 2048 (102400)
I0123 17:12:53.157495 29630 net.cpp:165] Memory required for data: 105031000
I0123 17:12:53.157502 29630 layer_factory.hpp:76] Creating layer relu6
I0123 17:12:53.157624 29630 net.cpp:106] Creating Layer relu6
I0123 17:12:53.157626 29630 net.cpp:454] relu6 <- fc6
I0123 17:12:53.157634 29630 net.cpp:411] relu6 -> relu6
I0123 17:12:53.158116 29630 net.cpp:150] Setting up relu6
I0123 17:12:53.158125 29630 net.cpp:157] Top shape: 50 2048 (102400)
I0123 17:12:53.158138 29630 net.cpp:165] Memory required for data: 105440600
I0123 17:12:53.158140 29630 layer_factory.hpp:76] Creating layer drop6
I0123 17:12:53.158145 29630 net.cpp:106] Creating Layer drop6
I0123 17:12:53.158149 29630 net.cpp:454] drop6 <- relu6
I0123 17:12:53.158231 29630 net.cpp:411] drop6 -> drop6
I0123 17:12:53.158319 29630 net.cpp:150] Setting up drop6
I0123 17:12:53.158325 29630 net.cpp:157] Top shape: 50 2048 (102400)
I0123 17:12:53.158337 29630 net.cpp:165] Memory required for data: 105850200
I0123 17:12:53.158390 29630 layer_factory.hpp:76] Creating layer fc7
I0123 17:12:53.158399 29630 net.cpp:106] Creating Layer fc7
I0123 17:12:53.158401 29630 net.cpp:454] fc7 <- drop6
I0123 17:12:53.158406 29630 net.cpp:411] fc7 -> fc7
I0123 17:12:53.258438 29630 net.cpp:150] Setting up fc7
I0123 17:12:53.258466 29630 net.cpp:157] Top shape: 50 2048 (102400)
I0123 17:12:53.258468 29630 net.cpp:165] Memory required for data: 106259800
I0123 17:12:53.258479 29630 layer_factory.hpp:76] Creating layer relu7
I0123 17:12:53.258497 29630 net.cpp:106] Creating Layer relu7
I0123 17:12:53.258501 29630 net.cpp:454] relu7 <- fc7
I0123 17:12:53.258507 29630 net.cpp:411] relu7 -> relu7
I0123 17:12:53.258761 29630 net.cpp:150] Setting up relu7
I0123 17:12:53.258769 29630 net.cpp:157] Top shape: 50 2048 (102400)
I0123 17:12:53.258780 29630 net.cpp:165] Memory required for data: 106669400
I0123 17:12:53.258782 29630 layer_factory.hpp:76] Creating layer drop7
I0123 17:12:53.258790 29630 net.cpp:106] Creating Layer drop7
I0123 17:12:53.258792 29630 net.cpp:454] drop7 <- relu7
I0123 17:12:53.258806 29630 net.cpp:411] drop7 -> drop7
I0123 17:12:53.258838 29630 net.cpp:150] Setting up drop7
I0123 17:12:53.258842 29630 net.cpp:157] Top shape: 50 2048 (102400)
I0123 17:12:53.258844 29630 net.cpp:165] Memory required for data: 107079000
I0123 17:12:53.258846 29630 layer_factory.hpp:76] Creating layer fc8
I0123 17:12:53.258853 29630 net.cpp:106] Creating Layer fc8
I0123 17:12:53.258855 29630 net.cpp:454] fc8 <- drop7
I0123 17:12:53.258858 29630 net.cpp:411] fc8 -> fc8
I0123 17:12:53.306778 29630 net.cpp:150] Setting up fc8
I0123 17:12:53.306820 29630 net.cpp:157] Top shape: 50 1000 (50000)
I0123 17:12:53.306823 29630 net.cpp:165] Memory required for data: 107279000
I0123 17:12:53.306831 29630 layer_factory.hpp:76] Creating layer fc8_fc8_0_split
I0123 17:12:53.306841 29630 net.cpp:106] Creating Layer fc8_fc8_0_split
I0123 17:12:53.306845 29630 net.cpp:454] fc8_fc8_0_split <- fc8
I0123 17:12:53.306850 29630 net.cpp:411] fc8_fc8_0_split -> fc8_fc8_0_split_0
I0123 17:12:53.306859 29630 net.cpp:411] fc8_fc8_0_split -> fc8_fc8_0_split_1
I0123 17:12:53.306913 29630 net.cpp:150] Setting up fc8_fc8_0_split
I0123 17:12:53.306917 29630 net.cpp:157] Top shape: 50 1000 (50000)
I0123 17:12:53.306920 29630 net.cpp:157] Top shape: 50 1000 (50000)
I0123 17:12:53.306921 29630 net.cpp:165] Memory required for data: 107679000
I0123 17:12:53.306932 29630 layer_factory.hpp:76] Creating layer accuracy
I0123 17:12:53.306941 29630 net.cpp:106] Creating Layer accuracy
I0123 17:12:53.306944 29630 net.cpp:454] accuracy <- fc8_fc8_0_split_0
I0123 17:12:53.306947 29630 net.cpp:454] accuracy <- label_data_1_split_0
I0123 17:12:53.306951 29630 net.cpp:411] accuracy -> accuracy
…
