…
      mirror: false
      crop_size: 128
      mean_value: 104
      mean_value: 117
      mean_value: 123
      force_color: true
      resize_param {
        prob: 1
        resize_mode: FIT_SMALL_SIZE
        height: 144
        width: 144
        pad_mode: MIRRORED
        pad_value: 104
        pad_value: 117
        pad_value: 124
        interp_mode: LINEAR
        center_object: false
        max_angle: 0
      }
    }
    data_param {
      source: "/home/old-ufo/datasets/imagenet/ilsvrc12_val_lmdb"
      batch_size: 250
      backend: LMDB
    }
  }
  layer {
    name: "conv1"
    type: "Convolution"
    bottom: "data"
    top: "conv1"
    param {
      lr_mult: 1
      decay_mult: 1
    }
    param {
      lr_mult: 2
      decay_mult: 0
    }
    convolution_param {
      num_output: 96
      kernel_size: 11
      stride: 4
      weight_filler {
        type: "gaussian"
        std: 0.01
      }
      bias_filler {
        type: "constant"
      }
    }
  }
  layer {
    name: "relu1"
    type: "ReLU"
    bottom: "conv1"
    top: "relu1"
  }
  layer {
    name: "pool1"
    type: "Pooling"
    bottom: "relu1"
    top: "pool1"
    pooling_param {
      pool: MAX
      kernel_size: 3
      stride: 2
    }
  }
  layer {
    name: "conv2"
    type: "Convolution"
    bottom: "pool1"
    top: "conv2"
    param {
      lr_mult: 1
      decay_mult: 1
    }
    param {
      lr_mult: 2
      decay_mult: 0
    }
    convolution_param {
      num_output: 256
      pad: 2
      kernel_size: 5
      group: 2
      weight_filler {
        type: "gaussian"
        std: 0.01
      }
      bias_filler {
        type: "constant"
      }
    }
  }
  layer {
    name: "relu2"
    type: "ReLU"
    bottom: "conv2"
    top: "conv2"
  }
  layer {
    name: "pool2"
    type: "Pooling"
    bottom: "conv2"
    top: "pool2"
    pooling_param {
      pool: MAX
      kernel_size: 3
      stride: 2
    }
  }
  layer {
    name: "conv3"
    type: "Convolution"
    bottom: "pool2"
    top: "conv3"
    param {
      lr_mult: 1
      decay_mult: 1
    }
    param {
      lr_mult: 2
      decay_mult: 0
    }
    convolution_param {
      num_output: 384
      pad: 1
      kernel_size: 3
      weight_filler {
        type: "gaussian"
        std: 0.01
      }
      bias_filler {
        type: "constant"
      }
    }
  }
  layer {
    name: "relu3"
    type: "ReLU"
    bottom: "conv3"
    top: "conv3"
  }
  layer {
    name: "conv4"
    type: "Convolution"
    bottom: "conv3"
    top: "conv4"
    param {
      lr_mult: 1
      decay_mult: 1
    }
    param {
      lr_mult: 2
      decay_mult: 0
    }
    convolution_param {
      num_output: 384
      pad: 1
      kernel_size: 3
      group: 2
      weight_filler {
        type: "gaussian"
        std: 0.01
      }
      bias_filler {
        type: "constant"
      }
    }
  }
  layer {
    name: "relu4"
    type: "ReLU"
    bottom: "conv4"
    top: "conv4"
  }
  layer {
    name: "conv5"
    type: "Convolution"
    bottom: "conv4"
    top: "conv5"
    param {
      lr_mult: 1
      decay_mult: 1
    }
    param {
      lr_mult: 2
      decay_mult: 0
    }
    convolution_param {
      num_output: 256
      pad: 1
      kernel_size: 3
      group: 2
      weight_filler {
        type: "gaussian"
        std: 0.01
      }
      bias_filler {
        type: "constant"
      }
    }
  }
  layer {
    name: "relu5"
    type: "ReLU"
    bottom: "conv5"
    top: "conv5"
  }
  layer {
    name: "pool5"
    type: "Pooling"
    bottom: "conv5"
    top: "pool5"
    pooling_param {
      pool: MAX
      kernel_size: 3
      stride: 2
    }
  }
  layer {
    name: "fc6"
    type: "InnerProduct"
    bottom: "pool5"
    top: "fc6"
    param {
      lr_mult: 1
      decay_mult: 1
    }
    param {
      lr_mult: 2
      decay_mult: 0
    }
    inner_product_param {
      num_output: 2048
      weight_filler {
        type: "gaussian"
        std: 0.005
      }
      bias_filler {
        type: "constant"
      }
    }
  }
  layer {
    name: "relu6"
    type: "ReLU"
    bottom: "fc6"
    top: "fc6"
  }
  layer {
    name: "drop6"
    type: "Dropout"
    bottom: "fc6"
    top: "fc6"
    dropout_param {
      dropout_ratio: 0.5
    }
  }
  layer {
    name: "fc7"
    type: "InnerProduct"
    bottom: "fc6"
    top: "fc7"
    param {
      lr_mult: 1
      decay_mult: 1
    }
    param {
      lr_mult: 2
      decay_mult: 0
    }
    inner_product_param {
      num_output: 2048
      weight_filler {
        type: "gaussian"
        std: 0.005
      }
      bias_filler {
        type: "constant"
      }
    }
  }
  layer {
    name: "relu7"
    type: "ReLU"
    bottom: "fc7"
    top: "fc7"
  }
  layer {
    name: "drop7"
    type: "Dropout"
    bottom: "fc7"
    top: "fc7"
    dropout_param {
      dropout_ratio: 0.5
    }
  }
  layer {
    name: "fc8"
    type: "InnerProduct"
    bottom: "fc7"
    top: "fc8"
    param {
      lr_mult: 1
      decay_mult: 1
    }
    param {
      lr_mult: 2
      decay_mult: 0
    }
    inner_product_param {
      num_output: 1000
      weight_filler {
        type: "gaussian"
        std: 0.01
      }
      bias_filler {
        type: "constant"
      }
    }
  }
  layer {
    name: "accuracy"
    type: "Accuracy"
    bottom: "fc8"
    bottom: "label"
    top: "accuracy"
    include {
      phase: TEST
    }
  }
  layer {
    name: "loss"
    type: "SoftmaxWithLoss"
    bottom: "fc8"
    bottom: "label"
    top: "loss"
  }
}
test_initialization: false
average_loss: 20
iter_size: 1
rms_decay: 0.9
type: "RMSProp"
I0124 14:09:45.119038 31209 solver.cpp:86] Creating training net specified in net_param.
I0124 14:09:45.119154 31209 net.cpp:322] The NetState phase (0) differed from the phase (1) specified by a rule in layer data
I0124 14:09:45.119179 31209 net.cpp:322] The NetState phase (0) differed from the phase (1) specified by a rule in layer accuracy
I0124 14:09:45.119323 31209 net.cpp:49] Initializing net from parameters: 
name: "CaffeNet"
state {
  phase: TRAIN
}
layer {
  name: "data"
  type: "Data"
  top: "data"
  top: "label"
  include {
    phase: TRAIN
  }
  transform_param {
    scale: 0.04
    mirror: true
    crop_size: 128
    mean_value: 104
    mean_value: 117
    mean_value: 124
    force_color: true
    resize_param {
      prob: 1
      resize_mode: FIT_SMALL_SIZE
      height: 144
      width: 144
      pad_mode: MIRRORED
      pad_value: 104
      pad_value: 117
      pad_value: 124
      interp_mode: LINEAR
      center_object: false
      max_angle: 0
    }
  }
  data_param {
    source: "/home/old-ufo/datasets/imagenet/ilsvrc12_train_shuffle_lmdb"
    batch_size: 256
    backend: LMDB
  }
}
layer {
  name: "conv1"
  type: "Convolution"
  bottom: "data"
  top: "conv1"
  param {
    lr_mult: 1
    decay_mult: 1
  }
  param {
    lr_mult: 2
    decay_mult: 0
  }
  convolution_param {
    num_output: 96
    kernel_size: 11
    stride: 4
    weight_filler {
      type: "gaussian"
      std: 0.01
    }
    bias_filler {
      type: "constant"
    }
  }
}
layer {
  name: "relu1"
  type: "ReLU"
  bottom: "conv1"
  top: "relu1"
}
layer {
  name: "pool1"
  type: "Pooling"
  bottom: "relu1"
  top: "pool1"
  pooling_param {
    pool: MAX
    kernel_size: 3
    stride: 2
  }
}
layer {
  name: "conv2"
  type: "Convolution"
  bottom: "pool1"
  top: "conv2"
  param {
    lr_mult: 1
    decay_mult: 1
  }
  param {
    lr_mult: 2
    decay_mult: 0
  }
  convolution_param {
    num_output: 256
    pad: 2
    kernel_size: 5
    group: 2
    weight_filler {
      type: "gaussian"
      std: 0.01
    }
    bias_filler {
      type: "constant"
    }
  }
}
layer {
  name: "relu2"
  type: "ReLU"
  bottom: "conv2"
  top: "conv2"
}
layer {
  name: "pool2"
  type: "Pooling"
  bottom: "conv2"
  top: "pool2"
  pooling_param {
    pool: MAX
    kernel_size: 3
    stride: 2
  }
}
layer {
  name: "conv3"
  type: "Convolution"
  bottom: "pool2"
  top: "conv3"
  param {
    lr_mult: 1
    decay_mult: 1
  }
  param {
    lr_mult: 2
    decay_mult: 0
  }
  convolution_param {
    num_output: 384
    pad: 1
    kernel_size: 3
    weight_filler {
      type: "gaussian"
      std: 0.01
    }
    bias_filler {
      type: "constant"
    }
  }
}
layer {
  name: "relu3"
  type: "ReLU"
  bottom: "conv3"
  top: "conv3"
}
layer {
  name: "conv4"
  type: "Convolution"
  bottom: "conv3"
  top: "conv4"
  param {
    lr_mult: 1
    decay_mult: 1
  }
  param {
    lr_mult: 2
    decay_mult: 0
  }
  convolution_param {
    num_output: 384
    pad: 1
    kernel_size: 3
    group: 2
    weight_filler {
      type: "gaussian"
      std: 0.01
    }
    bias_filler {
      type: "constant"
    }
  }
}
layer {
  name: "relu4"
  type: "ReLU"
  bottom: "conv4"
  top: "conv4"
}
layer {
  name: "conv5"
  type: "Convolution"
  bottom: "conv4"
  top: "conv5"
  param {
    lr_mult: 1
    decay_mult: 1
  }
  param {
    lr_mult: 2
    decay_mult: 0
  }
  convolution_param {
    num_output: 256
    pad: 1
    kernel_size: 3
    group: 2
    weight_filler {
      type: "gaussian"
      std: 0.01
    }
    bias_filler {
      type: "constant"
    }
  }
}
layer {
  name: "relu5"
  type: "ReLU"
  bottom: "conv5"
  top: "conv5"
}
layer {
  name: "pool5"
  type: "Pooling"
  bottom: "conv5"
  top: "pool5"
  pooling_param {
    pool: MAX
    kernel_size: 3
    stride: 2
  }
}
layer {
  name: "fc6"
  type: "InnerProduct"
  bottom: "pool5"
  top: "fc6"
  param {
    lr_mult: 1
    decay_mult: 1
  }
  param {
    lr_mult: 2
    decay_mult: 0
  }
  inner_product_param {
    num_output: 2048
    weight_filler {
      type: "gaussian"
      std: 0.005
    }
    bias_filler {
      type: "constant"
    }
  }
}
layer {
  name: "relu6"
  type: "ReLU"
  bottom: "fc6"
  top: "fc6"
}
layer {
  name: "drop6"
  type: "Dropout"
  bottom: "fc6"
  top: "fc6"
  dropout_param {
    dropout_ratio: 0.5
  }
}
layer {
  name: "fc7"
  type: "InnerProduct"
  bottom: "fc6"
  top: "fc7"
  param {
    lr_mult: 1
    decay_mult: 1
  }
  param {
    lr_mult: 2
    decay_mult: 0
  }
  inner_product_param {
    num_output: 2048
    weight_filler {
      type: "gaussian"
      std: 0.005
    }
    bias_filler {
      type: "constant"
    }
  }
}
layer {
  name: "relu7"
  type: "ReLU"
  bottom: "fc7"
  top: "fc7"
}
layer {
  name: "drop7"
  type: "Dropout"
  bottom: "fc7"
  top: "fc7"
  dropout_param {
    dropout_ratio: 0.5
  }
}
layer {
  name: "fc8"
  type: "InnerProduct"
  bottom: "fc7"
  top: "fc8"
  param {
    lr_mult: 1
    decay_mult: 1
  }
  param {
    lr_mult: 2
    decay_mult: 0
  }
  inner_product_param {
    num_output: 1000
    weight_filler {
      type: "gaussian"
      std: 0.01
    }
    bias_filler {
      type: "constant"
    }
  }
}
layer {
  name: "loss"
  type: "SoftmaxWithLoss"
  bottom: "fc8"
  bottom: "label"
  top: "loss"
}
I0124 14:09:45.119418 31209 layer_factory.hpp:76] Creating layer data
I0124 14:09:45.119954 31209 net.cpp:106] Creating Layer data
I0124 14:09:45.119963 31209 net.cpp:411] data -> data
I0124 14:09:45.119993 31209 net.cpp:411] data -> label
I0124 14:09:45.120789 31213 db_lmdb.cpp:38] Opened lmdb /home/old-ufo/datasets/imagenet/ilsvrc12_train_shuffle_lmdb
I0124 14:09:45.137353 31209 data_layer.cpp:41] output data size: 256,3,128,128
I0124 14:09:45.206935 31209 net.cpp:150] Setting up data
I0124 14:09:45.206966 31209 net.cpp:157] Top shape: 256 3 128 128 (12582912)
I0124 14:09:45.206975 31209 net.cpp:157] Top shape: 256 (256)
I0124 14:09:45.206979 31209 net.cpp:165] Memory required for data: 50332672
I0124 14:09:45.206995 31209 layer_factory.hpp:76] Creating layer conv1
I0124 14:09:45.207013 31209 net.cpp:106] Creating Layer conv1
I0124 14:09:45.207025 31209 net.cpp:454] conv1 <- data
I0124 14:09:45.207041 31209 net.cpp:411] conv1 -> conv1
I0124 14:09:45.353826 31209 net.cpp:150] Setting up conv1
I0124 14:09:45.353849 31209 net.cpp:157] Top shape: 256 96 30 30 (22118400)
I0124 14:09:45.353853 31209 net.cpp:165] Memory required for data: 138806272
I0124 14:09:45.353873 31209 layer_factory.hpp:76] Creating layer relu1
I0124 14:09:45.353888 31209 net.cpp:106] Creating Layer relu1
I0124 14:09:45.353893 31209 net.cpp:454] relu1 <- conv1
I0124 14:09:45.353900 31209 net.cpp:411] relu1 -> relu1
I0124 14:09:45.354555 31209 net.cpp:150] Setting up relu1
I0124 14:09:45.354565 31209 net.cpp:157] Top shape: 256 96 30 30 (22118400)
I0124 14:09:45.354569 31209 net.cpp:165] Memory required for data: 227279872
I0124 14:09:45.354574 31209 layer_factory.hpp:76] Creating layer pool1
I0124 14:09:45.354583 31209 net.cpp:106] Creating Layer pool1
I0124 14:09:45.354588 31209 net.cpp:454] pool1 <- relu1
I0124 14:09:45.354593 31209 net.cpp:411] pool1 -> pool1
I0124 14:09:45.355231 31209 net.cpp:150] Setting up pool1
I0124 14:09:45.355244 31209 net.cpp:157] Top shape: 256 96 15 15 (5529600)
I0124 14:09:45.355248 31209 net.cpp:165] Memory required for data: 249398272
I0124 14:09:45.355252 31209 layer_factory.hpp:76] Creating layer conv2
I0124 14:09:45.355268 31209 net.cpp:106] Creating Layer conv2
I0124 14:09:45.355273 31209 net.cpp:454] conv2 <- pool1
I0124 14:09:45.355279 31209 net.cpp:411] conv2 -> conv2
I0124 14:09:45.367305 31209 net.cpp:150] Setting up conv2
I0124 14:09:45.367328 31209 net.cpp:157] Top shape: 256 256 15 15 (14745600)
I0124 14:09:45.367333 31209 net.cpp:165] Memory required for data: 308380672
I0124 14:09:45.367347 31209 layer_factory.hpp:76] Creating layer relu2
I0124 14:09:45.367357 31209 net.cpp:106] Creating Layer relu2
I0124 14:09:45.367362 31209 net.cpp:454] relu2 <- conv2
I0124 14:09:45.367369 31209 net.cpp:397] relu2 -> conv2 (in-place)
I0124 14:09:45.368096 31209 net.cpp:150] Setting up relu2
I0124 14:09:45.368109 31209 net.cpp:157] Top shape: 256 256 15 15 (14745600)
I0124 14:09:45.368113 31209 net.cpp:165] Memory required for data: 367363072
I0124 14:09:45.368116 31209 layer_factory.hpp:76] Creating layer pool2
I0124 14:09:45.368124 31209 net.cpp:106] Creating Layer pool2
I0124 14:09:45.368126 31209 net.cpp:454] pool2 <- conv2
I0124 14:09:45.368135 31209 net.cpp:411] pool2 -> pool2
I0124 14:09:45.368969 31209 net.cpp:150] Setting up pool2
I0124 14:09:45.368981 31209 net.cpp:157] Top shape: 256 256 7 7 (3211264)
I0124 14:09:45.368985 31209 net.cpp:165] Memory required for data: 380208128
I0124 14:09:45.368989 31209 layer_factory.hpp:76] Creating layer conv3
I0124 14:09:45.369001 31209 net.cpp:106] Creating Layer conv3
I0124 14:09:45.369006 31209 net.cpp:454] conv3 <- pool2
I0124 14:09:45.369014 31209 net.cpp:411] conv3 -> conv3
I0124 14:09:45.395162 31209 net.cpp:150] Setting up conv3
I0124 14:09:45.395186 31209 net.cpp:157] Top shape: 256 384 7 7 (4816896)
I0124 14:09:45.395191 31209 net.cpp:165] Memory required for data: 399475712
I0124 14:09:45.395210 31209 layer_factory.hpp:76] Creating layer relu3
I0124 14:09:45.395229 31209 net.cpp:106] Creating Layer relu3
I0124 14:09:45.395236 31209 net.cpp:454] relu3 <- conv3
I0124 14:09:45.395242 31209 net.cpp:397] relu3 -> conv3 (in-place)
I0124 14:09:45.395902 31209 net.cpp:150] Setting up relu3
I0124 14:09:45.395915 31209 net.cpp:157] Top shape: 256 384 7 7 (4816896)
I0124 14:09:45.395920 31209 net.cpp:165] Memory required for data: 418743296
I0124 14:09:45.395941 31209 layer_factory.hpp:76] Creating layer conv4
I0124 14:09:45.395956 31209 net.cpp:106] Creating Layer conv4
I0124 14:09:45.395961 31209 net.cpp:454] conv4 <- conv3
I0124 14:09:45.395969 31209 net.cpp:411] conv4 -> conv4
I0124 14:09:45.417855 31209 net.cpp:150] Setting up conv4
I0124 14:09:45.417879 31209 net.cpp:157] Top shape: 256 384 7 7 (4816896)
I0124 14:09:45.417884 31209 net.cpp:165] Memory required for data: 438010880
I0124 14:09:45.417896 31209 layer_factory.hpp:76] Creating layer relu4
I0124 14:09:45.417911 31209 net.cpp:106] Creating Layer relu4
I0124 14:09:45.417917 31209 net.cpp:454] relu4 <- conv4
I0124 14:09:45.417925 31209 net.cpp:397] relu4 -> conv4 (in-place)
I0124 14:09:45.418485 31209 net.cpp:150] Setting up relu4
I0124 14:09:45.418498 31209 net.cpp:157] Top shape: 256 384 7 7 (4816896)
I0124 14:09:45.418503 31209 net.cpp:165] Memory required for data: 457278464
I0124 14:09:45.418506 31209 layer_factory.hpp:76] Creating layer conv5
I0124 14:09:45.418519 31209 net.cpp:106] Creating Layer conv5
I0124 14:09:45.418529 31209 net.cpp:454] conv5 <- conv4
I0124 14:09:45.418537 31209 net.cpp:411] conv5 -> conv5
I0124 14:09:45.434115 31209 net.cpp:150] Setting up conv5
I0124 14:09:45.434139 31209 net.cpp:157] Top shape: 256 256 7 7 (3211264)
I0124 14:09:45.434144 31209 net.cpp:165] Memory required for data: 470123520
I0124 14:09:45.434159 31209 layer_factory.hpp:76] Creating layer relu5
I0124 14:09:45.434171 31209 net.cpp:106] Creating Layer relu5
I0124 14:09:45.434176 31209 net.cpp:454] relu5 <- conv5
I0124 14:09:45.434186 31209 net.cpp:397] relu5 -> conv5 (in-place)
I0124 14:09:45.434780 31209 net.cpp:150] Setting up relu5
I0124 14:09:45.434792 31209 net.cpp:157] Top shape: 256 256 7 7 (3211264)
I0124 14:09:45.434797 31209 net.cpp:165] Memory required for data: 482968576
I0124 14:09:45.434801 31209 layer_factory.hpp:76] Creating layer pool5
I0124 14:09:45.434811 31209 net.cpp:106] Creating Layer pool5
I0124 14:09:45.434816 31209 net.cpp:454] pool5 <- conv5
I0124 14:09:45.434826 31209 net.cpp:411] pool5 -> pool5
I0124 14:09:45.435432 31209 net.cpp:150] Setting up pool5
I0124 14:09:45.435444 31209 net.cpp:157] Top shape: 256 256 3 3 (589824)
I0124 14:09:45.435448 31209 net.cpp:165] Memory required for data: 485327872
I0124 14:09:45.435452 31209 layer_factory.hpp:76] Creating layer fc6
I0124 14:09:45.435464 31209 net.cpp:106] Creating Layer fc6
I0124 14:09:45.435469 31209 net.cpp:454] fc6 <- pool5
I0124 14:09:45.435477 31209 net.cpp:411] fc6 -> fc6
I0124 14:09:45.558079 31209 net.cpp:150] Setting up fc6
I0124 14:09:45.558101 31209 net.cpp:157] Top shape: 256 2048 (524288)
I0124 14:09:45.558105 31209 net.cpp:165] Memory required for data: 487425024
I0124 14:09:45.558116 31209 layer_factory.hpp:76] Creating layer relu6
I0124 14:09:45.558128 31209 net.cpp:106] Creating Layer relu6
I0124 14:09:45.558133 31209 net.cpp:454] relu6 <- fc6
I0124 14:09:45.558141 31209 net.cpp:397] relu6 -> fc6 (in-place)
I0124 14:09:45.558774 31209 net.cpp:150] Setting up relu6
I0124 14:09:45.558785 31209 net.cpp:157] Top shape: 256 2048 (524288)
I0124 14:09:45.558791 31209 net.cpp:165] Memory required for data: 489522176
I0124 14:09:45.558795 31209 layer_factory.hpp:76] Creating layer drop6
I0124 14:09:45.558805 31209 net.cpp:106] Creating Layer drop6
I0124 14:09:45.558809 31209 net.cpp:454] drop6 <- fc6
I0124 14:09:45.558815 31209 net.cpp:397] drop6 -> fc6 (in-place)
I0124 14:09:45.558845 31209 net.cpp:150] Setting up drop6
I0124 14:09:45.558852 31209 net.cpp:157] Top shape: 256 2048 (524288)
I0124 14:09:45.558856 31209 net.cpp:165] Memory required for data: 491619328
I0124 14:09:45.558861 31209 layer_factory.hpp:76] Creating layer fc7
I0124 14:09:45.558871 31209 net.cpp:106] Creating Layer fc7
I0124 14:09:45.558876 31209 net.cpp:454] fc7 <- fc6
I0124 14:09:45.558882 31209 net.cpp:411] fc7 -> fc7
I0124 14:09:45.667290 31209 net.cpp:150] Setting up fc7
I0124 14:09:45.667316 31209 net.cpp:157] Top shape: 256 2048 (524288)
I0124 14:09:45.667321 31209 net.cpp:165] Memory required for data: 493716480
I0124 14:09:45.667368 31209 layer_factory.hpp:76] Creating layer relu7
I0124 14:09:45.667388 31209 net.cpp:106] Creating Layer relu7
I0124 14:09:45.667395 31209 net.cpp:454] relu7 <- fc7
I0124 14:09:45.667404 31209 net.cpp:397] relu7 -> fc7 (in-place)
I0124 14:09:45.668233 31209 net.cpp:150] Setting up relu7
I0124 14:09:45.668246 31209 net.cpp:157] Top shape: 256 2048 (524288)
I0124 14:09:45.668249 31209 net.cpp:165] Memory required for data: 495813632
I0124 14:09:45.668254 31209 layer_factory.hpp:76] Creating layer drop7
I0124 14:09:45.668263 31209 net.cpp:106] Creating Layer drop7
I0124 14:09:45.668268 31209 net.cpp:454] drop7 <- fc7
I0124 14:09:45.668277 31209 net.cpp:397] drop7 -> fc7 (in-place)
I0124 14:09:45.668313 31209 net.cpp:150] Setting up drop7
I0124 14:09:45.668319 31209 net.cpp:157] Top shape: 256 2048 (524288)
I0124 14:09:45.668323 31209 net.cpp:165] Memory required for data: 497910784
I0124 14:09:45.668328 31209 layer_factory.hpp:76] Creating layer fc8
I0124 14:09:45.668336 31209 net.cpp:106] Creating Layer fc8
I0124 14:09:45.668340 31209 net.cpp:454] fc8 <- fc7
I0124 14:09:45.668349 31209 net.cpp:411] fc8 -> fc8
I0124 14:09:45.723333 31209 net.cpp:150] Setting up fc8
I0124 14:09:45.723407 31209 net.cpp:157] Top shape: 256 1000 (256000)
I0124 14:09:45.723428 31209 net.cpp:165] Memory required for data: 498934784
I0124 14:09:45.723459 31209 layer_factory.hpp:76] Creating layer loss
I0124 14:09:45.723489 31209 net.cpp:106] Creating Layer loss
I0124 14:09:45.723506 31209 net.cpp:454] loss <- fc8
I0124 14:09:45.723526 31209 net.cpp:454] loss <- label
I0124 14:09:45.723546 31209 net.cpp:411] loss -> loss
I0124 14:09:45.723573 31209 layer_factory.hpp:76] Creating layer loss
…
    phase: TEST
  }
  transform_param {
    scale: 0.04
    mirror: false
    crop_size: 128
    mean_value: 104
    mean_value: 117
    mean_value: 123
    force_color: true
    resize_param {
      prob: 1
      resize_mode: FIT_SMALL_SIZE
      height: 144
      width: 144
      pad_mode: MIRRORED
      pad_value: 104
      pad_value: 117
      pad_value: 124
      interp_mode: LINEAR
      center_object: false
      max_angle: 0
    }
  }
  data_param {
    source: "/home/old-ufo/datasets/imagenet/ilsvrc12_val_lmdb"
    batch_size: 250
    backend: LMDB
  }
}
layer {
  name: "conv1"
  type: "Convolution"
  bottom: "data"
  top: "conv1"
  param {
    lr_mult: 1
    decay_mult: 1
  }
  param {
    lr_mult: 2
    decay_mult: 0
  }
  convolution_param {
    num_output: 96
    kernel_size: 11
    stride: 4
    weight_filler {
      type: "gaussian"
      std: 0.01
    }
    bias_filler {
      type: "constant"
    }
  }
}
layer {
  name: "relu1"
  type: "ReLU"
  bottom: "conv1"
  top: "relu1"
}
layer {
  name: "pool1"
  type: "Pooling"
  bottom: "relu1"
  top: "pool1"
  pooling_param {
    pool: MAX
    kernel_size: 3
    stride: 2
  }
}
layer {
  name: "conv2"
  type: "Convolution"
  bottom: "pool1"
  top: "conv2"
  param {
    lr_mult: 1
    decay_mult: 1
  }
  param {
    lr_mult: 2
    decay_mult: 0
  }
  convolution_param {
    num_output: 256
    pad: 2
    kernel_size: 5
    group: 2
    weight_filler {
      type: "gaussian"
      std: 0.01
    }
    bias_filler {
      type: "constant"
    }
  }
}
layer {
  name: "relu2"
  type: "ReLU"
  bottom: "conv2"
  top: "conv2"
}
layer {
  name: "pool2"
  type: "Pooling"
  bottom: "conv2"
  top: "pool2"
  pooling_param {
    pool: MAX
    kernel_size: 3
    stride: 2
  }
}
layer {
  name: "conv3"
  type: "Convolution"
  bottom: "pool2"
  top: "conv3"
  param {
    lr_mult: 1
    decay_mult: 1
  }
  param {
    lr_mult: 2
    decay_mult: 0
  }
  convolution_param {
    num_output: 384
    pad: 1
    kernel_size: 3
    weight_filler {
      type: "gaussian"
      std: 0.01
    }
    bias_filler {
      type: "constant"
    }
  }
}
layer {
  name: "relu3"
  type: "ReLU"
  bottom: "conv3"
  top: "conv3"
}
layer {
  name: "conv4"
  type: "Convolution"
  bottom: "conv3"
  top: "conv4"
  param {
    lr_mult: 1
    decay_mult: 1
  }
  param {
    lr_mult: 2
    decay_mult: 0
  }
  convolution_param {
    num_output: 384
    pad: 1
    kernel_size: 3
    group: 2
    weight_filler {
      type: "gaussian"
      std: 0.01
    }
    bias_filler {
      type: "constant"
    }
  }
}
layer {
  name: "relu4"
  type: "ReLU"
  bottom: "conv4"
  top: "conv4"
}
layer {
  name: "conv5"
  type: "Convolution"
  bottom: "conv4"
  top: "conv5"
  param {
    lr_mult: 1
    decay_mult: 1
  }
  param {
    lr_mult: 2
    decay_mult: 0
  }
  convolution_param {
    num_output: 256
    pad: 1
    kernel_size: 3
    group: 2
    weight_filler {
      type: "gaussian"
      std: 0.01
    }
    bias_filler {
      type: "constant"
    }
  }
}
layer {
  name: "relu5"
  type: "ReLU"
  bottom: "conv5"
  top: "conv5"
}
layer {
  name: "pool5"
  type: "Pooling"
  bottom: "conv5"
  top: "pool5"
  pooling_param {
    pool: MAX
    kernel_size: 3
    stride: 2
  }
}
layer {
  name: "fc6"
  type: "InnerProduct"
  bottom: "pool5"
  top: "fc6"
  param {
    lr_mult: 1
    decay_mult: 1
  }
  param {
    lr_mult: 2
    decay_mult: 0
  }
  inner_product_param {
    num_output: 2048
    weight_filler {
      type: "gaussian"
      std: 0.005
    }
    bias_filler {
      type: "constant"
    }
  }
}
layer {
  name: "relu6"
  type: "ReLU"
  bottom: "fc6"
  top: "fc6"
}
layer {
  name: "drop6"
  type: "Dropout"
  bottom: "fc6"
  top: "fc6"
  dropout_param {
    dropout_ratio: 0.5
  }
}
layer {
  name: "fc7"
  type: "InnerProduct"
  bottom: "fc6"
  top: "fc7"
  param {
    lr_mult: 1
    decay_mult: 1
  }
  param {
    lr_mult: 2
    decay_mult: 0
  }
  inner_product_param {
    num_output: 2048
    weight_filler {
      type: "gaussian"
      std: 0.005
    }
    bias_filler {
      type: "constant"
    }
  }
}
layer {
  name: "relu7"
  type: "ReLU"
  bottom: "fc7"
  top: "fc7"
}
layer {
  name: "drop7"
  type: "Dropout"
  bottom: "fc7"
  top: "fc7"
  dropout_param {
    dropout_ratio: 0.5
  }
}
layer {
  name: "fc8"
  type: "InnerProduct"
  bottom: "fc7"
  top: "fc8"
  param {
    lr_mult: 1
    decay_mult: 1
  }
  param {
    lr_mult: 2
    decay_mult: 0
  }
  inner_product_param {
    num_output: 1000
    weight_filler {
      type: "gaussian"
      std: 0.01
    }
    bias_filler {
      type: "constant"
    }
  }
}
layer {
  name: "accuracy"
  type: "Accuracy"
  bottom: "fc8"
  bottom: "label"
  top: "accuracy"
  include {
    phase: TEST
  }
}
layer {
  name: "loss"
  type: "SoftmaxWithLoss"
  bottom: "fc8"
  bottom: "label"
  top: "loss"
}
I0124 14:09:45.725888 31209 layer_factory.hpp:76] Creating layer data
I0124 14:09:45.726120 31209 net.cpp:106] Creating Layer data
I0124 14:09:45.726130 31209 net.cpp:411] data -> data
I0124 14:09:45.726140 31209 net.cpp:411] data -> label
I0124 14:09:45.727236 31222 db_lmdb.cpp:38] Opened lmdb /home/old-ufo/datasets/imagenet/ilsvrc12_val_lmdb
I0124 14:09:45.730892 31209 data_layer.cpp:41] output data size: 250,3,128,128
I0124 14:09:45.800366 31209 net.cpp:150] Setting up data
I0124 14:09:45.800397 31209 net.cpp:157] Top shape: 250 3 128 128 (12288000)
I0124 14:09:45.800403 31209 net.cpp:157] Top shape: 250 (250)
I0124 14:09:45.800406 31209 net.cpp:165] Memory required for data: 49153000
I0124 14:09:45.800415 31209 layer_factory.hpp:76] Creating layer label_data_1_split
I0124 14:09:45.800426 31209 net.cpp:106] Creating Layer label_data_1_split
I0124 14:09:45.800431 31209 net.cpp:454] label_data_1_split <- label
I0124 14:09:45.800439 31209 net.cpp:411] label_data_1_split -> label_data_1_split_0
I0124 14:09:45.800449 31209 net.cpp:411] label_data_1_split -> label_data_1_split_1
I0124 14:09:45.800539 31209 net.cpp:150] Setting up label_data_1_split
I0124 14:09:45.800549 31209 net.cpp:157] Top shape: 250 (250)
I0124 14:09:45.800554 31209 net.cpp:157] Top shape: 250 (250)
I0124 14:09:45.800559 31209 net.cpp:165] Memory required for data: 49155000
I0124 14:09:45.800562 31209 layer_factory.hpp:76] Creating layer conv1
I0124 14:09:45.800575 31209 net.cpp:106] Creating Layer conv1
I0124 14:09:45.800578 31209 net.cpp:454] conv1 <- data
I0124 14:09:45.800585 31209 net.cpp:411] conv1 -> conv1
I0124 14:09:45.809408 31209 net.cpp:150] Setting up conv1
I0124 14:09:45.809444 31209 net.cpp:157] Top shape: 250 96 30 30 (21600000)
I0124 14:09:45.809451 31209 net.cpp:165] Memory required for data: 135555000
I0124 14:09:45.809470 31209 layer_factory.hpp:76] Creating layer relu1
I0124 14:09:45.809487 31209 net.cpp:106] Creating Layer relu1
I0124 14:09:45.809495 31209 net.cpp:454] relu1 <- conv1
I0124 14:09:45.809504 31209 net.cpp:411] relu1 -> relu1
I0124 14:09:45.810585 31209 net.cpp:150] Setting up relu1
I0124 14:09:45.810606 31209 net.cpp:157] Top shape: 250 96 30 30 (21600000)
I0124 14:09:45.810608 31209 net.cpp:165] Memory required for data: 221955000
I0124 14:09:45.810613 31209 layer_factory.hpp:76] Creating layer pool1
I0124 14:09:45.810624 31209 net.cpp:106] Creating Layer pool1
I0124 14:09:45.810628 31209 net.cpp:454] pool1 <- relu1
I0124 14:09:45.810636 31209 net.cpp:411] pool1 -> pool1
I0124 14:09:45.811370 31209 net.cpp:150] Setting up pool1
I0124 14:09:45.811383 31209 net.cpp:157] Top shape: 250 96 15 15 (5400000)
I0124 14:09:45.811384 31209 net.cpp:165] Memory required for data: 243555000
I0124 14:09:45.811388 31209 layer_factory.hpp:76] Creating layer conv2
I0124 14:09:45.811396 31209 net.cpp:106] Creating Layer conv2
I0124 14:09:45.811400 31209 net.cpp:454] conv2 <- pool1
I0124 14:09:45.811406 31209 net.cpp:411] conv2 -> conv2
I0124 14:09:45.824189 31209 net.cpp:150] Setting up conv2
I0124 14:09:45.824214 31209 net.cpp:157] Top shape: 250 256 15 15 (14400000)
I0124 14:09:45.824218 31209 net.cpp:165] Memory required for data: 301155000
I0124 14:09:45.824229 31209 layer_factory.hpp:76] Creating layer relu2
I0124 14:09:45.824237 31209 net.cpp:106] Creating Layer relu2
I0124 14:09:45.824259 31209 net.cpp:454] relu2 <- conv2
I0124 14:09:45.824266 31209 net.cpp:397] relu2 -> conv2 (in-place)
I0124 14:09:45.824846 31209 net.cpp:150] Setting up relu2
I0124 14:09:45.824857 31209 net.cpp:157] Top shape: 250 256 15 15 (14400000)
I0124 14:09:45.824861 31209 net.cpp:165] Memory required for data: 358755000
I0124 14:09:45.824863 31209 layer_factory.hpp:76] Creating layer pool2
I0124 14:09:45.824872 31209 net.cpp:106] Creating Layer pool2
I0124 14:09:45.824874 31209 net.cpp:454] pool2 <- conv2
I0124 14:09:45.824879 31209 net.cpp:411] pool2 -> pool2
I0124 14:09:45.825470 31209 net.cpp:150] Setting up pool2
I0124 14:09:45.825481 31209 net.cpp:157] Top shape: 250 256 7 7 (3136000)
I0124 14:09:45.825484 31209 net.cpp:165] Memory required for data: 371299000
I0124 14:09:45.825486 31209 layer_factory.hpp:76] Creating layer conv3
I0124 14:09:45.825497 31209 net.cpp:106] Creating Layer conv3
I0124 14:09:45.825500 31209 net.cpp:454] conv3 <- pool2
I0124 14:09:45.825505 31209 net.cpp:411] conv3 -> conv3
I0124 14:09:45.860007 31209 net.cpp:150] Setting up conv3
I0124 14:09:45.860038 31209 net.cpp:157] Top shape: 250 384 7 7 (4704000)
I0124 14:09:45.860043 31209 net.cpp:165] Memory required for data: 390115000
I0124 14:09:45.860057 31209 layer_factory.hpp:76] Creating layer relu3
I0124 14:09:45.860069 31209 net.cpp:106] Creating Layer relu3
I0124 14:09:45.860074 31209 net.cpp:454] relu3 <- conv3
I0124 14:09:45.860083 31209 net.cpp:397] relu3 -> conv3 (in-place)
I0124 14:09:45.860898 31209 net.cpp:150] Setting up relu3
I0124 14:09:45.860910 31209 net.cpp:157] Top shape: 250 384 7 7 (4704000)
I0124 14:09:45.860914 31209 net.cpp:165] Memory required for data: 408931000
I0124 14:09:45.860918 31209 layer_factory.hpp:76] Creating layer conv4
I0124 14:09:45.860931 31209 net.cpp:106] Creating Layer conv4
I0124 14:09:45.860936 31209 net.cpp:454] conv4 <- conv3
I0124 14:09:45.860944 31209 net.cpp:411] conv4 -> conv4
I0124 14:09:45.890610 31209 net.cpp:150] Setting up conv4
I0124 14:09:45.890640 31209 net.cpp:157] Top shape: 250 384 7 7 (4704000)
I0124 14:09:45.890645 31209 net.cpp:165] Memory required for data: 427747000
I0124 14:09:45.890657 31209 layer_factory.hpp:76] Creating layer relu4
I0124 14:09:45.890671 31209 net.cpp:106] Creating Layer relu4
I0124 14:09:45.890676 31209 net.cpp:454] relu4 <- conv4
I0124 14:09:45.890683 31209 net.cpp:397] relu4 -> conv4 (in-place)
I0124 14:09:45.891484 31209 net.cpp:150] Setting up relu4
I0124 14:09:45.891497 31209 net.cpp:157] Top shape: 250 384 7 7 (4704000)
I0124 14:09:45.891501 31209 net.cpp:165] Memory required for data: 446563000
I0124 14:09:45.891505 31209 layer_factory.hpp:76] Creating layer conv5
I0124 14:09:45.891520 31209 net.cpp:106] Creating Layer conv5
I0124 14:09:45.891525 31209 net.cpp:454] conv5 <- conv4
I0124 14:09:45.891532 31209 net.cpp:411] conv5 -> conv5
I0124 14:09:45.913245 31209 net.cpp:150] Setting up conv5
I0124 14:09:45.913274 31209 net.cpp:157] Top shape: 250 256 7 7 (3136000)
I0124 14:09:45.913278 31209 net.cpp:165] Memory required for data: 459107000
I0124 14:09:45.913295 31209 layer_factory.hpp:76] Creating layer relu5
I0124 14:09:45.913306 31209 net.cpp:106] Creating Layer relu5
I0124 14:09:45.913311 31209 net.cpp:454] relu5 <- conv5
I0124 14:09:45.913321 31209 net.cpp:397] relu5 -> conv5 (in-place)
I0124 14:09:45.914139 31209 net.cpp:150] Setting up relu5
I0124 14:09:45.914154 31209 net.cpp:157] Top shape: 250 256 7 7 (3136000)
I0124 14:09:45.914157 31209 net.cpp:165] Memory required for data: 471651000
I0124 14:09:45.914162 31209 layer_factory.hpp:76] Creating layer pool5
I0124 14:09:45.914172 31209 net.cpp:106] Creating Layer pool5
I0124 14:09:45.914176 31209 net.cpp:454] pool5 <- conv5
I0124 14:09:45.914185 31209 net.cpp:411] pool5 -> pool5
I0124 14:09:45.915033 31209 net.cpp:150] Setting up pool5
I0124 14:09:45.915046 31209 net.cpp:157] Top shape: 250 256 3 3 (576000)
I0124 14:09:45.915050 31209 net.cpp:165] Memory required for data: 473955000
I0124 14:09:45.915055 31209 layer_factory.hpp:76] Creating layer fc6
I0124 14:09:45.915081 31209 net.cpp:106] Creating Layer fc6
I0124 14:09:45.915086 31209 net.cpp:454] fc6 <- pool5
I0124 14:09:45.915093 31209 net.cpp:411] fc6 -> fc6
I0124 14:09:46.084359 31209 net.cpp:150] Setting up fc6
I0124 14:09:46.084524 31209 net.cpp:157] Top shape: 250 2048 (512000)
I0124 14:09:46.084590 31209 net.cpp:165] Memory required for data: 476003000
I0124 14:09:46.084658 31209 layer_factory.hpp:76] Creating layer relu6
I0124 14:09:46.084728 31209 net.cpp:106] Creating Layer relu6
I0124 14:09:46.084787 31209 net.cpp:454] relu6 <- fc6
I0124 14:09:46.084847 31209 net.cpp:397] relu6 -> fc6 (in-place)
I0124 14:09:46.086091 31209 net.cpp:150] Setting up relu6
I0124 14:09:46.086174 31209 net.cpp:157] Top shape: 250 2048 (512000)
I0124 14:09:46.086233 31209 net.cpp:165] Memory required for data: 478051000
I0124 14:09:46.086290 31209 layer_factory.hpp:76] Creating layer drop6
I0124 14:09:46.086349 31209 net.cpp:106] Creating Layer drop6
I0124 14:09:46.086406 31209 net.cpp:454] drop6 <- fc6
I0124 14:09:46.086467 31209 net.cpp:397] drop6 -> fc6 (in-place)
I0124 14:09:46.086565 31209 net.cpp:150] Setting up drop6
I0124 14:09:46.086630 31209 net.cpp:157] Top shape: 250 2048 (512000)
I0124 14:09:46.086685 31209 net.cpp:165] Memory required for data: 480099000
I0124 14:09:46.086745 31209 layer_factory.hpp:76] Creating layer fc7
I0124 14:09:46.086813 31209 net.cpp:106] Creating Layer fc7
I0124 14:09:46.086870 31209 net.cpp:454] fc7 <- fc6
I0124 14:09:46.086931 31209 net.cpp:411] fc7 -> fc7
I0124 14:09:46.242069 31209 net.cpp:150] Setting up fc7
I0124 14:09:46.242233 31209 net.cpp:157] Top shape: 250 2048 (512000)
I0124 14:09:46.242300 31209 net.cpp:165] Memory required for data: 482147000
I0124 14:09:46.242364 31209 layer_factory.hpp:76] Creating layer relu7
I0124 14:09:46.242430 31209 net.cpp:106] Creating Layer relu7
I0124 14:09:46.242490 31209 net.cpp:454] relu7 <- fc7
I0124 14:09:46.242558 31209 net.cpp:397] relu7 -> fc7 (in-place)
I0124 14:09:46.243652 31209 net.cpp:150] Setting up relu7
I0124 14:09:46.243731 31209 net.cpp:157] Top shape: 250 2048 (512000)
I0124 14:09:46.243788 31209 net.cpp:165] Memory required for data: 484195000
I0124 14:09:46.243844 31209 layer_factory.hpp:76] Creating layer drop7
I0124 14:09:46.243906 31209 net.cpp:106] Creating Layer drop7
I0124 14:09:46.243963 31209 net.cpp:454] drop7 <- fc7
I0124 14:09:46.244027 31209 net.cpp:397] drop7 -> fc7 (in-place)
I0124 14:09:46.244135 31209 net.cpp:150] Setting up drop7
I0124 14:09:46.244199 31209 net.cpp:157] Top shape: 250 2048 (512000)
I0124 14:09:46.244256 31209 net.cpp:165] Memory required for data: 486243000
I0124 14:09:46.244313 31209 layer_factory.hpp:76] Creating layer fc8
I0124 14:09:46.244382 31209 net.cpp:106] Creating Layer fc8
I0124 14:09:46.244441 31209 net.cpp:454] fc8 <- fc7
I0124 14:09:46.244503 31209 net.cpp:411] fc8 -> fc8
I0124 14:09:46.326403 31209 net.cpp:150] Setting up fc8
I0124 14:09:46.326561 31209 net.cpp:157] Top shape: 250 1000 (250000)
I0124 14:09:46.326628 31209 net.cpp:165] Memory required for data: 487243000
I0124 14:09:46.326695 31209 layer_factory.hpp:76] Creating layer fc8_fc8_0_split
I0124 14:09:46.326759 31209 net.cpp:106] Creating Layer fc8_fc8_0_split
I0124 14:09:46.326817 31209 net.cpp:454] fc8_fc8_0_split <- fc8
I0124 14:09:46.326881 31209 net.cpp:411] fc8_fc8_0_split -> fc8_fc8_0_split_0
I0124 14:09:46.326947 31209 net.cpp:411] fc8_fc8_0_split -> fc8_fc8_0_split_1
I0124 14:09:46.327110 31209 net.cpp:150] Setting up fc8_fc8_0_split
I0124 14:09:46.327180 31209 net.cpp:157] Top shape: 250 1000 (250000)
I0124 14:09:46.327239 31209 net.cpp:157] Top shape: 250 1000 (250000)
I0124 14:09:46.327294 31209 net.cpp:165] Memory required for data: 489243000
I0124 14:09:46.327352 31209 layer_factory.hpp:76] Creating layer accuracy
I0124 14:09:46.327417 31209 net.cpp:106] Creating Layer accuracy
I0124 14:09:46.327474 31209 net.cpp:454] accuracy <- fc8_fc8_0_split_0
I0124 14:09:46.327533 31209 net.cpp:454] accuracy <- label_data_1_split_0
I0124 14:09:46.327594 31209 net.cpp:411] accuracy -> accuracy
…
