…
      mirror: false
      crop_size: 128
      mean_value: 104
      mean_value: 117
      mean_value: 123
      force_color: true
      resize_param {
        prob: 1
        resize_mode: FIT_SMALL_SIZE
        height: 144
        width: 144
        pad_mode: MIRRORED
        pad_value: 104
        pad_value: 117
        pad_value: 124
        interp_mode: LINEAR
        center_object: false
        max_angle: 0
      }
    }
    data_param {
      source: "/local/temporary/imagenet_clc_orig/ilsvrc12_val_lmdb"
      batch_size: 50
      backend: LMDB
    }
  }
  layer {
    name: "conv1"
    type: "Convolution"
    bottom: "data"
    top: "conv1"
    param {
      lr_mult: 1
      decay_mult: 1
    }
    param {
      lr_mult: 2
      decay_mult: 0
    }
    convolution_param {
      num_output: 96
      kernel_size: 11
      stride: 4
      weight_filler {
        type: "gaussian"
        std: 0.01
      }
      bias_filler {
        type: "constant"
      }
    }
  }
  layer {
    name: "relu1"
    type: "ReLU"
    bottom: "conv1"
    top: "relu1"
  }
  layer {
    name: "pool1"
    type: "Pooling"
    bottom: "relu1"
    top: "pool1"
    pooling_param {
      pool: MAX
      kernel_size: 3
      stride: 2
    }
  }
  layer {
    name: "conv2"
    type: "Convolution"
    bottom: "pool1"
    top: "conv2"
    param {
      lr_mult: 1
      decay_mult: 1
    }
    param {
      lr_mult: 2
      decay_mult: 0
    }
    convolution_param {
      num_output: 256
      pad: 2
      kernel_size: 5
      group: 2
      weight_filler {
        type: "gaussian"
        std: 0.01
      }
      bias_filler {
        type: "constant"
      }
    }
  }
  layer {
    name: "relu2"
    type: "ReLU"
    bottom: "conv2"
    top: "relu2"
  }
  layer {
    name: "pool2"
    type: "Pooling"
    bottom: "relu2"
    top: "pool2"
    pooling_param {
      pool: MAX
      kernel_size: 3
      stride: 2
    }
  }
  layer {
    name: "conv3"
    type: "Convolution"
    bottom: "pool2"
    top: "conv3"
    param {
      lr_mult: 1
      decay_mult: 1
    }
    param {
      lr_mult: 2
      decay_mult: 0
    }
    convolution_param {
      num_output: 384
      pad: 1
      kernel_size: 3
      weight_filler {
        type: "gaussian"
        std: 0.01
      }
      bias_filler {
        type: "constant"
      }
    }
  }
  layer {
    name: "relu3"
    type: "ReLU"
    bottom: "conv3"
    top: "relu3"
  }
  layer {
    name: "conv4"
    type: "Convolution"
    bottom: "relu3"
    top: "conv4"
    param {
      lr_mult: 1
      decay_mult: 1
    }
    param {
      lr_mult: 2
      decay_mult: 0
    }
    convolution_param {
      num_output: 384
      pad: 1
      kernel_size: 3
      group: 2
      weight_filler {
        type: "gaussian"
        std: 0.01
      }
      bias_filler {
        type: "constant"
      }
    }
  }
  layer {
    name: "relu4"
    type: "ReLU"
    bottom: "conv4"
    top: "relu4"
  }
  layer {
    name: "conv5"
    type: "Convolution"
    bottom: "relu4"
    top: "conv5"
    param {
      lr_mult: 1
      decay_mult: 1
    }
    param {
      lr_mult: 2
      decay_mult: 0
    }
    convolution_param {
      num_output: 256
      pad: 1
      kernel_size: 3
      group: 2
      weight_filler {
        type: "gaussian"
        std: 0.01
      }
      bias_filler {
        type: "constant"
      }
    }
  }
  layer {
    name: "relu5"
    type: "ReLU"
    bottom: "conv5"
    top: "relu5"
  }
  layer {
    name: "pool5"
    type: "Pooling"
    bottom: "relu5"
    top: "pool5"
    pooling_param {
      pool: MAX
      kernel_size: 3
      stride: 2
    }
  }
  layer {
    name: "fc6"
    type: "InnerProduct"
    bottom: "pool5"
    top: "fc6"
    param {
      lr_mult: 1
      decay_mult: 1
    }
    param {
      lr_mult: 2
      decay_mult: 0
    }
    inner_product_param {
      num_output: 2048
      weight_filler {
        type: "gaussian"
        std: 0.005
      }
      bias_filler {
        type: "constant"
      }
    }
  }
  layer {
    name: "relu6"
    type: "ReLU"
    bottom: "fc6"
    top: "relu6"
  }
  layer {
    name: "drop6"
    type: "Dropout"
    bottom: "relu6"
    top: "drop6"
    dropout_param {
      dropout_ratio: 0.5
    }
  }
  layer {
    name: "fc7"
    type: "InnerProduct"
    bottom: "drop6"
    top: "fc7"
    param {
      lr_mult: 1
      decay_mult: 1
    }
    param {
      lr_mult: 2
      decay_mult: 0
    }
    inner_product_param {
      num_output: 2048
      weight_filler {
        type: "gaussian"
        std: 0.005
      }
      bias_filler {
        type: "constant"
      }
    }
  }
  layer {
    name: "relu7"
    type: "ReLU"
    bottom: "fc7"
    top: "relu7"
  }
  layer {
    name: "drop7"
    type: "Dropout"
    bottom: "relu7"
    top: "drop7"
    dropout_param {
      dropout_ratio: 0.5
    }
  }
  layer {
    name: "fc8"
    type: "InnerProduct"
    bottom: "drop7"
    top: "fc8"
    param {
      lr_mult: 1
      decay_mult: 1
    }
    param {
      lr_mult: 2
      decay_mult: 0
    }
    inner_product_param {
      num_output: 1000
      weight_filler {
        type: "gaussian"
        std: 0.01
      }
      bias_filler {
        type: "constant"
      }
    }
  }
  layer {
    name: "accuracy"
    type: "Accuracy"
    bottom: "fc8"
    bottom: "label"
    top: "accuracy"
    include {
      phase: TEST
    }
  }
  layer {
    name: "loss"
    type: "SoftmaxWithLoss"
    bottom: "fc8"
    bottom: "label"
    top: "loss"
  }
}
delta: 1e-05
test_initialization: false
iter_size: 1
type: "AdaDelta"
I0124 12:16:23.216568 11911 solver.cpp:85] Creating training net specified in net_param.
I0124 12:16:23.216758 11911 net.cpp:322] The NetState phase (0) differed from the phase (1) specified by a rule in layer data
I0124 12:16:23.216811 11911 net.cpp:322] The NetState phase (0) differed from the phase (1) specified by a rule in layer accuracy
I0124 12:16:23.217327 11911 net.cpp:49] Initializing net from parameters: 
name: "CaffeNet"
state {
  phase: TRAIN
}
layer {
  name: "data"
  type: "Data"
  top: "data"
  top: "label"
  include {
    phase: TRAIN
  }
  transform_param {
    scale: 0.04
    mirror: true
    crop_size: 128
    mean_value: 104
    mean_value: 117
    mean_value: 124
    force_color: true
    resize_param {
      prob: 1
      resize_mode: FIT_SMALL_SIZE
      height: 144
      width: 144
      pad_mode: MIRRORED
      pad_value: 104
      pad_value: 117
      pad_value: 124
      interp_mode: LINEAR
      center_object: false
      max_angle: 0
    }
  }
  data_param {
    source: "/local/temporary/imagenet_clc_orig/ilsvrc12_train_shuffle_lmdb"
    batch_size: 128
    backend: LMDB
  }
}
layer {
  name: "conv1"
  type: "Convolution"
  bottom: "data"
  top: "conv1"
  param {
    lr_mult: 1
    decay_mult: 1
  }
  param {
    lr_mult: 2
    decay_mult: 0
  }
  convolution_param {
    num_output: 96
    kernel_size: 11
    stride: 4
    weight_filler {
      type: "gaussian"
      std: 0.01
    }
    bias_filler {
      type: "constant"
    }
  }
}
layer {
  name: "relu1"
  type: "ReLU"
  bottom: "conv1"
  top: "relu1"
}
layer {
  name: "pool1"
  type: "Pooling"
  bottom: "relu1"
  top: "pool1"
  pooling_param {
    pool: MAX
    kernel_size: 3
    stride: 2
  }
}
layer {
  name: "conv2"
  type: "Convolution"
  bottom: "pool1"
  top: "conv2"
  param {
    lr_mult: 1
    decay_mult: 1
  }
  param {
    lr_mult: 2
    decay_mult: 0
  }
  convolution_param {
    num_output: 256
    pad: 2
    kernel_size: 5
    group: 2
    weight_filler {
      type: "gaussian"
      std: 0.01
    }
    bias_filler {
      type: "constant"
    }
  }
}
layer {
  name: "relu2"
  type: "ReLU"
  bottom: "conv2"
  top: "relu2"
}
layer {
  name: "pool2"
  type: "Pooling"
  bottom: "relu2"
  top: "pool2"
  pooling_param {
    pool: MAX
    kernel_size: 3
    stride: 2
  }
}
layer {
  name: "conv3"
  type: "Convolution"
  bottom: "pool2"
  top: "conv3"
  param {
    lr_mult: 1
    decay_mult: 1
  }
  param {
    lr_mult: 2
    decay_mult: 0
  }
  convolution_param {
    num_output: 384
    pad: 1
    kernel_size: 3
    weight_filler {
      type: "gaussian"
      std: 0.01
    }
    bias_filler {
      type: "constant"
    }
  }
}
layer {
  name: "relu3"
  type: "ReLU"
  bottom: "conv3"
  top: "relu3"
}
layer {
  name: "conv4"
  type: "Convolution"
  bottom: "relu3"
  top: "conv4"
  param {
    lr_mult: 1
    decay_mult: 1
  }
  param {
    lr_mult: 2
    decay_mult: 0
  }
  convolution_param {
    num_output: 384
    pad: 1
    kernel_size: 3
    group: 2
    weight_filler {
      type: "gaussian"
      std: 0.01
    }
    bias_filler {
      type: "constant"
    }
  }
}
layer {
  name: "relu4"
  type: "ReLU"
  bottom: "conv4"
  top: "relu4"
}
layer {
  name: "conv5"
  type: "Convolution"
  bottom: "relu4"
  top: "conv5"
  param {
    lr_mult: 1
    decay_mult: 1
  }
  param {
    lr_mult: 2
    decay_mult: 0
  }
  convolution_param {
    num_output: 256
    pad: 1
    kernel_size: 3
    group: 2
    weight_filler {
      type: "gaussian"
      std: 0.01
    }
    bias_filler {
      type: "constant"
    }
  }
}
layer {
  name: "relu5"
  type: "ReLU"
  bottom: "conv5"
  top: "relu5"
}
layer {
  name: "pool5"
  type: "Pooling"
  bottom: "relu5"
  top: "pool5"
  pooling_param {
    pool: MAX
    kernel_size: 3
    stride: 2
  }
}
layer {
  name: "fc6"
  type: "InnerProduct"
  bottom: "pool5"
  top: "fc6"
  param {
    lr_mult: 1
    decay_mult: 1
  }
  param {
    lr_mult: 2
    decay_mult: 0
  }
  inner_product_param {
    num_output: 2048
    weight_filler {
      type: "gaussian"
      std: 0.005
    }
    bias_filler {
      type: "constant"
    }
  }
}
layer {
  name: "relu6"
  type: "ReLU"
  bottom: "fc6"
  top: "relu6"
}
layer {
  name: "drop6"
  type: "Dropout"
  bottom: "relu6"
  top: "drop6"
  dropout_param {
    dropout_ratio: 0.5
  }
}
layer {
  name: "fc7"
  type: "InnerProduct"
  bottom: "drop6"
  top: "fc7"
  param {
    lr_mult: 1
    decay_mult: 1
  }
  param {
    lr_mult: 2
    decay_mult: 0
  }
  inner_product_param {
    num_output: 2048
    weight_filler {
      type: "gaussian"
      std: 0.005
    }
    bias_filler {
      type: "constant"
    }
  }
}
layer {
  name: "relu7"
  type: "ReLU"
  bottom: "fc7"
  top: "relu7"
}
layer {
  name: "drop7"
  type: "Dropout"
  bottom: "relu7"
  top: "drop7"
  dropout_param {
    dropout_ratio: 0.5
  }
}
layer {
  name: "fc8"
  type: "InnerProduct"
  bottom: "drop7"
  top: "fc8"
  param {
    lr_mult: 1
    decay_mult: 1
  }
  param {
    lr_mult: 2
    decay_mult: 0
  }
  inner_product_param {
    num_output: 1000
    weight_filler {
      type: "gaussian"
      std: 0.01
    }
    bias_filler {
      type: "constant"
    }
  }
}
layer {
  name: "loss"
  type: "SoftmaxWithLoss"
  bottom: "fc8"
  bottom: "label"
  top: "loss"
}
I0124 12:16:23.217561 11911 layer_factory.hpp:76] Creating layer data
I0124 12:16:23.218611 11911 net.cpp:106] Creating Layer data
I0124 12:16:23.218663 11911 net.cpp:411] data -> data
I0124 12:16:23.218720 11911 net.cpp:411] data -> label
I0124 12:16:23.219876 11947 db_lmdb.cpp:38] Opened lmdb /local/temporary/imagenet_clc_orig/ilsvrc12_train_shuffle_lmdb
I0124 12:16:23.248047 11911 data_layer.cpp:41] output data size: 128,3,128,128
I0124 12:16:23.306046 11911 net.cpp:150] Setting up data
I0124 12:16:23.306097 11911 net.cpp:157] Top shape: 128 3 128 128 (6291456)
I0124 12:16:23.306105 11911 net.cpp:157] Top shape: 128 (128)
I0124 12:16:23.306110 11911 net.cpp:165] Memory required for data: 25166336
I0124 12:16:23.306125 11911 layer_factory.hpp:76] Creating layer conv1
I0124 12:16:23.306159 11911 net.cpp:106] Creating Layer conv1
I0124 12:16:23.306167 11911 net.cpp:454] conv1 <- data
I0124 12:16:23.306191 11911 net.cpp:411] conv1 -> conv1
I0124 12:16:23.557580 11911 cudnn_conv_layer.cpp:194] Reallocating workspace storage: 4356
I0124 12:16:23.557723 11911 net.cpp:150] Setting up conv1
I0124 12:16:23.557737 11911 net.cpp:157] Top shape: 128 96 30 30 (11059200)
I0124 12:16:23.557742 11911 net.cpp:165] Memory required for data: 69403136
I0124 12:16:23.557775 11911 layer_factory.hpp:76] Creating layer relu1
I0124 12:16:23.557788 11911 net.cpp:106] Creating Layer relu1
I0124 12:16:23.557792 11911 net.cpp:454] relu1 <- conv1
I0124 12:16:23.557799 11911 net.cpp:411] relu1 -> relu1
I0124 12:16:23.558001 11911 net.cpp:150] Setting up relu1
I0124 12:16:23.558012 11911 net.cpp:157] Top shape: 128 96 30 30 (11059200)
I0124 12:16:23.558015 11911 net.cpp:165] Memory required for data: 113639936
I0124 12:16:23.558019 11911 layer_factory.hpp:76] Creating layer pool1
I0124 12:16:23.558027 11911 net.cpp:106] Creating Layer pool1
I0124 12:16:23.558032 11911 net.cpp:454] pool1 <- relu1
I0124 12:16:23.558037 11911 net.cpp:411] pool1 -> pool1
I0124 12:16:23.558377 11911 net.cpp:150] Setting up pool1
I0124 12:16:23.558388 11911 net.cpp:157] Top shape: 128 96 15 15 (2764800)
I0124 12:16:23.558403 11911 net.cpp:165] Memory required for data: 124699136
I0124 12:16:23.558408 11911 layer_factory.hpp:76] Creating layer conv2
I0124 12:16:23.558425 11911 net.cpp:106] Creating Layer conv2
I0124 12:16:23.558429 11911 net.cpp:454] conv2 <- pool1
I0124 12:16:23.558437 11911 net.cpp:411] conv2 -> conv2
I0124 12:16:23.569211 11911 cudnn_conv_layer.cpp:194] Reallocating workspace storage: 28800
I0124 12:16:23.569244 11911 net.cpp:150] Setting up conv2
I0124 12:16:23.569252 11911 net.cpp:157] Top shape: 128 256 15 15 (7372800)
I0124 12:16:23.569254 11911 net.cpp:165] Memory required for data: 154190336
I0124 12:16:23.569264 11911 layer_factory.hpp:76] Creating layer relu2
I0124 12:16:23.569272 11911 net.cpp:106] Creating Layer relu2
I0124 12:16:23.569281 11911 net.cpp:454] relu2 <- conv2
I0124 12:16:23.569286 11911 net.cpp:411] relu2 -> relu2
I0124 12:16:23.569486 11911 net.cpp:150] Setting up relu2
I0124 12:16:23.569496 11911 net.cpp:157] Top shape: 128 256 15 15 (7372800)
I0124 12:16:23.569500 11911 net.cpp:165] Memory required for data: 183681536
I0124 12:16:23.569504 11911 layer_factory.hpp:76] Creating layer pool2
I0124 12:16:23.569514 11911 net.cpp:106] Creating Layer pool2
I0124 12:16:23.569517 11911 net.cpp:454] pool2 <- relu2
I0124 12:16:23.569522 11911 net.cpp:411] pool2 -> pool2
I0124 12:16:23.569845 11911 net.cpp:150] Setting up pool2
I0124 12:16:23.569856 11911 net.cpp:157] Top shape: 128 256 7 7 (1605632)
I0124 12:16:23.569871 11911 net.cpp:165] Memory required for data: 190104064
I0124 12:16:23.569875 11911 layer_factory.hpp:76] Creating layer conv3
I0124 12:16:23.569887 11911 net.cpp:106] Creating Layer conv3
I0124 12:16:23.569891 11911 net.cpp:454] conv3 <- pool2
I0124 12:16:23.569897 11911 net.cpp:411] conv3 -> conv3
I0124 12:16:23.595526 11911 net.cpp:150] Setting up conv3
I0124 12:16:23.595552 11911 net.cpp:157] Top shape: 128 384 7 7 (2408448)
I0124 12:16:23.595556 11911 net.cpp:165] Memory required for data: 199737856
I0124 12:16:23.595566 11911 layer_factory.hpp:76] Creating layer relu3
I0124 12:16:23.595576 11911 net.cpp:106] Creating Layer relu3
I0124 12:16:23.595582 11911 net.cpp:454] relu3 <- conv3
I0124 12:16:23.595587 11911 net.cpp:411] relu3 -> relu3
I0124 12:16:23.595924 11911 net.cpp:150] Setting up relu3
I0124 12:16:23.595937 11911 net.cpp:157] Top shape: 128 384 7 7 (2408448)
I0124 12:16:23.595940 11911 net.cpp:165] Memory required for data: 209371648
I0124 12:16:23.595943 11911 layer_factory.hpp:76] Creating layer conv4
I0124 12:16:23.595955 11911 net.cpp:106] Creating Layer conv4
I0124 12:16:23.595962 11911 net.cpp:454] conv4 <- relu3
I0124 12:16:23.595968 11911 net.cpp:411] conv4 -> conv4
I0124 12:16:23.616503 11911 net.cpp:150] Setting up conv4
I0124 12:16:23.616515 11911 net.cpp:157] Top shape: 128 384 7 7 (2408448)
I0124 12:16:23.616519 11911 net.cpp:165] Memory required for data: 219005440
I0124 12:16:23.616533 11911 layer_factory.hpp:76] Creating layer relu4
I0124 12:16:23.616551 11911 net.cpp:106] Creating Layer relu4
I0124 12:16:23.616555 11911 net.cpp:454] relu4 <- conv4
I0124 12:16:23.616574 11911 net.cpp:411] relu4 -> relu4
I0124 12:16:23.616770 11911 net.cpp:150] Setting up relu4
I0124 12:16:23.616780 11911 net.cpp:157] Top shape: 128 384 7 7 (2408448)
I0124 12:16:23.616786 11911 net.cpp:165] Memory required for data: 228639232
I0124 12:16:23.616788 11911 layer_factory.hpp:76] Creating layer conv5
I0124 12:16:23.616799 11911 net.cpp:106] Creating Layer conv5
I0124 12:16:23.616803 11911 net.cpp:454] conv5 <- relu4
I0124 12:16:23.616808 11911 net.cpp:411] conv5 -> conv5
I0124 12:16:23.631358 11911 net.cpp:150] Setting up conv5
I0124 12:16:23.631382 11911 net.cpp:157] Top shape: 128 256 7 7 (1605632)
I0124 12:16:23.631386 11911 net.cpp:165] Memory required for data: 235061760
I0124 12:16:23.631397 11911 layer_factory.hpp:76] Creating layer relu5
I0124 12:16:23.631402 11911 net.cpp:106] Creating Layer relu5
I0124 12:16:23.631405 11911 net.cpp:454] relu5 <- conv5
I0124 12:16:23.631412 11911 net.cpp:411] relu5 -> relu5
I0124 12:16:23.631618 11911 net.cpp:150] Setting up relu5
I0124 12:16:23.631628 11911 net.cpp:157] Top shape: 128 256 7 7 (1605632)
I0124 12:16:23.631631 11911 net.cpp:165] Memory required for data: 241484288
I0124 12:16:23.631634 11911 layer_factory.hpp:76] Creating layer pool5
I0124 12:16:23.631644 11911 net.cpp:106] Creating Layer pool5
I0124 12:16:23.631649 11911 net.cpp:454] pool5 <- relu5
I0124 12:16:23.631656 11911 net.cpp:411] pool5 -> pool5
I0124 12:16:23.631978 11911 net.cpp:150] Setting up pool5
I0124 12:16:23.631989 11911 net.cpp:157] Top shape: 128 256 3 3 (294912)
I0124 12:16:23.631992 11911 net.cpp:165] Memory required for data: 242663936
I0124 12:16:23.631996 11911 layer_factory.hpp:76] Creating layer fc6
I0124 12:16:23.632005 11911 net.cpp:106] Creating Layer fc6
I0124 12:16:23.632011 11911 net.cpp:454] fc6 <- pool5
I0124 12:16:23.632017 11911 net.cpp:411] fc6 -> fc6
I0124 12:16:23.766119 11911 net.cpp:150] Setting up fc6
I0124 12:16:23.766155 11911 net.cpp:157] Top shape: 128 2048 (262144)
I0124 12:16:23.766160 11911 net.cpp:165] Memory required for data: 243712512
I0124 12:16:23.766172 11911 layer_factory.hpp:76] Creating layer relu6
I0124 12:16:23.766185 11911 net.cpp:106] Creating Layer relu6
I0124 12:16:23.766190 11911 net.cpp:454] relu6 <- fc6
I0124 12:16:23.766209 11911 net.cpp:411] relu6 -> relu6
I0124 12:16:23.766450 11911 net.cpp:150] Setting up relu6
I0124 12:16:23.766461 11911 net.cpp:157] Top shape: 128 2048 (262144)
I0124 12:16:23.766466 11911 net.cpp:165] Memory required for data: 244761088
I0124 12:16:23.766470 11911 layer_factory.hpp:76] Creating layer drop6
I0124 12:16:23.766479 11911 net.cpp:106] Creating Layer drop6
I0124 12:16:23.766484 11911 net.cpp:454] drop6 <- relu6
I0124 12:16:23.766489 11911 net.cpp:411] drop6 -> drop6
I0124 12:16:23.766536 11911 net.cpp:150] Setting up drop6
I0124 12:16:23.766543 11911 net.cpp:157] Top shape: 128 2048 (262144)
I0124 12:16:23.766548 11911 net.cpp:165] Memory required for data: 245809664
I0124 12:16:23.766552 11911 layer_factory.hpp:76] Creating layer fc7
I0124 12:16:23.766580 11911 net.cpp:106] Creating Layer fc7
I0124 12:16:23.766587 11911 net.cpp:454] fc7 <- drop6
I0124 12:16:23.766595 11911 net.cpp:411] fc7 -> fc7
I0124 12:16:23.881608 11911 net.cpp:150] Setting up fc7
I0124 12:16:23.881671 11911 net.cpp:157] Top shape: 128 2048 (262144)
I0124 12:16:23.881676 11911 net.cpp:165] Memory required for data: 246858240
I0124 12:16:23.881686 11911 layer_factory.hpp:76] Creating layer relu7
I0124 12:16:23.881695 11911 net.cpp:106] Creating Layer relu7
I0124 12:16:23.881700 11911 net.cpp:454] relu7 <- fc7
I0124 12:16:23.881707 11911 net.cpp:411] relu7 -> relu7
I0124 12:16:23.882179 11911 net.cpp:150] Setting up relu7
I0124 12:16:23.882190 11911 net.cpp:157] Top shape: 128 2048 (262144)
I0124 12:16:23.882205 11911 net.cpp:165] Memory required for data: 247906816
I0124 12:16:23.882208 11911 layer_factory.hpp:76] Creating layer drop7
I0124 12:16:23.882225 11911 net.cpp:106] Creating Layer drop7
I0124 12:16:23.882228 11911 net.cpp:454] drop7 <- relu7
I0124 12:16:23.882233 11911 net.cpp:411] drop7 -> drop7
I0124 12:16:23.882289 11911 net.cpp:150] Setting up drop7
I0124 12:16:23.882295 11911 net.cpp:157] Top shape: 128 2048 (262144)
I0124 12:16:23.882299 11911 net.cpp:165] Memory required for data: 248955392
I0124 12:16:23.882303 11911 layer_factory.hpp:76] Creating layer fc8
I0124 12:16:23.882314 11911 net.cpp:106] Creating Layer fc8
I0124 12:16:23.882319 11911 net.cpp:454] fc8 <- drop7
I0124 12:16:23.882324 11911 net.cpp:411] fc8 -> fc8
I0124 12:16:23.939362 11911 net.cpp:150] Setting up fc8
I0124 12:16:23.939391 11911 net.cpp:157] Top shape: 128 1000 (128000)
I0124 12:16:23.939394 11911 net.cpp:165] Memory required for data: 249467392
I0124 12:16:23.939409 11911 layer_factory.hpp:76] Creating layer loss
I0124 12:16:23.939419 11911 net.cpp:106] Creating Layer loss
I0124 12:16:23.939424 11911 net.cpp:454] loss <- fc8
I0124 12:16:23.939429 11911 net.cpp:454] loss <- label
I0124 12:16:23.939450 11911 net.cpp:411] loss -> loss
I0124 12:16:23.939465 11911 layer_factory.hpp:76] Creating layer loss
…
  }
  transform_param {
    scale: 0.04
    mirror: false
    crop_size: 128
    mean_value: 104
    mean_value: 117
    mean_value: 123
    force_color: true
    resize_param {
      prob: 1
      resize_mode: FIT_SMALL_SIZE
      height: 144
      width: 144
      pad_mode: MIRRORED
      pad_value: 104
      pad_value: 117
      pad_value: 124
      interp_mode: LINEAR
      center_object: false
      max_angle: 0
    }
  }
  data_param {
    source: "/local/temporary/imagenet_clc_orig/ilsvrc12_val_lmdb"
    batch_size: 50
    backend: LMDB
  }
}
layer {
  name: "conv1"
  type: "Convolution"
  bottom: "data"
  top: "conv1"
  param {
    lr_mult: 1
    decay_mult: 1
  }
  param {
    lr_mult: 2
    decay_mult: 0
  }
  convolution_param {
    num_output: 96
    kernel_size: 11
    stride: 4
    weight_filler {
      type: "gaussian"
      std: 0.01
    }
    bias_filler {
      type: "constant"
    }
  }
}
layer {
  name: "relu1"
  type: "ReLU"
  bottom: "conv1"
  top: "relu1"
}
layer {
  name: "pool1"
  type: "Pooling"
  bottom: "relu1"
  top: "pool1"
  pooling_param {
    pool: MAX
    kernel_size: 3
    stride: 2
  }
}
layer {
  name: "conv2"
  type: "Convolution"
  bottom: "pool1"
  top: "conv2"
  param {
    lr_mult: 1
    decay_mult: 1
  }
  param {
    lr_mult: 2
    decay_mult: 0
  }
  convolution_param {
    num_output: 256
    pad: 2
    kernel_size: 5
    group: 2
    weight_filler {
      type: "gaussian"
      std: 0.01
    }
    bias_filler {
      type: "constant"
    }
  }
}
layer {
  name: "relu2"
  type: "ReLU"
  bottom: "conv2"
  top: "relu2"
}
layer {
  name: "pool2"
  type: "Pooling"
  bottom: "relu2"
  top: "pool2"
  pooling_param {
    pool: MAX
    kernel_size: 3
    stride: 2
  }
}
layer {
  name: "conv3"
  type: "Convolution"
  bottom: "pool2"
  top: "conv3"
  param {
    lr_mult: 1
    decay_mult: 1
  }
  param {
    lr_mult: 2
    decay_mult: 0
  }
  convolution_param {
    num_output: 384
    pad: 1
    kernel_size: 3
    weight_filler {
      type: "gaussian"
      std: 0.01
    }
    bias_filler {
      type: "constant"
    }
  }
}
layer {
  name: "relu3"
  type: "ReLU"
  bottom: "conv3"
  top: "relu3"
}
layer {
  name: "conv4"
  type: "Convolution"
  bottom: "relu3"
  top: "conv4"
  param {
    lr_mult: 1
    decay_mult: 1
  }
  param {
    lr_mult: 2
    decay_mult: 0
  }
  convolution_param {
    num_output: 384
    pad: 1
    kernel_size: 3
    group: 2
    weight_filler {
      type: "gaussian"
      std: 0.01
    }
    bias_filler {
      type: "constant"
    }
  }
}
layer {
  name: "relu4"
  type: "ReLU"
  bottom: "conv4"
  top: "relu4"
}
layer {
  name: "conv5"
  type: "Convolution"
  bottom: "relu4"
  top: "conv5"
  param {
    lr_mult: 1
    decay_mult: 1
  }
  param {
    lr_mult: 2
    decay_mult: 0
  }
  convolution_param {
    num_output: 256
    pad: 1
    kernel_size: 3
    group: 2
    weight_filler {
      type: "gaussian"
      std: 0.01
    }
    bias_filler {
      type: "constant"
    }
  }
}
layer {
  name: "relu5"
  type: "ReLU"
  bottom: "conv5"
  top: "relu5"
}
layer {
  name: "pool5"
  type: "Pooling"
  bottom: "relu5"
  top: "pool5"
  pooling_param {
    pool: MAX
    kernel_size: 3
    stride: 2
  }
}
layer {
  name: "fc6"
  type: "InnerProduct"
  bottom: "pool5"
  top: "fc6"
  param {
    lr_mult: 1
    decay_mult: 1
  }
  param {
    lr_mult: 2
    decay_mult: 0
  }
  inner_product_param {
    num_output: 2048
    weight_filler {
      type: "gaussian"
      std: 0.005
    }
    bias_filler {
      type: "constant"
    }
  }
}
layer {
  name: "relu6"
  type: "ReLU"
  bottom: "fc6"
  top: "relu6"
}
layer {
  name: "drop6"
  type: "Dropout"
  bottom: "relu6"
  top: "drop6"
  dropout_param {
    dropout_ratio: 0.5
  }
}
layer {
  name: "fc7"
  type: "InnerProduct"
  bottom: "drop6"
  top: "fc7"
  param {
    lr_mult: 1
    decay_mult: 1
  }
  param {
    lr_mult: 2
    decay_mult: 0
  }
  inner_product_param {
    num_output: 2048
    weight_filler {
      type: "gaussian"
      std: 0.005
    }
    bias_filler {
      type: "constant"
    }
  }
}
layer {
  name: "relu7"
  type: "ReLU"
  bottom: "fc7"
  top: "relu7"
}
layer {
  name: "drop7"
  type: "Dropout"
  bottom: "relu7"
  top: "drop7"
  dropout_param {
    dropout_ratio: 0.5
  }
}
layer {
  name: "fc8"
  type: "InnerProduct"
  bottom: "drop7"
  top: "fc8"
  param {
    lr_mult: 1
    decay_mult: 1
  }
  param {
    lr_mult: 2
    decay_mult: 0
  }
  inner_product_param {
    num_output: 1000
    weight_filler {
      type: "gaussian"
      std: 0.01
    }
    bias_filler {
      type: "constant"
    }
  }
}
layer {
  name: "accuracy"
  type: "Accuracy"
  bottom: "fc8"
  bottom: "label"
  top: "accuracy"
  include {
    phase: TEST
  }
}
layer {
  name: "loss"
  type: "SoftmaxWithLoss"
  bottom: "fc8"
  bottom: "label"
  top: "loss"
}
I0124 12:16:23.941315 11911 layer_factory.hpp:76] Creating layer data
I0124 12:16:23.941431 11911 net.cpp:106] Creating Layer data
I0124 12:16:23.941450 11911 net.cpp:411] data -> data
I0124 12:16:23.941462 11911 net.cpp:411] data -> label
I0124 12:16:23.944577 11951 db_lmdb.cpp:38] Opened lmdb /local/temporary/imagenet_clc_orig/ilsvrc12_val_lmdb
I0124 12:16:23.947331 11911 data_layer.cpp:41] output data size: 50,3,128,128
I0124 12:16:23.964622 11911 net.cpp:150] Setting up data
I0124 12:16:23.964650 11911 net.cpp:157] Top shape: 50 3 128 128 (2457600)
I0124 12:16:23.964656 11911 net.cpp:157] Top shape: 50 (50)
I0124 12:16:23.964660 11911 net.cpp:165] Memory required for data: 9830600
I0124 12:16:23.964669 11911 layer_factory.hpp:76] Creating layer label_data_1_split
I0124 12:16:23.964697 11911 net.cpp:106] Creating Layer label_data_1_split
I0124 12:16:23.964702 11911 net.cpp:454] label_data_1_split <- label
I0124 12:16:23.964710 11911 net.cpp:411] label_data_1_split -> label_data_1_split_0
I0124 12:16:23.964723 11911 net.cpp:411] label_data_1_split -> label_data_1_split_1
I0124 12:16:23.964864 11911 net.cpp:150] Setting up label_data_1_split
I0124 12:16:23.964872 11911 net.cpp:157] Top shape: 50 (50)
I0124 12:16:23.964877 11911 net.cpp:157] Top shape: 50 (50)
I0124 12:16:23.964880 11911 net.cpp:165] Memory required for data: 9831000
I0124 12:16:23.964884 11911 layer_factory.hpp:76] Creating layer conv1
I0124 12:16:23.964897 11911 net.cpp:106] Creating Layer conv1
I0124 12:16:23.964902 11911 net.cpp:454] conv1 <- data
I0124 12:16:23.964910 11911 net.cpp:411] conv1 -> conv1
I0124 12:16:23.967067 11911 cudnn_conv_layer.cpp:194] Reallocating workspace storage: 4356
I0124 12:16:23.967114 11911 net.cpp:150] Setting up conv1
I0124 12:16:23.967134 11911 net.cpp:157] Top shape: 50 96 30 30 (4320000)
I0124 12:16:23.967139 11911 net.cpp:165] Memory required for data: 27111000
I0124 12:16:23.967151 11911 layer_factory.hpp:76] Creating layer relu1
I0124 12:16:23.967159 11911 net.cpp:106] Creating Layer relu1
I0124 12:16:23.967164 11911 net.cpp:454] relu1 <- conv1
I0124 12:16:23.967169 11911 net.cpp:411] relu1 -> relu1
I0124 12:16:23.967501 11911 net.cpp:150] Setting up relu1
I0124 12:16:23.967525 11911 net.cpp:157] Top shape: 50 96 30 30 (4320000)
I0124 12:16:23.967528 11911 net.cpp:165] Memory required for data: 44391000
I0124 12:16:23.967532 11911 layer_factory.hpp:76] Creating layer pool1
I0124 12:16:23.967540 11911 net.cpp:106] Creating Layer pool1
I0124 12:16:23.967545 11911 net.cpp:454] pool1 <- relu1
I0124 12:16:23.967550 11911 net.cpp:411] pool1 -> pool1
I0124 12:16:23.967757 11911 net.cpp:150] Setting up pool1
I0124 12:16:23.967767 11911 net.cpp:157] Top shape: 50 96 15 15 (1080000)
I0124 12:16:23.967769 11911 net.cpp:165] Memory required for data: 48711000
I0124 12:16:23.967773 11911 layer_factory.hpp:76] Creating layer conv2
I0124 12:16:23.967782 11911 net.cpp:106] Creating Layer conv2
I0124 12:16:23.967787 11911 net.cpp:454] conv2 <- pool1
I0124 12:16:23.967793 11911 net.cpp:411] conv2 -> conv2
I0124 12:16:23.977802 11911 cudnn_conv_layer.cpp:194] Reallocating workspace storage: 28800
I0124 12:16:23.977859 11911 net.cpp:150] Setting up conv2
I0124 12:16:23.977865 11911 net.cpp:157] Top shape: 50 256 15 15 (2880000)
I0124 12:16:23.977871 11911 net.cpp:165] Memory required for data: 60231000
I0124 12:16:23.977895 11911 layer_factory.hpp:76] Creating layer relu2
I0124 12:16:23.977901 11911 net.cpp:106] Creating Layer relu2
I0124 12:16:23.977905 11911 net.cpp:454] relu2 <- conv2
I0124 12:16:23.977910 11911 net.cpp:411] relu2 -> relu2
I0124 12:16:23.978107 11911 net.cpp:150] Setting up relu2
I0124 12:16:23.978117 11911 net.cpp:157] Top shape: 50 256 15 15 (2880000)
I0124 12:16:23.978121 11911 net.cpp:165] Memory required for data: 71751000
I0124 12:16:23.978126 11911 layer_factory.hpp:76] Creating layer pool2
I0124 12:16:23.978132 11911 net.cpp:106] Creating Layer pool2
I0124 12:16:23.978134 11911 net.cpp:454] pool2 <- relu2
I0124 12:16:23.978140 11911 net.cpp:411] pool2 -> pool2
I0124 12:16:23.978490 11911 net.cpp:150] Setting up pool2
I0124 12:16:23.978502 11911 net.cpp:157] Top shape: 50 256 7 7 (627200)
I0124 12:16:23.978516 11911 net.cpp:165] Memory required for data: 74259800
I0124 12:16:23.978523 11911 layer_factory.hpp:76] Creating layer conv3
I0124 12:16:23.978539 11911 net.cpp:106] Creating Layer conv3
I0124 12:16:23.978545 11911 net.cpp:454] conv3 <- pool2
I0124 12:16:23.978551 11911 net.cpp:411] conv3 -> conv3
I0124 12:16:24.005079 11911 cudnn_conv_layer.cpp:194] Reallocating workspace storage: 27648
I0124 12:16:24.005100 11911 net.cpp:150] Setting up conv3
I0124 12:16:24.005105 11911 net.cpp:157] Top shape: 50 384 7 7 (940800)
I0124 12:16:24.005108 11911 net.cpp:165] Memory required for data: 78023000
I0124 12:16:24.005117 11911 layer_factory.hpp:76] Creating layer relu3
I0124 12:16:24.005138 11911 net.cpp:106] Creating Layer relu3
I0124 12:16:24.005142 11911 net.cpp:454] relu3 <- conv3
I0124 12:16:24.005147 11911 net.cpp:411] relu3 -> relu3
I0124 12:16:24.005348 11911 net.cpp:150] Setting up relu3
I0124 12:16:24.005357 11911 net.cpp:157] Top shape: 50 384 7 7 (940800)
I0124 12:16:24.005362 11911 net.cpp:165] Memory required for data: 81786200
I0124 12:16:24.005367 11911 layer_factory.hpp:76] Creating layer conv4
I0124 12:16:24.005375 11911 net.cpp:106] Creating Layer conv4
I0124 12:16:24.005380 11911 net.cpp:454] conv4 <- relu3
I0124 12:16:24.005393 11911 net.cpp:411] conv4 -> conv4
I0124 12:16:24.025424 11911 net.cpp:150] Setting up conv4
I0124 12:16:24.025450 11911 net.cpp:157] Top shape: 50 384 7 7 (940800)
I0124 12:16:24.025454 11911 net.cpp:165] Memory required for data: 85549400
I0124 12:16:24.025462 11911 layer_factory.hpp:76] Creating layer relu4
I0124 12:16:24.025468 11911 net.cpp:106] Creating Layer relu4
I0124 12:16:24.025475 11911 net.cpp:454] relu4 <- conv4
I0124 12:16:24.025490 11911 net.cpp:411] relu4 -> relu4
I0124 12:16:24.025701 11911 net.cpp:150] Setting up relu4
I0124 12:16:24.025712 11911 net.cpp:157] Top shape: 50 384 7 7 (940800)
I0124 12:16:24.025714 11911 net.cpp:165] Memory required for data: 89312600
I0124 12:16:24.025718 11911 layer_factory.hpp:76] Creating layer conv5
I0124 12:16:24.025729 11911 net.cpp:106] Creating Layer conv5
I0124 12:16:24.025734 11911 net.cpp:454] conv5 <- relu4
I0124 12:16:24.025743 11911 net.cpp:411] conv5 -> conv5
I0124 12:16:24.039943 11911 net.cpp:150] Setting up conv5
I0124 12:16:24.039968 11911 net.cpp:157] Top shape: 50 256 7 7 (627200)
I0124 12:16:24.039973 11911 net.cpp:165] Memory required for data: 91821400
I0124 12:16:24.039983 11911 layer_factory.hpp:76] Creating layer relu5
I0124 12:16:24.039990 11911 net.cpp:106] Creating Layer relu5
I0124 12:16:24.039994 11911 net.cpp:454] relu5 <- conv5
I0124 12:16:24.039999 11911 net.cpp:411] relu5 -> relu5
I0124 12:16:24.040356 11911 net.cpp:150] Setting up relu5
I0124 12:16:24.040380 11911 net.cpp:157] Top shape: 50 256 7 7 (627200)
I0124 12:16:24.040383 11911 net.cpp:165] Memory required for data: 94330200
I0124 12:16:24.040387 11911 layer_factory.hpp:76] Creating layer pool5
I0124 12:16:24.040395 11911 net.cpp:106] Creating Layer pool5
I0124 12:16:24.040398 11911 net.cpp:454] pool5 <- relu5
I0124 12:16:24.040426 11911 net.cpp:411] pool5 -> pool5
I0124 12:16:24.040642 11911 net.cpp:150] Setting up pool5
I0124 12:16:24.040653 11911 net.cpp:157] Top shape: 50 256 3 3 (115200)
I0124 12:16:24.040658 11911 net.cpp:165] Memory required for data: 94791000
I0124 12:16:24.040663 11911 layer_factory.hpp:76] Creating layer fc6
I0124 12:16:24.040670 11911 net.cpp:106] Creating Layer fc6
I0124 12:16:24.040675 11911 net.cpp:454] fc6 <- pool5
I0124 12:16:24.040683 11911 net.cpp:411] fc6 -> fc6
I0124 12:16:24.171538 11911 net.cpp:150] Setting up fc6
I0124 12:16:24.171576 11911 net.cpp:157] Top shape: 50 2048 (102400)
I0124 12:16:24.171579 11911 net.cpp:165] Memory required for data: 95200600
I0124 12:16:24.171591 11911 layer_factory.hpp:76] Creating layer relu6
I0124 12:16:24.171607 11911 net.cpp:106] Creating Layer relu6
I0124 12:16:24.171612 11911 net.cpp:454] relu6 <- fc6
I0124 12:16:24.171620 11911 net.cpp:411] relu6 -> relu6
I0124 12:16:24.172086 11911 net.cpp:150] Setting up relu6
I0124 12:16:24.172097 11911 net.cpp:157] Top shape: 50 2048 (102400)
I0124 12:16:24.172101 11911 net.cpp:165] Memory required for data: 95610200
I0124 12:16:24.172106 11911 layer_factory.hpp:76] Creating layer drop6
I0124 12:16:24.172112 11911 net.cpp:106] Creating Layer drop6
I0124 12:16:24.172116 11911 net.cpp:454] drop6 <- relu6
I0124 12:16:24.172123 11911 net.cpp:411] drop6 -> drop6
I0124 12:16:24.172175 11911 net.cpp:150] Setting up drop6
I0124 12:16:24.172183 11911 net.cpp:157] Top shape: 50 2048 (102400)
I0124 12:16:24.172188 11911 net.cpp:165] Memory required for data: 96019800
I0124 12:16:24.172190 11911 layer_factory.hpp:76] Creating layer fc7
I0124 12:16:24.172200 11911 net.cpp:106] Creating Layer fc7
I0124 12:16:24.172206 11911 net.cpp:454] fc7 <- drop6
I0124 12:16:24.172214 11911 net.cpp:411] fc7 -> fc7
I0124 12:16:24.287788 11911 net.cpp:150] Setting up fc7
I0124 12:16:24.287825 11911 net.cpp:157] Top shape: 50 2048 (102400)
I0124 12:16:24.287829 11911 net.cpp:165] Memory required for data: 96429400
I0124 12:16:24.287847 11911 layer_factory.hpp:76] Creating layer relu7
I0124 12:16:24.287856 11911 net.cpp:106] Creating Layer relu7
I0124 12:16:24.287861 11911 net.cpp:454] relu7 <- fc7
I0124 12:16:24.287869 11911 net.cpp:411] relu7 -> relu7
I0124 12:16:24.288163 11911 net.cpp:150] Setting up relu7
I0124 12:16:24.288173 11911 net.cpp:157] Top shape: 50 2048 (102400)
I0124 12:16:24.288177 11911 net.cpp:165] Memory required for data: 96839000
I0124 12:16:24.288182 11911 layer_factory.hpp:76] Creating layer drop7
I0124 12:16:24.288189 11911 net.cpp:106] Creating Layer drop7
I0124 12:16:24.288192 11911 net.cpp:454] drop7 <- relu7
I0124 12:16:24.288200 11911 net.cpp:411] drop7 -> drop7
I0124 12:16:24.288242 11911 net.cpp:150] Setting up drop7
I0124 12:16:24.288249 11911 net.cpp:157] Top shape: 50 2048 (102400)
I0124 12:16:24.288252 11911 net.cpp:165] Memory required for data: 97248600
I0124 12:16:24.288255 11911 layer_factory.hpp:76] Creating layer fc8
I0124 12:16:24.288266 11911 net.cpp:106] Creating Layer fc8
I0124 12:16:24.288271 11911 net.cpp:454] fc8 <- drop7
I0124 12:16:24.288278 11911 net.cpp:411] fc8 -> fc8
I0124 12:16:24.344331 11911 net.cpp:150] Setting up fc8
I0124 12:16:24.344348 11911 net.cpp:157] Top shape: 50 1000 (50000)
I0124 12:16:24.344352 11911 net.cpp:165] Memory required for data: 97448600
I0124 12:16:24.344360 11911 layer_factory.hpp:76] Creating layer fc8_fc8_0_split
I0124 12:16:24.344368 11911 net.cpp:106] Creating Layer fc8_fc8_0_split
I0124 12:16:24.344372 11911 net.cpp:454] fc8_fc8_0_split <- fc8
I0124 12:16:24.344382 11911 net.cpp:411] fc8_fc8_0_split -> fc8_fc8_0_split_0
I0124 12:16:24.344398 11911 net.cpp:411] fc8_fc8_0_split -> fc8_fc8_0_split_1
I0124 12:16:24.344440 11911 net.cpp:150] Setting up fc8_fc8_0_split
I0124 12:16:24.344445 11911 net.cpp:157] Top shape: 50 1000 (50000)
I0124 12:16:24.344449 11911 net.cpp:157] Top shape: 50 1000 (50000)
I0124 12:16:24.344452 11911 net.cpp:165] Memory required for data: 97848600
I0124 12:16:24.344456 11911 layer_factory.hpp:76] Creating layer accuracy
I0124 12:16:24.344496 11911 net.cpp:106] Creating Layer accuracy
I0124 12:16:24.344502 11911 net.cpp:454] accuracy <- fc8_fc8_0_split_0
I0124 12:16:24.344507 11911 net.cpp:454] accuracy <- label_data_1_split_0
I0124 12:16:24.344516 11911 net.cpp:411] accuracy -> accuracy
…
