…
      mirror: false
      crop_size: 128
      mean_value: 104
      mean_value: 117
      mean_value: 123
      force_color: true
      resize_param {
        prob: 1
        resize_mode: FIT_SMALL_SIZE
        height: 144
        width: 144
        pad_mode: MIRRORED
        pad_value: 104
        pad_value: 117
        pad_value: 124
        interp_mode: LINEAR
        center_object: false
        max_angle: 0
      }
    }
    data_param {
      source: "/home/old-ufo/datasets/imagenet/ilsvrc12_val_lmdb"
      batch_size: 250
      backend: LMDB
    }
  }
  layer {
    name: "conv1"
    type: "Convolution"
    bottom: "data"
    top: "conv1"
    param {
      lr_mult: 1
      decay_mult: 1
    }
    param {
      lr_mult: 2
      decay_mult: 0
    }
    convolution_param {
      num_output: 96
      kernel_size: 11
      stride: 4
      weight_filler {
        type: "gaussian"
        std: 0.01
      }
      bias_filler {
        type: "constant"
      }
    }
  }
  layer {
    name: "relu1"
    type: "ReLU"
    bottom: "conv1"
    top: "relu1"
  }
  layer {
    name: "pool1"
    type: "Pooling"
    bottom: "relu1"
    top: "pool1"
    pooling_param {
      pool: MAX
      kernel_size: 3
      stride: 2
    }
  }
  layer {
    name: "conv2"
    type: "Convolution"
    bottom: "pool1"
    top: "conv2"
    param {
      lr_mult: 1
      decay_mult: 1
    }
    param {
      lr_mult: 2
      decay_mult: 0
    }
    convolution_param {
      num_output: 256
      pad: 2
      kernel_size: 5
      group: 2
      weight_filler {
        type: "gaussian"
        std: 0.01
      }
      bias_filler {
        type: "constant"
      }
    }
  }
  layer {
    name: "relu2"
    type: "ReLU"
    bottom: "conv2"
    top: "conv2"
  }
  layer {
    name: "pool2"
    type: "Pooling"
    bottom: "conv2"
    top: "pool2"
    pooling_param {
      pool: MAX
      kernel_size: 3
      stride: 2
    }
  }
  layer {
    name: "conv3"
    type: "Convolution"
    bottom: "pool2"
    top: "conv3"
    param {
      lr_mult: 1
      decay_mult: 1
    }
    param {
      lr_mult: 2
      decay_mult: 0
    }
    convolution_param {
      num_output: 384
      pad: 1
      kernel_size: 3
      weight_filler {
        type: "gaussian"
        std: 0.01
      }
      bias_filler {
        type: "constant"
      }
    }
  }
  layer {
    name: "relu3"
    type: "ReLU"
    bottom: "conv3"
    top: "conv3"
  }
  layer {
    name: "conv4"
    type: "Convolution"
    bottom: "conv3"
    top: "conv4"
    param {
      lr_mult: 1
      decay_mult: 1
    }
    param {
      lr_mult: 2
      decay_mult: 0
    }
    convolution_param {
      num_output: 384
      pad: 1
      kernel_size: 3
      group: 2
      weight_filler {
        type: "gaussian"
        std: 0.01
      }
      bias_filler {
        type: "constant"
      }
    }
  }
  layer {
    name: "relu4"
    type: "ReLU"
    bottom: "conv4"
    top: "conv4"
  }
  layer {
    name: "conv5"
    type: "Convolution"
    bottom: "conv4"
    top: "conv5"
    param {
      lr_mult: 1
      decay_mult: 1
    }
    param {
      lr_mult: 2
      decay_mult: 0
    }
    convolution_param {
      num_output: 256
      pad: 1
      kernel_size: 3
      group: 2
      weight_filler {
        type: "gaussian"
        std: 0.01
      }
      bias_filler {
        type: "constant"
      }
    }
  }
  layer {
    name: "relu5"
    type: "ReLU"
    bottom: "conv5"
    top: "conv5"
  }
  layer {
    name: "pool5"
    type: "Pooling"
    bottom: "conv5"
    top: "pool5"
    pooling_param {
      pool: MAX
      kernel_size: 3
      stride: 2
    }
  }
  layer {
    name: "fc6"
    type: "InnerProduct"
    bottom: "pool5"
    top: "fc6"
    param {
      lr_mult: 1
      decay_mult: 1
    }
    param {
      lr_mult: 2
      decay_mult: 0
    }
    inner_product_param {
      num_output: 2048
      weight_filler {
        type: "gaussian"
        std: 0.005
      }
      bias_filler {
        type: "constant"
      }
    }
  }
  layer {
    name: "relu6"
    type: "ReLU"
    bottom: "fc6"
    top: "fc6"
  }
  layer {
    name: "drop6"
    type: "Dropout"
    bottom: "fc6"
    top: "fc6"
    dropout_param {
      dropout_ratio: 0.5
    }
  }
  layer {
    name: "fc7"
    type: "InnerProduct"
    bottom: "fc6"
    top: "fc7"
    param {
      lr_mult: 1
      decay_mult: 1
    }
    param {
      lr_mult: 2
      decay_mult: 0
    }
    inner_product_param {
      num_output: 2048
      weight_filler {
        type: "gaussian"
        std: 0.005
      }
      bias_filler {
        type: "constant"
      }
    }
  }
  layer {
    name: "relu7"
    type: "ReLU"
    bottom: "fc7"
    top: "fc7"
  }
  layer {
    name: "drop7"
    type: "Dropout"
    bottom: "fc7"
    top: "fc7"
    dropout_param {
      dropout_ratio: 0.5
    }
  }
  layer {
    name: "fc8"
    type: "InnerProduct"
    bottom: "fc7"
    top: "fc8"
    param {
      lr_mult: 1
      decay_mult: 1
    }
    param {
      lr_mult: 2
      decay_mult: 0
    }
    inner_product_param {
      num_output: 1000
      weight_filler {
        type: "gaussian"
        std: 0.01
      }
      bias_filler {
        type: "constant"
      }
    }
  }
  layer {
    name: "accuracy"
    type: "Accuracy"
    bottom: "fc8"
    bottom: "label"
    top: "accuracy"
    include {
      phase: TEST
    }
  }
  layer {
    name: "loss"
    type: "SoftmaxWithLoss"
    bottom: "fc8"
    bottom: "label"
    top: "loss"
  }
}
test_initialization: false
average_loss: 20
iter_size: 1
momentum2: 0.99
type: "Adam"
I0124 13:15:00.560755 27586 solver.cpp:86] Creating training net specified in net_param.
I0124 13:15:00.560948 27586 net.cpp:322] The NetState phase (0) differed from the phase (1) specified by a rule in layer data
I0124 13:15:00.561003 27586 net.cpp:322] The NetState phase (0) differed from the phase (1) specified by a rule in layer accuracy
I0124 13:15:00.561298 27586 net.cpp:49] Initializing net from parameters: 
name: "CaffeNet"
state {
  phase: TRAIN
}
layer {
  name: "data"
  type: "Data"
  top: "data"
  top: "label"
  include {
    phase: TRAIN
  }
  transform_param {
    scale: 0.04
    mirror: true
    crop_size: 128
    mean_value: 104
    mean_value: 117
    mean_value: 124
    force_color: true
    resize_param {
      prob: 1
      resize_mode: FIT_SMALL_SIZE
      height: 144
      width: 144
      pad_mode: MIRRORED
      pad_value: 104
      pad_value: 117
      pad_value: 124
      interp_mode: LINEAR
      center_object: false
      max_angle: 0
    }
  }
  data_param {
    source: "/home/old-ufo/datasets/imagenet/ilsvrc12_train_shuffle_lmdb"
    batch_size: 256
    backend: LMDB
  }
}
layer {
  name: "conv1"
  type: "Convolution"
  bottom: "data"
  top: "conv1"
  param {
    lr_mult: 1
    decay_mult: 1
  }
  param {
    lr_mult: 2
    decay_mult: 0
  }
  convolution_param {
    num_output: 96
    kernel_size: 11
    stride: 4
    weight_filler {
      type: "gaussian"
      std: 0.01
    }
    bias_filler {
      type: "constant"
    }
  }
}
layer {
  name: "relu1"
  type: "ReLU"
  bottom: "conv1"
  top: "relu1"
}
layer {
  name: "pool1"
  type: "Pooling"
  bottom: "relu1"
  top: "pool1"
  pooling_param {
    pool: MAX
    kernel_size: 3
    stride: 2
  }
}
layer {
  name: "conv2"
  type: "Convolution"
  bottom: "pool1"
  top: "conv2"
  param {
    lr_mult: 1
    decay_mult: 1
  }
  param {
    lr_mult: 2
    decay_mult: 0
  }
  convolution_param {
    num_output: 256
    pad: 2
    kernel_size: 5
    group: 2
    weight_filler {
      type: "gaussian"
      std: 0.01
    }
    bias_filler {
      type: "constant"
    }
  }
}
layer {
  name: "relu2"
  type: "ReLU"
  bottom: "conv2"
  top: "conv2"
}
layer {
  name: "pool2"
  type: "Pooling"
  bottom: "conv2"
  top: "pool2"
  pooling_param {
    pool: MAX
    kernel_size: 3
    stride: 2
  }
}
layer {
  name: "conv3"
  type: "Convolution"
  bottom: "pool2"
  top: "conv3"
  param {
    lr_mult: 1
    decay_mult: 1
  }
  param {
    lr_mult: 2
    decay_mult: 0
  }
  convolution_param {
    num_output: 384
    pad: 1
    kernel_size: 3
    weight_filler {
      type: "gaussian"
      std: 0.01
    }
    bias_filler {
      type: "constant"
    }
  }
}
layer {
  name: "relu3"
  type: "ReLU"
  bottom: "conv3"
  top: "conv3"
}
layer {
  name: "conv4"
  type: "Convolution"
  bottom: "conv3"
  top: "conv4"
  param {
    lr_mult: 1
    decay_mult: 1
  }
  param {
    lr_mult: 2
    decay_mult: 0
  }
  convolution_param {
    num_output: 384
    pad: 1
    kernel_size: 3
    group: 2
    weight_filler {
      type: "gaussian"
      std: 0.01
    }
    bias_filler {
      type: "constant"
    }
  }
}
layer {
  name: "relu4"
  type: "ReLU"
  bottom: "conv4"
  top: "conv4"
}
layer {
  name: "conv5"
  type: "Convolution"
  bottom: "conv4"
  top: "conv5"
  param {
    lr_mult: 1
    decay_mult: 1
  }
  param {
    lr_mult: 2
    decay_mult: 0
  }
  convolution_param {
    num_output: 256
    pad: 1
    kernel_size: 3
    group: 2
    weight_filler {
      type: "gaussian"
      std: 0.01
    }
    bias_filler {
      type: "constant"
    }
  }
}
layer {
  name: "relu5"
  type: "ReLU"
  bottom: "conv5"
  top: "conv5"
}
layer {
  name: "pool5"
  type: "Pooling"
  bottom: "conv5"
  top: "pool5"
  pooling_param {
    pool: MAX
    kernel_size: 3
    stride: 2
  }
}
layer {
  name: "fc6"
  type: "InnerProduct"
  bottom: "pool5"
  top: "fc6"
  param {
    lr_mult: 1
    decay_mult: 1
  }
  param {
    lr_mult: 2
    decay_mult: 0
  }
  inner_product_param {
    num_output: 2048
    weight_filler {
      type: "gaussian"
      std: 0.005
    }
    bias_filler {
      type: "constant"
    }
  }
}
layer {
  name: "relu6"
  type: "ReLU"
  bottom: "fc6"
  top: "fc6"
}
layer {
  name: "drop6"
  type: "Dropout"
  bottom: "fc6"
  top: "fc6"
  dropout_param {
    dropout_ratio: 0.5
  }
}
layer {
  name: "fc7"
  type: "InnerProduct"
  bottom: "fc6"
  top: "fc7"
  param {
    lr_mult: 1
    decay_mult: 1
  }
  param {
    lr_mult: 2
    decay_mult: 0
  }
  inner_product_param {
    num_output: 2048
    weight_filler {
      type: "gaussian"
      std: 0.005
    }
    bias_filler {
      type: "constant"
    }
  }
}
layer {
  name: "relu7"
  type: "ReLU"
  bottom: "fc7"
  top: "fc7"
}
layer {
  name: "drop7"
  type: "Dropout"
  bottom: "fc7"
  top: "fc7"
  dropout_param {
    dropout_ratio: 0.5
  }
}
layer {
  name: "fc8"
  type: "InnerProduct"
  bottom: "fc7"
  top: "fc8"
  param {
    lr_mult: 1
    decay_mult: 1
  }
  param {
    lr_mult: 2
    decay_mult: 0
  }
  inner_product_param {
    num_output: 1000
    weight_filler {
      type: "gaussian"
      std: 0.01
    }
    bias_filler {
      type: "constant"
    }
  }
}
layer {
  name: "loss"
  type: "SoftmaxWithLoss"
  bottom: "fc8"
  bottom: "label"
  top: "loss"
}
I0124 13:15:00.561523 27586 layer_factory.hpp:76] Creating layer data
I0124 13:15:00.562264 27586 net.cpp:106] Creating Layer data
I0124 13:15:00.562284 27586 net.cpp:411] data -> data
I0124 13:15:00.562330 27586 net.cpp:411] data -> label
I0124 13:15:00.563060 27590 db_lmdb.cpp:38] Opened lmdb /home/old-ufo/datasets/imagenet/ilsvrc12_train_shuffle_lmdb
I0124 13:15:00.573845 27586 data_layer.cpp:41] output data size: 256,3,128,128
I0124 13:15:00.643682 27586 net.cpp:150] Setting up data
I0124 13:15:00.643715 27586 net.cpp:157] Top shape: 256 3 128 128 (12582912)
I0124 13:15:00.643724 27586 net.cpp:157] Top shape: 256 (256)
I0124 13:15:00.643729 27586 net.cpp:165] Memory required for data: 50332672
I0124 13:15:00.643741 27586 layer_factory.hpp:76] Creating layer conv1
I0124 13:15:00.643765 27586 net.cpp:106] Creating Layer conv1
I0124 13:15:00.643774 27586 net.cpp:454] conv1 <- data
I0124 13:15:00.643790 27586 net.cpp:411] conv1 -> conv1
I0124 13:15:00.794520 27586 net.cpp:150] Setting up conv1
I0124 13:15:00.794543 27586 net.cpp:157] Top shape: 256 96 30 30 (22118400)
I0124 13:15:00.794546 27586 net.cpp:165] Memory required for data: 138806272
I0124 13:15:00.794562 27586 layer_factory.hpp:76] Creating layer relu1
I0124 13:15:00.794571 27586 net.cpp:106] Creating Layer relu1
I0124 13:15:00.794574 27586 net.cpp:454] relu1 <- conv1
I0124 13:15:00.794580 27586 net.cpp:411] relu1 -> relu1
I0124 13:15:00.795128 27586 net.cpp:150] Setting up relu1
I0124 13:15:00.795137 27586 net.cpp:157] Top shape: 256 96 30 30 (22118400)
I0124 13:15:00.795140 27586 net.cpp:165] Memory required for data: 227279872
I0124 13:15:00.795143 27586 layer_factory.hpp:76] Creating layer pool1
I0124 13:15:00.795150 27586 net.cpp:106] Creating Layer pool1
I0124 13:15:00.795151 27586 net.cpp:454] pool1 <- relu1
I0124 13:15:00.795156 27586 net.cpp:411] pool1 -> pool1
I0124 13:15:00.795701 27586 net.cpp:150] Setting up pool1
I0124 13:15:00.795709 27586 net.cpp:157] Top shape: 256 96 15 15 (5529600)
I0124 13:15:00.795711 27586 net.cpp:165] Memory required for data: 249398272
I0124 13:15:00.795714 27586 layer_factory.hpp:76] Creating layer conv2
I0124 13:15:00.795723 27586 net.cpp:106] Creating Layer conv2
I0124 13:15:00.795727 27586 net.cpp:454] conv2 <- pool1
I0124 13:15:00.795732 27586 net.cpp:411] conv2 -> conv2
I0124 13:15:00.807085 27586 net.cpp:150] Setting up conv2
I0124 13:15:00.807106 27586 net.cpp:157] Top shape: 256 256 15 15 (14745600)
I0124 13:15:00.807108 27586 net.cpp:165] Memory required for data: 308380672
I0124 13:15:00.807118 27586 layer_factory.hpp:76] Creating layer relu2
I0124 13:15:00.807126 27586 net.cpp:106] Creating Layer relu2
I0124 13:15:00.807131 27586 net.cpp:454] relu2 <- conv2
I0124 13:15:00.807137 27586 net.cpp:397] relu2 -> conv2 (in-place)
I0124 13:15:00.807665 27586 net.cpp:150] Setting up relu2
I0124 13:15:00.807674 27586 net.cpp:157] Top shape: 256 256 15 15 (14745600)
I0124 13:15:00.807677 27586 net.cpp:165] Memory required for data: 367363072
I0124 13:15:00.807679 27586 layer_factory.hpp:76] Creating layer pool2
I0124 13:15:00.807687 27586 net.cpp:106] Creating Layer pool2
I0124 13:15:00.807688 27586 net.cpp:454] pool2 <- conv2
I0124 13:15:00.807693 27586 net.cpp:411] pool2 -> pool2
I0124 13:15:00.808482 27586 net.cpp:150] Setting up pool2
I0124 13:15:00.808495 27586 net.cpp:157] Top shape: 256 256 7 7 (3211264)
I0124 13:15:00.808500 27586 net.cpp:165] Memory required for data: 380208128
I0124 13:15:00.808503 27586 layer_factory.hpp:76] Creating layer conv3
I0124 13:15:00.808514 27586 net.cpp:106] Creating Layer conv3
I0124 13:15:00.808518 27586 net.cpp:454] conv3 <- pool2
I0124 13:15:00.808526 27586 net.cpp:411] conv3 -> conv3
I0124 13:15:00.834889 27586 net.cpp:150] Setting up conv3
I0124 13:15:00.834913 27586 net.cpp:157] Top shape: 256 384 7 7 (4816896)
I0124 13:15:00.834915 27586 net.cpp:165] Memory required for data: 399475712
I0124 13:15:00.834925 27586 layer_factory.hpp:76] Creating layer relu3
I0124 13:15:00.834935 27586 net.cpp:106] Creating Layer relu3
I0124 13:15:00.834939 27586 net.cpp:454] relu3 <- conv3
I0124 13:15:00.834944 27586 net.cpp:397] relu3 -> conv3 (in-place)
I0124 13:15:00.835477 27586 net.cpp:150] Setting up relu3
I0124 13:15:00.835486 27586 net.cpp:157] Top shape: 256 384 7 7 (4816896)
I0124 13:15:00.835489 27586 net.cpp:165] Memory required for data: 418743296
I0124 13:15:00.835506 27586 layer_factory.hpp:76] Creating layer conv4
I0124 13:15:00.835515 27586 net.cpp:106] Creating Layer conv4
I0124 13:15:00.835517 27586 net.cpp:454] conv4 <- conv3
I0124 13:15:00.835522 27586 net.cpp:411] conv4 -> conv4
I0124 13:15:00.856534 27586 net.cpp:150] Setting up conv4
I0124 13:15:00.856560 27586 net.cpp:157] Top shape: 256 384 7 7 (4816896)
I0124 13:15:00.856565 27586 net.cpp:165] Memory required for data: 438010880
I0124 13:15:00.856576 27586 layer_factory.hpp:76] Creating layer relu4
I0124 13:15:00.856587 27586 net.cpp:106] Creating Layer relu4
I0124 13:15:00.856592 27586 net.cpp:454] relu4 <- conv4
I0124 13:15:00.856600 27586 net.cpp:397] relu4 -> conv4 (in-place)
I0124 13:15:00.857293 27586 net.cpp:150] Setting up relu4
I0124 13:15:00.857303 27586 net.cpp:157] Top shape: 256 384 7 7 (4816896)
I0124 13:15:00.857306 27586 net.cpp:165] Memory required for data: 457278464
I0124 13:15:00.857309 27586 layer_factory.hpp:76] Creating layer conv5
I0124 13:15:00.857321 27586 net.cpp:106] Creating Layer conv5
I0124 13:15:00.857326 27586 net.cpp:454] conv5 <- conv4
I0124 13:15:00.857334 27586 net.cpp:411] conv5 -> conv5
I0124 13:15:00.872721 27586 net.cpp:150] Setting up conv5
I0124 13:15:00.872742 27586 net.cpp:157] Top shape: 256 256 7 7 (3211264)
I0124 13:15:00.872745 27586 net.cpp:165] Memory required for data: 470123520
I0124 13:15:00.872756 27586 layer_factory.hpp:76] Creating layer relu5
I0124 13:15:00.872764 27586 net.cpp:106] Creating Layer relu5
I0124 13:15:00.872768 27586 net.cpp:454] relu5 <- conv5
I0124 13:15:00.872772 27586 net.cpp:397] relu5 -> conv5 (in-place)
I0124 13:15:00.873355 27586 net.cpp:150] Setting up relu5
I0124 13:15:00.873366 27586 net.cpp:157] Top shape: 256 256 7 7 (3211264)
I0124 13:15:00.873368 27586 net.cpp:165] Memory required for data: 482968576
I0124 13:15:00.873371 27586 layer_factory.hpp:76] Creating layer pool5
I0124 13:15:00.873379 27586 net.cpp:106] Creating Layer pool5
I0124 13:15:00.873383 27586 net.cpp:454] pool5 <- conv5
I0124 13:15:00.873390 27586 net.cpp:411] pool5 -> pool5
I0124 13:15:00.873988 27586 net.cpp:150] Setting up pool5
I0124 13:15:00.873998 27586 net.cpp:157] Top shape: 256 256 3 3 (589824)
I0124 13:15:00.874001 27586 net.cpp:165] Memory required for data: 485327872
I0124 13:15:00.874003 27586 layer_factory.hpp:76] Creating layer fc6
I0124 13:15:00.874022 27586 net.cpp:106] Creating Layer fc6
I0124 13:15:00.874029 27586 net.cpp:454] fc6 <- pool5
I0124 13:15:00.874037 27586 net.cpp:411] fc6 -> fc6
I0124 13:15:00.997331 27586 net.cpp:150] Setting up fc6
I0124 13:15:00.997355 27586 net.cpp:157] Top shape: 256 2048 (524288)
I0124 13:15:00.997359 27586 net.cpp:165] Memory required for data: 487425024
I0124 13:15:00.997369 27586 layer_factory.hpp:76] Creating layer relu6
I0124 13:15:00.997377 27586 net.cpp:106] Creating Layer relu6
I0124 13:15:00.997383 27586 net.cpp:454] relu6 <- fc6
I0124 13:15:00.997390 27586 net.cpp:397] relu6 -> fc6 (in-place)
I0124 13:15:00.998164 27586 net.cpp:150] Setting up relu6
I0124 13:15:00.998177 27586 net.cpp:157] Top shape: 256 2048 (524288)
I0124 13:15:00.998179 27586 net.cpp:165] Memory required for data: 489522176
I0124 13:15:00.998183 27586 layer_factory.hpp:76] Creating layer drop6
I0124 13:15:00.998191 27586 net.cpp:106] Creating Layer drop6
I0124 13:15:00.998198 27586 net.cpp:454] drop6 <- fc6
I0124 13:15:00.998204 27586 net.cpp:397] drop6 -> fc6 (in-place)
I0124 13:15:00.998244 27586 net.cpp:150] Setting up drop6
I0124 13:15:00.998250 27586 net.cpp:157] Top shape: 256 2048 (524288)
I0124 13:15:00.998252 27586 net.cpp:165] Memory required for data: 491619328
I0124 13:15:00.998255 27586 layer_factory.hpp:76] Creating layer fc7
I0124 13:15:00.998268 27586 net.cpp:106] Creating Layer fc7
I0124 13:15:00.998273 27586 net.cpp:454] fc7 <- fc6
I0124 13:15:00.998280 27586 net.cpp:411] fc7 -> fc7
I0124 13:15:01.108403 27586 net.cpp:150] Setting up fc7
I0124 13:15:01.108430 27586 net.cpp:157] Top shape: 256 2048 (524288)
I0124 13:15:01.108433 27586 net.cpp:165] Memory required for data: 493716480
I0124 13:15:01.108474 27586 layer_factory.hpp:76] Creating layer relu7
I0124 13:15:01.108484 27586 net.cpp:106] Creating Layer relu7
I0124 13:15:01.108487 27586 net.cpp:454] relu7 <- fc7
I0124 13:15:01.108494 27586 net.cpp:397] relu7 -> fc7 (in-place)
I0124 13:15:01.109205 27586 net.cpp:150] Setting up relu7
I0124 13:15:01.109215 27586 net.cpp:157] Top shape: 256 2048 (524288)
I0124 13:15:01.109217 27586 net.cpp:165] Memory required for data: 495813632
I0124 13:15:01.109220 27586 layer_factory.hpp:76] Creating layer drop7
I0124 13:15:01.109225 27586 net.cpp:106] Creating Layer drop7
I0124 13:15:01.109228 27586 net.cpp:454] drop7 <- fc7
I0124 13:15:01.109233 27586 net.cpp:397] drop7 -> fc7 (in-place)
I0124 13:15:01.109253 27586 net.cpp:150] Setting up drop7
I0124 13:15:01.109256 27586 net.cpp:157] Top shape: 256 2048 (524288)
I0124 13:15:01.109258 27586 net.cpp:165] Memory required for data: 497910784
I0124 13:15:01.109261 27586 layer_factory.hpp:76] Creating layer fc8
I0124 13:15:01.109268 27586 net.cpp:106] Creating Layer fc8
I0124 13:15:01.109271 27586 net.cpp:454] fc8 <- fc7
I0124 13:15:01.109275 27586 net.cpp:411] fc8 -> fc8
I0124 13:15:01.163441 27586 net.cpp:150] Setting up fc8
I0124 13:15:01.163463 27586 net.cpp:157] Top shape: 256 1000 (256000)
I0124 13:15:01.163466 27586 net.cpp:165] Memory required for data: 498934784
I0124 13:15:01.163475 27586 layer_factory.hpp:76] Creating layer loss
I0124 13:15:01.163481 27586 net.cpp:106] Creating Layer loss
I0124 13:15:01.163486 27586 net.cpp:454] loss <- fc8
I0124 13:15:01.163489 27586 net.cpp:454] loss <- label
I0124 13:15:01.163494 27586 net.cpp:411] loss -> loss
I0124 13:15:01.163507 27586 layer_factory.hpp:76] Creating layer loss
…
    phase: TEST
  }
  transform_param {
    scale: 0.04
    mirror: false
    crop_size: 128
    mean_value: 104
    mean_value: 117
    mean_value: 123
    force_color: true
    resize_param {
      prob: 1
      resize_mode: FIT_SMALL_SIZE
      height: 144
      width: 144
      pad_mode: MIRRORED
      pad_value: 104
      pad_value: 117
      pad_value: 124
      interp_mode: LINEAR
      center_object: false
      max_angle: 0
    }
  }
  data_param {
    source: "/home/old-ufo/datasets/imagenet/ilsvrc12_val_lmdb"
    batch_size: 250
    backend: LMDB
  }
}
layer {
  name: "conv1"
  type: "Convolution"
  bottom: "data"
  top: "conv1"
  param {
    lr_mult: 1
    decay_mult: 1
  }
  param {
    lr_mult: 2
    decay_mult: 0
  }
  convolution_param {
    num_output: 96
    kernel_size: 11
    stride: 4
    weight_filler {
      type: "gaussian"
      std: 0.01
    }
    bias_filler {
      type: "constant"
    }
  }
}
layer {
  name: "relu1"
  type: "ReLU"
  bottom: "conv1"
  top: "relu1"
}
layer {
  name: "pool1"
  type: "Pooling"
  bottom: "relu1"
  top: "pool1"
  pooling_param {
    pool: MAX
    kernel_size: 3
    stride: 2
  }
}
layer {
  name: "conv2"
  type: "Convolution"
  bottom: "pool1"
  top: "conv2"
  param {
    lr_mult: 1
    decay_mult: 1
  }
  param {
    lr_mult: 2
    decay_mult: 0
  }
  convolution_param {
    num_output: 256
    pad: 2
    kernel_size: 5
    group: 2
    weight_filler {
      type: "gaussian"
      std: 0.01
    }
    bias_filler {
      type: "constant"
    }
  }
}
layer {
  name: "relu2"
  type: "ReLU"
  bottom: "conv2"
  top: "conv2"
}
layer {
  name: "pool2"
  type: "Pooling"
  bottom: "conv2"
  top: "pool2"
  pooling_param {
    pool: MAX
    kernel_size: 3
    stride: 2
  }
}
layer {
  name: "conv3"
  type: "Convolution"
  bottom: "pool2"
  top: "conv3"
  param {
    lr_mult: 1
    decay_mult: 1
  }
  param {
    lr_mult: 2
    decay_mult: 0
  }
  convolution_param {
    num_output: 384
    pad: 1
    kernel_size: 3
    weight_filler {
      type: "gaussian"
      std: 0.01
    }
    bias_filler {
      type: "constant"
    }
  }
}
layer {
  name: "relu3"
  type: "ReLU"
  bottom: "conv3"
  top: "conv3"
}
layer {
  name: "conv4"
  type: "Convolution"
  bottom: "conv3"
  top: "conv4"
  param {
    lr_mult: 1
    decay_mult: 1
  }
  param {
    lr_mult: 2
    decay_mult: 0
  }
  convolution_param {
    num_output: 384
    pad: 1
    kernel_size: 3
    group: 2
    weight_filler {
      type: "gaussian"
      std: 0.01
    }
    bias_filler {
      type: "constant"
    }
  }
}
layer {
  name: "relu4"
  type: "ReLU"
  bottom: "conv4"
  top: "conv4"
}
layer {
  name: "conv5"
  type: "Convolution"
  bottom: "conv4"
  top: "conv5"
  param {
    lr_mult: 1
    decay_mult: 1
  }
  param {
    lr_mult: 2
    decay_mult: 0
  }
  convolution_param {
    num_output: 256
    pad: 1
    kernel_size: 3
    group: 2
    weight_filler {
      type: "gaussian"
      std: 0.01
    }
    bias_filler {
      type: "constant"
    }
  }
}
layer {
  name: "relu5"
  type: "ReLU"
  bottom: "conv5"
  top: "conv5"
}
layer {
  name: "pool5"
  type: "Pooling"
  bottom: "conv5"
  top: "pool5"
  pooling_param {
    pool: MAX
    kernel_size: 3
    stride: 2
  }
}
layer {
  name: "fc6"
  type: "InnerProduct"
  bottom: "pool5"
  top: "fc6"
  param {
    lr_mult: 1
    decay_mult: 1
  }
  param {
    lr_mult: 2
    decay_mult: 0
  }
  inner_product_param {
    num_output: 2048
    weight_filler {
      type: "gaussian"
      std: 0.005
    }
    bias_filler {
      type: "constant"
    }
  }
}
layer {
  name: "relu6"
  type: "ReLU"
  bottom: "fc6"
  top: "fc6"
}
layer {
  name: "drop6"
  type: "Dropout"
  bottom: "fc6"
  top: "fc6"
  dropout_param {
    dropout_ratio: 0.5
  }
}
layer {
  name: "fc7"
  type: "InnerProduct"
  bottom: "fc6"
  top: "fc7"
  param {
    lr_mult: 1
    decay_mult: 1
  }
  param {
    lr_mult: 2
    decay_mult: 0
  }
  inner_product_param {
    num_output: 2048
    weight_filler {
      type: "gaussian"
      std: 0.005
    }
    bias_filler {
      type: "constant"
    }
  }
}
layer {
  name: "relu7"
  type: "ReLU"
  bottom: "fc7"
  top: "fc7"
}
layer {
  name: "drop7"
  type: "Dropout"
  bottom: "fc7"
  top: "fc7"
  dropout_param {
    dropout_ratio: 0.5
  }
}
layer {
  name: "fc8"
  type: "InnerProduct"
  bottom: "fc7"
  top: "fc8"
  param {
    lr_mult: 1
    decay_mult: 1
  }
  param {
    lr_mult: 2
    decay_mult: 0
  }
  inner_product_param {
    num_output: 1000
    weight_filler {
      type: "gaussian"
      std: 0.01
    }
    bias_filler {
      type: "constant"
    }
  }
}
layer {
  name: "accuracy"
  type: "Accuracy"
  bottom: "fc8"
  bottom: "label"
  top: "accuracy"
  include {
    phase: TEST
  }
}
layer {
  name: "loss"
  type: "SoftmaxWithLoss"
  bottom: "fc8"
  bottom: "label"
  top: "loss"
}
I0124 13:15:01.165253 27586 layer_factory.hpp:76] Creating layer data
I0124 13:15:01.165405 27586 net.cpp:106] Creating Layer data
I0124 13:15:01.165426 27586 net.cpp:411] data -> data
I0124 13:15:01.165437 27586 net.cpp:411] data -> label
I0124 13:15:01.166088 27599 db_lmdb.cpp:38] Opened lmdb /home/old-ufo/datasets/imagenet/ilsvrc12_val_lmdb
I0124 13:15:01.169291 27586 data_layer.cpp:41] output data size: 250,3,128,128
I0124 13:15:01.239326 27586 net.cpp:150] Setting up data
I0124 13:15:01.239398 27586 net.cpp:157] Top shape: 250 3 128 128 (12288000)
I0124 13:15:01.239415 27586 net.cpp:157] Top shape: 250 (250)
I0124 13:15:01.239428 27586 net.cpp:165] Memory required for data: 49153000
I0124 13:15:01.239444 27586 layer_factory.hpp:76] Creating layer label_data_1_split
I0124 13:15:01.239465 27586 net.cpp:106] Creating Layer label_data_1_split
I0124 13:15:01.239482 27586 net.cpp:454] label_data_1_split <- label
I0124 13:15:01.239500 27586 net.cpp:411] label_data_1_split -> label_data_1_split_0
I0124 13:15:01.239526 27586 net.cpp:411] label_data_1_split -> label_data_1_split_1
I0124 13:15:01.239632 27586 net.cpp:150] Setting up label_data_1_split
I0124 13:15:01.239655 27586 net.cpp:157] Top shape: 250 (250)
I0124 13:15:01.239670 27586 net.cpp:157] Top shape: 250 (250)
I0124 13:15:01.239681 27586 net.cpp:165] Memory required for data: 49155000
I0124 13:15:01.239694 27586 layer_factory.hpp:76] Creating layer conv1
I0124 13:15:01.239716 27586 net.cpp:106] Creating Layer conv1
I0124 13:15:01.239732 27586 net.cpp:454] conv1 <- data
I0124 13:15:01.239748 27586 net.cpp:411] conv1 -> conv1
I0124 13:15:01.248327 27586 net.cpp:150] Setting up conv1
I0124 13:15:01.248407 27586 net.cpp:157] Top shape: 250 96 30 30 (21600000)
I0124 13:15:01.248430 27586 net.cpp:165] Memory required for data: 135555000
I0124 13:15:01.248461 27586 layer_factory.hpp:76] Creating layer relu1
I0124 13:15:01.248491 27586 net.cpp:106] Creating Layer relu1
I0124 13:15:01.248509 27586 net.cpp:454] relu1 <- conv1
I0124 13:15:01.248528 27586 net.cpp:411] relu1 -> relu1
I0124 13:15:01.249574 27586 net.cpp:150] Setting up relu1
I0124 13:15:01.249639 27586 net.cpp:157] Top shape: 250 96 30 30 (21600000)
I0124 13:15:01.249658 27586 net.cpp:165] Memory required for data: 221955000
I0124 13:15:01.249677 27586 layer_factory.hpp:76] Creating layer pool1
I0124 13:15:01.249719 27586 net.cpp:106] Creating Layer pool1
I0124 13:15:01.249740 27586 net.cpp:454] pool1 <- relu1
I0124 13:15:01.249760 27586 net.cpp:411] pool1 -> pool1
I0124 13:15:01.250792 27586 net.cpp:150] Setting up pool1
I0124 13:15:01.250854 27586 net.cpp:157] Top shape: 250 96 15 15 (5400000)
I0124 13:15:01.250872 27586 net.cpp:165] Memory required for data: 243555000
I0124 13:15:01.250890 27586 layer_factory.hpp:76] Creating layer conv2
I0124 13:15:01.250918 27586 net.cpp:106] Creating Layer conv2
I0124 13:15:01.250936 27586 net.cpp:454] conv2 <- pool1
I0124 13:15:01.250957 27586 net.cpp:411] conv2 -> conv2
I0124 13:15:01.263526 27586 net.cpp:150] Setting up conv2
I0124 13:15:01.263550 27586 net.cpp:157] Top shape: 250 256 15 15 (14400000)
I0124 13:15:01.263555 27586 net.cpp:165] Memory required for data: 301155000
I0124 13:15:01.263568 27586 layer_factory.hpp:76] Creating layer relu2
I0124 13:15:01.263579 27586 net.cpp:106] Creating Layer relu2
I0124 13:15:01.263603 27586 net.cpp:454] relu2 <- conv2
I0124 13:15:01.263612 27586 net.cpp:397] relu2 -> conv2 (in-place)
I0124 13:15:01.264189 27586 net.cpp:150] Setting up relu2
I0124 13:15:01.264200 27586 net.cpp:157] Top shape: 250 256 15 15 (14400000)
I0124 13:15:01.264204 27586 net.cpp:165] Memory required for data: 358755000
I0124 13:15:01.264209 27586 layer_factory.hpp:76] Creating layer pool2
I0124 13:15:01.264215 27586 net.cpp:106] Creating Layer pool2
I0124 13:15:01.264220 27586 net.cpp:454] pool2 <- conv2
I0124 13:15:01.264228 27586 net.cpp:411] pool2 -> pool2
I0124 13:15:01.264837 27586 net.cpp:150] Setting up pool2
I0124 13:15:01.264849 27586 net.cpp:157] Top shape: 250 256 7 7 (3136000)
I0124 13:15:01.264853 27586 net.cpp:165] Memory required for data: 371299000
I0124 13:15:01.264858 27586 layer_factory.hpp:76] Creating layer conv3
I0124 13:15:01.264871 27586 net.cpp:106] Creating Layer conv3
I0124 13:15:01.264876 27586 net.cpp:454] conv3 <- pool2
I0124 13:15:01.264885 27586 net.cpp:411] conv3 -> conv3
I0124 13:15:01.290936 27586 net.cpp:150] Setting up conv3
I0124 13:15:01.290961 27586 net.cpp:157] Top shape: 250 384 7 7 (4704000)
I0124 13:15:01.290966 27586 net.cpp:165] Memory required for data: 390115000
I0124 13:15:01.290979 27586 layer_factory.hpp:76] Creating layer relu3
I0124 13:15:01.290992 27586 net.cpp:106] Creating Layer relu3
I0124 13:15:01.290995 27586 net.cpp:454] relu3 <- conv3
I0124 13:15:01.291002 27586 net.cpp:397] relu3 -> conv3 (in-place)
I0124 13:15:01.291695 27586 net.cpp:150] Setting up relu3
I0124 13:15:01.291707 27586 net.cpp:157] Top shape: 250 384 7 7 (4704000)
I0124 13:15:01.291712 27586 net.cpp:165] Memory required for data: 408931000
I0124 13:15:01.291715 27586 layer_factory.hpp:76] Creating layer conv4
I0124 13:15:01.291728 27586 net.cpp:106] Creating Layer conv4
I0124 13:15:01.291733 27586 net.cpp:454] conv4 <- conv3
I0124 13:15:01.291740 27586 net.cpp:411] conv4 -> conv4
I0124 13:15:01.313972 27586 net.cpp:150] Setting up conv4
I0124 13:15:01.313997 27586 net.cpp:157] Top shape: 250 384 7 7 (4704000)
I0124 13:15:01.314002 27586 net.cpp:165] Memory required for data: 427747000
I0124 13:15:01.314012 27586 layer_factory.hpp:76] Creating layer relu4
I0124 13:15:01.314024 27586 net.cpp:106] Creating Layer relu4
I0124 13:15:01.314029 27586 net.cpp:454] relu4 <- conv4
I0124 13:15:01.314036 27586 net.cpp:397] relu4 -> conv4 (in-place)
I0124 13:15:01.314714 27586 net.cpp:150] Setting up relu4
I0124 13:15:01.314725 27586 net.cpp:157] Top shape: 250 384 7 7 (4704000)
I0124 13:15:01.314730 27586 net.cpp:165] Memory required for data: 446563000
I0124 13:15:01.314734 27586 layer_factory.hpp:76] Creating layer conv5
I0124 13:15:01.314746 27586 net.cpp:106] Creating Layer conv5
I0124 13:15:01.314750 27586 net.cpp:454] conv5 <- conv4
I0124 13:15:01.314759 27586 net.cpp:411] conv5 -> conv5
I0124 13:15:01.330199 27586 net.cpp:150] Setting up conv5
I0124 13:15:01.330225 27586 net.cpp:157] Top shape: 250 256 7 7 (3136000)
I0124 13:15:01.330230 27586 net.cpp:165] Memory required for data: 459107000
I0124 13:15:01.330245 27586 layer_factory.hpp:76] Creating layer relu5
I0124 13:15:01.330255 27586 net.cpp:106] Creating Layer relu5
I0124 13:15:01.330260 27586 net.cpp:454] relu5 <- conv5
I0124 13:15:01.330267 27586 net.cpp:397] relu5 -> conv5 (in-place)
I0124 13:15:01.331151 27586 net.cpp:150] Setting up relu5
I0124 13:15:01.331164 27586 net.cpp:157] Top shape: 250 256 7 7 (3136000)
I0124 13:15:01.331168 27586 net.cpp:165] Memory required for data: 471651000
I0124 13:15:01.331172 27586 layer_factory.hpp:76] Creating layer pool5
I0124 13:15:01.331181 27586 net.cpp:106] Creating Layer pool5
I0124 13:15:01.331184 27586 net.cpp:454] pool5 <- conv5
I0124 13:15:01.331190 27586 net.cpp:411] pool5 -> pool5
I0124 13:15:01.332058 27586 net.cpp:150] Setting up pool5
I0124 13:15:01.332070 27586 net.cpp:157] Top shape: 250 256 3 3 (576000)
I0124 13:15:01.332074 27586 net.cpp:165] Memory required for data: 473955000
I0124 13:15:01.332078 27586 layer_factory.hpp:76] Creating layer fc6
I0124 13:15:01.332110 27586 net.cpp:106] Creating Layer fc6
I0124 13:15:01.332114 27586 net.cpp:454] fc6 <- pool5
I0124 13:15:01.332123 27586 net.cpp:411] fc6 -> fc6
I0124 13:15:01.457293 27586 net.cpp:150] Setting up fc6
I0124 13:15:01.457317 27586 net.cpp:157] Top shape: 250 2048 (512000)
I0124 13:15:01.457322 27586 net.cpp:165] Memory required for data: 476003000
I0124 13:15:01.457334 27586 layer_factory.hpp:76] Creating layer relu6
I0124 13:15:01.457347 27586 net.cpp:106] Creating Layer relu6
I0124 13:15:01.457352 27586 net.cpp:454] relu6 <- fc6
I0124 13:15:01.457360 27586 net.cpp:397] relu6 -> fc6 (in-place)
I0124 13:15:01.458364 27586 net.cpp:150] Setting up relu6
I0124 13:15:01.458377 27586 net.cpp:157] Top shape: 250 2048 (512000)
I0124 13:15:01.458381 27586 net.cpp:165] Memory required for data: 478051000
I0124 13:15:01.458386 27586 layer_factory.hpp:76] Creating layer drop6
I0124 13:15:01.458396 27586 net.cpp:106] Creating Layer drop6
I0124 13:15:01.458401 27586 net.cpp:454] drop6 <- fc6
I0124 13:15:01.458407 27586 net.cpp:397] drop6 -> fc6 (in-place)
I0124 13:15:01.458457 27586 net.cpp:150] Setting up drop6
I0124 13:15:01.458466 27586 net.cpp:157] Top shape: 250 2048 (512000)
I0124 13:15:01.458469 27586 net.cpp:165] Memory required for data: 480099000
I0124 13:15:01.458473 27586 layer_factory.hpp:76] Creating layer fc7
I0124 13:15:01.458482 27586 net.cpp:106] Creating Layer fc7
I0124 13:15:01.458487 27586 net.cpp:454] fc7 <- fc6
I0124 13:15:01.458495 27586 net.cpp:411] fc7 -> fc7
I0124 13:15:01.569283 27586 net.cpp:150] Setting up fc7
I0124 13:15:01.569308 27586 net.cpp:157] Top shape: 250 2048 (512000)
I0124 13:15:01.569313 27586 net.cpp:165] Memory required for data: 482147000
I0124 13:15:01.569324 27586 layer_factory.hpp:76] Creating layer relu7
I0124 13:15:01.569335 27586 net.cpp:106] Creating Layer relu7
I0124 13:15:01.569340 27586 net.cpp:454] relu7 <- fc7
I0124 13:15:01.569349 27586 net.cpp:397] relu7 -> fc7 (in-place)
I0124 13:15:01.570292 27586 net.cpp:150] Setting up relu7
I0124 13:15:01.570307 27586 net.cpp:157] Top shape: 250 2048 (512000)
I0124 13:15:01.570312 27586 net.cpp:165] Memory required for data: 484195000
I0124 13:15:01.570317 27586 layer_factory.hpp:76] Creating layer drop7
I0124 13:15:01.570325 27586 net.cpp:106] Creating Layer drop7
I0124 13:15:01.570330 27586 net.cpp:454] drop7 <- fc7
I0124 13:15:01.570336 27586 net.cpp:397] drop7 -> fc7 (in-place)
I0124 13:15:01.570389 27586 net.cpp:150] Setting up drop7
I0124 13:15:01.570396 27586 net.cpp:157] Top shape: 250 2048 (512000)
I0124 13:15:01.570399 27586 net.cpp:165] Memory required for data: 486243000
I0124 13:15:01.570405 27586 layer_factory.hpp:76] Creating layer fc8
I0124 13:15:01.570415 27586 net.cpp:106] Creating Layer fc8
I0124 13:15:01.570420 27586 net.cpp:454] fc8 <- fc7
I0124 13:15:01.570425 27586 net.cpp:411] fc8 -> fc8
I0124 13:15:01.625002 27586 net.cpp:150] Setting up fc8
I0124 13:15:01.625030 27586 net.cpp:157] Top shape: 250 1000 (250000)
I0124 13:15:01.625035 27586 net.cpp:165] Memory required for data: 487243000
I0124 13:15:01.625051 27586 layer_factory.hpp:76] Creating layer fc8_fc8_0_split
I0124 13:15:01.625062 27586 net.cpp:106] Creating Layer fc8_fc8_0_split
I0124 13:15:01.625068 27586 net.cpp:454] fc8_fc8_0_split <- fc8
I0124 13:15:01.625079 27586 net.cpp:411] fc8_fc8_0_split -> fc8_fc8_0_split_0
I0124 13:15:01.625092 27586 net.cpp:411] fc8_fc8_0_split -> fc8_fc8_0_split_1
I0124 13:15:01.625201 27586 net.cpp:150] Setting up fc8_fc8_0_split
I0124 13:15:01.625211 27586 net.cpp:157] Top shape: 250 1000 (250000)
I0124 13:15:01.625216 27586 net.cpp:157] Top shape: 250 1000 (250000)
I0124 13:15:01.625221 27586 net.cpp:165] Memory required for data: 489243000
I0124 13:15:01.625224 27586 layer_factory.hpp:76] Creating layer accuracy
I0124 13:15:01.625233 27586 net.cpp:106] Creating Layer accuracy
I0124 13:15:01.625238 27586 net.cpp:454] accuracy <- fc8_fc8_0_split_0
I0124 13:15:01.625243 27586 net.cpp:454] accuracy <- label_data_1_split_0
I0124 13:15:01.625249 27586 net.cpp:411] accuracy -> accuracy
…
