…
      mirror: false
      crop_size: 128
      mean_value: 104
      mean_value: 117
      mean_value: 123
      force_color: true
      resize_param {
        prob: 1
        resize_mode: FIT_SMALL_SIZE
        height: 144
        width: 144
        pad_mode: MIRRORED
        pad_value: 104
        pad_value: 117
        pad_value: 124
        interp_mode: LINEAR
        center_object: false
        max_angle: 0
      }
    }
    data_param {
      source: "/home/old-ufo/datasets/imagenet/ilsvrc12_val_lmdb"
      batch_size: 250
      backend: LMDB
    }
  }
  layer {
    name: "conv1"
    type: "Convolution"
    bottom: "data"
    top: "conv1"
    param {
      lr_mult: 1
      decay_mult: 1
    }
    param {
      lr_mult: 2
      decay_mult: 0
    }
    convolution_param {
      num_output: 96
      kernel_size: 11
      stride: 4
      weight_filler {
        type: "gaussian"
        std: 0.01
      }
      bias_filler {
        type: "constant"
      }
    }
  }
  layer {
    name: "relu1"
    type: "ReLU"
    bottom: "conv1"
    top: "relu1"
  }
  layer {
    name: "pool1"
    type: "Pooling"
    bottom: "relu1"
    top: "pool1"
    pooling_param {
      pool: MAX
      kernel_size: 3
      stride: 2
    }
  }
  layer {
    name: "conv2"
    type: "Convolution"
    bottom: "pool1"
    top: "conv2"
    param {
      lr_mult: 1
      decay_mult: 1
    }
    param {
      lr_mult: 2
      decay_mult: 0
    }
    convolution_param {
      num_output: 256
      pad: 2
      kernel_size: 5
      group: 2
      weight_filler {
        type: "gaussian"
        std: 0.01
      }
      bias_filler {
        type: "constant"
      }
    }
  }
  layer {
    name: "relu2"
    type: "ReLU"
    bottom: "conv2"
    top: "conv2"
  }
  layer {
    name: "pool2"
    type: "Pooling"
    bottom: "conv2"
    top: "pool2"
    pooling_param {
      pool: MAX
      kernel_size: 3
      stride: 2
    }
  }
  layer {
    name: "conv3"
    type: "Convolution"
    bottom: "pool2"
    top: "conv3"
    param {
      lr_mult: 1
      decay_mult: 1
    }
    param {
      lr_mult: 2
      decay_mult: 0
    }
    convolution_param {
      num_output: 384
      pad: 1
      kernel_size: 3
      weight_filler {
        type: "gaussian"
        std: 0.01
      }
      bias_filler {
        type: "constant"
      }
    }
  }
  layer {
    name: "relu3"
    type: "ReLU"
    bottom: "conv3"
    top: "conv3"
  }
  layer {
    name: "conv4"
    type: "Convolution"
    bottom: "conv3"
    top: "conv4"
    param {
      lr_mult: 1
      decay_mult: 1
    }
    param {
      lr_mult: 2
      decay_mult: 0
    }
    convolution_param {
      num_output: 384
      pad: 1
      kernel_size: 3
      group: 2
      weight_filler {
        type: "gaussian"
        std: 0.01
      }
      bias_filler {
        type: "constant"
      }
    }
  }
  layer {
    name: "relu4"
    type: "ReLU"
    bottom: "conv4"
    top: "conv4"
  }
  layer {
    name: "conv5"
    type: "Convolution"
    bottom: "conv4"
    top: "conv5"
    param {
      lr_mult: 1
      decay_mult: 1
    }
    param {
      lr_mult: 2
      decay_mult: 0
    }
    convolution_param {
      num_output: 256
      pad: 1
      kernel_size: 3
      group: 2
      weight_filler {
        type: "gaussian"
        std: 0.01
      }
      bias_filler {
        type: "constant"
      }
    }
  }
  layer {
    name: "relu5"
    type: "ReLU"
    bottom: "conv5"
    top: "conv5"
  }
  layer {
    name: "pool5"
    type: "Pooling"
    bottom: "conv5"
    top: "pool5"
    pooling_param {
      pool: MAX
      kernel_size: 3
      stride: 2
    }
  }
  layer {
    name: "fc6"
    type: "InnerProduct"
    bottom: "pool5"
    top: "fc6"
    param {
      lr_mult: 1
      decay_mult: 1
    }
    param {
      lr_mult: 2
      decay_mult: 0
    }
    inner_product_param {
      num_output: 2048
      weight_filler {
        type: "gaussian"
        std: 0.005
      }
      bias_filler {
        type: "constant"
      }
    }
  }
  layer {
    name: "relu6"
    type: "ReLU"
    bottom: "fc6"
    top: "fc6"
  }
  layer {
    name: "drop6"
    type: "Dropout"
    bottom: "fc6"
    top: "fc6"
    dropout_param {
      dropout_ratio: 0.5
    }
  }
  layer {
    name: "fc7"
    type: "InnerProduct"
    bottom: "fc6"
    top: "fc7"
    param {
      lr_mult: 1
      decay_mult: 1
    }
    param {
      lr_mult: 2
      decay_mult: 0
    }
    inner_product_param {
      num_output: 2048
      weight_filler {
        type: "gaussian"
        std: 0.005
      }
      bias_filler {
        type: "constant"
      }
    }
  }
  layer {
    name: "relu7"
    type: "ReLU"
    bottom: "fc7"
    top: "fc7"
  }
  layer {
    name: "drop7"
    type: "Dropout"
    bottom: "fc7"
    top: "fc7"
    dropout_param {
      dropout_ratio: 0.5
    }
  }
  layer {
    name: "fc8"
    type: "InnerProduct"
    bottom: "fc7"
    top: "fc8"
    param {
      lr_mult: 1
      decay_mult: 1
    }
    param {
      lr_mult: 2
      decay_mult: 0
    }
    inner_product_param {
      num_output: 1000
      weight_filler {
        type: "gaussian"
        std: 0.01
      }
      bias_filler {
        type: "constant"
      }
    }
  }
  layer {
    name: "accuracy"
    type: "Accuracy"
    bottom: "fc8"
    bottom: "label"
    top: "accuracy"
    include {
      phase: TEST
    }
  }
  layer {
    name: "loss"
    type: "SoftmaxWithLoss"
    bottom: "fc8"
    bottom: "label"
    top: "loss"
  }
}
test_initialization: false
average_loss: 20
iter_size: 1
rms_decay: 0.98
type: "RMSProp"
I0124 13:56:29.880388 30591 solver.cpp:86] Creating training net specified in net_param.
I0124 13:56:29.880539 30591 net.cpp:322] The NetState phase (0) differed from the phase (1) specified by a rule in layer data
I0124 13:56:29.880568 30591 net.cpp:322] The NetState phase (0) differed from the phase (1) specified by a rule in layer accuracy
I0124 13:56:29.880769 30591 net.cpp:49] Initializing net from parameters: 
name: "CaffeNet"
state {
  phase: TRAIN
}
layer {
  name: "data"
  type: "Data"
  top: "data"
  top: "label"
  include {
    phase: TRAIN
  }
  transform_param {
    scale: 0.04
    mirror: true
    crop_size: 128
    mean_value: 104
    mean_value: 117
    mean_value: 124
    force_color: true
    resize_param {
      prob: 1
      resize_mode: FIT_SMALL_SIZE
      height: 144
      width: 144
      pad_mode: MIRRORED
      pad_value: 104
      pad_value: 117
      pad_value: 124
      interp_mode: LINEAR
      center_object: false
      max_angle: 0
    }
  }
  data_param {
    source: "/home/old-ufo/datasets/imagenet/ilsvrc12_train_shuffle_lmdb"
    batch_size: 256
    backend: LMDB
  }
}
layer {
  name: "conv1"
  type: "Convolution"
  bottom: "data"
  top: "conv1"
  param {
    lr_mult: 1
    decay_mult: 1
  }
  param {
    lr_mult: 2
    decay_mult: 0
  }
  convolution_param {
    num_output: 96
    kernel_size: 11
    stride: 4
    weight_filler {
      type: "gaussian"
      std: 0.01
    }
    bias_filler {
      type: "constant"
    }
  }
}
layer {
  name: "relu1"
  type: "ReLU"
  bottom: "conv1"
  top: "relu1"
}
layer {
  name: "pool1"
  type: "Pooling"
  bottom: "relu1"
  top: "pool1"
  pooling_param {
    pool: MAX
    kernel_size: 3
    stride: 2
  }
}
layer {
  name: "conv2"
  type: "Convolution"
  bottom: "pool1"
  top: "conv2"
  param {
    lr_mult: 1
    decay_mult: 1
  }
  param {
    lr_mult: 2
    decay_mult: 0
  }
  convolution_param {
    num_output: 256
    pad: 2
    kernel_size: 5
    group: 2
    weight_filler {
      type: "gaussian"
      std: 0.01
    }
    bias_filler {
      type: "constant"
    }
  }
}
layer {
  name: "relu2"
  type: "ReLU"
  bottom: "conv2"
  top: "conv2"
}
layer {
  name: "pool2"
  type: "Pooling"
  bottom: "conv2"
  top: "pool2"
  pooling_param {
    pool: MAX
    kernel_size: 3
    stride: 2
  }
}
layer {
  name: "conv3"
  type: "Convolution"
  bottom: "pool2"
  top: "conv3"
  param {
    lr_mult: 1
    decay_mult: 1
  }
  param {
    lr_mult: 2
    decay_mult: 0
  }
  convolution_param {
    num_output: 384
    pad: 1
    kernel_size: 3
    weight_filler {
      type: "gaussian"
      std: 0.01
    }
    bias_filler {
      type: "constant"
    }
  }
}
layer {
  name: "relu3"
  type: "ReLU"
  bottom: "conv3"
  top: "conv3"
}
layer {
  name: "conv4"
  type: "Convolution"
  bottom: "conv3"
  top: "conv4"
  param {
    lr_mult: 1
    decay_mult: 1
  }
  param {
    lr_mult: 2
    decay_mult: 0
  }
  convolution_param {
    num_output: 384
    pad: 1
    kernel_size: 3
    group: 2
    weight_filler {
      type: "gaussian"
      std: 0.01
    }
    bias_filler {
      type: "constant"
    }
  }
}
layer {
  name: "relu4"
  type: "ReLU"
  bottom: "conv4"
  top: "conv4"
}
layer {
  name: "conv5"
  type: "Convolution"
  bottom: "conv4"
  top: "conv5"
  param {
    lr_mult: 1
    decay_mult: 1
  }
  param {
    lr_mult: 2
    decay_mult: 0
  }
  convolution_param {
    num_output: 256
    pad: 1
    kernel_size: 3
    group: 2
    weight_filler {
      type: "gaussian"
      std: 0.01
    }
    bias_filler {
      type: "constant"
    }
  }
}
layer {
  name: "relu5"
  type: "ReLU"
  bottom: "conv5"
  top: "conv5"
}
layer {
  name: "pool5"
  type: "Pooling"
  bottom: "conv5"
  top: "pool5"
  pooling_param {
    pool: MAX
    kernel_size: 3
    stride: 2
  }
}
layer {
  name: "fc6"
  type: "InnerProduct"
  bottom: "pool5"
  top: "fc6"
  param {
    lr_mult: 1
    decay_mult: 1
  }
  param {
    lr_mult: 2
    decay_mult: 0
  }
  inner_product_param {
    num_output: 2048
    weight_filler {
      type: "gaussian"
      std: 0.005
    }
    bias_filler {
      type: "constant"
    }
  }
}
layer {
  name: "relu6"
  type: "ReLU"
  bottom: "fc6"
  top: "fc6"
}
layer {
  name: "drop6"
  type: "Dropout"
  bottom: "fc6"
  top: "fc6"
  dropout_param {
    dropout_ratio: 0.5
  }
}
layer {
  name: "fc7"
  type: "InnerProduct"
  bottom: "fc6"
  top: "fc7"
  param {
    lr_mult: 1
    decay_mult: 1
  }
  param {
    lr_mult: 2
    decay_mult: 0
  }
  inner_product_param {
    num_output: 2048
    weight_filler {
      type: "gaussian"
      std: 0.005
    }
    bias_filler {
      type: "constant"
    }
  }
}
layer {
  name: "relu7"
  type: "ReLU"
  bottom: "fc7"
  top: "fc7"
}
layer {
  name: "drop7"
  type: "Dropout"
  bottom: "fc7"
  top: "fc7"
  dropout_param {
    dropout_ratio: 0.5
  }
}
layer {
  name: "fc8"
  type: "InnerProduct"
  bottom: "fc7"
  top: "fc8"
  param {
    lr_mult: 1
    decay_mult: 1
  }
  param {
    lr_mult: 2
    decay_mult: 0
  }
  inner_product_param {
    num_output: 1000
    weight_filler {
      type: "gaussian"
      std: 0.01
    }
    bias_filler {
      type: "constant"
    }
  }
}
layer {
  name: "loss"
  type: "SoftmaxWithLoss"
  bottom: "fc8"
  bottom: "label"
  top: "loss"
}
I0124 13:56:29.880909 30591 layer_factory.hpp:76] Creating layer data
I0124 13:56:29.881759 30591 net.cpp:106] Creating Layer data
I0124 13:56:29.881780 30591 net.cpp:411] data -> data
I0124 13:56:29.881829 30591 net.cpp:411] data -> label
I0124 13:56:29.882640 30595 db_lmdb.cpp:38] Opened lmdb /home/old-ufo/datasets/imagenet/ilsvrc12_train_shuffle_lmdb
I0124 13:56:29.897620 30591 data_layer.cpp:41] output data size: 256,3,128,128
I0124 13:56:29.977198 30591 net.cpp:150] Setting up data
I0124 13:56:29.977227 30591 net.cpp:157] Top shape: 256 3 128 128 (12582912)
I0124 13:56:29.977237 30591 net.cpp:157] Top shape: 256 (256)
I0124 13:56:29.977242 30591 net.cpp:165] Memory required for data: 50332672
I0124 13:56:29.977257 30591 layer_factory.hpp:76] Creating layer conv1
I0124 13:56:29.977277 30591 net.cpp:106] Creating Layer conv1
I0124 13:56:29.977284 30591 net.cpp:454] conv1 <- data
I0124 13:56:29.977303 30591 net.cpp:411] conv1 -> conv1
I0124 13:56:30.157291 30591 net.cpp:150] Setting up conv1
I0124 13:56:30.157321 30591 net.cpp:157] Top shape: 256 96 30 30 (22118400)
I0124 13:56:30.157325 30591 net.cpp:165] Memory required for data: 138806272
I0124 13:56:30.157346 30591 layer_factory.hpp:76] Creating layer relu1
I0124 13:56:30.157359 30591 net.cpp:106] Creating Layer relu1
I0124 13:56:30.157366 30591 net.cpp:454] relu1 <- conv1
I0124 13:56:30.157373 30591 net.cpp:411] relu1 -> relu1
I0124 13:56:30.158094 30591 net.cpp:150] Setting up relu1
I0124 13:56:30.158108 30591 net.cpp:157] Top shape: 256 96 30 30 (22118400)
I0124 13:56:30.158113 30591 net.cpp:165] Memory required for data: 227279872
I0124 13:56:30.158118 30591 layer_factory.hpp:76] Creating layer pool1
I0124 13:56:30.158126 30591 net.cpp:106] Creating Layer pool1
I0124 13:56:30.158131 30591 net.cpp:454] pool1 <- relu1
I0124 13:56:30.158138 30591 net.cpp:411] pool1 -> pool1
I0124 13:56:30.158885 30591 net.cpp:150] Setting up pool1
I0124 13:56:30.158897 30591 net.cpp:157] Top shape: 256 96 15 15 (5529600)
I0124 13:56:30.158902 30591 net.cpp:165] Memory required for data: 249398272
I0124 13:56:30.158906 30591 layer_factory.hpp:76] Creating layer conv2
I0124 13:56:30.158918 30591 net.cpp:106] Creating Layer conv2
I0124 13:56:30.158923 30591 net.cpp:454] conv2 <- pool1
I0124 13:56:30.158932 30591 net.cpp:411] conv2 -> conv2
I0124 13:56:30.174641 30591 net.cpp:150] Setting up conv2
I0124 13:56:30.174667 30591 net.cpp:157] Top shape: 256 256 15 15 (14745600)
I0124 13:56:30.174672 30591 net.cpp:165] Memory required for data: 308380672
I0124 13:56:30.174686 30591 layer_factory.hpp:76] Creating layer relu2
I0124 13:56:30.174696 30591 net.cpp:106] Creating Layer relu2
I0124 13:56:30.174703 30591 net.cpp:454] relu2 <- conv2
I0124 13:56:30.174713 30591 net.cpp:397] relu2 -> conv2 (in-place)
I0124 13:56:30.175429 30591 net.cpp:150] Setting up relu2
I0124 13:56:30.175441 30591 net.cpp:157] Top shape: 256 256 15 15 (14745600)
I0124 13:56:30.175446 30591 net.cpp:165] Memory required for data: 367363072
I0124 13:56:30.175449 30591 layer_factory.hpp:76] Creating layer pool2
I0124 13:56:30.175458 30591 net.cpp:106] Creating Layer pool2
I0124 13:56:30.175463 30591 net.cpp:454] pool2 <- conv2
I0124 13:56:30.175470 30591 net.cpp:411] pool2 -> pool2
I0124 13:56:30.176368 30591 net.cpp:150] Setting up pool2
I0124 13:56:30.176383 30591 net.cpp:157] Top shape: 256 256 7 7 (3211264)
I0124 13:56:30.176388 30591 net.cpp:165] Memory required for data: 380208128
I0124 13:56:30.176391 30591 layer_factory.hpp:76] Creating layer conv3
I0124 13:56:30.176404 30591 net.cpp:106] Creating Layer conv3
I0124 13:56:30.176409 30591 net.cpp:454] conv3 <- pool2
I0124 13:56:30.176419 30591 net.cpp:411] conv3 -> conv3
I0124 13:56:30.211017 30591 net.cpp:150] Setting up conv3
I0124 13:56:30.211045 30591 net.cpp:157] Top shape: 256 384 7 7 (4816896)
I0124 13:56:30.211051 30591 net.cpp:165] Memory required for data: 399475712
I0124 13:56:30.211068 30591 layer_factory.hpp:76] Creating layer relu3
I0124 13:56:30.211081 30591 net.cpp:106] Creating Layer relu3
I0124 13:56:30.211088 30591 net.cpp:454] relu3 <- conv3
I0124 13:56:30.211097 30591 net.cpp:397] relu3 -> conv3 (in-place)
I0124 13:56:30.211860 30591 net.cpp:150] Setting up relu3
I0124 13:56:30.211874 30591 net.cpp:157] Top shape: 256 384 7 7 (4816896)
I0124 13:56:30.211879 30591 net.cpp:165] Memory required for data: 418743296
I0124 13:56:30.211904 30591 layer_factory.hpp:76] Creating layer conv4
I0124 13:56:30.211916 30591 net.cpp:106] Creating Layer conv4
I0124 13:56:30.211921 30591 net.cpp:454] conv4 <- conv3
I0124 13:56:30.211930 30591 net.cpp:411] conv4 -> conv4
I0124 13:56:30.240803 30591 net.cpp:150] Setting up conv4
I0124 13:56:30.240828 30591 net.cpp:157] Top shape: 256 384 7 7 (4816896)
I0124 13:56:30.240834 30591 net.cpp:165] Memory required for data: 438010880
I0124 13:56:30.240845 30591 layer_factory.hpp:76] Creating layer relu4
I0124 13:56:30.240856 30591 net.cpp:106] Creating Layer relu4
I0124 13:56:30.240861 30591 net.cpp:454] relu4 <- conv4
I0124 13:56:30.240870 30591 net.cpp:397] relu4 -> conv4 (in-place)
I0124 13:56:30.241590 30591 net.cpp:150] Setting up relu4
I0124 13:56:30.241601 30591 net.cpp:157] Top shape: 256 384 7 7 (4816896)
I0124 13:56:30.241605 30591 net.cpp:165] Memory required for data: 457278464
I0124 13:56:30.241610 30591 layer_factory.hpp:76] Creating layer conv5
I0124 13:56:30.241621 30591 net.cpp:106] Creating Layer conv5
I0124 13:56:30.241624 30591 net.cpp:454] conv5 <- conv4
I0124 13:56:30.241634 30591 net.cpp:411] conv5 -> conv5
I0124 13:56:30.262614 30591 net.cpp:150] Setting up conv5
I0124 13:56:30.262640 30591 net.cpp:157] Top shape: 256 256 7 7 (3211264)
I0124 13:56:30.262645 30591 net.cpp:165] Memory required for data: 470123520
I0124 13:56:30.262660 30591 layer_factory.hpp:76] Creating layer relu5
I0124 13:56:30.262670 30591 net.cpp:106] Creating Layer relu5
I0124 13:56:30.262676 30591 net.cpp:454] relu5 <- conv5
I0124 13:56:30.262684 30591 net.cpp:397] relu5 -> conv5 (in-place)
I0124 13:56:30.263511 30591 net.cpp:150] Setting up relu5
I0124 13:56:30.263523 30591 net.cpp:157] Top shape: 256 256 7 7 (3211264)
I0124 13:56:30.263527 30591 net.cpp:165] Memory required for data: 482968576
I0124 13:56:30.263531 30591 layer_factory.hpp:76] Creating layer pool5
I0124 13:56:30.263540 30591 net.cpp:106] Creating Layer pool5
I0124 13:56:30.263546 30591 net.cpp:454] pool5 <- conv5
I0124 13:56:30.263552 30591 net.cpp:411] pool5 -> pool5
I0124 13:56:30.264437 30591 net.cpp:150] Setting up pool5
I0124 13:56:30.264452 30591 net.cpp:157] Top shape: 256 256 3 3 (589824)
I0124 13:56:30.264456 30591 net.cpp:165] Memory required for data: 485327872
I0124 13:56:30.264461 30591 layer_factory.hpp:76] Creating layer fc6
I0124 13:56:30.264470 30591 net.cpp:106] Creating Layer fc6
I0124 13:56:30.264475 30591 net.cpp:454] fc6 <- pool5
I0124 13:56:30.264484 30591 net.cpp:411] fc6 -> fc6
I0124 13:56:30.433197 30591 net.cpp:150] Setting up fc6
I0124 13:56:30.433225 30591 net.cpp:157] Top shape: 256 2048 (524288)
I0124 13:56:30.433230 30591 net.cpp:165] Memory required for data: 487425024
I0124 13:56:30.433240 30591 layer_factory.hpp:76] Creating layer relu6
I0124 13:56:30.433251 30591 net.cpp:106] Creating Layer relu6
I0124 13:56:30.433256 30591 net.cpp:454] relu6 <- fc6
I0124 13:56:30.433264 30591 net.cpp:397] relu6 -> fc6 (in-place)
I0124 13:56:30.434213 30591 net.cpp:150] Setting up relu6
I0124 13:56:30.434231 30591 net.cpp:157] Top shape: 256 2048 (524288)
I0124 13:56:30.434234 30591 net.cpp:165] Memory required for data: 489522176
I0124 13:56:30.434238 30591 layer_factory.hpp:76] Creating layer drop6
I0124 13:56:30.434258 30591 net.cpp:106] Creating Layer drop6
I0124 13:56:30.434265 30591 net.cpp:454] drop6 <- fc6
I0124 13:56:30.434273 30591 net.cpp:397] drop6 -> fc6 (in-place)
I0124 13:56:30.434309 30591 net.cpp:150] Setting up drop6
I0124 13:56:30.434315 30591 net.cpp:157] Top shape: 256 2048 (524288)
I0124 13:56:30.434319 30591 net.cpp:165] Memory required for data: 491619328
I0124 13:56:30.434322 30591 layer_factory.hpp:76] Creating layer fc7
I0124 13:56:30.434331 30591 net.cpp:106] Creating Layer fc7
I0124 13:56:30.434336 30591 net.cpp:454] fc7 <- fc6
I0124 13:56:30.434345 30591 net.cpp:411] fc7 -> fc7
I0124 13:56:30.583978 30591 net.cpp:150] Setting up fc7
I0124 13:56:30.584004 30591 net.cpp:157] Top shape: 256 2048 (524288)
I0124 13:56:30.584009 30591 net.cpp:165] Memory required for data: 493716480
I0124 13:56:30.584048 30591 layer_factory.hpp:76] Creating layer relu7
I0124 13:56:30.584059 30591 net.cpp:106] Creating Layer relu7
I0124 13:56:30.584065 30591 net.cpp:454] relu7 <- fc7
I0124 13:56:30.584074 30591 net.cpp:397] relu7 -> fc7 (in-place)
I0124 13:56:30.584969 30591 net.cpp:150] Setting up relu7
I0124 13:56:30.584981 30591 net.cpp:157] Top shape: 256 2048 (524288)
I0124 13:56:30.584985 30591 net.cpp:165] Memory required for data: 495813632
I0124 13:56:30.584990 30591 layer_factory.hpp:76] Creating layer drop7
I0124 13:56:30.584998 30591 net.cpp:106] Creating Layer drop7
I0124 13:56:30.585003 30591 net.cpp:454] drop7 <- fc7
I0124 13:56:30.585010 30591 net.cpp:397] drop7 -> fc7 (in-place)
I0124 13:56:30.585042 30591 net.cpp:150] Setting up drop7
I0124 13:56:30.585049 30591 net.cpp:157] Top shape: 256 2048 (524288)
I0124 13:56:30.585052 30591 net.cpp:165] Memory required for data: 497910784
I0124 13:56:30.585058 30591 layer_factory.hpp:76] Creating layer fc8
I0124 13:56:30.585077 30591 net.cpp:106] Creating Layer fc8
I0124 13:56:30.585083 30591 net.cpp:454] fc8 <- fc7
I0124 13:56:30.585094 30591 net.cpp:411] fc8 -> fc8
I0124 13:56:30.657969 30591 net.cpp:150] Setting up fc8
I0124 13:56:30.657995 30591 net.cpp:157] Top shape: 256 1000 (256000)
I0124 13:56:30.658000 30591 net.cpp:165] Memory required for data: 498934784
I0124 13:56:30.658013 30591 layer_factory.hpp:76] Creating layer loss
I0124 13:56:30.658025 30591 net.cpp:106] Creating Layer loss
I0124 13:56:30.658030 30591 net.cpp:454] loss <- fc8
I0124 13:56:30.658038 30591 net.cpp:454] loss <- label
I0124 13:56:30.658048 30591 net.cpp:411] loss -> loss
I0124 13:56:30.658064 30591 layer_factory.hpp:76] Creating layer loss
…
    phase: TEST
  }
  transform_param {
    scale: 0.04
    mirror: false
    crop_size: 128
    mean_value: 104
    mean_value: 117
    mean_value: 123
    force_color: true
    resize_param {
      prob: 1
      resize_mode: FIT_SMALL_SIZE
      height: 144
      width: 144
      pad_mode: MIRRORED
      pad_value: 104
      pad_value: 117
      pad_value: 124
      interp_mode: LINEAR
      center_object: false
      max_angle: 0
    }
  }
  data_param {
    source: "/home/old-ufo/datasets/imagenet/ilsvrc12_val_lmdb"
    batch_size: 250
    backend: LMDB
  }
}
layer {
  name: "conv1"
  type: "Convolution"
  bottom: "data"
  top: "conv1"
  param {
    lr_mult: 1
    decay_mult: 1
  }
  param {
    lr_mult: 2
    decay_mult: 0
  }
  convolution_param {
    num_output: 96
    kernel_size: 11
    stride: 4
    weight_filler {
      type: "gaussian"
      std: 0.01
    }
    bias_filler {
      type: "constant"
    }
  }
}
layer {
  name: "relu1"
  type: "ReLU"
  bottom: "conv1"
  top: "relu1"
}
layer {
  name: "pool1"
  type: "Pooling"
  bottom: "relu1"
  top: "pool1"
  pooling_param {
    pool: MAX
    kernel_size: 3
    stride: 2
  }
}
layer {
  name: "conv2"
  type: "Convolution"
  bottom: "pool1"
  top: "conv2"
  param {
    lr_mult: 1
    decay_mult: 1
  }
  param {
    lr_mult: 2
    decay_mult: 0
  }
  convolution_param {
    num_output: 256
    pad: 2
    kernel_size: 5
    group: 2
    weight_filler {
      type: "gaussian"
      std: 0.01
    }
    bias_filler {
      type: "constant"
    }
  }
}
layer {
  name: "relu2"
  type: "ReLU"
  bottom: "conv2"
  top: "conv2"
}
layer {
  name: "pool2"
  type: "Pooling"
  bottom: "conv2"
  top: "pool2"
  pooling_param {
    pool: MAX
    kernel_size: 3
    stride: 2
  }
}
layer {
  name: "conv3"
  type: "Convolution"
  bottom: "pool2"
  top: "conv3"
  param {
    lr_mult: 1
    decay_mult: 1
  }
  param {
    lr_mult: 2
    decay_mult: 0
  }
  convolution_param {
    num_output: 384
    pad: 1
    kernel_size: 3
    weight_filler {
      type: "gaussian"
      std: 0.01
    }
    bias_filler {
      type: "constant"
    }
  }
}
layer {
  name: "relu3"
  type: "ReLU"
  bottom: "conv3"
  top: "conv3"
}
layer {
  name: "conv4"
  type: "Convolution"
  bottom: "conv3"
  top: "conv4"
  param {
    lr_mult: 1
    decay_mult: 1
  }
  param {
    lr_mult: 2
    decay_mult: 0
  }
  convolution_param {
    num_output: 384
    pad: 1
    kernel_size: 3
    group: 2
    weight_filler {
      type: "gaussian"
      std: 0.01
    }
    bias_filler {
      type: "constant"
    }
  }
}
layer {
  name: "relu4"
  type: "ReLU"
  bottom: "conv4"
  top: "conv4"
}
layer {
  name: "conv5"
  type: "Convolution"
  bottom: "conv4"
  top: "conv5"
  param {
    lr_mult: 1
    decay_mult: 1
  }
  param {
    lr_mult: 2
    decay_mult: 0
  }
  convolution_param {
    num_output: 256
    pad: 1
    kernel_size: 3
    group: 2
    weight_filler {
      type: "gaussian"
      std: 0.01
    }
    bias_filler {
      type: "constant"
    }
  }
}
layer {
  name: "relu5"
  type: "ReLU"
  bottom: "conv5"
  top: "conv5"
}
layer {
  name: "pool5"
  type: "Pooling"
  bottom: "conv5"
  top: "pool5"
  pooling_param {
    pool: MAX
    kernel_size: 3
    stride: 2
  }
}
layer {
  name: "fc6"
  type: "InnerProduct"
  bottom: "pool5"
  top: "fc6"
  param {
    lr_mult: 1
    decay_mult: 1
  }
  param {
    lr_mult: 2
    decay_mult: 0
  }
  inner_product_param {
    num_output: 2048
    weight_filler {
      type: "gaussian"
      std: 0.005
    }
    bias_filler {
      type: "constant"
    }
  }
}
layer {
  name: "relu6"
  type: "ReLU"
  bottom: "fc6"
  top: "fc6"
}
layer {
  name: "drop6"
  type: "Dropout"
  bottom: "fc6"
  top: "fc6"
  dropout_param {
    dropout_ratio: 0.5
  }
}
layer {
  name: "fc7"
  type: "InnerProduct"
  bottom: "fc6"
  top: "fc7"
  param {
    lr_mult: 1
    decay_mult: 1
  }
  param {
    lr_mult: 2
    decay_mult: 0
  }
  inner_product_param {
    num_output: 2048
    weight_filler {
      type: "gaussian"
      std: 0.005
    }
    bias_filler {
      type: "constant"
    }
  }
}
layer {
  name: "relu7"
  type: "ReLU"
  bottom: "fc7"
  top: "fc7"
}
layer {
  name: "drop7"
  type: "Dropout"
  bottom: "fc7"
  top: "fc7"
  dropout_param {
    dropout_ratio: 0.5
  }
}
layer {
  name: "fc8"
  type: "InnerProduct"
  bottom: "fc7"
  top: "fc8"
  param {
    lr_mult: 1
    decay_mult: 1
  }
  param {
    lr_mult: 2
    decay_mult: 0
  }
  inner_product_param {
    num_output: 1000
    weight_filler {
      type: "gaussian"
      std: 0.01
    }
    bias_filler {
      type: "constant"
    }
  }
}
layer {
  name: "accuracy"
  type: "Accuracy"
  bottom: "fc8"
  bottom: "label"
  top: "accuracy"
  include {
    phase: TEST
  }
}
layer {
  name: "loss"
  type: "SoftmaxWithLoss"
  bottom: "fc8"
  bottom: "label"
  top: "loss"
}
I0124 13:56:30.660643 30591 layer_factory.hpp:76] Creating layer data
I0124 13:56:30.660873 30591 net.cpp:106] Creating Layer data
I0124 13:56:30.660886 30591 net.cpp:411] data -> data
I0124 13:56:30.660897 30591 net.cpp:411] data -> label
I0124 13:56:30.661566 30604 db_lmdb.cpp:38] Opened lmdb /home/old-ufo/datasets/imagenet/ilsvrc12_val_lmdb
I0124 13:56:30.664448 30591 data_layer.cpp:41] output data size: 250,3,128,128
I0124 13:56:30.735831 30591 net.cpp:150] Setting up data
I0124 13:56:30.735863 30591 net.cpp:157] Top shape: 250 3 128 128 (12288000)
I0124 13:56:30.735870 30591 net.cpp:157] Top shape: 250 (250)
I0124 13:56:30.735874 30591 net.cpp:165] Memory required for data: 49153000
I0124 13:56:30.735882 30591 layer_factory.hpp:76] Creating layer label_data_1_split
I0124 13:56:30.735893 30591 net.cpp:106] Creating Layer label_data_1_split
I0124 13:56:30.735898 30591 net.cpp:454] label_data_1_split <- label
I0124 13:56:30.735904 30591 net.cpp:411] label_data_1_split -> label_data_1_split_0
I0124 13:56:30.735913 30591 net.cpp:411] label_data_1_split -> label_data_1_split_1
I0124 13:56:30.735977 30591 net.cpp:150] Setting up label_data_1_split
I0124 13:56:30.735983 30591 net.cpp:157] Top shape: 250 (250)
I0124 13:56:30.735988 30591 net.cpp:157] Top shape: 250 (250)
I0124 13:56:30.735991 30591 net.cpp:165] Memory required for data: 49155000
I0124 13:56:30.735994 30591 layer_factory.hpp:76] Creating layer conv1
I0124 13:56:30.736007 30591 net.cpp:106] Creating Layer conv1
I0124 13:56:30.736011 30591 net.cpp:454] conv1 <- data
I0124 13:56:30.736017 30591 net.cpp:411] conv1 -> conv1
I0124 13:56:30.739797 30591 net.cpp:150] Setting up conv1
I0124 13:56:30.739830 30591 net.cpp:157] Top shape: 250 96 30 30 (21600000)
I0124 13:56:30.739833 30591 net.cpp:165] Memory required for data: 135555000
I0124 13:56:30.739848 30591 layer_factory.hpp:76] Creating layer relu1
I0124 13:56:30.739861 30591 net.cpp:106] Creating Layer relu1
I0124 13:56:30.739866 30591 net.cpp:454] relu1 <- conv1
I0124 13:56:30.739874 30591 net.cpp:411] relu1 -> relu1
I0124 13:56:30.740890 30591 net.cpp:150] Setting up relu1
I0124 13:56:30.740916 30591 net.cpp:157] Top shape: 250 96 30 30 (21600000)
I0124 13:56:30.740921 30591 net.cpp:165] Memory required for data: 221955000
I0124 13:56:30.740927 30591 layer_factory.hpp:76] Creating layer pool1
I0124 13:56:30.740941 30591 net.cpp:106] Creating Layer pool1
I0124 13:56:30.740945 30591 net.cpp:454] pool1 <- relu1
I0124 13:56:30.740953 30591 net.cpp:411] pool1 -> pool1
I0124 13:56:30.741859 30591 net.cpp:150] Setting up pool1
I0124 13:56:30.741885 30591 net.cpp:157] Top shape: 250 96 15 15 (5400000)
I0124 13:56:30.741889 30591 net.cpp:165] Memory required for data: 243555000
I0124 13:56:30.741894 30591 layer_factory.hpp:76] Creating layer conv2
I0124 13:56:30.741910 30591 net.cpp:106] Creating Layer conv2
I0124 13:56:30.741916 30591 net.cpp:454] conv2 <- pool1
I0124 13:56:30.741926 30591 net.cpp:411] conv2 -> conv2
I0124 13:56:30.759232 30591 net.cpp:150] Setting up conv2
I0124 13:56:30.759260 30591 net.cpp:157] Top shape: 250 256 15 15 (14400000)
I0124 13:56:30.759268 30591 net.cpp:165] Memory required for data: 301155000
I0124 13:56:30.759281 30591 layer_factory.hpp:76] Creating layer relu2
I0124 13:56:30.759292 30591 net.cpp:106] Creating Layer relu2
I0124 13:56:30.759316 30591 net.cpp:454] relu2 <- conv2
I0124 13:56:30.759327 30591 net.cpp:397] relu2 -> conv2 (in-place)
I0124 13:56:30.760094 30591 net.cpp:150] Setting up relu2
I0124 13:56:30.760108 30591 net.cpp:157] Top shape: 250 256 15 15 (14400000)
I0124 13:56:30.760113 30591 net.cpp:165] Memory required for data: 358755000
I0124 13:56:30.760118 30591 layer_factory.hpp:76] Creating layer pool2
I0124 13:56:30.760125 30591 net.cpp:106] Creating Layer pool2
I0124 13:56:30.760129 30591 net.cpp:454] pool2 <- conv2
I0124 13:56:30.760138 30591 net.cpp:411] pool2 -> pool2
I0124 13:56:30.761010 30591 net.cpp:150] Setting up pool2
I0124 13:56:30.761026 30591 net.cpp:157] Top shape: 250 256 7 7 (3136000)
I0124 13:56:30.761030 30591 net.cpp:165] Memory required for data: 371299000
I0124 13:56:30.761035 30591 layer_factory.hpp:76] Creating layer conv3
I0124 13:56:30.761050 30591 net.cpp:106] Creating Layer conv3
I0124 13:56:30.761057 30591 net.cpp:454] conv3 <- pool2
I0124 13:56:30.761065 30591 net.cpp:411] conv3 -> conv3
I0124 13:56:30.797188 30591 net.cpp:150] Setting up conv3
I0124 13:56:30.797217 30591 net.cpp:157] Top shape: 250 384 7 7 (4704000)
I0124 13:56:30.797224 30591 net.cpp:165] Memory required for data: 390115000
I0124 13:56:30.797240 30591 layer_factory.hpp:76] Creating layer relu3
I0124 13:56:30.797253 30591 net.cpp:106] Creating Layer relu3
I0124 13:56:30.797260 30591 net.cpp:454] relu3 <- conv3
I0124 13:56:30.797268 30591 net.cpp:397] relu3 -> conv3 (in-place)
I0124 13:56:30.798132 30591 net.cpp:150] Setting up relu3
I0124 13:56:30.798147 30591 net.cpp:157] Top shape: 250 384 7 7 (4704000)
I0124 13:56:30.798152 30591 net.cpp:165] Memory required for data: 408931000
I0124 13:56:30.798157 30591 layer_factory.hpp:76] Creating layer conv4
I0124 13:56:30.798171 30591 net.cpp:106] Creating Layer conv4
I0124 13:56:30.798178 30591 net.cpp:454] conv4 <- conv3
I0124 13:56:30.798188 30591 net.cpp:411] conv4 -> conv4
I0124 13:56:30.828768 30591 net.cpp:150] Setting up conv4
I0124 13:56:30.828796 30591 net.cpp:157] Top shape: 250 384 7 7 (4704000)
I0124 13:56:30.828800 30591 net.cpp:165] Memory required for data: 427747000
I0124 13:56:30.828812 30591 layer_factory.hpp:76] Creating layer relu4
I0124 13:56:30.828824 30591 net.cpp:106] Creating Layer relu4
I0124 13:56:30.828830 30591 net.cpp:454] relu4 <- conv4
I0124 13:56:30.828842 30591 net.cpp:397] relu4 -> conv4 (in-place)
I0124 13:56:30.829690 30591 net.cpp:150] Setting up relu4
I0124 13:56:30.829716 30591 net.cpp:157] Top shape: 250 384 7 7 (4704000)
I0124 13:56:30.829720 30591 net.cpp:165] Memory required for data: 446563000
I0124 13:56:30.829725 30591 layer_factory.hpp:76] Creating layer conv5
I0124 13:56:30.829740 30591 net.cpp:106] Creating Layer conv5
I0124 13:56:30.829746 30591 net.cpp:454] conv5 <- conv4
I0124 13:56:30.829757 30591 net.cpp:411] conv5 -> conv5
I0124 13:56:30.851709 30591 net.cpp:150] Setting up conv5
I0124 13:56:30.851737 30591 net.cpp:157] Top shape: 250 256 7 7 (3136000)
I0124 13:56:30.851740 30591 net.cpp:165] Memory required for data: 459107000
I0124 13:56:30.851757 30591 layer_factory.hpp:76] Creating layer relu5
I0124 13:56:30.851766 30591 net.cpp:106] Creating Layer relu5
I0124 13:56:30.851773 30591 net.cpp:454] relu5 <- conv5
I0124 13:56:30.851780 30591 net.cpp:397] relu5 -> conv5 (in-place)
I0124 13:56:30.852605 30591 net.cpp:150] Setting up relu5
I0124 13:56:30.852623 30591 net.cpp:157] Top shape: 250 256 7 7 (3136000)
I0124 13:56:30.852628 30591 net.cpp:165] Memory required for data: 471651000
I0124 13:56:30.852632 30591 layer_factory.hpp:76] Creating layer pool5
I0124 13:56:30.852643 30591 net.cpp:106] Creating Layer pool5
I0124 13:56:30.852648 30591 net.cpp:454] pool5 <- conv5
I0124 13:56:30.852656 30591 net.cpp:411] pool5 -> pool5
I0124 13:56:30.853519 30591 net.cpp:150] Setting up pool5
I0124 13:56:30.853535 30591 net.cpp:157] Top shape: 250 256 3 3 (576000)
I0124 13:56:30.853539 30591 net.cpp:165] Memory required for data: 473955000
I0124 13:56:30.853544 30591 layer_factory.hpp:76] Creating layer fc6
I0124 13:56:30.853572 30591 net.cpp:106] Creating Layer fc6
I0124 13:56:30.853579 30591 net.cpp:454] fc6 <- pool5
I0124 13:56:30.853590 30591 net.cpp:411] fc6 -> fc6
I0124 13:56:31.026444 30591 net.cpp:150] Setting up fc6
I0124 13:56:31.026473 30591 net.cpp:157] Top shape: 250 2048 (512000)
I0124 13:56:31.026478 30591 net.cpp:165] Memory required for data: 476003000
I0124 13:56:31.026489 30591 layer_factory.hpp:76] Creating layer relu6
I0124 13:56:31.026501 30591 net.cpp:106] Creating Layer relu6
I0124 13:56:31.026507 30591 net.cpp:454] relu6 <- fc6
I0124 13:56:31.026515 30591 net.cpp:397] relu6 -> fc6 (in-place)
I0124 13:56:31.027734 30591 net.cpp:150] Setting up relu6
I0124 13:56:31.027750 30591 net.cpp:157] Top shape: 250 2048 (512000)
I0124 13:56:31.027755 30591 net.cpp:165] Memory required for data: 478051000
I0124 13:56:31.027760 30591 layer_factory.hpp:76] Creating layer drop6
I0124 13:56:31.027770 30591 net.cpp:106] Creating Layer drop6
I0124 13:56:31.027776 30591 net.cpp:454] drop6 <- fc6
I0124 13:56:31.027784 30591 net.cpp:397] drop6 -> fc6 (in-place)
I0124 13:56:31.027829 30591 net.cpp:150] Setting up drop6
I0124 13:56:31.027837 30591 net.cpp:157] Top shape: 250 2048 (512000)
I0124 13:56:31.027842 30591 net.cpp:165] Memory required for data: 480099000
I0124 13:56:31.027845 30591 layer_factory.hpp:76] Creating layer fc7
I0124 13:56:31.027855 30591 net.cpp:106] Creating Layer fc7
I0124 13:56:31.027860 30591 net.cpp:454] fc7 <- fc6
I0124 13:56:31.027868 30591 net.cpp:411] fc7 -> fc7
I0124 13:56:31.180554 30591 net.cpp:150] Setting up fc7
I0124 13:56:31.180588 30591 net.cpp:157] Top shape: 250 2048 (512000)
I0124 13:56:31.180593 30591 net.cpp:165] Memory required for data: 482147000
I0124 13:56:31.180606 30591 layer_factory.hpp:76] Creating layer relu7
I0124 13:56:31.180618 30591 net.cpp:106] Creating Layer relu7
I0124 13:56:31.180624 30591 net.cpp:454] relu7 <- fc7
I0124 13:56:31.180631 30591 net.cpp:397] relu7 -> fc7 (in-place)
I0124 13:56:31.181694 30591 net.cpp:150] Setting up relu7
I0124 13:56:31.181717 30591 net.cpp:157] Top shape: 250 2048 (512000)
I0124 13:56:31.181722 30591 net.cpp:165] Memory required for data: 484195000
I0124 13:56:31.181726 30591 layer_factory.hpp:76] Creating layer drop7
I0124 13:56:31.181735 30591 net.cpp:106] Creating Layer drop7
I0124 13:56:31.181740 30591 net.cpp:454] drop7 <- fc7
I0124 13:56:31.181746 30591 net.cpp:397] drop7 -> fc7 (in-place)
I0124 13:56:31.181793 30591 net.cpp:150] Setting up drop7
I0124 13:56:31.181802 30591 net.cpp:157] Top shape: 250 2048 (512000)
I0124 13:56:31.181807 30591 net.cpp:165] Memory required for data: 486243000
I0124 13:56:31.181810 30591 layer_factory.hpp:76] Creating layer fc8
I0124 13:56:31.181820 30591 net.cpp:106] Creating Layer fc8
I0124 13:56:31.181825 30591 net.cpp:454] fc8 <- fc7
I0124 13:56:31.181833 30591 net.cpp:411] fc8 -> fc8
I0124 13:56:31.255678 30591 net.cpp:150] Setting up fc8
I0124 13:56:31.255707 30591 net.cpp:157] Top shape: 250 1000 (250000)
I0124 13:56:31.255710 30591 net.cpp:165] Memory required for data: 487243000
I0124 13:56:31.255722 30591 layer_factory.hpp:76] Creating layer fc8_fc8_0_split
I0124 13:56:31.255734 30591 net.cpp:106] Creating Layer fc8_fc8_0_split
I0124 13:56:31.255740 30591 net.cpp:454] fc8_fc8_0_split <- fc8
I0124 13:56:31.255749 30591 net.cpp:411] fc8_fc8_0_split -> fc8_fc8_0_split_0
I0124 13:56:31.255764 30591 net.cpp:411] fc8_fc8_0_split -> fc8_fc8_0_split_1
I0124 13:56:31.255872 30591 net.cpp:150] Setting up fc8_fc8_0_split
I0124 13:56:31.255884 30591 net.cpp:157] Top shape: 250 1000 (250000)
I0124 13:56:31.255892 30591 net.cpp:157] Top shape: 250 1000 (250000)
I0124 13:56:31.255895 30591 net.cpp:165] Memory required for data: 489243000
I0124 13:56:31.255899 30591 layer_factory.hpp:76] Creating layer accuracy
I0124 13:56:31.255913 30591 net.cpp:106] Creating Layer accuracy
I0124 13:56:31.255919 30591 net.cpp:454] accuracy <- fc8_fc8_0_split_0
I0124 13:56:31.255925 30591 net.cpp:454] accuracy <- label_data_1_split_0
I0124 13:56:31.255931 30591 net.cpp:411] accuracy -> accuracy
…
