…
      mirror: false
      crop_size: 128
      mean_value: 104
      mean_value: 117
      mean_value: 123
      force_color: true
      resize_param {
        prob: 1
        resize_mode: FIT_SMALL_SIZE
        height: 144
        width: 144
        pad_mode: MIRRORED
        pad_value: 104
        pad_value: 117
        pad_value: 124
        interp_mode: LINEAR
        center_object: false
        max_angle: 0
      }
    }
    data_param {
      source: "/home/old-ufo/datasets/imagenet/ilsvrc12_val_lmdb"
      batch_size: 250
      backend: LMDB
    }
  }
  layer {
    name: "conv1"
    type: "Convolution"
    bottom: "data"
    top: "conv1"
    param {
      lr_mult: 1
      decay_mult: 1
    }
    param {
      lr_mult: 2
      decay_mult: 0
    }
    convolution_param {
      num_output: 96
      kernel_size: 11
      stride: 4
      weight_filler {
        type: "gaussian"
        std: 0.01
      }
      bias_filler {
        type: "constant"
      }
    }
  }
  layer {
    name: "relu1"
    type: "ReLU"
    bottom: "conv1"
    top: "relu1"
  }
  layer {
    name: "pool1"
    type: "Pooling"
    bottom: "relu1"
    top: "pool1"
    pooling_param {
      pool: MAX
      kernel_size: 3
      stride: 2
    }
  }
  layer {
    name: "conv2"
    type: "Convolution"
    bottom: "pool1"
    top: "conv2"
    param {
      lr_mult: 1
      decay_mult: 1
    }
    param {
      lr_mult: 2
      decay_mult: 0
    }
    convolution_param {
      num_output: 256
      pad: 2
      kernel_size: 5
      group: 2
      weight_filler {
        type: "gaussian"
        std: 0.01
      }
      bias_filler {
        type: "constant"
      }
    }
  }
  layer {
    name: "relu2"
    type: "ReLU"
    bottom: "conv2"
    top: "conv2"
  }
  layer {
    name: "pool2"
    type: "Pooling"
    bottom: "conv2"
    top: "pool2"
    pooling_param {
      pool: MAX
      kernel_size: 3
      stride: 2
    }
  }
  layer {
    name: "conv3"
    type: "Convolution"
    bottom: "pool2"
    top: "conv3"
    param {
      lr_mult: 1
      decay_mult: 1
    }
    param {
      lr_mult: 2
      decay_mult: 0
    }
    convolution_param {
      num_output: 384
      pad: 1
      kernel_size: 3
      weight_filler {
        type: "gaussian"
        std: 0.01
      }
      bias_filler {
        type: "constant"
      }
    }
  }
  layer {
    name: "relu3"
    type: "ReLU"
    bottom: "conv3"
    top: "conv3"
  }
  layer {
    name: "conv4"
    type: "Convolution"
    bottom: "conv3"
    top: "conv4"
    param {
      lr_mult: 1
      decay_mult: 1
    }
    param {
      lr_mult: 2
      decay_mult: 0
    }
    convolution_param {
      num_output: 384
      pad: 1
      kernel_size: 3
      group: 2
      weight_filler {
        type: "gaussian"
        std: 0.01
      }
      bias_filler {
        type: "constant"
      }
    }
  }
  layer {
    name: "relu4"
    type: "ReLU"
    bottom: "conv4"
    top: "conv4"
  }
  layer {
    name: "conv5"
    type: "Convolution"
    bottom: "conv4"
    top: "conv5"
    param {
      lr_mult: 1
      decay_mult: 1
    }
    param {
      lr_mult: 2
      decay_mult: 0
    }
    convolution_param {
      num_output: 256
      pad: 1
      kernel_size: 3
      group: 2
      weight_filler {
        type: "gaussian"
        std: 0.01
      }
      bias_filler {
        type: "constant"
      }
    }
  }
  layer {
    name: "relu5"
    type: "ReLU"
    bottom: "conv5"
    top: "conv5"
  }
  layer {
    name: "pool5"
    type: "Pooling"
    bottom: "conv5"
    top: "pool5"
    pooling_param {
      pool: MAX
      kernel_size: 3
      stride: 2
    }
  }
  layer {
    name: "fc6"
    type: "InnerProduct"
    bottom: "pool5"
    top: "fc6"
    param {
      lr_mult: 1
      decay_mult: 1
    }
    param {
      lr_mult: 2
      decay_mult: 0
    }
    inner_product_param {
      num_output: 2048
      weight_filler {
        type: "gaussian"
        std: 0.005
      }
      bias_filler {
        type: "constant"
      }
    }
  }
  layer {
    name: "relu6"
    type: "ReLU"
    bottom: "fc6"
    top: "fc6"
  }
  layer {
    name: "drop6"
    type: "Dropout"
    bottom: "fc6"
    top: "fc6"
    dropout_param {
      dropout_ratio: 0.5
    }
  }
  layer {
    name: "fc7"
    type: "InnerProduct"
    bottom: "fc6"
    top: "fc7"
    param {
      lr_mult: 1
      decay_mult: 1
    }
    param {
      lr_mult: 2
      decay_mult: 0
    }
    inner_product_param {
      num_output: 2048
      weight_filler {
        type: "gaussian"
        std: 0.005
      }
      bias_filler {
        type: "constant"
      }
    }
  }
  layer {
    name: "relu7"
    type: "ReLU"
    bottom: "fc7"
    top: "fc7"
  }
  layer {
    name: "drop7"
    type: "Dropout"
    bottom: "fc7"
    top: "fc7"
    dropout_param {
      dropout_ratio: 0.5
    }
  }
  layer {
    name: "fc8"
    type: "InnerProduct"
    bottom: "fc7"
    top: "fc8"
    param {
      lr_mult: 1
      decay_mult: 1
    }
    param {
      lr_mult: 2
      decay_mult: 0
    }
    inner_product_param {
      num_output: 1000
      weight_filler {
        type: "gaussian"
        std: 0.01
      }
      bias_filler {
        type: "constant"
      }
    }
  }
  layer {
    name: "accuracy"
    type: "Accuracy"
    bottom: "fc8"
    bottom: "label"
    top: "accuracy"
    include {
      phase: TEST
    }
  }
  layer {
    name: "loss"
    type: "SoftmaxWithLoss"
    bottom: "fc8"
    bottom: "label"
    top: "loss"
  }
}
test_initialization: false
average_loss: 20
iter_size: 1
rms_decay: 0.95
type: "RMSProp"
I0124 14:23:25.079885 31536 solver.cpp:86] Creating training net specified in net_param.
I0124 14:23:25.080036 31536 net.cpp:322] The NetState phase (0) differed from the phase (1) specified by a rule in layer data
I0124 14:23:25.080075 31536 net.cpp:322] The NetState phase (0) differed from the phase (1) specified by a rule in layer accuracy
I0124 14:23:25.080246 31536 net.cpp:49] Initializing net from parameters: 
name: "CaffeNet"
state {
  phase: TRAIN
}
layer {
  name: "data"
  type: "Data"
  top: "data"
  top: "label"
  include {
    phase: TRAIN
  }
  transform_param {
    scale: 0.04
    mirror: true
    crop_size: 128
    mean_value: 104
    mean_value: 117
    mean_value: 124
    force_color: true
    resize_param {
      prob: 1
      resize_mode: FIT_SMALL_SIZE
      height: 144
      width: 144
      pad_mode: MIRRORED
      pad_value: 104
      pad_value: 117
      pad_value: 124
      interp_mode: LINEAR
      center_object: false
      max_angle: 0
    }
  }
  data_param {
    source: "/home/old-ufo/datasets/imagenet/ilsvrc12_train_shuffle_lmdb"
    batch_size: 256
    backend: LMDB
  }
}
layer {
  name: "conv1"
  type: "Convolution"
  bottom: "data"
  top: "conv1"
  param {
    lr_mult: 1
    decay_mult: 1
  }
  param {
    lr_mult: 2
    decay_mult: 0
  }
  convolution_param {
    num_output: 96
    kernel_size: 11
    stride: 4
    weight_filler {
      type: "gaussian"
      std: 0.01
    }
    bias_filler {
      type: "constant"
    }
  }
}
layer {
  name: "relu1"
  type: "ReLU"
  bottom: "conv1"
  top: "relu1"
}
layer {
  name: "pool1"
  type: "Pooling"
  bottom: "relu1"
  top: "pool1"
  pooling_param {
    pool: MAX
    kernel_size: 3
    stride: 2
  }
}
layer {
  name: "conv2"
  type: "Convolution"
  bottom: "pool1"
  top: "conv2"
  param {
    lr_mult: 1
    decay_mult: 1
  }
  param {
    lr_mult: 2
    decay_mult: 0
  }
  convolution_param {
    num_output: 256
    pad: 2
    kernel_size: 5
    group: 2
    weight_filler {
      type: "gaussian"
      std: 0.01
    }
    bias_filler {
      type: "constant"
    }
  }
}
layer {
  name: "relu2"
  type: "ReLU"
  bottom: "conv2"
  top: "conv2"
}
layer {
  name: "pool2"
  type: "Pooling"
  bottom: "conv2"
  top: "pool2"
  pooling_param {
    pool: MAX
    kernel_size: 3
    stride: 2
  }
}
layer {
  name: "conv3"
  type: "Convolution"
  bottom: "pool2"
  top: "conv3"
  param {
    lr_mult: 1
    decay_mult: 1
  }
  param {
    lr_mult: 2
    decay_mult: 0
  }
  convolution_param {
    num_output: 384
    pad: 1
    kernel_size: 3
    weight_filler {
      type: "gaussian"
      std: 0.01
    }
    bias_filler {
      type: "constant"
    }
  }
}
layer {
  name: "relu3"
  type: "ReLU"
  bottom: "conv3"
  top: "conv3"
}
layer {
  name: "conv4"
  type: "Convolution"
  bottom: "conv3"
  top: "conv4"
  param {
    lr_mult: 1
    decay_mult: 1
  }
  param {
    lr_mult: 2
    decay_mult: 0
  }
  convolution_param {
    num_output: 384
    pad: 1
    kernel_size: 3
    group: 2
    weight_filler {
      type: "gaussian"
      std: 0.01
    }
    bias_filler {
      type: "constant"
    }
  }
}
layer {
  name: "relu4"
  type: "ReLU"
  bottom: "conv4"
  top: "conv4"
}
layer {
  name: "conv5"
  type: "Convolution"
  bottom: "conv4"
  top: "conv5"
  param {
    lr_mult: 1
    decay_mult: 1
  }
  param {
    lr_mult: 2
    decay_mult: 0
  }
  convolution_param {
    num_output: 256
    pad: 1
    kernel_size: 3
    group: 2
    weight_filler {
      type: "gaussian"
      std: 0.01
    }
    bias_filler {
      type: "constant"
    }
  }
}
layer {
  name: "relu5"
  type: "ReLU"
  bottom: "conv5"
  top: "conv5"
}
layer {
  name: "pool5"
  type: "Pooling"
  bottom: "conv5"
  top: "pool5"
  pooling_param {
    pool: MAX
    kernel_size: 3
    stride: 2
  }
}
layer {
  name: "fc6"
  type: "InnerProduct"
  bottom: "pool5"
  top: "fc6"
  param {
    lr_mult: 1
    decay_mult: 1
  }
  param {
    lr_mult: 2
    decay_mult: 0
  }
  inner_product_param {
    num_output: 2048
    weight_filler {
      type: "gaussian"
      std: 0.005
    }
    bias_filler {
      type: "constant"
    }
  }
}
layer {
  name: "relu6"
  type: "ReLU"
  bottom: "fc6"
  top: "fc6"
}
layer {
  name: "drop6"
  type: "Dropout"
  bottom: "fc6"
  top: "fc6"
  dropout_param {
    dropout_ratio: 0.5
  }
}
layer {
  name: "fc7"
  type: "InnerProduct"
  bottom: "fc6"
  top: "fc7"
  param {
    lr_mult: 1
    decay_mult: 1
  }
  param {
    lr_mult: 2
    decay_mult: 0
  }
  inner_product_param {
    num_output: 2048
    weight_filler {
      type: "gaussian"
      std: 0.005
    }
    bias_filler {
      type: "constant"
    }
  }
}
layer {
  name: "relu7"
  type: "ReLU"
  bottom: "fc7"
  top: "fc7"
}
layer {
  name: "drop7"
  type: "Dropout"
  bottom: "fc7"
  top: "fc7"
  dropout_param {
    dropout_ratio: 0.5
  }
}
layer {
  name: "fc8"
  type: "InnerProduct"
  bottom: "fc7"
  top: "fc8"
  param {
    lr_mult: 1
    decay_mult: 1
  }
  param {
    lr_mult: 2
    decay_mult: 0
  }
  inner_product_param {
    num_output: 1000
    weight_filler {
      type: "gaussian"
      std: 0.01
    }
    bias_filler {
      type: "constant"
    }
  }
}
layer {
  name: "loss"
  type: "SoftmaxWithLoss"
  bottom: "fc8"
  bottom: "label"
  top: "loss"
}
I0124 14:23:25.080375 31536 layer_factory.hpp:76] Creating layer data
I0124 14:23:25.080929 31536 net.cpp:106] Creating Layer data
I0124 14:23:25.080946 31536 net.cpp:411] data -> data
I0124 14:23:25.080986 31536 net.cpp:411] data -> label
I0124 14:23:25.081626 31540 db_lmdb.cpp:38] Opened lmdb /home/old-ufo/datasets/imagenet/ilsvrc12_train_shuffle_lmdb
I0124 14:23:25.099112 31536 data_layer.cpp:41] output data size: 256,3,128,128
I0124 14:23:25.172317 31536 net.cpp:150] Setting up data
I0124 14:23:25.172343 31536 net.cpp:157] Top shape: 256 3 128 128 (12582912)
I0124 14:23:25.172349 31536 net.cpp:157] Top shape: 256 (256)
I0124 14:23:25.172353 31536 net.cpp:165] Memory required for data: 50332672
I0124 14:23:25.172364 31536 layer_factory.hpp:76] Creating layer conv1
I0124 14:23:25.172386 31536 net.cpp:106] Creating Layer conv1
I0124 14:23:25.172392 31536 net.cpp:454] conv1 <- data
I0124 14:23:25.172406 31536 net.cpp:411] conv1 -> conv1
I0124 14:23:25.320933 31536 net.cpp:150] Setting up conv1
I0124 14:23:25.320960 31536 net.cpp:157] Top shape: 256 96 30 30 (22118400)
I0124 14:23:25.320965 31536 net.cpp:165] Memory required for data: 138806272
I0124 14:23:25.320982 31536 layer_factory.hpp:76] Creating layer relu1
I0124 14:23:25.320993 31536 net.cpp:106] Creating Layer relu1
I0124 14:23:25.320997 31536 net.cpp:454] relu1 <- conv1
I0124 14:23:25.321002 31536 net.cpp:411] relu1 -> relu1
I0124 14:23:25.321626 31536 net.cpp:150] Setting up relu1
I0124 14:23:25.321638 31536 net.cpp:157] Top shape: 256 96 30 30 (22118400)
I0124 14:23:25.321641 31536 net.cpp:165] Memory required for data: 227279872
I0124 14:23:25.321645 31536 layer_factory.hpp:76] Creating layer pool1
I0124 14:23:25.321651 31536 net.cpp:106] Creating Layer pool1
I0124 14:23:25.321655 31536 net.cpp:454] pool1 <- relu1
I0124 14:23:25.321660 31536 net.cpp:411] pool1 -> pool1
I0124 14:23:25.322201 31536 net.cpp:150] Setting up pool1
I0124 14:23:25.322211 31536 net.cpp:157] Top shape: 256 96 15 15 (5529600)
I0124 14:23:25.322213 31536 net.cpp:165] Memory required for data: 249398272
I0124 14:23:25.322216 31536 layer_factory.hpp:76] Creating layer conv2
I0124 14:23:25.322224 31536 net.cpp:106] Creating Layer conv2
I0124 14:23:25.322227 31536 net.cpp:454] conv2 <- pool1
I0124 14:23:25.322232 31536 net.cpp:411] conv2 -> conv2
I0124 14:23:25.333742 31536 net.cpp:150] Setting up conv2
I0124 14:23:25.333763 31536 net.cpp:157] Top shape: 256 256 15 15 (14745600)
I0124 14:23:25.333766 31536 net.cpp:165] Memory required for data: 308380672
I0124 14:23:25.333776 31536 layer_factory.hpp:76] Creating layer relu2
I0124 14:23:25.333784 31536 net.cpp:106] Creating Layer relu2
I0124 14:23:25.333787 31536 net.cpp:454] relu2 <- conv2
I0124 14:23:25.333793 31536 net.cpp:397] relu2 -> conv2 (in-place)
I0124 14:23:25.334384 31536 net.cpp:150] Setting up relu2
I0124 14:23:25.334396 31536 net.cpp:157] Top shape: 256 256 15 15 (14745600)
I0124 14:23:25.334399 31536 net.cpp:165] Memory required for data: 367363072
I0124 14:23:25.334403 31536 layer_factory.hpp:76] Creating layer pool2
I0124 14:23:25.334413 31536 net.cpp:106] Creating Layer pool2
I0124 14:23:25.334415 31536 net.cpp:454] pool2 <- conv2
I0124 14:23:25.334422 31536 net.cpp:411] pool2 -> pool2
I0124 14:23:25.335271 31536 net.cpp:150] Setting up pool2
I0124 14:23:25.335286 31536 net.cpp:157] Top shape: 256 256 7 7 (3211264)
I0124 14:23:25.335290 31536 net.cpp:165] Memory required for data: 380208128
I0124 14:23:25.335294 31536 layer_factory.hpp:76] Creating layer conv3
I0124 14:23:25.335305 31536 net.cpp:106] Creating Layer conv3
I0124 14:23:25.335310 31536 net.cpp:454] conv3 <- pool2
I0124 14:23:25.335317 31536 net.cpp:411] conv3 -> conv3
I0124 14:23:25.362766 31536 net.cpp:150] Setting up conv3
I0124 14:23:25.362789 31536 net.cpp:157] Top shape: 256 384 7 7 (4816896)
I0124 14:23:25.362792 31536 net.cpp:165] Memory required for data: 399475712
I0124 14:23:25.362803 31536 layer_factory.hpp:76] Creating layer relu3
I0124 14:23:25.362812 31536 net.cpp:106] Creating Layer relu3
I0124 14:23:25.362815 31536 net.cpp:454] relu3 <- conv3
I0124 14:23:25.362821 31536 net.cpp:397] relu3 -> conv3 (in-place)
I0124 14:23:25.363351 31536 net.cpp:150] Setting up relu3
I0124 14:23:25.363360 31536 net.cpp:157] Top shape: 256 384 7 7 (4816896)
I0124 14:23:25.363363 31536 net.cpp:165] Memory required for data: 418743296
I0124 14:23:25.363381 31536 layer_factory.hpp:76] Creating layer conv4
I0124 14:23:25.363389 31536 net.cpp:106] Creating Layer conv4
I0124 14:23:25.363391 31536 net.cpp:454] conv4 <- conv3
I0124 14:23:25.363396 31536 net.cpp:411] conv4 -> conv4
I0124 14:23:25.384536 31536 net.cpp:150] Setting up conv4
I0124 14:23:25.384559 31536 net.cpp:157] Top shape: 256 384 7 7 (4816896)
I0124 14:23:25.384562 31536 net.cpp:165] Memory required for data: 438010880
I0124 14:23:25.384570 31536 layer_factory.hpp:76] Creating layer relu4
I0124 14:23:25.384578 31536 net.cpp:106] Creating Layer relu4
I0124 14:23:25.384582 31536 net.cpp:454] relu4 <- conv4
I0124 14:23:25.384587 31536 net.cpp:397] relu4 -> conv4 (in-place)
I0124 14:23:25.385116 31536 net.cpp:150] Setting up relu4
I0124 14:23:25.385125 31536 net.cpp:157] Top shape: 256 384 7 7 (4816896)
I0124 14:23:25.385128 31536 net.cpp:165] Memory required for data: 457278464
I0124 14:23:25.385130 31536 layer_factory.hpp:76] Creating layer conv5
I0124 14:23:25.385139 31536 net.cpp:106] Creating Layer conv5
I0124 14:23:25.385141 31536 net.cpp:454] conv5 <- conv4
I0124 14:23:25.385146 31536 net.cpp:411] conv5 -> conv5
I0124 14:23:25.400138 31536 net.cpp:150] Setting up conv5
I0124 14:23:25.400159 31536 net.cpp:157] Top shape: 256 256 7 7 (3211264)
I0124 14:23:25.400162 31536 net.cpp:165] Memory required for data: 470123520
I0124 14:23:25.400172 31536 layer_factory.hpp:76] Creating layer relu5
I0124 14:23:25.400180 31536 net.cpp:106] Creating Layer relu5
I0124 14:23:25.400184 31536 net.cpp:454] relu5 <- conv5
I0124 14:23:25.400189 31536 net.cpp:397] relu5 -> conv5 (in-place)
I0124 14:23:25.400743 31536 net.cpp:150] Setting up relu5
I0124 14:23:25.400753 31536 net.cpp:157] Top shape: 256 256 7 7 (3211264)
I0124 14:23:25.400755 31536 net.cpp:165] Memory required for data: 482968576
I0124 14:23:25.400758 31536 layer_factory.hpp:76] Creating layer pool5
I0124 14:23:25.400764 31536 net.cpp:106] Creating Layer pool5
I0124 14:23:25.400766 31536 net.cpp:454] pool5 <- conv5
I0124 14:23:25.400770 31536 net.cpp:411] pool5 -> pool5
I0124 14:23:25.401350 31536 net.cpp:150] Setting up pool5
I0124 14:23:25.401358 31536 net.cpp:157] Top shape: 256 256 3 3 (589824)
I0124 14:23:25.401360 31536 net.cpp:165] Memory required for data: 485327872
I0124 14:23:25.401363 31536 layer_factory.hpp:76] Creating layer fc6
I0124 14:23:25.401370 31536 net.cpp:106] Creating Layer fc6
I0124 14:23:25.401371 31536 net.cpp:454] fc6 <- pool5
I0124 14:23:25.401377 31536 net.cpp:411] fc6 -> fc6
I0124 14:23:25.525099 31536 net.cpp:150] Setting up fc6
I0124 14:23:25.525122 31536 net.cpp:157] Top shape: 256 2048 (524288)
I0124 14:23:25.525126 31536 net.cpp:165] Memory required for data: 487425024
I0124 14:23:25.525135 31536 layer_factory.hpp:76] Creating layer relu6
I0124 14:23:25.525143 31536 net.cpp:106] Creating Layer relu6
I0124 14:23:25.525147 31536 net.cpp:454] relu6 <- fc6
I0124 14:23:25.525153 31536 net.cpp:397] relu6 -> fc6 (in-place)
I0124 14:23:25.525868 31536 net.cpp:150] Setting up relu6
I0124 14:23:25.525881 31536 net.cpp:157] Top shape: 256 2048 (524288)
I0124 14:23:25.525883 31536 net.cpp:165] Memory required for data: 489522176
I0124 14:23:25.525887 31536 layer_factory.hpp:76] Creating layer drop6
I0124 14:23:25.525897 31536 net.cpp:106] Creating Layer drop6
I0124 14:23:25.525902 31536 net.cpp:454] drop6 <- fc6
I0124 14:23:25.525905 31536 net.cpp:397] drop6 -> fc6 (in-place)
I0124 14:23:25.525936 31536 net.cpp:150] Setting up drop6
I0124 14:23:25.525941 31536 net.cpp:157] Top shape: 256 2048 (524288)
I0124 14:23:25.525943 31536 net.cpp:165] Memory required for data: 491619328
I0124 14:23:25.525945 31536 layer_factory.hpp:76] Creating layer fc7
I0124 14:23:25.525952 31536 net.cpp:106] Creating Layer fc7
I0124 14:23:25.525954 31536 net.cpp:454] fc7 <- fc6
I0124 14:23:25.525959 31536 net.cpp:411] fc7 -> fc7
I0124 14:23:25.635411 31536 net.cpp:150] Setting up fc7
I0124 14:23:25.635434 31536 net.cpp:157] Top shape: 256 2048 (524288)
I0124 14:23:25.635437 31536 net.cpp:165] Memory required for data: 493716480
I0124 14:23:25.635468 31536 layer_factory.hpp:76] Creating layer relu7
I0124 14:23:25.635476 31536 net.cpp:106] Creating Layer relu7
I0124 14:23:25.635485 31536 net.cpp:454] relu7 <- fc7
I0124 14:23:25.635490 31536 net.cpp:397] relu7 -> fc7 (in-place)
I0124 14:23:25.636257 31536 net.cpp:150] Setting up relu7
I0124 14:23:25.636268 31536 net.cpp:157] Top shape: 256 2048 (524288)
I0124 14:23:25.636271 31536 net.cpp:165] Memory required for data: 495813632
I0124 14:23:25.636275 31536 layer_factory.hpp:76] Creating layer drop7
I0124 14:23:25.636281 31536 net.cpp:106] Creating Layer drop7
I0124 14:23:25.636284 31536 net.cpp:454] drop7 <- fc7
I0124 14:23:25.636288 31536 net.cpp:397] drop7 -> fc7 (in-place)
I0124 14:23:25.636313 31536 net.cpp:150] Setting up drop7
I0124 14:23:25.636317 31536 net.cpp:157] Top shape: 256 2048 (524288)
I0124 14:23:25.636319 31536 net.cpp:165] Memory required for data: 497910784
I0124 14:23:25.636322 31536 layer_factory.hpp:76] Creating layer fc8
I0124 14:23:25.636332 31536 net.cpp:106] Creating Layer fc8
I0124 14:23:25.636335 31536 net.cpp:454] fc8 <- fc7
I0124 14:23:25.636340 31536 net.cpp:411] fc8 -> fc8
I0124 14:23:25.690111 31536 net.cpp:150] Setting up fc8
I0124 14:23:25.690134 31536 net.cpp:157] Top shape: 256 1000 (256000)
I0124 14:23:25.690135 31536 net.cpp:165] Memory required for data: 498934784
I0124 14:23:25.690143 31536 layer_factory.hpp:76] Creating layer loss
I0124 14:23:25.690152 31536 net.cpp:106] Creating Layer loss
I0124 14:23:25.690157 31536 net.cpp:454] loss <- fc8
I0124 14:23:25.690163 31536 net.cpp:454] loss <- label
I0124 14:23:25.690171 31536 net.cpp:411] loss -> loss
I0124 14:23:25.690184 31536 layer_factory.hpp:76] Creating layer loss
…
    phase: TEST
  }
  transform_param {
    scale: 0.04
    mirror: false
    crop_size: 128
    mean_value: 104
    mean_value: 117
    mean_value: 123
    force_color: true
    resize_param {
      prob: 1
      resize_mode: FIT_SMALL_SIZE
      height: 144
      width: 144
      pad_mode: MIRRORED
      pad_value: 104
      pad_value: 117
      pad_value: 124
      interp_mode: LINEAR
      center_object: false
      max_angle: 0
    }
  }
  data_param {
    source: "/home/old-ufo/datasets/imagenet/ilsvrc12_val_lmdb"
    batch_size: 250
    backend: LMDB
  }
}
layer {
  name: "conv1"
  type: "Convolution"
  bottom: "data"
  top: "conv1"
  param {
    lr_mult: 1
    decay_mult: 1
  }
  param {
    lr_mult: 2
    decay_mult: 0
  }
  convolution_param {
    num_output: 96
    kernel_size: 11
    stride: 4
    weight_filler {
      type: "gaussian"
      std: 0.01
    }
    bias_filler {
      type: "constant"
    }
  }
}
layer {
  name: "relu1"
  type: "ReLU"
  bottom: "conv1"
  top: "relu1"
}
layer {
  name: "pool1"
  type: "Pooling"
  bottom: "relu1"
  top: "pool1"
  pooling_param {
    pool: MAX
    kernel_size: 3
    stride: 2
  }
}
layer {
  name: "conv2"
  type: "Convolution"
  bottom: "pool1"
  top: "conv2"
  param {
    lr_mult: 1
    decay_mult: 1
  }
  param {
    lr_mult: 2
    decay_mult: 0
  }
  convolution_param {
    num_output: 256
    pad: 2
    kernel_size: 5
    group: 2
    weight_filler {
      type: "gaussian"
      std: 0.01
    }
    bias_filler {
      type: "constant"
    }
  }
}
layer {
  name: "relu2"
  type: "ReLU"
  bottom: "conv2"
  top: "conv2"
}
layer {
  name: "pool2"
  type: "Pooling"
  bottom: "conv2"
  top: "pool2"
  pooling_param {
    pool: MAX
    kernel_size: 3
    stride: 2
  }
}
layer {
  name: "conv3"
  type: "Convolution"
  bottom: "pool2"
  top: "conv3"
  param {
    lr_mult: 1
    decay_mult: 1
  }
  param {
    lr_mult: 2
    decay_mult: 0
  }
  convolution_param {
    num_output: 384
    pad: 1
    kernel_size: 3
    weight_filler {
      type: "gaussian"
      std: 0.01
    }
    bias_filler {
      type: "constant"
    }
  }
}
layer {
  name: "relu3"
  type: "ReLU"
  bottom: "conv3"
  top: "conv3"
}
layer {
  name: "conv4"
  type: "Convolution"
  bottom: "conv3"
  top: "conv4"
  param {
    lr_mult: 1
    decay_mult: 1
  }
  param {
    lr_mult: 2
    decay_mult: 0
  }
  convolution_param {
    num_output: 384
    pad: 1
    kernel_size: 3
    group: 2
    weight_filler {
      type: "gaussian"
      std: 0.01
    }
    bias_filler {
      type: "constant"
    }
  }
}
layer {
  name: "relu4"
  type: "ReLU"
  bottom: "conv4"
  top: "conv4"
}
layer {
  name: "conv5"
  type: "Convolution"
  bottom: "conv4"
  top: "conv5"
  param {
    lr_mult: 1
    decay_mult: 1
  }
  param {
    lr_mult: 2
    decay_mult: 0
  }
  convolution_param {
    num_output: 256
    pad: 1
    kernel_size: 3
    group: 2
    weight_filler {
      type: "gaussian"
      std: 0.01
    }
    bias_filler {
      type: "constant"
    }
  }
}
layer {
  name: "relu5"
  type: "ReLU"
  bottom: "conv5"
  top: "conv5"
}
layer {
  name: "pool5"
  type: "Pooling"
  bottom: "conv5"
  top: "pool5"
  pooling_param {
    pool: MAX
    kernel_size: 3
    stride: 2
  }
}
layer {
  name: "fc6"
  type: "InnerProduct"
  bottom: "pool5"
  top: "fc6"
  param {
    lr_mult: 1
    decay_mult: 1
  }
  param {
    lr_mult: 2
    decay_mult: 0
  }
  inner_product_param {
    num_output: 2048
    weight_filler {
      type: "gaussian"
      std: 0.005
    }
    bias_filler {
      type: "constant"
    }
  }
}
layer {
  name: "relu6"
  type: "ReLU"
  bottom: "fc6"
  top: "fc6"
}
layer {
  name: "drop6"
  type: "Dropout"
  bottom: "fc6"
  top: "fc6"
  dropout_param {
    dropout_ratio: 0.5
  }
}
layer {
  name: "fc7"
  type: "InnerProduct"
  bottom: "fc6"
  top: "fc7"
  param {
    lr_mult: 1
    decay_mult: 1
  }
  param {
    lr_mult: 2
    decay_mult: 0
  }
  inner_product_param {
    num_output: 2048
    weight_filler {
      type: "gaussian"
      std: 0.005
    }
    bias_filler {
      type: "constant"
    }
  }
}
layer {
  name: "relu7"
  type: "ReLU"
  bottom: "fc7"
  top: "fc7"
}
layer {
  name: "drop7"
  type: "Dropout"
  bottom: "fc7"
  top: "fc7"
  dropout_param {
    dropout_ratio: 0.5
  }
}
layer {
  name: "fc8"
  type: "InnerProduct"
  bottom: "fc7"
  top: "fc8"
  param {
    lr_mult: 1
    decay_mult: 1
  }
  param {
    lr_mult: 2
    decay_mult: 0
  }
  inner_product_param {
    num_output: 1000
    weight_filler {
      type: "gaussian"
      std: 0.01
    }
    bias_filler {
      type: "constant"
    }
  }
}
layer {
  name: "accuracy"
  type: "Accuracy"
  bottom: "fc8"
  bottom: "label"
  top: "accuracy"
  include {
    phase: TEST
  }
}
layer {
  name: "loss"
  type: "SoftmaxWithLoss"
  bottom: "fc8"
  bottom: "label"
  top: "loss"
}
I0124 14:23:25.692101 31536 layer_factory.hpp:76] Creating layer data
I0124 14:23:25.692293 31536 net.cpp:106] Creating Layer data
I0124 14:23:25.692303 31536 net.cpp:411] data -> data
I0124 14:23:25.692312 31536 net.cpp:411] data -> label
I0124 14:23:25.692945 31549 db_lmdb.cpp:38] Opened lmdb /home/old-ufo/datasets/imagenet/ilsvrc12_val_lmdb
I0124 14:23:25.695750 31536 data_layer.cpp:41] output data size: 250,3,128,128
I0124 14:23:25.770270 31536 net.cpp:150] Setting up data
I0124 14:23:25.770308 31536 net.cpp:157] Top shape: 250 3 128 128 (12288000)
I0124 14:23:25.770318 31536 net.cpp:157] Top shape: 250 (250)
I0124 14:23:25.770323 31536 net.cpp:165] Memory required for data: 49153000
I0124 14:23:25.770330 31536 layer_factory.hpp:76] Creating layer label_data_1_split
I0124 14:23:25.770345 31536 net.cpp:106] Creating Layer label_data_1_split
I0124 14:23:25.770351 31536 net.cpp:454] label_data_1_split <- label
I0124 14:23:25.770361 31536 net.cpp:411] label_data_1_split -> label_data_1_split_0
I0124 14:23:25.770373 31536 net.cpp:411] label_data_1_split -> label_data_1_split_1
I0124 14:23:25.770534 31536 net.cpp:150] Setting up label_data_1_split
I0124 14:23:25.770546 31536 net.cpp:157] Top shape: 250 (250)
I0124 14:23:25.770551 31536 net.cpp:157] Top shape: 250 (250)
I0124 14:23:25.770555 31536 net.cpp:165] Memory required for data: 49155000
I0124 14:23:25.770558 31536 layer_factory.hpp:76] Creating layer conv1
I0124 14:23:25.770571 31536 net.cpp:106] Creating Layer conv1
I0124 14:23:25.770576 31536 net.cpp:454] conv1 <- data
I0124 14:23:25.770583 31536 net.cpp:411] conv1 -> conv1
I0124 14:23:25.776177 31536 net.cpp:150] Setting up conv1
I0124 14:23:25.776203 31536 net.cpp:157] Top shape: 250 96 30 30 (21600000)
I0124 14:23:25.776208 31536 net.cpp:165] Memory required for data: 135555000
I0124 14:23:25.776226 31536 layer_factory.hpp:76] Creating layer relu1
I0124 14:23:25.776238 31536 net.cpp:106] Creating Layer relu1
I0124 14:23:25.776244 31536 net.cpp:454] relu1 <- conv1
I0124 14:23:25.776253 31536 net.cpp:411] relu1 -> relu1
I0124 14:23:25.777204 31536 net.cpp:150] Setting up relu1
I0124 14:23:25.777218 31536 net.cpp:157] Top shape: 250 96 30 30 (21600000)
I0124 14:23:25.777221 31536 net.cpp:165] Memory required for data: 221955000
I0124 14:23:25.777225 31536 layer_factory.hpp:76] Creating layer pool1
I0124 14:23:25.777235 31536 net.cpp:106] Creating Layer pool1
I0124 14:23:25.777237 31536 net.cpp:454] pool1 <- relu1
I0124 14:23:25.777241 31536 net.cpp:411] pool1 -> pool1
I0124 14:23:25.777956 31536 net.cpp:150] Setting up pool1
I0124 14:23:25.777969 31536 net.cpp:157] Top shape: 250 96 15 15 (5400000)
I0124 14:23:25.777972 31536 net.cpp:165] Memory required for data: 243555000
I0124 14:23:25.777976 31536 layer_factory.hpp:76] Creating layer conv2
I0124 14:23:25.777987 31536 net.cpp:106] Creating Layer conv2
I0124 14:23:25.777989 31536 net.cpp:454] conv2 <- pool1
I0124 14:23:25.777997 31536 net.cpp:411] conv2 -> conv2
I0124 14:23:25.794147 31536 net.cpp:150] Setting up conv2
I0124 14:23:25.794174 31536 net.cpp:157] Top shape: 250 256 15 15 (14400000)
I0124 14:23:25.794180 31536 net.cpp:165] Memory required for data: 301155000
I0124 14:23:25.794194 31536 layer_factory.hpp:76] Creating layer relu2
I0124 14:23:25.794205 31536 net.cpp:106] Creating Layer relu2
I0124 14:23:25.794229 31536 net.cpp:454] relu2 <- conv2
I0124 14:23:25.794301 31536 net.cpp:397] relu2 -> conv2 (in-place)
I0124 14:23:25.796939 31536 net.cpp:150] Setting up relu2
I0124 14:23:25.796969 31536 net.cpp:157] Top shape: 250 256 15 15 (14400000)
I0124 14:23:25.796973 31536 net.cpp:165] Memory required for data: 358755000
I0124 14:23:25.796979 31536 layer_factory.hpp:76] Creating layer pool2
I0124 14:23:25.796993 31536 net.cpp:106] Creating Layer pool2
I0124 14:23:25.796998 31536 net.cpp:454] pool2 <- conv2
I0124 14:23:25.797006 31536 net.cpp:411] pool2 -> pool2
I0124 14:23:25.798135 31536 net.cpp:150] Setting up pool2
I0124 14:23:25.798238 31536 net.cpp:157] Top shape: 250 256 7 7 (3136000)
I0124 14:23:25.798248 31536 net.cpp:165] Memory required for data: 371299000
I0124 14:23:25.798281 31536 layer_factory.hpp:76] Creating layer conv3
I0124 14:23:25.798328 31536 net.cpp:106] Creating Layer conv3
I0124 14:23:25.798337 31536 net.cpp:454] conv3 <- pool2
I0124 14:23:25.798398 31536 net.cpp:411] conv3 -> conv3
I0124 14:23:25.831223 31536 net.cpp:150] Setting up conv3
I0124 14:23:25.831246 31536 net.cpp:157] Top shape: 250 384 7 7 (4704000)
I0124 14:23:25.831249 31536 net.cpp:165] Memory required for data: 390115000
I0124 14:23:25.831262 31536 layer_factory.hpp:76] Creating layer relu3
I0124 14:23:25.831272 31536 net.cpp:106] Creating Layer relu3
I0124 14:23:25.831277 31536 net.cpp:454] relu3 <- conv3
I0124 14:23:25.831285 31536 net.cpp:397] relu3 -> conv3 (in-place)
I0124 14:23:25.832067 31536 net.cpp:150] Setting up relu3
I0124 14:23:25.832083 31536 net.cpp:157] Top shape: 250 384 7 7 (4704000)
I0124 14:23:25.832088 31536 net.cpp:165] Memory required for data: 408931000
I0124 14:23:25.832093 31536 layer_factory.hpp:76] Creating layer conv4
I0124 14:23:25.832105 31536 net.cpp:106] Creating Layer conv4
I0124 14:23:25.832113 31536 net.cpp:454] conv4 <- conv3
I0124 14:23:25.832121 31536 net.cpp:411] conv4 -> conv4
I0124 14:23:25.855010 31536 net.cpp:150] Setting up conv4
I0124 14:23:25.855033 31536 net.cpp:157] Top shape: 250 384 7 7 (4704000)
I0124 14:23:25.855038 31536 net.cpp:165] Memory required for data: 427747000
I0124 14:23:25.855048 31536 layer_factory.hpp:76] Creating layer relu4
I0124 14:23:25.855059 31536 net.cpp:106] Creating Layer relu4
I0124 14:23:25.855064 31536 net.cpp:454] relu4 <- conv4
I0124 14:23:25.855072 31536 net.cpp:397] relu4 -> conv4 (in-place)
I0124 14:23:25.855659 31536 net.cpp:150] Setting up relu4
I0124 14:23:25.855670 31536 net.cpp:157] Top shape: 250 384 7 7 (4704000)
I0124 14:23:25.855674 31536 net.cpp:165] Memory required for data: 446563000
I0124 14:23:25.855679 31536 layer_factory.hpp:76] Creating layer conv5
I0124 14:23:25.855690 31536 net.cpp:106] Creating Layer conv5
I0124 14:23:25.855697 31536 net.cpp:454] conv5 <- conv4
I0124 14:23:25.855710 31536 net.cpp:411] conv5 -> conv5
I0124 14:23:25.872773 31536 net.cpp:150] Setting up conv5
I0124 14:23:25.872803 31536 net.cpp:157] Top shape: 250 256 7 7 (3136000)
I0124 14:23:25.872807 31536 net.cpp:165] Memory required for data: 459107000
I0124 14:23:25.872824 31536 layer_factory.hpp:76] Creating layer relu5
I0124 14:23:25.872838 31536 net.cpp:106] Creating Layer relu5
I0124 14:23:25.872845 31536 net.cpp:454] relu5 <- conv5
I0124 14:23:25.872853 31536 net.cpp:397] relu5 -> conv5 (in-place)
I0124 14:23:25.873451 31536 net.cpp:150] Setting up relu5
I0124 14:23:25.873464 31536 net.cpp:157] Top shape: 250 256 7 7 (3136000)
I0124 14:23:25.873467 31536 net.cpp:165] Memory required for data: 471651000
I0124 14:23:25.873471 31536 layer_factory.hpp:76] Creating layer pool5
I0124 14:23:25.873481 31536 net.cpp:106] Creating Layer pool5
I0124 14:23:25.873484 31536 net.cpp:454] pool5 <- conv5
I0124 14:23:25.873493 31536 net.cpp:411] pool5 -> pool5
I0124 14:23:25.874138 31536 net.cpp:150] Setting up pool5
I0124 14:23:25.874150 31536 net.cpp:157] Top shape: 250 256 3 3 (576000)
I0124 14:23:25.874152 31536 net.cpp:165] Memory required for data: 473955000
I0124 14:23:25.874156 31536 layer_factory.hpp:76] Creating layer fc6
I0124 14:23:25.874187 31536 net.cpp:106] Creating Layer fc6
I0124 14:23:25.874194 31536 net.cpp:454] fc6 <- pool5
I0124 14:23:25.874203 31536 net.cpp:411] fc6 -> fc6
I0124 14:23:26.004297 31536 net.cpp:150] Setting up fc6
I0124 14:23:26.004319 31536 net.cpp:157] Top shape: 250 2048 (512000)
I0124 14:23:26.004323 31536 net.cpp:165] Memory required for data: 476003000
I0124 14:23:26.004330 31536 layer_factory.hpp:76] Creating layer relu6
I0124 14:23:26.004343 31536 net.cpp:106] Creating Layer relu6
I0124 14:23:26.004348 31536 net.cpp:454] relu6 <- fc6
I0124 14:23:26.004354 31536 net.cpp:397] relu6 -> fc6 (in-place)
I0124 14:23:26.005187 31536 net.cpp:150] Setting up relu6
I0124 14:23:26.005198 31536 net.cpp:157] Top shape: 250 2048 (512000)
I0124 14:23:26.005200 31536 net.cpp:165] Memory required for data: 478051000
I0124 14:23:26.005203 31536 layer_factory.hpp:76] Creating layer drop6
I0124 14:23:26.005213 31536 net.cpp:106] Creating Layer drop6
I0124 14:23:26.005215 31536 net.cpp:454] drop6 <- fc6
I0124 14:23:26.005223 31536 net.cpp:397] drop6 -> fc6 (in-place)
I0124 14:23:26.005264 31536 net.cpp:150] Setting up drop6
I0124 14:23:26.005270 31536 net.cpp:157] Top shape: 250 2048 (512000)
I0124 14:23:26.005272 31536 net.cpp:165] Memory required for data: 480099000
I0124 14:23:26.005276 31536 layer_factory.hpp:76] Creating layer fc7
I0124 14:23:26.005286 31536 net.cpp:106] Creating Layer fc7
I0124 14:23:26.005291 31536 net.cpp:454] fc7 <- fc6
I0124 14:23:26.005300 31536 net.cpp:411] fc7 -> fc7
I0124 14:23:26.137691 31536 net.cpp:150] Setting up fc7
I0124 14:23:26.137720 31536 net.cpp:157] Top shape: 250 2048 (512000)
I0124 14:23:26.137723 31536 net.cpp:165] Memory required for data: 482147000
I0124 14:23:26.137732 31536 layer_factory.hpp:76] Creating layer relu7
I0124 14:23:26.137742 31536 net.cpp:106] Creating Layer relu7
I0124 14:23:26.137747 31536 net.cpp:454] relu7 <- fc7
I0124 14:23:26.137753 31536 net.cpp:397] relu7 -> fc7 (in-place)
I0124 14:23:26.138494 31536 net.cpp:150] Setting up relu7
I0124 14:23:26.138504 31536 net.cpp:157] Top shape: 250 2048 (512000)
I0124 14:23:26.138506 31536 net.cpp:165] Memory required for data: 484195000
I0124 14:23:26.138511 31536 layer_factory.hpp:76] Creating layer drop7
I0124 14:23:26.138519 31536 net.cpp:106] Creating Layer drop7
I0124 14:23:26.138522 31536 net.cpp:454] drop7 <- fc7
I0124 14:23:26.138530 31536 net.cpp:397] drop7 -> fc7 (in-place)
I0124 14:23:26.138566 31536 net.cpp:150] Setting up drop7
I0124 14:23:26.138576 31536 net.cpp:157] Top shape: 250 2048 (512000)
I0124 14:23:26.138578 31536 net.cpp:165] Memory required for data: 486243000
I0124 14:23:26.138582 31536 layer_factory.hpp:76] Creating layer fc8
I0124 14:23:26.138592 31536 net.cpp:106] Creating Layer fc8
I0124 14:23:26.138595 31536 net.cpp:454] fc8 <- fc7
I0124 14:23:26.138603 31536 net.cpp:411] fc8 -> fc8
I0124 14:23:26.209441 31536 net.cpp:150] Setting up fc8
I0124 14:23:26.209466 31536 net.cpp:157] Top shape: 250 1000 (250000)
I0124 14:23:26.209471 31536 net.cpp:165] Memory required for data: 487243000
I0124 14:23:26.209482 31536 layer_factory.hpp:76] Creating layer fc8_fc8_0_split
I0124 14:23:26.209491 31536 net.cpp:106] Creating Layer fc8_fc8_0_split
I0124 14:23:26.209496 31536 net.cpp:454] fc8_fc8_0_split <- fc8
I0124 14:23:26.209506 31536 net.cpp:411] fc8_fc8_0_split -> fc8_fc8_0_split_0
I0124 14:23:26.209517 31536 net.cpp:411] fc8_fc8_0_split -> fc8_fc8_0_split_1
I0124 14:23:26.209568 31536 net.cpp:150] Setting up fc8_fc8_0_split
I0124 14:23:26.209576 31536 net.cpp:157] Top shape: 250 1000 (250000)
I0124 14:23:26.209580 31536 net.cpp:157] Top shape: 250 1000 (250000)
I0124 14:23:26.209584 31536 net.cpp:165] Memory required for data: 489243000
I0124 14:23:26.209588 31536 layer_factory.hpp:76] Creating layer accuracy
I0124 14:23:26.209601 31536 net.cpp:106] Creating Layer accuracy
I0124 14:23:26.209605 31536 net.cpp:454] accuracy <- fc8_fc8_0_split_0
I0124 14:23:26.209610 31536 net.cpp:454] accuracy <- label_data_1_split_0
I0124 14:23:26.209615 31536 net.cpp:411] accuracy -> accuracy
…
