…
      mirror: false
      crop_size: 128
      mean_value: 104
      mean_value: 117
      mean_value: 123
      force_color: true
      resize_param {
        prob: 1
        resize_mode: FIT_SMALL_SIZE
        height: 144
        width: 144
        pad_mode: MIRRORED
        pad_value: 104
        pad_value: 117
        pad_value: 124
        interp_mode: LINEAR
        center_object: false
        max_angle: 0
      }
    }
    data_param {
      source: "/local/temporary/imagenet_clc_orig/ilsvrc12_val_lmdb"
      batch_size: 50
      backend: LMDB
    }
  }
  layer {
    name: "conv1"
    type: "Convolution"
    bottom: "data"
    top: "conv1"
    param {
      lr_mult: 1
      decay_mult: 1
    }
    param {
      lr_mult: 2
      decay_mult: 0
    }
    convolution_param {
      num_output: 96
      kernel_size: 11
      stride: 4
      weight_filler {
        type: "gaussian"
        std: 0.01
      }
      bias_filler {
        type: "constant"
      }
    }
  }
  layer {
    name: "relu1"
    type: "ReLU"
    bottom: "conv1"
    top: "relu1"
  }
  layer {
    name: "pool1"
    type: "Pooling"
    bottom: "relu1"
    top: "pool1"
    pooling_param {
      pool: MAX
      kernel_size: 3
      stride: 2
    }
  }
  layer {
    name: "conv2"
    type: "Convolution"
    bottom: "pool1"
    top: "conv2"
    param {
      lr_mult: 1
      decay_mult: 1
    }
    param {
      lr_mult: 2
      decay_mult: 0
    }
    convolution_param {
      num_output: 256
      pad: 2
      kernel_size: 5
      group: 2
      weight_filler {
        type: "gaussian"
        std: 0.01
      }
      bias_filler {
        type: "constant"
      }
    }
  }
  layer {
    name: "relu2"
    type: "ReLU"
    bottom: "conv2"
    top: "relu2"
  }
  layer {
    name: "pool2"
    type: "Pooling"
    bottom: "relu2"
    top: "pool2"
    pooling_param {
      pool: MAX
      kernel_size: 3
      stride: 2
    }
  }
  layer {
    name: "conv3"
    type: "Convolution"
    bottom: "pool2"
    top: "conv3"
    param {
      lr_mult: 1
      decay_mult: 1
    }
    param {
      lr_mult: 2
      decay_mult: 0
    }
    convolution_param {
      num_output: 384
      pad: 1
      kernel_size: 3
      weight_filler {
        type: "gaussian"
        std: 0.01
      }
      bias_filler {
        type: "constant"
      }
    }
  }
  layer {
    name: "relu3"
    type: "ReLU"
    bottom: "conv3"
    top: "relu3"
  }
  layer {
    name: "conv4"
    type: "Convolution"
    bottom: "relu3"
    top: "conv4"
    param {
      lr_mult: 1
      decay_mult: 1
    }
    param {
      lr_mult: 2
      decay_mult: 0
    }
    convolution_param {
      num_output: 384
      pad: 1
      kernel_size: 3
      group: 2
      weight_filler {
        type: "gaussian"
        std: 0.01
      }
      bias_filler {
        type: "constant"
      }
    }
  }
  layer {
    name: "relu4"
    type: "ReLU"
    bottom: "conv4"
    top: "relu4"
  }
  layer {
    name: "conv5"
    type: "Convolution"
    bottom: "relu4"
    top: "conv5"
    param {
      lr_mult: 1
      decay_mult: 1
    }
    param {
      lr_mult: 2
      decay_mult: 0
    }
    convolution_param {
      num_output: 256
      pad: 1
      kernel_size: 3
      group: 2
      weight_filler {
        type: "gaussian"
        std: 0.01
      }
      bias_filler {
        type: "constant"
      }
    }
  }
  layer {
    name: "relu5"
    type: "ReLU"
    bottom: "conv5"
    top: "relu5"
  }
  layer {
    name: "pool5"
    type: "Pooling"
    bottom: "relu5"
    top: "pool5"
    pooling_param {
      pool: MAX
      kernel_size: 3
      stride: 2
    }
  }
  layer {
    name: "fc6"
    type: "InnerProduct"
    bottom: "pool5"
    top: "fc6"
    param {
      lr_mult: 1
      decay_mult: 1
    }
    param {
      lr_mult: 2
      decay_mult: 0
    }
    inner_product_param {
      num_output: 2048
      weight_filler {
        type: "gaussian"
        std: 0.005
      }
      bias_filler {
        type: "constant"
      }
    }
  }
  layer {
    name: "relu6"
    type: "ReLU"
    bottom: "fc6"
    top: "relu6"
  }
  layer {
    name: "drop6"
    type: "Dropout"
    bottom: "relu6"
    top: "drop6"
    dropout_param {
      dropout_ratio: 0.5
    }
  }
  layer {
    name: "fc7"
    type: "InnerProduct"
    bottom: "drop6"
    top: "fc7"
    param {
      lr_mult: 1
      decay_mult: 1
    }
    param {
      lr_mult: 2
      decay_mult: 0
    }
    inner_product_param {
      num_output: 2048
      weight_filler {
        type: "gaussian"
        std: 0.005
      }
      bias_filler {
        type: "constant"
      }
    }
  }
  layer {
    name: "relu7"
    type: "ReLU"
    bottom: "fc7"
    top: "relu7"
  }
  layer {
    name: "drop7"
    type: "Dropout"
    bottom: "relu7"
    top: "drop7"
    dropout_param {
      dropout_ratio: 0.5
    }
  }
  layer {
    name: "fc8"
    type: "InnerProduct"
    bottom: "drop7"
    top: "fc8"
    param {
      lr_mult: 1
      decay_mult: 1
    }
    param {
      lr_mult: 2
      decay_mult: 0
    }
    inner_product_param {
      num_output: 1000
      weight_filler {
        type: "gaussian"
        std: 0.01
      }
      bias_filler {
        type: "constant"
      }
    }
  }
  layer {
    name: "accuracy"
    type: "Accuracy"
    bottom: "fc8"
    bottom: "label"
    top: "accuracy"
    include {
      phase: TEST
    }
  }
  layer {
    name: "loss"
    type: "SoftmaxWithLoss"
    bottom: "fc8"
    bottom: "label"
    top: "loss"
  }
}
delta: 1e-07
test_initialization: false
iter_size: 1
type: "AdaDelta"
I0124 12:24:05.225868 19781 solver.cpp:85] Creating training net specified in net_param.
I0124 12:24:05.225972 19781 net.cpp:322] The NetState phase (0) differed from the phase (1) specified by a rule in layer data
I0124 12:24:05.225997 19781 net.cpp:322] The NetState phase (0) differed from the phase (1) specified by a rule in layer accuracy
I0124 12:24:05.226272 19781 net.cpp:49] Initializing net from parameters: 
name: "CaffeNet"
state {
  phase: TRAIN
}
layer {
  name: "data"
  type: "Data"
  top: "data"
  top: "label"
  include {
    phase: TRAIN
  }
  transform_param {
    scale: 0.04
    mirror: true
    crop_size: 128
    mean_value: 104
    mean_value: 117
    mean_value: 124
    force_color: true
    resize_param {
      prob: 1
      resize_mode: FIT_SMALL_SIZE
      height: 144
      width: 144
      pad_mode: MIRRORED
      pad_value: 104
      pad_value: 117
      pad_value: 124
      interp_mode: LINEAR
      center_object: false
      max_angle: 0
    }
  }
  data_param {
    source: "/local/temporary/imagenet_clc_orig/ilsvrc12_train_shuffle_lmdb"
    batch_size: 128
    backend: LMDB
  }
}
layer {
  name: "conv1"
  type: "Convolution"
  bottom: "data"
  top: "conv1"
  param {
    lr_mult: 1
    decay_mult: 1
  }
  param {
    lr_mult: 2
    decay_mult: 0
  }
  convolution_param {
    num_output: 96
    kernel_size: 11
    stride: 4
    weight_filler {
      type: "gaussian"
      std: 0.01
    }
    bias_filler {
      type: "constant"
    }
  }
}
layer {
  name: "relu1"
  type: "ReLU"
  bottom: "conv1"
  top: "relu1"
}
layer {
  name: "pool1"
  type: "Pooling"
  bottom: "relu1"
  top: "pool1"
  pooling_param {
    pool: MAX
    kernel_size: 3
    stride: 2
  }
}
layer {
  name: "conv2"
  type: "Convolution"
  bottom: "pool1"
  top: "conv2"
  param {
    lr_mult: 1
    decay_mult: 1
  }
  param {
    lr_mult: 2
    decay_mult: 0
  }
  convolution_param {
    num_output: 256
    pad: 2
    kernel_size: 5
    group: 2
    weight_filler {
      type: "gaussian"
      std: 0.01
    }
    bias_filler {
      type: "constant"
    }
  }
}
layer {
  name: "relu2"
  type: "ReLU"
  bottom: "conv2"
  top: "relu2"
}
layer {
  name: "pool2"
  type: "Pooling"
  bottom: "relu2"
  top: "pool2"
  pooling_param {
    pool: MAX
    kernel_size: 3
    stride: 2
  }
}
layer {
  name: "conv3"
  type: "Convolution"
  bottom: "pool2"
  top: "conv3"
  param {
    lr_mult: 1
    decay_mult: 1
  }
  param {
    lr_mult: 2
    decay_mult: 0
  }
  convolution_param {
    num_output: 384
    pad: 1
    kernel_size: 3
    weight_filler {
      type: "gaussian"
      std: 0.01
    }
    bias_filler {
      type: "constant"
    }
  }
}
layer {
  name: "relu3"
  type: "ReLU"
  bottom: "conv3"
  top: "relu3"
}
layer {
  name: "conv4"
  type: "Convolution"
  bottom: "relu3"
  top: "conv4"
  param {
    lr_mult: 1
    decay_mult: 1
  }
  param {
    lr_mult: 2
    decay_mult: 0
  }
  convolution_param {
    num_output: 384
    pad: 1
    kernel_size: 3
    group: 2
    weight_filler {
      type: "gaussian"
      std: 0.01
    }
    bias_filler {
      type: "constant"
    }
  }
}
layer {
  name: "relu4"
  type: "ReLU"
  bottom: "conv4"
  top: "relu4"
}
layer {
  name: "conv5"
  type: "Convolution"
  bottom: "relu4"
  top: "conv5"
  param {
    lr_mult: 1
    decay_mult: 1
  }
  param {
    lr_mult: 2
    decay_mult: 0
  }
  convolution_param {
    num_output: 256
    pad: 1
    kernel_size: 3
    group: 2
    weight_filler {
      type: "gaussian"
      std: 0.01
    }
    bias_filler {
      type: "constant"
    }
  }
}
layer {
  name: "relu5"
  type: "ReLU"
  bottom: "conv5"
  top: "relu5"
}
layer {
  name: "pool5"
  type: "Pooling"
  bottom: "relu5"
  top: "pool5"
  pooling_param {
    pool: MAX
    kernel_size: 3
    stride: 2
  }
}
layer {
  name: "fc6"
  type: "InnerProduct"
  bottom: "pool5"
  top: "fc6"
  param {
    lr_mult: 1
    decay_mult: 1
  }
  param {
    lr_mult: 2
    decay_mult: 0
  }
  inner_product_param {
    num_output: 2048
    weight_filler {
      type: "gaussian"
      std: 0.005
    }
    bias_filler {
      type: "constant"
    }
  }
}
layer {
  name: "relu6"
  type: "ReLU"
  bottom: "fc6"
  top: "relu6"
}
layer {
  name: "drop6"
  type: "Dropout"
  bottom: "relu6"
  top: "drop6"
  dropout_param {
    dropout_ratio: 0.5
  }
}
layer {
  name: "fc7"
  type: "InnerProduct"
  bottom: "drop6"
  top: "fc7"
  param {
    lr_mult: 1
    decay_mult: 1
  }
  param {
    lr_mult: 2
    decay_mult: 0
  }
  inner_product_param {
    num_output: 2048
    weight_filler {
      type: "gaussian"
      std: 0.005
    }
    bias_filler {
      type: "constant"
    }
  }
}
layer {
  name: "relu7"
  type: "ReLU"
  bottom: "fc7"
  top: "relu7"
}
layer {
  name: "drop7"
  type: "Dropout"
  bottom: "relu7"
  top: "drop7"
  dropout_param {
    dropout_ratio: 0.5
  }
}
layer {
  name: "fc8"
  type: "InnerProduct"
  bottom: "drop7"
  top: "fc8"
  param {
    lr_mult: 1
    decay_mult: 1
  }
  param {
    lr_mult: 2
    decay_mult: 0
  }
  inner_product_param {
    num_output: 1000
    weight_filler {
      type: "gaussian"
      std: 0.01
    }
    bias_filler {
      type: "constant"
    }
  }
}
layer {
  name: "loss"
  type: "SoftmaxWithLoss"
  bottom: "fc8"
  bottom: "label"
  top: "loss"
}
I0124 12:24:05.226409 19781 layer_factory.hpp:76] Creating layer data
I0124 12:24:05.226974 19781 net.cpp:106] Creating Layer data
I0124 12:24:05.226987 19781 net.cpp:411] data -> data
I0124 12:24:05.227017 19781 net.cpp:411] data -> label
I0124 12:24:05.228067 19850 db_lmdb.cpp:38] Opened lmdb /local/temporary/imagenet_clc_orig/ilsvrc12_train_shuffle_lmdb
I0124 12:24:05.248050 19781 data_layer.cpp:41] output data size: 128,3,128,128
I0124 12:24:05.309478 19781 net.cpp:150] Setting up data
I0124 12:24:05.309522 19781 net.cpp:157] Top shape: 128 3 128 128 (6291456)
I0124 12:24:05.309530 19781 net.cpp:157] Top shape: 128 (128)
I0124 12:24:05.309535 19781 net.cpp:165] Memory required for data: 25166336
I0124 12:24:05.309547 19781 layer_factory.hpp:76] Creating layer conv1
I0124 12:24:05.309571 19781 net.cpp:106] Creating Layer conv1
I0124 12:24:05.309579 19781 net.cpp:454] conv1 <- data
I0124 12:24:05.309608 19781 net.cpp:411] conv1 -> conv1
I0124 12:24:05.444057 19781 cudnn_conv_layer.cpp:194] Reallocating workspace storage: 4356
I0124 12:24:05.444233 19781 net.cpp:150] Setting up conv1
I0124 12:24:05.444248 19781 net.cpp:157] Top shape: 128 96 30 30 (11059200)
I0124 12:24:05.444254 19781 net.cpp:165] Memory required for data: 69403136
I0124 12:24:05.444273 19781 layer_factory.hpp:76] Creating layer relu1
I0124 12:24:05.444285 19781 net.cpp:106] Creating Layer relu1
I0124 12:24:05.444290 19781 net.cpp:454] relu1 <- conv1
I0124 12:24:05.444296 19781 net.cpp:411] relu1 -> relu1
I0124 12:24:05.444489 19781 net.cpp:150] Setting up relu1
I0124 12:24:05.444499 19781 net.cpp:157] Top shape: 128 96 30 30 (11059200)
I0124 12:24:05.444501 19781 net.cpp:165] Memory required for data: 113639936
I0124 12:24:05.444505 19781 layer_factory.hpp:76] Creating layer pool1
I0124 12:24:05.444512 19781 net.cpp:106] Creating Layer pool1
I0124 12:24:05.444517 19781 net.cpp:454] pool1 <- relu1
I0124 12:24:05.444521 19781 net.cpp:411] pool1 -> pool1
I0124 12:24:05.444841 19781 net.cpp:150] Setting up pool1
I0124 12:24:05.444852 19781 net.cpp:157] Top shape: 128 96 15 15 (2764800)
I0124 12:24:05.444856 19781 net.cpp:165] Memory required for data: 124699136
I0124 12:24:05.444860 19781 layer_factory.hpp:76] Creating layer conv2
I0124 12:24:05.444871 19781 net.cpp:106] Creating Layer conv2
I0124 12:24:05.444887 19781 net.cpp:454] conv2 <- pool1
I0124 12:24:05.444893 19781 net.cpp:411] conv2 -> conv2
I0124 12:24:05.455262 19781 cudnn_conv_layer.cpp:194] Reallocating workspace storage: 28800
I0124 12:24:05.455294 19781 net.cpp:150] Setting up conv2
I0124 12:24:05.455301 19781 net.cpp:157] Top shape: 128 256 15 15 (7372800)
I0124 12:24:05.455303 19781 net.cpp:165] Memory required for data: 154190336
I0124 12:24:05.455313 19781 layer_factory.hpp:76] Creating layer relu2
I0124 12:24:05.455319 19781 net.cpp:106] Creating Layer relu2
I0124 12:24:05.455322 19781 net.cpp:454] relu2 <- conv2
I0124 12:24:05.455329 19781 net.cpp:411] relu2 -> relu2
I0124 12:24:05.455536 19781 net.cpp:150] Setting up relu2
I0124 12:24:05.455544 19781 net.cpp:157] Top shape: 128 256 15 15 (7372800)
I0124 12:24:05.455548 19781 net.cpp:165] Memory required for data: 183681536
I0124 12:24:05.455550 19781 layer_factory.hpp:76] Creating layer pool2
I0124 12:24:05.455557 19781 net.cpp:106] Creating Layer pool2
I0124 12:24:05.455562 19781 net.cpp:454] pool2 <- relu2
I0124 12:24:05.455569 19781 net.cpp:411] pool2 -> pool2
I0124 12:24:05.455894 19781 net.cpp:150] Setting up pool2
I0124 12:24:05.455905 19781 net.cpp:157] Top shape: 128 256 7 7 (1605632)
I0124 12:24:05.455909 19781 net.cpp:165] Memory required for data: 190104064
I0124 12:24:05.455912 19781 layer_factory.hpp:76] Creating layer conv3
I0124 12:24:05.455922 19781 net.cpp:106] Creating Layer conv3
I0124 12:24:05.455927 19781 net.cpp:454] conv3 <- pool2
I0124 12:24:05.455946 19781 net.cpp:411] conv3 -> conv3
I0124 12:24:05.481855 19781 net.cpp:150] Setting up conv3
I0124 12:24:05.481891 19781 net.cpp:157] Top shape: 128 384 7 7 (2408448)
I0124 12:24:05.481895 19781 net.cpp:165] Memory required for data: 199737856
I0124 12:24:05.481907 19781 layer_factory.hpp:76] Creating layer relu3
I0124 12:24:05.481919 19781 net.cpp:106] Creating Layer relu3
I0124 12:24:05.481922 19781 net.cpp:454] relu3 <- conv3
I0124 12:24:05.481928 19781 net.cpp:411] relu3 -> relu3
I0124 12:24:05.482295 19781 net.cpp:150] Setting up relu3
I0124 12:24:05.482307 19781 net.cpp:157] Top shape: 128 384 7 7 (2408448)
I0124 12:24:05.482311 19781 net.cpp:165] Memory required for data: 209371648
I0124 12:24:05.482313 19781 layer_factory.hpp:76] Creating layer conv4
I0124 12:24:05.482326 19781 net.cpp:106] Creating Layer conv4
I0124 12:24:05.482331 19781 net.cpp:454] conv4 <- relu3
I0124 12:24:05.482338 19781 net.cpp:411] conv4 -> conv4
I0124 12:24:05.503511 19781 net.cpp:150] Setting up conv4
I0124 12:24:05.503546 19781 net.cpp:157] Top shape: 128 384 7 7 (2408448)
I0124 12:24:05.503551 19781 net.cpp:165] Memory required for data: 219005440
I0124 12:24:05.503559 19781 layer_factory.hpp:76] Creating layer relu4
I0124 12:24:05.503569 19781 net.cpp:106] Creating Layer relu4
I0124 12:24:05.503573 19781 net.cpp:454] relu4 <- conv4
I0124 12:24:05.503584 19781 net.cpp:411] relu4 -> relu4
I0124 12:24:05.503779 19781 net.cpp:150] Setting up relu4
I0124 12:24:05.503787 19781 net.cpp:157] Top shape: 128 384 7 7 (2408448)
I0124 12:24:05.503790 19781 net.cpp:165] Memory required for data: 228639232
I0124 12:24:05.503794 19781 layer_factory.hpp:76] Creating layer conv5
I0124 12:24:05.503808 19781 net.cpp:106] Creating Layer conv5
I0124 12:24:05.503811 19781 net.cpp:454] conv5 <- relu4
I0124 12:24:05.503816 19781 net.cpp:411] conv5 -> conv5
I0124 12:24:05.518295 19781 net.cpp:150] Setting up conv5
I0124 12:24:05.518308 19781 net.cpp:157] Top shape: 128 256 7 7 (1605632)
I0124 12:24:05.518312 19781 net.cpp:165] Memory required for data: 235061760
I0124 12:24:05.518322 19781 layer_factory.hpp:76] Creating layer relu5
I0124 12:24:05.518328 19781 net.cpp:106] Creating Layer relu5
I0124 12:24:05.518332 19781 net.cpp:454] relu5 <- conv5
I0124 12:24:05.518338 19781 net.cpp:411] relu5 -> relu5
I0124 12:24:05.518525 19781 net.cpp:150] Setting up relu5
I0124 12:24:05.518534 19781 net.cpp:157] Top shape: 128 256 7 7 (1605632)
I0124 12:24:05.518537 19781 net.cpp:165] Memory required for data: 241484288
I0124 12:24:05.518540 19781 layer_factory.hpp:76] Creating layer pool5
I0124 12:24:05.518549 19781 net.cpp:106] Creating Layer pool5
I0124 12:24:05.518553 19781 net.cpp:454] pool5 <- relu5
I0124 12:24:05.518558 19781 net.cpp:411] pool5 -> pool5
I0124 12:24:05.518900 19781 net.cpp:150] Setting up pool5
I0124 12:24:05.518914 19781 net.cpp:157] Top shape: 128 256 3 3 (294912)
I0124 12:24:05.518919 19781 net.cpp:165] Memory required for data: 242663936
I0124 12:24:05.518924 19781 layer_factory.hpp:76] Creating layer fc6
I0124 12:24:05.518939 19781 net.cpp:106] Creating Layer fc6
I0124 12:24:05.518946 19781 net.cpp:454] fc6 <- pool5
I0124 12:24:05.518952 19781 net.cpp:411] fc6 -> fc6
I0124 12:24:05.651365 19781 net.cpp:150] Setting up fc6
I0124 12:24:05.651407 19781 net.cpp:157] Top shape: 128 2048 (262144)
I0124 12:24:05.651409 19781 net.cpp:165] Memory required for data: 243712512
I0124 12:24:05.651419 19781 layer_factory.hpp:76] Creating layer relu6
I0124 12:24:05.651428 19781 net.cpp:106] Creating Layer relu6
I0124 12:24:05.651432 19781 net.cpp:454] relu6 <- fc6
I0124 12:24:05.651440 19781 net.cpp:411] relu6 -> relu6
I0124 12:24:05.651691 19781 net.cpp:150] Setting up relu6
I0124 12:24:05.651702 19781 net.cpp:157] Top shape: 128 2048 (262144)
I0124 12:24:05.651705 19781 net.cpp:165] Memory required for data: 244761088
I0124 12:24:05.651708 19781 layer_factory.hpp:76] Creating layer drop6
I0124 12:24:05.651717 19781 net.cpp:106] Creating Layer drop6
I0124 12:24:05.651722 19781 net.cpp:454] drop6 <- relu6
I0124 12:24:05.651738 19781 net.cpp:411] drop6 -> drop6
I0124 12:24:05.651784 19781 net.cpp:150] Setting up drop6
I0124 12:24:05.651792 19781 net.cpp:157] Top shape: 128 2048 (262144)
I0124 12:24:05.651794 19781 net.cpp:165] Memory required for data: 245809664
I0124 12:24:05.651798 19781 layer_factory.hpp:76] Creating layer fc7
I0124 12:24:05.651806 19781 net.cpp:106] Creating Layer fc7
I0124 12:24:05.651810 19781 net.cpp:454] fc7 <- drop6
I0124 12:24:05.651815 19781 net.cpp:411] fc7 -> fc7
I0124 12:24:05.769816 19781 net.cpp:150] Setting up fc7
I0124 12:24:05.769896 19781 net.cpp:157] Top shape: 128 2048 (262144)
I0124 12:24:05.769901 19781 net.cpp:165] Memory required for data: 246858240
I0124 12:24:05.769911 19781 layer_factory.hpp:76] Creating layer relu7
I0124 12:24:05.769919 19781 net.cpp:106] Creating Layer relu7
I0124 12:24:05.769924 19781 net.cpp:454] relu7 <- fc7
I0124 12:24:05.769930 19781 net.cpp:411] relu7 -> relu7
I0124 12:24:05.770411 19781 net.cpp:150] Setting up relu7
I0124 12:24:05.770421 19781 net.cpp:157] Top shape: 128 2048 (262144)
I0124 12:24:05.770437 19781 net.cpp:165] Memory required for data: 247906816
I0124 12:24:05.770439 19781 layer_factory.hpp:76] Creating layer drop7
I0124 12:24:05.770448 19781 net.cpp:106] Creating Layer drop7
I0124 12:24:05.770452 19781 net.cpp:454] drop7 <- relu7
I0124 12:24:05.770457 19781 net.cpp:411] drop7 -> drop7
I0124 12:24:05.770498 19781 net.cpp:150] Setting up drop7
I0124 12:24:05.770503 19781 net.cpp:157] Top shape: 128 2048 (262144)
I0124 12:24:05.770506 19781 net.cpp:165] Memory required for data: 248955392
I0124 12:24:05.770509 19781 layer_factory.hpp:76] Creating layer fc8
I0124 12:24:05.770519 19781 net.cpp:106] Creating Layer fc8
I0124 12:24:05.770524 19781 net.cpp:454] fc8 <- drop7
I0124 12:24:05.770527 19781 net.cpp:411] fc8 -> fc8
I0124 12:24:05.828310 19781 net.cpp:150] Setting up fc8
I0124 12:24:05.828344 19781 net.cpp:157] Top shape: 128 1000 (128000)
I0124 12:24:05.828348 19781 net.cpp:165] Memory required for data: 249467392
I0124 12:24:05.828357 19781 layer_factory.hpp:76] Creating layer loss
I0124 12:24:05.828369 19781 net.cpp:106] Creating Layer loss
I0124 12:24:05.828373 19781 net.cpp:454] loss <- fc8
I0124 12:24:05.828379 19781 net.cpp:454] loss <- label
I0124 12:24:05.828385 19781 net.cpp:411] loss -> loss
I0124 12:24:05.828402 19781 layer_factory.hpp:76] Creating layer loss
…
  }
  transform_param {
    scale: 0.04
    mirror: false
    crop_size: 128
    mean_value: 104
    mean_value: 117
    mean_value: 123
    force_color: true
    resize_param {
      prob: 1
      resize_mode: FIT_SMALL_SIZE
      height: 144
      width: 144
      pad_mode: MIRRORED
      pad_value: 104
      pad_value: 117
      pad_value: 124
      interp_mode: LINEAR
      center_object: false
      max_angle: 0
    }
  }
  data_param {
    source: "/local/temporary/imagenet_clc_orig/ilsvrc12_val_lmdb"
    batch_size: 50
    backend: LMDB
  }
}
layer {
  name: "conv1"
  type: "Convolution"
  bottom: "data"
  top: "conv1"
  param {
    lr_mult: 1
    decay_mult: 1
  }
  param {
    lr_mult: 2
    decay_mult: 0
  }
  convolution_param {
    num_output: 96
    kernel_size: 11
    stride: 4
    weight_filler {
      type: "gaussian"
      std: 0.01
    }
    bias_filler {
      type: "constant"
    }
  }
}
layer {
  name: "relu1"
  type: "ReLU"
  bottom: "conv1"
  top: "relu1"
}
layer {
  name: "pool1"
  type: "Pooling"
  bottom: "relu1"
  top: "pool1"
  pooling_param {
    pool: MAX
    kernel_size: 3
    stride: 2
  }
}
layer {
  name: "conv2"
  type: "Convolution"
  bottom: "pool1"
  top: "conv2"
  param {
    lr_mult: 1
    decay_mult: 1
  }
  param {
    lr_mult: 2
    decay_mult: 0
  }
  convolution_param {
    num_output: 256
    pad: 2
    kernel_size: 5
    group: 2
    weight_filler {
      type: "gaussian"
      std: 0.01
    }
    bias_filler {
      type: "constant"
    }
  }
}
layer {
  name: "relu2"
  type: "ReLU"
  bottom: "conv2"
  top: "relu2"
}
layer {
  name: "pool2"
  type: "Pooling"
  bottom: "relu2"
  top: "pool2"
  pooling_param {
    pool: MAX
    kernel_size: 3
    stride: 2
  }
}
layer {
  name: "conv3"
  type: "Convolution"
  bottom: "pool2"
  top: "conv3"
  param {
    lr_mult: 1
    decay_mult: 1
  }
  param {
    lr_mult: 2
    decay_mult: 0
  }
  convolution_param {
    num_output: 384
    pad: 1
    kernel_size: 3
    weight_filler {
      type: "gaussian"
      std: 0.01
    }
    bias_filler {
      type: "constant"
    }
  }
}
layer {
  name: "relu3"
  type: "ReLU"
  bottom: "conv3"
  top: "relu3"
}
layer {
  name: "conv4"
  type: "Convolution"
  bottom: "relu3"
  top: "conv4"
  param {
    lr_mult: 1
    decay_mult: 1
  }
  param {
    lr_mult: 2
    decay_mult: 0
  }
  convolution_param {
    num_output: 384
    pad: 1
    kernel_size: 3
    group: 2
    weight_filler {
      type: "gaussian"
      std: 0.01
    }
    bias_filler {
      type: "constant"
    }
  }
}
layer {
  name: "relu4"
  type: "ReLU"
  bottom: "conv4"
  top: "relu4"
}
layer {
  name: "conv5"
  type: "Convolution"
  bottom: "relu4"
  top: "conv5"
  param {
    lr_mult: 1
    decay_mult: 1
  }
  param {
    lr_mult: 2
    decay_mult: 0
  }
  convolution_param {
    num_output: 256
    pad: 1
    kernel_size: 3
    group: 2
    weight_filler {
      type: "gaussian"
      std: 0.01
    }
    bias_filler {
      type: "constant"
    }
  }
}
layer {
  name: "relu5"
  type: "ReLU"
  bottom: "conv5"
  top: "relu5"
}
layer {
  name: "pool5"
  type: "Pooling"
  bottom: "relu5"
  top: "pool5"
  pooling_param {
    pool: MAX
    kernel_size: 3
    stride: 2
  }
}
layer {
  name: "fc6"
  type: "InnerProduct"
  bottom: "pool5"
  top: "fc6"
  param {
    lr_mult: 1
    decay_mult: 1
  }
  param {
    lr_mult: 2
    decay_mult: 0
  }
  inner_product_param {
    num_output: 2048
    weight_filler {
      type: "gaussian"
      std: 0.005
    }
    bias_filler {
      type: "constant"
    }
  }
}
layer {
  name: "relu6"
  type: "ReLU"
  bottom: "fc6"
  top: "relu6"
}
layer {
  name: "drop6"
  type: "Dropout"
  bottom: "relu6"
  top: "drop6"
  dropout_param {
    dropout_ratio: 0.5
  }
}
layer {
  name: "fc7"
  type: "InnerProduct"
  bottom: "drop6"
  top: "fc7"
  param {
    lr_mult: 1
    decay_mult: 1
  }
  param {
    lr_mult: 2
    decay_mult: 0
  }
  inner_product_param {
    num_output: 2048
    weight_filler {
      type: "gaussian"
      std: 0.005
    }
    bias_filler {
      type: "constant"
    }
  }
}
layer {
  name: "relu7"
  type: "ReLU"
  bottom: "fc7"
  top: "relu7"
}
layer {
  name: "drop7"
  type: "Dropout"
  bottom: "relu7"
  top: "drop7"
  dropout_param {
    dropout_ratio: 0.5
  }
}
layer {
  name: "fc8"
  type: "InnerProduct"
  bottom: "drop7"
  top: "fc8"
  param {
    lr_mult: 1
    decay_mult: 1
  }
  param {
    lr_mult: 2
    decay_mult: 0
  }
  inner_product_param {
    num_output: 1000
    weight_filler {
      type: "gaussian"
      std: 0.01
    }
    bias_filler {
      type: "constant"
    }
  }
}
layer {
  name: "accuracy"
  type: "Accuracy"
  bottom: "fc8"
  bottom: "label"
  top: "accuracy"
  include {
    phase: TEST
  }
}
layer {
  name: "loss"
  type: "SoftmaxWithLoss"
  bottom: "fc8"
  bottom: "label"
  top: "loss"
}
I0124 12:24:05.830302 19781 layer_factory.hpp:76] Creating layer data
I0124 12:24:05.830395 19781 net.cpp:106] Creating Layer data
I0124 12:24:05.830425 19781 net.cpp:411] data -> data
I0124 12:24:05.830435 19781 net.cpp:411] data -> label
I0124 12:24:05.831421 19926 db_lmdb.cpp:38] Opened lmdb /local/temporary/imagenet_clc_orig/ilsvrc12_val_lmdb
I0124 12:24:05.835305 19781 data_layer.cpp:41] output data size: 50,3,128,128
I0124 12:24:05.856380 19781 net.cpp:150] Setting up data
I0124 12:24:05.856451 19781 net.cpp:157] Top shape: 50 3 128 128 (2457600)
I0124 12:24:05.856468 19781 net.cpp:157] Top shape: 50 (50)
I0124 12:24:05.856482 19781 net.cpp:165] Memory required for data: 9830600
I0124 12:24:05.856498 19781 layer_factory.hpp:76] Creating layer label_data_1_split
I0124 12:24:05.856531 19781 net.cpp:106] Creating Layer label_data_1_split
I0124 12:24:05.856544 19781 net.cpp:454] label_data_1_split <- label
I0124 12:24:05.856564 19781 net.cpp:411] label_data_1_split -> label_data_1_split_0
I0124 12:24:05.856590 19781 net.cpp:411] label_data_1_split -> label_data_1_split_1
I0124 12:24:05.856696 19781 net.cpp:150] Setting up label_data_1_split
I0124 12:24:05.856719 19781 net.cpp:157] Top shape: 50 (50)
I0124 12:24:05.856732 19781 net.cpp:157] Top shape: 50 (50)
I0124 12:24:05.856745 19781 net.cpp:165] Memory required for data: 9831000
I0124 12:24:05.856757 19781 layer_factory.hpp:76] Creating layer conv1
I0124 12:24:05.856782 19781 net.cpp:106] Creating Layer conv1
I0124 12:24:05.856796 19781 net.cpp:454] conv1 <- data
I0124 12:24:05.856813 19781 net.cpp:411] conv1 -> conv1
I0124 12:24:05.859447 19781 cudnn_conv_layer.cpp:194] Reallocating workspace storage: 4356
I0124 12:24:05.859486 19781 net.cpp:150] Setting up conv1
I0124 12:24:05.859494 19781 net.cpp:157] Top shape: 50 96 30 30 (4320000)
I0124 12:24:05.859498 19781 net.cpp:165] Memory required for data: 27111000
I0124 12:24:05.859509 19781 layer_factory.hpp:76] Creating layer relu1
I0124 12:24:05.859521 19781 net.cpp:106] Creating Layer relu1
I0124 12:24:05.859527 19781 net.cpp:454] relu1 <- conv1
I0124 12:24:05.859534 19781 net.cpp:411] relu1 -> relu1
I0124 12:24:05.859849 19781 net.cpp:150] Setting up relu1
I0124 12:24:05.859861 19781 net.cpp:157] Top shape: 50 96 30 30 (4320000)
I0124 12:24:05.859864 19781 net.cpp:165] Memory required for data: 44391000
I0124 12:24:05.859869 19781 layer_factory.hpp:76] Creating layer pool1
I0124 12:24:05.859876 19781 net.cpp:106] Creating Layer pool1
I0124 12:24:05.859880 19781 net.cpp:454] pool1 <- relu1
I0124 12:24:05.859885 19781 net.cpp:411] pool1 -> pool1
I0124 12:24:05.860090 19781 net.cpp:150] Setting up pool1
I0124 12:24:05.860097 19781 net.cpp:157] Top shape: 50 96 15 15 (1080000)
I0124 12:24:05.860101 19781 net.cpp:165] Memory required for data: 48711000
I0124 12:24:05.860105 19781 layer_factory.hpp:76] Creating layer conv2
I0124 12:24:05.860113 19781 net.cpp:106] Creating Layer conv2
I0124 12:24:05.860118 19781 net.cpp:454] conv2 <- pool1
I0124 12:24:05.860127 19781 net.cpp:411] conv2 -> conv2
I0124 12:24:05.871104 19781 cudnn_conv_layer.cpp:194] Reallocating workspace storage: 28800
I0124 12:24:05.871167 19781 net.cpp:150] Setting up conv2
I0124 12:24:05.871181 19781 net.cpp:157] Top shape: 50 256 15 15 (2880000)
I0124 12:24:05.871188 19781 net.cpp:165] Memory required for data: 60231000
I0124 12:24:05.871201 19781 layer_factory.hpp:76] Creating layer relu2
I0124 12:24:05.871207 19781 net.cpp:106] Creating Layer relu2
I0124 12:24:05.871211 19781 net.cpp:454] relu2 <- conv2
I0124 12:24:05.871215 19781 net.cpp:411] relu2 -> relu2
I0124 12:24:05.871423 19781 net.cpp:150] Setting up relu2
I0124 12:24:05.871431 19781 net.cpp:157] Top shape: 50 256 15 15 (2880000)
I0124 12:24:05.871434 19781 net.cpp:165] Memory required for data: 71751000
I0124 12:24:05.871438 19781 layer_factory.hpp:76] Creating layer pool2
I0124 12:24:05.871444 19781 net.cpp:106] Creating Layer pool2
I0124 12:24:05.871448 19781 net.cpp:454] pool2 <- relu2
I0124 12:24:05.871455 19781 net.cpp:411] pool2 -> pool2
I0124 12:24:05.871778 19781 net.cpp:150] Setting up pool2
I0124 12:24:05.871789 19781 net.cpp:157] Top shape: 50 256 7 7 (627200)
I0124 12:24:05.871793 19781 net.cpp:165] Memory required for data: 74259800
I0124 12:24:05.871795 19781 layer_factory.hpp:76] Creating layer conv3
I0124 12:24:05.871809 19781 net.cpp:106] Creating Layer conv3
I0124 12:24:05.871812 19781 net.cpp:454] conv3 <- pool2
I0124 12:24:05.871819 19781 net.cpp:411] conv3 -> conv3
I0124 12:24:05.897982 19781 cudnn_conv_layer.cpp:194] Reallocating workspace storage: 27648
I0124 12:24:05.898021 19781 net.cpp:150] Setting up conv3
I0124 12:24:05.898030 19781 net.cpp:157] Top shape: 50 384 7 7 (940800)
I0124 12:24:05.898032 19781 net.cpp:165] Memory required for data: 78023000
I0124 12:24:05.898044 19781 layer_factory.hpp:76] Creating layer relu3
I0124 12:24:05.898056 19781 net.cpp:106] Creating Layer relu3
I0124 12:24:05.898059 19781 net.cpp:454] relu3 <- conv3
I0124 12:24:05.898066 19781 net.cpp:411] relu3 -> relu3
I0124 12:24:05.898290 19781 net.cpp:150] Setting up relu3
I0124 12:24:05.898299 19781 net.cpp:157] Top shape: 50 384 7 7 (940800)
I0124 12:24:05.898303 19781 net.cpp:165] Memory required for data: 81786200
I0124 12:24:05.898306 19781 layer_factory.hpp:76] Creating layer conv4
I0124 12:24:05.898319 19781 net.cpp:106] Creating Layer conv4
I0124 12:24:05.898324 19781 net.cpp:454] conv4 <- relu3
I0124 12:24:05.898329 19781 net.cpp:411] conv4 -> conv4
I0124 12:24:05.919023 19781 net.cpp:150] Setting up conv4
I0124 12:24:05.919054 19781 net.cpp:157] Top shape: 50 384 7 7 (940800)
I0124 12:24:05.919057 19781 net.cpp:165] Memory required for data: 85549400
I0124 12:24:05.919065 19781 layer_factory.hpp:76] Creating layer relu4
I0124 12:24:05.919073 19781 net.cpp:106] Creating Layer relu4
I0124 12:24:05.919077 19781 net.cpp:454] relu4 <- conv4
I0124 12:24:05.919082 19781 net.cpp:411] relu4 -> relu4
I0124 12:24:05.919293 19781 net.cpp:150] Setting up relu4
I0124 12:24:05.919301 19781 net.cpp:157] Top shape: 50 384 7 7 (940800)
I0124 12:24:05.919304 19781 net.cpp:165] Memory required for data: 89312600
I0124 12:24:05.919307 19781 layer_factory.hpp:76] Creating layer conv5
I0124 12:24:05.919318 19781 net.cpp:106] Creating Layer conv5
I0124 12:24:05.919323 19781 net.cpp:454] conv5 <- relu4
I0124 12:24:05.919330 19781 net.cpp:411] conv5 -> conv5
I0124 12:24:05.933887 19781 net.cpp:150] Setting up conv5
I0124 12:24:05.933902 19781 net.cpp:157] Top shape: 50 256 7 7 (627200)
I0124 12:24:05.933907 19781 net.cpp:165] Memory required for data: 91821400
I0124 12:24:05.933918 19781 layer_factory.hpp:76] Creating layer relu5
I0124 12:24:05.933928 19781 net.cpp:106] Creating Layer relu5
I0124 12:24:05.933930 19781 net.cpp:454] relu5 <- conv5
I0124 12:24:05.933936 19781 net.cpp:411] relu5 -> relu5
I0124 12:24:05.934248 19781 net.cpp:150] Setting up relu5
I0124 12:24:05.934259 19781 net.cpp:157] Top shape: 50 256 7 7 (627200)
I0124 12:24:05.934262 19781 net.cpp:165] Memory required for data: 94330200
I0124 12:24:05.934267 19781 layer_factory.hpp:76] Creating layer pool5
I0124 12:24:05.934273 19781 net.cpp:106] Creating Layer pool5
I0124 12:24:05.934276 19781 net.cpp:454] pool5 <- relu5
I0124 12:24:05.934314 19781 net.cpp:411] pool5 -> pool5
I0124 12:24:05.934546 19781 net.cpp:150] Setting up pool5
I0124 12:24:05.934561 19781 net.cpp:157] Top shape: 50 256 3 3 (115200)
I0124 12:24:05.934583 19781 net.cpp:165] Memory required for data: 94791000
I0124 12:24:05.934592 19781 layer_factory.hpp:76] Creating layer fc6
I0124 12:24:05.934602 19781 net.cpp:106] Creating Layer fc6
I0124 12:24:05.934620 19781 net.cpp:454] fc6 <- pool5
I0124 12:24:05.934644 19781 net.cpp:411] fc6 -> fc6
I0124 12:24:06.069007 19781 net.cpp:150] Setting up fc6
I0124 12:24:06.069032 19781 net.cpp:157] Top shape: 50 2048 (102400)
I0124 12:24:06.069036 19781 net.cpp:165] Memory required for data: 95200600
I0124 12:24:06.069047 19781 layer_factory.hpp:76] Creating layer relu6
I0124 12:24:06.069061 19781 net.cpp:106] Creating Layer relu6
I0124 12:24:06.069067 19781 net.cpp:454] relu6 <- fc6
I0124 12:24:06.069079 19781 net.cpp:411] relu6 -> relu6
I0124 12:24:06.069568 19781 net.cpp:150] Setting up relu6
I0124 12:24:06.069581 19781 net.cpp:157] Top shape: 50 2048 (102400)
I0124 12:24:06.069584 19781 net.cpp:165] Memory required for data: 95610200
I0124 12:24:06.069587 19781 layer_factory.hpp:76] Creating layer drop6
I0124 12:24:06.069609 19781 net.cpp:106] Creating Layer drop6
I0124 12:24:06.069625 19781 net.cpp:454] drop6 <- relu6
I0124 12:24:06.069636 19781 net.cpp:411] drop6 -> drop6
I0124 12:24:06.069700 19781 net.cpp:150] Setting up drop6
I0124 12:24:06.069708 19781 net.cpp:157] Top shape: 50 2048 (102400)
I0124 12:24:06.069715 19781 net.cpp:165] Memory required for data: 96019800
I0124 12:24:06.069720 19781 layer_factory.hpp:76] Creating layer fc7
I0124 12:24:06.069736 19781 net.cpp:106] Creating Layer fc7
I0124 12:24:06.069746 19781 net.cpp:454] fc7 <- drop6
I0124 12:24:06.069768 19781 net.cpp:411] fc7 -> fc7
I0124 12:24:06.189749 19781 net.cpp:150] Setting up fc7
I0124 12:24:06.189793 19781 net.cpp:157] Top shape: 50 2048 (102400)
I0124 12:24:06.189797 19781 net.cpp:165] Memory required for data: 96429400
I0124 12:24:06.189806 19781 layer_factory.hpp:76] Creating layer relu7
I0124 12:24:06.189816 19781 net.cpp:106] Creating Layer relu7
I0124 12:24:06.189821 19781 net.cpp:454] relu7 <- fc7
I0124 12:24:06.189827 19781 net.cpp:411] relu7 -> relu7
I0124 12:24:06.190115 19781 net.cpp:150] Setting up relu7
I0124 12:24:06.190125 19781 net.cpp:157] Top shape: 50 2048 (102400)
I0124 12:24:06.190129 19781 net.cpp:165] Memory required for data: 96839000
I0124 12:24:06.190131 19781 layer_factory.hpp:76] Creating layer drop7
I0124 12:24:06.190140 19781 net.cpp:106] Creating Layer drop7
I0124 12:24:06.190142 19781 net.cpp:454] drop7 <- relu7
I0124 12:24:06.190148 19781 net.cpp:411] drop7 -> drop7
I0124 12:24:06.190232 19781 net.cpp:150] Setting up drop7
I0124 12:24:06.190242 19781 net.cpp:157] Top shape: 50 2048 (102400)
I0124 12:24:06.190246 19781 net.cpp:165] Memory required for data: 97248600
I0124 12:24:06.190263 19781 layer_factory.hpp:76] Creating layer fc8
I0124 12:24:06.190279 19781 net.cpp:106] Creating Layer fc8
I0124 12:24:06.190284 19781 net.cpp:454] fc8 <- drop7
I0124 12:24:06.190304 19781 net.cpp:411] fc8 -> fc8
I0124 12:24:06.248193 19781 net.cpp:150] Setting up fc8
I0124 12:24:06.248226 19781 net.cpp:157] Top shape: 50 1000 (50000)
I0124 12:24:06.248230 19781 net.cpp:165] Memory required for data: 97448600
I0124 12:24:06.248245 19781 layer_factory.hpp:76] Creating layer fc8_fc8_0_split
I0124 12:24:06.248253 19781 net.cpp:106] Creating Layer fc8_fc8_0_split
I0124 12:24:06.248257 19781 net.cpp:454] fc8_fc8_0_split <- fc8
I0124 12:24:06.248265 19781 net.cpp:411] fc8_fc8_0_split -> fc8_fc8_0_split_0
I0124 12:24:06.248288 19781 net.cpp:411] fc8_fc8_0_split -> fc8_fc8_0_split_1
I0124 12:24:06.248353 19781 net.cpp:150] Setting up fc8_fc8_0_split
I0124 12:24:06.248364 19781 net.cpp:157] Top shape: 50 1000 (50000)
I0124 12:24:06.248373 19781 net.cpp:157] Top shape: 50 1000 (50000)
I0124 12:24:06.248378 19781 net.cpp:165] Memory required for data: 97848600
I0124 12:24:06.248383 19781 layer_factory.hpp:76] Creating layer accuracy
I0124 12:24:06.248427 19781 net.cpp:106] Creating Layer accuracy
I0124 12:24:06.248432 19781 net.cpp:454] accuracy <- fc8_fc8_0_split_0
I0124 12:24:06.248436 19781 net.cpp:454] accuracy <- label_data_1_split_0
I0124 12:24:06.248443 19781 net.cpp:411] accuracy -> accuracy
…
