…
      mirror: false
      crop_size: 128
      mean_value: 104
      mean_value: 117
      mean_value: 123
      force_color: true
      resize_param {
        prob: 1
        resize_mode: FIT_SMALL_SIZE
        height: 144
        width: 144
        pad_mode: MIRRORED
        pad_value: 104
        pad_value: 117
        pad_value: 124
        interp_mode: LINEAR
        center_object: false
        max_angle: 0
      }
    }
    data_param {
      source: "/home/old-ufo/datasets/imagenet/ilsvrc12_val_lmdb"
      batch_size: 250
      backend: LMDB
    }
  }
  layer {
    name: "conv1"
    type: "Convolution"
    bottom: "data"
    top: "conv1"
    param {
      lr_mult: 1
      decay_mult: 1
    }
    param {
      lr_mult: 2
      decay_mult: 0
    }
    convolution_param {
      num_output: 96
      kernel_size: 11
      stride: 4
      weight_filler {
        type: "gaussian"
        std: 0.01
      }
      bias_filler {
        type: "constant"
      }
    }
  }
  layer {
    name: "relu1"
    type: "ReLU"
    bottom: "conv1"
    top: "relu1"
  }
  layer {
    name: "pool1"
    type: "Pooling"
    bottom: "relu1"
    top: "pool1"
    pooling_param {
      pool: MAX
      kernel_size: 3
      stride: 2
    }
  }
  layer {
    name: "conv2"
    type: "Convolution"
    bottom: "pool1"
    top: "conv2"
    param {
      lr_mult: 1
      decay_mult: 1
    }
    param {
      lr_mult: 2
      decay_mult: 0
    }
    convolution_param {
      num_output: 256
      pad: 2
      kernel_size: 5
      group: 2
      weight_filler {
        type: "gaussian"
        std: 0.01
      }
      bias_filler {
        type: "constant"
      }
    }
  }
  layer {
    name: "relu2"
    type: "ReLU"
    bottom: "conv2"
    top: "conv2"
  }
  layer {
    name: "pool2"
    type: "Pooling"
    bottom: "conv2"
    top: "pool2"
    pooling_param {
      pool: MAX
      kernel_size: 3
      stride: 2
    }
  }
  layer {
    name: "conv3"
    type: "Convolution"
    bottom: "pool2"
    top: "conv3"
    param {
      lr_mult: 1
      decay_mult: 1
    }
    param {
      lr_mult: 2
      decay_mult: 0
    }
    convolution_param {
      num_output: 384
      pad: 1
      kernel_size: 3
      weight_filler {
        type: "gaussian"
        std: 0.01
      }
      bias_filler {
        type: "constant"
      }
    }
  }
  layer {
    name: "relu3"
    type: "ReLU"
    bottom: "conv3"
    top: "conv3"
  }
  layer {
    name: "conv4"
    type: "Convolution"
    bottom: "conv3"
    top: "conv4"
    param {
      lr_mult: 1
      decay_mult: 1
    }
    param {
      lr_mult: 2
      decay_mult: 0
    }
    convolution_param {
      num_output: 384
      pad: 1
      kernel_size: 3
      group: 2
      weight_filler {
        type: "gaussian"
        std: 0.01
      }
      bias_filler {
        type: "constant"
      }
    }
  }
  layer {
    name: "relu4"
    type: "ReLU"
    bottom: "conv4"
    top: "conv4"
  }
  layer {
    name: "conv5"
    type: "Convolution"
    bottom: "conv4"
    top: "conv5"
    param {
      lr_mult: 1
      decay_mult: 1
    }
    param {
      lr_mult: 2
      decay_mult: 0
    }
    convolution_param {
      num_output: 256
      pad: 1
      kernel_size: 3
      group: 2
      weight_filler {
        type: "gaussian"
        std: 0.01
      }
      bias_filler {
        type: "constant"
      }
    }
  }
  layer {
    name: "relu5"
    type: "ReLU"
    bottom: "conv5"
    top: "conv5"
  }
  layer {
    name: "pool5"
    type: "Pooling"
    bottom: "conv5"
    top: "pool5"
    pooling_param {
      pool: MAX
      kernel_size: 3
      stride: 2
    }
  }
  layer {
    name: "fc6"
    type: "InnerProduct"
    bottom: "pool5"
    top: "fc6"
    param {
      lr_mult: 1
      decay_mult: 1
    }
    param {
      lr_mult: 2
      decay_mult: 0
    }
    inner_product_param {
      num_output: 2048
      weight_filler {
        type: "gaussian"
        std: 0.005
      }
      bias_filler {
        type: "constant"
      }
    }
  }
  layer {
    name: "relu6"
    type: "ReLU"
    bottom: "fc6"
    top: "fc6"
  }
  layer {
    name: "drop6"
    type: "Dropout"
    bottom: "fc6"
    top: "fc6"
    dropout_param {
      dropout_ratio: 0.5
    }
  }
  layer {
    name: "fc7"
    type: "InnerProduct"
    bottom: "fc6"
    top: "fc7"
    param {
      lr_mult: 1
      decay_mult: 1
    }
    param {
      lr_mult: 2
      decay_mult: 0
    }
    inner_product_param {
      num_output: 2048
      weight_filler {
        type: "gaussian"
        std: 0.005
      }
      bias_filler {
        type: "constant"
      }
    }
  }
  layer {
    name: "relu7"
    type: "ReLU"
    bottom: "fc7"
    top: "fc7"
  }
  layer {
    name: "drop7"
    type: "Dropout"
    bottom: "fc7"
    top: "fc7"
    dropout_param {
      dropout_ratio: 0.5
    }
  }
  layer {
    name: "fc8"
    type: "InnerProduct"
    bottom: "fc7"
    top: "fc8"
    param {
      lr_mult: 1
      decay_mult: 1
    }
    param {
      lr_mult: 2
      decay_mult: 0
    }
    inner_product_param {
      num_output: 1000
      weight_filler {
        type: "gaussian"
        std: 0.01
      }
      bias_filler {
        type: "constant"
      }
    }
  }
  layer {
    name: "accuracy"
    type: "Accuracy"
    bottom: "fc8"
    bottom: "label"
    top: "accuracy"
    include {
      phase: TEST
    }
  }
  layer {
    name: "loss"
    type: "SoftmaxWithLoss"
    bottom: "fc8"
    bottom: "label"
    top: "loss"
  }
}
test_initialization: false
average_loss: 20
iter_size: 1
rms_decay: 0.99
type: "RMSProp"
I0124 14:53:54.904649   851 solver.cpp:86] Creating training net specified in net_param.
I0124 14:53:54.904794   851 net.cpp:322] The NetState phase (0) differed from the phase (1) specified by a rule in layer data
I0124 14:53:54.904826   851 net.cpp:322] The NetState phase (0) differed from the phase (1) specified by a rule in layer accuracy
I0124 14:53:54.905051   851 net.cpp:49] Initializing net from parameters: 
name: "CaffeNet"
state {
  phase: TRAIN
}
layer {
  name: "data"
  type: "Data"
  top: "data"
  top: "label"
  include {
    phase: TRAIN
  }
  transform_param {
    scale: 0.04
    mirror: true
    crop_size: 128
    mean_value: 104
    mean_value: 117
    mean_value: 124
    force_color: true
    resize_param {
      prob: 1
      resize_mode: FIT_SMALL_SIZE
      height: 144
      width: 144
      pad_mode: MIRRORED
      pad_value: 104
      pad_value: 117
      pad_value: 124
      interp_mode: LINEAR
      center_object: false
      max_angle: 0
    }
  }
  data_param {
    source: "/home/old-ufo/datasets/imagenet/ilsvrc12_train_shuffle_lmdb"
    batch_size: 256
    backend: LMDB
  }
}
layer {
  name: "conv1"
  type: "Convolution"
  bottom: "data"
  top: "conv1"
  param {
    lr_mult: 1
    decay_mult: 1
  }
  param {
    lr_mult: 2
    decay_mult: 0
  }
  convolution_param {
    num_output: 96
    kernel_size: 11
    stride: 4
    weight_filler {
      type: "gaussian"
      std: 0.01
    }
    bias_filler {
      type: "constant"
    }
  }
}
layer {
  name: "relu1"
  type: "ReLU"
  bottom: "conv1"
  top: "relu1"
}
layer {
  name: "pool1"
  type: "Pooling"
  bottom: "relu1"
  top: "pool1"
  pooling_param {
    pool: MAX
    kernel_size: 3
    stride: 2
  }
}
layer {
  name: "conv2"
  type: "Convolution"
  bottom: "pool1"
  top: "conv2"
  param {
    lr_mult: 1
    decay_mult: 1
  }
  param {
    lr_mult: 2
    decay_mult: 0
  }
  convolution_param {
    num_output: 256
    pad: 2
    kernel_size: 5
    group: 2
    weight_filler {
      type: "gaussian"
      std: 0.01
    }
    bias_filler {
      type: "constant"
    }
  }
}
layer {
  name: "relu2"
  type: "ReLU"
  bottom: "conv2"
  top: "conv2"
}
layer {
  name: "pool2"
  type: "Pooling"
  bottom: "conv2"
  top: "pool2"
  pooling_param {
    pool: MAX
    kernel_size: 3
    stride: 2
  }
}
layer {
  name: "conv3"
  type: "Convolution"
  bottom: "pool2"
  top: "conv3"
  param {
    lr_mult: 1
    decay_mult: 1
  }
  param {
    lr_mult: 2
    decay_mult: 0
  }
  convolution_param {
    num_output: 384
    pad: 1
    kernel_size: 3
    weight_filler {
      type: "gaussian"
      std: 0.01
    }
    bias_filler {
      type: "constant"
    }
  }
}
layer {
  name: "relu3"
  type: "ReLU"
  bottom: "conv3"
  top: "conv3"
}
layer {
  name: "conv4"
  type: "Convolution"
  bottom: "conv3"
  top: "conv4"
  param {
    lr_mult: 1
    decay_mult: 1
  }
  param {
    lr_mult: 2
    decay_mult: 0
  }
  convolution_param {
    num_output: 384
    pad: 1
    kernel_size: 3
    group: 2
    weight_filler {
      type: "gaussian"
      std: 0.01
    }
    bias_filler {
      type: "constant"
    }
  }
}
layer {
  name: "relu4"
  type: "ReLU"
  bottom: "conv4"
  top: "conv4"
}
layer {
  name: "conv5"
  type: "Convolution"
  bottom: "conv4"
  top: "conv5"
  param {
    lr_mult: 1
    decay_mult: 1
  }
  param {
    lr_mult: 2
    decay_mult: 0
  }
  convolution_param {
    num_output: 256
    pad: 1
    kernel_size: 3
    group: 2
    weight_filler {
      type: "gaussian"
      std: 0.01
    }
    bias_filler {
      type: "constant"
    }
  }
}
layer {
  name: "relu5"
  type: "ReLU"
  bottom: "conv5"
  top: "conv5"
}
layer {
  name: "pool5"
  type: "Pooling"
  bottom: "conv5"
  top: "pool5"
  pooling_param {
    pool: MAX
    kernel_size: 3
    stride: 2
  }
}
layer {
  name: "fc6"
  type: "InnerProduct"
  bottom: "pool5"
  top: "fc6"
  param {
    lr_mult: 1
    decay_mult: 1
  }
  param {
    lr_mult: 2
    decay_mult: 0
  }
  inner_product_param {
    num_output: 2048
    weight_filler {
      type: "gaussian"
      std: 0.005
    }
    bias_filler {
      type: "constant"
    }
  }
}
layer {
  name: "relu6"
  type: "ReLU"
  bottom: "fc6"
  top: "fc6"
}
layer {
  name: "drop6"
  type: "Dropout"
  bottom: "fc6"
  top: "fc6"
  dropout_param {
    dropout_ratio: 0.5
  }
}
layer {
  name: "fc7"
  type: "InnerProduct"
  bottom: "fc6"
  top: "fc7"
  param {
    lr_mult: 1
    decay_mult: 1
  }
  param {
    lr_mult: 2
    decay_mult: 0
  }
  inner_product_param {
    num_output: 2048
    weight_filler {
      type: "gaussian"
      std: 0.005
    }
    bias_filler {
      type: "constant"
    }
  }
}
layer {
  name: "relu7"
  type: "ReLU"
  bottom: "fc7"
  top: "fc7"
}
layer {
  name: "drop7"
  type: "Dropout"
  bottom: "fc7"
  top: "fc7"
  dropout_param {
    dropout_ratio: 0.5
  }
}
layer {
  name: "fc8"
  type: "InnerProduct"
  bottom: "fc7"
  top: "fc8"
  param {
    lr_mult: 1
    decay_mult: 1
  }
  param {
    lr_mult: 2
    decay_mult: 0
  }
  inner_product_param {
    num_output: 1000
    weight_filler {
      type: "gaussian"
      std: 0.01
    }
    bias_filler {
      type: "constant"
    }
  }
}
layer {
  name: "loss"
  type: "SoftmaxWithLoss"
  bottom: "fc8"
  bottom: "label"
  top: "loss"
}
I0124 14:53:54.905189   851 layer_factory.hpp:76] Creating layer data
I0124 14:53:54.906082   851 net.cpp:106] Creating Layer data
I0124 14:53:54.906118   851 net.cpp:411] data -> data
I0124 14:53:54.906162   851 net.cpp:411] data -> label
I0124 14:53:54.907116   855 db_lmdb.cpp:38] Opened lmdb /home/old-ufo/datasets/imagenet/ilsvrc12_train_shuffle_lmdb
I0124 14:53:54.931080   851 data_layer.cpp:41] output data size: 256,3,128,128
I0124 14:53:55.002311   851 net.cpp:150] Setting up data
I0124 14:53:55.002338   851 net.cpp:157] Top shape: 256 3 128 128 (12582912)
I0124 14:53:55.002344   851 net.cpp:157] Top shape: 256 (256)
I0124 14:53:55.002348   851 net.cpp:165] Memory required for data: 50332672
I0124 14:53:55.002357   851 layer_factory.hpp:76] Creating layer conv1
I0124 14:53:55.002370   851 net.cpp:106] Creating Layer conv1
I0124 14:53:55.002377   851 net.cpp:454] conv1 <- data
I0124 14:53:55.002388   851 net.cpp:411] conv1 -> conv1
I0124 14:53:55.153864   851 net.cpp:150] Setting up conv1
I0124 14:53:55.153889   851 net.cpp:157] Top shape: 256 96 30 30 (22118400)
I0124 14:53:55.153892   851 net.cpp:165] Memory required for data: 138806272
I0124 14:53:55.153908   851 layer_factory.hpp:76] Creating layer relu1
I0124 14:53:55.153918   851 net.cpp:106] Creating Layer relu1
I0124 14:53:55.153921   851 net.cpp:454] relu1 <- conv1
I0124 14:53:55.153926   851 net.cpp:411] relu1 -> relu1
I0124 14:53:55.154461   851 net.cpp:150] Setting up relu1
I0124 14:53:55.154471   851 net.cpp:157] Top shape: 256 96 30 30 (22118400)
I0124 14:53:55.154474   851 net.cpp:165] Memory required for data: 227279872
I0124 14:53:55.154476   851 layer_factory.hpp:76] Creating layer pool1
I0124 14:53:55.154481   851 net.cpp:106] Creating Layer pool1
I0124 14:53:55.154484   851 net.cpp:454] pool1 <- relu1
I0124 14:53:55.154489   851 net.cpp:411] pool1 -> pool1
I0124 14:53:55.155028   851 net.cpp:150] Setting up pool1
I0124 14:53:55.155037   851 net.cpp:157] Top shape: 256 96 15 15 (5529600)
I0124 14:53:55.155040   851 net.cpp:165] Memory required for data: 249398272
I0124 14:53:55.155042   851 layer_factory.hpp:76] Creating layer conv2
I0124 14:53:55.155051   851 net.cpp:106] Creating Layer conv2
I0124 14:53:55.155055   851 net.cpp:454] conv2 <- pool1
I0124 14:53:55.155060   851 net.cpp:411] conv2 -> conv2
I0124 14:53:55.166512   851 net.cpp:150] Setting up conv2
I0124 14:53:55.166533   851 net.cpp:157] Top shape: 256 256 15 15 (14745600)
I0124 14:53:55.166537   851 net.cpp:165] Memory required for data: 308380672
I0124 14:53:55.166549   851 layer_factory.hpp:76] Creating layer relu2
I0124 14:53:55.166558   851 net.cpp:106] Creating Layer relu2
I0124 14:53:55.166560   851 net.cpp:454] relu2 <- conv2
I0124 14:53:55.166565   851 net.cpp:397] relu2 -> conv2 (in-place)
I0124 14:53:55.167163   851 net.cpp:150] Setting up relu2
I0124 14:53:55.167176   851 net.cpp:157] Top shape: 256 256 15 15 (14745600)
I0124 14:53:55.167181   851 net.cpp:165] Memory required for data: 367363072
I0124 14:53:55.167184   851 layer_factory.hpp:76] Creating layer pool2
I0124 14:53:55.167191   851 net.cpp:106] Creating Layer pool2
I0124 14:53:55.167196   851 net.cpp:454] pool2 <- conv2
I0124 14:53:55.167202   851 net.cpp:411] pool2 -> pool2
I0124 14:53:55.168071   851 net.cpp:150] Setting up pool2
I0124 14:53:55.168088   851 net.cpp:157] Top shape: 256 256 7 7 (3211264)
I0124 14:53:55.168092   851 net.cpp:165] Memory required for data: 380208128
I0124 14:53:55.168097   851 layer_factory.hpp:76] Creating layer conv3
I0124 14:53:55.168107   851 net.cpp:106] Creating Layer conv3
I0124 14:53:55.168112   851 net.cpp:454] conv3 <- pool2
I0124 14:53:55.168118   851 net.cpp:411] conv3 -> conv3
I0124 14:53:55.193497   851 net.cpp:150] Setting up conv3
I0124 14:53:55.193519   851 net.cpp:157] Top shape: 256 384 7 7 (4816896)
I0124 14:53:55.193521   851 net.cpp:165] Memory required for data: 399475712
I0124 14:53:55.193532   851 layer_factory.hpp:76] Creating layer relu3
I0124 14:53:55.193542   851 net.cpp:106] Creating Layer relu3
I0124 14:53:55.193544   851 net.cpp:454] relu3 <- conv3
I0124 14:53:55.193550   851 net.cpp:397] relu3 -> conv3 (in-place)
I0124 14:53:55.194093   851 net.cpp:150] Setting up relu3
I0124 14:53:55.194103   851 net.cpp:157] Top shape: 256 384 7 7 (4816896)
I0124 14:53:55.194105   851 net.cpp:165] Memory required for data: 418743296
I0124 14:53:55.194123   851 layer_factory.hpp:76] Creating layer conv4
I0124 14:53:55.194130   851 net.cpp:106] Creating Layer conv4
I0124 14:53:55.194133   851 net.cpp:454] conv4 <- conv3
I0124 14:53:55.194139   851 net.cpp:411] conv4 -> conv4
I0124 14:53:55.215167   851 net.cpp:150] Setting up conv4
I0124 14:53:55.215189   851 net.cpp:157] Top shape: 256 384 7 7 (4816896)
I0124 14:53:55.215193   851 net.cpp:165] Memory required for data: 438010880
I0124 14:53:55.215199   851 layer_factory.hpp:76] Creating layer relu4
I0124 14:53:55.215209   851 net.cpp:106] Creating Layer relu4
I0124 14:53:55.215214   851 net.cpp:454] relu4 <- conv4
I0124 14:53:55.215219   851 net.cpp:397] relu4 -> conv4 (in-place)
I0124 14:53:55.215833   851 net.cpp:150] Setting up relu4
I0124 14:53:55.215847   851 net.cpp:157] Top shape: 256 384 7 7 (4816896)
I0124 14:53:55.215849   851 net.cpp:165] Memory required for data: 457278464
I0124 14:53:55.215853   851 layer_factory.hpp:76] Creating layer conv5
I0124 14:53:55.215865   851 net.cpp:106] Creating Layer conv5
I0124 14:53:55.215870   851 net.cpp:454] conv5 <- conv4
I0124 14:53:55.215876   851 net.cpp:411] conv5 -> conv5
I0124 14:53:55.231539   851 net.cpp:150] Setting up conv5
I0124 14:53:55.231560   851 net.cpp:157] Top shape: 256 256 7 7 (3211264)
I0124 14:53:55.231564   851 net.cpp:165] Memory required for data: 470123520
I0124 14:53:55.231575   851 layer_factory.hpp:76] Creating layer relu5
I0124 14:53:55.231582   851 net.cpp:106] Creating Layer relu5
I0124 14:53:55.231585   851 net.cpp:454] relu5 <- conv5
I0124 14:53:55.231595   851 net.cpp:397] relu5 -> conv5 (in-place)
I0124 14:53:55.232127   851 net.cpp:150] Setting up relu5
I0124 14:53:55.232136   851 net.cpp:157] Top shape: 256 256 7 7 (3211264)
I0124 14:53:55.232139   851 net.cpp:165] Memory required for data: 482968576
I0124 14:53:55.232141   851 layer_factory.hpp:76] Creating layer pool5
I0124 14:53:55.232148   851 net.cpp:106] Creating Layer pool5
I0124 14:53:55.232151   851 net.cpp:454] pool5 <- conv5
I0124 14:53:55.232154   851 net.cpp:411] pool5 -> pool5
I0124 14:53:55.232733   851 net.cpp:150] Setting up pool5
I0124 14:53:55.232745   851 net.cpp:157] Top shape: 256 256 3 3 (589824)
I0124 14:53:55.232748   851 net.cpp:165] Memory required for data: 485327872
I0124 14:53:55.232753   851 layer_factory.hpp:76] Creating layer fc6
I0124 14:53:55.232776   851 net.cpp:106] Creating Layer fc6
I0124 14:53:55.232781   851 net.cpp:454] fc6 <- pool5
I0124 14:53:55.232790   851 net.cpp:411] fc6 -> fc6
I0124 14:53:55.381849   851 net.cpp:150] Setting up fc6
I0124 14:53:55.381873   851 net.cpp:157] Top shape: 256 2048 (524288)
I0124 14:53:55.381877   851 net.cpp:165] Memory required for data: 487425024
I0124 14:53:55.381886   851 layer_factory.hpp:76] Creating layer relu6
I0124 14:53:55.381896   851 net.cpp:106] Creating Layer relu6
I0124 14:53:55.381899   851 net.cpp:454] relu6 <- fc6
I0124 14:53:55.381906   851 net.cpp:397] relu6 -> fc6 (in-place)
I0124 14:53:55.382668   851 net.cpp:150] Setting up relu6
I0124 14:53:55.382680   851 net.cpp:157] Top shape: 256 2048 (524288)
I0124 14:53:55.382683   851 net.cpp:165] Memory required for data: 489522176
I0124 14:53:55.382686   851 layer_factory.hpp:76] Creating layer drop6
I0124 14:53:55.382695   851 net.cpp:106] Creating Layer drop6
I0124 14:53:55.382699   851 net.cpp:454] drop6 <- fc6
I0124 14:53:55.382702   851 net.cpp:397] drop6 -> fc6 (in-place)
I0124 14:53:55.382732   851 net.cpp:150] Setting up drop6
I0124 14:53:55.382736   851 net.cpp:157] Top shape: 256 2048 (524288)
I0124 14:53:55.382738   851 net.cpp:165] Memory required for data: 491619328
I0124 14:53:55.382740   851 layer_factory.hpp:76] Creating layer fc7
I0124 14:53:55.382747   851 net.cpp:106] Creating Layer fc7
I0124 14:53:55.382750   851 net.cpp:454] fc7 <- fc6
I0124 14:53:55.382755   851 net.cpp:411] fc7 -> fc7
I0124 14:53:55.491750   851 net.cpp:150] Setting up fc7
I0124 14:53:55.491775   851 net.cpp:157] Top shape: 256 2048 (524288)
I0124 14:53:55.491778   851 net.cpp:165] Memory required for data: 493716480
I0124 14:53:55.491812   851 layer_factory.hpp:76] Creating layer relu7
I0124 14:53:55.491822   851 net.cpp:106] Creating Layer relu7
I0124 14:53:55.491825   851 net.cpp:454] relu7 <- fc7
I0124 14:53:55.491833   851 net.cpp:397] relu7 -> fc7 (in-place)
I0124 14:53:55.492579   851 net.cpp:150] Setting up relu7
I0124 14:53:55.492591   851 net.cpp:157] Top shape: 256 2048 (524288)
I0124 14:53:55.492594   851 net.cpp:165] Memory required for data: 495813632
I0124 14:53:55.492597   851 layer_factory.hpp:76] Creating layer drop7
I0124 14:53:55.492609   851 net.cpp:106] Creating Layer drop7
I0124 14:53:55.492612   851 net.cpp:454] drop7 <- fc7
I0124 14:53:55.492616   851 net.cpp:397] drop7 -> fc7 (in-place)
I0124 14:53:55.492643   851 net.cpp:150] Setting up drop7
I0124 14:53:55.492647   851 net.cpp:157] Top shape: 256 2048 (524288)
I0124 14:53:55.492650   851 net.cpp:165] Memory required for data: 497910784
I0124 14:53:55.492651   851 layer_factory.hpp:76] Creating layer fc8
I0124 14:53:55.492657   851 net.cpp:106] Creating Layer fc8
I0124 14:53:55.492660   851 net.cpp:454] fc8 <- fc7
I0124 14:53:55.492666   851 net.cpp:411] fc8 -> fc8
I0124 14:53:55.546334   851 net.cpp:150] Setting up fc8
I0124 14:53:55.546357   851 net.cpp:157] Top shape: 256 1000 (256000)
I0124 14:53:55.546360   851 net.cpp:165] Memory required for data: 498934784
I0124 14:53:55.546370   851 layer_factory.hpp:76] Creating layer loss
I0124 14:53:55.546378   851 net.cpp:106] Creating Layer loss
I0124 14:53:55.546382   851 net.cpp:454] loss <- fc8
I0124 14:53:55.546388   851 net.cpp:454] loss <- label
I0124 14:53:55.546396   851 net.cpp:411] loss -> loss
I0124 14:53:55.546411   851 layer_factory.hpp:76] Creating layer loss
…
    phase: TEST
  }
  transform_param {
    scale: 0.04
    mirror: false
    crop_size: 128
    mean_value: 104
    mean_value: 117
    mean_value: 123
    force_color: true
    resize_param {
      prob: 1
      resize_mode: FIT_SMALL_SIZE
      height: 144
      width: 144
      pad_mode: MIRRORED
      pad_value: 104
      pad_value: 117
      pad_value: 124
      interp_mode: LINEAR
      center_object: false
      max_angle: 0
    }
  }
  data_param {
    source: "/home/old-ufo/datasets/imagenet/ilsvrc12_val_lmdb"
    batch_size: 250
    backend: LMDB
  }
}
layer {
  name: "conv1"
  type: "Convolution"
  bottom: "data"
  top: "conv1"
  param {
    lr_mult: 1
    decay_mult: 1
  }
  param {
    lr_mult: 2
    decay_mult: 0
  }
  convolution_param {
    num_output: 96
    kernel_size: 11
    stride: 4
    weight_filler {
      type: "gaussian"
      std: 0.01
    }
    bias_filler {
      type: "constant"
    }
  }
}
layer {
  name: "relu1"
  type: "ReLU"
  bottom: "conv1"
  top: "relu1"
}
layer {
  name: "pool1"
  type: "Pooling"
  bottom: "relu1"
  top: "pool1"
  pooling_param {
    pool: MAX
    kernel_size: 3
    stride: 2
  }
}
layer {
  name: "conv2"
  type: "Convolution"
  bottom: "pool1"
  top: "conv2"
  param {
    lr_mult: 1
    decay_mult: 1
  }
  param {
    lr_mult: 2
    decay_mult: 0
  }
  convolution_param {
    num_output: 256
    pad: 2
    kernel_size: 5
    group: 2
    weight_filler {
      type: "gaussian"
      std: 0.01
    }
    bias_filler {
      type: "constant"
    }
  }
}
layer {
  name: "relu2"
  type: "ReLU"
  bottom: "conv2"
  top: "conv2"
}
layer {
  name: "pool2"
  type: "Pooling"
  bottom: "conv2"
  top: "pool2"
  pooling_param {
    pool: MAX
    kernel_size: 3
    stride: 2
  }
}
layer {
  name: "conv3"
  type: "Convolution"
  bottom: "pool2"
  top: "conv3"
  param {
    lr_mult: 1
    decay_mult: 1
  }
  param {
    lr_mult: 2
    decay_mult: 0
  }
  convolution_param {
    num_output: 384
    pad: 1
    kernel_size: 3
    weight_filler {
      type: "gaussian"
      std: 0.01
    }
    bias_filler {
      type: "constant"
    }
  }
}
layer {
  name: "relu3"
  type: "ReLU"
  bottom: "conv3"
  top: "conv3"
}
layer {
  name: "conv4"
  type: "Convolution"
  bottom: "conv3"
  top: "conv4"
  param {
    lr_mult: 1
    decay_mult: 1
  }
  param {
    lr_mult: 2
    decay_mult: 0
  }
  convolution_param {
    num_output: 384
    pad: 1
    kernel_size: 3
    group: 2
    weight_filler {
      type: "gaussian"
      std: 0.01
    }
    bias_filler {
      type: "constant"
    }
  }
}
layer {
  name: "relu4"
  type: "ReLU"
  bottom: "conv4"
  top: "conv4"
}
layer {
  name: "conv5"
  type: "Convolution"
  bottom: "conv4"
  top: "conv5"
  param {
    lr_mult: 1
    decay_mult: 1
  }
  param {
    lr_mult: 2
    decay_mult: 0
  }
  convolution_param {
    num_output: 256
    pad: 1
    kernel_size: 3
    group: 2
    weight_filler {
      type: "gaussian"
      std: 0.01
    }
    bias_filler {
      type: "constant"
    }
  }
}
layer {
  name: "relu5"
  type: "ReLU"
  bottom: "conv5"
  top: "conv5"
}
layer {
  name: "pool5"
  type: "Pooling"
  bottom: "conv5"
  top: "pool5"
  pooling_param {
    pool: MAX
    kernel_size: 3
    stride: 2
  }
}
layer {
  name: "fc6"
  type: "InnerProduct"
  bottom: "pool5"
  top: "fc6"
  param {
    lr_mult: 1
    decay_mult: 1
  }
  param {
    lr_mult: 2
    decay_mult: 0
  }
  inner_product_param {
    num_output: 2048
    weight_filler {
      type: "gaussian"
      std: 0.005
    }
    bias_filler {
      type: "constant"
    }
  }
}
layer {
  name: "relu6"
  type: "ReLU"
  bottom: "fc6"
  top: "fc6"
}
layer {
  name: "drop6"
  type: "Dropout"
  bottom: "fc6"
  top: "fc6"
  dropout_param {
    dropout_ratio: 0.5
  }
}
layer {
  name: "fc7"
  type: "InnerProduct"
  bottom: "fc6"
  top: "fc7"
  param {
    lr_mult: 1
    decay_mult: 1
  }
  param {
    lr_mult: 2
    decay_mult: 0
  }
  inner_product_param {
    num_output: 2048
    weight_filler {
      type: "gaussian"
      std: 0.005
    }
    bias_filler {
      type: "constant"
    }
  }
}
layer {
  name: "relu7"
  type: "ReLU"
  bottom: "fc7"
  top: "fc7"
}
layer {
  name: "drop7"
  type: "Dropout"
  bottom: "fc7"
  top: "fc7"
  dropout_param {
    dropout_ratio: 0.5
  }
}
layer {
  name: "fc8"
  type: "InnerProduct"
  bottom: "fc7"
  top: "fc8"
  param {
    lr_mult: 1
    decay_mult: 1
  }
  param {
    lr_mult: 2
    decay_mult: 0
  }
  inner_product_param {
    num_output: 1000
    weight_filler {
      type: "gaussian"
      std: 0.01
    }
    bias_filler {
      type: "constant"
    }
  }
}
layer {
  name: "accuracy"
  type: "Accuracy"
  bottom: "fc8"
  bottom: "label"
  top: "accuracy"
  include {
    phase: TEST
  }
}
layer {
  name: "loss"
  type: "SoftmaxWithLoss"
  bottom: "fc8"
  bottom: "label"
  top: "loss"
}
I0124 14:53:55.548415   851 layer_factory.hpp:76] Creating layer data
I0124 14:53:55.548566   851 net.cpp:106] Creating Layer data
I0124 14:53:55.548575   851 net.cpp:411] data -> data
I0124 14:53:55.548584   851 net.cpp:411] data -> label
I0124 14:53:55.549226   864 db_lmdb.cpp:38] Opened lmdb /home/old-ufo/datasets/imagenet/ilsvrc12_val_lmdb
I0124 14:53:55.551764   851 data_layer.cpp:41] output data size: 250,3,128,128
I0124 14:53:55.619928   851 net.cpp:150] Setting up data
I0124 14:53:55.620004   851 net.cpp:157] Top shape: 250 3 128 128 (12288000)
I0124 14:53:55.620026   851 net.cpp:157] Top shape: 250 (250)
I0124 14:53:55.620041   851 net.cpp:165] Memory required for data: 49153000
I0124 14:53:55.620059   851 layer_factory.hpp:76] Creating layer label_data_1_split
I0124 14:53:55.620084   851 net.cpp:106] Creating Layer label_data_1_split
I0124 14:53:55.620100   851 net.cpp:454] label_data_1_split <- label
I0124 14:53:55.620117   851 net.cpp:411] label_data_1_split -> label_data_1_split_0
I0124 14:53:55.620138   851 net.cpp:411] label_data_1_split -> label_data_1_split_1
I0124 14:53:55.620209   851 net.cpp:150] Setting up label_data_1_split
I0124 14:53:55.620229   851 net.cpp:157] Top shape: 250 (250)
I0124 14:53:55.620244   851 net.cpp:157] Top shape: 250 (250)
I0124 14:53:55.620260   851 net.cpp:165] Memory required for data: 49155000
I0124 14:53:55.620272   851 layer_factory.hpp:76] Creating layer conv1
I0124 14:53:55.620293   851 net.cpp:106] Creating Layer conv1
I0124 14:53:55.620311   851 net.cpp:454] conv1 <- data
I0124 14:53:55.620327   851 net.cpp:411] conv1 -> conv1
I0124 14:53:55.628605   851 net.cpp:150] Setting up conv1
I0124 14:53:55.628674   851 net.cpp:157] Top shape: 250 96 30 30 (21600000)
I0124 14:53:55.628691   851 net.cpp:165] Memory required for data: 135555000
I0124 14:53:55.628717   851 layer_factory.hpp:76] Creating layer relu1
I0124 14:53:55.628741   851 net.cpp:106] Creating Layer relu1
I0124 14:53:55.628756   851 net.cpp:454] relu1 <- conv1
I0124 14:53:55.628772   851 net.cpp:411] relu1 -> relu1
I0124 14:53:55.629607   851 net.cpp:150] Setting up relu1
I0124 14:53:55.629638   851 net.cpp:157] Top shape: 250 96 30 30 (21600000)
I0124 14:53:55.629653   851 net.cpp:165] Memory required for data: 221955000
I0124 14:53:55.629668   851 layer_factory.hpp:76] Creating layer pool1
I0124 14:53:55.629689   851 net.cpp:106] Creating Layer pool1
I0124 14:53:55.629717   851 net.cpp:454] pool1 <- relu1
I0124 14:53:55.629736   851 net.cpp:411] pool1 -> pool1
I0124 14:53:55.630558   851 net.cpp:150] Setting up pool1
I0124 14:53:55.630591   851 net.cpp:157] Top shape: 250 96 15 15 (5400000)
I0124 14:53:55.630607   851 net.cpp:165] Memory required for data: 243555000
I0124 14:53:55.630621   851 layer_factory.hpp:76] Creating layer conv2
I0124 14:53:55.630643   851 net.cpp:106] Creating Layer conv2
I0124 14:53:55.630658   851 net.cpp:454] conv2 <- pool1
I0124 14:53:55.630677   851 net.cpp:411] conv2 -> conv2
I0124 14:53:55.647091   851 net.cpp:150] Setting up conv2
I0124 14:53:55.647161   851 net.cpp:157] Top shape: 250 256 15 15 (14400000)
I0124 14:53:55.647176   851 net.cpp:165] Memory required for data: 301155000
I0124 14:53:55.647200   851 layer_factory.hpp:76] Creating layer relu2
I0124 14:53:55.647234   851 net.cpp:106] Creating Layer relu2
I0124 14:53:55.647260   851 net.cpp:454] relu2 <- conv2
I0124 14:53:55.647279   851 net.cpp:397] relu2 -> conv2 (in-place)
I0124 14:53:55.648078   851 net.cpp:150] Setting up relu2
I0124 14:53:55.648108   851 net.cpp:157] Top shape: 250 256 15 15 (14400000)
I0124 14:53:55.648123   851 net.cpp:165] Memory required for data: 358755000
I0124 14:53:55.648138   851 layer_factory.hpp:76] Creating layer pool2
I0124 14:53:55.648157   851 net.cpp:106] Creating Layer pool2
I0124 14:53:55.648172   851 net.cpp:454] pool2 <- conv2
I0124 14:53:55.648188   851 net.cpp:411] pool2 -> pool2
I0124 14:53:55.649004   851 net.cpp:150] Setting up pool2
I0124 14:53:55.649034   851 net.cpp:157] Top shape: 250 256 7 7 (3136000)
I0124 14:53:55.649049   851 net.cpp:165] Memory required for data: 371299000
I0124 14:53:55.649063   851 layer_factory.hpp:76] Creating layer conv3
I0124 14:53:55.649086   851 net.cpp:106] Creating Layer conv3
I0124 14:53:55.649101   851 net.cpp:454] conv3 <- pool2
I0124 14:53:55.649116   851 net.cpp:411] conv3 -> conv3
I0124 14:53:55.683454   851 net.cpp:150] Setting up conv3
I0124 14:53:55.683518   851 net.cpp:157] Top shape: 250 384 7 7 (4704000)
I0124 14:53:55.683534   851 net.cpp:165] Memory required for data: 390115000
I0124 14:53:55.683558   851 layer_factory.hpp:76] Creating layer relu3
I0124 14:53:55.683580   851 net.cpp:106] Creating Layer relu3
I0124 14:53:55.683594   851 net.cpp:454] relu3 <- conv3
I0124 14:53:55.683611   851 net.cpp:397] relu3 -> conv3 (in-place)
I0124 14:53:55.684401   851 net.cpp:150] Setting up relu3
I0124 14:53:55.684432   851 net.cpp:157] Top shape: 250 384 7 7 (4704000)
I0124 14:53:55.684448   851 net.cpp:165] Memory required for data: 408931000
I0124 14:53:55.684468   851 layer_factory.hpp:76] Creating layer conv4
I0124 14:53:55.684489   851 net.cpp:106] Creating Layer conv4
I0124 14:53:55.684504   851 net.cpp:454] conv4 <- conv3
I0124 14:53:55.684522   851 net.cpp:411] conv4 -> conv4
I0124 14:53:55.713557   851 net.cpp:150] Setting up conv4
I0124 14:53:55.713621   851 net.cpp:157] Top shape: 250 384 7 7 (4704000)
I0124 14:53:55.713637   851 net.cpp:165] Memory required for data: 427747000
I0124 14:53:55.713659   851 layer_factory.hpp:76] Creating layer relu4
I0124 14:53:55.713680   851 net.cpp:106] Creating Layer relu4
I0124 14:53:55.713696   851 net.cpp:454] relu4 <- conv4
I0124 14:53:55.713726   851 net.cpp:397] relu4 -> conv4 (in-place)
I0124 14:53:55.714546   851 net.cpp:150] Setting up relu4
I0124 14:53:55.714576   851 net.cpp:157] Top shape: 250 384 7 7 (4704000)
I0124 14:53:55.714589   851 net.cpp:165] Memory required for data: 446563000
I0124 14:53:55.714604   851 layer_factory.hpp:76] Creating layer conv5
I0124 14:53:55.714625   851 net.cpp:106] Creating Layer conv5
I0124 14:53:55.714640   851 net.cpp:454] conv5 <- conv4
I0124 14:53:55.714658   851 net.cpp:411] conv5 -> conv5
I0124 14:53:55.736866   851 net.cpp:150] Setting up conv5
I0124 14:53:55.736896   851 net.cpp:157] Top shape: 250 256 7 7 (3136000)
I0124 14:53:55.736901   851 net.cpp:165] Memory required for data: 459107000
I0124 14:53:55.736984   851 layer_factory.hpp:76] Creating layer relu5
I0124 14:53:55.737001   851 net.cpp:106] Creating Layer relu5
I0124 14:53:55.737045   851 net.cpp:454] relu5 <- conv5
I0124 14:53:55.737083   851 net.cpp:397] relu5 -> conv5 (in-place)
I0124 14:53:55.737921   851 net.cpp:150] Setting up relu5
I0124 14:53:55.737934   851 net.cpp:157] Top shape: 250 256 7 7 (3136000)
I0124 14:53:55.737974   851 net.cpp:165] Memory required for data: 471651000
I0124 14:53:55.737982   851 layer_factory.hpp:76] Creating layer pool5
I0124 14:53:55.738018   851 net.cpp:106] Creating Layer pool5
I0124 14:53:55.738023   851 net.cpp:454] pool5 <- conv5
I0124 14:53:55.738059   851 net.cpp:411] pool5 -> pool5
I0124 14:53:55.738919   851 net.cpp:150] Setting up pool5
I0124 14:53:55.738931   851 net.cpp:157] Top shape: 250 256 3 3 (576000)
I0124 14:53:55.738970   851 net.cpp:165] Memory required for data: 473955000
I0124 14:53:55.739003   851 layer_factory.hpp:76] Creating layer fc6
I0124 14:53:55.739058   851 net.cpp:106] Creating Layer fc6
I0124 14:53:55.739064   851 net.cpp:454] fc6 <- pool5
I0124 14:53:55.739099   851 net.cpp:411] fc6 -> fc6
I0124 14:53:55.910208   851 net.cpp:150] Setting up fc6
I0124 14:53:55.910362   851 net.cpp:157] Top shape: 250 2048 (512000)
I0124 14:53:55.910425   851 net.cpp:165] Memory required for data: 476003000
I0124 14:53:55.910492   851 layer_factory.hpp:76] Creating layer relu6
I0124 14:53:55.910564   851 net.cpp:106] Creating Layer relu6
I0124 14:53:55.910641   851 net.cpp:454] relu6 <- fc6
I0124 14:53:55.910786   851 net.cpp:397] relu6 -> fc6 (in-place)
I0124 14:53:55.911885   851 net.cpp:150] Setting up relu6
I0124 14:53:55.911965   851 net.cpp:157] Top shape: 250 2048 (512000)
I0124 14:53:55.912029   851 net.cpp:165] Memory required for data: 478051000
I0124 14:53:55.912091   851 layer_factory.hpp:76] Creating layer drop6
I0124 14:53:55.912154   851 net.cpp:106] Creating Layer drop6
I0124 14:53:55.912215   851 net.cpp:454] drop6 <- fc6
I0124 14:53:55.912277   851 net.cpp:397] drop6 -> fc6 (in-place)
I0124 14:53:55.912379   851 net.cpp:150] Setting up drop6
I0124 14:53:55.912479   851 net.cpp:157] Top shape: 250 2048 (512000)
I0124 14:53:55.912540   851 net.cpp:165] Memory required for data: 480099000
I0124 14:53:55.912600   851 layer_factory.hpp:76] Creating layer fc7
I0124 14:53:55.912667   851 net.cpp:106] Creating Layer fc7
I0124 14:53:55.912727   851 net.cpp:454] fc7 <- fc6
I0124 14:53:55.912789   851 net.cpp:411] fc7 -> fc7
I0124 14:53:56.073864   851 net.cpp:150] Setting up fc7
I0124 14:53:56.074024   851 net.cpp:157] Top shape: 250 2048 (512000)
I0124 14:53:56.074100   851 net.cpp:165] Memory required for data: 482147000
I0124 14:53:56.074182   851 layer_factory.hpp:76] Creating layer relu7
I0124 14:53:56.074262   851 net.cpp:106] Creating Layer relu7
I0124 14:53:56.074337   851 net.cpp:454] relu7 <- fc7
I0124 14:53:56.074411   851 net.cpp:397] relu7 -> fc7 (in-place)
I0124 14:53:56.075517   851 net.cpp:150] Setting up relu7
I0124 14:53:56.075613   851 net.cpp:157] Top shape: 250 2048 (512000)
I0124 14:53:56.075688   851 net.cpp:165] Memory required for data: 484195000
I0124 14:53:56.075760   851 layer_factory.hpp:76] Creating layer drop7
I0124 14:53:56.075835   851 net.cpp:106] Creating Layer drop7
I0124 14:53:56.075906   851 net.cpp:454] drop7 <- fc7
I0124 14:53:56.075983   851 net.cpp:397] drop7 -> fc7 (in-place)
I0124 14:53:56.076095   851 net.cpp:150] Setting up drop7
I0124 14:53:56.076174   851 net.cpp:157] Top shape: 250 2048 (512000)
I0124 14:53:56.076244   851 net.cpp:165] Memory required for data: 486243000
I0124 14:53:56.076315   851 layer_factory.hpp:76] Creating layer fc8
I0124 14:53:56.076393   851 net.cpp:106] Creating Layer fc8
I0124 14:53:56.076464   851 net.cpp:454] fc8 <- fc7
I0124 14:53:56.076541   851 net.cpp:411] fc8 -> fc8
I0124 14:53:56.157104   851 net.cpp:150] Setting up fc8
I0124 14:53:56.157269   851 net.cpp:157] Top shape: 250 1000 (250000)
I0124 14:53:56.157340   851 net.cpp:165] Memory required for data: 487243000
I0124 14:53:56.157415   851 layer_factory.hpp:76] Creating layer fc8_fc8_0_split
I0124 14:53:56.157488   851 net.cpp:106] Creating Layer fc8_fc8_0_split
I0124 14:53:56.157557   851 net.cpp:454] fc8_fc8_0_split <- fc8
I0124 14:53:56.157629   851 net.cpp:411] fc8_fc8_0_split -> fc8_fc8_0_split_0
I0124 14:53:56.157716   851 net.cpp:411] fc8_fc8_0_split -> fc8_fc8_0_split_1
I0124 14:53:56.157850   851 net.cpp:150] Setting up fc8_fc8_0_split
I0124 14:53:56.157927   851 net.cpp:157] Top shape: 250 1000 (250000)
I0124 14:53:56.157995   851 net.cpp:157] Top shape: 250 1000 (250000)
I0124 14:53:56.158061   851 net.cpp:165] Memory required for data: 489243000
I0124 14:53:56.158128   851 layer_factory.hpp:76] Creating layer accuracy
I0124 14:53:56.158200   851 net.cpp:106] Creating Layer accuracy
I0124 14:53:56.158267   851 net.cpp:454] accuracy <- fc8_fc8_0_split_0
I0124 14:53:56.158334   851 net.cpp:454] accuracy <- label_data_1_split_0
I0124 14:53:56.158403   851 net.cpp:411] accuracy -> accuracy
…
