…
      mirror: false
      crop_size: 128
      mean_value: 104
      mean_value: 117
      mean_value: 123
      force_color: true
      resize_param {
        prob: 1
        resize_mode: FIT_SMALL_SIZE
        height: 144
        width: 144
        pad_mode: MIRRORED
        pad_value: 104
        pad_value: 117
        pad_value: 124
        interp_mode: LINEAR
        center_object: false
        max_angle: 0
      }
    }
    data_param {
      source: "/local/temporary/imagenet_clc_orig/ilsvrc12_val_lmdb"
      batch_size: 50
      backend: LMDB
    }
  }
  layer {
    name: "conv1"
    type: "Convolution"
    bottom: "data"
    top: "conv1"
    param {
      lr_mult: 1
      decay_mult: 1
    }
    param {
      lr_mult: 2
      decay_mult: 0
    }
    convolution_param {
      num_output: 96
      kernel_size: 11
      stride: 4
      weight_filler {
        type: "gaussian"
        std: 0.01
      }
      bias_filler {
        type: "constant"
      }
    }
  }
  layer {
    name: "relu1"
    type: "ReLU"
    bottom: "conv1"
    top: "relu1"
  }
  layer {
    name: "pool1"
    type: "Pooling"
    bottom: "relu1"
    top: "pool1"
    pooling_param {
      pool: MAX
      kernel_size: 3
      stride: 2
    }
  }
  layer {
    name: "conv2"
    type: "Convolution"
    bottom: "pool1"
    top: "conv2"
    param {
      lr_mult: 1
      decay_mult: 1
    }
    param {
      lr_mult: 2
      decay_mult: 0
    }
    convolution_param {
      num_output: 256
      pad: 2
      kernel_size: 5
      group: 2
      weight_filler {
        type: "gaussian"
        std: 0.01
      }
      bias_filler {
        type: "constant"
      }
    }
  }
  layer {
    name: "relu2"
    type: "ReLU"
    bottom: "conv2"
    top: "relu2"
  }
  layer {
    name: "pool2"
    type: "Pooling"
    bottom: "relu2"
    top: "pool2"
    pooling_param {
      pool: MAX
      kernel_size: 3
      stride: 2
    }
  }
  layer {
    name: "conv3"
    type: "Convolution"
    bottom: "pool2"
    top: "conv3"
    param {
      lr_mult: 1
      decay_mult: 1
    }
    param {
      lr_mult: 2
      decay_mult: 0
    }
    convolution_param {
      num_output: 384
      pad: 1
      kernel_size: 3
      weight_filler {
        type: "gaussian"
        std: 0.01
      }
      bias_filler {
        type: "constant"
      }
    }
  }
  layer {
    name: "relu3"
    type: "ReLU"
    bottom: "conv3"
    top: "relu3"
  }
  layer {
    name: "conv4"
    type: "Convolution"
    bottom: "relu3"
    top: "conv4"
    param {
      lr_mult: 1
      decay_mult: 1
    }
    param {
      lr_mult: 2
      decay_mult: 0
    }
    convolution_param {
      num_output: 384
      pad: 1
      kernel_size: 3
      group: 2
      weight_filler {
        type: "gaussian"
        std: 0.01
      }
      bias_filler {
        type: "constant"
      }
    }
  }
  layer {
    name: "relu4"
    type: "ReLU"
    bottom: "conv4"
    top: "relu4"
  }
  layer {
    name: "conv5"
    type: "Convolution"
    bottom: "relu4"
    top: "conv5"
    param {
      lr_mult: 1
      decay_mult: 1
    }
    param {
      lr_mult: 2
      decay_mult: 0
    }
    convolution_param {
      num_output: 256
      pad: 1
      kernel_size: 3
      group: 2
      weight_filler {
        type: "gaussian"
        std: 0.01
      }
      bias_filler {
        type: "constant"
      }
    }
  }
  layer {
    name: "relu5"
    type: "ReLU"
    bottom: "conv5"
    top: "relu5"
  }
  layer {
    name: "pool5"
    type: "Pooling"
    bottom: "relu5"
    top: "pool5"
    pooling_param {
      pool: MAX
      kernel_size: 3
      stride: 2
    }
  }
  layer {
    name: "fc6"
    type: "InnerProduct"
    bottom: "pool5"
    top: "fc6"
    param {
      lr_mult: 1
      decay_mult: 1
    }
    param {
      lr_mult: 2
      decay_mult: 0
    }
    inner_product_param {
      num_output: 2048
      weight_filler {
        type: "gaussian"
        std: 0.005
      }
      bias_filler {
        type: "constant"
      }
    }
  }
  layer {
    name: "relu6"
    type: "ReLU"
    bottom: "fc6"
    top: "relu6"
  }
  layer {
    name: "drop6"
    type: "Dropout"
    bottom: "relu6"
    top: "drop6"
    dropout_param {
      dropout_ratio: 0.5
    }
  }
  layer {
    name: "fc7"
    type: "InnerProduct"
    bottom: "drop6"
    top: "fc7"
    param {
      lr_mult: 1
      decay_mult: 1
    }
    param {
      lr_mult: 2
      decay_mult: 0
    }
    inner_product_param {
      num_output: 2048
      weight_filler {
        type: "gaussian"
        std: 0.005
      }
      bias_filler {
        type: "constant"
      }
    }
  }
  layer {
    name: "relu7"
    type: "ReLU"
    bottom: "fc7"
    top: "relu7"
  }
  layer {
    name: "drop7"
    type: "Dropout"
    bottom: "relu7"
    top: "drop7"
    dropout_param {
      dropout_ratio: 0.5
    }
  }
  layer {
    name: "fc8"
    type: "InnerProduct"
    bottom: "drop7"
    top: "fc8"
    param {
      lr_mult: 1
      decay_mult: 1
    }
    param {
      lr_mult: 2
      decay_mult: 0
    }
    inner_product_param {
      num_output: 1000
      weight_filler {
        type: "gaussian"
        std: 0.01
      }
      bias_filler {
        type: "constant"
      }
    }
  }
  layer {
    name: "accuracy"
    type: "Accuracy"
    bottom: "fc8"
    bottom: "label"
    top: "accuracy"
    include {
      phase: TEST
    }
  }
  layer {
    name: "loss"
    type: "SoftmaxWithLoss"
    bottom: "fc8"
    bottom: "label"
    top: "loss"
  }
}
delta: 1e-08
test_initialization: false
iter_size: 1
type: "AdaDelta"
I0124 13:55:20.940112  1045 solver.cpp:85] Creating training net specified in net_param.
I0124 13:55:20.940276  1045 net.cpp:322] The NetState phase (0) differed from the phase (1) specified by a rule in layer data
I0124 13:55:20.940326  1045 net.cpp:322] The NetState phase (0) differed from the phase (1) specified by a rule in layer accuracy
I0124 13:55:20.940649  1045 net.cpp:49] Initializing net from parameters: 
name: "CaffeNet"
state {
  phase: TRAIN
}
layer {
  name: "data"
  type: "Data"
  top: "data"
  top: "label"
  include {
    phase: TRAIN
  }
  transform_param {
    scale: 0.04
    mirror: true
    crop_size: 128
    mean_value: 104
    mean_value: 117
    mean_value: 124
    force_color: true
    resize_param {
      prob: 1
      resize_mode: FIT_SMALL_SIZE
      height: 144
      width: 144
      pad_mode: MIRRORED
      pad_value: 104
      pad_value: 117
      pad_value: 124
      interp_mode: LINEAR
      center_object: false
      max_angle: 0
    }
  }
  data_param {
    source: "/local/temporary/imagenet_clc_orig/ilsvrc12_train_shuffle_lmdb"
    batch_size: 128
    backend: LMDB
  }
}
layer {
  name: "conv1"
  type: "Convolution"
  bottom: "data"
  top: "conv1"
  param {
    lr_mult: 1
    decay_mult: 1
  }
  param {
    lr_mult: 2
    decay_mult: 0
  }
  convolution_param {
    num_output: 96
    kernel_size: 11
    stride: 4
    weight_filler {
      type: "gaussian"
      std: 0.01
    }
    bias_filler {
      type: "constant"
    }
  }
}
layer {
  name: "relu1"
  type: "ReLU"
  bottom: "conv1"
  top: "relu1"
}
layer {
  name: "pool1"
  type: "Pooling"
  bottom: "relu1"
  top: "pool1"
  pooling_param {
    pool: MAX
    kernel_size: 3
    stride: 2
  }
}
layer {
  name: "conv2"
  type: "Convolution"
  bottom: "pool1"
  top: "conv2"
  param {
    lr_mult: 1
    decay_mult: 1
  }
  param {
    lr_mult: 2
    decay_mult: 0
  }
  convolution_param {
    num_output: 256
    pad: 2
    kernel_size: 5
    group: 2
    weight_filler {
      type: "gaussian"
      std: 0.01
    }
    bias_filler {
      type: "constant"
    }
  }
}
layer {
  name: "relu2"
  type: "ReLU"
  bottom: "conv2"
  top: "relu2"
}
layer {
  name: "pool2"
  type: "Pooling"
  bottom: "relu2"
  top: "pool2"
  pooling_param {
    pool: MAX
    kernel_size: 3
    stride: 2
  }
}
layer {
  name: "conv3"
  type: "Convolution"
  bottom: "pool2"
  top: "conv3"
  param {
    lr_mult: 1
    decay_mult: 1
  }
  param {
    lr_mult: 2
    decay_mult: 0
  }
  convolution_param {
    num_output: 384
    pad: 1
    kernel_size: 3
    weight_filler {
      type: "gaussian"
      std: 0.01
    }
    bias_filler {
      type: "constant"
    }
  }
}
layer {
  name: "relu3"
  type: "ReLU"
  bottom: "conv3"
  top: "relu3"
}
layer {
  name: "conv4"
  type: "Convolution"
  bottom: "relu3"
  top: "conv4"
  param {
    lr_mult: 1
    decay_mult: 1
  }
  param {
    lr_mult: 2
    decay_mult: 0
  }
  convolution_param {
    num_output: 384
    pad: 1
    kernel_size: 3
    group: 2
    weight_filler {
      type: "gaussian"
      std: 0.01
    }
    bias_filler {
      type: "constant"
    }
  }
}
layer {
  name: "relu4"
  type: "ReLU"
  bottom: "conv4"
  top: "relu4"
}
layer {
  name: "conv5"
  type: "Convolution"
  bottom: "relu4"
  top: "conv5"
  param {
    lr_mult: 1
    decay_mult: 1
  }
  param {
    lr_mult: 2
    decay_mult: 0
  }
  convolution_param {
    num_output: 256
    pad: 1
    kernel_size: 3
    group: 2
    weight_filler {
      type: "gaussian"
      std: 0.01
    }
    bias_filler {
      type: "constant"
    }
  }
}
layer {
  name: "relu5"
  type: "ReLU"
  bottom: "conv5"
  top: "relu5"
}
layer {
  name: "pool5"
  type: "Pooling"
  bottom: "relu5"
  top: "pool5"
  pooling_param {
    pool: MAX
    kernel_size: 3
    stride: 2
  }
}
layer {
  name: "fc6"
  type: "InnerProduct"
  bottom: "pool5"
  top: "fc6"
  param {
    lr_mult: 1
    decay_mult: 1
  }
  param {
    lr_mult: 2
    decay_mult: 0
  }
  inner_product_param {
    num_output: 2048
    weight_filler {
      type: "gaussian"
      std: 0.005
    }
    bias_filler {
      type: "constant"
    }
  }
}
layer {
  name: "relu6"
  type: "ReLU"
  bottom: "fc6"
  top: "relu6"
}
layer {
  name: "drop6"
  type: "Dropout"
  bottom: "relu6"
  top: "drop6"
  dropout_param {
    dropout_ratio: 0.5
  }
}
layer {
  name: "fc7"
  type: "InnerProduct"
  bottom: "drop6"
  top: "fc7"
  param {
    lr_mult: 1
    decay_mult: 1
  }
  param {
    lr_mult: 2
    decay_mult: 0
  }
  inner_product_param {
    num_output: 2048
    weight_filler {
      type: "gaussian"
      std: 0.005
    }
    bias_filler {
      type: "constant"
    }
  }
}
layer {
  name: "relu7"
  type: "ReLU"
  bottom: "fc7"
  top: "relu7"
}
layer {
  name: "drop7"
  type: "Dropout"
  bottom: "relu7"
  top: "drop7"
  dropout_param {
    dropout_ratio: 0.5
  }
}
layer {
  name: "fc8"
  type: "InnerProduct"
  bottom: "drop7"
  top: "fc8"
  param {
    lr_mult: 1
    decay_mult: 1
  }
  param {
    lr_mult: 2
    decay_mult: 0
  }
  inner_product_param {
    num_output: 1000
    weight_filler {
      type: "gaussian"
      std: 0.01
    }
    bias_filler {
      type: "constant"
    }
  }
}
layer {
  name: "loss"
  type: "SoftmaxWithLoss"
  bottom: "fc8"
  bottom: "label"
  top: "loss"
}
I0124 13:55:20.940824  1045 layer_factory.hpp:76] Creating layer data
I0124 13:55:20.941561  1045 net.cpp:106] Creating Layer data
I0124 13:55:20.941587  1045 net.cpp:411] data -> data
I0124 13:55:20.941632  1045 net.cpp:411] data -> label
I0124 13:55:20.943125  1393 db_lmdb.cpp:38] Opened lmdb /local/temporary/imagenet_clc_orig/ilsvrc12_train_shuffle_lmdb
I0124 13:55:20.959707  1045 data_layer.cpp:41] output data size: 128,3,128,128
I0124 13:55:21.016793  1045 net.cpp:150] Setting up data
I0124 13:55:21.016841  1045 net.cpp:157] Top shape: 128 3 128 128 (6291456)
I0124 13:55:21.016847  1045 net.cpp:157] Top shape: 128 (128)
I0124 13:55:21.016850  1045 net.cpp:165] Memory required for data: 25166336
I0124 13:55:21.016865  1045 layer_factory.hpp:76] Creating layer conv1
I0124 13:55:21.016892  1045 net.cpp:106] Creating Layer conv1
I0124 13:55:21.016901  1045 net.cpp:454] conv1 <- data
I0124 13:55:21.016924  1045 net.cpp:411] conv1 -> conv1
I0124 13:55:21.160543  1045 cudnn_conv_layer.cpp:194] Reallocating workspace storage: 4356
I0124 13:55:21.160713  1045 net.cpp:150] Setting up conv1
I0124 13:55:21.160730  1045 net.cpp:157] Top shape: 128 96 30 30 (11059200)
I0124 13:55:21.160735  1045 net.cpp:165] Memory required for data: 69403136
I0124 13:55:21.160755  1045 layer_factory.hpp:76] Creating layer relu1
I0124 13:55:21.160768  1045 net.cpp:106] Creating Layer relu1
I0124 13:55:21.160774  1045 net.cpp:454] relu1 <- conv1
I0124 13:55:21.160783  1045 net.cpp:411] relu1 -> relu1
I0124 13:55:21.160995  1045 net.cpp:150] Setting up relu1
I0124 13:55:21.161005  1045 net.cpp:157] Top shape: 128 96 30 30 (11059200)
I0124 13:55:21.161010  1045 net.cpp:165] Memory required for data: 113639936
I0124 13:55:21.161013  1045 layer_factory.hpp:76] Creating layer pool1
I0124 13:55:21.161021  1045 net.cpp:106] Creating Layer pool1
I0124 13:55:21.161026  1045 net.cpp:454] pool1 <- relu1
I0124 13:55:21.161031  1045 net.cpp:411] pool1 -> pool1
I0124 13:55:21.161382  1045 net.cpp:150] Setting up pool1
I0124 13:55:21.161396  1045 net.cpp:157] Top shape: 128 96 15 15 (2764800)
I0124 13:55:21.161399  1045 net.cpp:165] Memory required for data: 124699136
I0124 13:55:21.161403  1045 layer_factory.hpp:76] Creating layer conv2
I0124 13:55:21.161417  1045 net.cpp:106] Creating Layer conv2
I0124 13:55:21.161422  1045 net.cpp:454] conv2 <- pool1
I0124 13:55:21.161427  1045 net.cpp:411] conv2 -> conv2
I0124 13:55:21.173712  1045 cudnn_conv_layer.cpp:194] Reallocating workspace storage: 28800
I0124 13:55:21.173735  1045 net.cpp:150] Setting up conv2
I0124 13:55:21.173743  1045 net.cpp:157] Top shape: 128 256 15 15 (7372800)
I0124 13:55:21.173745  1045 net.cpp:165] Memory required for data: 154190336
I0124 13:55:21.173758  1045 layer_factory.hpp:76] Creating layer relu2
I0124 13:55:21.173773  1045 net.cpp:106] Creating Layer relu2
I0124 13:55:21.173775  1045 net.cpp:454] relu2 <- conv2
I0124 13:55:21.173781  1045 net.cpp:411] relu2 -> relu2
I0124 13:55:21.173981  1045 net.cpp:150] Setting up relu2
I0124 13:55:21.173990  1045 net.cpp:157] Top shape: 128 256 15 15 (7372800)
I0124 13:55:21.173995  1045 net.cpp:165] Memory required for data: 183681536
I0124 13:55:21.174000  1045 layer_factory.hpp:76] Creating layer pool2
I0124 13:55:21.174010  1045 net.cpp:106] Creating Layer pool2
I0124 13:55:21.174015  1045 net.cpp:454] pool2 <- relu2
I0124 13:55:21.174020  1045 net.cpp:411] pool2 -> pool2
I0124 13:55:21.174403  1045 net.cpp:150] Setting up pool2
I0124 13:55:21.174415  1045 net.cpp:157] Top shape: 128 256 7 7 (1605632)
I0124 13:55:21.174427  1045 net.cpp:165] Memory required for data: 190104064
I0124 13:55:21.174430  1045 layer_factory.hpp:76] Creating layer conv3
I0124 13:55:21.174443  1045 net.cpp:106] Creating Layer conv3
I0124 13:55:21.174446  1045 net.cpp:454] conv3 <- pool2
I0124 13:55:21.174454  1045 net.cpp:411] conv3 -> conv3
I0124 13:55:21.204782  1045 net.cpp:150] Setting up conv3
I0124 13:55:21.204802  1045 net.cpp:157] Top shape: 128 384 7 7 (2408448)
I0124 13:55:21.204807  1045 net.cpp:165] Memory required for data: 199737856
I0124 13:55:21.204818  1045 layer_factory.hpp:76] Creating layer relu3
I0124 13:55:21.204828  1045 net.cpp:106] Creating Layer relu3
I0124 13:55:21.204833  1045 net.cpp:454] relu3 <- conv3
I0124 13:55:21.204840  1045 net.cpp:411] relu3 -> relu3
I0124 13:55:21.205225  1045 net.cpp:150] Setting up relu3
I0124 13:55:21.205242  1045 net.cpp:157] Top shape: 128 384 7 7 (2408448)
I0124 13:55:21.205250  1045 net.cpp:165] Memory required for data: 209371648
I0124 13:55:21.205255  1045 layer_factory.hpp:76] Creating layer conv4
I0124 13:55:21.205268  1045 net.cpp:106] Creating Layer conv4
I0124 13:55:21.205273  1045 net.cpp:454] conv4 <- relu3
I0124 13:55:21.205282  1045 net.cpp:411] conv4 -> conv4
I0124 13:55:21.229187  1045 net.cpp:150] Setting up conv4
I0124 13:55:21.229218  1045 net.cpp:157] Top shape: 128 384 7 7 (2408448)
I0124 13:55:21.229224  1045 net.cpp:165] Memory required for data: 219005440
I0124 13:55:21.229243  1045 layer_factory.hpp:76] Creating layer relu4
I0124 13:55:21.229259  1045 net.cpp:106] Creating Layer relu4
I0124 13:55:21.229264  1045 net.cpp:454] relu4 <- conv4
I0124 13:55:21.229270  1045 net.cpp:411] relu4 -> relu4
I0124 13:55:21.229495  1045 net.cpp:150] Setting up relu4
I0124 13:55:21.229504  1045 net.cpp:157] Top shape: 128 384 7 7 (2408448)
I0124 13:55:21.229507  1045 net.cpp:165] Memory required for data: 228639232
I0124 13:55:21.229511  1045 layer_factory.hpp:76] Creating layer conv5
I0124 13:55:21.229535  1045 net.cpp:106] Creating Layer conv5
I0124 13:55:21.229540  1045 net.cpp:454] conv5 <- relu4
I0124 13:55:21.229547  1045 net.cpp:411] conv5 -> conv5
I0124 13:55:21.246412  1045 net.cpp:150] Setting up conv5
I0124 13:55:21.246428  1045 net.cpp:157] Top shape: 128 256 7 7 (1605632)
I0124 13:55:21.246431  1045 net.cpp:165] Memory required for data: 235061760
I0124 13:55:21.246441  1045 layer_factory.hpp:76] Creating layer relu5
I0124 13:55:21.246450  1045 net.cpp:106] Creating Layer relu5
I0124 13:55:21.246454  1045 net.cpp:454] relu5 <- conv5
I0124 13:55:21.246459  1045 net.cpp:411] relu5 -> relu5
I0124 13:55:21.246680  1045 net.cpp:150] Setting up relu5
I0124 13:55:21.246692  1045 net.cpp:157] Top shape: 128 256 7 7 (1605632)
I0124 13:55:21.246698  1045 net.cpp:165] Memory required for data: 241484288
I0124 13:55:21.246702  1045 layer_factory.hpp:76] Creating layer pool5
I0124 13:55:21.246709  1045 net.cpp:106] Creating Layer pool5
I0124 13:55:21.246713  1045 net.cpp:454] pool5 <- relu5
I0124 13:55:21.246722  1045 net.cpp:411] pool5 -> pool5
I0124 13:55:21.247139  1045 net.cpp:150] Setting up pool5
I0124 13:55:21.247153  1045 net.cpp:157] Top shape: 128 256 3 3 (294912)
I0124 13:55:21.247159  1045 net.cpp:165] Memory required for data: 242663936
I0124 13:55:21.247164  1045 layer_factory.hpp:76] Creating layer fc6
I0124 13:55:21.247185  1045 net.cpp:106] Creating Layer fc6
I0124 13:55:21.247189  1045 net.cpp:454] fc6 <- pool5
I0124 13:55:21.247195  1045 net.cpp:411] fc6 -> fc6
I0124 13:55:21.401798  1045 net.cpp:150] Setting up fc6
I0124 13:55:21.401835  1045 net.cpp:157] Top shape: 128 2048 (262144)
I0124 13:55:21.401839  1045 net.cpp:165] Memory required for data: 243712512
I0124 13:55:21.401850  1045 layer_factory.hpp:76] Creating layer relu6
I0124 13:55:21.401862  1045 net.cpp:106] Creating Layer relu6
I0124 13:55:21.401867  1045 net.cpp:454] relu6 <- fc6
I0124 13:55:21.401875  1045 net.cpp:411] relu6 -> relu6
I0124 13:55:21.402151  1045 net.cpp:150] Setting up relu6
I0124 13:55:21.402164  1045 net.cpp:157] Top shape: 128 2048 (262144)
I0124 13:55:21.402168  1045 net.cpp:165] Memory required for data: 244761088
I0124 13:55:21.402170  1045 layer_factory.hpp:76] Creating layer drop6
I0124 13:55:21.402179  1045 net.cpp:106] Creating Layer drop6
I0124 13:55:21.402184  1045 net.cpp:454] drop6 <- relu6
I0124 13:55:21.402190  1045 net.cpp:411] drop6 -> drop6
I0124 13:55:21.402233  1045 net.cpp:150] Setting up drop6
I0124 13:55:21.402240  1045 net.cpp:157] Top shape: 128 2048 (262144)
I0124 13:55:21.402242  1045 net.cpp:165] Memory required for data: 245809664
I0124 13:55:21.402246  1045 layer_factory.hpp:76] Creating layer fc7
I0124 13:55:21.402256  1045 net.cpp:106] Creating Layer fc7
I0124 13:55:21.402261  1045 net.cpp:454] fc7 <- drop6
I0124 13:55:21.402267  1045 net.cpp:411] fc7 -> fc7
I0124 13:55:21.530138  1045 net.cpp:150] Setting up fc7
I0124 13:55:21.530202  1045 net.cpp:157] Top shape: 128 2048 (262144)
I0124 13:55:21.530206  1045 net.cpp:165] Memory required for data: 246858240
I0124 13:55:21.530217  1045 layer_factory.hpp:76] Creating layer relu7
I0124 13:55:21.530228  1045 net.cpp:106] Creating Layer relu7
I0124 13:55:21.530233  1045 net.cpp:454] relu7 <- fc7
I0124 13:55:21.530243  1045 net.cpp:411] relu7 -> relu7
I0124 13:55:21.530758  1045 net.cpp:150] Setting up relu7
I0124 13:55:21.530771  1045 net.cpp:157] Top shape: 128 2048 (262144)
I0124 13:55:21.530782  1045 net.cpp:165] Memory required for data: 247906816
I0124 13:55:21.530786  1045 layer_factory.hpp:76] Creating layer drop7
I0124 13:55:21.530798  1045 net.cpp:106] Creating Layer drop7
I0124 13:55:21.530803  1045 net.cpp:454] drop7 <- relu7
I0124 13:55:21.530830  1045 net.cpp:411] drop7 -> drop7
I0124 13:55:21.530871  1045 net.cpp:150] Setting up drop7
I0124 13:55:21.530879  1045 net.cpp:157] Top shape: 128 2048 (262144)
I0124 13:55:21.530881  1045 net.cpp:165] Memory required for data: 248955392
I0124 13:55:21.530884  1045 layer_factory.hpp:76] Creating layer fc8
I0124 13:55:21.530894  1045 net.cpp:106] Creating Layer fc8
I0124 13:55:21.530899  1045 net.cpp:454] fc8 <- drop7
I0124 13:55:21.530903  1045 net.cpp:411] fc8 -> fc8
I0124 13:55:21.593186  1045 net.cpp:150] Setting up fc8
I0124 13:55:21.593212  1045 net.cpp:157] Top shape: 128 1000 (128000)
I0124 13:55:21.593215  1045 net.cpp:165] Memory required for data: 249467392
I0124 13:55:21.593226  1045 layer_factory.hpp:76] Creating layer loss
I0124 13:55:21.593242  1045 net.cpp:106] Creating Layer loss
I0124 13:55:21.593247  1045 net.cpp:454] loss <- fc8
I0124 13:55:21.593253  1045 net.cpp:454] loss <- label
I0124 13:55:21.593261  1045 net.cpp:411] loss -> loss
I0124 13:55:21.593281  1045 layer_factory.hpp:76] Creating layer loss
…
  }
  transform_param {
    scale: 0.04
    mirror: false
    crop_size: 128
    mean_value: 104
    mean_value: 117
    mean_value: 123
    force_color: true
    resize_param {
      prob: 1
      resize_mode: FIT_SMALL_SIZE
      height: 144
      width: 144
      pad_mode: MIRRORED
      pad_value: 104
      pad_value: 117
      pad_value: 124
      interp_mode: LINEAR
      center_object: false
      max_angle: 0
    }
  }
  data_param {
    source: "/local/temporary/imagenet_clc_orig/ilsvrc12_val_lmdb"
    batch_size: 50
    backend: LMDB
  }
}
layer {
  name: "conv1"
  type: "Convolution"
  bottom: "data"
  top: "conv1"
  param {
    lr_mult: 1
    decay_mult: 1
  }
  param {
    lr_mult: 2
    decay_mult: 0
  }
  convolution_param {
    num_output: 96
    kernel_size: 11
    stride: 4
    weight_filler {
      type: "gaussian"
      std: 0.01
    }
    bias_filler {
      type: "constant"
    }
  }
}
layer {
  name: "relu1"
  type: "ReLU"
  bottom: "conv1"
  top: "relu1"
}
layer {
  name: "pool1"
  type: "Pooling"
  bottom: "relu1"
  top: "pool1"
  pooling_param {
    pool: MAX
    kernel_size: 3
    stride: 2
  }
}
layer {
  name: "conv2"
  type: "Convolution"
  bottom: "pool1"
  top: "conv2"
  param {
    lr_mult: 1
    decay_mult: 1
  }
  param {
    lr_mult: 2
    decay_mult: 0
  }
  convolution_param {
    num_output: 256
    pad: 2
    kernel_size: 5
    group: 2
    weight_filler {
      type: "gaussian"
      std: 0.01
    }
    bias_filler {
      type: "constant"
    }
  }
}
layer {
  name: "relu2"
  type: "ReLU"
  bottom: "conv2"
  top: "relu2"
}
layer {
  name: "pool2"
  type: "Pooling"
  bottom: "relu2"
  top: "pool2"
  pooling_param {
    pool: MAX
    kernel_size: 3
    stride: 2
  }
}
layer {
  name: "conv3"
  type: "Convolution"
  bottom: "pool2"
  top: "conv3"
  param {
    lr_mult: 1
    decay_mult: 1
  }
  param {
    lr_mult: 2
    decay_mult: 0
  }
  convolution_param {
    num_output: 384
    pad: 1
    kernel_size: 3
    weight_filler {
      type: "gaussian"
      std: 0.01
    }
    bias_filler {
      type: "constant"
    }
  }
}
layer {
  name: "relu3"
  type: "ReLU"
  bottom: "conv3"
  top: "relu3"
}
layer {
  name: "conv4"
  type: "Convolution"
  bottom: "relu3"
  top: "conv4"
  param {
    lr_mult: 1
    decay_mult: 1
  }
  param {
    lr_mult: 2
    decay_mult: 0
  }
  convolution_param {
    num_output: 384
    pad: 1
    kernel_size: 3
    group: 2
    weight_filler {
      type: "gaussian"
      std: 0.01
    }
    bias_filler {
      type: "constant"
    }
  }
}
layer {
  name: "relu4"
  type: "ReLU"
  bottom: "conv4"
  top: "relu4"
}
layer {
  name: "conv5"
  type: "Convolution"
  bottom: "relu4"
  top: "conv5"
  param {
    lr_mult: 1
    decay_mult: 1
  }
  param {
    lr_mult: 2
    decay_mult: 0
  }
  convolution_param {
    num_output: 256
    pad: 1
    kernel_size: 3
    group: 2
    weight_filler {
      type: "gaussian"
      std: 0.01
    }
    bias_filler {
      type: "constant"
    }
  }
}
layer {
  name: "relu5"
  type: "ReLU"
  bottom: "conv5"
  top: "relu5"
}
layer {
  name: "pool5"
  type: "Pooling"
  bottom: "relu5"
  top: "pool5"
  pooling_param {
    pool: MAX
    kernel_size: 3
    stride: 2
  }
}
layer {
  name: "fc6"
  type: "InnerProduct"
  bottom: "pool5"
  top: "fc6"
  param {
    lr_mult: 1
    decay_mult: 1
  }
  param {
    lr_mult: 2
    decay_mult: 0
  }
  inner_product_param {
    num_output: 2048
    weight_filler {
      type: "gaussian"
      std: 0.005
    }
    bias_filler {
      type: "constant"
    }
  }
}
layer {
  name: "relu6"
  type: "ReLU"
  bottom: "fc6"
  top: "relu6"
}
layer {
  name: "drop6"
  type: "Dropout"
  bottom: "relu6"
  top: "drop6"
  dropout_param {
    dropout_ratio: 0.5
  }
}
layer {
  name: "fc7"
  type: "InnerProduct"
  bottom: "drop6"
  top: "fc7"
  param {
    lr_mult: 1
    decay_mult: 1
  }
  param {
    lr_mult: 2
    decay_mult: 0
  }
  inner_product_param {
    num_output: 2048
    weight_filler {
      type: "gaussian"
      std: 0.005
    }
    bias_filler {
      type: "constant"
    }
  }
}
layer {
  name: "relu7"
  type: "ReLU"
  bottom: "fc7"
  top: "relu7"
}
layer {
  name: "drop7"
  type: "Dropout"
  bottom: "relu7"
  top: "drop7"
  dropout_param {
    dropout_ratio: 0.5
  }
}
layer {
  name: "fc8"
  type: "InnerProduct"
  bottom: "drop7"
  top: "fc8"
  param {
    lr_mult: 1
    decay_mult: 1
  }
  param {
    lr_mult: 2
    decay_mult: 0
  }
  inner_product_param {
    num_output: 1000
    weight_filler {
      type: "gaussian"
      std: 0.01
    }
    bias_filler {
      type: "constant"
    }
  }
}
layer {
  name: "accuracy"
  type: "Accuracy"
  bottom: "fc8"
  bottom: "label"
  top: "accuracy"
  include {
    phase: TEST
  }
}
layer {
  name: "loss"
  type: "SoftmaxWithLoss"
  bottom: "fc8"
  bottom: "label"
  top: "loss"
}
I0124 13:55:21.595311  1045 layer_factory.hpp:76] Creating layer data
I0124 13:55:21.595414  1045 net.cpp:106] Creating Layer data
I0124 13:55:21.595434  1045 net.cpp:411] data -> data
I0124 13:55:21.595444  1045 net.cpp:411] data -> label
I0124 13:55:21.596513  1530 db_lmdb.cpp:38] Opened lmdb /local/temporary/imagenet_clc_orig/ilsvrc12_val_lmdb
I0124 13:55:21.599218  1045 data_layer.cpp:41] output data size: 50,3,128,128
I0124 13:55:21.618832  1045 net.cpp:150] Setting up data
I0124 13:55:21.618875  1045 net.cpp:157] Top shape: 50 3 128 128 (2457600)
I0124 13:55:21.618881  1045 net.cpp:157] Top shape: 50 (50)
I0124 13:55:21.618885  1045 net.cpp:165] Memory required for data: 9830600
I0124 13:55:21.618891  1045 layer_factory.hpp:76] Creating layer label_data_1_split
I0124 13:55:21.618906  1045 net.cpp:106] Creating Layer label_data_1_split
I0124 13:55:21.618911  1045 net.cpp:454] label_data_1_split <- label
I0124 13:55:21.618918  1045 net.cpp:411] label_data_1_split -> label_data_1_split_0
I0124 13:55:21.618937  1045 net.cpp:411] label_data_1_split -> label_data_1_split_1
I0124 13:55:21.619035  1045 net.cpp:150] Setting up label_data_1_split
I0124 13:55:21.619045  1045 net.cpp:157] Top shape: 50 (50)
I0124 13:55:21.619048  1045 net.cpp:157] Top shape: 50 (50)
I0124 13:55:21.619051  1045 net.cpp:165] Memory required for data: 9831000
I0124 13:55:21.619055  1045 layer_factory.hpp:76] Creating layer conv1
I0124 13:55:21.619067  1045 net.cpp:106] Creating Layer conv1
I0124 13:55:21.619072  1045 net.cpp:454] conv1 <- data
I0124 13:55:21.619078  1045 net.cpp:411] conv1 -> conv1
I0124 13:55:21.621357  1045 cudnn_conv_layer.cpp:194] Reallocating workspace storage: 4356
I0124 13:55:21.621414  1045 net.cpp:150] Setting up conv1
I0124 13:55:21.621425  1045 net.cpp:157] Top shape: 50 96 30 30 (4320000)
I0124 13:55:21.621428  1045 net.cpp:165] Memory required for data: 27111000
I0124 13:55:21.621440  1045 layer_factory.hpp:76] Creating layer relu1
I0124 13:55:21.621449  1045 net.cpp:106] Creating Layer relu1
I0124 13:55:21.621454  1045 net.cpp:454] relu1 <- conv1
I0124 13:55:21.621459  1045 net.cpp:411] relu1 -> relu1
I0124 13:55:21.621781  1045 net.cpp:150] Setting up relu1
I0124 13:55:21.621793  1045 net.cpp:157] Top shape: 50 96 30 30 (4320000)
I0124 13:55:21.621798  1045 net.cpp:165] Memory required for data: 44391000
I0124 13:55:21.621801  1045 layer_factory.hpp:76] Creating layer pool1
I0124 13:55:21.621814  1045 net.cpp:106] Creating Layer pool1
I0124 13:55:21.621816  1045 net.cpp:454] pool1 <- relu1
I0124 13:55:21.621822  1045 net.cpp:411] pool1 -> pool1
I0124 13:55:21.622030  1045 net.cpp:150] Setting up pool1
I0124 13:55:21.622040  1045 net.cpp:157] Top shape: 50 96 15 15 (1080000)
I0124 13:55:21.622058  1045 net.cpp:165] Memory required for data: 48711000
I0124 13:55:21.622062  1045 layer_factory.hpp:76] Creating layer conv2
I0124 13:55:21.622072  1045 net.cpp:106] Creating Layer conv2
I0124 13:55:21.622077  1045 net.cpp:454] conv2 <- pool1
I0124 13:55:21.622083  1045 net.cpp:411] conv2 -> conv2
I0124 13:55:21.633430  1045 cudnn_conv_layer.cpp:194] Reallocating workspace storage: 28800
I0124 13:55:21.633486  1045 net.cpp:150] Setting up conv2
I0124 13:55:21.633493  1045 net.cpp:157] Top shape: 50 256 15 15 (2880000)
I0124 13:55:21.633496  1045 net.cpp:165] Memory required for data: 60231000
I0124 13:55:21.633520  1045 layer_factory.hpp:76] Creating layer relu2
I0124 13:55:21.633529  1045 net.cpp:106] Creating Layer relu2
I0124 13:55:21.633548  1045 net.cpp:454] relu2 <- conv2
I0124 13:55:21.633553  1045 net.cpp:411] relu2 -> relu2
I0124 13:55:21.633772  1045 net.cpp:150] Setting up relu2
I0124 13:55:21.633783  1045 net.cpp:157] Top shape: 50 256 15 15 (2880000)
I0124 13:55:21.633786  1045 net.cpp:165] Memory required for data: 71751000
I0124 13:55:21.633791  1045 layer_factory.hpp:76] Creating layer pool2
I0124 13:55:21.633800  1045 net.cpp:106] Creating Layer pool2
I0124 13:55:21.633805  1045 net.cpp:454] pool2 <- relu2
I0124 13:55:21.633810  1045 net.cpp:411] pool2 -> pool2
I0124 13:55:21.634165  1045 net.cpp:150] Setting up pool2
I0124 13:55:21.634174  1045 net.cpp:157] Top shape: 50 256 7 7 (627200)
I0124 13:55:21.634189  1045 net.cpp:165] Memory required for data: 74259800
I0124 13:55:21.634192  1045 layer_factory.hpp:76] Creating layer conv3
I0124 13:55:21.634205  1045 net.cpp:106] Creating Layer conv3
I0124 13:55:21.634208  1045 net.cpp:454] conv3 <- pool2
I0124 13:55:21.634213  1045 net.cpp:411] conv3 -> conv3
I0124 13:55:21.662154  1045 cudnn_conv_layer.cpp:194] Reallocating workspace storage: 27648
I0124 13:55:21.662184  1045 net.cpp:150] Setting up conv3
I0124 13:55:21.662190  1045 net.cpp:157] Top shape: 50 384 7 7 (940800)
I0124 13:55:21.662194  1045 net.cpp:165] Memory required for data: 78023000
I0124 13:55:21.662205  1045 layer_factory.hpp:76] Creating layer relu3
I0124 13:55:21.662214  1045 net.cpp:106] Creating Layer relu3
I0124 13:55:21.662219  1045 net.cpp:454] relu3 <- conv3
I0124 13:55:21.662230  1045 net.cpp:411] relu3 -> relu3
I0124 13:55:21.662457  1045 net.cpp:150] Setting up relu3
I0124 13:55:21.662467  1045 net.cpp:157] Top shape: 50 384 7 7 (940800)
I0124 13:55:21.662472  1045 net.cpp:165] Memory required for data: 81786200
I0124 13:55:21.662474  1045 layer_factory.hpp:76] Creating layer conv4
I0124 13:55:21.662489  1045 net.cpp:106] Creating Layer conv4
I0124 13:55:21.662493  1045 net.cpp:454] conv4 <- relu3
I0124 13:55:21.662502  1045 net.cpp:411] conv4 -> conv4
I0124 13:55:21.684851  1045 net.cpp:150] Setting up conv4
I0124 13:55:21.684869  1045 net.cpp:157] Top shape: 50 384 7 7 (940800)
I0124 13:55:21.684872  1045 net.cpp:165] Memory required for data: 85549400
I0124 13:55:21.684880  1045 layer_factory.hpp:76] Creating layer relu4
I0124 13:55:21.684887  1045 net.cpp:106] Creating Layer relu4
I0124 13:55:21.684893  1045 net.cpp:454] relu4 <- conv4
I0124 13:55:21.684900  1045 net.cpp:411] relu4 -> relu4
I0124 13:55:21.685124  1045 net.cpp:150] Setting up relu4
I0124 13:55:21.685138  1045 net.cpp:157] Top shape: 50 384 7 7 (940800)
I0124 13:55:21.685142  1045 net.cpp:165] Memory required for data: 89312600
I0124 13:55:21.685148  1045 layer_factory.hpp:76] Creating layer conv5
I0124 13:55:21.685164  1045 net.cpp:106] Creating Layer conv5
I0124 13:55:21.685201  1045 net.cpp:454] conv5 <- relu4
I0124 13:55:21.685217  1045 net.cpp:411] conv5 -> conv5
I0124 13:55:21.700656  1045 net.cpp:150] Setting up conv5
I0124 13:55:21.700670  1045 net.cpp:157] Top shape: 50 256 7 7 (627200)
I0124 13:55:21.700673  1045 net.cpp:165] Memory required for data: 91821400
I0124 13:55:21.700685  1045 layer_factory.hpp:76] Creating layer relu5
I0124 13:55:21.700691  1045 net.cpp:106] Creating Layer relu5
I0124 13:55:21.700696  1045 net.cpp:454] relu5 <- conv5
I0124 13:55:21.700714  1045 net.cpp:411] relu5 -> relu5
I0124 13:55:21.701064  1045 net.cpp:150] Setting up relu5
I0124 13:55:21.701076  1045 net.cpp:157] Top shape: 50 256 7 7 (627200)
I0124 13:55:21.701079  1045 net.cpp:165] Memory required for data: 94330200
I0124 13:55:21.701083  1045 layer_factory.hpp:76] Creating layer pool5
I0124 13:55:21.701091  1045 net.cpp:106] Creating Layer pool5
I0124 13:55:21.701093  1045 net.cpp:454] pool5 <- relu5
I0124 13:55:21.701145  1045 net.cpp:411] pool5 -> pool5
I0124 13:55:21.701388  1045 net.cpp:150] Setting up pool5
I0124 13:55:21.701398  1045 net.cpp:157] Top shape: 50 256 3 3 (115200)
I0124 13:55:21.701403  1045 net.cpp:165] Memory required for data: 94791000
I0124 13:55:21.701406  1045 layer_factory.hpp:76] Creating layer fc6
I0124 13:55:21.701416  1045 net.cpp:106] Creating Layer fc6
I0124 13:55:21.701419  1045 net.cpp:454] fc6 <- pool5
I0124 13:55:21.701426  1045 net.cpp:411] fc6 -> fc6
I0124 13:55:21.844832  1045 net.cpp:150] Setting up fc6
I0124 13:55:21.844854  1045 net.cpp:157] Top shape: 50 2048 (102400)
I0124 13:55:21.844858  1045 net.cpp:165] Memory required for data: 95200600
I0124 13:55:21.844868  1045 layer_factory.hpp:76] Creating layer relu6
I0124 13:55:21.844880  1045 net.cpp:106] Creating Layer relu6
I0124 13:55:21.844884  1045 net.cpp:454] relu6 <- fc6
I0124 13:55:21.844893  1045 net.cpp:411] relu6 -> relu6
I0124 13:55:21.845403  1045 net.cpp:150] Setting up relu6
I0124 13:55:21.845415  1045 net.cpp:157] Top shape: 50 2048 (102400)
I0124 13:55:21.845429  1045 net.cpp:165] Memory required for data: 95610200
I0124 13:55:21.845433  1045 layer_factory.hpp:76] Creating layer drop6
I0124 13:55:21.845440  1045 net.cpp:106] Creating Layer drop6
I0124 13:55:21.845445  1045 net.cpp:454] drop6 <- relu6
I0124 13:55:21.845451  1045 net.cpp:411] drop6 -> drop6
I0124 13:55:21.845509  1045 net.cpp:150] Setting up drop6
I0124 13:55:21.845516  1045 net.cpp:157] Top shape: 50 2048 (102400)
I0124 13:55:21.845520  1045 net.cpp:165] Memory required for data: 96019800
I0124 13:55:21.845522  1045 layer_factory.hpp:76] Creating layer fc7
I0124 13:55:21.845532  1045 net.cpp:106] Creating Layer fc7
I0124 13:55:21.845537  1045 net.cpp:454] fc7 <- drop6
I0124 13:55:21.845544  1045 net.cpp:411] fc7 -> fc7
I0124 13:55:21.972941  1045 net.cpp:150] Setting up fc7
I0124 13:55:21.972992  1045 net.cpp:157] Top shape: 50 2048 (102400)
I0124 13:55:21.972996  1045 net.cpp:165] Memory required for data: 96429400
I0124 13:55:21.973007  1045 layer_factory.hpp:76] Creating layer relu7
I0124 13:55:21.973018  1045 net.cpp:106] Creating Layer relu7
I0124 13:55:21.973022  1045 net.cpp:454] relu7 <- fc7
I0124 13:55:21.973031  1045 net.cpp:411] relu7 -> relu7
I0124 13:55:21.973300  1045 net.cpp:150] Setting up relu7
I0124 13:55:21.973310  1045 net.cpp:157] Top shape: 50 2048 (102400)
I0124 13:55:21.973314  1045 net.cpp:165] Memory required for data: 96839000
I0124 13:55:21.973317  1045 layer_factory.hpp:76] Creating layer drop7
I0124 13:55:21.973325  1045 net.cpp:106] Creating Layer drop7
I0124 13:55:21.973327  1045 net.cpp:454] drop7 <- relu7
I0124 13:55:21.973335  1045 net.cpp:411] drop7 -> drop7
I0124 13:55:21.973374  1045 net.cpp:150] Setting up drop7
I0124 13:55:21.973381  1045 net.cpp:157] Top shape: 50 2048 (102400)
I0124 13:55:21.973384  1045 net.cpp:165] Memory required for data: 97248600
I0124 13:55:21.973387  1045 layer_factory.hpp:76] Creating layer fc8
I0124 13:55:21.973397  1045 net.cpp:106] Creating Layer fc8
I0124 13:55:21.973402  1045 net.cpp:454] fc8 <- drop7
I0124 13:55:21.973407  1045 net.cpp:411] fc8 -> fc8
I0124 13:55:22.035614  1045 net.cpp:150] Setting up fc8
I0124 13:55:22.035637  1045 net.cpp:157] Top shape: 50 1000 (50000)
I0124 13:55:22.035640  1045 net.cpp:165] Memory required for data: 97448600
I0124 13:55:22.035650  1045 layer_factory.hpp:76] Creating layer fc8_fc8_0_split
I0124 13:55:22.035661  1045 net.cpp:106] Creating Layer fc8_fc8_0_split
I0124 13:55:22.035665  1045 net.cpp:454] fc8_fc8_0_split <- fc8
I0124 13:55:22.035681  1045 net.cpp:411] fc8_fc8_0_split -> fc8_fc8_0_split_0
I0124 13:55:22.035691  1045 net.cpp:411] fc8_fc8_0_split -> fc8_fc8_0_split_1
I0124 13:55:22.035738  1045 net.cpp:150] Setting up fc8_fc8_0_split
I0124 13:55:22.035745  1045 net.cpp:157] Top shape: 50 1000 (50000)
I0124 13:55:22.035749  1045 net.cpp:157] Top shape: 50 1000 (50000)
I0124 13:55:22.035753  1045 net.cpp:165] Memory required for data: 97848600
I0124 13:55:22.035756  1045 layer_factory.hpp:76] Creating layer accuracy
I0124 13:55:22.035799  1045 net.cpp:106] Creating Layer accuracy
I0124 13:55:22.035802  1045 net.cpp:454] accuracy <- fc8_fc8_0_split_0
I0124 13:55:22.035806  1045 net.cpp:454] accuracy <- label_data_1_split_0
I0124 13:55:22.035811  1045 net.cpp:411] accuracy -> accuracy
…
