…
    data_param {
      source: "/media/dereyly/data_one/data/CAFFE_DATA/imagenet_train_150"
      batch_size: 256
      backend: LMDB
    }
  }
  layer {
    name: "data"
    type: "Data"
    top: "data"
    top: "label"
    include {
      phase: TEST
    }
    transform_param {
      scale: 0.04
      mirror: false
      crop_size: 128
      mean_value: 104
      mean_value: 117
      mean_value: 123
    }
    data_param {
      source: "/media/dereyly/data_fast/data/DATA_CAFFE/imagenet_val_144_2"
      batch_size: 100
      backend: LMDB
    }
  }
  layer {
    name: "conv1"
    type: "Convolution"
    bottom: "data"
    top: "conv1"
    param {
      lr_mult: 1
      decay_mult: 1
    }
    convolution_param {
      num_output: 64
      pad: 0
      kernel_size: 7
      stride: 2
      weight_filler {
        type: "xavier"
      }
    }
  }
  layer {
    name: "conv1_relu"
    type: "ReLU"
    bottom: "conv1"
    top: "conv1"
  }
  layer {
    name: "pool1"
    type: "Pooling"
    bottom: "conv1"
    top: "pool1"
    pooling_param {
      pool: MAX
      kernel_size: 3
      stride: 2
      pad: 1
    }
  }
  layer {
    name: "pool1_elu"
    type: "ELU"
    bottom: "pool1"
    top: "pool1"
    elu_param {
      alpha: 1
    }
  }
  layer {
    name: "conv1_conv2_proj"
    type: "Convolution"
    bottom: "pool1"
    top: "conv1_conv2_proj"
    param {
      lr_mult: 1
      decay_mult: 1
    }
    convolution_param {
      num_output: 128
      pad: 0
      kernel_size: 1
      stride: 1
      weight_filler {
        type: "xavier"
      }
    }
  }
  layer {
    name: "conv1_conv3_proj"
    type: "Convolution"
    bottom: "pool1"
    top: "conv1_conv3_proj"
    param {
      lr_mult: 1
      decay_mult: 1
    }
    convolution_param {
      num_output: 256
      pad: 0
      kernel_size: 1
      stride: 2
      weight_filler {
        type: "xavier"
      }
    }
  }
  layer {
    name: "conv2_res1_proj"
    type: "Convolution"
    bottom: "pool1"
    top: "conv2_res1_proj"
    param {
      lr_mult: 1
      decay_mult: 1
    }
    convolution_param {
      num_output: 128
      pad: 0
      kernel_size: 1
      stride: 1
      weight_filler {
        type: "xavier"
      }
    }
  }
  layer {
    name: "conv2_res1_conv1"
    type: "Convolution"
    bottom: "pool1"
    top: "conv2_res1_conv1"
    param {
      lr_mult: 1
      decay_mult: 1
    }
    convolution_param {
      num_output: 32
      pad: 0
      kernel_size: 1
      stride: 1
      weight_filler {
        type: "xavier"
      }
    }
  }
  layer {
    name: "conv2_res1_conv1_elu"
    type: "ELU"
    bottom: "conv2_res1_conv1"
    top: "conv2_res1_conv1"
    elu_param {
      alpha: 1
    }
  }
  layer {
    name: "conv2_res1_conv2"
    type: "Convolution"
    bottom: "conv2_res1_conv1"
    top: "conv2_res1_conv2"
    param {
      lr_mult: 1
      decay_mult: 1
    }
    convolution_param {
      num_output: 32
      pad: 1
      kernel_size: 3
      stride: 1
      weight_filler {
        type: "xavier"
      }
    }
  }
  layer {
    name: "conv2_res1_conv2_elu"
    type: "ELU"
    bottom: "conv2_res1_conv2"
    top: "conv2_res1_conv2"
    elu_param {
      alpha: 1
    }
  }
  layer {
    name: "conv2_res1_conv3"
    type: "Convolution"
    bottom: "conv2_res1_conv2"
    top: "conv2_res1_conv3"
    param {
      lr_mult: 1
      decay_mult: 1
    }
    convolution_param {
      num_output: 128
      pad: 0
      kernel_size: 1
      stride: 1
      weight_filler {
        type: "xavier"
      }
    }
  }
  layer {
    name: "conv2_res1"
    type: "Eltwise"
    bottom: "conv2_res1_proj"
    bottom: "conv2_res1_conv3"
    top: "conv2_res1"
  }
  layer {
    name: "conv2_res1_elu"
    type: "ELU"
    bottom: "conv2_res1"
    top: "conv2_res1"
    elu_param {
      alpha: 1
    }
  }
  layer {
    name: "conv2_res2_conv1"
    type: "Convolution"
    bottom: "conv2_res1"
    top: "conv2_res2_conv1"
    param {
      lr_mult: 1
      decay_mult: 1
    }
    convolution_param {
      num_output: 32
      pad: 0
      kernel_size: 1
      stride: 1
      weight_filler {
        type: "xavier"
      }
    }
  }
  layer {
    name: "conv2_res2_conv1_elu"
    type: "ELU"
    bottom: "conv2_res2_conv1"
    top: "conv2_res2_conv1"
    elu_param {
      alpha: 1
    }
  }
  layer {
    name: "conv2_res2_conv2"
    type: "Convolution"
    bottom: "conv2_res2_conv1"
    top: "conv2_res2_conv2"
    param {
      lr_mult: 1
      decay_mult: 1
    }
    convolution_param {
      num_output: 32
      pad: 1
      kernel_size: 3
      stride: 1
      weight_filler {
        type: "xavier"
      }
    }
  }
  layer {
    name: "conv2_res2_conv2_elu"
    type: "ELU"
    bottom: "conv2_res2_conv2"
    top: "conv2_res2_conv2"
    elu_param {
      alpha: 1
    }
  }
  layer {
    name: "conv2_res2_conv3"
    type: "Convolution"
    bottom: "conv2_res2_conv2"
    top: "conv2_res2_conv3"
    param {
      lr_mult: 1
      decay_mult: 1
    }
    convolution_param {
      num_output: 32
      pad: 1
      kernel_size: 3
      stride: 1
      weight_filler {
        type: "xavier"
      }
    }
  }
  layer {
    name: "conv2_res2_conv3_elu"
    type: "ELU"
    bottom: "conv2_res2_conv3"
    top: "conv2_res2_conv3"
    elu_param {
      alpha: 1
    }
  }
  layer {
    name: "conv2_res2_conv4"
    type: "Convolution"
    bottom: "conv2_res2_conv3"
    top: "conv2_res2_conv4"
    param {
      lr_mult: 1
      decay_mult: 1
    }
    convolution_param {
      num_output: 128
      pad: 0
      kernel_size: 1
      stride: 1
      weight_filler {
        type: "xavier"
      }
    }
  }
  layer {
    name: "conv2_res2"
    type: "Eltwise"
    bottom: "conv2_res1"
    bottom: "conv2_res2_conv4"
    top: "conv2_res2"
  }
  layer {
    name: "conv2_res2_elu"
    type: "ELU"
    bottom: "conv2_res2"
    top: "conv2_res2"
    elu_param {
      alpha: 1
    }
  }
  layer {
    name: "conv2_res3_conv1"
    type: "Convolution"
    bottom: "conv2_res2"
    top: "conv2_res3_conv1"
    param {
      lr_mult: 1
      decay_mult: 1
    }
    convolution_param {
      num_output: 32
      pad: 0
      kernel_size: 1
      stride: 1
      weight_filler {
        type: "xavier"
      }
    }
  }
  layer {
    name: "conv2_res3_conv1_elu"
    type: "ELU"
    bottom: "conv2_res3_conv1"
    top: "conv2_res3_conv1"
    elu_param {
      alpha: 1
    }
  }
  layer {
    name: "conv2_res3_conv2"
    type: "Convolution"
    bottom: "conv2_res3_conv1"
    top: "conv2_res3_conv2"
    param {
      lr_mult: 1
      decay_mult: 1
    }
    convolution_param {
      num_output: 32
      pad: 1
      kernel_size: 3
      stride: 1
      weight_filler {
        type: "xavier"
      }
    }
  }
  layer {
    name: "conv2_res3_conv2_elu"
    type: "ELU"
    bottom: "conv2_res3_conv2"
    top: "conv2_res3_conv2"
    elu_param {
      alpha: 1
    }
  }
  layer {
    name: "conv2_res3_conv3"
    type: "Convolution"
    bottom: "conv2_res3_conv2"
    top: "conv2_res3_conv3"
    param {
      lr_mult: 1
      decay_mult: 1
    }
    convolution_param {
      num_output: 32
      pad: 1
      kernel_size: 3
      stride: 1
      weight_filler {
        type: "xavier"
      }
    }
  }
  layer {
    name: "conv2_res3_conv3_elu"
    type: "ELU"
    bottom: "conv2_res3_conv3"
    top: "conv2_res3_conv3"
    elu_param {
      alpha: 1
    }
  }
  layer {
    name: "conv2_res3_conv4"
    type: "Convolution"
    bottom: "conv2_res3_conv3"
    top: "conv2_res3_conv4"
    param {
      lr_mult: 1
      decay_mult: 1
    }
    convolution_param {
      num_output: 128
      pad: 0
      kernel_size: 1
      stride: 1
      weight_filler {
        type: "xavier"
      }
    }
  }
  layer {
    name: "conv2_res3"
    type: "Eltwise"
    bottom: "conv2_res2"
    bottom: "conv2_res3_conv4"
    bottom: "conv1_conv2_proj"
    top: "conv2_res3"
  }
  layer {
    name: "pool2"
    type: "Pooling"
    bottom: "conv2_res3"
    top: "pool2"
    pooling_param {
      pool: MAX
      kernel_size: 2
      stride: 2
      pad: 0
    }
  }
  layer {
    name: "pool2_elu"
    type: "ELU"
    bottom: "pool2"
    top: "pool2"
    elu_param {
      alpha: 1
    }
  }
  layer {
    name: "conv2_conv3_proj"
    type: "Convolution"
    bottom: "pool2"
    top: "conv2_conv3_proj"
    param {
      lr_mult: 1
      decay_mult: 1
    }
    convolution_param {
      num_output: 256
      pad: 0
      kernel_size: 1
      stride: 1
      weight_filler {
        type: "xavier"
      }
    }
  }
  layer {
    name: "conv2_conv4_proj"
    type: "Convolution"
    bottom: "pool2"
    top: "conv2_conv4_proj"
    param {
      lr_mult: 1
      decay_mult: 1
    }
    convolution_param {
      num_output: 512
      pad: 0
      kernel_size: 1
      stride: 2
      weight_filler {
        type: "xavier"
      }
    }
  }
  layer {
    name: "conv2_conv5_proj"
    type: "Convolution"
    bottom: "pool2"
    top: "conv2_conv5_proj"
    param {
      lr_mult: 1
      decay_mult: 1
    }
    convolution_param {
      num_output: 1024
      pad: 0
      kernel_size: 1
      stride: 4
      weight_filler {
        type: "xavier"
      }
    }
  }
  layer {
    name: "conv3_res1_proj"
    type: "Convolution"
    bottom: "pool2"
    top: "conv3_res1_proj"
    param {
      lr_mult: 1
      decay_mult: 1
    }
    convolution_param {
      num_output: 256
      pad: 0
      kernel_size: 1
      stride: 1
      weight_filler {
        type: "xavier"
      }
    }
  }
  layer {
    name: "conv3_res1_conv1"
    type: "Convolution"
    bottom: "pool2"
    top: "conv3_res1_conv1"
    param {
      lr_mult: 1
      decay_mult: 1
    }
    convolution_param {
      num_output: 64
      pad: 0
      kernel_size: 1
      stride: 1
      weight_filler {
        type: "xavier"
      }
    }
  }
  layer {
    name: "conv3_res1_conv1_elu"
    type: "ELU"
    bottom: "conv3_res1_conv1"
    top: "conv3_res1_conv1"
    elu_param {
      alpha: 1
    }
  }
  layer {
    name: "conv3_res1_conv2"
    type: "Convolution"
    bottom: "conv3_res1_conv1"
    top: "conv3_res1_conv2"
    param {
      lr_mult: 1
      decay_mult: 1
    }
    convolution_param {
      num_output: 64
      pad: 1
      kernel_size: 3
      stride: 1
      weight_filler {
        type: "xavier"
      }
    }
  }
  layer {
    name: "conv3_res1_conv2_elu"
    type: "ELU"
    bottom: "conv3_res1_conv2"
    top: "conv3_res1_conv2"
    elu_param {
      alpha: 1
    }
  }
  layer {
    name: "conv3_res1_conv3"
    type: "Convolution"
    bottom: "conv3_res1_conv2"
    top: "conv3_res1_conv3"
    param {
      lr_mult: 1
      decay_mult: 1
    }
    convolution_param {
      num_output: 256
      pad: 0
      kernel_size: 1
      stride: 1
      weight_filler {
        type: "xavier"
      }
    }
  }
  layer {
    name: "conv3_res1"
    type: "Eltwise"
    bottom: "conv3_res1_proj"
    bottom: "conv3_res1_conv3"
    top: "conv3_res1"
  }
  layer {
    name: "conv3_res1_elu"
    type: "ELU"
    bottom: "conv3_res1"
    top: "conv3_res1"
    elu_param {
      alpha: 1
    }
  }
  layer {
    name: "conv3_res2_conv1"
    type: "Convolution"
    bottom: "conv3_res1"
    top: "conv3_res2_conv1"
    param {
      lr_mult: 1
      decay_mult: 1
    }
    convolution_param {
      num_output: 64
      bias_term: false
      stride: 1
      weight_filler {
        type: "xavier"
      }
      pad_h: 0
      pad_w: 1
      kernel_h: 1
      kernel_w: 3
    }
  }
  layer {
    name: "conv3_res2_conv1_elu"
    type: "ELU"
    bottom: "conv3_res2_conv1"
    top: "conv3_res2_conv1"
    elu_param {
      alpha: 1
    }
  }
  layer {
    name: "conv3_res2_conv2"
    type: "Convolution"
    bottom: "conv3_res2_conv1"
    top: "conv3_res2_conv2"
    param {
      lr_mult: 1
      decay_mult: 1
    }
    convolution_param {
      num_output: 256
      bias_term: false
      stride: 1
      weight_filler {
        type: "xavier"
      }
      pad_h: 1
      pad_w: 0
      kernel_h: 3
      kernel_w: 1
    }
  }
  layer {
    name: "conv3_res2"
    type: "Eltwise"
    bottom: "conv3_res1"
    bottom: "conv3_res2_conv2"
    top: "conv3_res2"
  }
  layer {
    name: "conv3_res2_elu"
    type: "ELU"
    bottom: "conv3_res2"
    top: "conv3_res2"
    elu_param {
      alpha: 1
    }
  }
  layer {
    name: "conv3_res3_conv1"
    type: "Convolution"
    bottom: "conv3_res2"
    top: "conv3_res3_conv1"
    param {
      lr_mult: 1
      decay_mult: 1
    }
    convolution_param {
      num_output: 64
      pad: 0
      kernel_size: 1
      stride: 1
      weight_filler {
        type: "xavier"
      }
    }
  }
  layer {
    name: "conv3_res3_conv1_elu"
    type: "ELU"
    bottom: "conv3_res3_conv1"
    top: "conv3_res3_conv1"
    elu_param {
      alpha: 1
    }
  }
  layer {
    name: "conv3_res3_conv2"
    type: "Convolution"
    bottom: "conv3_res3_conv1"
    top: "conv3_res3_conv2"
    param {
      lr_mult: 1
      decay_mult: 1
    }
    convolution_param {
      num_output: 64
      pad: 1
      kernel_size: 3
      stride: 1
      weight_filler {
        type: "xavier"
      }
    }
  }
  layer {
    name: "conv3_res3_conv2_elu"
    type: "ELU"
    bottom: "conv3_res3_conv2"
    top: "conv3_res3_conv2"
    elu_param {
      alpha: 1
    }
  }
  layer {
    name: "conv3_res3_conv3"
    type: "Convolution"
    bottom: "conv3_res3_conv2"
    top: "conv3_res3_conv3"
    param {
      lr_mult: 1
      decay_mult: 1
    }
    convolution_param {
      num_output: 256
      pad: 0
      kernel_size: 1
      stride: 1
      weight_filler {
        type: "xavier"
      }
    }
  }
  layer {
    name: "conv3_res3"
    type: "Eltwise"
    bottom: "conv3_res2"
    bottom: "conv3_res3_conv3"
    top: "conv3_res3"
  }
  layer {
    name: "conv3_res3_elu"
    type: "ELU"
    bottom: "conv3_res3"
    top: "conv3_res3"
    elu_param {
      alpha: 1
    }
  }
  layer {
    name: "conv3_res4_conv1"
    type: "Convolution"
    bottom: "conv3_res3"
    top: "conv3_res4_conv1"
    param {
      lr_mult: 1
      decay_mult: 1
    }
    convolution_param {
      num_output: 64
      pad: 0
      kernel_size: 1
      stride: 1
      weight_filler {
        type: "xavier"
      }
    }
  }
  layer {
    name: "conv3_res4_conv1_elu"
    type: "ELU"
    bottom: "conv3_res4_conv1"
    top: "conv3_res4_conv1"
    elu_param {
      alpha: 1
    }
  }
  layer {
    name: "conv3_res4_conv2"
    type: "Convolution"
    bottom: "conv3_res4_conv1"
    top: "conv3_res4_conv2"
    param {
      lr_mult: 1
      decay_mult: 1
    }
    convolution_param {
      num_output: 64
      pad: 1
      kernel_size: 3
      stride: 1
      weight_filler {
        type: "xavier"
      }
    }
  }
  layer {
    name: "conv3_res4_conv2_elu"
    type: "ELU"
    bottom: "conv3_res4_conv2"
    top: "conv3_res4_conv2"
    elu_param {
      alpha: 1
    }
  }
  layer {
    name: "conv3_res4_conv3"
    type: "Convolution"
    bottom: "conv3_res4_conv2"
    top: "conv3_res4_conv3"
    param {
      lr_mult: 1
      decay_mult: 1
    }
    convolution_param {
      num_output: 256
      pad: 0
      kernel_size: 1
      stride: 1
      weight_filler {
        type: "xavier"
      }
    }
  }
  layer {
    name: "conv3_res4"
    type: "Eltwise"
    bottom: "conv3_res3"
    bottom: "conv3_res4_conv3"
    bottom: "conv1_conv3_proj"
    bottom: "conv2_conv3_proj"
    top: "conv3_res4"
  }
  layer {
    name: "pool3"
    type: "Pooling"
    bottom: "conv3_res4"
    top: "pool3"
    pooling_param {
      pool: MAX
      kernel_size: 2
      stride: 2
      pad: 0
    }
  }
  layer {
    name: "pool3_elu"
    type: "ELU"
    bottom: "pool3"
    top: "pool3"
    elu_param {
      alpha: 1
    }
  }
  layer {
    name: "conv3_conv4_proj"
    type: "Convolution"
    bottom: "pool3"
    top: "conv3_conv4_proj"
    param {
      lr_mult: 1
      decay_mult: 1
    }
    convolution_param {
      num_output: 512
      pad: 0
      kernel_size: 1
      stride: 1
      weight_filler {
        type: "xavier"
      }
    }
  }
  layer {
    name: "conv3_conv5_proj"
    type: "Convolution"
    bottom: "pool3"
    top: "conv3_conv5_proj"
    param {
      lr_mult: 1
      decay_mult: 1
    }
    convolution_param {
      num_output: 1024
      pad: 0
      kernel_size: 1
      stride: 2
      weight_filler {
        type: "xavier"
      }
    }
  }
  layer {
    name: "conv4_res1_proj"
    type: "Convolution"
    bottom: "pool3"
    top: "conv4_res1_proj"
    param {
      lr_mult: 1
      decay_mult: 1
    }
    convolution_param {
      num_output: 512
      pad: 0
      kernel_size: 1
      stride: 1
      weight_filler {
        type: "xavier"
      }
    }
  }
  layer {
    name: "conv4_res1_conv1"
    type: "Convolution"
    bottom: "pool3"
    top: "conv4_res1_conv1"
    param {
      lr_mult: 1
      decay_mult: 1
    }
    convolution_param {
      num_output: 128
      pad: 0
      kernel_size: 1
      stride: 1
      weight_filler {
        type: "xavier"
      }
    }
  }
  layer {
    name: "conv4_res1_conv1_elu"
    type: "ELU"
    bottom: "conv4_res1_conv1"
    top: "conv4_res1_conv1"
    elu_param {
      alpha: 1
    }
  }
  layer {
    name: "conv4_res1_conv2"
    type: "Convolution"
    bottom: "conv4_res1_conv1"
    top: "conv4_res1_conv2"
    param {
      lr_mult: 1
      decay_mult: 1
    }
    convolution_param {
      num_output: 128
      pad: 1
      kernel_size: 3
      stride: 1
      weight_filler {
        type: "xavier"
      }
    }
  }
  layer {
    name: "conv4_res1_conv2_elu"
    type: "ELU"
    bottom: "conv4_res1_conv2"
    top: "conv4_res1_conv2"
    elu_param {
      alpha: 1
    }
  }
  layer {
    name: "conv4_res1_conv3"
    type: "Convolution"
    bottom: "conv4_res1_conv2"
    top: "conv4_res1_conv3"
    param {
      lr_mult: 1
      decay_mult: 1
    }
    convolution_param {
      num_output: 512
      pad: 0
      kernel_size: 1
      stride: 1
      weight_filler {
        type: "xavier"
      }
    }
  }
  layer {
    name: "conv4_res1"
    type: "Eltwise"
    bottom: "conv4_res1_proj"
    bottom: "conv4_res1_conv3"
    top: "conv4_res1"
  }
  layer {
    name: "conv4_res1_elu"
    type: "ELU"
    bottom: "conv4_res1"
    top: "conv4_res1"
    elu_param {
      alpha: 1
    }
  }
  layer {
    name: "conv4_res2_conv1"
    type: "Convolution"
    bottom: "conv4_res1"
    top: "conv4_res2_conv1"
    param {
      lr_mult: 1
      decay_mult: 1
    }
    convolution_param {
      num_output: 128
      pad: 0
      kernel_size: 1
      stride: 1
      weight_filler {
        type: "xavier"
      }
    }
  }
  layer {
    name: "conv4_res2_conv1_elu"
    type: "ELU"
    bottom: "conv4_res2_conv1"
    top: "conv4_res2_conv1"
    elu_param {
      alpha: 1
    }
  }
  layer {
    name: "conv4_res2_conv2"
    type: "Convolution"
    bottom: "conv4_res2_conv1"
    top: "conv4_res2_conv2"
    param {
      lr_mult: 1
      decay_mult: 1
    }
    convolution_param {
      num_output: 128
      bias_term: false
      stride: 1
      weight_filler {
        type: "xavier"
      }
      pad_h: 0
      pad_w: 2
      kernel_h: 1
      kernel_w: 5
    }
  }
  layer {
    name: "conv4_res2_conv2_elu"
    type: "ELU"
    bottom: "conv4_res2_conv2"
    top: "conv4_res2_conv2"
    elu_param {
      alpha: 1
    }
  }
  layer {
    name: "conv4_res2_conv3"
    type: "Convolution"
    bottom: "conv4_res2_conv2"
    top: "conv4_res2_conv3"
    param {
      lr_mult: 1
      decay_mult: 1
    }
    convolution_param {
      num_output: 128
      bias_term: false
      stride: 1
      weight_filler {
        type: "xavier"
      }
      pad_h: 2
      pad_w: 0
      kernel_h: 5
      kernel_w: 1
    }
  }
  layer {
    name: "conv4_res2_conv3_elu"
    type: "ELU"
    bottom: "conv4_res2_conv3"
    top: "conv4_res2_conv3"
    elu_param {
      alpha: 1
    }
  }
  layer {
    name: "conv4_res2_conv4"
    type: "Convolution"
    bottom: "conv4_res2_conv3"
    top: "conv4_res2_conv4"
    param {
      lr_mult: 1
      decay_mult: 1
    }
    convolution_param {
      num_output: 512
      pad: 0
      kernel_size: 1
      stride: 1
      weight_filler {
        type: "xavier"
      }
    }
  }
  layer {
    name: "conv4_res2"
    type: "Eltwise"
    bottom: "conv4_res1"
    bottom: "conv4_res2_conv4"
    top: "conv4_res2"
  }
  layer {
    name: "conv4_res2_elu"
    type: "ELU"
    bottom: "conv4_res2"
    top: "conv4_res2"
    elu_param {
      alpha: 1
    }
  }
  layer {
    name: "conv4_res3_conv1"
    type: "Convolution"
    bottom: "conv4_res2"
    top: "conv4_res3_conv1"
    param {
      lr_mult: 1
      decay_mult: 1
    }
    convolution_param {
      num_output: 128
      pad: 0
      kernel_size: 1
      stride: 1
      weight_filler {
        type: "xavier"
      }
    }
  }
  layer {
    name: "conv4_res3_conv1_elu"
    type: "ELU"
    bottom: "conv4_res3_conv1"
    top: "conv4_res3_conv1"
    elu_param {
      alpha: 1
    }
  }
  layer {
    name: "conv4_res3_conv2"
    type: "Convolution"
    bottom: "conv4_res3_conv1"
    top: "conv4_res3_conv2"
    param {
      lr_mult: 1
      decay_mult: 1
    }
    convolution_param {
      num_output: 128
      pad: 1
      kernel_size: 3
      stride: 1
      weight_filler {
        type: "xavier"
      }
    }
  }
  layer {
    name: "conv4_res3_conv2_elu"
    type: "ELU"
    bottom: "conv4_res3_conv2"
    top: "conv4_res3_conv2"
    elu_param {
      alpha: 1
    }
  }
  layer {
    name: "conv4_res3_conv3"
    type: "Convolution"
    bottom: "conv4_res3_conv2"
    top: "conv4_res3_conv3"
    param {
      lr_mult: 1
      decay_mult: 1
    }
    convolution_param {
      num_output: 128
      pad: 1
      kernel_size: 3
      stride: 1
      weight_filler {
        type: "xavier"
      }
    }
  }
  layer {
    name: "conv4_res3_conv3_elu"
    type: "ELU"
    bottom: "conv4_res3_conv3"
    top: "conv4_res3_conv3"
    elu_param {
      alpha: 1
    }
  }
  layer {
    name: "conv4_res3_conv4"
    type: "Convolution"
    bottom: "conv4_res3_conv3"
    top: "conv4_res3_conv4"
    param {
      lr_mult: 1
      decay_mult: 1
    }
    convolution_param {
      num_output: 512
      pad: 0
      kernel_size: 1
      stride: 1
      weight_filler {
        type: "xavier"
      }
    }
  }
  layer {
    name: "conv4_res3"
    type: "Eltwise"
    bottom: "conv4_res2"
    bottom: "conv4_res3_conv4"
    top: "conv4_res3"
  }
  layer {
    name: "conv4_res3_elu"
    type: "ELU"
    bottom: "conv4_res3"
    top: "conv4_res3"
    elu_param {
      alpha: 1
    }
  }
  layer {
    name: "conv4_res4_conv1"
    type: "Convolution"
    bottom: "conv4_res3"
    top: "conv4_res4_conv1"
    param {
      lr_mult: 1
      decay_mult: 1
    }
    convolution_param {
      num_output: 128
      bias_term: false
      stride: 1
      weight_filler {
        type: "xavier"
      }
      pad_h: 0
      pad_w: 1
      kernel_h: 1
      kernel_w: 3
    }
  }
  layer {
    name: "conv4_res4_conv1_elu"
    type: "ELU"
    bottom: "conv4_res4_conv1"
    top: "conv4_res4_conv1"
    elu_param {
      alpha: 1
    }
  }
  layer {
    name: "conv4_res4_conv2"
    type: "Convolution"
    bottom: "conv4_res4_conv1"
    top: "conv4_res4_conv2"
    param {
      lr_mult: 1
      decay_mult: 1
    }
    convolution_param {
      num_output: 512
      bias_term: false
      stride: 1
      weight_filler {
        type: "xavier"
      }
      pad_h: 1
      pad_w: 0
      kernel_h: 3
      kernel_w: 1
    }
  }
  layer {
    name: "conv4_res4"
    type: "Eltwise"
    bottom: "conv4_res3"
    bottom: "conv4_res4_conv2"
    top: "conv4_res4"
  }
  layer {
    name: "conv4_res4_elu"
    type: "ELU"
    bottom: "conv4_res4"
    top: "conv4_res4"
    elu_param {
      alpha: 1
    }
  }
  layer {
    name: "conv4_res5_conv1"
    type: "Convolution"
    bottom: "conv4_res4"
    top: "conv4_res5_conv1"
    param {
      lr_mult: 1
      decay_mult: 1
    }
    convolution_param {
      num_output: 128
      pad: 0
      kernel_size: 1
      stride: 1
      weight_filler {
        type: "xavier"
      }
    }
  }
  layer {
    name: "conv4_res5_conv1_elu"
    type: "ELU"
    bottom: "conv4_res5_conv1"
    top: "conv4_res5_conv1"
    elu_param {
      alpha: 1
    }
  }
  layer {
    name: "conv4_res5_conv2"
    type: "Convolution"
    bottom: "conv4_res5_conv1"
    top: "conv4_res5_conv2"
    param {
      lr_mult: 1
      decay_mult: 1
    }
    convolution_param {
      num_output: 128
      pad: 1
      kernel_size: 3
      stride: 1
      weight_filler {
        type: "xavier"
      }
    }
  }
  layer {
    name: "conv4_res5_conv2_elu"
    type: "ELU"
    bottom: "conv4_res5_conv2"
    top: "conv4_res5_conv2"
    elu_param {
      alpha: 1
    }
  }
  layer {
    name: "conv4_res5_conv3"
    type: "Convolution"
    bottom: "conv4_res5_conv2"
    top: "conv4_res5_conv3"
    param {
      lr_mult: 1
      decay_mult: 1
    }
    convolution_param {
      num_output: 512
      pad: 0
      kernel_size: 1
      stride: 1
      weight_filler {
        type: "xavier"
      }
    }
  }
  layer {
    name: "conv4_res5"
    type: "Eltwise"
    bottom: "conv4_res4"
    bottom: "conv4_res5_conv3"
    top: "conv4_res5"
  }
  layer {
    name: "conv4_res5_elu"
    type: "ELU"
    bottom: "conv4_res5"
    top: "conv4_res5"
    elu_param {
      alpha: 1
    }
  }
  layer {
    name: "conv4_res6_conv1"
    type: "Convolution"
    bottom: "conv4_res5"
    top: "conv4_res6_conv1"
    param {
      lr_mult: 1
      decay_mult: 1
    }
    convolution_param {
      num_output: 128
      pad: 0
      kernel_size: 1
      stride: 1
      weight_filler {
        type: "xavier"
      }
    }
  }
  layer {
    name: "conv4_res6_conv1_elu"
    type: "ELU"
    bottom: "conv4_res6_conv1"
    top: "conv4_res6_conv1"
    elu_param {
      alpha: 1
    }
  }
  layer {
    name: "conv4_res6_conv2"
    type: "Convolution"
    bottom: "conv4_res6_conv1"
    top: "conv4_res6_conv2"
    param {
      lr_mult: 1
      decay_mult: 1
    }
    convolution_param {
      num_output: 128
      pad: 1
      kernel_size: 3
      stride: 1
      weight_filler {
        type: "xavier"
      }
    }
  }
  layer {
    name: "conv4_res6_conv2_elu"
    type: "ELU"
    bottom: "conv4_res6_conv2"
    top: "conv4_res6_conv2"
    elu_param {
      alpha: 1
    }
  }
  layer {
    name: "conv4_res6_conv3"
    type: "Convolution"
    bottom: "conv4_res6_conv2"
    top: "conv4_res6_conv3"
    param {
      lr_mult: 1
      decay_mult: 1
    }
    convolution_param {
      num_output: 512
      pad: 0
      kernel_size: 1
      stride: 1
      weight_filler {
        type: "xavier"
      }
    }
  }
  layer {
    name: "conv4_res6"
    type: "Eltwise"
    bottom: "conv4_res5"
    bottom: "conv4_res6_conv3"
    bottom: "conv2_conv4_proj"
    bottom: "conv3_conv4_proj"
    top: "conv4_res6"
  }
  layer {
    name: "pool4"
    type: "Pooling"
    bottom: "conv4_res6"
    top: "pool4"
    pooling_param {
      pool: MAX
      kernel_size: 2
      stride: 2
      pad: 0
    }
  }
  layer {
    name: "pool4_elu"
    type: "ELU"
    bottom: "pool4"
    top: "pool4"
    elu_param {
      alpha: 1
    }
  }
  layer {
    name: "conv4_conv5_proj"
    type: "Convolution"
    bottom: "pool4"
    top: "conv4_conv5_proj"
    param {
      lr_mult: 1
      decay_mult: 1
    }
    convolution_param {
      num_output: 1024
      pad: 0
      kernel_size: 1
      stride: 1
      weight_filler {
        type: "xavier"
      }
    }
  }
  layer {
    name: "conv5_res1_proj"
    type: "Convolution"
    bottom: "pool4"
    top: "conv5_res1_proj"
    param {
      lr_mult: 1
      decay_mult: 1
    }
    convolution_param {
      num_output: 1024
      pad: 0
      kernel_size: 1
      stride: 1
      weight_filler {
        type: "xavier"
      }
    }
  }
  layer {
    name: "conv5_res1_conv1"
    type: "Convolution"
    bottom: "pool4"
    top: "conv5_res1_conv1"
    param {
      lr_mult: 1
      decay_mult: 1
    }
    convolution_param {
      num_output: 256
      pad: 0
      kernel_size: 1
      stride: 1
      weight_filler {
        type: "xavier"
      }
    }
  }
  layer {
    name: "conv5_res1_conv1_elu"
    type: "ELU"
    bottom: "conv5_res1_conv1"
    top: "conv5_res1_conv1"
    elu_param {
      alpha: 1
    }
  }
  layer {
    name: "conv5_res1_conv2"
    type: "Convolution"
    bottom: "conv5_res1_conv1"
    top: "conv5_res1_conv2"
    param {
      lr_mult: 1
      decay_mult: 1
    }
    convolution_param {
      num_output: 256
      pad: 1
      kernel_size: 3
      stride: 1
      weight_filler {
        type: "xavier"
      }
    }
  }
  layer {
    name: "conv5_res1_conv2_elu"
    type: "ELU"
    bottom: "conv5_res1_conv2"
    top: "conv5_res1_conv2"
    elu_param {
      alpha: 1
    }
  }
  layer {
    name: "conv5_res1_conv3"
    type: "Convolution"
    bottom: "conv5_res1_conv2"
    top: "conv5_res1_conv3"
    param {
      lr_mult: 1
      decay_mult: 1
    }
    convolution_param {
      num_output: 1024
      pad: 0
      kernel_size: 1
      stride: 1
      weight_filler {
        type: "xavier"
      }
    }
  }
  layer {
    name: "conv5_res1"
    type: "Eltwise"
    bottom: "conv5_res1_proj"
    bottom: "conv5_res1_conv3"
    top: "conv5_res1"
  }
  layer {
    name: "conv5_res1_elu"
    type: "ELU"
 
I0922 19:20:39.599004 29728 solver.cpp:86] Creating training net specified in net_param.
I0922 19:20:39.599527 29728 net.cpp:313] The NetState phase (0) differed from the phase (1) specified by a rule in layer data
I0922 19:20:39.599638 29728 net.cpp:313] The NetState phase (0) differed from the phase (1) specified by a rule in layer accuracy_top1
I0922 19:20:39.599644 29728 net.cpp:313] The NetState phase (0) differed from the phase (1) specified by a rule in layer accuracy_top5
I0922 19:20:39.600525 29728 net.cpp:49] Initializing net from parameters: 
state {
  phase: TRAIN
}
layer {
  name: "data"
  type: "Data"
  top: "data"
  top: "label"
  include {
    phase: TRAIN
  }
  transform_param {
    scale: 0.04
    mirror: true
    crop_size: 128
    mean_value: 104
    mean_value: 117
    mean_value: 124
  }
  data_param {
    source: "/media/dereyly/data_one/data/CAFFE_DATA/imagenet_train_150"
    batch_size: 256
    backend: LMDB
  }
}
layer {
  name: "conv1"
  type: "Convolution"
  bottom: "data"
  top: "conv1"
  param {
    lr_mult: 1
    decay_mult: 1
  }
  convolution_param {
    num_output: 64
    pad: 0
    kernel_size: 7
    stride: 2
    weight_filler {
      type: "xavier"
    }
  }
}
layer {
  name: "conv1_relu"
  type: "ReLU"
  bottom: "conv1"
  top: "conv1"
}
layer {
  name: "pool1"
  type: "Pooling"
  bottom: "conv1"
  top: "pool1"
  pooling_param {
    pool: MAX
    kernel_size: 3
    stride: 2
    pad: 1
  }
}
layer {
  name: "pool1_elu"
  type: "ELU"
  bottom: "pool1"
  top: "pool1"
  elu_param {
    alpha: 1
  }
}
layer {
  name: "conv1_conv2_proj"
  type: "Convolution"
  bottom: "pool1"
  top: "conv1_conv2_proj"
  param {
    lr_mult: 1
    decay_mult: 1
  }
  convolution_param {
    num_output: 128
    pad: 0
    kernel_size: 1
    stride: 1
    weight_filler {
      type: "xavier"
    }
  }
}
layer {
  name: "conv1_conv3_proj"
  type: "Convolution"
  bottom: "pool1"
  top: "conv1_conv3_proj"
  param {
    lr_mult: 1
    decay_mult: 1
  }
  convolution_param {
    num_output: 256
    pad: 0
    kernel_size: 1
    stride: 2
    weight_filler {
      type: "xavier"
    }
  }
}
layer {
  name: "conv2_res1_proj"
  type: "Convolution"
  bottom: "pool1"
  top: "conv2_res1_proj"
  param {
    lr_mult: 1
    decay_mult: 1
  }
  convolution_param {
    num_output: 128
    pad: 0
    kernel_size: 1
    stride: 1
    weight_filler {
      type: "xavier"
    }
  }
}
layer {
  name: "conv2_res1_conv1"
  type: "Convolution"
  bottom: "pool1"
  top: "conv2_res1_conv1"
  param {
    lr_mult: 1
    decay_mult: 1
  }
  convolution_param {
    num_output: 32
    pad: 0
    kernel_size: 1
    stride: 1
    weight_filler {
      type: "xavier"
    }
  }
}
layer {
  name: "conv2_res1_conv1_elu"
  type: "ELU"
  bottom: "conv2_res1_conv1"
  top: "conv2_res1_conv1"
  elu_param {
    alpha: 1
  }
}
layer {
  name: "conv2_res1_conv2"
  type: "Convolution"
  bottom: "conv2_res1_conv1"
  top: "conv2_res1_conv2"
  param {
    lr_mult: 1
    decay_mult: 1
  }
  convolution_param {
    num_output: 32
    pad: 1
    kernel_size: 3
    stride: 1
    weight_filler {
      type: "xavier"
    }
  }
}
layer {
  name: "conv2_res1_conv2_elu"
  type: "ELU"
  bottom: "conv2_res1_conv2"
  top: "conv2_res1_conv2"
  elu_param {
    alpha: 1
  }
}
layer {
  name: "conv2_res1_conv3"
  type: "Convolution"
  bottom: "conv2_res1_conv2"
  top: "conv2_res1_conv3"
  param {
    lr_mult: 1
    decay_mult: 1
  }
  convolution_param {
    num_output: 128
    pad: 0
    kernel_size: 1
    stride: 1
    weight_filler {
      type: "xavier"
    }
  }
}
layer {
  name: "conv2_res1"
  type: "Eltwise"
  bottom: "conv2_res1_proj"
  bottom: "conv2_res1_conv3"
  top: "conv2_res1"
}
layer {
  name: "conv2_res1_elu"
  type: "ELU"
  bottom: "conv2_res1"
  top: "conv2_res1"
  elu_param {
    alpha: 1
  }
}
layer {
  name: "conv2_res2_conv1"
  type: "Convolution"
  bottom: "conv2_res1"
  top: "conv2_res2_conv1"
  param {
    lr_mult: 1
    decay_mult: 1
  }
  convolution_param {
    num_output: 32
    pad: 0
    kernel_size: 1
    stride: 1
    weight_filler {
      type: "xavier"
    }
  }
}
layer {
  name: "conv2_res2_conv1_elu"
  type: "ELU"
  bottom: "conv2_res2_conv1"
  top: "conv2_res2_conv1"
  elu_param {
    alpha: 1
  }
}
layer {
  name: "conv2_res2_conv2"
  type: "Convolution"
  bottom: "conv2_res2_conv1"
  top: "conv2_res2_conv2"
  param {
    lr_mult: 1
    decay_mult: 1
  }
  convolution_param {
    num_output: 32
    pad: 1
    kernel_size: 3
    stride: 1
    weight_filler {
      type: "xavier"
    }
  }
}
layer {
  name: "conv2_res2_conv2_elu"
  type: "ELU"
  bottom: "conv2_res2_conv2"
  top: "conv2_res2_conv2"
  elu_param {
    alpha: 1
  }
}
layer {
  name: "conv2_res2_conv3"
  type: "Convolution"
  bottom: "conv2_res2_conv2"
  top: "conv2_res2_conv3"
  param {
    lr_mult: 1
    decay_mult: 1
  }
  convolution_param {
    num_output: 32
    pad: 1
    kernel_size: 3
    stride: 1
    weight_filler {
      type: "xavier"
    }
  }
}
layer {
  name: "conv2_res2_conv3_elu"
  type: "ELU"
  bottom: "conv2_res2_conv3"
  top: "conv2_res2_conv3"
  elu_param {
    alpha: 1
  }
}
layer {
  name: "conv2_res2_conv4"
  type: "Convolution"
  bottom: "conv2_res2_conv3"
  top: "conv2_res2_conv4"
  param {
    lr_mult: 1
    decay_mult: 1
  }
  convolution_param {
    num_output: 128
    pad: 0
    kernel_size: 1
    stride: 1
    weight_filler {
      type: "xavier"
    }
  }
}
layer {
  name: "conv2_res2"
  type: "Eltwise"
  bottom: "conv2_res1"
  bottom: "conv2_res2_conv4"
  top: "conv2_res2"
}
layer {
  name: "conv2_res2_elu"
  type: "ELU"
  bottom: "conv2_res2"
  top: "conv2_res2"
  elu_param {
    alpha: 1
  }
}
layer {
  name: "conv2_res3_conv1"
  type: "Convolution"
  bottom: "conv2_res2"
  top: "conv2_res3_conv1"
  param {
    lr_mult: 1
    decay_mult: 1
  }
  convolution_param {
    num_output: 32
    pad: 0
    kernel_size: 1
    stride: 1
    weight_filler {
      type: "xavier"
    }
  }
}
layer {
  name: "conv2_res3_conv1_elu"
  type: "ELU"
  bottom: "conv2_res3_conv1"
  top: "conv2_res3_conv1"
  elu_param {
    alpha: 1
  }
}
layer {
  name: "conv2_res3_conv2"
  type: "Convolution"
  bottom: "conv2_res3_conv1"
  top: "conv2_res3_conv2"
  param {
    lr_mult: 1
    decay_mult: 1
  }
  convolution_param {
    num_output: 32
    pad: 1
    kernel_size: 3
    stride: 1
    weight_filler {
      type: "xavier"
    }
  }
}
layer {
  name: "conv2_res3_conv2_elu"
  type: "ELU"
  bottom: "conv2_res3_conv2"
  top: "conv2_res3_conv2"
  elu_param {
    alpha: 1
  }
}
layer {
  name: "conv2_res3_conv3"
  type: "Convolution"
  bottom: "conv2_res3_conv2"
  top: "conv2_res3_conv3"
  param {
    lr_mult: 1
    decay_mult: 1
  }
  convolution_param {
    num_output: 32
    pad: 1
    kernel_size: 3
    stride: 1
    weight_filler {
      type: "xavier"
    }
  }
}
layer {
  name: "conv2_res3_conv3_elu"
  type: "ELU"
  bottom: "conv2_res3_conv3"
  top: "conv2_res3_conv3"
  elu_param {
    alpha: 1
  }
}
layer {
  name: "conv2_res3_conv4"
  type: "Convolution"
  bottom: "conv2_res3_conv3"
  top: "conv2_res3_conv4"
  param {
    lr_mult: 1
    decay_mult: 1
  }
  convolution_param {
    num_output: 128
    pad: 0
    kernel_size: 1
    stride: 1
    weight_filler {
      type: "xavier"
    }
  }
}
layer {
  name: "conv2_res3"
  type: "Eltwise"
  bottom: "conv2_res2"
  bottom: "conv2_res3_conv4"
  bottom: "conv1_conv2_proj"
  top: "conv2_res3"
}
layer {
  name: "pool2"
  type: "Pooling"
  bottom: "conv2_res3"
  top: "pool2"
  pooling_param {
    pool: MAX
    kernel_size: 2
    stride: 2
    pad: 0
  }
}
layer {
  name: "pool2_elu"
  type: "ELU"
  bottom: "pool2"
  top: "pool2"
  elu_param {
    alpha: 1
  }
}
layer {
  name: "conv2_conv3_proj"
  type: "Convolution"
  bottom: "pool2"
  top: "conv2_conv3_proj"
  param {
    lr_mult: 1
    decay_mult: 1
  }
  convolution_param {
    num_output: 256
    pad: 0
    kernel_size: 1
    stride: 1
    weight_filler {
      type: "xavier"
    }
  }
}
layer {
  name: "conv2_conv4_proj"
  type: "Convolution"
  bottom: "pool2"
  top: "conv2_conv4_proj"
  param {
    lr_mult: 1
    decay_mult: 1
  }
  convolution_param {
    num_output: 512
    pad: 0
    kernel_size: 1
    stride: 2
    weight_filler {
      type: "xavier"
    }
  }
}
layer {
  name: "conv2_conv5_proj"
  type: "Convolution"
  bottom: "pool2"
  top: "conv2_conv5_proj"
  param {
    lr_mult: 1
    decay_mult: 1
  }
  convolution_param {
    num_output: 1024
    pad: 0
    kernel_size: 1
    stride: 4
    weight_filler {
      type: "xavier"
    }
  }
}
layer {
  name: "conv3_res1_proj"
  type: "Convolution"
  bottom: "pool2"
  top: "conv3_res1_proj"
  param {
    lr_mult: 1
    decay_mult: 1
  }
  convolution_param {
    num_output: 256
    pad: 0
    kernel_size: 1
    stride: 1
    weight_filler {
      type: "xavier"
    }
  }
}
layer {
  name: "conv3_res1_conv1"
  type: "Convolution"
  bottom: "pool2"
  top: "conv3_res1_conv1"
  param {
    lr_mult: 1
    decay_mult: 1
  }
  convolution_param {
    num_output: 64
    pad: 0
    kernel_size: 1
    stride: 1
    weight_filler {
      type: "xavier"
    }
  }
}
layer {
  name: "conv3_res1_conv1_elu"
  type: "ELU"
  bottom: "conv3_res1_conv1"
  top: "conv3_res1_conv1"
  elu_param {
    alpha: 1
  }
}
layer {
  name: "conv3_res1_conv2"
  type: "Convolution"
  bottom: "conv3_res1_conv1"
  top: "conv3_res1_conv2"
  param {
    lr_mult: 1
    decay_mult: 1
  }
  convolution_param {
    num_output: 64
    pad: 1
    kernel_size: 3
    stride: 1
    weight_filler {
      type: "xavier"
    }
  }
}
layer {
  name: "conv3_res1_conv2_elu"
  type: "ELU"
  bottom: "conv3_res1_conv2"
  top: "conv3_res1_conv2"
  elu_param {
    alpha: 1
  }
}
layer {
  name: "conv3_res1_conv3"
  type: "Convolution"
  bottom: "conv3_res1_conv2"
  top: "conv3_res1_conv3"
  param {
    lr_mult: 1
    decay_mult: 1
  }
  convolution_param {
    num_output: 256
    pad: 0
    kernel_size: 1
    stride: 1
    weight_filler {
      type: "xavier"
    }
  }
}
layer {
  name: "conv3_res1"
  type: "Eltwise"
  bottom: "conv3_res1_proj"
  bottom: "conv3_res1_conv3"
  top: "conv3_res1"
}
layer {
  name: "conv3_res1_elu"
  type: "ELU"
  bottom: "conv3_res1"
  top: "conv3_res1"
  elu_param {
    alpha: 1
  }
}
layer {
  name: "conv3_res2_conv1"
  type: "Convolution"
  bottom: "conv3_res1"
  top: "conv3_res2_conv1"
  param {
    lr_mult: 1
    decay_mult: 1
  }
  convolution_param {
    num_output: 64
    bias_term: false
    stride: 1
    weight_filler {
      type: "xavier"
    }
    pad_h: 0
    pad_w: 1
    kernel_h: 1
    kernel_w: 3
  }
}
layer {
  name: "conv3_res2_conv1_elu"
  type: "ELU"
  bottom: "conv3_res2_conv1"
  top: "conv3_res2_conv1"
  elu_param {
    alpha: 1
  }
}
layer {
  name: "conv3_res2_conv2"
  type: "Convolution"
  bottom: "conv3_res2_conv1"
  top: "conv3_res2_conv2"
  param {
    lr_mult: 1
    decay_mult: 1
  }
  convolution_param {
    num_output: 256
    bias_term: false
    stride: 1
    weight_filler {
      type: "xavier"
    }
    pad_h: 1
    pad_w: 0
    kernel_h: 3
    kernel_w: 1
  }
}
layer {
  name: "conv3_res2"
  type: "Eltwise"
  bottom: "conv3_res1"
  bottom: "conv3_res2_conv2"
  top: "conv3_res2"
}
layer {
  name: "conv3_res2_elu"
  type: "ELU"
  bottom: "conv3_res2"
  top: "conv3_res2"
  elu_param {
    alpha: 1
  }
}
layer {
  name: "conv3_res3_conv1"
  type: "Convolution"
  bottom: "conv3_res2"
  top: "conv3_res3_conv1"
  param {
    lr_mult: 1
    decay_mult: 1
  }
  convolution_param {
    num_output: 64
    pad: 0
    kernel_size: 1
    stride: 1
    weight_filler {
      type: "xavier"
    }
  }
}
layer {
  name: "conv3_res3_conv1_elu"
  type: "ELU"
  bottom: "conv3_res3_conv1"
  top: "conv3_res3_conv1"
  elu_param {
    alpha: 1
  }
}
layer {
  name: "conv3_res3_conv2"
  type: "Convolution"
  bottom: "conv3_res3_conv1"
  top: "conv3_res3_conv2"
  param {
    lr_mult: 1
    decay_mult: 1
  }
  convolution_param {
    num_output: 64
    pad: 1
    kernel_size: 3
    stride: 1
    weight_filler {
      type: "xavier"
    }
  }
}
layer {
  name: "conv3_res3_conv2_elu"
  type: "ELU"
  bottom: "conv3_res3_conv2"
  top: "conv3_res3_conv2"
  elu_param {
    alpha: 1
  }
}
layer {
  name: "conv3_res3_conv3"
  type: "Convolution"
  bottom: "conv3_res3_conv2"
  top: "conv3_res3_conv3"
  param {
    lr_mult: 1
    decay_mult: 1
  }
  convolution_param {
    num_output: 256
    pad: 0
    kernel_size: 1
    stride: 1
    weight_filler {
      type: "xavier"
    }
  }
}
layer {
  name: "conv3_res3"
  type: "Eltwise"
  bottom: "conv3_res2"
  bottom: "conv3_res3_conv3"
  top: "conv3_res3"
}
layer {
  name: "conv3_res3_elu"
  type: "ELU"
  bottom: "conv3_res3"
  top: "conv3_res3"
  elu_param {
    alpha: 1
  }
}
layer {
  name: "conv3_res4_conv1"
  type: "Convolution"
  bottom: "conv3_res3"
  top: "conv3_res4_conv1"
  param {
    lr_mult: 1
    decay_mult: 1
  }
  convolution_param {
    num_output: 64
    pad: 0
    kernel_size: 1
    stride: 1
    weight_filler {
      type: "xavier"
    }
  }
}
layer {
  name: "conv3_res4_conv1_elu"
  type: "ELU"
  bottom: "conv3_res4_conv1"
  top: "conv3_res4_conv1"
  elu_param {
    alpha: 1
  }
}
layer {
  name: "conv3_res4_conv2"
  type: "Convolution"
  bottom: "conv3_res4_conv1"
  top: "conv3_res4_conv2"
  param {
    lr_mult: 1
    decay_mult: 1
  }
  convolution_param {
    num_output: 64
    pad: 1
    kernel_size: 3
    stride: 1
    weight_filler {
      type: "xavier"
    }
  }
}
layer {
  name: "conv3_res4_conv2_elu"
  type: "ELU"
  bottom: "conv3_res4_conv2"
  top: "conv3_res4_conv2"
  elu_param {
    alpha: 1
  }
}
layer {
  name: "conv3_res4_conv3"
  type: "Convolution"
  bottom: "conv3_res4_conv2"
  top: "conv3_res4_conv3"
  param {
    lr_mult: 1
    decay_mult: 1
  }
  convolution_param {
    num_output: 256
    pad: 0
    kernel_size: 1
    stride: 1
    weight_filler {
      type: "xavier"
    }
  }
}
layer {
  name: "conv3_res4"
  type: "Eltwise"
  bottom: "conv3_res3"
  bottom: "conv3_res4_conv3"
  bottom: "conv1_conv3_proj"
  bottom: "conv2_conv3_proj"
  top: "conv3_res4"
}
layer {
  name: "pool3"
  type: "Pooling"
  bottom: "conv3_res4"
  top: "pool3"
  pooling_param {
    pool: MAX
    kernel_size: 2
    stride: 2
    pad: 0
  }
}
layer {
  name: "pool3_elu"
  type: "ELU"
  bottom: "pool3"
  top: "pool3"
  elu_param {
    alpha: 1
  }
}
layer {
  name: "conv3_conv4_proj"
  type: "Convolution"
  bottom: "pool3"
  top: "conv3_conv4_proj"
  param {
    lr_mult: 1
    decay_mult: 1
  }
  convolution_param {
    num_output: 512
    pad: 0
    kernel_size: 1
    stride: 1
    weight_filler {
      type: "xavier"
    }
  }
}
layer {
  name: "conv3_conv5_proj"
  type: "Convolution"
  bottom: "pool3"
  top: "conv3_conv5_proj"
  param {
    lr_mult: 1
    decay_mult: 1
  }
  convolution_param {
    num_output: 1024
    pad: 0
    kernel_size: 1
    stride: 2
    weight_filler {
      type: "xavier"
    }
  }
}
layer {
  name: "conv4_res1_proj"
  type: "Convolution"
  bottom: "pool3"
  top: "conv4_res1_proj"
  param {
    lr_mult: 1
    decay_mult: 1
  }
  convolution_param {
    num_output: 512
    pad: 0
    kernel_size: 1
    stride: 1
    weight_filler {
      type: "xavier"
    }
  }
}
layer {
  name: "conv4_res1_conv1"
  type: "Convolution"
  bottom: "pool3"
  top: "conv4_res1_conv1"
  param {
    lr_mult: 1
    decay_mult: 1
  }
  convolution_param {
    num_output: 128
    pad: 0
    kernel_size: 1
    stride: 1
    weight_filler {
      type: "xavier"
    }
  }
}
layer {
  name: "conv4_res1_conv1_elu"
  type: "ELU"
  bottom: "conv4_res1_conv1"
  top: "conv4_res1_conv1"
  elu_param {
    alpha: 1
  }
}
layer {
  name: "conv4_res1_conv2"
  type: "Convolution"
  bottom: "conv4_res1_conv1"
  top: "conv4_res1_conv2"
  param {
    lr_mult: 1
    decay_mult: 1
  }
  convolution_param {
    num_output: 128
    pad: 1
    kernel_size: 3
    stride: 1
    weight_filler {
      type: "xavier"
    }
  }
}
layer {
  name: "conv4_res1_conv2_elu"
  type: "ELU"
  bottom: "conv4_res1_conv2"
  top: "conv4_res1_conv2"
  elu_param {
    alpha: 1
  }
}
layer {
  name: "conv4_res1_conv3"
  type: "Convolution"
  bottom: "conv4_res1_conv2"
  top: "conv4_res1_conv3"
  param {
    lr_mult: 1
    decay_mult: 1
  }
  convolution_param {
    num_output: 512
    pad: 0
    kernel_size: 1
    stride: 1
    weight_filler {
      type: "xavier"
    }
  }
}
layer {
  name: "conv4_res1"
  type: "Eltwise"
  bottom: "conv4_res1_proj"
  bottom: "conv4_res1_conv3"
  top: "conv4_res1"
}
layer {
  name: "conv4_res1_elu"
  type: "ELU"
  bottom: "conv4_res1"
  top: "conv4_res1"
  elu_param {
    alpha: 1
  }
}
layer {
  name: "conv4_res2_conv1"
  type: "Convolution"
  bottom: "conv4_res1"
  top: "conv4_res2_conv1"
  param {
    lr_mult: 1
    decay_mult: 1
  }
  convolution_param {
    num_output: 128
    pad: 0
    kernel_size: 1
    stride: 1
    weight_filler {
      type: "xavier"
    }
  }
}
layer {
  name: "conv4_res2_conv1_elu"
  type: "ELU"
  bottom: "conv4_res2_conv1"
  top: "conv4_res2_conv1"
  elu_param {
    alpha: 1
  }
}
layer {
  name: "conv4_res2_conv2"
  type: "Convolution"
  bottom: "conv4_res2_conv1"
  top: "conv4_res2_conv2"
  param {
    lr_mult: 1
    decay_mult: 1
  }
  convolution_param {
    num_output: 128
    bias_term: false
    stride: 1
    weight_filler {
      type: "xavier"
    }
    pad_h: 0
    pad_w: 2
    kernel_h: 1
    kernel_w: 5
  }
}
layer {
  name: "conv4_res2_conv2_elu"
  type: "ELU"
  bottom: "conv4_res2_conv2"
  top: "conv4_res2_conv2"
  elu_param {
    alpha: 1
  }
}
layer {
  name: "conv4_res2_conv3"
  type: "Convolution"
  bottom: "conv4_res2_conv2"
  top: "conv4_res2_conv3"
  param {
    lr_mult: 1
    decay_mult: 1
  }
  convolution_param {
    num_output: 128
    bias_term: false
    stride: 1
    weight_filler {
      type: "xavier"
    }
    pad_h: 2
    pad_w: 0
    kernel_h: 5
    kernel_w: 1
  }
}
layer {
  name: "conv4_res2_conv3_elu"
  type: "ELU"
  bottom: "conv4_res2_conv3"
  top: "conv4_res2_conv3"
  elu_param {
    alpha: 1
  }
}
layer {
  name: "conv4_res2_conv4"
  type: "Convolution"
  bottom: "conv4_res2_conv3"
  top: "conv4_res2_conv4"
  param {
    lr_mult: 1
    decay_mult: 1
  }
  convolution_param {
    num_output: 512
    pad: 0
    kernel_size: 1
    stride: 1
    weight_filler {
      type: "xavier"
    }
  }
}
layer {
  name: "conv4_res2"
  type: "Eltwise"
  bottom: "conv4_res1"
  bottom: "conv4_res2_conv4"
  top: "conv4_res2"
}
layer {
  name: "conv4_res2_elu"
  type: "ELU"
  bottom: "conv4_res2"
  top: "conv4_res2"
  elu_param {
    alpha: 1
  }
}
layer {
  name: "conv4_res3_conv1"
  type: "Convolution"
  bottom: "conv4_res2"
  top: "conv4_res3_conv1"
  param {
    lr_mult: 1
    decay_mult: 1
  }
  convolution_param {
    num_output: 128
    pad: 0
    kernel_size: 1
    stride: 1
    weight_filler {
      type: "xavier"
    }
  }
}
layer {
  name: "conv4_res3_conv1_elu"
  type: "ELU"
  bottom: "conv4_res3_conv1"
  top: "conv4_res3_conv1"
  elu_param {
    alpha: 1
  }
}
layer {
  name: "conv4_res3_conv2"
  type: "Convolution"
  bottom: "conv4_res3_conv1"
  top: "conv4_res3_conv2"
  param {
    lr_mult: 1
    decay_mult: 1
  }
  convolution_param {
    num_output: 128
    pad: 1
    kernel_size: 3
    stride: 1
    weight_filler {
      type: "xavier"
    }
  }
}
layer {
  name: "conv4_res3_conv2_elu"
  type: "ELU"
  bottom: "conv4_res3_conv2"
  top: "conv4_res3_conv2"
  elu_param {
    alpha: 1
  }
}
layer {
  name: "conv4_res3_conv3"
  type: "Convolution"
  bottom: "conv4_res3_conv2"
  top: "conv4_res3_conv3"
  param {
    lr_mult: 1
    decay_mult: 1
  }
  convolution_param {
    num_output: 128
    pad: 1
    kernel_size: 3
    stride: 1
    weight_filler {
      type: "xavier"
    }
  }
}
layer {
  name: "conv4_res3_conv3_elu"
  type: "ELU"
  bottom: "conv4_res3_conv3"
  top: "conv4_res3_conv3"
  elu_param {
    alpha: 1
  }
}
layer {
  name: "conv4_res3_conv4"
  type: "Convolution"
  bottom: "conv4_res3_conv3"
  top: "conv4_res3_conv4"
  param {
    lr_mult: 1
    decay_mult: 1
  }
  convolution_param {
    num_output: 512
    pad: 0
    kernel_size: 1
    stride: 1
    weight_filler {
      type: "xavier"
    }
  }
}
layer {
  name: "conv4_res3"
  type: "Eltwise"
  bottom: "conv4_res2"
  bottom: "conv4_res3_conv4"
  top: "conv4_res3"
}
layer {
  name: "conv4_res3_elu"
  type: "ELU"
  bottom: "conv4_res3"
  top: "conv4_res3"
  elu_param {
    alpha: 1
  }
}
layer {
  name: "conv4_res4_conv1"
  type: "Convolution"
  bottom: "conv4_res3"
  top: "conv4_res4_conv1"
  param {
    lr_mult: 1
    decay_mult: 1
  }
  convolution_param {
    num_output: 128
    bias_term: false
    stride: 1
    weight_filler {
      type: "xavier"
    }
    pad_h: 0
    pad_w: 1
    kernel_h: 1
    kernel_w: 3
  }
}
layer {
  name: "conv4_res4_conv1_elu"
  type: "ELU"
  bottom: "conv4_res4_conv1"
  top: "conv4_res4_conv1"
  elu_param {
    alpha: 1
  }
}
layer {
  name: "conv4_res4_conv2"
  type: "Convolution"
  bottom: "conv4_res4_conv1"
  top: "conv4_res4_conv2"
  param {
    lr_mult: 1
    decay_mult: 1
  }
  convolution_param {
    num_output: 512
    bias_term: false
    stride: 1
    weight_filler {
      type: "xavier"
    }
    pad_h: 1
    pad_w: 0
    kernel_h: 3
    kernel_w: 1
  }
}
layer {
  name: "conv4_res4"
  type: "Eltwise"
  bottom: "conv4_res3"
  bottom: "conv4_res4_conv2"
  top: "conv4_res4"
}
layer {
  name: "conv4_res4_elu"
  type: "ELU"
  bottom: "conv4_res4"
  top: "conv4_res4"
  elu_param {
    alpha: 1
  }
}
layer {
  name: "conv4_res5_conv1"
  type: "Convolution"
  bottom: "conv4_res4"
  top: "conv4_res5_conv1"
  param {
    lr_mult: 1
    decay_mult: 1
  }
  convolution_param {
    num_output: 128
    pad: 0
    kernel_size: 1
    stride: 1
    weight_filler {
      type: "xavier"
    }
  }
}
layer {
  name: "conv4_res5_conv1_elu"
  type: "ELU"
  bottom: "conv4_res5_conv1"
  top: "conv4_res5_conv1"
  elu_param {
    alpha: 1
  }
}
layer {
  name: "conv4_res5_conv2"
  type: "Convolution"
  bottom: "conv4_res5_conv1"
  top: "conv4_res5_conv2"
  param {
    lr_mult: 1
    decay_mult: 1
  }
  convolution_param {
    num_output: 128
    pad: 1
    kernel_size: 3
    stride: 1
    weight_filler {
      type: "xavier"
    }
  }
}
layer {
  name: "conv4_res5_conv2_elu"
  type: "ELU"
  bottom: "conv4_res5_conv2"
  top: "conv4_res5_conv2"
  elu_param {
    alpha: 1
  }
}
layer {
  name: "conv4_res5_conv3"
  type: "Convolution"
  bottom: "conv4_res5_conv2"
  top: "conv4_res5_conv3"
  param {
    lr_mult: 1
    decay_mult: 1
  }
  convolution_param {
    num_output: 512
    pad: 0
    kernel_size: 1
    stride: 1
    weight_filler {
      type: "xavier"
    }
  }
}
layer {
  name: "conv4_res5"
  type: "Eltwise"
  bottom: "conv4_res4"
  bottom: "conv4_res5_conv3"
  top: "conv4_res5"
}
layer {
  name: "conv4_res5_elu"
  type: "ELU"
  bottom: "conv4_res5"
  top: "conv4_res5"
  elu_param {
    alpha: 1
  }
}
layer {
  name: "conv4_res6_conv1"
  type: "Convolution"
  bottom: "conv4_res5"
  top: "conv4_res6_conv1"
  param {
    lr_mult: 1
    decay_mult: 1
  }
  convolution_param {
    num_output: 128
    pad: 0
    kernel_size: 1
    stride: 1
    weight_filler {
      type: "xavier"
    }
  }
}
layer {
  name: "conv4_res6_conv1_elu"
  type: "ELU"
  bottom: "conv4_res6_conv1"
  top: "conv4_res6_conv1"
  elu_param {
    alpha: 1
  }
}
layer {
  name: "conv4_res6_conv2"
  type: "Convolution"
  bottom: "conv4_res6_conv1"
  top: "conv4_res6_conv2"
  param {
    lr_mult: 1
    decay_mult: 1
  }
  convolution_param {
    num_output: 128
    pad: 1
    kernel_size: 3
    stride: 1
    weight_filler {
      type: "xavier"
    }
  }
}
layer {
  name: "conv4_res6_conv2_elu"
  type: "ELU"
  bottom: "conv4_res6_conv2"
  top: "conv4_res6_conv2"
  elu_param {
    alpha: 1
  }
}
layer {
  name: "conv4_res6_conv3"
  type: "Convolution"
  bottom: "conv4_res6_conv2"
  top: "conv4_res6_conv3"
  param {
    lr_mult: 1
    decay_mult: 1
  }
  convolution_param {
    num_output: 512
    pad: 0
    kernel_size: 1
    stride: 1
    weight_filler {
      type: "xavier"
    }
  }
}
layer {
  name: "conv4_res6"
  type: "Eltwise"
  bottom: "conv4_res5"
  bottom: "conv4_res6_conv3"
  bottom: "conv2_conv4_proj"
  bottom: "conv3_conv4_proj"
  top: "conv4_res6"
}
layer {
  name: "pool4"
  type: "Pooling"
  bottom: "conv4_res6"
  top: "pool4"
  pooling_param {
    pool: MAX
    kernel_size: 2
    stride: 2
    pad: 0
  }
}
layer {
  name: "pool4_elu"
  type: "ELU"
  bottom: "pool4"
  top: "pool4"
  elu_param {
    alpha: 1
  }
}
layer {
  name: "conv4_conv5_proj"
  type: "Convolution"
  bottom: "pool4"
  top: "conv4_conv5_proj"
  param {
    lr_mult: 1
    decay_mult: 1
  }
  convolution_param {
    num_output: 1024
    pad: 0
    kernel_size: 1
    stride: 1
    weight_filler {
      type: "xavier"
    }
  }
}
layer {
  name: "conv5_res1_proj"
  type: "Convolution"
  bottom: "pool4"
  top: "conv5_res1_proj"
  param {
    lr_mult: 1
    decay_mult: 1
  }
  convolution_param {
    num_output: 1024
    pad: 0
    kernel_size: 1
    stride: 1
    weight_filler {
      type: "xavier"
    }
  }
}
layer {
  name: "conv5_res1_conv1"
  type: "Convolution"
  bottom: "pool4"
  top: "conv5_res1_conv1"
  param {
    lr_mult: 1
    decay_mult: 1
  }
  convolution_param {
    num_output: 256
    pad: 0
    kernel_size: 1
    stride: 1
    weight_filler {
      type: "xavier"
    }
  }
}
layer {
  name: "conv5_res1_conv1_elu"
  type: "ELU"
  bottom: "conv5_res1_conv1"
  top: "conv5_res1_conv1"
  elu_param {
    alpha: 1
  }
}
layer {
  name: "conv5_res1_conv2"
  type: "Convolution"
  bottom: "conv5_res1_conv1"
  top: "conv5_res1_conv2"
  param {
    lr_mult: 1
    decay_mult: 1
  }
  convolution_param {
    num_output: 256
    pad: 1
    kernel_size: 3
    stride: 1
    weight_filler {
      type: "xavier"
    }
  }
}
layer {
  name: "conv5_res1_conv2_elu"
  type: "ELU"
  bottom: "conv5_res1_conv2"
  top: "conv5_res1_conv2"
  elu_param {
    alpha: 1
  }
}
layer {
  name: "conv5_res1_conv3"
  type: "Convolution"
  bottom: "conv5_res1_conv2"
  top: "conv5_res1_conv3"
  param {
    lr_mult: 1
    decay_mult: 1
  }
  convolution_param {
    num_output: 1024
    pad: 0
    kernel_size: 1
    stride: 1
    weight_filler {
      type: "xavier"
    }
  }
}
layer {
  name: "conv5_res1"
  type: "Eltwise"
  bottom: "conv5_res1_proj"
  bottom: "conv5_res1_conv3"
  top: "conv5_res1"
}
layer {
  name: "conv5_res1_elu"
  type: "ELU"
  bottom: "conv5_res1"
  top: "conv5_res1"
  elu_param {
    alpha: 1
  }
}
layer {
  name: "conv5_res2_conv1"
  type: "Convolution"
  bottom: "conv5_res1"
  top: "conv5_res2_conv1"
  param {
    lr_mult: 1
    decay_mult: 1
  }
  convolution_param {
    num_output: 256
    pad: 0
    kernel_size: 1
    stride: 1
    weight_filler {
      type: "xavier"
    }
  }
}
layer {
  name: "conv5_res2_conv1_elu"
  type: "ELU"
  bottom: "conv5_res2_conv1"
  top: "conv5_res2_conv1"
  elu_param {
    alpha: 1
  }
}
layer {
  name: "conv5_res2_conv2"
  type: "Convolution"
  bottom: "conv5_res2_conv1"
  top: "conv5_res2_conv2"
  param {
    lr_mult: 1
    decay_mult: 1
  }
  convolution_param {
    num_output: 256
    pad: 1
    kernel_size: 3
    stride: 1
    weight_filler {
      type: "xavier"
    }
  }
}
layer {
  name: "conv5_res2_conv2_elu"
  type: "ELU"
  bottom: "conv5_res2_conv2"
  top: "conv5_res2_conv2"
  elu_param {
    alpha: 1
  }
}
layer {
  name: "conv5_res2_conv3"
  type: "Convolution"
  bottom: "conv5_res2_conv2"
  top: "conv5_res2_conv3"
  param {
    lr_mult: 1
    decay_mult: 1
  }
  convolution_param {
    num_output: 256
    pad: 1
    kernel_size: 3
    stride: 1
    weight_filler {
      type: "xavier"
    }
  }
}
layer {
  name: "conv5_res2_conv3_elu"
  type: "ELU"
  bottom: "conv5_res2_conv3"
  top: "conv5_res2_conv3"
  elu_param {
    alpha: 1
  }
}
layer {
  name: "conv5_res2_conv4"
  type: "Convolution"
  bottom: "conv5_res2_conv3"
  top: "conv5_res2_conv4"
  param {
    lr_mult: 1
    decay_mult: 1
  }
  convolution_param {
    num_output: 1024
    pad: 0
    kernel_size: 1
    stride: 1
    weight_filler {
      type: "xavier"
    }
  }
}
layer {
  name: "conv5_res2"
  type: "Eltwise"
  bottom: "conv5_res1"
  bottom: "conv5_res2_conv4"
  top: "conv5_res2"
}
layer {
  name: "conv5_res2_elu"
  type: "ELU"
  bottom: "conv5_res2"
  top: "conv5_res2"
  elu_param {
    alpha: 1
  }
}
layer {
  name: "conv5_res3_conv1"
  type: "Convolution"
  bottom: "conv5_res2"
  top: "conv5_res3_conv1"
  param {
    lr_mult: 1
    decay_mult: 1
  }
  convolution_param {
    num_output: 256
    pad: 0
    kernel_size: 1
    stride: 1
    weight_filler {
      type: "xavier"
    }
  }
}
layer {
  name: "conv5_res3_conv1_elu"
  type: "ELU"
  bottom: "conv5_res3_conv1"
  top: "conv5_res3_conv1"
  elu_param {
    alpha: 1
  }
}
layer {
  name: "conv5_res3_conv2"
  type: "Convolution"
  bottom: "conv5_res3_conv1"
  top: "conv5_res3_conv2"
  param {
    lr_mult: 1
    decay_mult: 1
  }
  convolution_param {
    num_output: 256
    pad: 1
    kernel_size: 3
    stride: 1
    weight_filler {
      type: "xavier"
    }
  }
}
layer {
  name: "conv5_res3_conv2_elu"
  type: "ELU"
  bottom: "conv5_res3_conv2"
  top: "conv5_res3_conv2"
  elu_param {
    alpha: 1
  }
}
layer {
  name: "conv5_res3_conv3"
  type: "Convolution"
  bottom: "conv5_res3_conv2"
  top: "conv5_res3_conv3"
  param {
    lr_mult: 1
    decay_mult: 1
  }
  convolution_param {
    num_output: 256
    pad: 1
    kernel_size: 3
    stride: 1
    weight_filler {
      type: "xavier"
    }
  }
}
layer {
  name: "conv5_res3_conv3_elu"
  type: "ELU"
  bottom: "conv5_res3_conv3"
  top: "conv5_res3_conv3"
  elu_param {
    alpha: 1
  }
}
layer {
  name: "conv5_res3_conv4"
  type: "Convolution"
  bottom: "conv5_res3_conv3"
  top: "conv5_res3_conv4"
  param {
    lr_mult: 1
    decay_mult: 1
  }
  convolution_param {
    num_output: 1024
    pad: 0
    kernel_size: 1
    stride: 1
    weight_filler {
      type: "xavier"
    }
  }
}
layer {
  name: "conv5_res3"
  type: "Eltwise"
  bottom: "conv5_res2"
  bottom: "conv5_res3_conv4"
  bottom: "conv2_conv5_proj"
  bottom: "conv3_conv5_proj"
  bottom: "conv4_conv5_proj"
  top: "conv5_res3"
}
layer {
  name: "conv5_res3_elu"
  type: "ELU"
  bottom: "conv5_res3"
  top: "conv5_res3"
  elu_param {
    alpha: 1
  }
}
layer {
  name: "pool5"
  type: "Pooling"
  bottom: "conv5_res3"
  top: "pool5"
  pooling_param {
    pool: AVE
    global_pooling: true
  }
}
layer
I0922 19:20:39.601244 29728 layer_factory.hpp:77] Creating layer data
I0922 19:20:39.601953 29728 net.cpp:91] Creating Layer data
I0922 19:20:39.601980 29728 net.cpp:399] data -> data
I0922 19:20:39.602018 29728 net.cpp:399] data -> label
I0922 19:20:39.602736 29734 db_lmdb.cpp:35] Opened lmdb /media/dereyly/data_one/data/CAFFE_DATA/imagenet_train_150
I0922 19:20:39.611277 29728 data_layer.cpp:41] output data size: 256,3,128,128
I0922 19:20:39.676949 29728 net.cpp:141] Setting up data
I0922 19:20:39.676972 29728 net.cpp:148] Top shape: 256 3 128 128 (12582912)
I0922 19:20:39.676976 29728 net.cpp:148] Top shape: 256 (256)
I0922 19:20:39.676980 29728 net.cpp:156] Memory required for data: 50332672
I0922 19:20:39.676986 29728 layer_factory.hpp:77] Creating layer conv1
I0922 19:20:39.677002 29728 net.cpp:91] Creating Layer conv1
I0922 19:20:39.677007 29728 net.cpp:425] conv1 <- data
I0922 19:20:39.677031 29728 net.cpp:399] conv1 -> conv1
I0922 19:20:39.863643 29728 net.cpp:141] Setting up conv1
I0922 19:20:39.863685 29728 net.cpp:148] Top shape: 256 64 61 61 (60964864)
I0922 19:20:39.863689 29728 net.cpp:156] Memory required for data: 294192128
I0922 19:20:39.863730 29728 layer_factory.hpp:77] Creating layer conv1_relu
I0922 19:20:39.863739 29728 net.cpp:91] Creating Layer conv1_relu
I0922 19:20:39.863742 29728 net.cpp:425] conv1_relu <- conv1
I0922 19:20:39.863747 29728 net.cpp:386] conv1_relu -> conv1 (in-place)
I0922 19:20:39.863998 29728 net.cpp:141] Setting up conv1_relu
I0922 19:20:39.864007 29728 net.cpp:148] Top shape: 256 64 61 61 (60964864)
I0922 19:20:39.864011 29728 net.cpp:156] Memory required for data: 538051584
I0922 19:20:39.864013 29728 layer_factory.hpp:77] Creating layer pool1
I0922 19:20:39.864020 29728 net.cpp:91] Creating Layer pool1
I0922 19:20:39.864038 29728 net.cpp:425] pool1 <- conv1
I0922 19:20:39.864043 29728 net.cpp:399] pool1 -> pool1
I0922 19:20:39.864094 29728 net.cpp:141] Setting up pool1
I0922 19:20:39.864112 29728 net.cpp:148] Top shape: 256 64 31 31 (15745024)
I0922 19:20:39.864114 29728 net.cpp:156] Memory required for data: 601031680
I0922 19:20:39.864117 29728 layer_factory.hpp:77] Creating layer pool1_elu
I0922 19:20:39.864122 29728 net.cpp:91] Creating Layer pool1_elu
I0922 19:20:39.864126 29728 net.cpp:425] pool1_elu <- pool1
I0922 19:20:39.864145 29728 net.cpp:386] pool1_elu -> pool1 (in-place)
I0922 19:20:39.864151 29728 net.cpp:141] Setting up pool1_elu
I0922 19:20:39.864168 29728 net.cpp:148] Top shape: 256 64 31 31 (15745024)
I0922 19:20:39.864171 29728 net.cpp:156] Memory required for data: 664011776
I0922 19:20:39.864173 29728 layer_factory.hpp:77] Creating layer pool1_pool1_elu_0_split
I0922 19:20:39.864182 29728 net.cpp:91] Creating Layer pool1_pool1_elu_0_split
I0922 19:20:39.864186 29728 net.cpp:425] pool1_pool1_elu_0_split <- pool1
I0922 19:20:39.864189 29728 net.cpp:399] pool1_pool1_elu_0_split -> pool1_pool1_elu_0_split_0
I0922 19:20:39.864194 29728 net.cpp:399] pool1_pool1_elu_0_split -> pool1_pool1_elu_0_split_1
I0922 19:20:39.864198 29728 net.cpp:399] pool1_pool1_elu_0_split -> pool1_pool1_elu_0_split_2
I0922 19:20:39.864202 29728 net.cpp:399] pool1_pool1_elu_0_split -> pool1_pool1_elu_0_split_3
I0922 19:20:39.864253 29728 net.cpp:141] Setting up pool1_pool1_elu_0_split
I0922 19:20:39.864272 29728 net.cpp:148] Top shape: 256 64 31 31 (15745024)
I0922 19:20:39.864275 29728 net.cpp:148] Top shape: 256 64 31 31 (15745024)
I0922 19:20:39.864279 29728 net.cpp:148] Top shape: 256 64 31 31 (15745024)
I0922 19:20:39.864296 29728 net.cpp:148] Top shape: 256 64 31 31 (15745024)
I0922 19:20:39.864300 29728 net.cpp:156] Memory required for data: 915932160
I0922 19:20:39.864301 29728 layer_factory.hpp:77] Creating layer conv1_conv2_proj
I0922 19:20:39.864310 29728 net.cpp:91] Creating Layer conv1_conv2_proj
I0922 19:20:39.864313 29728 net.cpp:425] conv1_conv2_proj <- pool1_pool1_elu_0_split_0
I0922 19:20:39.864317 29728 net.cpp:399] conv1_conv2_proj -> conv1_conv2_proj
I0922 19:20:39.865412 29728 net.cpp:141] Setting up conv1_conv2_proj
I0922 19:20:39.865423 29728 net.cpp:148] Top shape: 256 128 31 31 (31490048)
I0922 19:20:39.865427 29728 net.cpp:156] Memory required for data: 1041892352
I0922 19:20:39.865448 29728 layer_factory.hpp:77] Creating layer conv1_conv3_proj
I0922 19:20:39.865456 29728 net.cpp:91] Creating Layer conv1_conv3_proj
I0922 19:20:39.865460 29728 net.cpp:425] conv1_conv3_proj <- pool1_pool1_elu_0_split_1
I0922 19:20:39.865464 29728 net.cpp:399] conv1_conv3_proj -> conv1_conv3_proj
I0922 19:20:39.866236 29728 net.cpp:141] Setting up conv1_conv3_proj
I0922 19:20:39.866245 29728 net.cpp:148] Top shape: 256 256 16 16 (16777216)
I0922 19:20:39.866250 29728 net.cpp:156] Memory required for data: 1109001216
I0922 19:20:39.866256 29728 layer_factory.hpp:77] Creating layer conv2_res1_proj
I0922 19:20:39.866266 29728 net.cpp:91] Creating Layer conv2_res1_proj
I0922 19:20:39.866269 29728 net.cpp:425] conv2_res1_proj <- pool1_pool1_elu_0_split_2
I0922 19:20:39.866300 29728 net.cpp:399] conv2_res1_proj -> conv2_res1_proj
I0922 19:20:39.867259 29728 net.cpp:141] Setting up conv2_res1_proj
I0922 19:20:39.867269 29728 net.cpp:148] Top shape: 256 128 31 31 (31490048)
I0922 19:20:39.867271 29728 net.cpp:156] Memory required for data: 1234961408
I0922 19:20:39.867276 29728 layer_factory.hpp:77] Creating layer conv2_res1_conv1
I0922 19:20:39.867282 29728 net.cpp:91] Creating Layer conv2_res1_conv1
I0922 19:20:39.867286 29728 net.cpp:425] conv2_res1_conv1 <- pool1_pool1_elu_0_split_3
I0922 19:20:39.867290 29728 net.cpp:399] conv2_res1_conv1 -> conv2_res1_conv1
I0922 19:20:39.868089 29728 net.cpp:141] Setting up conv2_res1_conv1
I0922 19:20:39.868098 29728 net.cpp:148] Top shape: 256 32 31 31 (7872512)
I0922 19:20:39.868101 29728 net.cpp:156] Memory required for data: 1266451456
I0922 19:20:39.868109 29728 layer_factory.hpp:77] Creating layer conv2_res1_conv1_elu
I0922 19:20:39.868114 29728 net.cpp:91] Creating Layer conv2_res1_conv1_elu
I0922 19:20:39.868119 29728 net.cpp:425] conv2_res1_conv1_elu <- conv2_res1_conv1
I0922 19:20:39.868124 29728 net.cpp:386] conv2_res1_conv1_elu -> conv2_res1_conv1 (in-place)
I0922 19:20:39.868129 29728 net.cpp:141] Setting up conv2_res1_conv1_elu
I0922 19:20:39.868132 29728 net.cpp:148] Top shape: 256 32 31 31 (7872512)
I0922 19:20:39.868134 29728 net.cpp:156] Memory required for data: 1297941504
I0922 19:20:39.868137 29728 layer_factory.hpp:77] Creating layer conv2_res1_conv2
I0922 19:20:39.868142 29728 net.cpp:91] Creating Layer conv2_res1_conv2
I0922 19:20:39.868145 29728 net.cpp:425] conv2_res1_conv2 <- conv2_res1_conv1
I0922 19:20:39.868166 29728 net.cpp:399] conv2_res1_conv2 -> conv2_res1_conv2
I0922 19:20:39.868926 29728 net.cpp:141] Setting up conv2_res1_conv2
I0922 19:20:39.868934 29728 net.cpp:148] Top shape: 256 32 31 31 (7872512)
I0922 19:20:39.868937 29728 net.cpp:156] Memory required for data: 1329431552
I0922 19:20:39.868942 29728 layer_factory.hpp:77] Creating layer conv2_res1_conv2_elu
I0922 19:20:39.868948 29728 net.cpp:91] Creating Layer conv2_res1_conv2_elu
I0922 19:20:39.868965 29728 net.cpp:425] conv2_res1_conv2_elu <- conv2_res1_conv2
I0922 19:20:39.868969 29728 net.cpp:386] conv2_res1_conv2_elu -> conv2_res1_conv2 (in-place)
I0922 19:20:39.868974 29728 net.cpp:141] Setting up conv2_res1_conv2_elu
I0922 19:20:39.868978 29728 net.cpp:148] Top shape: 256 32 31 31 (7872512)
I0922 19:20:39.868980 29728 net.cpp:156] Memory required for data: 1360921600
I0922 19:20:39.868983 29728 layer_factory.hpp:77] Creating layer conv2_res1_conv3
I0922 19:20:39.869002 29728 net.cpp:91] Creating Layer conv2_res1_conv3
I0922 19:20:39.869005 29728 net.cpp:425] conv2_res1_conv3 <- conv2_res1_conv2
I0922 19:20:39.869010 29728 net.cpp:399] conv2_res1_conv3 -> conv2_res1_conv3
I0922 19:20:39.869747 29728 net.cpp:141] Setting up conv2_res1_conv3
I0922 19:20:39.869756 29728 net.cpp:148] Top shape: 256 128 31 31 (31490048)
I0922 19:20:39.869758 29728 net.cpp:156] Memory required for data: 1486881792
I0922 19:20:39.869763 29728 layer_factory.hpp:77] Creating layer conv2_res1
I0922 19:20:39.869768 29728 net.cpp:91] Creating Layer conv2_res1
I0922 19:20:39.869786 29728 net.cpp:425] conv2_res1 <- conv2_res1_proj
I0922 19:20:39.869789 29728 net.cpp:425] conv2_res1 <- conv2_res1_conv3
I0922 19:20:39.869793 29728 net.cpp:399] conv2_res1 -> conv2_res1
I0922 19:20:39.869832 29728 net.cpp:141] Setting up conv2_res1
I0922 19:20:39.869838 29728 net.cpp:148] Top shape: 256 128 31 31 (31490048)
I0922 19:20:39.869840 29728 net.cpp:156] Memory required for data: 1612841984
I0922 19:20:39.869843 29728 layer_factory.hpp:77] Creating layer conv2_res1_elu
I0922 19:20:39.869846 29728 net.cpp:91] Creating Layer conv2_res1_elu
I0922 19:20:39.869849 29728 net.cpp:425] conv2_res1_elu <- conv2_res1
I0922 19:20:39.869853 29728 net.cpp:386] conv2_res1_elu -> conv2_res1 (in-place)
I0922 19:20:39.869856 29728 net.cpp:141] Setting up conv2_res1_elu
I0922 19:20:39.869859 29728 net.cpp:148] Top shape: 256 128 31 31 (31490048)
I0922 19:20:39.869861 29728 net.cpp:156] Memory required for data: 1738802176
I0922 19:20:39.869873 29728 layer_factory.hpp:77] Creating layer conv2_res1_conv2_res1_elu_0_split
I0922 19:20:39.869879 29728 net.cpp:91] Creating Layer conv2_res1_conv2_res1_elu_0_split
I0922 19:20:39.869881 29728 net.cpp:425] conv2_res1_conv2_res1_elu_0_split <- conv2_res1
I0922 19:20:39.869884 29728 net.cpp:399] conv2_res1_conv2_res1_elu_0_split -> conv2_res1_conv2_res1_elu_0_split_0
I0922 19:20:39.869889 29728 net.cpp:399] conv2_res1_conv2_res1_elu_0_split -> conv2_res1_conv2_res1_elu_0_split_1
I0922 19:20:39.869915 29728 net.cpp:141] Setting up conv2_res1_conv2_res1_elu_0_split
I0922 19:20:39.869920 29728 net.cpp:148] Top shape: 256 128 31 31 (31490048)
I0922 19:20:39.869923 29728 net.cpp:148] Top shape: 256 128 31 31 (31490048)
I0922 19:20:39.869926 29728 net.cpp:156] Memory required for data: 1990722560
I0922 19:20:39.869928 29728 layer_factory.hpp:77] Creating layer conv2_res2_conv1
I0922 19:20:39.869935 29728 net.cpp:91] Creating Layer conv2_res2_conv1
I0922 19:20:39.869937 29728 net.cpp:425] conv2_res2_conv1 <- conv2_res1_conv2_res1_elu_0_split_0
I0922 19:20:39.869942 29728 net.cpp:399] conv2_res2_conv1 -> conv2_res2_conv1
I0922 19:20:39.870611 29728 net.cpp:141] Setting up conv2_res2_conv1
I0922 19:20:39.870620 29728 net.cpp:148] Top shape: 256 32 31 31 (7872512)
I0922 19:20:39.870622 29728 net.cpp:156] Memory required for data: 2022212608
I0922 19:20:39.870627 29728 layer_factory.hpp:77] Creating layer conv2_res2_conv1_elu
I0922 19:20:39.870647 29728 net.cpp:91] Creating Layer conv2_res2_conv1_elu
I0922 19:20:39.870651 29728 net.cpp:425] conv2_res2_conv1_elu <- conv2_res2_conv1
I0922 19:20:39.870657 29728 net.cpp:386] conv2_res2_conv1_elu -> conv2_res2_conv1 (in-place)
I0922 19:20:39.870676 29728 net.cpp:141] Setting up conv2_res2_conv1_elu
I0922 19:20:39.870678 29728 net.cpp:148] Top shape: 256 32 31 31 (7872512)
I0922 19:20:39.870682 29728 net.cpp:156] Memory required for data: 2053702656
I0922 19:20:39.870683 29728 layer_factory.hpp:77] Creating layer conv2_res2_conv2
I0922 19:20:39.870688 29728 net.cpp:91] Creating Layer conv2_res2_conv2
I0922 19:20:39.870692 29728 net.cpp:425] conv2_res2_conv2 <- conv2_res2_conv1
I0922 19:20:39.870697 29728 net.cpp:399] conv2_res2_conv2 -> conv2_res2_conv2
I0922 19:20:39.871536 29728 net.cpp:141] Setting up conv2_res2_conv2
I0922 19:20:39.871544 29728 net.cpp:148] Top shape: 256 32 31 31 (7872512)
I0922 19:20:39.871547 29728 net.cpp:156] Memory required for data: 2085192704
I0922 19:20:39.871553 29728 layer_factory.hpp:77] Creating layer conv2_res2_conv2_elu
I0922 19:20:39.871573 29728 net.cpp:91] Creating Layer conv2_res2_conv2_elu
I0922 19:20:39.871577 29728 net.cpp:425] conv2_res2_conv2_elu <- conv2_res2_conv2
I0922 19:20:39.871580 29728 net.cpp:386] conv2_res2_conv2_elu -> conv2_res2_conv2 (in-place)
I0922 19:20:39.871585 29728 net.cpp:141] Setting up conv2_res2_conv2_elu
I0922 19:20:39.871588 29728 net.cpp:148] Top shape: 256 32 31 31 (7872512)
I0922 19:20:39.871592 29728 net.cpp:156] Memory required for data: 2116682752
I0922 19:20:39.871593 29728 layer_factory.hpp:77] Creating layer conv2_res2_conv3
I0922 19:20:39.871599 29728 net.cpp:91] Creating Layer conv2_res2_conv3
I0922 19:20:39.871603 29728 net.cpp:425] conv2_res2_conv3 <- conv2_res2_conv2
I0922 19:20:39.871608 29728 net.cpp:399] conv2_res2_conv3 -> conv2_res2_conv3
I0922 19:20:39.872361 29728 net.cpp:141] Setting up conv2_res2_conv3
I0922 19:20:39.872370 29728 net.cpp:148] Top shape: 256 32 31 31 (7872512)
I0922 19:20:39.872373 29728 net.cpp:156] Memory required for data: 2148172800
I0922 19:20:39.872377 29728 layer_factory.hpp:77] Creating layer conv2_res2_conv3_elu
I0922 19:20:39.872397 29728 net.cpp:91] Creating Layer conv2_res2_conv3_elu
I0922 19:20:39.872400 29728 net.cpp:425] conv2_res2_conv3_elu <- conv2_res2_conv3
I0922 19:20:39.872403 29728 net.cpp:386] conv2_res2_conv3_elu -> conv2_res2_conv3 (in-place)
I0922 19:20:39.872408 29728 net.cpp:141] Setting up conv2_res2_conv3_elu
I0922 19:20:39.872411 29728 net.cpp:148] Top shape: 256 32 31 31 (7872512)
I0922 19:20:39.872413 29728 net.cpp:156] Memory required for data: 2179662848
I0922 19:20:39.872436 29728 layer_factory.hpp:77] Creating layer conv2_res2_conv4
I0922 19:20:39.872442 29728 net.cpp:91] Creating Layer conv2_res2_conv4
I0922 19:20:39.872445 29728 net.cpp:425] conv2_res2_conv4 <- conv2_res2_conv3
I0922 19:20:39.872449 29728 net.cpp:399] conv2_res2_conv4 -> conv2_res2_conv4
I0922 19:20:39.873217 29728 net.cpp:141] Setting up conv2_res2_conv4
I0922 19:20:39.873226 29728 net.cpp:148] Top shape: 256 128 31 31 (31490048)
I0922 19:20:39.873229 29728 net.cpp:156] Memory required for data: 2305623040
I0922 19:20:39.873234 29728 layer_factory.hpp:77] Creating layer conv2_res2
I0922 19:20:39.873252 29728 net.cpp:91] Creating Layer conv2_res2
I0922 19:20:39.873255 29728 net.cpp:425] conv2_res2 <- conv2_res1_conv2_res1_elu_0_split_1
I0922 19:20:39.873260 29728 net.cpp:425] conv2_res2 <- conv2_res2_conv4
I0922 19:20:39.873262 29728 net.cpp:399] conv2_res2 -> conv2_res2
I0922 19:20:39.873281 29728 net.cpp:141] Setting up conv2_res2
I0922 19:20:39.873286 29728 net.cpp:148] Top shape: 256 128 31 31 (31490048)
I0922 19:20:39.873287 29728 net.cpp:156] Memory required for data: 2431583232
I0922 19:20:39.873303 29728 layer_factory.hpp:77] Creating layer conv2_res2_elu
I0922 19:20:39.873308 29728 net.cpp:91] Creating Layer conv2_res2_elu
I0922 19:20:39.873311 29728 net.cpp:425] conv2_res2_elu <- conv2_res2
I0922 19:20:39.873313 29728 net.cpp:386] conv2_res2_elu -> conv2_res2 (in-place)
I0922 19:20:39.873317 29728 net.cpp:141] Setting up conv2_res2_elu
I0922 19:20:39.873320 29728 net.cpp:148] Top shape: 256 128 31 31 (31490048)
I0922 19:20:39.873323 29728 net.cpp:156] Memory required for data: 2557543424
I0922 19:20:39.873325 29728 layer_factory.hpp:77] Creating layer conv2_res2_conv2_res2_elu_0_split
I0922 19:20:39.873329 29728 net.cpp:91] Creating Layer conv2_res2_conv2_res2_elu_0_split
I0922 19:20:39.873332 29728 net.cpp:425] conv2_res2_conv2_res2_elu_0_split <- conv2_res2
I0922 19:20:39.873334 29728 net.cpp:399] conv2_res2_conv2_res2_elu_0_split -> conv2_res2_conv2_res2_elu_0_split_0
I0922 19:20:39.873339 29728 net.cpp:399] conv2_res2_conv2_res2_elu_0_split -> conv2_res2_conv2_res2_elu_0_split_1
I0922 19:20:39.873378 29728 net.cpp:141] Setting up conv2_res2_conv2_res2_elu_0_split
I0922 19:20:39.873381 29728 net.cpp:148] Top shape: 256 128 31 31 (31490048)
I0922 19:20:39.873384 29728 net.cpp:148] Top shape: 256 128 31 31 (31490048)
I0922 19:20:39.873399 29728 net.cpp:156] Memory required for data: 2809463808
I0922 19:20:39.873402 29728 layer_factory.hpp:77] Creating layer conv2_res3_conv1
I0922 19:20:39.873425 29728 net.cpp:91] Creating Layer conv2_res3_conv1
I0922 19:20:39.873427 29728 net.cpp:425] conv2_res3_conv1 <- conv2_res2_conv2_res2_elu_0_split_0
I0922 19:20:39.873431 29728 net.cpp:399] conv2_res3_conv1 -> conv2_res3_conv1
I0922 19:20:39.874153 29728 net.cpp:141] Setting up conv2_res3_conv1
I0922 19:20:39.874162 29728 net.cpp:148] Top shape: 256 32 31 31 (7872512)
I0922 19:20:39.874164 29728 net.cpp:156] Memory required for data: 2840953856
I0922 19:20:39.874169 29728 layer_factory.hpp:77] Creating layer conv2_res3_conv1_elu
I0922 19:20:39.874189 29728 net.cpp:91] Creating Layer conv2_res3_conv1_elu
I0922 19:20:39.874192 29728 net.cpp:425] conv2_res3_conv1_elu <- conv2_res3_conv1
I0922 19:20:39.874197 29728 net.cpp:386] conv2_res3_conv1_elu -> conv2_res3_conv1 (in-place)
I0922 19:20:39.874200 29728 net.cpp:141] Setting up conv2_res3_conv1_elu
I0922 19:20:39.874203 29728 net.cpp:148] Top shape: 256 32 31 31 (7872512)
I0922 19:20:39.874207 29728 net.cpp:156] Memory required for data: 2872443904
I0922 19:20:39.874208 29728 layer_factory.hpp:77] Creating layer conv2_res3_conv2
I0922 19:20:39.874228 29728 net.cpp:91] Creating Layer conv2_res3_conv2
I0922 19:20:39.874230 29728 net.cpp:425] conv2_res3_conv2 <- conv2_res3_conv1
I0922 19:20:39.874234 29728 net.cpp:399] conv2_res3_conv2 -> conv2_res3_conv2
I0922 19:20:39.874970 29728 net.cpp:141] Setting up conv2_res3_conv2
I0922 19:20:39.874979 29728 net.cpp:148] Top shape: 256 32 31 31 (7872512)
I0922 19:20:39.874989 29728 net.cpp:156] Memory required for data: 2903933952
I0922 19:20:39.875008 29728 layer_factory.hpp:77] Creating layer conv2_res3_conv2_elu
I0922 19:20:39.875013 29728 net.cpp:91] Creating Layer conv2_res3_conv2_elu
I0922 19:20:39.875016 29728 net.cpp:425] conv2_res3_conv2_elu <- conv2_res3_conv2
I0922 19:20:39.875020 29728 net.cpp:386] conv2_res3_conv2_elu -> conv2_res3_conv2 (in-place)
I0922 19:20:39.875025 29728 net.cpp:141] Setting up conv2_res3_conv2_elu
I0922 19:20:39.875028 29728 net.cpp:148] Top shape: 256 32 31 31 (7872512)
I0922 19:20:39.875030 29728 net.cpp:156] Memory required for data: 2935424000
I0922 19:20:39.875032 29728 layer_factory.hpp:77] Creating layer conv2_res3_conv3
I0922 19:20:39.875039 29728 net.cpp:91] Creating Layer conv2_res3_conv3
I0922 19:20:39.875042 29728 net.cpp:425] conv2_res3_conv3 <- conv2_res3_conv2
I0922 19:20:39.875046 29728 net.cpp:399] conv2_res3_conv3 -> conv2_res3_conv3
I0922 19:20:39.876349 29728 net.cpp:141] Setting up conv2_res3_conv3
I0922 19:20:39.876363 29728 net.cpp:148] Top shape: 256 32 31 31 (7872512)
I0922 19:20:39.876380 29728 net.cpp:156] Memory required for data: 2966914048
I0922 19:20:39.876401 29728 layer_factory.hpp:77] Creating layer conv2_res3_conv3_elu
I0922 19:20:39.876423 29728 net.cpp:91] Creating Layer conv2_res3_conv3_elu
I0922 19:20:39.876426 29728 net.cpp:425] conv2_res3_conv3_elu <- conv2_res3_conv3
I0922 19:20:39.876446 29728 net.cpp:386] conv2_res3_conv3_elu -> conv2_res3_conv3 (in-place)
I0922 19:20:39.876451 29728 net.cpp:141] Setting up conv2_res3_conv3_elu
I0922 19:20:39.876456 29728 net.cpp:148] Top shape: 256 32 31 31 (7872512)
I0922 19:20:39.876457 29728 net.cpp:156] Memory required for data: 2998404096
I0922 19:20:39.876459 29728 layer_factory.hpp:77] Creating layer conv2_res3_conv4
I0922 19:20:39.876466 29728 net.cpp:91] Creating Layer conv2_res3_conv4
I0922 19:20:39.876471 29728 net.cpp:425] conv2_res3_conv4 <- conv2_res3_conv3
I0922 19:20:39.876474 29728 net.cpp:399] conv2_res3_conv4 -> conv2_res3_conv4
I0922 19:20:39.877362 29728 net.cpp:141] Setting up conv2_res3_conv4
I0922 19:20:39.877384 29728 net.cpp:148] Top shape: 256 128 31 31 (31490048)
I0922 19:20:39.877388 29728 net.cpp:156] Memory required for data: 3124364288
I0922 19:20:39.877393 29728 layer_factory.hpp:77] Creating layer conv2_res3
I0922 19:20:39.877399 29728 net.cpp:91] Creating Layer conv2_res3
I0922 19:20:39.877403 29728 net.cpp:425] conv2_res3 <- conv2_res2_conv2_res2_elu_0_split_1
I0922 19:20:39.877408 29728 net.cpp:425] conv2_res3 <- conv2_res3_conv4
I0922 19:20:39.877411 29728 net.cpp:425] conv2_res3 <- conv1_conv2_proj
I0922 19:20:39.877414 29728 net.cpp:399] conv2_res3 -> conv2_res3
I0922 19:20:39.877447 29728 net.cpp:141] Setting up conv2_res3
I0922 19:20:39.877465 29728 net.cpp:148] Top shape: 256 128 31 31 (31490048)
I0922 19:20:39.877467 29728 net.cpp:156] Memory required for data: 3250324480
I0922 19:20:39.877470 29728 layer_factory.hpp:77] Creating layer pool2
I0922 19:20:39.877475 29728 net.cpp:91] Creating Layer pool2
I0922 19:20:39.877480 29728 net.cpp:425] pool2 <- conv2_res3
I0922 19:20:39.877482 29728 net.cpp:399] pool2 -> pool2
I0922 19:20:39.877522 29728 net.cpp:141] Setting up pool2
I0922 19:20:39.877526 29728 net.cpp:148] Top shape: 256 128 16 16 (8388608)
I0922 19:20:39.877529 29728 net.cpp:156] Memory required for data: 3283878912
I0922 19:20:39.877532 29728 layer_factory.hpp:77] Creating layer pool2_elu
I0922 19:20:39.877534 29728 net.cpp:91] Creating Layer pool2_elu
I0922 19:20:39.877537 29728 net.cpp:425] pool2_elu <- pool2
I0922 19:20:39.877542 29728 net.cpp:386] pool2_elu -> pool2 (in-place)
I0922 19:20:39.877545 29728 net.cpp:141] Setting up pool2_elu
I0922 19:20:39.877549 29728 net.cpp:148] Top shape: 256 128 16 16 (8388608)
I0922 19:20:39.877552 29728 net.cpp:156] Memory required for data: 3317433344
I0922 19:20:39.877554 29728 layer_factory.hpp:77] Creating layer pool2_pool2_elu_0_split
I0922 19:20:39.877558 29728 net.cpp:91] Creating Layer pool2_pool2_elu_0_split
I0922 19:20:39.877560 29728 net.cpp:425] pool2_pool2_elu_0_split <- pool2
I0922 19:20:39.877571 29728 net.cpp:399] pool2_pool2_elu_0_split -> pool2_pool2_elu_0_split_0
I0922 19:20:39.877576 29728 net.cpp:399] pool2_pool2_elu_0_split -> pool2_pool2_elu_0_split_1
I0922 19:20:39.877580 29728 net.cpp:399] pool2_pool2_elu_0_split -> pool2_pool2_elu_0_split_2
I0922 19:20:39.877588 29728 net.cpp:399] pool2_pool2_elu_0_split -> pool2_pool2_elu_0_split_3
I0922 19:20:39.877593 29728 net.cpp:399] pool2_pool2_elu_0_split -> pool2_pool2_elu_0_split_4
I0922 19:20:39.877640 29728 net.cpp:141] Setting up pool2_pool2_elu_0_split
I0922 19:20:39.877645 29728 net.cpp:148] Top shape: 256 128 16 16 (8388608)
I0922 19:20:39.877650 29728 net.cpp:148] Top shape: 256 128 16 16 (8388608)
I0922 19:20:39.877652 29728 net.cpp:148] Top shape: 256 128 16 16 (8388608)
I0922 19:20:39.877655 29728 net.cpp:148] Top shape: 256 128 16 16 (8388608)
I0922 19:20:39.877658 29728 net.cpp:148] Top shape: 256 128 16 16 (8388608)
I0922 19:20:39.877660 29728 net.cpp:156] Memory required for data: 3485205504
I0922 19:20:39.877663 29728 layer_factory.hpp:77] Creating layer conv2_conv3_proj
I0922 19:20:39.877670 29728 net.cpp:91] Creating Layer conv2_conv3_proj
I0922 19:20:39.877672 29728 net.cpp:425] conv2_conv3_proj <- pool2_pool2_elu_0_split_0
I0922 19:20:39.877676 29728 net.cpp:399] conv2_conv3_proj -> conv2_conv3_proj
I0922 19:20:39.878893 29728 net.cpp:141] Setting up conv2_conv3_proj
I0922 19:20:39.878903 29728 net.cpp:148] Top shape: 256 256 16 16 (16777216)
I0922 19:20:39.878907 29728 net.cpp:156] Memory required for data: 3552314368
I0922 19:20:39.878911 29728 layer_factory.hpp:77] Creating layer conv2_conv4_proj
I0922 19:20:39.878919 29728 net.cpp:91] Creating Layer conv2_conv4_proj
I0922 19:20:39.878923 29728 net.cpp:425] conv2_conv4_proj <- pool2_pool2_elu_0_split_1
I0922 19:20:39.878927 29728 net.cpp:399] conv2_conv4_proj -> conv2_conv4_proj
I0922 19:20:39.879901 29728 net.cpp:141] Setting up conv2_conv4_proj
I0922 19:20:39.879910 29728 net.cpp:148] Top shape: 256 512 8 8 (8388608)
I0922 19:20:39.879914 29728 net.cpp:156] Memory required for data: 3585868800
I0922 19:20:39.879923 29728 layer_factory.hpp:77] Creating layer conv2_conv5_proj
I0922 19:20:39.879931 29728 net.cpp:91] Creating Layer conv2_conv5_proj
I0922 19:20:39.879935 29728 net.cpp:425] conv2_conv5_proj <- pool2_pool2_elu_0_split_2
I0922 19:20:39.879940 29728 net.cpp:399] conv2_conv5_proj -> conv2_conv5_proj
I0922 19:20:39.881522 29728 net.cpp:141] Setting up conv2_conv5_proj
I0922 19:20:39.881532 29728 net.cpp:148] Top shape: 256 1024 4 4 (4194304)
I0922 19:20:39.881536 29728 net.cpp:156] Memory required for data: 3602646016
I0922 19:20:39.881541 29728 layer_factory.hpp:77] Creating layer conv3_res1_proj
I0922 19:20:39.881548 29728 net.cpp:91] Creating Layer conv3_res1_proj
I0922 19:20:39.881552 29728 net.cpp:425] conv3_res1_proj <- pool2_pool2_elu_0_split_3
I0922 19:20:39.881557 29728 net.cpp:399] conv3_res1_proj -> conv3_res1_proj
I0922 19:20:39.882503 29728 net.cpp:141] Setting up conv3_res1_proj
I0922 19:20:39.882513 29728 net.cpp:148] Top shape: 256 256 16 16 (16777216)
I0922 19:20:39.882515 29728 net.cpp:156] Memory required for data: 3669754880
I0922 19:20:39.882520 29728 layer_factory.hpp:77] Creating layer conv3_res1_conv1
I0922 19:20:39.882529 29728 net.cpp:91] Creating Layer conv3_res1_conv1
I0922 19:20:39.882532 29728 net.cpp:425] conv3_res1_conv1 <- pool2_pool2_elu_0_split_4
I0922 19:20:39.882537 29728 net.cpp:399] conv3_res1_conv1 -> conv3_res1_conv1
I0922 19:20:39.883311 29728 net.cpp:141] Setting up conv3_res1_conv1
I0922 19:20:39.883319 29728 net.cpp:148] Top shape: 256 64 16 16 (4194304)
I0922 19:20:39.883322 29728 net.cpp:156] Memory required for data: 3686532096
I0922 19:20:39.883327 29728 layer_factory.hpp:77] Creating layer conv3_res1_conv1_elu
I0922 19:20:39.883333 29728 net.cpp:91] Creating Layer conv3_res1_conv1_elu
I0922 19:20:39.883337 29728 net.cpp:425] conv3_res1_conv1_elu <- conv3_res1_conv1
I0922 19:20:39.883342 29728 net.cpp:386] conv3_res1_conv1_elu -> conv3_res1_conv1 (in-place)
I0922 19:20:39.883347 29728 net.cpp:141] Setting up conv3_res1_conv1_elu
I0922 19:20:39.883358 29728 net.cpp:148] Top shape: 256 64 16 16 (4194304)
I0922 19:20:39.883360 29728 net.cpp:156] Memory required for data: 3703309312
I0922 19:20:39.883363 29728 layer_factory.hpp:77] Creating layer conv3_res1_conv2
I0922 19:20:39.883368 29728 net.cpp:91] Creating Layer conv3_res1_conv2
I0922 19:20:39.883373 29728 net.cpp:425] conv3_res1_conv2 <- conv3_res1_conv1
I0922 19:20:39.883376 29728 net.cpp:399] conv3_res1_conv2 -> conv3_res1_conv2
I0922 19:20:39.884412 29728 net.cpp:141] Setting up conv3_res1_conv2
I0922 19:20:39.884438 29728 net.cpp:148] Top shape: 256 64 16 16 (4194304)
I0922 19:20:39.884443 29728 net.cpp:156] Memory required for data: 3720086528
I0922 19:20:39.884448 29728 layer_factory.hpp:77] Creating layer conv3_res1_conv2_elu
I0922 19:20:39.884454 29728 net.cpp:91] Creating Layer conv3_res1_conv2_elu
I0922 19:20:39.884456 29728 net.cpp:425] conv3_res1_conv2_elu <- conv3_res1_conv2
I0922 19:20:39.884460 29728 net.cpp:386] conv3_res1_conv2_elu -> conv3_res1_conv2 (in-place)
I0922 19:20:39.884465 29728 net.cpp:141] Setting up conv3_res1_conv2_elu
I0922 19:20:39.884469 29728 net.cpp:148] Top shape: 256 64 16 16 (4194304)
I0922 19:20:39.884471 29728 net.cpp:156] Memory required for data: 3736863744
I0922 19:20:39.884474 29728 layer_factory.hpp:77] Creating layer conv3_res1_conv3
I0922 19:20:39.884495 29728 net.cpp:91] Creating Layer conv3_res1_conv3
I0922 19:20:39.884498 29728 net.cpp:425] conv3_res1_conv3 <- conv3_res1_conv2
I0922 19:20:39.884503 29728 net.cpp:399] conv3_res1_conv3 -> conv3_res1_conv3
I0922 19:20:39.885350 29728 net.cpp:141] Setting up conv3_res1_conv3
I0922 19:20:39.885361 29728 net.cpp:148] Top shape: 256 256 16 16 (16777216)
I0922 19:20:39.885365 29728 net.cpp:156] Memory required for data: 3803972608
I0922 19:20:39.885370 29728 layer_factory.hpp:77] Creating layer conv3_res1
I0922 19:20:39.885375 29728 net.cpp:91] Creating Layer conv3_res1
I0922 19:20:39.885380 29728 net.cpp:425] conv3_res1 <- conv3_res1_proj
I0922 19:20:39.885382 29728 net.cpp:425] conv3_res1 <- conv3_res1_conv3
I0922 19:20:39.885386 29728 net.cpp:399] conv3_res1 -> conv3_res1
I0922 19:20:39.885403 29728 net.cpp:141] Setting up conv3_res1
I0922 19:20:39.885408 29728 net.cpp:148] Top shape: 256 256 16 16 (16777216)
I0922 19:20:39.885411 29728 net.cpp:156] Memory required for data: 3871081472
I0922 19:20:39.885413 29728 layer_factory.hpp:77] Creating layer conv3_res1_elu
I0922 19:20:39.885417 29728 net.cpp:91] Creating Layer conv3_res1_elu
I0922 19:20:39.885419 29728 net.cpp:425] conv3_res1_elu <- conv3_res1
I0922 19:20:39.885424 29728 net.cpp:386] conv3_res1_elu -> conv3_res1 (in-place)
I0922 19:20:39.885428 29728 net.cpp:141] Setting up conv3_res1_elu
I0922 19:20:39.885432 29728 net.cpp:148] Top shape: 256 256 16 16 (16777216)
I0922 19:20:39.885434 29728 net.cpp:156] Memory required for data: 3938190336
I0922 19:20:39.885437 29728 layer_factory.hpp:77] Creating layer conv3_res1_conv3_res1_elu_0_split
I0922 19:20:39.885440 29728 net.cpp:91] Creating Layer conv3_res1_conv3_res1_elu_0_split
I0922 19:20:39.885442 29728 net.cpp:425] conv3_res1_conv3_res1_elu_0_split <- conv3_res1
I0922 19:20:39.885447 29728 net.cpp:399] conv3_res1_conv3_res1_elu_0_split -> conv3_res1_conv3_res1_elu_0_split_0
I0922 19:20:39.885450 29728 net.cpp:399] conv3_res1_conv3_res1_elu_0_split -> conv3_res1_conv3_res1_elu_0_split_1
I0922 19:20:39.885476 29728 net.cpp:141] Setting up conv3_res1_conv3_res1_elu_0_split
I0922 19:20:39.885481 29728 net.cpp:148] Top shape: 256 256 16 16 (16777216)
I0922 19:20:39.885484 29728 net.cpp:148] Top shape: 256 256 16 16 (16777216)
I0922 19:20:39.885486 29728 net.cpp:156] Memory required for data: 4072408064
I0922 19:20:39.885488 29728 layer_factory.hpp:77] Creating layer conv3_res2_conv1
I0922 19:20:39.885494 29728 net.cpp:91] Creating Layer conv3_res2_conv1
I0922 19:20:39.885499 29728 net.cpp:425] conv3_res2_conv1 <- conv3_res1_conv3_res1_elu_0_split_0
I0922 19:20:39.885504 29728 net.cpp:399] conv3_res2_conv1 -> conv3_res2_conv1
I0922 19:20:39.886306 29728 net.cpp:141] Setting up conv3_res2_conv1
I0922 19:20:39.886322 29728 net.cpp:148] Top shape: 256 64 16 16 (4194304)
I0922 19:20:39.886327 29728 net.cpp:156] Memory required for data: 4089185280
I0922 19:20:39.886330 29728 layer_factory.hpp:77] Creating layer conv3_res2_conv1_elu
I0922 19:20:39.886335 29728 net.cpp:91] Creating Layer conv3_res2_conv1_elu
I0922 19:20:39.886339 29728 net.cpp:425] conv3_res2_conv1_elu <- conv3_res2_conv1
I0922 19:20:39.886343 29728 net.cpp:386] conv3_res2_conv1_elu -> conv3_res2_conv1 (in-place)
I0922 19:20:39.886348 29728 net.cpp:141] Setting up conv3_res2_conv1_elu
I0922 19:20:39.886351 29728 net.cpp:148] Top shape: 256 64 16 16 (4194304)
I0922 19:20:39.886354 29728 net.cpp:156] Memory required for data: 4105962496
I0922 19:20:39.886356 29728 layer_factory.hpp:77] Creating layer conv3_res2_conv2
I0922 19:20:39.886364 29728 net.cpp:91] Creating Layer conv3_res2_conv2
I0922 19:20:39.886368 29728 net.cpp:425] conv3_res2_conv2 <- conv3_res2_conv1
I0922 19:20:39.886373 29728 net.cpp:399] conv3_res2_conv2 -> conv3_res2_conv2
I0922 19:20:39.887715 29728 net.cpp:141] Setting up conv3_res2_conv2
I0922 19:20:39.887725 29728 net.cpp:148] Top shape: 256 256 16 16 (16777216)
I0922 19:20:39.887728 29728 net.cpp:156] Memory required for data: 4173071360
I0922 19:20:39.887732 29728 layer_factory.hpp:77] Creating layer conv3_res2
I0922 19:20:39.887737 29728 net.cpp:91] Creating Layer conv3_res2
I0922 19:20:39.887742 29728 net.cpp:425] conv3_res2 <- conv3_res1_conv3_res1_elu_0_split_1
I0922 19:20:39.887745 29728 net.cpp:425] conv3_res2 <- conv3_res2_conv2
I0922 19:20:39.887749 29728 net.cpp:399] conv3_res2 -> conv3_res2
I0922 19:20:39.887768 29728 net.cpp:141] Setting up conv3_res2
I0922 19:20:39.887773 29728 net.cpp:148] Top shape: 256 256 16 16 (16777216)
I0922 19:20:39.887775 29728 net.cpp:156] Memory required for data: 4240180224
I0922 19:20:39.887778 29728 layer_factory.hpp:77] Creating layer conv3_res2_elu
I0922 19:20:39.887784 29728 net.cpp:91] Creating Layer conv3_res2_elu
I0922 19:20:39.887789 29728 net.cpp:425] conv3_res2_elu <- conv3_res2
I0922 19:20:39.887791 29728 net.cpp:386] conv3_res2_elu -> conv3_res2 (in-place)
I0922 19:20:39.887795 29728 net.cpp:141] Setting up conv3_res2_elu
I0922 19:20:39.887799 29728 net.cpp:148] Top shape: 256 256 16 16 (16777216)
I0922 19:20:39.887801 29728 net.cpp:156] Memory required for data: 4307289088
I0922 19:20:39.887804 29728 layer_factory.hpp:77] Creating layer conv3_res2_conv3_res2_elu_0_split
I0922 19:20:39.887807 29728 net.cpp:91] Creating Layer conv3_res2_conv3_res2_elu_0_split
I0922 19:20:39.887810 29728 net.cpp:425] conv3_res2_conv3_res2_elu_0_split <- conv3_res2
I0922 19:20:39.887814 29728 net.cpp:399] conv3_res2_conv3_res2_elu_0_split -> conv3_res2_conv3_res2_elu_0_split_0
I0922 19:20:39.887819 29728 net.cpp:399] conv3_res2_conv3_res2_elu_0_split -> conv3_res2_conv3_res2_elu_0_split_1
I0922 19:20:39.887845 29728 net.cpp:141] Setting up conv3_res2_conv3_res2_elu_0_split
I0922 19:20:39.887850 29728 net.cpp:148] Top shape: 256 256 16 16 (16777216)
I0922 19:20:39.887852 29728 net.cpp:148] Top shape: 256 256 16 16 (16777216)
I0922 19:20:39.887854 29728 net.cpp:156] Memory required for data: 4441506816
I0922 19:20:39.887857 29728 layer_factory.hpp:77] Creating layer conv3_res3_conv1
I0922 19:20:39.887863 29728 net.cpp:91] Creating Layer conv3_res3_conv1
I0922 19:20:39.887867 29728 net.cpp:425] conv3_res3_conv1 <- conv3_res2_conv3_res2_elu_0_split_0
I0922 19:20:39.887871 29728 net.cpp:399] conv3_res3_conv1 -> conv3_res3_conv1
I0922 19:20:39.888705 29728 net.cpp:141] Setting up conv3_res3_conv1
I0922 19:20:39.888715 29728 net.cpp:148] Top shape: 256 64 16 16 (4194304)
I0922 19:20:39.888718 29728 net.cpp:156] Memory required for data: 4458284032
I0922 19:20:39.888723 29728 layer_factory.hpp:77] Creating layer conv3_res3_conv1_elu
I0922 19:20:39.888728 29728 net.cpp:91] Creating Layer conv3_res3_conv1_elu
I0922 19:20:39.888731 29728 net.cpp:425] conv3_res3_conv1_elu <- conv3_res3_conv1
I0922 19:20:39.888736 29728 net.cpp:386] conv3_res3_conv1_elu -> conv3_res3_conv1 (in-place)
I0922 19:20:39.888763 29728 net.cpp:141] Setting up conv3_res3_conv1_elu
I0922 19:20:39.888782 29728 net.cpp:148] Top shape: 256 64 16 16 (4194304)
I0922 19:20:39.888783 29728 net.cpp:156] Memory required for data: 4475061248
I0922 19:20:39.888787 29728 layer_factory.hpp:77] Creating layer conv3_res3_conv2
I0922 19:20:39.888793 29728 net.cpp:91] Creating Layer conv3_res3_conv2
I0922 19:20:39.888797 29728 net.cpp:425] conv3_res3_conv2 <- conv3_res3_conv1
I0922 19:20:39.888802 29728 net.cpp:399] conv3_res3_conv2 -> conv3_res3_conv2
I0922 19:20:39.889883 29728 net.cpp:141] Setting up conv3_res3_conv2
I0922 19:20:39.889894 29728 net.cpp:148] Top shape: 256 64 16 16 (4194304)
I0922 19:20:39.889896 29728 net.cpp:156] Memory required for data: 4491838464
I0922 19:20:39.889916 29728 layer_factory.hpp:77] Creating layer conv3_res3_conv2_elu
I0922 19:20:39.889922 29728 net.cpp:91] Creating Layer conv3_res3_conv2_elu
I0922 19:20:39.889925 29728 net.cpp:425] conv3_res3_conv2_elu <- conv3_res3_conv2
I0922 19:20:39.889931 29728 net.cpp:386] conv3_res3_conv2_elu -> conv3_res3_conv2 (in-place)
I0922 19:20:39.889950 29728 net.cpp:141] Setting up conv3_res3_conv2_elu
I0922 19:20:39.889955 29728 net.cpp:148] Top shape: 256 64 16 16 (4194304)
I0922 19:20:39.889971 29728 net.cpp:156] Memory required for data: 4508615680
I0922 19:20:39.889974 29728 layer_factory.hpp:77] Creating layer conv3_res3_conv3
I0922 19:20:39.889981 29728 net.cpp:91] Creating Layer conv3_res3_conv3
I0922 19:20:39.889983 29728 net.cpp:425] conv3_res3_conv3 <- conv3_res3_conv2
I0922 19:20:39.889989 29728 net.cpp:399] conv3_res3_conv3 -> conv3_res3_conv3
I0922 19:20:39.890893 29728 net.cpp:141] Setting up conv3_res3_conv3
I0922 19:20:39.890919 29728 net.cpp:148] Top shape: 256 256 16 16 (16777216)
I0922 19:20:39.890923 29728 net.cpp:156] Memory required for data: 4575724544
I0922 19:20:39.890930 29728 layer_factory.hpp:77] Creating layer conv3_res3
I0922 19:20:39.890939 29728 net.cpp:91] Creating Layer conv3_res3
I0922 19:20:39.890945 29728 net.cpp:425] conv3_res3 <- conv3_res2_conv3_res2_elu_0_split_1
I0922 19:20:39.890964 29728 net.cpp:425] conv3_res3 <- conv3_res3_conv3
I0922 19:20:39.890971 29728 net.cpp:399] conv3_res3 -> conv3_res3
I0922 19:20:39.891012 29728 net.cpp:141] Setting up conv3_res3
I0922 19:20:39.891021 29728 net.cpp:148] Top shape: 256 256 16 16 (16777216)
I0922 19:20:39.891024 29728 net.cpp:156] Memory required for data: 4642833408
I0922 19:20:39.891028 29728 layer_factory.hpp:77] Creating layer conv3_res3_elu
I0922 19:20:39.891037 29728 net.cpp:91] Creating Layer conv3_res3_elu
I0922 19:20:39.891046 29728 net.cpp:425] conv3_res3_elu <- conv3_res3
I0922 19:20:39.891052 29728 net.cpp:386] conv3_res3_elu -> conv3_res3 (in-place)
I0922 19:20:39.891060 29728 net.cpp:141] Setting up conv3_res3_elu
I0922 19:20:39.891067 29728 net.cpp:148] Top shape: 256 256 16 16 (16777216)
I0922 19:20:39.891088 29728 net.cpp:156] Memory required for data: 4709942272
I0922 19:20:39.891093 29728 layer_factory.hpp:77] Creating layer conv3_res3_conv3_res3_elu_0_split
I0922 19:20:39.891100 29728 net.cpp:91] Creating Layer conv3_res3_conv3_res3_elu_0_split
I0922 19:20:39.891106 29728 net.cpp:425] conv3_res3_conv3_res3_elu_0_split <- conv3_res3
I0922 19:20:39.891113 29728 net.cpp:399] conv3_res3_conv3_res3_elu_0_split -> conv3_res3_conv3_res3_elu_0_split_0
I0922 19:20:39.891120 29728 net.cpp:399] conv3_res3_conv3_res3_elu_0_split -> conv3_res3_conv3_res3_elu_0_split_1
I0922 19:20:39.891157 29728 net.cpp:141] Setting up conv3_res3_conv3_res3_elu_0_split
I0922 19:20:39.891165 29728 net.cpp:148] Top shape: 256 256 16 16 (16777216)
I0922 19:20:39.891170 29728 net.cpp:148] Top shape: 256 256 16 16 (16777216)
I0922 19:20:39.891173 29728 net.cpp:156] Memory required for data: 4844160000
I0922 19:20:39.891178 29728 layer_factory.hpp:77] Creating layer conv3_res4_conv1
I0922 19:20:39.891196 29728 net.cpp:91] Creating Layer conv3_res4_conv1
I0922 19:20:39.891216 29728 net.cpp:425] conv3_res4_conv1 <- conv3_res3_conv3_res3_elu_0_split_0
I0922 19:20:39.891227 29728 net.cpp:399] conv3_res4_conv1 -> conv3_res4_conv1
I0922 19:20:39.892290 29728 net.cpp:141] Setting up conv3_res4_conv1
I0922 19:20:39.892299 29728 net.cpp:148] Top shape: 256 64 16 16 (4194304)
I0922 19:20:39.892302 29728 net.cpp:156] Memory required for data: 4860937216
I0922 19:20:39.892307 29728 layer_factory.hpp:77] Creating layer conv3_res4_conv1_elu
I0922 19:20:39.892326 29728 net.cpp:91] Creating Layer conv3_res4_conv1_elu
I0922 19:20:39.892329 29728 net.cpp:425] conv3_res4_conv1_elu <- conv3_res4_conv1
I0922 19:20:39.892333 29728 net.cpp:386] conv3_res4_conv1_elu -> conv3_res4_conv1 (in-place)
I0922 19:20:39.892338 29728 net.cpp:141] Setting up conv3_res4_conv1_elu
I0922 19:20:39.892341 29728 net.cpp:148] Top shape: 256 64 16 16 (4194304)
I0922 19:20:39.892344 29728 net.cpp:156] Memory required for data: 4877714432
I0922 19:20:39.892346 29728 layer_factory.hpp:77] Creating layer conv3_res4_conv2
I0922 19:20:39.892354 29728 net.cpp:91] Creating Layer conv3_res4_conv2
I0922 19:20:39.892356 29728 net.cpp:425] conv3_res4_conv2 <- conv3_res4_conv1
I0922 19:20:39.892361 29728 net.cpp:399] conv3_res4_conv2 -> conv3_res4_conv2
I0922 19:20:39.893589 29728 net.cpp:141] Setting up conv3_res4_conv2
I0922 19:20:39.893599 29728 net.cpp:148] Top shape: 256 64 16 16 (4194304)
I0922 19:20:39.893601 29728 net.cpp:156] Memory required for data: 4894491648
I0922 19:20:39.893606 29728 layer_factory.hpp:77] Creating layer conv3_res4_conv2_elu
I0922 19:20:39.893625 29728 net.cpp:91] Creating Layer conv3_res4_conv2_elu
I0922 19:20:39.893628 29728 net.cpp:425] conv3_res4_conv2_elu <- conv3_res4_conv2
I0922 19:20:39.893632 29728 net.cpp:386] conv3_res4_conv2_elu -> conv3_res4_conv2 (in-place)
I0922 19:20:39.893651 29728 net.cpp:141] Setting up conv3_res4_conv2_elu
I0922 19:20:39.893656 29728 net.cpp:148] Top shape: 256 64 16 16 (4194304)
I0922 19:20:39.893671 29728 net.cpp:156] Memory required for data: 4911268864
I0922 19:20:39.893673 29728 layer_factory.hpp:77] Creating layer conv3_res4_conv3
I0922 19:20:39.893682 29728 net.cpp:91] Creating Layer conv3_res4_conv3
I0922 19:20:39.893684 29728 net.cpp:425] conv3_res4_conv3 <- conv3_res4_conv2
I0922 19:20:39.893688 29728 net.cpp:399] conv3_res4_conv3 -> conv3_res4_conv3
I0922 19:20:39.894575 29728 net.cpp:141] Setting up conv3_res4_conv3
I0922 19:20:39.894584 29728 net.cpp:148] Top shape: 256 256 16 16 (16777216)
I0922 19:20:39.894587 29728 net.cpp:156] Memory required for data: 4978377728
I0922 19:20:39.894593 29728 layer_factory.hpp:77] Creating layer conv3_res4
I0922 19:20:39.894611 29728 net.cpp:91] Creating Layer conv3_res4
I0922 19:20:39.894614 29728 net.cpp:425] conv3_res4 <- conv3_res3_conv3_res3_elu_0_split_1
I0922 19:20:39.894618 29728 net.cpp:425] conv3_res4 <- conv3_res4_conv3
I0922 19:20:39.894621 29728 net.cpp:425] conv3_res4 <- conv1_conv3_proj
I0922 19:20:39.894624 29728 net.cpp:425] conv3_res4 <- conv2_conv3_proj
I0922 19:20:39.894629 29728 net.cpp:399] conv3_res4 -> conv3_res4
I0922 19:20:39.894659 29728 net.cpp:141] Setting up conv3_res4
I0922 19:20:39.894664 29728 net.cpp:148] Top shape: 256 256 16 16 (16777216)
I0922 19:20:39.894665 29728 net.cpp:156] Memory required for data: 5045486592
I0922 19:20:39.894668 29728 layer_factory.hpp:77] Creating layer pool3
I0922 19:20:39.894673 29728 net.cpp:91] Creating Layer pool3
I0922 19:20:39.894676 29728 net.cpp:425] pool3 <- conv3_res4
I0922 19:20:39.894680 29728 net.cpp:399] pool3 -> pool3
I0922 19:20:39.894709 29728 net.cpp:141] Setting up pool3
I0922 19:20:39.894713 29728 net.cpp:148] Top shape: 256 256 8 8 (4194304)
I0922 19:20:39.894716 29728 net.cpp:156] Memory required for data: 5062263808
I0922 19:20:39.894718 29728 layer_factory.hpp:77] Creating layer pool3_elu
I0922 19:20:39.894721 29728 net.cpp:91] Creating Layer pool3_elu
I0922 19:20:39.894724 29728 net.cpp:425] pool3_elu <- pool3
I0922 19:20:39.894727 29728 net.cpp:386] pool3_elu -> pool3 (in-place)
I0922 19:20:39.894731 29728 net.cpp:141] Setting up pool3_elu
I0922 19:20:39.894734 29728 net.cpp:148] Top shape: 256 256 8 8 (4194304)
I0922 19:20:39.894737 29728 net.cpp:156] Memory required for data: 5079041024
I0922 19:20:39.894747 29728 layer_factory.hpp:77] Creating layer pool3_pool3_elu_0_split
I0922 19:20:39.894752 29728 net.cpp:91] Creating Layer pool3_pool3_elu_0_split
I0922 19:20:39.894755 29728 net.cpp:425] pool3_pool3_elu_0_split <- pool3
I0922 19:20:39.894758 29728 net.cpp:399] pool3_pool3_elu_0_split -> pool3_pool3_elu_0_split_0
I0922 19:20:39.894762 29728 net.cpp:399] pool3_pool3_elu_0_split -> pool3_pool3_elu_0_split_1
I0922 19:20:39.894767 29728 net.cpp:399] pool3_pool3_elu_0_split -> pool3_pool3_elu_0_split_2
I0922 19:20:39.894773 29728 net.cpp:399] pool3_pool3_elu_0_split -> pool3_pool3_elu_0_split_3
I0922 19:20:39.894821 29728 net.cpp:141] Setting up pool3_pool3_elu_0_split
I0922 19:20:39.894826 29728 net.cpp:148] Top shape: 256 256 8 8 (4194304)
I0922 19:20:39.894829 29728 net.cpp:148] Top shape: 256 256 8 8 (4194304)
I0922 19:20:39.894832 29728 net.cpp:148] Top shape: 256 256 8 8 (4194304)
I0922 19:20:39.894835 29728 net.cpp:148] Top shape: 256 256 8 8 (4194304)
I0922 19:20:39.894837 29728 net.cpp:156] Memory required for data: 5146149888
I0922 19:20:39.894840 29728 layer_factory.hpp:77] Creating layer conv3_conv4_proj
I0922 19:20:39.894846 29728 net.cpp:91] Creating Layer conv3_conv4_proj
I0922 19:20:39.894850 29728 net.cpp:425] conv3_conv4_proj <- pool3_pool3_elu_0_split_0
I0922 19:20:39.894855 29728 net.cpp:399] conv3_conv4_proj -> conv3_conv4_proj
I0922 19:20:39.896673 29728 net.cpp:141] Setting up conv3_conv4_proj
I0922 19:20:39.896711 29728 net.cpp:148] Top shape: 256 512 8 8 (8388608)
I0922 19:20:39.896718 29728 net.cpp:156] Memory required for data: 5179704320
I0922 19:20:39.896740 29728 layer_factory.hpp:77] Creating layer conv3_conv5_proj
I0922 19:20:39.896780 29728 net.cpp:91] Creating Layer conv3_conv5_proj
I0922 19:20:39.896785 29728 net.cpp:425] conv3_conv5_proj <- pool3_pool3_elu_0_split_1
I0922 19:20:39.896806 29728 net.cpp:399] conv3_conv5_proj -> conv3_conv5_proj
I0922 19:20:39.899834 29728 net.cpp:141] Setting up conv3_conv5_proj
I0922 19:20:39.899852 29728 net.cpp:148] Top shape: 256 1024 4 4 (4194304)
I0922 19:20:39.899857 29728 net.cpp:156] Memory required for data: 5196481536
I0922 19:20:39.899864 29728 layer_factory.hpp:77] Creating layer conv4_res1_proj
I0922 19:20:39.899876 29728 net.cpp:91] Creating Layer conv4_res1_proj
I0922 19:20:39.899883 29728 net.cpp:425] conv4_res1_proj <- pool3_pool3_elu_0_split_2
I0922 19:20:39.899891 29728 net.cpp:399] conv4_res1_proj -> conv4_res1_proj
I0922 19:20:39.901691 29728 net.cpp:141] Setting up conv4_res1_proj
I0922 19:20:39.901707 29728 net.cpp:148] Top shape: 256 512 8 8 (8388608)
I0922 19:20:39.901710 29728 net.cpp:156] Memory required for data: 5230035968
I0922 19:20:39.901715 29728 layer_factory.hpp:77] Creating layer conv4_res1_conv1
I0922 19:20:39.901724 29728 net.cpp:91] Creating Layer conv4_res1_conv1
I0922 19:20:39.901728 29728 net.cpp:425] conv4_res1_conv1 <- pool3_pool3_elu_0_split_3
I0922 19:20:39.901734 29728 net.cpp:399] conv4_res1_conv1 -> conv4_res1_conv1
I0922 19:20:39.902628 29728 net.cpp:141] Setting up conv4_res1_conv1
I0922 19:20:39.902637 29728 net.cpp:148] Top shape: 256 128 8 8 (2097152)
I0922 19:20:39.902640 29728 net.cpp:156] Memory required for data: 5238424576
I0922 19:20:39.902653 29728 layer_factory.hpp:77] Creating layer conv4_res1_conv1_elu
I0922 19:20:39.902659 29728 net.cpp:91] Creating Layer conv4_res1_conv1_elu
I0922 19:20:39.902662 29728 net.cpp:425] conv4_res1_conv1_elu <- conv4_res1_conv1
I0922 19:20:39.902667 29728 net.cpp:386] conv4_res1_conv1_elu -> conv4_res1_conv1 (in-place)
I0922 19:20:39.902673 29728 net.cpp:141] Setting up conv4_res1_conv1_elu
I0922 19:20:39.902675 29728 net.cpp:148] Top shape: 256 128 8 8 (2097152)
I0922 19:20:39.902678 29728 net.cpp:156] Memory required for data: 5246813184
I0922 19:20:39.902680 29728 layer_factory.hpp:77] Creating layer conv4_res1_conv2
I0922 19:20:39.902686 29728 net.cpp:91] Creating Layer conv4_res1_conv2
I0922 19:20:39.902689 29728 net.cpp:425] conv4_res1_conv2 <- conv4_res1_conv1
I0922 19:20:39.902693 29728 net.cpp:399] conv4_res1_conv2 -> conv4_res1_conv2
I0922 19:20:39.904477 29728 net.cpp:141] Setting up conv4_res1_conv2
I0922 19:20:39.904486 29728 net.cpp:148] Top shape: 256 128 8 8 (2097152)
I0922 19:20:39.904489 29728 net.cpp:156] Memory required for data: 5255201792
I0922 19:20:39.904495 29728 layer_factory.hpp:77] Creating layer conv4_res1_conv2_elu
I0922 19:20:39.904500 29728 net.cpp:91] Creating Layer conv4_res1_conv2_elu
I0922 19:20:39.904503 29728 net.cpp:425] conv4_res1_conv2_elu <- conv4_res1_conv2
I0922 19:20:39.904506 29728 net.cpp:386] conv4_res1_conv2_elu -> conv4_res1_conv2 (in-place)
I0922 19:20:39.904511 29728 net.cpp:141] Setting up conv4_res1_conv2_elu
I0922 19:20:39.904515 29728 net.cpp:148] Top shape: 256 128 8 8 (2097152)
I0922 19:20:39.904517 29728 net.cpp:156] Memory required for data: 5263590400
I0922 19:20:39.904520 29728 layer_factory.hpp:77] Creating layer conv4_res1_conv3
I0922 19:20:39.904525 29728 net.cpp:91] Creating Layer conv4_res1_conv3
I0922 19:20:39.904528 29728 net.cpp:425] conv4_res1_conv3 <- conv4_res1_conv2
I0922 19:20:39.904532 29728 net.cpp:399] conv4_res1_conv3 -> conv4_res1_conv3
I0922 19:20:39.905572 29728 net.cpp:141] Setting up conv4_res1_conv3
I0922 19:20:39.905582 29728 net.cpp:148] Top shape: 256 512 8 8 (8388608)
I0922 19:20:39.905585 29728 net.cpp:156] Memory required for data: 5297144832
I0922 19:20:39.905589 29728 layer_factory.hpp:77] Creating layer conv4_res1
I0922 19:20:39.905596 29728 net.cpp:91] Creating Layer conv4_res1
I0922 19:20:39.905598 29728 net.cpp:425] conv4_res1 <- conv4_res1_proj
I0922 19:20:39.905602 29728 net.cpp:425] conv4_res1 <- conv4_res1_conv3
I0922 19:20:39.905606 29728 net.cpp:399] conv4_res1 -> conv4_res1
I0922 19:20:39.905627 29728 net.cpp:141] Setting up conv4_res1
I0922 19:20:39.905630 29728 net.cpp:148] Top shape: 256 512 8 8 (8388608)
I0922 19:20:39.905632 29728 net.cpp:156] Memory required for data: 5330699264
I0922 19:20:39.905635 29728 layer_factory.hpp:77] Creating layer conv4_res1_elu
I0922 19:20:39.905638 29728 net.cpp:91] Creating Layer conv4_res1_elu
I0922 19:20:39.905642 29728 net.cpp:425] conv4_res1_elu <- conv4_res1
I0922 19:20:39.905645 29728 net.cpp:386] conv4_res1_elu -> conv4_res1 (in-place)
I0922 19:20:39.905649 29728 net.cpp:141] Setting up conv4_res1_elu
I0922 19:20:39.905652 29728 net.cpp:148] Top shape: 256 512 8 8 (8388608)
I0922 19:20:39.905655 29728 net.cpp:156] Memory required for data: 5364253696
I0922 19:20:39.905658 29728 layer_factory.hpp:77] Creating layer conv4_res1_conv4_res1_elu_0_split
I0922 19:20:39.905661 29728 net.cpp:91] Creating Layer conv4_res1_conv4_res1_elu_0_split
I0922 19:20:39.905663 29728 net.cpp:425] conv4_res1_conv4_res1_elu_0_split <- conv4_res1
I0922 19:20:39.905666 29728 net.cpp:399] conv4_res1_conv4_res1_elu_0_split -> conv4_res1_conv4_res1_elu_0_split_0
I0922 19:20:39.905670 29728 net.cpp:399] conv4_res1_conv4_res1_elu_0_split -> conv4_res1_conv4_res1_elu_0_split_1
I0922 19:20:39.905699 29728 net.cpp:141] Setting up conv4_res1_conv4_res1_elu_0_split
I0922 19:20:39.905704 29728 net.cpp:148] Top shape: 256 512 8 8 (8388608)
I0922 19:20:39.905706 29728 net.cpp:148] Top shape: 256 512 8 8 (8388608)
I0922 19:20:39.905709 29728 net.cpp:156] Memory required for data: 5431362560
I0922 19:20:39.905710 29728 layer_factory.hpp:77] Creating layer conv4_res2_conv1
I0922 19:20:39.905716 29728 net.cpp:91] Creating Layer conv4_res2_conv1
I0922 19:20:39.905719 29728 net.cpp:425] conv4_res2_conv1 <- conv4_res1_conv4_res1_elu_0_split_0
I0922 19:20:39.905725 29728 net.cpp:399] conv4_res2_conv1 -> conv4_res2_conv1
I0922 19:20:39.907063 29728 net.cpp:141] Setting up conv4_res2_conv1
I0922 19:20:39.907071 29728 net.cpp:148] Top shape: 256 128 8 8 (2097152)
I0922 19:20:39.907074 29728 net.cpp:156] Memory required for data: 5439751168
I0922 19:20:39.907079 29728 layer_factory.hpp:77] Creating layer conv4_res2_conv1_elu
I0922 19:20:39.907083 29728 net.cpp:91] Creating Layer conv4_res2_conv1_elu
I0922 19:20:39.907086 29728 net.cpp:425] conv4_res2_conv1_elu <- conv4_res2_conv1
I0922 19:20:39.907090 29728 net.cpp:386] conv4_res2_conv1_elu -> conv4_res2_conv1 (in-place)
I0922 19:20:39.907104 29728 net.cpp:141] Setting up conv4_res2_conv1_elu
I0922 19:20:39.907106 29728 net.cpp:148] Top shape: 256 128 8 8 (2097152)
I0922 19:20:39.907109 29728 net.cpp:156] Memory required for data: 5448139776
I0922 19:20:39.907111 29728 layer_factory.hpp:77] Creating layer conv4_res2_conv2
I0922 19:20:39.907117 29728 net.cpp:91] Creating Layer conv4_res2_conv2
I0922 19:20:39.907119 29728 net.cpp:425] conv4_res2_conv2 <- conv4_res2_conv1
I0922 19:20:39.907124 29728 net.cpp:399] conv4_res2_conv2 -> conv4_res2_conv2
I0922 19:20:39.908085 29728 net.cpp:141] Setting up conv4_res2_conv2
I0922 19:20:39.908093 29728 net.cpp:148] Top shape: 256 128 8 8 (2097152)
I0922 19:20:39.908095 29728 net.cpp:156] Memory required for data: 5456528384
I0922 19:20:39.908099 29728 layer_factory.hpp:77] Creating layer conv4_res2_conv2_elu
I0922 19:20:39.908104 29728 net.cpp:91] Creating Layer conv4_res2_conv2_elu
I0922 19:20:39.908107 29728 net.cpp:425] conv4_res2_conv2_elu <- conv4_res2_conv2
I0922 19:20:39.908112 29728 net.cpp:386] conv4_res2_conv2_elu -> conv4_res2_conv2 (in-place)
I0922 19:20:39.908116 29728 net.cpp:141] Setting up conv4_res2_conv2_elu
I0922 19:20:39.908119 29728 net.cpp:148] Top shape: 256 128 8 8 (2097152)
I0922 19:20:39.908121 29728 net.cpp:156] Memory required for data: 5464916992
I0922 19:20:39.908123 29728 layer_factory.hpp:77] Creating layer conv4_res2_conv3
I0922 19:20:39.908129 29728 net.cpp:91] Creating Layer conv4_res2_conv3
I0922 19:20:39.908131 29728 net.cpp:425] conv4_res2_conv3 <- conv4_res2_conv2
I0922 19:20:39.908136 29728 net.cpp:399] conv4_res2_conv3 -> conv4_res2_conv3
I0922 19:20:39.909183 29728 net.cpp:141] Setting up conv4_res2_conv3
I0922 19:20:39.909193 29728 net.cpp:148] Top shape: 256 128 8 8 (2097152)
I0922 19:20:39.909195 29728 net.cpp:156] Memory required for data: 5473305600
I0922 19:20:39.909198 29728 layer_factory.hpp:77] Creating layer conv4_res2_conv3_elu
I0922 19:20:39.909204 29728 net.cpp:91] Creating Layer conv4_res2_conv3_elu
I0922 19:20:39.909206 29728 net.cpp:425] conv4_res2_conv3_elu <- conv4_res2_conv3
I0922 19:20:39.909209 29728 net.cpp:386] conv4_res2_conv3_elu -> conv4_res2_conv3 (in-place)
I0922 19:20:39.909214 29728 net.cpp:141] Setting up conv4_res2_conv3_elu
I0922 19:20:39.909217 29728 net.cpp:148] Top shape: 256 128 8 8 (2097152)
I0922 19:20:39.909219 29728 net.cpp:156] Memory required for data: 5481694208
I0922 19:20:39.909221 29728 layer_factory.hpp:77] Creating layer conv4_res2_conv4
I0922 19:20:39.909229 29728 net.cpp:91] Creating Layer conv4_res2_conv4
I0922 19:20:39.909230 29728 net.cpp:425] conv4_res2_conv4 <- conv4_res2_conv3
I0922 19:20:39.909235 29728 net.cpp:399] conv4_res2_conv4 -> conv4_res2_conv4
I0922 19:20:39.910464 29728 net.cpp:141] Setting up conv4_res2_conv4
I0922 19:20:39.910471 29728 net.cpp:148] Top shape: 256 512 8 8 (8388608)
I0922 19:20:39.910475 29728 net.cpp:156] Memory required for data: 5515248640
I0922 19:20:39.910478 29728 layer_factory.hpp:77] Creating layer conv4_res2
I0922 19:20:39.910485 29728 net.cpp:91] Creating Layer conv4_res2
I0922 19:20:39.910487 29728 net.cpp:425] conv4_res2 <- conv4_res1_conv4_res1_elu_0_split_1
I0922 19:20:39.910491 29728 net.cpp:425] conv4_res2 <- conv4_res2_conv4
I0922 19:20:39.910495 29728 net.cpp:399] conv4_res2 -> conv4_res2
I0922 19:20:39.910517 29728 net.cpp:141] Setting up conv4_res2
I0922 19:20:39.910521 29728 net.cpp:148] Top shape: 256 512 8 8 (8388608)
I0922 19:20:39.910523 29728 net.cpp:156] Memory required for data: 5548803072
I0922 19:20:39.910526 29728 layer_factory.hpp:77] Creating layer conv4_res2_elu
I0922 19:20:39.910529 29728 net.cpp:91] Creating Layer conv4_res2_elu
I0922 19:20:39.910532 29728 net.cpp:425] conv4_res2_elu <- conv4_res2
I0922 19:20:39.910537 29728 net.cpp:386] conv4_res2_elu -> conv4_res2 (in-place)
I0922 19:20:39.910540 29728 net.cpp:141] Setting up conv4_res2_elu
I0922 19:20:39.910543 29728 net.cpp:148] Top shape: 256 512 8 8 (8388608)
I0922 19:20:39.910545 29728 net.cpp:156] Memory required for data: 5582357504
I0922 19:20:39.910554 29728 layer_factory.hpp:77] Creating layer conv4_res2_conv4_res2_elu_0_split
I0922 19:20:39.910559 29728 net.cpp:91] Creating Layer conv4_res2_conv4_res2_elu_0_split
I0922 19:20:39.910562 29728 net.cpp:425] conv4_res2_conv4_res2_elu_0_split <- conv4_res2
I0922 19:20:39.910564 29728 net.cpp:399] conv4_res2_conv4_res2_elu_0_split -> conv4_res2_conv4_res2_elu_0_split_0
I0922 19:20:39.910569 29728 net.cpp:399] conv4_res2_conv4_res2_elu_0_split -> conv4_res2_conv4_res2_elu_0_split_1
I0922 19:20:39.910599 29728 net.cpp:141] Setting up conv4_res2_conv4_res2_elu_0_split
I0922 19:20:39.910604 29728 net.cpp:148] Top shape: 256 512 8 8 (8388608)
I0922 19:20:39.910606 29728 net.cpp:148] Top shape: 256 512 8 8 (8388608)
I0922 19:20:39.910609 29728 net.cpp:156] Memory required for data: 5649466368
I0922 19:20:39.910611 29728 layer_factory.hpp:77] Creating layer conv4_res3_conv1
I0922 19:20:39.910617 29728 net.cpp:91] Creating Layer conv4_res3_conv1
I0922 19:20:39.910620 29728 net.cpp:425] conv4_res3_conv1 <- conv4_res2_conv4_res2_elu_0_split_0
I0922 19:20:39.910625 29728 net.cpp:399] conv4_res3_conv1 -> conv4_res3_conv1
I0922 19:20:39.911648 29728 net.cpp:141] Setting up conv4_res3_conv1
I0922 19:20:39.911655 29728 net.cpp:148] Top shape: 256 128 8 8 (2097152)
I0922 19:20:39.911659 29728 net.cpp:156] Memory required for data: 5657854976
I0922 19:20:39.911662 29728 layer_factory.hpp:77] Creating layer conv4_res3_conv1_elu
I0922 19:20:39.911666 29728 net.cpp:91] Creating Layer conv4_res3_conv1_elu
I0922 19:20:39.911669 29728 net.cpp:425] conv4_res3_conv1_elu <- conv4_res3_conv1
I0922 19:20:39.911674 29728 net.cpp:386] conv4_res3_conv1_elu -> conv4_res3_conv1 (in-place)
I0922 19:20:39.911679 29728 net.cpp:141] Setting up conv4_res3_conv1_elu
I0922 19:20:39.911682 29728 net.cpp:148] Top shape: 256 128 8 8 (2097152)
I0922 19:20:39.911684 29728 net.cpp:156] Memory required for data: 5666243584
I0922 19:20:39.911686 29728 layer_factory.hpp:77] Creating layer conv4_res3_conv2
I0922 19:20:39.911692 29728 net.cpp:91] Creating Layer conv4_res3_conv2
I0922 19:20:39.911695 29728 net.cpp:425] conv4_res3_conv2 <- conv4_res3_conv1
I0922 19:20:39.911700 29728 net.cpp:399] conv4_res3_conv2 -> conv4_res3_conv2
I0922 19:20:39.913461 29728 net.cpp:141] Setting up conv4_res3_conv2
I0922 19:20:39.913470 29728 net.cpp:148] Top shape: 256 128 8 8 (2097152)
I0922 19:20:39.913472 29728 net.cpp:156] Memory required for data: 5674632192
I0922 19:20:39.913477 29728 layer_factory.hpp:77] Creating layer conv4_res3_conv2_elu
I0922 19:20:39.913481 29728 net.cpp:91] Creating Layer conv4_res3_conv2_elu
I0922 19:20:39.913485 29728 net.cpp:425] conv4_res3_conv2_elu <- conv4_res3_conv2
I0922 19:20:39.913489 29728 net.cpp:386] conv4_res3_conv2_elu -> conv4_res3_conv2 (in-place)
I0922 19:20:39.913494 29728 net.cpp:141] Setting up conv4_res3_conv2_elu
I0922 19:20:39.913497 29728 net.cpp:148] Top shape: 256 128 8 8 (2097152)
I0922 19:20:39.913499 29728 net.cpp:156] Memory required for data: 5683020800
I0922 19:20:39.913502 29728 layer_factory.hpp:77] Creating layer conv4_res3_conv3
I0922 19:20:39.913508 29728 net.cpp:91] Creating Layer conv4_res3_conv3
I0922 19:20:39.913511 29728 net.cpp:425] conv4_res3_conv3 <- conv4_res3_conv2
I0922 19:20:39.913514 29728 net.cpp:399] conv4_res3_conv3 -> conv4_res3_conv3
I0922 19:20:39.915190 29728 net.cpp:141] Setting up conv4_res3_conv3
I0922 19:20:39.915199 29728 net.cpp:148] Top shape: 256 128 8 8 (2097152)
I0922 19:20:39.915202 29728 net.cpp:156] Memory required for data: 5691409408
I0922 19:20:39.915207 29728 layer_factory.hpp:77] Creating layer conv4_res3_conv3_elu
I0922 19:20:39.915212 29728 net.cpp:91] Creating Layer conv4_res3_conv3_elu
I0922 19:20:39.915215 29728 net.cpp:425] conv4_res3_conv3_elu <- conv4_res3_conv3
I0922 19:20:39.915218 29728 net.cpp:386] conv4_res3_conv3_elu -> conv4_res3_conv3 (in-place)
I0922 19:20:39.915223 29728 net.cpp:141] Setting up conv4_res3_conv3_elu
I0922 19:20:39.915226 29728 net.cpp:148] Top shape: 256 128 8 8 (2097152)
I0922 19:20:39.915230 29728 net.cpp:156] Memory required for data: 5699798016
I0922 19:20:39.915238 29728 layer_factory.hpp:77] Creating layer conv4_res3_conv4
I0922 19:20:39.915246 29728 net.cpp:91] Creating Layer conv4_res3_conv4
I0922 19:20:39.915247 29728 net.cpp:425] conv4_res3_conv4 <- conv4_res3_conv3
I0922 19:20:39.915252 29728 net.cpp:399] conv4_res3_conv4 -> conv4_res3_conv4
I0922 19:20:39.916280 29728 net.cpp:141] Setting up conv4_res3_conv4
I0922 19:20:39.916287 29728 net.cpp:148] Top shape: 256 512 8 8 (8388608)
I0922 19:20:39.916290 29728 net.cpp:156] Memory required for data: 5733352448
I0922 19:20:39.916296 29728 layer_factory.hpp:77] Creating layer conv4_res3
I0922 19:20:39.916299 29728 net.cpp:91] Creating Layer conv4_res3
I0922 19:20:39.916303 29728 net.cpp:425] conv4_res3 <- conv4_res2_conv4_res2_elu_0_split_1
I0922 19:20:39.916306 29728 net.cpp:425] conv4_res3 <- conv4_res3_conv4
I0922 19:20:39.916311 29728 net.cpp:399] conv4_res3 -> conv4_res3
I0922 19:20:39.916330 29728 net.cpp:141] Setting up conv4_res3
I0922 19:20:39.916334 29728 net.cpp:148] Top shape: 256 512 8 8 (8388608)
I0922 19:20:39.916337 29728 net.cpp:156] Memory required for data: 5766906880
I0922 19:20:39.916339 29728 layer_factory.hpp:77] Creating layer conv4_res3_elu
I0922 19:20:39.916344 29728 net.cpp:91] Creating Layer conv4_res3_elu
I0922 19:20:39.916347 29728 net.cpp:425] conv4_res3_elu <- conv4_res3
I0922 19:20:39.916350 29728 net.cpp:386] conv4_res3_elu -> conv4_res3 (in-place)
I0922 19:20:39.916354 29728 net.cpp:141] Setting up conv4_res3_elu
I0922 19:20:39.916357 29728 net.cpp:148] Top shape: 256 512 8 8 (8388608)
I0922 19:20:39.916359 29728 net.cpp:156] Memory required for data: 5800461312
I0922 19:20:39.916363 29728 layer_factory.hpp:77] Creating layer conv4_res3_conv4_res3_elu_0_split
I0922 19:20:39.916366 29728 net.cpp:91] Creating Layer conv4_res3_conv4_res3_elu_0_split
I0922 19:20:39.916369 29728 net.cpp:425] conv4_res3_conv4_res3_elu_0_split <- conv4_res3
I0922 19:20:39.916373 29728 net.cpp:399] conv4_res3_conv4_res3_elu_0_split -> conv4_res3_conv4_res3_elu_0_split_0
I0922 19:20:39.916376 29728 net.cpp:399] conv4_res3_conv4_res3_elu_0_split -> conv4_res3_conv4_res3_elu_0_split_1
I0922 19:20:39.916406 29728 net.cpp:141] Setting up conv4_res3_conv4_res3_elu_0_split
I0922 19:20:39.916410 29728 net.cpp:148] Top shape: 256 512 8 8 (8388608)
I0922 19:20:39.916414 29728 net.cpp:148] Top shape: 256 512 8 8 (8388608)
I0922 19:20:39.916415 29728 net.cpp:156] Memory required for data: 5867570176
I0922 19:20:39.916419 29728 layer_factory.hpp:77] Creating layer conv4_res4_conv1
I0922 19:20:39.916425 29728 net.cpp:91] Creating Layer conv4_res4_conv1
I0922 19:20:39.916430 29728 net.cpp:425] conv4_res4_conv1 <- conv4_res3_conv4_res3_elu_0_split_0
I0922 19:20:39.916435 29728 net.cpp:399] conv4_res4_conv1 -> conv4_res4_conv1
I0922 19:20:39.918444 29728 net.cpp:141] Setting up conv4_res4_conv1
I0922 19:20:39.918455 29728 net.cpp:148] Top shape: 256 128 8 8 (2097152)
I0922 19:20:39.918458 29728 net.cpp:156] Memory required for data: 5875958784
I0922 19:20:39.918462 29728 layer_factory.hpp:77] Creating layer conv4_res4_conv1_elu
I0922 19:20:39.918467 29728 net.cpp:91] Creating Layer conv4_res4_conv1_elu
I0922 19:20:39.918470 29728 net.cpp:425] conv4_res4_conv1_elu <- conv4_res4_conv1
I0922 19:20:39.918474 29728 net.cpp:386] conv4_res4_conv1_elu -> conv4_res4_conv1 (in-place)
I0922 19:20:39.918479 29728 net.cpp:141] Setting up conv4_res4_conv1_elu
I0922 19:20:39.918483 29728 net.cpp:148] Top shape: 256 128 8 8 (2097152)
I0922 19:20:39.918484 29728 net.cpp:156] Memory required for data: 5884347392
I0922 19:20:39.918488 29728 layer_factory.hpp:77] Creating layer conv4_res4_conv2
I0922 19:20:39.918493 29728 net.cpp:91] Creating Layer conv4_res4_conv2
I0922 19:20:39.918496 29728 net.cpp:425] conv4_res4_conv2 <- conv4_res4_conv1
I0922 19:20:39.918500 29728 net.cpp:399] conv4_res4_conv2 -> conv4_res4_conv2
I0922 19:20:39.920409 29728 net.cpp:141] Setting up conv4_res4_conv2
I0922 19:20:39.920418 29728 net.cpp:148] Top shape: 256 512 8 8 (8388608)
I0922 19:20:39.920421 29728 net.cpp:156] Memory required for data: 5917901824
I0922 19:20:39.920436 29728 layer_factory.hpp:77] Creating layer conv4_res4
I0922 19:20:39.920442 29728 net.cpp:91] Creating Layer conv4_res4
I0922 19:20:39.920445 29728 net.cpp:425] conv4_res4 <- conv4_res3_conv4_res3_elu_0_split_1
I0922 19:20:39.920449 29728 net.cpp:425] conv4_res4 <- conv4_res4_conv2
I0922 19:20:39.920452 29728 net.cpp:399] conv4_res4 -> conv4_res4
I0922 19:20:39.920475 29728 net.cpp:141] Setting up conv4_res4
I0922 19:20:39.920478 29728 net.cpp:148] Top shape: 256 512 8 8 (8388608)
I0922 19:20:39.920481 29728 net.cpp:156] Memory required for data: 5951456256
I0922 19:20:39.920483 29728 layer_factory.hpp:77] Creating layer conv4_res4_elu
I0922 19:20:39.920488 29728 net.cpp:91] Creating Layer conv4_res4_elu
I0922 19:20:39.920491 29728 net.cpp:425] conv4_res4_elu <- conv4_res4
I0922 19:20:39.920495 29728 net.cpp:386] conv4_res4_elu -> conv4_res4 (in-place)
I0922 19:20:39.920500 29728 net.cpp:141] Setting up conv4_res4_elu
I0922 19:20:39.920502 29728 net.cpp:148] Top shape: 256 512 8 8 (8388608)
I0922 19:20:39.920505 29728 net.cpp:156] Memory required for data: 5985010688
I0922 19:20:39.920506 29728 layer_factory.hpp:77] Creating layer conv4_res4_conv4_res4_elu_0_split
I0922 19:20:39.920511 29728 net.cpp:91] Creating Layer conv4_res4_conv4_res4_elu_0_split
I0922 19:20:39.920513 29728 net.cpp:425] conv4_res4_conv4_res4_elu_0_split <- conv4_res4
I0922 19:20:39.920517 29728 net.cpp:399] conv4_res4_conv4_res4_elu_0_split -> conv4_res4_conv4_res4_elu_0_split_0
I0922 19:20:39.920521 29728 net.cpp:399] conv4_res4_conv4_res4_elu_0_split -> conv4_res4_conv4_res4_elu_0_split_1
I0922 19:20:39.920552 29728 net.cpp:141] Setting up conv4_res4_conv4_res4_elu_0_split
I0922 19:20:39.920555 29728 net.cpp:148] Top shape: 256 512 8 8 (8388608)
I0922 19:20:39.920558 29728 net.cpp:148] Top shape: 256 512 8 8 (8388608)
I0922 19:20:39.920560 29728 net.cpp:156] Memory required for data: 6052119552
I0922 19:20:39.920563 29728 layer_factory.hpp:77] Creating layer conv4_res5_conv1
I0922 19:20:39.920570 29728 net.cpp:91] Creating Layer conv4_res5_conv1
I0922 19:20:39.920573 29728 net.cpp:425] conv4_res5_conv1 <- conv4_res4_conv4_res4_elu_0_split_0
I0922 19:20:39.920578 29728 net.cpp:399] conv4_res5_conv1 -> conv4_res5_conv1
I0922 19:20:39.921986 29728 net.cpp:141] Setting up conv4_res5_conv1
I0922 19:20:39.921996 29728 net.cpp:148] Top shape: 256 128 8 8 (2097152)
I0922 19:20:39.921998 29728 net.cpp:156] Memory required for data: 6060508160
I0922 19:20:39.922003 29728 layer_factory.hpp:77] Creating layer conv4_res5_conv1_elu
I0922 19:20:39.922008 29728 net.cpp:91] Creating Layer conv4_res5_conv1_elu
I0922 19:20:39.922025 29728 net.cpp:425] conv4_res5_conv1_elu <- conv4_res5_conv1
I0922 19:20:39.922029 29728 net.cpp:386] conv4_res5_conv1_elu -> conv4_res5_conv1 (in-place)
I0922 19:20:39.922049 29728 net.cpp:141] Setting up conv4_res5_conv1_elu
I0922 19:20:39.922052 29728 net.cpp:148] Top shape: 256 128 8 8 (2097152)
I0922 19:20:39.922055 29728 net.cpp:156] Memory required for data: 6068896768
I0922 19:20:39.922057 29728 layer_factory.hpp:77] Creating layer conv4_res5_conv2
I0922 19:20:39.922076 29728 net.cpp:91] Creating Layer conv4_res5_conv2
I0922 19:20:39.922080 29728 net.cpp:425] conv4_res5_conv2 <- conv4_res5_conv1
I0922 19:20:39.922098 29728 net.cpp:399] conv4_res5_conv2 -> conv4_res5_conv2
I0922 19:20:39.924790 29728 net.cpp:141] Setting up conv4_res5_conv2
I0922 19:20:39.924801 29728 net.cpp:148] Top shape: 256 128 8 8 (2097152)
I0922 19:20:39.924818 29728 net.cpp:156] Memory required for data: 6077285376
I0922 19:20:39.924823 29728 layer_factory.hpp:77] Creating layer conv4_res5_conv2_elu
I0922 19:20:39.924829 29728 net.cpp:91] Creating Layer conv4_res5_conv2_elu
I0922 19:20:39.924831 29728 net.cpp:425] conv4_res5_conv2_elu <- conv4_res5_conv2
I0922 19:20:39.924835 29728 net.cpp:386] conv4_res5_conv2_elu -> conv4_res5_conv2 (in-place)
I0922 19:20:39.924840 29728 net.cpp:141] Setting up conv4_res5_conv2_elu
I0922 19:20:39.924844 29728 net.cpp:148] Top shape: 256 128 8 8 (2097152)
I0922 19:20:39.924845 29728 net.cpp:156] Memory required for data: 6085673984
I0922 19:20:39.924855 29728 layer_factory.hpp:77] Creating layer conv4_res5_conv3
I0922 19:20:39.924863 29728 net.cpp:91] Creating Layer conv4_res5_conv3
I0922 19:20:39.924865 29728 net.cpp:425] conv4_res5_conv3 <- conv4_res5_conv2
I0922 19:20:39.924870 29728 net.cpp:399] conv4_res5_conv3 -> conv4_res5_conv3
I0922 19:20:39.925915 29728 net.cpp:141] Setting up conv4_res5_conv3
I0922 19:20:39.925922 29728 net.cpp:148] Top shape: 256 512 8 8 (8388608)
I0922 19:20:39.925925 29728 net.cpp:156] Memory required for data: 6119228416
I0922 19:20:39.925930 29728 layer_factory.hpp:77] Creating layer conv4_res5
I0922 19:20:39.925935 29728 net.cpp:91] Creating Layer conv4_res5
I0922 19:20:39.925937 29728 net.cpp:425] conv4_res5 <- conv4_res4_conv4_res4_elu_0_split_1
I0922 19:20:39.925941 29728 net.cpp:425] conv4_res5 <- conv4_res5_conv3
I0922 19:20:39.925945 29728 net.cpp:399] conv4_res5 -> conv4_res5
I0922 19:20:39.925966 29728 net.cpp:141] Setting up conv4_res5
I0922 19:20:39.925969 29728 net.cpp:148] Top shape: 256 512 8 8 (8388608)
I0922 19:20:39.925971 29728 net.cpp:156] Memory required for data: 6152782848
I0922 19:20:39.925973 29728 layer_factory.hpp:77] Creating layer conv4_res5_elu
I0922 19:20:39.925977 29728 net.cpp:91] Creating Layer conv4_res5_elu
I0922 19:20:39.925979 29728 net.cpp:425] conv4_res5_elu <- conv4_res5
I0922 19:20:39.925983 29728 net.cpp:386] conv4_res5_elu -> conv4_res5 (in-place)
I0922 19:20:39.926002 29728 net.cpp:141] Setting up conv4_res5_elu
I0922 19:20:39.926007 29728 net.cpp:148] Top shape: 256 512 8 8 (8388608)
I0922 19:20:39.926008 29728 net.cpp:156] Memory required for data: 6186337280
I0922 19:20:39.926010 29728 layer_factory.hpp:77] Creating layer conv4_res5_conv4_res5_elu_0_split
I0922 19:20:39.926028 29728 net.cpp:91] Creating Layer conv4_res5_conv4_res5_elu_0_split
I0922 19:20:39.926030 29728 net.cpp:425] conv4_res5_conv4_res5_elu_0_split <- conv4_res5
I0922 19:20:39.926033 29728 net.cpp:399] conv4_res5_conv4_res5_elu_0_split -> conv4_res5_conv4_res5_elu_0_split_0
I0922 19:20:39.926038 29728 net.cpp:399] conv4_res5_conv4_res5_elu_0_split -> conv4_res5_conv4_res5_elu_0_split_1
I0922 19:20:39.926082 29728 net.cpp:141] Setting up conv4_res5_conv4_res5_elu_0_split
I0922 19:20:39.926086 29728 net.cpp:148] Top shape: 256 512 8 8 (8388608)
I0922 19:20:39.926090 29728 net.cpp:148] Top shape: 256 512 8 8 (8388608)
I0922 19:20:39.926091 29728 net.cpp:156] Memory required for data: 6253446144
I0922 19:20:39.926093 29728 layer_factory.hpp:77] Creating layer conv4_res6_conv1
I0922 19:20:39.926100 29728 net.cpp:91] Creating Layer conv4_res6_conv1
I0922 19:20:39.926116 29728 net.cpp:425] conv4_res6_conv1 <- conv4_res5_conv4_res5_elu_0_split_0
I0922 19:20:39.926121 29728 net.cpp:399] conv4_res6_conv1 -> conv4_res6_conv1
I0922 19:20:39.927301 29728 net.cpp:141] Setting up conv4_res6_conv1
I0922 19:20:39.927309 29728 net.cpp:148] Top shape: 256 128 8 8 (2097152)
I0922 19:20:39.927311 29728 net.cpp:156] Memory required for data: 6261834752
I0922 19:20:39.927316 29728 layer_factory.hpp:77] Creating layer conv4_res6_conv1_elu
I0922 19:20:39.927321 29728 net.cpp:91] Creating Layer conv4_res6_conv1_elu
I0922 19:20:39.927325 29728 net.cpp:425] conv4_res6_conv1_elu <- conv4_res6_conv1
I0922 19:20:39.927330 29728 net.cpp:386] conv4_res6_conv1_elu -> conv4_res6_conv1 (in-place)
I0922 19:20:39.927335 29728 net.cpp:141] Setting up conv4_res6_conv1_elu
I0922 19:20:39.927337 29728 net.cpp:148] Top shape: 256 128 8 8 (2097152)
I0922 19:20:39.927340 29728 net.cpp:156] Memory required for data: 6270223360
I0922 19:20:39.927341 29728 layer_factory.hpp:77] Creating layer conv4_res6_conv2
I0922 19:20:39.927346 29728 net.cpp:91] Creating Layer conv4_res6_conv2
I0922 19:20:39.927350 29728 net.cpp:425] conv4_res6_conv2 <- conv4_res6_conv1
I0922 19:20:39.927353 29728 net.cpp:399] conv4_res6_conv2 -> conv4_res6_conv2
I0922 19:20:39.929453 29728 net.cpp:141] Setting up conv4_res6_conv2
I0922 19:20:39.929467 29728 net.cpp:148] Top shape: 256 128 8 8 (2097152)
I0922 19:20:39.929471 29728 net.cpp:156] Memory required for data: 6278611968
I0922 19:20:39.929488 29728 layer_factory.hpp:77] Creating layer conv4_res6_conv2_elu
I0922 19:20:39.929494 29728 net.cpp:91] Creating Layer conv4_res6_conv2_elu
I0922 19:20:39.929498 29728 net.cpp:425] conv4_res6_conv2_elu <- conv4_res6_conv2
I0922 19:20:39.929503 29728 net.cpp:386] conv4_res6_conv2_elu -> conv4_res6_conv2 (in-place)
I0922 19:20:39.929509 29728 net.cpp:141] Setting up conv4_res6_conv2_elu
I0922 19:20:39.929513 29728 net.cpp:148] Top shape: 256 128 8 8 (2097152)
I0922 19:20:39.929515 29728 net.cpp:156] Memory required for data: 6287000576
I0922 19:20:39.929518 29728 layer_factory.hpp:77] Creating layer conv4_res6_conv3
I0922 19:20:39.929525 29728 net.cpp:91] Creating Layer conv4_res6_conv3
I0922 19:20:39.929528 29728 net.cpp:425] conv4_res6_conv3 <- conv4_res6_conv2
I0922 19:20:39.929533 29728 net.cpp:399] conv4_res6_conv3 -> conv4_res6_conv3
I0922 19:20:39.930740 29728 net.cpp:141] Setting up conv4_res6_conv3
I0922 19:20:39.930750 29728 net.cpp:148] Top shape: 256 512 8 8 (8388608)
I0922 19:20:39.930753 29728 net.cpp:156] Memory required for data: 6320555008
I0922 19:20:39.930758 29728 layer_factory.hpp:77] Creating layer conv4_res6
I0922 19:20:39.930765 29728 net.cpp:91] Creating Layer conv4_res6
I0922 19:20:39.930768 29728 net.cpp:425] conv4_res6 <- conv4_res5_conv4_res5_elu_0_split_1
I0922 19:20:39.930773 29728 net.cpp:425] conv4_res6 <- conv4_res6_conv3
I0922 19:20:39.930776 29728 net.cpp:425] conv4_res6 <- conv2_conv4_proj
I0922 19:20:39.930779 29728 net.cpp:425] conv4_res6 <- conv3_conv4_proj
I0922 19:20:39.930784 29728 net.cpp:399] conv4_res6 -> conv4_res6
I0922 19:20:39.930806 29728 net.cpp:141] Setting up conv4_res6
I0922 19:20:39.930810 29728 net.cpp:148] Top shape: 256 512 8 8 (8388608)
I0922 19:20:39.930814 29728 net.cpp:156] Memory required for data: 6354109440
I0922 19:20:39.930815 29728 layer_factory.hpp:77] Creating layer pool4
I0922 19:20:39.930821 29728 net.cpp:91] Creating Layer pool4
I0922 19:20:39.930824 29728 net.cpp:425] pool4 <- conv4_res6
I0922 19:20:39.930829 29728 net.cpp:399] pool4 -> pool4
I0922 19:20:39.930861 29728 net.cpp:141] Setting up pool4
I0922 19:20:39.930866 29728 net.cpp:148] Top shape: 256 512 4 4 (2097152)
I0922 19:20:39.930868 29728 net.cpp:156] Memory required for data: 6362498048
I0922 19:20:39.930871 29728 layer_factory.hpp:77] Creating layer pool4_elu
I0922 19:20:39.930874 29728 net.cpp:91] Creating Layer pool4_elu
I0922 19:20:39.930876 29728 net.cpp:425] pool4_elu <- pool4
I0922 19:20:39.930881 29728 net.cpp:386] pool4_elu -> pool4 (in-place)
I0922 19:20:39.930886 29728 net.cpp:141] Setting up pool4_elu
I0922 19:20:39.930888 29728 net.cpp:148] Top shape: 256 512 4 4 (2097152)
I0922 19:20:39.930891 29728 net.cpp:156] Memory required for data: 6370886656
I0922 19:20:39.930892 29728 layer_factory.hpp:77] Creating layer pool4_pool4_elu_0_split
I0922 19:20:39.930896 29728 net.cpp:91] Creating Layer pool4_pool4_elu_0_split
I0922 19:20:39.930899 29728 net.cpp:425] pool4_pool4_elu_0_split <- pool4
I0922 19:20:39.930902 29728 net.cpp:399] pool4_pool4_elu_0_split -> pool4_pool4_elu_0_split_0
I0922 19:20:39.930907 29728 net.cpp:399] pool4_pool4_elu_0_split -> pool4_pool4_elu_0_split_1
I0922 19:20:39.930910 29728 net.cpp:399] pool4_pool4_elu_0_split -> pool4_pool4_elu_0_split_2
I0922 19:20:39.930951 29728 net.cpp:141] Setting up pool4_pool4_elu_0_split
I0922 19:20:39.930955 29728 net.cpp:148] Top shape: 256 512 4 4 (2097152)
I0922 19:20:39.930958 29728 net.cpp:148] Top shape: 256 512 4 4 (2097152)
I0922 19:20:39.930961 29728 net.cpp:148] Top shape: 256 512 4 4 (2097152)
I0922 19:20:39.930963 29728 net.cpp:156] Memory required for data: 6396052480
I0922 19:20:39.930966 29728 layer_factory.hpp:77] Creating layer conv4_conv5_proj
I0922 19:20:39.930972 29728 net.cpp:91] Creating Layer conv4_conv5_proj
I0922 19:20:39.930975 29728 net.cpp:425] conv4_conv5_proj <- pool4_pool4_elu_0_split_0
I0922 19:20:39.930981 29728 net.cpp:399] conv4_conv5_proj -> conv4_conv5_proj
I0922 19:20:39.934618 29728 net.cpp:141] Setting up conv4_conv5_proj
I0922 19:20:39.934648 29728 net.cpp:148] Top shape: 256 1024 4 4 (4194304)
I0922 19:20:39.934651 29728 net.cpp:156] Memory required for data: 6412829696
I0922 19:20:39.934656 29728 layer_factory.hpp:77] Creating layer conv5_res1_proj
I0922 19:20:39.934677 29728 net.cpp:91] Creating Layer conv5_res1_proj
I0922 19:20:39.934681 29728 net.cpp:425] conv5_res1_proj <- pool4_pool4_elu_0_split_1
I0922 19:20:39.934687 29728 net.cpp:399] conv5_res1_proj -> conv5_res1_proj
I0922 19:20:39.938045 29728 net.cpp:141] Setting up conv5_res1_proj
I0922 19:20:39.938055 29728 net.cpp:148] Top shape: 256 1024 4 4 (4194304)
I0922 19:20:39.938057 29728 net.cpp:156] Memory required for data: 6429606912
I0922 19:20:39.938062 29728 layer_factory.hpp:77] Creating layer conv5_res1_conv1
I0922 19:20:39.938071 29728 net.cpp:91] Creating Layer conv5_res1_conv1
I0922 19:20:39.938073 29728 net.cpp:425] conv5_res1_conv1 <- pool4_pool4_elu_0_split_2
I0922 19:20:39.938079 29728 net.cpp:399] conv5_res1_conv1 -> conv5_res1_conv1
I0922 19:20:39.939698 29728 net.cpp:141] Setting up conv5_res1_conv1
I0922 19:20:39.939707 29728 net.cpp:148] Top shape: 256 256 4 4 (1048576)
I0922 19:20:39.939709 29728 net.cpp:156] Memory required for data: 6433801216
I0922 19:20:39.939713 29728 layer_factory.hpp:77] Creating layer conv5_res1_conv1_elu
I0922 19:20:39.939718 29728 net.cpp:91] Creating Layer conv5_res1_conv1_elu
I0922 19:20:39.939721 29728 net.cpp:425] conv5_res1_conv1_elu <- conv5_res1_conv1
I0922 19:20:39.939726 29728 net.cpp:386] conv5_res1_conv1_elu -> conv5_res1_conv1 (in-place)
I0922 19:20:39.939731 29728 net.cpp:141] Setting up conv5_res1_conv1_elu
I0922 19:20:39.939734 29728 net.cpp:148] Top shape: 256 256 4 4 (1048576)
I0922 19:20:39.939738 29728 net.cpp:156] Memory required for data: 6437995520
I0922 19:20:39.939739 29728 layer_factory.hpp:77] Creating layer conv5_res1_conv2
I0922 19:20:39.939745 29728 net.cpp:91] Creating Layer conv5_res1_conv2
I0922 19:20:39.939748 29728 net.cpp:425] conv5_res1_conv2 <- conv5_res1_conv1
I0922 19:20:39.939751 29728 net.cpp:399] conv5_res1_conv2 -> conv5_res1_conv2
I0922 19:20:39.943753 29728 net.cpp:141] Setting up conv5_res1_conv2
I0922 19:20:39.943763 29728 net.cpp:148] Top shape: 256 256 4 4 (1048576)
I0922 19:20:39.943765 29728 net.cpp:156] Memory required for data: 6442189824
I0922 19:20:39.943770 29728 layer_factory.hpp:77] Creating layer conv5_res1_conv2_elu
I0922 19:20:39.943775 29728 net.cpp:91] Creating Layer conv5_res1_conv2_elu
I0922 19:20:39.943778 29728 net.cpp:425] conv5_res1_conv2_elu <- conv5_res1_conv2
I0922 19:20:39.943783 29728 net.cpp:386] conv5_res1_conv2_elu -> conv5_res1_conv2 (in-place)
I0922 19:20:39.943788 29728 net.cpp:141] Setting up conv5_res1_conv2_elu
I0922 19:20:39.943791 29728 net.cpp:148] Top shape: 256 256 4 4 (1048576)
I0922 19:20:39.943794 29728 net.cpp:156] Memory required for data: 6446384128
I0922 19:20:39.943795 29728 layer_factory.hpp:77] Creating layer conv5_res1_conv3
I0922 19:20:39.943802 29728 net.cpp:91] Creating Layer conv5_res1_conv3
I0922 19:20:39.943804 29728 net.cpp:425] conv5_res1_conv3 <- conv5_res1_conv2
I0922 19:20:39.943809 29728 net.cpp:399] conv5_res1_conv3 -> conv5_res1_conv3
I0922 19:20:39.945973 29728 net.cpp:141] Setting up conv5_res1_conv3
I0922 19:20:39.945982 29728 net.cpp:148] Top shape: 256 1024 4 4 (4194304)
I0922 19:20:39.945986 29728 net.cpp:156] Memory required for data: 6463161344
I0922 19:20:39.945991 29728 layer_factory.hpp:77] Creating layer conv5_res1
I0922 19:20:39.945994 29728 net.cpp:91] Creating Layer conv5_res1
I0922 19:20:39.945997 29728 net.cpp:425] conv5_res1 <- conv5_res1_proj
I0922 19:20:39.946002 29728 net.cpp:425] conv5_res1 <- conv5_res1_conv3
I0922 19:20:39.946005 29728 net.cpp:399] conv5_res1 -> conv5_res1
I0922 19:20:39.946027 29728 net.cpp:141] Setting up conv5_res1
I0922 19:20:39.946030 29728 net.cpp:148] Top shape: 256 1024 4 4 (4194304)
I0922 19:20:39.946033 29728 net.cpp:156] Memory required for data: 6479938560
I0922 19:20:39.946034 29728 layer_factory.hpp:77] Creating layer conv5_res1_elu
I0922 19:20:39.946039 29728 net.cpp:91] Creating Layer conv5_res1_elu
I0922 19:20:39.946054 29728 net.cpp:425] conv5_res1_elu <- conv5_res1
I0922 19:20:39.946058 29728 net.cpp:386] conv5_res1_elu -> conv5_res1 (in-place)
I0922 19:20:39.946063 29728 net.cpp:141] Setting up conv5_res1_elu
I0922 19:20:39.946065 29728 net.cpp:148] Top shape: 256 1024 4 4 (4194304)
I0922 19:20:39.946068 29728 net.cpp:156] Memory required for data: 6496715776
I0922 19:20:39.946070 29728 layer_factory.hpp:77] Creating layer conv5_res1_conv5_res1_elu_0_split
I0922 19:20:39.946074 29728 net.cpp:91] Creating Layer conv5_res1_conv5_res1_elu_0_split
I0922 19:20:39.946075 29728 net.cpp:425] conv5_res1_conv5_res1_elu_0_split <- conv5_res1
I0922 19:20:39.946079 29728 net.cpp:399] conv5_res1_conv5_res1_elu_0_split -> conv5_res1_conv5_res1_elu_0_split_0
I0922 19:20:39.946084 29728 net.cpp:399] conv5_res1_conv5_res1_elu_0_split -> conv5_res1_conv5_res1_elu_0_split_1
I0922 19:20:39.946116 29728 net.cpp:141] Setting up conv5_res1_conv5_res1_elu_0_split
I0922 19:20:39.946120 29728 net.cpp:148] Top shape: 256 1024 4 4 (4194304)
I0922 19:20:39.946122 29728 net.cpp:148] Top shape: 256 1024 4 4 (4194304)
I0922 19:20:39.946125 29728 net.cpp:156] Memory required for data: 6530270208
I0922 19:20:39.946127 29728 layer_factory.hpp:77] Creating layer conv5_res2_conv1
I0922 19:20:39.946133 29728 net.cpp:91] Creating Layer conv5_res2_conv1
I0922 19:20:39.946136 29728 net.cpp:425] conv5_res2_conv1 <- conv5_res1_conv5_res1_elu_0_split_0
I0922 19:20:39.946141 29728 net.cpp:399] conv5_res2_conv1 -> conv5_res2_conv1
I0922 19:20:39.948292 29728 net.cpp:141] Setting up conv5_res2_conv1
I0922 19:20:39.948300 29728 net.cpp:148] Top shape: 256 256 4 4 (1048576)
I0922 19:20:39.948302 29728 net.cpp:156] Memory required for data: 6534464512
I0922 19:20:39.948307 29728 layer_factory.hpp:77] Creating layer conv5_res2_conv1_elu
I0922 19:20:39.948312 29728 net.cpp:91] Creating Layer conv5_res2_conv1_elu
I0922 19:20:39.948314 29728 net.cpp:425] conv5_res2_conv1_elu <- conv5_res2_conv1
I0922 19:20:39.948318 29728 net.cpp:386] conv5_res2_conv1_elu -> conv5_res2_conv1 (in-place)
I0922 19:20:39.948323 29728 net.cpp:141] Setting up conv5_res2_conv1_elu
I0922 19:20:39.948326 29728 net.cpp:148] Top shape: 256 256 4 4 (1048576)
I0922 19:20:39.948328 29728 net.cpp:156] Memory required for data: 6538658816
I0922 19:20:39.948330 29728 layer_factory.hpp:77] Creating layer conv5_res2_conv2
I0922 19:20:39.948336 29728 net.cpp:91] Creating Layer conv5_res2_conv2
I0922 19:20:39.948339 29728 net.cpp:425] conv5_res2_conv2 <- conv5_res2_conv1
I0922 19:20:39.948344 29728 net.cpp:399] conv5_res2_conv2 -> conv5_res2_conv2
I0922 19:20:39.952500 29728 net.cpp:141] Setting up conv5_res2_conv2
I0922 19:20:39.952515 29728 net.cpp:148] Top shape: 256 256 4 4 (1048576)
I0922 19:20:39.952518 29728 net.cpp:156] Memory required for data: 6542853120
I0922 19:20:39.952523 29728 layer_factory.hpp:77] Creating layer conv5_res2_conv2_elu
I0922 19:20:39.952529 29728 net.cpp:91] Creating Layer conv5_res2_conv2_elu
I0922 19:20:39.952533 29728 net.cpp:425] conv5_res2_conv2_elu <- conv5_res2_conv2
I0922 19:20:39.952536 29728 net.cpp:386] conv5_res2_conv2_elu -> conv5_res2_conv2 (in-place)
I0922 19:20:39.952543 29728 net.cpp:141] Setting up conv5_res2_conv2_elu
I0922 19:20:39.952545 29728 net.cpp:148] Top shape: 256 256 4 4 (1048576)
I0922 19:20:39.952548 29728 net.cpp:156] Memory required for data: 6547047424
I0922 19:20:39.952549 29728 layer_factory.hpp:77] Creating layer conv5_res2_conv3
I0922 19:20:39.952556 29728 net.cpp:91] Creating Layer conv5_res2_conv3
I0922 19:20:39.952559 29728 net.cpp:425] conv5_res2_conv3 <- conv5_res2_conv2
I0922 19:20:39.952564 29728 net.cpp:399] conv5_res2_conv3 -> conv5_res2_conv3
I0922 19:20:39.957233 29728 net.cpp:141] Setting up conv5_res2_conv3
I0922 19:20:39.957247 29728 net.cpp:148] Top shape: 256 256 4 4 (1048576)
I0922 19:20:39.957250 29728 net.cpp:156] Memory required for data: 6551241728
I0922 19:20:39.957257 29728 layer_factory.hpp:77] Creating layer conv5_res2_conv3_elu
I0922 19:20:39.957262 29728 net.cpp:91] Creating Layer conv5_res2_conv3_elu
I0922 19:20:39.957274 29728 net.cpp:425] conv5_res2_conv3_elu <- conv5_res2_conv3
I0922 19:20:39.957280 29728 net.cpp:386] conv5_res2_conv3_elu -> conv5_res2_conv3 (in-place)
I0922 19:20:39.957286 29728 net.cpp:141] Setting up conv5_res2_conv3_elu
I0922 19:20:39.957289 29728 net.cpp:148] Top shape: 256 256 4 4 (1048576)
I0922 19:20:39.957291 29728 net.cpp:156] Memory required for data: 6555436032
I0922 19:20:39.957294 29728 layer_factory.hpp:77] Creating layer conv5_res2_conv4
I0922 19:20:39.957300 29728 net.cpp:91] Creating Layer conv5_res2_conv4
I0922 19:20:39.957303 29728 net.cpp:425] conv5_res2_conv4 <- conv5_res2_conv3
I0922 19:20:39.957309 29728 net.cpp:399] conv5_res2_conv4 -> conv5_res2_conv4
I0922 19:20:39.959810 29728 net.cpp:141] Setting up conv5_res2_conv4
I0922 19:20:39.959821 29728 net.cpp:148] Top shape: 256 1024 4 4 (4194304)
I0922 19:20:39.959823 29728 net.cpp:156] Memory required for data: 6572213248
I0922 19:20:39.959828 29728 layer_factory.hpp:77] Creating layer conv5_res2
I0922 19:20:39.959837 29728 net.cpp:91] Creating Layer conv5_res2
I0922 19:20:39.959841 29728 net.cpp:425] conv5_res2 <- conv5_res1_conv5_res1_elu_0_split_1
I0922 19:20:39.959861 29728 net.cpp:425] conv5_res2 <- conv5_res2_conv4
I0922 19:20:39.959866 29728 net.cpp:399] conv5_res2 -> conv5_res2
I0922 19:20:39.959903 29728 net.cpp:141] Setting up conv5_res2
I0922 19:20:39.959908 29728 net.cpp:148] Top shape: 256 1024 4 4 (4194304)
I0922 19:20:39.959909 29728 net.cpp:156] Memory required for data: 6588990464
I0922 19:20:39.959913 29728 layer_factory.hpp:77] Creating layer conv5_res2_elu
I0922 19:20:39.959916 29728 net.cpp:91] Creating Layer conv5_res2_elu
I0922 19:20:39.959918 29728 net.cpp:425] conv5_res2_elu <- conv5_res2
I0922 19:20:39.959923 29728 net.cpp:386] conv5_res2_elu -> conv5_res2 (in-place)
I0922 19:20:39.959928 29728 net.cpp:141] Setting up conv5_res2_elu
I0922 19:20:39.959930 29728 net.cpp:148] Top shape: 256 1024 4 4 (4194304)
I0922 19:20:39.959933 29728 net.cpp:156] Memory required for data: 6605767680
I0922 19:20:39.959935 29728 layer_factory.hpp:77] Creating layer conv5_res2_conv5_res2_elu_0_split
I0922 19:20:39.959939 29728 net.cpp:91] Creating Layer conv5_res2_conv5_res2_elu_0_split
I0922 19:20:39.959941 29728 net.cpp:425] conv5_res2_conv5_res2_elu_0_split <- conv5_res2
I0922 19:20:39.959945 29728 net.cpp:399] conv5_res2_conv5_res2_elu_0_split -> conv5_res2_conv5_res2_elu_0_split_0
I0922 19:20:39.959949 29728 net.cpp:399] conv5_res2_conv5_res2_elu_0_split -> conv5_res2_conv5_res2_elu_0_split_1
I0922 19:20:39.959998 29728 net.cpp:141] Setting up conv5_res2_conv5_res2_elu_0_split
I0922 19:20:39.960003 29728 net.cpp:148] Top shape: 256 1024 4 4 (4194304)
I0922 19:20:39.960019 29728 net.cpp:148] Top shape: 256 1024 4 4 (4194304)
I0922 19:20:39.960022 29728 net.cpp:156] Memory required for data: 6639322112
I0922 19:20:39.960024 29728 layer_factory.hpp:77] Creating layer conv5_res3_conv1
I0922 19:20:39.960029 29728 net.cpp:91] Creating Layer conv5_res3_conv1
I0922 19:20:39.960032 29728 net.cpp:425] conv5_res3_conv1 <- conv5_res2_conv5_res2_elu_0_split_0
I0922 19:20:39.960037 29728 net.cpp:399] conv5_res3_conv1 -> conv5_res3_conv1
I0922 19:20:39.962568 29728 net.cpp:141] Setting up conv5_res3_conv1
I0922 19:20:39.962584 29728 net.cpp:148] Top shape: 256 256 4 4 (1048576)
I0922 19:20:39.962586 29728 net.cpp:156] Memory required for data: 6643516416
I0922 19:20:39.962592 29728 layer_factory.hpp:77] Creating layer conv5_res3_conv1_elu
I0922 19:20:39.962599 29728 net.cpp:91] Creating Layer conv5_res3_conv1_elu
I0922 19:20:39.962602 29728 net.cpp:425] conv5_res3_conv1_elu <- conv5_res3_conv1
I0922 19:20:39.962606 29728 net.cpp:386] conv5_res3_conv1_elu -> conv5_res3_conv1 (in-place)
I0922 19:20:39.962613 29728 net.cpp:141] Setting up conv5_res3_conv1_elu
I0922 19:20:39.962616 29728 net.cpp:148] Top shape: 256 256 4 4 (1048576)
I0922 19:20:39.962618 29728 net.cpp:156] Memory required for data: 6647710720
I0922 19:20:39.962621 29728 layer_factory.hpp:77] Creating layer conv5_res3_conv2
I0922 19:20:39.962641 29728 net.cpp:91] Creating Layer conv5_res3_conv2
I0922 19:20:39.962646 29728 net.cpp:425] conv5_res3_conv2 <- conv5_res3_conv1
I0922 19:20:39.962651 29728 net.cpp:399] conv5_res3_conv2 -> conv5_res3_conv2
I0922 19:20:39.966815 29728 net.cpp:141] Setting up conv5_res3_conv2
I0922 19:20:39.966835 29728 net.cpp:148] Top shape: 256 256 4 4 (1048576)
I0922 19:20:39.966837 29728 net.cpp:156] Memory required for data: 6651905024
I0922 19:20:39.966843 29728 layer_factory.hpp:77] Creating layer conv5_res3_conv2_elu
I0922 19:20:39.966850 29728 net.cpp:91] Creating Layer conv5_res3_conv2_elu
I0922 19:20:39.966855 29728 net.cpp:425] conv5_res3_conv2_elu <- conv5_res3_conv2
I0922 19:20:39.966861 29728 net.cpp:386] conv5_res3_conv2_elu -> conv5_res3_conv2 (in-place)
I0922 19:20:39.966867 29728 net.cpp:141] Setting up conv5_res3_conv2_elu
I0922 19:20:39.966871 29728 net.cpp:148] Top shape: 256 256 4 4 (1048576)
I0922 19:20:39.966872 29728 net.cpp:156] Memory required for data: 6656099328
I0922 19:20:39.966876 29728 layer_factory.hpp:77] Creating layer conv5_res3_conv3
I0922 19:20:39.966882 29728 net.cpp:91] Creating Layer conv5_res3_conv3
I0922 19:20:39.966886 29728 net.cpp:425] conv5_res3_conv3 <- conv5_res3_conv2
I0922 19:20:39.966889 29728 net.cpp:399] conv5_res3_conv3 -> conv5_res3_conv3
I0922 19:20:39.971030 29728 net.cpp:141] Setting up conv5_res3_conv3
I0922 19:20:39.971045 29728 net.cpp:148] Top shape: 256 256 4 4 (1048576)
I0922 19:20:39.971047 29728 net.cpp:156] Memory required for data: 6660293632
I0922 19:20:39.971053 29728 layer_factory.hpp:77] Creating layer conv5_res3_conv3_elu
I0922 19:20:39.971060 29728 net.cpp:91] Creating Layer conv5_res3_conv3_elu
I0922 19:20:39.971063 29728 net.cpp:425] conv5_res3_conv3_elu <- conv5_res3_conv3
I0922 19:20:39.971068 29728 net.cpp:386] conv5_res3_conv3_elu -> conv5_res3_conv3 (in-place)
I0922 19:20:39.971074 29728 net.cpp:141] Setting up conv5_res3_conv3_elu
I0922 19:20:39.971077 29728 net.cpp:148] Top shape: 256 256 4 4 (1048576)
I0922 19:20:39.971079 29728 net.cpp:156] Memory required for data: 6664487936
I0922 19:20:39.971082 29728 layer_factory.hpp:77] Creating layer conv5_res3_conv4
I0922 19:20:39.971088 29728 net.cpp:91] Creating Layer conv5_res3_conv4
I0922 19:20:39.971091 29728 net.cpp:425] conv5_res3_conv4 <- conv5_res3_conv3
I0922 19:20:39.971096 29728 net.cpp:399] conv5_res3_conv4 -> conv5_res3_conv4
I0922 19:20:39.973464 29728 net.cpp:141] Setting up conv5_res3_conv4
I0922 19:20:39.973472 29728 net.cpp:148] Top shape: 256 1024 4 4 (4194304)
I0922 19:20:39.973475 29728 net.cpp:156] Memory required for data: 6681265152
I0922 19:20:39.973480 29728 layer_factory.hpp:77] Creating layer conv5_res3
I0922 19:20:39.973486 29728 net.cpp:91] Creating Layer conv5_res3
I0922 19:20:39.973490 29728 net.cpp:425] conv5_res3 <- conv5_res2_conv5_res2_elu_0_split_1
I0922 19:20:39.973495 29728 net.cpp:425] conv5_res3 <- conv5_res3_conv4
I0922 19:20:39.973497 29728 net.cpp:425] conv5_res3 <- conv2_conv5_proj
I0922 19:20:39.973501 29728 net.cpp:425] conv5_res3 <- conv3_conv5_proj
I0922 19:20:39.973505 29728 net.cpp:425] conv5_res3 <- conv4_conv5_proj
I0922 19:20:39.973507 29728 net.cpp:399] conv5_res3 -> conv5_res3
…
I0922 19:20:40.082034 29728 net.cpp:141] Setting up conv3_conv4_proj
I0922 19:20:40.082049 29728 net.cpp:148] Top shape: 100 512 8 8 (3276800)
I0922 19:20:40.082054 29728 net.cpp:156] Memory required for data: 2023323200
I0922 19:20:40.082061 29728 layer_factory.hpp:77] Creating layer conv3_conv5_proj
I0922 19:20:40.082068 29728 net.cpp:91] Creating Layer conv3_conv5_proj
I0922 19:20:40.082072 29728 net.cpp:425] conv3_conv5_proj <- pool3_pool3_elu_0_split_1
I0922 19:20:40.082077 29728 net.cpp:399] conv3_conv5_proj -> conv3_conv5_proj
I0922 19:20:40.084756 29728 net.cpp:141] Setting up conv3_conv5_proj
I0922 19:20:40.084782 29728 net.cpp:148] Top shape: 100 1024 4 4 (1638400)
I0922 19:20:40.084785 29728 net.cpp:156] Memory required for data: 2029876800
I0922 19:20:40.084790 29728 layer_factory.hpp:77] Creating layer conv4_res1_proj
I0922 19:20:40.084800 29728 net.cpp:91] Creating Layer conv4_res1_proj
I0922 19:20:40.084803 29728 net.cpp:425] conv4_res1_proj <- pool3_pool3_elu_0_split_2
I0922 19:20:40.084810 29728 net.cpp:399] conv4_res1_proj -> conv4_res1_proj
I0922 19:20:40.086779 29728 net.cpp:141] Setting up conv4_res1_proj
I0922 19:20:40.086791 29728 net.cpp:148] Top shape: 100 512 8 8 (3276800)
I0922 19:20:40.086808 29728 net.cpp:156] Memory required for data: 2042984000
I0922 19:20:40.086813 29728 layer_factory.hpp:77] Creating layer conv4_res1_conv1
I0922 19:20:40.086823 29728 net.cpp:91] Creating Layer conv4_res1_conv1
I0922 19:20:40.086827 29728 net.cpp:425] conv4_res1_conv1 <- pool3_pool3_elu_0_split_3
I0922 19:20:40.086833 29728 net.cpp:399] conv4_res1_conv1 -> conv4_res1_conv1
I0922 19:20:40.088158 29728 net.cpp:141] Setting up conv4_res1_conv1
I0922 19:20:40.088167 29728 net.cpp:148] Top shape: 100 128 8 8 (819200)
I0922 19:20:40.088171 29728 net.cpp:156] Memory required for data: 2046260800
I0922 19:20:40.088186 29728 layer_factory.hpp:77] Creating layer conv4_res1_conv1_elu
I0922 19:20:40.088192 29728 net.cpp:91] Creating Layer conv4_res1_conv1_elu
I0922 19:20:40.088196 29728 net.cpp:425] conv4_res1_conv1_elu <- conv4_res1_conv1
I0922 19:20:40.088201 29728 net.cpp:386] conv4_res1_conv1_elu -> conv4_res1_conv1 (in-place)
I0922 19:20:40.088205 29728 net.cpp:141] Setting up conv4_res1_conv1_elu
I0922 19:20:40.088209 29728 net.cpp:148] Top shape: 100 128 8 8 (819200)
I0922 19:20:40.088212 29728 net.cpp:156] Memory required for data: 2049537600
I0922 19:20:40.088213 29728 layer_factory.hpp:77] Creating layer conv4_res1_conv2
I0922 19:20:40.088220 29728 net.cpp:91] Creating Layer conv4_res1_conv2
I0922 19:20:40.088222 29728 net.cpp:425] conv4_res1_conv2 <- conv4_res1_conv1
I0922 19:20:40.088227 29728 net.cpp:399] conv4_res1_conv2 -> conv4_res1_conv2
I0922 19:20:40.090672 29728 net.cpp:141] Setting up conv4_res1_conv2
I0922 19:20:40.090695 29728 net.cpp:148] Top shape: 100 128 8 8 (819200)
I0922 19:20:40.090698 29728 net.cpp:156] Memory required for data: 2052814400
I0922 19:20:40.090703 29728 layer_factory.hpp:77] Creating layer conv4_res1_conv2_elu
I0922 19:20:40.090708 29728 net.cpp:91] Creating Layer conv4_res1_conv2_elu
I0922 19:20:40.090713 29728 net.cpp:425] conv4_res1_conv2_elu <- conv4_res1_conv2
I0922 19:20:40.090716 29728 net.cpp:386] conv4_res1_conv2_elu -> conv4_res1_conv2 (in-place)
I0922 19:20:40.090721 29728 net.cpp:141] Setting up conv4_res1_conv2_elu
I0922 19:20:40.090739 29728 net.cpp:148] Top shape: 100 128 8 8 (819200)
I0922 19:20:40.090740 29728 net.cpp:156] Memory required for data: 2056091200
I0922 19:20:40.090742 29728 layer_factory.hpp:77] Creating layer conv4_res1_conv3
I0922 19:20:40.090750 29728 net.cpp:91] Creating Layer conv4_res1_conv3
I0922 19:20:40.090752 29728 net.cpp:425] conv4_res1_conv3 <- conv4_res1_conv2
I0922 19:20:40.090756 29728 net.cpp:399] conv4_res1_conv3 -> conv4_res1_conv3
I0922 19:20:40.092445 29728 net.cpp:141] Setting up conv4_res1_conv3
I0922 19:20:40.092454 29728 net.cpp:148] Top shape: 100 512 8 8 (3276800)
I0922 19:20:40.092458 29728 net.cpp:156] Memory required for data: 2069198400
I0922 19:20:40.092463 29728 layer_factory.hpp:77] Creating layer conv4_res1
I0922 19:20:40.092483 29728 net.cpp:91] Creating Layer conv4_res1
I0922 19:20:40.092486 29728 net.cpp:425] conv4_res1 <- conv4_res1_proj
I0922 19:20:40.092490 29728 net.cpp:425] conv4_res1 <- conv4_res1_conv3
I0922 19:20:40.092494 29728 net.cpp:399] conv4_res1 -> conv4_res1
I0922 19:20:40.092522 29728 net.cpp:141] Setting up conv4_res1
I0922 19:20:40.092527 29728 net.cpp:148] Top shape: 100 512 8 8 (3276800)
I0922 19:20:40.092530 29728 net.cpp:156] Memory required for data: 2082305600
I0922 19:20:40.092531 29728 layer_factory.hpp:77] Creating layer conv4_res1_elu
I0922 19:20:40.092536 29728 net.cpp:91] Creating Layer conv4_res1_elu
I0922 19:20:40.092538 29728 net.cpp:425] conv4_res1_elu <- conv4_res1
I0922 19:20:40.108105 29728 net.cpp:386] conv4_res1_elu -> conv4_res1 (in-place)
I0922 19:20:40.108125 29728 net.cpp:141] Setting up conv4_res1_elu
I0922 19:20:40.108131 29728 net.cpp:148] Top shape: 100 512 8 8 (3276800)
I0922 19:20:40.108134 29728 net.cpp:156] Memory required for data: 2095412800
I0922 19:20:40.108150 29728 layer_factory.hpp:77] Creating layer conv4_res1_conv4_res1_elu_0_split
I0922 19:20:40.108155 29728 net.cpp:91] Creating Layer conv4_res1_conv4_res1_elu_0_split
I0922 19:20:40.108158 29728 net.cpp:425] conv4_res1_conv4_res1_elu_0_split <- conv4_res1
I0922 19:20:40.108162 29728 net.cpp:399] conv4_res1_conv4_res1_elu_0_split -> conv4_res1_conv4_res1_elu_0_split_0
I0922 19:20:40.108167 29728 net.cpp:399] conv4_res1_conv4_res1_elu_0_split -> conv4_res1_conv4_res1_elu_0_split_1
I0922 19:20:40.108268 29728 net.cpp:141] Setting up conv4_res1_conv4_res1_elu_0_split
I0922 19:20:40.108273 29728 net.cpp:148] Top shape: 100 512 8 8 (3276800)
I0922 19:20:40.108276 29728 net.cpp:148] Top shape: 100 512 8 8 (3276800)
I0922 19:20:40.108278 29728 net.cpp:156] Memory required for data: 2121627200
I0922 19:20:40.108281 29728 layer_factory.hpp:77] Creating layer conv4_res2_conv1
I0922 19:20:40.108290 29728 net.cpp:91] Creating Layer conv4_res2_conv1
I0922 19:20:40.108294 29728 net.cpp:425] conv4_res2_conv1 <- conv4_res1_conv4_res1_elu_0_split_0
I0922 19:20:40.108300 29728 net.cpp:399] conv4_res2_conv1 -> conv4_res2_conv1
I0922 19:20:40.109671 29728 net.cpp:141] Setting up conv4_res2_conv1
I0922 19:20:40.109681 29728 net.cpp:148] Top shape: 100 128 8 8 (819200)
I0922 19:20:40.109684 29728 net.cpp:156] Memory required for data: 2124904000
I0922 19:20:40.109689 29728 layer_factory.hpp:77] Creating layer conv4_res2_conv1_elu
I0922 19:20:40.109695 29728 net.cpp:91] Creating Layer conv4_res2_conv1_elu
I0922 19:20:40.109699 29728 net.cpp:425] conv4_res2_conv1_elu <- conv4_res2_conv1
I0922 19:20:40.109704 29728 net.cpp:386] conv4_res2_conv1_elu -> conv4_res2_conv1 (in-place)
I0922 19:20:40.109709 29728 net.cpp:141] Setting up conv4_res2_conv1_elu
I0922 19:20:40.109714 29728 net.cpp:148] Top shape: 100 128 8 8 (819200)
I0922 19:20:40.109715 29728 net.cpp:156] Memory required for data: 2128180800
I0922 19:20:40.109717 29728 layer_factory.hpp:77] Creating layer conv4_res2_conv2
I0922 19:20:40.109737 29728 net.cpp:91] Creating Layer conv4_res2_conv2
I0922 19:20:40.109740 29728 net.cpp:425] conv4_res2_conv2 <- conv4_res2_conv1
I0922 19:20:40.109745 29728 net.cpp:399] conv4_res2_conv2 -> conv4_res2_conv2
I0922 19:20:40.111043 29728 net.cpp:141] Setting up conv4_res2_conv2
I0922 19:20:40.111052 29728 net.cpp:148] Top shape: 100 128 8 8 (819200)
I0922 19:20:40.111055 29728 net.cpp:156] Memory required for data: 2131457600
I0922 19:20:40.111058 29728 layer_factory.hpp:77] Creating layer conv4_res2_conv2_elu
I0922 19:20:40.111063 29728 net.cpp:91] Creating Layer conv4_res2_conv2_elu
I0922 19:20:40.111066 29728 net.cpp:425] conv4_res2_conv2_elu <- conv4_res2_conv2
I0922 19:20:40.111070 29728 net.cpp:386] conv4_res2_conv2_elu -> conv4_res2_conv2 (in-place)
I0922 19:20:40.111075 29728 net.cpp:141] Setting up conv4_res2_conv2_elu
I0922 19:20:40.111078 29728 net.cpp:148] Top shape: 100 128 8 8 (819200)
I0922 19:20:40.111081 29728 net.cpp:156] Memory required for data: 2134734400
I0922 19:20:40.111083 29728 layer_factory.hpp:77] Creating layer conv4_res2_conv3
I0922 19:20:40.111099 29728 net.cpp:91] Creating Layer conv4_res2_conv3
I0922 19:20:40.111102 29728 net.cpp:425] conv4_res2_conv3 <- conv4_res2_conv2
I0922 19:20:40.111107 29728 net.cpp:399] conv4_res2_conv3 -> conv4_res2_conv3
I0922 19:20:40.112352 29728 net.cpp:141] Setting up conv4_res2_conv3
I0922 19:20:40.112360 29728 net.cpp:148] Top shape: 100 128 8 8 (819200)
I0922 19:20:40.112363 29728 net.cpp:156] Memory required for data: 2138011200
I0922 19:20:40.112367 29728 layer_factory.hpp:77] Creating layer conv4_res2_conv3_elu
I0922 19:20:40.112371 29728 net.cpp:91] Creating Layer conv4_res2_conv3_elu
I0922 19:20:40.112375 29728 net.cpp:425] conv4_res2_conv3_elu <- conv4_res2_conv3
I0922 19:20:40.112380 29728 net.cpp:386] conv4_res2_conv3_elu -> conv4_res2_conv3 (in-place)
I0922 19:20:40.112385 29728 net.cpp:141] Setting up conv4_res2_conv3_elu
I0922 19:20:40.112388 29728 net.cpp:148] Top shape: 100 128 8 8 (819200)
I0922 19:20:40.112390 29728 net.cpp:156] Memory required for data: 2141288000
I0922 19:20:40.112392 29728 layer_factory.hpp:77] Creating layer conv4_res2_conv4
I0922 19:20:40.112397 29728 net.cpp:91] Creating Layer conv4_res2_conv4
I0922 19:20:40.112401 29728 net.cpp:425] conv4_res2_conv4 <- conv4_res2_conv3
I0922 19:20:40.112406 29728 net.cpp:399] conv4_res2_conv4 -> conv4_res2_conv4
I0922 19:20:40.114068 29728 net.cpp:141] Setting up conv4_res2_conv4
I0922 19:20:40.114076 29728 net.cpp:148] Top shape: 100 512 8 8 (3276800)
I0922 19:20:40.114079 29728 net.cpp:156] Memory required for data: 2154395200
I0922 19:20:40.114084 29728 layer_factory.hpp:77] Creating layer conv4_res2
I0922 19:20:40.114089 29728 net.cpp:91] Creating Layer conv4_res2
I0922 19:20:40.114092 29728 net.cpp:425] conv4_res2 <- conv4_res1_conv4_res1_elu_0_split_1
I0922 19:20:40.114096 29728 net.cpp:425] conv4_res2 <- conv4_res2_conv4
I0922 19:20:40.114101 29728 net.cpp:399] conv4_res2 -> conv4_res2
I0922 19:20:40.114128 29728 net.cpp:141] Setting up conv4_res2
I0922 19:20:40.114132 29728 net.cpp:148] Top shape: 100 512 8 8 (3276800)
I0922 19:20:40.114135 29728 net.cpp:156] Memory required for data: 2167502400
I0922 19:20:40.114137 29728 layer_factory.hpp:77] Creating layer conv4_res2_elu
I0922 19:20:40.114141 29728 net.cpp:91] Creating Layer conv4_res2_elu
I0922 19:20:40.114145 29728 net.cpp:425] conv4_res2_elu <- conv4_res2
I0922 19:20:40.114147 29728 net.cpp:386] conv4_res2_elu -> conv4_res2 (in-place)
I0922 19:20:40.114151 29728 net.cpp:141] Setting up conv4_res2_elu
I0922 19:20:40.114154 29728 net.cpp:148] Top shape: 100 512 8 8 (3276800)
I0922 19:20:40.114157 29728 net.cpp:156] Memory required for data: 2180609600
I0922 19:20:40.114159 29728 layer_factory.hpp:77] Creating layer conv4_res2_conv4_res2_elu_0_split
I0922 19:20:40.114164 29728 net.cpp:91] Creating Layer conv4_res2_conv4_res2_elu_0_split
I0922 19:20:40.114167 29728 net.cpp:425] conv4_res2_conv4_res2_elu_0_split <- conv4_res2
I0922 19:20:40.114171 29728 net.cpp:399] conv4_res2_conv4_res2_elu_0_split -> conv4_res2_conv4_res2_elu_0_split_0
I0922 19:20:40.114176 29728 net.cpp:399] conv4_res2_conv4_res2_elu_0_split -> conv4_res2_conv4_res2_elu_0_split_1
I0922 19:20:40.114217 29728 net.cpp:141] Setting up conv4_res2_conv4_res2_elu_0_split
I0922 19:20:40.114222 29728 net.cpp:148] Top shape: 100 512 8 8 (3276800)
I0922 19:20:40.114224 29728 net.cpp:148] Top shape: 100 512 8 8 (3276800)
I0922 19:20:40.114226 29728 net.cpp:156] Memory required for data: 2206824000
I0922 19:20:40.114228 29728 layer_factory.hpp:77] Creating layer conv4_res3_conv1
I0922 19:20:40.114238 29728 net.cpp:91] Creating Layer conv4_res3_conv1
I0922 19:20:40.114241 29728 net.cpp:425] conv4_res3_conv1 <- conv4_res2_conv4_res2_elu_0_split_0
I0922 19:20:40.114245 29728 net.cpp:399] conv4_res3_conv1 -> conv4_res3_conv1
I0922 19:20:40.115463 29728 net.cpp:141] Setting up conv4_res3_conv1
I0922 19:20:40.115470 29728 net.cpp:148] Top shape: 100 128 8 8 (819200)
I0922 19:20:40.115473 29728 net.cpp:156] Memory required for data: 2210100800
I0922 19:20:40.115478 29728 layer_factory.hpp:77] Creating layer conv4_res3_conv1_elu
I0922 19:20:40.115489 29728 net.cpp:91] Creating Layer conv4_res3_conv1_elu
I0922 19:20:40.115492 29728 net.cpp:425] conv4_res3_conv1_elu <- conv4_res3_conv1
I0922 19:20:40.115497 29728 net.cpp:386] conv4_res3_conv1_elu -> conv4_res3_conv1 (in-place)
I0922 19:20:40.115502 29728 net.cpp:141] Setting up conv4_res3_conv1_elu
I0922 19:20:40.115506 29728 net.cpp:148] Top shape: 100 128 8 8 (819200)
I0922 19:20:40.115509 29728 net.cpp:156] Memory required for data: 2213377600
I0922 19:20:40.115510 29728 layer_factory.hpp:77] Creating layer conv4_res3_conv2
I0922 19:20:40.115517 29728 net.cpp:91] Creating Layer conv4_res3_conv2
I0922 19:20:40.115520 29728 net.cpp:425] conv4_res3_conv2 <- conv4_res3_conv1
I0922 19:20:40.115525 29728 net.cpp:399] conv4_res3_conv2 -> conv4_res3_conv2
I0922 19:20:40.117697 29728 net.cpp:141] Setting up conv4_res3_conv2
I0922 19:20:40.117709 29728 net.cpp:148] Top shape: 100 128 8 8 (819200)
I0922 19:20:40.117713 29728 net.cpp:156] Memory required for data: 2216654400
I0922 19:20:40.117718 29728 layer_factory.hpp:77] Creating layer conv4_res3_conv2_elu
I0922 19:20:40.117723 29728 net.cpp:91] Creating Layer conv4_res3_conv2_elu
I0922 19:20:40.117727 29728 net.cpp:425] conv4_res3_conv2_elu <- conv4_res3_conv2
I0922 19:20:40.117733 29728 net.cpp:386] conv4_res3_conv2_elu -> conv4_res3_conv2 (in-place)
I0922 19:20:40.117738 29728 net.cpp:141] Setting up conv4_res3_conv2_elu
I0922 19:20:40.117741 29728 net.cpp:148] Top shape: 100 128 8 8 (819200)
I0922 19:20:40.117744 29728 net.cpp:156] Memory required for data: 2219931200
I0922 19:20:40.117746 29728 layer_factory.hpp:77] Creating layer conv4_res3_conv3
I0922 19:20:40.117753 29728 net.cpp:91] Creating Layer conv4_res3_conv3
I0922 19:20:40.117756 29728 net.cpp:425] conv4_res3_conv3 <- conv4_res3_conv2
I0922 19:20:40.117760 29728 net.cpp:399] conv4_res3_conv3 -> conv4_res3_conv3
I0922 19:20:40.119844 29728 net.cpp:141] Setting up conv4_res3_conv3
I0922 19:20:40.119854 29728 net.cpp:148] Top shape: 100 128 8 8 (819200)
I0922 19:20:40.119858 29728 net.cpp:156] Memory required for data: 2223208000
I0922 19:20:40.119861 29728 layer_factory.hpp:77] Creating layer conv4_res3_conv3_elu
I0922 19:20:40.119868 29728 net.cpp:91] Creating Layer conv4_res3_conv3_elu
I0922 19:20:40.119870 29728 net.cpp:425] conv4_res3_conv3_elu <- conv4_res3_conv3
I0922 19:20:40.119874 29728 net.cpp:386] conv4_res3_conv3_elu -> conv4_res3_conv3 (in-place)
I0922 19:20:40.119879 29728 net.cpp:141] Setting up conv4_res3_conv3_elu
I0922 19:20:40.119884 29728 net.cpp:148] Top shape: 100 128 8 8 (819200)
I0922 19:20:40.119885 29728 net.cpp:156] Memory required for data: 2226484800
I0922 19:20:40.119887 29728 layer_factory.hpp:77] Creating layer conv4_res3_conv4
I0922 19:20:40.119894 29728 net.cpp:91] Creating Layer conv4_res3_conv4
I0922 19:20:40.119896 29728 net.cpp:425] conv4_res3_conv4 <- conv4_res3_conv3
I0922 19:20:40.119900 29728 net.cpp:399] conv4_res3_conv4 -> conv4_res3_conv4
I0922 19:20:40.121104 29728 net.cpp:141] Setting up conv4_res3_conv4
I0922 19:20:40.121114 29728 net.cpp:148] Top shape: 100 512 8 8 (3276800)
I0922 19:20:40.121116 29728 net.cpp:156] Memory required for data: 2239592000
I0922 19:20:40.121120 29728 layer_factory.hpp:77] Creating layer conv4_res3
I0922 19:20:40.121126 29728 net.cpp:91] Creating Layer conv4_res3
I0922 19:20:40.121130 29728 net.cpp:425] conv4_res3 <- conv4_res2_conv4_res2_elu_0_split_1
I0922 19:20:40.121134 29728 net.cpp:425] conv4_res3 <- conv4_res3_conv4
I0922 19:20:40.121139 29728 net.cpp:399] conv4_res3 -> conv4_res3
I0922 19:20:40.121163 29728 net.cpp:141] Setting up conv4_res3
I0922 19:20:40.121167 29728 net.cpp:148] Top shape: 100 512 8 8 (3276800)
I0922 19:20:40.121170 29728 net.cpp:156] Memory required for data: 2252699200
I0922 19:20:40.121171 29728 layer_factory.hpp:77] Creating layer conv4_res3_elu
I0922 19:20:40.121176 29728 net.cpp:91] Creating Layer conv4_res3_elu
I0922 19:20:40.121179 29728 net.cpp:425] conv4_res3_elu <- conv4_res3
I0922 19:20:40.121182 29728 net.cpp:386] conv4_res3_elu -> conv4_res3 (in-place)
I0922 19:20:40.121199 29728 net.cpp:141] Setting up conv4_res3_elu
I0922 19:20:40.121202 29728 net.cpp:148] Top shape: 100 512 8 8 (3276800)
I0922 19:20:40.121206 29728 net.cpp:156] Memory required for data: 2265806400
I0922 19:20:40.121207 29728 layer_factory.hpp:77] Creating layer conv4_res3_conv4_res3_elu_0_split
I0922 19:20:40.121212 29728 net.cpp:91] Creating Layer conv4_res3_conv4_res3_elu_0_split
I0922 19:20:40.121213 29728 net.cpp:425] conv4_res3_conv4_res3_elu_0_split <- conv4_res3
I0922 19:20:40.121217 29728 net.cpp:399] conv4_res3_conv4_res3_elu_0_split -> conv4_res3_conv4_res3_elu_0_split_0
I0922 19:20:40.121222 29728 net.cpp:399] conv4_res3_conv4_res3_elu_0_split -> conv4_res3_conv4_res3_elu_0_split_1
I0922 19:20:40.121263 29728 net.cpp:141] Setting up conv4_res3_conv4_res3_elu_0_split
I0922 19:20:40.121268 29728 net.cpp:148] Top shape: 100 512 8 8 (3276800)
I0922 19:20:40.121270 29728 net.cpp:148] Top shape: 100 512 8 8 (3276800)
I0922 19:20:40.121273 29728 net.cpp:156] Memory required for data: 2292020800
I0922 19:20:40.121274 29728 layer_factory.hpp:77] Creating layer conv4_res4_conv1
I0922 19:20:40.121279 29728 net.cpp:91] Creating Layer conv4_res4_conv1
I0922 19:20:40.121282 29728 net.cpp:425] conv4_res4_conv1 <- conv4_res3_conv4_res3_elu_0_split_0
I0922 19:20:40.121287 29728 net.cpp:399] conv4_res4_conv1 -> conv4_res4_conv1
I0922 19:20:40.123288 29728 net.cpp:141] Setting up conv4_res4_conv1
I0922 19:20:40.123296 29728 net.cpp:148] Top shape: 100 128 8 8 (819200)
I0922 19:20:40.123299 29728 net.cpp:156] Memory required for data: 2295297600
I0922 19:20:40.123302 29728 layer_factory.hpp:77] Creating layer conv4_res4_conv1_elu
I0922 19:20:40.123308 29728 net.cpp:91] Creating Layer conv4_res4_conv1_elu
I0922 19:20:40.123311 29728 net.cpp:425] conv4_res4_conv1_elu <- conv4_res4_conv1
I0922 19:20:40.123316 29728 net.cpp:386] conv4_res4_conv1_elu -> conv4_res4_conv1 (in-place)
I0922 19:20:40.123320 29728 net.cpp:141] Setting up conv4_res4_conv1_elu
I0922 19:20:40.123323 29728 net.cpp:148] Top shape: 100 128 8 8 (819200)
I0922 19:20:40.123327 29728 net.cpp:156] Memory required for data: 2298574400
I0922 19:20:40.123328 29728 layer_factory.hpp:77] Creating layer conv4_res4_conv2
I0922 19:20:40.123333 29728 net.cpp:91] Creating Layer conv4_res4_conv2
I0922 19:20:40.123335 29728 net.cpp:425] conv4_res4_conv2 <- conv4_res4_conv1
I0922 19:20:40.123340 29728 net.cpp:399] conv4_res4_conv2 -> conv4_res4_conv2
I0922 19:20:40.125613 29728 net.cpp:141] Setting up conv4_res4_conv2
I0922 19:20:40.125623 29728 net.cpp:148] Top shape: 100 512 8 8 (3276800)
I0922 19:20:40.125627 29728 net.cpp:156] Memory required for data: 2311681600
I0922 19:20:40.125630 29728 layer_factory.hpp:77] Creating layer conv4_res4
I0922 19:20:40.125634 29728 net.cpp:91] Creating Layer conv4_res4
I0922 19:20:40.125638 29728 net.cpp:425] conv4_res4 <- conv4_res3_conv4_res3_elu_0_split_1
I0922 19:20:40.125641 29728 net.cpp:425] conv4_res4 <- conv4_res4_conv2
I0922 19:20:40.125646 29728 net.cpp:399] conv4_res4 -> conv4_res4
I0922 19:20:40.125674 29728 net.cpp:141] Setting up conv4_res4
I0922 19:20:40.125679 29728 net.cpp:148] Top shape: 100 512 8 8 (3276800)
I0922 19:20:40.125680 29728 net.cpp:156] Memory required for data: 2324788800
I0922 19:20:40.125682 29728 layer_factory.hpp:77] Creating layer conv4_res4_elu
I0922 19:20:40.125686 29728 net.cpp:91] Creating Layer conv4_res4_elu
I0922 19:20:40.125689 29728 net.cpp:425] conv4_res4_elu <- conv4_res4
I0922 19:20:40.125691 29728 net.cpp:386] conv4_res4_elu -> conv4_res4 (in-place)
I0922 19:20:40.125695 29728 net.cpp:141] Setting up conv4_res4_elu
I0922 19:20:40.125699 29728 net.cpp:148] Top shape: 100 512 8 8 (3276800)
I0922 19:20:40.125700 29728 net.cpp:156] Memory required for data: 2337896000
I0922 19:20:40.125704 29728 layer_factory.hpp:77] Creating layer conv4_res4_conv4_res4_elu_0_split
I0922 19:20:40.125706 29728 net.cpp:91] Creating Layer conv4_res4_conv4_res4_elu_0_split
I0922 19:20:40.125708 29728 net.cpp:425] conv4_res4_conv4_res4_elu_0_split <- conv4_res4
I0922 19:20:40.125712 29728 net.cpp:399] conv4_res4_conv4_res4_elu_0_split -> conv4_res4_conv4_res4_elu_0_split_0
I0922 19:20:40.125726 29728 net.cpp:399] conv4_res4_conv4_res4_elu_0_split -> conv4_res4_conv4_res4_elu_0_split_1
I0922 19:20:40.125769 29728 net.cpp:141] Setting up conv4_res4_conv4_res4_elu_0_split
I0922 19:20:40.125773 29728 net.cpp:148] Top shape: 100 512 8 8 (3276800)
I0922 19:20:40.125777 29728 net.cpp:148] Top shape: 100 512 8 8 (3276800)
I0922 19:20:40.125778 29728 net.cpp:156] Memory required for data: 2364110400
I0922 19:20:40.138180 29728 layer_factory.hpp:77] Creating layer conv4_res5_conv1
I0922 19:20:40.138206 29728 net.cpp:91] Creating Layer conv4_res5_conv1
I0922 19:20:40.138211 29728 net.cpp:425] conv4_res5_conv1 <- conv4_res4_conv4_res4_elu_0_split_0
I0922 19:20:40.138218 29728 net.cpp:399] conv4_res5_conv1 -> conv4_res5_conv1
I0922 19:20:40.139618 29728 net.cpp:141] Setting up conv4_res5_conv1
I0922 19:20:40.139629 29728 net.cpp:148] Top shape: 100 128 8 8 (819200)
I0922 19:20:40.139632 29728 net.cpp:156] Memory required for data: 2367387200
I0922 19:20:40.139637 29728 layer_factory.hpp:77] Creating layer conv4_res5_conv1_elu
I0922 19:20:40.139657 29728 net.cpp:91] Creating Layer conv4_res5_conv1_elu
I0922 19:20:40.139660 29728 net.cpp:425] conv4_res5_conv1_elu <- conv4_res5_conv1
I0922 19:20:40.139667 29728 net.cpp:386] conv4_res5_conv1_elu -> conv4_res5_conv1 (in-place)
I0922 19:20:40.139672 29728 net.cpp:141] Setting up conv4_res5_conv1_elu
I0922 19:20:40.139690 29728 net.cpp:148] Top shape: 100 128 8 8 (819200)
I0922 19:20:40.139693 29728 net.cpp:156] Memory required for data: 2370664000
I0922 19:20:40.139695 29728 layer_factory.hpp:77] Creating layer conv4_res5_conv2
I0922 19:20:40.139701 29728 net.cpp:91] Creating Layer conv4_res5_conv2
I0922 19:20:40.139704 29728 net.cpp:425] conv4_res5_conv2 <- conv4_res5_conv1
I0922 19:20:40.139708 29728 net.cpp:399] conv4_res5_conv2 -> conv4_res5_conv2
I0922 19:20:40.141842 29728 net.cpp:141] Setting up conv4_res5_conv2
I0922 19:20:40.141854 29728 net.cpp:148] Top shape: 100 128 8 8 (819200)
I0922 19:20:40.141856 29728 net.cpp:156] Memory required for data: 2373940800
I0922 19:20:40.141861 29728 layer_factory.hpp:77] Creating layer conv4_res5_conv2_elu
I0922 19:20:40.141866 29728 net.cpp:91] Creating Layer conv4_res5_conv2_elu
I0922 19:20:40.141870 29728 net.cpp:425] conv4_res5_conv2_elu <- conv4_res5_conv2
I0922 19:20:40.141873 29728 net.cpp:386] conv4_res5_conv2_elu -> conv4_res5_conv2 (in-place)
I0922 19:20:40.141880 29728 net.cpp:141] Setting up conv4_res5_conv2_elu
I0922 19:20:40.141882 29728 net.cpp:148] Top shape: 100 128 8 8 (819200)
I0922 19:20:40.141885 29728 net.cpp:156] Memory required for data: 2377217600
I0922 19:20:40.141887 29728 layer_factory.hpp:77] Creating layer conv4_res5_conv3
I0922 19:20:40.141894 29728 net.cpp:91] Creating Layer conv4_res5_conv3
I0922 19:20:40.141897 29728 net.cpp:425] conv4_res5_conv3 <- conv4_res5_conv2
I0922 19:20:40.141902 29728 net.cpp:399] conv4_res5_conv3 -> conv4_res5_conv3
I0922 19:20:40.143555 29728 net.cpp:141] Setting up conv4_res5_conv3
I0922 19:20:40.143565 29728 net.cpp:148] Top shape: 100 512 8 8 (3276800)
I0922 19:20:40.143568 29728 net.cpp:156] Memory required for data: 2390324800
I0922 19:20:40.143573 29728 layer_factory.hpp:77] Creating layer conv4_res5
I0922 19:20:40.143579 29728 net.cpp:91] Creating Layer conv4_res5
I0922 19:20:40.143584 29728 net.cpp:425] conv4_res5 <- conv4_res4_conv4_res4_elu_0_split_1
I0922 19:20:40.143587 29728 net.cpp:425] conv4_res5 <- conv4_res5_conv3
I0922 19:20:40.143591 29728 net.cpp:399] conv4_res5 -> conv4_res5
I0922 19:20:40.143618 29728 net.cpp:141] Setting up conv4_res5
I0922 19:20:40.143623 29728 net.cpp:148] Top shape: 100 512 8 8 (3276800)
I0922 19:20:40.143626 29728 net.cpp:156] Memory required for data: 2403432000
I0922 19:20:40.143628 29728 layer_factory.hpp:77] Creating layer conv4_res5_elu
I0922 19:20:40.143632 29728 net.cpp:91] Creating Layer conv4_res5_elu
I0922 19:20:40.143635 29728 net.cpp:425] conv4_res5_elu <- conv4_res5
I0922 19:20:40.143640 29728 net.cpp:386] conv4_res5_elu -> conv4_res5 (in-place)
I0922 19:20:40.143658 29728 net.cpp:141] Setting up conv4_res5_elu
I0922 19:20:40.143662 29728 net.cpp:148] Top shape: 100 512 8 8 (3276800)
I0922 19:20:40.143664 29728 net.cpp:156] Memory required for data: 2416539200
I0922 19:20:40.143667 29728 layer_factory.hpp:77] Creating layer conv4_res5_conv4_res5_elu_0_split
I0922 19:20:40.143671 29728 net.cpp:91] Creating Layer conv4_res5_conv4_res5_elu_0_split
I0922 19:20:40.143673 29728 net.cpp:425] conv4_res5_conv4_res5_elu_0_split <- conv4_res5
I0922 19:20:40.143676 29728 net.cpp:399] conv4_res5_conv4_res5_elu_0_split -> conv4_res5_conv4_res5_elu_0_split_0
I0922 19:20:40.143682 29728 net.cpp:399] conv4_res5_conv4_res5_elu_0_split -> conv4_res5_conv4_res5_elu_0_split_1
I0922 19:20:40.143725 29728 net.cpp:141] Setting up conv4_res5_conv4_res5_elu_0_split
I0922 19:20:40.143729 29728 net.cpp:148] Top shape: 100 512 8 8 (3276800)
I0922 19:20:40.143733 29728 net.cpp:148] Top shape: 100 512 8 8 (3276800)
I0922 19:20:40.143735 29728 net.cpp:156] Memory required for data: 2442753600
I0922 19:20:40.143738 29728 layer_factory.hpp:77] Creating layer conv4_res6_conv1
I0922 19:20:40.143744 29728 net.cpp:91] Creating Layer conv4_res6_conv1
I0922 19:20:40.143748 29728 net.cpp:425] conv4_res6_conv1 <- conv4_res5_conv4_res5_elu_0_split_0
I0922 19:20:40.143753 29728 net.cpp:399] conv4_res6_conv1 -> conv4_res6_conv1
I0922 19:20:40.145282 29728 net.cpp:141] Setting up conv4_res6_conv1
I0922 19:20:40.145289 29728 net.cpp:148] Top shape: 100 128 8 8 (819200)
I0922 19:20:40.145292 29728 net.cpp:156] Memory required for data: 2446030400
I0922 19:20:40.145298 29728 layer_factory.hpp:77] Creating layer conv4_res6_conv1_elu
I0922 19:20:40.145303 29728 net.cpp:91] Creating Layer conv4_res6_conv1_elu
I0922 19:20:40.145306 29728 net.cpp:425] conv4_res6_conv1_elu <- conv4_res6_conv1
I0922 19:20:40.145310 29728 net.cpp:386] conv4_res6_conv1_elu -> conv4_res6_conv1 (in-place)
I0922 19:20:40.145315 29728 net.cpp:141] Setting up conv4_res6_conv1_elu
I0922 19:20:40.145318 29728 net.cpp:148] Top shape: 100 128 8 8 (819200)
I0922 19:20:40.145320 29728 net.cpp:156] Memory required for data: 2449307200
I0922 19:20:40.145323 29728 layer_factory.hpp:77] Creating layer conv4_res6_conv2
I0922 19:20:40.145329 29728 net.cpp:91] Creating Layer conv4_res6_conv2
I0922 19:20:40.145333 29728 net.cpp:425] conv4_res6_conv2 <- conv4_res6_conv1
I0922 19:20:40.145336 29728 net.cpp:399] conv4_res6_conv2 -> conv4_res6_conv2
I0922 19:20:40.147186 29728 net.cpp:141] Setting up conv4_res6_conv2
I0922 19:20:40.147194 29728 net.cpp:148] Top shape: 100 128 8 8 (819200)
I0922 19:20:40.147197 29728 net.cpp:156] Memory required for data: 2452584000
I0922 19:20:40.147202 29728 layer_factory.hpp:77] Creating layer conv4_res6_conv2_elu
I0922 19:20:40.147207 29728 net.cpp:91] Creating Layer conv4_res6_conv2_elu
I0922 19:20:40.147210 29728 net.cpp:425] conv4_res6_conv2_elu <- conv4_res6_conv2
I0922 19:20:40.147214 29728 net.cpp:386] conv4_res6_conv2_elu -> conv4_res6_conv2 (in-place)
I0922 19:20:40.147219 29728 net.cpp:141] Setting up conv4_res6_conv2_elu
I0922 19:20:40.147223 29728 net.cpp:148] Top shape: 100 128 8 8 (819200)
I0922 19:20:40.147225 29728 net.cpp:156] Memory required for data: 2455860800
I0922 19:20:40.147228 29728 layer_factory.hpp:77] Creating layer conv4_res6_conv3
I0922 19:20:40.147234 29728 net.cpp:91] Creating Layer conv4_res6_conv3
I0922 19:20:40.147238 29728 net.cpp:425] conv4_res6_conv3 <- conv4_res6_conv2
I0922 19:20:40.147243 29728 net.cpp:399] conv4_res6_conv3 -> conv4_res6_conv3
I0922 19:20:40.148298 29728 net.cpp:141] Setting up conv4_res6_conv3
I0922 19:20:40.148308 29728 net.cpp:148] Top shape: 100 512 8 8 (3276800)
I0922 19:20:40.148309 29728 net.cpp:156] Memory required for data: 2468968000
I0922 19:20:40.148314 29728 layer_factory.hpp:77] Creating layer conv4_res6
I0922 19:20:40.148320 29728 net.cpp:91] Creating Layer conv4_res6
I0922 19:20:40.148324 29728 net.cpp:425] conv4_res6 <- conv4_res5_conv4_res5_elu_0_split_1
I0922 19:20:40.148327 29728 net.cpp:425] conv4_res6 <- conv4_res6_conv3
I0922 19:20:40.148340 29728 net.cpp:425] conv4_res6 <- conv2_conv4_proj
I0922 19:20:40.148344 29728 net.cpp:425] conv4_res6 <- conv3_conv4_proj
I0922 19:20:40.148349 29728 net.cpp:399] conv4_res6 -> conv4_res6
I0922 19:20:40.148367 29728 net.cpp:141] Setting up conv4_res6
I0922 19:20:40.148371 29728 net.cpp:148] Top shape: 100 512 8 8 (3276800)
I0922 19:20:40.167336 29728 net.cpp:156] Memory required for data: 2482075200
I0922 19:20:40.167346 29728 layer_factory.hpp:77] Creating layer pool4
I0922 19:20:40.167352 29728 net.cpp:91] Creating Layer pool4
I0922 19:20:40.167356 29728 net.cpp:425] pool4 <- conv4_res6
I0922 19:20:40.167363 29728 net.cpp:399] pool4 -> pool4
I0922 19:20:40.167403 29728 net.cpp:141] Setting up pool4
I0922 19:20:40.167409 29728 net.cpp:148] Top shape: 100 512 4 4 (819200)
I0922 19:20:40.167412 29728 net.cpp:156] Memory required for data: 2485352000
I0922 19:20:40.167413 29728 layer_factory.hpp:77] Creating layer pool4_elu
I0922 19:20:40.167418 29728 net.cpp:91] Creating Layer pool4_elu
I0922 19:20:40.167421 29728 net.cpp:425] pool4_elu <- pool4
I0922 19:20:40.167424 29728 net.cpp:386] pool4_elu -> pool4 (in-place)
I0922 19:20:40.167429 29728 net.cpp:141] Setting up pool4_elu
I0922 19:20:40.167433 29728 net.cpp:148] Top shape: 100 512 4 4 (819200)
I0922 19:20:40.167434 29728 net.cpp:156] Memory required for data: 2488628800
I0922 19:20:40.167438 29728 layer_factory.hpp:77] Creating layer pool4_pool4_elu_0_split
I0922 19:20:40.167443 29728 net.cpp:91] Creating Layer pool4_pool4_elu_0_split
I0922 19:20:40.167444 29728 net.cpp:425] pool4_pool4_elu_0_split <- pool4
I0922 19:20:40.167448 29728 net.cpp:399] pool4_pool4_elu_0_split -> pool4_pool4_elu_0_split_0
I0922 19:20:40.167453 29728 net.cpp:399] pool4_pool4_elu_0_split -> pool4_pool4_elu_0_split_1
I0922 19:20:40.167456 29728 net.cpp:399] pool4_pool4_elu_0_split -> pool4_pool4_elu_0_split_2
I0922 19:20:40.167490 29728 net.cpp:141] Setting up pool4_pool4_elu_0_split
I0922 19:20:40.167493 29728 net.cpp:148] Top shape: 100 512 4 4 (819200)
I0922 19:20:40.167496 29728 net.cpp:148] Top shape: 100 512 4 4 (819200)
I0922 19:20:40.167500 29728 net.cpp:148] Top shape: 100 512 4 4 (819200)
I0922 19:20:40.167501 29728 net.cpp:156] Memory required for data: 2498459200
I0922 19:20:40.167505 29728 layer_factory.hpp:77] Creating layer conv4_conv5_proj
I0922 19:20:40.167521 29728 net.cpp:91] Creating Layer conv4_conv5_proj
I0922 19:20:40.167524 29728 net.cpp:425] conv4_conv5_proj <- pool4_pool4_elu_0_split_0
I0922 19:20:40.167529 29728 net.cpp:399] conv4_conv5_proj -> conv4_conv5_proj
I0922 19:20:40.171600 29728 net.cpp:141] Setting up conv4_conv5_proj
I0922 19:20:40.171618 29728 net.cpp:148] Top shape: 100 1024 4 4 (1638400)
I0922 19:20:40.171622 29728 net.cpp:156] Memory required for data: 2505012800
I0922 19:20:40.171627 29728 layer_factory.hpp:77] Creating layer conv5_res1_proj
I0922 19:20:40.171638 29728 net.cpp:91] Creating Layer conv5_res1_proj
I0922 19:20:40.171643 29728 net.cpp:425] conv5_res1_proj <- pool4_pool4_elu_0_split_1
I0922 19:20:40.171648 29728 net.cpp:399] conv5_res1_proj -> conv5_res1_proj
I0922 19:20:40.175240 29728 net.cpp:141] Setting up conv5_res1_proj
I0922 19:20:40.175251 29728 net.cpp:148] Top shape: 100 1024 4 4 (1638400)
I0922 19:20:40.175253 29728 net.cpp:156] Memory required for data: 2511566400
I0922 19:20:40.175259 29728 layer_factory.hpp:77] Creating layer conv5_res1_conv1
I0922 19:20:40.175266 29728 net.cpp:91] Creating Layer conv5_res1_conv1
I0922 19:20:40.175269 29728 net.cpp:425] conv5_res1_conv1 <- pool4_pool4_elu_0_split_2
I0922 19:20:40.175276 29728 net.cpp:399] conv5_res1_conv1 -> conv5_res1_conv1
I0922 19:20:40.177042 29728 net.cpp:141] Setting up conv5_res1_conv1
I0922 19:20:40.177050 29728 net.cpp:148] Top shape: 100 256 4 4 (409600)
I0922 19:20:40.177053 29728 net.cpp:156] Memory required for data: 2513204800
I0922 19:20:40.177058 29728 layer_factory.hpp:77] Creating layer conv5_res1_conv1_elu
I0922 19:20:40.177064 29728 net.cpp:91] Creating Layer conv5_res1_conv1_elu
I0922 19:20:40.177068 29728 net.cpp:425] conv5_res1_conv1_elu <- conv5_res1_conv1
I0922 19:20:40.177086 29728 net.cpp:386] conv5_res1_conv1_elu -> conv5_res1_conv1 (in-place)
I0922 19:20:40.177093 29728 net.cpp:141] Setting up conv5_res1_conv1_elu
I0922 19:20:40.177095 29728 net.cpp:148] Top shape: 100 256 4 4 (409600)
I0922 19:20:40.177098 29728 net.cpp:156] Memory required for data: 2514843200
I0922 19:20:40.177100 29728 layer_factory.hpp:77] Creating layer conv5_res1_conv2
I0922 19:20:40.177108 29728 net.cpp:91] Creating Layer conv5_res1_conv2
I0922 19:20:40.177110 29728 net.cpp:425] conv5_res1_conv2 <- conv5_res1_conv1
I0922 19:20:40.177114 29728 net.cpp:399] conv5_res1_conv2 -> conv5_res1_conv2
I0922 19:20:40.181213 29728 net.cpp:141] Setting up conv5_res1_conv2
I0922 19:20:40.181226 29728 net.cpp:148] Top shape: 100 256 4 4 (409600)
I0922 19:20:40.181228 29728 net.cpp:156] Memory required for data: 2516481600
I0922 19:20:40.181234 29728 layer_factory.hpp:77] Creating layer conv5_res1_conv2_elu
I0922 19:20:40.181239 29728 net.cpp:91] Creating Layer conv5_res1_conv2_elu
I0922 19:20:40.181243 29728 net.cpp:425] conv5_res1_conv2_elu <- conv5_res1_conv2
I0922 19:20:40.181248 29728 net.cpp:386] conv5_res1_conv2_elu -> conv5_res1_conv2 (in-place)
I0922 19:20:40.181253 29728 net.cpp:141] Setting up conv5_res1_conv2_elu
I0922 19:20:40.181257 29728 net.cpp:148] Top shape: 100 256 4 4 (409600)
I0922 19:20:40.181259 29728 net.cpp:156] Memory required for data: 2518120000
I0922 19:20:40.181262 29728 layer_factory.hpp:77] Creating layer conv5_res1_conv3
I0922 19:20:40.181267 29728 net.cpp:91] Creating Layer conv5_res1_conv3
I0922 19:20:40.181270 29728 net.cpp:425] conv5_res1_conv3 <- conv5_res1_conv2
I0922 19:20:40.181275 29728 net.cpp:399] conv5_res1_conv3 -> conv5_res1_conv3
I0922 19:20:40.183447 29728 net.cpp:141] Setting up conv5_res1_conv3
I0922 19:20:40.183456 29728 net.cpp:148] Top shape: 100 1024 4 4 (1638400)
I0922 19:20:40.183459 29728 net.cpp:156] Memory required for data: 2524673600
I0922 19:20:40.183464 29728 layer_factory.hpp:77] Creating layer conv5_res1
I0922 19:20:40.183470 29728 net.cpp:91] Creating Layer conv5_res1
I0922 19:20:40.183472 29728 net.cpp:425] conv5_res1 <- conv5_res1_proj
I0922 19:20:40.183475 29728 net.cpp:425] conv5_res1 <- conv5_res1_conv3
I0922 19:20:40.183480 29728 net.cpp:399] conv5_res1 -> conv5_res1
I0922 19:20:40.183495 29728 net.cpp:141] Setting up conv5_res1
I0922 19:20:40.183500 29728 net.cpp:148] Top shape: 100 1024 4 4 (1638400)
I0922 19:20:40.183501 29728 net.cpp:156] Memory required for data: 2531227200
I0922 19:20:40.183503 29728 layer_factory.hpp:77] Creating layer conv5_res1_elu
I0922 19:20:40.183508 29728 net.cpp:91] Creating Layer conv5_res1_elu
I0922 19:20:40.183511 29728 net.cpp:425] conv5_res1_elu <- conv5_res1
I0922 19:20:40.183514 29728 net.cpp:386] conv5_res1_elu -> conv5_res1 (in-place)
I0922 19:20:40.183519 29728 net.cpp:141] Setting up conv5_res1_elu
I0922 19:20:40.183522 29728 net.cpp:148] Top shape: 100 1024 4 4 (1638400)
I0922 19:20:40.183524 29728 net.cpp:156] Memory required for data: 2537780800
I0922 19:20:40.183526 29728 layer_factory.hpp:77] Creating layer conv5_res1_conv5_res1_elu_0_split
I0922 19:20:40.183531 29728 net.cpp:91] Creating Layer conv5_res1_conv5_res1_elu_0_split
I0922 19:20:40.183532 29728 net.cpp:425] conv5_res1_conv5_res1_elu_0_split <- conv5_res1
I0922 19:20:40.183535 29728 net.cpp:399] conv5_res1_conv5_res1_elu_0_split -> conv5_res1_conv5_res1_elu_0_split_0
I0922 19:20:40.183539 29728 net.cpp:399] conv5_res1_conv5_res1_elu_0_split -> conv5_res1_conv5_res1_elu_0_split_1
I0922 19:20:40.183565 29728 net.cpp:141] Setting up conv5_res1_conv5_res1_elu_0_split
I0922 19:20:40.183569 29728 net.cpp:148] Top shape: 100 1024 4 4 (1638400)
I0922 19:20:40.183573 29728 net.cpp:148] Top shape: 100 1024 4 4 (1638400)
I0922 19:20:40.183574 29728 net.cpp:156] Memory required for data: 2550888000
I0922 19:20:40.183576 29728 layer_factory.hpp:77] Creating layer conv5_res2_conv1
I0922 19:20:40.183583 29728 net.cpp:91] Creating Layer conv5_res2_conv1
I0922 19:20:40.183585 29728 net.cpp:425] conv5_res2_conv1 <- conv5_res1_conv5_res1_elu_0_split_0
I0922 19:20:40.183599 29728 net.cpp:399] conv5_res2_conv1 -> conv5_res2_conv1
I0922 19:20:40.185937 29728 net.cpp:141] Setting up conv5_res2_conv1
I0922 19:20:40.185947 29728 net.cpp:148] Top shape: 100 256 4 4 (409600)
I0922 19:20:40.185950 29728 net.cpp:156] Memory required for data: 2552526400
I0922 19:20:40.185956 29728 layer_factory.hpp:77] Creating layer conv5_res2_conv1_elu
I0922 19:20:40.185961 29728 net.cpp:91] Creating Layer conv5_res2_conv1_elu
I0922 19:20:40.185963 29728 net.cpp:425] conv5_res2_conv1_elu <- conv5_res2_conv1
I0922 19:20:40.185968 29728 net.cpp:386] conv5_res2_conv1_elu -> conv5_res2_conv1 (in-place)
I0922 19:20:40.185973 29728 net.cpp:141] Setting up conv5_res2_conv1_elu
I0922 19:20:40.185976 29728 net.cpp:148] Top shape: 100 256 4 4 (409600)
I0922 19:20:40.185979 29728 net.cpp:156] Memory required for data: 2554164800
I0922 19:20:40.185981 29728 layer_factory.hpp:77] Creating layer conv5_res2_conv2
I0922 19:20:40.185987 29728 net.cpp:91] Creating Layer conv5_res2_conv2
I0922 19:20:40.185991 29728 net.cpp:425] conv5_res2_conv2 <- conv5_res2_conv1
I0922 19:20:40.185994 29728 net.cpp:399] conv5_res2_conv2 -> conv5_res2_conv2
I0922 19:20:40.189970 29728 net.cpp:141] Setting up conv5_res2_conv2
I0922 19:20:40.189980 29728 net.cpp:148] Top shape: 100 256 4 4 (409600)
I0922 19:20:40.189983 29728 net.cpp:156] Memory required for data: 2555803200
I0922 19:20:40.189988 29728 layer_factory.hpp:77] Creating layer conv5_res2_conv2_elu
I0922 19:20:40.189992 29728 net.cpp:91] Creating Layer conv5_res2_conv2_elu
I0922 19:20:40.189996 29728 net.cpp:425] conv5_res2_conv2_elu <- conv5_res2_conv2
I0922 19:20:40.190001 29728 net.cpp:386] conv5_res2_conv2_elu -> conv5_res2_conv2 (in-place)
I0922 19:20:40.190006 29728 net.cpp:141] Setting up conv5_res2_conv2_elu
I0922 19:20:40.190009 29728 net.cpp:148] Top shape: 100 256 4 4 (409600)
I0922 19:20:40.190011 29728 net.cpp:156] Memory required for data: 2557441600
I0922 19:20:40.190013 29728 layer_factory.hpp:77] Creating layer conv5_res2_conv3
I0922 19:20:40.190019 29728 net.cpp:91] Creating Layer conv5_res2_conv3
I0922 19:20:40.190022 29728 net.cpp:425] conv5_res2_conv3 <- conv5_res2_conv2
I0922 19:20:40.190026 29728 net.cpp:399] conv5_res2_conv3 -> conv5_res2_conv3
I0922 19:20:40.194020 29728 net.cpp:141] Setting up conv5_res2_conv3
I0922 19:20:40.194033 29728 net.cpp:148] Top shape: 100 256 4 4 (409600)
I0922 19:20:40.194036 29728 net.cpp:156] Memory required for data: 2559080000
I0922 19:20:40.194041 29728 layer_factory.hpp:77] Creating layer conv5_res2_conv3_elu
I0922 19:20:40.194046 29728 net.cpp:91] Creating Layer conv5_res2_conv3_elu
I0922 19:20:40.194051 29728 net.cpp:425] conv5_res2_conv3_elu <- conv5_res2_conv3
I0922 19:20:40.194056 29728 net.cpp:386] conv5_res2_conv3_elu -> conv5_res2_conv3 (in-place)
I0922 19:20:40.194061 29728 net.cpp:141] Setting up conv5_res2_conv3_elu
I0922 19:20:40.194064 29728 net.cpp:148] Top shape: 100 256 4 4 (409600)
I0922 19:20:40.194067 29728 net.cpp:156] Memory required for data: 2560718400
I0922 19:20:40.194069 29728 layer_factory.hpp:77] Creating layer conv5_res2_conv4
I0922 19:20:40.194075 29728 net.cpp:91] Creating Layer conv5_res2_conv4
I0922 19:20:40.194078 29728 net.cpp:425] conv5_res2_conv4 <- conv5_res2_conv3
I0922 19:20:40.194082 29728 net.cpp:399] conv5_res2_conv4 -> conv5_res2_conv4
I0922 19:20:40.196550 29728 net.cpp:141] Setting up conv5_res2_conv4
I0922 19:20:40.196560 29728 net.cpp:148] Top shape: 100 1024 4 4 (1638400)
I0922 19:20:40.196563 29728 net.cpp:156] Memory required for data: 2567272000
I0922 19:20:40.196568 29728 layer_factory.hpp:77] Creating layer conv5_res2
I0922 19:20:40.196574 29728 net.cpp:91] Creating Layer conv5_res2
I0922 19:20:40.196578 29728 net.cpp:425] conv5_res2 <- conv5_res1_conv5_res1_elu_0_split_1
I0922 19:20:40.196583 29728 net.cpp:425] conv5_res2 <- conv5_res2_conv4
I0922 19:20:40.196585 29728 net.cpp:399] conv5_res2 -> conv5_res2
I0922 19:20:40.196606 29728 net.cpp:141] Setting up conv5_res2
I0922 19:20:40.196610 29728 net.cpp:148] Top shape: 100 1024 4 4 (1638400)
I0922 19:20:40.196625 29728 net.cpp:156] Memory required for data: 2573825600
I0922 19:20:40.196627 29728 layer_factory.hpp:77] Creating layer conv5_res2_elu
I0922 19:20:40.196631 29728 net.cpp:91] Creating Layer conv5_res2_elu
I0922 19:20:40.196635 29728 net.cpp:425] conv5_res2_elu <- conv5_res2
I0922 19:20:40.196640 29728 net.cpp:386] conv5_res2_elu -> conv5_res2 (in-place)
I0922 19:20:40.196643 29728 net.cpp:141] Setting up conv5_res2_elu
I0922 19:20:40.196646 29728 net.cpp:148] Top shape: 100 1024 4 4 (1638400)
I0922 19:20:40.196650 29728 net.cpp:156] Memory required for data: 2580379200
I0922 19:20:40.196651 29728 layer_factory.hpp:77] Creating layer conv5_res2_conv5_res2_elu_0_split
I0922 19:20:40.196655 29728 net.cpp:91] Creating Layer conv5_res2_conv5_res2_elu_0_split
I0922 19:20:40.196657 29728 net.cpp:425] conv5_res2_conv5_res2_elu_0_split <- conv5_res2
I0922 19:20:40.196662 29728 net.cpp:399] conv5_res2_conv5_res2_elu_0_split -> conv5_res2_conv5_res2_elu_0_split_0
I0922 19:20:40.196671 29728 net.cpp:399] conv5_res2_conv5_res2_elu_0_split -> conv5_res2_conv5_res2_elu_0_split_1
I0922 19:20:40.196697 29728 net.cpp:141] Setting up conv5_res2_conv5_res2_elu_0_split
I0922 19:20:40.196702 29728 net.cpp:148] Top shape: 100 1024 4 4 (1638400)
I0922 19:20:40.196704 29728 net.cpp:148] Top shape: 100 1024 4 4 (1638400)
I0922 19:20:40.196707 29728 net.cpp:156] Memory required for data: 2593486400
I0922 19:20:40.196709 29728 layer_factory.hpp:77] Creating layer conv5_res3_conv1
I0922 19:20:40.196715 29728 net.cpp:91] Creating Layer conv5_res3_conv1
I0922 19:20:40.196718 29728 net.cpp:425] conv5_res3_conv1 <- conv5_res2_conv5_res2_elu_0_split_0
I0922 19:20:40.196723 29728 net.cpp:399] conv5_res3_conv1 -> conv5_res3_conv1
I0922 19:20:40.198902 29728 net.cpp:141] Setting up conv5_res3_conv1
I0922 19:20:40.198911 29728 net.cpp:148] Top shape: 100 256 4 4 (409600)
I0922 19:20:40.198928 29728 net.cpp:156] Memory required for data: 2595124800
I0922 19:20:40.198933 29728 layer_factory.hpp:77] Creating layer conv5_res3_conv1_elu
I0922 19:20:40.198953 29728 net.cpp:91] Creating Layer conv5_res3_conv1_elu
I0922 19:20:40.198957 29728 net.cpp:425] conv5_res3_conv1_elu <- conv5_res3_conv1
I0922 19:20:40.198961 29728 net.cpp:386] conv5_res3_conv1_elu -> conv5_res3_conv1 (in-place)
I0922 19:20:40.198966 29728 net.cpp:141] Setting up conv5_res3_conv1_elu
I0922 19:20:40.198969 29728 net.cpp:148] Top shape: 100 256 4 4 (409600)
I0922 19:20:40.198972 29728 net.cpp:156] Memory required for data: 2596763200
I0922 19:20:40.198974 29728 layer_factory.hpp:77] Creating layer conv5_res3_conv2
I0922 19:20:40.198982 29728 net.cpp:91] Creating Layer conv5_res3_conv2
I0922 19:20:40.198983 29728 net.cpp:425] conv5_res3_conv2 <- conv5_res3_conv1
I0922 19:20:40.198988 29728 net.cpp:399] conv5_res3_conv2 -> conv5_res3_conv2
I0922 19:20:40.203708 29728 net.cpp:141] Setting up conv5_res3_conv2
I0922 19:20:40.203724 29728 net.cpp:148] Top shape: 100 256 4 4 (409600)
I0922 19:20:40.203727 29728 net.cpp:156] Memory required for data: 2598401600
I0922 19:20:40.203735 29728 layer_factory.hpp:77] Creating layer conv5_res3_conv2_elu
I0922 19:20:40.203742 29728 net.cpp:91] Creating Layer conv5_res3_conv2_elu
I0922 19:20:40.203747 29728 net.cpp:425] conv5_res3_conv2_elu <- conv5_res3_conv2
I0922 19:20:40.203750 29728 net.cpp:386] conv5_res3_conv2_elu -> conv5_res3_conv2 (in-place)
I0922 19:20:40.203757 29728 net.cpp:141] Setting up conv5_res3_conv2_elu
I0922 19:20:40.203759 29728 net.cpp:148] Top shape: 100 256 4 4 (409600)
I0922 19:20:40.203761 29728 net.cpp:156] Memory required for data: 2600040000
I0922 19:20:40.203763 29728 layer_factory.hpp:77] Creating layer conv5_res3_conv3
I0922 19:20:40.203771 29728 net.cpp:91] Creating Layer conv5_res3_conv3
I0922 19:20:40.203774 29728 net.cpp:425] conv5_res3_conv3 <- conv5_res3_conv2
I0922 19:20:40.203779 29728 net.cpp:399] conv5_res3_conv3 -> conv5_res3_conv3
I0922 19:20:40.207741 29728 net.cpp:141] Setting up conv5_res3_conv3
I0922 19:20:40.207751 29728 net.cpp:148] Top shape: 100 256 4 4 (409600)
I0922 19:20:40.207765 29728 net.cpp:156] Memory required for data: 2601678400
I0922 19:20:40.207772 29728 layer_factory.hpp:77] Creating layer conv5_res3_conv3_elu
I0922 19:20:40.207777 29728 net.cpp:91] Creating Layer conv5_res3_conv3_elu
I0922 19:20:40.207780 29728 net.cpp:425] conv5_res3_conv3_elu <- conv5_res3_conv3
I0922 19:20:40.207784 29728 net.cpp:386] conv5_res3_conv3_elu -> conv5_res3_conv3 (in-place)
I0922 19:20:40.207789 29728 net.cpp:141] Setting up conv5_res3_conv3_elu
I0922 19:20:40.207793 29728 net.cpp:148] Top shape: 100 256 4 4 (409600)
I0922 19:20:40.207795 29728 net.cpp:156] Memory required for data: 2603316800
I0922 19:20:40.207798 29728 layer_factory.hpp:77] Creating layer conv5_res3_conv4
I0922 19:20:40.207804 29728 net.cpp:91] Creating Layer conv5_res3_conv4
I0922 19:20:40.207806 29728 net.cpp:425] conv5_res3_conv4 <- conv5_res3_conv3
I0922 19:20:40.207811 29728 net.cpp:399] conv5_res3_conv4 -> conv5_res3_conv4
I0922 19:20:40.210271 29728 net.cpp:141] Setting up conv5_res3_conv4
I0922 19:20:40.210283 29728 net.cpp:148] Top shape: 100 1024 4 4 (1638400)
I0922 19:20:40.210286 29728 net.cpp:156] Memory required for data: 2609870400
I0922 19:20:40.210291 29728 layer_factory.hpp:77] Creating layer conv5_res3
I0922 19:20:40.210297 29728 net.cpp:91] Creating Layer conv5_res3
I0922 19:20:40.210300 29728 net.cpp:425] conv5_res3 <- conv5_res2_conv5_res2_elu_0_split_1
I0922 19:20:40.210304 29728 net.cpp:425] conv5_res3 <- conv5_res3_conv4
I0922 19:20:40.210309 29728 net.cpp:425] conv5_res3 <- conv2_conv5_proj
I0922 19:20:40.210311 29728 net.cpp:425] conv5_res3 <- conv3_conv5_proj
I0922 19:20:40.210314 29728 net.cpp:425] conv5_res3 <- conv4_conv5_proj
I0922 19:20:40.210319 29728 net.cpp:399] conv5_res3 -> conv5_res3
I0922 19:20:40.210338 29728 net.cpp:141] Setting up conv5_res3
I0922 19:20:40.210342 29728 net.cpp:148] Top shape: 100 1024 4 4 (1638400)
I0922 19:20:40.210345 29728 net.cpp:156] Memory required for data: 2616424000
I0922 19:20:40.210347 29728 layer_factory.hpp:77] Creating layer conv5_res3_elu
I0922 19:20:40.210352 29728 net.cpp:91] Creating Layer conv5_res3_elu
I0922 19:20:40.210355 29728 net.cpp:425] conv5_res3_elu <- conv5_res3
I0922 19:20:40.210358 29728 net.cpp:386] conv5_res3_elu -> conv5_res3 (in-place)
I0922 19:20:40.210362 29728 net.cpp:141] Setting up conv5_res3_elu
I0922 19:20:40.210366 29728 net.cpp:148] Top shape: 100 1024 4 4 (1638400)
I0922 19:20:40.210368 29728 net.cpp:156] Memory required for data: 2622977600
I0922 19:20:40.210371 29728 layer_factory.hpp:77] Creating layer pool5
I0922 19:20:40.210374 29728 net.cpp:91] Creating Layer pool5
I0922 19:20:40.210376 29728 net.cpp:425] pool5 <- conv5_res3
I0922 19:20:40.210381 29728 net.cpp:399] pool5 -> pool5
I0922 19:20:40.210543 29728 net.cpp:141] Setting up pool5
I0922 19:20:40.210549 29728 net.cpp:148] Top shape: 100 1024 1 1 (102400)
I0922 19:20:40.210551 29728 net.cpp:156] Memory required for data: 2623387200
I0922 19:20:40.210554 29728 layer_factory.hpp:77] Creating layer pool5_drop1
I0922 19:20:40.210558 29728 net.cpp:91] Creating Layer pool5_drop1
I0922 19:20:40.210561 29728 net.cpp:425] pool5_drop1 <- pool5
I0922 19:20:40.210566 29728 net.cpp:399] pool5_drop1 -> pool5_drop1
I0922 19:20:40.210592 29728 net.cpp:141] Setting up pool5_drop1
I0922 19:20:40.210595 29728 net.cpp:148] Top shape: 100 1024 1 1 (102400)
I0922 19:20:40.210597 29728 net.cpp:156] Memory required for data: 2623796800
I0922 19:20:40.210600 29728 layer_factory.hpp:77] Creating layer fc
I0922 19:20:40.210604 29728 net.cpp:91] Creating Layer fc
I0922 19:20:40.210608 29728 net.cpp:425] fc <- pool5_drop1
I0922 19:20:40.210611 29728 net.cpp:399] fc -> fc
I0922 19:20:40.231797 29728 net.cpp:141] Setting up fc
I0922 19:20:40.231815 29728 net.cpp:148] Top shape: 100 1000 (100000)
I0922 19:20:40.231818 29728 net.cpp:156] Memory required for data: 2624196800
I0922 19:20:40.231824 29728 layer_factory.hpp:77] Creating layer fc_fc_0_split
I0922 19:20:40.231832 29728 net.cpp:91] Creating Layer fc_fc_0_split
I0922 19:20:40.231834 29728 net.cpp:425] fc_fc_0_split <- fc
I0922 19:20:40.231858 29728 net.cpp:399] fc_fc_0_split -> fc_fc_0_split_0
I0922 19:20:40.231863 29728 net.cpp:399] fc_fc_0_split -> fc_fc_0_split_1
I0922 19:20:40.231868 29728 net.cpp:399] fc_fc_0_split -> fc_fc_0_split_2
I0922 19:20:40.231909 29728 net.cpp:141] Setting up fc_fc_0_split
I0922 19:20:40.231912 29728 net.cpp:148] Top shape: 100 1000 (100000)
I0922 19:20:40.231915 29728 net.cpp:148] Top shape: 100 1000 (100000)
I0922 19:20:40.231919 29728 net.cpp:148] Top shape: 100 1000 (100000)
I0922 19:20:40.231920 29728 net.cpp:156] Memory required for data: 2625396800
I0922 19:20:40.231922 29728 layer_factory.hpp:77] Creating layer loss
I0922 19:20:40.231926 29728 net.cpp:91] Creating Layer loss
I0922 19:20:40.231930 29728 net.cpp:425] loss <- fc_fc_0_split_0
I0922 19:20:40.231932 29728 net.cpp:425] loss <- label_data_1_split_0
I0922 19:20:40.231936 29728 net.cpp:399] loss -> loss
…
