…
    data_param {
      source: "/media/dereyly/data_one/data/CAFFE_DATA/imagenet_train_150"
      batch_size: 256
      backend: LMDB
    }
  }
  layer {
    name: "data"
    type: "Data"
    top: "data"
    top: "label"
    include {
      phase: TEST
    }
    transform_param {
      scale: 0.04
      mirror: false
      crop_size: 128
      mean_value: 104
      mean_value: 117
      mean_value: 123
    }
    data_param {
      source: "/media/dereyly/data_one/data/CAFFE_DATA/imagenet_val_144_2"
      batch_size: 100
      backend: LMDB
    }
  }
  layer {
    name: "conv1"
    type: "Convolution"
    bottom: "data"
    top: "conv1"
    param {
      lr_mult: 1
      decay_mult: 1
    }
    convolution_param {
      num_output: 64
      pad: 0
      kernel_size: 7
      stride: 2
      weight_filler {
        type: "xavier"
      }
    }
  }
  layer {
    name: "conv1_relu"
    type: "ReLU"
    bottom: "conv1"
    top: "conv1"
  }
  layer {
    name: "pool1"
    type: "Pooling"
    bottom: "conv1"
    top: "pool1"
    pooling_param {
      pool: MAX
      kernel_size: 3
      stride: 2
      pad: 1
    }
  }
  layer {
    name: "pool1_elu"
    type: "ELU"
    bottom: "pool1"
    top: "pool1"
    elu_param {
      alpha: 1
    }
  }
  layer {
    name: "conv1_conv2_proj"
    type: "Convolution"
    bottom: "pool1"
    top: "conv1_conv2_proj"
    param {
      lr_mult: 1
      decay_mult: 1
    }
    convolution_param {
      num_output: 128
      pad: 0
      kernel_size: 1
      stride: 1
      weight_filler {
        type: "xavier"
      }
    }
  }
  layer {
    name: "conv1_conv3_proj"
    type: "Convolution"
    bottom: "pool1"
    top: "conv1_conv3_proj"
    param {
      lr_mult: 1
      decay_mult: 1
    }
    convolution_param {
      num_output: 256
      pad: 0
      kernel_size: 1
      stride: 2
      weight_filler {
        type: "xavier"
      }
    }
  }
  layer {
    name: "conv2_res1_proj"
    type: "Convolution"
    bottom: "pool1"
    top: "conv2_res1_proj"
    param {
      lr_mult: 1
      decay_mult: 1
    }
    convolution_param {
      num_output: 128
      pad: 0
      kernel_size: 1
      stride: 1
      weight_filler {
        type: "xavier"
      }
    }
  }
  layer {
    name: "conv2_res1_conv1"
    type: "Convolution"
    bottom: "pool1"
    top: "conv2_res1_conv1"
    param {
      lr_mult: 1
      decay_mult: 1
    }
    convolution_param {
      num_output: 32
      pad: 0
      kernel_size: 1
      stride: 1
      weight_filler {
        type: "xavier"
      }
    }
  }
  layer {
    name: "conv2_res1_conv1_elu"
    type: "ELU"
    bottom: "conv2_res1_conv1"
    top: "conv2_res1_conv1"
    elu_param {
      alpha: 1
    }
  }
  layer {
    name: "conv2_res1_conv2"
    type: "Convolution"
    bottom: "conv2_res1_conv1"
    top: "conv2_res1_conv2"
    param {
      lr_mult: 1
      decay_mult: 1
    }
    convolution_param {
      num_output: 32
      pad: 1
      kernel_size: 3
      stride: 1
      weight_filler {
        type: "xavier"
      }
    }
  }
  layer {
    name: "conv2_res1_conv2_elu"
    type: "ELU"
    bottom: "conv2_res1_conv2"
    top: "conv2_res1_conv2"
    elu_param {
      alpha: 1
    }
  }
  layer {
    name: "conv2_res1_conv3"
    type: "Convolution"
    bottom: "conv2_res1_conv2"
    top: "conv2_res1_conv3"
    param {
      lr_mult: 1
      decay_mult: 1
    }
    convolution_param {
      num_output: 128
      pad: 0
      kernel_size: 1
      stride: 1
      weight_filler {
        type: "xavier"
      }
    }
  }
  layer {
    name: "conv2_res1"
    type: "Eltwise"
    bottom: "conv2_res1_proj"
    bottom: "conv2_res1_conv3"
    top: "conv2_res1"
  }
  layer {
    name: "conv2_res1_elu"
    type: "ELU"
    bottom: "conv2_res1"
    top: "conv2_res1"
    elu_param {
      alpha: 1
    }
  }
  layer {
    name: "conv2_res2_conv1"
    type: "Convolution"
    bottom: "conv2_res1"
    top: "conv2_res2_conv1"
    param {
      lr_mult: 1
      decay_mult: 1
    }
    convolution_param {
      num_output: 32
      bias_term: false
      stride: 1
      weight_filler {
        type: "xavier"
      }
      pad_h: 0
      pad_w: 1
      kernel_h: 1
      kernel_w: 3
    }
  }
  layer {
    name: "conv2_res2_conv1_elu"
    type: "ELU"
    bottom: "conv2_res2_conv1"
    top: "conv2_res2_conv1"
    elu_param {
      alpha: 1
    }
  }
  layer {
    name: "conv2_res2_conv2"
    type: "Convolution"
    bottom: "conv2_res2_conv1"
    top: "conv2_res2_conv2"
    param {
      lr_mult: 1
      decay_mult: 1
    }
    convolution_param {
      num_output: 128
      bias_term: false
      stride: 1
      weight_filler {
        type: "xavier"
      }
      pad_h: 1
      pad_w: 0
      kernel_h: 3
      kernel_w: 1
    }
  }
  layer {
    name: "conv2_res2"
    type: "Eltwise"
    bottom: "conv2_res1"
    bottom: "conv2_res2_conv2"
    top: "conv2_res2"
  }
  layer {
    name: "conv2_res2_elu"
    type: "ELU"
    bottom: "conv2_res2"
    top: "conv2_res2"
    elu_param {
      alpha: 1
    }
  }
  layer {
    name: "conv2_res3_conv1"
    type: "Convolution"
    bottom: "conv2_res2"
    top: "conv2_res3_conv1"
    param {
      lr_mult: 1
      decay_mult: 1
    }
    convolution_param {
      num_output: 32
      pad: 0
      kernel_size: 1
      stride: 1
      weight_filler {
        type: "xavier"
      }
    }
  }
  layer {
    name: "conv2_res3_conv1_elu"
    type: "ELU"
    bottom: "conv2_res3_conv1"
    top: "conv2_res3_conv1"
    elu_param {
      alpha: 1
    }
  }
  layer {
    name: "conv2_res3_conv2"
    type: "Convolution"
    bottom: "conv2_res3_conv1"
    top: "conv2_res3_conv2"
    param {
      lr_mult: 1
      decay_mult: 1
    }
    convolution_param {
      num_output: 32
      pad: 1
      kernel_size: 3
      stride: 1
      weight_filler {
        type: "xavier"
      }
    }
  }
  layer {
    name: "conv2_res3_conv2_elu"
    type: "ELU"
    bottom: "conv2_res3_conv2"
    top: "conv2_res3_conv2"
    elu_param {
      alpha: 1
    }
  }
  layer {
    name: "conv2_res3_conv3"
    type: "Convolution"
    bottom: "conv2_res3_conv2"
    top: "conv2_res3_conv3"
    param {
      lr_mult: 1
      decay_mult: 1
    }
    convolution_param {
      num_output: 128
      pad: 0
      kernel_size: 1
      stride: 1
      weight_filler {
        type: "xavier"
      }
    }
  }
  layer {
    name: "conv2_res3"
    type: "Eltwise"
    bottom: "conv2_res2"
    bottom: "conv2_res3_conv3"
    bottom: "conv1_conv2_proj"
    top: "conv2_res3"
  }
  layer {
    name: "pool2"
    type: "Pooling"
    bottom: "conv2_res3"
    top: "pool2"
    pooling_param {
      pool: MAX
      kernel_size: 2
      stride: 2
      pad: 0
    }
  }
  layer {
    name: "pool2_elu"
    type: "ELU"
    bottom: "pool2"
    top: "pool2"
    elu_param {
      alpha: 1
    }
  }
  layer {
    name: "conv2_conv3_proj"
    type: "Convolution"
    bottom: "pool2"
    top: "conv2_conv3_proj"
    param {
      lr_mult: 1
      decay_mult: 1
    }
    convolution_param {
      num_output: 256
      pad: 0
      kernel_size: 1
      stride: 1
      weight_filler {
        type: "xavier"
      }
    }
  }
  layer {
    name: "conv2_conv4_proj"
    type: "Convolution"
    bottom: "pool2"
    top: "conv2_conv4_proj"
    param {
      lr_mult: 1
      decay_mult: 1
    }
    convolution_param {
      num_output: 512
      pad: 0
      kernel_size: 1
      stride: 2
      weight_filler {
        type: "xavier"
      }
    }
  }
  layer {
    name: "conv2_conv5_proj"
    type: "Convolution"
    bottom: "pool2"
    top: "conv2_conv5_proj"
    param {
      lr_mult: 1
      decay_mult: 1
    }
    convolution_param {
      num_output: 1024
      pad: 0
      kernel_size: 1
      stride: 4
      weight_filler {
        type: "xavier"
      }
    }
  }
  layer {
    name: "conv3_res1_proj"
    type: "Convolution"
    bottom: "pool2"
    top: "conv3_res1_proj"
    param {
      lr_mult: 1
      decay_mult: 1
    }
    convolution_param {
      num_output: 256
      pad: 0
      kernel_size: 1
      stride: 1
      weight_filler {
        type: "xavier"
      }
    }
  }
  layer {
    name: "conv3_res1_conv1"
    type: "Convolution"
    bottom: "pool2"
    top: "conv3_res1_conv1"
    param {
      lr_mult: 1
      decay_mult: 1
    }
    convolution_param {
      num_output: 64
      pad: 0
      kernel_size: 1
      stride: 1
      weight_filler {
        type: "xavier"
      }
    }
  }
  layer {
    name: "conv3_res1_conv1_elu"
    type: "ELU"
    bottom: "conv3_res1_conv1"
    top: "conv3_res1_conv1"
    elu_param {
      alpha: 1
    }
  }
  layer {
    name: "conv3_res1_conv2"
    type: "Convolution"
    bottom: "conv3_res1_conv1"
    top: "conv3_res1_conv2"
    param {
      lr_mult: 1
      decay_mult: 1
    }
    convolution_param {
      num_output: 64
      pad: 1
      kernel_size: 3
      stride: 1
      weight_filler {
        type: "xavier"
      }
    }
  }
  layer {
    name: "conv3_res1_conv2_elu"
    type: "ELU"
    bottom: "conv3_res1_conv2"
    top: "conv3_res1_conv2"
    elu_param {
      alpha: 1
    }
  }
  layer {
    name: "conv3_res1_conv3"
    type: "Convolution"
    bottom: "conv3_res1_conv2"
    top: "conv3_res1_conv3"
    param {
      lr_mult: 1
      decay_mult: 1
    }
    convolution_param {
      num_output: 256
      pad: 0
      kernel_size: 1
      stride: 1
      weight_filler {
        type: "xavier"
      }
    }
  }
  layer {
    name: "conv3_res1"
    type: "Eltwise"
    bottom: "conv3_res1_proj"
    bottom: "conv3_res1_conv3"
    top: "conv3_res1"
  }
  layer {
    name: "conv3_res1_elu"
    type: "ELU"
    bottom: "conv3_res1"
    top: "conv3_res1"
    elu_param {
      alpha: 1
    }
  }
  layer {
    name: "conv3_res2_conv1"
    type: "Convolution"
    bottom: "conv3_res1"
    top: "conv3_res2_conv1"
    param {
      lr_mult: 1
      decay_mult: 1
    }
    convolution_param {
      num_output: 64
      bias_term: false
      stride: 1
      weight_filler {
        type: "xavier"
      }
      pad_h: 0
      pad_w: 1
      kernel_h: 1
      kernel_w: 3
    }
  }
  layer {
    name: "conv3_res2_conv1_elu"
    type: "ELU"
    bottom: "conv3_res2_conv1"
    top: "conv3_res2_conv1"
    elu_param {
      alpha: 1
    }
  }
  layer {
    name: "conv3_res2_conv2"
    type: "Convolution"
    bottom: "conv3_res2_conv1"
    top: "conv3_res2_conv2"
    param {
      lr_mult: 1
      decay_mult: 1
    }
    convolution_param {
      num_output: 256
      bias_term: false
      stride: 1
      weight_filler {
        type: "xavier"
      }
      pad_h: 1
      pad_w: 0
      kernel_h: 3
      kernel_w: 1
    }
  }
  layer {
    name: "conv3_res2"
    type: "Eltwise"
    bottom: "conv3_res1"
    bottom: "conv3_res2_conv2"
    top: "conv3_res2"
  }
  layer {
    name: "conv3_res2_elu"
    type: "ELU"
    bottom: "conv3_res2"
    top: "conv3_res2"
    elu_param {
      alpha: 1
    }
  }
  layer {
    name: "conv3_res3_conv1"
    type: "Convolution"
    bottom: "conv3_res2"
    top: "conv3_res3_conv1"
    param {
      lr_mult: 1
      decay_mult: 1
    }
    convolution_param {
      num_output: 64
      pad: 0
      kernel_size: 1
      stride: 1
      weight_filler {
        type: "xavier"
      }
    }
  }
  layer {
    name: "conv3_res3_conv1_elu"
    type: "ELU"
    bottom: "conv3_res3_conv1"
    top: "conv3_res3_conv1"
    elu_param {
      alpha: 1
    }
  }
  layer {
    name: "conv3_res3_conv2"
    type: "Convolution"
    bottom: "conv3_res3_conv1"
    top: "conv3_res3_conv2"
    param {
      lr_mult: 1
      decay_mult: 1
    }
    convolution_param {
      num_output: 64
      pad: 1
      kernel_size: 3
      stride: 1
      weight_filler {
        type: "xavier"
      }
    }
  }
  layer {
    name: "conv3_res3_conv2_elu"
    type: "ELU"
    bottom: "conv3_res3_conv2"
    top: "conv3_res3_conv2"
    elu_param {
      alpha: 1
    }
  }
  layer {
    name: "conv3_res3_conv3"
    type: "Convolution"
    bottom: "conv3_res3_conv2"
    top: "conv3_res3_conv3"
    param {
      lr_mult: 1
      decay_mult: 1
    }
    convolution_param {
      num_output: 256
      pad: 0
      kernel_size: 1
      stride: 1
      weight_filler {
        type: "xavier"
      }
    }
  }
  layer {
    name: "conv3_res3"
    type: "Eltwise"
    bottom: "conv3_res2"
    bottom: "conv3_res3_conv3"
    top: "conv3_res3"
  }
  layer {
    name: "conv3_res3_elu"
    type: "ELU"
    bottom: "conv3_res3"
    top: "conv3_res3"
    elu_param {
      alpha: 1
    }
  }
  layer {
    name: "conv3_res4_conv1"
    type: "Convolution"
    bottom: "conv3_res3"
    top: "conv3_res4_conv1"
    param {
      lr_mult: 1
      decay_mult: 1
    }
    convolution_param {
      num_output: 64
      pad: 0
      kernel_size: 1
      stride: 1
      weight_filler {
        type: "xavier"
      }
    }
  }
  layer {
    name: "conv3_res4_conv1_elu"
    type: "ELU"
    bottom: "conv3_res4_conv1"
    top: "conv3_res4_conv1"
    elu_param {
      alpha: 1
    }
  }
  layer {
    name: "conv3_res4_conv2"
    type: "Convolution"
    bottom: "conv3_res4_conv1"
    top: "conv3_res4_conv2"
    param {
      lr_mult: 1
      decay_mult: 1
    }
    convolution_param {
      num_output: 64
      pad: 1
      kernel_size: 3
      stride: 1
      weight_filler {
        type: "xavier"
      }
    }
  }
  layer {
    name: "conv3_res4_conv2_elu"
    type: "ELU"
    bottom: "conv3_res4_conv2"
    top: "conv3_res4_conv2"
    elu_param {
      alpha: 1
    }
  }
  layer {
    name: "conv3_res4_conv3"
    type: "Convolution"
    bottom: "conv3_res4_conv2"
    top: "conv3_res4_conv3"
    param {
      lr_mult: 1
      decay_mult: 1
    }
    convolution_param {
      num_output: 256
      pad: 0
      kernel_size: 1
      stride: 1
      weight_filler {
        type: "xavier"
      }
    }
  }
  layer {
    name: "conv3_res4"
    type: "Eltwise"
    bottom: "conv3_res3"
    bottom: "conv3_res4_conv3"
    bottom: "conv1_conv3_proj"
    bottom: "conv2_conv3_proj"
    top: "conv3_res4"
  }
  layer {
    name: "pool3"
    type: "Pooling"
    bottom: "conv3_res4"
    top: "pool3"
    pooling_param {
      pool: MAX
      kernel_size: 2
      stride: 2
      pad: 0
    }
  }
  layer {
    name: "pool3_elu"
    type: "ELU"
    bottom: "pool3"
    top: "pool3"
    elu_param {
      alpha: 1
    }
  }
  layer {
    name: "conv3_conv4_proj"
    type: "Convolution"
    bottom: "pool3"
    top: "conv3_conv4_proj"
    param {
      lr_mult: 1
      decay_mult: 1
    }
    convolution_param {
      num_output: 512
      pad: 0
      kernel_size: 1
      stride: 1
      weight_filler {
        type: "xavier"
      }
    }
  }
  layer {
    name: "conv3_conv5_proj"
    type: "Convolution"
    bottom: "pool3"
    top: "conv3_conv5_proj"
    param {
      lr_mult: 1
      decay_mult: 1
    }
    convolution_param {
      num_output: 1024
      pad: 0
      kernel_size: 1
      stride: 2
      weight_filler {
        type: "xavier"
      }
    }
  }
  layer {
    name: "conv4_res1_proj"
    type: "Convolution"
    bottom: "pool3"
    top: "conv4_res1_proj"
    param {
      lr_mult: 1
      decay_mult: 1
    }
    convolution_param {
      num_output: 512
      pad: 0
      kernel_size: 1
      stride: 1
      weight_filler {
        type: "xavier"
      }
    }
  }
  layer {
    name: "conv4_res1_conv1"
    type: "Convolution"
    bottom: "pool3"
    top: "conv4_res1_conv1"
    param {
      lr_mult: 1
      decay_mult: 1
    }
    convolution_param {
      num_output: 128
      pad: 0
      kernel_size: 1
      stride: 1
      weight_filler {
        type: "xavier"
      }
    }
  }
  layer {
    name: "conv4_res1_conv1_elu"
    type: "ELU"
    bottom: "conv4_res1_conv1"
    top: "conv4_res1_conv1"
    elu_param {
      alpha: 1
    }
  }
  layer {
    name: "conv4_res1_conv2"
    type: "Convolution"
    bottom: "conv4_res1_conv1"
    top: "conv4_res1_conv2"
    param {
      lr_mult: 1
      decay_mult: 1
    }
    convolution_param {
      num_output: 128
      pad: 1
      kernel_size: 3
      stride: 1
      weight_filler {
        type: "xavier"
      }
    }
  }
  layer {
    name: "conv4_res1_conv2_elu"
    type: "ELU"
    bottom: "conv4_res1_conv2"
    top: "conv4_res1_conv2"
    elu_param {
      alpha: 1
    }
  }
  layer {
    name: "conv4_res1_conv3"
    type: "Convolution"
    bottom: "conv4_res1_conv2"
    top: "conv4_res1_conv3"
    param {
      lr_mult: 1
      decay_mult: 1
    }
    convolution_param {
      num_output: 512
      pad: 0
      kernel_size: 1
      stride: 1
      weight_filler {
        type: "xavier"
      }
    }
  }
  layer {
    name: "conv4_res1"
    type: "Eltwise"
    bottom: "conv4_res1_proj"
    bottom: "conv4_res1_conv3"
    top: "conv4_res1"
  }
  layer {
    name: "conv4_res1_elu"
    type: "ELU"
    bottom: "conv4_res1"
    top: "conv4_res1"
    elu_param {
      alpha: 1
    }
  }
  layer {
    name: "conv4_res2_conv1"
    type: "Convolution"
    bottom: "conv4_res1"
    top: "conv4_res2_conv1"
    param {
      lr_mult: 1
      decay_mult: 1
    }
    convolution_param {
      num_output: 128
      bias_term: false
      stride: 1
      weight_filler {
        type: "xavier"
      }
      pad_h: 0
      pad_w: 1
      kernel_h: 1
      kernel_w: 3
    }
  }
  layer {
    name: "conv4_res2_conv1_elu"
    type: "ELU"
    bottom: "conv4_res2_conv1"
    top: "conv4_res2_conv1"
    elu_param {
      alpha: 1
    }
  }
  layer {
    name: "conv4_res2_conv2"
    type: "Convolution"
    bottom: "conv4_res2_conv1"
    top: "conv4_res2_conv2"
    param {
      lr_mult: 1
      decay_mult: 1
    }
    convolution_param {
      num_output: 512
      bias_term: false
      stride: 1
      weight_filler {
        type: "xavier"
      }
      pad_h: 1
      pad_w: 0
      kernel_h: 3
      kernel_w: 1
    }
  }
  layer {
    name: "conv4_res2"
    type: "Eltwise"
    bottom: "conv4_res1"
    bottom: "conv4_res2_conv2"
    top: "conv4_res2"
  }
  layer {
    name: "conv4_res2_elu"
    type: "ELU"
    bottom: "conv4_res2"
    top: "conv4_res2"
    elu_param {
      alpha: 1
    }
  }
  layer {
    name: "conv4_res3_conv1"
    type: "Convolution"
    bottom: "conv4_res2"
    top: "conv4_res3_conv1"
    param {
      lr_mult: 1
      decay_mult: 1
    }
    convolution_param {
      num_output: 128
      pad: 0
      kernel_size: 1
      stride: 1
      weight_filler {
        type: "xavier"
      }
    }
  }
  layer {
    name: "conv4_res3_conv1_elu"
    type: "ELU"
    bottom: "conv4_res3_conv1"
    top: "conv4_res3_conv1"
    elu_param {
      alpha: 1
    }
  }
  layer {
    name: "conv4_res3_conv2"
    type: "Convolution"
    bottom: "conv4_res3_conv1"
    top: "conv4_res3_conv2"
    param {
      lr_mult: 1
      decay_mult: 1
    }
    convolution_param {
      num_output: 128
      pad: 1
      kernel_size: 3
      stride: 1
      weight_filler {
        type: "xavier"
      }
    }
  }
  layer {
    name: "conv4_res3_conv2_elu"
    type: "ELU"
    bottom: "conv4_res3_conv2"
    top: "conv4_res3_conv2"
    elu_param {
      alpha: 1
    }
  }
  layer {
    name: "conv4_res3_conv3"
    type: "Convolution"
    bottom: "conv4_res3_conv2"
    top: "conv4_res3_conv3"
    param {
      lr_mult: 1
      decay_mult: 1
    }
    convolution_param {
      num_output: 512
      pad: 0
      kernel_size: 1
      stride: 1
      weight_filler {
        type: "xavier"
      }
    }
  }
  layer {
    name: "conv4_res3"
    type: "Eltwise"
    bottom: "conv4_res2"
    bottom: "conv4_res3_conv3"
    top: "conv4_res3"
  }
  layer {
    name: "conv4_res3_elu"
    type: "ELU"
    bottom: "conv4_res3"
    top: "conv4_res3"
    elu_param {
      alpha: 1
    }
  }
  layer {
    name: "conv4_res4_conv1"
    type: "Convolution"
    bottom: "conv4_res3"
    top: "conv4_res4_conv1"
    param {
      lr_mult: 1
      decay_mult: 1
    }
    convolution_param {
      num_output: 128
      bias_term: false
      stride: 1
      weight_filler {
        type: "xavier"
      }
      pad_h: 0
      pad_w: 1
      kernel_h: 1
      kernel_w: 3
    }
  }
  layer {
    name: "conv4_res4_conv1_elu"
    type: "ELU"
    bottom: "conv4_res4_conv1"
    top: "conv4_res4_conv1"
    elu_param {
      alpha: 1
    }
  }
  layer {
    name: "conv4_res4_conv2"
    type: "Convolution"
    bottom: "conv4_res4_conv1"
    top: "conv4_res4_conv2"
    param {
      lr_mult: 1
      decay_mult: 1
    }
    convolution_param {
      num_output: 512
      bias_term: false
      stride: 1
      weight_filler {
        type: "xavier"
      }
      pad_h: 1
      pad_w: 0
      kernel_h: 3
      kernel_w: 1
    }
  }
  layer {
    name: "conv4_res4"
    type: "Eltwise"
    bottom: "conv4_res3"
    bottom: "conv4_res4_conv2"
    top: "conv4_res4"
  }
  layer {
    name: "conv4_res4_elu"
    type: "ELU"
    bottom: "conv4_res4"
    top: "conv4_res4"
    elu_param {
      alpha: 1
    }
  }
  layer {
    name: "conv4_res5_conv1"
    type: "Convolution"
    bottom: "conv4_res4"
    top: "conv4_res5_conv1"
    param {
      lr_mult: 1
      decay_mult: 1
    }
    convolution_param {
      num_output: 128
      pad: 0
      kernel_size: 1
      stride: 1
      weight_filler {
        type: "xavier"
      }
    }
  }
  layer {
    name: "conv4_res5_conv1_elu"
    type: "ELU"
    bottom: "conv4_res5_conv1"
    top: "conv4_res5_conv1"
    elu_param {
      alpha: 1
    }
  }
  layer {
    name: "conv4_res5_conv2"
    type: "Convolution"
    bottom: "conv4_res5_conv1"
    top: "conv4_res5_conv2"
    param {
      lr_mult: 1
      decay_mult: 1
    }
    convolution_param {
      num_output: 128
      pad: 1
      kernel_size: 3
      stride: 1
      weight_filler {
        type: "xavier"
      }
    }
  }
  layer {
    name: "conv4_res5_conv2_elu"
    type: "ELU"
    bottom: "conv4_res5_conv2"
    top: "conv4_res5_conv2"
    elu_param {
      alpha: 1
    }
  }
  layer {
    name: "conv4_res5_conv3"
    type: "Convolution"
    bottom: "conv4_res5_conv2"
    top: "conv4_res5_conv3"
    param {
      lr_mult: 1
      decay_mult: 1
    }
    convolution_param {
      num_output: 512
      pad: 0
      kernel_size: 1
      stride: 1
      weight_filler {
        type: "xavier"
      }
    }
  }
  layer {
    name: "conv4_res5"
    type: "Eltwise"
    bottom: "conv4_res4"
    bottom: "conv4_res5_conv3"
    top: "conv4_res5"
  }
  layer {
    name: "conv4_res5_elu"
    type: "ELU"
    bottom: "conv4_res5"
    top: "conv4_res5"
    elu_param {
      alpha: 1
    }
  }
  layer {
    name: "conv4_res6_conv1"
    type: "Convolution"
    bottom: "conv4_res5"
    top: "conv4_res6_conv1"
    param {
      lr_mult: 1
      decay_mult: 1
    }
    convolution_param {
      num_output: 128
      pad: 0
      kernel_size: 1
      stride: 1
      weight_filler {
        type: "xavier"
      }
    }
  }
  layer {
    name: "conv4_res6_conv1_elu"
    type: "ELU"
    bottom: "conv4_res6_conv1"
    top: "conv4_res6_conv1"
    elu_param {
      alpha: 1
    }
  }
  layer {
    name: "conv4_res6_conv2"
    type: "Convolution"
    bottom: "conv4_res6_conv1"
    top: "conv4_res6_conv2"
    param {
      lr_mult: 1
      decay_mult: 1
    }
    convolution_param {
      num_output: 128
      pad: 1
      kernel_size: 3
      stride: 1
      weight_filler {
        type: "xavier"
      }
    }
  }
  layer {
    name: "conv4_res6_conv2_elu"
    type: "ELU"
    bottom: "conv4_res6_conv2"
    top: "conv4_res6_conv2"
    elu_param {
      alpha: 1
    }
  }
  layer {
    name: "conv4_res6_conv3"
    type: "Convolution"
    bottom: "conv4_res6_conv2"
    top: "conv4_res6_conv3"
    param {
      lr_mult: 1
      decay_mult: 1
    }
    convolution_param {
      num_output: 512
      pad: 0
      kernel_size: 1
      stride: 1
      weight_filler {
        type: "xavier"
      }
    }
  }
  layer {
    name: "conv4_res6"
    type: "Eltwise"
    bottom: "conv4_res5"
    bottom: "conv4_res6_conv3"
    bottom: "conv2_conv4_proj"
    bottom: "conv3_conv4_proj"
    top: "conv4_res6"
  }
  layer {
    name: "pool4"
    type: "Pooling"
    bottom: "conv4_res6"
    top: "pool4"
    pooling_param {
      pool: MAX
      kernel_size: 2
      stride: 2
      pad: 0
    }
  }
  layer {
    name: "pool4_elu"
    type: "ELU"
    bottom: "pool4"
    top: "pool4"
    elu_param {
      alpha: 1
    }
  }
  layer {
    name: "conv4_conv5_proj"
    type: "Convolution"
    bottom: "pool4"
    top: "conv4_conv5_proj"
    param {
      lr_mult: 1
      decay_mult: 1
    }
    convolution_param {
      num_output: 1024
      pad: 0
      kernel_size: 1
      stride: 1
      weight_filler {
        type: "xavier"
      }
    }
  }
  layer {
    name: "conv5_res1_proj"
    type: "Convolution"
    bottom: "pool4"
    top: "conv5_res1_proj"
    param {
      lr_mult: 1
      decay_mult: 1
    }
    convolution_param {
      num_output: 1024
      pad: 0
      kernel_size: 1
      stride: 1
      weight_filler {
        type: "xavier"
      }
    }
  }
  layer {
    name: "conv5_res1_conv1"
    type: "Convolution"
    bottom: "pool4"
    top: "conv5_res1_conv1"
    param {
      lr_mult: 1
      decay_mult: 1
    }
    convolution_param {
      num_output: 256
      pad: 0
      kernel_size: 1
      stride: 1
      weight_filler {
        type: "xavier"
      }
    }
  }
  layer {
    name: "conv5_res1_conv1_elu"
    type: "ELU"
    bottom: "conv5_res1_conv1"
    top: "conv5_res1_conv1"
    elu_param {
      alpha: 1
    }
  }
  layer {
    name: "conv5_res1_conv2"
    type: "Convolution"
    bottom: "conv5_res1_conv1"
    top: "conv5_res1_conv2"
    param {
      lr_mult: 1
      decay_mult: 1
    }
    convolution_param {
      num_output: 256
      pad: 1
      kernel_size: 3
      stride: 1
      weight_filler {
        type: "xavier"
      }
    }
  }
  layer {
    name: "conv5_res1_conv2_elu"
    type: "ELU"
    bottom: "conv5_res1_conv2"
    top: "conv5_res1_conv2"
    elu_param {
      alpha: 1
    }
  }
  layer {
    name: "conv5_res1_conv3"
    type: "Convolution"
    bottom: "conv5_res1_conv2"
    top: "conv5_res1_conv3"
    param {
      lr_mult: 1
      decay_mult: 1
    }
    convolution_param {
      num_output: 1024
      pad: 0
      kernel_size: 1
      stride: 1
      weight_filler {
        type: "xavier"
      }
    }
  }
  layer {
    name: "conv5_res1"
    type: "Eltwise"
    bottom: "conv5_res1_proj"
    bottom: "conv5_res1_conv3"
    top: "conv5_res1"
  }
  layer {
    name: "conv5_res1_elu"
    type: "ELU"
    bottom: "conv5_res1"
    top: "conv5_res1"
    elu_param {
      alpha: 1
    }
  }
  layer {
    name: "conv5_res2_conv1"
    type: "Convolution"
    bottom: "conv5_res1"
    top: "conv5_res2_conv1"
    param {
      lr_mult: 1
      decay_mult: 1
    }
    convolution_param {
      num_output: 256
      bias_term: false
      stride: 1
      weight_filler {
        type: "xavier"
      }
      pad_h: 0
      pad_w: 1
      kernel_h: 1
      kernel_w: 3
    }
  }
  layer {
    name: "conv5_res2_conv1_elu"
    type: "ELU"
    bottom: "conv5_res2_conv1"
    top: "conv5_res2_conv1"
    elu_param {
      alpha: 1
    }
  }
  layer {
    name: "conv5_res2_conv2"
    type: "Convolution"
    bottom: "conv5_res2_conv1"
    top: "conv5_res2_conv2"
    param {
      lr_mult: 1
      decay_mult: 1
    }
    convolution_param {
      num_output: 1024
      bias_term: false
      stride: 1
      weight_filler {
        type: "xavier"
      }
      pad_h: 1
      pad_w: 0
      kernel_h: 3
      kernel_w: 1
    }
  }
  layer {
    name: "conv5_res2"
    type: "Eltwise"
    bottom: "conv5_res1"
    bottom: "conv5_res2_conv2"
    top: "conv5_res2"
  }
  layer {
    name: "conv5_res2_elu"
    type: "ELU"
    bottom: "conv5_res2"
    top: "conv5_res2"
    elu_param {
      alpha: 1
    }
  }
  layer {
    name: "conv5_res3_conv1"
    type: "Convolution"
    bottom: "conv5_res2"
    top: "conv5_res3_conv1"
    param {
      lr_mult: 1
      decay_mult: 1
    }
    convolution_param {
      num_output: 256
      pad: 0
      kernel_size: 1
      stride: 1
      weight_filler {
        type: "xavier"
      }
    }
  }
  layer {
    name: "conv5_res3_conv1_elu"
    type: "ELU"
    bottom: "conv5_res3_conv1"
    top: "conv5_res3_conv1"
    elu_param {
      alpha: 1
    }
  }
  layer {
    name: "conv5_res3_conv2"
    type: "Convolution"
    bottom: "conv5_res3_conv1"
    top: "conv5_res3_conv2"
    param {
      lr_mult: 1
      decay_mult: 1
    }
    convolution_param {
      num_output: 256
      pad: 1
      kernel_size: 3
      stride: 1
      weight_filler {
        type: "xavier"
      }
    }
  }
  layer {
    name: "conv5_res3_conv2_elu"
    type: "ELU"
    bottom: "conv5_res3_conv2"
    top: "conv5_res3_conv2"
    elu_param {
      alpha: 1
    }
  }
  layer {
    name: "conv5_res3_conv3"
    type: "Convolution"
    bottom: "conv5_res3_conv2"
    top: "conv5_res3_conv3"
    param {
      lr_mult: 1
      decay_mult: 1
    }
    convolution_param {
      num_output: 1024
      pad: 0
      kernel_size: 1
      stride: 1
      weight_filler {
        type: "xavier"
      }
    }
  }
  layer {
    name: "conv5_res3"
    type: "Eltwise"
    bottom: "conv5_res2"
    bottom: "conv5_res3_conv3"
    bottom: "conv2_conv5_proj"
    bottom: "conv3_conv5_proj"
    bottom: "conv4_conv5_proj"
    top: "conv5_res3"
  }
  layer {
    
I0918 23:20:30.361922 11578 solver.cpp:86] Creating training net specified in net_param.
I0918 23:20:30.362218 11578 net.cpp:313] The NetState phase (0) differed from the phase (1) specified by a rule in layer data
I0918 23:20:30.362272 11578 net.cpp:313] The NetState phase (0) differed from the phase (1) specified by a rule in layer accuracy_top1
I0918 23:20:30.362277 11578 net.cpp:313] The NetState phase (0) differed from the phase (1) specified by a rule in layer accuracy_top5
I0918 23:20:30.362689 11578 net.cpp:49] Initializing net from parameters: 
state {
  phase: TRAIN
}
layer {
  name: "data"
  type: "Data"
  top: "data"
  top: "label"
  include {
    phase: TRAIN
  }
  transform_param {
    scale: 0.04
    mirror: true
    crop_size: 128
    mean_value: 104
    mean_value: 117
    mean_value: 124
  }
  data_param {
    source: "/media/dereyly/data_one/data/CAFFE_DATA/imagenet_train_150"
    batch_size: 256
    backend: LMDB
  }
}
layer {
  name: "conv1"
  type: "Convolution"
  bottom: "data"
  top: "conv1"
  param {
    lr_mult: 1
    decay_mult: 1
  }
  convolution_param {
    num_output: 64
    pad: 0
    kernel_size: 7
    stride: 2
    weight_filler {
      type: "xavier"
    }
  }
}
layer {
  name: "conv1_relu"
  type: "ReLU"
  bottom: "conv1"
  top: "conv1"
}
layer {
  name: "pool1"
  type: "Pooling"
  bottom: "conv1"
  top: "pool1"
  pooling_param {
    pool: MAX
    kernel_size: 3
    stride: 2
    pad: 1
  }
}
layer {
  name: "pool1_elu"
  type: "ELU"
  bottom: "pool1"
  top: "pool1"
  elu_param {
    alpha: 1
  }
}
layer {
  name: "conv1_conv2_proj"
  type: "Convolution"
  bottom: "pool1"
  top: "conv1_conv2_proj"
  param {
    lr_mult: 1
    decay_mult: 1
  }
  convolution_param {
    num_output: 128
    pad: 0
    kernel_size: 1
    stride: 1
    weight_filler {
      type: "xavier"
    }
  }
}
layer {
  name: "conv1_conv3_proj"
  type: "Convolution"
  bottom: "pool1"
  top: "conv1_conv3_proj"
  param {
    lr_mult: 1
    decay_mult: 1
  }
  convolution_param {
    num_output: 256
    pad: 0
    kernel_size: 1
    stride: 2
    weight_filler {
      type: "xavier"
    }
  }
}
layer {
  name: "conv2_res1_proj"
  type: "Convolution"
  bottom: "pool1"
  top: "conv2_res1_proj"
  param {
    lr_mult: 1
    decay_mult: 1
  }
  convolution_param {
    num_output: 128
    pad: 0
    kernel_size: 1
    stride: 1
    weight_filler {
      type: "xavier"
    }
  }
}
layer {
  name: "conv2_res1_conv1"
  type: "Convolution"
  bottom: "pool1"
  top: "conv2_res1_conv1"
  param {
    lr_mult: 1
    decay_mult: 1
  }
  convolution_param {
    num_output: 32
    pad: 0
    kernel_size: 1
    stride: 1
    weight_filler {
      type: "xavier"
    }
  }
}
layer {
  name: "conv2_res1_conv1_elu"
  type: "ELU"
  bottom: "conv2_res1_conv1"
  top: "conv2_res1_conv1"
  elu_param {
    alpha: 1
  }
}
layer {
  name: "conv2_res1_conv2"
  type: "Convolution"
  bottom: "conv2_res1_conv1"
  top: "conv2_res1_conv2"
  param {
    lr_mult: 1
    decay_mult: 1
  }
  convolution_param {
    num_output: 32
    pad: 1
    kernel_size: 3
    stride: 1
    weight_filler {
      type: "xavier"
    }
  }
}
layer {
  name: "conv2_res1_conv2_elu"
  type: "ELU"
  bottom: "conv2_res1_conv2"
  top: "conv2_res1_conv2"
  elu_param {
    alpha: 1
  }
}
layer {
  name: "conv2_res1_conv3"
  type: "Convolution"
  bottom: "conv2_res1_conv2"
  top: "conv2_res1_conv3"
  param {
    lr_mult: 1
    decay_mult: 1
  }
  convolution_param {
    num_output: 128
    pad: 0
    kernel_size: 1
    stride: 1
    weight_filler {
      type: "xavier"
    }
  }
}
layer {
  name: "conv2_res1"
  type: "Eltwise"
  bottom: "conv2_res1_proj"
  bottom: "conv2_res1_conv3"
  top: "conv2_res1"
}
layer {
  name: "conv2_res1_elu"
  type: "ELU"
  bottom: "conv2_res1"
  top: "conv2_res1"
  elu_param {
    alpha: 1
  }
}
layer {
  name: "conv2_res2_conv1"
  type: "Convolution"
  bottom: "conv2_res1"
  top: "conv2_res2_conv1"
  param {
    lr_mult: 1
    decay_mult: 1
  }
  convolution_param {
    num_output: 32
    bias_term: false
    stride: 1
    weight_filler {
      type: "xavier"
    }
    pad_h: 0
    pad_w: 1
    kernel_h: 1
    kernel_w: 3
  }
}
layer {
  name: "conv2_res2_conv1_elu"
  type: "ELU"
  bottom: "conv2_res2_conv1"
  top: "conv2_res2_conv1"
  elu_param {
    alpha: 1
  }
}
layer {
  name: "conv2_res2_conv2"
  type: "Convolution"
  bottom: "conv2_res2_conv1"
  top: "conv2_res2_conv2"
  param {
    lr_mult: 1
    decay_mult: 1
  }
  convolution_param {
    num_output: 128
    bias_term: false
    stride: 1
    weight_filler {
      type: "xavier"
    }
    pad_h: 1
    pad_w: 0
    kernel_h: 3
    kernel_w: 1
  }
}
layer {
  name: "conv2_res2"
  type: "Eltwise"
  bottom: "conv2_res1"
  bottom: "conv2_res2_conv2"
  top: "conv2_res2"
}
layer {
  name: "conv2_res2_elu"
  type: "ELU"
  bottom: "conv2_res2"
  top: "conv2_res2"
  elu_param {
    alpha: 1
  }
}
layer {
  name: "conv2_res3_conv1"
  type: "Convolution"
  bottom: "conv2_res2"
  top: "conv2_res3_conv1"
  param {
    lr_mult: 1
    decay_mult: 1
  }
  convolution_param {
    num_output: 32
    pad: 0
    kernel_size: 1
    stride: 1
    weight_filler {
      type: "xavier"
    }
  }
}
layer {
  name: "conv2_res3_conv1_elu"
  type: "ELU"
  bottom: "conv2_res3_conv1"
  top: "conv2_res3_conv1"
  elu_param {
    alpha: 1
  }
}
layer {
  name: "conv2_res3_conv2"
  type: "Convolution"
  bottom: "conv2_res3_conv1"
  top: "conv2_res3_conv2"
  param {
    lr_mult: 1
    decay_mult: 1
  }
  convolution_param {
    num_output: 32
    pad: 1
    kernel_size: 3
    stride: 1
    weight_filler {
      type: "xavier"
    }
  }
}
layer {
  name: "conv2_res3_conv2_elu"
  type: "ELU"
  bottom: "conv2_res3_conv2"
  top: "conv2_res3_conv2"
  elu_param {
    alpha: 1
  }
}
layer {
  name: "conv2_res3_conv3"
  type: "Convolution"
  bottom: "conv2_res3_conv2"
  top: "conv2_res3_conv3"
  param {
    lr_mult: 1
    decay_mult: 1
  }
  convolution_param {
    num_output: 128
    pad: 0
    kernel_size: 1
    stride: 1
    weight_filler {
      type: "xavier"
    }
  }
}
layer {
  name: "conv2_res3"
  type: "Eltwise"
  bottom: "conv2_res2"
  bottom: "conv2_res3_conv3"
  bottom: "conv1_conv2_proj"
  top: "conv2_res3"
}
layer {
  name: "pool2"
  type: "Pooling"
  bottom: "conv2_res3"
  top: "pool2"
  pooling_param {
    pool: MAX
    kernel_size: 2
    stride: 2
    pad: 0
  }
}
layer {
  name: "pool2_elu"
  type: "ELU"
  bottom: "pool2"
  top: "pool2"
  elu_param {
    alpha: 1
  }
}
layer {
  name: "conv2_conv3_proj"
  type: "Convolution"
  bottom: "pool2"
  top: "conv2_conv3_proj"
  param {
    lr_mult: 1
    decay_mult: 1
  }
  convolution_param {
    num_output: 256
    pad: 0
    kernel_size: 1
    stride: 1
    weight_filler {
      type: "xavier"
    }
  }
}
layer {
  name: "conv2_conv4_proj"
  type: "Convolution"
  bottom: "pool2"
  top: "conv2_conv4_proj"
  param {
    lr_mult: 1
    decay_mult: 1
  }
  convolution_param {
    num_output: 512
    pad: 0
    kernel_size: 1
    stride: 2
    weight_filler {
      type: "xavier"
    }
  }
}
layer {
  name: "conv2_conv5_proj"
  type: "Convolution"
  bottom: "pool2"
  top: "conv2_conv5_proj"
  param {
    lr_mult: 1
    decay_mult: 1
  }
  convolution_param {
    num_output: 1024
    pad: 0
    kernel_size: 1
    stride: 4
    weight_filler {
      type: "xavier"
    }
  }
}
layer {
  name: "conv3_res1_proj"
  type: "Convolution"
  bottom: "pool2"
  top: "conv3_res1_proj"
  param {
    lr_mult: 1
    decay_mult: 1
  }
  convolution_param {
    num_output: 256
    pad: 0
    kernel_size: 1
    stride: 1
    weight_filler {
      type: "xavier"
    }
  }
}
layer {
  name: "conv3_res1_conv1"
  type: "Convolution"
  bottom: "pool2"
  top: "conv3_res1_conv1"
  param {
    lr_mult: 1
    decay_mult: 1
  }
  convolution_param {
    num_output: 64
    pad: 0
    kernel_size: 1
    stride: 1
    weight_filler {
      type: "xavier"
    }
  }
}
layer {
  name: "conv3_res1_conv1_elu"
  type: "ELU"
  bottom: "conv3_res1_conv1"
  top: "conv3_res1_conv1"
  elu_param {
    alpha: 1
  }
}
layer {
  name: "conv3_res1_conv2"
  type: "Convolution"
  bottom: "conv3_res1_conv1"
  top: "conv3_res1_conv2"
  param {
    lr_mult: 1
    decay_mult: 1
  }
  convolution_param {
    num_output: 64
    pad: 1
    kernel_size: 3
    stride: 1
    weight_filler {
      type: "xavier"
    }
  }
}
layer {
  name: "conv3_res1_conv2_elu"
  type: "ELU"
  bottom: "conv3_res1_conv2"
  top: "conv3_res1_conv2"
  elu_param {
    alpha: 1
  }
}
layer {
  name: "conv3_res1_conv3"
  type: "Convolution"
  bottom: "conv3_res1_conv2"
  top: "conv3_res1_conv3"
  param {
    lr_mult: 1
    decay_mult: 1
  }
  convolution_param {
    num_output: 256
    pad: 0
    kernel_size: 1
    stride: 1
    weight_filler {
      type: "xavier"
    }
  }
}
layer {
  name: "conv3_res1"
  type: "Eltwise"
  bottom: "conv3_res1_proj"
  bottom: "conv3_res1_conv3"
  top: "conv3_res1"
}
layer {
  name: "conv3_res1_elu"
  type: "ELU"
  bottom: "conv3_res1"
  top: "conv3_res1"
  elu_param {
    alpha: 1
  }
}
layer {
  name: "conv3_res2_conv1"
  type: "Convolution"
  bottom: "conv3_res1"
  top: "conv3_res2_conv1"
  param {
    lr_mult: 1
    decay_mult: 1
  }
  convolution_param {
    num_output: 64
    bias_term: false
    stride: 1
    weight_filler {
      type: "xavier"
    }
    pad_h: 0
    pad_w: 1
    kernel_h: 1
    kernel_w: 3
  }
}
layer {
  name: "conv3_res2_conv1_elu"
  type: "ELU"
  bottom: "conv3_res2_conv1"
  top: "conv3_res2_conv1"
  elu_param {
    alpha: 1
  }
}
layer {
  name: "conv3_res2_conv2"
  type: "Convolution"
  bottom: "conv3_res2_conv1"
  top: "conv3_res2_conv2"
  param {
    lr_mult: 1
    decay_mult: 1
  }
  convolution_param {
    num_output: 256
    bias_term: false
    stride: 1
    weight_filler {
      type: "xavier"
    }
    pad_h: 1
    pad_w: 0
    kernel_h: 3
    kernel_w: 1
  }
}
layer {
  name: "conv3_res2"
  type: "Eltwise"
  bottom: "conv3_res1"
  bottom: "conv3_res2_conv2"
  top: "conv3_res2"
}
layer {
  name: "conv3_res2_elu"
  type: "ELU"
  bottom: "conv3_res2"
  top: "conv3_res2"
  elu_param {
    alpha: 1
  }
}
layer {
  name: "conv3_res3_conv1"
  type: "Convolution"
  bottom: "conv3_res2"
  top: "conv3_res3_conv1"
  param {
    lr_mult: 1
    decay_mult: 1
  }
  convolution_param {
    num_output: 64
    pad: 0
    kernel_size: 1
    stride: 1
    weight_filler {
      type: "xavier"
    }
  }
}
layer {
  name: "conv3_res3_conv1_elu"
  type: "ELU"
  bottom: "conv3_res3_conv1"
  top: "conv3_res3_conv1"
  elu_param {
    alpha: 1
  }
}
layer {
  name: "conv3_res3_conv2"
  type: "Convolution"
  bottom: "conv3_res3_conv1"
  top: "conv3_res3_conv2"
  param {
    lr_mult: 1
    decay_mult: 1
  }
  convolution_param {
    num_output: 64
    pad: 1
    kernel_size: 3
    stride: 1
    weight_filler {
      type: "xavier"
    }
  }
}
layer {
  name: "conv3_res3_conv2_elu"
  type: "ELU"
  bottom: "conv3_res3_conv2"
  top: "conv3_res3_conv2"
  elu_param {
    alpha: 1
  }
}
layer {
  name: "conv3_res3_conv3"
  type: "Convolution"
  bottom: "conv3_res3_conv2"
  top: "conv3_res3_conv3"
  param {
    lr_mult: 1
    decay_mult: 1
  }
  convolution_param {
    num_output: 256
    pad: 0
    kernel_size: 1
    stride: 1
    weight_filler {
      type: "xavier"
    }
  }
}
layer {
  name: "conv3_res3"
  type: "Eltwise"
  bottom: "conv3_res2"
  bottom: "conv3_res3_conv3"
  top: "conv3_res3"
}
layer {
  name: "conv3_res3_elu"
  type: "ELU"
  bottom: "conv3_res3"
  top: "conv3_res3"
  elu_param {
    alpha: 1
  }
}
layer {
  name: "conv3_res4_conv1"
  type: "Convolution"
  bottom: "conv3_res3"
  top: "conv3_res4_conv1"
  param {
    lr_mult: 1
    decay_mult: 1
  }
  convolution_param {
    num_output: 64
    pad: 0
    kernel_size: 1
    stride: 1
    weight_filler {
      type: "xavier"
    }
  }
}
layer {
  name: "conv3_res4_conv1_elu"
  type: "ELU"
  bottom: "conv3_res4_conv1"
  top: "conv3_res4_conv1"
  elu_param {
    alpha: 1
  }
}
layer {
  name: "conv3_res4_conv2"
  type: "Convolution"
  bottom: "conv3_res4_conv1"
  top: "conv3_res4_conv2"
  param {
    lr_mult: 1
    decay_mult: 1
  }
  convolution_param {
    num_output: 64
    pad: 1
    kernel_size: 3
    stride: 1
    weight_filler {
      type: "xavier"
    }
  }
}
layer {
  name: "conv3_res4_conv2_elu"
  type: "ELU"
  bottom: "conv3_res4_conv2"
  top: "conv3_res4_conv2"
  elu_param {
    alpha: 1
  }
}
layer {
  name: "conv3_res4_conv3"
  type: "Convolution"
  bottom: "conv3_res4_conv2"
  top: "conv3_res4_conv3"
  param {
    lr_mult: 1
    decay_mult: 1
  }
  convolution_param {
    num_output: 256
    pad: 0
    kernel_size: 1
    stride: 1
    weight_filler {
      type: "xavier"
    }
  }
}
layer {
  name: "conv3_res4"
  type: "Eltwise"
  bottom: "conv3_res3"
  bottom: "conv3_res4_conv3"
  bottom: "conv1_conv3_proj"
  bottom: "conv2_conv3_proj"
  top: "conv3_res4"
}
layer {
  name: "pool3"
  type: "Pooling"
  bottom: "conv3_res4"
  top: "pool3"
  pooling_param {
    pool: MAX
    kernel_size: 2
    stride: 2
    pad: 0
  }
}
layer {
  name: "pool3_elu"
  type: "ELU"
  bottom: "pool3"
  top: "pool3"
  elu_param {
    alpha: 1
  }
}
layer {
  name: "conv3_conv4_proj"
  type: "Convolution"
  bottom: "pool3"
  top: "conv3_conv4_proj"
  param {
    lr_mult: 1
    decay_mult: 1
  }
  convolution_param {
    num_output: 512
    pad: 0
    kernel_size: 1
    stride: 1
    weight_filler {
      type: "xavier"
    }
  }
}
layer {
  name: "conv3_conv5_proj"
  type: "Convolution"
  bottom: "pool3"
  top: "conv3_conv5_proj"
  param {
    lr_mult: 1
    decay_mult: 1
  }
  convolution_param {
    num_output: 1024
    pad: 0
    kernel_size: 1
    stride: 2
    weight_filler {
      type: "xavier"
    }
  }
}
layer {
  name: "conv4_res1_proj"
  type: "Convolution"
  bottom: "pool3"
  top: "conv4_res1_proj"
  param {
    lr_mult: 1
    decay_mult: 1
  }
  convolution_param {
    num_output: 512
    pad: 0
    kernel_size: 1
    stride: 1
    weight_filler {
      type: "xavier"
    }
  }
}
layer {
  name: "conv4_res1_conv1"
  type: "Convolution"
  bottom: "pool3"
  top: "conv4_res1_conv1"
  param {
    lr_mult: 1
    decay_mult: 1
  }
  convolution_param {
    num_output: 128
    pad: 0
    kernel_size: 1
    stride: 1
    weight_filler {
      type: "xavier"
    }
  }
}
layer {
  name: "conv4_res1_conv1_elu"
  type: "ELU"
  bottom: "conv4_res1_conv1"
  top: "conv4_res1_conv1"
  elu_param {
    alpha: 1
  }
}
layer {
  name: "conv4_res1_conv2"
  type: "Convolution"
  bottom: "conv4_res1_conv1"
  top: "conv4_res1_conv2"
  param {
    lr_mult: 1
    decay_mult: 1
  }
  convolution_param {
    num_output: 128
    pad: 1
    kernel_size: 3
    stride: 1
    weight_filler {
      type: "xavier"
    }
  }
}
layer {
  name: "conv4_res1_conv2_elu"
  type: "ELU"
  bottom: "conv4_res1_conv2"
  top: "conv4_res1_conv2"
  elu_param {
    alpha: 1
  }
}
layer {
  name: "conv4_res1_conv3"
  type: "Convolution"
  bottom: "conv4_res1_conv2"
  top: "conv4_res1_conv3"
  param {
    lr_mult: 1
    decay_mult: 1
  }
  convolution_param {
    num_output: 512
    pad: 0
    kernel_size: 1
    stride: 1
    weight_filler {
      type: "xavier"
    }
  }
}
layer {
  name: "conv4_res1"
  type: "Eltwise"
  bottom: "conv4_res1_proj"
  bottom: "conv4_res1_conv3"
  top: "conv4_res1"
}
layer {
  name: "conv4_res1_elu"
  type: "ELU"
  bottom: "conv4_res1"
  top: "conv4_res1"
  elu_param {
    alpha: 1
  }
}
layer {
  name: "conv4_res2_conv1"
  type: "Convolution"
  bottom: "conv4_res1"
  top: "conv4_res2_conv1"
  param {
    lr_mult: 1
    decay_mult: 1
  }
  convolution_param {
    num_output: 128
    bias_term: false
    stride: 1
    weight_filler {
      type: "xavier"
    }
    pad_h: 0
    pad_w: 1
    kernel_h: 1
    kernel_w: 3
  }
}
layer {
  name: "conv4_res2_conv1_elu"
  type: "ELU"
  bottom: "conv4_res2_conv1"
  top: "conv4_res2_conv1"
  elu_param {
    alpha: 1
  }
}
layer {
  name: "conv4_res2_conv2"
  type: "Convolution"
  bottom: "conv4_res2_conv1"
  top: "conv4_res2_conv2"
  param {
    lr_mult: 1
    decay_mult: 1
  }
  convolution_param {
    num_output: 512
    bias_term: false
    stride: 1
    weight_filler {
      type: "xavier"
    }
    pad_h: 1
    pad_w: 0
    kernel_h: 3
    kernel_w: 1
  }
}
layer {
  name: "conv4_res2"
  type: "Eltwise"
  bottom: "conv4_res1"
  bottom: "conv4_res2_conv2"
  top: "conv4_res2"
}
layer {
  name: "conv4_res2_elu"
  type: "ELU"
  bottom: "conv4_res2"
  top: "conv4_res2"
  elu_param {
    alpha: 1
  }
}
layer {
  name: "conv4_res3_conv1"
  type: "Convolution"
  bottom: "conv4_res2"
  top: "conv4_res3_conv1"
  param {
    lr_mult: 1
    decay_mult: 1
  }
  convolution_param {
    num_output: 128
    pad: 0
    kernel_size: 1
    stride: 1
    weight_filler {
      type: "xavier"
    }
  }
}
layer {
  name: "conv4_res3_conv1_elu"
  type: "ELU"
  bottom: "conv4_res3_conv1"
  top: "conv4_res3_conv1"
  elu_param {
    alpha: 1
  }
}
layer {
  name: "conv4_res3_conv2"
  type: "Convolution"
  bottom: "conv4_res3_conv1"
  top: "conv4_res3_conv2"
  param {
    lr_mult: 1
    decay_mult: 1
  }
  convolution_param {
    num_output: 128
    pad: 1
    kernel_size: 3
    stride: 1
    weight_filler {
      type: "xavier"
    }
  }
}
layer {
  name: "conv4_res3_conv2_elu"
  type: "ELU"
  bottom: "conv4_res3_conv2"
  top: "conv4_res3_conv2"
  elu_param {
    alpha: 1
  }
}
layer {
  name: "conv4_res3_conv3"
  type: "Convolution"
  bottom: "conv4_res3_conv2"
  top: "conv4_res3_conv3"
  param {
    lr_mult: 1
    decay_mult: 1
  }
  convolution_param {
    num_output: 512
    pad: 0
    kernel_size: 1
    stride: 1
    weight_filler {
      type: "xavier"
    }
  }
}
layer {
  name: "conv4_res3"
  type: "Eltwise"
  bottom: "conv4_res2"
  bottom: "conv4_res3_conv3"
  top: "conv4_res3"
}
layer {
  name: "conv4_res3_elu"
  type: "ELU"
  bottom: "conv4_res3"
  top: "conv4_res3"
  elu_param {
    alpha: 1
  }
}
layer {
  name: "conv4_res4_conv1"
  type: "Convolution"
  bottom: "conv4_res3"
  top: "conv4_res4_conv1"
  param {
    lr_mult: 1
    decay_mult: 1
  }
  convolution_param {
    num_output: 128
    bias_term: false
    stride: 1
    weight_filler {
      type: "xavier"
    }
    pad_h: 0
    pad_w: 1
    kernel_h: 1
    kernel_w: 3
  }
}
layer {
  name: "conv4_res4_conv1_elu"
  type: "ELU"
  bottom: "conv4_res4_conv1"
  top: "conv4_res4_conv1"
  elu_param {
    alpha: 1
  }
}
layer {
  name: "conv4_res4_conv2"
  type: "Convolution"
  bottom: "conv4_res4_conv1"
  top: "conv4_res4_conv2"
  param {
    lr_mult: 1
    decay_mult: 1
  }
  convolution_param {
    num_output: 512
    bias_term: false
    stride: 1
    weight_filler {
      type: "xavier"
    }
    pad_h: 1
    pad_w: 0
    kernel_h: 3
    kernel_w: 1
  }
}
layer {
  name: "conv4_res4"
  type: "Eltwise"
  bottom: "conv4_res3"
  bottom: "conv4_res4_conv2"
  top: "conv4_res4"
}
layer {
  name: "conv4_res4_elu"
  type: "ELU"
  bottom: "conv4_res4"
  top: "conv4_res4"
  elu_param {
    alpha: 1
  }
}
layer {
  name: "conv4_res5_conv1"
  type: "Convolution"
  bottom: "conv4_res4"
  top: "conv4_res5_conv1"
  param {
    lr_mult: 1
    decay_mult: 1
  }
  convolution_param {
    num_output: 128
    pad: 0
    kernel_size: 1
    stride: 1
    weight_filler {
      type: "xavier"
    }
  }
}
layer {
  name: "conv4_res5_conv1_elu"
  type: "ELU"
  bottom: "conv4_res5_conv1"
  top: "conv4_res5_conv1"
  elu_param {
    alpha: 1
  }
}
layer {
  name: "conv4_res5_conv2"
  type: "Convolution"
  bottom: "conv4_res5_conv1"
  top: "conv4_res5_conv2"
  param {
    lr_mult: 1
    decay_mult: 1
  }
  convolution_param {
    num_output: 128
    pad: 1
    kernel_size: 3
    stride: 1
    weight_filler {
      type: "xavier"
    }
  }
}
layer {
  name: "conv4_res5_conv2_elu"
  type: "ELU"
  bottom: "conv4_res5_conv2"
  top: "conv4_res5_conv2"
  elu_param {
    alpha: 1
  }
}
layer {
  name: "conv4_res5_conv3"
  type: "Convolution"
  bottom: "conv4_res5_conv2"
  top: "conv4_res5_conv3"
  param {
    lr_mult: 1
    decay_mult: 1
  }
  convolution_param {
    num_output: 512
    pad: 0
    kernel_size: 1
    stride: 1
    weight_filler {
      type: "xavier"
    }
  }
}
layer {
  name: "conv4_res5"
  type: "Eltwise"
  bottom: "conv4_res4"
  bottom: "conv4_res5_conv3"
  top: "conv4_res5"
}
layer {
  name: "conv4_res5_elu"
  type: "ELU"
  bottom: "conv4_res5"
  top: "conv4_res5"
  elu_param {
    alpha: 1
  }
}
layer {
  name: "conv4_res6_conv1"
  type: "Convolution"
  bottom: "conv4_res5"
  top: "conv4_res6_conv1"
  param {
    lr_mult: 1
    decay_mult: 1
  }
  convolution_param {
    num_output: 128
    pad: 0
    kernel_size: 1
    stride: 1
    weight_filler {
      type: "xavier"
    }
  }
}
layer {
  name: "conv4_res6_conv1_elu"
  type: "ELU"
  bottom: "conv4_res6_conv1"
  top: "conv4_res6_conv1"
  elu_param {
    alpha: 1
  }
}
layer {
  name: "conv4_res6_conv2"
  type: "Convolution"
  bottom: "conv4_res6_conv1"
  top: "conv4_res6_conv2"
  param {
    lr_mult: 1
    decay_mult: 1
  }
  convolution_param {
    num_output: 128
    pad: 1
    kernel_size: 3
    stride: 1
    weight_filler {
      type: "xavier"
    }
  }
}
layer {
  name: "conv4_res6_conv2_elu"
  type: "ELU"
  bottom: "conv4_res6_conv2"
  top: "conv4_res6_conv2"
  elu_param {
    alpha: 1
  }
}
layer {
  name: "conv4_res6_conv3"
  type: "Convolution"
  bottom: "conv4_res6_conv2"
  top: "conv4_res6_conv3"
  param {
    lr_mult: 1
    decay_mult: 1
  }
  convolution_param {
    num_output: 512
    pad: 0
    kernel_size: 1
    stride: 1
    weight_filler {
      type: "xavier"
    }
  }
}
layer {
  name: "conv4_res6"
  type: "Eltwise"
  bottom: "conv4_res5"
  bottom: "conv4_res6_conv3"
  bottom: "conv2_conv4_proj"
  bottom: "conv3_conv4_proj"
  top: "conv4_res6"
}
layer {
  name: "pool4"
  type: "Pooling"
  bottom: "conv4_res6"
  top: "pool4"
  pooling_param {
    pool: MAX
    kernel_size: 2
    stride: 2
    pad: 0
  }
}
layer {
  name: "pool4_elu"
  type: "ELU"
  bottom: "pool4"
  top: "pool4"
  elu_param {
    alpha: 1
  }
}
layer {
  name: "conv4_conv5_proj"
  type: "Convolution"
  bottom: "pool4"
  top: "conv4_conv5_proj"
  param {
    lr_mult: 1
    decay_mult: 1
  }
  convolution_param {
    num_output: 1024
    pad: 0
    kernel_size: 1
    stride: 1
    weight_filler {
      type: "xavier"
    }
  }
}
layer {
  name: "conv5_res1_proj"
  type: "Convolution"
  bottom: "pool4"
  top: "conv5_res1_proj"
  param {
    lr_mult: 1
    decay_mult: 1
  }
  convolution_param {
    num_output: 1024
    pad: 0
    kernel_size: 1
    stride: 1
    weight_filler {
      type: "xavier"
    }
  }
}
layer {
  name: "conv5_res1_conv1"
  type: "Convolution"
  bottom: "pool4"
  top: "conv5_res1_conv1"
  param {
    lr_mult: 1
    decay_mult: 1
  }
  convolution_param {
    num_output: 256
    pad: 0
    kernel_size: 1
    stride: 1
    weight_filler {
      type: "xavier"
    }
  }
}
layer {
  name: "conv5_res1_conv1_elu"
  type: "ELU"
  bottom: "conv5_res1_conv1"
  top: "conv5_res1_conv1"
  elu_param {
    alpha: 1
  }
}
layer {
  name: "conv5_res1_conv2"
  type: "Convolution"
  bottom: "conv5_res1_conv1"
  top: "conv5_res1_conv2"
  param {
    lr_mult: 1
    decay_mult: 1
  }
  convolution_param {
    num_output: 256
    pad: 1
    kernel_size: 3
    stride: 1
    weight_filler {
      type: "xavier"
    }
  }
}
layer {
  name: "conv5_res1_conv2_elu"
  type: "ELU"
  bottom: "conv5_res1_conv2"
  top: "conv5_res1_conv2"
  elu_param {
    alpha: 1
  }
}
layer {
  name: "conv5_res1_conv3"
  type: "Convolution"
  bottom: "conv5_res1_conv2"
  top: "conv5_res1_conv3"
  param {
    lr_mult: 1
    decay_mult: 1
  }
  convolution_param {
    num_output: 1024
    pad: 0
    kernel_size: 1
    stride: 1
    weight_filler {
      type: "xavier"
    }
  }
}
layer {
  name: "conv5_res1"
  type: "Eltwise"
  bottom: "conv5_res1_proj"
  bottom: "conv5_res1_conv3"
  top: "conv5_res1"
}
layer {
  name: "conv5_res1_elu"
  type: "ELU"
  bottom: "conv5_res1"
  top: "conv5_res1"
  elu_param {
    alpha: 1
  }
}
layer {
  name: "conv5_res2_conv1"
  type: "Convolution"
  bottom: "conv5_res1"
  top: "conv5_res2_conv1"
  param {
    lr_mult: 1
    decay_mult: 1
  }
  convolution_param {
    num_output: 256
    bias_term: false
    stride: 1
    weight_filler {
      type: "xavier"
    }
    pad_h: 0
    pad_w: 1
    kernel_h: 1
    kernel_w: 3
  }
}
layer {
  name: "conv5_res2_conv1_elu"
  type: "ELU"
  bottom: "conv5_res2_conv1"
  top: "conv5_res2_conv1"
  elu_param {
    alpha: 1
  }
}
layer {
  name: "conv5_res2_conv2"
  type: "Convolution"
  bottom: "conv5_res2_conv1"
  top: "conv5_res2_conv2"
  param {
    lr_mult: 1
    decay_mult: 1
  }
  convolution_param {
    num_output: 1024
    bias_term: false
    stride: 1
    weight_filler {
      type: "xavier"
    }
    pad_h: 1
    pad_w: 0
    kernel_h: 3
    kernel_w: 1
  }
}
layer {
  name: "conv5_res2"
  type: "Eltwise"
  bottom: "conv5_res1"
  bottom: "conv5_res2_conv2"
  top: "conv5_res2"
}
layer {
  name: "conv5_res2_elu"
  type: "ELU"
  bottom: "conv5_res2"
  top: "conv5_res2"
  elu_param {
    alpha: 1
  }
}
layer {
  name: "conv5_res3_conv1"
  type: "Convolution"
  bottom: "conv5_res2"
  top: "conv5_res3_conv1"
  param {
    lr_mult: 1
    decay_mult: 1
  }
  convolution_param {
    num_output: 256
    pad: 0
    kernel_size: 1
    stride: 1
    weight_filler {
      type: "xavier"
    }
  }
}
layer {
  name: "conv5_res3_conv1_elu"
  type: "ELU"
  bottom: "conv5_res3_conv1"
  top: "conv5_res3_conv1"
  elu_param {
    alpha: 1
  }
}
layer {
  name: "conv5_res3_conv2"
  type: "Convolution"
  bottom: "conv5_res3_conv1"
  top: "conv5_res3_conv2"
  param {
    lr_mult: 1
    decay_mult: 1
  }
  convolution_param {
    num_output: 256
    pad: 1
    kernel_size: 3
    stride: 1
    weight_filler {
      type: "xavier"
    }
  }
}
layer {
  name: "conv5_res3_conv2_elu"
  type: "ELU"
  bottom: "conv5_res3_conv2"
  top: "conv5_res3_conv2"
  elu_param {
    alpha: 1
  }
}
layer {
  name: "conv5_res3_conv3"
  type: "Convolution"
  bottom: "conv5_res3_conv2"
  top: "conv5_res3_conv3"
  param {
    lr_mult: 1
    decay_mult: 1
  }
  convolution_param {
    num_output: 1024
    pad: 0
    kernel_size: 1
    stride: 1
    weight_filler {
      type: "xavier"
    }
  }
}
layer {
  name: "conv5_res3"
  type: "Eltwise"
  bottom: "conv5_res2"
  bottom: "conv5_res3_conv3"
  bottom: "conv2_conv5_proj"
  bottom: "conv3_conv5_proj"
  bottom: "conv4_conv5_proj"
  top: "conv5_res3"
}
layer {
  name: "conv5_res3_elu"
  type: "ELU"
  bottom: "conv5_res3"
  top: "conv5_res3"
  elu_param {
    alpha: 1
  }
}
layer {
  name: "pool5"
  type: "Pooling"
  bottom: "conv5_res3"
  top: "pool5"
  pooling_param {
    pool: AVE
    global_pooling: true
  }
}
layer {
  name: "pool5_drop1"
  type: "Dropout"
  bottom: "pool5"
  top: "pool5_drop1"
  dropout_param {
    dropout_ratio: 0.2
  }
}
layer {
  name: "fc"
  type: "InnerProduct"
  bottom: "pool5_drop1"
  top: "fc"
  param {
    lr_mult: 1
    decay_mult: 1
  }
  param {
    lr_mult: 2
    decay_mult: 0
  }
  inner_product_param {
    num_output: 1000
    weight_filler {
      type: "msra"
    }
    bias_filler {
      value: 0
    }
  }
}
layer {
  name: "loss"
  type: "SoftmaxWithLoss"
  bottom: "fc"
  bottom: "label"
  top: "loss"
}
I0918 23:20:30.363081 11578 layer_factory.hpp:77] Creating layer data
I0918 23:20:30.363548 11578 net.cpp:91] Creating Layer data
I0918 23:20:30.363562 11578 net.cpp:399] data -> data
I0918 23:20:30.363581 11578 net.cpp:399] data -> label
I0918 23:20:30.364159 11614 db_lmdb.cpp:35] Opened lmdb /media/dereyly/data_one/data/CAFFE_DATA/imagenet_train_150
I0918 23:20:30.370381 11578 data_layer.cpp:41] output data size: 256,3,128,128
I0918 23:20:30.435603 11578 net.cpp:141] Setting up data
I0918 23:20:30.435659 11578 net.cpp:148] Top shape: 256 3 128 128 (12582912)
I0918 23:20:30.435665 11578 net.cpp:148] Top shape: 256 (256)
I0918 23:20:30.435667 11578 net.cpp:156] Memory required for data: 50332672
I0918 23:20:30.435689 11578 layer_factory.hpp:77] Creating layer conv1
I0918 23:20:30.435724 11578 net.cpp:91] Creating Layer conv1
I0918 23:20:30.435730 11578 net.cpp:425] conv1 <- data
I0918 23:20:30.435753 11578 net.cpp:399] conv1 -> conv1
I0918 23:20:30.622221 11578 net.cpp:141] Setting up conv1
I0918 23:20:30.622247 11578 net.cpp:148] Top shape: 256 64 61 61 (60964864)
I0918 23:20:30.622252 11578 net.cpp:156] Memory required for data: 294192128
I0918 23:20:30.622268 11578 layer_factory.hpp:77] Creating layer conv1_relu
I0918 23:20:30.622282 11578 net.cpp:91] Creating Layer conv1_relu
I0918 23:20:30.622287 11578 net.cpp:425] conv1_relu <- conv1
I0918 23:20:30.622313 11578 net.cpp:386] conv1_relu -> conv1 (in-place)
I0918 23:20:30.622565 11578 net.cpp:141] Setting up conv1_relu
I0918 23:20:30.622575 11578 net.cpp:148] Top shape: 256 64 61 61 (60964864)
I0918 23:20:30.622577 11578 net.cpp:156] Memory required for data: 538051584
I0918 23:20:30.622581 11578 layer_factory.hpp:77] Creating layer pool1
I0918 23:20:30.622587 11578 net.cpp:91] Creating Layer pool1
I0918 23:20:30.622589 11578 net.cpp:425] pool1 <- conv1
I0918 23:20:30.622593 11578 net.cpp:399] pool1 -> pool1
I0918 23:20:30.622635 11578 net.cpp:141] Setting up pool1
I0918 23:20:30.622642 11578 net.cpp:148] Top shape: 256 64 31 31 (15745024)
I0918 23:20:30.622645 11578 net.cpp:156] Memory required for data: 601031680
I0918 23:20:30.622648 11578 layer_factory.hpp:77] Creating layer pool1_elu
I0918 23:20:30.622653 11578 net.cpp:91] Creating Layer pool1_elu
I0918 23:20:30.622656 11578 net.cpp:425] pool1_elu <- pool1
I0918 23:20:30.622659 11578 net.cpp:386] pool1_elu -> pool1 (in-place)
I0918 23:20:30.622665 11578 net.cpp:141] Setting up pool1_elu
I0918 23:20:30.622668 11578 net.cpp:148] Top shape: 256 64 31 31 (15745024)
I0918 23:20:30.622670 11578 net.cpp:156] Memory required for data: 664011776
I0918 23:20:30.622673 11578 layer_factory.hpp:77] Creating layer pool1_pool1_elu_0_split
I0918 23:20:30.622680 11578 net.cpp:91] Creating Layer pool1_pool1_elu_0_split
I0918 23:20:30.622684 11578 net.cpp:425] pool1_pool1_elu_0_split <- pool1
I0918 23:20:30.622689 11578 net.cpp:399] pool1_pool1_elu_0_split -> pool1_pool1_elu_0_split_0
I0918 23:20:30.622696 11578 net.cpp:399] pool1_pool1_elu_0_split -> pool1_pool1_elu_0_split_1
I0918 23:20:30.622704 11578 net.cpp:399] pool1_pool1_elu_0_split -> pool1_pool1_elu_0_split_2
I0918 23:20:30.622711 11578 net.cpp:399] pool1_pool1_elu_0_split -> pool1_pool1_elu_0_split_3
I0918 23:20:30.622755 11578 net.cpp:141] Setting up pool1_pool1_elu_0_split
I0918 23:20:30.622761 11578 net.cpp:148] Top shape: 256 64 31 31 (15745024)
I0918 23:20:30.622764 11578 net.cpp:148] Top shape: 256 64 31 31 (15745024)
I0918 23:20:30.622766 11578 net.cpp:148] Top shape: 256 64 31 31 (15745024)
I0918 23:20:30.622769 11578 net.cpp:148] Top shape: 256 64 31 31 (15745024)
I0918 23:20:30.622771 11578 net.cpp:156] Memory required for data: 915932160
I0918 23:20:30.622774 11578 layer_factory.hpp:77] Creating layer conv1_conv2_proj
I0918 23:20:30.622782 11578 net.cpp:91] Creating Layer conv1_conv2_proj
I0918 23:20:30.622784 11578 net.cpp:425] conv1_conv2_proj <- pool1_pool1_elu_0_split_0
I0918 23:20:30.622788 11578 net.cpp:399] conv1_conv2_proj -> conv1_conv2_proj
I0918 23:20:30.623787 11578 net.cpp:141] Setting up conv1_conv2_proj
I0918 23:20:30.623797 11578 net.cpp:148] Top shape: 256 128 31 31 (31490048)
I0918 23:20:30.623811 11578 net.cpp:156] Memory required for data: 1041892352
I0918 23:20:30.623818 11578 layer_factory.hpp:77] Creating layer conv1_conv3_proj
I0918 23:20:30.623826 11578 net.cpp:91] Creating Layer conv1_conv3_proj
I0918 23:20:30.623828 11578 net.cpp:425] conv1_conv3_proj <- pool1_pool1_elu_0_split_1
I0918 23:20:30.623834 11578 net.cpp:399] conv1_conv3_proj -> conv1_conv3_proj
I0918 23:20:30.624557 11578 net.cpp:141] Setting up conv1_conv3_proj
I0918 23:20:30.624567 11578 net.cpp:148] Top shape: 256 256 16 16 (16777216)
I0918 23:20:30.624570 11578 net.cpp:156] Memory required for data: 1109001216
I0918 23:20:30.624577 11578 layer_factory.hpp:77] Creating layer conv2_res1_proj
I0918 23:20:30.624584 11578 net.cpp:91] Creating Layer conv2_res1_proj
I0918 23:20:30.624588 11578 net.cpp:425] conv2_res1_proj <- pool1_pool1_elu_0_split_2
I0918 23:20:30.624591 11578 net.cpp:399] conv2_res1_proj -> conv2_res1_proj
I0918 23:20:30.625277 11578 net.cpp:141] Setting up conv2_res1_proj
I0918 23:20:30.625285 11578 net.cpp:148] Top shape: 256 128 31 31 (31490048)
I0918 23:20:30.625288 11578 net.cpp:156] Memory required for data: 1234961408
I0918 23:20:30.625308 11578 layer_factory.hpp:77] Creating layer conv2_res1_conv1
I0918 23:20:30.625314 11578 net.cpp:91] Creating Layer conv2_res1_conv1
I0918 23:20:30.625318 11578 net.cpp:425] conv2_res1_conv1 <- pool1_pool1_elu_0_split_3
I0918 23:20:30.625322 11578 net.cpp:399] conv2_res1_conv1 -> conv2_res1_conv1
I0918 23:20:30.626044 11578 net.cpp:141] Setting up conv2_res1_conv1
I0918 23:20:30.626052 11578 net.cpp:148] Top shape: 256 32 31 31 (7872512)
I0918 23:20:30.626055 11578 net.cpp:156] Memory required for data: 1266451456
I0918 23:20:30.626061 11578 layer_factory.hpp:77] Creating layer conv2_res1_conv1_elu
I0918 23:20:30.626067 11578 net.cpp:91] Creating Layer conv2_res1_conv1_elu
I0918 23:20:30.626070 11578 net.cpp:425] conv2_res1_conv1_elu <- conv2_res1_conv1
I0918 23:20:30.626075 11578 net.cpp:386] conv2_res1_conv1_elu -> conv2_res1_conv1 (in-place)
I0918 23:20:30.626080 11578 net.cpp:141] Setting up conv2_res1_conv1_elu
I0918 23:20:30.626083 11578 net.cpp:148] Top shape: 256 32 31 31 (7872512)
I0918 23:20:30.626085 11578 net.cpp:156] Memory required for data: 1297941504
I0918 23:20:30.626087 11578 layer_factory.hpp:77] Creating layer conv2_res1_conv2
I0918 23:20:30.626093 11578 net.cpp:91] Creating Layer conv2_res1_conv2
I0918 23:20:30.626096 11578 net.cpp:425] conv2_res1_conv2 <- conv2_res1_conv1
I0918 23:20:30.626101 11578 net.cpp:399] conv2_res1_conv2 -> conv2_res1_conv2
I0918 23:20:30.626839 11578 net.cpp:141] Setting up conv2_res1_conv2
I0918 23:20:30.626848 11578 net.cpp:148] Top shape: 256 32 31 31 (7872512)
I0918 23:20:30.626852 11578 net.cpp:156] Memory required for data: 1329431552
I0918 23:20:30.626855 11578 layer_factory.hpp:77] Creating layer conv2_res1_conv2_elu
I0918 23:20:30.626860 11578 net.cpp:91] Creating Layer conv2_res1_conv2_elu
I0918 23:20:30.626863 11578 net.cpp:425] conv2_res1_conv2_elu <- conv2_res1_conv2
I0918 23:20:30.626868 11578 net.cpp:386] conv2_res1_conv2_elu -> conv2_res1_conv2 (in-place)
I0918 23:20:30.626871 11578 net.cpp:141] Setting up conv2_res1_conv2_elu
I0918 23:20:30.626875 11578 net.cpp:148] Top shape: 256 32 31 31 (7872512)
I0918 23:20:30.626878 11578 net.cpp:156] Memory required for data: 1360921600
I0918 23:20:30.626879 11578 layer_factory.hpp:77] Creating layer conv2_res1_conv3
I0918 23:20:30.626886 11578 net.cpp:91] Creating Layer conv2_res1_conv3
I0918 23:20:30.626888 11578 net.cpp:425] conv2_res1_conv3 <- conv2_res1_conv2
I0918 23:20:30.626893 11578 net.cpp:399] conv2_res1_conv3 -> conv2_res1_conv3
I0918 23:20:30.627594 11578 net.cpp:141] Setting up conv2_res1_conv3
I0918 23:20:30.627604 11578 net.cpp:148] Top shape: 256 128 31 31 (31490048)
I0918 23:20:30.627606 11578 net.cpp:156] Memory required for data: 1486881792
I0918 23:20:30.627610 11578 layer_factory.hpp:77] Creating layer conv2_res1
I0918 23:20:30.627615 11578 net.cpp:91] Creating Layer conv2_res1
I0918 23:20:30.627619 11578 net.cpp:425] conv2_res1 <- conv2_res1_proj
I0918 23:20:30.627627 11578 net.cpp:425] conv2_res1 <- conv2_res1_conv3
I0918 23:20:30.627632 11578 net.cpp:399] conv2_res1 -> conv2_res1
I0918 23:20:30.627653 11578 net.cpp:141] Setting up conv2_res1
I0918 23:20:30.627658 11578 net.cpp:148] Top shape: 256 128 31 31 (31490048)
I0918 23:20:30.627660 11578 net.cpp:156] Memory required for data: 1612841984
I0918 23:20:30.627663 11578 layer_factory.hpp:77] Creating layer conv2_res1_elu
I0918 23:20:30.627667 11578 net.cpp:91] Creating Layer conv2_res1_elu
I0918 23:20:30.627670 11578 net.cpp:425] conv2_res1_elu <- conv2_res1
I0918 23:20:30.627672 11578 net.cpp:386] conv2_res1_elu -> conv2_res1 (in-place)
I0918 23:20:30.627676 11578 net.cpp:141] Setting up conv2_res1_elu
I0918 23:20:30.627679 11578 net.cpp:148] Top shape: 256 128 31 31 (31490048)
I0918 23:20:30.627681 11578 net.cpp:156] Memory required for data: 1738802176
I0918 23:20:30.627684 11578 layer_factory.hpp:77] Creating layer conv2_res1_conv2_res1_elu_0_split
I0918 23:20:30.627689 11578 net.cpp:91] Creating Layer conv2_res1_conv2_res1_elu_0_split
I0918 23:20:30.627692 11578 net.cpp:425] conv2_res1_conv2_res1_elu_0_split <- conv2_res1
I0918 23:20:30.627696 11578 net.cpp:399] conv2_res1_conv2_res1_elu_0_split -> conv2_res1_conv2_res1_elu_0_split_0
I0918 23:20:30.627699 11578 net.cpp:399] conv2_res1_conv2_res1_elu_0_split -> conv2_res1_conv2_res1_elu_0_split_1
I0918 23:20:30.627728 11578 net.cpp:141] Setting up conv2_res1_conv2_res1_elu_0_split
I0918 23:20:30.627733 11578 net.cpp:148] Top shape: 256 128 31 31 (31490048)
I0918 23:20:30.627737 11578 net.cpp:148] Top shape: 256 128 31 31 (31490048)
I0918 23:20:30.627738 11578 net.cpp:156] Memory required for data: 1990722560
I0918 23:20:30.627742 11578 layer_factory.hpp:77] Creating layer conv2_res2_conv1
I0918 23:20:30.627748 11578 net.cpp:91] Creating Layer conv2_res2_conv1
I0918 23:20:30.627750 11578 net.cpp:425] conv2_res2_conv1 <- conv2_res1_conv2_res1_elu_0_split_0
I0918 23:20:30.627755 11578 net.cpp:399] conv2_res2_conv1 -> conv2_res2_conv1
I0918 23:20:30.628377 11578 net.cpp:141] Setting up conv2_res2_conv1
I0918 23:20:30.628386 11578 net.cpp:148] Top shape: 256 32 31 31 (7872512)
I0918 23:20:30.628388 11578 net.cpp:156] Memory required for data: 2022212608
I0918 23:20:30.628392 11578 layer_factory.hpp:77] Creating layer conv2_res2_conv1_elu
I0918 23:20:30.628397 11578 net.cpp:91] Creating Layer conv2_res2_conv1_elu
I0918 23:20:30.628401 11578 net.cpp:425] conv2_res2_conv1_elu <- conv2_res2_conv1
I0918 23:20:30.628404 11578 net.cpp:386] conv2_res2_conv1_elu -> conv2_res2_conv1 (in-place)
I0918 23:20:30.628408 11578 net.cpp:141] Setting up conv2_res2_conv1_elu
I0918 23:20:30.628412 11578 net.cpp:148] Top shape: 256 32 31 31 (7872512)
I0918 23:20:30.628414 11578 net.cpp:156] Memory required for data: 2053702656
I0918 23:20:30.628417 11578 layer_factory.hpp:77] Creating layer conv2_res2_conv2
I0918 23:20:30.628423 11578 net.cpp:91] Creating Layer conv2_res2_conv2
I0918 23:20:30.628427 11578 net.cpp:425] conv2_res2_conv2 <- conv2_res2_conv1
I0918 23:20:30.628430 11578 net.cpp:399] conv2_res2_conv2 -> conv2_res2_conv2
I0918 23:20:30.629221 11578 net.cpp:141] Setting up conv2_res2_conv2
I0918 23:20:30.629230 11578 net.cpp:148] Top shape: 256 128 31 31 (31490048)
I0918 23:20:30.629233 11578 net.cpp:156] Memory required for data: 2179662848
I0918 23:20:30.629237 11578 layer_factory.hpp:77] Creating layer conv2_res2
I0918 23:20:30.629242 11578 net.cpp:91] Creating Layer conv2_res2
I0918 23:20:30.629248 11578 net.cpp:425] conv2_res2 <- conv2_res1_conv2_res1_elu_0_split_1
I0918 23:20:30.629252 11578 net.cpp:425] conv2_res2 <- conv2_res2_conv2
I0918 23:20:30.629257 11578 net.cpp:399] conv2_res2 -> conv2_res2
I0918 23:20:30.629274 11578 net.cpp:141] Setting up conv2_res2
I0918 23:20:30.629278 11578 net.cpp:148] Top shape: 256 128 31 31 (31490048)
I0918 23:20:30.629281 11578 net.cpp:156] Memory required for data: 2305623040
I0918 23:20:30.629283 11578 layer_factory.hpp:77] Creating layer conv2_res2_elu
I0918 23:20:30.629288 11578 net.cpp:91] Creating Layer conv2_res2_elu
I0918 23:20:30.629299 11578 net.cpp:425] conv2_res2_elu <- conv2_res2
I0918 23:20:30.629303 11578 net.cpp:386] conv2_res2_elu -> conv2_res2 (in-place)
I0918 23:20:30.629307 11578 net.cpp:141] Setting up conv2_res2_elu
I0918 23:20:30.629310 11578 net.cpp:148] Top shape: 256 128 31 31 (31490048)
I0918 23:20:30.629312 11578 net.cpp:156] Memory required for data: 2431583232
I0918 23:20:30.629315 11578 layer_factory.hpp:77] Creating layer conv2_res2_conv2_res2_elu_0_split
I0918 23:20:30.629319 11578 net.cpp:91] Creating Layer conv2_res2_conv2_res2_elu_0_split
I0918 23:20:30.629322 11578 net.cpp:425] conv2_res2_conv2_res2_elu_0_split <- conv2_res2
I0918 23:20:30.629325 11578 net.cpp:399] conv2_res2_conv2_res2_elu_0_split -> conv2_res2_conv2_res2_elu_0_split_0
I0918 23:20:30.629329 11578 net.cpp:399] conv2_res2_conv2_res2_elu_0_split -> conv2_res2_conv2_res2_elu_0_split_1
I0918 23:20:30.629354 11578 net.cpp:141] Setting up conv2_res2_conv2_res2_elu_0_split
I0918 23:20:30.629359 11578 net.cpp:148] Top shape: 256 128 31 31 (31490048)
I0918 23:20:30.629362 11578 net.cpp:148] Top shape: 256 128 31 31 (31490048)
I0918 23:20:30.629364 11578 net.cpp:156] Memory required for data: 2683503616
I0918 23:20:30.629366 11578 layer_factory.hpp:77] Creating layer conv2_res3_conv1
I0918 23:20:30.629374 11578 net.cpp:91] Creating Layer conv2_res3_conv1
I0918 23:20:30.629376 11578 net.cpp:425] conv2_res3_conv1 <- conv2_res2_conv2_res2_elu_0_split_0
I0918 23:20:30.629379 11578 net.cpp:399] conv2_res3_conv1 -> conv2_res3_conv1
I0918 23:20:30.630089 11578 net.cpp:141] Setting up conv2_res3_conv1
I0918 23:20:30.630115 11578 net.cpp:148] Top shape: 256 32 31 31 (7872512)
I0918 23:20:30.630133 11578 net.cpp:156] Memory required for data: 2714993664
I0918 23:20:30.630159 11578 layer_factory.hpp:77] Creating layer conv2_res3_conv1_elu
I0918 23:20:30.630182 11578 net.cpp:91] Creating Layer conv2_res3_conv1_elu
I0918 23:20:30.630188 11578 net.cpp:425] conv2_res3_conv1_elu <- conv2_res3_conv1
I0918 23:20:30.630194 11578 net.cpp:386] conv2_res3_conv1_elu -> conv2_res3_conv1 (in-place)
I0918 23:20:30.630218 11578 net.cpp:141] Setting up conv2_res3_conv1_elu
I0918 23:20:30.630225 11578 net.cpp:148] Top shape: 256 32 31 31 (7872512)
I0918 23:20:30.630229 11578 net.cpp:156] Memory required for data: 2746483712
I0918 23:20:30.630249 11578 layer_factory.hpp:77] Creating layer conv2_res3_conv2
I0918 23:20:30.630257 11578 net.cpp:91] Creating Layer conv2_res3_conv2
I0918 23:20:30.630272 11578 net.cpp:425] conv2_res3_conv2 <- conv2_res3_conv1
I0918 23:20:30.630278 11578 net.cpp:399] conv2_res3_conv2 -> conv2_res3_conv2
I0918 23:20:30.631079 11578 net.cpp:141] Setting up conv2_res3_conv2
I0918 23:20:30.631089 11578 net.cpp:148] Top shape: 256 32 31 31 (7872512)
I0918 23:20:30.631093 11578 net.cpp:156] Memory required for data: 2777973760
I0918 23:20:30.631098 11578 layer_factory.hpp:77] Creating layer conv2_res3_conv2_elu
I0918 23:20:30.631101 11578 net.cpp:91] Creating Layer conv2_res3_conv2_elu
I0918 23:20:30.631104 11578 net.cpp:425] conv2_res3_conv2_elu <- conv2_res3_conv2
I0918 23:20:30.631108 11578 net.cpp:386] conv2_res3_conv2_elu -> conv2_res3_conv2 (in-place)
I0918 23:20:30.631113 11578 net.cpp:141] Setting up conv2_res3_conv2_elu
I0918 23:20:30.631115 11578 net.cpp:148] Top shape: 256 32 31 31 (7872512)
I0918 23:20:30.631119 11578 net.cpp:156] Memory required for data: 2809463808
I0918 23:20:30.631120 11578 layer_factory.hpp:77] Creating layer conv2_res3_conv3
I0918 23:20:30.631126 11578 net.cpp:91] Creating Layer conv2_res3_conv3
I0918 23:20:30.631129 11578 net.cpp:425] conv2_res3_conv3 <- conv2_res3_conv2
I0918 23:20:30.631134 11578 net.cpp:399] conv2_res3_conv3 -> conv2_res3_conv3
I0918 23:20:30.631844 11578 net.cpp:141] Setting up conv2_res3_conv3
I0918 23:20:30.631853 11578 net.cpp:148] Top shape: 256 128 31 31 (31490048)
I0918 23:20:30.631856 11578 net.cpp:156] Memory required for data: 2935424000
I0918 23:20:30.631860 11578 layer_factory.hpp:77] Creating layer conv2_res3
I0918 23:20:30.631865 11578 net.cpp:91] Creating Layer conv2_res3
I0918 23:20:30.631873 11578 net.cpp:425] conv2_res3 <- conv2_res2_conv2_res2_elu_0_split_1
I0918 23:20:30.631877 11578 net.cpp:425] conv2_res3 <- conv2_res3_conv3
I0918 23:20:30.631880 11578 net.cpp:425] conv2_res3 <- conv1_conv2_proj
I0918 23:20:30.631883 11578 net.cpp:399] conv2_res3 -> conv2_res3
I0918 23:20:30.631901 11578 net.cpp:141] Setting up conv2_res3
I0918 23:20:30.631906 11578 net.cpp:148] Top shape: 256 128 31 31 (31490048)
I0918 23:20:30.631908 11578 net.cpp:156] Memory required for data: 3061384192
I0918 23:20:30.631911 11578 layer_factory.hpp:77] Creating layer pool2
I0918 23:20:30.631916 11578 net.cpp:91] Creating Layer pool2
I0918 23:20:30.631919 11578 net.cpp:425] pool2 <- conv2_res3
I0918 23:20:30.631923 11578 net.cpp:399] pool2 -> pool2
I0918 23:20:30.631947 11578 net.cpp:141] Setting up pool2
I0918 23:20:30.631953 11578 net.cpp:148] Top shape: 256 128 16 16 (8388608)
I0918 23:20:30.631954 11578 net.cpp:156] Memory required for data: 3094938624
I0918 23:20:30.631956 11578 layer_factory.hpp:77] Creating layer pool2_elu
I0918 23:20:30.631960 11578 net.cpp:91] Creating Layer pool2_elu
I0918 23:20:30.631963 11578 net.cpp:425] pool2_elu <- pool2
I0918 23:20:30.631965 11578 net.cpp:386] pool2_elu -> pool2 (in-place)
I0918 23:20:30.631969 11578 net.cpp:141] Setting up pool2_elu
I0918 23:20:30.631973 11578 net.cpp:148] Top shape: 256 128 16 16 (8388608)
I0918 23:20:30.631974 11578 net.cpp:156] Memory required for data: 3128493056
I0918 23:20:30.631976 11578 layer_factory.hpp:77] Creating layer pool2_pool2_elu_0_split
I0918 23:20:30.631981 11578 net.cpp:91] Creating Layer pool2_pool2_elu_0_split
I0918 23:20:30.631983 11578 net.cpp:425] pool2_pool2_elu_0_split <- pool2
I0918 23:20:30.631986 11578 net.cpp:399] pool2_pool2_elu_0_split -> pool2_pool2_elu_0_split_0
I0918 23:20:30.631990 11578 net.cpp:399] pool2_pool2_elu_0_split -> pool2_pool2_elu_0_split_1
I0918 23:20:30.631995 11578 net.cpp:399] pool2_pool2_elu_0_split -> pool2_pool2_elu_0_split_2
I0918 23:20:30.631999 11578 net.cpp:399] pool2_pool2_elu_0_split -> pool2_pool2_elu_0_split_3
I0918 23:20:30.632004 11578 net.cpp:399] pool2_pool2_elu_0_split -> pool2_pool2_elu_0_split_4
I0918 23:20:30.632047 11578 net.cpp:141] Setting up pool2_pool2_elu_0_split
I0918 23:20:30.632052 11578 net.cpp:148] Top shape: 256 128 16 16 (8388608)
I0918 23:20:30.632055 11578 net.cpp:148] Top shape: 256 128 16 16 (8388608)
I0918 23:20:30.632057 11578 net.cpp:148] Top shape: 256 128 16 16 (8388608)
I0918 23:20:30.632061 11578 net.cpp:148] Top shape: 256 128 16 16 (8388608)
I0918 23:20:30.632063 11578 net.cpp:148] Top shape: 256 128 16 16 (8388608)
I0918 23:20:30.632066 11578 net.cpp:156] Memory required for data: 3296265216
I0918 23:20:30.632067 11578 layer_factory.hpp:77] Creating layer conv2_conv3_proj
I0918 23:20:30.632076 11578 net.cpp:91] Creating Layer conv2_conv3_proj
I0918 23:20:30.632078 11578 net.cpp:425] conv2_conv3_proj <- pool2_pool2_elu_0_split_0
I0918 23:20:30.632083 11578 net.cpp:399] conv2_conv3_proj -> conv2_conv3_proj
I0918 23:20:30.633334 11578 net.cpp:141] Setting up conv2_conv3_proj
I0918 23:20:30.633348 11578 net.cpp:148] Top shape: 256 256 16 16 (16777216)
I0918 23:20:30.633352 11578 net.cpp:156] Memory required for data: 3363374080
I0918 23:20:30.633374 11578 layer_factory.hpp:77] Creating layer conv2_conv4_proj
I0918 23:20:30.633383 11578 net.cpp:91] Creating Layer conv2_conv4_proj
I0918 23:20:30.633388 11578 net.cpp:425] conv2_conv4_proj <- pool2_pool2_elu_0_split_1
I0918 23:20:30.633396 11578 net.cpp:399] conv2_conv4_proj -> conv2_conv4_proj
I0918 23:20:30.634847 11578 net.cpp:141] Setting up conv2_conv4_proj
I0918 23:20:30.634858 11578 net.cpp:148] Top shape: 256 512 8 8 (8388608)
I0918 23:20:30.634861 11578 net.cpp:156] Memory required for data: 3396928512
I0918 23:20:30.634866 11578 layer_factory.hpp:77] Creating layer conv2_conv5_proj
I0918 23:20:30.634889 11578 net.cpp:91] Creating Layer conv2_conv5_proj
I0918 23:20:30.634892 11578 net.cpp:425] conv2_conv5_proj <- pool2_pool2_elu_0_split_2
I0918 23:20:30.634898 11578 net.cpp:399] conv2_conv5_proj -> conv2_conv5_proj
I0918 23:20:30.636543 11578 net.cpp:141] Setting up conv2_conv5_proj
I0918 23:20:30.636555 11578 net.cpp:148] Top shape: 256 1024 4 4 (4194304)
I0918 23:20:30.636559 11578 net.cpp:156] Memory required for data: 3413705728
I0918 23:20:30.636562 11578 layer_factory.hpp:77] Creating layer conv3_res1_proj
I0918 23:20:30.636585 11578 net.cpp:91] Creating Layer conv3_res1_proj
I0918 23:20:30.636589 11578 net.cpp:425] conv3_res1_proj <- pool2_pool2_elu_0_split_3
I0918 23:20:30.636595 11578 net.cpp:399] conv3_res1_proj -> conv3_res1_proj
I0918 23:20:30.637482 11578 net.cpp:141] Setting up conv3_res1_proj
I0918 23:20:30.637492 11578 net.cpp:148] Top shape: 256 256 16 16 (16777216)
I0918 23:20:30.637495 11578 net.cpp:156] Memory required for data: 3480814592
I0918 23:20:30.637500 11578 layer_factory.hpp:77] Creating layer conv3_res1_conv1
I0918 23:20:30.637521 11578 net.cpp:91] Creating Layer conv3_res1_conv1
I0918 23:20:30.637524 11578 net.cpp:425] conv3_res1_conv1 <- pool2_pool2_elu_0_split_4
I0918 23:20:30.637543 11578 net.cpp:399] conv3_res1_conv1 -> conv3_res1_conv1
I0918 23:20:30.638460 11578 net.cpp:141] Setting up conv3_res1_conv1
I0918 23:20:30.638470 11578 net.cpp:148] Top shape: 256 64 16 16 (4194304)
I0918 23:20:30.638473 11578 net.cpp:156] Memory required for data: 3497591808
I0918 23:20:30.638478 11578 layer_factory.hpp:77] Creating layer conv3_res1_conv1_elu
I0918 23:20:30.638483 11578 net.cpp:91] Creating Layer conv3_res1_conv1_elu
I0918 23:20:30.638485 11578 net.cpp:425] conv3_res1_conv1_elu <- conv3_res1_conv1
I0918 23:20:30.638489 11578 net.cpp:386] conv3_res1_conv1_elu -> conv3_res1_conv1 (in-place)
I0918 23:20:30.638495 11578 net.cpp:141] Setting up conv3_res1_conv1_elu
I0918 23:20:30.638499 11578 net.cpp:148] Top shape: 256 64 16 16 (4194304)
I0918 23:20:30.638501 11578 net.cpp:156] Memory required for data: 3514369024
I0918 23:20:30.638504 11578 layer_factory.hpp:77] Creating layer conv3_res1_conv2
I0918 23:20:30.638511 11578 net.cpp:91] Creating Layer conv3_res1_conv2
I0918 23:20:30.638515 11578 net.cpp:425] conv3_res1_conv2 <- conv3_res1_conv1
I0918 23:20:30.638520 11578 net.cpp:399] conv3_res1_conv2 -> conv3_res1_conv2
I0918 23:20:30.639376 11578 net.cpp:141] Setting up conv3_res1_conv2
I0918 23:20:30.639385 11578 net.cpp:148] Top shape: 256 64 16 16 (4194304)
I0918 23:20:30.639389 11578 net.cpp:156] Memory required for data: 3531146240
I0918 23:20:30.639399 11578 layer_factory.hpp:77] Creating layer conv3_res1_conv2_elu
I0918 23:20:30.639405 11578 net.cpp:91] Creating Layer conv3_res1_conv2_elu
I0918 23:20:30.639408 11578 net.cpp:425] conv3_res1_conv2_elu <- conv3_res1_conv2
I0918 23:20:30.639412 11578 net.cpp:386] conv3_res1_conv2_elu -> conv3_res1_conv2 (in-place)
I0918 23:20:30.639417 11578 net.cpp:141] Setting up conv3_res1_conv2_elu
I0918 23:20:30.639421 11578 net.cpp:148] Top shape: 256 64 16 16 (4194304)
I0918 23:20:30.639423 11578 net.cpp:156] Memory required for data: 3547923456
I0918 23:20:30.639425 11578 layer_factory.hpp:77] Creating layer conv3_res1_conv3
I0918 23:20:30.639432 11578 net.cpp:91] Creating Layer conv3_res1_conv3
I0918 23:20:30.639436 11578 net.cpp:425] conv3_res1_conv3 <- conv3_res1_conv2
I0918 23:20:30.639439 11578 net.cpp:399] conv3_res1_conv3 -> conv3_res1_conv3
I0918 23:20:30.640314 11578 net.cpp:141] Setting up conv3_res1_conv3
I0918 23:20:30.640323 11578 net.cpp:148] Top shape: 256 256 16 16 (16777216)
I0918 23:20:30.640327 11578 net.cpp:156] Memory required for data: 3615032320
I0918 23:20:30.640331 11578 layer_factory.hpp:77] Creating layer conv3_res1
I0918 23:20:30.640338 11578 net.cpp:91] Creating Layer conv3_res1
I0918 23:20:30.640342 11578 net.cpp:425] conv3_res1 <- conv3_res1_proj
I0918 23:20:30.640346 11578 net.cpp:425] conv3_res1 <- conv3_res1_conv3
I0918 23:20:30.640349 11578 net.cpp:399] conv3_res1 -> conv3_res1
I0918 23:20:30.640367 11578 net.cpp:141] Setting up conv3_res1
I0918 23:20:30.640372 11578 net.cpp:148] Top shape: 256 256 16 16 (16777216)
I0918 23:20:30.640373 11578 net.cpp:156] Memory required for data: 3682141184
I0918 23:20:30.640377 11578 layer_factory.hpp:77] Creating layer conv3_res1_elu
I0918 23:20:30.640388 11578 net.cpp:91] Creating Layer conv3_res1_elu
I0918 23:20:30.640390 11578 net.cpp:425] conv3_res1_elu <- conv3_res1
I0918 23:20:30.640394 11578 net.cpp:386] conv3_res1_elu -> conv3_res1 (in-place)
I0918 23:20:30.640398 11578 net.cpp:141] Setting up conv3_res1_elu
I0918 23:20:30.640401 11578 net.cpp:148] Top shape: 256 256 16 16 (16777216)
I0918 23:20:30.640404 11578 net.cpp:156] Memory required for data: 3749250048
I0918 23:20:30.640406 11578 layer_factory.hpp:77] Creating layer conv3_res1_conv3_res1_elu_0_split
I0918 23:20:30.640411 11578 net.cpp:91] Creating Layer conv3_res1_conv3_res1_elu_0_split
I0918 23:20:30.640413 11578 net.cpp:425] conv3_res1_conv3_res1_elu_0_split <- conv3_res1
I0918 23:20:30.640417 11578 net.cpp:399] conv3_res1_conv3_res1_elu_0_split -> conv3_res1_conv3_res1_elu_0_split_0
I0918 23:20:30.640421 11578 net.cpp:399] conv3_res1_conv3_res1_elu_0_split -> conv3_res1_conv3_res1_elu_0_split_1
I0918 23:20:30.640449 11578 net.cpp:141] Setting up conv3_res1_conv3_res1_elu_0_split
I0918 23:20:30.640452 11578 net.cpp:148] Top shape: 256 256 16 16 (16777216)
I0918 23:20:30.640455 11578 net.cpp:148] Top shape: 256 256 16 16 (16777216)
I0918 23:20:30.640458 11578 net.cpp:156] Memory required for data: 3883467776
I0918 23:20:30.640460 11578 layer_factory.hpp:77] Creating layer conv3_res2_conv1
I0918 23:20:30.640466 11578 net.cpp:91] Creating Layer conv3_res2_conv1
I0918 23:20:30.640470 11578 net.cpp:425] conv3_res2_conv1 <- conv3_res1_conv3_res1_elu_0_split_0
I0918 23:20:30.640473 11578 net.cpp:399] conv3_res2_conv1 -> conv3_res2_conv1
I0918 23:20:30.641399 11578 net.cpp:141] Setting up conv3_res2_conv1
I0918 23:20:30.641408 11578 net.cpp:148] Top shape: 256 64 16 16 (4194304)
I0918 23:20:30.641412 11578 net.cpp:156] Memory required for data: 3900244992
I0918 23:20:30.641417 11578 layer_factory.hpp:77] Creating layer conv3_res2_conv1_elu
I0918 23:20:30.641422 11578 net.cpp:91] Creating Layer conv3_res2_conv1_elu
I0918 23:20:30.641425 11578 net.cpp:425] conv3_res2_conv1_elu <- conv3_res2_conv1
I0918 23:20:30.641429 11578 net.cpp:386] conv3_res2_conv1_elu -> conv3_res2_conv1 (in-place)
I0918 23:20:30.641434 11578 net.cpp:141] Setting up conv3_res2_conv1_elu
I0918 23:20:30.641438 11578 net.cpp:148] Top shape: 256 64 16 16 (4194304)
I0918 23:20:30.641440 11578 net.cpp:156] Memory required for data: 3917022208
I0918 23:20:30.641443 11578 layer_factory.hpp:77] Creating layer conv3_res2_conv2
I0918 23:20:30.641448 11578 net.cpp:91] Creating Layer conv3_res2_conv2
I0918 23:20:30.641453 11578 net.cpp:425] conv3_res2_conv2 <- conv3_res2_conv1
I0918 23:20:30.641458 11578 net.cpp:399] conv3_res2_conv2 -> conv3_res2_conv2
I0918 23:20:30.642679 11578 net.cpp:141] Setting up conv3_res2_conv2
I0918 23:20:30.642689 11578 net.cpp:148] Top shape: 256 256 16 16 (16777216)
I0918 23:20:30.642693 11578 net.cpp:156] Memory required for data: 3984131072
I0918 23:20:30.642696 11578 layer_factory.hpp:77] Creating layer conv3_res2
I0918 23:20:30.642701 11578 net.cpp:91] Creating Layer conv3_res2
I0918 23:20:30.642704 11578 net.cpp:425] conv3_res2 <- conv3_res1_conv3_res1_elu_0_split_1
I0918 23:20:30.642709 11578 net.cpp:425] conv3_res2 <- conv3_res2_conv2
I0918 23:20:30.642712 11578 net.cpp:399] conv3_res2 -> conv3_res2
I0918 23:20:30.642730 11578 net.cpp:141] Setting up conv3_res2
I0918 23:20:30.642735 11578 net.cpp:148] Top shape: 256 256 16 16 (16777216)
I0918 23:20:30.642738 11578 net.cpp:156] Memory required for data: 4051239936
I0918 23:20:30.642740 11578 layer_factory.hpp:77] Creating layer conv3_res2_elu
I0918 23:20:30.642747 11578 net.cpp:91] Creating Layer conv3_res2_elu
I0918 23:20:30.642750 11578 net.cpp:425] conv3_res2_elu <- conv3_res2
I0918 23:20:30.642753 11578 net.cpp:386] conv3_res2_elu -> conv3_res2 (in-place)
I0918 23:20:30.642757 11578 net.cpp:141] Setting up conv3_res2_elu
I0918 23:20:30.642760 11578 net.cpp:148] Top shape: 256 256 16 16 (16777216)
I0918 23:20:30.642763 11578 net.cpp:156] Memory required for data: 4118348800
I0918 23:20:30.642772 11578 layer_factory.hpp:77] Creating layer conv3_res2_conv3_res2_elu_0_split
I0918 23:20:30.642776 11578 net.cpp:91] Creating Layer conv3_res2_conv3_res2_elu_0_split
I0918 23:20:30.642778 11578 net.cpp:425] conv3_res2_conv3_res2_elu_0_split <- conv3_res2
I0918 23:20:30.642783 11578 net.cpp:399] conv3_res2_conv3_res2_elu_0_split -> conv3_res2_conv3_res2_elu_0_split_0
I0918 23:20:30.642787 11578 net.cpp:399] conv3_res2_conv3_res2_elu_0_split -> conv3_res2_conv3_res2_elu_0_split_1
I0918 23:20:30.642814 11578 net.cpp:141] Setting up conv3_res2_conv3_res2_elu_0_split
I0918 23:20:30.642819 11578 net.cpp:148] Top shape: 256 256 16 16 (16777216)
I0918 23:20:30.642822 11578 net.cpp:148] Top shape: 256 256 16 16 (16777216)
I0918 23:20:30.642824 11578 net.cpp:156] Memory required for data: 4252566528
I0918 23:20:30.642827 11578 layer_factory.hpp:77] Creating layer conv3_res3_conv1
I0918 23:20:30.642834 11578 net.cpp:91] Creating Layer conv3_res3_conv1
I0918 23:20:30.642838 11578 net.cpp:425] conv3_res3_conv1 <- conv3_res2_conv3_res2_elu_0_split_0
I0918 23:20:30.642841 11578 net.cpp:399] conv3_res3_conv1 -> conv3_res3_conv1
I0918 23:20:30.643656 11578 net.cpp:141] Setting up conv3_res3_conv1
I0918 23:20:30.643666 11578 net.cpp:148] Top shape: 256 64 16 16 (4194304)
I0918 23:20:30.643669 11578 net.cpp:156] Memory required for data: 4269343744
I0918 23:20:30.643673 11578 layer_factory.hpp:77] Creating layer conv3_res3_conv1_elu
I0918 23:20:30.643679 11578 net.cpp:91] Creating Layer conv3_res3_conv1_elu
I0918 23:20:30.643697 11578 net.cpp:425] conv3_res3_conv1_elu <- conv3_res3_conv1
I0918 23:20:30.643702 11578 net.cpp:386] conv3_res3_conv1_elu -> conv3_res3_conv1 (in-place)
I0918 23:20:30.643707 11578 net.cpp:141] Setting up conv3_res3_conv1_elu
I0918 23:20:30.643710 11578 net.cpp:148] Top shape: 256 64 16 16 (4194304)
I0918 23:20:30.643712 11578 net.cpp:156] Memory required for data: 4286120960
I0918 23:20:30.643714 11578 layer_factory.hpp:77] Creating layer conv3_res3_conv2
I0918 23:20:30.643721 11578 net.cpp:91] Creating Layer conv3_res3_conv2
I0918 23:20:30.643724 11578 net.cpp:425] conv3_res3_conv2 <- conv3_res3_conv1
I0918 23:20:30.643729 11578 net.cpp:399] conv3_res3_conv2 -> conv3_res3_conv2
I0918 23:20:30.644618 11578 net.cpp:141] Setting up conv3_res3_conv2
I0918 23:20:30.644628 11578 net.cpp:148] Top shape: 256 64 16 16 (4194304)
I0918 23:20:30.644630 11578 net.cpp:156] Memory required for data: 4302898176
I0918 23:20:30.644649 11578 layer_factory.hpp:77] Creating layer conv3_res3_conv2_elu
I0918 23:20:30.644654 11578 net.cpp:91] Creating Layer conv3_res3_conv2_elu
I0918 23:20:30.644659 11578 net.cpp:425] conv3_res3_conv2_elu <- conv3_res3_conv2
I0918 23:20:30.644662 11578 net.cpp:386] conv3_res3_conv2_elu -> conv3_res3_conv2 (in-place)
I0918 23:20:30.644667 11578 net.cpp:141] Setting up conv3_res3_conv2_elu
I0918 23:20:30.644670 11578 net.cpp:148] Top shape: 256 64 16 16 (4194304)
I0918 23:20:30.644673 11578 net.cpp:156] Memory required for data: 4319675392
I0918 23:20:30.644675 11578 layer_factory.hpp:77] Creating layer conv3_res3_conv3
I0918 23:20:30.644682 11578 net.cpp:91] Creating Layer conv3_res3_conv3
I0918 23:20:30.644685 11578 net.cpp:425] conv3_res3_conv3 <- conv3_res3_conv2
I0918 23:20:30.644690 11578 net.cpp:399] conv3_res3_conv3 -> conv3_res3_conv3
I0918 23:20:30.645565 11578 net.cpp:141] Setting up conv3_res3_conv3
I0918 23:20:30.645576 11578 net.cpp:148] Top shape: 256 256 16 16 (16777216)
I0918 23:20:30.645579 11578 net.cpp:156] Memory required for data: 4386784256
I0918 23:20:30.645584 11578 layer_factory.hpp:77] Creating layer conv3_res3
I0918 23:20:30.645589 11578 net.cpp:91] Creating Layer conv3_res3
I0918 23:20:30.645592 11578 net.cpp:425] conv3_res3 <- conv3_res2_conv3_res2_elu_0_split_1
I0918 23:20:30.645596 11578 net.cpp:425] conv3_res3 <- conv3_res3_conv3
I0918 23:20:30.645599 11578 net.cpp:399] conv3_res3 -> conv3_res3
I0918 23:20:30.645617 11578 net.cpp:141] Setting up conv3_res3
I0918 23:20:30.645622 11578 net.cpp:148] Top shape: 256 256 16 16 (16777216)
I0918 23:20:30.645624 11578 net.cpp:156] Memory required for data: 4453893120
I0918 23:20:30.645633 11578 layer_factory.hpp:77] Creating layer conv3_res3_elu
I0918 23:20:30.645637 11578 net.cpp:91] Creating Layer conv3_res3_elu
I0918 23:20:30.645639 11578 net.cpp:425] conv3_res3_elu <- conv3_res3
I0918 23:20:30.645644 11578 net.cpp:386] conv3_res3_elu -> conv3_res3 (in-place)
I0918 23:20:30.645649 11578 net.cpp:141] Setting up conv3_res3_elu
I0918 23:20:30.645653 11578 net.cpp:148] Top shape: 256 256 16 16 (16777216)
I0918 23:20:30.645655 11578 net.cpp:156] Memory required for data: 4521001984
I0918 23:20:30.645658 11578 layer_factory.hpp:77] Creating layer conv3_res3_conv3_res3_elu_0_split
I0918 23:20:30.645661 11578 net.cpp:91] Creating Layer conv3_res3_conv3_res3_elu_0_split
I0918 23:20:30.645663 11578 net.cpp:425] conv3_res3_conv3_res3_elu_0_split <- conv3_res3
I0918 23:20:30.645666 11578 net.cpp:399] conv3_res3_conv3_res3_elu_0_split -> conv3_res3_conv3_res3_elu_0_split_0
I0918 23:20:30.645670 11578 net.cpp:399] conv3_res3_conv3_res3_elu_0_split -> conv3_res3_conv3_res3_elu_0_split_1
I0918 23:20:30.645712 11578 net.cpp:141] Setting up conv3_res3_conv3_res3_elu_0_split
I0918 23:20:30.645717 11578 net.cpp:148] Top shape: 256 256 16 16 (16777216)
I0918 23:20:30.645720 11578 net.cpp:148] Top shape: 256 256 16 16 (16777216)
I0918 23:20:30.645722 11578 net.cpp:156] Memory required for data: 4655219712
I0918 23:20:30.645725 11578 layer_factory.hpp:77] Creating layer conv3_res4_conv1
I0918 23:20:30.645745 11578 net.cpp:91] Creating Layer conv3_res4_conv1
I0918 23:20:30.645748 11578 net.cpp:425] conv3_res4_conv1 <- conv3_res3_conv3_res3_elu_0_split_0
I0918 23:20:30.645754 11578 net.cpp:399] conv3_res4_conv1 -> conv3_res4_conv1
I0918 23:20:30.646546 11578 net.cpp:141] Setting up conv3_res4_conv1
I0918 23:20:30.646555 11578 net.cpp:148] Top shape: 256 64 16 16 (4194304)
I0918 23:20:30.646559 11578 net.cpp:156] Memory required for data: 4671996928
I0918 23:20:30.646564 11578 layer_factory.hpp:77] Creating layer conv3_res4_conv1_elu
I0918 23:20:30.646569 11578 net.cpp:91] Creating Layer conv3_res4_conv1_elu
I0918 23:20:30.646572 11578 net.cpp:425] conv3_res4_conv1_elu <- conv3_res4_conv1
I0918 23:20:30.646577 11578 net.cpp:386] conv3_res4_conv1_elu -> conv3_res4_conv1 (in-place)
I0918 23:20:30.646584 11578 net.cpp:141] Setting up conv3_res4_conv1_elu
I0918 23:20:30.646587 11578 net.cpp:148] Top shape: 256 64 16 16 (4194304)
I0918 23:20:30.646589 11578 net.cpp:156] Memory required for data: 4688774144
I0918 23:20:30.646591 11578 layer_factory.hpp:77] Creating layer conv3_res4_conv2
I0918 23:20:30.646598 11578 net.cpp:91] Creating Layer conv3_res4_conv2
I0918 23:20:30.646601 11578 net.cpp:425] conv3_res4_conv2 <- conv3_res4_conv1
I0918 23:20:30.646605 11578 net.cpp:399] conv3_res4_conv2 -> conv3_res4_conv2
I0918 23:20:30.647557 11578 net.cpp:141] Setting up conv3_res4_conv2
I0918 23:20:30.647564 11578 net.cpp:148] Top shape: 256 64 16 16 (4194304)
I0918 23:20:30.647567 11578 net.cpp:156] Memory required for data: 4705551360
I0918 23:20:30.647573 11578 layer_factory.hpp:77] Creating layer conv3_res4_conv2_elu
I0918 23:20:30.647578 11578 net.cpp:91] Creating Layer conv3_res4_conv2_elu
I0918 23:20:30.647580 11578 net.cpp:425] conv3_res4_conv2_elu <- conv3_res4_conv2
I0918 23:20:30.647584 11578 net.cpp:386] conv3_res4_conv2_elu -> conv3_res4_conv2 (in-place)
I0918 23:20:30.647588 11578 net.cpp:141] Setting up conv3_res4_conv2_elu
I0918 23:20:30.647591 11578 net.cpp:148] Top shape: 256 64 16 16 (4194304)
I0918 23:20:30.647594 11578 net.cpp:156] Memory required for data: 4722328576
I0918 23:20:30.647596 11578 layer_factory.hpp:77] Creating layer conv3_res4_conv3
I0918 23:20:30.647603 11578 net.cpp:91] Creating Layer conv3_res4_conv3
I0918 23:20:30.647605 11578 net.cpp:425] conv3_res4_conv3 <- conv3_res4_conv2
I0918 23:20:30.647609 11578 net.cpp:399] conv3_res4_conv3 -> conv3_res4_conv3
I0918 23:20:30.648488 11578 net.cpp:141] Setting up conv3_res4_conv3
I0918 23:20:30.648499 11578 net.cpp:148] Top shape: 256 256 16 16 (16777216)
I0918 23:20:30.648502 11578 net.cpp:156] Memory required for data: 4789437440
I0918 23:20:30.648515 11578 layer_factory.hpp:77] Creating layer conv3_res4
I0918 23:20:30.648522 11578 net.cpp:91] Creating Layer conv3_res4
I0918 23:20:30.648526 11578 net.cpp:425] conv3_res4 <- conv3_res3_conv3_res3_elu_0_split_1
I0918 23:20:30.648532 11578 net.cpp:425] conv3_res4 <- conv3_res4_conv3
I0918 23:20:30.648536 11578 net.cpp:425] conv3_res4 <- conv1_conv3_proj
I0918 23:20:30.648541 11578 net.cpp:425] conv3_res4 <- conv2_conv3_proj
I0918 23:20:30.648547 11578 net.cpp:399] conv3_res4 -> conv3_res4
I0918 23:20:30.648571 11578 net.cpp:141] Setting up conv3_res4
I0918 23:20:30.648576 11578 net.cpp:148] Top shape: 256 256 16 16 (16777216)
I0918 23:20:30.648581 11578 net.cpp:156] Memory required for data: 4856546304
I0918 23:20:30.648583 11578 layer_factory.hpp:77] Creating layer pool3
I0918 23:20:30.648596 11578 net.cpp:91] Creating Layer pool3
I0918 23:20:30.648600 11578 net.cpp:425] pool3 <- conv3_res4
I0918 23:20:30.648607 11578 net.cpp:399] pool3 -> pool3
I0918 23:20:30.648645 11578 net.cpp:141] Setting up pool3
I0918 23:20:30.648651 11578 net.cpp:148] Top shape: 256 256 8 8 (4194304)
I0918 23:20:30.648655 11578 net.cpp:156] Memory required for data: 4873323520
I0918 23:20:30.648659 11578 layer_factory.hpp:77] Creating layer pool3_elu
I0918 23:20:30.648668 11578 net.cpp:91] Creating Layer pool3_elu
I0918 23:20:30.648672 11578 net.cpp:425] pool3_elu <- pool3
I0918 23:20:30.648677 11578 net.cpp:386] pool3_elu -> pool3 (in-place)
I0918 23:20:30.648684 11578 net.cpp:141] Setting up pool3_elu
I0918 23:20:30.648689 11578 net.cpp:148] Top shape: 256 256 8 8 (4194304)
I0918 23:20:30.648692 11578 net.cpp:156] Memory required for data: 4890100736
I0918 23:20:30.648696 11578 layer_factory.hpp:77] Creating layer pool3_pool3_elu_0_split
I0918 23:20:30.648701 11578 net.cpp:91] Creating Layer pool3_pool3_elu_0_split
I0918 23:20:30.648706 11578 net.cpp:425] pool3_pool3_elu_0_split <- pool3
I0918 23:20:30.648711 11578 net.cpp:399] pool3_pool3_elu_0_split -> pool3_pool3_elu_0_split_0
I0918 23:20:30.648718 11578 net.cpp:399] pool3_pool3_elu_0_split -> pool3_pool3_elu_0_split_1
I0918 23:20:30.648725 11578 net.cpp:399] pool3_pool3_elu_0_split -> pool3_pool3_elu_0_split_2
I0918 23:20:30.648730 11578 net.cpp:399] pool3_pool3_elu_0_split -> pool3_pool3_elu_0_split_3
I0918 23:20:30.648790 11578 net.cpp:141] Setting up pool3_pool3_elu_0_split
I0918 23:20:30.648797 11578 net.cpp:148] Top shape: 256 256 8 8 (4194304)
I0918 23:20:30.648802 11578 net.cpp:148] Top shape: 256 256 8 8 (4194304)
I0918 23:20:30.648807 11578 net.cpp:148] Top shape: 256 256 8 8 (4194304)
I0918 23:20:30.648811 11578 net.cpp:148] Top shape: 256 256 8 8 (4194304)
I0918 23:20:30.648814 11578 net.cpp:156] Memory required for data: 4957209600
I0918 23:20:30.648818 11578 layer_factory.hpp:77] Creating layer conv3_conv4_proj
I0918 23:20:30.648828 11578 net.cpp:91] Creating Layer conv3_conv4_proj
I0918 23:20:30.648833 11578 net.cpp:425] conv3_conv4_proj <- pool3_pool3_elu_0_split_0
I0918 23:20:30.648838 11578 net.cpp:399] conv3_conv4_proj -> conv3_conv4_proj
I0918 23:20:30.650668 11578 net.cpp:141] Setting up conv3_conv4_proj
I0918 23:20:30.650678 11578 net.cpp:148] Top shape: 256 512 8 8 (8388608)
I0918 23:20:30.650681 11578 net.cpp:156] Memory required for data: 4990764032
I0918 23:20:30.650686 11578 layer_factory.hpp:77] Creating layer conv3_conv5_proj
I0918 23:20:30.650693 11578 net.cpp:91] Creating Layer conv3_conv5_proj
I0918 23:20:30.650697 11578 net.cpp:425] conv3_conv5_proj <- pool3_pool3_elu_0_split_1
I0918 23:20:30.650702 11578 net.cpp:399] conv3_conv5_proj -> conv3_conv5_proj
I0918 23:20:30.653457 11578 net.cpp:141] Setting up conv3_conv5_proj
I0918 23:20:30.653499 11578 net.cpp:148] Top shape: 256 1024 4 4 (4194304)
I0918 23:20:30.653502 11578 net.cpp:156] Memory required for data: 5007541248
I0918 23:20:30.653507 11578 layer_factory.hpp:77] Creating layer conv4_res1_proj
I0918 23:20:30.653517 11578 net.cpp:91] Creating Layer conv4_res1_proj
I0918 23:20:30.653522 11578 net.cpp:425] conv4_res1_proj <- pool3_pool3_elu_0_split_2
I0918 23:20:30.653534 11578 net.cpp:399] conv4_res1_proj -> conv4_res1_proj
I0918 23:20:30.655212 11578 net.cpp:141] Setting up conv4_res1_proj
I0918 23:20:30.655223 11578 net.cpp:148] Top shape: 256 512 8 8 (8388608)
I0918 23:20:30.655226 11578 net.cpp:156] Memory required for data: 5041095680
I0918 23:20:30.655230 11578 layer_factory.hpp:77] Creating layer conv4_res1_conv1
I0918 23:20:30.655252 11578 net.cpp:91] Creating Layer conv4_res1_conv1
I0918 23:20:30.655256 11578 net.cpp:425] conv4_res1_conv1 <- pool3_pool3_elu_0_split_3
I0918 23:20:30.655266 11578 net.cpp:399] conv4_res1_conv1 -> conv4_res1_conv1
I0918 23:20:30.656209 11578 net.cpp:141] Setting up conv4_res1_conv1
I0918 23:20:30.656219 11578 net.cpp:148] Top shape: 256 128 8 8 (2097152)
I0918 23:20:30.656222 11578 net.cpp:156] Memory required for data: 5049484288
I0918 23:20:30.656226 11578 layer_factory.hpp:77] Creating layer conv4_res1_conv1_elu
I0918 23:20:30.656234 11578 net.cpp:91] Creating Layer conv4_res1_conv1_elu
I0918 23:20:30.656236 11578 net.cpp:425] conv4_res1_conv1_elu <- conv4_res1_conv1
I0918 23:20:30.656240 11578 net.cpp:386] conv4_res1_conv1_elu -> conv4_res1_conv1 (in-place)
I0918 23:20:30.656245 11578 net.cpp:141] Setting up conv4_res1_conv1_elu
I0918 23:20:30.656249 11578 net.cpp:148] Top shape: 256 128 8 8 (2097152)
I0918 23:20:30.656250 11578 net.cpp:156] Memory required for data: 5057872896
I0918 23:20:30.656253 11578 layer_factory.hpp:77] Creating layer conv4_res1_conv2
I0918 23:20:30.656260 11578 net.cpp:91] Creating Layer conv4_res1_conv2
I0918 23:20:30.656262 11578 net.cpp:425] conv4_res1_conv2 <- conv4_res1_conv1
I0918 23:20:30.656265 11578 net.cpp:399] conv4_res1_conv2 -> conv4_res1_conv2
I0918 23:20:30.657981 11578 net.cpp:141] Setting up conv4_res1_conv2
I0918 23:20:30.657991 11578 net.cpp:148] Top shape: 256 128 8 8 (2097152)
I0918 23:20:30.657994 11578 net.cpp:156] Memory required for data: 5066261504
I0918 23:20:30.658000 11578 layer_factory.hpp:77] Creating layer conv4_res1_conv2_elu
I0918 23:20:30.658004 11578 net.cpp:91] Creating Layer conv4_res1_conv2_elu
I0918 23:20:30.658007 11578 net.cpp:425] conv4_res1_conv2_elu <- conv4_res1_conv2
I0918 23:20:30.658011 11578 net.cpp:386] conv4_res1_conv2_elu -> conv4_res1_conv2 (in-place)
I0918 23:20:30.658016 11578 net.cpp:141] Setting up conv4_res1_conv2_elu
I0918 23:20:30.658020 11578 net.cpp:148] Top shape: 256 128 8 8 (2097152)
I0918 23:20:30.658021 11578 net.cpp:156] Memory required for data: 5074650112
I0918 23:20:30.658025 11578 layer_factory.hpp:77] Creating layer conv4_res1_conv3
I0918 23:20:30.658030 11578 net.cpp:91] Creating Layer conv4_res1_conv3
I0918 23:20:30.658033 11578 net.cpp:425] conv4_res1_conv3 <- conv4_res1_conv2
I0918 23:20:30.658037 11578 net.cpp:399] conv4_res1_conv3 -> conv4_res1_conv3
I0918 23:20:30.658972 11578 net.cpp:141] Setting up conv4_res1_conv3
I0918 23:20:30.658982 11578 net.cpp:148] Top shape: 256 512 8 8 (8388608)
I0918 23:20:30.658985 11578 net.cpp:156] Memory required for data: 5108204544
I0918 23:20:30.658989 11578 layer_factory.hpp:77] Creating layer conv4_res1
I0918 23:20:30.658995 11578 net.cpp:91] Creating Layer conv4_res1
I0918 23:20:30.658998 11578 net.cpp:425] conv4_res1 <- conv4_res1_proj
I0918 23:20:30.659001 11578 net.cpp:425] conv4_res1 <- conv4_res1_conv3
I0918 23:20:30.659005 11578 net.cpp:399] conv4_res1 -> conv4_res1
I0918 23:20:30.659024 11578 net.cpp:141] Setting up conv4_res1
I0918 23:20:30.659029 11578 net.cpp:148] Top shape: 256 512 8 8 (8388608)
I0918 23:20:30.659031 11578 net.cpp:156] Memory required for data: 5141758976
I0918 23:20:30.659034 11578 layer_factory.hpp:77] Creating layer conv4_res1_elu
I0918 23:20:30.659040 11578 net.cpp:91] Creating Layer conv4_res1_elu
I0918 23:20:30.659046 11578 net.cpp:425] conv4_res1_elu <- conv4_res1
I0918 23:20:30.659049 11578 net.cpp:386] conv4_res1_elu -> conv4_res1 (in-place)
I0918 23:20:30.659054 11578 net.cpp:141] Setting up conv4_res1_elu
I0918 23:20:30.659056 11578 net.cpp:148] Top shape: 256 512 8 8 (8388608)
I0918 23:20:30.659060 11578 net.cpp:156] Memory required for data: 5175313408
I0918 23:20:30.659070 11578 layer_factory.hpp:77] Creating layer conv4_res1_conv4_res1_elu_0_split
I0918 23:20:30.659073 11578 net.cpp:91] Creating Layer conv4_res1_conv4_res1_elu_0_split
I0918 23:20:30.659076 11578 net.cpp:425] conv4_res1_conv4_res1_elu_0_split <- conv4_res1
I0918 23:20:30.659080 11578 net.cpp:399] conv4_res1_conv4_res1_elu_0_split -> conv4_res1_conv4_res1_elu_0_split_0
I0918 23:20:30.659085 11578 net.cpp:399] conv4_res1_conv4_res1_elu_0_split -> conv4_res1_conv4_res1_elu_0_split_1
I0918 23:20:30.659112 11578 net.cpp:141] Setting up conv4_res1_conv4_res1_elu_0_split
I0918 23:20:30.659118 11578 net.cpp:148] Top shape: 256 512 8 8 (8388608)
I0918 23:20:30.659121 11578 net.cpp:148] Top shape: 256 512 8 8 (8388608)
I0918 23:20:30.659123 11578 net.cpp:156] Memory required for data: 5242422272
I0918 23:20:30.659126 11578 layer_factory.hpp:77] Creating layer conv4_res2_conv1
I0918 23:20:30.659134 11578 net.cpp:91] Creating Layer conv4_res2_conv1
I0918 23:20:30.659137 11578 net.cpp:425] conv4_res2_conv1 <- conv4_res1_conv4_res1_elu_0_split_0
I0918 23:20:30.659142 11578 net.cpp:399] conv4_res2_conv1 -> conv4_res2_conv1
I0918 23:20:30.660912 11578 net.cpp:141] Setting up conv4_res2_conv1
I0918 23:20:30.660922 11578 net.cpp:148] Top shape: 256 128 8 8 (2097152)
I0918 23:20:30.660924 11578 net.cpp:156] Memory required for data: 5250810880
I0918 23:20:30.660928 11578 layer_factory.hpp:77] Creating layer conv4_res2_conv1_elu
I0918 23:20:30.660933 11578 net.cpp:91] Creating Layer conv4_res2_conv1_elu
I0918 23:20:30.660935 11578 net.cpp:425] conv4_res2_conv1_elu <- conv4_res2_conv1
I0918 23:20:30.660939 11578 net.cpp:386] conv4_res2_conv1_elu -> conv4_res2_conv1 (in-place)
I0918 23:20:30.660944 11578 net.cpp:141] Setting up conv4_res2_conv1_elu
I0918 23:20:30.660948 11578 net.cpp:148] Top shape: 256 128 8 8 (2097152)
I0918 23:20:30.660949 11578 net.cpp:156] Memory required for data: 5259199488
I0918 23:20:30.660951 11578 layer_factory.hpp:77] Creating layer conv4_res2_conv2
I0918 23:20:30.660959 11578 net.cpp:91] Creating Layer conv4_res2_conv2
I0918 23:20:30.660962 11578 net.cpp:425] conv4_res2_conv2 <- conv4_res2_conv1
I0918 23:20:30.660966 11578 net.cpp:399] conv4_res2_conv2 -> conv4_res2_conv2
I0918 23:20:30.662794 11578 net.cpp:141] Setting up conv4_res2_conv2
I0918 23:20:30.662804 11578 net.cpp:148] Top shape: 256 512 8 8 (8388608)
I0918 23:20:30.662807 11578 net.cpp:156] Memory required for data: 5292753920
I0918 23:20:30.662811 11578 layer_factory.hpp:77] Creating layer conv4_res2
I0918 23:20:30.662816 11578 net.cpp:91] Creating Layer conv4_res2
I0918 23:20:30.662818 11578 net.cpp:425] conv4_res2 <- conv4_res1_conv4_res1_elu_0_split_1
I0918 23:20:30.662822 11578 net.cpp:425] conv4_res2 <- conv4_res2_conv2
I0918 23:20:30.662827 11578 net.cpp:399] conv4_res2 -> conv4_res2
I0918 23:20:30.662847 11578 net.cpp:141] Setting up conv4_res2
I0918 23:20:30.662852 11578 net.cpp:148] Top shape: 256 512 8 8 (8388608)
I0918 23:20:30.662853 11578 net.cpp:156] Memory required for data: 5326308352
I0918 23:20:30.662856 11578 layer_factory.hpp:77] Creating layer conv4_res2_elu
I0918 23:20:30.662859 11578 net.cpp:91] Creating Layer conv4_res2_elu
I0918 23:20:30.662863 11578 net.cpp:425] conv4_res2_elu <- conv4_res2
I0918 23:20:30.662865 11578 net.cpp:386] conv4_res2_elu -> conv4_res2 (in-place)
I0918 23:20:30.662869 11578 net.cpp:141] Setting up conv4_res2_elu
I0918 23:20:30.662871 11578 net.cpp:148] Top shape: 256 512 8 8 (8388608)
I0918 23:20:30.662874 11578 net.cpp:156] Memory required for data: 5359862784
I0918 23:20:30.662876 11578 layer_factory.hpp:77] Creating layer conv4_res2_conv4_res2_elu_0_split
I0918 23:20:30.662879 11578 net.cpp:91] Creating Layer conv4_res2_conv4_res2_elu_0_split
I0918 23:20:30.662883 11578 net.cpp:425] conv4_res2_conv4_res2_elu_0_split <- conv4_res2
I0918 23:20:30.662886 11578 net.cpp:399] conv4_res2_conv4_res2_elu_0_split -> conv4_res2_conv4_res2_elu_0_split_0
I0918 23:20:30.662890 11578 net.cpp:399] conv4_res2_conv4_res2_elu_0_split -> conv4_res2_conv4_res2_elu_0_split_1
I0918 23:20:30.662925 11578 net.cpp:141] Setting up conv4_res2_conv4_res2_elu_0_split
I0918 23:20:30.662928 11578 net.cpp:148] Top shape: 256 512 8 8 (8388608)
I0918 23:20:30.662931 11578 net.cpp:148] Top shape: 256 512 8 8 (8388608)
I0918 23:20:30.662933 11578 net.cpp:156] Memory required for data: 5426971648
I0918 23:20:30.662935 11578 layer_factory.hpp:77] Creating layer conv4_res3_conv1
I0918 23:20:30.662942 11578 net.cpp:91] Creating Layer conv4_res3_conv1
I0918 23:20:30.662945 11578 net.cpp:425] conv4_res3_conv1 <- conv4_res2_conv4_res2_elu_0_split_0
I0918 23:20:30.662950 11578 net.cpp:399] conv4_res3_conv1 -> conv4_res3_conv1
I0918 23:20:30.664279 11578 net.cpp:141] Setting up conv4_res3_conv1
I0918 23:20:30.664288 11578 net.cpp:148] Top shape: 256 128 8 8 (2097152)
I0918 23:20:30.664290 11578 net.cpp:156] Memory required for data: 5435360256
I0918 23:20:30.664304 11578 layer_factory.hpp:77] Creating layer conv4_res3_conv1_elu
I0918 23:20:30.664309 11578 net.cpp:91] Creating Layer conv4_res3_conv1_elu
I0918 23:20:30.664312 11578 net.cpp:425] conv4_res3_conv1_elu <- conv4_res3_conv1
I0918 23:20:30.664315 11578 net.cpp:386] conv4_res3_conv1_elu -> conv4_res3_conv1 (in-place)
I0918 23:20:30.664320 11578 net.cpp:141] Setting up conv4_res3_conv1_elu
I0918 23:20:30.664324 11578 net.cpp:148] Top shape: 256 128 8 8 (2097152)
I0918 23:20:30.664326 11578 net.cpp:156] Memory required for data: 5443748864
I0918 23:20:30.664329 11578 layer_factory.hpp:77] Creating layer conv4_res3_conv2
I0918 23:20:30.664335 11578 net.cpp:91] Creating Layer conv4_res3_conv2
I0918 23:20:30.664337 11578 net.cpp:425] conv4_res3_conv2 <- conv4_res3_conv1
I0918 23:20:30.664341 11578 net.cpp:399] conv4_res3_conv2 -> conv4_res3_conv2
I0918 23:20:30.666093 11578 net.cpp:141] Setting up conv4_res3_conv2
I0918 23:20:30.666101 11578 net.cpp:148] Top shape: 256 128 8 8 (2097152)
I0918 23:20:30.666105 11578 net.cpp:156] Memory required for data: 5452137472
I0918 23:20:30.666112 11578 layer_factory.hpp:77] Creating layer conv4_res3_conv2_elu
I0918 23:20:30.666116 11578 net.cpp:91] Creating Layer conv4_res3_conv2_elu
I0918 23:20:30.666120 11578 net.cpp:425] conv4_res3_conv2_elu <- conv4_res3_conv2
I0918 23:20:30.666123 11578 net.cpp:386] conv4_res3_conv2_elu -> conv4_res3_conv2 (in-place)
I0918 23:20:30.666128 11578 net.cpp:141] Setting up conv4_res3_conv2_elu
I0918 23:20:30.666131 11578 net.cpp:148] Top shape: 256 128 8 8 (2097152)
I0918 23:20:30.666133 11578 net.cpp:156] Memory required for data: 5460526080
I0918 23:20:30.666136 11578 layer_factory.hpp:77] Creating layer conv4_res3_conv3
I0918 23:20:30.666141 11578 net.cpp:91] Creating Layer conv4_res3_conv3
I0918 23:20:30.666144 11578 net.cpp:425] conv4_res3_conv3 <- conv4_res3_conv2
I0918 23:20:30.666148 11578 net.cpp:399] conv4_res3_conv3 -> conv4_res3_conv3
I0918 23:20:30.667078 11578 net.cpp:141] Setting up conv4_res3_conv3
I0918 23:20:30.667086 11578 net.cpp:148] Top shape: 256 512 8 8 (8388608)
I0918 23:20:30.667089 11578 net.cpp:156] Memory required for data: 5494080512
I0918 23:20:30.667094 11578 layer_factory.hpp:77] Creating layer conv4_res3
I0918 23:20:30.667099 11578 net.cpp:91] Creating Layer conv4_res3
I0918 23:20:30.667103 11578 net.cpp:425] conv4_res3 <- conv4_res2_conv4_res2_elu_0_split_1
I0918 23:20:30.667105 11578 net.cpp:425] conv4_res3 <- conv4_res3_conv3
I0918 23:20:30.667109 11578 net.cpp:399] conv4_res3 -> conv4_res3
I0918 23:20:30.667129 11578 net.cpp:141] Setting up conv4_res3
I0918 23:20:30.667132 11578 net.cpp:148] Top shape: 256 512 8 8 (8388608)
I0918 23:20:30.667135 11578 net.cpp:156] Memory required for data: 5527634944
I0918 23:20:30.667136 11578 layer_factory.hpp:77] Creating layer conv4_res3_elu
I0918 23:20:30.667140 11578 net.cpp:91] Creating Layer conv4_res3_elu
I0918 23:20:30.667143 11578 net.cpp:425] conv4_res3_elu <- conv4_res3
I0918 23:20:30.667146 11578 net.cpp:386] conv4_res3_elu -> conv4_res3 (in-place)
I0918 23:20:30.667150 11578 net.cpp:141] Setting up conv4_res3_elu
I0918 23:20:30.667153 11578 net.cpp:148] Top shape: 256 512 8 8 (8388608)
I0918 23:20:30.667155 11578 net.cpp:156] Memory required for data: 5561189376
I0918 23:20:30.667165 11578 layer_factory.hpp:77] Creating layer conv4_res3_conv4_res3_elu_0_split
I0918 23:20:30.667168 11578 net.cpp:91] Creating Layer conv4_res3_conv4_res3_elu_0_split
I0918 23:20:30.667171 11578 net.cpp:425] conv4_res3_conv4_res3_elu_0_split <- conv4_res3
I0918 23:20:30.667176 11578 net.cpp:399] conv4_res3_conv4_res3_elu_0_split -> conv4_res3_conv4_res3_elu_0_split_0
I0918 23:20:30.667179 11578 net.cpp:399] conv4_res3_conv4_res3_elu_0_split -> conv4_res3_conv4_res3_elu_0_split_1
I0918 23:20:30.667207 11578 net.cpp:141] Setting up conv4_res3_conv4_res3_elu_0_split
I0918 23:20:30.667212 11578 net.cpp:148] Top shape: 256 512 8 8 (8388608)
I0918 23:20:30.667214 11578 net.cpp:148] Top shape: 256 512 8 8 (8388608)
I0918 23:20:30.667217 11578 net.cpp:156] Memory required for data: 5628298240
I0918 23:20:30.667218 11578 layer_factory.hpp:77] Creating layer conv4_res4_conv1
I0918 23:20:30.667223 11578 net.cpp:91] Creating Layer conv4_res4_conv1
I0918 23:20:30.667225 11578 net.cpp:425] conv4_res4_conv1 <- conv4_res3_conv4_res3_elu_0_split_0
I0918 23:20:30.667230 11578 net.cpp:399] conv4_res4_conv1 -> conv4_res4_conv1
I0918 23:20:30.668965 11578 net.cpp:141] Setting up conv4_res4_conv1
I0918 23:20:30.668973 11578 net.cpp:148] Top shape: 256 128 8 8 (2097152)
I0918 23:20:30.668977 11578 net.cpp:156] Memory required for data: 5636686848
I0918 23:20:30.668979 11578 layer_factory.hpp:77] Creating layer conv4_res4_conv1_elu
I0918 23:20:30.668984 11578 net.cpp:91] Creating Layer conv4_res4_conv1_elu
I0918 23:20:30.668988 11578 net.cpp:425] conv4_res4_conv1_elu <- conv4_res4_conv1
I0918 23:20:30.668992 11578 net.cpp:386] conv4_res4_conv1_elu -> conv4_res4_conv1 (in-place)
I0918 23:20:30.668997 11578 net.cpp:141] Setting up conv4_res4_conv1_elu
I0918 23:20:30.668999 11578 net.cpp:148] Top shape: 256 128 8 8 (2097152)
I0918 23:20:30.669001 11578 net.cpp:156] Memory required for data: 5645075456
I0918 23:20:30.669003 11578 layer_factory.hpp:77] Creating layer conv4_res4_conv2
I0918 23:20:30.669009 11578 net.cpp:91] Creating Layer conv4_res4_conv2
I0918 23:20:30.669013 11578 net.cpp:425] conv4_res4_conv2 <- conv4_res4_conv1
I0918 23:20:30.669019 11578 net.cpp:399] conv4_res4_conv2 -> conv4_res4_conv2
I0918 23:20:30.670931 11578 net.cpp:141] Setting up conv4_res4_conv2
I0918 23:20:30.670939 11578 net.cpp:148] Top shape: 256 512 8 8 (8388608)
I0918 23:20:30.670941 11578 net.cpp:156] Memory required for data: 5678629888
I0918 23:20:30.670945 11578 layer_factory.hpp:77] Creating layer conv4_res4
I0918 23:20:30.670951 11578 net.cpp:91] Creating Layer conv4_res4
I0918 23:20:30.670954 11578 net.cpp:425] conv4_res4 <- conv4_res3_conv4_res3_elu_0_split_1
I0918 23:20:30.670958 11578 net.cpp:425] conv4_res4 <- conv4_res4_conv2
I0918 23:20:30.670961 11578 net.cpp:399] conv4_res4 -> conv4_res4
I0918 23:20:30.670981 11578 net.cpp:141] Setting up conv4_res4
I0918 23:20:30.670985 11578 net.cpp:148] Top shape: 256 512 8 8 (8388608)
I0918 23:20:30.670987 11578 net.cpp:156] Memory required for data: 5712184320
I0918 23:20:30.670989 11578 layer_factory.hpp:77] Creating layer conv4_res4_elu
I0918 23:20:30.670994 11578 net.cpp:91] Creating Layer conv4_res4_elu
I0918 23:20:30.670995 11578 net.cpp:425] conv4_res4_elu <- conv4_res4
I0918 23:20:30.671000 11578 net.cpp:386] conv4_res4_elu -> conv4_res4 (in-place)
I0918 23:20:30.671003 11578 net.cpp:141] Setting up conv4_res4_elu
I0918 23:20:30.671006 11578 net.cpp:148] Top shape: 256 512 8 8 (8388608)
I0918 23:20:30.671008 11578 net.cpp:156] Memory required for data: 5745738752
I0918 23:20:30.671011 11578 layer_factory.hpp:77] Creating layer conv4_res4_conv4_res4_elu_0_split
I0918 23:20:30.671015 11578 net.cpp:91] Creating Layer conv4_res4_conv4_res4_elu_0_split
I0918 23:20:30.671016 11578 net.cpp:425] conv4_res4_conv4_res4_elu_0_split <- conv4_res4
I0918 23:20:30.671020 11578 net.cpp:399] conv4_res4_conv4_res4_elu_0_split -> conv4_res4_conv4_res4_elu_0_split_0
I0918 23:20:30.671025 11578 net.cpp:399] conv4_res4_conv4_res4_elu_0_split -> conv4_res4_conv4_res4_elu_0_split_1
I0918 23:20:30.671058 11578 net.cpp:141] Setting up conv4_res4_conv4_res4_elu_0_split
I0918 23:20:30.671062 11578 net.cpp:148] Top shape: 256 512 8 8 (8388608)
I0918 23:20:30.671066 11578 net.cpp:148] Top shape: 256 512 8 8 (8388608)
I0918 23:20:30.671067 11578 net.cpp:156] Memory required for data: 5812847616
I0918 23:20:30.671069 11578 layer_factory.hpp:77] Creating layer conv4_res5_conv1
I0918 23:20:30.671077 11578 net.cpp:91] Creating Layer conv4_res5_conv1
I0918 23:20:30.671078 11578 net.cpp:425] conv4_res5_conv1 <- conv4_res4_conv4_res4_elu_0_split_0
I0918 23:20:30.671084 11578 net.cpp:399] conv4_res5_conv1 -> conv4_res5_conv1
I0918 23:20:30.672112 11578 net.cpp:141] Setting up conv4_res5_conv1
I0918 23:20:30.672119 11578 net.cpp:148] Top shape: 256 128 8 8 (2097152)
I0918 23:20:30.672122 11578 net.cpp:156] Memory required for data: 5821236224
I0918 23:20:30.672127 11578 layer_factory.hpp:77] Creating layer conv4_res5_conv1_elu
I0918 23:20:30.672132 11578 net.cpp:91] Creating Layer conv4_res5_conv1_elu
I0918 23:20:30.672134 11578 net.cpp:425] conv4_res5_conv1_elu <- conv4_res5_conv1
I0918 23:20:30.672138 11578 net.cpp:386] conv4_res5_conv1_elu -> conv4_res5_conv1 (in-place)
I0918 23:20:30.672143 11578 net.cpp:141] Setting up conv4_res5_conv1_elu
I0918 23:20:30.672147 11578 net.cpp:148] Top shape: 256 128 8 8 (2097152)
I0918 23:20:30.672148 11578 net.cpp:156] Memory required for data: 5829624832
I0918 23:20:30.672152 11578 layer_factory.hpp:77] Creating layer conv4_res5_conv2
I0918 23:20:30.672158 11578 net.cpp:91] Creating Layer conv4_res5_conv2
I0918 23:20:30.672159 11578 net.cpp:425] conv4_res5_conv2 <- conv4_res5_conv1
I0918 23:20:30.672163 11578 net.cpp:399] conv4_res5_conv2 -> conv4_res5_conv2
I0918 23:20:30.673897 11578 net.cpp:141] Setting up conv4_res5_conv2
I0918 23:20:30.673905 11578 net.cpp:148] Top shape: 256 128 8 8 (2097152)
I0918 23:20:30.673908 11578 net.cpp:156] Memory required for data: 5838013440
I0918 23:20:30.673913 11578 layer_factory.hpp:77] Creating layer conv4_res5_conv2_elu
I0918 23:20:30.673918 11578 net.cpp:91] Creating Layer conv4_res5_conv2_elu
I0918 23:20:30.673921 11578 net.cpp:425] conv4_res5_conv2_elu <- conv4_res5_conv2
I0918 23:20:30.673924 11578 net.cpp:386] conv4_res5_conv2_elu -> conv4_res5_conv2 (in-place)
I0918 23:20:30.673929 11578 net.cpp:141] Setting up conv4_res5_conv2_elu
I0918 23:20:30.673933 11578 net.cpp:148] Top shape: 256 128 8 8 (2097152)
I0918 23:20:30.673934 11578 net.cpp:156] Memory required for data: 5846402048
I0918 23:20:30.673936 11578 layer_factory.hpp:77] Creating layer conv4_res5_conv3
I0918 23:20:30.673943 11578 net.cpp:91] Creating Layer conv4_res5_conv3
I0918 23:20:30.673945 11578 net.cpp:425] conv4_res5_conv3 <- conv4_res5_conv2
I0918 23:20:30.673949 11578 net.cpp:399] conv4_res5_conv3 -> conv4_res5_conv3
I0918 23:20:30.674876 11578 net.cpp:141] Setting up conv4_res5_conv3
I0918 23:20:30.674885 11578 net.cpp:148] Top shape: 256 512 8 8 (8388608)
I0918 23:20:30.674887 11578 net.cpp:156] Memory required for data: 5879956480
I0918 23:20:30.674891 11578 layer_factory.hpp:77] Creating layer conv4_res5
I0918 23:20:30.674897 11578 net.cpp:91] Creating Layer conv4_res5
I0918 23:20:30.674901 11578 net.cpp:425] conv4_res5 <- conv4_res4_conv4_res4_elu_0_split_1
I0918 23:20:30.674903 11578 net.cpp:425] conv4_res5 <- conv4_res5_conv3
I0918 23:20:30.674908 11578 net.cpp:399] conv4_res5 -> conv4_res5
I0918 23:20:30.674926 11578 net.cpp:141] Setting up conv4_res5
I0918 23:20:30.674931 11578 net.cpp:148] Top shape: 256 512 8 8 (8388608)
I0918 23:20:30.674932 11578 net.cpp:156] Memory required for data: 5913510912
I0918 23:20:30.674935 11578 layer_factory.hpp:77] Creating layer conv4_res5_elu
I0918 23:20:30.674938 11578 net.cpp:91] Creating Layer conv4_res5_elu
I0918 23:20:30.674942 11578 net.cpp:425] conv4_res5_elu <- conv4_res5
I0918 23:20:30.674947 11578 net.cpp:386] conv4_res5_elu -> conv4_res5 (in-place)
I0918 23:20:30.674952 11578 net.cpp:141] Setting up conv4_res5_elu
I0918 23:20:30.674953 11578 net.cpp:148] Top shape: 256 512 8 8 (8388608)
I0918 23:20:30.674962 11578 net.cpp:156] Memory required for data: 5947065344
I0918 23:20:30.674965 11578 layer_factory.hpp:77] Creating layer conv4_res5_conv4_res5_elu_0_split
I0918 23:20:30.674968 11578 net.cpp:91] Creating Layer conv4_res5_conv4_res5_elu_0_split
I0918 23:20:30.674970 11578 net.cpp:425] conv4_res5_conv4_res5_elu_0_split <- conv4_res5
I0918 23:20:30.674974 11578 net.cpp:399] conv4_res5_conv4_res5_elu_0_split -> conv4_res5_conv4_res5_elu_0_split_0
I0918 23:20:30.674979 11578 net.cpp:399] conv4_res5_conv4_res5_elu_0_split -> conv4_res5_conv4_res5_elu_0_split_1
I0918 23:20:30.675007 11578 net.cpp:141] Setting up conv4_res5_conv4_res5_elu_0_split
I0918 23:20:30.675011 11578 net.cpp:148] Top shape: 256 512 8 8 (8388608)
I0918 23:20:30.675014 11578 net.cpp:148] Top shape: 256 512 8 8 (8388608)
I0918 23:20:30.675016 11578 net.cpp:156] Memory required for data: 6014174208
I0918 23:20:30.675019 11578 layer_factory.hpp:77] Creating layer conv4_res6_conv1
I0918 23:20:30.675024 11578 net.cpp:91] Creating Layer conv4_res6_conv1
I0918 23:20:30.675027 11578 net.cpp:425] conv4_res6_conv1 <- conv4_res5_conv4_res5_elu_0_split_0
I0918 23:20:30.675031 11578 net.cpp:399] conv4_res6_conv1 -> conv4_res6_conv1
I0918 23:20:30.676393 11578 net.cpp:141] Setting up conv4_res6_conv1
I0918 23:20:30.676401 11578 net.cpp:148] Top shape: 256 128 8 8 (2097152)
I0918 23:20:30.676404 11578 net.cpp:156] Memory required for data: 6022562816
I0918 23:20:30.676409 11578 layer_factory.hpp:77] Creating layer conv4_res6_conv1_elu
I0918 23:20:30.676412 11578 net.cpp:91] Creating Layer conv4_res6_conv1_elu
I0918 23:20:30.676415 11578 net.cpp:425] conv4_res6_conv1_elu <- conv4_res6_conv1
I0918 23:20:30.676420 11578 net.cpp:386] conv4_res6_conv1_elu -> conv4_res6_conv1 (in-place)
I0918 23:20:30.676425 11578 net.cpp:141] Setting up conv4_res6_conv1_elu
I0918 23:20:30.676429 11578 net.cpp:148] Top shape: 256 128 8 8 (2097152)
I0918 23:20:30.676430 11578 net.cpp:156] Memory required for data: 6030951424
I0918 23:20:30.676432 11578 layer_factory.hpp:77] Creating layer conv4_res6_conv2
I0918 23:20:30.676439 11578 net.cpp:91] Creating Layer conv4_res6_conv2
I0918 23:20:30.676441 11578 net.cpp:425] conv4_res6_conv2 <- conv4_res6_conv1
I0918 23:20:30.676445 11578 net.cpp:399] conv4_res6_conv2 -> conv4_res6_conv2
I0918 23:20:30.679009 11578 net.cpp:141] Setting up conv4_res6_conv2
I0918 23:20:30.679021 11578 net.cpp:148] Top shape: 256 128 8 8 (2097152)
I0918 23:20:30.679024 11578 net.cpp:156] Memory required for data: 6039340032
I0918 23:20:30.679029 11578 layer_factory.hpp:77] Creating layer conv4_res6_conv2_elu
I0918 23:20:30.679036 11578 net.cpp:91] Creating Layer conv4_res6_conv2_elu
I0918 23:20:30.679040 11578 net.cpp:425] conv4_res6_conv2_elu <- conv4_res6_conv2
I0918 23:20:30.679045 11578 net.cpp:386] conv4_res6_conv2_elu -> conv4_res6_conv2 (in-place)
I0918 23:20:30.679050 11578 net.cpp:141] Setting up conv4_res6_conv2_elu
I0918 23:20:30.679054 11578 net.cpp:148] Top shape: 256 128 8 8 (2097152)
I0918 23:20:30.679056 11578 net.cpp:156] Memory required for data: 6047728640
I0918 23:20:30.679059 11578 layer_factory.hpp:77] Creating layer conv4_res6_conv3
I0918 23:20:30.679065 11578 net.cpp:91] Creating Layer conv4_res6_conv3
I0918 23:20:30.679069 11578 net.cpp:425] conv4_res6_conv3 <- conv4_res6_conv2
I0918 23:20:30.679074 11578 net.cpp:399] conv4_res6_conv3 -> conv4_res6_conv3
I0918 23:20:30.680239 11578 net.cpp:141] Setting up conv4_res6_conv3
I0918 23:20:30.680249 11578 net.cpp:148] Top shape: 256 512 8 8 (8388608)
I0918 23:20:30.680253 11578 net.cpp:156] Memory required for data: 6081283072
I0918 23:20:30.680258 11578 layer_factory.hpp:77] Creating layer conv4_res6
I0918 23:20:30.680264 11578 net.cpp:91] Creating Layer conv4_res6
I0918 23:20:30.680268 11578 net.cpp:425] conv4_res6 <- conv4_res5_conv4_res5_elu_0_split_1
I0918 23:20:30.680271 11578 net.cpp:425] conv4_res6 <- conv4_res6_conv3
I0918 23:20:30.680275 11578 net.cpp:425] conv4_res6 <- conv2_conv4_proj
I0918 23:20:30.680279 11578 net.cpp:425] conv4_res6 <- conv3_conv4_proj
I0918 23:20:30.680299 11578 net.cpp:399] conv4_res6 -> conv4_res6
I0918 23:20:30.680322 11578 net.cpp:141] Setting up conv4_res6
I0918 23:20:30.680327 11578 net.cpp:148] Top shape: 256 512 8 8 (8388608)
I0918 23:20:30.680330 11578 net.cpp:156] Memory required for data: 6114837504
I0918 23:20:30.680332 11578 layer_factory.hpp:77] Creating layer pool4
I0918 23:20:30.680337 11578 net.cpp:91] Creating Layer pool4
I0918 23:20:30.680340 11578 net.cpp:425] pool4 <- conv4_res6
I0918 23:20:30.680344 11578 net.cpp:399] pool4 -> pool4
I0918 23:20:30.680377 11578 net.cpp:141] Setting up pool4
I0918 23:20:30.680382 11578 net.cpp:148] Top shape: 256 512 4 4 (2097152)
I0918 23:20:30.680383 11578 net.cpp:156] Memory required for data: 6123226112
I0918 23:20:30.680385 11578 layer_factory.hpp:77] Creating layer pool4_elu
I0918 23:20:30.680392 11578 net.cpp:91] Creating Layer pool4_elu
I0918 23:20:30.680393 11578 net.cpp:425] pool4_elu <- pool4
I0918 23:20:30.680397 11578 net.cpp:386] pool4_elu -> pool4 (in-place)
I0918 23:20:30.680402 11578 net.cpp:141] Setting up pool4_elu
I0918 23:20:30.680405 11578 net.cpp:148] Top shape: 256 512 4 4 (2097152)
I0918 23:20:30.680408 11578 net.cpp:156] Memory required for data: 6131614720
I0918 23:20:30.680409 11578 layer_factory.hpp:77] Creating layer pool4_pool4_elu_0_split
I0918 23:20:30.680414 11578 net.cpp:91] Creating Layer pool4_pool4_elu_0_split
I0918 23:20:30.680416 11578 net.cpp:425] pool4_pool4_elu_0_split <- pool4
I0918 23:20:30.680419 11578 net.cpp:399] pool4_pool4_elu_0_split -> pool4_pool4_elu_0_split_0
I0918 23:20:30.680423 11578 net.cpp:399] pool4_pool4_elu_0_split -> pool4_pool4_elu_0_split_1
I0918 23:20:30.680428 11578 net.cpp:399] pool4_pool4_elu_0_split -> pool4_pool4_elu_0_split_2
I0918 23:20:30.680469 11578 net.cpp:141] Setting up pool4_pool4_elu_0_split
I0918 23:20:30.680472 11578 net.cpp:148] Top shape: 256 512 4 4 (2097152)
I0918 23:20:30.680475 11578 net.cpp:148] Top shape: 256 512 4 4 (2097152)
I0918 23:20:30.680477 11578 net.cpp:148] Top shape: 256 512 4 4 (2097152)
I0918 23:20:30.680480 11578 net.cpp:156] Memory required for data: 6156780544
I0918 23:20:30.680482 11578 layer_factory.hpp:77] Creating layer conv4_conv5_proj
I0918 23:20:30.680490 11578 net.cpp:91] Creating Layer conv4_conv5_proj
I0918 23:20:30.680492 11578 net.cpp:425] conv4_conv5_proj <- pool4_pool4_elu_0_split_0
I0918 23:20:30.680497 11578 net.cpp:399] conv4_conv5_proj -> conv4_conv5_proj
I0918 23:20:30.685951 11578 net.cpp:141] Setting up conv4_conv5_proj
I0918 23:20:30.685976 11578 net.cpp:148] Top shape: 256 1024 4 4 (4194304)
I0918 23:20:30.685981 11578 net.cpp:156] Memory required for data: 6173557760
I0918 23:20:30.685989 11578 layer_factory.hpp:77] Creating layer conv5_res1_proj
I0918 23:20:30.686005 11578 net.cpp:91] Creating Layer conv5_res1_proj
I0918 23:20:30.686012 11578 net.cpp:425] conv5_res1_proj <- pool4_pool4_elu_0_split_1
I0918 23:20:30.686022 11578 net.cpp:399] conv5_res1_proj -> conv5_res1_proj
I0918 23:20:30.690037 11578 net.cpp:141] Setting up conv5_res1_proj
I0918 23:20:30.690050 11578 net.cpp:148] Top shape: 256 1024 4 4 (4194304)
I0918 23:20:30.690053 11578 net.cpp:156] Memory required for data: 6190334976
I0918 23:20:30.690058 11578 layer_factory.hpp:77] Creating layer conv5_res1_conv1
I0918 23:20:30.690068 11578 net.cpp:91] Creating Layer conv5_res1_conv1
I0918 23:20:30.690071 11578 net.cpp:425] conv5_res1_conv1 <- pool4_pool4_elu_0_split_2
I0918 23:20:30.690078 11578 net.cpp:399] conv5_res1_conv1 -> conv5_res1_conv1
I0918 23:20:30.691370 11578 net.cpp:141] Setting up conv5_res1_conv1
I0918 23:20:30.691380 11578 net.cpp:148] Top shape: 256 256 4 4 (1048576)
I0918 23:20:30.691382 11578 net.cpp:156] Memory required for data: 6194529280
I0918 23:20:30.691386 11578 layer_factory.hpp:77] Creating layer conv5_res1_conv1_elu
I0918 23:20:30.691392 11578 net.cpp:91] Creating Layer conv5_res1_conv1_elu
I0918 23:20:30.691395 11578 net.cpp:425] conv5_res1_conv1_elu <- conv5_res1_conv1
I0918 23:20:30.691400 11578 net.cpp:386] conv5_res1_conv1_elu -> conv5_res1_conv1 (in-place)
I0918 23:20:30.691404 11578 net.cpp:141] Setting up conv5_res1_conv1_elu
I0918 23:20:30.691421 11578 net.cpp:148] Top shape: 256 256 4 4 (1048576)
I0918 23:20:30.691422 11578 net.cpp:156] Memory required for data: 6198723584
I0918 23:20:30.691426 11578 layer_factory.hpp:77] Creating layer conv5_res1_conv2
I0918 23:20:30.691431 11578 net.cpp:91] Creating Layer conv5_res1_conv2
I0918 23:20:30.691434 11578 net.cpp:425] conv5_res1_conv2 <- conv5_res1_conv1
I0918 23:20:30.691438 11578 net.cpp:399] conv5_res1_conv2 -> conv5_res1_conv2
I0918 23:20:30.695386 11578 net.cpp:141] Setting up conv5_res1_conv2
I0918 23:20:30.695395 11578 net.cpp:148] Top shape: 256 256 4 4 (1048576)
I0918 23:20:30.695399 11578 net.cpp:156] Memory required for data: 6202917888
I0918 23:20:30.695405 11578 layer_factory.hpp:77] Creating layer conv5_res1_conv2_elu
I0918 23:20:30.695410 11578 net.cpp:91] Creating Layer conv5_res1_conv2_elu
I0918 23:20:30.695412 11578 net.cpp:425] conv5_res1_conv2_elu <- conv5_res1_conv2
I0918 23:20:30.695417 11578 net.cpp:386] conv5_res1_conv2_elu -> conv5_res1_conv2 (in-place)
I0918 23:20:30.695422 11578 net.cpp:141] Setting up conv5_res1_conv2_elu
I0918 23:20:30.695425 11578 net.cpp:148] Top shape: 256 256 4 4 (1048576)
I0918 23:20:30.695427 11578 net.cpp:156] Memory required for data: 6207112192
I0918 23:20:30.695430 11578 layer_factory.hpp:77] Creating layer conv5_res1_conv3
I0918 23:20:30.695436 11578 net.cpp:91] Creating Layer conv5_res1_conv3
I0918 23:20:30.695437 11578 net.cpp:425] conv5_res1_conv3 <- conv5_res1_conv2
I0918 23:20:30.695442 11578 net.cpp:399] conv5_res1_conv3 -> conv5_res1_conv3
I0918 23:20:30.697666 11578 net.cpp:141] Setting up conv5_res1_conv3
I0918 23:20:30.697674 11578 net.cpp:148] Top shape: 256 1024 4 4 (4194304)
I0918 23:20:30.697677 11578 net.cpp:156] Memory required for data: 6223889408
I0918 23:20:30.697682 11578 layer_factory.hpp:77] Creating layer conv5_res1
I0918 23:20:30.697687 11578 net.cpp:91] Creating Layer conv5_res1
I0918 23:20:30.697690 11578 net.cpp:425] conv5_res1 <- conv5_res1_proj
I0918 23:20:30.697695 11578 net.cpp:425] conv5_res1 <- conv5_res1_conv3
I0918 23:20:30.697698 11578 net.cpp:399] conv5_res1 -> conv5_res1
I0918 23:20:30.697720 11578 net.cpp:141] Setting up conv5_res1
I0918 23:20:30.697723 11578 net.cpp:148] Top shape: 256 1024 4 4 (4194304)
I0918 23:20:30.697726 11578 net.cpp:156] Memory required for data: 6240666624
I0918 23:20:30.697728 11578 layer_factory.hpp:77] Creating layer conv5_res1_elu
I0918 23:20:30.697732 11578 net.cpp:91] Creating Layer conv5_res1_elu
I0918 23:20:30.697736 11578 net.cpp:425] conv5_res1_elu <- conv5_res1
I0918 23:20:30.697738 11578 net.cpp:386] conv5_res1_elu -> conv5_res1 (in-place)
I0918 23:20:30.697742 11578 net.cpp:141] Setting up conv5_res1_elu
I0918 23:20:30.697746 11578 net.cpp:148] Top shape: 256 1024 4 4 (4194304)
I0918 23:20:30.697747 11578 net.cpp:156] Memory required for data: 6257443840
I0918 23:20:30.697749 11578 layer_factory.hpp:77] Creating layer conv5_res1_conv5_res1_elu_0_split
I0918 23:20:30.697753 11578 net.cpp:91] Creating Layer conv5_res1_conv5_res1_elu_0_split
I0918 23:20:30.697756 11578 net.cpp:425] conv5_res1_conv5_res1_elu_0_split <- conv5_res1
I0918 23:20:30.697760 11578 net.cpp:399] conv5_res1_conv5_res1_elu_0_split -> conv5_res1_conv5_res1_elu_0_split_0
I0918 23:20:30.697764 11578 net.cpp:399] conv5_res1_conv5_res1_elu_0_split -> conv5_res1_conv5_res1_elu_0_split_1
I0918 23:20:30.697794 11578 net.cpp:141] Setting up conv5_res1_conv5_res1_elu_0_split
I0918 23:20:30.697798 11578 net.cpp:148] Top shape: 256 1024 4 4 (4194304)
I0918 23:20:30.697801 11578 net.cpp:148] Top shape: 256 1024 4 4 (4194304)
I0918 23:20:30.697803 11578 net.cpp:156] Memory required for data: 6290998272
I0918 23:20:30.697805 11578 layer_factory.hpp:77] Creating layer conv5_res2_conv1
I0918 23:20:30.697813 11578 net.cpp:91] Creating Layer conv5_res2_conv1
I0918 23:20:30.697815 11578 net.cpp:425] conv5_res2_conv1 <- conv5_res1_conv5_res1_elu_0_split_0
I0918 23:20:30.697819 11578 net.cpp:399] conv5_res2_conv1 -> conv5_res2_conv1
I0918 23:20:30.702432 11578 net.cpp:141] Setting up conv5_res2_conv1
I0918 23:20:30.702481 11578 net.cpp:148] Top shape: 256 256 4 4 (1048576)
I0918 23:20:30.702499 11578 net.cpp:156] Memory required for data: 6295192576
I0918 23:20:30.702504 11578 layer_factory.hpp:77] Creating layer conv5_res2_conv1_elu
I0918 23:20:30.702523 11578 net.cpp:91] Creating Layer conv5_res2_conv1_elu
I0918 23:20:30.702527 11578 net.cpp:425] conv5_res2_conv1_elu <- conv5_res2_conv1
I0918 23:20:30.702533 11578 net.cpp:386] conv5_res2_conv1_elu -> conv5_res2_conv1 (in-place)
I0918 23:20:30.702538 11578 net.cpp:141] Setting up conv5_res2_conv1_elu
I0918 23:20:30.702541 11578 net.cpp:148] Top shape: 256 256 4 4 (1048576)
I0918 23:20:30.702543 11578 net.cpp:156] Memory required for data: 6299386880
I0918 23:20:30.702559 11578 layer_factory.hpp:77] Creating layer conv5_res2_conv2
I0918 23:20:30.702564 11578 net.cpp:91] Creating Layer conv5_res2_conv2
I0918 23:20:30.702580 11578 net.cpp:425] conv5_res2_conv2 <- conv5_res2_conv1
I0918 23:20:30.702585 11578 net.cpp:399] conv5_res2_conv2 -> conv5_res2_conv2
I0918 23:20:30.707027 11578 net.cpp:141] Setting up conv5_res2_conv2
I0918 23:20:30.707037 11578 net.cpp:148] Top shape: 256 1024 4 4 (4194304)
I0918 23:20:30.707041 11578 net.cpp:156] Memory required for data: 6316164096
I0918 23:20:30.707043 11578 layer_factory.hpp:77] Creating layer conv5_res2
I0918 23:20:30.707058 11578 net.cpp:91] Creating Layer conv5_res2
I0918 23:20:30.707062 11578 net.cpp:425] conv5_res2 <- conv5_res1_conv5_res1_elu_0_split_1
I0918 23:20:30.707067 11578 net.cpp:425] conv5_res2 <- conv5_res2_conv2
I0918 23:20:30.707069 11578 net.cpp:399] conv5_res2 -> conv5_res2
I0918 23:20:30.707094 11578 net.cpp:141] Setting up conv5_res2
I0918 23:20:30.707098 11578 net.cpp:148] Top shape: 256 1024 4 4 (4194304)
I0918 23:20:30.707100 11578 net.cpp:156] Memory required for data: 6332941312
I0918 23:20:30.707103 11578 layer_factory.hpp:77] Creating layer conv5_res2_elu
I0918 23:20:30.707108 11578 net.cpp:91] Creating Layer conv5_res2_elu
I0918 23:20:30.707110 11578 net.cpp:425] conv5_res2_elu <- conv5_res2
I0918 23:20:30.707113 11578 net.cpp:386] conv5_res2_elu -> conv5_res2 (in-place)
I0918 23:20:30.707118 11578 net.cpp:141] Setting up conv5_res2_elu
I0918 23:20:30.707120 11578 net.cpp:148] Top shape: 256 1024 4 4 (4194304)
I0918 23:20:30.707123 11578 net.cpp:156] Memory required for data: 6349718528
I0918 23:20:30.707124 11578 layer_factory.hpp:77] Creating layer conv5_res2_conv5_res2_elu_0_split
I0918 23:20:30.707129 11578 net.cpp:91] Creating Layer conv5_res2_conv5_res2_elu_0_split
I0918 23:20:30.707130 11578 net.cpp:425] conv5_res2_conv5_res2_elu_0_split <- conv5_res2
I0918 23:20:30.707134 11578 net.cpp:399] conv5_res2_conv5_res2_elu_0_split -> conv5_res2_conv5_res2_elu_0_split_0
I0918 23:20:30.707139 11578 net.cpp:399] conv5_res2_conv5_res2_elu_0_split -> conv5_res2_conv5_res2_elu_0_split_1
I0918 23:20:30.707168 11578 net.cpp:141] Setting up conv5_res2_conv5_res2_elu_0_split
I0918 23:20:30.707172 11578 net.cpp:148] Top shape: 256 1024 4 4 (4194304)
I0918 23:20:30.707175 11578 net.cpp:148] Top shape: 256 1024 4 4 (4194304)
I0918 23:20:30.707177 11578 net.cpp:156] Memory required for data: 6383272960
I0918 23:20:30.707180 11578 layer_factory.hpp:77] Creating layer conv5_res3_conv1
I0918 23:20:30.707186 11578 net.cpp:91] Creating Layer conv5_res3_conv1
I0918 23:20:30.707190 11578 net.cpp:425] conv5_res3_conv1 <- conv5_res2_conv5_res2_elu_0_split_0
I0918 23:20:30.707193 11578 net.cpp:399] conv5_res3_conv1 -> conv5_res3_conv1
I0918 23:20:30.709283 11578 net.cpp:141] Setting up conv5_res3_conv1
I0918 23:20:30.709292 11578 net.cpp:148] Top shape: 256 256 4 4 (1048576)
I0918 23:20:30.709295 11578 net.cpp:156] Memory required for data: 6387467264
I0918 23:20:30.709300 11578 layer_factory.hpp:77] Creating layer conv5_res3_conv1_elu
I0918 23:20:30.709305 11578 net.cpp:91] Creating Layer conv5_res3_conv1_elu
I0918 23:20:30.709308 11578 net.cpp:425] conv5_res3_conv1_elu <- conv5_res3_conv1
I0918 23:20:30.709314 11578 net.cpp:386] conv5_res3_conv1_elu -> conv5_res3_conv1 (in-place)
I0918 23:20:30.709328 11578 net.cpp:141] Setting up conv5_res3_conv1_elu
I0918 23:20:30.709331 11578 net.cpp:148] Top shape: 256 256 4 4 (1048576)
I0918 23:20:30.709334 11578 net.cpp:156] Memory required for data: 6391661568
I0918 23:20:30.709336 11578 layer_factory.hpp:77] Creating layer conv5_res3_conv2
I0918 23:20:30.709342 11578 net.cpp:91] Creating Layer conv5_res3_conv2
I0918 23:20:30.709344 11578 net.cpp:425] conv5_res3_conv2 <- conv5_res3_conv1
I0918 23:20:30.709349 11578 net.cpp:399] conv5_res3_conv2 -> conv5_res3_conv2
I0918 23:20:30.713503 11578 net.cpp:141] Setting up conv5_res3_conv2
I0918 23:20:30.713516 11578 net.cpp:148] Top shape: 256 256 4 4 (1048576)
I0918 23:20:30.713520 11578 net.cpp:156] Memory required for data: 6395855872
I0918 23:20:30.713526 11578 layer_factory.hpp:77] Creating layer conv5_res3_conv2_elu
I0918 23:20:30.713531 11578 net.cpp:91] Creating Layer conv5_res3_conv2_elu
I0918 23:20:30.713536 11578 net.cpp:425] conv5_res3_conv2_elu <- conv5_res3_conv2
I0918 23:20:30.713539 11578 net.cpp:386] conv5_res3_conv2_elu -> conv5_res3_conv2 (in-place)
I0918 23:20:30.713546 11578 net.cpp:141] Setting up conv5_res3_conv2_elu
I0918 23:20:30.713548 11578 net.cpp:148] Top shape: 256 256 4 4 (1048576)
I0918 23:20:30.713551 11578 net.cpp:156] Memory required for data: 6400050176
I0918 23:20:30.713553 11578 layer_factory.hpp:77] Creating layer conv5_res3_conv3
I0918 23:20:30.713560 11578 net.cpp:91] Creating Layer conv5_res3_conv3
I0918 23:20:30.713563 11578 net.cpp:425] conv5_res3_conv3 <- conv5_res3_conv2
I0918 23:20:30.713567 11578 net.cpp:399] conv5_res3_conv3 -> conv5_res3_conv3
I0918 23:20:30.716048 11578 net.cpp:141] Setting up conv5_res3_conv3
I0918 23:20:30.716058 11578 net.cpp:148] Top shape: 256 1024 4 4 (4194304)
I0918 23:20:30.716063 11578 net.cpp:156] Memory required for data: 6416827392
I0918 23:20:30.716068 11578 layer_factory.hpp:77] Creating layer conv5_res3
I0918 23:20:30.716073 11578 net.cpp:91] Creating Layer conv5_res3
I0918 23:20:30.716075 11578 net.cpp:425] conv5_res3 <- conv5_res2_conv5_res2_elu_0_split_1
I0918 23:20:30.716079 11578 net.cpp:425] conv5_res3 <- conv5_res3_conv3
I0918 23:20:30.716084 11578 net.cpp:425] conv5_res3 <- conv2_conv5_proj
I0918 23:20:30.716086 11578 net.cpp:425] conv5_res3 <- conv3_conv5_proj
I0918 23:20:30.716089 11578 net.cpp:425] conv5_res3 <- conv4_conv5_proj
I0918 23:20:30.716094 11578 net.cpp:399] conv5_res3 -> conv5_res3
I0918 23:20:30.716117 11578 net.cpp:141] Setting up conv5_res3
I0918 23:20:30.716122 11578 net.cpp:148] Top shape: 256 1024 4 4 (4194304)
I0918 23:20:30.716125 11578 net.cpp:156] Memory required for data: 6433604608
I0918 23:20:30.716126 11578 layer_factory.hpp:77] Creating layer conv5_res3_elu
I0918 23:20:30.716131 11578 net.cpp:91] Creating Layer conv5_res3_elu
I0918 23:20:30.716133 11578 net.cpp:425] conv5_res3_elu <- conv5_res3
I0918 23:20:30.716137 11578 net.cpp:386] conv5_res3_elu -> conv5_res3 (in-place)
I0918 23:20:30.716141 11578 net.cpp:141] Setting up conv5_res3_elu
I0918 23:20:30.716145 11578 net.cpp:148] Top shape: 256 1024 4 4 (4194304)
I0918 23:20:30.716146 11578 net.cpp:156] Memory required for data: 6450381824
I0918 23:20:30.716148 11578 layer_factory.hpp:77] Creating layer pool5
I0918 23:20:30.716152 11578 net.cpp:91] Creating Layer pool5
I0918 23:20:30.716155 11578 net.cpp:425] pool5 <- conv5_res3
I0918 23:20:30.716159 11578 net.cpp:399] pool5 -> pool5
I0918 23:20:30.716311 11578 net.cpp:141] Setting up pool5
I0918 23:20:30.716317 11578 net.cpp:148] Top shape: 256 1024 1 1 (262144)
I0918 23:20:30.716320 11578 net.cpp:156] Memory required for data: 6451430400
I0918 23:20:30.716322 11578 layer_factory.hpp:77] Creating layer pool5_drop1
I0918 23:20:30.716331 11578 net.cpp:91] Creating Layer pool5_drop1
I0918 23:20:30.716334 11578 net.cpp:425] pool5_drop1 <- pool5
I0918 23:20:30.716338 11578 net.cpp:399] pool5_drop1 -> pool5_drop1
I0918 23:20:30.716373 11578 net.cpp:141] Setting up pool5_drop1
I0918 23:20:30.716377 11578 net.cpp:148] Top shape: 256 1024 1 1 (262144)
I0918 23:20:30.716379 11578 net.cpp:156] Memory required for data: 6452478976
I0918 23:20:30.716389 11578 layer_factory.hpp:77] Creating layer fc
I0918 23:20:30.716397 11578 net.cpp:91] Creating Layer fc
I0918 23:20:30.716398 11578 net.cpp:425] fc <- pool5_drop1
I0918 23:20:30.716403 11578 net.cpp:399] fc -> fc
I0918 23:20:30.739598 11578 net.cpp:141] Setting up fc
I0918 23:20:30.739617 11578 net.cpp:148] Top shape: 256 1000 (256000)
I0918 23:20:30.739620 11578 net.cpp:156] Memory required for data: 6453502976
I0918 23:20:30.739626 11578 layer_factory.hpp:77] Creating layer loss
I0918 23:20:30.739639 11578 net.cpp:91] Creating Layer loss
I0918 23:20:30.739644 11578 net.cpp:425] loss <- fc
I0918 23:20:30.739648 11578 net.cpp:425] loss <- label
I0918 23:20:30.739655 11578 net.cpp:399] loss -> loss
I0918 23:20:30.739663 11578 layer_factory.hpp:77] Creating layer loss
…
I0918 23:20:30.741405 11578 net.cpp:313] The NetState phase (1) differed from the phase (0) specified by a rule in layer data
I0918 23:20:30.741955 11578 net.cpp:49] Initializing net from parameters: 
state {
  phase: TEST
}
layer {
  name: "data"
  type: "Data"
  top: "data"
  top: "label"
  include {
    phase: TEST
  }
  transform_param {
    scale: 0.04
    mirror: false
    crop_size: 128
    mean_value: 104
    mean_value: 117
    mean_value: 123
  }
  data_param {
    source: "/media/dereyly/data_one/data/CAFFE_DATA/imagenet_val_144_2"
    batch_size: 100
    backend: LMDB
  }
}
layer {
  name: "conv1"
  type: "Convolution"
  bottom: "data"
  top: "conv1"
  param {
    lr_mult: 1
    decay_mult: 1
  }
  convolution_param {
    num_output: 64
    pad: 0
    kernel_size: 7
    stride: 2
    weight_filler {
      type: "xavier"
    }
  }
}
layer {
  name: "conv1_relu"
  type: "ReLU"
  bottom: "conv1"
  top: "conv1"
}
layer {
  name: "pool1"
  type: "Pooling"
  bottom: "conv1"
  top: "pool1"
  pooling_param {
    pool: MAX
    kernel_size: 3
    stride: 2
    pad: 1
  }
}
layer {
  name: "pool1_elu"
  type: "ELU"
  bottom: "pool1"
  top: "pool1"
  elu_param {
    alpha: 1
  }
}
layer {
  name: "conv1_conv2_proj"
  type: "Convolution"
  bottom: "pool1"
  top: "conv1_conv2_proj"
  param {
    lr_mult: 1
    decay_mult: 1
  }
  convolution_param {
    num_output: 128
    pad: 0
    kernel_size: 1
    stride: 1
    weight_filler {
      type: "xavier"
    }
  }
}
layer {
  name: "conv1_conv3_proj"
  type: "Convolution"
  bottom: "pool1"
  top: "conv1_conv3_proj"
  param {
    lr_mult: 1
    decay_mult: 1
  }
  convolution_param {
    num_output: 256
    pad: 0
    kernel_size: 1
    stride: 2
    weight_filler {
      type: "xavier"
    }
  }
}
layer {
  name: "conv2_res1_proj"
  type: "Convolution"
  bottom: "pool1"
  top: "conv2_res1_proj"
  param {
    lr_mult: 1
    decay_mult: 1
  }
  convolution_param {
    num_output: 128
    pad: 0
    kernel_size: 1
    stride: 1
    weight_filler {
      type: "xavier"
    }
  }
}
layer {
  name: "conv2_res1_conv1"
  type: "Convolution"
  bottom: "pool1"
  top: "conv2_res1_conv1"
  param {
    lr_mult: 1
    decay_mult: 1
  }
  convolution_param {
    num_output: 32
    pad: 0
    kernel_size: 1
    stride: 1
    weight_filler {
      type: "xavier"
    }
  }
}
layer {
  name: "conv2_res1_conv1_elu"
  type: "ELU"
  bottom: "conv2_res1_conv1"
  top: "conv2_res1_conv1"
  elu_param {
    alpha: 1
  }
}
layer {
  name: "conv2_res1_conv2"
  type: "Convolution"
  bottom: "conv2_res1_conv1"
  top: "conv2_res1_conv2"
  param {
    lr_mult: 1
    decay_mult: 1
  }
  convolution_param {
    num_output: 32
    pad: 1
    kernel_size: 3
    stride: 1
    weight_filler {
      type: "xavier"
    }
  }
}
layer {
  name: "conv2_res1_conv2_elu"
  type: "ELU"
  bottom: "conv2_res1_conv2"
  top: "conv2_res1_conv2"
  elu_param {
    alpha: 1
  }
}
layer {
  name: "conv2_res1_conv3"
  type: "Convolution"
  bottom: "conv2_res1_conv2"
  top: "conv2_res1_conv3"
  param {
    lr_mult: 1
    decay_mult: 1
  }
  convolution_param {
    num_output: 128
    pad: 0
    kernel_size: 1
    stride: 1
    weight_filler {
      type: "xavier"
    }
  }
}
layer {
  name: "conv2_res1"
  type: "Eltwise"
  bottom: "conv2_res1_proj"
  bottom: "conv2_res1_conv3"
  top: "conv2_res1"
}
layer {
  name: "conv2_res1_elu"
  type: "ELU"
  bottom: "conv2_res1"
  top: "conv2_res1"
  elu_param {
    alpha: 1
  }
}
layer {
  name: "conv2_res2_conv1"
  type: "Convolution"
  bottom: "conv2_res1"
  top: "conv2_res2_conv1"
  param {
    lr_mult: 1
    decay_mult: 1
  }
  convolution_param {
    num_output: 32
    bias_term: false
    stride: 1
    weight_filler {
      type: "xavier"
    }
    pad_h: 0
    pad_w: 1
    kernel_h: 1
    kernel_w: 3
  }
}
layer {
  name: "conv2_res2_conv1_elu"
  type: "ELU"
  bottom: "conv2_res2_conv1"
  top: "conv2_res2_conv1"
  elu_param {
    alpha: 1
  }
}
layer {
  name: "conv2_res2_conv2"
  type: "Convolution"
  bottom: "conv2_res2_conv1"
  top: "conv2_res2_conv2"
  param {
    lr_mult: 1
    decay_mult: 1
  }
  convolution_param {
    num_output: 128
    bias_term: false
    stride: 1
    weight_filler {
      type: "xavier"
    }
    pad_h: 1
    pad_w: 0
    kernel_h: 3
    kernel_w: 1
  }
}
layer {
  name: "conv2_res2"
  type: "Eltwise"
  bottom: "conv2_res1"
  bottom: "conv2_res2_conv2"
  top: "conv2_res2"
}
layer {
  name: "conv2_res2_elu"
  type: "ELU"
  bottom: "conv2_res2"
  top: "conv2_res2"
  elu_param {
    alpha: 1
  }
}
layer {
  name: "conv2_res3_conv1"
  type: "Convolution"
  bottom: "conv2_res2"
  top: "conv2_res3_conv1"
  param {
    lr_mult: 1
    decay_mult: 1
  }
  convolution_param {
    num_output: 32
    pad: 0
    kernel_size: 1
    stride: 1
    weight_filler {
      type: "xavier"
    }
  }
}
layer {
  name: "conv2_res3_conv1_elu"
  type: "ELU"
  bottom: "conv2_res3_conv1"
  top: "conv2_res3_conv1"
  elu_param {
    alpha: 1
  }
}
layer {
  name: "conv2_res3_conv2"
  type: "Convolution"
  bottom: "conv2_res3_conv1"
  top: "conv2_res3_conv2"
  param {
    lr_mult: 1
    decay_mult: 1
  }
  convolution_param {
    num_output: 32
    pad: 1
    kernel_size: 3
    stride: 1
    weight_filler {
      type: "xavier"
    }
  }
}
layer {
  name: "conv2_res3_conv2_elu"
  type: "ELU"
  bottom: "conv2_res3_conv2"
  top: "conv2_res3_conv2"
  elu_param {
    alpha: 1
  }
}
layer {
  name: "conv2_res3_conv3"
  type: "Convolution"
  bottom: "conv2_res3_conv2"
  top: "conv2_res3_conv3"
  param {
    lr_mult: 1
    decay_mult: 1
  }
  convolution_param {
    num_output: 128
    pad: 0
    kernel_size: 1
    stride: 1
    weight_filler {
      type: "xavier"
    }
  }
}
layer {
  name: "conv2_res3"
  type: "Eltwise"
  bottom: "conv2_res2"
  bottom: "conv2_res3_conv3"
  bottom: "conv1_conv2_proj"
  top: "conv2_res3"
}
layer {
  name: "pool2"
  type: "Pooling"
  bottom: "conv2_res3"
  top: "pool2"
  pooling_param {
    pool: MAX
    kernel_size: 2
    stride: 2
    pad: 0
  }
}
layer {
  name: "pool2_elu"
  type: "ELU"
  bottom: "pool2"
  top: "pool2"
  elu_param {
    alpha: 1
  }
}
layer {
  name: "conv2_conv3_proj"
  type: "Convolution"
  bottom: "pool2"
  top: "conv2_conv3_proj"
  param {
    lr_mult: 1
    decay_mult: 1
  }
  convolution_param {
    num_output: 256
    pad: 0
    kernel_size: 1
    stride: 1
    weight_filler {
      type: "xavier"
    }
  }
}
layer {
  name: "conv2_conv4_proj"
  type: "Convolution"
  bottom: "pool2"
  top: "conv2_conv4_proj"
  param {
    lr_mult: 1
    decay_mult: 1
  }
  convolution_param {
    num_output: 512
    pad: 0
    kernel_size: 1
    stride: 2
    weight_filler {
      type: "xavier"
    }
  }
}
layer {
  name: "conv2_conv5_proj"
  type: "Convolution"
  bottom: "pool2"
  top: "conv2_conv5_proj"
  param {
    lr_mult: 1
    decay_mult: 1
  }
  convolution_param {
    num_output: 1024
    pad: 0
    kernel_size: 1
    stride: 4
    weight_filler {
      type: "xavier"
    }
  }
}
layer {
  name: "conv3_res1_proj"
  type: "Convolution"
  bottom: "pool2"
  top: "conv3_res1_proj"
  param {
    lr_mult: 1
    decay_mult: 1
  }
  convolution_param {
    num_output: 256
    pad: 0
    kernel_size: 1
    stride: 1
    weight_filler {
      type: "xavier"
    }
  }
}
layer {
  name: "conv3_res1_conv1"
  type: "Convolution"
  bottom: "pool2"
  top: "conv3_res1_conv1"
  param {
    lr_mult: 1
    decay_mult: 1
  }
  convolution_param {
    num_output: 64
    pad: 0
    kernel_size: 1
    stride: 1
    weight_filler {
      type: "xavier"
    }
  }
}
layer {
  name: "conv3_res1_conv1_elu"
  type: "ELU"
  bottom: "conv3_res1_conv1"
  top: "conv3_res1_conv1"
  elu_param {
    alpha: 1
  }
}
layer {
  name: "conv3_res1_conv2"
  type: "Convolution"
  bottom: "conv3_res1_conv1"
  top: "conv3_res1_conv2"
  param {
    lr_mult: 1
    decay_mult: 1
  }
  convolution_param {
    num_output: 64
    pad: 1
    kernel_size: 3
    stride: 1
    weight_filler {
      type: "xavier"
    }
  }
}
layer {
  name: "conv3_res1_conv2_elu"
  type: "ELU"
  bottom: "conv3_res1_conv2"
  top: "conv3_res1_conv2"
  elu_param {
    alpha: 1
  }
}
layer {
  name: "conv3_res1_conv3"
  type: "Convolution"
  bottom: "conv3_res1_conv2"
  top: "conv3_res1_conv3"
  param {
    lr_mult: 1
    decay_mult: 1
  }
  convolution_param {
    num_output: 256
    pad: 0
    kernel_size: 1
    stride: 1
    weight_filler {
      type: "xavier"
    }
  }
}
layer {
  name: "conv3_res1"
  type: "Eltwise"
  bottom: "conv3_res1_proj"
  bottom: "conv3_res1_conv3"
  top: "conv3_res1"
}
layer {
  name: "conv3_res1_elu"
  type: "ELU"
  bottom: "conv3_res1"
  top: "conv3_res1"
  elu_param {
    alpha: 1
  }
}
layer {
  name: "conv3_res2_conv1"
  type: "Convolution"
  bottom: "conv3_res1"
  top: "conv3_res2_conv1"
  param {
    lr_mult: 1
    decay_mult: 1
  }
  convolution_param {
    num_output: 64
    bias_term: false
    stride: 1
    weight_filler {
      type: "xavier"
    }
    pad_h: 0
    pad_w: 1
    kernel_h: 1
    kernel_w: 3
  }
}
layer {
  name: "conv3_res2_conv1_elu"
  type: "ELU"
  bottom: "conv3_res2_conv1"
  top: "conv3_res2_conv1"
  elu_param {
    alpha: 1
  }
}
layer {
  name: "conv3_res2_conv2"
  type: "Convolution"
  bottom: "conv3_res2_conv1"
  top: "conv3_res2_conv2"
  param {
    lr_mult: 1
    decay_mult: 1
  }
  convolution_param {
    num_output: 256
    bias_term: false
    stride: 1
    weight_filler {
      type: "xavier"
    }
    pad_h: 1
    pad_w: 0
    kernel_h: 3
    kernel_w: 1
  }
}
layer {
  name: "conv3_res2"
  type: "Eltwise"
  bottom: "conv3_res1"
  bottom: "conv3_res2_conv2"
  top: "conv3_res2"
}
layer {
  name: "conv3_res2_elu"
  type: "ELU"
  bottom: "conv3_res2"
  top: "conv3_res2"
  elu_param {
    alpha: 1
  }
}
layer {
  name: "conv3_res3_conv1"
  type: "Convolution"
  bottom: "conv3_res2"
  top: "conv3_res3_conv1"
  param {
    lr_mult: 1
    decay_mult: 1
  }
  convolution_param {
    num_output: 64
    pad: 0
    kernel_size: 1
    stride: 1
    weight_filler {
      type: "xavier"
    }
  }
}
layer {
  name: "conv3_res3_conv1_elu"
  type: "ELU"
  bottom: "conv3_res3_conv1"
  top: "conv3_res3_conv1"
  elu_param {
    alpha: 1
  }
}
layer {
  name: "conv3_res3_conv2"
  type: "Convolution"
  bottom: "conv3_res3_conv1"
  top: "conv3_res3_conv2"
  param {
    lr_mult: 1
    decay_mult: 1
  }
  convolution_param {
    num_output: 64
    pad: 1
    kernel_size: 3
    stride: 1
    weight_filler {
      type: "xavier"
    }
  }
}
layer {
  name: "conv3_res3_conv2_elu"
  type: "ELU"
…
I0918 23:20:30.809212 11578 net.cpp:91] Creating Layer conv3_res3_conv3_res3_elu_0_split
I0918 23:20:30.809214 11578 net.cpp:425] conv3_res3_conv3_res3_elu_0_split <- conv3_res3
I0918 23:20:30.809218 11578 net.cpp:399] conv3_res3_conv3_res3_elu_0_split -> conv3_res3_conv3_res3_elu_0_split_0
I0918 23:20:30.809223 11578 net.cpp:399] conv3_res3_conv3_res3_elu_0_split -> conv3_res3_conv3_res3_elu_0_split_1
I0918 23:20:30.809284 11578 net.cpp:141] Setting up conv3_res3_conv3_res3_elu_0_split
I0918 23:20:30.809289 11578 net.cpp:148] Top shape: 100 256 16 16 (6553600)
I0918 23:20:30.809293 11578 net.cpp:148] Top shape: 100 256 16 16 (6553600)
I0918 23:20:30.809295 11578 net.cpp:156] Memory required for data: 1818446400
I0918 23:20:30.809298 11578 layer_factory.hpp:77] Creating layer conv3_res4_conv1
I0918 23:20:30.809308 11578 net.cpp:91] Creating Layer conv3_res4_conv1
I0918 23:20:30.809310 11578 net.cpp:425] conv3_res4_conv1 <- conv3_res3_conv3_res3_elu_0_split_0
I0918 23:20:30.809315 11578 net.cpp:399] conv3_res4_conv1 -> conv3_res4_conv1
I0918 23:20:30.810405 11578 net.cpp:141] Setting up conv3_res4_conv1
I0918 23:20:30.810413 11578 net.cpp:148] Top shape: 100 64 16 16 (1638400)
I0918 23:20:30.810416 11578 net.cpp:156] Memory required for data: 1825000000
I0918 23:20:30.810421 11578 layer_factory.hpp:77] Creating layer conv3_res4_conv1_elu
I0918 23:20:30.810427 11578 net.cpp:91] Creating Layer conv3_res4_conv1_elu
I0918 23:20:30.810431 11578 net.cpp:425] conv3_res4_conv1_elu <- conv3_res4_conv1
I0918 23:20:30.810434 11578 net.cpp:386] conv3_res4_conv1_elu -> conv3_res4_conv1 (in-place)
I0918 23:20:30.810439 11578 net.cpp:141] Setting up conv3_res4_conv1_elu
I0918 23:20:30.810442 11578 net.cpp:148] Top shape: 100 64 16 16 (1638400)
I0918 23:20:30.810444 11578 net.cpp:156] Memory required for data: 1831553600
I0918 23:20:30.810446 11578 layer_factory.hpp:77] Creating layer conv3_res4_conv2
I0918 23:20:30.810456 11578 net.cpp:91] Creating Layer conv3_res4_conv2
I0918 23:20:30.810457 11578 net.cpp:425] conv3_res4_conv2 <- conv3_res4_conv1
I0918 23:20:30.810477 11578 net.cpp:399] conv3_res4_conv2 -> conv3_res4_conv2
I0918 23:20:30.811725 11578 net.cpp:141] Setting up conv3_res4_conv2
I0918 23:20:30.811749 11578 net.cpp:148] Top shape: 100 64 16 16 (1638400)
I0918 23:20:30.811753 11578 net.cpp:156] Memory required for data: 1838107200
I0918 23:20:30.811776 11578 layer_factory.hpp:77] Creating layer conv3_res4_conv2_elu
I0918 23:20:30.811796 11578 net.cpp:91] Creating Layer conv3_res4_conv2_elu
I0918 23:20:30.811800 11578 net.cpp:425] conv3_res4_conv2_elu <- conv3_res4_conv2
I0918 23:20:30.811806 11578 net.cpp:386] conv3_res4_conv2_elu -> conv3_res4_conv2 (in-place)
I0918 23:20:30.811822 11578 net.cpp:141] Setting up conv3_res4_conv2_elu
I0918 23:20:30.811847 11578 net.cpp:148] Top shape: 100 64 16 16 (1638400)
I0918 23:20:30.811851 11578 net.cpp:156] Memory required for data: 1844660800
I0918 23:20:30.811852 11578 layer_factory.hpp:77] Creating layer conv3_res4_conv3
I0918 23:20:30.811861 11578 net.cpp:91] Creating Layer conv3_res4_conv3
I0918 23:20:30.811863 11578 net.cpp:425] conv3_res4_conv3 <- conv3_res4_conv2
I0918 23:20:30.811869 11578 net.cpp:399] conv3_res4_conv3 -> conv3_res4_conv3
I0918 23:20:30.813102 11578 net.cpp:141] Setting up conv3_res4_conv3
I0918 23:20:30.813112 11578 net.cpp:148] Top shape: 100 256 16 16 (6553600)
I0918 23:20:30.813114 11578 net.cpp:156] Memory required for data: 1870875200
I0918 23:20:30.813119 11578 layer_factory.hpp:77] Creating layer conv3_res4
I0918 23:20:30.813132 11578 net.cpp:91] Creating Layer conv3_res4
I0918 23:20:30.813135 11578 net.cpp:425] conv3_res4 <- conv3_res3_conv3_res3_elu_0_split_1
I0918 23:20:30.813140 11578 net.cpp:425] conv3_res4 <- conv3_res4_conv3
I0918 23:20:30.813144 11578 net.cpp:425] conv3_res4 <- conv1_conv3_proj
I0918 23:20:30.813148 11578 net.cpp:425] conv3_res4 <- conv2_conv3_proj
I0918 23:20:30.813153 11578 net.cpp:399] conv3_res4 -> conv3_res4
I0918 23:20:30.813187 11578 net.cpp:141] Setting up conv3_res4
I0918 23:20:30.813192 11578 net.cpp:148] Top shape: 100 256 16 16 (6553600)
I0918 23:20:30.813194 11578 net.cpp:156] Memory required for data: 1897089600
I0918 23:20:30.813197 11578 layer_factory.hpp:77] Creating layer pool3
I0918 23:20:30.813204 11578 net.cpp:91] Creating Layer pool3
I0918 23:20:30.813206 11578 net.cpp:425] pool3 <- conv3_res4
I0918 23:20:30.813210 11578 net.cpp:399] pool3 -> pool3
I0918 23:20:30.813287 11578 net.cpp:141] Setting up pool3
I0918 23:20:30.813292 11578 net.cpp:148] Top shape: 100 256 8 8 (1638400)
I0918 23:20:30.813294 11578 net.cpp:156] Memory required for data: 1903643200
I0918 23:20:30.813297 11578 layer_factory.hpp:77] Creating layer pool3_elu
I0918 23:20:30.813302 11578 net.cpp:91] Creating Layer pool3_elu
I0918 23:20:30.813303 11578 net.cpp:425] pool3_elu <- pool3
I0918 23:20:30.813308 11578 net.cpp:386] pool3_elu -> pool3 (in-place)
I0918 23:20:30.813313 11578 net.cpp:141] Setting up pool3_elu
I0918 23:20:30.813316 11578 net.cpp:148] Top shape: 100 256 8 8 (1638400)
I0918 23:20:30.813318 11578 net.cpp:156] Memory required for data: 1910196800
I0918 23:20:30.813321 11578 layer_factory.hpp:77] Creating layer pool3_pool3_elu_0_split
I0918 23:20:30.813325 11578 net.cpp:91] Creating Layer pool3_pool3_elu_0_split
I0918 23:20:30.813328 11578 net.cpp:425] pool3_pool3_elu_0_split <- pool3
I0918 23:20:30.813330 11578 net.cpp:399] pool3_pool3_elu_0_split -> pool3_pool3_elu_0_split_0
I0918 23:20:30.813335 11578 net.cpp:399] pool3_pool3_elu_0_split -> pool3_pool3_elu_0_split_1
I0918 23:20:30.813340 11578 net.cpp:399] pool3_pool3_elu_0_split -> pool3_pool3_elu_0_split_2
I0918 23:20:30.813344 11578 net.cpp:399] pool3_pool3_elu_0_split -> pool3_pool3_elu_0_split_3
I0918 23:20:30.813429 11578 net.cpp:141] Setting up pool3_pool3_elu_0_split
I0918 23:20:30.813434 11578 net.cpp:148] Top shape: 100 256 8 8 (1638400)
I0918 23:20:30.813437 11578 net.cpp:148] Top shape: 100 256 8 8 (1638400)
I0918 23:20:30.813441 11578 net.cpp:148] Top shape: 100 256 8 8 (1638400)
I0918 23:20:30.813457 11578 net.cpp:148] Top shape: 100 256 8 8 (1638400)
I0918 23:20:30.813459 11578 net.cpp:156] Memory required for data: 1936411200
I0918 23:20:30.813462 11578 layer_factory.hpp:77] Creating layer conv3_conv4_proj
I0918 23:20:30.813468 11578 net.cpp:91] Creating Layer conv3_conv4_proj
I0918 23:20:30.813472 11578 net.cpp:425] conv3_conv4_proj <- pool3_pool3_elu_0_split_0
I0918 23:20:30.813477 11578 net.cpp:399] conv3_conv4_proj -> conv3_conv4_proj
I0918 23:20:30.818294 11578 net.cpp:141] Setting up conv3_conv4_proj
I0918 23:20:30.818302 11578 net.cpp:148] Top shape: 100 512 8 8 (3276800)
I0918 23:20:30.818305 11578 net.cpp:156] Memory required for data: 1949518400
I0918 23:20:30.818311 11578 layer_factory.hpp:77] Creating layer conv3_conv5_proj
I0918 23:20:30.818331 11578 net.cpp:91] Creating Layer conv3_conv5_proj
I0918 23:20:30.818333 11578 net.cpp:425] conv3_conv5_proj <- pool3_pool3_elu_0_split_1
I0918 23:20:30.818338 11578 net.cpp:399] conv3_conv5_proj -> conv3_conv5_proj
I0918 23:20:30.821094 11578 net.cpp:141] Setting up conv3_conv5_proj
I0918 23:20:30.821105 11578 net.cpp:148] Top shape: 100 1024 4 4 (1638400)
I0918 23:20:30.821108 11578 net.cpp:156] Memory required for data: 1956072000
I0918 23:20:30.821115 11578 layer_factory.hpp:77] Creating layer conv4_res1_proj
I0918 23:20:30.821123 11578 net.cpp:91] Creating Layer conv4_res1_proj
I0918 23:20:30.821141 11578 net.cpp:425] conv4_res1_proj <- pool3_pool3_elu_0_split_2
I0918 23:20:30.821146 11578 net.cpp:399] conv4_res1_proj -> conv4_res1_proj
I0918 23:20:30.823323 11578 net.cpp:141] Setting up conv4_res1_proj
I0918 23:20:30.823333 11578 net.cpp:148] Top shape: 100 512 8 8 (3276800)
I0918 23:20:30.823336 11578 net.cpp:156] Memory required for data: 1969179200
I0918 23:20:30.823341 11578 layer_factory.hpp:77] Creating layer conv4_res1_conv1
I0918 23:20:30.823364 11578 net.cpp:91] Creating Layer conv4_res1_conv1
I0918 23:20:30.823369 11578 net.cpp:425] conv4_res1_conv1 <- pool3_pool3_elu_0_split_3
I0918 23:20:30.823374 11578 net.cpp:399] conv4_res1_conv1 -> conv4_res1_conv1
I0918 23:20:30.824476 11578 net.cpp:141] Setting up conv4_res1_conv1
I0918 23:20:30.824484 11578 net.cpp:148] Top shape: 100 128 8 8 (819200)
I0918 23:20:30.824487 11578 net.cpp:156] Memory required for data: 1972456000
I0918 23:20:30.824492 11578 layer_factory.hpp:77] Creating layer conv4_res1_conv1_elu
I0918 23:20:30.824498 11578 net.cpp:91] Creating Layer conv4_res1_conv1_elu
I0918 23:20:30.824517 11578 net.cpp:425] conv4_res1_conv1_elu <- conv4_res1_conv1
I0918 23:20:30.824520 11578 net.cpp:386] conv4_res1_conv1_elu -> conv4_res1_conv1 (in-place)
I0918 23:20:30.824527 11578 net.cpp:141] Setting up conv4_res1_conv1_elu
I0918 23:20:30.824529 11578 net.cpp:148] Top shape: 100 128 8 8 (819200)
I0918 23:20:30.824532 11578 net.cpp:156] Memory required for data: 1975732800
I0918 23:20:30.824534 11578 layer_factory.hpp:77] Creating layer conv4_res1_conv2
I0918 23:20:30.824542 11578 net.cpp:91] Creating Layer conv4_res1_conv2
I0918 23:20:30.824543 11578 net.cpp:425] conv4_res1_conv2 <- conv4_res1_conv1
I0918 23:20:30.824548 11578 net.cpp:399] conv4_res1_conv2 -> conv4_res1_conv2
I0918 23:20:30.827023 11578 net.cpp:141] Setting up conv4_res1_conv2
I0918 23:20:30.827035 11578 net.cpp:148] Top shape: 100 128 8 8 (819200)
I0918 23:20:30.827039 11578 net.cpp:156] Memory required for data: 1979009600
I0918 23:20:30.827044 11578 layer_factory.hpp:77] Creating layer conv4_res1_conv2_elu
I0918 23:20:30.827050 11578 net.cpp:91] Creating Layer conv4_res1_conv2_elu
I0918 23:20:30.827054 11578 net.cpp:425] conv4_res1_conv2_elu <- conv4_res1_conv2
I0918 23:20:30.827059 11578 net.cpp:386] conv4_res1_conv2_elu -> conv4_res1_conv2 (in-place)
I0918 23:20:30.827065 11578 net.cpp:141] Setting up conv4_res1_conv2_elu
I0918 23:20:30.827069 11578 net.cpp:148] Top shape: 100 128 8 8 (819200)
I0918 23:20:30.827070 11578 net.cpp:156] Memory required for data: 1982286400
I0918 23:20:30.827074 11578 layer_factory.hpp:77] Creating layer conv4_res1_conv3
I0918 23:20:30.827080 11578 net.cpp:91] Creating Layer conv4_res1_conv3
I0918 23:20:30.827081 11578 net.cpp:425] conv4_res1_conv3 <- conv4_res1_conv2
I0918 23:20:30.827086 11578 net.cpp:399] conv4_res1_conv3 -> conv4_res1_conv3
I0918 23:20:30.828963 11578 net.cpp:141] Setting up conv4_res1_conv3
I0918 23:20:30.828972 11578 net.cpp:148] Top shape: 100 512 8 8 (3276800)
I0918 23:20:30.828974 11578 net.cpp:156] Memory required for data: 1995393600
I0918 23:20:30.828979 11578 layer_factory.hpp:77] Creating layer conv4_res1
I0918 23:20:30.828985 11578 net.cpp:91] Creating Layer conv4_res1
I0918 23:20:30.828989 11578 net.cpp:425] conv4_res1 <- conv4_res1_proj
I0918 23:20:30.828992 11578 net.cpp:425] conv4_res1 <- conv4_res1_conv3
I0918 23:20:30.828996 11578 net.cpp:399] conv4_res1 -> conv4_res1
I0918 23:20:30.829061 11578 net.cpp:141] Setting up conv4_res1
I0918 23:20:30.829066 11578 net.cpp:148] Top shape: 100 512 8 8 (3276800)
I0918 23:20:30.829069 11578 net.cpp:156] Memory required for data: 2008500800
I0918 23:20:30.829071 11578 layer_factory.hpp:77] Creating layer conv4_res1_elu
I0918 23:20:30.829076 11578 net.cpp:91] Creating Layer conv4_res1_elu
I0918 23:20:30.829077 11578 net.cpp:425] conv4_res1_elu <- conv4_res1
I0918 23:20:30.829082 11578 net.cpp:386] conv4_res1_elu -> conv4_res1 (in-place)
I0918 23:20:30.829087 11578 net.cpp:141] Setting up conv4_res1_elu
I0918 23:20:30.829089 11578 net.cpp:148] Top shape: 100 512 8 8 (3276800)
I0918 23:20:30.829092 11578 net.cpp:156] Memory required for data: 2021608000
I0918 23:20:30.829094 11578 layer_factory.hpp:77] Creating layer conv4_res1_conv4_res1_elu_0_split
I0918 23:20:30.829098 11578 net.cpp:91] Creating Layer conv4_res1_conv4_res1_elu_0_split
I0918 23:20:30.829100 11578 net.cpp:425] conv4_res1_conv4_res1_elu_0_split <- conv4_res1
I0918 23:20:30.829103 11578 net.cpp:399] conv4_res1_conv4_res1_elu_0_split -> conv4_res1_conv4_res1_elu_0_split_0
I0918 23:20:30.829109 11578 net.cpp:399] conv4_res1_conv4_res1_elu_0_split -> conv4_res1_conv4_res1_elu_0_split_1
I0918 23:20:30.829159 11578 net.cpp:141] Setting up conv4_res1_conv4_res1_elu_0_split
I0918 23:20:30.829164 11578 net.cpp:148] Top shape: 100 512 8 8 (3276800)
I0918 23:20:30.829166 11578 net.cpp:148] Top shape: 100 512 8 8 (3276800)
I0918 23:20:30.829169 11578 net.cpp:156] Memory required for data: 2047822400
I0918 23:20:30.829170 11578 layer_factory.hpp:77] Creating layer conv4_res2_conv1
I0918 23:20:30.829177 11578 net.cpp:91] Creating Layer conv4_res2_conv1
I0918 23:20:30.829180 11578 net.cpp:425] conv4_res2_conv1 <- conv4_res1_conv4_res1_elu_0_split_0
I0918 23:20:30.829185 11578 net.cpp:399] conv4_res2_conv1 -> conv4_res2_conv1
I0918 23:20:30.831499 11578 net.cpp:141] Setting up conv4_res2_conv1
I0918 23:20:30.831509 11578 net.cpp:148] Top shape: 100 128 8 8 (819200)
I0918 23:20:30.831512 11578 net.cpp:156] Memory required for data: 2051099200
I0918 23:20:30.831516 11578 layer_factory.hpp:77] Creating layer conv4_res2_conv1_elu
I0918 23:20:30.831521 11578 net.cpp:91] Creating Layer conv4_res2_conv1_elu
I0918 23:20:30.831524 11578 net.cpp:425] conv4_res2_conv1_elu <- conv4_res2_conv1
I0918 23:20:30.831529 11578 net.cpp:386] conv4_res2_conv1_elu -> conv4_res2_conv1 (in-place)
I0918 23:20:30.831534 11578 net.cpp:141] Setting up conv4_res2_conv1_elu
I0918 23:20:30.831537 11578 net.cpp:148] Top shape: 100 128 8 8 (819200)
I0918 23:20:30.831540 11578 net.cpp:156] Memory required for data: 2054376000
I0918 23:20:30.831542 11578 layer_factory.hpp:77] Creating layer conv4_res2_conv2
I0918 23:20:30.831550 11578 net.cpp:91] Creating Layer conv4_res2_conv2
I0918 23:20:30.831553 11578 net.cpp:425] conv4_res2_conv2 <- conv4_res2_conv1
I0918 23:20:30.831557 11578 net.cpp:399] conv4_res2_conv2 -> conv4_res2_conv2
I0918 23:20:30.833879 11578 net.cpp:141] Setting up conv4_res2_conv2
I0918 23:20:30.833889 11578 net.cpp:148] Top shape: 100 512 8 8 (3276800)
I0918 23:20:30.833891 11578 net.cpp:156] Memory required for data: 2067483200
I0918 23:20:30.833895 11578 layer_factory.hpp:77] Creating layer conv4_res2
I0918 23:20:30.833899 11578 net.cpp:91] Creating Layer conv4_res2
I0918 23:20:30.833904 11578 net.cpp:425] conv4_res2 <- conv4_res1_conv4_res1_elu_0_split_1
I0918 23:20:30.833907 11578 net.cpp:425] conv4_res2 <- conv4_res2_conv2
I0918 23:20:30.833911 11578 net.cpp:399] conv4_res2 -> conv4_res2
I0918 23:20:30.833962 11578 net.cpp:141] Setting up conv4_res2
I0918 23:20:30.833966 11578 net.cpp:148] Top shape: 100 512 8 8 (3276800)
I0918 23:20:30.833969 11578 net.cpp:156] Memory required for data: 2080590400
I0918 23:20:30.833971 11578 layer_factory.hpp:77] Creating layer conv4_res2_elu
I0918 23:20:30.833976 11578 net.cpp:91] Creating Layer conv4_res2_elu
I0918 23:20:30.833979 11578 net.cpp:425] conv4_res2_elu <- conv4_res2
I0918 23:20:30.833982 11578 net.cpp:386] conv4_res2_elu -> conv4_res2 (in-place)
I0918 23:20:30.833987 11578 net.cpp:141] Setting up conv4_res2_elu
I0918 23:20:30.834002 11578 net.cpp:148] Top shape: 100 512 8 8 (3276800)
I0918 23:20:30.834004 11578 net.cpp:156] Memory required for data: 2093697600
I0918 23:20:30.834007 11578 layer_factory.hpp:77] Creating layer conv4_res2_conv4_res2_elu_0_split
I0918 23:20:30.834012 11578 net.cpp:91] Creating Layer conv4_res2_conv4_res2_elu_0_split
I0918 23:20:30.834013 11578 net.cpp:425] conv4_res2_conv4_res2_elu_0_split <- conv4_res2
I0918 23:20:30.834017 11578 net.cpp:399] conv4_res2_conv4_res2_elu_0_split -> conv4_res2_conv4_res2_elu_0_split_0
I0918 23:20:30.834022 11578 net.cpp:399] conv4_res2_conv4_res2_elu_0_split -> conv4_res2_conv4_res2_elu_0_split_1
I0918 23:20:30.834072 11578 net.cpp:141] Setting up conv4_res2_conv4_res2_elu_0_split
I0918 23:20:30.834076 11578 net.cpp:148] Top shape: 100 512 8 8 (3276800)
I0918 23:20:30.834079 11578 net.cpp:148] Top shape: 100 512 8 8 (3276800)
I0918 23:20:30.834081 11578 net.cpp:156] Memory required for data: 2119912000
I0918 23:20:30.834084 11578 layer_factory.hpp:77] Creating layer conv4_res3_conv1
I0918 23:20:30.834090 11578 net.cpp:91] Creating Layer conv4_res3_conv1
I0918 23:20:30.834094 11578 net.cpp:425] conv4_res3_conv1 <- conv4_res2_conv4_res2_elu_0_split_0
I0918 23:20:30.834098 11578 net.cpp:399] conv4_res3_conv1 -> conv4_res3_conv1
I0918 23:20:30.835448 11578 net.cpp:141] Setting up conv4_res3_conv1
I0918 23:20:30.835456 11578 net.cpp:148] Top shape: 100 128 8 8 (819200)
I0918 23:20:30.835459 11578 net.cpp:156] Memory required for data: 2123188800
I0918 23:20:30.835475 11578 layer_factory.hpp:77] Creating layer conv4_res3_conv1_elu
I0918 23:20:30.835480 11578 net.cpp:91] Creating Layer conv4_res3_conv1_elu
I0918 23:20:30.835484 11578 net.cpp:425] conv4_res3_conv1_elu <- conv4_res3_conv1
I0918 23:20:30.835501 11578 net.cpp:386] conv4_res3_conv1_elu -> conv4_res3_conv1 (in-place)
I0918 23:20:30.835507 11578 net.cpp:141] Setting up conv4_res3_conv1_elu
I0918 23:20:30.835510 11578 net.cpp:148] Top shape: 100 128 8 8 (819200)
I0918 23:20:30.835512 11578 net.cpp:156] Memory required for data: 2126465600
I0918 23:20:30.835515 11578 layer_factory.hpp:77] Creating layer conv4_res3_conv2
I0918 23:20:30.835522 11578 net.cpp:91] Creating Layer conv4_res3_conv2
I0918 23:20:30.835525 11578 net.cpp:425] conv4_res3_conv2 <- conv4_res3_conv1
I0918 23:20:30.835530 11578 net.cpp:399] conv4_res3_conv2 -> conv4_res3_conv2
I0918 23:20:30.840113 11578 net.cpp:141] Setting up conv4_res3_conv2
I0918 23:20:30.840131 11578 net.cpp:148] Top shape: 100 128 8 8 (819200)
I0918 23:20:30.840133 11578 net.cpp:156] Memory required for data: 2129742400
I0918 23:20:30.840142 11578 layer_factory.hpp:77] Creating layer conv4_res3_conv2_elu
I0918 23:20:30.840149 11578 net.cpp:91] Creating Layer conv4_res3_conv2_elu
I0918 23:20:30.840154 11578 net.cpp:425] conv4_res3_conv2_elu <- conv4_res3_conv2
I0918 23:20:30.840159 11578 net.cpp:386] conv4_res3_conv2_elu -> conv4_res3_conv2 (in-place)
I0918 23:20:30.840167 11578 net.cpp:141] Setting up conv4_res3_conv2_elu
I0918 23:20:30.840170 11578 net.cpp:148] Top shape: 100 128 8 8 (819200)
I0918 23:20:30.840173 11578 net.cpp:156] Memory required for data: 2133019200
I0918 23:20:30.840175 11578 layer_factory.hpp:77] Creating layer conv4_res3_conv3
I0918 23:20:30.840184 11578 net.cpp:91] Creating Layer conv4_res3_conv3
I0918 23:20:30.840188 11578 net.cpp:425] conv4_res3_conv3 <- conv4_res3_conv2
I0918 23:20:30.840193 11578 net.cpp:399] conv4_res3_conv3 -> conv4_res3_conv3
I0918 23:20:30.841605 11578 net.cpp:141] Setting up conv4_res3_conv3
I0918 23:20:30.841615 11578 net.cpp:148] Top shape: 100 512 8 8 (3276800)
I0918 23:20:30.841619 11578 net.cpp:156] Memory required for data: 2146126400
I0918 23:20:30.841624 11578 layer_factory.hpp:77] Creating layer conv4_res3
I0918 23:20:30.841630 11578 net.cpp:91] Creating Layer conv4_res3
I0918 23:20:30.841634 11578 net.cpp:425] conv4_res3 <- conv4_res2_conv4_res2_elu_0_split_1
I0918 23:20:30.841637 11578 net.cpp:425] conv4_res3 <- conv4_res3_conv3
I0918 23:20:30.841641 11578 net.cpp:399] conv4_res3 -> conv4_res3
I0918 23:20:30.841681 11578 net.cpp:141] Setting up conv4_res3
I0918 23:20:30.841686 11578 net.cpp:148] Top shape: 100 512 8 8 (3276800)
I0918 23:20:30.841687 11578 net.cpp:156] Memory required for data: 2159233600
I0918 23:20:30.841691 11578 layer_factory.hpp:77] Creating layer conv4_res3_elu
I0918 23:20:30.841693 11578 net.cpp:91] Creating Layer conv4_res3_elu
I0918 23:20:30.841696 11578 net.cpp:425] conv4_res3_elu <- conv4_res3
I0918 23:20:30.841701 11578 net.cpp:386] conv4_res3_elu -> conv4_res3 (in-place)
I0918 23:20:30.841706 11578 net.cpp:141] Setting up conv4_res3_elu
I0918 23:20:30.841708 11578 net.cpp:148] Top shape: 100 512 8 8 (3276800)
I0918 23:20:30.841711 11578 net.cpp:156] Memory required for data: 2172340800
I0918 23:20:30.841713 11578 layer_factory.hpp:77] Creating layer conv4_res3_conv4_res3_elu_0_split
I0918 23:20:30.841717 11578 net.cpp:91] Creating Layer conv4_res3_conv4_res3_elu_0_split
I0918 23:20:30.841719 11578 net.cpp:425] conv4_res3_conv4_res3_elu_0_split <- conv4_res3
I0918 23:20:30.841722 11578 net.cpp:399] conv4_res3_conv4_res3_elu_0_split -> conv4_res3_conv4_res3_elu_0_split_0
I0918 23:20:30.841727 11578 net.cpp:399] conv4_res3_conv4_res3_elu_0_split -> conv4_res3_conv4_res3_elu_0_split_1
I0918 23:20:30.841807 11578 net.cpp:141] Setting up conv4_res3_conv4_res3_elu_0_split
I0918 23:20:30.841814 11578 net.cpp:148] Top shape: 100 512 8 8 (3276800)
I0918 23:20:30.841820 11578 net.cpp:148] Top shape: 100 512 8 8 (3276800)
I0918 23:20:30.841822 11578 net.cpp:156] Memory required for data: 2198555200
I0918 23:20:30.841826 11578 layer_factory.hpp:77] Creating layer conv4_res4_conv1
I0918 23:20:30.841835 11578 net.cpp:91] Creating Layer conv4_res4_conv1
I0918 23:20:30.841840 11578 net.cpp:425] conv4_res4_conv1 <- conv4_res3_conv4_res3_elu_0_split_0
I0918 23:20:30.841847 11578 net.cpp:399] conv4_res4_conv1 -> conv4_res4_conv1
I0918 23:20:30.844462 11578 net.cpp:141] Setting up conv4_res4_conv1
I0918 23:20:30.844477 11578 net.cpp:148] Top shape: 100 128 8 8 (819200)
I0918 23:20:30.844480 11578 net.cpp:156] Memory required for data: 2201832000
I0918 23:20:30.844485 11578 layer_factory.hpp:77] Creating layer conv4_res4_conv1_elu
I0918 23:20:30.844491 11578 net.cpp:91] Creating Layer conv4_res4_conv1_elu
I0918 23:20:30.844494 11578 net.cpp:425] conv4_res4_conv1_elu <- conv4_res4_conv1
I0918 23:20:30.844501 11578 net.cpp:386] conv4_res4_conv1_elu -> conv4_res4_conv1 (in-place)
I0918 23:20:30.844506 11578 net.cpp:141] Setting up conv4_res4_conv1_elu
I0918 23:20:30.844509 11578 net.cpp:148] Top shape: 100 128 8 8 (819200)
I0918 23:20:30.844511 11578 net.cpp:156] Memory required for data: 2205108800
I0918 23:20:30.844513 11578 layer_factory.hpp:77] Creating layer conv4_res4_conv2
I0918 23:20:30.844521 11578 net.cpp:91] Creating Layer conv4_res4_conv2
I0918 23:20:30.844522 11578 net.cpp:425] conv4_res4_conv2 <- conv4_res4_conv1
I0918 23:20:30.844527 11578 net.cpp:399] conv4_res4_conv2 -> conv4_res4_conv2
I0918 23:20:30.846551 11578 net.cpp:141] Setting up conv4_res4_conv2
I0918 23:20:30.846560 11578 net.cpp:148] Top shape: 100 512 8 8 (3276800)
I0918 23:20:30.846562 11578 net.cpp:156] Memory required for data: 2218216000
I0918 23:20:30.846566 11578 layer_factory.hpp:77] Creating layer conv4_res4
I0918 23:20:30.846575 11578 net.cpp:91] Creating Layer conv4_res4
I0918 23:20:30.846577 11578 net.cpp:425] conv4_res4 <- conv4_res3_conv4_res3_elu_0_split_1
I0918 23:20:30.846581 11578 net.cpp:425] conv4_res4 <- conv4_res4_conv2
I0918 23:20:30.846585 11578 net.cpp:399] conv4_res4 -> conv4_res4
I0918 23:20:30.846611 11578 net.cpp:141] Setting up conv4_res4
I0918 23:20:30.846616 11578 net.cpp:148] Top shape: 100 512 8 8 (3276800)
I0918 23:20:30.846617 11578 net.cpp:156] Memory required for data: 2231323200
I0918 23:20:30.846619 11578 layer_factory.hpp:77] Creating layer conv4_res4_elu
I0918 23:20:30.846623 11578 net.cpp:91] Creating Layer conv4_res4_elu
I0918 23:20:30.846626 11578 net.cpp:425] conv4_res4_elu <- conv4_res4
I0918 23:20:30.846631 11578 net.cpp:386] conv4_res4_elu -> conv4_res4 (in-place)
I0918 23:20:30.846645 11578 net.cpp:141] Setting up conv4_res4_elu
I0918 23:20:30.846649 11578 net.cpp:148] Top shape: 100 512 8 8 (3276800)
I0918 23:20:30.846652 11578 net.cpp:156] Memory required for data: 2244430400
I0918 23:20:30.846653 11578 layer_factory.hpp:77] Creating layer conv4_res4_conv4_res4_elu_0_split
I0918 23:20:30.846657 11578 net.cpp:91] Creating Layer conv4_res4_conv4_res4_elu_0_split
I0918 23:20:30.846659 11578 net.cpp:425] conv4_res4_conv4_res4_elu_0_split <- conv4_res4
I0918 23:20:30.846663 11578 net.cpp:399] conv4_res4_conv4_res4_elu_0_split -> conv4_res4_conv4_res4_elu_0_split_0
I0918 23:20:30.846668 11578 net.cpp:399] conv4_res4_conv4_res4_elu_0_split -> conv4_res4_conv4_res4_elu_0_split_1
I0918 23:20:30.846707 11578 net.cpp:141] Setting up conv4_res4_conv4_res4_elu_0_split
I0918 23:20:30.846711 11578 net.cpp:148] Top shape: 100 512 8 8 (3276800)
I0918 23:20:30.846714 11578 net.cpp:148] Top shape: 100 512 8 8 (3276800)
I0918 23:20:30.846716 11578 net.cpp:156] Memory required for data: 2270644800
I0918 23:20:30.846719 11578 layer_factory.hpp:77] Creating layer conv4_res5_conv1
I0918 23:20:30.846724 11578 net.cpp:91] Creating Layer conv4_res5_conv1
I0918 23:20:30.846729 11578 net.cpp:425] conv4_res5_conv1 <- conv4_res4_conv4_res4_elu_0_split_0
I0918 23:20:30.846732 11578 net.cpp:399] conv4_res5_conv1 -> conv4_res5_conv1
I0918 23:20:30.847802 11578 net.cpp:141] Setting up conv4_res5_conv1
I0918 23:20:30.847810 11578 net.cpp:148] Top shape: 100 128 8 8 (819200)
I0918 23:20:30.847812 11578 net.cpp:156] Memory required for data: 2273921600
I0918 23:20:30.847817 11578 layer_factory.hpp:77] Creating layer conv4_res5_conv1_elu
I0918 23:20:30.847821 11578 net.cpp:91] Creating Layer conv4_res5_conv1_elu
I0918 23:20:30.847825 11578 net.cpp:425] conv4_res5_conv1_elu <- conv4_res5_conv1
I0918 23:20:30.847828 11578 net.cpp:386] conv4_res5_conv1_elu -> conv4_res5_conv1 (in-place)
I0918 23:20:30.847833 11578 net.cpp:141] Setting up conv4_res5_conv1_elu
I0918 23:20:30.847836 11578 net.cpp:148] Top shape: 100 128 8 8 (819200)
I0918 23:20:30.847838 11578 net.cpp:156] Memory required for data: 2277198400
I0918 23:20:30.847841 11578 layer_factory.hpp:77] Creating layer conv4_res5_conv2
I0918 23:20:30.847847 11578 net.cpp:91] Creating Layer conv4_res5_conv2
I0918 23:20:30.847851 11578 net.cpp:425] conv4_res5_conv2 <- conv4_res5_conv1
I0918 23:20:30.847854 11578 net.cpp:399] conv4_res5_conv2 -> conv4_res5_conv2
I0918 23:20:30.849802 11578 net.cpp:141] Setting up conv4_res5_conv2
I0918 23:20:30.849810 11578 net.cpp:148] Top shape: 100 128 8 8 (819200)
I0918 23:20:30.849813 11578 net.cpp:156] Memory required for data: 2280475200
I0918 23:20:30.849818 11578 layer_factory.hpp:77] Creating layer conv4_res5_conv2_elu
I0918 23:20:30.849822 11578 net.cpp:91] Creating Layer conv4_res5_conv2_elu
I0918 23:20:30.849825 11578 net.cpp:425] conv4_res5_conv2_elu <- conv4_res5_conv2
I0918 23:20:30.849830 11578 net.cpp:386] conv4_res5_conv2_elu -> conv4_res5_conv2 (in-place)
I0918 23:20:30.849836 11578 net.cpp:141] Setting up conv4_res5_conv2_elu
I0918 23:20:30.849841 11578 net.cpp:148] Top shape: 100 128 8 8 (819200)
I0918 23:20:30.849845 11578 net.cpp:156] Memory required for data: 2283752000
I0918 23:20:30.849849 11578 layer_factory.hpp:77] Creating layer conv4_res5_conv3
I0918 23:20:30.849859 11578 net.cpp:91] Creating Layer conv4_res5_conv3
I0918 23:20:30.849864 11578 net.cpp:425] conv4_res5_conv3 <- conv4_res5_conv2
I0918 23:20:30.849869 11578 net.cpp:399] conv4_res5_conv3 -> conv4_res5_conv3
I0918 23:20:30.851547 11578 net.cpp:141] Setting up conv4_res5_conv3
I0918 23:20:30.851555 11578 net.cpp:148] Top shape: 100 512 8 8 (3276800)
I0918 23:20:30.851558 11578 net.cpp:156] Memory required for data: 2296859200
I0918 23:20:30.851563 11578 layer_factory.hpp:77] Creating layer conv4_res5
I0918 23:20:30.851568 11578 net.cpp:91] Creating Layer conv4_res5
I0918 23:20:30.851572 11578 net.cpp:425] conv4_res5 <- conv4_res4_conv4_res4_elu_0_split_1
I0918 23:20:30.851575 11578 net.cpp:425] conv4_res5 <- conv4_res5_conv3
I0918 23:20:30.851579 11578 net.cpp:399] conv4_res5 -> conv4_res5
I0918 23:20:30.851611 11578 net.cpp:141] Setting up conv4_res5
I0918 23:20:30.851616 11578 net.cpp:148] Top shape: 100 512 8 8 (3276800)
I0918 23:20:30.851619 11578 net.cpp:156] Memory required for data: 2309966400
I0918 23:20:30.851621 11578 layer_factory.hpp:77] Creating layer conv4_res5_elu
I0918 23:20:30.851625 11578 net.cpp:91] Creating Layer conv4_res5_elu
I0918 23:20:30.851629 11578 net.cpp:425] conv4_res5_elu <- conv4_res5
I0918 23:20:30.851632 11578 net.cpp:386] conv4_res5_elu -> conv4_res5 (in-place)
I0918 23:20:30.851636 11578 net.cpp:141] Setting up conv4_res5_elu
I0918 23:20:30.851639 11578 net.cpp:148] Top shape: 100 512 8 8 (3276800)
I0918 23:20:30.851642 11578 net.cpp:156] Memory required for data: 2323073600
I0918 23:20:30.851644 11578 layer_factory.hpp:77] Creating layer conv4_res5_conv4_res5_elu_0_split
I0918 23:20:30.866860 11578 net.cpp:91] Creating Layer conv4_res5_conv4_res5_elu_0_split
I0918 23:20:30.866885 11578 net.cpp:425] conv4_res5_conv4_res5_elu_0_split <- conv4_res5
I0918 23:20:30.866904 11578 net.cpp:399] conv4_res5_conv4_res5_elu_0_split -> conv4_res5_conv4_res5_elu_0_split_0
I0918 23:20:30.866910 11578 net.cpp:399] conv4_res5_conv4_res5_elu_0_split -> conv4_res5_conv4_res5_elu_0_split_1
I0918 23:20:30.866994 11578 net.cpp:141] Setting up conv4_res5_conv4_res5_elu_0_split
I0918 23:20:30.867002 11578 net.cpp:148] Top shape: 100 512 8 8 (3276800)
I0918 23:20:30.867005 11578 net.cpp:148] Top shape: 100 512 8 8 (3276800)
I0918 23:20:30.867008 11578 net.cpp:156] Memory required for data: 2349288000
I0918 23:20:30.867010 11578 layer_factory.hpp:77] Creating layer conv4_res6_conv1
I0918 23:20:30.867018 11578 net.cpp:91] Creating Layer conv4_res6_conv1
I0918 23:20:30.867022 11578 net.cpp:425] conv4_res6_conv1 <- conv4_res5_conv4_res5_elu_0_split_0
I0918 23:20:30.867028 11578 net.cpp:399] conv4_res6_conv1 -> conv4_res6_conv1
I0918 23:20:30.868612 11578 net.cpp:141] Setting up conv4_res6_conv1
I0918 23:20:30.868623 11578 net.cpp:148] Top shape: 100 128 8 8 (819200)
I0918 23:20:30.868626 11578 net.cpp:156] Memory required for data: 2352564800
I0918 23:20:30.868633 11578 layer_factory.hpp:77] Creating layer conv4_res6_conv1_elu
I0918 23:20:30.868640 11578 net.cpp:91] Creating Layer conv4_res6_conv1_elu
I0918 23:20:30.868645 11578 net.cpp:425] conv4_res6_conv1_elu <- conv4_res6_conv1
I0918 23:20:30.868650 11578 net.cpp:386] conv4_res6_conv1_elu -> conv4_res6_conv1 (in-place)
I0918 23:20:30.868660 11578 net.cpp:141] Setting up conv4_res6_conv1_elu
I0918 23:20:30.868664 11578 net.cpp:148] Top shape: 100 128 8 8 (819200)
I0918 23:20:30.868667 11578 net.cpp:156] Memory required for data: 2355841600
I0918 23:20:30.868671 11578 layer_factory.hpp:77] Creating layer conv4_res6_conv2
I0918 23:20:30.868679 11578 net.cpp:91] Creating Layer conv4_res6_conv2
I0918 23:20:30.868682 11578 net.cpp:425] conv4_res6_conv2 <- conv4_res6_conv1
I0918 23:20:30.868690 11578 net.cpp:399] conv4_res6_conv2 -> conv4_res6_conv2
I0918 23:20:30.870653 11578 net.cpp:141] Setting up conv4_res6_conv2
I0918 23:20:30.870662 11578 net.cpp:148] Top shape: 100 128 8 8 (819200)
I0918 23:20:30.870664 11578 net.cpp:156] Memory required for data: 2359118400
I0918 23:20:30.870669 11578 layer_factory.hpp:77] Creating layer conv4_res6_conv2_elu
I0918 23:20:30.870674 11578 net.cpp:91] Creating Layer conv4_res6_conv2_elu
I0918 23:20:30.870677 11578 net.cpp:425] conv4_res6_conv2_elu <- conv4_res6_conv2
I0918 23:20:30.870682 11578 net.cpp:386] conv4_res6_conv2_elu -> conv4_res6_conv2 (in-place)
I0918 23:20:30.870687 11578 net.cpp:141] Setting up conv4_res6_conv2_elu
I0918 23:20:30.870690 11578 net.cpp:148] Top shape: 100 128 8 8 (819200)
I0918 23:20:30.870692 11578 net.cpp:156] Memory required for data: 2362395200
I0918 23:20:30.870694 11578 layer_factory.hpp:77] Creating layer conv4_res6_conv3
I0918 23:20:30.870700 11578 net.cpp:91] Creating Layer conv4_res6_conv3
I0918 23:20:30.870703 11578 net.cpp:425] conv4_res6_conv3 <- conv4_res6_conv2
I0918 23:20:30.870707 11578 net.cpp:399] conv4_res6_conv3 -> conv4_res6_conv3
I0918 23:20:30.871794 11578 net.cpp:141] Setting up conv4_res6_conv3
I0918 23:20:30.871803 11578 net.cpp:148] Top shape: 100 512 8 8 (3276800)
I0918 23:20:30.871804 11578 net.cpp:156] Memory required for data: 2375502400
I0918 23:20:30.871809 11578 layer_factory.hpp:77] Creating layer conv4_res6
I0918 23:20:30.871814 11578 net.cpp:91] Creating Layer conv4_res6
I0918 23:20:30.871819 11578 net.cpp:425] conv4_res6 <- conv4_res5_conv4_res5_elu_0_split_1
I0918 23:20:30.871821 11578 net.cpp:425] conv4_res6 <- conv4_res6_conv3
I0918 23:20:30.871825 11578 net.cpp:425] conv4_res6 <- conv2_conv4_proj
I0918 23:20:30.871829 11578 net.cpp:425] conv4_res6 <- conv3_conv4_proj
I0918 23:20:30.871832 11578 net.cpp:399] conv4_res6 -> conv4_res6
I0918 23:20:30.871857 11578 net.cpp:141] Setting up conv4_res6
I0918 23:20:30.871861 11578 net.cpp:148] Top shape: 100 512 8 8 (3276800)
I0918 23:20:30.871865 11578 net.cpp:156] Memory required for data: 2388609600
I0918 23:20:30.871866 11578 layer_factory.hpp:77] Creating layer pool4
I0918 23:20:30.871870 11578 net.cpp:91] Creating Layer pool4
I0918 23:20:30.871873 11578 net.cpp:425] pool4 <- conv4_res6
I0918 23:20:30.871877 11578 net.cpp:399] pool4 -> pool4
I0918 23:20:30.871922 11578 net.cpp:141] Setting up pool4
I0918 23:20:30.871927 11578 net.cpp:148] Top shape: 100 512 4 4 (819200)
I0918 23:20:30.871930 11578 net.cpp:156] Memory required for data: 2391886400
I0918 23:20:30.871934 11578 layer_factory.hpp:77] Creating layer pool4_elu
I0918 23:20:30.871940 11578 net.cpp:91] Creating Layer pool4_elu
I0918 23:20:30.871944 11578 net.cpp:425] pool4_elu <- pool4
I0918 23:20:30.871949 11578 net.cpp:386] pool4_elu -> pool4 (in-place)
I0918 23:20:30.871955 11578 net.cpp:141] Setting up pool4_elu
I0918 23:20:30.871960 11578 net.cpp:148] Top shape: 100 512 4 4 (819200)
I0918 23:20:30.871964 11578 net.cpp:156] Memory required for data: 2395163200
I0918 23:20:30.871968 11578 layer_factory.hpp:77] Creating layer pool4_pool4_elu_0_split
I0918 23:20:30.871975 11578 net.cpp:91] Creating Layer pool4_pool4_elu_0_split
I0918 23:20:30.871979 11578 net.cpp:425] pool4_pool4_elu_0_split <- pool4
I0918 23:20:30.871984 11578 net.cpp:399] pool4_pool4_elu_0_split -> pool4_pool4_elu_0_split_0
I0918 23:20:30.871990 11578 net.cpp:399] pool4_pool4_elu_0_split -> pool4_pool4_elu_0_split_1
I0918 23:20:30.871996 11578 net.cpp:399] pool4_pool4_elu_0_split -> pool4_pool4_elu_0_split_2
I0918 23:20:30.872056 11578 net.cpp:141] Setting up pool4_pool4_elu_0_split
I0918 23:20:30.872061 11578 net.cpp:148] Top shape: 100 512 4 4 (819200)
I0918 23:20:30.872063 11578 net.cpp:148] Top shape: 100 512 4 4 (819200)
I0918 23:20:30.872066 11578 net.cpp:148] Top shape: 100 512 4 4 (819200)
I0918 23:20:30.872068 11578 net.cpp:156] Memory required for data: 2404993600
I0918 23:20:30.872071 11578 layer_factory.hpp:77] Creating layer conv4_conv5_proj
I0918 23:20:30.872077 11578 net.cpp:91] Creating Layer conv4_conv5_proj
I0918 23:20:30.872081 11578 net.cpp:425] conv4_conv5_proj <- pool4_pool4_elu_0_split_0
I0918 23:20:30.872084 11578 net.cpp:399] conv4_conv5_proj -> conv4_conv5_proj
I0918 23:20:30.875594 11578 net.cpp:141] Setting up conv4_conv5_proj
I0918 23:20:30.875603 11578 net.cpp:148] Top shape: 100 1024 4 4 (1638400)
I0918 23:20:30.875607 11578 net.cpp:156] Memory required for data: 2411547200
I0918 23:20:30.875610 11578 layer_factory.hpp:77] Creating layer conv5_res1_proj
I0918 23:20:30.875618 11578 net.cpp:91] Creating Layer conv5_res1_proj
I0918 23:20:30.875622 11578 net.cpp:425] conv5_res1_proj <- pool4_pool4_elu_0_split_1
I0918 23:20:30.875627 11578 net.cpp:399] conv5_res1_proj -> conv5_res1_proj
I0918 23:20:30.880234 11578 net.cpp:141] Setting up conv5_res1_proj
I0918 23:20:30.880249 11578 net.cpp:148] Top shape: 100 1024 4 4 (1638400)
I0918 23:20:30.880252 11578 net.cpp:156] Memory required for data: 2418100800
I0918 23:20:30.880259 11578 layer_factory.hpp:77] Creating layer conv5_res1_conv1
I0918 23:20:30.880267 11578 net.cpp:91] Creating Layer conv5_res1_conv1
I0918 23:20:30.880271 11578 net.cpp:425] conv5_res1_conv1 <- pool4_pool4_elu_0_split_2
I0918 23:20:30.880290 11578 net.cpp:399] conv5_res1_conv1 -> conv5_res1_conv1
I0918 23:20:30.882335 11578 net.cpp:141] Setting up conv5_res1_conv1
I0918 23:20:30.882354 11578 net.cpp:148] Top shape: 100 256 4 4 (409600)
I0918 23:20:30.882357 11578 net.cpp:156] Memory required for data: 2419739200
I0918 23:20:30.882364 11578 layer_factory.hpp:77] Creating layer conv5_res1_conv1_elu
I0918 23:20:30.882371 11578 net.cpp:91] Creating Layer conv5_res1_conv1_elu
I0918 23:20:30.882375 11578 net.cpp:425] conv5_res1_conv1_elu <- conv5_res1_conv1
I0918 23:20:30.882380 11578 net.cpp:386] conv5_res1_conv1_elu -> conv5_res1_conv1 (in-place)
I0918 23:20:30.882385 11578 net.cpp:141] Setting up conv5_res1_conv1_elu
I0918 23:20:30.882390 11578 net.cpp:148] Top shape: 100 256 4 4 (409600)
I0918 23:20:30.882392 11578 net.cpp:156] Memory required for data: 2421377600
I0918 23:20:30.882395 11578 layer_factory.hpp:77] Creating layer conv5_res1_conv2
I0918 23:20:30.882402 11578 net.cpp:91] Creating Layer conv5_res1_conv2
I0918 23:20:30.882405 11578 net.cpp:425] conv5_res1_conv2 <- conv5_res1_conv1
I0918 23:20:30.882411 11578 net.cpp:399] conv5_res1_conv2 -> conv5_res1_conv2
I0918 23:20:30.887325 11578 net.cpp:141] Setting up conv5_res1_conv2
I0918 23:20:30.887374 11578 net.cpp:148] Top shape: 100 256 4 4 (409600)
I0918 23:20:30.887378 11578 net.cpp:156] Memory required for data: 2423016000
I0918 23:20:30.887385 11578 layer_factory.hpp:77] Creating layer conv5_res1_conv2_elu
I0918 23:20:30.887408 11578 net.cpp:91] Creating Layer conv5_res1_conv2_elu
I0918 23:20:30.887426 11578 net.cpp:425] conv5_res1_conv2_elu <- conv5_res1_conv2
I0918 23:20:30.887431 11578 net.cpp:386] conv5_res1_conv2_elu -> conv5_res1_conv2 (in-place)
I0918 23:20:30.887439 11578 net.cpp:141] Setting up conv5_res1_conv2_elu
I0918 23:20:30.887459 11578 net.cpp:148] Top shape: 100 256 4 4 (409600)
I0918 23:20:30.887475 11578 net.cpp:156] Memory required for data: 2424654400
I0918 23:20:30.887477 11578 layer_factory.hpp:77] Creating layer conv5_res1_conv3
I0918 23:20:30.887501 11578 net.cpp:91] Creating Layer conv5_res1_conv3
I0918 23:20:30.887504 11578 net.cpp:425] conv5_res1_conv3 <- conv5_res1_conv2
I0918 23:20:30.887526 11578 net.cpp:399] conv5_res1_conv3 -> conv5_res1_conv3
I0918 23:20:30.890308 11578 net.cpp:141] Setting up conv5_res1_conv3
I0918 23:20:30.890321 11578 net.cpp:148] Top shape: 100 1024 4 4 (1638400)
I0918 23:20:30.890324 11578 net.cpp:156] Memory required for data: 2431208000
I0918 23:20:30.890329 11578 layer_factory.hpp:77] Creating layer conv5_res1
I0918 23:20:30.890334 11578 net.cpp:91] Creating Layer conv5_res1
I0918 23:20:30.890338 11578 net.cpp:425] conv5_res1 <- conv5_res1_proj
I0918 23:20:30.890341 11578 net.cpp:425] conv5_res1 <- conv5_res1_conv3
I0918 23:20:30.890346 11578 net.cpp:399] conv5_res1 -> conv5_res1
I0918 23:20:30.890373 11578 net.cpp:141] Setting up conv5_res1
I0918 23:20:30.890378 11578 net.cpp:148] Top shape: 100 1024 4 4 (1638400)
I0918 23:20:30.890380 11578 net.cpp:156] Memory required for data: 2437761600
I0918 23:20:30.890383 11578 layer_factory.hpp:77] Creating layer conv5_res1_elu
I0918 23:20:30.890388 11578 net.cpp:91] Creating Layer conv5_res1_elu
I0918 23:20:30.890390 11578 net.cpp:425] conv5_res1_elu <- conv5_res1
I0918 23:20:30.890394 11578 net.cpp:386] conv5_res1_elu -> conv5_res1 (in-place)
I0918 23:20:30.890398 11578 net.cpp:141] Setting up conv5_res1_elu
I0918 23:20:30.890401 11578 net.cpp:148] Top shape: 100 1024 4 4 (1638400)
I0918 23:20:30.890403 11578 net.cpp:156] Memory required for data: 2444315200
I0918 23:20:30.890406 11578 layer_factory.hpp:77] Creating layer conv5_res1_conv5_res1_elu_0_split
I0918 23:20:30.890409 11578 net.cpp:91] Creating Layer conv5_res1_conv5_res1_elu_0_split
I0918 23:20:30.890413 11578 net.cpp:425] conv5_res1_conv5_res1_elu_0_split <- conv5_res1
I0918 23:20:30.890415 11578 net.cpp:399] conv5_res1_conv5_res1_elu_0_split -> conv5_res1_conv5_res1_elu_0_split_0
I0918 23:20:30.890420 11578 net.cpp:399] conv5_res1_conv5_res1_elu_0_split -> conv5_res1_conv5_res1_elu_0_split_1
I0918 23:20:30.890476 11578 net.cpp:141] Setting up conv5_res1_conv5_res1_elu_0_split
I0918 23:20:30.890480 11578 net.cpp:148] Top shape: 100 1024 4 4 (1638400)
I0918 23:20:30.890483 11578 net.cpp:148] Top shape: 100 1024 4 4 (1638400)
I0918 23:20:30.890486 11578 net.cpp:156] Memory required for data: 2457422400
I0918 23:20:30.890488 11578 layer_factory.hpp:77] Creating layer conv5_res2_conv1
I0918 23:20:30.890496 11578 net.cpp:91] Creating Layer conv5_res2_conv1
I0918 23:20:30.890498 11578 net.cpp:425] conv5_res2_conv1 <- conv5_res1_conv5_res1_elu_0_split_0
I0918 23:20:30.890502 11578 net.cpp:399] conv5_res2_conv1 -> conv5_res2_conv1
I0918 23:20:30.895553 11578 net.cpp:141] Setting up conv5_res2_conv1
I0918 23:20:30.895565 11578 net.cpp:148] Top shape: 100 256 4 4 (409600)
I0918 23:20:30.895568 11578 net.cpp:156] Memory required for data: 2459060800
I0918 23:20:30.895572 11578 layer_factory.hpp:77] Creating layer conv5_res2_conv1_elu
I0918 23:20:30.895577 11578 net.cpp:91] Creating Layer conv5_res2_conv1_elu
I0918 23:20:30.895581 11578 net.cpp:425] conv5_res2_conv1_elu <- conv5_res2_conv1
I0918 23:20:30.895586 11578 net.cpp:386] conv5_res2_conv1_elu -> conv5_res2_conv1 (in-place)
I0918 23:20:30.895591 11578 net.cpp:141] Setting up conv5_res2_conv1_elu
I0918 23:20:30.895594 11578 net.cpp:148] Top shape: 100 256 4 4 (409600)
I0918 23:20:30.895597 11578 net.cpp:156] Memory required for data: 2460699200
I0918 23:20:30.895599 11578 layer_factory.hpp:77] Creating layer conv5_res2_conv2
I0918 23:20:30.895619 11578 net.cpp:91] Creating Layer conv5_res2_conv2
I0918 23:20:30.895622 11578 net.cpp:425] conv5_res2_conv2 <- conv5_res2_conv1
I0918 23:20:30.895627 11578 net.cpp:399] conv5_res2_conv2 -> conv5_res2_conv2
I0918 23:20:30.901319 11578 net.cpp:141] Setting up conv5_res2_conv2
I0918 23:20:30.901336 11578 net.cpp:148] Top shape: 100 1024 4 4 (1638400)
I0918 23:20:30.901340 11578 net.cpp:156] Memory required for data: 2467252800
I0918 23:20:30.901345 11578 layer_factory.hpp:77] Creating layer conv5_res2
I0918 23:20:30.901351 11578 net.cpp:91] Creating Layer conv5_res2
I0918 23:20:30.901356 11578 net.cpp:425] conv5_res2 <- conv5_res1_conv5_res1_elu_0_split_1
I0918 23:20:30.901361 11578 net.cpp:425] conv5_res2 <- conv5_res2_conv2
I0918 23:20:30.901365 11578 net.cpp:399] conv5_res2 -> conv5_res2
I0918 23:20:30.901396 11578 net.cpp:141] Setting up conv5_res2
I0918 23:20:30.901399 11578 net.cpp:148] Top shape: 100 1024 4 4 (1638400)
I0918 23:20:30.901402 11578 net.cpp:156] Memory required for data: 2473806400
I0918 23:20:30.901404 11578 layer_factory.hpp:77] Creating layer conv5_res2_elu
I0918 23:20:30.901409 11578 net.cpp:91] Creating Layer conv5_res2_elu
I0918 23:20:30.901412 11578 net.cpp:425] conv5_res2_elu <- conv5_res2
I0918 23:20:30.901417 11578 net.cpp:386] conv5_res2_elu -> conv5_res2 (in-place)
I0918 23:20:30.901420 11578 net.cpp:141] Setting up conv5_res2_elu
I0918 23:20:30.901425 11578 net.cpp:148] Top shape: 100 1024 4 4 (1638400)
I0918 23:20:30.901430 11578 net.cpp:156] Memory required for data: 2480360000
I0918 23:20:30.901433 11578 layer_factory.hpp:77] Creating layer conv5_res2_conv5_res2_elu_0_split
I0918 23:20:30.901437 11578 net.cpp:91] Creating Layer conv5_res2_conv5_res2_elu_0_split
I0918 23:20:30.901439 11578 net.cpp:425] conv5_res2_conv5_res2_elu_0_split <- conv5_res2
I0918 23:20:30.901443 11578 net.cpp:399] conv5_res2_conv5_res2_elu_0_split -> conv5_res2_conv5_res2_elu_0_split_0
I0918 23:20:30.901448 11578 net.cpp:399] conv5_res2_conv5_res2_elu_0_split -> conv5_res2_conv5_res2_elu_0_split_1
I0918 23:20:30.901490 11578 net.cpp:141] Setting up conv5_res2_conv5_res2_elu_0_split
I0918 23:20:30.901495 11578 net.cpp:148] Top shape: 100 1024 4 4 (1638400)
I0918 23:20:30.901499 11578 net.cpp:148] Top shape: 100 1024 4 4 (1638400)
I0918 23:20:30.901500 11578 net.cpp:156] Memory required for data: 2493467200
I0918 23:20:30.901502 11578 layer_factory.hpp:77] Creating layer conv5_res3_conv1
I0918 23:20:30.901512 11578 net.cpp:91] Creating Layer conv5_res3_conv1
I0918 23:20:30.901515 11578 net.cpp:425] conv5_res3_conv1 <- conv5_res2_conv5_res2_elu_0_split_0
I0918 23:20:30.901528 11578 net.cpp:399] conv5_res3_conv1 -> conv5_res3_conv1
I0918 23:20:30.903830 11578 net.cpp:141] Setting up conv5_res3_conv1
I0918 23:20:30.903838 11578 net.cpp:148] Top shape: 100 256 4 4 (409600)
I0918 23:20:30.903841 11578 net.cpp:156] Memory required for data: 2495105600
I0918 23:20:30.903846 11578 layer_factory.hpp:77] Creating layer conv5_res3_conv1_elu
I0918 23:20:30.903851 11578 net.cpp:91] Creating Layer conv5_res3_conv1_elu
I0918 23:20:30.903854 11578 net.cpp:425] conv5_res3_conv1_elu <- conv5_res3_conv1
I0918 23:20:30.903858 11578 net.cpp:386] conv5_res3_conv1_elu -> conv5_res3_conv1 (in-place)
I0918 23:20:30.903863 11578 net.cpp:141] Setting up conv5_res3_conv1_elu
I0918 23:20:30.903867 11578 net.cpp:148] Top shape: 100 256 4 4 (409600)
I0918 23:20:30.903868 11578 net.cpp:156] Memory required for data: 2496744000
I0918 23:20:30.903870 11578 layer_factory.hpp:77] Creating layer conv5_res3_conv2
I0918 23:20:30.903877 11578 net.cpp:91] Creating Layer conv5_res3_conv2
I0918 23:20:30.903880 11578 net.cpp:425] conv5_res3_conv2 <- conv5_res3_conv1
I0918 23:20:30.903884 11578 net.cpp:399] conv5_res3_conv2 -> conv5_res3_conv2
I0918 23:20:30.907985 11578 net.cpp:141] Setting up conv5_res3_conv2
I0918 23:20:30.907995 11578 net.cpp:148] Top shape: 100 256 4 4 (409600)
I0918 23:20:30.907997 11578 net.cpp:156] Memory required for data: 2498382400
I0918 23:20:30.908004 11578 layer_factory.hpp:77] Creating layer conv5_res3_conv2_elu
I0918 23:20:30.908009 11578 net.cpp:91] Creating Layer conv5_res3_conv2_elu
I0918 23:20:30.908012 11578 net.cpp:425] conv5_res3_conv2_elu <- conv5_res3_conv2
I0918 23:20:30.908016 11578 net.cpp:386] conv5_res3_conv2_elu -> conv5_res3_conv2 (in-place)
I0918 23:20:30.908021 11578 net.cpp:141] Setting up conv5_res3_conv2_elu
I0918 23:20:30.908025 11578 net.cpp:148] Top shape: 100 256 4 4 (409600)
I0918 23:20:30.908026 11578 net.cpp:156] Memory required for data: 2500020800
I0918 23:20:30.908028 11578 layer_factory.hpp:77] Creating layer conv5_res3_conv3
I0918 23:20:30.908035 11578 net.cpp:91] Creating Layer conv5_res3_conv3
I0918 23:20:30.908038 11578 net.cpp:425] conv5_res3_conv3 <- conv5_res3_conv2
I0918 23:20:30.908043 11578 net.cpp:399] conv5_res3_conv3 -> conv5_res3_conv3
I0918 23:20:30.910245 11578 net.cpp:141] Setting up conv5_res3_conv3
I0918 23:20:30.910254 11578 net.cpp:148] Top shape: 100 1024 4 4 (1638400)
I0918 23:20:30.910257 11578 net.cpp:156] Memory required for data: 2506574400
I0918 23:20:30.910262 11578 layer_factory.hpp:77] Creating layer conv5_res3
I0918 23:20:30.910267 11578 net.cpp:91] Creating Layer conv5_res3
I0918 23:20:30.910271 11578 net.cpp:425] conv5_res3 <- conv5_res2_conv5_res2_elu_0_split_1
I0918 23:20:30.910274 11578 net.cpp:425] conv5_res3 <- conv5_res3_conv3
I0918 23:20:30.910279 11578 net.cpp:425] conv5_res3 <- conv2_conv5_proj
I0918 23:20:30.910282 11578 net.cpp:425] conv5_res3 <- conv3_conv5_proj
I0918 23:20:30.910285 11578 net.cpp:425] conv5_res3 <- conv4_conv5_proj
I0918 23:20:30.910290 11578 net.cpp:399] conv5_res3 -> conv5_res3
I0918 23:20:30.910320 11578 net.cpp:141] Setting up conv5_res3
I0918 23:20:30.910323 11578 net.cpp:148] Top shape: 100 1024 4 4 (1638400)
I0918 23:20:30.910326 11578 net.cpp:156] Memory required for data: 2513128000
I0918 23:20:30.910328 11578 layer_factory.hpp:77] Creating layer conv5_res3_elu
I0918 23:20:30.910333 11578 net.cpp:91] Creating Layer conv5_res3_elu
I0918 23:20:30.910336 11578 net.cpp:425] conv5_res3_elu <- conv5_res3
I0918 23:20:30.910338 11578 net.cpp:386] conv5_res3_elu -> conv5_res3 (in-place)
I0918 23:20:30.910342 11578 net.cpp:141] Setting up conv5_res3_elu
I0918 23:20:30.910346 11578 net.cpp:148] Top shape: 100 1024 4 4 (1638400)
I0918 23:20:30.910348 11578 net.cpp:156] Memory required for data: 2519681600
I0918 23:20:30.910351 11578 layer_factory.hpp:77] Creating layer pool5
I0918 23:20:30.910354 11578 net.cpp:91] Creating Layer pool5
I0918 23:20:30.910356 11578 net.cpp:425] pool5 <- conv5_res3
I0918 23:20:30.910362 11578 net.cpp:399] pool5 -> pool5
I0918 23:20:30.910642 11578 net.cpp:141] Setting up pool5
I0918 23:20:30.910650 11578 net.cpp:148] Top shape: 100 1024 1 1 (102400)
I0918 23:20:30.910652 11578 net.cpp:156] Memory required for data: 2520091200
I0918 23:20:30.910655 11578 layer_factory.hpp:77] Creating layer pool5_drop1
I0918 23:20:30.910660 11578 net.cpp:91] Creating Layer pool5_drop1
I0918 23:20:30.910663 11578 net.cpp:425] pool5_drop1 <- pool5
I0918 23:20:30.910667 11578 net.cpp:399] pool5_drop1 -> pool5_drop1
I0918 23:20:30.910711 11578 net.cpp:141] Setting up pool5_drop1
I0918 23:20:30.910715 11578 net.cpp:148] Top shape: 100 1024 1 1 (102400)
I0918 23:20:30.910717 11578 net.cpp:156] Memory required for data: 2520500800
I0918 23:20:30.910720 11578 layer_factory.hpp:77] Creating layer fc
I0918 23:20:30.910724 11578 net.cpp:91] Creating Layer fc
I0918 23:20:30.910727 11578 net.cpp:425] fc <- pool5_drop1
I0918 23:20:30.910732 11578 net.cpp:399] fc -> fc
I0918 23:20:30.933439 11578 net.cpp:141] Setting up fc
I0918 23:20:30.933456 11578 net.cpp:148] Top shape: 100 1000 (100000)
I0918 23:20:30.933459 11578 net.cpp:156] Memory required for data: 2520900800
I0918 23:20:30.933466 11578 layer_factory.hpp:77] Creating layer fc_fc_0_split
I0918 23:20:30.933472 11578 net.cpp:91] Creating Layer fc_fc_0_split
I0918 23:20:30.933476 11578 net.cpp:425] fc_fc_0_split <- fc
I0918 23:20:30.933482 11578 net.cpp:399] fc_fc_0_split -> fc_fc_0_split_0
I0918 23:20:30.933488 11578 net.cpp:399] fc_fc_0_split -> fc_fc_0_split_1
I0918 23:20:30.933492 11578 net.cpp:399] fc_fc_0_split -> fc_fc_0_split_2
I0918 23:20:30.933552 11578 net.cpp:141] Setting up fc_fc_0_split
I0918 23:20:30.933557 11578 net.cpp:148] Top shape: 100 1000 (100000)
I0918 23:20:30.933560 11578 net.cpp:148] Top shape: 100 1000 (100000)
I0918 23:20:30.933562 11578 net.cpp:148] Top shape: 100 1000 (100000)
I0918 23:20:30.933565 11578 net.cpp:156] Memory required for data: 2522100800
I0918 23:20:30.933568 11578 layer_factory.hpp:77] Creating layer loss
I0918 23:20:30.933571 11578 net.cpp:91] Creating Layer loss
I0918 23:20:30.933574 11578 net.cpp:425] loss <- fc_fc_0_split_0
I0918 23:20:30.933578 11578 net.cpp:425] loss <- label_data_1_split_0
I0918 23:20:30.933581 11578 net.cpp:399] loss -> loss
…
