…
      source: "/home/old-ufo/storage/datasets/imagenet/imgs128/lmdb/ilsvrc12_128_train_lmdb"
      batch_size: 64
      backend: LMDB
    }
  }
  layer {
    name: "data"
    type: "Data"
    top: "data"
    top: "label"
    include {
      phase: TEST
    }
    transform_param {
      scale: 0.04
      mirror: false
      crop_size: 128
      mean_value: 104
      mean_value: 117
      mean_value: 123
      force_color: true
    }
    data_param {
      source: "/home/old-ufo/storage/datasets/imagenet/imgs128/lmdb/ilsvrc12_128_val_lmdb"
      batch_size: 50
      backend: LMDB
    }
  }
  layer {
    name: "conv1"
    type: "Convolution"
    bottom: "data"
    top: "conv1"
    param {
      lr_mult: 1
      decay_mult: 1
    }
    param {
      lr_mult: 2
      decay_mult: 0
    }
    convolution_param {
      num_output: 96
      kernel_size: 11
      stride: 4
      weight_filler {
        type: "gaussian"
        std: 0.01
      }
      bias_filler {
        type: "constant"
      }
    }
  }
  layer {
    name: "relu1"
    type: "TanH"
    bottom: "conv1"
    top: "relu1"
  }
  layer {
    name: "pool1"
    type: "Pooling"
    bottom: "relu1"
    top: "pool1"
    pooling_param {
      pool: MAX
      kernel_size: 3
      stride: 2
    }
  }
  layer {
    name: "conv2"
    type: "Convolution"
    bottom: "pool1"
    top: "conv2"
    param {
      lr_mult: 1
      decay_mult: 1
    }
    param {
      lr_mult: 2
      decay_mult: 0
    }
    convolution_param {
      num_output: 256
      pad: 2
      kernel_size: 5
      group: 2
      weight_filler {
        type: "gaussian"
        std: 0.01
      }
      bias_filler {
        type: "constant"
      }
    }
  }
  layer {
    name: "relu2"
    type: "TanH"
    bottom: "conv2"
    top: "relu2"
  }
  layer {
    name: "pool2"
    type: "Pooling"
    bottom: "relu2"
    top: "pool2"
    pooling_param {
      pool: MAX
      kernel_size: 3
      stride: 2
    }
  }
  layer {
    name: "conv3"
    type: "Convolution"
    bottom: "pool2"
    top: "conv3"
    param {
      lr_mult: 1
      decay_mult: 1
    }
    param {
      lr_mult: 2
      decay_mult: 0
    }
    convolution_param {
      num_output: 384
      pad: 1
      kernel_size: 3
      weight_filler {
        type: "gaussian"
        std: 0.01
      }
      bias_filler {
        type: "constant"
      }
    }
  }
  layer {
    name: "relu3"
    type: "TanH"
    bottom: "conv3"
    top: "relu3"
  }
  layer {
    name: "conv4"
    type: "Convolution"
    bottom: "relu3"
    top: "conv4"
    param {
      lr_mult: 1
      decay_mult: 1
    }
    param {
      lr_mult: 2
      decay_mult: 0
    }
    convolution_param {
      num_output: 384
      pad: 1
      kernel_size: 3
      group: 2
      weight_filler {
        type: "gaussian"
        std: 0.01
      }
      bias_filler {
        type: "constant"
      }
    }
  }
  layer {
    name: "relu4"
    type: "TanH"
    bottom: "conv4"
    top: "relu4"
  }
  layer {
    name: "conv5"
    type: "Convolution"
    bottom: "relu4"
    top: "conv5"
    param {
      lr_mult: 1
      decay_mult: 1
    }
    param {
      lr_mult: 2
      decay_mult: 0
    }
    convolution_param {
      num_output: 256
      pad: 1
      kernel_size: 3
      group: 2
      weight_filler {
        type: "gaussian"
        std: 0.01
      }
      bias_filler {
        type: "constant"
      }
    }
  }
  layer {
    name: "relu5"
    type: "TanH"
    bottom: "conv5"
    top: "relu5"
  }
  layer {
    name: "pool5"
    type: "Pooling"
    bottom: "relu5"
    top: "pool5"
    pooling_param {
      pool: MAX
      kernel_size: 3
      stride: 2
    }
  }
  layer {
    name: "fc6"
    type: "InnerProduct"
    bottom: "pool5"
    top: "fc6"
    param {
      lr_mult: 1
      decay_mult: 1
    }
    param {
      lr_mult: 2
      decay_mult: 0
    }
    inner_product_param {
      num_output: 2048
      weight_filler {
        type: "gaussian"
        std: 0.005
      }
      bias_filler {
        type: "constant"
      }
    }
  }
  layer {
    name: "relu6"
    type: "TanH"
    bottom: "fc6"
    top: "relu6"
  }
  layer {
    name: "drop6"
    type: "Dropout"
    bottom: "relu6"
    top: "drop6"
    dropout_param {
      dropout_ratio: 0.5
    }
  }
  layer {
    name: "fc7"
    type: "InnerProduct"
    bottom: "drop6"
    top: "fc7"
    param {
      lr_mult: 1
      decay_mult: 1
    }
    param {
      lr_mult: 2
      decay_mult: 0
    }
    inner_product_param {
      num_output: 2048
      weight_filler {
        type: "gaussian"
        std: 0.005
      }
      bias_filler {
        type: "constant"
      }
    }
  }
  layer {
    name: "relu7"
    type: "TanH"
    bottom: "fc7"
    top: "relu7"
  }
  layer {
    name: "drop7"
    type: "Dropout"
    bottom: "relu7"
    top: "drop7"
    dropout_param {
      dropout_ratio: 0.5
    }
  }
  layer {
    name: "fc8"
    type: "InnerProduct"
    bottom: "drop7"
    top: "fc8"
    param {
      lr_mult: 1
      decay_mult: 1
    }
    param {
      lr_mult: 2
      decay_mult: 0
    }
    inner_product_param {
      num_output: 1000
      weight_filler {
        type: "gaussian"
        std: 0.01
      }
      bias_filler {
        type: "constant"
      }
    }
  }
  layer {
    name: "accuracy"
    type: "Accuracy"
    bottom: "fc8"
    bottom: "label"
    top: "accuracy"
    include {
      phase: TEST
    }
  }
  layer {
    name: "loss"
    type: "SoftmaxWithLoss"
    bottom: "fc8"
    bottom: "label"
    top: "loss"
  }
}
test_initialization: true
iter_size: 1
type: "SGD"
I0402 07:43:41.484074 28891 solver.cpp:86] Creating training net specified in net_param.
I0402 07:43:41.484199 28891 net.cpp:322] The NetState phase (0) differed from the phase (1) specified by a rule in layer data
I0402 07:43:41.484230 28891 net.cpp:322] The NetState phase (0) differed from the phase (1) specified by a rule in layer accuracy
I0402 07:43:41.484455 28891 net.cpp:49] Initializing net from parameters: 
name: "CaffeNet"
state {
  phase: TRAIN
}
layer {
  name: "data"
  type: "Data"
  top: "data"
  top: "label"
  include {
    phase: TRAIN
  }
  transform_param {
    scale: 0.04
    mirror: true
    crop_size: 128
    mean_value: 104
    mean_value: 117
    mean_value: 124
    force_color: true
  }
  data_param {
    source: "/home/old-ufo/storage/datasets/imagenet/imgs128/lmdb/ilsvrc12_128_train_lmdb"
    batch_size: 64
    backend: LMDB
  }
}
layer {
  name: "conv1"
  type: "Convolution"
  bottom: "data"
  top: "conv1"
  param {
    lr_mult: 1
    decay_mult: 1
  }
  param {
    lr_mult: 2
    decay_mult: 0
  }
  convolution_param {
    num_output: 96
    kernel_size: 11
    stride: 4
    weight_filler {
      type: "gaussian"
      std: 0.01
    }
    bias_filler {
      type: "constant"
    }
  }
}
layer {
  name: "relu1"
  type: "TanH"
  bottom: "conv1"
  top: "relu1"
}
layer {
  name: "pool1"
  type: "Pooling"
  bottom: "relu1"
  top: "pool1"
  pooling_param {
    pool: MAX
    kernel_size: 3
    stride: 2
  }
}
layer {
  name: "conv2"
  type: "Convolution"
  bottom: "pool1"
  top: "conv2"
  param {
    lr_mult: 1
    decay_mult: 1
  }
  param {
    lr_mult: 2
    decay_mult: 0
  }
  convolution_param {
    num_output: 256
    pad: 2
    kernel_size: 5
    group: 2
    weight_filler {
      type: "gaussian"
      std: 0.01
    }
    bias_filler {
      type: "constant"
    }
  }
}
layer {
  name: "relu2"
  type: "TanH"
  bottom: "conv2"
  top: "relu2"
}
layer {
  name: "pool2"
  type: "Pooling"
  bottom: "relu2"
  top: "pool2"
  pooling_param {
    pool: MAX
    kernel_size: 3
    stride: 2
  }
}
layer {
  name: "conv3"
  type: "Convolution"
  bottom: "pool2"
  top: "conv3"
  param {
    lr_mult: 1
    decay_mult: 1
  }
  param {
    lr_mult: 2
    decay_mult: 0
  }
  convolution_param {
    num_output: 384
    pad: 1
    kernel_size: 3
    weight_filler {
      type: "gaussian"
      std: 0.01
    }
    bias_filler {
      type: "constant"
    }
  }
}
layer {
  name: "relu3"
  type: "TanH"
  bottom: "conv3"
  top: "relu3"
}
layer {
  name: "conv4"
  type: "Convolution"
  bottom: "relu3"
  top: "conv4"
  param {
    lr_mult: 1
    decay_mult: 1
  }
  param {
    lr_mult: 2
    decay_mult: 0
  }
  convolution_param {
    num_output: 384
    pad: 1
    kernel_size: 3
    group: 2
    weight_filler {
      type: "gaussian"
      std: 0.01
    }
    bias_filler {
      type: "constant"
    }
  }
}
layer {
  name: "relu4"
  type: "TanH"
  bottom: "conv4"
  top: "relu4"
}
layer {
  name: "conv5"
  type: "Convolution"
  bottom: "relu4"
  top: "conv5"
  param {
    lr_mult: 1
    decay_mult: 1
  }
  param {
    lr_mult: 2
    decay_mult: 0
  }
  convolution_param {
    num_output: 256
    pad: 1
    kernel_size: 3
    group: 2
    weight_filler {
      type: "gaussian"
      std: 0.01
    }
    bias_filler {
      type: "constant"
    }
  }
}
layer {
  name: "relu5"
  type: "TanH"
  bottom: "conv5"
  top: "relu5"
}
layer {
  name: "pool5"
  type: "Pooling"
  bottom: "relu5"
  top: "pool5"
  pooling_param {
    pool: MAX
    kernel_size: 3
    stride: 2
  }
}
layer {
  name: "fc6"
  type: "InnerProduct"
  bottom: "pool5"
  top: "fc6"
  param {
    lr_mult: 1
    decay_mult: 1
  }
  param {
    lr_mult: 2
    decay_mult: 0
  }
  inner_product_param {
    num_output: 2048
    weight_filler {
      type: "gaussian"
      std: 0.005
    }
    bias_filler {
      type: "constant"
    }
  }
}
layer {
  name: "relu6"
  type: "TanH"
  bottom: "fc6"
  top: "relu6"
}
layer {
  name: "drop6"
  type: "Dropout"
  bottom: "relu6"
  top: "drop6"
  dropout_param {
    dropout_ratio: 0.5
  }
}
layer {
  name: "fc7"
  type: "InnerProduct"
  bottom: "drop6"
  top: "fc7"
  param {
    lr_mult: 1
    decay_mult: 1
  }
  param {
    lr_mult: 2
    decay_mult: 0
  }
  inner_product_param {
    num_output: 2048
    weight_filler {
      type: "gaussian"
      std: 0.005
    }
    bias_filler {
      type: "constant"
    }
  }
}
layer {
  name: "relu7"
  type: "TanH"
  bottom: "fc7"
  top: "relu7"
}
layer {
  name: "drop7"
  type: "Dropout"
  bottom: "relu7"
  top: "drop7"
  dropout_param {
    dropout_ratio: 0.5
  }
}
layer {
  name: "fc8"
  type: "InnerProduct"
  bottom: "drop7"
  top: "fc8"
  param {
    lr_mult: 1
    decay_mult: 1
  }
  param {
    lr_mult: 2
    decay_mult: 0
  }
  inner_product_param {
    num_output: 1000
    weight_filler {
      type: "gaussian"
      std: 0.01
    }
    bias_filler {
      type: "constant"
    }
  }
}
layer {
  name: "loss"
  type: "SoftmaxWithLoss"
  bottom: "fc8"
  bottom: "label"
  top: "loss"
}
I0402 07:43:41.484596 28891 layer_factory.hpp:76] Creating layer data
I0402 07:43:41.485249 28891 net.cpp:106] Creating Layer data
I0402 07:43:41.485262 28891 net.cpp:411] data -> data
I0402 07:43:41.485298 28891 net.cpp:411] data -> label
I0402 07:43:41.486245 28896 db_lmdb.cpp:38] Opened lmdb /home/old-ufo/storage/datasets/imagenet/imgs128/lmdb/ilsvrc12_128_train_lmdb
I0402 07:43:41.534951 28891 data_layer.cpp:41] output data size: 64,3,128,128
I0402 07:43:41.558370 28891 net.cpp:150] Setting up data
I0402 07:43:41.558404 28891 net.cpp:157] Top shape: 64 3 128 128 (3145728)
I0402 07:43:41.558413 28891 net.cpp:157] Top shape: 64 (64)
I0402 07:43:41.558419 28891 net.cpp:165] Memory required for data: 12583168
I0402 07:43:41.558450 28891 layer_factory.hpp:76] Creating layer conv1
I0402 07:43:41.558477 28891 net.cpp:106] Creating Layer conv1
I0402 07:43:41.558485 28891 net.cpp:454] conv1 <- data
I0402 07:43:41.558501 28891 net.cpp:411] conv1 -> conv1
I0402 07:43:41.770608 28891 net.cpp:150] Setting up conv1
I0402 07:43:41.770642 28891 net.cpp:157] Top shape: 64 96 30 30 (5529600)
I0402 07:43:41.770648 28891 net.cpp:165] Memory required for data: 34701568
I0402 07:43:41.770766 28891 layer_factory.hpp:76] Creating layer relu1
I0402 07:43:41.770787 28891 net.cpp:106] Creating Layer relu1
I0402 07:43:41.770795 28891 net.cpp:454] relu1 <- conv1
I0402 07:43:41.770809 28891 net.cpp:411] relu1 -> relu1
I0402 07:43:41.771595 28891 net.cpp:150] Setting up relu1
I0402 07:43:41.771613 28891 net.cpp:157] Top shape: 64 96 30 30 (5529600)
I0402 07:43:41.771620 28891 net.cpp:165] Memory required for data: 56819968
I0402 07:43:41.771625 28891 layer_factory.hpp:76] Creating layer pool1
I0402 07:43:41.771634 28891 net.cpp:106] Creating Layer pool1
I0402 07:43:41.771638 28891 net.cpp:454] pool1 <- relu1
I0402 07:43:41.771646 28891 net.cpp:411] pool1 -> pool1
I0402 07:43:41.773376 28891 net.cpp:150] Setting up pool1
I0402 07:43:41.773391 28891 net.cpp:157] Top shape: 64 96 15 15 (1382400)
I0402 07:43:41.773394 28891 net.cpp:165] Memory required for data: 62349568
I0402 07:43:41.773399 28891 layer_factory.hpp:76] Creating layer conv2
I0402 07:43:41.773414 28891 net.cpp:106] Creating Layer conv2
I0402 07:43:41.773419 28891 net.cpp:454] conv2 <- pool1
I0402 07:43:41.773429 28891 net.cpp:411] conv2 -> conv2
I0402 07:43:41.789857 28891 net.cpp:150] Setting up conv2
I0402 07:43:41.789891 28891 net.cpp:157] Top shape: 64 256 15 15 (3686400)
I0402 07:43:41.789896 28891 net.cpp:165] Memory required for data: 77095168
I0402 07:43:41.789994 28891 layer_factory.hpp:76] Creating layer relu2
I0402 07:43:41.790009 28891 net.cpp:106] Creating Layer relu2
I0402 07:43:41.790014 28891 net.cpp:454] relu2 <- conv2
I0402 07:43:41.790025 28891 net.cpp:411] relu2 -> relu2
I0402 07:43:41.790906 28891 net.cpp:150] Setting up relu2
I0402 07:43:41.790922 28891 net.cpp:157] Top shape: 64 256 15 15 (3686400)
I0402 07:43:41.790961 28891 net.cpp:165] Memory required for data: 91840768
I0402 07:43:41.790969 28891 layer_factory.hpp:76] Creating layer pool2
I0402 07:43:41.790979 28891 net.cpp:106] Creating Layer pool2
I0402 07:43:41.790984 28891 net.cpp:454] pool2 <- relu2
I0402 07:43:41.790992 28891 net.cpp:411] pool2 -> pool2
I0402 07:43:41.792053 28891 net.cpp:150] Setting up pool2
I0402 07:43:41.792068 28891 net.cpp:157] Top shape: 64 256 7 7 (802816)
I0402 07:43:41.792109 28891 net.cpp:165] Memory required for data: 95052032
I0402 07:43:41.792117 28891 layer_factory.hpp:76] Creating layer conv3
I0402 07:43:41.792134 28891 net.cpp:106] Creating Layer conv3
I0402 07:43:41.792174 28891 net.cpp:454] conv3 <- pool2
I0402 07:43:41.792189 28891 net.cpp:411] conv3 -> conv3
I0402 07:43:41.823518 28891 net.cpp:150] Setting up conv3
I0402 07:43:41.823550 28891 net.cpp:157] Top shape: 64 384 7 7 (1204224)
I0402 07:43:41.823556 28891 net.cpp:165] Memory required for data: 99868928
I0402 07:43:41.823649 28891 layer_factory.hpp:76] Creating layer relu3
I0402 07:43:41.823670 28891 net.cpp:106] Creating Layer relu3
I0402 07:43:41.823676 28891 net.cpp:454] relu3 <- conv3
I0402 07:43:41.823685 28891 net.cpp:411] relu3 -> relu3
I0402 07:43:41.825237 28891 net.cpp:150] Setting up relu3
I0402 07:43:41.825254 28891 net.cpp:157] Top shape: 64 384 7 7 (1204224)
I0402 07:43:41.825295 28891 net.cpp:165] Memory required for data: 104685824
I0402 07:43:41.825305 28891 layer_factory.hpp:76] Creating layer conv4
I0402 07:43:41.825320 28891 net.cpp:106] Creating Layer conv4
I0402 07:43:41.825325 28891 net.cpp:454] conv4 <- relu3
I0402 07:43:41.825371 28891 net.cpp:411] conv4 -> conv4
I0402 07:43:41.855453 28891 net.cpp:150] Setting up conv4
I0402 07:43:41.855485 28891 net.cpp:157] Top shape: 64 384 7 7 (1204224)
I0402 07:43:41.855491 28891 net.cpp:165] Memory required for data: 109502720
I0402 07:43:41.855545 28891 layer_factory.hpp:76] Creating layer relu4
I0402 07:43:41.855558 28891 net.cpp:106] Creating Layer relu4
I0402 07:43:41.855564 28891 net.cpp:454] relu4 <- conv4
I0402 07:43:41.855573 28891 net.cpp:411] relu4 -> relu4
I0402 07:43:41.856405 28891 net.cpp:150] Setting up relu4
I0402 07:43:41.856420 28891 net.cpp:157] Top shape: 64 384 7 7 (1204224)
I0402 07:43:41.856426 28891 net.cpp:165] Memory required for data: 114319616
I0402 07:43:41.856431 28891 layer_factory.hpp:76] Creating layer conv5
I0402 07:43:41.856446 28891 net.cpp:106] Creating Layer conv5
I0402 07:43:41.856451 28891 net.cpp:454] conv5 <- relu4
I0402 07:43:41.856462 28891 net.cpp:411] conv5 -> conv5
I0402 07:43:41.878177 28891 net.cpp:150] Setting up conv5
I0402 07:43:41.878213 28891 net.cpp:157] Top shape: 64 256 7 7 (802816)
I0402 07:43:41.878221 28891 net.cpp:165] Memory required for data: 117530880
I0402 07:43:41.878242 28891 layer_factory.hpp:76] Creating layer relu5
I0402 07:43:41.878254 28891 net.cpp:106] Creating Layer relu5
I0402 07:43:41.878262 28891 net.cpp:454] relu5 <- conv5
I0402 07:43:41.878273 28891 net.cpp:411] relu5 -> relu5
I0402 07:43:41.879107 28891 net.cpp:150] Setting up relu5
I0402 07:43:41.879124 28891 net.cpp:157] Top shape: 64 256 7 7 (802816)
I0402 07:43:41.879129 28891 net.cpp:165] Memory required for data: 120742144
I0402 07:43:41.879134 28891 layer_factory.hpp:76] Creating layer pool5
I0402 07:43:41.879144 28891 net.cpp:106] Creating Layer pool5
I0402 07:43:41.879149 28891 net.cpp:454] pool5 <- relu5
I0402 07:43:41.879156 28891 net.cpp:411] pool5 -> pool5
I0402 07:43:41.880039 28891 net.cpp:150] Setting up pool5
I0402 07:43:41.880053 28891 net.cpp:157] Top shape: 64 256 3 3 (147456)
I0402 07:43:41.880059 28891 net.cpp:165] Memory required for data: 121331968
I0402 07:43:41.880064 28891 layer_factory.hpp:76] Creating layer fc6
I0402 07:43:41.880081 28891 net.cpp:106] Creating Layer fc6
I0402 07:43:41.880086 28891 net.cpp:454] fc6 <- pool5
I0402 07:43:41.880095 28891 net.cpp:411] fc6 -> fc6
I0402 07:43:42.049576 28891 net.cpp:150] Setting up fc6
I0402 07:43:42.049607 28891 net.cpp:157] Top shape: 64 2048 (131072)
I0402 07:43:42.049612 28891 net.cpp:165] Memory required for data: 121856256
I0402 07:43:42.049628 28891 layer_factory.hpp:76] Creating layer relu6
I0402 07:43:42.049640 28891 net.cpp:106] Creating Layer relu6
I0402 07:43:42.049648 28891 net.cpp:454] relu6 <- fc6
I0402 07:43:42.049660 28891 net.cpp:411] relu6 -> relu6
I0402 07:43:42.050649 28891 net.cpp:150] Setting up relu6
I0402 07:43:42.050667 28891 net.cpp:157] Top shape: 64 2048 (131072)
I0402 07:43:42.050671 28891 net.cpp:165] Memory required for data: 122380544
I0402 07:43:42.050678 28891 layer_factory.hpp:76] Creating layer drop6
I0402 07:43:42.050688 28891 net.cpp:106] Creating Layer drop6
I0402 07:43:42.050694 28891 net.cpp:454] drop6 <- relu6
I0402 07:43:42.050704 28891 net.cpp:411] drop6 -> drop6
I0402 07:43:42.050765 28891 net.cpp:150] Setting up drop6
I0402 07:43:42.050773 28891 net.cpp:157] Top shape: 64 2048 (131072)
I0402 07:43:42.050777 28891 net.cpp:165] Memory required for data: 122904832
I0402 07:43:42.050781 28891 layer_factory.hpp:76] Creating layer fc7
I0402 07:43:42.050793 28891 net.cpp:106] Creating Layer fc7
I0402 07:43:42.050797 28891 net.cpp:454] fc7 <- drop6
I0402 07:43:42.050806 28891 net.cpp:411] fc7 -> fc7
I0402 07:43:42.196590 28891 net.cpp:150] Setting up fc7
I0402 07:43:42.196621 28891 net.cpp:157] Top shape: 64 2048 (131072)
I0402 07:43:42.196627 28891 net.cpp:165] Memory required for data: 123429120
I0402 07:43:42.196636 28891 layer_factory.hpp:76] Creating layer relu7
I0402 07:43:42.196645 28891 net.cpp:106] Creating Layer relu7
I0402 07:43:42.196648 28891 net.cpp:454] relu7 <- fc7
I0402 07:43:42.196656 28891 net.cpp:411] relu7 -> relu7
I0402 07:43:42.197389 28891 net.cpp:150] Setting up relu7
I0402 07:43:42.197402 28891 net.cpp:157] Top shape: 64 2048 (131072)
I0402 07:43:42.197407 28891 net.cpp:165] Memory required for data: 123953408
I0402 07:43:42.197412 28891 layer_factory.hpp:76] Creating layer drop7
I0402 07:43:42.197438 28891 net.cpp:106] Creating Layer drop7
I0402 07:43:42.197443 28891 net.cpp:454] drop7 <- relu7
I0402 07:43:42.197450 28891 net.cpp:411] drop7 -> drop7
I0402 07:43:42.197506 28891 net.cpp:150] Setting up drop7
I0402 07:43:42.197517 28891 net.cpp:157] Top shape: 64 2048 (131072)
I0402 07:43:42.197522 28891 net.cpp:165] Memory required for data: 124477696
I0402 07:43:42.197526 28891 layer_factory.hpp:76] Creating layer fc8
I0402 07:43:42.197537 28891 net.cpp:106] Creating Layer fc8
I0402 07:43:42.197541 28891 net.cpp:454] fc8 <- drop7
I0402 07:43:42.197553 28891 net.cpp:411] fc8 -> fc8
I0402 07:43:42.250569 28891 net.cpp:150] Setting up fc8
I0402 07:43:42.250597 28891 net.cpp:157] Top shape: 64 1000 (64000)
I0402 07:43:42.250600 28891 net.cpp:165] Memory required for data: 124733696
I0402 07:43:42.250612 28891 layer_factory.hpp:76] Creating layer loss
I0402 07:43:42.250622 28891 net.cpp:106] Creating Layer loss
I0402 07:43:42.250628 28891 net.cpp:454] loss <- fc8
I0402 07:43:42.250635 28891 net.cpp:454] loss <- label
I0402 07:43:42.250645 28891 net.cpp:411] loss -> loss
I0402 07:43:42.250659 28891 layer_factory.hpp:76] Creating layer loss
…
I0402 07:43:42.251982 28891 net.cpp:322] The NetState phase (1) differed from the phase (0) specified by a rule in layer data
I0402 07:43:42.252161 28891 net.cpp:49] Initializing net from parameters: 
name: "CaffeNet"
state {
  phase: TEST
}
layer {
  name: "data"
  type: "Data"
  top: "data"
  top: "label"
  include {
    phase: TEST
  }
  transform_param {
    scale: 0.04
    mirror: false
    crop_size: 128
    mean_value: 104
    mean_value: 117
    mean_value: 123
    force_color: true
  }
  data_param {
    source: "/home/old-ufo/storage/datasets/imagenet/imgs128/lmdb/ilsvrc12_128_val_lmdb"
    batch_size: 50
    backend: LMDB
  }
}
layer {
  name: "conv1"
  type: "Convolution"
  bottom: "data"
  top: "conv1"
  param {
    lr_mult: 1
    decay_mult: 1
  }
  param {
    lr_mult: 2
    decay_mult: 0
  }
  convolution_param {
    num_output: 96
    kernel_size: 11
    stride: 4
    weight_filler {
      type: "gaussian"
      std: 0.01
    }
    bias_filler {
      type: "constant"
    }
  }
}
layer {
  name: "relu1"
  type: "TanH"
  bottom: "conv1"
  top: "relu1"
}
layer {
  name: "pool1"
  type: "Pooling"
  bottom: "relu1"
  top: "pool1"
  pooling_param {
    pool: MAX
    kernel_size: 3
    stride: 2
  }
}
layer {
  name: "conv2"
  type: "Convolution"
  bottom: "pool1"
  top: "conv2"
  param {
    lr_mult: 1
    decay_mult: 1
  }
  param {
    lr_mult: 2
    decay_mult: 0
  }
  convolution_param {
    num_output: 256
    pad: 2
    kernel_size: 5
    group: 2
    weight_filler {
      type: "gaussian"
      std: 0.01
    }
    bias_filler {
      type: "constant"
    }
  }
}
layer {
  name: "relu2"
  type: "TanH"
  bottom: "conv2"
  top: "relu2"
}
layer {
  name: "pool2"
  type: "Pooling"
  bottom: "relu2"
  top: "pool2"
  pooling_param {
    pool: MAX
    kernel_size: 3
    stride: 2
  }
}
layer {
  name: "conv3"
  type: "Convolution"
  bottom: "pool2"
  top: "conv3"
  param {
    lr_mult: 1
    decay_mult: 1
  }
  param {
    lr_mult: 2
    decay_mult: 0
  }
  convolution_param {
    num_output: 384
    pad: 1
    kernel_size: 3
    weight_filler {
      type: "gaussian"
      std: 0.01
    }
    bias_filler {
      type: "constant"
    }
  }
}
layer {
  name: "relu3"
  type: "TanH"
  bottom: "conv3"
  top: "relu3"
}
layer {
  name: "conv4"
  type: "Convolution"
  bottom: "relu3"
  top: "conv4"
  param {
    lr_mult: 1
    decay_mult: 1
  }
  param {
    lr_mult: 2
    decay_mult: 0
  }
  convolution_param {
    num_output: 384
    pad: 1
    kernel_size: 3
    group: 2
    weight_filler {
      type: "gaussian"
      std: 0.01
    }
    bias_filler {
      type: "constant"
    }
  }
}
layer {
  name: "relu4"
  type: "TanH"
  bottom: "conv4"
  top: "relu4"
}
layer {
  name: "conv5"
  type: "Convolution"
  bottom: "relu4"
  top: "conv5"
  param {
    lr_mult: 1
    decay_mult: 1
  }
  param {
    lr_mult: 2
    decay_mult: 0
  }
  convolution_param {
    num_output: 256
    pad: 1
    kernel_size: 3
    group: 2
    weight_filler {
      type: "gaussian"
      std: 0.01
    }
    bias_filler {
      type: "constant"
    }
  }
}
layer {
  name: "relu5"
  type: "TanH"
  bottom: "conv5"
  top: "relu5"
}
layer {
  name: "pool5"
  type: "Pooling"
  bottom: "relu5"
  top: "pool5"
  pooling_param {
    pool: MAX
    kernel_size: 3
    stride: 2
  }
}
layer {
  name: "fc6"
  type: "InnerProduct"
  bottom: "pool5"
  top: "fc6"
  param {
    lr_mult: 1
    decay_mult: 1
  }
  param {
    lr_mult: 2
    decay_mult: 0
  }
  inner_product_param {
    num_output: 2048
    weight_filler {
      type: "gaussian"
      std: 0.005
    }
    bias_filler {
      type: "constant"
    }
  }
}
layer {
  name: "relu6"
  type: "TanH"
  bottom: "fc6"
  top: "relu6"
}
layer {
  name: "drop6"
  type: "Dropout"
  bottom: "relu6"
  top: "drop6"
  dropout_param {
    dropout_ratio: 0.5
  }
}
layer {
  name: "fc7"
  type: "InnerProduct"
  bottom: "drop6"
  top: "fc7"
  param {
    lr_mult: 1
    decay_mult: 1
  }
  param {
    lr_mult: 2
    decay_mult: 0
  }
  inner_product_param {
    num_output: 2048
    weight_filler {
      type: "gaussian"
      std: 0.005
    }
    bias_filler {
      type: "constant"
    }
  }
}
layer {
  name: "relu7"
  type: "TanH"
  bottom: "fc7"
  top: "relu7"
}
layer {
  name: "drop7"
  type: "Dropout"
  bottom: "relu7"
  top: "drop7"
  dropout_param {
    dropout_ratio: 0.5
  }
}
layer {
  name: "fc8"
  type: "InnerProduct"
  bottom: "drop7"
  top: "fc8"
  param {
    lr_mult: 1
    decay_mult: 1
  }
  param {
    lr_mult: 2
    decay_mult: 0
  }
  inner_product_param {
    num_output: 1000
    weight_filler {
      type: "gaussian"
      std: 0.01
    }
    bias_filler {
      type: "constant"
    }
  }
}
layer {
  name: "accuracy"
  type: "Accuracy"
  bottom: "fc8"
  bottom: "label"
  top: "accuracy"
  include {
    phase: TEST
  }
}
layer {
  name: "loss"
  type: "SoftmaxWithLoss"
  bottom: "fc8"
  bottom: "label"
  top: "loss"
}
I0402 07:43:42.252322 28891 layer_factory.hpp:76] Creating layer data
I0402 07:43:42.252436 28891 net.cpp:106] Creating Layer data
I0402 07:43:42.252447 28891 net.cpp:411] data -> data
I0402 07:43:42.252460 28891 net.cpp:411] data -> label
I0402 07:43:42.253329 28898 db_lmdb.cpp:38] Opened lmdb /home/old-ufo/storage/datasets/imagenet/imgs128/lmdb/ilsvrc12_128_val_lmdb
I0402 07:43:42.253962 28891 data_layer.cpp:41] output data size: 50,3,128,128
I0402 07:43:42.269453 28891 net.cpp:150] Setting up data
I0402 07:43:42.269482 28891 net.cpp:157] Top shape: 50 3 128 128 (2457600)
I0402 07:43:42.269490 28891 net.cpp:157] Top shape: 50 (50)
I0402 07:43:42.269495 28891 net.cpp:165] Memory required for data: 9830600
I0402 07:43:42.269502 28891 layer_factory.hpp:76] Creating layer label_data_1_split
I0402 07:43:42.269515 28891 net.cpp:106] Creating Layer label_data_1_split
I0402 07:43:42.269521 28891 net.cpp:454] label_data_1_split <- label
I0402 07:43:42.269531 28891 net.cpp:411] label_data_1_split -> label_data_1_split_0
I0402 07:43:42.269542 28891 net.cpp:411] label_data_1_split -> label_data_1_split_1
I0402 07:43:42.269609 28891 net.cpp:150] Setting up label_data_1_split
I0402 07:43:42.269620 28891 net.cpp:157] Top shape: 50 (50)
I0402 07:43:42.269625 28891 net.cpp:157] Top shape: 50 (50)
I0402 07:43:42.269629 28891 net.cpp:165] Memory required for data: 9831000
I0402 07:43:42.269634 28891 layer_factory.hpp:76] Creating layer conv1
I0402 07:43:42.269647 28891 net.cpp:106] Creating Layer conv1
I0402 07:43:42.269652 28891 net.cpp:454] conv1 <- data
I0402 07:43:42.269660 28891 net.cpp:411] conv1 -> conv1
I0402 07:43:42.275159 28891 net.cpp:150] Setting up conv1
I0402 07:43:42.275188 28891 net.cpp:157] Top shape: 50 96 30 30 (4320000)
I0402 07:43:42.275194 28891 net.cpp:165] Memory required for data: 27111000
I0402 07:43:42.275213 28891 layer_factory.hpp:76] Creating layer relu1
I0402 07:43:42.275229 28891 net.cpp:106] Creating Layer relu1
I0402 07:43:42.275238 28891 net.cpp:454] relu1 <- conv1
I0402 07:43:42.275264 28891 net.cpp:411] relu1 -> relu1
I0402 07:43:42.276283 28891 net.cpp:150] Setting up relu1
I0402 07:43:42.276298 28891 net.cpp:157] Top shape: 50 96 30 30 (4320000)
I0402 07:43:42.276303 28891 net.cpp:165] Memory required for data: 44391000
I0402 07:43:42.276309 28891 layer_factory.hpp:76] Creating layer pool1
I0402 07:43:42.276320 28891 net.cpp:106] Creating Layer pool1
I0402 07:43:42.276325 28891 net.cpp:454] pool1 <- relu1
I0402 07:43:42.276335 28891 net.cpp:411] pool1 -> pool1
I0402 07:43:42.279414 28891 net.cpp:150] Setting up pool1
I0402 07:43:42.279434 28891 net.cpp:157] Top shape: 50 96 15 15 (1080000)
I0402 07:43:42.279439 28891 net.cpp:165] Memory required for data: 48711000
I0402 07:43:42.279445 28891 layer_factory.hpp:76] Creating layer conv2
I0402 07:43:42.279461 28891 net.cpp:106] Creating Layer conv2
I0402 07:43:42.279469 28891 net.cpp:454] conv2 <- pool1
I0402 07:43:42.279480 28891 net.cpp:411] conv2 -> conv2
I0402 07:43:42.300674 28891 net.cpp:150] Setting up conv2
I0402 07:43:42.300704 28891 net.cpp:157] Top shape: 50 256 15 15 (2880000)
I0402 07:43:42.300709 28891 net.cpp:165] Memory required for data: 60231000
I0402 07:43:42.300726 28891 layer_factory.hpp:76] Creating layer relu2
I0402 07:43:42.300740 28891 net.cpp:106] Creating Layer relu2
I0402 07:43:42.300746 28891 net.cpp:454] relu2 <- conv2
I0402 07:43:42.300756 28891 net.cpp:411] relu2 -> relu2
I0402 07:43:42.301833 28891 net.cpp:150] Setting up relu2
I0402 07:43:42.301848 28891 net.cpp:157] Top shape: 50 256 15 15 (2880000)
I0402 07:43:42.301853 28891 net.cpp:165] Memory required for data: 71751000
I0402 07:43:42.301857 28891 layer_factory.hpp:76] Creating layer pool2
I0402 07:43:42.301867 28891 net.cpp:106] Creating Layer pool2
I0402 07:43:42.301872 28891 net.cpp:454] pool2 <- relu2
I0402 07:43:42.301879 28891 net.cpp:411] pool2 -> pool2
I0402 07:43:42.303004 28891 net.cpp:150] Setting up pool2
I0402 07:43:42.303017 28891 net.cpp:157] Top shape: 50 256 7 7 (627200)
I0402 07:43:42.303037 28891 net.cpp:165] Memory required for data: 74259800
I0402 07:43:42.303043 28891 layer_factory.hpp:76] Creating layer conv3
I0402 07:43:42.303059 28891 net.cpp:106] Creating Layer conv3
I0402 07:43:42.303066 28891 net.cpp:454] conv3 <- pool2
I0402 07:43:42.303074 28891 net.cpp:411] conv3 -> conv3
I0402 07:43:42.341205 28891 net.cpp:150] Setting up conv3
I0402 07:43:42.341238 28891 net.cpp:157] Top shape: 50 384 7 7 (940800)
I0402 07:43:42.341243 28891 net.cpp:165] Memory required for data: 78023000
I0402 07:43:42.341261 28891 layer_factory.hpp:76] Creating layer relu3
I0402 07:43:42.341274 28891 net.cpp:106] Creating Layer relu3
I0402 07:43:42.341281 28891 net.cpp:454] relu3 <- conv3
I0402 07:43:42.341294 28891 net.cpp:411] relu3 -> relu3
I0402 07:43:42.342236 28891 net.cpp:150] Setting up relu3
I0402 07:43:42.342255 28891 net.cpp:157] Top shape: 50 384 7 7 (940800)
I0402 07:43:42.342260 28891 net.cpp:165] Memory required for data: 81786200
I0402 07:43:42.342267 28891 layer_factory.hpp:76] Creating layer conv4
I0402 07:43:42.342280 28891 net.cpp:106] Creating Layer conv4
I0402 07:43:42.342286 28891 net.cpp:454] conv4 <- relu3
I0402 07:43:42.342298 28891 net.cpp:411] conv4 -> conv4
I0402 07:43:42.374407 28891 net.cpp:150] Setting up conv4
I0402 07:43:42.374475 28891 net.cpp:157] Top shape: 50 384 7 7 (940800)
I0402 07:43:42.374483 28891 net.cpp:165] Memory required for data: 85549400
I0402 07:43:42.374498 28891 layer_factory.hpp:76] Creating layer relu4
I0402 07:43:42.374511 28891 net.cpp:106] Creating Layer relu4
I0402 07:43:42.374518 28891 net.cpp:454] relu4 <- conv4
I0402 07:43:42.374528 28891 net.cpp:411] relu4 -> relu4
I0402 07:43:42.375481 28891 net.cpp:150] Setting up relu4
I0402 07:43:42.375497 28891 net.cpp:157] Top shape: 50 384 7 7 (940800)
I0402 07:43:42.375502 28891 net.cpp:165] Memory required for data: 89312600
I0402 07:43:42.375509 28891 layer_factory.hpp:76] Creating layer conv5
I0402 07:43:42.375524 28891 net.cpp:106] Creating Layer conv5
I0402 07:43:42.375531 28891 net.cpp:454] conv5 <- relu4
I0402 07:43:42.375541 28891 net.cpp:411] conv5 -> conv5
I0402 07:43:42.398069 28891 net.cpp:150] Setting up conv5
I0402 07:43:42.398102 28891 net.cpp:157] Top shape: 50 256 7 7 (627200)
I0402 07:43:42.398108 28891 net.cpp:165] Memory required for data: 91821400
I0402 07:43:42.398128 28891 layer_factory.hpp:76] Creating layer relu5
I0402 07:43:42.398143 28891 net.cpp:106] Creating Layer relu5
I0402 07:43:42.398149 28891 net.cpp:454] relu5 <- conv5
I0402 07:43:42.398161 28891 net.cpp:411] relu5 -> relu5
I0402 07:43:42.399600 28891 net.cpp:150] Setting up relu5
I0402 07:43:42.399615 28891 net.cpp:157] Top shape: 50 256 7 7 (627200)
I0402 07:43:42.399619 28891 net.cpp:165] Memory required for data: 94330200
I0402 07:43:42.399624 28891 layer_factory.hpp:76] Creating layer pool5
I0402 07:43:42.399636 28891 net.cpp:106] Creating Layer pool5
I0402 07:43:42.399641 28891 net.cpp:454] pool5 <- relu5
I0402 07:43:42.399649 28891 net.cpp:411] pool5 -> pool5
I0402 07:43:42.400881 28891 net.cpp:150] Setting up pool5
I0402 07:43:42.400894 28891 net.cpp:157] Top shape: 50 256 3 3 (115200)
I0402 07:43:42.400898 28891 net.cpp:165] Memory required for data: 94791000
I0402 07:43:42.400903 28891 layer_factory.hpp:76] Creating layer fc6
I0402 07:43:42.400918 28891 net.cpp:106] Creating Layer fc6
I0402 07:43:42.400923 28891 net.cpp:454] fc6 <- pool5
I0402 07:43:42.400933 28891 net.cpp:411] fc6 -> fc6
I0402 07:43:42.522402 28891 net.cpp:150] Setting up fc6
I0402 07:43:42.522431 28891 net.cpp:157] Top shape: 50 2048 (102400)
I0402 07:43:42.522439 28891 net.cpp:165] Memory required for data: 95200600
I0402 07:43:42.522454 28891 layer_factory.hpp:76] Creating layer relu6
I0402 07:43:42.522474 28891 net.cpp:106] Creating Layer relu6
I0402 07:43:42.522481 28891 net.cpp:454] relu6 <- fc6
I0402 07:43:42.522496 28891 net.cpp:411] relu6 -> relu6
I0402 07:43:42.523517 28891 net.cpp:150] Setting up relu6
I0402 07:43:42.523532 28891 net.cpp:157] Top shape: 50 2048 (102400)
I0402 07:43:42.523537 28891 net.cpp:165] Memory required for data: 95610200
I0402 07:43:42.526446 28891 layer_factory.hpp:76] Creating layer drop6
I0402 07:43:42.526464 28891 net.cpp:106] Creating Layer drop6
I0402 07:43:42.526470 28891 net.cpp:454] drop6 <- relu6
I0402 07:43:42.526482 28891 net.cpp:411] drop6 -> drop6
I0402 07:43:42.526582 28891 net.cpp:150] Setting up drop6
I0402 07:43:42.526595 28891 net.cpp:157] Top shape: 50 2048 (102400)
I0402 07:43:42.526600 28891 net.cpp:165] Memory required for data: 96019800
I0402 07:43:42.526605 28891 layer_factory.hpp:76] Creating layer fc7
I0402 07:43:42.526618 28891 net.cpp:106] Creating Layer fc7
I0402 07:43:42.526623 28891 net.cpp:454] fc7 <- drop6
I0402 07:43:42.526631 28891 net.cpp:411] fc7 -> fc7
I0402 07:43:42.635071 28891 net.cpp:150] Setting up fc7
I0402 07:43:42.635097 28891 net.cpp:157] Top shape: 50 2048 (102400)
I0402 07:43:42.635102 28891 net.cpp:165] Memory required for data: 96429400
I0402 07:43:42.635116 28891 layer_factory.hpp:76] Creating layer relu7
I0402 07:43:42.635133 28891 net.cpp:106] Creating Layer relu7
I0402 07:43:42.635143 28891 net.cpp:454] relu7 <- fc7
I0402 07:43:42.635154 28891 net.cpp:411] relu7 -> relu7
I0402 07:43:42.636086 28891 net.cpp:150] Setting up relu7
I0402 07:43:42.636101 28891 net.cpp:157] Top shape: 50 2048 (102400)
I0402 07:43:42.636106 28891 net.cpp:165] Memory required for data: 96839000
I0402 07:43:42.636111 28891 layer_factory.hpp:76] Creating layer drop7
I0402 07:43:42.636121 28891 net.cpp:106] Creating Layer drop7
I0402 07:43:42.636127 28891 net.cpp:454] drop7 <- relu7
I0402 07:43:42.636135 28891 net.cpp:411] drop7 -> drop7
I0402 07:43:42.636195 28891 net.cpp:150] Setting up drop7
I0402 07:43:42.636204 28891 net.cpp:157] Top shape: 50 2048 (102400)
I0402 07:43:42.636207 28891 net.cpp:165] Memory required for data: 97248600
I0402 07:43:42.636211 28891 layer_factory.hpp:76] Creating layer fc8
I0402 07:43:42.636224 28891 net.cpp:106] Creating Layer fc8
I0402 07:43:42.636230 28891 net.cpp:454] fc8 <- drop7
I0402 07:43:42.636240 28891 net.cpp:411] fc8 -> fc8
I0402 07:43:42.689105 28891 net.cpp:150] Setting up fc8
I0402 07:43:42.689134 28891 net.cpp:157] Top shape: 50 1000 (50000)
I0402 07:43:42.689141 28891 net.cpp:165] Memory required for data: 97448600
I0402 07:43:42.689154 28891 layer_factory.hpp:76] Creating layer fc8_fc8_0_split
I0402 07:43:42.689167 28891 net.cpp:106] Creating Layer fc8_fc8_0_split
I0402 07:43:42.689177 28891 net.cpp:454] fc8_fc8_0_split <- fc8
I0402 07:43:42.689189 28891 net.cpp:411] fc8_fc8_0_split -> fc8_fc8_0_split_0
I0402 07:43:42.689203 28891 net.cpp:411] fc8_fc8_0_split -> fc8_fc8_0_split_1
I0402 07:43:42.689291 28891 net.cpp:150] Setting up fc8_fc8_0_split
I0402 07:43:42.689299 28891 net.cpp:157] Top shape: 50 1000 (50000)
I0402 07:43:42.689304 28891 net.cpp:157] Top shape: 50 1000 (50000)
I0402 07:43:42.689309 28891 net.cpp:165] Memory required for data: 97848600
I0402 07:43:42.689316 28891 layer_factory.hpp:76] Creating layer accuracy
I0402 07:43:42.689332 28891 net.cpp:106] Creating Layer accuracy
I0402 07:43:42.689337 28891 net.cpp:454] accuracy <- fc8_fc8_0_split_0
I0402 07:43:42.689354 28891 net.cpp:454] accuracy <- label_data_1_split_0
I0402 07:43:42.689365 28891 net.cpp:411] accuracy -> accuracy
…
