…
      crop_size: 128
      mean_value: 104
      mean_value: 117
      mean_value: 123
      force_color: true
      resize_param {
        prob: 1
        resize_mode: FIT_SMALL_SIZE
        height: 144
        width: 144
        pad_mode: MIRRORED
        pad_value: 104
        pad_value: 117
        pad_value: 124
        interp_mode: LINEAR
        center_object: false
        max_angle: 0
      }
    }
    data_param {
      source: "/home/old-ufo/datasets/imagenet/ilsvrc12_val_lmdb"
      batch_size: 25
      backend: LMDB
    }
  }
  layer {
    name: "block1_conv1"
    type: "Convolution"
    bottom: "data"
    top: "block1_conv1"
    param {
      decay_mult: 1
    }
    param {
      decay_mult: 0
    }
    convolution_param {
      num_output: 64
      pad: 0
      kernel_size: 7
      stride: 2
      weight_filler {
        type: "xavier"
      }
      bias_filler {
        value: 0
      }
    }
  }
  layer {
    name: "block1_conv1_BN"
    type: "BatchNorm"
    bottom: "block1_conv1"
    top: "block1_conv1_BN"
    param {
      lr_mult: 0
      decay_mult: 0
    }
    param {
      lr_mult: 0
      decay_mult: 0
    }
    param {
      lr_mult: 0
      decay_mult: 0
    }
    batch_norm_param {
      use_global_stats: false
      moving_average_fraction: 0.95
    }
  }
  layer {
    name: "block1_relu2"
    type: "ReLU"
    bottom: "block1_conv1_BN"
    top: "block1_conv1_BN"
    relu_param {
      negative_slope: 0
    }
  }
  layer {
    name: "block1_conv1_BN_max"
    type: "Pooling"
    bottom: "block1_conv1_BN"
    top: "block1_conv1_BN_max"
    pooling_param {
      pool: MAX
      kernel_size: 3
      stride: 2
      pad: 1
    }
  }
  layer {
    name: "block1_conv28"
    type: "Convolution"
    bottom: "block1_conv1_BN_max"
    top: "block1_conv28"
    param {
      decay_mult: 1
    }
    param {
      decay_mult: 0
    }
    convolution_param {
      num_output: 256
      pad: 0
      kernel_size: 1
      stride: 1
      weight_filler {
        type: "xavier"
      }
      bias_filler {
        value: 0
      }
    }
  }
  layer {
    name: "block2_conv4"
    type: "Convolution"
    bottom: "block1_conv1_BN_max"
    top: "block2_conv4"
    param {
      decay_mult: 1
    }
    param {
      decay_mult: 0
    }
    convolution_param {
      num_output: 64
      pad: 0
      kernel_size: 1
      stride: 1
      weight_filler {
        type: "xavier"
      }
      bias_filler {
        value: 0
      }
    }
  }
  layer {
    name: "block2_conv4_BN"
    type: "BatchNorm"
    bottom: "block2_conv4"
    top: "block2_conv4_BN"
    param {
      lr_mult: 0
      decay_mult: 0
    }
    param {
      lr_mult: 0
      decay_mult: 0
    }
    param {
      lr_mult: 0
      decay_mult: 0
    }
    batch_norm_param {
      use_global_stats: false
      moving_average_fraction: 0.95
    }
  }
  layer {
    name: "block2_relu5"
    type: "ReLU"
    bottom: "block2_conv4_BN"
    top: "block2_conv4_BN"
    relu_param {
      negative_slope: 0
    }
  }
  layer {
    name: "block2_conv6"
    type: "Convolution"
    bottom: "block2_conv4_BN"
    top: "block2_conv6"
    param {
      decay_mult: 1
    }
    param {
      decay_mult: 0
    }
    convolution_param {
      num_output: 64
      pad: 1
      kernel_size: 3
      stride: 1
      weight_filler {
        type: "xavier"
      }
      bias_filler {
        value: 0
      }
    }
  }
  layer {
    name: "block2_conv6_BN"
    type: "BatchNorm"
    bottom: "block2_conv6"
    top: "block2_conv6_BN"
    param {
      lr_mult: 0
      decay_mult: 0
    }
    param {
      lr_mult: 0
      decay_mult: 0
    }
    param {
      lr_mult: 0
      decay_mult: 0
    }
    batch_norm_param {
      use_global_stats: false
      moving_average_fraction: 0.95
    }
  }
  layer {
    name: "block2_relu7"
    type: "ReLU"
    bottom: "block2_conv6_BN"
    top: "block2_conv6_BN"
    relu_param {
      negative_slope: 0
    }
  }
  layer {
    name: "block2_conv8"
    type: "Convolution"
    bottom: "block2_conv6_BN"
    top: "block2_conv8"
    param {
      decay_mult: 1
    }
    param {
      decay_mult: 0
    }
    convolution_param {
      num_output: 256
      pad: 0
      kernel_size: 1
      stride: 1
      weight_filler {
        type: "xavier"
      }
      bias_filler {
        value: 0
      }
    }
  }
  layer {
    name: "block2_conv8_BN"
    type: "BatchNorm"
    bottom: "block2_conv8"
    top: "block2_conv8_BN"
    param {
      lr_mult: 0
      decay_mult: 0
    }
    param {
      lr_mult: 0
      decay_mult: 0
    }
    param {
      lr_mult: 0
      decay_mult: 0
    }
    batch_norm_param {
      use_global_stats: false
      moving_average_fraction: 0.95
    }
  }
  layer {
    name: "block2_conv8_BN_eltwise"
    type: "Eltwise"
    bottom: "block2_conv8_BN"
    bottom: "block1_conv28"
    top: "block2_conv8_BN_eltwise"
    eltwise_param {
      operation: SUM
    }
  }
  layer {
    name: "block2_relu10"
    type: "ReLU"
    bottom: "block2_conv8_BN_eltwise"
    top: "block2_relu10"
    relu_param {
      negative_slope: 0
    }
  }
  layer {
    name: "block2_conv12"
    type: "Convolution"
    bottom: "block2_relu10"
    top: "block2_conv12"
    param {
      decay_mult: 1
    }
    param {
      decay_mult: 0
    }
    convolution_param {
      num_output: 64
      pad: 0
      kernel_size: 1
      stride: 1
      weight_filler {
        type: "xavier"
      }
      bias_filler {
        value: 0
      }
    }
  }
  layer {
    name: "block2_conv12_BN"
    type: "BatchNorm"
    bottom: "block2_conv12"
    top: "block2_conv12_BN"
    param {
      lr_mult: 0
      decay_mult: 0
    }
    param {
      lr_mult: 0
      decay_mult: 0
    }
    param {
      lr_mult: 0
      decay_mult: 0
    }
    batch_norm_param {
      use_global_stats: false
      moving_average_fraction: 0.95
    }
  }
  layer {
    name: "block2_relu13"
    type: "ReLU"
    bottom: "block2_conv12_BN"
    top: "block2_conv12_BN"
    relu_param {
      negative_slope: 0
    }
  }
  layer {
    name: "block2_conv14"
    type: "Convolution"
    bottom: "block2_conv12_BN"
    top: "block2_conv14"
    param {
      decay_mult: 1
    }
    param {
      decay_mult: 0
    }
    convolution_param {
      num_output: 64
      pad: 1
      kernel_size: 3
      stride: 1
      weight_filler {
        type: "xavier"
      }
      bias_filler {
        value: 0
      }
    }
  }
  layer {
    name: "block2_conv14_BN"
    type: "BatchNorm"
    bottom: "block2_conv14"
    top: "block2_conv14_BN"
    param {
      lr_mult: 0
      decay_mult: 0
    }
    param {
      lr_mult: 0
      decay_mult: 0
    }
    param {
      lr_mult: 0
      decay_mult: 0
    }
    batch_norm_param {
      use_global_stats: false
      moving_average_fraction: 0.95
    }
  }
  layer {
    name: "block2_relu15"
    type: "ReLU"
    bottom: "block2_conv14_BN"
    top: "block2_conv14_BN"
    relu_param {
      negative_slope: 0
    }
  }
  layer {
    name: "block2_conv16"
    type: "Convolution"
    bottom: "block2_conv14_BN"
    top: "block2_conv16"
    param {
      decay_mult: 1
    }
    param {
      decay_mult: 0
    }
    convolution_param {
      num_output: 256
      pad: 0
      kernel_size: 1
      stride: 1
      weight_filler {
        type: "xavier"
      }
      bias_filler {
        value: 0
      }
    }
  }
  layer {
    name: "block2_conv16_BN"
    type: "BatchNorm"
    bottom: "block2_conv16"
    top: "block2_conv16_BN"
    param {
      lr_mult: 0
      decay_mult: 0
    }
    param {
      lr_mult: 0
      decay_mult: 0
    }
    param {
      lr_mult: 0
      decay_mult: 0
    }
    batch_norm_param {
      use_global_stats: false
      moving_average_fraction: 0.95
    }
  }
  layer {
    name: "block2_conv16_BN_eltwise"
    type: "Eltwise"
    bottom: "block2_conv16_BN"
    bottom: "block2_relu10"
    top: "block2_conv16_BN_eltwise"
    eltwise_param {
      operation: SUM
    }
  }
  layer {
    name: "block2_relu18"
    type: "ReLU"
    bottom: "block2_conv16_BN_eltwise"
    top: "block2_relu18"
    relu_param {
      negative_slope: 0
    }
  }
  layer {
    name: "block2_conv20"
    type: "Convolution"
    bottom: "block2_relu18"
    top: "block2_conv20"
    param {
      decay_mult: 1
    }
    param {
      decay_mult: 0
    }
    convolution_param {
      num_output: 64
      pad: 0
      kernel_size: 1
      stride: 1
      weight_filler {
        type: "xavier"
      }
      bias_filler {
        value: 0
      }
    }
  }
  layer {
    name: "block2_conv20_BN"
    type: "BatchNorm"
    bottom: "block2_conv20"
    top: "block2_conv20_BN"
    param {
      lr_mult: 0
      decay_mult: 0
    }
    param {
      lr_mult: 0
      decay_mult: 0
    }
    param {
      lr_mult: 0
      decay_mult: 0
    }
    batch_norm_param {
      use_global_stats: false
      moving_average_fraction: 0.95
    }
  }
  layer {
    name: "block2_relu21"
    type: "ReLU"
    bottom: "block2_conv20_BN"
    top: "block2_conv20_BN"
    relu_param {
      negative_slope: 0
    }
  }
  layer {
    name: "block2_conv22"
    type: "Convolution"
    bottom: "block2_conv20_BN"
    top: "block2_conv22"
    param {
      decay_mult: 1
    }
    param {
      decay_mult: 0
    }
    convolution_param {
      num_output: 64
      pad: 1
      kernel_size: 3
      stride: 1
      weight_filler {
        type: "xavier"
      }
      bias_filler {
        value: 0
      }
    }
  }
  layer {
    name: "block2_conv22_BN"
    type: "BatchNorm"
    bottom: "block2_conv22"
    top: "block2_conv22_BN"
    param {
      lr_mult: 0
      decay_mult: 0
    }
    param {
      lr_mult: 0
      decay_mult: 0
    }
    param {
      lr_mult: 0
      decay_mult: 0
    }
    batch_norm_param {
      use_global_stats: false
      moving_average_fraction: 0.95
    }
  }
  layer {
    name: "block2_relu23"
    type: "ReLU"
    bottom: "block2_conv22_BN"
    top: "block2_conv22_BN"
    relu_param {
      negative_slope: 0
    }
  }
  layer {
    name: "block2_conv24"
    type: "Convolution"
    bottom: "block2_conv22_BN"
    top: "block2_conv24"
    param {
      decay_mult: 1
    }
    param {
      decay_mult: 0
    }
    convolution_param {
      num_output: 256
      pad: 0
      kernel_size: 1
      stride: 1
      weight_filler {
        type: "xavier"
      }
      bias_filler {
        value: 0
      }
    }
  }
  layer {
    name: "block2_conv24_BN"
    type: "BatchNorm"
    bottom: "block2_conv24"
    top: "block2_conv24_BN"
    param {
      lr_mult: 0
      decay_mult: 0
    }
    param {
      lr_mult: 0
      decay_mult: 0
    }
    param {
      lr_mult: 0
      decay_mult: 0
    }
    batch_norm_param {
      use_global_stats: false
      moving_average_fraction: 0.95
    }
  }
  layer {
    name: "block2_conv24_BN_eltwise"
    type: "Eltwise"
    bottom: "block2_conv24_BN"
    bottom: "block2_relu18"
    top: "block2_conv24_BN_eltwise"
    eltwise_param {
      operation: SUM
    }
  }
  layer {
    name: "block2_relu26"
    type: "ReLU"
    bottom: "block2_conv24_BN_eltwise"
    top: "block2_relu26"
    relu_param {
      negative_slope: 0
    }
  }
  layer {
    name: "block2_conv28"
    type: "Convolution"
    bottom: "block2_relu26"
    top: "block2_conv28"
    param {
      decay_mult: 1
    }
    param {
      decay_mult: 0
    }
    convolution_param {
      num_output: 512
      pad: 0
      kernel_size: 1
      stride: 2
      weight_filler {
        type: "xavier"
      }
      bias_filler {
        value: 0
      }
    }
  }
  layer {
    name: "block3_conv29"
    type: "Convolution"
    bottom: "block2_conv28"
    top: "block3_conv29"
    param {
      decay_mult: 1
    }
    param {
      decay_mult: 0
    }
    convolution_param {
      num_output: 128
      pad: 0
      kernel_size: 1
      stride: 1
      weight_filler {
        type: "xavier"
      }
      bias_filler {
        value: 0
      }
    }
  }
  layer {
    name: "block3_conv29_BN"
    type: "BatchNorm"
    bottom: "block3_conv29"
    top: "block3_conv29_BN"
    param {
      lr_mult: 0
      decay_mult: 0
    }
    param {
      lr_mult: 0
      decay_mult: 0
    }
    param {
      lr_mult: 0
      decay_mult: 0
    }
    batch_norm_param {
      use_global_stats: false
      moving_average_fraction: 0.95
    }
  }
  layer {
    name: "block3_relu30"
    type: "ReLU"
    bottom: "block3_conv29_BN"
    top: "block3_conv29_BN"
    relu_param {
      negative_slope: 0
    }
  }
  layer {
    name: "block3_conv31"
    type: "Convolution"
    bottom: "block3_conv29_BN"
    top: "block3_conv31"
    param {
      decay_mult: 1
    }
    param {
      decay_mult: 0
    }
    convolution_param {
      num_output: 128
      pad: 1
      kernel_size: 3
      stride: 1
      weight_filler {
        type: "xavier"
      }
      bias_filler {
        value: 0
      }
    }
  }
  layer {
    name: "block3_conv31_BN"
    type: "BatchNorm"
    bottom: "block3_conv31"
    top: "block3_conv31_BN"
    param {
      lr_mult: 0
      decay_mult: 0
    }
    param {
      lr_mult: 0
      decay_mult: 0
    }
    param {
      lr_mult: 0
      decay_mult: 0
    }
    batch_norm_param {
      use_global_stats: false
      moving_average_fraction: 0.95
    }
  }
  layer {
    name: "block3_relu32"
    type: "ReLU"
    bottom: "block3_conv31_BN"
    top: "block3_conv31_BN"
    relu_param {
      negative_slope: 0
    }
  }
  layer {
    name: "block3_conv33"
    type: "Convolution"
    bottom: "block3_conv31_BN"
    top: "block3_conv33"
    param {
      decay_mult: 1
    }
    param {
      decay_mult: 0
    }
    convolution_param {
      num_output: 512
      pad: 0
      kernel_size: 1
      stride: 1
      weight_filler {
        type: "xavier"
      }
      bias_filler {
        value: 0
      }
    }
  }
  layer {
    name: "block3_conv33_BN"
    type: "BatchNorm"
    bottom: "block3_conv33"
    top: "block3_conv33_BN"
    param {
      lr_mult: 0
      decay_mult: 0
    }
    param {
      lr_mult: 0
      decay_mult: 0
    }
    param {
      lr_mult: 0
      decay_mult: 0
    }
    batch_norm_param {
      use_global_stats: false
      moving_average_fraction: 0.95
    }
  }
  layer {
    name: "block3_conv33_BN_eltwise"
    type: "Eltwise"
    bottom: "block3_conv33_BN"
    bottom: "block2_conv28"
    top: "block3_conv33_BN_eltwise"
    eltwise_param {
      operation: SUM
    }
  }
  layer {
    name: "block3_relu35"
    type: "ReLU"
    bottom: "block3_conv33_BN_eltwise"
    top: "block3_relu35"
    relu_param {
      negative_slope: 0
    }
  }
  layer {
    name: "block3_conv37"
    type: "Convolution"
    bottom: "block3_relu35"
    top: "block3_conv37"
    param {
      decay_mult: 1
    }
    param {
      decay_mult: 0
    }
    convolution_param {
      num_output: 128
      pad: 0
      kernel_size: 1
      stride: 1
      weight_filler {
        type: "xavier"
      }
      bias_filler {
        value: 0
      }
    }
  }
  layer {
    name: "block3_conv37_BN"
    type: "BatchNorm"
    bottom: "block3_conv37"
    top: "block3_conv37_BN"
    param {
      lr_mult: 0
      decay_mult: 0
    }
    param {
      lr_mult: 0
      decay_mult: 0
    }
    param {
      lr_mult: 0
      decay_mult: 0
    }
    batch_norm_param {
      use_global_stats: false
      moving_average_fraction: 0.95
    }
  }
  layer {
    name: "block3_relu38"
    type: "ReLU"
    bottom: "block3_conv37_BN"
    top: "block3_conv37_BN"
    relu_param {
      negative_slope: 0
    }
  }
  layer {
    name: "block3_conv39"
    type: "Convolution"
    bottom: "block3_conv37_BN"
    top: "block3_conv39"
    param {
      decay_mult: 1
    }
    param {
      decay_mult: 0
    }
    convolution_param {
      num_output: 128
      pad: 1
      kernel_size: 3
      stride: 1
      weight_filler {
        type: "xavier"
      }
      bias_filler {
        value: 0
      }
    }
  }
  layer {
    name: "block3_conv39_BN"
    type: "BatchNorm"
    bottom: "block3_conv39"
    top: "block3_conv39_BN"
    param {
      lr_mult: 0
      decay_mult: 0
    }
    param {
      lr_mult: 0
      decay_mult: 0
    }
    param {
      lr_mult: 0
      decay_mult: 0
    }
    batch_norm_param {
      use_global_stats: false
      moving_average_fraction: 0.95
    }
  }
  layer {
    name: "block3_relu40"
    type: "ReLU"
    bottom: "block3_conv39_BN"
    top: "block3_conv39_BN"
    relu_param {
      negative_slope: 0
    }
  }
  layer {
    name: "block3_conv41"
    type: "Convolution"
    bottom: "block3_conv39_BN"
    top: "block3_conv41"
    param {
      decay_mult: 1
    }
    param {
      decay_mult: 0
    }
    convolution_param {
      num_output: 512
      pad: 0
      kernel_size: 1
      stride: 1
      weight_filler {
        type: "xavier"
      }
      bias_filler {
        value: 0
      }
    }
  }
  layer {
    name: "block3_conv41_BN"
    type: "BatchNorm"
    bottom: "block3_conv41"
    top: "block3_conv41_BN"
    param {
      lr_mult: 0
      decay_mult: 0
    }
    param {
      lr_mult: 0
      decay_mult: 0
    }
    param {
      lr_mult: 0
      decay_mult: 0
    }
    batch_norm_param {
      use_global_stats: false
      moving_average_fraction: 0.95
    }
  }
  layer {
    name: "block3_conv41_BN_eltwise"
    type: "Eltwise"
    bottom: "block3_conv41_BN"
    bottom: "block3_relu35"
    top: "block3_conv41_BN_eltwise"
    eltwise_param {
      operation: SUM
    }
  }
  layer {
    name: "block3_relu43"
    type: "ReLU"
    bottom: "block3_conv41_BN_eltwise"
    top: "block3_relu43"
    relu_param {
      negative_slope: 0
    }
  }
  layer {
    name: "block3_conv45"
    type: "Convolution"
    bottom: "block3_relu43"
    top: "block3_conv45"
    param {
      decay_mult: 1
    }
    param {
      decay_mult: 0
    }
    convolution_param {
      num_output: 128
      pad: 0
      kernel_size: 1
      stride: 1
      weight_filler {
        type: "xavier"
      }
      bias_filler {
        value: 0
      }
    }
  }
  layer {
    name: "block3_conv45_BN"
    type: "BatchNorm"
    bottom: "block3_conv45"
    top: "block3_conv45_BN"
    param {
      lr_mult: 0
      decay_mult: 0
    }
    param {
      lr_mult: 0
      decay_mult: 0
    }
    param {
      lr_mult: 0
      decay_mult: 0
    }
    batch_norm_param {
      use_global_stats: false
      moving_average_fraction: 0.95
    }
  }
  layer {
    name: "block3_relu46"
    type: "ReLU"
    bottom: "block3_conv45_BN"
    top: "block3_conv45_BN"
    relu_param {
      negative_slope: 0
    }
  }
  layer {
    name: "block3_conv47"
    type: "Convolution"
    bottom: "block3_conv45_BN"
    top: "block3_conv47"
    param {
      decay_mult: 1
    }
    param {
      decay_mult: 0
    }
    convolution_param {
      num_output: 128
      pad: 1
      kernel_size: 3
      stride: 1
      weight_filler {
        type: "xavier"
      }
      bias_filler {
        value: 0
      }
    }
  }
  layer {
    name: "block3_conv47_BN"
    type: "BatchNorm"
    bottom: "block3_conv47"
    top: "block3_conv47_BN"
    param {
      lr_mult: 0
      decay_mult: 0
    }
    param {
      lr_mult: 0
      decay_mult: 0
    }
    param {
      lr_mult: 0
      decay_mult: 0
    }
    batch_norm_param {
      use_global_stats: false
      moving_average_fraction: 0.95
    }
  }
  layer {
    name: "block3_relu48"
    type: "ReLU"
    bottom: "block3_conv47_BN"
    top: "block3_conv47_BN"
    relu_param {
      negative_slope: 0
    }
  }
  layer {
    name: "block3_conv49"
    type: "Convolution"
    bottom: "block3_conv47_BN"
    top: "block3_conv49"
    param {
      decay_mult: 1
    }
    param {
      decay_mult: 0
    }
    convolution_param {
      num_output: 512
      pad: 0
      kernel_size: 1
      stride: 1
      weight_filler {
        type: "xavier"
      }
      bias_filler {
        value: 0
      }
    }
  }
  layer {
    name: "block3_conv49_BN"
    type: "BatchNorm"
    bottom: "block3_conv49"
    top: "block3_conv49_BN"
    param {
      lr_mult: 0
      decay_mult: 0
    }
    param {
      lr_mult: 0
      decay_mult: 0
    }
    param {
      lr_mult: 0
      decay_mult: 0
    }
    batch_norm_param {
      use_global_stats: false
      moving_average_fraction: 0.95
    }
  }
  layer {
    name: "block3_conv49_BN_eltwise"
    type: "Eltwise"
    bottom: "block3_conv49_BN"
    bottom: "block3_relu43"
    top: "block3_conv49_BN_eltwise"
    eltwise_param {
      operation: SUM
    }
  }
  layer {
    name: "block3_relu51"
    type: "ReLU"
    bottom: "block3_conv49_BN_eltwise"
    top: "block3_relu51"
    relu_param {
      negative_slope: 0
    }
  }
  layer {
    name: "block3_conv53"
    type: "Convolution"
    bottom: "block3_relu51"
    top: "block3_conv53"
    param {
      decay_mult: 1
    }
    param {
      decay_mult: 0
    }
    convolution_param {
      num_output: 128
      pad: 0
      kernel_size: 1
      stride: 1
      weight_filler {
        type: "xavier"
      }
      bias_filler {
        value: 0
      }
    }
  }
  layer {
    name: "block3_conv53_BN"
    type: "BatchNorm"
    bottom: "block3_conv53"
    top: "block3_conv53_BN"
    param {
      lr_mult: 0
      decay_mult: 0
    }
    param {
      lr_mult: 0
      decay_mult: 0
    }
    param {
      lr_mult: 0
      decay_mult: 0
    }
    batch_norm_param {
      use_global_stats: false
      moving_average_fraction: 0.95
    }
  }
  layer {
    name: "block3_relu54"
    type: "ReLU"
    bottom: "block3_conv53_BN"
    top: "block3_conv53_BN"
    relu_param {
      negative_slope: 0
    }
  }
  layer {
    name: "block3_conv55"
    type: "Convolution"
    bottom: "block3_conv53_BN"
    top: "block3_conv55"
    param {
      decay_mult: 1
    }
    param {
      decay_mult: 0
    }
    convolution_param {
      num_output: 128
      pad: 1
      kernel_size: 3
      stride: 1
      weight_filler {
        type: "xavier"
      }
      bias_filler {
        value: 0
      }
    }
  }
  layer {
    name: "block3_conv55_BN"
    type: "BatchNorm"
    bottom: "block3_conv55"
    top: "block3_conv55_BN"
    param {
      lr_mult: 0
      decay_mult: 0
    }
    param {
      lr_mult: 0
      decay_mult: 0
    }
    param {
      lr_mult: 0
      decay_mult: 0
    }
    batch_norm_param {
      use_global_stats: false
      moving_average_fraction: 0.95
    }
  }
  layer {
    name: "block3_relu56"
    type: "ReLU"
    bottom: "block3_conv55_BN"
    top: "block3_conv55_BN"
    relu_param {
      negative_slope: 0
    }
  }
  layer {
    name: "block3_conv57"
    type: "Convolution"
    bottom: "block3_conv55_BN"
    top: "block3_conv57"
    param {
      decay_mult: 1
    }
    param {
      decay_mult: 0
    }
    convolution_param {
      num_output: 512
      pad: 0
      kernel_size: 1
      stride: 1
      weight_filler {
        type: "xavier"
      }
      bias_filler {
        value: 0
      }
    }
  }
  layer {
    name: "block3_conv57_BN"
    type: "BatchNorm"
    bottom: "block3_conv57"
    top: "block3_conv57_BN"
    param {
      lr_mult: 0
      decay_mult: 0
    }
    param {
      lr_mult: 0
      decay_mult: 0
    }
    param {
      lr_mult: 0
      decay_mult: 0
    }
    batch_norm_param {
      use_global_stats: false
      moving_average_fraction: 0.95
    }
  }
  layer {
    name: "block3_conv57_BN_eltwise"
    type: "Eltwise"
    bottom: "block3_conv57_BN"
    bottom: "block3_relu51"
    top: "block3_conv57_BN_eltwise"
    eltwise_param {
      operation: SUM
    }
  }
  layer {
    name: "block3_relu59"
    type: "ReLU"
    bottom: "block3_conv57_BN_eltwise"
    top: "block3_relu59"
    relu_param {
      negative_slope: 0
    }
  }
  layer {
    name: "block3_conv61"
    type: "Convolution"
    bottom: "block3_relu59"
    top: "block3_conv61"
    param {
      decay_mult: 1
    }
    param {
      decay_mult: 0
    }
    convolution_param {
      num_output: 1024
      pad: 0
      kernel_size: 1
      stride: 2
      weight_filler {
        type: "xavier"
      }
      bias_filler {
        value: 0
      }
    }
  }
  layer {
    name: "block4_conv62"
    type: "Convolution"
    bottom: "block3_conv61"
    top: "block4_conv62"
    param {
      decay_mult: 1
    }
    param {
      decay_mult: 0
    }
    convolution_param {
      num_output: 256
      pad: 0
      kernel_size: 1
      stride: 1
      weight_filler {
        type: "xavier"
      }
      bias_filler {
        value: 0
      }
    }
  }
  layer {
    name: "block4_conv62_BN"
    type: "BatchNorm"
    bottom: "block4_conv62"
    top: "block4_conv62_BN"
    param {
      lr_mult: 0
      decay_mult: 0
    }
    param {
      lr_mult: 0
      decay_mult: 0
    }
    param {
      lr_mult: 0
      decay_mult: 0
    }
    batch_norm_param {
      use_global_stats: false
      moving_average_fraction: 0.95
    }
  }
  layer {
    name: "block4_relu63"
    type: "ReLU"
    bottom: "block4_conv62_BN"
    top: "block4_conv62_BN"
    relu_param {
      negative_slope: 0
    }
  }
  layer {
    name: "block4_conv64"
    type: "Convolution"
    bottom: "block4_conv62_BN"
    top: "block4_conv64"
    param {
      decay_mult: 1
    }
    param {
      decay_mult: 0
    }
    convolution_param {
      num_output: 256
      pad: 1
      kernel_size: 3
      stride: 1
      weight_filler {
        type: "xavier"
      }
      bias_filler {
        value: 0
      }
    }
  }
  layer {
    name: "block4_conv64_BN"
    type: "BatchNorm"
    bottom: "block4_conv64"
    top: "block4_conv64_BN"
    param {
      lr_mult: 0
      decay_mult: 0
    }
    param {
      lr_mult: 0
      decay_mult: 0
    }
    param {
      lr_mult: 0
      decay_mult: 0
    }
    batch_norm_param {
      use_global_stats: false
      moving_average_fraction: 0.95
    }
  }
  layer {
    name: "block4_relu65"
    type: "ReLU"
    bottom: "block4_conv64_BN"
    top: "block4_conv64_BN"
    relu_param {
      negative_slope: 0
    }
  }
  layer {
    name: "block4_conv66"
    type: "Convolution"
    bottom: "block4_conv64_BN"
    top: "block4_conv66"
    param {
      decay_mult: 1
    }
    param {
      decay_mult: 0
    }
    convolution_param {
      num_output: 1024
      pad: 0
      kernel_size: 1
      stride: 1
      weight_filler {
        type: "xavier"
      }
      bias_filler {
        value: 0
      }
    }
  }
  layer {
    name: "block4_conv66_BN"
    type: "BatchNorm"
    bottom: "block4_conv66"
    top: "block4_conv66_BN"
    param {
      lr_mult: 0
      decay_mult: 0
    }
    param {
      lr_mult: 0
      decay_mult: 0
    }
    param {
      lr_mult: 0
      decay_mult: 0
    }
    batch_norm_param {
      use_global_stats: false
      moving_average_fraction: 0.95
    }
  }
  layer {
    name: "block4_conv66_BN_eltwise"
    type: "Eltwise"
    bottom: "block4_conv66_BN"
    bottom: "block3_conv61"
    top: "block4_conv66_BN_eltwise"
    eltwise_param {
      operation: SUM
    }
  }
  layer {
    name: "block4_relu68"
    type: "ReLU"
    bottom: "block4_conv66_BN_eltwise"
    top: "block4_relu68"
    relu_param {
      negative_slope: 0
    }
  }
  layer {
    name: "block4_conv70"
    type: "Convolution"
    bottom: "block4_relu68"
    top: "block4_conv70"
    param {
      decay_mult: 1
    }
    param {
      decay_mult: 0
    }
    convolution_param {
      num_output: 256
      pad: 0
      kernel_size: 1
      stride: 1
      weight_filler {
        type: "xavier"
      }
      bias_filler {
        value: 0
      }
    }
  }
  layer {
    name: "block4_conv70_BN"
    type: "BatchNorm"
    bottom: "block4_conv70"
    top: "block4_conv70_BN"
    param {
      lr_mult: 0
      decay_mult: 0
    }
    param {
      lr_mult: 0
      decay_mult: 0
    }
    param {
      lr_mult: 0
      decay_mult: 0
    }
    batch_norm_param {
      use_global_stats: false
      moving_average_fraction: 0.95
    }
  }
  layer {
    name: "block4_relu71"
    type: "ReLU"
    bottom: "block4_conv70_BN"
    top: "block4_conv70_BN"
    relu_param {
      negative_slope: 0
    }
  }
  layer {
    name: "block4_conv72"
    type: "Convolution"
    bottom: "block4_conv70_BN"
    top: "block4_conv72"
    param {
      decay_mult: 1
    }
    param {
      decay_mult: 0
    }
    convolution_param {
      num_output: 256
      pad: 1
      kernel_size: 3
      stride: 1
      weight_filler {
        type: "xavier"
      }
      bias_filler {
        value: 0
      }
    }
  }
  layer {
    name: "block4_conv72_BN"
    type: "BatchNorm"
    bottom: "block4_conv72"
    top: "block4_conv72_BN"
    param {
      lr_mult: 0
      decay_mult: 0
    }
    param {
      lr_mult: 0
      decay_mult: 0
    }
    param {
      lr_mult: 0
      decay_mu
I0218 17:25:28.372267  7189 solver.cpp:86] Creating training net specified in net_param.
I0218 17:25:28.373838  7189 net.cpp:322] The NetState phase (0) differed from the phase (1) specified by a rule in layer data
I0218 17:25:28.377419  7189 net.cpp:49] Initializing net from parameters: 
name: "ResNet56"
state {
  phase: TRAIN
}
layer {
  name: "data"
  type: "Data"
  top: "data"
  top: "label"
  include {
    phase: TRAIN
  }
  transform_param {
    scale: 0.04
    mirror: true
    crop_size: 128
    mean_value: 104
    mean_value: 117
    mean_value: 124
    force_color: true
    resize_param {
      prob: 1
      resize_mode: FIT_SMALL_SIZE
      height: 144
      width: 144
      pad_mode: MIRRORED
      pad_value: 104
      pad_value: 117
      pad_value: 124
      interp_mode: LINEAR
      center_object: false
      max_angle: 0
    }
  }
  data_param {
    source: "/home/old-ufo/datasets/imagenet/ilsvrc12_train_shuffle_lmdb"
    batch_size: 64
    backend: LMDB
  }
}
layer {
  name: "block1_conv1"
  type: "Convolution"
  bottom: "data"
  top: "block1_conv1"
  param {
    decay_mult: 1
  }
  param {
    decay_mult: 0
  }
  convolution_param {
    num_output: 64
    pad: 0
    kernel_size: 7
    stride: 2
    weight_filler {
      type: "xavier"
    }
    bias_filler {
      value: 0
    }
  }
}
layer {
  name: "block1_conv1_BN"
  type: "BatchNorm"
  bottom: "block1_conv1"
  top: "block1_conv1_BN"
  param {
    lr_mult: 0
    decay_mult: 0
  }
  param {
    lr_mult: 0
    decay_mult: 0
  }
  param {
    lr_mult: 0
    decay_mult: 0
  }
  batch_norm_param {
    use_global_stats: false
    moving_average_fraction: 0.95
  }
}
layer {
  name: "block1_relu2"
  type: "ReLU"
  bottom: "block1_conv1_BN"
  top: "block1_conv1_BN"
  relu_param {
    negative_slope: 0
  }
}
layer {
  name: "block1_conv1_BN_max"
  type: "Pooling"
  bottom: "block1_conv1_BN"
  top: "block1_conv1_BN_max"
  pooling_param {
    pool: MAX
    kernel_size: 3
    stride: 2
    pad: 1
  }
}
layer {
  name: "block1_conv28"
  type: "Convolution"
  bottom: "block1_conv1_BN_max"
  top: "block1_conv28"
  param {
    decay_mult: 1
  }
  param {
    decay_mult: 0
  }
  convolution_param {
    num_output: 256
    pad: 0
    kernel_size: 1
    stride: 1
    weight_filler {
      type: "xavier"
    }
    bias_filler {
      value: 0
    }
  }
}
layer {
  name: "block2_conv4"
  type: "Convolution"
  bottom: "block1_conv1_BN_max"
  top: "block2_conv4"
  param {
    decay_mult: 1
  }
  param {
    decay_mult: 0
  }
  convolution_param {
    num_output: 64
    pad: 0
    kernel_size: 1
    stride: 1
    weight_filler {
      type: "xavier"
    }
    bias_filler {
      value: 0
    }
  }
}
layer {
  name: "block2_conv4_BN"
  type: "BatchNorm"
  bottom: "block2_conv4"
  top: "block2_conv4_BN"
  param {
    lr_mult: 0
    decay_mult: 0
  }
  param {
    lr_mult: 0
    decay_mult: 0
  }
  param {
    lr_mult: 0
    decay_mult: 0
  }
  batch_norm_param {
    use_global_stats: false
    moving_average_fraction: 0.95
  }
}
layer {
  name: "block2_relu5"
  type: "ReLU"
  bottom: "block2_conv4_BN"
  top: "block2_conv4_BN"
  relu_param {
    negative_slope: 0
  }
}
layer {
  name: "block2_conv6"
  type: "Convolution"
  bottom: "block2_conv4_BN"
  top: "block2_conv6"
  param {
    decay_mult: 1
  }
  param {
    decay_mult: 0
  }
  convolution_param {
    num_output: 64
    pad: 1
    kernel_size: 3
    stride: 1
    weight_filler {
      type: "xavier"
    }
    bias_filler {
      value: 0
    }
  }
}
layer {
  name: "block2_conv6_BN"
  type: "BatchNorm"
  bottom: "block2_conv6"
  top: "block2_conv6_BN"
  param {
    lr_mult: 0
    decay_mult: 0
  }
  param {
    lr_mult: 0
    decay_mult: 0
  }
  param {
    lr_mult: 0
    decay_mult: 0
  }
  batch_norm_param {
    use_global_stats: false
    moving_average_fraction: 0.95
  }
}
layer {
  name: "block2_relu7"
  type: "ReLU"
  bottom: "block2_conv6_BN"
  top: "block2_conv6_BN"
  relu_param {
    negative_slope: 0
  }
}
layer {
  name: "block2_conv8"
  type: "Convolution"
  bottom: "block2_conv6_BN"
  top: "block2_conv8"
  param {
    decay_mult: 1
  }
  param {
    decay_mult: 0
  }
  convolution_param {
    num_output: 256
    pad: 0
    kernel_size: 1
    stride: 1
    weight_filler {
      type: "xavier"
    }
    bias_filler {
      value: 0
    }
  }
}
layer {
  name: "block2_conv8_BN"
  type: "BatchNorm"
  bottom: "block2_conv8"
  top: "block2_conv8_BN"
  param {
    lr_mult: 0
    decay_mult: 0
  }
  param {
    lr_mult: 0
    decay_mult: 0
  }
  param {
    lr_mult: 0
    decay_mult: 0
  }
  batch_norm_param {
    use_global_stats: false
    moving_average_fraction: 0.95
  }
}
layer {
  name: "block2_conv8_BN_eltwise"
  type: "Eltwise"
  bottom: "block2_conv8_BN"
  bottom: "block1_conv28"
  top: "block2_conv8_BN_eltwise"
  eltwise_param {
    operation: SUM
  }
}
layer {
  name: "block2_relu10"
  type: "ReLU"
  bottom: "block2_conv8_BN_eltwise"
  top: "block2_relu10"
  relu_param {
    negative_slope: 0
  }
}
layer {
  name: "block2_conv12"
  type: "Convolution"
  bottom: "block2_relu10"
  top: "block2_conv12"
  param {
    decay_mult: 1
  }
  param {
    decay_mult: 0
  }
  convolution_param {
    num_output: 64
    pad: 0
    kernel_size: 1
    stride: 1
    weight_filler {
      type: "xavier"
    }
    bias_filler {
      value: 0
    }
  }
}
layer {
  name: "block2_conv12_BN"
  type: "BatchNorm"
  bottom: "block2_conv12"
  top: "block2_conv12_BN"
  param {
    lr_mult: 0
    decay_mult: 0
  }
  param {
    lr_mult: 0
    decay_mult: 0
  }
  param {
    lr_mult: 0
    decay_mult: 0
  }
  batch_norm_param {
    use_global_stats: false
    moving_average_fraction: 0.95
  }
}
layer {
  name: "block2_relu13"
  type: "ReLU"
  bottom: "block2_conv12_BN"
  top: "block2_conv12_BN"
  relu_param {
    negative_slope: 0
  }
}
layer {
  name: "block2_conv14"
  type: "Convolution"
  bottom: "block2_conv12_BN"
  top: "block2_conv14"
  param {
    decay_mult: 1
  }
  param {
    decay_mult: 0
  }
  convolution_param {
    num_output: 64
    pad: 1
    kernel_size: 3
    stride: 1
    weight_filler {
      type: "xavier"
    }
    bias_filler {
      value: 0
    }
  }
}
layer {
  name: "block2_conv14_BN"
  type: "BatchNorm"
  bottom: "block2_conv14"
  top: "block2_conv14_BN"
  param {
    lr_mult: 0
    decay_mult: 0
  }
  param {
    lr_mult: 0
    decay_mult: 0
  }
  param {
    lr_mult: 0
    decay_mult: 0
  }
  batch_norm_param {
    use_global_stats: false
    moving_average_fraction: 0.95
  }
}
layer {
  name: "block2_relu15"
  type: "ReLU"
  bottom: "block2_conv14_BN"
  top: "block2_conv14_BN"
  relu_param {
    negative_slope: 0
  }
}
layer {
  name: "block2_conv16"
  type: "Convolution"
  bottom: "block2_conv14_BN"
  top: "block2_conv16"
  param {
    decay_mult: 1
  }
  param {
    decay_mult: 0
  }
  convolution_param {
    num_output: 256
    pad: 0
    kernel_size: 1
    stride: 1
    weight_filler {
      type: "xavier"
    }
    bias_filler {
      value: 0
    }
  }
}
layer {
  name: "block2_conv16_BN"
  type: "BatchNorm"
  bottom: "block2_conv16"
  top: "block2_conv16_BN"
  param {
    lr_mult: 0
    decay_mult: 0
  }
  param {
    lr_mult: 0
    decay_mult: 0
  }
  param {
    lr_mult: 0
    decay_mult: 0
  }
  batch_norm_param {
    use_global_stats: false
    moving_average_fraction: 0.95
  }
}
layer {
  name: "block2_conv16_BN_eltwise"
  type: "Eltwise"
  bottom: "block2_conv16_BN"
  bottom: "block2_relu10"
  top: "block2_conv16_BN_eltwise"
  eltwise_param {
    operation: SUM
  }
}
layer {
  name: "block2_relu18"
  type: "ReLU"
  bottom: "block2_conv16_BN_eltwise"
  top: "block2_relu18"
  relu_param {
    negative_slope: 0
  }
}
layer {
  name: "block2_conv20"
  type: "Convolution"
  bottom: "block2_relu18"
  top: "block2_conv20"
  param {
    decay_mult: 1
  }
  param {
    decay_mult: 0
  }
  convolution_param {
    num_output: 64
    pad: 0
    kernel_size: 1
    stride: 1
    weight_filler {
      type: "xavier"
    }
    bias_filler {
      value: 0
    }
  }
}
layer {
  name: "block2_conv20_BN"
  type: "BatchNorm"
  bottom: "block2_conv20"
  top: "block2_conv20_BN"
  param {
    lr_mult: 0
    decay_mult: 0
  }
  param {
    lr_mult: 0
    decay_mult: 0
  }
  param {
    lr_mult: 0
    decay_mult: 0
  }
  batch_norm_param {
    use_global_stats: false
    moving_average_fraction: 0.95
  }
}
layer {
  name: "block2_relu21"
  type: "ReLU"
  bottom: "block2_conv20_BN"
  top: "block2_conv20_BN"
  relu_param {
    negative_slope: 0
  }
}
layer {
  name: "block2_conv22"
  type: "Convolution"
  bottom: "block2_conv20_BN"
  top: "block2_conv22"
  param {
    decay_mult: 1
  }
  param {
    decay_mult: 0
  }
  convolution_param {
    num_output: 64
    pad: 1
    kernel_size: 3
    stride: 1
    weight_filler {
      type: "xavier"
    }
    bias_filler {
      value: 0
    }
  }
}
layer {
  name: "block2_conv22_BN"
  type: "BatchNorm"
  bottom: "block2_conv22"
  top: "block2_conv22_BN"
  param {
    lr_mult: 0
    decay_mult: 0
  }
  param {
    lr_mult: 0
    decay_mult: 0
  }
  param {
    lr_mult: 0
    decay_mult: 0
  }
  batch_norm_param {
    use_global_stats: false
    moving_average_fraction: 0.95
  }
}
layer {
  name: "block2_relu23"
  type: "ReLU"
  bottom: "block2_conv22_BN"
  top: "block2_conv22_BN"
  relu_param {
    negative_slope: 0
  }
}
layer {
  name: "block2_conv24"
  type: "Convolution"
  bottom: "block2_conv22_BN"
  top: "block2_conv24"
  param {
    decay_mult: 1
  }
  param {
    decay_mult: 0
  }
  convolution_param {
    num_output: 256
    pad: 0
    kernel_size: 1
    stride: 1
    weight_filler {
      type: "xavier"
    }
    bias_filler {
      value: 0
    }
  }
}
layer {
  name: "block2_conv24_BN"
  type: "BatchNorm"
  bottom: "block2_conv24"
  top: "block2_conv24_BN"
  param {
    lr_mult: 0
    decay_mult: 0
  }
  param {
    lr_mult: 0
    decay_mult: 0
  }
  param {
    lr_mult: 0
    decay_mult: 0
  }
  batch_norm_param {
    use_global_stats: false
    moving_average_fraction: 0.95
  }
}
layer {
  name: "block2_conv24_BN_eltwise"
  type: "Eltwise"
  bottom: "block2_conv24_BN"
  bottom: "block2_relu18"
  top: "block2_conv24_BN_eltwise"
  eltwise_param {
    operation: SUM
  }
}
layer {
  name: "block2_relu26"
  type: "ReLU"
  bottom: "block2_conv24_BN_eltwise"
  top: "block2_relu26"
  relu_param {
    negative_slope: 0
  }
}
layer {
  name: "block2_conv28"
  type: "Convolution"
  bottom: "block2_relu26"
  top: "block2_conv28"
  param {
    decay_mult: 1
  }
  param {
    decay_mult: 0
  }
  convolution_param {
    num_output: 512
    pad: 0
    kernel_size: 1
    stride: 2
    weight_filler {
      type: "xavier"
    }
    bias_filler {
      value: 0
    }
  }
}
layer {
  name: "block3_conv29"
  type: "Convolution"
  bottom: "block2_conv28"
  top: "block3_conv29"
  param {
    decay_mult: 1
  }
  param {
    decay_mult: 0
  }
  convolution_param {
    num_output: 128
    pad: 0
    kernel_size: 1
    stride: 1
    weight_filler {
      type: "xavier"
    }
    bias_filler {
      value: 0
    }
  }
}
layer {
  name: "block3_conv29_BN"
  type: "BatchNorm"
  bottom: "block3_conv29"
  top: "block3_conv29_BN"
  param {
    lr_mult: 0
    decay_mult: 0
  }
  param {
    lr_mult: 0
    decay_mult: 0
  }
  param {
    lr_mult: 0
    decay_mult: 0
  }
  batch_norm_param {
    use_global_stats: false
    moving_average_fraction: 0.95
  }
}
layer {
  name: "block3_relu30"
  type: "ReLU"
  bottom: "block3_conv29_BN"
  top: "block3_conv29_BN"
  relu_param {
    negative_slope: 0
  }
}
layer {
  name: "block3_conv31"
  type: "Convolution"
  bottom: "block3_conv29_BN"
  top: "block3_conv31"
  param {
    decay_mult: 1
  }
  param {
    decay_mult: 0
  }
  convolution_param {
    num_output: 128
    pad: 1
    kernel_size: 3
    stride: 1
    weight_filler {
      type: "xavier"
    }
    bias_filler {
      value: 0
    }
  }
}
layer {
  name: "block3_conv31_BN"
  type: "BatchNorm"
  bottom: "block3_conv31"
  top: "block3_conv31_BN"
  param {
    lr_mult: 0
    decay_mult: 0
  }
  param {
    lr_mult: 0
    decay_mult: 0
  }
  param {
    lr_mult: 0
    decay_mult: 0
  }
  batch_norm_param {
    use_global_stats: false
    moving_average_fraction: 0.95
  }
}
layer {
  name: "block3_relu32"
  type: "ReLU"
  bottom: "block3_conv31_BN"
  top: "block3_conv31_BN"
  relu_param {
    negative_slope: 0
  }
}
layer {
  name: "block3_conv33"
  type: "Convolution"
  bottom: "block3_conv31_BN"
  top: "block3_conv33"
  param {
    decay_mult: 1
  }
  param {
    decay_mult: 0
  }
  convolution_param {
    num_output: 512
    pad: 0
    kernel_size: 1
    stride: 1
    weight_filler {
      type: "xavier"
    }
    bias_filler {
      value: 0
    }
  }
}
layer {
  name: "block3_conv33_BN"
  type: "BatchNorm"
  bottom: "block3_conv33"
  top: "block3_conv33_BN"
  param {
    lr_mult: 0
    decay_mult: 0
  }
  param {
    lr_mult: 0
    decay_mult: 0
  }
  param {
    lr_mult: 0
    decay_mult: 0
  }
  batch_norm_param {
    use_global_stats: false
    moving_average_fraction: 0.95
  }
}
layer {
  name: "block3_conv33_BN_eltwise"
  type: "Eltwise"
  bottom: "block3_conv33_BN"
  bottom: "block2_conv28"
  top: "block3_conv33_BN_eltwise"
  eltwise_param {
    operation: SUM
  }
}
layer {
  name: "block3_relu35"
  type: "ReLU"
  bottom: "block3_conv33_BN_eltwise"
  top: "block3_relu35"
  relu_param {
    negative_slope: 0
  }
}
layer {
  name: "block3_conv37"
  type: "Convolution"
  bottom: "block3_relu35"
  top: "block3_conv37"
  param {
    decay_mult: 1
  }
  param {
    decay_mult: 0
  }
  convolution_param {
    num_output: 128
    pad: 0
    kernel_size: 1
    stride: 1
    weight_filler {
      type: "xavier"
    }
    bias_filler {
      value: 0
    }
  }
}
layer {
  name: "block3_conv37_BN"
  type: "BatchNorm"
  bottom: "block3_conv37"
  top: "block3_conv37_BN"
  param {
    lr_mult: 0
    decay_mult: 0
  }
  param {
    lr_mult: 0
    decay_mult: 0
  }
  param {
    lr_mult: 0
    decay_mult: 0
  }
  batch_norm_param {
    use_global_stats: false
    moving_average_fraction: 0.95
  }
}
layer {
  name: "block3_relu38"
  type: "ReLU"
  bottom: "block3_conv37_BN"
  top: "block3_conv37_BN"
  relu_param {
    negative_slope: 0
  }
}
layer {
  name: "block3_conv39"
  type: "Convolution"
  bottom: "block3_conv37_BN"
  top: "block3_conv39"
  param {
    decay_mult: 1
  }
  param {
    decay_mult: 0
  }
  convolution_param {
    num_output: 128
    pad: 1
    kernel_size: 3
    stride: 1
    weight_filler {
      type: "xavier"
    }
    bias_filler {
      value: 0
    }
  }
}
layer {
  name: "block3_conv39_BN"
  type: "BatchNorm"
  bottom: "block3_conv39"
  top: "block3_conv39_BN"
  param {
    lr_mult: 0
    decay_mult: 0
  }
  param {
    lr_mult: 0
    decay_mult: 0
  }
  param {
    lr_mult: 0
    decay_mult: 0
  }
  batch_norm_param {
    use_global_stats: false
    moving_average_fraction: 0.95
  }
}
layer {
  name: "block3_relu40"
  type: "ReLU"
  bottom: "block3_conv39_BN"
  top: "block3_conv39_BN"
  relu_param {
    negative_slope: 0
  }
}
layer {
  name: "block3_conv41"
  type: "Convolution"
  bottom: "block3_conv39_BN"
  top: "block3_conv41"
  param {
    decay_mult: 1
  }
  param {
    decay_mult: 0
  }
  convolution_param {
    num_output: 512
    pad: 0
    kernel_size: 1
    stride: 1
    weight_filler {
      type: "xavier"
    }
    bias_filler {
      value: 0
    }
  }
}
layer {
  name: "block3_conv41_BN"
  type: "BatchNorm"
  bottom: "block3_conv41"
  top: "block3_conv41_BN"
  param {
    lr_mult: 0
    decay_mult: 0
  }
  param {
    lr_mult: 0
    decay_mult: 0
  }
  param {
    lr_mult: 0
    decay_mult: 0
  }
  batch_norm_param {
    use_global_stats: false
    moving_average_fraction: 0.95
  }
}
layer {
  name: "block3_conv41_BN_eltwise"
  type: "Eltwise"
  bottom: "block3_conv41_BN"
  bottom: "block3_relu35"
  top: "block3_conv41_BN_eltwise"
  eltwise_param {
    operation: SUM
  }
}
layer {
  name: "block3_relu43"
  type: "ReLU"
  bottom: "block3_conv41_BN_eltwise"
  top: "block3_relu43"
  relu_param {
    negative_slope: 0
  }
}
layer {
  name: "block3_conv45"
  type: "Convolution"
  bottom: "block3_relu43"
  top: "block3_conv45"
  param {
    decay_mult: 1
  }
  param {
    decay_mult: 0
  }
  convolution_param {
    num_output: 128
    pad: 0
    kernel_size: 1
    stride: 1
    weight_filler {
      type: "xavier"
    }
    bias_filler {
      value: 0
    }
  }
}
layer {
  name: "block3_conv45_BN"
  type: "BatchNorm"
  bottom: "block3_conv45"
  top: "block3_conv45_BN"
  param {
    lr_mult: 0
    decay_mult: 0
  }
  param {
    lr_mult: 0
    decay_mult: 0
  }
  param {
    lr_mult: 0
    decay_mult: 0
  }
  batch_norm_param {
    use_global_stats: false
    moving_average_fraction: 0.95
  }
}
layer {
  name: "block3_relu46"
  type: "ReLU"
  bottom: "block3_conv45_BN"
  top: "block3_conv45_BN"
  relu_param {
    negative_slope: 0
  }
}
layer {
  name: "block3_conv47"
  type: "Convolution"
  bottom: "block3_conv45_BN"
  top: "block3_conv47"
  param {
    decay_mult: 1
  }
  param {
    decay_mult: 0
  }
  convolution_param {
    num_output: 128
    pad: 1
    kernel_size: 3
    stride: 1
    weight_filler {
      type: "xavier"
    }
    bias_filler {
      value: 0
    }
  }
}
layer {
  name: "block3_conv47_BN"
  type: "BatchNorm"
  bottom: "block3_conv47"
  top: "block3_conv47_BN"
  param {
    lr_mult: 0
    decay_mult: 0
  }
  param {
    lr_mult: 0
    decay_mult: 0
  }
  param {
    lr_mult: 0
    decay_mult: 0
  }
  batch_norm_param {
    use_global_stats: false
    moving_average_fraction: 0.95
  }
}
layer {
  name: "block3_relu48"
  type: "ReLU"
  bottom: "block3_conv47_BN"
  top: "block3_conv47_BN"
  relu_param {
    negative_slope: 0
  }
}
layer {
  name: "block3_conv49"
  type: "Convolution"
  bottom: "block3_conv47_BN"
  top: "block3_conv49"
  param {
    decay_mult: 1
  }
  param {
    decay_mult: 0
  }
  convolution_param {
    num_output: 512
    pad: 0
    kernel_size: 1
    stride: 1
    weight_filler {
      type: "xavier"
    }
    bias_filler {
      value: 0
    }
  }
}
layer {
  name: "block3_conv49_BN"
  type: "BatchNorm"
  bottom: "block3_conv49"
  top: "block3_conv49_BN"
  param {
    lr_mult: 0
    decay_mult: 0
  }
  param {
    lr_mult: 0
    decay_mult: 0
  }
  param {
    lr_mult: 0
    decay_mult: 0
  }
  batch_norm_param {
    use_global_stats: false
    moving_average_fraction: 0.95
  }
}
layer {
  name: "block3_conv49_BN_eltwise"
  type: "Eltwise"
  bottom: "block3_conv49_BN"
  bottom: "block3_relu43"
  top: "block3_conv49_BN_eltwise"
  eltwise_param {
    operation: SUM
  }
}
layer {
  name: "block3_relu51"
  type: "ReLU"
  bottom: "block3_conv49_BN_eltwise"
  top: "block3_relu51"
  relu_param {
    negative_slope: 0
  }
}
layer {
  name: "block3_conv53"
  type: "Convolution"
  bottom: "block3_relu51"
  top: "block3_conv53"
  param {
    decay_mult: 1
  }
  param {
    decay_mult: 0
  }
  convolution_param {
    num_output: 128
    pad: 0
    kernel_size: 1
    stride: 1
    weight_filler {
      type: "xavier"
    }
    bias_filler {
      value: 0
    }
  }
}
layer {
  name: "block3_conv53_BN"
  type: "BatchNorm"
  bottom: "block3_conv53"
  top: "block3_conv53_BN"
  param {
    lr_mult: 0
    decay_mult: 0
  }
  param {
    lr_mult: 0
    decay_mult: 0
  }
  param {
    lr_mult: 0
    decay_mult: 0
  }
  batch_norm_param {
    use_global_stats: false
    moving_average_fraction: 0.95
  }
}
layer {
  name: "block3_relu54"
  type: "ReLU"
  bottom: "block3_conv53_BN"
  top: "block3_conv53_BN"
  relu_param {
    negative_slope: 0
  }
}
layer {
  name: "block3_conv55"
  type: "Convolution"
  bottom: "block3_conv53_BN"
  top: "block3_conv55"
  param {
    decay_mult: 1
  }
  param {
    decay_mult: 0
  }
  convolution_param {
    num_output: 128
    pad: 1
    kernel_size: 3
    stride: 1
    weight_filler {
      type: "xavier"
    }
    bias_filler {
      value: 0
    }
  }
}
layer {
  name: "block3_conv55_BN"
  type: "BatchNorm"
  bottom: "block3_conv55"
  top: "block3_conv55_BN"
  param {
    lr_mult: 0
    decay_mult: 0
  }
  param {
    lr_mult: 0
    decay_mult: 0
  }
  param {
    lr_mult: 0
    decay_mult: 0
  }
  batch_norm_param {
    use_global_stats: false
    moving_average_fraction: 0.95
  }
}
layer {
  name: "block3_relu56"
  type: "ReLU"
  bottom: "block3_conv55_BN"
  top: "block3_conv55_BN"
  relu_param {
    negative_slope: 0
  }
}
layer {
  name: "block3_conv57"
  type: "Convolution"
  bottom: "block3_conv55_BN"
  top: "block3_conv57"
  param {
    decay_mult: 1
  }
  param {
    decay_mult: 0
  }
  convolution_param {
    num_output: 512
    pad: 0
    kernel_size: 1
    stride: 1
    weight_filler {
      type: "xavier"
    }
    bias_filler {
      value: 0
    }
  }
}
layer {
  name: "block3_conv57_BN"
  type: "BatchNorm"
  bottom: "block3_conv57"
  top: "block3_conv57_BN"
  param {
    lr_mult: 0
    decay_mult: 0
  }
  param {
    lr_mult: 0
    decay_mult: 0
  }
  param {
    lr_mult: 0
    decay_mult: 0
  }
  batch_norm_param {
    use_global_stats: false
    moving_average_fraction: 0.95
  }
}
layer {
  name: "block3_conv57_BN_eltwise"
  type: "Eltwise"
  bottom: "block3_conv57_BN"
  bottom: "block3_relu51"
  top: "block3_conv57_BN_eltwise"
  eltwise_param {
    operation: SUM
  }
}
layer {
  name: "block3_relu59"
  type: "ReLU"
  bottom: "block3_conv57_BN_eltwise"
  top: "block3_relu59"
  relu_param {
    negative_slope: 0
  }
}
layer {
  name: "block3_conv61"
  type: "Convolution"
  bottom: "block3_relu59"
  top: "block3_conv61"
  param {
    decay_mult: 1
  }
  param {
    decay_mult: 0
  }
  convolution_param {
    num_output: 1024
    pad: 0
    kernel_size: 1
    stride: 2
    weight_filler {
      type: "xavier"
    }
    bias_filler {
      value: 0
    }
  }
}
layer {
  name: "block4_conv62"
  type: "Convolution"
  bottom: "block3_conv61"
  top: "block4_conv62"
  param {
    decay_mult: 1
  }
  param {
    decay_mult: 0
  }
  convolution_param {
    num_output: 256
    pad: 0
    kernel_size: 1
    stride: 1
    weight_filler {
      type: "xavier"
    }
    bias_filler {
      value: 0
    }
  }
}
layer {
  name: "block4_conv62_BN"
  type: "BatchNorm"
  bottom: "block4_conv62"
  top: "block4_conv62_BN"
  param {
    lr_mult: 0
    decay_mult: 0
  }
  param {
    lr_mult: 0
    decay_mult: 0
  }
  param {
    lr_mult: 0
    decay_mult: 0
  }
  batch_norm_param {
    use_global_stats: false
    moving_average_fraction: 0.95
  }
}
layer {
  name: "block4_relu63"
  type: "ReLU"
  bottom: "block4_conv62_BN"
  top: "block4_conv62_BN"
  relu_param {
    negative_slope: 0
  }
}
layer {
  name: "block4_conv64"
  type: "Convolution"
  bottom: "block4_conv62_BN"
  top: "block4_conv64"
  param {
    decay_mult: 1
  }
  param {
    decay_mult: 0
  }
  convolution_param {
    num_output: 256
    pad: 1
    kernel_size: 3
    stride: 1
    weight_filler {
      type: "xavier"
    }
    bias_filler {
      value: 0
    }
  }
}
layer {
  name: "block4_conv64_BN"
  type: "BatchNorm"
  bottom: "block4_conv64"
  top: "block4_conv64_BN"
  param {
    lr_mult: 0
    decay_mult: 0
  }
  param {
    lr_mult: 0
    decay_mult: 0
  }
  param {
    lr_mult: 0
    decay_mult: 0
  }
  batch_norm_param {
    use_global_stats: false
    moving_average_fraction: 0.95
  }
}
layer {
  name: "block4_relu65"
  type: "ReLU"
  bottom: "block4_conv64_BN"
  top: "block4_conv64_BN"
  relu_param {
    negative_slope: 0
  }
}
layer {
  name: "block4_conv66"
  type: "Convolution"
  bottom: "block4_conv64_BN"
  top: "block4_conv66"
  param {
    decay_mult: 1
  }
  param {
    decay_mult: 0
  }
  convolution_param {
    num_output: 1024
    pad: 0
    kernel_size: 1
    stride: 1
    weight_filler {
      type: "xavier"
    }
    bias_filler {
      value: 0
    }
  }
}
layer {
  name: "block4_conv66_BN"
  type: "BatchNorm"
  bottom: "block4_conv66"
  top: "block4_conv66_BN"
  param {
    lr_mult: 0
    decay_mult: 0
  }
  param {
    lr_mult: 0
    decay_mult: 0
  }
  param {
    lr_mult: 0
    decay_mult: 0
  }
  batch_norm_param {
    use_global_stats: false
    moving_average_fraction: 0.95
  }
}
layer {
  name: "block4_conv66_BN_eltwise"
  type: "Eltwise"
  bottom: "block4_conv66_BN"
  bottom: "block3_conv61"
  top: "block4_conv66_BN_eltwise"
  eltwise_param {
    operation: SUM
  }
}
layer {
  name: "block4_relu68"
  type: "ReLU"
  bottom: "block4_conv66_BN_eltwise"
  top: "block4_relu68"
  relu_param {
    negative_slope: 0
  }
}
layer {
  name: "block4_conv70"
  type: "Convolution"
  bottom: "block4_relu68"
  top: "block4_conv70"
  param {
    decay_mult: 1
  }
  param {
    decay_mult: 0
  }
  convolution_param {
    num_output: 256
    pad: 0
    kernel_size: 1
    stride: 1
    weight_filler {
      type: "xavier"
    }
    bias_filler {
      value: 0
    }
  }
}
layer {
  name: "block4_conv70_BN"
  type: "BatchNorm"
  bottom: "block4_conv70"
  top: "block4_conv70_BN"
  param {
    lr_mult: 0
    decay_mult: 0
  }
  param {
    lr_mult: 0
    decay_mult: 0
  }
  param {
    lr_mult: 0
    decay_mult: 0
  }
  batch_norm_param {
    use_global_stats: false
    moving_average_fraction: 0.95
  }
}
layer {
  name: "block4_relu71"
  type: "ReLU"
  bottom: "block4_conv70_BN"
  top: "block4_conv70_BN"
  relu_param {
    negative_slope: 0
  }
}
layer {
  name: "block4_conv72"
  type: "Convolution"
  bottom: "block4_conv70_BN"
  top: "block4_conv72"
  param {
    decay_mult: 1
  }
  param {
    decay_mult: 0
  }
  convolution_param {
    num_output: 256
    pad: 1
    kernel_size: 3
    stride: 1
    weight_filler {
      type: "xavier"
    }
    bias_filler {
      value: 0
    }
  }
}
layer {
  name: "block4_conv72_BN"
  type: "BatchNorm"
  bottom: "block4_conv72"
  top: "block4_conv72_BN"
  param {
    lr_mult: 0
    decay_mult: 0
  }
  param {
    lr_mult: 0
    decay_mult: 0
  }
  param {
    lr_mult: 0
    decay_mult: 0
  }
  batch_norm_param {
    use_global_stats: false
    moving_average_fraction: 0.95
  }
}
layer {
  name: "block4_relu73"
  type: "ReLU"
  bottom: "block4_conv72_BN"
  top: "block4_conv72_BN"
  relu_param {
    negative_slope: 0
  }
}
layer {
  name: "block4_conv74"
  type: "Convolution"
  bottom: "block4_conv72_BN"
  top: "block4_conv74"
  param {
    decay_mult: 1
  }
  param {
    decay_mult: 0
  }
  convolution_param {
    num_output: 1024
    pad: 0
    kernel_size: 1
    stride: 1
    weight_filler {
      type: "xavier"
    }
    bias_filler {
      value: 0
    }
  }
}
layer {
  name: "block4_conv74_BN"
  type: "BatchNorm"
  bottom: "block4_conv74"
  top: "block4_conv74_BN"
  param {
    lr_mult: 0
    decay_mult: 0
  }
  param {
    lr_mult: 0
    decay_mult: 0
  }
  param {
    lr_mult: 0
    decay_mult: 0
  }
  batch_norm_param {
    use_global_stats: false
    moving_average_fraction: 0.95
  }
}
layer {
  name: "block4_conv74_BN_eltwise"
  type: "Eltwise"
  bottom: "block4_conv74_BN"
  bottom: "block4_relu68"
  top: "block4_conv74_BN_eltwise"
  eltwise_param {
    operation: SUM
  }
}
layer {
  name: "block4_relu76"
  type: "ReLU"
  bottom: "block4_conv74_BN_eltwise"
  top: "block4_relu76"
  relu_param {
    negative_slope: 0
  }
}
layer {
  name: "block4_conv78"
  type: "Convolution"
  bottom: "block4_relu76"
  top: "block4_conv78"
  param {
    decay_mult: 1
  }
  param {
    decay_mult: 0
  }
  convolution_param {
    num_output: 256
    pad: 0
    kernel_size: 1
    stride: 1
    weight_filler {
      type: "xavier"
    }
    bias_filler {
      value: 0
    }
  }
}
layer {
  name: "block4_conv78_BN"
  type: "BatchNorm"
  bottom: "block4_conv78"
  top: "block4_conv78_BN"
  param {
    lr_mult: 0
    decay_mult: 0
  }
  param {
    lr_mult: 0
    decay_mult: 0
  }
  param {
    lr_mult: 0
    decay_mult: 0
  }
  batch_norm_param {
    use_global_stats: false
    moving_average_fraction: 0.95
  }
}
layer {
  name: "block4_relu79"
  type: "ReLU"
  bottom: "block4_conv78_BN"
  top: "block4_conv78_BN"
  relu_param {
    negative_slope: 0
  }
}
layer {
  name: "block4_conv80"
  type: "Convolution"
  bottom: "block4_conv78_BN"
  top: "block4_conv80"
  param {
    decay_mult: 1
  }
  param {
    decay_mult: 0
  }
  convolution_param {
    num_output: 256
    pad: 1
    kernel_size: 3
    stride: 1
    weight_filler {
      type: "xavier"
    }
    bias_filler {
      value: 0
    }
  }
}
layer {
  name: "block4_conv80_BN"
  type: "BatchNorm"
  bottom: "block4_conv80"
  top: "block4_conv80_BN"
  param {
    lr_mult: 0
    decay_mult: 0
  }
  param {
    lr_mult: 0
    decay_mult: 0
  }
  param {
    lr_mult: 0
    decay_mult: 0
  }
  batch_norm_param {
    use_global_stats: false
    moving_average_fraction: 0.95
  }
}
layer {
  name: "block4_relu81"
  type: "ReLU"
  bottom: "block4_conv80_BN"
  top: "block4_conv80_BN"
  relu_param {
    negative_slope: 0
  }
}
layer {
  name: "block4_conv82"
  type: "Convolution"
  bottom: "block4_conv80_BN"
  top: "block4_conv82"
  param {
    decay_mult: 1
  }
  param {
    decay_mult: 0
  }
  convolution_param {
    num_output: 1024
    pad: 0
    kernel_size: 1
    stride: 1
    weight_filler {
      type: "xavier"
    }
    bias_filler {
      value: 0
    }
  }
}
layer {
  name: "block4_conv82_BN"
  type: "BatchNorm"
  bottom: "block4_conv82"
  top: "block4_conv82_BN"
  param {
    lr_mult: 0
    decay_mult: 0
  }
  param {
    lr_mult: 0
    decay_mult: 0
  }
  param {
    lr_mult: 0
    decay_mult: 0
  }
  batch_norm_param {
    use_global_stats: false
    moving_average_fraction: 0.95
  }
}
layer {
  name: "block4_conv82_BN_eltwise"
  type: "Eltwise"
  bottom: "block4_conv82_BN"
  bottom: "block4_relu76"
  top: "block4_conv82_BN_eltwise"
  eltwise_param {
    operation: SUM
  }
}
layer {
  name: "block4_relu84"
  type: "ReLU"
  bottom: "block4_conv82_BN_eltwise"
  top: "block4_relu84"
  relu_param {
    negative_slope: 0
  }
}
layer {
  name: "block4_conv86"
  type: "Convolution"
  bottom: "block4_relu84"
  top: "block4_conv86"
  param {
    decay_mult: 1
  }
  param {
    decay_mult: 0
  }
  convolution_param {
    num_output: 256
    pad: 0
    kernel_size: 1
    stride: 1
    weight_filler {
      type: "xavier"
    }
    bias_filler {
      value: 0
    }
  }
}
layer 
I0218 17:25:28.380302  7189 layer_factory.hpp:76] Creating layer data
I0218 17:25:28.382386  7189 net.cpp:106] Creating Layer data
I0218 17:25:28.382449  7189 net.cpp:411] data -> data
I0218 17:25:28.382576  7189 net.cpp:411] data -> label
I0218 17:25:28.385104  7194 db_lmdb.cpp:38] Opened lmdb /home/old-ufo/datasets/imagenet/ilsvrc12_train_shuffle_lmdb
I0218 17:25:28.417407  7189 data_layer.cpp:41] output data size: 64,3,128,128
I0218 17:25:28.439854  7189 net.cpp:150] Setting up data
I0218 17:25:28.439891  7189 net.cpp:157] Top shape: 64 3 128 128 (3145728)
I0218 17:25:28.439901  7189 net.cpp:157] Top shape: 64 (64)
I0218 17:25:28.439906  7189 net.cpp:165] Memory required for data: 12583168
I0218 17:25:28.439919  7189 layer_factory.hpp:76] Creating layer label_data_1_split
I0218 17:25:28.439934  7189 net.cpp:106] Creating Layer label_data_1_split
I0218 17:25:28.439942  7189 net.cpp:454] label_data_1_split <- label
I0218 17:25:28.439959  7189 net.cpp:411] label_data_1_split -> label_data_1_split_0
I0218 17:25:28.439971  7189 net.cpp:411] label_data_1_split -> label_data_1_split_1
I0218 17:25:28.440107  7189 net.cpp:150] Setting up label_data_1_split
I0218 17:25:28.440125  7189 net.cpp:157] Top shape: 64 (64)
I0218 17:25:28.440171  7189 net.cpp:157] Top shape: 64 (64)
I0218 17:25:28.440181  7189 net.cpp:165] Memory required for data: 12583680
I0218 17:25:28.440191  7189 layer_factory.hpp:76] Creating layer block1_conv1
I0218 17:25:28.440217  7189 net.cpp:106] Creating Layer block1_conv1
I0218 17:25:28.440232  7189 net.cpp:454] block1_conv1 <- data
I0218 17:25:28.440248  7189 net.cpp:411] block1_conv1 -> block1_conv1
I0218 17:25:28.550946  7189 net.cpp:150] Setting up block1_conv1
I0218 17:25:28.550976  7189 net.cpp:157] Top shape: 64 64 61 61 (15241216)
I0218 17:25:28.550981  7189 net.cpp:165] Memory required for data: 73548544
I0218 17:25:28.551002  7189 layer_factory.hpp:76] Creating layer block1_conv1_BN
I0218 17:25:28.551023  7189 net.cpp:106] Creating Layer block1_conv1_BN
I0218 17:25:28.551029  7189 net.cpp:454] block1_conv1_BN <- block1_conv1
I0218 17:25:28.551038  7189 net.cpp:411] block1_conv1_BN -> block1_conv1_BN
I0218 17:25:28.551231  7189 net.cpp:150] Setting up block1_conv1_BN
I0218 17:25:28.551240  7189 net.cpp:157] Top shape: 64 64 61 61 (15241216)
I0218 17:25:28.551244  7189 net.cpp:165] Memory required for data: 134513408
I0218 17:25:28.551259  7189 layer_factory.hpp:76] Creating layer block1_relu2
I0218 17:25:28.551270  7189 net.cpp:106] Creating Layer block1_relu2
I0218 17:25:28.551276  7189 net.cpp:454] block1_relu2 <- block1_conv1_BN
I0218 17:25:28.551282  7189 net.cpp:397] block1_relu2 -> block1_conv1_BN (in-place)
I0218 17:25:28.551877  7189 net.cpp:150] Setting up block1_relu2
I0218 17:25:28.551889  7189 net.cpp:157] Top shape: 64 64 61 61 (15241216)
I0218 17:25:28.551894  7189 net.cpp:165] Memory required for data: 195478272
I0218 17:25:28.551898  7189 layer_factory.hpp:76] Creating layer block1_conv1_BN_max
I0218 17:25:28.551906  7189 net.cpp:106] Creating Layer block1_conv1_BN_max
I0218 17:25:28.551910  7189 net.cpp:454] block1_conv1_BN_max <- block1_conv1_BN
I0218 17:25:28.551918  7189 net.cpp:411] block1_conv1_BN_max -> block1_conv1_BN_max
I0218 17:25:28.552481  7189 net.cpp:150] Setting up block1_conv1_BN_max
I0218 17:25:28.552492  7189 net.cpp:157] Top shape: 64 64 31 31 (3936256)
I0218 17:25:28.552496  7189 net.cpp:165] Memory required for data: 211223296
I0218 17:25:28.552501  7189 layer_factory.hpp:76] Creating layer block1_conv1_BN_max_block1_conv1_BN_max_0_split
I0218 17:25:28.552508  7189 net.cpp:106] Creating Layer block1_conv1_BN_max_block1_conv1_BN_max_0_split
I0218 17:25:28.552513  7189 net.cpp:454] block1_conv1_BN_max_block1_conv1_BN_max_0_split <- block1_conv1_BN_max
I0218 17:25:28.552520  7189 net.cpp:411] block1_conv1_BN_max_block1_conv1_BN_max_0_split -> block1_conv1_BN_max_block1_conv1_BN_max_0_split_0
I0218 17:25:28.552530  7189 net.cpp:411] block1_conv1_BN_max_block1_conv1_BN_max_0_split -> block1_conv1_BN_max_block1_conv1_BN_max_0_split_1
I0218 17:25:28.552570  7189 net.cpp:150] Setting up block1_conv1_BN_max_block1_conv1_BN_max_0_split
I0218 17:25:28.552579  7189 net.cpp:157] Top shape: 64 64 31 31 (3936256)
I0218 17:25:28.552585  7189 net.cpp:157] Top shape: 64 64 31 31 (3936256)
I0218 17:25:28.552588  7189 net.cpp:165] Memory required for data: 242713344
I0218 17:25:28.552592  7189 layer_factory.hpp:76] Creating layer block1_conv28
I0218 17:25:28.552604  7189 net.cpp:106] Creating Layer block1_conv28
I0218 17:25:28.552609  7189 net.cpp:454] block1_conv28 <- block1_conv1_BN_max_block1_conv1_BN_max_0_split_0
I0218 17:25:28.552618  7189 net.cpp:411] block1_conv28 -> block1_conv28
I0218 17:25:28.554869  7189 net.cpp:150] Setting up block1_conv28
I0218 17:25:28.554883  7189 net.cpp:157] Top shape: 64 256 31 31 (15745024)
I0218 17:25:28.554886  7189 net.cpp:165] Memory required for data: 305693440
I0218 17:25:28.554898  7189 layer_factory.hpp:76] Creating layer block2_conv4
I0218 17:25:28.554909  7189 net.cpp:106] Creating Layer block2_conv4
I0218 17:25:28.554913  7189 net.cpp:454] block2_conv4 <- block1_conv1_BN_max_block1_conv1_BN_max_0_split_1
I0218 17:25:28.554924  7189 net.cpp:411] block2_conv4 -> block2_conv4
I0218 17:25:28.556721  7189 net.cpp:150] Setting up block2_conv4
I0218 17:25:28.556746  7189 net.cpp:157] Top shape: 64 64 31 31 (3936256)
I0218 17:25:28.556751  7189 net.cpp:165] Memory required for data: 321438464
I0218 17:25:28.556761  7189 layer_factory.hpp:76] Creating layer block2_conv4_BN
I0218 17:25:28.556771  7189 net.cpp:106] Creating Layer block2_conv4_BN
I0218 17:25:28.556776  7189 net.cpp:454] block2_conv4_BN <- block2_conv4
I0218 17:25:28.556783  7189 net.cpp:411] block2_conv4_BN -> block2_conv4_BN
I0218 17:25:28.556970  7189 net.cpp:150] Setting up block2_conv4_BN
I0218 17:25:28.556980  7189 net.cpp:157] Top shape: 64 64 31 31 (3936256)
I0218 17:25:28.556984  7189 net.cpp:165] Memory required for data: 337183488
I0218 17:25:28.556994  7189 layer_factory.hpp:76] Creating layer block2_relu5
I0218 17:25:28.557003  7189 net.cpp:106] Creating Layer block2_relu5
I0218 17:25:28.557006  7189 net.cpp:454] block2_relu5 <- block2_conv4_BN
I0218 17:25:28.557013  7189 net.cpp:397] block2_relu5 -> block2_conv4_BN (in-place)
I0218 17:25:28.557559  7189 net.cpp:150] Setting up block2_relu5
I0218 17:25:28.557570  7189 net.cpp:157] Top shape: 64 64 31 31 (3936256)
I0218 17:25:28.557575  7189 net.cpp:165] Memory required for data: 352928512
I0218 17:25:28.557579  7189 layer_factory.hpp:76] Creating layer block2_conv6
I0218 17:25:28.557590  7189 net.cpp:106] Creating Layer block2_conv6
I0218 17:25:28.557595  7189 net.cpp:454] block2_conv6 <- block2_conv4_BN
I0218 17:25:28.557603  7189 net.cpp:411] block2_conv6 -> block2_conv6
I0218 17:25:28.559970  7189 net.cpp:150] Setting up block2_conv6
I0218 17:25:28.559984  7189 net.cpp:157] Top shape: 64 64 31 31 (3936256)
I0218 17:25:28.559988  7189 net.cpp:165] Memory required for data: 368673536
I0218 17:25:28.559996  7189 layer_factory.hpp:76] Creating layer block2_conv6_BN
I0218 17:25:28.560006  7189 net.cpp:106] Creating Layer block2_conv6_BN
I0218 17:25:28.560011  7189 net.cpp:454] block2_conv6_BN <- block2_conv6
I0218 17:25:28.560019  7189 net.cpp:411] block2_conv6_BN -> block2_conv6_BN
I0218 17:25:28.560216  7189 net.cpp:150] Setting up block2_conv6_BN
I0218 17:25:28.560226  7189 net.cpp:157] Top shape: 64 64 31 31 (3936256)
I0218 17:25:28.560230  7189 net.cpp:165] Memory required for data: 384418560
I0218 17:25:28.560243  7189 layer_factory.hpp:76] Creating layer block2_relu7
I0218 17:25:28.560253  7189 net.cpp:106] Creating Layer block2_relu7
I0218 17:25:28.560259  7189 net.cpp:454] block2_relu7 <- block2_conv6_BN
I0218 17:25:28.560267  7189 net.cpp:397] block2_relu7 -> block2_conv6_BN (in-place)
I0218 17:25:28.560843  7189 net.cpp:150] Setting up block2_relu7
I0218 17:25:28.560855  7189 net.cpp:157] Top shape: 64 64 31 31 (3936256)
I0218 17:25:28.560860  7189 net.cpp:165] Memory required for data: 400163584
I0218 17:25:28.560864  7189 layer_factory.hpp:76] Creating layer block2_conv8
I0218 17:25:28.560874  7189 net.cpp:106] Creating Layer block2_conv8
I0218 17:25:28.560878  7189 net.cpp:454] block2_conv8 <- block2_conv6_BN
I0218 17:25:28.560888  7189 net.cpp:411] block2_conv8 -> block2_conv8
I0218 17:25:28.562783  7189 net.cpp:150] Setting up block2_conv8
I0218 17:25:28.562794  7189 net.cpp:157] Top shape: 64 256 31 31 (15745024)
I0218 17:25:28.562798  7189 net.cpp:165] Memory required for data: 463143680
I0218 17:25:28.562808  7189 layer_factory.hpp:76] Creating layer block2_conv8_BN
I0218 17:25:28.562816  7189 net.cpp:106] Creating Layer block2_conv8_BN
I0218 17:25:28.562821  7189 net.cpp:454] block2_conv8_BN <- block2_conv8
I0218 17:25:28.562829  7189 net.cpp:411] block2_conv8_BN -> block2_conv8_BN
I0218 17:25:28.562999  7189 net.cpp:150] Setting up block2_conv8_BN
I0218 17:25:28.563007  7189 net.cpp:157] Top shape: 64 256 31 31 (15745024)
I0218 17:25:28.563011  7189 net.cpp:165] Memory required for data: 526123776
I0218 17:25:28.563020  7189 layer_factory.hpp:76] Creating layer block2_conv8_BN_eltwise
I0218 17:25:28.563037  7189 net.cpp:106] Creating Layer block2_conv8_BN_eltwise
I0218 17:25:28.563042  7189 net.cpp:454] block2_conv8_BN_eltwise <- block2_conv8_BN
I0218 17:25:28.563048  7189 net.cpp:454] block2_conv8_BN_eltwise <- block1_conv28
I0218 17:25:28.563077  7189 net.cpp:411] block2_conv8_BN_eltwise -> block2_conv8_BN_eltwise
I0218 17:25:28.563113  7189 net.cpp:150] Setting up block2_conv8_BN_eltwise
I0218 17:25:28.563123  7189 net.cpp:157] Top shape: 64 256 31 31 (15745024)
I0218 17:25:28.563127  7189 net.cpp:165] Memory required for data: 589103872
I0218 17:25:28.563132  7189 layer_factory.hpp:76] Creating layer block2_relu10
I0218 17:25:28.563140  7189 net.cpp:106] Creating Layer block2_relu10
I0218 17:25:28.563145  7189 net.cpp:454] block2_relu10 <- block2_conv8_BN_eltwise
I0218 17:25:28.563151  7189 net.cpp:411] block2_relu10 -> block2_relu10
I0218 17:25:28.563748  7189 net.cpp:150] Setting up block2_relu10
I0218 17:25:28.563760  7189 net.cpp:157] Top shape: 64 256 31 31 (15745024)
I0218 17:25:28.563765  7189 net.cpp:165] Memory required for data: 652083968
I0218 17:25:28.563768  7189 layer_factory.hpp:76] Creating layer block2_relu10_block2_relu10_0_split
I0218 17:25:28.563777  7189 net.cpp:106] Creating Layer block2_relu10_block2_relu10_0_split
I0218 17:25:28.563782  7189 net.cpp:454] block2_relu10_block2_relu10_0_split <- block2_relu10
I0218 17:25:28.563789  7189 net.cpp:411] block2_relu10_block2_relu10_0_split -> block2_relu10_block2_relu10_0_split_0
I0218 17:25:28.563797  7189 net.cpp:411] block2_relu10_block2_relu10_0_split -> block2_relu10_block2_relu10_0_split_1
I0218 17:25:28.563848  7189 net.cpp:150] Setting up block2_relu10_block2_relu10_0_split
I0218 17:25:28.563858  7189 net.cpp:157] Top shape: 64 256 31 31 (15745024)
I0218 17:25:28.563863  7189 net.cpp:157] Top shape: 64 256 31 31 (15745024)
I0218 17:25:28.563866  7189 net.cpp:165] Memory required for data: 778044160
I0218 17:25:28.563871  7189 layer_factory.hpp:76] Creating layer block2_conv12
I0218 17:25:28.563881  7189 net.cpp:106] Creating Layer block2_conv12
I0218 17:25:28.563886  7189 net.cpp:454] block2_conv12 <- block2_relu10_block2_relu10_0_split_0
I0218 17:25:28.563895  7189 net.cpp:411] block2_conv12 -> block2_conv12
I0218 17:25:28.565847  7189 net.cpp:150] Setting up block2_conv12
I0218 17:25:28.565860  7189 net.cpp:157] Top shape: 64 64 31 31 (3936256)
I0218 17:25:28.565863  7189 net.cpp:165] Memory required for data: 793789184
I0218 17:25:28.565871  7189 layer_factory.hpp:76] Creating layer block2_conv12_BN
I0218 17:25:28.565879  7189 net.cpp:106] Creating Layer block2_conv12_BN
I0218 17:25:28.565884  7189 net.cpp:454] block2_conv12_BN <- block2_conv12
I0218 17:25:28.565893  7189 net.cpp:411] block2_conv12_BN -> block2_conv12_BN
I0218 17:25:28.566088  7189 net.cpp:150] Setting up block2_conv12_BN
I0218 17:25:28.566100  7189 net.cpp:157] Top shape: 64 64 31 31 (3936256)
I0218 17:25:28.566104  7189 net.cpp:165] Memory required for data: 809534208
I0218 17:25:28.566112  7189 layer_factory.hpp:76] Creating layer block2_relu13
I0218 17:25:28.566118  7189 net.cpp:106] Creating Layer block2_relu13
I0218 17:25:28.566120  7189 net.cpp:454] block2_relu13 <- block2_conv12_BN
I0218 17:25:28.566123  7189 net.cpp:397] block2_relu13 -> block2_conv12_BN (in-place)
I0218 17:25:28.566673  7189 net.cpp:150] Setting up block2_relu13
I0218 17:25:28.566682  7189 net.cpp:157] Top shape: 64 64 31 31 (3936256)
I0218 17:25:28.566684  7189 net.cpp:165] Memory required for data: 825279232
I0218 17:25:28.566687  7189 layer_factory.hpp:76] Creating layer block2_conv14
I0218 17:25:28.566694  7189 net.cpp:106] Creating Layer block2_conv14
I0218 17:25:28.566697  7189 net.cpp:454] block2_conv14 <- block2_conv12_BN
I0218 17:25:28.566702  7189 net.cpp:411] block2_conv14 -> block2_conv14
I0218 17:25:28.568714  7189 net.cpp:150] Setting up block2_conv14
I0218 17:25:28.568725  7189 net.cpp:157] Top shape: 64 64 31 31 (3936256)
I0218 17:25:28.568728  7189 net.cpp:165] Memory required for data: 841024256
I0218 17:25:28.568733  7189 layer_factory.hpp:76] Creating layer block2_conv14_BN
I0218 17:25:28.568738  7189 net.cpp:106] Creating Layer block2_conv14_BN
I0218 17:25:28.568742  7189 net.cpp:454] block2_conv14_BN <- block2_conv14
I0218 17:25:28.568747  7189 net.cpp:411] block2_conv14_BN -> block2_conv14_BN
I0218 17:25:28.568933  7189 net.cpp:150] Setting up block2_conv14_BN
I0218 17:25:28.568941  7189 net.cpp:157] Top shape: 64 64 31 31 (3936256)
I0218 17:25:28.568943  7189 net.cpp:165] Memory required for data: 856769280
I0218 17:25:28.568949  7189 layer_factory.hpp:76] Creating layer block2_relu15
I0218 17:25:28.568960  7189 net.cpp:106] Creating Layer block2_relu15
I0218 17:25:28.568964  7189 net.cpp:454] block2_relu15 <- block2_conv14_BN
I0218 17:25:28.568966  7189 net.cpp:397] block2_relu15 -> block2_conv14_BN (in-place)
I0218 17:25:28.569617  7189 net.cpp:150] Setting up block2_relu15
I0218 17:25:28.569627  7189 net.cpp:157] Top shape: 64 64 31 31 (3936256)
I0218 17:25:28.569628  7189 net.cpp:165] Memory required for data: 872514304
I0218 17:25:28.569631  7189 layer_factory.hpp:76] Creating layer block2_conv16
I0218 17:25:28.569638  7189 net.cpp:106] Creating Layer block2_conv16
I0218 17:25:28.569641  7189 net.cpp:454] block2_conv16 <- block2_conv14_BN
I0218 17:25:28.569646  7189 net.cpp:411] block2_conv16 -> block2_conv16
I0218 17:25:28.571605  7189 net.cpp:150] Setting up block2_conv16
I0218 17:25:28.571619  7189 net.cpp:157] Top shape: 64 256 31 31 (15745024)
I0218 17:25:28.571621  7189 net.cpp:165] Memory required for data: 935494400
I0218 17:25:28.571630  7189 layer_factory.hpp:76] Creating layer block2_conv16_BN
I0218 17:25:28.571636  7189 net.cpp:106] Creating Layer block2_conv16_BN
I0218 17:25:28.571640  7189 net.cpp:454] block2_conv16_BN <- block2_conv16
I0218 17:25:28.571645  7189 net.cpp:411] block2_conv16_BN -> block2_conv16_BN
I0218 17:25:28.571825  7189 net.cpp:150] Setting up block2_conv16_BN
I0218 17:25:28.571831  7189 net.cpp:157] Top shape: 64 256 31 31 (15745024)
I0218 17:25:28.571835  7189 net.cpp:165] Memory required for data: 998474496
I0218 17:25:28.571848  7189 layer_factory.hpp:76] Creating layer block2_conv16_BN_eltwise
I0218 17:25:28.571856  7189 net.cpp:106] Creating Layer block2_conv16_BN_eltwise
I0218 17:25:28.571857  7189 net.cpp:454] block2_conv16_BN_eltwise <- block2_conv16_BN
I0218 17:25:28.571861  7189 net.cpp:454] block2_conv16_BN_eltwise <- block2_relu10_block2_relu10_0_split_1
I0218 17:25:28.571866  7189 net.cpp:411] block2_conv16_BN_eltwise -> block2_conv16_BN_eltwise
I0218 17:25:28.571884  7189 net.cpp:150] Setting up block2_conv16_BN_eltwise
I0218 17:25:28.571888  7189 net.cpp:157] Top shape: 64 256 31 31 (15745024)
I0218 17:25:28.571890  7189 net.cpp:165] Memory required for data: 1061454592
I0218 17:25:28.571894  7189 layer_factory.hpp:76] Creating layer block2_relu18
I0218 17:25:28.571900  7189 net.cpp:106] Creating Layer block2_relu18
I0218 17:25:28.571904  7189 net.cpp:454] block2_relu18 <- block2_conv16_BN_eltwise
I0218 17:25:28.571913  7189 net.cpp:411] block2_relu18 -> block2_relu18
I0218 17:25:28.572502  7189 net.cpp:150] Setting up block2_relu18
I0218 17:25:28.572512  7189 net.cpp:157] Top shape: 64 256 31 31 (15745024)
I0218 17:25:28.572515  7189 net.cpp:165] Memory required for data: 1124434688
I0218 17:25:28.572518  7189 layer_factory.hpp:76] Creating layer block2_relu18_block2_relu18_0_split
I0218 17:25:28.572523  7189 net.cpp:106] Creating Layer block2_relu18_block2_relu18_0_split
I0218 17:25:28.572525  7189 net.cpp:454] block2_relu18_block2_relu18_0_split <- block2_relu18
I0218 17:25:28.572530  7189 net.cpp:411] block2_relu18_block2_relu18_0_split -> block2_relu18_block2_relu18_0_split_0
I0218 17:25:28.572535  7189 net.cpp:411] block2_relu18_block2_relu18_0_split -> block2_relu18_block2_relu18_0_split_1
I0218 17:25:28.572564  7189 net.cpp:150] Setting up block2_relu18_block2_relu18_0_split
I0218 17:25:28.572572  7189 net.cpp:157] Top shape: 64 256 31 31 (15745024)
I0218 17:25:28.572577  7189 net.cpp:157] Top shape: 64 256 31 31 (15745024)
I0218 17:25:28.572582  7189 net.cpp:165] Memory required for data: 1250394880
I0218 17:25:28.572585  7189 layer_factory.hpp:76] Creating layer block2_conv20
I0218 17:25:28.572594  7189 net.cpp:106] Creating Layer block2_conv20
I0218 17:25:28.572598  7189 net.cpp:454] block2_conv20 <- block2_relu18_block2_relu18_0_split_0
I0218 17:25:28.572619  7189 net.cpp:411] block2_conv20 -> block2_conv20
I0218 17:25:28.574628  7189 net.cpp:150] Setting up block2_conv20
I0218 17:25:28.574638  7189 net.cpp:157] Top shape: 64 64 31 31 (3936256)
I0218 17:25:28.574641  7189 net.cpp:165] Memory required for data: 1266139904
I0218 17:25:28.574646  7189 layer_factory.hpp:76] Creating layer block2_conv20_BN
I0218 17:25:28.574653  7189 net.cpp:106] Creating Layer block2_conv20_BN
I0218 17:25:28.574656  7189 net.cpp:454] block2_conv20_BN <- block2_conv20
I0218 17:25:28.574661  7189 net.cpp:411] block2_conv20_BN -> block2_conv20_BN
I0218 17:25:28.574846  7189 net.cpp:150] Setting up block2_conv20_BN
I0218 17:25:28.574854  7189 net.cpp:157] Top shape: 64 64 31 31 (3936256)
I0218 17:25:28.574856  7189 net.cpp:165] Memory required for data: 1281884928
I0218 17:25:28.574862  7189 layer_factory.hpp:76] Creating layer block2_relu21
I0218 17:25:28.574869  7189 net.cpp:106] Creating Layer block2_relu21
I0218 17:25:28.574872  7189 net.cpp:454] block2_relu21 <- block2_conv20_BN
I0218 17:25:28.574877  7189 net.cpp:397] block2_relu21 -> block2_conv20_BN (in-place)
I0218 17:25:28.575453  7189 net.cpp:150] Setting up block2_relu21
I0218 17:25:28.575462  7189 net.cpp:157] Top shape: 64 64 31 31 (3936256)
I0218 17:25:28.575465  7189 net.cpp:165] Memory required for data: 1297629952
I0218 17:25:28.575469  7189 layer_factory.hpp:76] Creating layer block2_conv22
I0218 17:25:28.575476  7189 net.cpp:106] Creating Layer block2_conv22
I0218 17:25:28.575479  7189 net.cpp:454] block2_conv22 <- block2_conv20_BN
I0218 17:25:28.575484  7189 net.cpp:411] block2_conv22 -> block2_conv22
I0218 17:25:28.577528  7189 net.cpp:150] Setting up block2_conv22
I0218 17:25:28.577539  7189 net.cpp:157] Top shape: 64 64 31 31 (3936256)
I0218 17:25:28.577543  7189 net.cpp:165] Memory required for data: 1313374976
I0218 17:25:28.577548  7189 layer_factory.hpp:76] Creating layer block2_conv22_BN
I0218 17:25:28.577553  7189 net.cpp:106] Creating Layer block2_conv22_BN
I0218 17:25:28.577556  7189 net.cpp:454] block2_conv22_BN <- block2_conv22
I0218 17:25:28.577561  7189 net.cpp:411] block2_conv22_BN -> block2_conv22_BN
I0218 17:25:28.577755  7189 net.cpp:150] Setting up block2_conv22_BN
I0218 17:25:28.577762  7189 net.cpp:157] Top shape: 64 64 31 31 (3936256)
I0218 17:25:28.577765  7189 net.cpp:165] Memory required for data: 1329120000
I0218 17:25:28.577776  7189 layer_factory.hpp:76] Creating layer block2_relu23
I0218 17:25:28.577782  7189 net.cpp:106] Creating Layer block2_relu23
I0218 17:25:28.577785  7189 net.cpp:454] block2_relu23 <- block2_conv22_BN
I0218 17:25:28.577788  7189 net.cpp:397] block2_relu23 -> block2_conv22_BN (in-place)
I0218 17:25:28.578457  7189 net.cpp:150] Setting up block2_relu23
I0218 17:25:28.578466  7189 net.cpp:157] Top shape: 64 64 31 31 (3936256)
I0218 17:25:28.578469  7189 net.cpp:165] Memory required for data: 1344865024
I0218 17:25:28.578472  7189 layer_factory.hpp:76] Creating layer block2_conv24
I0218 17:25:28.578480  7189 net.cpp:106] Creating Layer block2_conv24
I0218 17:25:28.578482  7189 net.cpp:454] block2_conv24 <- block2_conv22_BN
I0218 17:25:28.578487  7189 net.cpp:411] block2_conv24 -> block2_conv24
I0218 17:25:28.580400  7189 net.cpp:150] Setting up block2_conv24
I0218 17:25:28.580410  7189 net.cpp:157] Top shape: 64 256 31 31 (15745024)
I0218 17:25:28.580412  7189 net.cpp:165] Memory required for data: 1407845120
I0218 17:25:28.580417  7189 layer_factory.hpp:76] Creating layer block2_conv24_BN
I0218 17:25:28.580423  7189 net.cpp:106] Creating Layer block2_conv24_BN
I0218 17:25:28.580427  7189 net.cpp:454] block2_conv24_BN <- block2_conv24
I0218 17:25:28.580431  7189 net.cpp:411] block2_conv24_BN -> block2_conv24_BN
I0218 17:25:28.580647  7189 net.cpp:150] Setting up block2_conv24_BN
I0218 17:25:28.580660  7189 net.cpp:157] Top shape: 64 256 31 31 (15745024)
I0218 17:25:28.580662  7189 net.cpp:165] Memory required for data: 1470825216
I0218 17:25:28.580669  7189 layer_factory.hpp:76] Creating layer block2_conv24_BN_eltwise
I0218 17:25:28.580675  7189 net.cpp:106] Creating Layer block2_conv24_BN_eltwise
I0218 17:25:28.580688  7189 net.cpp:454] block2_conv24_BN_eltwise <- block2_conv24_BN
I0218 17:25:28.580693  7189 net.cpp:454] block2_conv24_BN_eltwise <- block2_relu18_block2_relu18_0_split_1
I0218 17:25:28.580698  7189 net.cpp:411] block2_conv24_BN_eltwise -> block2_conv24_BN_eltwise
I0218 17:25:28.580726  7189 net.cpp:150] Setting up block2_conv24_BN_eltwise
I0218 17:25:28.580735  7189 net.cpp:157] Top shape: 64 256 31 31 (15745024)
I0218 17:25:28.580739  7189 net.cpp:165] Memory required for data: 1533805312
I0218 17:25:28.580742  7189 layer_factory.hpp:76] Creating layer block2_relu26
I0218 17:25:28.580750  7189 net.cpp:106] Creating Layer block2_relu26
I0218 17:25:28.580755  7189 net.cpp:454] block2_relu26 <- block2_conv24_BN_eltwise
I0218 17:25:28.580761  7189 net.cpp:411] block2_relu26 -> block2_relu26
I0218 17:25:28.581363  7189 net.cpp:150] Setting up block2_relu26
I0218 17:25:28.581373  7189 net.cpp:157] Top shape: 64 256 31 31 (15745024)
I0218 17:25:28.581375  7189 net.cpp:165] Memory required for data: 1596785408
I0218 17:25:28.581378  7189 layer_factory.hpp:76] Creating layer block2_conv28
I0218 17:25:28.581385  7189 net.cpp:106] Creating Layer block2_conv28
I0218 17:25:28.581388  7189 net.cpp:454] block2_conv28 <- block2_relu26
I0218 17:25:28.581393  7189 net.cpp:411] block2_conv28 -> block2_conv28
I0218 17:25:28.584389  7189 net.cpp:150] Setting up block2_conv28
I0218 17:25:28.584403  7189 net.cpp:157] Top shape: 64 512 16 16 (8388608)
I0218 17:25:28.584405  7189 net.cpp:165] Memory required for data: 1630339840
I0218 17:25:28.584411  7189 layer_factory.hpp:76] Creating layer block2_conv28_block2_conv28_0_split
I0218 17:25:28.584419  7189 net.cpp:106] Creating Layer block2_conv28_block2_conv28_0_split
I0218 17:25:28.584421  7189 net.cpp:454] block2_conv28_block2_conv28_0_split <- block2_conv28
I0218 17:25:28.584426  7189 net.cpp:411] block2_conv28_block2_conv28_0_split -> block2_conv28_block2_conv28_0_split_0
I0218 17:25:28.584432  7189 net.cpp:411] block2_conv28_block2_conv28_0_split -> block2_conv28_block2_conv28_0_split_1
I0218 17:25:28.584463  7189 net.cpp:150] Setting up block2_conv28_block2_conv28_0_split
I0218 17:25:28.584472  7189 net.cpp:157] Top shape: 64 512 16 16 (8388608)
I0218 17:25:28.584477  7189 net.cpp:157] Top shape: 64 512 16 16 (8388608)
I0218 17:25:28.584481  7189 net.cpp:165] Memory required for data: 1697448704
I0218 17:25:28.584484  7189 layer_factory.hpp:76] Creating layer block3_conv29
I0218 17:25:28.584494  7189 net.cpp:106] Creating Layer block3_conv29
I0218 17:25:28.584499  7189 net.cpp:454] block3_conv29 <- block2_conv28_block2_conv28_0_split_0
I0218 17:25:28.584507  7189 net.cpp:411] block3_conv29 -> block3_conv29
I0218 17:25:28.586808  7189 net.cpp:150] Setting up block3_conv29
I0218 17:25:28.586818  7189 net.cpp:157] Top shape: 64 128 16 16 (2097152)
I0218 17:25:28.586822  7189 net.cpp:165] Memory required for data: 1705837312
I0218 17:25:28.586827  7189 layer_factory.hpp:76] Creating layer block3_conv29_BN
I0218 17:25:28.586833  7189 net.cpp:106] Creating Layer block3_conv29_BN
I0218 17:25:28.586837  7189 net.cpp:454] block3_conv29_BN <- block3_conv29
I0218 17:25:28.586841  7189 net.cpp:411] block3_conv29_BN -> block3_conv29_BN
I0218 17:25:28.587031  7189 net.cpp:150] Setting up block3_conv29_BN
I0218 17:25:28.587039  7189 net.cpp:157] Top shape: 64 128 16 16 (2097152)
I0218 17:25:28.587047  7189 net.cpp:165] Memory required for data: 1714225920
I0218 17:25:28.587054  7189 layer_factory.hpp:76] Creating layer block3_relu30
I0218 17:25:28.587060  7189 net.cpp:106] Creating Layer block3_relu30
I0218 17:25:28.587064  7189 net.cpp:454] block3_relu30 <- block3_conv29_BN
I0218 17:25:28.587067  7189 net.cpp:397] block3_relu30 -> block3_conv29_BN (in-place)
I0218 17:25:28.587632  7189 net.cpp:150] Setting up block3_relu30
I0218 17:25:28.587642  7189 net.cpp:157] Top shape: 64 128 16 16 (2097152)
I0218 17:25:28.587644  7189 net.cpp:165] Memory required for data: 1722614528
I0218 17:25:28.587647  7189 layer_factory.hpp:76] Creating layer block3_conv31
I0218 17:25:28.587679  7189 net.cpp:106] Creating Layer block3_conv31
I0218 17:25:28.587687  7189 net.cpp:454] block3_conv31 <- block3_conv29_BN
I0218 17:25:28.587695  7189 net.cpp:411] block3_conv31 -> block3_conv31
I0218 17:25:28.590724  7189 net.cpp:150] Setting up block3_conv31
I0218 17:25:28.590739  7189 net.cpp:157] Top shape: 64 128 16 16 (2097152)
I0218 17:25:28.590742  7189 net.cpp:165] Memory required for data: 1731003136
I0218 17:25:28.590747  7189 layer_factory.hpp:76] Creating layer block3_conv31_BN
I0218 17:25:28.590754  7189 net.cpp:106] Creating Layer block3_conv31_BN
I0218 17:25:28.590757  7189 net.cpp:454] block3_conv31_BN <- block3_conv31
I0218 17:25:28.590762  7189 net.cpp:411] block3_conv31_BN -> block3_conv31_BN
I0218 17:25:28.590957  7189 net.cpp:150] Setting up block3_conv31_BN
I0218 17:25:28.590965  7189 net.cpp:157] Top shape: 64 128 16 16 (2097152)
I0218 17:25:28.590967  7189 net.cpp:165] Memory required for data: 1739391744
I0218 17:25:28.590978  7189 layer_factory.hpp:76] Creating layer block3_relu32
I0218 17:25:28.590984  7189 net.cpp:106] Creating Layer block3_relu32
I0218 17:25:28.590987  7189 net.cpp:454] block3_relu32 <- block3_conv31_BN
I0218 17:25:28.590991  7189 net.cpp:397] block3_relu32 -> block3_conv31_BN (in-place)
I0218 17:25:28.591562  7189 net.cpp:150] Setting up block3_relu32
I0218 17:25:28.591572  7189 net.cpp:157] Top shape: 64 128 16 16 (2097152)
I0218 17:25:28.591574  7189 net.cpp:165] Memory required for data: 1747780352
I0218 17:25:28.591577  7189 layer_factory.hpp:76] Creating layer block3_conv33
I0218 17:25:28.591584  7189 net.cpp:106] Creating Layer block3_conv33
I0218 17:25:28.591588  7189 net.cpp:454] block3_conv33 <- block3_conv31_BN
I0218 17:25:28.591593  7189 net.cpp:411] block3_conv33 -> block3_conv33
I0218 17:25:28.594008  7189 net.cpp:150] Setting up block3_conv33
I0218 17:25:28.594019  7189 net.cpp:157] Top shape: 64 512 16 16 (8388608)
I0218 17:25:28.594022  7189 net.cpp:165] Memory required for data: 1781334784
I0218 17:25:28.594033  7189 layer_factory.hpp:76] Creating layer block3_conv33_BN
I0218 17:25:28.594039  7189 net.cpp:106] Creating Layer block3_conv33_BN
I0218 17:25:28.594043  7189 net.cpp:454] block3_conv33_BN <- block3_conv33
I0218 17:25:28.594046  7189 net.cpp:411] block3_conv33_BN -> block3_conv33_BN
I0218 17:25:28.594274  7189 net.cpp:150] Setting up block3_conv33_BN
I0218 17:25:28.594282  7189 net.cpp:157] Top shape: 64 512 16 16 (8388608)
I0218 17:25:28.594285  7189 net.cpp:165] Memory required for data: 1814889216
I0218 17:25:28.594290  7189 layer_factory.hpp:76] Creating layer block3_conv33_BN_eltwise
I0218 17:25:28.594296  7189 net.cpp:106] Creating Layer block3_conv33_BN_eltwise
I0218 17:25:28.594300  7189 net.cpp:454] block3_conv33_BN_eltwise <- block3_conv33_BN
I0218 17:25:28.594303  7189 net.cpp:454] block3_conv33_BN_eltwise <- block2_conv28_block2_conv28_0_split_1
I0218 17:25:28.594307  7189 net.cpp:411] block3_conv33_BN_eltwise -> block3_conv33_BN_eltwise
I0218 17:25:28.594331  7189 net.cpp:150] Setting up block3_conv33_BN_eltwise
I0218 17:25:28.594334  7189 net.cpp:157] Top shape: 64 512 16 16 (8388608)
I0218 17:25:28.594336  7189 net.cpp:165] Memory required for data: 1848443648
I0218 17:25:28.594338  7189 layer_factory.hpp:76] Creating layer block3_relu35
I0218 17:25:28.594344  7189 net.cpp:106] Creating Layer block3_relu35
I0218 17:25:28.594347  7189 net.cpp:454] block3_relu35 <- block3_conv33_BN_eltwise
I0218 17:25:28.594354  7189 net.cpp:411] block3_relu35 -> block3_relu35
I0218 17:25:28.595032  7189 net.cpp:150] Setting up block3_relu35
I0218 17:25:28.595042  7189 net.cpp:157] Top shape: 64 512 16 16 (8388608)
I0218 17:25:28.595044  7189 net.cpp:165] Memory required for data: 1881998080
I0218 17:25:28.595047  7189 layer_factory.hpp:76] Creating layer block3_relu35_block3_relu35_0_split
I0218 17:25:28.595052  7189 net.cpp:106] Creating Layer block3_relu35_block3_relu35_0_split
I0218 17:25:28.595055  7189 net.cpp:454] block3_relu35_block3_relu35_0_split <- block3_relu35
I0218 17:25:28.595060  7189 net.cpp:411] block3_relu35_block3_relu35_0_split -> block3_relu35_block3_relu35_0_split_0
I0218 17:25:28.595090  7189 net.cpp:411] block3_relu35_block3_relu35_0_split -> block3_relu35_block3_relu35_0_split_1
I0218 17:25:28.595144  7189 net.cpp:150] Setting up block3_relu35_block3_relu35_0_split
I0218 17:25:28.595155  7189 net.cpp:157] Top shape: 64 512 16 16 (8388608)
I0218 17:25:28.595160  7189 net.cpp:157] Top shape: 64 512 16 16 (8388608)
I0218 17:25:28.595162  7189 net.cpp:165] Memory required for data: 1949106944
I0218 17:25:28.595165  7189 layer_factory.hpp:76] Creating layer block3_conv37
I0218 17:25:28.595170  7189 net.cpp:106] Creating Layer block3_conv37
I0218 17:25:28.595173  7189 net.cpp:454] block3_conv37 <- block3_relu35_block3_relu35_0_split_0
I0218 17:25:28.595178  7189 net.cpp:411] block3_conv37 -> block3_conv37
I0218 17:25:28.597865  7189 net.cpp:150] Setting up block3_conv37
I0218 17:25:28.597877  7189 net.cpp:157] Top shape: 64 128 16 16 (2097152)
I0218 17:25:28.597880  7189 net.cpp:165] Memory required for data: 1957495552
I0218 17:25:28.597887  7189 layer_factory.hpp:76] Creating layer block3_conv37_BN
I0218 17:25:28.597893  7189 net.cpp:106] Creating Layer block3_conv37_BN
I0218 17:25:28.597897  7189 net.cpp:454] block3_conv37_BN <- block3_conv37
I0218 17:25:28.597903  7189 net.cpp:411] block3_conv37_BN -> block3_conv37_BN
I0218 17:25:28.598106  7189 net.cpp:150] Setting up block3_conv37_BN
I0218 17:25:28.598114  7189 net.cpp:157] Top shape: 64 128 16 16 (2097152)
I0218 17:25:28.598116  7189 net.cpp:165] Memory required for data: 1965884160
I0218 17:25:28.598127  7189 layer_factory.hpp:76] Creating layer block3_relu38
I0218 17:25:28.598132  7189 net.cpp:106] Creating Layer block3_relu38
I0218 17:25:28.598135  7189 net.cpp:454] block3_relu38 <- block3_conv37_BN
I0218 17:25:28.598140  7189 net.cpp:397] block3_relu38 -> block3_conv37_BN (in-place)
I0218 17:25:28.598757  7189 net.cpp:150] Setting up block3_relu38
I0218 17:25:28.598767  7189 net.cpp:157] Top shape: 64 128 16 16 (2097152)
I0218 17:25:28.598769  7189 net.cpp:165] Memory required for data: 1974272768
I0218 17:25:28.598773  7189 layer_factory.hpp:76] Creating layer block3_conv39
I0218 17:25:28.598780  7189 net.cpp:106] Creating Layer block3_conv39
I0218 17:25:28.598783  7189 net.cpp:454] block3_conv39 <- block3_conv37_BN
I0218 17:25:28.598788  7189 net.cpp:411] block3_conv39 -> block3_conv39
I0218 17:25:28.601827  7189 net.cpp:150] Setting up block3_conv39
I0218 17:25:28.601840  7189 net.cpp:157] Top shape: 64 128 16 16 (2097152)
I0218 17:25:28.601843  7189 net.cpp:165] Memory required for data: 1982661376
I0218 17:25:28.601850  7189 layer_factory.hpp:76] Creating layer block3_conv39_BN
I0218 17:25:28.601856  7189 net.cpp:106] Creating Layer block3_conv39_BN
I0218 17:25:28.601860  7189 net.cpp:454] block3_conv39_BN <- block3_conv39
I0218 17:25:28.601866  7189 net.cpp:411] block3_conv39_BN -> block3_conv39_BN
I0218 17:25:28.602074  7189 net.cpp:150] Setting up block3_conv39_BN
I0218 17:25:28.602087  7189 net.cpp:157] Top shape: 64 128 16 16 (2097152)
I0218 17:25:28.602089  7189 net.cpp:165] Memory required for data: 1991049984
I0218 17:25:28.602095  7189 layer_factory.hpp:76] Creating layer block3_relu40
I0218 17:25:28.602102  7189 net.cpp:106] Creating Layer block3_relu40
I0218 17:25:28.602105  7189 net.cpp:454] block3_relu40 <- block3_conv39_BN
I0218 17:25:28.602108  7189 net.cpp:397] block3_relu40 -> block3_conv39_BN (in-place)
I0218 17:25:28.602762  7189 net.cpp:150] Setting up block3_relu40
I0218 17:25:28.602772  7189 net.cpp:157] Top shape: 64 128 16 16 (2097152)
I0218 17:25:28.602776  7189 net.cpp:165] Memory required for data: 1999438592
I0218 17:25:28.602777  7189 layer_factory.hpp:76] Creating layer block3_conv41
I0218 17:25:28.602784  7189 net.cpp:106] Creating Layer block3_conv41
I0218 17:25:28.602787  7189 net.cpp:454] block3_conv41 <- block3_conv39_BN
I0218 17:25:28.602792  7189 net.cpp:411] block3_conv41 -> block3_conv41
I0218 17:25:28.605281  7189 net.cpp:150] Setting up block3_conv41
I0218 17:25:28.605300  7189 net.cpp:157] Top shape: 64 512 16 16 (8388608)
I0218 17:25:28.605319  7189 net.cpp:165] Memory required for data: 2032993024
I0218 17:25:28.605329  7189 layer_factory.hpp:76] Creating layer block3_conv41_BN
I0218 17:25:28.605340  7189 net.cpp:106] Creating Layer block3_conv41_BN
I0218 17:25:28.605345  7189 net.cpp:454] block3_conv41_BN <- block3_conv41
I0218 17:25:28.605350  7189 net.cpp:411] block3_conv41_BN -> block3_conv41_BN
I0218 17:25:28.605674  7189 net.cpp:150] Setting up block3_conv41_BN
I0218 17:25:28.605682  7189 net.cpp:157] Top shape: 64 512 16 16 (8388608)
I0218 17:25:28.605685  7189 net.cpp:165] Memory required for data: 2066547456
I0218 17:25:28.605693  7189 layer_factory.hpp:76] Creating layer block3_conv41_BN_eltwise
I0218 17:25:28.605703  7189 net.cpp:106] Creating Layer block3_conv41_BN_eltwise
I0218 17:25:28.605710  7189 net.cpp:454] block3_conv41_BN_eltwise <- block3_conv41_BN
I0218 17:25:28.605715  7189 net.cpp:454] block3_conv41_BN_eltwise <- block3_relu35_block3_relu35_0_split_1
I0218 17:25:28.605728  7189 net.cpp:411] block3_conv41_BN_eltwise -> block3_conv41_BN_eltwise
I0218 17:25:28.605761  7189 net.cpp:150] Setting up block3_conv41_BN_eltwise
I0218 17:25:28.605767  7189 net.cpp:157] Top shape: 64 512 16 16 (8388608)
I0218 17:25:28.605768  7189 net.cpp:165] Memory required for data: 2100101888
I0218 17:25:28.605770  7189 layer_factory.hpp:76] Creating layer block3_relu43
I0218 17:25:28.605775  7189 net.cpp:106] Creating Layer block3_relu43
I0218 17:25:28.605778  7189 net.cpp:454] block3_relu43 <- block3_conv41_BN_eltwise
I0218 17:25:28.605783  7189 net.cpp:411] block3_relu43 -> block3_relu43
I0218 17:25:28.606463  7189 net.cpp:150] Setting up block3_relu43
I0218 17:25:28.606473  7189 net.cpp:157] Top shape: 64 512 16 16 (8388608)
I0218 17:25:28.606475  7189 net.cpp:165] Memory required for data: 2133656320
I0218 17:25:28.606478  7189 layer_factory.hpp:76] Creating layer block3_relu43_block3_relu43_0_split
I0218 17:25:28.606484  7189 net.cpp:106] Creating Layer block3_relu43_block3_relu43_0_split
I0218 17:25:28.606487  7189 net.cpp:454] block3_relu43_block3_relu43_0_split <- block3_relu43
I0218 17:25:28.606492  7189 net.cpp:411] block3_relu43_block3_relu43_0_split -> block3_relu43_block3_relu43_0_split_0
I0218 17:25:28.606497  7189 net.cpp:411] block3_relu43_block3_relu43_0_split -> block3_relu43_block3_relu43_0_split_1
I0218 17:25:28.606544  7189 net.cpp:150] Setting up block3_relu43_block3_relu43_0_split
I0218 17:25:28.606550  7189 net.cpp:157] Top shape: 64 512 16 16 (8388608)
I0218 17:25:28.606554  7189 net.cpp:157] Top shape: 64 512 16 16 (8388608)
I0218 17:25:28.606555  7189 net.cpp:165] Memory required for data: 2200765184
I0218 17:25:28.606559  7189 layer_factory.hpp:76] Creating layer block3_conv45
I0218 17:25:28.606567  7189 net.cpp:106] Creating Layer block3_conv45
I0218 17:25:28.606570  7189 net.cpp:454] block3_conv45 <- block3_relu43_block3_relu43_0_split_0
I0218 17:25:28.606575  7189 net.cpp:411] block3_conv45 -> block3_conv45
I0218 17:25:28.609010  7189 net.cpp:150] Setting up block3_conv45
I0218 17:25:28.609021  7189 net.cpp:157] Top shape: 64 128 16 16 (2097152)
I0218 17:25:28.609025  7189 net.cpp:165] Memory required for data: 2209153792
I0218 17:25:28.609030  7189 layer_factory.hpp:76] Creating layer block3_conv45_BN
I0218 17:25:28.609036  7189 net.cpp:106] Creating Layer block3_conv45_BN
I0218 17:25:28.609040  7189 net.cpp:454] block3_conv45_BN <- block3_conv45
I0218 17:25:28.609045  7189 net.cpp:411] block3_conv45_BN -> block3_conv45_BN
I0218 17:25:28.609278  7189 net.cpp:150] Setting up block3_conv45_BN
I0218 17:25:28.609287  7189 net.cpp:157] Top shape: 64 128 16 16 (2097152)
I0218 17:25:28.609289  7189 net.cpp:165] Memory required for data: 2217542400
I0218 17:25:28.609304  7189 layer_factory.hpp:76] Creating layer block3_relu46
I0218 17:25:28.609313  7189 net.cpp:106] Creating Layer block3_relu46
I0218 17:25:28.609318  7189 net.cpp:454] block3_relu46 <- block3_conv45_BN
I0218 17:25:28.609321  7189 net.cpp:397] block3_relu46 -> block3_conv45_BN (in-place)
I0218 17:25:28.609935  7189 net.cpp:150] Setting up block3_relu46
I0218 17:25:28.609952  7189 net.cpp:157] Top shape: 64 128 16 16 (2097152)
I0218 17:25:28.609956  7189 net.cpp:165] Memory required for data: 2225931008
I0218 17:25:28.609958  7189 layer_factory.hpp:76] Creating layer block3_conv47
I0218 17:25:28.609966  7189 net.cpp:106] Creating Layer block3_conv47
I0218 17:25:28.609968  7189 net.cpp:454] block3_conv47 <- block3_conv45_BN
I0218 17:25:28.609974  7189 net.cpp:411] block3_conv47 -> block3_conv47
I0218 17:25:28.613174  7189 net.cpp:150] Setting up block3_conv47
I0218 17:25:28.613189  7189 net.cpp:157] Top shape: 64 128 16 16 (2097152)
I0218 17:25:28.613191  7189 net.cpp:165] Memory required for data: 2234319616
I0218 17:25:28.613198  7189 layer_factory.hpp:76] Creating layer block3_conv47_BN
I0218 17:25:28.613204  7189 net.cpp:106] Creating Layer block3_conv47_BN
I0218 17:25:28.613207  7189 net.cpp:454] block3_conv47_BN <- block3_conv47
I0218 17:25:28.613212  7189 net.cpp:411] block3_conv47_BN -> block3_conv47_BN
I0218 17:25:28.613435  7189 net.cpp:150] Setting up block3_conv47_BN
I0218 17:25:28.613443  7189 net.cpp:157] Top shape: 64 128 16 16 (2097152)
I0218 17:25:28.613446  7189 net.cpp:165] Memory required for data: 2242708224
I0218 17:25:28.613452  7189 layer_factory.hpp:76] Creating layer block3_relu48
I0218 17:25:28.613462  7189 net.cpp:106] Creating Layer block3_relu48
I0218 17:25:28.613466  7189 net.cpp:454] block3_relu48 <- block3_conv47_BN
I0218 17:25:28.613471  7189 net.cpp:397] block3_relu48 -> block3_conv47_BN (in-place)
I0218 17:25:28.614059  7189 net.cpp:150] Setting up block3_relu48
I0218 17:25:28.614069  7189 net.cpp:157] Top shape: 64 128 16 16 (2097152)
I0218 17:25:28.614071  7189 net.cpp:165] Memory required for data: 2251096832
I0218 17:25:28.614074  7189 layer_factory.hpp:76] Creating layer block3_conv49
I0218 17:25:28.614084  7189 net.cpp:106] Creating Layer block3_conv49
I0218 17:25:28.614087  7189 net.cpp:454] block3_conv49 <- block3_conv47_BN
I0218 17:25:28.614091  7189 net.cpp:411] block3_conv49 -> block3_conv49
I0218 17:25:28.616544  7189 net.cpp:150] Setting up block3_conv49
I0218 17:25:28.616554  7189 net.cpp:157] Top shape: 64 512 16 16 (8388608)
I0218 17:25:28.616556  7189 net.cpp:165] Memory required for data: 2284651264
I0218 17:25:28.616561  7189 layer_factory.hpp:76] Creating layer block3_conv49_BN
I0218 17:25:28.616569  7189 net.cpp:106] Creating Layer block3_conv49_BN
I0218 17:25:28.616571  7189 net.cpp:454] block3_conv49_BN <- block3_conv49
I0218 17:25:28.616575  7189 net.cpp:411] block3_conv49_BN -> block3_conv49_BN
I0218 17:25:28.616801  7189 net.cpp:150] Setting up block3_conv49_BN
I0218 17:25:28.616809  7189 net.cpp:157] Top shape: 64 512 16 16 (8388608)
I0218 17:25:28.616811  7189 net.cpp:165] Memory required for data: 2318205696
I0218 17:25:28.616817  7189 layer_factory.hpp:76] Creating layer block3_conv49_BN_eltwise
I0218 17:25:28.616822  7189 net.cpp:106] Creating Layer block3_conv49_BN_eltwise
I0218 17:25:28.616825  7189 net.cpp:454] block3_conv49_BN_eltwise <- block3_conv49_BN
I0218 17:25:28.616838  7189 net.cpp:454] block3_conv49_BN_eltwise <- block3_relu43_block3_relu43_0_split_1
I0218 17:25:28.616845  7189 net.cpp:411] block3_conv49_BN_eltwise -> block3_conv49_BN_eltwise
I0218 17:25:28.616880  7189 net.cpp:150] Setting up block3_conv49_BN_eltwise
I0218 17:25:28.616890  7189 net.cpp:157] Top shape: 64 512 16 16 (8388608)
I0218 17:25:28.616894  7189 net.cpp:165] Memory required for data: 2351760128
I0218 17:25:28.616897  7189 layer_factory.hpp:76] Creating layer block3_relu51
I0218 17:25:28.616906  7189 net.cpp:106] Creating Layer block3_relu51
I0218 17:25:28.616912  7189 net.cpp:454] block3_relu51 <- block3_conv49_BN_eltwise
I0218 17:25:28.616920  7189 net.cpp:411] block3_relu51 -> block3_relu51
I0218 17:25:28.617617  7189 net.cpp:150] Setting up block3_relu51
I0218 17:25:28.617626  7189 net.cpp:157] Top shape: 64 512 16 16 (8388608)
I0218 17:25:28.617630  7189 net.cpp:165] Memory required for data: 2385314560
I0218 17:25:28.617632  7189 layer_factory.hpp:76] Creating layer block3_relu51_block3_relu51_0_split
I0218 17:25:28.617650  7189 net.cpp:106] Creating Layer block3_relu51_block3_relu51_0_split
I0218 17:25:28.617653  7189 net.cpp:454] block3_relu51_block3_relu51_0_split <- block3_relu51
I0218 17:25:28.617657  7189 net.cpp:411] block3_relu51_block3_relu51_0_split -> block3_relu51_block3_relu51_0_split_0
I0218 17:25:28.617662  7189 net.cpp:411] block3_relu51_block3_relu51_0_split -> block3_relu51_block3_relu51_0_split_1
I0218 17:25:28.617712  7189 net.cpp:150] Setting up block3_relu51_block3_relu51_0_split
I0218 17:25:28.617722  7189 net.cpp:157] Top shape: 64 512 16 16 (8388608)
I0218 17:25:28.617727  7189 net.cpp:157] Top shape: 64 512 16 16 (8388608)
I0218 17:25:28.617732  7189 net.cpp:165] Memory required for data: 2452423424
I0218 17:25:28.617735  7189 layer_factory.hpp:76] Creating layer block3_conv53
I0218 17:25:28.617744  7189 net.cpp:106] Creating Layer block3_conv53
I0218 17:25:28.617748  7189 net.cpp:454] block3_conv53 <- block3_relu51_block3_relu51_0_split_0
I0218 17:25:28.617753  7189 net.cpp:411] block3_conv53 -> block3_conv53
I0218 17:25:28.620440  7189 net.cpp:150] Setting up block3_conv53
I0218 17:25:28.620453  7189 net.cpp:157] Top shape: 64 128 16 16 (2097152)
I0218 17:25:28.620455  7189 net.cpp:165] Memory required for data: 2460812032
I0218 17:25:28.620461  7189 layer_factory.hpp:76] Creating layer block3_conv53_BN
I0218 17:25:28.620467  7189 net.cpp:106] Creating Layer block3_conv53_BN
I0218 17:25:28.620471  7189 net.cpp:454] block3_conv53_BN <- block3_conv53
I0218 17:25:28.620476  7189 net.cpp:411] block3_conv53_BN -> block3_conv53_BN
I0218 17:25:28.620734  7189 net.cpp:150] Setting up block3_conv53_BN
I0218 17:25:28.620743  7189 net.cpp:157] Top shape: 64 128 16 16 (2097152)
I0218 17:25:28.620745  7189 net.cpp:165] Memory required for data: 2469200640
I0218 17:25:28.620751  7189 layer_factory.hpp:76] Creating layer block3_relu54
I0218 17:25:28.620756  7189 net.cpp:106] Creating Layer block3_relu54
I0218 17:25:28.620759  7189 net.cpp:454] block3_relu54 <- block3_conv53_BN
I0218 17:25:28.620764  7189 net.cpp:397] block3_relu54 -> block3_conv53_BN (in-place)
I0218 17:25:28.621363  7189 net.cpp:150] Setting up block3_relu54
I0218 17:25:28.621372  7189 net.cpp:157] Top shape: 64 128 16 16 (2097152)
I0218 17:25:28.621374  7189 net.cpp:165] Memory required for data: 2477589248
I0218 17:25:28.621377  7189 layer_factory.hpp:76] Creating layer block3_conv55
I0218 17:25:28.621384  7189 net.cpp:106] Creating Layer block3_conv55
I0218 17:25:28.621388  7189 net.cpp:454] block3_conv55 <- block3_conv53_BN
I0218 17:25:28.621393  7189 net.cpp:411] block3_conv55 -> block3_conv55
I0218 17:25:28.624645  7189 net.cpp:150] Setting up block3_conv55
I0218 17:25:28.624658  7189 net.cpp:157] Top shape: 64 128 16 16 (2097152)
I0218 17:25:28.624660  7189 net.cpp:165] Memory required for data: 2485977856
I0218 17:25:28.624666  7189 layer_factory.hpp:76] Creating layer block3_conv55_BN
I0218 17:25:28.624672  7189 net.cpp:106] Creating Layer block3_conv55_BN
I0218 17:25:28.624675  7189 net.cpp:454] block3_conv55_BN <- block3_conv55
I0218 17:25:28.624683  7189 net.cpp:411] block3_conv55_BN -> block3_conv55_BN
I0218 17:25:28.624913  7189 net.cpp:150] Setting up block3_conv55_BN
I0218 17:25:28.624920  7189 net.cpp:157] Top shape: 64 128 16 16 (2097152)
I0218 17:25:28.624928  7189 net.cpp:165] Memory required for data: 2494366464
I0218 17:25:28.624934  7189 layer_factory.hpp:76] Creating layer block3_relu56
I0218 17:25:28.624939  7189 net.cpp:106] Creating Layer block3_relu56
I0218 17:25:28.624943  7189 net.cpp:454] block3_relu56 <- block3_conv55_BN
I0218 17:25:28.624948  7189 net.cpp:397] block3_relu56 -> block3_conv55_BN (in-place)
I0218 17:25:28.625636  7189 net.cpp:150] Setting up block3_relu56
I0218 17:25:28.625645  7189 net.cpp:157] Top shape: 64 128 16 16 (2097152)
I0218 17:25:28.625648  7189 net.cpp:165] Memory required for data: 2502755072
I0218 17:25:28.625651  7189 layer_factory.hpp:76] Creating layer block3_conv57
I0218 17:25:28.625658  7189 net.cpp:106] Creating Layer block3_conv57
I0218 17:25:28.625661  7189 net.cpp:454] block3_conv57 <- block3_conv55_BN
I0218 17:25:28.625679  7189 net.cpp:411] block3_conv57 -> block3_conv57
I0218 17:25:28.628283  7189 net.cpp:150] Setting up block3_conv57
I0218 17:25:28.628293  7189 net.cpp:157] Top shape: 64 512 16 16 (8388608)
I0218 17:25:28.628296  7189 net.cpp:165] Memory required for data: 2536309504
I0218 17:25:28.628301  7189 layer_factory.hpp:76] Creating layer block3_conv57_BN
I0218 17:25:28.628309  7189 net.cpp:106] Creating Layer block3_conv57_BN
I0218 17:25:28.628311  7189 net.cpp:454] block3_conv57_BN <- block3_conv57
I0218 17:25:28.628317  7189 net.cpp:411] block3_conv57_BN -> block3_conv57_BN
I0218 17:25:28.628557  7189 net.cpp:150] Setting up block3_conv57_BN
I0218 17:25:28.628566  7189 net.cpp:157] Top shape: 64 512 16 16 (8388608)
I0218 17:25:28.628568  7189 net.cpp:165] Memory required for data: 2569863936
I0218 17:25:28.628573  7189 layer_factory.hpp:76] Creating layer block3_conv57_BN_eltwise
I0218 17:25:28.628581  7189 net.cpp:106] Creating Layer block3_conv57_BN_eltwise
I0218 17:25:28.628583  7189 net.cpp:454] block3_conv57_BN_eltwise <- block3_conv57_BN
I0218 17:25:28.628587  7189 net.cpp:454] block3_conv57_BN_eltwise <- block3_relu51_block3_relu51_0_split_1
I0218 17:25:28.628592  7189 net.cpp:411] block3_conv57_BN_eltwise -> block3_conv57_BN_eltwise
I0218 17:25:28.628617  7189 net.cpp:150] Setting up block3_conv57_BN_eltwise
I0218 17:25:28.628620  7189 net.cpp:157] Top shape: 64 512 16 16 (8388608)
I0218 17:25:28.628624  7189 net.cpp:165] Memory required for data: 2603418368
I0218 17:25:28.628628  7189 layer_factory.hpp:76] Creating layer block3_relu59
I0218 17:25:28.628635  7189 net.cpp:106] Creating Layer block3_relu59
I0218 17:25:28.628640  7189 net.cpp:454] block3_relu59 <- block3_conv57_BN_eltwise
I0218 17:25:28.628646  7189 net.cpp:411] block3_relu59 -> block3_relu59
I0218 17:25:28.629284  7189 net.cpp:150] Setting up block3_relu59
I0218 17:25:28.629294  7189 net.cpp:157] Top shape: 64 512 16 16 (8388608)
I0218 17:25:28.629297  7189 net.cpp:165] Memory required for data: 2636972800
I0218 17:25:28.629300  7189 layer_factory.hpp:76] Creating layer block3_conv61
I0218 17:25:28.629307  7189 net.cpp:106] Creating Layer block3_conv61
I0218 17:25:28.629309  7189 net.cpp:454] block3_conv61 <- block3_relu59
I0218 17:25:28.629325  7189 net.cpp:411] block3_conv61 -> block3_conv61
I0218 17:25:28.634958  7189 net.cpp:150] Setting up block3_conv61
I0218 17:25:28.634980  7189 net.cpp:157] Top shape: 64 1024 8 8 (4194304)
I0218 17:25:28.634984  7189 net.cpp:165] Memory required for data: 2653750016
I0218 17:25:28.634990  7189 layer_factory.hpp:76] Creating layer block3_conv61_block3_conv61_0_split
I0218 17:25:28.634999  7189 net.cpp:106] Creating Layer block3_conv61_block3_conv61_0_split
I0218 17:25:28.635004  7189 net.cpp:454] block3_conv61_block3_conv61_0_split <- block3_conv61
I0218 17:25:28.635010  7189 net.cpp:411] block3_conv61_block3_conv61_0_split -> block3_conv61_block3_conv61_0_split_0
I0218 17:25:28.635020  7189 net.cpp:411] block3_conv61_block3_conv61_0_split -> block3_conv61_block3_conv61_0_split_1
I0218 17:25:28.635066  7189 net.cpp:150] Setting up block3_conv61_block3_conv61_0_split
I0218 17:25:28.635072  7189 net.cpp:157] Top shape: 64 1024 8 8 (4194304)
I0218 17:25:28.635076  7189 net.cpp:157] Top shape: 64 1024 8 8 (4194304)
I0218 17:25:28.635077  7189 net.cpp:165] Memory required for data: 2687304448
I0218 17:25:28.635079  7189 layer_factory.hpp:76] Creating layer block4_conv62
I0218 17:25:28.635087  7189 net.cpp:106] Creating Layer block4_conv62
I0218 17:25:28.635090  7189 net.cpp:454] block4_conv62 <- block3_conv61_block3_conv61_0_split_0
I0218 17:25:28.635095  7189 net.cpp:411] block4_conv62 -> block4_conv62
I0218 17:25:28.639703  7189 net.cpp:150] Setting up block4_conv62
I0218 17:25:28.639729  7189 net.cpp:157] Top shape: 64 256 8 8 (1048576)
I0218 17:25:28.639731  7189 net.cpp:165] Memory required for data: 2691498752
I0218 17:25:28.639740  7189 layer_factory.hpp:76] Creating layer block4_conv62_BN
I0218 17:25:28.639750  7189 net.cpp:106] Creating Layer block4_conv62_BN
I0218 17:25:28.639771  7189 net.cpp:454] block4_conv62_BN <- block4_conv62
I0218 17:25:28.639780  7189 net.cpp:411] block4_conv62_BN -> block4_conv62_BN
I0218 17:25:28.640071  7189 net.cpp:150] Setting up block4_conv62_BN
I0218 17:25:28.640081  7189 net.cpp:157] Top shape: 64 256 8 8 (1048576)
I0218 17:25:28.640084  7189 net.cpp:165] Memory required for data: 2695693056
I0218 17:25:28.640090  7189 layer_factory.hpp:76] Creating layer block4_relu63
I0218 17:25:28.640096  7189 net.cpp:106] Creating Layer block4_relu63
I0218 17:25:28.640100  7189 net.cpp:454] block4_relu63 <- block4_conv62_BN
I0218 17:25:28.640103  7189 net.cpp:397] block4_relu63 -> block4_conv62_BN (in-place)
I0218 17:25:28.642890  7189 net.cpp:150] Setting up block4_relu63
I0218 17:25:28.642917  7189 net.cpp:157] Top shape: 64 256 8 8 (1048576)
I0218 17:25:28.642921  7189 net.cpp:165] Memory required for data: 2699887360
I0218 17:25:28.642927  7189 layer_factory.hpp:76] Creating layer block4_conv64
I0218 17:25:28.642943  7189 net.cpp:106] Creating Layer block4_conv64
I0218 17:25:28.642951  7189 net.cpp:454] block4_conv64 <- block4_conv62_BN
I0218 17:25:28.642959  7189 net.cpp:411] block4_conv64 -> block4_conv64
I0218 17:25:28.656363  7189 net.cpp:150] Setting up block4_conv64
I0218 17:25:28.656394  7189 net.cpp:157] Top shape: 64 256 8 8 (1048576)
I0218 17:25:28.656396  7189 net.cpp:165] Memory required for data: 2704081664
I0218 17:25:28.656407  7189 layer_factory.hpp:76] Creating layer block4_conv64_BN
I0218 17:25:28.656419  7189 net.cpp:106] Creating Layer block4_conv64_BN
I0218 17:25:28.656424  7189 net.cpp:454] block4_conv64_BN <- block4_conv64
I0218 17:25:28.656431  7189 net.cpp:411] block4_conv64_BN -> block4_conv64_BN
I0218 17:25:28.656790  7189 net.cpp:150] Setting up block4_conv64_BN
I0218 17:25:28.656797  7189 net.cpp:157] Top shape: 64 256 8 8 (1048576)
I0218 17:25:28.656800  7189 net.cpp:165] Memory required for data: 2708275968
I0218 17:25:28.656810  7189 layer_factory.hpp:76] Creating layer block4_relu65
I0218 17:25:28.656818  7189 net.cpp:106] Creating Layer block4_relu65
I0218 17:25:28.656823  7189 net.cpp:454] block4_relu65 <- block4_conv64_BN
I0218 17:25:28.656829  7189 net.cpp:397] block4_relu65 -> block4_conv64_BN (in-place)
I0218 17:25:28.659296  7189 net.cpp:150] Setting up block4_relu65
I0218 17:25:28.659320  7189 net.cpp:157] Top shape: 64 256 8 8 (1048576)
I0218 17:25:28.659323  7189 net.cpp:165] Memory required for data: 2712470272
I0218 17:25:28.659328  7189 layer_factory.hpp:76] Creating layer block4_conv66
I0218 17:25:28.659353  7189 net.cpp:106] Creating Layer block4_conv66
I0218 17:25:28.659359  7189 net.cpp:454] block4_conv66 <- block4_conv64_BN
I0218 17:25:28.659368  7189 net.cpp:411] block4_conv66 -> block4_conv66
I0218 17:25:28.674270  7189 net.cpp:150] Setting up block4_conv66
I0218 17:25:28.674296  7189 net.cpp:157] Top shape: 64 1024 8 8 (4194304)
I0218 17:25:28.674299  7189 net.cpp:165] Memory required for data: 2729247488
I0218 17:25:28.674310  7189 layer_factory.hpp:76] Creating layer block4_conv66_BN
I0218 17:25:28.674324  7189 net.cpp:106] Creating Layer block4_conv66_BN
I0218 17:25:28.674332  7189 net.cpp:454] block4_conv66_BN <- block4_conv66
I0218 17:25:28.674342  7189 net.cpp:411] block4_conv66_BN -> block4_conv66_BN
I0218 17:25:28.674751  7189 net.cpp:150] Setting up block4_conv66_BN
I0218 17:25:28.674760  7189 net.cpp:157] Top shape: 64 1024 8 8 (4194304)
I0218 17:25:28.674762  7189 net.cpp:165] Memory required for data: 2746024704
I0218 17:25:28.674782  7189 layer_factory.hpp:76] Creating layer block4_conv66_BN_eltwise
I0218 17:25:28.674792  7189 net.cpp:106] Creating Layer block4_conv66_BN_eltwise
I0218 17:25:28.674798  7189 net.cpp:454] block4_conv66_BN_eltwise <- block4_conv66_BN
I0218 17:25:28.674803  7189 net.cpp:454] block4_conv66_BN_eltwise <- block3_conv61_block3_conv61_0_split_1
I0218 17:25:28.674810  7189 net.cpp:411] block4_conv66_BN_eltwise -> block4_conv66_BN_eltwise
I0218 17:25:28.674856  7189 net.cpp:150] Setting up block4_conv66_BN_eltwise
I0218 17:25:28.674865  7189 net.cpp:157] Top shape: 64 1024 8 8 (4194304)
I0218 17:25:28.674888  7189 net.cpp:165] Memory required for data: 2762801920
I0218 17:25:28.674895  7189 layer_factory.hpp:76] Creating layer block4_relu68
I0218 17:25:28.674904  7189 net.cpp:106] Creating Layer block4_relu68
I0218 17:25:28.674911  7189 net.cpp:454] block4_relu68 <- block4_conv66_BN_eltwise
I0218 17:25:28.674917  7189 net.cpp:411] block4_relu68 -> block4_relu68
I0218 17:25:28.678264  7189 net.cpp:150] Setting up block4_relu68
I0218 17:25:28.678287  7189 net.cpp:157] Top shape: 64 1024 8 8 (4194304)
I0218 17:25:28.678289  7189 net.cpp:165] Memory required for data: 2779579136
I0218 17:25:28.678294  7189 layer_factory.hpp:76] Creating layer block4_relu68_block4_relu68_0_split
I0218 17:25:28.678305  7189 net.cpp:106] Creating Layer block4_relu68_block4_relu68_0_split
I0218 17:25:28.678313  7189 net.cpp:454] block4_relu68_block4_relu68_0_split <- block4_relu68
I0218 17:25:28.678321  7189 net.cpp:411] block4_relu68_block4_relu68_0_split -> block4_relu68_block4_relu68_0_split_0
I0218 17:25:28.678333  7189 net.cpp:411] block4_relu68_block4_relu68_0_split -> block4_relu68_block4_relu68_0_split_1
I0218 17:25:28.678401  7189 net.cpp:150] Setting up block4_relu68_block4_relu68_0_split
I0218 17:25:28.678411  7189 net.cpp:157] Top shape: 64 1024 8 8 (4194304)
I0218 17:25:28.678416  7189 net.cpp:157] Top shape: 64 1024 8 8 (4194304)
I0218 17:25:28.678421  7189 net.cpp:165] Memory required for data: 2813133568
I0218 17:25:28.678424  7189 layer_factory.hpp:76] Creating layer block4_conv70
I0218 17:25:28.678437  7189 net.cpp:106] Creating Layer block4_conv70
I0218 17:25:28.678442  7189 net.cpp:454] block4_conv70 <- block4_relu68_block4_relu68_0_split_0
I0218 17:25:28.678449  7189 net.cpp:411] block4_conv70 -> block4_conv70
I0218 17:25:28.690784  7189 net.cpp:150] Setting up block4_conv70
I0218 17:25:28.690807  7189 net.cpp:157] Top shape: 64 256 8 8 (1048576)
I0218 17:25:28.690810  7189 net.cpp:165] Memory required for data: 2817327872
I0218 17:25:28.690820  7189 layer_factory.hpp:76] Creating layer block4_conv70_BN
I0218 17:25:28.690832  7189 net.cpp:106] Creating Layer block4_conv70_BN
I0218 17:25:28.690840  7189 net.cpp:454] block4_conv70_BN <- block4_conv70
I0218 17:25:28.690850  7189 net.cpp:411] block4_conv70_BN -> block4_conv70_BN
I0218 17:25:28.691185  7189 net.cpp:150] Setting up block4_conv70_BN
I0218 17:25:28.691195  7189 net.cpp:157] Top shape: 64 256 8 8 (1048576)
I0218 17:25:28.691197  7189 net.cpp:165] Memory required for data: 2821522176
I0218 17:25:28.691205  7189 layer_factory.hpp:76] Creating layer block4_relu71
I0218 17:25:28.691226  7189 net.cpp:106] Creating Layer block4_relu71
I0218 17:25:28.691234  7189 net.cpp:454] block4_relu71 <- block4_conv70_BN
I0218 17:25:28.691241  7189 net.cpp:397] block4_relu71 -> block4_conv70_BN (in-place)
I0218 17:25:28.693591  7189 net.cpp:150] Setting up block4_relu71
I0218 17:25:28.693624  7189 net.cpp:157] Top shape: 64 256 8 8 (1048576)
I0218 17:25:28.693629  7189 net.cpp:165] Memory required for data: 2825716480
I0218 17:25:28.693636  7189 layer_factory.hpp:76] Creating layer block4_conv72
I0218 17:25:28.693655  7189 net.cpp:106] Creating Layer block4_conv72
I0218 17:25:28.693665  7189 net.cpp:454] block4_conv72 <- block4_conv70_BN
I0218 17:25:28.693675  7189 net.cpp:411] block4_conv72 -> block4_conv72
I0218 17:25:28.703225  7189 net.cpp:150] Setting up block4_conv72
I0218 17:25:28.703253  7189 net.cpp:157] Top shape: 64 256 8 8 (1048576)
I0218 17:25:28.703258  7189 net.cpp:165] Memory required for data: 2829910784
I0218 17:25:28.703272  7189 layer_factory.hpp:76] Creating layer block4_conv72_BN
I0218 17:25:28.703287  7189 net.cpp:106] Creating Layer block4_conv72_BN
I0218 17:25:28.703294  7189 net.cpp:454] block4_conv72_BN <- block4_conv72
I0218 17:25:28.703305  7189 net.cpp:411] block4_conv72_BN -> block4_conv72_BN
I0218 17:25:28.703728  7189 net.cpp:150] Setting up block4_conv72_BN
I0218 17:25:28.703742  7189 net.cpp:157] Top shape: 64 256 8 8 (1048576)
I0218 17:25:28.703745  7189 net.cpp:165] Memory required for data: 2834105088
I0218 17:25:28.703774  7189 layer_factory.hpp:76] Creating layer block4_relu73
I0218 17:25:28.703784  7189 net.cpp:106] Creating Layer block4_relu73
I0218 17:25:28.703789  7189 net.cpp:454] block4_relu73 <- block4_conv72_BN
I0218 17:25:28.703799  7189 net.cpp:397] block4_relu73 -> block4_conv72_BN (in-place)
I0218 17:25:28.704700  7189 net.cpp:150] Setting up block4_relu73
I0218 17:25:28.704715  7189 net.cpp:157] Top shape: 64 256 8 8 (1048576)
I0218 17:25:28.704720  7189 net.cpp:165] Memory required for data: 2838299392
I0218 17:25:28.704725  7189 layer_factory.hpp:76] Creating layer block4_conv74
I0218 17:25:28.704737  7189 net.cpp:106] Creating Layer block4_conv74
I0218 17:25:28.704742  7189 net.cpp:454] block4_conv74 <- block4_conv72_BN
I0218 17:25:28.704751  7189 net.cpp:411] block4_conv74 -> block4_conv74
I0218 17:25:28.710505  7189 net.cpp:150] Setting up block4_conv74
I0218 17:25:28.710531  7189 net.cpp:157] Top shape: 64 1024 8 8 (4194304)
I0218 17:25:28.710536  7189 net.cpp:165] Memory required for data: 2855076608
I0218 17:25:28.710548  7189 layer_factory.hpp:76] Creating layer block4_conv74_BN
I0218 17:25:28.710562  7189 net.cpp:106] Creating Layer block4_conv74_BN
I0218 17:25:28.710569  7189 net.cpp:454] block4_conv74_BN <- block4_conv74
I0218 17:25:28.710579  7189 net.cpp:411] block4_conv74_BN -> block4_conv74_BN
I0218 17:25:28.710971  7189 net.cpp:150] Setting up block4_conv74_BN
I0218 17:25:28.710983  7189 net.cpp:157] Top shape: 64 1024 8 8 (4194304)
I0218 17:25:28.710988  7189 net.cpp:165] Memory required for data: 2871853824
I0218 17:25:28.710997  7189 layer_factory.hpp:76] Creating layer block4_conv74_BN_eltwise
I0218 17:25:28.711005  7189 net.cpp:106] Creating Layer block4_conv74_BN_eltwise
I0218 17:25:28.711009  7189 net.cpp:454] block4_conv74_BN_eltwise <- block4_conv74_BN
I0218 17:25:28.711015  7189 net.cpp:454] block4_conv74_BN_eltwise <- block4_relu68_block4_relu68_0_split_1
I0218 17:25:28.711021  7189 net.cpp:411] block4_conv74_BN_eltwise -> block4_conv74_BN_eltwise
I0218 17:25:28.711061  7189 net.cpp:150] Setting up block4_conv74_BN_eltwise
I0218 17:25:28.711069  7189 net.cpp:157] Top shape: 64 1024 8 8 (4194304)
I0218 17:25:28.711073  7189 net.cpp:165] Memory required for data: 2888631040
I0218 17:25:28.711077  7189 layer_factory.hpp:76] Creating layer block4_relu76
I0218 17:25:28.711084  7189 net.cpp:106] Creating Layer block4_relu76
I0218 17:25:28.711088  7189 net.cpp:454] block4_relu76 <- block4_conv74_BN_eltwise
I0218 17:25:28.711096  7189 net.cpp:411] block4_relu76 -> block4_relu76
I0218 17:25:28.711982  7189 net.cpp:150] Setting up block4_relu76
I0218 17:25:28.711993  7189 net.cpp:157] Top shape: 64 1024 8 8 (4194304)
I0218 17:25:28.711998  7189 net.cpp:165] Memory required for data: 2905408256
I0218 17:25:28.712003  7189 layer_factory.hpp:76] Creating layer block4_relu76_block4_relu76_0_split
I0218 17:25:28.712010  7189 net.cpp:106] Creating Layer block4_relu76_block4_relu76_0_split
I0218 17:25:28.712014  7189 net.cpp:454] block4_relu76_block4_relu76_0_split <- block4_relu76
I0218 17:25:28.712020  7189 net.cpp:411] block4_relu76_block4_relu76_0_split -> block4_relu76_block4_relu76_0_split_0
I0218 17:25:28.712029  7189 net.cpp:411] block4_relu76_block4_relu76_0_split -> block4_relu76_block4_relu76_0_split_1
I0218 17:25:28.712091  7189 net.cpp:150] Setting up block4_relu76_block4_relu76_0_split
I0218 17:25:28.712100  7189 net.cpp:157] Top shape: 64 1024 8 8 (4194304)
I0218 17:25:28.712105  7189 net.cpp:157] Top shape: 64 1024 8 8 (4194304)
I0218 17:25:28.712108  7189 net.cpp:165] Memory required for data: 2938962688
I0218 17:25:28.712112  7189 layer_factory.hpp:76] Creating layer block4_conv78
I0218 17:25:28.712122  7189 net.cpp:106] Creating Layer block4_conv78
I0218 17:25:28.712126  7189 net.cpp:454] block4_conv78 <- block4_relu76_block4_relu76_0_split_0
I0218 17:25:28.712134  7189 net.cpp:411] block4_conv78 -> block4_conv78
I0218 17:25:28.717846  7189 net.cpp:150] Setting up block4_conv78
I0218 17:25:28.717870  7189 net.cpp:157] Top shape: 64 256 8 8 (1048576)
I0218 17:25:28.717875  7189 net.cpp:165] Memory required for data: 2943156992
I0218 17:25:28.717910  7189 layer_factory.hpp:76] Creating layer block4_conv78_BN
I0218 17:25:28.717921  7189 net.cpp:106] Creating Layer block4_conv78_BN
I0218 17:25:28.717927  7189 net.cpp:454] block4_conv78_BN <- block4_conv78
I0218 17:25:28.717936  7189 net.cpp:411] block4_conv78_BN -> block4_conv78_BN
I0218 17:25:28.718297  7189 net.cpp:150] Setting up block4_conv78_BN
I0218 17:25:28.718304  7189 net.cpp:157] Top shape: 64 256 8 8 (1048576)
I0218 17:25:28.718308  7189 net.cpp:165] Memory required for data: 2947351296
I0218 17:25:28.718318  7189 layer_factory.hpp:76] Creating layer block4_relu79
I0218 17:25:28.718327  7189 net.cpp:106] Creating Layer block4_relu79
I0218 17:25:28.718330  7189 net.cpp:454] block4_relu79 <- block4_conv78_BN
I0218 17:25:28.718335  7189 net.cpp:397] block4_relu79 -> block4_conv78_BN (in-place)
I0218 17:25:28.719154  7189 net.cpp:150] Setting up block4_relu79
I0218 17:25:28.719166  7189 net.cpp:157] Top shape: 64 256 8 8 (1048576)
I0218 17:25:28.719169  7189 net.cpp:165] Memory required for data: 2951545600
I0218 17:25:28.719174  7189 layer_factory.hpp:76] Creating layer block4_conv80
I0218 17:25:28.719184  7189 net.cpp:106] Creating Layer block4_conv80
I0218 17:25:28.719189  7189 net.cpp:454] block4_conv80 <- block4_conv78_BN
I0218 17:25:28.719197  7189 net.cpp:411] block4_conv80 -> block4_conv80
I0218 17:25:28.727704  7189 net.cpp:150] Setting up block4_conv80
I0218 17:25:28.727730  7189 net.cpp:157] Top shape: 64 256 8 8 (1048576)
I0218 17:25:28.727733  7189 net.cpp:165] Memory required for data: 2955739904
I0218 17:25:28.727746  7189 layer_factory.hpp:76] Creating layer block4_conv80_BN
I0218 17:25:28.727757  7189 net.cpp:106] Creating Layer block4_conv80_BN
I0218 17:25:28.727763  7189 net.cpp:454] block4_conv80_BN <- block4_conv80
I0218 17:25:28.727773  7189 net.cpp:411] block4_conv80_BN -> block4_conv80_BN
I0218 17:25:28.728163  7189 net.cpp:150] Setting up block4_conv80_BN
I0218 17:25:28.728173  7189 net.cpp:157] Top shape: 64 256 8 8 (1048576)
I0218 17:25:28.728176  7189 net.cpp:165] Memory required for data: 2959934208
I0218 17:25:28.728186  7189 layer_factory.hpp:76] Creating layer block4_relu81
I0218 17:25:28.728195  7189 net.cpp:106] Creating Layer block4_relu81
I0218 17:25:28.728200  7189 net.cpp:454] block4_relu81 <- block4_conv80_BN
I0218 17:25:28.728206  7189 net.cpp:397] block4_relu81 -> block4_conv80_BN (in-place)
I0218 17:25:28.729042  7189 net.cpp:150] Setting up block4_relu81
I0218 17:25:28.729053  7189 net.cpp:157] Top shape: 64 256 8 8 (1048576)
I0218 17:25:28.729058  7189 net.cpp:165] Memory required for data: 2964128512
I0218 17:25:28.729063  7189 layer_factory.hpp:76] Creating layer block4_conv82
I0218 17:25:28.729074  7189 net.cpp:106] Creating Layer block4_conv82
I0218 17:25:28.729079  7189 net.cpp:454] block4_conv82 <- block4_conv80_BN
I0218 17:25:28.729085  7189 net.cpp:411] block4_conv82 -> block4_conv82
I0218 17:25:28.734736  7189 net.cpp:150] Setting up block4_conv82
I0218 17:25:28.734758  7189 net.cpp:157] Top shape: 64 1024 8 8 (4194304)
I0218 17:25:28.734763  7189 net.cpp:165] Memory required for data: 2980905728
I0218 17:25:28.734776  7189 layer_factory.hpp:76] Creating layer block4_conv82_BN
I0218 17:25:28.734786  7189 net.cpp:106] Creating Layer block4_conv82_BN
I0218 17:25:28.734793  7189 net.cpp:454] block4_conv82_BN <- block4_conv82
I0218 17:25:28.734800  7189 net.cpp:411] block4_conv82_BN -> block4_conv82_BN
I0218 17:25:28.735198  7189 net.cpp:150] Setting up block4_conv82_BN
I0218 17:25:28.735206  7189 net.cpp:157] Top shape: 64 1024 8 8 (4194304)
I0218 17:25:28.735209  7189 net.cpp:165] Memory required for data: 2997682944
I0218 17:25:28.735219  7189 layer_factory.hpp:76] Creating layer block4_conv82_BN_eltwise
I0218 17:25:28.735225  7189 net.cpp:106] Creating Layer block4_conv82_BN_eltwise
I0218 17:25:28.735229  7189 net.cpp:454] block4_conv82_BN_eltwise <- block4_conv82_BN
I0218 17:25:28.735235  7189 net.cpp:454] block4_conv82_BN_eltwise <- block4_relu76_block4_relu76_0_split_1
I0218 17:25:28.735258  7189 net.cpp:411] block4_conv82_BN_eltwise -> block4_conv82_BN_eltwise
I0218 17:25:28.735299  7189 net.cpp:150] Setting up block4_conv82_BN_eltwise
I0218 17:25:28.735306  7189 net.cpp:157] Top shape: 64 1024 8 8 (4194304)
I0218 17:25:28.735309  7189 net.cpp:165] Memory required for data: 3014460160
I0218 17:25:28.735312  7189 layer_factory.hpp:76] Creating layer block4_relu84
I0218 17:25:28.735322  7189 net.cpp:106] Creating Layer block4_relu84
I0218 17:25:28.735327  7189 net.cpp:454] block4_relu84 <- block4_conv82_BN_eltwise
I0218 17:25:28.735332  7189 net.cpp:411] block4_relu84 -> block4_relu84
I0218 17:25:28.736214  7189 net.cpp:150] Setting up block4_relu84
I0218 17:25:28.736227  7189 net.cpp:157] Top shape: 64 1024 8 8 (4194304)
I0218 17:25:28.736232  7189 net.cpp:165] Memory required for data: 3031237376
I0218 17:25:28.736237  7189 layer_factory.hpp:76] Creating layer block4_relu84_block4_relu84_0_split
I0218 17:25:28.736243  7189 net.cpp:106] Creating Layer block4_relu84_block4_relu84_0_split
I0218 17:25:28.736248  7189 net.cpp:454] block4_relu84_block4_relu84_0_split <- block4_relu84
I0218 17:25:28.736255  7189 net.cpp:411] block4_relu84_block4_relu84_0_split -> block4_relu84_block4_relu84_0_split_0
I0218 17:25:28.736263  7189 net.cpp:411] block4_relu84_block4_relu84_0_split -> block4_relu84_block4_relu84_0_split_1
I0218 17:25:28.736330  7189 net.cpp:150] Setting up block4_relu84_block4_relu84_0_split
I0218 17:25:28.736340  7189 net.cpp:157] Top shape: 64 1024 8 8 (4194304)
I0218 17:25:28.736346  7189 net.cpp:157] Top shape: 64 1024 8 8 (4194304)
I0218 17:25:28.736349  7189 net.cpp:165] Memory required for data: 3064791808
I0218 17:25:28.736352  7189 layer_factory.hpp:76] Creating layer block4_conv86
I0218 17:25:28.736364  7189 net.cpp:106] Creating Layer block4_conv86
I0218 17:25:28.736369  7189 net.cpp:454] block4_conv86 <- block4_relu84_block4_relu84_0_split_0
I0218 17:25:28.736377  7189 net.cpp:411] block4_conv86 -> block4_conv86
I0218 17:25:28.741942  7189 net.cpp:150] Setting up block4_conv86
I0218 17:25:28.741966  7189 net.cpp:157] Top shape: 64 256 8 8 (1048576)
I0218 17:25:28.741969  7189 net.cpp:165] Memory required for data: 3068986112
I0218 17:25:28.741981  7189 layer_factory.hpp:76] Creating layer block4_conv86_BN
I0218 17:25:28.741992  7189 net.cpp:106] Creating Layer block4_conv86_BN
I0218 17:25:28.741999  7189 net.cpp:454] block4_conv86_BN <- block4_conv86
I0218 17:25:28.742008  7189 net.cpp:411] block4_conv86_BN -> block4_conv86_BN
I0218 17:25:28.742393  7189 net.cpp:150] Setting up block4_conv86_BN
I0218 17:25:28.742401  7189 net.cpp:157] Top shape: 64 256 8 8 (1048576)
I0218 17:25:28.742404  7189 net.cpp:165] Memory required for data: 3073180416
I0218 17:25:28.742413  7189 layer_factory.hpp:76] Creating layer block4_relu87
I0218 17:25:28.742421  7189 net.cpp:106] Creating Layer block4_relu87
I0218 17:25:28.742425  7189 net.cpp:454] block4_relu87 <- block4_conv86_BN
I0218 17:25:28.742431  7189 net.cpp:397] block4_relu87 -> block4_conv86_BN (in-place)
I0218 17:25:28.743265  7189 net.cpp:150] Setting up block4_relu87
I0218 17:25:28.743278  7189 net.cpp:157] Top shape: 64 256 8 8 (1048576)
I0218 17:25:28.743281  7189 net.cpp:165] Memory required for data: 3077374720
I0218 17:25:28.743285  7189 layer_factory.hpp:76] Creating layer block4_conv88
I0218 17:25:28.743296  7189 net.cpp:106] Creating Layer block4_conv88
I0218 17:25:28.743301  7189 net.cpp:454] block4_conv88 <- block4_conv86_BN
I0218 17:25:28.743309  7189 net.cpp:411] block4_conv88 -> block4_conv88
I0218 17:25:28.751727  7189 net.cpp:150] Setting up block4_conv88
I0218 17:25:28.751754  7189 net.cpp:157] Top shape: 64 256 8 8 (1048576)
I0218 17:25:28.751760  7189 net.cpp:165] Memory required for data: 3081569024
I0218 17:25:28.751771  7189 layer_factory.hpp:76] Creating layer block4_conv88_BN
I0218 17:25:28.751783  7189 net.cpp:106] Creating Layer block4_conv88_BN
I0218 17:25:28.751790  7189 net.cpp:454] block4_conv88_BN <- block4_conv88
I0218 17:25:28.751801  7189 net.cpp:411] block4_conv88_BN -> block4_conv88_BN
I0218 17:25:28.752213  7189 net.cpp:150] Setting up block4_conv88_BN
I0218 17:25:28.752236  7189 net.cpp:157] Top shape: 64 256 8 8 (1048576)
I0218 17:25:28.752240  7189 net.cpp:165] Memory required for data: 3085763328
I0218 17:25:28.752250  7189 layer_factory.hpp:76] Creating layer block4_relu89
I0218 17:25:28.752259  7189 net.cpp:106] Creating Layer block4_relu89
I0218 17:25:28.752262  7189 net.cpp:454] block4_relu89 <- block4_conv88_BN
I0218 17:25:28.752269  7189 net.cpp:397] block4_relu89 -> block4_conv88_BN (in-place)
I0218 17:25:28.753116  7189 net.cpp:150] Setting up block4_relu89
I0218 17:25:28.753129  7189 net.cpp:157] Top shape: 64 256 8 8 (1048576)
I0218 17:25:28.753134  7189 net.cpp:165] Memory required for data: 3089957632
I0218 17:25:28.753137  7189 layer_factory.hpp:76] Creating layer block4_conv90
I0218 17:25:28.753150  7189 net.cpp:106] Creating Layer block4_conv90
I0218 17:25:28.753155  7189 net.cpp:454] block4_conv90 <- block4_conv88_BN
I0218 17:25:28.753162  7189 net.cpp:411] block4_conv90 -> block4_conv90
I0218 17:25:28.758846  7189 net.cpp:150] Setting up block4_conv90
I0218 17:25:28.758870  7189 net.cpp:157] Top shape: 64 1024 8 8 (4194304)
I0218 17:25:28.758875  7189 net.cpp:165] Memory required for data: 3106734848
I0218 17:25:28.758887  7189 layer_factory.hpp:76] Creating layer block4_conv90_BN
I0218 17:25:28.758898  7189 net.cpp:106] Creating Layer block4_conv90_BN
I0218 17:25:28.758905  7189 net.cpp:454] block4_conv90_BN <- block4_conv90
I0218 17:25:28.758914  7189 net.cpp:411] block4_conv90_BN -> block4_conv90_BN
I0218 17:25:28.759323  7189 net.cpp:150] Setting up block4_conv90_BN
I0218 17:25:28.759332  7189 net.cpp:157] Top shape: 64 1024 8 8 (4194304)
I0218 17:25:28.759336  7189 net.cpp:165] Memory required for data: 3123512064
I0218 17:25:28.759346  7189 layer_factory.hpp:76] Creating layer block4_conv90_BN_eltwise
I0218 17:25:28.759358  7189 net.cpp:106] Creating Layer block4_conv90_BN_eltwise
I0218 17:25:28.759363  7189 net.cpp:454] block4_conv90_BN_eltwise <- block4_conv90_BN
I0218 17:25:28.759369  7189 net.cpp:454] block4_conv90_BN_eltwise <- block4_relu84_block4_relu84_0_split_1
I0218 17:25:28.759377  7189 net.cpp:411] block4_conv90_BN_eltwise -> block4_conv90_BN_eltwise
I0218 17:25:28.759416  7189 net.cpp:150] Setting up block4_conv90_BN_eltwise
I0218 17:25:28.759424  7189 net.cpp:157] Top shape: 64 1024 8 8 (4194304)
I0218 17:25:28.759428  7189 net.cpp:165] Memory required for data: 3140289280
I0218 17:25:28.759433  7189 layer_factory.hpp:76] Creating layer block4_relu92
I0218 17:25:28.759441  7189 net.cpp:106] Creating Layer block4_relu92
I0218 17:25:28.759446  7189 net.cpp:454] block4_relu92 <- block4_conv90_BN_eltwise
I0218 17:25:28.759451  7189 net.cpp:411] block4_relu92 -> block4_relu92
I0218 17:25:28.760378  7189 net.cpp:150] Setting up block4_relu92
I0218 17:25:28.760392  7189 net.cpp:157] Top shape: 64 1024 8 8 (4194304)
I0218 17:25:28.760397  7189 net.cpp:165] Memory required for data: 3157066496
I0218 17:25:28.760401  7189 layer_factory.hpp:76] Creating layer block4_relu92_block4_relu92_0_split
I0218 17:25:28.760409  7189 net.cpp:106] Creating Layer block4_relu92_block4_relu92_0_split
I0218 17:25:28.760413  7189 net.cpp:454] block4_relu92_block4_relu92_0_split <- block4_relu92
I0218 17:25:28.760421  7189 net.cpp:411] block4_relu92_block4_relu92_0_split -> block4_relu92_block4_relu92_0_split_0
I0218 17:25:28.760428  7189 net.cpp:411] block4_relu92_block4_relu92_0_split -> block4_relu92_block4_relu92_0_split_1
I0218 17:25:28.760496  7189 net.cpp:150] Setting up block4_relu92_block4_relu92_0_split
I0218 17:25:28.760504  7189 net.cpp:157] Top shape: 64 1024 8 8 (4194304)
I0218 17:25:28.760510  7189 net.cpp:157] Top shape: 64 1024 8 8 (4194304)
I0218 17:25:28.760514  7189 net.cpp:165] Memory required for data: 3190620928
I0218 17:25:28.760517  7189 layer_factory.hpp:76] Creating layer block4_conv94
I0218 17:25:28.760527  7189 net.cpp:106] Creating Layer block4_conv94
I0218 17:25:28.760532  7189 net.cpp:454] block4_conv94 <- block4_relu92_block4_relu92_0_split_0
I0218 17:25:28.760540  7189 net.cpp:411] block4_conv94 -> block4_conv94
I0218 17:25:28.766155  7189 net.cpp:150] Setting up block4_conv94
I0218 17:25:28.766180  7189 net.cpp:157] Top shape: 64 256 8 8 (1048576)
I0218 17:25:28.766185  7189 net.cpp:165] Memory required for data: 3194815232
I0218 17:25:28.766196  7189 layer_factory.hpp:76] Creating layer block4_conv94_BN
I0218 17:25:28.766206  7189 net.cpp:106] Creating Layer block4_conv94_BN
I0218 17:25:28.766213  7189 net.cpp:454] block4_conv94_BN <- block4_conv94
I0218 17:25:28.766222  7189 net.cpp:411] block4_conv94_BN -> block4_conv94_BN
I0218 17:25:28.766634  7189 net.cpp:150] Setting up block4_conv94_BN
I0218 17:25:28.766644  7189 net.cpp:157] Top shape: 64 256 8 8 (1048576)
I0218 17:25:28.766647  7189 net.cpp:165] Memory required for data: 3199009536
I0218 17:25:28.766656  7189 layer_factory.hpp:76] Creating layer block4_relu95
I0218 17:25:28.766664  7189 net.cpp:106] Creating Layer block4_relu95
I0218 17:25:28.766669  7189 net.cpp:454] block4_relu95 <- block4_conv94_BN
I0218 17:25:28.766675  7189 net.cpp:397] block4_relu95 -> block4_conv94_BN (in-place)
I0218 17:25:28.767511  7189 net.cpp:150] Setting up block4_relu95
I0218 17:25:28.767525  7189 net.cpp:157] Top shape: 64 256 8 8 (1048576)
I0218 17:25:28.767530  7189 net.cpp:165] Memory required for data: 3203203840
I0218 17:25:28.767536  7189 layer_factory.hpp:76] Creating layer block4_conv96
I0218 17:25:28.767547  7189 net.cpp:106] Creating Layer block4_conv96
I0218 17:25:28.767552  7189 net.cpp:454] block4_conv96 <- block4_conv94_BN
I0218 17:25:28.767561  7189 net.cpp:411] block4_conv96 -> block4_conv96
I0218 17:25:28.776087  7189 net.cpp:150] Setting up block4_conv96
I0218 17:25:28.776113  7189 net.cpp:157] Top shape: 64 256 8 8 (1048576)
I0218 17:25:28.776118  7189 net.cpp:165] Memory required for data: 3207398144
I0218 17:25:28.776129  7189 layer_factory.hpp:76] Creating layer block4_conv96_BN
I0218 17:25:28.776142  7189 net.cpp:106] Creating Layer block4_conv96_BN
I0218 17:25:28.776149  7189 net.cpp:454] block4_conv96_BN <- block4_conv96
I0218 17:25:28.776160  7189 net.cpp:411] block4_conv96_BN -> block4_conv96_BN
I0218 17:25:28.776571  7189 net.cpp:150] Setting up block4_conv96_BN
I0218 17:25:28.776581  7189 net.cpp:157] Top shape: 64 256 8 8 (1048576)
I0218 17:25:28.776584  7189 net.cpp:165] Memory required for data: 3211592448
I0218 17:25:28.776593  7189 layer_factory.hpp:76] Creating layer block4_relu97
I0218 17:25:28.776602  7189 net.cpp:106] Creating Layer block4_relu97
I0218 17:25:28.776605  7189 net.cpp:454] block4_relu97 <- block4_conv96_BN
I0218 17:25:28.776612  7189 net.cpp:397] block4_relu97 -> block4_conv96_BN (in-place)
I0218 17:25:28.777577  7189 net.cpp:150] Setting up block4_relu97
I0218 17:25:28.777590  7189 net.cpp:157] Top shape: 64 256 8 8 (1048576)
I0218 17:25:28.777593  7189 net.cpp:165] Memory required for data: 3215786752
I0218 17:25:28.777598  7189 layer_factory.hpp:76] Creating layer block4_conv98
I0218 17:25:28.777609  7189 net.cpp:106] Creating Layer block4_conv98
I0218 17:25:28.777614  7189 net.cpp:454] block4_conv98 <- block4_conv96_BN
I0218 17:25:28.777622  7189 net.cpp:411] block4_conv98 -> block4_conv98
I0218 17:25:28.783336  7189 net.cpp:150] Setting up block4_conv98
I0218 17:25:28.783361  7189 net.cpp:157] Top shape: 64 1024 8 8 (4194304)
I0218 17:25:28.783365  7189 net.cpp:165] Memory required for data: 3232563968
I0218 17:25:28.783376  7189 layer_factory.hpp:76] Creating layer block4_conv98_BN
I0218 17:25:28.783387  7189 net.cpp:106] Creating Layer block4_conv98_BN
I0218 17:25:28.783395  7189 net.cpp:454] block4_conv98_BN <- block4_conv98
I0218 17:25:28.783403  7189 net.cpp:411] block4_conv98_BN -> block4_conv98_BN
I0218 17:25:28.783838  7189 net.cpp:150] Setting up block4_conv98_BN
I0218 17:25:28.783852  7189 net.cpp:157] Top shape: 64 1024 8 8 (4194304)
I0218 17:25:28.783856  7189 net.cpp:165] Memory required for data: 3249341184
I0218 17:25:28.783865  7189 layer_factory.hpp:76] Creating layer block4_conv98_BN_eltwise
I0218 17:25:28.783874  7189 net.cpp:106] Creating Layer block4_conv98_BN_eltwise
I0218 17:25:28.783898  7189 net.cpp:454] block4_conv98_BN_eltwise <- block4_conv98_BN
I0218 17:25:28.783905  7189 net.cpp:454] block4_conv98_BN_eltwise <- block4_relu92_block4_relu92_0_split_1
I0218 17:25:28.783911  7189 net.cpp:411] block4_conv98_BN_eltwise -> block4_conv98_BN_eltwise
I0218 17:25:28.783962  7189 net.cpp:150] Setting up block4_conv98_BN_eltwise
I0218 17:25:28.783969  7189 net.cpp:157] Top shape: 64 1024 8 8 (4194304)
I0218 17:25:28.783972  7189 net.cpp:165] Memory required for data: 3266118400
I0218 17:25:28.783977  7189 layer_factory.hpp:76] Creating layer block4_relu100
I0218 17:25:28.783985  7189 net.cpp:106] Creating Layer block4_relu100
I0218 17:25:28.783989  7189 net.cpp:454] block4_relu100 <- block4_conv98_BN_eltwise
I0218 17:25:28.783995  7189 net.cpp:411] block4_relu100 -> block4_relu100
I0218 17:25:28.784884  7189 net.cpp:150] Setting up block4_relu100
I0218 17:25:28.784898  7189 net.cpp:157] Top shape: 64 1024 8 8 (4194304)
I0218 17:25:28.784903  7189 net.cpp:165] Memory required for data: 3282895616
I0218 17:25:28.784906  7189 layer_factory.hpp:76] Creating layer block4_relu100_block4_relu100_0_split
I0218 17:25:28.784914  7189 net.cpp:106] Creating Layer block4_relu100_block4_relu100_0_split
I0218 17:25:28.784919  7189 net.cpp:454] block4_relu100_block4_relu100_0_split <- block4_relu100
I0218 17:25:28.784924  7189 net.cpp:411] block4_relu100_block4_relu100_0_split -> block4_relu100_block4_relu100_0_split_0
I0218 17:25:28.784932  7189 net.cpp:411] block4_relu100_block4_relu100_0_split -> block4_relu100_block4_relu100_0_split_1
I0218 17:25:28.785004  7189 net.cpp:150] Setting up block4_relu100_block4_relu100_0_split
I0218 17:25:28.785012  7189 net.cpp:157] Top shape: 64 1024 8 8 (4194304)
I0218 17:25:28.785017  7189 net.cpp:157] Top shape: 64 1024 8 8 (4194304)
I0218 17:25:28.785020  7189 net.cpp:165] Memory required for data: 3316450048
I0218 17:25:28.785025  7189 layer_factory.hpp:76] Creating layer block4_conv102
I0218 17:25:28.785035  7189 net.cpp:106] Creating Layer block4_conv102
I0218 17:25:28.785039  7189 net.cpp:454] block4_conv102 <- block4_relu100_block4_relu100_0_split_0
I0218 17:25:28.785048  7189 net.cpp:411] block4_conv102 -> block4_conv102
I0218 17:25:28.790750  7189 net.cpp:150] Setting up block4_conv102
I0218 17:25:28.790772  7189 net.cpp:157] Top shape: 64 256 8 8 (1048576)
I0218 17:25:28.790776  7189 net.cpp:165] Memory required for data: 3320644352
I0218 17:25:28.790787  7189 layer_factory.hpp:76] Creating layer block4_conv102_BN
I0218 17:25:28.790799  7189 net.cpp:106] Creating Layer block4_conv102_BN
I0218 17:25:28.790807  7189 net.cpp:454] block4_conv102_BN <- block4_conv102
I0218 17:25:28.790814  7189 net.cpp:411] block4_conv102_BN -> block4_conv102_BN
I0218 17:25:28.791255  7189 net.cpp:150] Setting up block4_conv102_BN
I0218 17:25:28.791265  7189 net.cpp:157] Top shape: 64 256 8 8 (1048576)
I0218 17:25:28.791268  7189 net.cpp:165] Memory required for data: 3324838656
I0218 17:25:28.791277  7189 layer_factory.hpp:76] Creating layer block4_relu103
I0218 17:25:28.791285  7189 net.cpp:106] Creating Layer block4_relu103
I0218 17:25:28.791290  7189 net.cpp:454] block4_relu103 <- block4_conv102_BN
I0218 17:25:28.791296  7189 net.cpp:397] block4_relu103 -> block4_conv102_BN (in-place)
I0218 17:25:28.792167  7189 net.cpp:150] Setting up block4_relu103
I0218 17:25:28.792179  7189 net.cpp:157] Top shape: 64 256 8 8 (1048576)
I0218 17:25:28.792184  7189 net.cpp:165] Memory required for data: 3329032960
I0218 17:25:28.792188  7189 layer_factory.hpp:76] Creating layer block4_conv104
I0218 17:25:28.792198  7189 net.cpp:106] Creating Layer block4_conv104
I0218 17:25:28.792203  7189 net.cpp:454] block4_conv104 <- block4_conv102_BN
I0218 17:25:28.792212  7189 net.cpp:411] block4_conv104 -> block4_conv104
I0218 17:25:28.800945  7189 net.cpp:150] Setting up block4_conv104
I0218 17:25:28.800972  7189 net.cpp:157] Top shape: 64 256 8 8 (1048576)
I0218 17:25:28.800977  7189 net.cpp:165] Memory required for data: 3333227264
I0218 17:25:28.800989  7189 layer_factory.hpp:76] Creating layer block4_conv104_BN
I0218 17:25:28.801024  7189 net.cpp:106] Creating Layer block4_conv104_BN
I0218 17:25:28.801031  7189 net.cpp:454] block4_conv104_BN <- block4_conv104
I0218 17:25:28.801041  7189 net.cpp:411] block4_conv104_BN -> block4_conv104_BN
I0218 17:25:28.801496  7189 net.cpp:150] Setting up block4_conv104_BN
I0218 17:25:28.801506  7189 net.cpp:157] Top shape: 64 256 8 8 (1048576)
I0218 17:25:28.801509  7189 net.cpp:165] Memory required for data: 3337421568
I0218 17:25:28.801518  7189 layer_factory.hpp:76] Creating layer block4_relu105
I0218 17:25:28.801527  7189 net.cpp:106] Creating Layer block4_relu105
I0218 17:25:28.801530  7189 net.cpp:454] block4_relu105 <- block4_conv104_BN
I0218 17:25:28.801537  7189 net.cpp:397] block4_relu105 -> block4_conv104_BN (in-place)
I0218 17:25:28.802412  7189 net.cpp:150] Setting up block4_relu105
I0218 17:25:28.802423  7189 net.cpp:157] Top shape: 64 256 8 8 (1048576)
I0218 17:25:28.802428  7189 net.cpp:165] Memory required for data: 3341615872
I0218 17:25:28.802433  7189 layer_factory.hpp:76] Creating layer block4_conv106
I0218 17:25:28.802443  7189 net.cpp:106] Creating Layer block4_conv106
I0218 17:25:28.802448  7189 net.cpp:454] block4_conv106 <- block4_conv104_BN
I0218 17:25:28.802456  7189 net.cpp:411] block4_conv106 -> block4_conv106
I0218 17:25:28.808151  7189 net.cpp:150] Setting up block4_conv106
I0218 17:25:28.808174  7189 net.cpp:157] Top shape: 64 1024 8 8 (4194304)
I0218 17:25:28.808179  7189 net.cpp:165] Memory required for data: 3358393088
I0218 17:25:28.808189  7189 layer_factory.hpp:76] Creating layer block4_conv106_BN
I0218 17:25:28.808199  7189 net.cpp:106] Creating Layer block4_conv106_BN
I0218 17:25:28.808205  7189 net.cpp:454] block4_conv106_BN <- block4_conv106
I0218 17:25:28.808215  7189 net.cpp:411] block4_conv106_BN -> block4_conv106_BN
I0218 17:25:28.808684  7189 net.cpp:150] Setting up block4_conv106_BN
I0218 17:25:28.808694  7189 net.cpp:157] Top shape: 64 1024 8 8 (4194304)
I0218 17:25:28.808698  7189 net.cpp:165] Memory required for data: 3375170304
I0218 17:25:28.808707  7189 layer_factory.hpp:76] Creating layer block4_conv106_BN_eltwise
I0218 17:25:28.808717  7189 net.cpp:106] Creating Layer block4_conv106_BN_eltwise
I0218 17:25:28.808722  7189 net.cpp:454] block4_conv106_BN_eltwise <- block4_conv106_BN
I0218 17:25:28.808727  7189 net.cpp:454] block4_conv106_BN_eltwise <- block4_relu100_block4_relu100_0_split_1
I0218 17:25:28.808733  7189 net.cpp:411] block4_conv106_BN_eltwise -> block4_conv106_BN_eltwise
I0218 17:25:28.808779  7189 net.cpp:150] Setting up block4_conv106_BN_eltwise
I0218 17:25:28.808789  7189 net.cpp:157] Top shape: 64 1024 8 8 (4194304)
I0218 17:25:28.808792  7189 net.cpp:165] Memory required for data: 3391947520
I0218 17:25:28.808795  7189 layer_factory.hpp:76] Creating layer block4_relu108
I0218 17:25:28.808802  7189 net.cpp:106] Creating Layer block4_relu108
I0218 17:25:28.808806  7189 net.cpp:454] block4_relu108 <- block4_conv106_BN_eltwise
I0218 17:25:28.808814  7189 net.cpp:411] block4_relu108 -> block4_relu108
I0218 17:25:28.809837  7189 net.cpp:150] Setting up block4_relu108
I0218 17:25:28.809850  7189 net.cpp:157] Top shape: 64 1024 8 8 (4194304)
I0218 17:25:28.809854  7189 net.cpp:165] Memory required for data: 3408724736
I0218 17:25:28.809859  7189 layer_factory.hpp:76] Creating layer block4_conv110
I0218 17:25:28.809870  7189 net.cpp:106] Creating Layer block4_conv110
I0218 17:25:28.809875  7189 net.cpp:454] block4_conv110 <- block4_relu108
I0218 17:25:28.809882  7189 net.cpp:411] block4_conv110 -> block4_conv110
I0218 17:25:28.832566  7189 net.cpp:150] Setting up block4_conv110
I0218 17:25:28.832594  7189 net.cpp:157] Top shape: 64 2048 4 4 (2097152)
I0218 17:25:28.832600  7189 net.cpp:165] Memory required for data: 3417113344
I0218 17:25:28.832613  7189 layer_factory.hpp:76] Creating layer block4_conv110_block4_conv110_0_split
I0218 17:25:28.832624  7189 net.cpp:106] Creating Layer block4_conv110_block4_conv110_0_split
I0218 17:25:28.832633  7189 net.cpp:454] block4_conv110_block4_conv110_0_split <- block4_conv110
I0218 17:25:28.832662  7189 net.cpp:411] block4_conv110_block4_conv110_0_split -> block4_conv110_block4_conv110_0_split_0
I0218 17:25:28.832674  7189 net.cpp:411] block4_conv110_block4_conv110_0_split -> block4_conv110_block4_conv110_0_split_1
I0218 17:25:28.832774  7189 net.cpp:150] Setting up block4_conv110_block4_conv110_0_split
I0218 17:25:28.832785  7189 net.cpp:157] Top shape: 64 2048 4 4 (2097152)
I0218 17:25:28.832790  7189 net.cpp:157] Top shape: 64 2048 4 4 (2097152)
I0218 17:25:28.832794  7189 net.cpp:165] Memory required for data: 3433890560
I0218 17:25:28.832798  7189 layer_factory.hpp:76] Creating layer block5_conv111
I0218 17:25:28.832810  7189 net.cpp:106] Creating Layer block5_conv111
I0218 17:25:28.832814  7189 net.cpp:454] block5_conv111 <- block4_conv110_block4_conv110_0_split_0
I0218 17:25:28.832823  7189 net.cpp:411] block5_conv111 -> block5_conv111
I0218 17:25:28.846237  7189 net.cpp:150] Setting up block5_conv111
I0218 17:25:28.846266  7189 net.cpp:157] Top shape: 64 512 4 4 (524288)
I0218 17:25:28.846271  7189 net.cpp:165] Memory required for data: 3435987712
I0218 17:25:28.846285  7189 layer_factory.hpp:76] Creating layer block5_conv111_BN
I0218 17:25:28.846300  7189 net.cpp:106] Creating Layer block5_conv111_BN
I0218 17:25:28.846308  7189 net.cpp:454] block5_conv111_BN <- block5_conv111
I0218 17:25:28.846318  7189 net.cpp:411] block5_conv111_BN -> block5_conv111_BN
I0218 17:25:28.846832  7189 net.cpp:150] Setting up block5_conv111_BN
I0218 17:25:28.846843  7189 net.cpp:157] Top shape: 64 512 4 4 (524288)
I0218 17:25:28.846846  7189 net.cpp:165] Memory required for data: 3438084864
I0218 17:25:28.846856  7189 layer_factory.hpp:76] Creating layer block5_relu112
I0218 17:25:28.846866  7189 net.cpp:106] Creating Layer block5_relu112
I0218 17:25:28.846871  7189 net.cpp:454] block5_relu112 <- block5_conv111_BN
I0218 17:25:28.846878  7189 net.cpp:397] block5_relu112 -> block5_conv111_BN (in-place)
I0218 17:25:28.847816  7189 net.cpp:150] Setting up block5_relu112
I0218 17:25:28.847831  7189 net.cpp:157] Top shape: 64 512 4 4 (524288)
I0218 17:25:28.847834  7189 net.cpp:165] Memory required for data: 3440182016
I0218 17:25:28.847839  7189 layer_factory.hpp:76] Creating layer block5_conv113
I0218 17:25:28.847857  7189 net.cpp:106] Creating Layer block5_conv113
I0218 17:25:28.847863  7189 net.cpp:454] block5_conv113 <- block5_conv111_BN
I0218 17:25:28.847870  7189 net.cpp:411] block5_conv113 -> block5_conv113
I0218 17:25:28.873467  7189 net.cpp:150] Setting up block5_conv113
I0218 17:25:28.873497  7189 net.cpp:157] Top shape: 64 512 4 4 (524288)
I0218 17:25:28.873502  7189 net.cpp:165] Memory required for data: 3442279168
I0218 17:25:28.873515  7189 layer_factory.hpp:76] Creating layer block5_conv113_BN
I0218 17:25:28.873528  7189 net.cpp:106] Creating Layer block5_conv113_BN
I0218 17:25:28.873536  7189 net.cpp:454] block5_conv113_BN <- block5_conv113
I0218 17:25:28.873546  7189 net.cpp:411] block5_conv113_BN -> block5_conv113_BN
I0218 17:25:28.874068  7189 net.cpp:150] Setting up block5_conv113_BN
I0218 17:25:28.874078  7189 net.cpp:157] Top shape: 64 512 4 4 (524288)
I0218 17:25:28.874083  7189 net.cpp:165] Memory required for data: 3444376320
I0218 17:25:28.874092  7189 layer_factory.hpp:76] Creating layer block5_relu114
I0218 17:25:28.874100  7189 net.cpp:106] Creating Layer block5_relu114
I0218 17:25:28.874106  7189 net.cpp:454] block5_relu114 <- block5_conv113_BN
I0218 17:25:28.874114  7189 net.cpp:397] block5_relu114 -> block5_conv113_BN (in-place)
I0218 17:25:28.875250  7189 net.cpp:150] Setting up block5_relu114
I0218 17:25:28.875263  7189 net.cpp:157] Top shape: 64 512 4 4 (524288)
I0218 17:25:28.875267  7189 net.cpp:165] Memory required for data: 3446473472
…
I0218 17:25:29.226459  7189 net.cpp:106] Creating Layer block4_conv72_BN
I0218 17:25:29.226483  7189 net.cpp:454] block4_conv72_BN <- block4_conv72
I0218 17:25:29.226490  7189 net.cpp:411] block4_conv72_BN -> block4_conv72_BN
I0218 17:25:29.226696  7189 net.cpp:150] Setting up block4_conv72_BN
I0218 17:25:29.226701  7189 net.cpp:157] Top shape: 25 256 8 8 (409600)
I0218 17:25:29.226703  7189 net.cpp:165] Memory required for data: 1107072300
I0218 17:25:29.226709  7189 layer_factory.hpp:76] Creating layer block4_relu73
I0218 17:25:29.226716  7189 net.cpp:106] Creating Layer block4_relu73
I0218 17:25:29.226718  7189 net.cpp:454] block4_relu73 <- block4_conv72_BN
I0218 17:25:29.226722  7189 net.cpp:397] block4_relu73 -> block4_conv72_BN (in-place)
I0218 17:25:29.227462  7189 net.cpp:150] Setting up block4_relu73
I0218 17:25:29.227469  7189 net.cpp:157] Top shape: 25 256 8 8 (409600)
I0218 17:25:29.227473  7189 net.cpp:165] Memory required for data: 1108710700
I0218 17:25:29.227475  7189 layer_factory.hpp:76] Creating layer block4_conv74
I0218 17:25:29.227483  7189 net.cpp:106] Creating Layer block4_conv74
I0218 17:25:29.227486  7189 net.cpp:454] block4_conv74 <- block4_conv72_BN
I0218 17:25:29.227491  7189 net.cpp:411] block4_conv74 -> block4_conv74
I0218 17:25:29.231920  7189 net.cpp:150] Setting up block4_conv74
I0218 17:25:29.231936  7189 net.cpp:157] Top shape: 25 1024 8 8 (1638400)
I0218 17:25:29.231940  7189 net.cpp:165] Memory required for data: 1115264300
I0218 17:25:29.231945  7189 layer_factory.hpp:76] Creating layer block4_conv74_BN
I0218 17:25:29.231953  7189 net.cpp:106] Creating Layer block4_conv74_BN
I0218 17:25:29.231957  7189 net.cpp:454] block4_conv74_BN <- block4_conv74
I0218 17:25:29.231963  7189 net.cpp:411] block4_conv74_BN -> block4_conv74_BN
I0218 17:25:29.232233  7189 net.cpp:150] Setting up block4_conv74_BN
I0218 17:25:29.232239  7189 net.cpp:157] Top shape: 25 1024 8 8 (1638400)
I0218 17:25:29.232241  7189 net.cpp:165] Memory required for data: 1121817900
I0218 17:25:29.232247  7189 layer_factory.hpp:76] Creating layer block4_conv74_BN_eltwise
I0218 17:25:29.232252  7189 net.cpp:106] Creating Layer block4_conv74_BN_eltwise
I0218 17:25:29.232255  7189 net.cpp:454] block4_conv74_BN_eltwise <- block4_conv74_BN
I0218 17:25:29.232259  7189 net.cpp:454] block4_conv74_BN_eltwise <- block4_relu68_block4_relu68_0_split_1
I0218 17:25:29.232264  7189 net.cpp:411] block4_conv74_BN_eltwise -> block4_conv74_BN_eltwise
I0218 17:25:29.232290  7189 net.cpp:150] Setting up block4_conv74_BN_eltwise
I0218 17:25:29.232295  7189 net.cpp:157] Top shape: 25 1024 8 8 (1638400)
I0218 17:25:29.232297  7189 net.cpp:165] Memory required for data: 1128371500
I0218 17:25:29.232300  7189 layer_factory.hpp:76] Creating layer block4_relu76
I0218 17:25:29.232305  7189 net.cpp:106] Creating Layer block4_relu76
I0218 17:25:29.232307  7189 net.cpp:454] block4_relu76 <- block4_conv74_BN_eltwise
I0218 17:25:29.232311  7189 net.cpp:411] block4_relu76 -> block4_relu76
I0218 17:25:29.233077  7189 net.cpp:150] Setting up block4_relu76
I0218 17:25:29.233085  7189 net.cpp:157] Top shape: 25 1024 8 8 (1638400)
I0218 17:25:29.233088  7189 net.cpp:165] Memory required for data: 1134925100
I0218 17:25:29.233090  7189 layer_factory.hpp:76] Creating layer block4_relu76_block4_relu76_0_split
I0218 17:25:29.233096  7189 net.cpp:106] Creating Layer block4_relu76_block4_relu76_0_split
I0218 17:25:29.233099  7189 net.cpp:454] block4_relu76_block4_relu76_0_split <- block4_relu76
I0218 17:25:29.233103  7189 net.cpp:411] block4_relu76_block4_relu76_0_split -> block4_relu76_block4_relu76_0_split_0
I0218 17:25:29.233108  7189 net.cpp:411] block4_relu76_block4_relu76_0_split -> block4_relu76_block4_relu76_0_split_1
I0218 17:25:29.233145  7189 net.cpp:150] Setting up block4_relu76_block4_relu76_0_split
I0218 17:25:29.233150  7189 net.cpp:157] Top shape: 25 1024 8 8 (1638400)
I0218 17:25:29.233153  7189 net.cpp:157] Top shape: 25 1024 8 8 (1638400)
I0218 17:25:29.233155  7189 net.cpp:165] Memory required for data: 1148032300
I0218 17:25:29.233158  7189 layer_factory.hpp:76] Creating layer block4_conv78
I0218 17:25:29.233165  7189 net.cpp:106] Creating Layer block4_conv78
I0218 17:25:29.233180  7189 net.cpp:454] block4_conv78 <- block4_relu76_block4_relu76_0_split_0
I0218 17:25:29.233185  7189 net.cpp:411] block4_conv78 -> block4_conv78
I0218 17:25:29.237558  7189 net.cpp:150] Setting up block4_conv78
I0218 17:25:29.237576  7189 net.cpp:157] Top shape: 25 256 8 8 (409600)
I0218 17:25:29.237578  7189 net.cpp:165] Memory required for data: 1149670700
I0218 17:25:29.237584  7189 layer_factory.hpp:76] Creating layer block4_conv78_BN
I0218 17:25:29.237592  7189 net.cpp:106] Creating Layer block4_conv78_BN
I0218 17:25:29.237596  7189 net.cpp:454] block4_conv78_BN <- block4_conv78
I0218 17:25:29.237601  7189 net.cpp:411] block4_conv78_BN -> block4_conv78_BN
I0218 17:25:29.237814  7189 net.cpp:150] Setting up block4_conv78_BN
I0218 17:25:29.237820  7189 net.cpp:157] Top shape: 25 256 8 8 (409600)
I0218 17:25:29.237823  7189 net.cpp:165] Memory required for data: 1151309100
I0218 17:25:29.237828  7189 layer_factory.hpp:76] Creating layer block4_relu79
I0218 17:25:29.237834  7189 net.cpp:106] Creating Layer block4_relu79
I0218 17:25:29.237838  7189 net.cpp:454] block4_relu79 <- block4_conv78_BN
I0218 17:25:29.237840  7189 net.cpp:397] block4_relu79 -> block4_conv78_BN (in-place)
I0218 17:25:29.238585  7189 net.cpp:150] Setting up block4_relu79
I0218 17:25:29.238595  7189 net.cpp:157] Top shape: 25 256 8 8 (409600)
I0218 17:25:29.238597  7189 net.cpp:165] Memory required for data: 1152947500
I0218 17:25:29.238600  7189 layer_factory.hpp:76] Creating layer block4_conv80
I0218 17:25:29.238607  7189 net.cpp:106] Creating Layer block4_conv80
I0218 17:25:29.238611  7189 net.cpp:454] block4_conv80 <- block4_conv78_BN
I0218 17:25:29.238616  7189 net.cpp:411] block4_conv80 -> block4_conv80
I0218 17:25:29.245246  7189 net.cpp:150] Setting up block4_conv80
I0218 17:25:29.245270  7189 net.cpp:157] Top shape: 25 256 8 8 (409600)
I0218 17:25:29.245272  7189 net.cpp:165] Memory required for data: 1154585900
I0218 17:25:29.245280  7189 layer_factory.hpp:76] Creating layer block4_conv80_BN
I0218 17:25:29.245290  7189 net.cpp:106] Creating Layer block4_conv80_BN
I0218 17:25:29.245296  7189 net.cpp:454] block4_conv80_BN <- block4_conv80
I0218 17:25:29.245301  7189 net.cpp:411] block4_conv80_BN -> block4_conv80_BN
I0218 17:25:29.245518  7189 net.cpp:150] Setting up block4_conv80_BN
I0218 17:25:29.245524  7189 net.cpp:157] Top shape: 25 256 8 8 (409600)
I0218 17:25:29.245527  7189 net.cpp:165] Memory required for data: 1156224300
I0218 17:25:29.245532  7189 layer_factory.hpp:76] Creating layer block4_relu81
I0218 17:25:29.245538  7189 net.cpp:106] Creating Layer block4_relu81
I0218 17:25:29.245542  7189 net.cpp:454] block4_relu81 <- block4_conv80_BN
I0218 17:25:29.245545  7189 net.cpp:397] block4_relu81 -> block4_conv80_BN (in-place)
I0218 17:25:29.246397  7189 net.cpp:150] Setting up block4_relu81
I0218 17:25:29.246407  7189 net.cpp:157] Top shape: 25 256 8 8 (409600)
I0218 17:25:29.246409  7189 net.cpp:165] Memory required for data: 1157862700
I0218 17:25:29.246412  7189 layer_factory.hpp:76] Creating layer block4_conv82
I0218 17:25:29.246420  7189 net.cpp:106] Creating Layer block4_conv82
I0218 17:25:29.246423  7189 net.cpp:454] block4_conv82 <- block4_conv80_BN
I0218 17:25:29.246429  7189 net.cpp:411] block4_conv82 -> block4_conv82
I0218 17:25:29.250772  7189 net.cpp:150] Setting up block4_conv82
I0218 17:25:29.250789  7189 net.cpp:157] Top shape: 25 1024 8 8 (1638400)
I0218 17:25:29.250792  7189 net.cpp:165] Memory required for data: 1164416300
I0218 17:25:29.250798  7189 layer_factory.hpp:76] Creating layer block4_conv82_BN
I0218 17:25:29.250807  7189 net.cpp:106] Creating Layer block4_conv82_BN
I0218 17:25:29.250810  7189 net.cpp:454] block4_conv82_BN <- block4_conv82
I0218 17:25:29.250818  7189 net.cpp:411] block4_conv82_BN -> block4_conv82_BN
I0218 17:25:29.251104  7189 net.cpp:150] Setting up block4_conv82_BN
I0218 17:25:29.251111  7189 net.cpp:157] Top shape: 25 1024 8 8 (1638400)
I0218 17:25:29.251112  7189 net.cpp:165] Memory required for data: 1170969900
I0218 17:25:29.251118  7189 layer_factory.hpp:76] Creating layer block4_conv82_BN_eltwise
I0218 17:25:29.251137  7189 net.cpp:106] Creating Layer block4_conv82_BN_eltwise
I0218 17:25:29.251140  7189 net.cpp:454] block4_conv82_BN_eltwise <- block4_conv82_BN
I0218 17:25:29.251144  7189 net.cpp:454] block4_conv82_BN_eltwise <- block4_relu76_block4_relu76_0_split_1
I0218 17:25:29.251148  7189 net.cpp:411] block4_conv82_BN_eltwise -> block4_conv82_BN_eltwise
I0218 17:25:29.251178  7189 net.cpp:150] Setting up block4_conv82_BN_eltwise
I0218 17:25:29.251183  7189 net.cpp:157] Top shape: 25 1024 8 8 (1638400)
I0218 17:25:29.251184  7189 net.cpp:165] Memory required for data: 1177523500
I0218 17:25:29.251188  7189 layer_factory.hpp:76] Creating layer block4_relu84
I0218 17:25:29.251193  7189 net.cpp:106] Creating Layer block4_relu84
I0218 17:25:29.251194  7189 net.cpp:454] block4_relu84 <- block4_conv82_BN_eltwise
I0218 17:25:29.251199  7189 net.cpp:411] block4_relu84 -> block4_relu84
I0218 17:25:29.251987  7189 net.cpp:150] Setting up block4_relu84
I0218 17:25:29.251997  7189 net.cpp:157] Top shape: 25 1024 8 8 (1638400)
I0218 17:25:29.252001  7189 net.cpp:165] Memory required for data: 1184077100
I0218 17:25:29.252002  7189 layer_factory.hpp:76] Creating layer block4_relu84_block4_relu84_0_split
I0218 17:25:29.252007  7189 net.cpp:106] Creating Layer block4_relu84_block4_relu84_0_split
I0218 17:25:29.252010  7189 net.cpp:454] block4_relu84_block4_relu84_0_split <- block4_relu84
I0218 17:25:29.252015  7189 net.cpp:411] block4_relu84_block4_relu84_0_split -> block4_relu84_block4_relu84_0_split_0
I0218 17:25:29.252022  7189 net.cpp:411] block4_relu84_block4_relu84_0_split -> block4_relu84_block4_relu84_0_split_1
I0218 17:25:29.252060  7189 net.cpp:150] Setting up block4_relu84_block4_relu84_0_split
I0218 17:25:29.252066  7189 net.cpp:157] Top shape: 25 1024 8 8 (1638400)
I0218 17:25:29.252069  7189 net.cpp:157] Top shape: 25 1024 8 8 (1638400)
I0218 17:25:29.252071  7189 net.cpp:165] Memory required for data: 1197184300
I0218 17:25:29.252074  7189 layer_factory.hpp:76] Creating layer block4_conv86
I0218 17:25:29.252080  7189 net.cpp:106] Creating Layer block4_conv86
I0218 17:25:29.252084  7189 net.cpp:454] block4_conv86 <- block4_relu84_block4_relu84_0_split_0
I0218 17:25:29.252089  7189 net.cpp:411] block4_conv86 -> block4_conv86
I0218 17:25:29.256513  7189 net.cpp:150] Setting up block4_conv86
I0218 17:25:29.256531  7189 net.cpp:157] Top shape: 25 256 8 8 (409600)
I0218 17:25:29.256533  7189 net.cpp:165] Memory required for data: 1198822700
I0218 17:25:29.256541  7189 layer_factory.hpp:76] Creating layer block4_conv86_BN
I0218 17:25:29.256546  7189 net.cpp:106] Creating Layer block4_conv86_BN
I0218 17:25:29.256551  7189 net.cpp:454] block4_conv86_BN <- block4_conv86
I0218 17:25:29.256556  7189 net.cpp:411] block4_conv86_BN -> block4_conv86_BN
I0218 17:25:29.256783  7189 net.cpp:150] Setting up block4_conv86_BN
I0218 17:25:29.256789  7189 net.cpp:157] Top shape: 25 256 8 8 (409600)
I0218 17:25:29.256791  7189 net.cpp:165] Memory required for data: 1200461100
I0218 17:25:29.256796  7189 layer_factory.hpp:76] Creating layer block4_relu87
I0218 17:25:29.256808  7189 net.cpp:106] Creating Layer block4_relu87
I0218 17:25:29.256810  7189 net.cpp:454] block4_relu87 <- block4_conv86_BN
I0218 17:25:29.256814  7189 net.cpp:397] block4_relu87 -> block4_conv86_BN (in-place)
I0218 17:25:29.257565  7189 net.cpp:150] Setting up block4_relu87
I0218 17:25:29.257573  7189 net.cpp:157] Top shape: 25 256 8 8 (409600)
I0218 17:25:29.257576  7189 net.cpp:165] Memory required for data: 1202099500
I0218 17:25:29.257580  7189 layer_factory.hpp:76] Creating layer block4_conv88
I0218 17:25:29.257587  7189 net.cpp:106] Creating Layer block4_conv88
I0218 17:25:29.257591  7189 net.cpp:454] block4_conv88 <- block4_conv86_BN
I0218 17:25:29.257596  7189 net.cpp:411] block4_conv88 -> block4_conv88
I0218 17:25:29.264299  7189 net.cpp:150] Setting up block4_conv88
I0218 17:25:29.264323  7189 net.cpp:157] Top shape: 25 256 8 8 (409600)
I0218 17:25:29.264327  7189 net.cpp:165] Memory required for data: 1203737900
I0218 17:25:29.264353  7189 layer_factory.hpp:76] Creating layer block4_conv88_BN
I0218 17:25:29.264364  7189 net.cpp:106] Creating Layer block4_conv88_BN
I0218 17:25:29.264369  7189 net.cpp:454] block4_conv88_BN <- block4_conv88
I0218 17:25:29.264375  7189 net.cpp:411] block4_conv88_BN -> block4_conv88_BN
I0218 17:25:29.264608  7189 net.cpp:150] Setting up block4_conv88_BN
I0218 17:25:29.264616  7189 net.cpp:157] Top shape: 25 256 8 8 (409600)
I0218 17:25:29.264617  7189 net.cpp:165] Memory required for data: 1205376300
I0218 17:25:29.264622  7189 layer_factory.hpp:76] Creating layer block4_relu89
I0218 17:25:29.264629  7189 net.cpp:106] Creating Layer block4_relu89
I0218 17:25:29.264632  7189 net.cpp:454] block4_relu89 <- block4_conv88_BN
I0218 17:25:29.264636  7189 net.cpp:397] block4_relu89 -> block4_conv88_BN (in-place)
I0218 17:25:29.265391  7189 net.cpp:150] Setting up block4_relu89
I0218 17:25:29.265400  7189 net.cpp:157] Top shape: 25 256 8 8 (409600)
I0218 17:25:29.265403  7189 net.cpp:165] Memory required for data: 1207014700
I0218 17:25:29.265405  7189 layer_factory.hpp:76] Creating layer block4_conv90
I0218 17:25:29.265414  7189 net.cpp:106] Creating Layer block4_conv90
I0218 17:25:29.265418  7189 net.cpp:454] block4_conv90 <- block4_conv88_BN
I0218 17:25:29.265422  7189 net.cpp:411] block4_conv90 -> block4_conv90
I0218 17:25:29.269805  7189 net.cpp:150] Setting up block4_conv90
I0218 17:25:29.269822  7189 net.cpp:157] Top shape: 25 1024 8 8 (1638400)
I0218 17:25:29.269825  7189 net.cpp:165] Memory required for data: 1213568300
I0218 17:25:29.269831  7189 layer_factory.hpp:76] Creating layer block4_conv90_BN
I0218 17:25:29.269840  7189 net.cpp:106] Creating Layer block4_conv90_BN
I0218 17:25:29.269845  7189 net.cpp:454] block4_conv90_BN <- block4_conv90
I0218 17:25:29.269850  7189 net.cpp:411] block4_conv90_BN -> block4_conv90_BN
I0218 17:25:29.270150  7189 net.cpp:150] Setting up block4_conv90_BN
I0218 17:25:29.270156  7189 net.cpp:157] Top shape: 25 1024 8 8 (1638400)
I0218 17:25:29.270159  7189 net.cpp:165] Memory required for data: 1220121900
I0218 17:25:29.270164  7189 layer_factory.hpp:76] Creating layer block4_conv90_BN_eltwise
I0218 17:25:29.270174  7189 net.cpp:106] Creating Layer block4_conv90_BN_eltwise
I0218 17:25:29.270176  7189 net.cpp:454] block4_conv90_BN_eltwise <- block4_conv90_BN
I0218 17:25:29.270180  7189 net.cpp:454] block4_conv90_BN_eltwise <- block4_relu84_block4_relu84_0_split_1
I0218 17:25:29.270184  7189 net.cpp:411] block4_conv90_BN_eltwise -> block4_conv90_BN_eltwise
I0218 17:25:29.270213  7189 net.cpp:150] Setting up block4_conv90_BN_eltwise
I0218 17:25:29.270218  7189 net.cpp:157] Top shape: 25 1024 8 8 (1638400)
I0218 17:25:29.270220  7189 net.cpp:165] Memory required for data: 1226675500
I0218 17:25:29.270223  7189 layer_factory.hpp:76] Creating layer block4_relu92
I0218 17:25:29.270228  7189 net.cpp:106] Creating Layer block4_relu92
I0218 17:25:29.270231  7189 net.cpp:454] block4_relu92 <- block4_conv90_BN_eltwise
I0218 17:25:29.270236  7189 net.cpp:411] block4_relu92 -> block4_relu92
I0218 17:25:29.271136  7189 net.cpp:150] Setting up block4_relu92
I0218 17:25:29.271143  7189 net.cpp:157] Top shape: 25 1024 8 8 (1638400)
I0218 17:25:29.271147  7189 net.cpp:165] Memory required for data: 1233229100
I0218 17:25:29.271149  7189 layer_factory.hpp:76] Creating layer block4_relu92_block4_relu92_0_split
I0218 17:25:29.271154  7189 net.cpp:106] Creating Layer block4_relu92_block4_relu92_0_split
I0218 17:25:29.271158  7189 net.cpp:454] block4_relu92_block4_relu92_0_split <- block4_relu92
I0218 17:25:29.271162  7189 net.cpp:411] block4_relu92_block4_relu92_0_split -> block4_relu92_block4_relu92_0_split_0
I0218 17:25:29.271167  7189 net.cpp:411] block4_relu92_block4_relu92_0_split -> block4_relu92_block4_relu92_0_split_1
I0218 17:25:29.271209  7189 net.cpp:150] Setting up block4_relu92_block4_relu92_0_split
I0218 17:25:29.271214  7189 net.cpp:157] Top shape: 25 1024 8 8 (1638400)
I0218 17:25:29.271216  7189 net.cpp:157] Top shape: 25 1024 8 8 (1638400)
I0218 17:25:29.271230  7189 net.cpp:165] Memory required for data: 1246336300
I0218 17:25:29.271232  7189 layer_factory.hpp:76] Creating layer block4_conv94
I0218 17:25:29.271239  7189 net.cpp:106] Creating Layer block4_conv94
I0218 17:25:29.271242  7189 net.cpp:454] block4_conv94 <- block4_relu92_block4_relu92_0_split_0
I0218 17:25:29.271247  7189 net.cpp:411] block4_conv94 -> block4_conv94
I0218 17:25:29.275605  7189 net.cpp:150] Setting up block4_conv94
I0218 17:25:29.275621  7189 net.cpp:157] Top shape: 25 256 8 8 (409600)
I0218 17:25:29.275624  7189 net.cpp:165] Memory required for data: 1247974700
I0218 17:25:29.275631  7189 layer_factory.hpp:76] Creating layer block4_conv94_BN
I0218 17:25:29.275640  7189 net.cpp:106] Creating Layer block4_conv94_BN
I0218 17:25:29.275643  7189 net.cpp:454] block4_conv94_BN <- block4_conv94
I0218 17:25:29.275650  7189 net.cpp:411] block4_conv94_BN -> block4_conv94_BN
I0218 17:25:29.275887  7189 net.cpp:150] Setting up block4_conv94_BN
I0218 17:25:29.275893  7189 net.cpp:157] Top shape: 25 256 8 8 (409600)
I0218 17:25:29.275897  7189 net.cpp:165] Memory required for data: 1249613100
I0218 17:25:29.275902  7189 layer_factory.hpp:76] Creating layer block4_relu95
I0218 17:25:29.275907  7189 net.cpp:106] Creating Layer block4_relu95
I0218 17:25:29.275909  7189 net.cpp:454] block4_relu95 <- block4_conv94_BN
I0218 17:25:29.275913  7189 net.cpp:397] block4_relu95 -> block4_conv94_BN (in-place)
I0218 17:25:29.276665  7189 net.cpp:150] Setting up block4_relu95
I0218 17:25:29.276674  7189 net.cpp:157] Top shape: 25 256 8 8 (409600)
I0218 17:25:29.276676  7189 net.cpp:165] Memory required for data: 1251251500
I0218 17:25:29.276679  7189 layer_factory.hpp:76] Creating layer block4_conv96
I0218 17:25:29.276689  7189 net.cpp:106] Creating Layer block4_conv96
I0218 17:25:29.276691  7189 net.cpp:454] block4_conv96 <- block4_conv94_BN
I0218 17:25:29.276695  7189 net.cpp:411] block4_conv96 -> block4_conv96
I0218 17:25:29.283396  7189 net.cpp:150] Setting up block4_conv96
I0218 17:25:29.283418  7189 net.cpp:157] Top shape: 25 256 8 8 (409600)
I0218 17:25:29.283421  7189 net.cpp:165] Memory required for data: 1252889900
I0218 17:25:29.283431  7189 layer_factory.hpp:76] Creating layer block4_conv96_BN
I0218 17:25:29.283440  7189 net.cpp:106] Creating Layer block4_conv96_BN
I0218 17:25:29.283447  7189 net.cpp:454] block4_conv96_BN <- block4_conv96
I0218 17:25:29.283452  7189 net.cpp:411] block4_conv96_BN -> block4_conv96_BN
I0218 17:25:29.283686  7189 net.cpp:150] Setting up block4_conv96_BN
I0218 17:25:29.283692  7189 net.cpp:157] Top shape: 25 256 8 8 (409600)
I0218 17:25:29.283694  7189 net.cpp:165] Memory required for data: 1254528300
I0218 17:25:29.283700  7189 layer_factory.hpp:76] Creating layer block4_relu97
I0218 17:25:29.283705  7189 net.cpp:106] Creating Layer block4_relu97
I0218 17:25:29.283710  7189 net.cpp:454] block4_relu97 <- block4_conv96_BN
I0218 17:25:29.283712  7189 net.cpp:397] block4_relu97 -> block4_conv96_BN (in-place)
I0218 17:25:29.284476  7189 net.cpp:150] Setting up block4_relu97
I0218 17:25:29.284485  7189 net.cpp:157] Top shape: 25 256 8 8 (409600)
I0218 17:25:29.284487  7189 net.cpp:165] Memory required for data: 1256166700
I0218 17:25:29.284490  7189 layer_factory.hpp:76] Creating layer block4_conv98
I0218 17:25:29.284499  7189 net.cpp:106] Creating Layer block4_conv98
I0218 17:25:29.284502  7189 net.cpp:454] block4_conv98 <- block4_conv96_BN
I0218 17:25:29.284507  7189 net.cpp:411] block4_conv98 -> block4_conv98
I0218 17:25:29.289134  7189 net.cpp:150] Setting up block4_conv98
I0218 17:25:29.289154  7189 net.cpp:157] Top shape: 25 1024 8 8 (1638400)
I0218 17:25:29.289156  7189 net.cpp:165] Memory required for data: 1262720300
I0218 17:25:29.289165  7189 layer_factory.hpp:76] Creating layer block4_conv98_BN
I0218 17:25:29.289171  7189 net.cpp:106] Creating Layer block4_conv98_BN
I0218 17:25:29.289175  7189 net.cpp:454] block4_conv98_BN <- block4_conv98
I0218 17:25:29.289181  7189 net.cpp:411] block4_conv98_BN -> block4_conv98_BN
I0218 17:25:29.289489  7189 net.cpp:150] Setting up block4_conv98_BN
I0218 17:25:29.289510  7189 net.cpp:157] Top shape: 25 1024 8 8 (1638400)
I0218 17:25:29.289511  7189 net.cpp:165] Memory required for data: 1269273900
I0218 17:25:29.289517  7189 layer_factory.hpp:76] Creating layer block4_conv98_BN_eltwise
I0218 17:25:29.289523  7189 net.cpp:106] Creating Layer block4_conv98_BN_eltwise
I0218 17:25:29.289526  7189 net.cpp:454] block4_conv98_BN_eltwise <- block4_conv98_BN
I0218 17:25:29.289530  7189 net.cpp:454] block4_conv98_BN_eltwise <- block4_relu92_block4_relu92_0_split_1
I0218 17:25:29.289535  7189 net.cpp:411] block4_conv98_BN_eltwise -> block4_conv98_BN_eltwise
I0218 17:25:29.289571  7189 net.cpp:150] Setting up block4_conv98_BN_eltwise
I0218 17:25:29.289577  7189 net.cpp:157] Top shape: 25 1024 8 8 (1638400)
I0218 17:25:29.289578  7189 net.cpp:165] Memory required for data: 1275827500
I0218 17:25:29.289582  7189 layer_factory.hpp:76] Creating layer block4_relu100
I0218 17:25:29.289587  7189 net.cpp:106] Creating Layer block4_relu100
I0218 17:25:29.289590  7189 net.cpp:454] block4_relu100 <- block4_conv98_BN_eltwise
I0218 17:25:29.289594  7189 net.cpp:411] block4_relu100 -> block4_relu100
I0218 17:25:29.290390  7189 net.cpp:150] Setting up block4_relu100
I0218 17:25:29.290400  7189 net.cpp:157] Top shape: 25 1024 8 8 (1638400)
I0218 17:25:29.290401  7189 net.cpp:165] Memory required for data: 1282381100
I0218 17:25:29.290405  7189 layer_factory.hpp:76] Creating layer block4_relu100_block4_relu100_0_split
I0218 17:25:29.290411  7189 net.cpp:106] Creating Layer block4_relu100_block4_relu100_0_split
I0218 17:25:29.290415  7189 net.cpp:454] block4_relu100_block4_relu100_0_split <- block4_relu100
I0218 17:25:29.290418  7189 net.cpp:411] block4_relu100_block4_relu100_0_split -> block4_relu100_block4_relu100_0_split_0
I0218 17:25:29.290424  7189 net.cpp:411] block4_relu100_block4_relu100_0_split -> block4_relu100_block4_relu100_0_split_1
I0218 17:25:29.290467  7189 net.cpp:150] Setting up block4_relu100_block4_relu100_0_split
I0218 17:25:29.290472  7189 net.cpp:157] Top shape: 25 1024 8 8 (1638400)
I0218 17:25:29.290474  7189 net.cpp:157] Top shape: 25 1024 8 8 (1638400)
I0218 17:25:29.290477  7189 net.cpp:165] Memory required for data: 1295488300
I0218 17:25:29.290479  7189 layer_factory.hpp:76] Creating layer block4_conv102
I0218 17:25:29.290488  7189 net.cpp:106] Creating Layer block4_conv102
I0218 17:25:29.290490  7189 net.cpp:454] block4_conv102 <- block4_relu100_block4_relu100_0_split_0
I0218 17:25:29.290498  7189 net.cpp:411] block4_conv102 -> block4_conv102
I0218 17:25:29.295013  7189 net.cpp:150] Setting up block4_conv102
I0218 17:25:29.295032  7189 net.cpp:157] Top shape: 25 256 8 8 (409600)
I0218 17:25:29.295035  7189 net.cpp:165] Memory required for data: 1297126700
I0218 17:25:29.295042  7189 layer_factory.hpp:76] Creating layer block4_conv102_BN
I0218 17:25:29.295050  7189 net.cpp:106] Creating Layer block4_conv102_BN
I0218 17:25:29.295054  7189 net.cpp:454] block4_conv102_BN <- block4_conv102
I0218 17:25:29.295060  7189 net.cpp:411] block4_conv102_BN -> block4_conv102_BN
I0218 17:25:29.295305  7189 net.cpp:150] Setting up block4_conv102_BN
I0218 17:25:29.295310  7189 net.cpp:157] Top shape: 25 256 8 8 (409600)
I0218 17:25:29.295313  7189 net.cpp:165] Memory required for data: 1298765100
I0218 17:25:29.295318  7189 layer_factory.hpp:76] Creating layer block4_relu103
I0218 17:25:29.295323  7189 net.cpp:106] Creating Layer block4_relu103
I0218 17:25:29.295326  7189 net.cpp:454] block4_relu103 <- block4_conv102_BN
I0218 17:25:29.295330  7189 net.cpp:397] block4_relu103 -> block4_conv102_BN (in-place)
I0218 17:25:29.296092  7189 net.cpp:150] Setting up block4_relu103
I0218 17:25:29.296102  7189 net.cpp:157] Top shape: 25 256 8 8 (409600)
I0218 17:25:29.296103  7189 net.cpp:165] Memory required for data: 1300403500
I0218 17:25:29.296106  7189 layer_factory.hpp:76] Creating layer block4_conv104
I0218 17:25:29.296114  7189 net.cpp:106] Creating Layer block4_conv104
I0218 17:25:29.296118  7189 net.cpp:454] block4_conv104 <- block4_conv102_BN
I0218 17:25:29.296123  7189 net.cpp:411] block4_conv104 -> block4_conv104
I0218 17:25:29.302922  7189 net.cpp:150] Setting up block4_conv104
I0218 17:25:29.302945  7189 net.cpp:157] Top shape: 25 256 8 8 (409600)
I0218 17:25:29.302948  7189 net.cpp:165] Memory required for data: 1302041900
I0218 17:25:29.302956  7189 layer_factory.hpp:76] Creating layer block4_conv104_BN
I0218 17:25:29.302965  7189 net.cpp:106] Creating Layer block4_conv104_BN
I0218 17:25:29.302970  7189 net.cpp:454] block4_conv104_BN <- block4_conv104
I0218 17:25:29.302978  7189 net.cpp:411] block4_conv104_BN -> block4_conv104_BN
I0218 17:25:29.303227  7189 net.cpp:150] Setting up block4_conv104_BN
I0218 17:25:29.303233  7189 net.cpp:157] Top shape: 25 256 8 8 (409600)
I0218 17:25:29.303236  7189 net.cpp:165] Memory required for data: 1303680300
I0218 17:25:29.303241  7189 layer_factory.hpp:76] Creating layer block4_relu105
I0218 17:25:29.303246  7189 net.cpp:106] Creating Layer block4_relu105
I0218 17:25:29.303249  7189 net.cpp:454] block4_relu105 <- block4_conv104_BN
I0218 17:25:29.303253  7189 net.cpp:397] block4_relu105 -> block4_conv104_BN (in-place)
I0218 17:25:29.304026  7189 net.cpp:150] Setting up block4_relu105
I0218 17:25:29.304038  7189 net.cpp:157] Top shape: 25 256 8 8 (409600)
I0218 17:25:29.304040  7189 net.cpp:165] Memory required for data: 1305318700
I0218 17:25:29.304044  7189 layer_factory.hpp:76] Creating layer block4_conv106
I0218 17:25:29.304050  7189 net.cpp:106] Creating Layer block4_conv106
I0218 17:25:29.304054  7189 net.cpp:454] block4_conv106 <- block4_conv104_BN
I0218 17:25:29.304059  7189 net.cpp:411] block4_conv106 -> block4_conv106
I0218 17:25:29.308646  7189 net.cpp:150] Setting up block4_conv106
I0218 17:25:29.308665  7189 net.cpp:157] Top shape: 25 1024 8 8 (1638400)
I0218 17:25:29.308667  7189 net.cpp:165] Memory required for data: 1311872300
I0218 17:25:29.308675  7189 layer_factory.hpp:76] Creating layer block4_conv106_BN
I0218 17:25:29.308682  7189 net.cpp:106] Creating Layer block4_conv106_BN
I0218 17:25:29.308686  7189 net.cpp:454] block4_conv106_BN <- block4_conv106
I0218 17:25:29.308692  7189 net.cpp:411] block4_conv106_BN -> block4_conv106_BN
I0218 17:25:29.309020  7189 net.cpp:150] Setting up block4_conv106_BN
I0218 17:25:29.309026  7189 net.cpp:157] Top shape: 25 1024 8 8 (1638400)
I0218 17:25:29.309028  7189 net.cpp:165] Memory required for data: 1318425900
I0218 17:25:29.309034  7189 layer_factory.hpp:76] Creating layer block4_conv106_BN_eltwise
I0218 17:25:29.309039  7189 net.cpp:106] Creating Layer block4_conv106_BN_eltwise
I0218 17:25:29.309042  7189 net.cpp:454] block4_conv106_BN_eltwise <- block4_conv106_BN
I0218 17:25:29.309047  7189 net.cpp:454] block4_conv106_BN_eltwise <- block4_relu100_block4_relu100_0_split_1
I0218 17:25:29.309051  7189 net.cpp:411] block4_conv106_BN_eltwise -> block4_conv106_BN_eltwise
I0218 17:25:29.309082  7189 net.cpp:150] Setting up block4_conv106_BN_eltwise
I0218 17:25:29.309088  7189 net.cpp:157] Top shape: 25 1024 8 8 (1638400)
I0218 17:25:29.309090  7189 net.cpp:165] Memory required for data: 1324979500
I0218 17:25:29.309092  7189 layer_factory.hpp:76] Creating layer block4_relu108
I0218 17:25:29.309098  7189 net.cpp:106] Creating Layer block4_relu108
I0218 17:25:29.309100  7189 net.cpp:454] block4_relu108 <- block4_conv106_BN_eltwise
I0218 17:25:29.309104  7189 net.cpp:411] block4_relu108 -> block4_relu108
I0218 17:25:29.309903  7189 net.cpp:150] Setting up block4_relu108
I0218 17:25:29.309911  7189 net.cpp:157] Top shape: 25 1024 8 8 (1638400)
I0218 17:25:29.309914  7189 net.cpp:165] Memory required for data: 1331533100
I0218 17:25:29.309917  7189 layer_factory.hpp:76] Creating layer block4_conv110
I0218 17:25:29.309924  7189 net.cpp:106] Creating Layer block4_conv110
I0218 17:25:29.309927  7189 net.cpp:454] block4_conv110 <- block4_relu108
I0218 17:25:29.309933  7189 net.cpp:411] block4_conv110 -> block4_conv110
I0218 17:25:29.326746  7189 net.cpp:150] Setting up block4_conv110
I0218 17:25:29.326771  7189 net.cpp:157] Top shape: 25 2048 4 4 (819200)
I0218 17:25:29.326776  7189 net.cpp:165] Memory required for data: 1334809900
I0218 17:25:29.326803  7189 layer_factory.hpp:76] Creating layer block4_conv110_block4_conv110_0_split
I0218 17:25:29.326812  7189 net.cpp:106] Creating Layer block4_conv110_block4_conv110_0_split
I0218 17:25:29.326817  7189 net.cpp:454] block4_conv110_block4_conv110_0_split <- block4_conv110
I0218 17:25:29.326823  7189 net.cpp:411] block4_conv110_block4_conv110_0_split -> block4_conv110_block4_conv110_0_split_0
I0218 17:25:29.326831  7189 net.cpp:411] block4_conv110_block4_conv110_0_split -> block4_conv110_block4_conv110_0_split_1
I0218 17:25:29.326887  7189 net.cpp:150] Setting up block4_conv110_block4_conv110_0_split
I0218 17:25:29.326892  7189 net.cpp:157] Top shape: 25 2048 4 4 (819200)
I0218 17:25:29.326895  7189 net.cpp:157] Top shape: 25 2048 4 4 (819200)
I0218 17:25:29.326897  7189 net.cpp:165] Memory required for data: 1341363500
I0218 17:25:29.326900  7189 layer_factory.hpp:76] Creating layer block5_conv111
I0218 17:25:29.326908  7189 net.cpp:106] Creating Layer block5_conv111
I0218 17:25:29.326911  7189 net.cpp:454] block5_conv111 <- block4_conv110_block4_conv110_0_split_0
I0218 17:25:29.326916  7189 net.cpp:411] block5_conv111 -> block5_conv111
I0218 17:25:29.336935  7189 net.cpp:150] Setting up block5_conv111
I0218 17:25:29.336959  7189 net.cpp:157] Top shape: 25 512 4 4 (204800)
I0218 17:25:29.336962  7189 net.cpp:165] Memory required for data: 1342182700
I0218 17:25:29.336971  7189 layer_factory.hpp:76] Creating layer block5_conv111_BN
I0218 17:25:29.336980  7189 net.cpp:106] Creating Layer block5_conv111_BN
I0218 17:25:29.336985  7189 net.cpp:454] block5_conv111_BN <- block5_conv111
I0218 17:25:29.336992  7189 net.cpp:411] block5_conv111_BN -> block5_conv111_BN
I0218 17:25:29.337332  7189 net.cpp:150] Setting up block5_conv111_BN
I0218 17:25:29.337338  7189 net.cpp:157] Top shape: 25 512 4 4 (204800)
I0218 17:25:29.337342  7189 net.cpp:165] Memory required for data: 1343001900
I0218 17:25:29.337347  7189 layer_factory.hpp:76] Creating layer block5_relu112
I0218 17:25:29.337352  7189 net.cpp:106] Creating Layer block5_relu112
I0218 17:25:29.337355  7189 net.cpp:454] block5_relu112 <- block5_conv111_BN
I0218 17:25:29.337360  7189 net.cpp:397] block5_relu112 -> block5_conv111_BN (in-place)
I0218 17:25:29.338136  7189 net.cpp:150] Setting up block5_relu112
I0218 17:25:29.338145  7189 net.cpp:157] Top shape: 25 512 4 4 (204800)
I0218 17:25:29.338147  7189 net.cpp:165] Memory required for data: 1343821100
I0218 17:25:29.338150  7189 layer_factory.hpp:76] Creating layer block5_conv113
I0218 17:25:29.338160  7189 net.cpp:106] Creating Layer block5_conv113
I0218 17:25:29.338162  7189 net.cpp:454] block5_conv113 <- block5_conv111_BN
I0218 17:25:29.338167  7189 net.cpp:411] block5_conv113 -> block5_conv113
I0218 17:25:29.356801  7189 net.cpp:150] Setting up block5_conv113
I0218 17:25:29.356827  7189 net.cpp:157] Top shape: 25 512 4 4 (204800)
I0218 17:25:29.356829  7189 net.cpp:165] Memory required for data: 1344640300
I0218 17:25:29.356837  7189 layer_factory.hpp:76] Creating layer block5_conv113_BN
I0218 17:25:29.356848  7189 net.cpp:106] Creating Layer block5_conv113_BN
I0218 17:25:29.356853  7189 net.cpp:454] block5_conv113_BN <- block5_conv113
I0218 17:25:29.356859  7189 net.cpp:411] block5_conv113_BN -> block5_conv113_BN
I0218 17:25:29.357206  7189 net.cpp:150] Setting up block5_conv113_BN
I0218 17:25:29.357213  7189 net.cpp:157] Top shape: 25 512 4 4 (204800)
I0218 17:25:29.357214  7189 net.cpp:165] Memory required for data: 1345459500
I0218 17:25:29.357220  7189 layer_factory.hpp:76] Creating layer block5_relu114
I0218 17:25:29.357226  7189 net.cpp:106] Creating Layer block5_relu114
I0218 17:25:29.357229  7189 net.cpp:454] block5_relu114 <- block5_conv113_BN
I0218 17:25:29.357234  7189 net.cpp:397] block5_relu114 -> block5_conv113_BN (in-place)
I0218 17:25:29.358021  7189 net.cpp:150] Setting up block5_relu114
I0218 17:25:29.358029  7189 net.cpp:157] Top shape: 25 512 4 4 (204800)
I0218 17:25:29.358031  7189 net.cpp:165] Memory required for data: 1346278700
I0218 17:25:29.358047  7189 layer_factory.hpp:76] Creating layer block5_conv115
I0218 17:25:29.358055  7189 net.cpp:106] Creating Layer block5_conv115
I0218 17:25:29.358058  7189 net.cpp:454] block5_conv115 <- block5_conv113_BN
I0218 17:25:29.358063  7189 net.cpp:411] block5_conv115 -> block5_conv115
I0218 17:25:29.368163  7189 net.cpp:150] Setting up block5_conv115
I0218 17:25:29.368188  7189 net.cpp:157] Top shape: 25 2048 4 4 (819200)
I0218 17:25:29.368191  7189 net.cpp:165] Memory required for data: 1349555500
I0218 17:25:29.368201  7189 layer_factory.hpp:76] Creating layer block5_conv115_BN
I0218 17:25:29.368211  7189 net.cpp:106] Creating Layer block5_conv115_BN
I0218 17:25:29.368216  7189 net.cpp:454] block5_conv115_BN <- block5_conv115
I0218 17:25:29.368221  7189 net.cpp:411] block5_conv115_BN -> block5_conv115_BN
I0218 17:25:29.368576  7189 net.cpp:150] Setting up block5_conv115_BN
I0218 17:25:29.368582  7189 net.cpp:157] Top shape: 25 2048 4 4 (819200)
I0218 17:25:29.368584  7189 net.cpp:165] Memory required for data: 1352832300
I0218 17:25:29.368589  7189 layer_factory.hpp:76] Creating layer block5_conv115_BN_eltwise
I0218 17:25:29.368595  7189 net.cpp:106] Creating Layer block5_conv115_BN_eltwise
I0218 17:25:29.368598  7189 net.cpp:454] block5_conv115_BN_eltwise <- block5_conv115_BN
I0218 17:25:29.368602  7189 net.cpp:454] block5_conv115_BN_eltwise <- block4_conv110_block4_conv110_0_split_1
I0218 17:25:29.368607  7189 net.cpp:411] block5_conv115_BN_eltwise -> block5_conv115_BN_eltwise
I0218 17:25:29.368639  7189 net.cpp:150] Setting up block5_conv115_BN_eltwise
I0218 17:25:29.368643  7189 net.cpp:157] Top shape: 25 2048 4 4 (819200)
I0218 17:25:29.368645  7189 net.cpp:165] Memory required for data: 1356109100
I0218 17:25:29.368649  7189 layer_factory.hpp:76] Creating layer block5_relu117
I0218 17:25:29.368654  7189 net.cpp:106] Creating Layer block5_relu117
I0218 17:25:29.368657  7189 net.cpp:454] block5_relu117 <- block5_conv115_BN_eltwise
I0218 17:25:29.368661  7189 net.cpp:411] block5_relu117 -> block5_relu117
I0218 17:25:29.369465  7189 net.cpp:150] Setting up block5_relu117
I0218 17:25:29.369474  7189 net.cpp:157] Top shape: 25 2048 4 4 (819200)
I0218 17:25:29.369477  7189 net.cpp:165] Memory required for data: 1359385900
I0218 17:25:29.369479  7189 layer_factory.hpp:76] Creating layer block5_relu117_block5_relu117_0_split
I0218 17:25:29.369484  7189 net.cpp:106] Creating Layer block5_relu117_block5_relu117_0_split
I0218 17:25:29.369488  7189 net.cpp:454] block5_relu117_block5_relu117_0_split <- block5_relu117
I0218 17:25:29.369493  7189 net.cpp:411] block5_relu117_block5_relu117_0_split -> block5_relu117_block5_relu117_0_split_0
I0218 17:25:29.369498  7189 net.cpp:411] block5_relu117_block5_relu117_0_split -> block5_relu117_block5_relu117_0_split_1
I0218 17:25:29.369544  7189 net.cpp:150] Setting up block5_relu117_block5_relu117_0_split
I0218 17:25:29.369550  7189 net.cpp:157] Top shape: 25 2048 4 4 (819200)
I0218 17:25:29.369554  7189 net.cpp:157] Top shape: 25 2048 4 4 (819200)
I0218 17:25:29.369555  7189 net.cpp:165] Memory required for data: 1365939500
I0218 17:25:29.369557  7189 layer_factory.hpp:76] Creating layer block5_conv119
I0218 17:25:29.369565  7189 net.cpp:106] Creating Layer block5_conv119
I0218 17:25:29.369568  7189 net.cpp:454] block5_conv119 <- block5_relu117_block5_relu117_0_split_0
I0218 17:25:29.369572  7189 net.cpp:411] block5_conv119 -> block5_conv119
I0218 17:25:29.379593  7189 net.cpp:150] Setting up block5_conv119
I0218 17:25:29.379619  7189 net.cpp:157] Top shape: 25 512 4 4 (204800)
I0218 17:25:29.379622  7189 net.cpp:165] Memory required for data: 1366758700
I0218 17:25:29.379631  7189 layer_factory.hpp:76] Creating layer block5_conv119_BN
I0218 17:25:29.379642  7189 net.cpp:106] Creating Layer block5_conv119_BN
I0218 17:25:29.379647  7189 net.cpp:454] block5_conv119_BN <- block5_conv119
I0218 17:25:29.379653  7189 net.cpp:411] block5_conv119_BN -> block5_conv119_BN
I0218 17:25:29.380014  7189 net.cpp:150] Setting up block5_conv119_BN
I0218 17:25:29.380022  7189 net.cpp:157] Top shape: 25 512 4 4 (204800)
I0218 17:25:29.380038  7189 net.cpp:165] Memory required for data: 1367577900
I0218 17:25:29.380043  7189 layer_factory.hpp:76] Creating layer block5_relu120
I0218 17:25:29.380049  7189 net.cpp:106] Creating Layer block5_relu120
I0218 17:25:29.380051  7189 net.cpp:454] block5_relu120 <- block5_conv119_BN
I0218 17:25:29.380056  7189 net.cpp:397] block5_relu120 -> block5_conv119_BN (in-place)
I0218 17:25:29.380838  7189 net.cpp:150] Setting up block5_relu120
I0218 17:25:29.380846  7189 net.cpp:157] Top shape: 25 512 4 4 (204800)
I0218 17:25:29.380849  7189 net.cpp:165] Memory required for data: 1368397100
I0218 17:25:29.380852  7189 layer_factory.hpp:76] Creating layer block5_conv121
I0218 17:25:29.380861  7189 net.cpp:106] Creating Layer block5_conv121
I0218 17:25:29.380863  7189 net.cpp:454] block5_conv121 <- block5_conv119_BN
I0218 17:25:29.380868  7189 net.cpp:411] block5_conv121 -> block5_conv121
I0218 17:25:29.399660  7189 net.cpp:150] Setting up block5_conv121
I0218 17:25:29.399687  7189 net.cpp:157] Top shape: 25 512 4 4 (204800)
I0218 17:25:29.399690  7189 net.cpp:165] Memory required for data: 1369216300
I0218 17:25:29.399700  7189 layer_factory.hpp:76] Creating layer block5_conv121_BN
I0218 17:25:29.399711  7189 net.cpp:106] Creating Layer block5_conv121_BN
I0218 17:25:29.399718  7189 net.cpp:454] block5_conv121_BN <- block5_conv121
I0218 17:25:29.399724  7189 net.cpp:411] block5_conv121_BN -> block5_conv121_BN
I0218 17:25:29.400090  7189 net.cpp:150] Setting up block5_conv121_BN
I0218 17:25:29.400097  7189 net.cpp:157] Top shape: 25 512 4 4 (204800)
I0218 17:25:29.400099  7189 net.cpp:165] Memory required for data: 1370035500
I0218 17:25:29.400105  7189 layer_factory.hpp:76] Creating layer block5_relu122
I0218 17:25:29.400110  7189 net.cpp:106] Creating Layer block5_relu122
I0218 17:25:29.400113  7189 net.cpp:454] block5_relu122 <- block5_conv121_BN
I0218 17:25:29.400117  7189 net.cpp:397] block5_relu122 -> block5_conv121_BN (in-place)
I0218 17:25:29.400907  7189 net.cpp:150] Setting up block5_relu122
I0218 17:25:29.400915  7189 net.cpp:157] Top shape: 25 512 4 4 (204800)
I0218 17:25:29.400918  7189 net.cpp:165] Memory required for data: 1370854700
I0218 17:25:29.400921  7189 layer_factory.hpp:76] Creating layer block5_conv123
I0218 17:25:29.400928  7189 net.cpp:106] Creating Layer block5_conv123
I0218 17:25:29.400933  7189 net.cpp:454] block5_conv123 <- block5_conv121_BN
I0218 17:25:29.400938  7189 net.cpp:411] block5_conv123 -> block5_conv123
I0218 17:25:29.411089  7189 net.cpp:150] Setting up block5_conv123
I0218 17:25:29.411115  7189 net.cpp:157] Top shape: 25 2048 4 4 (819200)
I0218 17:25:29.411118  7189 net.cpp:165] Memory required for data: 1374131500
I0218 17:25:29.411126  7189 layer_factory.hpp:76] Creating layer block5_conv123_BN
I0218 17:25:29.411136  7189 net.cpp:106] Creating Layer block5_conv123_BN
I0218 17:25:29.411141  7189 net.cpp:454] block5_conv123_BN <- block5_conv123
I0218 17:25:29.411147  7189 net.cpp:411] block5_conv123_BN -> block5_conv123_BN
I0218 17:25:29.411516  7189 net.cpp:150] Setting up block5_conv123_BN
I0218 17:25:29.411522  7189 net.cpp:157] Top shape: 25 2048 4 4 (819200)
I0218 17:25:29.411525  7189 net.cpp:165] Memory required for data: 1377408300
I0218 17:25:29.411530  7189 layer_factory.hpp:76] Creating layer block5_conv123_BN_eltwise
I0218 17:25:29.411536  7189 net.cpp:106] Creating Layer block5_conv123_BN_eltwise
I0218 17:25:29.411540  7189 net.cpp:454] block5_conv123_BN_eltwise <- block5_conv123_BN
I0218 17:25:29.411543  7189 net.cpp:454] block5_conv123_BN_eltwise <- block5_relu117_block5_relu117_0_split_1
I0218 17:25:29.411546  7189 net.cpp:411] block5_conv123_BN_eltwise -> block5_conv123_BN_eltwise
I0218 17:25:29.411582  7189 net.cpp:150] Setting up block5_conv123_BN_eltwise
I0218 17:25:29.411589  7189 net.cpp:157] Top shape: 25 2048 4 4 (819200)
I0218 17:25:29.411592  7189 net.cpp:165] Memory required for data: 1380685100
I0218 17:25:29.411593  7189 layer_factory.hpp:76] Creating layer block5_relu125
I0218 17:25:29.411599  7189 net.cpp:106] Creating Layer block5_relu125
I0218 17:25:29.411614  7189 net.cpp:454] block5_relu125 <- block5_conv123_BN_eltwise
I0218 17:25:29.411619  7189 net.cpp:411] block5_relu125 -> block5_relu125
I0218 17:25:29.412444  7189 net.cpp:150] Setting up block5_relu125
I0218 17:25:29.412454  7189 net.cpp:157] Top shape: 25 2048 4 4 (819200)
I0218 17:25:29.412456  7189 net.cpp:165] Memory required for data: 1383961900
I0218 17:25:29.412459  7189 layer_factory.hpp:76] Creating layer block5_relu125_block5_relu125_0_split
I0218 17:25:29.412466  7189 net.cpp:106] Creating Layer block5_relu125_block5_relu125_0_split
I0218 17:25:29.412468  7189 net.cpp:454] block5_relu125_block5_relu125_0_split <- block5_relu125
I0218 17:25:29.412473  7189 net.cpp:411] block5_relu125_block5_relu125_0_split -> block5_relu125_block5_relu125_0_split_0
I0218 17:25:29.412478  7189 net.cpp:411] block5_relu125_block5_relu125_0_split -> block5_relu125_block5_relu125_0_split_1
I0218 17:25:29.412528  7189 net.cpp:150] Setting up block5_relu125_block5_relu125_0_split
I0218 17:25:29.412534  7189 net.cpp:157] Top shape: 25 2048 4 4 (819200)
I0218 17:25:29.412539  7189 net.cpp:157] Top shape: 25 2048 4 4 (819200)
I0218 17:25:29.412540  7189 net.cpp:165] Memory required for data: 1390515500
I0218 17:25:29.412544  7189 layer_factory.hpp:76] Creating layer block5_conv127
I0218 17:25:29.412549  7189 net.cpp:106] Creating Layer block5_conv127
I0218 17:25:29.412552  7189 net.cpp:454] block5_conv127 <- block5_relu125_block5_relu125_0_split_0
I0218 17:25:29.412557  7189 net.cpp:411] block5_conv127 -> block5_conv127
I0218 17:25:29.422736  7189 net.cpp:150] Setting up block5_conv127
I0218 17:25:29.422761  7189 net.cpp:157] Top shape: 25 512 4 4 (204800)
I0218 17:25:29.422765  7189 net.cpp:165] Memory required for data: 1391334700
I0218 17:25:29.422773  7189 layer_factory.hpp:76] Creating layer block5_conv127_BN
I0218 17:25:29.422783  7189 net.cpp:106] Creating Layer block5_conv127_BN
I0218 17:25:29.422788  7189 net.cpp:454] block5_conv127_BN <- block5_conv127
I0218 17:25:29.422794  7189 net.cpp:411] block5_conv127_BN -> block5_conv127_BN
I0218 17:25:29.423171  7189 net.cpp:150] Setting up block5_conv127_BN
I0218 17:25:29.423177  7189 net.cpp:157] Top shape: 25 512 4 4 (204800)
I0218 17:25:29.423179  7189 net.cpp:165] Memory required for data: 1392153900
I0218 17:25:29.423185  7189 layer_factory.hpp:76] Creating layer block5_relu128
I0218 17:25:29.423192  7189 net.cpp:106] Creating Layer block5_relu128
I0218 17:25:29.423194  7189 net.cpp:454] block5_relu128 <- block5_conv127_BN
I0218 17:25:29.423197  7189 net.cpp:397] block5_relu128 -> block5_conv127_BN (in-place)
I0218 17:25:29.424003  7189 net.cpp:150] Setting up block5_relu128
I0218 17:25:29.424012  7189 net.cpp:157] Top shape: 25 512 4 4 (204800)
I0218 17:25:29.424015  7189 net.cpp:165] Memory required for data: 1392973100
I0218 17:25:29.424018  7189 layer_factory.hpp:76] Creating layer block5_conv129
I0218 17:25:29.424026  7189 net.cpp:106] Creating Layer block5_conv129
I0218 17:25:29.424031  7189 net.cpp:454] block5_conv129 <- block5_conv127_BN
I0218 17:25:29.424036  7189 net.cpp:411] block5_conv129 -> block5_conv129
I0218 17:25:29.442620  7189 net.cpp:150] Setting up block5_conv129
I0218 17:25:29.442642  7189 net.cpp:157] Top shape: 25 512 4 4 (204800)
I0218 17:25:29.442646  7189 net.cpp:165] Memory required for data: 1393792300
I0218 17:25:29.442654  7189 layer_factory.hpp:76] Creating layer block5_conv129_BN
I0218 17:25:29.442664  7189 net.cpp:106] Creating Layer block5_conv129_BN
I0218 17:25:29.442670  7189 net.cpp:454] block5_conv129_BN <- block5_conv129
I0218 17:25:29.442677  7189 net.cpp:411] block5_conv129_BN -> block5_conv129_BN
I0218 17:25:29.443064  7189 net.cpp:150] Setting up block5_conv129_BN
I0218 17:25:29.443071  7189 net.cpp:157] Top shape: 25 512 4 4 (204800)
I0218 17:25:29.443073  7189 net.cpp:165] Memory required for data: 1394611500
I0218 17:25:29.443079  7189 layer_factory.hpp:76] Creating layer block5_relu130
I0218 17:25:29.443084  7189 net.cpp:106] Creating Layer block5_relu130
I0218 17:25:29.443087  7189 net.cpp:454] block5_relu130 <- block5_conv129_BN
I0218 17:25:29.443105  7189 net.cpp:397] block5_relu130 -> block5_conv129_BN (in-place)
I0218 17:25:29.443910  7189 net.cpp:150] Setting up block5_relu130
I0218 17:25:29.443920  7189 net.cpp:157] Top shape: 25 512 4 4 (204800)
I0218 17:25:29.443922  7189 net.cpp:165] Memory required for data: 1395430700
I0218 17:25:29.443925  7189 layer_factory.hpp:76] Creating layer block5_conv131
I0218 17:25:29.443933  7189 net.cpp:106] Creating Layer block5_conv131
I0218 17:25:29.443936  7189 net.cpp:454] block5_conv131 <- block5_conv129_BN
I0218 17:25:29.443943  7189 net.cpp:411] block5_conv131 -> block5_conv131
I0218 17:25:29.454130  7189 net.cpp:150] Setting up block5_conv131
I0218 17:25:29.454154  7189 net.cpp:157] Top shape: 25 2048 4 4 (819200)
I0218 17:25:29.454157  7189 net.cpp:165] Memory required for data: 1398707500
I0218 17:25:29.454166  7189 layer_factory.hpp:76] Creating layer block5_conv131_BN
I0218 17:25:29.454176  7189 net.cpp:106] Creating Layer block5_conv131_BN
I0218 17:25:29.454181  7189 net.cpp:454] block5_conv131_BN <- block5_conv131
I0218 17:25:29.454187  7189 net.cpp:411] block5_conv131_BN -> block5_conv131_BN
I0218 17:25:29.454579  7189 net.cpp:150] Setting up block5_conv131_BN
I0218 17:25:29.454586  7189 net.cpp:157] Top shape: 25 2048 4 4 (819200)
I0218 17:25:29.454588  7189 net.cpp:165] Memory required for data: 1401984300
I0218 17:25:29.454593  7189 layer_factory.hpp:76] Creating layer block5_conv131_BN_eltwise
I0218 17:25:29.454599  7189 net.cpp:106] Creating Layer block5_conv131_BN_eltwise
I0218 17:25:29.454602  7189 net.cpp:454] block5_conv131_BN_eltwise <- block5_conv131_BN
I0218 17:25:29.454607  7189 net.cpp:454] block5_conv131_BN_eltwise <- block5_relu125_block5_relu125_0_split_1
I0218 17:25:29.454610  7189 net.cpp:411] block5_conv131_BN_eltwise -> block5_conv131_BN_eltwise
I0218 17:25:29.454648  7189 net.cpp:150] Setting up block5_conv131_BN_eltwise
I0218 17:25:29.454653  7189 net.cpp:157] Top shape: 25 2048 4 4 (819200)
I0218 17:25:29.454655  7189 net.cpp:165] Memory required for data: 1405261100
I0218 17:25:29.454658  7189 layer_factory.hpp:76] Creating layer block5_relu133
I0218 17:25:29.454663  7189 net.cpp:106] Creating Layer block5_relu133
I0218 17:25:29.454666  7189 net.cpp:454] block5_relu133 <- block5_conv131_BN_eltwise
I0218 17:25:29.454669  7189 net.cpp:411] block5_relu133 -> block5_relu133
I0218 17:25:29.455498  7189 net.cpp:150] Setting up block5_relu133
I0218 17:25:29.455507  7189 net.cpp:157] Top shape: 25 2048 4 4 (819200)
I0218 17:25:29.455509  7189 net.cpp:165] Memory required for data: 1408537900
I0218 17:25:29.455513  7189 layer_factory.hpp:76] Creating layer block5_relu133_global_ave
I0218 17:25:29.455518  7189 net.cpp:106] Creating Layer block5_relu133_global_ave
I0218 17:25:29.455523  7189 net.cpp:454] block5_relu133_global_ave <- block5_relu133
I0218 17:25:29.455526  7189 net.cpp:411] block5_relu133_global_ave -> block5_relu133_global_ave
I0218 17:25:29.456347  7189 net.cpp:150] Setting up block5_relu133_global_ave
I0218 17:25:29.456357  7189 net.cpp:157] Top shape: 25 2048 1 1 (51200)
I0218 17:25:29.456359  7189 net.cpp:165] Memory required for data: 1408742700
I0218 17:25:29.456362  7189 layer_factory.hpp:76] Creating layer final_conv136
I0218 17:25:29.456369  7189 net.cpp:106] Creating Layer final_conv136
I0218 17:25:29.456373  7189 net.cpp:454] final_conv136 <- block5_relu133_global_ave
I0218 17:25:29.456378  7189 net.cpp:411] final_conv136 -> final_conv136
I0218 17:25:29.473137  7189 net.cpp:150] Setting up final_conv136
I0218 17:25:29.473163  7189 net.cpp:157] Top shape: 25 1000 1 1 (25000)
I0218 17:25:29.473166  7189 net.cpp:165] Memory required for data: 1408842700
I0218 17:25:29.473175  7189 layer_factory.hpp:76] Creating layer final_conv136_final_conv136_0_split
I0218 17:25:29.473182  7189 net.cpp:106] Creating Layer final_conv136_final_conv136_0_split
I0218 17:25:29.473187  7189 net.cpp:454] final_conv136_final_conv136_0_split <- final_conv136
I0218 17:25:29.473196  7189 net.cpp:411] final_conv136_final_conv136_0_split -> final_conv136_final_conv136_0_split_0
I0218 17:25:29.473223  7189 net.cpp:411] final_conv136_final_conv136_0_split -> final_conv136_final_conv136_0_split_1
I0218 17:25:29.473284  7189 net.cpp:150] Setting up final_conv136_final_conv136_0_split
I0218 17:25:29.473290  7189 net.cpp:157] Top shape: 25 1000 1 1 (25000)
I0218 17:25:29.473294  7189 net.cpp:157] Top shape: 25 1000 1 1 (25000)
I0218 17:25:29.473295  7189 net.cpp:165] Memory required for data: 1409042700
I0218 17:25:29.473299  7189 layer_factory.hpp:76] Creating layer loss
I0218 17:25:29.473304  7189 net.cpp:106] Creating Layer loss
I0218 17:25:29.473305  7189 net.cpp:454] loss <- final_conv136_final_conv136_0_split_0
I0218 17:25:29.473309  7189 net.cpp:454] loss <- label_data_1_split_0
I0218 17:25:29.473314  7189 net.cpp:411] loss -> loss
…
