…
    mirror: true
    crop_size: 128
    mean_value: 104
    mean_value: 117
    mean_value: 124
    force_color: true
    resize_param {
      prob: 1
      resize_mode: FIT_SMALL_SIZE
      pad_mode: MIRRORED
      pad_value: 104
      pad_value: 117
      pad_value: 124
      interp_mode: LINEAR
      center_object: false
      max_angle: 0
      multiscale: true
      min_sz: 128
      max_sz: 300
    }
  }
  data_param {
    source: "/media/dereyly/2E4057004056CDE9/data/CAFFE_DATA/ilsvrc12_train_lmdb_compact"
    batch_size: 256
    backend: LMDB
  }
}
layer {
  name: "conv1"
  type: "Convolution"
  bottom: "data"
  top: "conv1"
  param {
    lr_mult: 1
    decay_mult: 1
  }
  param {
    lr_mult: 2
    decay_mult: 0
  }
  convolution_param {
    num_output: 96
    kernel_size: 11
    stride: 4
    weight_filler {
      type: "msra"
      std: 0.01
    }
    bias_filler {
      type: "constant"
    }
  }
}
layer {
  name: "relu1"
  type: "PReLU"
  bottom: "conv1"
  top: "conv1"
  prelu_param {
    filler {
      type: "constant"
      value: 0.3
    }
    channel_shared: false
  }
}
layer {
  name: "pool1"
  type: "Pooling"
  bottom: "conv1"
  top: "pool1"
  pooling_param {
    pool: MAX
    kernel_size: 3
    stride: 2
  }
}
layer {
  name: "conv1_BN"
  type: "BatchNorm"
  bottom: "pool1"
  top: "conv1_BN"
}
layer {
  name: "conv2"
  type: "Convolution"
  bottom: "conv1_BN"
  top: "conv2"
  param {
    lr_mult: 1
    decay_mult: 1
  }
  param {
    lr_mult: 2
    decay_mult: 0
  }
  convolution_param {
    num_output: 256
    weight_filler {
      type: "msra"
      std: 0.01
    }
    bias_filler {
      type: "constant"
    }
    pad_h: 0
    pad_w: 1
    kernel_h: 1
    kernel_w: 3
  }
}
layer {
  name: "relu2"
  type: "PReLU"
  bottom: "conv2"
  top: "conv2"
  prelu_param {
    filler {
      type: "constant"
      value: 0.3
    }
    channel_shared: false
  }
}
layer {
  name: "conv2_1_BN"
  type: "BatchNorm"
  bottom: "conv2"
  top: "conv2_1_BN"
}
layer {
  name: "conv2_1"
  type: "Convolution"
  bottom: "conv2_1_BN"
  top: "conv2_1"
  param {
    lr_mult: 1
    decay_mult: 1
  }
  param {
    lr_mult: 2
    decay_mult: 0
  }
  convolution_param {
    num_output: 256
    weight_filler {
      type: "msra"
      std: 0.01
    }
    bias_filler {
      type: "constant"
    }
    pad_h: 1
    pad_w: 0
    kernel_h: 3
    kernel_w: 1
  }
}
layer {
  name: "relu2_1"
  type: "PReLU"
  bottom: "conv2_1"
  top: "conv2_1"
  prelu_param {
    filler {
      type: "constant"
      value: 0.3
    }
    channel_shared: false
  }
}
layer {
  name: "conv2_2_BN"
  type: "BatchNorm"
  bottom: "conv2_1"
  top: "conv2_2_BN"
}
layer {
  name: "conv2_2"
  type: "Convolution"
  bottom: "conv2_2_BN"
  top: "conv2_2"
  param {
    lr_mult: 1
    decay_mult: 1
  }
  param {
    lr_mult: 2
    decay_mult: 0
  }
  convolution_param {
    num_output: 256
    weight_filler {
      type: "msra"
      std: 0.01
    }
    bias_filler {
      type: "constant"
    }
    pad_h: 0
    pad_w: 1
    kernel_h: 1
    kernel_w: 3
  }
}
layer {
  name: "relu2_2"
  type: "PReLU"
  bottom: "conv2_2"
  top: "conv2_2"
  prelu_param {
    filler {
      type: "constant"
      value: 0.3
    }
    channel_shared: false
  }
}
layer {
  name: "conv2_3_BN"
  type: "BatchNorm"
  bottom: "conv2_2"
  top: "conv2_3_BN"
}
layer {
  name: "conv2_3"
  type: "Convolution"
  bottom: "conv2_3_BN"
  top: "conv2_3"
  param {
    lr_mult: 1
    decay_mult: 1
  }
  param {
    lr_mult: 2
    decay_mult: 0
  }
  convolution_param {
    num_output: 256
    weight_filler {
      type: "msra"
      std: 0.01
    }
    bias_filler {
      type: "constant"
    }
    pad_h: 1
    pad_w: 0
    kernel_h: 3
    kernel_w: 1
  }
}
layer {
  name: "relu2_3"
  type: "PReLU"
  bottom: "conv2_3"
  top: "conv2_3"
  prelu_param {
    filler {
      type: "constant"
      value: 0.3
    }
    channel_shared: false
  }
}
layer {
  name: "pool2"
  type: "Pooling"
  bottom: "conv2_3"
  top: "pool2"
  pooling_param {
    pool: MAX
    kernel_size: 3
    stride: 2
  }
}
layer {
  name: "conv2_BN"
  type: "BatchNorm"
  bottom: "pool2"
  top: "conv2_BN"
}
layer {
  name: "conv3"
  type: "Convolution"
  bottom: "conv2_BN"
  top: "conv3"
  param {
    lr_mult: 1
    decay_mult: 1
  }
  param {
    lr_mult: 2
    decay_mult: 0
  }
  convolution_param {
    num_output: 384
    weight_filler {
      type: "msra"
      std: 0.01
    }
    bias_filler {
      type: "constant"
    }
    pad_h: 0
    pad_w: 1
    kernel_h: 1
    kernel_w: 3
  }
}
layer {
  name: "relu3"
  type: "PReLU"
  bottom: "conv3"
  top: "conv3"
  prelu_param {
    filler {
      type: "constant"
      value: 0.3
    }
    channel_shared: false
  }
}
layer {
  name: "conv3_BN"
  type: "BatchNorm"
  bottom: "conv3"
  top: "conv3_BN"
}
layer {
  name: "conv3_1"
  type: "Convolution"
  bottom: "conv3_BN"
  top: "conv3_1"
  param {
    lr_mult: 1
    decay_mult: 1
  }
  param {
    lr_mult: 2
    decay_mult: 0
  }
  convolution_param {
    num_output: 384
    weight_filler {
      type: "msra"
      std: 0.01
    }
    bias_filler {
      type: "constant"
    }
    pad_h: 1
    pad_w: 0
    kernel_h: 3
    kernel_w: 1
  }
}
layer {
  name: "relu3_1"
  type: "PReLU"
  bottom: "conv3_1"
  top: "conv3_1"
  prelu_param {
    filler {
      type: "constant"
      value: 0.3
    }
    channel_shared: false
  }
}
layer {
  name: "conv3_1_BN"
  type: "BatchNorm"
  bottom: "conv3_1"
  top: "conv3_1_BN"
}
layer {
  name: "conv4"
  type: "Convolution"
  bottom: "conv3_1_BN"
  top: "conv4"
  param {
    lr_mult: 1
    decay_mult: 1
  }
  param {
    lr_mult: 2
    decay_mult: 0
  }
  convolution_param {
    num_output: 384
    weight_filler {
      type: "msra"
      std: 0.01
    }
    bias_filler {
      type: "constant"
    }
    pad_h: 0
    pad_w: 1
    kernel_h: 1
    kernel_w: 3
  }
}
layer {
  name: "relu4"
  type: "PReLU"
  bottom: "conv4"
  top: "conv4"
  prelu_param {
    filler {
      type: "constant"
      value: 0.3
    }
    channel_shared: false
  }
}
layer {
  name: "conv4_BN"
  type: "BatchNorm"
  bottom: "conv4"
  top: "conv4_BN"
}
layer {
  name: "conv4_1"
  type: "Convolution"
  bottom: "conv4_BN"
  top: "conv4_1"
  param {
    lr_mult: 1
    decay_mult: 1
  }
  param {
    lr_mult: 2
    decay_mult: 0
  }
  convolution_param {
    num_output: 384
    weight_filler {
      type: "msra"
      std: 0.01
    }
    bias_filler {
      type: "constant"
    }
    pad_h: 1
    pad_w: 0
    kernel_h: 3
    kernel_w: 1
  }
}
layer {
  name: "relu4_1"
  type: "PReLU"
  bottom: "conv4_1"
  top: "conv4_1"
  prelu_param {
    filler {
      type: "constant"
      value: 0.3
    }
    channel_shared: false
  }
}
layer {
  name: "conv4_1_BN"
  type: "BatchNorm"
  bottom: "conv4_1"
  top: "conv4_1_BN"
}
layer {
  name: "conv5"
  type: "Convolution"
  bottom: "conv4_1_BN"
  top: "conv5"
  param {
    lr_mult: 1
    decay_mult: 1
  }
  param {
    lr_mult: 2
    decay_mult: 0
  }
  convolution_param {
    num_output: 256
    weight_filler {
      type: "msra"
      std: 0.01
    }
    bias_filler {
      type: "constant"
    }
    pad_h: 0
    pad_w: 1
    kernel_h: 1
    kernel_w: 3
  }
}
layer {
  name: "relu5"
  type: "PReLU"
  bottom: "conv5"
  top: "conv5"
  prelu_param {
    filler {
      type: "constant"
      value: 0.3
    }
    channel_shared: false
  }
}
layer {
  name: "conv5_BN"
  type: "BatchNorm"
  bottom: "conv5"
  top: "conv5_BN"
}
layer {
  name: "conv5_1"
  type: "Convolution"
  bottom: "conv5_BN"
  top: "conv5_1"
  param {
    lr_mult: 1
    decay_mult: 1
  }
  param {
    lr_mult: 2
    decay_mult: 0
  }
  convolution_param {
    num_output: 256
    weight_filler {
      type: "msra"
      std: 0.01
    }
    bias_filler {
      type: "constant"
    }
    pad_h: 1
    pad_w: 0
    kernel_h: 3
    kernel_w: 1
  }
}
layer {
  name: "relu5_1"
  type: "PReLU"
  bottom: "conv5_1"
  top: "conv5_1"
  prelu_param {
    filler {
      type: "constant"
      value: 0.3
    }
    channel_shared: false
  }
}
layer {
  name: "conv5_1_BN"
  type: "BatchNorm"
  bottom: "conv5_1"
  top: "conv5_1_BN"
}
layer {
  name: "pool5"
  type: "Pooling"
  bottom: "conv5_1_BN"
  top: "pool5"
  pooling_param {
    pool: MAX
    kernel_size: 3
    stride: 2
  }
}
layer {
  name: "fc6"
  type: "InnerProduct"
  bottom: "pool5"
  top: "fc6"
  param {
    lr_mult: 1
    decay_mult: 1
  }
  param {
    lr_mult: 2
    decay_mult: 0
  }
  inner_product_param {
    num_output: 2048
    weight_filler {
      type: "gaussian"
      std: 0.005
    }
    bias_filler {
      type: "constant"
    }
  }
}
layer {
  name: "relu6"
  type: "PReLU"
  bottom: "fc6"
  top: "fc6"
  prelu_param {
    filler {
      type: "constant"
      value: 0.3
    }
    channel_shared: false
  }
}
layer {
  name: "fc6_BN"
  type: "BatchNorm"
  bottom: "fc6"
  top: "fc6_BN"
}
layer {
  name: "drop6"
  type: "Dropout"
  bottom: "fc6_BN"
  top: "drop6"
  dropout_param {
    dropout_ratio: 0.2
  }
}
layer {
  name: "fc7"
  type: "InnerProduct"
  bottom: "drop6"
  top: "fc7"
  param {
    lr_mult: 1
    decay_mult: 1
  }
  param {
    lr_mult: 2
    decay_mult: 0
  }
  inner_product_param {
    num_output: 2048
    weight_filler {
      type: "gaussian"
      std: 0.005
    }
    bias_filler {
      type: "constant"
    }
  }
}
layer {
  name: "relu7"
  type: "PReLU"
  bottom: "fc7"
  top: "fc7"
  prelu_param {
    filler {
      type: "constant"
      value: 0.3
    }
    channel_shared: false
  }
}
layer {
  name: "fc7_BN"
  type: "BatchNorm"
  bottom: "fc7"
  top: "fc7_BN"
}
layer {
  name: "drop7"
  type: "Dropout"
  bottom: "fc7_BN"
  top: "drop7"
  dropout_param {
    dropout_ratio: 0.2
  }
}
layer {
  name: "fc8"
  type: "InnerProduct"
  bottom: "drop7"
  top: "fc8"
  param {
    lr_mult: 1
    decay_mult: 1
  }
  param {
    lr_mult: 2
    decay_mult: 0
  }
  inner_product_param {
    num_output: 1000
    weight_filler {
      type: "gaussian"
      std: 0.01
    }
    bias_filler {
      type: "constant"
    }
  }
}
layer {
  name: "loss"
  type: "SoftmaxWithLoss"
  bottom: "fc8"
  bottom: "label"
  top: "loss"
}
I0119 21:24:50.161121  2527 layer_factory.hpp:76] Creating layer data
I0119 21:24:50.183424  2527 net.cpp:106] Creating Layer data
I0119 21:24:50.183464  2527 net.cpp:411] data -> data
I0119 21:24:50.183511  2527 net.cpp:411] data -> label
I0119 21:24:50.187013  2532 db_lmdb.cpp:38] Opened lmdb /media/dereyly/2E4057004056CDE9/data/CAFFE_DATA/ilsvrc12_train_lmdb_compact
I0119 21:24:50.262715  2527 data_layer.cpp:41] output data size: 256,3,128,128
I0119 21:24:50.319839  2527 net.cpp:150] Setting up data
I0119 21:24:50.319880  2527 net.cpp:157] Top shape: 256 3 128 128 (12582912)
I0119 21:24:50.319885  2527 net.cpp:157] Top shape: 256 (256)
I0119 21:24:50.319888  2527 net.cpp:165] Memory required for data: 50332672
I0119 21:24:50.319898  2527 layer_factory.hpp:76] Creating layer conv1
I0119 21:24:50.319916  2527 net.cpp:106] Creating Layer conv1
I0119 21:24:50.319926  2527 net.cpp:454] conv1 <- data
I0119 21:24:50.319937  2527 net.cpp:411] conv1 -> conv1
I0119 21:24:51.198783  2527 net.cpp:150] Setting up conv1
I0119 21:24:51.198807  2527 net.cpp:157] Top shape: 256 96 30 30 (22118400)
I0119 21:24:51.198813  2527 net.cpp:165] Memory required for data: 138806272
I0119 21:24:51.198882  2527 layer_factory.hpp:76] Creating layer relu1
I0119 21:24:51.198901  2527 net.cpp:106] Creating Layer relu1
I0119 21:24:51.198918  2527 net.cpp:454] relu1 <- conv1
I0119 21:24:51.198927  2527 net.cpp:397] relu1 -> conv1 (in-place)
I0119 21:24:51.199422  2527 net.cpp:150] Setting up relu1
I0119 21:24:51.199434  2527 net.cpp:157] Top shape: 256 96 30 30 (22118400)
I0119 21:24:51.199439  2527 net.cpp:165] Memory required for data: 227279872
I0119 21:24:51.199448  2527 layer_factory.hpp:76] Creating layer pool1
I0119 21:24:51.199491  2527 net.cpp:106] Creating Layer pool1
I0119 21:24:51.199498  2527 net.cpp:454] pool1 <- conv1
I0119 21:24:51.199506  2527 net.cpp:411] pool1 -> pool1
I0119 21:24:51.218982  2527 net.cpp:150] Setting up pool1
I0119 21:24:51.219004  2527 net.cpp:157] Top shape: 256 96 15 15 (5529600)
I0119 21:24:51.219010  2527 net.cpp:165] Memory required for data: 249398272
I0119 21:24:51.219017  2527 layer_factory.hpp:76] Creating layer conv1_BN
I0119 21:24:51.219043  2527 net.cpp:106] Creating Layer conv1_BN
I0119 21:24:51.219049  2527 net.cpp:454] conv1_BN <- pool1
I0119 21:24:51.219058  2527 net.cpp:411] conv1_BN -> conv1_BN
I0119 21:24:51.219257  2527 net.cpp:150] Setting up conv1_BN
I0119 21:24:51.219269  2527 net.cpp:157] Top shape: 256 96 15 15 (5529600)
I0119 21:24:51.219274  2527 net.cpp:165] Memory required for data: 271516672
I0119 21:24:51.219300  2527 layer_factory.hpp:76] Creating layer conv2
I0119 21:24:51.219311  2527 net.cpp:106] Creating Layer conv2
I0119 21:24:51.219318  2527 net.cpp:454] conv2 <- conv1_BN
I0119 21:24:51.219326  2527 net.cpp:411] conv2 -> conv2
I0119 21:24:51.222748  2527 net.cpp:150] Setting up conv2
I0119 21:24:51.222764  2527 net.cpp:157] Top shape: 256 256 15 15 (14745600)
I0119 21:24:51.222769  2527 net.cpp:165] Memory required for data: 330499072
I0119 21:24:51.222779  2527 layer_factory.hpp:76] Creating layer relu2
I0119 21:24:51.222798  2527 net.cpp:106] Creating Layer relu2
I0119 21:24:51.222803  2527 net.cpp:454] relu2 <- conv2
I0119 21:24:51.222812  2527 net.cpp:397] relu2 -> conv2 (in-place)
I0119 21:24:51.222944  2527 net.cpp:150] Setting up relu2
I0119 21:24:51.222955  2527 net.cpp:157] Top shape: 256 256 15 15 (14745600)
I0119 21:24:51.222959  2527 net.cpp:165] Memory required for data: 389481472
I0119 21:24:51.222971  2527 layer_factory.hpp:76] Creating layer conv2_1_BN
I0119 21:24:51.222988  2527 net.cpp:106] Creating Layer conv2_1_BN
I0119 21:24:51.222993  2527 net.cpp:454] conv2_1_BN <- conv2
I0119 21:24:51.223001  2527 net.cpp:411] conv2_1_BN -> conv2_1_BN
I0119 21:24:51.223187  2527 net.cpp:150] Setting up conv2_1_BN
I0119 21:24:51.223197  2527 net.cpp:157] Top shape: 256 256 15 15 (14745600)
I0119 21:24:51.223202  2527 net.cpp:165] Memory required for data: 448463872
I0119 21:24:51.223212  2527 layer_factory.hpp:76] Creating layer conv2_1
I0119 21:24:51.223233  2527 net.cpp:106] Creating Layer conv2_1
I0119 21:24:51.223239  2527 net.cpp:454] conv2_1 <- conv2_1_BN
I0119 21:24:51.223247  2527 net.cpp:411] conv2_1 -> conv2_1
I0119 21:24:51.231389  2527 net.cpp:150] Setting up conv2_1
I0119 21:24:51.231410  2527 net.cpp:157] Top shape: 256 256 15 15 (14745600)
I0119 21:24:51.231415  2527 net.cpp:165] Memory required for data: 507446272
I0119 21:24:51.231425  2527 layer_factory.hpp:76] Creating layer relu2_1
I0119 21:24:51.231446  2527 net.cpp:106] Creating Layer relu2_1
I0119 21:24:51.231451  2527 net.cpp:454] relu2_1 <- conv2_1
I0119 21:24:51.231462  2527 net.cpp:397] relu2_1 -> conv2_1 (in-place)
I0119 21:24:51.231590  2527 net.cpp:150] Setting up relu2_1
I0119 21:24:51.231600  2527 net.cpp:157] Top shape: 256 256 15 15 (14745600)
I0119 21:24:51.231606  2527 net.cpp:165] Memory required for data: 566428672
I0119 21:24:51.231611  2527 layer_factory.hpp:76] Creating layer conv2_2_BN
I0119 21:24:51.231631  2527 net.cpp:106] Creating Layer conv2_2_BN
I0119 21:24:51.231637  2527 net.cpp:454] conv2_2_BN <- conv2_1
I0119 21:24:51.231643  2527 net.cpp:411] conv2_2_BN -> conv2_2_BN
I0119 21:24:51.231849  2527 net.cpp:150] Setting up conv2_2_BN
I0119 21:24:51.231860  2527 net.cpp:157] Top shape: 256 256 15 15 (14745600)
I0119 21:24:51.231865  2527 net.cpp:165] Memory required for data: 625411072
I0119 21:24:51.231878  2527 layer_factory.hpp:76] Creating layer conv2_2
I0119 21:24:51.231899  2527 net.cpp:106] Creating Layer conv2_2
I0119 21:24:51.231904  2527 net.cpp:454] conv2_2 <- conv2_2_BN
I0119 21:24:51.231919  2527 net.cpp:411] conv2_2 -> conv2_2
I0119 21:24:51.239354  2527 net.cpp:150] Setting up conv2_2
I0119 21:24:51.239369  2527 net.cpp:157] Top shape: 256 256 15 15 (14745600)
I0119 21:24:51.239375  2527 net.cpp:165] Memory required for data: 684393472
I0119 21:24:51.239384  2527 layer_factory.hpp:76] Creating layer relu2_2
I0119 21:24:51.239406  2527 net.cpp:106] Creating Layer relu2_2
I0119 21:24:51.239411  2527 net.cpp:454] relu2_2 <- conv2_2
I0119 21:24:51.239420  2527 net.cpp:397] relu2_2 -> conv2_2 (in-place)
I0119 21:24:51.239545  2527 net.cpp:150] Setting up relu2_2
I0119 21:24:51.239557  2527 net.cpp:157] Top shape: 256 256 15 15 (14745600)
I0119 21:24:51.239562  2527 net.cpp:165] Memory required for data: 743375872
I0119 21:24:51.239567  2527 layer_factory.hpp:76] Creating layer conv2_3_BN
I0119 21:24:51.239586  2527 net.cpp:106] Creating Layer conv2_3_BN
I0119 21:24:51.239591  2527 net.cpp:454] conv2_3_BN <- conv2_2
I0119 21:24:51.239598  2527 net.cpp:411] conv2_3_BN -> conv2_3_BN
I0119 21:24:51.239792  2527 net.cpp:150] Setting up conv2_3_BN
I0119 21:24:51.239801  2527 net.cpp:157] Top shape: 256 256 15 15 (14745600)
I0119 21:24:51.239806  2527 net.cpp:165] Memory required for data: 802358272
I0119 21:24:51.239816  2527 layer_factory.hpp:76] Creating layer conv2_3
I0119 21:24:51.239838  2527 net.cpp:106] Creating Layer conv2_3
I0119 21:24:51.239843  2527 net.cpp:454] conv2_3 <- conv2_3_BN
I0119 21:24:51.239850  2527 net.cpp:411] conv2_3 -> conv2_3
I0119 21:24:51.247349  2527 net.cpp:150] Setting up conv2_3
I0119 21:24:51.247364  2527 net.cpp:157] Top shape: 256 256 15 15 (14745600)
I0119 21:24:51.247369  2527 net.cpp:165] Memory required for data: 861340672
I0119 21:24:51.247376  2527 layer_factory.hpp:76] Creating layer relu2_3
I0119 21:24:51.247397  2527 net.cpp:106] Creating Layer relu2_3
I0119 21:24:51.247403  2527 net.cpp:454] relu2_3 <- conv2_3
I0119 21:24:51.247411  2527 net.cpp:397] relu2_3 -> conv2_3 (in-place)
I0119 21:24:51.247876  2527 net.cpp:150] Setting up relu2_3
I0119 21:24:51.247889  2527 net.cpp:157] Top shape: 256 256 15 15 (14745600)
I0119 21:24:51.247895  2527 net.cpp:165] Memory required for data: 920323072
I0119 21:24:51.247901  2527 layer_factory.hpp:76] Creating layer pool2
I0119 21:24:51.247923  2527 net.cpp:106] Creating Layer pool2
I0119 21:24:51.247928  2527 net.cpp:454] pool2 <- conv2_3
I0119 21:24:51.247937  2527 net.cpp:411] pool2 -> pool2
I0119 21:24:51.248244  2527 net.cpp:150] Setting up pool2
I0119 21:24:51.248255  2527 net.cpp:157] Top shape: 256 256 7 7 (3211264)
I0119 21:24:51.248260  2527 net.cpp:165] Memory required for data: 933168128
I0119 21:24:51.248265  2527 layer_factory.hpp:76] Creating layer conv2_BN
I0119 21:24:51.248272  2527 net.cpp:106] Creating Layer conv2_BN
I0119 21:24:51.248288  2527 net.cpp:454] conv2_BN <- pool2
I0119 21:24:51.248296  2527 net.cpp:411] conv2_BN -> conv2_BN
I0119 21:24:51.248497  2527 net.cpp:150] Setting up conv2_BN
I0119 21:24:51.248507  2527 net.cpp:157] Top shape: 256 256 7 7 (3211264)
I0119 21:24:51.248512  2527 net.cpp:165] Memory required for data: 946013184
I0119 21:24:51.248522  2527 layer_factory.hpp:76] Creating layer conv3
I0119 21:24:51.248533  2527 net.cpp:106] Creating Layer conv3
I0119 21:24:51.248538  2527 net.cpp:454] conv3 <- conv2_BN
I0119 21:24:51.248545  2527 net.cpp:411] conv3 -> conv3
I0119 21:24:51.259457  2527 net.cpp:150] Setting up conv3
I0119 21:24:51.259486  2527 net.cpp:157] Top shape: 256 384 7 7 (4816896)
I0119 21:24:51.259491  2527 net.cpp:165] Memory required for data: 965280768
I0119 21:24:51.259501  2527 layer_factory.hpp:76] Creating layer relu3
I0119 21:24:51.259512  2527 net.cpp:106] Creating Layer relu3
I0119 21:24:51.259529  2527 net.cpp:454] relu3 <- conv3
I0119 21:24:51.259560  2527 net.cpp:397] relu3 -> conv3 (in-place)
I0119 21:24:51.259665  2527 net.cpp:150] Setting up relu3
I0119 21:24:51.259685  2527 net.cpp:157] Top shape: 256 384 7 7 (4816896)
I0119 21:24:51.259690  2527 net.cpp:165] Memory required for data: 984548352
I0119 21:24:51.259706  2527 layer_factory.hpp:76] Creating layer conv3_BN
I0119 21:24:51.259714  2527 net.cpp:106] Creating Layer conv3_BN
I0119 21:24:51.259721  2527 net.cpp:454] conv3_BN <- conv3
I0119 21:24:51.259728  2527 net.cpp:411] conv3_BN -> conv3_BN
I0119 21:24:51.259959  2527 net.cpp:150] Setting up conv3_BN
I0119 21:24:51.259981  2527 net.cpp:157] Top shape: 256 384 7 7 (4816896)
I0119 21:24:51.259987  2527 net.cpp:165] Memory required for data: 1003815936
I0119 21:24:51.260010  2527 layer_factory.hpp:76] Creating layer conv3_1
I0119 21:24:51.260020  2527 net.cpp:106] Creating Layer conv3_1
I0119 21:24:51.260025  2527 net.cpp:454] conv3_1 <- conv3_BN
I0119 21:24:51.260037  2527 net.cpp:411] conv3_1 -> conv3_1
I0119 21:24:51.275782  2527 net.cpp:150] Setting up conv3_1
I0119 21:24:51.275802  2527 net.cpp:157] Top shape: 256 384 7 7 (4816896)
I0119 21:24:51.275809  2527 net.cpp:165] Memory required for data: 1023083520
I0119 21:24:51.275818  2527 layer_factory.hpp:76] Creating layer relu3_1
I0119 21:24:51.275843  2527 net.cpp:106] Creating Layer relu3_1
I0119 21:24:51.275849  2527 net.cpp:454] relu3_1 <- conv3_1
I0119 21:24:51.275858  2527 net.cpp:397] relu3_1 -> conv3_1 (in-place)
I0119 21:24:51.275967  2527 net.cpp:150] Setting up relu3_1
I0119 21:24:51.275977  2527 net.cpp:157] Top shape: 256 384 7 7 (4816896)
I0119 21:24:51.275981  2527 net.cpp:165] Memory required for data: 1042351104
I0119 21:24:51.275988  2527 layer_factory.hpp:76] Creating layer conv3_1_BN
I0119 21:24:51.276007  2527 net.cpp:106] Creating Layer conv3_1_BN
I0119 21:24:51.276013  2527 net.cpp:454] conv3_1_BN <- conv3_1
I0119 21:24:51.276021  2527 net.cpp:411] conv3_1_BN -> conv3_1_BN
I0119 21:24:51.276221  2527 net.cpp:150] Setting up conv3_1_BN
I0119 21:24:51.276232  2527 net.cpp:157] Top shape: 256 384 7 7 (4816896)
I0119 21:24:51.276237  2527 net.cpp:165] Memory required for data: 1061618688
I0119 21:24:51.276247  2527 layer_factory.hpp:76] Creating layer conv4
I0119 21:24:51.276267  2527 net.cpp:106] Creating Layer conv4
I0119 21:24:51.276273  2527 net.cpp:454] conv4 <- conv3_1_BN
I0119 21:24:51.276280  2527 net.cpp:411] conv4 -> conv4
I0119 21:24:51.292105  2527 net.cpp:150] Setting up conv4
I0119 21:24:51.292127  2527 net.cpp:157] Top shape: 256 384 7 7 (4816896)
I0119 21:24:51.292134  2527 net.cpp:165] Memory required for data: 1080886272
I0119 21:24:51.292143  2527 layer_factory.hpp:76] Creating layer relu4
I0119 21:24:51.292167  2527 net.cpp:106] Creating Layer relu4
I0119 21:24:51.292173  2527 net.cpp:454] relu4 <- conv4
I0119 21:24:51.292181  2527 net.cpp:397] relu4 -> conv4 (in-place)
I0119 21:24:51.292296  2527 net.cpp:150] Setting up relu4
I0119 21:24:51.292306  2527 net.cpp:157] Top shape: 256 384 7 7 (4816896)
I0119 21:24:51.292311  2527 net.cpp:165] Memory required for data: 1100153856
I0119 21:24:51.292317  2527 layer_factory.hpp:76] Creating layer conv4_BN
I0119 21:24:51.292337  2527 net.cpp:106] Creating Layer conv4_BN
I0119 21:24:51.292342  2527 net.cpp:454] conv4_BN <- conv4
I0119 21:24:51.292349  2527 net.cpp:411] conv4_BN -> conv4_BN
I0119 21:24:51.292549  2527 net.cpp:150] Setting up conv4_BN
I0119 21:24:51.292559  2527 net.cpp:157] Top shape: 256 384 7 7 (4816896)
I0119 21:24:51.292564  2527 net.cpp:165] Memory required for data: 1119421440
I0119 21:24:51.292574  2527 layer_factory.hpp:76] Creating layer conv4_1
I0119 21:24:51.292594  2527 net.cpp:106] Creating Layer conv4_1
I0119 21:24:51.292599  2527 net.cpp:454] conv4_1 <- conv4_BN
I0119 21:24:51.292608  2527 net.cpp:411] conv4_1 -> conv4_1
I0119 21:24:51.308442  2527 net.cpp:150] Setting up conv4_1
I0119 21:24:51.308465  2527 net.cpp:157] Top shape: 256 384 7 7 (4816896)
I0119 21:24:51.308471  2527 net.cpp:165] Memory required for data: 1138689024
I0119 21:24:51.308511  2527 layer_factory.hpp:76] Creating layer relu4_1
I0119 21:24:51.308526  2527 net.cpp:106] Creating Layer relu4_1
I0119 21:24:51.308533  2527 net.cpp:454] relu4_1 <- conv4_1
I0119 21:24:51.308542  2527 net.cpp:397] relu4_1 -> conv4_1 (in-place)
I0119 21:24:51.308651  2527 net.cpp:150] Setting up relu4_1
I0119 21:24:51.308661  2527 net.cpp:157] Top shape: 256 384 7 7 (4816896)
I0119 21:24:51.308666  2527 net.cpp:165] Memory required for data: 1157956608
I0119 21:24:51.308673  2527 layer_factory.hpp:76] Creating layer conv4_1_BN
I0119 21:24:51.308692  2527 net.cpp:106] Creating Layer conv4_1_BN
I0119 21:24:51.308697  2527 net.cpp:454] conv4_1_BN <- conv4_1
I0119 21:24:51.308706  2527 net.cpp:411] conv4_1_BN -> conv4_1_BN
I0119 21:24:51.308912  2527 net.cpp:150] Setting up conv4_1_BN
I0119 21:24:51.308923  2527 net.cpp:157] Top shape: 256 384 7 7 (4816896)
I0119 21:24:51.308928  2527 net.cpp:165] Memory required for data: 1177224192
I0119 21:24:51.308938  2527 layer_factory.hpp:76] Creating layer conv5
I0119 21:24:51.308959  2527 net.cpp:106] Creating Layer conv5
I0119 21:24:51.308964  2527 net.cpp:454] conv5 <- conv4_1_BN
I0119 21:24:51.308970  2527 net.cpp:411] conv5 -> conv5
I0119 21:24:51.319902  2527 net.cpp:150] Setting up conv5
I0119 21:24:51.319932  2527 net.cpp:157] Top shape: 256 256 7 7 (3211264)
I0119 21:24:51.319938  2527 net.cpp:165] Memory required for data: 1190069248
I0119 21:24:51.319948  2527 layer_factory.hpp:76] Creating layer relu5
I0119 21:24:51.319960  2527 net.cpp:106] Creating Layer relu5
I0119 21:24:51.319967  2527 net.cpp:454] relu5 <- conv5
I0119 21:24:51.319979  2527 net.cpp:397] relu5 -> conv5 (in-place)
I0119 21:24:51.320489  2527 net.cpp:150] Setting up relu5
I0119 21:24:51.320502  2527 net.cpp:157] Top shape: 256 256 7 7 (3211264)
I0119 21:24:51.320508  2527 net.cpp:165] Memory required for data: 1202914304
I0119 21:24:51.320514  2527 layer_factory.hpp:76] Creating layer conv5_BN
I0119 21:24:51.320538  2527 net.cpp:106] Creating Layer conv5_BN
I0119 21:24:51.320544  2527 net.cpp:454] conv5_BN <- conv5
I0119 21:24:51.320554  2527 net.cpp:411] conv5_BN -> conv5_BN
I0119 21:24:51.320760  2527 net.cpp:150] Setting up conv5_BN
I0119 21:24:51.320770  2527 net.cpp:157] Top shape: 256 256 7 7 (3211264)
I0119 21:24:51.320775  2527 net.cpp:165] Memory required for data: 1215759360
I0119 21:24:51.320785  2527 layer_factory.hpp:76] Creating layer conv5_1
I0119 21:24:51.320806  2527 net.cpp:106] Creating Layer conv5_1
I0119 21:24:51.320811  2527 net.cpp:454] conv5_1 <- conv5_BN
I0119 21:24:51.320821  2527 net.cpp:411] conv5_1 -> conv5_1
I0119 21:24:51.328696  2527 net.cpp:150] Setting up conv5_1
I0119 21:24:51.328714  2527 net.cpp:157] Top shape: 256 256 7 7 (3211264)
I0119 21:24:51.328721  2527 net.cpp:165] Memory required for data: 1228604416
I0119 21:24:51.328729  2527 layer_factory.hpp:76] Creating layer relu5_1
I0119 21:24:51.328750  2527 net.cpp:106] Creating Layer relu5_1
I0119 21:24:51.328757  2527 net.cpp:454] relu5_1 <- conv5_1
I0119 21:24:51.328766  2527 net.cpp:397] relu5_1 -> conv5_1 (in-place)
I0119 21:24:51.328876  2527 net.cpp:150] Setting up relu5_1
I0119 21:24:51.328886  2527 net.cpp:157] Top shape: 256 256 7 7 (3211264)
I0119 21:24:51.328891  2527 net.cpp:165] Memory required for data: 1241449472
I0119 21:24:51.328898  2527 layer_factory.hpp:76] Creating layer conv5_1_BN
I0119 21:24:51.328917  2527 net.cpp:106] Creating Layer conv5_1_BN
I0119 21:24:51.328922  2527 net.cpp:454] conv5_1_BN <- conv5_1
I0119 21:24:51.328929  2527 net.cpp:411] conv5_1_BN -> conv5_1_BN
I0119 21:24:51.329140  2527 net.cpp:150] Setting up conv5_1_BN
I0119 21:24:51.329150  2527 net.cpp:157] Top shape: 256 256 7 7 (3211264)
I0119 21:24:51.329156  2527 net.cpp:165] Memory required for data: 1254294528
I0119 21:24:51.329190  2527 layer_factory.hpp:76] Creating layer pool5
I0119 21:24:51.329200  2527 net.cpp:106] Creating Layer pool5
I0119 21:24:51.329205  2527 net.cpp:454] pool5 <- conv5_1_BN
I0119 21:24:51.329213  2527 net.cpp:411] pool5 -> pool5
I0119 21:24:51.329480  2527 net.cpp:150] Setting up pool5
I0119 21:24:51.329493  2527 net.cpp:157] Top shape: 256 256 3 3 (589824)
I0119 21:24:51.329498  2527 net.cpp:165] Memory required for data: 1256653824
I0119 21:24:51.329502  2527 layer_factory.hpp:76] Creating layer fc6
I0119 21:24:51.329526  2527 net.cpp:106] Creating Layer fc6
I0119 21:24:51.329532  2527 net.cpp:454] fc6 <- pool5
I0119 21:24:51.329541  2527 net.cpp:411] fc6 -> fc6
I0119 21:24:51.485026  2527 net.cpp:150] Setting up fc6
I0119 21:24:51.485049  2527 net.cpp:157] Top shape: 256 2048 (524288)
I0119 21:24:51.485055  2527 net.cpp:165] Memory required for data: 1258750976
I0119 21:24:51.485067  2527 layer_factory.hpp:76] Creating layer relu6
I0119 21:24:51.485091  2527 net.cpp:106] Creating Layer relu6
I0119 21:24:51.485098  2527 net.cpp:454] relu6 <- fc6
I0119 21:24:51.485108  2527 net.cpp:397] relu6 -> fc6 (in-place)
I0119 21:24:51.485199  2527 net.cpp:150] Setting up relu6
I0119 21:24:51.485208  2527 net.cpp:157] Top shape: 256 2048 (524288)
I0119 21:24:51.485213  2527 net.cpp:165] Memory required for data: 1260848128
I0119 21:24:51.485219  2527 layer_factory.hpp:76] Creating layer fc6_BN
I0119 21:24:51.485226  2527 net.cpp:106] Creating Layer fc6_BN
I0119 21:24:51.485241  2527 net.cpp:454] fc6_BN <- fc6
I0119 21:24:51.485249  2527 net.cpp:411] fc6_BN -> fc6_BN
I0119 21:24:51.485447  2527 net.cpp:150] Setting up fc6_BN
I0119 21:24:51.485456  2527 net.cpp:157] Top shape: 256 2048 (524288)
I0119 21:24:51.485461  2527 net.cpp:165] Memory required for data: 1262945280
I0119 21:24:51.485471  2527 layer_factory.hpp:76] Creating layer drop6
I0119 21:24:51.485492  2527 net.cpp:106] Creating Layer drop6
I0119 21:24:51.485497  2527 net.cpp:454] drop6 <- fc6_BN
I0119 21:24:51.485504  2527 net.cpp:411] drop6 -> drop6
I0119 21:24:51.485558  2527 net.cpp:150] Setting up drop6
I0119 21:24:51.485565  2527 net.cpp:157] Top shape: 256 2048 (524288)
I0119 21:24:51.485570  2527 net.cpp:165] Memory required for data: 1265042432
I0119 21:24:51.485574  2527 layer_factory.hpp:76] Creating layer fc7
I0119 21:24:51.485584  2527 net.cpp:106] Creating Layer fc7
I0119 21:24:51.485600  2527 net.cpp:454] fc7 <- drop6
I0119 21:24:51.485608  2527 net.cpp:411] fc7 -> fc7
I0119 21:24:51.623165  2527 net.cpp:150] Setting up fc7
I0119 21:24:51.623188  2527 net.cpp:157] Top shape: 256 2048 (524288)
I0119 21:24:51.623194  2527 net.cpp:165] Memory required for data: 1267139584
I0119 21:24:51.623206  2527 layer_factory.hpp:76] Creating layer relu7
I0119 21:24:51.623229  2527 net.cpp:106] Creating Layer relu7
I0119 21:24:51.623234  2527 net.cpp:454] relu7 <- fc7
I0119 21:24:51.623245  2527 net.cpp:397] relu7 -> fc7 (in-place)
I0119 21:24:51.623342  2527 net.cpp:150] Setting up relu7
I0119 21:24:51.623350  2527 net.cpp:157] Top shape: 256 2048 (524288)
I0119 21:24:51.623355  2527 net.cpp:165] Memory required for data: 1269236736
I0119 21:24:51.623363  2527 layer_factory.hpp:76] Creating layer fc7_BN
I0119 21:24:51.623369  2527 net.cpp:106] Creating Layer fc7_BN
I0119 21:24:51.623384  2527 net.cpp:454] fc7_BN <- fc7
I0119 21:24:51.623391  2527 net.cpp:411] fc7_BN -> fc7_BN
I0119 21:24:51.623597  2527 net.cpp:150] Setting up fc7_BN
I0119 21:24:51.623606  2527 net.cpp:157] Top shape: 256 2048 (524288)
I0119 21:24:51.623611  2527 net.cpp:165] Memory required for data: 1271333888
I0119 21:24:51.623621  2527 layer_factory.hpp:76] Creating layer drop7
I0119 21:24:51.623639  2527 net.cpp:106] Creating Layer drop7
I0119 21:24:51.623644  2527 net.cpp:454] drop7 <- fc7_BN
I0119 21:24:51.623652  2527 net.cpp:411] drop7 -> drop7
I0119 21:24:51.623708  2527 net.cpp:150] Setting up drop7
I0119 21:24:51.623718  2527 net.cpp:157] Top shape: 256 2048 (524288)
I0119 21:24:51.623723  2527 net.cpp:165] Memory required for data: 1273431040
I0119 21:24:51.623728  2527 layer_factory.hpp:76] Creating layer fc8
I0119 21:24:51.623749  2527 net.cpp:106] Creating Layer fc8
I0119 21:24:51.623754  2527 net.cpp:454] fc8 <- drop7
I0119 21:24:51.623761  2527 net.cpp:411] fc8 -> fc8
I0119 21:24:51.690997  2527 net.cpp:150] Setting up fc8
I0119 21:24:51.691062  2527 net.cpp:157] Top shape: 256 1000 (256000)
I0119 21:24:51.691069  2527 net.cpp:165] Memory required for data: 1274455040
I0119 21:24:51.691094  2527 layer_factory.hpp:76] Creating layer loss
I0119 21:24:51.691109  2527 net.cpp:106] Creating Layer loss
I0119 21:24:51.691118  2527 net.cpp:454] loss <- fc8
I0119 21:24:51.691129  2527 net.cpp:454] loss <- label
I0119 21:24:51.691141  2527 net.cpp:411] loss -> loss
I0119 21:24:51.709287  2527 layer_factory.hpp:76] Creating layer loss
…
    phase: TEST
  }
  transform_param {
    scale: 0.04
    mirror: true
    crop_size: 128
    mean_value: 104
    mean_value: 117
    mean_value: 124
    force_color: true
    resize_param {
      prob: 1
      resize_mode: FIT_SMALL_SIZE
      height: 144
      width: 144
      pad_value: 104
      pad_value: 117
      pad_value: 124
      interp_mode: LINEAR
      center_object: true
      max_angle: 0
    }
  }
  data_param {
    source: "/media/dereyly/2E4057004056CDE9/data/CAFFE_DATA/ilsvrc12_val_lmdb_compact"
    batch_size: 100
    backend: LMDB
  }
}
layer {
  name: "conv1"
  type: "Convolution"
  bottom: "data"
  top: "conv1"
  param {
    lr_mult: 1
    decay_mult: 1
  }
  param {
    lr_mult: 2
    decay_mult: 0
  }
  convolution_param {
    num_output: 96
    kernel_size: 11
    stride: 4
    weight_filler {
      type: "msra"
      std: 0.01
    }
    bias_filler {
      type: "constant"
    }
  }
}
layer {
  name: "relu1"
  type: "PReLU"
  bottom: "conv1"
  top: "conv1"
  prelu_param {
    filler {
      type: "constant"
      value: 0.3
    }
    channel_shared: false
  }
}
layer {
  name: "pool1"
  type: "Pooling"
  bottom: "conv1"
  top: "pool1"
  pooling_param {
    pool: MAX
    kernel_size: 3
    stride: 2
  }
}
layer {
  name: "conv1_BN"
  type: "BatchNorm"
  bottom: "pool1"
  top: "conv1_BN"
}
layer {
  name: "conv2"
  type: "Convolution"
  bottom: "conv1_BN"
  top: "conv2"
  param {
    lr_mult: 1
    decay_mult: 1
  }
  param {
    lr_mult: 2
    decay_mult: 0
  }
  convolution_param {
    num_output: 256
    weight_filler {
      type: "msra"
      std: 0.01
    }
    bias_filler {
      type: "constant"
    }
    pad_h: 0
    pad_w: 1
    kernel_h: 1
    kernel_w: 3
  }
}
layer {
  name: "relu2"
  type: "PReLU"
  bottom: "conv2"
  top: "conv2"
  prelu_param {
    filler {
      type: "constant"
      value: 0.3
    }
    channel_shared: false
  }
}
layer {
  name: "conv2_1_BN"
  type: "BatchNorm"
  bottom: "conv2"
  top: "conv2_1_BN"
}
layer {
  name: "conv2_1"
  type: "Convolution"
  bottom: "conv2_1_BN"
  top: "conv2_1"
  param {
    lr_mult: 1
    decay_mult: 1
  }
  param {
    lr_mult: 2
    decay_mult: 0
  }
  convolution_param {
    num_output: 256
    weight_filler {
      type: "msra"
      std: 0.01
    }
    bias_filler {
      type: "constant"
    }
    pad_h: 1
    pad_w: 0
    kernel_h: 3
    kernel_w: 1
  }
}
layer {
  name: "relu2_1"
  type: "PReLU"
  bottom: "conv2_1"
  top: "conv2_1"
  prelu_param {
    filler {
      type: "constant"
      value: 0.3
    }
    channel_shared: false
  }
}
layer {
  name: "conv2_2_BN"
  type: "BatchNorm"
  bottom: "conv2_1"
  top: "conv2_2_BN"
}
layer {
  name: "conv2_2"
  type: "Convolution"
  bottom: "conv2_2_BN"
  top: "conv2_2"
  param {
    lr_mult: 1
    decay_mult: 1
  }
  param {
    lr_mult: 2
    decay_mult: 0
  }
  convolution_param {
    num_output: 256
    weight_filler {
      type: "msra"
      std: 0.01
    }
    bias_filler {
      type: "constant"
    }
    pad_h: 0
    pad_w: 1
    kernel_h: 1
    kernel_w: 3
  }
}
layer {
  name: "relu2_2"
  type: "PReLU"
  bottom: "conv2_2"
  top: "conv2_2"
  prelu_param {
    filler {
      type: "constant"
      value: 0.3
    }
    channel_shared: false
  }
}
layer {
  name: "conv2_3_BN"
  type: "BatchNorm"
  bottom: "conv2_2"
  top: "conv2_3_BN"
}
layer {
  name: "conv2_3"
  type: "Convolution"
  bottom: "conv2_3_BN"
  top: "conv2_3"
  param {
    lr_mult: 1
    decay_mult: 1
  }
  param {
    lr_mult: 2
    decay_mult: 0
  }
  convolution_param {
    num_output: 256
    weight_filler {
      type: "msra"
      std: 0.01
    }
    bias_filler {
      type: "constant"
    }
    pad_h: 1
    pad_w: 0
    kernel_h: 3
    kernel_w: 1
  }
}
layer {
  name: "relu2_3"
  type: "PReLU"
  bottom: "conv2_3"
  top: "conv2_3"
  prelu_param {
    filler {
      type: "constant"
      value: 0.3
    }
    channel_shared: false
  }
}
layer {
  name: "pool2"
  type: "Pooling"
  bottom: "conv2_3"
  top: "pool2"
  pooling_param {
    pool: MAX
    kernel_size: 3
    stride: 2
  }
}
layer {
  name: "conv2_BN"
  type: "BatchNorm"
  bottom: "pool2"
  top: "conv2_BN"
}
layer {
  name: "conv3"
  type: "Convolution"
  bottom: "conv2_BN"
  top: "conv3"
  param {
    lr_mult: 1
    decay_mult: 1
  }
  param {
    lr_mult: 2
    decay_mult: 0
  }
  convolution_param {
    num_output: 384
    weight_filler {
      type: "msra"
      std: 0.01
    }
    bias_filler {
      type: "constant"
    }
    pad_h: 0
    pad_w: 1
    kernel_h: 1
    kernel_w: 3
  }
}
layer {
  name: "relu3"
  type: "PReLU"
  bottom: "conv3"
  top: "conv3"
  prelu_param {
    filler {
      type: "constant"
      value: 0.3
    }
    channel_shared: false
  }
}
layer {
  name: "conv3_BN"
  type: "BatchNorm"
  bottom: "conv3"
  top: "conv3_BN"
}
layer {
  name: "conv3_1"
  type: "Convolution"
  bottom: "conv3_BN"
  top: "conv3_1"
  param {
    lr_mult: 1
    decay_mult: 1
  }
  param {
    lr_mult: 2
    decay_mult: 0
  }
  convolution_param {
    num_output: 384
    weight_filler {
      type: "msra"
      std: 0.01
    }
    bias_filler {
      type: "constant"
    }
    pad_h: 1
    pad_w: 0
    kernel_h: 3
    kernel_w: 1
  }
}
layer {
  name: "relu3_1"
  type: "PReLU"
  bottom: "conv3_1"
  top: "conv3_1"
  prelu_param {
    filler {
      type: "constant"
      value: 0.3
    }
    channel_shared: false
  }
}
layer {
  name: "conv3_1_BN"
  type: "BatchNorm"
  bottom: "conv3_1"
  top: "conv3_1_BN"
}
layer {
  name: "conv4"
  type: "Convolution"
  bottom: "conv3_1_BN"
  top: "conv4"
  param {
    lr_mult: 1
    decay_mult: 1
  }
  param {
    lr_mult: 2
    decay_mult: 0
  }
  convolution_param {
    num_output: 384
    weight_filler {
      type: "msra"
      std: 0.01
    }
    bias_filler {
      type: "constant"
    }
    pad_h: 0
    pad_w: 1
    kernel_h: 1
    kernel_w: 3
  }
}
layer {
  name: "relu4"
  type: "PReLU"
  bottom: "conv4"
  top: "conv4"
  prelu_param {
    filler {
      type: "constant"
      value: 0.3
    }
    channel_shared: false
  }
}
layer {
  name: "conv4_BN"
  type: "BatchNorm"
  bottom: "conv4"
  top: "conv4_BN"
}
layer {
  name: "conv4_1"
  type: "Convolution"
  bottom: "conv4_BN"
  top: "conv4_1"
  param {
    lr_mult: 1
    decay_mult: 1
  }
  param {
    lr_mult: 2
    decay_mult: 0
  }
  convolution_param {
    num_output: 384
    weight_filler {
      type: "msra"
      std: 0.01
    }
    bias_filler {
      type: "constant"
    }
    pad_h: 1
    pad_w: 0
    kernel_h: 3
    kernel_w: 1
  }
}
layer {
  name: "relu4_1"
  type: "PReLU"
  bottom: "conv4_1"
  top: "conv4_1"
  prelu_param {
    filler {
      type: "constant"
      value: 0.3
    }
    channel_shared: false
  }
}
layer {
  name: "conv4_1_BN"
  type: "BatchNorm"
  bottom: "conv4_1"
  top: "conv4_1_BN"
}
layer {
  name: "conv5"
  type: "Convolution"
  bottom: "conv4_1_BN"
  top: "conv5"
  param {
    lr_mult: 1
    decay_mult: 1
  }
  param {
    lr_mult: 2
    decay_mult: 0
  }
  convolution_param {
    num_output: 256
    weight_filler {
      type: "msra"
      std: 0.01
    }
    bias_filler {
      type: "constant"
    }
    pad_h: 0
    pad_w: 1
    kernel_h: 1
    kernel_w: 3
  }
}
layer {
  name: "relu5"
  type: "PReLU"
  bottom: "conv5"
  top: "conv5"
  prelu_param {
    filler {
      type: "constant"
      value: 0.3
    }
    channel_shared: false
  }
}
layer {
  name: "conv5_BN"
  type: "BatchNorm"
  bottom: "conv5"
  top: "conv5_BN"
}
layer {
  name: "conv5_1"
  type: "Convolution"
  bottom: "conv5_BN"
  top: "conv5_1"
  param {
    lr_mult: 1
    decay_mult: 1
  }
  param {
    lr_mult: 2
    decay_mult: 0
  }
  convolution_param {
    num_output: 256
    weight_filler {
      type: "msra"
      std: 0.01
    }
    bias_filler {
      type: "constant"
    }
    pad_h: 1
    pad_w: 0
    kernel_h: 3
    kernel_w: 1
  }
}
layer {
  name: "relu5_1"
  type: "PReLU"
  bottom: "conv5_1"
  top: "conv5_1"
  prelu_param {
    filler {
      type: "constant"
      value: 0.3
    }
    channel_shared: false
  }
}
layer {
  name: "conv5_1_BN"
  type: "BatchNorm"
  bottom: "conv5_1"
  top: "conv5_1_BN"
}
layer {
  name: "pool5"
  type: "Pooling"
  bottom: "conv5_1_BN"
  top: "pool5"
  pooling_param {
    pool: MAX
    kernel_size: 3
    stride: 2
  }
}
layer {
  name: "fc6"
  type: "InnerProduct"
  bottom: "pool5"
  top: "fc6"
  param {
    lr_mult: 1
    decay_mult: 1
  }
  param {
    lr_mult: 2
    decay_mult: 0
  }
  inner_product_param {
    num_output: 2048
    weight_filler {
      type: "gaussian"
      std: 0.005
    }
    bias_filler {
      type: "constant"
    }
  }
}
layer {
  name: "relu6"
  type: "PReLU"
  bottom: "fc6"
  top: "fc6"
  prelu_param {
    filler {
      type: "constant"
      value: 0.3
    }
    channel_shared: false
  }
}
layer {
  name: "fc6_BN"
  type: "BatchNorm"
  bottom: "fc6"
  top: "fc6_BN"
}
layer {
  name: "drop6"
  type: "Dropout"
  bottom: "fc6_BN"
  top: "drop6"
  dropout_param {
    dropout_ratio: 0.2
  }
}
layer {
  name: "fc7"
  type: "InnerProduct"
  bottom: "drop6"
  top: "fc7"
  param {
    lr_mult: 1
    decay_mult: 1
  }
  param {
    lr_mult: 2
    decay_mult: 0
  }
  inner_product_param {
    num_output: 2048
    weight_filler {
      type: "gaussian"
      std: 0.005
    }
    bias_filler {
      type: "constant"
    }
  }
}
layer {
  name: "relu7"
  type: "PReLU"
  bottom: "fc7"
  top: "fc7"
  prelu_param {
    filler {
      type: "constant"
      value: 0.3
    }
    channel_shared: false
  }
}
layer {
  name: "fc7_BN"
  type: "BatchNorm"
  bottom: "fc7"
  top: "fc7_BN"
}
layer {
  name: "drop7"
  type: "Dropout"
  bottom: "fc7_BN"
  top: "drop7"
  dropout_param {
    dropout_ratio: 0.2
  }
}
layer {
  name: "fc8"
  type: "InnerProduct"
  bottom: "drop7"
  top: "fc8"
  param {
    lr_mult: 1
    decay_mult: 1
  }
  param {
    lr_mult: 2
    decay_mult: 0
  }
  inner_product_param {
    num_output: 1000
    weight_filler {
      type: "gaussian"
      std: 0.01
    }
    bias_filler {
      type: "constant"
    }
  }
}
layer {
  name: "accuracy"
  type: "Accuracy"
  bottom: "fc8"
  bottom: "label"
  top: "accuracy"
  include {
    phase: TEST
  }
}
layer {
  name: "loss"
  type: "SoftmaxWithLoss"
  bottom: "fc8"
  bottom: "label"
  top: "loss"
}
I0119 21:24:51.714604  2527 layer_factory.hpp:76] Creating layer data
I0119 21:24:51.714746  2527 net.cpp:106] Creating Layer data
I0119 21:24:51.714759  2527 net.cpp:411] data -> data
I0119 21:24:51.714771  2527 net.cpp:411] data -> label
I0119 21:24:51.716454  2541 db_lmdb.cpp:38] Opened lmdb /media/dereyly/2E4057004056CDE9/data/CAFFE_DATA/ilsvrc12_val_lmdb_compact
I0119 21:24:51.722853  2527 data_layer.cpp:41] output data size: 100,3,128,128
I0119 21:24:51.749142  2527 net.cpp:150] Setting up data
I0119 21:24:51.749166  2527 net.cpp:157] Top shape: 100 3 128 128 (4915200)
I0119 21:24:51.749173  2527 net.cpp:157] Top shape: 100 (100)
I0119 21:24:51.749178  2527 net.cpp:165] Memory required for data: 19661200
I0119 21:24:51.749186  2527 layer_factory.hpp:76] Creating layer label_data_1_split
I0119 21:24:51.749200  2527 net.cpp:106] Creating Layer label_data_1_split
I0119 21:24:51.749207  2527 net.cpp:454] label_data_1_split <- label
I0119 21:24:51.749217  2527 net.cpp:411] label_data_1_split -> label_data_1_split_0
I0119 21:24:51.749230  2527 net.cpp:411] label_data_1_split -> label_data_1_split_1
I0119 21:24:51.749387  2527 net.cpp:150] Setting up label_data_1_split
I0119 21:24:51.749409  2527 net.cpp:157] Top shape: 100 (100)
I0119 21:24:51.749416  2527 net.cpp:157] Top shape: 100 (100)
I0119 21:24:51.749420  2527 net.cpp:165] Memory required for data: 19662000
I0119 21:24:51.749426  2527 layer_factory.hpp:76] Creating layer conv1
I0119 21:24:51.749439  2527 net.cpp:106] Creating Layer conv1
I0119 21:24:51.749449  2527 net.cpp:454] conv1 <- data
I0119 21:24:51.749459  2527 net.cpp:411] conv1 -> conv1
I0119 21:24:51.751932  2527 net.cpp:150] Setting up conv1
I0119 21:24:51.751970  2527 net.cpp:157] Top shape: 100 96 30 30 (8640000)
I0119 21:24:51.751974  2527 net.cpp:165] Memory required for data: 54222000
I0119 21:24:51.751996  2527 layer_factory.hpp:76] Creating layer relu1
I0119 21:24:51.752013  2527 net.cpp:106] Creating Layer relu1
I0119 21:24:51.752022  2527 net.cpp:454] relu1 <- conv1
I0119 21:24:51.752030  2527 net.cpp:397] relu1 -> conv1 (in-place)
I0119 21:24:51.752213  2527 net.cpp:150] Setting up relu1
I0119 21:24:51.752234  2527 net.cpp:157] Top shape: 100 96 30 30 (8640000)
I0119 21:24:51.752239  2527 net.cpp:165] Memory required for data: 88782000
I0119 21:24:51.752249  2527 layer_factory.hpp:76] Creating layer pool1
I0119 21:24:51.752259  2527 net.cpp:106] Creating Layer pool1
I0119 21:24:51.752264  2527 net.cpp:454] pool1 <- conv1
I0119 21:24:51.752271  2527 net.cpp:411] pool1 -> pool1
I0119 21:24:51.754364  2527 net.cpp:150] Setting up pool1
I0119 21:24:51.754390  2527 net.cpp:157] Top shape: 100 96 15 15 (2160000)
I0119 21:24:51.754396  2527 net.cpp:165] Memory required for data: 97422000
I0119 21:24:51.754401  2527 layer_factory.hpp:76] Creating layer conv1_BN
I0119 21:24:51.754410  2527 net.cpp:106] Creating Layer conv1_BN
I0119 21:24:51.754415  2527 net.cpp:454] conv1_BN <- pool1
I0119 21:24:51.754423  2527 net.cpp:411] conv1_BN -> conv1_BN
I0119 21:24:51.754675  2527 net.cpp:150] Setting up conv1_BN
I0119 21:24:51.754698  2527 net.cpp:157] Top shape: 100 96 15 15 (2160000)
I0119 21:24:51.754703  2527 net.cpp:165] Memory required for data: 106062000
I0119 21:24:51.754716  2527 layer_factory.hpp:76] Creating layer conv2
I0119 21:24:51.754727  2527 net.cpp:106] Creating Layer conv2
I0119 21:24:51.754736  2527 net.cpp:454] conv2 <- conv1_BN
I0119 21:24:51.754745  2527 net.cpp:411] conv2 -> conv2
I0119 21:24:51.758832  2527 net.cpp:150] Setting up conv2
I0119 21:24:51.758867  2527 net.cpp:157] Top shape: 100 256 15 15 (5760000)
I0119 21:24:51.758872  2527 net.cpp:165] Memory required for data: 129102000
I0119 21:24:51.758883  2527 layer_factory.hpp:76] Creating layer relu2
I0119 21:24:51.758895  2527 net.cpp:106] Creating Layer relu2
I0119 21:24:51.758901  2527 net.cpp:454] relu2 <- conv2
I0119 21:24:51.758911  2527 net.cpp:397] relu2 -> conv2 (in-place)
I0119 21:24:51.759055  2527 net.cpp:150] Setting up relu2
I0119 21:24:51.759078  2527 net.cpp:157] Top shape: 100 256 15 15 (5760000)
I0119 21:24:51.759083  2527 net.cpp:165] Memory required for data: 152142000
I0119 21:24:51.759094  2527 layer_factory.hpp:76] Creating layer conv2_1_BN
I0119 21:24:51.759104  2527 net.cpp:106] Creating Layer conv2_1_BN
I0119 21:24:51.759111  2527 net.cpp:454] conv2_1_BN <- conv2
I0119 21:24:51.759119  2527 net.cpp:411] conv2_1_BN -> conv2_1_BN
I0119 21:24:51.759328  2527 net.cpp:150] Setting up conv2_1_BN
I0119 21:24:51.759349  2527 net.cpp:157] Top shape: 100 256 15 15 (5760000)
I0119 21:24:51.759354  2527 net.cpp:165] Memory required for data: 175182000
I0119 21:24:51.759366  2527 layer_factory.hpp:76] Creating layer conv2_1
I0119 21:24:51.759377  2527 net.cpp:106] Creating Layer conv2_1
I0119 21:24:51.759382  2527 net.cpp:454] conv2_1 <- conv2_1_BN
I0119 21:24:51.759390  2527 net.cpp:411] conv2_1 -> conv2_1
I0119 21:24:51.767547  2527 net.cpp:150] Setting up conv2_1
I0119 21:24:51.767585  2527 net.cpp:157] Top shape: 100 256 15 15 (5760000)
I0119 21:24:51.767590  2527 net.cpp:165] Memory required for data: 198222000
I0119 21:24:51.767601  2527 layer_factory.hpp:76] Creating layer relu2_1
I0119 21:24:51.767613  2527 net.cpp:106] Creating Layer relu2_1
I0119 21:24:51.767635  2527 net.cpp:454] relu2_1 <- conv2_1
I0119 21:24:51.767645  2527 net.cpp:397] relu2_1 -> conv2_1 (in-place)
I0119 21:24:51.768136  2527 net.cpp:150] Setting up relu2_1
I0119 21:24:51.768159  2527 net.cpp:157] Top shape: 100 256 15 15 (5760000)
I0119 21:24:51.768164  2527 net.cpp:165] Memory required for data: 221262000
I0119 21:24:51.768172  2527 layer_factory.hpp:76] Creating layer conv2_2_BN
I0119 21:24:51.768180  2527 net.cpp:106] Creating Layer conv2_2_BN
I0119 21:24:51.768185  2527 net.cpp:454] conv2_2_BN <- conv2_1
I0119 21:24:51.768193  2527 net.cpp:411] conv2_2_BN -> conv2_2_BN
I0119 21:24:51.768426  2527 net.cpp:150] Setting up conv2_2_BN
I0119 21:24:51.768448  2527 net.cpp:157] Top shape: 100 256 15 15 (5760000)
I0119 21:24:51.768453  2527 net.cpp:165] Memory required for data: 244302000
I0119 21:24:51.768470  2527 layer_factory.hpp:76] Creating layer conv2_2
I0119 21:24:51.768482  2527 net.cpp:106] Creating Layer conv2_2
I0119 21:24:51.768488  2527 net.cpp:454] conv2_2 <- conv2_2_BN
I0119 21:24:51.768496  2527 net.cpp:411] conv2_2 -> conv2_2
I0119 21:24:51.776823  2527 net.cpp:150] Setting up conv2_2
I0119 21:24:51.776861  2527 net.cpp:157] Top shape: 100 256 15 15 (5760000)
I0119 21:24:51.776866  2527 net.cpp:165] Memory required for data: 267342000
I0119 21:24:51.776877  2527 layer_factory.hpp:76] Creating layer relu2_2
I0119 21:24:51.776890  2527 net.cpp:106] Creating Layer relu2_2
I0119 21:24:51.776896  2527 net.cpp:454] relu2_2 <- conv2_2
I0119 21:24:51.776906  2527 net.cpp:397] relu2_2 -> conv2_2 (in-place)
I0119 21:24:51.777061  2527 net.cpp:150] Setting up relu2_2
I0119 21:24:51.777083  2527 net.cpp:157] Top shape: 100 256 15 15 (5760000)
I0119 21:24:51.777088  2527 net.cpp:165] Memory required for data: 290382000
I0119 21:24:51.777096  2527 layer_factory.hpp:76] Creating layer conv2_3_BN
I0119 21:24:51.777106  2527 net.cpp:106] Creating Layer conv2_3_BN
I0119 21:24:51.777110  2527 net.cpp:454] conv2_3_BN <- conv2_2
I0119 21:24:51.777118  2527 net.cpp:411] conv2_3_BN -> conv2_3_BN
I0119 21:24:51.777374  2527 net.cpp:150] Setting up conv2_3_BN
I0119 21:24:51.777386  2527 net.cpp:157] Top shape: 100 256 15 15 (5760000)
I0119 21:24:51.777391  2527 net.cpp:165] Memory required for data: 313422000
I0119 21:24:51.777402  2527 layer_factory.hpp:76] Creating layer conv2_3
I0119 21:24:51.777417  2527 net.cpp:106] Creating Layer conv2_3
I0119 21:24:51.777426  2527 net.cpp:454] conv2_3 <- conv2_3_BN
I0119 21:24:51.777436  2527 net.cpp:411] conv2_3 -> conv2_3
I0119 21:24:51.786833  2527 net.cpp:150] Setting up conv2_3
I0119 21:24:51.786855  2527 net.cpp:157] Top shape: 100 256 15 15 (5760000)
I0119 21:24:51.786861  2527 net.cpp:165] Memory required for data: 336462000
I0119 21:24:51.786882  2527 layer_factory.hpp:76] Creating layer relu2_3
I0119 21:24:51.786900  2527 net.cpp:106] Creating Layer relu2_3
I0119 21:24:51.786909  2527 net.cpp:454] relu2_3 <- conv2_3
I0119 21:24:51.786918  2527 net.cpp:397] relu2_3 -> conv2_3 (in-place)
I0119 21:24:51.787066  2527 net.cpp:150] Setting up relu2_3
I0119 21:24:51.787076  2527 net.cpp:157] Top shape: 100 256 15 15 (5760000)
I0119 21:24:51.787091  2527 net.cpp:165] Memory required for data: 359502000
I0119 21:24:51.787098  2527 layer_factory.hpp:76] Creating layer pool2
I0119 21:24:51.787123  2527 net.cpp:106] Creating Layer pool2
I0119 21:24:51.787140  2527 net.cpp:454] pool2 <- conv2_3
I0119 21:24:51.787147  2527 net.cpp:411] pool2 -> pool2
I0119 21:24:51.787551  2527 net.cpp:150] Setting up pool2
I0119 21:24:51.787575  2527 net.cpp:157] Top shape: 100 256 7 7 (1254400)
I0119 21:24:51.787580  2527 net.cpp:165] Memory required for data: 364519600
I0119 21:24:51.787585  2527 layer_factory.hpp:76] Creating layer conv2_BN
I0119 21:24:51.787606  2527 net.cpp:106] Creating Layer conv2_BN
I0119 21:24:51.787611  2527 net.cpp:454] conv2_BN <- pool2
I0119 21:24:51.787618  2527 net.cpp:411] conv2_BN -> conv2_BN
I0119 21:24:51.787906  2527 net.cpp:150] Setting up conv2_BN
I0119 21:24:51.787917  2527 net.cpp:157] Top shape: 100 256 7 7 (1254400)
I0119 21:24:51.787950  2527 net.cpp:165] Memory required for data: 369537200
I0119 21:24:51.787966  2527 layer_factory.hpp:76] Creating layer conv3
I0119 21:24:51.787977  2527 net.cpp:106] Creating Layer conv3
I0119 21:24:51.787983  2527 net.cpp:454] conv3 <- conv2_BN
I0119 21:24:51.787991  2527 net.cpp:411] conv3 -> conv3
I0119 21:24:51.800825  2527 net.cpp:150] Setting up conv3
I0119 21:24:51.800858  2527 net.cpp:157] Top shape: 100 384 7 7 (1881600)
I0119 21:24:51.800864  2527 net.cpp:165] Memory required for data: 377063600
I0119 21:24:51.800885  2527 layer_factory.hpp:76] Creating layer relu3
I0119 21:24:51.800915  2527 net.cpp:106] Creating Layer relu3
I0119 21:24:51.800923  2527 net.cpp:454] relu3 <- conv3
I0119 21:24:51.800932  2527 net.cpp:397] relu3 -> conv3 (in-place)
I0119 21:24:51.801069  2527 net.cpp:150] Setting up relu3
I0119 21:24:51.801090  2527 net.cpp:157] Top shape: 100 384 7 7 (1881600)
I0119 21:24:51.801095  2527 net.cpp:165] Memory required for data: 384590000
I0119 21:24:51.801122  2527 layer_factory.hpp:76] Creating layer conv3_BN
I0119 21:24:51.801131  2527 net.cpp:106] Creating Layer conv3_BN
I0119 21:24:51.801136  2527 net.cpp:454] conv3_BN <- conv3
I0119 21:24:51.801146  2527 net.cpp:411] conv3_BN -> conv3_BN
I0119 21:24:51.801383  2527 net.cpp:150] Setting up conv3_BN
I0119 21:24:51.801403  2527 net.cpp:157] Top shape: 100 384 7 7 (1881600)
I0119 21:24:51.801409  2527 net.cpp:165] Memory required for data: 392116400
I0119 21:24:51.801429  2527 layer_factory.hpp:76] Creating layer conv3_1
I0119 21:24:51.801445  2527 net.cpp:106] Creating Layer conv3_1
I0119 21:24:51.801452  2527 net.cpp:454] conv3_1 <- conv3_BN
I0119 21:24:51.801460  2527 net.cpp:411] conv3_1 -> conv3_1
I0119 21:24:51.819903  2527 net.cpp:150] Setting up conv3_1
I0119 21:24:51.819939  2527 net.cpp:157] Top shape: 100 384 7 7 (1881600)
I0119 21:24:51.819947  2527 net.cpp:165] Memory required for data: 399642800
I0119 21:24:51.819957  2527 layer_factory.hpp:76] Creating layer relu3_1
I0119 21:24:51.819972  2527 net.cpp:106] Creating Layer relu3_1
I0119 21:24:51.819982  2527 net.cpp:454] relu3_1 <- conv3_1
I0119 21:24:51.819990  2527 net.cpp:397] relu3_1 -> conv3_1 (in-place)
I0119 21:24:51.820142  2527 net.cpp:150] Setting up relu3_1
I0119 21:24:51.820163  2527 net.cpp:157] Top shape: 100 384 7 7 (1881600)
I0119 21:24:51.820168  2527 net.cpp:165] Memory required for data: 407169200
I0119 21:24:51.820185  2527 layer_factory.hpp:76] Creating layer conv3_1_BN
I0119 21:24:51.820193  2527 net.cpp:106] Creating Layer conv3_1_BN
I0119 21:24:51.820209  2527 net.cpp:454] conv3_1_BN <- conv3_1
I0119 21:24:51.820216  2527 net.cpp:411] conv3_1_BN -> conv3_1_BN
I0119 21:24:51.820477  2527 net.cpp:150] Setting up conv3_1_BN
I0119 21:24:51.820497  2527 net.cpp:157] Top shape: 100 384 7 7 (1881600)
I0119 21:24:51.820513  2527 net.cpp:165] Memory required for data: 414695600
I0119 21:24:51.820523  2527 layer_factory.hpp:76] Creating layer conv4
I0119 21:24:51.820544  2527 net.cpp:106] Creating Layer conv4
I0119 21:24:51.820552  2527 net.cpp:454] conv4 <- conv3_1_BN
I0119 21:24:51.820560  2527 net.cpp:411] conv4 -> conv4
I0119 21:24:51.838768  2527 net.cpp:150] Setting up conv4
I0119 21:24:51.838801  2527 net.cpp:157] Top shape: 100 384 7 7 (1881600)
I0119 21:24:51.838807  2527 net.cpp:165] Memory required for data: 422222000
I0119 21:24:51.838830  2527 layer_factory.hpp:76] Creating layer relu4
I0119 21:24:51.838842  2527 net.cpp:106] Creating Layer relu4
I0119 21:24:51.838850  2527 net.cpp:454] relu4 <- conv4
I0119 21:24:51.838860  2527 net.cpp:397] relu4 -> conv4 (in-place)
I0119 21:24:51.839046  2527 net.cpp:150] Setting up relu4
I0119 21:24:51.839069  2527 net.cpp:157] Top shape: 100 384 7 7 (1881600)
I0119 21:24:51.839074  2527 net.cpp:165] Memory required for data: 429748400
I0119 21:24:51.839082  2527 layer_factory.hpp:76] Creating layer conv4_BN
I0119 21:24:51.839090  2527 net.cpp:106] Creating Layer conv4_BN
I0119 21:24:51.839104  2527 net.cpp:454] conv4_BN <- conv4
I0119 21:24:51.839112  2527 net.cpp:411] conv4_BN -> conv4_BN
I0119 21:24:51.839398  2527 net.cpp:150] Setting up conv4_BN
I0119 21:24:51.839409  2527 net.cpp:157] Top shape: 100 384 7 7 (1881600)
I0119 21:24:51.839424  2527 net.cpp:165] Memory required for data: 437274800
I0119 21:24:51.839434  2527 layer_factory.hpp:76] Creating layer conv4_1
I0119 21:24:51.839458  2527 net.cpp:106] Creating Layer conv4_1
I0119 21:24:51.839465  2527 net.cpp:454] conv4_1 <- conv4_BN
I0119 21:24:51.839476  2527 net.cpp:411] conv4_1 -> conv4_1
I0119 21:24:51.851296  2527 net.cpp:150] Setting up conv4_1
I0119 21:24:51.851326  2527 net.cpp:157] Top shape: 100 384 7 7 (1881600)
I0119 21:24:51.851331  2527 net.cpp:165] Memory required for data: 444801200
I0119 21:24:51.851339  2527 layer_factory.hpp:76] Creating layer relu4_1
I0119 21:24:51.851351  2527 net.cpp:106] Creating Layer relu4_1
I0119 21:24:51.851356  2527 net.cpp:454] relu4_1 <- conv4_1
I0119 21:24:51.851362  2527 net.cpp:397] relu4_1 -> conv4_1 (in-place)
I0119 21:24:51.851452  2527 net.cpp:150] Setting up relu4_1
I0119 21:24:51.851461  2527 net.cpp:157] Top shape: 100 384 7 7 (1881600)
I0119 21:24:51.851466  2527 net.cpp:165] Memory required for data: 452327600
I0119 21:24:51.851474  2527 layer_factory.hpp:76] Creating layer conv4_1_BN
I0119 21:24:51.851485  2527 net.cpp:106] Creating Layer conv4_1_BN
I0119 21:24:51.851491  2527 net.cpp:454] conv4_1_BN <- conv4_1
I0119 21:24:51.851498  2527 net.cpp:411] conv4_1_BN -> conv4_1_BN
I0119 21:24:51.851677  2527 net.cpp:150] Setting up conv4_1_BN
I0119 21:24:51.851686  2527 net.cpp:157] Top shape: 100 384 7 7 (1881600)
I0119 21:24:51.851692  2527 net.cpp:165] Memory required for data: 459854000
I0119 21:24:51.851716  2527 layer_factory.hpp:76] Creating layer conv5
I0119 21:24:51.851728  2527 net.cpp:106] Creating Layer conv5
I0119 21:24:51.851737  2527 net.cpp:454] conv5 <- conv4_1_BN
I0119 21:24:51.851744  2527 net.cpp:411] conv5 -> conv5
I0119 21:24:51.859004  2527 net.cpp:150] Setting up conv5
I0119 21:24:51.859024  2527 net.cpp:157] Top shape: 100 256 7 7 (1254400)
I0119 21:24:51.859028  2527 net.cpp:165] Memory required for data: 464871600
I0119 21:24:51.859050  2527 layer_factory.hpp:76] Creating layer relu5
I0119 21:24:51.859071  2527 net.cpp:106] Creating Layer relu5
I0119 21:24:51.859078  2527 net.cpp:454] relu5 <- conv5
I0119 21:24:51.859091  2527 net.cpp:397] relu5 -> conv5 (in-place)
I0119 21:24:51.859205  2527 net.cpp:150] Setting up relu5
I0119 21:24:51.859213  2527 net.cpp:157] Top shape: 100 256 7 7 (1254400)
I0119 21:24:51.859218  2527 net.cpp:165] Memory required for data: 469889200
I0119 21:24:51.859237  2527 layer_factory.hpp:76] Creating layer conv5_BN
I0119 21:24:51.859248  2527 net.cpp:106] Creating Layer conv5_BN
I0119 21:24:51.859254  2527 net.cpp:454] conv5_BN <- conv5
I0119 21:24:51.859262  2527 net.cpp:411] conv5_BN -> conv5_BN
I0119 21:24:51.859441  2527 net.cpp:150] Setting up conv5_BN
I0119 21:24:51.859449  2527 net.cpp:157] Top shape: 100 256 7 7 (1254400)
I0119 21:24:51.859454  2527 net.cpp:165] Memory required for data: 474906800
I0119 21:24:51.859477  2527 layer_factory.hpp:76] Creating layer conv5_1
I0119 21:24:51.859490  2527 net.cpp:106] Creating Layer conv5_1
I0119 21:24:51.859498  2527 net.cpp:454] conv5_1 <- conv5_BN
I0119 21:24:51.859508  2527 net.cpp:411] conv5_1 -> conv5_1
I0119 21:24:51.867178  2527 net.cpp:150] Setting up conv5_1
I0119 21:24:51.867199  2527 net.cpp:157] Top shape: 100 256 7 7 (1254400)
I0119 21:24:51.867205  2527 net.cpp:165] Memory required for data: 479924400
I0119 21:24:51.867218  2527 layer_factory.hpp:76] Creating layer relu5_1
I0119 21:24:51.867230  2527 net.cpp:106] Creating Layer relu5_1
I0119 21:24:51.867238  2527 net.cpp:454] relu5_1 <- conv5_1
I0119 21:24:51.867251  2527 net.cpp:397] relu5_1 -> conv5_1 (in-place)
I0119 21:24:51.867369  2527 net.cpp:150] Setting up relu5_1
I0119 21:24:51.867379  2527 net.cpp:157] Top shape: 100 256 7 7 (1254400)
I0119 21:24:51.867385  2527 net.cpp:165] Memory required for data: 484942000
I0119 21:24:51.867393  2527 layer_factory.hpp:76] Creating layer conv5_1_BN
I0119 21:24:51.867404  2527 net.cpp:106] Creating Layer conv5_1_BN
I0119 21:24:51.867424  2527 net.cpp:454] conv5_1_BN <- conv5_1
I0119 21:24:51.867434  2527 net.cpp:411] conv5_1_BN -> conv5_1_BN
I0119 21:24:51.867636  2527 net.cpp:150] Setting up conv5_1_BN
I0119 21:24:51.867646  2527 net.cpp:157] Top shape: 100 256 7 7 (1254400)
I0119 21:24:51.867652  2527 net.cpp:165] Memory required for data: 489959600
I0119 21:24:51.867677  2527 layer_factory.hpp:76] Creating layer pool5
I0119 21:24:51.867688  2527 net.cpp:106] Creating Layer pool5
I0119 21:24:51.867694  2527 net.cpp:454] pool5 <- conv5_1_BN
I0119 21:24:51.867703  2527 net.cpp:411] pool5 -> pool5
I0119 21:24:51.867887  2527 net.cpp:150] Setting up pool5
I0119 21:24:51.867898  2527 net.cpp:157] Top shape: 100 256 3 3 (230400)
I0119 21:24:51.867903  2527 net.cpp:165] Memory required for data: 490881200
I0119 21:24:51.867909  2527 layer_factory.hpp:76] Creating layer fc6
I0119 21:24:51.867923  2527 net.cpp:106] Creating Layer fc6
I0119 21:24:51.867928  2527 net.cpp:454] fc6 <- pool5
I0119 21:24:51.867938  2527 net.cpp:411] fc6 -> fc6
I0119 21:24:51.972751  2527 net.cpp:150] Setting up fc6
I0119 21:24:51.972786  2527 net.cpp:157] Top shape: 100 2048 (204800)
I0119 21:24:51.972792  2527 net.cpp:165] Memory required for data: 491700400
I0119 21:24:51.972806  2527 layer_factory.hpp:76] Creating layer relu6
I0119 21:24:51.972820  2527 net.cpp:106] Creating Layer relu6
I0119 21:24:51.972829  2527 net.cpp:454] relu6 <- fc6
I0119 21:24:51.972843  2527 net.cpp:397] relu6 -> fc6 (in-place)
I0119 21:24:51.972967  2527 net.cpp:150] Setting up relu6
I0119 21:24:51.972976  2527 net.cpp:157] Top shape: 100 2048 (204800)
I0119 21:24:51.972981  2527 net.cpp:165] Memory required for data: 492519600
I0119 21:24:51.973000  2527 layer_factory.hpp:76] Creating layer fc6_BN
I0119 21:24:51.973009  2527 net.cpp:106] Creating Layer fc6_BN
I0119 21:24:51.973016  2527 net.cpp:454] fc6_BN <- fc6
I0119 21:24:51.973023  2527 net.cpp:411] fc6_BN -> fc6_BN
I0119 21:24:51.973248  2527 net.cpp:150] Setting up fc6_BN
I0119 21:24:51.973258  2527 net.cpp:157] Top shape: 100 2048 (204800)
I0119 21:24:51.973263  2527 net.cpp:165] Memory required for data: 493338800
I0119 21:24:51.973286  2527 layer_factory.hpp:76] Creating layer drop6
I0119 21:24:51.973296  2527 net.cpp:106] Creating Layer drop6
I0119 21:24:51.973305  2527 net.cpp:454] drop6 <- fc6_BN
I0119 21:24:51.973314  2527 net.cpp:411] drop6 -> drop6
I0119 21:24:51.973361  2527 net.cpp:150] Setting up drop6
I0119 21:24:51.973369  2527 net.cpp:157] Top shape: 100 2048 (204800)
I0119 21:24:51.973376  2527 net.cpp:165] Memory required for data: 494158000
I0119 21:24:51.973381  2527 layer_factory.hpp:76] Creating layer fc7
I0119 21:24:51.973392  2527 net.cpp:106] Creating Layer fc7
I0119 21:24:51.973399  2527 net.cpp:454] fc7 <- drop6
I0119 21:24:51.973407  2527 net.cpp:411] fc7 -> fc7
I0119 21:24:52.069491  2527 net.cpp:150] Setting up fc7
I0119 21:24:52.069515  2527 net.cpp:157] Top shape: 100 2048 (204800)
I0119 21:24:52.069521  2527 net.cpp:165] Memory required for data: 494977200
I0119 21:24:52.069545  2527 layer_factory.hpp:76] Creating layer relu7
I0119 21:24:52.069561  2527 net.cpp:106] Creating Layer relu7
I0119 21:24:52.069568  2527 net.cpp:454] relu7 <- fc7
I0119 21:24:52.069582  2527 net.cpp:397] relu7 -> fc7 (in-place)
I0119 21:24:52.069705  2527 net.cpp:150] Setting up relu7
I0119 21:24:52.069715  2527 net.cpp:157] Top shape: 100 2048 (204800)
I0119 21:24:52.069720  2527 net.cpp:165] Memory required for data: 495796400
I0119 21:24:52.069738  2527 layer_factory.hpp:76] Creating layer fc7_BN
I0119 21:24:52.069747  2527 net.cpp:106] Creating Layer fc7_BN
I0119 21:24:52.069753  2527 net.cpp:454] fc7_BN <- fc7
I0119 21:24:52.069761  2527 net.cpp:411] fc7_BN -> fc7_BN
I0119 21:24:52.069957  2527 net.cpp:150] Setting up fc7_BN
I0119 21:24:52.069965  2527 net.cpp:157] Top shape: 100 2048 (204800)
I0119 21:24:52.069970  2527 net.cpp:165] Memory required for data: 496615600
I0119 21:24:52.069993  2527 layer_factory.hpp:76] Creating layer drop7
I0119 21:24:52.070003  2527 net.cpp:106] Creating Layer drop7
I0119 21:24:52.070024  2527 net.cpp:454] drop7 <- fc7_BN
I0119 21:24:52.070044  2527 net.cpp:411] drop7 -> drop7
I0119 21:24:52.070111  2527 net.cpp:150] Setting up drop7
I0119 21:24:52.070121  2527 net.cpp:157] Top shape: 100 2048 (204800)
I0119 21:24:52.070125  2527 net.cpp:165] Memory required for data: 497434800
I0119 21:24:52.070142  2527 layer_factory.hpp:76] Creating layer fc8
I0119 21:24:52.070153  2527 net.cpp:106] Creating Layer fc8
I0119 21:24:52.070159  2527 net.cpp:454] fc8 <- drop7
I0119 21:24:52.070168  2527 net.cpp:411] fc8 -> fc8
I0119 21:24:52.117559  2527 net.cpp:150] Setting up fc8
I0119 21:24:52.117581  2527 net.cpp:157] Top shape: 100 1000 (100000)
I0119 21:24:52.117588  2527 net.cpp:165] Memory required for data: 497834800
I0119 21:24:52.117610  2527 layer_factory.hpp:76] Creating layer fc8_fc8_0_split
I0119 21:24:52.117622  2527 net.cpp:106] Creating Layer fc8_fc8_0_split
I0119 21:24:52.117630  2527 net.cpp:454] fc8_fc8_0_split <- fc8
I0119 21:24:52.117640  2527 net.cpp:411] fc8_fc8_0_split -> fc8_fc8_0_split_0
I0119 21:24:52.117652  2527 net.cpp:411] fc8_fc8_0_split -> fc8_fc8_0_split_1
I0119 21:24:52.117718  2527 net.cpp:150] Setting up fc8_fc8_0_split
I0119 21:24:52.117727  2527 net.cpp:157] Top shape: 100 1000 (100000)
I0119 21:24:52.117734  2527 net.cpp:157] Top shape: 100 1000 (100000)
I0119 21:24:52.117749  2527 net.cpp:165] Memory required for data: 498634800
I0119 21:24:52.117758  2527 layer_factory.hpp:76] Creating layer accuracy
I0119 21:24:52.117774  2527 net.cpp:106] Creating Layer accuracy
I0119 21:24:52.117780  2527 net.cpp:454] accuracy <- fc8_fc8_0_split_0
I0119 21:24:52.117787  2527 net.cpp:454] accuracy <- label_data_1_split_0
I0119 21:24:52.117799  2527 net.cpp:411] accuracy -> accuracy
…
I0121 20:21:55.086007  2505 net.cpp:322] The NetState phase (0) differed from the phase (1) specified by a rule in layer accuracy
I0121 20:21:55.086405  2505 net.cpp:49] Initializing net from parameters: 
name: "CaffeNet"
state {
  phase: TRAIN
}
layer {
  name: "data"
  type: "Data"
  top: "data"
  top: "label"
  include {
    phase: TRAIN
  }
  transform_param {
    mirror: true
    crop_size: 196
    mean_value: 94
    mean_value: 111
    mean_value: 143
  }
  data_param {
    source: "/media/dereyly/data_two/data/CAFFE_DATA/face_casia_train_lmdb_250"
    batch_size: 128
    backend: LMDB
  }
}
layer {
  name: "conv1"
  type: "Convolution"
  bottom: "data"
  top: "conv1"
  param {
    lr_mult: 1
    decay_mult: 1
  }
  param {
    lr_mult: 2
    decay_mult: 0
  }
  convolution_param {
    num_output: 32
    kernel_size: 5
    stride: 2
    weight_filler {
      type: "msra"
      std: 0.01
    }
    bias_filler {
      type: "constant"
    }
  }
}
layer {
  name: "relu1"
  type: "PReLU"
  bottom: "conv1"
  top: "conv1"
  prelu_param {
    filler {
      type: "constant"
      value: 0.3
    }
    channel_shared: false
  }
}
layer {
  name: "pool1"
  type: "Pooling"
  bottom: "conv1"
  top: "pool1"
  pooling_param {
    pool: MAX
    kernel_size: 2
    stride: 2
  }
}
layer {
  name: "conv1_BN"
  type: "BatchNorm"
  bottom: "pool1"
  top: "conv1_BN"
}
layer {
  name: "conv2"
  type: "Convolution"
  bottom: "conv1_BN"
  top: "conv2"
  param {
    lr_mult: 1
    decay_mult: 1
  }
  param {
    lr_mult: 2
    decay_mult: 0
  }
  convolution_param {
    num_output: 64
    pad: 1
    kernel_size: 3
    weight_filler {
      type: "msra"
      std: 0.01
    }
    bias_filler {
      type: "constant"
    }
  }
}
layer {
  name: "relu2"
  type: "PReLU"
  bottom: "conv2"
  top: "conv2"
  prelu_param {
    filler {
      type: "constant"
      value: 0.3
    }
    channel_shared: false
  }
}
layer {
  name: "conv2_1_BN"
  type: "BatchNorm"
  bottom: "conv2"
  top: "conv2_1_BN"
}
layer {
  name: "conv2_1"
  type: "Convolution"
  bottom: "conv2_1_BN"
  top: "conv2_1"
  param {
    lr_mult: 1
    decay_mult: 1
  }
  param {
    lr_mult: 2
    decay_mult: 0
  }
  convolution_param {
    num_output: 64
    pad: 0
    kernel_size: 1
    weight_filler {
      type: "msra"
      std: 0.01
    }
    bias_filler {
      type: "constant"
    }
  }
}
layer {
  name: "relu2_1"
  type: "PReLU"
  bottom: "conv2_1"
  top: "conv2_1"
  prelu_param {
    filler {
      type: "constant"
      value: 0.3
    }
    channel_shared: false
  }
}
layer {
  name: "pool2"
  type: "Pooling"
  bottom: "conv2_1"
  top: "pool2"
  pooling_param {
    pool: MAX
    kernel_size: 2
    stride: 2
  }
}
layer {
  name: "conv2_BN"
  type: "BatchNorm"
  bottom: "pool2"
  top: "conv2_BN"
}
layer {
  name: "conv3"
  type: "Convolution"
  bottom: "conv2_BN"
  top: "conv3"
  param {
    lr_mult: 1
    decay_mult: 1
  }
  param {
    lr_mult: 2
    decay_mult: 0
  }
  convolution_param {
    num_output: 128
    weight_filler {
      type: "msra"
      std: 0.01
    }
    bias_filler {
      type: "constant"
    }
    pad_h: 0
    pad_w: 1
    kernel_h: 1
    kernel_w: 3
  }
}
layer {
  name: "relu3"
  type: "PReLU"
  bottom: "conv3"
  top: "conv3"
  prelu_param {
    filler {
      type: "constant"
      value: 0.3
    }
    channel_shared: false
  }
}
layer {
  name: "conv3_BN"
  type: "BatchNorm"
  bottom: "conv3"
  top: "conv3_BN"
}
layer {
  name: "conv3_1"
  type: "Convolution"
  bottom: "conv3_BN"
  top: "conv3_1"
  param {
    lr_mult: 1
    decay_mult: 1
  }
  param {
    lr_mult: 2
    decay_mult: 0
  }
  convolution_param {
    num_output: 128
    weight_filler {
      type: "msra"
      std: 0.01
    }
    bias_filler {
      type: "constant"
    }
    pad_h: 1
    pad_w: 0
    kernel_h: 3
    kernel_w: 1
  }
}
layer {
  name: "relu3_1"
  type: "PReLU"
  bottom: "conv3_1"
  top: "conv3_1"
  prelu_param {
    filler {
      type: "constant"
      value: 0.3
    }
    channel_shared: false
  }
}
layer {
  name: "conv3_1_BN"
  type: "BatchNorm"
  bottom: "conv3_1"
  top: "conv3_1_BN"
}
layer {
  name: "conv3_2"
  type: "Convolution"
  bottom: "conv3_1_BN"
  top: "conv3_2"
  param {
    lr_mult: 1
    decay_mult: 1
  }
  param {
    lr_mult: 2
    decay_mult: 0
  }
  convolution_param {
    num_output: 128
    pad: 0
    kernel_size: 1
    weight_filler {
      type: "msra"
      std: 0.01
    }
    bias_filler {
      type: "constant"
    }
  }
}
layer {
  name: "relu3_2"
  type: "PReLU"
  bottom: "conv3_2"
  top: "conv3_2"
  prelu_param {
    filler {
      type: "constant"
      value: 0.3
    }
    channel_shared: false
  }
}
layer {
  name: "pool3"
  type: "Pooling"
  bottom: "conv3_2"
  top: "pool3"
  pooling_param {
    pool: MAX
    kernel_size: 2
    stride: 2
  }
}
layer {
  name: "conv3_2_BN"
  type: "BatchNorm"
  bottom: "pool3"
  top: "conv3_2_BN"
}
layer {
  name: "conv4"
  type: "Convolution"
  bottom: "conv3_2_BN"
  top: "conv4"
  param {
    lr_mult: 1
    decay_mult: 1
  }
  param {
    lr_mult: 2
    decay_mult: 0
  }
  convolution_param {
    num_output: 256
    weight_filler {
      type: "msra"
      std: 0.01
    }
    bias_filler {
      type: "constant"
    }
    pad_h: 0
    pad_w: 2
    kernel_h: 1
    kernel_w: 5
  }
}
layer {
  name: "relu4"
  type: "PReLU"
  bottom: "conv4"
  top: "conv4"
  prelu_param {
    filler {
      type: "constant"
      value: 0.3
    }
    channel_shared: false
  }
}
layer {
  name: "conv4_BN"
  type: "BatchNorm"
  bottom: "conv4"
  top: "conv4_BN"
}
layer {
  name: "conv4_1"
  type: "Convolution"
  bottom: "conv4_BN"
  top: "conv4_1"
  param {
    lr_mult: 1
    decay_mult: 1
  }
  param {
    lr_mult: 2
    decay_mult: 0
  }
  convolution_param {
    num_output: 256
    weight_filler {
      type: "msra"
      std: 0.01
    }
    bias_filler {
      type: "constant"
    }
    pad_h: 2
    pad_w: 0
    kernel_h: 5
    kernel_w: 1
  }
}
layer {
  name: "relu4_1"
  type: "PReLU"
  bottom: "conv4_1"
  top: "conv4_1"
  prelu_param {
    filler {
      type: "constant"
      value: 0.3
    }
    channel_shared: false
  }
}
layer {
  name: "conv4_1_BN"
  type: "BatchNorm"
  bottom: "conv4_1"
  top: "conv4_1_BN"
}
layer {
  name: "conv4_2"
  type: "Convolution"
  bottom: "conv4_1_BN"
  top: "conv4_2"
  param {
    lr_mult: 1
    decay_mult: 1
  }
  param {
    lr_mult: 2
    decay_mult: 0
  }
  convolution_param {
    num_output: 256
    pad: 0
    kernel_size: 1
    weight_filler {
      type: "msra"
      std: 0.01
    }
    bias_filler {
      type: "constant"
    }
  }
}
layer {
  name: "relu4_2"
  type: "PReLU"
  bottom: "conv4_2"
  top: "conv4_2"
  prelu_param {
    filler {
      type: "constant"
      value: 0.3
    }
    channel_shared: false
  }
}
layer {
  name: "pool4"
  type: "Pooling"
  bottom: "conv4_2"
  top: "pool4"
  pooling_param {
    pool: MAX
    kernel_size: 2
    stride: 2
  }
}
layer {
  name: "conv4_2_BN"
  type: "BatchNorm"
  bottom: "pool4"
  top: "conv4_2_BN"
}
layer {
  name: "conv5"
  type: "Convolution"
  bottom: "conv4_2_BN"
  top: "conv5"
  param {
    lr_mult: 1
    decay_mult: 1
  }
  param {
    lr_mult: 2
    decay_mult: 0
  }
  convolution_param {
    num_output: 512
    pad: 1
    kernel_size: 3
    weight_filler {
      type: "msra"
      std: 0.01
    }
    bias_filler {
      type: "constant"
    }
  }
}
layer {
  name: "relu5"
  type: "PReLU"
  bottom: "conv5"
  top: "conv5"
  prelu_param {
    filler {
      type: "constant"
      value: 0.3
    }
    channel_shared: false
  }
}
layer {
  name: "conv5_BN"
  type: "BatchNorm"
  bottom: "conv5"
  top: "conv5_BN"
}
layer {
  name: "conv5_1"
  type: "Convolution"
  bottom: "conv5_BN"
  top: "conv5_1"
  param {
    lr_mult: 1
    decay_mult: 1
  }
  param {
    lr_mult: 2
    decay_mult: 0
  }
  convolution_param {
    num_output: 512
    pad: 0
    kernel_size: 1
    weight_filler {
      type: "msra"
      std: 0.01
    }
    bias_filler {
      type: "constant"
    }
  }
}
layer {
  name: "relu5_1"
  type: "PReLU"
  bottom: "conv5_1"
  top: "conv5_1"
  prelu_param {
    filler {
      type: "constant"
      value: 0.3
    }
    channel_shared: false
  }
}
layer {
  name: "pool5"
  type: "Pooling"
  bottom: "conv5_1"
  top: "pool5"
  pooling_param {
    pool: MAX
    kernel_size: 2
    stride: 2
  }
}
layer {
  name: "conv5_1_BN"
  type: "BatchNorm"
  bottom: "pool5"
  top: "conv5_1_BN"
}
layer {
  name: "fc6"
  type: "InnerProduct"
  bottom: "conv5_1_BN"
  top: "fc6"
  param {
    lr_mult: 1
    decay_mult: 1
  }
  param {
    lr_mult: 2
    decay_mult: 0
  }
  inner_product_param {
    num_output: 2048
    weight_filler {
      type: "gaussian"
      std: 0.005
    }
    bias_filler {
      type: "constant"
    }
  }
}
layer {
  name: "relu6"
  type: "PReLU"
  bottom: "fc6"
  top: "fc6"
  prelu_param {
    filler {
      type: "constant"
      value: 0.3
    }
    channel_shared: false
  }
}
layer {
  name: "fc6_BN"
  type: "BatchNorm"
  bottom: "fc6"
  top: "fc6_BN"
}
layer {
  name: "drop6"
  type: "Dropout"
  bottom: "fc6_BN"
  top: "drop6"
  dropout_param {
    dropout_ratio: 0.2
  }
}
layer {
  name: "fc7"
  type: "InnerProduct"
  bottom: "drop6"
  top: "fc7"
  param {
    lr_mult: 1
    decay_mult: 1
  }
  param {
    lr_mult: 2
    decay_mult: 0
  }
  inner_product_param {
    num_output: 2048
    weight_filler {
      type: "gaussian"
      std: 0.005
    }
    bias_filler {
      type: "constant"
    }
  }
}
layer {
  name: "relu7"
  type: "PReLU"
  bottom: "fc7"
  top: "fc7"
  prelu_param {
    filler {
      type: "constant"
      value: 0.3
    }
    channel_shared: false
  }
}
layer {
  name: "fc7_BN"
  type: "BatchNorm"
  bottom: "fc7"
  top: "fc7_BN"
}
layer {
  name: "drop7"
  type: "Dropout"
  bottom: "fc7_BN"
  top: "drop7"
  dropout_param {
    dropout_ratio: 0.2
  }
}
layer {
  name: "fc8"
  type: "InnerProduct"
  bottom: "drop7"
  top: "fc8"
  param {
    lr_mult: 1
    decay_mult: 1
  }
  param {
    lr_mult: 2
    decay_mult: 0
  }
  inner_product_param {
    num_output: 10575
    weight_filler {
      type: "gaussian"
      std: 0.01
    }
    bias_filler {
      type: "constant"
    }
  }
}
layer {
  name: "loss"
  type: "SoftmaxWithLoss"
  bottom: "fc8"
  bottom: "label"
  top: "loss"
}
I0121 20:21:55.086551  2505 layer_factory.hpp:76] Creating layer data
I0121 20:21:55.102373  2505 net.cpp:106] Creating Layer data
I0121 20:21:55.102414  2505 net.cpp:411] data -> data
I0121 20:21:55.102442  2505 net.cpp:411] data -> label
F0121 20:21:55.103026  2517 db_lmdb.hpp:14] Check failed: mdb_status == 0 (2 vs. 0) No such file or directory
*** Check failure stack trace: ***
…
