…
I0117 11:49:41.928210  2497 net.cpp:322] The NetState phase (0) differed from the phase (1) specified by a rule in layer accuracy
I0117 11:49:41.928587  2497 net.cpp:49] Initializing net from parameters: 
name: "CaffeNet"
state {
  phase: TRAIN
}
layer {
  name: "data"
  type: "Data"
  top: "data"
  top: "label"
  include {
    phase: TRAIN
  }
  transform_param {
    mirror: true
    crop_size: 128
    mean_value: 104
    mean_value: 117
    mean_value: 124
  }
  data_param {
    source: "/media/dereyly/2E4057004056CDE9/data/CAFFE_DATA/ilsvrc12_train_lmdb_144"
    batch_size: 256
    backend: LMDB
  }
}
layer {
  name: "conv1"
  type: "Convolution"
  bottom: "data"
  top: "conv1"
  param {
    lr_mult: 1
    decay_mult: 1
  }
  param {
    lr_mult: 2
    decay_mult: 0
  }
  convolution_param {
    num_output: 96
    kernel_size: 11
    stride: 4
    weight_filler {
      type: "msra"
      std: 0.01
    }
    bias_filler {
      type: "constant"
    }
  }
}
layer {
  name: "relu1"
  type: "PReLU"
  bottom: "conv1"
  top: "conv1"
  prelu_param {
    filler {
      type: "constant"
      value: 0.3
    }
    channel_shared: false
  }
}
layer {
  name: "pool1"
  type: "Pooling"
  bottom: "conv1"
  top: "pool1"
  pooling_param {
    pool: MAX
    kernel_size: 3
    stride: 2
  }
}
layer {
  name: "conv1_BN"
  type: "BatchNorm"
  bottom: "pool1"
  top: "conv1_BN"
}
layer {
  name: "conv2"
  type: "Convolution"
  bottom: "conv1_BN"
  top: "conv2"
  param {
    lr_mult: 1
    decay_mult: 1
  }
  param {
    lr_mult: 2
    decay_mult: 0
  }
  convolution_param {
    num_output: 256
    weight_filler {
      type: "msra"
      std: 0.01
    }
    bias_filler {
      type: "constant"
    }
    pad_h: 0
    pad_w: 2
    kernel_h: 1
    kernel_w: 5
  }
}
layer {
  name: "relu2"
  type: "PReLU"
  bottom: "conv2"
  top: "conv2"
  prelu_param {
    filler {
      type: "constant"
      value: 0.3
    }
    channel_shared: false
  }
}
layer {
  name: "conv2_1_BN"
  type: "BatchNorm"
  bottom: "conv2"
  top: "conv2_1_BN"
}
layer {
  name: "conv2_1"
  type: "Convolution"
  bottom: "conv2_1_BN"
  top: "conv2_1"
  param {
    lr_mult: 1
    decay_mult: 1
  }
  param {
    lr_mult: 2
    decay_mult: 0
  }
  convolution_param {
    num_output: 256
    weight_filler {
      type: "msra"
      std: 0.01
    }
    bias_filler {
      type: "constant"
    }
    pad_h: 2
    pad_w: 0
    kernel_h: 5
    kernel_w: 1
  }
}
layer {
  name: "relu2_1"
  type: "PReLU"
  bottom: "conv2_1"
  top: "conv2_1"
  prelu_param {
    filler {
      type: "constant"
      value: 0.3
    }
    channel_shared: false
  }
}
layer {
  name: "conv2_2_BN"
  type: "BatchNorm"
  bottom: "conv2_1"
  top: "conv2_2_BN"
}
layer {
  name: "conv2_2"
  type: "Convolution"
  bottom: "conv2_2_BN"
  top: "conv2_2"
  param {
    lr_mult: 1
    decay_mult: 1
  }
  param {
    lr_mult: 2
    decay_mult: 0
  }
  convolution_param {
    num_output: 256
    weight_filler {
      type: "msra"
      std: 0.01
    }
    bias_filler {
      type: "constant"
    }
    pad_h: 0
    pad_w: 2
    kernel_h: 1
    kernel_w: 5
  }
}
layer {
  name: "relu2_2"
  type: "PReLU"
  bottom: "conv2_2"
  top: "conv2_2"
  prelu_param {
    filler {
      type: "constant"
      value: 0.3
    }
    channel_shared: false
  }
}
layer {
  name: "conv2_3_BN"
  type: "BatchNorm"
  bottom: "conv2_2"
  top: "conv2_3_BN"
}
layer {
  name: "conv2_3"
  type: "Convolution"
  bottom: "conv2_3_BN"
  top: "conv2_3"
  param {
    lr_mult: 1
    decay_mult: 1
  }
  param {
    lr_mult: 2
    decay_mult: 0
  }
  convolution_param {
    num_output: 256
    weight_filler {
      type: "msra"
      std: 0.01
    }
    bias_filler {
      type: "constant"
    }
    pad_h: 2
    pad_w: 0
    kernel_h: 5
    kernel_w: 1
  }
}
layer {
  name: "relu2_3"
  type: "PReLU"
  bottom: "conv2_3"
  top: "conv2_3"
  prelu_param {
    filler {
      type: "constant"
      value: 0.3
    }
    channel_shared: false
  }
}
layer {
  name: "pool2"
  type: "Pooling"
  bottom: "conv2_3"
  top: "pool2"
  pooling_param {
    pool: MAX
    kernel_size: 3
    stride: 2
  }
}
layer {
  name: "conv2_BN"
  type: "BatchNorm"
  bottom: "pool2"
  top: "conv2_BN"
}
layer {
  name: "conv3"
  type: "Convolution"
  bottom: "conv2_BN"
  top: "conv3"
  param {
    lr_mult: 1
    decay_mult: 1
  }
  param {
    lr_mult: 2
    decay_mult: 0
  }
  convolution_param {
    num_output: 384
    weight_filler {
      type: "msra"
      std: 0.01
    }
    bias_filler {
      type: "constant"
    }
    pad_h: 0
    pad_w: 2
    kernel_h: 1
    kernel_w: 5
  }
}
layer {
  name: "relu3"
  type: "PReLU"
  bottom: "conv3"
  top: "conv3"
  prelu_param {
    filler {
      type: "constant"
      value: 0.3
    }
    channel_shared: false
  }
}
layer {
  name: "conv3_BN"
  type: "BatchNorm"
  bottom: "conv3"
  top: "conv3_BN"
}
layer {
  name: "conv3_1"
  type: "Convolution"
  bottom: "conv3_BN"
  top: "conv3_1"
  param {
    lr_mult: 1
    decay_mult: 1
  }
  param {
    lr_mult: 2
    decay_mult: 0
  }
  convolution_param {
    num_output: 384
    weight_filler {
      type: "msra"
      std: 0.01
    }
    bias_filler {
      type: "constant"
    }
    pad_h: 2
    pad_w: 0
    kernel_h: 5
    kernel_w: 1
  }
}
layer {
  name: "relu3_1"
  type: "PReLU"
  bottom: "conv3_1"
  top: "conv3_1"
  prelu_param {
    filler {
      type: "constant"
      value: 0.3
    }
    channel_shared: false
  }
}
layer {
  name: "conv3_1_BN"
  type: "BatchNorm"
  bottom: "conv3_1"
  top: "conv3_1_BN"
}
layer {
  name: "conv4"
  type: "Convolution"
  bottom: "conv3_1_BN"
  top: "conv4"
  param {
    lr_mult: 1
    decay_mult: 1
  }
  param {
    lr_mult: 2
    decay_mult: 0
  }
  convolution_param {
    num_output: 384
    weight_filler {
      type: "msra"
      std: 0.01
    }
    bias_filler {
      type: "constant"
    }
    pad_h: 0
    pad_w: 2
    kernel_h: 1
    kernel_w: 5
  }
}
layer {
  name: "relu4"
  type: "PReLU"
  bottom: "conv4"
  top: "conv4"
  prelu_param {
    filler {
      type: "constant"
      value: 0.3
    }
    channel_shared: false
  }
}
layer {
  name: "conv4_BN"
  type: "BatchNorm"
  bottom: "conv4"
  top: "conv4_BN"
}
layer {
  name: "conv4_1"
  type: "Convolution"
  bottom: "conv4_BN"
  top: "conv4_1"
  param {
    lr_mult: 1
    decay_mult: 1
  }
  param {
    lr_mult: 2
    decay_mult: 0
  }
  convolution_param {
    num_output: 384
    weight_filler {
      type: "msra"
      std: 0.01
    }
    bias_filler {
      type: "constant"
    }
    pad_h: 2
    pad_w: 0
    kernel_h: 5
    kernel_w: 1
  }
}
layer {
  name: "relu4_1"
  type: "PReLU"
  bottom: "conv4_1"
  top: "conv4_1"
  prelu_param {
    filler {
      type: "constant"
      value: 0.3
    }
    channel_shared: false
  }
}
layer {
  name: "conv4_1_BN"
  type: "BatchNorm"
  bottom: "conv4_1"
  top: "conv4_1_BN"
}
layer {
  name: "conv5"
  type: "Convolution"
  bottom: "conv4_1_BN"
  top: "conv5"
  param {
    lr_mult: 1
    decay_mult: 1
  }
  param {
    lr_mult: 2
    decay_mult: 0
  }
  convolution_param {
    num_output: 256
    weight_filler {
      type: "msra"
      std: 0.01
    }
    bias_filler {
      type: "constant"
    }
    pad_h: 0
    pad_w: 2
    kernel_h: 1
    kernel_w: 5
  }
}
layer {
  name: "relu5"
  type: "PReLU"
  bottom: "conv5"
  top: "conv5"
  prelu_param {
    filler {
      type: "constant"
      value: 0.3
    }
    channel_shared: false
  }
}
layer {
  name: "conv5_BN"
  type: "BatchNorm"
  bottom: "conv5"
  top: "conv5_BN"
}
layer {
  name: "conv5_1"
  type: "Convolution"
  bottom: "conv5_BN"
  top: "conv5_1"
  param {
    lr_mult: 1
    decay_mult: 1
  }
  param {
    lr_mult: 2
    decay_mult: 0
  }
  convolution_param {
    num_output: 256
    weight_filler {
      type: "msra"
      std: 0.01
    }
    bias_filler {
      type: "constant"
    }
    pad_h: 2
    pad_w: 0
    kernel_h: 5
    kernel_w: 1
  }
}
layer {
  name: "relu5_1"
  type: "PReLU"
  bottom: "conv5_1"
  top: "conv5_1"
  prelu_param {
    filler {
      type: "constant"
      value: 0.3
    }
    channel_shared: false
  }
}
layer {
  name: "conv5_1_BN"
  type: "BatchNorm"
  bottom: "conv5_1"
  top: "conv5_1_BN"
}
layer {
  name: "pool5"
  type: "Pooling"
  bottom: "conv5_1_BN"
  top: "pool5"
  pooling_param {
    pool: MAX
    kernel_size: 3
    stride: 2
  }
}
layer {
  name: "fc6"
  type: "InnerProduct"
  bottom: "pool5"
  top: "fc6"
  param {
    lr_mult: 1
    decay_mult: 1
  }
  param {
    lr_mult: 2
    decay_mult: 0
  }
  inner_product_param {
    num_output: 2048
    weight_filler {
      type: "gaussian"
      std: 0.005
    }
    bias_filler {
      type: "constant"
    }
  }
}
layer {
  name: "relu6"
  type: "PReLU"
  bottom: "fc6"
  top: "fc6"
  prelu_param {
    filler {
      type: "constant"
      value: 0.3
    }
    channel_shared: false
  }
}
layer {
  name: "fc6_BN"
  type: "BatchNorm"
  bottom: "fc6"
  top: "fc6_BN"
}
layer {
  name: "drop6"
  type: "Dropout"
  bottom: "fc6_BN"
  top: "drop6"
  dropout_param {
    dropout_ratio: 0.2
  }
}
layer {
  name: "fc7"
  type: "InnerProduct"
  bottom: "drop6"
  top: "fc7"
  param {
    lr_mult: 1
    decay_mult: 1
  }
  param {
    lr_mult: 2
    decay_mult: 0
  }
  inner_product_param {
    num_output: 2048
    weight_filler {
      type: "gaussian"
      std: 0.005
    }
    bias_filler {
      type: "constant"
    }
  }
}
layer {
  name: "relu7"
  type: "PReLU"
  bottom: "fc7"
  top: "fc7"
  prelu_param {
    filler {
      type: "constant"
      value: 0.3
    }
    channel_shared: false
  }
}
layer {
  name: "fc7_BN"
  type: "BatchNorm"
  bottom: "fc7"
  top: "fc7_BN"
}
layer {
  name: "drop7"
  type: "Dropout"
  bottom: "fc7_BN"
  top: "drop7"
  dropout_param {
    dropout_ratio: 0.2
  }
}
layer {
  name: "fc8"
  type: "InnerProduct"
  bottom: "drop7"
  top: "fc8"
  param {
    lr_mult: 1
    decay_mult: 1
  }
  param {
    lr_mult: 2
    decay_mult: 0
  }
  inner_product_param {
    num_output: 1000
    weight_filler {
      type: "gaussian"
      std: 0.01
    }
    bias_filler {
      type: "constant"
    }
  }
}
layer {
  name: "loss"
  type: "SoftmaxWithLoss"
  bottom: "fc8"
  bottom: "label"
  top: "loss"
}
I0117 11:49:41.928731  2497 layer_factory.hpp:76] Creating layer data
I0117 11:49:41.954200  2497 net.cpp:106] Creating Layer data
I0117 11:49:41.954219  2497 net.cpp:411] data -> data
I0117 11:49:41.954243  2497 net.cpp:411] data -> label
I0117 11:49:41.957947  2502 db_lmdb.cpp:38] Opened lmdb /media/dereyly/2E4057004056CDE9/data/CAFFE_DATA/ilsvrc12_train_lmdb_144
I0117 11:49:41.983983  2497 data_layer.cpp:41] output data size: 256,3,128,128
I0117 11:49:42.040426  2497 net.cpp:150] Setting up data
I0117 11:49:42.040459  2497 net.cpp:157] Top shape: 256 3 128 128 (12582912)
I0117 11:49:42.040465  2497 net.cpp:157] Top shape: 256 (256)
I0117 11:49:42.040468  2497 net.cpp:165] Memory required for data: 50332672
I0117 11:49:42.040493  2497 layer_factory.hpp:76] Creating layer conv1
I0117 11:49:42.040514  2497 net.cpp:106] Creating Layer conv1
I0117 11:49:42.040524  2497 net.cpp:454] conv1 <- data
I0117 11:49:42.040542  2497 net.cpp:411] conv1 -> conv1
I0117 11:49:42.811493  2497 net.cpp:150] Setting up conv1
I0117 11:49:42.811518  2497 net.cpp:157] Top shape: 256 96 30 30 (22118400)
I0117 11:49:42.811522  2497 net.cpp:165] Memory required for data: 138806272
I0117 11:49:42.811540  2497 layer_factory.hpp:76] Creating layer relu1
I0117 11:49:42.811553  2497 net.cpp:106] Creating Layer relu1
I0117 11:49:42.811568  2497 net.cpp:454] relu1 <- conv1
I0117 11:49:42.811573  2497 net.cpp:397] relu1 -> conv1 (in-place)
I0117 11:49:42.811952  2497 net.cpp:150] Setting up relu1
I0117 11:49:42.811972  2497 net.cpp:157] Top shape: 256 96 30 30 (22118400)
I0117 11:49:42.811976  2497 net.cpp:165] Memory required for data: 227279872
I0117 11:49:42.811983  2497 layer_factory.hpp:76] Creating layer pool1
I0117 11:49:42.811990  2497 net.cpp:106] Creating Layer pool1
I0117 11:49:42.811992  2497 net.cpp:454] pool1 <- conv1
I0117 11:49:42.812008  2497 net.cpp:411] pool1 -> pool1
I0117 11:49:42.812566  2497 net.cpp:150] Setting up pool1
I0117 11:49:42.812577  2497 net.cpp:157] Top shape: 256 96 15 15 (5529600)
I0117 11:49:42.812580  2497 net.cpp:165] Memory required for data: 249398272
I0117 11:49:42.812584  2497 layer_factory.hpp:76] Creating layer conv1_BN
I0117 11:49:42.812592  2497 net.cpp:106] Creating Layer conv1_BN
I0117 11:49:42.812595  2497 net.cpp:454] conv1_BN <- pool1
I0117 11:49:42.812611  2497 net.cpp:411] conv1_BN -> conv1_BN
I0117 11:49:42.812747  2497 net.cpp:150] Setting up conv1_BN
I0117 11:49:42.812754  2497 net.cpp:157] Top shape: 256 96 15 15 (5529600)
I0117 11:49:42.812757  2497 net.cpp:165] Memory required for data: 271516672
I0117 11:49:42.812765  2497 layer_factory.hpp:76] Creating layer conv2
I0117 11:49:42.812772  2497 net.cpp:106] Creating Layer conv2
I0117 11:49:42.812777  2497 net.cpp:454] conv2 <- conv1_BN
I0117 11:49:42.812791  2497 net.cpp:411] conv2 -> conv2
I0117 11:49:42.815912  2497 net.cpp:150] Setting up conv2
I0117 11:49:42.815923  2497 net.cpp:157] Top shape: 256 256 15 15 (14745600)
I0117 11:49:42.815927  2497 net.cpp:165] Memory required for data: 330499072
I0117 11:49:42.815932  2497 layer_factory.hpp:76] Creating layer relu2
I0117 11:49:42.815938  2497 net.cpp:106] Creating Layer relu2
I0117 11:49:42.815942  2497 net.cpp:454] relu2 <- conv2
I0117 11:49:42.815958  2497 net.cpp:397] relu2 -> conv2 (in-place)
I0117 11:49:42.816057  2497 net.cpp:150] Setting up relu2
I0117 11:49:42.816063  2497 net.cpp:157] Top shape: 256 256 15 15 (14745600)
I0117 11:49:42.816066  2497 net.cpp:165] Memory required for data: 389481472
I0117 11:49:42.816074  2497 layer_factory.hpp:76] Creating layer conv2_1_BN
I0117 11:49:42.816079  2497 net.cpp:106] Creating Layer conv2_1_BN
I0117 11:49:42.816083  2497 net.cpp:454] conv2_1_BN <- conv2
I0117 11:49:42.816098  2497 net.cpp:411] conv2_1_BN -> conv2_1_BN
I0117 11:49:42.816227  2497 net.cpp:150] Setting up conv2_1_BN
I0117 11:49:42.816233  2497 net.cpp:157] Top shape: 256 256 15 15 (14745600)
I0117 11:49:42.816236  2497 net.cpp:165] Memory required for data: 448463872
I0117 11:49:42.816241  2497 layer_factory.hpp:76] Creating layer conv2_1
I0117 11:49:42.816248  2497 net.cpp:106] Creating Layer conv2_1
I0117 11:49:42.816251  2497 net.cpp:454] conv2_1 <- conv2_1_BN
I0117 11:49:42.816267  2497 net.cpp:411] conv2_1 -> conv2_1
I0117 11:49:42.823876  2497 net.cpp:150] Setting up conv2_1
I0117 11:49:42.823889  2497 net.cpp:157] Top shape: 256 256 15 15 (14745600)
I0117 11:49:42.823892  2497 net.cpp:165] Memory required for data: 507446272
I0117 11:49:42.823897  2497 layer_factory.hpp:76] Creating layer relu2_1
I0117 11:49:42.823904  2497 net.cpp:106] Creating Layer relu2_1
I0117 11:49:42.823907  2497 net.cpp:454] relu2_1 <- conv2_1
I0117 11:49:42.823923  2497 net.cpp:397] relu2_1 -> conv2_1 (in-place)
I0117 11:49:42.824024  2497 net.cpp:150] Setting up relu2_1
I0117 11:49:42.824033  2497 net.cpp:157] Top shape: 256 256 15 15 (14745600)
I0117 11:49:42.824035  2497 net.cpp:165] Memory required for data: 566428672
I0117 11:49:42.824039  2497 layer_factory.hpp:76] Creating layer conv2_2_BN
I0117 11:49:42.824043  2497 net.cpp:106] Creating Layer conv2_2_BN
I0117 11:49:42.824046  2497 net.cpp:454] conv2_2_BN <- conv2_1
I0117 11:49:42.824050  2497 net.cpp:411] conv2_2_BN -> conv2_2_BN
I0117 11:49:42.824192  2497 net.cpp:150] Setting up conv2_2_BN
I0117 11:49:42.824198  2497 net.cpp:157] Top shape: 256 256 15 15 (14745600)
I0117 11:49:42.824199  2497 net.cpp:165] Memory required for data: 625411072
I0117 11:49:42.824208  2497 layer_factory.hpp:76] Creating layer conv2_2
I0117 11:49:42.824215  2497 net.cpp:106] Creating Layer conv2_2
I0117 11:49:42.824237  2497 net.cpp:454] conv2_2 <- conv2_2_BN
I0117 11:49:42.824244  2497 net.cpp:411] conv2_2 -> conv2_2
I0117 11:49:42.831846  2497 net.cpp:150] Setting up conv2_2
I0117 11:49:42.831861  2497 net.cpp:157] Top shape: 256 256 15 15 (14745600)
I0117 11:49:42.831863  2497 net.cpp:165] Memory required for data: 684393472
I0117 11:49:42.831869  2497 layer_factory.hpp:76] Creating layer relu2_2
I0117 11:49:42.831876  2497 net.cpp:106] Creating Layer relu2_2
I0117 11:49:42.831878  2497 net.cpp:454] relu2_2 <- conv2_2
I0117 11:49:42.831894  2497 net.cpp:397] relu2_2 -> conv2_2 (in-place)
I0117 11:49:42.831990  2497 net.cpp:150] Setting up relu2_2
I0117 11:49:42.831996  2497 net.cpp:157] Top shape: 256 256 15 15 (14745600)
I0117 11:49:42.832000  2497 net.cpp:165] Memory required for data: 743375872
I0117 11:49:42.832003  2497 layer_factory.hpp:76] Creating layer conv2_3_BN
I0117 11:49:42.832010  2497 net.cpp:106] Creating Layer conv2_3_BN
I0117 11:49:42.832012  2497 net.cpp:454] conv2_3_BN <- conv2_2
I0117 11:49:42.832016  2497 net.cpp:411] conv2_3_BN -> conv2_3_BN
I0117 11:49:42.832161  2497 net.cpp:150] Setting up conv2_3_BN
I0117 11:49:42.832167  2497 net.cpp:157] Top shape: 256 256 15 15 (14745600)
I0117 11:49:42.832170  2497 net.cpp:165] Memory required for data: 802358272
I0117 11:49:42.832175  2497 layer_factory.hpp:76] Creating layer conv2_3
I0117 11:49:42.832181  2497 net.cpp:106] Creating Layer conv2_3
I0117 11:49:42.832185  2497 net.cpp:454] conv2_3 <- conv2_3_BN
I0117 11:49:42.832201  2497 net.cpp:411] conv2_3 -> conv2_3
I0117 11:49:42.839965  2497 net.cpp:150] Setting up conv2_3
I0117 11:49:42.839979  2497 net.cpp:157] Top shape: 256 256 15 15 (14745600)
I0117 11:49:42.839982  2497 net.cpp:165] Memory required for data: 861340672
I0117 11:49:42.839988  2497 layer_factory.hpp:76] Creating layer relu2_3
I0117 11:49:42.839994  2497 net.cpp:106] Creating Layer relu2_3
I0117 11:49:42.839998  2497 net.cpp:454] relu2_3 <- conv2_3
I0117 11:49:42.840013  2497 net.cpp:397] relu2_3 -> conv2_3 (in-place)
I0117 11:49:42.840351  2497 net.cpp:150] Setting up relu2_3
I0117 11:49:42.840360  2497 net.cpp:157] Top shape: 256 256 15 15 (14745600)
I0117 11:49:42.840363  2497 net.cpp:165] Memory required for data: 920323072
I0117 11:49:42.840368  2497 layer_factory.hpp:76] Creating layer pool2
I0117 11:49:42.840375  2497 net.cpp:106] Creating Layer pool2
I0117 11:49:42.840378  2497 net.cpp:454] pool2 <- conv2_3
I0117 11:49:42.840395  2497 net.cpp:411] pool2 -> pool2
I0117 11:49:42.840625  2497 net.cpp:150] Setting up pool2
I0117 11:49:42.840633  2497 net.cpp:157] Top shape: 256 256 7 7 (3211264)
I0117 11:49:42.840636  2497 net.cpp:165] Memory required for data: 933168128
I0117 11:49:42.840639  2497 layer_factory.hpp:76] Creating layer conv2_BN
I0117 11:49:42.840644  2497 net.cpp:106] Creating Layer conv2_BN
I0117 11:49:42.840647  2497 net.cpp:454] conv2_BN <- pool2
I0117 11:49:42.840653  2497 net.cpp:411] conv2_BN -> conv2_BN
I0117 11:49:42.840803  2497 net.cpp:150] Setting up conv2_BN
I0117 11:49:42.840809  2497 net.cpp:157] Top shape: 256 256 7 7 (3211264)
I0117 11:49:42.840812  2497 net.cpp:165] Memory required for data: 946013184
I0117 11:49:42.840837  2497 layer_factory.hpp:76] Creating layer conv3
I0117 11:49:42.840844  2497 net.cpp:106] Creating Layer conv3
I0117 11:49:42.840859  2497 net.cpp:454] conv3 <- conv2_BN
I0117 11:49:42.840864  2497 net.cpp:411] conv3 -> conv3
I0117 11:49:42.851696  2497 net.cpp:150] Setting up conv3
I0117 11:49:42.851709  2497 net.cpp:157] Top shape: 256 384 7 7 (4816896)
I0117 11:49:42.851712  2497 net.cpp:165] Memory required for data: 965280768
I0117 11:49:42.851718  2497 layer_factory.hpp:76] Creating layer relu3
I0117 11:49:42.851725  2497 net.cpp:106] Creating Layer relu3
I0117 11:49:42.851728  2497 net.cpp:454] relu3 <- conv3
I0117 11:49:42.851747  2497 net.cpp:397] relu3 -> conv3 (in-place)
I0117 11:49:42.851821  2497 net.cpp:150] Setting up relu3
I0117 11:49:42.851829  2497 net.cpp:157] Top shape: 256 384 7 7 (4816896)
I0117 11:49:42.851831  2497 net.cpp:165] Memory required for data: 984548352
I0117 11:49:42.851850  2497 layer_factory.hpp:76] Creating layer conv3_BN
I0117 11:49:42.851867  2497 net.cpp:106] Creating Layer conv3_BN
I0117 11:49:42.851871  2497 net.cpp:454] conv3_BN <- conv3
I0117 11:49:42.851876  2497 net.cpp:411] conv3_BN -> conv3_BN
I0117 11:49:42.852022  2497 net.cpp:150] Setting up conv3_BN
I0117 11:49:42.852028  2497 net.cpp:157] Top shape: 256 384 7 7 (4816896)
I0117 11:49:42.852031  2497 net.cpp:165] Memory required for data: 1003815936
I0117 11:49:42.852037  2497 layer_factory.hpp:76] Creating layer conv3_1
I0117 11:49:42.852043  2497 net.cpp:106] Creating Layer conv3_1
I0117 11:49:42.852046  2497 net.cpp:454] conv3_1 <- conv3_BN
I0117 11:49:42.852062  2497 net.cpp:411] conv3_1 -> conv3_1
I0117 11:49:42.867550  2497 net.cpp:150] Setting up conv3_1
I0117 11:49:42.867563  2497 net.cpp:157] Top shape: 256 384 7 7 (4816896)
I0117 11:49:42.867566  2497 net.cpp:165] Memory required for data: 1023083520
I0117 11:49:42.867573  2497 layer_factory.hpp:76] Creating layer relu3_1
I0117 11:49:42.867579  2497 net.cpp:106] Creating Layer relu3_1
I0117 11:49:42.867583  2497 net.cpp:454] relu3_1 <- conv3_1
I0117 11:49:42.867599  2497 net.cpp:397] relu3_1 -> conv3_1 (in-place)
I0117 11:49:42.867678  2497 net.cpp:150] Setting up relu3_1
I0117 11:49:42.867684  2497 net.cpp:157] Top shape: 256 384 7 7 (4816896)
I0117 11:49:42.867687  2497 net.cpp:165] Memory required for data: 1042351104
I0117 11:49:42.867691  2497 layer_factory.hpp:76] Creating layer conv3_1_BN
I0117 11:49:42.867697  2497 net.cpp:106] Creating Layer conv3_1_BN
I0117 11:49:42.867700  2497 net.cpp:454] conv3_1_BN <- conv3_1
I0117 11:49:42.867705  2497 net.cpp:411] conv3_1_BN -> conv3_1_BN
I0117 11:49:42.867858  2497 net.cpp:150] Setting up conv3_1_BN
I0117 11:49:42.867864  2497 net.cpp:157] Top shape: 256 384 7 7 (4816896)
I0117 11:49:42.867867  2497 net.cpp:165] Memory required for data: 1061618688
I0117 11:49:42.867873  2497 layer_factory.hpp:76] Creating layer conv4
I0117 11:49:42.867879  2497 net.cpp:106] Creating Layer conv4
I0117 11:49:42.867883  2497 net.cpp:454] conv4 <- conv3_1_BN
I0117 11:49:42.867888  2497 net.cpp:411] conv4 -> conv4
I0117 11:49:42.883846  2497 net.cpp:150] Setting up conv4
I0117 11:49:42.883867  2497 net.cpp:157] Top shape: 256 384 7 7 (4816896)
I0117 11:49:42.883872  2497 net.cpp:165] Memory required for data: 1080886272
I0117 11:49:42.883878  2497 layer_factory.hpp:76] Creating layer relu4
I0117 11:49:42.883888  2497 net.cpp:106] Creating Layer relu4
I0117 11:49:42.883901  2497 net.cpp:454] relu4 <- conv4
I0117 11:49:42.883908  2497 net.cpp:397] relu4 -> conv4 (in-place)
I0117 11:49:42.883988  2497 net.cpp:150] Setting up relu4
I0117 11:49:42.883996  2497 net.cpp:157] Top shape: 256 384 7 7 (4816896)
I0117 11:49:42.883998  2497 net.cpp:165] Memory required for data: 1100153856
I0117 11:49:42.884002  2497 layer_factory.hpp:76] Creating layer conv4_BN
I0117 11:49:42.884007  2497 net.cpp:106] Creating Layer conv4_BN
I0117 11:49:42.884011  2497 net.cpp:454] conv4_BN <- conv4
I0117 11:49:42.884016  2497 net.cpp:411] conv4_BN -> conv4_BN
I0117 11:49:42.884165  2497 net.cpp:150] Setting up conv4_BN
I0117 11:49:42.884171  2497 net.cpp:157] Top shape: 256 384 7 7 (4816896)
I0117 11:49:42.884173  2497 net.cpp:165] Memory required for data: 1119421440
I0117 11:49:42.884179  2497 layer_factory.hpp:76] Creating layer conv4_1
I0117 11:49:42.884186  2497 net.cpp:106] Creating Layer conv4_1
I0117 11:49:42.884189  2497 net.cpp:454] conv4_1 <- conv4_BN
I0117 11:49:42.884205  2497 net.cpp:411] conv4_1 -> conv4_1
I0117 11:49:42.899879  2497 net.cpp:150] Setting up conv4_1
I0117 11:49:42.899890  2497 net.cpp:157] Top shape: 256 384 7 7 (4816896)
I0117 11:49:42.899894  2497 net.cpp:165] Memory required for data: 1138689024
I0117 11:49:42.899899  2497 layer_factory.hpp:76] Creating layer relu4_1
I0117 11:49:42.899907  2497 net.cpp:106] Creating Layer relu4_1
I0117 11:49:42.899911  2497 net.cpp:454] relu4_1 <- conv4_1
I0117 11:49:42.899926  2497 net.cpp:397] relu4_1 -> conv4_1 (in-place)
I0117 11:49:42.900005  2497 net.cpp:150] Setting up relu4_1
I0117 11:49:42.900020  2497 net.cpp:157] Top shape: 256 384 7 7 (4816896)
I0117 11:49:42.900034  2497 net.cpp:165] Memory required for data: 1157956608
I0117 11:49:42.900039  2497 layer_factory.hpp:76] Creating layer conv4_1_BN
I0117 11:49:42.900043  2497 net.cpp:106] Creating Layer conv4_1_BN
I0117 11:49:42.900046  2497 net.cpp:454] conv4_1_BN <- conv4_1
I0117 11:49:42.900053  2497 net.cpp:411] conv4_1_BN -> conv4_1_BN
I0117 11:49:42.900190  2497 net.cpp:150] Setting up conv4_1_BN
I0117 11:49:42.900195  2497 net.cpp:157] Top shape: 256 384 7 7 (4816896)
I0117 11:49:42.900209  2497 net.cpp:165] Memory required for data: 1177224192
I0117 11:49:42.900215  2497 layer_factory.hpp:76] Creating layer conv5
I0117 11:49:42.900223  2497 net.cpp:106] Creating Layer conv5
I0117 11:49:42.900226  2497 net.cpp:454] conv5 <- conv4_1_BN
I0117 11:49:42.900230  2497 net.cpp:411] conv5 -> conv5
I0117 11:49:42.911270  2497 net.cpp:150] Setting up conv5
I0117 11:49:42.911288  2497 net.cpp:157] Top shape: 256 256 7 7 (3211264)
I0117 11:49:42.911290  2497 net.cpp:165] Memory required for data: 1190069248
I0117 11:49:42.911308  2497 layer_factory.hpp:76] Creating layer relu5
I0117 11:49:42.911315  2497 net.cpp:106] Creating Layer relu5
I0117 11:49:42.911319  2497 net.cpp:454] relu5 <- conv5
I0117 11:49:42.911325  2497 net.cpp:397] relu5 -> conv5 (in-place)
I0117 11:49:42.911658  2497 net.cpp:150] Setting up relu5
I0117 11:49:42.911666  2497 net.cpp:157] Top shape: 256 256 7 7 (3211264)
I0117 11:49:42.911669  2497 net.cpp:165] Memory required for data: 1202914304
I0117 11:49:42.911685  2497 layer_factory.hpp:76] Creating layer conv5_BN
I0117 11:49:42.911695  2497 net.cpp:106] Creating Layer conv5_BN
I0117 11:49:42.911700  2497 net.cpp:454] conv5_BN <- conv5
I0117 11:49:42.911705  2497 net.cpp:411] conv5_BN -> conv5_BN
I0117 11:49:42.911845  2497 net.cpp:150] Setting up conv5_BN
I0117 11:49:42.911851  2497 net.cpp:157] Top shape: 256 256 7 7 (3211264)
I0117 11:49:42.911854  2497 net.cpp:165] Memory required for data: 1215759360
I0117 11:49:42.911870  2497 layer_factory.hpp:76] Creating layer conv5_1
I0117 11:49:42.911878  2497 net.cpp:106] Creating Layer conv5_1
I0117 11:49:42.911883  2497 net.cpp:454] conv5_1 <- conv5_BN
I0117 11:49:42.911890  2497 net.cpp:411] conv5_1 -> conv5_1
I0117 11:49:42.919234  2497 net.cpp:150] Setting up conv5_1
I0117 11:49:42.919245  2497 net.cpp:157] Top shape: 256 256 7 7 (3211264)
I0117 11:49:42.919248  2497 net.cpp:165] Memory required for data: 1228604416
I0117 11:49:42.919265  2497 layer_factory.hpp:76] Creating layer relu5_1
I0117 11:49:42.919270  2497 net.cpp:106] Creating Layer relu5_1
I0117 11:49:42.919273  2497 net.cpp:454] relu5_1 <- conv5_1
I0117 11:49:42.919280  2497 net.cpp:397] relu5_1 -> conv5_1 (in-place)
I0117 11:49:42.919353  2497 net.cpp:150] Setting up relu5_1
I0117 11:49:42.919360  2497 net.cpp:157] Top shape: 256 256 7 7 (3211264)
I0117 11:49:42.919363  2497 net.cpp:165] Memory required for data: 1241449472
I0117 11:49:42.919378  2497 layer_factory.hpp:76] Creating layer conv5_1_BN
I0117 11:49:42.919383  2497 net.cpp:106] Creating Layer conv5_1_BN
I0117 11:49:42.919385  2497 net.cpp:454] conv5_1_BN <- conv5_1
I0117 11:49:42.919389  2497 net.cpp:411] conv5_1_BN -> conv5_1_BN
I0117 11:49:42.919529  2497 net.cpp:150] Setting up conv5_1_BN
I0117 11:49:42.919535  2497 net.cpp:157] Top shape: 256 256 7 7 (3211264)
I0117 11:49:42.919538  2497 net.cpp:165] Memory required for data: 1254294528
I0117 11:49:42.919564  2497 layer_factory.hpp:76] Creating layer pool5
I0117 11:49:42.919571  2497 net.cpp:106] Creating Layer pool5
I0117 11:49:42.919574  2497 net.cpp:454] pool5 <- conv5_1_BN
I0117 11:49:42.919580  2497 net.cpp:411] pool5 -> pool5
I0117 11:49:42.919730  2497 net.cpp:150] Setting up pool5
I0117 11:49:42.919737  2497 net.cpp:157] Top shape: 256 256 3 3 (589824)
I0117 11:49:42.919740  2497 net.cpp:165] Memory required for data: 1256653824
I0117 11:49:42.919754  2497 layer_factory.hpp:76] Creating layer fc6
I0117 11:49:42.919764  2497 net.cpp:106] Creating Layer fc6
I0117 11:49:42.919775  2497 net.cpp:454] fc6 <- pool5
I0117 11:49:42.919782  2497 net.cpp:411] fc6 -> fc6
I0117 11:49:43.016810  2497 net.cpp:150] Setting up fc6
I0117 11:49:43.016835  2497 net.cpp:157] Top shape: 256 2048 (524288)
I0117 11:49:43.016839  2497 net.cpp:165] Memory required for data: 1258750976
I0117 11:49:43.016858  2497 layer_factory.hpp:76] Creating layer relu6
I0117 11:49:43.016870  2497 net.cpp:106] Creating Layer relu6
I0117 11:49:43.016875  2497 net.cpp:454] relu6 <- fc6
I0117 11:49:43.016881  2497 net.cpp:397] relu6 -> fc6 (in-place)
I0117 11:49:43.016949  2497 net.cpp:150] Setting up relu6
I0117 11:49:43.016955  2497 net.cpp:157] Top shape: 256 2048 (524288)
I0117 11:49:43.016958  2497 net.cpp:165] Memory required for data: 1260848128
I0117 11:49:43.016973  2497 layer_factory.hpp:76] Creating layer fc6_BN
I0117 11:49:43.016978  2497 net.cpp:106] Creating Layer fc6_BN
I0117 11:49:43.016981  2497 net.cpp:454] fc6_BN <- fc6
I0117 11:49:43.016986  2497 net.cpp:411] fc6_BN -> fc6_BN
I0117 11:49:43.017129  2497 net.cpp:150] Setting up fc6_BN
I0117 11:49:43.017135  2497 net.cpp:157] Top shape: 256 2048 (524288)
I0117 11:49:43.017138  2497 net.cpp:165] Memory required for data: 1262945280
I0117 11:49:43.017154  2497 layer_factory.hpp:76] Creating layer drop6
I0117 11:49:43.017163  2497 net.cpp:106] Creating Layer drop6
I0117 11:49:43.017168  2497 net.cpp:454] drop6 <- fc6_BN
I0117 11:49:43.017171  2497 net.cpp:411] drop6 -> drop6
I0117 11:49:43.017201  2497 net.cpp:150] Setting up drop6
I0117 11:49:43.017216  2497 net.cpp:157] Top shape: 256 2048 (524288)
I0117 11:49:43.017220  2497 net.cpp:165] Memory required for data: 1265042432
I0117 11:49:43.017221  2497 layer_factory.hpp:76] Creating layer fc7
I0117 11:49:43.017242  2497 net.cpp:106] Creating Layer fc7
I0117 11:49:43.017247  2497 net.cpp:454] fc7 <- drop6
I0117 11:49:43.017253  2497 net.cpp:411] fc7 -> fc7
I0117 11:49:43.103778  2497 net.cpp:150] Setting up fc7
I0117 11:49:43.103803  2497 net.cpp:157] Top shape: 256 2048 (524288)
I0117 11:49:43.103807  2497 net.cpp:165] Memory required for data: 1267139584
I0117 11:49:43.103826  2497 layer_factory.hpp:76] Creating layer relu7
I0117 11:49:43.103837  2497 net.cpp:106] Creating Layer relu7
I0117 11:49:43.103840  2497 net.cpp:454] relu7 <- fc7
I0117 11:49:43.103848  2497 net.cpp:397] relu7 -> fc7 (in-place)
I0117 11:49:43.103921  2497 net.cpp:150] Setting up relu7
I0117 11:49:43.103927  2497 net.cpp:157] Top shape: 256 2048 (524288)
I0117 11:49:43.103930  2497 net.cpp:165] Memory required for data: 1269236736
I0117 11:49:43.103935  2497 layer_factory.hpp:76] Creating layer fc7_BN
I0117 11:49:43.103940  2497 net.cpp:106] Creating Layer fc7_BN
I0117 11:49:43.103943  2497 net.cpp:454] fc7_BN <- fc7
I0117 11:49:43.103947  2497 net.cpp:411] fc7_BN -> fc7_BN
I0117 11:49:43.104102  2497 net.cpp:150] Setting up fc7_BN
I0117 11:49:43.104109  2497 net.cpp:157] Top shape: 256 2048 (524288)
I0117 11:49:43.104111  2497 net.cpp:165] Memory required for data: 1271333888
I0117 11:49:43.104117  2497 layer_factory.hpp:76] Creating layer drop7
I0117 11:49:43.104122  2497 net.cpp:106] Creating Layer drop7
I0117 11:49:43.104125  2497 net.cpp:454] drop7 <- fc7_BN
I0117 11:49:43.104140  2497 net.cpp:411] drop7 -> drop7
I0117 11:49:43.104168  2497 net.cpp:150] Setting up drop7
I0117 11:49:43.104174  2497 net.cpp:157] Top shape: 256 2048 (524288)
I0117 11:49:43.104192  2497 net.cpp:165] Memory required for data: 1273431040
I0117 11:49:43.104194  2497 layer_factory.hpp:76] Creating layer fc8
I0117 11:49:43.104202  2497 net.cpp:106] Creating Layer fc8
I0117 11:49:43.104204  2497 net.cpp:454] fc8 <- drop7
I0117 11:49:43.104210  2497 net.cpp:411] fc8 -> fc8
I0117 11:49:43.146559  2497 net.cpp:150] Setting up fc8
I0117 11:49:43.146584  2497 net.cpp:157] Top shape: 256 1000 (256000)
I0117 11:49:43.146586  2497 net.cpp:165] Memory required for data: 1274455040
I0117 11:49:43.146605  2497 layer_factory.hpp:76] Creating layer loss
I0117 11:49:43.146616  2497 net.cpp:106] Creating Layer loss
I0117 11:49:43.146621  2497 net.cpp:454] loss <- fc8
I0117 11:49:43.146639  2497 net.cpp:454] loss <- label
I0117 11:49:43.146646  2497 net.cpp:411] loss -> loss
I0117 11:49:43.155088  2497 layer_factory.hpp:76] Creating layer loss
…
I0117 11:49:43.158828  2497 net.cpp:322] The NetState phase (1) differed from the phase (0) specified by a rule in layer data
I0117 11:49:43.159211  2497 net.cpp:49] Initializing net from parameters: 
name: "CaffeNet"
state {
  phase: TEST
}
layer {
  name: "data"
  type: "Data"
  top: "data"
  top: "label"
  include {
    phase: TEST
  }
  transform_param {
    mirror: false
    crop_size: 128
    mean_value: 104
    mean_value: 117
    mean_value: 124
  }
  data_param {
    source: "/media/dereyly/2E4057004056CDE9/data/CAFFE_DATA/ilsvrc12_val_lmdb_144"
    batch_size: 100
    backend: LMDB
  }
}
layer {
  name: "conv1"
  type: "Convolution"
  bottom: "data"
  top: "conv1"
  param {
    lr_mult: 1
    decay_mult: 1
  }
  param {
    lr_mult: 2
    decay_mult: 0
  }
  convolution_param {
    num_output: 96
    kernel_size: 11
    stride: 4
    weight_filler {
      type: "msra"
      std: 0.01
    }
    bias_filler {
      type: "constant"
    }
  }
}
layer {
  name: "relu1"
  type: "PReLU"
  bottom: "conv1"
  top: "conv1"
  prelu_param {
    filler {
      type: "constant"
      value: 0.3
    }
    channel_shared: false
  }
}
layer {
  name: "pool1"
  type: "Pooling"
  bottom: "conv1"
  top: "pool1"
  pooling_param {
    pool: MAX
    kernel_size: 3
    stride: 2
  }
}
layer {
  name: "conv1_BN"
  type: "BatchNorm"
  bottom: "pool1"
  top: "conv1_BN"
}
layer {
  name: "conv2"
  type: "Convolution"
  bottom: "conv1_BN"
  top: "conv2"
  param {
    lr_mult: 1
    decay_mult: 1
  }
  param {
    lr_mult: 2
    decay_mult: 0
  }
  convolution_param {
    num_output: 256
    weight_filler {
      type: "msra"
      std: 0.01
    }
    bias_filler {
      type: "constant"
    }
    pad_h: 0
    pad_w: 2
    kernel_h: 1
    kernel_w: 5
  }
}
layer {
  name: "relu2"
  type: "PReLU"
  bottom: "conv2"
  top: "conv2"
  prelu_param {
    filler {
      type: "constant"
      value: 0.3
    }
    channel_shared: false
  }
}
layer {
  name: "conv2_1_BN"
  type: "BatchNorm"
  bottom: "conv2"
  top: "conv2_1_BN"
}
layer {
  name: "conv2_1"
  type: "Convolution"
  bottom: "conv2_1_BN"
  top: "conv2_1"
  param {
    lr_mult: 1
    decay_mult: 1
  }
  param {
    lr_mult: 2
    decay_mult: 0
  }
  convolution_param {
    num_output: 256
    weight_filler {
      type: "msra"
      std: 0.01
    }
    bias_filler {
      type: "constant"
    }
    pad_h: 2
    pad_w: 0
    kernel_h: 5
    kernel_w: 1
  }
}
layer {
  name: "relu2_1"
  type: "PReLU"
  bottom: "conv2_1"
  top: "conv2_1"
  prelu_param {
    filler {
      type: "constant"
      value: 0.3
    }
    channel_shared: false
  }
}
layer {
  name: "conv2_2_BN"
  type: "BatchNorm"
  bottom: "conv2_1"
  top: "conv2_2_BN"
}
layer {
  name: "conv2_2"
  type: "Convolution"
  bottom: "conv2_2_BN"
  top: "conv2_2"
  param {
    lr_mult: 1
    decay_mult: 1
  }
  param {
    lr_mult: 2
    decay_mult: 0
  }
  convolution_param {
    num_output: 256
    weight_filler {
      type: "msra"
      std: 0.01
    }
    bias_filler {
      type: "constant"
    }
    pad_h: 0
    pad_w: 2
    kernel_h: 1
    kernel_w: 5
  }
}
layer {
  name: "relu2_2"
  type: "PReLU"
  bottom: "conv2_2"
  top: "conv2_2"
  prelu_param {
    filler {
      type: "constant"
      value: 0.3
    }
    channel_shared: false
  }
}
layer {
  name: "conv2_3_BN"
  type: "BatchNorm"
  bottom: "conv2_2"
  top: "conv2_3_BN"
}
layer {
  name: "conv2_3"
  type: "Convolution"
  bottom: "conv2_3_BN"
  top: "conv2_3"
  param {
    lr_mult: 1
    decay_mult: 1
  }
  param {
    lr_mult: 2
    decay_mult: 0
  }
  convolution_param {
    num_output: 256
    weight_filler {
      type: "msra"
      std: 0.01
    }
    bias_filler {
      type: "constant"
    }
    pad_h: 2
    pad_w: 0
    kernel_h: 5
    kernel_w: 1
  }
}
layer {
  name: "relu2_3"
  type: "PReLU"
  bottom: "conv2_3"
  top: "conv2_3"
  prelu_param {
    filler {
      type: "constant"
      value: 0.3
    }
    channel_shared: false
  }
}
layer {
  name: "pool2"
  type: "Pooling"
  bottom: "conv2_3"
  top: "pool2"
  pooling_param {
    pool: MAX
    kernel_size: 3
    stride: 2
  }
}
layer {
  name: "conv2_BN"
  type: "BatchNorm"
  bottom: "pool2"
  top: "conv2_BN"
}
layer {
  name: "conv3"
  type: "Convolution"
  bottom: "conv2_BN"
  top: "conv3"
  param {
    lr_mult: 1
    decay_mult: 1
  }
  param {
    lr_mult: 2
    decay_mult: 0
  }
  convolution_param {
    num_output: 384
    weight_filler {
      type: "msra"
      std: 0.01
    }
    bias_filler {
      type: "constant"
    }
    pad_h: 0
    pad_w: 2
    kernel_h: 1
    kernel_w: 5
  }
}
layer {
  name: "relu3"
  type: "PReLU"
  bottom: "conv3"
  top: "conv3"
  prelu_param {
    filler {
      type: "constant"
      value: 0.3
    }
    channel_shared: false
  }
}
layer {
  name: "conv3_BN"
  type: "BatchNorm"
  bottom: "conv3"
  top: "conv3_BN"
}
layer {
  name: "conv3_1"
  type: "Convolution"
  bottom: "conv3_BN"
  top: "conv3_1"
  param {
    lr_mult: 1
    decay_mult: 1
  }
  param {
    lr_mult: 2
    decay_mult: 0
  }
  convolution_param {
    num_output: 384
    weight_filler {
      type: "msra"
      std: 0.01
    }
    bias_filler {
      type: "constant"
    }
    pad_h: 2
    pad_w: 0
    kernel_h: 5
    kernel_w: 1
  }
}
layer {
  name: "relu3_1"
  type: "PReLU"
  bottom: "conv3_1"
  top: "conv3_1"
  prelu_param {
    filler {
      type: "constant"
      value: 0.3
    }
    channel_shared: false
  }
}
layer {
  name: "conv3_1_BN"
  type: "BatchNorm"
  bottom: "conv3_1"
  top: "conv3_1_BN"
}
layer {
  name: "conv4"
  type: "Convolution"
  bottom: "conv3_1_BN"
  top: "conv4"
  param {
    lr_mult: 1
    decay_mult: 1
  }
  param {
    lr_mult: 2
    decay_mult: 0
  }
  convolution_param {
    num_output: 384
    weight_filler {
      type: "msra"
      std: 0.01
    }
    bias_filler {
      type: "constant"
    }
    pad_h: 0
    pad_w: 2
    kernel_h: 1
    kernel_w: 5
  }
}
layer {
  name: "relu4"
  type: "PReLU"
  bottom: "conv4"
  top: "conv4"
  prelu_param {
    filler {
      type: "constant"
      value: 0.3
    }
    channel_shared: false
  }
}
layer {
  name: "conv4_BN"
  type: "BatchNorm"
  bottom: "conv4"
  top: "conv4_BN"
}
layer {
  name: "conv4_1"
  type: "Convolution"
  bottom: "conv4_BN"
  top: "conv4_1"
  param {
    lr_mult: 1
    decay_mult: 1
  }
  param {
    lr_mult: 2
    decay_mult: 0
  }
  convolution_param {
    num_output: 384
    weight_filler {
      type: "msra"
      std: 0.01
    }
    bias_filler {
      type: "constant"
    }
    pad_h: 2
    pad_w: 0
    kernel_h: 5
    kernel_w: 1
  }
}
layer {
  name: "relu4_1"
  type: "PReLU"
  bottom: "conv4_1"
  top: "conv4_1"
  prelu_param {
    filler {
      type: "constant"
      value: 0.3
    }
    channel_shared: false
  }
}
layer {
  name: "conv4_1_BN"
  type: "BatchNorm"
  bottom: "conv4_1"
  top: "conv4_1_BN"
}
layer {
  name: "conv5"
  type: "Convolution"
  bottom: "conv4_1_BN"
  top: "conv5"
  param {
    lr_mult: 1
    decay_mult: 1
  }
  param {
    lr_mult: 2
    decay_mult: 0
  }
  convolution_param {
    num_output: 256
    weight_filler {
      type: "msra"
      std: 0.01
    }
    bias_filler {
      type: "constant"
    }
    pad_h: 0
    pad_w: 2
    kernel_h: 1
    kernel_w: 5
  }
}
layer {
  name: "relu5"
  type: "PReLU"
  bottom: "conv5"
  top: "conv5"
  prelu_param {
    filler {
      type: "constant"
      value: 0.3
    }
    channel_shared: false
  }
}
layer {
  name: "conv5_BN"
  type: "BatchNorm"
  bottom: "conv5"
  top: "conv5_BN"
}
layer {
  name: "conv5_1"
  type: "Convolution"
  bottom: "conv5_BN"
  top: "conv5_1"
  param {
    lr_mult: 1
    decay_mult: 1
  }
  param {
    lr_mult: 2
    decay_mult: 0
  }
  convolution_param {
    num_output: 256
    weight_filler {
      type: "msra"
      std: 0.01
    }
    bias_filler {
      type: "constant"
    }
    pad_h: 2
    pad_w: 0
    kernel_h: 5
    kernel_w: 1
  }
}
layer {
  name: "relu5_1"
  type: "PReLU"
  bottom: "conv5_1"
  top: "conv5_1"
  prelu_param {
    filler {
      type: "constant"
      value: 0.3
    }
    channel_shared: false
  }
}
layer {
  name: "conv5_1_BN"
  type: "BatchNorm"
  bottom: "conv5_1"
  top: "conv5_1_BN"
}
layer {
  name: "pool5"
  type: "Pooling"
  bottom: "conv5_1_BN"
  top: "pool5"
  pooling_param {
    pool: MAX
    kernel_size: 3
    stride: 2
  }
}
layer {
  name: "fc6"
  type: "InnerProduct"
  bottom: "pool5"
  top: "fc6"
  param {
    lr_mult: 1
    decay_mult: 1
  }
  param {
    lr_mult: 2
    decay_mult: 0
  }
  inner_product_param {
    num_output: 2048
    weight_filler {
      type: "gaussian"
      std: 0.005
    }
    bias_filler {
      type: "constant"
    }
  }
}
layer {
  name: "relu6"
  type: "PReLU"
  bottom: "fc6"
  top: "fc6"
  prelu_param {
    filler {
      type: "constant"
      value: 0.3
    }
    channel_shared: false
  }
}
layer {
  name: "fc6_BN"
  type: "BatchNorm"
  bottom: "fc6"
  top: "fc6_BN"
}
layer {
  name: "drop6"
  type: "Dropout"
  bottom: "fc6_BN"
  top: "drop6"
  dropout_param {
    dropout_ratio: 0.2
  }
}
layer {
  name: "fc7"
  type: "InnerProduct"
  bottom: "drop6"
  top: "fc7"
  param {
    lr_mult: 1
    decay_mult: 1
  }
  param {
    lr_mult: 2
    decay_mult: 0
  }
  inner_product_param {
    num_output: 2048
    weight_filler {
      type: "gaussian"
      std: 0.005
    }
    bias_filler {
      type: "constant"
    }
  }
}
layer {
  name: "relu7"
  type: "PReLU"
  bottom: "fc7"
  top: "fc7"
  prelu_param {
    filler {
      type: "constant"
      value: 0.3
    }
    channel_shared: false
  }
}
layer {
  name: "fc7_BN"
  type: "BatchNorm"
  bottom: "fc7"
  top: "fc7_BN"
}
layer {
  name: "drop7"
  type: "Dropout"
  bottom: "fc7_BN"
  top: "drop7"
  dropout_param {
    dropout_ratio: 0.2
  }
}
layer {
  name: "fc8"
  type: "InnerProduct"
  bottom: "drop7"
  top: "fc8"
  param {
    lr_mult: 1
    decay_mult: 1
  }
  param {
    lr_mult: 2
    decay_mult: 0
  }
  inner_product_param {
    num_output: 1000
    weight_filler {
      type: "gaussian"
      std: 0.01
    }
    bias_filler {
      type: "constant"
    }
  }
}
layer {
  name: "accuracy"
  type: "Accuracy"
  bottom: "fc8"
  bottom: "label"
  top: "accuracy"
  include {
    phase: TEST
  }
}
layer {
  name: "loss"
  type: "SoftmaxWithLoss"
  bottom: "fc8"
  bottom: "label"
  top: "loss"
}
I0117 11:49:43.159359  2497 layer_factory.hpp:76] Creating layer data
I0117 11:49:43.159546  2497 net.cpp:106] Creating Layer data
I0117 11:49:43.159554  2497 net.cpp:411] data -> data
I0117 11:49:43.159560  2497 net.cpp:411] data -> label
I0117 11:49:43.161357  2504 db_lmdb.cpp:38] Opened lmdb /media/dereyly/2E4057004056CDE9/data/CAFFE_DATA/ilsvrc12_val_lmdb_144
I0117 11:49:43.163650  2497 data_layer.cpp:41] output data size: 100,3,128,128
I0117 11:49:43.187031  2497 net.cpp:150] Setting up data
I0117 11:49:43.187054  2497 net.cpp:157] Top shape: 100 3 128 128 (4915200)
I0117 11:49:43.187059  2497 net.cpp:157] Top shape: 100 (100)
I0117 11:49:43.187062  2497 net.cpp:165] Memory required for data: 19661200
I0117 11:49:43.187068  2497 layer_factory.hpp:76] Creating layer label_data_1_split
I0117 11:49:43.187084  2497 net.cpp:106] Creating Layer label_data_1_split
I0117 11:49:43.187088  2497 net.cpp:454] label_data_1_split <- label
I0117 11:49:43.187094  2497 net.cpp:411] label_data_1_split -> label_data_1_split_0
I0117 11:49:43.187103  2497 net.cpp:411] label_data_1_split -> label_data_1_split_1
I0117 11:49:43.187245  2497 net.cpp:150] Setting up label_data_1_split
I0117 11:49:43.187258  2497 net.cpp:157] Top shape: 100 (100)
I0117 11:49:43.187261  2497 net.cpp:157] Top shape: 100 (100)
I0117 11:49:43.187264  2497 net.cpp:165] Memory required for data: 19662000
I0117 11:49:43.187268  2497 layer_factory.hpp:76] Creating layer conv1
I0117 11:49:43.187280  2497 net.cpp:106] Creating Layer conv1
I0117 11:49:43.187284  2497 net.cpp:454] conv1 <- data
I0117 11:49:43.187290  2497 net.cpp:411] conv1 -> conv1
I0117 11:49:43.190183  2497 net.cpp:150] Setting up conv1
I0117 11:49:43.190196  2497 net.cpp:157] Top shape: 100 96 30 30 (8640000)
I0117 11:49:43.190212  2497 net.cpp:165] Memory required for data: 54222000
I0117 11:49:43.190222  2497 layer_factory.hpp:76] Creating layer relu1
I0117 11:49:43.190230  2497 net.cpp:106] Creating Layer relu1
I0117 11:49:43.190234  2497 net.cpp:454] relu1 <- conv1
I0117 11:49:43.190239  2497 net.cpp:397] relu1 -> conv1 (in-place)
I0117 11:49:43.190629  2497 net.cpp:150] Setting up relu1
I0117 11:49:43.190637  2497 net.cpp:157] Top shape: 100 96 30 30 (8640000)
I0117 11:49:43.190641  2497 net.cpp:165] Memory required for data: 88782000
I0117 11:49:43.190647  2497 layer_factory.hpp:76] Creating layer pool1
I0117 11:49:43.190655  2497 net.cpp:106] Creating Layer pool1
I0117 11:49:43.190659  2497 net.cpp:454] pool1 <- conv1
I0117 11:49:43.190664  2497 net.cpp:411] pool1 -> pool1
I0117 11:49:43.190934  2497 net.cpp:150] Setting up pool1
I0117 11:49:43.190944  2497 net.cpp:157] Top shape: 100 96 15 15 (2160000)
I0117 11:49:43.190948  2497 net.cpp:165] Memory required for data: 97422000
I0117 11:49:43.190951  2497 layer_factory.hpp:76] Creating layer conv1_BN
I0117 11:49:43.190958  2497 net.cpp:106] Creating Layer conv1_BN
I0117 11:49:43.190961  2497 net.cpp:454] conv1_BN <- pool1
I0117 11:49:43.190968  2497 net.cpp:411] conv1_BN -> conv1_BN
I0117 11:49:43.191123  2497 net.cpp:150] Setting up conv1_BN
I0117 11:49:43.191130  2497 net.cpp:157] Top shape: 100 96 15 15 (2160000)
I0117 11:49:43.191144  2497 net.cpp:165] Memory required for data: 106062000
I0117 11:49:43.191154  2497 layer_factory.hpp:76] Creating layer conv2
I0117 11:49:43.191161  2497 net.cpp:106] Creating Layer conv2
I0117 11:49:43.191165  2497 net.cpp:454] conv2 <- conv1_BN
I0117 11:49:43.191171  2497 net.cpp:411] conv2 -> conv2
I0117 11:49:43.194684  2497 net.cpp:150] Setting up conv2
I0117 11:49:43.194702  2497 net.cpp:157] Top shape: 100 256 15 15 (5760000)
I0117 11:49:43.194706  2497 net.cpp:165] Memory required for data: 129102000
I0117 11:49:43.194715  2497 layer_factory.hpp:76] Creating layer relu2
I0117 11:49:43.194725  2497 net.cpp:106] Creating Layer relu2
I0117 11:49:43.194732  2497 net.cpp:454] relu2 <- conv2
I0117 11:49:43.194741  2497 net.cpp:397] relu2 -> conv2 (in-place)
I0117 11:49:43.194898  2497 net.cpp:150] Setting up relu2
I0117 11:49:43.194908  2497 net.cpp:157] Top shape: 100 256 15 15 (5760000)
I0117 11:49:43.194913  2497 net.cpp:165] Memory required for data: 152142000
I0117 11:49:43.194926  2497 layer_factory.hpp:76] Creating layer conv2_1_BN
I0117 11:49:43.194950  2497 net.cpp:106] Creating Layer conv2_1_BN
I0117 11:49:43.194957  2497 net.cpp:454] conv2_1_BN <- conv2
I0117 11:49:43.194965  2497 net.cpp:411] conv2_1_BN -> conv2_1_BN
I0117 11:49:43.195163  2497 net.cpp:150] Setting up conv2_1_BN
I0117 11:49:43.195173  2497 net.cpp:157] Top shape: 100 256 15 15 (5760000)
I0117 11:49:43.195178  2497 net.cpp:165] Memory required for data: 175182000
I0117 11:49:43.195189  2497 layer_factory.hpp:76] Creating layer conv2_1
I0117 11:49:43.195204  2497 net.cpp:106] Creating Layer conv2_1
I0117 11:49:43.195211  2497 net.cpp:454] conv2_1 <- conv2_1_BN
I0117 11:49:43.195221  2497 net.cpp:411] conv2_1 -> conv2_1
I0117 11:49:43.203289  2497 net.cpp:150] Setting up conv2_1
I0117 11:49:43.203310  2497 net.cpp:157] Top shape: 100 256 15 15 (5760000)
I0117 11:49:43.203315  2497 net.cpp:165] Memory required for data: 198222000
I0117 11:49:43.203326  2497 layer_factory.hpp:76] Creating layer relu2_1
I0117 11:49:43.203342  2497 net.cpp:106] Creating Layer relu2_1
I0117 11:49:43.203349  2497 net.cpp:454] relu2_1 <- conv2_1
I0117 11:49:43.203359  2497 net.cpp:397] relu2_1 -> conv2_1 (in-place)
I0117 11:49:43.203757  2497 net.cpp:150] Setting up relu2_1
I0117 11:49:43.203769  2497 net.cpp:157] Top shape: 100 256 15 15 (5760000)
I0117 11:49:43.203775  2497 net.cpp:165] Memory required for data: 221262000
I0117 11:49:43.203783  2497 layer_factory.hpp:76] Creating layer conv2_2_BN
I0117 11:49:43.203793  2497 net.cpp:106] Creating Layer conv2_2_BN
I0117 11:49:43.203799  2497 net.cpp:454] conv2_2_BN <- conv2_1
I0117 11:49:43.203806  2497 net.cpp:411] conv2_2_BN -> conv2_2_BN
I0117 11:49:43.203985  2497 net.cpp:150] Setting up conv2_2_BN
I0117 11:49:43.203994  2497 net.cpp:157] Top shape: 100 256 15 15 (5760000)
I0117 11:49:43.204000  2497 net.cpp:165] Memory required for data: 244302000
I0117 11:49:43.204017  2497 layer_factory.hpp:76] Creating layer conv2_2
I0117 11:49:43.204032  2497 net.cpp:106] Creating Layer conv2_2
I0117 11:49:43.204041  2497 net.cpp:454] conv2_2 <- conv2_2_BN
I0117 11:49:43.204052  2497 net.cpp:411] conv2_2 -> conv2_2
I0117 11:49:43.211932  2497 net.cpp:150] Setting up conv2_2
I0117 11:49:43.211954  2497 net.cpp:157] Top shape: 100 256 15 15 (5760000)
I0117 11:49:43.211959  2497 net.cpp:165] Memory required for data: 267342000
I0117 11:49:43.211971  2497 layer_factory.hpp:76] Creating layer relu2_2
I0117 11:49:43.211983  2497 net.cpp:106] Creating Layer relu2_2
I0117 11:49:43.211990  2497 net.cpp:454] relu2_2 <- conv2_2
I0117 11:49:43.212003  2497 net.cpp:397] relu2_2 -> conv2_2 (in-place)
I0117 11:49:43.212117  2497 net.cpp:150] Setting up relu2_2
I0117 11:49:43.212127  2497 net.cpp:157] Top shape: 100 256 15 15 (5760000)
I0117 11:49:43.212133  2497 net.cpp:165] Memory required for data: 290382000
I0117 11:49:43.212141  2497 layer_factory.hpp:76] Creating layer conv2_3_BN
I0117 11:49:43.212149  2497 net.cpp:106] Creating Layer conv2_3_BN
I0117 11:49:43.212154  2497 net.cpp:454] conv2_3_BN <- conv2_2
I0117 11:49:43.212162  2497 net.cpp:411] conv2_3_BN -> conv2_3_BN
I0117 11:49:43.212321  2497 net.cpp:150] Setting up conv2_3_BN
I0117 11:49:43.212330  2497 net.cpp:157] Top shape: 100 256 15 15 (5760000)
I0117 11:49:43.212345  2497 net.cpp:165] Memory required for data: 313422000
I0117 11:49:43.212368  2497 layer_factory.hpp:76] Creating layer conv2_3
I0117 11:49:43.212381  2497 net.cpp:106] Creating Layer conv2_3
I0117 11:49:43.212389  2497 net.cpp:454] conv2_3 <- conv2_3_BN
I0117 11:49:43.212409  2497 net.cpp:411] conv2_3 -> conv2_3
I0117 11:49:43.220450  2497 net.cpp:150] Setting up conv2_3
I0117 11:49:43.220473  2497 net.cpp:157] Top shape: 100 256 15 15 (5760000)
I0117 11:49:43.220479  2497 net.cpp:165] Memory required for data: 336462000
I0117 11:49:43.220489  2497 layer_factory.hpp:76] Creating layer relu2_3
I0117 11:49:43.220505  2497 net.cpp:106] Creating Layer relu2_3
I0117 11:49:43.220512  2497 net.cpp:454] relu2_3 <- conv2_3
I0117 11:49:43.220525  2497 net.cpp:397] relu2_3 -> conv2_3 (in-place)
I0117 11:49:43.220640  2497 net.cpp:150] Setting up relu2_3
I0117 11:49:43.220649  2497 net.cpp:157] Top shape: 100 256 15 15 (5760000)
I0117 11:49:43.220654  2497 net.cpp:165] Memory required for data: 359502000
I0117 11:49:43.220661  2497 layer_factory.hpp:76] Creating layer pool2
I0117 11:49:43.220672  2497 net.cpp:106] Creating Layer pool2
I0117 11:49:43.220679  2497 net.cpp:454] pool2 <- conv2_3
I0117 11:49:43.220685  2497 net.cpp:411] pool2 -> pool2
I0117 11:49:43.220960  2497 net.cpp:150] Setting up pool2
I0117 11:49:43.220973  2497 net.cpp:157] Top shape: 100 256 7 7 (1254400)
I0117 11:49:43.220979  2497 net.cpp:165] Memory required for data: 364519600
I0117 11:49:43.220985  2497 layer_factory.hpp:76] Creating layer conv2_BN
I0117 11:49:43.220993  2497 net.cpp:106] Creating Layer conv2_BN
I0117 11:49:43.220999  2497 net.cpp:454] conv2_BN <- pool2
I0117 11:49:43.221007  2497 net.cpp:411] conv2_BN -> conv2_BN
I0117 11:49:43.221179  2497 net.cpp:150] Setting up conv2_BN
I0117 11:49:43.221189  2497 net.cpp:157] Top shape: 100 256 7 7 (1254400)
I0117 11:49:43.221194  2497 net.cpp:165] Memory required for data: 369537200
I0117 11:49:43.221205  2497 layer_factory.hpp:76] Creating layer conv3
I0117 11:49:43.221218  2497 net.cpp:106] Creating Layer conv3
I0117 11:49:43.221225  2497 net.cpp:454] conv3 <- conv2_BN
I0117 11:49:43.221236  2497 net.cpp:411] conv3 -> conv3
I0117 11:49:43.233075  2497 net.cpp:150] Setting up conv3
I0117 11:49:43.233099  2497 net.cpp:157] Top shape: 100 384 7 7 (1881600)
I0117 11:49:43.233104  2497 net.cpp:165] Memory required for data: 377063600
I0117 11:49:43.233115  2497 layer_factory.hpp:76] Creating layer relu3
I0117 11:49:43.233132  2497 net.cpp:106] Creating Layer relu3
I0117 11:49:43.233157  2497 net.cpp:454] relu3 <- conv3
I0117 11:49:43.233171  2497 net.cpp:397] relu3 -> conv3 (in-place)
I0117 11:49:43.233271  2497 net.cpp:150] Setting up relu3
I0117 11:49:43.233280  2497 net.cpp:157] Top shape: 100 384 7 7 (1881600)
I0117 11:49:43.233285  2497 net.cpp:165] Memory required for data: 384590000
I0117 11:49:43.233302  2497 layer_factory.hpp:76] Creating layer conv3_BN
I0117 11:49:43.233314  2497 net.cpp:106] Creating Layer conv3_BN
I0117 11:49:43.233320  2497 net.cpp:454] conv3_BN <- conv3
I0117 11:49:43.233328  2497 net.cpp:411] conv3_BN -> conv3_BN
I0117 11:49:43.233491  2497 net.cpp:150] Setting up conv3_BN
I0117 11:49:43.233500  2497 net.cpp:157] Top shape: 100 384 7 7 (1881600)
I0117 11:49:43.233505  2497 net.cpp:165] Memory required for data: 392116400
I0117 11:49:43.233516  2497 layer_factory.hpp:76] Creating layer conv3_1
I0117 11:49:43.233528  2497 net.cpp:106] Creating Layer conv3_1
I0117 11:49:43.233536  2497 net.cpp:454] conv3_1 <- conv3_BN
I0117 11:49:43.233546  2497 net.cpp:411] conv3_1 -> conv3_1
I0117 11:49:43.250280  2497 net.cpp:150] Setting up conv3_1
I0117 11:49:43.250304  2497 net.cpp:157] Top shape: 100 384 7 7 (1881600)
I0117 11:49:43.250309  2497 net.cpp:165] Memory required for data: 399642800
I0117 11:49:43.250320  2497 layer_factory.hpp:76] Creating layer relu3_1
I0117 11:49:43.250334  2497 net.cpp:106] Creating Layer relu3_1
I0117 11:49:43.250342  2497 net.cpp:454] relu3_1 <- conv3_1
I0117 11:49:43.250354  2497 net.cpp:397] relu3_1 -> conv3_1 (in-place)
I0117 11:49:43.250444  2497 net.cpp:150] Setting up relu3_1
I0117 11:49:43.250453  2497 net.cpp:157] Top shape: 100 384 7 7 (1881600)
I0117 11:49:43.250458  2497 net.cpp:165] Memory required for data: 407169200
I0117 11:49:43.250465  2497 layer_factory.hpp:76] Creating layer conv3_1_BN
I0117 11:49:43.250476  2497 net.cpp:106] Creating Layer conv3_1_BN
I0117 11:49:43.250483  2497 net.cpp:454] conv3_1_BN <- conv3_1
I0117 11:49:43.250489  2497 net.cpp:411] conv3_1_BN -> conv3_1_BN
I0117 11:49:43.250654  2497 net.cpp:150] Setting up conv3_1_BN
I0117 11:49:43.250663  2497 net.cpp:157] Top shape: 100 384 7 7 (1881600)
I0117 11:49:43.250669  2497 net.cpp:165] Memory required for data: 414695600
I0117 11:49:43.250679  2497 layer_factory.hpp:76] Creating layer conv4
I0117 11:49:43.250694  2497 net.cpp:106] Creating Layer conv4
I0117 11:49:43.250701  2497 net.cpp:454] conv4 <- conv3_1_BN
I0117 11:49:43.250710  2497 net.cpp:411] conv4 -> conv4
I0117 11:49:43.267184  2497 net.cpp:150] Setting up conv4
I0117 11:49:43.267210  2497 net.cpp:157] Top shape: 100 384 7 7 (1881600)
I0117 11:49:43.267215  2497 net.cpp:165] Memory required for data: 422222000
I0117 11:49:43.267226  2497 layer_factory.hpp:76] Creating layer relu4
I0117 11:49:43.267243  2497 net.cpp:106] Creating Layer relu4
I0117 11:49:43.267251  2497 net.cpp:454] relu4 <- conv4
I0117 11:49:43.267262  2497 net.cpp:397] relu4 -> conv4 (in-place)
I0117 11:49:43.267357  2497 net.cpp:150] Setting up relu4
I0117 11:49:43.267366  2497 net.cpp:157] Top shape: 100 384 7 7 (1881600)
I0117 11:49:43.267371  2497 net.cpp:165] Memory required for data: 429748400
I0117 11:49:43.267379  2497 layer_factory.hpp:76] Creating layer conv4_BN
I0117 11:49:43.267390  2497 net.cpp:106] Creating Layer conv4_BN
I0117 11:49:43.267395  2497 net.cpp:454] conv4_BN <- conv4
I0117 11:49:43.267402  2497 net.cpp:411] conv4_BN -> conv4_BN
I0117 11:49:43.267565  2497 net.cpp:150] Setting up conv4_BN
I0117 11:49:43.267575  2497 net.cpp:157] Top shape: 100 384 7 7 (1881600)
I0117 11:49:43.267580  2497 net.cpp:165] Memory required for data: 437274800
I0117 11:49:43.267590  2497 layer_factory.hpp:76] Creating layer conv4_1
I0117 11:49:43.267602  2497 net.cpp:106] Creating Layer conv4_1
I0117 11:49:43.267611  2497 net.cpp:454] conv4_1 <- conv4_BN
I0117 11:49:43.267619  2497 net.cpp:411] conv4_1 -> conv4_1
I0117 11:49:43.284209  2497 net.cpp:150] Setting up conv4_1
I0117 11:49:43.284231  2497 net.cpp:157] Top shape: 100 384 7 7 (1881600)
I0117 11:49:43.284236  2497 net.cpp:165] Memory required for data: 444801200
I0117 11:49:43.284258  2497 layer_factory.hpp:76] Creating layer relu4_1
I0117 11:49:43.284278  2497 net.cpp:106] Creating Layer relu4_1
I0117 11:49:43.284287  2497 net.cpp:454] relu4_1 <- conv4_1
I0117 11:49:43.284297  2497 net.cpp:397] relu4_1 -> conv4_1 (in-place)
I0117 11:49:43.284399  2497 net.cpp:150] Setting up relu4_1
I0117 11:49:43.284409  2497 net.cpp:157] Top shape: 100 384 7 7 (1881600)
I0117 11:49:43.284414  2497 net.cpp:165] Memory required for data: 452327600
I0117 11:49:43.284420  2497 layer_factory.hpp:76] Creating layer conv4_1_BN
I0117 11:49:43.284430  2497 net.cpp:106] Creating Layer conv4_1_BN
I0117 11:49:43.284435  2497 net.cpp:454] conv4_1_BN <- conv4_1
I0117 11:49:43.284446  2497 net.cpp:411] conv4_1_BN -> conv4_1_BN
I0117 11:49:43.284610  2497 net.cpp:150] Setting up conv4_1_BN
I0117 11:49:43.284617  2497 net.cpp:157] Top shape: 100 384 7 7 (1881600)
I0117 11:49:43.284622  2497 net.cpp:165] Memory required for data: 459854000
I0117 11:49:43.284633  2497 layer_factory.hpp:76] Creating layer conv5
I0117 11:49:43.284644  2497 net.cpp:106] Creating Layer conv5
I0117 11:49:43.284652  2497 net.cpp:454] conv5 <- conv4_1_BN
I0117 11:49:43.284662  2497 net.cpp:411] conv5 -> conv5
I0117 11:49:43.295615  2497 net.cpp:150] Setting up conv5
I0117 11:49:43.295632  2497 net.cpp:157] Top shape: 100 256 7 7 (1254400)
I0117 11:49:43.295639  2497 net.cpp:165] Memory required for data: 464871600
I0117 11:49:43.295657  2497 layer_factory.hpp:76] Creating layer relu5
I0117 11:49:43.295671  2497 net.cpp:106] Creating Layer relu5
I0117 11:49:43.295678  2497 net.cpp:454] relu5 <- conv5
I0117 11:49:43.295688  2497 net.cpp:397] relu5 -> conv5 (in-place)
I0117 11:49:43.295789  2497 net.cpp:150] Setting up relu5
I0117 11:49:43.295799  2497 net.cpp:157] Top shape: 100 256 7 7 (1254400)
I0117 11:49:43.295804  2497 net.cpp:165] Memory required for data: 469889200
I0117 11:49:43.295821  2497 layer_factory.hpp:76] Creating layer conv5_BN
I0117 11:49:43.295830  2497 net.cpp:106] Creating Layer conv5_BN
I0117 11:49:43.295835  2497 net.cpp:454] conv5_BN <- conv5
I0117 11:49:43.295842  2497 net.cpp:411] conv5_BN -> conv5_BN
I0117 11:49:43.296015  2497 net.cpp:150] Setting up conv5_BN
I0117 11:49:43.296022  2497 net.cpp:157] Top shape: 100 256 7 7 (1254400)
I0117 11:49:43.296027  2497 net.cpp:165] Memory required for data: 474906800
I0117 11:49:43.296048  2497 layer_factory.hpp:76] Creating layer conv5_1
I0117 11:49:43.296061  2497 net.cpp:106] Creating Layer conv5_1
I0117 11:49:43.296068  2497 net.cpp:454] conv5_1 <- conv5_BN
I0117 11:49:43.296078  2497 net.cpp:411] conv5_1 -> conv5_1
I0117 11:49:43.303462  2497 net.cpp:150] Setting up conv5_1
I0117 11:49:43.303473  2497 net.cpp:157] Top shape: 100 256 7 7 (1254400)
I0117 11:49:43.303493  2497 net.cpp:165] Memory required for data: 479924400
I0117 11:49:43.303503  2497 layer_factory.hpp:76] Creating layer relu5_1
I0117 11:49:43.303511  2497 net.cpp:106] Creating Layer relu5_1
I0117 11:49:43.303517  2497 net.cpp:454] relu5_1 <- conv5_1
I0117 11:49:43.303525  2497 net.cpp:397] relu5_1 -> conv5_1 (in-place)
I0117 11:49:43.303619  2497 net.cpp:150] Setting up relu5_1
I0117 11:49:43.303627  2497 net.cpp:157] Top shape: 100 256 7 7 (1254400)
I0117 11:49:43.303632  2497 net.cpp:165] Memory required for data: 484942000
I0117 11:49:43.303649  2497 layer_factory.hpp:76] Creating layer conv5_1_BN
I0117 11:49:43.303658  2497 net.cpp:106] Creating Layer conv5_1_BN
I0117 11:49:43.303664  2497 net.cpp:454] conv5_1_BN <- conv5_1
I0117 11:49:43.303671  2497 net.cpp:411] conv5_1_BN -> conv5_1_BN
I0117 11:49:43.303840  2497 net.cpp:150] Setting up conv5_1_BN
I0117 11:49:43.303848  2497 net.cpp:157] Top shape: 100 256 7 7 (1254400)
I0117 11:49:43.303853  2497 net.cpp:165] Memory required for data: 489959600
I0117 11:49:43.303886  2497 layer_factory.hpp:76] Creating layer pool5
I0117 11:49:43.303895  2497 net.cpp:106] Creating Layer pool5
I0117 11:49:43.303901  2497 net.cpp:454] pool5 <- conv5_1_BN
I0117 11:49:43.303910  2497 net.cpp:411] pool5 -> pool5
I0117 11:49:43.304091  2497 net.cpp:150] Setting up pool5
I0117 11:49:43.304101  2497 net.cpp:157] Top shape: 100 256 3 3 (230400)
I0117 11:49:43.304106  2497 net.cpp:165] Memory required for data: 490881200
I0117 11:49:43.304111  2497 layer_factory.hpp:76] Creating layer fc6
I0117 11:49:43.304123  2497 net.cpp:106] Creating Layer fc6
I0117 11:49:43.304128  2497 net.cpp:454] fc6 <- pool5
I0117 11:49:43.304138  2497 net.cpp:411] fc6 -> fc6
I0117 11:49:43.400447  2497 net.cpp:150] Setting up fc6
I0117 11:49:43.400475  2497 net.cpp:157] Top shape: 100 2048 (204800)
I0117 11:49:43.400480  2497 net.cpp:165] Memory required for data: 491700400
I0117 11:49:43.400491  2497 layer_factory.hpp:76] Creating layer relu6
I0117 11:49:43.400503  2497 net.cpp:106] Creating Layer relu6
I0117 11:49:43.400511  2497 net.cpp:454] relu6 <- fc6
I0117 11:49:43.400521  2497 net.cpp:397] relu6 -> fc6 (in-place)
I0117 11:49:43.400600  2497 net.cpp:150] Setting up relu6
I0117 11:49:43.400609  2497 net.cpp:157] Top shape: 100 2048 (204800)
I0117 11:49:43.400614  2497 net.cpp:165] Memory required for data: 492519600
I0117 11:49:43.400620  2497 layer_factory.hpp:76] Creating layer fc6_BN
I0117 11:49:43.400629  2497 net.cpp:106] Creating Layer fc6_BN
I0117 11:49:43.400635  2497 net.cpp:454] fc6_BN <- fc6
I0117 11:49:43.400641  2497 net.cpp:411] fc6_BN -> fc6_BN
I0117 11:49:43.400805  2497 net.cpp:150] Setting up fc6_BN
I0117 11:49:43.400813  2497 net.cpp:157] Top shape: 100 2048 (204800)
I0117 11:49:43.400818  2497 net.cpp:165] Memory required for data: 493338800
I0117 11:49:43.400830  2497 layer_factory.hpp:76] Creating layer drop6
I0117 11:49:43.400838  2497 net.cpp:106] Creating Layer drop6
I0117 11:49:43.400843  2497 net.cpp:454] drop6 <- fc6_BN
I0117 11:49:43.400851  2497 net.cpp:411] drop6 -> drop6
I0117 11:49:43.400892  2497 net.cpp:150] Setting up drop6
I0117 11:49:43.400898  2497 net.cpp:157] Top shape: 100 2048 (204800)
I0117 11:49:43.400903  2497 net.cpp:165] Memory required for data: 494158000
I0117 11:49:43.400908  2497 layer_factory.hpp:76] Creating layer fc7
I0117 11:49:43.400919  2497 net.cpp:106] Creating Layer fc7
I0117 11:49:43.400925  2497 net.cpp:454] fc7 <- drop6
I0117 11:49:43.400933  2497 net.cpp:411] fc7 -> fc7
I0117 11:49:43.486950  2497 net.cpp:150] Setting up fc7
I0117 11:49:43.486975  2497 net.cpp:157] Top shape: 100 2048 (204800)
I0117 11:49:43.486980  2497 net.cpp:165] Memory required for data: 494977200
I0117 11:49:43.486991  2497 layer_factory.hpp:76] Creating layer relu7
I0117 11:49:43.487004  2497 net.cpp:106] Creating Layer relu7
I0117 11:49:43.487010  2497 net.cpp:454] relu7 <- fc7
I0117 11:49:43.487021  2497 net.cpp:397] relu7 -> fc7 (in-place)
I0117 11:49:43.487104  2497 net.cpp:150] Setting up relu7
I0117 11:49:43.487113  2497 net.cpp:157] Top shape: 100 2048 (204800)
I0117 11:49:43.487118  2497 net.cpp:165] Memory required for data: 495796400
I0117 11:49:43.487124  2497 layer_factory.hpp:76] Creating layer fc7_BN
I0117 11:49:43.487133  2497 net.cpp:106] Creating Layer fc7_BN
I0117 11:49:43.487138  2497 net.cpp:454] fc7_BN <- fc7
I0117 11:49:43.487145  2497 net.cpp:411] fc7_BN -> fc7_BN
I0117 11:49:43.487303  2497 net.cpp:150] Setting up fc7_BN
I0117 11:49:43.487310  2497 net.cpp:157] Top shape: 100 2048 (204800)
I0117 11:49:43.487315  2497 net.cpp:165] Memory required for data: 496615600
I0117 11:49:43.487325  2497 layer_factory.hpp:76] Creating layer drop7
I0117 11:49:43.487334  2497 net.cpp:106] Creating Layer drop7
I0117 11:49:43.487340  2497 net.cpp:454] drop7 <- fc7_BN
I0117 11:49:43.487347  2497 net.cpp:411] drop7 -> drop7
I0117 11:49:43.487387  2497 net.cpp:150] Setting up drop7
I0117 11:49:43.487395  2497 net.cpp:157] Top shape: 100 2048 (204800)
I0117 11:49:43.487399  2497 net.cpp:165] Memory required for data: 497434800
I0117 11:49:43.487404  2497 layer_factory.hpp:76] Creating layer fc8
I0117 11:49:43.487416  2497 net.cpp:106] Creating Layer fc8
I0117 11:49:43.487421  2497 net.cpp:454] fc8 <- drop7
I0117 11:49:43.487429  2497 net.cpp:411] fc8 -> fc8
I0117 11:49:43.529384  2497 net.cpp:150] Setting up fc8
I0117 11:49:43.529422  2497 net.cpp:157] Top shape: 100 1000 (100000)
I0117 11:49:43.529427  2497 net.cpp:165] Memory required for data: 497834800
I0117 11:49:43.529438  2497 layer_factory.hpp:76] Creating layer fc8_fc8_0_split
I0117 11:49:43.529451  2497 net.cpp:106] Creating Layer fc8_fc8_0_split
I0117 11:49:43.529458  2497 net.cpp:454] fc8_fc8_0_split <- fc8
I0117 11:49:43.529467  2497 net.cpp:411] fc8_fc8_0_split -> fc8_fc8_0_split_0
I0117 11:49:43.529479  2497 net.cpp:411] fc8_fc8_0_split -> fc8_fc8_0_split_1
I0117 11:49:43.529525  2497 net.cpp:150] Setting up fc8_fc8_0_split
I0117 11:49:43.529534  2497 net.cpp:157] Top shape: 100 1000 (100000)
I0117 11:49:43.529541  2497 net.cpp:157] Top shape: 100 1000 (100000)
I0117 11:49:43.529546  2497 net.cpp:165] Memory required for data: 498634800
I0117 11:49:43.529551  2497 layer_factory.hpp:76] Creating layer accuracy
I0117 11:49:43.529563  2497 net.cpp:106] Creating Layer accuracy
I0117 11:49:43.529568  2497 net.cpp:454] accuracy <- fc8_fc8_0_split_0
I0117 11:49:43.529574  2497 net.cpp:454] accuracy <- label_data_1_split_0
I0117 11:49:43.529584  2497 net.cpp:411] accuracy -> accuracy
…
