…
I0115 03:29:49.402031  2384 net.cpp:322] The NetState phase (0) differed from the phase (1) specified by a rule in layer accuracy
I0115 03:29:49.402281  2384 net.cpp:49] Initializing net from parameters: 
name: "CaffeNet"
state {
  phase: TRAIN
}
layer {
  name: "data"
  type: "Data"
  top: "data"
  top: "label"
  include {
    phase: TRAIN
  }
  transform_param {
    mirror: true
    crop_size: 128
    mean_value: 104
    mean_value: 117
    mean_value: 124
  }
  data_param {
    source: "/media/dereyly/data_one/data/CAFFE_DATA/ilsvrc12_train_lmdb_144"
    batch_size: 256
    backend: LMDB
  }
}
layer {
  name: "conv1"
  type: "Convolution"
  bottom: "data"
  top: "conv1"
  param {
    lr_mult: 1
    decay_mult: 1
  }
  param {
    lr_mult: 2
    decay_mult: 0
  }
  convolution_param {
    num_output: 96
    kernel_size: 11
    stride: 4
    weight_filler {
      type: "msra"
      std: 0.01
    }
    bias_filler {
      type: "constant"
    }
  }
}
layer {
  name: "relu1"
  type: "ReLU"
  bottom: "conv1"
  top: "conv1"
}
layer {
  name: "pool1"
  type: "Pooling"
  bottom: "conv1"
  top: "pool1"
  pooling_param {
    pool: MAX
    kernel_size: 3
    stride: 2
  }
}
layer {
  name: "conv2"
  type: "Convolution"
  bottom: "pool1"
  top: "conv2"
  param {
    lr_mult: 1
    decay_mult: 1
  }
  param {
    lr_mult: 2
    decay_mult: 0
  }
  convolution_param {
    num_output: 256
    weight_filler {
      type: "msra"
      std: 0.01
    }
    bias_filler {
      type: "constant"
    }
    pad_h: 0
    pad_w: 2
    kernel_h: 1
    kernel_w: 5
  }
}
layer {
  name: "relu2"
  type: "ReLU"
  bottom: "conv2"
  top: "conv2"
}
layer {
  name: "conv2_1"
  type: "Convolution"
  bottom: "conv2"
  top: "conv2_1"
  param {
    lr_mult: 1
    decay_mult: 1
  }
  param {
    lr_mult: 2
    decay_mult: 0
  }
  convolution_param {
    num_output: 256
    weight_filler {
      type: "msra"
      std: 0.01
    }
    bias_filler {
      type: "constant"
    }
    pad_h: 2
    pad_w: 0
    kernel_h: 5
    kernel_w: 1
  }
}
layer {
  name: "relu2_1"
  type: "ReLU"
  bottom: "conv2_1"
  top: "conv2_1"
}
layer {
  name: "pool2"
  type: "Pooling"
  bottom: "conv2_1"
  top: "pool2"
  pooling_param {
    pool: MAX
    kernel_size: 3
    stride: 2
  }
}
layer {
  name: "conv3"
  type: "Convolution"
  bottom: "pool2"
  top: "conv3"
  param {
    lr_mult: 1
    decay_mult: 1
  }
  param {
    lr_mult: 2
    decay_mult: 0
  }
  convolution_param {
    num_output: 384
    weight_filler {
      type: "msra"
      std: 0.01
    }
    bias_filler {
      type: "constant"
    }
    pad_h: 0
    pad_w: 1
    kernel_h: 1
    kernel_w: 3
  }
}
layer {
  name: "relu3"
  type: "ReLU"
  bottom: "conv3"
  top: "conv3"
}
layer {
  name: "conv3_1"
  type: "Convolution"
  bottom: "conv3"
  top: "conv3_1"
  param {
    lr_mult: 1
    decay_mult: 1
  }
  param {
    lr_mult: 2
    decay_mult: 0
  }
  convolution_param {
    num_output: 384
    weight_filler {
      type: "msra"
      std: 0.01
    }
    bias_filler {
      type: "constant"
    }
    pad_h: 1
    pad_w: 0
    kernel_h: 3
    kernel_w: 1
  }
}
layer {
  name: "relu3_1"
  type: "ReLU"
  bottom: "conv3_1"
  top: "conv3_1"
}
layer {
  name: "conv4"
  type: "Convolution"
  bottom: "conv3_1"
  top: "conv4"
  param {
    lr_mult: 1
    decay_mult: 1
  }
  param {
    lr_mult: 2
    decay_mult: 0
  }
  convolution_param {
    num_output: 384
    weight_filler {
      type: "msra"
      std: 0.01
    }
    bias_filler {
      type: "constant"
    }
    pad_h: 0
    pad_w: 1
    kernel_h: 1
    kernel_w: 3
  }
}
layer {
  name: "relu4"
  type: "ReLU"
  bottom: "conv4"
  top: "conv4"
}
layer {
  name: "conv4_1"
  type: "Convolution"
  bottom: "conv4"
  top: "conv4_1"
  param {
    lr_mult: 1
    decay_mult: 1
  }
  param {
    lr_mult: 2
    decay_mult: 0
  }
  convolution_param {
    num_output: 384
    weight_filler {
      type: "msra"
      std: 0.01
    }
    bias_filler {
      type: "constant"
    }
    pad_h: 1
    pad_w: 0
    kernel_h: 3
    kernel_w: 1
  }
}
layer {
  name: "relu4_1"
  type: "ReLU"
  bottom: "conv4_1"
  top: "conv4_1"
}
layer {
  name: "conv5"
  type: "Convolution"
  bottom: "conv4_1"
  top: "conv5"
  param {
    lr_mult: 1
    decay_mult: 1
  }
  param {
    lr_mult: 2
    decay_mult: 0
  }
  convolution_param {
    num_output: 256
    weight_filler {
      type: "msra"
      std: 0.01
    }
    bias_filler {
      type: "constant"
    }
    pad_h: 0
    pad_w: 1
    kernel_h: 1
    kernel_w: 3
  }
}
layer {
  name: "relu5"
  type: "ReLU"
  bottom: "conv5"
  top: "conv5"
}
layer {
  name: "conv5_1"
  type: "Convolution"
  bottom: "conv5"
  top: "conv5_1"
  param {
    lr_mult: 1
    decay_mult: 1
  }
  param {
    lr_mult: 2
    decay_mult: 0
  }
  convolution_param {
    num_output: 256
    weight_filler {
      type: "msra"
      std: 0.01
    }
    bias_filler {
      type: "constant"
    }
    pad_h: 1
    pad_w: 0
    kernel_h: 3
    kernel_w: 1
  }
}
layer {
  name: "relu5_1"
  type: "ReLU"
  bottom: "conv5_1"
  top: "conv5_1"
}
layer {
  name: "pool5"
  type: "Pooling"
  bottom: "conv5_1"
  top: "pool5"
  pooling_param {
    pool: MAX
    kernel_size: 3
    stride: 2
  }
}
layer {
  name: "fc6"
  type: "InnerProduct"
  bottom: "pool5"
  top: "fc6"
  param {
    lr_mult: 1
    decay_mult: 1
  }
  param {
    lr_mult: 2
    decay_mult: 0
  }
  inner_product_param {
    num_output: 2048
    weight_filler {
      type: "gaussian"
      std: 0.005
    }
    bias_filler {
      type: "constant"
    }
  }
}
layer {
  name: "relu6"
  type: "ReLU"
  bottom: "fc6"
  top: "fc6"
}
layer {
  name: "drop6"
  type: "Dropout"
  bottom: "fc6"
  top: "drop6"
  dropout_param {
    dropout_ratio: 0.5
  }
}
layer {
  name: "fc7"
  type: "InnerProduct"
  bottom: "drop6"
  top: "fc7"
  param {
    lr_mult: 1
    decay_mult: 1
  }
  param {
    lr_mult: 2
    decay_mult: 0
  }
  inner_product_param {
    num_output: 2048
    weight_filler {
      type: "gaussian"
      std: 0.005
    }
    bias_filler {
      type: "constant"
    }
  }
}
layer {
  name: "relu7"
  type: "ReLU"
  bottom: "fc7"
  top: "fc7"
}
layer {
  name: "drop7"
  type: "Dropout"
  bottom: "fc7"
  top: "drop7"
  dropout_param {
    dropout_ratio: 0.5
  }
}
layer {
  name: "fc8"
  type: "InnerProduct"
  bottom: "drop7"
  top: "fc8"
  param {
    lr_mult: 1
    decay_mult: 1
  }
  param {
    lr_mult: 2
    decay_mult: 0
  }
  inner_product_param {
    num_output: 1000
    weight_filler {
      type: "gaussian"
      std: 0.01
    }
    bias_filler {
      type: "constant"
    }
  }
}
layer {
  name: "loss"
  type: "SoftmaxWithLoss"
  bottom: "fc8"
  bottom: "label"
  top: "loss"
}
I0115 03:29:49.402395  2384 layer_factory.hpp:76] Creating layer data
I0115 03:29:49.402916  2384 net.cpp:106] Creating Layer data
I0115 03:29:49.402938  2384 net.cpp:411] data -> data
I0115 03:29:49.402962  2384 net.cpp:411] data -> label
I0115 03:29:49.403709  2389 db_lmdb.cpp:38] Opened lmdb /media/dereyly/data_one/data/CAFFE_DATA/ilsvrc12_train_lmdb_144
I0115 03:29:49.413548  2384 data_layer.cpp:41] output data size: 256,3,128,128
I0115 03:29:49.470192  2384 net.cpp:150] Setting up data
I0115 03:29:49.470232  2384 net.cpp:157] Top shape: 256 3 128 128 (12582912)
I0115 03:29:49.470237  2384 net.cpp:157] Top shape: 256 (256)
I0115 03:29:49.470240  2384 net.cpp:165] Memory required for data: 50332672
I0115 03:29:49.470252  2384 layer_factory.hpp:76] Creating layer conv1
I0115 03:29:49.470273  2384 net.cpp:106] Creating Layer conv1
I0115 03:29:49.470281  2384 net.cpp:454] conv1 <- data
I0115 03:29:49.470304  2384 net.cpp:411] conv1 -> conv1
I0115 03:29:49.564656  2384 net.cpp:150] Setting up conv1
I0115 03:29:49.564681  2384 net.cpp:157] Top shape: 256 96 30 30 (22118400)
I0115 03:29:49.564684  2384 net.cpp:165] Memory required for data: 138806272
I0115 03:29:49.564703  2384 layer_factory.hpp:76] Creating layer relu1
I0115 03:29:49.564715  2384 net.cpp:106] Creating Layer relu1
I0115 03:29:49.564719  2384 net.cpp:454] relu1 <- conv1
I0115 03:29:49.564724  2384 net.cpp:397] relu1 -> conv1 (in-place)
I0115 03:29:49.564949  2384 net.cpp:150] Setting up relu1
I0115 03:29:49.564959  2384 net.cpp:157] Top shape: 256 96 30 30 (22118400)
I0115 03:29:49.564961  2384 net.cpp:165] Memory required for data: 227279872
I0115 03:29:49.564975  2384 layer_factory.hpp:76] Creating layer pool1
I0115 03:29:49.564981  2384 net.cpp:106] Creating Layer pool1
I0115 03:29:49.564985  2384 net.cpp:454] pool1 <- conv1
I0115 03:29:49.564990  2384 net.cpp:411] pool1 -> pool1
I0115 03:29:49.565245  2384 net.cpp:150] Setting up pool1
I0115 03:29:49.565254  2384 net.cpp:157] Top shape: 256 96 15 15 (5529600)
I0115 03:29:49.565258  2384 net.cpp:165] Memory required for data: 249398272
I0115 03:29:49.565273  2384 layer_factory.hpp:76] Creating layer conv2
I0115 03:29:49.565282  2384 net.cpp:106] Creating Layer conv2
I0115 03:29:49.565286  2384 net.cpp:454] conv2 <- pool1
I0115 03:29:49.565291  2384 net.cpp:411] conv2 -> conv2
I0115 03:29:49.569129  2384 net.cpp:150] Setting up conv2
I0115 03:29:49.569146  2384 net.cpp:157] Top shape: 256 256 15 15 (14745600)
I0115 03:29:49.569150  2384 net.cpp:165] Memory required for data: 308380672
I0115 03:29:49.569171  2384 layer_factory.hpp:76] Creating layer relu2
I0115 03:29:49.569180  2384 net.cpp:106] Creating Layer relu2
I0115 03:29:49.569188  2384 net.cpp:454] relu2 <- conv2
I0115 03:29:49.569195  2384 net.cpp:397] relu2 -> conv2 (in-place)
I0115 03:29:49.569427  2384 net.cpp:150] Setting up relu2
I0115 03:29:49.569435  2384 net.cpp:157] Top shape: 256 256 15 15 (14745600)
I0115 03:29:49.569438  2384 net.cpp:165] Memory required for data: 367363072
I0115 03:29:49.569453  2384 layer_factory.hpp:76] Creating layer conv2_1
I0115 03:29:49.569463  2384 net.cpp:106] Creating Layer conv2_1
I0115 03:29:49.569468  2384 net.cpp:454] conv2_1 <- conv2
I0115 03:29:49.569473  2384 net.cpp:411] conv2_1 -> conv2_1
I0115 03:29:49.581975  2384 net.cpp:150] Setting up conv2_1
I0115 03:29:49.582008  2384 net.cpp:157] Top shape: 256 256 15 15 (14745600)
I0115 03:29:49.582012  2384 net.cpp:165] Memory required for data: 426345472
I0115 03:29:49.582025  2384 layer_factory.hpp:76] Creating layer relu2_1
I0115 03:29:49.582034  2384 net.cpp:106] Creating Layer relu2_1
I0115 03:29:49.582038  2384 net.cpp:454] relu2_1 <- conv2_1
I0115 03:29:49.582043  2384 net.cpp:397] relu2_1 -> conv2_1 (in-place)
I0115 03:29:49.582175  2384 net.cpp:150] Setting up relu2_1
I0115 03:29:49.582182  2384 net.cpp:157] Top shape: 256 256 15 15 (14745600)
I0115 03:29:49.582197  2384 net.cpp:165] Memory required for data: 485327872
I0115 03:29:49.582201  2384 layer_factory.hpp:76] Creating layer pool2
I0115 03:29:49.582209  2384 net.cpp:106] Creating Layer pool2
I0115 03:29:49.582212  2384 net.cpp:454] pool2 <- conv2_1
I0115 03:29:49.582217  2384 net.cpp:411] pool2 -> pool2
I0115 03:29:49.582479  2384 net.cpp:150] Setting up pool2
I0115 03:29:49.582489  2384 net.cpp:157] Top shape: 256 256 7 7 (3211264)
I0115 03:29:49.582504  2384 net.cpp:165] Memory required for data: 498172928
I0115 03:29:49.582506  2384 layer_factory.hpp:76] Creating layer conv3
I0115 03:29:49.582525  2384 net.cpp:106] Creating Layer conv3
I0115 03:29:49.582530  2384 net.cpp:454] conv3 <- pool2
I0115 03:29:49.582535  2384 net.cpp:411] conv3 -> conv3
I0115 03:29:49.590615  2384 net.cpp:150] Setting up conv3
I0115 03:29:49.590661  2384 net.cpp:157] Top shape: 256 384 7 7 (4816896)
I0115 03:29:49.590664  2384 net.cpp:165] Memory required for data: 517440512
I0115 03:29:49.590672  2384 layer_factory.hpp:76] Creating layer relu3
I0115 03:29:49.590693  2384 net.cpp:106] Creating Layer relu3
I0115 03:29:49.590724  2384 net.cpp:454] relu3 <- conv3
I0115 03:29:49.590731  2384 net.cpp:397] relu3 -> conv3 (in-place)
I0115 03:29:49.590864  2384 net.cpp:150] Setting up relu3
I0115 03:29:49.590873  2384 net.cpp:157] Top shape: 256 384 7 7 (4816896)
I0115 03:29:49.590886  2384 net.cpp:165] Memory required for data: 536708096
I0115 03:29:49.590890  2384 layer_factory.hpp:76] Creating layer conv3_1
I0115 03:29:49.590900  2384 net.cpp:106] Creating Layer conv3_1
I0115 03:29:49.590903  2384 net.cpp:454] conv3_1 <- conv3
I0115 03:29:49.590909  2384 net.cpp:411] conv3_1 -> conv3_1
I0115 03:29:49.602758  2384 net.cpp:150] Setting up conv3_1
I0115 03:29:49.602790  2384 net.cpp:157] Top shape: 256 384 7 7 (4816896)
I0115 03:29:49.602804  2384 net.cpp:165] Memory required for data: 555975680
I0115 03:29:49.602818  2384 layer_factory.hpp:76] Creating layer relu3_1
I0115 03:29:49.602838  2384 net.cpp:106] Creating Layer relu3_1
I0115 03:29:49.602843  2384 net.cpp:454] relu3_1 <- conv3_1
I0115 03:29:49.602849  2384 net.cpp:397] relu3_1 -> conv3_1 (in-place)
I0115 03:29:49.603019  2384 net.cpp:150] Setting up relu3_1
I0115 03:29:49.603026  2384 net.cpp:157] Top shape: 256 384 7 7 (4816896)
I0115 03:29:49.603040  2384 net.cpp:165] Memory required for data: 575243264
I0115 03:29:49.603044  2384 layer_factory.hpp:76] Creating layer conv4
I0115 03:29:49.603063  2384 net.cpp:106] Creating Layer conv4
I0115 03:29:49.603066  2384 net.cpp:454] conv4 <- conv3_1
I0115 03:29:49.603071  2384 net.cpp:411] conv4 -> conv4
I0115 03:29:49.614711  2384 net.cpp:150] Setting up conv4
I0115 03:29:49.614753  2384 net.cpp:157] Top shape: 256 384 7 7 (4816896)
I0115 03:29:49.614756  2384 net.cpp:165] Memory required for data: 594510848
I0115 03:29:49.614765  2384 layer_factory.hpp:76] Creating layer relu4
I0115 03:29:49.614784  2384 net.cpp:106] Creating Layer relu4
I0115 03:29:49.614789  2384 net.cpp:454] relu4 <- conv4
I0115 03:29:49.614794  2384 net.cpp:397] relu4 -> conv4 (in-place)
I0115 03:29:49.615033  2384 net.cpp:150] Setting up relu4
I0115 03:29:49.615042  2384 net.cpp:157] Top shape: 256 384 7 7 (4816896)
I0115 03:29:49.615056  2384 net.cpp:165] Memory required for data: 613778432
I0115 03:29:49.615061  2384 layer_factory.hpp:76] Creating layer conv4_1
I0115 03:29:49.615080  2384 net.cpp:106] Creating Layer conv4_1
I0115 03:29:49.615083  2384 net.cpp:454] conv4_1 <- conv4
I0115 03:29:49.615088  2384 net.cpp:411] conv4_1 -> conv4_1
I0115 03:29:49.626556  2384 net.cpp:150] Setting up conv4_1
I0115 03:29:49.626586  2384 net.cpp:157] Top shape: 256 384 7 7 (4816896)
I0115 03:29:49.626591  2384 net.cpp:165] Memory required for data: 633046016
I0115 03:29:49.626600  2384 layer_factory.hpp:76] Creating layer relu4_1
I0115 03:29:49.626626  2384 net.cpp:106] Creating Layer relu4_1
I0115 03:29:49.626629  2384 net.cpp:454] relu4_1 <- conv4_1
I0115 03:29:49.626636  2384 net.cpp:397] relu4_1 -> conv4_1 (in-place)
I0115 03:29:49.626853  2384 net.cpp:150] Setting up relu4_1
I0115 03:29:49.626874  2384 net.cpp:157] Top shape: 256 384 7 7 (4816896)
I0115 03:29:49.626878  2384 net.cpp:165] Memory required for data: 652313600
I0115 03:29:49.626881  2384 layer_factory.hpp:76] Creating layer conv5
I0115 03:29:49.626899  2384 net.cpp:106] Creating Layer conv5
I0115 03:29:49.626904  2384 net.cpp:454] conv5 <- conv4_1
I0115 03:29:49.626909  2384 net.cpp:411] conv5 -> conv5
I0115 03:29:49.633968  2384 net.cpp:150] Setting up conv5
I0115 03:29:49.633990  2384 net.cpp:157] Top shape: 256 256 7 7 (3211264)
I0115 03:29:49.633993  2384 net.cpp:165] Memory required for data: 665158656
I0115 03:29:49.633999  2384 layer_factory.hpp:76] Creating layer relu5
I0115 03:29:49.634016  2384 net.cpp:106] Creating Layer relu5
I0115 03:29:49.634019  2384 net.cpp:454] relu5 <- conv5
I0115 03:29:49.634024  2384 net.cpp:397] relu5 -> conv5 (in-place)
I0115 03:29:49.634161  2384 net.cpp:150] Setting up relu5
I0115 03:29:49.634179  2384 net.cpp:157] Top shape: 256 256 7 7 (3211264)
I0115 03:29:49.634183  2384 net.cpp:165] Memory required for data: 678003712
I0115 03:29:49.634207  2384 layer_factory.hpp:76] Creating layer conv5_1
I0115 03:29:49.634213  2384 net.cpp:106] Creating Layer conv5_1
I0115 03:29:49.634217  2384 net.cpp:454] conv5_1 <- conv5
I0115 03:29:49.634223  2384 net.cpp:411] conv5_1 -> conv5_1
I0115 03:29:49.639097  2384 net.cpp:150] Setting up conv5_1
I0115 03:29:49.639119  2384 net.cpp:157] Top shape: 256 256 7 7 (3211264)
I0115 03:29:49.639123  2384 net.cpp:165] Memory required for data: 690848768
I0115 03:29:49.639132  2384 layer_factory.hpp:76] Creating layer relu5_1
I0115 03:29:49.639148  2384 net.cpp:106] Creating Layer relu5_1
I0115 03:29:49.639152  2384 net.cpp:454] relu5_1 <- conv5_1
I0115 03:29:49.639158  2384 net.cpp:397] relu5_1 -> conv5_1 (in-place)
I0115 03:29:49.639374  2384 net.cpp:150] Setting up relu5_1
I0115 03:29:49.639382  2384 net.cpp:157] Top shape: 256 256 7 7 (3211264)
I0115 03:29:49.639396  2384 net.cpp:165] Memory required for data: 703693824
I0115 03:29:49.639400  2384 layer_factory.hpp:76] Creating layer pool5
I0115 03:29:49.639405  2384 net.cpp:106] Creating Layer pool5
I0115 03:29:49.639420  2384 net.cpp:454] pool5 <- conv5_1
I0115 03:29:49.639426  2384 net.cpp:411] pool5 -> pool5
I0115 03:29:49.639585  2384 net.cpp:150] Setting up pool5
I0115 03:29:49.639593  2384 net.cpp:157] Top shape: 256 256 3 3 (589824)
I0115 03:29:49.639607  2384 net.cpp:165] Memory required for data: 706053120
I0115 03:29:49.639611  2384 layer_factory.hpp:76] Creating layer fc6
I0115 03:29:49.639631  2384 net.cpp:106] Creating Layer fc6
I0115 03:29:49.639633  2384 net.cpp:454] fc6 <- pool5
I0115 03:29:49.639638  2384 net.cpp:411] fc6 -> fc6
I0115 03:29:49.739477  2384 net.cpp:150] Setting up fc6
I0115 03:29:49.739503  2384 net.cpp:157] Top shape: 256 2048 (524288)
I0115 03:29:49.739507  2384 net.cpp:165] Memory required for data: 708150272
I0115 03:29:49.739516  2384 layer_factory.hpp:76] Creating layer relu6
I0115 03:29:49.739526  2384 net.cpp:106] Creating Layer relu6
I0115 03:29:49.739540  2384 net.cpp:454] relu6 <- fc6
I0115 03:29:49.739545  2384 net.cpp:397] relu6 -> fc6 (in-place)
I0115 03:29:49.739809  2384 net.cpp:150] Setting up relu6
I0115 03:29:49.739817  2384 net.cpp:157] Top shape: 256 2048 (524288)
I0115 03:29:49.739820  2384 net.cpp:165] Memory required for data: 710247424
I0115 03:29:49.739823  2384 layer_factory.hpp:76] Creating layer drop6
I0115 03:29:49.739833  2384 net.cpp:106] Creating Layer drop6
I0115 03:29:49.739836  2384 net.cpp:454] drop6 <- fc6
I0115 03:29:49.739851  2384 net.cpp:411] drop6 -> drop6
I0115 03:29:49.739884  2384 net.cpp:150] Setting up drop6
I0115 03:29:49.739905  2384 net.cpp:157] Top shape: 256 2048 (524288)
I0115 03:29:49.739908  2384 net.cpp:165] Memory required for data: 712344576
I0115 03:29:49.739912  2384 layer_factory.hpp:76] Creating layer fc7
I0115 03:29:49.739917  2384 net.cpp:106] Creating Layer fc7
I0115 03:29:49.739920  2384 net.cpp:454] fc7 <- drop6
I0115 03:29:49.739927  2384 net.cpp:411] fc7 -> fc7
I0115 03:29:49.828794  2384 net.cpp:150] Setting up fc7
I0115 03:29:49.828817  2384 net.cpp:157] Top shape: 256 2048 (524288)
I0115 03:29:49.828821  2384 net.cpp:165] Memory required for data: 714441728
I0115 03:29:49.828830  2384 layer_factory.hpp:76] Creating layer relu7
I0115 03:29:49.828840  2384 net.cpp:106] Creating Layer relu7
I0115 03:29:49.828855  2384 net.cpp:454] relu7 <- fc7
I0115 03:29:49.828860  2384 net.cpp:397] relu7 -> fc7 (in-place)
I0115 03:29:49.829042  2384 net.cpp:150] Setting up relu7
I0115 03:29:49.829051  2384 net.cpp:157] Top shape: 256 2048 (524288)
I0115 03:29:49.829053  2384 net.cpp:165] Memory required for data: 716538880
I0115 03:29:49.829056  2384 layer_factory.hpp:76] Creating layer drop7
I0115 03:29:49.829063  2384 net.cpp:106] Creating Layer drop7
I0115 03:29:49.829066  2384 net.cpp:454] drop7 <- fc7
I0115 03:29:49.829071  2384 net.cpp:411] drop7 -> drop7
I0115 03:29:49.829109  2384 net.cpp:150] Setting up drop7
I0115 03:29:49.829114  2384 net.cpp:157] Top shape: 256 2048 (524288)
I0115 03:29:49.829118  2384 net.cpp:165] Memory required for data: 718636032
I0115 03:29:49.829133  2384 layer_factory.hpp:76] Creating layer fc8
I0115 03:29:49.829143  2384 net.cpp:106] Creating Layer fc8
I0115 03:29:49.829145  2384 net.cpp:454] fc8 <- drop7
I0115 03:29:49.829151  2384 net.cpp:411] fc8 -> fc8
I0115 03:29:49.872494  2384 net.cpp:150] Setting up fc8
I0115 03:29:49.872516  2384 net.cpp:157] Top shape: 256 1000 (256000)
I0115 03:29:49.872520  2384 net.cpp:165] Memory required for data: 719660032
I0115 03:29:49.872529  2384 layer_factory.hpp:76] Creating layer loss
I0115 03:29:49.872539  2384 net.cpp:106] Creating Layer loss
I0115 03:29:49.872555  2384 net.cpp:454] loss <- fc8
I0115 03:29:49.872560  2384 net.cpp:454] loss <- label
I0115 03:29:49.872565  2384 net.cpp:411] loss -> loss
I0115 03:29:49.872581  2384 layer_factory.hpp:76] Creating layer loss
…
I0115 03:29:49.874163  2384 net.cpp:322] The NetState phase (1) differed from the phase (0) specified by a rule in layer data
I0115 03:29:49.874435  2384 net.cpp:49] Initializing net from parameters: 
name: "CaffeNet"
state {
  phase: TEST
}
layer {
  name: "data"
  type: "Data"
  top: "data"
  top: "label"
  include {
    phase: TEST
  }
  transform_param {
    mirror: false
    crop_size: 128
    mean_value: 104
    mean_value: 117
    mean_value: 124
  }
  data_param {
    source: "/media/dereyly/data_one/data/CAFFE_DATA/ilsvrc12_val_lmdb_144"
    batch_size: 100
    backend: LMDB
  }
}
layer {
  name: "conv1"
  type: "Convolution"
  bottom: "data"
  top: "conv1"
  param {
    lr_mult: 1
    decay_mult: 1
  }
  param {
    lr_mult: 2
    decay_mult: 0
  }
  convolution_param {
    num_output: 96
    kernel_size: 11
    stride: 4
    weight_filler {
      type: "msra"
      std: 0.01
    }
    bias_filler {
      type: "constant"
    }
  }
}
layer {
  name: "relu1"
  type: "ReLU"
  bottom: "conv1"
  top: "conv1"
}
layer {
  name: "pool1"
  type: "Pooling"
  bottom: "conv1"
  top: "pool1"
  pooling_param {
    pool: MAX
    kernel_size: 3
    stride: 2
  }
}
layer {
  name: "conv2"
  type: "Convolution"
  bottom: "pool1"
  top: "conv2"
  param {
    lr_mult: 1
    decay_mult: 1
  }
  param {
    lr_mult: 2
    decay_mult: 0
  }
  convolution_param {
    num_output: 256
    weight_filler {
      type: "msra"
      std: 0.01
    }
    bias_filler {
      type: "constant"
    }
    pad_h: 0
    pad_w: 2
    kernel_h: 1
    kernel_w: 5
  }
}
layer {
  name: "relu2"
  type: "ReLU"
  bottom: "conv2"
  top: "conv2"
}
layer {
  name: "conv2_1"
  type: "Convolution"
  bottom: "conv2"
  top: "conv2_1"
  param {
    lr_mult: 1
    decay_mult: 1
  }
  param {
    lr_mult: 2
    decay_mult: 0
  }
  convolution_param {
    num_output: 256
    weight_filler {
      type: "msra"
      std: 0.01
    }
    bias_filler {
      type: "constant"
    }
    pad_h: 2
    pad_w: 0
    kernel_h: 5
    kernel_w: 1
  }
}
layer {
  name: "relu2_1"
  type: "ReLU"
  bottom: "conv2_1"
  top: "conv2_1"
}
layer {
  name: "pool2"
  type: "Pooling"
  bottom: "conv2_1"
  top: "pool2"
  pooling_param {
    pool: MAX
    kernel_size: 3
    stride: 2
  }
}
layer {
  name: "conv3"
  type: "Convolution"
  bottom: "pool2"
  top: "conv3"
  param {
    lr_mult: 1
    decay_mult: 1
  }
  param {
    lr_mult: 2
    decay_mult: 0
  }
  convolution_param {
    num_output: 384
    weight_filler {
      type: "msra"
      std: 0.01
    }
    bias_filler {
      type: "constant"
    }
    pad_h: 0
    pad_w: 1
    kernel_h: 1
    kernel_w: 3
  }
}
layer {
  name: "relu3"
  type: "ReLU"
  bottom: "conv3"
  top: "conv3"
}
layer {
  name: "conv3_1"
  type: "Convolution"
  bottom: "conv3"
  top: "conv3_1"
  param {
    lr_mult: 1
    decay_mult: 1
  }
  param {
    lr_mult: 2
    decay_mult: 0
  }
  convolution_param {
    num_output: 384
    weight_filler {
      type: "msra"
      std: 0.01
    }
    bias_filler {
      type: "constant"
    }
    pad_h: 1
    pad_w: 0
    kernel_h: 3
    kernel_w: 1
  }
}
layer {
  name: "relu3_1"
  type: "ReLU"
  bottom: "conv3_1"
  top: "conv3_1"
}
layer {
  name: "conv4"
  type: "Convolution"
  bottom: "conv3_1"
  top: "conv4"
  param {
    lr_mult: 1
    decay_mult: 1
  }
  param {
    lr_mult: 2
    decay_mult: 0
  }
  convolution_param {
    num_output: 384
    weight_filler {
      type: "msra"
      std: 0.01
    }
    bias_filler {
      type: "constant"
    }
    pad_h: 0
    pad_w: 1
    kernel_h: 1
    kernel_w: 3
  }
}
layer {
  name: "relu4"
  type: "ReLU"
  bottom: "conv4"
  top: "conv4"
}
layer {
  name: "conv4_1"
  type: "Convolution"
  bottom: "conv4"
  top: "conv4_1"
  param {
    lr_mult: 1
    decay_mult: 1
  }
  param {
    lr_mult: 2
    decay_mult: 0
  }
  convolution_param {
    num_output: 384
    weight_filler {
      type: "msra"
      std: 0.01
    }
    bias_filler {
      type: "constant"
    }
    pad_h: 1
    pad_w: 0
    kernel_h: 3
    kernel_w: 1
  }
}
layer {
  name: "relu4_1"
  type: "ReLU"
  bottom: "conv4_1"
  top: "conv4_1"
}
layer {
  name: "conv5"
  type: "Convolution"
  bottom: "conv4_1"
  top: "conv5"
  param {
    lr_mult: 1
    decay_mult: 1
  }
  param {
    lr_mult: 2
    decay_mult: 0
  }
  convolution_param {
    num_output: 256
    weight_filler {
      type: "msra"
      std: 0.01
    }
    bias_filler {
      type: "constant"
    }
    pad_h: 0
    pad_w: 1
    kernel_h: 1
    kernel_w: 3
  }
}
layer {
  name: "relu5"
  type: "ReLU"
  bottom: "conv5"
  top: "conv5"
}
layer {
  name: "conv5_1"
  type: "Convolution"
  bottom: "conv5"
  top: "conv5_1"
  param {
    lr_mult: 1
    decay_mult: 1
  }
  param {
    lr_mult: 2
    decay_mult: 0
  }
  convolution_param {
    num_output: 256
    weight_filler {
      type: "msra"
      std: 0.01
    }
    bias_filler {
      type: "constant"
    }
    pad_h: 1
    pad_w: 0
    kernel_h: 3
    kernel_w: 1
  }
}
layer {
  name: "relu5_1"
  type: "ReLU"
  bottom: "conv5_1"
  top: "conv5_1"
}
layer {
  name: "pool5"
  type: "Pooling"
  bottom: "conv5_1"
  top: "pool5"
  pooling_param {
    pool: MAX
    kernel_size: 3
    stride: 2
  }
}
layer {
  name: "fc6"
  type: "InnerProduct"
  bottom: "pool5"
  top: "fc6"
  param {
    lr_mult: 1
    decay_mult: 1
  }
  param {
    lr_mult: 2
    decay_mult: 0
  }
  inner_product_param {
    num_output: 2048
    weight_filler {
      type: "gaussian"
      std: 0.005
    }
    bias_filler {
      type: "constant"
    }
  }
}
layer {
  name: "relu6"
  type: "ReLU"
  bottom: "fc6"
  top: "fc6"
}
layer {
  name: "drop6"
  type: "Dropout"
  bottom: "fc6"
  top: "drop6"
  dropout_param {
    dropout_ratio: 0.5
  }
}
layer {
  name: "fc7"
  type: "InnerProduct"
  bottom: "drop6"
  top: "fc7"
  param {
    lr_mult: 1
    decay_mult: 1
  }
  param {
    lr_mult: 2
    decay_mult: 0
  }
  inner_product_param {
    num_output: 2048
    weight_filler {
      type: "gaussian"
      std: 0.005
    }
    bias_filler {
      type: "constant"
    }
  }
}
layer {
  name: "relu7"
  type: "ReLU"
  bottom: "fc7"
  top: "fc7"
}
layer {
  name: "drop7"
  type: "Dropout"
  bottom: "fc7"
  top: "drop7"
  dropout_param {
    dropout_ratio: 0.5
  }
}
layer {
  name: "fc8"
  type: "InnerProduct"
  bottom: "drop7"
  top: "fc8"
  param {
    lr_mult: 1
    decay_mult: 1
  }
  param {
    lr_mult: 2
    decay_mult: 0
  }
  inner_product_param {
    num_output: 1000
    weight_filler {
      type: "gaussian"
      std: 0.01
    }
    bias_filler {
      type: "constant"
    }
  }
}
layer {
  name: "accuracy"
  type: "Accuracy"
  bottom: "fc8"
  bottom: "label"
  top: "accuracy"
  include {
    phase: TEST
  }
}
layer {
  name: "loss"
  type: "SoftmaxWithLoss"
  bottom: "fc8"
  bottom: "label"
  top: "loss"
}
I0115 03:29:49.874572  2384 layer_factory.hpp:76] Creating layer data
I0115 03:29:49.874672  2384 net.cpp:106] Creating Layer data
I0115 03:29:49.874680  2384 net.cpp:411] data -> data
I0115 03:29:49.874687  2384 net.cpp:411] data -> label
I0115 03:29:49.875644  2392 db_lmdb.cpp:38] Opened lmdb /media/dereyly/data_one/data/CAFFE_DATA/ilsvrc12_val_lmdb_144
I0115 03:29:49.875802  2384 data_layer.cpp:41] output data size: 100,3,128,128
I0115 03:29:49.898396  2384 net.cpp:150] Setting up data
I0115 03:29:49.898421  2384 net.cpp:157] Top shape: 100 3 128 128 (4915200)
I0115 03:29:49.898425  2384 net.cpp:157] Top shape: 100 (100)
I0115 03:29:49.898428  2384 net.cpp:165] Memory required for data: 19661200
I0115 03:29:49.898434  2384 layer_factory.hpp:76] Creating layer label_data_1_split
I0115 03:29:49.898464  2384 net.cpp:106] Creating Layer label_data_1_split
I0115 03:29:49.898469  2384 net.cpp:454] label_data_1_split <- label
I0115 03:29:49.898488  2384 net.cpp:411] label_data_1_split -> label_data_1_split_0
I0115 03:29:49.898499  2384 net.cpp:411] label_data_1_split -> label_data_1_split_1
I0115 03:29:49.898573  2384 net.cpp:150] Setting up label_data_1_split
I0115 03:29:49.898579  2384 net.cpp:157] Top shape: 100 (100)
I0115 03:29:49.898583  2384 net.cpp:157] Top shape: 100 (100)
I0115 03:29:49.898586  2384 net.cpp:165] Memory required for data: 19662000
I0115 03:29:49.898589  2384 layer_factory.hpp:76] Creating layer conv1
I0115 03:29:49.898600  2384 net.cpp:106] Creating Layer conv1
I0115 03:29:49.898603  2384 net.cpp:454] conv1 <- data
I0115 03:29:49.898609  2384 net.cpp:411] conv1 -> conv1
I0115 03:29:49.901511  2384 net.cpp:150] Setting up conv1
I0115 03:29:49.901530  2384 net.cpp:157] Top shape: 100 96 30 30 (8640000)
I0115 03:29:49.901533  2384 net.cpp:165] Memory required for data: 54222000
I0115 03:29:49.901545  2384 layer_factory.hpp:76] Creating layer relu1
I0115 03:29:49.901571  2384 net.cpp:106] Creating Layer relu1
I0115 03:29:49.901576  2384 net.cpp:454] relu1 <- conv1
I0115 03:29:49.901581  2384 net.cpp:397] relu1 -> conv1 (in-place)
I0115 03:29:49.901718  2384 net.cpp:150] Setting up relu1
I0115 03:29:49.901726  2384 net.cpp:157] Top shape: 100 96 30 30 (8640000)
I0115 03:29:49.901739  2384 net.cpp:165] Memory required for data: 88782000
I0115 03:29:49.901742  2384 layer_factory.hpp:76] Creating layer pool1
I0115 03:29:49.901749  2384 net.cpp:106] Creating Layer pool1
I0115 03:29:49.901752  2384 net.cpp:454] pool1 <- conv1
I0115 03:29:49.901758  2384 net.cpp:411] pool1 -> pool1
I0115 03:29:49.902019  2384 net.cpp:150] Setting up pool1
I0115 03:29:49.902029  2384 net.cpp:157] Top shape: 100 96 15 15 (2160000)
I0115 03:29:49.902042  2384 net.cpp:165] Memory required for data: 97422000
I0115 03:29:49.902046  2384 layer_factory.hpp:76] Creating layer conv2
I0115 03:29:49.902055  2384 net.cpp:106] Creating Layer conv2
I0115 03:29:49.902058  2384 net.cpp:454] conv2 <- pool1
I0115 03:29:49.902065  2384 net.cpp:411] conv2 -> conv2
I0115 03:29:49.905840  2384 net.cpp:150] Setting up conv2
I0115 03:29:49.905864  2384 net.cpp:157] Top shape: 100 256 15 15 (5760000)
I0115 03:29:49.905869  2384 net.cpp:165] Memory required for data: 120462000
I0115 03:29:49.905879  2384 layer_factory.hpp:76] Creating layer relu2
I0115 03:29:49.905885  2384 net.cpp:106] Creating Layer relu2
I0115 03:29:49.905889  2384 net.cpp:454] relu2 <- conv2
I0115 03:29:49.905895  2384 net.cpp:397] relu2 -> conv2 (in-place)
I0115 03:29:49.906049  2384 net.cpp:150] Setting up relu2
I0115 03:29:49.906055  2384 net.cpp:157] Top shape: 100 256 15 15 (5760000)
I0115 03:29:49.906069  2384 net.cpp:165] Memory required for data: 143502000
I0115 03:29:49.906072  2384 layer_factory.hpp:76] Creating layer conv2_1
I0115 03:29:49.906080  2384 net.cpp:106] Creating Layer conv2_1
I0115 03:29:49.906085  2384 net.cpp:454] conv2_1 <- conv2
I0115 03:29:49.906090  2384 net.cpp:411] conv2_1 -> conv2_1
I0115 03:29:49.915400  2384 net.cpp:150] Setting up conv2_1
I0115 03:29:49.915431  2384 net.cpp:157] Top shape: 100 256 15 15 (5760000)
I0115 03:29:49.915436  2384 net.cpp:165] Memory required for data: 166542000
I0115 03:29:49.915448  2384 layer_factory.hpp:76] Creating layer relu2_1
I0115 03:29:49.915457  2384 net.cpp:106] Creating Layer relu2_1
I0115 03:29:49.915462  2384 net.cpp:454] relu2_1 <- conv2_1
I0115 03:29:49.915469  2384 net.cpp:397] relu2_1 -> conv2_1 (in-place)
I0115 03:29:49.915613  2384 net.cpp:150] Setting up relu2_1
I0115 03:29:49.915621  2384 net.cpp:157] Top shape: 100 256 15 15 (5760000)
I0115 03:29:49.915624  2384 net.cpp:165] Memory required for data: 189582000
I0115 03:29:49.915627  2384 layer_factory.hpp:76] Creating layer pool2
I0115 03:29:49.915635  2384 net.cpp:106] Creating Layer pool2
I0115 03:29:49.915638  2384 net.cpp:454] pool2 <- conv2_1
I0115 03:29:49.915643  2384 net.cpp:411] pool2 -> pool2
I0115 03:29:49.915904  2384 net.cpp:150] Setting up pool2
I0115 03:29:49.915915  2384 net.cpp:157] Top shape: 100 256 7 7 (1254400)
I0115 03:29:49.915928  2384 net.cpp:165] Memory required for data: 194599600
I0115 03:29:49.915931  2384 layer_factory.hpp:76] Creating layer conv3
I0115 03:29:49.915940  2384 net.cpp:106] Creating Layer conv3
I0115 03:29:49.915943  2384 net.cpp:454] conv3 <- pool2
I0115 03:29:49.915951  2384 net.cpp:411] conv3 -> conv3
I0115 03:29:49.924289  2384 net.cpp:150] Setting up conv3
I0115 03:29:49.924319  2384 net.cpp:157] Top shape: 100 384 7 7 (1881600)
I0115 03:29:49.924322  2384 net.cpp:165] Memory required for data: 202126000
I0115 03:29:49.924330  2384 layer_factory.hpp:76] Creating layer relu3
I0115 03:29:49.924350  2384 net.cpp:106] Creating Layer relu3
I0115 03:29:49.924355  2384 net.cpp:454] relu3 <- conv3
I0115 03:29:49.924361  2384 net.cpp:397] relu3 -> conv3 (in-place)
I0115 03:29:49.924618  2384 net.cpp:150] Setting up relu3
I0115 03:29:49.924628  2384 net.cpp:157] Top shape: 100 384 7 7 (1881600)
I0115 03:29:49.924631  2384 net.cpp:165] Memory required for data: 209652400
I0115 03:29:49.924657  2384 layer_factory.hpp:76] Creating layer conv3_1
I0115 03:29:49.924667  2384 net.cpp:106] Creating Layer conv3_1
I0115 03:29:49.924670  2384 net.cpp:454] conv3_1 <- conv3
I0115 03:29:49.924676  2384 net.cpp:411] conv3_1 -> conv3_1
I0115 03:29:49.936386  2384 net.cpp:150] Setting up conv3_1
I0115 03:29:49.936417  2384 net.cpp:157] Top shape: 100 384 7 7 (1881600)
I0115 03:29:49.936421  2384 net.cpp:165] Memory required for data: 217178800
I0115 03:29:49.936434  2384 layer_factory.hpp:76] Creating layer relu3_1
I0115 03:29:49.936455  2384 net.cpp:106] Creating Layer relu3_1
I0115 03:29:49.936460  2384 net.cpp:454] relu3_1 <- conv3_1
I0115 03:29:49.936466  2384 net.cpp:397] relu3_1 -> conv3_1 (in-place)
I0115 03:29:49.936729  2384 net.cpp:150] Setting up relu3_1
I0115 03:29:49.936739  2384 net.cpp:157] Top shape: 100 384 7 7 (1881600)
I0115 03:29:49.936743  2384 net.cpp:165] Memory required for data: 224705200
I0115 03:29:49.936745  2384 layer_factory.hpp:76] Creating layer conv4
I0115 03:29:49.936766  2384 net.cpp:106] Creating Layer conv4
I0115 03:29:49.936769  2384 net.cpp:454] conv4 <- conv3_1
I0115 03:29:49.936776  2384 net.cpp:411] conv4 -> conv4
I0115 03:29:49.947978  2384 net.cpp:150] Setting up conv4
I0115 03:29:49.948009  2384 net.cpp:157] Top shape: 100 384 7 7 (1881600)
I0115 03:29:49.948012  2384 net.cpp:165] Memory required for data: 232231600
I0115 03:29:49.948021  2384 layer_factory.hpp:76] Creating layer relu4
I0115 03:29:49.948030  2384 net.cpp:106] Creating Layer relu4
I0115 03:29:49.948035  2384 net.cpp:454] relu4 <- conv4
I0115 03:29:49.948043  2384 net.cpp:397] relu4 -> conv4 (in-place)
I0115 03:29:49.948287  2384 net.cpp:150] Setting up relu4
I0115 03:29:49.948297  2384 net.cpp:157] Top shape: 100 384 7 7 (1881600)
I0115 03:29:49.948309  2384 net.cpp:165] Memory required for data: 239758000
I0115 03:29:49.948313  2384 layer_factory.hpp:76] Creating layer conv4_1
I0115 03:29:49.948326  2384 net.cpp:106] Creating Layer conv4_1
I0115 03:29:49.948333  2384 net.cpp:454] conv4_1 <- conv4
I0115 03:29:49.948338  2384 net.cpp:411] conv4_1 -> conv4_1
I0115 03:29:49.959388  2384 net.cpp:150] Setting up conv4_1
I0115 03:29:49.959408  2384 net.cpp:157] Top shape: 100 384 7 7 (1881600)
I0115 03:29:49.959411  2384 net.cpp:165] Memory required for data: 247284400
I0115 03:29:49.959419  2384 layer_factory.hpp:76] Creating layer relu4_1
I0115 03:29:49.959439  2384 net.cpp:106] Creating Layer relu4_1
I0115 03:29:49.959445  2384 net.cpp:454] relu4_1 <- conv4_1
I0115 03:29:49.959450  2384 net.cpp:397] relu4_1 -> conv4_1 (in-place)
I0115 03:29:49.959589  2384 net.cpp:150] Setting up relu4_1
I0115 03:29:49.959596  2384 net.cpp:157] Top shape: 100 384 7 7 (1881600)
I0115 03:29:49.959599  2384 net.cpp:165] Memory required for data: 254810800
I0115 03:29:49.959614  2384 layer_factory.hpp:76] Creating layer conv5
I0115 03:29:49.959622  2384 net.cpp:106] Creating Layer conv5
I0115 03:29:49.959628  2384 net.cpp:454] conv5 <- conv4_1
I0115 03:29:49.959635  2384 net.cpp:411] conv5 -> conv5
I0115 03:29:49.966567  2384 net.cpp:150] Setting up conv5
I0115 03:29:49.966588  2384 net.cpp:157] Top shape: 100 256 7 7 (1254400)
I0115 03:29:49.966591  2384 net.cpp:165] Memory required for data: 259828400
I0115 03:29:49.966598  2384 layer_factory.hpp:76] Creating layer relu5
I0115 03:29:49.966616  2384 net.cpp:106] Creating Layer relu5
I0115 03:29:49.966619  2384 net.cpp:454] relu5 <- conv5
I0115 03:29:49.966624  2384 net.cpp:397] relu5 -> conv5 (in-place)
I0115 03:29:49.966858  2384 net.cpp:150] Setting up relu5
I0115 03:29:49.966867  2384 net.cpp:157] Top shape: 100 256 7 7 (1254400)
I0115 03:29:49.966881  2384 net.cpp:165] Memory required for data: 264846000
I0115 03:29:49.966886  2384 layer_factory.hpp:76] Creating layer conv5_1
I0115 03:29:49.966903  2384 net.cpp:106] Creating Layer conv5_1
I0115 03:29:49.966907  2384 net.cpp:454] conv5_1 <- conv5
I0115 03:29:49.966913  2384 net.cpp:411] conv5_1 -> conv5_1
I0115 03:29:49.971772  2384 net.cpp:150] Setting up conv5_1
I0115 03:29:49.971782  2384 net.cpp:157] Top shape: 100 256 7 7 (1254400)
I0115 03:29:49.971819  2384 net.cpp:165] Memory required for data: 269863600
I0115 03:29:49.971832  2384 layer_factory.hpp:76] Creating layer relu5_1
I0115 03:29:49.971838  2384 net.cpp:106] Creating Layer relu5_1
I0115 03:29:49.971843  2384 net.cpp:454] relu5_1 <- conv5_1
I0115 03:29:49.971848  2384 net.cpp:397] relu5_1 -> conv5_1 (in-place)
I0115 03:29:49.972077  2384 net.cpp:150] Setting up relu5_1
I0115 03:29:49.972086  2384 net.cpp:157] Top shape: 100 256 7 7 (1254400)
I0115 03:29:49.972100  2384 net.cpp:165] Memory required for data: 274881200
I0115 03:29:49.972103  2384 layer_factory.hpp:76] Creating layer pool5
I0115 03:29:49.972121  2384 net.cpp:106] Creating Layer pool5
I0115 03:29:49.972126  2384 net.cpp:454] pool5 <- conv5_1
I0115 03:29:49.972131  2384 net.cpp:411] pool5 -> pool5
I0115 03:29:49.972376  2384 net.cpp:150] Setting up pool5
I0115 03:29:49.972385  2384 net.cpp:157] Top shape: 100 256 3 3 (230400)
I0115 03:29:49.972398  2384 net.cpp:165] Memory required for data: 275802800
I0115 03:29:49.972403  2384 layer_factory.hpp:76] Creating layer fc6
I0115 03:29:49.972421  2384 net.cpp:106] Creating Layer fc6
I0115 03:29:49.972424  2384 net.cpp:454] fc6 <- pool5
I0115 03:29:49.972430  2384 net.cpp:411] fc6 -> fc6
I0115 03:29:50.074410  2384 net.cpp:150] Setting up fc6
I0115 03:29:50.074435  2384 net.cpp:157] Top shape: 100 2048 (204800)
I0115 03:29:50.074439  2384 net.cpp:165] Memory required for data: 276622000
I0115 03:29:50.074447  2384 layer_factory.hpp:76] Creating layer relu6
I0115 03:29:50.074470  2384 net.cpp:106] Creating Layer relu6
I0115 03:29:50.074476  2384 net.cpp:454] relu6 <- fc6
I0115 03:29:50.074484  2384 net.cpp:397] relu6 -> fc6 (in-place)
I0115 03:29:50.074678  2384 net.cpp:150] Setting up relu6
I0115 03:29:50.074697  2384 net.cpp:157] Top shape: 100 2048 (204800)
I0115 03:29:50.074702  2384 net.cpp:165] Memory required for data: 277441200
I0115 03:29:50.074704  2384 layer_factory.hpp:76] Creating layer drop6
I0115 03:29:50.074710  2384 net.cpp:106] Creating Layer drop6
I0115 03:29:50.074725  2384 net.cpp:454] drop6 <- fc6
I0115 03:29:50.074730  2384 net.cpp:411] drop6 -> drop6
I0115 03:29:50.074780  2384 net.cpp:150] Setting up drop6
I0115 03:29:50.074795  2384 net.cpp:157] Top shape: 100 2048 (204800)
I0115 03:29:50.074798  2384 net.cpp:165] Memory required for data: 278260400
I0115 03:29:50.074801  2384 layer_factory.hpp:76] Creating layer fc7
I0115 03:29:50.074818  2384 net.cpp:106] Creating Layer fc7
I0115 03:29:50.074822  2384 net.cpp:454] fc7 <- drop6
I0115 03:29:50.074826  2384 net.cpp:411] fc7 -> fc7
I0115 03:29:50.163710  2384 net.cpp:150] Setting up fc7
I0115 03:29:50.163743  2384 net.cpp:157] Top shape: 100 2048 (204800)
I0115 03:29:50.163748  2384 net.cpp:165] Memory required for data: 279079600
I0115 03:29:50.163755  2384 layer_factory.hpp:76] Creating layer relu7
I0115 03:29:50.163776  2384 net.cpp:106] Creating Layer relu7
I0115 03:29:50.163781  2384 net.cpp:454] relu7 <- fc7
I0115 03:29:50.163786  2384 net.cpp:397] relu7 -> fc7 (in-place)
I0115 03:29:50.164106  2384 net.cpp:150] Setting up relu7
I0115 03:29:50.164116  2384 net.cpp:157] Top shape: 100 2048 (204800)
I0115 03:29:50.164129  2384 net.cpp:165] Memory required for data: 279898800
I0115 03:29:50.164134  2384 layer_factory.hpp:76] Creating layer drop7
I0115 03:29:50.164140  2384 net.cpp:106] Creating Layer drop7
I0115 03:29:50.164155  2384 net.cpp:454] drop7 <- fc7
I0115 03:29:50.164160  2384 net.cpp:411] drop7 -> drop7
I0115 03:29:50.164207  2384 net.cpp:150] Setting up drop7
I0115 03:29:50.164223  2384 net.cpp:157] Top shape: 100 2048 (204800)
I0115 03:29:50.164227  2384 net.cpp:165] Memory required for data: 280718000
I0115 03:29:50.164229  2384 layer_factory.hpp:76] Creating layer fc8
I0115 03:29:50.164245  2384 net.cpp:106] Creating Layer fc8
I0115 03:29:50.164249  2384 net.cpp:454] fc8 <- drop7
I0115 03:29:50.164254  2384 net.cpp:411] fc8 -> fc8
I0115 03:29:50.207646  2384 net.cpp:150] Setting up fc8
I0115 03:29:50.207679  2384 net.cpp:157] Top shape: 100 1000 (100000)
I0115 03:29:50.207710  2384 net.cpp:165] Memory required for data: 281118000
I0115 03:29:50.207720  2384 layer_factory.hpp:76] Creating layer fc8_fc8_0_split
I0115 03:29:50.207727  2384 net.cpp:106] Creating Layer fc8_fc8_0_split
I0115 03:29:50.207731  2384 net.cpp:454] fc8_fc8_0_split <- fc8
I0115 03:29:50.207738  2384 net.cpp:411] fc8_fc8_0_split -> fc8_fc8_0_split_0
I0115 03:29:50.207751  2384 net.cpp:411] fc8_fc8_0_split -> fc8_fc8_0_split_1
I0115 03:29:50.207808  2384 net.cpp:150] Setting up fc8_fc8_0_split
I0115 03:29:50.207813  2384 net.cpp:157] Top shape: 100 1000 (100000)
I0115 03:29:50.207828  2384 net.cpp:157] Top shape: 100 1000 (100000)
I0115 03:29:50.207830  2384 net.cpp:165] Memory required for data: 281918000
I0115 03:29:50.207834  2384 layer_factory.hpp:76] Creating layer accuracy
I0115 03:29:50.207854  2384 net.cpp:106] Creating Layer accuracy
I0115 03:29:50.207857  2384 net.cpp:454] accuracy <- fc8_fc8_0_split_0
I0115 03:29:50.207861  2384 net.cpp:454] accuracy <- label_data_1_split_0
I0115 03:29:50.207865  2384 net.cpp:411] accuracy -> accuracy
…
