…
I0114 02:49:57.183735  2859 net.cpp:322] The NetState phase (0) differed from the phase (1) specified by a rule in layer accuracy
I0114 02:49:57.184058  2859 net.cpp:49] Initializing net from parameters: 
name: "CaffeNet"
state {
  phase: TRAIN
}
layer {
  name: "data"
  type: "Data"
  top: "data"
  top: "label"
  include {
    phase: TRAIN
  }
  transform_param {
    mirror: true
    crop_size: 128
    mean_value: 104
    mean_value: 117
    mean_value: 124
  }
  data_param {
    source: "/media/dereyly/data_one/data/CAFFE_DATA/ilsvrc12_train_lmdb_144"
    batch_size: 256
    backend: LMDB
  }
}
layer {
  name: "conv1"
  type: "Convolution"
  bottom: "data"
  top: "conv1"
  param {
    lr_mult: 1
    decay_mult: 1
  }
  param {
    lr_mult: 2
    decay_mult: 0
  }
  convolution_param {
    num_output: 96
    kernel_size: 11
    stride: 4
    weight_filler {
      type: "msra"
      std: 0.01
    }
    bias_filler {
      type: "constant"
    }
  }
}
layer {
  name: "relu1"
  type: "PReLU"
  bottom: "conv1"
  top: "conv1"
  prelu_param {
    filler {
      type: "constant"
      value: 0.3
    }
    channel_shared: false
  }
}
layer {
  name: "pool1"
  type: "Pooling"
  bottom: "conv1"
  top: "pool1"
  pooling_param {
    pool: MAX
    kernel_size: 3
    stride: 2
  }
}
layer {
  name: "conv1_BN"
  type: "BatchNorm"
  bottom: "pool1"
  top: "conv1_BN"
}
layer {
  name: "conv2"
  type: "Convolution"
  bottom: "conv1_BN"
  top: "conv2"
  param {
    lr_mult: 1
    decay_mult: 1
  }
  param {
    lr_mult: 2
    decay_mult: 0
  }
  convolution_param {
    num_output: 256
    weight_filler {
      type: "msra"
      std: 0.01
    }
    bias_filler {
      type: "constant"
    }
    pad_h: 0
    pad_w: 1
    kernel_h: 1
    kernel_w: 3
  }
}
layer {
  name: "relu2"
  type: "PReLU"
  bottom: "conv2"
  top: "conv2"
  prelu_param {
    filler {
      type: "constant"
      value: 0.3
    }
    channel_shared: false
  }
}
layer {
  name: "conv2_1"
  type: "Convolution"
  bottom: "conv2"
  top: "conv2_1"
  param {
    lr_mult: 1
    decay_mult: 1
  }
  param {
    lr_mult: 2
    decay_mult: 0
  }
  convolution_param {
    num_output: 256
    weight_filler {
      type: "msra"
      std: 0.01
    }
    bias_filler {
      type: "constant"
    }
    pad_h: 1
    pad_w: 0
    kernel_h: 3
    kernel_w: 1
  }
}
layer {
  name: "relu2_1"
  type: "PReLU"
  bottom: "conv2_1"
  top: "conv2_1"
  prelu_param {
    filler {
      type: "constant"
      value: 0.3
    }
    channel_shared: false
  }
}
layer {
  name: "conv2_2"
  type: "Convolution"
  bottom: "conv2_1"
  top: "conv2_2"
  param {
    lr_mult: 1
    decay_mult: 1
  }
  param {
    lr_mult: 2
    decay_mult: 0
  }
  convolution_param {
    num_output: 256
    weight_filler {
      type: "msra"
      std: 0.01
    }
    bias_filler {
      type: "constant"
    }
    pad_h: 0
    pad_w: 1
    kernel_h: 1
    kernel_w: 3
  }
}
layer {
  name: "relu2_2"
  type: "PReLU"
  bottom: "conv2_2"
  top: "conv2_2"
  prelu_param {
    filler {
      type: "constant"
      value: 0.3
    }
    channel_shared: false
  }
}
layer {
  name: "conv2_3"
  type: "Convolution"
  bottom: "conv2_2"
  top: "conv2_3"
  param {
    lr_mult: 1
    decay_mult: 1
  }
  param {
    lr_mult: 2
    decay_mult: 0
  }
  convolution_param {
    num_output: 256
    weight_filler {
      type: "msra"
      std: 0.01
    }
    bias_filler {
      type: "constant"
    }
    pad_h: 1
    pad_w: 0
    kernel_h: 3
    kernel_w: 1
  }
}
layer {
  name: "relu2_3"
  type: "PReLU"
  bottom: "conv2_3"
  top: "conv2_3"
  prelu_param {
    filler {
      type: "constant"
      value: 0.3
    }
    channel_shared: false
  }
}
layer {
  name: "pool2"
  type: "Pooling"
  bottom: "conv2_3"
  top: "pool2"
  pooling_param {
    pool: MAX
    kernel_size: 3
    stride: 2
  }
}
layer {
  name: "conv2_BN"
  type: "BatchNorm"
  bottom: "pool2"
  top: "conv2_BN"
}
layer {
  name: "conv3"
  type: "Convolution"
  bottom: "conv2_BN"
  top: "conv3"
  param {
    lr_mult: 1
    decay_mult: 1
  }
  param {
    lr_mult: 2
    decay_mult: 0
  }
  convolution_param {
    num_output: 384
    weight_filler {
      type: "msra"
      std: 0.01
    }
    bias_filler {
      type: "constant"
    }
    pad_h: 0
    pad_w: 1
    kernel_h: 1
    kernel_w: 3
  }
}
layer {
  name: "relu3"
  type: "PReLU"
  bottom: "conv3"
  top: "conv3"
  prelu_param {
    filler {
      type: "constant"
      value: 0.3
    }
    channel_shared: false
  }
}
layer {
  name: "conv3_1"
  type: "Convolution"
  bottom: "conv3"
  top: "conv3_1"
  param {
    lr_mult: 1
    decay_mult: 1
  }
  param {
    lr_mult: 2
    decay_mult: 0
  }
  convolution_param {
    num_output: 384
    weight_filler {
      type: "msra"
      std: 0.01
    }
    bias_filler {
      type: "constant"
    }
    pad_h: 1
    pad_w: 0
    kernel_h: 3
    kernel_w: 1
  }
}
layer {
  name: "relu3_1"
  type: "PReLU"
  bottom: "conv3_1"
  top: "conv3_1"
  prelu_param {
    filler {
      type: "constant"
      value: 0.3
    }
    channel_shared: false
  }
}
layer {
  name: "conv4"
  type: "Convolution"
  bottom: "conv3_1"
  top: "conv4"
  param {
    lr_mult: 1
    decay_mult: 1
  }
  param {
    lr_mult: 2
    decay_mult: 0
  }
  convolution_param {
    num_output: 384
    weight_filler {
      type: "msra"
      std: 0.01
    }
    bias_filler {
      type: "constant"
    }
    pad_h: 0
    pad_w: 1
    kernel_h: 1
    kernel_w: 3
  }
}
layer {
  name: "relu4"
  type: "PReLU"
  bottom: "conv4"
  top: "conv4"
  prelu_param {
    filler {
      type: "constant"
      value: 0.3
    }
    channel_shared: false
  }
}
layer {
  name: "conv4_1"
  type: "Convolution"
  bottom: "conv4"
  top: "conv4_1"
  param {
    lr_mult: 1
    decay_mult: 1
  }
  param {
    lr_mult: 2
    decay_mult: 0
  }
  convolution_param {
    num_output: 384
    weight_filler {
      type: "msra"
      std: 0.01
    }
    bias_filler {
      type: "constant"
    }
    pad_h: 1
    pad_w: 0
    kernel_h: 3
    kernel_w: 1
  }
}
layer {
  name: "relu4_1"
  type: "PReLU"
  bottom: "conv4_1"
  top: "conv4_1"
  prelu_param {
    filler {
      type: "constant"
      value: 0.3
    }
    channel_shared: false
  }
}
layer {
  name: "conv5"
  type: "Convolution"
  bottom: "conv4_1"
  top: "conv5"
  param {
    lr_mult: 1
    decay_mult: 1
  }
  param {
    lr_mult: 2
    decay_mult: 0
  }
  convolution_param {
    num_output: 256
    weight_filler {
      type: "msra"
      std: 0.01
    }
    bias_filler {
      type: "constant"
    }
    pad_h: 0
    pad_w: 1
    kernel_h: 1
    kernel_w: 3
  }
}
layer {
  name: "relu5"
  type: "PReLU"
  bottom: "conv5"
  top: "conv5"
  prelu_param {
    filler {
      type: "constant"
      value: 0.3
    }
    channel_shared: false
  }
}
layer {
  name: "conv5_1"
  type: "Convolution"
  bottom: "conv5"
  top: "conv5_1"
  param {
    lr_mult: 1
    decay_mult: 1
  }
  param {
    lr_mult: 2
    decay_mult: 0
  }
  convolution_param {
    num_output: 256
    weight_filler {
      type: "msra"
      std: 0.01
    }
    bias_filler {
      type: "constant"
    }
    pad_h: 1
    pad_w: 0
    kernel_h: 3
    kernel_w: 1
  }
}
layer {
  name: "relu5_1"
  type: "PReLU"
  bottom: "conv5_1"
  top: "conv5_1"
  prelu_param {
    filler {
      type: "constant"
      value: 0.3
    }
    channel_shared: false
  }
}
layer {
  name: "pool5"
  type: "Pooling"
  bottom: "conv5_1"
  top: "pool5"
  pooling_param {
    pool: MAX
    kernel_size: 3
    stride: 2
  }
}
layer {
  name: "conv5_1_BN"
  type: "BatchNorm"
  bottom: "pool5"
  top: "conv5_1_BN"
}
layer {
  name: "fc6"
  type: "InnerProduct"
  bottom: "conv5_1_BN"
  top: "fc6"
  param {
    lr_mult: 1
    decay_mult: 1
  }
  param {
    lr_mult: 2
    decay_mult: 0
  }
  inner_product_param {
    num_output: 2048
    weight_filler {
      type: "gaussian"
      std: 0.005
    }
    bias_filler {
      type: "constant"
    }
  }
}
layer {
  name: "relu6"
  type: "PReLU"
  bottom: "fc6"
  top: "fc6"
  prelu_param {
    filler {
      type: "constant"
      value: 0.3
    }
    channel_shared: false
  }
}
layer {
  name: "fc6_BN"
  type: "BatchNorm"
  bottom: "fc6"
  top: "fc6_BN"
}
layer {
  name: "drop6"
  type: "Dropout"
  bottom: "fc6_BN"
  top: "drop6"
  dropout_param {
    dropout_ratio: 0.35
  }
}
layer {
  name: "fc7"
  type: "InnerProduct"
  bottom: "drop6"
  top: "fc7"
  param {
    lr_mult: 1
    decay_mult: 1
  }
  param {
    lr_mult: 2
    decay_mult: 0
  }
  inner_product_param {
    num_output: 2048
    weight_filler {
      type: "gaussian"
      std: 0.005
    }
    bias_filler {
      type: "constant"
    }
  }
}
layer {
  name: "relu7"
  type: "PReLU"
  bottom: "fc7"
  top: "fc7"
  prelu_param {
    filler {
      type: "constant"
      value: 0.3
    }
    channel_shared: false
  }
}
layer {
  name: "drop7"
  type: "Dropout"
  bottom: "fc7"
  top: "drop7"
  dropout_param {
    dropout_ratio: 0.35
  }
}
layer {
  name: "fc8"
  type: "InnerProduct"
  bottom: "drop7"
  top: "fc8"
  param {
    lr_mult: 1
    decay_mult: 1
  }
  param {
    lr_mult: 2
    decay_mult: 0
  }
  inner_product_param {
    num_output: 1000
    weight_filler {
      type: "gaussian"
      std: 0.01
    }
    bias_filler {
      type: "constant"
    }
  }
}
layer {
  name: "loss"
  type: "SoftmaxWithLoss"
  bottom: "fc8"
  bottom: "label"
  top: "loss"
}
I0114 02:49:57.184196  2859 layer_factory.hpp:76] Creating layer data
I0114 02:49:57.184828  2859 net.cpp:106] Creating Layer data
I0114 02:49:57.184856  2859 net.cpp:411] data -> data
I0114 02:49:57.184883  2859 net.cpp:411] data -> label
I0114 02:49:57.185623  2865 db_lmdb.cpp:38] Opened lmdb /media/dereyly/data_one/data/CAFFE_DATA/ilsvrc12_train_lmdb_144
I0114 02:49:57.193451  2859 data_layer.cpp:41] output data size: 256,3,128,128
I0114 02:49:57.252413  2859 net.cpp:150] Setting up data
I0114 02:49:57.252439  2859 net.cpp:157] Top shape: 256 3 128 128 (12582912)
I0114 02:49:57.252444  2859 net.cpp:157] Top shape: 256 (256)
I0114 02:49:57.252447  2859 net.cpp:165] Memory required for data: 50332672
I0114 02:49:57.252459  2859 layer_factory.hpp:76] Creating layer conv1
I0114 02:49:57.252477  2859 net.cpp:106] Creating Layer conv1
I0114 02:49:57.252482  2859 net.cpp:454] conv1 <- data
I0114 02:49:57.252493  2859 net.cpp:411] conv1 -> conv1
I0114 02:49:57.371927  2859 net.cpp:150] Setting up conv1
I0114 02:49:57.371948  2859 net.cpp:157] Top shape: 256 96 30 30 (22118400)
I0114 02:49:57.371951  2859 net.cpp:165] Memory required for data: 138806272
I0114 02:49:57.371979  2859 layer_factory.hpp:76] Creating layer relu1
I0114 02:49:57.371997  2859 net.cpp:106] Creating Layer relu1
I0114 02:49:57.372004  2859 net.cpp:454] relu1 <- conv1
I0114 02:49:57.372014  2859 net.cpp:397] relu1 -> conv1 (in-place)
I0114 02:49:57.372431  2859 net.cpp:150] Setting up relu1
I0114 02:49:57.372442  2859 net.cpp:157] Top shape: 256 96 30 30 (22118400)
I0114 02:49:57.372445  2859 net.cpp:165] Memory required for data: 227279872
I0114 02:49:57.372452  2859 layer_factory.hpp:76] Creating layer pool1
I0114 02:49:57.372469  2859 net.cpp:106] Creating Layer pool1
I0114 02:49:57.372474  2859 net.cpp:454] pool1 <- conv1
I0114 02:49:57.372479  2859 net.cpp:411] pool1 -> pool1
I0114 02:49:57.372766  2859 net.cpp:150] Setting up pool1
I0114 02:49:57.372781  2859 net.cpp:157] Top shape: 256 96 15 15 (5529600)
I0114 02:49:57.372786  2859 net.cpp:165] Memory required for data: 249398272
I0114 02:49:57.372792  2859 layer_factory.hpp:76] Creating layer conv1_BN
I0114 02:49:57.372805  2859 net.cpp:106] Creating Layer conv1_BN
I0114 02:49:57.372843  2859 net.cpp:454] conv1_BN <- pool1
I0114 02:49:57.372891  2859 net.cpp:411] conv1_BN -> conv1_BN
I0114 02:49:57.373060  2859 net.cpp:150] Setting up conv1_BN
I0114 02:49:57.373070  2859 net.cpp:157] Top shape: 256 96 15 15 (5529600)
I0114 02:49:57.373075  2859 net.cpp:165] Memory required for data: 271516672
I0114 02:49:57.373088  2859 layer_factory.hpp:76] Creating layer conv2
I0114 02:49:57.373103  2859 net.cpp:106] Creating Layer conv2
I0114 02:49:57.373109  2859 net.cpp:454] conv2 <- conv1_BN
I0114 02:49:57.373116  2859 net.cpp:411] conv2 -> conv2
I0114 02:49:57.375759  2859 net.cpp:150] Setting up conv2
I0114 02:49:57.375772  2859 net.cpp:157] Top shape: 256 256 15 15 (14745600)
I0114 02:49:57.375777  2859 net.cpp:165] Memory required for data: 330499072
I0114 02:49:57.375782  2859 layer_factory.hpp:76] Creating layer relu2
I0114 02:49:57.375792  2859 net.cpp:106] Creating Layer relu2
I0114 02:49:57.375797  2859 net.cpp:454] relu2 <- conv2
I0114 02:49:57.375803  2859 net.cpp:397] relu2 -> conv2 (in-place)
I0114 02:49:57.375921  2859 net.cpp:150] Setting up relu2
I0114 02:49:57.375928  2859 net.cpp:157] Top shape: 256 256 15 15 (14745600)
I0114 02:49:57.375931  2859 net.cpp:165] Memory required for data: 389481472
I0114 02:49:57.375938  2859 layer_factory.hpp:76] Creating layer conv2_1
I0114 02:49:57.375947  2859 net.cpp:106] Creating Layer conv2_1
I0114 02:49:57.375952  2859 net.cpp:454] conv2_1 <- conv2
I0114 02:49:57.375957  2859 net.cpp:411] conv2_1 -> conv2_1
I0114 02:49:57.381767  2859 net.cpp:150] Setting up conv2_1
I0114 02:49:57.381796  2859 net.cpp:157] Top shape: 256 256 15 15 (14745600)
I0114 02:49:57.381800  2859 net.cpp:165] Memory required for data: 448463872
I0114 02:49:57.381808  2859 layer_factory.hpp:76] Creating layer relu2_1
I0114 02:49:57.381821  2859 net.cpp:106] Creating Layer relu2_1
I0114 02:49:57.381825  2859 net.cpp:454] relu2_1 <- conv2_1
I0114 02:49:57.381831  2859 net.cpp:397] relu2_1 -> conv2_1 (in-place)
I0114 02:49:57.381935  2859 net.cpp:150] Setting up relu2_1
I0114 02:49:57.381942  2859 net.cpp:157] Top shape: 256 256 15 15 (14745600)
I0114 02:49:57.381955  2859 net.cpp:165] Memory required for data: 507446272
I0114 02:49:57.381960  2859 layer_factory.hpp:76] Creating layer conv2_2
I0114 02:49:57.381969  2859 net.cpp:106] Creating Layer conv2_2
I0114 02:49:57.381974  2859 net.cpp:454] conv2_2 <- conv2_1
I0114 02:49:57.381979  2859 net.cpp:411] conv2_2 -> conv2_2
I0114 02:49:57.387470  2859 net.cpp:150] Setting up conv2_2
I0114 02:49:57.387490  2859 net.cpp:157] Top shape: 256 256 15 15 (14745600)
I0114 02:49:57.387493  2859 net.cpp:165] Memory required for data: 566428672
I0114 02:49:57.387501  2859 layer_factory.hpp:76] Creating layer relu2_2
I0114 02:49:57.387511  2859 net.cpp:106] Creating Layer relu2_2
I0114 02:49:57.387516  2859 net.cpp:454] relu2_2 <- conv2_2
I0114 02:49:57.387533  2859 net.cpp:397] relu2_2 -> conv2_2 (in-place)
I0114 02:49:57.387661  2859 net.cpp:150] Setting up relu2_2
I0114 02:49:57.387668  2859 net.cpp:157] Top shape: 256 256 15 15 (14745600)
I0114 02:49:57.387671  2859 net.cpp:165] Memory required for data: 625411072
I0114 02:49:57.387676  2859 layer_factory.hpp:76] Creating layer conv2_3
I0114 02:49:57.387682  2859 net.cpp:106] Creating Layer conv2_3
I0114 02:49:57.387686  2859 net.cpp:454] conv2_3 <- conv2_2
I0114 02:49:57.387692  2859 net.cpp:411] conv2_3 -> conv2_3
I0114 02:49:57.392817  2859 net.cpp:150] Setting up conv2_3
I0114 02:49:57.392841  2859 net.cpp:157] Top shape: 256 256 15 15 (14745600)
I0114 02:49:57.392848  2859 net.cpp:165] Memory required for data: 684393472
I0114 02:49:57.392864  2859 layer_factory.hpp:76] Creating layer relu2_3
I0114 02:49:57.392884  2859 net.cpp:106] Creating Layer relu2_3
I0114 02:49:57.392890  2859 net.cpp:454] relu2_3 <- conv2_3
I0114 02:49:57.392896  2859 net.cpp:397] relu2_3 -> conv2_3 (in-place)
I0114 02:49:57.393278  2859 net.cpp:150] Setting up relu2_3
I0114 02:49:57.393301  2859 net.cpp:157] Top shape: 256 256 15 15 (14745600)
I0114 02:49:57.393303  2859 net.cpp:165] Memory required for data: 743375872
I0114 02:49:57.393318  2859 layer_factory.hpp:76] Creating layer pool2
I0114 02:49:57.393337  2859 net.cpp:106] Creating Layer pool2
I0114 02:49:57.393340  2859 net.cpp:454] pool2 <- conv2_3
I0114 02:49:57.393345  2859 net.cpp:411] pool2 -> pool2
I0114 02:49:57.393571  2859 net.cpp:150] Setting up pool2
I0114 02:49:57.393592  2859 net.cpp:157] Top shape: 256 256 7 7 (3211264)
I0114 02:49:57.393596  2859 net.cpp:165] Memory required for data: 756220928
I0114 02:49:57.393600  2859 layer_factory.hpp:76] Creating layer conv2_BN
I0114 02:49:57.393605  2859 net.cpp:106] Creating Layer conv2_BN
I0114 02:49:57.393610  2859 net.cpp:454] conv2_BN <- pool2
I0114 02:49:57.393613  2859 net.cpp:411] conv2_BN -> conv2_BN
I0114 02:49:57.393759  2859 net.cpp:150] Setting up conv2_BN
I0114 02:49:57.393765  2859 net.cpp:157] Top shape: 256 256 7 7 (3211264)
I0114 02:49:57.393779  2859 net.cpp:165] Memory required for data: 769065984
I0114 02:49:57.393786  2859 layer_factory.hpp:76] Creating layer conv3
I0114 02:49:57.393805  2859 net.cpp:106] Creating Layer conv3
I0114 02:49:57.393810  2859 net.cpp:454] conv3 <- conv2_BN
I0114 02:49:57.393815  2859 net.cpp:411] conv3 -> conv3
I0114 02:49:57.402207  2859 net.cpp:150] Setting up conv3
I0114 02:49:57.402237  2859 net.cpp:157] Top shape: 256 384 7 7 (4816896)
I0114 02:49:57.402241  2859 net.cpp:165] Memory required for data: 788333568
I0114 02:49:57.402250  2859 layer_factory.hpp:76] Creating layer relu3
I0114 02:49:57.402262  2859 net.cpp:106] Creating Layer relu3
I0114 02:49:57.402267  2859 net.cpp:454] relu3 <- conv3
I0114 02:49:57.402273  2859 net.cpp:397] relu3 -> conv3 (in-place)
I0114 02:49:57.402379  2859 net.cpp:150] Setting up relu3
I0114 02:49:57.402396  2859 net.cpp:157] Top shape: 256 384 7 7 (4816896)
I0114 02:49:57.402400  2859 net.cpp:165] Memory required for data: 807601152
I0114 02:49:57.402415  2859 layer_factory.hpp:76] Creating layer conv3_1
I0114 02:49:57.402423  2859 net.cpp:106] Creating Layer conv3_1
I0114 02:49:57.402426  2859 net.cpp:454] conv3_1 <- conv3
I0114 02:49:57.402431  2859 net.cpp:411] conv3_1 -> conv3_1
I0114 02:49:57.413822  2859 net.cpp:150] Setting up conv3_1
I0114 02:49:57.413854  2859 net.cpp:157] Top shape: 256 384 7 7 (4816896)
I0114 02:49:57.413858  2859 net.cpp:165] Memory required for data: 826868736
I0114 02:49:57.413866  2859 layer_factory.hpp:76] Creating layer relu3_1
I0114 02:49:57.413877  2859 net.cpp:106] Creating Layer relu3_1
I0114 02:49:57.413880  2859 net.cpp:454] relu3_1 <- conv3_1
I0114 02:49:57.413887  2859 net.cpp:397] relu3_1 -> conv3_1 (in-place)
I0114 02:49:57.413998  2859 net.cpp:150] Setting up relu3_1
I0114 02:49:57.414005  2859 net.cpp:157] Top shape: 256 384 7 7 (4816896)
I0114 02:49:57.414018  2859 net.cpp:165] Memory required for data: 846136320
I0114 02:49:57.414022  2859 layer_factory.hpp:76] Creating layer conv4
I0114 02:49:57.414032  2859 net.cpp:106] Creating Layer conv4
I0114 02:49:57.414036  2859 net.cpp:454] conv4 <- conv3_1
I0114 02:49:57.414042  2859 net.cpp:411] conv4 -> conv4
I0114 02:49:57.423900  2859 net.cpp:150] Setting up conv4
I0114 02:49:57.423912  2859 net.cpp:157] Top shape: 256 384 7 7 (4816896)
I0114 02:49:57.423915  2859 net.cpp:165] Memory required for data: 865403904
I0114 02:49:57.423920  2859 layer_factory.hpp:76] Creating layer relu4
I0114 02:49:57.423926  2859 net.cpp:106] Creating Layer relu4
I0114 02:49:57.423929  2859 net.cpp:454] relu4 <- conv4
I0114 02:49:57.423935  2859 net.cpp:397] relu4 -> conv4 (in-place)
I0114 02:49:57.424021  2859 net.cpp:150] Setting up relu4
I0114 02:49:57.424026  2859 net.cpp:157] Top shape: 256 384 7 7 (4816896)
I0114 02:49:57.424029  2859 net.cpp:165] Memory required for data: 884671488
I0114 02:49:57.424033  2859 layer_factory.hpp:76] Creating layer conv4_1
I0114 02:49:57.424041  2859 net.cpp:106] Creating Layer conv4_1
I0114 02:49:57.424043  2859 net.cpp:454] conv4_1 <- conv4
I0114 02:49:57.424049  2859 net.cpp:411] conv4_1 -> conv4_1
I0114 02:49:57.434131  2859 net.cpp:150] Setting up conv4_1
I0114 02:49:57.434156  2859 net.cpp:157] Top shape: 256 384 7 7 (4816896)
I0114 02:49:57.434160  2859 net.cpp:165] Memory required for data: 903939072
I0114 02:49:57.434178  2859 layer_factory.hpp:76] Creating layer relu4_1
I0114 02:49:57.434187  2859 net.cpp:106] Creating Layer relu4_1
I0114 02:49:57.434201  2859 net.cpp:454] relu4_1 <- conv4_1
I0114 02:49:57.434206  2859 net.cpp:397] relu4_1 -> conv4_1 (in-place)
I0114 02:49:57.434319  2859 net.cpp:150] Setting up relu4_1
I0114 02:49:57.434325  2859 net.cpp:157] Top shape: 256 384 7 7 (4816896)
I0114 02:49:57.434340  2859 net.cpp:165] Memory required for data: 923206656
I0114 02:49:57.434360  2859 layer_factory.hpp:76] Creating layer conv5
I0114 02:49:57.434379  2859 net.cpp:106] Creating Layer conv5
I0114 02:49:57.434382  2859 net.cpp:454] conv5 <- conv4_1
I0114 02:49:57.434398  2859 net.cpp:411] conv5 -> conv5
I0114 02:49:57.441884  2859 net.cpp:150] Setting up conv5
I0114 02:49:57.441898  2859 net.cpp:157] Top shape: 256 256 7 7 (3211264)
I0114 02:49:57.441902  2859 net.cpp:165] Memory required for data: 936051712
I0114 02:49:57.441910  2859 layer_factory.hpp:76] Creating layer relu5
I0114 02:49:57.441916  2859 net.cpp:106] Creating Layer relu5
I0114 02:49:57.441920  2859 net.cpp:454] relu5 <- conv5
I0114 02:49:57.441926  2859 net.cpp:397] relu5 -> conv5 (in-place)
I0114 02:49:57.442246  2859 net.cpp:150] Setting up relu5
I0114 02:49:57.442255  2859 net.cpp:157] Top shape: 256 256 7 7 (3211264)
I0114 02:49:57.442258  2859 net.cpp:165] Memory required for data: 948896768
I0114 02:49:57.442263  2859 layer_factory.hpp:76] Creating layer conv5_1
I0114 02:49:57.442271  2859 net.cpp:106] Creating Layer conv5_1
I0114 02:49:57.442276  2859 net.cpp:454] conv5_1 <- conv5
I0114 02:49:57.442281  2859 net.cpp:411] conv5_1 -> conv5_1
I0114 02:49:57.447229  2859 net.cpp:150] Setting up conv5_1
I0114 02:49:57.447242  2859 net.cpp:157] Top shape: 256 256 7 7 (3211264)
I0114 02:49:57.447244  2859 net.cpp:165] Memory required for data: 961741824
I0114 02:49:57.447250  2859 layer_factory.hpp:76] Creating layer relu5_1
I0114 02:49:57.447257  2859 net.cpp:106] Creating Layer relu5_1
I0114 02:49:57.447262  2859 net.cpp:454] relu5_1 <- conv5_1
I0114 02:49:57.447265  2859 net.cpp:397] relu5_1 -> conv5_1 (in-place)
I0114 02:49:57.447356  2859 net.cpp:150] Setting up relu5_1
I0114 02:49:57.447362  2859 net.cpp:157] Top shape: 256 256 7 7 (3211264)
I0114 02:49:57.447365  2859 net.cpp:165] Memory required for data: 974586880
I0114 02:49:57.447370  2859 layer_factory.hpp:76] Creating layer pool5
I0114 02:49:57.447376  2859 net.cpp:106] Creating Layer pool5
I0114 02:49:57.447378  2859 net.cpp:454] pool5 <- conv5_1
I0114 02:49:57.447383  2859 net.cpp:411] pool5 -> pool5
I0114 02:49:57.447523  2859 net.cpp:150] Setting up pool5
I0114 02:49:57.447530  2859 net.cpp:157] Top shape: 256 256 3 3 (589824)
I0114 02:49:57.447533  2859 net.cpp:165] Memory required for data: 976946176
I0114 02:49:57.447536  2859 layer_factory.hpp:76] Creating layer conv5_1_BN
I0114 02:49:57.447542  2859 net.cpp:106] Creating Layer conv5_1_BN
I0114 02:49:57.447546  2859 net.cpp:454] conv5_1_BN <- pool5
I0114 02:49:57.447549  2859 net.cpp:411] conv5_1_BN -> conv5_1_BN
I0114 02:49:57.447685  2859 net.cpp:150] Setting up conv5_1_BN
I0114 02:49:57.447690  2859 net.cpp:157] Top shape: 256 256 3 3 (589824)
I0114 02:49:57.447693  2859 net.cpp:165] Memory required for data: 979305472
I0114 02:49:57.447700  2859 layer_factory.hpp:76] Creating layer fc6
I0114 02:49:57.447708  2859 net.cpp:106] Creating Layer fc6
I0114 02:49:57.447711  2859 net.cpp:454] fc6 <- conv5_1_BN
I0114 02:49:57.447717  2859 net.cpp:411] fc6 -> fc6
I0114 02:49:57.545163  2859 net.cpp:150] Setting up fc6
I0114 02:49:57.545187  2859 net.cpp:157] Top shape: 256 2048 (524288)
I0114 02:49:57.545191  2859 net.cpp:165] Memory required for data: 981402624
I0114 02:49:57.545199  2859 layer_factory.hpp:76] Creating layer relu6
I0114 02:49:57.545208  2859 net.cpp:106] Creating Layer relu6
I0114 02:49:57.545213  2859 net.cpp:454] relu6 <- fc6
I0114 02:49:57.545219  2859 net.cpp:397] relu6 -> fc6 (in-place)
I0114 02:49:57.545300  2859 net.cpp:150] Setting up relu6
I0114 02:49:57.545315  2859 net.cpp:157] Top shape: 256 2048 (524288)
I0114 02:49:57.545317  2859 net.cpp:165] Memory required for data: 983499776
I0114 02:49:57.545321  2859 layer_factory.hpp:76] Creating layer fc6_BN
I0114 02:49:57.545328  2859 net.cpp:106] Creating Layer fc6_BN
I0114 02:49:57.545331  2859 net.cpp:454] fc6_BN <- fc6
I0114 02:49:57.545336  2859 net.cpp:411] fc6_BN -> fc6_BN
I0114 02:49:57.545465  2859 net.cpp:150] Setting up fc6_BN
I0114 02:49:57.545471  2859 net.cpp:157] Top shape: 256 2048 (524288)
I0114 02:49:57.545475  2859 net.cpp:165] Memory required for data: 985596928
I0114 02:49:57.545480  2859 layer_factory.hpp:76] Creating layer drop6
I0114 02:49:57.545491  2859 net.cpp:106] Creating Layer drop6
I0114 02:49:57.545495  2859 net.cpp:454] drop6 <- fc6_BN
I0114 02:49:57.545500  2859 net.cpp:411] drop6 -> drop6
I0114 02:49:57.545529  2859 net.cpp:150] Setting up drop6
I0114 02:49:57.545536  2859 net.cpp:157] Top shape: 256 2048 (524288)
I0114 02:49:57.545538  2859 net.cpp:165] Memory required for data: 987694080
I0114 02:49:57.545542  2859 layer_factory.hpp:76] Creating layer fc7
I0114 02:49:57.545547  2859 net.cpp:106] Creating Layer fc7
I0114 02:49:57.545550  2859 net.cpp:454] fc7 <- drop6
I0114 02:49:57.545555  2859 net.cpp:411] fc7 -> fc7
I0114 02:49:57.631932  2859 net.cpp:150] Setting up fc7
I0114 02:49:57.631954  2859 net.cpp:157] Top shape: 256 2048 (524288)
I0114 02:49:57.631958  2859 net.cpp:165] Memory required for data: 989791232
I0114 02:49:57.631966  2859 layer_factory.hpp:76] Creating layer relu7
I0114 02:49:57.631976  2859 net.cpp:106] Creating Layer relu7
I0114 02:49:57.631981  2859 net.cpp:454] relu7 <- fc7
I0114 02:49:57.631988  2859 net.cpp:397] relu7 -> fc7 (in-place)
I0114 02:49:57.632066  2859 net.cpp:150] Setting up relu7
I0114 02:49:57.632072  2859 net.cpp:157] Top shape: 256 2048 (524288)
I0114 02:49:57.632076  2859 net.cpp:165] Memory required for data: 991888384
I0114 02:49:57.632079  2859 layer_factory.hpp:76] Creating layer drop7
I0114 02:49:57.632088  2859 net.cpp:106] Creating Layer drop7
I0114 02:49:57.632091  2859 net.cpp:454] drop7 <- fc7
I0114 02:49:57.632096  2859 net.cpp:411] drop7 -> drop7
I0114 02:49:57.632123  2859 net.cpp:150] Setting up drop7
I0114 02:49:57.632132  2859 net.cpp:157] Top shape: 256 2048 (524288)
I0114 02:49:57.632134  2859 net.cpp:165] Memory required for data: 993985536
I0114 02:49:57.632138  2859 layer_factory.hpp:76] Creating layer fc8
I0114 02:49:57.632143  2859 net.cpp:106] Creating Layer fc8
I0114 02:49:57.632146  2859 net.cpp:454] fc8 <- drop7
I0114 02:49:57.632150  2859 net.cpp:411] fc8 -> fc8
I0114 02:49:57.674996  2859 net.cpp:150] Setting up fc8
I0114 02:49:57.675027  2859 net.cpp:157] Top shape: 256 1000 (256000)
I0114 02:49:57.675031  2859 net.cpp:165] Memory required for data: 995009536
I0114 02:49:57.675040  2859 layer_factory.hpp:76] Creating layer loss
I0114 02:49:57.675052  2859 net.cpp:106] Creating Layer loss
I0114 02:49:57.675056  2859 net.cpp:454] loss <- fc8
I0114 02:49:57.675061  2859 net.cpp:454] loss <- label
I0114 02:49:57.675082  2859 net.cpp:411] loss -> loss
I0114 02:49:57.675096  2859 layer_factory.hpp:76] Creating layer loss
…
I0114 02:49:57.677000  2859 net.cpp:322] The NetState phase (1) differed from the phase (0) specified by a rule in layer data
I0114 02:49:57.677317  2859 net.cpp:49] Initializing net from parameters: 
name: "CaffeNet"
state {
  phase: TEST
}
layer {
  name: "data"
  type: "Data"
  top: "data"
  top: "label"
  include {
    phase: TEST
  }
  transform_param {
    mirror: false
    crop_size: 128
    mean_value: 104
    mean_value: 117
    mean_value: 124
  }
  data_param {
    source: "/media/dereyly/data_one/data/CAFFE_DATA/ilsvrc12_val_lmdb_144"
    batch_size: 100
    backend: LMDB
  }
}
layer {
  name: "conv1"
  type: "Convolution"
  bottom: "data"
  top: "conv1"
  param {
    lr_mult: 1
    decay_mult: 1
  }
  param {
    lr_mult: 2
    decay_mult: 0
  }
  convolution_param {
    num_output: 96
    kernel_size: 11
    stride: 4
    weight_filler {
      type: "msra"
      std: 0.01
    }
    bias_filler {
      type: "constant"
    }
  }
}
layer {
  name: "relu1"
  type: "PReLU"
  bottom: "conv1"
  top: "conv1"
  prelu_param {
    filler {
      type: "constant"
      value: 0.3
    }
    channel_shared: false
  }
}
layer {
  name: "pool1"
  type: "Pooling"
  bottom: "conv1"
  top: "pool1"
  pooling_param {
    pool: MAX
    kernel_size: 3
    stride: 2
  }
}
layer {
  name: "conv1_BN"
  type: "BatchNorm"
  bottom: "pool1"
  top: "conv1_BN"
}
layer {
  name: "conv2"
  type: "Convolution"
  bottom: "conv1_BN"
  top: "conv2"
  param {
    lr_mult: 1
    decay_mult: 1
  }
  param {
    lr_mult: 2
    decay_mult: 0
  }
  convolution_param {
    num_output: 256
    weight_filler {
      type: "msra"
      std: 0.01
    }
    bias_filler {
      type: "constant"
    }
    pad_h: 0
    pad_w: 1
    kernel_h: 1
    kernel_w: 3
  }
}
layer {
  name: "relu2"
  type: "PReLU"
  bottom: "conv2"
  top: "conv2"
  prelu_param {
    filler {
      type: "constant"
      value: 0.3
    }
    channel_shared: false
  }
}
layer {
  name: "conv2_1"
  type: "Convolution"
  bottom: "conv2"
  top: "conv2_1"
  param {
    lr_mult: 1
    decay_mult: 1
  }
  param {
    lr_mult: 2
    decay_mult: 0
  }
  convolution_param {
    num_output: 256
    weight_filler {
      type: "msra"
      std: 0.01
    }
    bias_filler {
      type: "constant"
    }
    pad_h: 1
    pad_w: 0
    kernel_h: 3
    kernel_w: 1
  }
}
layer {
  name: "relu2_1"
  type: "PReLU"
  bottom: "conv2_1"
  top: "conv2_1"
  prelu_param {
    filler {
      type: "constant"
      value: 0.3
    }
    channel_shared: false
  }
}
layer {
  name: "conv2_2"
  type: "Convolution"
  bottom: "conv2_1"
  top: "conv2_2"
  param {
    lr_mult: 1
    decay_mult: 1
  }
  param {
    lr_mult: 2
    decay_mult: 0
  }
  convolution_param {
    num_output: 256
    weight_filler {
      type: "msra"
      std: 0.01
    }
    bias_filler {
      type: "constant"
    }
    pad_h: 0
    pad_w: 1
    kernel_h: 1
    kernel_w: 3
  }
}
layer {
  name: "relu2_2"
  type: "PReLU"
  bottom: "conv2_2"
  top: "conv2_2"
  prelu_param {
    filler {
      type: "constant"
      value: 0.3
    }
    channel_shared: false
  }
}
layer {
  name: "conv2_3"
  type: "Convolution"
  bottom: "conv2_2"
  top: "conv2_3"
  param {
    lr_mult: 1
    decay_mult: 1
  }
  param {
    lr_mult: 2
    decay_mult: 0
  }
  convolution_param {
    num_output: 256
    weight_filler {
      type: "msra"
      std: 0.01
    }
    bias_filler {
      type: "constant"
    }
    pad_h: 1
    pad_w: 0
    kernel_h: 3
    kernel_w: 1
  }
}
layer {
  name: "relu2_3"
  type: "PReLU"
  bottom: "conv2_3"
  top: "conv2_3"
  prelu_param {
    filler {
      type: "constant"
      value: 0.3
    }
    channel_shared: false
  }
}
layer {
  name: "pool2"
  type: "Pooling"
  bottom: "conv2_3"
  top: "pool2"
  pooling_param {
    pool: MAX
    kernel_size: 3
    stride: 2
  }
}
layer {
  name: "conv2_BN"
  type: "BatchNorm"
  bottom: "pool2"
  top: "conv2_BN"
}
layer {
  name: "conv3"
  type: "Convolution"
  bottom: "conv2_BN"
  top: "conv3"
  param {
    lr_mult: 1
    decay_mult: 1
  }
  param {
    lr_mult: 2
    decay_mult: 0
  }
  convolution_param {
    num_output: 384
    weight_filler {
      type: "msra"
      std: 0.01
    }
    bias_filler {
      type: "constant"
    }
    pad_h: 0
    pad_w: 1
    kernel_h: 1
    kernel_w: 3
  }
}
layer {
  name: "relu3"
  type: "PReLU"
  bottom: "conv3"
  top: "conv3"
  prelu_param {
    filler {
      type: "constant"
      value: 0.3
    }
    channel_shared: false
  }
}
layer {
  name: "conv3_1"
  type: "Convolution"
  bottom: "conv3"
  top: "conv3_1"
  param {
    lr_mult: 1
    decay_mult: 1
  }
  param {
    lr_mult: 2
    decay_mult: 0
  }
  convolution_param {
    num_output: 384
    weight_filler {
      type: "msra"
      std: 0.01
    }
    bias_filler {
      type: "constant"
    }
    pad_h: 1
    pad_w: 0
    kernel_h: 3
    kernel_w: 1
  }
}
layer {
  name: "relu3_1"
  type: "PReLU"
  bottom: "conv3_1"
  top: "conv3_1"
  prelu_param {
    filler {
      type: "constant"
      value: 0.3
    }
    channel_shared: false
  }
}
layer {
  name: "conv4"
  type: "Convolution"
  bottom: "conv3_1"
  top: "conv4"
  param {
    lr_mult: 1
    decay_mult: 1
  }
  param {
    lr_mult: 2
    decay_mult: 0
  }
  convolution_param {
    num_output: 384
    weight_filler {
      type: "msra"
      std: 0.01
    }
    bias_filler {
      type: "constant"
    }
    pad_h: 0
    pad_w: 1
    kernel_h: 1
    kernel_w: 3
  }
}
layer {
  name: "relu4"
  type: "PReLU"
  bottom: "conv4"
  top: "conv4"
  prelu_param {
    filler {
      type: "constant"
      value: 0.3
    }
    channel_shared: false
  }
}
layer {
  name: "conv4_1"
  type: "Convolution"
  bottom: "conv4"
  top: "conv4_1"
  param {
    lr_mult: 1
    decay_mult: 1
  }
  param {
    lr_mult: 2
    decay_mult: 0
  }
  convolution_param {
    num_output: 384
    weight_filler {
      type: "msra"
      std: 0.01
    }
    bias_filler {
      type: "constant"
    }
    pad_h: 1
    pad_w: 0
    kernel_h: 3
    kernel_w: 1
  }
}
layer {
  name: "relu4_1"
  type: "PReLU"
  bottom: "conv4_1"
  top: "conv4_1"
  prelu_param {
    filler {
      type: "constant"
      value: 0.3
    }
    channel_shared: false
  }
}
layer {
  name: "conv5"
  type: "Convolution"
  bottom: "conv4_1"
  top: "conv5"
  param {
    lr_mult: 1
    decay_mult: 1
  }
  param {
    lr_mult: 2
    decay_mult: 0
  }
  convolution_param {
    num_output: 256
    weight_filler {
      type: "msra"
      std: 0.01
    }
    bias_filler {
      type: "constant"
    }
    pad_h: 0
    pad_w: 1
    kernel_h: 1
    kernel_w: 3
  }
}
layer {
  name: "relu5"
  type: "PReLU"
  bottom: "conv5"
  top: "conv5"
  prelu_param {
    filler {
      type: "constant"
      value: 0.3
    }
    channel_shared: false
  }
}
layer {
  name: "conv5_1"
  type: "Convolution"
  bottom: "conv5"
  top: "conv5_1"
  param {
    lr_mult: 1
    decay_mult: 1
  }
  param {
    lr_mult: 2
    decay_mult: 0
  }
  convolution_param {
    num_output: 256
    weight_filler {
      type: "msra"
      std: 0.01
    }
    bias_filler {
      type: "constant"
    }
    pad_h: 1
    pad_w: 0
    kernel_h: 3
    kernel_w: 1
  }
}
layer {
  name: "relu5_1"
  type: "PReLU"
  bottom: "conv5_1"
  top: "conv5_1"
  prelu_param {
    filler {
      type: "constant"
      value: 0.3
    }
    channel_shared: false
  }
}
layer {
  name: "pool5"
  type: "Pooling"
  bottom: "conv5_1"
  top: "pool5"
  pooling_param {
    pool: MAX
    kernel_size: 3
    stride: 2
  }
}
layer {
  name: "conv5_1_BN"
  type: "BatchNorm"
  bottom: "pool5"
  top: "conv5_1_BN"
}
layer {
  name: "fc6"
  type: "InnerProduct"
  bottom: "conv5_1_BN"
  top: "fc6"
  param {
    lr_mult: 1
    decay_mult: 1
  }
  param {
    lr_mult: 2
    decay_mult: 0
  }
  inner_product_param {
    num_output: 2048
    weight_filler {
      type: "gaussian"
      std: 0.005
    }
    bias_filler {
      type: "constant"
    }
  }
}
layer {
  name: "relu6"
  type: "PReLU"
  bottom: "fc6"
  top: "fc6"
  prelu_param {
    filler {
      type: "constant"
      value: 0.3
    }
    channel_shared: false
  }
}
layer {
  name: "fc6_BN"
  type: "BatchNorm"
  bottom: "fc6"
  top: "fc6_BN"
}
layer {
  name: "drop6"
  type: "Dropout"
  bottom: "fc6_BN"
  top: "drop6"
  dropout_param {
    dropout_ratio: 0.35
  }
}
layer {
  name: "fc7"
  type: "InnerProduct"
  bottom: "drop6"
  top: "fc7"
  param {
    lr_mult: 1
    decay_mult: 1
  }
  param {
    lr_mult: 2
    decay_mult: 0
  }
  inner_product_param {
    num_output: 2048
    weight_filler {
      type: "gaussian"
      std: 0.005
    }
    bias_filler {
      type: "constant"
    }
  }
}
layer {
  name: "relu7"
  type: "PReLU"
  bottom: "fc7"
  top: "fc7"
  prelu_param {
    filler {
      type: "constant"
      value: 0.3
    }
    channel_shared: false
  }
}
layer {
  name: "drop7"
  type: "Dropout"
  bottom: "fc7"
  top: "drop7"
  dropout_param {
    dropout_ratio: 0.35
  }
}
layer {
  name: "fc8"
  type: "InnerProduct"
  bottom: "drop7"
  top: "fc8"
  param {
    lr_mult: 1
    decay_mult: 1
  }
  param {
    lr_mult: 2
    decay_mult: 0
  }
  inner_product_param {
    num_output: 1000
    weight_filler {
      type: "gaussian"
      std: 0.01
    }
    bias_filler {
      type: "constant"
    }
  }
}
layer {
  name: "accuracy"
  type: "Accuracy"
  bottom: "fc8"
  bottom: "label"
  top: "accuracy"
  include {
    phase: TEST
  }
}
layer {
  name: "loss"
  type: "SoftmaxWithLoss"
  bottom: "fc8"
  bottom: "label"
  top: "loss"
}
I0114 02:49:57.677448  2859 layer_factory.hpp:76] Creating layer data
I0114 02:49:57.677544  2859 net.cpp:106] Creating Layer data
I0114 02:49:57.677552  2859 net.cpp:411] data -> data
I0114 02:49:57.677561  2859 net.cpp:411] data -> label
I0114 02:49:57.678437  2867 db_lmdb.cpp:38] Opened lmdb /media/dereyly/data_one/data/CAFFE_DATA/ilsvrc12_val_lmdb_144
I0114 02:49:57.678587  2859 data_layer.cpp:41] output data size: 100,3,128,128
I0114 02:49:57.702780  2859 net.cpp:150] Setting up data
I0114 02:49:57.702805  2859 net.cpp:157] Top shape: 100 3 128 128 (4915200)
I0114 02:49:57.702811  2859 net.cpp:157] Top shape: 100 (100)
I0114 02:49:57.702813  2859 net.cpp:165] Memory required for data: 19661200
I0114 02:49:57.702818  2859 layer_factory.hpp:76] Creating layer label_data_1_split
I0114 02:49:57.702831  2859 net.cpp:106] Creating Layer label_data_1_split
I0114 02:49:57.702836  2859 net.cpp:454] label_data_1_split <- label
I0114 02:49:57.702854  2859 net.cpp:411] label_data_1_split -> label_data_1_split_0
I0114 02:49:57.702862  2859 net.cpp:411] label_data_1_split -> label_data_1_split_1
I0114 02:49:57.702929  2859 net.cpp:150] Setting up label_data_1_split
I0114 02:49:57.702934  2859 net.cpp:157] Top shape: 100 (100)
I0114 02:49:57.702939  2859 net.cpp:157] Top shape: 100 (100)
I0114 02:49:57.702941  2859 net.cpp:165] Memory required for data: 19662000
I0114 02:49:57.702944  2859 layer_factory.hpp:76] Creating layer conv1
I0114 02:49:57.702957  2859 net.cpp:106] Creating Layer conv1
I0114 02:49:57.702961  2859 net.cpp:454] conv1 <- data
I0114 02:49:57.702966  2859 net.cpp:411] conv1 -> conv1
I0114 02:49:57.706070  2859 net.cpp:150] Setting up conv1
I0114 02:49:57.706089  2859 net.cpp:157] Top shape: 100 96 30 30 (8640000)
I0114 02:49:57.706094  2859 net.cpp:165] Memory required for data: 54222000
I0114 02:49:57.706104  2859 layer_factory.hpp:76] Creating layer relu1
I0114 02:49:57.706111  2859 net.cpp:106] Creating Layer relu1
I0114 02:49:57.706115  2859 net.cpp:454] relu1 <- conv1
I0114 02:49:57.706122  2859 net.cpp:397] relu1 -> conv1 (in-place)
I0114 02:49:57.706260  2859 net.cpp:150] Setting up relu1
I0114 02:49:57.706269  2859 net.cpp:157] Top shape: 100 96 30 30 (8640000)
I0114 02:49:57.706272  2859 net.cpp:165] Memory required for data: 88782000
I0114 02:49:57.706279  2859 layer_factory.hpp:76] Creating layer pool1
I0114 02:49:57.706284  2859 net.cpp:106] Creating Layer pool1
I0114 02:49:57.706287  2859 net.cpp:454] pool1 <- conv1
I0114 02:49:57.706293  2859 net.cpp:411] pool1 -> pool1
I0114 02:49:57.706563  2859 net.cpp:150] Setting up pool1
I0114 02:49:57.706573  2859 net.cpp:157] Top shape: 100 96 15 15 (2160000)
I0114 02:49:57.706575  2859 net.cpp:165] Memory required for data: 97422000
I0114 02:49:57.706578  2859 layer_factory.hpp:76] Creating layer conv1_BN
I0114 02:49:57.706584  2859 net.cpp:106] Creating Layer conv1_BN
I0114 02:49:57.706588  2859 net.cpp:454] conv1_BN <- pool1
I0114 02:49:57.706593  2859 net.cpp:411] conv1_BN -> conv1_BN
I0114 02:49:57.706761  2859 net.cpp:150] Setting up conv1_BN
I0114 02:49:57.706768  2859 net.cpp:157] Top shape: 100 96 15 15 (2160000)
I0114 02:49:57.706771  2859 net.cpp:165] Memory required for data: 106062000
I0114 02:49:57.706780  2859 layer_factory.hpp:76] Creating layer conv2
I0114 02:49:57.706787  2859 net.cpp:106] Creating Layer conv2
I0114 02:49:57.706790  2859 net.cpp:454] conv2 <- conv1_BN
I0114 02:49:57.706796  2859 net.cpp:411] conv2 -> conv2
I0114 02:49:57.709683  2859 net.cpp:150] Setting up conv2
I0114 02:49:57.709697  2859 net.cpp:157] Top shape: 100 256 15 15 (5760000)
I0114 02:49:57.709702  2859 net.cpp:165] Memory required for data: 129102000
I0114 02:49:57.709707  2859 layer_factory.hpp:76] Creating layer relu2
I0114 02:49:57.709715  2859 net.cpp:106] Creating Layer relu2
I0114 02:49:57.709718  2859 net.cpp:454] relu2 <- conv2
I0114 02:49:57.709723  2859 net.cpp:397] relu2 -> conv2 (in-place)
I0114 02:49:57.709852  2859 net.cpp:150] Setting up relu2
I0114 02:49:57.709858  2859 net.cpp:157] Top shape: 100 256 15 15 (5760000)
I0114 02:49:57.709861  2859 net.cpp:165] Memory required for data: 152142000
I0114 02:49:57.709869  2859 layer_factory.hpp:76] Creating layer conv2_1
I0114 02:49:57.709878  2859 net.cpp:106] Creating Layer conv2_1
I0114 02:49:57.709882  2859 net.cpp:454] conv2_1 <- conv2
I0114 02:49:57.709887  2859 net.cpp:411] conv2_1 -> conv2_1
I0114 02:49:57.715665  2859 net.cpp:150] Setting up conv2_1
I0114 02:49:57.715687  2859 net.cpp:157] Top shape: 100 256 15 15 (5760000)
I0114 02:49:57.715692  2859 net.cpp:165] Memory required for data: 175182000
I0114 02:49:57.715699  2859 layer_factory.hpp:76] Creating layer relu2_1
I0114 02:49:57.715718  2859 net.cpp:106] Creating Layer relu2_1
I0114 02:49:57.715723  2859 net.cpp:454] relu2_1 <- conv2_1
I0114 02:49:57.715740  2859 net.cpp:397] relu2_1 -> conv2_1 (in-place)
I0114 02:49:57.716156  2859 net.cpp:150] Setting up relu2_1
I0114 02:49:57.716166  2859 net.cpp:157] Top shape: 100 256 15 15 (5760000)
I0114 02:49:57.716168  2859 net.cpp:165] Memory required for data: 198222000
I0114 02:49:57.716173  2859 layer_factory.hpp:76] Creating layer conv2_2
I0114 02:49:57.716208  2859 net.cpp:106] Creating Layer conv2_2
I0114 02:49:57.716213  2859 net.cpp:454] conv2_2 <- conv2_1
I0114 02:49:57.716220  2859 net.cpp:411] conv2_2 -> conv2_2
I0114 02:49:57.722214  2859 net.cpp:150] Setting up conv2_2
I0114 02:49:57.722232  2859 net.cpp:157] Top shape: 100 256 15 15 (5760000)
I0114 02:49:57.722235  2859 net.cpp:165] Memory required for data: 221262000
I0114 02:49:57.722254  2859 layer_factory.hpp:76] Creating layer relu2_2
I0114 02:49:57.722265  2859 net.cpp:106] Creating Layer relu2_2
I0114 02:49:57.722268  2859 net.cpp:454] relu2_2 <- conv2_2
I0114 02:49:57.722275  2859 net.cpp:397] relu2_2 -> conv2_2 (in-place)
I0114 02:49:57.722446  2859 net.cpp:150] Setting up relu2_2
I0114 02:49:57.722455  2859 net.cpp:157] Top shape: 100 256 15 15 (5760000)
I0114 02:49:57.722457  2859 net.cpp:165] Memory required for data: 244302000
I0114 02:49:57.722461  2859 layer_factory.hpp:76] Creating layer conv2_3
I0114 02:49:57.722481  2859 net.cpp:106] Creating Layer conv2_3
I0114 02:49:57.722484  2859 net.cpp:454] conv2_3 <- conv2_2
I0114 02:49:57.722489  2859 net.cpp:411] conv2_3 -> conv2_3
I0114 02:49:57.727929  2859 net.cpp:150] Setting up conv2_3
I0114 02:49:57.727946  2859 net.cpp:157] Top shape: 100 256 15 15 (5760000)
I0114 02:49:57.727948  2859 net.cpp:165] Memory required for data: 267342000
I0114 02:49:57.727972  2859 layer_factory.hpp:76] Creating layer relu2_3
I0114 02:49:57.727990  2859 net.cpp:106] Creating Layer relu2_3
I0114 02:49:57.727994  2859 net.cpp:454] relu2_3 <- conv2_3
I0114 02:49:57.728009  2859 net.cpp:397] relu2_3 -> conv2_3 (in-place)
I0114 02:49:57.728138  2859 net.cpp:150] Setting up relu2_3
I0114 02:49:57.728145  2859 net.cpp:157] Top shape: 100 256 15 15 (5760000)
I0114 02:49:57.728148  2859 net.cpp:165] Memory required for data: 290382000
I0114 02:49:57.728153  2859 layer_factory.hpp:76] Creating layer pool2
I0114 02:49:57.728171  2859 net.cpp:106] Creating Layer pool2
I0114 02:49:57.728185  2859 net.cpp:454] pool2 <- conv2_3
I0114 02:49:57.728190  2859 net.cpp:411] pool2 -> pool2
I0114 02:49:57.728454  2859 net.cpp:150] Setting up pool2
I0114 02:49:57.728464  2859 net.cpp:157] Top shape: 100 256 7 7 (1254400)
I0114 02:49:57.728478  2859 net.cpp:165] Memory required for data: 295399600
I0114 02:49:57.728482  2859 layer_factory.hpp:76] Creating layer conv2_BN
I0114 02:49:57.728500  2859 net.cpp:106] Creating Layer conv2_BN
I0114 02:49:57.728504  2859 net.cpp:454] conv2_BN <- pool2
I0114 02:49:57.728509  2859 net.cpp:411] conv2_BN -> conv2_BN
I0114 02:49:57.728694  2859 net.cpp:150] Setting up conv2_BN
I0114 02:49:57.728700  2859 net.cpp:157] Top shape: 100 256 7 7 (1254400)
I0114 02:49:57.728703  2859 net.cpp:165] Memory required for data: 300417200
I0114 02:49:57.728720  2859 layer_factory.hpp:76] Creating layer conv3
I0114 02:49:57.728740  2859 net.cpp:106] Creating Layer conv3
I0114 02:49:57.728744  2859 net.cpp:454] conv3 <- conv2_BN
I0114 02:49:57.728749  2859 net.cpp:411] conv3 -> conv3
I0114 02:49:57.736726  2859 net.cpp:150] Setting up conv3
I0114 02:49:57.736745  2859 net.cpp:157] Top shape: 100 384 7 7 (1881600)
I0114 02:49:57.736749  2859 net.cpp:165] Memory required for data: 307943600
I0114 02:49:57.736757  2859 layer_factory.hpp:76] Creating layer relu3
I0114 02:49:57.736796  2859 net.cpp:106] Creating Layer relu3
I0114 02:49:57.736802  2859 net.cpp:454] relu3 <- conv3
I0114 02:49:57.736809  2859 net.cpp:397] relu3 -> conv3 (in-place)
I0114 02:49:57.736906  2859 net.cpp:150] Setting up relu3
I0114 02:49:57.736912  2859 net.cpp:157] Top shape: 100 384 7 7 (1881600)
I0114 02:49:57.736915  2859 net.cpp:165] Memory required for data: 315470000
I0114 02:49:57.736919  2859 layer_factory.hpp:76] Creating layer conv3_1
I0114 02:49:57.736928  2859 net.cpp:106] Creating Layer conv3_1
I0114 02:49:57.736932  2859 net.cpp:454] conv3_1 <- conv3
I0114 02:49:57.736937  2859 net.cpp:411] conv3_1 -> conv3_1
I0114 02:49:57.747943  2859 net.cpp:150] Setting up conv3_1
I0114 02:49:57.747963  2859 net.cpp:157] Top shape: 100 384 7 7 (1881600)
I0114 02:49:57.747967  2859 net.cpp:165] Memory required for data: 322996400
I0114 02:49:57.747974  2859 layer_factory.hpp:76] Creating layer relu3_1
I0114 02:49:57.747983  2859 net.cpp:106] Creating Layer relu3_1
I0114 02:49:57.747987  2859 net.cpp:454] relu3_1 <- conv3_1
I0114 02:49:57.748003  2859 net.cpp:397] relu3_1 -> conv3_1 (in-place)
I0114 02:49:57.748112  2859 net.cpp:150] Setting up relu3_1
I0114 02:49:57.748119  2859 net.cpp:157] Top shape: 100 384 7 7 (1881600)
I0114 02:49:57.748122  2859 net.cpp:165] Memory required for data: 330522800
I0114 02:49:57.748136  2859 layer_factory.hpp:76] Creating layer conv4
I0114 02:49:57.748144  2859 net.cpp:106] Creating Layer conv4
I0114 02:49:57.748148  2859 net.cpp:454] conv4 <- conv3_1
I0114 02:49:57.748153  2859 net.cpp:411] conv4 -> conv4
I0114 02:49:57.759107  2859 net.cpp:150] Setting up conv4
I0114 02:49:57.759137  2859 net.cpp:157] Top shape: 100 384 7 7 (1881600)
I0114 02:49:57.759141  2859 net.cpp:165] Memory required for data: 338049200
I0114 02:49:57.759150  2859 layer_factory.hpp:76] Creating layer relu4
I0114 02:49:57.759160  2859 net.cpp:106] Creating Layer relu4
I0114 02:49:57.759166  2859 net.cpp:454] relu4 <- conv4
I0114 02:49:57.759181  2859 net.cpp:397] relu4 -> conv4 (in-place)
I0114 02:49:57.759290  2859 net.cpp:150] Setting up relu4
I0114 02:49:57.759297  2859 net.cpp:157] Top shape: 100 384 7 7 (1881600)
I0114 02:49:57.759300  2859 net.cpp:165] Memory required for data: 345575600
I0114 02:49:57.759305  2859 layer_factory.hpp:76] Creating layer conv4_1
I0114 02:49:57.759332  2859 net.cpp:106] Creating Layer conv4_1
I0114 02:49:57.759336  2859 net.cpp:454] conv4_1 <- conv4
I0114 02:49:57.759341  2859 net.cpp:411] conv4_1 -> conv4_1
I0114 02:49:57.769345  2859 net.cpp:150] Setting up conv4_1
I0114 02:49:57.769359  2859 net.cpp:157] Top shape: 100 384 7 7 (1881600)
I0114 02:49:57.769363  2859 net.cpp:165] Memory required for data: 353102000
I0114 02:49:57.769381  2859 layer_factory.hpp:76] Creating layer relu4_1
I0114 02:49:57.769387  2859 net.cpp:106] Creating Layer relu4_1
I0114 02:49:57.769402  2859 net.cpp:454] relu4_1 <- conv4_1
I0114 02:49:57.769410  2859 net.cpp:397] relu4_1 -> conv4_1 (in-place)
I0114 02:49:57.769511  2859 net.cpp:150] Setting up relu4_1
I0114 02:49:57.769518  2859 net.cpp:157] Top shape: 100 384 7 7 (1881600)
I0114 02:49:57.769521  2859 net.cpp:165] Memory required for data: 360628400
I0114 02:49:57.769542  2859 layer_factory.hpp:76] Creating layer conv5
I0114 02:49:57.769552  2859 net.cpp:106] Creating Layer conv5
I0114 02:49:57.769556  2859 net.cpp:454] conv5 <- conv4_1
I0114 02:49:57.769562  2859 net.cpp:411] conv5 -> conv5
I0114 02:49:57.776425  2859 net.cpp:150] Setting up conv5
I0114 02:49:57.776438  2859 net.cpp:157] Top shape: 100 256 7 7 (1254400)
I0114 02:49:57.776453  2859 net.cpp:165] Memory required for data: 365646000
I0114 02:49:57.776458  2859 layer_factory.hpp:76] Creating layer relu5
I0114 02:49:57.776463  2859 net.cpp:106] Creating Layer relu5
I0114 02:49:57.776468  2859 net.cpp:454] relu5 <- conv5
I0114 02:49:57.776473  2859 net.cpp:397] relu5 -> conv5 (in-place)
I0114 02:49:57.776557  2859 net.cpp:150] Setting up relu5
I0114 02:49:57.776563  2859 net.cpp:157] Top shape: 100 256 7 7 (1254400)
I0114 02:49:57.776566  2859 net.cpp:165] Memory required for data: 370663600
I0114 02:49:57.776595  2859 layer_factory.hpp:76] Creating layer conv5_1
I0114 02:49:57.776602  2859 net.cpp:106] Creating Layer conv5_1
I0114 02:49:57.776607  2859 net.cpp:454] conv5_1 <- conv5
I0114 02:49:57.776613  2859 net.cpp:411] conv5_1 -> conv5_1
I0114 02:49:57.781492  2859 net.cpp:150] Setting up conv5_1
I0114 02:49:57.781514  2859 net.cpp:157] Top shape: 100 256 7 7 (1254400)
I0114 02:49:57.781518  2859 net.cpp:165] Memory required for data: 375681200
I0114 02:49:57.781524  2859 layer_factory.hpp:76] Creating layer relu5_1
I0114 02:49:57.781532  2859 net.cpp:106] Creating Layer relu5_1
I0114 02:49:57.781535  2859 net.cpp:454] relu5_1 <- conv5_1
I0114 02:49:57.781540  2859 net.cpp:397] relu5_1 -> conv5_1 (in-place)
I0114 02:49:57.781626  2859 net.cpp:150] Setting up relu5_1
I0114 02:49:57.781646  2859 net.cpp:157] Top shape: 100 256 7 7 (1254400)
I0114 02:49:57.781651  2859 net.cpp:165] Memory required for data: 380698800
I0114 02:49:57.781658  2859 layer_factory.hpp:76] Creating layer pool5
I0114 02:49:57.781667  2859 net.cpp:106] Creating Layer pool5
I0114 02:49:57.781692  2859 net.cpp:454] pool5 <- conv5_1
I0114 02:49:57.781704  2859 net.cpp:411] pool5 -> pool5
I0114 02:49:57.781970  2859 net.cpp:150] Setting up pool5
I0114 02:49:57.781980  2859 net.cpp:157] Top shape: 100 256 3 3 (230400)
I0114 02:49:57.781994  2859 net.cpp:165] Memory required for data: 381620400
I0114 02:49:57.781998  2859 layer_factory.hpp:76] Creating layer conv5_1_BN
I0114 02:49:57.782004  2859 net.cpp:106] Creating Layer conv5_1_BN
I0114 02:49:57.782008  2859 net.cpp:454] conv5_1_BN <- pool5
I0114 02:49:57.782012  2859 net.cpp:411] conv5_1_BN -> conv5_1_BN
I0114 02:49:57.782202  2859 net.cpp:150] Setting up conv5_1_BN
I0114 02:49:57.782208  2859 net.cpp:157] Top shape: 100 256 3 3 (230400)
I0114 02:49:57.782212  2859 net.cpp:165] Memory required for data: 382542000
I0114 02:49:57.782218  2859 layer_factory.hpp:76] Creating layer fc6
I0114 02:49:57.782225  2859 net.cpp:106] Creating Layer fc6
I0114 02:49:57.782228  2859 net.cpp:454] fc6 <- conv5_1_BN
I0114 02:49:57.782244  2859 net.cpp:411] fc6 -> fc6
I0114 02:49:57.879528  2859 net.cpp:150] Setting up fc6
I0114 02:49:57.879549  2859 net.cpp:157] Top shape: 100 2048 (204800)
I0114 02:49:57.879554  2859 net.cpp:165] Memory required for data: 383361200
I0114 02:49:57.879561  2859 layer_factory.hpp:76] Creating layer relu6
I0114 02:49:57.879571  2859 net.cpp:106] Creating Layer relu6
I0114 02:49:57.879586  2859 net.cpp:454] relu6 <- fc6
I0114 02:49:57.879592  2859 net.cpp:397] relu6 -> fc6 (in-place)
I0114 02:49:57.879698  2859 net.cpp:150] Setting up relu6
I0114 02:49:57.879704  2859 net.cpp:157] Top shape: 100 2048 (204800)
I0114 02:49:57.879719  2859 net.cpp:165] Memory required for data: 384180400
I0114 02:49:57.879722  2859 layer_factory.hpp:76] Creating layer fc6_BN
I0114 02:49:57.879744  2859 net.cpp:106] Creating Layer fc6_BN
I0114 02:49:57.879747  2859 net.cpp:454] fc6_BN <- fc6
I0114 02:49:57.879751  2859 net.cpp:411] fc6_BN -> fc6_BN
I0114 02:49:57.879930  2859 net.cpp:150] Setting up fc6_BN
I0114 02:49:57.879936  2859 net.cpp:157] Top shape: 100 2048 (204800)
I0114 02:49:57.879940  2859 net.cpp:165] Memory required for data: 384999600
I0114 02:49:57.879945  2859 layer_factory.hpp:76] Creating layer drop6
I0114 02:49:57.879951  2859 net.cpp:106] Creating Layer drop6
I0114 02:49:57.879955  2859 net.cpp:454] drop6 <- fc6_BN
I0114 02:49:57.879969  2859 net.cpp:411] drop6 -> drop6
I0114 02:49:57.880002  2859 net.cpp:150] Setting up drop6
I0114 02:49:57.880019  2859 net.cpp:157] Top shape: 100 2048 (204800)
I0114 02:49:57.880023  2859 net.cpp:165] Memory required for data: 385818800
I0114 02:49:57.880025  2859 layer_factory.hpp:76] Creating layer fc7
I0114 02:49:57.880031  2859 net.cpp:106] Creating Layer fc7
I0114 02:49:57.880034  2859 net.cpp:454] fc7 <- drop6
I0114 02:49:57.880039  2859 net.cpp:411] fc7 -> fc7
I0114 02:49:57.966840  2859 net.cpp:150] Setting up fc7
I0114 02:49:57.966864  2859 net.cpp:157] Top shape: 100 2048 (204800)
I0114 02:49:57.966867  2859 net.cpp:165] Memory required for data: 386638000
I0114 02:49:57.966903  2859 layer_factory.hpp:76] Creating layer relu7
I0114 02:49:57.966914  2859 net.cpp:106] Creating Layer relu7
I0114 02:49:57.966930  2859 net.cpp:454] relu7 <- fc7
I0114 02:49:57.966938  2859 net.cpp:397] relu7 -> fc7 (in-place)
I0114 02:49:57.967037  2859 net.cpp:150] Setting up relu7
I0114 02:49:57.967044  2859 net.cpp:157] Top shape: 100 2048 (204800)
I0114 02:49:57.967057  2859 net.cpp:165] Memory required for data: 387457200
I0114 02:49:57.967061  2859 layer_factory.hpp:76] Creating layer drop7
I0114 02:49:57.967068  2859 net.cpp:106] Creating Layer drop7
I0114 02:49:57.967083  2859 net.cpp:454] drop7 <- fc7
I0114 02:49:57.967087  2859 net.cpp:411] drop7 -> drop7
I0114 02:49:57.967133  2859 net.cpp:150] Setting up drop7
I0114 02:49:57.967139  2859 net.cpp:157] Top shape: 100 2048 (204800)
I0114 02:49:57.967152  2859 net.cpp:165] Memory required for data: 388276400
I0114 02:49:57.967155  2859 layer_factory.hpp:76] Creating layer fc8
I0114 02:49:57.967172  2859 net.cpp:106] Creating Layer fc8
I0114 02:49:57.967175  2859 net.cpp:454] fc8 <- drop7
I0114 02:49:57.967182  2859 net.cpp:411] fc8 -> fc8
I0114 02:49:58.010262  2859 net.cpp:150] Setting up fc8
I0114 02:49:58.010295  2859 net.cpp:157] Top shape: 100 1000 (100000)
I0114 02:49:58.010300  2859 net.cpp:165] Memory required for data: 388676400
I0114 02:49:58.010308  2859 layer_factory.hpp:76] Creating layer fc8_fc8_0_split
I0114 02:49:58.010316  2859 net.cpp:106] Creating Layer fc8_fc8_0_split
I0114 02:49:58.010321  2859 net.cpp:454] fc8_fc8_0_split <- fc8
I0114 02:49:58.010340  2859 net.cpp:411] fc8_fc8_0_split -> fc8_fc8_0_split_0
I0114 02:49:58.010349  2859 net.cpp:411] fc8_fc8_0_split -> fc8_fc8_0_split_1
I0114 02:49:58.010393  2859 net.cpp:150] Setting up fc8_fc8_0_split
I0114 02:49:58.010411  2859 net.cpp:157] Top shape: 100 1000 (100000)
I0114 02:49:58.010414  2859 net.cpp:157] Top shape: 100 1000 (100000)
I0114 02:49:58.010428  2859 net.cpp:165] Memory required for data: 389476400
I0114 02:49:58.010432  2859 layer_factory.hpp:76] Creating layer accuracy
I0114 02:49:58.010440  2859 net.cpp:106] Creating Layer accuracy
I0114 02:49:58.010443  2859 net.cpp:454] accuracy <- fc8_fc8_0_split_0
I0114 02:49:58.010447  2859 net.cpp:454] accuracy <- label_data_1_split_0
I0114 02:49:58.010452  2859 net.cpp:411] accuracy -> accuracy
…
