…
      crop_size: 128
      mean_value: 104
      mean_value: 117
      mean_value: 123
      force_color: true
      resize_param {
        prob: 1
        resize_mode: FIT_SMALL_SIZE
        height: 144
        width: 144
        pad_mode: MIRRORED
        pad_value: 104
        pad_value: 117
        pad_value: 124
        interp_mode: CUBIC
        center_object: false
        max_angle: 0
      }
    }
    data_param {
      source: "/home/share/storage/datasets/imagenet/lmdb/ilsvrc12_val_lmdb"
      batch_size: 50
      backend: LMDB
    }
  }
  layer {
    name: "conv1"
    type: "Convolution"
    bottom: "data"
    top: "conv1"
    param {
      lr_mult: 1
      decay_mult: 1
    }
    param {
      lr_mult: 2
      decay_mult: 0
    }
    convolution_param {
      num_output: 96
      kernel_size: 11
      stride: 4
      weight_filler {
        type: "gaussian"
        std: 0.01
      }
      bias_filler {
        type: "constant"
      }
    }
  }
  layer {
    name: "relu1"
    type: "ReLU"
    bottom: "conv1"
    top: "conv1"
  }
  layer {
    name: "pool1"
    type: "Pooling"
    bottom: "conv1"
    top: "pool1"
    pooling_param {
      pool: MAX
      kernel_size: 3
      stride: 2
    }
  }
  layer {
    name: "conv2"
    type: "Convolution"
    bottom: "pool1"
    top: "conv2"
    param {
      lr_mult: 1
      decay_mult: 1
    }
    param {
      lr_mult: 2
      decay_mult: 0
    }
    convolution_param {
      num_output: 256
      pad: 2
      kernel_size: 5
      group: 2
      weight_filler {
        type: "gaussian"
        std: 0.01
      }
      bias_filler {
        type: "constant"
      }
    }
  }
  layer {
    name: "relu2"
    type: "ReLU"
    bottom: "conv2"
    top: "conv2"
  }
  layer {
    name: "pool2"
    type: "Pooling"
    bottom: "conv2"
    top: "pool2"
    pooling_param {
      pool: MAX
      kernel_size: 3
      stride: 2
    }
  }
  layer {
    name: "conv3"
    type: "Convolution"
    bottom: "pool2"
    top: "conv3"
    param {
      lr_mult: 1
      decay_mult: 1
    }
    param {
      lr_mult: 2
      decay_mult: 0
    }
    convolution_param {
      num_output: 384
      pad: 1
      kernel_size: 3
      weight_filler {
        type: "gaussian"
        std: 0.01
      }
      bias_filler {
        type: "constant"
      }
    }
  }
  layer {
    name: "relu3"
    type: "ReLU"
    bottom: "conv3"
    top: "conv3"
  }
  layer {
    name: "conv4"
    type: "Convolution"
    bottom: "conv3"
    top: "conv4"
    param {
      lr_mult: 1
      decay_mult: 1
    }
    param {
      lr_mult: 2
      decay_mult: 0
    }
    convolution_param {
      num_output: 384
      pad: 1
      kernel_size: 3
      group: 2
      weight_filler {
        type: "gaussian"
        std: 0.01
      }
      bias_filler {
        type: "constant"
      }
    }
  }
  layer {
    name: "relu4"
    type: "ReLU"
    bottom: "conv4"
    top: "conv4"
  }
  layer {
    name: "conv5"
    type: "Convolution"
    bottom: "conv4"
    top: "conv5"
    param {
      lr_mult: 1
      decay_mult: 1
    }
    param {
      lr_mult: 2
      decay_mult: 0
    }
    convolution_param {
      num_output: 256
      pad: 1
      kernel_size: 3
      group: 2
      weight_filler {
        type: "gaussian"
        std: 0.01
      }
      bias_filler {
        type: "constant"
      }
    }
  }
  layer {
    name: "relu5"
    type: "ReLU"
    bottom: "conv5"
    top: "conv5"
  }
  layer {
    name: "pool5"
    type: "Pooling"
    bottom: "conv5"
    top: "pool5"
    pooling_param {
      pool: MAX
      kernel_size: 3
      stride: 2
    }
  }
  layer {
    name: "fc6"
    type: "InnerProduct"
    bottom: "pool5"
    top: "fc6"
    param {
      lr_mult: 1
      decay_mult: 1
    }
    param {
      lr_mult: 2
      decay_mult: 0
    }
    inner_product_param {
      num_output: 2048
      weight_filler {
        type: "gaussian"
        std: 0.005
      }
      bias_filler {
        type: "constant"
      }
    }
  }
  layer {
    name: "relu6"
    type: "ReLU"
    bottom: "fc6"
    top: "fc6"
  }
  layer {
    name: "drop6"
    type: "Dropout"
    bottom: "fc6"
    top: "fc6"
    dropout_param {
      dropout_ratio: 0.5
    }
  }
  layer {
    name: "fc7"
    type: "InnerProduct"
    bottom: "fc6"
    top: "fc7"
    param {
      lr_mult: 1
      decay_mult: 1
    }
    param {
      lr_mult: 2
      decay_mult: 0
    }
    inner_product_param {
      num_output: 2048
      weight_filler {
        type: "gaussian"
        std: 0.005
      }
      bias_filler {
        type: "constant"
      }
    }
  }
  layer {
    name: "relu7"
    type: "ReLU"
    bottom: "fc7"
    top: "fc7"
  }
  layer {
    name: "drop7"
    type: "Dropout"
    bottom: "fc7"
    top: "fc7"
    dropout_param {
      dropout_ratio: 0.5
    }
  }
  layer {
    name: "fc8"
    type: "InnerProduct"
    bottom: "fc7"
    top: "fc8"
    param {
      lr_mult: 1
      decay_mult: 1
    }
    param {
      lr_mult: 2
      decay_mult: 0
    }
    inner_product_param {
      num_output: 1000
      weight_filler {
        type: "gaussian"
        std: 0.01
      }
      bias_filler {
        type: "constant"
      }
    }
  }
  layer {
    name: "accuracy"
    type: "Accuracy"
    bottom: "fc8"
    bottom: "label"
    top: "accuracy"
    include {
      phase: TEST
    }
  }
  layer {
    name: "loss"
    type: "SoftmaxWithLoss"
    bottom: "fc8"
    bottom: "label"
    top: "loss"
  }
}
average_loss: 20
iter_size: 1
type: "SGD"
I0115 09:09:04.959374 17556 solver.cpp:86] Creating training net specified in net_param.
I0115 09:09:04.959452 17556 net.cpp:322] The NetState phase (0) differed from the phase (1) specified by a rule in layer data
I0115 09:09:04.959466 17556 net.cpp:322] The NetState phase (0) differed from the phase (1) specified by a rule in layer accuracy
I0115 09:09:04.959595 17556 net.cpp:49] Initializing net from parameters: 
name: "CaffeNet"
state {
  phase: TRAIN
}
layer {
  name: "data"
  type: "Data"
  top: "data"
  top: "label"
  include {
    phase: TRAIN
  }
  transform_param {
    scale: 0.04
    mirror: true
    crop_size: 128
    mean_value: 104
    mean_value: 117
    mean_value: 124
    force_color: true
    resize_param {
      prob: 1
      resize_mode: FIT_SMALL_SIZE
      height: 144
      width: 144
      pad_mode: MIRRORED
      pad_value: 104
      pad_value: 117
      pad_value: 124
      interp_mode: CUBIC
      center_object: false
      max_angle: 0
    }
  }
  data_param {
    source: "/home/share/storage/datasets/imagenet/lmdb/ilsvrc12_train_lmdb"
    batch_size: 256
    backend: LMDB
  }
}
layer {
  name: "conv1"
  type: "Convolution"
  bottom: "data"
  top: "conv1"
  param {
    lr_mult: 1
    decay_mult: 1
  }
  param {
    lr_mult: 2
    decay_mult: 0
  }
  convolution_param {
    num_output: 96
    kernel_size: 11
    stride: 4
    weight_filler {
      type: "gaussian"
      std: 0.01
    }
    bias_filler {
      type: "constant"
    }
  }
}
layer {
  name: "relu1"
  type: "ReLU"
  bottom: "conv1"
  top: "conv1"
}
layer {
  name: "pool1"
  type: "Pooling"
  bottom: "conv1"
  top: "pool1"
  pooling_param {
    pool: MAX
    kernel_size: 3
    stride: 2
  }
}
layer {
  name: "conv2"
  type: "Convolution"
  bottom: "pool1"
  top: "conv2"
  param {
    lr_mult: 1
    decay_mult: 1
  }
  param {
    lr_mult: 2
    decay_mult: 0
  }
  convolution_param {
    num_output: 256
    pad: 2
    kernel_size: 5
    group: 2
    weight_filler {
      type: "gaussian"
      std: 0.01
    }
    bias_filler {
      type: "constant"
    }
  }
}
layer {
  name: "relu2"
  type: "ReLU"
  bottom: "conv2"
  top: "conv2"
}
layer {
  name: "pool2"
  type: "Pooling"
  bottom: "conv2"
  top: "pool2"
  pooling_param {
    pool: MAX
    kernel_size: 3
    stride: 2
  }
}
layer {
  name: "conv3"
  type: "Convolution"
  bottom: "pool2"
  top: "conv3"
  param {
    lr_mult: 1
    decay_mult: 1
  }
  param {
    lr_mult: 2
    decay_mult: 0
  }
  convolution_param {
    num_output: 384
    pad: 1
    kernel_size: 3
    weight_filler {
      type: "gaussian"
      std: 0.01
    }
    bias_filler {
      type: "constant"
    }
  }
}
layer {
  name: "relu3"
  type: "ReLU"
  bottom: "conv3"
  top: "conv3"
}
layer {
  name: "conv4"
  type: "Convolution"
  bottom: "conv3"
  top: "conv4"
  param {
    lr_mult: 1
    decay_mult: 1
  }
  param {
    lr_mult: 2
    decay_mult: 0
  }
  convolution_param {
    num_output: 384
    pad: 1
    kernel_size: 3
    group: 2
    weight_filler {
      type: "gaussian"
      std: 0.01
    }
    bias_filler {
      type: "constant"
    }
  }
}
layer {
  name: "relu4"
  type: "ReLU"
  bottom: "conv4"
  top: "conv4"
}
layer {
  name: "conv5"
  type: "Convolution"
  bottom: "conv4"
  top: "conv5"
  param {
    lr_mult: 1
    decay_mult: 1
  }
  param {
    lr_mult: 2
    decay_mult: 0
  }
  convolution_param {
    num_output: 256
    pad: 1
    kernel_size: 3
    group: 2
    weight_filler {
      type: "gaussian"
      std: 0.01
    }
    bias_filler {
      type: "constant"
    }
  }
}
layer {
  name: "relu5"
  type: "ReLU"
  bottom: "conv5"
  top: "conv5"
}
layer {
  name: "pool5"
  type: "Pooling"
  bottom: "conv5"
  top: "pool5"
  pooling_param {
    pool: MAX
    kernel_size: 3
    stride: 2
  }
}
layer {
  name: "fc6"
  type: "InnerProduct"
  bottom: "pool5"
  top: "fc6"
  param {
    lr_mult: 1
    decay_mult: 1
  }
  param {
    lr_mult: 2
    decay_mult: 0
  }
  inner_product_param {
    num_output: 2048
    weight_filler {
      type: "gaussian"
      std: 0.005
    }
    bias_filler {
      type: "constant"
    }
  }
}
layer {
  name: "relu6"
  type: "ReLU"
  bottom: "fc6"
  top: "fc6"
}
layer {
  name: "drop6"
  type: "Dropout"
  bottom: "fc6"
  top: "fc6"
  dropout_param {
    dropout_ratio: 0.5
  }
}
layer {
  name: "fc7"
  type: "InnerProduct"
  bottom: "fc6"
  top: "fc7"
  param {
    lr_mult: 1
    decay_mult: 1
  }
  param {
    lr_mult: 2
    decay_mult: 0
  }
  inner_product_param {
    num_output: 2048
    weight_filler {
      type: "gaussian"
      std: 0.005
    }
    bias_filler {
      type: "constant"
    }
  }
}
layer {
  name: "relu7"
  type: "ReLU"
  bottom: "fc7"
  top: "fc7"
}
layer {
  name: "drop7"
  type: "Dropout"
  bottom: "fc7"
  top: "fc7"
  dropout_param {
    dropout_ratio: 0.5
  }
}
layer {
  name: "fc8"
  type: "InnerProduct"
  bottom: "fc7"
  top: "fc8"
  param {
    lr_mult: 1
    decay_mult: 1
  }
  param {
    lr_mult: 2
    decay_mult: 0
  }
  inner_product_param {
    num_output: 1000
    weight_filler {
      type: "gaussian"
      std: 0.01
    }
    bias_filler {
      type: "constant"
    }
  }
}
layer {
  name: "loss"
  type: "SoftmaxWithLoss"
  bottom: "fc8"
  bottom: "label"
  top: "loss"
}
I0115 09:09:04.959681 17556 layer_factory.hpp:76] Creating layer data
I0115 09:09:04.960183 17556 net.cpp:106] Creating Layer data
I0115 09:09:04.960201 17556 net.cpp:411] data -> data
I0115 09:09:04.960225 17556 net.cpp:411] data -> label
I0115 09:09:04.960875 17560 db_lmdb.cpp:38] Opened lmdb /home/share/storage/datasets/imagenet/lmdb/ilsvrc12_train_lmdb
I0115 09:09:04.970556 17556 data_layer.cpp:41] output data size: 256,3,128,128
I0115 09:09:05.046648 17556 net.cpp:150] Setting up data
I0115 09:09:05.046685 17556 net.cpp:157] Top shape: 256 3 128 128 (12582912)
I0115 09:09:05.046691 17556 net.cpp:157] Top shape: 256 (256)
I0115 09:09:05.046694 17556 net.cpp:165] Memory required for data: 50332672
I0115 09:09:05.046711 17556 layer_factory.hpp:76] Creating layer conv1
I0115 09:09:05.046730 17556 net.cpp:106] Creating Layer conv1
I0115 09:09:05.046735 17556 net.cpp:454] conv1 <- data
I0115 09:09:05.046748 17556 net.cpp:411] conv1 -> conv1
I0115 09:09:05.178333 17556 net.cpp:150] Setting up conv1
I0115 09:09:05.178364 17556 net.cpp:157] Top shape: 256 96 30 30 (22118400)
I0115 09:09:05.178365 17556 net.cpp:165] Memory required for data: 138806272
I0115 09:09:05.178391 17556 layer_factory.hpp:76] Creating layer relu1
I0115 09:09:05.178400 17556 net.cpp:106] Creating Layer relu1
I0115 09:09:05.178403 17556 net.cpp:454] relu1 <- conv1
I0115 09:09:05.178407 17556 net.cpp:397] relu1 -> conv1 (in-place)
I0115 09:09:05.178539 17556 net.cpp:150] Setting up relu1
I0115 09:09:05.178544 17556 net.cpp:157] Top shape: 256 96 30 30 (22118400)
I0115 09:09:05.178546 17556 net.cpp:165] Memory required for data: 227279872
I0115 09:09:05.178549 17556 layer_factory.hpp:76] Creating layer pool1
I0115 09:09:05.178562 17556 net.cpp:106] Creating Layer pool1
I0115 09:09:05.178565 17556 net.cpp:454] pool1 <- conv1
I0115 09:09:05.178568 17556 net.cpp:411] pool1 -> pool1
I0115 09:09:05.178860 17556 net.cpp:150] Setting up pool1
I0115 09:09:05.178867 17556 net.cpp:157] Top shape: 256 96 15 15 (5529600)
I0115 09:09:05.178879 17556 net.cpp:165] Memory required for data: 249398272
I0115 09:09:05.178881 17556 layer_factory.hpp:76] Creating layer conv2
I0115 09:09:05.178889 17556 net.cpp:106] Creating Layer conv2
I0115 09:09:05.178891 17556 net.cpp:454] conv2 <- pool1
I0115 09:09:05.178905 17556 net.cpp:411] conv2 -> conv2
I0115 09:09:05.187144 17556 net.cpp:150] Setting up conv2
I0115 09:09:05.187167 17556 net.cpp:157] Top shape: 256 256 15 15 (14745600)
I0115 09:09:05.187170 17556 net.cpp:165] Memory required for data: 308380672
I0115 09:09:05.187177 17556 layer_factory.hpp:76] Creating layer relu2
I0115 09:09:05.187181 17556 net.cpp:106] Creating Layer relu2
I0115 09:09:05.187193 17556 net.cpp:454] relu2 <- conv2
I0115 09:09:05.187197 17556 net.cpp:397] relu2 -> conv2 (in-place)
I0115 09:09:05.187436 17556 net.cpp:150] Setting up relu2
I0115 09:09:05.187443 17556 net.cpp:157] Top shape: 256 256 15 15 (14745600)
I0115 09:09:05.187454 17556 net.cpp:165] Memory required for data: 367363072
I0115 09:09:05.187456 17556 layer_factory.hpp:76] Creating layer pool2
I0115 09:09:05.187461 17556 net.cpp:106] Creating Layer pool2
I0115 09:09:05.187463 17556 net.cpp:454] pool2 <- conv2
I0115 09:09:05.187476 17556 net.cpp:411] pool2 -> pool2
I0115 09:09:05.187752 17556 net.cpp:150] Setting up pool2
I0115 09:09:05.187758 17556 net.cpp:157] Top shape: 256 256 7 7 (3211264)
I0115 09:09:05.187769 17556 net.cpp:165] Memory required for data: 380208128
I0115 09:09:05.187772 17556 layer_factory.hpp:76] Creating layer conv3
I0115 09:09:05.187778 17556 net.cpp:106] Creating Layer conv3
I0115 09:09:05.187789 17556 net.cpp:454] conv3 <- pool2
I0115 09:09:05.187793 17556 net.cpp:411] conv3 -> conv3
I0115 09:09:05.209113 17556 net.cpp:150] Setting up conv3
I0115 09:09:05.209141 17556 net.cpp:157] Top shape: 256 384 7 7 (4816896)
I0115 09:09:05.209146 17556 net.cpp:165] Memory required for data: 399475712
I0115 09:09:05.209156 17556 layer_factory.hpp:76] Creating layer relu3
I0115 09:09:05.209173 17556 net.cpp:106] Creating Layer relu3
I0115 09:09:05.209177 17556 net.cpp:454] relu3 <- conv3
I0115 09:09:05.209182 17556 net.cpp:397] relu3 -> conv3 (in-place)
I0115 09:09:05.209432 17556 net.cpp:150] Setting up relu3
I0115 09:09:05.209439 17556 net.cpp:157] Top shape: 256 384 7 7 (4816896)
I0115 09:09:05.209450 17556 net.cpp:165] Memory required for data: 418743296
I0115 09:09:05.209481 17556 layer_factory.hpp:76] Creating layer conv4
I0115 09:09:05.209491 17556 net.cpp:106] Creating Layer conv4
I0115 09:09:05.209492 17556 net.cpp:454] conv4 <- conv3
I0115 09:09:05.209496 17556 net.cpp:411] conv4 -> conv4
I0115 09:09:05.226379 17556 net.cpp:150] Setting up conv4
I0115 09:09:05.226418 17556 net.cpp:157] Top shape: 256 384 7 7 (4816896)
I0115 09:09:05.226421 17556 net.cpp:165] Memory required for data: 438010880
I0115 09:09:05.226428 17556 layer_factory.hpp:76] Creating layer relu4
I0115 09:09:05.226436 17556 net.cpp:106] Creating Layer relu4
I0115 09:09:05.226439 17556 net.cpp:454] relu4 <- conv4
I0115 09:09:05.226445 17556 net.cpp:397] relu4 -> conv4 (in-place)
I0115 09:09:05.226686 17556 net.cpp:150] Setting up relu4
I0115 09:09:05.226692 17556 net.cpp:157] Top shape: 256 384 7 7 (4816896)
I0115 09:09:05.226694 17556 net.cpp:165] Memory required for data: 457278464
I0115 09:09:05.226696 17556 layer_factory.hpp:76] Creating layer conv5
I0115 09:09:05.226704 17556 net.cpp:106] Creating Layer conv5
I0115 09:09:05.226706 17556 net.cpp:454] conv5 <- conv4
I0115 09:09:05.226711 17556 net.cpp:411] conv5 -> conv5
I0115 09:09:05.238456 17556 net.cpp:150] Setting up conv5
I0115 09:09:05.238481 17556 net.cpp:157] Top shape: 256 256 7 7 (3211264)
I0115 09:09:05.238482 17556 net.cpp:165] Memory required for data: 470123520
I0115 09:09:05.238490 17556 layer_factory.hpp:76] Creating layer relu5
I0115 09:09:05.238497 17556 net.cpp:106] Creating Layer relu5
I0115 09:09:05.238509 17556 net.cpp:454] relu5 <- conv5
I0115 09:09:05.238513 17556 net.cpp:397] relu5 -> conv5 (in-place)
I0115 09:09:05.238665 17556 net.cpp:150] Setting up relu5
I0115 09:09:05.238672 17556 net.cpp:157] Top shape: 256 256 7 7 (3211264)
I0115 09:09:05.238682 17556 net.cpp:165] Memory required for data: 482968576
I0115 09:09:05.238685 17556 layer_factory.hpp:76] Creating layer pool5
I0115 09:09:05.238689 17556 net.cpp:106] Creating Layer pool5
I0115 09:09:05.238692 17556 net.cpp:454] pool5 <- conv5
I0115 09:09:05.238694 17556 net.cpp:411] pool5 -> pool5
I0115 09:09:05.238989 17556 net.cpp:150] Setting up pool5
I0115 09:09:05.238996 17556 net.cpp:157] Top shape: 256 256 3 3 (589824)
I0115 09:09:05.239011 17556 net.cpp:165] Memory required for data: 485327872
I0115 09:09:05.239012 17556 layer_factory.hpp:76] Creating layer fc6
I0115 09:09:05.239032 17556 net.cpp:106] Creating Layer fc6
I0115 09:09:05.239033 17556 net.cpp:454] fc6 <- pool5
I0115 09:09:05.239038 17556 net.cpp:411] fc6 -> fc6
I0115 09:09:05.348992 17556 net.cpp:150] Setting up fc6
I0115 09:09:05.349011 17556 net.cpp:157] Top shape: 256 2048 (524288)
I0115 09:09:05.349014 17556 net.cpp:165] Memory required for data: 487425024
I0115 09:09:05.349021 17556 layer_factory.hpp:76] Creating layer relu6
I0115 09:09:05.349030 17556 net.cpp:106] Creating Layer relu6
I0115 09:09:05.349032 17556 net.cpp:454] relu6 <- fc6
I0115 09:09:05.349037 17556 net.cpp:397] relu6 -> fc6 (in-place)
I0115 09:09:05.349241 17556 net.cpp:150] Setting up relu6
I0115 09:09:05.349247 17556 net.cpp:157] Top shape: 256 2048 (524288)
I0115 09:09:05.349249 17556 net.cpp:165] Memory required for data: 489522176
I0115 09:09:05.349261 17556 layer_factory.hpp:76] Creating layer drop6
I0115 09:09:05.349277 17556 net.cpp:106] Creating Layer drop6
I0115 09:09:05.349279 17556 net.cpp:454] drop6 <- fc6
I0115 09:09:05.349284 17556 net.cpp:397] drop6 -> fc6 (in-place)
I0115 09:09:05.349313 17556 net.cpp:150] Setting up drop6
I0115 09:09:05.349316 17556 net.cpp:157] Top shape: 256 2048 (524288)
I0115 09:09:05.349318 17556 net.cpp:165] Memory required for data: 491619328
I0115 09:09:05.349320 17556 layer_factory.hpp:76] Creating layer fc7
I0115 09:09:05.349326 17556 net.cpp:106] Creating Layer fc7
I0115 09:09:05.349328 17556 net.cpp:454] fc7 <- fc6
I0115 09:09:05.349331 17556 net.cpp:411] fc7 -> fc7
I0115 09:09:05.447392 17556 net.cpp:150] Setting up fc7
I0115 09:09:05.447423 17556 net.cpp:157] Top shape: 256 2048 (524288)
I0115 09:09:05.447425 17556 net.cpp:165] Memory required for data: 493716480
I0115 09:09:05.447470 17556 layer_factory.hpp:76] Creating layer relu7
I0115 09:09:05.447481 17556 net.cpp:106] Creating Layer relu7
I0115 09:09:05.447486 17556 net.cpp:454] relu7 <- fc7
I0115 09:09:05.447492 17556 net.cpp:397] relu7 -> fc7 (in-place)
I0115 09:09:05.447904 17556 net.cpp:150] Setting up relu7
I0115 09:09:05.447912 17556 net.cpp:157] Top shape: 256 2048 (524288)
I0115 09:09:05.447924 17556 net.cpp:165] Memory required for data: 495813632
I0115 09:09:05.447926 17556 layer_factory.hpp:76] Creating layer drop7
I0115 09:09:05.447932 17556 net.cpp:106] Creating Layer drop7
I0115 09:09:05.447934 17556 net.cpp:454] drop7 <- fc7
I0115 09:09:05.447948 17556 net.cpp:397] drop7 -> fc7 (in-place)
I0115 09:09:05.447969 17556 net.cpp:150] Setting up drop7
I0115 09:09:05.447973 17556 net.cpp:157] Top shape: 256 2048 (524288)
I0115 09:09:05.447975 17556 net.cpp:165] Memory required for data: 497910784
I0115 09:09:05.447978 17556 layer_factory.hpp:76] Creating layer fc8
I0115 09:09:05.447984 17556 net.cpp:106] Creating Layer fc8
I0115 09:09:05.447985 17556 net.cpp:454] fc8 <- fc7
I0115 09:09:05.447989 17556 net.cpp:411] fc8 -> fc8
I0115 09:09:05.495657 17556 net.cpp:150] Setting up fc8
I0115 09:09:05.495687 17556 net.cpp:157] Top shape: 256 1000 (256000)
I0115 09:09:05.495689 17556 net.cpp:165] Memory required for data: 498934784
I0115 09:09:05.495698 17556 layer_factory.hpp:76] Creating layer loss
I0115 09:09:05.495720 17556 net.cpp:106] Creating Layer loss
I0115 09:09:05.495724 17556 net.cpp:454] loss <- fc8
I0115 09:09:05.495729 17556 net.cpp:454] loss <- label
I0115 09:09:05.495735 17556 net.cpp:411] loss -> loss
I0115 09:09:05.495749 17556 layer_factory.hpp:76] Creating layer loss
…
  transform_param {
    scale: 0.04
    mirror: false
    crop_size: 128
    mean_value: 104
    mean_value: 117
    mean_value: 123
    force_color: true
    resize_param {
      prob: 1
      resize_mode: FIT_SMALL_SIZE
      height: 144
      width: 144
      pad_mode: MIRRORED
      pad_value: 104
      pad_value: 117
      pad_value: 124
      interp_mode: CUBIC
      center_object: false
      max_angle: 0
    }
  }
  data_param {
    source: "/home/share/storage/datasets/imagenet/lmdb/ilsvrc12_val_lmdb"
    batch_size: 50
    backend: LMDB
  }
}
layer {
  name: "conv1"
  type: "Convolution"
  bottom: "data"
  top: "conv1"
  param {
    lr_mult: 1
    decay_mult: 1
  }
  param {
    lr_mult: 2
    decay_mult: 0
  }
  convolution_param {
    num_output: 96
    kernel_size: 11
    stride: 4
    weight_filler {
      type: "gaussian"
      std: 0.01
    }
    bias_filler {
      type: "constant"
    }
  }
}
layer {
  name: "relu1"
  type: "ReLU"
  bottom: "conv1"
  top: "conv1"
}
layer {
  name: "pool1"
  type: "Pooling"
  bottom: "conv1"
  top: "pool1"
  pooling_param {
    pool: MAX
    kernel_size: 3
    stride: 2
  }
}
layer {
  name: "conv2"
  type: "Convolution"
  bottom: "pool1"
  top: "conv2"
  param {
    lr_mult: 1
    decay_mult: 1
  }
  param {
    lr_mult: 2
    decay_mult: 0
  }
  convolution_param {
    num_output: 256
    pad: 2
    kernel_size: 5
    group: 2
    weight_filler {
      type: "gaussian"
      std: 0.01
    }
    bias_filler {
      type: "constant"
    }
  }
}
layer {
  name: "relu2"
  type: "ReLU"
  bottom: "conv2"
  top: "conv2"
}
layer {
  name: "pool2"
  type: "Pooling"
  bottom: "conv2"
  top: "pool2"
  pooling_param {
    pool: MAX
    kernel_size: 3
    stride: 2
  }
}
layer {
  name: "conv3"
  type: "Convolution"
  bottom: "pool2"
  top: "conv3"
  param {
    lr_mult: 1
    decay_mult: 1
  }
  param {
    lr_mult: 2
    decay_mult: 0
  }
  convolution_param {
    num_output: 384
    pad: 1
    kernel_size: 3
    weight_filler {
      type: "gaussian"
      std: 0.01
    }
    bias_filler {
      type: "constant"
    }
  }
}
layer {
  name: "relu3"
  type: "ReLU"
  bottom: "conv3"
  top: "conv3"
}
layer {
  name: "conv4"
  type: "Convolution"
  bottom: "conv3"
  top: "conv4"
  param {
    lr_mult: 1
    decay_mult: 1
  }
  param {
    lr_mult: 2
    decay_mult: 0
  }
  convolution_param {
    num_output: 384
    pad: 1
    kernel_size: 3
    group: 2
    weight_filler {
      type: "gaussian"
      std: 0.01
    }
    bias_filler {
      type: "constant"
    }
  }
}
layer {
  name: "relu4"
  type: "ReLU"
  bottom: "conv4"
  top: "conv4"
}
layer {
  name: "conv5"
  type: "Convolution"
  bottom: "conv4"
  top: "conv5"
  param {
    lr_mult: 1
    decay_mult: 1
  }
  param {
    lr_mult: 2
    decay_mult: 0
  }
  convolution_param {
    num_output: 256
    pad: 1
    kernel_size: 3
    group: 2
    weight_filler {
      type: "gaussian"
      std: 0.01
    }
    bias_filler {
      type: "constant"
    }
  }
}
layer {
  name: "relu5"
  type: "ReLU"
  bottom: "conv5"
  top: "conv5"
}
layer {
  name: "pool5"
  type: "Pooling"
  bottom: "conv5"
  top: "pool5"
  pooling_param {
    pool: MAX
    kernel_size: 3
    stride: 2
  }
}
layer {
  name: "fc6"
  type: "InnerProduct"
  bottom: "pool5"
  top: "fc6"
  param {
    lr_mult: 1
    decay_mult: 1
  }
  param {
    lr_mult: 2
    decay_mult: 0
  }
  inner_product_param {
    num_output: 2048
    weight_filler {
      type: "gaussian"
      std: 0.005
    }
    bias_filler {
      type: "constant"
    }
  }
}
layer {
  name: "relu6"
  type: "ReLU"
  bottom: "fc6"
  top: "fc6"
}
layer {
  name: "drop6"
  type: "Dropout"
  bottom: "fc6"
  top: "fc6"
  dropout_param {
    dropout_ratio: 0.5
  }
}
layer {
  name: "fc7"
  type: "InnerProduct"
  bottom: "fc6"
  top: "fc7"
  param {
    lr_mult: 1
    decay_mult: 1
  }
  param {
    lr_mult: 2
    decay_mult: 0
  }
  inner_product_param {
    num_output: 2048
    weight_filler {
      type: "gaussian"
      std: 0.005
    }
    bias_filler {
      type: "constant"
    }
  }
}
layer {
  name: "relu7"
  type: "ReLU"
  bottom: "fc7"
  top: "fc7"
}
layer {
  name: "drop7"
  type: "Dropout"
  bottom: "fc7"
  top: "fc7"
  dropout_param {
    dropout_ratio: 0.5
  }
}
layer {
  name: "fc8"
  type: "InnerProduct"
  bottom: "fc7"
  top: "fc8"
  param {
    lr_mult: 1
    decay_mult: 1
  }
  param {
    lr_mult: 2
    decay_mult: 0
  }
  inner_product_param {
    num_output: 1000
    weight_filler {
      type: "gaussian"
      std: 0.01
    }
    bias_filler {
      type: "constant"
    }
  }
}
layer {
  name: "accuracy"
  type: "Accuracy"
  bottom: "fc8"
  bottom: "label"
  top: "accuracy"
  include {
    phase: TEST
  }
}
layer {
  name: "loss"
  type: "SoftmaxWithLoss"
  bottom: "fc8"
  bottom: "label"
  top: "loss"
}
I0115 09:09:05.497241 17556 layer_factory.hpp:76] Creating layer data
I0115 09:09:05.497303 17556 net.cpp:106] Creating Layer data
I0115 09:09:05.497308 17556 net.cpp:411] data -> data
I0115 09:09:05.497313 17556 net.cpp:411] data -> label
I0115 09:09:05.498263 17569 db_lmdb.cpp:38] Opened lmdb /home/share/storage/datasets/imagenet/lmdb/ilsvrc12_val_lmdb
I0115 09:09:05.499428 17556 data_layer.cpp:41] output data size: 50,3,128,128
I0115 09:09:05.517806 17556 net.cpp:150] Setting up data
I0115 09:09:05.517837 17556 net.cpp:157] Top shape: 50 3 128 128 (2457600)
I0115 09:09:05.517840 17556 net.cpp:157] Top shape: 50 (50)
I0115 09:09:05.517843 17556 net.cpp:165] Memory required for data: 9830600
I0115 09:09:05.517848 17556 layer_factory.hpp:76] Creating layer label_data_1_split
I0115 09:09:05.517985 17556 net.cpp:106] Creating Layer label_data_1_split
I0115 09:09:05.517993 17556 net.cpp:454] label_data_1_split <- label
I0115 09:09:05.517998 17556 net.cpp:411] label_data_1_split -> label_data_1_split_0
I0115 09:09:05.518126 17556 net.cpp:411] label_data_1_split -> label_data_1_split_1
I0115 09:09:05.518220 17556 net.cpp:150] Setting up label_data_1_split
I0115 09:09:05.518226 17556 net.cpp:157] Top shape: 50 (50)
I0115 09:09:05.518239 17556 net.cpp:157] Top shape: 50 (50)
I0115 09:09:05.518240 17556 net.cpp:165] Memory required for data: 9831000
I0115 09:09:05.518244 17556 layer_factory.hpp:76] Creating layer conv1
I0115 09:09:05.518287 17556 net.cpp:106] Creating Layer conv1
I0115 09:09:05.518291 17556 net.cpp:454] conv1 <- data
I0115 09:09:05.518296 17556 net.cpp:411] conv1 -> conv1
I0115 09:09:05.529006 17556 net.cpp:150] Setting up conv1
I0115 09:09:05.529032 17556 net.cpp:157] Top shape: 50 96 30 30 (4320000)
I0115 09:09:05.529036 17556 net.cpp:165] Memory required for data: 27111000
I0115 09:09:05.529129 17556 layer_factory.hpp:76] Creating layer relu1
I0115 09:09:05.529139 17556 net.cpp:106] Creating Layer relu1
I0115 09:09:05.529142 17556 net.cpp:454] relu1 <- conv1
I0115 09:09:05.529146 17556 net.cpp:397] relu1 -> conv1 (in-place)
I0115 09:09:05.529460 17556 net.cpp:150] Setting up relu1
I0115 09:09:05.529469 17556 net.cpp:157] Top shape: 50 96 30 30 (4320000)
I0115 09:09:05.529481 17556 net.cpp:165] Memory required for data: 44391000
I0115 09:09:05.529484 17556 layer_factory.hpp:76] Creating layer pool1
I0115 09:09:05.529530 17556 net.cpp:106] Creating Layer pool1
I0115 09:09:05.529536 17556 net.cpp:454] pool1 <- conv1
I0115 09:09:05.529539 17556 net.cpp:411] pool1 -> pool1
I0115 09:09:05.529736 17556 net.cpp:150] Setting up pool1
I0115 09:09:05.529743 17556 net.cpp:157] Top shape: 50 96 15 15 (1080000)
I0115 09:09:05.529754 17556 net.cpp:165] Memory required for data: 48711000
I0115 09:09:05.529757 17556 layer_factory.hpp:76] Creating layer conv2
I0115 09:09:05.529763 17556 net.cpp:106] Creating Layer conv2
I0115 09:09:05.529804 17556 net.cpp:454] conv2 <- pool1
I0115 09:09:05.529809 17556 net.cpp:411] conv2 -> conv2
I0115 09:09:05.538928 17556 net.cpp:150] Setting up conv2
I0115 09:09:05.538955 17556 net.cpp:157] Top shape: 50 256 15 15 (2880000)
I0115 09:09:05.538959 17556 net.cpp:165] Memory required for data: 60231000
I0115 09:09:05.538967 17556 layer_factory.hpp:76] Creating layer relu2
I0115 09:09:05.539091 17556 net.cpp:106] Creating Layer relu2
I0115 09:09:05.539144 17556 net.cpp:454] relu2 <- conv2
I0115 09:09:05.539151 17556 net.cpp:397] relu2 -> conv2 (in-place)
I0115 09:09:05.539343 17556 net.cpp:150] Setting up relu2
I0115 09:09:05.539350 17556 net.cpp:157] Top shape: 50 256 15 15 (2880000)
I0115 09:09:05.539381 17556 net.cpp:165] Memory required for data: 71751000
I0115 09:09:05.539386 17556 layer_factory.hpp:76] Creating layer pool2
I0115 09:09:05.539414 17556 net.cpp:106] Creating Layer pool2
I0115 09:09:05.539418 17556 net.cpp:454] pool2 <- conv2
I0115 09:09:05.539444 17556 net.cpp:411] pool2 -> pool2
I0115 09:09:05.539726 17556 net.cpp:150] Setting up pool2
I0115 09:09:05.539734 17556 net.cpp:157] Top shape: 50 256 7 7 (627200)
I0115 09:09:05.539759 17556 net.cpp:165] Memory required for data: 74259800
I0115 09:09:05.539762 17556 layer_factory.hpp:76] Creating layer conv3
I0115 09:09:05.539800 17556 net.cpp:106] Creating Layer conv3
I0115 09:09:05.539804 17556 net.cpp:454] conv3 <- pool2
I0115 09:09:05.539834 17556 net.cpp:411] conv3 -> conv3
I0115 09:09:05.562150 17556 net.cpp:150] Setting up conv3
I0115 09:09:05.562180 17556 net.cpp:157] Top shape: 50 384 7 7 (940800)
I0115 09:09:05.562183 17556 net.cpp:165] Memory required for data: 78023000
I0115 09:09:05.562192 17556 layer_factory.hpp:76] Creating layer relu3
I0115 09:09:05.562307 17556 net.cpp:106] Creating Layer relu3
I0115 09:09:05.562312 17556 net.cpp:454] relu3 <- conv3
I0115 09:09:05.562319 17556 net.cpp:397] relu3 -> conv3 (in-place)
I0115 09:09:05.562500 17556 net.cpp:150] Setting up relu3
I0115 09:09:05.562507 17556 net.cpp:157] Top shape: 50 384 7 7 (940800)
I0115 09:09:05.562520 17556 net.cpp:165] Memory required for data: 81786200
I0115 09:09:05.562521 17556 layer_factory.hpp:76] Creating layer conv4
I0115 09:09:05.562566 17556 net.cpp:106] Creating Layer conv4
I0115 09:09:05.562571 17556 net.cpp:454] conv4 <- conv3
I0115 09:09:05.562575 17556 net.cpp:411] conv4 -> conv4
I0115 09:09:05.580255 17556 net.cpp:150] Setting up conv4
I0115 09:09:05.580282 17556 net.cpp:157] Top shape: 50 384 7 7 (940800)
I0115 09:09:05.580286 17556 net.cpp:165] Memory required for data: 85549400
I0115 09:09:05.580291 17556 layer_factory.hpp:76] Creating layer relu4
I0115 09:09:05.580299 17556 net.cpp:106] Creating Layer relu4
I0115 09:09:05.580406 17556 net.cpp:454] relu4 <- conv4
I0115 09:09:05.580413 17556 net.cpp:397] relu4 -> conv4 (in-place)
I0115 09:09:05.580615 17556 net.cpp:150] Setting up relu4
I0115 09:09:05.580623 17556 net.cpp:157] Top shape: 50 384 7 7 (940800)
I0115 09:09:05.580653 17556 net.cpp:165] Memory required for data: 89312600
I0115 09:09:05.580658 17556 layer_factory.hpp:76] Creating layer conv5
I0115 09:09:05.580695 17556 net.cpp:106] Creating Layer conv5
I0115 09:09:05.580699 17556 net.cpp:454] conv5 <- conv4
I0115 09:09:05.580727 17556 net.cpp:411] conv5 -> conv5
I0115 09:09:05.592972 17556 net.cpp:150] Setting up conv5
I0115 09:09:05.592993 17556 net.cpp:157] Top shape: 50 256 7 7 (627200)
I0115 09:09:05.592996 17556 net.cpp:165] Memory required for data: 91821400
I0115 09:09:05.593107 17556 layer_factory.hpp:76] Creating layer relu5
I0115 09:09:05.593116 17556 net.cpp:106] Creating Layer relu5
I0115 09:09:05.593119 17556 net.cpp:454] relu5 <- conv5
I0115 09:09:05.593123 17556 net.cpp:397] relu5 -> conv5 (in-place)
I0115 09:09:05.593325 17556 net.cpp:150] Setting up relu5
I0115 09:09:05.593333 17556 net.cpp:157] Top shape: 50 256 7 7 (627200)
I0115 09:09:05.593344 17556 net.cpp:165] Memory required for data: 94330200
I0115 09:09:05.593348 17556 layer_factory.hpp:76] Creating layer pool5
I0115 09:09:05.593391 17556 net.cpp:106] Creating Layer pool5
I0115 09:09:05.593395 17556 net.cpp:454] pool5 <- conv5
I0115 09:09:05.593400 17556 net.cpp:411] pool5 -> pool5
I0115 09:09:05.593740 17556 net.cpp:150] Setting up pool5
I0115 09:09:05.593750 17556 net.cpp:157] Top shape: 50 256 3 3 (115200)
I0115 09:09:05.593761 17556 net.cpp:165] Memory required for data: 94791000
I0115 09:09:05.593763 17556 layer_factory.hpp:76] Creating layer fc6
I0115 09:09:05.593822 17556 net.cpp:106] Creating Layer fc6
I0115 09:09:05.593824 17556 net.cpp:454] fc6 <- pool5
I0115 09:09:05.593829 17556 net.cpp:411] fc6 -> fc6
I0115 09:09:05.707646 17556 net.cpp:150] Setting up fc6
I0115 09:09:05.707674 17556 net.cpp:157] Top shape: 50 2048 (102400)
I0115 09:09:05.707676 17556 net.cpp:165] Memory required for data: 95200600
I0115 09:09:05.707685 17556 layer_factory.hpp:76] Creating layer relu6
I0115 09:09:05.707800 17556 net.cpp:106] Creating Layer relu6
I0115 09:09:05.707806 17556 net.cpp:454] relu6 <- fc6
I0115 09:09:05.707811 17556 net.cpp:397] relu6 -> fc6 (in-place)
I0115 09:09:05.708222 17556 net.cpp:150] Setting up relu6
I0115 09:09:05.708231 17556 net.cpp:157] Top shape: 50 2048 (102400)
I0115 09:09:05.708242 17556 net.cpp:165] Memory required for data: 95610200
I0115 09:09:05.708245 17556 layer_factory.hpp:76] Creating layer drop6
I0115 09:09:05.708307 17556 net.cpp:106] Creating Layer drop6
I0115 09:09:05.708310 17556 net.cpp:454] drop6 <- fc6
I0115 09:09:05.708314 17556 net.cpp:397] drop6 -> fc6 (in-place)
I0115 09:09:05.708372 17556 net.cpp:150] Setting up drop6
I0115 09:09:05.708377 17556 net.cpp:157] Top shape: 50 2048 (102400)
I0115 09:09:05.708379 17556 net.cpp:165] Memory required for data: 96019800
I0115 09:09:05.708381 17556 layer_factory.hpp:76] Creating layer fc7
I0115 09:09:05.708417 17556 net.cpp:106] Creating Layer fc7
I0115 09:09:05.708421 17556 net.cpp:454] fc7 <- fc6
I0115 09:09:05.708453 17556 net.cpp:411] fc7 -> fc7
I0115 09:09:05.808231 17556 net.cpp:150] Setting up fc7
I0115 09:09:05.808259 17556 net.cpp:157] Top shape: 50 2048 (102400)
I0115 09:09:05.808262 17556 net.cpp:165] Memory required for data: 96429400
I0115 09:09:05.808271 17556 layer_factory.hpp:76] Creating layer relu7
I0115 09:09:05.808279 17556 net.cpp:106] Creating Layer relu7
I0115 09:09:05.808292 17556 net.cpp:454] relu7 <- fc7
I0115 09:09:05.808298 17556 net.cpp:397] relu7 -> fc7 (in-place)
I0115 09:09:05.808538 17556 net.cpp:150] Setting up relu7
I0115 09:09:05.808545 17556 net.cpp:157] Top shape: 50 2048 (102400)
I0115 09:09:05.808557 17556 net.cpp:165] Memory required for data: 96839000
I0115 09:09:05.808559 17556 layer_factory.hpp:76] Creating layer drop7
I0115 09:09:05.808564 17556 net.cpp:106] Creating Layer drop7
I0115 09:09:05.808568 17556 net.cpp:454] drop7 <- fc7
I0115 09:09:05.808571 17556 net.cpp:397] drop7 -> fc7 (in-place)
I0115 09:09:05.808625 17556 net.cpp:150] Setting up drop7
I0115 09:09:05.808630 17556 net.cpp:157] Top shape: 50 2048 (102400)
I0115 09:09:05.808632 17556 net.cpp:165] Memory required for data: 97248600
I0115 09:09:05.808634 17556 layer_factory.hpp:76] Creating layer fc8
I0115 09:09:05.808650 17556 net.cpp:106] Creating Layer fc8
I0115 09:09:05.808652 17556 net.cpp:454] fc8 <- fc7
I0115 09:09:05.808657 17556 net.cpp:411] fc8 -> fc8
I0115 09:09:05.856667 17556 net.cpp:150] Setting up fc8
I0115 09:09:05.856694 17556 net.cpp:157] Top shape: 50 1000 (50000)
I0115 09:09:05.856698 17556 net.cpp:165] Memory required for data: 97448600
I0115 09:09:05.856705 17556 layer_factory.hpp:76] Creating layer fc8_fc8_0_split
I0115 09:09:05.856712 17556 net.cpp:106] Creating Layer fc8_fc8_0_split
I0115 09:09:05.856726 17556 net.cpp:454] fc8_fc8_0_split <- fc8
I0115 09:09:05.856734 17556 net.cpp:411] fc8_fc8_0_split -> fc8_fc8_0_split_0
I0115 09:09:05.856740 17556 net.cpp:411] fc8_fc8_0_split -> fc8_fc8_0_split_1
I0115 09:09:05.856794 17556 net.cpp:150] Setting up fc8_fc8_0_split
I0115 09:09:05.856799 17556 net.cpp:157] Top shape: 50 1000 (50000)
I0115 09:09:05.856812 17556 net.cpp:157] Top shape: 50 1000 (50000)
I0115 09:09:05.856814 17556 net.cpp:165] Memory required for data: 97848600
I0115 09:09:05.856817 17556 layer_factory.hpp:76] Creating layer accuracy
I0115 09:09:05.856827 17556 net.cpp:106] Creating Layer accuracy
I0115 09:09:05.856828 17556 net.cpp:454] accuracy <- fc8_fc8_0_split_0
I0115 09:09:05.856832 17556 net.cpp:454] accuracy <- label_data_1_split_0
I0115 09:09:05.856837 17556 net.cpp:411] accuracy -> accuracy
…
