…
I0123 01:09:18.509989  3123 net.cpp:322] The NetState phase (0) differed from the phase (1) specified by a rule in layer accuracy
I0123 01:09:18.510246  3123 net.cpp:49] Initializing net from parameters: 
name: "CaffeNet"
state {
  phase: TRAIN
}
layer {
  name: "data"
  type: "Data"
  top: "data"
  top: "label"
  include {
    phase: TRAIN
  }
  transform_param {
    mirror: true
    crop_size: 128
    mean_value: 104
    mean_value: 117
    mean_value: 124
  }
  data_param {
    source: "/media/dereyly/2E4057004056CDE9/data/CAFFE_DATA/ilsvrc12_train_lmdb_144"
    batch_size: 256
    backend: LMDB
  }
}
layer {
  name: "conv1"
  type: "Convolution"
  bottom: "data"
  top: "conv1"
  param {
    lr_mult: 1
    decay_mult: 1
  }
  param {
    lr_mult: 2
    decay_mult: 0
  }
  convolution_param {
    num_output: 16
    kernel_size: 3
    stride: 1
    weight_filler {
      type: "msra"
      std: 0.01
    }
    bias_filler {
      type: "constant"
    }
  }
}
layer {
  name: "relu1"
  type: "PReLU"
  bottom: "conv1"
  top: "conv1"
  prelu_param {
    filler {
      type: "constant"
      value: 0.3
    }
    channel_shared: false
  }
}
layer {
  name: "pool1"
  type: "Pooling"
  bottom: "conv1"
  top: "pool1"
  pooling_param {
    pool: MAX
    kernel_size: 2
    stride: 2
  }
}
layer {
  name: "conv2_BN"
  type: "BatchNorm"
  bottom: "pool1"
  top: "conv2_BN"
}
layer {
  name: "conv2"
  type: "Convolution"
  bottom: "conv2_BN"
  top: "conv2"
  param {
    lr_mult: 1
    decay_mult: 1
  }
  param {
    lr_mult: 2
    decay_mult: 0
  }
  convolution_param {
    num_output: 32
    pad: 1
    kernel_size: 3
    weight_filler {
      type: "msra"
      std: 0.01
    }
    bias_filler {
      type: "constant"
    }
  }
}
layer {
  name: "relu2"
  type: "PReLU"
  bottom: "conv2"
  top: "conv2"
  prelu_param {
    filler {
      type: "constant"
      value: 0.3
    }
    channel_shared: false
  }
}
layer {
  name: "pool2"
  type: "Pooling"
  bottom: "conv2"
  top: "pool2"
  pooling_param {
    pool: MAX
    kernel_size: 2
    stride: 2
  }
}
layer {
  name: "conv3_BN"
  type: "BatchNorm"
  bottom: "pool2"
  top: "conv3_BN"
}
layer {
  name: "conv3"
  type: "Convolution"
  bottom: "conv3_BN"
  top: "conv3"
  param {
    lr_mult: 1
    decay_mult: 1
  }
  param {
    lr_mult: 2
    decay_mult: 0
  }
  convolution_param {
    num_output: 64
    pad: 1
    kernel_size: 3
    weight_filler {
      type: "msra"
      std: 0.01
    }
    bias_filler {
      type: "constant"
    }
  }
}
layer {
  name: "relu3"
  type: "PReLU"
  bottom: "conv3"
  top: "conv3"
  prelu_param {
    filler {
      type: "constant"
      value: 0.3
    }
    channel_shared: false
  }
}
layer {
  name: "pool3"
  type: "Pooling"
  bottom: "conv3"
  top: "pool3"
  pooling_param {
    pool: MAX
    kernel_size: 2
    stride: 2
  }
}
layer {
  name: "conv4_BN"
  type: "BatchNorm"
  bottom: "pool3"
  top: "conv4_BN"
}
layer {
  name: "conv4"
  type: "Convolution"
  bottom: "conv4_BN"
  top: "conv4"
  param {
    lr_mult: 1
    decay_mult: 1
  }
  param {
    lr_mult: 2
    decay_mult: 0
  }
  convolution_param {
    num_output: 128
    pad: 1
    kernel_size: 3
    weight_filler {
      type: "msra"
      std: 0.01
    }
    bias_filler {
      type: "constant"
    }
  }
}
layer {
  name: "relu4"
  type: "PReLU"
  bottom: "conv4"
  top: "conv4"
  prelu_param {
    filler {
      type: "constant"
      value: 0.3
    }
    channel_shared: false
  }
}
layer {
  name: "pool4"
  type: "Pooling"
  bottom: "conv4"
  top: "pool4"
  pooling_param {
    pool: MAX
    kernel_size: 2
    stride: 2
  }
}
layer {
  name: "conv5_BN"
  type: "BatchNorm"
  bottom: "pool4"
  top: "conv5_BN"
}
layer {
  name: "conv5"
  type: "Convolution"
  bottom: "conv5_BN"
  top: "conv5"
  param {
    lr_mult: 1
    decay_mult: 1
  }
  param {
    lr_mult: 2
    decay_mult: 0
  }
  convolution_param {
    num_output: 256
    pad: 1
    kernel_size: 3
    weight_filler {
      type: "msra"
      std: 0.01
    }
    bias_filler {
      type: "constant"
    }
  }
}
layer {
  name: "relu5"
  type: "PReLU"
  bottom: "conv5"
  top: "conv5"
  prelu_param {
    filler {
      type: "constant"
      value: 0.3
    }
    channel_shared: false
  }
}
layer {
  name: "pool5"
  type: "Pooling"
  bottom: "conv5"
  top: "pool5"
  pooling_param {
    pool: MAX
    kernel_size: 2
    stride: 2
  }
}
layer {
  name: "conv6_BN"
  type: "BatchNorm"
  bottom: "pool5"
  top: "conv6_BN"
}
layer {
  name: "conv6"
  type: "Convolution"
  bottom: "conv6_BN"
  top: "conv6"
  param {
    lr_mult: 1
    decay_mult: 1
  }
  param {
    lr_mult: 2
    decay_mult: 0
  }
  convolution_param {
    num_output: 512
    pad: 1
    kernel_size: 3
    weight_filler {
      type: "msra"
      std: 0.01
    }
    bias_filler {
      type: "constant"
    }
  }
}
layer {
  name: "relu6"
  type: "PReLU"
  bottom: "conv6"
  top: "conv6"
  prelu_param {
    filler {
      type: "constant"
      value: 0.3
    }
    channel_shared: false
  }
}
layer {
  name: "pool6"
  type: "Pooling"
  bottom: "conv6"
  top: "pool6"
  pooling_param {
    pool: MAX
    kernel_size: 2
    stride: 2
  }
}
layer {
  name: "conv7_BN"
  type: "BatchNorm"
  bottom: "pool6"
  top: "conv7_BN"
}
layer {
  name: "conv7"
  type: "Convolution"
  bottom: "conv7_BN"
  top: "conv7"
  param {
    lr_mult: 1
    decay_mult: 1
  }
  param {
    lr_mult: 2
    decay_mult: 0
  }
  convolution_param {
    num_output: 1024
    pad: 1
    kernel_size: 3
    weight_filler {
      type: "msra"
      std: 0.01
    }
    bias_filler {
      type: "constant"
    }
  }
}
layer {
  name: "relu7"
  type: "PReLU"
  bottom: "conv7"
  top: "conv7"
  prelu_param {
    filler {
      type: "constant"
      value: 0.3
    }
    channel_shared: false
  }
}
layer {
  name: "fc8_BN"
  type: "BatchNorm"
  bottom: "conv7"
  top: "fc8_BN"
}
layer {
  name: "drop7"
  type: "Dropout"
  bottom: "fc8_BN"
  top: "drop7"
  dropout_param {
    dropout_ratio: 0.2
  }
}
layer {
  name: "fc8"
  type: "InnerProduct"
  bottom: "drop7"
  top: "fc8"
  param {
    lr_mult: 1
    decay_mult: 1
  }
  param {
    lr_mult: 2
    decay_mult: 0
  }
  inner_product_param {
    num_output: 1000
    weight_filler {
      type: "gaussian"
      std: 0.01
    }
    bias_filler {
      type: "constant"
    }
  }
}
layer {
  name: "loss"
  type: "SoftmaxWithLoss"
  bottom: "fc8"
  bottom: "label"
  top: "loss"
}
I0123 01:09:18.510352  3123 layer_factory.hpp:76] Creating layer data
I0123 01:09:18.510965  3123 net.cpp:106] Creating Layer data
I0123 01:09:18.511010  3123 net.cpp:411] data -> data
I0123 01:09:18.511059  3123 net.cpp:411] data -> label
I0123 01:09:18.512214  3128 db_lmdb.cpp:38] Opened lmdb /media/dereyly/2E4057004056CDE9/data/CAFFE_DATA/ilsvrc12_train_lmdb_144
I0123 01:09:18.521273  3123 data_layer.cpp:41] output data size: 256,3,128,128
I0123 01:09:18.578161  3123 net.cpp:150] Setting up data
I0123 01:09:18.578199  3123 net.cpp:157] Top shape: 256 3 128 128 (12582912)
I0123 01:09:18.578204  3123 net.cpp:157] Top shape: 256 (256)
I0123 01:09:18.578208  3123 net.cpp:165] Memory required for data: 50332672
I0123 01:09:18.578217  3123 layer_factory.hpp:76] Creating layer conv1
I0123 01:09:18.578235  3123 net.cpp:106] Creating Layer conv1
I0123 01:09:18.578241  3123 net.cpp:454] conv1 <- data
I0123 01:09:18.578264  3123 net.cpp:411] conv1 -> conv1
I0123 01:09:18.703315  3123 net.cpp:150] Setting up conv1
I0123 01:09:18.703347  3123 net.cpp:157] Top shape: 256 16 126 126 (65028096)
I0123 01:09:18.703351  3123 net.cpp:165] Memory required for data: 310445056
I0123 01:09:18.703398  3123 layer_factory.hpp:76] Creating layer relu1
I0123 01:09:18.703413  3123 net.cpp:106] Creating Layer relu1
I0123 01:09:18.703418  3123 net.cpp:454] relu1 <- conv1
I0123 01:09:18.703423  3123 net.cpp:397] relu1 -> conv1 (in-place)
I0123 01:09:18.703882  3123 net.cpp:150] Setting up relu1
I0123 01:09:18.703891  3123 net.cpp:157] Top shape: 256 16 126 126 (65028096)
I0123 01:09:18.703904  3123 net.cpp:165] Memory required for data: 570557440
I0123 01:09:18.703912  3123 layer_factory.hpp:76] Creating layer pool1
I0123 01:09:18.703929  3123 net.cpp:106] Creating Layer pool1
I0123 01:09:18.703933  3123 net.cpp:454] pool1 <- conv1
I0123 01:09:18.703938  3123 net.cpp:411] pool1 -> pool1
I0123 01:09:18.704205  3123 net.cpp:150] Setting up pool1
I0123 01:09:18.704216  3123 net.cpp:157] Top shape: 256 16 63 63 (16257024)
I0123 01:09:18.704228  3123 net.cpp:165] Memory required for data: 635585536
I0123 01:09:18.704232  3123 layer_factory.hpp:76] Creating layer conv2_BN
I0123 01:09:18.704252  3123 net.cpp:106] Creating Layer conv2_BN
I0123 01:09:18.704257  3123 net.cpp:454] conv2_BN <- pool1
I0123 01:09:18.704260  3123 net.cpp:411] conv2_BN -> conv2_BN
I0123 01:09:18.704725  3123 net.cpp:150] Setting up conv2_BN
I0123 01:09:18.704735  3123 net.cpp:157] Top shape: 256 16 63 63 (16257024)
I0123 01:09:18.704749  3123 net.cpp:165] Memory required for data: 700613632
I0123 01:09:18.704769  3123 layer_factory.hpp:76] Creating layer conv2
I0123 01:09:18.704778  3123 net.cpp:106] Creating Layer conv2
I0123 01:09:18.704782  3123 net.cpp:454] conv2 <- conv2_BN
I0123 01:09:18.704787  3123 net.cpp:411] conv2 -> conv2
I0123 01:09:18.705683  3123 net.cpp:150] Setting up conv2
I0123 01:09:18.705704  3123 net.cpp:157] Top shape: 256 32 63 63 (32514048)
I0123 01:09:18.705708  3123 net.cpp:165] Memory required for data: 830669824
I0123 01:09:18.705725  3123 layer_factory.hpp:76] Creating layer relu2
I0123 01:09:18.705731  3123 net.cpp:106] Creating Layer relu2
I0123 01:09:18.705734  3123 net.cpp:454] relu2 <- conv2
I0123 01:09:18.705739  3123 net.cpp:397] relu2 -> conv2 (in-place)
I0123 01:09:18.706167  3123 net.cpp:150] Setting up relu2
I0123 01:09:18.706187  3123 net.cpp:157] Top shape: 256 32 63 63 (32514048)
I0123 01:09:18.706192  3123 net.cpp:165] Memory required for data: 960726016
I0123 01:09:18.706209  3123 layer_factory.hpp:76] Creating layer pool2
I0123 01:09:18.706215  3123 net.cpp:106] Creating Layer pool2
I0123 01:09:18.706219  3123 net.cpp:454] pool2 <- conv2
I0123 01:09:18.706223  3123 net.cpp:411] pool2 -> pool2
I0123 01:09:18.706373  3123 net.cpp:150] Setting up pool2
I0123 01:09:18.706382  3123 net.cpp:157] Top shape: 256 32 32 32 (8388608)
I0123 01:09:18.706394  3123 net.cpp:165] Memory required for data: 994280448
I0123 01:09:18.706398  3123 layer_factory.hpp:76] Creating layer conv3_BN
I0123 01:09:18.706415  3123 net.cpp:106] Creating Layer conv3_BN
I0123 01:09:18.706420  3123 net.cpp:454] conv3_BN <- pool2
I0123 01:09:18.706424  3123 net.cpp:411] conv3_BN -> conv3_BN
I0123 01:09:18.706571  3123 net.cpp:150] Setting up conv3_BN
I0123 01:09:18.706576  3123 net.cpp:157] Top shape: 256 32 32 32 (8388608)
I0123 01:09:18.706590  3123 net.cpp:165] Memory required for data: 1027834880
I0123 01:09:18.706596  3123 layer_factory.hpp:76] Creating layer conv3
I0123 01:09:18.706615  3123 net.cpp:106] Creating Layer conv3
I0123 01:09:18.706619  3123 net.cpp:454] conv3 <- conv3_BN
I0123 01:09:18.706624  3123 net.cpp:411] conv3 -> conv3
I0123 01:09:18.708024  3123 net.cpp:150] Setting up conv3
I0123 01:09:18.708045  3123 net.cpp:157] Top shape: 256 64 32 32 (16777216)
I0123 01:09:18.708048  3123 net.cpp:165] Memory required for data: 1094943744
I0123 01:09:18.708065  3123 layer_factory.hpp:76] Creating layer relu3
I0123 01:09:18.708071  3123 net.cpp:106] Creating Layer relu3
I0123 01:09:18.708075  3123 net.cpp:454] relu3 <- conv3
I0123 01:09:18.708080  3123 net.cpp:397] relu3 -> conv3 (in-place)
I0123 01:09:18.708186  3123 net.cpp:150] Setting up relu3
I0123 01:09:18.708194  3123 net.cpp:157] Top shape: 256 64 32 32 (16777216)
I0123 01:09:18.708207  3123 net.cpp:165] Memory required for data: 1162052608
I0123 01:09:18.708212  3123 layer_factory.hpp:76] Creating layer pool3
I0123 01:09:18.708217  3123 net.cpp:106] Creating Layer pool3
I0123 01:09:18.708220  3123 net.cpp:454] pool3 <- conv3
I0123 01:09:18.708225  3123 net.cpp:411] pool3 -> pool3
I0123 01:09:18.708463  3123 net.cpp:150] Setting up pool3
I0123 01:09:18.708484  3123 net.cpp:157] Top shape: 256 64 16 16 (4194304)
I0123 01:09:18.708487  3123 net.cpp:165] Memory required for data: 1178829824
I0123 01:09:18.708492  3123 layer_factory.hpp:76] Creating layer conv4_BN
I0123 01:09:18.708497  3123 net.cpp:106] Creating Layer conv4_BN
I0123 01:09:18.708499  3123 net.cpp:454] conv4_BN <- pool3
I0123 01:09:18.708504  3123 net.cpp:411] conv4_BN -> conv4_BN
I0123 01:09:18.708634  3123 net.cpp:150] Setting up conv4_BN
I0123 01:09:18.708650  3123 net.cpp:157] Top shape: 256 64 16 16 (4194304)
I0123 01:09:18.708653  3123 net.cpp:165] Memory required for data: 1195607040
I0123 01:09:18.708662  3123 layer_factory.hpp:76] Creating layer conv4
I0123 01:09:18.708669  3123 net.cpp:106] Creating Layer conv4
I0123 01:09:18.708673  3123 net.cpp:454] conv4 <- conv4_BN
I0123 01:09:18.708678  3123 net.cpp:411] conv4 -> conv4
I0123 01:09:18.711084  3123 net.cpp:150] Setting up conv4
I0123 01:09:18.711105  3123 net.cpp:157] Top shape: 256 128 16 16 (8388608)
I0123 01:09:18.711109  3123 net.cpp:165] Memory required for data: 1229161472
I0123 01:09:18.711115  3123 layer_factory.hpp:76] Creating layer relu4
I0123 01:09:18.711123  3123 net.cpp:106] Creating Layer relu4
I0123 01:09:18.711127  3123 net.cpp:454] relu4 <- conv4
I0123 01:09:18.711132  3123 net.cpp:397] relu4 -> conv4 (in-place)
I0123 01:09:18.711212  3123 net.cpp:150] Setting up relu4
I0123 01:09:18.711218  3123 net.cpp:157] Top shape: 256 128 16 16 (8388608)
I0123 01:09:18.711231  3123 net.cpp:165] Memory required for data: 1262715904
I0123 01:09:18.711236  3123 layer_factory.hpp:76] Creating layer pool4
I0123 01:09:18.711241  3123 net.cpp:106] Creating Layer pool4
I0123 01:09:18.711246  3123 net.cpp:454] pool4 <- conv4
I0123 01:09:18.711249  3123 net.cpp:411] pool4 -> pool4
I0123 01:09:18.711501  3123 net.cpp:150] Setting up pool4
I0123 01:09:18.711520  3123 net.cpp:157] Top shape: 256 128 8 8 (2097152)
I0123 01:09:18.711524  3123 net.cpp:165] Memory required for data: 1271104512
I0123 01:09:18.711527  3123 layer_factory.hpp:76] Creating layer conv5_BN
I0123 01:09:18.711545  3123 net.cpp:106] Creating Layer conv5_BN
I0123 01:09:18.711549  3123 net.cpp:454] conv5_BN <- pool4
I0123 01:09:18.711554  3123 net.cpp:411] conv5_BN -> conv5_BN
I0123 01:09:18.711711  3123 net.cpp:150] Setting up conv5_BN
I0123 01:09:18.711717  3123 net.cpp:157] Top shape: 256 128 8 8 (2097152)
I0123 01:09:18.711730  3123 net.cpp:165] Memory required for data: 1279493120
I0123 01:09:18.711736  3123 layer_factory.hpp:76] Creating layer conv5
I0123 01:09:18.711743  3123 net.cpp:106] Creating Layer conv5
I0123 01:09:18.711747  3123 net.cpp:454] conv5 <- conv5_BN
I0123 01:09:18.711753  3123 net.cpp:411] conv5 -> conv5
I0123 01:09:18.720605  3123 net.cpp:150] Setting up conv5
I0123 01:09:18.720645  3123 net.cpp:157] Top shape: 256 256 8 8 (4194304)
I0123 01:09:18.720649  3123 net.cpp:165] Memory required for data: 1296270336
I0123 01:09:18.720657  3123 layer_factory.hpp:76] Creating layer relu5
I0123 01:09:18.720676  3123 net.cpp:106] Creating Layer relu5
I0123 01:09:18.720681  3123 net.cpp:454] relu5 <- conv5
I0123 01:09:18.720688  3123 net.cpp:397] relu5 -> conv5 (in-place)
I0123 01:09:18.720791  3123 net.cpp:150] Setting up relu5
I0123 01:09:18.720798  3123 net.cpp:157] Top shape: 256 256 8 8 (4194304)
I0123 01:09:18.720813  3123 net.cpp:165] Memory required for data: 1313047552
I0123 01:09:18.720816  3123 layer_factory.hpp:76] Creating layer pool5
I0123 01:09:18.720824  3123 net.cpp:106] Creating Layer pool5
I0123 01:09:18.720826  3123 net.cpp:454] pool5 <- conv5
I0123 01:09:18.720831  3123 net.cpp:411] pool5 -> pool5
I0123 01:09:18.721025  3123 net.cpp:150] Setting up pool5
I0123 01:09:18.721034  3123 net.cpp:157] Top shape: 256 256 4 4 (1048576)
I0123 01:09:18.721046  3123 net.cpp:165] Memory required for data: 1317241856
I0123 01:09:18.721050  3123 layer_factory.hpp:76] Creating layer conv6_BN
I0123 01:09:18.721066  3123 net.cpp:106] Creating Layer conv6_BN
I0123 01:09:18.721071  3123 net.cpp:454] conv6_BN <- pool5
I0123 01:09:18.721076  3123 net.cpp:411] conv6_BN -> conv6_BN
I0123 01:09:18.721251  3123 net.cpp:150] Setting up conv6_BN
I0123 01:09:18.721257  3123 net.cpp:157] Top shape: 256 256 4 4 (1048576)
I0123 01:09:18.721271  3123 net.cpp:165] Memory required for data: 1321436160
I0123 01:09:18.721277  3123 layer_factory.hpp:76] Creating layer conv6
I0123 01:09:18.721294  3123 net.cpp:106] Creating Layer conv6
I0123 01:09:18.721298  3123 net.cpp:454] conv6 <- conv6_BN
I0123 01:09:18.721304  3123 net.cpp:411] conv6 -> conv6
I0123 01:09:18.748679  3123 net.cpp:150] Setting up conv6
I0123 01:09:18.748698  3123 net.cpp:157] Top shape: 256 512 4 4 (2097152)
I0123 01:09:18.748703  3123 net.cpp:165] Memory required for data: 1329824768
I0123 01:09:18.748710  3123 layer_factory.hpp:76] Creating layer relu6
I0123 01:09:18.748718  3123 net.cpp:106] Creating Layer relu6
I0123 01:09:18.748733  3123 net.cpp:454] relu6 <- conv6
I0123 01:09:18.748740  3123 net.cpp:397] relu6 -> conv6 (in-place)
I0123 01:09:18.748839  3123 net.cpp:150] Setting up relu6
I0123 01:09:18.748847  3123 net.cpp:157] Top shape: 256 512 4 4 (2097152)
I0123 01:09:18.748849  3123 net.cpp:165] Memory required for data: 1338213376
I0123 01:09:18.748858  3123 layer_factory.hpp:76] Creating layer pool6
I0123 01:09:18.748875  3123 net.cpp:106] Creating Layer pool6
I0123 01:09:18.748878  3123 net.cpp:454] pool6 <- conv6
I0123 01:09:18.748883  3123 net.cpp:411] pool6 -> pool6
I0123 01:09:18.749109  3123 net.cpp:150] Setting up pool6
I0123 01:09:18.749117  3123 net.cpp:157] Top shape: 256 512 2 2 (524288)
I0123 01:09:18.749120  3123 net.cpp:165] Memory required for data: 1340310528
I0123 01:09:18.749125  3123 layer_factory.hpp:76] Creating layer conv7_BN
I0123 01:09:18.749130  3123 net.cpp:106] Creating Layer conv7_BN
I0123 01:09:18.749143  3123 net.cpp:454] conv7_BN <- pool6
I0123 01:09:18.749148  3123 net.cpp:411] conv7_BN -> conv7_BN
I0123 01:09:18.749286  3123 net.cpp:150] Setting up conv7_BN
I0123 01:09:18.749292  3123 net.cpp:157] Top shape: 256 512 2 2 (524288)
I0123 01:09:18.749294  3123 net.cpp:165] Memory required for data: 1342407680
I0123 01:09:18.749301  3123 layer_factory.hpp:76] Creating layer conv7
I0123 01:09:18.749310  3123 net.cpp:106] Creating Layer conv7
I0123 01:09:18.749323  3123 net.cpp:454] conv7 <- conv7_BN
I0123 01:09:18.749328  3123 net.cpp:411] conv7 -> conv7
I0123 01:09:18.848891  3123 net.cpp:150] Setting up conv7
I0123 01:09:18.848914  3123 net.cpp:157] Top shape: 256 1024 2 2 (1048576)
I0123 01:09:18.848918  3123 net.cpp:165] Memory required for data: 1346601984
I0123 01:09:18.848937  3123 layer_factory.hpp:76] Creating layer relu7
I0123 01:09:18.848947  3123 net.cpp:106] Creating Layer relu7
I0123 01:09:18.848963  3123 net.cpp:454] relu7 <- conv7
I0123 01:09:18.848970  3123 net.cpp:397] relu7 -> conv7 (in-place)
I0123 01:09:18.849062  3123 net.cpp:150] Setting up relu7
I0123 01:09:18.849068  3123 net.cpp:157] Top shape: 256 1024 2 2 (1048576)
I0123 01:09:18.849071  3123 net.cpp:165] Memory required for data: 1350796288
I0123 01:09:18.849076  3123 layer_factory.hpp:76] Creating layer fc8_BN
I0123 01:09:18.849081  3123 net.cpp:106] Creating Layer fc8_BN
I0123 01:09:18.849083  3123 net.cpp:454] fc8_BN <- conv7
I0123 01:09:18.849089  3123 net.cpp:411] fc8_BN -> fc8_BN
I0123 01:09:18.849243  3123 net.cpp:150] Setting up fc8_BN
I0123 01:09:18.849249  3123 net.cpp:157] Top shape: 256 1024 2 2 (1048576)
I0123 01:09:18.849252  3123 net.cpp:165] Memory required for data: 1354990592
I0123 01:09:18.849258  3123 layer_factory.hpp:76] Creating layer drop7
I0123 01:09:18.849269  3123 net.cpp:106] Creating Layer drop7
I0123 01:09:18.849283  3123 net.cpp:454] drop7 <- fc8_BN
I0123 01:09:18.849298  3123 net.cpp:411] drop7 -> drop7
I0123 01:09:18.849342  3123 net.cpp:150] Setting up drop7
I0123 01:09:18.849349  3123 net.cpp:157] Top shape: 256 1024 2 2 (1048576)
I0123 01:09:18.849351  3123 net.cpp:165] Memory required for data: 1359184896
I0123 01:09:18.849354  3123 layer_factory.hpp:76] Creating layer fc8
I0123 01:09:18.849364  3123 net.cpp:106] Creating Layer fc8
I0123 01:09:18.849366  3123 net.cpp:454] fc8 <- drop7
I0123 01:09:18.849382  3123 net.cpp:411] fc8 -> fc8
I0123 01:09:18.933616  3123 net.cpp:150] Setting up fc8
I0123 01:09:18.933640  3123 net.cpp:157] Top shape: 256 1000 (256000)
I0123 01:09:18.933645  3123 net.cpp:165] Memory required for data: 1360208896
I0123 01:09:18.933653  3123 layer_factory.hpp:76] Creating layer loss
I0123 01:09:18.933663  3123 net.cpp:106] Creating Layer loss
I0123 01:09:18.933677  3123 net.cpp:454] loss <- fc8
I0123 01:09:18.933683  3123 net.cpp:454] loss <- label
I0123 01:09:18.933689  3123 net.cpp:411] loss -> loss
I0123 01:09:18.933713  3123 layer_factory.hpp:76] Creating layer loss
…
I0123 01:09:18.935281  3123 net.cpp:322] The NetState phase (1) differed from the phase (0) specified by a rule in layer data
I0123 01:09:18.935564  3123 net.cpp:49] Initializing net from parameters: 
name: "CaffeNet"
state {
  phase: TEST
}
layer {
  name: "data"
  type: "Data"
  top: "data"
  top: "label"
  include {
    phase: TEST
  }
  transform_param {
    mirror: false
    crop_size: 128
    mean_value: 104
    mean_value: 117
    mean_value: 124
  }
  data_param {
    source: "/media/dereyly/2E4057004056CDE9/data/CAFFE_DATA/ilsvrc12_val_lmdb_144"
    batch_size: 100
    backend: LMDB
  }
}
layer {
  name: "conv1"
  type: "Convolution"
  bottom: "data"
  top: "conv1"
  param {
    lr_mult: 1
    decay_mult: 1
  }
  param {
    lr_mult: 2
    decay_mult: 0
  }
  convolution_param {
    num_output: 16
    kernel_size: 3
    stride: 1
    weight_filler {
      type: "msra"
      std: 0.01
    }
    bias_filler {
      type: "constant"
    }
  }
}
layer {
  name: "relu1"
  type: "PReLU"
  bottom: "conv1"
  top: "conv1"
  prelu_param {
    filler {
      type: "constant"
      value: 0.3
    }
    channel_shared: false
  }
}
layer {
  name: "pool1"
  type: "Pooling"
  bottom: "conv1"
  top: "pool1"
  pooling_param {
    pool: MAX
    kernel_size: 2
    stride: 2
  }
}
layer {
  name: "conv2_BN"
  type: "BatchNorm"
  bottom: "pool1"
  top: "conv2_BN"
}
layer {
  name: "conv2"
  type: "Convolution"
  bottom: "conv2_BN"
  top: "conv2"
  param {
    lr_mult: 1
    decay_mult: 1
  }
  param {
    lr_mult: 2
    decay_mult: 0
  }
  convolution_param {
    num_output: 32
    pad: 1
    kernel_size: 3
    weight_filler {
      type: "msra"
      std: 0.01
    }
    bias_filler {
      type: "constant"
    }
  }
}
layer {
  name: "relu2"
  type: "PReLU"
  bottom: "conv2"
  top: "conv2"
  prelu_param {
    filler {
      type: "constant"
      value: 0.3
    }
    channel_shared: false
  }
}
layer {
  name: "pool2"
  type: "Pooling"
  bottom: "conv2"
  top: "pool2"
  pooling_param {
    pool: MAX
    kernel_size: 2
    stride: 2
  }
}
layer {
  name: "conv3_BN"
  type: "BatchNorm"
  bottom: "pool2"
  top: "conv3_BN"
}
layer {
  name: "conv3"
  type: "Convolution"
  bottom: "conv3_BN"
  top: "conv3"
  param {
    lr_mult: 1
    decay_mult: 1
  }
  param {
    lr_mult: 2
    decay_mult: 0
  }
  convolution_param {
    num_output: 64
    pad: 1
    kernel_size: 3
    weight_filler {
      type: "msra"
      std: 0.01
    }
    bias_filler {
      type: "constant"
    }
  }
}
layer {
  name: "relu3"
  type: "PReLU"
  bottom: "conv3"
  top: "conv3"
  prelu_param {
    filler {
      type: "constant"
      value: 0.3
    }
    channel_shared: false
  }
}
layer {
  name: "pool3"
  type: "Pooling"
  bottom: "conv3"
  top: "pool3"
  pooling_param {
    pool: MAX
    kernel_size: 2
    stride: 2
  }
}
layer {
  name: "conv4_BN"
  type: "BatchNorm"
  bottom: "pool3"
  top: "conv4_BN"
}
layer {
  name: "conv4"
  type: "Convolution"
  bottom: "conv4_BN"
  top: "conv4"
  param {
    lr_mult: 1
    decay_mult: 1
  }
  param {
    lr_mult: 2
    decay_mult: 0
  }
  convolution_param {
    num_output: 128
    pad: 1
    kernel_size: 3
    weight_filler {
      type: "msra"
      std: 0.01
    }
    bias_filler {
      type: "constant"
    }
  }
}
layer {
  name: "relu4"
  type: "PReLU"
  bottom: "conv4"
  top: "conv4"
  prelu_param {
    filler {
      type: "constant"
      value: 0.3
    }
    channel_shared: false
  }
}
layer {
  name: "pool4"
  type: "Pooling"
  bottom: "conv4"
  top: "pool4"
  pooling_param {
    pool: MAX
    kernel_size: 2
    stride: 2
  }
}
layer {
  name: "conv5_BN"
  type: "BatchNorm"
  bottom: "pool4"
  top: "conv5_BN"
}
layer {
  name: "conv5"
  type: "Convolution"
  bottom: "conv5_BN"
  top: "conv5"
  param {
    lr_mult: 1
    decay_mult: 1
  }
  param {
    lr_mult: 2
    decay_mult: 0
  }
  convolution_param {
    num_output: 256
    pad: 1
    kernel_size: 3
    weight_filler {
      type: "msra"
      std: 0.01
    }
    bias_filler {
      type: "constant"
    }
  }
}
layer {
  name: "relu5"
  type: "PReLU"
  bottom: "conv5"
  top: "conv5"
  prelu_param {
    filler {
      type: "constant"
      value: 0.3
    }
    channel_shared: false
  }
}
layer {
  name: "pool5"
  type: "Pooling"
  bottom: "conv5"
  top: "pool5"
  pooling_param {
    pool: MAX
    kernel_size: 2
    stride: 2
  }
}
layer {
  name: "conv6_BN"
  type: "BatchNorm"
  bottom: "pool5"
  top: "conv6_BN"
}
layer {
  name: "conv6"
  type: "Convolution"
  bottom: "conv6_BN"
  top: "conv6"
  param {
    lr_mult: 1
    decay_mult: 1
  }
  param {
    lr_mult: 2
    decay_mult: 0
  }
  convolution_param {
    num_output: 512
    pad: 1
    kernel_size: 3
    weight_filler {
      type: "msra"
      std: 0.01
    }
    bias_filler {
      type: "constant"
    }
  }
}
layer {
  name: "relu6"
  type: "PReLU"
  bottom: "conv6"
  top: "conv6"
  prelu_param {
    filler {
      type: "constant"
      value: 0.3
    }
    channel_shared: false
  }
}
layer {
  name: "pool6"
  type: "Pooling"
  bottom: "conv6"
  top: "pool6"
  pooling_param {
    pool: MAX
    kernel_size: 2
    stride: 2
  }
}
layer {
  name: "conv7_BN"
  type: "BatchNorm"
  bottom: "pool6"
  top: "conv7_BN"
}
layer {
  name: "conv7"
  type: "Convolution"
  bottom: "conv7_BN"
  top: "conv7"
  param {
    lr_mult: 1
    decay_mult: 1
  }
  param {
    lr_mult: 2
    decay_mult: 0
  }
  convolution_param {
    num_output: 1024
    pad: 1
    kernel_size: 3
    weight_filler {
      type: "msra"
      std: 0.01
    }
    bias_filler {
      type: "constant"
    }
  }
}
layer {
  name: "relu7"
  type: "PReLU"
  bottom: "conv7"
  top: "conv7"
  prelu_param {
    filler {
      type: "constant"
      value: 0.3
    }
    channel_shared: false
  }
}
layer {
  name: "fc8_BN"
  type: "BatchNorm"
  bottom: "conv7"
  top: "fc8_BN"
}
layer {
  name: "drop7"
  type: "Dropout"
  bottom: "fc8_BN"
  top: "drop7"
  dropout_param {
    dropout_ratio: 0.2
  }
}
layer {
  name: "fc8"
  type: "InnerProduct"
  bottom: "drop7"
  top: "fc8"
  param {
    lr_mult: 1
    decay_mult: 1
  }
  param {
    lr_mult: 2
    decay_mult: 0
  }
  inner_product_param {
    num_output: 1000
    weight_filler {
      type: "gaussian"
      std: 0.01
    }
    bias_filler {
      type: "constant"
    }
  }
}
layer {
  name: "accuracy"
  type: "Accuracy"
  bottom: "fc8"
  bottom: "label"
  top: "accuracy"
  include {
    phase: TEST
  }
}
layer {
  name: "loss"
  type: "SoftmaxWithLoss"
  bottom: "fc8"
  bottom: "label"
  top: "loss"
}
I0123 01:09:18.935681  3123 layer_factory.hpp:76] Creating layer data
I0123 01:09:18.935791  3123 net.cpp:106] Creating Layer data
I0123 01:09:18.935798  3123 net.cpp:411] data -> data
I0123 01:09:18.935811  3123 net.cpp:411] data -> label
I0123 01:09:18.936830  3130 db_lmdb.cpp:38] Opened lmdb /media/dereyly/2E4057004056CDE9/data/CAFFE_DATA/ilsvrc12_val_lmdb_144
I0123 01:09:18.936988  3123 data_layer.cpp:41] output data size: 100,3,128,128
I0123 01:09:18.961772  3123 net.cpp:150] Setting up data
I0123 01:09:18.961796  3123 net.cpp:157] Top shape: 100 3 128 128 (4915200)
I0123 01:09:18.961801  3123 net.cpp:157] Top shape: 100 (100)
I0123 01:09:18.961804  3123 net.cpp:165] Memory required for data: 19661200
I0123 01:09:18.961822  3123 layer_factory.hpp:76] Creating layer label_data_1_split
I0123 01:09:18.961835  3123 net.cpp:106] Creating Layer label_data_1_split
I0123 01:09:18.961840  3123 net.cpp:454] label_data_1_split <- label
I0123 01:09:18.961846  3123 net.cpp:411] label_data_1_split -> label_data_1_split_0
I0123 01:09:18.961855  3123 net.cpp:411] label_data_1_split -> label_data_1_split_1
I0123 01:09:18.961942  3123 net.cpp:150] Setting up label_data_1_split
I0123 01:09:18.961949  3123 net.cpp:157] Top shape: 100 (100)
I0123 01:09:18.961952  3123 net.cpp:157] Top shape: 100 (100)
I0123 01:09:18.961956  3123 net.cpp:165] Memory required for data: 19662000
I0123 01:09:18.961958  3123 layer_factory.hpp:76] Creating layer conv1
I0123 01:09:18.961980  3123 net.cpp:106] Creating Layer conv1
I0123 01:09:18.961984  3123 net.cpp:454] conv1 <- data
I0123 01:09:18.961992  3123 net.cpp:411] conv1 -> conv1
I0123 01:09:18.964733  3123 net.cpp:150] Setting up conv1
I0123 01:09:18.964751  3123 net.cpp:157] Top shape: 100 16 126 126 (25401600)
I0123 01:09:18.964768  3123 net.cpp:165] Memory required for data: 121268400
I0123 01:09:18.964781  3123 layer_factory.hpp:76] Creating layer relu1
I0123 01:09:18.964792  3123 net.cpp:106] Creating Layer relu1
I0123 01:09:18.964795  3123 net.cpp:454] relu1 <- conv1
I0123 01:09:18.964803  3123 net.cpp:397] relu1 -> conv1 (in-place)
I0123 01:09:18.965394  3123 net.cpp:150] Setting up relu1
I0123 01:09:18.965404  3123 net.cpp:157] Top shape: 100 16 126 126 (25401600)
I0123 01:09:18.965409  3123 net.cpp:165] Memory required for data: 222874800
I0123 01:09:18.965415  3123 layer_factory.hpp:76] Creating layer pool1
I0123 01:09:18.965425  3123 net.cpp:106] Creating Layer pool1
I0123 01:09:18.965430  3123 net.cpp:454] pool1 <- conv1
I0123 01:09:18.965435  3123 net.cpp:411] pool1 -> pool1
I0123 01:09:18.965623  3123 net.cpp:150] Setting up pool1
I0123 01:09:18.965631  3123 net.cpp:157] Top shape: 100 16 63 63 (6350400)
I0123 01:09:18.965636  3123 net.cpp:165] Memory required for data: 248276400
I0123 01:09:18.965638  3123 layer_factory.hpp:76] Creating layer conv2_BN
I0123 01:09:18.965644  3123 net.cpp:106] Creating Layer conv2_BN
I0123 01:09:18.965648  3123 net.cpp:454] conv2_BN <- pool1
I0123 01:09:18.965657  3123 net.cpp:411] conv2_BN -> conv2_BN
I0123 01:09:18.965824  3123 net.cpp:150] Setting up conv2_BN
I0123 01:09:18.965831  3123 net.cpp:157] Top shape: 100 16 63 63 (6350400)
I0123 01:09:18.965834  3123 net.cpp:165] Memory required for data: 273678000
I0123 01:09:18.965843  3123 layer_factory.hpp:76] Creating layer conv2
I0123 01:09:18.965853  3123 net.cpp:106] Creating Layer conv2
I0123 01:09:18.965857  3123 net.cpp:454] conv2 <- conv2_BN
I0123 01:09:18.965863  3123 net.cpp:411] conv2 -> conv2
I0123 01:09:18.966791  3123 net.cpp:150] Setting up conv2
I0123 01:09:18.966802  3123 net.cpp:157] Top shape: 100 32 63 63 (12700800)
I0123 01:09:18.966826  3123 net.cpp:165] Memory required for data: 324481200
I0123 01:09:18.966833  3123 layer_factory.hpp:76] Creating layer relu2
I0123 01:09:18.966840  3123 net.cpp:106] Creating Layer relu2
I0123 01:09:18.966843  3123 net.cpp:454] relu2 <- conv2
I0123 01:09:18.966850  3123 net.cpp:397] relu2 -> conv2 (in-place)
I0123 01:09:18.967399  3123 net.cpp:150] Setting up relu2
I0123 01:09:18.967411  3123 net.cpp:157] Top shape: 100 32 63 63 (12700800)
I0123 01:09:18.967413  3123 net.cpp:165] Memory required for data: 375284400
I0123 01:09:18.967422  3123 layer_factory.hpp:76] Creating layer pool2
I0123 01:09:18.967429  3123 net.cpp:106] Creating Layer pool2
I0123 01:09:18.967433  3123 net.cpp:454] pool2 <- conv2
I0123 01:09:18.967438  3123 net.cpp:411] pool2 -> pool2
I0123 01:09:18.967725  3123 net.cpp:150] Setting up pool2
I0123 01:09:18.967735  3123 net.cpp:157] Top shape: 100 32 32 32 (3276800)
I0123 01:09:18.967738  3123 net.cpp:165] Memory required for data: 388391600
I0123 01:09:18.967741  3123 layer_factory.hpp:76] Creating layer conv3_BN
I0123 01:09:18.967748  3123 net.cpp:106] Creating Layer conv3_BN
I0123 01:09:18.967752  3123 net.cpp:454] conv3_BN <- pool2
I0123 01:09:18.967756  3123 net.cpp:411] conv3_BN -> conv3_BN
I0123 01:09:18.967931  3123 net.cpp:150] Setting up conv3_BN
I0123 01:09:18.967938  3123 net.cpp:157] Top shape: 100 32 32 32 (3276800)
I0123 01:09:18.967941  3123 net.cpp:165] Memory required for data: 401498800
I0123 01:09:18.967947  3123 layer_factory.hpp:76] Creating layer conv3
I0123 01:09:18.967957  3123 net.cpp:106] Creating Layer conv3
I0123 01:09:18.967960  3123 net.cpp:454] conv3 <- conv3_BN
I0123 01:09:18.967965  3123 net.cpp:411] conv3 -> conv3
I0123 01:09:18.969163  3123 net.cpp:150] Setting up conv3
I0123 01:09:18.969185  3123 net.cpp:157] Top shape: 100 64 32 32 (6553600)
I0123 01:09:18.969189  3123 net.cpp:165] Memory required for data: 427713200
I0123 01:09:18.969195  3123 layer_factory.hpp:76] Creating layer relu3
I0123 01:09:18.969202  3123 net.cpp:106] Creating Layer relu3
I0123 01:09:18.969204  3123 net.cpp:454] relu3 <- conv3
I0123 01:09:18.969209  3123 net.cpp:397] relu3 -> conv3 (in-place)
I0123 01:09:18.969321  3123 net.cpp:150] Setting up relu3
I0123 01:09:18.969336  3123 net.cpp:157] Top shape: 100 64 32 32 (6553600)
I0123 01:09:18.969341  3123 net.cpp:165] Memory required for data: 453927600
I0123 01:09:18.969346  3123 layer_factory.hpp:76] Creating layer pool3
I0123 01:09:18.969362  3123 net.cpp:106] Creating Layer pool3
I0123 01:09:18.969365  3123 net.cpp:454] pool3 <- conv3
I0123 01:09:18.969369  3123 net.cpp:411] pool3 -> pool3
I0123 01:09:18.969537  3123 net.cpp:150] Setting up pool3
I0123 01:09:18.969545  3123 net.cpp:157] Top shape: 100 64 16 16 (1638400)
I0123 01:09:18.969548  3123 net.cpp:165] Memory required for data: 460481200
I0123 01:09:18.969552  3123 layer_factory.hpp:76] Creating layer conv4_BN
I0123 01:09:18.969558  3123 net.cpp:106] Creating Layer conv4_BN
I0123 01:09:18.969561  3123 net.cpp:454] conv4_BN <- pool3
I0123 01:09:18.969566  3123 net.cpp:411] conv4_BN -> conv4_BN
I0123 01:09:18.969727  3123 net.cpp:150] Setting up conv4_BN
I0123 01:09:18.969732  3123 net.cpp:157] Top shape: 100 64 16 16 (1638400)
I0123 01:09:18.969735  3123 net.cpp:165] Memory required for data: 467034800
I0123 01:09:18.969754  3123 layer_factory.hpp:76] Creating layer conv4
I0123 01:09:18.969763  3123 net.cpp:106] Creating Layer conv4
I0123 01:09:18.969766  3123 net.cpp:454] conv4 <- conv4_BN
I0123 01:09:18.969774  3123 net.cpp:411] conv4 -> conv4
I0123 01:09:18.972277  3123 net.cpp:150] Setting up conv4
I0123 01:09:18.972290  3123 net.cpp:157] Top shape: 100 128 16 16 (3276800)
I0123 01:09:18.972293  3123 net.cpp:165] Memory required for data: 480142000
I0123 01:09:18.972298  3123 layer_factory.hpp:76] Creating layer relu4
I0123 01:09:18.972306  3123 net.cpp:106] Creating Layer relu4
I0123 01:09:18.972308  3123 net.cpp:454] relu4 <- conv4
I0123 01:09:18.972313  3123 net.cpp:397] relu4 -> conv4 (in-place)
I0123 01:09:18.972400  3123 net.cpp:150] Setting up relu4
I0123 01:09:18.972407  3123 net.cpp:157] Top shape: 100 128 16 16 (3276800)
I0123 01:09:18.972410  3123 net.cpp:165] Memory required for data: 493249200
I0123 01:09:18.972414  3123 layer_factory.hpp:76] Creating layer pool4
I0123 01:09:18.972422  3123 net.cpp:106] Creating Layer pool4
I0123 01:09:18.972426  3123 net.cpp:454] pool4 <- conv4
I0123 01:09:18.972431  3123 net.cpp:411] pool4 -> pool4
I0123 01:09:18.972594  3123 net.cpp:150] Setting up pool4
I0123 01:09:18.972602  3123 net.cpp:157] Top shape: 100 128 8 8 (819200)
I0123 01:09:18.972616  3123 net.cpp:165] Memory required for data: 496526000
I0123 01:09:18.972620  3123 layer_factory.hpp:76] Creating layer conv5_BN
I0123 01:09:18.972625  3123 net.cpp:106] Creating Layer conv5_BN
I0123 01:09:18.972627  3123 net.cpp:454] conv5_BN <- pool4
I0123 01:09:18.972632  3123 net.cpp:411] conv5_BN -> conv5_BN
I0123 01:09:18.972793  3123 net.cpp:150] Setting up conv5_BN
I0123 01:09:18.972798  3123 net.cpp:157] Top shape: 100 128 8 8 (819200)
I0123 01:09:18.972802  3123 net.cpp:165] Memory required for data: 499802800
I0123 01:09:18.972808  3123 layer_factory.hpp:76] Creating layer conv5
I0123 01:09:18.972815  3123 net.cpp:106] Creating Layer conv5
I0123 01:09:18.972820  3123 net.cpp:454] conv5 <- conv5_BN
I0123 01:09:18.972823  3123 net.cpp:411] conv5 -> conv5
I0123 01:09:18.980880  3123 net.cpp:150] Setting up conv5
I0123 01:09:18.980901  3123 net.cpp:157] Top shape: 100 256 8 8 (1638400)
I0123 01:09:18.980904  3123 net.cpp:165] Memory required for data: 506356400
I0123 01:09:18.980912  3123 layer_factory.hpp:76] Creating layer relu5
I0123 01:09:18.980921  3123 net.cpp:106] Creating Layer relu5
I0123 01:09:18.980926  3123 net.cpp:454] relu5 <- conv5
I0123 01:09:18.980933  3123 net.cpp:397] relu5 -> conv5 (in-place)
I0123 01:09:18.981022  3123 net.cpp:150] Setting up relu5
I0123 01:09:18.981040  3123 net.cpp:157] Top shape: 100 256 8 8 (1638400)
I0123 01:09:18.981042  3123 net.cpp:165] Memory required for data: 512910000
I0123 01:09:18.981046  3123 layer_factory.hpp:76] Creating layer pool5
I0123 01:09:18.981053  3123 net.cpp:106] Creating Layer pool5
I0123 01:09:18.981056  3123 net.cpp:454] pool5 <- conv5
I0123 01:09:18.981061  3123 net.cpp:411] pool5 -> pool5
I0123 01:09:18.981335  3123 net.cpp:150] Setting up pool5
I0123 01:09:18.981344  3123 net.cpp:157] Top shape: 100 256 4 4 (409600)
I0123 01:09:18.981348  3123 net.cpp:165] Memory required for data: 514548400
I0123 01:09:18.981351  3123 layer_factory.hpp:76] Creating layer conv6_BN
I0123 01:09:18.981359  3123 net.cpp:106] Creating Layer conv6_BN
I0123 01:09:18.981372  3123 net.cpp:454] conv6_BN <- pool5
I0123 01:09:18.981376  3123 net.cpp:411] conv6_BN -> conv6_BN
I0123 01:09:18.981524  3123 net.cpp:150] Setting up conv6_BN
I0123 01:09:18.981530  3123 net.cpp:157] Top shape: 100 256 4 4 (409600)
I0123 01:09:18.981534  3123 net.cpp:165] Memory required for data: 516186800
I0123 01:09:18.981539  3123 layer_factory.hpp:76] Creating layer conv6
I0123 01:09:18.981549  3123 net.cpp:106] Creating Layer conv6
I0123 01:09:18.981551  3123 net.cpp:454] conv6 <- conv6_BN
I0123 01:09:18.981556  3123 net.cpp:411] conv6 -> conv6
I0123 01:09:19.008216  3123 net.cpp:150] Setting up conv6
I0123 01:09:19.008237  3123 net.cpp:157] Top shape: 100 512 4 4 (819200)
I0123 01:09:19.008241  3123 net.cpp:165] Memory required for data: 519463600
I0123 01:09:19.008260  3123 layer_factory.hpp:76] Creating layer relu6
I0123 01:09:19.008280  3123 net.cpp:106] Creating Layer relu6
I0123 01:09:19.008285  3123 net.cpp:454] relu6 <- conv6
I0123 01:09:19.008292  3123 net.cpp:397] relu6 -> conv6 (in-place)
I0123 01:09:19.008400  3123 net.cpp:150] Setting up relu6
I0123 01:09:19.008419  3123 net.cpp:157] Top shape: 100 512 4 4 (819200)
I0123 01:09:19.008422  3123 net.cpp:165] Memory required for data: 522740400
I0123 01:09:19.008445  3123 layer_factory.hpp:76] Creating layer pool6
I0123 01:09:19.008451  3123 net.cpp:106] Creating Layer pool6
I0123 01:09:19.008455  3123 net.cpp:454] pool6 <- conv6
I0123 01:09:19.008460  3123 net.cpp:411] pool6 -> pool6
I0123 01:09:19.008642  3123 net.cpp:150] Setting up pool6
I0123 01:09:19.008661  3123 net.cpp:157] Top shape: 100 512 2 2 (204800)
I0123 01:09:19.008664  3123 net.cpp:165] Memory required for data: 523559600
I0123 01:09:19.008667  3123 layer_factory.hpp:76] Creating layer conv7_BN
I0123 01:09:19.008684  3123 net.cpp:106] Creating Layer conv7_BN
I0123 01:09:19.008687  3123 net.cpp:454] conv7_BN <- pool6
I0123 01:09:19.008692  3123 net.cpp:411] conv7_BN -> conv7_BN
I0123 01:09:19.008868  3123 net.cpp:150] Setting up conv7_BN
I0123 01:09:19.008875  3123 net.cpp:157] Top shape: 100 512 2 2 (204800)
I0123 01:09:19.008878  3123 net.cpp:165] Memory required for data: 524378800
I0123 01:09:19.008895  3123 layer_factory.hpp:76] Creating layer conv7
I0123 01:09:19.008903  3123 net.cpp:106] Creating Layer conv7
I0123 01:09:19.008906  3123 net.cpp:454] conv7 <- conv7_BN
I0123 01:09:19.008911  3123 net.cpp:411] conv7 -> conv7
I0123 01:09:19.109380  3123 net.cpp:150] Setting up conv7
I0123 01:09:19.109411  3123 net.cpp:157] Top shape: 100 1024 2 2 (409600)
I0123 01:09:19.109414  3123 net.cpp:165] Memory required for data: 526017200
I0123 01:09:19.109423  3123 layer_factory.hpp:76] Creating layer relu7
I0123 01:09:19.109443  3123 net.cpp:106] Creating Layer relu7
I0123 01:09:19.109448  3123 net.cpp:454] relu7 <- conv7
I0123 01:09:19.109457  3123 net.cpp:397] relu7 -> conv7 (in-place)
I0123 01:09:19.109555  3123 net.cpp:150] Setting up relu7
I0123 01:09:19.109572  3123 net.cpp:157] Top shape: 100 1024 2 2 (409600)
I0123 01:09:19.109576  3123 net.cpp:165] Memory required for data: 527655600
I0123 01:09:19.109580  3123 layer_factory.hpp:76] Creating layer fc8_BN
I0123 01:09:19.109586  3123 net.cpp:106] Creating Layer fc8_BN
I0123 01:09:19.109601  3123 net.cpp:454] fc8_BN <- conv7
I0123 01:09:19.109604  3123 net.cpp:411] fc8_BN -> fc8_BN
I0123 01:09:19.109771  3123 net.cpp:150] Setting up fc8_BN
I0123 01:09:19.109776  3123 net.cpp:157] Top shape: 100 1024 2 2 (409600)
I0123 01:09:19.109789  3123 net.cpp:165] Memory required for data: 529294000
I0123 01:09:19.109796  3123 layer_factory.hpp:76] Creating layer drop7
I0123 01:09:19.109802  3123 net.cpp:106] Creating Layer drop7
I0123 01:09:19.109817  3123 net.cpp:454] drop7 <- fc8_BN
I0123 01:09:19.109832  3123 net.cpp:411] drop7 -> drop7
I0123 01:09:19.109874  3123 net.cpp:150] Setting up drop7
I0123 01:09:19.109879  3123 net.cpp:157] Top shape: 100 1024 2 2 (409600)
I0123 01:09:19.109891  3123 net.cpp:165] Memory required for data: 530932400
I0123 01:09:19.109894  3123 layer_factory.hpp:76] Creating layer fc8
I0123 01:09:19.109912  3123 net.cpp:106] Creating Layer fc8
I0123 01:09:19.109916  3123 net.cpp:454] fc8 <- drop7
I0123 01:09:19.109921  3123 net.cpp:411] fc8 -> fc8
I0123 01:09:19.195603  3123 net.cpp:150] Setting up fc8
I0123 01:09:19.195626  3123 net.cpp:157] Top shape: 100 1000 (100000)
I0123 01:09:19.195631  3123 net.cpp:165] Memory required for data: 531332400
I0123 01:09:19.195639  3123 layer_factory.hpp:76] Creating layer fc8_fc8_0_split
I0123 01:09:19.195647  3123 net.cpp:106] Creating Layer fc8_fc8_0_split
I0123 01:09:19.195662  3123 net.cpp:454] fc8_fc8_0_split <- fc8
I0123 01:09:19.195668  3123 net.cpp:411] fc8_fc8_0_split -> fc8_fc8_0_split_0
I0123 01:09:19.195675  3123 net.cpp:411] fc8_fc8_0_split -> fc8_fc8_0_split_1
I0123 01:09:19.195731  3123 net.cpp:150] Setting up fc8_fc8_0_split
I0123 01:09:19.195737  3123 net.cpp:157] Top shape: 100 1000 (100000)
I0123 01:09:19.195752  3123 net.cpp:157] Top shape: 100 1000 (100000)
I0123 01:09:19.195755  3123 net.cpp:165] Memory required for data: 532132400
I0123 01:09:19.195758  3123 layer_factory.hpp:76] Creating layer accuracy
I0123 01:09:19.195793  3123 net.cpp:106] Creating Layer accuracy
I0123 01:09:19.195796  3123 net.cpp:454] accuracy <- fc8_fc8_0_split_0
I0123 01:09:19.195801  3123 net.cpp:454] accuracy <- label_data_1_split_0
I0123 01:09:19.195806  3123 net.cpp:411] accuracy -> accuracy
…
