…
      crop_size: 128
      mean_value: 104
      mean_value: 117
      mean_value: 123
      force_color: true
      resize_param {
        prob: 1
        resize_mode: FIT_SMALL_SIZE
        height: 144
        width: 144
        pad_mode: MIRRORED
        pad_value: 104
        pad_value: 117
        pad_value: 124
        interp_mode: CUBIC
        center_object: false
        max_angle: 0
      }
    }
    data_param {
      source: "/home/share/storage/datasets/imagenet/lmdb/ilsvrc12_val_lmdb"
      batch_size: 50
      backend: LMDB
    }
  }
  layer {
    name: "conv1"
    type: "Convolution"
    bottom: "data"
    top: "conv1"
    param {
      lr_mult: 1
      decay_mult: 1
    }
    param {
      lr_mult: 2
      decay_mult: 0
    }
    convolution_param {
      num_output: 96
      kernel_size: 11
      stride: 4
      weight_filler {
        type: "gaussian"
        std: 0.01
      }
      bias_filler {
        type: "constant"
      }
    }
  }
  layer {
    name: "relu1"
    type: "ELU"
    bottom: "conv1"
    top: "conv1"
    elu_param {
      alpha: 1
    }
  }
  layer {
    name: "conv1_BN"
    type: "BatchNorm"
    bottom: "conv1"
    top: "conv1_BN"
    param {
      lr_mult: 0
      decay_mult: 0
    }
    param {
      lr_mult: 0
      decay_mult: 0
    }
    param {
      lr_mult: 0
      decay_mult: 0
    }
    include {
      phase: TRAIN
    }
    batch_norm_param {
      use_global_stats: false
      moving_average_fraction: 0.95
    }
  }
  layer {
    name: "conv1_BN"
    type: "BatchNorm"
    bottom: "conv1"
    top: "conv1_BN"
    param {
      lr_mult: 0
      decay_mult: 0
    }
    param {
      lr_mult: 0
      decay_mult: 0
    }
    param {
      lr_mult: 0
      decay_mult: 0
    }
    include {
      phase: TEST
    }
    batch_norm_param {
      use_global_stats: true
      moving_average_fraction: 0.95
    }
  }
  layer {
    name: "pool1"
    type: "Pooling"
    bottom: "conv1_BN"
    top: "pool1"
    pooling_param {
      pool: MAX
      kernel_size: 3
      stride: 2
    }
  }
  layer {
    name: "conv2"
    type: "Convolution"
    bottom: "pool1"
    top: "conv2"
    param {
      lr_mult: 1
      decay_mult: 1
    }
    param {
      lr_mult: 2
      decay_mult: 0
    }
    convolution_param {
      num_output: 256
      pad: 2
      kernel_size: 5
      group: 2
      weight_filler {
        type: "gaussian"
        std: 0.01
      }
      bias_filler {
        type: "constant"
      }
    }
  }
  layer {
    name: "relu2"
    type: "ELU"
    bottom: "conv2"
    top: "conv2"
    elu_param {
      alpha: 1
    }
  }
  layer {
    name: "conv2_BN"
    type: "BatchNorm"
    bottom: "conv2"
    top: "conv2_BN"
    param {
      lr_mult: 0
      decay_mult: 0
    }
    param {
      lr_mult: 0
      decay_mult: 0
    }
    param {
      lr_mult: 0
      decay_mult: 0
    }
    include {
      phase: TRAIN
    }
    batch_norm_param {
      use_global_stats: false
      moving_average_fraction: 0.95
    }
  }
  layer {
    name: "conv2_BN"
    type: "BatchNorm"
    bottom: "conv2"
    top: "conv2_BN"
    param {
      lr_mult: 0
      decay_mult: 0
    }
    param {
      lr_mult: 0
      decay_mult: 0
    }
    param {
      lr_mult: 0
      decay_mult: 0
    }
    include {
      phase: TEST
    }
    batch_norm_param {
      use_global_stats: true
      moving_average_fraction: 0.95
    }
  }
  layer {
    name: "pool2"
    type: "Pooling"
    bottom: "conv2_BN"
    top: "pool2"
    pooling_param {
      pool: MAX
      kernel_size: 3
      stride: 2
    }
  }
  layer {
    name: "conv3"
    type: "Convolution"
    bottom: "pool2"
    top: "conv3"
    param {
      lr_mult: 1
      decay_mult: 1
    }
    param {
      lr_mult: 2
      decay_mult: 0
    }
    convolution_param {
      num_output: 384
      pad: 1
      kernel_size: 3
      weight_filler {
        type: "gaussian"
        std: 0.01
      }
      bias_filler {
        type: "constant"
      }
    }
  }
  layer {
    name: "relu3"
    type: "ELU"
    bottom: "conv3"
    top: "conv3"
    elu_param {
      alpha: 1
    }
  }
  layer {
    name: "conv3_BN"
    type: "BatchNorm"
    bottom: "conv3"
    top: "conv3_BN"
    param {
      lr_mult: 0
      decay_mult: 0
    }
    param {
      lr_mult: 0
      decay_mult: 0
    }
    param {
      lr_mult: 0
      decay_mult: 0
    }
    include {
      phase: TRAIN
    }
    batch_norm_param {
      use_global_stats: false
      moving_average_fraction: 0.95
    }
  }
  layer {
    name: "conv3_BN"
    type: "BatchNorm"
    bottom: "conv3"
    top: "conv3_BN"
    param {
      lr_mult: 0
      decay_mult: 0
    }
    param {
      lr_mult: 0
      decay_mult: 0
    }
    param {
      lr_mult: 0
      decay_mult: 0
    }
    include {
      phase: TEST
    }
    batch_norm_param {
      use_global_stats: true
      moving_average_fraction: 0.95
    }
  }
  layer {
    name: "conv4"
    type: "Convolution"
    bottom: "conv3_BN"
    top: "conv4"
    param {
      lr_mult: 1
      decay_mult: 1
    }
    param {
      lr_mult: 2
      decay_mult: 0
    }
    convolution_param {
      num_output: 384
      pad: 1
      kernel_size: 3
      group: 2
      weight_filler {
        type: "gaussian"
        std: 0.01
      }
      bias_filler {
        type: "constant"
      }
    }
  }
  layer {
    name: "relu4"
    type: "ELU"
    bottom: "conv4"
    top: "conv4"
    elu_param {
      alpha: 1
    }
  }
  layer {
    name: "conv4_BN"
    type: "BatchNorm"
    bottom: "conv4"
    top: "conv4_BN"
    param {
      lr_mult: 0
      decay_mult: 0
    }
    param {
      lr_mult: 0
      decay_mult: 0
    }
    param {
      lr_mult: 0
      decay_mult: 0
    }
    include {
      phase: TRAIN
    }
    batch_norm_param {
      use_global_stats: false
      moving_average_fraction: 0.95
    }
  }
  layer {
    name: "conv4_BN"
    type: "BatchNorm"
    bottom: "conv4"
    top: "conv4_BN"
    param {
      lr_mult: 0
      decay_mult: 0
    }
    param {
      lr_mult: 0
      decay_mult: 0
    }
    param {
      lr_mult: 0
      decay_mult: 0
    }
    include {
      phase: TEST
    }
    batch_norm_param {
      use_global_stats: true
      moving_average_fraction: 0.95
    }
  }
  layer {
    name: "conv5"
    type: "Convolution"
    bottom: "conv4_BN"
    top: "conv5"
    param {
      lr_mult: 1
      decay_mult: 1
    }
    param {
      lr_mult: 2
      decay_mult: 0
    }
    convolution_param {
      num_output: 256
      pad: 1
      kernel_size: 3
      group: 2
      weight_filler {
        type: "gaussian"
        std: 0.01
      }
      bias_filler {
        type: "constant"
      }
    }
  }
  layer {
    name: "relu5"
    type: "ELU"
    bottom: "conv5"
    top: "conv5"
    elu_param {
      alpha: 1
    }
  }
  layer {
    name: "conv5_BN"
    type: "BatchNorm"
    bottom: "conv5"
    top: "conv5_BN"
    param {
      lr_mult: 0
      decay_mult: 0
    }
    param {
      lr_mult: 0
      decay_mult: 0
    }
    param {
      lr_mult: 0
      decay_mult: 0
    }
    include {
      phase: TRAIN
    }
    batch_norm_param {
      use_global_stats: false
      moving_average_fraction: 0.95
    }
  }
  layer {
    name: "conv5_BN"
    type: "BatchNorm"
    bottom: "conv5"
    top: "conv5_BN"
    param {
      lr_mult: 0
      decay_mult: 0
    }
    param {
      lr_mult: 0
      decay_mult: 0
    }
    param {
      lr_mult: 0
      decay_mult: 0
    }
    include {
      phase: TEST
    }
    batch_norm_param {
      use_global_stats: true
      moving_average_fraction: 0.95
    }
  }
  layer {
    name: "pool5"
    type: "Pooling"
    bottom: "conv5_BN"
    top: "pool5"
    pooling_param {
      pool: MAX
      kernel_size: 3
      stride: 2
    }
  }
  layer {
    name: "fc6"
    type: "InnerProduct"
    bottom: "pool5"
    top: "fc6"
    param {
      lr_mult: 1
      decay_mult: 1
    }
    param {
      lr_mult: 2
      decay_mult: 0
    }
    inner_product_param {
      num_output: 2048
      weight_filler {
        type: "gaussian"
        std: 0.005
      }
      bias_filler {
        type: "constant"
      }
    }
  }
  layer {
    name: "relu6"
    type: "ELU"
    bottom: "fc6"
    top: "fc6"
    elu_param {
      alpha: 1
    }
  }
  layer {
    name: "fc6_BN"
    type: "BatchNorm"
    bottom: "fc6"
    top: "fc6_BN"
    param {
      lr_mult: 0
      decay_mult: 0
    }
    param {
      lr_mult: 0
      decay_mult: 0
    }
    param {
      lr_mult: 0
      decay_mult: 0
    }
    include {
      phase: TRAIN
    }
    batch_norm_param {
      use_global_stats: false
      moving_average_fraction: 0.95
    }
  }
  layer {
    name: "fc6_BN"
    type: "BatchNorm"
    bottom: "fc6"
    top: "fc6_BN"
    param {
      lr_mult: 0
      decay_mult: 0
    }
    param {
      lr_mult: 0
      decay_mult: 0
    }
    param {
      lr_mult: 0
      decay_mult: 0
    }
    include {
      phase: TEST
    }
    batch_norm_param {
      use_global_stats: true
      moving_average_fraction: 0.95
    }
  }
  layer {
    name: "drop6"
    type: "Dropout"
    bottom: "fc6_BN"
    top: "drop6"
    dropout_param {
      dropout_ratio: 0.5
    }
  }
  layer {
    name: "fc7"
    type: "InnerProduct"
    bottom: "drop6"
    top: "fc7"
    param {
      lr_mult: 1
      decay_mult: 1
    }
    param {
      lr_mult: 2
      decay_mult: 0
    }
    inner_product_param {
      num_output: 2048
      weight_filler {
        type: "gaussian"
        std: 0.005
      }
      bias_filler {
        type: "constant"
      }
    }
  }
  layer {
    name: "relu7"
    type: "ELU"
    bottom: "fc7"
    top: "fc7"
    elu_param {
      alpha: 1
    }
  }
  layer {
    name: "fc7_BN"
    type: "BatchNorm"
    bottom: "fc7"
    top: "fc7_BN"
    param {
      lr_mult: 0
      decay_mult: 0
    }
    param {
      lr_mult: 0
      decay_mult: 0
    }
    param {
      lr_mult: 0
      decay_mult: 0
    }
    include {
      phase: TRAIN
    }
    batch_norm_param {
      use_global_stats: false
      moving_average_fraction: 0.95
    }
  }
  layer {
    name: "fc7_BN"
    type: "BatchNorm"
    bottom: "fc7"
    top: "fc7_BN"
    param {
      lr_mult: 0
      decay_mult: 0
    }
    param {
      lr_mult: 0
      decay_mult: 0
    }
    param {
      lr_mult: 0
      decay_mult: 0
    }
    include {
      phase: TEST
    }
    batch_norm_param {
      use_global_stats: true
      moving_average_fraction: 0.95
    }
  }
  layer {
    name: "drop7"
    type: "Dropout"
    bottom: "fc7_BN"
    top: "drop7"
    dropout_param {
      dropout_ratio: 0.5
    }
  }
  layer {
    name: "fc8"
    type: "InnerProduct"
    bottom: "drop7"
    top: "fc8"
    param {
      lr_mult: 1
      decay_mult: 1
    }
    param {
      lr_mult: 2
      decay_mult: 0
    }
    inner_product_param {
      num_output: 1000
      weight_filler {
        type: "gaussian"
        std: 0.01
      }
      bias_filler {
        type: "constant"
      }
    }
  }
  layer {
    name: "accuracy"
    type: "Accuracy"
    bottom: "fc8"
    bottom: "label"
    top: "accuracy"
    include {
      phase: TEST
    }
  }
  layer {
    name: "loss"
    type: "SoftmaxWithLoss"
    bottom: "fc8"
    bottom: "label"
    top: "loss"
  }
}
iter_size: 1
type: "SGD"
I1213 07:44:27.538409 20576 solver.cpp:86] Creating training net specified in net_param.
I1213 07:44:27.538492 20576 net.cpp:322] The NetState phase (0) differed from the phase (1) specified by a rule in layer data
I1213 07:44:27.538501 20576 net.cpp:322] The NetState phase (0) differed from the phase (1) specified by a rule in layer conv1_BN
I1213 07:44:27.538503 20576 net.cpp:322] The NetState phase (0) differed from the phase (1) specified by a rule in layer conv2_BN
…
  transform_param {
    scale: 0.04
    mirror: true
    crop_size: 128
    mean_value: 104
    mean_value: 117
    mean_value: 124
    force_color: true
    resize_param {
      prob: 1
      resize_mode: FIT_SMALL_SIZE
      height: 144
      width: 144
      pad_mode: MIRRORED
      pad_value: 104
      pad_value: 117
      pad_value: 124
      interp_mode: CUBIC
      center_object: false
      max_angle: 0
    }
  }
  data_param {
    source: "/home/share/storage/datasets/imagenet/lmdb/ilsvrc12_train_lmdb"
    batch_size: 256
    backend: LMDB
  }
}
layer {
  name: "conv1"
  type: "Convolution"
  bottom: "data"
  top: "conv1"
  param {
    lr_mult: 1
    decay_mult: 1
  }
  param {
    lr_mult: 2
    decay_mult: 0
  }
  convolution_param {
    num_output: 96
    kernel_size: 11
    stride: 4
    weight_filler {
      type: "gaussian"
      std: 0.01
    }
    bias_filler {
      type: "constant"
    }
  }
}
layer {
  name: "relu1"
  type: "ELU"
  bottom: "conv1"
  top: "conv1"
  elu_param {
    alpha: 1
  }
}
layer {
  name: "conv1_BN"
  type: "BatchNorm"
  bottom: "conv1"
  top: "conv1_BN"
  param {
    lr_mult: 0
    decay_mult: 0
  }
  param {
    lr_mult: 0
    decay_mult: 0
  }
  param {
    lr_mult: 0
    decay_mult: 0
  }
  include {
    phase: TRAIN
  }
  batch_norm_param {
    use_global_stats: false
    moving_average_fraction: 0.95
  }
}
layer {
  name: "pool1"
  type: "Pooling"
  bottom: "conv1_BN"
  top: "pool1"
  pooling_param {
    pool: MAX
    kernel_size: 3
    stride: 2
  }
}
layer {
  name: "conv2"
  type: "Convolution"
  bottom: "pool1"
  top: "conv2"
  param {
    lr_mult: 1
    decay_mult: 1
  }
  param {
    lr_mult: 2
    decay_mult: 0
  }
  convolution_param {
    num_output: 256
    pad: 2
    kernel_size: 5
    group: 2
    weight_filler {
      type: "gaussian"
      std: 0.01
    }
    bias_filler {
      type: "constant"
    }
  }
}
layer {
  name: "relu2"
  type: "ELU"
  bottom: "conv2"
  top: "conv2"
  elu_param {
    alpha: 1
  }
}
layer {
  name: "conv2_BN"
  type: "BatchNorm"
  bottom: "conv2"
  top: "conv2_BN"
  param {
    lr_mult: 0
    decay_mult: 0
  }
  param {
    lr_mult: 0
    decay_mult: 0
  }
  param {
    lr_mult: 0
    decay_mult: 0
  }
  include {
    phase: TRAIN
  }
  batch_norm_param {
    use_global_stats: false
    moving_average_fraction: 0.95
  }
}
layer {
  name: "pool2"
  type: "Pooling"
  bottom: "conv2_BN"
  top: "pool2"
  pooling_param {
    pool: MAX
    kernel_size: 3
    stride: 2
  }
}
layer {
  name: "conv3"
  type: "Convolution"
  bottom: "pool2"
  top: "conv3"
  param {
    lr_mult: 1
    decay_mult: 1
  }
  param {
    lr_mult: 2
    decay_mult: 0
  }
  convolution_param {
    num_output: 384
    pad: 1
    kernel_size: 3
    weight_filler {
      type: "gaussian"
      std: 0.01
    }
    bias_filler {
      type: "constant"
    }
  }
}
layer {
  name: "relu3"
  type: "ELU"
  bottom: "conv3"
  top: "conv3"
  elu_param {
    alpha: 1
  }
}
layer {
  name: "conv3_BN"
  type: "BatchNorm"
  bottom: "conv3"
  top: "conv3_BN"
  param {
    lr_mult: 0
    decay_mult: 0
  }
  param {
    lr_mult: 0
    decay_mult: 0
  }
  param {
    lr_mult: 0
    decay_mult: 0
  }
  include {
    phase: TRAIN
  }
  batch_norm_param {
    use_global_stats: false
    moving_average_fraction: 0.95
  }
}
layer {
  name: "conv4"
  type: "Convolution"
  bottom: "conv3_BN"
  top: "conv4"
  param {
    lr_mult: 1
    decay_mult: 1
  }
  param {
    lr_mult: 2
    decay_mult: 0
  }
  convolution_param {
    num_output: 384
    pad: 1
    kernel_size: 3
    group: 2
    weight_filler {
      type: "gaussian"
      std: 0.01
    }
    bias_filler {
      type: "constant"
    }
  }
}
layer {
  name: "relu4"
  type: "ELU"
  bottom: "conv4"
  top: "conv4"
  elu_param {
    alpha: 1
  }
}
layer {
  name: "conv4_BN"
  type: "BatchNorm"
  bottom: "conv4"
  top: "conv4_BN"
  param {
    lr_mult: 0
    decay_mult: 0
  }
  param {
    lr_mult: 0
    decay_mult: 0
  }
  param {
    lr_mult: 0
    decay_mult: 0
  }
  include {
    phase: TRAIN
  }
  batch_norm_param {
    use_global_stats: false
    moving_average_fraction: 0.95
  }
}
layer {
  name: "conv5"
  type: "Convolution"
  bottom: "conv4_BN"
  top: "conv5"
  param {
    lr_mult: 1
    decay_mult: 1
  }
  param {
    lr_mult: 2
    decay_mult: 0
  }
  convolution_param {
    num_output: 256
    pad: 1
    kernel_size: 3
    group: 2
    weight_filler {
      type: "gaussian"
      std: 0.01
    }
    bias_filler {
      type: "constant"
    }
  }
}
layer {
  name: "relu5"
  type: "ELU"
  bottom: "conv5"
  top: "conv5"
  elu_param {
    alpha: 1
  }
}
layer {
  name: "conv5_BN"
  type: "BatchNorm"
  bottom: "conv5"
  top: "conv5_BN"
  param {
    lr_mult: 0
    decay_mult: 0
  }
  param {
    lr_mult: 0
    decay_mult: 0
  }
  param {
    lr_mult: 0
    decay_mult: 0
  }
  include {
    phase: TRAIN
  }
  batch_norm_param {
    use_global_stats: false
    moving_average_fraction: 0.95
  }
}
layer {
  name: "pool5"
  type: "Pooling"
  bottom: "conv5_BN"
  top: "pool5"
  pooling_param {
    pool: MAX
    kernel_size: 3
    stride: 2
  }
}
layer {
  name: "fc6"
  type: "InnerProduct"
  bottom: "pool5"
  top: "fc6"
  param {
    lr_mult: 1
    decay_mult: 1
  }
  param {
    lr_mult: 2
    decay_mult: 0
  }
  inner_product_param {
    num_output: 2048
    weight_filler {
      type: "gaussian"
      std: 0.005
    }
    bias_filler {
      type: "constant"
    }
  }
}
layer {
  name: "relu6"
  type: "ELU"
  bottom: "fc6"
  top: "fc6"
  elu_param {
    alpha: 1
  }
}
layer {
  name: "fc6_BN"
  type: "BatchNorm"
  bottom: "fc6"
  top: "fc6_BN"
  param {
    lr_mult: 0
    decay_mult: 0
  }
  param {
    lr_mult: 0
    decay_mult: 0
  }
  param {
    lr_mult: 0
    decay_mult: 0
  }
  include {
    phase: TRAIN
  }
  batch_norm_param {
    use_global_stats: false
    moving_average_fraction: 0.95
  }
}
layer {
  name: "drop6"
  type: "Dropout"
  bottom: "fc6_BN"
  top: "drop6"
  dropout_param {
    dropout_ratio: 0.5
  }
}
layer {
  name: "fc7"
  type: "InnerProduct"
  bottom: "drop6"
  top: "fc7"
  param {
    lr_mult: 1
    decay_mult: 1
  }
  param {
    lr_mult: 2
    decay_mult: 0
  }
  inner_product_param {
    num_output: 2048
    weight_filler {
      type: "gaussian"
      std: 0.005
    }
    bias_filler {
      type: "constant"
    }
  }
}
layer {
  name: "relu7"
  type: "ELU"
  bottom: "fc7"
  top: "fc7"
  elu_param {
    alpha: 1
  }
}
layer {
  name: "fc7_BN"
  type: "BatchNorm"
  bottom: "fc7"
  top: "fc7_BN"
  param {
    lr_mult: 0
    decay_mult: 0
  }
  param {
    lr_mult: 0
    decay_mult: 0
  }
  param {
    lr_mult: 0
    decay_mult: 0
  }
  include {
    phase: TRAIN
  }
  batch_norm_param {
    use_global_stats: false
    moving_average_fraction: 0.95
  }
}
layer {
  name: "drop7"
  type: "Dropout"
  bottom: "fc7_BN"
  top: "drop7"
  dropout_param {
    dropout_ratio: 0.5
  }
}
layer {
  name: "fc8"
  type: "InnerProduct"
  bottom: "drop7"
  top: "fc8"
  param {
    lr_mult: 1
    decay_mult: 1
  }
  param {
    lr_mult: 2
    decay_mult: 0
  }
  inner_product_param {
    num_output: 1000
    weight_filler {
      type: "gaussian"
      std: 0.01
    }
    bias_filler {
      type: "constant"
    }
  }
}
layer {
  name: "loss"
  type: "SoftmaxWithLoss"
  bottom: "fc8"
  bottom: "label"
  top: "loss"
}
I1213 07:44:27.538769 20576 layer_factory.hpp:76] Creating layer data
I1213 07:44:27.539240 20576 net.cpp:106] Creating Layer data
I1213 07:44:27.539260 20576 net.cpp:411] data -> data
I1213 07:44:27.539300 20576 net.cpp:411] data -> label
I1213 07:44:27.539959 20580 db_lmdb.cpp:38] Opened lmdb /home/share/storage/datasets/imagenet/lmdb/ilsvrc12_train_lmdb
I1213 07:44:27.549088 20576 data_layer.cpp:41] output data size: 256,3,128,128
I1213 07:44:27.624662 20576 net.cpp:150] Setting up data
I1213 07:44:27.624701 20576 net.cpp:157] Top shape: 256 3 128 128 (12582912)
I1213 07:44:27.624704 20576 net.cpp:157] Top shape: 256 (256)
I1213 07:44:27.624707 20576 net.cpp:165] Memory required for data: 50332672
I1213 07:44:27.624714 20576 layer_factory.hpp:76] Creating layer conv1
I1213 07:44:27.624728 20576 net.cpp:106] Creating Layer conv1
I1213 07:44:27.624732 20576 net.cpp:454] conv1 <- data
I1213 07:44:27.624757 20576 net.cpp:411] conv1 -> conv1
I1213 07:44:27.759407 20576 net.cpp:150] Setting up conv1
I1213 07:44:27.759438 20576 net.cpp:157] Top shape: 256 96 30 30 (22118400)
I1213 07:44:27.759441 20576 net.cpp:165] Memory required for data: 138806272
I1213 07:44:27.759455 20576 layer_factory.hpp:76] Creating layer relu1
I1213 07:44:27.759469 20576 net.cpp:106] Creating Layer relu1
I1213 07:44:27.759474 20576 net.cpp:454] relu1 <- conv1
I1213 07:44:27.759477 20576 net.cpp:397] relu1 -> conv1 (in-place)
I1213 07:44:27.759485 20576 net.cpp:150] Setting up relu1
I1213 07:44:27.759488 20576 net.cpp:157] Top shape: 256 96 30 30 (22118400)
I1213 07:44:27.759490 20576 net.cpp:165] Memory required for data: 227279872
I1213 07:44:27.759492 20576 layer_factory.hpp:76] Creating layer conv1_BN
I1213 07:44:27.759500 20576 net.cpp:106] Creating Layer conv1_BN
I1213 07:44:27.759502 20576 net.cpp:454] conv1_BN <- conv1
I1213 07:44:27.759505 20576 net.cpp:411] conv1_BN -> conv1_BN
I1213 07:44:27.759642 20576 net.cpp:150] Setting up conv1_BN
I1213 07:44:27.759646 20576 net.cpp:157] Top shape: 256 96 30 30 (22118400)
I1213 07:44:27.759659 20576 net.cpp:165] Memory required for data: 315753472
I1213 07:44:27.759665 20576 layer_factory.hpp:76] Creating layer pool1
I1213 07:44:27.759671 20576 net.cpp:106] Creating Layer pool1
I1213 07:44:27.759675 20576 net.cpp:454] pool1 <- conv1_BN
I1213 07:44:27.759677 20576 net.cpp:411] pool1 -> pool1
I1213 07:44:27.759819 20576 net.cpp:150] Setting up pool1
I1213 07:44:27.759825 20576 net.cpp:157] Top shape: 256 96 15 15 (5529600)
I1213 07:44:27.759827 20576 net.cpp:165] Memory required for data: 337871872
I1213 07:44:27.759829 20576 layer_factory.hpp:76] Creating layer conv2
I1213 07:44:27.759835 20576 net.cpp:106] Creating Layer conv2
I1213 07:44:27.759838 20576 net.cpp:454] conv2 <- pool1
I1213 07:44:27.759842 20576 net.cpp:411] conv2 -> conv2
I1213 07:44:27.768223 20576 net.cpp:150] Setting up conv2
I1213 07:44:27.768263 20576 net.cpp:157] Top shape: 256 256 15 15 (14745600)
I1213 07:44:27.768265 20576 net.cpp:165] Memory required for data: 396854272
I1213 07:44:27.768271 20576 layer_factory.hpp:76] Creating layer relu2
I1213 07:44:27.768276 20576 net.cpp:106] Creating Layer relu2
I1213 07:44:27.768281 20576 net.cpp:454] relu2 <- conv2
I1213 07:44:27.768287 20576 net.cpp:397] relu2 -> conv2 (in-place)
I1213 07:44:27.768301 20576 net.cpp:150] Setting up relu2
I1213 07:44:27.768306 20576 net.cpp:157] Top shape: 256 256 15 15 (14745600)
I1213 07:44:27.768307 20576 net.cpp:165] Memory required for data: 455836672
I1213 07:44:27.768309 20576 layer_factory.hpp:76] Creating layer conv2_BN
I1213 07:44:27.768316 20576 net.cpp:106] Creating Layer conv2_BN
I1213 07:44:27.768318 20576 net.cpp:454] conv2_BN <- conv2
I1213 07:44:27.768321 20576 net.cpp:411] conv2_BN -> conv2_BN
I1213 07:44:27.768446 20576 net.cpp:150] Setting up conv2_BN
I1213 07:44:27.768450 20576 net.cpp:157] Top shape: 256 256 15 15 (14745600)
I1213 07:44:27.768452 20576 net.cpp:165] Memory required for data: 514819072
I1213 07:44:27.768468 20576 layer_factory.hpp:76] Creating layer pool2
I1213 07:44:27.768474 20576 net.cpp:106] Creating Layer pool2
I1213 07:44:27.768478 20576 net.cpp:454] pool2 <- conv2_BN
I1213 07:44:27.768481 20576 net.cpp:411] pool2 -> pool2
I1213 07:44:27.768636 20576 net.cpp:150] Setting up pool2
I1213 07:44:27.768642 20576 net.cpp:157] Top shape: 256 256 7 7 (3211264)
I1213 07:44:27.768654 20576 net.cpp:165] Memory required for data: 527664128
I1213 07:44:27.768656 20576 layer_factory.hpp:76] Creating layer conv3
I1213 07:44:27.768661 20576 net.cpp:106] Creating Layer conv3
I1213 07:44:27.768664 20576 net.cpp:454] conv3 <- pool2
I1213 07:44:27.768671 20576 net.cpp:411] conv3 -> conv3
I1213 07:44:27.790004 20576 net.cpp:150] Setting up conv3
I1213 07:44:27.790031 20576 net.cpp:157] Top shape: 256 384 7 7 (4816896)
I1213 07:44:27.790035 20576 net.cpp:165] Memory required for data: 546931712
I1213 07:44:27.790041 20576 layer_factory.hpp:76] Creating layer relu3
I1213 07:44:27.790047 20576 net.cpp:106] Creating Layer relu3
I1213 07:44:27.790052 20576 net.cpp:454] relu3 <- conv3
I1213 07:44:27.790061 20576 net.cpp:397] relu3 -> conv3 (in-place)
I1213 07:44:27.790067 20576 net.cpp:150] Setting up relu3
I1213 07:44:27.790071 20576 net.cpp:157] Top shape: 256 384 7 7 (4816896)
I1213 07:44:27.790072 20576 net.cpp:165] Memory required for data: 566199296
I1213 07:44:27.790074 20576 layer_factory.hpp:76] Creating layer conv3_BN
I1213 07:44:27.790081 20576 net.cpp:106] Creating Layer conv3_BN
I1213 07:44:27.790082 20576 net.cpp:454] conv3_BN <- conv3
I1213 07:44:27.790086 20576 net.cpp:411] conv3_BN -> conv3_BN
I1213 07:44:27.790221 20576 net.cpp:150] Setting up conv3_BN
I1213 07:44:27.790225 20576 net.cpp:157] Top shape: 256 384 7 7 (4816896)
I1213 07:44:27.790227 20576 net.cpp:165] Memory required for data: 585466880
I1213 07:44:27.790241 20576 layer_factory.hpp:76] Creating layer conv4
I1213 07:44:27.790248 20576 net.cpp:106] Creating Layer conv4
I1213 07:44:27.790251 20576 net.cpp:454] conv4 <- conv3_BN
I1213 07:44:27.790254 20576 net.cpp:411] conv4 -> conv4
I1213 07:44:27.807406 20576 net.cpp:150] Setting up conv4
I1213 07:44:27.807435 20576 net.cpp:157] Top shape: 256 384 7 7 (4816896)
I1213 07:44:27.807436 20576 net.cpp:165] Memory required for data: 604734464
I1213 07:44:27.807446 20576 layer_factory.hpp:76] Creating layer relu4
I1213 07:44:27.807453 20576 net.cpp:106] Creating Layer relu4
I1213 07:44:27.807457 20576 net.cpp:454] relu4 <- conv4
I1213 07:44:27.807463 20576 net.cpp:397] relu4 -> conv4 (in-place)
I1213 07:44:27.807469 20576 net.cpp:150] Setting up relu4
I1213 07:44:27.807472 20576 net.cpp:157] Top shape: 256 384 7 7 (4816896)
I1213 07:44:27.807474 20576 net.cpp:165] Memory required for data: 624002048
I1213 07:44:27.807476 20576 layer_factory.hpp:76] Creating layer conv4_BN
I1213 07:44:27.807483 20576 net.cpp:106] Creating Layer conv4_BN
I1213 07:44:27.807485 20576 net.cpp:454] conv4_BN <- conv4
I1213 07:44:27.807488 20576 net.cpp:411] conv4_BN -> conv4_BN
I1213 07:44:27.807674 20576 net.cpp:150] Setting up conv4_BN
I1213 07:44:27.807679 20576 net.cpp:157] Top shape: 256 384 7 7 (4816896)
I1213 07:44:27.807682 20576 net.cpp:165] Memory required for data: 643269632
I1213 07:44:27.807695 20576 layer_factory.hpp:76] Creating layer conv5
I1213 07:44:27.807703 20576 net.cpp:106] Creating Layer conv5
I1213 07:44:27.807706 20576 net.cpp:454] conv5 <- conv4_BN
I1213 07:44:27.807713 20576 net.cpp:411] conv5 -> conv5
I1213 07:44:27.819226 20576 net.cpp:150] Setting up conv5
I1213 07:44:27.819252 20576 net.cpp:157] Top shape: 256 256 7 7 (3211264)
I1213 07:44:27.819253 20576 net.cpp:165] Memory required for data: 656114688
I1213 07:44:27.819258 20576 layer_factory.hpp:76] Creating layer relu5
I1213 07:44:27.819267 20576 net.cpp:106] Creating Layer relu5
I1213 07:44:27.819272 20576 net.cpp:454] relu5 <- conv5
I1213 07:44:27.819277 20576 net.cpp:397] relu5 -> conv5 (in-place)
I1213 07:44:27.819283 20576 net.cpp:150] Setting up relu5
I1213 07:44:27.819286 20576 net.cpp:157] Top shape: 256 256 7 7 (3211264)
I1213 07:44:27.819288 20576 net.cpp:165] Memory required for data: 668959744
I1213 07:44:27.819289 20576 layer_factory.hpp:76] Creating layer conv5_BN
I1213 07:44:27.819295 20576 net.cpp:106] Creating Layer conv5_BN
I1213 07:44:27.819298 20576 net.cpp:454] conv5_BN <- conv5
I1213 07:44:27.819301 20576 net.cpp:411] conv5_BN -> conv5_BN
I1213 07:44:27.819465 20576 net.cpp:150] Setting up conv5_BN
I1213 07:44:27.819470 20576 net.cpp:157] Top shape: 256 256 7 7 (3211264)
I1213 07:44:27.819471 20576 net.cpp:165] Memory required for data: 681804800
I1213 07:44:27.819485 20576 layer_factory.hpp:76] Creating layer pool5
I1213 07:44:27.819490 20576 net.cpp:106] Creating Layer pool5
I1213 07:44:27.819494 20576 net.cpp:454] pool5 <- conv5_BN
I1213 07:44:27.819497 20576 net.cpp:411] pool5 -> pool5
I1213 07:44:27.819733 20576 net.cpp:150] Setting up pool5
I1213 07:44:27.819741 20576 net.cpp:157] Top shape: 256 256 3 3 (589824)
I1213 07:44:27.819743 20576 net.cpp:165] Memory required for data: 684164096
I1213 07:44:27.819746 20576 layer_factory.hpp:76] Creating layer fc6
I1213 07:44:27.819754 20576 net.cpp:106] Creating Layer fc6
I1213 07:44:27.819757 20576 net.cpp:454] fc6 <- pool5
I1213 07:44:27.819762 20576 net.cpp:411] fc6 -> fc6
I1213 07:44:27.930763 20576 net.cpp:150] Setting up fc6
I1213 07:44:27.930789 20576 net.cpp:157] Top shape: 256 2048 (524288)
I1213 07:44:27.930791 20576 net.cpp:165] Memory required for data: 686261248
I1213 07:44:27.930799 20576 layer_factory.hpp:76] Creating layer relu6
I1213 07:44:27.930807 20576 net.cpp:106] Creating Layer relu6
I1213 07:44:27.930811 20576 net.cpp:454] relu6 <- fc6
I1213 07:44:27.930817 20576 net.cpp:397] relu6 -> fc6 (in-place)
I1213 07:44:27.930825 20576 net.cpp:150] Setting up relu6
I1213 07:44:27.930829 20576 net.cpp:157] Top shape: 256 2048 (524288)
I1213 07:44:27.930830 20576 net.cpp:165] Memory required for data: 688358400
I1213 07:44:27.930831 20576 layer_factory.hpp:76] Creating layer fc6_BN
I1213 07:44:27.930837 20576 net.cpp:106] Creating Layer fc6_BN
I1213 07:44:27.930840 20576 net.cpp:454] fc6_BN <- fc6
I1213 07:44:27.930845 20576 net.cpp:411] fc6_BN -> fc6_BN
I1213 07:44:27.930974 20576 net.cpp:150] Setting up fc6_BN
I1213 07:44:27.930979 20576 net.cpp:157] Top shape: 256 2048 (524288)
I1213 07:44:27.930979 20576 net.cpp:165] Memory required for data: 690455552
I1213 07:44:27.930994 20576 layer_factory.hpp:76] Creating layer drop6
I1213 07:44:27.931000 20576 net.cpp:106] Creating Layer drop6
I1213 07:44:27.931004 20576 net.cpp:454] drop6 <- fc6_BN
I1213 07:44:27.931006 20576 net.cpp:411] drop6 -> drop6
I1213 07:44:27.931041 20576 net.cpp:150] Setting up drop6
I1213 07:44:27.931046 20576 net.cpp:157] Top shape: 256 2048 (524288)
I1213 07:44:27.931057 20576 net.cpp:165] Memory required for data: 692552704
I1213 07:44:27.931059 20576 layer_factory.hpp:76] Creating layer fc7
I1213 07:44:27.931064 20576 net.cpp:106] Creating Layer fc7
I1213 07:44:27.931066 20576 net.cpp:454] fc7 <- drop6
I1213 07:44:27.931097 20576 net.cpp:411] fc7 -> fc7
I1213 07:44:28.029729 20576 net.cpp:150] Setting up fc7
I1213 07:44:28.029757 20576 net.cpp:157] Top shape: 256 2048 (524288)
I1213 07:44:28.029759 20576 net.cpp:165] Memory required for data: 694649856
I1213 07:44:28.029767 20576 layer_factory.hpp:76] Creating layer relu7
I1213 07:44:28.029775 20576 net.cpp:106] Creating Layer relu7
I1213 07:44:28.029781 20576 net.cpp:454] relu7 <- fc7
I1213 07:44:28.029788 20576 net.cpp:397] relu7 -> fc7 (in-place)
I1213 07:44:28.029796 20576 net.cpp:150] Setting up relu7
I1213 07:44:28.029799 20576 net.cpp:157] Top shape: 256 2048 (524288)
I1213 07:44:28.029803 20576 net.cpp:165] Memory required for data: 696747008
I1213 07:44:28.029805 20576 layer_factory.hpp:76] Creating layer fc7_BN
I1213 07:44:28.029811 20576 net.cpp:106] Creating Layer fc7_BN
I1213 07:44:28.029814 20576 net.cpp:454] fc7_BN <- fc7
I1213 07:44:28.029817 20576 net.cpp:411] fc7_BN -> fc7_BN
I1213 07:44:28.029969 20576 net.cpp:150] Setting up fc7_BN
I1213 07:44:28.029973 20576 net.cpp:157] Top shape: 256 2048 (524288)
I1213 07:44:28.029975 20576 net.cpp:165] Memory required for data: 698844160
I1213 07:44:28.029994 20576 layer_factory.hpp:76] Creating layer drop7
I1213 07:44:28.030000 20576 net.cpp:106] Creating Layer drop7
I1213 07:44:28.030002 20576 net.cpp:454] drop7 <- fc7_BN
I1213 07:44:28.030006 20576 net.cpp:411] drop7 -> drop7
I1213 07:44:28.030028 20576 net.cpp:150] Setting up drop7
I1213 07:44:28.030032 20576 net.cpp:157] Top shape: 256 2048 (524288)
I1213 07:44:28.030035 20576 net.cpp:165] Memory required for data: 700941312
I1213 07:44:28.030036 20576 layer_factory.hpp:76] Creating layer fc8
I1213 07:44:28.030045 20576 net.cpp:106] Creating Layer fc8
I1213 07:44:28.030048 20576 net.cpp:454] fc8 <- drop7
I1213 07:44:28.030051 20576 net.cpp:411] fc8 -> fc8
I1213 07:44:28.078492 20576 net.cpp:150] Setting up fc8
I1213 07:44:28.078519 20576 net.cpp:157] Top shape: 256 1000 (256000)
I1213 07:44:28.078521 20576 net.cpp:165] Memory required for data: 701965312
I1213 07:44:28.078528 20576 layer_factory.hpp:76] Creating layer loss
I1213 07:44:28.078541 20576 net.cpp:106] Creating Layer loss
I1213 07:44:28.078547 20576 net.cpp:454] loss <- fc8
I1213 07:44:28.078552 20576 net.cpp:454] loss <- label
I1213 07:44:28.078557 20576 net.cpp:411] loss -> loss
I1213 07:44:28.078569 20576 layer_factory.hpp:76] Creating layer loss
…
  transform_param {
    scale: 0.04
    mirror: false
    crop_size: 128
    mean_value: 104
    mean_value: 117
    mean_value: 123
    force_color: true
    resize_param {
      prob: 1
      resize_mode: FIT_SMALL_SIZE
      height: 144
      width: 144
      pad_mode: MIRRORED
      pad_value: 104
      pad_value: 117
      pad_value: 124
      interp_mode: CUBIC
      center_object: false
      max_angle: 0
    }
  }
  data_param {
    source: "/home/share/storage/datasets/imagenet/lmdb/ilsvrc12_val_lmdb"
    batch_size: 50
    backend: LMDB
  }
}
layer {
  name: "conv1"
  type: "Convolution"
  bottom: "data"
  top: "conv1"
  param {
    lr_mult: 1
    decay_mult: 1
  }
  param {
    lr_mult: 2
    decay_mult: 0
  }
  convolution_param {
    num_output: 96
    kernel_size: 11
    stride: 4
    weight_filler {
      type: "gaussian"
      std: 0.01
    }
    bias_filler {
      type: "constant"
    }
  }
}
layer {
  name: "relu1"
  type: "ELU"
  bottom: "conv1"
  top: "conv1"
  elu_param {
    alpha: 1
  }
}
layer {
  name: "conv1_BN"
  type: "BatchNorm"
  bottom: "conv1"
  top: "conv1_BN"
  param {
    lr_mult: 0
    decay_mult: 0
  }
  param {
    lr_mult: 0
    decay_mult: 0
  }
  param {
    lr_mult: 0
    decay_mult: 0
  }
  include {
    phase: TEST
  }
  batch_norm_param {
    use_global_stats: true
    moving_average_fraction: 0.95
  }
}
layer {
  name: "pool1"
  type: "Pooling"
  bottom: "conv1_BN"
  top: "pool1"
  pooling_param {
    pool: MAX
    kernel_size: 3
    stride: 2
  }
}
layer {
  name: "conv2"
  type: "Convolution"
  bottom: "pool1"
  top: "conv2"
  param {
    lr_mult: 1
    decay_mult: 1
  }
  param {
    lr_mult: 2
    decay_mult: 0
  }
  convolution_param {
    num_output: 256
    pad: 2
    kernel_size: 5
    group: 2
    weight_filler {
      type: "gaussian"
      std: 0.01
    }
    bias_filler {
      type: "constant"
    }
  }
}
layer {
  name: "relu2"
  type: "ELU"
  bottom: "conv2"
  top: "conv2"
  elu_param {
    alpha: 1
  }
}
layer {
  name: "conv2_BN"
  type: "BatchNorm"
  bottom: "conv2"
  top: "conv2_BN"
  param {
    lr_mult: 0
    decay_mult: 0
  }
  param {
    lr_mult: 0
    decay_mult: 0
  }
  param {
    lr_mult: 0
    decay_mult: 0
  }
  include {
    phase: TEST
  }
  batch_norm_param {
    use_global_stats: true
    moving_average_fraction: 0.95
  }
}
layer {
  name: "pool2"
  type: "Pooling"
  bottom: "conv2_BN"
  top: "pool2"
  pooling_param {
    pool: MAX
    kernel_size: 3
    stride: 2
  }
}
layer {
  name: "conv3"
  type: "Convolution"
  bottom: "pool2"
  top: "conv3"
  param {
    lr_mult: 1
    decay_mult: 1
  }
  param {
    lr_mult: 2
    decay_mult: 0
  }
  convolution_param {
    num_output: 384
    pad: 1
    kernel_size: 3
    weight_filler {
      type: "gaussian"
      std: 0.01
    }
    bias_filler {
      type: "constant"
    }
  }
}
layer {
  name: "relu3"
  type: "ELU"
  bottom: "conv3"
  top: "conv3"
  elu_param {
    alpha: 1
  }
}
layer {
  name: "conv3_BN"
  type: "BatchNorm"
  bottom: "conv3"
  top: "conv3_BN"
  param {
    lr_mult: 0
    decay_mult: 0
  }
  param {
    lr_mult: 0
    decay_mult: 0
  }
  param {
    lr_mult: 0
    decay_mult: 0
  }
  include {
    phase: TEST
  }
  batch_norm_param {
    use_global_stats: true
    moving_average_fraction: 0.95
  }
}
layer {
  name: "conv4"
  type: "Convolution"
  bottom: "conv3_BN"
  top: "conv4"
  param {
    lr_mult: 1
    decay_mult: 1
  }
  param {
    lr_mult: 2
    decay_mult: 0
  }
  convolution_param {
    num_output: 384
    pad: 1
    kernel_size: 3
    group: 2
    weight_filler {
      type: "gaussian"
      std: 0.01
    }
    bias_filler {
      type: "constant"
    }
  }
}
layer {
  name: "relu4"
  type: "ELU"
  bottom: "conv4"
  top: "conv4"
  elu_param {
    alpha: 1
  }
}
layer {
  name: "conv4_BN"
  type: "BatchNorm"
  bottom: "conv4"
  top: "conv4_BN"
  param {
    lr_mult: 0
    decay_mult: 0
  }
  param {
    lr_mult: 0
    decay_mult: 0
  }
  param {
    lr_mult: 0
    decay_mult: 0
  }
  include {
    phase: TEST
  }
  batch_norm_param {
    use_global_stats: true
    moving_average_fraction: 0.95
  }
}
layer {
  name: "conv5"
  type: "Convolution"
  bottom: "conv4_BN"
  top: "conv5"
  param {
    lr_mult: 1
    decay_mult: 1
  }
  param {
    lr_mult: 2
    decay_mult: 0
  }
  convolution_param {
    num_output: 256
    pad: 1
    kernel_size: 3
    group: 2
    weight_filler {
      type: "gaussian"
      std: 0.01
    }
    bias_filler {
      type: "constant"
    }
  }
}
layer {
  name: "relu5"
  type: "ELU"
  bottom: "conv5"
  top: "conv5"
  elu_param {
    alpha: 1
  }
}
layer {
  name: "conv5_BN"
  type: "BatchNorm"
  bottom: "conv5"
  top: "conv5_BN"
  param {
    lr_mult: 0
    decay_mult: 0
  }
  param {
    lr_mult: 0
    decay_mult: 0
  }
  param {
    lr_mult: 0
    decay_mult: 0
  }
  include {
    phase: TEST
  }
  batch_norm_param {
    use_global_stats: true
    moving_average_fraction: 0.95
  }
}
layer {
  name: "pool5"
  type: "Pooling"
  bottom: "conv5_BN"
  top: "pool5"
  pooling_param {
    pool: MAX
    kernel_size: 3
    stride: 2
  }
}
layer {
  name: "fc6"
  type: "InnerProduct"
  bottom: "pool5"
  top: "fc6"
  param {
    lr_mult: 1
    decay_mult: 1
  }
  param {
    lr_mult: 2
    decay_mult: 0
  }
  inner_product_param {
    num_output: 2048
    weight_filler {
      type: "gaussian"
      std: 0.005
    }
    bias_filler {
      type: "constant"
    }
  }
}
layer {
  name: "relu6"
  type: "ELU"
  bottom: "fc6"
  top: "fc6"
  elu_param {
    alpha: 1
  }
}
layer {
  name: "fc6_BN"
  type: "BatchNorm"
  bottom: "fc6"
  top: "fc6_BN"
  param {
    lr_mult: 0
    decay_mult: 0
  }
  param {
    lr_mult: 0
    decay_mult: 0
  }
  param {
    lr_mult: 0
    decay_mult: 0
  }
  include {
    phase: TEST
  }
  batch_norm_param {
    use_global_stats: true
    moving_average_fraction: 0.95
  }
}
layer {
  name: "drop6"
  type: "Dropout"
  bottom: "fc6_BN"
  top: "drop6"
  dropout_param {
    dropout_ratio: 0.5
  }
}
layer {
  name: "fc7"
  type: "InnerProduct"
  bottom: "drop6"
  top: "fc7"
  param {
    lr_mult: 1
    decay_mult: 1
  }
  param {
    lr_mult: 2
    decay_mult: 0
  }
  inner_product_param {
    num_output: 2048
    weight_filler {
      type: "gaussian"
      std: 0.005
    }
    bias_filler {
      type: "constant"
    }
  }
}
layer {
  name: "relu7"
  type: "ELU"
  bottom: "fc7"
  top: "fc7"
  elu_param {
    alpha: 1
  }
}
layer {
  name: "fc7_BN"
  type: "BatchNorm"
  bottom: "fc7"
  top: "fc7_BN"
  param {
    lr_mult: 0
    decay_mult: 0
  }
  param {
    lr_mult: 0
    decay_mult: 0
  }
  param {
    lr_mult: 0
    decay_mult: 0
  }
  include {
    phase: TEST
  }
  batch_norm_param {
    use_global_stats: true
    moving_average_fraction: 0.95
  }
}
layer {
  name: "drop7"
  type: "Dropout"
  bottom: "fc7_BN"
  top: "drop7"
  dropout_param {
    dropout_ratio: 0.5
  }
}
layer {
  name: "fc8"
  type: "InnerProduct"
  bottom: "drop7"
  top: "fc8"
  param {
    lr_mult: 1
    decay_mult: 1
  }
  param {
    lr_mult: 2
    decay_mult: 0
  }
  inner_product_param {
    num_output: 1000
    weight_filler {
      type: "gaussian"
      std: 0.01
    }
    bias_filler {
      type: "constant"
    }
  }
}
layer {
  name: "accuracy"
  type: "Accuracy"
  bottom: "fc8"
  bottom: "label"
  top: "accuracy"
  include {
    phase: TEST
  }
}
layer {
  name: "loss"
  type: "SoftmaxWithLoss"
  bottom: "fc8"
  bottom: "label"
  top: "loss"
}
I1213 07:44:28.080060 20576 layer_factory.hpp:76] Creating layer data
I1213 07:44:28.080121 20576 net.cpp:106] Creating Layer data
I1213 07:44:28.080144 20576 net.cpp:411] data -> data
I1213 07:44:28.080150 20576 net.cpp:411] data -> label
I1213 07:44:28.080909 20589 db_lmdb.cpp:38] Opened lmdb /home/share/storage/datasets/imagenet/lmdb/ilsvrc12_val_lmdb
I1213 07:44:28.082094 20576 data_layer.cpp:41] output data size: 50,3,128,128
I1213 07:44:28.098959 20576 net.cpp:150] Setting up data
I1213 07:44:28.098981 20576 net.cpp:157] Top shape: 50 3 128 128 (2457600)
I1213 07:44:28.098985 20576 net.cpp:157] Top shape: 50 (50)
I1213 07:44:28.098987 20576 net.cpp:165] Memory required for data: 9830600
I1213 07:44:28.098994 20576 layer_factory.hpp:76] Creating layer label_data_1_split
I1213 07:44:28.099005 20576 net.cpp:106] Creating Layer label_data_1_split
I1213 07:44:28.099010 20576 net.cpp:454] label_data_1_split <- label
I1213 07:44:28.099017 20576 net.cpp:411] label_data_1_split -> label_data_1_split_0
I1213 07:44:28.099025 20576 net.cpp:411] label_data_1_split -> label_data_1_split_1
I1213 07:44:28.099089 20576 net.cpp:150] Setting up label_data_1_split
I1213 07:44:28.099095 20576 net.cpp:157] Top shape: 50 (50)
I1213 07:44:28.099098 20576 net.cpp:157] Top shape: 50 (50)
I1213 07:44:28.099100 20576 net.cpp:165] Memory required for data: 9831000
I1213 07:44:28.099102 20576 layer_factory.hpp:76] Creating layer conv1
I1213 07:44:28.099110 20576 net.cpp:106] Creating Layer conv1
I1213 07:44:28.099113 20576 net.cpp:454] conv1 <- data
I1213 07:44:28.099117 20576 net.cpp:411] conv1 -> conv1
I1213 07:44:28.100790 20576 net.cpp:150] Setting up conv1
I1213 07:44:28.100800 20576 net.cpp:157] Top shape: 50 96 30 30 (4320000)
I1213 07:44:28.100802 20576 net.cpp:165] Memory required for data: 27111000
I1213 07:44:28.100811 20576 layer_factory.hpp:76] Creating layer relu1
I1213 07:44:28.100817 20576 net.cpp:106] Creating Layer relu1
I1213 07:44:28.100821 20576 net.cpp:454] relu1 <- conv1
I1213 07:44:28.100823 20576 net.cpp:397] relu1 -> conv1 (in-place)
I1213 07:44:28.100829 20576 net.cpp:150] Setting up relu1
I1213 07:44:28.100832 20576 net.cpp:157] Top shape: 50 96 30 30 (4320000)
I1213 07:44:28.100834 20576 net.cpp:165] Memory required for data: 44391000
I1213 07:44:28.100836 20576 layer_factory.hpp:76] Creating layer conv1_BN
I1213 07:44:28.100843 20576 net.cpp:106] Creating Layer conv1_BN
I1213 07:44:28.100847 20576 net.cpp:454] conv1_BN <- conv1
I1213 07:44:28.100850 20576 net.cpp:411] conv1_BN -> conv1_BN
I1213 07:44:28.102797 20576 net.cpp:150] Setting up conv1_BN
I1213 07:44:28.102826 20576 net.cpp:157] Top shape: 50 96 30 30 (4320000)
I1213 07:44:28.102833 20576 net.cpp:165] Memory required for data: 61671000
I1213 07:44:28.102841 20576 layer_factory.hpp:76] Creating layer pool1
I1213 07:44:28.102846 20576 net.cpp:106] Creating Layer pool1
I1213 07:44:28.102849 20576 net.cpp:454] pool1 <- conv1_BN
I1213 07:44:28.102852 20576 net.cpp:411] pool1 -> pool1
I1213 07:44:28.103111 20576 net.cpp:150] Setting up pool1
I1213 07:44:28.103119 20576 net.cpp:157] Top shape: 50 96 15 15 (1080000)
I1213 07:44:28.103121 20576 net.cpp:165] Memory required for data: 65991000
I1213 07:44:28.103123 20576 layer_factory.hpp:76] Creating layer conv2
I1213 07:44:28.103130 20576 net.cpp:106] Creating Layer conv2
I1213 07:44:28.103132 20576 net.cpp:454] conv2 <- pool1
I1213 07:44:28.103137 20576 net.cpp:411] conv2 -> conv2
I1213 07:44:28.116710 20576 net.cpp:150] Setting up conv2
I1213 07:44:28.116737 20576 net.cpp:157] Top shape: 50 256 15 15 (2880000)
I1213 07:44:28.116740 20576 net.cpp:165] Memory required for data: 77511000
I1213 07:44:28.116746 20576 layer_factory.hpp:76] Creating layer relu2
I1213 07:44:28.116752 20576 net.cpp:106] Creating Layer relu2
I1213 07:44:28.116755 20576 net.cpp:454] relu2 <- conv2
I1213 07:44:28.116762 20576 net.cpp:397] relu2 -> conv2 (in-place)
I1213 07:44:28.116770 20576 net.cpp:150] Setting up relu2
I1213 07:44:28.116772 20576 net.cpp:157] Top shape: 50 256 15 15 (2880000)
I1213 07:44:28.116775 20576 net.cpp:165] Memory required for data: 89031000
I1213 07:44:28.116776 20576 layer_factory.hpp:76] Creating layer conv2_BN
I1213 07:44:28.116782 20576 net.cpp:106] Creating Layer conv2_BN
I1213 07:44:28.116786 20576 net.cpp:454] conv2_BN <- conv2
I1213 07:44:28.116791 20576 net.cpp:411] conv2_BN -> conv2_BN
I1213 07:44:28.116945 20576 net.cpp:150] Setting up conv2_BN
I1213 07:44:28.116950 20576 net.cpp:157] Top shape: 50 256 15 15 (2880000)
I1213 07:44:28.116951 20576 net.cpp:165] Memory required for data: 100551000
I1213 07:44:28.116967 20576 layer_factory.hpp:76] Creating layer pool2
I1213 07:44:28.116972 20576 net.cpp:106] Creating Layer pool2
I1213 07:44:28.116974 20576 net.cpp:454] pool2 <- conv2_BN
I1213 07:44:28.116977 20576 net.cpp:411] pool2 -> pool2
I1213 07:44:28.117161 20576 net.cpp:150] Setting up pool2
I1213 07:44:28.117168 20576 net.cpp:157] Top shape: 50 256 7 7 (627200)
I1213 07:44:28.117171 20576 net.cpp:165] Memory required for data: 103059800
I1213 07:44:28.117173 20576 layer_factory.hpp:76] Creating layer conv3
I1213 07:44:28.117180 20576 net.cpp:106] Creating Layer conv3
I1213 07:44:28.117183 20576 net.cpp:454] conv3 <- pool2
I1213 07:44:28.117187 20576 net.cpp:411] conv3 -> conv3
I1213 07:44:28.139425 20576 net.cpp:150] Setting up conv3
I1213 07:44:28.139454 20576 net.cpp:157] Top shape: 50 384 7 7 (940800)
I1213 07:44:28.139457 20576 net.cpp:165] Memory required for data: 106823000
I1213 07:44:28.139463 20576 layer_factory.hpp:76] Creating layer relu3
I1213 07:44:28.139472 20576 net.cpp:106] Creating Layer relu3
I1213 07:44:28.139474 20576 net.cpp:454] relu3 <- conv3
I1213 07:44:28.139482 20576 net.cpp:397] relu3 -> conv3 (in-place)
I1213 07:44:28.139489 20576 net.cpp:150] Setting up relu3
I1213 07:44:28.139492 20576 net.cpp:157] Top shape: 50 384 7 7 (940800)
I1213 07:44:28.139494 20576 net.cpp:165] Memory required for data: 110586200
I1213 07:44:28.139497 20576 layer_factory.hpp:76] Creating layer conv3_BN
I1213 07:44:28.139503 20576 net.cpp:106] Creating Layer conv3_BN
I1213 07:44:28.139505 20576 net.cpp:454] conv3_BN <- conv3
I1213 07:44:28.139509 20576 net.cpp:411] conv3_BN -> conv3_BN
I1213 07:44:28.139664 20576 net.cpp:150] Setting up conv3_BN
I1213 07:44:28.139668 20576 net.cpp:157] Top shape: 50 384 7 7 (940800)
I1213 07:44:28.139670 20576 net.cpp:165] Memory required for data: 114349400
I1213 07:44:28.139684 20576 layer_factory.hpp:76] Creating layer conv4
I1213 07:44:28.139693 20576 net.cpp:106] Creating Layer conv4
I1213 07:44:28.139694 20576 net.cpp:454] conv4 <- conv3_BN
I1213 07:44:28.139698 20576 net.cpp:411] conv4 -> conv4
I1213 07:44:28.157099 20576 net.cpp:150] Setting up conv4
I1213 07:44:28.157127 20576 net.cpp:157] Top shape: 50 384 7 7 (940800)
I1213 07:44:28.157130 20576 net.cpp:165] Memory required for data: 118112600
I1213 07:44:28.157141 20576 layer_factory.hpp:76] Creating layer relu4
I1213 07:44:28.157147 20576 net.cpp:106] Creating Layer relu4
I1213 07:44:28.157152 20576 net.cpp:454] relu4 <- conv4
I1213 07:44:28.157157 20576 net.cpp:397] relu4 -> conv4 (in-place)
I1213 07:44:28.157163 20576 net.cpp:150] Setting up relu4
I1213 07:44:28.157167 20576 net.cpp:157] Top shape: 50 384 7 7 (940800)
I1213 07:44:28.157168 20576 net.cpp:165] Memory required for data: 121875800
I1213 07:44:28.157171 20576 layer_factory.hpp:76] Creating layer conv4_BN
I1213 07:44:28.157176 20576 net.cpp:106] Creating Layer conv4_BN
I1213 07:44:28.157178 20576 net.cpp:454] conv4_BN <- conv4
I1213 07:44:28.157182 20576 net.cpp:411] conv4_BN -> conv4_BN
I1213 07:44:28.157346 20576 net.cpp:150] Setting up conv4_BN
I1213 07:44:28.157351 20576 net.cpp:157] Top shape: 50 384 7 7 (940800)
I1213 07:44:28.157352 20576 net.cpp:165] Memory required for data: 125639000
I1213 07:44:28.157366 20576 layer_factory.hpp:76] Creating layer conv5
I1213 07:44:28.157377 20576 net.cpp:106] Creating Layer conv5
I1213 07:44:28.157379 20576 net.cpp:454] conv5 <- conv4_BN
I1213 07:44:28.157392 20576 net.cpp:411] conv5 -> conv5
I1213 07:44:28.169600 20576 net.cpp:150] Setting up conv5
I1213 07:44:28.169631 20576 net.cpp:157] Top shape: 50 256 7 7 (627200)
I1213 07:44:28.169633 20576 net.cpp:165] Memory required for data: 128147800
I1213 07:44:28.169641 20576 layer_factory.hpp:76] Creating layer relu5
I1213 07:44:28.169647 20576 net.cpp:106] Creating Layer relu5
I1213 07:44:28.169653 20576 net.cpp:454] relu5 <- conv5
I1213 07:44:28.169659 20576 net.cpp:397] relu5 -> conv5 (in-place)
I1213 07:44:28.169667 20576 net.cpp:150] Setting up relu5
I1213 07:44:28.169668 20576 net.cpp:157] Top shape: 50 256 7 7 (627200)
I1213 07:44:28.169670 20576 net.cpp:165] Memory required for data: 130656600
I1213 07:44:28.169672 20576 layer_factory.hpp:76] Creating layer conv5_BN
I1213 07:44:28.169678 20576 net.cpp:106] Creating Layer conv5_BN
I1213 07:44:28.169682 20576 net.cpp:454] conv5_BN <- conv5
I1213 07:44:28.169685 20576 net.cpp:411] conv5_BN -> conv5_BN
I1213 07:44:28.169842 20576 net.cpp:150] Setting up conv5_BN
I1213 07:44:28.169845 20576 net.cpp:157] Top shape: 50 256 7 7 (627200)
I1213 07:44:28.169847 20576 net.cpp:165] Memory required for data: 133165400
I1213 07:44:28.169862 20576 layer_factory.hpp:76] Creating layer pool5
I1213 07:44:28.169867 20576 net.cpp:106] Creating Layer pool5
I1213 07:44:28.169868 20576 net.cpp:454] pool5 <- conv5_BN
I1213 07:44:28.169873 20576 net.cpp:411] pool5 -> pool5
I1213 07:44:28.170163 20576 net.cpp:150] Setting up pool5
I1213 07:44:28.170181 20576 net.cpp:157] Top shape: 50 256 3 3 (115200)
I1213 07:44:28.170183 20576 net.cpp:165] Memory required for data: 133626200
I1213 07:44:28.170186 20576 layer_factory.hpp:76] Creating layer fc6
I1213 07:44:28.170191 20576 net.cpp:106] Creating Layer fc6
I1213 07:44:28.170193 20576 net.cpp:454] fc6 <- pool5
I1213 07:44:28.170198 20576 net.cpp:411] fc6 -> fc6
I1213 07:44:28.284414 20576 net.cpp:150] Setting up fc6
I1213 07:44:28.284454 20576 net.cpp:157] Top shape: 50 2048 (102400)
I1213 07:44:28.284459 20576 net.cpp:165] Memory required for data: 134035800
I1213 07:44:28.284474 20576 layer_factory.hpp:76] Creating layer relu6
I1213 07:44:28.284492 20576 net.cpp:106] Creating Layer relu6
I1213 07:44:28.284497 20576 net.cpp:454] relu6 <- fc6
I1213 07:44:28.284502 20576 net.cpp:397] relu6 -> fc6 (in-place)
I1213 07:44:28.284512 20576 net.cpp:150] Setting up relu6
I1213 07:44:28.284514 20576 net.cpp:157] Top shape: 50 2048 (102400)
I1213 07:44:28.284517 20576 net.cpp:165] Memory required for data: 134445400
I1213 07:44:28.284518 20576 layer_factory.hpp:76] Creating layer fc6_BN
I1213 07:44:28.284525 20576 net.cpp:106] Creating Layer fc6_BN
I1213 07:44:28.284528 20576 net.cpp:454] fc6_BN <- fc6
I1213 07:44:28.284530 20576 net.cpp:411] fc6_BN -> fc6_BN
I1213 07:44:28.284752 20576 net.cpp:150] Setting up fc6_BN
I1213 07:44:28.284757 20576 net.cpp:157] Top shape: 50 2048 (102400)
I1213 07:44:28.284759 20576 net.cpp:165] Memory required for data: 134855000
I1213 07:44:28.284773 20576 layer_factory.hpp:76] Creating layer drop6
I1213 07:44:28.284778 20576 net.cpp:106] Creating Layer drop6
I1213 07:44:28.284780 20576 net.cpp:454] drop6 <- fc6_BN
I1213 07:44:28.284786 20576 net.cpp:411] drop6 -> drop6
I1213 07:44:28.284824 20576 net.cpp:150] Setting up drop6
I1213 07:44:28.284827 20576 net.cpp:157] Top shape: 50 2048 (102400)
I1213 07:44:28.284829 20576 net.cpp:165] Memory required for data: 135264600
I1213 07:44:28.284840 20576 layer_factory.hpp:76] Creating layer fc7
I1213 07:44:28.284848 20576 net.cpp:106] Creating Layer fc7
I1213 07:44:28.284850 20576 net.cpp:454] fc7 <- drop6
I1213 07:44:28.284854 20576 net.cpp:411] fc7 -> fc7
I1213 07:44:28.385913 20576 net.cpp:150] Setting up fc7
I1213 07:44:28.385941 20576 net.cpp:157] Top shape: 50 2048 (102400)
I1213 07:44:28.385944 20576 net.cpp:165] Memory required for data: 135674200
I1213 07:44:28.385952 20576 layer_factory.hpp:76] Creating layer relu7
I1213 07:44:28.385960 20576 net.cpp:106] Creating Layer relu7
I1213 07:44:28.385967 20576 net.cpp:454] relu7 <- fc7
I1213 07:44:28.385973 20576 net.cpp:397] relu7 -> fc7 (in-place)
I1213 07:44:28.385980 20576 net.cpp:150] Setting up relu7
I1213 07:44:28.385983 20576 net.cpp:157] Top shape: 50 2048 (102400)
I1213 07:44:28.385985 20576 net.cpp:165] Memory required for data: 136083800
I1213 07:44:28.385989 20576 layer_factory.hpp:76] Creating layer fc7_BN
I1213 07:44:28.385996 20576 net.cpp:106] Creating Layer fc7_BN
I1213 07:44:28.385998 20576 net.cpp:454] fc7_BN <- fc7
I1213 07:44:28.386003 20576 net.cpp:411] fc7_BN -> fc7_BN
I1213 07:44:28.386181 20576 net.cpp:150] Setting up fc7_BN
I1213 07:44:28.386186 20576 net.cpp:157] Top shape: 50 2048 (102400)
I1213 07:44:28.386188 20576 net.cpp:165] Memory required for data: 136493400
I1213 07:44:28.386205 20576 layer_factory.hpp:76] Creating layer drop7
I1213 07:44:28.386210 20576 net.cpp:106] Creating Layer drop7
I1213 07:44:28.386214 20576 net.cpp:454] drop7 <- fc7_BN
I1213 07:44:28.386217 20576 net.cpp:411] drop7 -> drop7
I1213 07:44:28.386248 20576 net.cpp:150] Setting up drop7
I1213 07:44:28.386252 20576 net.cpp:157] Top shape: 50 2048 (102400)
I1213 07:44:28.386255 20576 net.cpp:165] Memory required for data: 136903000
I1213 07:44:28.386257 20576 layer_factory.hpp:76] Creating layer fc8
I1213 07:44:28.386263 20576 net.cpp:106] Creating Layer fc8
I1213 07:44:28.386266 20576 net.cpp:454] fc8 <- drop7
I1213 07:44:28.386270 20576 net.cpp:411] fc8 -> fc8
I1213 07:44:28.434715 20576 net.cpp:150] Setting up fc8
I1213 07:44:28.434742 20576 net.cpp:157] Top shape: 50 1000 (50000)
I1213 07:44:28.434746 20576 net.cpp:165] Memory required for data: 137103000
I1213 07:44:28.434753 20576 layer_factory.hpp:76] Creating layer fc8_fc8_0_split
I1213 07:44:28.434761 20576 net.cpp:106] Creating Layer fc8_fc8_0_split
I1213 07:44:28.434764 20576 net.cpp:454] fc8_fc8_0_split <- fc8
I1213 07:44:28.434770 20576 net.cpp:411] fc8_fc8_0_split -> fc8_fc8_0_split_0
I1213 07:44:28.434778 20576 net.cpp:411] fc8_fc8_0_split -> fc8_fc8_0_split_1
I1213 07:44:28.434826 20576 net.cpp:150] Setting up fc8_fc8_0_split
I1213 07:44:28.434830 20576 net.cpp:157] Top shape: 50 1000 (50000)
I1213 07:44:28.434842 20576 net.cpp:157] Top shape: 50 1000 (50000)
I1213 07:44:28.434844 20576 net.cpp:165] Memory required for data: 137503000
I1213 07:44:28.434846 20576 layer_factory.hpp:76] Creating layer accuracy
I1213 07:44:28.434854 20576 net.cpp:106] Creating Layer accuracy
I1213 07:44:28.434859 20576 net.cpp:454] accuracy <- fc8_fc8_0_split_0
I1213 07:44:28.434860 20576 net.cpp:454] accuracy <- label_data_1_split_0
I1213 07:44:28.434864 20576 net.cpp:411] accuracy -> accuracy
…
