…
      crop_size: 128
      mean_value: 104
      mean_value: 117
      mean_value: 123
      force_color: true
      resize_param {
        prob: 1
        resize_mode: FIT_SMALL_SIZE
        height: 144
        width: 144
        pad_mode: MIRRORED
        pad_value: 104
        pad_value: 117
        pad_value: 124
        interp_mode: CUBIC
        center_object: false
        max_angle: 0
      }
    }
    data_param {
      source: "/home/share/storage/datasets/imagenet/lmdb/ilsvrc12_val_lmdb"
      batch_size: 50
      backend: LMDB
    }
  }
  layer {
    name: "conv1"
    type: "Convolution"
    bottom: "data"
    top: "conv1"
    param {
      lr_mult: 1
      decay_mult: 1
    }
    param {
      lr_mult: 2
      decay_mult: 0
    }
    convolution_param {
      num_output: 96
      kernel_size: 11
      stride: 4
      weight_filler {
        type: "gaussian"
        std: 0.01
      }
      bias_filler {
        type: "constant"
      }
    }
  }
  layer {
    name: "conv1_BN"
    type: "BatchNorm"
    bottom: "conv1"
    top: "conv1_BN"
    param {
      lr_mult: 0
      decay_mult: 0
    }
    param {
      lr_mult: 0
      decay_mult: 0
    }
    param {
      lr_mult: 0
      decay_mult: 0
    }
    include {
      phase: TRAIN
    }
    batch_norm_param {
      use_global_stats: false
      moving_average_fraction: 0.95
    }
  }
  layer {
    name: "conv1_BN"
    type: "BatchNorm"
    bottom: "conv1"
    top: "conv1_BN"
    param {
      lr_mult: 0
      decay_mult: 0
    }
    param {
      lr_mult: 0
      decay_mult: 0
    }
    param {
      lr_mult: 0
      decay_mult: 0
    }
    include {
      phase: TEST
    }
    batch_norm_param {
      use_global_stats: true
      moving_average_fraction: 0.95
    }
  }
  layer {
    name: "ea_BN1"
    type: "EltwiseAffine"
    bottom: "conv1_BN"
    top: "conv1_BN_ea"
    param {
      lr_mult: 1
      decay_mult: 1
    }
    param {
      lr_mult: 2
      decay_mult: 0
    }
    eltwise_affine_param {
      slope_filler {
        type: "constant"
        value: 1
      }
      bias_filler {
        type: "constant"
        value: 0.0001
      }
    }
  }
  layer {
    name: "relu1"
    type: "ReLU"
    bottom: "conv1_BN_ea"
    top: "relu1"
  }
  layer {
    name: "pool1"
    type: "Pooling"
    bottom: "relu1"
    top: "pool1"
    pooling_param {
      pool: MAX
      kernel_size: 3
      stride: 2
    }
  }
  layer {
    name: "conv2"
    type: "Convolution"
    bottom: "pool1"
    top: "conv2"
    param {
      lr_mult: 1
      decay_mult: 1
    }
    param {
      lr_mult: 2
      decay_mult: 0
    }
    convolution_param {
      num_output: 256
      pad: 2
      kernel_size: 5
      group: 2
      weight_filler {
        type: "gaussian"
        std: 0.01
      }
      bias_filler {
        type: "constant"
      }
    }
  }
  layer {
    name: "conv2_BN"
    type: "BatchNorm"
    bottom: "conv2"
    top: "conv2_BN"
    param {
      lr_mult: 0
      decay_mult: 0
    }
    param {
      lr_mult: 0
      decay_mult: 0
    }
    param {
      lr_mult: 0
      decay_mult: 0
    }
    include {
      phase: TRAIN
    }
    batch_norm_param {
      use_global_stats: false
      moving_average_fraction: 0.95
    }
  }
  layer {
    name: "conv2_BN"
    type: "BatchNorm"
    bottom: "conv2"
    top: "conv2_BN"
    param {
      lr_mult: 0
      decay_mult: 0
    }
    param {
      lr_mult: 0
      decay_mult: 0
    }
    param {
      lr_mult: 0
      decay_mult: 0
    }
    include {
      phase: TEST
    }
    batch_norm_param {
      use_global_stats: true
      moving_average_fraction: 0.95
    }
  }
  layer {
    name: "ea_BN2"
    type: "EltwiseAffine"
    bottom: "conv2_BN"
    top: "conv2_BN_ea"
    param {
      lr_mult: 1
      decay_mult: 1
    }
    param {
      lr_mult: 2
      decay_mult: 0
    }
    eltwise_affine_param {
      slope_filler {
        type: "constant"
        value: 1
      }
      bias_filler {
        type: "constant"
        value: 0.0001
      }
    }
  }
  layer {
    name: "relu2"
    type: "ReLU"
    bottom: "conv2_BN_ea"
    top: "relu2"
  }
  layer {
    name: "pool2"
    type: "Pooling"
    bottom: "relu2"
    top: "pool2"
    pooling_param {
      pool: MAX
      kernel_size: 3
      stride: 2
    }
  }
  layer {
    name: "conv3"
    type: "Convolution"
    bottom: "pool2"
    top: "conv3"
    param {
      lr_mult: 1
      decay_mult: 1
    }
    param {
      lr_mult: 2
      decay_mult: 0
    }
    convolution_param {
      num_output: 384
      pad: 1
      kernel_size: 3
      weight_filler {
        type: "gaussian"
        std: 0.01
      }
      bias_filler {
        type: "constant"
      }
    }
  }
  layer {
    name: "conv3_BN"
    type: "BatchNorm"
    bottom: "conv3"
    top: "conv3_BN"
    param {
      lr_mult: 0
      decay_mult: 0
    }
    param {
      lr_mult: 0
      decay_mult: 0
    }
    param {
      lr_mult: 0
      decay_mult: 0
    }
    include {
      phase: TRAIN
    }
    batch_norm_param {
      use_global_stats: false
      moving_average_fraction: 0.95
    }
  }
  layer {
    name: "conv3_BN"
    type: "BatchNorm"
    bottom: "conv3"
    top: "conv3_BN"
    param {
      lr_mult: 0
      decay_mult: 0
    }
    param {
      lr_mult: 0
      decay_mult: 0
    }
    param {
      lr_mult: 0
      decay_mult: 0
    }
    include {
      phase: TEST
    }
    batch_norm_param {
      use_global_stats: true
      moving_average_fraction: 0.95
    }
  }
  layer {
    name: "ea_BN3"
    type: "EltwiseAffine"
    bottom: "conv3_BN"
    top: "conv3_BN_ea"
    param {
      lr_mult: 1
      decay_mult: 1
    }
    param {
      lr_mult: 2
      decay_mult: 0
    }
    eltwise_affine_param {
      slope_filler {
        type: "constant"
        value: 1
      }
      bias_filler {
        type: "constant"
        value: 0.0001
      }
    }
  }
  layer {
    name: "relu3"
    type: "ReLU"
    bottom: "conv3_BN_ea"
    top: "relu3"
  }
  layer {
    name: "conv4"
    type: "Convolution"
    bottom: "relu3"
    top: "conv4"
    param {
      lr_mult: 1
      decay_mult: 1
    }
    param {
      lr_mult: 2
      decay_mult: 0
    }
    convolution_param {
      num_output: 384
      pad: 1
      kernel_size: 3
      group: 2
      weight_filler {
        type: "gaussian"
        std: 0.01
      }
      bias_filler {
        type: "constant"
      }
    }
  }
  layer {
    name: "conv4_BN"
    type: "BatchNorm"
    bottom: "conv4"
    top: "conv4_BN"
    param {
      lr_mult: 0
      decay_mult: 0
    }
    param {
      lr_mult: 0
      decay_mult: 0
    }
    param {
      lr_mult: 0
      decay_mult: 0
    }
    include {
      phase: TRAIN
    }
    batch_norm_param {
      use_global_stats: false
      moving_average_fraction: 0.95
    }
  }
  layer {
    name: "conv4_BN"
    type: "BatchNorm"
    bottom: "conv4"
    top: "conv4_BN"
    param {
      lr_mult: 0
      decay_mult: 0
    }
    param {
      lr_mult: 0
      decay_mult: 0
    }
    param {
      lr_mult: 0
      decay_mult: 0
    }
    include {
      phase: TEST
    }
    batch_norm_param {
      use_global_stats: true
      moving_average_fraction: 0.95
    }
  }
  layer {
    name: "ea_BN4"
    type: "EltwiseAffine"
    bottom: "conv4_BN"
    top: "conv4_BN_ea"
    param {
      lr_mult: 1
      decay_mult: 1
    }
    param {
      lr_mult: 2
      decay_mult: 0
    }
    eltwise_affine_param {
      slope_filler {
        type: "constant"
        value: 1
      }
      bias_filler {
        type: "constant"
        value: 0.0001
      }
    }
  }
  layer {
    name: "relu4"
    type: "ReLU"
    bottom: "conv4_BN_ea"
    top: "relu4"
  }
  layer {
    name: "conv5"
    type: "Convolution"
    bottom: "relu4"
    top: "conv5"
    param {
      lr_mult: 1
      decay_mult: 1
    }
    param {
      lr_mult: 2
      decay_mult: 0
    }
    convolution_param {
      num_output: 256
      pad: 1
      kernel_size: 3
      group: 2
      weight_filler {
        type: "gaussian"
        std: 0.01
      }
      bias_filler {
        type: "constant"
      }
    }
  }
  layer {
    name: "conv5_BN"
    type: "BatchNorm"
    bottom: "conv5"
    top: "conv5_BN"
    param {
      lr_mult: 0
      decay_mult: 0
    }
    param {
      lr_mult: 0
      decay_mult: 0
    }
    param {
      lr_mult: 0
      decay_mult: 0
    }
    include {
      phase: TRAIN
    }
    batch_norm_param {
      use_global_stats: false
      moving_average_fraction: 0.95
    }
  }
  layer {
    name: "conv5_BN"
    type: "BatchNorm"
    bottom: "conv5"
    top: "conv5_BN"
    param {
      lr_mult: 0
      decay_mult: 0
    }
    param {
      lr_mult: 0
      decay_mult: 0
    }
    param {
      lr_mult: 0
      decay_mult: 0
    }
    include {
      phase: TEST
    }
    batch_norm_param {
      use_global_stats: true
      moving_average_fraction: 0.95
    }
  }
  layer {
    name: "ea_BN5"
    type: "EltwiseAffine"
    bottom: "conv5_BN"
    top: "conv5_BN_ea"
    param {
      lr_mult: 1
      decay_mult: 1
    }
    param {
      lr_mult: 2
      decay_mult: 0
    }
    eltwise_affine_param {
      slope_filler {
        type: "constant"
        value: 1
      }
      bias_filler {
        type: "constant"
        value: 0.0001
      }
    }
  }
  layer {
    name: "relu5"
    type: "ReLU"
    bottom: "conv5_BN_ea"
    top: "relu5"
  }
  layer {
    name: "pool5"
    type: "Pooling"
    bottom: "relu5"
    top: "pool5"
    pooling_param {
      pool: MAX
      kernel_size: 3
      stride: 2
    }
  }
  layer {
    name: "fc6"
    type: "InnerProduct"
    bottom: "pool5"
    top: "fc6"
    param {
      lr_mult: 1
      decay_mult: 1
    }
    param {
      lr_mult: 2
      decay_mult: 0
    }
    inner_product_param {
      num_output: 2048
      weight_filler {
        type: "gaussian"
        std: 0.005
      }
      bias_filler {
        type: "constant"
      }
    }
  }
  layer {
    name: "fc6_BN"
    type: "BatchNorm"
    bottom: "fc6"
    top: "fc6_BN"
    param {
      lr_mult: 0
      decay_mult: 0
    }
    param {
      lr_mult: 0
      decay_mult: 0
    }
    param {
      lr_mult: 0
      decay_mult: 0
    }
    include {
      phase: TRAIN
    }
    batch_norm_param {
      use_global_stats: false
      moving_average_fraction: 0.95
    }
  }
  layer {
    name: "fc6_BN"
    type: "BatchNorm"
    bottom: "fc6"
    top: "fc6_BN"
    param {
      lr_mult: 0
      decay_mult: 0
    }
    param {
      lr_mult: 0
      decay_mult: 0
    }
    param {
      lr_mult: 0
      decay_mult: 0
    }
    include {
      phase: TEST
    }
    batch_norm_param {
      use_global_stats: true
      moving_average_fraction: 0.95
    }
  }
  layer {
    name: "ea_BN6"
    type: "EltwiseAffine"
    bottom: "fc6_BN"
    top: "fc6_BN_ea"
    param {
      lr_mult: 1
      decay_mult: 1
    }
    param {
      lr_mult: 2
      decay_mult: 0
    }
    eltwise_affine_param {
      slope_filler {
        type: "constant"
        value: 1
      }
      bias_filler {
        type: "constant"
        value: 0.0001
      }
    }
  }
  layer {
    name: "relu6"
    type: "ReLU"
    bottom: "fc6_BN_ea"
    top: "relu6"
  }
  layer {
    name: "drop6"
    type: "Dropout"
    bottom: "relu6"
    top: "relu6"
    dropout_param {
      dropout_ratio: 0.5
    }
  }
  layer {
    name: "fc7"
    type: "InnerProduct"
    bottom: "relu6"
    top: "fc7"
    param {
      lr_mult: 1
      decay_mult: 1
    }
    param {
      lr_mult: 2
      decay_mult: 0
    }
    inner_product_param {
      num_output: 2048
      weight_filler {
        type: "gaussian"
        std: 0.005
      }
      bias_filler {
        type: "constant"
      }
    }
  }
  layer {
    name: "fc7_BN"
    type: "BatchNorm"
    bottom: "fc7"
    top: "fc7_BN"
    param {
      lr_mult: 0
      decay_mult: 0
    }
    param {
      lr_mult: 0
      decay_mult: 0
    }
    param {
      lr_mult: 0
      decay_mult: 0
    }
    include {
      phase: TRAIN
    }
    batch_norm_param {
      use_global_stats: false
      moving_average_fraction: 0.95
    }
  }
  layer {
    name: "fc7_BN"
    type: "BatchNorm"
    bottom: "fc7"
    top: "fc7_BN"
    param {
      lr_mult: 0
      decay_mult: 0
    }
    param {
      lr_mult: 0
      decay_mult: 0
    }
    param {
      lr_mult: 0
      decay_mult: 0
    }
    include {
      phase: TEST
    }
    batch_norm_param {
      use_global_stats: true
      moving_average_fraction: 0.95
    }
  }
  layer {
    name: "ea_BN7"
    type: "EltwiseAffine"
    bottom: "fc7_BN"
    top: "fc7_BN_ea"
    param {
      lr_mult: 1
      decay_mult: 1
    }
    param {
      lr_mult: 2
      decay_mult: 0
    }
    eltwise_affine_param {
      slope_filler {
        type: "constant"
        value: 1
      }
      bias_filler {
        type: "constant"
        value: 0.0001
      }
    }
  }
  layer {
    name: "relu7"
    type: "ReLU"
    bottom: "fc7_BN_ea"
    top: "relu7"
  }
  layer {
    name: "drop7"
    type: "Dropout"
    bottom: "relu7"
    top: "relu7"
    dropout_param {
      dropout_ratio: 0.5
    }
  }
  layer {
    name: "fc8"
    type: "InnerProduct"
    bottom: "relu7"
    top: "fc8"
    param {
      lr_mult: 1
      decay_mult: 1
    }
    param {
      lr_mult: 2
      decay_mult: 0
    }
    inner_product_param {
      num_output: 1000
      weight_filler {
        type: "gaussian"
        std: 0.01
      }
      bias_filler {
        type: "constant"
      }
    }
  }
  layer {
    name: "accuracy"
    type: "Accuracy"
    bottom: "fc8"
    bottom: "label"
    top: "accuracy"
    include {
      phase: TEST
    }
  }
  layer {
    name: "loss"
    type: "SoftmaxWithLoss"
    bottom: "fc8"
    bottom: "label"
    top: "loss"
  }
}
iter_size: 1
type: "SGD"
I1209 13:54:13.739472  3198 solver.cpp:86] Creating training net specified in net_param.
I1209 13:54:13.739619  3198 net.cpp:322] The NetState phase (0) differed from the phase (1) specified by a rule in layer data
I1209 13:54:13.739627  3198 net.cpp:322] The NetState phase (0) differed from the phase (1) specified by a rule in layer conv1_BN
I1209 13:54:13.739647  3198 net.cpp:322] The NetState phase (0) differed from the phase (1) specified by a rule in layer conv2_BN
…
  transform_param {
    scale: 0.04
    mirror: true
    crop_size: 128
    mean_value: 104
    mean_value: 117
    mean_value: 124
    force_color: true
    resize_param {
      prob: 1
      resize_mode: FIT_SMALL_SIZE
      height: 144
      width: 144
      pad_mode: MIRRORED
      pad_value: 104
      pad_value: 117
      pad_value: 124
      interp_mode: CUBIC
      center_object: false
      max_angle: 0
    }
  }
  data_param {
    source: "/home/share/storage/datasets/imagenet/lmdb/ilsvrc12_train_lmdb"
    batch_size: 256
    backend: LMDB
  }
}
layer {
  name: "conv1"
  type: "Convolution"
  bottom: "data"
  top: "conv1"
  param {
    lr_mult: 1
    decay_mult: 1
  }
  param {
    lr_mult: 2
    decay_mult: 0
  }
  convolution_param {
    num_output: 96
    kernel_size: 11
    stride: 4
    weight_filler {
      type: "gaussian"
      std: 0.01
    }
    bias_filler {
      type: "constant"
    }
  }
}
layer {
  name: "conv1_BN"
  type: "BatchNorm"
  bottom: "conv1"
  top: "conv1_BN"
  param {
    lr_mult: 0
    decay_mult: 0
  }
  param {
    lr_mult: 0
    decay_mult: 0
  }
  param {
    lr_mult: 0
    decay_mult: 0
  }
  include {
    phase: TRAIN
  }
  batch_norm_param {
    use_global_stats: false
    moving_average_fraction: 0.95
  }
}
layer {
  name: "ea_BN1"
  type: "EltwiseAffine"
  bottom: "conv1_BN"
  top: "conv1_BN_ea"
  param {
    lr_mult: 1
    decay_mult: 1
  }
  param {
    lr_mult: 2
    decay_mult: 0
  }
  eltwise_affine_param {
    slope_filler {
      type: "constant"
      value: 1
    }
    bias_filler {
      type: "constant"
      value: 0.0001
    }
  }
}
layer {
  name: "relu1"
  type: "ReLU"
  bottom: "conv1_BN_ea"
  top: "relu1"
}
layer {
  name: "pool1"
  type: "Pooling"
  bottom: "relu1"
  top: "pool1"
  pooling_param {
    pool: MAX
    kernel_size: 3
    stride: 2
  }
}
layer {
  name: "conv2"
  type: "Convolution"
  bottom: "pool1"
  top: "conv2"
  param {
    lr_mult: 1
    decay_mult: 1
  }
  param {
    lr_mult: 2
    decay_mult: 0
  }
  convolution_param {
    num_output: 256
    pad: 2
    kernel_size: 5
    group: 2
    weight_filler {
      type: "gaussian"
      std: 0.01
    }
    bias_filler {
      type: "constant"
    }
  }
}
layer {
  name: "conv2_BN"
  type: "BatchNorm"
  bottom: "conv2"
  top: "conv2_BN"
  param {
    lr_mult: 0
    decay_mult: 0
  }
  param {
    lr_mult: 0
    decay_mult: 0
  }
  param {
    lr_mult: 0
    decay_mult: 0
  }
  include {
    phase: TRAIN
  }
  batch_norm_param {
    use_global_stats: false
    moving_average_fraction: 0.95
  }
}
layer {
  name: "ea_BN2"
  type: "EltwiseAffine"
  bottom: "conv2_BN"
  top: "conv2_BN_ea"
  param {
    lr_mult: 1
    decay_mult: 1
  }
  param {
    lr_mult: 2
    decay_mult: 0
  }
  eltwise_affine_param {
    slope_filler {
      type: "constant"
      value: 1
    }
    bias_filler {
      type: "constant"
      value: 0.0001
    }
  }
}
layer {
  name: "relu2"
  type: "ReLU"
  bottom: "conv2_BN_ea"
  top: "relu2"
}
layer {
  name: "pool2"
  type: "Pooling"
  bottom: "relu2"
  top: "pool2"
  pooling_param {
    pool: MAX
    kernel_size: 3
    stride: 2
  }
}
layer {
  name: "conv3"
  type: "Convolution"
  bottom: "pool2"
  top: "conv3"
  param {
    lr_mult: 1
    decay_mult: 1
  }
  param {
    lr_mult: 2
    decay_mult: 0
  }
  convolution_param {
    num_output: 384
    pad: 1
    kernel_size: 3
    weight_filler {
      type: "gaussian"
      std: 0.01
    }
    bias_filler {
      type: "constant"
    }
  }
}
layer {
  name: "conv3_BN"
  type: "BatchNorm"
  bottom: "conv3"
  top: "conv3_BN"
  param {
    lr_mult: 0
    decay_mult: 0
  }
  param {
    lr_mult: 0
    decay_mult: 0
  }
  param {
    lr_mult: 0
    decay_mult: 0
  }
  include {
    phase: TRAIN
  }
  batch_norm_param {
    use_global_stats: false
    moving_average_fraction: 0.95
  }
}
layer {
  name: "ea_BN3"
  type: "EltwiseAffine"
  bottom: "conv3_BN"
  top: "conv3_BN_ea"
  param {
    lr_mult: 1
    decay_mult: 1
  }
  param {
    lr_mult: 2
    decay_mult: 0
  }
  eltwise_affine_param {
    slope_filler {
      type: "constant"
      value: 1
    }
    bias_filler {
      type: "constant"
      value: 0.0001
    }
  }
}
layer {
  name: "relu3"
  type: "ReLU"
  bottom: "conv3_BN_ea"
  top: "relu3"
}
layer {
  name: "conv4"
  type: "Convolution"
  bottom: "relu3"
  top: "conv4"
  param {
    lr_mult: 1
    decay_mult: 1
  }
  param {
    lr_mult: 2
    decay_mult: 0
  }
  convolution_param {
    num_output: 384
    pad: 1
    kernel_size: 3
    group: 2
    weight_filler {
      type: "gaussian"
      std: 0.01
    }
    bias_filler {
      type: "constant"
    }
  }
}
layer {
  name: "conv4_BN"
  type: "BatchNorm"
  bottom: "conv4"
  top: "conv4_BN"
  param {
    lr_mult: 0
    decay_mult: 0
  }
  param {
    lr_mult: 0
    decay_mult: 0
  }
  param {
    lr_mult: 0
    decay_mult: 0
  }
  include {
    phase: TRAIN
  }
  batch_norm_param {
    use_global_stats: false
    moving_average_fraction: 0.95
  }
}
layer {
  name: "ea_BN4"
  type: "EltwiseAffine"
  bottom: "conv4_BN"
  top: "conv4_BN_ea"
  param {
    lr_mult: 1
    decay_mult: 1
  }
  param {
    lr_mult: 2
    decay_mult: 0
  }
  eltwise_affine_param {
    slope_filler {
      type: "constant"
      value: 1
    }
    bias_filler {
      type: "constant"
      value: 0.0001
    }
  }
}
layer {
  name: "relu4"
  type: "ReLU"
  bottom: "conv4_BN_ea"
  top: "relu4"
}
layer {
  name: "conv5"
  type: "Convolution"
  bottom: "relu4"
  top: "conv5"
  param {
    lr_mult: 1
    decay_mult: 1
  }
  param {
    lr_mult: 2
    decay_mult: 0
  }
  convolution_param {
    num_output: 256
    pad: 1
    kernel_size: 3
    group: 2
    weight_filler {
      type: "gaussian"
      std: 0.01
    }
    bias_filler {
      type: "constant"
    }
  }
}
layer {
  name: "conv5_BN"
  type: "BatchNorm"
  bottom: "conv5"
  top: "conv5_BN"
  param {
    lr_mult: 0
    decay_mult: 0
  }
  param {
    lr_mult: 0
    decay_mult: 0
  }
  param {
    lr_mult: 0
    decay_mult: 0
  }
  include {
    phase: TRAIN
  }
  batch_norm_param {
    use_global_stats: false
    moving_average_fraction: 0.95
  }
}
layer {
  name: "ea_BN5"
  type: "EltwiseAffine"
  bottom: "conv5_BN"
  top: "conv5_BN_ea"
  param {
    lr_mult: 1
    decay_mult: 1
  }
  param {
    lr_mult: 2
    decay_mult: 0
  }
  eltwise_affine_param {
    slope_filler {
      type: "constant"
      value: 1
    }
    bias_filler {
      type: "constant"
      value: 0.0001
    }
  }
}
layer {
  name: "relu5"
  type: "ReLU"
  bottom: "conv5_BN_ea"
  top: "relu5"
}
layer {
  name: "pool5"
  type: "Pooling"
  bottom: "relu5"
  top: "pool5"
  pooling_param {
    pool: MAX
    kernel_size: 3
    stride: 2
  }
}
layer {
  name: "fc6"
  type: "InnerProduct"
  bottom: "pool5"
  top: "fc6"
  param {
    lr_mult: 1
    decay_mult: 1
  }
  param {
    lr_mult: 2
    decay_mult: 0
  }
  inner_product_param {
    num_output: 2048
    weight_filler {
      type: "gaussian"
      std: 0.005
    }
    bias_filler {
      type: "constant"
    }
  }
}
layer {
  name: "fc6_BN"
  type: "BatchNorm"
  bottom: "fc6"
  top: "fc6_BN"
  param {
    lr_mult: 0
    decay_mult: 0
  }
  param {
    lr_mult: 0
    decay_mult: 0
  }
  param {
    lr_mult: 0
    decay_mult: 0
  }
  include {
    phase: TRAIN
  }
  batch_norm_param {
    use_global_stats: false
    moving_average_fraction: 0.95
  }
}
layer {
  name: "ea_BN6"
  type: "EltwiseAffine"
  bottom: "fc6_BN"
  top: "fc6_BN_ea"
  param {
    lr_mult: 1
    decay_mult: 1
  }
  param {
    lr_mult: 2
    decay_mult: 0
  }
  eltwise_affine_param {
    slope_filler {
      type: "constant"
      value: 1
    }
    bias_filler {
      type: "constant"
      value: 0.0001
    }
  }
}
layer {
  name: "relu6"
  type: "ReLU"
  bottom: "fc6_BN_ea"
  top: "relu6"
}
layer {
  name: "drop6"
  type: "Dropout"
  bottom: "relu6"
  top: "relu6"
  dropout_param {
    dropout_ratio: 0.5
  }
}
layer {
  name: "fc7"
  type: "InnerProduct"
  bottom: "relu6"
  top: "fc7"
  param {
    lr_mult: 1
    decay_mult: 1
  }
  param {
    lr_mult: 2
    decay_mult: 0
  }
  inner_product_param {
    num_output: 2048
    weight_filler {
      type: "gaussian"
      std: 0.005
    }
    bias_filler {
      type: "constant"
    }
  }
}
layer {
  name: "fc7_BN"
  type: "BatchNorm"
  bottom: "fc7"
  top: "fc7_BN"
  param {
    lr_mult: 0
    decay_mult: 0
  }
  param {
    lr_mult: 0
    decay_mult: 0
  }
  param {
    lr_mult: 0
    decay_mult: 0
  }
  include {
    phase: TRAIN
  }
  batch_norm_param {
    use_global_stats: false
    moving_average_fraction: 0.95
  }
}
layer {
  name: "ea_BN7"
  type: "EltwiseAffine"
  bottom: "fc7_BN"
  top: "fc7_BN_ea"
  param {
    lr_mult: 1
    decay_mult: 1
  }
  param {
    lr_mult: 2
    decay_mult: 0
  }
  eltwise_affine_param {
    slope_filler {
      type: "constant"
      value: 1
    }
    bias_filler {
      type: "constant"
      value: 0.0001
    }
  }
}
layer {
  name: "relu7"
  type: "ReLU"
  bottom: "fc7_BN_ea"
  top: "relu7"
}
layer {
  name: "drop7"
  type: "Dropout"
  bottom: "relu7"
  top: "relu7"
  dropout_param {
    dropout_ratio: 0.5
  }
}
layer {
  name: "fc8"
  type: "InnerProduct"
  bottom: "relu7"
  top: "fc8"
  param {
    lr_mult: 1
    decay_mult: 1
  }
  param {
    lr_mult: 2
    decay_mult: 0
  }
  inner_product_param {
    num_output: 1000
    weight_filler {
      type: "gaussian"
      std: 0.01
    }
    bias_filler {
      type: "constant"
    }
  }
}
layer {
  name: "loss"
  type: "SoftmaxWithLoss"
  bottom: "fc8"
  bottom: "label"
  top: "loss"
}
I1209 13:54:13.740010  3198 layer_factory.hpp:76] Creating layer data
I1209 13:54:13.740499  3198 net.cpp:106] Creating Layer data
I1209 13:54:13.740510  3198 net.cpp:411] data -> data
I1209 13:54:13.740535  3198 net.cpp:411] data -> label
I1209 13:54:13.741202  3202 db_lmdb.cpp:38] Opened lmdb /home/share/storage/datasets/imagenet/lmdb/ilsvrc12_train_lmdb
I1209 13:54:13.750697  3198 data_layer.cpp:41] output data size: 256,3,128,128
I1209 13:54:13.822890  3198 net.cpp:150] Setting up data
I1209 13:54:13.822927  3198 net.cpp:157] Top shape: 256 3 128 128 (12582912)
I1209 13:54:13.822932  3198 net.cpp:157] Top shape: 256 (256)
I1209 13:54:13.822934  3198 net.cpp:165] Memory required for data: 50332672
I1209 13:54:13.822952  3198 layer_factory.hpp:76] Creating layer conv1
I1209 13:54:13.822968  3198 net.cpp:106] Creating Layer conv1
I1209 13:54:13.822971  3198 net.cpp:454] conv1 <- data
I1209 13:54:13.822985  3198 net.cpp:411] conv1 -> conv1
I1209 13:54:13.950083  3198 net.cpp:150] Setting up conv1
I1209 13:54:13.950114  3198 net.cpp:157] Top shape: 256 96 30 30 (22118400)
I1209 13:54:13.950117  3198 net.cpp:165] Memory required for data: 138806272
I1209 13:54:13.950131  3198 layer_factory.hpp:76] Creating layer conv1_BN
I1209 13:54:13.950155  3198 net.cpp:106] Creating Layer conv1_BN
I1209 13:54:13.950157  3198 net.cpp:454] conv1_BN <- conv1
I1209 13:54:13.950162  3198 net.cpp:411] conv1_BN -> conv1_BN
I1209 13:54:13.950328  3198 net.cpp:150] Setting up conv1_BN
I1209 13:54:13.950335  3198 net.cpp:157] Top shape: 256 96 30 30 (22118400)
I1209 13:54:13.950345  3198 net.cpp:165] Memory required for data: 227279872
I1209 13:54:13.950353  3198 layer_factory.hpp:76] Creating layer ea_BN1
I1209 13:54:13.950361  3198 net.cpp:106] Creating Layer ea_BN1
I1209 13:54:13.950362  3198 net.cpp:454] ea_BN1 <- conv1_BN
I1209 13:54:13.950366  3198 net.cpp:411] ea_BN1 -> conv1_BN_ea
I1209 13:54:13.950785  3198 net.cpp:150] Setting up ea_BN1
I1209 13:54:13.950793  3198 net.cpp:157] Top shape: 256 96 30 30 (22118400)
I1209 13:54:13.950805  3198 net.cpp:165] Memory required for data: 315753472
I1209 13:54:13.950809  3198 layer_factory.hpp:76] Creating layer relu1
I1209 13:54:13.950814  3198 net.cpp:106] Creating Layer relu1
I1209 13:54:13.950844  3198 net.cpp:454] relu1 <- conv1_BN_ea
I1209 13:54:13.950846  3198 net.cpp:411] relu1 -> relu1
I1209 13:54:13.951009  3198 net.cpp:150] Setting up relu1
I1209 13:54:13.951015  3198 net.cpp:157] Top shape: 256 96 30 30 (22118400)
I1209 13:54:13.951027  3198 net.cpp:165] Memory required for data: 404227072
I1209 13:54:13.951030  3198 layer_factory.hpp:76] Creating layer pool1
I1209 13:54:13.951035  3198 net.cpp:106] Creating Layer pool1
I1209 13:54:13.951036  3198 net.cpp:454] pool1 <- relu1
I1209 13:54:13.951040  3198 net.cpp:411] pool1 -> pool1
I1209 13:54:13.951305  3198 net.cpp:150] Setting up pool1
I1209 13:54:13.951313  3198 net.cpp:157] Top shape: 256 96 15 15 (5529600)
I1209 13:54:13.951324  3198 net.cpp:165] Memory required for data: 426345472
I1209 13:54:13.951328  3198 layer_factory.hpp:76] Creating layer conv2
I1209 13:54:13.951334  3198 net.cpp:106] Creating Layer conv2
I1209 13:54:13.951336  3198 net.cpp:454] conv2 <- pool1
I1209 13:54:13.951349  3198 net.cpp:411] conv2 -> conv2
I1209 13:54:13.959532  3198 net.cpp:150] Setting up conv2
I1209 13:54:13.959553  3198 net.cpp:157] Top shape: 256 256 15 15 (14745600)
I1209 13:54:13.959556  3198 net.cpp:165] Memory required for data: 485327872
I1209 13:54:13.959563  3198 layer_factory.hpp:76] Creating layer conv2_BN
I1209 13:54:13.959580  3198 net.cpp:106] Creating Layer conv2_BN
I1209 13:54:13.959583  3198 net.cpp:454] conv2_BN <- conv2
I1209 13:54:13.959586  3198 net.cpp:411] conv2_BN -> conv2_BN
I1209 13:54:13.959734  3198 net.cpp:150] Setting up conv2_BN
I1209 13:54:13.959739  3198 net.cpp:157] Top shape: 256 256 15 15 (14745600)
I1209 13:54:13.959751  3198 net.cpp:165] Memory required for data: 544310272
I1209 13:54:13.959756  3198 layer_factory.hpp:76] Creating layer ea_BN2
I1209 13:54:13.959763  3198 net.cpp:106] Creating Layer ea_BN2
I1209 13:54:13.959764  3198 net.cpp:454] ea_BN2 <- conv2_BN
I1209 13:54:13.959777  3198 net.cpp:411] ea_BN2 -> conv2_BN_ea
I1209 13:54:13.959919  3198 net.cpp:150] Setting up ea_BN2
I1209 13:54:13.959923  3198 net.cpp:157] Top shape: 256 256 15 15 (14745600)
I1209 13:54:13.959925  3198 net.cpp:165] Memory required for data: 603292672
I1209 13:54:13.959939  3198 layer_factory.hpp:76] Creating layer relu2
I1209 13:54:13.959942  3198 net.cpp:106] Creating Layer relu2
I1209 13:54:13.959954  3198 net.cpp:454] relu2 <- conv2_BN_ea
I1209 13:54:13.959959  3198 net.cpp:411] relu2 -> relu2
I1209 13:54:13.960198  3198 net.cpp:150] Setting up relu2
I1209 13:54:13.960206  3198 net.cpp:157] Top shape: 256 256 15 15 (14745600)
I1209 13:54:13.960217  3198 net.cpp:165] Memory required for data: 662275072
I1209 13:54:13.960221  3198 layer_factory.hpp:76] Creating layer pool2
I1209 13:54:13.960225  3198 net.cpp:106] Creating Layer pool2
I1209 13:54:13.960228  3198 net.cpp:454] pool2 <- relu2
I1209 13:54:13.960240  3198 net.cpp:411] pool2 -> pool2
I1209 13:54:13.960475  3198 net.cpp:150] Setting up pool2
I1209 13:54:13.960484  3198 net.cpp:157] Top shape: 256 256 7 7 (3211264)
I1209 13:54:13.960494  3198 net.cpp:165] Memory required for data: 675120128
I1209 13:54:13.960497  3198 layer_factory.hpp:76] Creating layer conv3
I1209 13:54:13.960503  3198 net.cpp:106] Creating Layer conv3
I1209 13:54:13.960505  3198 net.cpp:454] conv3 <- pool2
I1209 13:54:13.960510  3198 net.cpp:411] conv3 -> conv3
I1209 13:54:13.982767  3198 net.cpp:150] Setting up conv3
I1209 13:54:13.982784  3198 net.cpp:157] Top shape: 256 384 7 7 (4816896)
I1209 13:54:13.982787  3198 net.cpp:165] Memory required for data: 694387712
I1209 13:54:13.982795  3198 layer_factory.hpp:76] Creating layer conv3_BN
I1209 13:54:13.982813  3198 net.cpp:106] Creating Layer conv3_BN
I1209 13:54:13.982816  3198 net.cpp:454] conv3_BN <- conv3
I1209 13:54:13.982822  3198 net.cpp:411] conv3_BN -> conv3_BN
I1209 13:54:13.982962  3198 net.cpp:150] Setting up conv3_BN
I1209 13:54:13.982967  3198 net.cpp:157] Top shape: 256 384 7 7 (4816896)
I1209 13:54:13.982969  3198 net.cpp:165] Memory required for data: 713655296
I1209 13:54:13.982986  3198 layer_factory.hpp:76] Creating layer ea_BN3
I1209 13:54:13.983026  3198 net.cpp:106] Creating Layer ea_BN3
I1209 13:54:13.983031  3198 net.cpp:454] ea_BN3 <- conv3_BN
I1209 13:54:13.983034  3198 net.cpp:411] ea_BN3 -> conv3_BN_ea
I1209 13:54:13.983173  3198 net.cpp:150] Setting up ea_BN3
I1209 13:54:13.983178  3198 net.cpp:157] Top shape: 256 384 7 7 (4816896)
I1209 13:54:13.983180  3198 net.cpp:165] Memory required for data: 732922880
I1209 13:54:13.983194  3198 layer_factory.hpp:76] Creating layer relu3
I1209 13:54:13.983199  3198 net.cpp:106] Creating Layer relu3
I1209 13:54:13.983201  3198 net.cpp:454] relu3 <- conv3_BN_ea
I1209 13:54:13.983204  3198 net.cpp:411] relu3 -> relu3
I1209 13:54:13.983458  3198 net.cpp:150] Setting up relu3
I1209 13:54:13.983464  3198 net.cpp:157] Top shape: 256 384 7 7 (4816896)
I1209 13:54:13.983476  3198 net.cpp:165] Memory required for data: 752190464
I1209 13:54:13.983479  3198 layer_factory.hpp:76] Creating layer conv4
I1209 13:54:13.983485  3198 net.cpp:106] Creating Layer conv4
I1209 13:54:13.983489  3198 net.cpp:454] conv4 <- relu3
I1209 13:54:13.983502  3198 net.cpp:411] conv4 -> conv4
I1209 13:54:14.000088  3198 net.cpp:150] Setting up conv4
I1209 13:54:14.000115  3198 net.cpp:157] Top shape: 256 384 7 7 (4816896)
I1209 13:54:14.000118  3198 net.cpp:165] Memory required for data: 771458048
I1209 13:54:14.000125  3198 layer_factory.hpp:76] Creating layer conv4_BN
I1209 13:54:14.000135  3198 net.cpp:106] Creating Layer conv4_BN
I1209 13:54:14.000149  3198 net.cpp:454] conv4_BN <- conv4
I1209 13:54:14.000154  3198 net.cpp:411] conv4_BN -> conv4_BN
I1209 13:54:14.000305  3198 net.cpp:150] Setting up conv4_BN
I1209 13:54:14.000310  3198 net.cpp:157] Top shape: 256 384 7 7 (4816896)
I1209 13:54:14.000313  3198 net.cpp:165] Memory required for data: 790725632
I1209 13:54:14.000326  3198 layer_factory.hpp:76] Creating layer ea_BN4
I1209 13:54:14.000332  3198 net.cpp:106] Creating Layer ea_BN4
I1209 13:54:14.000335  3198 net.cpp:454] ea_BN4 <- conv4_BN
I1209 13:54:14.000347  3198 net.cpp:411] ea_BN4 -> conv4_BN_ea
I1209 13:54:14.000461  3198 net.cpp:150] Setting up ea_BN4
I1209 13:54:14.000465  3198 net.cpp:157] Top shape: 256 384 7 7 (4816896)
I1209 13:54:14.000468  3198 net.cpp:165] Memory required for data: 809993216
I1209 13:54:14.000480  3198 layer_factory.hpp:76] Creating layer relu4
I1209 13:54:14.000485  3198 net.cpp:106] Creating Layer relu4
I1209 13:54:14.000488  3198 net.cpp:454] relu4 <- conv4_BN_ea
I1209 13:54:14.000490  3198 net.cpp:411] relu4 -> relu4
I1209 13:54:14.000738  3198 net.cpp:150] Setting up relu4
I1209 13:54:14.000746  3198 net.cpp:157] Top shape: 256 384 7 7 (4816896)
I1209 13:54:14.000757  3198 net.cpp:165] Memory required for data: 829260800
I1209 13:54:14.000759  3198 layer_factory.hpp:76] Creating layer conv5
I1209 13:54:14.000767  3198 net.cpp:106] Creating Layer conv5
I1209 13:54:14.000771  3198 net.cpp:454] conv5 <- relu4
I1209 13:54:14.000783  3198 net.cpp:411] conv5 -> conv5
I1209 13:54:14.012887  3198 net.cpp:150] Setting up conv5
I1209 13:54:14.012903  3198 net.cpp:157] Top shape: 256 256 7 7 (3211264)
I1209 13:54:14.012905  3198 net.cpp:165] Memory required for data: 842105856
I1209 13:54:14.012912  3198 layer_factory.hpp:76] Creating layer conv5_BN
I1209 13:54:14.012931  3198 net.cpp:106] Creating Layer conv5_BN
I1209 13:54:14.012935  3198 net.cpp:454] conv5_BN <- conv5
I1209 13:54:14.012940  3198 net.cpp:411] conv5_BN -> conv5_BN
I1209 13:54:14.013090  3198 net.cpp:150] Setting up conv5_BN
I1209 13:54:14.013094  3198 net.cpp:157] Top shape: 256 256 7 7 (3211264)
I1209 13:54:14.013097  3198 net.cpp:165] Memory required for data: 854950912
I1209 13:54:14.013113  3198 layer_factory.hpp:76] Creating layer ea_BN5
I1209 13:54:14.013119  3198 net.cpp:106] Creating Layer ea_BN5
I1209 13:54:14.013131  3198 net.cpp:454] ea_BN5 <- conv5_BN
I1209 13:54:14.013135  3198 net.cpp:411] ea_BN5 -> conv5_BN_ea
I1209 13:54:14.013545  3198 net.cpp:150] Setting up ea_BN5
I1209 13:54:14.013553  3198 net.cpp:157] Top shape: 256 256 7 7 (3211264)
I1209 13:54:14.013566  3198 net.cpp:165] Memory required for data: 867795968
I1209 13:54:14.013591  3198 layer_factory.hpp:76] Creating layer relu5
I1209 13:54:14.013594  3198 net.cpp:106] Creating Layer relu5
I1209 13:54:14.013597  3198 net.cpp:454] relu5 <- conv5_BN_ea
I1209 13:54:14.013602  3198 net.cpp:411] relu5 -> relu5
I1209 13:54:14.013762  3198 net.cpp:150] Setting up relu5
I1209 13:54:14.013778  3198 net.cpp:157] Top shape: 256 256 7 7 (3211264)
I1209 13:54:14.013780  3198 net.cpp:165] Memory required for data: 880641024
I1209 13:54:14.013792  3198 layer_factory.hpp:76] Creating layer pool5
I1209 13:54:14.013798  3198 net.cpp:106] Creating Layer pool5
I1209 13:54:14.013800  3198 net.cpp:454] pool5 <- relu5
I1209 13:54:14.013803  3198 net.cpp:411] pool5 -> pool5
I1209 13:54:14.014060  3198 net.cpp:150] Setting up pool5
I1209 13:54:14.014066  3198 net.cpp:157] Top shape: 256 256 3 3 (589824)
I1209 13:54:14.014077  3198 net.cpp:165] Memory required for data: 883000320
I1209 13:54:14.014081  3198 layer_factory.hpp:76] Creating layer fc6
I1209 13:54:14.014098  3198 net.cpp:106] Creating Layer fc6
I1209 13:54:14.014101  3198 net.cpp:454] fc6 <- pool5
I1209 13:54:14.014104  3198 net.cpp:411] fc6 -> fc6
I1209 13:54:14.124375  3198 net.cpp:150] Setting up fc6
I1209 13:54:14.124402  3198 net.cpp:157] Top shape: 256 2048 (524288)
I1209 13:54:14.124404  3198 net.cpp:165] Memory required for data: 885097472
I1209 13:54:14.124413  3198 layer_factory.hpp:76] Creating layer fc6_BN
I1209 13:54:14.124421  3198 net.cpp:106] Creating Layer fc6_BN
I1209 13:54:14.124435  3198 net.cpp:454] fc6_BN <- fc6
I1209 13:54:14.124441  3198 net.cpp:411] fc6_BN -> fc6_BN
I1209 13:54:14.124589  3198 net.cpp:150] Setting up fc6_BN
I1209 13:54:14.124594  3198 net.cpp:157] Top shape: 256 2048 (524288)
I1209 13:54:14.124605  3198 net.cpp:165] Memory required for data: 887194624
I1209 13:54:14.124610  3198 layer_factory.hpp:76] Creating layer ea_BN6
I1209 13:54:14.124616  3198 net.cpp:106] Creating Layer ea_BN6
I1209 13:54:14.124619  3198 net.cpp:454] ea_BN6 <- fc6_BN
I1209 13:54:14.124631  3198 net.cpp:411] ea_BN6 -> fc6_BN_ea
I1209 13:54:14.124734  3198 net.cpp:150] Setting up ea_BN6
I1209 13:54:14.124738  3198 net.cpp:157] Top shape: 256 2048 (524288)
I1209 13:54:14.124740  3198 net.cpp:165] Memory required for data: 889291776
I1209 13:54:14.124753  3198 layer_factory.hpp:76] Creating layer relu6
I1209 13:54:14.124758  3198 net.cpp:106] Creating Layer relu6
I1209 13:54:14.124759  3198 net.cpp:454] relu6 <- fc6_BN_ea
I1209 13:54:14.124763  3198 net.cpp:411] relu6 -> relu6
I1209 13:54:14.124965  3198 net.cpp:150] Setting up relu6
I1209 13:54:14.124970  3198 net.cpp:157] Top shape: 256 2048 (524288)
I1209 13:54:14.124982  3198 net.cpp:165] Memory required for data: 891388928
I1209 13:54:14.124984  3198 layer_factory.hpp:76] Creating layer drop6
I1209 13:54:14.124992  3198 net.cpp:106] Creating Layer drop6
I1209 13:54:14.124994  3198 net.cpp:454] drop6 <- relu6
I1209 13:54:14.125007  3198 net.cpp:397] drop6 -> relu6 (in-place)
I1209 13:54:14.125028  3198 net.cpp:150] Setting up drop6
I1209 13:54:14.125031  3198 net.cpp:157] Top shape: 256 2048 (524288)
I1209 13:54:14.125033  3198 net.cpp:165] Memory required for data: 893486080
I1209 13:54:14.125036  3198 layer_factory.hpp:76] Creating layer fc7
I1209 13:54:14.125043  3198 net.cpp:106] Creating Layer fc7
I1209 13:54:14.125046  3198 net.cpp:454] fc7 <- relu6
I1209 13:54:14.125048  3198 net.cpp:411] fc7 -> fc7
I1209 13:54:14.223424  3198 net.cpp:150] Setting up fc7
I1209 13:54:14.223450  3198 net.cpp:157] Top shape: 256 2048 (524288)
I1209 13:54:14.223453  3198 net.cpp:165] Memory required for data: 895583232
I1209 13:54:14.223460  3198 layer_factory.hpp:76] Creating layer fc7_BN
I1209 13:54:14.223469  3198 net.cpp:106] Creating Layer fc7_BN
I1209 13:54:14.223482  3198 net.cpp:454] fc7_BN <- fc7
I1209 13:54:14.223489  3198 net.cpp:411] fc7_BN -> fc7_BN
I1209 13:54:14.223671  3198 net.cpp:150] Setting up fc7_BN
I1209 13:54:14.223676  3198 net.cpp:157] Top shape: 256 2048 (524288)
I1209 13:54:14.223678  3198 net.cpp:165] Memory required for data: 897680384
I1209 13:54:14.223711  3198 layer_factory.hpp:76] Creating layer ea_BN7
I1209 13:54:14.223717  3198 net.cpp:106] Creating Layer ea_BN7
I1209 13:54:14.223719  3198 net.cpp:454] ea_BN7 <- fc7_BN
I1209 13:54:14.223723  3198 net.cpp:411] ea_BN7 -> fc7_BN_ea
I1209 13:54:14.223830  3198 net.cpp:150] Setting up ea_BN7
I1209 13:54:14.223835  3198 net.cpp:157] Top shape: 256 2048 (524288)
I1209 13:54:14.223837  3198 net.cpp:165] Memory required for data: 899777536
I1209 13:54:14.223841  3198 layer_factory.hpp:76] Creating layer relu7
I1209 13:54:14.223847  3198 net.cpp:106] Creating Layer relu7
I1209 13:54:14.223850  3198 net.cpp:454] relu7 <- fc7_BN_ea
I1209 13:54:14.223852  3198 net.cpp:411] relu7 -> relu7
I1209 13:54:14.224197  3198 net.cpp:150] Setting up relu7
I1209 13:54:14.224206  3198 net.cpp:157] Top shape: 256 2048 (524288)
I1209 13:54:14.224218  3198 net.cpp:165] Memory required for data: 901874688
I1209 13:54:14.224220  3198 layer_factory.hpp:76] Creating layer drop7
I1209 13:54:14.224225  3198 net.cpp:106] Creating Layer drop7
I1209 13:54:14.224227  3198 net.cpp:454] drop7 <- relu7
I1209 13:54:14.224241  3198 net.cpp:397] drop7 -> relu7 (in-place)
I1209 13:54:14.224257  3198 net.cpp:150] Setting up drop7
I1209 13:54:14.224263  3198 net.cpp:157] Top shape: 256 2048 (524288)
I1209 13:54:14.224266  3198 net.cpp:165] Memory required for data: 903971840
I1209 13:54:14.224267  3198 layer_factory.hpp:76] Creating layer fc8
I1209 13:54:14.224273  3198 net.cpp:106] Creating Layer fc8
I1209 13:54:14.224275  3198 net.cpp:454] fc8 <- relu7
I1209 13:54:14.224279  3198 net.cpp:411] fc8 -> fc8
I1209 13:54:14.272482  3198 net.cpp:150] Setting up fc8
I1209 13:54:14.272511  3198 net.cpp:157] Top shape: 256 1000 (256000)
I1209 13:54:14.272512  3198 net.cpp:165] Memory required for data: 904995840
I1209 13:54:14.272531  3198 layer_factory.hpp:76] Creating layer loss
I1209 13:54:14.272619  3198 net.cpp:106] Creating Layer loss
I1209 13:54:14.272627  3198 net.cpp:454] loss <- fc8
I1209 13:54:14.272632  3198 net.cpp:454] loss <- label
I1209 13:54:14.272637  3198 net.cpp:411] loss -> loss
I1209 13:54:14.272650  3198 layer_factory.hpp:76] Creating layer loss
…
  transform_param {
    scale: 0.04
    mirror: false
    crop_size: 128
    mean_value: 104
    mean_value: 117
    mean_value: 123
    force_color: true
    resize_param {
      prob: 1
      resize_mode: FIT_SMALL_SIZE
      height: 144
      width: 144
      pad_mode: MIRRORED
      pad_value: 104
      pad_value: 117
      pad_value: 124
      interp_mode: CUBIC
      center_object: false
      max_angle: 0
    }
  }
  data_param {
    source: "/home/share/storage/datasets/imagenet/lmdb/ilsvrc12_val_lmdb"
    batch_size: 50
    backend: LMDB
  }
}
layer {
  name: "conv1"
  type: "Convolution"
  bottom: "data"
  top: "conv1"
  param {
    lr_mult: 1
    decay_mult: 1
  }
  param {
    lr_mult: 2
    decay_mult: 0
  }
  convolution_param {
    num_output: 96
    kernel_size: 11
    stride: 4
    weight_filler {
      type: "gaussian"
      std: 0.01
    }
    bias_filler {
      type: "constant"
    }
  }
}
layer {
  name: "conv1_BN"
  type: "BatchNorm"
  bottom: "conv1"
  top: "conv1_BN"
  param {
    lr_mult: 0
    decay_mult: 0
  }
  param {
    lr_mult: 0
    decay_mult: 0
  }
  param {
    lr_mult: 0
    decay_mult: 0
  }
  include {
    phase: TEST
  }
  batch_norm_param {
    use_global_stats: true
    moving_average_fraction: 0.95
  }
}
layer {
  name: "ea_BN1"
  type: "EltwiseAffine"
  bottom: "conv1_BN"
  top: "conv1_BN_ea"
  param {
    lr_mult: 1
    decay_mult: 1
  }
  param {
    lr_mult: 2
    decay_mult: 0
  }
  eltwise_affine_param {
    slope_filler {
      type: "constant"
      value: 1
    }
    bias_filler {
      type: "constant"
      value: 0.0001
    }
  }
}
layer {
  name: "relu1"
  type: "ReLU"
  bottom: "conv1_BN_ea"
  top: "relu1"
}
layer {
  name: "pool1"
  type: "Pooling"
  bottom: "relu1"
  top: "pool1"
  pooling_param {
    pool: MAX
    kernel_size: 3
    stride: 2
  }
}
layer {
  name: "conv2"
  type: "Convolution"
  bottom: "pool1"
  top: "conv2"
  param {
    lr_mult: 1
    decay_mult: 1
  }
  param {
    lr_mult: 2
    decay_mult: 0
  }
  convolution_param {
    num_output: 256
    pad: 2
    kernel_size: 5
    group: 2
    weight_filler {
      type: "gaussian"
      std: 0.01
    }
    bias_filler {
      type: "constant"
    }
  }
}
layer {
  name: "conv2_BN"
  type: "BatchNorm"
  bottom: "conv2"
  top: "conv2_BN"
  param {
    lr_mult: 0
    decay_mult: 0
  }
  param {
    lr_mult: 0
    decay_mult: 0
  }
  param {
    lr_mult: 0
    decay_mult: 0
  }
  include {
    phase: TEST
  }
  batch_norm_param {
    use_global_stats: true
    moving_average_fraction: 0.95
  }
}
layer {
  name: "ea_BN2"
  type: "EltwiseAffine"
  bottom: "conv2_BN"
  top: "conv2_BN_ea"
  param {
    lr_mult: 1
    decay_mult: 1
  }
  param {
    lr_mult: 2
    decay_mult: 0
  }
  eltwise_affine_param {
    slope_filler {
      type: "constant"
      value: 1
    }
    bias_filler {
      type: "constant"
      value: 0.0001
    }
  }
}
layer {
  name: "relu2"
  type: "ReLU"
  bottom: "conv2_BN_ea"
  top: "relu2"
}
layer {
  name: "pool2"
  type: "Pooling"
  bottom: "relu2"
  top: "pool2"
  pooling_param {
    pool: MAX
    kernel_size: 3
    stride: 2
  }
}
layer {
  name: "conv3"
  type: "Convolution"
  bottom: "pool2"
  top: "conv3"
  param {
    lr_mult: 1
    decay_mult: 1
  }
  param {
    lr_mult: 2
    decay_mult: 0
  }
  convolution_param {
    num_output: 384
    pad: 1
    kernel_size: 3
    weight_filler {
      type: "gaussian"
      std: 0.01
    }
    bias_filler {
      type: "constant"
    }
  }
}
layer {
  name: "conv3_BN"
  type: "BatchNorm"
  bottom: "conv3"
  top: "conv3_BN"
  param {
    lr_mult: 0
    decay_mult: 0
  }
  param {
    lr_mult: 0
    decay_mult: 0
  }
  param {
    lr_mult: 0
    decay_mult: 0
  }
  include {
    phase: TEST
  }
  batch_norm_param {
    use_global_stats: true
    moving_average_fraction: 0.95
  }
}
layer {
  name: "ea_BN3"
  type: "EltwiseAffine"
  bottom: "conv3_BN"
  top: "conv3_BN_ea"
  param {
    lr_mult: 1
    decay_mult: 1
  }
  param {
    lr_mult: 2
    decay_mult: 0
  }
  eltwise_affine_param {
    slope_filler {
      type: "constant"
      value: 1
    }
    bias_filler {
      type: "constant"
      value: 0.0001
    }
  }
}
layer {
  name: "relu3"
  type: "ReLU"
  bottom: "conv3_BN_ea"
  top: "relu3"
}
layer {
  name: "conv4"
  type: "Convolution"
  bottom: "relu3"
  top: "conv4"
  param {
    lr_mult: 1
    decay_mult: 1
  }
  param {
    lr_mult: 2
    decay_mult: 0
  }
  convolution_param {
    num_output: 384
    pad: 1
    kernel_size: 3
    group: 2
    weight_filler {
      type: "gaussian"
      std: 0.01
    }
    bias_filler {
      type: "constant"
    }
  }
}
layer {
  name: "conv4_BN"
  type: "BatchNorm"
  bottom: "conv4"
  top: "conv4_BN"
  param {
    lr_mult: 0
    decay_mult: 0
  }
  param {
    lr_mult: 0
    decay_mult: 0
  }
  param {
    lr_mult: 0
    decay_mult: 0
  }
  include {
    phase: TEST
  }
  batch_norm_param {
    use_global_stats: true
    moving_average_fraction: 0.95
  }
}
layer {
  name: "ea_BN4"
  type: "EltwiseAffine"
  bottom: "conv4_BN"
  top: "conv4_BN_ea"
  param {
    lr_mult: 1
    decay_mult: 1
  }
  param {
    lr_mult: 2
    decay_mult: 0
  }
  eltwise_affine_param {
    slope_filler {
      type: "constant"
      value: 1
    }
    bias_filler {
      type: "constant"
      value: 0.0001
    }
  }
}
layer {
  name: "relu4"
  type: "ReLU"
  bottom: "conv4_BN_ea"
  top: "relu4"
}
layer {
  name: "conv5"
  type: "Convolution"
  bottom: "relu4"
  top: "conv5"
  param {
    lr_mult: 1
    decay_mult: 1
  }
  param {
    lr_mult: 2
    decay_mult: 0
  }
  convolution_param {
    num_output: 256
    pad: 1
    kernel_size: 3
    group: 2
    weight_filler {
      type: "gaussian"
      std: 0.01
    }
    bias_filler {
      type: "constant"
    }
  }
}
layer {
  name: "conv5_BN"
  type: "BatchNorm"
  bottom: "conv5"
  top: "conv5_BN"
  param {
    lr_mult: 0
    decay_mult: 0
  }
  param {
    lr_mult: 0
    decay_mult: 0
  }
  param {
    lr_mult: 0
    decay_mult: 0
  }
  include {
    phase: TEST
  }
  batch_norm_param {
    use_global_stats: true
    moving_average_fraction: 0.95
  }
}
layer {
  name: "ea_BN5"
  type: "EltwiseAffine"
  bottom: "conv5_BN"
  top: "conv5_BN_ea"
  param {
    lr_mult: 1
    decay_mult: 1
  }
  param {
    lr_mult: 2
    decay_mult: 0
  }
  eltwise_affine_param {
    slope_filler {
      type: "constant"
      value: 1
    }
    bias_filler {
      type: "constant"
      value: 0.0001
    }
  }
}
layer {
  name: "relu5"
  type: "ReLU"
  bottom: "conv5_BN_ea"
  top: "relu5"
}
layer {
  name: "pool5"
  type: "Pooling"
  bottom: "relu5"
  top: "pool5"
  pooling_param {
    pool: MAX
    kernel_size: 3
    stride: 2
  }
}
layer {
  name: "fc6"
  type: "InnerProduct"
  bottom: "pool5"
  top: "fc6"
  param {
    lr_mult: 1
    decay_mult: 1
  }
  param {
    lr_mult: 2
    decay_mult: 0
  }
  inner_product_param {
    num_output: 2048
    weight_filler {
      type: "gaussian"
      std: 0.005
    }
    bias_filler {
      type: "constant"
    }
  }
}
layer {
  name: "fc6_BN"
  type: "BatchNorm"
  bottom: "fc6"
  top: "fc6_BN"
  param {
    lr_mult: 0
    decay_mult: 0
  }
  param {
    lr_mult: 0
    decay_mult: 0
  }
  param {
    lr_mult: 0
    decay_mult: 0
  }
  include {
    phase: TEST
  }
  batch_norm_param {
    use_global_stats: true
    moving_average_fraction: 0.95
  }
}
layer {
  name: "ea_BN6"
  type: "EltwiseAffine"
  bottom: "fc6_BN"
  top: "fc6_BN_ea"
  param {
    lr_mult: 1
    decay_mult: 1
  }
  param {
    lr_mult: 2
    decay_mult: 0
  }
  eltwise_affine_param {
    slope_filler {
      type: "constant"
      value: 1
    }
    bias_filler {
      type: "constant"
      value: 0.0001
    }
  }
}
layer {
  name: "relu6"
  type: "ReLU"
  bottom: "fc6_BN_ea"
  top: "relu6"
}
layer {
  name: "drop6"
  type: "Dropout"
  bottom: "relu6"
  top: "relu6"
  dropout_param {
    dropout_ratio: 0.5
  }
}
layer {
  name: "fc7"
  type: "InnerProduct"
  bottom: "relu6"
  top: "fc7"
  param {
    lr_mult: 1
    decay_mult: 1
  }
  param {
    lr_mult: 2
    decay_mult: 0
  }
  inner_product_param {
    num_output: 2048
    weight_filler {
      type: "gaussian"
      std: 0.005
    }
    bias_filler {
      type: "constant"
    }
  }
}
layer {
  name: "fc7_BN"
  type: "BatchNorm"
  bottom: "fc7"
  top: "fc7_BN"
  param {
    lr_mult: 0
    decay_mult: 0
  }
  param {
    lr_mult: 0
    decay_mult: 0
  }
  param {
    lr_mult: 0
    decay_mult: 0
  }
  include {
    phase: TEST
  }
  batch_norm_param {
    use_global_stats: true
    moving_average_fraction: 0.95
  }
}
layer {
  name: "ea_BN7"
  type: "EltwiseAffine"
  bottom: "fc7_BN"
  top: "fc7_BN_ea"
  param {
    lr_mult: 1
    decay_mult: 1
  }
  param {
    lr_mult: 2
    decay_mult: 0
  }
  eltwise_affine_param {
    slope_filler {
      type: "constant"
      value: 1
    }
    bias_filler {
      type: "constant"
      value: 0.0001
    }
  }
}
layer {
  name: "relu7"
  type: "ReLU"
  bottom: "fc7_BN_ea"
  top: "relu7"
}
layer {
  name: "drop7"
  type: "Dropout"
  bottom: "relu7"
  top: "relu7"
  dropout_param {
    dropout_ratio: 0.5
  }
}
layer {
  name: "fc8"
  type: "InnerProduct"
  bottom: "relu7"
  top: "fc8"
  param {
    lr_mult: 1
    decay_mult: 1
  }
  param {
    lr_mult: 2
    decay_mult: 0
  }
  inner_product_param {
    num_output: 1000
    weight_filler {
      type: "gaussian"
      std: 0.01
    }
    bias_filler {
      type: "constant"
    }
  }
}
layer {
  name: "accuracy"
  type: "Accuracy"
  bottom: "fc8"
  bottom: "label"
  top: "accuracy"
  include {
    phase: TEST
  }
}
layer {
  name: "loss"
  type: "SoftmaxWithLoss"
  bottom: "fc8"
  bottom: "label"
  top: "loss"
}
I1209 13:54:14.274135  3198 layer_factory.hpp:76] Creating layer data
I1209 13:54:14.274201  3198 net.cpp:106] Creating Layer data
I1209 13:54:14.274207  3198 net.cpp:411] data -> data
I1209 13:54:14.274214  3198 net.cpp:411] data -> label
I1209 13:54:14.274991  3211 db_lmdb.cpp:38] Opened lmdb /home/share/storage/datasets/imagenet/lmdb/ilsvrc12_val_lmdb
I1209 13:54:14.276197  3198 data_layer.cpp:41] output data size: 50,3,128,128
I1209 13:54:14.294785  3198 net.cpp:150] Setting up data
I1209 13:54:14.294805  3198 net.cpp:157] Top shape: 50 3 128 128 (2457600)
I1209 13:54:14.294807  3198 net.cpp:157] Top shape: 50 (50)
I1209 13:54:14.294811  3198 net.cpp:165] Memory required for data: 9830600
I1209 13:54:14.294816  3198 layer_factory.hpp:76] Creating layer label_data_1_split
I1209 13:54:14.294888  3198 net.cpp:106] Creating Layer label_data_1_split
I1209 13:54:14.294893  3198 net.cpp:454] label_data_1_split <- label
I1209 13:54:14.294908  3198 net.cpp:411] label_data_1_split -> label_data_1_split_0
I1209 13:54:14.294915  3198 net.cpp:411] label_data_1_split -> label_data_1_split_1
I1209 13:54:14.295008  3198 net.cpp:150] Setting up label_data_1_split
I1209 13:54:14.295014  3198 net.cpp:157] Top shape: 50 (50)
I1209 13:54:14.295030  3198 net.cpp:157] Top shape: 50 (50)
I1209 13:54:14.295034  3198 net.cpp:165] Memory required for data: 9831000
I1209 13:54:14.295037  3198 layer_factory.hpp:76] Creating layer conv1
I1209 13:54:14.295061  3198 net.cpp:106] Creating Layer conv1
I1209 13:54:14.295064  3198 net.cpp:454] conv1 <- data
I1209 13:54:14.295068  3198 net.cpp:411] conv1 -> conv1
I1209 13:54:14.305747  3198 net.cpp:150] Setting up conv1
I1209 13:54:14.305758  3198 net.cpp:157] Top shape: 50 96 30 30 (4320000)
I1209 13:54:14.305770  3198 net.cpp:165] Memory required for data: 27111000
I1209 13:54:14.305778  3198 layer_factory.hpp:76] Creating layer conv1_BN
I1209 13:54:14.305784  3198 net.cpp:106] Creating Layer conv1_BN
I1209 13:54:14.305786  3198 net.cpp:454] conv1_BN <- conv1
I1209 13:54:14.305814  3198 net.cpp:411] conv1_BN -> conv1_BN
I1209 13:54:14.306013  3198 net.cpp:150] Setting up conv1_BN
I1209 13:54:14.306020  3198 net.cpp:157] Top shape: 50 96 30 30 (4320000)
I1209 13:54:14.306021  3198 net.cpp:165] Memory required for data: 44391000
I1209 13:54:14.306038  3198 layer_factory.hpp:76] Creating layer ea_BN1
I1209 13:54:14.306046  3198 net.cpp:106] Creating Layer ea_BN1
I1209 13:54:14.306047  3198 net.cpp:454] ea_BN1 <- conv1_BN
I1209 13:54:14.306051  3198 net.cpp:411] ea_BN1 -> conv1_BN_ea
I1209 13:54:14.306237  3198 net.cpp:150] Setting up ea_BN1
I1209 13:54:14.306243  3198 net.cpp:157] Top shape: 50 96 30 30 (4320000)
I1209 13:54:14.306255  3198 net.cpp:165] Memory required for data: 61671000
I1209 13:54:14.306259  3198 layer_factory.hpp:76] Creating layer relu1
I1209 13:54:14.306263  3198 net.cpp:106] Creating Layer relu1
I1209 13:54:14.306265  3198 net.cpp:454] relu1 <- conv1_BN_ea
I1209 13:54:14.306268  3198 net.cpp:411] relu1 -> relu1
I1209 13:54:14.306531  3198 net.cpp:150] Setting up relu1
I1209 13:54:14.306538  3198 net.cpp:157] Top shape: 50 96 30 30 (4320000)
I1209 13:54:14.306550  3198 net.cpp:165] Memory required for data: 78951000
I1209 13:54:14.306553  3198 layer_factory.hpp:76] Creating layer pool1
I1209 13:54:14.306558  3198 net.cpp:106] Creating Layer pool1
I1209 13:54:14.306560  3198 net.cpp:454] pool1 <- relu1
I1209 13:54:14.306563  3198 net.cpp:411] pool1 -> pool1
I1209 13:54:14.306751  3198 net.cpp:150] Setting up pool1
I1209 13:54:14.306776  3198 net.cpp:157] Top shape: 50 96 15 15 (1080000)
I1209 13:54:14.306787  3198 net.cpp:165] Memory required for data: 83271000
I1209 13:54:14.306797  3198 layer_factory.hpp:76] Creating layer conv2
I1209 13:54:14.306809  3198 net.cpp:106] Creating Layer conv2
I1209 13:54:14.306819  3198 net.cpp:454] conv2 <- pool1
I1209 13:54:14.306833  3198 net.cpp:411] conv2 -> conv2
I1209 13:54:14.315697  3198 net.cpp:150] Setting up conv2
I1209 13:54:14.315747  3198 net.cpp:157] Top shape: 50 256 15 15 (2880000)
I1209 13:54:14.315758  3198 net.cpp:165] Memory required for data: 94791000
I1209 13:54:14.315788  3198 layer_factory.hpp:76] Creating layer conv2_BN
I1209 13:54:14.315809  3198 net.cpp:106] Creating Layer conv2_BN
I1209 13:54:14.315820  3198 net.cpp:454] conv2_BN <- conv2
I1209 13:54:14.315834  3198 net.cpp:411] conv2_BN -> conv2_BN
I1209 13:54:14.315999  3198 net.cpp:150] Setting up conv2_BN
I1209 13:54:14.316014  3198 net.cpp:157] Top shape: 50 256 15 15 (2880000)
I1209 13:54:14.316022  3198 net.cpp:165] Memory required for data: 106311000
I1209 13:54:14.316035  3198 layer_factory.hpp:76] Creating layer ea_BN2
I1209 13:54:14.316050  3198 net.cpp:106] Creating Layer ea_BN2
I1209 13:54:14.316061  3198 net.cpp:454] ea_BN2 <- conv2_BN
I1209 13:54:14.316071  3198 net.cpp:411] ea_BN2 -> conv2_BN_ea
I1209 13:54:14.316246  3198 net.cpp:150] Setting up ea_BN2
I1209 13:54:14.316262  3198 net.cpp:157] Top shape: 50 256 15 15 (2880000)
I1209 13:54:14.316270  3198 net.cpp:165] Memory required for data: 117831000
I1209 13:54:14.316282  3198 layer_factory.hpp:76] Creating layer relu2
I1209 13:54:14.316294  3198 net.cpp:106] Creating Layer relu2
I1209 13:54:14.316304  3198 net.cpp:454] relu2 <- conv2_BN_ea
I1209 13:54:14.316314  3198 net.cpp:411] relu2 -> relu2
I1209 13:54:14.316472  3198 net.cpp:150] Setting up relu2
I1209 13:54:14.316488  3198 net.cpp:157] Top shape: 50 256 15 15 (2880000)
I1209 13:54:14.316498  3198 net.cpp:165] Memory required for data: 129351000
I1209 13:54:14.316507  3198 layer_factory.hpp:76] Creating layer pool2
I1209 13:54:14.316521  3198 net.cpp:106] Creating Layer pool2
I1209 13:54:14.316532  3198 net.cpp:454] pool2 <- relu2
I1209 13:54:14.316543  3198 net.cpp:411] pool2 -> pool2
I1209 13:54:14.316813  3198 net.cpp:150] Setting up pool2
I1209 13:54:14.316834  3198 net.cpp:157] Top shape: 50 256 7 7 (627200)
I1209 13:54:14.316844  3198 net.cpp:165] Memory required for data: 131859800
I1209 13:54:14.316854  3198 layer_factory.hpp:76] Creating layer conv3
I1209 13:54:14.316869  3198 net.cpp:106] Creating Layer conv3
I1209 13:54:14.316880  3198 net.cpp:454] conv3 <- pool2
I1209 13:54:14.316891  3198 net.cpp:411] conv3 -> conv3
I1209 13:54:14.338969  3198 net.cpp:150] Setting up conv3
I1209 13:54:14.338995  3198 net.cpp:157] Top shape: 50 384 7 7 (940800)
I1209 13:54:14.338999  3198 net.cpp:165] Memory required for data: 135623000
I1209 13:54:14.339005  3198 layer_factory.hpp:76] Creating layer conv3_BN
I1209 13:54:14.339015  3198 net.cpp:106] Creating Layer conv3_BN
I1209 13:54:14.339020  3198 net.cpp:454] conv3_BN <- conv3
I1209 13:54:14.339025  3198 net.cpp:411] conv3_BN -> conv3_BN
I1209 13:54:14.339185  3198 net.cpp:150] Setting up conv3_BN
I1209 13:54:14.339190  3198 net.cpp:157] Top shape: 50 384 7 7 (940800)
I1209 13:54:14.339192  3198 net.cpp:165] Memory required for data: 139386200
I1209 13:54:14.339210  3198 layer_factory.hpp:76] Creating layer ea_BN3
I1209 13:54:14.339215  3198 net.cpp:106] Creating Layer ea_BN3
I1209 13:54:14.339217  3198 net.cpp:454] ea_BN3 <- conv3_BN
I1209 13:54:14.339222  3198 net.cpp:411] ea_BN3 -> conv3_BN_ea
I1209 13:54:14.339349  3198 net.cpp:150] Setting up ea_BN3
I1209 13:54:14.339354  3198 net.cpp:157] Top shape: 50 384 7 7 (940800)
I1209 13:54:14.339365  3198 net.cpp:165] Memory required for data: 143149400
I1209 13:54:14.339368  3198 layer_factory.hpp:76] Creating layer relu3
I1209 13:54:14.339372  3198 net.cpp:106] Creating Layer relu3
I1209 13:54:14.339375  3198 net.cpp:454] relu3 <- conv3_BN_ea
I1209 13:54:14.339378  3198 net.cpp:411] relu3 -> relu3
I1209 13:54:14.339519  3198 net.cpp:150] Setting up relu3
I1209 13:54:14.339525  3198 net.cpp:157] Top shape: 50 384 7 7 (940800)
I1209 13:54:14.339537  3198 net.cpp:165] Memory required for data: 146912600
I1209 13:54:14.339540  3198 layer_factory.hpp:76] Creating layer conv4
I1209 13:54:14.339546  3198 net.cpp:106] Creating Layer conv4
I1209 13:54:14.339548  3198 net.cpp:454] conv4 <- relu3
I1209 13:54:14.339553  3198 net.cpp:411] conv4 -> conv4
I1209 13:54:14.356967  3198 net.cpp:150] Setting up conv4
I1209 13:54:14.356993  3198 net.cpp:157] Top shape: 50 384 7 7 (940800)
I1209 13:54:14.357019  3198 net.cpp:165] Memory required for data: 150675800
I1209 13:54:14.357028  3198 layer_factory.hpp:76] Creating layer conv4_BN
I1209 13:54:14.357036  3198 net.cpp:106] Creating Layer conv4_BN
I1209 13:54:14.357039  3198 net.cpp:454] conv4_BN <- conv4
I1209 13:54:14.357044  3198 net.cpp:411] conv4_BN -> conv4_BN
I1209 13:54:14.357199  3198 net.cpp:150] Setting up conv4_BN
I1209 13:54:14.357203  3198 net.cpp:157] Top shape: 50 384 7 7 (940800)
I1209 13:54:14.357205  3198 net.cpp:165] Memory required for data: 154439000
I1209 13:54:14.357210  3198 layer_factory.hpp:76] Creating layer ea_BN4
I1209 13:54:14.357215  3198 net.cpp:106] Creating Layer ea_BN4
I1209 13:54:14.357218  3198 net.cpp:454] ea_BN4 <- conv4_BN
I1209 13:54:14.357223  3198 net.cpp:411] ea_BN4 -> conv4_BN_ea
I1209 13:54:14.357349  3198 net.cpp:150] Setting up ea_BN4
I1209 13:54:14.357354  3198 net.cpp:157] Top shape: 50 384 7 7 (940800)
I1209 13:54:14.357357  3198 net.cpp:165] Memory required for data: 158202200
I1209 13:54:14.357360  3198 layer_factory.hpp:76] Creating layer relu4
I1209 13:54:14.357364  3198 net.cpp:106] Creating Layer relu4
I1209 13:54:14.357367  3198 net.cpp:454] relu4 <- conv4_BN_ea
I1209 13:54:14.357370  3198 net.cpp:411] relu4 -> relu4
I1209 13:54:14.357511  3198 net.cpp:150] Setting up relu4
I1209 13:54:14.357516  3198 net.cpp:157] Top shape: 50 384 7 7 (940800)
I1209 13:54:14.357517  3198 net.cpp:165] Memory required for data: 161965400
I1209 13:54:14.357519  3198 layer_factory.hpp:76] Creating layer conv5
I1209 13:54:14.357527  3198 net.cpp:106] Creating Layer conv5
I1209 13:54:14.357528  3198 net.cpp:454] conv5 <- relu4
I1209 13:54:14.357532  3198 net.cpp:411] conv5 -> conv5
I1209 13:54:14.369550  3198 net.cpp:150] Setting up conv5
I1209 13:54:14.369576  3198 net.cpp:157] Top shape: 50 256 7 7 (627200)
I1209 13:54:14.369580  3198 net.cpp:165] Memory required for data: 164474200
I1209 13:54:14.369586  3198 layer_factory.hpp:76] Creating layer conv5_BN
I1209 13:54:14.369596  3198 net.cpp:106] Creating Layer conv5_BN
I1209 13:54:14.369599  3198 net.cpp:454] conv5_BN <- conv5
I1209 13:54:14.369604  3198 net.cpp:411] conv5_BN -> conv5_BN
I1209 13:54:14.369765  3198 net.cpp:150] Setting up conv5_BN
I1209 13:54:14.369770  3198 net.cpp:157] Top shape: 50 256 7 7 (627200)
I1209 13:54:14.369771  3198 net.cpp:165] Memory required for data: 166983000
I1209 13:54:14.369778  3198 layer_factory.hpp:76] Creating layer ea_BN5
I1209 13:54:14.369784  3198 net.cpp:106] Creating Layer ea_BN5
I1209 13:54:14.369787  3198 net.cpp:454] ea_BN5 <- conv5_BN
I1209 13:54:14.369791  3198 net.cpp:411] ea_BN5 -> conv5_BN_ea
I1209 13:54:14.369897  3198 net.cpp:150] Setting up ea_BN5
I1209 13:54:14.369901  3198 net.cpp:157] Top shape: 50 256 7 7 (627200)
I1209 13:54:14.369904  3198 net.cpp:165] Memory required for data: 169491800
I1209 13:54:14.369906  3198 layer_factory.hpp:76] Creating layer relu5
I1209 13:54:14.369911  3198 net.cpp:106] Creating Layer relu5
I1209 13:54:14.369913  3198 net.cpp:454] relu5 <- conv5_BN_ea
I1209 13:54:14.369916  3198 net.cpp:411] relu5 -> relu5
I1209 13:54:14.370053  3198 net.cpp:150] Setting up relu5
I1209 13:54:14.370057  3198 net.cpp:157] Top shape: 50 256 7 7 (627200)
I1209 13:54:14.370059  3198 net.cpp:165] Memory required for data: 172000600
I1209 13:54:14.370061  3198 layer_factory.hpp:76] Creating layer pool5
I1209 13:54:14.370066  3198 net.cpp:106] Creating Layer pool5
I1209 13:54:14.370069  3198 net.cpp:454] pool5 <- relu5
I1209 13:54:14.370071  3198 net.cpp:411] pool5 -> pool5
I1209 13:54:14.370327  3198 net.cpp:150] Setting up pool5
I1209 13:54:14.370333  3198 net.cpp:157] Top shape: 50 256 3 3 (115200)
I1209 13:54:14.370335  3198 net.cpp:165] Memory required for data: 172461400
I1209 13:54:14.370337  3198 layer_factory.hpp:76] Creating layer fc6
I1209 13:54:14.370342  3198 net.cpp:106] Creating Layer fc6
I1209 13:54:14.370344  3198 net.cpp:454] fc6 <- pool5
I1209 13:54:14.370349  3198 net.cpp:411] fc6 -> fc6
I1209 13:54:14.483741  3198 net.cpp:150] Setting up fc6
I1209 13:54:14.483769  3198 net.cpp:157] Top shape: 50 2048 (102400)
I1209 13:54:14.483794  3198 net.cpp:165] Memory required for data: 172871000
I1209 13:54:14.483803  3198 layer_factory.hpp:76] Creating layer fc6_BN
I1209 13:54:14.483813  3198 net.cpp:106] Creating Layer fc6_BN
I1209 13:54:14.483816  3198 net.cpp:454] fc6_BN <- fc6
I1209 13:54:14.483820  3198 net.cpp:411] fc6_BN -> fc6_BN
I1209 13:54:14.483975  3198 net.cpp:150] Setting up fc6_BN
I1209 13:54:14.483979  3198 net.cpp:157] Top shape: 50 2048 (102400)
I1209 13:54:14.483981  3198 net.cpp:165] Memory required for data: 173280600
I1209 13:54:14.483985  3198 layer_factory.hpp:76] Creating layer ea_BN6
I1209 13:54:14.483991  3198 net.cpp:106] Creating Layer ea_BN6
I1209 13:54:14.483994  3198 net.cpp:454] ea_BN6 <- fc6_BN
I1209 13:54:14.483999  3198 net.cpp:411] ea_BN6 -> fc6_BN_ea
I1209 13:54:14.484096  3198 net.cpp:150] Setting up ea_BN6
I1209 13:54:14.484098  3198 net.cpp:157] Top shape: 50 2048 (102400)
I1209 13:54:14.484100  3198 net.cpp:165] Memory required for data: 173690200
I1209 13:54:14.484104  3198 layer_factory.hpp:76] Creating layer relu6
I1209 13:54:14.484108  3198 net.cpp:106] Creating Layer relu6
I1209 13:54:14.484112  3198 net.cpp:454] relu6 <- fc6_BN_ea
I1209 13:54:14.484114  3198 net.cpp:411] relu6 -> relu6
I1209 13:54:14.484473  3198 net.cpp:150] Setting up relu6
I1209 13:54:14.484498  3198 net.cpp:157] Top shape: 50 2048 (102400)
I1209 13:54:14.484510  3198 net.cpp:165] Memory required for data: 174099800
I1209 13:54:14.484521  3198 layer_factory.hpp:76] Creating layer drop6
I1209 13:54:14.484534  3198 net.cpp:106] Creating Layer drop6
I1209 13:54:14.484544  3198 net.cpp:454] drop6 <- relu6
I1209 13:54:14.484555  3198 net.cpp:397] drop6 -> relu6 (in-place)
I1209 13:54:14.484587  3198 net.cpp:150] Setting up drop6
I1209 13:54:14.484601  3198 net.cpp:157] Top shape: 50 2048 (102400)
I1209 13:54:14.484611  3198 net.cpp:165] Memory required for data: 174509400
I1209 13:54:14.484621  3198 layer_factory.hpp:76] Creating layer fc7
I1209 13:54:14.484632  3198 net.cpp:106] Creating Layer fc7
I1209 13:54:14.484643  3198 net.cpp:454] fc7 <- relu6
I1209 13:54:14.484654  3198 net.cpp:411] fc7 -> fc7
I1209 13:54:14.584482  3198 net.cpp:150] Setting up fc7
I1209 13:54:14.584508  3198 net.cpp:157] Top shape: 50 2048 (102400)
I1209 13:54:14.584511  3198 net.cpp:165] Memory required for data: 174919000
I1209 13:54:14.584519  3198 layer_factory.hpp:76] Creating layer fc7_BN
I1209 13:54:14.584527  3198 net.cpp:106] Creating Layer fc7_BN
I1209 13:54:14.584540  3198 net.cpp:454] fc7_BN <- fc7
I1209 13:54:14.584547  3198 net.cpp:411] fc7_BN -> fc7_BN
I1209 13:54:14.584717  3198 net.cpp:150] Setting up fc7_BN
I1209 13:54:14.584722  3198 net.cpp:157] Top shape: 50 2048 (102400)
I1209 13:54:14.584733  3198 net.cpp:165] Memory required for data: 175328600
I1209 13:54:14.584738  3198 layer_factory.hpp:76] Creating layer ea_BN7
I1209 13:54:14.584754  3198 net.cpp:106] Creating Layer ea_BN7
I1209 13:54:14.584756  3198 net.cpp:454] ea_BN7 <- fc7_BN
I1209 13:54:14.584761  3198 net.cpp:411] ea_BN7 -> fc7_BN_ea
I1209 13:54:14.584861  3198 net.cpp:150] Setting up ea_BN7
I1209 13:54:14.584866  3198 net.cpp:157] Top shape: 50 2048 (102400)
I1209 13:54:14.584867  3198 net.cpp:165] Memory required for data: 175738200
I1209 13:54:14.584879  3198 layer_factory.hpp:76] Creating layer relu7
I1209 13:54:14.584884  3198 net.cpp:106] Creating Layer relu7
I1209 13:54:14.584897  3198 net.cpp:454] relu7 <- fc7_BN_ea
I1209 13:54:14.584899  3198 net.cpp:411] relu7 -> relu7
I1209 13:54:14.585096  3198 net.cpp:150] Setting up relu7
I1209 13:54:14.585103  3198 net.cpp:157] Top shape: 50 2048 (102400)
I1209 13:54:14.585114  3198 net.cpp:165] Memory required for data: 176147800
I1209 13:54:14.585116  3198 layer_factory.hpp:76] Creating layer drop7
I1209 13:54:14.585120  3198 net.cpp:106] Creating Layer drop7
I1209 13:54:14.585132  3198 net.cpp:454] drop7 <- relu7
I1209 13:54:14.585135  3198 net.cpp:397] drop7 -> relu7 (in-place)
I1209 13:54:14.585155  3198 net.cpp:150] Setting up drop7
I1209 13:54:14.585160  3198 net.cpp:157] Top shape: 50 2048 (102400)
I1209 13:54:14.585175  3198 net.cpp:165] Memory required for data: 176557400
I1209 13:54:14.585176  3198 layer_factory.hpp:76] Creating layer fc8
I1209 13:54:14.585182  3198 net.cpp:106] Creating Layer fc8
I1209 13:54:14.585185  3198 net.cpp:454] fc8 <- relu7
I1209 13:54:14.585188  3198 net.cpp:411] fc8 -> fc8
I1209 13:54:14.634188  3198 net.cpp:150] Setting up fc8
I1209 13:54:14.634214  3198 net.cpp:157] Top shape: 50 1000 (50000)
I1209 13:54:14.634217  3198 net.cpp:165] Memory required for data: 176757400
I1209 13:54:14.634224  3198 layer_factory.hpp:76] Creating layer fc8_fc8_0_split
I1209 13:54:14.634232  3198 net.cpp:106] Creating Layer fc8_fc8_0_split
I1209 13:54:14.634235  3198 net.cpp:454] fc8_fc8_0_split <- fc8
I1209 13:54:14.634240  3198 net.cpp:411] fc8_fc8_0_split -> fc8_fc8_0_split_0
I1209 13:54:14.634255  3198 net.cpp:411] fc8_fc8_0_split -> fc8_fc8_0_split_1
I1209 13:54:14.634317  3198 net.cpp:150] Setting up fc8_fc8_0_split
I1209 13:54:14.634322  3198 net.cpp:157] Top shape: 50 1000 (50000)
I1209 13:54:14.634335  3198 net.cpp:157] Top shape: 50 1000 (50000)
I1209 13:54:14.634337  3198 net.cpp:165] Memory required for data: 177157400
I1209 13:54:14.634340  3198 layer_factory.hpp:76] Creating layer accuracy
I1209 13:54:14.634346  3198 net.cpp:106] Creating Layer accuracy
I1209 13:54:14.634349  3198 net.cpp:454] accuracy <- fc8_fc8_0_split_0
I1209 13:54:14.634352  3198 net.cpp:454] accuracy <- label_data_1_split_0
I1209 13:54:14.634356  3198 net.cpp:411] accuracy -> accuracy
…
