…
      source: "/local/temporary/imagenet144pxlmdb/ilsvrc12_128_train_lmdb"
      batch_size: 256
      backend: LMDB
    }
  }
  layer {
    name: "data"
    type: "Data"
    top: "data"
    top: "label"
    include {
      phase: TEST
    }
    transform_param {
      scale: 0.04
      mirror: false
      crop_size: 128
      mean_value: 104
      mean_value: 117
      mean_value: 123
      force_color: true
    }
    data_param {
      source: "/local/temporary/imagenet144pxlmdb/ilsvrc12_128_val_lmdb"
      batch_size: 50
      backend: LMDB
    }
  }
  layer {
    name: "conv1"
    type: "Convolution"
    bottom: "data"
    top: "conv1"
    param {
      lr_mult: 1
      decay_mult: 1
    }
    param {
      lr_mult: 2
      decay_mult: 0
    }
    convolution_param {
      num_output: 96
      kernel_size: 11
      stride: 4
      weight_filler {
        type: "gaussian"
        std: 0.01
      }
      bias_filler {
        type: "constant"
      }
    }
  }
  layer {
    name: "relu1"
    type: "TanH"
    bottom: "conv1"
    top: "relu1"
  }
  layer {
    name: "conv1_BN"
    type: "BatchNorm"
    bottom: "relu1"
    top: "conv1_BN"
    param {
      lr_mult: 0
      decay_mult: 0
    }
    param {
      lr_mult: 0
      decay_mult: 0
    }
    param {
      lr_mult: 0
      decay_mult: 0
    }
    include {
      phase: TRAIN
    }
    batch_norm_param {
      use_global_stats: false
      moving_average_fraction: 0.95
    }
  }
  layer {
    name: "conv1_BN"
    type: "BatchNorm"
    bottom: "relu1"
    top: "conv1_BN"
    param {
      lr_mult: 0
      decay_mult: 0
    }
    param {
      lr_mult: 0
      decay_mult: 0
    }
    param {
      lr_mult: 0
      decay_mult: 0
    }
    include {
      phase: TEST
    }
    batch_norm_param {
      use_global_stats: true
      moving_average_fraction: 0.95
    }
  }
  layer {
    name: "pool1"
    type: "Pooling"
    bottom: "conv1_BN"
    top: "pool1"
    pooling_param {
      pool: MAX
      kernel_size: 3
      stride: 2
    }
  }
  layer {
    name: "conv2"
    type: "Convolution"
    bottom: "pool1"
    top: "conv2"
    param {
      lr_mult: 1
      decay_mult: 1
    }
    param {
      lr_mult: 2
      decay_mult: 0
    }
    convolution_param {
      num_output: 256
      pad: 2
      kernel_size: 5
      group: 2
      weight_filler {
        type: "gaussian"
        std: 0.01
      }
      bias_filler {
        type: "constant"
      }
    }
  }
  layer {
    name: "relu2"
    type: "TanH"
    bottom: "conv2"
    top: "relu2"
  }
  layer {
    name: "conv2_BN"
    type: "BatchNorm"
    bottom: "relu2"
    top: "conv2_BN"
    param {
      lr_mult: 0
      decay_mult: 0
    }
    param {
      lr_mult: 0
      decay_mult: 0
    }
    param {
      lr_mult: 0
      decay_mult: 0
    }
    include {
      phase: TRAIN
    }
    batch_norm_param {
      use_global_stats: false
      moving_average_fraction: 0.95
    }
  }
  layer {
    name: "conv2_BN"
    type: "BatchNorm"
    bottom: "relu2"
    top: "conv2_BN"
    param {
      lr_mult: 0
      decay_mult: 0
    }
    param {
      lr_mult: 0
      decay_mult: 0
    }
    param {
      lr_mult: 0
      decay_mult: 0
    }
    include {
      phase: TEST
    }
    batch_norm_param {
      use_global_stats: true
      moving_average_fraction: 0.95
    }
  }
  layer {
    name: "pool2"
    type: "Pooling"
    bottom: "conv2_BN"
    top: "pool2"
    pooling_param {
      pool: MAX
      kernel_size: 3
      stride: 2
    }
  }
  layer {
    name: "conv3"
    type: "Convolution"
    bottom: "pool2"
    top: "conv3"
    param {
      lr_mult: 1
      decay_mult: 1
    }
    param {
      lr_mult: 2
      decay_mult: 0
    }
    convolution_param {
      num_output: 384
      pad: 1
      kernel_size: 3
      weight_filler {
        type: "gaussian"
        std: 0.01
      }
      bias_filler {
        type: "constant"
      }
    }
  }
  layer {
    name: "relu3"
    type: "TanH"
    bottom: "conv3"
    top: "relu3"
  }
  layer {
    name: "conv3_BN"
    type: "BatchNorm"
    bottom: "relu3"
    top: "conv3_BN"
    param {
      lr_mult: 0
      decay_mult: 0
    }
    param {
      lr_mult: 0
      decay_mult: 0
    }
    param {
      lr_mult: 0
      decay_mult: 0
    }
    include {
      phase: TRAIN
    }
    batch_norm_param {
      use_global_stats: false
      moving_average_fraction: 0.95
    }
  }
  layer {
    name: "conv3_BN"
    type: "BatchNorm"
    bottom: "relu3"
    top: "conv3_BN"
    param {
      lr_mult: 0
      decay_mult: 0
    }
    param {
      lr_mult: 0
      decay_mult: 0
    }
    param {
      lr_mult: 0
      decay_mult: 0
    }
    include {
      phase: TEST
    }
    batch_norm_param {
      use_global_stats: true
      moving_average_fraction: 0.95
    }
  }
  layer {
    name: "conv4"
    type: "Convolution"
    bottom: "conv3_BN"
    top: "conv4"
    param {
      lr_mult: 1
      decay_mult: 1
    }
    param {
      lr_mult: 2
      decay_mult: 0
    }
    convolution_param {
      num_output: 384
      pad: 1
      kernel_size: 3
      group: 2
      weight_filler {
        type: "gaussian"
        std: 0.01
      }
      bias_filler {
        type: "constant"
      }
    }
  }
  layer {
    name: "relu4"
    type: "TanH"
    bottom: "conv4"
    top: "relu4"
  }
  layer {
    name: "conv4_BN"
    type: "BatchNorm"
    bottom: "relu4"
    top: "conv4_BN"
    param {
      lr_mult: 0
      decay_mult: 0
    }
    param {
      lr_mult: 0
      decay_mult: 0
    }
    param {
      lr_mult: 0
      decay_mult: 0
    }
    include {
      phase: TRAIN
    }
    batch_norm_param {
      use_global_stats: false
      moving_average_fraction: 0.95
    }
  }
  layer {
    name: "conv4_BN"
    type: "BatchNorm"
    bottom: "relu4"
    top: "conv4_BN"
    param {
      lr_mult: 0
      decay_mult: 0
    }
    param {
      lr_mult: 0
      decay_mult: 0
    }
    param {
      lr_mult: 0
      decay_mult: 0
    }
    include {
      phase: TEST
    }
    batch_norm_param {
      use_global_stats: true
      moving_average_fraction: 0.95
    }
  }
  layer {
    name: "conv5"
    type: "Convolution"
    bottom: "conv4_BN"
    top: "conv5"
    param {
      lr_mult: 1
      decay_mult: 1
    }
    param {
      lr_mult: 2
      decay_mult: 0
    }
    convolution_param {
      num_output: 256
      pad: 1
      kernel_size: 3
      group: 2
      weight_filler {
        type: "gaussian"
        std: 0.01
      }
      bias_filler {
        type: "constant"
      }
    }
  }
  layer {
    name: "relu5"
    type: "TanH"
    bottom: "conv5"
    top: "relu5"
  }
  layer {
    name: "conv5_BN"
    type: "BatchNorm"
    bottom: "relu5"
    top: "conv5_BN"
    param {
      lr_mult: 0
      decay_mult: 0
    }
    param {
      lr_mult: 0
      decay_mult: 0
    }
    param {
      lr_mult: 0
      decay_mult: 0
    }
    include {
      phase: TRAIN
    }
    batch_norm_param {
      use_global_stats: false
      moving_average_fraction: 0.95
    }
  }
  layer {
    name: "conv5_BN"
    type: "BatchNorm"
    bottom: "relu5"
    top: "conv5_BN"
    param {
      lr_mult: 0
      decay_mult: 0
    }
    param {
      lr_mult: 0
      decay_mult: 0
    }
    param {
      lr_mult: 0
      decay_mult: 0
    }
    include {
      phase: TEST
    }
    batch_norm_param {
      use_global_stats: true
      moving_average_fraction: 0.95
    }
  }
  layer {
    name: "pool5"
    type: "Pooling"
    bottom: "conv5_BN"
    top: "pool5"
    pooling_param {
      pool: MAX
      kernel_size: 3
      stride: 2
    }
  }
  layer {
    name: "fc6"
    type: "InnerProduct"
    bottom: "pool5"
    top: "fc6"
    param {
      lr_mult: 1
      decay_mult: 1
    }
    param {
      lr_mult: 2
      decay_mult: 0
    }
    inner_product_param {
      num_output: 2048
      weight_filler {
        type: "gaussian"
        std: 0.005
      }
      bias_filler {
        type: "constant"
      }
    }
  }
  layer {
    name: "relu6"
    type: "TanH"
    bottom: "fc6"
    top: "relu6"
  }
  layer {
    name: "fc6_BN"
    type: "BatchNorm"
    bottom: "relu6"
    top: "fc6_BN"
    param {
      lr_mult: 0
      decay_mult: 0
    }
    param {
      lr_mult: 0
      decay_mult: 0
    }
    param {
      lr_mult: 0
      decay_mult: 0
    }
    include {
      phase: TRAIN
    }
    batch_norm_param {
      use_global_stats: false
      moving_average_fraction: 0.95
    }
  }
  layer {
    name: "fc6_BN"
    type: "BatchNorm"
    bottom: "relu6"
    top: "fc6_BN"
    param {
      lr_mult: 0
      decay_mult: 0
    }
    param {
      lr_mult: 0
      decay_mult: 0
    }
    param {
      lr_mult: 0
      decay_mult: 0
    }
    include {
      phase: TEST
    }
    batch_norm_param {
      use_global_stats: true
      moving_average_fraction: 0.95
    }
  }
  layer {
    name: "drop6"
    type: "Dropout"
    bottom: "fc6_BN"
    top: "drop6"
    dropout_param {
      dropout_ratio: 0.5
    }
  }
  layer {
    name: "fc7"
    type: "InnerProduct"
    bottom: "drop6"
    top: "fc7"
    param {
      lr_mult: 1
      decay_mult: 1
    }
    param {
      lr_mult: 2
      decay_mult: 0
    }
    inner_product_param {
      num_output: 2048
      weight_filler {
        type: "gaussian"
        std: 0.005
      }
      bias_filler {
        type: "constant"
      }
    }
  }
  layer {
    name: "relu7"
    type: "TanH"
    bottom: "fc7"
    top: "relu7"
  }
  layer {
    name: "fc7_BN"
    type: "BatchNorm"
    bottom: "relu7"
    top: "fc7_BN"
    param {
      lr_mult: 0
      decay_mult: 0
    }
    param {
      lr_mult: 0
      decay_mult: 0
    }
    param {
      lr_mult: 0
      decay_mult: 0
    }
    include {
      phase: TRAIN
    }
    batch_norm_param {
      use_global_stats: false
      moving_average_fraction: 0.95
    }
  }
  layer {
    name: "fc7_BN"
    type: "BatchNorm"
    bottom: "relu7"
    top: "fc7_BN"
    param {
      lr_mult: 0
      decay_mult: 0
    }
    param {
      lr_mult: 0
      decay_mult: 0
    }
    param {
      lr_mult: 0
      decay_mult: 0
    }
    include {
      phase: TEST
    }
    batch_norm_param {
      use_global_stats: true
      moving_average_fraction: 0.95
    }
  }
  layer {
    name: "drop7"
    type: "Dropout"
    bottom: "fc7_BN"
    top: "drop7"
    dropout_param {
      dropout_ratio: 0.5
    }
  }
  layer {
    name: "fc8"
    type: "InnerProduct"
    bottom: "drop7"
    top: "fc8"
    param {
      lr_mult: 1
      decay_mult: 1
    }
    param {
      lr_mult: 2
      decay_mult: 0
    }
    inner_product_param {
      num_output: 1000
      weight_filler {
        type: "gaussian"
        std: 0.01
      }
      bias_filler {
        type: "constant"
      }
    }
  }
  layer {
    name: "accuracy"
    type: "Accuracy"
    bottom: "fc8"
    bottom: "label"
    top: "accuracy"
    include {
      phase: TEST
    }
  }
  layer {
    name: "loss"
    type: "SoftmaxWithLoss"
    bottom: "fc8"
    bottom: "label"
    top: "loss"
  }
}
test_initialization: false
average_loss: 20
iter_size: 1
type: "SGD"
I0601 11:49:59.217806 24067 solver.cpp:86] Creating training net specified in net_param.
I0601 11:49:59.217967 24067 net.cpp:322] The NetState phase (0) differed from the phase (1) specified by a rule in layer data
I0601 11:49:59.217998 24067 net.cpp:322] The NetState phase (0) differed from the phase (1) specified by a rule in layer conv1_BN
…
I0601 11:49:59.218041 24067 net.cpp:322] The NetState phase (0) differed from the phase (1) specified by a rule in layer accuracy
I0601 11:49:59.218396 24067 net.cpp:49] Initializing net from parameters: 
name: "CaffeNet"
state {
  phase: TRAIN
}
layer {
  name: "data"
  type: "Data"
  top: "data"
  top: "label"
  include {
    phase: TRAIN
  }
  transform_param {
    scale: 0.04
    mirror: true
    crop_size: 128
    mean_value: 104
    mean_value: 117
    mean_value: 124
    force_color: true
  }
  data_param {
    source: "/local/temporary/imagenet144pxlmdb/ilsvrc12_128_train_lmdb"
    batch_size: 256
    backend: LMDB
  }
}
layer {
  name: "conv1"
  type: "Convolution"
  bottom: "data"
  top: "conv1"
  param {
    lr_mult: 1
    decay_mult: 1
  }
  param {
    lr_mult: 2
    decay_mult: 0
  }
  convolution_param {
    num_output: 96
    kernel_size: 11
    stride: 4
    weight_filler {
      type: "gaussian"
      std: 0.01
    }
    bias_filler {
      type: "constant"
    }
  }
}
layer {
  name: "relu1"
  type: "TanH"
  bottom: "conv1"
  top: "relu1"
}
layer {
  name: "conv1_BN"
  type: "BatchNorm"
  bottom: "relu1"
  top: "conv1_BN"
  param {
    lr_mult: 0
    decay_mult: 0
  }
  param {
    lr_mult: 0
    decay_mult: 0
  }
  param {
    lr_mult: 0
    decay_mult: 0
  }
  include {
    phase: TRAIN
  }
  batch_norm_param {
    use_global_stats: false
    moving_average_fraction: 0.95
  }
}
layer {
  name: "pool1"
  type: "Pooling"
  bottom: "conv1_BN"
  top: "pool1"
  pooling_param {
    pool: MAX
    kernel_size: 3
    stride: 2
  }
}
layer {
  name: "conv2"
  type: "Convolution"
  bottom: "pool1"
  top: "conv2"
  param {
    lr_mult: 1
    decay_mult: 1
  }
  param {
    lr_mult: 2
    decay_mult: 0
  }
  convolution_param {
    num_output: 256
    pad: 2
    kernel_size: 5
    group: 2
    weight_filler {
      type: "gaussian"
      std: 0.01
    }
    bias_filler {
      type: "constant"
    }
  }
}
layer {
  name: "relu2"
  type: "TanH"
  bottom: "conv2"
  top: "relu2"
}
layer {
  name: "conv2_BN"
  type: "BatchNorm"
  bottom: "relu2"
  top: "conv2_BN"
  param {
    lr_mult: 0
    decay_mult: 0
  }
  param {
    lr_mult: 0
    decay_mult: 0
  }
  param {
    lr_mult: 0
    decay_mult: 0
  }
  include {
    phase: TRAIN
  }
  batch_norm_param {
    use_global_stats: false
    moving_average_fraction: 0.95
  }
}
layer {
  name: "pool2"
  type: "Pooling"
  bottom: "conv2_BN"
  top: "pool2"
  pooling_param {
    pool: MAX
    kernel_size: 3
    stride: 2
  }
}
layer {
  name: "conv3"
  type: "Convolution"
  bottom: "pool2"
  top: "conv3"
  param {
    lr_mult: 1
    decay_mult: 1
  }
  param {
    lr_mult: 2
    decay_mult: 0
  }
  convolution_param {
    num_output: 384
    pad: 1
    kernel_size: 3
    weight_filler {
      type: "gaussian"
      std: 0.01
    }
    bias_filler {
      type: "constant"
    }
  }
}
layer {
  name: "relu3"
  type: "TanH"
  bottom: "conv3"
  top: "relu3"
}
layer {
  name: "conv3_BN"
  type: "BatchNorm"
  bottom: "relu3"
  top: "conv3_BN"
  param {
    lr_mult: 0
    decay_mult: 0
  }
  param {
    lr_mult: 0
    decay_mult: 0
  }
  param {
    lr_mult: 0
    decay_mult: 0
  }
  include {
    phase: TRAIN
  }
  batch_norm_param {
    use_global_stats: false
    moving_average_fraction: 0.95
  }
}
layer {
  name: "conv4"
  type: "Convolution"
  bottom: "conv3_BN"
  top: "conv4"
  param {
    lr_mult: 1
    decay_mult: 1
  }
  param {
    lr_mult: 2
    decay_mult: 0
  }
  convolution_param {
    num_output: 384
    pad: 1
    kernel_size: 3
    group: 2
    weight_filler {
      type: "gaussian"
      std: 0.01
    }
    bias_filler {
      type: "constant"
    }
  }
}
layer {
  name: "relu4"
  type: "TanH"
  bottom: "conv4"
  top: "relu4"
}
layer {
  name: "conv4_BN"
  type: "BatchNorm"
  bottom: "relu4"
  top: "conv4_BN"
  param {
    lr_mult: 0
    decay_mult: 0
  }
  param {
    lr_mult: 0
    decay_mult: 0
  }
  param {
    lr_mult: 0
    decay_mult: 0
  }
  include {
    phase: TRAIN
  }
  batch_norm_param {
    use_global_stats: false
    moving_average_fraction: 0.95
  }
}
layer {
  name: "conv5"
  type: "Convolution"
  bottom: "conv4_BN"
  top: "conv5"
  param {
    lr_mult: 1
    decay_mult: 1
  }
  param {
    lr_mult: 2
    decay_mult: 0
  }
  convolution_param {
    num_output: 256
    pad: 1
    kernel_size: 3
    group: 2
    weight_filler {
      type: "gaussian"
      std: 0.01
    }
    bias_filler {
      type: "constant"
    }
  }
}
layer {
  name: "relu5"
  type: "TanH"
  bottom: "conv5"
  top: "relu5"
}
layer {
  name: "conv5_BN"
  type: "BatchNorm"
  bottom: "relu5"
  top: "conv5_BN"
  param {
    lr_mult: 0
    decay_mult: 0
  }
  param {
    lr_mult: 0
    decay_mult: 0
  }
  param {
    lr_mult: 0
    decay_mult: 0
  }
  include {
    phase: TRAIN
  }
  batch_norm_param {
    use_global_stats: false
    moving_average_fraction: 0.95
  }
}
layer {
  name: "pool5"
  type: "Pooling"
  bottom: "conv5_BN"
  top: "pool5"
  pooling_param {
    pool: MAX
    kernel_size: 3
    stride: 2
  }
}
layer {
  name: "fc6"
  type: "InnerProduct"
  bottom: "pool5"
  top: "fc6"
  param {
    lr_mult: 1
    decay_mult: 1
  }
  param {
    lr_mult: 2
    decay_mult: 0
  }
  inner_product_param {
    num_output: 2048
    weight_filler {
      type: "gaussian"
      std: 0.005
    }
    bias_filler {
      type: "constant"
    }
  }
}
layer {
  name: "relu6"
  type: "TanH"
  bottom: "fc6"
  top: "relu6"
}
layer {
  name: "fc6_BN"
  type: "BatchNorm"
  bottom: "relu6"
  top: "fc6_BN"
  param {
    lr_mult: 0
    decay_mult: 0
  }
  param {
    lr_mult: 0
    decay_mult: 0
  }
  param {
    lr_mult: 0
    decay_mult: 0
  }
  include {
    phase: TRAIN
  }
  batch_norm_param {
    use_global_stats: false
    moving_average_fraction: 0.95
  }
}
layer {
  name: "drop6"
  type: "Dropout"
  bottom: "fc6_BN"
  top: "drop6"
  dropout_param {
    dropout_ratio: 0.5
  }
}
layer {
  name: "fc7"
  type: "InnerProduct"
  bottom: "drop6"
  top: "fc7"
  param {
    lr_mult: 1
    decay_mult: 1
  }
  param {
    lr_mult: 2
    decay_mult: 0
  }
  inner_product_param {
    num_output: 2048
    weight_filler {
      type: "gaussian"
      std: 0.005
    }
    bias_filler {
      type: "constant"
    }
  }
}
layer {
  name: "relu7"
  type: "TanH"
  bottom: "fc7"
  top: "relu7"
}
layer {
  name: "fc7_BN"
  type: "BatchNorm"
  bottom: "relu7"
  top: "fc7_BN"
  param {
    lr_mult: 0
    decay_mult: 0
  }
  param {
    lr_mult: 0
    decay_mult: 0
  }
  param {
    lr_mult: 0
    decay_mult: 0
  }
  include {
    phase: TRAIN
  }
  batch_norm_param {
    use_global_stats: false
    moving_average_fraction: 0.95
  }
}
layer {
  name: "drop7"
  type: "Dropout"
  bottom: "fc7_BN"
  top: "drop7"
  dropout_param {
    dropout_ratio: 0.5
  }
}
layer {
  name: "fc8"
  type: "InnerProduct"
  bottom: "drop7"
  top: "fc8"
  param {
    lr_mult: 1
    decay_mult: 1
  }
  param {
    lr_mult: 2
    decay_mult: 0
  }
  inner_product_param {
    num_output: 1000
    weight_filler {
      type: "gaussian"
      std: 0.01
    }
    bias_filler {
      type: "constant"
    }
  }
}
layer {
  name: "loss"
  type: "SoftmaxWithLoss"
  bottom: "fc8"
  bottom: "label"
  top: "loss"
}
I0601 11:49:59.218539 24067 layer_factory.hpp:76] Creating layer data
I0601 11:49:59.219223 24067 net.cpp:106] Creating Layer data
I0601 11:49:59.219249 24067 net.cpp:411] data -> data
I0601 11:49:59.219276 24067 net.cpp:411] data -> label
I0601 11:49:59.220428 24103 db_lmdb.cpp:38] Opened lmdb /local/temporary/imagenet144pxlmdb/ilsvrc12_128_train_lmdb
I0601 11:49:59.243049 24067 data_layer.cpp:41] output data size: 256,3,128,128
I0601 11:49:59.352941 24067 net.cpp:150] Setting up data
I0601 11:49:59.352989 24067 net.cpp:157] Top shape: 256 3 128 128 (12582912)
I0601 11:49:59.352996 24067 net.cpp:157] Top shape: 256 (256)
I0601 11:49:59.353000 24067 net.cpp:165] Memory required for data: 50332672
I0601 11:49:59.353013 24067 layer_factory.hpp:76] Creating layer conv1
I0601 11:49:59.353035 24067 net.cpp:106] Creating Layer conv1
I0601 11:49:59.353044 24067 net.cpp:454] conv1 <- data
I0601 11:49:59.353065 24067 net.cpp:411] conv1 -> conv1
I0601 11:49:59.480341 24067 net.cpp:150] Setting up conv1
I0601 11:49:59.480393 24067 net.cpp:157] Top shape: 256 96 30 30 (22118400)
I0601 11:49:59.480398 24067 net.cpp:165] Memory required for data: 138806272
I0601 11:49:59.480419 24067 layer_factory.hpp:76] Creating layer relu1
I0601 11:49:59.480432 24067 net.cpp:106] Creating Layer relu1
I0601 11:49:59.480437 24067 net.cpp:454] relu1 <- conv1
I0601 11:49:59.480445 24067 net.cpp:411] relu1 -> relu1
I0601 11:49:59.480650 24067 net.cpp:150] Setting up relu1
I0601 11:49:59.480659 24067 net.cpp:157] Top shape: 256 96 30 30 (22118400)
I0601 11:49:59.480664 24067 net.cpp:165] Memory required for data: 227279872
I0601 11:49:59.480666 24067 layer_factory.hpp:76] Creating layer conv1_BN
I0601 11:49:59.480677 24067 net.cpp:106] Creating Layer conv1_BN
I0601 11:49:59.480681 24067 net.cpp:454] conv1_BN <- relu1
I0601 11:49:59.480689 24067 net.cpp:411] conv1_BN -> conv1_BN
I0601 11:49:59.480895 24067 net.cpp:150] Setting up conv1_BN
I0601 11:49:59.480903 24067 net.cpp:157] Top shape: 256 96 30 30 (22118400)
I0601 11:49:59.480906 24067 net.cpp:165] Memory required for data: 315753472
I0601 11:49:59.480921 24067 layer_factory.hpp:76] Creating layer pool1
I0601 11:49:59.480931 24067 net.cpp:106] Creating Layer pool1
I0601 11:49:59.480934 24067 net.cpp:454] pool1 <- conv1_BN
I0601 11:49:59.480939 24067 net.cpp:411] pool1 -> pool1
I0601 11:49:59.481276 24067 net.cpp:150] Setting up pool1
I0601 11:49:59.481287 24067 net.cpp:157] Top shape: 256 96 15 15 (5529600)
I0601 11:49:59.481302 24067 net.cpp:165] Memory required for data: 337871872
I0601 11:49:59.481304 24067 layer_factory.hpp:76] Creating layer conv2
I0601 11:49:59.481315 24067 net.cpp:106] Creating Layer conv2
I0601 11:49:59.481318 24067 net.cpp:454] conv2 <- pool1
I0601 11:49:59.481325 24067 net.cpp:411] conv2 -> conv2
I0601 11:49:59.491785 24067 net.cpp:150] Setting up conv2
I0601 11:49:59.491811 24067 net.cpp:157] Top shape: 256 256 15 15 (14745600)
I0601 11:49:59.491814 24067 net.cpp:165] Memory required for data: 396854272
I0601 11:49:59.491822 24067 layer_factory.hpp:76] Creating layer relu2
I0601 11:49:59.491827 24067 net.cpp:106] Creating Layer relu2
I0601 11:49:59.491830 24067 net.cpp:454] relu2 <- conv2
I0601 11:49:59.491837 24067 net.cpp:411] relu2 -> relu2
I0601 11:49:59.492040 24067 net.cpp:150] Setting up relu2
I0601 11:49:59.492053 24067 net.cpp:157] Top shape: 256 256 15 15 (14745600)
I0601 11:49:59.492056 24067 net.cpp:165] Memory required for data: 455836672
I0601 11:49:59.492060 24067 layer_factory.hpp:76] Creating layer conv2_BN
I0601 11:49:59.492066 24067 net.cpp:106] Creating Layer conv2_BN
I0601 11:49:59.492070 24067 net.cpp:454] conv2_BN <- relu2
I0601 11:49:59.492079 24067 net.cpp:411] conv2_BN -> conv2_BN
I0601 11:49:59.492269 24067 net.cpp:150] Setting up conv2_BN
I0601 11:49:59.492276 24067 net.cpp:157] Top shape: 256 256 15 15 (14745600)
I0601 11:49:59.492280 24067 net.cpp:165] Memory required for data: 514819072
I0601 11:49:59.492290 24067 layer_factory.hpp:76] Creating layer pool2
I0601 11:49:59.492302 24067 net.cpp:106] Creating Layer pool2
I0601 11:49:59.492306 24067 net.cpp:454] pool2 <- conv2_BN
I0601 11:49:59.492353 24067 net.cpp:411] pool2 -> pool2
I0601 11:49:59.492667 24067 net.cpp:150] Setting up pool2
I0601 11:49:59.492678 24067 net.cpp:157] Top shape: 256 256 7 7 (3211264)
I0601 11:49:59.492683 24067 net.cpp:165] Memory required for data: 527664128
I0601 11:49:59.492687 24067 layer_factory.hpp:76] Creating layer conv3
I0601 11:49:59.492698 24067 net.cpp:106] Creating Layer conv3
I0601 11:49:59.492702 24067 net.cpp:454] conv3 <- pool2
I0601 11:49:59.492719 24067 net.cpp:411] conv3 -> conv3
I0601 11:49:59.519264 24067 net.cpp:150] Setting up conv3
I0601 11:49:59.519291 24067 net.cpp:157] Top shape: 256 384 7 7 (4816896)
I0601 11:49:59.519295 24067 net.cpp:165] Memory required for data: 546931712
I0601 11:49:59.519304 24067 layer_factory.hpp:76] Creating layer relu3
I0601 11:49:59.519309 24067 net.cpp:106] Creating Layer relu3
I0601 11:49:59.519312 24067 net.cpp:454] relu3 <- conv3
I0601 11:49:59.519320 24067 net.cpp:411] relu3 -> relu3
I0601 11:49:59.519624 24067 net.cpp:150] Setting up relu3
I0601 11:49:59.519636 24067 net.cpp:157] Top shape: 256 384 7 7 (4816896)
I0601 11:49:59.519639 24067 net.cpp:165] Memory required for data: 566199296
I0601 11:49:59.519642 24067 layer_factory.hpp:76] Creating layer conv3_BN
I0601 11:49:59.519651 24067 net.cpp:106] Creating Layer conv3_BN
I0601 11:49:59.519659 24067 net.cpp:454] conv3_BN <- relu3
I0601 11:49:59.519665 24067 net.cpp:411] conv3_BN -> conv3_BN
I0601 11:49:59.519855 24067 net.cpp:150] Setting up conv3_BN
I0601 11:49:59.519861 24067 net.cpp:157] Top shape: 256 384 7 7 (4816896)
I0601 11:49:59.519865 24067 net.cpp:165] Memory required for data: 585466880
I0601 11:49:59.519871 24067 layer_factory.hpp:76] Creating layer conv4
I0601 11:49:59.519881 24067 net.cpp:106] Creating Layer conv4
I0601 11:49:59.519884 24067 net.cpp:454] conv4 <- conv3_BN
I0601 11:49:59.519891 24067 net.cpp:411] conv4 -> conv4
I0601 11:49:59.541159 24067 net.cpp:150] Setting up conv4
I0601 11:49:59.541173 24067 net.cpp:157] Top shape: 256 384 7 7 (4816896)
I0601 11:49:59.541178 24067 net.cpp:165] Memory required for data: 604734464
I0601 11:49:59.541203 24067 layer_factory.hpp:76] Creating layer relu4
I0601 11:49:59.541209 24067 net.cpp:106] Creating Layer relu4
I0601 11:49:59.541213 24067 net.cpp:454] relu4 <- conv4
I0601 11:49:59.541218 24067 net.cpp:411] relu4 -> relu4
I0601 11:49:59.541421 24067 net.cpp:150] Setting up relu4
I0601 11:49:59.541430 24067 net.cpp:157] Top shape: 256 384 7 7 (4816896)
I0601 11:49:59.541434 24067 net.cpp:165] Memory required for data: 624002048
I0601 11:49:59.541437 24067 layer_factory.hpp:76] Creating layer conv4_BN
I0601 11:49:59.541445 24067 net.cpp:106] Creating Layer conv4_BN
I0601 11:49:59.541450 24067 net.cpp:454] conv4_BN <- relu4
I0601 11:49:59.541458 24067 net.cpp:411] conv4_BN -> conv4_BN
I0601 11:49:59.541649 24067 net.cpp:150] Setting up conv4_BN
I0601 11:49:59.541656 24067 net.cpp:157] Top shape: 256 384 7 7 (4816896)
I0601 11:49:59.541659 24067 net.cpp:165] Memory required for data: 643269632
I0601 11:49:59.541666 24067 layer_factory.hpp:76] Creating layer conv5
I0601 11:49:59.541676 24067 net.cpp:106] Creating Layer conv5
I0601 11:49:59.541681 24067 net.cpp:454] conv5 <- conv4_BN
I0601 11:49:59.541687 24067 net.cpp:411] conv5 -> conv5
I0601 11:49:59.556135 24067 net.cpp:150] Setting up conv5
I0601 11:49:59.556161 24067 net.cpp:157] Top shape: 256 256 7 7 (3211264)
I0601 11:49:59.556165 24067 net.cpp:165] Memory required for data: 656114688
I0601 11:49:59.556172 24067 layer_factory.hpp:76] Creating layer relu5
I0601 11:49:59.556181 24067 net.cpp:106] Creating Layer relu5
I0601 11:49:59.556185 24067 net.cpp:454] relu5 <- conv5
I0601 11:49:59.556192 24067 net.cpp:411] relu5 -> relu5
I0601 11:49:59.556403 24067 net.cpp:150] Setting up relu5
I0601 11:49:59.556413 24067 net.cpp:157] Top shape: 256 256 7 7 (3211264)
I0601 11:49:59.556418 24067 net.cpp:165] Memory required for data: 668959744
I0601 11:49:59.556421 24067 layer_factory.hpp:76] Creating layer conv5_BN
I0601 11:49:59.556430 24067 net.cpp:106] Creating Layer conv5_BN
I0601 11:49:59.556455 24067 net.cpp:454] conv5_BN <- relu5
I0601 11:49:59.556462 24067 net.cpp:411] conv5_BN -> conv5_BN
I0601 11:49:59.556668 24067 net.cpp:150] Setting up conv5_BN
I0601 11:49:59.556674 24067 net.cpp:157] Top shape: 256 256 7 7 (3211264)
I0601 11:49:59.556677 24067 net.cpp:165] Memory required for data: 681804800
I0601 11:49:59.556685 24067 layer_factory.hpp:76] Creating layer pool5
I0601 11:49:59.556692 24067 net.cpp:106] Creating Layer pool5
I0601 11:49:59.556696 24067 net.cpp:454] pool5 <- conv5_BN
I0601 11:49:59.556704 24067 net.cpp:411] pool5 -> pool5
I0601 11:49:59.557041 24067 net.cpp:150] Setting up pool5
I0601 11:49:59.557051 24067 net.cpp:157] Top shape: 256 256 3 3 (589824)
I0601 11:49:59.557066 24067 net.cpp:165] Memory required for data: 684164096
I0601 11:49:59.557070 24067 layer_factory.hpp:76] Creating layer fc6
I0601 11:49:59.557076 24067 net.cpp:106] Creating Layer fc6
I0601 11:49:59.557080 24067 net.cpp:454] fc6 <- pool5
I0601 11:49:59.557087 24067 net.cpp:411] fc6 -> fc6
I0601 11:49:59.698899 24067 net.cpp:150] Setting up fc6
I0601 11:49:59.698930 24067 net.cpp:157] Top shape: 256 2048 (524288)
I0601 11:49:59.698935 24067 net.cpp:165] Memory required for data: 686261248
I0601 11:49:59.698946 24067 layer_factory.hpp:76] Creating layer relu6
I0601 11:49:59.698959 24067 net.cpp:106] Creating Layer relu6
I0601 11:49:59.698966 24067 net.cpp:454] relu6 <- fc6
I0601 11:49:59.698976 24067 net.cpp:411] relu6 -> relu6
I0601 11:49:59.699282 24067 net.cpp:150] Setting up relu6
I0601 11:49:59.699293 24067 net.cpp:157] Top shape: 256 2048 (524288)
I0601 11:49:59.699296 24067 net.cpp:165] Memory required for data: 688358400
I0601 11:49:59.699301 24067 layer_factory.hpp:76] Creating layer fc6_BN
I0601 11:49:59.699312 24067 net.cpp:106] Creating Layer fc6_BN
I0601 11:49:59.699316 24067 net.cpp:454] fc6_BN <- relu6
I0601 11:49:59.699323 24067 net.cpp:411] fc6_BN -> fc6_BN
I0601 11:49:59.699530 24067 net.cpp:150] Setting up fc6_BN
I0601 11:49:59.699538 24067 net.cpp:157] Top shape: 256 2048 (524288)
I0601 11:49:59.699542 24067 net.cpp:165] Memory required for data: 690455552
I0601 11:49:59.699551 24067 layer_factory.hpp:76] Creating layer drop6
I0601 11:49:59.699560 24067 net.cpp:106] Creating Layer drop6
I0601 11:49:59.699565 24067 net.cpp:454] drop6 <- fc6_BN
I0601 11:49:59.699570 24067 net.cpp:411] drop6 -> drop6
I0601 11:49:59.699615 24067 net.cpp:150] Setting up drop6
I0601 11:49:59.699621 24067 net.cpp:157] Top shape: 256 2048 (524288)
I0601 11:49:59.699625 24067 net.cpp:165] Memory required for data: 692552704
I0601 11:49:59.699628 24067 layer_factory.hpp:76] Creating layer fc7
I0601 11:49:59.699640 24067 net.cpp:106] Creating Layer fc7
I0601 11:49:59.699645 24067 net.cpp:454] fc7 <- drop6
I0601 11:49:59.699656 24067 net.cpp:411] fc7 -> fc7
I0601 11:49:59.834594 24067 net.cpp:150] Setting up fc7
I0601 11:49:59.834625 24067 net.cpp:157] Top shape: 256 2048 (524288)
I0601 11:49:59.834628 24067 net.cpp:165] Memory required for data: 694649856
I0601 11:49:59.834642 24067 layer_factory.hpp:76] Creating layer relu7
I0601 11:49:59.834663 24067 net.cpp:106] Creating Layer relu7
I0601 11:49:59.834669 24067 net.cpp:454] relu7 <- fc7
I0601 11:49:59.834688 24067 net.cpp:411] relu7 -> relu7
I0601 11:49:59.835237 24067 net.cpp:150] Setting up relu7
I0601 11:49:59.835250 24067 net.cpp:157] Top shape: 256 2048 (524288)
I0601 11:49:59.835253 24067 net.cpp:165] Memory required for data: 696747008
I0601 11:49:59.835260 24067 layer_factory.hpp:76] Creating layer fc7_BN
I0601 11:49:59.835271 24067 net.cpp:106] Creating Layer fc7_BN
I0601 11:49:59.835275 24067 net.cpp:454] fc7_BN <- relu7
I0601 11:49:59.835283 24067 net.cpp:411] fc7_BN -> fc7_BN
I0601 11:49:59.835501 24067 net.cpp:150] Setting up fc7_BN
I0601 11:49:59.835508 24067 net.cpp:157] Top shape: 256 2048 (524288)
I0601 11:49:59.835513 24067 net.cpp:165] Memory required for data: 698844160
I0601 11:49:59.835528 24067 layer_factory.hpp:76] Creating layer drop7
I0601 11:49:59.835537 24067 net.cpp:106] Creating Layer drop7
I0601 11:49:59.835541 24067 net.cpp:454] drop7 <- fc7_BN
I0601 11:49:59.835593 24067 net.cpp:411] drop7 -> drop7
I0601 11:49:59.835636 24067 net.cpp:150] Setting up drop7
I0601 11:49:59.835644 24067 net.cpp:157] Top shape: 256 2048 (524288)
I0601 11:49:59.835649 24067 net.cpp:165] Memory required for data: 700941312
I0601 11:49:59.835651 24067 layer_factory.hpp:76] Creating layer fc8
I0601 11:49:59.835660 24067 net.cpp:106] Creating Layer fc8
I0601 11:49:59.835664 24067 net.cpp:454] fc8 <- drop7
I0601 11:49:59.835671 24067 net.cpp:411] fc8 -> fc8
I0601 11:49:59.901231 24067 net.cpp:150] Setting up fc8
I0601 11:49:59.901253 24067 net.cpp:157] Top shape: 256 1000 (256000)
I0601 11:49:59.901257 24067 net.cpp:165] Memory required for data: 701965312
I0601 11:49:59.901268 24067 layer_factory.hpp:76] Creating layer loss
I0601 11:49:59.901283 24067 net.cpp:106] Creating Layer loss
I0601 11:49:59.901289 24067 net.cpp:454] loss <- fc8
I0601 11:49:59.901296 24067 net.cpp:454] loss <- label
I0601 11:49:59.901306 24067 net.cpp:411] loss -> loss
I0601 11:49:59.901320 24067 layer_factory.hpp:76] Creating layer loss
…
I0601 11:49:59.903064 24067 net.cpp:322] The NetState phase (1) differed from the phase (0) specified by a rule in layer fc7_BN
I0601 11:49:59.903481 24067 net.cpp:49] Initializing net from parameters: 
name: "CaffeNet"
state {
  phase: TEST
}
layer {
  name: "data"
  type: "Data"
  top: "data"
  top: "label"
  include {
    phase: TEST
  }
  transform_param {
    scale: 0.04
    mirror: false
    crop_size: 128
    mean_value: 104
    mean_value: 117
    mean_value: 123
    force_color: true
  }
  data_param {
    source: "/local/temporary/imagenet144pxlmdb/ilsvrc12_128_val_lmdb"
    batch_size: 50
    backend: LMDB
  }
}
layer {
  name: "conv1"
  type: "Convolution"
  bottom: "data"
  top: "conv1"
  param {
    lr_mult: 1
    decay_mult: 1
  }
  param {
    lr_mult: 2
    decay_mult: 0
  }
  convolution_param {
    num_output: 96
    kernel_size: 11
    stride: 4
    weight_filler {
      type: "gaussian"
      std: 0.01
    }
    bias_filler {
      type: "constant"
    }
  }
}
layer {
  name: "relu1"
  type: "TanH"
  bottom: "conv1"
  top: "relu1"
}
layer {
  name: "conv1_BN"
  type: "BatchNorm"
  bottom: "relu1"
  top: "conv1_BN"
  param {
    lr_mult: 0
    decay_mult: 0
  }
  param {
    lr_mult: 0
    decay_mult: 0
  }
  param {
    lr_mult: 0
    decay_mult: 0
  }
  include {
    phase: TEST
  }
  batch_norm_param {
    use_global_stats: true
    moving_average_fraction: 0.95
  }
}
layer {
  name: "pool1"
  type: "Pooling"
  bottom: "conv1_BN"
  top: "pool1"
  pooling_param {
    pool: MAX
    kernel_size: 3
    stride: 2
  }
}
layer {
  name: "conv2"
  type: "Convolution"
  bottom: "pool1"
  top: "conv2"
  param {
    lr_mult: 1
    decay_mult: 1
  }
  param {
    lr_mult: 2
    decay_mult: 0
  }
  convolution_param {
    num_output: 256
    pad: 2
    kernel_size: 5
    group: 2
    weight_filler {
      type: "gaussian"
      std: 0.01
    }
    bias_filler {
      type: "constant"
    }
  }
}
layer {
  name: "relu2"
  type: "TanH"
  bottom: "conv2"
  top: "relu2"
}
layer {
  name: "conv2_BN"
  type: "BatchNorm"
  bottom: "relu2"
  top: "conv2_BN"
  param {
    lr_mult: 0
    decay_mult: 0
  }
  param {
    lr_mult: 0
    decay_mult: 0
  }
  param {
    lr_mult: 0
    decay_mult: 0
  }
  include {
    phase: TEST
  }
  batch_norm_param {
    use_global_stats: true
    moving_average_fraction: 0.95
  }
}
layer {
  name: "pool2"
  type: "Pooling"
  bottom: "conv2_BN"
  top: "pool2"
  pooling_param {
    pool: MAX
    kernel_size: 3
    stride: 2
  }
}
layer {
  name: "conv3"
  type: "Convolution"
  bottom: "pool2"
  top: "conv3"
  param {
    lr_mult: 1
    decay_mult: 1
  }
  param {
    lr_mult: 2
    decay_mult: 0
  }
  convolution_param {
    num_output: 384
    pad: 1
    kernel_size: 3
    weight_filler {
      type: "gaussian"
      std: 0.01
    }
    bias_filler {
      type: "constant"
    }
  }
}
layer {
  name: "relu3"
  type: "TanH"
  bottom: "conv3"
  top: "relu3"
}
layer {
  name: "conv3_BN"
  type: "BatchNorm"
  bottom: "relu3"
  top: "conv3_BN"
  param {
    lr_mult: 0
    decay_mult: 0
  }
  param {
    lr_mult: 0
    decay_mult: 0
  }
  param {
    lr_mult: 0
    decay_mult: 0
  }
  include {
    phase: TEST
  }
  batch_norm_param {
    use_global_stats: true
    moving_average_fraction: 0.95
  }
}
layer {
  name: "conv4"
  type: "Convolution"
  bottom: "conv3_BN"
  top: "conv4"
  param {
    lr_mult: 1
    decay_mult: 1
  }
  param {
    lr_mult: 2
    decay_mult: 0
  }
  convolution_param {
    num_output: 384
    pad: 1
    kernel_size: 3
    group: 2
    weight_filler {
      type: "gaussian"
      std: 0.01
    }
    bias_filler {
      type: "constant"
    }
  }
}
layer {
  name: "relu4"
  type: "TanH"
  bottom: "conv4"
  top: "relu4"
}
layer {
  name: "conv4_BN"
  type: "BatchNorm"
  bottom: "relu4"
  top: "conv4_BN"
  param {
    lr_mult: 0
    decay_mult: 0
  }
  param {
    lr_mult: 0
    decay_mult: 0
  }
  param {
    lr_mult: 0
    decay_mult: 0
  }
  include {
    phase: TEST
  }
  batch_norm_param {
    use_global_stats: true
    moving_average_fraction: 0.95
  }
}
layer {
  name: "conv5"
  type: "Convolution"
  bottom: "conv4_BN"
  top: "conv5"
  param {
    lr_mult: 1
    decay_mult: 1
  }
  param {
    lr_mult: 2
    decay_mult: 0
  }
  convolution_param {
    num_output: 256
    pad: 1
    kernel_size: 3
    group: 2
    weight_filler {
      type: "gaussian"
      std: 0.01
    }
    bias_filler {
      type: "constant"
    }
  }
}
layer {
  name: "relu5"
  type: "TanH"
  bottom: "conv5"
  top: "relu5"
}
layer {
  name: "conv5_BN"
  type: "BatchNorm"
  bottom: "relu5"
  top: "conv5_BN"
  param {
    lr_mult: 0
    decay_mult: 0
  }
  param {
    lr_mult: 0
    decay_mult: 0
  }
  param {
    lr_mult: 0
    decay_mult: 0
  }
  include {
    phase: TEST
  }
  batch_norm_param {
    use_global_stats: true
    moving_average_fraction: 0.95
  }
}
layer {
  name: "pool5"
  type: "Pooling"
  bottom: "conv5_BN"
  top: "pool5"
  pooling_param {
    pool: MAX
    kernel_size: 3
    stride: 2
  }
}
layer {
  name: "fc6"
  type: "InnerProduct"
  bottom: "pool5"
  top: "fc6"
  param {
    lr_mult: 1
    decay_mult: 1
  }
  param {
    lr_mult: 2
    decay_mult: 0
  }
  inner_product_param {
    num_output: 2048
    weight_filler {
      type: "gaussian"
      std: 0.005
    }
    bias_filler {
      type: "constant"
    }
  }
}
layer {
  name: "relu6"
  type: "TanH"
  bottom: "fc6"
  top: "relu6"
}
layer {
  name: "fc6_BN"
  type: "BatchNorm"
  bottom: "relu6"
  top: "fc6_BN"
  param {
    lr_mult: 0
    decay_mult: 0
  }
  param {
    lr_mult: 0
    decay_mult: 0
  }
  param {
    lr_mult: 0
    decay_mult: 0
  }
  include {
    phase: TEST
  }
  batch_norm_param {
    use_global_stats: true
    moving_average_fraction: 0.95
  }
}
layer {
  name: "drop6"
  type: "Dropout"
  bottom: "fc6_BN"
  top: "drop6"
  dropout_param {
    dropout_ratio: 0.5
  }
}
layer {
  name: "fc7"
  type: "InnerProduct"
  bottom: "drop6"
  top: "fc7"
  param {
    lr_mult: 1
    decay_mult: 1
  }
  param {
    lr_mult: 2
    decay_mult: 0
  }
  inner_product_param {
    num_output: 2048
    weight_filler {
      type: "gaussian"
      std: 0.005
    }
    bias_filler {
      type: "constant"
    }
  }
}
layer {
  name: "relu7"
  type: "TanH"
  bottom: "fc7"
  top: "relu7"
}
layer {
  name: "fc7_BN"
  type: "BatchNorm"
  bottom: "relu7"
  top: "fc7_BN"
  param {
    lr_mult: 0
    decay_mult: 0
  }
  param {
    lr_mult: 0
    decay_mult: 0
  }
  param {
    lr_mult: 0
    decay_mult: 0
  }
  include {
    phase: TEST
  }
  batch_norm_param {
    use_global_stats: true
    moving_average_fraction: 0.95
  }
}
layer {
  name: "drop7"
  type: "Dropout"
  bottom: "fc7_BN"
  top: "drop7"
  dropout_param {
    dropout_ratio: 0.5
  }
}
layer {
  name: "fc8"
  type: "InnerProduct"
  bottom: "drop7"
  top: "fc8"
  param {
    lr_mult: 1
    decay_mult: 1
  }
  param {
    lr_mult: 2
    decay_mult: 0
  }
  inner_product_param {
    num_output: 1000
    weight_filler {
      type: "gaussian"
      std: 0.01
    }
    bias_filler {
      type: "constant"
    }
  }
}
layer {
  name: "accuracy"
  type: "Accuracy"
  bottom: "fc8"
  bottom: "label"
  top: "accuracy"
  include {
    phase: TEST
  }
}
layer {
  name: "loss"
  type: "SoftmaxWithLoss"
  bottom: "fc8"
  bottom: "label"
  top: "loss"
}
I0601 11:49:59.903661 24067 layer_factory.hpp:76] Creating layer data
I0601 11:49:59.903766 24067 net.cpp:106] Creating Layer data
I0601 11:49:59.903775 24067 net.cpp:411] data -> data
I0601 11:49:59.903784 24067 net.cpp:411] data -> label
I0601 11:49:59.904909 24108 db_lmdb.cpp:38] Opened lmdb /local/temporary/imagenet144pxlmdb/ilsvrc12_128_val_lmdb
I0601 11:49:59.905900 24067 data_layer.cpp:41] output data size: 50,3,128,128
I0601 11:49:59.924466 24067 net.cpp:150] Setting up data
I0601 11:49:59.924490 24067 net.cpp:157] Top shape: 50 3 128 128 (2457600)
I0601 11:49:59.924499 24067 net.cpp:157] Top shape: 50 (50)
I0601 11:49:59.924501 24067 net.cpp:165] Memory required for data: 9830600
I0601 11:49:59.924512 24067 layer_factory.hpp:76] Creating layer label_data_1_split
I0601 11:49:59.924525 24067 net.cpp:106] Creating Layer label_data_1_split
I0601 11:49:59.924530 24067 net.cpp:454] label_data_1_split <- label
I0601 11:49:59.924536 24067 net.cpp:411] label_data_1_split -> label_data_1_split_0
I0601 11:49:59.924548 24067 net.cpp:411] label_data_1_split -> label_data_1_split_1
I0601 11:49:59.924693 24067 net.cpp:150] Setting up label_data_1_split
I0601 11:49:59.924702 24067 net.cpp:157] Top shape: 50 (50)
I0601 11:49:59.924707 24067 net.cpp:157] Top shape: 50 (50)
I0601 11:49:59.924710 24067 net.cpp:165] Memory required for data: 9831000
I0601 11:49:59.924715 24067 layer_factory.hpp:76] Creating layer conv1
I0601 11:49:59.924729 24067 net.cpp:106] Creating Layer conv1
I0601 11:49:59.924733 24067 net.cpp:454] conv1 <- data
I0601 11:49:59.924741 24067 net.cpp:411] conv1 -> conv1
I0601 11:49:59.927260 24067 net.cpp:150] Setting up conv1
I0601 11:49:59.927275 24067 net.cpp:157] Top shape: 50 96 30 30 (4320000)
I0601 11:49:59.927280 24067 net.cpp:165] Memory required for data: 27111000
I0601 11:49:59.927294 24067 layer_factory.hpp:76] Creating layer relu1
I0601 11:49:59.927302 24067 net.cpp:106] Creating Layer relu1
I0601 11:49:59.927307 24067 net.cpp:454] relu1 <- conv1
I0601 11:49:59.927314 24067 net.cpp:411] relu1 -> relu1
I0601 11:49:59.927660 24067 net.cpp:150] Setting up relu1
I0601 11:49:59.927673 24067 net.cpp:157] Top shape: 50 96 30 30 (4320000)
I0601 11:49:59.927683 24067 net.cpp:165] Memory required for data: 44391000
I0601 11:49:59.927688 24067 layer_factory.hpp:76] Creating layer conv1_BN
I0601 11:49:59.927711 24067 net.cpp:106] Creating Layer conv1_BN
I0601 11:49:59.927714 24067 net.cpp:454] conv1_BN <- relu1
I0601 11:49:59.927721 24067 net.cpp:411] conv1_BN -> conv1_BN
I0601 11:49:59.927973 24067 net.cpp:150] Setting up conv1_BN
I0601 11:49:59.927980 24067 net.cpp:157] Top shape: 50 96 30 30 (4320000)
I0601 11:49:59.927983 24067 net.cpp:165] Memory required for data: 61671000
I0601 11:49:59.927995 24067 layer_factory.hpp:76] Creating layer pool1
I0601 11:49:59.928005 24067 net.cpp:106] Creating Layer pool1
I0601 11:49:59.928009 24067 net.cpp:454] pool1 <- conv1_BN
I0601 11:49:59.928015 24067 net.cpp:411] pool1 -> pool1
I0601 11:49:59.929641 24067 net.cpp:150] Setting up pool1
I0601 11:49:59.929651 24067 net.cpp:157] Top shape: 50 96 15 15 (1080000)
I0601 11:49:59.929654 24067 net.cpp:165] Memory required for data: 65991000
I0601 11:49:59.929658 24067 layer_factory.hpp:76] Creating layer conv2
I0601 11:49:59.929668 24067 net.cpp:106] Creating Layer conv2
I0601 11:49:59.929672 24067 net.cpp:454] conv2 <- pool1
I0601 11:49:59.929679 24067 net.cpp:411] conv2 -> conv2
I0601 11:49:59.941471 24067 net.cpp:150] Setting up conv2
I0601 11:49:59.941485 24067 net.cpp:157] Top shape: 50 256 15 15 (2880000)
I0601 11:49:59.941488 24067 net.cpp:165] Memory required for data: 77511000
I0601 11:49:59.941496 24067 layer_factory.hpp:76] Creating layer relu2
I0601 11:49:59.941504 24067 net.cpp:106] Creating Layer relu2
I0601 11:49:59.941509 24067 net.cpp:454] relu2 <- conv2
I0601 11:49:59.941514 24067 net.cpp:411] relu2 -> relu2
I0601 11:49:59.941730 24067 net.cpp:150] Setting up relu2
I0601 11:49:59.941740 24067 net.cpp:157] Top shape: 50 256 15 15 (2880000)
I0601 11:49:59.941745 24067 net.cpp:165] Memory required for data: 89031000
I0601 11:49:59.941748 24067 layer_factory.hpp:76] Creating layer conv2_BN
I0601 11:49:59.941758 24067 net.cpp:106] Creating Layer conv2_BN
I0601 11:49:59.941763 24067 net.cpp:454] conv2_BN <- relu2
I0601 11:49:59.941771 24067 net.cpp:411] conv2_BN -> conv2_BN
I0601 11:49:59.942000 24067 net.cpp:150] Setting up conv2_BN
I0601 11:49:59.942030 24067 net.cpp:157] Top shape: 50 256 15 15 (2880000)
I0601 11:49:59.942034 24067 net.cpp:165] Memory required for data: 100551000
I0601 11:49:59.942044 24067 layer_factory.hpp:76] Creating layer pool2
I0601 11:49:59.942051 24067 net.cpp:106] Creating Layer pool2
I0601 11:49:59.942055 24067 net.cpp:454] pool2 <- conv2_BN
I0601 11:49:59.942060 24067 net.cpp:411] pool2 -> pool2
I0601 11:49:59.942427 24067 net.cpp:150] Setting up pool2
I0601 11:49:59.942441 24067 net.cpp:157] Top shape: 50 256 7 7 (627200)
I0601 11:49:59.942445 24067 net.cpp:165] Memory required for data: 103059800
I0601 11:49:59.942448 24067 layer_factory.hpp:76] Creating layer conv3
I0601 11:49:59.942457 24067 net.cpp:106] Creating Layer conv3
I0601 11:49:59.942461 24067 net.cpp:454] conv3 <- pool2
I0601 11:49:59.942468 24067 net.cpp:411] conv3 -> conv3
I0601 11:49:59.967965 24067 net.cpp:150] Setting up conv3
I0601 11:49:59.967978 24067 net.cpp:157] Top shape: 50 384 7 7 (940800)
I0601 11:49:59.967993 24067 net.cpp:165] Memory required for data: 106823000
I0601 11:49:59.968010 24067 layer_factory.hpp:76] Creating layer relu3
I0601 11:49:59.968019 24067 net.cpp:106] Creating Layer relu3
I0601 11:49:59.968021 24067 net.cpp:454] relu3 <- conv3
I0601 11:49:59.968026 24067 net.cpp:411] relu3 -> relu3
I0601 11:49:59.968224 24067 net.cpp:150] Setting up relu3
I0601 11:49:59.968232 24067 net.cpp:157] Top shape: 50 384 7 7 (940800)
I0601 11:49:59.968236 24067 net.cpp:165] Memory required for data: 110586200
I0601 11:49:59.968240 24067 layer_factory.hpp:76] Creating layer conv3_BN
I0601 11:49:59.968246 24067 net.cpp:106] Creating Layer conv3_BN
I0601 11:49:59.968250 24067 net.cpp:454] conv3_BN <- relu3
I0601 11:49:59.968256 24067 net.cpp:411] conv3_BN -> conv3_BN
I0601 11:49:59.968499 24067 net.cpp:150] Setting up conv3_BN
I0601 11:49:59.968508 24067 net.cpp:157] Top shape: 50 384 7 7 (940800)
I0601 11:49:59.968511 24067 net.cpp:165] Memory required for data: 114349400
I0601 11:49:59.968518 24067 layer_factory.hpp:76] Creating layer conv4
I0601 11:49:59.968528 24067 net.cpp:106] Creating Layer conv4
I0601 11:49:59.968533 24067 net.cpp:454] conv4 <- conv3_BN
I0601 11:49:59.968538 24067 net.cpp:411] conv4 -> conv4
I0601 11:49:59.989624 24067 net.cpp:150] Setting up conv4
I0601 11:49:59.989647 24067 net.cpp:157] Top shape: 50 384 7 7 (940800)
I0601 11:49:59.989651 24067 net.cpp:165] Memory required for data: 118112600
I0601 11:49:59.989660 24067 layer_factory.hpp:76] Creating layer relu4
I0601 11:49:59.989667 24067 net.cpp:106] Creating Layer relu4
I0601 11:49:59.989671 24067 net.cpp:454] relu4 <- conv4
I0601 11:49:59.989675 24067 net.cpp:411] relu4 -> relu4
I0601 11:49:59.989882 24067 net.cpp:150] Setting up relu4
I0601 11:49:59.989892 24067 net.cpp:157] Top shape: 50 384 7 7 (940800)
I0601 11:49:59.989897 24067 net.cpp:165] Memory required for data: 121875800
I0601 11:49:59.989899 24067 layer_factory.hpp:76] Creating layer conv4_BN
I0601 11:49:59.989908 24067 net.cpp:106] Creating Layer conv4_BN
I0601 11:49:59.989912 24067 net.cpp:454] conv4_BN <- relu4
I0601 11:49:59.989919 24067 net.cpp:411] conv4_BN -> conv4_BN
I0601 11:49:59.990139 24067 net.cpp:150] Setting up conv4_BN
I0601 11:49:59.990145 24067 net.cpp:157] Top shape: 50 384 7 7 (940800)
I0601 11:49:59.990147 24067 net.cpp:165] Memory required for data: 125639000
I0601 11:49:59.990154 24067 layer_factory.hpp:76] Creating layer conv5
I0601 11:49:59.990164 24067 net.cpp:106] Creating Layer conv5
I0601 11:49:59.990169 24067 net.cpp:454] conv5 <- conv4_BN
I0601 11:49:59.990176 24067 net.cpp:411] conv5 -> conv5
I0601 11:50:00.003630 24067 net.cpp:150] Setting up conv5
I0601 11:50:00.003655 24067 net.cpp:157] Top shape: 50 256 7 7 (627200)
I0601 11:50:00.003659 24067 net.cpp:165] Memory required for data: 128147800
I0601 11:50:00.003664 24067 layer_factory.hpp:76] Creating layer relu5
I0601 11:50:00.003670 24067 net.cpp:106] Creating Layer relu5
I0601 11:50:00.003675 24067 net.cpp:454] relu5 <- conv5
I0601 11:50:00.003680 24067 net.cpp:411] relu5 -> relu5
I0601 11:50:00.004045 24067 net.cpp:150] Setting up relu5
I0601 11:50:00.004066 24067 net.cpp:157] Top shape: 50 256 7 7 (627200)
I0601 11:50:00.004070 24067 net.cpp:165] Memory required for data: 130656600
I0601 11:50:00.004073 24067 layer_factory.hpp:76] Creating layer conv5_BN
I0601 11:50:00.004081 24067 net.cpp:106] Creating Layer conv5_BN
I0601 11:50:00.004084 24067 net.cpp:454] conv5_BN <- relu5
I0601 11:50:00.004091 24067 net.cpp:411] conv5_BN -> conv5_BN
I0601 11:50:00.004312 24067 net.cpp:150] Setting up conv5_BN
I0601 11:50:00.004322 24067 net.cpp:157] Top shape: 50 256 7 7 (627200)
I0601 11:50:00.004325 24067 net.cpp:165] Memory required for data: 133165400
I0601 11:50:00.004333 24067 layer_factory.hpp:76] Creating layer pool5
I0601 11:50:00.004341 24067 net.cpp:106] Creating Layer pool5
I0601 11:50:00.004345 24067 net.cpp:454] pool5 <- conv5_BN
I0601 11:50:00.004350 24067 net.cpp:411] pool5 -> pool5
I0601 11:50:00.004570 24067 net.cpp:150] Setting up pool5
I0601 11:50:00.004586 24067 net.cpp:157] Top shape: 50 256 3 3 (115200)
I0601 11:50:00.004588 24067 net.cpp:165] Memory required for data: 133626200
I0601 11:50:00.004593 24067 layer_factory.hpp:76] Creating layer fc6
I0601 11:50:00.004603 24067 net.cpp:106] Creating Layer fc6
I0601 11:50:00.004608 24067 net.cpp:454] fc6 <- pool5
I0601 11:50:00.004614 24067 net.cpp:411] fc6 -> fc6
I0601 11:50:00.130673 24067 net.cpp:150] Setting up fc6
I0601 11:50:00.130707 24067 net.cpp:157] Top shape: 50 2048 (102400)
I0601 11:50:00.130710 24067 net.cpp:165] Memory required for data: 134035800
I0601 11:50:00.130719 24067 layer_factory.hpp:76] Creating layer relu6
I0601 11:50:00.130729 24067 net.cpp:106] Creating Layer relu6
I0601 11:50:00.130733 24067 net.cpp:454] relu6 <- fc6
I0601 11:50:00.130741 24067 net.cpp:411] relu6 -> relu6
I0601 11:50:00.131198 24067 net.cpp:150] Setting up relu6
I0601 11:50:00.131209 24067 net.cpp:157] Top shape: 50 2048 (102400)
I0601 11:50:00.131213 24067 net.cpp:165] Memory required for data: 134445400
I0601 11:50:00.131228 24067 layer_factory.hpp:76] Creating layer fc6_BN
I0601 11:50:00.131249 24067 net.cpp:106] Creating Layer fc6_BN
I0601 11:50:00.131253 24067 net.cpp:454] fc6_BN <- relu6
I0601 11:50:00.131258 24067 net.cpp:411] fc6_BN -> fc6_BN
I0601 11:50:00.131471 24067 net.cpp:150] Setting up fc6_BN
I0601 11:50:00.131477 24067 net.cpp:157] Top shape: 50 2048 (102400)
I0601 11:50:00.131480 24067 net.cpp:165] Memory required for data: 134855000
I0601 11:50:00.131489 24067 layer_factory.hpp:76] Creating layer drop6
I0601 11:50:00.131496 24067 net.cpp:106] Creating Layer drop6
I0601 11:50:00.131501 24067 net.cpp:454] drop6 <- fc6_BN
I0601 11:50:00.131507 24067 net.cpp:411] drop6 -> drop6
I0601 11:50:00.131547 24067 net.cpp:150] Setting up drop6
I0601 11:50:00.131553 24067 net.cpp:157] Top shape: 50 2048 (102400)
I0601 11:50:00.131557 24067 net.cpp:165] Memory required for data: 135264600
I0601 11:50:00.131561 24067 layer_factory.hpp:76] Creating layer fc7
I0601 11:50:00.131570 24067 net.cpp:106] Creating Layer fc7
I0601 11:50:00.131574 24067 net.cpp:454] fc7 <- drop6
I0601 11:50:00.131580 24067 net.cpp:411] fc7 -> fc7
I0601 11:50:00.243085 24067 net.cpp:150] Setting up fc7
I0601 11:50:00.243104 24067 net.cpp:157] Top shape: 50 2048 (102400)
I0601 11:50:00.243108 24067 net.cpp:165] Memory required for data: 135674200
I0601 11:50:00.243116 24067 layer_factory.hpp:76] Creating layer relu7
I0601 11:50:00.243137 24067 net.cpp:106] Creating Layer relu7
I0601 11:50:00.243141 24067 net.cpp:454] relu7 <- fc7
I0601 11:50:00.243147 24067 net.cpp:411] relu7 -> relu7
I0601 11:50:00.243422 24067 net.cpp:150] Setting up relu7
I0601 11:50:00.243432 24067 net.cpp:157] Top shape: 50 2048 (102400)
I0601 11:50:00.243434 24067 net.cpp:165] Memory required for data: 136083800
I0601 11:50:00.243438 24067 layer_factory.hpp:76] Creating layer fc7_BN
I0601 11:50:00.243448 24067 net.cpp:106] Creating Layer fc7_BN
I0601 11:50:00.243453 24067 net.cpp:454] fc7_BN <- relu7
I0601 11:50:00.243459 24067 net.cpp:411] fc7_BN -> fc7_BN
I0601 11:50:00.243666 24067 net.cpp:150] Setting up fc7_BN
I0601 11:50:00.243697 24067 net.cpp:157] Top shape: 50 2048 (102400)
I0601 11:50:00.243701 24067 net.cpp:165] Memory required for data: 136493400
I0601 11:50:00.243713 24067 layer_factory.hpp:76] Creating layer drop7
I0601 11:50:00.243721 24067 net.cpp:106] Creating Layer drop7
I0601 11:50:00.243726 24067 net.cpp:454] drop7 <- fc7_BN
I0601 11:50:00.243732 24067 net.cpp:411] drop7 -> drop7
I0601 11:50:00.243787 24067 net.cpp:150] Setting up drop7
I0601 11:50:00.243793 24067 net.cpp:157] Top shape: 50 2048 (102400)
I0601 11:50:00.243795 24067 net.cpp:165] Memory required for data: 136903000
I0601 11:50:00.243798 24067 layer_factory.hpp:76] Creating layer fc8
I0601 11:50:00.243809 24067 net.cpp:106] Creating Layer fc8
I0601 11:50:00.243813 24067 net.cpp:454] fc8 <- drop7
I0601 11:50:00.243819 24067 net.cpp:411] fc8 -> fc8
I0601 11:50:00.298111 24067 net.cpp:150] Setting up fc8
I0601 11:50:00.298125 24067 net.cpp:157] Top shape: 50 1000 (50000)
I0601 11:50:00.298128 24067 net.cpp:165] Memory required for data: 137103000
I0601 11:50:00.298146 24067 layer_factory.hpp:76] Creating layer fc8_fc8_0_split
I0601 11:50:00.298152 24067 net.cpp:106] Creating Layer fc8_fc8_0_split
I0601 11:50:00.298156 24067 net.cpp:454] fc8_fc8_0_split <- fc8
I0601 11:50:00.298161 24067 net.cpp:411] fc8_fc8_0_split -> fc8_fc8_0_split_0
I0601 11:50:00.298167 24067 net.cpp:411] fc8_fc8_0_split -> fc8_fc8_0_split_1
I0601 11:50:00.298208 24067 net.cpp:150] Setting up fc8_fc8_0_split
I0601 11:50:00.298214 24067 net.cpp:157] Top shape: 50 1000 (50000)
I0601 11:50:00.298220 24067 net.cpp:157] Top shape: 50 1000 (50000)
I0601 11:50:00.298223 24067 net.cpp:165] Memory required for data: 137503000
I0601 11:50:00.298226 24067 layer_factory.hpp:76] Creating layer accuracy
I0601 11:50:00.298239 24067 net.cpp:106] Creating Layer accuracy
I0601 11:50:00.298243 24067 net.cpp:454] accuracy <- fc8_fc8_0_split_0
I0601 11:50:00.298248 24067 net.cpp:454] accuracy <- label_data_1_split_0
I0601 11:50:00.298252 24067 net.cpp:411] accuracy -> accuracy
…
