…
      crop_size: 128
      mean_value: 104
      mean_value: 117
      mean_value: 123
      force_color: true
      resize_param {
        prob: 1
        resize_mode: FIT_SMALL_SIZE
        height: 144
        width: 144
        pad_mode: MIRRORED
        pad_value: 104
        pad_value: 117
        pad_value: 124
        interp_mode: CUBIC
        center_object: false
        max_angle: 0
      }
    }
    data_param {
      source: "/home/share/storage/datasets/imagenet/lmdb/ilsvrc12_val_lmdb"
      batch_size: 250
      backend: LMDB
    }
  }
  layer {
    name: "conv1"
    type: "Convolution"
    bottom: "data"
    top: "conv1"
    param {
      lr_mult: 1
      decay_mult: 1
    }
    param {
      lr_mult: 2
      decay_mult: 0
    }
    convolution_param {
      num_output: 96
      kernel_size: 11
      stride: 4
      weight_filler {
        type: "gaussian"
        std: 0.01
      }
      bias_filler {
        type: "constant"
      }
    }
  }
  layer {
    name: "relu1"
    type: "ReLU"
    bottom: "conv1"
    top: "conv1"
  }
  layer {
    name: "pool1"
    type: "Pooling"
    bottom: "conv1"
    top: "pool1"
    pooling_param {
      pool: MAX
      kernel_size: 3
      stride: 2
    }
  }
  layer {
    name: "norm1"
    type: "LRN"
    bottom: "pool1"
    top: "norm1"
    lrn_param {
      local_size: 5
      alpha: 0.0001
      beta: 0.75
    }
  }
  layer {
    name: "conv2"
    type: "Convolution"
    bottom: "norm1"
    top: "conv2"
    param {
      lr_mult: 1
      decay_mult: 1
    }
    param {
      lr_mult: 2
      decay_mult: 0
    }
    convolution_param {
      num_output: 256
      pad: 2
      kernel_size: 5
      group: 2
      weight_filler {
        type: "gaussian"
        std: 0.01
      }
      bias_filler {
        type: "constant"
      }
    }
  }
  layer {
    name: "relu2"
    type: "ReLU"
    bottom: "conv2"
    top: "conv2"
  }
  layer {
    name: "pool2"
    type: "Pooling"
    bottom: "conv2"
    top: "pool2"
    pooling_param {
      pool: MAX
      kernel_size: 3
      stride: 2
    }
  }
  layer {
    name: "norm2"
    type: "LRN"
    bottom: "pool2"
    top: "norm2"
    lrn_param {
      local_size: 5
      alpha: 0.0001
      beta: 0.75
    }
  }
  layer {
    name: "conv3"
    type: "Convolution"
    bottom: "norm2"
    top: "conv3"
    param {
      lr_mult: 1
      decay_mult: 1
    }
    param {
      lr_mult: 2
      decay_mult: 0
    }
    convolution_param {
      num_output: 384
      pad: 1
      kernel_size: 3
      weight_filler {
        type: "gaussian"
        std: 0.01
      }
      bias_filler {
        type: "constant"
      }
    }
  }
  layer {
    name: "relu3"
    type: "ReLU"
    bottom: "conv3"
    top: "conv3"
  }
  layer {
    name: "conv4"
    type: "Convolution"
    bottom: "conv3"
    top: "conv4"
    param {
      lr_mult: 1
      decay_mult: 1
    }
    param {
      lr_mult: 2
      decay_mult: 0
    }
    convolution_param {
      num_output: 384
      pad: 1
      kernel_size: 3
      group: 2
      weight_filler {
        type: "gaussian"
        std: 0.01
      }
      bias_filler {
        type: "constant"
      }
    }
  }
  layer {
    name: "relu4"
    type: "ReLU"
    bottom: "conv4"
    top: "conv4"
  }
  layer {
    name: "conv5"
    type: "Convolution"
    bottom: "conv4"
    top: "conv5"
    param {
      lr_mult: 1
      decay_mult: 1
    }
    param {
      lr_mult: 2
      decay_mult: 0
    }
    convolution_param {
      num_output: 256
      pad: 1
      kernel_size: 3
      group: 2
      weight_filler {
        type: "gaussian"
        std: 0.01
      }
      bias_filler {
        type: "constant"
      }
    }
  }
  layer {
    name: "relu5"
    type: "ReLU"
    bottom: "conv5"
    top: "conv5"
  }
  layer {
    name: "pool5"
    type: "Pooling"
    bottom: "conv5"
    top: "pool5"
    pooling_param {
      pool: MAX
      kernel_size: 3
      stride: 2
    }
  }
  layer {
    name: "fc6"
    type: "InnerProduct"
    bottom: "pool5"
    top: "fc6"
    param {
      lr_mult: 1
      decay_mult: 1
    }
    param {
      lr_mult: 2
      decay_mult: 0
    }
    inner_product_param {
      num_output: 2048
      weight_filler {
        type: "gaussian"
        std: 0.005
      }
      bias_filler {
        type: "constant"
      }
    }
  }
  layer {
    name: "relu6"
    type: "ReLU"
    bottom: "fc6"
    top: "fc6"
  }
  layer {
    name: "drop6"
    type: "Dropout"
    bottom: "fc6"
    top: "fc6"
    dropout_param {
      dropout_ratio: 0.5
    }
  }
  layer {
    name: "fc7"
    type: "InnerProduct"
    bottom: "fc6"
    top: "fc7"
    param {
      lr_mult: 1
      decay_mult: 1
    }
    param {
      lr_mult: 2
      decay_mult: 0
    }
    inner_product_param {
      num_output: 2048
      weight_filler {
        type: "gaussian"
        std: 0.005
      }
      bias_filler {
        type: "constant"
      }
    }
  }
  layer {
    name: "relu7"
    type: "ReLU"
    bottom: "fc7"
    top: "fc7"
  }
  layer {
    name: "drop7"
    type: "Dropout"
    bottom: "fc7"
    top: "fc7"
    dropout_param {
      dropout_ratio: 0.5
    }
  }
  layer {
    name: "fc8"
    type: "InnerProduct"
    bottom: "fc7"
    top: "fc8"
    param {
      lr_mult: 1
      decay_mult: 1
    }
    param {
      lr_mult: 2
      decay_mult: 0
    }
    inner_product_param {
      num_output: 1000
      weight_filler {
        type: "gaussian"
        std: 0.01
      }
      bias_filler {
        type: "constant"
      }
    }
  }
  layer {
    name: "accuracy"
    type: "Accuracy"
    bottom: "fc8"
    bottom: "label"
    top: "accuracy"
    include {
      phase: TEST
    }
  }
  layer {
    name: "loss"
    type: "SoftmaxWithLoss"
    bottom: "fc8"
    bottom: "label"
    top: "loss"
  }
}
iter_size: 1
type: "SGD"
I1202 18:15:18.393605 17139 solver.cpp:86] Creating training net specified in net_param.
I1202 18:15:18.393666 17139 net.cpp:322] The NetState phase (0) differed from the phase (1) specified by a rule in layer data
I1202 18:15:18.393681 17139 net.cpp:322] The NetState phase (0) differed from the phase (1) specified by a rule in layer accuracy
I1202 18:15:18.393785 17139 net.cpp:49] Initializing net from parameters: 
name: "CaffeNet"
state {
  phase: TRAIN
}
layer {
  name: "data"
  type: "Data"
  top: "data"
  top: "label"
  include {
    phase: TRAIN
  }
  transform_param {
    scale: 0.04
    mirror: true
    crop_size: 128
    mean_value: 104
    mean_value: 117
    mean_value: 124
    force_color: true
    resize_param {
      prob: 1
      resize_mode: FIT_SMALL_SIZE
      height: 144
      width: 144
      pad_mode: MIRRORED
      pad_value: 104
      pad_value: 117
      pad_value: 124
      interp_mode: CUBIC
      center_object: false
      max_angle: 0
    }
  }
  data_param {
    source: "/home/share/storage/datasets/imagenet/lmdb/ilsvrc12_train_lmdb"
    batch_size: 256
    backend: LMDB
  }
}
layer {
  name: "conv1"
  type: "Convolution"
  bottom: "data"
  top: "conv1"
  param {
    lr_mult: 1
    decay_mult: 1
  }
  param {
    lr_mult: 2
    decay_mult: 0
  }
  convolution_param {
    num_output: 96
    kernel_size: 11
    stride: 4
    weight_filler {
      type: "gaussian"
      std: 0.01
    }
    bias_filler {
      type: "constant"
    }
  }
}
layer {
  name: "relu1"
  type: "ReLU"
  bottom: "conv1"
  top: "conv1"
}
layer {
  name: "pool1"
  type: "Pooling"
  bottom: "conv1"
  top: "pool1"
  pooling_param {
    pool: MAX
    kernel_size: 3
    stride: 2
  }
}
layer {
  name: "norm1"
  type: "LRN"
  bottom: "pool1"
  top: "norm1"
  lrn_param {
    local_size: 5
    alpha: 0.0001
    beta: 0.75
  }
}
layer {
  name: "conv2"
  type: "Convolution"
  bottom: "norm1"
  top: "conv2"
  param {
    lr_mult: 1
    decay_mult: 1
  }
  param {
    lr_mult: 2
    decay_mult: 0
  }
  convolution_param {
    num_output: 256
    pad: 2
    kernel_size: 5
    group: 2
    weight_filler {
      type: "gaussian"
      std: 0.01
    }
    bias_filler {
      type: "constant"
    }
  }
}
layer {
  name: "relu2"
  type: "ReLU"
  bottom: "conv2"
  top: "conv2"
}
layer {
  name: "pool2"
  type: "Pooling"
  bottom: "conv2"
  top: "pool2"
  pooling_param {
    pool: MAX
    kernel_size: 3
    stride: 2
  }
}
layer {
  name: "norm2"
  type: "LRN"
  bottom: "pool2"
  top: "norm2"
  lrn_param {
    local_size: 5
    alpha: 0.0001
    beta: 0.75
  }
}
layer {
  name: "conv3"
  type: "Convolution"
  bottom: "norm2"
  top: "conv3"
  param {
    lr_mult: 1
    decay_mult: 1
  }
  param {
    lr_mult: 2
    decay_mult: 0
  }
  convolution_param {
    num_output: 384
    pad: 1
    kernel_size: 3
    weight_filler {
      type: "gaussian"
      std: 0.01
    }
    bias_filler {
      type: "constant"
    }
  }
}
layer {
  name: "relu3"
  type: "ReLU"
  bottom: "conv3"
  top: "conv3"
}
layer {
  name: "conv4"
  type: "Convolution"
  bottom: "conv3"
  top: "conv4"
  param {
    lr_mult: 1
    decay_mult: 1
  }
  param {
    lr_mult: 2
    decay_mult: 0
  }
  convolution_param {
    num_output: 384
    pad: 1
    kernel_size: 3
    group: 2
    weight_filler {
      type: "gaussian"
      std: 0.01
    }
    bias_filler {
      type: "constant"
    }
  }
}
layer {
  name: "relu4"
  type: "ReLU"
  bottom: "conv4"
  top: "conv4"
}
layer {
  name: "conv5"
  type: "Convolution"
  bottom: "conv4"
  top: "conv5"
  param {
    lr_mult: 1
    decay_mult: 1
  }
  param {
    lr_mult: 2
    decay_mult: 0
  }
  convolution_param {
    num_output: 256
    pad: 1
    kernel_size: 3
    group: 2
    weight_filler {
      type: "gaussian"
      std: 0.01
    }
    bias_filler {
      type: "constant"
    }
  }
}
layer {
  name: "relu5"
  type: "ReLU"
  bottom: "conv5"
  top: "conv5"
}
layer {
  name: "pool5"
  type: "Pooling"
  bottom: "conv5"
  top: "pool5"
  pooling_param {
    pool: MAX
    kernel_size: 3
    stride: 2
  }
}
layer {
  name: "fc6"
  type: "InnerProduct"
  bottom: "pool5"
  top: "fc6"
  param {
    lr_mult: 1
    decay_mult: 1
  }
  param {
    lr_mult: 2
    decay_mult: 0
  }
  inner_product_param {
    num_output: 2048
    weight_filler {
      type: "gaussian"
      std: 0.005
    }
    bias_filler {
      type: "constant"
    }
  }
}
layer {
  name: "relu6"
  type: "ReLU"
  bottom: "fc6"
  top: "fc6"
}
layer {
  name: "drop6"
  type: "Dropout"
  bottom: "fc6"
  top: "fc6"
  dropout_param {
    dropout_ratio: 0.5
  }
}
layer {
  name: "fc7"
  type: "InnerProduct"
  bottom: "fc6"
  top: "fc7"
  param {
    lr_mult: 1
    decay_mult: 1
  }
  param {
    lr_mult: 2
    decay_mult: 0
  }
  inner_product_param {
    num_output: 2048
    weight_filler {
      type: "gaussian"
      std: 0.005
    }
    bias_filler {
      type: "constant"
    }
  }
}
layer {
  name: "relu7"
  type: "ReLU"
  bottom: "fc7"
  top: "fc7"
}
layer {
  name: "drop7"
  type: "Dropout"
  bottom: "fc7"
  top: "fc7"
  dropout_param {
    dropout_ratio: 0.5
  }
}
layer {
  name: "fc8"
  type: "InnerProduct"
  bottom: "fc7"
  top: "fc8"
  param {
    lr_mult: 1
    decay_mult: 1
  }
  param {
    lr_mult: 2
    decay_mult: 0
  }
  inner_product_param {
    num_output: 1000
    weight_filler {
      type: "gaussian"
      std: 0.01
    }
    bias_filler {
      type: "constant"
    }
  }
}
layer {
  name: "loss"
  type: "SoftmaxWithLoss"
  bottom: "fc8"
  bottom: "label"
  top: "loss"
}
I1202 18:15:18.393867 17139 layer_factory.hpp:76] Creating layer data
I1202 18:15:18.394361 17139 net.cpp:106] Creating Layer data
I1202 18:15:18.394376 17139 net.cpp:411] data -> data
I1202 18:15:18.394407 17139 net.cpp:411] data -> label
I1202 18:15:18.419092 17143 db_lmdb.cpp:38] Opened lmdb /home/share/storage/datasets/imagenet/lmdb/ilsvrc12_train_lmdb
I1202 18:15:18.449714 17139 data_layer.cpp:41] output data size: 256,3,128,128
I1202 18:15:18.526708 17139 net.cpp:150] Setting up data
I1202 18:15:18.526746 17139 net.cpp:157] Top shape: 256 3 128 128 (12582912)
I1202 18:15:18.526751 17139 net.cpp:157] Top shape: 256 (256)
I1202 18:15:18.526752 17139 net.cpp:165] Memory required for data: 50332672
I1202 18:15:18.526769 17139 layer_factory.hpp:76] Creating layer conv1
I1202 18:15:18.526785 17139 net.cpp:106] Creating Layer conv1
I1202 18:15:18.526789 17139 net.cpp:454] conv1 <- data
I1202 18:15:18.526801 17139 net.cpp:411] conv1 -> conv1
I1202 18:15:18.679916 17139 net.cpp:150] Setting up conv1
I1202 18:15:18.679947 17139 net.cpp:157] Top shape: 256 96 30 30 (22118400)
I1202 18:15:18.679949 17139 net.cpp:165] Memory required for data: 138806272
I1202 18:15:18.679966 17139 layer_factory.hpp:76] Creating layer relu1
I1202 18:15:18.679976 17139 net.cpp:106] Creating Layer relu1
I1202 18:15:18.679980 17139 net.cpp:454] relu1 <- conv1
I1202 18:15:18.679983 17139 net.cpp:397] relu1 -> conv1 (in-place)
I1202 18:15:18.680110 17139 net.cpp:150] Setting up relu1
I1202 18:15:18.680116 17139 net.cpp:157] Top shape: 256 96 30 30 (22118400)
I1202 18:15:18.680127 17139 net.cpp:165] Memory required for data: 227279872
I1202 18:15:18.680130 17139 layer_factory.hpp:76] Creating layer pool1
I1202 18:15:18.680135 17139 net.cpp:106] Creating Layer pool1
I1202 18:15:18.680136 17139 net.cpp:454] pool1 <- conv1
I1202 18:15:18.680140 17139 net.cpp:411] pool1 -> pool1
I1202 18:15:18.680382 17139 net.cpp:150] Setting up pool1
I1202 18:15:18.680389 17139 net.cpp:157] Top shape: 256 96 15 15 (5529600)
I1202 18:15:18.680402 17139 net.cpp:165] Memory required for data: 249398272
I1202 18:15:18.680403 17139 layer_factory.hpp:76] Creating layer norm1
I1202 18:15:18.680410 17139 net.cpp:106] Creating Layer norm1
I1202 18:15:18.680413 17139 net.cpp:454] norm1 <- pool1
I1202 18:15:18.680416 17139 net.cpp:411] norm1 -> norm1
I1202 18:15:18.680552 17139 net.cpp:150] Setting up norm1
I1202 18:15:18.680557 17139 net.cpp:157] Top shape: 256 96 15 15 (5529600)
I1202 18:15:18.680569 17139 net.cpp:165] Memory required for data: 271516672
I1202 18:15:18.680572 17139 layer_factory.hpp:76] Creating layer conv2
I1202 18:15:18.680578 17139 net.cpp:106] Creating Layer conv2
I1202 18:15:18.680580 17139 net.cpp:454] conv2 <- norm1
I1202 18:15:18.680583 17139 net.cpp:411] conv2 -> conv2
I1202 18:15:18.689127 17139 net.cpp:150] Setting up conv2
I1202 18:15:18.689153 17139 net.cpp:157] Top shape: 256 256 15 15 (14745600)
I1202 18:15:18.689157 17139 net.cpp:165] Memory required for data: 330499072
I1202 18:15:18.689167 17139 layer_factory.hpp:76] Creating layer relu2
I1202 18:15:18.689182 17139 net.cpp:106] Creating Layer relu2
I1202 18:15:18.689184 17139 net.cpp:454] relu2 <- conv2
I1202 18:15:18.689189 17139 net.cpp:397] relu2 -> conv2 (in-place)
I1202 18:15:18.689456 17139 net.cpp:150] Setting up relu2
I1202 18:15:18.689463 17139 net.cpp:157] Top shape: 256 256 15 15 (14745600)
I1202 18:15:18.689476 17139 net.cpp:165] Memory required for data: 389481472
I1202 18:15:18.689537 17139 layer_factory.hpp:76] Creating layer pool2
I1202 18:15:18.689551 17139 net.cpp:106] Creating Layer pool2
I1202 18:15:18.689553 17139 net.cpp:454] pool2 <- conv2
I1202 18:15:18.689558 17139 net.cpp:411] pool2 -> pool2
I1202 18:15:18.689720 17139 net.cpp:150] Setting up pool2
I1202 18:15:18.689726 17139 net.cpp:157] Top shape: 256 256 7 7 (3211264)
I1202 18:15:18.689738 17139 net.cpp:165] Memory required for data: 402326528
I1202 18:15:18.689739 17139 layer_factory.hpp:76] Creating layer norm2
I1202 18:15:18.689746 17139 net.cpp:106] Creating Layer norm2
I1202 18:15:18.689757 17139 net.cpp:454] norm2 <- pool2
I1202 18:15:18.689762 17139 net.cpp:411] norm2 -> norm2
I1202 18:15:18.690011 17139 net.cpp:150] Setting up norm2
I1202 18:15:18.690017 17139 net.cpp:157] Top shape: 256 256 7 7 (3211264)
I1202 18:15:18.690028 17139 net.cpp:165] Memory required for data: 415171584
I1202 18:15:18.690032 17139 layer_factory.hpp:76] Creating layer conv3
I1202 18:15:18.690048 17139 net.cpp:106] Creating Layer conv3
I1202 18:15:18.690050 17139 net.cpp:454] conv3 <- norm2
I1202 18:15:18.690055 17139 net.cpp:411] conv3 -> conv3
I1202 18:15:18.712662 17139 net.cpp:150] Setting up conv3
I1202 18:15:18.712690 17139 net.cpp:157] Top shape: 256 384 7 7 (4816896)
I1202 18:15:18.712693 17139 net.cpp:165] Memory required for data: 434439168
I1202 18:15:18.712703 17139 layer_factory.hpp:76] Creating layer relu3
I1202 18:15:18.712710 17139 net.cpp:106] Creating Layer relu3
I1202 18:15:18.712713 17139 net.cpp:454] relu3 <- conv3
I1202 18:15:18.712718 17139 net.cpp:397] relu3 -> conv3 (in-place)
I1202 18:15:18.712981 17139 net.cpp:150] Setting up relu3
I1202 18:15:18.712991 17139 net.cpp:157] Top shape: 256 384 7 7 (4816896)
I1202 18:15:18.712993 17139 net.cpp:165] Memory required for data: 453706752
I1202 18:15:18.712996 17139 layer_factory.hpp:76] Creating layer conv4
I1202 18:15:18.713004 17139 net.cpp:106] Creating Layer conv4
I1202 18:15:18.713006 17139 net.cpp:454] conv4 <- conv3
I1202 18:15:18.713011 17139 net.cpp:411] conv4 -> conv4
I1202 18:15:18.730362 17139 net.cpp:150] Setting up conv4
I1202 18:15:18.730391 17139 net.cpp:157] Top shape: 256 384 7 7 (4816896)
I1202 18:15:18.730396 17139 net.cpp:165] Memory required for data: 472974336
I1202 18:15:18.730402 17139 layer_factory.hpp:76] Creating layer relu4
I1202 18:15:18.730409 17139 net.cpp:106] Creating Layer relu4
I1202 18:15:18.730422 17139 net.cpp:454] relu4 <- conv4
I1202 18:15:18.730427 17139 net.cpp:397] relu4 -> conv4 (in-place)
I1202 18:15:18.730558 17139 net.cpp:150] Setting up relu4
I1202 18:15:18.730563 17139 net.cpp:157] Top shape: 256 384 7 7 (4816896)
I1202 18:15:18.730574 17139 net.cpp:165] Memory required for data: 492241920
I1202 18:15:18.730577 17139 layer_factory.hpp:76] Creating layer conv5
I1202 18:15:18.730583 17139 net.cpp:106] Creating Layer conv5
I1202 18:15:18.730586 17139 net.cpp:454] conv5 <- conv4
I1202 18:15:18.730598 17139 net.cpp:411] conv5 -> conv5
I1202 18:15:18.743074 17139 net.cpp:150] Setting up conv5
I1202 18:15:18.743103 17139 net.cpp:157] Top shape: 256 256 7 7 (3211264)
I1202 18:15:18.743105 17139 net.cpp:165] Memory required for data: 505086976
I1202 18:15:18.743116 17139 layer_factory.hpp:76] Creating layer relu5
I1202 18:15:18.743124 17139 net.cpp:106] Creating Layer relu5
I1202 18:15:18.743127 17139 net.cpp:454] relu5 <- conv5
I1202 18:15:18.743132 17139 net.cpp:397] relu5 -> conv5 (in-place)
I1202 18:15:18.743260 17139 net.cpp:150] Setting up relu5
I1202 18:15:18.743268 17139 net.cpp:157] Top shape: 256 256 7 7 (3211264)
I1202 18:15:18.743269 17139 net.cpp:165] Memory required for data: 517932032
I1202 18:15:18.743273 17139 layer_factory.hpp:76] Creating layer pool5
I1202 18:15:18.743278 17139 net.cpp:106] Creating Layer pool5
I1202 18:15:18.743279 17139 net.cpp:454] pool5 <- conv5
I1202 18:15:18.743284 17139 net.cpp:411] pool5 -> pool5
I1202 18:15:18.743540 17139 net.cpp:150] Setting up pool5
I1202 18:15:18.743548 17139 net.cpp:157] Top shape: 256 256 3 3 (589824)
I1202 18:15:18.743567 17139 net.cpp:165] Memory required for data: 520291328
I1202 18:15:18.743571 17139 layer_factory.hpp:76] Creating layer fc6
I1202 18:15:18.743582 17139 net.cpp:106] Creating Layer fc6
I1202 18:15:18.743587 17139 net.cpp:454] fc6 <- pool5
I1202 18:15:18.743590 17139 net.cpp:411] fc6 -> fc6
I1202 18:15:18.857671 17139 net.cpp:150] Setting up fc6
I1202 18:15:18.857697 17139 net.cpp:157] Top shape: 256 2048 (524288)
I1202 18:15:18.857700 17139 net.cpp:165] Memory required for data: 522388480
I1202 18:15:18.857708 17139 layer_factory.hpp:76] Creating layer relu6
I1202 18:15:18.857715 17139 net.cpp:106] Creating Layer relu6
I1202 18:15:18.857728 17139 net.cpp:454] relu6 <- fc6
I1202 18:15:18.857733 17139 net.cpp:397] relu6 -> fc6 (in-place)
I1202 18:15:18.857925 17139 net.cpp:150] Setting up relu6
I1202 18:15:18.857931 17139 net.cpp:157] Top shape: 256 2048 (524288)
I1202 18:15:18.857942 17139 net.cpp:165] Memory required for data: 524485632
I1202 18:15:18.857944 17139 layer_factory.hpp:76] Creating layer drop6
I1202 18:15:18.857952 17139 net.cpp:106] Creating Layer drop6
I1202 18:15:18.857964 17139 net.cpp:454] drop6 <- fc6
I1202 18:15:18.857969 17139 net.cpp:397] drop6 -> fc6 (in-place)
I1202 18:15:18.857990 17139 net.cpp:150] Setting up drop6
I1202 18:15:18.858003 17139 net.cpp:157] Top shape: 256 2048 (524288)
I1202 18:15:18.858005 17139 net.cpp:165] Memory required for data: 526582784
I1202 18:15:18.858006 17139 layer_factory.hpp:76] Creating layer fc7
I1202 18:15:18.858021 17139 net.cpp:106] Creating Layer fc7
I1202 18:15:18.858023 17139 net.cpp:454] fc7 <- fc6
I1202 18:15:18.858026 17139 net.cpp:411] fc7 -> fc7
I1202 18:15:18.958747 17139 net.cpp:150] Setting up fc7
I1202 18:15:18.958773 17139 net.cpp:157] Top shape: 256 2048 (524288)
I1202 18:15:18.958776 17139 net.cpp:165] Memory required for data: 528679936
I1202 18:15:18.958784 17139 layer_factory.hpp:76] Creating layer relu7
I1202 18:15:18.958791 17139 net.cpp:106] Creating Layer relu7
I1202 18:15:18.958804 17139 net.cpp:454] relu7 <- fc7
I1202 18:15:18.958811 17139 net.cpp:397] relu7 -> fc7 (in-place)
I1202 18:15:18.959179 17139 net.cpp:150] Setting up relu7
I1202 18:15:18.959188 17139 net.cpp:157] Top shape: 256 2048 (524288)
I1202 18:15:18.959199 17139 net.cpp:165] Memory required for data: 530777088
I1202 18:15:18.959203 17139 layer_factory.hpp:76] Creating layer drop7
I1202 18:15:18.959208 17139 net.cpp:106] Creating Layer drop7
I1202 18:15:18.959209 17139 net.cpp:454] drop7 <- fc7
I1202 18:15:18.959223 17139 net.cpp:397] drop7 -> fc7 (in-place)
I1202 18:15:18.959244 17139 net.cpp:150] Setting up drop7
I1202 18:15:18.959247 17139 net.cpp:157] Top shape: 256 2048 (524288)
I1202 18:15:18.959249 17139 net.cpp:165] Memory required for data: 532874240
I1202 18:15:18.959250 17139 layer_factory.hpp:76] Creating layer fc8
I1202 18:15:18.959256 17139 net.cpp:106] Creating Layer fc8
I1202 18:15:18.959259 17139 net.cpp:454] fc8 <- fc7
I1202 18:15:18.959262 17139 net.cpp:411] fc8 -> fc8
I1202 18:15:19.008783 17139 net.cpp:150] Setting up fc8
I1202 18:15:19.008812 17139 net.cpp:157] Top shape: 256 1000 (256000)
I1202 18:15:19.008816 17139 net.cpp:165] Memory required for data: 533898240
I1202 18:15:19.008824 17139 layer_factory.hpp:76] Creating layer loss
I1202 18:15:19.008844 17139 net.cpp:106] Creating Layer loss
I1202 18:15:19.008848 17139 net.cpp:454] loss <- fc8
I1202 18:15:19.008854 17139 net.cpp:454] loss <- label
I1202 18:15:19.008860 17139 net.cpp:411] loss -> loss
I1202 18:15:19.008873 17139 layer_factory.hpp:76] Creating layer loss
…
  transform_param {
    scale: 0.04
    mirror: false
    crop_size: 128
    mean_value: 104
    mean_value: 117
    mean_value: 123
    force_color: true
    resize_param {
      prob: 1
      resize_mode: FIT_SMALL_SIZE
      height: 144
      width: 144
      pad_mode: MIRRORED
      pad_value: 104
      pad_value: 117
      pad_value: 124
      interp_mode: CUBIC
      center_object: false
      max_angle: 0
    }
  }
  data_param {
    source: "/home/share/storage/datasets/imagenet/lmdb/ilsvrc12_val_lmdb"
    batch_size: 250
    backend: LMDB
  }
}
layer {
  name: "conv1"
  type: "Convolution"
  bottom: "data"
  top: "conv1"
  param {
    lr_mult: 1
    decay_mult: 1
  }
  param {
    lr_mult: 2
    decay_mult: 0
  }
  convolution_param {
    num_output: 96
    kernel_size: 11
    stride: 4
    weight_filler {
      type: "gaussian"
      std: 0.01
    }
    bias_filler {
      type: "constant"
    }
  }
}
layer {
  name: "relu1"
  type: "ReLU"
  bottom: "conv1"
  top: "conv1"
}
layer {
  name: "pool1"
  type: "Pooling"
  bottom: "conv1"
  top: "pool1"
  pooling_param {
    pool: MAX
    kernel_size: 3
    stride: 2
  }
}
layer {
  name: "norm1"
  type: "LRN"
  bottom: "pool1"
  top: "norm1"
  lrn_param {
    local_size: 5
    alpha: 0.0001
    beta: 0.75
  }
}
layer {
  name: "conv2"
  type: "Convolution"
  bottom: "norm1"
  top: "conv2"
  param {
    lr_mult: 1
    decay_mult: 1
  }
  param {
    lr_mult: 2
    decay_mult: 0
  }
  convolution_param {
    num_output: 256
    pad: 2
    kernel_size: 5
    group: 2
    weight_filler {
      type: "gaussian"
      std: 0.01
    }
    bias_filler {
      type: "constant"
    }
  }
}
layer {
  name: "relu2"
  type: "ReLU"
  bottom: "conv2"
  top: "conv2"
}
layer {
  name: "pool2"
  type: "Pooling"
  bottom: "conv2"
  top: "pool2"
  pooling_param {
    pool: MAX
    kernel_size: 3
    stride: 2
  }
}
layer {
  name: "norm2"
  type: "LRN"
  bottom: "pool2"
  top: "norm2"
  lrn_param {
    local_size: 5
    alpha: 0.0001
    beta: 0.75
  }
}
layer {
  name: "conv3"
  type: "Convolution"
  bottom: "norm2"
  top: "conv3"
  param {
    lr_mult: 1
    decay_mult: 1
  }
  param {
    lr_mult: 2
    decay_mult: 0
  }
  convolution_param {
    num_output: 384
    pad: 1
    kernel_size: 3
    weight_filler {
      type: "gaussian"
      std: 0.01
    }
    bias_filler {
      type: "constant"
    }
  }
}
layer {
  name: "relu3"
  type: "ReLU"
  bottom: "conv3"
  top: "conv3"
}
layer {
  name: "conv4"
  type: "Convolution"
  bottom: "conv3"
  top: "conv4"
  param {
    lr_mult: 1
    decay_mult: 1
  }
  param {
    lr_mult: 2
    decay_mult: 0
  }
  convolution_param {
    num_output: 384
    pad: 1
    kernel_size: 3
    group: 2
    weight_filler {
      type: "gaussian"
      std: 0.01
    }
    bias_filler {
      type: "constant"
    }
  }
}
layer {
  name: "relu4"
  type: "ReLU"
  bottom: "conv4"
  top: "conv4"
}
layer {
  name: "conv5"
  type: "Convolution"
  bottom: "conv4"
  top: "conv5"
  param {
    lr_mult: 1
    decay_mult: 1
  }
  param {
    lr_mult: 2
    decay_mult: 0
  }
  convolution_param {
    num_output: 256
    pad: 1
    kernel_size: 3
    group: 2
    weight_filler {
      type: "gaussian"
      std: 0.01
    }
    bias_filler {
      type: "constant"
    }
  }
}
layer {
  name: "relu5"
  type: "ReLU"
  bottom: "conv5"
  top: "conv5"
}
layer {
  name: "pool5"
  type: "Pooling"
  bottom: "conv5"
  top: "pool5"
  pooling_param {
    pool: MAX
    kernel_size: 3
    stride: 2
  }
}
layer {
  name: "fc6"
  type: "InnerProduct"
  bottom: "pool5"
  top: "fc6"
  param {
    lr_mult: 1
    decay_mult: 1
  }
  param {
    lr_mult: 2
    decay_mult: 0
  }
  inner_product_param {
    num_output: 2048
    weight_filler {
      type: "gaussian"
      std: 0.005
    }
    bias_filler {
      type: "constant"
    }
  }
}
layer {
  name: "relu6"
  type: "ReLU"
  bottom: "fc6"
  top: "fc6"
}
layer {
  name: "drop6"
  type: "Dropout"
  bottom: "fc6"
  top: "fc6"
  dropout_param {
    dropout_ratio: 0.5
  }
}
layer {
  name: "fc7"
  type: "InnerProduct"
  bottom: "fc6"
  top: "fc7"
  param {
    lr_mult: 1
    decay_mult: 1
  }
  param {
    lr_mult: 2
    decay_mult: 0
  }
  inner_product_param {
    num_output: 2048
    weight_filler {
      type: "gaussian"
      std: 0.005
    }
    bias_filler {
      type: "constant"
    }
  }
}
layer {
  name: "relu7"
  type: "ReLU"
  bottom: "fc7"
  top: "fc7"
}
layer {
  name: "drop7"
  type: "Dropout"
  bottom: "fc7"
  top: "fc7"
  dropout_param {
    dropout_ratio: 0.5
  }
}
layer {
  name: "fc8"
  type: "InnerProduct"
  bottom: "fc7"
  top: "fc8"
  param {
    lr_mult: 1
    decay_mult: 1
  }
  param {
    lr_mult: 2
    decay_mult: 0
  }
  inner_product_param {
    num_output: 1000
    weight_filler {
      type: "gaussian"
      std: 0.01
    }
    bias_filler {
      type: "constant"
    }
  }
}
layer {
  name: "accuracy"
  type: "Accuracy"
  bottom: "fc8"
  bottom: "label"
  top: "accuracy"
  include {
    phase: TEST
  }
}
layer {
  name: "loss"
  type: "SoftmaxWithLoss"
  bottom: "fc8"
  bottom: "label"
  top: "loss"
}
I1202 18:15:19.010378 17139 layer_factory.hpp:76] Creating layer data
I1202 18:15:19.010519 17139 net.cpp:106] Creating Layer data
I1202 18:15:19.010534 17139 net.cpp:411] data -> data
I1202 18:15:19.010540 17139 net.cpp:411] data -> label
I1202 18:15:19.037936 17152 db_lmdb.cpp:38] Opened lmdb /home/share/storage/datasets/imagenet/lmdb/ilsvrc12_val_lmdb
I1202 18:15:19.039602 17139 data_layer.cpp:41] output data size: 250,3,128,128
I1202 18:15:19.116343 17139 net.cpp:150] Setting up data
I1202 18:15:19.116372 17139 net.cpp:157] Top shape: 250 3 128 128 (12288000)
I1202 18:15:19.116376 17139 net.cpp:157] Top shape: 250 (250)
I1202 18:15:19.116379 17139 net.cpp:165] Memory required for data: 49153000
I1202 18:15:19.116384 17139 layer_factory.hpp:76] Creating layer label_data_1_split
I1202 18:15:19.116394 17139 net.cpp:106] Creating Layer label_data_1_split
I1202 18:15:19.116396 17139 net.cpp:454] label_data_1_split <- label
I1202 18:15:19.116401 17139 net.cpp:411] label_data_1_split -> label_data_1_split_0
I1202 18:15:19.116431 17139 net.cpp:411] label_data_1_split -> label_data_1_split_1
I1202 18:15:19.116475 17139 net.cpp:150] Setting up label_data_1_split
I1202 18:15:19.116479 17139 net.cpp:157] Top shape: 250 (250)
I1202 18:15:19.116482 17139 net.cpp:157] Top shape: 250 (250)
I1202 18:15:19.116483 17139 net.cpp:165] Memory required for data: 49155000
I1202 18:15:19.116485 17139 layer_factory.hpp:76] Creating layer conv1
I1202 18:15:19.116492 17139 net.cpp:106] Creating Layer conv1
I1202 18:15:19.116494 17139 net.cpp:454] conv1 <- data
I1202 18:15:19.116498 17139 net.cpp:411] conv1 -> conv1
I1202 18:15:19.125746 17139 net.cpp:150] Setting up conv1
I1202 18:15:19.125772 17139 net.cpp:157] Top shape: 250 96 30 30 (21600000)
I1202 18:15:19.125774 17139 net.cpp:165] Memory required for data: 135555000
I1202 18:15:19.125785 17139 layer_factory.hpp:76] Creating layer relu1
I1202 18:15:19.125792 17139 net.cpp:106] Creating Layer relu1
I1202 18:15:19.125794 17139 net.cpp:454] relu1 <- conv1
I1202 18:15:19.125798 17139 net.cpp:397] relu1 -> conv1 (in-place)
I1202 18:15:19.126099 17139 net.cpp:150] Setting up relu1
I1202 18:15:19.126107 17139 net.cpp:157] Top shape: 250 96 30 30 (21600000)
I1202 18:15:19.126109 17139 net.cpp:165] Memory required for data: 221955000
I1202 18:15:19.126112 17139 layer_factory.hpp:76] Creating layer pool1
I1202 18:15:19.126117 17139 net.cpp:106] Creating Layer pool1
I1202 18:15:19.126121 17139 net.cpp:454] pool1 <- conv1
I1202 18:15:19.126123 17139 net.cpp:411] pool1 -> pool1
I1202 18:15:19.126268 17139 net.cpp:150] Setting up pool1
I1202 18:15:19.126273 17139 net.cpp:157] Top shape: 250 96 15 15 (5400000)
I1202 18:15:19.126276 17139 net.cpp:165] Memory required for data: 243555000
I1202 18:15:19.126277 17139 layer_factory.hpp:76] Creating layer norm1
I1202 18:15:19.126282 17139 net.cpp:106] Creating Layer norm1
I1202 18:15:19.126284 17139 net.cpp:454] norm1 <- pool1
I1202 18:15:19.126287 17139 net.cpp:411] norm1 -> norm1
I1202 18:15:19.126523 17139 net.cpp:150] Setting up norm1
I1202 18:15:19.126528 17139 net.cpp:157] Top shape: 250 96 15 15 (5400000)
I1202 18:15:19.126530 17139 net.cpp:165] Memory required for data: 265155000
I1202 18:15:19.126533 17139 layer_factory.hpp:76] Creating layer conv2
I1202 18:15:19.126539 17139 net.cpp:106] Creating Layer conv2
I1202 18:15:19.126541 17139 net.cpp:454] conv2 <- norm1
I1202 18:15:19.126545 17139 net.cpp:411] conv2 -> conv2
I1202 18:15:19.135722 17139 net.cpp:150] Setting up conv2
I1202 18:15:19.135751 17139 net.cpp:157] Top shape: 250 256 15 15 (14400000)
I1202 18:15:19.135754 17139 net.cpp:165] Memory required for data: 322755000
I1202 18:15:19.135766 17139 layer_factory.hpp:76] Creating layer relu2
I1202 18:15:19.135776 17139 net.cpp:106] Creating Layer relu2
I1202 18:15:19.135779 17139 net.cpp:454] relu2 <- conv2
I1202 18:15:19.135784 17139 net.cpp:397] relu2 -> conv2 (in-place)
I1202 18:15:19.136083 17139 net.cpp:150] Setting up relu2
I1202 18:15:19.136092 17139 net.cpp:157] Top shape: 250 256 15 15 (14400000)
I1202 18:15:19.136103 17139 net.cpp:165] Memory required for data: 380355000
I1202 18:15:19.136106 17139 layer_factory.hpp:76] Creating layer pool2
I1202 18:15:19.136113 17139 net.cpp:106] Creating Layer pool2
I1202 18:15:19.136116 17139 net.cpp:454] pool2 <- conv2
I1202 18:15:19.136119 17139 net.cpp:411] pool2 -> pool2
I1202 18:15:19.136284 17139 net.cpp:150] Setting up pool2
I1202 18:15:19.136292 17139 net.cpp:157] Top shape: 250 256 7 7 (3136000)
I1202 18:15:19.136294 17139 net.cpp:165] Memory required for data: 392899000
I1202 18:15:19.136296 17139 layer_factory.hpp:76] Creating layer norm2
I1202 18:15:19.136302 17139 net.cpp:106] Creating Layer norm2
I1202 18:15:19.136304 17139 net.cpp:454] norm2 <- pool2
I1202 18:15:19.136308 17139 net.cpp:411] norm2 -> norm2
I1202 18:15:19.136562 17139 net.cpp:150] Setting up norm2
I1202 18:15:19.136581 17139 net.cpp:157] Top shape: 250 256 7 7 (3136000)
I1202 18:15:19.136584 17139 net.cpp:165] Memory required for data: 405443000
I1202 18:15:19.136587 17139 layer_factory.hpp:76] Creating layer conv3
I1202 18:15:19.136625 17139 net.cpp:106] Creating Layer conv3
I1202 18:15:19.136627 17139 net.cpp:454] conv3 <- norm2
I1202 18:15:19.136632 17139 net.cpp:411] conv3 -> conv3
I1202 18:15:19.159384 17139 net.cpp:150] Setting up conv3
I1202 18:15:19.159404 17139 net.cpp:157] Top shape: 250 384 7 7 (4704000)
I1202 18:15:19.159406 17139 net.cpp:165] Memory required for data: 424259000
I1202 18:15:19.159415 17139 layer_factory.hpp:76] Creating layer relu3
I1202 18:15:19.159422 17139 net.cpp:106] Creating Layer relu3
I1202 18:15:19.159426 17139 net.cpp:454] relu3 <- conv3
I1202 18:15:19.159431 17139 net.cpp:397] relu3 -> conv3 (in-place)
I1202 18:15:19.159550 17139 net.cpp:150] Setting up relu3
I1202 18:15:19.159555 17139 net.cpp:157] Top shape: 250 384 7 7 (4704000)
I1202 18:15:19.159557 17139 net.cpp:165] Memory required for data: 443075000
I1202 18:15:19.159559 17139 layer_factory.hpp:76] Creating layer conv4
I1202 18:15:19.159565 17139 net.cpp:106] Creating Layer conv4
I1202 18:15:19.159569 17139 net.cpp:454] conv4 <- conv3
I1202 18:15:19.159571 17139 net.cpp:411] conv4 -> conv4
I1202 18:15:19.177816 17139 net.cpp:150] Setting up conv4
I1202 18:15:19.177844 17139 net.cpp:157] Top shape: 250 384 7 7 (4704000)
I1202 18:15:19.177846 17139 net.cpp:165] Memory required for data: 461891000
I1202 18:15:19.177853 17139 layer_factory.hpp:76] Creating layer relu4
I1202 18:15:19.177860 17139 net.cpp:106] Creating Layer relu4
I1202 18:15:19.177863 17139 net.cpp:454] relu4 <- conv4
I1202 18:15:19.177868 17139 net.cpp:397] relu4 -> conv4 (in-place)
I1202 18:15:19.177983 17139 net.cpp:150] Setting up relu4
I1202 18:15:19.177988 17139 net.cpp:157] Top shape: 250 384 7 7 (4704000)
I1202 18:15:19.177989 17139 net.cpp:165] Memory required for data: 480707000
I1202 18:15:19.177991 17139 layer_factory.hpp:76] Creating layer conv5
I1202 18:15:19.177997 17139 net.cpp:106] Creating Layer conv5
I1202 18:15:19.178000 17139 net.cpp:454] conv5 <- conv4
I1202 18:15:19.178004 17139 net.cpp:411] conv5 -> conv5
I1202 18:15:19.190636 17139 net.cpp:150] Setting up conv5
I1202 18:15:19.190654 17139 net.cpp:157] Top shape: 250 256 7 7 (3136000)
I1202 18:15:19.190657 17139 net.cpp:165] Memory required for data: 493251000
I1202 18:15:19.190667 17139 layer_factory.hpp:76] Creating layer relu5
I1202 18:15:19.190675 17139 net.cpp:106] Creating Layer relu5
I1202 18:15:19.190680 17139 net.cpp:454] relu5 <- conv5
I1202 18:15:19.190685 17139 net.cpp:397] relu5 -> conv5 (in-place)
I1202 18:15:19.190912 17139 net.cpp:150] Setting up relu5
I1202 18:15:19.190920 17139 net.cpp:157] Top shape: 250 256 7 7 (3136000)
I1202 18:15:19.190922 17139 net.cpp:165] Memory required for data: 505795000
I1202 18:15:19.190925 17139 layer_factory.hpp:76] Creating layer pool5
I1202 18:15:19.190932 17139 net.cpp:106] Creating Layer pool5
I1202 18:15:19.190934 17139 net.cpp:454] pool5 <- conv5
I1202 18:15:19.190937 17139 net.cpp:411] pool5 -> pool5
I1202 18:15:19.191077 17139 net.cpp:150] Setting up pool5
I1202 18:15:19.191083 17139 net.cpp:157] Top shape: 250 256 3 3 (576000)
I1202 18:15:19.191085 17139 net.cpp:165] Memory required for data: 508099000
I1202 18:15:19.191087 17139 layer_factory.hpp:76] Creating layer fc6
I1202 18:15:19.191092 17139 net.cpp:106] Creating Layer fc6
I1202 18:15:19.191094 17139 net.cpp:454] fc6 <- pool5
I1202 18:15:19.191098 17139 net.cpp:411] fc6 -> fc6
I1202 18:15:19.304347 17139 net.cpp:150] Setting up fc6
I1202 18:15:19.304399 17139 net.cpp:157] Top shape: 250 2048 (512000)
I1202 18:15:19.304410 17139 net.cpp:165] Memory required for data: 510147000
I1202 18:15:19.304425 17139 layer_factory.hpp:76] Creating layer relu6
I1202 18:15:19.304438 17139 net.cpp:106] Creating Layer relu6
I1202 18:15:19.304448 17139 net.cpp:454] relu6 <- fc6
I1202 18:15:19.304460 17139 net.cpp:397] relu6 -> fc6 (in-place)
I1202 18:15:19.304844 17139 net.cpp:150] Setting up relu6
I1202 18:15:19.304874 17139 net.cpp:157] Top shape: 250 2048 (512000)
I1202 18:15:19.304884 17139 net.cpp:165] Memory required for data: 512195000
I1202 18:15:19.304893 17139 layer_factory.hpp:76] Creating layer drop6
I1202 18:15:19.304920 17139 net.cpp:106] Creating Layer drop6
I1202 18:15:19.304930 17139 net.cpp:454] drop6 <- fc6
I1202 18:15:19.304940 17139 net.cpp:397] drop6 -> fc6 (in-place)
I1202 18:15:19.304981 17139 net.cpp:150] Setting up drop6
I1202 18:15:19.304994 17139 net.cpp:157] Top shape: 250 2048 (512000)
I1202 18:15:19.305002 17139 net.cpp:165] Memory required for data: 514243000
I1202 18:15:19.305011 17139 layer_factory.hpp:76] Creating layer fc7
I1202 18:15:19.305023 17139 net.cpp:106] Creating Layer fc7
I1202 18:15:19.305033 17139 net.cpp:454] fc7 <- fc6
I1202 18:15:19.305043 17139 net.cpp:411] fc7 -> fc7
I1202 18:15:19.406520 17139 net.cpp:150] Setting up fc7
I1202 18:15:19.406549 17139 net.cpp:157] Top shape: 250 2048 (512000)
I1202 18:15:19.406553 17139 net.cpp:165] Memory required for data: 516291000
I1202 18:15:19.406561 17139 layer_factory.hpp:76] Creating layer relu7
I1202 18:15:19.406569 17139 net.cpp:106] Creating Layer relu7
I1202 18:15:19.406572 17139 net.cpp:454] relu7 <- fc7
I1202 18:15:19.406577 17139 net.cpp:397] relu7 -> fc7 (in-place)
I1202 18:15:19.406769 17139 net.cpp:150] Setting up relu7
I1202 18:15:19.406775 17139 net.cpp:157] Top shape: 250 2048 (512000)
I1202 18:15:19.406777 17139 net.cpp:165] Memory required for data: 518339000
I1202 18:15:19.406780 17139 layer_factory.hpp:76] Creating layer drop7
I1202 18:15:19.406785 17139 net.cpp:106] Creating Layer drop7
I1202 18:15:19.406787 17139 net.cpp:454] drop7 <- fc7
I1202 18:15:19.406790 17139 net.cpp:397] drop7 -> fc7 (in-place)
I1202 18:15:19.406815 17139 net.cpp:150] Setting up drop7
I1202 18:15:19.406817 17139 net.cpp:157] Top shape: 250 2048 (512000)
I1202 18:15:19.406818 17139 net.cpp:165] Memory required for data: 520387000
I1202 18:15:19.406821 17139 layer_factory.hpp:76] Creating layer fc8
I1202 18:15:19.406826 17139 net.cpp:106] Creating Layer fc8
I1202 18:15:19.406828 17139 net.cpp:454] fc8 <- fc7
I1202 18:15:19.406831 17139 net.cpp:411] fc8 -> fc8
I1202 18:15:19.456055 17139 net.cpp:150] Setting up fc8
I1202 18:15:19.456084 17139 net.cpp:157] Top shape: 250 1000 (250000)
I1202 18:15:19.456087 17139 net.cpp:165] Memory required for data: 521387000
I1202 18:15:19.456095 17139 layer_factory.hpp:76] Creating layer fc8_fc8_0_split
I1202 18:15:19.456104 17139 net.cpp:106] Creating Layer fc8_fc8_0_split
I1202 18:15:19.456107 17139 net.cpp:454] fc8_fc8_0_split <- fc8
I1202 18:15:19.456113 17139 net.cpp:411] fc8_fc8_0_split -> fc8_fc8_0_split_0
I1202 18:15:19.456140 17139 net.cpp:411] fc8_fc8_0_split -> fc8_fc8_0_split_1
I1202 18:15:19.456205 17139 net.cpp:150] Setting up fc8_fc8_0_split
I1202 18:15:19.456210 17139 net.cpp:157] Top shape: 250 1000 (250000)
I1202 18:15:19.456223 17139 net.cpp:157] Top shape: 250 1000 (250000)
I1202 18:15:19.456223 17139 net.cpp:165] Memory required for data: 523387000
I1202 18:15:19.456225 17139 layer_factory.hpp:76] Creating layer accuracy
I1202 18:15:19.456234 17139 net.cpp:106] Creating Layer accuracy
I1202 18:15:19.456246 17139 net.cpp:454] accuracy <- fc8_fc8_0_split_0
I1202 18:15:19.456256 17139 net.cpp:454] accuracy <- label_data_1_split_0
I1202 18:15:19.456266 17139 net.cpp:411] accuracy -> accuracy
…
