…
  transform_param {
    scale: 0.027
    mirror: true
    crop_size: 224
    mean_value: 104
    mean_value: 117
    mean_value: 124
    force_color: true
    resize_param {
      prob: 1
      resize_mode: FIT_SMALL_SIZE
      height: 256
      width: 256
      pad_mode: MIRRORED
      pad_value: 104
      pad_value: 117
      pad_value: 124
      interp_mode: CUBIC
      center_object: false
      max_angle: 0
    }
  }
  data_param {
    source: "/home/nvidia/dataset/lmdb_from_home/ilsvrc12_train_lmdb"
    batch_size: 256
    backend: LMDB
  }
}
layer {
  name: "conv1"
  type: "Convolution"
  bottom: "data"
  top: "conv1"
  param {
    lr_mult: 1
    decay_mult: 1
  }
  param {
    lr_mult: 2
    decay_mult: 0
  }
  convolution_param {
    num_output: 96
    kernel_size: 11
    stride: 4
    weight_filler {
      type: "msra"
    }
    bias_filler {
      type: "constant"
    }
  }
}
layer {
  name: "relu1"
  type: "ReLU"
  bottom: "conv1"
  top: "conv1"
}
layer {
  name: "pool1"
  type: "Pooling"
  bottom: "conv1"
  top: "pool1"
  pooling_param {
    pool: MAX
    kernel_size: 3
    stride: 2
  }
}
layer {
  name: "norm1"
  type: "LRN"
  bottom: "pool1"
  top: "norm1"
  lrn_param {
    local_size: 5
    alpha: 0.0001
    beta: 0.75
  }
}
layer {
  name: "conv2"
  type: "Convolution"
  bottom: "norm1"
  top: "conv2"
  param {
    lr_mult: 1
    decay_mult: 1
  }
  param {
    lr_mult: 2
    decay_mult: 0
  }
  convolution_param {
    num_output: 256
    pad: 2
    kernel_size: 5
    group: 2
    weight_filler {
      type: "msra"
    }
    bias_filler {
      type: "constant"
    }
  }
}
layer {
  name: "relu2"
  type: "ReLU"
  bottom: "conv2"
  top: "conv2"
}
layer {
  name: "pool2"
  type: "Pooling"
  bottom: "conv2"
  top: "pool2"
  pooling_param {
    pool: MAX
    kernel_size: 3
    stride: 2
  }
}
layer {
  name: "norm2"
  type: "LRN"
  bottom: "pool2"
  top: "norm2"
  lrn_param {
    local_size: 5
    alpha: 0.0001
    beta: 0.75
  }
}
layer {
  name: "conv3"
  type: "Convolution"
  bottom: "norm2"
  top: "conv3"
  param {
    lr_mult: 1
    decay_mult: 1
  }
  param {
    lr_mult: 2
    decay_mult: 0
  }
  convolution_param {
    num_output: 384
    pad: 1
    kernel_size: 3
    weight_filler {
      type: "msra"
    }
    bias_filler {
      type: "constant"
    }
  }
}
layer {
  name: "relu3"
  type: "ReLU"
  bottom: "conv3"
  top: "conv3"
}
layer {
  name: "conv4"
  type: "Convolution"
  bottom: "conv3"
  top: "conv4"
  param {
    lr_mult: 1
    decay_mult: 1
  }
  param {
    lr_mult: 2
    decay_mult: 0
  }
  convolution_param {
    num_output: 384
    pad: 1
    kernel_size: 3
    group: 2
    weight_filler {
      type: "msra"
    }
    bias_filler {
      type: "constant"
    }
  }
}
layer {
  name: "relu4"
  type: "ReLU"
  bottom: "conv4"
  top: "conv4"
}
layer {
  name: "conv5"
  type: "Convolution"
  bottom: "conv4"
  top: "conv5"
  param {
    lr_mult: 1
    decay_mult: 1
  }
  param {
    lr_mult: 2
    decay_mult: 0
  }
  convolution_param {
    num_output: 256
    pad: 1
    kernel_size: 3
    group: 2
    weight_filler {
      type: "msra"
    }
    bias_filler {
      type: "constant"
    }
  }
}
layer {
  name: "relu5"
  type: "ReLU"
  bottom: "conv5"
  top: "conv5"
}
layer {
  name: "pool5"
  type: "Pooling"
  bottom: "conv5"
  top: "pool5"
  pooling_param {
    pool: MAX
    kernel_size: 3
    stride: 2
  }
}
layer {
  name: "fc6"
  type: "InnerProduct"
  bottom: "pool5"
  top: "fc6"
  param {
    lr_mult: 1
    decay_mult: 1
  }
  param {
    lr_mult: 2
    decay_mult: 0
  }
  inner_product_param {
    num_output: 4096
    weight_filler {
      type: "msra"
    }
    bias_filler {
      type: "constant"
    }
  }
}
layer {
  name: "relu6"
  type: "ReLU"
  bottom: "fc6"
  top: "fc6"
}
layer {
  name: "drop6"
  type: "Dropout"
  bottom: "fc6"
  top: "fc6"
  dropout_param {
    dropout_ratio: 0.5
  }
}
layer {
  name: "fc7"
  type: "InnerProduct"
  bottom: "fc6"
  top: "fc7"
  param {
    lr_mult: 1
    decay_mult: 1
  }
  param {
    lr_mult: 2
    decay_mult: 0
  }
  inner_product_param {
    num_output: 4096
    weight_filler {
      type: "msra"
    }
    bias_filler {
      type: "constant"
    }
  }
}
layer {
  name: "relu7"
  type: "ReLU"
  bottom: "fc7"
  top: "fc7"
}
layer {
  name: "drop7"
  type: "Dropout"
  bottom: "fc7"
  top: "fc7"
  dropout_param {
    dropout_ratio: 0.5
  }
}
layer {
  name: "fc8"
  type: "InnerProduct"
  bottom: "fc7"
  top: "fc8"
  param {
    lr_mult: 1
    decay_mult: 1
  }
  param {
    lr_mult: 2
    decay_mult: 0
  }
  inner_product_param {
    num_output: 1000
    weight_filler {
    }
    bias_filler {
      type: "constant"
    }
  }
}
layer {
  name: "loss"
  type: "SoftmaxWithLoss"
  bottom: "fc8"
  bottom: "label"
  top: "loss"
}
I1109 04:55:40.530629 27234 layer_factory.hpp:76] Creating layer data
I1109 04:55:40.531337 27234 net.cpp:106] Creating Layer data
I1109 04:55:40.531395 27234 net.cpp:411] data -> data
I1109 04:55:40.531493 27234 net.cpp:411] data -> label
I1109 04:55:40.532757 27237 db_lmdb.cpp:38] Opened lmdb /home/nvidia/dataset/lmdb_from_home/ilsvrc12_train_lmdb
I1109 04:55:40.555358 27234 data_layer.cpp:41] output data size: 256,3,224,224
I1109 04:55:40.878334 27234 net.cpp:150] Setting up data
I1109 04:55:40.878376 27234 net.cpp:157] Top shape: 256 3 224 224 (38535168)
I1109 04:55:40.878386 27234 net.cpp:157] Top shape: 256 (256)
I1109 04:55:40.878391 27234 net.cpp:165] Memory required for data: 154141696
I1109 04:55:40.878401 27234 layer_factory.hpp:76] Creating layer conv1
I1109 04:55:40.878432 27234 net.cpp:106] Creating Layer conv1
I1109 04:55:40.878442 27234 net.cpp:454] conv1 <- data
I1109 04:55:40.878460 27234 net.cpp:411] conv1 -> conv1
I1109 04:55:41.021164 27234 cudnn_conv_layer.cpp:194] Reallocating workspace storage: 4356
I1109 04:55:41.021392 27234 net.cpp:150] Setting up conv1
I1109 04:55:41.021409 27234 net.cpp:157] Top shape: 256 96 54 54 (71663616)
I1109 04:55:41.021419 27234 net.cpp:165] Memory required for data: 440796160
I1109 04:55:41.021442 27234 layer_factory.hpp:76] Creating layer relu1
I1109 04:55:41.021456 27234 net.cpp:106] Creating Layer relu1
I1109 04:55:41.021462 27234 net.cpp:454] relu1 <- conv1
I1109 04:55:41.021468 27234 net.cpp:397] relu1 -> conv1 (in-place)
I1109 04:55:41.021659 27234 net.cpp:150] Setting up relu1
I1109 04:55:41.021670 27234 net.cpp:157] Top shape: 256 96 54 54 (71663616)
I1109 04:55:41.021674 27234 net.cpp:165] Memory required for data: 727450624
I1109 04:55:41.021677 27234 layer_factory.hpp:76] Creating layer pool1
I1109 04:55:41.021687 27234 net.cpp:106] Creating Layer pool1
I1109 04:55:41.021690 27234 net.cpp:454] pool1 <- conv1
I1109 04:55:41.021695 27234 net.cpp:411] pool1 -> pool1
I1109 04:55:41.022088 27234 net.cpp:150] Setting up pool1
I1109 04:55:41.022101 27234 net.cpp:157] Top shape: 256 96 27 27 (17915904)
I1109 04:55:41.022105 27234 net.cpp:165] Memory required for data: 799114240
I1109 04:55:41.022109 27234 layer_factory.hpp:76] Creating layer norm1
I1109 04:55:41.022140 27234 net.cpp:106] Creating Layer norm1
I1109 04:55:41.022145 27234 net.cpp:454] norm1 <- pool1
I1109 04:55:41.022152 27234 net.cpp:411] norm1 -> norm1
I1109 04:55:41.022368 27234 net.cpp:150] Setting up norm1
I1109 04:55:41.022379 27234 net.cpp:157] Top shape: 256 96 27 27 (17915904)
I1109 04:55:41.022382 27234 net.cpp:165] Memory required for data: 870777856
I1109 04:55:41.022387 27234 layer_factory.hpp:76] Creating layer conv2
I1109 04:55:41.022397 27234 net.cpp:106] Creating Layer conv2
I1109 04:55:41.022403 27234 net.cpp:454] conv2 <- norm1
I1109 04:55:41.022410 27234 net.cpp:411] conv2 -> conv2
I1109 04:55:41.035533 27234 cudnn_conv_layer.cpp:194] Reallocating workspace storage: 28800
I1109 04:55:41.035562 27234 net.cpp:150] Setting up conv2
I1109 04:55:41.035570 27234 net.cpp:157] Top shape: 256 256 27 27 (47775744)
I1109 04:55:41.035573 27234 net.cpp:165] Memory required for data: 1061880832
I1109 04:55:41.035583 27234 layer_factory.hpp:76] Creating layer relu2
I1109 04:55:41.035590 27234 net.cpp:106] Creating Layer relu2
I1109 04:55:41.035593 27234 net.cpp:454] relu2 <- conv2
I1109 04:55:41.035600 27234 net.cpp:397] relu2 -> conv2 (in-place)
I1109 04:55:41.035940 27234 net.cpp:150] Setting up relu2
I1109 04:55:41.035953 27234 net.cpp:157] Top shape: 256 256 27 27 (47775744)
I1109 04:55:41.035958 27234 net.cpp:165] Memory required for data: 1252983808
I1109 04:55:41.035960 27234 layer_factory.hpp:76] Creating layer pool2
I1109 04:55:41.035969 27234 net.cpp:106] Creating Layer pool2
I1109 04:55:41.035972 27234 net.cpp:454] pool2 <- conv2
I1109 04:55:41.035977 27234 net.cpp:411] pool2 -> pool2
I1109 04:55:41.036191 27234 net.cpp:150] Setting up pool2
I1109 04:55:41.036201 27234 net.cpp:157] Top shape: 256 256 13 13 (11075584)
I1109 04:55:41.036206 27234 net.cpp:165] Memory required for data: 1297286144
I1109 04:55:41.036209 27234 layer_factory.hpp:76] Creating layer norm2
I1109 04:55:41.036218 27234 net.cpp:106] Creating Layer norm2
I1109 04:55:41.036221 27234 net.cpp:454] norm2 <- pool2
I1109 04:55:41.036226 27234 net.cpp:411] norm2 -> norm2
I1109 04:55:41.036591 27234 net.cpp:150] Setting up norm2
I1109 04:55:41.036603 27234 net.cpp:157] Top shape: 256 256 13 13 (11075584)
I1109 04:55:41.036607 27234 net.cpp:165] Memory required for data: 1341588480
I1109 04:55:41.036610 27234 layer_factory.hpp:76] Creating layer conv3
I1109 04:55:41.036622 27234 net.cpp:106] Creating Layer conv3
I1109 04:55:41.036624 27234 net.cpp:454] conv3 <- norm2
I1109 04:55:41.036633 27234 net.cpp:411] conv3 -> conv3
I1109 04:55:41.067864 27234 cudnn_conv_layer.cpp:194] Reallocating workspace storage: 27648
I1109 04:55:41.067888 27234 net.cpp:150] Setting up conv3
I1109 04:55:41.067895 27234 net.cpp:157] Top shape: 256 384 13 13 (16613376)
I1109 04:55:41.067898 27234 net.cpp:165] Memory required for data: 1408041984
I1109 04:55:41.067909 27234 layer_factory.hpp:76] Creating layer relu3
I1109 04:55:41.067919 27234 net.cpp:106] Creating Layer relu3
I1109 04:55:41.067922 27234 net.cpp:454] relu3 <- conv3
I1109 04:55:41.067927 27234 net.cpp:397] relu3 -> conv3 (in-place)
I1109 04:55:41.068264 27234 net.cpp:150] Setting up relu3
I1109 04:55:41.068277 27234 net.cpp:157] Top shape: 256 384 13 13 (16613376)
I1109 04:55:41.068280 27234 net.cpp:165] Memory required for data: 1474495488
I1109 04:55:41.068284 27234 layer_factory.hpp:76] Creating layer conv4
I1109 04:55:41.068300 27234 net.cpp:106] Creating Layer conv4
I1109 04:55:41.068303 27234 net.cpp:454] conv4 <- conv3
I1109 04:55:41.068310 27234 net.cpp:411] conv4 -> conv4
I1109 04:55:41.092931 27234 cudnn_conv_layer.cpp:194] Reallocating workspace storage: 41472
I1109 04:55:41.092954 27234 net.cpp:150] Setting up conv4
I1109 04:55:41.092962 27234 net.cpp:157] Top shape: 256 384 13 13 (16613376)
I1109 04:55:41.092964 27234 net.cpp:165] Memory required for data: 1540948992
I1109 04:55:41.092972 27234 layer_factory.hpp:76] Creating layer relu4
I1109 04:55:41.092980 27234 net.cpp:106] Creating Layer relu4
I1109 04:55:41.092983 27234 net.cpp:454] relu4 <- conv4
I1109 04:55:41.093000 27234 net.cpp:397] relu4 -> conv4 (in-place)
I1109 04:55:41.093178 27234 net.cpp:150] Setting up relu4
I1109 04:55:41.093188 27234 net.cpp:157] Top shape: 256 384 13 13 (16613376)
I1109 04:55:41.093191 27234 net.cpp:165] Memory required for data: 1607402496
I1109 04:55:41.093194 27234 layer_factory.hpp:76] Creating layer conv5
I1109 04:55:41.093204 27234 net.cpp:106] Creating Layer conv5
I1109 04:55:41.093207 27234 net.cpp:454] conv5 <- conv4
I1109 04:55:41.093215 27234 net.cpp:411] conv5 -> conv5
I1109 04:55:41.110564 27234 cudnn_conv_layer.cpp:194] Reallocating workspace storage: 41472
I1109 04:55:41.110586 27234 net.cpp:150] Setting up conv5
I1109 04:55:41.110595 27234 net.cpp:157] Top shape: 256 256 13 13 (11075584)
I1109 04:55:41.110599 27234 net.cpp:165] Memory required for data: 1651704832
I1109 04:55:41.110608 27234 layer_factory.hpp:76] Creating layer relu5
I1109 04:55:41.110615 27234 net.cpp:106] Creating Layer relu5
I1109 04:55:41.110618 27234 net.cpp:454] relu5 <- conv5
I1109 04:55:41.110623 27234 net.cpp:397] relu5 -> conv5 (in-place)
I1109 04:55:41.110802 27234 net.cpp:150] Setting up relu5
I1109 04:55:41.110812 27234 net.cpp:157] Top shape: 256 256 13 13 (11075584)
I1109 04:55:41.110816 27234 net.cpp:165] Memory required for data: 1696007168
I1109 04:55:41.110821 27234 layer_factory.hpp:76] Creating layer pool5
I1109 04:55:41.110828 27234 net.cpp:106] Creating Layer pool5
I1109 04:55:41.110831 27234 net.cpp:454] pool5 <- conv5
I1109 04:55:41.110836 27234 net.cpp:411] pool5 -> pool5
I1109 04:55:41.111208 27234 net.cpp:150] Setting up pool5
I1109 04:55:41.111223 27234 net.cpp:157] Top shape: 256 256 6 6 (2359296)
I1109 04:55:41.111227 27234 net.cpp:165] Memory required for data: 1705444352
I1109 04:55:41.111230 27234 layer_factory.hpp:76] Creating layer fc6
I1109 04:55:41.111241 27234 net.cpp:106] Creating Layer fc6
I1109 04:55:41.111245 27234 net.cpp:454] fc6 <- pool5
I1109 04:55:41.111254 27234 net.cpp:411] fc6 -> fc6
I1109 04:55:42.406867 27234 net.cpp:150] Setting up fc6
I1109 04:55:42.406908 27234 net.cpp:157] Top shape: 256 4096 (1048576)
I1109 04:55:42.406913 27234 net.cpp:165] Memory required for data: 1709638656
I1109 04:55:42.406929 27234 layer_factory.hpp:76] Creating layer relu6
I1109 04:55:42.406944 27234 net.cpp:106] Creating Layer relu6
I1109 04:55:42.406951 27234 net.cpp:454] relu6 <- fc6
I1109 04:55:42.406957 27234 net.cpp:397] relu6 -> fc6 (in-place)
I1109 04:55:42.407385 27234 net.cpp:150] Setting up relu6
I1109 04:55:42.407397 27234 net.cpp:157] Top shape: 256 4096 (1048576)
I1109 04:55:42.407402 27234 net.cpp:165] Memory required for data: 1713832960
I1109 04:55:42.407404 27234 layer_factory.hpp:76] Creating layer drop6
I1109 04:55:42.407418 27234 net.cpp:106] Creating Layer drop6
I1109 04:55:42.407421 27234 net.cpp:454] drop6 <- fc6
I1109 04:55:42.407428 27234 net.cpp:397] drop6 -> fc6 (in-place)
I1109 04:55:42.407467 27234 net.cpp:150] Setting up drop6
I1109 04:55:42.407474 27234 net.cpp:157] Top shape: 256 4096 (1048576)
I1109 04:55:42.407482 27234 net.cpp:165] Memory required for data: 1718027264
I1109 04:55:42.407485 27234 layer_factory.hpp:76] Creating layer fc7
I1109 04:55:42.407502 27234 net.cpp:106] Creating Layer fc7
I1109 04:55:42.407507 27234 net.cpp:454] fc7 <- fc6
I1109 04:55:42.407512 27234 net.cpp:411] fc7 -> fc7
I1109 04:55:42.982234 27234 net.cpp:150] Setting up fc7
I1109 04:55:42.982270 27234 net.cpp:157] Top shape: 256 4096 (1048576)
I1109 04:55:42.982280 27234 net.cpp:165] Memory required for data: 1722221568
I1109 04:55:42.982290 27234 layer_factory.hpp:76] Creating layer relu7
I1109 04:55:42.982302 27234 net.cpp:106] Creating Layer relu7
I1109 04:55:42.982308 27234 net.cpp:454] relu7 <- fc7
I1109 04:55:42.982319 27234 net.cpp:397] relu7 -> fc7 (in-place)
I1109 04:55:42.982841 27234 net.cpp:150] Setting up relu7
I1109 04:55:42.982854 27234 net.cpp:157] Top shape: 256 4096 (1048576)
I1109 04:55:42.982861 27234 net.cpp:165] Memory required for data: 1726415872
I1109 04:55:42.982866 27234 layer_factory.hpp:76] Creating layer drop7
I1109 04:55:42.982894 27234 net.cpp:106] Creating Layer drop7
I1109 04:55:42.982899 27234 net.cpp:454] drop7 <- fc7
I1109 04:55:42.982906 27234 net.cpp:397] drop7 -> fc7 (in-place)
I1109 04:55:42.982933 27234 net.cpp:150] Setting up drop7
I1109 04:55:42.982939 27234 net.cpp:157] Top shape: 256 4096 (1048576)
I1109 04:55:42.982944 27234 net.cpp:165] Memory required for data: 1730610176
I1109 04:55:42.982947 27234 layer_factory.hpp:76] Creating layer fc8
I1109 04:55:42.982959 27234 net.cpp:106] Creating Layer fc8
I1109 04:55:42.982964 27234 net.cpp:454] fc8 <- fc7
I1109 04:55:42.982970 27234 net.cpp:411] fc8 -> fc8
I1109 04:55:42.992388 27234 net.cpp:150] Setting up fc8
I1109 04:55:42.992403 27234 net.cpp:157] Top shape: 256 1000 (256000)
I1109 04:55:42.992409 27234 net.cpp:165] Memory required for data: 1731634176
I1109 04:55:42.992421 27234 layer_factory.hpp:76] Creating layer loss
I1109 04:55:42.992435 27234 net.cpp:106] Creating Layer loss
I1109 04:55:42.992440 27234 net.cpp:454] loss <- fc8
I1109 04:55:42.992449 27234 net.cpp:454] loss <- label
I1109 04:55:42.992466 27234 net.cpp:411] loss -> loss
I1109 04:55:42.992481 27234 layer_factory.hpp:76] Creating layer loss
…
  }
  transform_param {
    scale: 0.027
    mirror: false
    crop_size: 224
    mean_value: 104
    mean_value: 117
    mean_value: 123
    force_color: true
    resize_param {
      prob: 1
      resize_mode: FIT_SMALL_SIZE
      height: 256
      width: 256
      pad_mode: MIRRORED
      pad_value: 104
      pad_value: 117
      pad_value: 124
      interp_mode: CUBIC
      center_object: false
      max_angle: 0
    }
  }
  data_param {
    source: "/home/nvidia/dataset/lmdb_from_home/ilsvrc12_val_lmdb"
    batch_size: 500
    backend: LMDB
  }
}
layer {
  name: "conv1"
  type: "Convolution"
  bottom: "data"
  top: "conv1"
  param {
    lr_mult: 1
    decay_mult: 1
  }
  param {
    lr_mult: 2
    decay_mult: 0
  }
  convolution_param {
    num_output: 96
    kernel_size: 11
    stride: 4
    weight_filler {
      type: "msra"
    }
    bias_filler {
      type: "constant"
    }
  }
}
layer {
  name: "relu1"
  type: "ReLU"
  bottom: "conv1"
  top: "conv1"
}
layer {
  name: "pool1"
  type: "Pooling"
  bottom: "conv1"
  top: "pool1"
  pooling_param {
    pool: MAX
    kernel_size: 3
    stride: 2
  }
}
layer {
  name: "norm1"
  type: "LRN"
  bottom: "pool1"
  top: "norm1"
  lrn_param {
    local_size: 5
    alpha: 0.0001
    beta: 0.75
  }
}
layer {
  name: "conv2"
  type: "Convolution"
  bottom: "norm1"
  top: "conv2"
  param {
    lr_mult: 1
    decay_mult: 1
  }
  param {
    lr_mult: 2
    decay_mult: 0
  }
  convolution_param {
    num_output: 256
    pad: 2
    kernel_size: 5
    group: 2
    weight_filler {
      type: "msra"
    }
    bias_filler {
      type: "constant"
    }
  }
}
layer {
  name: "relu2"
  type: "ReLU"
  bottom: "conv2"
  top: "conv2"
}
layer {
  name: "pool2"
  type: "Pooling"
  bottom: "conv2"
  top: "pool2"
  pooling_param {
    pool: MAX
    kernel_size: 3
    stride: 2
  }
}
layer {
  name: "norm2"
  type: "LRN"
  bottom: "pool2"
  top: "norm2"
  lrn_param {
    local_size: 5
    alpha: 0.0001
    beta: 0.75
  }
}
layer {
  name: "conv3"
  type: "Convolution"
  bottom: "norm2"
  top: "conv3"
  param {
    lr_mult: 1
    decay_mult: 1
  }
  param {
    lr_mult: 2
    decay_mult: 0
  }
  convolution_param {
    num_output: 384
    pad: 1
    kernel_size: 3
    weight_filler {
      type: "msra"
    }
    bias_filler {
      type: "constant"
    }
  }
}
layer {
  name: "relu3"
  type: "ReLU"
  bottom: "conv3"
  top: "conv3"
}
layer {
  name: "conv4"
  type: "Convolution"
  bottom: "conv3"
  top: "conv4"
  param {
    lr_mult: 1
    decay_mult: 1
  }
  param {
    lr_mult: 2
    decay_mult: 0
  }
  convolution_param {
    num_output: 384
    pad: 1
    kernel_size: 3
    group: 2
    weight_filler {
      type: "msra"
    }
    bias_filler {
      type: "constant"
    }
  }
}
layer {
  name: "relu4"
  type: "ReLU"
  bottom: "conv4"
  top: "conv4"
}
layer {
  name: "conv5"
  type: "Convolution"
  bottom: "conv4"
  top: "conv5"
  param {
    lr_mult: 1
    decay_mult: 1
  }
  param {
    lr_mult: 2
    decay_mult: 0
  }
  convolution_param {
    num_output: 256
    pad: 1
    kernel_size: 3
    group: 2
    weight_filler {
      type: "msra"
    }
    bias_filler {
      type: "constant"
    }
  }
}
layer {
  name: "relu5"
  type: "ReLU"
  bottom: "conv5"
  top: "conv5"
}
layer {
  name: "pool5"
  type: "Pooling"
  bottom: "conv5"
  top: "pool5"
  pooling_param {
    pool: MAX
    kernel_size: 3
    stride: 2
  }
}
layer {
  name: "fc6"
  type: "InnerProduct"
  bottom: "pool5"
  top: "fc6"
  param {
    lr_mult: 1
    decay_mult: 1
  }
  param {
    lr_mult: 2
    decay_mult: 0
  }
  inner_product_param {
    num_output: 4096
    weight_filler {
      type: "msra"
    }
    bias_filler {
      type: "constant"
    }
  }
}
layer {
  name: "relu6"
  type: "ReLU"
  bottom: "fc6"
  top: "fc6"
}
layer {
  name: "drop6"
  type: "Dropout"
  bottom: "fc6"
  top: "fc6"
  dropout_param {
    dropout_ratio: 0.5
  }
}
layer {
  name: "fc7"
  type: "InnerProduct"
  bottom: "fc6"
  top: "fc7"
  param {
    lr_mult: 1
    decay_mult: 1
  }
  param {
    lr_mult: 2
    decay_mult: 0
  }
  inner_product_param {
    num_output: 4096
    weight_filler {
      type: "msra"
    }
    bias_filler {
      type: "constant"
    }
  }
}
layer {
  name: "relu7"
  type: "ReLU"
  bottom: "fc7"
  top: "fc7"
}
layer {
  name: "drop7"
  type: "Dropout"
  bottom: "fc7"
  top: "fc7"
  dropout_param {
    dropout_ratio: 0.5
  }
}
layer {
  name: "fc8"
  type: "InnerProduct"
  bottom: "fc7"
  top: "fc8"
  param {
    lr_mult: 1
    decay_mult: 1
  }
  param {
    lr_mult: 2
    decay_mult: 0
  }
  inner_product_param {
    num_output: 1000
    weight_filler {
    }
    bias_filler {
      type: "constant"
    }
  }
}
layer {
  name: "accuracy"
  type: "Accuracy"
  bottom: "fc8"
  bottom: "label"
  top: "accuracy"
  include {
    phase: TEST
  }
}
layer {
  name: "loss"
  type: "SoftmaxWithLoss"
  bottom: "fc8"
  bottom: "label"
  top: "loss"
}
layer {
  name: "top5"
  type: "Accuracy"
  bottom: "fc8"
  bottom: "label"
  top: "top5"
  include {
    phase: TEST
  }
  accuracy_param {
    top_k: 5
  }
}
I1109 04:55:42.995081 27234 layer_factory.hpp:76] Creating layer data
I1109 04:55:42.995492 27234 net.cpp:106] Creating Layer data
I1109 04:55:42.995503 27234 net.cpp:411] data -> data
I1109 04:55:42.995515 27234 net.cpp:411] data -> label
I1109 04:55:42.996688 27242 db_lmdb.cpp:38] Opened lmdb /home/nvidia/dataset/lmdb_from_home/ilsvrc12_val_lmdb
I1109 04:55:42.999059 27234 data_layer.cpp:41] output data size: 500,3,224,224
I1109 04:55:43.575783 27234 net.cpp:150] Setting up data
I1109 04:55:43.575824 27234 net.cpp:157] Top shape: 500 3 224 224 (75264000)
I1109 04:55:43.575831 27234 net.cpp:157] Top shape: 500 (500)
I1109 04:55:43.575835 27234 net.cpp:165] Memory required for data: 301058000
I1109 04:55:43.575845 27234 layer_factory.hpp:76] Creating layer label_data_1_split
I1109 04:55:43.575886 27234 net.cpp:106] Creating Layer label_data_1_split
I1109 04:55:43.575893 27234 net.cpp:454] label_data_1_split <- label
I1109 04:55:43.575908 27234 net.cpp:411] label_data_1_split -> label_data_1_split_0
I1109 04:55:43.575923 27234 net.cpp:411] label_data_1_split -> label_data_1_split_1
I1109 04:55:43.575932 27234 net.cpp:411] label_data_1_split -> label_data_1_split_2
I1109 04:55:43.576323 27234 net.cpp:150] Setting up label_data_1_split
I1109 04:55:43.576345 27234 net.cpp:157] Top shape: 500 (500)
I1109 04:55:43.576351 27234 net.cpp:157] Top shape: 500 (500)
I1109 04:55:43.576355 27234 net.cpp:157] Top shape: 500 (500)
I1109 04:55:43.576359 27234 net.cpp:165] Memory required for data: 301064000
I1109 04:55:43.576365 27234 layer_factory.hpp:76] Creating layer conv1
I1109 04:55:43.576409 27234 net.cpp:106] Creating Layer conv1
I1109 04:55:43.576417 27234 net.cpp:454] conv1 <- data
I1109 04:55:43.576431 27234 net.cpp:411] conv1 -> conv1
I1109 04:55:43.579365 27234 cudnn_conv_layer.cpp:194] Reallocating workspace storage: 4356
I1109 04:55:43.579783 27234 net.cpp:150] Setting up conv1
I1109 04:55:43.579795 27234 net.cpp:157] Top shape: 500 96 54 54 (139968000)
I1109 04:55:43.579799 27234 net.cpp:165] Memory required for data: 860936000
I1109 04:55:43.579813 27234 layer_factory.hpp:76] Creating layer relu1
I1109 04:55:43.579833 27234 net.cpp:106] Creating Layer relu1
I1109 04:55:43.579840 27234 net.cpp:454] relu1 <- conv1
I1109 04:55:43.579846 27234 net.cpp:397] relu1 -> conv1 (in-place)
I1109 04:55:43.619071 27234 net.cpp:150] Setting up relu1
I1109 04:55:43.619091 27234 net.cpp:157] Top shape: 500 96 54 54 (139968000)
I1109 04:55:43.619096 27234 net.cpp:165] Memory required for data: 1420808000
I1109 04:55:43.619099 27234 layer_factory.hpp:76] Creating layer pool1
I1109 04:55:43.619117 27234 net.cpp:106] Creating Layer pool1
I1109 04:55:43.619128 27234 net.cpp:454] pool1 <- conv1
I1109 04:55:43.619150 27234 net.cpp:411] pool1 -> pool1
I1109 04:55:43.619465 27234 net.cpp:150] Setting up pool1
I1109 04:55:43.619479 27234 net.cpp:157] Top shape: 500 96 27 27 (34992000)
I1109 04:55:43.619483 27234 net.cpp:165] Memory required for data: 1560776000
I1109 04:55:43.619487 27234 layer_factory.hpp:76] Creating layer norm1
I1109 04:55:43.619503 27234 net.cpp:106] Creating Layer norm1
I1109 04:55:43.619508 27234 net.cpp:454] norm1 <- pool1
I1109 04:55:43.619529 27234 net.cpp:411] norm1 -> norm1
I1109 04:55:43.620014 27234 net.cpp:150] Setting up norm1
I1109 04:55:43.620046 27234 net.cpp:157] Top shape: 500 96 27 27 (34992000)
I1109 04:55:43.620050 27234 net.cpp:165] Memory required for data: 1700744000
I1109 04:55:43.620055 27234 layer_factory.hpp:76] Creating layer conv2
I1109 04:55:43.620077 27234 net.cpp:106] Creating Layer conv2
I1109 04:55:43.620084 27234 net.cpp:454] conv2 <- norm1
I1109 04:55:43.620090 27234 net.cpp:411] conv2 -> conv2
I1109 04:55:43.632966 27234 cudnn_conv_layer.cpp:194] Reallocating workspace storage: 28800
I1109 04:55:43.632997 27234 net.cpp:150] Setting up conv2
I1109 04:55:43.633007 27234 net.cpp:157] Top shape: 500 256 27 27 (93312000)
I1109 04:55:43.633009 27234 net.cpp:165] Memory required for data: 2073992000
I1109 04:55:43.633023 27234 layer_factory.hpp:76] Creating layer relu2
I1109 04:55:43.633034 27234 net.cpp:106] Creating Layer relu2
I1109 04:55:43.633041 27234 net.cpp:454] relu2 <- conv2
I1109 04:55:43.633054 27234 net.cpp:397] relu2 -> conv2 (in-place)
I1109 04:55:43.633468 27234 net.cpp:150] Setting up relu2
I1109 04:55:43.633483 27234 net.cpp:157] Top shape: 500 256 27 27 (93312000)
I1109 04:55:43.633491 27234 net.cpp:165] Memory required for data: 2447240000
I1109 04:55:43.633497 27234 layer_factory.hpp:76] Creating layer pool2
I1109 04:55:43.633509 27234 net.cpp:106] Creating Layer pool2
I1109 04:55:43.633515 27234 net.cpp:454] pool2 <- conv2
I1109 04:55:43.633523 27234 net.cpp:411] pool2 -> pool2
I1109 04:55:43.633942 27234 net.cpp:150] Setting up pool2
I1109 04:55:43.633957 27234 net.cpp:157] Top shape: 500 256 13 13 (21632000)
I1109 04:55:43.633965 27234 net.cpp:165] Memory required for data: 2533768000
I1109 04:55:43.633970 27234 layer_factory.hpp:76] Creating layer norm2
I1109 04:55:43.633978 27234 net.cpp:106] Creating Layer norm2
I1109 04:55:43.633983 27234 net.cpp:454] norm2 <- pool2
I1109 04:55:43.633991 27234 net.cpp:411] norm2 -> norm2
I1109 04:55:43.634220 27234 net.cpp:150] Setting up norm2
I1109 04:55:43.634232 27234 net.cpp:157] Top shape: 500 256 13 13 (21632000)
I1109 04:55:43.634237 27234 net.cpp:165] Memory required for data: 2620296000
I1109 04:55:43.634243 27234 layer_factory.hpp:76] Creating layer conv3
I1109 04:55:43.634256 27234 net.cpp:106] Creating Layer conv3
I1109 04:55:43.634261 27234 net.cpp:454] conv3 <- norm2
I1109 04:55:43.634274 27234 net.cpp:411] conv3 -> conv3
I1109 04:55:43.666627 27234 cudnn_conv_layer.cpp:194] Reallocating workspace storage: 27648
I1109 04:55:43.666654 27234 net.cpp:150] Setting up conv3
I1109 04:55:43.666663 27234 net.cpp:157] Top shape: 500 384 13 13 (32448000)
I1109 04:55:43.666669 27234 net.cpp:165] Memory required for data: 2750088000
I1109 04:55:43.666684 27234 layer_factory.hpp:76] Creating layer relu3
I1109 04:55:43.666693 27234 net.cpp:106] Creating Layer relu3
I1109 04:55:43.666699 27234 net.cpp:454] relu3 <- conv3
I1109 04:55:43.666712 27234 net.cpp:397] relu3 -> conv3 (in-place)
I1109 04:55:43.666903 27234 net.cpp:150] Setting up relu3
I1109 04:55:43.666916 27234 net.cpp:157] Top shape: 500 384 13 13 (32448000)
I1109 04:55:43.666921 27234 net.cpp:165] Memory required for data: 2879880000
I1109 04:55:43.666926 27234 layer_factory.hpp:76] Creating layer conv4
I1109 04:55:43.666947 27234 net.cpp:106] Creating Layer conv4
I1109 04:55:43.666954 27234 net.cpp:454] conv4 <- conv3
I1109 04:55:43.666963 27234 net.cpp:411] conv4 -> conv4
I1109 04:55:43.693929 27234 cudnn_conv_layer.cpp:194] Reallocating workspace storage: 41472
I1109 04:55:43.693964 27234 net.cpp:150] Setting up conv4
I1109 04:55:43.693974 27234 net.cpp:157] Top shape: 500 384 13 13 (32448000)
I1109 04:55:43.693977 27234 net.cpp:165] Memory required for data: 3009672000
I1109 04:55:43.693989 27234 layer_factory.hpp:76] Creating layer relu4
I1109 04:55:43.694001 27234 net.cpp:106] Creating Layer relu4
I1109 04:55:43.694007 27234 net.cpp:454] relu4 <- conv4
I1109 04:55:43.694015 27234 net.cpp:397] relu4 -> conv4 (in-place)
I1109 04:55:43.694370 27234 net.cpp:150] Setting up relu4
I1109 04:55:43.694383 27234 net.cpp:157] Top shape: 500 384 13 13 (32448000)
I1109 04:55:43.694387 27234 net.cpp:165] Memory required for data: 3139464000
I1109 04:55:43.694418 27234 layer_factory.hpp:76] Creating layer conv5
I1109 04:55:43.694432 27234 net.cpp:106] Creating Layer conv5
I1109 04:55:43.694437 27234 net.cpp:454] conv5 <- conv4
I1109 04:55:43.694445 27234 net.cpp:411] conv5 -> conv5
I1109 04:55:43.711627 27234 cudnn_conv_layer.cpp:194] Reallocating workspace storage: 41472
I1109 04:55:43.711652 27234 net.cpp:150] Setting up conv5
I1109 04:55:43.711659 27234 net.cpp:157] Top shape: 500 256 13 13 (21632000)
I1109 04:55:43.711663 27234 net.cpp:165] Memory required for data: 3225992000
I1109 04:55:43.711673 27234 layer_factory.hpp:76] Creating layer relu5
I1109 04:55:43.711689 27234 net.cpp:106] Creating Layer relu5
I1109 04:55:43.711694 27234 net.cpp:454] relu5 <- conv5
I1109 04:55:43.711704 27234 net.cpp:397] relu5 -> conv5 (in-place)
I1109 04:55:43.712059 27234 net.cpp:150] Setting up relu5
I1109 04:55:43.712071 27234 net.cpp:157] Top shape: 500 256 13 13 (21632000)
I1109 04:55:43.712075 27234 net.cpp:165] Memory required for data: 3312520000
I1109 04:55:43.712080 27234 layer_factory.hpp:76] Creating layer pool5
I1109 04:55:43.712090 27234 net.cpp:106] Creating Layer pool5
I1109 04:55:43.712095 27234 net.cpp:454] pool5 <- conv5
I1109 04:55:43.712102 27234 net.cpp:411] pool5 -> pool5
I1109 04:55:43.712327 27234 net.cpp:150] Setting up pool5
I1109 04:55:43.712337 27234 net.cpp:157] Top shape: 500 256 6 6 (4608000)
I1109 04:55:43.712343 27234 net.cpp:165] Memory required for data: 3330952000
I1109 04:55:43.712348 27234 layer_factory.hpp:76] Creating layer fc6
I1109 04:55:43.712359 27234 net.cpp:106] Creating Layer fc6
I1109 04:55:43.712364 27234 net.cpp:454] fc6 <- pool5
I1109 04:55:43.712370 27234 net.cpp:411] fc6 -> fc6
I1109 04:55:45.025935 27234 net.cpp:150] Setting up fc6
I1109 04:55:45.025967 27234 net.cpp:157] Top shape: 500 4096 (2048000)
I1109 04:55:45.025972 27234 net.cpp:165] Memory required for data: 3339144000
I1109 04:55:45.025982 27234 layer_factory.hpp:76] Creating layer relu6
I1109 04:55:45.025992 27234 net.cpp:106] Creating Layer relu6
I1109 04:55:45.025997 27234 net.cpp:454] relu6 <- fc6
I1109 04:55:45.026005 27234 net.cpp:397] relu6 -> fc6 (in-place)
I1109 04:55:45.026571 27234 net.cpp:150] Setting up relu6
I1109 04:55:45.026584 27234 net.cpp:157] Top shape: 500 4096 (2048000)
I1109 04:55:45.026587 27234 net.cpp:165] Memory required for data: 3347336000
I1109 04:55:45.026592 27234 layer_factory.hpp:76] Creating layer drop6
I1109 04:55:45.026605 27234 net.cpp:106] Creating Layer drop6
I1109 04:55:45.026609 27234 net.cpp:454] drop6 <- fc6
I1109 04:55:45.026614 27234 net.cpp:397] drop6 -> fc6 (in-place)
I1109 04:55:45.026653 27234 net.cpp:150] Setting up drop6
I1109 04:55:45.026659 27234 net.cpp:157] Top shape: 500 4096 (2048000)
I1109 04:55:45.026667 27234 net.cpp:165] Memory required for data: 3355528000
I1109 04:55:45.026671 27234 layer_factory.hpp:76] Creating layer fc7
I1109 04:55:45.026685 27234 net.cpp:106] Creating Layer fc7
I1109 04:55:45.026690 27234 net.cpp:454] fc7 <- fc6
I1109 04:55:45.026700 27234 net.cpp:411] fc7 -> fc7
I1109 04:55:45.610137 27234 net.cpp:150] Setting up fc7
I1109 04:55:45.610188 27234 net.cpp:157] Top shape: 500 4096 (2048000)
I1109 04:55:45.610193 27234 net.cpp:165] Memory required for data: 3363720000
I1109 04:55:45.610204 27234 layer_factory.hpp:76] Creating layer relu7
I1109 04:55:45.610215 27234 net.cpp:106] Creating Layer relu7
I1109 04:55:45.610224 27234 net.cpp:454] relu7 <- fc7
I1109 04:55:45.610239 27234 net.cpp:397] relu7 -> fc7 (in-place)
I1109 04:55:45.610611 27234 net.cpp:150] Setting up relu7
I1109 04:55:45.610627 27234 net.cpp:157] Top shape: 500 4096 (2048000)
I1109 04:55:45.610631 27234 net.cpp:165] Memory required for data: 3371912000
I1109 04:55:45.610635 27234 layer_factory.hpp:76] Creating layer drop7
I1109 04:55:45.610644 27234 net.cpp:106] Creating Layer drop7
I1109 04:55:45.610656 27234 net.cpp:454] drop7 <- fc7
I1109 04:55:45.610667 27234 net.cpp:397] drop7 -> fc7 (in-place)
I1109 04:55:45.610729 27234 net.cpp:150] Setting up drop7
I1109 04:55:45.610738 27234 net.cpp:157] Top shape: 500 4096 (2048000)
I1109 04:55:45.610759 27234 net.cpp:165] Memory required for data: 3380104000
I1109 04:55:45.610764 27234 layer_factory.hpp:76] Creating layer fc8
I1109 04:55:45.610776 27234 net.cpp:106] Creating Layer fc8
I1109 04:55:45.610781 27234 net.cpp:454] fc8 <- fc7
I1109 04:55:45.610788 27234 net.cpp:411] fc8 -> fc8
I1109 04:55:45.624675 27234 net.cpp:150] Setting up fc8
I1109 04:55:45.624709 27234 net.cpp:157] Top shape: 500 1000 (500000)
I1109 04:55:45.624713 27234 net.cpp:165] Memory required for data: 3382104000
I1109 04:55:45.624723 27234 layer_factory.hpp:76] Creating layer fc8_fc8_0_split
I1109 04:55:45.624737 27234 net.cpp:106] Creating Layer fc8_fc8_0_split
I1109 04:55:45.624743 27234 net.cpp:454] fc8_fc8_0_split <- fc8
I1109 04:55:45.624752 27234 net.cpp:411] fc8_fc8_0_split -> fc8_fc8_0_split_0
I1109 04:55:45.624768 27234 net.cpp:411] fc8_fc8_0_split -> fc8_fc8_0_split_1
I1109 04:55:45.624776 27234 net.cpp:411] fc8_fc8_0_split -> fc8_fc8_0_split_2
I1109 04:55:45.624835 27234 net.cpp:150] Setting up fc8_fc8_0_split
I1109 04:55:45.624842 27234 net.cpp:157] Top shape: 500 1000 (500000)
I1109 04:55:45.624850 27234 net.cpp:157] Top shape: 500 1000 (500000)
I1109 04:55:45.624858 27234 net.cpp:157] Top shape: 500 1000 (500000)
I1109 04:55:45.624862 27234 net.cpp:165] Memory required for data: 3388104000
I1109 04:55:45.624866 27234 layer_factory.hpp:76] Creating layer accuracy
I1109 04:55:45.624881 27234 net.cpp:106] Creating Layer accuracy
I1109 04:55:45.624886 27234 net.cpp:454] accuracy <- fc8_fc8_0_split_0
I1109 04:55:45.624892 27234 net.cpp:454] accuracy <- label_data_1_split_0
I1109 04:55:45.624899 27234 net.cpp:411] accuracy -> accuracy
…
