…
      mirror: false
      crop_size: 128
      mean_value: 104
      mean_value: 117
      mean_value: 123
      force_color: true
      resize_param {
        prob: 1
        resize_mode: WARP
        height: 144
        width: 144
        pad_mode: MIRRORED
        pad_value: 104
        pad_value: 117
        pad_value: 124
        interp_mode: LINEAR
        center_object: false
        max_angle: 0
      }
    }
    data_param {
      source: "/home/old-ufo/datasets/imagenet/ilsvrc12_val_lmdb"
      batch_size: 50
      backend: LMDB
    }
  }
  layer {
    name: "conv1"
    type: "Convolution"
    bottom: "data"
    top: "conv1"
    param {
      lr_mult: 1
      decay_mult: 1
    }
    param {
      lr_mult: 2
      decay_mult: 0
    }
    convolution_param {
      num_output: 96
      kernel_size: 11
      stride: 4
      weight_filler {
        type: "gaussian"
        std: 0.01
      }
      bias_filler {
        type: "constant"
        value: 0
      }
    }
  }
  layer {
    name: "relu1"
    type: "ReLU"
    bottom: "conv1"
    top: "conv1"
  }
  layer {
    name: "TreepoolKernel1L_1"
    type: "TreepoolKernel1L"
    bottom: "conv1"
    top: "TreepoolKernel1L_1"
    param {
      lr_mult: 1
      decay_mult: 1
    }
    param {
      lr_mult: 1
      decay_mult: 1
    }
    param {
      lr_mult: 1
      decay_mult: 1
    }
    convolution_param {
      kernel_size: 3
      stride: 2
      weight_filler {
        type: "gaussian"
        std: 0.1
      }
    }
  }
  layer {
    name: "conv2"
    type: "Convolution"
    bottom: "TreepoolKernel1L_1"
    top: "conv2"
    param {
      lr_mult: 1
      decay_mult: 1
    }
    param {
      lr_mult: 2
      decay_mult: 0
    }
    convolution_param {
      num_output: 256
      pad: 2
      kernel_size: 5
      group: 2
      weight_filler {
        type: "gaussian"
        std: 0.01
      }
      bias_filler {
        type: "constant"
        value: 0.1
      }
    }
  }
  layer {
    name: "relu2"
    type: "ReLU"
    bottom: "conv2"
    top: "relu2"
  }
  layer {
    name: "TreepoolMaxAve_2"
    type: "TreepoolMaxAve"
    bottom: "relu2"
    top: "TreepoolMaxAve_2"
    param {
      lr_mult: 1
      decay_mult: 1
    }
    convolution_param {
      kernel_size: 3
      stride: 2
      weight_filler {
        type: "gaussian"
        std: 0.1
      }
    }
  }
  layer {
    name: "conv3"
    type: "Convolution"
    bottom: "TreepoolMaxAve_2"
    top: "conv3"
    param {
      lr_mult: 1
      decay_mult: 1
    }
    param {
      lr_mult: 2
      decay_mult: 0
    }
    convolution_param {
      num_output: 384
      pad: 1
      kernel_size: 3
      weight_filler {
        type: "gaussian"
        std: 0.01
      }
      bias_filler {
        type: "constant"
        value: 0
      }
    }
  }
  layer {
    name: "relu3"
    type: "ReLU"
    bottom: "conv3"
    top: "conv3"
  }
  layer {
    name: "conv4"
    type: "Convolution"
    bottom: "conv3"
    top: "conv4"
    param {
      lr_mult: 1
      decay_mult: 1
    }
    param {
      lr_mult: 2
      decay_mult: 0
    }
    convolution_param {
      num_output: 384
      pad: 1
      kernel_size: 3
      group: 2
      weight_filler {
        type: "gaussian"
        std: 0.01
      }
      bias_filler {
        type: "constant"
        value: 0.1
      }
    }
  }
  layer {
    name: "relu4"
    type: "ReLU"
    bottom: "conv4"
    top: "conv4"
  }
  layer {
    name: "conv5"
    type: "Convolution"
    bottom: "conv4"
    top: "conv5"
    param {
      lr_mult: 1
      decay_mult: 1
    }
    param {
      lr_mult: 2
      decay_mult: 0
    }
    convolution_param {
      num_output: 256
      pad: 1
      kernel_size: 3
      group: 2
      weight_filler {
        type: "gaussian"
        std: 0.01
      }
      bias_filler {
        type: "constant"
        value: 0.1
      }
    }
  }
  layer {
    name: "relu5"
    type: "ReLU"
    bottom: "conv5"
    top: "conv5"
  }
  layer {
    name: "TreepoolMaxAve_3"
    type: "TreepoolMaxAve"
    bottom: "conv5"
    top: "TreepoolMaxAve_3"
    param {
      lr_mult: 1
      decay_mult: 1
    }
    convolution_param {
      kernel_size: 3
      stride: 2
      weight_filler {
        type: "gaussian"
        std: 0.1
      }
    }
  }
  layer {
    name: "fc6"
    type: "InnerProduct"
    bottom: "TreepoolMaxAve_3"
    top: "fc6"
    param {
      lr_mult: 1
      decay_mult: 1
    }
    param {
      lr_mult: 2
      decay_mult: 0
    }
    inner_product_param {
      num_output: 2048
      weight_filler {
        type: "gaussian"
        std: 0.005
      }
      bias_filler {
        type: "constant"
      }
    }
  }
  layer {
    name: "relu6"
    type: "ReLU"
    bottom: "fc6"
    top: "fc6"
  }
  layer {
    name: "drop6"
    type: "Dropout"
    bottom: "fc6"
    top: "fc6"
    dropout_param {
      dropout_ratio: 0.5
    }
  }
  layer {
    name: "fc7"
    type: "InnerProduct"
    bottom: "fc6"
    top: "fc7"
    param {
      lr_mult: 1
      decay_mult: 1
    }
    param {
      lr_mult: 2
      decay_mult: 0
    }
    inner_product_param {
      num_output: 2048
      weight_filler {
        type: "gaussian"
        std: 0.005
      }
      bias_filler {
        type: "constant"
      }
    }
  }
  layer {
    name: "relu7"
    type: "ReLU"
    bottom: "fc7"
    top: "fc7"
  }
  layer {
    name: "drop7"
    type: "Dropout"
    bottom: "fc7"
    top: "fc7"
    dropout_param {
      dropout_ratio: 0.5
    }
  }
  layer {
    name: "fc8"
    type: "InnerProduct"
    bottom: "fc7"
    top: "fc8"
    param {
      lr_mult: 1
      decay_mult: 1
    }
    param {
      lr_mult: 2
      decay_mult: 0
    }
    inner_product_param {
      num_output: 1000
      weight_filler {
        type: "gaussian"
        std: 0.01
      }
      bias_filler {
        type: "constant"
        value: 0
      }
    }
  }
  layer {
    name: "accuracy"
    type: "Accuracy"
    bottom: "fc8"
    bottom: "label"
    top: "accuracy"
    include {
      phase: TEST
    }
  }
  layer {
    name: "loss"
    type: "SoftmaxWithLoss"
    bottom: "fc8"
    bottom: "label"
    top: "loss"
  }
}
test_initialization: false
type: "SGD"
I0211 16:26:47.427160 22735 solver.cpp:86] Creating training net specified in net_param.
I0211 16:26:47.427309 22735 net.cpp:322] The NetState phase (0) differed from the phase (1) specified by a rule in layer data
I0211 16:26:47.427361 22735 net.cpp:322] The NetState phase (0) differed from the phase (1) specified by a rule in layer accuracy
I0211 16:26:47.427528 22735 net.cpp:49] Initializing net from parameters: 
name: "AlexNet_with_Generalized_Pooling"
state {
  phase: TRAIN
}
layer {
  name: "data"
  type: "Data"
  top: "data"
  top: "label"
  include {
    phase: TRAIN
  }
  transform_param {
    scale: 0.04
    mirror: true
    crop_size: 128
    mean_value: 104
    mean_value: 117
    mean_value: 124
    force_color: true
    resize_param {
      prob: 1
      resize_mode: WARP
      height: 144
      width: 144
      pad_mode: MIRRORED
      pad_value: 104
      pad_value: 117
      pad_value: 124
      interp_mode: LINEAR
      center_object: false
      max_angle: 0
    }
  }
  data_param {
    source: "/home/old-ufo/datasets/imagenet/ilsvrc12_train_shuffle_lmdb"
    batch_size: 256
    backend: LMDB
  }
}
layer {
  name: "conv1"
  type: "Convolution"
  bottom: "data"
  top: "conv1"
  param {
    lr_mult: 1
    decay_mult: 1
  }
  param {
    lr_mult: 2
    decay_mult: 0
  }
  convolution_param {
    num_output: 96
    kernel_size: 11
    stride: 4
    weight_filler {
      type: "gaussian"
      std: 0.01
    }
    bias_filler {
      type: "constant"
      value: 0
    }
  }
}
layer {
  name: "relu1"
  type: "ReLU"
  bottom: "conv1"
  top: "conv1"
}
layer {
  name: "TreepoolKernel1L_1"
  type: "TreepoolKernel1L"
  bottom: "conv1"
  top: "TreepoolKernel1L_1"
  param {
    lr_mult: 1
    decay_mult: 1
  }
  param {
    lr_mult: 1
    decay_mult: 1
  }
  param {
    lr_mult: 1
    decay_mult: 1
  }
  convolution_param {
    kernel_size: 3
    stride: 2
    weight_filler {
      type: "gaussian"
      std: 0.1
    }
  }
}
layer {
  name: "conv2"
  type: "Convolution"
  bottom: "TreepoolKernel1L_1"
  top: "conv2"
  param {
    lr_mult: 1
    decay_mult: 1
  }
  param {
    lr_mult: 2
    decay_mult: 0
  }
  convolution_param {
    num_output: 256
    pad: 2
    kernel_size: 5
    group: 2
    weight_filler {
      type: "gaussian"
      std: 0.01
    }
    bias_filler {
      type: "constant"
      value: 0.1
    }
  }
}
layer {
  name: "relu2"
  type: "ReLU"
  bottom: "conv2"
  top: "relu2"
}
layer {
  name: "TreepoolMaxAve_2"
  type: "TreepoolMaxAve"
  bottom: "relu2"
  top: "TreepoolMaxAve_2"
  param {
    lr_mult: 1
    decay_mult: 1
  }
  convolution_param {
    kernel_size: 3
    stride: 2
    weight_filler {
      type: "gaussian"
      std: 0.1
    }
  }
}
layer {
  name: "conv3"
  type: "Convolution"
  bottom: "TreepoolMaxAve_2"
  top: "conv3"
  param {
    lr_mult: 1
    decay_mult: 1
  }
  param {
    lr_mult: 2
    decay_mult: 0
  }
  convolution_param {
    num_output: 384
    pad: 1
    kernel_size: 3
    weight_filler {
      type: "gaussian"
      std: 0.01
    }
    bias_filler {
      type: "constant"
      value: 0
    }
  }
}
layer {
  name: "relu3"
  type: "ReLU"
  bottom: "conv3"
  top: "conv3"
}
layer {
  name: "conv4"
  type: "Convolution"
  bottom: "conv3"
  top: "conv4"
  param {
    lr_mult: 1
    decay_mult: 1
  }
  param {
    lr_mult: 2
    decay_mult: 0
  }
  convolution_param {
    num_output: 384
    pad: 1
    kernel_size: 3
    group: 2
    weight_filler {
      type: "gaussian"
      std: 0.01
    }
    bias_filler {
      type: "constant"
      value: 0.1
    }
  }
}
layer {
  name: "relu4"
  type: "ReLU"
  bottom: "conv4"
  top: "conv4"
}
layer {
  name: "conv5"
  type: "Convolution"
  bottom: "conv4"
  top: "conv5"
  param {
    lr_mult: 1
    decay_mult: 1
  }
  param {
    lr_mult: 2
    decay_mult: 0
  }
  convolution_param {
    num_output: 256
    pad: 1
    kernel_size: 3
    group: 2
    weight_filler {
      type: "gaussian"
      std: 0.01
    }
    bias_filler {
      type: "constant"
      value: 0.1
    }
  }
}
layer {
  name: "relu5"
  type: "ReLU"
  bottom: "conv5"
  top: "conv5"
}
layer {
  name: "TreepoolMaxAve_3"
  type: "TreepoolMaxAve"
  bottom: "conv5"
  top: "TreepoolMaxAve_3"
  param {
    lr_mult: 1
    decay_mult: 1
  }
  convolution_param {
    kernel_size: 3
    stride: 2
    weight_filler {
      type: "gaussian"
      std: 0.1
    }
  }
}
layer {
  name: "fc6"
  type: "InnerProduct"
  bottom: "TreepoolMaxAve_3"
  top: "fc6"
  param {
    lr_mult: 1
    decay_mult: 1
  }
  param {
    lr_mult: 2
    decay_mult: 0
  }
  inner_product_param {
    num_output: 2048
    weight_filler {
      type: "gaussian"
      std: 0.005
    }
    bias_filler {
      type: "constant"
    }
  }
}
layer {
  name: "relu6"
  type: "ReLU"
  bottom: "fc6"
  top: "fc6"
}
layer {
  name: "drop6"
  type: "Dropout"
  bottom: "fc6"
  top: "fc6"
  dropout_param {
    dropout_ratio: 0.5
  }
}
layer {
  name: "fc7"
  type: "InnerProduct"
  bottom: "fc6"
  top: "fc7"
  param {
    lr_mult: 1
    decay_mult: 1
  }
  param {
    lr_mult: 2
    decay_mult: 0
  }
  inner_product_param {
    num_output: 2048
    weight_filler {
      type: "gaussian"
      std: 0.005
    }
    bias_filler {
      type: "constant"
    }
  }
}
layer {
  name: "relu7"
  type: "ReLU"
  bottom: "fc7"
  top: "fc7"
}
layer {
  name: "drop7"
  type: "Dropout"
  bottom: "fc7"
  top: "fc7"
  dropout_param {
    dropout_ratio: 0.5
  }
}
layer {
  name: "fc8"
  type: "InnerProduct"
  bottom: "fc7"
  top: "fc8"
  param {
    lr_mult: 1
    decay_mult: 1
  }
  param {
    lr_mult: 2
    decay_mult: 0
  }
  inner_product_param {
    num_output: 1000
    weight_filler {
      type: "gaussian"
      std: 0.01
    }
    bias_filler {
      type: "constant"
      value: 0
    }
  }
}
layer {
  name: "loss"
  type: "SoftmaxWithLoss"
  bottom: "fc8"
  bottom: "label"
  top: "loss"
}
I0211 16:26:47.427656 22735 layer_factory.hpp:76] Creating layer data
I0211 16:26:47.428236 22735 net.cpp:106] Creating Layer data
I0211 16:26:47.428263 22735 net.cpp:411] data -> data
I0211 16:26:47.428313 22735 net.cpp:411] data -> label
I0211 16:26:47.428992 22739 db_lmdb.cpp:38] Opened lmdb /home/old-ufo/datasets/imagenet/ilsvrc12_train_shuffle_lmdb
I0211 16:26:47.444079 22735 data_layer.cpp:41] output data size: 256,3,128,128
I0211 16:26:47.518405 22735 net.cpp:150] Setting up data
I0211 16:26:47.518554 22735 net.cpp:157] Top shape: 256 3 128 128 (12582912)
I0211 16:26:47.518602 22735 net.cpp:157] Top shape: 256 (256)
I0211 16:26:47.518640 22735 net.cpp:165] Memory required for data: 50332672
I0211 16:26:47.518684 22735 layer_factory.hpp:76] Creating layer conv1
I0211 16:26:47.518744 22735 net.cpp:106] Creating Layer conv1
I0211 16:26:47.518754 22735 net.cpp:454] conv1 <- data
I0211 16:26:47.518791 22735 net.cpp:411] conv1 -> conv1
I0211 16:26:47.742862 22735 net.cpp:150] Setting up conv1
I0211 16:26:47.742933 22735 net.cpp:157] Top shape: 256 96 30 30 (22118400)
I0211 16:26:47.742952 22735 net.cpp:165] Memory required for data: 138806272
I0211 16:26:47.742990 22735 layer_factory.hpp:76] Creating layer relu1
I0211 16:26:47.743018 22735 net.cpp:106] Creating Layer relu1
I0211 16:26:47.743037 22735 net.cpp:454] relu1 <- conv1
I0211 16:26:47.743058 22735 net.cpp:397] relu1 -> conv1 (in-place)
I0211 16:26:47.743857 22735 net.cpp:150] Setting up relu1
I0211 16:26:47.743891 22735 net.cpp:157] Top shape: 256 96 30 30 (22118400)
I0211 16:26:47.743912 22735 net.cpp:165] Memory required for data: 227279872
I0211 16:26:47.743929 22735 layer_factory.hpp:76] Creating layer TreepoolKernel1L_1
I0211 16:26:47.743962 22735 net.cpp:106] Creating Layer TreepoolKernel1L_1
I0211 16:26:47.743980 22735 net.cpp:454] TreepoolKernel1L_1 <- conv1
I0211 16:26:47.744001 22735 net.cpp:411] TreepoolKernel1L_1 -> TreepoolKernel1L_1
I0211 16:26:47.744784 22735 net.cpp:150] Setting up TreepoolKernel1L_1
I0211 16:26:47.744820 22735 net.cpp:157] Top shape: 256 96 15 15 (5529600)
I0211 16:26:47.744838 22735 net.cpp:165] Memory required for data: 249398272
I0211 16:26:47.744865 22735 layer_factory.hpp:76] Creating layer conv2
I0211 16:26:47.744897 22735 net.cpp:106] Creating Layer conv2
I0211 16:26:47.744916 22735 net.cpp:454] conv2 <- TreepoolKernel1L_1
I0211 16:26:47.744936 22735 net.cpp:411] conv2 -> conv2
I0211 16:26:47.770367 22735 net.cpp:150] Setting up conv2
I0211 16:26:47.775101 22735 net.cpp:157] Top shape: 256 256 15 15 (14745600)
I0211 16:26:47.775132 22735 net.cpp:165] Memory required for data: 308380672
I0211 16:26:47.775159 22735 layer_factory.hpp:76] Creating layer relu2
I0211 16:26:47.775187 22735 net.cpp:106] Creating Layer relu2
I0211 16:26:47.775207 22735 net.cpp:454] relu2 <- conv2
I0211 16:26:47.775229 22735 net.cpp:411] relu2 -> relu2
I0211 16:26:47.776170 22735 net.cpp:150] Setting up relu2
I0211 16:26:47.776206 22735 net.cpp:157] Top shape: 256 256 15 15 (14745600)
I0211 16:26:47.776233 22735 net.cpp:165] Memory required for data: 367363072
I0211 16:26:47.776262 22735 layer_factory.hpp:76] Creating layer TreepoolMaxAve_2
I0211 16:26:47.776286 22735 net.cpp:106] Creating Layer TreepoolMaxAve_2
I0211 16:26:47.776306 22735 net.cpp:454] TreepoolMaxAve_2 <- relu2
I0211 16:26:47.776358 22735 net.cpp:411] TreepoolMaxAve_2 -> TreepoolMaxAve_2
I0211 16:26:47.776569 22735 net.cpp:150] Setting up TreepoolMaxAve_2
I0211 16:26:47.776594 22735 net.cpp:157] Top shape: 256 256 7 7 (3211264)
I0211 16:26:47.776612 22735 net.cpp:165] Memory required for data: 380208128
I0211 16:26:47.776633 22735 layer_factory.hpp:76] Creating layer conv3
I0211 16:26:47.776656 22735 net.cpp:106] Creating Layer conv3
I0211 16:26:47.776675 22735 net.cpp:454] conv3 <- TreepoolMaxAve_2
I0211 16:26:47.776695 22735 net.cpp:411] conv3 -> conv3
I0211 16:26:47.813237 22735 net.cpp:150] Setting up conv3
I0211 16:26:47.813309 22735 net.cpp:157] Top shape: 256 384 7 7 (4816896)
I0211 16:26:47.813339 22735 net.cpp:165] Memory required for data: 399475712
I0211 16:26:47.813374 22735 layer_factory.hpp:76] Creating layer relu3
I0211 16:26:47.813402 22735 net.cpp:106] Creating Layer relu3
I0211 16:26:47.813426 22735 net.cpp:454] relu3 <- conv3
I0211 16:26:47.813452 22735 net.cpp:397] relu3 -> conv3 (in-place)
I0211 16:26:47.814302 22735 net.cpp:150] Setting up relu3
I0211 16:26:47.814339 22735 net.cpp:157] Top shape: 256 384 7 7 (4816896)
I0211 16:26:47.814359 22735 net.cpp:165] Memory required for data: 418743296
I0211 16:26:47.814380 22735 layer_factory.hpp:76] Creating layer conv4
I0211 16:26:47.814410 22735 net.cpp:106] Creating Layer conv4
I0211 16:26:47.814429 22735 net.cpp:454] conv4 <- conv3
I0211 16:26:47.814450 22735 net.cpp:411] conv4 -> conv4
I0211 16:26:47.838718 22735 net.cpp:150] Setting up conv4
I0211 16:26:47.838793 22735 net.cpp:157] Top shape: 256 384 7 7 (4816896)
I0211 16:26:47.838816 22735 net.cpp:165] Memory required for data: 438010880
I0211 16:26:47.838841 22735 layer_factory.hpp:76] Creating layer relu4
I0211 16:26:47.838865 22735 net.cpp:106] Creating Layer relu4
I0211 16:26:47.838884 22735 net.cpp:454] relu4 <- conv4
I0211 16:26:47.838904 22735 net.cpp:397] relu4 -> conv4 (in-place)
I0211 16:26:47.839534 22735 net.cpp:150] Setting up relu4
I0211 16:26:47.839546 22735 net.cpp:157] Top shape: 256 384 7 7 (4816896)
I0211 16:26:47.839551 22735 net.cpp:165] Memory required for data: 457278464
I0211 16:26:47.839555 22735 layer_factory.hpp:76] Creating layer conv5
I0211 16:26:47.839567 22735 net.cpp:106] Creating Layer conv5
I0211 16:26:47.839573 22735 net.cpp:454] conv5 <- conv4
I0211 16:26:47.839582 22735 net.cpp:411] conv5 -> conv5
I0211 16:26:47.855249 22735 net.cpp:150] Setting up conv5
I0211 16:26:47.855270 22735 net.cpp:157] Top shape: 256 256 7 7 (3211264)
I0211 16:26:47.855274 22735 net.cpp:165] Memory required for data: 470123520
I0211 16:26:47.855286 22735 layer_factory.hpp:76] Creating layer relu5
I0211 16:26:47.855298 22735 net.cpp:106] Creating Layer relu5
I0211 16:26:47.855306 22735 net.cpp:454] relu5 <- conv5
I0211 16:26:47.855314 22735 net.cpp:397] relu5 -> conv5 (in-place)
I0211 16:26:47.855976 22735 net.cpp:150] Setting up relu5
I0211 16:26:47.855988 22735 net.cpp:157] Top shape: 256 256 7 7 (3211264)
I0211 16:26:47.855993 22735 net.cpp:165] Memory required for data: 482968576
I0211 16:26:47.855998 22735 layer_factory.hpp:76] Creating layer TreepoolMaxAve_3
I0211 16:26:47.856009 22735 net.cpp:106] Creating Layer TreepoolMaxAve_3
I0211 16:26:47.856031 22735 net.cpp:454] TreepoolMaxAve_3 <- conv5
I0211 16:26:47.856052 22735 net.cpp:411] TreepoolMaxAve_3 -> TreepoolMaxAve_3
I0211 16:26:47.856284 22735 net.cpp:150] Setting up TreepoolMaxAve_3
I0211 16:26:47.856313 22735 net.cpp:157] Top shape: 256 256 3 3 (589824)
I0211 16:26:47.856330 22735 net.cpp:165] Memory required for data: 485327872
I0211 16:26:47.856350 22735 layer_factory.hpp:76] Creating layer fc6
I0211 16:26:47.856371 22735 net.cpp:106] Creating Layer fc6
I0211 16:26:47.856389 22735 net.cpp:454] fc6 <- TreepoolMaxAve_3
I0211 16:26:47.856426 22735 net.cpp:411] fc6 -> fc6
I0211 16:26:48.041134 22735 net.cpp:150] Setting up fc6
I0211 16:26:48.041285 22735 net.cpp:157] Top shape: 256 2048 (524288)
I0211 16:26:48.041350 22735 net.cpp:165] Memory required for data: 487425024
I0211 16:26:48.041425 22735 layer_factory.hpp:76] Creating layer relu6
I0211 16:26:48.041496 22735 net.cpp:106] Creating Layer relu6
I0211 16:26:48.041559 22735 net.cpp:454] relu6 <- fc6
I0211 16:26:48.041625 22735 net.cpp:397] relu6 -> fc6 (in-place)
I0211 16:26:48.042567 22735 net.cpp:150] Setting up relu6
I0211 16:26:48.042651 22735 net.cpp:157] Top shape: 256 2048 (524288)
I0211 16:26:48.042714 22735 net.cpp:165] Memory required for data: 489522176
I0211 16:26:48.042774 22735 layer_factory.hpp:76] Creating layer drop6
I0211 16:26:48.042846 22735 net.cpp:106] Creating Layer drop6
I0211 16:26:48.042909 22735 net.cpp:454] drop6 <- fc6
I0211 16:26:48.042973 22735 net.cpp:397] drop6 -> fc6 (in-place)
I0211 16:26:48.043066 22735 net.cpp:150] Setting up drop6
I0211 16:26:48.043131 22735 net.cpp:157] Top shape: 256 2048 (524288)
I0211 16:26:48.043191 22735 net.cpp:165] Memory required for data: 491619328
I0211 16:26:48.043251 22735 layer_factory.hpp:76] Creating layer fc7
I0211 16:26:48.043316 22735 net.cpp:106] Creating Layer fc7
I0211 16:26:48.043376 22735 net.cpp:454] fc7 <- fc6
I0211 16:26:48.043442 22735 net.cpp:411] fc7 -> fc7
I0211 16:26:48.209358 22735 net.cpp:150] Setting up fc7
I0211 16:26:48.209434 22735 net.cpp:157] Top shape: 256 2048 (524288)
I0211 16:26:48.209452 22735 net.cpp:165] Memory required for data: 493716480
I0211 16:26:48.209475 22735 layer_factory.hpp:76] Creating layer relu7
I0211 16:26:48.209501 22735 net.cpp:106] Creating Layer relu7
I0211 16:26:48.209517 22735 net.cpp:454] relu7 <- fc7
I0211 16:26:48.209537 22735 net.cpp:397] relu7 -> fc7 (in-place)
I0211 16:26:48.210520 22735 net.cpp:150] Setting up relu7
I0211 16:26:48.210554 22735 net.cpp:157] Top shape: 256 2048 (524288)
I0211 16:26:48.210572 22735 net.cpp:165] Memory required for data: 495813632
I0211 16:26:48.210587 22735 layer_factory.hpp:76] Creating layer drop7
I0211 16:26:48.210607 22735 net.cpp:106] Creating Layer drop7
I0211 16:26:48.210623 22735 net.cpp:454] drop7 <- fc7
I0211 16:26:48.210645 22735 net.cpp:397] drop7 -> fc7 (in-place)
I0211 16:26:48.210690 22735 net.cpp:150] Setting up drop7
I0211 16:26:48.210711 22735 net.cpp:157] Top shape: 256 2048 (524288)
I0211 16:26:48.210726 22735 net.cpp:165] Memory required for data: 497910784
I0211 16:26:48.210743 22735 layer_factory.hpp:76] Creating layer fc8
I0211 16:26:48.210764 22735 net.cpp:106] Creating Layer fc8
I0211 16:26:48.210779 22735 net.cpp:454] fc8 <- fc7
I0211 16:26:48.210796 22735 net.cpp:411] fc8 -> fc8
I0211 16:26:48.286375 22735 net.cpp:150] Setting up fc8
I0211 16:26:48.286447 22735 net.cpp:157] Top shape: 256 1000 (256000)
I0211 16:26:48.286464 22735 net.cpp:165] Memory required for data: 498934784
I0211 16:26:48.286487 22735 layer_factory.hpp:76] Creating layer loss
I0211 16:26:48.286514 22735 net.cpp:106] Creating Layer loss
I0211 16:26:48.286531 22735 net.cpp:454] loss <- fc8
I0211 16:26:48.286548 22735 net.cpp:454] loss <- label
I0211 16:26:48.286605 22735 net.cpp:411] loss -> loss
I0211 16:26:48.286636 22735 layer_factory.hpp:76] Creating layer loss
…
    phase: TEST
  }
  transform_param {
    scale: 0.04
    mirror: false
    crop_size: 128
    mean_value: 104
    mean_value: 117
    mean_value: 123
    force_color: true
    resize_param {
      prob: 1
      resize_mode: WARP
      height: 144
      width: 144
      pad_mode: MIRRORED
      pad_value: 104
      pad_value: 117
      pad_value: 124
      interp_mode: LINEAR
      center_object: false
      max_angle: 0
    }
  }
  data_param {
    source: "/home/old-ufo/datasets/imagenet/ilsvrc12_val_lmdb"
    batch_size: 50
    backend: LMDB
  }
}
layer {
  name: "conv1"
  type: "Convolution"
  bottom: "data"
  top: "conv1"
  param {
    lr_mult: 1
    decay_mult: 1
  }
  param {
    lr_mult: 2
    decay_mult: 0
  }
  convolution_param {
    num_output: 96
    kernel_size: 11
    stride: 4
    weight_filler {
      type: "gaussian"
      std: 0.01
    }
    bias_filler {
      type: "constant"
      value: 0
    }
  }
}
layer {
  name: "relu1"
  type: "ReLU"
  bottom: "conv1"
  top: "conv1"
}
layer {
  name: "TreepoolKernel1L_1"
  type: "TreepoolKernel1L"
  bottom: "conv1"
  top: "TreepoolKernel1L_1"
  param {
    lr_mult: 1
    decay_mult: 1
  }
  param {
    lr_mult: 1
    decay_mult: 1
  }
  param {
    lr_mult: 1
    decay_mult: 1
  }
  convolution_param {
    kernel_size: 3
    stride: 2
    weight_filler {
      type: "gaussian"
      std: 0.1
    }
  }
}
layer {
  name: "conv2"
  type: "Convolution"
  bottom: "TreepoolKernel1L_1"
  top: "conv2"
  param {
    lr_mult: 1
    decay_mult: 1
  }
  param {
    lr_mult: 2
    decay_mult: 0
  }
  convolution_param {
    num_output: 256
    pad: 2
    kernel_size: 5
    group: 2
    weight_filler {
      type: "gaussian"
      std: 0.01
    }
    bias_filler {
      type: "constant"
      value: 0.1
    }
  }
}
layer {
  name: "relu2"
  type: "ReLU"
  bottom: "conv2"
  top: "relu2"
}
layer {
  name: "TreepoolMaxAve_2"
  type: "TreepoolMaxAve"
  bottom: "relu2"
  top: "TreepoolMaxAve_2"
  param {
    lr_mult: 1
    decay_mult: 1
  }
  convolution_param {
    kernel_size: 3
    stride: 2
    weight_filler {
      type: "gaussian"
      std: 0.1
    }
  }
}
layer {
  name: "conv3"
  type: "Convolution"
  bottom: "TreepoolMaxAve_2"
  top: "conv3"
  param {
    lr_mult: 1
    decay_mult: 1
  }
  param {
    lr_mult: 2
    decay_mult: 0
  }
  convolution_param {
    num_output: 384
    pad: 1
    kernel_size: 3
    weight_filler {
      type: "gaussian"
      std: 0.01
    }
    bias_filler {
      type: "constant"
      value: 0
    }
  }
}
layer {
  name: "relu3"
  type: "ReLU"
  bottom: "conv3"
  top: "conv3"
}
layer {
  name: "conv4"
  type: "Convolution"
  bottom: "conv3"
  top: "conv4"
  param {
    lr_mult: 1
    decay_mult: 1
  }
  param {
    lr_mult: 2
    decay_mult: 0
  }
  convolution_param {
    num_output: 384
    pad: 1
    kernel_size: 3
    group: 2
    weight_filler {
      type: "gaussian"
      std: 0.01
    }
    bias_filler {
      type: "constant"
      value: 0.1
    }
  }
}
layer {
  name: "relu4"
  type: "ReLU"
  bottom: "conv4"
  top: "conv4"
}
layer {
  name: "conv5"
  type: "Convolution"
  bottom: "conv4"
  top: "conv5"
  param {
    lr_mult: 1
    decay_mult: 1
  }
  param {
    lr_mult: 2
    decay_mult: 0
  }
  convolution_param {
    num_output: 256
    pad: 1
    kernel_size: 3
    group: 2
    weight_filler {
      type: "gaussian"
      std: 0.01
    }
    bias_filler {
      type: "constant"
      value: 0.1
    }
  }
}
layer {
  name: "relu5"
  type: "ReLU"
  bottom: "conv5"
  top: "conv5"
}
layer {
  name: "TreepoolMaxAve_3"
  type: "TreepoolMaxAve"
  bottom: "conv5"
  top: "TreepoolMaxAve_3"
  param {
    lr_mult: 1
    decay_mult: 1
  }
  convolution_param {
    kernel_size: 3
    stride: 2
    weight_filler {
      type: "gaussian"
      std: 0.1
    }
  }
}
layer {
  name: "fc6"
  type: "InnerProduct"
  bottom: "TreepoolMaxAve_3"
  top: "fc6"
  param {
    lr_mult: 1
    decay_mult: 1
  }
  param {
    lr_mult: 2
    decay_mult: 0
  }
  inner_product_param {
    num_output: 2048
    weight_filler {
      type: "gaussian"
      std: 0.005
    }
    bias_filler {
      type: "constant"
    }
  }
}
layer {
  name: "relu6"
  type: "ReLU"
  bottom: "fc6"
  top: "fc6"
}
layer {
  name: "drop6"
  type: "Dropout"
  bottom: "fc6"
  top: "fc6"
  dropout_param {
    dropout_ratio: 0.5
  }
}
layer {
  name: "fc7"
  type: "InnerProduct"
  bottom: "fc6"
  top: "fc7"
  param {
    lr_mult: 1
    decay_mult: 1
  }
  param {
    lr_mult: 2
    decay_mult: 0
  }
  inner_product_param {
    num_output: 2048
    weight_filler {
      type: "gaussian"
      std: 0.005
    }
    bias_filler {
      type: "constant"
    }
  }
}
layer {
  name: "relu7"
  type: "ReLU"
  bottom: "fc7"
  top: "fc7"
}
layer {
  name: "drop7"
  type: "Dropout"
  bottom: "fc7"
  top: "fc7"
  dropout_param {
    dropout_ratio: 0.5
  }
}
layer {
  name: "fc8"
  type: "InnerProduct"
  bottom: "fc7"
  top: "fc8"
  param {
    lr_mult: 1
    decay_mult: 1
  }
  param {
    lr_mult: 2
    decay_mult: 0
  }
  inner_product_param {
    num_output: 1000
    weight_filler {
      type: "gaussian"
      std: 0.01
    }
    bias_filler {
      type: "constant"
      value: 0
    }
  }
}
layer {
  name: "accuracy"
  type: "Accuracy"
  bottom: "fc8"
  bottom: "label"
  top: "accuracy"
  include {
    phase: TEST
  }
}
layer {
  name: "loss"
  type: "SoftmaxWithLoss"
  bottom: "fc8"
  bottom: "label"
  top: "loss"
}
I0211 16:26:48.290726 22735 layer_factory.hpp:76] Creating layer data
I0211 16:26:48.290838 22735 net.cpp:106] Creating Layer data
I0211 16:26:48.290865 22735 net.cpp:411] data -> data
I0211 16:26:48.290889 22735 net.cpp:411] data -> label
I0211 16:26:48.291807 22748 db_lmdb.cpp:38] Opened lmdb /home/old-ufo/datasets/imagenet/ilsvrc12_val_lmdb
I0211 16:26:48.294632 22735 data_layer.cpp:41] output data size: 50,3,128,128
I0211 16:26:48.312770 22735 net.cpp:150] Setting up data
I0211 16:26:48.312839 22735 net.cpp:157] Top shape: 50 3 128 128 (2457600)
I0211 16:26:48.312857 22735 net.cpp:157] Top shape: 50 (50)
I0211 16:26:48.312871 22735 net.cpp:165] Memory required for data: 9830600
I0211 16:26:48.312888 22735 layer_factory.hpp:76] Creating layer label_data_1_split
I0211 16:26:48.312909 22735 net.cpp:106] Creating Layer label_data_1_split
I0211 16:26:48.312925 22735 net.cpp:454] label_data_1_split <- label
I0211 16:26:48.312943 22735 net.cpp:411] label_data_1_split -> label_data_1_split_0
I0211 16:26:48.312973 22735 net.cpp:411] label_data_1_split -> label_data_1_split_1
I0211 16:26:48.313062 22735 net.cpp:150] Setting up label_data_1_split
I0211 16:26:48.313082 22735 net.cpp:157] Top shape: 50 (50)
I0211 16:26:48.313097 22735 net.cpp:157] Top shape: 50 (50)
I0211 16:26:48.313112 22735 net.cpp:165] Memory required for data: 9831000
I0211 16:26:48.313124 22735 layer_factory.hpp:76] Creating layer conv1
I0211 16:26:48.313146 22735 net.cpp:106] Creating Layer conv1
I0211 16:26:48.313161 22735 net.cpp:454] conv1 <- data
I0211 16:26:48.313177 22735 net.cpp:411] conv1 -> conv1
I0211 16:26:48.317345 22735 net.cpp:150] Setting up conv1
I0211 16:26:48.317415 22735 net.cpp:157] Top shape: 50 96 30 30 (4320000)
I0211 16:26:48.317432 22735 net.cpp:165] Memory required for data: 27111000
I0211 16:26:48.317461 22735 layer_factory.hpp:76] Creating layer relu1
I0211 16:26:48.317484 22735 net.cpp:106] Creating Layer relu1
I0211 16:26:48.317500 22735 net.cpp:454] relu1 <- conv1
I0211 16:26:48.317518 22735 net.cpp:397] relu1 -> conv1 (in-place)
I0211 16:26:48.318341 22735 net.cpp:150] Setting up relu1
I0211 16:26:48.318378 22735 net.cpp:157] Top shape: 50 96 30 30 (4320000)
I0211 16:26:48.318394 22735 net.cpp:165] Memory required for data: 44391000
I0211 16:26:48.318409 22735 layer_factory.hpp:76] Creating layer TreepoolKernel1L_1
I0211 16:26:48.318434 22735 net.cpp:106] Creating Layer TreepoolKernel1L_1
I0211 16:26:48.318450 22735 net.cpp:454] TreepoolKernel1L_1 <- conv1
I0211 16:26:48.318470 22735 net.cpp:411] TreepoolKernel1L_1 -> TreepoolKernel1L_1
I0211 16:26:48.318755 22735 net.cpp:150] Setting up TreepoolKernel1L_1
I0211 16:26:48.318783 22735 net.cpp:157] Top shape: 50 96 15 15 (1080000)
I0211 16:26:48.318796 22735 net.cpp:165] Memory required for data: 48711000
I0211 16:26:48.318824 22735 layer_factory.hpp:76] Creating layer conv2
I0211 16:26:48.318845 22735 net.cpp:106] Creating Layer conv2
I0211 16:26:48.318858 22735 net.cpp:454] conv2 <- TreepoolKernel1L_1
I0211 16:26:48.318876 22735 net.cpp:411] conv2 -> conv2
I0211 16:26:48.335088 22735 net.cpp:150] Setting up conv2
I0211 16:26:48.335155 22735 net.cpp:157] Top shape: 50 256 15 15 (2880000)
I0211 16:26:48.335171 22735 net.cpp:165] Memory required for data: 60231000
I0211 16:26:48.335194 22735 layer_factory.hpp:76] Creating layer relu2
I0211 16:26:48.335216 22735 net.cpp:106] Creating Layer relu2
I0211 16:26:48.335232 22735 net.cpp:454] relu2 <- conv2
I0211 16:26:48.335253 22735 net.cpp:411] relu2 -> relu2
I0211 16:26:48.336104 22735 net.cpp:150] Setting up relu2
I0211 16:26:48.336158 22735 net.cpp:157] Top shape: 50 256 15 15 (2880000)
I0211 16:26:48.336176 22735 net.cpp:165] Memory required for data: 71751000
I0211 16:26:48.336192 22735 layer_factory.hpp:76] Creating layer TreepoolMaxAve_2
I0211 16:26:48.336215 22735 net.cpp:106] Creating Layer TreepoolMaxAve_2
I0211 16:26:48.336231 22735 net.cpp:454] TreepoolMaxAve_2 <- relu2
I0211 16:26:48.336252 22735 net.cpp:411] TreepoolMaxAve_2 -> TreepoolMaxAve_2
I0211 16:26:48.336494 22735 net.cpp:150] Setting up TreepoolMaxAve_2
I0211 16:26:48.336518 22735 net.cpp:157] Top shape: 50 256 7 7 (627200)
I0211 16:26:48.336531 22735 net.cpp:165] Memory required for data: 74259800
I0211 16:26:48.336551 22735 layer_factory.hpp:76] Creating layer conv3
I0211 16:26:48.336575 22735 net.cpp:106] Creating Layer conv3
I0211 16:26:48.336591 22735 net.cpp:454] conv3 <- TreepoolMaxAve_2
I0211 16:26:48.336609 22735 net.cpp:411] conv3 -> conv3
I0211 16:26:48.373050 22735 net.cpp:150] Setting up conv3
I0211 16:26:48.373127 22735 net.cpp:157] Top shape: 50 384 7 7 (940800)
I0211 16:26:48.373145 22735 net.cpp:165] Memory required for data: 78023000
I0211 16:26:48.373172 22735 layer_factory.hpp:76] Creating layer relu3
I0211 16:26:48.373195 22735 net.cpp:106] Creating Layer relu3
I0211 16:26:48.373213 22735 net.cpp:454] relu3 <- conv3
I0211 16:26:48.373229 22735 net.cpp:397] relu3 -> conv3 (in-place)
I0211 16:26:48.374119 22735 net.cpp:150] Setting up relu3
I0211 16:26:48.374150 22735 net.cpp:157] Top shape: 50 384 7 7 (940800)
I0211 16:26:48.374176 22735 net.cpp:165] Memory required for data: 81786200
I0211 16:26:48.374202 22735 layer_factory.hpp:76] Creating layer conv4
I0211 16:26:48.374225 22735 net.cpp:106] Creating Layer conv4
I0211 16:26:48.374243 22735 net.cpp:454] conv4 <- conv3
I0211 16:26:48.374263 22735 net.cpp:411] conv4 -> conv4
I0211 16:26:48.408061 22735 net.cpp:150] Setting up conv4
I0211 16:26:48.408196 22735 net.cpp:157] Top shape: 50 384 7 7 (940800)
I0211 16:26:48.408264 22735 net.cpp:165] Memory required for data: 85549400
I0211 16:26:48.408334 22735 layer_factory.hpp:76] Creating layer relu4
I0211 16:26:48.408404 22735 net.cpp:106] Creating Layer relu4
I0211 16:26:48.408468 22735 net.cpp:454] relu4 <- conv4
I0211 16:26:48.408532 22735 net.cpp:397] relu4 -> conv4 (in-place)
I0211 16:26:48.409375 22735 net.cpp:150] Setting up relu4
I0211 16:26:48.409459 22735 net.cpp:157] Top shape: 50 384 7 7 (940800)
I0211 16:26:48.409523 22735 net.cpp:165] Memory required for data: 89312600
I0211 16:26:48.409584 22735 layer_factory.hpp:76] Creating layer conv5
I0211 16:26:48.409651 22735 net.cpp:106] Creating Layer conv5
I0211 16:26:48.409713 22735 net.cpp:454] conv5 <- conv4
I0211 16:26:48.409778 22735 net.cpp:411] conv5 -> conv5
I0211 16:26:48.442111 22735 net.cpp:150] Setting up conv5
I0211 16:26:48.442258 22735 net.cpp:157] Top shape: 50 256 7 7 (627200)
I0211 16:26:48.442327 22735 net.cpp:165] Memory required for data: 91821400
I0211 16:26:48.442396 22735 layer_factory.hpp:76] Creating layer relu5
I0211 16:26:48.442466 22735 net.cpp:106] Creating Layer relu5
I0211 16:26:48.442529 22735 net.cpp:454] relu5 <- conv5
I0211 16:26:48.442594 22735 net.cpp:397] relu5 -> conv5 (in-place)
I0211 16:26:48.443441 22735 net.cpp:150] Setting up relu5
I0211 16:26:48.443523 22735 net.cpp:157] Top shape: 50 256 7 7 (627200)
I0211 16:26:48.443584 22735 net.cpp:165] Memory required for data: 94330200
I0211 16:26:48.443644 22735 layer_factory.hpp:76] Creating layer TreepoolMaxAve_3
I0211 16:26:48.443706 22735 net.cpp:106] Creating Layer TreepoolMaxAve_3
I0211 16:26:48.443773 22735 net.cpp:454] TreepoolMaxAve_3 <- conv5
I0211 16:26:48.443840 22735 net.cpp:411] TreepoolMaxAve_3 -> TreepoolMaxAve_3
I0211 16:26:48.444157 22735 net.cpp:150] Setting up TreepoolMaxAve_3
I0211 16:26:48.444233 22735 net.cpp:157] Top shape: 50 256 3 3 (115200)
I0211 16:26:48.444295 22735 net.cpp:165] Memory required for data: 94791000
I0211 16:26:48.444358 22735 layer_factory.hpp:76] Creating layer fc6
I0211 16:26:48.444424 22735 net.cpp:106] Creating Layer fc6
I0211 16:26:48.444484 22735 net.cpp:454] fc6 <- TreepoolMaxAve_3
I0211 16:26:48.444548 22735 net.cpp:411] fc6 -> fc6
I0211 16:26:48.621119 22735 net.cpp:150] Setting up fc6
I0211 16:26:48.621197 22735 net.cpp:157] Top shape: 50 2048 (102400)
I0211 16:26:48.621215 22735 net.cpp:165] Memory required for data: 95200600
I0211 16:26:48.621243 22735 layer_factory.hpp:76] Creating layer relu6
I0211 16:26:48.621271 22735 net.cpp:106] Creating Layer relu6
I0211 16:26:48.621294 22735 net.cpp:454] relu6 <- fc6
I0211 16:26:48.621315 22735 net.cpp:397] relu6 -> fc6 (in-place)
I0211 16:26:48.622254 22735 net.cpp:150] Setting up relu6
I0211 16:26:48.622289 22735 net.cpp:157] Top shape: 50 2048 (102400)
I0211 16:26:48.622306 22735 net.cpp:165] Memory required for data: 95610200
I0211 16:26:48.622326 22735 layer_factory.hpp:76] Creating layer drop6
I0211 16:26:48.622349 22735 net.cpp:106] Creating Layer drop6
I0211 16:26:48.622370 22735 net.cpp:454] drop6 <- fc6
I0211 16:26:48.622390 22735 net.cpp:397] drop6 -> fc6 (in-place)
I0211 16:26:48.622452 22735 net.cpp:150] Setting up drop6
I0211 16:26:48.622476 22735 net.cpp:157] Top shape: 50 2048 (102400)
I0211 16:26:48.622495 22735 net.cpp:165] Memory required for data: 96019800
I0211 16:26:48.622512 22735 layer_factory.hpp:76] Creating layer fc7
I0211 16:26:48.622536 22735 net.cpp:106] Creating Layer fc7
I0211 16:26:48.622597 22735 net.cpp:454] fc7 <- fc6
I0211 16:26:48.622620 22735 net.cpp:411] fc7 -> fc7
I0211 16:26:48.773978 22735 net.cpp:150] Setting up fc7
I0211 16:26:48.774049 22735 net.cpp:157] Top shape: 50 2048 (102400)
I0211 16:26:48.774081 22735 net.cpp:165] Memory required for data: 96429400
I0211 16:26:48.774123 22735 layer_factory.hpp:76] Creating layer relu7
I0211 16:26:48.774153 22735 net.cpp:106] Creating Layer relu7
I0211 16:26:48.774176 22735 net.cpp:454] relu7 <- fc7
I0211 16:26:48.774201 22735 net.cpp:397] relu7 -> fc7 (in-place)
I0211 16:26:48.775241 22735 net.cpp:150] Setting up relu7
I0211 16:26:48.775281 22735 net.cpp:157] Top shape: 50 2048 (102400)
I0211 16:26:48.775298 22735 net.cpp:165] Memory required for data: 96839000
I0211 16:26:48.775315 22735 layer_factory.hpp:76] Creating layer drop7
I0211 16:26:48.775336 22735 net.cpp:106] Creating Layer drop7
I0211 16:26:48.775353 22735 net.cpp:454] drop7 <- fc7
I0211 16:26:48.775372 22735 net.cpp:397] drop7 -> fc7 (in-place)
I0211 16:26:48.775429 22735 net.cpp:150] Setting up drop7
I0211 16:26:48.775449 22735 net.cpp:157] Top shape: 50 2048 (102400)
I0211 16:26:48.775465 22735 net.cpp:165] Memory required for data: 97248600
I0211 16:26:48.775480 22735 layer_factory.hpp:76] Creating layer fc8
I0211 16:26:48.775499 22735 net.cpp:106] Creating Layer fc8
I0211 16:26:48.775516 22735 net.cpp:454] fc8 <- fc7
I0211 16:26:48.775537 22735 net.cpp:411] fc8 -> fc8
I0211 16:26:48.849690 22735 net.cpp:150] Setting up fc8
I0211 16:26:48.849781 22735 net.cpp:157] Top shape: 50 1000 (50000)
I0211 16:26:48.849812 22735 net.cpp:165] Memory required for data: 97448600
I0211 16:26:48.849850 22735 layer_factory.hpp:76] Creating layer fc8_fc8_0_split
I0211 16:26:48.849881 22735 net.cpp:106] Creating Layer fc8_fc8_0_split
I0211 16:26:48.849905 22735 net.cpp:454] fc8_fc8_0_split <- fc8
I0211 16:26:48.849930 22735 net.cpp:411] fc8_fc8_0_split -> fc8_fc8_0_split_0
I0211 16:26:48.849961 22735 net.cpp:411] fc8_fc8_0_split -> fc8_fc8_0_split_1
I0211 16:26:48.850085 22735 net.cpp:150] Setting up fc8_fc8_0_split
I0211 16:26:48.850112 22735 net.cpp:157] Top shape: 50 1000 (50000)
I0211 16:26:48.850128 22735 net.cpp:157] Top shape: 50 1000 (50000)
I0211 16:26:48.850143 22735 net.cpp:165] Memory required for data: 97848600
I0211 16:26:48.850158 22735 layer_factory.hpp:76] Creating layer accuracy
I0211 16:26:48.850186 22735 net.cpp:106] Creating Layer accuracy
I0211 16:26:48.850203 22735 net.cpp:454] accuracy <- fc8_fc8_0_split_0
I0211 16:26:48.850219 22735 net.cpp:454] accuracy <- label_data_1_split_0
I0211 16:26:48.850235 22735 net.cpp:411] accuracy -> accuracy
…
