…
      source: "/home/share/storage/datasets/imagenet/lmdb/ilsvrc12_train_lmdb_341px"
      batch_size: 64
      backend: LMDB
    }
  }
  layer {
    name: "data"
    type: "Data"
    top: "data"
    top: "label"
    include {
      phase: TEST
    }
    transform_param {
      scale: 0.04
      mirror: false
      crop_size: 299
      mean_value: 104
      mean_value: 117
      mean_value: 123
    }
    data_param {
      source: "/home/share/storage/datasets/imagenet/lmdb/ilsvrc12_val_lmdb_341px"
      batch_size: 25
      backend: LMDB
    }
  }
  layer {
    name: "conv1"
    type: "Convolution"
    bottom: "data"
    top: "conv1"
    param {
      lr_mult: 1
      decay_mult: 1
    }
    param {
      lr_mult: 2
      decay_mult: 0
    }
    convolution_param {
      num_output: 96
      kernel_size: 11
      stride: 4
      weight_filler {
        type: "gaussian"
        std: 0.01
      }
      bias_filler {
        type: "constant"
      }
    }
  }
  layer {
    name: "relu1"
    type: "ReLU"
    bottom: "conv1"
    top: "conv1"
  }
  layer {
    name: "pool1"
    type: "Pooling"
    bottom: "conv1"
    top: "pool1"
    pooling_param {
      pool: MAX
      kernel_size: 3
      stride: 2
    }
  }
  layer {
    name: "conv2"
    type: "Convolution"
    bottom: "pool1"
    top: "conv2"
    param {
      lr_mult: 1
      decay_mult: 1
    }
    param {
      lr_mult: 2
      decay_mult: 0
    }
    convolution_param {
      num_output: 256
      pad: 2
      kernel_size: 5
      group: 2
      weight_filler {
        type: "gaussian"
        std: 0.01
      }
      bias_filler {
        type: "constant"
      }
    }
  }
  layer {
    name: "relu2"
    type: "ReLU"
    bottom: "conv2"
    top: "conv2"
  }
  layer {
    name: "pool2"
    type: "Pooling"
    bottom: "conv2"
    top: "pool2"
    pooling_param {
      pool: MAX
      kernel_size: 3
      stride: 2
    }
  }
  layer {
    name: "conv3"
    type: "Convolution"
    bottom: "pool2"
    top: "conv3"
    param {
      lr_mult: 1
      decay_mult: 1
    }
    param {
      lr_mult: 2
      decay_mult: 0
    }
    convolution_param {
      num_output: 384
      pad: 1
      kernel_size: 3
      weight_filler {
        type: "gaussian"
        std: 0.01
      }
      bias_filler {
        type: "constant"
      }
    }
  }
  layer {
    name: "relu3"
    type: "ReLU"
    bottom: "conv3"
    top: "conv3"
  }
  layer {
    name: "conv4"
    type: "Convolution"
    bottom: "conv3"
    top: "conv4"
    param {
      lr_mult: 1
      decay_mult: 1
    }
    param {
      lr_mult: 2
      decay_mult: 0
    }
    convolution_param {
      num_output: 384
      pad: 1
      kernel_size: 3
      group: 2
      weight_filler {
        type: "gaussian"
        std: 0.01
      }
      bias_filler {
        type: "constant"
      }
    }
  }
  layer {
    name: "relu4"
    type: "ReLU"
    bottom: "conv4"
    top: "conv4"
  }
  layer {
    name: "conv5"
    type: "Convolution"
    bottom: "conv4"
    top: "conv5"
    param {
      lr_mult: 1
      decay_mult: 1
    }
    param {
      lr_mult: 2
      decay_mult: 0
    }
    convolution_param {
      num_output: 256
      pad: 1
      kernel_size: 3
      group: 2
      weight_filler {
        type: "gaussian"
        std: 0.01
      }
      bias_filler {
        type: "constant"
      }
    }
  }
  layer {
    name: "relu5"
    type: "ReLU"
    bottom: "conv5"
    top: "conv5"
  }
  layer {
    name: "pool5"
    type: "Pooling"
    bottom: "conv5"
    top: "pool5"
    pooling_param {
      pool: MAX
      kernel_size: 3
      stride: 2
    }
  }
  layer {
    name: "fc6"
    type: "Convolution"
    bottom: "pool5"
    top: "fc6"
    param {
      lr_mult: 1
      decay_mult: 1
    }
    param {
      lr_mult: 2
      decay_mult: 0
    }
    convolution_param {
      num_output: 4096
      pad: 3
      kernel_size: 6
      weight_filler {
        type: "gaussian"
        std: 0.01
      }
      bias_filler {
        type: "constant"
      }
    }
  }
  layer {
    name: "relu6"
    type: "ReLU"
    bottom: "fc6"
    top: "fc6"
  }
  layer {
    name: "drop6"
    type: "Dropout"
    bottom: "fc6"
    top: "fc6"
    dropout_param {
      dropout_ratio: 0.5
    }
  }
  layer {
    name: "fc7"
    type: "Convolution"
    bottom: "fc6"
    top: "fc7"
    param {
      lr_mult: 1
      decay_mult: 1
    }
    param {
      lr_mult: 2
      decay_mult: 0
    }
    convolution_param {
      num_output: 4096
      kernel_size: 1
      weight_filler {
        type: "gaussian"
        std: 0.01
      }
      bias_filler {
        type: "constant"
      }
    }
  }
  layer {
    name: "relu7"
    type: "ReLU"
    bottom: "fc7"
    top: "fc7"
  }
  layer {
    name: "fc7pool"
    type: "Pooling"
    bottom: "fc7"
    top: "fc7pool"
    pooling_param {
      pool: AVE
      global_pooling: true
    }
  }
  layer {
    name: "drop7"
    type: "Dropout"
    bottom: "fc7pool"
    top: "drop7"
    dropout_param {
      dropout_ratio: 0.5
    }
  }
  layer {
    name: "fc8"
    type: "Convolution"
    bottom: "drop7"
    top: "fc8"
    param {
      lr_mult: 1
      decay_mult: 1
    }
    param {
      lr_mult: 2
      decay_mult: 0
    }
    convolution_param {
      num_output: 1000
      kernel_size: 1
      weight_filler {
        type: "gaussian"
        std: 0.01
      }
      bias_filler {
        type: "constant"
      }
    }
  }
  layer {
    name: "accuracy"
    type: "Accuracy"
    bottom: "fc8"
    bottom: "label"
    top: "accuracy"
    include {
      phase: TEST
    }
  }
  layer {
    name: "loss"
    type: "SoftmaxWithLoss"
    bottom: "fc8"
    bottom: "label"
    top: "loss"
  }
}
iter_size: 4
type: "SGD"
I0523 14:18:46.314482 24130 solver.cpp:86] Creating training net specified in net_param.
I0523 14:18:46.314543 24130 net.cpp:313] The NetState phase (0) differed from the phase (1) specified by a rule in layer data
I0523 14:18:46.314555 24130 net.cpp:313] The NetState phase (0) differed from the phase (1) specified by a rule in layer accuracy
I0523 14:18:46.314661 24130 net.cpp:49] Initializing net from parameters: 
name: "CaffeNet"
state {
  phase: TRAIN
}
layer {
  name: "data"
  type: "Data"
  top: "data"
  top: "label"
  include {
    phase: TRAIN
  }
  transform_param {
    scale: 0.04
    mirror: true
    crop_size: 299
    mean_value: 104
    mean_value: 117
    mean_value: 124
  }
  data_param {
    source: "/home/share/storage/datasets/imagenet/lmdb/ilsvrc12_train_lmdb_341px"
    batch_size: 64
    backend: LMDB
  }
}
layer {
  name: "conv1"
  type: "Convolution"
  bottom: "data"
  top: "conv1"
  param {
    lr_mult: 1
    decay_mult: 1
  }
  param {
    lr_mult: 2
    decay_mult: 0
  }
  convolution_param {
    num_output: 96
    kernel_size: 11
    stride: 4
    weight_filler {
      type: "gaussian"
      std: 0.01
    }
    bias_filler {
      type: "constant"
    }
  }
}
layer {
  name: "relu1"
  type: "ReLU"
  bottom: "conv1"
  top: "conv1"
}
layer {
  name: "pool1"
  type: "Pooling"
  bottom: "conv1"
  top: "pool1"
  pooling_param {
    pool: MAX
    kernel_size: 3
    stride: 2
  }
}
layer {
  name: "conv2"
  type: "Convolution"
  bottom: "pool1"
  top: "conv2"
  param {
    lr_mult: 1
    decay_mult: 1
  }
  param {
    lr_mult: 2
    decay_mult: 0
  }
  convolution_param {
    num_output: 256
    pad: 2
    kernel_size: 5
    group: 2
    weight_filler {
      type: "gaussian"
      std: 0.01
    }
    bias_filler {
      type: "constant"
    }
  }
}
layer {
  name: "relu2"
  type: "ReLU"
  bottom: "conv2"
  top: "conv2"
}
layer {
  name: "pool2"
  type: "Pooling"
  bottom: "conv2"
  top: "pool2"
  pooling_param {
    pool: MAX
    kernel_size: 3
    stride: 2
  }
}
layer {
  name: "conv3"
  type: "Convolution"
  bottom: "pool2"
  top: "conv3"
  param {
    lr_mult: 1
    decay_mult: 1
  }
  param {
    lr_mult: 2
    decay_mult: 0
  }
  convolution_param {
    num_output: 384
    pad: 1
    kernel_size: 3
    weight_filler {
      type: "gaussian"
      std: 0.01
    }
    bias_filler {
      type: "constant"
    }
  }
}
layer {
  name: "relu3"
  type: "ReLU"
  bottom: "conv3"
  top: "conv3"
}
layer {
  name: "conv4"
  type: "Convolution"
  bottom: "conv3"
  top: "conv4"
  param {
    lr_mult: 1
    decay_mult: 1
  }
  param {
    lr_mult: 2
    decay_mult: 0
  }
  convolution_param {
    num_output: 384
    pad: 1
    kernel_size: 3
    group: 2
    weight_filler {
      type: "gaussian"
      std: 0.01
    }
    bias_filler {
      type: "constant"
    }
  }
}
layer {
  name: "relu4"
  type: "ReLU"
  bottom: "conv4"
  top: "conv4"
}
layer {
  name: "conv5"
  type: "Convolution"
  bottom: "conv4"
  top: "conv5"
  param {
    lr_mult: 1
    decay_mult: 1
  }
  param {
    lr_mult: 2
    decay_mult: 0
  }
  convolution_param {
    num_output: 256
    pad: 1
    kernel_size: 3
    group: 2
    weight_filler {
      type: "gaussian"
      std: 0.01
    }
    bias_filler {
      type: "constant"
    }
  }
}
layer {
  name: "relu5"
  type: "ReLU"
  bottom: "conv5"
  top: "conv5"
}
layer {
  name: "pool5"
  type: "Pooling"
  bottom: "conv5"
  top: "pool5"
  pooling_param {
    pool: MAX
    kernel_size: 3
    stride: 2
  }
}
layer {
  name: "fc6"
  type: "Convolution"
  bottom: "pool5"
  top: "fc6"
  param {
    lr_mult: 1
    decay_mult: 1
  }
  param {
    lr_mult: 2
    decay_mult: 0
  }
  convolution_param {
    num_output: 4096
    pad: 3
    kernel_size: 6
    weight_filler {
      type: "gaussian"
      std: 0.01
    }
    bias_filler {
      type: "constant"
    }
  }
}
layer {
  name: "relu6"
  type: "ReLU"
  bottom: "fc6"
  top: "fc6"
}
layer {
  name: "drop6"
  type: "Dropout"
  bottom: "fc6"
  top: "fc6"
  dropout_param {
    dropout_ratio: 0.5
  }
}
layer {
  name: "fc7"
  type: "Convolution"
  bottom: "fc6"
  top: "fc7"
  param {
    lr_mult: 1
    decay_mult: 1
  }
  param {
    lr_mult: 2
    decay_mult: 0
  }
  convolution_param {
    num_output: 4096
    kernel_size: 1
    weight_filler {
      type: "gaussian"
      std: 0.01
    }
    bias_filler {
      type: "constant"
    }
  }
}
layer {
  name: "relu7"
  type: "ReLU"
  bottom: "fc7"
  top: "fc7"
}
layer {
  name: "fc7pool"
  type: "Pooling"
  bottom: "fc7"
  top: "fc7pool"
  pooling_param {
    pool: AVE
    global_pooling: true
  }
}
layer {
  name: "drop7"
  type: "Dropout"
  bottom: "fc7pool"
  top: "drop7"
  dropout_param {
    dropout_ratio: 0.5
  }
}
layer {
  name: "fc8"
  type: "Convolution"
  bottom: "drop7"
  top: "fc8"
  param {
    lr_mult: 1
    decay_mult: 1
  }
  param {
    lr_mult: 2
    decay_mult: 0
  }
  convolution_param {
    num_output: 1000
    kernel_size: 1
    weight_filler {
      type: "gaussian"
      std: 0.01
    }
    bias_filler {
      type: "constant"
    }
  }
}
layer {
  name: "loss"
  type: "SoftmaxWithLoss"
  bottom: "fc8"
  bottom: "label"
  top: "loss"
}
I0523 14:18:46.314741 24130 layer_factory.hpp:77] Creating layer data
I0523 14:18:46.315170 24130 net.cpp:91] Creating Layer data
I0523 14:18:46.315191 24130 net.cpp:399] data -> data
I0523 14:18:46.315214 24130 net.cpp:399] data -> label
I0523 14:18:46.315824 24134 db_lmdb.cpp:35] Opened lmdb /home/share/storage/datasets/imagenet/lmdb/ilsvrc12_train_lmdb_341px
I0523 14:18:46.322899 24130 data_layer.cpp:41] output data size: 64,3,299,299
I0523 14:18:46.426513 24130 net.cpp:141] Setting up data
I0523 14:18:46.426651 24130 net.cpp:148] Top shape: 64 3 299 299 (17164992)
I0523 14:18:46.426659 24130 net.cpp:148] Top shape: 64 (64)
I0523 14:18:46.426661 24130 net.cpp:156] Memory required for data: 68660224
I0523 14:18:46.426671 24130 layer_factory.hpp:77] Creating layer conv1
I0523 14:18:46.426690 24130 net.cpp:91] Creating Layer conv1
I0523 14:18:46.426694 24130 net.cpp:425] conv1 <- data
I0523 14:18:46.426707 24130 net.cpp:399] conv1 -> conv1
I0523 14:18:46.558233 24130 net.cpp:141] Setting up conv1
I0523 14:18:46.558259 24130 net.cpp:148] Top shape: 64 96 73 73 (32741376)
I0523 14:18:46.558261 24130 net.cpp:156] Memory required for data: 199625728
I0523 14:18:46.558277 24130 layer_factory.hpp:77] Creating layer relu1
I0523 14:18:46.558289 24130 net.cpp:91] Creating Layer relu1
I0523 14:18:46.558291 24130 net.cpp:425] relu1 <- conv1
I0523 14:18:46.558296 24130 net.cpp:386] relu1 -> conv1 (in-place)
I0523 14:18:46.558429 24130 net.cpp:141] Setting up relu1
I0523 14:18:46.558434 24130 net.cpp:148] Top shape: 64 96 73 73 (32741376)
I0523 14:18:46.558436 24130 net.cpp:156] Memory required for data: 330591232
I0523 14:18:46.558439 24130 layer_factory.hpp:77] Creating layer pool1
I0523 14:18:46.558444 24130 net.cpp:91] Creating Layer pool1
I0523 14:18:46.558446 24130 net.cpp:425] pool1 <- conv1
I0523 14:18:46.558449 24130 net.cpp:399] pool1 -> pool1
I0523 14:18:46.558498 24130 net.cpp:141] Setting up pool1
I0523 14:18:46.558501 24130 net.cpp:148] Top shape: 64 96 36 36 (7962624)
I0523 14:18:46.558503 24130 net.cpp:156] Memory required for data: 362441728
I0523 14:18:46.558506 24130 layer_factory.hpp:77] Creating layer conv2
I0523 14:18:46.558513 24130 net.cpp:91] Creating Layer conv2
I0523 14:18:46.558516 24130 net.cpp:425] conv2 <- pool1
I0523 14:18:46.558518 24130 net.cpp:399] conv2 -> conv2
I0523 14:18:46.567870 24130 net.cpp:141] Setting up conv2
I0523 14:18:46.567901 24130 net.cpp:148] Top shape: 64 256 36 36 (21233664)
I0523 14:18:46.567904 24130 net.cpp:156] Memory required for data: 447376384
I0523 14:18:46.567916 24130 layer_factory.hpp:77] Creating layer relu2
I0523 14:18:46.567935 24130 net.cpp:91] Creating Layer relu2
I0523 14:18:46.567939 24130 net.cpp:425] relu2 <- conv2
I0523 14:18:46.567945 24130 net.cpp:386] relu2 -> conv2 (in-place)
I0523 14:18:46.568181 24130 net.cpp:141] Setting up relu2
I0523 14:18:46.568188 24130 net.cpp:148] Top shape: 64 256 36 36 (21233664)
I0523 14:18:46.568200 24130 net.cpp:156] Memory required for data: 532311040
I0523 14:18:46.568202 24130 layer_factory.hpp:77] Creating layer pool2
I0523 14:18:46.568208 24130 net.cpp:91] Creating Layer pool2
I0523 14:18:46.568210 24130 net.cpp:425] pool2 <- conv2
I0523 14:18:46.568224 24130 net.cpp:399] pool2 -> pool2
I0523 14:18:46.568265 24130 net.cpp:141] Setting up pool2
I0523 14:18:46.568269 24130 net.cpp:148] Top shape: 64 256 18 18 (5308416)
I0523 14:18:46.568271 24130 net.cpp:156] Memory required for data: 553544704
I0523 14:18:46.568286 24130 layer_factory.hpp:77] Creating layer conv3
I0523 14:18:46.568303 24130 net.cpp:91] Creating Layer conv3
I0523 14:18:46.568305 24130 net.cpp:425] conv3 <- pool2
I0523 14:18:46.568310 24130 net.cpp:399] conv3 -> conv3
I0523 14:18:46.590828 24130 net.cpp:141] Setting up conv3
I0523 14:18:46.590857 24130 net.cpp:148] Top shape: 64 384 18 18 (7962624)
I0523 14:18:46.590860 24130 net.cpp:156] Memory required for data: 585395200
I0523 14:18:46.590870 24130 layer_factory.hpp:77] Creating layer relu3
I0523 14:18:46.590889 24130 net.cpp:91] Creating Layer relu3
I0523 14:18:46.590893 24130 net.cpp:425] relu3 <- conv3
I0523 14:18:46.590896 24130 net.cpp:386] relu3 -> conv3 (in-place)
I0523 14:18:46.591105 24130 net.cpp:141] Setting up relu3
I0523 14:18:46.591112 24130 net.cpp:148] Top shape: 64 384 18 18 (7962624)
I0523 14:18:46.591125 24130 net.cpp:156] Memory required for data: 617245696
I0523 14:18:46.591126 24130 layer_factory.hpp:77] Creating layer conv4
I0523 14:18:46.591166 24130 net.cpp:91] Creating Layer conv4
I0523 14:18:46.591168 24130 net.cpp:425] conv4 <- conv3
I0523 14:18:46.591172 24130 net.cpp:399] conv4 -> conv4
I0523 14:18:46.608320 24130 net.cpp:141] Setting up conv4
I0523 14:18:46.608361 24130 net.cpp:148] Top shape: 64 384 18 18 (7962624)
I0523 14:18:46.608362 24130 net.cpp:156] Memory required for data: 649096192
I0523 14:18:46.608374 24130 layer_factory.hpp:77] Creating layer relu4
I0523 14:18:46.608386 24130 net.cpp:91] Creating Layer relu4
I0523 14:18:46.608391 24130 net.cpp:425] relu4 <- conv4
I0523 14:18:46.608397 24130 net.cpp:386] relu4 -> conv4 (in-place)
I0523 14:18:46.608609 24130 net.cpp:141] Setting up relu4
I0523 14:18:46.608615 24130 net.cpp:148] Top shape: 64 384 18 18 (7962624)
I0523 14:18:46.608618 24130 net.cpp:156] Memory required for data: 680946688
I0523 14:18:46.608619 24130 layer_factory.hpp:77] Creating layer conv5
I0523 14:18:46.608628 24130 net.cpp:91] Creating Layer conv5
I0523 14:18:46.608630 24130 net.cpp:425] conv5 <- conv4
I0523 14:18:46.608635 24130 net.cpp:399] conv5 -> conv5
I0523 14:18:46.620842 24130 net.cpp:141] Setting up conv5
I0523 14:18:46.620860 24130 net.cpp:148] Top shape: 64 256 18 18 (5308416)
I0523 14:18:46.620863 24130 net.cpp:156] Memory required for data: 702180352
I0523 14:18:46.620874 24130 layer_factory.hpp:77] Creating layer relu5
I0523 14:18:46.620893 24130 net.cpp:91] Creating Layer relu5
I0523 14:18:46.620896 24130 net.cpp:425] relu5 <- conv5
I0523 14:18:46.620901 24130 net.cpp:386] relu5 -> conv5 (in-place)
I0523 14:18:46.621047 24130 net.cpp:141] Setting up relu5
I0523 14:18:46.621052 24130 net.cpp:148] Top shape: 64 256 18 18 (5308416)
I0523 14:18:46.621063 24130 net.cpp:156] Memory required for data: 723414016
I0523 14:18:46.621065 24130 layer_factory.hpp:77] Creating layer pool5
I0523 14:18:46.621069 24130 net.cpp:91] Creating Layer pool5
I0523 14:18:46.621071 24130 net.cpp:425] pool5 <- conv5
I0523 14:18:46.621075 24130 net.cpp:399] pool5 -> pool5
I0523 14:18:46.621114 24130 net.cpp:141] Setting up pool5
I0523 14:18:46.621117 24130 net.cpp:148] Top shape: 64 256 9 9 (1327104)
I0523 14:18:46.621119 24130 net.cpp:156] Memory required for data: 728722432
I0523 14:18:46.621134 24130 layer_factory.hpp:77] Creating layer fc6
I0523 14:18:46.621147 24130 net.cpp:91] Creating Layer fc6
I0523 14:18:46.621150 24130 net.cpp:425] fc6 <- pool5
I0523 14:18:46.621152 24130 net.cpp:399] fc6 -> fc6
I0523 14:18:47.511051 24130 net.cpp:141] Setting up fc6
I0523 14:18:47.511070 24130 net.cpp:148] Top shape: 64 4096 10 10 (26214400)
I0523 14:18:47.511072 24130 net.cpp:156] Memory required for data: 833580032
I0523 14:18:47.511080 24130 layer_factory.hpp:77] Creating layer relu6
I0523 14:18:47.511088 24130 net.cpp:91] Creating Layer relu6
I0523 14:18:47.511092 24130 net.cpp:425] relu6 <- fc6
I0523 14:18:47.511106 24130 net.cpp:386] relu6 -> fc6 (in-place)
I0523 14:18:47.511260 24130 net.cpp:141] Setting up relu6
I0523 14:18:47.511265 24130 net.cpp:148] Top shape: 64 4096 10 10 (26214400)
I0523 14:18:47.511266 24130 net.cpp:156] Memory required for data: 938437632
I0523 14:18:47.511268 24130 layer_factory.hpp:77] Creating layer drop6
I0523 14:18:47.511279 24130 net.cpp:91] Creating Layer drop6
I0523 14:18:47.511281 24130 net.cpp:425] drop6 <- fc6
I0523 14:18:47.511284 24130 net.cpp:386] drop6 -> fc6 (in-place)
I0523 14:18:47.511317 24130 net.cpp:141] Setting up drop6
I0523 14:18:47.511328 24130 net.cpp:148] Top shape: 64 4096 10 10 (26214400)
I0523 14:18:47.511330 24130 net.cpp:156] Memory required for data: 1043295232
I0523 14:18:47.511332 24130 layer_factory.hpp:77] Creating layer fc7
I0523 14:18:47.511349 24130 net.cpp:91] Creating Layer fc7
I0523 14:18:47.511351 24130 net.cpp:425] fc7 <- fc6
I0523 14:18:47.511355 24130 net.cpp:399] fc7 -> fc7
I0523 14:18:47.907701 24130 net.cpp:141] Setting up fc7
I0523 14:18:47.907721 24130 net.cpp:148] Top shape: 64 4096 10 10 (26214400)
I0523 14:18:47.907724 24130 net.cpp:156] Memory required for data: 1148152832
I0523 14:18:47.907732 24130 layer_factory.hpp:77] Creating layer relu7
I0523 14:18:47.907774 24130 net.cpp:91] Creating Layer relu7
I0523 14:18:47.907791 24130 net.cpp:425] relu7 <- fc7
I0523 14:18:47.907796 24130 net.cpp:386] relu7 -> fc7 (in-place)
I0523 14:18:47.908046 24130 net.cpp:141] Setting up relu7
I0523 14:18:47.908056 24130 net.cpp:148] Top shape: 64 4096 10 10 (26214400)
I0523 14:18:47.908056 24130 net.cpp:156] Memory required for data: 1253010432
I0523 14:18:47.908059 24130 layer_factory.hpp:77] Creating layer fc7pool
I0523 14:18:47.908064 24130 net.cpp:91] Creating Layer fc7pool
I0523 14:18:47.908066 24130 net.cpp:425] fc7pool <- fc7
I0523 14:18:47.908071 24130 net.cpp:399] fc7pool -> fc7pool
I0523 14:18:47.908207 24130 net.cpp:141] Setting up fc7pool
I0523 14:18:47.908215 24130 net.cpp:148] Top shape: 64 4096 1 1 (262144)
I0523 14:18:47.908216 24130 net.cpp:156] Memory required for data: 1254059008
I0523 14:18:47.908218 24130 layer_factory.hpp:77] Creating layer drop7
I0523 14:18:47.908226 24130 net.cpp:91] Creating Layer drop7
I0523 14:18:47.908228 24130 net.cpp:425] drop7 <- fc7pool
I0523 14:18:47.908231 24130 net.cpp:399] drop7 -> drop7
I0523 14:18:47.908259 24130 net.cpp:141] Setting up drop7
I0523 14:18:47.908263 24130 net.cpp:148] Top shape: 64 4096 1 1 (262144)
I0523 14:18:47.908264 24130 net.cpp:156] Memory required for data: 1255107584
I0523 14:18:47.908267 24130 layer_factory.hpp:77] Creating layer fc8
I0523 14:18:47.908274 24130 net.cpp:91] Creating Layer fc8
I0523 14:18:47.908277 24130 net.cpp:425] fc8 <- drop7
I0523 14:18:47.908280 24130 net.cpp:399] fc8 -> fc8
I0523 14:18:48.004528 24130 net.cpp:141] Setting up fc8
I0523 14:18:48.004546 24130 net.cpp:148] Top shape: 64 1000 1 1 (64000)
I0523 14:18:48.004549 24130 net.cpp:156] Memory required for data: 1255363584
I0523 14:18:48.004556 24130 layer_factory.hpp:77] Creating layer loss
I0523 14:18:48.004566 24130 net.cpp:91] Creating Layer loss
I0523 14:18:48.004570 24130 net.cpp:425] loss <- fc8
I0523 14:18:48.004573 24130 net.cpp:425] loss <- label
I0523 14:18:48.004578 24130 net.cpp:399] loss -> loss
I0523 14:18:48.004588 24130 layer_factory.hpp:77] Creating layer loss
…
I0523 14:18:48.005208 24130 net.cpp:313] The NetState phase (1) differed from the phase (0) specified by a rule in layer data
I0523 14:18:48.005348 24130 net.cpp:49] Initializing net from parameters: 
name: "CaffeNet"
state {
  phase: TEST
}
layer {
  name: "data"
  type: "Data"
  top: "data"
  top: "label"
  include {
    phase: TEST
  }
  transform_param {
    scale: 0.04
    mirror: false
    crop_size: 299
    mean_value: 104
    mean_value: 117
    mean_value: 123
  }
  data_param {
    source: "/home/share/storage/datasets/imagenet/lmdb/ilsvrc12_val_lmdb_341px"
    batch_size: 25
    backend: LMDB
  }
}
layer {
  name: "conv1"
  type: "Convolution"
  bottom: "data"
  top: "conv1"
  param {
    lr_mult: 1
    decay_mult: 1
  }
  param {
    lr_mult: 2
    decay_mult: 0
  }
  convolution_param {
    num_output: 96
    kernel_size: 11
    stride: 4
    weight_filler {
      type: "gaussian"
      std: 0.01
    }
    bias_filler {
      type: "constant"
    }
  }
}
layer {
  name: "relu1"
  type: "ReLU"
  bottom: "conv1"
  top: "conv1"
}
layer {
  name: "pool1"
  type: "Pooling"
  bottom: "conv1"
  top: "pool1"
  pooling_param {
    pool: MAX
    kernel_size: 3
    stride: 2
  }
}
layer {
  name: "conv2"
  type: "Convolution"
  bottom: "pool1"
  top: "conv2"
  param {
    lr_mult: 1
    decay_mult: 1
  }
  param {
    lr_mult: 2
    decay_mult: 0
  }
  convolution_param {
    num_output: 256
    pad: 2
    kernel_size: 5
    group: 2
    weight_filler {
      type: "gaussian"
      std: 0.01
    }
    bias_filler {
      type: "constant"
    }
  }
}
layer {
  name: "relu2"
  type: "ReLU"
  bottom: "conv2"
  top: "conv2"
}
layer {
  name: "pool2"
  type: "Pooling"
  bottom: "conv2"
  top: "pool2"
  pooling_param {
    pool: MAX
    kernel_size: 3
    stride: 2
  }
}
layer {
  name: "conv3"
  type: "Convolution"
  bottom: "pool2"
  top: "conv3"
  param {
    lr_mult: 1
    decay_mult: 1
  }
  param {
    lr_mult: 2
    decay_mult: 0
  }
  convolution_param {
    num_output: 384
    pad: 1
    kernel_size: 3
    weight_filler {
      type: "gaussian"
      std: 0.01
    }
    bias_filler {
      type: "constant"
    }
  }
}
layer {
  name: "relu3"
  type: "ReLU"
  bottom: "conv3"
  top: "conv3"
}
layer {
  name: "conv4"
  type: "Convolution"
  bottom: "conv3"
  top: "conv4"
  param {
    lr_mult: 1
    decay_mult: 1
  }
  param {
    lr_mult: 2
    decay_mult: 0
  }
  convolution_param {
    num_output: 384
    pad: 1
    kernel_size: 3
    group: 2
    weight_filler {
      type: "gaussian"
      std: 0.01
    }
    bias_filler {
      type: "constant"
    }
  }
}
layer {
  name: "relu4"
  type: "ReLU"
  bottom: "conv4"
  top: "conv4"
}
layer {
  name: "conv5"
  type: "Convolution"
  bottom: "conv4"
  top: "conv5"
  param {
    lr_mult: 1
    decay_mult: 1
  }
  param {
    lr_mult: 2
    decay_mult: 0
  }
  convolution_param {
    num_output: 256
    pad: 1
    kernel_size: 3
    group: 2
    weight_filler {
      type: "gaussian"
      std: 0.01
    }
    bias_filler {
      type: "constant"
    }
  }
}
layer {
  name: "relu5"
  type: "ReLU"
  bottom: "conv5"
  top: "conv5"
}
layer {
  name: "pool5"
  type: "Pooling"
  bottom: "conv5"
  top: "pool5"
  pooling_param {
    pool: MAX
    kernel_size: 3
    stride: 2
  }
}
layer {
  name: "fc6"
  type: "Convolution"
  bottom: "pool5"
  top: "fc6"
  param {
    lr_mult: 1
    decay_mult: 1
  }
  param {
    lr_mult: 2
    decay_mult: 0
  }
  convolution_param {
    num_output: 4096
    pad: 3
    kernel_size: 6
    weight_filler {
      type: "gaussian"
      std: 0.01
    }
    bias_filler {
      type: "constant"
    }
  }
}
layer {
  name: "relu6"
  type: "ReLU"
  bottom: "fc6"
  top: "fc6"
}
layer {
  name: "drop6"
  type: "Dropout"
  bottom: "fc6"
  top: "fc6"
  dropout_param {
    dropout_ratio: 0.5
  }
}
layer {
  name: "fc7"
  type: "Convolution"
  bottom: "fc6"
  top: "fc7"
  param {
    lr_mult: 1
    decay_mult: 1
  }
  param {
    lr_mult: 2
    decay_mult: 0
  }
  convolution_param {
    num_output: 4096
    kernel_size: 1
    weight_filler {
      type: "gaussian"
      std: 0.01
    }
    bias_filler {
      type: "constant"
    }
  }
}
layer {
  name: "relu7"
  type: "ReLU"
  bottom: "fc7"
  top: "fc7"
}
layer {
  name: "fc7pool"
  type: "Pooling"
  bottom: "fc7"
  top: "fc7pool"
  pooling_param {
    pool: AVE
    global_pooling: true
  }
}
layer {
  name: "drop7"
  type: "Dropout"
  bottom: "fc7pool"
  top: "drop7"
  dropout_param {
    dropout_ratio: 0.5
  }
}
layer {
  name: "fc8"
  type: "Convolution"
  bottom: "drop7"
  top: "fc8"
  param {
    lr_mult: 1
    decay_mult: 1
  }
  param {
    lr_mult: 2
    decay_mult: 0
  }
  convolution_param {
    num_output: 1000
    kernel_size: 1
    weight_filler {
      type: "gaussian"
      std: 0.01
    }
    bias_filler {
      type: "constant"
    }
  }
}
layer {
  name: "accuracy"
  type: "Accuracy"
  bottom: "fc8"
  bottom: "label"
  top: "accuracy"
  include {
    phase: TEST
  }
}
layer {
  name: "loss"
  type: "SoftmaxWithLoss"
  bottom: "fc8"
  bottom: "label"
  top: "loss"
}
I0523 14:18:48.005441 24130 layer_factory.hpp:77] Creating layer data
I0523 14:18:48.005631 24130 net.cpp:91] Creating Layer data
I0523 14:18:48.005637 24130 net.cpp:399] data -> data
I0523 14:18:48.005657 24130 net.cpp:399] data -> label
I0523 14:18:48.006271 24214 db_lmdb.cpp:35] Opened lmdb /home/share/storage/datasets/imagenet/lmdb/ilsvrc12_val_lmdb_341px
I0523 14:18:48.006695 24130 data_layer.cpp:41] output data size: 25,3,299,299
I0523 14:18:48.050729 24130 net.cpp:141] Setting up data
I0523 14:18:48.050748 24130 net.cpp:148] Top shape: 25 3 299 299 (6705075)
I0523 14:18:48.050752 24130 net.cpp:148] Top shape: 25 (25)
I0523 14:18:48.050755 24130 net.cpp:156] Memory required for data: 26820400
I0523 14:18:48.050760 24130 layer_factory.hpp:77] Creating layer label_data_1_split
I0523 14:18:48.051272 24130 net.cpp:91] Creating Layer label_data_1_split
I0523 14:18:48.051296 24130 net.cpp:425] label_data_1_split <- label
I0523 14:18:48.051635 24130 net.cpp:399] label_data_1_split -> label_data_1_split_0
I0523 14:18:48.051666 24130 net.cpp:399] label_data_1_split -> label_data_1_split_1
I0523 14:18:48.055902 24130 net.cpp:141] Setting up label_data_1_split
I0523 14:18:48.055932 24130 net.cpp:148] Top shape: 25 (25)
I0523 14:18:48.055935 24130 net.cpp:148] Top shape: 25 (25)
I0523 14:18:48.055938 24130 net.cpp:156] Memory required for data: 26820600
I0523 14:18:48.055943 24130 layer_factory.hpp:77] Creating layer conv1
I0523 14:18:48.055964 24130 net.cpp:91] Creating Layer conv1
I0523 14:18:48.055968 24130 net.cpp:425] conv1 <- data
I0523 14:18:48.055974 24130 net.cpp:399] conv1 -> conv1
I0523 14:18:48.057729 24130 net.cpp:141] Setting up conv1
I0523 14:18:48.057752 24130 net.cpp:148] Top shape: 25 96 73 73 (12789600)
I0523 14:18:48.057754 24130 net.cpp:156] Memory required for data: 77979000
I0523 14:18:48.057765 24130 layer_factory.hpp:77] Creating layer relu1
I0523 14:18:48.057781 24130 net.cpp:91] Creating Layer relu1
I0523 14:18:48.057785 24130 net.cpp:425] relu1 <- conv1
I0523 14:18:48.057788 24130 net.cpp:386] relu1 -> conv1 (in-place)
I0523 14:18:48.057932 24130 net.cpp:141] Setting up relu1
I0523 14:18:48.057939 24130 net.cpp:148] Top shape: 25 96 73 73 (12789600)
I0523 14:18:48.057940 24130 net.cpp:156] Memory required for data: 129137400
I0523 14:18:48.057952 24130 layer_factory.hpp:77] Creating layer pool1
I0523 14:18:48.057958 24130 net.cpp:91] Creating Layer pool1
I0523 14:18:48.057960 24130 net.cpp:425] pool1 <- conv1
I0523 14:18:48.057965 24130 net.cpp:399] pool1 -> pool1
I0523 14:18:48.057996 24130 net.cpp:141] Setting up pool1
I0523 14:18:48.058008 24130 net.cpp:148] Top shape: 25 96 36 36 (3110400)
I0523 14:18:48.058010 24130 net.cpp:156] Memory required for data: 141579000
I0523 14:18:48.058012 24130 layer_factory.hpp:77] Creating layer conv2
I0523 14:18:48.058030 24130 net.cpp:91] Creating Layer conv2
I0523 14:18:48.058094 24130 net.cpp:425] conv2 <- pool1
I0523 14:18:48.058100 24130 net.cpp:399] conv2 -> conv2
I0523 14:18:48.067569 24130 net.cpp:141] Setting up conv2
I0523 14:18:48.067600 24130 net.cpp:148] Top shape: 25 256 36 36 (8294400)
I0523 14:18:48.067603 24130 net.cpp:156] Memory required for data: 174756600
I0523 14:18:48.067615 24130 layer_factory.hpp:77] Creating layer relu2
I0523 14:18:48.067622 24130 net.cpp:91] Creating Layer relu2
I0523 14:18:48.067625 24130 net.cpp:425] relu2 <- conv2
I0523 14:18:48.067631 24130 net.cpp:386] relu2 -> conv2 (in-place)
I0523 14:18:48.067762 24130 net.cpp:141] Setting up relu2
I0523 14:18:48.067766 24130 net.cpp:148] Top shape: 25 256 36 36 (8294400)
I0523 14:18:48.067769 24130 net.cpp:156] Memory required for data: 207934200
I0523 14:18:48.067770 24130 layer_factory.hpp:77] Creating layer pool2
I0523 14:18:48.067775 24130 net.cpp:91] Creating Layer pool2
I0523 14:18:48.067777 24130 net.cpp:425] pool2 <- conv2
I0523 14:18:48.067781 24130 net.cpp:399] pool2 -> pool2
I0523 14:18:48.067812 24130 net.cpp:141] Setting up pool2
I0523 14:18:48.067816 24130 net.cpp:148] Top shape: 25 256 18 18 (2073600)
I0523 14:18:48.067817 24130 net.cpp:156] Memory required for data: 216228600
I0523 14:18:48.067819 24130 layer_factory.hpp:77] Creating layer conv3
I0523 14:18:48.067829 24130 net.cpp:91] Creating Layer conv3
I0523 14:18:48.067831 24130 net.cpp:425] conv3 <- pool2
I0523 14:18:48.067836 24130 net.cpp:399] conv3 -> conv3
I0523 14:18:48.091207 24130 net.cpp:141] Setting up conv3
I0523 14:18:48.091236 24130 net.cpp:148] Top shape: 25 384 18 18 (3110400)
I0523 14:18:48.091238 24130 net.cpp:156] Memory required for data: 228670200
I0523 14:18:48.091259 24130 layer_factory.hpp:77] Creating layer relu3
I0523 14:18:48.091266 24130 net.cpp:91] Creating Layer relu3
I0523 14:18:48.091269 24130 net.cpp:425] relu3 <- conv3
I0523 14:18:48.091274 24130 net.cpp:386] relu3 -> conv3 (in-place)
I0523 14:18:48.091500 24130 net.cpp:141] Setting up relu3
I0523 14:18:48.091507 24130 net.cpp:148] Top shape: 25 384 18 18 (3110400)
I0523 14:18:48.091521 24130 net.cpp:156] Memory required for data: 241111800
I0523 14:18:48.091523 24130 layer_factory.hpp:77] Creating layer conv4
I0523 14:18:48.091542 24130 net.cpp:91] Creating Layer conv4
I0523 14:18:48.091544 24130 net.cpp:425] conv4 <- conv3
I0523 14:18:48.091558 24130 net.cpp:399] conv4 -> conv4
I0523 14:18:48.113950 24130 net.cpp:141] Setting up conv4
I0523 14:18:48.113968 24130 net.cpp:148] Top shape: 25 384 18 18 (3110400)
I0523 14:18:48.113970 24130 net.cpp:156] Memory required for data: 253553400
I0523 14:18:48.113978 24130 layer_factory.hpp:77] Creating layer relu4
I0523 14:18:48.113986 24130 net.cpp:91] Creating Layer relu4
I0523 14:18:48.113989 24130 net.cpp:425] relu4 <- conv4
I0523 14:18:48.113996 24130 net.cpp:386] relu4 -> conv4 (in-place)
I0523 14:18:48.114213 24130 net.cpp:141] Setting up relu4
I0523 14:18:48.114222 24130 net.cpp:148] Top shape: 25 384 18 18 (3110400)
I0523 14:18:48.114223 24130 net.cpp:156] Memory required for data: 265995000
I0523 14:18:48.114225 24130 layer_factory.hpp:77] Creating layer conv5
I0523 14:18:48.114235 24130 net.cpp:91] Creating Layer conv5
I0523 14:18:48.114238 24130 net.cpp:425] conv5 <- conv4
I0523 14:18:48.114243 24130 net.cpp:399] conv5 -> conv5
I0523 14:18:48.126998 24130 net.cpp:141] Setting up conv5
I0523 14:18:48.127018 24130 net.cpp:148] Top shape: 25 256 18 18 (2073600)
I0523 14:18:48.127020 24130 net.cpp:156] Memory required for data: 274289400
I0523 14:18:48.127032 24130 layer_factory.hpp:77] Creating layer relu5
I0523 14:18:48.127051 24130 net.cpp:91] Creating Layer relu5
I0523 14:18:48.127054 24130 net.cpp:425] relu5 <- conv5
I0523 14:18:48.127058 24130 net.cpp:386] relu5 -> conv5 (in-place)
I0523 14:18:48.127279 24130 net.cpp:141] Setting up relu5
I0523 14:18:48.127285 24130 net.cpp:148] Top shape: 25 256 18 18 (2073600)
I0523 14:18:48.127286 24130 net.cpp:156] Memory required for data: 282583800
I0523 14:18:48.127290 24130 layer_factory.hpp:77] Creating layer pool5
I0523 14:18:48.127315 24130 net.cpp:91] Creating Layer pool5
I0523 14:18:48.127318 24130 net.cpp:425] pool5 <- conv5
I0523 14:18:48.127323 24130 net.cpp:399] pool5 -> pool5
I0523 14:18:48.127357 24130 net.cpp:141] Setting up pool5
I0523 14:18:48.127362 24130 net.cpp:148] Top shape: 25 256 9 9 (518400)
I0523 14:18:48.127363 24130 net.cpp:156] Memory required for data: 284657400
I0523 14:18:48.127365 24130 layer_factory.hpp:77] Creating layer fc6
I0523 14:18:48.127374 24130 net.cpp:91] Creating Layer fc6
I0523 14:18:48.127377 24130 net.cpp:425] fc6 <- pool5
I0523 14:18:48.127382 24130 net.cpp:399] fc6 -> fc6
I0523 14:18:49.046346 24130 net.cpp:141] Setting up fc6
I0523 14:18:49.046366 24130 net.cpp:148] Top shape: 25 4096 10 10 (10240000)
I0523 14:18:49.046370 24130 net.cpp:156] Memory required for data: 325617400
I0523 14:18:49.046376 24130 layer_factory.hpp:77] Creating layer relu6
I0523 14:18:49.046386 24130 net.cpp:91] Creating Layer relu6
I0523 14:18:49.046391 24130 net.cpp:425] relu6 <- fc6
I0523 14:18:49.046396 24130 net.cpp:386] relu6 -> fc6 (in-place)
I0523 14:18:49.046548 24130 net.cpp:141] Setting up relu6
I0523 14:18:49.046555 24130 net.cpp:148] Top shape: 25 4096 10 10 (10240000)
I0523 14:18:49.046557 24130 net.cpp:156] Memory required for data: 366577400
I0523 14:18:49.046560 24130 layer_factory.hpp:77] Creating layer drop6
I0523 14:18:49.046566 24130 net.cpp:91] Creating Layer drop6
I0523 14:18:49.046567 24130 net.cpp:425] drop6 <- fc6
I0523 14:18:49.046571 24130 net.cpp:386] drop6 -> fc6 (in-place)
I0523 14:18:49.046605 24130 net.cpp:141] Setting up drop6
I0523 14:18:49.046618 24130 net.cpp:148] Top shape: 25 4096 10 10 (10240000)
I0523 14:18:49.046620 24130 net.cpp:156] Memory required for data: 407537400
I0523 14:18:49.046622 24130 layer_factory.hpp:77] Creating layer fc7
I0523 14:18:49.046640 24130 net.cpp:91] Creating Layer fc7
I0523 14:18:49.046643 24130 net.cpp:425] fc7 <- fc6
I0523 14:18:49.046648 24130 net.cpp:399] fc7 -> fc7
I0523 14:18:49.453114 24130 net.cpp:141] Setting up fc7
I0523 14:18:49.453135 24130 net.cpp:148] Top shape: 25 4096 10 10 (10240000)
I0523 14:18:49.453137 24130 net.cpp:156] Memory required for data: 448497400
I0523 14:18:49.453145 24130 layer_factory.hpp:77] Creating layer relu7
I0523 14:18:49.453152 24130 net.cpp:91] Creating Layer relu7
I0523 14:18:49.453155 24130 net.cpp:425] relu7 <- fc7
I0523 14:18:49.453161 24130 net.cpp:386] relu7 -> fc7 (in-place)
I0523 14:18:49.453321 24130 net.cpp:141] Setting up relu7
I0523 14:18:49.453339 24130 net.cpp:148] Top shape: 25 4096 10 10 (10240000)
I0523 14:18:49.453341 24130 net.cpp:156] Memory required for data: 489457400
I0523 14:18:49.453344 24130 layer_factory.hpp:77] Creating layer fc7pool
I0523 14:18:49.453349 24130 net.cpp:91] Creating Layer fc7pool
I0523 14:18:49.453351 24130 net.cpp:425] fc7pool <- fc7
I0523 14:18:49.453356 24130 net.cpp:399] fc7pool -> fc7pool
I0523 14:18:49.453647 24130 net.cpp:141] Setting up fc7pool
I0523 14:18:49.453655 24130 net.cpp:148] Top shape: 25 4096 1 1 (102400)
I0523 14:18:49.453666 24130 net.cpp:156] Memory required for data: 489867000
I0523 14:18:49.453670 24130 layer_factory.hpp:77] Creating layer drop7
I0523 14:18:49.453675 24130 net.cpp:91] Creating Layer drop7
I0523 14:18:49.453677 24130 net.cpp:425] drop7 <- fc7pool
I0523 14:18:49.453681 24130 net.cpp:399] drop7 -> drop7
I0523 14:18:49.453732 24130 net.cpp:141] Setting up drop7
I0523 14:18:49.453737 24130 net.cpp:148] Top shape: 25 4096 1 1 (102400)
I0523 14:18:49.453738 24130 net.cpp:156] Memory required for data: 490276600
I0523 14:18:49.453750 24130 layer_factory.hpp:77] Creating layer fc8
I0523 14:18:49.453760 24130 net.cpp:91] Creating Layer fc8
I0523 14:18:49.453763 24130 net.cpp:425] fc8 <- drop7
I0523 14:18:49.453766 24130 net.cpp:399] fc8 -> fc8
I0523 14:18:49.554867 24130 net.cpp:141] Setting up fc8
I0523 14:18:49.554898 24130 net.cpp:148] Top shape: 25 1000 1 1 (25000)
I0523 14:18:49.554900 24130 net.cpp:156] Memory required for data: 490376600
I0523 14:18:49.554908 24130 layer_factory.hpp:77] Creating layer fc8_fc8_0_split
I0523 14:18:49.554945 24130 net.cpp:91] Creating Layer fc8_fc8_0_split
I0523 14:18:49.554949 24130 net.cpp:425] fc8_fc8_0_split <- fc8
I0523 14:18:49.554955 24130 net.cpp:399] fc8_fc8_0_split -> fc8_fc8_0_split_0
I0523 14:18:49.554970 24130 net.cpp:399] fc8_fc8_0_split -> fc8_fc8_0_split_1
I0523 14:18:49.555039 24130 net.cpp:141] Setting up fc8_fc8_0_split
I0523 14:18:49.555043 24130 net.cpp:148] Top shape: 25 1000 1 1 (25000)
I0523 14:18:49.555055 24130 net.cpp:148] Top shape: 25 1000 1 1 (25000)
I0523 14:18:49.555057 24130 net.cpp:156] Memory required for data: 490576600
I0523 14:18:49.555059 24130 layer_factory.hpp:77] Creating layer accuracy
I0523 14:18:49.555076 24130 net.cpp:91] Creating Layer accuracy
I0523 14:18:49.555079 24130 net.cpp:425] accuracy <- fc8_fc8_0_split_0
I0523 14:18:49.555081 24130 net.cpp:425] accuracy <- label_data_1_split_0
I0523 14:18:49.555096 24130 net.cpp:399] accuracy -> accuracy
…
I0527 15:55:30.204612 21522 net.cpp:313] The NetState phase (1) differed from the phase (0) specified by a rule in layer data
I0527 15:55:30.204742 21522 net.cpp:49] Initializing net from parameters: 
name: "CaffeNet"
state {
  phase: TEST
}
layer {
  name: "data"
  type: "Data"
  top: "data"
  top: "label"
  include {
    phase: TEST
  }
  transform_param {
    scale: 0.04
    mirror: false
    crop_size: 299
    mean_value: 104
    mean_value: 117
    mean_value: 123
  }
  data_param {
    source: "/home/share/storage/datasets/imagenet/lmdb/ilsvrc12_val_lmdb_341px"
    batch_size: 25
    backend: LMDB
  }
}
layer {
  name: "conv1"
  type: "Convolution"
  bottom: "data"
  top: "conv1"
  param {
    lr_mult: 1
    decay_mult: 1
  }
  param {
    lr_mult: 2
    decay_mult: 0
  }
  convolution_param {
    num_output: 96
    kernel_size: 11
    stride: 4
    weight_filler {
      type: "gaussian"
      std: 0.01
    }
    bias_filler {
      type: "constant"
    }
  }
}
layer {
  name: "relu1"
  type: "ReLU"
  bottom: "conv1"
  top: "conv1"
}
layer {
  name: "pool1"
  type: "Pooling"
  bottom: "conv1"
  top: "pool1"
  pooling_param {
    pool: MAX
    kernel_size: 3
    stride: 2
  }
}
layer {
  name: "conv2"
  type: "Convolution"
  bottom: "pool1"
  top: "conv2"
  param {
    lr_mult: 1
    decay_mult: 1
  }
  param {
    lr_mult: 2
    decay_mult: 0
  }
  convolution_param {
    num_output: 256
    pad: 2
    kernel_size: 5
    group: 2
    weight_filler {
      type: "gaussian"
      std: 0.01
    }
    bias_filler {
      type: "constant"
    }
  }
}
layer {
  name: "relu2"
  type: "ReLU"
  bottom: "conv2"
  top: "conv2"
}
layer {
  name: "pool2"
  type: "Pooling"
  bottom: "conv2"
  top: "pool2"
  pooling_param {
    pool: MAX
    kernel_size: 3
    stride: 2
  }
}
layer {
  name: "conv3"
  type: "Convolution"
  bottom: "pool2"
  top: "conv3"
  param {
    lr_mult: 1
    decay_mult: 1
  }
  param {
    lr_mult: 2
    decay_mult: 0
  }
  convolution_param {
    num_output: 384
    pad: 1
    kernel_size: 3
    weight_filler {
      type: "gaussian"
      std: 0.01
    }
    bias_filler {
      type: "constant"
    }
  }
}
layer {
  name: "relu3"
  type: "ReLU"
  bottom: "conv3"
  top: "conv3"
}
layer {
  name: "conv4"
  type: "Convolution"
  bottom: "conv3"
  top: "conv4"
  param {
    lr_mult: 1
    decay_mult: 1
  }
  param {
    lr_mult: 2
    decay_mult: 0
  }
  convolution_param {
    num_output: 384
    pad: 1
    kernel_size: 3
    group: 2
    weight_filler {
      type: "gaussian"
      std: 0.01
    }
    bias_filler {
      type: "constant"
    }
  }
}
layer {
  name: "relu4"
  type: "ReLU"
  bottom: "conv4"
  top: "conv4"
}
layer {
  name: "conv5"
  type: "Convolution"
  bottom: "conv4"
  top: "conv5"
  param {
    lr_mult: 1
    decay_mult: 1
  }
  param {
    lr_mult: 2
    decay_mult: 0
  }
  convolution_param {
    num_output: 256
    pad: 1
    kernel_size: 3
    group: 2
    weight_filler {
      type: "gaussian"
      std: 0.01
    }
    bias_filler {
      type: "constant"
    }
  }
}
layer {
  name: "relu5"
  type: "ReLU"
  bottom: "conv5"
  top: "conv5"
}
layer {
  name: "pool5"
  type: "Pooling"
  bottom: "conv5"
  top: "pool5"
  pooling_param {
    pool: MAX
    kernel_size: 3
    stride: 2
  }
}
layer {
  name: "fc6"
  type: "Convolution"
  bottom: "pool5"
  top: "fc6"
  param {
    lr_mult: 1
    decay_mult: 1
  }
  param {
    lr_mult: 2
    decay_mult: 0
  }
  convolution_param {
    num_output: 4096
    pad: 3
    kernel_size: 6
    weight_filler {
      type: "gaussian"
      std: 0.01
    }
    bias_filler {
      type: "constant"
    }
  }
}
layer {
  name: "relu6"
  type: "ReLU"
  bottom: "fc6"
  top: "fc6"
}
layer {
  name: "drop6"
  type: "Dropout"
  bottom: "fc6"
  top: "fc6"
  dropout_param {
    dropout_ratio: 0.5
  }
}
layer {
  name: "fc7"
  type: "Convolution"
  bottom: "fc6"
  top: "fc7"
  param {
    lr_mult: 1
    decay_mult: 1
  }
  param {
    lr_mult: 2
    decay_mult: 0
  }
  convolution_param {
    num_output: 4096
    kernel_size: 1
    weight_filler {
      type: "gaussian"
      std: 0.01
    }
    bias_filler {
      type: "constant"
    }
  }
}
layer {
  name: "relu7"
  type: "ReLU"
  bottom: "fc7"
  top: "fc7"
}
layer {
  name: "fc7pool"
  type: "Pooling"
  bottom: "fc7"
  top: "fc7pool"
  pooling_param {
    pool: AVE
    global_pooling: true
  }
}
layer {
  name: "drop7"
  type: "Dropout"
  bottom: "fc7pool"
  top: "drop7"
  dropout_param {
    dropout_ratio: 0.5
  }
}
layer {
  name: "fc8"
  type: "Convolution"
  bottom: "drop7"
  top: "fc8"
  param {
    lr_mult: 1
    decay_mult: 1
  }
  param {
    lr_mult: 2
    decay_mult: 0
  }
  convolution_param {
    num_output: 1000
    kernel_size: 1
    weight_filler {
      type: "gaussian"
      std: 0.01
    }
    bias_filler {
      type: "constant"
    }
  }
}
layer {
  name: "accuracy"
  type: "Accuracy"
  bottom: "fc8"
  bottom: "label"
  top: "accuracy"
  include {
    phase: TEST
  }
}
layer {
  name: "loss"
  type: "SoftmaxWithLoss"
  bottom: "fc8"
  bottom: "label"
  top: "loss"
}
layer {
  name: "top5"
  type: "Accuracy"
  bottom: "fc8"
  bottom: "label"
  top: "top5"
  include {
    phase: TEST
  }
  accuracy_param {
    top_k: 5
  }
}
I0527 15:55:30.204830 21522 layer_factory.hpp:77] Creating layer data
I0527 15:55:30.204891 21522 net.cpp:91] Creating Layer data
I0527 15:55:30.204895 21522 net.cpp:399] data -> data
I0527 15:55:30.204901 21522 net.cpp:399] data -> label
I0527 15:55:30.248930 21528 db_lmdb.cpp:35] Opened lmdb /home/share/storage/datasets/imagenet/lmdb/ilsvrc12_val_lmdb_341px
I0527 15:55:30.279079 21522 data_layer.cpp:41] output data size: 25,3,299,299
I0527 15:55:30.316367 21522 net.cpp:141] Setting up data
I0527 15:55:30.316396 21522 net.cpp:148] Top shape: 25 3 299 299 (6705075)
I0527 15:55:30.316401 21522 net.cpp:148] Top shape: 25 (25)
I0527 15:55:30.316402 21522 net.cpp:156] Memory required for data: 26820400
I0527 15:55:30.316406 21522 layer_factory.hpp:77] Creating layer label_data_1_split
I0527 15:55:30.316431 21522 net.cpp:91] Creating Layer label_data_1_split
I0527 15:55:30.316433 21522 net.cpp:425] label_data_1_split <- label
I0527 15:55:30.316438 21522 net.cpp:399] label_data_1_split -> label_data_1_split_0
I0527 15:55:30.316447 21522 net.cpp:399] label_data_1_split -> label_data_1_split_1
I0527 15:55:30.316450 21522 net.cpp:399] label_data_1_split -> label_data_1_split_2
I0527 15:55:30.316556 21522 net.cpp:141] Setting up label_data_1_split
I0527 15:55:30.316562 21522 net.cpp:148] Top shape: 25 (25)
I0527 15:55:30.316575 21522 net.cpp:148] Top shape: 25 (25)
I0527 15:55:30.316576 21522 net.cpp:148] Top shape: 25 (25)
I0527 15:55:30.316578 21522 net.cpp:156] Memory required for data: 26820700
I0527 15:55:30.316581 21522 layer_factory.hpp:77] Creating layer conv1
I0527 15:55:30.316601 21522 net.cpp:91] Creating Layer conv1
I0527 15:55:30.316602 21522 net.cpp:425] conv1 <- data
I0527 15:55:30.316606 21522 net.cpp:399] conv1 -> conv1
I0527 15:55:30.321902 21522 net.cpp:141] Setting up conv1
I0527 15:55:30.321923 21522 net.cpp:148] Top shape: 25 96 73 73 (12789600)
I0527 15:55:30.321925 21522 net.cpp:156] Memory required for data: 77979100
I0527 15:55:30.321933 21522 layer_factory.hpp:77] Creating layer relu1
I0527 15:55:30.321949 21522 net.cpp:91] Creating Layer relu1
I0527 15:55:30.321950 21522 net.cpp:425] relu1 <- conv1
I0527 15:55:30.321954 21522 net.cpp:386] relu1 -> conv1 (in-place)
I0527 15:55:30.322082 21522 net.cpp:141] Setting up relu1
I0527 15:55:30.322088 21522 net.cpp:148] Top shape: 25 96 73 73 (12789600)
I0527 15:55:30.322111 21522 net.cpp:156] Memory required for data: 129137500
I0527 15:55:30.322113 21522 layer_factory.hpp:77] Creating layer pool1
I0527 15:55:30.322120 21522 net.cpp:91] Creating Layer pool1
I0527 15:55:30.322123 21522 net.cpp:425] pool1 <- conv1
I0527 15:55:30.322126 21522 net.cpp:399] pool1 -> pool1
I0527 15:55:30.322160 21522 net.cpp:141] Setting up pool1
I0527 15:55:30.322165 21522 net.cpp:148] Top shape: 25 96 36 36 (3110400)
I0527 15:55:30.322167 21522 net.cpp:156] Memory required for data: 141579100
I0527 15:55:30.322170 21522 layer_factory.hpp:77] Creating layer conv2
I0527 15:55:30.322177 21522 net.cpp:91] Creating Layer conv2
I0527 15:55:30.322180 21522 net.cpp:425] conv2 <- pool1
I0527 15:55:30.322183 21522 net.cpp:399] conv2 -> conv2
I0527 15:55:30.331189 21522 net.cpp:141] Setting up conv2
I0527 15:55:30.331207 21522 net.cpp:148] Top shape: 25 256 36 36 (8294400)
I0527 15:55:30.331210 21522 net.cpp:156] Memory required for data: 174756700
I0527 15:55:30.331220 21522 layer_factory.hpp:77] Creating layer relu2
I0527 15:55:30.331228 21522 net.cpp:91] Creating Layer relu2
I0527 15:55:30.331239 21522 net.cpp:425] relu2 <- conv2
I0527 15:55:30.331243 21522 net.cpp:386] relu2 -> conv2 (in-place)
I0527 15:55:30.331374 21522 net.cpp:141] Setting up relu2
I0527 15:55:30.331380 21522 net.cpp:148] Top shape: 25 256 36 36 (8294400)
I0527 15:55:30.331382 21522 net.cpp:156] Memory required for data: 207934300
I0527 15:55:30.331384 21522 layer_factory.hpp:77] Creating layer pool2
I0527 15:55:30.331389 21522 net.cpp:91] Creating Layer pool2
I0527 15:55:30.331390 21522 net.cpp:425] pool2 <- conv2
I0527 15:55:30.331393 21522 net.cpp:399] pool2 -> pool2
I0527 15:55:30.331444 21522 net.cpp:141] Setting up pool2
I0527 15:55:30.331449 21522 net.cpp:148] Top shape: 25 256 18 18 (2073600)
I0527 15:55:30.331450 21522 net.cpp:156] Memory required for data: 216228700
I0527 15:55:30.331452 21522 layer_factory.hpp:77] Creating layer conv3
I0527 15:55:30.331460 21522 net.cpp:91] Creating Layer conv3
I0527 15:55:30.331462 21522 net.cpp:425] conv3 <- pool2
I0527 15:55:30.331476 21522 net.cpp:399] conv3 -> conv3
I0527 15:55:30.352933 21522 net.cpp:141] Setting up conv3
I0527 15:55:30.352952 21522 net.cpp:148] Top shape: 25 384 18 18 (3110400)
I0527 15:55:30.352954 21522 net.cpp:156] Memory required for data: 228670300
I0527 15:55:30.352962 21522 layer_factory.hpp:77] Creating layer relu3
I0527 15:55:30.352972 21522 net.cpp:91] Creating Layer relu3
I0527 15:55:30.352974 21522 net.cpp:425] relu3 <- conv3
I0527 15:55:30.352988 21522 net.cpp:386] relu3 -> conv3 (in-place)
I0527 15:55:30.353195 21522 net.cpp:141] Setting up relu3
I0527 15:55:30.353202 21522 net.cpp:148] Top shape: 25 384 18 18 (3110400)
I0527 15:55:30.353204 21522 net.cpp:156] Memory required for data: 241111900
I0527 15:55:30.353206 21522 layer_factory.hpp:77] Creating layer conv4
I0527 15:55:30.353216 21522 net.cpp:91] Creating Layer conv4
I0527 15:55:30.353219 21522 net.cpp:425] conv4 <- conv3
I0527 15:55:30.353222 21522 net.cpp:399] conv4 -> conv4
I0527 15:55:30.370301 21522 net.cpp:141] Setting up conv4
I0527 15:55:30.370328 21522 net.cpp:148] Top shape: 25 384 18 18 (3110400)
I0527 15:55:30.370332 21522 net.cpp:156] Memory required for data: 253553500
I0527 15:55:30.370337 21522 layer_factory.hpp:77] Creating layer relu4
I0527 15:55:30.370345 21522 net.cpp:91] Creating Layer relu4
I0527 15:55:30.370348 21522 net.cpp:425] relu4 <- conv4
I0527 15:55:30.370352 21522 net.cpp:386] relu4 -> conv4 (in-place)
I0527 15:55:30.370570 21522 net.cpp:141] Setting up relu4
I0527 15:55:30.370579 21522 net.cpp:148] Top shape: 25 384 18 18 (3110400)
I0527 15:55:30.370590 21522 net.cpp:156] Memory required for data: 265995100
I0527 15:55:30.370592 21522 layer_factory.hpp:77] Creating layer conv5
I0527 15:55:30.370601 21522 net.cpp:91] Creating Layer conv5
I0527 15:55:30.370604 21522 net.cpp:425] conv5 <- conv4
I0527 15:55:30.370609 21522 net.cpp:399] conv5 -> conv5
I0527 15:55:30.382153 21522 net.cpp:141] Setting up conv5
I0527 15:55:30.382189 21522 net.cpp:148] Top shape: 25 256 18 18 (2073600)
I0527 15:55:30.382208 21522 net.cpp:156] Memory required for data: 274289500
I0527 15:55:30.382220 21522 layer_factory.hpp:77] Creating layer relu5
I0527 15:55:30.382227 21522 net.cpp:91] Creating Layer relu5
I0527 15:55:30.382241 21522 net.cpp:425] relu5 <- conv5
I0527 15:55:30.382244 21522 net.cpp:386] relu5 -> conv5 (in-place)
I0527 15:55:30.382464 21522 net.cpp:141] Setting up relu5
I0527 15:55:30.382472 21522 net.cpp:148] Top shape: 25 256 18 18 (2073600)
I0527 15:55:30.382473 21522 net.cpp:156] Memory required for data: 282583900
I0527 15:55:30.382475 21522 layer_factory.hpp:77] Creating layer pool5
I0527 15:55:30.382480 21522 net.cpp:91] Creating Layer pool5
I0527 15:55:30.382483 21522 net.cpp:425] pool5 <- conv5
I0527 15:55:30.382485 21522 net.cpp:399] pool5 -> pool5
I0527 15:55:30.382527 21522 net.cpp:141] Setting up pool5
I0527 15:55:30.382531 21522 net.cpp:148] Top shape: 25 256 9 9 (518400)
I0527 15:55:30.382546 21522 net.cpp:156] Memory required for data: 284657500
I0527 15:55:30.382549 21522 layer_factory.hpp:77] Creating layer fc6
I0527 15:55:30.382557 21522 net.cpp:91] Creating Layer fc6
I0527 15:55:30.382560 21522 net.cpp:425] fc6 <- pool5
I0527 15:55:30.382563 21522 net.cpp:399] fc6 -> fc6
I0527 15:55:31.261488 21522 net.cpp:141] Setting up fc6
I0527 15:55:31.261508 21522 net.cpp:148] Top shape: 25 4096 10 10 (10240000)
I0527 15:55:31.261512 21522 net.cpp:156] Memory required for data: 325617500
I0527 15:55:31.261518 21522 layer_factory.hpp:77] Creating layer relu6
I0527 15:55:31.261530 21522 net.cpp:91] Creating Layer relu6
I0527 15:55:31.261533 21522 net.cpp:425] relu6 <- fc6
I0527 15:55:31.261548 21522 net.cpp:386] relu6 -> fc6 (in-place)
I0527 15:55:31.261687 21522 net.cpp:141] Setting up relu6
I0527 15:55:31.261694 21522 net.cpp:148] Top shape: 25 4096 10 10 (10240000)
I0527 15:55:31.261696 21522 net.cpp:156] Memory required for data: 366577500
I0527 15:55:31.261698 21522 layer_factory.hpp:77] Creating layer drop6
I0527 15:55:31.261703 21522 net.cpp:91] Creating Layer drop6
I0527 15:55:31.261704 21522 net.cpp:425] drop6 <- fc6
I0527 15:55:31.261708 21522 net.cpp:386] drop6 -> fc6 (in-place)
I0527 15:55:31.261740 21522 net.cpp:141] Setting up drop6
I0527 15:55:31.261745 21522 net.cpp:148] Top shape: 25 4096 10 10 (10240000)
I0527 15:55:31.261747 21522 net.cpp:156] Memory required for data: 407537500
I0527 15:55:31.261749 21522 layer_factory.hpp:77] Creating layer fc7
I0527 15:55:31.261757 21522 net.cpp:91] Creating Layer fc7
I0527 15:55:31.261759 21522 net.cpp:425] fc7 <- fc6
I0527 15:55:31.261766 21522 net.cpp:399] fc7 -> fc7
I0527 15:55:31.644702 21522 net.cpp:141] Setting up fc7
I0527 15:55:31.644723 21522 net.cpp:148] Top shape: 25 4096 10 10 (10240000)
I0527 15:55:31.644726 21522 net.cpp:156] Memory required for data: 448497500
I0527 15:55:31.644733 21522 layer_factory.hpp:77] Creating layer relu7
I0527 15:55:31.644742 21522 net.cpp:91] Creating Layer relu7
I0527 15:55:31.644745 21522 net.cpp:425] relu7 <- fc7
I0527 15:55:31.644760 21522 net.cpp:386] relu7 -> fc7 (in-place)
I0527 15:55:31.644914 21522 net.cpp:141] Setting up relu7
I0527 15:55:31.644922 21522 net.cpp:148] Top shape: 25 4096 10 10 (10240000)
I0527 15:55:31.644933 21522 net.cpp:156] Memory required for data: 489457500
I0527 15:55:31.644935 21522 layer_factory.hpp:77] Creating layer fc7pool
I0527 15:55:31.644942 21522 net.cpp:91] Creating Layer fc7pool
I0527 15:55:31.644943 21522 net.cpp:425] fc7pool <- fc7
I0527 15:55:31.644958 21522 net.cpp:399] fc7pool -> fc7pool
I0527 15:55:31.645216 21522 net.cpp:141] Setting up fc7pool
I0527 15:55:31.645223 21522 net.cpp:148] Top shape: 25 4096 1 1 (102400)
I0527 15:55:31.645236 21522 net.cpp:156] Memory required for data: 489867100
I0527 15:55:31.645237 21522 layer_factory.hpp:77] Creating layer drop7
I0527 15:55:31.645244 21522 net.cpp:91] Creating Layer drop7
I0527 15:55:31.645246 21522 net.cpp:425] drop7 <- fc7pool
I0527 15:55:31.645259 21522 net.cpp:399] drop7 -> drop7
I0527 15:55:31.645306 21522 net.cpp:141] Setting up drop7
I0527 15:55:31.645340 21522 net.cpp:148] Top shape: 25 4096 1 1 (102400)
I0527 15:55:31.645352 21522 net.cpp:156] Memory required for data: 490276700
I0527 15:55:31.645354 21522 layer_factory.hpp:77] Creating layer fc8
I0527 15:55:31.645364 21522 net.cpp:91] Creating Layer fc8
I0527 15:55:31.645375 21522 net.cpp:425] fc8 <- drop7
I0527 15:55:31.645380 21522 net.cpp:399] fc8 -> fc8
I0527 15:55:31.740542 21522 net.cpp:141] Setting up fc8
I0527 15:55:31.740564 21522 net.cpp:148] Top shape: 25 1000 1 1 (25000)
I0527 15:55:31.740566 21522 net.cpp:156] Memory required for data: 490376700
I0527 15:55:31.740573 21522 layer_factory.hpp:77] Creating layer fc8_fc8_0_split
I0527 15:55:31.740581 21522 net.cpp:91] Creating Layer fc8_fc8_0_split
I0527 15:55:31.740584 21522 net.cpp:425] fc8_fc8_0_split <- fc8
I0527 15:55:31.740589 21522 net.cpp:399] fc8_fc8_0_split -> fc8_fc8_0_split_0
I0527 15:55:31.740597 21522 net.cpp:399] fc8_fc8_0_split -> fc8_fc8_0_split_1
I0527 15:55:31.740604 21522 net.cpp:399] fc8_fc8_0_split -> fc8_fc8_0_split_2
I0527 15:55:31.740684 21522 net.cpp:141] Setting up fc8_fc8_0_split
I0527 15:55:31.740689 21522 net.cpp:148] Top shape: 25 1000 1 1 (25000)
I0527 15:55:31.740701 21522 net.cpp:148] Top shape: 25 1000 1 1 (25000)
I0527 15:55:31.740703 21522 net.cpp:148] Top shape: 25 1000 1 1 (25000)
I0527 15:55:31.740705 21522 net.cpp:156] Memory required for data: 490676700
I0527 15:55:31.740707 21522 layer_factory.hpp:77] Creating layer accuracy
I0527 15:55:31.740717 21522 net.cpp:91] Creating Layer accuracy
I0527 15:55:31.740720 21522 net.cpp:425] accuracy <- fc8_fc8_0_split_0
I0527 15:55:31.740722 21522 net.cpp:425] accuracy <- label_data_1_split_0
I0527 15:55:31.740725 21522 net.cpp:399] accuracy -> accuracy
…
I0527 19:51:43.455093 24904 net.cpp:313] The NetState phase (1) differed from the phase (0) specified by a rule in layer data
I0527 19:51:43.455250 24904 net.cpp:49] Initializing net from parameters: 
name: "CaffeNet"
state {
  phase: TEST
}
layer {
  name: "data"
  type: "Data"
  top: "data"
  top: "label"
  include {
    phase: TEST
  }
  transform_param {
    scale: 0.04
    mirror: false
    crop_size: 299
    mean_value: 104
    mean_value: 117
    mean_value: 123
  }
  data_param {
    source: "/home/share/storage/datasets/imagenet/lmdb/ilsvrc12_val_lmdb_341px"
    batch_size: 20
    backend: LMDB
  }
}
layer {
  name: "conv1"
  type: "Convolution"
  bottom: "data"
  top: "conv1"
  param {
    lr_mult: 1
    decay_mult: 1
  }
  param {
    lr_mult: 2
    decay_mult: 0
  }
  convolution_param {
    num_output: 96
    kernel_size: 11
    stride: 4
    weight_filler {
      type: "gaussian"
      std: 0.01
    }
    bias_filler {
      type: "constant"
    }
  }
}
layer {
  name: "relu1"
  type: "ReLU"
  bottom: "conv1"
  top: "conv1"
}
layer {
  name: "pool1"
  type: "Pooling"
  bottom: "conv1"
  top: "pool1"
  pooling_param {
    pool: MAX
    kernel_size: 3
    stride: 2
  }
}
layer {
  name: "conv2"
  type: "Convolution"
  bottom: "pool1"
  top: "conv2"
  param {
    lr_mult: 1
    decay_mult: 1
  }
  param {
    lr_mult: 2
    decay_mult: 0
  }
  convolution_param {
    num_output: 256
    pad: 2
    kernel_size: 5
    group: 2
    weight_filler {
      type: "gaussian"
      std: 0.01
    }
    bias_filler {
      type: "constant"
    }
  }
}
layer {
  name: "relu2"
  type: "ReLU"
  bottom: "conv2"
  top: "conv2"
}
layer {
  name: "pool2"
  type: "Pooling"
  bottom: "conv2"
  top: "pool2"
  pooling_param {
    pool: MAX
    kernel_size: 3
    stride: 2
  }
}
layer {
  name: "conv3"
  type: "Convolution"
  bottom: "pool2"
  top: "conv3"
  param {
    lr_mult: 1
    decay_mult: 1
  }
  param {
    lr_mult: 2
    decay_mult: 0
  }
  convolution_param {
    num_output: 384
    pad: 1
    kernel_size: 3
    weight_filler {
      type: "gaussian"
      std: 0.01
    }
    bias_filler {
      type: "constant"
    }
  }
}
layer {
  name: "relu3"
  type: "ReLU"
  bottom: "conv3"
  top: "conv3"
}
layer {
  name: "conv4"
  type: "Convolution"
  bottom: "conv3"
  top: "conv4"
  param {
    lr_mult: 1
    decay_mult: 1
  }
  param {
    lr_mult: 2
    decay_mult: 0
  }
  convolution_param {
    num_output: 384
    pad: 1
    kernel_size: 3
    group: 2
    weight_filler {
      type: "gaussian"
      std: 0.01
    }
    bias_filler {
      type: "constant"
    }
  }
}
layer {
  name: "relu4"
  type: "ReLU"
  bottom: "conv4"
  top: "conv4"
}
layer {
  name: "conv5"
  type: "Convolution"
  bottom: "conv4"
  top: "conv5"
  param {
    lr_mult: 1
    decay_mult: 1
  }
  param {
    lr_mult: 2
    decay_mult: 0
  }
  convolution_param {
    num_output: 256
    pad: 1
    kernel_size: 3
    group: 2
    weight_filler {
      type: "gaussian"
      std: 0.01
    }
    bias_filler {
      type: "constant"
    }
  }
}
layer {
  name: "relu5"
  type: "ReLU"
  bottom: "conv5"
  top: "conv5"
}
layer {
  name: "pool5"
  type: "Pooling"
  bottom: "conv5"
  top: "pool5"
  pooling_param {
    pool: MAX
    kernel_size: 3
    stride: 2
  }
}
layer {
  name: "fc6"
  type: "Convolution"
  bottom: "pool5"
  top: "fc6"
  param {
    lr_mult: 1
    decay_mult: 1
  }
  param {
    lr_mult: 2
    decay_mult: 0
  }
  convolution_param {
    num_output: 4096
    pad: 3
    kernel_size: 6
    weight_filler {
      type: "gaussian"
      std: 0.01
    }
    bias_filler {
      type: "constant"
    }
  }
}
layer {
  name: "relu6"
  type: "ReLU"
  bottom: "fc6"
  top: "fc6"
}
layer {
  name: "drop6"
  type: "Dropout"
  bottom: "fc6"
  top: "fc6"
  dropout_param {
    dropout_ratio: 0.5
  }
}
layer {
  name: "fc7"
  type: "Convolution"
  bottom: "fc6"
  top: "fc7"
  param {
    lr_mult: 1
    decay_mult: 1
  }
  param {
    lr_mult: 2
    decay_mult: 0
  }
  convolution_param {
    num_output: 4096
    kernel_size: 1
    weight_filler {
      type: "gaussian"
      std: 0.01
    }
    bias_filler {
      type: "constant"
    }
  }
}
layer {
  name: "relu7"
  type: "ReLU"
  bottom: "fc7"
  top: "fc7"
}
layer {
  name: "fc7pool"
  type: "Pooling"
  bottom: "fc7"
  top: "fc7pool"
  pooling_param {
    pool: AVE
    global_pooling: true
  }
}
layer {
  name: "drop7"
  type: "Dropout"
  bottom: "fc7pool"
  top: "drop7"
  dropout_param {
    dropout_ratio: 0.5
  }
}
layer {
  name: "fc8"
  type: "Convolution"
  bottom: "drop7"
  top: "fc8"
  param {
    lr_mult: 1
    decay_mult: 1
  }
  param {
    lr_mult: 2
    decay_mult: 0
  }
  convolution_param {
    num_output: 1000
    kernel_size: 1
    weight_filler {
      type: "gaussian"
      std: 0.01
    }
    bias_filler {
      type: "constant"
    }
  }
}
layer {
  name: "accuracy"
  type: "Accuracy"
  bottom: "fc8"
  bottom: "label"
  top: "accuracy"
  include {
    phase: TEST
  }
}
layer {
  name: "loss"
  type: "SoftmaxWithLoss"
  bottom: "fc8"
  bottom: "label"
  top: "loss"
}
layer {
  name: "top5"
  type: "Accuracy"
  bottom: "fc8"
  bottom: "label"
  top: "top5"
  include {
    phase: TEST
  }
  accuracy_param {
    top_k: 5
  }
}
I0527 19:51:43.455361 24904 layer_factory.hpp:77] Creating layer data
I0527 19:51:43.455428 24904 net.cpp:91] Creating Layer data
I0527 19:51:43.455445 24904 net.cpp:399] data -> data
I0527 19:51:43.455449 24904 net.cpp:399] data -> label
I0527 19:51:43.476346 24911 db_lmdb.cpp:35] Opened lmdb /home/share/storage/datasets/imagenet/lmdb/ilsvrc12_val_lmdb_341px
I0527 19:51:43.617789 24904 data_layer.cpp:41] output data size: 20,3,299,299
I0527 19:51:43.649235 24904 net.cpp:141] Setting up data
I0527 19:51:43.649267 24904 net.cpp:148] Top shape: 20 3 299 299 (5364060)
I0527 19:51:43.649271 24904 net.cpp:148] Top shape: 20 (20)
I0527 19:51:43.649273 24904 net.cpp:156] Memory required for data: 21456320
I0527 19:51:43.649278 24904 layer_factory.hpp:77] Creating layer label_data_1_split
I0527 19:51:43.649302 24904 net.cpp:91] Creating Layer label_data_1_split
I0527 19:51:43.649304 24904 net.cpp:425] label_data_1_split <- label
I0527 19:51:43.649309 24904 net.cpp:399] label_data_1_split -> label_data_1_split_0
I0527 19:51:43.649317 24904 net.cpp:399] label_data_1_split -> label_data_1_split_1
I0527 19:51:43.649320 24904 net.cpp:399] label_data_1_split -> label_data_1_split_2
I0527 19:51:43.649493 24904 net.cpp:141] Setting up label_data_1_split
I0527 19:51:43.649509 24904 net.cpp:148] Top shape: 20 (20)
I0527 19:51:43.649523 24904 net.cpp:148] Top shape: 20 (20)
I0527 19:51:43.649524 24904 net.cpp:148] Top shape: 20 (20)
I0527 19:51:43.649526 24904 net.cpp:156] Memory required for data: 21456560
I0527 19:51:43.649528 24904 layer_factory.hpp:77] Creating layer conv1
I0527 19:51:43.649549 24904 net.cpp:91] Creating Layer conv1
I0527 19:51:43.649551 24904 net.cpp:425] conv1 <- data
I0527 19:51:43.649556 24904 net.cpp:399] conv1 -> conv1
I0527 19:51:43.653970 24904 net.cpp:141] Setting up conv1
I0527 19:51:43.653980 24904 net.cpp:148] Top shape: 20 96 73 73 (10231680)
I0527 19:51:43.653991 24904 net.cpp:156] Memory required for data: 62383280
I0527 19:51:43.654000 24904 layer_factory.hpp:77] Creating layer relu1
I0527 19:51:43.654005 24904 net.cpp:91] Creating Layer relu1
I0527 19:51:43.654016 24904 net.cpp:425] relu1 <- conv1
I0527 19:51:43.654021 24904 net.cpp:386] relu1 -> conv1 (in-place)
I0527 19:51:43.654155 24904 net.cpp:141] Setting up relu1
I0527 19:51:43.654161 24904 net.cpp:148] Top shape: 20 96 73 73 (10231680)
I0527 19:51:43.654196 24904 net.cpp:156] Memory required for data: 103310000
I0527 19:51:43.654198 24904 layer_factory.hpp:77] Creating layer pool1
I0527 19:51:43.654213 24904 net.cpp:91] Creating Layer pool1
I0527 19:51:43.654216 24904 net.cpp:425] pool1 <- conv1
I0527 19:51:43.654218 24904 net.cpp:399] pool1 -> pool1
I0527 19:51:43.654266 24904 net.cpp:141] Setting up pool1
I0527 19:51:43.654279 24904 net.cpp:148] Top shape: 20 96 36 36 (2488320)
I0527 19:51:43.654281 24904 net.cpp:156] Memory required for data: 113263280
I0527 19:51:43.654284 24904 layer_factory.hpp:77] Creating layer conv2
I0527 19:51:43.654290 24904 net.cpp:91] Creating Layer conv2
I0527 19:51:43.654292 24904 net.cpp:425] conv2 <- pool1
I0527 19:51:43.654305 24904 net.cpp:399] conv2 -> conv2
I0527 19:51:43.662530 24904 net.cpp:141] Setting up conv2
I0527 19:51:43.662540 24904 net.cpp:148] Top shape: 20 256 36 36 (6635520)
I0527 19:51:43.662542 24904 net.cpp:156] Memory required for data: 139805360
I0527 19:51:43.662549 24904 layer_factory.hpp:77] Creating layer relu2
I0527 19:51:43.662554 24904 net.cpp:91] Creating Layer relu2
I0527 19:51:43.662555 24904 net.cpp:425] relu2 <- conv2
I0527 19:51:43.662559 24904 net.cpp:386] relu2 -> conv2 (in-place)
I0527 19:51:43.662698 24904 net.cpp:141] Setting up relu2
I0527 19:51:43.662704 24904 net.cpp:148] Top shape: 20 256 36 36 (6635520)
I0527 19:51:43.662706 24904 net.cpp:156] Memory required for data: 166347440
I0527 19:51:43.662708 24904 layer_factory.hpp:77] Creating layer pool2
I0527 19:51:43.662713 24904 net.cpp:91] Creating Layer pool2
I0527 19:51:43.662714 24904 net.cpp:425] pool2 <- conv2
I0527 19:51:43.662717 24904 net.cpp:399] pool2 -> pool2
I0527 19:51:43.662770 24904 net.cpp:141] Setting up pool2
I0527 19:51:43.662784 24904 net.cpp:148] Top shape: 20 256 18 18 (1658880)
I0527 19:51:43.662786 24904 net.cpp:156] Memory required for data: 172982960
I0527 19:51:43.662787 24904 layer_factory.hpp:77] Creating layer conv3
I0527 19:51:43.662806 24904 net.cpp:91] Creating Layer conv3
I0527 19:51:43.662808 24904 net.cpp:425] conv3 <- pool2
I0527 19:51:43.662822 24904 net.cpp:399] conv3 -> conv3
I0527 19:51:43.684064 24904 net.cpp:141] Setting up conv3
I0527 19:51:43.684083 24904 net.cpp:148] Top shape: 20 384 18 18 (2488320)
I0527 19:51:43.684085 24904 net.cpp:156] Memory required for data: 182936240
I0527 19:51:43.684095 24904 layer_factory.hpp:77] Creating layer relu3
I0527 19:51:43.684104 24904 net.cpp:91] Creating Layer relu3
I0527 19:51:43.684118 24904 net.cpp:425] relu3 <- conv3
I0527 19:51:43.684121 24904 net.cpp:386] relu3 -> conv3 (in-place)
I0527 19:51:43.684336 24904 net.cpp:141] Setting up relu3
I0527 19:51:43.684343 24904 net.cpp:148] Top shape: 20 384 18 18 (2488320)
I0527 19:51:43.684345 24904 net.cpp:156] Memory required for data: 192889520
I0527 19:51:43.684347 24904 layer_factory.hpp:77] Creating layer conv4
I0527 19:51:43.684355 24904 net.cpp:91] Creating Layer conv4
I0527 19:51:43.684358 24904 net.cpp:425] conv4 <- conv3
I0527 19:51:43.684362 24904 net.cpp:399] conv4 -> conv4
I0527 19:51:43.700575 24904 net.cpp:141] Setting up conv4
I0527 19:51:43.700592 24904 net.cpp:148] Top shape: 20 384 18 18 (2488320)
I0527 19:51:43.700594 24904 net.cpp:156] Memory required for data: 202842800
I0527 19:51:43.700599 24904 layer_factory.hpp:77] Creating layer relu4
I0527 19:51:43.700606 24904 net.cpp:91] Creating Layer relu4
I0527 19:51:43.700609 24904 net.cpp:425] relu4 <- conv4
I0527 19:51:43.700613 24904 net.cpp:386] relu4 -> conv4 (in-place)
I0527 19:51:43.700842 24904 net.cpp:141] Setting up relu4
I0527 19:51:43.700850 24904 net.cpp:148] Top shape: 20 384 18 18 (2488320)
I0527 19:51:43.700851 24904 net.cpp:156] Memory required for data: 212796080
I0527 19:51:43.700853 24904 layer_factory.hpp:77] Creating layer conv5
I0527 19:51:43.700862 24904 net.cpp:91] Creating Layer conv5
I0527 19:51:43.700865 24904 net.cpp:425] conv5 <- conv4
I0527 19:51:43.700868 24904 net.cpp:399] conv5 -> conv5
I0527 19:51:43.712100 24904 net.cpp:141] Setting up conv5
I0527 19:51:43.712136 24904 net.cpp:148] Top shape: 20 256 18 18 (1658880)
I0527 19:51:43.712137 24904 net.cpp:156] Memory required for data: 219431600
I0527 19:51:43.712155 24904 layer_factory.hpp:77] Creating layer relu5
I0527 19:51:43.712162 24904 net.cpp:91] Creating Layer relu5
I0527 19:51:43.712164 24904 net.cpp:425] relu5 <- conv5
I0527 19:51:43.712168 24904 net.cpp:386] relu5 -> conv5 (in-place)
I0527 19:51:43.712395 24904 net.cpp:141] Setting up relu5
I0527 19:51:43.712402 24904 net.cpp:148] Top shape: 20 256 18 18 (1658880)
I0527 19:51:43.712404 24904 net.cpp:156] Memory required for data: 226067120
I0527 19:51:43.712407 24904 layer_factory.hpp:77] Creating layer pool5
I0527 19:51:43.712412 24904 net.cpp:91] Creating Layer pool5
I0527 19:51:43.712415 24904 net.cpp:425] pool5 <- conv5
I0527 19:51:43.712419 24904 net.cpp:399] pool5 -> pool5
I0527 19:51:43.712460 24904 net.cpp:141] Setting up pool5
I0527 19:51:43.712472 24904 net.cpp:148] Top shape: 20 256 9 9 (414720)
I0527 19:51:43.712474 24904 net.cpp:156] Memory required for data: 227726000
I0527 19:51:43.712476 24904 layer_factory.hpp:77] Creating layer fc6
I0527 19:51:43.712494 24904 net.cpp:91] Creating Layer fc6
I0527 19:51:43.712497 24904 net.cpp:425] fc6 <- pool5
I0527 19:51:43.712510 24904 net.cpp:399] fc6 -> fc6
I0527 19:51:44.576304 24904 net.cpp:141] Setting up fc6
I0527 19:51:44.576326 24904 net.cpp:148] Top shape: 20 4096 10 10 (8192000)
I0527 19:51:44.576328 24904 net.cpp:156] Memory required for data: 260494000
I0527 19:51:44.576335 24904 layer_factory.hpp:77] Creating layer relu6
I0527 19:51:44.576345 24904 net.cpp:91] Creating Layer relu6
I0527 19:51:44.576349 24904 net.cpp:425] relu6 <- fc6
I0527 19:51:44.576364 24904 net.cpp:386] relu6 -> fc6 (in-place)
I0527 19:51:44.576501 24904 net.cpp:141] Setting up relu6
I0527 19:51:44.576508 24904 net.cpp:148] Top shape: 20 4096 10 10 (8192000)
I0527 19:51:44.576508 24904 net.cpp:156] Memory required for data: 293262000
I0527 19:51:44.576510 24904 layer_factory.hpp:77] Creating layer drop6
I0527 19:51:44.576516 24904 net.cpp:91] Creating Layer drop6
I0527 19:51:44.576519 24904 net.cpp:425] drop6 <- fc6
I0527 19:51:44.576521 24904 net.cpp:386] drop6 -> fc6 (in-place)
I0527 19:51:44.576550 24904 net.cpp:141] Setting up drop6
I0527 19:51:44.576555 24904 net.cpp:148] Top shape: 20 4096 10 10 (8192000)
I0527 19:51:44.576555 24904 net.cpp:156] Memory required for data: 326030000
I0527 19:51:44.576557 24904 layer_factory.hpp:77] Creating layer fc7
I0527 19:51:44.576571 24904 net.cpp:91] Creating Layer fc7
I0527 19:51:44.576575 24904 net.cpp:425] fc7 <- fc6
I0527 19:51:44.576580 24904 net.cpp:399] fc7 -> fc7
I0527 19:51:44.961658 24904 net.cpp:141] Setting up fc7
I0527 19:51:44.961685 24904 net.cpp:148] Top shape: 20 4096 10 10 (8192000)
I0527 19:51:44.961688 24904 net.cpp:156] Memory required for data: 358798000
I0527 19:51:44.961694 24904 layer_factory.hpp:77] Creating layer relu7
I0527 19:51:44.961702 24904 net.cpp:91] Creating Layer relu7
I0527 19:51:44.961715 24904 net.cpp:425] relu7 <- fc7
I0527 19:51:44.961721 24904 net.cpp:386] relu7 -> fc7 (in-place)
I0527 19:51:44.961863 24904 net.cpp:141] Setting up relu7
I0527 19:51:44.961869 24904 net.cpp:148] Top shape: 20 4096 10 10 (8192000)
I0527 19:51:44.961881 24904 net.cpp:156] Memory required for data: 391566000
I0527 19:51:44.961884 24904 layer_factory.hpp:77] Creating layer fc7pool
I0527 19:51:44.961889 24904 net.cpp:91] Creating Layer fc7pool
I0527 19:51:44.961899 24904 net.cpp:425] fc7pool <- fc7
I0527 19:51:44.961904 24904 net.cpp:399] fc7pool -> fc7pool
I0527 19:51:44.962147 24904 net.cpp:141] Setting up fc7pool
I0527 19:51:44.962155 24904 net.cpp:148] Top shape: 20 4096 1 1 (81920)
I0527 19:51:44.962167 24904 net.cpp:156] Memory required for data: 391893680
I0527 19:51:44.962168 24904 layer_factory.hpp:77] Creating layer drop7
I0527 19:51:44.962173 24904 net.cpp:91] Creating Layer drop7
I0527 19:51:44.962185 24904 net.cpp:425] drop7 <- fc7pool
I0527 19:51:44.962189 24904 net.cpp:399] drop7 -> drop7
I0527 19:51:44.962230 24904 net.cpp:141] Setting up drop7
I0527 19:51:44.962271 24904 net.cpp:148] Top shape: 20 4096 1 1 (81920)
I0527 19:51:44.962273 24904 net.cpp:156] Memory required for data: 392221360
I0527 19:51:44.962275 24904 layer_factory.hpp:77] Creating layer fc8
I0527 19:51:44.962292 24904 net.cpp:91] Creating Layer fc8
I0527 19:51:44.962296 24904 net.cpp:425] fc8 <- drop7
I0527 19:51:44.962298 24904 net.cpp:399] fc8 -> fc8
I0527 19:51:45.057247 24904 net.cpp:141] Setting up fc8
I0527 19:51:45.057267 24904 net.cpp:148] Top shape: 20 1000 1 1 (20000)
I0527 19:51:45.057270 24904 net.cpp:156] Memory required for data: 392301360
I0527 19:51:45.057276 24904 layer_factory.hpp:77] Creating layer fc8_fc8_0_split
I0527 19:51:45.057284 24904 net.cpp:91] Creating Layer fc8_fc8_0_split
I0527 19:51:45.057287 24904 net.cpp:425] fc8_fc8_0_split <- fc8
I0527 19:51:45.057292 24904 net.cpp:399] fc8_fc8_0_split -> fc8_fc8_0_split_0
I0527 19:51:45.057308 24904 net.cpp:399] fc8_fc8_0_split -> fc8_fc8_0_split_1
I0527 19:51:45.057312 24904 net.cpp:399] fc8_fc8_0_split -> fc8_fc8_0_split_2
I0527 19:51:45.057364 24904 net.cpp:141] Setting up fc8_fc8_0_split
I0527 19:51:45.057379 24904 net.cpp:148] Top shape: 20 1000 1 1 (20000)
I0527 19:51:45.057380 24904 net.cpp:148] Top shape: 20 1000 1 1 (20000)
I0527 19:51:45.057391 24904 net.cpp:148] Top shape: 20 1000 1 1 (20000)
I0527 19:51:45.057394 24904 net.cpp:156] Memory required for data: 392541360
I0527 19:51:45.057395 24904 layer_factory.hpp:77] Creating layer accuracy
I0527 19:51:45.057415 24904 net.cpp:91] Creating Layer accuracy
I0527 19:51:45.057417 24904 net.cpp:425] accuracy <- fc8_fc8_0_split_0
I0527 19:51:45.057421 24904 net.cpp:425] accuracy <- label_data_1_split_0
I0527 19:51:45.057432 24904 net.cpp:399] accuracy -> accuracy
…
