…
      mirror: false
      crop_size: 128
      mean_value: 104
      mean_value: 117
      mean_value: 123
      force_color: true
      resize_param {
        prob: 1
        resize_mode: FIT_SMALL_SIZE
        height: 144
        width: 144
        pad_mode: MIRRORED
        pad_value: 104
        pad_value: 117
        pad_value: 124
        interp_mode: CUBIC
        center_object: false
        max_angle: 0
      }
    }
    data_param {
      source: "/home/old-ufo/datasets/imagenet/ilsvrc12_val_lmdb"
      batch_size: 250
      backend: LMDB
    }
  }
  layer {
    name: "dropdata"
    type: "Dropout"
    bottom: "data"
    top: "dropdata"
    dropout_param {
      dropout_ratio: 0.1
    }
  }
  layer {
    name: "conv1"
    type: "Convolution"
    bottom: "dropdata"
    top: "conv1"
    param {
      lr_mult: 1
      decay_mult: 1
    }
    param {
      lr_mult: 2
      decay_mult: 0
    }
    convolution_param {
      num_output: 96
      kernel_size: 11
      stride: 4
      weight_filler {
        type: "gaussian"
        std: 0.01
      }
      bias_filler {
        type: "constant"
      }
    }
  }
  layer {
    name: "relu1"
    type: "ReLU"
    bottom: "conv1"
    top: "conv1"
  }
  layer {
    name: "pool1"
    type: "Pooling"
    bottom: "conv1"
    top: "pool1"
    pooling_param {
      pool: MAX
      kernel_size: 3
      stride: 2
    }
  }
  layer {
    name: "conv2"
    type: "Convolution"
    bottom: "pool1"
    top: "conv2"
    param {
      lr_mult: 1
      decay_mult: 1
    }
    param {
      lr_mult: 2
      decay_mult: 0
    }
    convolution_param {
      num_output: 256
      pad: 2
      kernel_size: 5
      group: 2
      weight_filler {
        type: "gaussian"
        std: 0.01
      }
      bias_filler {
        type: "constant"
      }
    }
  }
  layer {
    name: "relu2"
    type: "ReLU"
    bottom: "conv2"
    top: "conv2"
  }
  layer {
    name: "pool2"
    type: "Pooling"
    bottom: "conv2"
    top: "pool2"
    pooling_param {
      pool: MAX
      kernel_size: 3
      stride: 2
    }
  }
  layer {
    name: "conv3"
    type: "Convolution"
    bottom: "pool2"
    top: "conv3"
    param {
      lr_mult: 1
      decay_mult: 1
    }
    param {
      lr_mult: 2
      decay_mult: 0
    }
    convolution_param {
      num_output: 384
      pad: 1
      kernel_size: 3
      weight_filler {
        type: "gaussian"
        std: 0.01
      }
      bias_filler {
        type: "constant"
      }
    }
  }
  layer {
    name: "relu3"
    type: "ReLU"
    bottom: "conv3"
    top: "conv3"
  }
  layer {
    name: "conv4"
    type: "Convolution"
    bottom: "conv3"
    top: "conv4"
    param {
      lr_mult: 1
      decay_mult: 1
    }
    param {
      lr_mult: 2
      decay_mult: 0
    }
    convolution_param {
      num_output: 384
      pad: 1
      kernel_size: 3
      group: 2
      weight_filler {
        type: "gaussian"
        std: 0.01
      }
      bias_filler {
        type: "constant"
      }
    }
  }
  layer {
    name: "relu4"
    type: "ReLU"
    bottom: "conv4"
    top: "conv4"
  }
  layer {
    name: "conv5"
    type: "Convolution"
    bottom: "conv4"
    top: "conv5"
    param {
      lr_mult: 1
      decay_mult: 1
    }
    param {
      lr_mult: 2
      decay_mult: 0
    }
    convolution_param {
      num_output: 256
      pad: 1
      kernel_size: 3
      group: 2
      weight_filler {
        type: "gaussian"
        std: 0.01
      }
      bias_filler {
        type: "constant"
      }
    }
  }
  layer {
    name: "relu5"
    type: "ReLU"
    bottom: "conv5"
    top: "conv5"
  }
  layer {
    name: "pool5"
    type: "Pooling"
    bottom: "conv5"
    top: "pool5"
    pooling_param {
      pool: MAX
      kernel_size: 3
      stride: 2
    }
  }
  layer {
    name: "fc6"
    type: "InnerProduct"
    bottom: "pool5"
    top: "fc6"
    param {
      lr_mult: 1
      decay_mult: 1
    }
    param {
      lr_mult: 2
      decay_mult: 0
    }
    inner_product_param {
      num_output: 2048
      weight_filler {
        type: "gaussian"
        std: 0.005
      }
      bias_filler {
        type: "constant"
      }
    }
  }
  layer {
    name: "relu6"
    type: "ReLU"
    bottom: "fc6"
    top: "fc6"
  }
  layer {
    name: "drop6"
    type: "Dropout"
    bottom: "fc6"
    top: "fc6"
    dropout_param {
      dropout_ratio: 0.5
    }
  }
  layer {
    name: "fc7"
    type: "InnerProduct"
    bottom: "fc6"
    top: "fc7"
    param {
      lr_mult: 1
      decay_mult: 1
    }
    param {
      lr_mult: 2
      decay_mult: 0
    }
    inner_product_param {
      num_output: 2048
      weight_filler {
        type: "gaussian"
        std: 0.005
      }
      bias_filler {
        type: "constant"
      }
    }
  }
  layer {
    name: "relu7"
    type: "ReLU"
    bottom: "fc7"
    top: "fc7"
  }
  layer {
    name: "drop7"
    type: "Dropout"
    bottom: "fc7"
    top: "fc7"
    dropout_param {
      dropout_ratio: 0.5
    }
  }
  layer {
    name: "fc8"
    type: "InnerProduct"
    bottom: "fc7"
    top: "fc8"
    param {
      lr_mult: 1
      decay_mult: 1
    }
    param {
      lr_mult: 2
      decay_mult: 0
    }
    inner_product_param {
      num_output: 1000
      weight_filler {
        type: "gaussian"
        std: 0.01
      }
      bias_filler {
        type: "constant"
      }
    }
  }
  layer {
    name: "accuracy"
    type: "Accuracy"
    bottom: "fc8"
    bottom: "label"
    top: "accuracy"
    include {
      phase: TEST
    }
  }
  layer {
    name: "loss"
    type: "SoftmaxWithLoss"
    bottom: "fc8"
    bottom: "label"
    top: "loss"
  }
}
test_initialization: false
iter_size: 1
type: "SGD"
I1222 18:51:19.289746 16667 solver.cpp:85] Creating training net specified in net_param.
I1222 18:51:19.289820 16667 net.cpp:322] The NetState phase (0) differed from the phase (1) specified by a rule in layer data
I1222 18:51:19.289836 16667 net.cpp:322] The NetState phase (0) differed from the phase (1) specified by a rule in layer accuracy
I1222 18:51:19.289960 16667 net.cpp:49] Initializing net from parameters: 
name: "CaffeNet"
state {
  phase: TRAIN
}
layer {
  name: "data"
  type: "Data"
  top: "data"
  top: "label"
  include {
    phase: TRAIN
  }
  transform_param {
    scale: 0.04
    mirror: true
    crop_size: 128
    mean_value: 104
    mean_value: 117
    mean_value: 124
    force_color: true
    resize_param {
      prob: 1
      resize_mode: FIT_SMALL_SIZE
      height: 144
      width: 144
      pad_mode: MIRRORED
      pad_value: 104
      pad_value: 117
      pad_value: 124
      interp_mode: CUBIC
      center_object: false
      max_angle: 0
    }
  }
  data_param {
    source: "/home/old-ufo/datasets/imagenet/ilsvrc12_train_shuffle_lmdb"
    batch_size: 256
    backend: LMDB
  }
}
layer {
  name: "dropdata"
  type: "Dropout"
  bottom: "data"
  top: "dropdata"
  dropout_param {
    dropout_ratio: 0.1
  }
}
layer {
  name: "conv1"
  type: "Convolution"
  bottom: "dropdata"
  top: "conv1"
  param {
    lr_mult: 1
    decay_mult: 1
  }
  param {
    lr_mult: 2
    decay_mult: 0
  }
  convolution_param {
    num_output: 96
    kernel_size: 11
    stride: 4
    weight_filler {
      type: "gaussian"
      std: 0.01
    }
    bias_filler {
      type: "constant"
    }
  }
}
layer {
  name: "relu1"
  type: "ReLU"
  bottom: "conv1"
  top: "conv1"
}
layer {
  name: "pool1"
  type: "Pooling"
  bottom: "conv1"
  top: "pool1"
  pooling_param {
    pool: MAX
    kernel_size: 3
    stride: 2
  }
}
layer {
  name: "conv2"
  type: "Convolution"
  bottom: "pool1"
  top: "conv2"
  param {
    lr_mult: 1
    decay_mult: 1
  }
  param {
    lr_mult: 2
    decay_mult: 0
  }
  convolution_param {
    num_output: 256
    pad: 2
    kernel_size: 5
    group: 2
    weight_filler {
      type: "gaussian"
      std: 0.01
    }
    bias_filler {
      type: "constant"
    }
  }
}
layer {
  name: "relu2"
  type: "ReLU"
  bottom: "conv2"
  top: "conv2"
}
layer {
  name: "pool2"
  type: "Pooling"
  bottom: "conv2"
  top: "pool2"
  pooling_param {
    pool: MAX
    kernel_size: 3
    stride: 2
  }
}
layer {
  name: "conv3"
  type: "Convolution"
  bottom: "pool2"
  top: "conv3"
  param {
    lr_mult: 1
    decay_mult: 1
  }
  param {
    lr_mult: 2
    decay_mult: 0
  }
  convolution_param {
    num_output: 384
    pad: 1
    kernel_size: 3
    weight_filler {
      type: "gaussian"
      std: 0.01
    }
    bias_filler {
      type: "constant"
    }
  }
}
layer {
  name: "relu3"
  type: "ReLU"
  bottom: "conv3"
  top: "conv3"
}
layer {
  name: "conv4"
  type: "Convolution"
  bottom: "conv3"
  top: "conv4"
  param {
    lr_mult: 1
    decay_mult: 1
  }
  param {
    lr_mult: 2
    decay_mult: 0
  }
  convolution_param {
    num_output: 384
    pad: 1
    kernel_size: 3
    group: 2
    weight_filler {
      type: "gaussian"
      std: 0.01
    }
    bias_filler {
      type: "constant"
    }
  }
}
layer {
  name: "relu4"
  type: "ReLU"
  bottom: "conv4"
  top: "conv4"
}
layer {
  name: "conv5"
  type: "Convolution"
  bottom: "conv4"
  top: "conv5"
  param {
    lr_mult: 1
    decay_mult: 1
  }
  param {
    lr_mult: 2
    decay_mult: 0
  }
  convolution_param {
    num_output: 256
    pad: 1
    kernel_size: 3
    group: 2
    weight_filler {
      type: "gaussian"
      std: 0.01
    }
    bias_filler {
      type: "constant"
    }
  }
}
layer {
  name: "relu5"
  type: "ReLU"
  bottom: "conv5"
  top: "conv5"
}
layer {
  name: "pool5"
  type: "Pooling"
  bottom: "conv5"
  top: "pool5"
  pooling_param {
    pool: MAX
    kernel_size: 3
    stride: 2
  }
}
layer {
  name: "fc6"
  type: "InnerProduct"
  bottom: "pool5"
  top: "fc6"
  param {
    lr_mult: 1
    decay_mult: 1
  }
  param {
    lr_mult: 2
    decay_mult: 0
  }
  inner_product_param {
    num_output: 2048
    weight_filler {
      type: "gaussian"
      std: 0.005
    }
    bias_filler {
      type: "constant"
    }
  }
}
layer {
  name: "relu6"
  type: "ReLU"
  bottom: "fc6"
  top: "fc6"
}
layer {
  name: "drop6"
  type: "Dropout"
  bottom: "fc6"
  top: "fc6"
  dropout_param {
    dropout_ratio: 0.5
  }
}
layer {
  name: "fc7"
  type: "InnerProduct"
  bottom: "fc6"
  top: "fc7"
  param {
    lr_mult: 1
    decay_mult: 1
  }
  param {
    lr_mult: 2
    decay_mult: 0
  }
  inner_product_param {
    num_output: 2048
    weight_filler {
      type: "gaussian"
      std: 0.005
    }
    bias_filler {
      type: "constant"
    }
  }
}
layer {
  name: "relu7"
  type: "ReLU"
  bottom: "fc7"
  top: "fc7"
}
layer {
  name: "drop7"
  type: "Dropout"
  bottom: "fc7"
  top: "fc7"
  dropout_param {
    dropout_ratio: 0.5
  }
}
layer {
  name: "fc8"
  type: "InnerProduct"
  bottom: "fc7"
  top: "fc8"
  param {
    lr_mult: 1
    decay_mult: 1
  }
  param {
    lr_mult: 2
    decay_mult: 0
  }
  inner_product_param {
    num_output: 1000
    weight_filler {
      type: "gaussian"
      std: 0.01
    }
    bias_filler {
      type: "constant"
    }
  }
}
layer {
  name: "loss"
  type: "SoftmaxWithLoss"
  bottom: "fc8"
  bottom: "label"
  top: "loss"
}
I1222 18:51:19.290047 16667 layer_factory.hpp:76] Creating layer data
I1222 18:51:19.290560 16667 net.cpp:106] Creating Layer data
I1222 18:51:19.290570 16667 net.cpp:411] data -> data
I1222 18:51:19.290608 16667 net.cpp:411] data -> label
I1222 18:51:19.291227 16671 db_lmdb.cpp:38] Opened lmdb /home/old-ufo/datasets/imagenet/ilsvrc12_train_shuffle_lmdb
I1222 18:51:19.300428 16667 data_layer.cpp:41] output data size: 256,3,128,128
I1222 18:51:19.367108 16667 net.cpp:150] Setting up data
I1222 18:51:19.367136 16667 net.cpp:157] Top shape: 256 3 128 128 (12582912)
I1222 18:51:19.367142 16667 net.cpp:157] Top shape: 256 (256)
I1222 18:51:19.367146 16667 net.cpp:165] Memory required for data: 50332672
I1222 18:51:19.367156 16667 layer_factory.hpp:76] Creating layer dropdata
I1222 18:51:19.367173 16667 net.cpp:106] Creating Layer dropdata
I1222 18:51:19.367179 16667 net.cpp:454] dropdata <- data
I1222 18:51:19.367190 16667 net.cpp:411] dropdata -> dropdata
I1222 18:51:19.367240 16667 net.cpp:150] Setting up dropdata
I1222 18:51:19.367246 16667 net.cpp:157] Top shape: 256 3 128 128 (12582912)
I1222 18:51:19.367249 16667 net.cpp:165] Memory required for data: 100664320
I1222 18:51:19.367252 16667 layer_factory.hpp:76] Creating layer conv1
I1222 18:51:19.367260 16667 net.cpp:106] Creating Layer conv1
I1222 18:51:19.367264 16667 net.cpp:454] conv1 <- dropdata
I1222 18:51:19.367269 16667 net.cpp:411] conv1 -> conv1
I1222 18:51:19.510689 16667 cudnn_conv_layer.cpp:194] Reallocating workspace storage: 72408
I1222 18:51:19.510803 16667 net.cpp:150] Setting up conv1
I1222 18:51:19.510814 16667 net.cpp:157] Top shape: 256 96 30 30 (22118400)
I1222 18:51:19.510820 16667 net.cpp:165] Memory required for data: 189137920
I1222 18:51:19.510838 16667 layer_factory.hpp:76] Creating layer relu1
I1222 18:51:19.510846 16667 net.cpp:106] Creating Layer relu1
I1222 18:51:19.510850 16667 net.cpp:454] relu1 <- conv1
I1222 18:51:19.510855 16667 net.cpp:397] relu1 -> conv1 (in-place)
I1222 18:51:19.511361 16667 net.cpp:150] Setting up relu1
I1222 18:51:19.511371 16667 net.cpp:157] Top shape: 256 96 30 30 (22118400)
I1222 18:51:19.511374 16667 net.cpp:165] Memory required for data: 277611520
I1222 18:51:19.511378 16667 layer_factory.hpp:76] Creating layer pool1
I1222 18:51:19.511385 16667 net.cpp:106] Creating Layer pool1
I1222 18:51:19.511389 16667 net.cpp:454] pool1 <- conv1
I1222 18:51:19.511394 16667 net.cpp:411] pool1 -> pool1
I1222 18:51:19.511922 16667 net.cpp:150] Setting up pool1
I1222 18:51:19.511932 16667 net.cpp:157] Top shape: 256 96 15 15 (5529600)
I1222 18:51:19.511934 16667 net.cpp:165] Memory required for data: 299729920
I1222 18:51:19.511937 16667 layer_factory.hpp:76] Creating layer conv2
I1222 18:51:19.511945 16667 net.cpp:106] Creating Layer conv2
I1222 18:51:19.511950 16667 net.cpp:454] conv2 <- pool1
I1222 18:51:19.511953 16667 net.cpp:411] conv2 -> conv2
I1222 18:51:19.523046 16667 cudnn_conv_layer.cpp:194] Reallocating workspace storage: 27096
I1222 18:51:19.523072 16667 net.cpp:150] Setting up conv2
I1222 18:51:19.523079 16667 net.cpp:157] Top shape: 256 256 15 15 (14745600)
I1222 18:51:19.523085 16667 net.cpp:165] Memory required for data: 358712320
I1222 18:51:19.523097 16667 layer_factory.hpp:76] Creating layer relu2
I1222 18:51:19.523105 16667 net.cpp:106] Creating Layer relu2
I1222 18:51:19.523110 16667 net.cpp:454] relu2 <- conv2
I1222 18:51:19.523116 16667 net.cpp:397] relu2 -> conv2 (in-place)
I1222 18:51:19.523617 16667 net.cpp:150] Setting up relu2
I1222 18:51:19.523627 16667 net.cpp:157] Top shape: 256 256 15 15 (14745600)
I1222 18:51:19.523629 16667 net.cpp:165] Memory required for data: 417694720
I1222 18:51:19.523646 16667 layer_factory.hpp:76] Creating layer pool2
I1222 18:51:19.523653 16667 net.cpp:106] Creating Layer pool2
I1222 18:51:19.523656 16667 net.cpp:454] pool2 <- conv2
I1222 18:51:19.523661 16667 net.cpp:411] pool2 -> pool2
I1222 18:51:19.524260 16667 net.cpp:150] Setting up pool2
I1222 18:51:19.524271 16667 net.cpp:157] Top shape: 256 256 7 7 (3211264)
I1222 18:51:19.524272 16667 net.cpp:165] Memory required for data: 430539776
I1222 18:51:19.524276 16667 layer_factory.hpp:76] Creating layer conv3
I1222 18:51:19.524286 16667 net.cpp:106] Creating Layer conv3
I1222 18:51:19.524288 16667 net.cpp:454] conv3 <- pool2
I1222 18:51:19.524292 16667 net.cpp:411] conv3 -> conv3
I1222 18:51:19.548753 16667 cudnn_conv_layer.cpp:194] Reallocating workspace storage: 7788
I1222 18:51:19.548866 16667 net.cpp:150] Setting up conv3
I1222 18:51:19.548877 16667 net.cpp:157] Top shape: 256 384 7 7 (4816896)
I1222 18:51:19.548882 16667 net.cpp:165] Memory required for data: 449807360
I1222 18:51:19.548892 16667 layer_factory.hpp:76] Creating layer relu3
I1222 18:51:19.548899 16667 net.cpp:106] Creating Layer relu3
I1222 18:51:19.548904 16667 net.cpp:454] relu3 <- conv3
I1222 18:51:19.548909 16667 net.cpp:397] relu3 -> conv3 (in-place)
I1222 18:51:19.549427 16667 net.cpp:150] Setting up relu3
I1222 18:51:19.549437 16667 net.cpp:157] Top shape: 256 384 7 7 (4816896)
I1222 18:51:19.549438 16667 net.cpp:165] Memory required for data: 469074944
I1222 18:51:19.549443 16667 layer_factory.hpp:76] Creating layer conv4
I1222 18:51:19.549451 16667 net.cpp:106] Creating Layer conv4
I1222 18:51:19.549454 16667 net.cpp:454] conv4 <- conv3
I1222 18:51:19.549459 16667 net.cpp:411] conv4 -> conv4
I1222 18:51:19.571108 16667 cudnn_conv_layer.cpp:194] Reallocating workspace storage: 15576
I1222 18:51:19.571141 16667 net.cpp:150] Setting up conv4
I1222 18:51:19.571153 16667 net.cpp:157] Top shape: 256 384 7 7 (4816896)
I1222 18:51:19.571156 16667 net.cpp:165] Memory required for data: 488342528
I1222 18:51:19.571164 16667 layer_factory.hpp:76] Creating layer relu4
I1222 18:51:19.571174 16667 net.cpp:106] Creating Layer relu4
I1222 18:51:19.571179 16667 net.cpp:454] relu4 <- conv4
I1222 18:51:19.571184 16667 net.cpp:397] relu4 -> conv4 (in-place)
I1222 18:51:19.571712 16667 net.cpp:150] Setting up relu4
I1222 18:51:19.571722 16667 net.cpp:157] Top shape: 256 384 7 7 (4816896)
I1222 18:51:19.571727 16667 net.cpp:165] Memory required for data: 507610112
I1222 18:51:19.571729 16667 layer_factory.hpp:76] Creating layer conv5
I1222 18:51:19.571738 16667 net.cpp:106] Creating Layer conv5
I1222 18:51:19.571741 16667 net.cpp:454] conv5 <- conv4
I1222 18:51:19.571748 16667 net.cpp:411] conv5 -> conv5
I1222 18:51:19.586643 16667 cudnn_conv_layer.cpp:194] Reallocating workspace storage: 15576
I1222 18:51:19.586678 16667 net.cpp:150] Setting up conv5
I1222 18:51:19.586686 16667 net.cpp:157] Top shape: 256 256 7 7 (3211264)
I1222 18:51:19.586689 16667 net.cpp:165] Memory required for data: 520455168
I1222 18:51:19.586700 16667 layer_factory.hpp:76] Creating layer relu5
I1222 18:51:19.586709 16667 net.cpp:106] Creating Layer relu5
I1222 18:51:19.586712 16667 net.cpp:454] relu5 <- conv5
I1222 18:51:19.586717 16667 net.cpp:397] relu5 -> conv5 (in-place)
I1222 18:51:19.587280 16667 net.cpp:150] Setting up relu5
I1222 18:51:19.587291 16667 net.cpp:157] Top shape: 256 256 7 7 (3211264)
I1222 18:51:19.587292 16667 net.cpp:165] Memory required for data: 533300224
I1222 18:51:19.587296 16667 layer_factory.hpp:76] Creating layer pool5
I1222 18:51:19.587301 16667 net.cpp:106] Creating Layer pool5
I1222 18:51:19.587304 16667 net.cpp:454] pool5 <- conv5
I1222 18:51:19.587309 16667 net.cpp:411] pool5 -> pool5
I1222 18:51:19.587882 16667 net.cpp:150] Setting up pool5
I1222 18:51:19.587889 16667 net.cpp:157] Top shape: 256 256 3 3 (589824)
I1222 18:51:19.587891 16667 net.cpp:165] Memory required for data: 535659520
I1222 18:51:19.587894 16667 layer_factory.hpp:76] Creating layer fc6
I1222 18:51:19.587908 16667 net.cpp:106] Creating Layer fc6
I1222 18:51:19.587911 16667 net.cpp:454] fc6 <- pool5
I1222 18:51:19.587927 16667 net.cpp:411] fc6 -> fc6
I1222 18:51:19.708986 16667 net.cpp:150] Setting up fc6
I1222 18:51:19.709009 16667 net.cpp:157] Top shape: 256 2048 (524288)
I1222 18:51:19.709012 16667 net.cpp:165] Memory required for data: 537756672
I1222 18:51:19.709020 16667 layer_factory.hpp:76] Creating layer relu6
I1222 18:51:19.709029 16667 net.cpp:106] Creating Layer relu6
I1222 18:51:19.709034 16667 net.cpp:454] relu6 <- fc6
I1222 18:51:19.709039 16667 net.cpp:397] relu6 -> fc6 (in-place)
I1222 18:51:19.709662 16667 net.cpp:150] Setting up relu6
I1222 18:51:19.709671 16667 net.cpp:157] Top shape: 256 2048 (524288)
I1222 18:51:19.709674 16667 net.cpp:165] Memory required for data: 539853824
I1222 18:51:19.709676 16667 layer_factory.hpp:76] Creating layer drop6
I1222 18:51:19.709682 16667 net.cpp:106] Creating Layer drop6
I1222 18:51:19.709686 16667 net.cpp:454] drop6 <- fc6
I1222 18:51:19.709691 16667 net.cpp:397] drop6 -> fc6 (in-place)
I1222 18:51:19.709709 16667 net.cpp:150] Setting up drop6
I1222 18:51:19.709714 16667 net.cpp:157] Top shape: 256 2048 (524288)
I1222 18:51:19.709717 16667 net.cpp:165] Memory required for data: 541950976
I1222 18:51:19.709718 16667 layer_factory.hpp:76] Creating layer fc7
I1222 18:51:19.709725 16667 net.cpp:106] Creating Layer fc7
I1222 18:51:19.709728 16667 net.cpp:454] fc7 <- fc6
I1222 18:51:19.709731 16667 net.cpp:411] fc7 -> fc7
I1222 18:51:19.817076 16667 net.cpp:150] Setting up fc7
I1222 18:51:19.817101 16667 net.cpp:157] Top shape: 256 2048 (524288)
I1222 18:51:19.817102 16667 net.cpp:165] Memory required for data: 544048128
I1222 18:51:19.817111 16667 layer_factory.hpp:76] Creating layer relu7
I1222 18:51:19.817118 16667 net.cpp:106] Creating Layer relu7
I1222 18:51:19.817123 16667 net.cpp:454] relu7 <- fc7
I1222 18:51:19.817128 16667 net.cpp:397] relu7 -> fc7 (in-place)
I1222 18:51:19.817801 16667 net.cpp:150] Setting up relu7
I1222 18:51:19.817811 16667 net.cpp:157] Top shape: 256 2048 (524288)
I1222 18:51:19.817812 16667 net.cpp:165] Memory required for data: 546145280
I1222 18:51:19.817816 16667 layer_factory.hpp:76] Creating layer drop7
I1222 18:51:19.817821 16667 net.cpp:106] Creating Layer drop7
I1222 18:51:19.817823 16667 net.cpp:454] drop7 <- fc7
I1222 18:51:19.817828 16667 net.cpp:397] drop7 -> fc7 (in-place)
I1222 18:51:19.817847 16667 net.cpp:150] Setting up drop7
I1222 18:51:19.817852 16667 net.cpp:157] Top shape: 256 2048 (524288)
I1222 18:51:19.817853 16667 net.cpp:165] Memory required for data: 548242432
I1222 18:51:19.817855 16667 layer_factory.hpp:76] Creating layer fc8
I1222 18:51:19.817862 16667 net.cpp:106] Creating Layer fc8
I1222 18:51:19.817865 16667 net.cpp:454] fc8 <- fc7
I1222 18:51:19.817873 16667 net.cpp:411] fc8 -> fc8
I1222 18:51:19.871052 16667 net.cpp:150] Setting up fc8
I1222 18:51:19.871074 16667 net.cpp:157] Top shape: 256 1000 (256000)
I1222 18:51:19.871078 16667 net.cpp:165] Memory required for data: 549266432
I1222 18:51:19.871088 16667 layer_factory.hpp:76] Creating layer loss
I1222 18:51:19.871100 16667 net.cpp:106] Creating Layer loss
I1222 18:51:19.871106 16667 net.cpp:454] loss <- fc8
I1222 18:51:19.871111 16667 net.cpp:454] loss <- label
I1222 18:51:19.871119 16667 net.cpp:411] loss -> loss
I1222 18:51:19.871130 16667 layer_factory.hpp:76] Creating layer loss
…
    phase: TEST
  }
  transform_param {
    scale: 0.04
    mirror: false
    crop_size: 128
    mean_value: 104
    mean_value: 117
    mean_value: 123
    force_color: true
    resize_param {
      prob: 1
      resize_mode: FIT_SMALL_SIZE
      height: 144
      width: 144
      pad_mode: MIRRORED
      pad_value: 104
      pad_value: 117
      pad_value: 124
      interp_mode: CUBIC
      center_object: false
      max_angle: 0
    }
  }
  data_param {
    source: "/home/old-ufo/datasets/imagenet/ilsvrc12_val_lmdb"
    batch_size: 250
    backend: LMDB
  }
}
layer {
  name: "dropdata"
  type: "Dropout"
  bottom: "data"
  top: "dropdata"
  dropout_param {
    dropout_ratio: 0.1
  }
}
layer {
  name: "conv1"
  type: "Convolution"
  bottom: "dropdata"
  top: "conv1"
  param {
    lr_mult: 1
    decay_mult: 1
  }
  param {
    lr_mult: 2
    decay_mult: 0
  }
  convolution_param {
    num_output: 96
    kernel_size: 11
    stride: 4
    weight_filler {
      type: "gaussian"
      std: 0.01
    }
    bias_filler {
      type: "constant"
    }
  }
}
layer {
  name: "relu1"
  type: "ReLU"
  bottom: "conv1"
  top: "conv1"
}
layer {
  name: "pool1"
  type: "Pooling"
  bottom: "conv1"
  top: "pool1"
  pooling_param {
    pool: MAX
    kernel_size: 3
    stride: 2
  }
}
layer {
  name: "conv2"
  type: "Convolution"
  bottom: "pool1"
  top: "conv2"
  param {
    lr_mult: 1
    decay_mult: 1
  }
  param {
    lr_mult: 2
    decay_mult: 0
  }
  convolution_param {
    num_output: 256
    pad: 2
    kernel_size: 5
    group: 2
    weight_filler {
      type: "gaussian"
      std: 0.01
    }
    bias_filler {
      type: "constant"
    }
  }
}
layer {
  name: "relu2"
  type: "ReLU"
  bottom: "conv2"
  top: "conv2"
}
layer {
  name: "pool2"
  type: "Pooling"
  bottom: "conv2"
  top: "pool2"
  pooling_param {
    pool: MAX
    kernel_size: 3
    stride: 2
  }
}
layer {
  name: "conv3"
  type: "Convolution"
  bottom: "pool2"
  top: "conv3"
  param {
    lr_mult: 1
    decay_mult: 1
  }
  param {
    lr_mult: 2
    decay_mult: 0
  }
  convolution_param {
    num_output: 384
    pad: 1
    kernel_size: 3
    weight_filler {
      type: "gaussian"
      std: 0.01
    }
    bias_filler {
      type: "constant"
    }
  }
}
layer {
  name: "relu3"
  type: "ReLU"
  bottom: "conv3"
  top: "conv3"
}
layer {
  name: "conv4"
  type: "Convolution"
  bottom: "conv3"
  top: "conv4"
  param {
    lr_mult: 1
    decay_mult: 1
  }
  param {
    lr_mult: 2
    decay_mult: 0
  }
  convolution_param {
    num_output: 384
    pad: 1
    kernel_size: 3
    group: 2
    weight_filler {
      type: "gaussian"
      std: 0.01
    }
    bias_filler {
      type: "constant"
    }
  }
}
layer {
  name: "relu4"
  type: "ReLU"
  bottom: "conv4"
  top: "conv4"
}
layer {
  name: "conv5"
  type: "Convolution"
  bottom: "conv4"
  top: "conv5"
  param {
    lr_mult: 1
    decay_mult: 1
  }
  param {
    lr_mult: 2
    decay_mult: 0
  }
  convolution_param {
    num_output: 256
    pad: 1
    kernel_size: 3
    group: 2
    weight_filler {
      type: "gaussian"
      std: 0.01
    }
    bias_filler {
      type: "constant"
    }
  }
}
layer {
  name: "relu5"
  type: "ReLU"
  bottom: "conv5"
  top: "conv5"
}
layer {
  name: "pool5"
  type: "Pooling"
  bottom: "conv5"
  top: "pool5"
  pooling_param {
    pool: MAX
    kernel_size: 3
    stride: 2
  }
}
layer {
  name: "fc6"
  type: "InnerProduct"
  bottom: "pool5"
  top: "fc6"
  param {
    lr_mult: 1
    decay_mult: 1
  }
  param {
    lr_mult: 2
    decay_mult: 0
  }
  inner_product_param {
    num_output: 2048
    weight_filler {
      type: "gaussian"
      std: 0.005
    }
    bias_filler {
      type: "constant"
    }
  }
}
layer {
  name: "relu6"
  type: "ReLU"
  bottom: "fc6"
  top: "fc6"
}
layer {
  name: "drop6"
  type: "Dropout"
  bottom: "fc6"
  top: "fc6"
  dropout_param {
    dropout_ratio: 0.5
  }
}
layer {
  name: "fc7"
  type: "InnerProduct"
  bottom: "fc6"
  top: "fc7"
  param {
    lr_mult: 1
    decay_mult: 1
  }
  param {
    lr_mult: 2
    decay_mult: 0
  }
  inner_product_param {
    num_output: 2048
    weight_filler {
      type: "gaussian"
      std: 0.005
    }
    bias_filler {
      type: "constant"
    }
  }
}
layer {
  name: "relu7"
  type: "ReLU"
  bottom: "fc7"
  top: "fc7"
}
layer {
  name: "drop7"
  type: "Dropout"
  bottom: "fc7"
  top: "fc7"
  dropout_param {
    dropout_ratio: 0.5
  }
}
layer {
  name: "fc8"
  type: "InnerProduct"
  bottom: "fc7"
  top: "fc8"
  param {
    lr_mult: 1
    decay_mult: 1
  }
  param {
    lr_mult: 2
    decay_mult: 0
  }
  inner_product_param {
    num_output: 1000
    weight_filler {
      type: "gaussian"
      std: 0.01
    }
    bias_filler {
      type: "constant"
    }
  }
}
layer {
  name: "accuracy"
  type: "Accuracy"
  bottom: "fc8"
  bottom: "label"
  top: "accuracy"
  include {
    phase: TEST
  }
}
layer {
  name: "loss"
  type: "SoftmaxWithLoss"
  bottom: "fc8"
  bottom: "label"
  top: "loss"
}
I1222 18:51:19.873067 16667 layer_factory.hpp:76] Creating layer data
I1222 18:51:19.873217 16667 net.cpp:106] Creating Layer data
I1222 18:51:19.873239 16667 net.cpp:411] data -> data
I1222 18:51:19.873250 16667 net.cpp:411] data -> label
I1222 18:51:19.873909 16680 db_lmdb.cpp:38] Opened lmdb /home/old-ufo/datasets/imagenet/ilsvrc12_val_lmdb
I1222 18:51:19.876520 16667 data_layer.cpp:41] output data size: 250,3,128,128
I1222 18:51:19.944118 16667 net.cpp:150] Setting up data
I1222 18:51:19.944149 16667 net.cpp:157] Top shape: 250 3 128 128 (12288000)
I1222 18:51:19.944155 16667 net.cpp:157] Top shape: 250 (250)
I1222 18:51:19.944160 16667 net.cpp:165] Memory required for data: 49153000
I1222 18:51:19.944167 16667 layer_factory.hpp:76] Creating layer label_data_1_split
I1222 18:51:19.944185 16667 net.cpp:106] Creating Layer label_data_1_split
I1222 18:51:19.944190 16667 net.cpp:454] label_data_1_split <- label
I1222 18:51:19.944200 16667 net.cpp:411] label_data_1_split -> label_data_1_split_0
I1222 18:51:19.944211 16667 net.cpp:411] label_data_1_split -> label_data_1_split_1
I1222 18:51:19.944352 16667 net.cpp:150] Setting up label_data_1_split
I1222 18:51:19.944361 16667 net.cpp:157] Top shape: 250 (250)
I1222 18:51:19.944367 16667 net.cpp:157] Top shape: 250 (250)
I1222 18:51:19.944371 16667 net.cpp:165] Memory required for data: 49155000
I1222 18:51:19.944375 16667 layer_factory.hpp:76] Creating layer dropdata
I1222 18:51:19.944401 16667 net.cpp:106] Creating Layer dropdata
I1222 18:51:19.944407 16667 net.cpp:454] dropdata <- data
I1222 18:51:19.944414 16667 net.cpp:411] dropdata -> dropdata
I1222 18:51:19.944465 16667 net.cpp:150] Setting up dropdata
I1222 18:51:19.944474 16667 net.cpp:157] Top shape: 250 3 128 128 (12288000)
I1222 18:51:19.944478 16667 net.cpp:165] Memory required for data: 98307000
I1222 18:51:19.944481 16667 layer_factory.hpp:76] Creating layer conv1
I1222 18:51:19.944491 16667 net.cpp:106] Creating Layer conv1
I1222 18:51:19.944497 16667 net.cpp:454] conv1 <- dropdata
I1222 18:51:19.944505 16667 net.cpp:411] conv1 -> conv1
I1222 18:51:19.952814 16667 cudnn_conv_layer.cpp:194] Reallocating workspace storage: 72408
I1222 18:51:19.952854 16667 net.cpp:150] Setting up conv1
I1222 18:51:19.952862 16667 net.cpp:157] Top shape: 250 96 30 30 (21600000)
I1222 18:51:19.952867 16667 net.cpp:165] Memory required for data: 184707000
I1222 18:51:19.952877 16667 layer_factory.hpp:76] Creating layer relu1
I1222 18:51:19.952886 16667 net.cpp:106] Creating Layer relu1
I1222 18:51:19.952891 16667 net.cpp:454] relu1 <- conv1
I1222 18:51:19.952898 16667 net.cpp:397] relu1 -> conv1 (in-place)
I1222 18:51:19.953444 16667 net.cpp:150] Setting up relu1
I1222 18:51:19.953452 16667 net.cpp:157] Top shape: 250 96 30 30 (21600000)
I1222 18:51:19.953455 16667 net.cpp:165] Memory required for data: 271107000
I1222 18:51:19.953459 16667 layer_factory.hpp:76] Creating layer pool1
I1222 18:51:19.953469 16667 net.cpp:106] Creating Layer pool1
I1222 18:51:19.953471 16667 net.cpp:454] pool1 <- conv1
I1222 18:51:19.953475 16667 net.cpp:411] pool1 -> pool1
I1222 18:51:19.954056 16667 net.cpp:150] Setting up pool1
I1222 18:51:19.954064 16667 net.cpp:157] Top shape: 250 96 15 15 (5400000)
I1222 18:51:19.954067 16667 net.cpp:165] Memory required for data: 292707000
I1222 18:51:19.954069 16667 layer_factory.hpp:76] Creating layer conv2
I1222 18:51:19.954077 16667 net.cpp:106] Creating Layer conv2
I1222 18:51:19.954082 16667 net.cpp:454] conv2 <- pool1
I1222 18:51:19.954085 16667 net.cpp:411] conv2 -> conv2
I1222 18:51:19.966652 16667 cudnn_conv_layer.cpp:194] Reallocating workspace storage: 27096
I1222 18:51:19.966691 16667 net.cpp:150] Setting up conv2
I1222 18:51:19.966704 16667 net.cpp:157] Top shape: 250 256 15 15 (14400000)
I1222 18:51:19.966709 16667 net.cpp:165] Memory required for data: 350307000
I1222 18:51:19.966727 16667 layer_factory.hpp:76] Creating layer relu2
I1222 18:51:19.966739 16667 net.cpp:106] Creating Layer relu2
I1222 18:51:19.966745 16667 net.cpp:454] relu2 <- conv2
I1222 18:51:19.966758 16667 net.cpp:397] relu2 -> conv2 (in-place)
I1222 18:51:19.967564 16667 net.cpp:150] Setting up relu2
I1222 18:51:19.967584 16667 net.cpp:157] Top shape: 250 256 15 15 (14400000)
I1222 18:51:19.967594 16667 net.cpp:165] Memory required for data: 407907000
I1222 18:51:19.967602 16667 layer_factory.hpp:76] Creating layer pool2
I1222 18:51:19.967614 16667 net.cpp:106] Creating Layer pool2
I1222 18:51:19.967619 16667 net.cpp:454] pool2 <- conv2
I1222 18:51:19.967624 16667 net.cpp:411] pool2 -> pool2
I1222 18:51:19.968232 16667 net.cpp:150] Setting up pool2
I1222 18:51:19.968242 16667 net.cpp:157] Top shape: 250 256 7 7 (3136000)
I1222 18:51:19.968246 16667 net.cpp:165] Memory required for data: 420451000
I1222 18:51:19.968250 16667 layer_factory.hpp:76] Creating layer conv3
I1222 18:51:19.968258 16667 net.cpp:106] Creating Layer conv3
I1222 18:51:19.968262 16667 net.cpp:454] conv3 <- pool2
I1222 18:51:19.968269 16667 net.cpp:411] conv3 -> conv3
I1222 18:51:19.993486 16667 cudnn_conv_layer.cpp:194] Reallocating workspace storage: 7788
I1222 18:51:19.993530 16667 net.cpp:150] Setting up conv3
I1222 18:51:19.993540 16667 net.cpp:157] Top shape: 250 384 7 7 (4704000)
I1222 18:51:19.993543 16667 net.cpp:165] Memory required for data: 439267000
I1222 18:51:19.993553 16667 layer_factory.hpp:76] Creating layer relu3
I1222 18:51:19.993562 16667 net.cpp:106] Creating Layer relu3
I1222 18:51:19.993566 16667 net.cpp:454] relu3 <- conv3
I1222 18:51:19.993572 16667 net.cpp:397] relu3 -> conv3 (in-place)
I1222 18:51:19.994175 16667 net.cpp:150] Setting up relu3
I1222 18:51:19.994185 16667 net.cpp:157] Top shape: 250 384 7 7 (4704000)
I1222 18:51:19.994189 16667 net.cpp:165] Memory required for data: 458083000
I1222 18:51:19.994192 16667 layer_factory.hpp:76] Creating layer conv4
I1222 18:51:19.994202 16667 net.cpp:106] Creating Layer conv4
I1222 18:51:19.994205 16667 net.cpp:454] conv4 <- conv3
I1222 18:51:19.994210 16667 net.cpp:411] conv4 -> conv4
I1222 18:51:20.015089 16667 cudnn_conv_layer.cpp:194] Reallocating workspace storage: 15576
I1222 18:51:20.015130 16667 net.cpp:150] Setting up conv4
I1222 18:51:20.015136 16667 net.cpp:157] Top shape: 250 384 7 7 (4704000)
I1222 18:51:20.015141 16667 net.cpp:165] Memory required for data: 476899000
I1222 18:51:20.015147 16667 layer_factory.hpp:76] Creating layer relu4
I1222 18:51:20.015157 16667 net.cpp:106] Creating Layer relu4
I1222 18:51:20.015161 16667 net.cpp:454] relu4 <- conv4
I1222 18:51:20.015167 16667 net.cpp:397] relu4 -> conv4 (in-place)
I1222 18:51:20.015736 16667 net.cpp:150] Setting up relu4
I1222 18:51:20.015745 16667 net.cpp:157] Top shape: 250 384 7 7 (4704000)
I1222 18:51:20.015749 16667 net.cpp:165] Memory required for data: 495715000
I1222 18:51:20.015751 16667 layer_factory.hpp:76] Creating layer conv5
I1222 18:51:20.015761 16667 net.cpp:106] Creating Layer conv5
I1222 18:51:20.015765 16667 net.cpp:454] conv5 <- conv4
I1222 18:51:20.015769 16667 net.cpp:411] conv5 -> conv5
I1222 18:51:20.031268 16667 cudnn_conv_layer.cpp:194] Reallocating workspace storage: 15576
I1222 18:51:20.031311 16667 net.cpp:150] Setting up conv5
I1222 18:51:20.031321 16667 net.cpp:157] Top shape: 250 256 7 7 (3136000)
I1222 18:51:20.031324 16667 net.cpp:165] Memory required for data: 508259000
I1222 18:51:20.031337 16667 layer_factory.hpp:76] Creating layer relu5
I1222 18:51:20.031344 16667 net.cpp:106] Creating Layer relu5
I1222 18:51:20.031349 16667 net.cpp:454] relu5 <- conv5
I1222 18:51:20.031355 16667 net.cpp:397] relu5 -> conv5 (in-place)
I1222 18:51:20.031925 16667 net.cpp:150] Setting up relu5
I1222 18:51:20.031936 16667 net.cpp:157] Top shape: 250 256 7 7 (3136000)
I1222 18:51:20.031940 16667 net.cpp:165] Memory required for data: 520803000
I1222 18:51:20.031942 16667 layer_factory.hpp:76] Creating layer pool5
I1222 18:51:20.031950 16667 net.cpp:106] Creating Layer pool5
I1222 18:51:20.031954 16667 net.cpp:454] pool5 <- conv5
I1222 18:51:20.031958 16667 net.cpp:411] pool5 -> pool5
I1222 18:51:20.032552 16667 net.cpp:150] Setting up pool5
I1222 18:51:20.032562 16667 net.cpp:157] Top shape: 250 256 3 3 (576000)
I1222 18:51:20.032565 16667 net.cpp:165] Memory required for data: 523107000
I1222 18:51:20.032567 16667 layer_factory.hpp:76] Creating layer fc6
I1222 18:51:20.032577 16667 net.cpp:106] Creating Layer fc6
I1222 18:51:20.032580 16667 net.cpp:454] fc6 <- pool5
I1222 18:51:20.032585 16667 net.cpp:411] fc6 -> fc6
I1222 18:51:20.154240 16667 net.cpp:150] Setting up fc6
I1222 18:51:20.154265 16667 net.cpp:157] Top shape: 250 2048 (512000)
I1222 18:51:20.154268 16667 net.cpp:165] Memory required for data: 525155000
I1222 18:51:20.154278 16667 layer_factory.hpp:76] Creating layer relu6
I1222 18:51:20.154288 16667 net.cpp:106] Creating Layer relu6
I1222 18:51:20.154292 16667 net.cpp:454] relu6 <- fc6
I1222 18:51:20.154299 16667 net.cpp:397] relu6 -> fc6 (in-place)
I1222 18:51:20.155195 16667 net.cpp:150] Setting up relu6
I1222 18:51:20.155205 16667 net.cpp:157] Top shape: 250 2048 (512000)
I1222 18:51:20.155210 16667 net.cpp:165] Memory required for data: 527203000
I1222 18:51:20.155212 16667 layer_factory.hpp:76] Creating layer drop6
I1222 18:51:20.155218 16667 net.cpp:106] Creating Layer drop6
I1222 18:51:20.155222 16667 net.cpp:454] drop6 <- fc6
I1222 18:51:20.155226 16667 net.cpp:397] drop6 -> fc6 (in-place)
I1222 18:51:20.155256 16667 net.cpp:150] Setting up drop6
I1222 18:51:20.155261 16667 net.cpp:157] Top shape: 250 2048 (512000)
I1222 18:51:20.155263 16667 net.cpp:165] Memory required for data: 529251000
I1222 18:51:20.155277 16667 layer_factory.hpp:76] Creating layer fc7
I1222 18:51:20.155284 16667 net.cpp:106] Creating Layer fc7
I1222 18:51:20.155287 16667 net.cpp:454] fc7 <- fc6
I1222 18:51:20.155292 16667 net.cpp:411] fc7 -> fc7
I1222 18:51:20.285138 16667 net.cpp:150] Setting up fc7
I1222 18:51:20.285161 16667 net.cpp:157] Top shape: 250 2048 (512000)
I1222 18:51:20.285164 16667 net.cpp:165] Memory required for data: 531299000
I1222 18:51:20.285173 16667 layer_factory.hpp:76] Creating layer relu7
I1222 18:51:20.285181 16667 net.cpp:106] Creating Layer relu7
I1222 18:51:20.285187 16667 net.cpp:454] relu7 <- fc7
I1222 18:51:20.285192 16667 net.cpp:397] relu7 -> fc7 (in-place)
I1222 18:51:20.285920 16667 net.cpp:150] Setting up relu7
I1222 18:51:20.285930 16667 net.cpp:157] Top shape: 250 2048 (512000)
I1222 18:51:20.285934 16667 net.cpp:165] Memory required for data: 533347000
I1222 18:51:20.285938 16667 layer_factory.hpp:76] Creating layer drop7
I1222 18:51:20.285943 16667 net.cpp:106] Creating Layer drop7
I1222 18:51:20.285946 16667 net.cpp:454] drop7 <- fc7
I1222 18:51:20.285951 16667 net.cpp:397] drop7 -> fc7 (in-place)
I1222 18:51:20.285980 16667 net.cpp:150] Setting up drop7
I1222 18:51:20.285984 16667 net.cpp:157] Top shape: 250 2048 (512000)
I1222 18:51:20.285987 16667 net.cpp:165] Memory required for data: 535395000
I1222 18:51:20.285990 16667 layer_factory.hpp:76] Creating layer fc8
I1222 18:51:20.285997 16667 net.cpp:106] Creating Layer fc8
I1222 18:51:20.286000 16667 net.cpp:454] fc8 <- fc7
I1222 18:51:20.286005 16667 net.cpp:411] fc8 -> fc8
I1222 18:51:20.338289 16667 net.cpp:150] Setting up fc8
I1222 18:51:20.338310 16667 net.cpp:157] Top shape: 250 1000 (250000)
I1222 18:51:20.338312 16667 net.cpp:165] Memory required for data: 536395000
I1222 18:51:20.338320 16667 layer_factory.hpp:76] Creating layer fc8_fc8_0_split
I1222 18:51:20.338327 16667 net.cpp:106] Creating Layer fc8_fc8_0_split
I1222 18:51:20.338332 16667 net.cpp:454] fc8_fc8_0_split <- fc8
I1222 18:51:20.338338 16667 net.cpp:411] fc8_fc8_0_split -> fc8_fc8_0_split_0
I1222 18:51:20.338347 16667 net.cpp:411] fc8_fc8_0_split -> fc8_fc8_0_split_1
I1222 18:51:20.338385 16667 net.cpp:150] Setting up fc8_fc8_0_split
I1222 18:51:20.338390 16667 net.cpp:157] Top shape: 250 1000 (250000)
I1222 18:51:20.338394 16667 net.cpp:157] Top shape: 250 1000 (250000)
I1222 18:51:20.338397 16667 net.cpp:165] Memory required for data: 538395000
I1222 18:51:20.338399 16667 layer_factory.hpp:76] Creating layer accuracy
I1222 18:51:20.338412 16667 net.cpp:106] Creating Layer accuracy
I1222 18:51:20.338414 16667 net.cpp:454] accuracy <- fc8_fc8_0_split_0
I1222 18:51:20.338418 16667 net.cpp:454] accuracy <- label_data_1_split_0
I1222 18:51:20.338423 16667 net.cpp:411] accuracy -> accuracy
…
