…
I0206 00:21:09.813395  3521 net.cpp:322] The NetState phase (0) differed from the phase (1) specified by a rule in layer acc
I0206 00:21:09.814493  3521 net.cpp:49] Initializing net from parameters: 
name: "ResNet"
state {
  phase: TRAIN
}
layer {
  name: "data"
  type: "Data"
  top: "data"
  top: "label"
  include {
    phase: TRAIN
  }
  transform_param {
    mirror: true
    crop_size: 128
    mean_value: 104
    mean_value: 117
    mean_value: 124
  }
  data_param {
    source: "/media/dereyly/2E4057004056CDE9/data/CAFFE_DATA/ilsvrc12_train_lmdb_144"
    batch_size: 128
    backend: LMDB
  }
}
layer {
  name: "block1_conv1"
  type: "Convolution"
  bottom: "data"
  top: "block1_conv1"
  param {
    decay_mult: 1
  }
  param {
    decay_mult: 0
  }
  convolution_param {
    num_output: 64
    pad: 0
    kernel_size: 7
    group: 1
    stride: 2
    weight_filler {
      type: "xavier"
    }
    bias_filler {
      value: 0
    }
  }
}
layer {
  name: "block1_conv1_BN"
  type: "BatchNorm"
  bottom: "block1_conv1"
  top: "block1_conv1_BN"
  param {
    lr_mult: 0
    decay_mult: 0
  }
  param {
    lr_mult: 0
    decay_mult: 0
  }
  param {
    lr_mult: 0
    decay_mult: 0
  }
  batch_norm_param {
    use_global_stats: false
    moving_average_fraction: 0.95
  }
}
layer {
  name: "block1_relu2"
  type: "ReLU"
  bottom: "block1_conv1_BN"
  top: "block1_conv1_BN"
  relu_param {
    negative_slope: 0
  }
}
layer {
  name: "block1_conv1_BN_max"
  type: "Pooling"
  bottom: "block1_conv1_BN"
  top: "block1_conv1_BN_max"
  pooling_param {
    pool: MAX
    kernel_size: 3
    stride: 2
  }
}
layer {
  name: "block2_conv4"
  type: "Convolution"
  bottom: "block1_conv1_BN_max"
  top: "block2_conv4"
  param {
    decay_mult: 1
  }
  param {
    decay_mult: 0
  }
  convolution_param {
    num_output: 256
    pad: 0
    kernel_size: 1
    group: 1
    stride: 2
    weight_filler {
      type: "xavier"
    }
    bias_filler {
      value: 0
    }
  }
}
layer {
  name: "block2_relu4"
  type: "ReLU"
  bottom: "block2_conv4"
  top: "block2_conv4"
  relu_param {
    negative_slope: 0
  }
}
layer {
  name: "block2_conv5"
  type: "Convolution"
  bottom: "block2_conv4"
  top: "block2_conv5"
  param {
    decay_mult: 1
  }
  param {
    decay_mult: 0
  }
  convolution_param {
    num_output: 64
    pad: 0
    kernel_size: 1
    group: 1
    stride: 1
    weight_filler {
      type: "xavier"
    }
    bias_filler {
      value: 0
    }
  }
}
layer {
  name: "block2_conv5_BN"
  type: "BatchNorm"
  bottom: "block2_conv5"
  top: "block2_conv5_BN"
  param {
    lr_mult: 0
    decay_mult: 0
  }
  param {
    lr_mult: 0
    decay_mult: 0
  }
  param {
    lr_mult: 0
    decay_mult: 0
  }
  batch_norm_param {
    use_global_stats: false
    moving_average_fraction: 0.95
  }
}
layer {
  name: "block2_relu6"
  type: "ReLU"
  bottom: "block2_conv5_BN"
  top: "block2_conv5_BN"
  relu_param {
    negative_slope: 0
  }
}
layer {
  name: "block2_conv7"
  type: "Convolution"
  bottom: "block2_conv5_BN"
  top: "block2_conv7"
  param {
    decay_mult: 1
  }
  param {
    decay_mult: 0
  }
  convolution_param {
    num_output: 64
    pad: 1
    kernel_size: 3
    group: 1
    stride: 1
    weight_filler {
      type: "xavier"
    }
    bias_filler {
      value: 0
    }
  }
}
layer {
  name: "block2_conv7_BN"
  type: "BatchNorm"
  bottom: "block2_conv7"
  top: "block2_conv7_BN"
  param {
    lr_mult: 0
    decay_mult: 0
  }
  param {
    lr_mult: 0
    decay_mult: 0
  }
  param {
    lr_mult: 0
    decay_mult: 0
  }
  batch_norm_param {
    use_global_stats: false
    moving_average_fraction: 0.95
  }
}
layer {
  name: "block2_relu8"
  type: "ReLU"
  bottom: "block2_conv7_BN"
  top: "block2_conv7_BN"
  relu_param {
    negative_slope: 0
  }
}
layer {
  name: "block2_conv9"
  type: "Convolution"
  bottom: "block2_conv7_BN"
  top: "block2_conv9"
  param {
    decay_mult: 1
  }
  param {
    decay_mult: 0
  }
  convolution_param {
    num_output: 256
    pad: 0
    kernel_size: 1
    group: 1
    stride: 1
    weight_filler {
      type: "xavier"
    }
    bias_filler {
      value: 0
    }
  }
}
layer {
  name: "block2_conv9_BN"
  type: "BatchNorm"
  bottom: "block2_conv9"
  top: "block2_conv9_BN"
  param {
    lr_mult: 0
    decay_mult: 0
  }
  param {
    lr_mult: 0
    decay_mult: 0
  }
  param {
    lr_mult: 0
    decay_mult: 0
  }
  batch_norm_param {
    use_global_stats: false
    moving_average_fraction: 0.95
  }
}
layer {
  name: "block2_conv9_BN_eltwise"
  type: "Eltwise"
  bottom: "block2_conv9_BN"
  bottom: "block2_conv4"
  top: "block2_conv9_BN_eltwise"
  eltwise_param {
    operation: SUM
  }
}
layer {
  name: "block2_relu11"
  type: "ReLU"
  bottom: "block2_conv9_BN_eltwise"
  top: "block2_relu11"
  relu_param {
    negative_slope: 0
  }
}
layer {
  name: "block2_conv13"
  type: "Convolution"
  bottom: "block2_relu11"
  top: "block2_conv13"
  param {
    decay_mult: 1
  }
  param {
    decay_mult: 0
  }
  convolution_param {
    num_output: 64
    pad: 0
    kernel_size: 1
    group: 1
    stride: 1
    weight_filler {
      type: "xavier"
    }
    bias_filler {
      value: 0
    }
  }
}
layer {
  name: "block2_conv13_BN"
  type: "BatchNorm"
  bottom: "block2_conv13"
  top: "block2_conv13_BN"
  param {
    lr_mult: 0
    decay_mult: 0
  }
  param {
    lr_mult: 0
    decay_mult: 0
  }
  param {
    lr_mult: 0
    decay_mult: 0
  }
  batch_norm_param {
    use_global_stats: false
    moving_average_fraction: 0.95
  }
}
layer {
  name: "block2_relu14"
  type: "ReLU"
  bottom: "block2_conv13_BN"
  top: "block2_conv13_BN"
  relu_param {
    negative_slope: 0
  }
}
layer {
  name: "block2_conv15"
  type: "Convolution"
  bottom: "block2_conv13_BN"
  top: "block2_conv15"
  param {
    decay_mult: 1
  }
  param {
    decay_mult: 0
  }
  convolution_param {
    num_output: 64
    pad: 1
    kernel_size: 3
    group: 1
    stride: 1
    weight_filler {
      type: "xavier"
    }
    bias_filler {
      value: 0
    }
  }
}
layer {
  name: "block2_conv15_BN"
  type: "BatchNorm"
  bottom: "block2_conv15"
  top: "block2_conv15_BN"
  param {
    lr_mult: 0
    decay_mult: 0
  }
  param {
    lr_mult: 0
    decay_mult: 0
  }
  param {
    lr_mult: 0
    decay_mult: 0
  }
  batch_norm_param {
    use_global_stats: false
    moving_average_fraction: 0.95
  }
}
layer {
  name: "block2_relu16"
  type: "ReLU"
  bottom: "block2_conv15_BN"
  top: "block2_conv15_BN"
  relu_param {
    negative_slope: 0
  }
}
layer {
  name: "block2_conv17"
  type: "Convolution"
  bottom: "block2_conv15_BN"
  top: "block2_conv17"
  param {
    decay_mult: 1
  }
  param {
    decay_mult: 0
  }
  convolution_param {
    num_output: 256
    pad: 0
    kernel_size: 1
    group: 1
    stride: 1
    weight_filler {
      type: "xavier"
    }
    bias_filler {
      value: 0
    }
  }
}
layer {
  name: "block2_conv17_BN"
  type: "BatchNorm"
  bottom: "block2_conv17"
  top: "block2_conv17_BN"
  param {
    lr_mult: 0
    decay_mult: 0
  }
  param {
    lr_mult: 0
    decay_mult: 0
  }
  param {
    lr_mult: 0
    decay_mult: 0
  }
  batch_norm_param {
    use_global_stats: false
    moving_average_fraction: 0.95
  }
}
layer {
  name: "block2_conv17_BN_eltwise"
  type: "Eltwise"
  bottom: "block2_conv17_BN"
  bottom: "block2_relu11"
  top: "block2_conv17_BN_eltwise"
  eltwise_param {
    operation: SUM
  }
}
layer {
  name: "block2_relu19"
  type: "ReLU"
  bottom: "block2_conv17_BN_eltwise"
  top: "block2_relu19"
  relu_param {
    negative_slope: 0
  }
}
layer {
  name: "block2_conv21"
  type: "Convolution"
  bottom: "block2_relu19"
  top: "block2_conv21"
  param {
    decay_mult: 1
  }
  param {
    decay_mult: 0
  }
  convolution_param {
    num_output: 64
    pad: 0
    kernel_size: 1
    group: 1
    stride: 1
    weight_filler {
      type: "xavier"
    }
    bias_filler {
      value: 0
    }
  }
}
layer {
  name: "block2_conv21_BN"
  type: "BatchNorm"
  bottom: "block2_conv21"
  top: "block2_conv21_BN"
  param {
    lr_mult: 0
    decay_mult: 0
  }
  param {
    lr_mult: 0
    decay_mult: 0
  }
  param {
    lr_mult: 0
    decay_mult: 0
  }
  batch_norm_param {
    use_global_stats: false
    moving_average_fraction: 0.95
  }
}
layer {
  name: "block2_relu22"
  type: "ReLU"
  bottom: "block2_conv21_BN"
  top: "block2_conv21_BN"
  relu_param {
    negative_slope: 0
  }
}
layer {
  name: "block2_conv23"
  type: "Convolution"
  bottom: "block2_conv21_BN"
  top: "block2_conv23"
  param {
    decay_mult: 1
  }
  param {
    decay_mult: 0
  }
  convolution_param {
    num_output: 64
    pad: 1
    kernel_size: 3
    group: 1
    stride: 1
    weight_filler {
      type: "xavier"
    }
    bias_filler {
      value: 0
    }
  }
}
layer {
  name: "block2_conv23_BN"
  type: "BatchNorm"
  bottom: "block2_conv23"
  top: "block2_conv23_BN"
  param {
    lr_mult: 0
    decay_mult: 0
  }
  param {
    lr_mult: 0
    decay_mult: 0
  }
  param {
    lr_mult: 0
    decay_mult: 0
  }
  batch_norm_param {
    use_global_stats: false
    moving_average_fraction: 0.95
  }
}
layer {
  name: "block2_relu24"
  type: "ReLU"
  bottom: "block2_conv23_BN"
  top: "block2_conv23_BN"
  relu_param {
    negative_slope: 0
  }
}
layer {
  name: "block2_conv25"
  type: "Convolution"
  bottom: "block2_conv23_BN"
  top: "block2_conv25"
  param {
    decay_mult: 1
  }
  param {
    decay_mult: 0
  }
  convolution_param {
    num_output: 256
    pad: 0
    kernel_size: 1
    group: 1
    stride: 1
    weight_filler {
      type: "xavier"
    }
    bias_filler {
      value: 0
    }
  }
}
layer {
  name: "block2_conv25_BN"
  type: "BatchNorm"
  bottom: "block2_conv25"
  top: "block2_conv25_BN"
  param {
    lr_mult: 0
    decay_mult: 0
  }
  param {
    lr_mult: 0
    decay_mult: 0
  }
  param {
    lr_mult: 0
    decay_mult: 0
  }
  batch_norm_param {
    use_global_stats: false
    moving_average_fraction: 0.95
  }
}
layer {
  name: "block2_conv25_BN_eltwise"
  type: "Eltwise"
  bottom: "block2_conv25_BN"
  bottom: "block2_relu19"
  top: "block2_conv25_BN_eltwise"
  eltwise_param {
    operation: SUM
  }
}
layer {
  name: "block2_relu27"
  type: "ReLU"
  bottom: "block2_conv25_BN_eltwise"
  top: "block2_relu27"
  relu_param {
    negative_slope: 0
  }
}
layer {
  name: "block3_conv29"
  type: "Convolution"
  bottom: "block2_relu27"
  top: "block3_conv29"
  param {
    decay_mult: 1
  }
  param {
    decay_mult: 0
  }
  convolution_param {
    num_output: 512
    pad: 0
    kernel_size: 1
    group: 1
    stride: 2
    weight_filler {
      type: "xavier"
    }
    bias_filler {
      value: 0
    }
  }
}
layer {
  name: "block3_relu29"
  type: "ReLU"
  bottom: "block3_conv29"
  top: "block3_conv29"
  relu_param {
    negative_slope: 0
  }
}
layer {
  name: "block3_conv30"
  type: "Convolution"
  bottom: "block3_conv29"
  top: "block3_conv30"
  param {
    decay_mult: 1
  }
  param {
    decay_mult: 0
  }
  convolution_param {
    num_output: 128
    pad: 0
    kernel_size: 1
    group: 1
    stride: 1
    weight_filler {
      type: "xavier"
    }
    bias_filler {
      value: 0
    }
  }
}
layer {
  name: "block3_conv30_BN"
  type: "BatchNorm"
  bottom: "block3_conv30"
  top: "block3_conv30_BN"
  param {
    lr_mult: 0
    decay_mult: 0
  }
  param {
    lr_mult: 0
    decay_mult: 0
  }
  param {
    lr_mult: 0
    decay_mult: 0
  }
  batch_norm_param {
    use_global_stats: false
    moving_average_fraction: 0.95
  }
}
layer {
  name: "block3_relu31"
  type: "ReLU"
  bottom: "block3_conv30_BN"
  top: "block3_conv30_BN"
  relu_param {
    negative_slope: 0
  }
}
layer {
  name: "block3_conv32"
  type: "Convolution"
  bottom: "block3_conv30_BN"
  top: "block3_conv32"
  param {
    decay_mult: 1
  }
  param {
    decay_mult: 0
  }
  convolution_param {
    num_output: 128
    pad: 1
    kernel_size: 3
    group: 1
    stride: 1
    weight_filler {
      type: "xavier"
    }
    bias_filler {
      value: 0
    }
  }
}
layer {
  name: "block3_conv32_BN"
  type: "BatchNorm"
  bottom: "block3_conv32"
  top: "block3_conv32_BN"
  param {
    lr_mult: 0
    decay_mult: 0
  }
  param {
    lr_mult: 0
    decay_mult: 0
  }
  param {
    lr_mult: 0
    decay_mult: 0
  }
  batch_norm_param {
    use_global_stats: false
    moving_average_fraction: 0.95
  }
}
layer {
  name: "block3_relu33"
  type: "ReLU"
  bottom: "block3_conv32_BN"
  top: "block3_conv32_BN"
  relu_param {
    negative_slope: 0
  }
}
layer {
  name: "block3_conv34"
  type: "Convolution"
  bottom: "block3_conv32_BN"
  top: "block3_conv34"
  param {
    decay_mult: 1
  }
  param {
    decay_mult: 0
  }
  convolution_param {
    num_output: 512
    pad: 0
    kernel_size: 1
    group: 1
    stride: 1
    weight_filler {
      type: "xavier"
    }
    bias_filler {
      value: 0
    }
  }
}
layer {
  name: "block3_conv34_BN"
  type: "BatchNorm"
  bottom: "block3_conv34"
  top: "block3_conv34_BN"
  param {
    lr_mult: 0
    decay_mult: 0
  }
  param {
    lr_mult: 0
    decay_mult: 0
  }
  param {
    lr_mult: 0
    decay_mult: 0
  }
  batch_norm_param {
    use_global_stats: false
    moving_average_fraction: 0.95
  }
}
layer {
  name: "block3_conv34_BN_eltwise"
  type: "Eltwise"
  bottom: "block3_conv34_BN"
  bottom: "block3_conv29"
  top: "block3_conv34_BN_eltwise"
  eltwise_param {
    operation: SUM
  }
}
layer {
  name: "block3_relu36"
  type: "ReLU"
  bottom: "block3_conv34_BN_eltwise"
  top: "block3_relu36"
  relu_param {
    negative_slope: 0
  }
}
layer {
  name: "block3_conv38"
  type: "Convolution"
  bottom: "block3_relu36"
  top: "block3_conv38"
  param {
    decay_mult: 1
  }
  param {
    decay_mult: 0
  }
  convolution_param {
    num_output: 128
    pad: 0
    kernel_size: 1
    group: 1
    stride: 1
    weight_filler {
      type: "xavier"
    }
    bias_filler {
      value: 0
    }
  }
}
layer {
  name: "block3_conv38_BN"
  type: "BatchNorm"
  bottom: "block3_conv38"
  top: "block3_conv38_BN"
  param {
    lr_mult: 0
    decay_mult: 0
  }
  param {
    lr_mult: 0
    decay_mult: 0
  }
  param {
    lr_mult: 0
    decay_mult: 0
  }
  batch_norm_param {
    use_global_stats: false
    moving_average_fraction: 0.95
  }
}
layer {
  name: "block3_relu39"
  type: "ReLU"
  bottom: "block3_conv38_BN"
  top: "block3_conv38_BN"
  relu_param {
    negative_slope: 0
  }
}
layer {
  name: "block3_conv40"
  type: "Convolution"
  bottom: "block3_conv38_BN"
  top: "block3_conv40"
  param {
    decay_mult: 1
  }
  param {
    decay_mult: 0
  }
  convolution_param {
    num_output: 128
    pad: 1
    kernel_size: 3
    group: 1
    stride: 1
    weight_filler {
      type: "xavier"
    }
    bias_filler {
      value: 0
    }
  }
}
layer {
  name: "block3_conv40_BN"
  type: "BatchNorm"
  bottom: "block3_conv40"
  top: "block3_conv40_BN"
  param {
    lr_mult: 0
    decay_mult: 0
  }
  param {
    lr_mult: 0
    decay_mult: 0
  }
  param {
    lr_mult: 0
    decay_mult: 0
  }
  batch_norm_param {
    use_global_stats: false
    moving_average_fraction: 0.95
  }
}
layer {
  name: "block3_relu41"
  type: "ReLU"
  bottom: "block3_conv40_BN"
  top: "block3_conv40_BN"
  relu_param {
    negative_slope: 0
  }
}
layer {
  name: "block3_conv42"
  type: "Convolution"
  bottom: "block3_conv40_BN"
  top: "block3_conv42"
  param {
    decay_mult: 1
  }
  param {
    decay_mult: 0
  }
  convolution_param {
    num_output: 512
    pad: 0
    kernel_size: 1
    group: 1
    stride: 1
    weight_filler {
      type: "xavier"
    }
    bias_filler {
      value: 0
    }
  }
}
layer {
  name: "block3_conv42_BN"
  type: "BatchNorm"
  bottom: "block3_conv42"
  top: "block3_conv42_BN"
  param {
    lr_mult: 0
    decay_mult: 0
  }
  param {
    lr_mult: 0
    decay_mult: 0
  }
  param {
    lr_mult: 0
    decay_mult: 0
  }
  batch_norm_param {
    use_global_stats: false
    moving_average_fraction: 0.95
  }
}
layer {
  name: "block3_conv42_BN_eltwise"
  type: "Eltwise"
  bottom: "block3_conv42_BN"
  bottom: "block3_relu36"
  top: "block3_conv42_BN_eltwise"
  eltwise_param {
    operation: SUM
  }
}
layer {
  name: "block3_relu44"
  type: "ReLU"
  bottom: "block3_conv42_BN_eltwise"
  top: "block3_relu44"
  relu_param {
    negative_slope: 0
  }
}
layer {
  name: "block3_conv46"
  type: "Convolution"
  bottom: "block3_relu44"
  top: "block3_conv46"
  param {
    decay_mult: 1
  }
  param {
    decay_mult: 0
  }
  convolution_param {
    num_output: 128
    pad: 0
    kernel_size: 1
    group: 1
    stride: 1
    weight_filler {
      type: "xavier"
    }
    bias_filler {
      value: 0
    }
  }
}
layer {
  name: "block3_conv46_BN"
  type: "BatchNorm"
  bottom: "block3_conv46"
  top: "block3_conv46_BN"
  param {
    lr_mult: 0
    decay_mult: 0
  }
  param {
    lr_mult: 0
    decay_mult: 0
  }
  param {
    lr_mult: 0
    decay_mult: 0
  }
  batch_norm_param {
    use_global_stats: false
    moving_average_fraction: 0.95
  }
}
layer {
  name: "block3_relu47"
  type: "ReLU"
  bottom: "block3_conv46_BN"
  top: "block3_conv46_BN"
  relu_param {
    negative_slope: 0
  }
}
layer {
  name: "block3_conv48"
  type: "Convolution"
  bottom: "block3_conv46_BN"
  top: "block3_conv48"
  param {
    decay_mult: 1
  }
  param {
    decay_mult: 0
  }
  convolution_param {
    num_output: 128
    pad: 1
    kernel_size: 3
    group: 1
    stride: 1
    weight_filler {
      type: "xavier"
    }
    bias_filler {
      value: 0
    }
  }
}
layer {
  name: "block3_conv48_BN"
  type: "BatchNorm"
  bottom: "block3_conv48"
  top: "block3_conv48_BN"
  param {
    lr_mult: 0
    decay_mult: 0
  }
  param {
    lr_mult: 0
    decay_mult: 0
  }
  param {
    lr_mult: 0
    decay_mult: 0
  }
  batch_norm_param {
    use_global_stats: false
    moving_average_fraction: 0.95
  }
}
layer {
  name: "block3_relu49"
  type: "ReLU"
  bottom: "block3_conv48_BN"
  top: "block3_conv48_BN"
  relu_param {
    negative_slope: 0
  }
}
layer {
  name: "block3_conv50"
  type: "Convolution"
  bottom: "block3_conv48_BN"
  top: "block3_conv50"
  param {
    decay_mult: 1
  }
  param {
    decay_mult: 0
  }
  convolution_param {
    num_output: 512
    pad: 0
    kernel_size: 1
    group: 1
    stride: 1
    weight_filler {
      type: "xavier"
    }
    bias_filler {
      value: 0
    }
  }
}
layer {
  name: "block3_conv50_BN"
  type: "BatchNorm"
  bottom: "block3_conv50"
  top: "block3_conv50_BN"
  param {
    lr_mult: 0
    decay_mult: 0
  }
  param {
    lr_mult: 0
    decay_mult: 0
  }
  param {
    lr_mult: 0
    decay_mult: 0
  }
  batch_norm_param {
    use_global_stats: false
    moving_average_fraction: 0.95
  }
}
layer {
  name: "block3_conv50_BN_eltwise"
  type: "Eltwise"
  bottom: "block3_conv50_BN"
  bottom: "block3_relu44"
  top: "block3_conv50_BN_eltwise"
  eltwise_param {
    operation: SUM
  }
}
layer {
  name: "block3_relu52"
  type: "ReLU"
  bottom: "block3_conv50_BN_eltwise"
  top: "block3_relu52"
  relu_param {
    negative_slope: 0
  }
}
layer {
  name: "block3_conv54"
  type: "Convolution"
  bottom: "block3_relu52"
  top: "block3_conv54"
  param {
    decay_mult: 1
  }
  param {
    decay_mult: 0
  }
  convolution_param {
    num_output: 128
    pad: 0
    kernel_size: 1
    group: 1
    stride: 1
    weight_filler {
      type: "xavier"
    }
    bias_filler {
      value: 0
    }
  }
}
layer {
  name: "block3_conv54_BN"
  type: "BatchNorm"
  bottom: "block3_conv54"
  top: "block3_conv54_BN"
  param {
    lr_mult: 0
    decay_mult: 0
  }
  param {
    lr_mult: 0
    decay_mult: 0
  }
  param {
    lr_mult: 0
    decay_mult: 0
  }
  batch_norm_param {
    use_global_stats: false
    moving_average_fraction: 0.95
  }
}
layer {
  name: "block3_relu55"
  type: "ReLU"
  bottom: "block3_conv54_BN"
  top: "block3_conv54_BN"
  relu_param {
    negative_slope: 0
  }
}
layer {
  name: "block3_conv56"
  type: "Convolution"
  bottom: "block3_conv54_BN"
  top: "block3_conv56"
  param {
    decay_mult: 1
  }
  param {
    decay_mult: 0
  }
  convolution_param {
    num_output: 128
    pad: 1
    kernel_size: 3
    group: 1
    stride: 1
    weight_filler {
      type: "xavier"
    }
    bias_filler {
      value: 0
    }
  }
}
layer {
  name: "block3_conv56_BN"
  type: "BatchNorm"
  bottom: "block3_conv56"
  top: "block3_conv56_BN"
  param {
    lr_mult: 0
    decay_mult: 0
  }
  param {
    lr_mult: 0
    decay_mult: 0
  }
  param {
    lr_mult: 0
    decay_mult: 0
  }
  batch_norm_param {
    use_global_stats: false
    moving_average_fraction: 0.95
  }
}
layer {
  name: "block3_relu57"
  type: "ReLU"
  bottom: "block3_conv56_BN"
  top: "block3_conv56_BN"
  relu_param {
    negative_slope: 0
  }
}
layer {
  name: "block3_conv58"
  type: "Convolution"
  bottom: "block3_conv56_BN"
  top: "block3_conv58"
  param {
    decay_mult: 1
  }
  param {
    decay_mult: 0
  }
  convolution_param {
    num_output: 512
    pad: 0
    kernel_size: 1
    group: 1
    stride: 1
    weight_filler {
      type: "xavier"
    }
    bias_filler {
      value: 0
    }
  }
}
layer {
  name: "block3_conv58_BN"
  type: "BatchNorm"
  bottom: "block3_conv58"
  top: "block3_conv58_BN"
  param {
    lr_mult: 0
    decay_mult: 0
  }
  param {
    lr_mult: 0
    decay_mult: 0
  }
  param {
    lr_mult: 0
    decay_mult: 0
  }
  batch_norm_param {
    use_global_stats: false
    moving_average_fraction: 0.95
  }
}
layer {
  name: "block3_conv58_BN_eltwise"
  type: "Eltwise"
  bottom: "block3_conv58_BN"
  bottom: "block3_relu52"
  top: "block3_conv58_BN_eltwise"
  eltwise_param {
    operation: SUM
  }
}
layer {
  name: "block3_relu60"
  type: "ReLU"
  bottom: "block3_conv58_BN_eltwise"
  top: "block3_relu60"
  relu_param {
    negative_slope: 0
  }
}
layer {
  name: "block4_conv62"
  type: "Convolution"
  bottom: "block3_relu60"
  top: "block4_conv62"
  param {
    decay_mult: 1
  }
  param {
    decay_mult: 0
  }
  convolution_param {
    num_output: 1024
    pad: 0
    kernel_size: 1
    group: 1
    stride: 2
    weight_filler {
      type: "xavier"
    }
    bias_filler {
      value: 0
    }
  }
}
layer {
  name: "block4_relu62"
  type: "ReLU"
  bottom: "block4_conv62"
  top: "block4_conv62"
  relu_param {
    negative_slope: 0
  }
}
layer {
  name: "block4_conv63"
  type: "Convolution"
  bottom: "block4_conv62"
  top: "block4_conv63"
  param {
    decay_mult: 1
  }
  param {
    decay_mult: 0
  }
  convolution_param {
    num_output: 256
    pad: 0
    kernel_size: 1
    group: 1
    stride: 1
    weight_filler {
      type: "xavier"
    }
    bias_filler {
      value: 0
    }
  }
}
layer {
  name: "block4_conv63_BN"
  type: "BatchNorm"
  bottom: "block4_conv63"
  top: "block4_conv63_BN"
  param {
    lr_mult: 0
    decay_mult: 0
  }
  param {
    lr_mult: 0
    decay_mult: 0
  }
  param {
    lr_mult: 0
    decay_mult: 0
  }
  batch_norm_param {
    use_global_stats: false
    moving_average_fraction: 0.95
  }
}
layer {
  name: "block4_relu64"
  type: "ReLU"
  bottom: "block4_conv63_BN"
  top: "block4_conv63_BN"
  relu_param {
    negative_slope: 0
  }
}
layer {
  name: "block4_conv65"
  type: "Convolution"
  bottom: "block4_conv63_BN"
  top: "block4_conv65"
  param {
    decay_mult: 1
  }
  param {
    decay_mult: 0
  }
  convolution_param {
    num_output: 256
    pad: 1
    kernel_size: 3
    group: 1
    stride: 1
    weight_filler {
      type: "xavier"
    }
    bias_filler {
      value: 0
    }
  }
}
layer {
  name: "block4_conv65_BN"
  type: "BatchNorm"
  bottom: "block4_conv65"
  top: "block4_conv65_BN"
  param {
    lr_mult: 0
    decay_mult: 0
  }
  param {
    lr_mult: 0
    decay_mult: 0
  }
  param {
    lr_mult: 0
    decay_mult: 0
  }
  batch_norm_param {
    use_global_stats: false
    moving_average_fraction: 0.95
  }
}
layer {
  name: "block4_relu66"
  type: "ReLU"
  bottom: "block4_conv65_BN"
  top: "block4_conv65_BN"
  relu_param {
    negative_slope: 0
  }
}
layer {
  name: "block4_conv67"
  type: "Convolution"
  bottom: "block4_conv65_BN"
  top: "block4_conv67"
  param {
    decay_mult: 1
  }
  param {
    decay_mult: 0
  }
  convolution_param {
    num_output: 1024
    pad: 0
    kernel_size: 1
    group: 1
    stride: 1
    weight_filler {
      type: "xavier"
    }
    bias_filler {
      value: 0
    }
  }
}
layer {
  name: "block4_conv67_BN"
  type: "BatchNorm"
  bottom: "block4_conv67"
  top: "block4_conv67_BN"
  param {
    lr_mult: 0
    decay_mult: 0
  }
  param {
    lr_mult: 0
    decay_mult: 0
  }
  param {
    lr_mult: 0
    decay_mult: 0
  }
  batch_norm_param {
    use_global_stats: false
    moving_average_fraction: 0.95
  }
}
layer {
  name: "block4_conv67_BN_eltwise"
  type: "Eltwise"
  bottom: "block4_conv67_BN"
  bottom: "block4_conv62"
  top: "block4_conv67_BN_eltwise"
  eltwise_param {
    operation: SUM
  }
}
layer {
  name: "block4_relu69"
  type: "ReLU"
  bottom: "block4_conv67_BN_eltwise"
  top: "block4_relu69"
  relu_param {
    negative_slope: 0
  }
}
layer {
  name: "block4_conv71"
  type: "Convolution"
  bottom: "block4_relu69"
  top: "block4_conv71"
  param {
    decay_mult: 1
  }
  param {
    decay_mult: 0
  }
  convolution_param {
    num_output: 256
    pad: 0
    kernel_size: 1
    group: 1
    stride: 1
    weight_filler {
      type: "xavier"
    }
    bias_filler {
      value: 0
    }
  }
}
layer {
  name: "block4_conv71_BN"
  type: "BatchNorm"
  bottom: "block4_conv71"
  top: "block4_conv71_BN"
  param {
    lr_mult: 0
    decay_mult: 0
  }
  param {
    lr_mult: 0
    decay_mult: 0
  }
  param {
    lr_mult: 0
    decay_mult: 0
  }
  batch_norm_param {
    use_global_stats: false
    moving_average_fraction: 0.95
  }
}
layer {
  name: "block4_relu72"
  type: "ReLU"
  bottom: "block4_conv71_BN"
  top: "block4_conv71_BN"
  relu_param {
    negative_slope: 0
  }
}
layer {
  name: "block4_conv73"
  type: "Convolution"
  bottom: "block4_conv71_BN"
  top: "block4_conv73"
  param {
    decay_mult: 1
  }
  param {
    decay_mult: 0
  }
  convolution_param {
    num_output: 256
    pad: 1
    kernel_size: 3
    group: 1
    stride: 1
    weight_filler {
      type: "xavier"
    }
    bias_filler {
      value: 0
    }
  }
}
layer {
  name: "block4_conv73_BN"
  type: "BatchNorm"
  bottom: "block4_conv73"
  top: "block4_conv73_BN"
  param {
    lr_mult: 0
    decay_mult: 0
  }
  param {
    lr_mult: 0
    decay_mult: 0
  }
  param {
    lr_mult: 0
    decay_mult: 0
  }
  batch_norm_param {
    use_global_stats: false
    moving_average_fraction: 0.95
  }
}
layer {
  name: "block4_relu74"
  type: "ReLU"
  bottom: "block4_conv73_BN"
  top: "block4_conv73_BN"
  relu_param {
    negative_slope: 0
  }
}
layer {
  name: "block4_conv75"
  type: "Convolution"
  bottom: "block4_conv73_BN"
  top: "block4_conv75"
  param {
    decay_mult: 1
  }
  param {
    decay_mult: 0
  }
  convolution_param {
    num_output: 1024
    pad: 0
    kernel_size: 1
    group: 1
    stride: 1
    weight_filler {
      type: "xavier"
    }
    bias_filler {
      value: 0
    }
  }
}
layer {
  name: "block4_conv75_BN"
  type: "BatchNorm"
  bottom: "block4_conv75"
  top: "block4_conv75_BN"
  param {
    lr_mult: 0
    decay_mult: 0
  }
  param {
    lr_mult: 0
    decay_mult: 0
  }
  param {
    lr_mult: 0
    decay_mult: 0
  }
  batch_norm_param {
    use_global_stats: false
    moving_average_fraction: 0.95
  }
}
layer {
  name: "block4_conv75_BN_eltwise"
  type: "Eltwise"
  bottom: "block4_conv75_BN"
  bottom: "block4_relu69"
  top: "block4_conv75_BN_eltwise"
  eltwise_param {
    operation: SUM
  }
}
layer {
  name: "block4_relu77"
  type: "ReLU"
  bottom: "block4_conv75_BN_eltwise"
  top: "block4_relu77"
  relu_param {
    negative_slope: 0
  }
}
layer {
  name: "block4_conv79"
  type: "Convolution"
  bottom: "block4_relu77"
  top: "block4_conv79"
  param {
    decay_mult: 1
  }
  param {
    decay_mult: 0
  }
  convolution_param {
    num_output: 256
    pad: 0
    kernel_size: 1
    group: 1
    stride: 1
    weight_filler {
      type: "xavier"
    }
    bias_filler {
      value: 0
    }
  }
}
layer {
  name: "block4_conv79_BN"
  type: "BatchNorm"
  bottom: "block4_conv79"
  top: "block4_conv79_BN"
  param {
    lr_mult: 0
    decay_mult: 0
  }
  param {
    lr_mult: 0
    decay_mult: 0
  }
  param {
    lr_mult: 0
    decay_mult: 0
  }
  batch_norm_param {
    use_global_stats: false
    moving_average_fraction: 0.95
  }
}
layer {
  name: "block4_relu80"
  type: "ReLU"
  bottom: "block4_conv79_BN"
  top: "block4_conv79_BN"
  relu_param {
    negative_slope: 0
  }
}
layer {
  name: "block4_conv81"
  type: "Convolution"
  bottom: "block4_conv79_BN"
  top: "block4_conv81"
  param {
    decay_mult: 1
  }
  param {
    decay_mult: 0
  }
  convolution_param {
    num_output: 256
    pad: 1
    kernel_size: 3
    group: 1
    stride: 1
    weight_filler {
      type: "xavier"
    }
    bias_filler {
      value: 0
    }
  }
}
layer {
  name: "block4_conv81_BN"
  type: "BatchNorm"
  bottom: "block4_conv81"
  top: "block4_conv81_BN"
  param {
    lr_mult: 0
    decay_mult: 0
  }
  param {
    lr_mult: 0
    decay_mult: 0
  }
  param {
    lr_mult: 0
    decay_mult: 0
  }
  batch_norm_param {
    use_global_stats: false
    moving_average_fraction: 0.95
  }
}
layer {
  name: "block4_relu82"
  type: "ReLU"
  bottom: "block4_conv81_BN"
  top: "block4_conv81_BN"
  relu_param {
    negative_slope: 0
  }
}
layer {
  name: "block4_conv83"
  type: "Convolution"
  bottom: "block4_conv81_BN"
  top: "block4_conv83"
  param {
    decay_mult: 1
  }
  param {
    decay_mult: 0
  }
  convolution_param {
    num_output: 1024
    pad: 0
    kernel_size: 1
    group: 1
    stride: 1
    weight_filler {
      type: "xavier"
    }
    bias_filler {
      value: 0
    }
  }
}
layer {
  name: "block4_conv83_BN"
  type: "BatchNorm"
  bottom: "block4_conv83"
  top: "block4_conv83_BN"
  param {
    lr_mult: 0
    decay_mult: 0
  }
  param {
    lr_mult: 0
    decay_mult: 0
  }
  param {
    lr_mult: 0
    decay_mult: 0
  }
  batch_norm_param {
    use_global_stats: false
    moving_average_fraction: 0.95
  }
}
layer {
  name: "block4_conv83_BN_eltwise"
  type: "Eltwise"
  bottom: "block4_conv83_BN"
  bottom: "block4_relu77"
  top: "block4_conv83_BN_eltwise"
  el
I0206 00:21:09.815028  3521 layer_factory.hpp:76] Creating layer data
I0206 00:21:09.815479  3521 net.cpp:106] Creating Layer data
I0206 00:21:09.815505  3521 net.cpp:411] data -> data
I0206 00:21:09.815529  3521 net.cpp:411] data -> label
I0206 00:21:09.816280  3526 db_lmdb.cpp:38] Opened lmdb /media/dereyly/2E4057004056CDE9/data/CAFFE_DATA/ilsvrc12_train_lmdb_144
I0206 00:21:09.824657  3521 data_layer.cpp:41] output data size: 128,3,128,128
I0206 00:21:09.855269  3521 net.cpp:150] Setting up data
I0206 00:21:09.855306  3521 net.cpp:157] Top shape: 128 3 128 128 (6291456)
I0206 00:21:09.855311  3521 net.cpp:157] Top shape: 128 (128)
I0206 00:21:09.855316  3521 net.cpp:165] Memory required for data: 25166336
I0206 00:21:09.855326  3521 layer_factory.hpp:76] Creating layer block1_conv1
I0206 00:21:09.855346  3521 net.cpp:106] Creating Layer block1_conv1
I0206 00:21:09.855355  3521 net.cpp:454] block1_conv1 <- data
I0206 00:21:09.855365  3521 net.cpp:411] block1_conv1 -> block1_conv1
I0206 00:21:09.963287  3521 net.cpp:150] Setting up block1_conv1
I0206 00:21:09.963311  3521 net.cpp:157] Top shape: 128 64 61 61 (30482432)
I0206 00:21:09.963316  3521 net.cpp:165] Memory required for data: 147096064
I0206 00:21:09.963333  3521 layer_factory.hpp:76] Creating layer block1_conv1_BN
I0206 00:21:09.963358  3521 net.cpp:106] Creating Layer block1_conv1_BN
I0206 00:21:09.963362  3521 net.cpp:454] block1_conv1_BN <- block1_conv1
I0206 00:21:09.963368  3521 net.cpp:411] block1_conv1_BN -> block1_conv1_BN
I0206 00:21:09.963511  3521 net.cpp:150] Setting up block1_conv1_BN
I0206 00:21:09.963517  3521 net.cpp:157] Top shape: 128 64 61 61 (30482432)
I0206 00:21:09.963521  3521 net.cpp:165] Memory required for data: 269025792
I0206 00:21:09.963531  3521 layer_factory.hpp:76] Creating layer block1_relu2
I0206 00:21:09.963536  3521 net.cpp:106] Creating Layer block1_relu2
I0206 00:21:09.963539  3521 net.cpp:454] block1_relu2 <- block1_conv1_BN
I0206 00:21:09.963554  3521 net.cpp:397] block1_relu2 -> block1_conv1_BN (in-place)
I0206 00:21:09.963767  3521 net.cpp:150] Setting up block1_relu2
I0206 00:21:09.963775  3521 net.cpp:157] Top shape: 128 64 61 61 (30482432)
I0206 00:21:09.963779  3521 net.cpp:165] Memory required for data: 390955520
I0206 00:21:09.963783  3521 layer_factory.hpp:76] Creating layer block1_conv1_BN_max
I0206 00:21:09.963789  3521 net.cpp:106] Creating Layer block1_conv1_BN_max
I0206 00:21:09.963793  3521 net.cpp:454] block1_conv1_BN_max <- block1_conv1_BN
I0206 00:21:09.963796  3521 net.cpp:411] block1_conv1_BN_max -> block1_conv1_BN_max
I0206 00:21:09.964025  3521 net.cpp:150] Setting up block1_conv1_BN_max
I0206 00:21:09.964035  3521 net.cpp:157] Top shape: 128 64 30 30 (7372800)
I0206 00:21:09.964038  3521 net.cpp:165] Memory required for data: 420446720
I0206 00:21:09.964042  3521 layer_factory.hpp:76] Creating layer block2_conv4
I0206 00:21:09.964051  3521 net.cpp:106] Creating Layer block2_conv4
I0206 00:21:09.964054  3521 net.cpp:454] block2_conv4 <- block1_conv1_BN_max
I0206 00:21:09.964069  3521 net.cpp:411] block2_conv4 -> block2_conv4
I0206 00:21:09.964689  3521 net.cpp:150] Setting up block2_conv4
I0206 00:21:09.964699  3521 net.cpp:157] Top shape: 128 256 15 15 (7372800)
I0206 00:21:09.964701  3521 net.cpp:165] Memory required for data: 449937920
I0206 00:21:09.964707  3521 layer_factory.hpp:76] Creating layer block2_relu4
I0206 00:21:09.964712  3521 net.cpp:106] Creating Layer block2_relu4
I0206 00:21:09.964715  3521 net.cpp:454] block2_relu4 <- block2_conv4
I0206 00:21:09.964731  3521 net.cpp:397] block2_relu4 -> block2_conv4 (in-place)
I0206 00:21:09.964927  3521 net.cpp:150] Setting up block2_relu4
I0206 00:21:09.964936  3521 net.cpp:157] Top shape: 128 256 15 15 (7372800)
I0206 00:21:09.964941  3521 net.cpp:165] Memory required for data: 479429120
I0206 00:21:09.964943  3521 layer_factory.hpp:76] Creating layer block2_conv4_block2_relu4_0_split
I0206 00:21:09.964949  3521 net.cpp:106] Creating Layer block2_conv4_block2_relu4_0_split
I0206 00:21:09.964953  3521 net.cpp:454] block2_conv4_block2_relu4_0_split <- block2_conv4
I0206 00:21:09.964957  3521 net.cpp:411] block2_conv4_block2_relu4_0_split -> block2_conv4_block2_relu4_0_split_0
I0206 00:21:09.964974  3521 net.cpp:411] block2_conv4_block2_relu4_0_split -> block2_conv4_block2_relu4_0_split_1
I0206 00:21:09.965003  3521 net.cpp:150] Setting up block2_conv4_block2_relu4_0_split
I0206 00:21:09.965023  3521 net.cpp:157] Top shape: 128 256 15 15 (7372800)
I0206 00:21:09.965026  3521 net.cpp:157] Top shape: 128 256 15 15 (7372800)
I0206 00:21:09.965029  3521 net.cpp:165] Memory required for data: 538411520
I0206 00:21:09.965031  3521 layer_factory.hpp:76] Creating layer block2_conv5
I0206 00:21:09.965040  3521 net.cpp:106] Creating Layer block2_conv5
I0206 00:21:09.965044  3521 net.cpp:454] block2_conv5 <- block2_conv4_block2_relu4_0_split_0
I0206 00:21:09.965060  3521 net.cpp:411] block2_conv5 -> block2_conv5
I0206 00:21:09.966102  3521 net.cpp:150] Setting up block2_conv5
I0206 00:21:09.966123  3521 net.cpp:157] Top shape: 128 64 15 15 (1843200)
I0206 00:21:09.966137  3521 net.cpp:165] Memory required for data: 545784320
I0206 00:21:09.966145  3521 layer_factory.hpp:76] Creating layer block2_conv5_BN
I0206 00:21:09.966163  3521 net.cpp:106] Creating Layer block2_conv5_BN
I0206 00:21:09.966167  3521 net.cpp:454] block2_conv5_BN <- block2_conv5
I0206 00:21:09.966172  3521 net.cpp:411] block2_conv5_BN -> block2_conv5_BN
I0206 00:21:09.966326  3521 net.cpp:150] Setting up block2_conv5_BN
I0206 00:21:09.966332  3521 net.cpp:157] Top shape: 128 64 15 15 (1843200)
I0206 00:21:09.966336  3521 net.cpp:165] Memory required for data: 553157120
I0206 00:21:09.966341  3521 layer_factory.hpp:76] Creating layer block2_relu6
I0206 00:21:09.966348  3521 net.cpp:106] Creating Layer block2_relu6
I0206 00:21:09.966352  3521 net.cpp:454] block2_relu6 <- block2_conv5_BN
I0206 00:21:09.966356  3521 net.cpp:397] block2_relu6 -> block2_conv5_BN (in-place)
I0206 00:21:09.966480  3521 net.cpp:150] Setting up block2_relu6
I0206 00:21:09.966487  3521 net.cpp:157] Top shape: 128 64 15 15 (1843200)
I0206 00:21:09.966498  3521 net.cpp:165] Memory required for data: 560529920
I0206 00:21:09.966502  3521 layer_factory.hpp:76] Creating layer block2_conv7
I0206 00:21:09.966511  3521 net.cpp:106] Creating Layer block2_conv7
I0206 00:21:09.966513  3521 net.cpp:454] block2_conv7 <- block2_conv5_BN
I0206 00:21:09.966519  3521 net.cpp:411] block2_conv7 -> block2_conv7
I0206 00:21:09.967705  3521 net.cpp:150] Setting up block2_conv7
I0206 00:21:09.967716  3521 net.cpp:157] Top shape: 128 64 15 15 (1843200)
I0206 00:21:09.967720  3521 net.cpp:165] Memory required for data: 567902720
I0206 00:21:09.967725  3521 layer_factory.hpp:76] Creating layer block2_conv7_BN
I0206 00:21:09.967731  3521 net.cpp:106] Creating Layer block2_conv7_BN
I0206 00:21:09.967735  3521 net.cpp:454] block2_conv7_BN <- block2_conv7
I0206 00:21:09.967741  3521 net.cpp:411] block2_conv7_BN -> block2_conv7_BN
I0206 00:21:09.967869  3521 net.cpp:150] Setting up block2_conv7_BN
I0206 00:21:09.967875  3521 net.cpp:157] Top shape: 128 64 15 15 (1843200)
I0206 00:21:09.967878  3521 net.cpp:165] Memory required for data: 575275520
I0206 00:21:09.967887  3521 layer_factory.hpp:76] Creating layer block2_relu8
I0206 00:21:09.967893  3521 net.cpp:106] Creating Layer block2_relu8
I0206 00:21:09.967896  3521 net.cpp:454] block2_relu8 <- block2_conv7_BN
I0206 00:21:09.967900  3521 net.cpp:397] block2_relu8 -> block2_conv7_BN (in-place)
I0206 00:21:09.968093  3521 net.cpp:150] Setting up block2_relu8
I0206 00:21:09.968102  3521 net.cpp:157] Top shape: 128 64 15 15 (1843200)
I0206 00:21:09.968106  3521 net.cpp:165] Memory required for data: 582648320
I0206 00:21:09.968109  3521 layer_factory.hpp:76] Creating layer block2_conv9
I0206 00:21:09.968116  3521 net.cpp:106] Creating Layer block2_conv9
I0206 00:21:09.968119  3521 net.cpp:454] block2_conv9 <- block2_conv7_BN
I0206 00:21:09.968125  3521 net.cpp:411] block2_conv9 -> block2_conv9
I0206 00:21:09.968761  3521 net.cpp:150] Setting up block2_conv9
I0206 00:21:09.968771  3521 net.cpp:157] Top shape: 128 256 15 15 (7372800)
I0206 00:21:09.968775  3521 net.cpp:165] Memory required for data: 612139520
I0206 00:21:09.968780  3521 layer_factory.hpp:76] Creating layer block2_conv9_BN
I0206 00:21:09.968786  3521 net.cpp:106] Creating Layer block2_conv9_BN
I0206 00:21:09.968791  3521 net.cpp:454] block2_conv9_BN <- block2_conv9
I0206 00:21:09.968796  3521 net.cpp:411] block2_conv9_BN -> block2_conv9_BN
I0206 00:21:09.968921  3521 net.cpp:150] Setting up block2_conv9_BN
I0206 00:21:09.968927  3521 net.cpp:157] Top shape: 128 256 15 15 (7372800)
I0206 00:21:09.968930  3521 net.cpp:165] Memory required for data: 641630720
I0206 00:21:09.968936  3521 layer_factory.hpp:76] Creating layer block2_conv9_BN_eltwise
I0206 00:21:09.968945  3521 net.cpp:106] Creating Layer block2_conv9_BN_eltwise
I0206 00:21:09.968948  3521 net.cpp:454] block2_conv9_BN_eltwise <- block2_conv9_BN
I0206 00:21:09.968952  3521 net.cpp:454] block2_conv9_BN_eltwise <- block2_conv4_block2_relu4_0_split_1
I0206 00:21:09.968956  3521 net.cpp:411] block2_conv9_BN_eltwise -> block2_conv9_BN_eltwise
I0206 00:21:09.968973  3521 net.cpp:150] Setting up block2_conv9_BN_eltwise
I0206 00:21:09.968978  3521 net.cpp:157] Top shape: 128 256 15 15 (7372800)
I0206 00:21:09.968981  3521 net.cpp:165] Memory required for data: 671121920
I0206 00:21:09.968984  3521 layer_factory.hpp:76] Creating layer block2_relu11
I0206 00:21:09.968991  3521 net.cpp:106] Creating Layer block2_relu11
I0206 00:21:09.968993  3521 net.cpp:454] block2_relu11 <- block2_conv9_BN_eltwise
I0206 00:21:09.968997  3521 net.cpp:411] block2_relu11 -> block2_relu11
I0206 00:21:09.969210  3521 net.cpp:150] Setting up block2_relu11
I0206 00:21:09.969221  3521 net.cpp:157] Top shape: 128 256 15 15 (7372800)
I0206 00:21:09.969225  3521 net.cpp:165] Memory required for data: 700613120
I0206 00:21:09.969228  3521 layer_factory.hpp:76] Creating layer block2_relu11_block2_relu11_0_split
I0206 00:21:09.969233  3521 net.cpp:106] Creating Layer block2_relu11_block2_relu11_0_split
I0206 00:21:09.969236  3521 net.cpp:454] block2_relu11_block2_relu11_0_split <- block2_relu11
I0206 00:21:09.969249  3521 net.cpp:411] block2_relu11_block2_relu11_0_split -> block2_relu11_block2_relu11_0_split_0
I0206 00:21:09.969256  3521 net.cpp:411] block2_relu11_block2_relu11_0_split -> block2_relu11_block2_relu11_0_split_1
I0206 00:21:09.969282  3521 net.cpp:150] Setting up block2_relu11_block2_relu11_0_split
I0206 00:21:09.969288  3521 net.cpp:157] Top shape: 128 256 15 15 (7372800)
I0206 00:21:09.969292  3521 net.cpp:157] Top shape: 128 256 15 15 (7372800)
I0206 00:21:09.969295  3521 net.cpp:165] Memory required for data: 759595520
I0206 00:21:09.969298  3521 layer_factory.hpp:76] Creating layer block2_conv13
I0206 00:21:09.969305  3521 net.cpp:106] Creating Layer block2_conv13
I0206 00:21:09.969308  3521 net.cpp:454] block2_conv13 <- block2_relu11_block2_relu11_0_split_0
I0206 00:21:09.969315  3521 net.cpp:411] block2_conv13 -> block2_conv13
I0206 00:21:09.970037  3521 net.cpp:150] Setting up block2_conv13
I0206 00:21:09.970047  3521 net.cpp:157] Top shape: 128 64 15 15 (1843200)
I0206 00:21:09.970051  3521 net.cpp:165] Memory required for data: 766968320
I0206 00:21:09.970057  3521 layer_factory.hpp:76] Creating layer block2_conv13_BN
I0206 00:21:09.970063  3521 net.cpp:106] Creating Layer block2_conv13_BN
I0206 00:21:09.970067  3521 net.cpp:454] block2_conv13_BN <- block2_conv13
I0206 00:21:09.970072  3521 net.cpp:411] block2_conv13_BN -> block2_conv13_BN
I0206 00:21:09.970206  3521 net.cpp:150] Setting up block2_conv13_BN
I0206 00:21:09.970211  3521 net.cpp:157] Top shape: 128 64 15 15 (1843200)
I0206 00:21:09.970214  3521 net.cpp:165] Memory required for data: 774341120
I0206 00:21:09.970219  3521 layer_factory.hpp:76] Creating layer block2_relu14
I0206 00:21:09.970224  3521 net.cpp:106] Creating Layer block2_relu14
I0206 00:21:09.970227  3521 net.cpp:454] block2_relu14 <- block2_conv13_BN
I0206 00:21:09.970232  3521 net.cpp:397] block2_relu14 -> block2_conv13_BN (in-place)
I0206 00:21:09.970351  3521 net.cpp:150] Setting up block2_relu14
I0206 00:21:09.970358  3521 net.cpp:157] Top shape: 128 64 15 15 (1843200)
I0206 00:21:09.970361  3521 net.cpp:165] Memory required for data: 781713920
I0206 00:21:09.970365  3521 layer_factory.hpp:76] Creating layer block2_conv15
I0206 00:21:09.970371  3521 net.cpp:106] Creating Layer block2_conv15
I0206 00:21:09.970376  3521 net.cpp:454] block2_conv15 <- block2_conv13_BN
I0206 00:21:09.970381  3521 net.cpp:411] block2_conv15 -> block2_conv15
I0206 00:21:09.971326  3521 net.cpp:150] Setting up block2_conv15
I0206 00:21:09.971336  3521 net.cpp:157] Top shape: 128 64 15 15 (1843200)
I0206 00:21:09.971339  3521 net.cpp:165] Memory required for data: 789086720
I0206 00:21:09.971344  3521 layer_factory.hpp:76] Creating layer block2_conv15_BN
I0206 00:21:09.971351  3521 net.cpp:106] Creating Layer block2_conv15_BN
I0206 00:21:09.971355  3521 net.cpp:454] block2_conv15_BN <- block2_conv15
I0206 00:21:09.971360  3521 net.cpp:411] block2_conv15_BN -> block2_conv15_BN
I0206 00:21:09.971493  3521 net.cpp:150] Setting up block2_conv15_BN
I0206 00:21:09.971498  3521 net.cpp:157] Top shape: 128 64 15 15 (1843200)
I0206 00:21:09.971501  3521 net.cpp:165] Memory required for data: 796459520
I0206 00:21:09.971506  3521 layer_factory.hpp:76] Creating layer block2_relu16
I0206 00:21:09.971511  3521 net.cpp:106] Creating Layer block2_relu16
I0206 00:21:09.971514  3521 net.cpp:454] block2_relu16 <- block2_conv15_BN
I0206 00:21:09.971519  3521 net.cpp:397] block2_relu16 -> block2_conv15_BN (in-place)
I0206 00:21:09.971716  3521 net.cpp:150] Setting up block2_relu16
I0206 00:21:09.971725  3521 net.cpp:157] Top shape: 128 64 15 15 (1843200)
I0206 00:21:09.971729  3521 net.cpp:165] Memory required for data: 803832320
I0206 00:21:09.971731  3521 layer_factory.hpp:76] Creating layer block2_conv17
I0206 00:21:09.971740  3521 net.cpp:106] Creating Layer block2_conv17
I0206 00:21:09.971743  3521 net.cpp:454] block2_conv17 <- block2_conv15_BN
I0206 00:21:09.971747  3521 net.cpp:411] block2_conv17 -> block2_conv17
I0206 00:21:09.972621  3521 net.cpp:150] Setting up block2_conv17
I0206 00:21:09.972631  3521 net.cpp:157] Top shape: 128 256 15 15 (7372800)
I0206 00:21:09.972635  3521 net.cpp:165] Memory required for data: 833323520
I0206 00:21:09.972645  3521 layer_factory.hpp:76] Creating layer block2_conv17_BN
I0206 00:21:09.972651  3521 net.cpp:106] Creating Layer block2_conv17_BN
I0206 00:21:09.972656  3521 net.cpp:454] block2_conv17_BN <- block2_conv17
I0206 00:21:09.972661  3521 net.cpp:411] block2_conv17_BN -> block2_conv17_BN
I0206 00:21:09.972787  3521 net.cpp:150] Setting up block2_conv17_BN
I0206 00:21:09.972793  3521 net.cpp:157] Top shape: 128 256 15 15 (7372800)
I0206 00:21:09.972796  3521 net.cpp:165] Memory required for data: 862814720
I0206 00:21:09.972802  3521 layer_factory.hpp:76] Creating layer block2_conv17_BN_eltwise
I0206 00:21:09.972807  3521 net.cpp:106] Creating Layer block2_conv17_BN_eltwise
I0206 00:21:09.972810  3521 net.cpp:454] block2_conv17_BN_eltwise <- block2_conv17_BN
I0206 00:21:09.972815  3521 net.cpp:454] block2_conv17_BN_eltwise <- block2_relu11_block2_relu11_0_split_1
I0206 00:21:09.972820  3521 net.cpp:411] block2_conv17_BN_eltwise -> block2_conv17_BN_eltwise
I0206 00:21:09.972832  3521 net.cpp:150] Setting up block2_conv17_BN_eltwise
I0206 00:21:09.972836  3521 net.cpp:157] Top shape: 128 256 15 15 (7372800)
I0206 00:21:09.972839  3521 net.cpp:165] Memory required for data: 892305920
I0206 00:21:09.972842  3521 layer_factory.hpp:76] Creating layer block2_relu19
I0206 00:21:09.972846  3521 net.cpp:106] Creating Layer block2_relu19
I0206 00:21:09.972849  3521 net.cpp:454] block2_relu19 <- block2_conv17_BN_eltwise
I0206 00:21:09.972854  3521 net.cpp:411] block2_relu19 -> block2_relu19
I0206 00:21:09.973063  3521 net.cpp:150] Setting up block2_relu19
I0206 00:21:09.973073  3521 net.cpp:157] Top shape: 128 256 15 15 (7372800)
I0206 00:21:09.973075  3521 net.cpp:165] Memory required for data: 921797120
I0206 00:21:09.973078  3521 layer_factory.hpp:76] Creating layer block2_relu19_block2_relu19_0_split
I0206 00:21:09.973084  3521 net.cpp:106] Creating Layer block2_relu19_block2_relu19_0_split
I0206 00:21:09.973088  3521 net.cpp:454] block2_relu19_block2_relu19_0_split <- block2_relu19
I0206 00:21:09.973091  3521 net.cpp:411] block2_relu19_block2_relu19_0_split -> block2_relu19_block2_relu19_0_split_0
I0206 00:21:09.973098  3521 net.cpp:411] block2_relu19_block2_relu19_0_split -> block2_relu19_block2_relu19_0_split_1
I0206 00:21:09.973122  3521 net.cpp:150] Setting up block2_relu19_block2_relu19_0_split
I0206 00:21:09.973129  3521 net.cpp:157] Top shape: 128 256 15 15 (7372800)
I0206 00:21:09.973131  3521 net.cpp:157] Top shape: 128 256 15 15 (7372800)
I0206 00:21:09.973134  3521 net.cpp:165] Memory required for data: 980779520
I0206 00:21:09.973137  3521 layer_factory.hpp:76] Creating layer block2_conv21
I0206 00:21:09.973145  3521 net.cpp:106] Creating Layer block2_conv21
I0206 00:21:09.973147  3521 net.cpp:454] block2_conv21 <- block2_relu19_block2_relu19_0_split_0
I0206 00:21:09.973153  3521 net.cpp:411] block2_conv21 -> block2_conv21
I0206 00:21:09.973875  3521 net.cpp:150] Setting up block2_conv21
I0206 00:21:09.973884  3521 net.cpp:157] Top shape: 128 64 15 15 (1843200)
I0206 00:21:09.973887  3521 net.cpp:165] Memory required for data: 988152320
I0206 00:21:09.973893  3521 layer_factory.hpp:76] Creating layer block2_conv21_BN
I0206 00:21:09.973901  3521 net.cpp:106] Creating Layer block2_conv21_BN
I0206 00:21:09.973903  3521 net.cpp:454] block2_conv21_BN <- block2_conv21
I0206 00:21:09.973908  3521 net.cpp:411] block2_conv21_BN -> block2_conv21_BN
I0206 00:21:09.974046  3521 net.cpp:150] Setting up block2_conv21_BN
I0206 00:21:09.974052  3521 net.cpp:157] Top shape: 128 64 15 15 (1843200)
I0206 00:21:09.974056  3521 net.cpp:165] Memory required for data: 995525120
I0206 00:21:09.974061  3521 layer_factory.hpp:76] Creating layer block2_relu22
I0206 00:21:09.974069  3521 net.cpp:106] Creating Layer block2_relu22
I0206 00:21:09.974072  3521 net.cpp:454] block2_relu22 <- block2_conv21_BN
I0206 00:21:09.974077  3521 net.cpp:397] block2_relu22 -> block2_conv21_BN (in-place)
I0206 00:21:09.974205  3521 net.cpp:150] Setting up block2_relu22
I0206 00:21:09.974213  3521 net.cpp:157] Top shape: 128 64 15 15 (1843200)
I0206 00:21:09.974216  3521 net.cpp:165] Memory required for data: 1002897920
I0206 00:21:09.974220  3521 layer_factory.hpp:76] Creating layer block2_conv23
I0206 00:21:09.974227  3521 net.cpp:106] Creating Layer block2_conv23
I0206 00:21:09.974231  3521 net.cpp:454] block2_conv23 <- block2_conv21_BN
I0206 00:21:09.974236  3521 net.cpp:411] block2_conv23 -> block2_conv23
I0206 00:21:09.975219  3521 net.cpp:150] Setting up block2_conv23
I0206 00:21:09.975229  3521 net.cpp:157] Top shape: 128 64 15 15 (1843200)
I0206 00:21:09.975232  3521 net.cpp:165] Memory required for data: 1010270720
I0206 00:21:09.975239  3521 layer_factory.hpp:76] Creating layer block2_conv23_BN
I0206 00:21:09.975244  3521 net.cpp:106] Creating Layer block2_conv23_BN
I0206 00:21:09.975249  3521 net.cpp:454] block2_conv23_BN <- block2_conv23
I0206 00:21:09.975253  3521 net.cpp:411] block2_conv23_BN -> block2_conv23_BN
I0206 00:21:09.975447  3521 net.cpp:150] Setting up block2_conv23_BN
I0206 00:21:09.975453  3521 net.cpp:157] Top shape: 128 64 15 15 (1843200)
I0206 00:21:09.975456  3521 net.cpp:165] Memory required for data: 1017643520
I0206 00:21:09.975473  3521 layer_factory.hpp:76] Creating layer block2_relu24
I0206 00:21:09.975488  3521 net.cpp:106] Creating Layer block2_relu24
I0206 00:21:09.975492  3521 net.cpp:454] block2_relu24 <- block2_conv23_BN
I0206 00:21:09.975497  3521 net.cpp:397] block2_relu24 -> block2_conv23_BN (in-place)
I0206 00:21:09.975690  3521 net.cpp:150] Setting up block2_relu24
I0206 00:21:09.975699  3521 net.cpp:157] Top shape: 128 64 15 15 (1843200)
I0206 00:21:09.975703  3521 net.cpp:165] Memory required for data: 1025016320
I0206 00:21:09.975705  3521 layer_factory.hpp:76] Creating layer block2_conv25
I0206 00:21:09.975713  3521 net.cpp:106] Creating Layer block2_conv25
I0206 00:21:09.975716  3521 net.cpp:454] block2_conv25 <- block2_conv23_BN
I0206 00:21:09.975723  3521 net.cpp:411] block2_conv25 -> block2_conv25
I0206 00:21:09.976423  3521 net.cpp:150] Setting up block2_conv25
I0206 00:21:09.976434  3521 net.cpp:157] Top shape: 128 256 15 15 (7372800)
I0206 00:21:09.976438  3521 net.cpp:165] Memory required for data: 1054507520
I0206 00:21:09.976444  3521 layer_factory.hpp:76] Creating layer block2_conv25_BN
I0206 00:21:09.976449  3521 net.cpp:106] Creating Layer block2_conv25_BN
I0206 00:21:09.976452  3521 net.cpp:454] block2_conv25_BN <- block2_conv25
I0206 00:21:09.976457  3521 net.cpp:411] block2_conv25_BN -> block2_conv25_BN
I0206 00:21:09.976593  3521 net.cpp:150] Setting up block2_conv25_BN
I0206 00:21:09.976598  3521 net.cpp:157] Top shape: 128 256 15 15 (7372800)
I0206 00:21:09.976601  3521 net.cpp:165] Memory required for data: 1083998720
I0206 00:21:09.976618  3521 layer_factory.hpp:76] Creating layer block2_conv25_BN_eltwise
I0206 00:21:09.976625  3521 net.cpp:106] Creating Layer block2_conv25_BN_eltwise
I0206 00:21:09.976629  3521 net.cpp:454] block2_conv25_BN_eltwise <- block2_conv25_BN
I0206 00:21:09.976632  3521 net.cpp:454] block2_conv25_BN_eltwise <- block2_relu19_block2_relu19_0_split_1
I0206 00:21:09.976637  3521 net.cpp:411] block2_conv25_BN_eltwise -> block2_conv25_BN_eltwise
I0206 00:21:09.976650  3521 net.cpp:150] Setting up block2_conv25_BN_eltwise
I0206 00:21:09.976656  3521 net.cpp:157] Top shape: 128 256 15 15 (7372800)
I0206 00:21:09.976670  3521 net.cpp:165] Memory required for data: 1113489920
I0206 00:21:09.976672  3521 layer_factory.hpp:76] Creating layer block2_relu27
I0206 00:21:09.976676  3521 net.cpp:106] Creating Layer block2_relu27
I0206 00:21:09.976680  3521 net.cpp:454] block2_relu27 <- block2_conv25_BN_eltwise
I0206 00:21:09.976683  3521 net.cpp:411] block2_relu27 -> block2_relu27
I0206 00:21:09.977116  3521 net.cpp:150] Setting up block2_relu27
I0206 00:21:09.977136  3521 net.cpp:157] Top shape: 128 256 15 15 (7372800)
I0206 00:21:09.977139  3521 net.cpp:165] Memory required for data: 1142981120
I0206 00:21:09.977151  3521 layer_factory.hpp:76] Creating layer block3_conv29
I0206 00:21:09.977170  3521 net.cpp:106] Creating Layer block3_conv29
I0206 00:21:09.977174  3521 net.cpp:454] block3_conv29 <- block2_relu27
I0206 00:21:09.977190  3521 net.cpp:411] block3_conv29 -> block3_conv29
I0206 00:21:09.979260  3521 net.cpp:150] Setting up block3_conv29
I0206 00:21:09.979272  3521 net.cpp:157] Top shape: 128 512 8 8 (4194304)
I0206 00:21:09.979275  3521 net.cpp:165] Memory required for data: 1159758336
I0206 00:21:09.979281  3521 layer_factory.hpp:76] Creating layer block3_relu29
I0206 00:21:09.979287  3521 net.cpp:106] Creating Layer block3_relu29
I0206 00:21:09.979291  3521 net.cpp:454] block3_relu29 <- block3_conv29
I0206 00:21:09.979296  3521 net.cpp:397] block3_relu29 -> block3_conv29 (in-place)
I0206 00:21:09.979454  3521 net.cpp:150] Setting up block3_relu29
I0206 00:21:09.979461  3521 net.cpp:157] Top shape: 128 512 8 8 (4194304)
I0206 00:21:09.979465  3521 net.cpp:165] Memory required for data: 1176535552
I0206 00:21:09.979468  3521 layer_factory.hpp:76] Creating layer block3_conv29_block3_relu29_0_split
I0206 00:21:09.979475  3521 net.cpp:106] Creating Layer block3_conv29_block3_relu29_0_split
I0206 00:21:09.979477  3521 net.cpp:454] block3_conv29_block3_relu29_0_split <- block3_conv29
I0206 00:21:09.979481  3521 net.cpp:411] block3_conv29_block3_relu29_0_split -> block3_conv29_block3_relu29_0_split_0
I0206 00:21:09.979487  3521 net.cpp:411] block3_conv29_block3_relu29_0_split -> block3_conv29_block3_relu29_0_split_1
I0206 00:21:09.979516  3521 net.cpp:150] Setting up block3_conv29_block3_relu29_0_split
I0206 00:21:09.979522  3521 net.cpp:157] Top shape: 128 512 8 8 (4194304)
I0206 00:21:09.979526  3521 net.cpp:157] Top shape: 128 512 8 8 (4194304)
I0206 00:21:09.979528  3521 net.cpp:165] Memory required for data: 1210089984
I0206 00:21:09.979532  3521 layer_factory.hpp:76] Creating layer block3_conv30
I0206 00:21:09.979538  3521 net.cpp:106] Creating Layer block3_conv30
I0206 00:21:09.979542  3521 net.cpp:454] block3_conv30 <- block3_conv29_block3_relu29_0_split_0
I0206 00:21:09.979547  3521 net.cpp:411] block3_conv30 -> block3_conv30
I0206 00:21:09.980644  3521 net.cpp:150] Setting up block3_conv30
I0206 00:21:09.980654  3521 net.cpp:157] Top shape: 128 128 8 8 (1048576)
I0206 00:21:09.980657  3521 net.cpp:165] Memory required for data: 1214284288
I0206 00:21:09.980664  3521 layer_factory.hpp:76] Creating layer block3_conv30_BN
I0206 00:21:09.980670  3521 net.cpp:106] Creating Layer block3_conv30_BN
I0206 00:21:09.980675  3521 net.cpp:454] block3_conv30_BN <- block3_conv30
I0206 00:21:09.980680  3521 net.cpp:411] block3_conv30_BN -> block3_conv30_BN
I0206 00:21:09.980815  3521 net.cpp:150] Setting up block3_conv30_BN
I0206 00:21:09.980821  3521 net.cpp:157] Top shape: 128 128 8 8 (1048576)
I0206 00:21:09.980824  3521 net.cpp:165] Memory required for data: 1218478592
I0206 00:21:09.980830  3521 layer_factory.hpp:76] Creating layer block3_relu31
I0206 00:21:09.980835  3521 net.cpp:106] Creating Layer block3_relu31
I0206 00:21:09.980839  3521 net.cpp:454] block3_relu31 <- block3_conv30_BN
I0206 00:21:09.980842  3521 net.cpp:397] block3_relu31 -> block3_conv30_BN (in-place)
I0206 00:21:09.981045  3521 net.cpp:150] Setting up block3_relu31
I0206 00:21:09.981055  3521 net.cpp:157] Top shape: 128 128 8 8 (1048576)
I0206 00:21:09.981057  3521 net.cpp:165] Memory required for data: 1222672896
I0206 00:21:09.981060  3521 layer_factory.hpp:76] Creating layer block3_conv32
I0206 00:21:09.981068  3521 net.cpp:106] Creating Layer block3_conv32
I0206 00:21:09.981071  3521 net.cpp:454] block3_conv32 <- block3_conv30_BN
I0206 00:21:09.981077  3521 net.cpp:411] block3_conv32 -> block3_conv32
I0206 00:21:09.982548  3521 net.cpp:150] Setting up block3_conv32
I0206 00:21:09.982559  3521 net.cpp:157] Top shape: 128 128 8 8 (1048576)
I0206 00:21:09.982563  3521 net.cpp:165] Memory required for data: 1226867200
I0206 00:21:09.982568  3521 layer_factory.hpp:76] Creating layer block3_conv32_BN
I0206 00:21:09.982574  3521 net.cpp:106] Creating Layer block3_conv32_BN
I0206 00:21:09.982588  3521 net.cpp:454] block3_conv32_BN <- block3_conv32
I0206 00:21:09.982594  3521 net.cpp:411] block3_conv32_BN -> block3_conv32_BN
I0206 00:21:09.982733  3521 net.cpp:150] Setting up block3_conv32_BN
I0206 00:21:09.982739  3521 net.cpp:157] Top shape: 128 128 8 8 (1048576)
I0206 00:21:09.982743  3521 net.cpp:165] Memory required for data: 1231061504
I0206 00:21:09.982748  3521 layer_factory.hpp:76] Creating layer block3_relu33
I0206 00:21:09.982753  3521 net.cpp:106] Creating Layer block3_relu33
I0206 00:21:09.982758  3521 net.cpp:454] block3_relu33 <- block3_conv32_BN
I0206 00:21:09.982761  3521 net.cpp:397] block3_relu33 -> block3_conv32_BN (in-place)
I0206 00:21:09.982962  3521 net.cpp:150] Setting up block3_relu33
I0206 00:21:09.982971  3521 net.cpp:157] Top shape: 128 128 8 8 (1048576)
I0206 00:21:09.982975  3521 net.cpp:165] Memory required for data: 1235255808
I0206 00:21:09.982978  3521 layer_factory.hpp:76] Creating layer block3_conv34
I0206 00:21:09.982985  3521 net.cpp:106] Creating Layer block3_conv34
I0206 00:21:09.982988  3521 net.cpp:454] block3_conv34 <- block3_conv32_BN
I0206 00:21:09.982995  3521 net.cpp:411] block3_conv34 -> block3_conv34
I0206 00:21:09.984010  3521 net.cpp:150] Setting up block3_conv34
I0206 00:21:09.984020  3521 net.cpp:157] Top shape: 128 512 8 8 (4194304)
I0206 00:21:09.984024  3521 net.cpp:165] Memory required for data: 1252033024
I0206 00:21:09.984038  3521 layer_factory.hpp:76] Creating layer block3_conv34_BN
I0206 00:21:09.984045  3521 net.cpp:106] Creating Layer block3_conv34_BN
I0206 00:21:09.984048  3521 net.cpp:454] block3_conv34_BN <- block3_conv34
I0206 00:21:09.984053  3521 net.cpp:411] block3_conv34_BN -> block3_conv34_BN
I0206 00:21:09.984191  3521 net.cpp:150] Setting up block3_conv34_BN
I0206 00:21:09.984197  3521 net.cpp:157] Top shape: 128 512 8 8 (4194304)
I0206 00:21:09.984200  3521 net.cpp:165] Memory required for data: 1268810240
I0206 00:21:09.984205  3521 layer_factory.hpp:76] Creating layer block3_conv34_BN_eltwise
I0206 00:21:09.984211  3521 net.cpp:106] Creating Layer block3_conv34_BN_eltwise
I0206 00:21:09.984215  3521 net.cpp:454] block3_conv34_BN_eltwise <- block3_conv34_BN
I0206 00:21:09.984218  3521 net.cpp:454] block3_conv34_BN_eltwise <- block3_conv29_block3_relu29_0_split_1
I0206 00:21:09.984222  3521 net.cpp:411] block3_conv34_BN_eltwise -> block3_conv34_BN_eltwise
I0206 00:21:09.984236  3521 net.cpp:150] Setting up block3_conv34_BN_eltwise
I0206 00:21:09.984241  3521 net.cpp:157] Top shape: 128 512 8 8 (4194304)
I0206 00:21:09.984244  3521 net.cpp:165] Memory required for data: 1285587456
I0206 00:21:09.984247  3521 layer_factory.hpp:76] Creating layer block3_relu36
I0206 00:21:09.984252  3521 net.cpp:106] Creating Layer block3_relu36
I0206 00:21:09.984256  3521 net.cpp:454] block3_relu36 <- block3_conv34_BN_eltwise
I0206 00:21:09.984261  3521 net.cpp:411] block3_relu36 -> block3_relu36
I0206 00:21:09.984387  3521 net.cpp:150] Setting up block3_relu36
I0206 00:21:09.984395  3521 net.cpp:157] Top shape: 128 512 8 8 (4194304)
I0206 00:21:09.984398  3521 net.cpp:165] Memory required for data: 1302364672
I0206 00:21:09.984401  3521 layer_factory.hpp:76] Creating layer block3_relu36_block3_relu36_0_split
I0206 00:21:09.984408  3521 net.cpp:106] Creating Layer block3_relu36_block3_relu36_0_split
I0206 00:21:09.984413  3521 net.cpp:454] block3_relu36_block3_relu36_0_split <- block3_relu36
I0206 00:21:09.984417  3521 net.cpp:411] block3_relu36_block3_relu36_0_split -> block3_relu36_block3_relu36_0_split_0
I0206 00:21:09.984422  3521 net.cpp:411] block3_relu36_block3_relu36_0_split -> block3_relu36_block3_relu36_0_split_1
I0206 00:21:09.984452  3521 net.cpp:150] Setting up block3_relu36_block3_relu36_0_split
I0206 00:21:09.984457  3521 net.cpp:157] Top shape: 128 512 8 8 (4194304)
I0206 00:21:09.984460  3521 net.cpp:157] Top shape: 128 512 8 8 (4194304)
I0206 00:21:09.984462  3521 net.cpp:165] Memory required for data: 1335919104
I0206 00:21:09.984465  3521 layer_factory.hpp:76] Creating layer block3_conv38
I0206 00:21:09.984479  3521 net.cpp:106] Creating Layer block3_conv38
I0206 00:21:09.984484  3521 net.cpp:454] block3_conv38 <- block3_relu36_block3_relu36_0_split_0
I0206 00:21:09.984490  3521 net.cpp:411] block3_conv38 -> block3_conv38
I0206 00:21:09.985780  3521 net.cpp:150] Setting up block3_conv38
I0206 00:21:09.985790  3521 net.cpp:157] Top shape: 128 128 8 8 (1048576)
I0206 00:21:09.985792  3521 net.cpp:165] Memory required for data: 1340113408
I0206 00:21:09.985798  3521 layer_factory.hpp:76] Creating layer block3_conv38_BN
I0206 00:21:09.985805  3521 net.cpp:106] Creating Layer block3_conv38_BN
I0206 00:21:09.985810  3521 net.cpp:454] block3_conv38_BN <- block3_conv38
I0206 00:21:09.985815  3521 net.cpp:411] block3_conv38_BN -> block3_conv38_BN
I0206 00:21:09.985951  3521 net.cpp:150] Setting up block3_conv38_BN
I0206 00:21:09.985960  3521 net.cpp:157] Top shape: 128 128 8 8 (1048576)
I0206 00:21:09.985965  3521 net.cpp:165] Memory required for data: 1344307712
I0206 00:21:09.985970  3521 layer_factory.hpp:76] Creating layer block3_relu39
I0206 00:21:09.985975  3521 net.cpp:106] Creating Layer block3_relu39
I0206 00:21:09.985978  3521 net.cpp:454] block3_relu39 <- block3_conv38_BN
I0206 00:21:09.985982  3521 net.cpp:397] block3_relu39 -> block3_conv38_BN (in-place)
I0206 00:21:09.986186  3521 net.cpp:150] Setting up block3_relu39
I0206 00:21:09.986194  3521 net.cpp:157] Top shape: 128 128 8 8 (1048576)
I0206 00:21:09.986197  3521 net.cpp:165] Memory required for data: 1348502016
I0206 00:21:09.986201  3521 layer_factory.hpp:76] Creating layer block3_conv40
I0206 00:21:09.986209  3521 net.cpp:106] Creating Layer block3_conv40
I0206 00:21:09.986214  3521 net.cpp:454] block3_conv40 <- block3_conv38_BN
I0206 00:21:09.986220  3521 net.cpp:411] block3_conv40 -> block3_conv40
I0206 00:21:09.987709  3521 net.cpp:150] Setting up block3_conv40
I0206 00:21:09.987718  3521 net.cpp:157] Top shape: 128 128 8 8 (1048576)
I0206 00:21:09.987722  3521 net.cpp:165] Memory required for data: 1352696320
I0206 00:21:09.987727  3521 layer_factory.hpp:76] Creating layer block3_conv40_BN
I0206 00:21:09.987735  3521 net.cpp:106] Creating Layer block3_conv40_BN
I0206 00:21:09.987740  3521 net.cpp:454] block3_conv40_BN <- block3_conv40
I0206 00:21:09.987745  3521 net.cpp:411] block3_conv40_BN -> block3_conv40_BN
I0206 00:21:09.987881  3521 net.cpp:150] Setting up block3_conv40_BN
I0206 00:21:09.987887  3521 net.cpp:157] Top shape: 128 128 8 8 (1048576)
I0206 00:21:09.987890  3521 net.cpp:165] Memory required for data: 1356890624
I0206 00:21:09.987896  3521 layer_factory.hpp:76] Creating layer block3_relu41
I0206 00:21:09.987901  3521 net.cpp:106] Creating Layer block3_relu41
I0206 00:21:09.987905  3521 net.cpp:454] block3_relu41 <- block3_conv40_BN
I0206 00:21:09.987908  3521 net.cpp:397] block3_relu41 -> block3_conv40_BN (in-place)
I0206 00:21:09.988111  3521 net.cpp:150] Setting up block3_relu41
I0206 00:21:09.988119  3521 net.cpp:157] Top shape: 128 128 8 8 (1048576)
I0206 00:21:09.988122  3521 net.cpp:165] Memory required for data: 1361084928
I0206 00:21:09.988126  3521 layer_factory.hpp:76] Creating layer block3_conv42
I0206 00:21:09.988133  3521 net.cpp:106] Creating Layer block3_conv42
I0206 00:21:09.988137  3521 net.cpp:454] block3_conv42 <- block3_conv40_BN
I0206 00:21:09.988142  3521 net.cpp:411] block3_conv42 -> block3_conv42
I0206 00:21:09.989096  3521 net.cpp:150] Setting up block3_conv42
I0206 00:21:09.989106  3521 net.cpp:157] Top shape: 128 512 8 8 (4194304)
I0206 00:21:09.989109  3521 net.cpp:165] Memory required for data: 1377862144
I0206 00:21:09.989114  3521 layer_factory.hpp:76] Creating layer block3_conv42_BN
I0206 00:21:09.989121  3521 net.cpp:106] Creating Layer block3_conv42_BN
I0206 00:21:09.989126  3521 net.cpp:454] block3_conv42_BN <- block3_conv42
I0206 00:21:09.989131  3521 net.cpp:411] block3_conv42_BN -> block3_conv42_BN
I0206 00:21:09.989270  3521 net.cpp:150] Setting up block3_conv42_BN
I0206 00:21:09.989276  3521 net.cpp:157] Top shape: 128 512 8 8 (4194304)
I0206 00:21:09.989279  3521 net.cpp:165] Memory required for data: 1394639360
I0206 00:21:09.989295  3521 layer_factory.hpp:76] Creating layer block3_conv42_BN_eltwise
I0206 00:21:09.989300  3521 net.cpp:106] Creating Layer block3_conv42_BN_eltwise
I0206 00:21:09.989305  3521 net.cpp:454] block3_conv42_BN_eltwise <- block3_conv42_BN
I0206 00:21:09.989308  3521 net.cpp:454] block3_conv42_BN_eltwise <- block3_relu36_block3_relu36_0_split_1
I0206 00:21:09.989312  3521 net.cpp:411] block3_conv42_BN_eltwise -> block3_conv42_BN_eltwise
I0206 00:21:09.989330  3521 net.cpp:150] Setting up block3_conv42_BN_eltwise
I0206 00:21:09.989334  3521 net.cpp:157] Top shape: 128 512 8 8 (4194304)
I0206 00:21:09.989337  3521 net.cpp:165] Memory required for data: 1411416576
I0206 00:21:09.989341  3521 layer_factory.hpp:76] Creating layer block3_relu44
I0206 00:21:09.989346  3521 net.cpp:106] Creating Layer block3_relu44
I0206 00:21:09.989348  3521 net.cpp:454] block3_relu44 <- block3_conv42_BN_eltwise
I0206 00:21:09.989353  3521 net.cpp:411] block3_relu44 -> block3_relu44
I0206 00:21:09.989498  3521 net.cpp:150] Setting up block3_relu44
I0206 00:21:09.989506  3521 net.cpp:157] Top shape: 128 512 8 8 (4194304)
I0206 00:21:09.989508  3521 net.cpp:165] Memory required for data: 1428193792
I0206 00:21:09.989512  3521 layer_factory.hpp:76] Creating layer block3_relu44_block3_relu44_0_split
I0206 00:21:09.989522  3521 net.cpp:106] Creating Layer block3_relu44_block3_relu44_0_split
I0206 00:21:09.989526  3521 net.cpp:454] block3_relu44_block3_relu44_0_split <- block3_relu44
I0206 00:21:09.989532  3521 net.cpp:411] block3_relu44_block3_relu44_0_split -> block3_relu44_block3_relu44_0_split_0
I0206 00:21:09.989537  3521 net.cpp:411] block3_relu44_block3_relu44_0_split -> block3_relu44_block3_relu44_0_split_1
I0206 00:21:09.989564  3521 net.cpp:150] Setting up block3_relu44_block3_relu44_0_split
I0206 00:21:09.989570  3521 net.cpp:157] Top shape: 128 512 8 8 (4194304)
I0206 00:21:09.989573  3521 net.cpp:157] Top shape: 128 512 8 8 (4194304)
I0206 00:21:09.989576  3521 net.cpp:165] Memory required for data: 1461748224
I0206 00:21:09.989580  3521 layer_factory.hpp:76] Creating layer block3_conv46
I0206 00:21:09.989588  3521 net.cpp:106] Creating Layer block3_conv46
I0206 00:21:09.989593  3521 net.cpp:454] block3_conv46 <- block3_relu44_block3_relu44_0_split_0
I0206 00:21:09.989598  3521 net.cpp:411] block3_conv46 -> block3_conv46
I0206 00:21:09.990715  3521 net.cpp:150] Setting up block3_conv46
I0206 00:21:09.990726  3521 net.cpp:157] Top shape: 128 128 8 8 (1048576)
I0206 00:21:09.990731  3521 net.cpp:165] Memory required for data: 1465942528
I0206 00:21:09.990736  3521 layer_factory.hpp:76] Creating layer block3_conv46_BN
I0206 00:21:09.990753  3521 net.cpp:106] Creating Layer block3_conv46_BN
I0206 00:21:09.990758  3521 net.cpp:454] block3_conv46_BN <- block3_conv46
I0206 00:21:09.990764  3521 net.cpp:411] block3_conv46_BN -> block3_conv46_BN
I0206 00:21:09.990939  3521 net.cpp:150] Setting up block3_conv46_BN
I0206 00:21:09.990945  3521 net.cpp:157] Top shape: 128 128 8 8 (1048576)
I0206 00:21:09.990948  3521 net.cpp:165] Memory required for data: 1470136832
I0206 00:21:09.990954  3521 layer_factory.hpp:76] Creating layer block3_relu47
I0206 00:21:09.990959  3521 net.cpp:106] Creating Layer block3_relu47
I0206 00:21:09.990962  3521 net.cpp:454] block3_relu47 <- block3_conv46_BN
I0206 00:21:09.990967  3521 net.cpp:397] block3_relu47 -> block3_conv46_BN (in-place)
I0206 00:21:09.991194  3521 net.cpp:150] Setting up block3_relu47
I0206 00:21:09.991214  3521 net.cpp:157] Top shape: 128 128 8 8 (1048576)
I0206 00:21:09.991217  3521 net.cpp:165] Memory required for data: 1474331136
I0206 00:21:09.991220  3521 layer_factory.hpp:76] Creating layer block3_conv48
I0206 00:21:09.991228  3521 net.cpp:106] Creating Layer block3_conv48
I0206 00:21:09.991231  3521 net.cpp:454] block3_conv48 <- block3_conv46_BN
I0206 00:21:09.991237  3521 net.cpp:411] block3_conv48 -> block3_conv48
I0206 00:21:09.992795  3521 net.cpp:150] Setting up block3_conv48
I0206 00:21:09.992805  3521 net.cpp:157] Top shape: 128 128 8 8 (1048576)
I0206 00:21:09.992817  3521 net.cpp:165] Memory required for data: 1478525440
I0206 00:21:09.992823  3521 layer_factory.hpp:76] Creating layer block3_conv48_BN
I0206 00:21:09.992830  3521 net.cpp:106] Creating Layer block3_conv48_BN
I0206 00:21:09.992835  3521 net.cpp:454] block3_conv48_BN <- block3_conv48
I0206 00:21:09.992840  3521 net.cpp:411] block3_conv48_BN -> block3_conv48_BN
I0206 00:21:09.992986  3521 net.cpp:150] Setting up block3_conv48_BN
I0206 00:21:09.992992  3521 net.cpp:157] Top shape: 128 128 8 8 (1048576)
I0206 00:21:09.992995  3521 net.cpp:165] Memory required for data: 1482719744
I0206 00:21:09.993001  3521 layer_factory.hpp:76] Creating layer block3_relu49
I0206 00:21:09.993006  3521 net.cpp:106] Creating Layer block3_relu49
I0206 00:21:09.993010  3521 net.cpp:454] block3_relu49 <- block3_conv48_BN
I0206 00:21:09.993015  3521 net.cpp:397] block3_relu49 -> block3_conv48_BN (in-place)
I0206 00:21:09.993216  3521 net.cpp:150] Setting up block3_relu49
I0206 00:21:09.993224  3521 net.cpp:157] Top shape: 128 128 8 8 (1048576)
I0206 00:21:09.993227  3521 net.cpp:165] Memory required for data: 1486914048
I0206 00:21:09.993232  3521 layer_factory.hpp:76] Creating layer block3_conv50
I0206 00:21:09.993238  3521 net.cpp:106] Creating Layer block3_conv50
I0206 00:21:09.993242  3521 net.cpp:454] block3_conv50 <- block3_conv48_BN
I0206 00:21:09.993248  3521 net.cpp:411] block3_conv50 -> block3_conv50
I0206 00:21:09.994547  3521 net.cpp:150] Setting up block3_conv50
I0206 00:21:09.994559  3521 net.cpp:157] Top shape: 128 512 8 8 (4194304)
I0206 00:21:09.994561  3521 net.cpp:165] Memory required for data: 1503691264
I0206 00:21:09.994567  3521 layer_factory.hpp:76] Creating layer block3_conv50_BN
I0206 00:21:09.994575  3521 net.cpp:106] Creating Layer block3_conv50_BN
I0206 00:21:09.994577  3521 net.cpp:454] block3_conv50_BN <- block3_conv50
I0206 00:21:09.994583  3521 net.cpp:411] block3_conv50_BN -> block3_conv50_BN
I0206 00:21:09.994854  3521 net.cpp:150] Setting up block3_conv50_BN
I0206 00:21:09.994863  3521 net.cpp:157] Top shape: 128 512 8 8 (4194304)
I0206 00:21:09.994866  3521 net.cpp:165] Memory required for data: 1520468480
I0206 00:21:09.994874  3521 layer_factory.hpp:76] Creating layer block3_conv50_BN_eltwise
I0206 00:21:09.994879  3521 net.cpp:106] Creating Layer block3_conv50_BN_eltwise
I0206 00:21:09.994882  3521 net.cpp:454] block3_conv50_BN_eltwise <- block3_conv50_BN
I0206 00:21:09.994886  3521 net.cpp:454] block3_conv50_BN_eltwise <- block3_relu44_block3_relu44_0_split_1
I0206 00:21:09.994890  3521 net.cpp:411] block3_conv50_BN_eltwise -> block3_conv50_BN_eltwise
I0206 00:21:09.994907  3521 net.cpp:150] Setting up block3_conv50_BN_eltwise
I0206 00:21:09.994912  3521 net.cpp:157] Top shape: 128 512 8 8 (4194304)
I0206 00:21:09.994915  3521 net.cpp:165] Memory required for data: 1537245696
I0206 00:21:09.994918  3521 layer_factory.hpp:76] Creating layer block3_relu52
I0206 00:21:09.994922  3521 net.cpp:106] Creating Layer block3_relu52
I0206 00:21:09.994926  3521 net.cpp:454] block3_relu52 <- block3_conv50_BN_eltwise
I0206 00:21:09.994931  3521 net.cpp:411] block3_relu52 -> block3_relu52
I0206 00:21:09.995177  3521 net.cpp:150] Setting up block3_relu52
I0206 00:21:09.995187  3521 net.cpp:157] Top shape: 128 512 8 8 (4194304)
I0206 00:21:09.995190  3521 net.cpp:165] Memory required for data: 1554022912
I0206 00:21:09.995195  3521 layer_factory.hpp:76] Creating layer block3_relu52_block3_relu52_0_split
I0206 00:21:09.995213  3521 net.cpp:106] Creating Layer block3_relu52_block3_relu52_0_split
I0206 00:21:09.995218  3521 net.cpp:454] block3_relu52_block3_relu52_0_split <- block3_relu52
I0206 00:21:09.995225  3521 net.cpp:411] block3_relu52_block3_relu52_0_split -> block3_relu52_block3_relu52_0_split_0
I0206 00:21:09.995264  3521 net.cpp:411] block3_relu52_block3_relu52_0_split -> block3_relu52_block3_relu52_0_split_1
I0206 00:21:09.995333  3521 net.cpp:150] Setting up block3_relu52_block3_relu52_0_split
I0206 00:21:09.995339  3521 net.cpp:157] Top shape: 128 512 8 8 (4194304)
I0206 00:21:09.995365  3521 net.cpp:157] Top shape: 128 512 8 8 (4194304)
I0206 00:21:09.995373  3521 net.cpp:165] Memory required for data: 1587577344
I0206 00:21:09.995378  3521 layer_factory.hpp:76] Creating layer block3_conv54
I0206 00:21:09.995389  3521 net.cpp:106] Creating Layer block3_conv54
I0206 00:21:09.995393  3521 net.cpp:454] block3_conv54 <- block3_relu52_block3_relu52_0_split_0
I0206 00:21:09.995400  3521 net.cpp:411] block3_conv54 -> block3_conv54
I0206 00:21:09.996714  3521 net.cpp:150] Setting up block3_conv54
I0206 00:21:09.996726  3521 net.cpp:157] Top shape: 128 128 8 8 (1048576)
I0206 00:21:09.996728  3521 net.cpp:165] Memory required for data: 1591771648
I0206 00:21:09.996734  3521 layer_factory.hpp:76] Creating layer block3_conv54_BN
I0206 00:21:09.996742  3521 net.cpp:106] Creating Layer block3_conv54_BN
I0206 00:21:09.996747  3521 net.cpp:454] block3_conv54_BN <- block3_conv54
I0206 00:21:09.996752  3521 net.cpp:411] block3_conv54_BN -> block3_conv54_BN
I0206 00:21:09.996904  3521 net.cpp:150] Setting up block3_conv54_BN
I0206 00:21:09.996912  3521 net.cpp:157] Top shape: 128 128 8 8 (1048576)
I0206 00:21:09.996914  3521 net.cpp:165] Memory required for data: 1595965952
I0206 00:21:09.996920  3521 layer_factory.hpp:76] Creating layer block3_relu55
I0206 00:21:09.996925  3521 net.cpp:106] Creating Layer block3_relu55
I0206 00:21:09.996928  3521 net.cpp:454] block3_relu55 <- block3_conv54_BN
I0206 00:21:09.996932  3521 net.cpp:397] block3_relu55 -> block3_conv54_BN (in-place)
I0206 00:21:09.997141  3521 net.cpp:150] Setting up block3_relu55
I0206 00:21:09.997151  3521 net.cpp:157] Top shape: 128 128 8 8 (1048576)
I0206 00:21:09.997155  3521 net.cpp:165] Memory required for data: 1600160256
I0206 00:21:09.997159  3521 layer_factory.hpp:76] Creating layer block3_conv56
I0206 00:21:09.997166  3521 net.cpp:106] Creating Layer block3_conv56
I0206 00:21:09.997170  3521 net.cpp:454] block3_conv56 <- block3_conv54_BN
I0206 00:21:09.997175  3521 net.cpp:411] block3_conv56 -> block3_conv56
I0206 00:21:09.998742  3521 net.cpp:150] Setting up block3_conv56
I0206 00:21:09.998754  3521 net.cpp:157] Top shape: 128 128 8 8 (1048576)
I0206 00:21:09.998756  3521 net.cpp:165] Memory required for data: 1604354560
I0206 00:21:09.998762  3521 layer_factory.hpp:76] Creating layer block3_conv56_BN
I0206 00:21:09.998769  3521 net.cpp:106] Creating Layer block3_conv56_BN
I0206 00:21:09.998775  3521 net.cpp:454] block3_conv56_BN <- block3_conv56
I0206 00:21:09.998780  3521 net.cpp:411] block3_conv56_BN -> block3_conv56_BN
I0206 00:21:09.998929  3521 net.cpp:150] Setting up block3_conv56_BN
I0206 00:21:09.998934  3521 net.cpp:157] Top shape: 128 128 8 8 (1048576)
I0206 00:21:09.998937  3521 net.cpp:165] Memory required for data: 1608548864
I0206 00:21:09.998944  3521 layer_factory.hpp:76] Creating layer block3_relu57
I0206 00:21:09.998949  3521 net.cpp:106] Creating Layer block3_relu57
I0206 00:21:09.998951  3521 net.cpp:454] block3_relu57 <- block3_conv56_BN
I0206 00:21:09.998955  3521 net.cpp:397] block3_relu57 -> block3_conv56_BN (in-place)
I0206 00:21:09.999162  3521 net.cpp:150] Setting up block3_relu57
I0206 00:21:09.999172  3521 net.cpp:157] Top shape: 128 128 8 8 (1048576)
I0206 00:21:09.999176  3521 net.cpp:165] Memory required for data: 1612743168
I0206 00:21:09.999178  3521 layer_factory.hpp:76] Creating layer block3_conv58
I0206 00:21:09.999186  3521 net.cpp:106] Creating Layer block3_conv58
I0206 00:21:09.999189  3521 net.cpp:454] block3_conv58 <- block3_conv56_BN
I0206 00:21:09.999196  3521 net.cpp:411] block3_conv58 -> block3_conv58
I0206 00:21:10.000262  3521 net.cpp:150] Setting up block3_conv58
I0206 00:21:10.000272  3521 net.cpp:157] Top shape: 128 512 8 8 (4194304)
I0206 00:21:10.000277  3521 net.cpp:165] Memory required for data: 1629520384
I0206 00:21:10.000283  3521 layer_factory.hpp:76] Creating layer block3_conv58_BN
I0206 00:21:10.000289  3521 net.cpp:106] Creating Layer block3_conv58_BN
I0206 00:21:10.000293  3521 net.cpp:454] block3_conv58_BN <- block3_conv58
I0206 00:21:10.000300  3521 net.cpp:411] block3_conv58_BN -> block3_conv58_BN
I0206 00:21:10.000463  3521 net.cpp:150] Setting up block3_conv58_BN
I0206 00:21:10.000469  3521 net.cpp:157] Top shape: 128 512 8 8 (4194304)
I0206 00:21:10.000473  3521 net.cpp:165] Memory required for data: 1646297600
I0206 00:21:10.000478  3521 layer_factory.hpp:76] Creating layer block3_conv58_BN_eltwise
I0206 00:21:10.000484  3521 net.cpp:106] Creating Layer block3_conv58_BN_eltwise
I0206 00:21:10.000488  3521 net.cpp:454] block3_conv58_BN_eltwise <- block3_conv58_BN
I0206 00:21:10.000493  3521 net.cpp:454] block3_conv58_BN_eltwise <- block3_relu52_block3_relu52_0_split_1
I0206 00:21:10.000497  3521 net.cpp:411] block3_conv58_BN_eltwise -> block3_conv58_BN_eltwise
I0206 00:21:10.000514  3521 net.cpp:150] Setting up block3_conv58_BN_eltwise
I0206 00:21:10.000519  3521 net.cpp:157] Top shape: 128 512 8 8 (4194304)
I0206 00:21:10.000521  3521 net.cpp:165] Memory required for data: 1663074816
I0206 00:21:10.000524  3521 layer_factory.hpp:76] Creating layer block3_relu60
I0206 00:21:10.000530  3521 net.cpp:106] Creating Layer block3_relu60
I0206 00:21:10.000532  3521 net.cpp:454] block3_relu60 <- block3_conv58_BN_eltwise
I0206 00:21:10.000536  3521 net.cpp:411] block3_relu60 -> block3_relu60
I0206 00:21:10.000675  3521 net.cpp:150] Setting up block3_relu60
I0206 00:21:10.000684  3521 net.cpp:157] Top shape: 128 512 8 8 (4194304)
I0206 00:21:10.000686  3521 net.cpp:165] Memory required for data: 1679852032
I0206 00:21:10.000689  3521 layer_factory.hpp:76] Creating layer block4_conv62
I0206 00:21:10.000696  3521 net.cpp:106] Creating Layer block4_conv62
I0206 00:21:10.000701  3521 net.cpp:454] block4_conv62 <- block3_relu60
I0206 00:21:10.000706  3521 net.cpp:411] block4_conv62 -> block4_conv62
I0206 00:21:10.004201  3521 net.cpp:150] Setting up block4_conv62
I0206 00:21:10.004212  3521 net.cpp:157] Top shape: 128 1024 4 4 (2097152)
I0206 00:21:10.004216  3521 net.cpp:165] Memory required for data: 1688240640
I0206 00:21:10.004221  3521 layer_factory.hpp:76] Creating layer block4_relu62
I0206 00:21:10.004227  3521 net.cpp:106] Creating Layer block4_relu62
I0206 00:21:10.004230  3521 net.cpp:454] block4_relu62 <- block4_conv62
I0206 00:21:10.004236  3521 net.cpp:397] block4_relu62 -> block4_conv62 (in-place)
I0206 00:21:10.004441  3521 net.cpp:150] Setting up block4_relu62
I0206 00:21:10.004451  3521 net.cpp:157] Top shape: 128 1024 4 4 (2097152)
I0206 00:21:10.004454  3521 net.cpp:165] Memory required for data: 1696629248
I0206 00:21:10.004457  3521 layer_factory.hpp:76] Creating layer block4_conv62_block4_relu62_0_split
I0206 00:21:10.004462  3521 net.cpp:106] Creating Layer block4_conv62_block4_relu62_0_split
I0206 00:21:10.004465  3521 net.cpp:454] block4_conv62_block4_relu62_0_split <- block4_conv62
I0206 00:21:10.004472  3521 net.cpp:411] block4_conv62_block4_relu62_0_split -> block4_conv62_block4_relu62_0_split_0
I0206 00:21:10.004477  3521 net.cpp:411] block4_conv62_block4_relu62_0_split -> block4_conv62_block4_relu62_0_split_1
I0206 00:21:10.004510  3521 net.cpp:150] Setting up block4_conv62_block4_relu62_0_split
I0206 00:21:10.004516  3521 net.cpp:157] Top shape: 128 1024 4 4 (2097152)
I0206 00:21:10.004519  3521 net.cpp:157] Top shape: 128 1024 4 4 (2097152)
I0206 00:21:10.004523  3521 net.cpp:165] Memory required for data: 1713406464
I0206 00:21:10.004525  3521 layer_factory.hpp:76] Creating layer block4_conv63
I0206 00:21:10.004534  3521 net.cpp:106] Creating Layer block4_conv63
I0206 00:21:10.004537  3521 net.cpp:454] block4_conv63 <- block4_conv62_block4_relu62_0_split_0
I0206 00:21:10.004542  3521 net.cpp:411] block4_conv63 -> block4_conv63
I0206 00:21:10.006672  3521 net.cpp:150] Setting up block4_conv63
I0206 00:21:10.006683  3521 net.cpp:157] Top shape: 128 256 4 4 (524288)
I0206 00:21:10.006686  3521 net.cpp:165] Memory required for data: 1715503616
I0206 00:21:10.006692  3521 layer_factory.hpp:76] Creating layer block4_conv63_BN
I0206 00:21:10.006700  3521 net.cpp:106] Creating Layer block4_conv63_BN
I0206 00:21:10.006705  3521 net.cpp:454] block4_conv63_BN <- block4_conv63
I0206 00:21:10.006721  3521 net.cpp:411] block4_conv63_BN -> block4_conv63_BN
I0206 00:21:10.006880  3521 net.cpp:150] Setting up block4_conv63_BN
I0206 00:21:10.006886  3521 net.cpp:157] Top shape: 128 256 4 4 (524288)
I0206 00:21:10.006889  3521 net.cpp:165] Memory required for data: 1717600768
I0206 00:21:10.006896  3521 layer_factory.hpp:76] Creating layer block4_relu64
I0206 00:21:10.006901  3521 net.cpp:106] Creating Layer block4_relu64
I0206 00:21:10.006904  3521 net.cpp:454] block4_relu64 <- block4_conv63_BN
I0206 00:21:10.006908  3521 net.cpp:397] block4_relu64 -> block4_conv63_BN (in-place)
I0206 00:21:10.007122  3521 net.cpp:150] Setting up block4_relu64
I0206 00:21:10.007132  3521 net.cpp:157] Top shape: 128 256 4 4 (524288)
I0206 00:21:10.007134  3521 net.cpp:165] Memory required for data: 1719697920
I0206 00:21:10.007138  3521 layer_factory.hpp:76] Creating layer block4_conv65
I0206 00:21:10.007144  3521 net.cpp:106] Creating Layer block4_conv65
I0206 00:21:10.007148  3521 net.cpp:454] block4_conv65 <- block4_conv63_BN
I0206 00:21:10.007154  3521 net.cpp:411] block4_conv65 -> block4_conv65
I0206 00:21:10.010917  3521 net.cpp:150] Setting up block4_conv65
I0206 00:21:10.010929  3521 net.cpp:157] Top shape: 128 256 4 4 (524288)
I0206 00:21:10.010932  3521 net.cpp:165] Memory required for data: 1721795072
I0206 00:21:10.010938  3521 layer_factory.hpp:76] Creating layer block4_conv65_BN
I0206 00:21:10.010944  3521 net.cpp:106] Creating Layer block4_conv65_BN
I0206 00:21:10.010948  3521 net.cpp:454] block4_conv65_BN <- block4_conv65
I0206 00:21:10.010954  3521 net.cpp:411] block4_conv65_BN -> block4_conv65_BN
I0206 00:21:10.011111  3521 net.cpp:150] Setting up block4_conv65_BN
I0206 00:21:10.011117  3521 net.cpp:157] Top shape: 128 256 4 4 (524288)
I0206 00:21:10.011121  3521 net.cpp:165] Memory required for data: 1723892224
I0206 00:21:10.011126  3521 layer_factory.hpp:76] Creating layer block4_relu66
I0206 00:21:10.011132  3521 net.cpp:106] Creating Layer block4_relu66
I0206 00:21:10.011135  3521 net.cpp:454] block4_relu66 <- block4_conv65_BN
I0206 00:21:10.011140  3521 net.cpp:397] block4_relu66 -> block4_conv65_BN (in-place)
I0206 00:21:10.011265  3521 net.cpp:150] Setting up block4_relu66
I0206 00:21:10.011273  3521 net.cpp:157] Top shape: 128 256 4 4 (524288)
I0206 00:21:10.011277  3521 net.cpp:165] Memory required for data: 1725989376
I0206 00:21:10.011281  3521 layer_factory.hpp:76] Creating layer block4_conv67
I0206 00:21:10.011286  3521 net.cpp:106] Creating Layer block4_conv67
I0206 00:21:10.011291  3521 net.cpp:454] block4_conv67 <- block4_conv65_BN
I0206 00:21:10.011296  3521 net.cpp:411] block4_conv67 -> block4_conv67
I0206 00:21:10.013481  3521 net.cpp:150] Setting up block4_conv67
I0206 00:21:10.013492  3521 net.cpp:157] Top shape: 128 1024 4 4 (2097152)
I0206 00:21:10.013495  3521 net.cpp:165] Memory required for data: 1734377984
I0206 00:21:10.013501  3521 layer_factory.hpp:76] Creating layer block4_conv67_BN
I0206 00:21:10.013509  3521 net.cpp:106] Creating Layer block4_conv67_BN
I0206 00:21:10.013515  3521 net.cpp:454] block4_conv67_BN <- block4_conv67
I0206 00:21:10.013520  3521 net.cpp:411] block4_conv67_BN -> block4_conv67_BN
I0206 00:21:10.013677  3521 net.cpp:150] Setting up block4_conv67_BN
I0206 00:21:10.013684  3521 net.cpp:157] Top shape: 128 1024 4 4 (2097152)
I0206 00:21:10.013686  3521 net.cpp:165] Memory required for data: 1742766592
I0206 00:21:10.013705  3521 layer_factory.hpp:76] Creating layer block4_conv67_BN_eltwise
I0206 00:21:10.013712  3521 net.cpp:106] Creating Layer block4_conv67_BN_eltwise
I0206 00:21:10.013716  3521 net.cpp:454] block4_conv67_BN_eltwise <- block4_conv67_BN
I0206 00:21:10.013720  3521 net.cpp:454] block4_conv67_BN_eltwise <- block4_conv62_block4_relu62_0_split_1
I0206 00:21:10.013726  3521 net.cpp:411] block4_conv67_BN_eltwise -> block4_conv67_BN_eltwise
I0206 00:21:10.013743  3521 net.cpp:150] Setting up block4_conv67_BN_eltwise
I0206 00:21:10.013749  3521 net.cpp:157] Top shape: 128 1024 4 4 (2097152)
I0206 00:21:10.013752  3521 net.cpp:165] Memory required for data: 1751155200
I0206 00:21:10.013766  3521 layer_factory.hpp:76] Creating layer block4_relu69
I0206 00:21:10.013772  3521 net.cpp:106] Creating Layer block4_relu69
I0206 00:21:10.013775  3521 net.cpp:454] block4_relu69 <- block4_conv67_BN_eltwise
I0206 00:21:10.013780  3521 net.cpp:411] block4_relu69 -> block4_relu69
I0206 00:21:10.014016  3521 net.cpp:150] Setting up block4_relu69
I0206 00:21:10.014026  3521 net.cpp:157] Top shape: 128 1024 4 4 (2097152)
I0206 00:21:10.014029  3521 net.cpp:165] Memory required for data: 1759543808
I0206 00:21:10.014034  3521 layer_factory.hpp:76] Creating layer block4_relu69_block4_relu69_0_split
I0206 00:21:10.014039  3521 net.cpp:106] Creating Layer block4_relu69_block4_relu69_0_split
I0206 00:21:10.014041  3521 net.cpp:454] block4_relu69_block4_relu69_0_split <- block4_relu69
I0206 00:21:10.014046  3521 net.cpp:411] block4_relu69_block4_relu69_0_split -> block4_relu69_block4_relu69_0_split_0
I0206 00:21:10.014052  3521 net.cpp:411] block4_relu69_block4_relu69_0_split -> block4_relu69_block4_relu69_0_split_1
I0206 00:21:10.014083  3521 net.cpp:150] Setting up block4_relu69_block4_relu69_0_split
I0206 00:21:10.014089  3521 net.cpp:157] Top shape: 128 1024 4 4 (2097152)
I0206 00:21:10.014092  3521 net.cpp:157] Top shape: 128 1024 4 4 (2097152)
I0206 00:21:10.014096  3521 net.cpp:165] Memory required for data: 1776321024
I0206 00:21:10.014098  3521 layer_factory.hpp:76] Creating layer block4_conv71
I0206 00:21:10.014109  3521 net.cpp:106] Creating Layer block4_conv71
I0206 00:21:10.014113  3521 net.cpp:454] block4_conv71 <- block4_relu69_block4_relu69_0_split_0
I0206 00:21:10.014120  3521 net.cpp:411] block4_conv71 -> block4_conv71
I0206 00:21:10.016258  3521 net.cpp:150] Setting up block4_conv71
I0206 00:21:10.016269  3521 net.cpp:157] Top shape: 128 256 4 4 (524288)
I0206 00:21:10.016273  3521 net.cpp:165] Memory required for data: 1778418176
I0206 00:21:10.016278  3521 layer_factory.hpp:76] Creating layer block4_conv71_BN
I0206 00:21:10.016285  3521 net.cpp:106] Creating Layer block4_conv71_BN
I0206 00:21:10.016290  3521 net.cpp:454] block4_conv71_BN <- block4_conv71
I0206 00:21:10.016295  3521 net.cpp:411] block4_conv71_BN -> block4_conv71_BN
I0206 00:21:10.016455  3521 net.cpp:150] Setting up block4_conv71_BN
I0206 00:21:10.016461  3521 net.cpp:157] Top shape: 128 256 4 4 (524288)
I0206 00:21:10.016464  3521 net.cpp:165] Memory required for data: 1780515328
I0206 00:21:10.016470  3521 layer_factory.hpp:76] Creating layer block4_relu72
I0206 00:21:10.016476  3521 net.cpp:106] Creating Layer block4_relu72
I0206 00:21:10.016479  3521 net.cpp:454] block4_relu72 <- block4_conv71_BN
I0206 00:21:10.016484  3521 net.cpp:397] block4_relu72 -> block4_conv71_BN (in-place)
I0206 00:21:10.016726  3521 net.cpp:150] Setting up block4_relu72
I0206 00:21:10.016734  3521 net.cpp:157] Top shape: 128 256 4 4 (524288)
I0206 00:21:10.016748  3521 net.cpp:165] Memory required for data: 1782612480
I0206 00:21:10.016752  3521 layer_factory.hpp:76] Creating layer block4_conv73
I0206 00:21:10.016758  3521 net.cpp:106] Creating Layer block4_conv73
I0206 00:21:10.016762  3521 net.cpp:454] block4_conv73 <- block4_conv71_BN
I0206 00:21:10.016767  3521 net.cpp:411] block4_conv73 -> block4_conv73
I0206 00:21:10.020548  3521 net.cpp:150] Setting up block4_conv73
I0206 00:21:10.020560  3521 net.cpp:157] Top shape: 128 256 4 4 (524288)
I0206 00:21:10.020563  3521 net.cpp:165] Memory required for data: 1784709632
I0206 00:21:10.020570  3521 layer_factory.hpp:76] Creating layer block4_conv73_BN
I0206 00:21:10.020576  3521 net.cpp:106] Creating Layer block4_conv73_BN
I0206 00:21:10.020580  3521 net.cpp:454] block4_conv73_BN <- block4_conv73
I0206 00:21:10.020584  3521 net.cpp:411] block4_conv73_BN -> block4_conv73_BN
I0206 00:21:10.020740  3521 net.cpp:150] Setting up block4_conv73_BN
I0206 00:21:10.020745  3521 net.cpp:157] Top shape: 128 256 4 4 (524288)
I0206 00:21:10.020747  3521 net.cpp:165] Memory required for data: 1786806784
I0206 00:21:10.020753  3521 layer_factory.hpp:76] Creating layer block4_relu74
I0206 00:21:10.020769  3521 net.cpp:106] Creating Layer block4_relu74
I0206 00:21:10.020773  3521 net.cpp:454] block4_relu74 <- block4_conv73_BN
I0206 00:21:10.020778  3521 net.cpp:397] block4_relu74 -> block4_conv73_BN (in-place)
I0206 00:21:10.020905  3521 net.cpp:150] Setting up block4_relu74
I0206 00:21:10.020911  3521 net.cpp:157] Top shape: 128 256 4 4 (524288)
I0206 00:21:10.020915  3521 net.cpp:165] Memory required for data: 1788903936
I0206 00:21:10.020918  3521 layer_factory.hpp:76] Creating layer block4_conv75
I0206 00:21:10.020925  3521 net.cpp:106] Creating Layer block4_conv75
I0206 00:21:10.020928  3521 net.cpp:454] block4_conv75 <- block4_conv73_BN
I0206 00:21:10.020933  3521 net.cpp:411] block4_conv75 -> block4_conv75
I0206 00:21:10.023324  3521 net.cpp:150] Setting up block4_conv75
I0206 00:21:10.023346  3521 net.cpp:157] Top shape: 128 1024 4 4 (2097152)
I0206 00:21:10.023350  3521 net.cpp:165] Memory required for data: 1797292544
I0206 00:21:10.023356  3521 layer_factory.hpp:76] Creating layer block4_conv75_BN
I0206 00:21:10.023363  3521 net.cpp:106] Creating Layer block4_conv75_BN
I0206 00:21:10.023367  3521 net.cpp:454] block4_conv75_BN <- block4_conv75
I0206 00:21:10.023372  3521 net.cpp:411] block4_conv75_BN -> block4_conv75_BN
I0206 00:21:10.023545  3521 net.cpp:150] Setting up block4_conv75_BN
I0206 00:21:10.023552  3521 net.cpp:157] Top shape: 128 1024 4 4 (2097152)
I0206 00:21:10.023566  3521 net.cpp:165] Memory required for data: 1805681152
I0206 00:21:10.023571  3521 layer_factory.hpp:76] Creating layer block4_conv75_BN_eltwise
I0206 00:21:10.023578  3521 net.cpp:106] Creating Layer block4_conv75_BN_eltwise
I0206 00:21:10.023582  3521 net.cpp:454] block4_conv75_BN_eltwise <- block4_conv75_BN
I0206 00:21:10.023586  3521 net.cpp:454] block4_conv75_BN_eltwise <- block4_relu69_block4_relu69_0_split_1
I0206 00:21:10.023591  3521 net.cpp:411] block4_conv75_BN_eltwise -> block4_conv75_BN_eltwise
I0206 00:21:10.023607  3521 net.cpp:150] Setting up block4_conv75_BN_eltwise
I0206 00:21:10.023613  3521 net.cpp:157] Top shape: 128 1024 4 4 (2097152)
I0206 00:21:10.023615  3521 net.cpp:165] Memory required for data: 1814069760
I0206 00:21:10.023618  3521 layer_factory.hpp:76] Creating layer block4_relu77
I0206 00:21:10.023623  3521 net.cpp:106] Creating Layer block4_relu77
I0206 00:21:10.023627  3521 net.cpp:454] block4_relu77 <- block4_conv75_BN_eltwise
I0206 00:21:10.023633  3521 net.cpp:411] block4_relu77 -> block4_relu77
I0206 00:21:10.023937  3521 net.cpp:150] Setting up block4_relu77
I0206 00:21:10.023947  3521 net.cpp:157] Top shape: 128 1024 4 4 (2097152)
I0206 00:21:10.023949  3521 net.cpp:165] Memory required for data: 1822458368
I0206 00:21:10.023952  3521 layer_factory.hpp:76] Creating layer block4_relu77_block4_relu77_0_split
I0206 00:21:10.023957  3521 net.cpp:106] Creating Layer block4_relu77_block4_relu77_0_split
I0206 00:21:10.023960  3521 net.cpp:454] block4_relu77_block4_relu77_0_split <- block4_relu77
I0206 00:21:10.023967  3521 net.cpp:411] block4_relu77_block4_relu77_0_split -> block4_relu77_block4_relu77_0_split_0
I0206 00:21:10.023972  3521 net.cpp:411] block4_relu77_block4_relu77_0_split -> block4_relu77_block4_relu77_0_split_1
I0206 00:21:10.024001  3521 net.cpp:150] Setting up block4_relu77_block4_relu77_0_split
I0206 00:21:10.024008  3521 net.cpp:157] Top shape: 128 1024 4 4 (2097152)
I0206 00:21:10.024013  3521 net.cpp:157] Top shape: 128 1024 4 4 (2097152)
I0206 00:21:10.024014  3521 net.cpp:165] Memory required for data: 1839235584
I0206 00:21:10.024018  3521 layer_factory.hpp:76] Creating layer block4_conv79
I0206 00:21:10.024024  3521 net.cpp:106] Creating Layer block4_conv79
I0206 00:21:10.024026  3521 net.cpp:454] block4_conv79 <- block4_relu77_block4_relu77_0_split_0
I0206 00:21:10.024032  3521 net.cpp:411] block4_conv79 -> block4_conv79
I0206 00:21:10.026758  3521 net.cpp:150] Setting up block4_conv79
I0206 00:21:10.026772  3521 net.cpp:157] Top shape: 128 256 4 4 (524288)
I0206 00:21:10.026774  3521 net.cpp:165] Memory required for data: 1841332736
I0206 00:21:10.026793  3521 layer_factory.hpp:76] Creating layer block4_conv79_BN
I0206 00:21:10.026800  3521 net.cpp:106] Creating Layer block4_conv79_BN
I0206 00:21:10.026804  3521 net.cpp:454] block4_conv79_BN <- block4_conv79
I0206 00:21:10.026809  3521 net.cpp:411] block4_conv79_BN -> block4_conv79_BN
I0206 00:21:10.026970  3521 net.cpp:150] Setting up block4_conv79_BN
I0206 00:21:10.026976  3521 net.cpp:157] Top shape: 128 256 4 4 (524288)
I0206 00:21:10.026979  3521 net.cpp:165] Memory required for data: 1843429888
I0206 00:21:10.026985  3521 layer_factory.hpp:76] Creating layer block4_relu80
I0206 00:21:10.026993  3521 net.cpp:106] Creating Layer block4_relu80
I0206 00:21:10.026996  3521 net.cpp:454] block4_relu80 <- block4_conv79_BN
I0206 00:21:10.027000  3521 net.cpp:397] block4_relu80 -> block4_conv79_BN (in-place)
I0206 00:21:10.027215  3521 net.cpp:150] Setting up block4_relu80
I0206 00:21:10.027225  3521 net.cpp:157] Top shape: 128 256 4 4 (524288)
I0206 00:21:10.027227  3521 net.cpp:165] Memory required for data: 1845527040
I0206 00:21:10.027231  3521 layer_factory.hpp:76] Creating layer block4_conv81
I0206 00:21:10.027238  3521 net.cpp:106] Creating Layer block4_conv81
I0206 00:21:10.027243  3521 net.cpp:454] block4_conv81 <- block4_conv79_BN
I0206 00:21:10.027248  3521 net.cpp:411] block4_conv81 -> block4_conv81
I0206 00:21:10.031155  3521 net.cpp:150] Setting up block4_conv81
I0206 00:21:10.031167  3521 net.cpp:157] Top shape: 128 256 4 4 (524288)
I0206 00:21:10.031169  3521 net.cpp:165] Memory required for data: 1847624192
I0206 00:21:10.031175  3521 layer_factory.hpp:76] Creating layer block4_conv81_BN
I0206 00:21:10.031183  3521 net.cpp:106] Creating Layer block4_conv81_BN
I0206 00:21:10.031186  3521 net.cpp:454] block4_conv81_BN <- block4_conv81
I0206 00:21:10.031191  3521 net.cpp:411] block4_conv81_BN -> block4_conv81_BN
I0206 00:21:10.031350  3521 net.cpp:150] Setting up block4_conv81_BN
I0206 00:21:10.031357  3521 net.cpp:157] Top shape: 128 256 4 4 (524288)
I0206 00:21:10.031359  3521 net.cpp:165] Memory required for data: 1849721344
I0206 00:21:10.031365  3521 layer_factory.hpp:76] Creating layer block4_relu82
I0206 00:21:10.031373  3521 net.cpp:106] Creating Layer block4_relu82
I0206 00:21:10.031375  3521 net.cpp:454] block4_relu82 <- block4_conv81_BN
I0206 00:21:10.031379  3521 net.cpp:397] block4_relu82 -> block4_conv81_BN (in-place)
I0206 00:21:10.031505  3521 net.cpp:150] Setting up block4_relu82
I0206 00:21:10.031512  3521 net.cpp:157] Top shape: 128 256 4 4 (524288)
I0206 00:21:10.031515  3521 net.cpp:165] Memory required for data: 1851818496
I0206 00:21:10.031518  3521 layer_factory.hpp:76] Creating layer block4_conv83
I0206 00:21:10.031525  3521 net.cpp:106] Creating Layer block4_conv83
I0206 00:21:10.031528  3521 net.cpp:454] block4_conv83 <- block4_conv81_BN
I0206 00:21:10.031534  3521 net.cpp:411] block4_conv83 -> block4_conv83
I0206 00:21:10.033725  3521 net.cpp:150] Setting up block4_conv83
I0206 00:21:10.033735  3521 net.cpp:157] Top shape: 128 1024 4 4 (2097152)
I0206 00:21:10.033740  3521 net.cpp:165] Memory required for data: 1860207104
I0206 00:21:10.033745  3521 layer_factory.hpp:76] Creating layer block4_conv83_BN
I0206 00:21:10.033751  3521 net.cpp:106] Creating Layer block4_conv83_BN
I0206 00:21:10.033756  3521 net.cpp:454] block4_conv83_BN <- block4_conv83
I0206 00:21:10.033761  3521 net.cpp:411] block4_conv83_BN -> block4_conv83_BN
I0206 00:21:10.033922  3521 net.cpp:150] Setting up block4_conv83_BN
I0206 00:21:10.033928  3521 net.cpp:157] Top shape: 128 1024 4 4 (2097152)
I0206 00:21:10.033931  3521 net.cpp:165] Memory required for data: 1868595712
I0206 00:21:10.033936  3521 layer_factory.hpp:76] Creating layer block4_conv83_BN_eltwise
I0206 00:21:10.033944  3521 net.cpp:106] Creating Layer block4_conv83_BN_eltwise
I0206 00:21:10.033948  3521 net.cpp:454] block4_conv83_BN_eltwise <- block4_conv83_BN
I0206 00:21:10.033952  3521 net.cpp:454] block4_conv83_BN_eltwise <- block4_relu77_block4_relu77_0_split_1
I0206 00:21:10.033957  3521 net.cpp:411] block4_conv83_BN_eltwise -> block4_conv83_BN_eltwise
I0206 00:21:10.033988  3521 net.cpp:150] Setting up block4_conv83_BN_eltwise
I0206 00:21:10.033995  3521 net.cpp:157] Top shape: 128 1024 4 4 (2097152)
I0206 00:21:10.033998  3521 net.cpp:165] Memory required for data: 1876984320
I0206 00:21:10.034001  3521 layer_factory.hpp:76] Creating layer block4_relu85
I0206 00:21:10.034005  3521 net.cpp:106] Creating Layer block4_relu85
I0206 00:21:10.034009  3521 net.cpp:454] block4_relu85 <- block4_conv83_BN_eltwise
I0206 00:21:10.034014  3521 net.cpp:411] block4_relu85 -> block4_relu85
I0206 00:21:10.034240  3521 net.cpp:150] Setting up block4_relu85
I0206 00:21:10.034250  3521 net.cpp:157] Top shape: 128 1024 4 4 (2097152)
I0206 00:21:10.034253  3521 net.cpp:165] Memory required for data: 1885372928
I0206 00:21:10.034256  3521 layer_factory.hpp:76] Creating layer block4_relu85_block4_relu85_0_split
I0206 00:21:10.034261  3521 net.cpp:106] Creating Layer block4_relu85_block4_relu85_0_split
I0206 00:21:10.034265  3521 net.cpp:454] block4_relu85_block4_relu85_0_split <- block4_relu85
I0206 00:21:10.034271  3521 net.cpp:411] block4_relu85_block4_relu85_0_split -> block4_relu85_block4_relu85_0_split_0
I0206 00:21:10.034276  3521 net.cpp:411] block4_relu85_block4_relu85_0_split -> block4_relu85_block4_relu85_0_split_1
I0206 00:21:10.034308  3521 net.cpp:150] Setting up block4_relu85_block4_relu85_0_split
I0206 00:21:10.034313  3521 net.cpp:157] Top shape: 128 1024 4 4 (2097152)
I0206 00:21:10.034317  3521 net.cpp:157] Top shape: 128 1024 4 4 (2097152)
I0206 00:21:10.034319  3521 net.cpp:165] Memory required for data: 1902150144
I0206 00:21:10.034322  3521 layer_factory.hpp:76] Creating layer block4_conv87
I0206 00:21:10.034329  3521 net.cpp:106] Creating Layer block4_conv87
I0206 00:21:10.034333  3521 net.cpp:454] block4_conv87 <- block4_relu85_block4_relu85_0_split_0
I0206 00:21:10.034339  3521 net.cpp:411] block4_conv87 -> block4_conv87
I0206 00:21:10.036415  3521 net.cpp:150] Setting up block4_conv87
I0206 00:21:10.036425  3521 net.cpp:157] Top shape: 128 256 4 4 (524288)
I0206 00:21:10.036428  3521 net.cpp:165] Memory required for data: 1904247296
I0206 00:21:10.036434  3521 layer_factory.hpp:76] Creating layer block4_conv87_BN
I0206 00:21:10.036442  3521 net.cpp:106] Creating Layer block4_conv87_BN
I0206 00:21:10.036445  3521 net.cpp:454] block4_conv87_BN <- block4_conv87
I0206 00:21:10.036450  3521 net.cpp:411] block4_conv87_BN -> block4_conv87_BN
I0206 00:21:10.036613  3521 net.cpp:150] Setting up block4_conv87_BN
I0206 00:21:10.036620  3521 net.cpp:157] Top shape: 128 256 4 4 (524288)
I0206 00:21:10.036623  3521 net.cpp:165] Memory required for data: 1906344448
I0206 00:21:10.036628  3521 layer_factory.hpp:76] Creating layer block4_relu88
I0206 00:21:10.036634  3521 net.cpp:106] Creating Layer block4_relu88
I0206 00:21:10.036638  3521 net.cpp:454] block4_relu88 <- block4_conv87_BN
I0206 00:21:10.036641  3521 net.cpp:397] block4_relu88 -> block4_conv87_BN (in-place)
I0206 00:21:10.036851  3521 net.cpp:150] Setting up block4_relu88
I0206 00:21:10.036860  3521 net.cpp:157] Top shape: 128 256 4 4 (524288)
I0206 00:21:10.036864  3521 net.cpp:165] Memory required for data: 1908441600
I0206 00:21:10.036866  3521 layer_factory.hpp:76] Creating layer block4_conv89
I0206 00:21:10.036875  3521 net.cpp:106] Creating Layer block4_conv89
I0206 00:21:10.036878  3521 net.cpp:454] block4_conv89 <- block4_conv87_BN
I0206 00:21:10.036883  3521 net.cpp:411] block4_conv89 -> block4_conv89
I0206 00:21:10.040576  3521 net.cpp:150] Setting up block4_conv89
I0206 00:21:10.040587  3521 net.cpp:157] Top shape: 128 256 4 4 (524288)
I0206 00:21:10.040591  3521 net.cpp:165] Memory required for data: 1910538752
I0206 00:21:10.040596  3521 layer_factory.hpp:76] Creating layer block4_conv89_BN
I0206 00:21:10.040604  3521 net.cpp:106] Creating Layer block4_conv89_BN
I0206 00:21:10.040607  3521 net.cpp:454] block4_conv89_BN <- block4_conv89
I0206 00:21:10.040613  3521 net.cpp:411] block4_conv89_BN -> block4_conv89_BN
I0206 00:21:10.040776  3521 net.cpp:150] Setting up block4_conv89_BN
I0206 00:21:10.040791  3521 net.cpp:157] Top shape: 128 256 4 4 (524288)
I0206 00:21:10.040793  3521 net.cpp:165] Memory required for data: 1912635904
I0206 00:21:10.040799  3521 layer_factory.hpp:76] Creating layer block4_relu90
I0206 00:21:10.040805  3521 net.cpp:106] Creating Layer block4_relu90
I0206 00:21:10.040808  3521 net.cpp:454] block4_relu90 <- block4_conv89_BN
I0206 00:21:10.040812  3521 net.cpp:397] block4_relu90 -> block4_conv89_BN (in-place)
I0206 00:21:10.040942  3521 net.cpp:150] Setting up block4_relu90
I0206 00:21:10.040949  3521 net.cpp:157] Top shape: 128 256 4 4 (524288)
I0206 00:21:10.040952  3521 net.cpp:165] Memory required for data: 1914733056
I0206 00:21:10.040956  3521 layer_factory.hpp:76] Creating layer block4_conv91
I0206 00:21:10.040973  3521 net.cpp:106] Creating Layer block4_conv91
I0206 00:21:10.040977  3521 net.cpp:454] block4_conv91 <- block4_conv89_BN
I0206 00:21:10.040983  3521 net.cpp:411] block4_conv91 -> block4_conv91
I0206 00:21:10.043139  3521 net.cpp:150] Setting up block4_conv91
I0206 00:21:10.043150  3521 net.cpp:157] Top shape: 128 1024 4 4 (2097152)
I0206 00:21:10.043154  3521 net.cpp:165] Memory required for data: 1923121664
I0206 00:21:10.043159  3521 layer_factory.hpp:76] Creating layer block4_conv91_BN
I0206 00:21:10.043166  3521 net.cpp:106] Creating Layer block4_conv91_BN
I0206 00:21:10.043170  3521 net.cpp:454] block4_conv91_BN <- block4_conv91
I0206 00:21:10.043174  3521 net.cpp:411] block4_conv91_BN -> block4_conv91_BN
I0206 00:21:10.043339  3521 net.cpp:150] Setting up block4_conv91_BN
I0206 00:21:10.043345  3521 net.cpp:157] Top shape: 128 1024 4 4 (2097152)
I0206 00:21:10.043349  3521 net.cpp:165] Memory required for data: 1931510272
I0206 00:21:10.043354  3521 layer_factory.hpp:76] Creating layer block4_conv91_BN_eltwise
I0206 00:21:10.043360  3521 net.cpp:106] Creating Layer block4_conv91_BN_eltwise
I0206 00:21:10.043365  3521 net.cpp:454] block4_conv91_BN_eltwise <- block4_conv91_BN
I0206 00:21:10.043368  3521 net.cpp:454] block4_conv91_BN_eltwise <- block4_relu85_block4_relu85_0_split_1
I0206 00:21:10.043372  3521 net.cpp:411] block4_conv91_BN_eltwise -> block4_conv91_BN_eltwise
I0206 00:21:10.043390  3521 net.cpp:150] Setting up block4_conv91_BN_eltwise
I0206 00:21:10.043395  3521 net.cpp:157] Top shape: 128 1024 4 4 (2097152)
I0206 00:21:10.043397  3521 net.cpp:165] Memory required for data: 1939898880
I0206 00:21:10.043401  3521 layer_factory.hpp:76] Creating layer block4_relu93
I0206 00:21:10.043404  3521 net.cpp:106] Creating Layer block4_relu93
I0206 00:21:10.043408  3521 net.cpp:454] block4_relu93 <- block4_conv91_BN_eltwise
I0206 00:21:10.043413  3521 net.cpp:411] block4_relu93 -> block4_relu93
I0206 00:21:10.043637  3521 net.cpp:150] Setting up block4_relu93
I0206 00:21:10.043647  3521 net.cpp:157] Top shape: 128 1024 4 4 (2097152)
I0206 00:21:10.043649  3521 net.cpp:165] Memory required for data: 1948287488
I0206 00:21:10.043653  3521 layer_factory.hpp:76] Creating layer block4_relu93_block4_relu93_0_split
I0206 00:21:10.043658  3521 net.cpp:106] Creating Layer block4_relu93_block4_relu93_0_split
I0206 00:21:10.043661  3521 net.cpp:454] block4_relu93_block4_relu93_0_split <- block4_relu93
I0206 00:21:10.043668  3521 net.cpp:411] block4_relu93_block4_relu93_0_split -> block4_relu93_block4_relu93_0_split_0
I0206 00:21:10.043673  3521 net.cpp:411] block4_relu93_block4_relu93_0_split -> block4_relu93_block4_relu93_0_split_1
I0206 00:21:10.043704  3521 net.cpp:150] Setting up block4_relu93_block4_relu93_0_split
I0206 00:21:10.043710  3521 net.cpp:157] Top shape: 128 1024 4 4 (2097152)
I0206 00:21:10.043715  3521 net.cpp:157] Top shape: 128 1024 4 4 (2097152)
I0206 00:21:10.043717  3521 net.cpp:165] Memory required for data: 1965064704
I0206 00:21:10.043720  3521 layer_factory.hpp:76] Creating layer block4_conv95
I0206 00:21:10.043726  3521 net.cpp:106] Creating Layer block4_conv95
I0206 00:21:10.043730  3521 net.cpp:454] block4_conv95 <- block4_relu93_block4_relu93_0_split_0
I0206 00:21:10.043735  3521 net.cpp:411] block4_conv95 -> block4_conv95
I0206 00:21:10.045850  3521 net.cpp:150] Setting up block4_conv95
I0206 00:21:10.045861  3521 net.cpp:157] Top shape: 128 256 4 4 (524288)
I0206 00:21:10.045864  3521 net.cpp:165] Memory required for data: 1967161856
I0206 00:21:10.045869  3521 layer_factory.hpp:76] Creating layer block4_conv95_BN
I0206 00:21:10.045876  3521 net.cpp:106] Creating Layer block4_conv95_BN
I0206 00:21:10.045879  3521 net.cpp:454] block4_conv95_BN <- block4_conv95
I0206 00:21:10.045884  3521 net.cpp:411] block4_conv95_BN -> block4_conv95_BN
I0206 00:21:10.046057  3521 net.cpp:150] Setting up block4_conv95_BN
I0206 00:21:10.046064  3521 net.cpp:157] Top shape: 128 256 4 4 (524288)
I0206 00:21:10.046067  3521 net.cpp:165] Memory required for data: 1969259008
I0206 00:21:10.046072  3521 layer_factory.hpp:76] Creating layer block4_relu96
I0206 00:21:10.046079  3521 net.cpp:106] Creating Layer block4_relu96
I0206 00:21:10.046082  3521 net.cpp:454] block4_relu96 <- block4_conv95_BN
I0206 00:21:10.046087  3521 net.cpp:397] block4_relu96 -> block4_conv95_BN (in-place)
I0206 00:21:10.046300  3521 net.cpp:150] Setting up block4_relu96
I0206 00:21:10.046310  3521 net.cpp:157] Top shape: 128 256 4 4 (524288)
I0206 00:21:10.046314  3521 net.cpp:165] Memory required for data: 1971356160
I0206 00:21:10.046316  3521 layer_factory.hpp:76] Creating layer block4_conv97
I0206 00:21:10.046324  3521 net.cpp:106] Creating Layer block4_conv97
I0206 00:21:10.046327  3521 net.cpp:454] block4_conv97 <- block4_conv95_BN
I0206 00:21:10.046334  3521 net.cpp:411] block4_conv97 -> block4_conv97
I0206 00:21:10.050107  3521 net.cpp:150] Setting up block4_conv97
I0206 00:21:10.050118  3521 net.cpp:157] Top shape: 128 256 4 4 (524288)
I0206 00:21:10.050122  3521 net.cpp:165] Memory required for data: 1973453312
I0206 00:21:10.050127  3521 layer_factory.hpp:76] Creating layer block4_conv97_BN
I0206 00:21:10.050135  3521 net.cpp:106] Creating Layer block4_conv97_BN
I0206 00:21:10.050139  3521 net.cpp:454] block4_conv97_BN <- block4_conv97
I0206 00:21:10.050144  3521 net.cpp:411] block4_conv97_BN -> block4_conv97_BN
I0206 00:21:10.050312  3521 net.cpp:150] Setting up block4_conv97_BN
I0206 00:21:10.050318  3521 net.cpp:157] Top shape: 128 256 4 4 (524288)
I0206 00:21:10.050320  3521 net.cpp:165] Memory required for data: 1975550464
I0206 00:21:10.050326  3521 layer_factory.hpp:76] Creating layer block4_relu98
I0206 00:21:10.050331  3521 net.cpp:106] Creating Layer block4_relu98
I0206 00:21:10.050334  3521 net.cpp:454] block4_relu98 <- block4_conv97_BN
I0206 00:21:10.050338  3521 net.cpp:397] block4_relu98 -> block4_conv97_BN (in-place)
I0206 00:21:10.050469  3521 net.cpp:150] Setting up block4_relu98
I0206 00:21:10.050477  3521 net.cpp:157] Top shape: 128 256 4 4 (524288)
I0206 00:21:10.050479  3521 net.cpp:165] Memory required for data: 1977647616
I0206 00:21:10.050482  3521 layer_factory.hpp:76] Creating layer block4_conv99
I0206 00:21:10.050489  3521 net.cpp:106] Creating Layer block4_conv99
I0206 00:21:10.050493  3521 net.cpp:454] block4_conv99 <- block4_conv97_BN
I0206 00:21:10.050498  3521 net.cpp:411] block4_conv99 -> block4_conv99
I0206 00:21:10.052772  3521 net.cpp:150] Setting up block4_conv99
I0206 00:21:10.052793  3521 net.cpp:157] Top shape: 128 1024 4 4 (2097152)
I0206 00:21:10.052798  3521 net.cpp:165] Memory required for data: 1986036224
I0206 00:21:10.052803  3521 layer_factory.hpp:76] Creating layer block4_conv99_BN
I0206 00:21:10.052810  3521 net.cpp:106] Creating Layer block4_conv99_BN
I0206 00:21:10.052814  3521 net.cpp:454] block4_conv99_BN <- block4_conv99
I0206 00:21:10.052819  3521 net.cpp:411] block4_conv99_BN -> block4_conv99_BN
I0206 00:21:10.052999  3521 net.cpp:150] Setting up block4_conv99_BN
I0206 00:21:10.053005  3521 net.cpp:157] Top shape: 128 1024 4 4 (2097152)
I0206 00:21:10.053020  3521 net.cpp:165] Memory required for data: 1994424832
I0206 00:21:10.053025  3521 layer_factory.hpp:76] Creating layer block4_conv99_BN_eltwise
I0206 00:21:10.053031  3521 net.cpp:106] Creating Layer block4_conv99_BN_eltwise
I0206 00:21:10.053035  3521 net.cpp:454] block4_conv99_BN_eltwise <- block4_conv99_BN
I0206 00:21:10.053048  3521 net.cpp:454] block4_conv99_BN_eltwise <- block4_relu93_block4_relu93_0_split_1
I0206 00:21:10.053055  3521 net.cpp:411] block4_conv99_BN_eltwise -> block4_conv99_BN_eltwise
I0206 00:21:10.053086  3521 net.cpp:150] Setting up block4_conv99_BN_eltwise
I0206 00:21:10.053103  3521 net.cpp:157] Top shape: 128 1024 4 4 (2097152)
I0206 00:21:10.053105  3521 net.cpp:165] Memory required for data: 2002813440
I0206 00:21:10.053109  3521 layer_factory.hpp:76] Creating layer block4_relu101
I0206 00:21:10.053125  3521 net.cpp:106] Creating Layer block4_relu101
I0206 00:21:10.053128  3521 net.cpp:454] block4_relu101 <- block4_conv99_BN_eltwise
I0206 00:21:10.053133  3521 net.cpp:411] block4_relu101 -> block4_relu101
I0206 00:21:10.053433  3521 net.cpp:150] Setting up block4_relu101
I0206 00:21:10.053443  3521 net.cpp:157] Top shape: 128 1024 4 4 (2097152)
I0206 00:21:10.053458  3521 net.cpp:165] Memory required for data: 2011202048
I0206 00:21:10.053462  3521 layer_factory.hpp:76] Creating layer block4_relu101_block4_relu101_0_split
I0206 00:21:10.053478  3521 net.cpp:106] Creating Layer block4_relu101_block4_relu101_0_split
I0206 00:21:10.053481  3521 net.cpp:454] block4_relu101_block4_relu101_0_split <- block4_relu101
I0206 00:21:10.053486  3521 net.cpp:411] block4_relu101_block4_relu101_0_split -> block4_relu101_block4_relu101_0_split_0
I0206 00:21:10.053514  3521 net.cpp:411] block4_relu101_block4_relu101_0_split -> block4_relu101_block4_relu101_0_split_1
I0206 00:21:10.053560  3521 net.cpp:150] Setting up block4_relu101_block4_relu101_0_split
I0206 00:21:10.053565  3521 net.cpp:157] Top shape: 128 1024 4 4 (2097152)
I0206 00:21:10.053581  3521 net.cpp:157] Top shape: 128 1024 4 4 (2097152)
I0206 00:21:10.053585  3521 net.cpp:165] Memory required for data: 2027979264
I0206 00:21:10.053587  3521 layer_factory.hpp:76] Creating layer block4_conv103
I0206 00:21:10.053596  3521 net.cpp:106] Creating Layer block4_conv103
I0206 00:21:10.053599  3521 net.cpp:454] block4_conv103 <- block4_relu101_block4_relu101_0_split_0
I0206 00:21:10.053616  3521 net.cpp:411] block4_conv103 -> block4_conv103
I0206 00:21:10.056229  3521 net.cpp:150] Setting up block4_conv103
I0206 00:21:10.056253  3521 net.cpp:157] Top shape: 128 256 4 4 (524288)
I0206 00:21:10.056257  3521 net.cpp:165] Memory required for data: 2030076416
I0206 00:21:10.056263  3521 layer_factory.hpp:76] Creating layer block4_conv103_BN
I0206 00:21:10.056272  3521 net.cpp:106] Creating Layer block4_conv103_BN
I0206 00:21:10.056277  3521 net.cpp:454] block4_conv103_BN <- block4_conv103
I0206 00:21:10.056282  3521 net.cpp:411] block4_conv103_BN -> block4_conv103_BN
I0206 00:21:10.056464  3521 net.cpp:150] Setting up block4_conv103_BN
I0206 00:21:10.056471  3521 net.cpp:157] Top shape: 128 256 4 4 (524288)
I0206 00:21:10.056474  3521 net.cpp:165] Memory required for data: 2032173568
I0206 00:21:10.056479  3521 layer_factory.hpp:76] Creating layer block4_relu104
I0206 00:21:10.056485  3521 net.cpp:106] Creating Layer block4_relu104
I0206 00:21:10.056488  3521 net.cpp:454] block4_relu104 <- block4_conv103_BN
I0206 00:21:10.056493  3521 net.cpp:397] block4_relu104 -> block4_conv103_BN (in-place)
I0206 00:21:10.056833  3521 net.cpp:150] Setting up block4_relu104
I0206 00:21:10.056843  3521 net.cpp:157] Top shape: 128 256 4 4 (524288)
I0206 00:21:10.056846  3521 net.cpp:165] Memory required for data: 2034270720
I0206 00:21:10.056849  3521 layer_factory.hpp:76] Creating layer block4_conv105
I0206 00:21:10.056857  3521 net.cpp:106] Creating Layer block4_conv105
I0206 00:21:10.056861  3521 net.cpp:454] block4_conv105 <- block4_conv103_BN
I0206 00:21:10.056867  3521 net.cpp:411] block4_conv105 -> block4_conv105
I0206 00:21:10.060715  3521 net.cpp:150] Setting up block4_conv105
I0206 00:21:10.060727  3521 net.cpp:157] Top shape: 128 256 4 4 (524288)
I0206 00:21:10.060730  3521 net.cpp:165] Memory required for data: 2036367872
I0206 00:21:10.060736  3521 layer_factory.hpp:76] Creating layer block4_conv105_BN
I0206 00:21:10.060755  3521 net.cpp:106] Creating Layer block4_conv105_BN
I0206 00:21:10.060758  3521 net.cpp:454] block4_conv105_BN <- block4_conv105
I0206 00:21:10.060763  3521 net.cpp:411] block4_conv105_BN -> block4_conv105_BN
I0206 00:21:10.060940  3521 net.cpp:150] Setting up block4_conv105_BN
I0206 00:21:10.060945  3521 net.cpp:157] Top shape: 128 256 4 4 (524288)
I0206 00:21:10.060948  3521 net.cpp:165] Memory required for data: 2038465024
I0206 00:21:10.060955  3521 layer_factory.hpp:76] Creating layer block4_relu106
I0206 00:21:10.060961  3521 net.cpp:106] Creating Layer block4_relu106
I0206 00:21:10.060963  3521 net.cpp:454] block4_relu106 <- block4_conv105_BN
I0206 00:21:10.060967  3521 net.cpp:397] block4_relu106 -> block4_conv105_BN (in-place)
I0206 00:21:10.061100  3521 net.cpp:150] Setting up block4_relu106
I0206 00:21:10.061108  3521 net.cpp:157] Top shape: 128 256 4 4 (524288)
I0206 00:21:10.061111  3521 net.cpp:165] Memory required for data: 2040562176
I0206 00:21:10.061115  3521 layer_factory.hpp:76] Creating layer block4_conv107
I0206 00:21:10.061121  3521 net.cpp:106] Creating Layer block4_conv107
I0206 00:21:10.061125  3521 net.cpp:454] block4_conv107 <- block4_conv105_BN
I0206 00:21:10.061131  3521 net.cpp:411] block4_conv107 -> block4_conv107
I0206 00:21:10.063261  3521 net.cpp:150] Setting up block4_conv107
I0206 00:21:10.063272  3521 net.cpp:157] Top shape: 128 1024 4 4 (2097152)
I0206 00:21:10.063276  3521 net.cpp:165] Memory required for data: 2048950784
I0206 00:21:10.063282  3521 layer_factory.hpp:76] Creating layer block4_conv107_BN
I0206 00:21:10.063288  3521 net.cpp:106] Creating Layer block4_conv107_BN
I0206 00:21:10.063292  3521 net.cpp:454] block4_conv107_BN <- block4_conv107
I0206 00:21:10.063297  3521 net.cpp:411] block4_conv107_BN -> block4_conv107_BN
I0206 00:21:10.063473  3521 net.cpp:150] Setting up block4_conv107_BN
I0206 00:21:10.063479  3521 net.cpp:157] Top shape: 128 1024 4 4 (2097152)
I0206 00:21:10.063482  3521 net.cpp:165] Memory required for data: 2057339392
I0206 00:21:10.063488  3521 layer_factory.hpp:76] Creating layer block4_conv107_BN_eltwise
I0206 00:21:10.063494  3521 net.cpp:106] Creating Layer block4_conv107_BN_eltwise
I0206 00:21:10.063498  3521 net.cpp:454] block4_conv107_BN_eltwise <- block4_conv107_BN
I0206 00:21:10.063501  3521 net.cpp:454] block4_conv107_BN_eltwise <- block4_relu101_block4_relu101_0_split_1
I0206 00:21:10.063508  3521 net.cpp:411] block4_conv107_BN_eltwise -> block4_conv107_BN_eltwise
I0206 00:21:10.063525  3521 net.cpp:150] Setting up block4_conv107_BN_eltwise
I0206 00:21:10.063531  3521 net.cpp:157] Top shape: 128 1024 4 4 (2097152)
I0206 00:21:10.063534  3521 net.cpp:165] Memory required for data: 2065728000
I0206 00:21:10.063536  3521 layer_factory.hpp:76] Creating layer block4_relu109
I0206 00:21:10.063542  3521 net.cpp:106] Creating Layer block4_relu109
I0206 00:21:10.063546  3521 net.cpp:454] block4_relu109 <- block4_conv107_BN_eltwise
I0206 00:21:10.063550  3521 net.cpp:411] block4_relu109 -> block4_relu109
I0206 00:21:10.063781  3521 net.cpp:150] Setting up block4_relu109
I0206 00:21:10.063791  3521 net.cpp:157] Top shape: 128 1024 4 4 (2097152)
I0206 00:21:10.063793  3521 net.cpp:165] Memory required for data: 2074116608
I0206 00:21:10.063797  3521 layer_factory.hpp:76] Creating layer final_conv111
I0206 00:21:10.063804  3521 net.cpp:106] Creating Layer final_conv111
I0206 00:21:10.063808  3521 net.cpp:454] final_conv111 <- block4_relu109
I0206 00:21:10.063814  3521 net.cpp:411] final_conv111 -> final_conv111
I0206 00:21:10.069813  3521 net.cpp:150] Setting up final_conv111
I0206 00:21:10.069828  3521 net.cpp:157] Top shape: 128 1024 4 4 (2097152)
I0206 00:21:10.069831  3521 net.cpp:165] Memory required for data: 2082505216
I0206 00:21:10.069838  3521 layer_factory.hpp:76] Creating layer final_conv111_BN
I0206 00:21:10.069845  3521 net.cpp:106] Creating Layer final_conv111_BN
I0206 00:21:10.069849  3521 net.cpp:454] final_conv111_BN <- final_conv111
I0206 00:21:10.069854  3521 net.cpp:411] final_conv111_BN -> final_conv111_BN
I0206 00:21:10.070049  3521 net.cpp:150] Setting up final_conv111_BN
I0206 00:21:10.070056  3521 net.cpp:157] Top shape: 128 1024 4 4 (2097152)
I0206 00:21:10.070060  3521 net.cpp:165] Memory required for data: 2090893824
I0206 00:21:10.070066  3521 layer_factory.hpp:76] Creating layer final_relu112
I0206 00:21:10.070071  3521 net.cpp:106] Creating Layer final_relu112
I0206 00:21:10.070075  3521 net.cpp:454] final_relu112 <- final_conv111_BN
I0206 00:21:10.070078  3521 net.cpp:397] final_relu112 -> final_conv111_BN (in-place)
I0206 00:21:10.070299  3521 net.cpp:150] Setting up final_relu112
I0206 00:21:10.070309  3521 net.cpp:157] Top shape: 128 1024 4 4 (2097152)
I0206 00:21:10.070312  3521 net.cpp:165] Memory required for data: 2099282432
I0206 00:21:10.070317  3521 layer_factory.hpp:76] Creating layer final_conv111_BN_global_ave
I0206 00:21:10.070322  3521 net.cpp:106] Creating Layer final_conv111_BN_global_ave
I0206 00:21:10.070325  3521 net.cpp:454] final_conv111_BN_global_ave <- final_conv111_BN
I0206 00:21:10.070329  3521 net.cpp:411] final_conv111_BN_global_ave -> final_conv111_BN_global_ave
I0206 00:21:10.070502  3521 net.cpp:150] Setting up final_conv111_BN_global_ave
I0206 00:21:10.070509  3521 net.cpp:157] Top shape: 128 1024 1 1 (131072)
I0206 00:21:10.070513  3521 net.cpp:165] Memory required for data: 2099806720
I0206 00:21:10.070515  3521 layer_factory.hpp:76] Creating layer final_conv114
I0206 00:21:10.070523  3521 net.cpp:106] Creating Layer final_conv114
I0206 00:21:10.070526  3521 net.cpp:454] final_conv114 <- final_conv111_BN_global_ave
I0206 00:21:10.070531  3521 net.cpp:411] final_conv114 -> final_conv114
I0206 00:21:10.076431  3521 net.cpp:150] Setting up final_conv114
I0206 00:21:10.076445  3521 net.cpp:157] Top shape: 128 1000 1 1 (128000)
I0206 00:21:10.076448  3521 net.cpp:165] Memory required for data: 2100318720
I0206 00:21:10.076454  3521 layer_factory.hpp:76] Creating layer loss
I0206 00:21:10.076464  3521 net.cpp:106] Creating Layer loss
I0206 00:21:10.076468  3521 net.cpp:454] loss <- final_conv114
I0206 00:21:10.076472  3521 net.cpp:454] loss <- label
I0206 00:21:10.076480  3521 net.cpp:411] loss -> loss
…
I0206 00:21:10.080777  3521 net.cpp:322] The NetState phase (1) differed from the phase (0) specified by a rule in layer data
I0206 00:21:10.081881  3521 net.cpp:49] Initializing net from parameters: 
name: "ResNet"
state {
  phase: TEST
}
layer {
  name: "data"
  type: "Data"
  top: "data"
  top: "label"
  include {
    phase: TEST
  }
  transform_param {
    mirror: false
    crop_size: 128
    mean_value: 104
    mean_value: 117
    mean_value: 124
  }
  data_param {
    source: "/media/dereyly/2E4057004056CDE9/data/CAFFE_DATA/ilsvrc12_val_lmdb_144"
    batch_size: 50
    backend: LMDB
  }
}
layer {
  name: "block1_conv1"
  type: "Convolution"
  bottom: "data"
  top: "block1_conv1"
  param {
    decay_mult: 1
  }
  param {
    decay_mult: 0
  }
  convolution_param {
    num_output: 64
    pad: 0
    kernel_size: 7
    group: 1
    stride: 2
    weight_filler {
      type: "xavier"
    }
    bias_filler {
      value: 0
    }
  }
}
layer {
  name: "block1_conv1_BN"
  type: "BatchNorm"
  bottom: "block1_conv1"
  top: "block1_conv1_BN"
  param {
    lr_mult: 0
    decay_mult: 0
  }
  param {
    lr_mult: 0
    decay_mult: 0
  }
  param {
    lr_mult: 0
    decay_mult: 0
  }
  batch_norm_param {
    use_global_stats: false
    moving_average_fraction: 0.95
  }
}
layer {
  name: "block1_relu2"
  type: "ReLU"
  bottom: "block1_conv1_BN"
  top: "block1_conv1_BN"
  relu_param {
    negative_slope: 0
  }
}
layer {
  name: "block1_conv1_BN_max"
  type: "Pooling"
  bottom: "block1_conv1_BN"
  top: "block1_conv1_BN_max"
  pooling_param {
    pool: MAX
    kernel_size: 3
    stride: 2
  }
}
layer {
  name: "block2_conv4"
  type: "Convolution"
  bottom: "block1_conv1_BN_max"
  top: "block2_conv4"
  param {
    decay_mult: 1
  }
  param {
    decay_mult: 0
  }
  convolution_param {
    num_output: 256
    pad: 0
    kernel_size: 1
    group: 1
    stride: 2
    weight_filler {
      type: "xavier"
    }
    bias_filler {
      value: 0
    }
  }
}
layer {
  name: "block2_relu4"
  type: "ReLU"
  bottom: "block2_conv4"
  top: "block2_conv4"
  relu_param {
    negative_slope: 0
  }
}
layer {
  name: "block2_conv5"
  type: "Convolution"
  bottom: "block2_conv4"
  top: "block2_conv5"
  param {
    decay_mult: 1
  }
  param {
    decay_mult: 0
  }
  convolution_param {
    num_output: 64
    pad: 0
    kernel_size: 1
    group: 1
    stride: 1
    weight_filler {
      type: "xavier"
    }
    bias_filler {
      value: 0
    }
  }
}
layer {
  name: "block2_conv5_BN"
  type: "BatchNorm"
  bottom: "block2_conv5"
  top: "block2_conv5_BN"
  param {
    lr_mult: 0
    decay_mult: 0
  }
  param {
    lr_mult: 0
    decay_mult: 0
  }
  param {
    lr_mult: 0
    decay_mult: 0
  }
  batch_norm_param {
    use_global_stats: false
    moving_average_fraction: 0.95
  }
}
layer {
  name: "block2_relu6"
  type: "ReLU"
  bottom: "block2_conv5_BN"
  top: "block2_conv5_BN"
  relu_param {
    negative_slope: 0
  }
}
layer {
  name: "block2_conv7"
  type: "Convolution"
  bottom: "block2_conv5_BN"
  top: "block2_conv7"
  param {
    decay_mult: 1
  }
  param {
    decay_mult: 0
  }
  convolution_param {
    num_output: 64
    pad: 1
    kernel_size: 3
    group: 1
    stride: 1
    weight_filler {
      type: "xavier"
    }
    bias_filler {
      value: 0
    }
  }
}
layer {
  name: "block2_conv7_BN"
  type: "BatchNorm"
  bottom: "block2_conv7"
  top: "block2_conv7_BN"
  param {
    lr_mult: 0
    decay_mult: 0
  }
  param {
    lr_mult: 0
    decay_mult: 0
  }
  param {
    lr_mult: 0
    decay_mult: 0
  }
  batch_norm_param {
    use_global_stats: false
    moving_average_fraction: 0.95
  }
}
layer {
  name: "block2_relu8"
  type: "ReLU"
  bottom: "block2_conv7_BN"
  top: "block2_conv7_BN"
  relu_param {
    negative_slope: 0
  }
}
layer {
  name: "block2_conv9"
  type: "Convolution"
  bottom: "block2_conv7_BN"
  top: "block2_conv9"
  param {
    decay_mult: 1
  }
  param {
    decay_mult: 0
  }
  convolution_param {
    num_output: 256
    pad: 0
    kernel_size: 1
    group: 1
    stride: 1
    weight_filler {
      type: "xavier"
    }
    bias_filler {
      value: 0
    }
  }
}
layer {
  name: "block2_conv9_BN"
  type: "BatchNorm"
  bottom: "block2_conv9"
  top: "block2_conv9_BN"
  param {
    lr_mult: 0
    decay_mult: 0
  }
  param {
    lr_mult: 0
    decay_mult: 0
  }
  param {
    lr_mult: 0
    decay_mult: 0
  }
  batch_norm_param {
    use_global_stats: false
    moving_average_fraction: 0.95
  }
}
layer {
  name: "block2_conv9_BN_eltwise"
  type: "Eltwise"
  bottom: "block2_conv9_BN"
  bottom: "block2_conv4"
  top: "block2_conv9_BN_eltwise"
  eltwise_param {
    operation: SUM
  }
}
layer {
  name: "block2_relu11"
  type: "ReLU"
  bottom: "block2_conv9_BN_eltwise"
  top: "block2_relu11"
  relu_param {
    negative_slope: 0
  }
}
layer {
  name: "block2_conv13"
  type: "Convolution"
  bottom: "block2_relu11"
  top: "block2_conv13"
  param {
    decay_mult: 1
  }
  param {
    decay_mult: 0
  }
  convolution_param {
    num_output: 64
    pad: 0
    kernel_size: 1
    group: 1
    stride: 1
    weight_filler {
      type: "xavier"
    }
    bias_filler {
      value: 0
    }
  }
}
layer {
  name: "block2_conv13_BN"
  type: "BatchNorm"
  bottom: "block2_conv13"
  top: "block2_conv13_BN"
  param {
    lr_mult: 0
    decay_mult: 0
  }
  param {
    lr_mult: 0
    decay_mult: 0
  }
  param {
    lr_mult: 0
    decay_mult: 0
  }
  batch_norm_param {
    use_global_stats: false
    moving_average_fraction: 0.95
  }
}
layer {
  name: "block2_relu14"
  type: "ReLU"
  bottom: "block2_conv13_BN"
  top: "block2_conv13_BN"
  relu_param {
    negative_slope: 0
  }
}
layer {
  name: "block2_conv15"
  type: "Convolution"
  bottom: "block2_conv13_BN"
  top: "block2_conv15"
  param {
    decay_mult: 1
  }
  param {
    decay_mult: 0
  }
  convolution_param {
    num_output: 64
    pad: 1
    kernel_size: 3
    group: 1
    stride: 1
    weight_filler {
      type: "xavier"
    }
    bias_filler {
      value: 0
    }
  }
}
layer {
  name: "block2_conv15_BN"
  type: "BatchNorm"
  bottom: "block2_conv15"
  top: "block2_conv15_BN"
  param {
    lr_mult: 0
    decay_mult: 0
  }
  param {
    lr_mult: 0
    decay_mult: 0
  }
  param {
    lr_mult: 0
    decay_mult: 0
  }
  batch_norm_param {
    use_global_stats: false
    moving_average_fraction: 0.95
  }
}
layer {
  name: "block2_relu16"
  type: "ReLU"
  bottom: "block2_conv15_BN"
  top: "block2_conv15_BN"
  relu_param {
    negative_slope: 0
  }
}
layer {
  name: "block2_conv17"
  type: "Convolution"
  bottom: "block2_conv15_BN"
  top: "block2_conv17"
  param {
    decay_mult: 1
  }
  param {
    decay_mult: 0
  }
  convolution_param {
    num_output: 256
    pad: 0
    kernel_size: 1
    group: 1
    stride: 1
    weight_filler {
      type: "xavier"
    }
    bias_filler {
      value: 0
    }
  }
}
layer {
  name: "block2_conv17_BN"
  type: "BatchNorm"
  bottom: "block2_conv17"
  top: "block2_conv17_BN"
  param {
    lr_mult: 0
    decay_mult: 0
  }
  param {
    lr_mult: 0
    decay_mult: 0
  }
  param {
    lr_mult: 0
    decay_mult: 0
  }
  batch_norm_param {
    use_global_stats: false
    moving_average_fraction: 0.95
  }
}
layer {
  name: "block2_conv17_BN_eltwise"
  type: "Eltwise"
  bottom: "block2_conv17_BN"
  bottom: "block2_relu11"
  top: "block2_conv17_BN_eltwise"
  eltwise_param {
    operation: SUM
  }
}
layer {
  name: "block2_relu19"
  type: "ReLU"
  bottom: "block2_conv17_BN_eltwise"
  top: "block2_relu19"
  relu_param {
    negative_slope: 0
  }
}
layer {
  name: "block2_conv21"
  type: "Convolution"
  bottom: "block2_relu19"
  top: "block2_conv21"
  param {
    decay_mult: 1
  }
  param {
    decay_mult: 0
  }
  convolution_param {
    num_output: 64
    pad: 0
    kernel_size: 1
    group: 1
    stride: 1
    weight_filler {
      type: "xavier"
    }
    bias_filler {
      value: 0
    }
  }
}
layer {
  name: "block2_conv21_BN"
  type: "BatchNorm"
  bottom: "block2_conv21"
  top: "block2_conv21_BN"
  param {
    lr_mult: 0
    decay_mult: 0
  }
  param {
    lr_mult: 0
    decay_mult: 0
  }
  param {
    lr_mult: 0
    decay_mult: 0
  }
  batch_norm_param {
    use_global_stats: false
    moving_average_fraction: 0.95
  }
}
layer {
  name: "block2_relu22"
  type: "ReLU"
  bottom: "block2_conv21_BN"
  top: "block2_conv21_BN"
  relu_param {
    negative_slope: 0
  }
}
layer {
  name: "block2_conv23"
  type: "Convolution"
  bottom: "block2_conv21_BN"
  top: "block2_conv23"
  param {
    decay_mult: 1
  }
  param {
    decay_mult: 0
  }
  convolution_param {
    num_output: 64
    pad: 1
    kernel_size: 3
    group: 1
    stride: 1
    weight_filler {
      type: "xavier"
    }
    bias_filler {
      value: 0
    }
  }
}
layer {
  name: "block2_conv23_BN"
  type: "BatchNorm"
  bottom: "block2_conv23"
  top: "block2_conv23_BN"
  param {
    lr_mult: 0
    decay_mult: 0
  }
  param {
    lr_mult: 0
    decay_mult: 0
  }
  param {
    lr_mult: 0
    decay_mult: 0
  }
  batch_norm_param {
    use_global_stats: false
    moving_average_fraction: 0.95
  }
}
layer {
  name: "block2_relu24"
  type: "ReLU"
  bottom: "block2_conv23_BN"
  top: "block2_conv23_BN"
  relu_param {
    negative_slope: 0
  }
}
layer {
  name: "block2_conv25"
  type: "Convolution"
  bottom: "block2_conv23_BN"
  top: "block2_conv25"
  param {
    decay_mult: 1
  }
  param {
    decay_mult: 0
  }
  convolution_param {
    num_output: 256
    pad: 0
    kernel_size: 1
    group: 1
    stride: 1
    weight_filler {
      type: "xavier"
    }
    bias_filler {
      value: 0
    }
  }
}
layer {
  name: "block2_conv25_BN"
  type: "BatchNorm"
  bottom: "block2_conv25"
  top: "block2_conv25_BN"
  param {
    lr_mult: 0
    decay_mult: 0
  }
  param {
    lr_mult: 0
    decay_mult: 0
  }
  param {
    lr_mult: 0
    decay_mult: 0
  }
  batch_norm_param {
    use_global_stats: false
    moving_average_fraction: 0.95
  }
}
layer {
  name: "block2_conv25_BN_eltwise"
  type: "Eltwise"
  bottom: "block2_conv25_BN"
  bottom: "block2_relu19"
  top: "block2_conv25_BN_eltwise"
  eltwise_param {
    operation: SUM
  }
}
layer {
  name: "block2_relu27"
  type: "ReLU"
  bottom: "block2_conv25_BN_eltwise"
  top: "block2_relu27"
  relu_param {
    negative_slope: 0
  }
}
layer {
  name: "block3_conv29"
  type: "Convolution"
  bottom: "block2_relu27"
  top: "block3_conv29"
  param {
    decay_mult: 1
  }
  param {
    decay_mult: 0
  }
  convolution_param {
    num_output: 512
    pad: 0
    kernel_size: 1
    group: 1
    stride: 2
    weight_filler {
      type: "xavier"
    }
    bias_filler {
      value: 0
    }
  }
}
layer {
  name: "block3_relu29"
  type: "ReLU"
  bottom: "block3_conv29"
  top: "block3_conv29"
  relu_param {
    negative_slope: 0
  }
}
layer {
  name: "block3_conv30"
  type: "Convolution"
  bottom: "block3_conv29"
  top: "block3_conv30"
  param {
    decay_mult: 1
  }
  param {
    decay_mult: 0
  }
  convolution_param {
    num_output: 128
    pad: 0
    kernel_size: 1
    group: 1
    stride: 1
    weight_filler {
      type: "xavier"
    }
    bias_filler {
      value: 0
    }
  }
}
layer {
  name: "block3_conv30_BN"
  type: "BatchNorm"
  bottom: "block3_conv30"
  top: "block3_conv30_BN"
  param {
    lr_mult: 0
    decay_mult: 0
  }
  param {
    lr_mult: 0
    decay_mult: 0
  }
  param {
    lr_mult: 0
    decay_mult: 0
  }
  batch_norm_param {
    use_global_stats: false
    moving_average_fraction: 0.95
  }
}
layer {
  name: "block3_relu31"
  type: "ReLU"
  bottom: "block3_conv30_BN"
  top: "block3_conv30_BN"
  relu_param {
    negative_slope: 0
  }
}
layer {
  name: "block3_conv32"
  type: "Convolution"
  bottom: "block3_conv30_BN"
  top: "block3_conv32"
  param {
    decay_mult: 1
  }
  param {
    decay_mult: 0
  }
  convolution_param {
    num_output: 128
    pad: 1
    kernel_size: 3
    group: 1
    stride: 1
    weight_filler {
      type: "xavier"
    }
    bias_filler {
      value: 0
    }
  }
}
layer {
  name: "block3_conv32_BN"
  type: "BatchNorm"
  bottom: "block3_conv32"
  top: "block3_conv32_BN"
  param {
    lr_mult: 0
    decay_mult: 0
  }
  param {
    lr_mult: 0
    decay_mult: 0
  }
  param {
    lr_mult: 0
    decay_mult: 0
  }
  batch_norm_param {
    use_global_stats: false
    moving_average_fraction: 0.95
  }
}
layer {
  name: "block3_relu33"
  type: "ReLU"
  bottom: "block3_conv32_BN"
  top: "block3_conv32_BN"
  relu_param {
    negative_slope: 0
  }
}
layer {
  name: "block3_conv34"
  type: "Convolution"
  bottom: "block3_conv32_BN"
  top: "block3_conv34"
  param {
    decay_mult: 1
  }
  param {
    decay_mult: 0
  }
  convolution_param {
    num_output: 512
    pad: 0
    kernel_size: 1
    group: 1
    stride: 1
    weight_filler {
      type: "xavier"
    }
    bias_filler {
      value: 0
    }
  }
}
layer {
  name: "block3_conv34_BN"
  type: "BatchNorm"
  bottom: "block3_conv34"
  top: "block3_conv34_BN"
  param {
    lr_mult: 0
    decay_mult: 0
  }
  param {
    lr_mult: 0
    decay_mult: 0
  }
  param {
    lr_mult: 0
    decay_mult: 0
  }
  batch_norm_param {
    use_global_stats: false
    moving_average_fraction: 0.95
  }
}
layer {
  name: "block3_conv34_BN_eltwise"
  type: "Eltwise"
  bottom: "block3_conv34_BN"
  bottom: "block3_conv29"
  top: "block3_conv34_BN_eltwise"
  eltwise_param {
    operation: SUM
  }
}
layer {
  name: "block3_relu36"
  type: "ReLU"
  bottom: "block3_conv34_BN_eltwise"
  top: "block3_relu36"
  relu_param {
    negative_slope: 0
  }
}
layer {
  name: "block3_conv38"
  type: "Convolution"
  bottom: "block3_relu36"
  top: "block3_conv38"
  param {
    decay_mult: 1
  }
  param {
    decay_mult: 0
  }
  convolution_param {
    num_output: 128
    pad: 0
    kernel_size: 1
    group: 1
    stride: 1
    weight_filler {
      type: "xavier"
    }
    bias_filler {
      value: 0
    }
  }
}
layer {
  name: "block3_conv38_BN"
  type: "BatchNorm"
  bottom: "block3_conv38"
  top: "block3_conv38_BN"
  param {
    lr_mult: 0
    decay_mult: 0
  }
  param {
    lr_mult: 0
    decay_mult: 0
  }
  param {
    lr_mult: 0
    decay_mult: 0
  }
  batch_norm_param {
    use_global_stats: false
    moving_average_fraction: 0.95
  }
}
layer {
  name: "block3_relu39"
  type: "ReLU"
  bottom: "block3_conv38_BN"
  top: "block3_conv38_BN"
  relu_param {
    negative_slope: 0
  }
}
layer {
  name: "block3_conv40"
  type: "Convolution"
  bottom: "block3_conv38_BN"
  top: "block3_conv40"
  param {
    decay_mult: 1
  }
  param {
    decay_mult: 0
  }
  convolution_param {
    num_output: 128
    pad: 1
    kernel_size: 3
    group: 1
    stride: 1
    weight_filler {
      type: "xavier"
    }
    bias_filler {
      value: 0
    }
  }
}
layer {
  name: "block3_conv40_BN"
  type: "BatchNorm"
  bottom: "block3_conv40"
  top: "block3_conv40_BN"
  param {
    lr_mult: 0
    decay_mult: 0
  }
  param {
    lr_mult: 0
    decay_mult: 0
  }
  param {
    lr_mult: 0
    decay_mult: 0
  }
  batch_norm_param {
    use_global_stats: false
    moving_average_fraction: 0.95
  }
}
layer {
  name: "block3_relu41"
  type: "ReLU"
  bottom: "block3_conv40_BN"
  top: "block3_conv40_BN"
  relu_param {
    negative_slope: 0
  }
}
layer {
  name: "block3_conv42"
  type: "Convolution"
  bottom: "block3_conv40_BN"
  top: "block3_conv42"
  param {
    decay_mult: 1
  }
  param {
    decay_mult: 0
  }
  convolution_param {
    num_output: 512
    pad: 0
    kernel_size: 1
    group: 1
    stride: 1
    weight_filler {
      type: "xavier"
    }
    bias_filler {
      value: 0
    }
  }
}
layer {
  name: "block3_conv42_BN"
  type: "BatchNorm"
  bottom: "block3_conv42"
  top: "block3_conv42_BN"
  param {
    lr_mult: 0
    decay_mult: 0
  }
  param {
    lr_mult: 0
    decay_mult: 0
  }
  param {
    lr_mult: 0
    decay_mult: 0
  }
  batch_norm_param {
    use_global_stats: false
    moving_average_fraction: 0.95
  }
}
layer {
  name: "block3_conv42_BN_eltwise"
  type: "Eltwise"
  bottom: "block3_conv42_BN"
  bottom: "block3_relu36"
  top: "block3_conv42_BN_eltwise"
  eltwise_param {
    operation: SUM
  }
}
layer {
  name: "block3_relu44"
  type: "ReLU"
  bottom: "block3_conv42_BN_eltwise"
  top: "block3_relu44"
  relu_param {
    negative_slope: 0
  }
}
layer {
  name: "block3_conv46"
  type: "Convolution"
  bottom: "block3_relu44"
  top: "block3_conv46"
  param {
    decay_mult: 1
  }
  param {
    decay_mult: 0
  }
  convolution_param {
    num_output: 128
    pad: 0
    kernel_size: 1
    group: 1
    stride: 1
    weight_filler {
      type: "xavier"
    }
    bias_filler {
      value: 0
    }
  }
}
layer {
  name: "block3_conv46_BN"
  type: "BatchNorm"
  bottom: "block3_conv46"
  top: "block3_conv46_BN"
  param {
    lr_mult: 0
    decay_mult: 0
  }
  param {
    lr_mult: 0
    decay_mult: 0
  }
  param {
    lr_mult: 0
    decay_mult: 0
  }
  batch_norm_param {
    use_global_stats: false
    moving_average_fraction: 0.95
  }
}
layer {
  name: "block3_relu47"
  type: "ReLU"
  bottom: "block3_conv46_BN"
  top: "block3_conv46_BN"
  relu_param {
    negative_slope: 0
  }
}
layer {
  name: "block3_conv48"
  type: "Convolution"
  bottom: "block3_conv46_BN"
  top: "block3_conv48"
  param {
    decay_mult: 1
  }
  param {
    decay_mult: 0
  }
  convolution_param {
    num_output: 128
    pad: 1
    kernel_size: 3
    group: 1
    stride: 1
    weight_filler {
      type: "xavier"
    }
    bias_filler {
      value: 0
    }
  }
}
layer {
  name: "block3_conv48_BN"
  type: "BatchNorm"
  bottom: "block3_conv48"
  top: "block3_conv48_BN"
  param {
    lr_mult: 0
    decay_mult: 0
  }
  param {
    lr_mult: 0
    decay_mult: 0
  }
  param {
    lr_mult: 0
    decay_mult: 0
  }
  batch_norm_param {
    use_global_stats: false
    moving_average_fraction: 0.95
  }
}
layer {
  name: "block3_relu49"
  type: "ReLU"
  bottom: "block3_conv48_BN"
  top: "block3_conv48_BN"
  relu_param {
    negative_slope: 0
  }
}
layer {
  name: "block3_conv50"
  type: "Convolution"
  bottom: "block3_conv48_BN"
  top: "block3_conv50"
  param {
    decay_mult: 1
  }
  param {
    decay_mult: 0
  }
  convolution_param {
    num_output: 512
    pad: 0
    kernel_size: 1
    group: 1
    stride: 1
    weight_filler {
      type: "xavier"
    }
    bias_filler {
      value: 0
    }
  }
}
layer {
  name: "block3_conv50_BN"
  type: "BatchNorm"
  bottom: "block3_conv50"
  top: "block3_conv50_BN"
  param {
    lr_mult: 0
    decay_mult: 0
  }
  param {
    lr_mult: 0
    decay_mult: 0
  }
  param {
    lr_mult: 0
    decay_mult: 0
  }
  batch_norm_param {
    use_global_stats: false
    moving_average_fraction: 0.95
  }
}
layer {
  name: "block3_conv50_BN_eltwise"
  type: "Eltwise"
  bottom: "block3_conv50_BN"
  bottom: "block3_relu44"
  top: "block3_conv50_BN_eltwise"
  eltwise_param {
    operation: SUM
  }
}
layer {
  name: "block3_relu52"
  type: "ReLU"
  bottom: "block3_conv50_BN_eltwise"
  top: "block3_relu52"
  relu_param {
    negative_slope: 0
  }
}
layer {
  name: "block3_conv54"
  type: "Convolution"
  bottom: "block3_relu52"
  top: "block3_conv54"
  param {
    decay_mult: 1
  }
  param {
    decay_mult: 0
  }
  convolution_param {
    num_output: 128
    pad: 0
    kernel_size: 1
    group: 1
    stride: 1
    weight_filler {
      type: "xavier"
    }
    bias_filler {
      value: 0
    }
  }
}
layer {
  name: "block3_conv54_BN"
  type: "BatchNorm"
  bottom: "block3_conv54"
  top: "block3_conv54_BN"
  param {
    lr_mult: 0
    decay_mult: 0
  }
  param {
    lr_mult: 0
    decay_mult: 0
  }
  param {
    lr_mult: 0
    decay_mult: 0
  }
  batch_norm_param {
    use_global_stats: false
    moving_average_fraction: 0.95
  }
}
layer {
  name: "block3_relu55"
  type: "ReLU"
  bottom: "block3_conv54_BN"
  top: "block3_conv54_BN"
  relu_param {
    negative_slope: 0
  }
}
layer {
  name: "block3_conv56"
  type: "Convolution"
  bottom: "block3_conv54_BN"
  top: "block3_conv56"
  param {
    decay_mult: 1
  }
  param {
    decay_mult: 0
  }
  convolution_param {
    num_output: 128
    pad: 1
    kernel_size: 3
    group: 1
    stride: 1
    weight_filler {
      type: "xavier"
    }
    bias_filler {
      value: 0
    }
  }
}
layer {
  name: "block3_conv56_BN"
  type: "BatchNorm"
  bottom: "block3_conv56"
  top: "block3_conv56_BN"
  param {
    lr_mult: 0
    decay_mult: 0
  }
  param {
    lr_mult: 0
    decay_mult: 0
  }
  param {
    lr_mult: 0
    decay_mult: 0
  }
  batch_norm_param {
    use_global_stats: false
    moving_average_fraction: 0.95
  }
}
layer {
  name: "block3_relu57"
  type: "ReLU"
  bottom: "block3_conv56_BN"
  top: "block3_conv56_BN"
  relu_param {
    negative_slope: 0
  }
}
layer {
  name: "block3_conv58"
  type: "Convolution"
  bottom: "block3_conv56_BN"
  top: "block3_conv58"
  param {
    decay_mult: 1
  }
  param {
    decay_mult: 0
  }
  convolution_param {
    num_output: 512
    pad: 0
    kernel_size: 1
    group: 1
    stride: 1
    weight_filler {
      type: "xavier"
    }
    bias_filler {
      value: 0
    }
  }
}
layer {
  name: "block3_conv58_BN"
  type: "BatchNorm"
  bottom: "block3_conv58"
  top: "block3_conv58_BN"
  param {
    lr_mult: 0
    decay_mult: 0
  }
  param {
    lr_mult: 0
    decay_mult: 0
  }
  param {
    lr_mult: 0
    decay_mult: 0
  }
  batch_norm_param {
    use_global_stats: false
    moving_average_fraction: 0.95
  }
}
layer {
  name: "block3_conv58_BN_eltwise"
  type: "Eltwise"
  bottom: "block3_conv58_BN"
  bottom: "block3_relu52"
  top: "block3_conv58_BN_eltwise"
  eltwise_param {
    operation: SUM
  }
}
layer {
  name: "block3_relu60"
  type: "ReLU"
  bottom: "block3_conv58_BN_eltwise"
  top: "block3_relu60"
  relu_param {
    negative_slope: 0
  }
}
layer {
  name: "block4_conv62"
  type: "Convolution"
  bottom: "block3_relu60"
  top: "block4_conv62"
  param {
    decay_mult: 1
  }
  param {
    decay_mult: 0
  }
  convolution_param {
    num_output: 1024
    pad: 0
    kernel_size: 1
    group: 1
    stride: 2
    weight_filler {
      type: "xavier"
    }
    bias_filler {
      value: 0
    }
  }
}
layer {
  name: "block4_relu62"
  type: "ReLU"
  bottom: "block4_conv62"
  top: "block4_conv62"
  relu_param {
    negative_slope: 0
  }
}
layer {
  name: "block4_conv63"
  type: "Convolution"
  bottom: "block4_conv62"
  top: "block4_conv63"
  param {
    decay_mult: 1
  }
  param {
    decay_mult: 0
  }
  convolution_param {
    num_output: 256
    pad: 0
    kernel_size: 1
    group: 1
    stride: 1
    weight_filler {
      type: "xavier"
    }
    bias_filler {
      value: 0
    }
  }
}
layer {
  name: "block4_conv63_BN"
  type: "BatchNorm"
  bottom: "block4_conv63"
  top: "block4_conv63_BN"
  param {
    lr_mult: 0
    decay_mult: 0
  }
  param {
    lr_mult: 0
    decay_mult: 0
  }
  param {
    lr_mult: 0
    decay_mult: 0
  }
  batch_norm_param {
    use_global_stats: false
    moving_average_fraction: 0.95
  }
}
layer {
  name: "block4_relu64"
  type: "ReLU"
  bottom: "block4_conv63_BN"
  top: "block4_conv63_BN"
  relu_param {
    negative_slope: 0
  }
}
layer {
  name: "block4_conv65"
  type: "Convolution"
  bottom: "block4_conv63_BN"
  top: "block4_conv65"
  param {
    decay_mult: 1
  }
  param {
    decay_mult: 0
  }
  convolution_param {
    num_output: 256
    pad: 1
    kernel_size: 3
    group: 1
    stride: 1
    weight_filler {
      type: "xavier"
    }
    bias_filler {
      value: 0
    }
  }
}
layer {
  name: "block4_conv65_BN"
  type: "BatchNorm"
  bottom: "block4_conv65"
  top: "block4_conv65_BN"
  param {
    lr_mult: 0
    decay_mult: 0
  }
  param {
    lr_mult: 0
    decay_mult: 0
  }
  param {
    lr_mult: 0
    decay_mult: 0
  }
  batch_norm_param {
    use_global_stats: false
    moving_average_fraction: 0.95
  }
}
layer {
  name: "block4_relu66"
  type: "ReLU"
  bottom: "block4_conv65_BN"
  top: "block4_conv65_BN"
  relu_param {
    negative_slope: 0
  }
}
layer {
  name: "block4_conv67"
  type: "Convolution"
  bottom: "block4_conv65_BN"
  top: "block4_conv67"
  param {
    decay_mult: 1
  }
  param {
    decay_mult: 0
  }
  convolution_param {
    num_output: 1024
    pad: 0
    kernel_size: 1
    group: 1
    stride: 1
    weight_filler {
      type: "xavier"
    }
    bias_filler {
      value: 0
    }
  }
}
layer {
  name: "block4_conv67_BN"
  type: "BatchNorm"
  bottom: "block4_conv67"
  top: "block4_conv67_BN"
  param {
    lr_mult: 0
    decay_mult: 0
  }
  param {
    lr_mult: 0
    decay_mult: 0
  }
  param {
    lr_mult: 0
    decay_mult: 0
  }
  batch_norm_param {
    use_global_stats: false
    moving_average_fraction: 0.95
  }
}
layer {
  name: "block4_conv67_BN_eltwise"
  type: "Eltwise"
  bottom: "block4_conv67_BN"
  bottom: "block4_conv62"
  top: "block4_conv67_BN_eltwise"
  eltwise_param {
    operation: SUM
  }
}
layer {
  name: "block4_relu69"
  type: "ReLU"
  bottom: "block4_conv67_BN_eltwise"
  top: "block4_relu69"
  relu_param {
    negative_slope: 0
  }
}
layer {
  name: "block4_conv71"
  type: "Convolution"
  bottom: "block4_relu69"
  top: "block4_conv71"
  param {
    decay_mult: 1
  }
  param {
    decay_mult: 0
  }
  convolution_param {
    num_output: 256
    pad: 0
    kernel_size: 1
    group: 1
    stride: 1
    weight_filler {
      type: "xavier"
    }
    bias_filler {
      value: 0
    }
  }
}
layer {
  name: "block4_conv71_BN"
  type: "BatchNorm"
  bottom: "block4_conv71"
  top: "block4_conv71_BN"
  param {
    lr_mult: 0
    decay_mult: 0
  }
  param {
    lr_mult: 0
    decay_mult: 0
  }
  param {
    lr_mult: 0
    decay_mult: 0
  }
  batch_norm_param {
    use_global_stats: false
    moving_average_fraction: 0.95
  }
}
layer {
  name: "block4_relu72"
  type: "ReLU"
  bottom: "block4_conv71_BN"
  top: "block4_conv71_BN"
  relu_param {
    negative_slope: 0
  }
}
layer {
  name: "block4_conv73"
  type: "Convolution"
  bottom: "block4_conv71_BN"
  top: "block4_conv73"
  param {
    decay_mult: 1
  }
  param {
    decay_mult: 0
  }
  convolution_param {
    num_output: 256
    pad: 1
    kernel_size: 3
    group: 1
    stride: 1
    weight_filler {
      type: "xavier"
    }
    bias_filler {
      value: 0
    }
  }
}
layer {
  name: "block4_conv73_BN"
  type: "BatchNorm"
  bottom: "block4_conv73"
  top: "block4_conv73_BN"
  param {
    lr_mult: 0
    decay_mult: 0
  }
  param {
    lr_mult: 0
    decay_mult: 0
  }
  param {
    lr_mult: 0
    decay_mult: 0
  }
  batch_norm_param {
    use_global_stats: false
    moving_average_fraction: 0.95
  }
}
layer {
  name: "block4_relu74"
  type: "ReLU"
  bottom: "block4_conv73_BN"
  top: "block4_conv73_BN"
  relu_param {
    negative_slope: 0
  }
}
layer {
  name: "block4_conv75"
  type: "Convolution"
  bottom: "block4_conv73_BN"
  top: "block4_conv75"
  param {
    decay_mult: 1
  }
  param {
    decay_mult: 0
  }
  convolution_param {
    num_output: 1024
    pad: 0
    kernel_size: 1
    group: 1
    stride: 1
    weight_filler {
      type: "xavier"
    }
    bias_filler {
      value: 0
    }
  }
}
layer {
  name: "block4_conv75_BN"
  type: "BatchNorm"
  bottom: "block4_conv75"
  top: "block4_conv75_BN"
  param {
    lr_mult: 0
    decay_mult: 0
  }
  param {
    lr_mult: 0
    decay_mult: 0
  }
  param {
    lr_mult: 0
    decay_mult: 0
  }
  batch_norm_param {
    use_global_stats: false
    moving_average_fraction: 0.95
  }
}
layer {
  name: "block4_conv75_BN_eltwise"
  type: "Eltwise"
  bottom: "block4_conv75_BN"
  bottom: "block4_relu69"
  top: "block4_conv75_BN_eltwise"
  eltwise_param {
    operation: SUM
  }
}
layer {
  name: "block4_relu77"
  type: "ReLU"
  bottom: "block4_conv75_BN_eltwise"
  top: "block4_relu77"
  relu_param {
    negative_slope: 0
  }
}
layer {
  name: "block4_conv79"
  type: "Convolution"
  bottom: "block4_relu77"
  top: "block4_conv79"
  param {
    decay_mult: 1
  }
  param {
    decay_mult: 0
  }
  convolution_param {
    num_output: 256
    pad: 0
    kernel_size: 1
    group: 1
    stride: 1
    weight_filler {
      type: "xavier"
    }
    bias_filler {
      value: 0
    }
  }
}
layer {
  name: "block4_conv79_BN"
  type: "BatchNorm"
  bottom: "block4_conv79"
  top: "block4_conv79_BN"
  param {
    lr_mult: 0
    decay_mult: 0
  }
  param {
    lr_mult: 0
    decay_mult: 0
  }
  param {
    lr_mult: 0
    decay_mult: 0
  }
  batch_norm_param {
    use_global_stats: false
    moving_average_fraction: 0.95
  }
}
layer {
  name: "block4_relu80"
  type: "ReLU"
  bottom: "block4_conv79_BN"
  top: "block4_conv79_BN"
  relu_param {
    negative_slope: 0
  }
}
layer {
  name: "block4_conv81"
  type: "Convolution"
  bottom: "block4_conv79_BN"
  top: "block4_conv81"
  param {
    decay_mult: 1
  }
  param {
    decay_mult: 0
  }
  convolution_param {
    num_output: 256
    pad: 1
    kernel_size: 3
    group: 1
    stride: 1
    weight_filler {
      type: "xavier"
    }
    bias_filler {
      value: 0
    }
  }
}
layer {
  name: "block4_conv81_BN"
  type: "BatchNorm"
  bottom: "block4_conv81"
  top: "block4_conv81_BN"
  param {
    lr_mult: 0
    decay_mult: 0
  }
  param {
    lr_mult: 0
    decay_mult: 0
  }
  param {
    lr_mult: 0
    decay_mult: 0
  }
  batch_norm_param {
    use_global_stats: false
    moving_average_fraction: 0.95
  }
}
layer {
  name: "block4_relu82"
  type: "ReLU"
  bottom: "block4_conv81_BN"
  top: "block4_conv81_BN"
  relu_param {
    negative_slope: 0
  }
}
layer {
  name: "block4_conv83"
  type: "Convolution"
  bottom: "block4_conv81_BN"
  top: "block4_conv83"
  param {
    decay_mult: 1
  }
  param {
    decay_mult: 0
  }
  convolution_param {
    num_output: 1024
    pad: 0
    kernel_size: 1
    group: 1
    stride: 1
    weight_filler {
      type: "xavier"
    }
    bias_filler {
      value: 0
    }
  }
}
layer {
…
I0206 00:21:10.138535  3521 net.cpp:411] block3_conv50_BN -> block3_conv50_BN
I0206 00:21:10.138682  3521 net.cpp:150] Setting up block3_conv50_BN
I0206 00:21:10.138687  3521 net.cpp:157] Top shape: 50 512 8 8 (1638400)
I0206 00:21:10.138690  3521 net.cpp:165] Memory required for data: 593933400
I0206 00:21:10.138696  3521 layer_factory.hpp:76] Creating layer block3_conv50_BN_eltwise
I0206 00:21:10.138701  3521 net.cpp:106] Creating Layer block3_conv50_BN_eltwise
I0206 00:21:10.138705  3521 net.cpp:454] block3_conv50_BN_eltwise <- block3_conv50_BN
I0206 00:21:10.138710  3521 net.cpp:454] block3_conv50_BN_eltwise <- block3_relu44_block3_relu44_0_split_1
I0206 00:21:10.138715  3521 net.cpp:411] block3_conv50_BN_eltwise -> block3_conv50_BN_eltwise
I0206 00:21:10.138730  3521 net.cpp:150] Setting up block3_conv50_BN_eltwise
I0206 00:21:10.138733  3521 net.cpp:157] Top shape: 50 512 8 8 (1638400)
I0206 00:21:10.138736  3521 net.cpp:165] Memory required for data: 600487000
I0206 00:21:10.138739  3521 layer_factory.hpp:76] Creating layer block3_relu52
I0206 00:21:10.138746  3521 net.cpp:106] Creating Layer block3_relu52
I0206 00:21:10.138758  3521 net.cpp:454] block3_relu52 <- block3_conv50_BN_eltwise
I0206 00:21:10.138763  3521 net.cpp:411] block3_relu52 -> block3_relu52
I0206 00:21:10.138916  3521 net.cpp:150] Setting up block3_relu52
I0206 00:21:10.138921  3521 net.cpp:157] Top shape: 50 512 8 8 (1638400)
I0206 00:21:10.138924  3521 net.cpp:165] Memory required for data: 607040600
I0206 00:21:10.138928  3521 layer_factory.hpp:76] Creating layer block3_relu52_block3_relu52_0_split
I0206 00:21:10.138933  3521 net.cpp:106] Creating Layer block3_relu52_block3_relu52_0_split
I0206 00:21:10.138936  3521 net.cpp:454] block3_relu52_block3_relu52_0_split <- block3_relu52
I0206 00:21:10.138942  3521 net.cpp:411] block3_relu52_block3_relu52_0_split -> block3_relu52_block3_relu52_0_split_0
I0206 00:21:10.138947  3521 net.cpp:411] block3_relu52_block3_relu52_0_split -> block3_relu52_block3_relu52_0_split_1
I0206 00:21:10.138973  3521 net.cpp:150] Setting up block3_relu52_block3_relu52_0_split
I0206 00:21:10.138988  3521 net.cpp:157] Top shape: 50 512 8 8 (1638400)
I0206 00:21:10.138991  3521 net.cpp:157] Top shape: 50 512 8 8 (1638400)
I0206 00:21:10.138994  3521 net.cpp:165] Memory required for data: 620147800
I0206 00:21:10.138998  3521 layer_factory.hpp:76] Creating layer block3_conv54
I0206 00:21:10.139003  3521 net.cpp:106] Creating Layer block3_conv54
I0206 00:21:10.139006  3521 net.cpp:454] block3_conv54 <- block3_relu52_block3_relu52_0_split_0
I0206 00:21:10.139013  3521 net.cpp:411] block3_conv54 -> block3_conv54
I0206 00:21:10.140105  3521 net.cpp:150] Setting up block3_conv54
I0206 00:21:10.140115  3521 net.cpp:157] Top shape: 50 128 8 8 (409600)
I0206 00:21:10.140117  3521 net.cpp:165] Memory required for data: 621786200
I0206 00:21:10.140122  3521 layer_factory.hpp:76] Creating layer block3_conv54_BN
I0206 00:21:10.140130  3521 net.cpp:106] Creating Layer block3_conv54_BN
I0206 00:21:10.140133  3521 net.cpp:454] block3_conv54_BN <- block3_conv54
I0206 00:21:10.140138  3521 net.cpp:411] block3_conv54_BN -> block3_conv54_BN
I0206 00:21:10.140272  3521 net.cpp:150] Setting up block3_conv54_BN
I0206 00:21:10.140277  3521 net.cpp:157] Top shape: 50 128 8 8 (409600)
I0206 00:21:10.140280  3521 net.cpp:165] Memory required for data: 623424600
I0206 00:21:10.140285  3521 layer_factory.hpp:76] Creating layer block3_relu55
I0206 00:21:10.140290  3521 net.cpp:106] Creating Layer block3_relu55
I0206 00:21:10.140295  3521 net.cpp:454] block3_relu55 <- block3_conv54_BN
I0206 00:21:10.140298  3521 net.cpp:397] block3_relu55 -> block3_conv54_BN (in-place)
I0206 00:21:10.140523  3521 net.cpp:150] Setting up block3_relu55
I0206 00:21:10.140532  3521 net.cpp:157] Top shape: 50 128 8 8 (409600)
I0206 00:21:10.140535  3521 net.cpp:165] Memory required for data: 625063000
I0206 00:21:10.140539  3521 layer_factory.hpp:76] Creating layer block3_conv56
I0206 00:21:10.140545  3521 net.cpp:106] Creating Layer block3_conv56
I0206 00:21:10.140548  3521 net.cpp:454] block3_conv56 <- block3_conv54_BN
I0206 00:21:10.140554  3521 net.cpp:411] block3_conv56 -> block3_conv56
I0206 00:21:10.142102  3521 net.cpp:150] Setting up block3_conv56
I0206 00:21:10.142112  3521 net.cpp:157] Top shape: 50 128 8 8 (409600)
I0206 00:21:10.142117  3521 net.cpp:165] Memory required for data: 626701400
I0206 00:21:10.142122  3521 layer_factory.hpp:76] Creating layer block3_conv56_BN
I0206 00:21:10.142127  3521 net.cpp:106] Creating Layer block3_conv56_BN
I0206 00:21:10.142130  3521 net.cpp:454] block3_conv56_BN <- block3_conv56
I0206 00:21:10.142137  3521 net.cpp:411] block3_conv56_BN -> block3_conv56_BN
I0206 00:21:10.142277  3521 net.cpp:150] Setting up block3_conv56_BN
I0206 00:21:10.142282  3521 net.cpp:157] Top shape: 50 128 8 8 (409600)
I0206 00:21:10.142285  3521 net.cpp:165] Memory required for data: 628339800
I0206 00:21:10.142290  3521 layer_factory.hpp:76] Creating layer block3_relu57
I0206 00:21:10.142295  3521 net.cpp:106] Creating Layer block3_relu57
I0206 00:21:10.142299  3521 net.cpp:454] block3_relu57 <- block3_conv56_BN
I0206 00:21:10.142304  3521 net.cpp:397] block3_relu57 -> block3_conv56_BN (in-place)
I0206 00:21:10.142526  3521 net.cpp:150] Setting up block3_relu57
I0206 00:21:10.142534  3521 net.cpp:157] Top shape: 50 128 8 8 (409600)
I0206 00:21:10.142537  3521 net.cpp:165] Memory required for data: 629978200
I0206 00:21:10.142540  3521 layer_factory.hpp:76] Creating layer block3_conv58
I0206 00:21:10.142547  3521 net.cpp:106] Creating Layer block3_conv58
I0206 00:21:10.142551  3521 net.cpp:454] block3_conv58 <- block3_conv56_BN
I0206 00:21:10.142557  3521 net.cpp:411] block3_conv58 -> block3_conv58
I0206 00:21:10.143754  3521 net.cpp:150] Setting up block3_conv58
I0206 00:21:10.143762  3521 net.cpp:157] Top shape: 50 512 8 8 (1638400)
I0206 00:21:10.143765  3521 net.cpp:165] Memory required for data: 636531800
I0206 00:21:10.143771  3521 layer_factory.hpp:76] Creating layer block3_conv58_BN
I0206 00:21:10.143779  3521 net.cpp:106] Creating Layer block3_conv58_BN
I0206 00:21:10.143790  3521 net.cpp:454] block3_conv58_BN <- block3_conv58
I0206 00:21:10.143796  3521 net.cpp:411] block3_conv58_BN -> block3_conv58_BN
I0206 00:21:10.144052  3521 net.cpp:150] Setting up block3_conv58_BN
I0206 00:21:10.144059  3521 net.cpp:157] Top shape: 50 512 8 8 (1638400)
I0206 00:21:10.144073  3521 net.cpp:165] Memory required for data: 643085400
I0206 00:21:10.144098  3521 layer_factory.hpp:76] Creating layer block3_conv58_BN_eltwise
I0206 00:21:10.144129  3521 net.cpp:106] Creating Layer block3_conv58_BN_eltwise
I0206 00:21:10.144134  3521 net.cpp:454] block3_conv58_BN_eltwise <- block3_conv58_BN
I0206 00:21:10.144137  3521 net.cpp:454] block3_conv58_BN_eltwise <- block3_relu52_block3_relu52_0_split_1
I0206 00:21:10.144142  3521 net.cpp:411] block3_conv58_BN_eltwise -> block3_conv58_BN_eltwise
I0206 00:21:10.144165  3521 net.cpp:150] Setting up block3_conv58_BN_eltwise
I0206 00:21:10.144171  3521 net.cpp:157] Top shape: 50 512 8 8 (1638400)
I0206 00:21:10.144186  3521 net.cpp:165] Memory required for data: 649639000
I0206 00:21:10.144201  3521 layer_factory.hpp:76] Creating layer block3_relu60
I0206 00:21:10.144210  3521 net.cpp:106] Creating Layer block3_relu60
I0206 00:21:10.144217  3521 net.cpp:454] block3_relu60 <- block3_conv58_BN_eltwise
I0206 00:21:10.144222  3521 net.cpp:411] block3_relu60 -> block3_relu60
I0206 00:21:10.144426  3521 net.cpp:150] Setting up block3_relu60
I0206 00:21:10.144433  3521 net.cpp:157] Top shape: 50 512 8 8 (1638400)
I0206 00:21:10.144436  3521 net.cpp:165] Memory required for data: 656192600
I0206 00:21:10.144439  3521 layer_factory.hpp:76] Creating layer block4_conv62
I0206 00:21:10.144446  3521 net.cpp:106] Creating Layer block4_conv62
I0206 00:21:10.144449  3521 net.cpp:454] block4_conv62 <- block3_relu60
I0206 00:21:10.144454  3521 net.cpp:411] block4_conv62 -> block4_conv62
I0206 00:21:10.148638  3521 net.cpp:150] Setting up block4_conv62
I0206 00:21:10.148653  3521 net.cpp:157] Top shape: 50 1024 4 4 (819200)
I0206 00:21:10.148656  3521 net.cpp:165] Memory required for data: 659469400
I0206 00:21:10.148663  3521 layer_factory.hpp:76] Creating layer block4_relu62
I0206 00:21:10.148670  3521 net.cpp:106] Creating Layer block4_relu62
I0206 00:21:10.148769  3521 net.cpp:454] block4_relu62 <- block4_conv62
I0206 00:21:10.148777  3521 net.cpp:397] block4_relu62 -> block4_conv62 (in-place)
I0206 00:21:10.149049  3521 net.cpp:150] Setting up block4_relu62
I0206 00:21:10.149058  3521 net.cpp:157] Top shape: 50 1024 4 4 (819200)
I0206 00:21:10.149061  3521 net.cpp:165] Memory required for data: 662746200
I0206 00:21:10.149065  3521 layer_factory.hpp:76] Creating layer block4_conv62_block4_relu62_0_split
I0206 00:21:10.149070  3521 net.cpp:106] Creating Layer block4_conv62_block4_relu62_0_split
I0206 00:21:10.149073  3521 net.cpp:454] block4_conv62_block4_relu62_0_split <- block4_conv62
I0206 00:21:10.149078  3521 net.cpp:411] block4_conv62_block4_relu62_0_split -> block4_conv62_block4_relu62_0_split_0
I0206 00:21:10.149085  3521 net.cpp:411] block4_conv62_block4_relu62_0_split -> block4_conv62_block4_relu62_0_split_1
I0206 00:21:10.149118  3521 net.cpp:150] Setting up block4_conv62_block4_relu62_0_split
I0206 00:21:10.149123  3521 net.cpp:157] Top shape: 50 1024 4 4 (819200)
I0206 00:21:10.149127  3521 net.cpp:157] Top shape: 50 1024 4 4 (819200)
I0206 00:21:10.149129  3521 net.cpp:165] Memory required for data: 669299800
I0206 00:21:10.149132  3521 layer_factory.hpp:76] Creating layer block4_conv63
I0206 00:21:10.149140  3521 net.cpp:106] Creating Layer block4_conv63
I0206 00:21:10.149143  3521 net.cpp:454] block4_conv63 <- block4_conv62_block4_relu62_0_split_0
I0206 00:21:10.149148  3521 net.cpp:411] block4_conv63 -> block4_conv63
I0206 00:21:10.151232  3521 net.cpp:150] Setting up block4_conv63
I0206 00:21:10.151242  3521 net.cpp:157] Top shape: 50 256 4 4 (204800)
I0206 00:21:10.151244  3521 net.cpp:165] Memory required for data: 670119000
I0206 00:21:10.151250  3521 layer_factory.hpp:76] Creating layer block4_conv63_BN
I0206 00:21:10.151257  3521 net.cpp:106] Creating Layer block4_conv63_BN
I0206 00:21:10.151273  3521 net.cpp:454] block4_conv63_BN <- block4_conv63
I0206 00:21:10.151278  3521 net.cpp:411] block4_conv63_BN -> block4_conv63_BN
I0206 00:21:10.151422  3521 net.cpp:150] Setting up block4_conv63_BN
I0206 00:21:10.151427  3521 net.cpp:157] Top shape: 50 256 4 4 (204800)
I0206 00:21:10.151429  3521 net.cpp:165] Memory required for data: 670938200
I0206 00:21:10.151435  3521 layer_factory.hpp:76] Creating layer block4_relu64
I0206 00:21:10.151440  3521 net.cpp:106] Creating Layer block4_relu64
I0206 00:21:10.151444  3521 net.cpp:454] block4_relu64 <- block4_conv63_BN
I0206 00:21:10.151448  3521 net.cpp:397] block4_relu64 -> block4_conv63_BN (in-place)
I0206 00:21:10.151675  3521 net.cpp:150] Setting up block4_relu64
I0206 00:21:10.151684  3521 net.cpp:157] Top shape: 50 256 4 4 (204800)
I0206 00:21:10.151687  3521 net.cpp:165] Memory required for data: 671757400
I0206 00:21:10.151691  3521 layer_factory.hpp:76] Creating layer block4_conv65
I0206 00:21:10.151697  3521 net.cpp:106] Creating Layer block4_conv65
I0206 00:21:10.151701  3521 net.cpp:454] block4_conv65 <- block4_conv63_BN
I0206 00:21:10.151707  3521 net.cpp:411] block4_conv65 -> block4_conv65
I0206 00:21:10.155741  3521 net.cpp:150] Setting up block4_conv65
I0206 00:21:10.155751  3521 net.cpp:157] Top shape: 50 256 4 4 (204800)
I0206 00:21:10.155755  3521 net.cpp:165] Memory required for data: 672576600
I0206 00:21:10.155761  3521 layer_factory.hpp:76] Creating layer block4_conv65_BN
I0206 00:21:10.155767  3521 net.cpp:106] Creating Layer block4_conv65_BN
I0206 00:21:10.155771  3521 net.cpp:454] block4_conv65_BN <- block4_conv65
I0206 00:21:10.155776  3521 net.cpp:411] block4_conv65_BN -> block4_conv65_BN
I0206 00:21:10.155920  3521 net.cpp:150] Setting up block4_conv65_BN
I0206 00:21:10.155925  3521 net.cpp:157] Top shape: 50 256 4 4 (204800)
I0206 00:21:10.155928  3521 net.cpp:165] Memory required for data: 673395800
I0206 00:21:10.155935  3521 layer_factory.hpp:76] Creating layer block4_relu66
I0206 00:21:10.155941  3521 net.cpp:106] Creating Layer block4_relu66
I0206 00:21:10.155943  3521 net.cpp:454] block4_relu66 <- block4_conv65_BN
I0206 00:21:10.155947  3521 net.cpp:397] block4_relu66 -> block4_conv65_BN (in-place)
I0206 00:21:10.156085  3521 net.cpp:150] Setting up block4_relu66
I0206 00:21:10.156091  3521 net.cpp:157] Top shape: 50 256 4 4 (204800)
I0206 00:21:10.156095  3521 net.cpp:165] Memory required for data: 674215000
I0206 00:21:10.156097  3521 layer_factory.hpp:76] Creating layer block4_conv67
I0206 00:21:10.156105  3521 net.cpp:106] Creating Layer block4_conv67
I0206 00:21:10.156108  3521 net.cpp:454] block4_conv67 <- block4_conv65_BN
I0206 00:21:10.156113  3521 net.cpp:411] block4_conv67 -> block4_conv67
I0206 00:21:10.158257  3521 net.cpp:150] Setting up block4_conv67
I0206 00:21:10.158267  3521 net.cpp:157] Top shape: 50 1024 4 4 (819200)
I0206 00:21:10.158270  3521 net.cpp:165] Memory required for data: 677491800
I0206 00:21:10.158275  3521 layer_factory.hpp:76] Creating layer block4_conv67_BN
I0206 00:21:10.158282  3521 net.cpp:106] Creating Layer block4_conv67_BN
I0206 00:21:10.158287  3521 net.cpp:454] block4_conv67_BN <- block4_conv67
I0206 00:21:10.158291  3521 net.cpp:411] block4_conv67_BN -> block4_conv67_BN
I0206 00:21:10.158445  3521 net.cpp:150] Setting up block4_conv67_BN
I0206 00:21:10.158452  3521 net.cpp:157] Top shape: 50 1024 4 4 (819200)
I0206 00:21:10.158453  3521 net.cpp:165] Memory required for data: 680768600
I0206 00:21:10.158473  3521 layer_factory.hpp:76] Creating layer block4_conv67_BN_eltwise
I0206 00:21:10.158479  3521 net.cpp:106] Creating Layer block4_conv67_BN_eltwise
I0206 00:21:10.158483  3521 net.cpp:454] block4_conv67_BN_eltwise <- block4_conv67_BN
I0206 00:21:10.158486  3521 net.cpp:454] block4_conv67_BN_eltwise <- block4_conv62_block4_relu62_0_split_1
I0206 00:21:10.158491  3521 net.cpp:411] block4_conv67_BN_eltwise -> block4_conv67_BN_eltwise
I0206 00:21:10.158510  3521 net.cpp:150] Setting up block4_conv67_BN_eltwise
I0206 00:21:10.158515  3521 net.cpp:157] Top shape: 50 1024 4 4 (819200)
I0206 00:21:10.158529  3521 net.cpp:165] Memory required for data: 684045400
I0206 00:21:10.158532  3521 layer_factory.hpp:76] Creating layer block4_relu69
I0206 00:21:10.158537  3521 net.cpp:106] Creating Layer block4_relu69
I0206 00:21:10.158540  3521 net.cpp:454] block4_relu69 <- block4_conv67_BN_eltwise
I0206 00:21:10.158545  3521 net.cpp:411] block4_relu69 -> block4_relu69
I0206 00:21:10.158790  3521 net.cpp:150] Setting up block4_relu69
I0206 00:21:10.158798  3521 net.cpp:157] Top shape: 50 1024 4 4 (819200)
I0206 00:21:10.158802  3521 net.cpp:165] Memory required for data: 687322200
I0206 00:21:10.158804  3521 layer_factory.hpp:76] Creating layer block4_relu69_block4_relu69_0_split
I0206 00:21:10.158810  3521 net.cpp:106] Creating Layer block4_relu69_block4_relu69_0_split
I0206 00:21:10.158814  3521 net.cpp:454] block4_relu69_block4_relu69_0_split <- block4_relu69
I0206 00:21:10.158818  3521 net.cpp:411] block4_relu69_block4_relu69_0_split -> block4_relu69_block4_relu69_0_split_0
I0206 00:21:10.158826  3521 net.cpp:411] block4_relu69_block4_relu69_0_split -> block4_relu69_block4_relu69_0_split_1
I0206 00:21:10.158855  3521 net.cpp:150] Setting up block4_relu69_block4_relu69_0_split
I0206 00:21:10.158860  3521 net.cpp:157] Top shape: 50 1024 4 4 (819200)
I0206 00:21:10.158864  3521 net.cpp:157] Top shape: 50 1024 4 4 (819200)
I0206 00:21:10.158866  3521 net.cpp:165] Memory required for data: 693875800
I0206 00:21:10.158869  3521 layer_factory.hpp:76] Creating layer block4_conv71
I0206 00:21:10.158876  3521 net.cpp:106] Creating Layer block4_conv71
I0206 00:21:10.158879  3521 net.cpp:454] block4_conv71 <- block4_relu69_block4_relu69_0_split_0
I0206 00:21:10.158885  3521 net.cpp:411] block4_conv71 -> block4_conv71
I0206 00:21:10.160949  3521 net.cpp:150] Setting up block4_conv71
I0206 00:21:10.160959  3521 net.cpp:157] Top shape: 50 256 4 4 (204800)
I0206 00:21:10.160962  3521 net.cpp:165] Memory required for data: 694695000
I0206 00:21:10.160967  3521 layer_factory.hpp:76] Creating layer block4_conv71_BN
I0206 00:21:10.160974  3521 net.cpp:106] Creating Layer block4_conv71_BN
I0206 00:21:10.160979  3521 net.cpp:454] block4_conv71_BN <- block4_conv71
I0206 00:21:10.160984  3521 net.cpp:411] block4_conv71_BN -> block4_conv71_BN
I0206 00:21:10.161124  3521 net.cpp:150] Setting up block4_conv71_BN
I0206 00:21:10.161129  3521 net.cpp:157] Top shape: 50 256 4 4 (204800)
I0206 00:21:10.161133  3521 net.cpp:165] Memory required for data: 695514200
I0206 00:21:10.161137  3521 layer_factory.hpp:76] Creating layer block4_relu72
I0206 00:21:10.161142  3521 net.cpp:106] Creating Layer block4_relu72
I0206 00:21:10.161146  3521 net.cpp:454] block4_relu72 <- block4_conv71_BN
I0206 00:21:10.161150  3521 net.cpp:397] block4_relu72 -> block4_conv71_BN (in-place)
I0206 00:21:10.161380  3521 net.cpp:150] Setting up block4_relu72
I0206 00:21:10.161387  3521 net.cpp:157] Top shape: 50 256 4 4 (204800)
I0206 00:21:10.161391  3521 net.cpp:165] Memory required for data: 696333400
I0206 00:21:10.161393  3521 layer_factory.hpp:76] Creating layer block4_conv73
I0206 00:21:10.161401  3521 net.cpp:106] Creating Layer block4_conv73
I0206 00:21:10.161403  3521 net.cpp:454] block4_conv73 <- block4_conv71_BN
I0206 00:21:10.161409  3521 net.cpp:411] block4_conv73 -> block4_conv73
I0206 00:21:10.165129  3521 net.cpp:150] Setting up block4_conv73
I0206 00:21:10.165139  3521 net.cpp:157] Top shape: 50 256 4 4 (204800)
I0206 00:21:10.165143  3521 net.cpp:165] Memory required for data: 697152600
I0206 00:21:10.165148  3521 layer_factory.hpp:76] Creating layer block4_conv73_BN
I0206 00:21:10.165154  3521 net.cpp:106] Creating Layer block4_conv73_BN
I0206 00:21:10.165158  3521 net.cpp:454] block4_conv73_BN <- block4_conv73
I0206 00:21:10.165163  3521 net.cpp:411] block4_conv73_BN -> block4_conv73_BN
I0206 00:21:10.165308  3521 net.cpp:150] Setting up block4_conv73_BN
I0206 00:21:10.165314  3521 net.cpp:157] Top shape: 50 256 4 4 (204800)
I0206 00:21:10.165318  3521 net.cpp:165] Memory required for data: 697971800
I0206 00:21:10.165323  3521 layer_factory.hpp:76] Creating layer block4_relu74
I0206 00:21:10.165338  3521 net.cpp:106] Creating Layer block4_relu74
I0206 00:21:10.165343  3521 net.cpp:454] block4_relu74 <- block4_conv73_BN
I0206 00:21:10.165348  3521 net.cpp:397] block4_relu74 -> block4_conv73_BN (in-place)
I0206 00:21:10.165491  3521 net.cpp:150] Setting up block4_relu74
I0206 00:21:10.165498  3521 net.cpp:157] Top shape: 50 256 4 4 (204800)
I0206 00:21:10.165500  3521 net.cpp:165] Memory required for data: 698791000
I0206 00:21:10.165504  3521 layer_factory.hpp:76] Creating layer block4_conv75
I0206 00:21:10.165511  3521 net.cpp:106] Creating Layer block4_conv75
I0206 00:21:10.165515  3521 net.cpp:454] block4_conv75 <- block4_conv73_BN
I0206 00:21:10.165521  3521 net.cpp:411] block4_conv75 -> block4_conv75
I0206 00:21:10.167685  3521 net.cpp:150] Setting up block4_conv75
I0206 00:21:10.167695  3521 net.cpp:157] Top shape: 50 1024 4 4 (819200)
I0206 00:21:10.167698  3521 net.cpp:165] Memory required for data: 702067800
I0206 00:21:10.167703  3521 layer_factory.hpp:76] Creating layer block4_conv75_BN
I0206 00:21:10.167709  3521 net.cpp:106] Creating Layer block4_conv75_BN
I0206 00:21:10.167713  3521 net.cpp:454] block4_conv75_BN <- block4_conv75
I0206 00:21:10.167719  3521 net.cpp:411] block4_conv75_BN -> block4_conv75_BN
I0206 00:21:10.167886  3521 net.cpp:150] Setting up block4_conv75_BN
I0206 00:21:10.167892  3521 net.cpp:157] Top shape: 50 1024 4 4 (819200)
I0206 00:21:10.167896  3521 net.cpp:165] Memory required for data: 705344600
I0206 00:21:10.167901  3521 layer_factory.hpp:76] Creating layer block4_conv75_BN_eltwise
I0206 00:21:10.167906  3521 net.cpp:106] Creating Layer block4_conv75_BN_eltwise
I0206 00:21:10.167909  3521 net.cpp:454] block4_conv75_BN_eltwise <- block4_conv75_BN
I0206 00:21:10.167915  3521 net.cpp:454] block4_conv75_BN_eltwise <- block4_relu69_block4_relu69_0_split_1
I0206 00:21:10.167920  3521 net.cpp:411] block4_conv75_BN_eltwise -> block4_conv75_BN_eltwise
I0206 00:21:10.167938  3521 net.cpp:150] Setting up block4_conv75_BN_eltwise
I0206 00:21:10.167943  3521 net.cpp:157] Top shape: 50 1024 4 4 (819200)
I0206 00:21:10.167945  3521 net.cpp:165] Memory required for data: 708621400
I0206 00:21:10.167948  3521 layer_factory.hpp:76] Creating layer block4_relu77
I0206 00:21:10.167953  3521 net.cpp:106] Creating Layer block4_relu77
I0206 00:21:10.167956  3521 net.cpp:454] block4_relu77 <- block4_conv75_BN_eltwise
I0206 00:21:10.167961  3521 net.cpp:411] block4_relu77 -> block4_relu77
I0206 00:21:10.168205  3521 net.cpp:150] Setting up block4_relu77
I0206 00:21:10.168215  3521 net.cpp:157] Top shape: 50 1024 4 4 (819200)
I0206 00:21:10.168217  3521 net.cpp:165] Memory required for data: 711898200
I0206 00:21:10.168220  3521 layer_factory.hpp:76] Creating layer block4_relu77_block4_relu77_0_split
I0206 00:21:10.168226  3521 net.cpp:106] Creating Layer block4_relu77_block4_relu77_0_split
I0206 00:21:10.168228  3521 net.cpp:454] block4_relu77_block4_relu77_0_split <- block4_relu77
I0206 00:21:10.168234  3521 net.cpp:411] block4_relu77_block4_relu77_0_split -> block4_relu77_block4_relu77_0_split_0
I0206 00:21:10.168239  3521 net.cpp:411] block4_relu77_block4_relu77_0_split -> block4_relu77_block4_relu77_0_split_1
I0206 00:21:10.168267  3521 net.cpp:150] Setting up block4_relu77_block4_relu77_0_split
I0206 00:21:10.168270  3521 net.cpp:157] Top shape: 50 1024 4 4 (819200)
I0206 00:21:10.168277  3521 net.cpp:157] Top shape: 50 1024 4 4 (819200)
I0206 00:21:10.168278  3521 net.cpp:165] Memory required for data: 718451800
I0206 00:21:10.168282  3521 layer_factory.hpp:76] Creating layer block4_conv79
I0206 00:21:10.168288  3521 net.cpp:106] Creating Layer block4_conv79
I0206 00:21:10.168292  3521 net.cpp:454] block4_conv79 <- block4_relu77_block4_relu77_0_split_0
I0206 00:21:10.168297  3521 net.cpp:411] block4_conv79 -> block4_conv79
I0206 00:21:10.170409  3521 net.cpp:150] Setting up block4_conv79
I0206 00:21:10.170419  3521 net.cpp:157] Top shape: 50 256 4 4 (204800)
I0206 00:21:10.170423  3521 net.cpp:165] Memory required for data: 719271000
I0206 00:21:10.170438  3521 layer_factory.hpp:76] Creating layer block4_conv79_BN
I0206 00:21:10.170444  3521 net.cpp:106] Creating Layer block4_conv79_BN
I0206 00:21:10.170447  3521 net.cpp:454] block4_conv79_BN <- block4_conv79
I0206 00:21:10.170454  3521 net.cpp:411] block4_conv79_BN -> block4_conv79_BN
I0206 00:21:10.170598  3521 net.cpp:150] Setting up block4_conv79_BN
I0206 00:21:10.170603  3521 net.cpp:157] Top shape: 50 256 4 4 (204800)
I0206 00:21:10.170606  3521 net.cpp:165] Memory required for data: 720090200
I0206 00:21:10.170613  3521 layer_factory.hpp:76] Creating layer block4_relu80
I0206 00:21:10.170619  3521 net.cpp:106] Creating Layer block4_relu80
I0206 00:21:10.170621  3521 net.cpp:454] block4_relu80 <- block4_conv79_BN
I0206 00:21:10.170626  3521 net.cpp:397] block4_relu80 -> block4_conv79_BN (in-place)
I0206 00:21:10.170856  3521 net.cpp:150] Setting up block4_relu80
I0206 00:21:10.170864  3521 net.cpp:157] Top shape: 50 256 4 4 (204800)
I0206 00:21:10.170867  3521 net.cpp:165] Memory required for data: 720909400
I0206 00:21:10.170871  3521 layer_factory.hpp:76] Creating layer block4_conv81
I0206 00:21:10.170877  3521 net.cpp:106] Creating Layer block4_conv81
I0206 00:21:10.170881  3521 net.cpp:454] block4_conv81 <- block4_conv79_BN
I0206 00:21:10.170887  3521 net.cpp:411] block4_conv81 -> block4_conv81
I0206 00:21:10.174909  3521 net.cpp:150] Setting up block4_conv81
I0206 00:21:10.174921  3521 net.cpp:157] Top shape: 50 256 4 4 (204800)
I0206 00:21:10.174924  3521 net.cpp:165] Memory required for data: 721728600
I0206 00:21:10.174931  3521 layer_factory.hpp:76] Creating layer block4_conv81_BN
I0206 00:21:10.174938  3521 net.cpp:106] Creating Layer block4_conv81_BN
I0206 00:21:10.174943  3521 net.cpp:454] block4_conv81_BN <- block4_conv81
I0206 00:21:10.174949  3521 net.cpp:411] block4_conv81_BN -> block4_conv81_BN
I0206 00:21:10.175101  3521 net.cpp:150] Setting up block4_conv81_BN
I0206 00:21:10.175106  3521 net.cpp:157] Top shape: 50 256 4 4 (204800)
I0206 00:21:10.175108  3521 net.cpp:165] Memory required for data: 722547800
I0206 00:21:10.175115  3521 layer_factory.hpp:76] Creating layer block4_relu82
I0206 00:21:10.175120  3521 net.cpp:106] Creating Layer block4_relu82
I0206 00:21:10.175124  3521 net.cpp:454] block4_relu82 <- block4_conv81_BN
I0206 00:21:10.175128  3521 net.cpp:397] block4_relu82 -> block4_conv81_BN (in-place)
I0206 00:21:10.175267  3521 net.cpp:150] Setting up block4_relu82
I0206 00:21:10.175273  3521 net.cpp:157] Top shape: 50 256 4 4 (204800)
I0206 00:21:10.175276  3521 net.cpp:165] Memory required for data: 723367000
I0206 00:21:10.175279  3521 layer_factory.hpp:76] Creating layer block4_conv83
I0206 00:21:10.175287  3521 net.cpp:106] Creating Layer block4_conv83
I0206 00:21:10.175290  3521 net.cpp:454] block4_conv83 <- block4_conv81_BN
I0206 00:21:10.175297  3521 net.cpp:411] block4_conv83 -> block4_conv83
I0206 00:21:10.177728  3521 net.cpp:150] Setting up block4_conv83
I0206 00:21:10.177738  3521 net.cpp:157] Top shape: 50 1024 4 4 (819200)
I0206 00:21:10.177742  3521 net.cpp:165] Memory required for data: 726643800
I0206 00:21:10.177758  3521 layer_factory.hpp:76] Creating layer block4_conv83_BN
I0206 00:21:10.177765  3521 net.cpp:106] Creating Layer block4_conv83_BN
I0206 00:21:10.177769  3521 net.cpp:454] block4_conv83_BN <- block4_conv83
I0206 00:21:10.177775  3521 net.cpp:411] block4_conv83_BN -> block4_conv83_BN
I0206 00:21:10.178097  3521 net.cpp:150] Setting up block4_conv83_BN
I0206 00:21:10.178105  3521 net.cpp:157] Top shape: 50 1024 4 4 (819200)
I0206 00:21:10.178108  3521 net.cpp:165] Memory required for data: 729920600
I0206 00:21:10.178115  3521 layer_factory.hpp:76] Creating layer block4_conv83_BN_eltwise
I0206 00:21:10.178122  3521 net.cpp:106] Creating Layer block4_conv83_BN_eltwise
I0206 00:21:10.178124  3521 net.cpp:454] block4_conv83_BN_eltwise <- block4_conv83_BN
I0206 00:21:10.178129  3521 net.cpp:454] block4_conv83_BN_eltwise <- block4_relu77_block4_relu77_0_split_1
I0206 00:21:10.178133  3521 net.cpp:411] block4_conv83_BN_eltwise -> block4_conv83_BN_eltwise
I0206 00:21:10.178166  3521 net.cpp:150] Setting up block4_conv83_BN_eltwise
I0206 00:21:10.178172  3521 net.cpp:157] Top shape: 50 1024 4 4 (819200)
I0206 00:21:10.178175  3521 net.cpp:165] Memory required for data: 733197400
I0206 00:21:10.178179  3521 layer_factory.hpp:76] Creating layer block4_relu85
I0206 00:21:10.178182  3521 net.cpp:106] Creating Layer block4_relu85
I0206 00:21:10.178186  3521 net.cpp:454] block4_relu85 <- block4_conv83_BN_eltwise
I0206 00:21:10.178191  3521 net.cpp:411] block4_relu85 -> block4_relu85
I0206 00:21:10.178526  3521 net.cpp:150] Setting up block4_relu85
I0206 00:21:10.178535  3521 net.cpp:157] Top shape: 50 1024 4 4 (819200)
I0206 00:21:10.178539  3521 net.cpp:165] Memory required for data: 736474200
I0206 00:21:10.178541  3521 layer_factory.hpp:76] Creating layer block4_relu85_block4_relu85_0_split
I0206 00:21:10.178546  3521 net.cpp:106] Creating Layer block4_relu85_block4_relu85_0_split
I0206 00:21:10.178550  3521 net.cpp:454] block4_relu85_block4_relu85_0_split <- block4_relu85
I0206 00:21:10.178555  3521 net.cpp:411] block4_relu85_block4_relu85_0_split -> block4_relu85_block4_relu85_0_split_0
I0206 00:21:10.178561  3521 net.cpp:411] block4_relu85_block4_relu85_0_split -> block4_relu85_block4_relu85_0_split_1
I0206 00:21:10.178591  3521 net.cpp:150] Setting up block4_relu85_block4_relu85_0_split
I0206 00:21:10.178594  3521 net.cpp:157] Top shape: 50 1024 4 4 (819200)
I0206 00:21:10.178598  3521 net.cpp:157] Top shape: 50 1024 4 4 (819200)
I0206 00:21:10.178601  3521 net.cpp:165] Memory required for data: 743027800
I0206 00:21:10.178603  3521 layer_factory.hpp:76] Creating layer block4_conv87
I0206 00:21:10.178612  3521 net.cpp:106] Creating Layer block4_conv87
I0206 00:21:10.178616  3521 net.cpp:454] block4_conv87 <- block4_relu85_block4_relu85_0_split_0
I0206 00:21:10.178622  3521 net.cpp:411] block4_conv87 -> block4_conv87
I0206 00:21:10.180817  3521 net.cpp:150] Setting up block4_conv87
I0206 00:21:10.180827  3521 net.cpp:157] Top shape: 50 256 4 4 (204800)
I0206 00:21:10.180830  3521 net.cpp:165] Memory required for data: 743847000
I0206 00:21:10.180835  3521 layer_factory.hpp:76] Creating layer block4_conv87_BN
I0206 00:21:10.180841  3521 net.cpp:106] Creating Layer block4_conv87_BN
I0206 00:21:10.180845  3521 net.cpp:454] block4_conv87_BN <- block4_conv87
I0206 00:21:10.180851  3521 net.cpp:411] block4_conv87_BN -> block4_conv87_BN
I0206 00:21:10.181001  3521 net.cpp:150] Setting up block4_conv87_BN
I0206 00:21:10.181006  3521 net.cpp:157] Top shape: 50 256 4 4 (204800)
I0206 00:21:10.181010  3521 net.cpp:165] Memory required for data: 744666200
I0206 00:21:10.181015  3521 layer_factory.hpp:76] Creating layer block4_relu88
I0206 00:21:10.181021  3521 net.cpp:106] Creating Layer block4_relu88
I0206 00:21:10.181025  3521 net.cpp:454] block4_relu88 <- block4_conv87_BN
I0206 00:21:10.181028  3521 net.cpp:397] block4_relu88 -> block4_conv87_BN (in-place)
I0206 00:21:10.181257  3521 net.cpp:150] Setting up block4_relu88
I0206 00:21:10.181264  3521 net.cpp:157] Top shape: 50 256 4 4 (204800)
I0206 00:21:10.181267  3521 net.cpp:165] Memory required for data: 745485400
I0206 00:21:10.181270  3521 layer_factory.hpp:76] Creating layer block4_conv89
I0206 00:21:10.181278  3521 net.cpp:106] Creating Layer block4_conv89
I0206 00:21:10.181282  3521 net.cpp:454] block4_conv89 <- block4_conv87_BN
I0206 00:21:10.181288  3521 net.cpp:411] block4_conv89 -> block4_conv89
I0206 00:21:10.185096  3521 net.cpp:150] Setting up block4_conv89
I0206 00:21:10.185106  3521 net.cpp:157] Top shape: 50 256 4 4 (204800)
I0206 00:21:10.185108  3521 net.cpp:165] Memory required for data: 746304600
I0206 00:21:10.185114  3521 layer_factory.hpp:76] Creating layer block4_conv89_BN
I0206 00:21:10.185122  3521 net.cpp:106] Creating Layer block4_conv89_BN
I0206 00:21:10.185125  3521 net.cpp:454] block4_conv89_BN <- block4_conv89
I0206 00:21:10.185132  3521 net.cpp:411] block4_conv89_BN -> block4_conv89_BN
I0206 00:21:10.185281  3521 net.cpp:150] Setting up block4_conv89_BN
I0206 00:21:10.185299  3521 net.cpp:157] Top shape: 50 256 4 4 (204800)
I0206 00:21:10.185302  3521 net.cpp:165] Memory required for data: 747123800
I0206 00:21:10.185308  3521 layer_factory.hpp:76] Creating layer block4_relu90
I0206 00:21:10.185323  3521 net.cpp:106] Creating Layer block4_relu90
I0206 00:21:10.185328  3521 net.cpp:454] block4_relu90 <- block4_conv89_BN
I0206 00:21:10.185331  3521 net.cpp:397] block4_relu90 -> block4_conv89_BN (in-place)
I0206 00:21:10.185475  3521 net.cpp:150] Setting up block4_relu90
I0206 00:21:10.185482  3521 net.cpp:157] Top shape: 50 256 4 4 (204800)
I0206 00:21:10.185484  3521 net.cpp:165] Memory required for data: 747943000
I0206 00:21:10.185488  3521 layer_factory.hpp:76] Creating layer block4_conv91
I0206 00:21:10.185495  3521 net.cpp:106] Creating Layer block4_conv91
I0206 00:21:10.185498  3521 net.cpp:454] block4_conv91 <- block4_conv89_BN
I0206 00:21:10.185503  3521 net.cpp:411] block4_conv91 -> block4_conv91
I0206 00:21:10.187660  3521 net.cpp:150] Setting up block4_conv91
I0206 00:21:10.187669  3521 net.cpp:157] Top shape: 50 1024 4 4 (819200)
I0206 00:21:10.187674  3521 net.cpp:165] Memory required for data: 751219800
I0206 00:21:10.187679  3521 layer_factory.hpp:76] Creating layer block4_conv91_BN
I0206 00:21:10.187686  3521 net.cpp:106] Creating Layer block4_conv91_BN
I0206 00:21:10.187690  3521 net.cpp:454] block4_conv91_BN <- block4_conv91
I0206 00:21:10.187696  3521 net.cpp:411] block4_conv91_BN -> block4_conv91_BN
I0206 00:21:10.187860  3521 net.cpp:150] Setting up block4_conv91_BN
I0206 00:21:10.187865  3521 net.cpp:157] Top shape: 50 1024 4 4 (819200)
I0206 00:21:10.187868  3521 net.cpp:165] Memory required for data: 754496600
I0206 00:21:10.187873  3521 layer_factory.hpp:76] Creating layer block4_conv91_BN_eltwise
I0206 00:21:10.187881  3521 net.cpp:106] Creating Layer block4_conv91_BN_eltwise
I0206 00:21:10.187885  3521 net.cpp:454] block4_conv91_BN_eltwise <- block4_conv91_BN
I0206 00:21:10.187890  3521 net.cpp:454] block4_conv91_BN_eltwise <- block4_relu85_block4_relu85_0_split_1
I0206 00:21:10.187893  3521 net.cpp:411] block4_conv91_BN_eltwise -> block4_conv91_BN_eltwise
I0206 00:21:10.187911  3521 net.cpp:150] Setting up block4_conv91_BN_eltwise
I0206 00:21:10.187916  3521 net.cpp:157] Top shape: 50 1024 4 4 (819200)
I0206 00:21:10.187918  3521 net.cpp:165] Memory required for data: 757773400
I0206 00:21:10.187922  3521 layer_factory.hpp:76] Creating layer block4_relu93
I0206 00:21:10.187927  3521 net.cpp:106] Creating Layer block4_relu93
I0206 00:21:10.187930  3521 net.cpp:454] block4_relu93 <- block4_conv91_BN_eltwise
I0206 00:21:10.187934  3521 net.cpp:411] block4_relu93 -> block4_relu93
I0206 00:21:10.188179  3521 net.cpp:150] Setting up block4_relu93
I0206 00:21:10.188186  3521 net.cpp:157] Top shape: 50 1024 4 4 (819200)
I0206 00:21:10.188190  3521 net.cpp:165] Memory required for data: 761050200
I0206 00:21:10.188194  3521 layer_factory.hpp:76] Creating layer block4_relu93_block4_relu93_0_split
I0206 00:21:10.188199  3521 net.cpp:106] Creating Layer block4_relu93_block4_relu93_0_split
I0206 00:21:10.188202  3521 net.cpp:454] block4_relu93_block4_relu93_0_split <- block4_relu93
I0206 00:21:10.188206  3521 net.cpp:411] block4_relu93_block4_relu93_0_split -> block4_relu93_block4_relu93_0_split_0
I0206 00:21:10.188212  3521 net.cpp:411] block4_relu93_block4_relu93_0_split -> block4_relu93_block4_relu93_0_split_1
I0206 00:21:10.188241  3521 net.cpp:150] Setting up block4_relu93_block4_relu93_0_split
I0206 00:21:10.188246  3521 net.cpp:157] Top shape: 50 1024 4 4 (819200)
I0206 00:21:10.188249  3521 net.cpp:157] Top shape: 50 1024 4 4 (819200)
I0206 00:21:10.188251  3521 net.cpp:165] Memory required for data: 767603800
I0206 00:21:10.188254  3521 layer_factory.hpp:76] Creating layer block4_conv95
I0206 00:21:10.188261  3521 net.cpp:106] Creating Layer block4_conv95
I0206 00:21:10.188264  3521 net.cpp:454] block4_conv95 <- block4_relu93_block4_relu93_0_split_0
I0206 00:21:10.188271  3521 net.cpp:411] block4_conv95 -> block4_conv95
I0206 00:21:10.190459  3521 net.cpp:150] Setting up block4_conv95
I0206 00:21:10.190479  3521 net.cpp:157] Top shape: 50 256 4 4 (204800)
I0206 00:21:10.190482  3521 net.cpp:165] Memory required for data: 768423000
I0206 00:21:10.190488  3521 layer_factory.hpp:76] Creating layer block4_conv95_BN
I0206 00:21:10.190495  3521 net.cpp:106] Creating Layer block4_conv95_BN
I0206 00:21:10.190500  3521 net.cpp:454] block4_conv95_BN <- block4_conv95
I0206 00:21:10.190505  3521 net.cpp:411] block4_conv95_BN -> block4_conv95_BN
I0206 00:21:10.190655  3521 net.cpp:150] Setting up block4_conv95_BN
I0206 00:21:10.190660  3521 net.cpp:157] Top shape: 50 256 4 4 (204800)
I0206 00:21:10.190664  3521 net.cpp:165] Memory required for data: 769242200
I0206 00:21:10.190670  3521 layer_factory.hpp:76] Creating layer block4_relu96
I0206 00:21:10.190675  3521 net.cpp:106] Creating Layer block4_relu96
I0206 00:21:10.190677  3521 net.cpp:454] block4_relu96 <- block4_conv95_BN
I0206 00:21:10.190681  3521 net.cpp:397] block4_relu96 -> block4_conv95_BN (in-place)
I0206 00:21:10.190915  3521 net.cpp:150] Setting up block4_relu96
I0206 00:21:10.190924  3521 net.cpp:157] Top shape: 50 256 4 4 (204800)
I0206 00:21:10.190927  3521 net.cpp:165] Memory required for data: 770061400
I0206 00:21:10.190932  3521 layer_factory.hpp:76] Creating layer block4_conv97
I0206 00:21:10.190937  3521 net.cpp:106] Creating Layer block4_conv97
I0206 00:21:10.190942  3521 net.cpp:454] block4_conv97 <- block4_conv95_BN
I0206 00:21:10.190948  3521 net.cpp:411] block4_conv97 -> block4_conv97
I0206 00:21:10.194872  3521 net.cpp:150] Setting up block4_conv97
I0206 00:21:10.194883  3521 net.cpp:157] Top shape: 50 256 4 4 (204800)
I0206 00:21:10.194886  3521 net.cpp:165] Memory required for data: 770880600
I0206 00:21:10.194892  3521 layer_factory.hpp:76] Creating layer block4_conv97_BN
I0206 00:21:10.194900  3521 net.cpp:106] Creating Layer block4_conv97_BN
I0206 00:21:10.194903  3521 net.cpp:454] block4_conv97_BN <- block4_conv97
I0206 00:21:10.194908  3521 net.cpp:411] block4_conv97_BN -> block4_conv97_BN
I0206 00:21:10.195063  3521 net.cpp:150] Setting up block4_conv97_BN
I0206 00:21:10.195068  3521 net.cpp:157] Top shape: 50 256 4 4 (204800)
I0206 00:21:10.195071  3521 net.cpp:165] Memory required for data: 771699800
I0206 00:21:10.195076  3521 layer_factory.hpp:76] Creating layer block4_relu98
I0206 00:21:10.195081  3521 net.cpp:106] Creating Layer block4_relu98
I0206 00:21:10.195086  3521 net.cpp:454] block4_relu98 <- block4_conv97_BN
I0206 00:21:10.195089  3521 net.cpp:397] block4_relu98 -> block4_conv97_BN (in-place)
I0206 00:21:10.195240  3521 net.cpp:150] Setting up block4_relu98
I0206 00:21:10.195245  3521 net.cpp:157] Top shape: 50 256 4 4 (204800)
I0206 00:21:10.195248  3521 net.cpp:165] Memory required for data: 772519000
I0206 00:21:10.195251  3521 layer_factory.hpp:76] Creating layer block4_conv99
I0206 00:21:10.195260  3521 net.cpp:106] Creating Layer block4_conv99
I0206 00:21:10.195263  3521 net.cpp:454] block4_conv99 <- block4_conv97_BN
I0206 00:21:10.195268  3521 net.cpp:411] block4_conv99 -> block4_conv99
I0206 00:21:10.197441  3521 net.cpp:150] Setting up block4_conv99
I0206 00:21:10.197450  3521 net.cpp:157] Top shape: 50 1024 4 4 (819200)
I0206 00:21:10.197453  3521 net.cpp:165] Memory required for data: 775795800
I0206 00:21:10.197459  3521 layer_factory.hpp:76] Creating layer block4_conv99_BN
I0206 00:21:10.197465  3521 net.cpp:106] Creating Layer block4_conv99_BN
I0206 00:21:10.197469  3521 net.cpp:454] block4_conv99_BN <- block4_conv99
I0206 00:21:10.197474  3521 net.cpp:411] block4_conv99_BN -> block4_conv99_BN
I0206 00:21:10.197645  3521 net.cpp:150] Setting up block4_conv99_BN
I0206 00:21:10.197651  3521 net.cpp:157] Top shape: 50 1024 4 4 (819200)
I0206 00:21:10.197654  3521 net.cpp:165] Memory required for data: 779072600
I0206 00:21:10.197659  3521 layer_factory.hpp:76] Creating layer block4_conv99_BN_eltwise
I0206 00:21:10.197665  3521 net.cpp:106] Creating Layer block4_conv99_BN_eltwise
I0206 00:21:10.197669  3521 net.cpp:454] block4_conv99_BN_eltwise <- block4_conv99_BN
I0206 00:21:10.197685  3521 net.cpp:454] block4_conv99_BN_eltwise <- block4_relu93_block4_relu93_0_split_1
I0206 00:21:10.197691  3521 net.cpp:411] block4_conv99_BN_eltwise -> block4_conv99_BN_eltwise
I0206 00:21:10.197722  3521 net.cpp:150] Setting up block4_conv99_BN_eltwise
I0206 00:21:10.197729  3521 net.cpp:157] Top shape: 50 1024 4 4 (819200)
I0206 00:21:10.197731  3521 net.cpp:165] Memory required for data: 782349400
I0206 00:21:10.197734  3521 layer_factory.hpp:76] Creating layer block4_relu101
I0206 00:21:10.197739  3521 net.cpp:106] Creating Layer block4_relu101
I0206 00:21:10.197742  3521 net.cpp:454] block4_relu101 <- block4_conv99_BN_eltwise
I0206 00:21:10.197747  3521 net.cpp:411] block4_relu101 -> block4_relu101
I0206 00:21:10.198006  3521 net.cpp:150] Setting up block4_relu101
I0206 00:21:10.198014  3521 net.cpp:157] Top shape: 50 1024 4 4 (819200)
I0206 00:21:10.198019  3521 net.cpp:165] Memory required for data: 785626200
I0206 00:21:10.198021  3521 layer_factory.hpp:76] Creating layer block4_relu101_block4_relu101_0_split
I0206 00:21:10.198026  3521 net.cpp:106] Creating Layer block4_relu101_block4_relu101_0_split
I0206 00:21:10.198030  3521 net.cpp:454] block4_relu101_block4_relu101_0_split <- block4_relu101
I0206 00:21:10.198035  3521 net.cpp:411] block4_relu101_block4_relu101_0_split -> block4_relu101_block4_relu101_0_split_0
I0206 00:21:10.198041  3521 net.cpp:411] block4_relu101_block4_relu101_0_split -> block4_relu101_block4_relu101_0_split_1
I0206 00:21:10.198071  3521 net.cpp:150] Setting up block4_relu101_block4_relu101_0_split
I0206 00:21:10.198076  3521 net.cpp:157] Top shape: 50 1024 4 4 (819200)
I0206 00:21:10.198081  3521 net.cpp:157] Top shape: 50 1024 4 4 (819200)
I0206 00:21:10.198083  3521 net.cpp:165] Memory required for data: 792179800
I0206 00:21:10.198086  3521 layer_factory.hpp:76] Creating layer block4_conv103
I0206 00:21:10.198092  3521 net.cpp:106] Creating Layer block4_conv103
I0206 00:21:10.198096  3521 net.cpp:454] block4_conv103 <- block4_relu101_block4_relu101_0_split_0
I0206 00:21:10.198101  3521 net.cpp:411] block4_conv103 -> block4_conv103
I0206 00:21:10.200146  3521 net.cpp:150] Setting up block4_conv103
I0206 00:21:10.200155  3521 net.cpp:157] Top shape: 50 256 4 4 (204800)
I0206 00:21:10.200158  3521 net.cpp:165] Memory required for data: 792999000
I0206 00:21:10.200163  3521 layer_factory.hpp:76] Creating layer block4_conv103_BN
I0206 00:21:10.200170  3521 net.cpp:106] Creating Layer block4_conv103_BN
I0206 00:21:10.200173  3521 net.cpp:454] block4_conv103_BN <- block4_conv103
I0206 00:21:10.200179  3521 net.cpp:411] block4_conv103_BN -> block4_conv103_BN
I0206 00:21:10.200337  3521 net.cpp:150] Setting up block4_conv103_BN
I0206 00:21:10.200342  3521 net.cpp:157] Top shape: 50 256 4 4 (204800)
I0206 00:21:10.200345  3521 net.cpp:165] Memory required for data: 793818200
I0206 00:21:10.200351  3521 layer_factory.hpp:76] Creating layer block4_relu104
I0206 00:21:10.200357  3521 net.cpp:106] Creating Layer block4_relu104
I0206 00:21:10.200361  3521 net.cpp:454] block4_relu104 <- block4_conv103_BN
I0206 00:21:10.200364  3521 net.cpp:397] block4_relu104 -> block4_conv103_BN (in-place)
I0206 00:21:10.200616  3521 net.cpp:150] Setting up block4_relu104
I0206 00:21:10.200624  3521 net.cpp:157] Top shape: 50 256 4 4 (204800)
I0206 00:21:10.200628  3521 net.cpp:165] Memory required for data: 794637400
I0206 00:21:10.200630  3521 layer_factory.hpp:76] Creating layer block4_conv105
I0206 00:21:10.200639  3521 net.cpp:106] Creating Layer block4_conv105
I0206 00:21:10.200641  3521 net.cpp:454] block4_conv105 <- block4_conv103_BN
I0206 00:21:10.200649  3521 net.cpp:411] block4_conv105 -> block4_conv105
I0206 00:21:10.204677  3521 net.cpp:150] Setting up block4_conv105
I0206 00:21:10.204689  3521 net.cpp:157] Top shape: 50 256 4 4 (204800)
I0206 00:21:10.204691  3521 net.cpp:165] Memory required for data: 795456600
I0206 00:21:10.204697  3521 layer_factory.hpp:76] Creating layer block4_conv105_BN
I0206 00:21:10.204705  3521 net.cpp:106] Creating Layer block4_conv105_BN
I0206 00:21:10.204710  3521 net.cpp:454] block4_conv105_BN <- block4_conv105
I0206 00:21:10.204727  3521 net.cpp:411] block4_conv105_BN -> block4_conv105_BN
I0206 00:21:10.204921  3521 net.cpp:150] Setting up block4_conv105_BN
I0206 00:21:10.204927  3521 net.cpp:157] Top shape: 50 256 4 4 (204800)
I0206 00:21:10.204931  3521 net.cpp:165] Memory required for data: 796275800
I0206 00:21:10.204936  3521 layer_factory.hpp:76] Creating layer block4_relu106
I0206 00:21:10.204941  3521 net.cpp:106] Creating Layer block4_relu106
I0206 00:21:10.204946  3521 net.cpp:454] block4_relu106 <- block4_conv105_BN
I0206 00:21:10.204949  3521 net.cpp:397] block4_relu106 -> block4_conv105_BN (in-place)
I0206 00:21:10.205111  3521 net.cpp:150] Setting up block4_relu106
I0206 00:21:10.205116  3521 net.cpp:157] Top shape: 50 256 4 4 (204800)
I0206 00:21:10.205119  3521 net.cpp:165] Memory required for data: 797095000
I0206 00:21:10.205122  3521 layer_factory.hpp:76] Creating layer block4_conv107
I0206 00:21:10.205130  3521 net.cpp:106] Creating Layer block4_conv107
I0206 00:21:10.205134  3521 net.cpp:454] block4_conv107 <- block4_conv105_BN
I0206 00:21:10.205139  3521 net.cpp:411] block4_conv107 -> block4_conv107
I0206 00:21:10.207692  3521 net.cpp:150] Setting up block4_conv107
I0206 00:21:10.207703  3521 net.cpp:157] Top shape: 50 1024 4 4 (819200)
I0206 00:21:10.207706  3521 net.cpp:165] Memory required for data: 800371800
I0206 00:21:10.207712  3521 layer_factory.hpp:76] Creating layer block4_conv107_BN
I0206 00:21:10.207720  3521 net.cpp:106] Creating Layer block4_conv107_BN
I0206 00:21:10.207723  3521 net.cpp:454] block4_conv107_BN <- block4_conv107
I0206 00:21:10.207728  3521 net.cpp:411] block4_conv107_BN -> block4_conv107_BN
I0206 00:21:10.208070  3521 net.cpp:150] Setting up block4_conv107_BN
I0206 00:21:10.208077  3521 net.cpp:157] Top shape: 50 1024 4 4 (819200)
I0206 00:21:10.208081  3521 net.cpp:165] Memory required for data: 803648600
I0206 00:21:10.208086  3521 layer_factory.hpp:76] Creating layer block4_conv107_BN_eltwise
I0206 00:21:10.208092  3521 net.cpp:106] Creating Layer block4_conv107_BN_eltwise
I0206 00:21:10.208096  3521 net.cpp:454] block4_conv107_BN_eltwise <- block4_conv107_BN
I0206 00:21:10.208101  3521 net.cpp:454] block4_conv107_BN_eltwise <- block4_relu101_block4_relu101_0_split_1
I0206 00:21:10.208106  3521 net.cpp:411] block4_conv107_BN_eltwise -> block4_conv107_BN_eltwise
I0206 00:21:10.208129  3521 net.cpp:150] Setting up block4_conv107_BN_eltwise
I0206 00:21:10.208134  3521 net.cpp:157] Top shape: 50 1024 4 4 (819200)
I0206 00:21:10.208137  3521 net.cpp:165] Memory required for data: 806925400
I0206 00:21:10.208140  3521 layer_factory.hpp:76] Creating layer block4_relu109
I0206 00:21:10.208145  3521 net.cpp:106] Creating Layer block4_relu109
I0206 00:21:10.208148  3521 net.cpp:454] block4_relu109 <- block4_conv107_BN_eltwise
I0206 00:21:10.208153  3521 net.cpp:411] block4_relu109 -> block4_relu109
I0206 00:21:10.208492  3521 net.cpp:150] Setting up block4_relu109
I0206 00:21:10.208501  3521 net.cpp:157] Top shape: 50 1024 4 4 (819200)
I0206 00:21:10.208504  3521 net.cpp:165] Memory required for data: 810202200
I0206 00:21:10.208508  3521 layer_factory.hpp:76] Creating layer final_conv111
I0206 00:21:10.208515  3521 net.cpp:106] Creating Layer final_conv111
I0206 00:21:10.208518  3521 net.cpp:454] final_conv111 <- block4_relu109
I0206 00:21:10.208525  3521 net.cpp:411] final_conv111 -> final_conv111
I0206 00:21:10.214679  3521 net.cpp:150] Setting up final_conv111
I0206 00:21:10.214692  3521 net.cpp:157] Top shape: 50 1024 4 4 (819200)
I0206 00:21:10.214696  3521 net.cpp:165] Memory required for data: 813479000
I0206 00:21:10.214701  3521 layer_factory.hpp:76] Creating layer final_conv111_BN
I0206 00:21:10.214709  3521 net.cpp:106] Creating Layer final_conv111_BN
I0206 00:21:10.214714  3521 net.cpp:454] final_conv111_BN <- final_conv111
I0206 00:21:10.214718  3521 net.cpp:411] final_conv111_BN -> final_conv111_BN
I0206 00:21:10.214895  3521 net.cpp:150] Setting up final_conv111_BN
I0206 00:21:10.214900  3521 net.cpp:157] Top shape: 50 1024 4 4 (819200)
I0206 00:21:10.214920  3521 net.cpp:165] Memory required for data: 816755800
I0206 00:21:10.214926  3521 layer_factory.hpp:76] Creating layer final_relu112
I0206 00:21:10.214931  3521 net.cpp:106] Creating Layer final_relu112
I0206 00:21:10.214936  3521 net.cpp:454] final_relu112 <- final_conv111_BN
I0206 00:21:10.214939  3521 net.cpp:397] final_relu112 -> final_conv111_BN (in-place)
I0206 00:21:10.215183  3521 net.cpp:150] Setting up final_relu112
I0206 00:21:10.215190  3521 net.cpp:157] Top shape: 50 1024 4 4 (819200)
I0206 00:21:10.215193  3521 net.cpp:165] Memory required for data: 820032600
I0206 00:21:10.215196  3521 layer_factory.hpp:76] Creating layer final_conv111_BN_global_ave
I0206 00:21:10.215203  3521 net.cpp:106] Creating Layer final_conv111_BN_global_ave
I0206 00:21:10.215206  3521 net.cpp:454] final_conv111_BN_global_ave <- final_conv111_BN
I0206 00:21:10.215211  3521 net.cpp:411] final_conv111_BN_global_ave -> final_conv111_BN_global_ave
I0206 00:21:10.215464  3521 net.cpp:150] Setting up final_conv111_BN_global_ave
I0206 00:21:10.215472  3521 net.cpp:157] Top shape: 50 1024 1 1 (51200)
I0206 00:21:10.215476  3521 net.cpp:165] Memory required for data: 820237400
I0206 00:21:10.215478  3521 layer_factory.hpp:76] Creating layer final_conv114
I0206 00:21:10.215487  3521 net.cpp:106] Creating Layer final_conv114
I0206 00:21:10.215489  3521 net.cpp:454] final_conv114 <- final_conv111_BN_global_ave
I0206 00:21:10.215494  3521 net.cpp:411] final_conv114 -> final_conv114
I0206 00:21:10.221546  3521 net.cpp:150] Setting up final_conv114
I0206 00:21:10.221561  3521 net.cpp:157] Top shape: 50 1000 1 1 (50000)
I0206 00:21:10.221565  3521 net.cpp:165] Memory required for data: 820437400
I0206 00:21:10.221570  3521 layer_factory.hpp:76] Creating layer final_conv114_final_conv114_0_split
I0206 00:21:10.221578  3521 net.cpp:106] Creating Layer final_conv114_final_conv114_0_split
I0206 00:21:10.221582  3521 net.cpp:454] final_conv114_final_conv114_0_split <- final_conv114
I0206 00:21:10.221588  3521 net.cpp:411] final_conv114_final_conv114_0_split -> final_conv114_final_conv114_0_split_0
I0206 00:21:10.221595  3521 net.cpp:411] final_conv114_final_conv114_0_split -> final_conv114_final_conv114_0_split_1
I0206 00:21:10.221627  3521 net.cpp:150] Setting up final_conv114_final_conv114_0_split
I0206 00:21:10.221632  3521 net.cpp:157] Top shape: 50 1000 1 1 (50000)
I0206 00:21:10.221635  3521 net.cpp:157] Top shape: 50 1000 1 1 (50000)
I0206 00:21:10.221638  3521 net.cpp:165] Memory required for data: 820837400
I0206 00:21:10.221642  3521 layer_factory.hpp:76] Creating layer loss
I0206 00:21:10.221645  3521 net.cpp:106] Creating Layer loss
I0206 00:21:10.221648  3521 net.cpp:454] loss <- final_conv114_final_conv114_0_split_0
I0206 00:21:10.221652  3521 net.cpp:454] loss <- label_data_1_split_0
I0206 00:21:10.221658  3521 net.cpp:411] loss -> loss
…
