…
      source: "/local/temporary/mishkdmy/imagenet144pxlmdb/ilsvrc12_128_train_lmdb"
      batch_size: 512
      backend: LMDB
    }
  }
  layer {
    name: "data"
    type: "Data"
    top: "data"
    top: "label"
    include {
      phase: TEST
    }
    transform_param {
      scale: 0.04
      mirror: false
      crop_size: 128
      mean_value: 104
      mean_value: 117
      mean_value: 123
      force_color: true
    }
    data_param {
      source: "/local/temporary/mishkdmy/imagenet144pxlmdb/ilsvrc12_128_val_lmdb"
      batch_size: 50
      backend: LMDB
    }
  }
  layer {
    name: "conv1"
    type: "Convolution"
    bottom: "data"
    top: "conv1"
    convolution_param {
      num_output: 96
      kernel_size: 7
      stride: 2
      weight_filler {
        type: "xavier"
      }
    }
  }
  layer {
    name: "relu_conv1"
    type: "ReLU"
    bottom: "conv1"
    top: "conv1"
  }
  layer {
    name: "pool1"
    type: "Pooling"
    bottom: "conv1"
    top: "pool1"
    pooling_param {
      pool: MAX
      kernel_size: 3
      stride: 2
    }
  }
  layer {
    name: "fire2/squeeze1x1"
    type: "Convolution"
    bottom: "pool1"
    top: "fire2/squeeze1x1"
    convolution_param {
      num_output: 16
      kernel_size: 1
      weight_filler {
        type: "xavier"
      }
    }
  }
  layer {
    name: "fire2/relu_squeeze1x1"
    type: "ReLU"
    bottom: "fire2/squeeze1x1"
    top: "fire2/squeeze1x1"
  }
  layer {
    name: "fire2/expand1x1"
    type: "Convolution"
    bottom: "fire2/squeeze1x1"
    top: "fire2/expand1x1"
    convolution_param {
      num_output: 64
      kernel_size: 1
      weight_filler {
        type: "xavier"
      }
    }
  }
  layer {
    name: "fire2/relu_expand1x1"
    type: "ReLU"
    bottom: "fire2/expand1x1"
    top: "fire2/expand1x1"
  }
  layer {
    name: "fire2/expand3x3"
    type: "Convolution"
    bottom: "fire2/squeeze1x1"
    top: "fire2/expand3x3"
    convolution_param {
      num_output: 64
      pad: 1
      kernel_size: 3
      weight_filler {
        type: "xavier"
      }
    }
  }
  layer {
    name: "fire2/relu_expand3x3"
    type: "ReLU"
    bottom: "fire2/expand3x3"
    top: "fire2/expand3x3"
  }
  layer {
    name: "fire2/concat"
    type: "Concat"
    bottom: "fire2/expand1x1"
    bottom: "fire2/expand3x3"
    top: "fire2/concat"
  }
  layer {
    name: "fire3/squeeze1x1"
    type: "Convolution"
    bottom: "fire2/concat"
    top: "fire3/squeeze1x1"
    convolution_param {
      num_output: 16
      kernel_size: 1
      weight_filler {
        type: "xavier"
      }
    }
  }
  layer {
    name: "fire3/relu_squeeze1x1"
    type: "ReLU"
    bottom: "fire3/squeeze1x1"
    top: "fire3/squeeze1x1"
  }
  layer {
    name: "fire3/expand1x1"
    type: "Convolution"
    bottom: "fire3/squeeze1x1"
    top: "fire3/expand1x1"
    convolution_param {
      num_output: 64
      kernel_size: 1
      weight_filler {
        type: "xavier"
      }
    }
  }
  layer {
    name: "fire3/relu_expand1x1"
    type: "ReLU"
    bottom: "fire3/expand1x1"
    top: "fire3/expand1x1"
  }
  layer {
    name: "fire3/expand3x3"
    type: "Convolution"
    bottom: "fire3/squeeze1x1"
    top: "fire3/expand3x3"
    convolution_param {
      num_output: 64
      pad: 1
      kernel_size: 3
      weight_filler {
        type: "xavier"
      }
    }
  }
  layer {
    name: "fire3/relu_expand3x3"
    type: "ReLU"
    bottom: "fire3/expand3x3"
    top: "fire3/expand3x3"
  }
  layer {
    name: "fire3/concat"
    type: "Concat"
    bottom: "fire3/expand1x1"
    bottom: "fire3/expand3x3"
    top: "fire3/concat"
  }
  layer {
    name: "fire4/squeeze1x1"
    type: "Convolution"
    bottom: "fire3/concat"
    top: "fire4/squeeze1x1"
    convolution_param {
      num_output: 32
      kernel_size: 1
      weight_filler {
        type: "xavier"
      }
    }
  }
  layer {
    name: "fire4/relu_squeeze1x1"
    type: "ReLU"
    bottom: "fire4/squeeze1x1"
    top: "fire4/squeeze1x1"
  }
  layer {
    name: "fire4/expand1x1"
    type: "Convolution"
    bottom: "fire4/squeeze1x1"
    top: "fire4/expand1x1"
    convolution_param {
      num_output: 128
      kernel_size: 1
      weight_filler {
        type: "xavier"
      }
    }
  }
  layer {
    name: "fire4/relu_expand1x1"
    type: "ReLU"
    bottom: "fire4/expand1x1"
    top: "fire4/expand1x1"
  }
  layer {
    name: "fire4/expand3x3"
    type: "Convolution"
    bottom: "fire4/squeeze1x1"
    top: "fire4/expand3x3"
    convolution_param {
      num_output: 128
      pad: 1
      kernel_size: 3
      weight_filler {
        type: "xavier"
      }
    }
  }
  layer {
    name: "fire4/relu_expand3x3"
    type: "ReLU"
    bottom: "fire4/expand3x3"
    top: "fire4/expand3x3"
  }
  layer {
    name: "fire4/concat"
    type: "Concat"
    bottom: "fire4/expand1x1"
    bottom: "fire4/expand3x3"
    top: "fire4/concat"
  }
  layer {
    name: "pool4"
    type: "Pooling"
    bottom: "fire4/concat"
    top: "pool4"
    pooling_param {
      pool: MAX
      kernel_size: 3
      stride: 2
    }
  }
  layer {
    name: "fire5/squeeze1x1"
    type: "Convolution"
    bottom: "pool4"
    top: "fire5/squeeze1x1"
    convolution_param {
      num_output: 32
      kernel_size: 1
      weight_filler {
        type: "xavier"
      }
    }
  }
  layer {
    name: "fire5/relu_squeeze1x1"
    type: "ReLU"
    bottom: "fire5/squeeze1x1"
    top: "fire5/squeeze1x1"
  }
  layer {
    name: "fire5/expand1x1"
    type: "Convolution"
    bottom: "fire5/squeeze1x1"
    top: "fire5/expand1x1"
    convolution_param {
      num_output: 128
      kernel_size: 1
      weight_filler {
        type: "xavier"
      }
    }
  }
  layer {
    name: "fire5/relu_expand1x1"
    type: "ReLU"
    bottom: "fire5/expand1x1"
    top: "fire5/expand1x1"
  }
  layer {
    name: "fire5/expand3x3"
    type: "Convolution"
    bottom: "fire5/squeeze1x1"
    top: "fire5/expand3x3"
    convolution_param {
      num_output: 128
      pad: 1
      kernel_size: 3
      weight_filler {
        type: "xavier"
      }
    }
  }
  layer {
    name: "fire5/relu_expand3x3"
    type: "ReLU"
    bottom: "fire5/expand3x3"
    top: "fire5/expand3x3"
  }
  layer {
    name: "fire5/concat"
    type: "Concat"
    bottom: "fire5/expand1x1"
    bottom: "fire5/expand3x3"
    top: "fire5/concat"
  }
  layer {
    name: "fire6/squeeze1x1"
    type: "Convolution"
    bottom: "fire5/concat"
    top: "fire6/squeeze1x1"
    convolution_param {
      num_output: 48
      kernel_size: 1
      weight_filler {
        type: "xavier"
      }
    }
  }
  layer {
    name: "fire6/relu_squeeze1x1"
    type: "ReLU"
    bottom: "fire6/squeeze1x1"
    top: "fire6/squeeze1x1"
  }
  layer {
    name: "fire6/expand1x1"
    type: "Convolution"
    bottom: "fire6/squeeze1x1"
    top: "fire6/expand1x1"
    convolution_param {
      num_output: 192
      kernel_size: 1
      weight_filler {
        type: "xavier"
      }
    }
  }
  layer {
    name: "fire6/relu_expand1x1"
    type: "ReLU"
    bottom: "fire6/expand1x1"
    top: "fire6/expand1x1"
  }
  layer {
    name: "fire6/expand3x3"
    type: "Convolution"
    bottom: "fire6/squeeze1x1"
    top: "fire6/expand3x3"
    convolution_param {
      num_output: 192
      pad: 1
      kernel_size: 3
      weight_filler {
        type: "xavier"
      }
    }
  }
  layer {
    name: "fire6/relu_expand3x3"
    type: "ReLU"
    bottom: "fire6/expand3x3"
    top: "fire6/expand3x3"
  }
  layer {
    name: "fire6/concat"
    type: "Concat"
    bottom: "fire6/expand1x1"
    bottom: "fire6/expand3x3"
    top: "fire6/concat"
  }
  layer {
    name: "fire7/squeeze1x1"
    type: "Convolution"
    bottom: "fire6/concat"
    top: "fire7/squeeze1x1"
    convolution_param {
      num_output: 48
      kernel_size: 1
      weight_filler {
        type: "xavier"
      }
    }
  }
  layer {
    name: "fire7/relu_squeeze1x1"
    type: "ReLU"
    bottom: "fire7/squeeze1x1"
    top: "fire7/squeeze1x1"
  }
  layer {
    name: "fire7/expand1x1"
    type: "Convolution"
    bottom: "fire7/squeeze1x1"
    top: "fire7/expand1x1"
    convolution_param {
      num_output: 192
      kernel_size: 1
      weight_filler {
        type: "xavier"
      }
    }
  }
  layer {
    name: "fire7/relu_expand1x1"
    type: "ReLU"
    bottom: "fire7/expand1x1"
    top: "fire7/expand1x1"
  }
  layer {
    name: "fire7/expand3x3"
    type: "Convolution"
    bottom: "fire7/squeeze1x1"
    top: "fire7/expand3x3"
    convolution_param {
      num_output: 192
      pad: 1
      kernel_size: 3
      weight_filler {
        type: "xavier"
      }
    }
  }
  layer {
    name: "fire7/relu_expand3x3"
    type: "ReLU"
    bottom: "fire7/expand3x3"
    top: "fire7/expand3x3"
  }
  layer {
    name: "fire7/concat"
    type: "Concat"
    bottom: "fire7/expand1x1"
    bottom: "fire7/expand3x3"
    top: "fire7/concat"
  }
  layer {
    name: "fire8/squeeze1x1"
    type: "Convolution"
    bottom: "fire7/concat"
    top: "fire8/squeeze1x1"
    convolution_param {
      num_output: 64
      kernel_size: 1
      weight_filler {
        type: "xavier"
      }
    }
  }
  layer {
    name: "fire8/relu_squeeze1x1"
    type: "ReLU"
    bottom: "fire8/squeeze1x1"
    top: "fire8/squeeze1x1"
  }
  layer {
    name: "fire8/expand1x1"
    type: "Convolution"
    bottom: "fire8/squeeze1x1"
    top: "fire8/expand1x1"
    convolution_param {
      num_output: 256
      kernel_size: 1
      weight_filler {
        type: "xavier"
      }
    }
  }
  layer {
    name: "fire8/relu_expand1x1"
    type: "ReLU"
    bottom: "fire8/expand1x1"
    top: "fire8/expand1x1"
  }
  layer {
    name: "fire8/expand3x3"
    type: "Convolution"
    bottom: "fire8/squeeze1x1"
    top: "fire8/expand3x3"
    convolution_param {
      num_output: 256
      pad: 1
      kernel_size: 3
      weight_filler {
        type: "xavier"
      }
    }
  }
  layer {
    name: "fire8/relu_expand3x3"
    type: "ReLU"
    bottom: "fire8/expand3x3"
    top: "fire8/expand3x3"
  }
  layer {
    name: "fire8/concat"
    type: "Concat"
    bottom: "fire8/expand1x1"
    bottom: "fire8/expand3x3"
    top: "fire8/concat"
  }
  layer {
    name: "pool8"
    type: "Pooling"
    bottom: "fire8/concat"
    top: "pool8"
    pooling_param {
      pool: MAX
      kernel_size: 3
      stride: 2
    }
  }
  layer {
    name: "fire9/squeeze1x1"
    type: "Convolution"
    bottom: "pool8"
    top: "fire9/squeeze1x1"
    convolution_param {
      num_output: 64
      kernel_size: 1
      weight_filler {
        type: "xavier"
      }
    }
  }
  layer {
    name: "fire9/relu_squeeze1x1"
    type: "ReLU"
    bottom: "fire9/squeeze1x1"
    top: "fire9/squeeze1x1"
  }
  layer {
    name: "fire9/expand1x1"
    type: "Convolution"
    bottom: "fire9/squeeze1x1"
    top: "fire9/expand1x1"
    convolution_param {
      num_output: 256
      kernel_size: 1
      weight_filler {
        type: "xavier"
      }
    }
  }
  layer {
    name: "fire9/relu_expand1x1"
    type: "ReLU"
    bottom: "fire9/expand1x1"
    top: "fire9/expand1x1"
  }
  layer {
    name: "fire9/expand3x3"
    type: "Convolution"
    bottom: "fire9/squeeze1x1"
    top: "fire9/expand3x3"
    convolution_param {
      num_output: 256
      pad: 1
      kernel_size: 3
      weight_filler {
        type: "xavier"
      }
    }
  }
  layer {
    name: "fire9/relu_expand3x3"
    type: "ReLU"
    bottom: "fire9/expand3x3"
    top: "fire9/expand3x3"
  }
  layer {
    name: "fire9/concat"
    type: "Concat"
    bottom: "fire9/expand1x1"
    bottom: "fire9/expand3x3"
    top: "fire9/concat"
  }
  layer {
    name: "drop9"
    type: "Dropout"
    bottom: "fire9/concat"
    top: "fire9/concat"
    dropout_param {
      dropout_ratio: 0.5
    }
  }
  layer {
    name: "conv10"
    type: "Convolution"
    bottom: "fire9/concat"
    top: "conv10"
    convolution_param {
      num_output: 1000
      pad: 1
      kernel_size: 1
      weight_filler {
        type: "gaussian"
        mean: 0
        std: 0.01
      }
    }
  }
  layer {
    name: "relu_conv10"
    type: "ReLU"
    bottom: "conv10"
    top: "conv10"
  }
  layer {
    name: "pool10"
    type: "Pooling"
    bottom: "conv10"
    top: "pool10"
    pooling_param {
      pool: AVE
      global_pooling: true
    }
  }
  layer {
    name: "loss"
    type: "SoftmaxWithLoss"
    bottom: "pool10"
    bottom: "label"
    top: "loss"
    include {
      phase: TRAIN
    }
  }
  layer {
    name: "accuracy"
    type: "Accuracy"
    bottom: "pool10"
    bottom: "label"
    top: "accuracy"
    include {
      phase: TEST
    }
  }
  layer {
    name: "accuracy_top5"
    type: "Accuracy"
    bottom: "pool10"
    bottom: "label"
    top: "accuracy_top5"
    include {
      phase: TEST
    }
    accuracy_param {
      top_k: 5
    }
  }
}
test_initialization: false
average_loss: 40
iter_size: 1
I0604 20:56:02.156497   844 solver.cpp:86] Creating training net specified in net_param.
I0604 20:56:02.156726   844 net.cpp:322] The NetState phase (0) differed from the phase (1) specified by a rule in layer data
I0604 20:56:02.156770   844 net.cpp:322] The NetState phase (0) differed from the phase (1) specified by a rule in layer accuracy
I0604 20:56:02.156774   844 net.cpp:322] The NetState phase (0) differed from the phase (1) specified by a rule in layer accuracy_top5
I0604 20:56:02.157274   844 net.cpp:49] Initializing net from parameters: 
state {
  phase: TRAIN
}
layer {
  name: "data"
  type: "Data"
  top: "data"
  top: "label"
  include {
    phase: TRAIN
  }
  transform_param {
    scale: 0.04
    mirror: true
    crop_size: 128
    mean_value: 104
    mean_value: 117
    mean_value: 124
    force_color: true
  }
  data_param {
    source: "/local/temporary/mishkdmy/imagenet144pxlmdb/ilsvrc12_128_train_lmdb"
    batch_size: 512
    backend: LMDB
  }
}
layer {
  name: "conv1"
  type: "Convolution"
  bottom: "data"
  top: "conv1"
  convolution_param {
    num_output: 96
    kernel_size: 7
    stride: 2
    weight_filler {
      type: "xavier"
    }
  }
}
layer {
  name: "relu_conv1"
  type: "ReLU"
  bottom: "conv1"
  top: "conv1"
}
layer {
  name: "pool1"
  type: "Pooling"
  bottom: "conv1"
  top: "pool1"
  pooling_param {
    pool: MAX
    kernel_size: 3
    stride: 2
  }
}
layer {
  name: "fire2/squeeze1x1"
  type: "Convolution"
  bottom: "pool1"
  top: "fire2/squeeze1x1"
  convolution_param {
    num_output: 16
    kernel_size: 1
    weight_filler {
      type: "xavier"
    }
  }
}
layer {
  name: "fire2/relu_squeeze1x1"
  type: "ReLU"
  bottom: "fire2/squeeze1x1"
  top: "fire2/squeeze1x1"
}
layer {
  name: "fire2/expand1x1"
  type: "Convolution"
  bottom: "fire2/squeeze1x1"
  top: "fire2/expand1x1"
  convolution_param {
    num_output: 64
    kernel_size: 1
    weight_filler {
      type: "xavier"
    }
  }
}
layer {
  name: "fire2/relu_expand1x1"
  type: "ReLU"
  bottom: "fire2/expand1x1"
  top: "fire2/expand1x1"
}
layer {
  name: "fire2/expand3x3"
  type: "Convolution"
  bottom: "fire2/squeeze1x1"
  top: "fire2/expand3x3"
  convolution_param {
    num_output: 64
    pad: 1
    kernel_size: 3
    weight_filler {
      type: "xavier"
    }
  }
}
layer {
  name: "fire2/relu_expand3x3"
  type: "ReLU"
  bottom: "fire2/expand3x3"
  top: "fire2/expand3x3"
}
layer {
  name: "fire2/concat"
  type: "Concat"
  bottom: "fire2/expand1x1"
  bottom: "fire2/expand3x3"
  top: "fire2/concat"
}
layer {
  name: "fire3/squeeze1x1"
  type: "Convolution"
  bottom: "fire2/concat"
  top: "fire3/squeeze1x1"
  convolution_param {
    num_output: 16
    kernel_size: 1
    weight_filler {
      type: "xavier"
    }
  }
}
layer {
  name: "fire3/relu_squeeze1x1"
  type: "ReLU"
  bottom: "fire3/squeeze1x1"
  top: "fire3/squeeze1x1"
}
layer {
  name: "fire3/expand1x1"
  type: "Convolution"
  bottom: "fire3/squeeze1x1"
  top: "fire3/expand1x1"
  convolution_param {
    num_output: 64
    kernel_size: 1
    weight_filler {
      type: "xavier"
    }
  }
}
layer {
  name: "fire3/relu_expand1x1"
  type: "ReLU"
  bottom: "fire3/expand1x1"
  top: "fire3/expand1x1"
}
layer {
  name: "fire3/expand3x3"
  type: "Convolution"
  bottom: "fire3/squeeze1x1"
  top: "fire3/expand3x3"
  convolution_param {
    num_output: 64
    pad: 1
    kernel_size: 3
    weight_filler {
      type: "xavier"
    }
  }
}
layer {
  name: "fire3/relu_expand3x3"
  type: "ReLU"
  bottom: "fire3/expand3x3"
  top: "fire3/expand3x3"
}
layer {
  name: "fire3/concat"
  type: "Concat"
  bottom: "fire3/expand1x1"
  bottom: "fire3/expand3x3"
  top: "fire3/concat"
}
layer {
  name: "fire4/squeeze1x1"
  type: "Convolution"
  bottom: "fire3/concat"
  top: "fire4/squeeze1x1"
  convolution_param {
    num_output: 32
    kernel_size: 1
    weight_filler {
      type: "xavier"
    }
  }
}
layer {
  name: "fire4/relu_squeeze1x1"
  type: "ReLU"
  bottom: "fire4/squeeze1x1"
  top: "fire4/squeeze1x1"
}
layer {
  name: "fire4/expand1x1"
  type: "Convolution"
  bottom: "fire4/squeeze1x1"
  top: "fire4/expand1x1"
  convolution_param {
    num_output: 128
    kernel_size: 1
    weight_filler {
      type: "xavier"
    }
  }
}
layer {
  name: "fire4/relu_expand1x1"
  type: "ReLU"
  bottom: "fire4/expand1x1"
  top: "fire4/expand1x1"
}
layer {
  name: "fire4/expand3x3"
  type: "Convolution"
  bottom: "fire4/squeeze1x1"
  top: "fire4/expand3x3"
  convolution_param {
    num_output: 128
    pad: 1
    kernel_size: 3
    weight_filler {
      type: "xavier"
    }
  }
}
layer {
  name: "fire4/relu_expand3x3"
  type: "ReLU"
  bottom: "fire4/expand3x3"
  top: "fire4/expand3x3"
}
layer {
  name: "fire4/concat"
  type: "Concat"
  bottom: "fire4/expand1x1"
  bottom: "fire4/expand3x3"
  top: "fire4/concat"
}
layer {
  name: "pool4"
  type: "Pooling"
  bottom: "fire4/concat"
  top: "pool4"
  pooling_param {
    pool: MAX
    kernel_size: 3
    stride: 2
  }
}
layer {
  name: "fire5/squeeze1x1"
  type: "Convolution"
  bottom: "pool4"
  top: "fire5/squeeze1x1"
  convolution_param {
    num_output: 32
    kernel_size: 1
    weight_filler {
      type: "xavier"
    }
  }
}
layer {
  name: "fire5/relu_squeeze1x1"
  type: "ReLU"
  bottom: "fire5/squeeze1x1"
  top: "fire5/squeeze1x1"
}
layer {
  name: "fire5/expand1x1"
  type: "Convolution"
  bottom: "fire5/squeeze1x1"
  top: "fire5/expand1x1"
  convolution_param {
    num_output: 128
    kernel_size: 1
    weight_filler {
      type: "xavier"
    }
  }
}
layer {
  name: "fire5/relu_expand1x1"
  type: "ReLU"
  bottom: "fire5/expand1x1"
  top: "fire5/expand1x1"
}
layer {
  name: "fire5/expand3x3"
  type: "Convolution"
  bottom: "fire5/squeeze1x1"
  top: "fire5/expand3x3"
  convolution_param {
    num_output: 128
    pad: 1
    kernel_size: 3
    weight_filler {
      type: "xavier"
    }
  }
}
layer {
  name: "fire5/relu_expand3x3"
  type: "ReLU"
  bottom: "fire5/expand3x3"
  top: "fire5/expand3x3"
}
layer {
  name: "fire5/concat"
  type: "Concat"
  bottom: "fire5/expand1x1"
  bottom: "fire5/expand3x3"
  top: "fire5/concat"
}
layer {
  name: "fire6/squeeze1x1"
  type: "Convolution"
  bottom: "fire5/concat"
  top: "fire6/squeeze1x1"
  convolution_param {
    num_output: 48
    kernel_size: 1
    weight_filler {
      type: "xavier"
    }
  }
}
layer {
  name: "fire6/relu_squeeze1x1"
  type: "ReLU"
  bottom: "fire6/squeeze1x1"
  top: "fire6/squeeze1x1"
}
layer {
  name: "fire6/expand1x1"
  type: "Convolution"
  bottom: "fire6/squeeze1x1"
  top: "fire6/expand1x1"
  convolution_param {
    num_output: 192
    kernel_size: 1
    weight_filler {
      type: "xavier"
    }
  }
}
layer {
  name: "fire6/relu_expand1x1"
  type: "ReLU"
  bottom: "fire6/expand1x1"
  top: "fire6/expand1x1"
}
layer {
  name: "fire6/expand3x3"
  type: "Convolution"
  bottom: "fire6/squeeze1x1"
  top: "fire6/expand3x3"
  convolution_param {
    num_output: 192
    pad: 1
    kernel_size: 3
    weight_filler {
      type: "xavier"
    }
  }
}
layer {
  name: "fire6/relu_expand3x3"
  type: "ReLU"
  bottom: "fire6/expand3x3"
  top: "fire6/expand3x3"
}
layer {
  name: "fire6/concat"
  type: "Concat"
  bottom: "fire6/expand1x1"
  bottom: "fire6/expand3x3"
  top: "fire6/concat"
}
layer {
  name: "fire7/squeeze1x1"
  type: "Convolution"
  bottom: "fire6/concat"
  top: "fire7/squeeze1x1"
  convolution_param {
    num_output: 48
    kernel_size: 1
    weight_filler {
      type: "xavier"
    }
  }
}
layer {
  name: "fire7/relu_squeeze1x1"
  type: "ReLU"
  bottom: "fire7/squeeze1x1"
  top: "fire7/squeeze1x1"
}
layer {
  name: "fire7/expand1x1"
  type: "Convolution"
  bottom: "fire7/squeeze1x1"
  top: "fire7/expand1x1"
  convolution_param {
    num_output: 192
    kernel_size: 1
    weight_filler {
      type: "xavier"
    }
  }
}
layer {
  name: "fire7/relu_expand1x1"
  type: "ReLU"
  bottom: "fire7/expand1x1"
  top: "fire7/expand1x1"
}
layer {
  name: "fire7/expand3x3"
  type: "Convolution"
  bottom: "fire7/squeeze1x1"
  top: "fire7/expand3x3"
  convolution_param {
    num_output: 192
    pad: 1
    kernel_size: 3
    weight_filler {
      type: "xavier"
    }
  }
}
layer {
  name: "fire7/relu_expand3x3"
  type: "ReLU"
  bottom: "fire7/expand3x3"
  top: "fire7/expand3x3"
}
layer {
  name: "fire7/concat"
  type: "Concat"
  bottom: "fire7/expand1x1"
  bottom: "fire7/expand3x3"
  top: "fire7/concat"
}
layer {
  name: "fire8/squeeze1x1"
  type: "Convolution"
  bottom: "fire7/concat"
  top: "fire8/squeeze1x1"
  convolution_param {
    num_output: 64
    kernel_size: 1
    weight_filler {
      type: "xavier"
    }
  }
}
layer {
  name: "fire8/relu_squeeze1x1"
  type: "ReLU"
  bottom: "fire8/squeeze1x1"
  top: "fire8/squeeze1x1"
}
layer {
  name: "fire8/expand1x1"
  type: "Convolution"
  bottom: "fire8/squeeze1x1"
  top: "fire8/expand1x1"
  convolution_param {
    num_output: 256
    kernel_size: 1
    weight_filler {
      type: "xavier"
    }
  }
}
layer {
  name: "fire8/relu_expand1x1"
  type: "ReLU"
  bottom: "fire8/expand1x1"
  top: "fire8/expand1x1"
}
layer {
  name: "fire8/expand3x3"
  type: "Convolution"
  bottom: "fire8/squeeze1x1"
  top: "fire8/expand3x3"
  convolution_param {
    num_output: 256
    pad: 1
    kernel_size: 3
    weight_filler {
      type: "xavier"
    }
  }
}
layer {
  name: "fire8/relu_expand3x3"
  type: "ReLU"
  bottom: "fire8/expand3x3"
  top: "fire8/expand3x3"
}
layer {
  name: "fire8/concat"
  type: "Concat"
  bottom: "fire8/expand1x1"
  bottom: "fire8/expand3x3"
  top: "fire8/concat"
}
layer {
  name: "pool8"
  type: "Pooling"
  bottom: "fire8/concat"
  top: "pool8"
  pooling_param {
    pool: MAX
    kernel_size: 3
    stride: 2
  }
}
layer {
  name: "fire9/squeeze1x1"
  type: "Convolution"
  bottom: "pool8"
  top: "fire9/squeeze1x1"
  convolution_param {
    num_output: 64
    kernel_size: 1
    weight_filler {
      type: "xavier"
    }
  }
}
layer {
  name: "fire9/relu_squeeze1x1"
  type: "ReLU"
  bottom: "fire9/squeeze1x1"
  top: "fire9/squeeze1x1"
}
layer {
  name: "fire9/expand1x1"
  type: "Convolution"
  bottom: "fire9/squeeze1x1"
  top: "fire9/expand1x1"
  convolution_param {
    num_output: 256
    kernel_size: 1
    weight_filler {
      type: "xavier"
    }
  }
}
layer {
  name: "fire9/relu_expand1x1"
  type: "ReLU"
  bottom: "fire9/expand1x1"
  top: "fire9/expand1x1"
}
layer {
  name: "fire9/expand3x3"
  type: "Convolution"
  bottom: "fire9/squeeze1x1"
  top: "fire9/expand3x3"
  convolution_param {
    num_output: 256
    pad: 1
    kernel_size: 3
    weight_filler {
      type: "xavier"
    }
  }
}
layer {
  name: "fire9/relu_expand3x3"
  type: "ReLU"
  bottom: "fire9/expand3x3"
  top: "fire9/expand3x3"
}
layer {
  name: "fire9/concat"
  type: "Concat"
  bottom: "fire9/expand1x1"
  bottom: "fire9/expand3x3"
  top: "fire9/concat"
}
layer {
  name: "drop9"
  type: "Dropout"
  bottom: "fire9/concat"
  top: "fire9/concat"
  dropout_param {
    dropout_ratio: 0.5
  }
}
layer {
  name: "conv10"
  type: "Convolution"
  bottom: "fire9/concat"
  top: "conv10"
  convolution_param {
    num_output: 1000
    pad: 1
    kernel_size: 1
    weight_filler {
      type: "gaussian"
      mean: 0
      std: 0.01
    }
  }
}
layer {
  name: "relu_conv10"
  type: "ReLU"
  bottom: "conv10"
  top: "conv10"
}
layer {
  name: "pool10"
  type: "Pooling"
  bottom: "conv10"
  top: "pool10"
  pooling_param {
    pool: AVE
    global_pooling: true
  }
}
layer {
  name: "loss"
  type: "SoftmaxWithLoss"
  bottom: "pool10"
  bottom: "label"
  top: "loss"
  include {
    phase: TRAIN
  }
}
I0604 20:56:02.157644   844 layer_factory.hpp:77] Creating layer data
I0604 20:56:02.158129   844 net.cpp:106] Creating Layer data
I0604 20:56:02.158143   844 net.cpp:411] data -> data
I0604 20:56:02.158172   844 net.cpp:411] data -> label
I0604 20:56:02.159256   873 db_lmdb.cpp:38] Opened lmdb /local/temporary/mishkdmy/imagenet144pxlmdb/ilsvrc12_128_train_lmdb
I0604 20:56:02.217015   844 data_layer.cpp:41] output data size: 512,3,128,128
I0604 20:56:02.425575   844 net.cpp:150] Setting up data
I0604 20:56:02.425609   844 net.cpp:157] Top shape: 512 3 128 128 (25165824)
I0604 20:56:02.425614   844 net.cpp:157] Top shape: 512 (512)
I0604 20:56:02.425617   844 net.cpp:165] Memory required for data: 100665344
I0604 20:56:02.425629   844 layer_factory.hpp:77] Creating layer conv1
I0604 20:56:02.425655   844 net.cpp:106] Creating Layer conv1
I0604 20:56:02.425663   844 net.cpp:454] conv1 <- data
I0604 20:56:02.425693   844 net.cpp:411] conv1 -> conv1
I0604 20:56:02.710000   844 net.cpp:150] Setting up conv1
I0604 20:56:02.710038   844 net.cpp:157] Top shape: 512 96 61 61 (182894592)
I0604 20:56:02.710043   844 net.cpp:165] Memory required for data: 832243712
I0604 20:56:02.710063   844 layer_factory.hpp:77] Creating layer relu_conv1
I0604 20:56:02.710078   844 net.cpp:106] Creating Layer relu_conv1
I0604 20:56:02.710085   844 net.cpp:454] relu_conv1 <- conv1
I0604 20:56:02.710099   844 net.cpp:397] relu_conv1 -> conv1 (in-place)
I0604 20:56:02.711900   844 net.cpp:150] Setting up relu_conv1
I0604 20:56:02.711913   844 net.cpp:157] Top shape: 512 96 61 61 (182894592)
I0604 20:56:02.711917   844 net.cpp:165] Memory required for data: 1563822080
I0604 20:56:02.711921   844 layer_factory.hpp:77] Creating layer pool1
I0604 20:56:02.711930   844 net.cpp:106] Creating Layer pool1
I0604 20:56:02.711935   844 net.cpp:454] pool1 <- conv1
I0604 20:56:02.711941   844 net.cpp:411] pool1 -> pool1
I0604 20:56:02.712004   844 net.cpp:150] Setting up pool1
I0604 20:56:02.712013   844 net.cpp:157] Top shape: 512 96 30 30 (44236800)
I0604 20:56:02.712018   844 net.cpp:165] Memory required for data: 1740769280
I0604 20:56:02.712020   844 layer_factory.hpp:77] Creating layer fire2/squeeze1x1
I0604 20:56:02.712034   844 net.cpp:106] Creating Layer fire2/squeeze1x1
I0604 20:56:02.712039   844 net.cpp:454] fire2/squeeze1x1 <- pool1
I0604 20:56:02.712045   844 net.cpp:411] fire2/squeeze1x1 -> fire2/squeeze1x1
I0604 20:56:02.715596   844 net.cpp:150] Setting up fire2/squeeze1x1
I0604 20:56:02.715617   844 net.cpp:157] Top shape: 512 16 30 30 (7372800)
I0604 20:56:02.715621   844 net.cpp:165] Memory required for data: 1770260480
I0604 20:56:02.715633   844 layer_factory.hpp:77] Creating layer fire2/relu_squeeze1x1
I0604 20:56:02.715641   844 net.cpp:106] Creating Layer fire2/relu_squeeze1x1
I0604 20:56:02.715644   844 net.cpp:454] fire2/relu_squeeze1x1 <- fire2/squeeze1x1
I0604 20:56:02.715651   844 net.cpp:397] fire2/relu_squeeze1x1 -> fire2/squeeze1x1 (in-place)
I0604 20:56:02.716542   844 net.cpp:150] Setting up fire2/relu_squeeze1x1
I0604 20:56:02.716554   844 net.cpp:157] Top shape: 512 16 30 30 (7372800)
I0604 20:56:02.716564   844 net.cpp:165] Memory required for data: 1799751680
I0604 20:56:02.716568   844 layer_factory.hpp:77] Creating layer fire2/squeeze1x1_fire2/relu_squeeze1x1_0_split
I0604 20:56:02.716576   844 net.cpp:106] Creating Layer fire2/squeeze1x1_fire2/relu_squeeze1x1_0_split
I0604 20:56:02.716580   844 net.cpp:454] fire2/squeeze1x1_fire2/relu_squeeze1x1_0_split <- fire2/squeeze1x1
I0604 20:56:02.716588   844 net.cpp:411] fire2/squeeze1x1_fire2/relu_squeeze1x1_0_split -> fire2/squeeze1x1_fire2/relu_squeeze1x1_0_split_0
I0604 20:56:02.716595   844 net.cpp:411] fire2/squeeze1x1_fire2/relu_squeeze1x1_0_split -> fire2/squeeze1x1_fire2/relu_squeeze1x1_0_split_1
I0604 20:56:02.716675   844 net.cpp:150] Setting up fire2/squeeze1x1_fire2/relu_squeeze1x1_0_split
I0604 20:56:02.716683   844 net.cpp:157] Top shape: 512 16 30 30 (7372800)
I0604 20:56:02.716688   844 net.cpp:157] Top shape: 512 16 30 30 (7372800)
I0604 20:56:02.716692   844 net.cpp:165] Memory required for data: 1858734080
I0604 20:56:02.716696   844 layer_factory.hpp:77] Creating layer fire2/expand1x1
I0604 20:56:02.716706   844 net.cpp:106] Creating Layer fire2/expand1x1
I0604 20:56:02.716711   844 net.cpp:454] fire2/expand1x1 <- fire2/squeeze1x1_fire2/relu_squeeze1x1_0_split_0
I0604 20:56:02.716717   844 net.cpp:411] fire2/expand1x1 -> fire2/expand1x1
I0604 20:56:02.719179   844 net.cpp:150] Setting up fire2/expand1x1
I0604 20:56:02.719197   844 net.cpp:157] Top shape: 512 64 30 30 (29491200)
I0604 20:56:02.719204   844 net.cpp:165] Memory required for data: 1976698880
I0604 20:56:02.719218   844 layer_factory.hpp:77] Creating layer fire2/relu_expand1x1
I0604 20:56:02.719229   844 net.cpp:106] Creating Layer fire2/relu_expand1x1
I0604 20:56:02.719233   844 net.cpp:454] fire2/relu_expand1x1 <- fire2/expand1x1
I0604 20:56:02.719238   844 net.cpp:397] fire2/relu_expand1x1 -> fire2/expand1x1 (in-place)
I0604 20:56:02.720451   844 net.cpp:150] Setting up fire2/relu_expand1x1
I0604 20:56:02.720468   844 net.cpp:157] Top shape: 512 64 30 30 (29491200)
I0604 20:56:02.720471   844 net.cpp:165] Memory required for data: 2094663680
I0604 20:56:02.720479   844 layer_factory.hpp:77] Creating layer fire2/expand3x3
I0604 20:56:02.720487   844 net.cpp:106] Creating Layer fire2/expand3x3
I0604 20:56:02.720491   844 net.cpp:454] fire2/expand3x3 <- fire2/squeeze1x1_fire2/relu_squeeze1x1_0_split_1
I0604 20:56:02.720502   844 net.cpp:411] fire2/expand3x3 -> fire2/expand3x3
I0604 20:56:02.724951   844 net.cpp:150] Setting up fire2/expand3x3
I0604 20:56:02.724974   844 net.cpp:157] Top shape: 512 64 30 30 (29491200)
I0604 20:56:02.724979   844 net.cpp:165] Memory required for data: 2212628480
I0604 20:56:02.724992   844 layer_factory.hpp:77] Creating layer fire2/relu_expand3x3
I0604 20:56:02.725003   844 net.cpp:106] Creating Layer fire2/relu_expand3x3
I0604 20:56:02.725009   844 net.cpp:454] fire2/relu_expand3x3 <- fire2/expand3x3
I0604 20:56:02.725026   844 net.cpp:397] fire2/relu_expand3x3 -> fire2/expand3x3 (in-place)
I0604 20:56:02.726109   844 net.cpp:150] Setting up fire2/relu_expand3x3
I0604 20:56:02.726125   844 net.cpp:157] Top shape: 512 64 30 30 (29491200)
I0604 20:56:02.726130   844 net.cpp:165] Memory required for data: 2330593280
I0604 20:56:02.726136   844 layer_factory.hpp:77] Creating layer fire2/concat
I0604 20:56:02.726153   844 net.cpp:106] Creating Layer fire2/concat
I0604 20:56:02.726166   844 net.cpp:454] fire2/concat <- fire2/expand1x1
I0604 20:56:02.726174   844 net.cpp:454] fire2/concat <- fire2/expand3x3
I0604 20:56:02.726188   844 net.cpp:411] fire2/concat -> fire2/concat
I0604 20:56:02.726234   844 net.cpp:150] Setting up fire2/concat
I0604 20:56:02.726245   844 net.cpp:157] Top shape: 512 128 30 30 (58982400)
I0604 20:56:02.726250   844 net.cpp:165] Memory required for data: 2566522880
I0604 20:56:02.726258   844 layer_factory.hpp:77] Creating layer fire3/squeeze1x1
I0604 20:56:02.726280   844 net.cpp:106] Creating Layer fire3/squeeze1x1
I0604 20:56:02.726286   844 net.cpp:454] fire3/squeeze1x1 <- fire2/concat
I0604 20:56:02.726297   844 net.cpp:411] fire3/squeeze1x1 -> fire3/squeeze1x1
I0604 20:56:02.730255   844 net.cpp:150] Setting up fire3/squeeze1x1
I0604 20:56:02.730278   844 net.cpp:157] Top shape: 512 16 30 30 (7372800)
I0604 20:56:02.730284   844 net.cpp:165] Memory required for data: 2596014080
I0604 20:56:02.730304   844 layer_factory.hpp:77] Creating layer fire3/relu_squeeze1x1
I0604 20:56:02.730322   844 net.cpp:106] Creating Layer fire3/relu_squeeze1x1
I0604 20:56:02.730330   844 net.cpp:454] fire3/relu_squeeze1x1 <- fire3/squeeze1x1
I0604 20:56:02.730342   844 net.cpp:397] fire3/relu_squeeze1x1 -> fire3/squeeze1x1 (in-place)
I0604 20:56:02.731269   844 net.cpp:150] Setting up fire3/relu_squeeze1x1
I0604 20:56:02.731286   844 net.cpp:157] Top shape: 512 16 30 30 (7372800)
I0604 20:56:02.731292   844 net.cpp:165] Memory required for data: 2625505280
I0604 20:56:02.731298   844 layer_factory.hpp:77] Creating layer fire3/squeeze1x1_fire3/relu_squeeze1x1_0_split
I0604 20:56:02.731312   844 net.cpp:106] Creating Layer fire3/squeeze1x1_fire3/relu_squeeze1x1_0_split
I0604 20:56:02.731317   844 net.cpp:454] fire3/squeeze1x1_fire3/relu_squeeze1x1_0_split <- fire3/squeeze1x1
I0604 20:56:02.731326   844 net.cpp:411] fire3/squeeze1x1_fire3/relu_squeeze1x1_0_split -> fire3/squeeze1x1_fire3/relu_squeeze1x1_0_split_0
I0604 20:56:02.731334   844 net.cpp:411] fire3/squeeze1x1_fire3/relu_squeeze1x1_0_split -> fire3/squeeze1x1_fire3/relu_squeeze1x1_0_split_1
I0604 20:56:02.731387   844 net.cpp:150] Setting up fire3/squeeze1x1_fire3/relu_squeeze1x1_0_split
I0604 20:56:02.731396   844 net.cpp:157] Top shape: 512 16 30 30 (7372800)
I0604 20:56:02.731401   844 net.cpp:157] Top shape: 512 16 30 30 (7372800)
I0604 20:56:02.731405   844 net.cpp:165] Memory required for data: 2684487680
I0604 20:56:02.731408   844 layer_factory.hpp:77] Creating layer fire3/expand1x1
I0604 20:56:02.731417   844 net.cpp:106] Creating Layer fire3/expand1x1
I0604 20:56:02.731423   844 net.cpp:454] fire3/expand1x1 <- fire3/squeeze1x1_fire3/relu_squeeze1x1_0_split_0
I0604 20:56:02.731431   844 net.cpp:411] fire3/expand1x1 -> fire3/expand1x1
I0604 20:56:02.735846   844 net.cpp:150] Setting up fire3/expand1x1
I0604 20:56:02.735859   844 net.cpp:157] Top shape: 512 64 30 30 (29491200)
I0604 20:56:02.735863   844 net.cpp:165] Memory required for data: 2802452480
I0604 20:56:02.735872   844 layer_factory.hpp:77] Creating layer fire3/relu_expand1x1
I0604 20:56:02.735880   844 net.cpp:106] Creating Layer fire3/relu_expand1x1
I0604 20:56:02.735884   844 net.cpp:454] fire3/relu_expand1x1 <- fire3/expand1x1
I0604 20:56:02.735891   844 net.cpp:397] fire3/relu_expand1x1 -> fire3/expand1x1 (in-place)
I0604 20:56:02.736876   844 net.cpp:150] Setting up fire3/relu_expand1x1
I0604 20:56:02.736887   844 net.cpp:157] Top shape: 512 64 30 30 (29491200)
I0604 20:56:02.736891   844 net.cpp:165] Memory required for data: 2920417280
I0604 20:56:02.736894   844 layer_factory.hpp:77] Creating layer fire3/expand3x3
I0604 20:56:02.736902   844 net.cpp:106] Creating Layer fire3/expand3x3
I0604 20:56:02.736907   844 net.cpp:454] fire3/expand3x3 <- fire3/squeeze1x1_fire3/relu_squeeze1x1_0_split_1
I0604 20:56:02.736914   844 net.cpp:411] fire3/expand3x3 -> fire3/expand3x3
I0604 20:56:02.740543   844 net.cpp:150] Setting up fire3/expand3x3
I0604 20:56:02.740556   844 net.cpp:157] Top shape: 512 64 30 30 (29491200)
I0604 20:56:02.740559   844 net.cpp:165] Memory required for data: 3038382080
I0604 20:56:02.740567   844 layer_factory.hpp:77] Creating layer fire3/relu_expand3x3
I0604 20:56:02.740576   844 net.cpp:106] Creating Layer fire3/relu_expand3x3
I0604 20:56:02.740579   844 net.cpp:454] fire3/relu_expand3x3 <- fire3/expand3x3
I0604 20:56:02.740586   844 net.cpp:397] fire3/relu_expand3x3 -> fire3/expand3x3 (in-place)
I0604 20:56:02.741480   844 net.cpp:150] Setting up fire3/relu_expand3x3
I0604 20:56:02.741492   844 net.cpp:157] Top shape: 512 64 30 30 (29491200)
I0604 20:56:02.741495   844 net.cpp:165] Memory required for data: 3156346880
I0604 20:56:02.741499   844 layer_factory.hpp:77] Creating layer fire3/concat
I0604 20:56:02.741508   844 net.cpp:106] Creating Layer fire3/concat
I0604 20:56:02.741511   844 net.cpp:454] fire3/concat <- fire3/expand1x1
I0604 20:56:02.741516   844 net.cpp:454] fire3/concat <- fire3/expand3x3
I0604 20:56:02.741521   844 net.cpp:411] fire3/concat -> fire3/concat
I0604 20:56:02.741556   844 net.cpp:150] Setting up fire3/concat
I0604 20:56:02.741564   844 net.cpp:157] Top shape: 512 128 30 30 (58982400)
I0604 20:56:02.741567   844 net.cpp:165] Memory required for data: 3392276480
I0604 20:56:02.741570   844 layer_factory.hpp:77] Creating layer fire4/squeeze1x1
I0604 20:56:02.741595   844 net.cpp:106] Creating Layer fire4/squeeze1x1
I0604 20:56:02.741600   844 net.cpp:454] fire4/squeeze1x1 <- fire3/concat
I0604 20:56:02.741605   844 net.cpp:411] fire4/squeeze1x1 -> fire4/squeeze1x1
I0604 20:56:02.745127   844 net.cpp:150] Setting up fire4/squeeze1x1
I0604 20:56:02.745141   844 net.cpp:157] Top shape: 512 32 30 30 (14745600)
I0604 20:56:02.745144   844 net.cpp:165] Memory required for data: 3451258880
I0604 20:56:02.745156   844 layer_factory.hpp:77] Creating layer fire4/relu_squeeze1x1
I0604 20:56:02.745162   844 net.cpp:106] Creating Layer fire4/relu_squeeze1x1
I0604 20:56:02.745167   844 net.cpp:454] fire4/relu_squeeze1x1 <- fire4/squeeze1x1
I0604 20:56:02.745174   844 net.cpp:397] fire4/relu_squeeze1x1 -> fire4/squeeze1x1 (in-place)
I0604 20:56:02.746196   844 net.cpp:150] Setting up fire4/relu_squeeze1x1
I0604 20:56:02.746207   844 net.cpp:157] Top shape: 512 32 30 30 (14745600)
I0604 20:56:02.746211   844 net.cpp:165] Memory required for data: 3510241280
I0604 20:56:02.746214   844 layer_factory.hpp:77] Creating layer fire4/squeeze1x1_fire4/relu_squeeze1x1_0_split
I0604 20:56:02.746222   844 net.cpp:106] Creating Layer fire4/squeeze1x1_fire4/relu_squeeze1x1_0_split
I0604 20:56:02.746227   844 net.cpp:454] fire4/squeeze1x1_fire4/relu_squeeze1x1_0_split <- fire4/squeeze1x1
I0604 20:56:02.746232   844 net.cpp:411] fire4/squeeze1x1_fire4/relu_squeeze1x1_0_split -> fire4/squeeze1x1_fire4/relu_squeeze1x1_0_split_0
I0604 20:56:02.746239   844 net.cpp:411] fire4/squeeze1x1_fire4/relu_squeeze1x1_0_split -> fire4/squeeze1x1_fire4/relu_squeeze1x1_0_split_1
I0604 20:56:02.746287   844 net.cpp:150] Setting up fire4/squeeze1x1_fire4/relu_squeeze1x1_0_split
I0604 20:56:02.746294   844 net.cpp:157] Top shape: 512 32 30 30 (14745600)
I0604 20:56:02.746299   844 net.cpp:157] Top shape: 512 32 30 30 (14745600)
I0604 20:56:02.746300   844 net.cpp:165] Memory required for data: 3628206080
I0604 20:56:02.746304   844 layer_factory.hpp:77] Creating layer fire4/expand1x1
I0604 20:56:02.746321   844 net.cpp:106] Creating Layer fire4/expand1x1
I0604 20:56:02.746325   844 net.cpp:454] fire4/expand1x1 <- fire4/squeeze1x1_fire4/relu_squeeze1x1_0_split_0
I0604 20:56:02.746331   844 net.cpp:411] fire4/expand1x1 -> fire4/expand1x1
I0604 20:56:02.749830   844 net.cpp:150] Setting up fire4/expand1x1
I0604 20:56:02.749842   844 net.cpp:157] Top shape: 512 128 30 30 (58982400)
I0604 20:56:02.749845   844 net.cpp:165] Memory required for data: 3864135680
I0604 20:56:02.749857   844 layer_factory.hpp:77] Creating layer fire4/relu_expand1x1
I0604 20:56:02.749864   844 net.cpp:106] Creating Layer fire4/relu_expand1x1
I0604 20:56:02.749869   844 net.cpp:454] fire4/relu_expand1x1 <- fire4/expand1x1
I0604 20:56:02.749876   844 net.cpp:397] fire4/relu_expand1x1 -> fire4/expand1x1 (in-place)
I0604 20:56:02.750900   844 net.cpp:150] Setting up fire4/relu_expand1x1
I0604 20:56:02.750908   844 net.cpp:157] Top shape: 512 128 30 30 (58982400)
I0604 20:56:02.750911   844 net.cpp:165] Memory required for data: 4100065280
I0604 20:56:02.750916   844 layer_factory.hpp:77] Creating layer fire4/expand3x3
I0604 20:56:02.750926   844 net.cpp:106] Creating Layer fire4/expand3x3
I0604 20:56:02.750929   844 net.cpp:454] fire4/expand3x3 <- fire4/squeeze1x1_fire4/relu_squeeze1x1_0_split_1
I0604 20:56:02.750936   844 net.cpp:411] fire4/expand3x3 -> fire4/expand3x3
I0604 20:56:02.754547   844 net.cpp:150] Setting up fire4/expand3x3
I0604 20:56:02.754561   844 net.cpp:157] Top shape: 512 128 30 30 (58982400)
I0604 20:56:02.754565   844 net.cpp:165] Memory required for data: 4335994880
I0604 20:56:02.754572   844 layer_factory.hpp:77] Creating layer fire4/relu_expand3x3
I0604 20:56:02.754580   844 net.cpp:106] Creating Layer fire4/relu_expand3x3
I0604 20:56:02.754585   844 net.cpp:454] fire4/relu_expand3x3 <- fire4/expand3x3
I0604 20:56:02.754590   844 net.cpp:397] fire4/relu_expand3x3 -> fire4/expand3x3 (in-place)
I0604 20:56:02.756645   844 net.cpp:150] Setting up fire4/relu_expand3x3
I0604 20:56:02.756657   844 net.cpp:157] Top shape: 512 128 30 30 (58982400)
I0604 20:56:02.756675   844 net.cpp:165] Memory required for data: 4571924480
I0604 20:56:02.756680   844 layer_factory.hpp:77] Creating layer fire4/concat
I0604 20:56:02.756687   844 net.cpp:106] Creating Layer fire4/concat
I0604 20:56:02.756691   844 net.cpp:454] fire4/concat <- fire4/expand1x1
I0604 20:56:02.756696   844 net.cpp:454] fire4/concat <- fire4/expand3x3
I0604 20:56:02.756701   844 net.cpp:411] fire4/concat -> fire4/concat
I0604 20:56:02.756736   844 net.cpp:150] Setting up fire4/concat
I0604 20:56:02.756744   844 net.cpp:157] Top shape: 512 256 30 30 (117964800)
I0604 20:56:02.756748   844 net.cpp:165] Memory required for data: 5043783680
I0604 20:56:02.756752   844 layer_factory.hpp:77] Creating layer pool4
I0604 20:56:02.756758   844 net.cpp:106] Creating Layer pool4
I0604 20:56:02.756762   844 net.cpp:454] pool4 <- fire4/concat
I0604 20:56:02.756769   844 net.cpp:411] pool4 -> pool4
I0604 20:56:02.756811   844 net.cpp:150] Setting up pool4
I0604 20:56:02.756819   844 net.cpp:157] Top shape: 512 256 15 15 (29491200)
I0604 20:56:02.756822   844 net.cpp:165] Memory required for data: 5161748480
I0604 20:56:02.756825   844 layer_factory.hpp:77] Creating layer fire5/squeeze1x1
I0604 20:56:02.756834   844 net.cpp:106] Creating Layer fire5/squeeze1x1
I0604 20:56:02.756836   844 net.cpp:454] fire5/squeeze1x1 <- pool4
I0604 20:56:02.756844   844 net.cpp:411] fire5/squeeze1x1 -> fire5/squeeze1x1
I0604 20:56:02.761343   844 net.cpp:150] Setting up fire5/squeeze1x1
I0604 20:56:02.761358   844 net.cpp:157] Top shape: 512 32 15 15 (3686400)
I0604 20:56:02.761361   844 net.cpp:165] Memory required for data: 5176494080
I0604 20:56:02.761368   844 layer_factory.hpp:77] Creating layer fire5/relu_squeeze1x1
I0604 20:56:02.761375   844 net.cpp:106] Creating Layer fire5/relu_squeeze1x1
I0604 20:56:02.761379   844 net.cpp:454] fire5/relu_squeeze1x1 <- fire5/squeeze1x1
I0604 20:56:02.761384   844 net.cpp:397] fire5/relu_squeeze1x1 -> fire5/squeeze1x1 (in-place)
I0604 20:56:02.762406   844 net.cpp:150] Setting up fire5/relu_squeeze1x1
I0604 20:56:02.762418   844 net.cpp:157] Top shape: 512 32 15 15 (3686400)
I0604 20:56:02.762423   844 net.cpp:165] Memory required for data: 5191239680
I0604 20:56:02.762425   844 layer_factory.hpp:77] Creating layer fire5/squeeze1x1_fire5/relu_squeeze1x1_0_split
I0604 20:56:02.762433   844 net.cpp:106] Creating Layer fire5/squeeze1x1_fire5/relu_squeeze1x1_0_split
I0604 20:56:02.762435   844 net.cpp:454] fire5/squeeze1x1_fire5/relu_squeeze1x1_0_split <- fire5/squeeze1x1
I0604 20:56:02.762440   844 net.cpp:411] fire5/squeeze1x1_fire5/relu_squeeze1x1_0_split -> fire5/squeeze1x1_fire5/relu_squeeze1x1_0_split_0
I0604 20:56:02.762450   844 net.cpp:411] fire5/squeeze1x1_fire5/relu_squeeze1x1_0_split -> fire5/squeeze1x1_fire5/relu_squeeze1x1_0_split_1
I0604 20:56:02.762500   844 net.cpp:150] Setting up fire5/squeeze1x1_fire5/relu_squeeze1x1_0_split
I0604 20:56:02.762506   844 net.cpp:157] Top shape: 512 32 15 15 (3686400)
I0604 20:56:02.762509   844 net.cpp:157] Top shape: 512 32 15 15 (3686400)
I0604 20:56:02.762512   844 net.cpp:165] Memory required for data: 5220730880
I0604 20:56:02.762516   844 layer_factory.hpp:77] Creating layer fire5/expand1x1
I0604 20:56:02.762534   844 net.cpp:106] Creating Layer fire5/expand1x1
I0604 20:56:02.762539   844 net.cpp:454] fire5/expand1x1 <- fire5/squeeze1x1_fire5/relu_squeeze1x1_0_split_0
I0604 20:56:02.762545   844 net.cpp:411] fire5/expand1x1 -> fire5/expand1x1
I0604 20:56:02.766070   844 net.cpp:150] Setting up fire5/expand1x1
I0604 20:56:02.766084   844 net.cpp:157] Top shape: 512 128 15 15 (14745600)
I0604 20:56:02.766088   844 net.cpp:165] Memory required for data: 5279713280
I0604 20:56:02.766095   844 layer_factory.hpp:77] Creating layer fire5/relu_expand1x1
I0604 20:56:02.766103   844 net.cpp:106] Creating Layer fire5/relu_expand1x1
I0604 20:56:02.766108   844 net.cpp:454] fire5/relu_expand1x1 <- fire5/expand1x1
I0604 20:56:02.766114   844 net.cpp:397] fire5/relu_expand1x1 -> fire5/expand1x1 (in-place)
I0604 20:56:02.767130   844 net.cpp:150] Setting up fire5/relu_expand1x1
I0604 20:56:02.767141   844 net.cpp:157] Top shape: 512 128 15 15 (14745600)
I0604 20:56:02.767144   844 net.cpp:165] Memory required for data: 5338695680
I0604 20:56:02.767148   844 layer_factory.hpp:77] Creating layer fire5/expand3x3
I0604 20:56:02.767158   844 net.cpp:106] Creating Layer fire5/expand3x3
I0604 20:56:02.767163   844 net.cpp:454] fire5/expand3x3 <- fire5/squeeze1x1_fire5/relu_squeeze1x1_0_split_1
I0604 20:56:02.767171   844 net.cpp:411] fire5/expand3x3 -> fire5/expand3x3
I0604 20:56:02.771807   844 net.cpp:150] Setting up fire5/expand3x3
I0604 20:56:02.771821   844 net.cpp:157] Top shape: 512 128 15 15 (14745600)
I0604 20:56:02.771824   844 net.cpp:165] Memory required for data: 5397678080
I0604 20:56:02.771831   844 layer_factory.hpp:77] Creating layer fire5/relu_expand3x3
I0604 20:56:02.771839   844 net.cpp:106] Creating Layer fire5/relu_expand3x3
I0604 20:56:02.771843   844 net.cpp:454] fire5/relu_expand3x3 <- fire5/expand3x3
I0604 20:56:02.771849   844 net.cpp:397] fire5/relu_expand3x3 -> fire5/expand3x3 (in-place)
I0604 20:56:02.772867   844 net.cpp:150] Setting up fire5/relu_expand3x3
I0604 20:56:02.772881   844 net.cpp:157] Top shape: 512 128 15 15 (14745600)
I0604 20:56:02.772884   844 net.cpp:165] Memory required for data: 5456660480
I0604 20:56:02.772888   844 layer_factory.hpp:77] Creating layer fire5/concat
I0604 20:56:02.772894   844 net.cpp:106] Creating Layer fire5/concat
I0604 20:56:02.772897   844 net.cpp:454] fire5/concat <- fire5/expand1x1
I0604 20:56:02.772902   844 net.cpp:454] fire5/concat <- fire5/expand3x3
I0604 20:56:02.772909   844 net.cpp:411] fire5/concat -> fire5/concat
I0604 20:56:02.772943   844 net.cpp:150] Setting up fire5/concat
I0604 20:56:02.772950   844 net.cpp:157] Top shape: 512 256 15 15 (29491200)
I0604 20:56:02.772953   844 net.cpp:165] Memory required for data: 5574625280
I0604 20:56:02.772956   844 layer_factory.hpp:77] Creating layer fire6/squeeze1x1
I0604 20:56:02.772969   844 net.cpp:106] Creating Layer fire6/squeeze1x1
I0604 20:56:02.772974   844 net.cpp:454] fire6/squeeze1x1 <- fire5/concat
I0604 20:56:02.772980   844 net.cpp:411] fire6/squeeze1x1 -> fire6/squeeze1x1
I0604 20:56:02.776522   844 net.cpp:150] Setting up fire6/squeeze1x1
I0604 20:56:02.776535   844 net.cpp:157] Top shape: 512 48 15 15 (5529600)
I0604 20:56:02.776540   844 net.cpp:165] Memory required for data: 5596743680
I0604 20:56:02.776546   844 layer_factory.hpp:77] Creating layer fire6/relu_squeeze1x1
I0604 20:56:02.776552   844 net.cpp:106] Creating Layer fire6/relu_squeeze1x1
I0604 20:56:02.776556   844 net.cpp:454] fire6/relu_squeeze1x1 <- fire6/squeeze1x1
I0604 20:56:02.776563   844 net.cpp:397] fire6/relu_squeeze1x1 -> fire6/squeeze1x1 (in-place)
I0604 20:56:02.777572   844 net.cpp:150] Setting up fire6/relu_squeeze1x1
I0604 20:56:02.777585   844 net.cpp:157] Top shape: 512 48 15 15 (5529600)
I0604 20:56:02.777587   844 net.cpp:165] Memory required for data: 5618862080
I0604 20:56:02.777591   844 layer_factory.hpp:77] Creating layer fire6/squeeze1x1_fire6/relu_squeeze1x1_0_split
I0604 20:56:02.777597   844 net.cpp:106] Creating Layer fire6/squeeze1x1_fire6/relu_squeeze1x1_0_split
I0604 20:56:02.777601   844 net.cpp:454] fire6/squeeze1x1_fire6/relu_squeeze1x1_0_split <- fire6/squeeze1x1
I0604 20:56:02.777608   844 net.cpp:411] fire6/squeeze1x1_fire6/relu_squeeze1x1_0_split -> fire6/squeeze1x1_fire6/relu_squeeze1x1_0_split_0
I0604 20:56:02.777616   844 net.cpp:411] fire6/squeeze1x1_fire6/relu_squeeze1x1_0_split -> fire6/squeeze1x1_fire6/relu_squeeze1x1_0_split_1
I0604 20:56:02.777663   844 net.cpp:150] Setting up fire6/squeeze1x1_fire6/relu_squeeze1x1_0_split
I0604 20:56:02.777670   844 net.cpp:157] Top shape: 512 48 15 15 (5529600)
I0604 20:56:02.777674   844 net.cpp:157] Top shape: 512 48 15 15 (5529600)
I0604 20:56:02.777678   844 net.cpp:165] Memory required for data: 5663098880
I0604 20:56:02.777680   844 layer_factory.hpp:77] Creating layer fire6/expand1x1
I0604 20:56:02.777693   844 net.cpp:106] Creating Layer fire6/expand1x1
I0604 20:56:02.777712   844 net.cpp:454] fire6/expand1x1 <- fire6/squeeze1x1_fire6/relu_squeeze1x1_0_split_0
I0604 20:56:02.777719   844 net.cpp:411] fire6/expand1x1 -> fire6/expand1x1
I0604 20:56:02.781224   844 net.cpp:150] Setting up fire6/expand1x1
I0604 20:56:02.781242   844 net.cpp:157] Top shape: 512 192 15 15 (22118400)
I0604 20:56:02.781249   844 net.cpp:165] Memory required for data: 5751572480
I0604 20:56:02.781257   844 layer_factory.hpp:77] Creating layer fire6/relu_expand1x1
I0604 20:56:02.781265   844 net.cpp:106] Creating Layer fire6/relu_expand1x1
I0604 20:56:02.781267   844 net.cpp:454] fire6/relu_expand1x1 <- fire6/expand1x1
I0604 20:56:02.781275   844 net.cpp:397] fire6/relu_expand1x1 -> fire6/expand1x1 (in-place)
I0604 20:56:02.782274   844 net.cpp:150] Setting up fire6/relu_expand1x1
I0604 20:56:02.782284   844 net.cpp:157] Top shape: 512 192 15 15 (22118400)
I0604 20:56:02.782286   844 net.cpp:165] Memory required for data: 5840046080
I0604 20:56:02.782290   844 layer_factory.hpp:77] Creating layer fire6/expand3x3
I0604 20:56:02.782300   844 net.cpp:106] Creating Layer fire6/expand3x3
I0604 20:56:02.782304   844 net.cpp:454] fire6/expand3x3 <- fire6/squeeze1x1_fire6/relu_squeeze1x1_0_split_1
I0604 20:56:02.782311   844 net.cpp:411] fire6/expand3x3 -> fire6/expand3x3
I0604 20:56:02.786986   844 net.cpp:150] Setting up fire6/expand3x3
I0604 20:56:02.787001   844 net.cpp:157] Top shape: 512 192 15 15 (22118400)
I0604 20:56:02.787005   844 net.cpp:165] Memory required for data: 5928519680
I0604 20:56:02.787012   844 layer_factory.hpp:77] Creating layer fire6/relu_expand3x3
I0604 20:56:02.787020   844 net.cpp:106] Creating Layer fire6/relu_expand3x3
I0604 20:56:02.787024   844 net.cpp:454] fire6/relu_expand3x3 <- fire6/expand3x3
I0604 20:56:02.787032   844 net.cpp:397] fire6/relu_expand3x3 -> fire6/expand3x3 (in-place)
I0604 20:56:02.788041   844 net.cpp:150] Setting up fire6/relu_expand3x3
I0604 20:56:02.788053   844 net.cpp:157] Top shape: 512 192 15 15 (22118400)
I0604 20:56:02.788056   844 net.cpp:165] Memory required for data: 6016993280
I0604 20:56:02.788060   844 layer_factory.hpp:77] Creating layer fire6/concat
I0604 20:56:02.788067   844 net.cpp:106] Creating Layer fire6/concat
I0604 20:56:02.788070   844 net.cpp:454] fire6/concat <- fire6/expand1x1
I0604 20:56:02.788075   844 net.cpp:454] fire6/concat <- fire6/expand3x3
I0604 20:56:02.788082   844 net.cpp:411] fire6/concat -> fire6/concat
I0604 20:56:02.788125   844 net.cpp:150] Setting up fire6/concat
I0604 20:56:02.788131   844 net.cpp:157] Top shape: 512 384 15 15 (44236800)
I0604 20:56:02.788135   844 net.cpp:165] Memory required for data: 6193940480
I0604 20:56:02.788137   844 layer_factory.hpp:77] Creating layer fire7/squeeze1x1
I0604 20:56:02.788146   844 net.cpp:106] Creating Layer fire7/squeeze1x1
I0604 20:56:02.788149   844 net.cpp:454] fire7/squeeze1x1 <- fire6/concat
I0604 20:56:02.788156   844 net.cpp:411] fire7/squeeze1x1 -> fire7/squeeze1x1
I0604 20:56:02.791681   844 net.cpp:150] Setting up fire7/squeeze1x1
I0604 20:56:02.791693   844 net.cpp:157] Top shape: 512 48 15 15 (5529600)
I0604 20:56:02.791697   844 net.cpp:165] Memory required for data: 6216058880
I0604 20:56:02.791713   844 layer_factory.hpp:77] Creating layer fire7/relu_squeeze1x1
I0604 20:56:02.791723   844 net.cpp:106] Creating Layer fire7/relu_squeeze1x1
I0604 20:56:02.791729   844 net.cpp:454] fire7/relu_squeeze1x1 <- fire7/squeeze1x1
I0604 20:56:02.791734   844 net.cpp:397] fire7/relu_squeeze1x1 -> fire7/squeeze1x1 (in-place)
I0604 20:56:02.792734   844 net.cpp:150] Setting up fire7/relu_squeeze1x1
I0604 20:56:02.792747   844 net.cpp:157] Top shape: 512 48 15 15 (5529600)
I0604 20:56:02.792750   844 net.cpp:165] Memory required for data: 6238177280
I0604 20:56:02.792753   844 layer_factory.hpp:77] Creating layer fire7/squeeze1x1_fire7/relu_squeeze1x1_0_split
I0604 20:56:02.792760   844 net.cpp:106] Creating Layer fire7/squeeze1x1_fire7/relu_squeeze1x1_0_split
I0604 20:56:02.792763   844 net.cpp:454] fire7/squeeze1x1_fire7/relu_squeeze1x1_0_split <- fire7/squeeze1x1
I0604 20:56:02.792786   844 net.cpp:411] fire7/squeeze1x1_fire7/relu_squeeze1x1_0_split -> fire7/squeeze1x1_fire7/relu_squeeze1x1_0_split_0
I0604 20:56:02.792794   844 net.cpp:411] fire7/squeeze1x1_fire7/relu_squeeze1x1_0_split -> fire7/squeeze1x1_fire7/relu_squeeze1x1_0_split_1
I0604 20:56:02.792845   844 net.cpp:150] Setting up fire7/squeeze1x1_fire7/relu_squeeze1x1_0_split
I0604 20:56:02.792852   844 net.cpp:157] Top shape: 512 48 15 15 (5529600)
I0604 20:56:02.792857   844 net.cpp:157] Top shape: 512 48 15 15 (5529600)
I0604 20:56:02.792860   844 net.cpp:165] Memory required for data: 6282414080
I0604 20:56:02.792863   844 layer_factory.hpp:77] Creating layer fire7/expand1x1
I0604 20:56:02.792873   844 net.cpp:106] Creating Layer fire7/expand1x1
I0604 20:56:02.792878   844 net.cpp:454] fire7/expand1x1 <- fire7/squeeze1x1_fire7/relu_squeeze1x1_0_split_0
I0604 20:56:02.792884   844 net.cpp:411] fire7/expand1x1 -> fire7/expand1x1
I0604 20:56:02.796439   844 net.cpp:150] Setting up fire7/expand1x1
I0604 20:56:02.796466   844 net.cpp:157] Top shape: 512 192 15 15 (22118400)
I0604 20:56:02.796473   844 net.cpp:165] Memory required for data: 6370887680
I0604 20:56:02.796485   844 layer_factory.hpp:77] Creating layer fire7/relu_expand1x1
I0604 20:56:02.796495   844 net.cpp:106] Creating Layer fire7/relu_expand1x1
I0604 20:56:02.796505   844 net.cpp:454] fire7/relu_expand1x1 <- fire7/expand1x1
I0604 20:56:02.796535   844 net.cpp:397] fire7/relu_expand1x1 -> fire7/expand1x1 (in-place)
I0604 20:56:02.797436   844 net.cpp:150] Setting up fire7/relu_expand1x1
I0604 20:56:02.797451   844 net.cpp:157] Top shape: 512 192 15 15 (22118400)
I0604 20:56:02.797456   844 net.cpp:165] Memory required for data: 6459361280
I0604 20:56:02.797461   844 layer_factory.hpp:77] Creating layer fire7/expand3x3
I0604 20:56:02.797503   844 net.cpp:106] Creating Layer fire7/expand3x3
I0604 20:56:02.797514   844 net.cpp:454] fire7/expand3x3 <- fire7/squeeze1x1_fire7/relu_squeeze1x1_0_split_1
I0604 20:56:02.797525   844 net.cpp:411] fire7/expand3x3 -> fire7/expand3x3
I0604 20:56:02.801113   844 net.cpp:150] Setting up fire7/expand3x3
I0604 20:56:02.801134   844 net.cpp:157] Top shape: 512 192 15 15 (22118400)
I0604 20:56:02.801138   844 net.cpp:165] Memory required for data: 6547834880
I0604 20:56:02.801146   844 layer_factory.hpp:77] Creating layer fire7/relu_expand3x3
I0604 20:56:02.801154   844 net.cpp:106] Creating Layer fire7/relu_expand3x3
I0604 20:56:02.801159   844 net.cpp:454] fire7/relu_expand3x3 <- fire7/expand3x3
I0604 20:56:02.801168   844 net.cpp:397] fire7/relu_expand3x3 -> fire7/expand3x3 (in-place)
I0604 20:56:02.802139   844 net.cpp:150] Setting up fire7/relu_expand3x3
I0604 20:56:02.802151   844 net.cpp:157] Top shape: 512 192 15 15 (22118400)
I0604 20:56:02.802155   844 net.cpp:165] Memory required for data: 6636308480
I0604 20:56:02.802158   844 layer_factory.hpp:77] Creating layer fire7/concat
I0604 20:56:02.802165   844 net.cpp:106] Creating Layer fire7/concat
I0604 20:56:02.802170   844 net.cpp:454] fire7/concat <- fire7/expand1x1
I0604 20:56:02.802175   844 net.cpp:454] fire7/concat <- fire7/expand3x3
I0604 20:56:02.802181   844 net.cpp:411] fire7/concat -> fire7/concat
I0604 20:56:02.802217   844 net.cpp:150] Setting up fire7/concat
I0604 20:56:02.802224   844 net.cpp:157] Top shape: 512 384 15 15 (44236800)
I0604 20:56:02.802230   844 net.cpp:165] Memory required for data: 6813255680
I0604 20:56:02.802233   844 layer_factory.hpp:77] Creating layer fire8/squeeze1x1
I0604 20:56:02.802242   844 net.cpp:106] Creating Layer fire8/squeeze1x1
I0604 20:56:02.802245   844 net.cpp:454] fire8/squeeze1x1 <- fire7/concat
I0604 20:56:02.802253   844 net.cpp:411] fire8/squeeze1x1 -> fire8/squeeze1x1
I0604 20:56:02.806448   844 net.cpp:150] Setting up fire8/squeeze1x1
I0604 20:56:02.806462   844 net.cpp:157] Top shape: 512 64 15 15 (7372800)
I0604 20:56:02.806465   844 net.cpp:165] Memory required for data: 6842746880
I0604 20:56:02.806473   844 layer_factory.hpp:77] Creating layer fire8/relu_squeeze1x1
I0604 20:56:02.806481   844 net.cpp:106] Creating Layer fire8/relu_squeeze1x1
I0604 20:56:02.806505   844 net.cpp:454] fire8/relu_squeeze1x1 <- fire8/squeeze1x1
I0604 20:56:02.806512   844 net.cpp:397] fire8/relu_squeeze1x1 -> fire8/squeeze1x1 (in-place)
I0604 20:56:02.807651   844 net.cpp:150] Setting up fire8/relu_squeeze1x1
I0604 20:56:02.807663   844 net.cpp:157] Top shape: 512 64 15 15 (7372800)
I0604 20:56:02.807667   844 net.cpp:165] Memory required for data: 6872238080
I0604 20:56:02.807670   844 layer_factory.hpp:77] Creating layer fire8/squeeze1x1_fire8/relu_squeeze1x1_0_split
I0604 20:56:02.807679   844 net.cpp:106] Creating Layer fire8/squeeze1x1_fire8/relu_squeeze1x1_0_split
I0604 20:56:02.807682   844 net.cpp:454] fire8/squeeze1x1_fire8/relu_squeeze1x1_0_split <- fire8/squeeze1x1
I0604 20:56:02.807688   844 net.cpp:411] fire8/squeeze1x1_fire8/relu_squeeze1x1_0_split -> fire8/squeeze1x1_fire8/relu_squeeze1x1_0_split_0
I0604 20:56:02.807696   844 net.cpp:411] fire8/squeeze1x1_fire8/relu_squeeze1x1_0_split -> fire8/squeeze1x1_fire8/relu_squeeze1x1_0_split_1
I0604 20:56:02.807749   844 net.cpp:150] Setting up fire8/squeeze1x1_fire8/relu_squeeze1x1_0_split
I0604 20:56:02.807756   844 net.cpp:157] Top shape: 512 64 15 15 (7372800)
I0604 20:56:02.807760   844 net.cpp:157] Top shape: 512 64 15 15 (7372800)
I0604 20:56:02.807763   844 net.cpp:165] Memory required for data: 6931220480
I0604 20:56:02.807766   844 layer_factory.hpp:77] Creating layer fire8/expand1x1
I0604 20:56:02.807776   844 net.cpp:106] Creating Layer fire8/expand1x1
I0604 20:56:02.807782   844 net.cpp:454] fire8/expand1x1 <- fire8/squeeze1x1_fire8/relu_squeeze1x1_0_split_0
I0604 20:56:02.807788   844 net.cpp:411] fire8/expand1x1 -> fire8/expand1x1
I0604 20:56:02.811260   844 net.cpp:150] Setting up fire8/expand1x1
I0604 20:56:02.811275   844 net.cpp:157] Top shape: 512 256 15 15 (29491200)
I0604 20:56:02.811277   844 net.cpp:165] Memory required for data: 7049185280
I0604 20:56:02.811285   844 layer_factory.hpp:77] Creating layer fire8/relu_expand1x1
I0604 20:56:02.811293   844 net.cpp:106] Creating Layer fire8/relu_expand1x1
I0604 20:56:02.811300   844 net.cpp:454] fire8/relu_expand1x1 <- fire8/expand1x1
I0604 20:56:02.811305   844 net.cpp:397] fire8/relu_expand1x1 -> fire8/expand1x1 (in-place)
I0604 20:56:02.816697   844 net.cpp:150] Setting up fire8/relu_expand1x1
I0604 20:56:02.816715   844 net.cpp:157] Top shape: 512 256 15 15 (29491200)
I0604 20:56:02.816717   844 net.cpp:165] Memory required for data: 7167150080
I0604 20:56:02.816720   844 layer_factory.hpp:77] Creating layer fire8/expand3x3
I0604 20:56:02.816732   844 net.cpp:106] Creating Layer fire8/expand3x3
I0604 20:56:02.816735   844 net.cpp:454] fire8/expand3x3 <- fire8/squeeze1x1_fire8/relu_squeeze1x1_0_split_1
I0604 20:56:02.816741   844 net.cpp:411] fire8/expand3x3 -> fire8/expand3x3
I0604 20:56:02.820350   844 net.cpp:150] Setting up fire8/expand3x3
I0604 20:56:02.820364   844 net.cpp:157] Top shape: 512 256 15 15 (29491200)
I0604 20:56:02.820369   844 net.cpp:165] Memory required for data: 7285114880
I0604 20:56:02.820389   844 layer_factory.hpp:77] Creating layer fire8/relu_expand3x3
I0604 20:56:02.820395   844 net.cpp:106] Creating Layer fire8/relu_expand3x3
I0604 20:56:02.820399   844 net.cpp:454] fire8/relu_expand3x3 <- fire8/expand3x3
I0604 20:56:02.820410   844 net.cpp:397] fire8/relu_expand3x3 -> fire8/expand3x3 (in-place)
I0604 20:56:02.821399   844 net.cpp:150] Setting up fire8/relu_expand3x3
I0604 20:56:02.821413   844 net.cpp:157] Top shape: 512 256 15 15 (29491200)
I0604 20:56:02.821415   844 net.cpp:165] Memory required for data: 7403079680
I0604 20:56:02.821419   844 layer_factory.hpp:77] Creating layer fire8/concat
I0604 20:56:02.821427   844 net.cpp:106] Creating Layer fire8/concat
I0604 20:56:02.821430   844 net.cpp:454] fire8/concat <- fire8/expand1x1
I0604 20:56:02.821435   844 net.cpp:454] fire8/concat <- fire8/expand3x3
I0604 20:56:02.821440   844 net.cpp:411] fire8/concat -> fire8/concat
I0604 20:56:02.821476   844 net.cpp:150] Setting up fire8/concat
I0604 20:56:02.821485   844 net.cpp:157] Top shape: 512 512 15 15 (58982400)
I0604 20:56:02.821503   844 net.cpp:165] Memory required for data: 7639009280
I0604 20:56:02.821507   844 layer_factory.hpp:77] Creating layer pool8
I0604 20:56:02.821517   844 net.cpp:106] Creating Layer pool8
I0604 20:56:02.821521   844 net.cpp:454] pool8 <- fire8/concat
I0604 20:56:02.821526   844 net.cpp:411] pool8 -> pool8
I0604 20:56:02.821573   844 net.cpp:150] Setting up pool8
I0604 20:56:02.821580   844 net.cpp:157] Top shape: 512 512 7 7 (12845056)
I0604 20:56:02.821583   844 net.cpp:165] Memory required for data: 7690389504
I0604 20:56:02.821586   844 layer_factory.hpp:77] Creating layer fire9/squeeze1x1
I0604 20:56:02.821596   844 net.cpp:106] Creating Layer fire9/squeeze1x1
I0604 20:56:02.821600   844 net.cpp:454] fire9/squeeze1x1 <- pool8
I0604 20:56:02.821606   844 net.cpp:411] fire9/squeeze1x1 -> fire9/squeeze1x1
I0604 20:56:02.825064   844 net.cpp:150] Setting up fire9/squeeze1x1
I0604 20:56:02.825078   844 net.cpp:157] Top shape: 512 64 7 7 (1605632)
I0604 20:56:02.825081   844 net.cpp:165] Memory required for data: 7696812032
I0604 20:56:02.825088   844 layer_factory.hpp:77] Creating layer fire9/relu_squeeze1x1
I0604 20:56:02.825094   844 net.cpp:106] Creating Layer fire9/relu_squeeze1x1
I0604 20:56:02.825098   844 net.cpp:454] fire9/relu_squeeze1x1 <- fire9/squeeze1x1
I0604 20:56:02.825104   844 net.cpp:397] fire9/relu_squeeze1x1 -> fire9/squeeze1x1 (in-place)
I0604 20:56:02.826103   844 net.cpp:150] Setting up fire9/relu_squeeze1x1
I0604 20:56:02.826115   844 net.cpp:157] Top shape: 512 64 7 7 (1605632)
I0604 20:56:02.826118   844 net.cpp:165] Memory required for data: 7703234560
I0604 20:56:02.826122   844 layer_factory.hpp:77] Creating layer fire9/squeeze1x1_fire9/relu_squeeze1x1_0_split
I0604 20:56:02.826139   844 net.cpp:106] Creating Layer fire9/squeeze1x1_fire9/relu_squeeze1x1_0_split
I0604 20:56:02.826143   844 net.cpp:454] fire9/squeeze1x1_fire9/relu_squeeze1x1_0_split <- fire9/squeeze1x1
I0604 20:56:02.826149   844 net.cpp:411] fire9/squeeze1x1_fire9/relu_squeeze1x1_0_split -> fire9/squeeze1x1_fire9/relu_squeeze1x1_0_split_0
I0604 20:56:02.826159   844 net.cpp:411] fire9/squeeze1x1_fire9/relu_squeeze1x1_0_split -> fire9/squeeze1x1_fire9/relu_squeeze1x1_0_split_1
I0604 20:56:02.826216   844 net.cpp:150] Setting up fire9/squeeze1x1_fire9/relu_squeeze1x1_0_split
I0604 20:56:02.826223   844 net.cpp:157] Top shape: 512 64 7 7 (1605632)
I0604 20:56:02.826228   844 net.cpp:157] Top shape: 512 64 7 7 (1605632)
I0604 20:56:02.826231   844 net.cpp:165] Memory required for data: 7716079616
I0604 20:56:02.826234   844 layer_factory.hpp:77] Creating layer fire9/expand1x1
I0604 20:56:02.826246   844 net.cpp:106] Creating Layer fire9/expand1x1
I0604 20:56:02.826251   844 net.cpp:454] fire9/expand1x1 <- fire9/squeeze1x1_fire9/relu_squeeze1x1_0_split_0
I0604 20:56:02.826262   844 net.cpp:411] fire9/expand1x1 -> fire9/expand1x1
I0604 20:56:02.829773   844 net.cpp:150] Setting up fire9/expand1x1
I0604 20:56:02.829788   844 net.cpp:157] Top shape: 512 256 7 7 (6422528)
I0604 20:56:02.829792   844 net.cpp:165] Memory required for data: 7741769728
I0604 20:56:02.829798   844 layer_factory.hpp:77] Creating layer fire9/relu_expand1x1
I0604 20:56:02.829805   844 net.cpp:106] Creating Layer fire9/relu_expand1x1
I0604 20:56:02.829808   844 net.cpp:454] fire9/relu_expand1x1 <- fire9/expand1x1
I0604 20:56:02.829814   844 net.cpp:397] fire9/relu_expand1x1 -> fire9/expand1x1 (in-place)
I0604 20:56:02.830811   844 net.cpp:150] Setting up fire9/relu_expand1x1
I0604 20:56:02.830819   844 net.cpp:157] Top shape: 512 256 7 7 (6422528)
I0604 20:56:02.830823   844 net.cpp:165] Memory required for data: 7767459840
I0604 20:56:02.830826   844 layer_factory.hpp:77] Creating layer fire9/expand3x3
I0604 20:56:02.830837   844 net.cpp:106] Creating Layer fire9/expand3x3
I0604 20:56:02.830842   844 net.cpp:454] fire9/expand3x3 <- fire9/squeeze1x1_fire9/relu_squeeze1x1_0_split_1
I0604 20:56:02.830848   844 net.cpp:411] fire9/expand3x3 -> fire9/expand3x3
I0604 20:56:02.834486   844 net.cpp:150] Setting up fire9/expand3x3
I0604 20:56:02.834516   844 net.cpp:157] Top shape: 512 256 7 7 (6422528)
I0604 20:56:02.834519   844 net.cpp:165] Memory required for data: 7793149952
I0604 20:56:02.834527   844 layer_factory.hpp:77] Creating layer fire9/relu_expand3x3
I0604 20:56:02.834534   844 net.cpp:106] Creating Layer fire9/relu_expand3x3
I0604 20:56:02.834538   844 net.cpp:454] fire9/relu_expand3x3 <- fire9/expand3x3
I0604 20:56:02.834547   844 net.cpp:397] fire9/relu_expand3x3 -> fire9/expand3x3 (in-place)
I0604 20:56:02.835554   844 net.cpp:150] Setting up fire9/relu_expand3x3
I0604 20:56:02.835567   844 net.cpp:157] Top shape: 512 256 7 7 (6422528)
I0604 20:56:02.835571   844 net.cpp:165] Memory required for data: 7818840064
I0604 20:56:02.835574   844 layer_factory.hpp:77] Creating layer fire9/concat
I0604 20:56:02.835582   844 net.cpp:106] Creating Layer fire9/concat
I0604 20:56:02.835587   844 net.cpp:454] fire9/concat <- fire9/expand1x1
I0604 20:56:02.835592   844 net.cpp:454] fire9/concat <- fire9/expand3x3
I0604 20:56:02.835597   844 net.cpp:411] fire9/concat -> fire9/concat
I0604 20:56:02.835634   844 net.cpp:150] Setting up fire9/concat
I0604 20:56:02.835641   844 net.cpp:157] Top shape: 512 512 7 7 (12845056)
I0604 20:56:02.835644   844 net.cpp:165] Memory required for data: 7870220288
I0604 20:56:02.835647   844 layer_factory.hpp:77] Creating layer drop9
I0604 20:56:02.835654   844 net.cpp:106] Creating Layer drop9
I0604 20:56:02.835659   844 net.cpp:454] drop9 <- fire9/concat
I0604 20:56:02.835665   844 net.cpp:397] drop9 -> fire9/concat (in-place)
I0604 20:56:02.835697   844 net.cpp:150] Setting up drop9
I0604 20:56:02.835705   844 net.cpp:157] Top shape: 512 512 7 7 (12845056)
I0604 20:56:02.835707   844 net.cpp:165] Memory required for data: 7921600512
I0604 20:56:02.835711   844 layer_factory.hpp:77] Creating layer conv10
I0604 20:56:02.835718   844 net.cpp:106] Creating Layer conv10
I0604 20:56:02.835722   844 net.cpp:454] conv10 <- fire9/concat
I0604 20:56:02.835731   844 net.cpp:411] conv10 -> conv10
I0604 20:56:02.856025   844 net.cpp:150] Setting up conv10
I0604 20:56:02.856046   844 net.cpp:157] Top shape: 512 1000 9 9 (41472000)
I0604 20:56:02.856050   844 net.cpp:165] Memory required for data: 8087488512
I0604 20:56:02.856060   844 layer_factory.hpp:77] Creating layer relu_conv10
I0604 20:56:02.856067   844 net.cpp:106] Creating Layer relu_conv10
I0604 20:56:02.856071   844 net.cpp:454] relu_conv10 <- conv10
I0604 20:56:02.856081   844 net.cpp:397] relu_conv10 -> conv10 (in-place)
I0604 20:56:02.857059   844 net.cpp:150] Setting up relu_conv10
I0604 20:56:02.857072   844 net.cpp:157] Top shape: 512 1000 9 9 (41472000)
I0604 20:56:02.857075   844 net.cpp:165] Memory required for data: 8253376512
I0604 20:56:02.857079   844 layer_factory.hpp:77] Creating layer pool10
I0604 20:56:02.857089   844 net.cpp:106] Creating Layer pool10
I0604 20:56:02.857094   844 net.cpp:454] pool10 <- conv10
I0604 20:56:02.857100   844 net.cpp:411] pool10 -> pool10
I0604 20:56:02.858263   844 net.cpp:150] Setting up pool10
I0604 20:56:02.858273   844 net.cpp:157] Top shape: 512 1000 1 1 (512000)
I0604 20:56:02.858276   844 net.cpp:165] Memory required for data: 8255424512
I0604 20:56:02.858279   844 layer_factory.hpp:77] Creating layer loss
I0604 20:56:02.858288   844 net.cpp:106] Creating Layer loss
I0604 20:56:02.858290   844 net.cpp:454] loss <- pool10
I0604 20:56:02.858297   844 net.cpp:454] loss <- label
I0604 20:56:02.858304   844 net.cpp:411] loss -> loss
I0604 20:56:02.858314   844 layer_factory.hpp:77] Creating layer loss
…
I0604 20:56:02.861709   844 net.cpp:322] The NetState phase (1) differed from the phase (0) specified by a rule in layer loss
I0604 20:56:02.862264   844 net.cpp:49] Initializing net from parameters: 
state {
  phase: TEST
}
layer {
  name: "data"
  type: "Data"
  top: "data"
  top: "label"
  include {
    phase: TEST
  }
  transform_param {
    scale: 0.04
    mirror: false
    crop_size: 128
    mean_value: 104
    mean_value: 117
    mean_value: 123
    force_color: true
  }
  data_param {
    source: "/local/temporary/mishkdmy/imagenet144pxlmdb/ilsvrc12_128_val_lmdb"
    batch_size: 50
    backend: LMDB
  }
}
layer {
  name: "conv1"
  type: "Convolution"
  bottom: "data"
  top: "conv1"
  convolution_param {
    num_output: 96
    kernel_size: 7
    stride: 2
    weight_filler {
      type: "xavier"
    }
  }
}
layer {
  name: "relu_conv1"
  type: "ReLU"
  bottom: "conv1"
  top: "conv1"
}
layer {
  name: "pool1"
  type: "Pooling"
  bottom: "conv1"
  top: "pool1"
  pooling_param {
    pool: MAX
    kernel_size: 3
    stride: 2
  }
}
layer {
  name: "fire2/squeeze1x1"
  type: "Convolution"
  bottom: "pool1"
  top: "fire2/squeeze1x1"
  convolution_param {
    num_output: 16
    kernel_size: 1
    weight_filler {
      type: "xavier"
    }
  }
}
layer {
  name: "fire2/relu_squeeze1x1"
  type: "ReLU"
  bottom: "fire2/squeeze1x1"
  top: "fire2/squeeze1x1"
}
layer {
  name: "fire2/expand1x1"
  type: "Convolution"
  bottom: "fire2/squeeze1x1"
  top: "fire2/expand1x1"
  convolution_param {
    num_output: 64
    kernel_size: 1
    weight_filler {
      type: "xavier"
    }
  }
}
layer {
  name: "fire2/relu_expand1x1"
  type: "ReLU"
  bottom: "fire2/expand1x1"
  top: "fire2/expand1x1"
}
layer {
  name: "fire2/expand3x3"
  type: "Convolution"
  bottom: "fire2/squeeze1x1"
  top: "fire2/expand3x3"
  convolution_param {
    num_output: 64
    pad: 1
    kernel_size: 3
    weight_filler {
      type: "xavier"
    }
  }
}
layer {
  name: "fire2/relu_expand3x3"
  type: "ReLU"
  bottom: "fire2/expand3x3"
  top: "fire2/expand3x3"
}
layer {
  name: "fire2/concat"
  type: "Concat"
  bottom: "fire2/expand1x1"
  bottom: "fire2/expand3x3"
  top: "fire2/concat"
}
layer {
  name: "fire3/squeeze1x1"
  type: "Convolution"
  bottom: "fire2/concat"
  top: "fire3/squeeze1x1"
  convolution_param {
    num_output: 16
    kernel_size: 1
    weight_filler {
      type: "xavier"
    }
  }
}
layer {
  name: "fire3/relu_squeeze1x1"
  type: "ReLU"
  bottom: "fire3/squeeze1x1"
  top: "fire3/squeeze1x1"
}
layer {
  name: "fire3/expand1x1"
  type: "Convolution"
  bottom: "fire3/squeeze1x1"
  top: "fire3/expand1x1"
  convolution_param {
    num_output: 64
    kernel_size: 1
    weight_filler {
      type: "xavier"
    }
  }
}
layer {
  name: "fire3/relu_expand1x1"
  type: "ReLU"
  bottom: "fire3/expand1x1"
  top: "fire3/expand1x1"
}
layer {
  name: "fire3/expand3x3"
  type: "Convolution"
  bottom: "fire3/squeeze1x1"
  top: "fire3/expand3x3"
  convolution_param {
    num_output: 64
    pad: 1
    kernel_size: 3
    weight_filler {
      type: "xavier"
    }
  }
}
layer {
  name: "fire3/relu_expand3x3"
  type: "ReLU"
  bottom: "fire3/expand3x3"
  top: "fire3/expand3x3"
}
layer {
  name: "fire3/concat"
  type: "Concat"
  bottom: "fire3/expand1x1"
  bottom: "fire3/expand3x3"
  top: "fire3/concat"
}
layer {
  name: "fire4/squeeze1x1"
  type: "Convolution"
  bottom: "fire3/concat"
  top: "fire4/squeeze1x1"
  convolution_param {
    num_output: 32
    kernel_size: 1
    weight_filler {
      type: "xavier"
    }
  }
}
layer {
  name: "fire4/relu_squeeze1x1"
  type: "ReLU"
  bottom: "fire4/squeeze1x1"
  top: "fire4/squeeze1x1"
}
layer {
  name: "fire4/expand1x1"
  type: "Convolution"
  bottom: "fire4/squeeze1x1"
  top: "fire4/expand1x1"
  convolution_param {
    num_output: 128
    kernel_size: 1
    weight_filler {
      type: "xavier"
    }
  }
}
layer {
  name: "fire4/relu_expand1x1"
  type: "ReLU"
  bottom: "fire4/expand1x1"
  top: "fire4/expand1x1"
}
layer {
  name: "fire4/expand3x3"
  type: "Convolution"
  bottom: "fire4/squeeze1x1"
  top: "fire4/expand3x3"
  convolution_param {
    num_output: 128
    pad: 1
    kernel_size: 3
    weight_filler {
      type: "xavier"
    }
  }
}
layer {
  name: "fire4/relu_expand3x3"
  type: "ReLU"
  bottom: "fire4/expand3x3"
  top: "fire4/expand3x3"
}
layer {
  name: "fire4/concat"
  type: "Concat"
  bottom: "fire4/expand1x1"
  bottom: "fire4/expand3x3"
  top: "fire4/concat"
}
layer {
  name: "pool4"
  type: "Pooling"
  bottom: "fire4/concat"
  top: "pool4"
  pooling_param {
    pool: MAX
    kernel_size: 3
    stride: 2
  }
}
layer {
  name: "fire5/squeeze1x1"
  type: "Convolution"
  bottom: "pool4"
  top: "fire5/squeeze1x1"
  convolution_param {
    num_output: 32
    kernel_size: 1
    weight_filler {
      type: "xavier"
    }
  }
}
layer {
  name: "fire5/relu_squeeze1x1"
  type: "ReLU"
  bottom: "fire5/squeeze1x1"
  top: "fire5/squeeze1x1"
}
layer {
  name: "fire5/expand1x1"
  type: "Convolution"
  bottom: "fire5/squeeze1x1"
  top: "fire5/expand1x1"
  convolution_param {
    num_output: 128
    kernel_size: 1
    weight_filler {
      type: "xavier"
    }
  }
}
layer {
  name: "fire5/relu_expand1x1"
  type: "ReLU"
  bottom: "fire5/expand1x1"
  top: "fire5/expand1x1"
}
layer {
  name: "fire5/expand3x3"
  type: "Convolution"
  bottom: "fire5/squeeze1x1"
  top: "fire5/expand3x3"
  convolution_param {
    num_output: 128
    pad: 1
    kernel_size: 3
    weight_filler {
      type: "xavier"
    }
  }
}
layer {
  name: "fire5/relu_expand3x3"
  type: "ReLU"
  bottom: "fire5/expand3x3"
  top: "fire5/expand3x3"
}
layer {
  name: "fire5/concat"
  type: "Concat"
  bottom: "fire5/expand1x1"
  bottom: "fire5/expand3x3"
  top: "fire5/concat"
}
layer {
  name: "fire6/squeeze1x1"
  type: "Convolution"
  bottom: "fire5/concat"
  top: "fire6/squeeze1x1"
  convolution_param {
    num_output: 48
    kernel_size: 1
    weight_filler {
      type: "xavier"
    }
  }
}
layer {
  name: "fire6/relu_squeeze1x1"
  type: "ReLU"
  bottom: "fire6/squeeze1x1"
  top: "fire6/squeeze1x1"
}
layer {
  name: "fire6/expand1x1"
  type: "Convolution"
  bottom: "fire6/squeeze1x1"
  top: "fire6/expand1x1"
  convolution_param {
    num_output: 192
    kernel_size: 1
    weight_filler {
      type: "xavier"
    }
  }
}
layer {
  name: "fire6/relu_expand1x1"
  type: "ReLU"
  bottom: "fire6/expand1x1"
  top: "fire6/expand1x1"
}
layer {
  name: "fire6/expand3x3"
  type: "Convolution"
  bottom: "fire6/squeeze1x1"
  top: "fire6/expand3x3"
  convolution_param {
    num_output: 192
    pad: 1
    kernel_size: 3
    weight_filler {
      type: "xavier"
    }
  }
}
layer {
  name: "fire6/relu_expand3x3"
  type: "ReLU"
  bottom: "fire6/expand3x3"
  top: "fire6/expand3x3"
}
layer {
  name: "fire6/concat"
  type: "Concat"
  bottom: "fire6/expand1x1"
  bottom: "fire6/expand3x3"
  top: "fire6/concat"
}
layer {
  name: "fire7/squeeze1x1"
  type: "Convolution"
  bottom: "fire6/concat"
  top: "fire7/squeeze1x1"
  convolution_param {
    num_output: 48
    kernel_size: 1
    weight_filler {
      type: "xavier"
    }
  }
}
layer {
  name: "fire7/relu_squeeze1x1"
  type: "ReLU"
  bottom: "fire7/squeeze1x1"
  top: "fire7/squeeze1x1"
}
layer {
  name: "fire7/expand1x1"
  type: "Convolution"
  bottom: "fire7/squeeze1x1"
  top: "fire7/expand1x1"
  convolution_param {
    num_output: 192
    kernel_size: 1
    weight_filler {
      type: "xavier"
    }
  }
}
layer {
  name: "fire7/relu_expand1x1"
  type: "ReLU"
  bottom: "fire7/expand1x1"
  top: "fire7/expand1x1"
}
layer {
  name: "fire7/expand3x3"
  type: "Convolution"
  bottom: "fire7/squeeze1x1"
  top: "fire7/expand3x3"
  convolution_param {
    num_output: 192
    pad: 1
    kernel_size: 3
    weight_filler {
      type: "xavier"
    }
  }
}
layer {
  name: "fire7/relu_expand3x3"
  type: "ReLU"
  bottom: "fire7/expand3x3"
  top: "fire7/expand3x3"
}
layer {
  name: "fire7/concat"
  type: "Concat"
  bottom: "fire7/expand1x1"
  bottom: "fire7/expand3x3"
  top: "fire7/concat"
}
layer {
  name: "fire8/squeeze1x1"
  type: "Convolution"
  bottom: "fire7/concat"
  top: "fire8/squeeze1x1"
  convolution_param {
    num_output: 64
    kernel_size: 1
    weight_filler {
      type: "xavier"
    }
  }
}
layer {
  name: "fire8/relu_squeeze1x1"
  type: "ReLU"
  bottom: "fire8/squeeze1x1"
  top: "fire8/squeeze1x1"
}
layer {
  name: "fire8/expand1x1"
  type: "Convolution"
  bottom: "fire8/squeeze1x1"
  top: "fire8/expand1x1"
  convolution_param {
    num_output: 256
    kernel_size: 1
    weight_filler {
      type: "xavier"
    }
  }
}
layer {
  name: "fire8/relu_expand1x1"
  type: "ReLU"
  bottom: "fire8/expand1x1"
  top: "fire8/expand1x1"
}
layer {
  name: "fire8/expand3x3"
  type: "Convolution"
  bottom: "fire8/squeeze1x1"
  top: "fire8/expand3x3"
  convolution_param {
    num_output: 256
    pad: 1
    kernel_size: 3
    weight_filler {
      type: "xavier"
    }
  }
}
layer {
  name: "fire8/relu_expand3x3"
  type: "ReLU"
  bottom: "fire8/expand3x3"
  top: "fire8/expand3x3"
}
layer {
  name: "fire8/concat"
  type: "Concat"
  bottom: "fire8/expand1x1"
  bottom: "fire8/expand3x3"
  top: "fire8/concat"
}
layer {
  name: "pool8"
  type: "Pooling"
  bottom: "fire8/concat"
  top: "pool8"
  pooling_param {
    pool: MAX
    kernel_size: 3
    stride: 2
  }
}
layer {
  name: "fire9/squeeze1x1"
  type: "Convolution"
  bottom: "pool8"
  top: "fire9/squeeze1x1"
  convolution_param {
    num_output: 64
    kernel_size: 1
    weight_filler {
      type: "xavier"
    }
  }
}
layer {
  name: "fire9/relu_squeeze1x1"
  type: "ReLU"
  bottom: "fire9/squeeze1x1"
  top: "fire9/squeeze1x1"
}
layer {
  name: "fire9/expand1x1"
  type: "Convolution"
  bottom: "fire9/squeeze1x1"
  top: "fire9/expand1x1"
  convolution_param {
    num_output: 256
    kernel_size: 1
    weight_filler {
      type: "xavier"
    }
  }
}
layer {
  name: "fire9/relu_expand1x1"
  type: "ReLU"
  bottom: "fire9/expand1x1"
  top: "fire9/expand1x1"
}
layer {
  name: "fire9/expand3x3"
  type: "Convolution"
  bottom: "fire9/squeeze1x1"
  top: "fire9/expand3x3"
  convolution_param {
    num_output: 256
    pad: 1
    kernel_size: 3
    weight_filler {
      type: "xavier"
    }
  }
}
layer {
  name: "fire9/relu_expand3x3"
  type: "ReLU"
  bottom: "fire9/expand3x3"
  top: "fire9/expand3x3"
}
layer {
  name: "fire9/concat"
  type: "Concat"
  bottom: "fire9/expand1x1"
  bottom: "fire9/expand3x3"
  top: "fire9/concat"
}
layer {
  name: "drop9"
  type: "Dropout"
  bottom: "fire9/concat"
  top: "fire9/concat"
  dropout_param {
    dropout_ratio: 0.5
  }
}
layer {
  name: "conv10"
  type: "Convolution"
  bottom: "fire9/concat"
  top: "conv10"
  convolution_param {
    num_output: 1000
    pad: 1
    kernel_size: 1
    weight_filler {
      type: "gaussian"
      mean: 0
      std: 0.01
    }
  }
}
layer {
  name: "relu_conv10"
  type: "ReLU"
  bottom: "conv10"
  top: "conv10"
}
layer {
  name: "pool10"
  type: "Pooling"
  bottom: "conv10"
  top: "pool10"
  pooling_param {
    pool: AVE
    global_pooling: true
  }
}
layer {
  name: "accuracy"
  type: "Accuracy"
  bottom: "pool10"
  bottom: "label"
  top: "accuracy"
  include {
    phase: TEST
  }
}
layer {
  name: "accuracy_top5"
  type: "Accuracy"
  bottom: "pool10"
  bottom: "label"
  top: "accuracy_top5"
  include {
    phase: TEST
  }
  accuracy_param {
    top_k: 5
  }
}
I0604 20:56:02.862601   844 layer_factory.hpp:77] Creating layer data
I0604 20:56:02.862720   844 net.cpp:106] Creating Layer data
I0604 20:56:02.862731   844 net.cpp:411] data -> data
I0604 20:56:02.862740   844 net.cpp:411] data -> label
I0604 20:56:02.864289   879 db_lmdb.cpp:38] Opened lmdb /local/temporary/mishkdmy/imagenet144pxlmdb/ilsvrc12_128_val_lmdb
I0604 20:56:02.865233   844 data_layer.cpp:41] output data size: 50,3,128,128
I0604 20:56:02.887826   844 net.cpp:150] Setting up data
I0604 20:56:02.887858   844 net.cpp:157] Top shape: 50 3 128 128 (2457600)
I0604 20:56:02.887866   844 net.cpp:157] Top shape: 50 (50)
I0604 20:56:02.887871   844 net.cpp:165] Memory required for data: 9830600
I0604 20:56:02.887879   844 layer_factory.hpp:77] Creating layer label_data_1_split
I0604 20:56:02.887898   844 net.cpp:106] Creating Layer label_data_1_split
I0604 20:56:02.887907   844 net.cpp:454] label_data_1_split <- label
I0604 20:56:02.887918   844 net.cpp:411] label_data_1_split -> label_data_1_split_0
I0604 20:56:02.887931   844 net.cpp:411] label_data_1_split -> label_data_1_split_1
I0604 20:56:02.888008   844 net.cpp:150] Setting up label_data_1_split
I0604 20:56:02.888016   844 net.cpp:157] Top shape: 50 (50)
I0604 20:56:02.888020   844 net.cpp:157] Top shape: 50 (50)
I0604 20:56:02.888023   844 net.cpp:165] Memory required for data: 9831000
I0604 20:56:02.888027   844 layer_factory.hpp:77] Creating layer conv1
I0604 20:56:02.888041   844 net.cpp:106] Creating Layer conv1
I0604 20:56:02.888047   844 net.cpp:454] conv1 <- data
I0604 20:56:02.888056   844 net.cpp:411] conv1 -> conv1
I0604 20:56:02.892343   844 net.cpp:150] Setting up conv1
I0604 20:56:02.892359   844 net.cpp:157] Top shape: 50 96 61 61 (17860800)
I0604 20:56:02.892364   844 net.cpp:165] Memory required for data: 81274200
I0604 20:56:02.892390   844 layer_factory.hpp:77] Creating layer relu_conv1
I0604 20:56:02.892434   844 net.cpp:106] Creating Layer relu_conv1
I0604 20:56:02.892444   844 net.cpp:454] relu_conv1 <- conv1
I0604 20:56:02.892452   844 net.cpp:397] relu_conv1 -> conv1 (in-place)
I0604 20:56:02.893362   844 net.cpp:150] Setting up relu_conv1
I0604 20:56:02.893373   844 net.cpp:157] Top shape: 50 96 61 61 (17860800)
I0604 20:56:02.893376   844 net.cpp:165] Memory required for data: 152717400
I0604 20:56:02.893379   844 layer_factory.hpp:77] Creating layer pool1
I0604 20:56:02.893407   844 net.cpp:106] Creating Layer pool1
I0604 20:56:02.893411   844 net.cpp:454] pool1 <- conv1
I0604 20:56:02.893419   844 net.cpp:411] pool1 -> pool1
I0604 20:56:02.895437   844 net.cpp:150] Setting up pool1
I0604 20:56:02.895453   844 net.cpp:157] Top shape: 50 96 30 30 (4320000)
I0604 20:56:02.895457   844 net.cpp:165] Memory required for data: 169997400
I0604 20:56:02.895462   844 layer_factory.hpp:77] Creating layer fire2/squeeze1x1
I0604 20:56:02.895475   844 net.cpp:106] Creating Layer fire2/squeeze1x1
I0604 20:56:02.895479   844 net.cpp:454] fire2/squeeze1x1 <- pool1
I0604 20:56:02.895485   844 net.cpp:411] fire2/squeeze1x1 -> fire2/squeeze1x1
I0604 20:56:02.898375   844 net.cpp:150] Setting up fire2/squeeze1x1
I0604 20:56:02.898388   844 net.cpp:157] Top shape: 50 16 30 30 (720000)
I0604 20:56:02.898392   844 net.cpp:165] Memory required for data: 172877400
I0604 20:56:02.898406   844 layer_factory.hpp:77] Creating layer fire2/relu_squeeze1x1
I0604 20:56:02.898412   844 net.cpp:106] Creating Layer fire2/relu_squeeze1x1
I0604 20:56:02.898416   844 net.cpp:454] fire2/relu_squeeze1x1 <- fire2/squeeze1x1
I0604 20:56:02.898422   844 net.cpp:397] fire2/relu_squeeze1x1 -> fire2/squeeze1x1 (in-place)
I0604 20:56:02.899437   844 net.cpp:150] Setting up fire2/relu_squeeze1x1
I0604 20:56:02.899449   844 net.cpp:157] Top shape: 50 16 30 30 (720000)
I0604 20:56:02.899453   844 net.cpp:165] Memory required for data: 175757400
I0604 20:56:02.899457   844 layer_factory.hpp:77] Creating layer fire2/squeeze1x1_fire2/relu_squeeze1x1_0_split
I0604 20:56:02.899463   844 net.cpp:106] Creating Layer fire2/squeeze1x1_fire2/relu_squeeze1x1_0_split
I0604 20:56:02.899467   844 net.cpp:454] fire2/squeeze1x1_fire2/relu_squeeze1x1_0_split <- fire2/squeeze1x1
I0604 20:56:02.899472   844 net.cpp:411] fire2/squeeze1x1_fire2/relu_squeeze1x1_0_split -> fire2/squeeze1x1_fire2/relu_squeeze1x1_0_split_0
I0604 20:56:02.899480   844 net.cpp:411] fire2/squeeze1x1_fire2/relu_squeeze1x1_0_split -> fire2/squeeze1x1_fire2/relu_squeeze1x1_0_split_1
I0604 20:56:02.899538   844 net.cpp:150] Setting up fire2/squeeze1x1_fire2/relu_squeeze1x1_0_split
I0604 20:56:02.899545   844 net.cpp:157] Top shape: 50 16 30 30 (720000)
I0604 20:56:02.899550   844 net.cpp:157] Top shape: 50 16 30 30 (720000)
I0604 20:56:02.899554   844 net.cpp:165] Memory required for data: 181517400
I0604 20:56:02.899557   844 layer_factory.hpp:77] Creating layer fire2/expand1x1
I0604 20:56:02.899570   844 net.cpp:106] Creating Layer fire2/expand1x1
I0604 20:56:02.899577   844 net.cpp:454] fire2/expand1x1 <- fire2/squeeze1x1_fire2/relu_squeeze1x1_0_split_0
I0604 20:56:02.899587   844 net.cpp:411] fire2/expand1x1 -> fire2/expand1x1
I0604 20:56:02.905692   844 net.cpp:150] Setting up fire2/expand1x1
I0604 20:56:02.905709   844 net.cpp:157] Top shape: 50 64 30 30 (2880000)
I0604 20:56:02.905714   844 net.cpp:165] Memory required for data: 193037400
I0604 20:56:02.905731   844 layer_factory.hpp:77] Creating layer fire2/relu_expand1x1
I0604 20:56:02.905761   844 net.cpp:106] Creating Layer fire2/relu_expand1x1
I0604 20:56:02.905767   844 net.cpp:454] fire2/relu_expand1x1 <- fire2/expand1x1
I0604 20:56:02.905781   844 net.cpp:397] fire2/relu_expand1x1 -> fire2/expand1x1 (in-place)
I0604 20:56:02.906749   844 net.cpp:150] Setting up fire2/relu_expand1x1
I0604 20:56:02.906761   844 net.cpp:157] Top shape: 50 64 30 30 (2880000)
I0604 20:56:02.906764   844 net.cpp:165] Memory required for data: 204557400
I0604 20:56:02.906769   844 layer_factory.hpp:77] Creating layer fire2/expand3x3
I0604 20:56:02.906780   844 net.cpp:106] Creating Layer fire2/expand3x3
I0604 20:56:02.906783   844 net.cpp:454] fire2/expand3x3 <- fire2/squeeze1x1_fire2/relu_squeeze1x1_0_split_1
I0604 20:56:02.906790   844 net.cpp:411] fire2/expand3x3 -> fire2/expand3x3
I0604 20:56:02.910604   844 net.cpp:150] Setting up fire2/expand3x3
I0604 20:56:02.910617   844 net.cpp:157] Top shape: 50 64 30 30 (2880000)
I0604 20:56:02.910621   844 net.cpp:165] Memory required for data: 216077400
I0604 20:56:02.910645   844 layer_factory.hpp:77] Creating layer fire2/relu_expand3x3
I0604 20:56:02.910655   844 net.cpp:106] Creating Layer fire2/relu_expand3x3
I0604 20:56:02.910662   844 net.cpp:454] fire2/relu_expand3x3 <- fire2/expand3x3
I0604 20:56:02.910668   844 net.cpp:397] fire2/relu_expand3x3 -> fire2/expand3x3 (in-place)
I0604 20:56:02.911607   844 net.cpp:150] Setting up fire2/relu_expand3x3
I0604 20:56:02.911617   844 net.cpp:157] Top shape: 50 64 30 30 (2880000)
I0604 20:56:02.911620   844 net.cpp:165] Memory required for data: 227597400
I0604 20:56:02.911623   844 layer_factory.hpp:77] Creating layer fire2/concat
I0604 20:56:02.911630   844 net.cpp:106] Creating Layer fire2/concat
I0604 20:56:02.911633   844 net.cpp:454] fire2/concat <- fire2/expand1x1
I0604 20:56:02.911638   844 net.cpp:454] fire2/concat <- fire2/expand3x3
I0604 20:56:02.911643   844 net.cpp:411] fire2/concat -> fire2/concat
I0604 20:56:02.911681   844 net.cpp:150] Setting up fire2/concat
I0604 20:56:02.911689   844 net.cpp:157] Top shape: 50 128 30 30 (5760000)
I0604 20:56:02.911692   844 net.cpp:165] Memory required for data: 250637400
I0604 20:56:02.911695   844 layer_factory.hpp:77] Creating layer fire3/squeeze1x1
I0604 20:56:02.911705   844 net.cpp:106] Creating Layer fire3/squeeze1x1
I0604 20:56:02.911708   844 net.cpp:454] fire3/squeeze1x1 <- fire2/concat
I0604 20:56:02.911722   844 net.cpp:411] fire3/squeeze1x1 -> fire3/squeeze1x1
I0604 20:56:02.917057   844 net.cpp:150] Setting up fire3/squeeze1x1
I0604 20:56:02.917070   844 net.cpp:157] Top shape: 50 16 30 30 (720000)
I0604 20:56:02.917074   844 net.cpp:165] Memory required for data: 253517400
I0604 20:56:02.917085   844 layer_factory.hpp:77] Creating layer fire3/relu_squeeze1x1
I0604 20:56:02.917093   844 net.cpp:106] Creating Layer fire3/relu_squeeze1x1
I0604 20:56:02.917096   844 net.cpp:454] fire3/relu_squeeze1x1 <- fire3/squeeze1x1
I0604 20:56:02.917104   844 net.cpp:397] fire3/relu_squeeze1x1 -> fire3/squeeze1x1 (in-place)
I0604 20:56:02.918157   844 net.cpp:150] Setting up fire3/relu_squeeze1x1
I0604 20:56:02.918169   844 net.cpp:157] Top shape: 50 16 30 30 (720000)
I0604 20:56:02.918174   844 net.cpp:165] Memory required for data: 256397400
I0604 20:56:02.918176   844 layer_factory.hpp:77] Creating layer fire3/squeeze1x1_fire3/relu_squeeze1x1_0_split
I0604 20:56:02.918184   844 net.cpp:106] Creating Layer fire3/squeeze1x1_fire3/relu_squeeze1x1_0_split
I0604 20:56:02.918189   844 net.cpp:454] fire3/squeeze1x1_fire3/relu_squeeze1x1_0_split <- fire3/squeeze1x1
I0604 20:56:02.918193   844 net.cpp:411] fire3/squeeze1x1_fire3/relu_squeeze1x1_0_split -> fire3/squeeze1x1_fire3/relu_squeeze1x1_0_split_0
I0604 20:56:02.918201   844 net.cpp:411] fire3/squeeze1x1_fire3/relu_squeeze1x1_0_split -> fire3/squeeze1x1_fire3/relu_squeeze1x1_0_split_1
I0604 20:56:02.918257   844 net.cpp:150] Setting up fire3/squeeze1x1_fire3/relu_squeeze1x1_0_split
I0604 20:56:02.918264   844 net.cpp:157] Top shape: 50 16 30 30 (720000)
I0604 20:56:02.918268   844 net.cpp:157] Top shape: 50 16 30 30 (720000)
I0604 20:56:02.918272   844 net.cpp:165] Memory required for data: 262157400
I0604 20:56:02.918274   844 layer_factory.hpp:77] Creating layer fire3/expand1x1
I0604 20:56:02.918285   844 net.cpp:106] Creating Layer fire3/expand1x1
I0604 20:56:02.918290   844 net.cpp:454] fire3/expand1x1 <- fire3/squeeze1x1_fire3/relu_squeeze1x1_0_split_0
I0604 20:56:02.918300   844 net.cpp:411] fire3/expand1x1 -> fire3/expand1x1
I0604 20:56:02.923343   844 net.cpp:150] Setting up fire3/expand1x1
I0604 20:56:02.923357   844 net.cpp:157] Top shape: 50 64 30 30 (2880000)
I0604 20:56:02.923360   844 net.cpp:165] Memory required for data: 273677400
I0604 20:56:02.923367   844 layer_factory.hpp:77] Creating layer fire3/relu_expand1x1
I0604 20:56:02.923374   844 net.cpp:106] Creating Layer fire3/relu_expand1x1
I0604 20:56:02.923377   844 net.cpp:454] fire3/relu_expand1x1 <- fire3/expand1x1
I0604 20:56:02.923383   844 net.cpp:397] fire3/relu_expand1x1 -> fire3/expand1x1 (in-place)
I0604 20:56:02.925300   844 net.cpp:150] Setting up fire3/relu_expand1x1
I0604 20:56:02.925328   844 net.cpp:157] Top shape: 50 64 30 30 (2880000)
I0604 20:56:02.925330   844 net.cpp:165] Memory required for data: 285197400
I0604 20:56:02.925334   844 layer_factory.hpp:77] Creating layer fire3/expand3x3
I0604 20:56:02.925343   844 net.cpp:106] Creating Layer fire3/expand3x3
I0604 20:56:02.925346   844 net.cpp:454] fire3/expand3x3 <- fire3/squeeze1x1_fire3/relu_squeeze1x1_0_split_1
I0604 20:56:02.925354   844 net.cpp:411] fire3/expand3x3 -> fire3/expand3x3
I0604 20:56:02.931324   844 net.cpp:150] Setting up fire3/expand3x3
I0604 20:56:02.931345   844 net.cpp:157] Top shape: 50 64 30 30 (2880000)
I0604 20:56:02.931349   844 net.cpp:165] Memory required for data: 296717400
I0604 20:56:02.931357   844 layer_factory.hpp:77] Creating layer fire3/relu_expand3x3
I0604 20:56:02.931365   844 net.cpp:106] Creating Layer fire3/relu_expand3x3
I0604 20:56:02.931368   844 net.cpp:454] fire3/relu_expand3x3 <- fire3/expand3x3
I0604 20:56:02.931377   844 net.cpp:397] fire3/relu_expand3x3 -> fire3/expand3x3 (in-place)
I0604 20:56:02.932325   844 net.cpp:150] Setting up fire3/relu_expand3x3
I0604 20:56:02.932344   844 net.cpp:157] Top shape: 50 64 30 30 (2880000)
I0604 20:56:02.932350   844 net.cpp:165] Memory required for data: 308237400
I0604 20:56:02.932356   844 layer_factory.hpp:77] Creating layer fire3/concat
I0604 20:56:02.932368   844 net.cpp:106] Creating Layer fire3/concat
I0604 20:56:02.932384   844 net.cpp:454] fire3/concat <- fire3/expand1x1
I0604 20:56:02.932391   844 net.cpp:454] fire3/concat <- fire3/expand3x3
I0604 20:56:02.932400   844 net.cpp:411] fire3/concat -> fire3/concat
I0604 20:56:02.932477   844 net.cpp:150] Setting up fire3/concat
I0604 20:56:02.932488   844 net.cpp:157] Top shape: 50 128 30 30 (5760000)
I0604 20:56:02.932493   844 net.cpp:165] Memory required for data: 331277400
I0604 20:56:02.932499   844 layer_factory.hpp:77] Creating layer fire4/squeeze1x1
I0604 20:56:02.932518   844 net.cpp:106] Creating Layer fire4/squeeze1x1
I0604 20:56:02.932536   844 net.cpp:454] fire4/squeeze1x1 <- fire3/concat
I0604 20:56:02.932548   844 net.cpp:411] fire4/squeeze1x1 -> fire4/squeeze1x1
I0604 20:56:02.936178   844 net.cpp:150] Setting up fire4/squeeze1x1
I0604 20:56:02.936215   844 net.cpp:157] Top shape: 50 32 30 30 (1440000)
I0604 20:56:02.936221   844 net.cpp:165] Memory required for data: 337037400
I0604 20:56:02.936235   844 layer_factory.hpp:77] Creating layer fire4/relu_squeeze1x1
I0604 20:56:02.936252   844 net.cpp:106] Creating Layer fire4/relu_squeeze1x1
I0604 20:56:02.936278   844 net.cpp:454] fire4/relu_squeeze1x1 <- fire4/squeeze1x1
I0604 20:56:02.936290   844 net.cpp:397] fire4/relu_squeeze1x1 -> fire4/squeeze1x1 (in-place)
I0604 20:56:02.939528   844 net.cpp:150] Setting up fire4/relu_squeeze1x1
I0604 20:56:02.939543   844 net.cpp:157] Top shape: 50 32 30 30 (1440000)
I0604 20:56:02.939546   844 net.cpp:165] Memory required for data: 342797400
I0604 20:56:02.939550   844 layer_factory.hpp:77] Creating layer fire4/squeeze1x1_fire4/relu_squeeze1x1_0_split
I0604 20:56:02.939563   844 net.cpp:106] Creating Layer fire4/squeeze1x1_fire4/relu_squeeze1x1_0_split
I0604 20:56:02.939566   844 net.cpp:454] fire4/squeeze1x1_fire4/relu_squeeze1x1_0_split <- fire4/squeeze1x1
I0604 20:56:02.939573   844 net.cpp:411] fire4/squeeze1x1_fire4/relu_squeeze1x1_0_split -> fire4/squeeze1x1_fire4/relu_squeeze1x1_0_split_0
I0604 20:56:02.939582   844 net.cpp:411] fire4/squeeze1x1_fire4/relu_squeeze1x1_0_split -> fire4/squeeze1x1_fire4/relu_squeeze1x1_0_split_1
I0604 20:56:02.939642   844 net.cpp:150] Setting up fire4/squeeze1x1_fire4/relu_squeeze1x1_0_split
I0604 20:56:02.939651   844 net.cpp:157] Top shape: 50 32 30 30 (1440000)
I0604 20:56:02.939656   844 net.cpp:157] Top shape: 50 32 30 30 (1440000)
I0604 20:56:02.939661   844 net.cpp:165] Memory required for data: 354317400
I0604 20:56:02.939663   844 layer_factory.hpp:77] Creating layer fire4/expand1x1
I0604 20:56:02.939677   844 net.cpp:106] Creating Layer fire4/expand1x1
I0604 20:56:02.939682   844 net.cpp:454] fire4/expand1x1 <- fire4/squeeze1x1_fire4/relu_squeeze1x1_0_split_0
I0604 20:56:02.939707   844 net.cpp:411] fire4/expand1x1 -> fire4/expand1x1
I0604 20:56:02.943406   844 net.cpp:150] Setting up fire4/expand1x1
I0604 20:56:02.943420   844 net.cpp:157] Top shape: 50 128 30 30 (5760000)
I0604 20:56:02.943423   844 net.cpp:165] Memory required for data: 377357400
I0604 20:56:02.943439   844 layer_factory.hpp:77] Creating layer fire4/relu_expand1x1
I0604 20:56:02.943445   844 net.cpp:106] Creating Layer fire4/relu_expand1x1
I0604 20:56:02.943449   844 net.cpp:454] fire4/relu_expand1x1 <- fire4/expand1x1
I0604 20:56:02.943457   844 net.cpp:397] fire4/relu_expand1x1 -> fire4/expand1x1 (in-place)
I0604 20:56:02.944007   844 net.cpp:150] Setting up fire4/relu_expand1x1
I0604 20:56:02.944017   844 net.cpp:157] Top shape: 50 128 30 30 (5760000)
I0604 20:56:02.944020   844 net.cpp:165] Memory required for data: 400397400
I0604 20:56:02.944023   844 layer_factory.hpp:77] Creating layer fire4/expand3x3
I0604 20:56:02.944036   844 net.cpp:106] Creating Layer fire4/expand3x3
I0604 20:56:02.944041   844 net.cpp:454] fire4/expand3x3 <- fire4/squeeze1x1_fire4/relu_squeeze1x1_0_split_1
I0604 20:56:02.944052   844 net.cpp:411] fire4/expand3x3 -> fire4/expand3x3
I0604 20:56:02.946728   844 net.cpp:150] Setting up fire4/expand3x3
I0604 20:56:02.946743   844 net.cpp:157] Top shape: 50 128 30 30 (5760000)
I0604 20:56:02.946746   844 net.cpp:165] Memory required for data: 423437400
I0604 20:56:02.946753   844 layer_factory.hpp:77] Creating layer fire4/relu_expand3x3
I0604 20:56:02.946760   844 net.cpp:106] Creating Layer fire4/relu_expand3x3
I0604 20:56:02.946764   844 net.cpp:454] fire4/relu_expand3x3 <- fire4/expand3x3
I0604 20:56:02.946773   844 net.cpp:397] fire4/relu_expand3x3 -> fire4/expand3x3 (in-place)
I0604 20:56:02.947926   844 net.cpp:150] Setting up fire4/relu_expand3x3
I0604 20:56:02.947938   844 net.cpp:157] Top shape: 50 128 30 30 (5760000)
I0604 20:56:02.947942   844 net.cpp:165] Memory required for data: 446477400
I0604 20:56:02.947945   844 layer_factory.hpp:77] Creating layer fire4/concat
I0604 20:56:02.947953   844 net.cpp:106] Creating Layer fire4/concat
I0604 20:56:02.947957   844 net.cpp:454] fire4/concat <- fire4/expand1x1
I0604 20:56:02.947962   844 net.cpp:454] fire4/concat <- fire4/expand3x3
I0604 20:56:02.947968   844 net.cpp:411] fire4/concat -> fire4/concat
I0604 20:56:02.948010   844 net.cpp:150] Setting up fire4/concat
I0604 20:56:02.948017   844 net.cpp:157] Top shape: 50 256 30 30 (11520000)
I0604 20:56:02.948020   844 net.cpp:165] Memory required for data: 492557400
I0604 20:56:02.948024   844 layer_factory.hpp:77] Creating layer pool4
I0604 20:56:02.948030   844 net.cpp:106] Creating Layer pool4
I0604 20:56:02.948034   844 net.cpp:454] pool4 <- fire4/concat
I0604 20:56:02.948040   844 net.cpp:411] pool4 -> pool4
I0604 20:56:02.948091   844 net.cpp:150] Setting up pool4
I0604 20:56:02.948098   844 net.cpp:157] Top shape: 50 256 15 15 (2880000)
I0604 20:56:02.948101   844 net.cpp:165] Memory required for data: 504077400
I0604 20:56:02.948104   844 layer_factory.hpp:77] Creating layer fire5/squeeze1x1
I0604 20:56:02.948112   844 net.cpp:106] Creating Layer fire5/squeeze1x1
I0604 20:56:02.948115   844 net.cpp:454] fire5/squeeze1x1 <- pool4
I0604 20:56:02.948122   844 net.cpp:411] fire5/squeeze1x1 -> fire5/squeeze1x1
I0604 20:56:02.951884   844 net.cpp:150] Setting up fire5/squeeze1x1
I0604 20:56:02.951897   844 net.cpp:157] Top shape: 50 32 15 15 (360000)
I0604 20:56:02.951900   844 net.cpp:165] Memory required for data: 505517400
I0604 20:56:02.951908   844 layer_factory.hpp:77] Creating layer fire5/relu_squeeze1x1
I0604 20:56:02.951915   844 net.cpp:106] Creating Layer fire5/relu_squeeze1x1
I0604 20:56:02.951918   844 net.cpp:454] fire5/relu_squeeze1x1 <- fire5/squeeze1x1
I0604 20:56:02.951926   844 net.cpp:397] fire5/relu_squeeze1x1 -> fire5/squeeze1x1 (in-place)
I0604 20:56:02.952918   844 net.cpp:150] Setting up fire5/relu_squeeze1x1
I0604 20:56:02.952939   844 net.cpp:157] Top shape: 50 32 15 15 (360000)
I0604 20:56:02.952960   844 net.cpp:165] Memory required for data: 506957400
I0604 20:56:02.952963   844 layer_factory.hpp:77] Creating layer fire5/squeeze1x1_fire5/relu_squeeze1x1_0_split
I0604 20:56:02.952977   844 net.cpp:106] Creating Layer fire5/squeeze1x1_fire5/relu_squeeze1x1_0_split
I0604 20:56:02.952981   844 net.cpp:454] fire5/squeeze1x1_fire5/relu_squeeze1x1_0_split <- fire5/squeeze1x1
I0604 20:56:02.952987   844 net.cpp:411] fire5/squeeze1x1_fire5/relu_squeeze1x1_0_split -> fire5/squeeze1x1_fire5/relu_squeeze1x1_0_split_0
I0604 20:56:02.952996   844 net.cpp:411] fire5/squeeze1x1_fire5/relu_squeeze1x1_0_split -> fire5/squeeze1x1_fire5/relu_squeeze1x1_0_split_1
I0604 20:56:02.953057   844 net.cpp:150] Setting up fire5/squeeze1x1_fire5/relu_squeeze1x1_0_split
I0604 20:56:02.953063   844 net.cpp:157] Top shape: 50 32 15 15 (360000)
I0604 20:56:02.953068   844 net.cpp:157] Top shape: 50 32 15 15 (360000)
I0604 20:56:02.953070   844 net.cpp:165] Memory required for data: 509837400
I0604 20:56:02.953073   844 layer_factory.hpp:77] Creating layer fire5/expand1x1
I0604 20:56:02.953084   844 net.cpp:106] Creating Layer fire5/expand1x1
I0604 20:56:02.953091   844 net.cpp:454] fire5/expand1x1 <- fire5/squeeze1x1_fire5/relu_squeeze1x1_0_split_0
I0604 20:56:02.953099   844 net.cpp:411] fire5/expand1x1 -> fire5/expand1x1
I0604 20:56:02.957772   844 net.cpp:150] Setting up fire5/expand1x1
I0604 20:56:02.957788   844 net.cpp:157] Top shape: 50 128 15 15 (1440000)
I0604 20:56:02.957793   844 net.cpp:165] Memory required for data: 515597400
I0604 20:56:02.957800   844 layer_factory.hpp:77] Creating layer fire5/relu_expand1x1
I0604 20:56:02.957809   844 net.cpp:106] Creating Layer fire5/relu_expand1x1
I0604 20:56:02.957814   844 net.cpp:454] fire5/relu_expand1x1 <- fire5/expand1x1
I0604 20:56:02.957819   844 net.cpp:397] fire5/relu_expand1x1 -> fire5/expand1x1 (in-place)
I0604 20:56:02.958781   844 net.cpp:150] Setting up fire5/relu_expand1x1
I0604 20:56:02.958791   844 net.cpp:157] Top shape: 50 128 15 15 (1440000)
I0604 20:56:02.958794   844 net.cpp:165] Memory required for data: 521357400
I0604 20:56:02.958798   844 layer_factory.hpp:77] Creating layer fire5/expand3x3
I0604 20:56:02.958811   844 net.cpp:106] Creating Layer fire5/expand3x3
I0604 20:56:02.958814   844 net.cpp:454] fire5/expand3x3 <- fire5/squeeze1x1_fire5/relu_squeeze1x1_0_split_1
I0604 20:56:02.958822   844 net.cpp:411] fire5/expand3x3 -> fire5/expand3x3
I0604 20:56:02.962762   844 net.cpp:150] Setting up fire5/expand3x3
I0604 20:56:02.962776   844 net.cpp:157] Top shape: 50 128 15 15 (1440000)
I0604 20:56:02.962780   844 net.cpp:165] Memory required for data: 527117400
I0604 20:56:02.962787   844 layer_factory.hpp:77] Creating layer fire5/relu_expand3x3
I0604 20:56:02.962793   844 net.cpp:106] Creating Layer fire5/relu_expand3x3
I0604 20:56:02.962797   844 net.cpp:454] fire5/relu_expand3x3 <- fire5/expand3x3
I0604 20:56:02.962805   844 net.cpp:397] fire5/relu_expand3x3 -> fire5/expand3x3 (in-place)
I0604 20:56:02.964077   844 net.cpp:150] Setting up fire5/relu_expand3x3
I0604 20:56:02.964087   844 net.cpp:157] Top shape: 50 128 15 15 (1440000)
I0604 20:56:02.964089   844 net.cpp:165] Memory required for data: 532877400
I0604 20:56:02.964093   844 layer_factory.hpp:77] Creating layer fire5/concat
I0604 20:56:02.964102   844 net.cpp:106] Creating Layer fire5/concat
I0604 20:56:02.964104   844 net.cpp:454] fire5/concat <- fire5/expand1x1
I0604 20:56:02.964109   844 net.cpp:454] fire5/concat <- fire5/expand3x3
I0604 20:56:02.964114   844 net.cpp:411] fire5/concat -> fire5/concat
I0604 20:56:02.964154   844 net.cpp:150] Setting up fire5/concat
I0604 20:56:02.964161   844 net.cpp:157] Top shape: 50 256 15 15 (2880000)
I0604 20:56:02.964164   844 net.cpp:165] Memory required for data: 544397400
I0604 20:56:02.964167   844 layer_factory.hpp:77] Creating layer fire6/squeeze1x1
I0604 20:56:02.964177   844 net.cpp:106] Creating Layer fire6/squeeze1x1
I0604 20:56:02.964184   844 net.cpp:454] fire6/squeeze1x1 <- fire5/concat
I0604 20:56:02.964189   844 net.cpp:411] fire6/squeeze1x1 -> fire6/squeeze1x1
I0604 20:56:02.969230   844 net.cpp:150] Setting up fire6/squeeze1x1
I0604 20:56:02.969244   844 net.cpp:157] Top shape: 50 48 15 15 (540000)
I0604 20:56:02.969247   844 net.cpp:165] Memory required for data: 546557400
I0604 20:56:02.969254   844 layer_factory.hpp:77] Creating layer fire6/relu_squeeze1x1
I0604 20:56:02.969264   844 net.cpp:106] Creating Layer fire6/relu_squeeze1x1
I0604 20:56:02.969267   844 net.cpp:454] fire6/relu_squeeze1x1 <- fire6/squeeze1x1
I0604 20:56:02.969272   844 net.cpp:397] fire6/relu_squeeze1x1 -> fire6/squeeze1x1 (in-place)
I0604 20:56:02.970399   844 net.cpp:150] Setting up fire6/relu_squeeze1x1
I0604 20:56:02.970412   844 net.cpp:157] Top shape: 50 48 15 15 (540000)
I0604 20:56:02.970414   844 net.cpp:165] Memory required for data: 548717400
I0604 20:56:02.970418   844 layer_factory.hpp:77] Creating layer fire6/squeeze1x1_fire6/relu_squeeze1x1_0_split
I0604 20:56:02.970427   844 net.cpp:106] Creating Layer fire6/squeeze1x1_fire6/relu_squeeze1x1_0_split
I0604 20:56:02.970430   844 net.cpp:454] fire6/squeeze1x1_fire6/relu_squeeze1x1_0_split <- fire6/squeeze1x1
I0604 20:56:02.970437   844 net.cpp:411] fire6/squeeze1x1_fire6/relu_squeeze1x1_0_split -> fire6/squeeze1x1_fire6/relu_squeeze1x1_0_split_0
I0604 20:56:02.970449   844 net.cpp:411] fire6/squeeze1x1_fire6/relu_squeeze1x1_0_split -> fire6/squeeze1x1_fire6/relu_squeeze1x1_0_split_1
I0604 20:56:02.970505   844 net.cpp:150] Setting up fire6/squeeze1x1_fire6/relu_squeeze1x1_0_split
I0604 20:56:02.970515   844 net.cpp:157] Top shape: 50 48 15 15 (540000)
I0604 20:56:02.970520   844 net.cpp:157] Top shape: 50 48 15 15 (540000)
I0604 20:56:02.970522   844 net.cpp:165] Memory required for data: 553037400
I0604 20:56:02.970525   844 layer_factory.hpp:77] Creating layer fire6/expand1x1
I0604 20:56:02.970535   844 net.cpp:106] Creating Layer fire6/expand1x1
I0604 20:56:02.970541   844 net.cpp:454] fire6/expand1x1 <- fire6/squeeze1x1_fire6/relu_squeeze1x1_0_split_0
I0604 20:56:02.970549   844 net.cpp:411] fire6/expand1x1 -> fire6/expand1x1
I0604 20:56:02.977185   844 net.cpp:150] Setting up fire6/expand1x1
I0604 20:56:02.977200   844 net.cpp:157] Top shape: 50 192 15 15 (2160000)
I0604 20:56:02.977203   844 net.cpp:165] Memory required for data: 561677400
I0604 20:56:02.977211   844 layer_factory.hpp:77] Creating layer fire6/relu_expand1x1
I0604 20:56:02.977217   844 net.cpp:106] Creating Layer fire6/relu_expand1x1
I0604 20:56:02.977221   844 net.cpp:454] fire6/relu_expand1x1 <- fire6/expand1x1
I0604 20:56:02.977228   844 net.cpp:397] fire6/relu_expand1x1 -> fire6/expand1x1 (in-place)
I0604 20:56:02.978325   844 net.cpp:150] Setting up fire6/relu_expand1x1
I0604 20:56:02.978337   844 net.cpp:157] Top shape: 50 192 15 15 (2160000)
I0604 20:56:02.978343   844 net.cpp:165] Memory required for data: 570317400
I0604 20:56:02.978345   844 layer_factory.hpp:77] Creating layer fire6/expand3x3
I0604 20:56:02.978356   844 net.cpp:106] Creating Layer fire6/expand3x3
I0604 20:56:02.978359   844 net.cpp:454] fire6/expand3x3 <- fire6/squeeze1x1_fire6/relu_squeeze1x1_0_split_1
I0604 20:56:02.978368   844 net.cpp:411] fire6/expand3x3 -> fire6/expand3x3
I0604 20:56:02.982426   844 net.cpp:150] Setting up fire6/expand3x3
I0604 20:56:02.982440   844 net.cpp:157] Top shape: 50 192 15 15 (2160000)
I0604 20:56:02.982444   844 net.cpp:165] Memory required for data: 578957400
I0604 20:56:02.982450   844 layer_factory.hpp:77] Creating layer fire6/relu_expand3x3
I0604 20:56:02.982457   844 net.cpp:106] Creating Layer fire6/relu_expand3x3
I0604 20:56:02.982460   844 net.cpp:454] fire6/relu_expand3x3 <- fire6/expand3x3
I0604 20:56:02.982470   844 net.cpp:397] fire6/relu_expand3x3 -> fire6/expand3x3 (in-place)
I0604 20:56:02.983527   844 net.cpp:150] Setting up fire6/relu_expand3x3
I0604 20:56:02.983541   844 net.cpp:157] Top shape: 50 192 15 15 (2160000)
I0604 20:56:02.983544   844 net.cpp:165] Memory required for data: 587597400
I0604 20:56:02.983548   844 layer_factory.hpp:77] Creating layer fire6/concat
I0604 20:56:02.983554   844 net.cpp:106] Creating Layer fire6/concat
I0604 20:56:02.983574   844 net.cpp:454] fire6/concat <- fire6/expand1x1
I0604 20:56:02.983579   844 net.cpp:454] fire6/concat <- fire6/expand3x3
I0604 20:56:02.983584   844 net.cpp:411] fire6/concat -> fire6/concat
I0604 20:56:02.983626   844 net.cpp:150] Setting up fire6/concat
I0604 20:56:02.983633   844 net.cpp:157] Top shape: 50 384 15 15 (4320000)
I0604 20:56:02.983636   844 net.cpp:165] Memory required for data: 604877400
I0604 20:56:02.983639   844 layer_factory.hpp:77] Creating layer fire7/squeeze1x1
I0604 20:56:02.983649   844 net.cpp:106] Creating Layer fire7/squeeze1x1
I0604 20:56:02.983654   844 net.cpp:454] fire7/squeeze1x1 <- fire6/concat
I0604 20:56:02.983659   844 net.cpp:411] fire7/squeeze1x1 -> fire7/squeeze1x1
I0604 20:56:02.986104   844 net.cpp:150] Setting up fire7/squeeze1x1
I0604 20:56:02.986120   844 net.cpp:157] Top shape: 50 48 15 15 (540000)
I0604 20:56:02.986124   844 net.cpp:165] Memory required for data: 607037400
I0604 20:56:02.986140   844 layer_factory.hpp:77] Creating layer fire7/relu_squeeze1x1
I0604 20:56:02.986150   844 net.cpp:106] Creating Layer fire7/relu_squeeze1x1
I0604 20:56:02.986152   844 net.cpp:454] fire7/relu_squeeze1x1 <- fire7/squeeze1x1
I0604 20:56:02.986158   844 net.cpp:397] fire7/relu_squeeze1x1 -> fire7/squeeze1x1 (in-place)
I0604 20:56:02.987092   844 net.cpp:150] Setting up fire7/relu_squeeze1x1
I0604 20:56:02.987105   844 net.cpp:157] Top shape: 50 48 15 15 (540000)
I0604 20:56:02.987108   844 net.cpp:165] Memory required for data: 609197400
I0604 20:56:02.987112   844 layer_factory.hpp:77] Creating layer fire7/squeeze1x1_fire7/relu_squeeze1x1_0_split
I0604 20:56:02.987121   844 net.cpp:106] Creating Layer fire7/squeeze1x1_fire7/relu_squeeze1x1_0_split
I0604 20:56:02.987124   844 net.cpp:454] fire7/squeeze1x1_fire7/relu_squeeze1x1_0_split <- fire7/squeeze1x1
I0604 20:56:02.987130   844 net.cpp:411] fire7/squeeze1x1_fire7/relu_squeeze1x1_0_split -> fire7/squeeze1x1_fire7/relu_squeeze1x1_0_split_0
I0604 20:56:02.987138   844 net.cpp:411] fire7/squeeze1x1_fire7/relu_squeeze1x1_0_split -> fire7/squeeze1x1_fire7/relu_squeeze1x1_0_split_1
I0604 20:56:02.987200   844 net.cpp:150] Setting up fire7/squeeze1x1_fire7/relu_squeeze1x1_0_split
I0604 20:56:02.987207   844 net.cpp:157] Top shape: 50 48 15 15 (540000)
I0604 20:56:02.987211   844 net.cpp:157] Top shape: 50 48 15 15 (540000)
I0604 20:56:02.987215   844 net.cpp:165] Memory required for data: 613517400
I0604 20:56:02.987217   844 layer_factory.hpp:77] Creating layer fire7/expand1x1
I0604 20:56:02.987227   844 net.cpp:106] Creating Layer fire7/expand1x1
I0604 20:56:02.987234   844 net.cpp:454] fire7/expand1x1 <- fire7/squeeze1x1_fire7/relu_squeeze1x1_0_split_0
I0604 20:56:02.987243   844 net.cpp:411] fire7/expand1x1 -> fire7/expand1x1
I0604 20:56:02.991438   844 net.cpp:150] Setting up fire7/expand1x1
I0604 20:56:02.991457   844 net.cpp:157] Top shape: 50 192 15 15 (2160000)
I0604 20:56:02.991463   844 net.cpp:165] Memory required for data: 622157400
I0604 20:56:02.991483   844 layer_factory.hpp:77] Creating layer fire7/relu_expand1x1
I0604 20:56:02.991497   844 net.cpp:106] Creating Layer fire7/relu_expand1x1
I0604 20:56:02.991502   844 net.cpp:454] fire7/relu_expand1x1 <- fire7/expand1x1
I0604 20:56:02.991508   844 net.cpp:397] fire7/relu_expand1x1 -> fire7/expand1x1 (in-place)
I0604 20:56:02.992821   844 net.cpp:150] Setting up fire7/relu_expand1x1
I0604 20:56:02.992835   844 net.cpp:157] Top shape: 50 192 15 15 (2160000)
I0604 20:56:02.992837   844 net.cpp:165] Memory required for data: 630797400
I0604 20:56:02.992841   844 layer_factory.hpp:77] Creating layer fire7/expand3x3
I0604 20:56:02.992852   844 net.cpp:106] Creating Layer fire7/expand3x3
I0604 20:56:02.992856   844 net.cpp:454] fire7/expand3x3 <- fire7/squeeze1x1_fire7/relu_squeeze1x1_0_split_1
I0604 20:56:02.992862   844 net.cpp:411] fire7/expand3x3 -> fire7/expand3x3
I0604 20:56:02.997896   844 net.cpp:150] Setting up fire7/expand3x3
I0604 20:56:02.997921   844 net.cpp:157] Top shape: 50 192 15 15 (2160000)
I0604 20:56:02.997925   844 net.cpp:165] Memory required for data: 639437400
I0604 20:56:02.997967   844 layer_factory.hpp:77] Creating layer fire7/relu_expand3x3
I0604 20:56:02.997999   844 net.cpp:106] Creating Layer fire7/relu_expand3x3
I0604 20:56:02.998013   844 net.cpp:454] fire7/relu_expand3x3 <- fire7/expand3x3
I0604 20:56:02.998023   844 net.cpp:397] fire7/relu_expand3x3 -> fire7/expand3x3 (in-place)
I0604 20:56:02.999006   844 net.cpp:150] Setting up fire7/relu_expand3x3
I0604 20:56:02.999019   844 net.cpp:157] Top shape: 50 192 15 15 (2160000)
I0604 20:56:02.999024   844 net.cpp:165] Memory required for data: 648077400
I0604 20:56:02.999030   844 layer_factory.hpp:77] Creating layer fire7/concat
I0604 20:56:02.999042   844 net.cpp:106] Creating Layer fire7/concat
I0604 20:56:02.999068   844 net.cpp:454] fire7/concat <- fire7/expand1x1
I0604 20:56:02.999076   844 net.cpp:454] fire7/concat <- fire7/expand3x3
I0604 20:56:02.999089   844 net.cpp:411] fire7/concat -> fire7/concat
I0604 20:56:02.999162   844 net.cpp:150] Setting up fire7/concat
I0604 20:56:02.999173   844 net.cpp:157] Top shape: 50 384 15 15 (4320000)
I0604 20:56:02.999178   844 net.cpp:165] Memory required for data: 665357400
I0604 20:56:02.999183   844 layer_factory.hpp:77] Creating layer fire8/squeeze1x1
I0604 20:56:02.999209   844 net.cpp:106] Creating Layer fire8/squeeze1x1
I0604 20:56:02.999217   844 net.cpp:454] fire8/squeeze1x1 <- fire7/concat
I0604 20:56:02.999227   844 net.cpp:411] fire8/squeeze1x1 -> fire8/squeeze1x1
I0604 20:56:03.003651   844 net.cpp:150] Setting up fire8/squeeze1x1
I0604 20:56:03.003674   844 net.cpp:157] Top shape: 50 64 15 15 (720000)
I0604 20:56:03.003679   844 net.cpp:165] Memory required for data: 668237400
I0604 20:56:03.003686   844 layer_factory.hpp:77] Creating layer fire8/relu_squeeze1x1
I0604 20:56:03.003697   844 net.cpp:106] Creating Layer fire8/relu_squeeze1x1
I0604 20:56:03.003701   844 net.cpp:454] fire8/relu_squeeze1x1 <- fire8/squeeze1x1
I0604 20:56:03.003708   844 net.cpp:397] fire8/relu_squeeze1x1 -> fire8/squeeze1x1 (in-place)
I0604 20:56:03.004621   844 net.cpp:150] Setting up fire8/relu_squeeze1x1
I0604 20:56:03.004637   844 net.cpp:157] Top shape: 50 64 15 15 (720000)
I0604 20:56:03.004640   844 net.cpp:165] Memory required for data: 671117400
I0604 20:56:03.004644   844 layer_factory.hpp:77] Creating layer fire8/squeeze1x1_fire8/relu_squeeze1x1_0_split
I0604 20:56:03.004652   844 net.cpp:106] Creating Layer fire8/squeeze1x1_fire8/relu_squeeze1x1_0_split
I0604 20:56:03.004655   844 net.cpp:454] fire8/squeeze1x1_fire8/relu_squeeze1x1_0_split <- fire8/squeeze1x1
I0604 20:56:03.004662   844 net.cpp:411] fire8/squeeze1x1_fire8/relu_squeeze1x1_0_split -> fire8/squeeze1x1_fire8/relu_squeeze1x1_0_split_0
I0604 20:56:03.004674   844 net.cpp:411] fire8/squeeze1x1_fire8/relu_squeeze1x1_0_split -> fire8/squeeze1x1_fire8/relu_squeeze1x1_0_split_1
I0604 20:56:03.004739   844 net.cpp:150] Setting up fire8/squeeze1x1_fire8/relu_squeeze1x1_0_split
I0604 20:56:03.004746   844 net.cpp:157] Top shape: 50 64 15 15 (720000)
I0604 20:56:03.004752   844 net.cpp:157] Top shape: 50 64 15 15 (720000)
I0604 20:56:03.004755   844 net.cpp:165] Memory required for data: 676877400
I0604 20:56:03.004758   844 layer_factory.hpp:77] Creating layer fire8/expand1x1
I0604 20:56:03.004770   844 net.cpp:106] Creating Layer fire8/expand1x1
I0604 20:56:03.004775   844 net.cpp:454] fire8/expand1x1 <- fire8/squeeze1x1_fire8/relu_squeeze1x1_0_split_0
I0604 20:56:03.004782   844 net.cpp:411] fire8/expand1x1 -> fire8/expand1x1
I0604 20:56:03.009276   844 net.cpp:150] Setting up fire8/expand1x1
I0604 20:56:03.009291   844 net.cpp:157] Top shape: 50 256 15 15 (2880000)
I0604 20:56:03.009295   844 net.cpp:165] Memory required for data: 688397400
I0604 20:56:03.009302   844 layer_factory.hpp:77] Creating layer fire8/relu_expand1x1
I0604 20:56:03.009310   844 net.cpp:106] Creating Layer fire8/relu_expand1x1
I0604 20:56:03.009313   844 net.cpp:454] fire8/relu_expand1x1 <- fire8/expand1x1
I0604 20:56:03.009320   844 net.cpp:397] fire8/relu_expand1x1 -> fire8/expand1x1 (in-place)
I0604 20:56:03.010283   844 net.cpp:150] Setting up fire8/relu_expand1x1
I0604 20:56:03.010294   844 net.cpp:157] Top shape: 50 256 15 15 (2880000)
I0604 20:56:03.010298   844 net.cpp:165] Memory required for data: 699917400
I0604 20:56:03.010301   844 layer_factory.hpp:77] Creating layer fire8/expand3x3
I0604 20:56:03.010311   844 net.cpp:106] Creating Layer fire8/expand3x3
I0604 20:56:03.010318   844 net.cpp:454] fire8/expand3x3 <- fire8/squeeze1x1_fire8/relu_squeeze1x1_0_split_1
I0604 20:56:03.010327   844 net.cpp:411] fire8/expand3x3 -> fire8/expand3x3
I0604 20:56:03.015010   844 net.cpp:150] Setting up fire8/expand3x3
I0604 20:56:03.015024   844 net.cpp:157] Top shape: 50 256 15 15 (2880000)
I0604 20:56:03.015028   844 net.cpp:165] Memory required for data: 711437400
I0604 20:56:03.015035   844 layer_factory.hpp:77] Creating layer fire8/relu_expand3x3
I0604 20:56:03.015043   844 net.cpp:106] Creating Layer fire8/relu_expand3x3
I0604 20:56:03.015048   844 net.cpp:454] fire8/relu_expand3x3 <- fire8/expand3x3
I0604 20:56:03.015055   844 net.cpp:397] fire8/relu_expand3x3 -> fire8/expand3x3 (in-place)
I0604 20:56:03.016032   844 net.cpp:150] Setting up fire8/relu_expand3x3
I0604 20:56:03.016043   844 net.cpp:157] Top shape: 50 256 15 15 (2880000)
I0604 20:56:03.016047   844 net.cpp:165] Memory required for data: 722957400
I0604 20:56:03.016050   844 layer_factory.hpp:77] Creating layer fire8/concat
I0604 20:56:03.016057   844 net.cpp:106] Creating Layer fire8/concat
I0604 20:56:03.016060   844 net.cpp:454] fire8/concat <- fire8/expand1x1
I0604 20:56:03.016064   844 net.cpp:454] fire8/concat <- fire8/expand3x3
I0604 20:56:03.016072   844 net.cpp:411] fire8/concat -> fire8/concat
I0604 20:56:03.016129   844 net.cpp:150] Setting up fire8/concat
I0604 20:56:03.016139   844 net.cpp:157] Top shape: 50 512 15 15 (5760000)
I0604 20:56:03.016144   844 net.cpp:165] Memory required for data: 745997400
I0604 20:56:03.016152   844 layer_factory.hpp:77] Creating layer pool8
I0604 20:56:03.016163   844 net.cpp:106] Creating Layer pool8
I0604 20:56:03.016167   844 net.cpp:454] pool8 <- fire8/concat
I0604 20:56:03.016175   844 net.cpp:411] pool8 -> pool8
I0604 20:56:03.016247   844 net.cpp:150] Setting up pool8
I0604 20:56:03.016254   844 net.cpp:157] Top shape: 50 512 7 7 (1254400)
I0604 20:56:03.016258   844 net.cpp:165] Memory required for data: 751015000
I0604 20:56:03.016260   844 layer_factory.hpp:77] Creating layer fire9/squeeze1x1
I0604 20:56:03.016270   844 net.cpp:106] Creating Layer fire9/squeeze1x1
I0604 20:56:03.016274   844 net.cpp:454] fire9/squeeze1x1 <- pool8
I0604 20:56:03.016281   844 net.cpp:411] fire9/squeeze1x1 -> fire9/squeeze1x1
I0604 20:56:03.019716   844 net.cpp:150] Setting up fire9/squeeze1x1
I0604 20:56:03.019729   844 net.cpp:157] Top shape: 50 64 7 7 (156800)
I0604 20:56:03.019738   844 net.cpp:165] Memory required for data: 751642200
I0604 20:56:03.019745   844 layer_factory.hpp:77] Creating layer fire9/relu_squeeze1x1
I0604 20:56:03.019765   844 net.cpp:106] Creating Layer fire9/relu_squeeze1x1
I0604 20:56:03.019770   844 net.cpp:454] fire9/relu_squeeze1x1 <- fire9/squeeze1x1
I0604 20:56:03.019776   844 net.cpp:397] fire9/relu_squeeze1x1 -> fire9/squeeze1x1 (in-place)
I0604 20:56:03.020755   844 net.cpp:150] Setting up fire9/relu_squeeze1x1
I0604 20:56:03.020769   844 net.cpp:157] Top shape: 50 64 7 7 (156800)
I0604 20:56:03.020778   844 net.cpp:165] Memory required for data: 752269400
I0604 20:56:03.020783   844 layer_factory.hpp:77] Creating layer fire9/squeeze1x1_fire9/relu_squeeze1x1_0_split
I0604 20:56:03.020789   844 net.cpp:106] Creating Layer fire9/squeeze1x1_fire9/relu_squeeze1x1_0_split
I0604 20:56:03.020793   844 net.cpp:454] fire9/squeeze1x1_fire9/relu_squeeze1x1_0_split <- fire9/squeeze1x1
I0604 20:56:03.020799   844 net.cpp:411] fire9/squeeze1x1_fire9/relu_squeeze1x1_0_split -> fire9/squeeze1x1_fire9/relu_squeeze1x1_0_split_0
I0604 20:56:03.020807   844 net.cpp:411] fire9/squeeze1x1_fire9/relu_squeeze1x1_0_split -> fire9/squeeze1x1_fire9/relu_squeeze1x1_0_split_1
I0604 20:56:03.020870   844 net.cpp:150] Setting up fire9/squeeze1x1_fire9/relu_squeeze1x1_0_split
I0604 20:56:03.020895   844 net.cpp:157] Top shape: 50 64 7 7 (156800)
I0604 20:56:03.020898   844 net.cpp:157] Top shape: 50 64 7 7 (156800)
I0604 20:56:03.020901   844 net.cpp:165] Memory required for data: 753523800
I0604 20:56:03.020905   844 layer_factory.hpp:77] Creating layer fire9/expand1x1
I0604 20:56:03.020915   844 net.cpp:106] Creating Layer fire9/expand1x1
I0604 20:56:03.020918   844 net.cpp:454] fire9/expand1x1 <- fire9/squeeze1x1_fire9/relu_squeeze1x1_0_split_0
I0604 20:56:03.020926   844 net.cpp:411] fire9/expand1x1 -> fire9/expand1x1
I0604 20:56:03.024441   844 net.cpp:150] Setting up fire9/expand1x1
I0604 20:56:03.024461   844 net.cpp:157] Top shape: 50 256 7 7 (627200)
I0604 20:56:03.024466   844 net.cpp:165] Memory required for data: 756032600
I0604 20:56:03.024480   844 layer_factory.hpp:77] Creating layer fire9/relu_expand1x1
I0604 20:56:03.024488   844 net.cpp:106] Creating Layer fire9/relu_expand1x1
I0604 20:56:03.024492   844 net.cpp:454] fire9/relu_expand1x1 <- fire9/expand1x1
I0604 20:56:03.024498   844 net.cpp:397] fire9/relu_expand1x1 -> fire9/expand1x1 (in-place)
I0604 20:56:03.025451   844 net.cpp:150] Setting up fire9/relu_expand1x1
I0604 20:56:03.025463   844 net.cpp:157] Top shape: 50 256 7 7 (627200)
I0604 20:56:03.025466   844 net.cpp:165] Memory required for data: 758541400
I0604 20:56:03.025470   844 layer_factory.hpp:77] Creating layer fire9/expand3x3
I0604 20:56:03.025481   844 net.cpp:106] Creating Layer fire9/expand3x3
I0604 20:56:03.025485   844 net.cpp:454] fire9/expand3x3 <- fire9/squeeze1x1_fire9/relu_squeeze1x1_0_split_1
I0604 20:56:03.025493   844 net.cpp:411] fire9/expand3x3 -> fire9/expand3x3
I0604 20:56:03.029127   844 net.cpp:150] Setting up fire9/expand3x3
I0604 20:56:03.029141   844 net.cpp:157] Top shape: 50 256 7 7 (627200)
I0604 20:56:03.029145   844 net.cpp:165] Memory required for data: 761050200
I0604 20:56:03.029152   844 layer_factory.hpp:77] Creating layer fire9/relu_expand3x3
I0604 20:56:03.029160   844 net.cpp:106] Creating Layer fire9/relu_expand3x3
I0604 20:56:03.029163   844 net.cpp:454] fire9/relu_expand3x3 <- fire9/expand3x3
I0604 20:56:03.029171   844 net.cpp:397] fire9/relu_expand3x3 -> fire9/expand3x3 (in-place)
I0604 20:56:03.030164   844 net.cpp:150] Setting up fire9/relu_expand3x3
I0604 20:56:03.030174   844 net.cpp:157] Top shape: 50 256 7 7 (627200)
I0604 20:56:03.030177   844 net.cpp:165] Memory required for data: 763559000
I0604 20:56:03.030184   844 layer_factory.hpp:77] Creating layer fire9/concat
I0604 20:56:03.030191   844 net.cpp:106] Creating Layer fire9/concat
I0604 20:56:03.030195   844 net.cpp:454] fire9/concat <- fire9/expand1x1
I0604 20:56:03.030200   844 net.cpp:454] fire9/concat <- fire9/expand3x3
I0604 20:56:03.030205   844 net.cpp:411] fire9/concat -> fire9/concat
I0604 20:56:03.030247   844 net.cpp:150] Setting up fire9/concat
I0604 20:56:03.030256   844 net.cpp:157] Top shape: 50 512 7 7 (1254400)
I0604 20:56:03.030258   844 net.cpp:165] Memory required for data: 768576600
I0604 20:56:03.030262   844 layer_factory.hpp:77] Creating layer drop9
I0604 20:56:03.030268   844 net.cpp:106] Creating Layer drop9
I0604 20:56:03.030272   844 net.cpp:454] drop9 <- fire9/concat
I0604 20:56:03.030278   844 net.cpp:397] drop9 -> fire9/concat (in-place)
I0604 20:56:03.030311   844 net.cpp:150] Setting up drop9
I0604 20:56:03.030320   844 net.cpp:157] Top shape: 50 512 7 7 (1254400)
I0604 20:56:03.030323   844 net.cpp:165] Memory required for data: 773594200
I0604 20:56:03.030326   844 layer_factory.hpp:77] Creating layer conv10
I0604 20:56:03.030334   844 net.cpp:106] Creating Layer conv10
I0604 20:56:03.030339   844 net.cpp:454] conv10 <- fire9/concat
I0604 20:56:03.030346   844 net.cpp:411] conv10 -> conv10
I0604 20:56:03.049615   844 net.cpp:150] Setting up conv10
I0604 20:56:03.049643   844 net.cpp:157] Top shape: 50 1000 9 9 (4050000)
I0604 20:56:03.049649   844 net.cpp:165] Memory required for data: 789794200
I0604 20:56:03.049656   844 layer_factory.hpp:77] Creating layer relu_conv10
I0604 20:56:03.049690   844 net.cpp:106] Creating Layer relu_conv10
I0604 20:56:03.049695   844 net.cpp:454] relu_conv10 <- conv10
I0604 20:56:03.049707   844 net.cpp:397] relu_conv10 -> conv10 (in-place)
I0604 20:56:03.050737   844 net.cpp:150] Setting up relu_conv10
I0604 20:56:03.050750   844 net.cpp:157] Top shape: 50 1000 9 9 (4050000)
I0604 20:56:03.050753   844 net.cpp:165] Memory required for data: 805994200
I0604 20:56:03.050760   844 layer_factory.hpp:77] Creating layer pool10
I0604 20:56:03.050767   844 net.cpp:106] Creating Layer pool10
I0604 20:56:03.050771   844 net.cpp:454] pool10 <- conv10
I0604 20:56:03.050779   844 net.cpp:411] pool10 -> pool10
I0604 20:56:03.051808   844 net.cpp:150] Setting up pool10
I0604 20:56:03.051820   844 net.cpp:157] Top shape: 50 1000 1 1 (50000)
I0604 20:56:03.051823   844 net.cpp:165] Memory required for data: 806194200
I0604 20:56:03.051831   844 layer_factory.hpp:77] Creating layer pool10_pool10_0_split
I0604 20:56:03.051838   844 net.cpp:106] Creating Layer pool10_pool10_0_split
I0604 20:56:03.051841   844 net.cpp:454] pool10_pool10_0_split <- pool10
I0604 20:56:03.051847   844 net.cpp:411] pool10_pool10_0_split -> pool10_pool10_0_split_0
I0604 20:56:03.051854   844 net.cpp:411] pool10_pool10_0_split -> pool10_pool10_0_split_1
I0604 20:56:03.051909   844 net.cpp:150] Setting up pool10_pool10_0_split
I0604 20:56:03.051916   844 net.cpp:157] Top shape: 50 1000 1 1 (50000)
I0604 20:56:03.051921   844 net.cpp:157] Top shape: 50 1000 1 1 (50000)
I0604 20:56:03.051923   844 net.cpp:165] Memory required for data: 806594200
I0604 20:56:03.051926   844 layer_factory.hpp:77] Creating layer accuracy
I0604 20:56:03.051935   844 net.cpp:106] Creating Layer accuracy
I0604 20:56:03.051939   844 net.cpp:454] accuracy <- pool10_pool10_0_split_0
I0604 20:56:03.051944   844 net.cpp:454] accuracy <- label_data_1_split_0
I0604 20:56:03.051949   844 net.cpp:411] accuracy -> accuracy
…
      source: "/local/temporary/mishkdmy/imagenet144pxlmdb/ilsvrc12_128_train_lmdb"
      batch_size: 256
      backend: LMDB
    }
  }
  layer {
    name: "data"
    type: "Data"
    top: "data"
    top: "label"
    include {
      phase: TEST
    }
    transform_param {
      scale: 0.04
      mirror: false
      crop_size: 128
      mean_value: 104
      mean_value: 117
      mean_value: 123
      force_color: true
    }
    data_param {
      source: "/local/temporary/mishkdmy/imagenet144pxlmdb/ilsvrc12_128_val_lmdb"
      batch_size: 50
      backend: LMDB
    }
  }
  layer {
    name: "conv1"
    type: "Convolution"
    bottom: "data"
    top: "conv1"
    convolution_param {
      num_output: 96
      kernel_size: 7
      stride: 2
      weight_filler {
        type: "xavier"
      }
    }
  }
  layer {
    name: "relu_conv1"
    type: "ReLU"
    bottom: "conv1"
    top: "conv1"
  }
  layer {
    name: "pool1"
    type: "Pooling"
    bottom: "conv1"
    top: "pool1"
    pooling_param {
      pool: MAX
      kernel_size: 3
      stride: 2
    }
  }
  layer {
    name: "fire2/squeeze1x1"
    type: "Convolution"
    bottom: "pool1"
    top: "fire2/squeeze1x1"
    convolution_param {
      num_output: 16
      kernel_size: 1
      weight_filler {
        type: "xavier"
      }
    }
  }
  layer {
    name: "fire2/relu_squeeze1x1"
    type: "ReLU"
    bottom: "fire2/squeeze1x1"
    top: "fire2/squeeze1x1"
  }
  layer {
    name: "fire2/expand1x1"
    type: "Convolution"
    bottom: "fire2/squeeze1x1"
    top: "fire2/expand1x1"
    convolution_param {
      num_output: 64
      kernel_size: 1
      weight_filler {
        type: "xavier"
      }
    }
  }
  layer {
    name: "fire2/relu_expand1x1"
    type: "ReLU"
    bottom: "fire2/expand1x1"
    top: "fire2/expand1x1"
  }
  layer {
    name: "fire2/expand3x3"
    type: "Convolution"
    bottom: "fire2/squeeze1x1"
    top: "fire2/expand3x3"
    convolution_param {
      num_output: 64
      pad: 1
      kernel_size: 3
      weight_filler {
        type: "xavier"
      }
    }
  }
  layer {
    name: "fire2/relu_expand3x3"
    type: "ReLU"
    bottom: "fire2/expand3x3"
    top: "fire2/expand3x3"
  }
  layer {
    name: "fire2/concat"
    type: "Concat"
    bottom: "fire2/expand1x1"
    bottom: "fire2/expand3x3"
    top: "fire2/concat"
  }
  layer {
    name: "fire3/squeeze1x1"
    type: "Convolution"
    bottom: "fire2/concat"
    top: "fire3/squeeze1x1"
    convolution_param {
      num_output: 16
      kernel_size: 1
      weight_filler {
        type: "xavier"
      }
    }
  }
  layer {
    name: "fire3/relu_squeeze1x1"
    type: "ReLU"
    bottom: "fire3/squeeze1x1"
    top: "fire3/squeeze1x1"
  }
  layer {
    name: "fire3/expand1x1"
    type: "Convolution"
    bottom: "fire3/squeeze1x1"
    top: "fire3/expand1x1"
    convolution_param {
      num_output: 64
      kernel_size: 1
      weight_filler {
        type: "xavier"
      }
    }
  }
  layer {
    name: "fire3/relu_expand1x1"
    type: "ReLU"
    bottom: "fire3/expand1x1"
    top: "fire3/expand1x1"
  }
  layer {
    name: "fire3/expand3x3"
    type: "Convolution"
    bottom: "fire3/squeeze1x1"
    top: "fire3/expand3x3"
    convolution_param {
      num_output: 64
      pad: 1
      kernel_size: 3
      weight_filler {
        type: "xavier"
      }
    }
  }
  layer {
    name: "fire3/relu_expand3x3"
    type: "ReLU"
    bottom: "fire3/expand3x3"
    top: "fire3/expand3x3"
  }
  layer {
    name: "fire3/concat"
    type: "Concat"
    bottom: "fire3/expand1x1"
    bottom: "fire3/expand3x3"
    top: "fire3/concat"
  }
  layer {
    name: "fire4/squeeze1x1"
    type: "Convolution"
    bottom: "fire3/concat"
    top: "fire4/squeeze1x1"
    convolution_param {
      num_output: 32
      kernel_size: 1
      weight_filler {
        type: "xavier"
      }
    }
  }
  layer {
    name: "fire4/relu_squeeze1x1"
    type: "ReLU"
    bottom: "fire4/squeeze1x1"
    top: "fire4/squeeze1x1"
  }
  layer {
    name: "fire4/expand1x1"
    type: "Convolution"
    bottom: "fire4/squeeze1x1"
    top: "fire4/expand1x1"
    convolution_param {
      num_output: 128
      kernel_size: 1
      weight_filler {
        type: "xavier"
      }
    }
  }
  layer {
    name: "fire4/relu_expand1x1"
    type: "ReLU"
    bottom: "fire4/expand1x1"
    top: "fire4/expand1x1"
  }
  layer {
    name: "fire4/expand3x3"
    type: "Convolution"
    bottom: "fire4/squeeze1x1"
    top: "fire4/expand3x3"
    convolution_param {
      num_output: 128
      pad: 1
      kernel_size: 3
      weight_filler {
        type: "xavier"
      }
    }
  }
  layer {
    name: "fire4/relu_expand3x3"
    type: "ReLU"
    bottom: "fire4/expand3x3"
    top: "fire4/expand3x3"
  }
  layer {
    name: "fire4/concat"
    type: "Concat"
    bottom: "fire4/expand1x1"
    bottom: "fire4/expand3x3"
    top: "fire4/concat"
  }
  layer {
    name: "pool4"
    type: "Pooling"
    bottom: "fire4/concat"
    top: "pool4"
    pooling_param {
      pool: MAX
      kernel_size: 3
      stride: 2
    }
  }
  layer {
    name: "fire5/squeeze1x1"
    type: "Convolution"
    bottom: "pool4"
    top: "fire5/squeeze1x1"
    convolution_param {
      num_output: 32
      kernel_size: 1
      weight_filler {
        type: "xavier"
      }
    }
  }
  layer {
    name: "fire5/relu_squeeze1x1"
    type: "ReLU"
    bottom: "fire5/squeeze1x1"
    top: "fire5/squeeze1x1"
  }
  layer {
    name: "fire5/expand1x1"
    type: "Convolution"
    bottom: "fire5/squeeze1x1"
    top: "fire5/expand1x1"
    convolution_param {
      num_output: 128
      kernel_size: 1
      weight_filler {
        type: "xavier"
      }
    }
  }
  layer {
    name: "fire5/relu_expand1x1"
    type: "ReLU"
    bottom: "fire5/expand1x1"
    top: "fire5/expand1x1"
  }
  layer {
    name: "fire5/expand3x3"
    type: "Convolution"
    bottom: "fire5/squeeze1x1"
    top: "fire5/expand3x3"
    convolution_param {
      num_output: 128
      pad: 1
      kernel_size: 3
      weight_filler {
        type: "xavier"
      }
    }
  }
  layer {
    name: "fire5/relu_expand3x3"
    type: "ReLU"
    bottom: "fire5/expand3x3"
    top: "fire5/expand3x3"
  }
  layer {
    name: "fire5/concat"
    type: "Concat"
    bottom: "fire5/expand1x1"
    bottom: "fire5/expand3x3"
    top: "fire5/concat"
  }
  layer {
    name: "fire6/squeeze1x1"
    type: "Convolution"
    bottom: "fire5/concat"
    top: "fire6/squeeze1x1"
    convolution_param {
      num_output: 48
      kernel_size: 1
      weight_filler {
        type: "xavier"
      }
    }
  }
  layer {
    name: "fire6/relu_squeeze1x1"
    type: "ReLU"
    bottom: "fire6/squeeze1x1"
    top: "fire6/squeeze1x1"
  }
  layer {
    name: "fire6/expand1x1"
    type: "Convolution"
    bottom: "fire6/squeeze1x1"
    top: "fire6/expand1x1"
    convolution_param {
      num_output: 192
      kernel_size: 1
      weight_filler {
        type: "xavier"
      }
    }
  }
  layer {
    name: "fire6/relu_expand1x1"
    type: "ReLU"
    bottom: "fire6/expand1x1"
    top: "fire6/expand1x1"
  }
  layer {
    name: "fire6/expand3x3"
    type: "Convolution"
    bottom: "fire6/squeeze1x1"
    top: "fire6/expand3x3"
    convolution_param {
      num_output: 192
      pad: 1
      kernel_size: 3
      weight_filler {
        type: "xavier"
      }
    }
  }
  layer {
    name: "fire6/relu_expand3x3"
    type: "ReLU"
    bottom: "fire6/expand3x3"
    top: "fire6/expand3x3"
  }
  layer {
    name: "fire6/concat"
    type: "Concat"
    bottom: "fire6/expand1x1"
    bottom: "fire6/expand3x3"
    top: "fire6/concat"
  }
  layer {
    name: "fire7/squeeze1x1"
    type: "Convolution"
    bottom: "fire6/concat"
    top: "fire7/squeeze1x1"
    convolution_param {
      num_output: 48
      kernel_size: 1
      weight_filler {
        type: "xavier"
      }
    }
  }
  layer {
    name: "fire7/relu_squeeze1x1"
    type: "ReLU"
    bottom: "fire7/squeeze1x1"
    top: "fire7/squeeze1x1"
  }
  layer {
    name: "fire7/expand1x1"
    type: "Convolution"
    bottom: "fire7/squeeze1x1"
    top: "fire7/expand1x1"
    convolution_param {
      num_output: 192
      kernel_size: 1
      weight_filler {
        type: "xavier"
      }
    }
  }
  layer {
    name: "fire7/relu_expand1x1"
    type: "ReLU"
    bottom: "fire7/expand1x1"
    top: "fire7/expand1x1"
  }
  layer {
    name: "fire7/expand3x3"
    type: "Convolution"
    bottom: "fire7/squeeze1x1"
    top: "fire7/expand3x3"
    convolution_param {
      num_output: 192
      pad: 1
      kernel_size: 3
      weight_filler {
        type: "xavier"
      }
    }
  }
  layer {
    name: "fire7/relu_expand3x3"
    type: "ReLU"
    bottom: "fire7/expand3x3"
    top: "fire7/expand3x3"
  }
  layer {
    name: "fire7/concat"
    type: "Concat"
    bottom: "fire7/expand1x1"
    bottom: "fire7/expand3x3"
    top: "fire7/concat"
  }
  layer {
    name: "fire8/squeeze1x1"
    type: "Convolution"
    bottom: "fire7/concat"
    top: "fire8/squeeze1x1"
    convolution_param {
      num_output: 64
      kernel_size: 1
      weight_filler {
        type: "xavier"
      }
    }
  }
  layer {
    name: "fire8/relu_squeeze1x1"
    type: "ReLU"
    bottom: "fire8/squeeze1x1"
    top: "fire8/squeeze1x1"
  }
  layer {
    name: "fire8/expand1x1"
    type: "Convolution"
    bottom: "fire8/squeeze1x1"
    top: "fire8/expand1x1"
    convolution_param {
      num_output: 256
      kernel_size: 1
      weight_filler {
        type: "xavier"
      }
    }
  }
  layer {
    name: "fire8/relu_expand1x1"
    type: "ReLU"
    bottom: "fire8/expand1x1"
    top: "fire8/expand1x1"
  }
  layer {
    name: "fire8/expand3x3"
    type: "Convolution"
    bottom: "fire8/squeeze1x1"
    top: "fire8/expand3x3"
    convolution_param {
      num_output: 256
      pad: 1
      kernel_size: 3
      weight_filler {
        type: "xavier"
      }
    }
  }
  layer {
    name: "fire8/relu_expand3x3"
    type: "ReLU"
    bottom: "fire8/expand3x3"
    top: "fire8/expand3x3"
  }
  layer {
    name: "fire8/concat"
    type: "Concat"
    bottom: "fire8/expand1x1"
    bottom: "fire8/expand3x3"
    top: "fire8/concat"
  }
  layer {
    name: "pool8"
    type: "Pooling"
    bottom: "fire8/concat"
    top: "pool8"
    pooling_param {
      pool: MAX
      kernel_size: 3
      stride: 2
    }
  }
  layer {
    name: "fire9/squeeze1x1"
    type: "Convolution"
    bottom: "pool8"
    top: "fire9/squeeze1x1"
    convolution_param {
      num_output: 64
      kernel_size: 1
      weight_filler {
        type: "xavier"
      }
    }
  }
  layer {
    name: "fire9/relu_squeeze1x1"
    type: "ReLU"
    bottom: "fire9/squeeze1x1"
    top: "fire9/squeeze1x1"
  }
  layer {
    name: "fire9/expand1x1"
    type: "Convolution"
    bottom: "fire9/squeeze1x1"
    top: "fire9/expand1x1"
    convolution_param {
      num_output: 256
      kernel_size: 1
      weight_filler {
        type: "xavier"
      }
    }
  }
  layer {
    name: "fire9/relu_expand1x1"
    type: "ReLU"
    bottom: "fire9/expand1x1"
    top: "fire9/expand1x1"
  }
  layer {
    name: "fire9/expand3x3"
    type: "Convolution"
    bottom: "fire9/squeeze1x1"
    top: "fire9/expand3x3"
    convolution_param {
      num_output: 256
      pad: 1
      kernel_size: 3
      weight_filler {
        type: "xavier"
      }
    }
  }
  layer {
    name: "fire9/relu_expand3x3"
    type: "ReLU"
    bottom: "fire9/expand3x3"
    top: "fire9/expand3x3"
  }
  layer {
    name: "fire9/concat"
    type: "Concat"
    bottom: "fire9/expand1x1"
    bottom: "fire9/expand3x3"
    top: "fire9/concat"
  }
  layer {
    name: "drop9"
    type: "Dropout"
    bottom: "fire9/concat"
    top: "fire9/concat"
    dropout_param {
      dropout_ratio: 0.5
    }
  }
  layer {
    name: "conv10"
    type: "Convolution"
    bottom: "fire9/concat"
    top: "conv10"
    convolution_param {
      num_output: 1000
      pad: 1
      kernel_size: 1
      weight_filler {
        type: "gaussian"
        mean: 0
        std: 0.01
      }
    }
  }
  layer {
    name: "relu_conv10"
    type: "ReLU"
    bottom: "conv10"
    top: "conv10"
  }
  layer {
    name: "pool10"
    type: "Pooling"
    bottom: "conv10"
    top: "pool10"
    pooling_param {
      pool: AVE
      global_pooling: true
    }
  }
  layer {
    name: "loss"
    type: "SoftmaxWithLoss"
    bottom: "pool10"
    bottom: "label"
    top: "loss"
    include {
      phase: TRAIN
    }
  }
  layer {
    name: "accuracy"
    type: "Accuracy"
    bottom: "pool10"
    bottom: "label"
    top: "accuracy"
    include {
      phase: TEST
    }
  }
  layer {
    name: "accuracy_top5"
    type: "Accuracy"
    bottom: "pool10"
    bottom: "label"
    top: "accuracy_top5"
    include {
      phase: TEST
    }
    accuracy_param {
      top_k: 5
    }
  }
}
test_initialization: false
average_loss: 40
iter_size: 2
I0604 20:56:51.654400   904 solver.cpp:86] Creating training net specified in net_param.
I0604 20:56:51.654809   904 net.cpp:322] The NetState phase (0) differed from the phase (1) specified by a rule in layer data
I0604 20:56:51.654906   904 net.cpp:322] The NetState phase (0) differed from the phase (1) specified by a rule in layer accuracy
I0604 20:56:51.654916   904 net.cpp:322] The NetState phase (0) differed from the phase (1) specified by a rule in layer accuracy_top5
I0604 20:56:51.655956   904 net.cpp:49] Initializing net from parameters: 
state {
  phase: TRAIN
}
layer {
  name: "data"
  type: "Data"
  top: "data"
  top: "label"
  include {
    phase: TRAIN
  }
  transform_param {
    scale: 0.04
    mirror: true
    crop_size: 128
    mean_value: 104
    mean_value: 117
    mean_value: 124
    force_color: true
  }
  data_param {
    source: "/local/temporary/mishkdmy/imagenet144pxlmdb/ilsvrc12_128_train_lmdb"
    batch_size: 256
    backend: LMDB
  }
}
layer {
  name: "conv1"
  type: "Convolution"
  bottom: "data"
  top: "conv1"
  convolution_param {
    num_output: 96
    kernel_size: 7
    stride: 2
    weight_filler {
      type: "xavier"
    }
  }
}
layer {
  name: "relu_conv1"
  type: "ReLU"
  bottom: "conv1"
  top: "conv1"
}
layer {
  name: "pool1"
  type: "Pooling"
  bottom: "conv1"
  top: "pool1"
  pooling_param {
    pool: MAX
    kernel_size: 3
    stride: 2
  }
}
layer {
  name: "fire2/squeeze1x1"
  type: "Convolution"
  bottom: "pool1"
  top: "fire2/squeeze1x1"
  convolution_param {
    num_output: 16
    kernel_size: 1
    weight_filler {
      type: "xavier"
    }
  }
}
layer {
  name: "fire2/relu_squeeze1x1"
  type: "ReLU"
  bottom: "fire2/squeeze1x1"
  top: "fire2/squeeze1x1"
}
layer {
  name: "fire2/expand1x1"
  type: "Convolution"
  bottom: "fire2/squeeze1x1"
  top: "fire2/expand1x1"
  convolution_param {
    num_output: 64
    kernel_size: 1
    weight_filler {
      type: "xavier"
    }
  }
}
layer {
  name: "fire2/relu_expand1x1"
  type: "ReLU"
  bottom: "fire2/expand1x1"
  top: "fire2/expand1x1"
}
layer {
  name: "fire2/expand3x3"
  type: "Convolution"
  bottom: "fire2/squeeze1x1"
  top: "fire2/expand3x3"
  convolution_param {
    num_output: 64
    pad: 1
    kernel_size: 3
    weight_filler {
      type: "xavier"
    }
  }
}
layer {
  name: "fire2/relu_expand3x3"
  type: "ReLU"
  bottom: "fire2/expand3x3"
  top: "fire2/expand3x3"
}
layer {
  name: "fire2/concat"
  type: "Concat"
  bottom: "fire2/expand1x1"
  bottom: "fire2/expand3x3"
  top: "fire2/concat"
}
layer {
  name: "fire3/squeeze1x1"
  type: "Convolution"
  bottom: "fire2/concat"
  top: "fire3/squeeze1x1"
  convolution_param {
    num_output: 16
    kernel_size: 1
    weight_filler {
      type: "xavier"
    }
  }
}
layer {
  name: "fire3/relu_squeeze1x1"
  type: "ReLU"
  bottom: "fire3/squeeze1x1"
  top: "fire3/squeeze1x1"
}
layer {
  name: "fire3/expand1x1"
  type: "Convolution"
  bottom: "fire3/squeeze1x1"
  top: "fire3/expand1x1"
  convolution_param {
    num_output: 64
    kernel_size: 1
    weight_filler {
      type: "xavier"
    }
  }
}
layer {
  name: "fire3/relu_expand1x1"
  type: "ReLU"
  bottom: "fire3/expand1x1"
  top: "fire3/expand1x1"
}
layer {
  name: "fire3/expand3x3"
  type: "Convolution"
  bottom: "fire3/squeeze1x1"
  top: "fire3/expand3x3"
  convolution_param {
    num_output: 64
    pad: 1
    kernel_size: 3
    weight_filler {
      type: "xavier"
    }
  }
}
layer {
  name: "fire3/relu_expand3x3"
  type: "ReLU"
  bottom: "fire3/expand3x3"
  top: "fire3/expand3x3"
}
layer {
  name: "fire3/concat"
  type: "Concat"
  bottom: "fire3/expand1x1"
  bottom: "fire3/expand3x3"
  top: "fire3/concat"
}
layer {
  name: "fire4/squeeze1x1"
  type: "Convolution"
  bottom: "fire3/concat"
  top: "fire4/squeeze1x1"
  convolution_param {
    num_output: 32
    kernel_size: 1
    weight_filler {
      type: "xavier"
    }
  }
}
layer {
  name: "fire4/relu_squeeze1x1"
  type: "ReLU"
  bottom: "fire4/squeeze1x1"
  top: "fire4/squeeze1x1"
}
layer {
  name: "fire4/expand1x1"
  type: "Convolution"
  bottom: "fire4/squeeze1x1"
  top: "fire4/expand1x1"
  convolution_param {
    num_output: 128
    kernel_size: 1
    weight_filler {
      type: "xavier"
    }
  }
}
layer {
  name: "fire4/relu_expand1x1"
  type: "ReLU"
  bottom: "fire4/expand1x1"
  top: "fire4/expand1x1"
}
layer {
  name: "fire4/expand3x3"
  type: "Convolution"
  bottom: "fire4/squeeze1x1"
  top: "fire4/expand3x3"
  convolution_param {
    num_output: 128
    pad: 1
    kernel_size: 3
    weight_filler {
      type: "xavier"
    }
  }
}
layer {
  name: "fire4/relu_expand3x3"
  type: "ReLU"
  bottom: "fire4/expand3x3"
  top: "fire4/expand3x3"
}
layer {
  name: "fire4/concat"
  type: "Concat"
  bottom: "fire4/expand1x1"
  bottom: "fire4/expand3x3"
  top: "fire4/concat"
}
layer {
  name: "pool4"
  type: "Pooling"
  bottom: "fire4/concat"
  top: "pool4"
  pooling_param {
    pool: MAX
    kernel_size: 3
    stride: 2
  }
}
layer {
  name: "fire5/squeeze1x1"
  type: "Convolution"
  bottom: "pool4"
  top: "fire5/squeeze1x1"
  convolution_param {
    num_output: 32
    kernel_size: 1
    weight_filler {
      type: "xavier"
    }
  }
}
layer {
  name: "fire5/relu_squeeze1x1"
  type: "ReLU"
  bottom: "fire5/squeeze1x1"
  top: "fire5/squeeze1x1"
}
layer {
  name: "fire5/expand1x1"
  type: "Convolution"
  bottom: "fire5/squeeze1x1"
  top: "fire5/expand1x1"
  convolution_param {
    num_output: 128
    kernel_size: 1
    weight_filler {
      type: "xavier"
    }
  }
}
layer {
  name: "fire5/relu_expand1x1"
  type: "ReLU"
  bottom: "fire5/expand1x1"
  top: "fire5/expand1x1"
}
layer {
  name: "fire5/expand3x3"
  type: "Convolution"
  bottom: "fire5/squeeze1x1"
  top: "fire5/expand3x3"
  convolution_param {
    num_output: 128
    pad: 1
    kernel_size: 3
    weight_filler {
      type: "xavier"
    }
  }
}
layer {
  name: "fire5/relu_expand3x3"
  type: "ReLU"
  bottom: "fire5/expand3x3"
  top: "fire5/expand3x3"
}
layer {
  name: "fire5/concat"
  type: "Concat"
  bottom: "fire5/expand1x1"
  bottom: "fire5/expand3x3"
  top: "fire5/concat"
}
layer {
  name: "fire6/squeeze1x1"
  type: "Convolution"
  bottom: "fire5/concat"
  top: "fire6/squeeze1x1"
  convolution_param {
    num_output: 48
    kernel_size: 1
    weight_filler {
      type: "xavier"
    }
  }
}
layer {
  name: "fire6/relu_squeeze1x1"
  type: "ReLU"
  bottom: "fire6/squeeze1x1"
  top: "fire6/squeeze1x1"
}
layer {
  name: "fire6/expand1x1"
  type: "Convolution"
  bottom: "fire6/squeeze1x1"
  top: "fire6/expand1x1"
  convolution_param {
    num_output: 192
    kernel_size: 1
    weight_filler {
      type: "xavier"
    }
  }
}
layer {
  name: "fire6/relu_expand1x1"
  type: "ReLU"
  bottom: "fire6/expand1x1"
  top: "fire6/expand1x1"
}
layer {
  name: "fire6/expand3x3"
  type: "Convolution"
  bottom: "fire6/squeeze1x1"
  top: "fire6/expand3x3"
  convolution_param {
    num_output: 192
    pad: 1
    kernel_size: 3
    weight_filler {
      type: "xavier"
    }
  }
}
layer {
  name: "fire6/relu_expand3x3"
  type: "ReLU"
  bottom: "fire6/expand3x3"
  top: "fire6/expand3x3"
}
layer {
  name: "fire6/concat"
  type: "Concat"
  bottom: "fire6/expand1x1"
  bottom: "fire6/expand3x3"
  top: "fire6/concat"
}
layer {
  name: "fire7/squeeze1x1"
  type: "Convolution"
  bottom: "fire6/concat"
  top: "fire7/squeeze1x1"
  convolution_param {
    num_output: 48
    kernel_size: 1
    weight_filler {
      type: "xavier"
    }
  }
}
layer {
  name: "fire7/relu_squeeze1x1"
  type: "ReLU"
  bottom: "fire7/squeeze1x1"
  top: "fire7/squeeze1x1"
}
layer {
  name: "fire7/expand1x1"
  type: "Convolution"
  bottom: "fire7/squeeze1x1"
  top: "fire7/expand1x1"
  convolution_param {
    num_output: 192
    kernel_size: 1
    weight_filler {
      type: "xavier"
    }
  }
}
layer {
  name: "fire7/relu_expand1x1"
  type: "ReLU"
  bottom: "fire7/expand1x1"
  top: "fire7/expand1x1"
}
layer {
  name: "fire7/expand3x3"
  type: "Convolution"
  bottom: "fire7/squeeze1x1"
  top: "fire7/expand3x3"
  convolution_param {
    num_output: 192
    pad: 1
    kernel_size: 3
    weight_filler {
      type: "xavier"
    }
  }
}
layer {
  name: "fire7/relu_expand3x3"
  type: "ReLU"
  bottom: "fire7/expand3x3"
  top: "fire7/expand3x3"
}
layer {
  name: "fire7/concat"
  type: "Concat"
  bottom: "fire7/expand1x1"
  bottom: "fire7/expand3x3"
  top: "fire7/concat"
}
layer {
  name: "fire8/squeeze1x1"
  type: "Convolution"
  bottom: "fire7/concat"
  top: "fire8/squeeze1x1"
  convolution_param {
    num_output: 64
    kernel_size: 1
    weight_filler {
      type: "xavier"
    }
  }
}
layer {
  name: "fire8/relu_squeeze1x1"
  type: "ReLU"
  bottom: "fire8/squeeze1x1"
  top: "fire8/squeeze1x1"
}
layer {
  name: "fire8/expand1x1"
  type: "Convolution"
  bottom: "fire8/squeeze1x1"
  top: "fire8/expand1x1"
  convolution_param {
    num_output: 256
    kernel_size: 1
    weight_filler {
      type: "xavier"
    }
  }
}
layer {
  name: "fire8/relu_expand1x1"
  type: "ReLU"
  bottom: "fire8/expand1x1"
  top: "fire8/expand1x1"
}
layer {
  name: "fire8/expand3x3"
  type: "Convolution"
  bottom: "fire8/squeeze1x1"
  top: "fire8/expand3x3"
  convolution_param {
    num_output: 256
    pad: 1
    kernel_size: 3
    weight_filler {
      type: "xavier"
    }
  }
}
layer {
  name: "fire8/relu_expand3x3"
  type: "ReLU"
  bottom: "fire8/expand3x3"
  top: "fire8/expand3x3"
}
layer {
  name: "fire8/concat"
  type: "Concat"
  bottom: "fire8/expand1x1"
  bottom: "fire8/expand3x3"
  top: "fire8/concat"
}
layer {
  name: "pool8"
  type: "Pooling"
  bottom: "fire8/concat"
  top: "pool8"
  pooling_param {
    pool: MAX
    kernel_size: 3
    stride: 2
  }
}
layer {
  name: "fire9/squeeze1x1"
  type: "Convolution"
  bottom: "pool8"
  top: "fire9/squeeze1x1"
  convolution_param {
    num_output: 64
    kernel_size: 1
    weight_filler {
      type: "xavier"
    }
  }
}
layer {
  name: "fire9/relu_squeeze1x1"
  type: "ReLU"
  bottom: "fire9/squeeze1x1"
  top: "fire9/squeeze1x1"
}
layer {
  name: "fire9/expand1x1"
  type: "Convolution"
  bottom: "fire9/squeeze1x1"
  top: "fire9/expand1x1"
  convolution_param {
    num_output: 256
    kernel_size: 1
    weight_filler {
      type: "xavier"
    }
  }
}
layer {
  name: "fire9/relu_expand1x1"
  type: "ReLU"
  bottom: "fire9/expand1x1"
  top: "fire9/expand1x1"
}
layer {
  name: "fire9/expand3x3"
  type: "Convolution"
  bottom: "fire9/squeeze1x1"
  top: "fire9/expand3x3"
  convolution_param {
    num_output: 256
    pad: 1
    kernel_size: 3
    weight_filler {
      type: "xavier"
    }
  }
}
layer {
  name: "fire9/relu_expand3x3"
  type: "ReLU"
  bottom: "fire9/expand3x3"
  top: "fire9/expand3x3"
}
layer {
  name: "fire9/concat"
  type: "Concat"
  bottom: "fire9/expand1x1"
  bottom: "fire9/expand3x3"
  top: "fire9/concat"
}
layer {
  name: "drop9"
  type: "Dropout"
  bottom: "fire9/concat"
  top: "fire9/concat"
  dropout_param {
    dropout_ratio: 0.5
  }
}
layer {
  name: "conv10"
  type: "Convolution"
  bottom: "fire9/concat"
  top: "conv10"
  convolution_param {
    num_output: 1000
    pad: 1
    kernel_size: 1
    weight_filler {
      type: "gaussian"
      mean: 0
      std: 0.01
    }
  }
}
layer {
  name: "relu_conv10"
  type: "ReLU"
  bottom: "conv10"
  top: "conv10"
}
layer {
  name: "pool10"
  type: "Pooling"
  bottom: "conv10"
  top: "pool10"
  pooling_param {
    pool: AVE
    global_pooling: true
  }
}
layer {
  name: "loss"
  type: "SoftmaxWithLoss"
  bottom: "pool10"
  bottom: "label"
  top: "loss"
  include {
    phase: TRAIN
  }
}
I0604 20:56:51.656658   904 layer_factory.hpp:77] Creating layer data
I0604 20:56:51.657202   904 net.cpp:106] Creating Layer data
I0604 20:56:51.657233   904 net.cpp:411] data -> data
I0604 20:56:51.657277   904 net.cpp:411] data -> label
I0604 20:56:51.658638   934 db_lmdb.cpp:38] Opened lmdb /local/temporary/mishkdmy/imagenet144pxlmdb/ilsvrc12_128_train_lmdb
I0604 20:56:51.718016   904 data_layer.cpp:41] output data size: 256,3,128,128
I0604 20:56:51.829545   904 net.cpp:150] Setting up data
I0604 20:56:51.829593   904 net.cpp:157] Top shape: 256 3 128 128 (12582912)
I0604 20:56:51.829601   904 net.cpp:157] Top shape: 256 (256)
I0604 20:56:51.829604   904 net.cpp:165] Memory required for data: 50332672
I0604 20:56:51.829625   904 layer_factory.hpp:77] Creating layer conv1
I0604 20:56:51.829651   904 net.cpp:106] Creating Layer conv1
I0604 20:56:51.829658   904 net.cpp:454] conv1 <- data
I0604 20:56:51.829680   904 net.cpp:411] conv1 -> conv1
I0604 20:56:52.134946   904 net.cpp:150] Setting up conv1
I0604 20:56:52.134994   904 net.cpp:157] Top shape: 256 96 61 61 (91447296)
I0604 20:56:52.135001   904 net.cpp:165] Memory required for data: 416121856
I0604 20:56:52.135026   904 layer_factory.hpp:77] Creating layer relu_conv1
I0604 20:56:52.135042   904 net.cpp:106] Creating Layer relu_conv1
I0604 20:56:52.135048   904 net.cpp:454] relu_conv1 <- conv1
I0604 20:56:52.135057   904 net.cpp:397] relu_conv1 -> conv1 (in-place)
I0604 20:56:52.136144   904 net.cpp:150] Setting up relu_conv1
I0604 20:56:52.136162   904 net.cpp:157] Top shape: 256 96 61 61 (91447296)
I0604 20:56:52.136168   904 net.cpp:165] Memory required for data: 781911040
I0604 20:56:52.136174   904 layer_factory.hpp:77] Creating layer pool1
I0604 20:56:52.136184   904 net.cpp:106] Creating Layer pool1
I0604 20:56:52.136189   904 net.cpp:454] pool1 <- conv1
I0604 20:56:52.136198   904 net.cpp:411] pool1 -> pool1
I0604 20:56:52.136268   904 net.cpp:150] Setting up pool1
I0604 20:56:52.136278   904 net.cpp:157] Top shape: 256 96 30 30 (22118400)
I0604 20:56:52.136283   904 net.cpp:165] Memory required for data: 870384640
I0604 20:56:52.136287   904 layer_factory.hpp:77] Creating layer fire2/squeeze1x1
I0604 20:56:52.136304   904 net.cpp:106] Creating Layer fire2/squeeze1x1
I0604 20:56:52.136310   904 net.cpp:454] fire2/squeeze1x1 <- pool1
I0604 20:56:52.136318   904 net.cpp:411] fire2/squeeze1x1 -> fire2/squeeze1x1
I0604 20:56:52.140475   904 net.cpp:150] Setting up fire2/squeeze1x1
I0604 20:56:52.140496   904 net.cpp:157] Top shape: 256 16 30 30 (3686400)
I0604 20:56:52.140501   904 net.cpp:165] Memory required for data: 885130240
I0604 20:56:52.140516   904 layer_factory.hpp:77] Creating layer fire2/relu_squeeze1x1
I0604 20:56:52.140530   904 net.cpp:106] Creating Layer fire2/relu_squeeze1x1
I0604 20:56:52.140535   904 net.cpp:454] fire2/relu_squeeze1x1 <- fire2/squeeze1x1
I0604 20:56:52.140543   904 net.cpp:397] fire2/relu_squeeze1x1 -> fire2/squeeze1x1 (in-place)
I0604 20:56:52.140951   904 net.cpp:150] Setting up fire2/relu_squeeze1x1
I0604 20:56:52.140967   904 net.cpp:157] Top shape: 256 16 30 30 (3686400)
I0604 20:56:52.140972   904 net.cpp:165] Memory required for data: 899875840
I0604 20:56:52.140977   904 layer_factory.hpp:77] Creating layer fire2/squeeze1x1_fire2/relu_squeeze1x1_0_split
I0604 20:56:52.140986   904 net.cpp:106] Creating Layer fire2/squeeze1x1_fire2/relu_squeeze1x1_0_split
I0604 20:56:52.140991   904 net.cpp:454] fire2/squeeze1x1_fire2/relu_squeeze1x1_0_split <- fire2/squeeze1x1
I0604 20:56:52.141000   904 net.cpp:411] fire2/squeeze1x1_fire2/relu_squeeze1x1_0_split -> fire2/squeeze1x1_fire2/relu_squeeze1x1_0_split_0
I0604 20:56:52.141010   904 net.cpp:411] fire2/squeeze1x1_fire2/relu_squeeze1x1_0_split -> fire2/squeeze1x1_fire2/relu_squeeze1x1_0_split_1
I0604 20:56:52.141098   904 net.cpp:150] Setting up fire2/squeeze1x1_fire2/relu_squeeze1x1_0_split
I0604 20:56:52.141106   904 net.cpp:157] Top shape: 256 16 30 30 (3686400)
I0604 20:56:52.141113   904 net.cpp:157] Top shape: 256 16 30 30 (3686400)
I0604 20:56:52.141116   904 net.cpp:165] Memory required for data: 929367040
I0604 20:56:52.141121   904 layer_factory.hpp:77] Creating layer fire2/expand1x1
I0604 20:56:52.141132   904 net.cpp:106] Creating Layer fire2/expand1x1
I0604 20:56:52.141139   904 net.cpp:454] fire2/expand1x1 <- fire2/squeeze1x1_fire2/relu_squeeze1x1_0_split_0
I0604 20:56:52.141152   904 net.cpp:411] fire2/expand1x1 -> fire2/expand1x1
I0604 20:56:52.144511   904 net.cpp:150] Setting up fire2/expand1x1
I0604 20:56:52.144529   904 net.cpp:157] Top shape: 256 64 30 30 (14745600)
I0604 20:56:52.144534   904 net.cpp:165] Memory required for data: 988349440
I0604 20:56:52.144547   904 layer_factory.hpp:77] Creating layer fire2/relu_expand1x1
I0604 20:56:52.144559   904 net.cpp:106] Creating Layer fire2/relu_expand1x1
I0604 20:56:52.144564   904 net.cpp:454] fire2/relu_expand1x1 <- fire2/expand1x1
I0604 20:56:52.144572   904 net.cpp:397] fire2/relu_expand1x1 -> fire2/expand1x1 (in-place)
I0604 20:56:52.145537   904 net.cpp:150] Setting up fire2/relu_expand1x1
I0604 20:56:52.145550   904 net.cpp:157] Top shape: 256 64 30 30 (14745600)
I0604 20:56:52.145555   904 net.cpp:165] Memory required for data: 1047331840
I0604 20:56:52.145558   904 layer_factory.hpp:77] Creating layer fire2/expand3x3
I0604 20:56:52.145571   904 net.cpp:106] Creating Layer fire2/expand3x3
I0604 20:56:52.145576   904 net.cpp:454] fire2/expand3x3 <- fire2/squeeze1x1_fire2/relu_squeeze1x1_0_split_1
I0604 20:56:52.145584   904 net.cpp:411] fire2/expand3x3 -> fire2/expand3x3
I0604 20:56:52.149322   904 net.cpp:150] Setting up fire2/expand3x3
I0604 20:56:52.149340   904 net.cpp:157] Top shape: 256 64 30 30 (14745600)
I0604 20:56:52.149345   904 net.cpp:165] Memory required for data: 1106314240
I0604 20:56:52.149355   904 layer_factory.hpp:77] Creating layer fire2/relu_expand3x3
I0604 20:56:52.149365   904 net.cpp:106] Creating Layer fire2/relu_expand3x3
I0604 20:56:52.149370   904 net.cpp:454] fire2/relu_expand3x3 <- fire2/expand3x3
I0604 20:56:52.149379   904 net.cpp:397] fire2/relu_expand3x3 -> fire2/expand3x3 (in-place)
I0604 20:56:52.150223   904 net.cpp:150] Setting up fire2/relu_expand3x3
I0604 20:56:52.150238   904 net.cpp:157] Top shape: 256 64 30 30 (14745600)
I0604 20:56:52.150243   904 net.cpp:165] Memory required for data: 1165296640
I0604 20:56:52.150248   904 layer_factory.hpp:77] Creating layer fire2/concat
I0604 20:56:52.150261   904 net.cpp:106] Creating Layer fire2/concat
I0604 20:56:52.150269   904 net.cpp:454] fire2/concat <- fire2/expand1x1
I0604 20:56:52.150275   904 net.cpp:454] fire2/concat <- fire2/expand3x3
I0604 20:56:52.150282   904 net.cpp:411] fire2/concat -> fire2/concat
I0604 20:56:52.150323   904 net.cpp:150] Setting up fire2/concat
I0604 20:56:52.150332   904 net.cpp:157] Top shape: 256 128 30 30 (29491200)
I0604 20:56:52.150336   904 net.cpp:165] Memory required for data: 1283261440
I0604 20:56:52.150341   904 layer_factory.hpp:77] Creating layer fire3/squeeze1x1
I0604 20:56:52.150357   904 net.cpp:106] Creating Layer fire3/squeeze1x1
I0604 20:56:52.150362   904 net.cpp:454] fire3/squeeze1x1 <- fire2/concat
I0604 20:56:52.150369   904 net.cpp:411] fire3/squeeze1x1 -> fire3/squeeze1x1
I0604 20:56:52.153880   904 net.cpp:150] Setting up fire3/squeeze1x1
I0604 20:56:52.153897   904 net.cpp:157] Top shape: 256 16 30 30 (3686400)
I0604 20:56:52.153901   904 net.cpp:165] Memory required for data: 1298007040
I0604 20:56:52.153916   904 layer_factory.hpp:77] Creating layer fire3/relu_squeeze1x1
I0604 20:56:52.153924   904 net.cpp:106] Creating Layer fire3/relu_squeeze1x1
I0604 20:56:52.153929   904 net.cpp:454] fire3/relu_squeeze1x1 <- fire3/squeeze1x1
I0604 20:56:52.153939   904 net.cpp:397] fire3/relu_squeeze1x1 -> fire3/squeeze1x1 (in-place)
I0604 20:56:52.154932   904 net.cpp:150] Setting up fire3/relu_squeeze1x1
I0604 20:56:52.154947   904 net.cpp:157] Top shape: 256 16 30 30 (3686400)
I0604 20:56:52.154952   904 net.cpp:165] Memory required for data: 1312752640
I0604 20:56:52.154956   904 layer_factory.hpp:77] Creating layer fire3/squeeze1x1_fire3/relu_squeeze1x1_0_split
I0604 20:56:52.154966   904 net.cpp:106] Creating Layer fire3/squeeze1x1_fire3/relu_squeeze1x1_0_split
I0604 20:56:52.154970   904 net.cpp:454] fire3/squeeze1x1_fire3/relu_squeeze1x1_0_split <- fire3/squeeze1x1
I0604 20:56:52.154980   904 net.cpp:411] fire3/squeeze1x1_fire3/relu_squeeze1x1_0_split -> fire3/squeeze1x1_fire3/relu_squeeze1x1_0_split_0
I0604 20:56:52.154989   904 net.cpp:411] fire3/squeeze1x1_fire3/relu_squeeze1x1_0_split -> fire3/squeeze1x1_fire3/relu_squeeze1x1_0_split_1
I0604 20:56:52.155046   904 net.cpp:150] Setting up fire3/squeeze1x1_fire3/relu_squeeze1x1_0_split
I0604 20:56:52.155055   904 net.cpp:157] Top shape: 256 16 30 30 (3686400)
I0604 20:56:52.155061   904 net.cpp:157] Top shape: 256 16 30 30 (3686400)
I0604 20:56:52.155064   904 net.cpp:165] Memory required for data: 1342243840
I0604 20:56:52.155068   904 layer_factory.hpp:77] Creating layer fire3/expand1x1
I0604 20:56:52.155081   904 net.cpp:106] Creating Layer fire3/expand1x1
I0604 20:56:52.155086   904 net.cpp:454] fire3/expand1x1 <- fire3/squeeze1x1_fire3/relu_squeeze1x1_0_split_0
I0604 20:56:52.155093   904 net.cpp:411] fire3/expand1x1 -> fire3/expand1x1
I0604 20:56:52.158560   904 net.cpp:150] Setting up fire3/expand1x1
I0604 20:56:52.158583   904 net.cpp:157] Top shape: 256 64 30 30 (14745600)
I0604 20:56:52.158588   904 net.cpp:165] Memory required for data: 1401226240
I0604 20:56:52.158597   904 layer_factory.hpp:77] Creating layer fire3/relu_expand1x1
I0604 20:56:52.158609   904 net.cpp:106] Creating Layer fire3/relu_expand1x1
I0604 20:56:52.158614   904 net.cpp:454] fire3/relu_expand1x1 <- fire3/expand1x1
I0604 20:56:52.158622   904 net.cpp:397] fire3/relu_expand1x1 -> fire3/expand1x1 (in-place)
I0604 20:56:52.159616   904 net.cpp:150] Setting up fire3/relu_expand1x1
I0604 20:56:52.159628   904 net.cpp:157] Top shape: 256 64 30 30 (14745600)
I0604 20:56:52.159632   904 net.cpp:165] Memory required for data: 1460208640
I0604 20:56:52.159636   904 layer_factory.hpp:77] Creating layer fire3/expand3x3
I0604 20:56:52.159649   904 net.cpp:106] Creating Layer fire3/expand3x3
I0604 20:56:52.159657   904 net.cpp:454] fire3/expand3x3 <- fire3/squeeze1x1_fire3/relu_squeeze1x1_0_split_1
I0604 20:56:52.159669   904 net.cpp:411] fire3/expand3x3 -> fire3/expand3x3
I0604 20:56:52.163400   904 net.cpp:150] Setting up fire3/expand3x3
I0604 20:56:52.163416   904 net.cpp:157] Top shape: 256 64 30 30 (14745600)
I0604 20:56:52.163421   904 net.cpp:165] Memory required for data: 1519191040
I0604 20:56:52.163430   904 layer_factory.hpp:77] Creating layer fire3/relu_expand3x3
I0604 20:56:52.163447   904 net.cpp:106] Creating Layer fire3/relu_expand3x3
I0604 20:56:52.163452   904 net.cpp:454] fire3/relu_expand3x3 <- fire3/expand3x3
I0604 20:56:52.163460   904 net.cpp:397] fire3/relu_expand3x3 -> fire3/expand3x3 (in-place)
I0604 20:56:52.164296   904 net.cpp:150] Setting up fire3/relu_expand3x3
I0604 20:56:52.164311   904 net.cpp:157] Top shape: 256 64 30 30 (14745600)
I0604 20:56:52.164315   904 net.cpp:165] Memory required for data: 1578173440
I0604 20:56:52.164320   904 layer_factory.hpp:77] Creating layer fire3/concat
I0604 20:56:52.164330   904 net.cpp:106] Creating Layer fire3/concat
I0604 20:56:52.164336   904 net.cpp:454] fire3/concat <- fire3/expand1x1
I0604 20:56:52.164342   904 net.cpp:454] fire3/concat <- fire3/expand3x3
I0604 20:56:52.164348   904 net.cpp:411] fire3/concat -> fire3/concat
I0604 20:56:52.164397   904 net.cpp:150] Setting up fire3/concat
I0604 20:56:52.164405   904 net.cpp:157] Top shape: 256 128 30 30 (29491200)
I0604 20:56:52.164419   904 net.cpp:165] Memory required for data: 1696138240
I0604 20:56:52.164423   904 layer_factory.hpp:77] Creating layer fire4/squeeze1x1
I0604 20:56:52.164453   904 net.cpp:106] Creating Layer fire4/squeeze1x1
I0604 20:56:52.164458   904 net.cpp:454] fire4/squeeze1x1 <- fire3/concat
I0604 20:56:52.164466   904 net.cpp:411] fire4/squeeze1x1 -> fire4/squeeze1x1
I0604 20:56:52.168994   904 net.cpp:150] Setting up fire4/squeeze1x1
I0604 20:56:52.169014   904 net.cpp:157] Top shape: 256 32 30 30 (7372800)
I0604 20:56:52.169018   904 net.cpp:165] Memory required for data: 1725629440
I0604 20:56:52.169028   904 layer_factory.hpp:77] Creating layer fire4/relu_squeeze1x1
I0604 20:56:52.169037   904 net.cpp:106] Creating Layer fire4/relu_squeeze1x1
I0604 20:56:52.169042   904 net.cpp:454] fire4/relu_squeeze1x1 <- fire4/squeeze1x1
I0604 20:56:52.169049   904 net.cpp:397] fire4/relu_squeeze1x1 -> fire4/squeeze1x1 (in-place)
I0604 20:56:52.170038   904 net.cpp:150] Setting up fire4/relu_squeeze1x1
I0604 20:56:52.170053   904 net.cpp:157] Top shape: 256 32 30 30 (7372800)
I0604 20:56:52.170058   904 net.cpp:165] Memory required for data: 1755120640
I0604 20:56:52.170061   904 layer_factory.hpp:77] Creating layer fire4/squeeze1x1_fire4/relu_squeeze1x1_0_split
I0604 20:56:52.170083   904 net.cpp:106] Creating Layer fire4/squeeze1x1_fire4/relu_squeeze1x1_0_split
I0604 20:56:52.170089   904 net.cpp:454] fire4/squeeze1x1_fire4/relu_squeeze1x1_0_split <- fire4/squeeze1x1
I0604 20:56:52.170096   904 net.cpp:411] fire4/squeeze1x1_fire4/relu_squeeze1x1_0_split -> fire4/squeeze1x1_fire4/relu_squeeze1x1_0_split_0
I0604 20:56:52.170109   904 net.cpp:411] fire4/squeeze1x1_fire4/relu_squeeze1x1_0_split -> fire4/squeeze1x1_fire4/relu_squeeze1x1_0_split_1
I0604 20:56:52.170163   904 net.cpp:150] Setting up fire4/squeeze1x1_fire4/relu_squeeze1x1_0_split
I0604 20:56:52.170173   904 net.cpp:157] Top shape: 256 32 30 30 (7372800)
I0604 20:56:52.170179   904 net.cpp:157] Top shape: 256 32 30 30 (7372800)
I0604 20:56:52.170186   904 net.cpp:165] Memory required for data: 1814103040
I0604 20:56:52.170189   904 layer_factory.hpp:77] Creating layer fire4/expand1x1
I0604 20:56:52.170205   904 net.cpp:106] Creating Layer fire4/expand1x1
I0604 20:56:52.170212   904 net.cpp:454] fire4/expand1x1 <- fire4/squeeze1x1_fire4/relu_squeeze1x1_0_split_0
I0604 20:56:52.170222   904 net.cpp:411] fire4/expand1x1 -> fire4/expand1x1
I0604 20:56:52.174722   904 net.cpp:150] Setting up fire4/expand1x1
I0604 20:56:52.174738   904 net.cpp:157] Top shape: 256 128 30 30 (29491200)
I0604 20:56:52.174742   904 net.cpp:165] Memory required for data: 1932067840
I0604 20:56:52.174758   904 layer_factory.hpp:77] Creating layer fire4/relu_expand1x1
I0604 20:56:52.174767   904 net.cpp:106] Creating Layer fire4/relu_expand1x1
I0604 20:56:52.174772   904 net.cpp:454] fire4/relu_expand1x1 <- fire4/expand1x1
I0604 20:56:52.174778   904 net.cpp:397] fire4/relu_expand1x1 -> fire4/expand1x1 (in-place)
I0604 20:56:52.175775   904 net.cpp:150] Setting up fire4/relu_expand1x1
I0604 20:56:52.175786   904 net.cpp:157] Top shape: 256 128 30 30 (29491200)
I0604 20:56:52.175789   904 net.cpp:165] Memory required for data: 2050032640
I0604 20:56:52.175793   904 layer_factory.hpp:77] Creating layer fire4/expand3x3
I0604 20:56:52.175806   904 net.cpp:106] Creating Layer fire4/expand3x3
I0604 20:56:52.175811   904 net.cpp:454] fire4/expand3x3 <- fire4/squeeze1x1_fire4/relu_squeeze1x1_0_split_1
I0604 20:56:52.175819   904 net.cpp:411] fire4/expand3x3 -> fire4/expand3x3
I0604 20:56:52.179431   904 net.cpp:150] Setting up fire4/expand3x3
I0604 20:56:52.179447   904 net.cpp:157] Top shape: 256 128 30 30 (29491200)
I0604 20:56:52.179451   904 net.cpp:165] Memory required for data: 2167997440
I0604 20:56:52.179460   904 layer_factory.hpp:77] Creating layer fire4/relu_expand3x3
I0604 20:56:52.179469   904 net.cpp:106] Creating Layer fire4/relu_expand3x3
I0604 20:56:52.179473   904 net.cpp:454] fire4/relu_expand3x3 <- fire4/expand3x3
I0604 20:56:52.179481   904 net.cpp:397] fire4/relu_expand3x3 -> fire4/expand3x3 (in-place)
I0604 20:56:52.180464   904 net.cpp:150] Setting up fire4/relu_expand3x3
I0604 20:56:52.180477   904 net.cpp:157] Top shape: 256 128 30 30 (29491200)
I0604 20:56:52.180502   904 net.cpp:165] Memory required for data: 2285962240
I0604 20:56:52.180506   904 layer_factory.hpp:77] Creating layer fire4/concat
I0604 20:56:52.180516   904 net.cpp:106] Creating Layer fire4/concat
I0604 20:56:52.180521   904 net.cpp:454] fire4/concat <- fire4/expand1x1
I0604 20:56:52.180526   904 net.cpp:454] fire4/concat <- fire4/expand3x3
I0604 20:56:52.180534   904 net.cpp:411] fire4/concat -> fire4/concat
I0604 20:56:52.180572   904 net.cpp:150] Setting up fire4/concat
I0604 20:56:52.180580   904 net.cpp:157] Top shape: 256 256 30 30 (58982400)
I0604 20:56:52.180583   904 net.cpp:165] Memory required for data: 2521891840
I0604 20:56:52.180588   904 layer_factory.hpp:77] Creating layer pool4
I0604 20:56:52.180598   904 net.cpp:106] Creating Layer pool4
I0604 20:56:52.180603   904 net.cpp:454] pool4 <- fire4/concat
I0604 20:56:52.180610   904 net.cpp:411] pool4 -> pool4
I0604 20:56:52.180657   904 net.cpp:150] Setting up pool4
I0604 20:56:52.180665   904 net.cpp:157] Top shape: 256 256 15 15 (14745600)
I0604 20:56:52.180668   904 net.cpp:165] Memory required for data: 2580874240
I0604 20:56:52.180672   904 layer_factory.hpp:77] Creating layer fire5/squeeze1x1
I0604 20:56:52.180682   904 net.cpp:106] Creating Layer fire5/squeeze1x1
I0604 20:56:52.180688   904 net.cpp:454] fire5/squeeze1x1 <- pool4
I0604 20:56:52.180694   904 net.cpp:411] fire5/squeeze1x1 -> fire5/squeeze1x1
I0604 20:56:52.185159   904 net.cpp:150] Setting up fire5/squeeze1x1
I0604 20:56:52.185175   904 net.cpp:157] Top shape: 256 32 15 15 (1843200)
I0604 20:56:52.185179   904 net.cpp:165] Memory required for data: 2588247040
I0604 20:56:52.185187   904 layer_factory.hpp:77] Creating layer fire5/relu_squeeze1x1
I0604 20:56:52.185195   904 net.cpp:106] Creating Layer fire5/relu_squeeze1x1
I0604 20:56:52.185199   904 net.cpp:454] fire5/relu_squeeze1x1 <- fire5/squeeze1x1
I0604 20:56:52.185209   904 net.cpp:397] fire5/relu_squeeze1x1 -> fire5/squeeze1x1 (in-place)
I0604 20:56:52.186359   904 net.cpp:150] Setting up fire5/relu_squeeze1x1
I0604 20:56:52.186373   904 net.cpp:157] Top shape: 256 32 15 15 (1843200)
I0604 20:56:52.186378   904 net.cpp:165] Memory required for data: 2595619840
I0604 20:56:52.186383   904 layer_factory.hpp:77] Creating layer fire5/squeeze1x1_fire5/relu_squeeze1x1_0_split
I0604 20:56:52.186389   904 net.cpp:106] Creating Layer fire5/squeeze1x1_fire5/relu_squeeze1x1_0_split
I0604 20:56:52.186399   904 net.cpp:454] fire5/squeeze1x1_fire5/relu_squeeze1x1_0_split <- fire5/squeeze1x1
I0604 20:56:52.186405   904 net.cpp:411] fire5/squeeze1x1_fire5/relu_squeeze1x1_0_split -> fire5/squeeze1x1_fire5/relu_squeeze1x1_0_split_0
I0604 20:56:52.186414   904 net.cpp:411] fire5/squeeze1x1_fire5/relu_squeeze1x1_0_split -> fire5/squeeze1x1_fire5/relu_squeeze1x1_0_split_1
I0604 20:56:52.186470   904 net.cpp:150] Setting up fire5/squeeze1x1_fire5/relu_squeeze1x1_0_split
I0604 20:56:52.186478   904 net.cpp:157] Top shape: 256 32 15 15 (1843200)
I0604 20:56:52.186483   904 net.cpp:157] Top shape: 256 32 15 15 (1843200)
I0604 20:56:52.186486   904 net.cpp:165] Memory required for data: 2610365440
I0604 20:56:52.186491   904 layer_factory.hpp:77] Creating layer fire5/expand1x1
I0604 20:56:52.186506   904 net.cpp:106] Creating Layer fire5/expand1x1
I0604 20:56:52.186512   904 net.cpp:454] fire5/expand1x1 <- fire5/squeeze1x1_fire5/relu_squeeze1x1_0_split_0
I0604 20:56:52.186522   904 net.cpp:411] fire5/expand1x1 -> fire5/expand1x1
I0604 20:56:52.190186   904 net.cpp:150] Setting up fire5/expand1x1
I0604 20:56:52.190201   904 net.cpp:157] Top shape: 256 128 15 15 (7372800)
I0604 20:56:52.190210   904 net.cpp:165] Memory required for data: 2639856640
I0604 20:56:52.190218   904 layer_factory.hpp:77] Creating layer fire5/relu_expand1x1
I0604 20:56:52.190225   904 net.cpp:106] Creating Layer fire5/relu_expand1x1
I0604 20:56:52.190229   904 net.cpp:454] fire5/relu_expand1x1 <- fire5/expand1x1
I0604 20:56:52.190237   904 net.cpp:397] fire5/relu_expand1x1 -> fire5/expand1x1 (in-place)
I0604 20:56:52.191243   904 net.cpp:150] Setting up fire5/relu_expand1x1
I0604 20:56:52.191269   904 net.cpp:157] Top shape: 256 128 15 15 (7372800)
I0604 20:56:52.191273   904 net.cpp:165] Memory required for data: 2669347840
I0604 20:56:52.191277   904 layer_factory.hpp:77] Creating layer fire5/expand3x3
I0604 20:56:52.191287   904 net.cpp:106] Creating Layer fire5/expand3x3
I0604 20:56:52.191292   904 net.cpp:454] fire5/expand3x3 <- fire5/squeeze1x1_fire5/relu_squeeze1x1_0_split_1
I0604 20:56:52.191299   904 net.cpp:411] fire5/expand3x3 -> fire5/expand3x3
I0604 20:56:52.196995   904 net.cpp:150] Setting up fire5/expand3x3
I0604 20:56:52.197010   904 net.cpp:157] Top shape: 256 128 15 15 (7372800)
I0604 20:56:52.197013   904 net.cpp:165] Memory required for data: 2698839040
I0604 20:56:52.197021   904 layer_factory.hpp:77] Creating layer fire5/relu_expand3x3
I0604 20:56:52.197028   904 net.cpp:106] Creating Layer fire5/relu_expand3x3
I0604 20:56:52.197032   904 net.cpp:454] fire5/relu_expand3x3 <- fire5/expand3x3
I0604 20:56:52.197047   904 net.cpp:397] fire5/relu_expand3x3 -> fire5/expand3x3 (in-place)
I0604 20:56:52.199080   904 net.cpp:150] Setting up fire5/relu_expand3x3
I0604 20:56:52.199093   904 net.cpp:157] Top shape: 256 128 15 15 (7372800)
I0604 20:56:52.199097   904 net.cpp:165] Memory required for data: 2728330240
I0604 20:56:52.199101   904 layer_factory.hpp:77] Creating layer fire5/concat
I0604 20:56:52.199107   904 net.cpp:106] Creating Layer fire5/concat
I0604 20:56:52.199111   904 net.cpp:454] fire5/concat <- fire5/expand1x1
I0604 20:56:52.199117   904 net.cpp:454] fire5/concat <- fire5/expand3x3
I0604 20:56:52.199125   904 net.cpp:411] fire5/concat -> fire5/concat
I0604 20:56:52.199161   904 net.cpp:150] Setting up fire5/concat
I0604 20:56:52.199169   904 net.cpp:157] Top shape: 256 256 15 15 (14745600)
I0604 20:56:52.199172   904 net.cpp:165] Memory required for data: 2787312640
I0604 20:56:52.199177   904 layer_factory.hpp:77] Creating layer fire6/squeeze1x1
I0604 20:56:52.199187   904 net.cpp:106] Creating Layer fire6/squeeze1x1
I0604 20:56:52.199192   904 net.cpp:454] fire6/squeeze1x1 <- fire5/concat
I0604 20:56:52.199198   904 net.cpp:411] fire6/squeeze1x1 -> fire6/squeeze1x1
I0604 20:56:52.202710   904 net.cpp:150] Setting up fire6/squeeze1x1
I0604 20:56:52.202724   904 net.cpp:157] Top shape: 256 48 15 15 (2764800)
I0604 20:56:52.202728   904 net.cpp:165] Memory required for data: 2798371840
I0604 20:56:52.202735   904 layer_factory.hpp:77] Creating layer fire6/relu_squeeze1x1
I0604 20:56:52.202744   904 net.cpp:106] Creating Layer fire6/relu_squeeze1x1
I0604 20:56:52.202749   904 net.cpp:454] fire6/relu_squeeze1x1 <- fire6/squeeze1x1
I0604 20:56:52.202754   904 net.cpp:397] fire6/relu_squeeze1x1 -> fire6/squeeze1x1 (in-place)
I0604 20:56:52.203758   904 net.cpp:150] Setting up fire6/relu_squeeze1x1
I0604 20:56:52.203773   904 net.cpp:157] Top shape: 256 48 15 15 (2764800)
I0604 20:56:52.203776   904 net.cpp:165] Memory required for data: 2809431040
I0604 20:56:52.203780   904 layer_factory.hpp:77] Creating layer fire6/squeeze1x1_fire6/relu_squeeze1x1_0_split
I0604 20:56:52.203788   904 net.cpp:106] Creating Layer fire6/squeeze1x1_fire6/relu_squeeze1x1_0_split
I0604 20:56:52.203791   904 net.cpp:454] fire6/squeeze1x1_fire6/relu_squeeze1x1_0_split <- fire6/squeeze1x1
I0604 20:56:52.203796   904 net.cpp:411] fire6/squeeze1x1_fire6/relu_squeeze1x1_0_split -> fire6/squeeze1x1_fire6/relu_squeeze1x1_0_split_0
I0604 20:56:52.203804   904 net.cpp:411] fire6/squeeze1x1_fire6/relu_squeeze1x1_0_split -> fire6/squeeze1x1_fire6/relu_squeeze1x1_0_split_1
I0604 20:56:52.203860   904 net.cpp:150] Setting up fire6/squeeze1x1_fire6/relu_squeeze1x1_0_split
I0604 20:56:52.203867   904 net.cpp:157] Top shape: 256 48 15 15 (2764800)
I0604 20:56:52.203872   904 net.cpp:157] Top shape: 256 48 15 15 (2764800)
I0604 20:56:52.203876   904 net.cpp:165] Memory required for data: 2831549440
I0604 20:56:52.203881   904 layer_factory.hpp:77] Creating layer fire6/expand1x1
I0604 20:56:52.203891   904 net.cpp:106] Creating Layer fire6/expand1x1
I0604 20:56:52.203909   904 net.cpp:454] fire6/expand1x1 <- fire6/squeeze1x1_fire6/relu_squeeze1x1_0_split_0
I0604 20:56:52.203917   904 net.cpp:411] fire6/expand1x1 -> fire6/expand1x1
I0604 20:56:52.207394   904 net.cpp:150] Setting up fire6/expand1x1
I0604 20:56:52.207409   904 net.cpp:157] Top shape: 256 192 15 15 (11059200)
I0604 20:56:52.207413   904 net.cpp:165] Memory required for data: 2875786240
I0604 20:56:52.207422   904 layer_factory.hpp:77] Creating layer fire6/relu_expand1x1
I0604 20:56:52.207427   904 net.cpp:106] Creating Layer fire6/relu_expand1x1
I0604 20:56:52.207432   904 net.cpp:454] fire6/relu_expand1x1 <- fire6/expand1x1
I0604 20:56:52.207442   904 net.cpp:397] fire6/relu_expand1x1 -> fire6/expand1x1 (in-place)
I0604 20:56:52.209491   904 net.cpp:150] Setting up fire6/relu_expand1x1
I0604 20:56:52.209502   904 net.cpp:157] Top shape: 256 192 15 15 (11059200)
I0604 20:56:52.209506   904 net.cpp:165] Memory required for data: 2920023040
I0604 20:56:52.209509   904 layer_factory.hpp:77] Creating layer fire6/expand3x3
I0604 20:56:52.209519   904 net.cpp:106] Creating Layer fire6/expand3x3
I0604 20:56:52.209523   904 net.cpp:454] fire6/expand3x3 <- fire6/squeeze1x1_fire6/relu_squeeze1x1_0_split_1
I0604 20:56:52.209530   904 net.cpp:411] fire6/expand3x3 -> fire6/expand3x3
I0604 20:56:52.213172   904 net.cpp:150] Setting up fire6/expand3x3
I0604 20:56:52.213186   904 net.cpp:157] Top shape: 256 192 15 15 (11059200)
I0604 20:56:52.213189   904 net.cpp:165] Memory required for data: 2964259840
I0604 20:56:52.213196   904 layer_factory.hpp:77] Creating layer fire6/relu_expand3x3
I0604 20:56:52.213206   904 net.cpp:106] Creating Layer fire6/relu_expand3x3
I0604 20:56:52.213209   904 net.cpp:454] fire6/relu_expand3x3 <- fire6/expand3x3
I0604 20:56:52.213214   904 net.cpp:397] fire6/relu_expand3x3 -> fire6/expand3x3 (in-place)
I0604 20:56:52.214185   904 net.cpp:150] Setting up fire6/relu_expand3x3
I0604 20:56:52.214200   904 net.cpp:157] Top shape: 256 192 15 15 (11059200)
I0604 20:56:52.214203   904 net.cpp:165] Memory required for data: 3008496640
I0604 20:56:52.214207   904 layer_factory.hpp:77] Creating layer fire6/concat
I0604 20:56:52.214213   904 net.cpp:106] Creating Layer fire6/concat
I0604 20:56:52.214216   904 net.cpp:454] fire6/concat <- fire6/expand1x1
I0604 20:56:52.214221   904 net.cpp:454] fire6/concat <- fire6/expand3x3
I0604 20:56:52.214226   904 net.cpp:411] fire6/concat -> fire6/concat
I0604 20:56:52.214264   904 net.cpp:150] Setting up fire6/concat
I0604 20:56:52.214280   904 net.cpp:157] Top shape: 256 384 15 15 (22118400)
I0604 20:56:52.214283   904 net.cpp:165] Memory required for data: 3096970240
I0604 20:56:52.214287   904 layer_factory.hpp:77] Creating layer fire7/squeeze1x1
I0604 20:56:52.214296   904 net.cpp:106] Creating Layer fire7/squeeze1x1
I0604 20:56:52.214300   904 net.cpp:454] fire7/squeeze1x1 <- fire6/concat
I0604 20:56:52.214305   904 net.cpp:411] fire7/squeeze1x1 -> fire7/squeeze1x1
I0604 20:56:52.217828   904 net.cpp:150] Setting up fire7/squeeze1x1
I0604 20:56:52.217840   904 net.cpp:157] Top shape: 256 48 15 15 (2764800)
I0604 20:56:52.217844   904 net.cpp:165] Memory required for data: 3108029440
I0604 20:56:52.217860   904 layer_factory.hpp:77] Creating layer fire7/relu_squeeze1x1
I0604 20:56:52.217866   904 net.cpp:106] Creating Layer fire7/relu_squeeze1x1
I0604 20:56:52.217870   904 net.cpp:454] fire7/relu_squeeze1x1 <- fire7/squeeze1x1
I0604 20:56:52.217876   904 net.cpp:397] fire7/relu_squeeze1x1 -> fire7/squeeze1x1 (in-place)
I0604 20:56:52.218885   904 net.cpp:150] Setting up fire7/relu_squeeze1x1
I0604 20:56:52.218899   904 net.cpp:157] Top shape: 256 48 15 15 (2764800)
I0604 20:56:52.218901   904 net.cpp:165] Memory required for data: 3119088640
I0604 20:56:52.218905   904 layer_factory.hpp:77] Creating layer fire7/squeeze1x1_fire7/relu_squeeze1x1_0_split
I0604 20:56:52.218911   904 net.cpp:106] Creating Layer fire7/squeeze1x1_fire7/relu_squeeze1x1_0_split
I0604 20:56:52.218915   904 net.cpp:454] fire7/squeeze1x1_fire7/relu_squeeze1x1_0_split <- fire7/squeeze1x1
I0604 20:56:52.218935   904 net.cpp:411] fire7/squeeze1x1_fire7/relu_squeeze1x1_0_split -> fire7/squeeze1x1_fire7/relu_squeeze1x1_0_split_0
I0604 20:56:52.218941   904 net.cpp:411] fire7/squeeze1x1_fire7/relu_squeeze1x1_0_split -> fire7/squeeze1x1_fire7/relu_squeeze1x1_0_split_1
I0604 20:56:52.218992   904 net.cpp:150] Setting up fire7/squeeze1x1_fire7/relu_squeeze1x1_0_split
I0604 20:56:52.218999   904 net.cpp:157] Top shape: 256 48 15 15 (2764800)
I0604 20:56:52.219003   904 net.cpp:157] Top shape: 256 48 15 15 (2764800)
I0604 20:56:52.219007   904 net.cpp:165] Memory required for data: 3141207040
I0604 20:56:52.219010   904 layer_factory.hpp:77] Creating layer fire7/expand1x1
I0604 20:56:52.219020   904 net.cpp:106] Creating Layer fire7/expand1x1
I0604 20:56:52.219027   904 net.cpp:454] fire7/expand1x1 <- fire7/squeeze1x1_fire7/relu_squeeze1x1_0_split_0
I0604 20:56:52.219033   904 net.cpp:411] fire7/expand1x1 -> fire7/expand1x1
I0604 20:56:52.222530   904 net.cpp:150] Setting up fire7/expand1x1
I0604 20:56:52.222544   904 net.cpp:157] Top shape: 256 192 15 15 (11059200)
I0604 20:56:52.222548   904 net.cpp:165] Memory required for data: 3185443840
I0604 20:56:52.222555   904 layer_factory.hpp:77] Creating layer fire7/relu_expand1x1
I0604 20:56:52.222561   904 net.cpp:106] Creating Layer fire7/relu_expand1x1
I0604 20:56:52.222568   904 net.cpp:454] fire7/relu_expand1x1 <- fire7/expand1x1
I0604 20:56:52.222573   904 net.cpp:397] fire7/relu_expand1x1 -> fire7/expand1x1 (in-place)
I0604 20:56:52.223572   904 net.cpp:150] Setting up fire7/relu_expand1x1
I0604 20:56:52.223582   904 net.cpp:157] Top shape: 256 192 15 15 (11059200)
I0604 20:56:52.223585   904 net.cpp:165] Memory required for data: 3229680640
I0604 20:56:52.223588   904 layer_factory.hpp:77] Creating layer fire7/expand3x3
I0604 20:56:52.223600   904 net.cpp:106] Creating Layer fire7/expand3x3
I0604 20:56:52.223604   904 net.cpp:454] fire7/expand3x3 <- fire7/squeeze1x1_fire7/relu_squeeze1x1_0_split_1
I0604 20:56:52.223610   904 net.cpp:411] fire7/expand3x3 -> fire7/expand3x3
I0604 20:56:52.227211   904 net.cpp:150] Setting up fire7/expand3x3
I0604 20:56:52.227226   904 net.cpp:157] Top shape: 256 192 15 15 (11059200)
I0604 20:56:52.227228   904 net.cpp:165] Memory required for data: 3273917440
I0604 20:56:52.227236   904 layer_factory.hpp:77] Creating layer fire7/relu_expand3x3
I0604 20:56:52.227244   904 net.cpp:106] Creating Layer fire7/relu_expand3x3
I0604 20:56:52.227248   904 net.cpp:454] fire7/relu_expand3x3 <- fire7/expand3x3
I0604 20:56:52.227254   904 net.cpp:397] fire7/relu_expand3x3 -> fire7/expand3x3 (in-place)
I0604 20:56:52.229310   904 net.cpp:150] Setting up fire7/relu_expand3x3
I0604 20:56:52.229323   904 net.cpp:157] Top shape: 256 192 15 15 (11059200)
I0604 20:56:52.229326   904 net.cpp:165] Memory required for data: 3318154240
I0604 20:56:52.229331   904 layer_factory.hpp:77] Creating layer fire7/concat
I0604 20:56:52.229338   904 net.cpp:106] Creating Layer fire7/concat
I0604 20:56:52.229342   904 net.cpp:454] fire7/concat <- fire7/expand1x1
I0604 20:56:52.229347   904 net.cpp:454] fire7/concat <- fire7/expand3x3
I0604 20:56:52.229353   904 net.cpp:411] fire7/concat -> fire7/concat
I0604 20:56:52.229389   904 net.cpp:150] Setting up fire7/concat
I0604 20:56:52.229398   904 net.cpp:157] Top shape: 256 384 15 15 (22118400)
I0604 20:56:52.229400   904 net.cpp:165] Memory required for data: 3406627840
I0604 20:56:52.229405   904 layer_factory.hpp:77] Creating layer fire8/squeeze1x1
I0604 20:56:52.229414   904 net.cpp:106] Creating Layer fire8/squeeze1x1
I0604 20:56:52.229418   904 net.cpp:454] fire8/squeeze1x1 <- fire7/concat
I0604 20:56:52.229426   904 net.cpp:411] fire8/squeeze1x1 -> fire8/squeeze1x1
I0604 20:56:52.232929   904 net.cpp:150] Setting up fire8/squeeze1x1
I0604 20:56:52.232944   904 net.cpp:157] Top shape: 256 64 15 15 (3686400)
I0604 20:56:52.232946   904 net.cpp:165] Memory required for data: 3421373440
I0604 20:56:52.232954   904 layer_factory.hpp:77] Creating layer fire8/relu_squeeze1x1
I0604 20:56:52.232962   904 net.cpp:106] Creating Layer fire8/relu_squeeze1x1
I0604 20:56:52.232980   904 net.cpp:454] fire8/relu_squeeze1x1 <- fire8/squeeze1x1
I0604 20:56:52.232985   904 net.cpp:397] fire8/relu_squeeze1x1 -> fire8/squeeze1x1 (in-place)
I0604 20:56:52.233983   904 net.cpp:150] Setting up fire8/relu_squeeze1x1
I0604 20:56:52.233995   904 net.cpp:157] Top shape: 256 64 15 15 (3686400)
I0604 20:56:52.233999   904 net.cpp:165] Memory required for data: 3436119040
I0604 20:56:52.234002   904 layer_factory.hpp:77] Creating layer fire8/squeeze1x1_fire8/relu_squeeze1x1_0_split
I0604 20:56:52.234011   904 net.cpp:106] Creating Layer fire8/squeeze1x1_fire8/relu_squeeze1x1_0_split
I0604 20:56:52.234014   904 net.cpp:454] fire8/squeeze1x1_fire8/relu_squeeze1x1_0_split <- fire8/squeeze1x1
I0604 20:56:52.234020   904 net.cpp:411] fire8/squeeze1x1_fire8/relu_squeeze1x1_0_split -> fire8/squeeze1x1_fire8/relu_squeeze1x1_0_split_0
I0604 20:56:52.234030   904 net.cpp:411] fire8/squeeze1x1_fire8/relu_squeeze1x1_0_split -> fire8/squeeze1x1_fire8/relu_squeeze1x1_0_split_1
I0604 20:56:52.234078   904 net.cpp:150] Setting up fire8/squeeze1x1_fire8/relu_squeeze1x1_0_split
I0604 20:56:52.234089   904 net.cpp:157] Top shape: 256 64 15 15 (3686400)
I0604 20:56:52.234094   904 net.cpp:157] Top shape: 256 64 15 15 (3686400)
I0604 20:56:52.234097   904 net.cpp:165] Memory required for data: 3465610240
I0604 20:56:52.234100   904 layer_factory.hpp:77] Creating layer fire8/expand1x1
I0604 20:56:52.234117   904 net.cpp:106] Creating Layer fire8/expand1x1
I0604 20:56:52.234122   904 net.cpp:454] fire8/expand1x1 <- fire8/squeeze1x1_fire8/relu_squeeze1x1_0_split_0
I0604 20:56:52.234136   904 net.cpp:411] fire8/expand1x1 -> fire8/expand1x1
I0604 20:56:52.237627   904 net.cpp:150] Setting up fire8/expand1x1
I0604 20:56:52.237649   904 net.cpp:157] Top shape: 256 256 15 15 (14745600)
I0604 20:56:52.237656   904 net.cpp:165] Memory required for data: 3524592640
I0604 20:56:52.237663   904 layer_factory.hpp:77] Creating layer fire8/relu_expand1x1
I0604 20:56:52.237670   904 net.cpp:106] Creating Layer fire8/relu_expand1x1
I0604 20:56:52.237674   904 net.cpp:454] fire8/relu_expand1x1 <- fire8/expand1x1
I0604 20:56:52.237680   904 net.cpp:397] fire8/relu_expand1x1 -> fire8/expand1x1 (in-place)
I0604 20:56:52.238668   904 net.cpp:150] Setting up fire8/relu_expand1x1
I0604 20:56:52.238678   904 net.cpp:157] Top shape: 256 256 15 15 (14745600)
I0604 20:56:52.238682   904 net.cpp:165] Memory required for data: 3583575040
I0604 20:56:52.238692   904 layer_factory.hpp:77] Creating layer fire8/expand3x3
I0604 20:56:52.238705   904 net.cpp:106] Creating Layer fire8/expand3x3
I0604 20:56:52.238709   904 net.cpp:454] fire8/expand3x3 <- fire8/squeeze1x1_fire8/relu_squeeze1x1_0_split_1
I0604 20:56:52.238718   904 net.cpp:411] fire8/expand3x3 -> fire8/expand3x3
I0604 20:56:52.243407   904 net.cpp:150] Setting up fire8/expand3x3
I0604 20:56:52.243435   904 net.cpp:157] Top shape: 256 256 15 15 (14745600)
I0604 20:56:52.243439   904 net.cpp:165] Memory required for data: 3642557440
I0604 20:56:52.243450   904 layer_factory.hpp:77] Creating layer fire8/relu_expand3x3
I0604 20:56:52.243458   904 net.cpp:106] Creating Layer fire8/relu_expand3x3
I0604 20:56:52.243463   904 net.cpp:454] fire8/relu_expand3x3 <- fire8/expand3x3
I0604 20:56:52.243471   904 net.cpp:397] fire8/relu_expand3x3 -> fire8/expand3x3 (in-place)
I0604 20:56:52.244407   904 net.cpp:150] Setting up fire8/relu_expand3x3
I0604 20:56:52.244421   904 net.cpp:157] Top shape: 256 256 15 15 (14745600)
I0604 20:56:52.244423   904 net.cpp:165] Memory required for data: 3701539840
I0604 20:56:52.244427   904 layer_factory.hpp:77] Creating layer fire8/concat
I0604 20:56:52.244441   904 net.cpp:106] Creating Layer fire8/concat
I0604 20:56:52.244443   904 net.cpp:454] fire8/concat <- fire8/expand1x1
I0604 20:56:52.244448   904 net.cpp:454] fire8/concat <- fire8/expand3x3
I0604 20:56:52.244456   904 net.cpp:411] fire8/concat -> fire8/concat
I0604 20:56:52.244499   904 net.cpp:150] Setting up fire8/concat
I0604 20:56:52.244508   904 net.cpp:157] Top shape: 256 512 15 15 (29491200)
I0604 20:56:52.244531   904 net.cpp:165] Memory required for data: 3819504640
I0604 20:56:52.244535   904 layer_factory.hpp:77] Creating layer pool8
I0604 20:56:52.244544   904 net.cpp:106] Creating Layer pool8
I0604 20:56:52.244549   904 net.cpp:454] pool8 <- fire8/concat
I0604 20:56:52.244554   904 net.cpp:411] pool8 -> pool8
I0604 20:56:52.244602   904 net.cpp:150] Setting up pool8
I0604 20:56:52.244609   904 net.cpp:157] Top shape: 256 512 7 7 (6422528)
I0604 20:56:52.244612   904 net.cpp:165] Memory required for data: 3845194752
I0604 20:56:52.244616   904 layer_factory.hpp:77] Creating layer fire9/squeeze1x1
I0604 20:56:52.244626   904 net.cpp:106] Creating Layer fire9/squeeze1x1
I0604 20:56:52.244631   904 net.cpp:454] fire9/squeeze1x1 <- pool8
I0604 20:56:52.244637   904 net.cpp:411] fire9/squeeze1x1 -> fire9/squeeze1x1
I0604 20:56:52.248078   904 net.cpp:150] Setting up fire9/squeeze1x1
I0604 20:56:52.248095   904 net.cpp:157] Top shape: 256 64 7 7 (802816)
I0604 20:56:52.248100   904 net.cpp:165] Memory required for data: 3848406016
I0604 20:56:52.248106   904 layer_factory.hpp:77] Creating layer fire9/relu_squeeze1x1
I0604 20:56:52.248116   904 net.cpp:106] Creating Layer fire9/relu_squeeze1x1
I0604 20:56:52.248119   904 net.cpp:454] fire9/relu_squeeze1x1 <- fire9/squeeze1x1
I0604 20:56:52.248126   904 net.cpp:397] fire9/relu_squeeze1x1 -> fire9/squeeze1x1 (in-place)
I0604 20:56:52.249099   904 net.cpp:150] Setting up fire9/relu_squeeze1x1
I0604 20:56:52.249111   904 net.cpp:157] Top shape: 256 64 7 7 (802816)
I0604 20:56:52.249114   904 net.cpp:165] Memory required for data: 3851617280
I0604 20:56:52.249120   904 layer_factory.hpp:77] Creating layer fire9/squeeze1x1_fire9/relu_squeeze1x1_0_split
I0604 20:56:52.249138   904 net.cpp:106] Creating Layer fire9/squeeze1x1_fire9/relu_squeeze1x1_0_split
I0604 20:56:52.249142   904 net.cpp:454] fire9/squeeze1x1_fire9/relu_squeeze1x1_0_split <- fire9/squeeze1x1
I0604 20:56:52.249150   904 net.cpp:411] fire9/squeeze1x1_fire9/relu_squeeze1x1_0_split -> fire9/squeeze1x1_fire9/relu_squeeze1x1_0_split_0
I0604 20:56:52.249157   904 net.cpp:411] fire9/squeeze1x1_fire9/relu_squeeze1x1_0_split -> fire9/squeeze1x1_fire9/relu_squeeze1x1_0_split_1
I0604 20:56:52.249220   904 net.cpp:150] Setting up fire9/squeeze1x1_fire9/relu_squeeze1x1_0_split
I0604 20:56:52.249228   904 net.cpp:157] Top shape: 256 64 7 7 (802816)
I0604 20:56:52.249231   904 net.cpp:157] Top shape: 256 64 7 7 (802816)
I0604 20:56:52.249234   904 net.cpp:165] Memory required for data: 3858039808
I0604 20:56:52.249238   904 layer_factory.hpp:77] Creating layer fire9/expand1x1
I0604 20:56:52.249253   904 net.cpp:106] Creating Layer fire9/expand1x1
I0604 20:56:52.249258   904 net.cpp:454] fire9/expand1x1 <- fire9/squeeze1x1_fire9/relu_squeeze1x1_0_split_0
I0604 20:56:52.249264   904 net.cpp:411] fire9/expand1x1 -> fire9/expand1x1
I0604 20:56:52.253813   904 net.cpp:150] Setting up fire9/expand1x1
I0604 20:56:52.253829   904 net.cpp:157] Top shape: 256 256 7 7 (3211264)
I0604 20:56:52.253834   904 net.cpp:165] Memory required for data: 3870884864
I0604 20:56:52.253840   904 layer_factory.hpp:77] Creating layer fire9/relu_expand1x1
I0604 20:56:52.253850   904 net.cpp:106] Creating Layer fire9/relu_expand1x1
I0604 20:56:52.253854   904 net.cpp:454] fire9/relu_expand1x1 <- fire9/expand1x1
I0604 20:56:52.253860   904 net.cpp:397] fire9/relu_expand1x1 -> fire9/expand1x1 (in-place)
I0604 20:56:52.255874   904 net.cpp:150] Setting up fire9/relu_expand1x1
I0604 20:56:52.255885   904 net.cpp:157] Top shape: 256 256 7 7 (3211264)
I0604 20:56:52.255888   904 net.cpp:165] Memory required for data: 3883729920
I0604 20:56:52.255892   904 layer_factory.hpp:77] Creating layer fire9/expand3x3
I0604 20:56:52.255904   904 net.cpp:106] Creating Layer fire9/expand3x3
I0604 20:56:52.255908   904 net.cpp:454] fire9/expand3x3 <- fire9/squeeze1x1_fire9/relu_squeeze1x1_0_split_1
I0604 20:56:52.255914   904 net.cpp:411] fire9/expand3x3 -> fire9/expand3x3
I0604 20:56:52.259513   904 net.cpp:150] Setting up fire9/expand3x3
I0604 20:56:52.259549   904 net.cpp:157] Top shape: 256 256 7 7 (3211264)
I0604 20:56:52.259554   904 net.cpp:165] Memory required for data: 3896574976
I0604 20:56:52.259562   904 layer_factory.hpp:77] Creating layer fire9/relu_expand3x3
I0604 20:56:52.259568   904 net.cpp:106] Creating Layer fire9/relu_expand3x3
I0604 20:56:52.259572   904 net.cpp:454] fire9/relu_expand3x3 <- fire9/expand3x3
I0604 20:56:52.259578   904 net.cpp:397] fire9/relu_expand3x3 -> fire9/expand3x3 (in-place)
I0604 20:56:52.260570   904 net.cpp:150] Setting up fire9/relu_expand3x3
I0604 20:56:52.260583   904 net.cpp:157] Top shape: 256 256 7 7 (3211264)
I0604 20:56:52.260587   904 net.cpp:165] Memory required for data: 3909420032
I0604 20:56:52.260591   904 layer_factory.hpp:77] Creating layer fire9/concat
I0604 20:56:52.260597   904 net.cpp:106] Creating Layer fire9/concat
I0604 20:56:52.260601   904 net.cpp:454] fire9/concat <- fire9/expand1x1
I0604 20:56:52.260607   904 net.cpp:454] fire9/concat <- fire9/expand3x3
I0604 20:56:52.260612   904 net.cpp:411] fire9/concat -> fire9/concat
I0604 20:56:52.260648   904 net.cpp:150] Setting up fire9/concat
I0604 20:56:52.260658   904 net.cpp:157] Top shape: 256 512 7 7 (6422528)
I0604 20:56:52.260661   904 net.cpp:165] Memory required for data: 3935110144
I0604 20:56:52.260664   904 layer_factory.hpp:77] Creating layer drop9
I0604 20:56:52.260673   904 net.cpp:106] Creating Layer drop9
I0604 20:56:52.260676   904 net.cpp:454] drop9 <- fire9/concat
I0604 20:56:52.260681   904 net.cpp:397] drop9 -> fire9/concat (in-place)
I0604 20:56:52.260715   904 net.cpp:150] Setting up drop9
I0604 20:56:52.260721   904 net.cpp:157] Top shape: 256 512 7 7 (6422528)
I0604 20:56:52.260725   904 net.cpp:165] Memory required for data: 3960800256
I0604 20:56:52.260727   904 layer_factory.hpp:77] Creating layer conv10
I0604 20:56:52.260737   904 net.cpp:106] Creating Layer conv10
I0604 20:56:52.260741   904 net.cpp:454] conv10 <- fire9/concat
I0604 20:56:52.260746   904 net.cpp:411] conv10 -> conv10
I0604 20:56:52.280850   904 net.cpp:150] Setting up conv10
I0604 20:56:52.280875   904 net.cpp:157] Top shape: 256 1000 9 9 (20736000)
I0604 20:56:52.280879   904 net.cpp:165] Memory required for data: 4043744256
I0604 20:56:52.280887   904 layer_factory.hpp:77] Creating layer relu_conv10
I0604 20:56:52.280897   904 net.cpp:106] Creating Layer relu_conv10
I0604 20:56:52.280902   904 net.cpp:454] relu_conv10 <- conv10
I0604 20:56:52.280908   904 net.cpp:397] relu_conv10 -> conv10 (in-place)
I0604 20:56:52.281831   904 net.cpp:150] Setting up relu_conv10
I0604 20:56:52.281844   904 net.cpp:157] Top shape: 256 1000 9 9 (20736000)
I0604 20:56:52.281847   904 net.cpp:165] Memory required for data: 4126688256
I0604 20:56:52.281852   904 layer_factory.hpp:77] Creating layer pool10
I0604 20:56:52.281862   904 net.cpp:106] Creating Layer pool10
I0604 20:56:52.281865   904 net.cpp:454] pool10 <- conv10
I0604 20:56:52.281873   904 net.cpp:411] pool10 -> pool10
I0604 20:56:52.283387   904 net.cpp:150] Setting up pool10
I0604 20:56:52.283398   904 net.cpp:157] Top shape: 256 1000 1 1 (256000)
I0604 20:56:52.283401   904 net.cpp:165] Memory required for data: 4127712256
I0604 20:56:52.283404   904 layer_factory.hpp:77] Creating layer loss
I0604 20:56:52.283414   904 net.cpp:106] Creating Layer loss
I0604 20:56:52.283417   904 net.cpp:454] loss <- pool10
I0604 20:56:52.283422   904 net.cpp:454] loss <- label
I0604 20:56:52.283428   904 net.cpp:411] loss -> loss
I0604 20:56:52.283439   904 layer_factory.hpp:77] Creating layer loss
…
