…
      mirror: false
      crop_size: 224
      mean_value: 104
      mean_value: 117
      mean_value: 123
      force_color: true
      resize_param {
        prob: 1
        resize_mode: FIT_SMALL_SIZE
        height: 256
        width: 256
        pad_mode: MIRRORED
        pad_value: 104
        pad_value: 117
        pad_value: 124
        interp_mode: LINEAR
        center_object: false
        max_angle: 0
      }
    }
    data_param {
      source: "/local/temporary/imagenet_clc_orig/ilsvrc12_val_lmdb"
      batch_size: 50
      backend: LMDB
    }
  }
  layer {
    name: "conv1"
    type: "Convolution"
    bottom: "data"
    top: "conv1"
    convolution_param {
      num_output: 96
      kernel_size: 7
      stride: 2
      weight_filler {
        type: "xavier"
      }
    }
  }
  layer {
    name: "relu_conv1"
    type: "ReLU"
    bottom: "conv1"
    top: "conv1"
  }
  layer {
    name: "pool1"
    type: "Pooling"
    bottom: "conv1"
    top: "pool1"
    pooling_param {
      pool: MAX
      kernel_size: 3
      stride: 2
    }
  }
  layer {
    name: "fire2/squeeze1x1"
    type: "Convolution"
    bottom: "pool1"
    top: "fire2/squeeze1x1"
    convolution_param {
      num_output: 16
      kernel_size: 1
      weight_filler {
        type: "xavier"
      }
    }
  }
  layer {
    name: "fire2/relu_squeeze1x1"
    type: "ReLU"
    bottom: "fire2/squeeze1x1"
    top: "fire2/squeeze1x1"
  }
  layer {
    name: "fire2/expand1x1"
    type: "Convolution"
    bottom: "fire2/squeeze1x1"
    top: "fire2/expand1x1"
    convolution_param {
      num_output: 64
      kernel_size: 1
      weight_filler {
        type: "xavier"
      }
    }
  }
  layer {
    name: "fire2/relu_expand1x1"
    type: "ReLU"
    bottom: "fire2/expand1x1"
    top: "fire2/expand1x1"
  }
  layer {
    name: "fire2/expand3x3"
    type: "Convolution"
    bottom: "fire2/squeeze1x1"
    top: "fire2/expand3x3"
    convolution_param {
      num_output: 64
      pad: 1
      kernel_size: 3
      weight_filler {
        type: "xavier"
      }
    }
  }
  layer {
    name: "fire2/relu_expand3x3"
    type: "ReLU"
    bottom: "fire2/expand3x3"
    top: "fire2/expand3x3"
  }
  layer {
    name: "fire2/concat"
    type: "Concat"
    bottom: "fire2/expand1x1"
    bottom: "fire2/expand3x3"
    top: "fire2/concat"
  }
  layer {
    name: "fire3/squeeze1x1"
    type: "Convolution"
    bottom: "fire2/concat"
    top: "fire3/squeeze1x1"
    convolution_param {
      num_output: 16
      kernel_size: 1
      weight_filler {
        type: "xavier"
      }
    }
  }
  layer {
    name: "fire3/relu_squeeze1x1"
    type: "ReLU"
    bottom: "fire3/squeeze1x1"
    top: "fire3/squeeze1x1"
  }
  layer {
    name: "fire3/expand1x1"
    type: "Convolution"
    bottom: "fire3/squeeze1x1"
    top: "fire3/expand1x1"
    convolution_param {
      num_output: 64
      kernel_size: 1
      weight_filler {
        type: "xavier"
      }
    }
  }
  layer {
    name: "fire3/relu_expand1x1"
    type: "ReLU"
    bottom: "fire3/expand1x1"
    top: "fire3/expand1x1"
  }
  layer {
    name: "fire3/expand3x3"
    type: "Convolution"
    bottom: "fire3/squeeze1x1"
    top: "fire3/expand3x3"
    convolution_param {
      num_output: 64
      pad: 1
      kernel_size: 3
      weight_filler {
        type: "xavier"
      }
    }
  }
  layer {
    name: "fire3/relu_expand3x3"
    type: "ReLU"
    bottom: "fire3/expand3x3"
    top: "fire3/expand3x3"
  }
  layer {
    name: "fire3/concat"
    type: "Concat"
    bottom: "fire3/expand1x1"
    bottom: "fire3/expand3x3"
    top: "fire3/concat"
  }
  layer {
    name: "fire4/squeeze1x1"
    type: "Convolution"
    bottom: "fire3/concat"
    top: "fire4/squeeze1x1"
    convolution_param {
      num_output: 32
      kernel_size: 1
      weight_filler {
        type: "xavier"
      }
    }
  }
  layer {
    name: "fire4/relu_squeeze1x1"
    type: "ReLU"
    bottom: "fire4/squeeze1x1"
    top: "fire4/squeeze1x1"
  }
  layer {
    name: "fire4/expand1x1"
    type: "Convolution"
    bottom: "fire4/squeeze1x1"
    top: "fire4/expand1x1"
    convolution_param {
      num_output: 128
      kernel_size: 1
      weight_filler {
        type: "xavier"
      }
    }
  }
  layer {
    name: "fire4/relu_expand1x1"
    type: "ReLU"
    bottom: "fire4/expand1x1"
    top: "fire4/expand1x1"
  }
  layer {
    name: "fire4/expand3x3"
    type: "Convolution"
    bottom: "fire4/squeeze1x1"
    top: "fire4/expand3x3"
    convolution_param {
      num_output: 128
      pad: 1
      kernel_size: 3
      weight_filler {
        type: "xavier"
      }
    }
  }
  layer {
    name: "fire4/relu_expand3x3"
    type: "ReLU"
    bottom: "fire4/expand3x3"
    top: "fire4/expand3x3"
  }
  layer {
    name: "fire4/concat"
    type: "Concat"
    bottom: "fire4/expand1x1"
    bottom: "fire4/expand3x3"
    top: "fire4/concat"
  }
  layer {
    name: "pool4"
    type: "Pooling"
    bottom: "fire4/concat"
    top: "pool4"
    pooling_param {
      pool: MAX
      kernel_size: 3
      stride: 2
    }
  }
  layer {
    name: "fire5/squeeze1x1"
    type: "Convolution"
    bottom: "pool4"
    top: "fire5/squeeze1x1"
    convolution_param {
      num_output: 32
      kernel_size: 1
      weight_filler {
        type: "xavier"
      }
    }
  }
  layer {
    name: "fire5/relu_squeeze1x1"
    type: "ReLU"
    bottom: "fire5/squeeze1x1"
    top: "fire5/squeeze1x1"
  }
  layer {
    name: "fire5/expand1x1"
    type: "Convolution"
    bottom: "fire5/squeeze1x1"
    top: "fire5/expand1x1"
    convolution_param {
      num_output: 128
      kernel_size: 1
      weight_filler {
        type: "xavier"
      }
    }
  }
  layer {
    name: "fire5/relu_expand1x1"
    type: "ReLU"
    bottom: "fire5/expand1x1"
    top: "fire5/expand1x1"
  }
  layer {
    name: "fire5/expand3x3"
    type: "Convolution"
    bottom: "fire5/squeeze1x1"
    top: "fire5/expand3x3"
    convolution_param {
      num_output: 128
      pad: 1
      kernel_size: 3
      weight_filler {
        type: "xavier"
      }
    }
  }
  layer {
    name: "fire5/relu_expand3x3"
    type: "ReLU"
    bottom: "fire5/expand3x3"
    top: "fire5/expand3x3"
  }
  layer {
    name: "fire5/concat"
    type: "Concat"
    bottom: "fire5/expand1x1"
    bottom: "fire5/expand3x3"
    top: "fire5/concat"
  }
  layer {
    name: "fire6/squeeze1x1"
    type: "Convolution"
    bottom: "fire5/concat"
    top: "fire6/squeeze1x1"
    convolution_param {
      num_output: 48
      kernel_size: 1
      weight_filler {
        type: "xavier"
      }
    }
  }
  layer {
    name: "fire6/relu_squeeze1x1"
    type: "ReLU"
    bottom: "fire6/squeeze1x1"
    top: "fire6/squeeze1x1"
  }
  layer {
    name: "fire6/expand1x1"
    type: "Convolution"
    bottom: "fire6/squeeze1x1"
    top: "fire6/expand1x1"
    convolution_param {
      num_output: 192
      kernel_size: 1
      weight_filler {
        type: "xavier"
      }
    }
  }
  layer {
    name: "fire6/relu_expand1x1"
    type: "ReLU"
    bottom: "fire6/expand1x1"
    top: "fire6/expand1x1"
  }
  layer {
    name: "fire6/expand3x3"
    type: "Convolution"
    bottom: "fire6/squeeze1x1"
    top: "fire6/expand3x3"
    convolution_param {
      num_output: 192
      pad: 1
      kernel_size: 3
      weight_filler {
        type: "xavier"
      }
    }
  }
  layer {
    name: "fire6/relu_expand3x3"
    type: "ReLU"
    bottom: "fire6/expand3x3"
    top: "fire6/expand3x3"
  }
  layer {
    name: "fire6/concat"
    type: "Concat"
    bottom: "fire6/expand1x1"
    bottom: "fire6/expand3x3"
    top: "fire6/concat"
  }
  layer {
    name: "fire7/squeeze1x1"
    type: "Convolution"
    bottom: "fire6/concat"
    top: "fire7/squeeze1x1"
    convolution_param {
      num_output: 48
      kernel_size: 1
      weight_filler {
        type: "xavier"
      }
    }
  }
  layer {
    name: "fire7/relu_squeeze1x1"
    type: "ReLU"
    bottom: "fire7/squeeze1x1"
    top: "fire7/squeeze1x1"
  }
  layer {
    name: "fire7/expand1x1"
    type: "Convolution"
    bottom: "fire7/squeeze1x1"
    top: "fire7/expand1x1"
    convolution_param {
      num_output: 192
      kernel_size: 1
      weight_filler {
        type: "xavier"
      }
    }
  }
  layer {
    name: "fire7/relu_expand1x1"
    type: "ReLU"
    bottom: "fire7/expand1x1"
    top: "fire7/expand1x1"
  }
  layer {
    name: "fire7/expand3x3"
    type: "Convolution"
    bottom: "fire7/squeeze1x1"
    top: "fire7/expand3x3"
    convolution_param {
      num_output: 192
      pad: 1
      kernel_size: 3
      weight_filler {
        type: "xavier"
      }
    }
  }
  layer {
    name: "fire7/relu_expand3x3"
    type: "ReLU"
    bottom: "fire7/expand3x3"
    top: "fire7/expand3x3"
  }
  layer {
    name: "fire7/concat"
    type: "Concat"
    bottom: "fire7/expand1x1"
    bottom: "fire7/expand3x3"
    top: "fire7/concat"
  }
  layer {
    name: "fire8/squeeze1x1"
    type: "Convolution"
    bottom: "fire7/concat"
    top: "fire8/squeeze1x1"
    convolution_param {
      num_output: 64
      kernel_size: 1
      weight_filler {
        type: "xavier"
      }
    }
  }
  layer {
    name: "fire8/relu_squeeze1x1"
    type: "ReLU"
    bottom: "fire8/squeeze1x1"
    top: "fire8/squeeze1x1"
  }
  layer {
    name: "fire8/expand1x1"
    type: "Convolution"
    bottom: "fire8/squeeze1x1"
    top: "fire8/expand1x1"
    convolution_param {
      num_output: 256
      kernel_size: 1
      weight_filler {
        type: "xavier"
      }
    }
  }
  layer {
    name: "fire8/relu_expand1x1"
    type: "ReLU"
    bottom: "fire8/expand1x1"
    top: "fire8/expand1x1"
  }
  layer {
    name: "fire8/expand3x3"
    type: "Convolution"
    bottom: "fire8/squeeze1x1"
    top: "fire8/expand3x3"
    convolution_param {
      num_output: 256
      pad: 1
      kernel_size: 3
      weight_filler {
        type: "xavier"
      }
    }
  }
  layer {
    name: "fire8/relu_expand3x3"
    type: "ReLU"
    bottom: "fire8/expand3x3"
    top: "fire8/expand3x3"
  }
  layer {
    name: "fire8/concat"
    type: "Concat"
    bottom: "fire8/expand1x1"
    bottom: "fire8/expand3x3"
    top: "fire8/concat"
  }
  layer {
    name: "pool8"
    type: "Pooling"
    bottom: "fire8/concat"
    top: "pool8"
    pooling_param {
      pool: MAX
      kernel_size: 3
      stride: 2
    }
  }
  layer {
    name: "fire9/squeeze1x1"
    type: "Convolution"
    bottom: "pool8"
    top: "fire9/squeeze1x1"
    convolution_param {
      num_output: 64
      kernel_size: 1
      weight_filler {
        type: "xavier"
      }
    }
  }
  layer {
    name: "fire9/relu_squeeze1x1"
    type: "ReLU"
    bottom: "fire9/squeeze1x1"
    top: "fire9/squeeze1x1"
  }
  layer {
    name: "fire9/expand1x1"
    type: "Convolution"
    bottom: "fire9/squeeze1x1"
    top: "fire9/expand1x1"
    convolution_param {
      num_output: 256
      kernel_size: 1
      weight_filler {
        type: "xavier"
      }
    }
  }
  layer {
    name: "fire9/relu_expand1x1"
    type: "ReLU"
    bottom: "fire9/expand1x1"
    top: "fire9/expand1x1"
  }
  layer {
    name: "fire9/expand3x3"
    type: "Convolution"
    bottom: "fire9/squeeze1x1"
    top: "fire9/expand3x3"
    convolution_param {
      num_output: 256
      pad: 1
      kernel_size: 3
      weight_filler {
        type: "xavier"
      }
    }
  }
  layer {
    name: "fire9/relu_expand3x3"
    type: "ReLU"
    bottom: "fire9/expand3x3"
    top: "fire9/expand3x3"
  }
  layer {
    name: "fire9/concat"
    type: "Concat"
    bottom: "fire9/expand1x1"
    bottom: "fire9/expand3x3"
    top: "fire9/concat"
  }
  layer {
    name: "drop9"
    type: "Dropout"
    bottom: "fire9/concat"
    top: "fire9/concat"
    dropout_param {
      dropout_ratio: 0.5
    }
  }
  layer {
    name: "conv10"
    type: "Convolution"
    bottom: "fire9/concat"
    top: "conv10"
    convolution_param {
      num_output: 1000
      pad: 1
      kernel_size: 1
      weight_filler {
        type: "gaussian"
        mean: 0
        std: 0.01
      }
    }
  }
  layer {
    name: "relu_conv10"
    type: "ReLU"
    bottom: "conv10"
    top: "conv10"
  }
  layer {
    name: "pool10"
    type: "Pooling"
    bottom: "conv10"
    top: "pool10"
    pooling_param {
      pool: AVE
      global_pooling: true
    }
  }
  layer {
    name: "loss"
    type: "SoftmaxWithLoss"
    bottom: "pool10"
    bottom: "label"
    top: "loss"
  }
  layer {
    name: "accuracy"
    type: "Accuracy"
    bottom: "pool10"
    bottom: "label"
    top: "accuracy"
  }
  layer {
    name: "accuracy_top5"
    type: "Accuracy"
    bottom: "pool10"
    bottom: "label"
    top: "accuracy_top5"
    include {
      phase: TEST
    }
    accuracy_param {
      top_k: 5
    }
  }
}
test_initialization: false
average_loss: 40
iter_size: 4
I0605 00:51:16.646033 27501 solver.cpp:86] Creating training net specified in net_param.
I0605 00:51:16.646368 27501 net.cpp:322] The NetState phase (0) differed from the phase (1) specified by a rule in layer data
I0605 00:51:16.646445 27501 net.cpp:322] The NetState phase (0) differed from the phase (1) specified by a rule in layer accuracy_top5
I0605 00:51:16.647308 27501 net.cpp:49] Initializing net from parameters: 
name: "CaffeNet"
state {
  phase: TRAIN
}
layer {
  name: "data"
  type: "Data"
  top: "data"
  top: "label"
  include {
    phase: TRAIN
  }
  transform_param {
    scale: 0.04
    mirror: true
    crop_size: 224
    mean_value: 104
    mean_value: 117
    mean_value: 124
    force_color: true
    resize_param {
      prob: 1
      resize_mode: FIT_SMALL_SIZE
      height: 256
      width: 256
      pad_mode: MIRRORED
      pad_value: 104
      pad_value: 117
      pad_value: 124
      interp_mode: LINEAR
      center_object: false
      max_angle: 0
    }
  }
  data_param {
    source: "/local/temporary/imagenet_clc_orig/ilsvrc12_train_shuffle_lmdb"
    batch_size: 64
    backend: LMDB
  }
}
layer {
  name: "conv1"
  type: "Convolution"
  bottom: "data"
  top: "conv1"
  convolution_param {
    num_output: 96
    kernel_size: 7
    stride: 2
    weight_filler {
      type: "xavier"
    }
  }
}
layer {
  name: "relu_conv1"
  type: "ReLU"
  bottom: "conv1"
  top: "conv1"
}
layer {
  name: "pool1"
  type: "Pooling"
  bottom: "conv1"
  top: "pool1"
  pooling_param {
    pool: MAX
    kernel_size: 3
    stride: 2
  }
}
layer {
  name: "fire2/squeeze1x1"
  type: "Convolution"
  bottom: "pool1"
  top: "fire2/squeeze1x1"
  convolution_param {
    num_output: 16
    kernel_size: 1
    weight_filler {
      type: "xavier"
    }
  }
}
layer {
  name: "fire2/relu_squeeze1x1"
  type: "ReLU"
  bottom: "fire2/squeeze1x1"
  top: "fire2/squeeze1x1"
}
layer {
  name: "fire2/expand1x1"
  type: "Convolution"
  bottom: "fire2/squeeze1x1"
  top: "fire2/expand1x1"
  convolution_param {
    num_output: 64
    kernel_size: 1
    weight_filler {
      type: "xavier"
    }
  }
}
layer {
  name: "fire2/relu_expand1x1"
  type: "ReLU"
  bottom: "fire2/expand1x1"
  top: "fire2/expand1x1"
}
layer {
  name: "fire2/expand3x3"
  type: "Convolution"
  bottom: "fire2/squeeze1x1"
  top: "fire2/expand3x3"
  convolution_param {
    num_output: 64
    pad: 1
    kernel_size: 3
    weight_filler {
      type: "xavier"
    }
  }
}
layer {
  name: "fire2/relu_expand3x3"
  type: "ReLU"
  bottom: "fire2/expand3x3"
  top: "fire2/expand3x3"
}
layer {
  name: "fire2/concat"
  type: "Concat"
  bottom: "fire2/expand1x1"
  bottom: "fire2/expand3x3"
  top: "fire2/concat"
}
layer {
  name: "fire3/squeeze1x1"
  type: "Convolution"
  bottom: "fire2/concat"
  top: "fire3/squeeze1x1"
  convolution_param {
    num_output: 16
    kernel_size: 1
    weight_filler {
      type: "xavier"
    }
  }
}
layer {
  name: "fire3/relu_squeeze1x1"
  type: "ReLU"
  bottom: "fire3/squeeze1x1"
  top: "fire3/squeeze1x1"
}
layer {
  name: "fire3/expand1x1"
  type: "Convolution"
  bottom: "fire3/squeeze1x1"
  top: "fire3/expand1x1"
  convolution_param {
    num_output: 64
    kernel_size: 1
    weight_filler {
      type: "xavier"
    }
  }
}
layer {
  name: "fire3/relu_expand1x1"
  type: "ReLU"
  bottom: "fire3/expand1x1"
  top: "fire3/expand1x1"
}
layer {
  name: "fire3/expand3x3"
  type: "Convolution"
  bottom: "fire3/squeeze1x1"
  top: "fire3/expand3x3"
  convolution_param {
    num_output: 64
    pad: 1
    kernel_size: 3
    weight_filler {
      type: "xavier"
    }
  }
}
layer {
  name: "fire3/relu_expand3x3"
  type: "ReLU"
  bottom: "fire3/expand3x3"
  top: "fire3/expand3x3"
}
layer {
  name: "fire3/concat"
  type: "Concat"
  bottom: "fire3/expand1x1"
  bottom: "fire3/expand3x3"
  top: "fire3/concat"
}
layer {
  name: "fire4/squeeze1x1"
  type: "Convolution"
  bottom: "fire3/concat"
  top: "fire4/squeeze1x1"
  convolution_param {
    num_output: 32
    kernel_size: 1
    weight_filler {
      type: "xavier"
    }
  }
}
layer {
  name: "fire4/relu_squeeze1x1"
  type: "ReLU"
  bottom: "fire4/squeeze1x1"
  top: "fire4/squeeze1x1"
}
layer {
  name: "fire4/expand1x1"
  type: "Convolution"
  bottom: "fire4/squeeze1x1"
  top: "fire4/expand1x1"
  convolution_param {
    num_output: 128
    kernel_size: 1
    weight_filler {
      type: "xavier"
    }
  }
}
layer {
  name: "fire4/relu_expand1x1"
  type: "ReLU"
  bottom: "fire4/expand1x1"
  top: "fire4/expand1x1"
}
layer {
  name: "fire4/expand3x3"
  type: "Convolution"
  bottom: "fire4/squeeze1x1"
  top: "fire4/expand3x3"
  convolution_param {
    num_output: 128
    pad: 1
    kernel_size: 3
    weight_filler {
      type: "xavier"
    }
  }
}
layer {
  name: "fire4/relu_expand3x3"
  type: "ReLU"
  bottom: "fire4/expand3x3"
  top: "fire4/expand3x3"
}
layer {
  name: "fire4/concat"
  type: "Concat"
  bottom: "fire4/expand1x1"
  bottom: "fire4/expand3x3"
  top: "fire4/concat"
}
layer {
  name: "pool4"
  type: "Pooling"
  bottom: "fire4/concat"
  top: "pool4"
  pooling_param {
    pool: MAX
    kernel_size: 3
    stride: 2
  }
}
layer {
  name: "fire5/squeeze1x1"
  type: "Convolution"
  bottom: "pool4"
  top: "fire5/squeeze1x1"
  convolution_param {
    num_output: 32
    kernel_size: 1
    weight_filler {
      type: "xavier"
    }
  }
}
layer {
  name: "fire5/relu_squeeze1x1"
  type: "ReLU"
  bottom: "fire5/squeeze1x1"
  top: "fire5/squeeze1x1"
}
layer {
  name: "fire5/expand1x1"
  type: "Convolution"
  bottom: "fire5/squeeze1x1"
  top: "fire5/expand1x1"
  convolution_param {
    num_output: 128
    kernel_size: 1
    weight_filler {
      type: "xavier"
    }
  }
}
layer {
  name: "fire5/relu_expand1x1"
  type: "ReLU"
  bottom: "fire5/expand1x1"
  top: "fire5/expand1x1"
}
layer {
  name: "fire5/expand3x3"
  type: "Convolution"
  bottom: "fire5/squeeze1x1"
  top: "fire5/expand3x3"
  convolution_param {
    num_output: 128
    pad: 1
    kernel_size: 3
    weight_filler {
      type: "xavier"
    }
  }
}
layer {
  name: "fire5/relu_expand3x3"
  type: "ReLU"
  bottom: "fire5/expand3x3"
  top: "fire5/expand3x3"
}
layer {
  name: "fire5/concat"
  type: "Concat"
  bottom: "fire5/expand1x1"
  bottom: "fire5/expand3x3"
  top: "fire5/concat"
}
layer {
  name: "fire6/squeeze1x1"
  type: "Convolution"
  bottom: "fire5/concat"
  top: "fire6/squeeze1x1"
  convolution_param {
    num_output: 48
    kernel_size: 1
    weight_filler {
      type: "xavier"
    }
  }
}
layer {
  name: "fire6/relu_squeeze1x1"
  type: "ReLU"
  bottom: "fire6/squeeze1x1"
  top: "fire6/squeeze1x1"
}
layer {
  name: "fire6/expand1x1"
  type: "Convolution"
  bottom: "fire6/squeeze1x1"
  top: "fire6/expand1x1"
  convolution_param {
    num_output: 192
    kernel_size: 1
    weight_filler {
      type: "xavier"
    }
  }
}
layer {
  name: "fire6/relu_expand1x1"
  type: "ReLU"
  bottom: "fire6/expand1x1"
  top: "fire6/expand1x1"
}
layer {
  name: "fire6/expand3x3"
  type: "Convolution"
  bottom: "fire6/squeeze1x1"
  top: "fire6/expand3x3"
  convolution_param {
    num_output: 192
    pad: 1
    kernel_size: 3
    weight_filler {
      type: "xavier"
    }
  }
}
layer {
  name: "fire6/relu_expand3x3"
  type: "ReLU"
  bottom: "fire6/expand3x3"
  top: "fire6/expand3x3"
}
layer {
  name: "fire6/concat"
  type: "Concat"
  bottom: "fire6/expand1x1"
  bottom: "fire6/expand3x3"
  top: "fire6/concat"
}
layer {
  name: "fire7/squeeze1x1"
  type: "Convolution"
  bottom: "fire6/concat"
  top: "fire7/squeeze1x1"
  convolution_param {
    num_output: 48
    kernel_size: 1
    weight_filler {
      type: "xavier"
    }
  }
}
layer {
  name: "fire7/relu_squeeze1x1"
  type: "ReLU"
  bottom: "fire7/squeeze1x1"
  top: "fire7/squeeze1x1"
}
layer {
  name: "fire7/expand1x1"
  type: "Convolution"
  bottom: "fire7/squeeze1x1"
  top: "fire7/expand1x1"
  convolution_param {
    num_output: 192
    kernel_size: 1
    weight_filler {
      type: "xavier"
    }
  }
}
layer {
  name: "fire7/relu_expand1x1"
  type: "ReLU"
  bottom: "fire7/expand1x1"
  top: "fire7/expand1x1"
}
layer {
  name: "fire7/expand3x3"
  type: "Convolution"
  bottom: "fire7/squeeze1x1"
  top: "fire7/expand3x3"
  convolution_param {
    num_output: 192
    pad: 1
    kernel_size: 3
    weight_filler {
      type: "xavier"
    }
  }
}
layer {
  name: "fire7/relu_expand3x3"
  type: "ReLU"
  bottom: "fire7/expand3x3"
  top: "fire7/expand3x3"
}
layer {
  name: "fire7/concat"
  type: "Concat"
  bottom: "fire7/expand1x1"
  bottom: "fire7/expand3x3"
  top: "fire7/concat"
}
layer {
  name: "fire8/squeeze1x1"
  type: "Convolution"
  bottom: "fire7/concat"
  top: "fire8/squeeze1x1"
  convolution_param {
    num_output: 64
    kernel_size: 1
    weight_filler {
      type: "xavier"
    }
  }
}
layer {
  name: "fire8/relu_squeeze1x1"
  type: "ReLU"
  bottom: "fire8/squeeze1x1"
  top: "fire8/squeeze1x1"
}
layer {
  name: "fire8/expand1x1"
  type: "Convolution"
  bottom: "fire8/squeeze1x1"
  top: "fire8/expand1x1"
  convolution_param {
    num_output: 256
    kernel_size: 1
    weight_filler {
      type: "xavier"
    }
  }
}
layer {
  name: "fire8/relu_expand1x1"
  type: "ReLU"
  bottom: "fire8/expand1x1"
  top: "fire8/expand1x1"
}
layer {
  name: "fire8/expand3x3"
  type: "Convolution"
  bottom: "fire8/squeeze1x1"
  top: "fire8/expand3x3"
  convolution_param {
    num_output: 256
    pad: 1
    kernel_size: 3
    weight_filler {
      type: "xavier"
    }
  }
}
layer {
  name: "fire8/relu_expand3x3"
  type: "ReLU"
  bottom: "fire8/expand3x3"
  top: "fire8/expand3x3"
}
layer {
  name: "fire8/concat"
  type: "Concat"
  bottom: "fire8/expand1x1"
  bottom: "fire8/expand3x3"
  top: "fire8/concat"
}
layer {
  name: "pool8"
  type: "Pooling"
  bottom: "fire8/concat"
  top: "pool8"
  pooling_param {
    pool: MAX
    kernel_size: 3
    stride: 2
  }
}
layer {
  name: "fire9/squeeze1x1"
  type: "Convolution"
  bottom: "pool8"
  top: "fire9/squeeze1x1"
  convolution_param {
    num_output: 64
    kernel_size: 1
    weight_filler {
      type: "xavier"
    }
  }
}
layer {
  name: "fire9/relu_squeeze1x1"
  type: "ReLU"
  bottom: "fire9/squeeze1x1"
  top: "fire9/squeeze1x1"
}
layer {
  name: "fire9/expand1x1"
  type: "Convolution"
  bottom: "fire9/squeeze1x1"
  top: "fire9/expand1x1"
  convolution_param {
    num_output: 256
    kernel_size: 1
    weight_filler {
      type: "xavier"
    }
  }
}
layer {
  name: "fire9/relu_expand1x1"
  type: "ReLU"
  bottom: "fire9/expand1x1"
  top: "fire9/expand1x1"
}
layer {
  name: "fire9/expand3x3"
  type: "Convolution"
  bottom: "fire9/squeeze1x1"
  top: "fire9/expand3x3"
  convolution_param {
    num_output: 256
    pad: 1
    kernel_size: 3
    weight_filler {
      type: "xavier"
    }
  }
}
layer {
  name: "fire9/relu_expand3x3"
  type: "ReLU"
  bottom: "fire9/expand3x3"
  top: "fire9/expand3x3"
}
layer {
  name: "fire9/concat"
  type: "Concat"
  bottom: "fire9/expand1x1"
  bottom: "fire9/expand3x3"
  top: "fire9/concat"
}
layer {
  name: "drop9"
  type: "Dropout"
  bottom: "fire9/concat"
  top: "fire9/concat"
  dropout_param {
    dropout_ratio: 0.5
  }
}
layer {
  name: "conv10"
  type: "Convolution"
  bottom: "fire9/concat"
  top: "conv10"
  convolution_param {
    num_output: 1000
    pad: 1
    kernel_size: 1
    weight_filler {
      type: "gaussian"
      mean: 0
      std: 0.01
    }
  }
}
layer {
  name: "relu_conv10"
  type: "ReLU"
  bottom: "conv10"
  top: "conv10"
}
layer {
  name: "pool10"
  type: "Pooling"
  bottom: "conv10"
  top: "pool10"
  pooling_param {
    pool: AVE
    global_pooling: true
  }
}
layer {
  name: "loss"
  type: "SoftmaxWithLoss"
  bottom: "pool10"
  bottom: "label"
  top: "loss"
}
layer {
  name: "accuracy"
  type: "Accuracy"
  bottom: "pool10"
  bottom: "label"
  top: "accuracy"
}
I0605 00:51:16.647868 27501 layer_factory.hpp:76] Creating layer data
I0605 00:51:16.648098 27501 net.cpp:106] Creating Layer data
I0605 00:51:16.648115 27501 net.cpp:411] data -> data
I0605 00:51:16.648156 27501 net.cpp:411] data -> label
I0605 00:51:16.649616 27540 db_lmdb.cpp:38] Opened lmdb /local/temporary/imagenet_clc_orig/ilsvrc12_train_shuffle_lmdb
I0605 00:51:16.665992 27501 data_layer.cpp:41] output data size: 64,3,224,224
I0605 00:51:16.749579 27501 net.cpp:150] Setting up data
I0605 00:51:16.749619 27501 net.cpp:157] Top shape: 64 3 224 224 (9633792)
I0605 00:51:16.749625 27501 net.cpp:157] Top shape: 64 (64)
I0605 00:51:16.749630 27501 net.cpp:165] Memory required for data: 38535424
I0605 00:51:16.749653 27501 layer_factory.hpp:76] Creating layer label_data_1_split
I0605 00:51:16.749667 27501 net.cpp:106] Creating Layer label_data_1_split
I0605 00:51:16.749672 27501 net.cpp:454] label_data_1_split <- label
I0605 00:51:16.749689 27501 net.cpp:411] label_data_1_split -> label_data_1_split_0
I0605 00:51:16.749703 27501 net.cpp:411] label_data_1_split -> label_data_1_split_1
I0605 00:51:16.749784 27501 net.cpp:150] Setting up label_data_1_split
I0605 00:51:16.749793 27501 net.cpp:157] Top shape: 64 (64)
I0605 00:51:16.749797 27501 net.cpp:157] Top shape: 64 (64)
I0605 00:51:16.749800 27501 net.cpp:165] Memory required for data: 38535936
I0605 00:51:16.749804 27501 layer_factory.hpp:76] Creating layer conv1
I0605 00:51:16.749819 27501 net.cpp:106] Creating Layer conv1
I0605 00:51:16.749824 27501 net.cpp:454] conv1 <- data
I0605 00:51:16.749828 27501 net.cpp:411] conv1 -> conv1
I0605 00:51:16.776239 27541 blocking_queue.cpp:50] Waiting for data
I0605 00:51:16.871633 27501 net.cpp:150] Setting up conv1
I0605 00:51:16.871665 27501 net.cpp:157] Top shape: 64 96 109 109 (72996864)
I0605 00:51:16.871670 27501 net.cpp:165] Memory required for data: 330523392
I0605 00:51:16.871687 27501 layer_factory.hpp:76] Creating layer relu_conv1
I0605 00:51:16.871712 27501 net.cpp:106] Creating Layer relu_conv1
I0605 00:51:16.871716 27501 net.cpp:454] relu_conv1 <- conv1
I0605 00:51:16.871723 27501 net.cpp:397] relu_conv1 -> conv1 (in-place)
I0605 00:51:16.871917 27501 net.cpp:150] Setting up relu_conv1
I0605 00:51:16.871927 27501 net.cpp:157] Top shape: 64 96 109 109 (72996864)
I0605 00:51:16.871930 27501 net.cpp:165] Memory required for data: 622510848
I0605 00:51:16.871934 27501 layer_factory.hpp:76] Creating layer pool1
I0605 00:51:16.871942 27501 net.cpp:106] Creating Layer pool1
I0605 00:51:16.871948 27501 net.cpp:454] pool1 <- conv1
I0605 00:51:16.871954 27501 net.cpp:411] pool1 -> pool1
I0605 00:51:16.872292 27501 net.cpp:150] Setting up pool1
I0605 00:51:16.872303 27501 net.cpp:157] Top shape: 64 96 54 54 (17915904)
I0605 00:51:16.872318 27501 net.cpp:165] Memory required for data: 694174464
I0605 00:51:16.872320 27501 layer_factory.hpp:76] Creating layer fire2/squeeze1x1
I0605 00:51:16.872331 27501 net.cpp:106] Creating Layer fire2/squeeze1x1
I0605 00:51:16.872361 27501 net.cpp:454] fire2/squeeze1x1 <- pool1
I0605 00:51:16.872367 27501 net.cpp:411] fire2/squeeze1x1 -> fire2/squeeze1x1
I0605 00:51:16.873888 27501 net.cpp:150] Setting up fire2/squeeze1x1
I0605 00:51:16.873901 27501 net.cpp:157] Top shape: 64 16 54 54 (2985984)
I0605 00:51:16.873916 27501 net.cpp:165] Memory required for data: 706118400
I0605 00:51:16.873927 27501 layer_factory.hpp:76] Creating layer fire2/relu_squeeze1x1
I0605 00:51:16.873934 27501 net.cpp:106] Creating Layer fire2/relu_squeeze1x1
I0605 00:51:16.873936 27501 net.cpp:454] fire2/relu_squeeze1x1 <- fire2/squeeze1x1
I0605 00:51:16.873944 27501 net.cpp:397] fire2/relu_squeeze1x1 -> fire2/squeeze1x1 (in-place)
I0605 00:51:16.874116 27501 net.cpp:150] Setting up fire2/relu_squeeze1x1
I0605 00:51:16.874125 27501 net.cpp:157] Top shape: 64 16 54 54 (2985984)
I0605 00:51:16.874128 27501 net.cpp:165] Memory required for data: 718062336
I0605 00:51:16.874131 27501 layer_factory.hpp:76] Creating layer fire2/squeeze1x1_fire2/relu_squeeze1x1_0_split
I0605 00:51:16.874140 27501 net.cpp:106] Creating Layer fire2/squeeze1x1_fire2/relu_squeeze1x1_0_split
I0605 00:51:16.874143 27501 net.cpp:454] fire2/squeeze1x1_fire2/relu_squeeze1x1_0_split <- fire2/squeeze1x1
I0605 00:51:16.874150 27501 net.cpp:411] fire2/squeeze1x1_fire2/relu_squeeze1x1_0_split -> fire2/squeeze1x1_fire2/relu_squeeze1x1_0_split_0
I0605 00:51:16.874157 27501 net.cpp:411] fire2/squeeze1x1_fire2/relu_squeeze1x1_0_split -> fire2/squeeze1x1_fire2/relu_squeeze1x1_0_split_1
I0605 00:51:16.874196 27501 net.cpp:150] Setting up fire2/squeeze1x1_fire2/relu_squeeze1x1_0_split
I0605 00:51:16.874203 27501 net.cpp:157] Top shape: 64 16 54 54 (2985984)
I0605 00:51:16.874208 27501 net.cpp:157] Top shape: 64 16 54 54 (2985984)
I0605 00:51:16.874212 27501 net.cpp:165] Memory required for data: 741950208
I0605 00:51:16.874214 27501 layer_factory.hpp:76] Creating layer fire2/expand1x1
I0605 00:51:16.874222 27501 net.cpp:106] Creating Layer fire2/expand1x1
I0605 00:51:16.874224 27501 net.cpp:454] fire2/expand1x1 <- fire2/squeeze1x1_fire2/relu_squeeze1x1_0_split_0
I0605 00:51:16.874231 27501 net.cpp:411] fire2/expand1x1 -> fire2/expand1x1
I0605 00:51:16.875713 27501 net.cpp:150] Setting up fire2/expand1x1
I0605 00:51:16.875737 27501 net.cpp:157] Top shape: 64 64 54 54 (11943936)
I0605 00:51:16.875741 27501 net.cpp:165] Memory required for data: 789725952
I0605 00:51:16.875751 27501 layer_factory.hpp:76] Creating layer fire2/relu_expand1x1
I0605 00:51:16.875758 27501 net.cpp:106] Creating Layer fire2/relu_expand1x1
I0605 00:51:16.875763 27501 net.cpp:454] fire2/relu_expand1x1 <- fire2/expand1x1
I0605 00:51:16.875768 27501 net.cpp:397] fire2/relu_expand1x1 -> fire2/expand1x1 (in-place)
I0605 00:51:16.876073 27501 net.cpp:150] Setting up fire2/relu_expand1x1
I0605 00:51:16.876083 27501 net.cpp:157] Top shape: 64 64 54 54 (11943936)
I0605 00:51:16.876088 27501 net.cpp:165] Memory required for data: 837501696
I0605 00:51:16.876092 27501 layer_factory.hpp:76] Creating layer fire2/expand3x3
I0605 00:51:16.876101 27501 net.cpp:106] Creating Layer fire2/expand3x3
I0605 00:51:16.876106 27501 net.cpp:454] fire2/expand3x3 <- fire2/squeeze1x1_fire2/relu_squeeze1x1_0_split_1
I0605 00:51:16.876111 27501 net.cpp:411] fire2/expand3x3 -> fire2/expand3x3
I0605 00:51:16.877032 27501 net.cpp:150] Setting up fire2/expand3x3
I0605 00:51:16.877058 27501 net.cpp:157] Top shape: 64 64 54 54 (11943936)
I0605 00:51:16.877061 27501 net.cpp:165] Memory required for data: 885277440
I0605 00:51:16.877068 27501 layer_factory.hpp:76] Creating layer fire2/relu_expand3x3
I0605 00:51:16.877074 27501 net.cpp:106] Creating Layer fire2/relu_expand3x3
I0605 00:51:16.877076 27501 net.cpp:454] fire2/relu_expand3x3 <- fire2/expand3x3
I0605 00:51:16.877081 27501 net.cpp:397] fire2/relu_expand3x3 -> fire2/expand3x3 (in-place)
I0605 00:51:16.877377 27501 net.cpp:150] Setting up fire2/relu_expand3x3
I0605 00:51:16.877388 27501 net.cpp:157] Top shape: 64 64 54 54 (11943936)
I0605 00:51:16.877393 27501 net.cpp:165] Memory required for data: 933053184
I0605 00:51:16.877420 27501 layer_factory.hpp:76] Creating layer fire2/concat
I0605 00:51:16.877426 27501 net.cpp:106] Creating Layer fire2/concat
I0605 00:51:16.877429 27501 net.cpp:454] fire2/concat <- fire2/expand1x1
I0605 00:51:16.877434 27501 net.cpp:454] fire2/concat <- fire2/expand3x3
I0605 00:51:16.877439 27501 net.cpp:411] fire2/concat -> fire2/concat
I0605 00:51:16.877470 27501 net.cpp:150] Setting up fire2/concat
I0605 00:51:16.877475 27501 net.cpp:157] Top shape: 64 128 54 54 (23887872)
I0605 00:51:16.877480 27501 net.cpp:165] Memory required for data: 1028604672
I0605 00:51:16.877482 27501 layer_factory.hpp:76] Creating layer fire3/squeeze1x1
I0605 00:51:16.877490 27501 net.cpp:106] Creating Layer fire3/squeeze1x1
I0605 00:51:16.877495 27501 net.cpp:454] fire3/squeeze1x1 <- fire2/concat
I0605 00:51:16.877501 27501 net.cpp:411] fire3/squeeze1x1 -> fire3/squeeze1x1
I0605 00:51:16.878453 27501 net.cpp:150] Setting up fire3/squeeze1x1
I0605 00:51:16.878466 27501 net.cpp:157] Top shape: 64 16 54 54 (2985984)
I0605 00:51:16.878470 27501 net.cpp:165] Memory required for data: 1040548608
I0605 00:51:16.878479 27501 layer_factory.hpp:76] Creating layer fire3/relu_squeeze1x1
I0605 00:51:16.878486 27501 net.cpp:106] Creating Layer fire3/relu_squeeze1x1
I0605 00:51:16.878489 27501 net.cpp:454] fire3/relu_squeeze1x1 <- fire3/squeeze1x1
I0605 00:51:16.878496 27501 net.cpp:397] fire3/relu_squeeze1x1 -> fire3/squeeze1x1 (in-place)
I0605 00:51:16.878662 27501 net.cpp:150] Setting up fire3/relu_squeeze1x1
I0605 00:51:16.878669 27501 net.cpp:157] Top shape: 64 16 54 54 (2985984)
I0605 00:51:16.878674 27501 net.cpp:165] Memory required for data: 1052492544
I0605 00:51:16.878677 27501 layer_factory.hpp:76] Creating layer fire3/squeeze1x1_fire3/relu_squeeze1x1_0_split
I0605 00:51:16.878695 27501 net.cpp:106] Creating Layer fire3/squeeze1x1_fire3/relu_squeeze1x1_0_split
I0605 00:51:16.878698 27501 net.cpp:454] fire3/squeeze1x1_fire3/relu_squeeze1x1_0_split <- fire3/squeeze1x1
I0605 00:51:16.878703 27501 net.cpp:411] fire3/squeeze1x1_fire3/relu_squeeze1x1_0_split -> fire3/squeeze1x1_fire3/relu_squeeze1x1_0_split_0
I0605 00:51:16.878710 27501 net.cpp:411] fire3/squeeze1x1_fire3/relu_squeeze1x1_0_split -> fire3/squeeze1x1_fire3/relu_squeeze1x1_0_split_1
I0605 00:51:16.878751 27501 net.cpp:150] Setting up fire3/squeeze1x1_fire3/relu_squeeze1x1_0_split
I0605 00:51:16.878757 27501 net.cpp:157] Top shape: 64 16 54 54 (2985984)
I0605 00:51:16.878762 27501 net.cpp:157] Top shape: 64 16 54 54 (2985984)
I0605 00:51:16.878764 27501 net.cpp:165] Memory required for data: 1076380416
I0605 00:51:16.878768 27501 layer_factory.hpp:76] Creating layer fire3/expand1x1
I0605 00:51:16.878777 27501 net.cpp:106] Creating Layer fire3/expand1x1
I0605 00:51:16.878782 27501 net.cpp:454] fire3/expand1x1 <- fire3/squeeze1x1_fire3/relu_squeeze1x1_0_split_0
I0605 00:51:16.878788 27501 net.cpp:411] fire3/expand1x1 -> fire3/expand1x1
I0605 00:51:16.879748 27501 net.cpp:150] Setting up fire3/expand1x1
I0605 00:51:16.879760 27501 net.cpp:157] Top shape: 64 64 54 54 (11943936)
I0605 00:51:16.879765 27501 net.cpp:165] Memory required for data: 1124156160
I0605 00:51:16.879771 27501 layer_factory.hpp:76] Creating layer fire3/relu_expand1x1
I0605 00:51:16.879791 27501 net.cpp:106] Creating Layer fire3/relu_expand1x1
I0605 00:51:16.879794 27501 net.cpp:454] fire3/relu_expand1x1 <- fire3/expand1x1
I0605 00:51:16.879799 27501 net.cpp:397] fire3/relu_expand1x1 -> fire3/expand1x1 (in-place)
I0605 00:51:16.880105 27501 net.cpp:150] Setting up fire3/relu_expand1x1
I0605 00:51:16.880115 27501 net.cpp:157] Top shape: 64 64 54 54 (11943936)
I0605 00:51:16.880130 27501 net.cpp:165] Memory required for data: 1171931904
I0605 00:51:16.880132 27501 layer_factory.hpp:76] Creating layer fire3/expand3x3
I0605 00:51:16.880142 27501 net.cpp:106] Creating Layer fire3/expand3x3
I0605 00:51:16.880146 27501 net.cpp:454] fire3/expand3x3 <- fire3/squeeze1x1_fire3/relu_squeeze1x1_0_split_1
I0605 00:51:16.880151 27501 net.cpp:411] fire3/expand3x3 -> fire3/expand3x3
I0605 00:51:16.881072 27501 net.cpp:150] Setting up fire3/expand3x3
I0605 00:51:16.881094 27501 net.cpp:157] Top shape: 64 64 54 54 (11943936)
I0605 00:51:16.881098 27501 net.cpp:165] Memory required for data: 1219707648
I0605 00:51:16.881104 27501 layer_factory.hpp:76] Creating layer fire3/relu_expand3x3
I0605 00:51:16.881111 27501 net.cpp:106] Creating Layer fire3/relu_expand3x3
I0605 00:51:16.881114 27501 net.cpp:454] fire3/relu_expand3x3 <- fire3/expand3x3
I0605 00:51:16.881121 27501 net.cpp:397] fire3/relu_expand3x3 -> fire3/expand3x3 (in-place)
I0605 00:51:16.881429 27501 net.cpp:150] Setting up fire3/relu_expand3x3
I0605 00:51:16.881439 27501 net.cpp:157] Top shape: 64 64 54 54 (11943936)
I0605 00:51:16.881444 27501 net.cpp:165] Memory required for data: 1267483392
I0605 00:51:16.881448 27501 layer_factory.hpp:76] Creating layer fire3/concat
I0605 00:51:16.881464 27501 net.cpp:106] Creating Layer fire3/concat
I0605 00:51:16.881467 27501 net.cpp:454] fire3/concat <- fire3/expand1x1
I0605 00:51:16.881471 27501 net.cpp:454] fire3/concat <- fire3/expand3x3
I0605 00:51:16.881477 27501 net.cpp:411] fire3/concat -> fire3/concat
I0605 00:51:16.881505 27501 net.cpp:150] Setting up fire3/concat
I0605 00:51:16.881511 27501 net.cpp:157] Top shape: 64 128 54 54 (23887872)
I0605 00:51:16.881515 27501 net.cpp:165] Memory required for data: 1363034880
I0605 00:51:16.881517 27501 layer_factory.hpp:76] Creating layer fire4/squeeze1x1
I0605 00:51:16.881525 27501 net.cpp:106] Creating Layer fire4/squeeze1x1
I0605 00:51:16.881530 27501 net.cpp:454] fire4/squeeze1x1 <- fire3/concat
I0605 00:51:16.881536 27501 net.cpp:411] fire4/squeeze1x1 -> fire4/squeeze1x1
I0605 00:51:16.882614 27501 net.cpp:150] Setting up fire4/squeeze1x1
I0605 00:51:16.882625 27501 net.cpp:157] Top shape: 64 32 54 54 (5971968)
I0605 00:51:16.882630 27501 net.cpp:165] Memory required for data: 1386922752
I0605 00:51:16.882648 27501 layer_factory.hpp:76] Creating layer fire4/relu_squeeze1x1
I0605 00:51:16.882654 27501 net.cpp:106] Creating Layer fire4/relu_squeeze1x1
I0605 00:51:16.882658 27501 net.cpp:454] fire4/relu_squeeze1x1 <- fire4/squeeze1x1
I0605 00:51:16.882663 27501 net.cpp:397] fire4/relu_squeeze1x1 -> fire4/squeeze1x1 (in-place)
I0605 00:51:16.882833 27501 net.cpp:150] Setting up fire4/relu_squeeze1x1
I0605 00:51:16.882840 27501 net.cpp:157] Top shape: 64 32 54 54 (5971968)
I0605 00:51:16.882844 27501 net.cpp:165] Memory required for data: 1410810624
I0605 00:51:16.882848 27501 layer_factory.hpp:76] Creating layer fire4/squeeze1x1_fire4/relu_squeeze1x1_0_split
I0605 00:51:16.882854 27501 net.cpp:106] Creating Layer fire4/squeeze1x1_fire4/relu_squeeze1x1_0_split
I0605 00:51:16.882859 27501 net.cpp:454] fire4/squeeze1x1_fire4/relu_squeeze1x1_0_split <- fire4/squeeze1x1
I0605 00:51:16.882863 27501 net.cpp:411] fire4/squeeze1x1_fire4/relu_squeeze1x1_0_split -> fire4/squeeze1x1_fire4/relu_squeeze1x1_0_split_0
I0605 00:51:16.882871 27501 net.cpp:411] fire4/squeeze1x1_fire4/relu_squeeze1x1_0_split -> fire4/squeeze1x1_fire4/relu_squeeze1x1_0_split_1
I0605 00:51:16.882912 27501 net.cpp:150] Setting up fire4/squeeze1x1_fire4/relu_squeeze1x1_0_split
I0605 00:51:16.882918 27501 net.cpp:157] Top shape: 64 32 54 54 (5971968)
I0605 00:51:16.882923 27501 net.cpp:157] Top shape: 64 32 54 54 (5971968)
I0605 00:51:16.882926 27501 net.cpp:165] Memory required for data: 1458586368
I0605 00:51:16.882930 27501 layer_factory.hpp:76] Creating layer fire4/expand1x1
I0605 00:51:16.882937 27501 net.cpp:106] Creating Layer fire4/expand1x1
I0605 00:51:16.882941 27501 net.cpp:454] fire4/expand1x1 <- fire4/squeeze1x1_fire4/relu_squeeze1x1_0_split_0
I0605 00:51:16.882946 27501 net.cpp:411] fire4/expand1x1 -> fire4/expand1x1
I0605 00:51:16.883900 27501 net.cpp:150] Setting up fire4/expand1x1
I0605 00:51:16.883911 27501 net.cpp:157] Top shape: 64 128 54 54 (23887872)
I0605 00:51:16.883916 27501 net.cpp:165] Memory required for data: 1554137856
I0605 00:51:16.883925 27501 layer_factory.hpp:76] Creating layer fire4/relu_expand1x1
I0605 00:51:16.883934 27501 net.cpp:106] Creating Layer fire4/relu_expand1x1
I0605 00:51:16.883960 27501 net.cpp:454] fire4/relu_expand1x1 <- fire4/expand1x1
I0605 00:51:16.883966 27501 net.cpp:397] fire4/relu_expand1x1 -> fire4/expand1x1 (in-place)
I0605 00:51:16.884260 27501 net.cpp:150] Setting up fire4/relu_expand1x1
I0605 00:51:16.884271 27501 net.cpp:157] Top shape: 64 128 54 54 (23887872)
I0605 00:51:16.884274 27501 net.cpp:165] Memory required for data: 1649689344
I0605 00:51:16.884279 27501 layer_factory.hpp:76] Creating layer fire4/expand3x3
I0605 00:51:16.884289 27501 net.cpp:106] Creating Layer fire4/expand3x3
I0605 00:51:16.884294 27501 net.cpp:454] fire4/expand3x3 <- fire4/squeeze1x1_fire4/relu_squeeze1x1_0_split_1
I0605 00:51:16.884299 27501 net.cpp:411] fire4/expand3x3 -> fire4/expand3x3
I0605 00:51:16.885807 27501 net.cpp:150] Setting up fire4/expand3x3
I0605 00:51:16.885819 27501 net.cpp:157] Top shape: 64 128 54 54 (23887872)
I0605 00:51:16.885823 27501 net.cpp:165] Memory required for data: 1745240832
I0605 00:51:16.885829 27501 layer_factory.hpp:76] Creating layer fire4/relu_expand3x3
I0605 00:51:16.885838 27501 net.cpp:106] Creating Layer fire4/relu_expand3x3
I0605 00:51:16.885840 27501 net.cpp:454] fire4/relu_expand3x3 <- fire4/expand3x3
I0605 00:51:16.885848 27501 net.cpp:397] fire4/relu_expand3x3 -> fire4/expand3x3 (in-place)
I0605 00:51:16.886144 27501 net.cpp:150] Setting up fire4/relu_expand3x3
I0605 00:51:16.886154 27501 net.cpp:157] Top shape: 64 128 54 54 (23887872)
I0605 00:51:16.886168 27501 net.cpp:165] Memory required for data: 1840792320
I0605 00:51:16.886171 27501 layer_factory.hpp:76] Creating layer fire4/concat
I0605 00:51:16.886178 27501 net.cpp:106] Creating Layer fire4/concat
I0605 00:51:16.886180 27501 net.cpp:454] fire4/concat <- fire4/expand1x1
I0605 00:51:16.886185 27501 net.cpp:454] fire4/concat <- fire4/expand3x3
I0605 00:51:16.886191 27501 net.cpp:411] fire4/concat -> fire4/concat
I0605 00:51:16.886222 27501 net.cpp:150] Setting up fire4/concat
I0605 00:51:16.886229 27501 net.cpp:157] Top shape: 64 256 54 54 (47775744)
I0605 00:51:16.886232 27501 net.cpp:165] Memory required for data: 2031895296
I0605 00:51:16.886236 27501 layer_factory.hpp:76] Creating layer pool4
I0605 00:51:16.886242 27501 net.cpp:106] Creating Layer pool4
I0605 00:51:16.886245 27501 net.cpp:454] pool4 <- fire4/concat
I0605 00:51:16.886250 27501 net.cpp:411] pool4 -> pool4
I0605 00:51:16.886564 27501 net.cpp:150] Setting up pool4
I0605 00:51:16.886574 27501 net.cpp:157] Top shape: 64 256 27 27 (11943936)
I0605 00:51:16.886577 27501 net.cpp:165] Memory required for data: 2079671040
I0605 00:51:16.886580 27501 layer_factory.hpp:76] Creating layer fire5/squeeze1x1
I0605 00:51:16.886590 27501 net.cpp:106] Creating Layer fire5/squeeze1x1
I0605 00:51:16.886595 27501 net.cpp:454] fire5/squeeze1x1 <- pool4
I0605 00:51:16.886600 27501 net.cpp:411] fire5/squeeze1x1 -> fire5/squeeze1x1
I0605 00:51:16.887483 27501 net.cpp:150] Setting up fire5/squeeze1x1
I0605 00:51:16.887495 27501 net.cpp:157] Top shape: 64 32 27 27 (1492992)
I0605 00:51:16.887501 27501 net.cpp:165] Memory required for data: 2085643008
I0605 00:51:16.887506 27501 layer_factory.hpp:76] Creating layer fire5/relu_squeeze1x1
I0605 00:51:16.887513 27501 net.cpp:106] Creating Layer fire5/relu_squeeze1x1
I0605 00:51:16.887517 27501 net.cpp:454] fire5/relu_squeeze1x1 <- fire5/squeeze1x1
I0605 00:51:16.887523 27501 net.cpp:397] fire5/relu_squeeze1x1 -> fire5/squeeze1x1 (in-place)
I0605 00:51:16.887802 27501 net.cpp:150] Setting up fire5/relu_squeeze1x1
I0605 00:51:16.887812 27501 net.cpp:157] Top shape: 64 32 27 27 (1492992)
I0605 00:51:16.887817 27501 net.cpp:165] Memory required for data: 2091614976
I0605 00:51:16.887820 27501 layer_factory.hpp:76] Creating layer fire5/squeeze1x1_fire5/relu_squeeze1x1_0_split
I0605 00:51:16.887840 27501 net.cpp:106] Creating Layer fire5/squeeze1x1_fire5/relu_squeeze1x1_0_split
I0605 00:51:16.887843 27501 net.cpp:454] fire5/squeeze1x1_fire5/relu_squeeze1x1_0_split <- fire5/squeeze1x1
I0605 00:51:16.887850 27501 net.cpp:411] fire5/squeeze1x1_fire5/relu_squeeze1x1_0_split -> fire5/squeeze1x1_fire5/relu_squeeze1x1_0_split_0
I0605 00:51:16.887869 27501 net.cpp:411] fire5/squeeze1x1_fire5/relu_squeeze1x1_0_split -> fire5/squeeze1x1_fire5/relu_squeeze1x1_0_split_1
I0605 00:51:16.887915 27501 net.cpp:150] Setting up fire5/squeeze1x1_fire5/relu_squeeze1x1_0_split
I0605 00:51:16.887923 27501 net.cpp:157] Top shape: 64 32 27 27 (1492992)
I0605 00:51:16.887928 27501 net.cpp:157] Top shape: 64 32 27 27 (1492992)
I0605 00:51:16.887930 27501 net.cpp:165] Memory required for data: 2103558912
I0605 00:51:16.887933 27501 layer_factory.hpp:76] Creating layer fire5/expand1x1
I0605 00:51:16.887943 27501 net.cpp:106] Creating Layer fire5/expand1x1
I0605 00:51:16.887946 27501 net.cpp:454] fire5/expand1x1 <- fire5/squeeze1x1_fire5/relu_squeeze1x1_0_split_0
I0605 00:51:16.887951 27501 net.cpp:411] fire5/expand1x1 -> fire5/expand1x1
I0605 00:51:16.888962 27501 net.cpp:150] Setting up fire5/expand1x1
I0605 00:51:16.888975 27501 net.cpp:157] Top shape: 64 128 27 27 (5971968)
I0605 00:51:16.888980 27501 net.cpp:165] Memory required for data: 2127446784
I0605 00:51:16.888988 27501 layer_factory.hpp:76] Creating layer fire5/relu_expand1x1
I0605 00:51:16.888994 27501 net.cpp:106] Creating Layer fire5/relu_expand1x1
I0605 00:51:16.888998 27501 net.cpp:454] fire5/relu_expand1x1 <- fire5/expand1x1
I0605 00:51:16.889003 27501 net.cpp:397] fire5/relu_expand1x1 -> fire5/expand1x1 (in-place)
I0605 00:51:16.889183 27501 net.cpp:150] Setting up fire5/relu_expand1x1
I0605 00:51:16.889190 27501 net.cpp:157] Top shape: 64 128 27 27 (5971968)
I0605 00:51:16.889194 27501 net.cpp:165] Memory required for data: 2151334656
I0605 00:51:16.889199 27501 layer_factory.hpp:76] Creating layer fire5/expand3x3
I0605 00:51:16.889206 27501 net.cpp:106] Creating Layer fire5/expand3x3
I0605 00:51:16.889214 27501 net.cpp:454] fire5/expand3x3 <- fire5/squeeze1x1_fire5/relu_squeeze1x1_0_split_1
I0605 00:51:16.889220 27501 net.cpp:411] fire5/expand3x3 -> fire5/expand3x3
I0605 00:51:16.890357 27501 net.cpp:150] Setting up fire5/expand3x3
I0605 00:51:16.890368 27501 net.cpp:157] Top shape: 64 128 27 27 (5971968)
I0605 00:51:16.890372 27501 net.cpp:165] Memory required for data: 2175222528
I0605 00:51:16.890378 27501 layer_factory.hpp:76] Creating layer fire5/relu_expand3x3
I0605 00:51:16.890385 27501 net.cpp:106] Creating Layer fire5/relu_expand3x3
I0605 00:51:16.890389 27501 net.cpp:454] fire5/relu_expand3x3 <- fire5/expand3x3
I0605 00:51:16.890394 27501 net.cpp:397] fire5/relu_expand3x3 -> fire5/expand3x3 (in-place)
I0605 00:51:16.890678 27501 net.cpp:150] Setting up fire5/relu_expand3x3
I0605 00:51:16.890689 27501 net.cpp:157] Top shape: 64 128 27 27 (5971968)
I0605 00:51:16.890693 27501 net.cpp:165] Memory required for data: 2199110400
I0605 00:51:16.890697 27501 layer_factory.hpp:76] Creating layer fire5/concat
I0605 00:51:16.890703 27501 net.cpp:106] Creating Layer fire5/concat
I0605 00:51:16.890707 27501 net.cpp:454] fire5/concat <- fire5/expand1x1
I0605 00:51:16.890712 27501 net.cpp:454] fire5/concat <- fire5/expand3x3
I0605 00:51:16.890718 27501 net.cpp:411] fire5/concat -> fire5/concat
I0605 00:51:16.890746 27501 net.cpp:150] Setting up fire5/concat
I0605 00:51:16.890753 27501 net.cpp:157] Top shape: 64 256 27 27 (11943936)
I0605 00:51:16.890758 27501 net.cpp:165] Memory required for data: 2246886144
I0605 00:51:16.890760 27501 layer_factory.hpp:76] Creating layer fire6/squeeze1x1
I0605 00:51:16.890769 27501 net.cpp:106] Creating Layer fire6/squeeze1x1
I0605 00:51:16.890771 27501 net.cpp:454] fire6/squeeze1x1 <- fire5/concat
I0605 00:51:16.890789 27501 net.cpp:411] fire6/squeeze1x1 -> fire6/squeeze1x1
I0605 00:51:16.891715 27501 net.cpp:150] Setting up fire6/squeeze1x1
I0605 00:51:16.891727 27501 net.cpp:157] Top shape: 64 48 27 27 (2239488)
I0605 00:51:16.891742 27501 net.cpp:165] Memory required for data: 2255844096
I0605 00:51:16.891749 27501 layer_factory.hpp:76] Creating layer fire6/relu_squeeze1x1
I0605 00:51:16.891755 27501 net.cpp:106] Creating Layer fire6/relu_squeeze1x1
I0605 00:51:16.891758 27501 net.cpp:454] fire6/relu_squeeze1x1 <- fire6/squeeze1x1
I0605 00:51:16.891777 27501 net.cpp:397] fire6/relu_squeeze1x1 -> fire6/squeeze1x1 (in-place)
I0605 00:51:16.892104 27501 net.cpp:150] Setting up fire6/relu_squeeze1x1
I0605 00:51:16.892114 27501 net.cpp:157] Top shape: 64 48 27 27 (2239488)
I0605 00:51:16.892119 27501 net.cpp:165] Memory required for data: 2264802048
I0605 00:51:16.892123 27501 layer_factory.hpp:76] Creating layer fire6/squeeze1x1_fire6/relu_squeeze1x1_0_split
I0605 00:51:16.892129 27501 net.cpp:106] Creating Layer fire6/squeeze1x1_fire6/relu_squeeze1x1_0_split
I0605 00:51:16.892133 27501 net.cpp:454] fire6/squeeze1x1_fire6/relu_squeeze1x1_0_split <- fire6/squeeze1x1
I0605 00:51:16.892138 27501 net.cpp:411] fire6/squeeze1x1_fire6/relu_squeeze1x1_0_split -> fire6/squeeze1x1_fire6/relu_squeeze1x1_0_split_0
I0605 00:51:16.892148 27501 net.cpp:411] fire6/squeeze1x1_fire6/relu_squeeze1x1_0_split -> fire6/squeeze1x1_fire6/relu_squeeze1x1_0_split_1
I0605 00:51:16.892187 27501 net.cpp:150] Setting up fire6/squeeze1x1_fire6/relu_squeeze1x1_0_split
I0605 00:51:16.892195 27501 net.cpp:157] Top shape: 64 48 27 27 (2239488)
I0605 00:51:16.892199 27501 net.cpp:157] Top shape: 64 48 27 27 (2239488)
I0605 00:51:16.892202 27501 net.cpp:165] Memory required for data: 2282717952
I0605 00:51:16.892206 27501 layer_factory.hpp:76] Creating layer fire6/expand1x1
I0605 00:51:16.892225 27501 net.cpp:106] Creating Layer fire6/expand1x1
I0605 00:51:16.892228 27501 net.cpp:454] fire6/expand1x1 <- fire6/squeeze1x1_fire6/relu_squeeze1x1_0_split_0
I0605 00:51:16.892233 27501 net.cpp:411] fire6/expand1x1 -> fire6/expand1x1
I0605 00:51:16.893261 27501 net.cpp:150] Setting up fire6/expand1x1
I0605 00:51:16.893272 27501 net.cpp:157] Top shape: 64 192 27 27 (8957952)
I0605 00:51:16.893288 27501 net.cpp:165] Memory required for data: 2318549760
I0605 00:51:16.893295 27501 layer_factory.hpp:76] Creating layer fire6/relu_expand1x1
I0605 00:51:16.893302 27501 net.cpp:106] Creating Layer fire6/relu_expand1x1
I0605 00:51:16.893306 27501 net.cpp:454] fire6/relu_expand1x1 <- fire6/expand1x1
I0605 00:51:16.893311 27501 net.cpp:397] fire6/relu_expand1x1 -> fire6/expand1x1 (in-place)
I0605 00:51:16.893615 27501 net.cpp:150] Setting up fire6/relu_expand1x1
I0605 00:51:16.893626 27501 net.cpp:157] Top shape: 64 192 27 27 (8957952)
I0605 00:51:16.893630 27501 net.cpp:165] Memory required for data: 2354381568
I0605 00:51:16.893635 27501 layer_factory.hpp:76] Creating layer fire6/expand3x3
I0605 00:51:16.893656 27501 net.cpp:106] Creating Layer fire6/expand3x3
I0605 00:51:16.893659 27501 net.cpp:454] fire6/expand3x3 <- fire6/squeeze1x1_fire6/relu_squeeze1x1_0_split_1
I0605 00:51:16.893666 27501 net.cpp:411] fire6/expand3x3 -> fire6/expand3x3
I0605 00:51:16.895645 27501 net.cpp:150] Setting up fire6/expand3x3
I0605 00:51:16.895658 27501 net.cpp:157] Top shape: 64 192 27 27 (8957952)
I0605 00:51:16.895661 27501 net.cpp:165] Memory required for data: 2390213376
I0605 00:51:16.895680 27501 layer_factory.hpp:76] Creating layer fire6/relu_expand3x3
I0605 00:51:16.895689 27501 net.cpp:106] Creating Layer fire6/relu_expand3x3
I0605 00:51:16.895694 27501 net.cpp:454] fire6/relu_expand3x3 <- fire6/expand3x3
I0605 00:51:16.895699 27501 net.cpp:397] fire6/relu_expand3x3 -> fire6/expand3x3 (in-place)
I0605 00:51:16.896000 27501 net.cpp:150] Setting up fire6/relu_expand3x3
I0605 00:51:16.896011 27501 net.cpp:157] Top shape: 64 192 27 27 (8957952)
I0605 00:51:16.896015 27501 net.cpp:165] Memory required for data: 2426045184
I0605 00:51:16.896018 27501 layer_factory.hpp:76] Creating layer fire6/concat
I0605 00:51:16.896028 27501 net.cpp:106] Creating Layer fire6/concat
I0605 00:51:16.896031 27501 net.cpp:454] fire6/concat <- fire6/expand1x1
I0605 00:51:16.896035 27501 net.cpp:454] fire6/concat <- fire6/expand3x3
I0605 00:51:16.896042 27501 net.cpp:411] fire6/concat -> fire6/concat
I0605 00:51:16.896072 27501 net.cpp:150] Setting up fire6/concat
I0605 00:51:16.896078 27501 net.cpp:157] Top shape: 64 384 27 27 (17915904)
I0605 00:51:16.896082 27501 net.cpp:165] Memory required for data: 2497708800
I0605 00:51:16.896085 27501 layer_factory.hpp:76] Creating layer fire7/squeeze1x1
I0605 00:51:16.896106 27501 net.cpp:106] Creating Layer fire7/squeeze1x1
I0605 00:51:16.896109 27501 net.cpp:454] fire7/squeeze1x1 <- fire6/concat
I0605 00:51:16.896116 27501 net.cpp:411] fire7/squeeze1x1 -> fire7/squeeze1x1
I0605 00:51:16.897114 27501 net.cpp:150] Setting up fire7/squeeze1x1
I0605 00:51:16.897125 27501 net.cpp:157] Top shape: 64 48 27 27 (2239488)
I0605 00:51:16.897130 27501 net.cpp:165] Memory required for data: 2506666752
I0605 00:51:16.897140 27501 layer_factory.hpp:76] Creating layer fire7/relu_squeeze1x1
I0605 00:51:16.897147 27501 net.cpp:106] Creating Layer fire7/relu_squeeze1x1
I0605 00:51:16.897152 27501 net.cpp:454] fire7/relu_squeeze1x1 <- fire7/squeeze1x1
I0605 00:51:16.897157 27501 net.cpp:397] fire7/relu_squeeze1x1 -> fire7/squeeze1x1 (in-place)
I0605 00:51:16.897457 27501 net.cpp:150] Setting up fire7/relu_squeeze1x1
I0605 00:51:16.897469 27501 net.cpp:157] Top shape: 64 48 27 27 (2239488)
I0605 00:51:16.897472 27501 net.cpp:165] Memory required for data: 2515624704
I0605 00:51:16.897476 27501 layer_factory.hpp:76] Creating layer fire7/squeeze1x1_fire7/relu_squeeze1x1_0_split
I0605 00:51:16.897485 27501 net.cpp:106] Creating Layer fire7/squeeze1x1_fire7/relu_squeeze1x1_0_split
I0605 00:51:16.897488 27501 net.cpp:454] fire7/squeeze1x1_fire7/relu_squeeze1x1_0_split <- fire7/squeeze1x1
I0605 00:51:16.897493 27501 net.cpp:411] fire7/squeeze1x1_fire7/relu_squeeze1x1_0_split -> fire7/squeeze1x1_fire7/relu_squeeze1x1_0_split_0
I0605 00:51:16.897501 27501 net.cpp:411] fire7/squeeze1x1_fire7/relu_squeeze1x1_0_split -> fire7/squeeze1x1_fire7/relu_squeeze1x1_0_split_1
I0605 00:51:16.897547 27501 net.cpp:150] Setting up fire7/squeeze1x1_fire7/relu_squeeze1x1_0_split
I0605 00:51:16.897553 27501 net.cpp:157] Top shape: 64 48 27 27 (2239488)
I0605 00:51:16.897558 27501 net.cpp:157] Top shape: 64 48 27 27 (2239488)
I0605 00:51:16.897562 27501 net.cpp:165] Memory required for data: 2533540608
I0605 00:51:16.897564 27501 layer_factory.hpp:76] Creating layer fire7/expand1x1
I0605 00:51:16.897575 27501 net.cpp:106] Creating Layer fire7/expand1x1
I0605 00:51:16.897579 27501 net.cpp:454] fire7/expand1x1 <- fire7/squeeze1x1_fire7/relu_squeeze1x1_0_split_0
I0605 00:51:16.897584 27501 net.cpp:411] fire7/expand1x1 -> fire7/expand1x1
I0605 00:51:16.898638 27501 net.cpp:150] Setting up fire7/expand1x1
I0605 00:51:16.898651 27501 net.cpp:157] Top shape: 64 192 27 27 (8957952)
I0605 00:51:16.898655 27501 net.cpp:165] Memory required for data: 2569372416
I0605 00:51:16.898663 27501 layer_factory.hpp:76] Creating layer fire7/relu_expand1x1
I0605 00:51:16.898669 27501 net.cpp:106] Creating Layer fire7/relu_expand1x1
I0605 00:51:16.898674 27501 net.cpp:454] fire7/relu_expand1x1 <- fire7/expand1x1
I0605 00:51:16.898679 27501 net.cpp:397] fire7/relu_expand1x1 -> fire7/expand1x1 (in-place)
I0605 00:51:16.898857 27501 net.cpp:150] Setting up fire7/relu_expand1x1
I0605 00:51:16.898865 27501 net.cpp:157] Top shape: 64 192 27 27 (8957952)
I0605 00:51:16.898869 27501 net.cpp:165] Memory required for data: 2605204224
I0605 00:51:16.898872 27501 layer_factory.hpp:76] Creating layer fire7/expand3x3
I0605 00:51:16.898882 27501 net.cpp:106] Creating Layer fire7/expand3x3
I0605 00:51:16.898886 27501 net.cpp:454] fire7/expand3x3 <- fire7/squeeze1x1_fire7/relu_squeeze1x1_0_split_1
I0605 00:51:16.898893 27501 net.cpp:411] fire7/expand3x3 -> fire7/expand3x3
I0605 00:51:16.900311 27501 net.cpp:150] Setting up fire7/expand3x3
I0605 00:51:16.900322 27501 net.cpp:157] Top shape: 64 192 27 27 (8957952)
I0605 00:51:16.900326 27501 net.cpp:165] Memory required for data: 2641036032
I0605 00:51:16.900332 27501 layer_factory.hpp:76] Creating layer fire7/relu_expand3x3
I0605 00:51:16.900339 27501 net.cpp:106] Creating Layer fire7/relu_expand3x3
I0605 00:51:16.900343 27501 net.cpp:454] fire7/relu_expand3x3 <- fire7/expand3x3
I0605 00:51:16.900348 27501 net.cpp:397] fire7/relu_expand3x3 -> fire7/expand3x3 (in-place)
I0605 00:51:16.900645 27501 net.cpp:150] Setting up fire7/relu_expand3x3
I0605 00:51:16.900671 27501 net.cpp:157] Top shape: 64 192 27 27 (8957952)
I0605 00:51:16.900674 27501 net.cpp:165] Memory required for data: 2676867840
I0605 00:51:16.900678 27501 layer_factory.hpp:76] Creating layer fire7/concat
I0605 00:51:16.900683 27501 net.cpp:106] Creating Layer fire7/concat
I0605 00:51:16.900687 27501 net.cpp:454] fire7/concat <- fire7/expand1x1
I0605 00:51:16.900691 27501 net.cpp:454] fire7/concat <- fire7/expand3x3
I0605 00:51:16.900696 27501 net.cpp:411] fire7/concat -> fire7/concat
I0605 00:51:16.900727 27501 net.cpp:150] Setting up fire7/concat
I0605 00:51:16.900734 27501 net.cpp:157] Top shape: 64 384 27 27 (17915904)
I0605 00:51:16.900738 27501 net.cpp:165] Memory required for data: 2748531456
I0605 00:51:16.900740 27501 layer_factory.hpp:76] Creating layer fire8/squeeze1x1
I0605 00:51:16.900749 27501 net.cpp:106] Creating Layer fire8/squeeze1x1
I0605 00:51:16.900753 27501 net.cpp:454] fire8/squeeze1x1 <- fire7/concat
I0605 00:51:16.900758 27501 net.cpp:411] fire8/squeeze1x1 -> fire8/squeeze1x1
I0605 00:51:16.901772 27501 net.cpp:150] Setting up fire8/squeeze1x1
I0605 00:51:16.901783 27501 net.cpp:157] Top shape: 64 64 27 27 (2985984)
I0605 00:51:16.901788 27501 net.cpp:165] Memory required for data: 2760475392
I0605 00:51:16.901806 27501 layer_factory.hpp:76] Creating layer fire8/relu_squeeze1x1
I0605 00:51:16.901814 27501 net.cpp:106] Creating Layer fire8/relu_squeeze1x1
I0605 00:51:16.901819 27501 net.cpp:454] fire8/relu_squeeze1x1 <- fire8/squeeze1x1
I0605 00:51:16.901824 27501 net.cpp:397] fire8/relu_squeeze1x1 -> fire8/squeeze1x1 (in-place)
I0605 00:51:16.902124 27501 net.cpp:150] Setting up fire8/relu_squeeze1x1
I0605 00:51:16.902135 27501 net.cpp:157] Top shape: 64 64 27 27 (2985984)
I0605 00:51:16.902139 27501 net.cpp:165] Memory required for data: 2772419328
I0605 00:51:16.902143 27501 layer_factory.hpp:76] Creating layer fire8/squeeze1x1_fire8/relu_squeeze1x1_0_split
I0605 00:51:16.902150 27501 net.cpp:106] Creating Layer fire8/squeeze1x1_fire8/relu_squeeze1x1_0_split
I0605 00:51:16.902154 27501 net.cpp:454] fire8/squeeze1x1_fire8/relu_squeeze1x1_0_split <- fire8/squeeze1x1
I0605 00:51:16.902159 27501 net.cpp:411] fire8/squeeze1x1_fire8/relu_squeeze1x1_0_split -> fire8/squeeze1x1_fire8/relu_squeeze1x1_0_split_0
I0605 00:51:16.902166 27501 net.cpp:411] fire8/squeeze1x1_fire8/relu_squeeze1x1_0_split -> fire8/squeeze1x1_fire8/relu_squeeze1x1_0_split_1
I0605 00:51:16.902211 27501 net.cpp:150] Setting up fire8/squeeze1x1_fire8/relu_squeeze1x1_0_split
I0605 00:51:16.902218 27501 net.cpp:157] Top shape: 64 64 27 27 (2985984)
I0605 00:51:16.902221 27501 net.cpp:157] Top shape: 64 64 27 27 (2985984)
I0605 00:51:16.902225 27501 net.cpp:165] Memory required for data: 2796307200
I0605 00:51:16.902228 27501 layer_factory.hpp:76] Creating layer fire8/expand1x1
I0605 00:51:16.902241 27501 net.cpp:106] Creating Layer fire8/expand1x1
I0605 00:51:16.902245 27501 net.cpp:454] fire8/expand1x1 <- fire8/squeeze1x1_fire8/relu_squeeze1x1_0_split_0
I0605 00:51:16.902251 27501 net.cpp:411] fire8/expand1x1 -> fire8/expand1x1
I0605 00:51:16.903344 27501 net.cpp:150] Setting up fire8/expand1x1
I0605 00:51:16.903357 27501 net.cpp:157] Top shape: 64 256 27 27 (11943936)
I0605 00:51:16.903360 27501 net.cpp:165] Memory required for data: 2844082944
I0605 00:51:16.903367 27501 layer_factory.hpp:76] Creating layer fire8/relu_expand1x1
I0605 00:51:16.903375 27501 net.cpp:106] Creating Layer fire8/relu_expand1x1
I0605 00:51:16.903379 27501 net.cpp:454] fire8/relu_expand1x1 <- fire8/expand1x1
I0605 00:51:16.903384 27501 net.cpp:397] fire8/relu_expand1x1 -> fire8/expand1x1 (in-place)
I0605 00:51:16.903565 27501 net.cpp:150] Setting up fire8/relu_expand1x1
I0605 00:51:16.903573 27501 net.cpp:157] Top shape: 64 256 27 27 (11943936)
I0605 00:51:16.903578 27501 net.cpp:165] Memory required for data: 2891858688
I0605 00:51:16.903580 27501 layer_factory.hpp:76] Creating layer fire8/expand3x3
I0605 00:51:16.903589 27501 net.cpp:106] Creating Layer fire8/expand3x3
I0605 00:51:16.903594 27501 net.cpp:454] fire8/expand3x3 <- fire8/squeeze1x1_fire8/relu_squeeze1x1_0_split_1
I0605 00:51:16.903614 27501 net.cpp:411] fire8/expand3x3 -> fire8/expand3x3
I0605 00:51:16.905928 27501 net.cpp:150] Setting up fire8/expand3x3
I0605 00:51:16.905941 27501 net.cpp:157] Top shape: 64 256 27 27 (11943936)
I0605 00:51:16.905946 27501 net.cpp:165] Memory required for data: 2939634432
I0605 00:51:16.905952 27501 layer_factory.hpp:76] Creating layer fire8/relu_expand3x3
I0605 00:51:16.905961 27501 net.cpp:106] Creating Layer fire8/relu_expand3x3
I0605 00:51:16.905966 27501 net.cpp:454] fire8/relu_expand3x3 <- fire8/expand3x3
I0605 00:51:16.905971 27501 net.cpp:397] fire8/relu_expand3x3 -> fire8/expand3x3 (in-place)
I0605 00:51:16.906270 27501 net.cpp:150] Setting up fire8/relu_expand3x3
I0605 00:51:16.906280 27501 net.cpp:157] Top shape: 64 256 27 27 (11943936)
I0605 00:51:16.906285 27501 net.cpp:165] Memory required for data: 2987410176
I0605 00:51:16.906288 27501 layer_factory.hpp:76] Creating layer fire8/concat
I0605 00:51:16.906296 27501 net.cpp:106] Creating Layer fire8/concat
I0605 00:51:16.906301 27501 net.cpp:454] fire8/concat <- fire8/expand1x1
I0605 00:51:16.906306 27501 net.cpp:454] fire8/concat <- fire8/expand3x3
I0605 00:51:16.906311 27501 net.cpp:411] fire8/concat -> fire8/concat
I0605 00:51:16.906342 27501 net.cpp:150] Setting up fire8/concat
I0605 00:51:16.906348 27501 net.cpp:157] Top shape: 64 512 27 27 (23887872)
I0605 00:51:16.906352 27501 net.cpp:165] Memory required for data: 3082961664
I0605 00:51:16.906355 27501 layer_factory.hpp:76] Creating layer pool8
I0605 00:51:16.906360 27501 net.cpp:106] Creating Layer pool8
I0605 00:51:16.906363 27501 net.cpp:454] pool8 <- fire8/concat
I0605 00:51:16.906370 27501 net.cpp:411] pool8 -> pool8
I0605 00:51:16.906579 27501 net.cpp:150] Setting up pool8
I0605 00:51:16.906589 27501 net.cpp:157] Top shape: 64 512 13 13 (5537792)
I0605 00:51:16.906592 27501 net.cpp:165] Memory required for data: 3105112832
I0605 00:51:16.906595 27501 layer_factory.hpp:76] Creating layer fire9/squeeze1x1
I0605 00:51:16.906606 27501 net.cpp:106] Creating Layer fire9/squeeze1x1
I0605 00:51:16.906611 27501 net.cpp:454] fire9/squeeze1x1 <- pool8
I0605 00:51:16.906622 27501 net.cpp:411] fire9/squeeze1x1 -> fire9/squeeze1x1
I0605 00:51:16.907904 27501 net.cpp:150] Setting up fire9/squeeze1x1
I0605 00:51:16.907918 27501 net.cpp:157] Top shape: 64 64 13 13 (692224)
I0605 00:51:16.907922 27501 net.cpp:165] Memory required for data: 3107881728
I0605 00:51:16.907928 27501 layer_factory.hpp:76] Creating layer fire9/relu_squeeze1x1
I0605 00:51:16.907938 27501 net.cpp:106] Creating Layer fire9/relu_squeeze1x1
I0605 00:51:16.907943 27501 net.cpp:454] fire9/relu_squeeze1x1 <- fire9/squeeze1x1
I0605 00:51:16.907948 27501 net.cpp:397] fire9/relu_squeeze1x1 -> fire9/squeeze1x1 (in-place)
I0605 00:51:16.908143 27501 net.cpp:150] Setting up fire9/relu_squeeze1x1
I0605 00:51:16.908151 27501 net.cpp:157] Top shape: 64 64 13 13 (692224)
I0605 00:51:16.908155 27501 net.cpp:165] Memory required for data: 3110650624
I0605 00:51:16.908165 27501 layer_factory.hpp:76] Creating layer fire9/squeeze1x1_fire9/relu_squeeze1x1_0_split
I0605 00:51:16.908171 27501 net.cpp:106] Creating Layer fire9/squeeze1x1_fire9/relu_squeeze1x1_0_split
I0605 00:51:16.908175 27501 net.cpp:454] fire9/squeeze1x1_fire9/relu_squeeze1x1_0_split <- fire9/squeeze1x1
I0605 00:51:16.908180 27501 net.cpp:411] fire9/squeeze1x1_fire9/relu_squeeze1x1_0_split -> fire9/squeeze1x1_fire9/relu_squeeze1x1_0_split_0
I0605 00:51:16.908190 27501 net.cpp:411] fire9/squeeze1x1_fire9/relu_squeeze1x1_0_split -> fire9/squeeze1x1_fire9/relu_squeeze1x1_0_split_1
I0605 00:51:16.908234 27501 net.cpp:150] Setting up fire9/squeeze1x1_fire9/relu_squeeze1x1_0_split
I0605 00:51:16.908241 27501 net.cpp:157] Top shape: 64 64 13 13 (692224)
I0605 00:51:16.908246 27501 net.cpp:157] Top shape: 64 64 13 13 (692224)
I0605 00:51:16.908247 27501 net.cpp:165] Memory required for data: 3116188416
I0605 00:51:16.908251 27501 layer_factory.hpp:76] Creating layer fire9/expand1x1
I0605 00:51:16.908258 27501 net.cpp:106] Creating Layer fire9/expand1x1
I0605 00:51:16.908280 27501 net.cpp:454] fire9/expand1x1 <- fire9/squeeze1x1_fire9/relu_squeeze1x1_0_split_0
I0605 00:51:16.908288 27501 net.cpp:411] fire9/expand1x1 -> fire9/expand1x1
I0605 00:51:16.909412 27501 net.cpp:150] Setting up fire9/expand1x1
I0605 00:51:16.909425 27501 net.cpp:157] Top shape: 64 256 13 13 (2768896)
I0605 00:51:16.909430 27501 net.cpp:165] Memory required for data: 3127264000
I0605 00:51:16.909435 27501 layer_factory.hpp:76] Creating layer fire9/relu_expand1x1
I0605 00:51:16.909442 27501 net.cpp:106] Creating Layer fire9/relu_expand1x1
I0605 00:51:16.909446 27501 net.cpp:454] fire9/relu_expand1x1 <- fire9/expand1x1
I0605 00:51:16.909453 27501 net.cpp:397] fire9/relu_expand1x1 -> fire9/expand1x1 (in-place)
I0605 00:51:16.909755 27501 net.cpp:150] Setting up fire9/relu_expand1x1
I0605 00:51:16.909766 27501 net.cpp:157] Top shape: 64 256 13 13 (2768896)
I0605 00:51:16.909770 27501 net.cpp:165] Memory required for data: 3138339584
I0605 00:51:16.909775 27501 layer_factory.hpp:76] Creating layer fire9/expand3x3
I0605 00:51:16.909783 27501 net.cpp:106] Creating Layer fire9/expand3x3
I0605 00:51:16.909788 27501 net.cpp:454] fire9/expand3x3 <- fire9/squeeze1x1_fire9/relu_squeeze1x1_0_split_1
I0605 00:51:16.909797 27501 net.cpp:411] fire9/expand3x3 -> fire9/expand3x3
I0605 00:51:16.912124 27501 net.cpp:150] Setting up fire9/expand3x3
I0605 00:51:16.912137 27501 net.cpp:157] Top shape: 64 256 13 13 (2768896)
I0605 00:51:16.912140 27501 net.cpp:165] Memory required for data: 3149415168
I0605 00:51:16.912147 27501 layer_factory.hpp:76] Creating layer fire9/relu_expand3x3
I0605 00:51:16.912154 27501 net.cpp:106] Creating Layer fire9/relu_expand3x3
I0605 00:51:16.912158 27501 net.cpp:454] fire9/relu_expand3x3 <- fire9/expand3x3
I0605 00:51:16.912163 27501 net.cpp:397] fire9/relu_expand3x3 -> fire9/expand3x3 (in-place)
I0605 00:51:16.912345 27501 net.cpp:150] Setting up fire9/relu_expand3x3
I0605 00:51:16.912354 27501 net.cpp:157] Top shape: 64 256 13 13 (2768896)
I0605 00:51:16.912358 27501 net.cpp:165] Memory required for data: 3160490752
I0605 00:51:16.912360 27501 layer_factory.hpp:76] Creating layer fire9/concat
I0605 00:51:16.912365 27501 net.cpp:106] Creating Layer fire9/concat
I0605 00:51:16.912369 27501 net.cpp:454] fire9/concat <- fire9/expand1x1
I0605 00:51:16.912377 27501 net.cpp:454] fire9/concat <- fire9/expand3x3
I0605 00:51:16.912384 27501 net.cpp:411] fire9/concat -> fire9/concat
I0605 00:51:16.912415 27501 net.cpp:150] Setting up fire9/concat
I0605 00:51:16.912422 27501 net.cpp:157] Top shape: 64 512 13 13 (5537792)
I0605 00:51:16.912425 27501 net.cpp:165] Memory required for data: 3182641920
I0605 00:51:16.912427 27501 layer_factory.hpp:76] Creating layer drop9
I0605 00:51:16.912433 27501 net.cpp:106] Creating Layer drop9
I0605 00:51:16.912436 27501 net.cpp:454] drop9 <- fire9/concat
I0605 00:51:16.912441 27501 net.cpp:397] drop9 -> fire9/concat (in-place)
I0605 00:51:16.912470 27501 net.cpp:150] Setting up drop9
I0605 00:51:16.912477 27501 net.cpp:157] Top shape: 64 512 13 13 (5537792)
I0605 00:51:16.912479 27501 net.cpp:165] Memory required for data: 3204793088
I0605 00:51:16.912482 27501 layer_factory.hpp:76] Creating layer conv10
I0605 00:51:16.912489 27501 net.cpp:106] Creating Layer conv10
I0605 00:51:16.912494 27501 net.cpp:454] conv10 <- fire9/concat
I0605 00:51:16.912502 27501 net.cpp:411] conv10 -> conv10
I0605 00:51:16.928740 27501 net.cpp:150] Setting up conv10
I0605 00:51:16.928753 27501 net.cpp:157] Top shape: 64 1000 15 15 (14400000)
I0605 00:51:16.928756 27501 net.cpp:165] Memory required for data: 3262393088
I0605 00:51:16.928763 27501 layer_factory.hpp:76] Creating layer relu_conv10
I0605 00:51:16.928771 27501 net.cpp:106] Creating Layer relu_conv10
I0605 00:51:16.928774 27501 net.cpp:454] relu_conv10 <- conv10
I0605 00:51:16.928779 27501 net.cpp:397] relu_conv10 -> conv10 (in-place)
I0605 00:51:16.928959 27501 net.cpp:150] Setting up relu_conv10
I0605 00:51:16.928968 27501 net.cpp:157] Top shape: 64 1000 15 15 (14400000)
I0605 00:51:16.928972 27501 net.cpp:165] Memory required for data: 3319993088
I0605 00:51:16.928988 27501 layer_factory.hpp:76] Creating layer pool10
I0605 00:51:16.928997 27501 net.cpp:106] Creating Layer pool10
I0605 00:51:16.929000 27501 net.cpp:454] pool10 <- conv10
I0605 00:51:16.929008 27501 net.cpp:411] pool10 -> pool10
I0605 00:51:16.929332 27501 net.cpp:150] Setting up pool10
I0605 00:51:16.929343 27501 net.cpp:157] Top shape: 64 1000 1 1 (64000)
I0605 00:51:16.929347 27501 net.cpp:165] Memory required for data: 3320249088
I0605 00:51:16.929349 27501 layer_factory.hpp:76] Creating layer pool10_pool10_0_split
I0605 00:51:16.929355 27501 net.cpp:106] Creating Layer pool10_pool10_0_split
I0605 00:51:16.929360 27501 net.cpp:454] pool10_pool10_0_split <- pool10
I0605 00:51:16.929368 27501 net.cpp:411] pool10_pool10_0_split -> pool10_pool10_0_split_0
I0605 00:51:16.929375 27501 net.cpp:411] pool10_pool10_0_split -> pool10_pool10_0_split_1
I0605 00:51:16.929416 27501 net.cpp:150] Setting up pool10_pool10_0_split
I0605 00:51:16.929422 27501 net.cpp:157] Top shape: 64 1000 1 1 (64000)
I0605 00:51:16.929426 27501 net.cpp:157] Top shape: 64 1000 1 1 (64000)
I0605 00:51:16.929430 27501 net.cpp:165] Memory required for data: 3320761088
I0605 00:51:16.929432 27501 layer_factory.hpp:76] Creating layer loss
I0605 00:51:16.929440 27501 net.cpp:106] Creating Layer loss
I0605 00:51:16.929443 27501 net.cpp:454] loss <- pool10_pool10_0_split_0
I0605 00:51:16.929447 27501 net.cpp:454] loss <- label_data_1_split_0
I0605 00:51:16.929455 27501 net.cpp:411] loss -> loss
…
  }
  transform_param {
    scale: 0.04
    mirror: false
    crop_size: 224
    mean_value: 104
    mean_value: 117
    mean_value: 123
    force_color: true
    resize_param {
      prob: 1
      resize_mode: FIT_SMALL_SIZE
      height: 256
      width: 256
      pad_mode: MIRRORED
      pad_value: 104
      pad_value: 117
      pad_value: 124
      interp_mode: LINEAR
      center_object: false
      max_angle: 0
    }
  }
  data_param {
    source: "/local/temporary/imagenet_clc_orig/ilsvrc12_val_lmdb"
    batch_size: 50
    backend: LMDB
  }
}
layer {
  name: "conv1"
  type: "Convolution"
  bottom: "data"
  top: "conv1"
  convolution_param {
    num_output: 96
    kernel_size: 7
    stride: 2
    weight_filler {
      type: "xavier"
    }
  }
}
layer {
  name: "relu_conv1"
  type: "ReLU"
  bottom: "conv1"
  top: "conv1"
}
layer {
  name: "pool1"
  type: "Pooling"
  bottom: "conv1"
  top: "pool1"
  pooling_param {
    pool: MAX
    kernel_size: 3
    stride: 2
  }
}
layer {
  name: "fire2/squeeze1x1"
  type: "Convolution"
  bottom: "pool1"
  top: "fire2/squeeze1x1"
  convolution_param {
    num_output: 16
    kernel_size: 1
    weight_filler {
      type: "xavier"
    }
  }
}
layer {
  name: "fire2/relu_squeeze1x1"
  type: "ReLU"
  bottom: "fire2/squeeze1x1"
  top: "fire2/squeeze1x1"
}
layer {
  name: "fire2/expand1x1"
  type: "Convolution"
  bottom: "fire2/squeeze1x1"
  top: "fire2/expand1x1"
  convolution_param {
    num_output: 64
    kernel_size: 1
    weight_filler {
      type: "xavier"
    }
  }
}
layer {
  name: "fire2/relu_expand1x1"
  type: "ReLU"
  bottom: "fire2/expand1x1"
  top: "fire2/expand1x1"
}
layer {
  name: "fire2/expand3x3"
  type: "Convolution"
  bottom: "fire2/squeeze1x1"
  top: "fire2/expand3x3"
  convolution_param {
    num_output: 64
    pad: 1
    kernel_size: 3
    weight_filler {
      type: "xavier"
    }
  }
}
layer {
  name: "fire2/relu_expand3x3"
  type: "ReLU"
  bottom: "fire2/expand3x3"
  top: "fire2/expand3x3"
}
layer {
  name: "fire2/concat"
  type: "Concat"
  bottom: "fire2/expand1x1"
  bottom: "fire2/expand3x3"
  top: "fire2/concat"
}
layer {
  name: "fire3/squeeze1x1"
  type: "Convolution"
  bottom: "fire2/concat"
  top: "fire3/squeeze1x1"
  convolution_param {
    num_output: 16
    kernel_size: 1
    weight_filler {
      type: "xavier"
    }
  }
}
layer {
  name: "fire3/relu_squeeze1x1"
  type: "ReLU"
  bottom: "fire3/squeeze1x1"
  top: "fire3/squeeze1x1"
}
layer {
  name: "fire3/expand1x1"
  type: "Convolution"
  bottom: "fire3/squeeze1x1"
  top: "fire3/expand1x1"
  convolution_param {
    num_output: 64
    kernel_size: 1
    weight_filler {
      type: "xavier"
    }
  }
}
layer {
  name: "fire3/relu_expand1x1"
  type: "ReLU"
  bottom: "fire3/expand1x1"
  top: "fire3/expand1x1"
}
layer {
  name: "fire3/expand3x3"
  type: "Convolution"
  bottom: "fire3/squeeze1x1"
  top: "fire3/expand3x3"
  convolution_param {
    num_output: 64
    pad: 1
    kernel_size: 3
    weight_filler {
      type: "xavier"
    }
  }
}
layer {
  name: "fire3/relu_expand3x3"
  type: "ReLU"
  bottom: "fire3/expand3x3"
  top: "fire3/expand3x3"
}
layer {
  name: "fire3/concat"
  type: "Concat"
  bottom: "fire3/expand1x1"
  bottom: "fire3/expand3x3"
  top: "fire3/concat"
}
layer {
  name: "fire4/squeeze1x1"
  type: "Convolution"
  bottom: "fire3/concat"
  top: "fire4/squeeze1x1"
  convolution_param {
    num_output: 32
    kernel_size: 1
    weight_filler {
      type: "xavier"
    }
  }
}
layer {
  name: "fire4/relu_squeeze1x1"
  type: "ReLU"
  bottom: "fire4/squeeze1x1"
  top: "fire4/squeeze1x1"
}
layer {
  name: "fire4/expand1x1"
  type: "Convolution"
  bottom: "fire4/squeeze1x1"
  top: "fire4/expand1x1"
  convolution_param {
    num_output: 128
    kernel_size: 1
    weight_filler {
      type: "xavier"
    }
  }
}
layer {
  name: "fire4/relu_expand1x1"
  type: "ReLU"
  bottom: "fire4/expand1x1"
  top: "fire4/expand1x1"
}
layer {
  name: "fire4/expand3x3"
  type: "Convolution"
  bottom: "fire4/squeeze1x1"
  top: "fire4/expand3x3"
  convolution_param {
    num_output: 128
    pad: 1
    kernel_size: 3
    weight_filler {
      type: "xavier"
    }
  }
}
layer {
  name: "fire4/relu_expand3x3"
  type: "ReLU"
  bottom: "fire4/expand3x3"
  top: "fire4/expand3x3"
}
layer {
  name: "fire4/concat"
  type: "Concat"
  bottom: "fire4/expand1x1"
  bottom: "fire4/expand3x3"
  top: "fire4/concat"
}
layer {
  name: "pool4"
  type: "Pooling"
  bottom: "fire4/concat"
  top: "pool4"
  pooling_param {
    pool: MAX
    kernel_size: 3
    stride: 2
  }
}
layer {
  name: "fire5/squeeze1x1"
  type: "Convolution"
  bottom: "pool4"
  top: "fire5/squeeze1x1"
  convolution_param {
    num_output: 32
    kernel_size: 1
    weight_filler {
      type: "xavier"
    }
  }
}
layer {
  name: "fire5/relu_squeeze1x1"
  type: "ReLU"
  bottom: "fire5/squeeze1x1"
  top: "fire5/squeeze1x1"
}
layer {
  name: "fire5/expand1x1"
  type: "Convolution"
  bottom: "fire5/squeeze1x1"
  top: "fire5/expand1x1"
  convolution_param {
    num_output: 128
    kernel_size: 1
    weight_filler {
      type: "xavier"
    }
  }
}
layer {
  name: "fire5/relu_expand1x1"
  type: "ReLU"
  bottom: "fire5/expand1x1"
  top: "fire5/expand1x1"
}
layer {
  name: "fire5/expand3x3"
  type: "Convolution"
  bottom: "fire5/squeeze1x1"
  top: "fire5/expand3x3"
  convolution_param {
    num_output: 128
    pad: 1
    kernel_size: 3
    weight_filler {
      type: "xavier"
    }
  }
}
layer {
  name: "fire5/relu_expand3x3"
  type: "ReLU"
  bottom: "fire5/expand3x3"
  top: "fire5/expand3x3"
}
layer {
  name: "fire5/concat"
  type: "Concat"
  bottom: "fire5/expand1x1"
  bottom: "fire5/expand3x3"
  top: "fire5/concat"
}
layer {
  name: "fire6/squeeze1x1"
  type: "Convolution"
  bottom: "fire5/concat"
  top: "fire6/squeeze1x1"
  convolution_param {
    num_output: 48
    kernel_size: 1
    weight_filler {
      type: "xavier"
    }
  }
}
layer {
  name: "fire6/relu_squeeze1x1"
  type: "ReLU"
  bottom: "fire6/squeeze1x1"
  top: "fire6/squeeze1x1"
}
layer {
  name: "fire6/expand1x1"
  type: "Convolution"
  bottom: "fire6/squeeze1x1"
  top: "fire6/expand1x1"
  convolution_param {
    num_output: 192
    kernel_size: 1
    weight_filler {
      type: "xavier"
    }
  }
}
layer {
  name: "fire6/relu_expand1x1"
  type: "ReLU"
  bottom: "fire6/expand1x1"
  top: "fire6/expand1x1"
}
layer {
  name: "fire6/expand3x3"
  type: "Convolution"
  bottom: "fire6/squeeze1x1"
  top: "fire6/expand3x3"
  convolution_param {
    num_output: 192
    pad: 1
    kernel_size: 3
    weight_filler {
      type: "xavier"
    }
  }
}
layer {
  name: "fire6/relu_expand3x3"
  type: "ReLU"
  bottom: "fire6/expand3x3"
  top: "fire6/expand3x3"
}
layer {
  name: "fire6/concat"
  type: "Concat"
  bottom: "fire6/expand1x1"
  bottom: "fire6/expand3x3"
  top: "fire6/concat"
}
layer {
  name: "fire7/squeeze1x1"
  type: "Convolution"
  bottom: "fire6/concat"
  top: "fire7/squeeze1x1"
  convolution_param {
    num_output: 48
    kernel_size: 1
    weight_filler {
      type: "xavier"
    }
  }
}
layer {
  name: "fire7/relu_squeeze1x1"
  type: "ReLU"
  bottom: "fire7/squeeze1x1"
  top: "fire7/squeeze1x1"
}
layer {
  name: "fire7/expand1x1"
  type: "Convolution"
  bottom: "fire7/squeeze1x1"
  top: "fire7/expand1x1"
  convolution_param {
    num_output: 192
    kernel_size: 1
    weight_filler {
      type: "xavier"
    }
  }
}
layer {
  name: "fire7/relu_expand1x1"
  type: "ReLU"
  bottom: "fire7/expand1x1"
  top: "fire7/expand1x1"
}
layer {
  name: "fire7/expand3x3"
  type: "Convolution"
  bottom: "fire7/squeeze1x1"
  top: "fire7/expand3x3"
  convolution_param {
    num_output: 192
    pad: 1
    kernel_size: 3
    weight_filler {
      type: "xavier"
    }
  }
}
layer {
  name: "fire7/relu_expand3x3"
  type: "ReLU"
  bottom: "fire7/expand3x3"
  top: "fire7/expand3x3"
}
layer {
  name: "fire7/concat"
  type: "Concat"
  bottom: "fire7/expand1x1"
  bottom: "fire7/expand3x3"
  top: "fire7/concat"
}
layer {
  name: "fire8/squeeze1x1"
  type: "Convolution"
  bottom: "fire7/concat"
  top: "fire8/squeeze1x1"
  convolution_param {
    num_output: 64
    kernel_size: 1
    weight_filler {
      type: "xavier"
    }
  }
}
layer {
  name: "fire8/relu_squeeze1x1"
  type: "ReLU"
  bottom: "fire8/squeeze1x1"
  top: "fire8/squeeze1x1"
}
layer {
  name: "fire8/expand1x1"
  type: "Convolution"
  bottom: "fire8/squeeze1x1"
  top: "fire8/expand1x1"
  convolution_param {
    num_output: 256
    kernel_size: 1
    weight_filler {
      type: "xavier"
    }
  }
}
layer {
  name: "fire8/relu_expand1x1"
  type: "ReLU"
  bottom: "fire8/expand1x1"
  top: "fire8/expand1x1"
}
layer {
  name: "fire8/expand3x3"
  type: "Convolution"
  bottom: "fire8/squeeze1x1"
  top: "fire8/expand3x3"
  convolution_param {
    num_output: 256
    pad: 1
    kernel_size: 3
    weight_filler {
      type: "xavier"
    }
  }
}
layer {
  name: "fire8/relu_expand3x3"
  type: "ReLU"
  bottom: "fire8/expand3x3"
  top: "fire8/expand3x3"
}
layer {
  name: "fire8/concat"
  type: "Concat"
  bottom: "fire8/expand1x1"
  bottom: "fire8/expand3x3"
  top: "fire8/concat"
}
layer {
  name: "pool8"
  type: "Pooling"
  bottom: "fire8/concat"
  top: "pool8"
  pooling_param {
    pool: MAX
    kernel_size: 3
    stride: 2
  }
}
layer {
  name: "fire9/squeeze1x1"
  type: "Convolution"
  bottom: "pool8"
  top: "fire9/squeeze1x1"
  convolution_param {
    num_output: 64
    kernel_size: 1
    weight_filler {
      type: "xavier"
    }
  }
}
layer {
  name: "fire9/relu_squeeze1x1"
  type: "ReLU"
  bottom: "fire9/squeeze1x1"
  top: "fire9/squeeze1x1"
}
layer {
  name: "fire9/expand1x1"
  type: "Convolution"
  bottom: "fire9/squeeze1x1"
  top: "fire9/expand1x1"
  convolution_param {
    num_output: 256
    kernel_size: 1
    weight_filler {
      type: "xavier"
    }
  }
}
layer {
  name: "fire9/relu_expand1x1"
  type: "ReLU"
  bottom: "fire9/expand1x1"
  top: "fire9/expand1x1"
}
layer {
  name: "fire9/expand3x3"
  type: "Convolution"
  bottom: "fire9/squeeze1x1"
  top: "fire9/expand3x3"
  convolution_param {
    num_output: 256
    pad: 1
    kernel_size: 3
    weight_filler {
      type: "xavier"
    }
  }
}
layer {
  name: "fire9/relu_expand3x3"
  type: "ReLU"
  bottom: "fire9/expand3x3"
  top: "fire9/expand3x3"
}
layer {
  name: "fire9/concat"
  type: "Concat"
  bottom: "fire9/expand1x1"
  bottom: "fire9/expand3x3"
  top: "fire9/concat"
}
layer {
  name: "drop9"
  type: "Dropout"
  bottom: "fire9/concat"
  top: "fire9/concat"
  dropout_param {
    dropout_ratio: 0.5
  }
}
layer {
  name: "conv10"
  type: "Convolution"
  bottom: "fire9/concat"
  top: "conv10"
  convolution_param {
    num_output: 1000
    pad: 1
    kernel_size: 1
    weight_filler {
      type: "gaussian"
      mean: 0
      std: 0.01
    }
  }
}
layer {
  name: "relu_conv10"
  type: "ReLU"
  bottom: "conv10"
  top: "conv10"
}
layer {
  name: "pool10"
  type: "Pooling"
  bottom: "conv10"
  top: "pool10"
  pooling_param {
    pool: AVE
    global_pooling: true
  }
}
layer {
  name: "loss"
  type: "SoftmaxWithLoss"
  bottom: "pool10"
  bottom: "label"
  top: "loss"
}
layer {
  name: "accuracy"
  type: "Accuracy"
  bottom: "pool10"
  bottom: "label"
  top: "accuracy"
}
layer {
  name: "accuracy_top5"
  type: "Accuracy"
  bottom: "pool10"
  bottom: "label"
  top: "accuracy_top5"
  include {
    phase: TEST
  }
  accuracy_param {
    top_k: 5
  }
}
I0605 00:51:16.931427 27501 layer_factory.hpp:76] Creating layer data
I0605 00:51:16.931529 27501 net.cpp:106] Creating Layer data
I0605 00:51:16.931540 27501 net.cpp:411] data -> data
I0605 00:51:16.931551 27501 net.cpp:411] data -> label
I0605 00:51:16.932600 27542 db_lmdb.cpp:38] Opened lmdb /local/temporary/imagenet_clc_orig/ilsvrc12_val_lmdb
I0605 00:51:16.935180 27501 data_layer.cpp:41] output data size: 50,3,224,224
I0605 00:51:17.001380 27501 net.cpp:150] Setting up data
I0605 00:51:17.001413 27501 net.cpp:157] Top shape: 50 3 224 224 (7526400)
I0605 00:51:17.001420 27501 net.cpp:157] Top shape: 50 (50)
I0605 00:51:17.001423 27501 net.cpp:165] Memory required for data: 30105800
I0605 00:51:17.001444 27501 layer_factory.hpp:76] Creating layer label_data_1_split
I0605 00:51:17.001458 27501 net.cpp:106] Creating Layer label_data_1_split
I0605 00:51:17.001463 27501 net.cpp:454] label_data_1_split <- label
I0605 00:51:17.001472 27501 net.cpp:411] label_data_1_split -> label_data_1_split_0
I0605 00:51:17.001484 27501 net.cpp:411] label_data_1_split -> label_data_1_split_1
I0605 00:51:17.001490 27501 net.cpp:411] label_data_1_split -> label_data_1_split_2
I0605 00:51:17.001716 27501 net.cpp:150] Setting up label_data_1_split
I0605 00:51:17.001724 27501 net.cpp:157] Top shape: 50 (50)
I0605 00:51:17.001729 27501 net.cpp:157] Top shape: 50 (50)
I0605 00:51:17.001732 27501 net.cpp:157] Top shape: 50 (50)
I0605 00:51:17.001735 27501 net.cpp:165] Memory required for data: 30106400
I0605 00:51:17.001739 27501 layer_factory.hpp:76] Creating layer conv1
I0605 00:51:17.001751 27501 net.cpp:106] Creating Layer conv1
I0605 00:51:17.001754 27501 net.cpp:454] conv1 <- data
I0605 00:51:17.001760 27501 net.cpp:411] conv1 -> conv1
I0605 00:51:17.003118 27501 net.cpp:150] Setting up conv1
I0605 00:51:17.003142 27501 net.cpp:157] Top shape: 50 96 109 109 (57028800)
I0605 00:51:17.003145 27501 net.cpp:165] Memory required for data: 258221600
I0605 00:51:17.003157 27501 layer_factory.hpp:76] Creating layer relu_conv1
I0605 00:51:17.003165 27501 net.cpp:106] Creating Layer relu_conv1
I0605 00:51:17.003167 27501 net.cpp:454] relu_conv1 <- conv1
I0605 00:51:17.003172 27501 net.cpp:397] relu_conv1 -> conv1 (in-place)
I0605 00:51:17.003476 27501 net.cpp:150] Setting up relu_conv1
I0605 00:51:17.003489 27501 net.cpp:157] Top shape: 50 96 109 109 (57028800)
I0605 00:51:17.003491 27501 net.cpp:165] Memory required for data: 486336800
I0605 00:51:17.003494 27501 layer_factory.hpp:76] Creating layer pool1
I0605 00:51:17.003504 27501 net.cpp:106] Creating Layer pool1
I0605 00:51:17.003506 27501 net.cpp:454] pool1 <- conv1
I0605 00:51:17.003511 27501 net.cpp:411] pool1 -> pool1
I0605 00:51:17.003721 27501 net.cpp:150] Setting up pool1
I0605 00:51:17.003731 27501 net.cpp:157] Top shape: 50 96 54 54 (13996800)
I0605 00:51:17.003734 27501 net.cpp:165] Memory required for data: 542324000
I0605 00:51:17.003737 27501 layer_factory.hpp:76] Creating layer fire2/squeeze1x1
I0605 00:51:17.003744 27501 net.cpp:106] Creating Layer fire2/squeeze1x1
I0605 00:51:17.003748 27501 net.cpp:454] fire2/squeeze1x1 <- pool1
I0605 00:51:17.003754 27501 net.cpp:411] fire2/squeeze1x1 -> fire2/squeeze1x1
I0605 00:51:17.004825 27501 net.cpp:150] Setting up fire2/squeeze1x1
I0605 00:51:17.004878 27501 net.cpp:157] Top shape: 50 16 54 54 (2332800)
I0605 00:51:17.004881 27501 net.cpp:165] Memory required for data: 551655200
I0605 00:51:17.004890 27501 layer_factory.hpp:76] Creating layer fire2/relu_squeeze1x1
I0605 00:51:17.004896 27501 net.cpp:106] Creating Layer fire2/relu_squeeze1x1
I0605 00:51:17.004900 27501 net.cpp:454] fire2/relu_squeeze1x1 <- fire2/squeeze1x1
I0605 00:51:17.004905 27501 net.cpp:397] fire2/relu_squeeze1x1 -> fire2/squeeze1x1 (in-place)
I0605 00:51:17.005229 27501 net.cpp:150] Setting up fire2/relu_squeeze1x1
I0605 00:51:17.005240 27501 net.cpp:157] Top shape: 50 16 54 54 (2332800)
I0605 00:51:17.005244 27501 net.cpp:165] Memory required for data: 560986400
I0605 00:51:17.005247 27501 layer_factory.hpp:76] Creating layer fire2/squeeze1x1_fire2/relu_squeeze1x1_0_split
I0605 00:51:17.005254 27501 net.cpp:106] Creating Layer fire2/squeeze1x1_fire2/relu_squeeze1x1_0_split
I0605 00:51:17.005256 27501 net.cpp:454] fire2/squeeze1x1_fire2/relu_squeeze1x1_0_split <- fire2/squeeze1x1
I0605 00:51:17.005264 27501 net.cpp:411] fire2/squeeze1x1_fire2/relu_squeeze1x1_0_split -> fire2/squeeze1x1_fire2/relu_squeeze1x1_0_split_0
I0605 00:51:17.005271 27501 net.cpp:411] fire2/squeeze1x1_fire2/relu_squeeze1x1_0_split -> fire2/squeeze1x1_fire2/relu_squeeze1x1_0_split_1
I0605 00:51:17.005319 27501 net.cpp:150] Setting up fire2/squeeze1x1_fire2/relu_squeeze1x1_0_split
I0605 00:51:17.005329 27501 net.cpp:157] Top shape: 50 16 54 54 (2332800)
I0605 00:51:17.005333 27501 net.cpp:157] Top shape: 50 16 54 54 (2332800)
I0605 00:51:17.005336 27501 net.cpp:165] Memory required for data: 579648800
I0605 00:51:17.005338 27501 layer_factory.hpp:76] Creating layer fire2/expand1x1
I0605 00:51:17.005349 27501 net.cpp:106] Creating Layer fire2/expand1x1
I0605 00:51:17.005353 27501 net.cpp:454] fire2/expand1x1 <- fire2/squeeze1x1_fire2/relu_squeeze1x1_0_split_0
I0605 00:51:17.005357 27501 net.cpp:411] fire2/expand1x1 -> fire2/expand1x1
I0605 00:51:17.011122 27501 net.cpp:150] Setting up fire2/expand1x1
I0605 00:51:17.011134 27501 net.cpp:157] Top shape: 50 64 54 54 (9331200)
I0605 00:51:17.011149 27501 net.cpp:165] Memory required for data: 616973600
I0605 00:51:17.011158 27501 layer_factory.hpp:76] Creating layer fire2/relu_expand1x1
I0605 00:51:17.011164 27501 net.cpp:106] Creating Layer fire2/relu_expand1x1
I0605 00:51:17.011168 27501 net.cpp:454] fire2/relu_expand1x1 <- fire2/expand1x1
I0605 00:51:17.011175 27501 net.cpp:397] fire2/relu_expand1x1 -> fire2/expand1x1 (in-place)
I0605 00:51:17.011371 27501 net.cpp:150] Setting up fire2/relu_expand1x1
I0605 00:51:17.011380 27501 net.cpp:157] Top shape: 50 64 54 54 (9331200)
I0605 00:51:17.011384 27501 net.cpp:165] Memory required for data: 654298400
I0605 00:51:17.011386 27501 layer_factory.hpp:76] Creating layer fire2/expand3x3
I0605 00:51:17.011394 27501 net.cpp:106] Creating Layer fire2/expand3x3
I0605 00:51:17.011397 27501 net.cpp:454] fire2/expand3x3 <- fire2/squeeze1x1_fire2/relu_squeeze1x1_0_split_1
I0605 00:51:17.011404 27501 net.cpp:411] fire2/expand3x3 -> fire2/expand3x3
I0605 00:51:17.012641 27501 net.cpp:150] Setting up fire2/expand3x3
I0605 00:51:17.012653 27501 net.cpp:157] Top shape: 50 64 54 54 (9331200)
I0605 00:51:17.012668 27501 net.cpp:165] Memory required for data: 691623200
I0605 00:51:17.012676 27501 layer_factory.hpp:76] Creating layer fire2/relu_expand3x3
I0605 00:51:17.012683 27501 net.cpp:106] Creating Layer fire2/relu_expand3x3
I0605 00:51:17.012687 27501 net.cpp:454] fire2/relu_expand3x3 <- fire2/expand3x3
I0605 00:51:17.012692 27501 net.cpp:397] fire2/relu_expand3x3 -> fire2/expand3x3 (in-place)
I0605 00:51:17.012878 27501 net.cpp:150] Setting up fire2/relu_expand3x3
I0605 00:51:17.012887 27501 net.cpp:157] Top shape: 50 64 54 54 (9331200)
I0605 00:51:17.012889 27501 net.cpp:165] Memory required for data: 728948000
I0605 00:51:17.012893 27501 layer_factory.hpp:76] Creating layer fire2/concat
I0605 00:51:17.012898 27501 net.cpp:106] Creating Layer fire2/concat
I0605 00:51:17.012902 27501 net.cpp:454] fire2/concat <- fire2/expand1x1
I0605 00:51:17.012919 27501 net.cpp:454] fire2/concat <- fire2/expand3x3
I0605 00:51:17.012926 27501 net.cpp:411] fire2/concat -> fire2/concat
I0605 00:51:17.012961 27501 net.cpp:150] Setting up fire2/concat
I0605 00:51:17.012974 27501 net.cpp:157] Top shape: 50 128 54 54 (18662400)
I0605 00:51:17.012976 27501 net.cpp:165] Memory required for data: 803597600
I0605 00:51:17.012979 27501 layer_factory.hpp:76] Creating layer fire3/squeeze1x1
I0605 00:51:17.012985 27501 net.cpp:106] Creating Layer fire3/squeeze1x1
I0605 00:51:17.012989 27501 net.cpp:454] fire3/squeeze1x1 <- fire2/concat
I0605 00:51:17.012996 27501 net.cpp:411] fire3/squeeze1x1 -> fire3/squeeze1x1
I0605 00:51:17.014058 27501 net.cpp:150] Setting up fire3/squeeze1x1
I0605 00:51:17.014070 27501 net.cpp:157] Top shape: 50 16 54 54 (2332800)
I0605 00:51:17.014084 27501 net.cpp:165] Memory required for data: 812928800
I0605 00:51:17.014093 27501 layer_factory.hpp:76] Creating layer fire3/relu_squeeze1x1
I0605 00:51:17.014101 27501 net.cpp:106] Creating Layer fire3/relu_squeeze1x1
I0605 00:51:17.014104 27501 net.cpp:454] fire3/relu_squeeze1x1 <- fire3/squeeze1x1
I0605 00:51:17.014109 27501 net.cpp:397] fire3/relu_squeeze1x1 -> fire3/squeeze1x1 (in-place)
I0605 00:51:17.014425 27501 net.cpp:150] Setting up fire3/relu_squeeze1x1
I0605 00:51:17.014436 27501 net.cpp:157] Top shape: 50 16 54 54 (2332800)
I0605 00:51:17.014439 27501 net.cpp:165] Memory required for data: 822260000
I0605 00:51:17.014442 27501 layer_factory.hpp:76] Creating layer fire3/squeeze1x1_fire3/relu_squeeze1x1_0_split
I0605 00:51:17.014451 27501 net.cpp:106] Creating Layer fire3/squeeze1x1_fire3/relu_squeeze1x1_0_split
I0605 00:51:17.014456 27501 net.cpp:454] fire3/squeeze1x1_fire3/relu_squeeze1x1_0_split <- fire3/squeeze1x1
I0605 00:51:17.014461 27501 net.cpp:411] fire3/squeeze1x1_fire3/relu_squeeze1x1_0_split -> fire3/squeeze1x1_fire3/relu_squeeze1x1_0_split_0
I0605 00:51:17.014467 27501 net.cpp:411] fire3/squeeze1x1_fire3/relu_squeeze1x1_0_split -> fire3/squeeze1x1_fire3/relu_squeeze1x1_0_split_1
I0605 00:51:17.014516 27501 net.cpp:150] Setting up fire3/squeeze1x1_fire3/relu_squeeze1x1_0_split
I0605 00:51:17.014523 27501 net.cpp:157] Top shape: 50 16 54 54 (2332800)
I0605 00:51:17.014526 27501 net.cpp:157] Top shape: 50 16 54 54 (2332800)
I0605 00:51:17.014529 27501 net.cpp:165] Memory required for data: 840922400
I0605 00:51:17.014533 27501 layer_factory.hpp:76] Creating layer fire3/expand1x1
I0605 00:51:17.014541 27501 net.cpp:106] Creating Layer fire3/expand1x1
I0605 00:51:17.014544 27501 net.cpp:454] fire3/expand1x1 <- fire3/squeeze1x1_fire3/relu_squeeze1x1_0_split_0
I0605 00:51:17.014551 27501 net.cpp:411] fire3/expand1x1 -> fire3/expand1x1
I0605 00:51:17.015646 27501 net.cpp:150] Setting up fire3/expand1x1
I0605 00:51:17.015658 27501 net.cpp:157] Top shape: 50 64 54 54 (9331200)
I0605 00:51:17.015671 27501 net.cpp:165] Memory required for data: 878247200
I0605 00:51:17.015678 27501 layer_factory.hpp:76] Creating layer fire3/relu_expand1x1
I0605 00:51:17.015686 27501 net.cpp:106] Creating Layer fire3/relu_expand1x1
I0605 00:51:17.015691 27501 net.cpp:454] fire3/relu_expand1x1 <- fire3/expand1x1
I0605 00:51:17.015696 27501 net.cpp:397] fire3/relu_expand1x1 -> fire3/expand1x1 (in-place)
I0605 00:51:17.015885 27501 net.cpp:150] Setting up fire3/relu_expand1x1
I0605 00:51:17.015894 27501 net.cpp:157] Top shape: 50 64 54 54 (9331200)
I0605 00:51:17.015897 27501 net.cpp:165] Memory required for data: 915572000
I0605 00:51:17.015900 27501 layer_factory.hpp:76] Creating layer fire3/expand3x3
I0605 00:51:17.015909 27501 net.cpp:106] Creating Layer fire3/expand3x3
I0605 00:51:17.015913 27501 net.cpp:454] fire3/expand3x3 <- fire3/squeeze1x1_fire3/relu_squeeze1x1_0_split_1
I0605 00:51:17.015919 27501 net.cpp:411] fire3/expand3x3 -> fire3/expand3x3
I0605 00:51:17.017050 27501 net.cpp:150] Setting up fire3/expand3x3
I0605 00:51:17.017072 27501 net.cpp:157] Top shape: 50 64 54 54 (9331200)
I0605 00:51:17.017076 27501 net.cpp:165] Memory required for data: 952896800
I0605 00:51:17.017096 27501 layer_factory.hpp:76] Creating layer fire3/relu_expand3x3
I0605 00:51:17.017102 27501 net.cpp:106] Creating Layer fire3/relu_expand3x3
I0605 00:51:17.017105 27501 net.cpp:454] fire3/relu_expand3x3 <- fire3/expand3x3
I0605 00:51:17.017114 27501 net.cpp:397] fire3/relu_expand3x3 -> fire3/expand3x3 (in-place)
I0605 00:51:17.017299 27501 net.cpp:150] Setting up fire3/relu_expand3x3
I0605 00:51:17.017314 27501 net.cpp:157] Top shape: 50 64 54 54 (9331200)
I0605 00:51:17.017318 27501 net.cpp:165] Memory required for data: 990221600
I0605 00:51:17.017321 27501 layer_factory.hpp:76] Creating layer fire3/concat
I0605 00:51:17.017326 27501 net.cpp:106] Creating Layer fire3/concat
I0605 00:51:17.017330 27501 net.cpp:454] fire3/concat <- fire3/expand1x1
I0605 00:51:17.017334 27501 net.cpp:454] fire3/concat <- fire3/expand3x3
I0605 00:51:17.017338 27501 net.cpp:411] fire3/concat -> fire3/concat
I0605 00:51:17.017371 27501 net.cpp:150] Setting up fire3/concat
I0605 00:51:17.017377 27501 net.cpp:157] Top shape: 50 128 54 54 (18662400)
I0605 00:51:17.017380 27501 net.cpp:165] Memory required for data: 1064871200
I0605 00:51:17.017384 27501 layer_factory.hpp:76] Creating layer fire4/squeeze1x1
I0605 00:51:17.017391 27501 net.cpp:106] Creating Layer fire4/squeeze1x1
I0605 00:51:17.017395 27501 net.cpp:454] fire4/squeeze1x1 <- fire3/concat
I0605 00:51:17.017400 27501 net.cpp:411] fire4/squeeze1x1 -> fire4/squeeze1x1
I0605 00:51:17.018496 27501 net.cpp:150] Setting up fire4/squeeze1x1
I0605 00:51:17.018522 27501 net.cpp:157] Top shape: 50 32 54 54 (4665600)
I0605 00:51:17.018525 27501 net.cpp:165] Memory required for data: 1083533600
I0605 00:51:17.018532 27501 layer_factory.hpp:76] Creating layer fire4/relu_squeeze1x1
I0605 00:51:17.018537 27501 net.cpp:106] Creating Layer fire4/relu_squeeze1x1
I0605 00:51:17.018542 27501 net.cpp:454] fire4/relu_squeeze1x1 <- fire4/squeeze1x1
I0605 00:51:17.018546 27501 net.cpp:397] fire4/relu_squeeze1x1 -> fire4/squeeze1x1 (in-place)
I0605 00:51:17.018867 27501 net.cpp:150] Setting up fire4/relu_squeeze1x1
I0605 00:51:17.018878 27501 net.cpp:157] Top shape: 50 32 54 54 (4665600)
I0605 00:51:17.018880 27501 net.cpp:165] Memory required for data: 1102196000
I0605 00:51:17.018884 27501 layer_factory.hpp:76] Creating layer fire4/squeeze1x1_fire4/relu_squeeze1x1_0_split
I0605 00:51:17.018890 27501 net.cpp:106] Creating Layer fire4/squeeze1x1_fire4/relu_squeeze1x1_0_split
I0605 00:51:17.018893 27501 net.cpp:454] fire4/squeeze1x1_fire4/relu_squeeze1x1_0_split <- fire4/squeeze1x1
I0605 00:51:17.018898 27501 net.cpp:411] fire4/squeeze1x1_fire4/relu_squeeze1x1_0_split -> fire4/squeeze1x1_fire4/relu_squeeze1x1_0_split_0
I0605 00:51:17.018908 27501 net.cpp:411] fire4/squeeze1x1_fire4/relu_squeeze1x1_0_split -> fire4/squeeze1x1_fire4/relu_squeeze1x1_0_split_1
I0605 00:51:17.018956 27501 net.cpp:150] Setting up fire4/squeeze1x1_fire4/relu_squeeze1x1_0_split
I0605 00:51:17.018962 27501 net.cpp:157] Top shape: 50 32 54 54 (4665600)
I0605 00:51:17.018966 27501 net.cpp:157] Top shape: 50 32 54 54 (4665600)
I0605 00:51:17.018970 27501 net.cpp:165] Memory required for data: 1139520800
I0605 00:51:17.018971 27501 layer_factory.hpp:76] Creating layer fire4/expand1x1
I0605 00:51:17.018981 27501 net.cpp:106] Creating Layer fire4/expand1x1
I0605 00:51:17.018985 27501 net.cpp:454] fire4/expand1x1 <- fire4/squeeze1x1_fire4/relu_squeeze1x1_0_split_0
I0605 00:51:17.018991 27501 net.cpp:411] fire4/expand1x1 -> fire4/expand1x1
I0605 00:51:17.020081 27501 net.cpp:150] Setting up fire4/expand1x1
I0605 00:51:17.020092 27501 net.cpp:157] Top shape: 50 128 54 54 (18662400)
I0605 00:51:17.020107 27501 net.cpp:165] Memory required for data: 1214170400
I0605 00:51:17.020117 27501 layer_factory.hpp:76] Creating layer fire4/relu_expand1x1
I0605 00:51:17.020126 27501 net.cpp:106] Creating Layer fire4/relu_expand1x1
I0605 00:51:17.020129 27501 net.cpp:454] fire4/relu_expand1x1 <- fire4/expand1x1
I0605 00:51:17.020134 27501 net.cpp:397] fire4/relu_expand1x1 -> fire4/expand1x1 (in-place)
I0605 00:51:17.020328 27501 net.cpp:150] Setting up fire4/relu_expand1x1
I0605 00:51:17.020349 27501 net.cpp:157] Top shape: 50 128 54 54 (18662400)
I0605 00:51:17.020351 27501 net.cpp:165] Memory required for data: 1288820000
I0605 00:51:17.020354 27501 layer_factory.hpp:76] Creating layer fire4/expand3x3
I0605 00:51:17.020370 27501 net.cpp:106] Creating Layer fire4/expand3x3
I0605 00:51:17.020378 27501 net.cpp:454] fire4/expand3x3 <- fire4/squeeze1x1_fire4/relu_squeeze1x1_0_split_1
I0605 00:51:17.020385 27501 net.cpp:411] fire4/expand3x3 -> fire4/expand3x3
I0605 00:51:17.021667 27501 net.cpp:150] Setting up fire4/expand3x3
I0605 00:51:17.021678 27501 net.cpp:157] Top shape: 50 128 54 54 (18662400)
I0605 00:51:17.021695 27501 net.cpp:165] Memory required for data: 1363469600
I0605 00:51:17.021702 27501 layer_factory.hpp:76] Creating layer fire4/relu_expand3x3
I0605 00:51:17.021708 27501 net.cpp:106] Creating Layer fire4/relu_expand3x3
I0605 00:51:17.021710 27501 net.cpp:454] fire4/relu_expand3x3 <- fire4/expand3x3
I0605 00:51:17.021715 27501 net.cpp:397] fire4/relu_expand3x3 -> fire4/expand3x3 (in-place)
I0605 00:51:17.021905 27501 net.cpp:150] Setting up fire4/relu_expand3x3
I0605 00:51:17.021914 27501 net.cpp:157] Top shape: 50 128 54 54 (18662400)
I0605 00:51:17.021916 27501 net.cpp:165] Memory required for data: 1438119200
I0605 00:51:17.021919 27501 layer_factory.hpp:76] Creating layer fire4/concat
I0605 00:51:17.021924 27501 net.cpp:106] Creating Layer fire4/concat
I0605 00:51:17.021929 27501 net.cpp:454] fire4/concat <- fire4/expand1x1
I0605 00:51:17.021932 27501 net.cpp:454] fire4/concat <- fire4/expand3x3
I0605 00:51:17.021939 27501 net.cpp:411] fire4/concat -> fire4/concat
I0605 00:51:17.021968 27501 net.cpp:150] Setting up fire4/concat
I0605 00:51:17.021977 27501 net.cpp:157] Top shape: 50 256 54 54 (37324800)
I0605 00:51:17.021981 27501 net.cpp:165] Memory required for data: 1587418400
I0605 00:51:17.021983 27501 layer_factory.hpp:76] Creating layer pool4
I0605 00:51:17.021991 27501 net.cpp:106] Creating Layer pool4
I0605 00:51:17.021994 27501 net.cpp:454] pool4 <- fire4/concat
I0605 00:51:17.022001 27501 net.cpp:411] pool4 -> pool4
I0605 00:51:17.022361 27501 net.cpp:150] Setting up pool4
I0605 00:51:17.022384 27501 net.cpp:157] Top shape: 50 256 27 27 (9331200)
I0605 00:51:17.022387 27501 net.cpp:165] Memory required for data: 1624743200
I0605 00:51:17.022390 27501 layer_factory.hpp:76] Creating layer fire5/squeeze1x1
I0605 00:51:17.022399 27501 net.cpp:106] Creating Layer fire5/squeeze1x1
I0605 00:51:17.022403 27501 net.cpp:454] fire5/squeeze1x1 <- pool4
I0605 00:51:17.022408 27501 net.cpp:411] fire5/squeeze1x1 -> fire5/squeeze1x1
I0605 00:51:17.023552 27501 net.cpp:150] Setting up fire5/squeeze1x1
I0605 00:51:17.023564 27501 net.cpp:157] Top shape: 50 32 27 27 (1166400)
I0605 00:51:17.023567 27501 net.cpp:165] Memory required for data: 1629408800
I0605 00:51:17.023574 27501 layer_factory.hpp:76] Creating layer fire5/relu_squeeze1x1
I0605 00:51:17.023579 27501 net.cpp:106] Creating Layer fire5/relu_squeeze1x1
I0605 00:51:17.023583 27501 net.cpp:454] fire5/relu_squeeze1x1 <- fire5/squeeze1x1
I0605 00:51:17.023591 27501 net.cpp:397] fire5/relu_squeeze1x1 -> fire5/squeeze1x1 (in-place)
I0605 00:51:17.023777 27501 net.cpp:150] Setting up fire5/relu_squeeze1x1
I0605 00:51:17.023787 27501 net.cpp:157] Top shape: 50 32 27 27 (1166400)
I0605 00:51:17.023788 27501 net.cpp:165] Memory required for data: 1634074400
I0605 00:51:17.023792 27501 layer_factory.hpp:76] Creating layer fire5/squeeze1x1_fire5/relu_squeeze1x1_0_split
I0605 00:51:17.023800 27501 net.cpp:106] Creating Layer fire5/squeeze1x1_fire5/relu_squeeze1x1_0_split
I0605 00:51:17.023804 27501 net.cpp:454] fire5/squeeze1x1_fire5/relu_squeeze1x1_0_split <- fire5/squeeze1x1
I0605 00:51:17.023809 27501 net.cpp:411] fire5/squeeze1x1_fire5/relu_squeeze1x1_0_split -> fire5/squeeze1x1_fire5/relu_squeeze1x1_0_split_0
I0605 00:51:17.023815 27501 net.cpp:411] fire5/squeeze1x1_fire5/relu_squeeze1x1_0_split -> fire5/squeeze1x1_fire5/relu_squeeze1x1_0_split_1
I0605 00:51:17.023864 27501 net.cpp:150] Setting up fire5/squeeze1x1_fire5/relu_squeeze1x1_0_split
I0605 00:51:17.023883 27501 net.cpp:157] Top shape: 50 32 27 27 (1166400)
I0605 00:51:17.023887 27501 net.cpp:157] Top shape: 50 32 27 27 (1166400)
I0605 00:51:17.023890 27501 net.cpp:165] Memory required for data: 1643405600
I0605 00:51:17.023892 27501 layer_factory.hpp:76] Creating layer fire5/expand1x1
I0605 00:51:17.023901 27501 net.cpp:106] Creating Layer fire5/expand1x1
I0605 00:51:17.023905 27501 net.cpp:454] fire5/expand1x1 <- fire5/squeeze1x1_fire5/relu_squeeze1x1_0_split_0
I0605 00:51:17.023910 27501 net.cpp:411] fire5/expand1x1 -> fire5/expand1x1
I0605 00:51:17.025161 27501 net.cpp:150] Setting up fire5/expand1x1
I0605 00:51:17.025172 27501 net.cpp:157] Top shape: 50 128 27 27 (4665600)
I0605 00:51:17.025187 27501 net.cpp:165] Memory required for data: 1662068000
I0605 00:51:17.025193 27501 layer_factory.hpp:76] Creating layer fire5/relu_expand1x1
I0605 00:51:17.025202 27501 net.cpp:106] Creating Layer fire5/relu_expand1x1
I0605 00:51:17.025205 27501 net.cpp:454] fire5/relu_expand1x1 <- fire5/expand1x1
I0605 00:51:17.025210 27501 net.cpp:397] fire5/relu_expand1x1 -> fire5/expand1x1 (in-place)
I0605 00:51:17.025534 27501 net.cpp:150] Setting up fire5/relu_expand1x1
I0605 00:51:17.025545 27501 net.cpp:157] Top shape: 50 128 27 27 (4665600)
I0605 00:51:17.025548 27501 net.cpp:165] Memory required for data: 1680730400
I0605 00:51:17.025552 27501 layer_factory.hpp:76] Creating layer fire5/expand3x3
I0605 00:51:17.025563 27501 net.cpp:106] Creating Layer fire5/expand3x3
I0605 00:51:17.025566 27501 net.cpp:454] fire5/expand3x3 <- fire5/squeeze1x1_fire5/relu_squeeze1x1_0_split_1
I0605 00:51:17.025573 27501 net.cpp:411] fire5/expand3x3 -> fire5/expand3x3
I0605 00:51:17.027472 27501 net.cpp:150] Setting up fire5/expand3x3
I0605 00:51:17.027483 27501 net.cpp:157] Top shape: 50 128 27 27 (4665600)
I0605 00:51:17.027498 27501 net.cpp:165] Memory required for data: 1699392800
I0605 00:51:17.027504 27501 layer_factory.hpp:76] Creating layer fire5/relu_expand3x3
I0605 00:51:17.027510 27501 net.cpp:106] Creating Layer fire5/relu_expand3x3
I0605 00:51:17.027513 27501 net.cpp:454] fire5/relu_expand3x3 <- fire5/expand3x3
I0605 00:51:17.027521 27501 net.cpp:397] fire5/relu_expand3x3 -> fire5/expand3x3 (in-place)
I0605 00:51:17.027843 27501 net.cpp:150] Setting up fire5/relu_expand3x3
I0605 00:51:17.027853 27501 net.cpp:157] Top shape: 50 128 27 27 (4665600)
I0605 00:51:17.027856 27501 net.cpp:165] Memory required for data: 1718055200
I0605 00:51:17.027860 27501 layer_factory.hpp:76] Creating layer fire5/concat
I0605 00:51:17.027866 27501 net.cpp:106] Creating Layer fire5/concat
I0605 00:51:17.027870 27501 net.cpp:454] fire5/concat <- fire5/expand1x1
I0605 00:51:17.027874 27501 net.cpp:454] fire5/concat <- fire5/expand3x3
I0605 00:51:17.027880 27501 net.cpp:411] fire5/concat -> fire5/concat
I0605 00:51:17.027915 27501 net.cpp:150] Setting up fire5/concat
I0605 00:51:17.027930 27501 net.cpp:157] Top shape: 50 256 27 27 (9331200)
I0605 00:51:17.027932 27501 net.cpp:165] Memory required for data: 1755380000
I0605 00:51:17.027935 27501 layer_factory.hpp:76] Creating layer fire6/squeeze1x1
I0605 00:51:17.027941 27501 net.cpp:106] Creating Layer fire6/squeeze1x1
I0605 00:51:17.027945 27501 net.cpp:454] fire6/squeeze1x1 <- fire5/concat
I0605 00:51:17.027951 27501 net.cpp:411] fire6/squeeze1x1 -> fire6/squeeze1x1
I0605 00:51:17.029131 27501 net.cpp:150] Setting up fire6/squeeze1x1
I0605 00:51:17.029145 27501 net.cpp:157] Top shape: 50 48 27 27 (1749600)
I0605 00:51:17.029158 27501 net.cpp:165] Memory required for data: 1762378400
I0605 00:51:17.029165 27501 layer_factory.hpp:76] Creating layer fire6/relu_squeeze1x1
I0605 00:51:17.029171 27501 net.cpp:106] Creating Layer fire6/relu_squeeze1x1
I0605 00:51:17.029177 27501 net.cpp:454] fire6/relu_squeeze1x1 <- fire6/squeeze1x1
I0605 00:51:17.029182 27501 net.cpp:397] fire6/relu_squeeze1x1 -> fire6/squeeze1x1 (in-place)
I0605 00:51:17.029371 27501 net.cpp:150] Setting up fire6/relu_squeeze1x1
I0605 00:51:17.029379 27501 net.cpp:157] Top shape: 50 48 27 27 (1749600)
I0605 00:51:17.029395 27501 net.cpp:165] Memory required for data: 1769376800
I0605 00:51:17.029398 27501 layer_factory.hpp:76] Creating layer fire6/squeeze1x1_fire6/relu_squeeze1x1_0_split
I0605 00:51:17.029410 27501 net.cpp:106] Creating Layer fire6/squeeze1x1_fire6/relu_squeeze1x1_0_split
I0605 00:51:17.029413 27501 net.cpp:454] fire6/squeeze1x1_fire6/relu_squeeze1x1_0_split <- fire6/squeeze1x1
I0605 00:51:17.029418 27501 net.cpp:411] fire6/squeeze1x1_fire6/relu_squeeze1x1_0_split -> fire6/squeeze1x1_fire6/relu_squeeze1x1_0_split_0
I0605 00:51:17.029428 27501 net.cpp:411] fire6/squeeze1x1_fire6/relu_squeeze1x1_0_split -> fire6/squeeze1x1_fire6/relu_squeeze1x1_0_split_1
I0605 00:51:17.029477 27501 net.cpp:150] Setting up fire6/squeeze1x1_fire6/relu_squeeze1x1_0_split
I0605 00:51:17.029484 27501 net.cpp:157] Top shape: 50 48 27 27 (1749600)
I0605 00:51:17.029489 27501 net.cpp:157] Top shape: 50 48 27 27 (1749600)
I0605 00:51:17.029490 27501 net.cpp:165] Memory required for data: 1783373600
I0605 00:51:17.029494 27501 layer_factory.hpp:76] Creating layer fire6/expand1x1
I0605 00:51:17.029502 27501 net.cpp:106] Creating Layer fire6/expand1x1
I0605 00:51:17.029505 27501 net.cpp:454] fire6/expand1x1 <- fire6/squeeze1x1_fire6/relu_squeeze1x1_0_split_0
I0605 00:51:17.029512 27501 net.cpp:411] fire6/expand1x1 -> fire6/expand1x1
I0605 00:51:17.030809 27501 net.cpp:150] Setting up fire6/expand1x1
I0605 00:51:17.030833 27501 net.cpp:157] Top shape: 50 192 27 27 (6998400)
I0605 00:51:17.030836 27501 net.cpp:165] Memory required for data: 1811367200
I0605 00:51:17.030843 27501 layer_factory.hpp:76] Creating layer fire6/relu_expand1x1
I0605 00:51:17.030851 27501 net.cpp:106] Creating Layer fire6/relu_expand1x1
I0605 00:51:17.030855 27501 net.cpp:454] fire6/relu_expand1x1 <- fire6/expand1x1
I0605 00:51:17.030860 27501 net.cpp:397] fire6/relu_expand1x1 -> fire6/expand1x1 (in-place)
I0605 00:51:17.031188 27501 net.cpp:150] Setting up fire6/relu_expand1x1
I0605 00:51:17.031209 27501 net.cpp:157] Top shape: 50 192 27 27 (6998400)
I0605 00:51:17.031213 27501 net.cpp:165] Memory required for data: 1839360800
I0605 00:51:17.031215 27501 layer_factory.hpp:76] Creating layer fire6/expand3x3
I0605 00:51:17.031236 27501 net.cpp:106] Creating Layer fire6/expand3x3
I0605 00:51:17.031242 27501 net.cpp:454] fire6/expand3x3 <- fire6/squeeze1x1_fire6/relu_squeeze1x1_0_split_1
I0605 00:51:17.031249 27501 net.cpp:411] fire6/expand3x3 -> fire6/expand3x3
I0605 00:51:17.032672 27501 net.cpp:150] Setting up fire6/expand3x3
I0605 00:51:17.032685 27501 net.cpp:157] Top shape: 50 192 27 27 (6998400)
I0605 00:51:17.032699 27501 net.cpp:165] Memory required for data: 1867354400
I0605 00:51:17.032708 27501 layer_factory.hpp:76] Creating layer fire6/relu_expand3x3
I0605 00:51:17.032714 27501 net.cpp:106] Creating Layer fire6/relu_expand3x3
I0605 00:51:17.032718 27501 net.cpp:454] fire6/relu_expand3x3 <- fire6/expand3x3
I0605 00:51:17.032724 27501 net.cpp:397] fire6/relu_expand3x3 -> fire6/expand3x3 (in-place)
I0605 00:51:17.033056 27501 net.cpp:150] Setting up fire6/relu_expand3x3
I0605 00:51:17.033077 27501 net.cpp:157] Top shape: 50 192 27 27 (6998400)
I0605 00:51:17.033092 27501 net.cpp:165] Memory required for data: 1895348000
I0605 00:51:17.033097 27501 layer_factory.hpp:76] Creating layer fire6/concat
I0605 00:51:17.033102 27501 net.cpp:106] Creating Layer fire6/concat
I0605 00:51:17.033105 27501 net.cpp:454] fire6/concat <- fire6/expand1x1
I0605 00:51:17.033109 27501 net.cpp:454] fire6/concat <- fire6/expand3x3
I0605 00:51:17.033121 27501 net.cpp:411] fire6/concat -> fire6/concat
I0605 00:51:17.033156 27501 net.cpp:150] Setting up fire6/concat
I0605 00:51:17.033161 27501 net.cpp:157] Top shape: 50 384 27 27 (13996800)
I0605 00:51:17.033164 27501 net.cpp:165] Memory required for data: 1951335200
I0605 00:51:17.033166 27501 layer_factory.hpp:76] Creating layer fire7/squeeze1x1
I0605 00:51:17.033175 27501 net.cpp:106] Creating Layer fire7/squeeze1x1
I0605 00:51:17.033179 27501 net.cpp:454] fire7/squeeze1x1 <- fire6/concat
I0605 00:51:17.033200 27501 net.cpp:411] fire7/squeeze1x1 -> fire7/squeeze1x1
I0605 00:51:17.034369 27501 net.cpp:150] Setting up fire7/squeeze1x1
I0605 00:51:17.034380 27501 net.cpp:157] Top shape: 50 48 27 27 (1749600)
I0605 00:51:17.034395 27501 net.cpp:165] Memory required for data: 1958333600
I0605 00:51:17.034409 27501 layer_factory.hpp:76] Creating layer fire7/relu_squeeze1x1
I0605 00:51:17.034415 27501 net.cpp:106] Creating Layer fire7/relu_squeeze1x1
I0605 00:51:17.034417 27501 net.cpp:454] fire7/relu_squeeze1x1 <- fire7/squeeze1x1
I0605 00:51:17.034422 27501 net.cpp:397] fire7/relu_squeeze1x1 -> fire7/squeeze1x1 (in-place)
I0605 00:51:17.034626 27501 net.cpp:150] Setting up fire7/relu_squeeze1x1
I0605 00:51:17.034634 27501 net.cpp:157] Top shape: 50 48 27 27 (1749600)
I0605 00:51:17.034637 27501 net.cpp:165] Memory required for data: 1965332000
I0605 00:51:17.034641 27501 layer_factory.hpp:76] Creating layer fire7/squeeze1x1_fire7/relu_squeeze1x1_0_split
I0605 00:51:17.034646 27501 net.cpp:106] Creating Layer fire7/squeeze1x1_fire7/relu_squeeze1x1_0_split
I0605 00:51:17.034649 27501 net.cpp:454] fire7/squeeze1x1_fire7/relu_squeeze1x1_0_split <- fire7/squeeze1x1
I0605 00:51:17.034657 27501 net.cpp:411] fire7/squeeze1x1_fire7/relu_squeeze1x1_0_split -> fire7/squeeze1x1_fire7/relu_squeeze1x1_0_split_0
I0605 00:51:17.034663 27501 net.cpp:411] fire7/squeeze1x1_fire7/relu_squeeze1x1_0_split -> fire7/squeeze1x1_fire7/relu_squeeze1x1_0_split_1
I0605 00:51:17.034713 27501 net.cpp:150] Setting up fire7/squeeze1x1_fire7/relu_squeeze1x1_0_split
I0605 00:51:17.034721 27501 net.cpp:157] Top shape: 50 48 27 27 (1749600)
I0605 00:51:17.034725 27501 net.cpp:157] Top shape: 50 48 27 27 (1749600)
I0605 00:51:17.034729 27501 net.cpp:165] Memory required for data: 1979328800
I0605 00:51:17.034731 27501 layer_factory.hpp:76] Creating layer fire7/expand1x1
I0605 00:51:17.034737 27501 net.cpp:106] Creating Layer fire7/expand1x1
I0605 00:51:17.034740 27501 net.cpp:454] fire7/expand1x1 <- fire7/squeeze1x1_fire7/relu_squeeze1x1_0_split_0
I0605 00:51:17.034747 27501 net.cpp:411] fire7/expand1x1 -> fire7/expand1x1
I0605 00:51:17.036023 27501 net.cpp:150] Setting up fire7/expand1x1
I0605 00:51:17.036036 27501 net.cpp:157] Top shape: 50 192 27 27 (6998400)
I0605 00:51:17.036051 27501 net.cpp:165] Memory required for data: 2007322400
I0605 00:51:17.036056 27501 layer_factory.hpp:76] Creating layer fire7/relu_expand1x1
I0605 00:51:17.036064 27501 net.cpp:106] Creating Layer fire7/relu_expand1x1
I0605 00:51:17.036068 27501 net.cpp:454] fire7/relu_expand1x1 <- fire7/expand1x1
I0605 00:51:17.036073 27501 net.cpp:397] fire7/relu_expand1x1 -> fire7/expand1x1 (in-place)
I0605 00:51:17.036422 27501 net.cpp:150] Setting up fire7/relu_expand1x1
I0605 00:51:17.036433 27501 net.cpp:157] Top shape: 50 192 27 27 (6998400)
I0605 00:51:17.036448 27501 net.cpp:165] Memory required for data: 2035316000
I0605 00:51:17.036451 27501 layer_factory.hpp:76] Creating layer fire7/expand3x3
I0605 00:51:17.036465 27501 net.cpp:106] Creating Layer fire7/expand3x3
I0605 00:51:17.036469 27501 net.cpp:454] fire7/expand3x3 <- fire7/squeeze1x1_fire7/relu_squeeze1x1_0_split_1
I0605 00:51:17.036476 27501 net.cpp:411] fire7/expand3x3 -> fire7/expand3x3
I0605 00:51:17.037914 27501 net.cpp:150] Setting up fire7/expand3x3
I0605 00:51:17.037925 27501 net.cpp:157] Top shape: 50 192 27 27 (6998400)
I0605 00:51:17.037940 27501 net.cpp:165] Memory required for data: 2063309600
I0605 00:51:17.037947 27501 layer_factory.hpp:76] Creating layer fire7/relu_expand3x3
I0605 00:51:17.037953 27501 net.cpp:106] Creating Layer fire7/relu_expand3x3
I0605 00:51:17.037956 27501 net.cpp:454] fire7/relu_expand3x3 <- fire7/expand3x3
I0605 00:51:17.037961 27501 net.cpp:397] fire7/relu_expand3x3 -> fire7/expand3x3 (in-place)
I0605 00:51:17.038285 27501 net.cpp:150] Setting up fire7/relu_expand3x3
I0605 00:51:17.038297 27501 net.cpp:157] Top shape: 50 192 27 27 (6998400)
I0605 00:51:17.038300 27501 net.cpp:165] Memory required for data: 2091303200
I0605 00:51:17.038305 27501 layer_factory.hpp:76] Creating layer fire7/concat
I0605 00:51:17.038323 27501 net.cpp:106] Creating Layer fire7/concat
I0605 00:51:17.038327 27501 net.cpp:454] fire7/concat <- fire7/expand1x1
I0605 00:51:17.038331 27501 net.cpp:454] fire7/concat <- fire7/expand3x3
I0605 00:51:17.038336 27501 net.cpp:411] fire7/concat -> fire7/concat
I0605 00:51:17.038374 27501 net.cpp:150] Setting up fire7/concat
I0605 00:51:17.038383 27501 net.cpp:157] Top shape: 50 384 27 27 (13996800)
I0605 00:51:17.038385 27501 net.cpp:165] Memory required for data: 2147290400
I0605 00:51:17.038388 27501 layer_factory.hpp:76] Creating layer fire8/squeeze1x1
I0605 00:51:17.038396 27501 net.cpp:106] Creating Layer fire8/squeeze1x1
I0605 00:51:17.038400 27501 net.cpp:454] fire8/squeeze1x1 <- fire7/concat
I0605 00:51:17.038408 27501 net.cpp:411] fire8/squeeze1x1 -> fire8/squeeze1x1
I0605 00:51:17.039768 27501 net.cpp:150] Setting up fire8/squeeze1x1
I0605 00:51:17.039780 27501 net.cpp:157] Top shape: 50 64 27 27 (2332800)
I0605 00:51:17.039784 27501 net.cpp:165] Memory required for data: 2156621600
I0605 00:51:17.039800 27501 layer_factory.hpp:76] Creating layer fire8/relu_squeeze1x1
I0605 00:51:17.039808 27501 net.cpp:106] Creating Layer fire8/relu_squeeze1x1
I0605 00:51:17.039811 27501 net.cpp:454] fire8/relu_squeeze1x1 <- fire8/squeeze1x1
I0605 00:51:17.039819 27501 net.cpp:397] fire8/relu_squeeze1x1 -> fire8/squeeze1x1 (in-place)
I0605 00:51:17.040010 27501 net.cpp:150] Setting up fire8/relu_squeeze1x1
I0605 00:51:17.040020 27501 net.cpp:157] Top shape: 50 64 27 27 (2332800)
I0605 00:51:17.040024 27501 net.cpp:165] Memory required for data: 2165952800
I0605 00:51:17.040026 27501 layer_factory.hpp:76] Creating layer fire8/squeeze1x1_fire8/relu_squeeze1x1_0_split
I0605 00:51:17.040032 27501 net.cpp:106] Creating Layer fire8/squeeze1x1_fire8/relu_squeeze1x1_0_split
I0605 00:51:17.040035 27501 net.cpp:454] fire8/squeeze1x1_fire8/relu_squeeze1x1_0_split <- fire8/squeeze1x1
I0605 00:51:17.040040 27501 net.cpp:411] fire8/squeeze1x1_fire8/relu_squeeze1x1_0_split -> fire8/squeeze1x1_fire8/relu_squeeze1x1_0_split_0
I0605 00:51:17.040047 27501 net.cpp:411] fire8/squeeze1x1_fire8/relu_squeeze1x1_0_split -> fire8/squeeze1x1_fire8/relu_squeeze1x1_0_split_1
I0605 00:51:17.040107 27501 net.cpp:150] Setting up fire8/squeeze1x1_fire8/relu_squeeze1x1_0_split
I0605 00:51:17.040113 27501 net.cpp:157] Top shape: 50 64 27 27 (2332800)
I0605 00:51:17.040117 27501 net.cpp:157] Top shape: 50 64 27 27 (2332800)
I0605 00:51:17.040119 27501 net.cpp:165] Memory required for data: 2184615200
I0605 00:51:17.040122 27501 layer_factory.hpp:76] Creating layer fire8/expand1x1
I0605 00:51:17.040132 27501 net.cpp:106] Creating Layer fire8/expand1x1
I0605 00:51:17.040134 27501 net.cpp:454] fire8/expand1x1 <- fire8/squeeze1x1_fire8/relu_squeeze1x1_0_split_0
I0605 00:51:17.040141 27501 net.cpp:411] fire8/expand1x1 -> fire8/expand1x1
I0605 00:51:17.041358 27501 net.cpp:150] Setting up fire8/expand1x1
I0605 00:51:17.041371 27501 net.cpp:157] Top shape: 50 256 27 27 (9331200)
I0605 00:51:17.041374 27501 net.cpp:165] Memory required for data: 2221940000
I0605 00:51:17.041380 27501 layer_factory.hpp:76] Creating layer fire8/relu_expand1x1
I0605 00:51:17.041388 27501 net.cpp:106] Creating Layer fire8/relu_expand1x1
I0605 00:51:17.041394 27501 net.cpp:454] fire8/relu_expand1x1 <- fire8/expand1x1
I0605 00:51:17.041404 27501 net.cpp:397] fire8/relu_expand1x1 -> fire8/expand1x1 (in-place)
I0605 00:51:17.041743 27501 net.cpp:150] Setting up fire8/relu_expand1x1
I0605 00:51:17.041754 27501 net.cpp:157] Top shape: 50 256 27 27 (9331200)
I0605 00:51:17.041756 27501 net.cpp:165] Memory required for data: 2259264800
I0605 00:51:17.041759 27501 layer_factory.hpp:76] Creating layer fire8/expand3x3
I0605 00:51:17.041769 27501 net.cpp:106] Creating Layer fire8/expand3x3
I0605 00:51:17.041774 27501 net.cpp:454] fire8/expand3x3 <- fire8/squeeze1x1_fire8/relu_squeeze1x1_0_split_1
I0605 00:51:17.041779 27501 net.cpp:411] fire8/expand3x3 -> fire8/expand3x3
I0605 00:51:17.044255 27501 net.cpp:150] Setting up fire8/expand3x3
I0605 00:51:17.044267 27501 net.cpp:157] Top shape: 50 256 27 27 (9331200)
I0605 00:51:17.044284 27501 net.cpp:165] Memory required for data: 2296589600
I0605 00:51:17.044291 27501 layer_factory.hpp:76] Creating layer fire8/relu_expand3x3
I0605 00:51:17.044298 27501 net.cpp:106] Creating Layer fire8/relu_expand3x3
I0605 00:51:17.044303 27501 net.cpp:454] fire8/relu_expand3x3 <- fire8/expand3x3
I0605 00:51:17.044312 27501 net.cpp:397] fire8/relu_expand3x3 -> fire8/expand3x3 (in-place)
I0605 00:51:17.044656 27501 net.cpp:150] Setting up fire8/relu_expand3x3
I0605 00:51:17.044667 27501 net.cpp:157] Top shape: 50 256 27 27 (9331200)
I0605 00:51:17.044670 27501 net.cpp:165] Memory required for data: 2333914400
I0605 00:51:17.044674 27501 layer_factory.hpp:76] Creating layer fire8/concat
I0605 00:51:17.044682 27501 net.cpp:106] Creating Layer fire8/concat
I0605 00:51:17.044687 27501 net.cpp:454] fire8/concat <- fire8/expand1x1
I0605 00:51:17.044692 27501 net.cpp:454] fire8/concat <- fire8/expand3x3
I0605 00:51:17.044697 27501 net.cpp:411] fire8/concat -> fire8/concat
I0605 00:51:17.044734 27501 net.cpp:150] Setting up fire8/concat
I0605 00:51:17.044739 27501 net.cpp:157] Top shape: 50 512 27 27 (18662400)
I0605 00:51:17.044742 27501 net.cpp:165] Memory required for data: 2408564000
I0605 00:51:17.044745 27501 layer_factory.hpp:76] Creating layer pool8
I0605 00:51:17.044750 27501 net.cpp:106] Creating Layer pool8
I0605 00:51:17.044754 27501 net.cpp:454] pool8 <- fire8/concat
I0605 00:51:17.044760 27501 net.cpp:411] pool8 -> pool8
I0605 00:51:17.044987 27501 net.cpp:150] Setting up pool8
I0605 00:51:17.044998 27501 net.cpp:157] Top shape: 50 512 13 13 (4326400)
I0605 00:51:17.045002 27501 net.cpp:165] Memory required for data: 2425869600
I0605 00:51:17.045006 27501 layer_factory.hpp:76] Creating layer fire9/squeeze1x1
I0605 00:51:17.045012 27501 net.cpp:106] Creating Layer fire9/squeeze1x1
I0605 00:51:17.045017 27501 net.cpp:454] fire9/squeeze1x1 <- pool8
I0605 00:51:17.045023 27501 net.cpp:411] fire9/squeeze1x1 -> fire9/squeeze1x1
I0605 00:51:17.046360 27501 net.cpp:150] Setting up fire9/squeeze1x1
I0605 00:51:17.046372 27501 net.cpp:157] Top shape: 50 64 13 13 (540800)
I0605 00:51:17.046386 27501 net.cpp:165] Memory required for data: 2428032800
I0605 00:51:17.046392 27501 layer_factory.hpp:76] Creating layer fire9/relu_squeeze1x1
I0605 00:51:17.046403 27501 net.cpp:106] Creating Layer fire9/relu_squeeze1x1
I0605 00:51:17.046407 27501 net.cpp:454] fire9/relu_squeeze1x1 <- fire9/squeeze1x1
I0605 00:51:17.046412 27501 net.cpp:397] fire9/relu_squeeze1x1 -> fire9/squeeze1x1 (in-place)
I0605 00:51:17.046751 27501 net.cpp:150] Setting up fire9/relu_squeeze1x1
I0605 00:51:17.046761 27501 net.cpp:157] Top shape: 50 64 13 13 (540800)
I0605 00:51:17.046775 27501 net.cpp:165] Memory required for data: 2430196000
I0605 00:51:17.046779 27501 layer_factory.hpp:76] Creating layer fire9/squeeze1x1_fire9/relu_squeeze1x1_0_split
I0605 00:51:17.046785 27501 net.cpp:106] Creating Layer fire9/squeeze1x1_fire9/relu_squeeze1x1_0_split
I0605 00:51:17.046788 27501 net.cpp:454] fire9/squeeze1x1_fire9/relu_squeeze1x1_0_split <- fire9/squeeze1x1
I0605 00:51:17.046795 27501 net.cpp:411] fire9/squeeze1x1_fire9/relu_squeeze1x1_0_split -> fire9/squeeze1x1_fire9/relu_squeeze1x1_0_split_0
I0605 00:51:17.046802 27501 net.cpp:411] fire9/squeeze1x1_fire9/relu_squeeze1x1_0_split -> fire9/squeeze1x1_fire9/relu_squeeze1x1_0_split_1
I0605 00:51:17.046857 27501 net.cpp:150] Setting up fire9/squeeze1x1_fire9/relu_squeeze1x1_0_split
I0605 00:51:17.046870 27501 net.cpp:157] Top shape: 50 64 13 13 (540800)
I0605 00:51:17.046875 27501 net.cpp:157] Top shape: 50 64 13 13 (540800)
I0605 00:51:17.046876 27501 net.cpp:165] Memory required for data: 2434522400
I0605 00:51:17.046880 27501 layer_factory.hpp:76] Creating layer fire9/expand1x1
I0605 00:51:17.046886 27501 net.cpp:106] Creating Layer fire9/expand1x1
I0605 00:51:17.046890 27501 net.cpp:454] fire9/expand1x1 <- fire9/squeeze1x1_fire9/relu_squeeze1x1_0_split_0
I0605 00:51:17.046896 27501 net.cpp:411] fire9/expand1x1 -> fire9/expand1x1
I0605 00:51:17.048115 27501 net.cpp:150] Setting up fire9/expand1x1
I0605 00:51:17.048126 27501 net.cpp:157] Top shape: 50 256 13 13 (2163200)
I0605 00:51:17.048141 27501 net.cpp:165] Memory required for data: 2443175200
I0605 00:51:17.048147 27501 layer_factory.hpp:76] Creating layer fire9/relu_expand1x1
I0605 00:51:17.048156 27501 net.cpp:106] Creating Layer fire9/relu_expand1x1
I0605 00:51:17.048158 27501 net.cpp:454] fire9/relu_expand1x1 <- fire9/expand1x1
I0605 00:51:17.048163 27501 net.cpp:397] fire9/relu_expand1x1 -> fire9/expand1x1 (in-place)
I0605 00:51:17.048365 27501 net.cpp:150] Setting up fire9/relu_expand1x1
I0605 00:51:17.048380 27501 net.cpp:157] Top shape: 50 256 13 13 (2163200)
I0605 00:51:17.048384 27501 net.cpp:165] Memory required for data: 2451828000
I0605 00:51:17.048388 27501 layer_factory.hpp:76] Creating layer fire9/expand3x3
I0605 00:51:17.048396 27501 net.cpp:106] Creating Layer fire9/expand3x3
I0605 00:51:17.048399 27501 net.cpp:454] fire9/expand3x3 <- fire9/squeeze1x1_fire9/relu_squeeze1x1_0_split_1
I0605 00:51:17.048405 27501 net.cpp:411] fire9/expand3x3 -> fire9/expand3x3
I0605 00:51:17.050988 27501 net.cpp:150] Setting up fire9/expand3x3
I0605 00:51:17.051002 27501 net.cpp:157] Top shape: 50 256 13 13 (2163200)
I0605 00:51:17.051004 27501 net.cpp:165] Memory required for data: 2460480800
I0605 00:51:17.051012 27501 layer_factory.hpp:76] Creating layer fire9/relu_expand3x3
I0605 00:51:17.051017 27501 net.cpp:106] Creating Layer fire9/relu_expand3x3
I0605 00:51:17.051023 27501 net.cpp:454] fire9/relu_expand3x3 <- fire9/expand3x3
I0605 00:51:17.051028 27501 net.cpp:397] fire9/relu_expand3x3 -> fire9/expand3x3 (in-place)
I0605 00:51:17.051232 27501 net.cpp:150] Setting up fire9/relu_expand3x3
I0605 00:51:17.051240 27501 net.cpp:157] Top shape: 50 256 13 13 (2163200)
I0605 00:51:17.051244 27501 net.cpp:165] Memory required for data: 2469133600
I0605 00:51:17.051247 27501 layer_factory.hpp:76] Creating layer fire9/concat
I0605 00:51:17.051254 27501 net.cpp:106] Creating Layer fire9/concat
I0605 00:51:17.051259 27501 net.cpp:454] fire9/concat <- fire9/expand1x1
I0605 00:51:17.051262 27501 net.cpp:454] fire9/concat <- fire9/expand3x3
I0605 00:51:17.051266 27501 net.cpp:411] fire9/concat -> fire9/concat
I0605 00:51:17.051302 27501 net.cpp:150] Setting up fire9/concat
I0605 00:51:17.051308 27501 net.cpp:157] Top shape: 50 512 13 13 (4326400)
I0605 00:51:17.051311 27501 net.cpp:165] Memory required for data: 2486439200
I0605 00:51:17.051313 27501 layer_factory.hpp:76] Creating layer drop9
I0605 00:51:17.051319 27501 net.cpp:106] Creating Layer drop9
I0605 00:51:17.051322 27501 net.cpp:454] drop9 <- fire9/concat
I0605 00:51:17.051329 27501 net.cpp:397] drop9 -> fire9/concat (in-place)
I0605 00:51:17.051362 27501 net.cpp:150] Setting up drop9
I0605 00:51:17.051368 27501 net.cpp:157] Top shape: 50 512 13 13 (4326400)
I0605 00:51:17.051372 27501 net.cpp:165] Memory required for data: 2503744800
I0605 00:51:17.051374 27501 layer_factory.hpp:76] Creating layer conv10
I0605 00:51:17.051380 27501 net.cpp:106] Creating Layer conv10
I0605 00:51:17.051383 27501 net.cpp:454] conv10 <- fire9/concat
I0605 00:51:17.051390 27501 net.cpp:411] conv10 -> conv10
I0605 00:51:17.067824 27501 net.cpp:150] Setting up conv10
I0605 00:51:17.067844 27501 net.cpp:157] Top shape: 50 1000 15 15 (11250000)
I0605 00:51:17.067848 27501 net.cpp:165] Memory required for data: 2548744800
I0605 00:51:17.067855 27501 layer_factory.hpp:76] Creating layer relu_conv10
I0605 00:51:17.067862 27501 net.cpp:106] Creating Layer relu_conv10
I0605 00:51:17.067865 27501 net.cpp:454] relu_conv10 <- conv10
I0605 00:51:17.067872 27501 net.cpp:397] relu_conv10 -> conv10 (in-place)
I0605 00:51:17.068202 27501 net.cpp:150] Setting up relu_conv10
I0605 00:51:17.068212 27501 net.cpp:157] Top shape: 50 1000 15 15 (11250000)
I0605 00:51:17.068215 27501 net.cpp:165] Memory required for data: 2593744800
I0605 00:51:17.068219 27501 layer_factory.hpp:76] Creating layer pool10
I0605 00:51:17.068227 27501 net.cpp:106] Creating Layer pool10
I0605 00:51:17.068230 27501 net.cpp:454] pool10 <- conv10
I0605 00:51:17.068256 27501 net.cpp:411] pool10 -> pool10
I0605 00:51:17.068490 27501 net.cpp:150] Setting up pool10
I0605 00:51:17.068500 27501 net.cpp:157] Top shape: 50 1000 1 1 (50000)
I0605 00:51:17.068501 27501 net.cpp:165] Memory required for data: 2593944800
I0605 00:51:17.068506 27501 layer_factory.hpp:76] Creating layer pool10_pool10_0_split
I0605 00:51:17.068513 27501 net.cpp:106] Creating Layer pool10_pool10_0_split
I0605 00:51:17.068516 27501 net.cpp:454] pool10_pool10_0_split <- pool10
I0605 00:51:17.068521 27501 net.cpp:411] pool10_pool10_0_split -> pool10_pool10_0_split_0
I0605 00:51:17.068528 27501 net.cpp:411] pool10_pool10_0_split -> pool10_pool10_0_split_1
I0605 00:51:17.068536 27501 net.cpp:411] pool10_pool10_0_split -> pool10_pool10_0_split_2
I0605 00:51:17.068603 27501 net.cpp:150] Setting up pool10_pool10_0_split
I0605 00:51:17.068610 27501 net.cpp:157] Top shape: 50 1000 1 1 (50000)
I0605 00:51:17.068614 27501 net.cpp:157] Top shape: 50 1000 1 1 (50000)
I0605 00:51:17.068617 27501 net.cpp:157] Top shape: 50 1000 1 1 (50000)
I0605 00:51:17.068620 27501 net.cpp:165] Memory required for data: 2594544800
I0605 00:51:17.068624 27501 layer_factory.hpp:76] Creating layer loss
I0605 00:51:17.068634 27501 net.cpp:106] Creating Layer loss
I0605 00:51:17.068636 27501 net.cpp:454] loss <- pool10_pool10_0_split_0
I0605 00:51:17.068640 27501 net.cpp:454] loss <- label_data_1_split_0
I0605 00:51:17.068647 27501 net.cpp:411] loss -> loss
…
