…
      mirror: false
      crop_size: 128
      mean_value: 104
      mean_value: 117
      mean_value: 123
      force_color: true
      resize_param {
        prob: 1
        resize_mode: FIT_SMALL_SIZE
        height: 144
        width: 144
        pad_mode: MIRRORED
        pad_value: 104
        pad_value: 117
        pad_value: 124
        interp_mode: CUBIC
        center_object: false
        max_angle: 0
      }
    }
    data_param {
      source: "/home/old-ufo/datasets/imagenet/ilsvrc12_val_lmdb"
      batch_size: 250
      backend: LMDB
    }
  }
  layer {
    name: "conv0"
    type: "Convolution"
    bottom: "data"
    top: "conv0"
    param {
      lr_mult: 1
      decay_mult: 1
    }
    param {
      lr_mult: 2
      decay_mult: 0
    }
    convolution_param {
      num_output: 64
      kernel_size: 11
      stride: 4
      weight_filler {
        type: "msra"
      }
      bias_filler {
        type: "constant"
      }
    }
  }
  layer {
    name: "conv0/nl"
    type: "ReLU"
    bottom: "conv0"
    top: "conv0"
  }
  layer {
    name: "pool0"
    type: "Pooling"
    bottom: "conv0"
    top: "pool0"
    pooling_param {
      pool: MAX
      kernel_size: 3
      stride: 2
    }
  }
  layer {
    name: "stage0/block0/conv_reduce"
    type: "Convolution"
    bottom: "pool0"
    top: "stage0/block0/conv_reduce"
    param {
      lr_mult: 1
      decay_mult: 1
    }
    param {
      lr_mult: 2
      decay_mult: 0
    }
    convolution_param {
      num_output: 36
      kernel_size: 1
      stride: 1
      weight_filler {
        type: "msra"
      }
      bias_filler {
        type: "constant"
      }
    }
  }
  layer {
    name: "stage0/block0/conv_reduce/nl"
    type: "ReLU"
    bottom: "stage0/block0/conv_reduce"
    top: "stage0/block0/conv_reduce"
  }
  layer {
    name: "stage0/block0/conv_reduce/BN"
    type: "BatchNorm"
    bottom: "stage0/block0/conv_reduce"
    top: "stage0/block0/conv_reduce/BN"
    param {
      lr_mult: 0
      decay_mult: 0
    }
    param {
      lr_mult: 0
      decay_mult: 0
    }
    param {
      lr_mult: 0
      decay_mult: 0
    }
    include {
      phase: TRAIN
    }
    batch_norm_param {
      use_global_stats: false
      moving_average_fraction: 0.95
    }
  }
  layer {
    name: "stage0/block0/conv_reduce/BN"
    type: "BatchNorm"
    bottom: "stage0/block0/conv_reduce"
    top: "stage0/block0/conv_reduce/BN"
    param {
      lr_mult: 0
      decay_mult: 0
    }
    param {
      lr_mult: 0
      decay_mult: 0
    }
    param {
      lr_mult: 0
      decay_mult: 0
    }
    include {
      phase: TEST
    }
    batch_norm_param {
      use_global_stats: true
      moving_average_fraction: 0.95
    }
  }
  layer {
    name: "stage0/block0/conv"
    type: "Convolution"
    bottom: "stage0/block0/conv_reduce/BN"
    top: "stage0/block0/conv"
    param {
      lr_mult: 1
      decay_mult: 1
    }
    param {
      lr_mult: 2
      decay_mult: 0
    }
    convolution_param {
      num_output: 36
      pad: 1
      kernel_size: 3
      stride: 1
      weight_filler {
        type: "msra"
      }
      bias_filler {
        type: "constant"
      }
    }
  }
  layer {
    name: "stage0/block0/conv/nl"
    type: "ReLU"
    bottom: "stage0/block0/conv"
    top: "stage0/block0/conv"
  }
  layer {
    name: "stage0/block0/conv/BN"
    type: "BatchNorm"
    bottom: "stage0/block0/conv"
    top: "stage0/block0/conv/BN"
    param {
      lr_mult: 0
      decay_mult: 0
    }
    param {
      lr_mult: 0
      decay_mult: 0
    }
    param {
      lr_mult: 0
      decay_mult: 0
    }
    include {
      phase: TRAIN
    }
    batch_norm_param {
      use_global_stats: false
      moving_average_fraction: 0.95
    }
  }
  layer {
    name: "stage0/block0/conv/BN"
    type: "BatchNorm"
    bottom: "stage0/block0/conv"
    top: "stage0/block0/conv/BN"
    param {
      lr_mult: 0
      decay_mult: 0
    }
    param {
      lr_mult: 0
      decay_mult: 0
    }
    param {
      lr_mult: 0
      decay_mult: 0
    }
    include {
      phase: TEST
    }
    batch_norm_param {
      use_global_stats: true
      moving_average_fraction: 0.95
    }
  }
  layer {
    name: "stage0/block0/conv_restore"
    type: "Convolution"
    bottom: "stage0/block0/conv/BN"
    top: "stage0/block0/conv_restore"
    param {
      lr_mult: 1
      decay_mult: 1
    }
    param {
      lr_mult: 2
      decay_mult: 0
    }
    convolution_param {
      num_output: 120
      kernel_size: 1
      stride: 1
      weight_filler {
        type: "msra"
      }
      bias_filler {
        type: "constant"
      }
    }
  }
  layer {
    name: "stage0/block0/shortcut"
    type: "Convolution"
    bottom: "pool0"
    top: "stage0/block0/shortcut"
    param {
      lr_mult: 1
      decay_mult: 1
    }
    param {
      lr_mult: 2
      decay_mult: 0
    }
    convolution_param {
      num_output: 120
      kernel_size: 1
      stride: 1
      weight_filler {
        type: "msra"
      }
      bias_filler {
        type: "constant"
      }
    }
  }
  layer {
    name: "stage0/block0/sum"
    type: "Eltwise"
    bottom: "stage0/block0/conv_restore"
    bottom: "stage0/block0/shortcut"
    top: "stage0/block0/sum"
    eltwise_param {
      operation: SUM
    }
  }
  layer {
    name: "stage0/block0/sum/nl"
    type: "ReLU"
    bottom: "stage0/block0/sum"
    top: "stage0/block0/sum"
  }
  layer {
    name: "stage0/block0/sum/BN"
    type: "BatchNorm"
    bottom: "stage0/block0/sum"
    top: "stage0/block0/sum/BN"
    param {
      lr_mult: 0
      decay_mult: 0
    }
    param {
      lr_mult: 0
      decay_mult: 0
    }
    param {
      lr_mult: 0
      decay_mult: 0
    }
    include {
      phase: TRAIN
    }
    batch_norm_param {
      use_global_stats: false
      moving_average_fraction: 0.95
    }
  }
  layer {
    name: "stage0/block0/sum/BN"
    type: "BatchNorm"
    bottom: "stage0/block0/sum"
    top: "stage0/block0/sum/BN"
    param {
      lr_mult: 0
      decay_mult: 0
    }
    param {
      lr_mult: 0
      decay_mult: 0
    }
    param {
      lr_mult: 0
      decay_mult: 0
    }
    include {
      phase: TEST
    }
    batch_norm_param {
      use_global_stats: true
      moving_average_fraction: 0.95
    }
  }
  layer {
    name: "stage0/block1/conv_reduce"
    type: "Convolution"
    bottom: "stage0/block0/sum/BN"
    top: "stage0/block1/conv_reduce"
    param {
      lr_mult: 1
      decay_mult: 1
    }
    param {
      lr_mult: 2
      decay_mult: 0
    }
    convolution_param {
      num_output: 36
      kernel_size: 1
      stride: 1
      weight_filler {
        type: "msra"
      }
      bias_filler {
        type: "constant"
      }
    }
  }
  layer {
    name: "stage0/block1/conv_reduce/nl"
    type: "ReLU"
    bottom: "stage0/block1/conv_reduce"
    top: "stage0/block1/conv_reduce"
  }
  layer {
    name: "stage0/block1/conv_reduce/BN"
    type: "BatchNorm"
    bottom: "stage0/block1/conv_reduce"
    top: "stage0/block1/conv_reduce/BN"
    param {
      lr_mult: 0
      decay_mult: 0
    }
    param {
      lr_mult: 0
      decay_mult: 0
    }
    param {
      lr_mult: 0
      decay_mult: 0
    }
    include {
      phase: TRAIN
    }
    batch_norm_param {
      use_global_stats: false
      moving_average_fraction: 0.95
    }
  }
  layer {
    name: "stage0/block1/conv_reduce/BN"
    type: "BatchNorm"
    bottom: "stage0/block1/conv_reduce"
    top: "stage0/block1/conv_reduce/BN"
    param {
      lr_mult: 0
      decay_mult: 0
    }
    param {
      lr_mult: 0
      decay_mult: 0
    }
    param {
      lr_mult: 0
      decay_mult: 0
    }
    include {
      phase: TEST
    }
    batch_norm_param {
      use_global_stats: true
      moving_average_fraction: 0.95
    }
  }
  layer {
    name: "stage0/block1/conv"
    type: "Convolution"
    bottom: "stage0/block1/conv_reduce/BN"
    top: "stage0/block1/conv"
    param {
      lr_mult: 1
      decay_mult: 1
    }
    param {
      lr_mult: 2
      decay_mult: 0
    }
    convolution_param {
      num_output: 36
      pad: 1
      kernel_size: 3
      stride: 1
      weight_filler {
        type: "msra"
      }
      bias_filler {
        type: "constant"
      }
    }
  }
  layer {
    name: "stage0/block1/conv/nl"
    type: "ReLU"
    bottom: "stage0/block1/conv"
    top: "stage0/block1/conv"
  }
  layer {
    name: "stage0/block1/conv/BN"
    type: "BatchNorm"
    bottom: "stage0/block1/conv"
    top: "stage0/block1/conv/BN"
    param {
      lr_mult: 0
      decay_mult: 0
    }
    param {
      lr_mult: 0
      decay_mult: 0
    }
    param {
      lr_mult: 0
      decay_mult: 0
    }
    include {
      phase: TRAIN
    }
    batch_norm_param {
      use_global_stats: false
      moving_average_fraction: 0.95
    }
  }
  layer {
    name: "stage0/block1/conv/BN"
    type: "BatchNorm"
    bottom: "stage0/block1/conv"
    top: "stage0/block1/conv/BN"
    param {
      lr_mult: 0
      decay_mult: 0
    }
    param {
      lr_mult: 0
      decay_mult: 0
    }
    param {
      lr_mult: 0
      decay_mult: 0
    }
    include {
      phase: TEST
    }
    batch_norm_param {
      use_global_stats: true
      moving_average_fraction: 0.95
    }
  }
  layer {
    name: "stage0/block1/conv_restore"
    type: "Convolution"
    bottom: "stage0/block1/conv/BN"
    top: "stage0/block1/conv_restore"
    param {
      lr_mult: 1
      decay_mult: 1
    }
    param {
      lr_mult: 2
      decay_mult: 0
    }
    convolution_param {
      num_output: 120
      kernel_size: 1
      stride: 1
      weight_filler {
        type: "msra"
      }
      bias_filler {
        type: "constant"
      }
    }
  }
  layer {
    name: "stage0/block1/sum"
    type: "Eltwise"
    bottom: "stage0/block1/conv_restore"
    bottom: "stage0/block0/sum/BN"
    top: "stage0/block1/sum"
    eltwise_param {
      operation: SUM
    }
  }
  layer {
    name: "stage0/block1/sum/nl"
    type: "ReLU"
    bottom: "stage0/block1/sum"
    top: "stage0/block1/sum"
  }
  layer {
    name: "stage0/block1/sum/BN"
    type: "BatchNorm"
    bottom: "stage0/block1/sum"
    top: "stage0/block1/sum/BN"
    param {
      lr_mult: 0
      decay_mult: 0
    }
    param {
      lr_mult: 0
      decay_mult: 0
    }
    param {
      lr_mult: 0
      decay_mult: 0
    }
    include {
      phase: TRAIN
    }
    batch_norm_param {
      use_global_stats: false
      moving_average_fraction: 0.95
    }
  }
  layer {
    name: "stage0/block1/sum/BN"
    type: "BatchNorm"
    bottom: "stage0/block1/sum"
    top: "stage0/block1/sum/BN"
    param {
      lr_mult: 0
      decay_mult: 0
    }
    param {
      lr_mult: 0
      decay_mult: 0
    }
    param {
      lr_mult: 0
      decay_mult: 0
    }
    include {
      phase: TEST
    }
    batch_norm_param {
      use_global_stats: true
      moving_average_fraction: 0.95
    }
  }
  layer {
    name: "stage0/block2/conv_reduce"
    type: "Convolution"
    bottom: "stage0/block1/sum/BN"
    top: "stage0/block2/conv_reduce"
    param {
      lr_mult: 1
      decay_mult: 1
    }
    param {
      lr_mult: 2
      decay_mult: 0
    }
    convolution_param {
      num_output: 36
      kernel_size: 1
      stride: 1
      weight_filler {
        type: "msra"
      }
      bias_filler {
        type: "constant"
      }
    }
  }
  layer {
    name: "stage0/block2/conv_reduce/nl"
    type: "ReLU"
    bottom: "stage0/block2/conv_reduce"
    top: "stage0/block2/conv_reduce"
  }
  layer {
    name: "stage0/block2/conv_reduce/BN"
    type: "BatchNorm"
    bottom: "stage0/block2/conv_reduce"
    top: "stage0/block2/conv_reduce/BN"
    param {
      lr_mult: 0
      decay_mult: 0
    }
    param {
      lr_mult: 0
      decay_mult: 0
    }
    param {
      lr_mult: 0
      decay_mult: 0
    }
    include {
      phase: TRAIN
    }
    batch_norm_param {
      use_global_stats: false
      moving_average_fraction: 0.95
    }
  }
  layer {
    name: "stage0/block2/conv_reduce/BN"
    type: "BatchNorm"
    bottom: "stage0/block2/conv_reduce"
    top: "stage0/block2/conv_reduce/BN"
    param {
      lr_mult: 0
      decay_mult: 0
    }
    param {
      lr_mult: 0
      decay_mult: 0
    }
    param {
      lr_mult: 0
      decay_mult: 0
    }
    include {
      phase: TEST
    }
    batch_norm_param {
      use_global_stats: true
      moving_average_fraction: 0.95
    }
  }
  layer {
    name: "stage0/block2/conv"
    type: "Convolution"
    bottom: "stage0/block2/conv_reduce/BN"
    top: "stage0/block2/conv"
    param {
      lr_mult: 1
      decay_mult: 1
    }
    param {
      lr_mult: 2
      decay_mult: 0
    }
    convolution_param {
      num_output: 36
      pad: 1
      kernel_size: 3
      stride: 1
      weight_filler {
        type: "msra"
      }
      bias_filler {
        type: "constant"
      }
    }
  }
  layer {
    name: "stage0/block2/conv/nl"
    type: "ReLU"
    bottom: "stage0/block2/conv"
    top: "stage0/block2/conv"
  }
  layer {
    name: "stage0/block2/conv/BN"
    type: "BatchNorm"
    bottom: "stage0/block2/conv"
    top: "stage0/block2/conv/BN"
    param {
      lr_mult: 0
      decay_mult: 0
    }
    param {
      lr_mult: 0
      decay_mult: 0
    }
    param {
      lr_mult: 0
      decay_mult: 0
    }
    include {
      phase: TRAIN
    }
    batch_norm_param {
      use_global_stats: false
      moving_average_fraction: 0.95
    }
  }
  layer {
    name: "stage0/block2/conv/BN"
    type: "BatchNorm"
    bottom: "stage0/block2/conv"
    top: "stage0/block2/conv/BN"
    param {
      lr_mult: 0
      decay_mult: 0
    }
    param {
      lr_mult: 0
      decay_mult: 0
    }
    param {
      lr_mult: 0
      decay_mult: 0
    }
    include {
      phase: TEST
    }
    batch_norm_param {
      use_global_stats: true
      moving_average_fraction: 0.95
    }
  }
  layer {
    name: "stage0/block2/conv_restore"
    type: "Convolution"
    bottom: "stage0/block2/conv/BN"
    top: "stage0/block2/conv_restore"
    param {
      lr_mult: 1
      decay_mult: 1
    }
    param {
      lr_mult: 2
      decay_mult: 0
    }
    convolution_param {
      num_output: 120
      kernel_size: 1
      stride: 1
      weight_filler {
        type: "msra"
      }
      bias_filler {
        type: "constant"
      }
    }
  }
  layer {
    name: "stage0/block2/sum"
    type: "Eltwise"
    bottom: "stage0/block2/conv_restore"
    bottom: "stage0/block1/sum/BN"
    top: "stage0/block2/sum"
    eltwise_param {
      operation: SUM
    }
  }
  layer {
    name: "stage0/block2/sum/nl"
    type: "ReLU"
    bottom: "stage0/block2/sum"
    top: "stage0/block2/sum"
  }
  layer {
    name: "stage0/block2/sum/BN"
    type: "BatchNorm"
    bottom: "stage0/block2/sum"
    top: "stage0/block2/sum/BN"
    param {
      lr_mult: 0
      decay_mult: 0
    }
    param {
      lr_mult: 0
      decay_mult: 0
    }
    param {
      lr_mult: 0
      decay_mult: 0
    }
    include {
      phase: TRAIN
    }
    batch_norm_param {
      use_global_stats: false
      moving_average_fraction: 0.95
    }
  }
  layer {
    name: "stage0/block2/sum/BN"
    type: "BatchNorm"
    bottom: "stage0/block2/sum"
    top: "stage0/block2/sum/BN"
    param {
      lr_mult: 0
      decay_mult: 0
    }
    param {
      lr_mult: 0
      decay_mult: 0
    }
    param {
      lr_mult: 0
      decay_mult: 0
    }
    include {
      phase: TEST
    }
    batch_norm_param {
      use_global_stats: true
      moving_average_fraction: 0.95
    }
  }
  layer {
    name: "stage1/block0/conv_reduce"
    type: "Convolution"
    bottom: "stage0/block2/sum/BN"
    top: "stage1/block0/conv_reduce"
    param {
      lr_mult: 1
      decay_mult: 1
    }
    param {
      lr_mult: 2
      decay_mult: 0
    }
    convolution_param {
      num_output: 72
      kernel_size: 1
      stride: 1
      weight_filler {
        type: "msra"
      }
      bias_filler {
        type: "constant"
      }
    }
  }
  layer {
    name: "stage1/block0/conv_reduce/nl"
    type: "ReLU"
    bottom: "stage1/block0/conv_reduce"
    top: "stage1/block0/conv_reduce"
  }
  layer {
    name: "stage1/block0/conv_reduce/BN"
    type: "BatchNorm"
    bottom: "stage1/block0/conv_reduce"
    top: "stage1/block0/conv_reduce/BN"
    param {
      lr_mult: 0
      decay_mult: 0
    }
    param {
      lr_mult: 0
      decay_mult: 0
    }
    param {
      lr_mult: 0
      decay_mult: 0
    }
    include {
      phase: TRAIN
    }
    batch_norm_param {
      use_global_stats: false
      moving_average_fraction: 0.95
    }
  }
  layer {
    name: "stage1/block0/conv_reduce/BN"
    type: "BatchNorm"
    bottom: "stage1/block0/conv_reduce"
    top: "stage1/block0/conv_reduce/BN"
    param {
      lr_mult: 0
      decay_mult: 0
    }
    param {
      lr_mult: 0
      decay_mult: 0
    }
    param {
      lr_mult: 0
      decay_mult: 0
    }
    include {
      phase: TEST
    }
    batch_norm_param {
      use_global_stats: true
      moving_average_fraction: 0.95
    }
  }
  layer {
    name: "stage1/block0/conv"
    type: "Convolution"
    bottom: "stage1/block0/conv_reduce/BN"
    top: "stage1/block0/conv"
    param {
      lr_mult: 1
      decay_mult: 1
    }
    param {
      lr_mult: 2
      decay_mult: 0
    }
    convolution_param {
      num_output: 72
      pad: 1
      kernel_size: 3
      stride: 2
      weight_filler {
        type: "msra"
      }
      bias_filler {
        type: "constant"
      }
    }
  }
  layer {
    name: "stage1/block0/conv/nl"
    type: "ReLU"
    bottom: "stage1/block0/conv"
    top: "stage1/block0/conv"
  }
  layer {
    name: "stage1/block0/conv/BN"
    type: "BatchNorm"
    bottom: "stage1/block0/conv"
    top: "stage1/block0/conv/BN"
    param {
      lr_mult: 0
      decay_mult: 0
    }
    param {
      lr_mult: 0
      decay_mult: 0
    }
    param {
      lr_mult: 0
      decay_mult: 0
    }
    include {
      phase: TRAIN
    }
    batch_norm_param {
      use_global_stats: false
      moving_average_fraction: 0.95
    }
  }
  layer {
    name: "stage1/block0/conv/BN"
    type: "BatchNorm"
    bottom: "stage1/block0/conv"
    top: "stage1/block0/conv/BN"
    param {
      lr_mult: 0
      decay_mult: 0
    }
    param {
      lr_mult: 0
      decay_mult: 0
    }
    param {
      lr_mult: 0
      decay_mult: 0
    }
    include {
      phase: TEST
    }
    batch_norm_param {
      use_global_stats: true
      moving_average_fraction: 0.95
    }
  }
  layer {
    name: "stage1/block0/conv_restore"
    type: "Convolution"
    bottom: "stage1/block0/conv/BN"
    top: "stage1/block0/conv_restore"
    param {
      lr_mult: 1
      decay_mult: 1
    }
    param {
      lr_mult: 2
      decay_mult: 0
    }
    convolution_param {
      num_output: 240
      kernel_size: 1
      stride: 1
      weight_filler {
        type: "msra"
      }
      bias_filler {
        type: "constant"
      }
    }
  }
  layer {
    name: "stage1/block0/shortcut"
    type: "Convolution"
    bottom: "stage0/block2/sum/BN"
    top: "stage1/block0/shortcut"
    param {
      lr_mult: 1
      decay_mult: 1
    }
    param {
      lr_mult: 2
      decay_mult: 0
    }
    convolution_param {
      num_output: 240
      kernel_size: 1
      stride: 2
      weight_filler {
        type: "msra"
      }
      bias_filler {
        type: "constant"
      }
    }
  }
  layer {
    name: "stage1/block0/sum"
    type: "Eltwise"
    bottom: "stage1/block0/conv_restore"
    bottom: "stage1/block0/shortcut"
    top: "stage1/block0/sum"
    eltwise_param {
      operation: SUM
    }
  }
  layer {
    name: "stage1/block0/sum/nl"
    type: "ReLU"
    bottom: "stage1/block0/sum"
    top: "stage1/block0/sum"
  }
  layer {
    name: "stage1/block0/sum/BN"
    type: "BatchNorm"
    bottom: "stage1/block0/sum"
    top: "stage1/block0/sum/BN"
    param {
      lr_mult: 0
      decay_mult: 0
    }
    param {
      lr_mult: 0
      decay_mult: 0
    }
    param {
      lr_mult: 0
      decay_mult: 0
    }
    include {
      phase: TRAIN
    }
    batch_norm_param {
      use_global_stats: false
      moving_average_fraction: 0.95
    }
  }
  layer {
    name: "stage1/block0/sum/BN"
    type: "BatchNorm"
    bottom: "stage1/block0/sum"
    top: "stage1/block0/sum/BN"
    param {
      lr_mult: 0
      decay_mult: 0
    }
    param {
      lr_mult: 0
      decay_mult: 0
    }
    param {
      lr_mult: 0
      decay_mult: 0
    }
    include {
      phase: TEST
    }
    batch_norm_param {
      use_global_stats: true
      moving_average_fraction: 0.95
    }
  }
  layer {
    name: "stage1/block1/conv_reduce"
    type: "Convolution"
    bottom: "stage1/block0/sum/BN"
    top: "stage1/block1/conv_reduce"
    param {
      lr_mult: 1
      decay_mult: 1
    }
    param {
      lr_mult: 2
      decay_mult: 0
    }
    convolution_param {
      num_output: 72
      kernel_size: 1
      stride: 1
      weight_filler {
        type: "msra"
      }
      bias_filler {
        type: "constant"
      }
    }
  }
  layer {
    name: "stage1/block1/conv_reduce/nl"
    type: "ReLU"
    bottom: "stage1/block1/conv_reduce"
    top: "stage1/block1/conv_reduce"
  }
  layer {
    name: "stage1/block1/conv_reduce/BN"
    type: "BatchNorm"
    bottom: "stage1/block1/conv_reduce"
    top: "stage1/block1/conv_reduce/BN"
    param {
      lr_mult: 0
      decay_mult: 0
    }
    param {
      lr_mult: 0
      decay_mult: 0
    }
    param {
      lr_mult: 0
      decay_mult: 0
    }
    include {
      phase: TRAIN
    }
    batch_norm_param {
      use_global_stats: false
      moving_average_fraction: 0.95
    }
  }
  layer {
    name: "stage1/block1/conv_reduce/BN"
    type: "BatchNorm"
    bottom: "stage1/block1/conv_reduce"
    top: "stage1/block1/conv_reduce/BN"
    param {
      lr_mult: 0
      decay_mult: 0
    }
    param {
      lr_mult: 0
      decay_mult: 0
    }
    param {
      lr_mult: 0
      decay_mult: 0
    }
    include {
      phase: TEST
    }
    batch_norm_param {
      use_global_stats: true
      moving_average_fraction: 0.95
    }
  }
  layer {
    name: "stage1/block1/conv"
    type: "Convolution"
    bottom: "stage1/block1/conv_reduce/BN"
    top: "stage1/block1/conv"
    param {
      lr_mult: 1
      decay_mult: 1
    }
    param {
      lr_mult: 2
      decay_mult: 0
    }
    convolution_param {
      num_output: 72
      pad: 1
      kernel_size: 3
      stride: 1
      weight_filler {
        type: "msra"
      }
      bias_filler {
        type: "constant"
      }
    }
  }
  layer {
    name: "stage1/block1/conv/nl"
    type: "ReLU"
    bottom: "stage1/block1/conv"
    top: "stage1/block1/conv"
  }
  layer {
    name: "stage1/block1/conv/BN"
    type: "BatchNorm"
    bottom: "stage1/block1/conv"
    top: "stage1/block1/conv/BN"
    param {
      lr_mult: 0
      decay_mult: 0
    }
    param {
      lr_mult: 0
      decay_mult: 0
    }
    param {
      lr_mult: 0
      decay_mult: 0
    }
    include {
      phase: TRAIN
    }
    batch_norm_param {
      use_global_stats: false
      moving_average_fraction: 0.95
    }
  }
  layer {
    name: "stage1/block1/conv/BN"
    type: "BatchNorm"
    bottom: "stage1/block1/conv"
    top: "stage1/block1/conv/BN"
    param {
      lr_mult: 0
      decay_mult: 0
    }
    param {
      lr_mult: 0
      decay_mult: 0
    }
    param {
      lr_mult: 0
      decay_mult: 0
    }
    include {
      phase: TEST
    }
    batch_norm_param {
      use_global_stats: true
      moving_average_fraction: 0.95
    }
  }
  layer {
    name: "stage1/block1/conv_restore"
    type: "Convolution"
    bottom: "stage1/block1/conv/BN"
    top: "stage1/block1/conv_restore"
    param {
      lr_mult: 1
      decay_mult: 1
    }
    param {
      lr_mult: 2
      decay_mult: 0
    }
    convolution_param {
      num_output: 240
      kernel_size: 1
      stride: 1
      weight_filler {
        type: "msra"
      }
      bias_filler {
        type: "constant"
      }
    }
  }
  layer {
    name: "stage1/block1/sum"
    type: "Eltwise"
    bottom: "stage1/block1/conv_restore"
    bottom: "stage1/block0/sum/BN"
    top: "stage1/block1/sum"
    eltwise_param {
      operation: SUM
    }
  }
  layer {
    name: "stage1/block1/sum/nl"
    type: "ReLU"
    bottom: "stage1/block1/sum"
    top: "stage1/block1/sum"
  }
  layer {
    name: "stage1/block1/sum/BN"
    type: "BatchNorm"
    bottom: "stage1/block1/sum"
    top: "stage1/block1/sum/BN"
    param {
      lr_mult: 0
      decay_mult: 0
    }
    param {
      lr_mult: 0
      decay_mult: 0
    }
    param {
      lr_mult: 0
      decay_mult: 0
    }
    include {
      phase: TRAIN
    }
    batch_norm_param {
      use_global_stats: false
      moving_average_fraction: 0.95
    }
  }
  layer {
    name: "stage1/block1/sum/BN"
    type: "BatchNorm"
    bottom: "stage1/block1/sum"
    top: "stage1/block1/sum/BN"
    param {
      lr_mult: 0
      decay_mult: 0
    }
    param {
      lr_mult: 0
      decay_mult: 0
    }
    param {
      lr_mult: 0
      decay_mult: 0
    }
    include {
      phase: TEST
    }
    batch_norm_param {
      use_global_stats: true
      moving_average_fraction: 0.95
    }
  }
  layer {
    name: "stage1/block2/conv_reduce"
    type: "Convolution"
    bottom: "stage1/block1/sum/BN"
    top: "stage1/block2/conv_reduce"
    param {
      lr_mult: 1
      decay_mult: 1
    }
    param {
      lr_mult: 2
      decay_mult: 0
    }
    convolution_param {
      num_output: 72
      kernel_size: 1
      stride: 1
      weight_filler {
        type: "msra"
      }
      bias_filler {
        type: "constant"
      }
    }
  }
  layer {
    name: "stage1/block2/conv_reduce/nl"
    type: "ReLU"
    bottom: "stage1/block2/conv_reduce"
    top: "stage1/block2/conv_reduce"
  }
  layer {
    name: "stage1/block2/conv_reduce/BN"
    type: "BatchNorm"
    bottom: "stage1/block2/conv_reduce"
    top: "stage1/block2/conv_reduce/BN"
    param {
      lr_mult: 0
      decay_mult: 0
    }
    param {
      lr_mult: 0
      decay_mult: 0
    }
    param {
      lr_mult: 0
      decay_mult: 0
    }
    include {
      phase: TRAIN
    }
    batch_norm_param {
      use_global_stats: false
      moving_average_fraction: 0.95
    }
  }
  layer {
    name: "stage1/block2/conv_reduce/BN"
    type: "BatchNorm"
    bottom: "stage1/block2/conv_reduce"
    top: "stage1/block2/conv_reduce/BN"
    param {
      lr_mult: 0
      decay_mult: 0
    }
    param {
      lr_mult: 0
      decay_mult: 0
    }
    param {
      lr_mult: 0
      decay_mult: 0
    }
    include {
      phase: TEST
    }
    batch_norm_param {
      use_global_stats: true
      moving_average_fraction: 0.95
    }
  }
  layer {
    name: "stage1/block2/conv"
    type: "Convolution"
    bottom: "stage1/block2/conv_reduce/BN"
    top: "stage1/block2/conv"
    param {
      lr_mult: 1
      decay_mult: 1
    }
    param {
      lr_mult: 2
      decay_mult: 0
    }
    convolution_param {
      num_output: 72
      pad: 1
      kernel_size: 3
      stride: 1
      weight_filler {
        type: "msra"
      }
      bias_filler {
        type: "constant"
      }
    }
  }
  layer {
    name: "stage1/block2/conv/nl"
    type: "ReLU"
    bottom: "stage1/block2/conv"
    top: "stage1/block2/conv"
  }
  layer {
    name: "stage1/block2/conv/BN"
    type: "BatchNorm"
    bottom: "stage1/block2/conv"
    top: "stage1/block2/conv/BN"
    param {
      lr_mult: 0
      decay_mult: 0
    }
    param {
      lr_mult: 0
      decay_mult: 0
    }
    param {
      lr_mult: 0
      decay_mult: 0
    }
    include {
      phase: TRAIN
    }
    batch_norm_param {
      use_global_stats: false
      moving_average_fraction: 0.95
    }
  }
  layer {
    name: "stage1/block2/conv/BN"
    type: "BatchNorm"
    bottom: "stage1/block2/conv"
    top: "stage1/block2/conv/BN"
    param {
      lr_mult: 0
      decay_mult: 0
    }
    param {
      lr_mult: 0
      decay_mult: 0
    }
    param {
      lr_mult: 0
      decay_mult: 0
    }
    include {
      phase: TEST
    }
    batch_norm_param {
      use_global_stats: true
      moving_average_fraction: 0.95
    }
  }
  layer {
    name: "stage1/block2/conv_restore"
    type: "Convolution"
    bottom: "stage1/block2/conv/BN"
    top: "stage1/block2/conv_restore"
    param {
      lr_mult: 1
      decay_mult: 1
    }
    param {
      lr_mult: 2
      decay_mult: 0
    }
    convolution_param {
      num_output: 240
      kernel_size: 1
      stride: 1
      weight_filler {
        type: "msra"
      }
      bias_filler {
        type: "constant"
      }
    }
  }
  layer {
    name: "stage1/block2/sum"
    type: "Eltwise"
    bottom: "stage1/block2/conv_restore"
 
I1223 21:22:22.799293 30220 solver.cpp:85] Creating training net specified in net_param.
I1223 21:22:22.800904 30220 net.cpp:322] The NetState phase (0) differed from the phase (1) specified by a rule in layer data
I1223 21:22:22.800925 30220 net.cpp:322] The NetState phase (0) differed from the phase (1) specified by a rule in layer stage0/block0/conv_reduce/BN
I1223 21:22:22.800933 30220 net.cpp:322] The NetState phase (0) differed from the phase (1) specified by a rule in layer stage0/block0/conv/BN
…
  transform_param {
    scale: 0.04
    mirror: true
    crop_size: 128
    mean_value: 104
    mean_value: 117
    mean_value: 124
    force_color: true
    resize_param {
      prob: 1
      resize_mode: FIT_SMALL_SIZE
      height: 144
      width: 144
      pad_mode: MIRRORED
      pad_value: 104
      pad_value: 117
      pad_value: 124
      interp_mode: CUBIC
      center_object: false
      max_angle: 0
    }
  }
  data_param {
    source: "/home/old-ufo/datasets/imagenet/ilsvrc12_train_shuffle_lmdb"
    batch_size: 256
    backend: LMDB
  }
}
layer {
  name: "conv0"
  type: "Convolution"
  bottom: "data"
  top: "conv0"
  param {
    lr_mult: 1
    decay_mult: 1
  }
  param {
    lr_mult: 2
    decay_mult: 0
  }
  convolution_param {
    num_output: 64
    kernel_size: 11
    stride: 4
    weight_filler {
      type: "msra"
    }
    bias_filler {
      type: "constant"
    }
  }
}
layer {
  name: "conv0/nl"
  type: "ReLU"
  bottom: "conv0"
  top: "conv0"
}
layer {
  name: "pool0"
  type: "Pooling"
  bottom: "conv0"
  top: "pool0"
  pooling_param {
    pool: MAX
    kernel_size: 3
    stride: 2
  }
}
layer {
  name: "stage0/block0/conv_reduce"
  type: "Convolution"
  bottom: "pool0"
  top: "stage0/block0/conv_reduce"
  param {
    lr_mult: 1
    decay_mult: 1
  }
  param {
    lr_mult: 2
    decay_mult: 0
  }
  convolution_param {
    num_output: 36
    kernel_size: 1
    stride: 1
    weight_filler {
      type: "msra"
    }
    bias_filler {
      type: "constant"
    }
  }
}
layer {
  name: "stage0/block0/conv_reduce/nl"
  type: "ReLU"
  bottom: "stage0/block0/conv_reduce"
  top: "stage0/block0/conv_reduce"
}
layer {
  name: "stage0/block0/conv_reduce/BN"
  type: "BatchNorm"
  bottom: "stage0/block0/conv_reduce"
  top: "stage0/block0/conv_reduce/BN"
  param {
    lr_mult: 0
    decay_mult: 0
  }
  param {
    lr_mult: 0
    decay_mult: 0
  }
  param {
    lr_mult: 0
    decay_mult: 0
  }
  include {
    phase: TRAIN
  }
  batch_norm_param {
    use_global_stats: false
    moving_average_fraction: 0.95
  }
}
layer {
  name: "stage0/block0/conv"
  type: "Convolution"
  bottom: "stage0/block0/conv_reduce/BN"
  top: "stage0/block0/conv"
  param {
    lr_mult: 1
    decay_mult: 1
  }
  param {
    lr_mult: 2
    decay_mult: 0
  }
  convolution_param {
    num_output: 36
    pad: 1
    kernel_size: 3
    stride: 1
    weight_filler {
      type: "msra"
    }
    bias_filler {
      type: "constant"
    }
  }
}
layer {
  name: "stage0/block0/conv/nl"
  type: "ReLU"
  bottom: "stage0/block0/conv"
  top: "stage0/block0/conv"
}
layer {
  name: "stage0/block0/conv/BN"
  type: "BatchNorm"
  bottom: "stage0/block0/conv"
  top: "stage0/block0/conv/BN"
  param {
    lr_mult: 0
    decay_mult: 0
  }
  param {
    lr_mult: 0
    decay_mult: 0
  }
  param {
    lr_mult: 0
    decay_mult: 0
  }
  include {
    phase: TRAIN
  }
  batch_norm_param {
    use_global_stats: false
    moving_average_fraction: 0.95
  }
}
layer {
  name: "stage0/block0/conv_restore"
  type: "Convolution"
  bottom: "stage0/block0/conv/BN"
  top: "stage0/block0/conv_restore"
  param {
    lr_mult: 1
    decay_mult: 1
  }
  param {
    lr_mult: 2
    decay_mult: 0
  }
  convolution_param {
    num_output: 120
    kernel_size: 1
    stride: 1
    weight_filler {
      type: "msra"
    }
    bias_filler {
      type: "constant"
    }
  }
}
layer {
  name: "stage0/block0/shortcut"
  type: "Convolution"
  bottom: "pool0"
  top: "stage0/block0/shortcut"
  param {
    lr_mult: 1
    decay_mult: 1
  }
  param {
    lr_mult: 2
    decay_mult: 0
  }
  convolution_param {
    num_output: 120
    kernel_size: 1
    stride: 1
    weight_filler {
      type: "msra"
    }
    bias_filler {
      type: "constant"
    }
  }
}
layer {
  name: "stage0/block0/sum"
  type: "Eltwise"
  bottom: "stage0/block0/conv_restore"
  bottom: "stage0/block0/shortcut"
  top: "stage0/block0/sum"
  eltwise_param {
    operation: SUM
  }
}
layer {
  name: "stage0/block0/sum/nl"
  type: "ReLU"
  bottom: "stage0/block0/sum"
  top: "stage0/block0/sum"
}
layer {
  name: "stage0/block0/sum/BN"
  type: "BatchNorm"
  bottom: "stage0/block0/sum"
  top: "stage0/block0/sum/BN"
  param {
    lr_mult: 0
    decay_mult: 0
  }
  param {
    lr_mult: 0
    decay_mult: 0
  }
  param {
    lr_mult: 0
    decay_mult: 0
  }
  include {
    phase: TRAIN
  }
  batch_norm_param {
    use_global_stats: false
    moving_average_fraction: 0.95
  }
}
layer {
  name: "stage0/block1/conv_reduce"
  type: "Convolution"
  bottom: "stage0/block0/sum/BN"
  top: "stage0/block1/conv_reduce"
  param {
    lr_mult: 1
    decay_mult: 1
  }
  param {
    lr_mult: 2
    decay_mult: 0
  }
  convolution_param {
    num_output: 36
    kernel_size: 1
    stride: 1
    weight_filler {
      type: "msra"
    }
    bias_filler {
      type: "constant"
    }
  }
}
layer {
  name: "stage0/block1/conv_reduce/nl"
  type: "ReLU"
  bottom: "stage0/block1/conv_reduce"
  top: "stage0/block1/conv_reduce"
}
layer {
  name: "stage0/block1/conv_reduce/BN"
  type: "BatchNorm"
  bottom: "stage0/block1/conv_reduce"
  top: "stage0/block1/conv_reduce/BN"
  param {
    lr_mult: 0
    decay_mult: 0
  }
  param {
    lr_mult: 0
    decay_mult: 0
  }
  param {
    lr_mult: 0
    decay_mult: 0
  }
  include {
    phase: TRAIN
  }
  batch_norm_param {
    use_global_stats: false
    moving_average_fraction: 0.95
  }
}
layer {
  name: "stage0/block1/conv"
  type: "Convolution"
  bottom: "stage0/block1/conv_reduce/BN"
  top: "stage0/block1/conv"
  param {
    lr_mult: 1
    decay_mult: 1
  }
  param {
    lr_mult: 2
    decay_mult: 0
  }
  convolution_param {
    num_output: 36
    pad: 1
    kernel_size: 3
    stride: 1
    weight_filler {
      type: "msra"
    }
    bias_filler {
      type: "constant"
    }
  }
}
layer {
  name: "stage0/block1/conv/nl"
  type: "ReLU"
  bottom: "stage0/block1/conv"
  top: "stage0/block1/conv"
}
layer {
  name: "stage0/block1/conv/BN"
  type: "BatchNorm"
  bottom: "stage0/block1/conv"
  top: "stage0/block1/conv/BN"
  param {
    lr_mult: 0
    decay_mult: 0
  }
  param {
    lr_mult: 0
    decay_mult: 0
  }
  param {
    lr_mult: 0
    decay_mult: 0
  }
  include {
    phase: TRAIN
  }
  batch_norm_param {
    use_global_stats: false
    moving_average_fraction: 0.95
  }
}
layer {
  name: "stage0/block1/conv_restore"
  type: "Convolution"
  bottom: "stage0/block1/conv/BN"
  top: "stage0/block1/conv_restore"
  param {
    lr_mult: 1
    decay_mult: 1
  }
  param {
    lr_mult: 2
    decay_mult: 0
  }
  convolution_param {
    num_output: 120
    kernel_size: 1
    stride: 1
    weight_filler {
      type: "msra"
    }
    bias_filler {
      type: "constant"
    }
  }
}
layer {
  name: "stage0/block1/sum"
  type: "Eltwise"
  bottom: "stage0/block1/conv_restore"
  bottom: "stage0/block0/sum/BN"
  top: "stage0/block1/sum"
  eltwise_param {
    operation: SUM
  }
}
layer {
  name: "stage0/block1/sum/nl"
  type: "ReLU"
  bottom: "stage0/block1/sum"
  top: "stage0/block1/sum"
}
layer {
  name: "stage0/block1/sum/BN"
  type: "BatchNorm"
  bottom: "stage0/block1/sum"
  top: "stage0/block1/sum/BN"
  param {
    lr_mult: 0
    decay_mult: 0
  }
  param {
    lr_mult: 0
    decay_mult: 0
  }
  param {
    lr_mult: 0
    decay_mult: 0
  }
  include {
    phase: TRAIN
  }
  batch_norm_param {
    use_global_stats: false
    moving_average_fraction: 0.95
  }
}
layer {
  name: "stage0/block2/conv_reduce"
  type: "Convolution"
  bottom: "stage0/block1/sum/BN"
  top: "stage0/block2/conv_reduce"
  param {
    lr_mult: 1
    decay_mult: 1
  }
  param {
    lr_mult: 2
    decay_mult: 0
  }
  convolution_param {
    num_output: 36
    kernel_size: 1
    stride: 1
    weight_filler {
      type: "msra"
    }
    bias_filler {
      type: "constant"
    }
  }
}
layer {
  name: "stage0/block2/conv_reduce/nl"
  type: "ReLU"
  bottom: "stage0/block2/conv_reduce"
  top: "stage0/block2/conv_reduce"
}
layer {
  name: "stage0/block2/conv_reduce/BN"
  type: "BatchNorm"
  bottom: "stage0/block2/conv_reduce"
  top: "stage0/block2/conv_reduce/BN"
  param {
    lr_mult: 0
    decay_mult: 0
  }
  param {
    lr_mult: 0
    decay_mult: 0
  }
  param {
    lr_mult: 0
    decay_mult: 0
  }
  include {
    phase: TRAIN
  }
  batch_norm_param {
    use_global_stats: false
    moving_average_fraction: 0.95
  }
}
layer {
  name: "stage0/block2/conv"
  type: "Convolution"
  bottom: "stage0/block2/conv_reduce/BN"
  top: "stage0/block2/conv"
  param {
    lr_mult: 1
    decay_mult: 1
  }
  param {
    lr_mult: 2
    decay_mult: 0
  }
  convolution_param {
    num_output: 36
    pad: 1
    kernel_size: 3
    stride: 1
    weight_filler {
      type: "msra"
    }
    bias_filler {
      type: "constant"
    }
  }
}
layer {
  name: "stage0/block2/conv/nl"
  type: "ReLU"
  bottom: "stage0/block2/conv"
  top: "stage0/block2/conv"
}
layer {
  name: "stage0/block2/conv/BN"
  type: "BatchNorm"
  bottom: "stage0/block2/conv"
  top: "stage0/block2/conv/BN"
  param {
    lr_mult: 0
    decay_mult: 0
  }
  param {
    lr_mult: 0
    decay_mult: 0
  }
  param {
    lr_mult: 0
    decay_mult: 0
  }
  include {
    phase: TRAIN
  }
  batch_norm_param {
    use_global_stats: false
    moving_average_fraction: 0.95
  }
}
layer {
  name: "stage0/block2/conv_restore"
  type: "Convolution"
  bottom: "stage0/block2/conv/BN"
  top: "stage0/block2/conv_restore"
  param {
    lr_mult: 1
    decay_mult: 1
  }
  param {
    lr_mult: 2
    decay_mult: 0
  }
  convolution_param {
    num_output: 120
    kernel_size: 1
    stride: 1
    weight_filler {
      type: "msra"
    }
    bias_filler {
      type: "constant"
    }
  }
}
layer {
  name: "stage0/block2/sum"
  type: "Eltwise"
  bottom: "stage0/block2/conv_restore"
  bottom: "stage0/block1/sum/BN"
  top: "stage0/block2/sum"
  eltwise_param {
    operation: SUM
  }
}
layer {
  name: "stage0/block2/sum/nl"
  type: "ReLU"
  bottom: "stage0/block2/sum"
  top: "stage0/block2/sum"
}
layer {
  name: "stage0/block2/sum/BN"
  type: "BatchNorm"
  bottom: "stage0/block2/sum"
  top: "stage0/block2/sum/BN"
  param {
    lr_mult: 0
    decay_mult: 0
  }
  param {
    lr_mult: 0
    decay_mult: 0
  }
  param {
    lr_mult: 0
    decay_mult: 0
  }
  include {
    phase: TRAIN
  }
  batch_norm_param {
    use_global_stats: false
    moving_average_fraction: 0.95
  }
}
layer {
  name: "stage1/block0/conv_reduce"
  type: "Convolution"
  bottom: "stage0/block2/sum/BN"
  top: "stage1/block0/conv_reduce"
  param {
    lr_mult: 1
    decay_mult: 1
  }
  param {
    lr_mult: 2
    decay_mult: 0
  }
  convolution_param {
    num_output: 72
    kernel_size: 1
    stride: 1
    weight_filler {
      type: "msra"
    }
    bias_filler {
      type: "constant"
    }
  }
}
layer {
  name: "stage1/block0/conv_reduce/nl"
  type: "ReLU"
  bottom: "stage1/block0/conv_reduce"
  top: "stage1/block0/conv_reduce"
}
layer {
  name: "stage1/block0/conv_reduce/BN"
  type: "BatchNorm"
  bottom: "stage1/block0/conv_reduce"
  top: "stage1/block0/conv_reduce/BN"
  param {
    lr_mult: 0
    decay_mult: 0
  }
  param {
    lr_mult: 0
    decay_mult: 0
  }
  param {
    lr_mult: 0
    decay_mult: 0
  }
  include {
    phase: TRAIN
  }
  batch_norm_param {
    use_global_stats: false
    moving_average_fraction: 0.95
  }
}
layer {
  name: "stage1/block0/conv"
  type: "Convolution"
  bottom: "stage1/block0/conv_reduce/BN"
  top: "stage1/block0/conv"
  param {
    lr_mult: 1
    decay_mult: 1
  }
  param {
    lr_mult: 2
    decay_mult: 0
  }
  convolution_param {
    num_output: 72
    pad: 1
    kernel_size: 3
    stride: 2
    weight_filler {
      type: "msra"
    }
    bias_filler {
      type: "constant"
    }
  }
}
layer {
  name: "stage1/block0/conv/nl"
  type: "ReLU"
  bottom: "stage1/block0/conv"
  top: "stage1/block0/conv"
}
layer {
  name: "stage1/block0/conv/BN"
  type: "BatchNorm"
  bottom: "stage1/block0/conv"
  top: "stage1/block0/conv/BN"
  param {
    lr_mult: 0
    decay_mult: 0
  }
  param {
    lr_mult: 0
    decay_mult: 0
  }
  param {
    lr_mult: 0
    decay_mult: 0
  }
  include {
    phase: TRAIN
  }
  batch_norm_param {
    use_global_stats: false
    moving_average_fraction: 0.95
  }
}
layer {
  name: "stage1/block0/conv_restore"
  type: "Convolution"
  bottom: "stage1/block0/conv/BN"
  top: "stage1/block0/conv_restore"
  param {
    lr_mult: 1
    decay_mult: 1
  }
  param {
    lr_mult: 2
    decay_mult: 0
  }
  convolution_param {
    num_output: 240
    kernel_size: 1
    stride: 1
    weight_filler {
      type: "msra"
    }
    bias_filler {
      type: "constant"
    }
  }
}
layer {
  name: "stage1/block0/shortcut"
  type: "Convolution"
  bottom: "stage0/block2/sum/BN"
  top: "stage1/block0/shortcut"
  param {
    lr_mult: 1
    decay_mult: 1
  }
  param {
    lr_mult: 2
    decay_mult: 0
  }
  convolution_param {
    num_output: 240
    kernel_size: 1
    stride: 2
    weight_filler {
      type: "msra"
    }
    bias_filler {
      type: "constant"
    }
  }
}
layer {
  name: "stage1/block0/sum"
  type: "Eltwise"
  bottom: "stage1/block0/conv_restore"
  bottom: "stage1/block0/shortcut"
  top: "stage1/block0/sum"
  eltwise_param {
    operation: SUM
  }
}
layer {
  name: "stage1/block0/sum/nl"
  type: "ReLU"
  bottom: "stage1/block0/sum"
  top: "stage1/block0/sum"
}
layer {
  name: "stage1/block0/sum/BN"
  type: "BatchNorm"
  bottom: "stage1/block0/sum"
  top: "stage1/block0/sum/BN"
  param {
    lr_mult: 0
    decay_mult: 0
  }
  param {
    lr_mult: 0
    decay_mult: 0
  }
  param {
    lr_mult: 0
    decay_mult: 0
  }
  include {
    phase: TRAIN
  }
  batch_norm_param {
    use_global_stats: false
    moving_average_fraction: 0.95
  }
}
layer {
  name: "stage1/block1/conv_reduce"
  type: "Convolution"
  bottom: "stage1/block0/sum/BN"
  top: "stage1/block1/conv_reduce"
  param {
    lr_mult: 1
    decay_mult: 1
  }
  param {
    lr_mult: 2
    decay_mult: 0
  }
  convolution_param {
    num_output: 72
    kernel_size: 1
    stride: 1
    weight_filler {
      type: "msra"
    }
    bias_filler {
      type: "constant"
    }
  }
}
layer {
  name: "stage1/block1/conv_reduce/nl"
  type: "ReLU"
  bottom: "stage1/block1/conv_reduce"
  top: "stage1/block1/conv_reduce"
}
layer {
  name: "stage1/block1/conv_reduce/BN"
  type: "BatchNorm"
  bottom: "stage1/block1/conv_reduce"
  top: "stage1/block1/conv_reduce/BN"
  param {
    lr_mult: 0
    decay_mult: 0
  }
  param {
    lr_mult: 0
    decay_mult: 0
  }
  param {
    lr_mult: 0
    decay_mult: 0
  }
  include {
    phase: TRAIN
  }
  batch_norm_param {
    use_global_stats: false
    moving_average_fraction: 0.95
  }
}
layer {
  name: "stage1/block1/conv"
  type: "Convolution"
  bottom: "stage1/block1/conv_reduce/BN"
  top: "stage1/block1/conv"
  param {
    lr_mult: 1
    decay_mult: 1
  }
  param {
    lr_mult: 2
    decay_mult: 0
  }
  convolution_param {
    num_output: 72
    pad: 1
    kernel_size: 3
    stride: 1
    weight_filler {
      type: "msra"
    }
    bias_filler {
      type: "constant"
    }
  }
}
layer {
  name: "stage1/block1/conv/nl"
  type: "ReLU"
  bottom: "stage1/block1/conv"
  top: "stage1/block1/conv"
}
layer {
  name: "stage1/block1/conv/BN"
  type: "BatchNorm"
  bottom: "stage1/block1/conv"
  top: "stage1/block1/conv/BN"
  param {
    lr_mult: 0
    decay_mult: 0
  }
  param {
    lr_mult: 0
    decay_mult: 0
  }
  param {
    lr_mult: 0
    decay_mult: 0
  }
  include {
    phase: TRAIN
  }
  batch_norm_param {
    use_global_stats: false
    moving_average_fraction: 0.95
  }
}
layer {
  name: "stage1/block1/conv_restore"
  type: "Convolution"
  bottom: "stage1/block1/conv/BN"
  top: "stage1/block1/conv_restore"
  param {
    lr_mult: 1
    decay_mult: 1
  }
  param {
    lr_mult: 2
    decay_mult: 0
  }
  convolution_param {
    num_output: 240
    kernel_size: 1
    stride: 1
    weight_filler {
      type: "msra"
    }
    bias_filler {
      type: "constant"
    }
  }
}
layer {
  name: "stage1/block1/sum"
  type: "Eltwise"
  bottom: "stage1/block1/conv_restore"
  bottom: "stage1/block0/sum/BN"
  top: "stage1/block1/sum"
  eltwise_param {
    operation: SUM
  }
}
layer {
  name: "stage1/block1/sum/nl"
  type: "ReLU"
  bottom: "stage1/block1/sum"
  top: "stage1/block1/sum"
}
layer {
  name: "stage1/block1/sum/BN"
  type: "BatchNorm"
  bottom: "stage1/block1/sum"
  top: "stage1/block1/sum/BN"
  param {
    lr_mult: 0
    decay_mult: 0
  }
  param {
    lr_mult: 0
    decay_mult: 0
  }
  param {
    lr_mult: 0
    decay_mult: 0
  }
  include {
    phase: TRAIN
  }
  batch_norm_param {
    use_global_stats: false
    moving_average_fraction: 0.95
  }
}
layer {
  name: "stage1/block2/conv_reduce"
  type: "Convolution"
  bottom: "stage1/block1/sum/BN"
  top: "stage1/block2/conv_reduce"
  param {
    lr_mult: 1
    decay_mult: 1
  }
  param {
    lr_mult: 2
    decay_mult: 0
  }
  convolution_param {
    num_output: 72
    kernel_size: 1
    stride: 1
    weight_filler {
      type: "msra"
    }
    bias_filler {
      type: "constant"
    }
  }
}
layer {
  name: "stage1/block2/conv_reduce/nl"
  type: "ReLU"
  bottom: "stage1/block2/conv_reduce"
  top: "stage1/block2/conv_reduce"
}
layer {
  name: "stage1/block2/conv_reduce/BN"
  type: "BatchNorm"
  bottom: "stage1/block2/conv_reduce"
  top: "stage1/block2/conv_reduce/BN"
  param {
    lr_mult: 0
    decay_mult: 0
  }
  param {
    lr_mult: 0
    decay_mult: 0
  }
  param {
    lr_mult: 0
    decay_mult: 0
  }
  include {
    phase: TRAIN
  }
  batch_norm_param {
    use_global_stats: false
    moving_average_fraction: 0.95
  }
}
layer {
  name: "stage1/block2/conv"
  type: "Convolution"
  bottom: "stage1/block2/conv_reduce/BN"
  top: "stage1/block2/conv"
  param {
    lr_mult: 1
    decay_mult: 1
  }
  param {
    lr_mult: 2
    decay_mult: 0
  }
  convolution_param {
    num_output: 72
    pad: 1
    kernel_size: 3
    stride: 1
    weight_filler {
      type: "msra"
    }
    bias_filler {
      type: "constant"
    }
  }
}
layer {
  name: "stage1/block2/conv/nl"
  type: "ReLU"
  bottom: "stage1/block2/conv"
  top: "stage1/block2/conv"
}
layer {
  name: "stage1/block2/conv/BN"
  type: "BatchNorm"
  bottom: "stage1/block2/conv"
  top: "stage1/block2/conv/BN"
  param {
    lr_mult: 0
    decay_mult: 0
  }
  param {
    lr_mult: 0
    decay_mult: 0
  }
  param {
    lr_mult: 0
    decay_mult: 0
  }
  include {
    phase: TRAIN
  }
  batch_norm_param {
    use_global_stats: false
    moving_average_fraction: 0.95
  }
}
layer {
  name: "stage1/block2/conv_restore"
  type: "Convolution"
  bottom: "stage1/block2/conv/BN"
  top: "stage1/block2/conv_restore"
  param {
    lr_mult: 1
    decay_mult: 1
  }
  param {
    lr_mult: 2
    decay_mult: 0
  }
  convolution_param {
    num_output: 240
    kernel_size: 1
    stride: 1
    weight_filler {
      type: "msra"
    }
    bias_filler {
      type: "constant"
    }
  }
}
layer {
  name: "stage1/block2/sum"
  type: "Eltwise"
  bottom: "stage1/block2/conv_restore"
  bottom: "stage1/block1/sum/BN"
  top: "stage1/block2/sum"
  eltwise_param {
    operation: SUM
  }
}
layer {
  name: "stage1/block2/sum/nl"
  type: "ReLU"
  bottom: "stage1/block2/sum"
  top: "stage1/block2/sum"
}
layer {
  name: "stage1/block2/sum/BN"
  type: "BatchNorm"
  bottom: "stage1/block2/sum"
  top: "stage1/block2/sum/BN"
  param {
    lr_mult: 0
    decay_mult: 0
  }
  param {
    lr_mult: 0
    decay_mult: 0
  }
  param {
    lr_mult: 0
    decay_mult: 0
  }
  include {
    phase: TRAIN
  }
  batch_norm_param {
    use_global_stats: false
    moving_average_fraction: 0.95
  }
}
layer {
  name: "stage1/block3/conv_reduce"
  type: "Convolution"
  bottom: "stage1/block2/sum/BN"
  top: "stage1/block3/conv_reduce"
  param {
    lr_mult: 1
    decay_mult: 1
  }
  param {
    lr_mult: 2
    decay_mult: 0
  }
  convolution_param {
    num_output: 72
    kernel_size: 1
    stride: 1
    weight_filler {
      type: "msra"
    }
    bias_filler {
      type: "constant"
    }
  }
}
layer {
  name: "stage1/block3/conv_reduce/nl"
  type: "ReLU"
  bottom: "stage1/block3/conv_reduce"
  top: "stage1/block3/conv_reduce"
}
layer {
  name: "stage1/block3/conv_reduce/BN"
  type: "BatchNorm"
  bottom: "stage1/block3/conv_reduce"
  top: "stage1/block3/conv_reduce/BN"
  param {
    lr_mult: 0
    decay_mult: 0
  }
  param {
    lr_mult: 0
    decay_mult: 0
  }
  param {
    lr_mult: 0
    decay_mult: 0
  }
  include {
    phase: TRAIN
  }
  batch_norm_param {
    use_global_stats: false
    moving_average_fraction: 0.95
  }
}
layer {
  name: "stage1/block3/conv"
  type: "Convolution"
  bottom: "stage1/block3/conv_reduce/BN"
  top: "stage1/block3/conv"
  param {
    lr_mult: 1
    decay_mult: 1
  }
  param {
    lr_mult: 2
    decay_mult: 0
  }
  convolution_param {
    num_output: 72
    pad: 1
    kernel_size: 3
    stride: 1
    weight_filler {
      type: "msra"
    }
    bias_filler {
      type: "constant"
    }
  }
}
layer {
  name: "stage1/block3/conv/nl"
  type: "ReLU"
  bottom: "stage1/block3/conv"
  top: "stage1/block3/conv"
}
layer {
  name: "stage1/block3/conv/BN"
  type: "BatchNorm"
  bottom: "stage1/block3/conv"
  top: "stage1/block3/conv/BN"
  param {
    lr_mult: 0
    decay_mult: 0
  }
  param {
    lr_mult: 0
    decay_mult: 0
  }
  param {
    lr_mult: 0
    decay_mult: 0
  }
  include {
    phase: TRAIN
  }
  batch_norm_param {
    use_global_stats: false
    moving_average_fraction: 0.95
  }
}
layer {
  name: "stage1/block3/conv_restore"
  type: "Convolution"
  bottom: "stage1/block3/conv/BN"
  top: "stage1/block3/conv_restore"
  param {
    lr_mult: 1
    decay_mult: 1
  }
  param {
    lr_mult: 2
    decay_mult: 0
  }
  convolution_param {
    num_output: 240
    kernel_size: 1
    stride: 1
    weight_filler {
      type: "msra"
    }
    bias_filler {
      type: "constant"
    }
  }
}
layer {
  name: "stage1/block3/sum"
  type: "Eltwise"
  bottom: "stage1/block3/conv_restore"
  bottom: "stage1/block2/sum/BN"
  top: "stage1/block3/sum"
  eltwise_param {
    operation: SUM
  }
}
layer {
  name: "stage1/block3/sum/nl"
  type: "ReLU"
  bottom: "stage1/block3/sum"
  top: "stage1/block3/sum"
}
layer {
  name: "stage1/block3/sum/BN"
  type: "BatchNorm"
  bottom: "stage1/block3/sum"
  top: "stage1/block3/sum/BN"
  param {
    lr_mult: 0
    decay_mult: 0
  }
  param {
    lr_mult: 0
    decay_mult: 0
  }
  param {
    lr_mult: 0
    decay_mult: 0
  }
  include {
    phase: TRAIN
  }
  batch_norm_param {
    use_global_stats: false
    moving_average_fraction: 0.95
  }
}
layer {
  name: "stage2/block0/conv_reduce"
  type: "Convolution"
  bottom: "stage1/block3/sum/BN"
  top: "stage2/block0/conv_reduce"
  param {
    lr_mult: 1
    decay_mult: 1
  }
  param {
    lr_mult: 2
    decay_mult: 0
  }
  convolution_param {
    num_output: 128
    kernel_size: 1
    stride: 1
    weight_filler {
      type: "msra"
    }
    bias_filler {
      type: "constant"
    }
  }
}
layer {
  name: "stage2/block0/conv_reduce/nl"
  type: "ReLU"
  bottom: "stage2/block0/conv_reduce"
  top: "stage2/block0/conv_reduce"
}
layer {
  name: "stage2/block0/conv_reduce/BN"
  type: "BatchNorm"
  bottom: "stage2/block0/conv_reduce"
  top: "stage2/block0/conv_reduce/BN"
  param {
    lr_mult: 0
    decay_mult: 0
  }
  param {
    lr_mult: 0
    decay_mult: 0
  }
  param {
    lr_mult: 0
    decay_mult: 0
  }
  include {
    phase: TRAIN
  }
  batch_norm_param {
    use_global_stats: false
    moving_average_fraction: 0.95
  }
}
layer {
  name: "stage2/block0/conv"
  type: "Convolution"
  bottom: "stage2/block0/conv_reduce/BN"
  top: "stage2/block0/conv"
  param {
    lr_mult: 1
    decay_mult: 1
  }
  param {
    lr_mult: 2
    decay_mult: 0
  }
  convolution_param {
    num_output: 128
    pad: 1
    kernel_size: 3
    stride: 2
    weight_filler {
      type: "msra"
    }
    bias_filler {
      type: "constant"
    }
  }
}
layer {
  name: "stage2/block0/conv/nl"
  type: "ReLU"
  bottom: "stage2/block0/conv"
  top: "stage2/block0/conv"
}
layer {
  name: "stage2/block0/conv/BN"
  type: "BatchNorm"
  bottom: "stage2/block0/conv"
  top: "stage2/block0/conv/BN"
  param {
    lr_mult: 0
    decay_mult: 0
  }
  param {
    lr_mult: 0
    decay_mult: 0
  }
  param {
    lr_mult: 0
    decay_mult: 0
  }
  include {
    phase: TRAIN
  }
  batch_norm_param {
    use_global_stats: false
    moving_average_fraction: 0.95
  }
}
layer {
  name: "stage2/block0/conv_restore"
  type: "Convolution"
  bottom: "stage2/block0/conv/BN"
  top: "stage2/block0/conv_restore"
  param {
    lr_mult: 1
    decay_mult: 1
  }
  param {
    lr_mult: 2
    decay_mult: 0
  }
  convolution_param {
    num_output: 384
    kernel_size: 1
    stride: 1
    weight_filler {
      type: "msra"
    }
    bias_filler {
      type: "constant"
    }
  }
}
layer {
  name: "stage2/block0/shortcut"
  type: "Convolution"
  bottom: "stage1/block3/sum/BN"
  top: "stage2/block0/shortcut"
  param {
    lr_mult: 1
    decay_mult: 1
  }
  param {
    lr_mult: 2
    decay_mult: 0
  }
  convolution_param {
    num_output: 384
    kernel_size: 1
    stride: 2
    weight_filler {
      type: "msra"
    }
    bias_filler {
      type: "constant"
    }
  }
}
layer {
  name: "stage2/block0/sum"
  type: "Eltwise"
  bottom: "stage2/block0/conv_restore"
  bottom: "stage2/block0/shortcut"
  top: "stage2/block0/sum"
  eltwise_param {
    operation: SUM
  }
}
layer {
  name: "stage2/block0/sum/nl"
  type: "ReLU"
  bottom: "stage2/block0/sum"
  top: "stage2/block0/sum"
}
layer {
  name: "stage2/block0/sum/BN"
  type: "BatchNorm"
  bottom: "stage2/block0/sum"
  top: "stage2/block0/sum/BN"
  param {
    lr_mult: 0
    decay_mult: 0
  }
  param {
    lr_mult: 0
    decay_mult: 0
  }
  param {
    lr_mult: 0
    decay_mult: 0
  }
  include {
    phase: TRAIN
  }
  batch_norm_param {
    use_global_stats: false
    moving_average_fraction: 0.95
  }
}
layer {
  name: "stage2/block1/conv_reduce"
  type: "Convolution"
  bottom: "stage2/block0/sum/BN"
  top: "stage2/block1/conv_reduce"
  param {
    lr_mult: 1
    decay_mult: 1
  }
  param {
    lr_mult: 2
    decay_mult: 0
  }
  convolution_param {
    num_output: 128
    kernel_size: 1
    stride: 1
    weight_filler {
      type: "msra"
    }
    bias_filler {
      type: "constant"
    }
  }
}
layer {
  name: "stage2/block1/conv_reduce/nl"
  type: "ReLU"
  bottom: "stage2/block1/conv_reduce"
  top: "stage2/block1/conv_reduce"
}
layer {
  name: "stage2/block1/conv_reduce/BN"
  type: "BatchNorm"
  bottom: "stage2/block1/conv_reduce"
  top: "stage2/block1/conv_reduce/BN"
  param {
    lr_mult: 0
    decay_mult: 0
  }
  param {
    lr_mult: 0
    decay_mult: 0
  }
  param {
    lr_mult: 0
    decay_mult: 0
  }
  include {
    phase: TRAIN
  }
  batch_norm_param {
    use_global_stats: false
    moving_average_fraction: 0.95
  }
}
layer {
  name: "stage2/block1/conv"
  type: "Convolution"
  bottom: "stage2/block1/conv_reduce/BN"
  top: "stage2/block1/conv"
  param {
    lr_mult: 1
    decay_mult: 1
  }
  param {
    lr_mult: 2
    decay_mult: 0
  }
  convolution_param {
    num_output: 128
    pad: 1
    kernel_size: 3
    stride: 1
    weight_filler {
      type: "msra"
    }
    bias_filler {
      type: "constant"
    }
  }
}
layer {
  name: "stage2/block1/conv/nl"
  type: "ReLU"
  bottom: "stage2/block1/conv"
  top: "stage2/block1/conv"
}
layer {
  name: "stage2/block1/conv/BN"
  type: "BatchNorm"
  bottom: "stage2/block1/conv"
  top: "stage2/block1/conv/BN"
  param {
    lr_mult: 0
    decay_mult: 0
  }
  param {
    lr_mult: 0
    decay_mult: 0
  }
  param {
    lr_mult: 0
    decay_mult: 0
  }
  include {
    phase: TRAIN
  }
  batch_norm_param {
    use_global_stats: false
    moving_average_fraction: 0.95
  }
}
layer {
  name: "stage2/block1/conv_restore"
  type: "Convolution"
  bottom: "stage2/block1/conv/BN"
  top: "stage2/block1/conv_restore"
  param {
    lr_mult: 1
    decay_mult: 1
  }
  param {
    lr_mult: 2
    decay_mult: 0
  }
  convolution_param {
    num_output: 384
    kernel_size: 1
    stride: 1
    weight_filler {
      type: "msra"
    }
    bias_filler {
      type: "constant"
    }
  }
}
layer {
  name: "stage2/block1/sum"
  type: "Eltwise"
  bottom: "stage2/block1/conv_restore"
  bottom: "stage2/block0/sum/BN"
  top: "stage2/block1/sum"
  eltwise_param {
    operation: SUM
  }
}
layer {
  name: "stage2/block1/sum/nl"
  type: "ReLU"
  bottom: "stage2/block1/sum"
  top: "stage2/block1/sum"
}
layer {
  name: "stage2/block1/sum/BN"
  type: "BatchNorm"
  bottom: "stage2/block1/sum"
  top: "stage2/block1/sum/BN"
  param {
    lr_mult: 0
    decay_mult: 0
  }
  param {
    lr_mult: 0
    decay_mult: 0
  }
  param {
    lr_mult: 0
    decay_mult: 0
  }
  include {
    phase: TRAIN
  }
  batch_norm_param {
    use_global_stats: false
    moving_average_fraction: 0.95
  }
}
layer {
  name: "stage2/block2/conv_reduce"
  type: "Convolution"
  bottom: "stage2/block1/sum/BN"
  top: "stage2/block2/conv_reduce"
  param {
    lr_mult: 1
    decay_mult: 1
  }
  param {
    lr_mult: 2
    decay_mult: 0
  }
  convolution_param {
    num_output: 128
    kernel_size: 1
    stride: 1
    weight_filler {
      type: "msra"
    }
    bias_filler {
      type: "constant"
    }
  }
}
layer {
  name: "stage2/block2/conv_reduce/nl"
  type: "ReLU"
  bottom: "stage2/block2/conv_reduce"
  top: "stage2/block2/conv_reduce"
}
layer {
  name: "stage2/block2/conv_reduce/BN"
  type: "BatchNorm"
  bottom: "stage2/block2/conv_reduce"
  top: "stage2/block2/conv_reduce/BN"
  param {
    lr_mult: 0
    decay_mult: 0
  }
  param {
    lr_mult: 0
    decay_mult: 0
  }
  param {
    lr_mult: 0
    decay_mult: 0
  }
  include {
    phase: TRAIN
  }
  batch_norm_param {
    use_global_stats: false
    moving_average_fraction: 0.95
  }
}
layer {
  name: "stage2/block2/conv"
  ty
I1223 21:22:22.805487 30220 layer_factory.hpp:76] Creating layer data
I1223 21:22:22.806299 30220 net.cpp:106] Creating Layer data
I1223 21:22:22.806318 30220 net.cpp:411] data -> data
I1223 21:22:22.806357 30220 net.cpp:411] data -> label
I1223 21:22:22.807001 30224 db_lmdb.cpp:38] Opened lmdb /home/old-ufo/datasets/imagenet/ilsvrc12_train_shuffle_lmdb
I1223 21:22:22.820468 30220 data_layer.cpp:41] output data size: 256,3,128,128
I1223 21:22:22.890126 30220 net.cpp:150] Setting up data
I1223 21:22:22.890220 30220 net.cpp:157] Top shape: 256 3 128 128 (12582912)
I1223 21:22:22.890256 30220 net.cpp:157] Top shape: 256 (256)
I1223 21:22:22.890281 30220 net.cpp:165] Memory required for data: 50332672
I1223 21:22:22.890312 30220 layer_factory.hpp:76] Creating layer conv0
I1223 21:22:22.890342 30220 net.cpp:106] Creating Layer conv0
I1223 21:22:22.890365 30220 net.cpp:454] conv0 <- data
I1223 21:22:22.890396 30220 net.cpp:411] conv0 -> conv0
I1223 21:22:23.044783 30220 cudnn_conv_layer.cpp:194] Reallocating workspace storage: 72408
I1223 21:22:23.044930 30220 net.cpp:150] Setting up conv0
I1223 21:22:23.044950 30220 net.cpp:157] Top shape: 256 64 30 30 (14745600)
I1223 21:22:23.044955 30220 net.cpp:165] Memory required for data: 109315072
I1223 21:22:23.044978 30220 layer_factory.hpp:76] Creating layer conv0/nl
I1223 21:22:23.044992 30220 net.cpp:106] Creating Layer conv0/nl
I1223 21:22:23.044997 30220 net.cpp:454] conv0/nl <- conv0
I1223 21:22:23.045006 30220 net.cpp:397] conv0/nl -> conv0 (in-place)
I1223 21:22:23.045624 30220 net.cpp:150] Setting up conv0/nl
I1223 21:22:23.045635 30220 net.cpp:157] Top shape: 256 64 30 30 (14745600)
I1223 21:22:23.045639 30220 net.cpp:165] Memory required for data: 168297472
I1223 21:22:23.045644 30220 layer_factory.hpp:76] Creating layer pool0
I1223 21:22:23.045653 30220 net.cpp:106] Creating Layer pool0
I1223 21:22:23.045657 30220 net.cpp:454] pool0 <- conv0
I1223 21:22:23.045665 30220 net.cpp:411] pool0 -> pool0
I1223 21:22:23.046321 30220 net.cpp:150] Setting up pool0
I1223 21:22:23.046334 30220 net.cpp:157] Top shape: 256 64 15 15 (3686400)
I1223 21:22:23.046339 30220 net.cpp:165] Memory required for data: 183043072
I1223 21:22:23.046342 30220 layer_factory.hpp:76] Creating layer pool0_pool0_0_split
I1223 21:22:23.046355 30220 net.cpp:106] Creating Layer pool0_pool0_0_split
I1223 21:22:23.046358 30220 net.cpp:454] pool0_pool0_0_split <- pool0
I1223 21:22:23.046365 30220 net.cpp:411] pool0_pool0_0_split -> pool0_pool0_0_split_0
I1223 21:22:23.046373 30220 net.cpp:411] pool0_pool0_0_split -> pool0_pool0_0_split_1
I1223 21:22:23.046419 30220 net.cpp:150] Setting up pool0_pool0_0_split
I1223 21:22:23.046445 30220 net.cpp:157] Top shape: 256 64 15 15 (3686400)
I1223 21:22:23.046452 30220 net.cpp:157] Top shape: 256 64 15 15 (3686400)
I1223 21:22:23.046455 30220 net.cpp:165] Memory required for data: 212534272
I1223 21:22:23.046458 30220 layer_factory.hpp:76] Creating layer stage0/block0/conv_reduce
I1223 21:22:23.046471 30220 net.cpp:106] Creating Layer stage0/block0/conv_reduce
I1223 21:22:23.046476 30220 net.cpp:454] stage0/block0/conv_reduce <- pool0_pool0_0_split_0
I1223 21:22:23.046484 30220 net.cpp:411] stage0/block0/conv_reduce -> stage0/block0/conv_reduce
I1223 21:22:23.049470 30220 cudnn_conv_layer.cpp:194] Reallocating workspace storage: 7068
I1223 21:22:23.049659 30220 net.cpp:150] Setting up stage0/block0/conv_reduce
I1223 21:22:23.049705 30220 net.cpp:157] Top shape: 256 36 15 15 (2073600)
I1223 21:22:23.049731 30220 net.cpp:165] Memory required for data: 220828672
I1223 21:22:23.049763 30220 layer_factory.hpp:76] Creating layer stage0/block0/conv_reduce/nl
I1223 21:22:23.049789 30220 net.cpp:106] Creating Layer stage0/block0/conv_reduce/nl
I1223 21:22:23.049808 30220 net.cpp:454] stage0/block0/conv_reduce/nl <- stage0/block0/conv_reduce
I1223 21:22:23.049829 30220 net.cpp:397] stage0/block0/conv_reduce/nl -> stage0/block0/conv_reduce (in-place)
I1223 21:22:23.050487 30220 net.cpp:150] Setting up stage0/block0/conv_reduce/nl
I1223 21:22:23.050500 30220 net.cpp:157] Top shape: 256 36 15 15 (2073600)
I1223 21:22:23.050504 30220 net.cpp:165] Memory required for data: 229123072
I1223 21:22:23.050509 30220 layer_factory.hpp:76] Creating layer stage0/block0/conv_reduce/BN
I1223 21:22:23.050521 30220 net.cpp:106] Creating Layer stage0/block0/conv_reduce/BN
I1223 21:22:23.050528 30220 net.cpp:454] stage0/block0/conv_reduce/BN <- stage0/block0/conv_reduce
I1223 21:22:23.050536 30220 net.cpp:411] stage0/block0/conv_reduce/BN -> stage0/block0/conv_reduce/BN
I1223 21:22:23.050732 30220 net.cpp:150] Setting up stage0/block0/conv_reduce/BN
I1223 21:22:23.050741 30220 net.cpp:157] Top shape: 256 36 15 15 (2073600)
I1223 21:22:23.050745 30220 net.cpp:165] Memory required for data: 237417472
I1223 21:22:23.050760 30220 layer_factory.hpp:76] Creating layer stage0/block0/conv
I1223 21:22:23.050775 30220 net.cpp:106] Creating Layer stage0/block0/conv
I1223 21:22:23.050779 30220 net.cpp:454] stage0/block0/conv <- stage0/block0/conv_reduce/BN
I1223 21:22:23.050787 30220 net.cpp:411] stage0/block0/conv -> stage0/block0/conv
I1223 21:22:23.053174 30220 cudnn_conv_layer.cpp:194] Reallocating workspace storage: 9228
I1223 21:22:23.053199 30220 net.cpp:150] Setting up stage0/block0/conv
I1223 21:22:23.053215 30220 net.cpp:157] Top shape: 256 36 15 15 (2073600)
I1223 21:22:23.053221 30220 net.cpp:165] Memory required for data: 245711872
I1223 21:22:23.053233 30220 layer_factory.hpp:76] Creating layer stage0/block0/conv/nl
I1223 21:22:23.053242 30220 net.cpp:106] Creating Layer stage0/block0/conv/nl
I1223 21:22:23.053247 30220 net.cpp:454] stage0/block0/conv/nl <- stage0/block0/conv
I1223 21:22:23.053256 30220 net.cpp:397] stage0/block0/conv/nl -> stage0/block0/conv (in-place)
I1223 21:22:23.053855 30220 net.cpp:150] Setting up stage0/block0/conv/nl
I1223 21:22:23.053866 30220 net.cpp:157] Top shape: 256 36 15 15 (2073600)
I1223 21:22:23.053875 30220 net.cpp:165] Memory required for data: 254006272
I1223 21:22:23.053880 30220 layer_factory.hpp:76] Creating layer stage0/block0/conv/BN
I1223 21:22:23.053890 30220 net.cpp:106] Creating Layer stage0/block0/conv/BN
I1223 21:22:23.053895 30220 net.cpp:454] stage0/block0/conv/BN <- stage0/block0/conv
I1223 21:22:23.053905 30220 net.cpp:411] stage0/block0/conv/BN -> stage0/block0/conv/BN
I1223 21:22:23.054071 30220 net.cpp:150] Setting up stage0/block0/conv/BN
I1223 21:22:23.054080 30220 net.cpp:157] Top shape: 256 36 15 15 (2073600)
I1223 21:22:23.054083 30220 net.cpp:165] Memory required for data: 262300672
I1223 21:22:23.054093 30220 layer_factory.hpp:76] Creating layer stage0/block0/conv_restore
I1223 21:22:23.054102 30220 net.cpp:106] Creating Layer stage0/block0/conv_restore
I1223 21:22:23.054121 30220 net.cpp:454] stage0/block0/conv_restore <- stage0/block0/conv/BN
I1223 21:22:23.054131 30220 net.cpp:411] stage0/block0/conv_restore -> stage0/block0/conv_restore
I1223 21:22:23.056005 30220 cudnn_conv_layer.cpp:194] Reallocating workspace storage: 7068
I1223 21:22:23.056030 30220 net.cpp:150] Setting up stage0/block0/conv_restore
I1223 21:22:23.056038 30220 net.cpp:157] Top shape: 256 120 15 15 (6912000)
I1223 21:22:23.056043 30220 net.cpp:165] Memory required for data: 289948672
I1223 21:22:23.056051 30220 layer_factory.hpp:76] Creating layer stage0/block0/shortcut
I1223 21:22:23.056062 30220 net.cpp:106] Creating Layer stage0/block0/shortcut
I1223 21:22:23.056068 30220 net.cpp:454] stage0/block0/shortcut <- pool0_pool0_0_split_1
I1223 21:22:23.056078 30220 net.cpp:411] stage0/block0/shortcut -> stage0/block0/shortcut
I1223 21:22:23.058316 30220 cudnn_conv_layer.cpp:194] Reallocating workspace storage: 7068
I1223 21:22:23.058346 30220 net.cpp:150] Setting up stage0/block0/shortcut
I1223 21:22:23.058357 30220 net.cpp:157] Top shape: 256 120 15 15 (6912000)
I1223 21:22:23.058361 30220 net.cpp:165] Memory required for data: 317596672
I1223 21:22:23.058372 30220 layer_factory.hpp:76] Creating layer stage0/block0/sum
I1223 21:22:23.058392 30220 net.cpp:106] Creating Layer stage0/block0/sum
I1223 21:22:23.058398 30220 net.cpp:454] stage0/block0/sum <- stage0/block0/conv_restore
I1223 21:22:23.058404 30220 net.cpp:454] stage0/block0/sum <- stage0/block0/shortcut
I1223 21:22:23.058413 30220 net.cpp:411] stage0/block0/sum -> stage0/block0/sum
I1223 21:22:23.058446 30220 net.cpp:150] Setting up stage0/block0/sum
I1223 21:22:23.058454 30220 net.cpp:157] Top shape: 256 120 15 15 (6912000)
I1223 21:22:23.058457 30220 net.cpp:165] Memory required for data: 345244672
I1223 21:22:23.058461 30220 layer_factory.hpp:76] Creating layer stage0/block0/sum/nl
I1223 21:22:23.058470 30220 net.cpp:106] Creating Layer stage0/block0/sum/nl
I1223 21:22:23.058475 30220 net.cpp:454] stage0/block0/sum/nl <- stage0/block0/sum
I1223 21:22:23.058480 30220 net.cpp:397] stage0/block0/sum/nl -> stage0/block0/sum (in-place)
I1223 21:22:23.059034 30220 net.cpp:150] Setting up stage0/block0/sum/nl
I1223 21:22:23.059046 30220 net.cpp:157] Top shape: 256 120 15 15 (6912000)
I1223 21:22:23.059049 30220 net.cpp:165] Memory required for data: 372892672
I1223 21:22:23.059053 30220 layer_factory.hpp:76] Creating layer stage0/block0/sum/BN
I1223 21:22:23.059064 30220 net.cpp:106] Creating Layer stage0/block0/sum/BN
I1223 21:22:23.059070 30220 net.cpp:454] stage0/block0/sum/BN <- stage0/block0/sum
I1223 21:22:23.059078 30220 net.cpp:411] stage0/block0/sum/BN -> stage0/block0/sum/BN
I1223 21:22:23.059257 30220 net.cpp:150] Setting up stage0/block0/sum/BN
I1223 21:22:23.059267 30220 net.cpp:157] Top shape: 256 120 15 15 (6912000)
I1223 21:22:23.059270 30220 net.cpp:165] Memory required for data: 400540672
I1223 21:22:23.059283 30220 layer_factory.hpp:76] Creating layer stage0/block0/sum/BN_stage0/block0/sum/BN_0_split
I1223 21:22:23.059293 30220 net.cpp:106] Creating Layer stage0/block0/sum/BN_stage0/block0/sum/BN_0_split
I1223 21:22:23.059296 30220 net.cpp:454] stage0/block0/sum/BN_stage0/block0/sum/BN_0_split <- stage0/block0/sum/BN
I1223 21:22:23.059301 30220 net.cpp:411] stage0/block0/sum/BN_stage0/block0/sum/BN_0_split -> stage0/block0/sum/BN_stage0/block0/sum/BN_0_split_0
I1223 21:22:23.059310 30220 net.cpp:411] stage0/block0/sum/BN_stage0/block0/sum/BN_0_split -> stage0/block0/sum/BN_stage0/block0/sum/BN_0_split_1
I1223 21:22:23.059350 30220 net.cpp:150] Setting up stage0/block0/sum/BN_stage0/block0/sum/BN_0_split
I1223 21:22:23.059358 30220 net.cpp:157] Top shape: 256 120 15 15 (6912000)
I1223 21:22:23.059365 30220 net.cpp:157] Top shape: 256 120 15 15 (6912000)
I1223 21:22:23.059367 30220 net.cpp:165] Memory required for data: 455836672
I1223 21:22:23.059371 30220 layer_factory.hpp:76] Creating layer stage0/block1/conv_reduce
I1223 21:22:23.059382 30220 net.cpp:106] Creating Layer stage0/block1/conv_reduce
I1223 21:22:23.059401 30220 net.cpp:454] stage0/block1/conv_reduce <- stage0/block0/sum/BN_stage0/block0/sum/BN_0_split_0
I1223 21:22:23.059412 30220 net.cpp:411] stage0/block1/conv_reduce -> stage0/block1/conv_reduce
I1223 21:22:23.061409 30220 cudnn_conv_layer.cpp:194] Reallocating workspace storage: 7068
I1223 21:22:23.061439 30220 net.cpp:150] Setting up stage0/block1/conv_reduce
I1223 21:22:23.061450 30220 net.cpp:157] Top shape: 256 36 15 15 (2073600)
I1223 21:22:23.061455 30220 net.cpp:165] Memory required for data: 464131072
I1223 21:22:23.061463 30220 layer_factory.hpp:76] Creating layer stage0/block1/conv_reduce/nl
I1223 21:22:23.061472 30220 net.cpp:106] Creating Layer stage0/block1/conv_reduce/nl
I1223 21:22:23.061478 30220 net.cpp:454] stage0/block1/conv_reduce/nl <- stage0/block1/conv_reduce
I1223 21:22:23.061486 30220 net.cpp:397] stage0/block1/conv_reduce/nl -> stage0/block1/conv_reduce (in-place)
I1223 21:22:23.062032 30220 net.cpp:150] Setting up stage0/block1/conv_reduce/nl
I1223 21:22:23.062044 30220 net.cpp:157] Top shape: 256 36 15 15 (2073600)
I1223 21:22:23.062048 30220 net.cpp:165] Memory required for data: 472425472
I1223 21:22:23.062052 30220 layer_factory.hpp:76] Creating layer stage0/block1/conv_reduce/BN
I1223 21:22:23.062063 30220 net.cpp:106] Creating Layer stage0/block1/conv_reduce/BN
I1223 21:22:23.062068 30220 net.cpp:454] stage0/block1/conv_reduce/BN <- stage0/block1/conv_reduce
I1223 21:22:23.062077 30220 net.cpp:411] stage0/block1/conv_reduce/BN -> stage0/block1/conv_reduce/BN
I1223 21:22:23.062254 30220 net.cpp:150] Setting up stage0/block1/conv_reduce/BN
I1223 21:22:23.062263 30220 net.cpp:157] Top shape: 256 36 15 15 (2073600)
I1223 21:22:23.062266 30220 net.cpp:165] Memory required for data: 480719872
I1223 21:22:23.062276 30220 layer_factory.hpp:76] Creating layer stage0/block1/conv
I1223 21:22:23.062285 30220 net.cpp:106] Creating Layer stage0/block1/conv
I1223 21:22:23.062290 30220 net.cpp:454] stage0/block1/conv <- stage0/block1/conv_reduce/BN
I1223 21:22:23.062299 30220 net.cpp:411] stage0/block1/conv -> stage0/block1/conv
I1223 21:22:23.064369 30220 cudnn_conv_layer.cpp:194] Reallocating workspace storage: 9228
I1223 21:22:23.064398 30220 net.cpp:150] Setting up stage0/block1/conv
I1223 21:22:23.064407 30220 net.cpp:157] Top shape: 256 36 15 15 (2073600)
I1223 21:22:23.064412 30220 net.cpp:165] Memory required for data: 489014272
I1223 21:22:23.064420 30220 layer_factory.hpp:76] Creating layer stage0/block1/conv/nl
I1223 21:22:23.064429 30220 net.cpp:106] Creating Layer stage0/block1/conv/nl
I1223 21:22:23.064432 30220 net.cpp:454] stage0/block1/conv/nl <- stage0/block1/conv
I1223 21:22:23.064440 30220 net.cpp:397] stage0/block1/conv/nl -> stage0/block1/conv (in-place)
I1223 21:22:23.064999 30220 net.cpp:150] Setting up stage0/block1/conv/nl
I1223 21:22:23.065011 30220 net.cpp:157] Top shape: 256 36 15 15 (2073600)
I1223 21:22:23.065014 30220 net.cpp:165] Memory required for data: 497308672
I1223 21:22:23.065018 30220 layer_factory.hpp:76] Creating layer stage0/block1/conv/BN
I1223 21:22:23.065029 30220 net.cpp:106] Creating Layer stage0/block1/conv/BN
I1223 21:22:23.065034 30220 net.cpp:454] stage0/block1/conv/BN <- stage0/block1/conv
I1223 21:22:23.065042 30220 net.cpp:411] stage0/block1/conv/BN -> stage0/block1/conv/BN
I1223 21:22:23.065225 30220 net.cpp:150] Setting up stage0/block1/conv/BN
I1223 21:22:23.065233 30220 net.cpp:157] Top shape: 256 36 15 15 (2073600)
I1223 21:22:23.065237 30220 net.cpp:165] Memory required for data: 505603072
I1223 21:22:23.065246 30220 layer_factory.hpp:76] Creating layer stage0/block1/conv_restore
I1223 21:22:23.065256 30220 net.cpp:106] Creating Layer stage0/block1/conv_restore
I1223 21:22:23.065260 30220 net.cpp:454] stage0/block1/conv_restore <- stage0/block1/conv/BN
I1223 21:22:23.065269 30220 net.cpp:411] stage0/block1/conv_restore -> stage0/block1/conv_restore
I1223 21:22:23.068061 30220 cudnn_conv_layer.cpp:194] Reallocating workspace storage: 7068
I1223 21:22:23.068094 30220 net.cpp:150] Setting up stage0/block1/conv_restore
I1223 21:22:23.068140 30220 net.cpp:157] Top shape: 256 120 15 15 (6912000)
I1223 21:22:23.068157 30220 net.cpp:165] Memory required for data: 533251072
I1223 21:22:23.068178 30220 layer_factory.hpp:76] Creating layer stage0/block1/sum
I1223 21:22:23.068189 30220 net.cpp:106] Creating Layer stage0/block1/sum
I1223 21:22:23.068194 30220 net.cpp:454] stage0/block1/sum <- stage0/block1/conv_restore
I1223 21:22:23.068200 30220 net.cpp:454] stage0/block1/sum <- stage0/block0/sum/BN_stage0/block0/sum/BN_0_split_1
I1223 21:22:23.068207 30220 net.cpp:411] stage0/block1/sum -> stage0/block1/sum
I1223 21:22:23.068243 30220 net.cpp:150] Setting up stage0/block1/sum
I1223 21:22:23.068249 30220 net.cpp:157] Top shape: 256 120 15 15 (6912000)
I1223 21:22:23.068253 30220 net.cpp:165] Memory required for data: 560899072
I1223 21:22:23.068258 30220 layer_factory.hpp:76] Creating layer stage0/block1/sum/nl
I1223 21:22:23.068264 30220 net.cpp:106] Creating Layer stage0/block1/sum/nl
I1223 21:22:23.068267 30220 net.cpp:454] stage0/block1/sum/nl <- stage0/block1/sum
I1223 21:22:23.068274 30220 net.cpp:397] stage0/block1/sum/nl -> stage0/block1/sum (in-place)
I1223 21:22:23.069038 30220 net.cpp:150] Setting up stage0/block1/sum/nl
I1223 21:22:23.069068 30220 net.cpp:157] Top shape: 256 120 15 15 (6912000)
I1223 21:22:23.069085 30220 net.cpp:165] Memory required for data: 588547072
I1223 21:22:23.069102 30220 layer_factory.hpp:76] Creating layer stage0/block1/sum/BN
I1223 21:22:23.069123 30220 net.cpp:106] Creating Layer stage0/block1/sum/BN
I1223 21:22:23.069139 30220 net.cpp:454] stage0/block1/sum/BN <- stage0/block1/sum
I1223 21:22:23.069155 30220 net.cpp:411] stage0/block1/sum/BN -> stage0/block1/sum/BN
I1223 21:22:23.069411 30220 net.cpp:150] Setting up stage0/block1/sum/BN
I1223 21:22:23.069432 30220 net.cpp:157] Top shape: 256 120 15 15 (6912000)
I1223 21:22:23.069447 30220 net.cpp:165] Memory required for data: 616195072
I1223 21:22:23.069473 30220 layer_factory.hpp:76] Creating layer stage0/block1/sum/BN_stage0/block1/sum/BN_0_split
I1223 21:22:23.069492 30220 net.cpp:106] Creating Layer stage0/block1/sum/BN_stage0/block1/sum/BN_0_split
I1223 21:22:23.069506 30220 net.cpp:454] stage0/block1/sum/BN_stage0/block1/sum/BN_0_split <- stage0/block1/sum/BN
I1223 21:22:23.069524 30220 net.cpp:411] stage0/block1/sum/BN_stage0/block1/sum/BN_0_split -> stage0/block1/sum/BN_stage0/block1/sum/BN_0_split_0
I1223 21:22:23.069542 30220 net.cpp:411] stage0/block1/sum/BN_stage0/block1/sum/BN_0_split -> stage0/block1/sum/BN_stage0/block1/sum/BN_0_split_1
I1223 21:22:23.069597 30220 net.cpp:150] Setting up stage0/block1/sum/BN_stage0/block1/sum/BN_0_split
I1223 21:22:23.069618 30220 net.cpp:157] Top shape: 256 120 15 15 (6912000)
I1223 21:22:23.069634 30220 net.cpp:157] Top shape: 256 120 15 15 (6912000)
I1223 21:22:23.069648 30220 net.cpp:165] Memory required for data: 671491072
I1223 21:22:23.069664 30220 layer_factory.hpp:76] Creating layer stage0/block2/conv_reduce
I1223 21:22:23.069685 30220 net.cpp:106] Creating Layer stage0/block2/conv_reduce
I1223 21:22:23.069702 30220 net.cpp:454] stage0/block2/conv_reduce <- stage0/block1/sum/BN_stage0/block1/sum/BN_0_split_0
I1223 21:22:23.069720 30220 net.cpp:411] stage0/block2/conv_reduce -> stage0/block2/conv_reduce
I1223 21:22:23.074489 30220 cudnn_conv_layer.cpp:194] Reallocating workspace storage: 7068
I1223 21:22:23.074579 30220 net.cpp:150] Setting up stage0/block2/conv_reduce
I1223 21:22:23.074609 30220 net.cpp:157] Top shape: 256 36 15 15 (2073600)
I1223 21:22:23.074626 30220 net.cpp:165] Memory required for data: 679785472
I1223 21:22:23.074651 30220 layer_factory.hpp:76] Creating layer stage0/block2/conv_reduce/nl
I1223 21:22:23.074676 30220 net.cpp:106] Creating Layer stage0/block2/conv_reduce/nl
I1223 21:22:23.074693 30220 net.cpp:454] stage0/block2/conv_reduce/nl <- stage0/block2/conv_reduce
I1223 21:22:23.074720 30220 net.cpp:397] stage0/block2/conv_reduce/nl -> stage0/block2/conv_reduce (in-place)
I1223 21:22:23.076274 30220 net.cpp:150] Setting up stage0/block2/conv_reduce/nl
I1223 21:22:23.076321 30220 net.cpp:157] Top shape: 256 36 15 15 (2073600)
I1223 21:22:23.076336 30220 net.cpp:165] Memory required for data: 688079872
I1223 21:22:23.076352 30220 layer_factory.hpp:76] Creating layer stage0/block2/conv_reduce/BN
I1223 21:22:23.076375 30220 net.cpp:106] Creating Layer stage0/block2/conv_reduce/BN
I1223 21:22:23.076390 30220 net.cpp:454] stage0/block2/conv_reduce/BN <- stage0/block2/conv_reduce
I1223 21:22:23.076408 30220 net.cpp:411] stage0/block2/conv_reduce/BN -> stage0/block2/conv_reduce/BN
I1223 21:22:23.076699 30220 net.cpp:150] Setting up stage0/block2/conv_reduce/BN
I1223 21:22:23.076722 30220 net.cpp:157] Top shape: 256 36 15 15 (2073600)
I1223 21:22:23.076737 30220 net.cpp:165] Memory required for data: 696374272
I1223 21:22:23.076757 30220 layer_factory.hpp:76] Creating layer stage0/block2/conv
I1223 21:22:23.076773 30220 net.cpp:106] Creating Layer stage0/block2/conv
I1223 21:22:23.076778 30220 net.cpp:454] stage0/block2/conv <- stage0/block2/conv_reduce/BN
I1223 21:22:23.076786 30220 net.cpp:411] stage0/block2/conv -> stage0/block2/conv
I1223 21:22:23.079779 30220 cudnn_conv_layer.cpp:194] Reallocating workspace storage: 9228
I1223 21:22:23.079813 30220 net.cpp:150] Setting up stage0/block2/conv
I1223 21:22:23.079823 30220 net.cpp:157] Top shape: 256 36 15 15 (2073600)
I1223 21:22:23.079828 30220 net.cpp:165] Memory required for data: 704668672
I1223 21:22:23.079836 30220 layer_factory.hpp:76] Creating layer stage0/block2/conv/nl
I1223 21:22:23.079849 30220 net.cpp:106] Creating Layer stage0/block2/conv/nl
I1223 21:22:23.079855 30220 net.cpp:454] stage0/block2/conv/nl <- stage0/block2/conv
I1223 21:22:23.079861 30220 net.cpp:397] stage0/block2/conv/nl -> stage0/block2/conv (in-place)
I1223 21:22:23.080713 30220 net.cpp:150] Setting up stage0/block2/conv/nl
I1223 21:22:23.080725 30220 net.cpp:157] Top shape: 256 36 15 15 (2073600)
I1223 21:22:23.080729 30220 net.cpp:165] Memory required for data: 712963072
I1223 21:22:23.080734 30220 layer_factory.hpp:76] Creating layer stage0/block2/conv/BN
I1223 21:22:23.080744 30220 net.cpp:106] Creating Layer stage0/block2/conv/BN
I1223 21:22:23.080749 30220 net.cpp:454] stage0/block2/conv/BN <- stage0/block2/conv
I1223 21:22:23.080754 30220 net.cpp:411] stage0/block2/conv/BN -> stage0/block2/conv/BN
I1223 21:22:23.081015 30220 net.cpp:150] Setting up stage0/block2/conv/BN
I1223 21:22:23.081024 30220 net.cpp:157] Top shape: 256 36 15 15 (2073600)
I1223 21:22:23.081028 30220 net.cpp:165] Memory required for data: 721257472
I1223 21:22:23.081037 30220 layer_factory.hpp:76] Creating layer stage0/block2/conv_restore
I1223 21:22:23.081046 30220 net.cpp:106] Creating Layer stage0/block2/conv_restore
I1223 21:22:23.081050 30220 net.cpp:454] stage0/block2/conv_restore <- stage0/block2/conv/BN
I1223 21:22:23.081058 30220 net.cpp:411] stage0/block2/conv_restore -> stage0/block2/conv_restore
I1223 21:22:23.083675 30220 cudnn_conv_layer.cpp:194] Reallocating workspace storage: 7068
I1223 21:22:23.083708 30220 net.cpp:150] Setting up stage0/block2/conv_restore
I1223 21:22:23.083714 30220 net.cpp:157] Top shape: 256 120 15 15 (6912000)
I1223 21:22:23.083719 30220 net.cpp:165] Memory required for data: 748905472
I1223 21:22:23.083726 30220 layer_factory.hpp:76] Creating layer stage0/block2/sum
I1223 21:22:23.083734 30220 net.cpp:106] Creating Layer stage0/block2/sum
I1223 21:22:23.083737 30220 net.cpp:454] stage0/block2/sum <- stage0/block2/conv_restore
I1223 21:22:23.083744 30220 net.cpp:454] stage0/block2/sum <- stage0/block1/sum/BN_stage0/block1/sum/BN_0_split_1
I1223 21:22:23.083750 30220 net.cpp:411] stage0/block2/sum -> stage0/block2/sum
I1223 21:22:23.083781 30220 net.cpp:150] Setting up stage0/block2/sum
I1223 21:22:23.083787 30220 net.cpp:157] Top shape: 256 120 15 15 (6912000)
I1223 21:22:23.083791 30220 net.cpp:165] Memory required for data: 776553472
I1223 21:22:23.083794 30220 layer_factory.hpp:76] Creating layer stage0/block2/sum/nl
I1223 21:22:23.083803 30220 net.cpp:106] Creating Layer stage0/block2/sum/nl
I1223 21:22:23.083806 30220 net.cpp:454] stage0/block2/sum/nl <- stage0/block2/sum
I1223 21:22:23.083824 30220 net.cpp:397] stage0/block2/sum/nl -> stage0/block2/sum (in-place)
I1223 21:22:23.084542 30220 net.cpp:150] Setting up stage0/block2/sum/nl
I1223 21:22:23.084553 30220 net.cpp:157] Top shape: 256 120 15 15 (6912000)
I1223 21:22:23.084558 30220 net.cpp:165] Memory required for data: 804201472
I1223 21:22:23.084561 30220 layer_factory.hpp:76] Creating layer stage0/block2/sum/BN
I1223 21:22:23.084569 30220 net.cpp:106] Creating Layer stage0/block2/sum/BN
I1223 21:22:23.084573 30220 net.cpp:454] stage0/block2/sum/BN <- stage0/block2/sum
I1223 21:22:23.084581 30220 net.cpp:411] stage0/block2/sum/BN -> stage0/block2/sum/BN
I1223 21:22:23.084846 30220 net.cpp:150] Setting up stage0/block2/sum/BN
I1223 21:22:23.084856 30220 net.cpp:157] Top shape: 256 120 15 15 (6912000)
I1223 21:22:23.084861 30220 net.cpp:165] Memory required for data: 831849472
I1223 21:22:23.084869 30220 layer_factory.hpp:76] Creating layer stage0/block2/sum/BN_stage0/block2/sum/BN_0_split
I1223 21:22:23.084877 30220 net.cpp:106] Creating Layer stage0/block2/sum/BN_stage0/block2/sum/BN_0_split
I1223 21:22:23.084880 30220 net.cpp:454] stage0/block2/sum/BN_stage0/block2/sum/BN_0_split <- stage0/block2/sum/BN
I1223 21:22:23.084887 30220 net.cpp:411] stage0/block2/sum/BN_stage0/block2/sum/BN_0_split -> stage0/block2/sum/BN_stage0/block2/sum/BN_0_split_0
I1223 21:22:23.084894 30220 net.cpp:411] stage0/block2/sum/BN_stage0/block2/sum/BN_0_split -> stage0/block2/sum/BN_stage0/block2/sum/BN_0_split_1
I1223 21:22:23.084933 30220 net.cpp:150] Setting up stage0/block2/sum/BN_stage0/block2/sum/BN_0_split
I1223 21:22:23.084941 30220 net.cpp:157] Top shape: 256 120 15 15 (6912000)
I1223 21:22:23.084946 30220 net.cpp:157] Top shape: 256 120 15 15 (6912000)
I1223 21:22:23.084949 30220 net.cpp:165] Memory required for data: 887145472
I1223 21:22:23.084954 30220 layer_factory.hpp:76] Creating layer stage1/block0/conv_reduce
I1223 21:22:23.084962 30220 net.cpp:106] Creating Layer stage1/block0/conv_reduce
I1223 21:22:23.084966 30220 net.cpp:454] stage1/block0/conv_reduce <- stage0/block2/sum/BN_stage0/block2/sum/BN_0_split_0
I1223 21:22:23.084974 30220 net.cpp:411] stage1/block0/conv_reduce -> stage1/block0/conv_reduce
I1223 21:22:23.087851 30220 cudnn_conv_layer.cpp:194] Reallocating workspace storage: 7068
I1223 21:22:23.087879 30220 net.cpp:150] Setting up stage1/block0/conv_reduce
I1223 21:22:23.087888 30220 net.cpp:157] Top shape: 256 72 15 15 (4147200)
I1223 21:22:23.087890 30220 net.cpp:165] Memory required for data: 903734272
I1223 21:22:23.087898 30220 layer_factory.hpp:76] Creating layer stage1/block0/conv_reduce/nl
I1223 21:22:23.087908 30220 net.cpp:106] Creating Layer stage1/block0/conv_reduce/nl
I1223 21:22:23.087911 30220 net.cpp:454] stage1/block0/conv_reduce/nl <- stage1/block0/conv_reduce
I1223 21:22:23.087918 30220 net.cpp:397] stage1/block0/conv_reduce/nl -> stage1/block0/conv_reduce (in-place)
I1223 21:22:23.088654 30220 net.cpp:150] Setting up stage1/block0/conv_reduce/nl
I1223 21:22:23.088666 30220 net.cpp:157] Top shape: 256 72 15 15 (4147200)
I1223 21:22:23.088670 30220 net.cpp:165] Memory required for data: 920323072
I1223 21:22:23.088675 30220 layer_factory.hpp:76] Creating layer stage1/block0/conv_reduce/BN
I1223 21:22:23.088683 30220 net.cpp:106] Creating Layer stage1/block0/conv_reduce/BN
I1223 21:22:23.088688 30220 net.cpp:454] stage1/block0/conv_reduce/BN <- stage1/block0/conv_reduce
I1223 21:22:23.088695 30220 net.cpp:411] stage1/block0/conv_reduce/BN -> stage1/block0/conv_reduce/BN
I1223 21:22:23.088958 30220 net.cpp:150] Setting up stage1/block0/conv_reduce/BN
I1223 21:22:23.088965 30220 net.cpp:157] Top shape: 256 72 15 15 (4147200)
I1223 21:22:23.088969 30220 net.cpp:165] Memory required for data: 936911872
I1223 21:22:23.088979 30220 layer_factory.hpp:76] Creating layer stage1/block0/conv
I1223 21:22:23.088989 30220 net.cpp:106] Creating Layer stage1/block0/conv
I1223 21:22:23.088994 30220 net.cpp:454] stage1/block0/conv <- stage1/block0/conv_reduce/BN
I1223 21:22:23.089016 30220 net.cpp:411] stage1/block0/conv -> stage1/block0/conv
I1223 21:22:23.093368 30220 cudnn_conv_layer.cpp:194] Reallocating workspace storage: 10596
I1223 21:22:23.093410 30220 net.cpp:150] Setting up stage1/block0/conv
I1223 21:22:23.093420 30220 net.cpp:157] Top shape: 256 72 8 8 (1179648)
I1223 21:22:23.093425 30220 net.cpp:165] Memory required for data: 941630464
I1223 21:22:23.093433 30220 layer_factory.hpp:76] Creating layer stage1/block0/conv/nl
I1223 21:22:23.093447 30220 net.cpp:106] Creating Layer stage1/block0/conv/nl
I1223 21:22:23.093454 30220 net.cpp:454] stage1/block0/conv/nl <- stage1/block0/conv
I1223 21:22:23.093461 30220 net.cpp:397] stage1/block0/conv/nl -> stage1/block0/conv (in-place)
I1223 21:22:23.094202 30220 net.cpp:150] Setting up stage1/block0/conv/nl
I1223 21:22:23.094215 30220 net.cpp:157] Top shape: 256 72 8 8 (1179648)
I1223 21:22:23.094220 30220 net.cpp:165] Memory required for data: 946349056
I1223 21:22:23.094224 30220 layer_factory.hpp:76] Creating layer stage1/block0/conv/BN
I1223 21:22:23.094233 30220 net.cpp:106] Creating Layer stage1/block0/conv/BN
I1223 21:22:23.094238 30220 net.cpp:454] stage1/block0/conv/BN <- stage1/block0/conv
I1223 21:22:23.094245 30220 net.cpp:411] stage1/block0/conv/BN -> stage1/block0/conv/BN
I1223 21:22:23.094545 30220 net.cpp:150] Setting up stage1/block0/conv/BN
I1223 21:22:23.094557 30220 net.cpp:157] Top shape: 256 72 8 8 (1179648)
I1223 21:22:23.094560 30220 net.cpp:165] Memory required for data: 951067648
I1223 21:22:23.094570 30220 layer_factory.hpp:76] Creating layer stage1/block0/conv_restore
I1223 21:22:23.094583 30220 net.cpp:106] Creating Layer stage1/block0/conv_restore
I1223 21:22:23.094586 30220 net.cpp:454] stage1/block0/conv_restore <- stage1/block0/conv/BN
I1223 21:22:23.094594 30220 net.cpp:411] stage1/block0/conv_restore -> stage1/block0/conv_restore
I1223 21:22:23.097712 30220 cudnn_conv_layer.cpp:194] Reallocating workspace storage: 6816
I1223 21:22:23.097745 30220 net.cpp:150] Setting up stage1/block0/conv_restore
I1223 21:22:23.097757 30220 net.cpp:157] Top shape: 256 240 8 8 (3932160)
I1223 21:22:23.097760 30220 net.cpp:165] Memory required for data: 966796288
I1223 21:22:23.097769 30220 layer_factory.hpp:76] Creating layer stage1/block0/shortcut
I1223 21:22:23.097782 30220 net.cpp:106] Creating Layer stage1/block0/shortcut
I1223 21:22:23.097789 30220 net.cpp:454] stage1/block0/shortcut <- stage0/block2/sum/BN_stage0/block2/sum/BN_0_split_1
I1223 21:22:23.097796 30220 net.cpp:411] stage1/block0/shortcut -> stage1/block0/shortcut
I1223 21:22:23.101447 30220 cudnn_conv_layer.cpp:194] Reallocating workspace storage: 6816
I1223 21:22:23.101480 30220 net.cpp:150] Setting up stage1/block0/shortcut
I1223 21:22:23.101488 30220 net.cpp:157] Top shape: 256 240 8 8 (3932160)
I1223 21:22:23.101492 30220 net.cpp:165] Memory required for data: 982524928
I1223 21:22:23.101500 30220 layer_factory.hpp:76] Creating layer stage1/block0/sum
I1223 21:22:23.101508 30220 net.cpp:106] Creating Layer stage1/block0/sum
I1223 21:22:23.101518 30220 net.cpp:454] stage1/block0/sum <- stage1/block0/conv_restore
I1223 21:22:23.101524 30220 net.cpp:454] stage1/block0/sum <- stage1/block0/shortcut
I1223 21:22:23.101531 30220 net.cpp:411] stage1/block0/sum -> stage1/block0/sum
I1223 21:22:23.101563 30220 net.cpp:150] Setting up stage1/block0/sum
I1223 21:22:23.101570 30220 net.cpp:157] Top shape: 256 240 8 8 (3932160)
I1223 21:22:23.101574 30220 net.cpp:165] Memory required for data: 998253568
I1223 21:22:23.101578 30220 layer_factory.hpp:76] Creating layer stage1/block0/sum/nl
I1223 21:22:23.101585 30220 net.cpp:106] Creating Layer stage1/block0/sum/nl
I1223 21:22:23.101589 30220 net.cpp:454] stage1/block0/sum/nl <- stage1/block0/sum
I1223 21:22:23.101595 30220 net.cpp:397] stage1/block0/sum/nl -> stage1/block0/sum (in-place)
I1223 21:22:23.102342 30220 net.cpp:150] Setting up stage1/block0/sum/nl
I1223 21:22:23.102356 30220 net.cpp:157] Top shape: 256 240 8 8 (3932160)
I1223 21:22:23.102360 30220 net.cpp:165] Memory required for data: 1013982208
I1223 21:22:23.102380 30220 layer_factory.hpp:76] Creating layer stage1/block0/sum/BN
I1223 21:22:23.102388 30220 net.cpp:106] Creating Layer stage1/block0/sum/BN
I1223 21:22:23.102396 30220 net.cpp:454] stage1/block0/sum/BN <- stage1/block0/sum
I1223 21:22:23.102402 30220 net.cpp:411] stage1/block0/sum/BN -> stage1/block0/sum/BN
I1223 21:22:23.102674 30220 net.cpp:150] Setting up stage1/block0/sum/BN
I1223 21:22:23.102684 30220 net.cpp:157] Top shape: 256 240 8 8 (3932160)
I1223 21:22:23.102687 30220 net.cpp:165] Memory required for data: 1029710848
I1223 21:22:23.102702 30220 layer_factory.hpp:76] Creating layer stage1/block0/sum/BN_stage1/block0/sum/BN_0_split
I1223 21:22:23.102711 30220 net.cpp:106] Creating Layer stage1/block0/sum/BN_stage1/block0/sum/BN_0_split
I1223 21:22:23.102715 30220 net.cpp:454] stage1/block0/sum/BN_stage1/block0/sum/BN_0_split <- stage1/block0/sum/BN
I1223 21:22:23.102723 30220 net.cpp:411] stage1/block0/sum/BN_stage1/block0/sum/BN_0_split -> stage1/block0/sum/BN_stage1/block0/sum/BN_0_split_0
I1223 21:22:23.102731 30220 net.cpp:411] stage1/block0/sum/BN_stage1/block0/sum/BN_0_split -> stage1/block0/sum/BN_stage1/block0/sum/BN_0_split_1
I1223 21:22:23.102771 30220 net.cpp:150] Setting up stage1/block0/sum/BN_stage1/block0/sum/BN_0_split
I1223 21:22:23.102778 30220 net.cpp:157] Top shape: 256 240 8 8 (3932160)
I1223 21:22:23.102783 30220 net.cpp:157] Top shape: 256 240 8 8 (3932160)
I1223 21:22:23.102787 30220 net.cpp:165] Memory required for data: 1061168128
I1223 21:22:23.102792 30220 layer_factory.hpp:76] Creating layer stage1/block1/conv_reduce
I1223 21:22:23.102800 30220 net.cpp:106] Creating Layer stage1/block1/conv_reduce
I1223 21:22:23.102804 30220 net.cpp:454] stage1/block1/conv_reduce <- stage1/block0/sum/BN_stage1/block0/sum/BN_0_split_0
I1223 21:22:23.102813 30220 net.cpp:411] stage1/block1/conv_reduce -> stage1/block1/conv_reduce
I1223 21:22:23.106215 30220 cudnn_conv_layer.cpp:194] Reallocating workspace storage: 6816
I1223 21:22:23.106248 30220 net.cpp:150] Setting up stage1/block1/conv_reduce
I1223 21:22:23.106261 30220 net.cpp:157] Top shape: 256 72 8 8 (1179648)
I1223 21:22:23.106266 30220 net.cpp:165] Memory required for data: 1065886720
I1223 21:22:23.106273 30220 layer_factory.hpp:76] Creating layer stage1/block1/conv_reduce/nl
I1223 21:22:23.106284 30220 net.cpp:106] Creating Layer stage1/block1/conv_reduce/nl
I1223 21:22:23.106290 30220 net.cpp:454] stage1/block1/conv_reduce/nl <- stage1/block1/conv_reduce
I1223 21:22:23.106297 30220 net.cpp:397] stage1/block1/conv_reduce/nl -> stage1/block1/conv_reduce (in-place)
I1223 21:22:23.107133 30220 net.cpp:150] Setting up stage1/block1/conv_reduce/nl
I1223 21:22:23.107169 30220 net.cpp:157] Top shape: 256 72 8 8 (1179648)
I1223 21:22:23.107185 30220 net.cpp:165] Memory required for data: 1070605312
I1223 21:22:23.107200 30220 layer_factory.hpp:76] Creating layer stage1/block1/conv_reduce/BN
I1223 21:22:23.107223 30220 net.cpp:106] Creating Layer stage1/block1/conv_reduce/BN
I1223 21:22:23.107240 30220 net.cpp:454] stage1/block1/conv_reduce/BN <- stage1/block1/conv_reduce
I1223 21:22:23.107259 30220 net.cpp:411] stage1/block1/conv_reduce/BN -> stage1/block1/conv_reduce/BN
I1223 21:22:23.107599 30220 net.cpp:150] Setting up stage1/block1/conv_reduce/BN
I1223 21:22:23.107626 30220 net.cpp:157] Top shape: 256 72 8 8 (1179648)
I1223 21:22:23.107642 30220 net.cpp:165] Memory required for data: 1075323904
I1223 21:22:23.107663 30220 layer_factory.hpp:76] Creating layer stage1/block1/conv
I1223 21:22:23.107687 30220 net.cpp:106] Creating Layer stage1/block1/conv
I1223 21:22:23.107703 30220 net.cpp:454] stage1/block1/conv <- stage1/block1/conv_reduce/BN
I1223 21:22:23.107724 30220 net.cpp:411] stage1/block1/conv -> stage1/block1/conv
I1223 21:22:23.112258 30220 cudnn_conv_layer.cpp:194] Reallocating workspace storage: 7968
I1223 21:22:23.112301 30220 net.cpp:150] Setting up stage1/block1/conv
I1223 21:22:23.112313 30220 net.cpp:157] Top shape: 256 72 8 8 (1179648)
I1223 21:22:23.112318 30220 net.cpp:165] Memory required for data: 1080042496
I1223 21:22:23.112341 30220 layer_factory.hpp:76] Creating layer stage1/block1/conv/nl
I1223 21:22:23.112354 30220 net.cpp:106] Creating Layer stage1/block1/conv/nl
I1223 21:22:23.112360 30220 net.cpp:454] stage1/block1/conv/nl <- stage1/block1/conv
I1223 21:22:23.112370 30220 net.cpp:397] stage1/block1/conv/nl -> stage1/block1/conv (in-place)
I1223 21:22:23.113298 30220 net.cpp:150] Setting up stage1/block1/conv/nl
I1223 21:22:23.113312 30220 net.cpp:157] Top shape: 256 72 8 8 (1179648)
I1223 21:22:23.113317 30220 net.cpp:165] Memory required for data: 1084761088
I1223 21:22:23.113320 30220 layer_factory.hpp:76] Creating layer stage1/block1/conv/BN
I1223 21:22:23.113332 30220 net.cpp:106] Creating Layer stage1/block1/conv/BN
I1223 21:22:23.113337 30220 net.cpp:454] stage1/block1/conv/BN <- stage1/block1/conv
I1223 21:22:23.113343 30220 net.cpp:411] stage1/block1/conv/BN -> stage1/block1/conv/BN
I1223 21:22:23.113642 30220 net.cpp:150] Setting up stage1/block1/conv/BN
I1223 21:22:23.113651 30220 net.cpp:157] Top shape: 256 72 8 8 (1179648)
I1223 21:22:23.113656 30220 net.cpp:165] Memory required for data: 1089479680
I1223 21:22:23.113664 30220 layer_factory.hpp:76] Creating layer stage1/block1/conv_restore
I1223 21:22:23.113675 30220 net.cpp:106] Creating Layer stage1/block1/conv_restore
I1223 21:22:23.113680 30220 net.cpp:454] stage1/block1/conv_restore <- stage1/block1/conv/BN
I1223 21:22:23.113688 30220 net.cpp:411] stage1/block1/conv_restore -> stage1/block1/conv_restore
I1223 21:22:23.116881 30220 cudnn_conv_layer.cpp:194] Reallocating workspace storage: 6816
I1223 21:22:23.116919 30220 net.cpp:150] Setting up stage1/block1/conv_restore
I1223 21:22:23.116928 30220 net.cpp:157] Top shape: 256 240 8 8 (3932160)
I1223 21:22:23.116931 30220 net.cpp:165] Memory required for data: 1105208320
I1223 21:22:23.116940 30220 layer_factory.hpp:76] Creating layer stage1/block1/sum
I1223 21:22:23.116950 30220 net.cpp:106] Creating Layer stage1/block1/sum
I1223 21:22:23.116957 30220 net.cpp:454] stage1/block1/sum <- stage1/block1/conv_restore
I1223 21:22:23.116963 30220 net.cpp:454] stage1/block1/sum <- stage1/block0/sum/BN_stage1/block0/sum/BN_0_split_1
I1223 21:22:23.116971 30220 net.cpp:411] stage1/block1/sum -> stage1/block1/sum
I1223 21:22:23.117008 30220 net.cpp:150] Setting up stage1/block1/sum
I1223 21:22:23.117017 30220 net.cpp:157] Top shape: 256 240 8 8 (3932160)
I1223 21:22:23.117020 30220 net.cpp:165] Memory required for data: 1120936960
I1223 21:22:23.117024 30220 layer_factory.hpp:76] Creating layer stage1/block1/sum/nl
I1223 21:22:23.117033 30220 net.cpp:106] Creating Layer stage1/block1/sum/nl
I1223 21:22:23.117036 30220 net.cpp:454] stage1/block1/sum/nl <- stage1/block1/sum
I1223 21:22:23.117041 30220 net.cpp:397] stage1/block1/sum/nl -> stage1/block1/sum (in-place)
I1223 21:22:23.117806 30220 net.cpp:150] Setting up stage1/block1/sum/nl
I1223 21:22:23.117818 30220 net.cpp:157] Top shape: 256 240 8 8 (3932160)
I1223 21:22:23.117822 30220 net.cpp:165] Memory required for data: 1136665600
I1223 21:22:23.117826 30220 layer_factory.hpp:76] Creating layer stage1/block1/sum/BN
I1223 21:22:23.117836 30220 net.cpp:106] Creating Layer stage1/block1/sum/BN
I1223 21:22:23.117842 30220 net.cpp:454] stage1/block1/sum/BN <- stage1/block1/sum
I1223 21:22:23.117848 30220 net.cpp:411] stage1/block1/sum/BN -> stage1/block1/sum/BN
I1223 21:22:23.118139 30220 net.cpp:150] Setting up stage1/block1/sum/BN
I1223 21:22:23.118149 30220 net.cpp:157] Top shape: 256 240 8 8 (3932160)
I1223 21:22:23.118152 30220 net.cpp:165] Memory required for data: 1152394240
I1223 21:22:23.118161 30220 layer_factory.hpp:76] Creating layer stage1/block1/sum/BN_stage1/block1/sum/BN_0_split
I1223 21:22:23.118167 30220 net.cpp:106] Creating Layer stage1/block1/sum/BN_stage1/block1/sum/BN_0_split
I1223 21:22:23.118171 30220 net.cpp:454] stage1/block1/sum/BN_stage1/block1/sum/BN_0_split <- stage1/block1/sum/BN
I1223 21:22:23.118178 30220 net.cpp:411] stage1/block1/sum/BN_stage1/block1/sum/BN_0_split -> stage1/block1/sum/BN_stage1/block1/sum/BN_0_split_0
I1223 21:22:23.118199 30220 net.cpp:411] stage1/block1/sum/BN_stage1/block1/sum/BN_0_split -> stage1/block1/sum/BN_stage1/block1/sum/BN_0_split_1
I1223 21:22:23.118247 30220 net.cpp:150] Setting up stage1/block1/sum/BN_stage1/block1/sum/BN_0_split
I1223 21:22:23.118254 30220 net.cpp:157] Top shape: 256 240 8 8 (3932160)
I1223 21:22:23.118258 30220 net.cpp:157] Top shape: 256 240 8 8 (3932160)
I1223 21:22:23.118263 30220 net.cpp:165] Memory required for data: 1183851520
I1223 21:22:23.118265 30220 layer_factory.hpp:76] Creating layer stage1/block2/conv_reduce
I1223 21:22:23.118274 30220 net.cpp:106] Creating Layer stage1/block2/conv_reduce
I1223 21:22:23.118278 30220 net.cpp:454] stage1/block2/conv_reduce <- stage1/block1/sum/BN_stage1/block1/sum/BN_0_split_0
I1223 21:22:23.118286 30220 net.cpp:411] stage1/block2/conv_reduce -> stage1/block2/conv_reduce
I1223 21:22:23.121618 30220 cudnn_conv_layer.cpp:194] Reallocating workspace storage: 6816
I1223 21:22:23.121654 30220 net.cpp:150] Setting up stage1/block2/conv_reduce
I1223 21:22:23.121662 30220 net.cpp:157] Top shape: 256 72 8 8 (1179648)
I1223 21:22:23.121666 30220 net.cpp:165] Memory required for data: 1188570112
I1223 21:22:23.121673 30220 layer_factory.hpp:76] Creating layer stage1/block2/conv_reduce/nl
I1223 21:22:23.121682 30220 net.cpp:106] Creating Layer stage1/block2/conv_reduce/nl
I1223 21:22:23.121687 30220 net.cpp:454] stage1/block2/conv_reduce/nl <- stage1/block2/conv_reduce
I1223 21:22:23.121692 30220 net.cpp:397] stage1/block2/conv_reduce/nl -> stage1/block2/conv_reduce (in-place)
I1223 21:22:23.122478 30220 net.cpp:150] Setting up stage1/block2/conv_reduce/nl
I1223 21:22:23.122490 30220 net.cpp:157] Top shape: 256 72 8 8 (1179648)
I1223 21:22:23.122494 30220 net.cpp:165] Memory required for data: 1193288704
I1223 21:22:23.122498 30220 layer_factory.hpp:76] Creating layer stage1/block2/conv_reduce/BN
I1223 21:22:23.122509 30220 net.cpp:106] Creating Layer stage1/block2/conv_reduce/BN
I1223 21:22:23.122514 30220 net.cpp:454] stage1/block2/conv_reduce/BN <- stage1/block2/conv_reduce
I1223 21:22:23.122522 30220 net.cpp:411] stage1/block2/conv_reduce/BN -> stage1/block2/conv_reduce/BN
I1223 21:22:23.122815 30220 net.cpp:150] Setting up stage1/block2/conv_reduce/BN
I1223 21:22:23.122824 30220 net.cpp:157] Top shape: 256 72 8 8 (1179648)
I1223 21:22:23.122828 30220 net.cpp:165] Memory required for data: 1198007296
I1223 21:22:23.122836 30220 layer_factory.hpp:76] Creating layer stage1/block2/conv
I1223 21:22:23.122848 30220 net.cpp:106] Creating Layer stage1/block2/conv
I1223 21:22:23.122853 30220 net.cpp:454] stage1/block2/conv <- stage1/block2/conv_reduce/BN
I1223 21:22:23.122859 30220 net.cpp:411] stage1/block2/conv -> stage1/block2/conv
I1223 21:22:23.127210 30220 cudnn_conv_layer.cpp:194] Reallocating workspace storage: 7968
I1223 21:22:23.127249 30220 net.cpp:150] Setting up stage1/block2/conv
I1223 21:22:23.127259 30220 net.cpp:157] Top shape: 256 72 8 8 (1179648)
I1223 21:22:23.127264 30220 net.cpp:165] Memory required for data: 1202725888
I1223 21:22:23.127271 30220 layer_factory.hpp:76] Creating layer stage1/block2/conv/nl
I1223 21:22:23.127279 30220 net.cpp:106] Creating Layer stage1/block2/conv/nl
I1223 21:22:23.127287 30220 net.cpp:454] stage1/block2/conv/nl <- stage1/block2/conv
I1223 21:22:23.127295 30220 net.cpp:397] stage1/block2/conv/nl -> stage1/block2/conv (in-place)
I1223 21:22:23.128067 30220 net.cpp:150] Setting up stage1/block2/conv/nl
I1223 21:22:23.128079 30220 net.cpp:157] Top shape: 256 72 8 8 (1179648)
I1223 21:22:23.128083 30220 net.cpp:165] Memory required for data: 1207444480
I1223 21:22:23.128087 30220 layer_factory.hpp:76] Creating layer stage1/block2/conv/BN
I1223 21:22:23.128099 30220 net.cpp:106] Creating Layer stage1/block2/conv/BN
I1223 21:22:23.128103 30220 net.cpp:454] stage1/block2/conv/BN <- stage1/block2/conv
I1223 21:22:23.128110 30220 net.cpp:411] stage1/block2/conv/BN -> stage1/block2/conv/BN
I1223 21:22:23.128409 30220 net.cpp:150] Setting up stage1/block2/conv/BN
I1223 21:22:23.128417 30220 net.cpp:157] Top shape: 256 72 8 8 (1179648)
I1223 21:22:23.128433 30220 net.cpp:165] Memory required for data: 1212163072
I1223 21:22:23.128443 30220 layer_factory.hpp:76] Creating layer stage1/block2/conv_restore
I1223 21:22:23.128453 30220 net.cpp:106] Creating Layer stage1/block2/conv_restore
I1223 21:22:23.128458 30220 net.cpp:454] stage1/block2/conv_restore <- stage1/block2/conv/BN
I1223 21:22:23.128465 30220 net.cpp:411] stage1/block2/conv_restore -> stage1/block2/conv_restore
I1223 21:22:23.132164 30220 cudnn_conv_layer.cpp:194] Reallocating workspace storage: 6816
I1223 21:22:23.132205 30220 net.cpp:150] Setting up stage1/block2/conv_restore
I1223 21:22:23.132215 30220 net.cpp:157] Top shape: 256 240 8 8 (3932160)
I1223 21:22:23.132220 30220 net.cpp:165] Memory required for data: 1227891712
I1223 21:22:23.132227 30220 layer_factory.hpp:76] Creating layer stage1/block2/sum
I1223 21:22:23.132236 30220 net.cpp:106] Creating Layer stage1/block2/sum
I1223 21:22:23.132242 30220 net.cpp:454] stage1/block2/sum <- stage1/block2/conv_restore
I1223 21:22:23.132248 30220 net.cpp:454] stage1/block2/sum <- stage1/block1/sum/BN_stage1/block1/sum/BN_0_split_1
I1223 21:22:23.132256 30220 net.cpp:411] stage1/block2/sum -> stage1/block2/sum
I1223 21:22:23.132292 30220 net.cpp:150] Setting up stage1/block2/sum
I1223 21:22:23.132298 30220 net.cpp:157] Top shape: 256 240 8 8 (3932160)
I1223 21:22:23.132302 30220 net.cpp:165] Memory required for data: 1243620352
I1223 21:22:23.132305 30220 layer_factory.hpp:76] Creating layer stage1/block2/sum/nl
I1223 21:22:23.132313 30220 net.cpp:106] Creating Layer stage1/block2/sum/nl
I1223 21:22:23.132318 30220 net.cpp:454] stage1/block2/sum/nl <- stage1/block2/sum
I1223 21:22:23.132323 30220 net.cpp:397] stage1/block2/sum/nl -> stage1/block2/sum (in-place)
I1223 21:22:23.133208 30220 net.cpp:150] Setting up stage1/block2/sum/nl
I1223 21:22:23.133221 30220 net.cpp:157] Top shape: 256 240 8 8 (3932160)
I1223 21:22:23.133226 30220 net.cpp:165] Memory required for data: 1259348992
I1223 21:22:23.133230 30220 layer_factory.hpp:76] Creating layer stage1/block2/sum/BN
I1223 21:22:23.133239 30220 net.cpp:106] Creating Layer stage1/block2/sum/BN
I1223 21:22:23.133244 30220 net.cpp:454] stage1/block2/sum/BN <- stage1/block2/sum
I1223 21:22:23.133250 30220 net.cpp:411] stage1/block2/sum/BN -> stage1/block2/sum/BN
I1223 21:22:23.133558 30220 net.cpp:150] Setting up stage1/block2/sum/BN
I1223 21:22:23.133568 30220 net.cpp:157] Top shape: 256 240 8 8 (3932160)
I1223 21:22:23.133570 30220 net.cpp:165] Memory required for data: 1275077632
I1223 21:22:23.133580 30220 layer_factory.hpp:76] Creating layer stage1/block2/sum/BN_stage1/block2/sum/BN_0_split
I1223 21:22:23.133587 30220 net.cpp:106] Creating Layer stage1/block2/sum/BN_stage1/block2/sum/BN_0_split
I1223 21:22:23.133590 30220 net.cpp:454] stage1/block2/sum/BN_stage1/block2/sum/BN_0_split <- stage1/block2/sum/BN
I1223 21:22:23.133596 30220 net.cpp:411] stage1/block2/sum/BN_stage1/block2/sum/BN_0_split -> stage1/block2/sum/BN_stage1/block2/sum/BN_0_split_0
I1223 21:22:23.133602 30220 net.cpp:411] stage1/block2/sum/BN_stage1/block2/sum/BN_0_split -> stage1/block2/sum/BN_stage1/block2/sum/BN_0_split_1
I1223 21:22:23.133649 30220 net.cpp:150] Setting up stage1/block2/sum/BN_stage1/block2/sum/BN_0_split
I1223 21:22:23.133656 30220 net.cpp:157] Top shape: 256 240 8 8 (3932160)
I1223 21:22:23.133661 30220 net.cpp:157] Top shape: 256 240 8 8 (3932160)
I1223 21:22:23.133664 30220 net.cpp:165] Memory required for data: 1306534912
I1223 21:22:23.133668 30220 layer_factory.hpp:76] Creating layer stage1/block3/conv_reduce
I1223 21:22:23.133678 30220 net.cpp:106] Creating Layer stage1/block3/conv_reduce
I1223 21:22:23.133682 30220 net.cpp:454] stage1/block3/conv_reduce <- stage1/block2/sum/BN_stage1/block2/sum/BN_0_split_0
I1223 21:22:23.133689 30220 net.cpp:411] stage1/block3/conv_reduce -> stage1/block3/conv_reduce
I1223 21:22:23.136960 30220 cudnn_conv_layer.cpp:194] Reallocating workspace storage: 6816
I1223 21:22:23.136996 30220 net.cpp:150] Setting up stage1/block3/conv_reduce
I1223 21:22:23.137017 30220 net.cpp:157] Top shape: 256 72 8 8 (1179648)
I1223 21:22:23.137022 30220 net.cpp:165] Memory required for data: 1311253504
I1223 21:22:23.137030 30220 layer_factory.hpp:76] Creating layer stage1/block3/conv_reduce/nl
I1223 21:22:23.137038 30220 net.cpp:106] Creating Layer stage1/block3/conv_reduce/nl
I1223 21:22:23.137042 30220 net.cpp:454] stage1/block3/conv_reduce/nl <- stage1/block3/conv_reduce
I1223 21:22:23.137048 30220 net.cpp:397] stage1/block3/conv_reduce/nl -> stage1/block3/conv_reduce (in-place)
I1223 21:22:23.137835 30220 net.cpp:150] Setting up stage1/block3/conv_reduce/nl
I1223 21:22:23.137873 30220 net.cpp:157] Top shape: 256 72 8 8 (1179648)
I1223 21:22:23.137892 30220 net.cpp:165] Memory required for data: 1315972096
I1223 21:22:23.137909 30220 layer_factory.hpp:76] Creating layer stage1/block3/conv_reduce/BN
I1223 21:22:23.137931 30220 net.cpp:106] Creating Layer stage1/block3/conv_reduce/BN
I1223 21:22:23.137948 30220 net.cpp:454] stage1/block3/conv_reduce/BN <- stage1/block3/conv_reduce
I1223 21:22:23.137969 30220 net.cpp:411] stage1/block3/conv_reduce/BN -> stage1/block3/conv_reduce/BN
I1223 21:22:23.138305 30220 net.cpp:150] Setting up stage1/block3/conv_reduce/BN
I1223 21:22:23.138329 30220 net.cpp:157] Top shape: 256 72 8 8 (1179648)
I1223 21:22:23.138345 30220 net.cpp:165] Memory required for data: 1320690688
I1223 21:22:23.138365 30220 layer_factory.hpp:76] Creating layer stage1/block3/conv
I1223 21:22:23.138387 30220 net.cpp:106] Creating Layer stage1/block3/conv
I1223 21:22:23.138403 30220 net.cpp:454] stage1/block3/conv <- stage1/block3/conv_reduce/BN
I1223 21:22:23.138422 30220 net.cpp:411] stage1/block3/conv -> stage1/block3/conv
I1223 21:22:23.143160 30220 cudnn_conv_layer.cpp:194] Reallocating workspace storage: 7968
I1223 21:22:23.143252 30220 net.cpp:150] Setting up stage1/block3/conv
I1223 21:22:23.143282 30220 net.cpp:157] Top shape: 256 72 8 8 (1179648)
I1223 21:22:23.143301 30220 net.cpp:165] Memory required for data: 1325409280
I1223 21:22:23.143322 30220 layer_factory.hpp:76] Creating layer stage1/block3/conv/nl
I1223 21:22:23.143345 30220 net.cpp:106] Creating Layer stage1/block3/conv/nl
I1223 21:22:23.143363 30220 net.cpp:454] stage1/block3/conv/nl <- stage1/block3/conv
I1223 21:22:23.143381 30220 net.cpp:397] stage1/block3/conv/nl -> stage1/block3/conv (in-place)
I1223 21:22:23.144256 30220 net.cpp:150] Setting up stage1/block3/conv/nl
I1223 21:22:23.144271 30220 net.cpp:157] Top shape: 256 72 8 8 (1179648)
I1223 21:22:23.144275 30220 net.cpp:165] Memory required for data: 1330127872
I1223 21:22:23.144279 30220 layer_factory.hpp:76] Creating layer stage1/block3/conv/BN
I1223 21:22:23.144292 30220 net.cpp:106] Creating Layer stage1/block3/conv/BN
I1223 21:22:23.144297 30220 net.cpp:454] stage1/block3/conv/BN <- stage1/block3/conv
I1223 21:22:23.144304 30220 net.cpp:411] stage1/block3/conv/BN -> stage1/block3/conv/BN
I1223 21:22:23.144634 30220 net.cpp:150] Setting up stage1/block3/conv/BN
I1223 21:22:23.144644 30220 net.cpp:157] Top shape: 256 72 8 8 (1179648)
I1223 21:22:23.144647 30220 net.cpp:165] Memory required for data: 1334846464
I1223 21:22:23.144657 30220 layer_factory.hpp:76] Creating layer stage1/block3/conv_restore
I1223 21:22:23.144671 30220 net.cpp:106] Creating Layer stage1/block3/conv_restore
I1223 21:22:23.144676 30220 net.cpp:454] stage1/block3/conv_restore <- stage1/block3/conv/BN
I1223 21:22:23.144685 30220 net.cpp:411] stage1/block3/conv_restore -> stage1/block3/conv_restore
I1223 21:22:23.148254 30220 cudnn_conv_layer.cpp:194] Reallocating workspace storage: 6816
I1223 21:22:23.148298 30220 net.cpp:150] Setting up stage1/block3/conv_restore
I1223 21:22:23.148305 30220 net.cpp:157] Top shape: 256 240 8 8 (3932160)
I1223 21:22:23.148309 30220 net.cpp:165] Memory required for data: 1350575104
I1223 21:22:23.148318 30220 layer_factory.hpp:76] Creating layer stage1/block3/sum
I1223 21:22:23.148324 30220 net.cpp:106] Creating Layer stage1/block3/sum
I1223 21:22:23.148329 30220 net.cpp:454] stage1/block3/sum <- stage1/block3/conv_restore
I1223 21:22:23.148350 30220 net.cpp:454] stage1/block3/sum <- stage1/block2/sum/BN_stage1/block2/sum/BN_0_split_1
I1223 21:22:23.148355 30220 net.cpp:411] stage1/block3/sum -> stage1/block3/sum
I1223 21:22:23.148392 30220 net.cpp:150] Setting up stage1/block3/sum
I1223 21:22:23.148401 30220 net.cpp:157] Top shape: 256 240 8 8 (3932160)
I1223 21:22:23.148403 30220 net.cpp:165] Memory required for data: 1366303744
I1223 21:22:23.148406 30220 layer_factory.hpp:76] Creating layer stage1/block3/sum/nl
I1223 21:22:23.148414 30220 net.cpp:106] Creating Layer stage1/block3/sum/nl
I1223 21:22:23.148418 30220 net.cpp:454] stage1/block3/sum/nl <- stage1/block3/sum
I1223 21:22:23.148423 30220 net.cpp:397] stage1/block3/sum/nl -> stage1/block3/sum (in-place)
I1223 21:22:23.149240 30220 net.cpp:150] Setting up stage1/block3/sum/nl
I1223 21:22:23.149252 30220 net.cpp:157] Top shape: 256 240 8 8 (3932160)
I1223 21:22:23.149256 30220 net.cpp:165] Memory required for data: 1382032384
I1223 21:22:23.149260 30220 layer_factory.hpp:76] Creating layer stage1/block3/sum/BN
I1223 21:22:23.149268 30220 net.cpp:106] Creating Layer stage1/block3/sum/BN
I1223 21:22:23.149272 30220 net.cpp:454] stage1/block3/sum/BN <- stage1/block3/sum
I1223 21:22:23.149281 30220 net.cpp:411] stage1/block3/sum/BN -> stage1/block3/sum/BN
I1223 21:22:23.149603 30220 net.cpp:150] Setting up stage1/block3/sum/BN
I1223 21:22:23.149611 30220 net.cpp:157] Top shape: 256 240 8 8 (3932160)
I1223 21:22:23.149616 30220 net.cpp:165] Memory required for data: 1397761024
I1223 21:22:23.149624 30220 layer_factory.hpp:76] Creating layer stage1/block3/sum/BN_stage1/block3/sum/BN_0_split
I1223 21:22:23.149631 30220 net.cpp:106] Creating Layer stage1/block3/sum/BN_stage1/block3/sum/BN_0_split
I1223 21:22:23.149636 30220 net.cpp:454] stage1/block3/sum/BN_stage1/block3/sum/BN_0_split <- stage1/block3/sum/BN
I1223 21:22:23.149641 30220 net.cpp:411] stage1/block3/sum/BN_stage1/block3/sum/BN_0_split -> stage1/block3/sum/BN_stage1/block3/sum/BN_0_split_0
I1223 21:22:23.149647 30220 net.cpp:411] stage1/block3/sum/BN_stage1/block3/sum/BN_0_split -> stage1/block3/sum/BN_stage1/block3/sum/BN_0_split_1
I1223 21:22:23.149693 30220 net.cpp:150] Setting up stage1/block3/sum/BN_stage1/block3/sum/BN_0_split
I1223 21:22:23.149701 30220 net.cpp:157] Top shape: 256 240 8 8 (3932160)
I1223 21:22:23.149708 30220 net.cpp:157] Top shape: 256 240 8 8 (3932160)
I1223 21:22:23.149711 30220 net.cpp:165] Memory required for data: 1429218304
I1223 21:22:23.149715 30220 layer_factory.hpp:76] Creating layer stage2/block0/conv_reduce
I1223 21:22:23.149724 30220 net.cpp:106] Creating Layer stage2/block0/conv_reduce
I1223 21:22:23.149727 30220 net.cpp:454] stage2/block0/conv_reduce <- stage1/block3/sum/BN_stage1/block3/sum/BN_0_split_0
I1223 21:22:23.149734 30220 net.cpp:411] stage2/block0/conv_reduce -> stage2/block0/conv_reduce
I1223 21:22:23.153535 30220 cudnn_conv_layer.cpp:194] Reallocating workspace storage: 6816
I1223 21:22:23.153575 30220 net.cpp:150] Setting up stage2/block0/conv_reduce
I1223 21:22:23.153584 30220 net.cpp:157] Top shape: 256 128 8 8 (2097152)
I1223 21:22:23.153587 30220 net.cpp:165] Memory required for data: 1437606912
I1223 21:22:23.153595 30220 layer_factory.hpp:76] Creating layer stage2/block0/conv_reduce/nl
I1223 21:22:23.153604 30220 net.cpp:106] Creating Layer stage2/block0/conv_reduce/nl
I1223 21:22:23.153609 30220 net.cpp:454] stage2/block0/conv_reduce/nl <- stage2/block0/conv_reduce
I1223 21:22:23.153615 30220 net.cpp:397] stage2/block0/conv_reduce/nl -> stage2/block0/conv_reduce (in-place)
I1223 21:22:23.154408 30220 net.cpp:150] Setting up stage2/block0/conv_reduce/nl
I1223 21:22:23.154422 30220 net.cpp:157] Top shape: 256 128 8 8 (2097152)
I1223 21:22:23.154427 30220 net.cpp:165] Memory required for data: 1445995520
I1223 21:22:23.154430 30220 layer_factory.hpp:76] Creating layer stage2/block0/conv_reduce/BN
I1223 21:22:23.154440 30220 net.cpp:106] Creating Layer stage2/block0/conv_reduce/BN
I1223 21:22:23.154445 30220 net.cpp:454] stage2/block0/conv_reduce/BN <- stage2/block0/conv_reduce
I1223 21:22:23.154465 30220 net.cpp:411] stage2/block0/conv_reduce/BN -> stage2/block0/conv_reduce/BN
I1223 21:22:23.154796 30220 net.cpp:150] Setting up stage2/block0/conv_reduce/BN
I1223 21:22:23.154805 30220 net.cpp:157] Top shape: 256 128 8 8 (2097152)
I1223 21:22:23.154808 30220 net.cpp:165] Memory required for data: 1454384128
I1223 21:22:23.154819 30220 layer_factory.hpp:76] Creating layer stage2/block0/conv
I1223 21:22:23.154829 30220 net.cpp:106] Creating Layer stage2/block0/conv
I1223 21:22:23.154834 30220 net.cpp:454] stage2/block0/conv <- stage2/block0/conv_reduce/BN
I1223 21:22:23.154841 30220 net.cpp:411] stage2/block0/conv -> stage2/block0/conv
I1223 21:22:23.163321 30220 cudnn_conv_layer.cpp:194] Reallocating workspace storage: 7704
I1223 21:22:23.163367 30220 net.cpp:150] Setting up stage2/block0/conv
I1223 21:22:23.163378 30220 net.cpp:157] Top shape: 256 128 4 4 (524288)
I1223 21:22:23.163386 30220 net.cpp:165] Memory required for data: 1456481280
I1223 21:22:23.163395 30220 layer_factory.hpp:76] Creating layer stage2/block0/conv/nl
I1223 21:22:23.163404 30220 net.cpp:106] Creating Layer stage2/block0/conv/nl
I1223 21:22:23.163413 30220 net.cpp:454] stage2/block0/conv/nl <- stage2/block0/conv
I1223 21:22:23.163419 30220 net.cpp:397] stage2/block0/conv/nl -> stage2/block0/conv (in-place)
I1223 21:22:23.164193 30220 net.cpp:150] Setting up stage2/block0/conv/nl
I1223 21:22:23.164206 30220 net.cpp:157] Top shape: 256 128 4 4 (524288)
I1223 21:22:23.164209 30220 net.cpp:165] Memory required for data: 1458578432
I1223 21:22:23.164213 30220 layer_factory.hpp:76] Creating layer stage2/block0/conv/BN
I1223 21:22:23.164224 30220 net.cpp:106] Creating Layer stage2/block0/conv/BN
I1223 21:22:23.164228 30220 net.cpp:454] stage2/block0/conv/BN <- stage2/block0/conv
I1223 21:22:23.164235 30220 net.cpp:411] stage2/block0/conv/BN -> stage2/block0/conv/BN
I1223 21:22:23.164588 30220 net.cpp:150] Setting up stage2/block0/conv/BN
I1223 21:22:23.164598 30220 net.cpp:157] Top shape: 256 128 4 4 (524288)
I1223 21:22:23.164602 30220 net.cpp:165] Memory required for data: 1460675584
I1223 21:22:23.164613 30220 layer_factory.hpp:76] Creating layer stage2/block0/conv_restore
I1223 21:22:23.164623 30220 net.cpp:106] Creating Layer stage2/block0/conv_restore
I1223 21:22:23.164628 30220 net.cpp:454] stage2/block0/conv_restore <- stage2/block0/conv/BN
I1223 21:22:23.164634 30220 net.cpp:411] stage2/block0/conv_restore -> stage2/block0/conv_restore
I1223 21:22:23.169216 30220 cudnn_conv_layer.cpp:194] Reallocating workspace storage: 6672
I1223 21:22:23.169301 30220 net.cpp:150] Setting up stage2/block0/conv_restore
I1223 21:22:23.169329 30220 net.cpp:157] Top shape: 256 384 4 4 (1572864)
I1223 21:22:23.169349 30220 net.cpp:165] Memory required for data: 1466967040
I1223 21:22:23.169373 30220 layer_factory.hpp:76] Creating layer stage2/block0/shortcut
I1223 21:22:23.169400 30220 net.cpp:106] Creating Layer stage2/block0/shortcut
I1223 21:22:23.169417 30220 net.cpp:454] stage2/block0/shortcut <- stage1/block3/sum/BN_stage1/block3/sum/BN_0_split_1
I1223 21:22:23.169440 30220 net.cpp:411] stage2/block0/shortcut -> stage2/block0/shortcut
I1223 21:22:23.176015 30220 cudnn_conv_layer.cpp:194] Reallocating workspace storage: 6672
I1223 21:22:23.176070 30220 net.cpp:150] Setting up stage2/block0/shortcut
I1223 21:22:23.176086 30220 net.cpp:157] Top shape: 256 384 4 4 (1572864)
I1223 21:22:23.176091 30220 net.cpp:165] Memory required for data: 1473258496
I1223 21:22:23.176102 30220 layer_factory.hpp:76] Creating layer stage2/block0/sum
I1223 21:22:23.176115 30220 net.cpp:106] Creating Layer stage2/block0/sum
I1223 21:22:23.176123 30220 net.cpp:454] stage2/block0/sum <- stage2/block0/conv_restore
I1223 21:22:23.176131 30220 net.cpp:454] stage2/block0/sum <- stage2/block0/shortcut
I1223 21:22:23.176137 30220 net.cpp:411] stage2/block0/sum -> stage2/block0/sum
I1223 21:22:23.176180 30220 net.cpp:150] Setting up stage2/block0/sum
I1223 21:22:23.176189 30220 net.cpp:157] Top shape: 256 384 4 4 (1572864)
I1223 21:22:23.176192 30220 net.cpp:165] Memory required for data: 1479549952
I1223 21:22:23.176211 30220 layer_factory.hpp:76] Creating layer stage2/block0/sum/nl
I1223 21:22:23.176220 30220 net.cpp:106] Creating Layer stage2/block0/sum/nl
I1223 21:22:23.176225 30220 net.cpp:454] stage2/block0/sum/nl <- stage2/block0/sum
I1223 21:22:23.176231 30220 net.cpp:397] stage2/block0/sum/nl -> stage2/block0/sum (in-place)
I1223 21:22:23.177214 30220 net.cpp:150] Setting up stage2/block0/sum/nl
I1223 21:22:23.177227 30220 net.cpp:157] Top shape: 256 384 4 4 (1572864)
I1223 21:22:23.177232 30220 net.cpp:165] Memory required for data: 1485841408
I1223 21:22:23.177237 30220 layer_factory.hpp:76] Creating layer stage2/block0/sum/BN
I1223 21:22:23.177245 30220 net.cpp:106] Creating Layer stage2/block0/sum/BN
I1223 21:22:23.177250 30220 net.cpp:454] stage2/block0/sum/BN <- stage2/block0/sum
I1223 21:22:23.177258 30220 net.cpp:411] stage2/block0/sum/BN -> stage2/block0/sum/BN
I1223 21:22:23.177606 30220 net.cpp:150] Setting up stage2/block0/sum/BN
I1223 21:22:23.177615 30220 net.cpp:157] Top shape: 256 384 4 4 (1572864)
I1223 21:22:23.177618 30220 net.cpp:165] Memory required for data: 1492132864
I1223 21:22:23.177628 30220 layer_factory.hpp:76] Creating layer stage2/block0/sum/BN_stage2/block0/sum/BN_0_split
I1223 21:22:23.177637 30220 net.cpp:106] Creating Layer stage2/block0/sum/BN_stage2/block0/sum/BN_0_split
I1223 21:22:23.177642 30220 net.cpp:454] stage2/block0/sum/BN_stage2/block0/sum/BN_0_split <- stage2/block0/sum/BN
I1223 21:22:23.177647 30220 net.cpp:411] stage2/block0/sum/BN_stage2/block0/sum/BN_0_split -> stage2/block0/sum/BN_stage2/block0/sum/BN_0_split_0
I1223 21:22:23.177654 30220 net.cpp:411] stage2/block0/sum/BN_stage2/block0/sum/BN_0_split -> stage2/block0/sum/BN_stage2/block0/sum/BN_0_split_1
I1223 21:22:23.177705 30220 net.cpp:150] Setting up stage2/block0/sum/BN_stage2/block0/sum/BN_0_split
I1223 21:22:23.177712 30220 net.cpp:157] Top shape: 256 384 4 4 (1572864)
I1223 21:22:23.177717 30220 net.cpp:157] Top shape: 256 384 4 4 (1572864)
I1223 21:22:23.177721 30220 net.cpp:165] Memory required for data: 1504715776
I1223 21:22:23.177724 30220 layer_factory.hpp:76] Creating layer stage2/block1/conv_reduce
I1223 21:22:23.177734 30220 net.cpp:106] Creating Layer stage2/block1/conv_reduce
I1223 21:22:23.177738 30220 net.cpp:454] stage2/block1/conv_reduce <- stage2/block0/sum/BN_stage2/block0/sum/BN_0_split_0
I1223 21:22:23.177744 30220 net.cpp:411] stage2/block1/conv_reduce -> stage2/block1/conv_reduce
I1223 21:22:23.182281 30220 cudnn_conv_layer.cpp:194] Reallocating workspace storage: 6672
I1223 21:22:23.182322 30220 net.cpp:150] Setting up stage2/block1/conv_reduce
I1223 21:22:23.182330 30220 net.cpp:157] Top shape: 256 128 4 4 (524288)
I1223 21:22:23.182334 30220 net.cpp:165] Memory required for data: 1506812928
I1223 21:22:23.182356 30220 layer_factory.hpp:76] Creating layer stage2/block1/conv_reduce/nl
I1223 21:22:23.182365 30220 net.cpp:106] Creating Layer stage2/block1/conv_reduce/nl
I1223 21:22:23.182369 30220 net.cpp:454] stage2/block1/conv_reduce/nl <- stage2/block1/conv_reduce
I1223 21:22:23.182375 30220 net.cpp:397] stage2/block1/conv_reduce/nl -> stage2/block1/conv_reduce (in-place)
I1223 21:22:23.183200 30220 net.cpp:150] Setting up stage2/block1/conv_reduce/nl
I1223 21:22:23.183214 30220 net.cpp:157] Top shape: 256 128 4 4 (524288)
I1223 21:22:23.183218 30220 net.cpp:165] Memory required for data: 1508910080
I1223 21:22:23.183223 30220 layer_factory.hpp:76] Creating layer stage2/block1/conv_reduce/BN
I1223 21:22:23.183233 30220 net.cpp:106] Creating Layer stage2/block1/conv_reduce/BN
I1223 21:22:23.183238 30220 net.cpp:454] stage2/block1/conv_reduce/BN <- stage2/block1/conv_reduce
I1223 21:22:23.183243 30220 net.cpp:411] stage2/block1/conv_reduce/BN -> stage2/block1/conv_reduce/BN
I1223 21:22:23.183589 30220 net.cpp:150] Setting up stage2/block1/conv_reduce/BN
I1223 21:22:23.183598 30220 net.cpp:157] Top shape: 256 128 4 4 (524288)
I1223 21:22:23.183603 30220 net.cpp:165] Memory required for data: 1511007232
I1223 21:22:23.183611 30220 layer_factory.hpp:76] Creating layer stage2/block1/conv
I1223 21:22:23.183634 30220 net.cpp:106] Creating Layer stage2/block1/conv
I1223 21:22:23.183640 30220 net.cpp:454] stage2/block1/conv <- stage2/block1/conv_reduce/BN
I1223 21:22:23.183647 30220 net.cpp:411] stage2/block1/conv -> stage2/block1/conv
I1223 21:22:23.192107 30220 cudnn_conv_layer.cpp:194] Reallocating workspace storage: 7248
I1223 21:22:23.192211 30220 net.cpp:150] Setting up stage2/block1/conv
I1223 21:22:23.192226 30220 net.cpp:157] Top shape: 256 128 4 4 (524288)
I1223 21:22:23.192230 30220 net.cpp:165] Memory required for data: 1513104384
I1223 21:22:23.192268 30220 layer_factory.hpp:76] Creating layer stage2/block1/conv/nl
I1223 21:22:23.192282 30220 net.cpp:106] Creating Layer stage2/block1/conv/nl
I1223 21:22:23.192311 30220 net.cpp:454] stage2/block1/conv/nl <- stage2/block1/conv
I1223 21:22:23.192320 30220 net.cpp:397] stage2/block1/conv/nl -> stage2/block1/conv (in-place)
I1223 21:22:23.192960 30220 net.cpp:150] Setting up stage2/block1/conv/nl
I1223 21:22:23.192971 30220 net.cpp:157] Top shape: 256 128 4 4 (524288)
I1223 21:22:23.192975 30220 net.cpp:165] Memory required for data: 1515201536
I1223 21:22:23.192980 30220 layer_factory.hpp:76] Creating layer stage2/block1/conv/BN
I1223 21:22:23.193017 30220 net.cpp:106] Creating Layer stage2/block1/conv/BN
I1223 21:22:23.193023 30220 net.cpp:454] stage2/block1/conv/BN <- stage2/block1/conv
I1223 21:22:23.193032 30220 net.cpp:411] stage2/block1/conv/BN -> stage2/block1/conv/BN
I1223 21:22:23.193385 30220 net.cpp:150] Setting up stage2/block1/conv/BN
I1223 21:22:23.193395 30220 net.cpp:157] Top shape: 256 128 4 4 (524288)
I1223 21:22:23.193399 30220 net.cpp:165] Memory required for data: 1517298688
I1223 21:22:23.193433 30220 layer_factory.hpp:76] Creating layer stage2/block1/conv_restore
I1223 21:22:23.193464 30220 net.cpp:106] Creating Layer stage2/block1/conv_restore
I1223 21:22:23.193472 30220 net.cpp:454] stage2/block1/conv_restore <- stage2/block1/conv/BN
I1223 21:22:23.193500 30220 net.cpp:411] stage2/block1/conv_restore -> stage2/block1/conv_restore
I1223 21:22:23.197365 30220 cudnn_conv_layer.cpp:194] Reallocating workspace storage: 6672
I1223 21:22:23.197441 30220 net.cpp:150] Setting up stage2/block1/conv_restore
I1223 21:22:23.197453 30220 net.cpp:157] Top shape: 256 384 4 4 (1572864)
I1223 21:22:23.197456 30220 net.cpp:165] Memory required for data: 1523590144
I1223 21:22:23.197487 30220 layer_factory.hpp:76] Creating layer stage2/block1/sum
I1223 21:22:23.197500 30220 net.cpp:106] Creating Layer stage2/block1/sum
I1223 21:22:23.197525 30220 net.cpp:454] stage2/block1/sum <- stage2/block1/conv_restore
I1223 21:22:23.197535 30220 net.cpp:454] stage2/block1/sum <- stage2/block0/sum/BN_stage2/block0/sum/BN_0_split_1
I1223 21:22:23.197541 30220 net.cpp:411] stage2/block1/sum -> stage2/block1/sum
I1223 21:22:23.197623 30220 net.cpp:150] Setting up stage2/block1/sum
I1223 21:22:23.197633 30220 net.cpp:157] Top shape: 256 384 4 4 (1572864)
I1223 21:22:23.197636 30220 net.cpp:165] Memory required for data: 1529881600
I1223 21:22:23.197640 30220 layer_factory.hpp:76] Creating layer stage2/block1/sum/nl
I1223 21:22:23.197671 30220 net.cpp:106] Creating Layer stage2/block1/sum/nl
I1223 21:22:23.197695 30220 net.cpp:454] stage2/block1/sum/nl <- stage2/block1/sum
I1223 21:22:23.197720 30220 net.cpp:397] stage2/block1/sum/nl -> stage2/block1/sum (in-place)
I1223 21:22:23.198460 30220 net.cpp:150] Setting up stage2/block1/sum/nl
I1223 21:22:23.198521 30220 net.cpp:157] Top shape: 256 384 4 4 (1572864)
I1223 21:22:23.198559 30220 net.cpp:165] Memory required for data: 1536173056
I1223 21:22:23.198596 30220 layer_factory.hpp:76] Creating layer stage2/block1/sum/BN
I1223 21:22:23.198637 30220 net.cpp:106] Creating Layer stage2/block1/sum/BN
I1223 21:22:23.198678 30220 net.cpp:454] stage2/block1/sum/BN <- stage2/block1/sum
I1223 21:22:23.198721 30220 net.cpp:411] stage2/block1/sum/BN -> stage2/block1/sum/BN
I1223 21:22:23.199131 30220 net.cpp:150] Setting up stage2/block1/sum/BN
I1223 21:22:23.199180 30220 net.cpp:157] Top shape: 256 384 4 4 (1572864)
I1223 21:22:23.199229 30220 net.cpp:165] Memory required for data: 1542464512
I1223 21:22:23.199270 30220 layer_factory.hpp:76] Creating layer stage2/block1/sum/BN_stage2/block1/sum/BN_0_split
I1223 21:22:23.199309 30220 net.cpp:106] Creating Layer stage2/block1/sum/BN_stage2/block1/sum/BN_0_split
I1223 21:22:23.199345 30220 net.cpp:454] stage2/block1/sum/BN_stage2/block1/sum/BN_0_split <- stage2/block1/sum/BN
I1223 21:22:23.199385 30220 net.cpp:411] stage2/block1/sum/BN_stage2/block1/sum/BN_0_split -> stage2/block1/sum/BN_stage2/block1/sum/BN_0_split_0
I1223 21:22:23.199426 30220 net.cpp:411] stage2/block1/sum/BN_stage2/block1/sum/BN_0_split -> stage2/block1/sum/BN_stage2/block1/sum/BN_0_split_1
I1223 21:22:23.199523 30220 net.cpp:150] Setting up stage2/block1/sum/BN_stage2/block1/sum/BN_0_split
I1223 21:22:23.199568 30220 net.cpp:157] Top shape: 256 384 4 4 (1572864)
I1223 21:22:23.199606 30220 net.cpp:157] Top shape: 256 384 4 4 (1572864)
I1223 21:22:23.199641 30220 net.cpp:165] Memory required for data: 1555047424
I1223 21:22:23.199678 30220 layer_factory.hpp:76] Creating layer stage2/block2/conv_reduce
I1223 21:22:23.199723 30220 net.cpp:106] Creating Layer stage2/block2/conv_reduce
I1223 21:22:23.199762 30220 net.cpp:454] stage2/block2/conv_reduce <- stage2/block1/sum/BN_stage2/block1/sum/BN_0_split_0
I1223 21:22:23.199807 30220 net.cpp:411] stage2/block2/conv_reduce -> stage2/block2/conv_reduce
I1223 21:22:23.204713 30220 cudnn_conv_layer.cpp:194] Reallocating workspace storage: 6672
I1223 21:22:23.204812 30220 net.cpp:150] Setting up stage2/block2/conv_reduce
I1223 21:22:23.204824 30220 net.cpp:157] Top shape: 256 128 4 4 (524288)
I1223 21:22:23.204829 30220 net.cpp:165] Memory required for data: 1557144576
I1223 21:22:23.204864 30220 layer_factory.hpp:76] Creating layer stage2/block2/conv_reduce/nl
I1223 21:22:23.204876 30220 net.cpp:106] Creating Layer stage2/block2/conv_reduce/nl
I1223 21:22:23.204902 30220 net.cpp:454] stage2/block2/conv_reduce/nl <- stage2/block2/conv_reduce
I1223 21:22:23.204912 30220 net.cpp:397] stage2/block2/conv_reduce/nl -> stage2/block2/conv_reduce (in-place)
I1223 21:22:23.205654 30220 net.cpp:150] Setting up stage2/block2/conv_reduce/nl
I1223 21:22:23.205665 30220 net.cpp:157] Top shape: 256 128 4 4 (524288)
I1223 21:22:23.205670 30220 net.cpp:165] Memory required for data: 1559241728
I1223 21:22:23.205674 30220 layer_factory.hpp:76] Creating layer stage2/block2/conv_reduce/BN
I1223 21:22:23.205711 30220 net.cpp:106] Creating Layer stage2/block2/conv_reduce/BN
I1223 21:22:23.205719 30220 net.cpp:454] stage2/block2/conv_reduce/BN <- stage2/block2/conv_reduce
I1223 21:22:23.205729 30220 net.cpp:411] stage2/block2/conv_reduce/BN -> stage2/block2/conv_reduce/BN
I1223 21:22:23.206051 30220 net.cpp:150] Setting up stage2/block2/conv_reduce/BN
I1223 21:22:23.206061 30220 net.cpp:157] Top shape: 256 128 4 4 (524288)
I1223 21:22:23.206065 30220 net.cpp:165] Memory required for data: 1561338880
I1223 21:22:23.206099 30220 layer_factory.hpp:76] Creating layer stage2/block2/conv
I1223 21:22:23.206113 30220 net.cpp:106] Creating Layer stage2/block2/conv
I1223 21:22:23.206138 30220 net.cpp:454] stage2/block2/conv <- stage2/block2/conv_reduce/BN
I1223 21:22:23.206164 30220 net.cpp:411] stage2/block2/conv -> stage2/block2/conv
I1223 21:22:23.213031 30220 cudnn_conv_layer.cpp:194] Reallocating workspace storage: 7248
I1223 21:22:23.213143 30220 net.cpp:150] Setting up stage2/block2/conv
I1223 21:22:23.213156 30220 net.cpp:157] Top shape: 256 128 4 4 (524288)
I1223 21:22:23.213160 30220 net.cpp:165] Memory required for data: 1563436032
I1223 21:22:23.213198 30220 layer_factory.hpp:76] Creating layer stage2/block2/conv/nl
I1223 21:22:23.213210 30220 net.cpp:106] Creating Layer stage2/block2/conv/nl
I1223 21:22:23.213238 30220 net.cpp:454] stage2/block2/conv/nl <- stage2/block2/conv
I1223 21:22:23.213250 30220 net.cpp:397] stage2/block2/conv/nl -> stage2/block2/conv (in-place)
I1223 21:22:23.213945 30220 net.cpp:150] Setting up stage2/block2/conv/nl
I1223 21:22:23.213968 30220 net.cpp:157] Top shape: 256 128 4 4 (524288)
I1223 21:22:23.213973 30220 net.cpp:165] Memory required for data: 1565533184
I1223 21:22:23.213976 30220 layer_factory.hpp:76] Creating layer stage2/block2/conv/BN
I1223 21:22:23.214017 30220 net.cpp:106] Creating Layer stage2/block2/conv/BN
I1223 21:22:23.214045 30220 net.cpp:454] stage2/block2/conv/BN <- stage2/block2/conv
I1223 21:22:23.214074 30220 net.cpp:411] stage2/block2/conv/BN -> stage2/block2/conv/BN
I1223 21:22:23.214372 30220 net.cpp:150] Setting up stage2/block2/conv/BN
I1223 21:22:23.214382 30220 net.cpp:157] Top shape: 256 128 4 4 (524288)
I1223 21:22:23.214385 30220 net.cpp:165] Memory required for data: 1567630336
I1223 21:22:23.214416 30220 layer_factory.hpp:76] Creating layer stage2/block2/conv_restore
I1223 21:22:23.214431 30220 net.cpp:106] Creating Layer stage2/block2/conv_restore
I1223 21:22:23.214454 30220 net.cpp:454] stage2/block2/conv_restore <- stage2/block2/conv/BN
I1223 21:22:23.214480 30220 net.cpp:411] stage2/block2/conv_restore -> stage2/block2/conv_restore
I1223 21:22:23.217991 30220 cudnn_conv_layer.cpp:194] Reallocating workspace storage: 6672
I1223 21:22:23.218065 30220 net.cpp:150] Setting up stage2/block2/conv_restore
I1223 21:22:23.218075 30220 net.cpp:157] Top shape: 256 384 4 4 (1572864)
I1223 21:22:23.218080 30220 net.cpp:165] Memory required for data: 1573921792
I1223 21:22:23.218108 30220 layer_factory.hpp:76] Creating layer stage2/block2/sum
I1223 21:22:23.218121 30220 net.cpp:106] Creating Layer stage2/block2/sum
I1223 21:22:23.218145 30220 net.cpp:454] stage2/block2/sum <- stage2/block2/conv_restore
I1223 21:22:23.218170 30220 net.cpp:454] stage2/block2/sum <- stage2/block1/sum/BN_stage2/block1/sum/BN_0_split_1
I1223 21:22:23.218180 30220 net.cpp:411] stage2/block2/sum -> stage2/block2/sum
I1223 21:22:23.218240 30220 net.cpp:150] Setting up stage2/block2/sum
I1223 21:22:23.218248 30220 net.cpp:157] Top shape: 256 384 4 4 (1572864)
I1223 21:22:23.218252 30220 net.cpp:165] Memory required for data: 1580213248
I1223 21:22:23.218256 30220 layer_factory.hpp:76] Creating layer stage2/block2/sum/nl
I1223 21:22:23.218286 30220 net.cpp:106] Creating Layer stage2/block2/sum/nl
I1223 21:22:23.218308 30220 net.cpp:454] stage2/block2/sum/nl <- stage2/block2/sum
I1223 21:22:23.218317 30220 net.cpp:397] stage2/block2/sum/nl -> stage2/block2/sum (in-place)
I1223 21:22:23.218958 30220 net.cpp:150] Setting up stage2/block2/sum/nl
I1223 21:22:23.218969 30220 net.cpp:157] Top shape: 256 384 4 4 (1572864)
I1223 21:22:23.218973 30220 net.cpp:165] Memory required for data: 1586504704
I1223 21:22:23.218977 30220 layer_factory.hpp:76] Creating layer stage2/block2/sum/BN
I1223 21:22:23.219022 30220 net.cpp:106] Creating Layer stage2/block2/sum/BN
I1223 21:22:23.219028 30220 net.cpp:454] stage2/block2/sum/BN <- stage2/block2/sum
I1223 21:22:23.219036 30220 net.cpp:411] stage2/block2/sum/BN -> stage2/block2/sum/BN
I1223 21:22:23.219348 30220 net.cpp:150] Setting up stage2/block2/sum/BN
I1223 21:22:23.219357 30220 net.cpp:157] Top shape: 256 384 4 4 (1572864)
I1223 21:22:23.219362 30220 net.cpp:165] Memory required for data: 1592796160
I1223 21:22:23.219390 30220 layer_factory.hpp:76] Creating layer stage2/block2/sum/BN_stage2/block2/sum/BN_0_split
I1223 21:22:23.219400 30220 net.cpp:106] Creating Layer stage2/block2/sum/BN_stage2/block2/sum/BN_0_split
I1223 21:22:23.219404 30220 net.cpp:454] stage2/block2/sum/BN_stage2/block2/sum/BN_0_split <- stage2/block2/sum/BN
I1223 21:22:23.219431 30220 net.cpp:411] stage2/block2/sum/BN_stage2/block2/sum/BN_0_split -> stage2/block2/sum/BN_stage2/block2/sum/BN_0_split_0
I1223 21:22:23.219457 30220 net.cpp:411] stage2/block2/sum/BN_stage2/block2/sum/BN_0_split -> stage2/block2/sum/BN_stage2/block2/sum/BN_0_split_1
I1223 21:22:23.219532 30220 net.cpp:150] Setting up stage2/block2/sum/BN_stage2/block2/sum/BN_0_split
I1223 21:22:23.219539 30220 net.cpp:157] Top shape: 256 384 4 4 (1572864)
I1223 21:22:23.219545 30220 net.cpp:157] Top shape: 256 384 4 4 (1572864)
I1223 21:22:23.219548 30220 net.cpp:165] Memory required for data: 1605379072
I1223 21:22:23.219586 30220 layer_factory.hpp:76] Creating layer stage2/block3/conv_reduce
I1223 21:22:23.219616 30220 net.cpp:106] Creating Layer stage2/block3/conv_reduce
I1223 21:22:23.219624 30220 net.cpp:454] stage2/block3/conv_reduce <- stage2/block2/sum/BN_stage2/block2/sum/BN_0_split_0
I1223 21:22:23.219630 30220 net.cpp:411] stage2/block3/conv_reduce -> stage2/block3/conv_reduce
I1223 21:22:23.223186 30220 cudnn_conv_layer.cpp:194] Reallocating workspace storage: 6672
I1223 21:22:23.223268 30220 net.cpp:150] Setting up stage2/block3/conv_reduce
I1223 21:22:23.223278 30220 net.cpp:157] Top shape: 256 128 4 4 (524288)
I1223 21:22:23.223283 30220 net.cpp:165] Memory required for data: 1607476224
I1223 21:22:23.223311 30220 layer_factory.hpp:76] Creating layer stage2/block3/conv_reduce/nl
I1223 21:22:23.223325 30220 net.cpp:106] Creating Layer stage2/block3/conv_reduce/nl
I1223 21:22:23.223350 30220 net.cpp:454] stage2/block3/conv_reduce/nl <- stage2/block3/conv_reduce
I1223 21:22:23.223374 30220 net.cpp:397] stage2/block3/conv_reduce/nl -> stage2/block3/conv_reduce (in-place)
I1223 21:22:23.224023 30220 net.cpp:150] Setting up stage2/block3/conv_reduce/nl
I1223 21:22:23.224035 30220 net.cpp:157] Top shape: 256 128 4 4 (524288)
I1223 21:22:23.224038 30220 net.cpp:165] Memory required for data: 1609573376
I1223 21:22:23.224042 30220 layer_factory.hpp:76] Creating layer stage2/block3/conv_reduce/BN
I1223 21:22:23.224095 30220 net.cpp:106] Creating Layer stage2/block3/conv_reduce/BN
I1223 21:22:23.224102 30220 net.cpp:454] stage2/block3/conv_reduce/BN <- stage2/block3/conv_reduce
I1223 21:22:23.224128 30220 net.cpp:411] stage2/block3/conv_reduce/BN -> stage2/block3/conv_reduce/BN
I1223 21:22:23.224428 30220 net.cpp:150] Setting up stage2/block3/conv_reduce/BN
I1223 21:22:23.224437 30220 net.cpp:157] Top shape: 256 128 4 4 (524288)
I1223 21:22:23.224442 30220 net.cpp:165] Memory required for data: 1611670528
I1223 21:22:23.224472 30220 layer_factory.hpp:76] Creating layer stage2/block3/conv
I1223 21:22:23.224484 30220 net.cpp:106] Creating Layer stage2/block3/conv
I1223 21:22:23.224506 30220 net.cpp:454] stage2/block3/conv <- stage2/block3/conv_reduce/BN
I1223 21:22:23.224534 30220 net.cpp:411] stage2/block3/conv -> stage2/block3/conv
I1223 21:22:23.231560 30220 cudnn_conv_layer.cpp:194] Reallocating workspace storage: 7248
I1223 21:22:23.231735 30220 net.cpp:150] Setting up stage2/block3/conv
I1223 21:22:23.231806 30220 net.cpp:157] Top shape: 256 128 4 4 (524288)
I1223 21:22:23.231849 30220 net.cpp:165] Memory required for data: 1613767680
I1223 21:22:23.231897 30220 layer_factory.hpp:76] Creating layer stage2/block3/conv/nl
I1223 21:22:23.231945 30220 net.cpp:106] Creating Layer stage2/block3/conv/nl
I1223 21:22:23.231988 30220 net.cpp:454] stage2/block3/conv/nl <- stage2/block3/conv
I1223 21:22:23.232039 30220 net.cpp:397] stage2/block3/conv/nl -> stage2/block3/conv (in-place)
I1223 21:22:23.232817 30220 net.cpp:150] Setting up stage2/block3/conv/nl
I1223 21:22:23.232830 30220 net.cpp:157] Top shape: 256 128 4 4 (524288)
I1223 21:22:23.232834 30220 net.cpp:165] Memory required for data: 1615864832
I1223 21:22:23.232839 30220 layer_factory.hpp:76] Creating layer stage2/block3/conv/BN
I1223 21:22:23.232877 30220 net.cpp:106] Creating Layer stage2/block3/conv/BN
I1223 21:22:23.232884 30220 net.cpp:454] stage2/block3/conv/BN <- stage2/block3/conv
I1223 21:22:23.232913 30220 net.cpp:411] stage2/block3/conv/BN -> stage2/block3/conv/BN
I1223 21:22:23.233233 30220 net.cpp:150] Setting up stage2/block3/conv/BN
I1223 21:22:23.233242 30220 net.cpp:157] Top shape: 256 128 4 4 (524288)
I1223 21:22:23.233247 30220 net.cpp:165] Memory required for data: 1617961984
I1223 21:22:23.233283 30220 layer_factory.hpp:76] Creating layer stage2/block3/conv_restore
I1223 21:22:23.233294 30220 net.cpp:106] Creating Layer stage2/block3/conv_restore
I1223 21:22:23.233299 30220 net.cpp:454] stage2/block3/conv_restore <- stage2/block3/conv/BN
I1223 21:22:23.233307 30220 net.cpp:411] stage2/block3/conv_restore -> stage2/block3/conv_restore
I1223 21:22:23.237321 30220 cudnn_conv_layer.cpp:194] Reallocating workspace storage: 6672
I1223 21:22:23.237444 30220 net.cpp:150] Setting up stage2/block3/conv_restore
I1223 21:22:23.237510 30220 net.cpp:157] Top shape: 256 384 4 4 (1572864)
I1223 21:22:23.237556 30220 net.cpp:165] Memory required for data: 1624253440
I1223 21:22:23.237606 30220 layer_factory.hpp:76] Creating layer stage2/block3/sum
I1223 21:22:23.237661 30220 net.cpp:106] Creating Layer stage2/block3/sum
I1223 21:22:23.237706 30220 net.cpp:454] stage2/block3/sum <- stage2/block3/conv_restore
I1223 21:22:23.237752 30220 net.cpp:454] stage2/block3/sum <- stage2/block2/sum/BN_stage2/block2/sum/BN_0_split_1
I1223 21:22:23.237797 30220 net.cpp:411] stage2/block3/sum -> stage2/block3/sum
I1223 21:22:23.237903 30220 net.cpp:150] Setting up stage2/block3/sum
I1223 21:22:23.237954 30220 net.cpp:157] Top shape: 256 384 4 4 (1572864)
I1223 21:22:23.237995 30220 net.cpp:165] Memory required for data: 1630544896
I1223 21:22:23.238039 30220 layer_factory.hpp:76] Creating layer stage2/block3/sum/nl
I1223 21:22:23.238085 30220 net.cpp:106] Creating Layer stage2/block3/sum/nl
I1223 21:22:23.238132 30220 net.cpp:454] stage2/block3/sum/nl <- stage2/block3/sum
I1223 21:22:23.238179 30220 net.cpp:397] stage2/block3/sum/nl -> stage2/block3/sum (in-place)
I1223 21:22:23.239240 30220 net.cpp:150] Setting up stage2/block3/sum/nl
I1223 21:22:23.239259 30220 net.cpp:157] Top shape: 256 384 4 4 (1572864)
I1223 21:22:23.239266 30220 net.cpp:165] Memory required for data: 1636836352
I1223 21:22:23.239271 30220 layer_factory.hpp:76] Creating layer stage2/block3/sum/BN
I1223 21:22:23.239325 30220 net.cpp:106] Creating Layer stage2/block3/sum/BN
I1223 21:22:23.239333 30220 net.cpp:454] stage2/block3/sum/BN <- stage2/block3/sum
I1223 21:22:23.239369 30220 net.cpp:411] stage2/block3/sum/BN -> stage2/block3/sum/BN
I1223 21:22:23.239784 30220 net.cpp:150] Setting up stage2/block3/sum/BN
I1223 21:22:23.239796 30220 net.cpp:157] Top shape: 256 384 4 4 (1572864)
I1223 21:22:23.239801 30220 net.cpp:165] Memory required for data: 1643127808
I1223 21:22:23.239836 30220 layer_factory.hpp:76] Creating layer stage2/block3/sum/BN_stage2/block3/sum/BN_0_split
I1223 21:22:23.239850 30220 net.cpp:106] Creating Layer stage2/block3/sum/BN_stage2/block3/sum/BN_0_split
I1223 21:22:23.239877 30220 net.cpp:454] stage2/block3/sum/BN_stage2/block3/sum/BN_0_split <- stage2/block3/sum/BN
I1223 21:22:23.239903 30220 net.cpp:411] stage2/block3/sum/BN_stage2/block3/sum/BN_0_split -> stage2/block3/sum/BN_stage2/block3/sum/BN_0_split_0
I1223 21:22:23.239915 30220 net.cpp:411] stage2/block3/sum/BN_stage2/block3/sum/BN_0_split -> stage2/block3/sum/BN_stage2/block3/sum/BN_0_split_1
I1223 21:22:23.240012 30220 net.cpp:150] Setting up stage2/block3/sum/BN_stage2/block3/sum/BN_0_split
I1223 21:22:23.240021 30220 net.cpp:157] Top shape: 256 384 4 4 (1572864)
I1223 21:22:23.240027 30220 net.cpp:157] Top shape: 256 384 4 4 (1572864)
I1223 21:22:23.240051 30220 net.cpp:165] Memory required for data: 1655710720
I1223 21:22:23.240058 30220 layer_factory.hpp:76] Creating layer stage2/block4/conv_reduce
I1223 21:22:23.240088 30220 net.cpp:106] Creating Layer stage2/block4/conv_reduce
I1223 21:22:23.240094 30220 net.cpp:454] stage2/block4/conv_reduce <- stage2/block3/sum/BN_stage2/block3/sum/BN_0_split_0
I1223 21:22:23.240123 30220 net.cpp:411] stage2/block4/conv_reduce -> stage2/block4/conv_reduce
I1223 21:22:23.244554 30220 cudnn_conv_layer.cpp:194] Reallocating workspace storage: 6672
I1223 21:22:23.244654 30220 net.cpp:150] Setting up stage2/block4/conv_reduce
I1223 21:22:23.244665 30220 net.cpp:157] Top shape: 256 128 4 4 (524288)
I1223 21:22:23.244670 30220 net.cpp:165] Memory required for data: 1657807872
I1223 21:22:23.244704 30220 layer_factory.hpp:76] Creating layer stage2/block4/conv_reduce/nl
I1223 21:22:23.244717 30220 net.cpp:106] Creating Layer stage2/block4/conv_reduce/nl
I1223 21:22:23.244724 30220 net.cpp:454] stage2/block4/conv_reduce/nl <- stage2/block4/conv_reduce
I1223 21:22:23.244731 30220 net.cpp:397] stage2/block4/conv_reduce/nl -> stage2/block4/conv_reduce (in-place)
I1223 21:22:23.245463 30220 net.cpp:150] Setting up stage2/block4/conv_reduce/nl
I1223 21:22:23.245476 30220 net.cpp:157] Top shape: 256 128 4 4 (524288)
I1223 21:22:23.245481 30220 net.cpp:165] Memory required for data: 1659905024
I1223 21:22:23.245484 30220 layer_factory.hpp:76] Creating layer stage2/block4/conv_reduce/BN
I1223 21:22:23.245519 30220 net.cpp:106] Creating Layer stage2/block4/conv_reduce/BN
I1223 21:22:23.245525 30220 net.cpp:454] stage2/block4/conv_reduce/BN <- stage2/block4/conv_reduce
I1223 21:22:23.245556 30220 net.cpp:411] stage2/block4/conv_reduce/BN -> stage2/block4/conv_reduce/BN
I1223 21:22:23.245967 30220 net.cpp:150] Setting up stage2/block4/conv_reduce/BN
I1223 21:22:23.245977 30220 net.cpp:157] Top shape: 256 128 4 4 (524288)
I1223 21:22:23.245982 30220 net.cpp:165] Memory required for data: 1662002176
I1223 21:22:23.246016 30220 layer_factory.hpp:76] Creating layer stage2/block4/conv
I1223 21:22:23.246031 30220 net.cpp:106] Creating Layer stage2/block4/conv
I1223 21:22:23.246057 30220 net.cpp:454] stage2/block4/conv <- stage2/block4/conv_reduce/BN
I1223 21:22:23.246083 30220 net.cpp:411] stage2/block4/conv -> stage2/block4/conv
I1223 21:22:23.253531 30220 cudnn_conv_layer.cpp:194] Reallocating workspace storage: 7248
I1223 21:22:23.253649 30220 net.cpp:150] Setting up stage2/block4/conv
I1223 21:22:23.253664 30220 net.cpp:157] Top shape: 256 128 4 4 (524288)
I1223 21:22:23.253669 30220 net.cpp:165] Memory required for data: 1664099328
I1223 21:22:23.253706 30220 layer_factory.hpp:76] Creating layer stage2/block4/conv/nl
I1223 21:22:23.253720 30220 net.cpp:106] Creating Layer stage2/block4/conv/nl
I1223 21:22:23.253749 30220 net.cpp:454] stage2/block4/conv/nl <- stage2/block4/conv
I1223 21:22:23.253779 30220 net.cpp:397] stage2/block4/conv/nl -> stage2/block4/conv (in-place)
I1223 21:22:23.254678 30220 net.cpp:150] Setting up stage2/block4/conv/nl
I1223 21:22:23.254690 30220 net.cpp:157] Top shape: 256 128 4 4 (524288)
I1223 21:22:23.254694 30220 net.cpp:165] Memory required for data: 1666196480
I1223 21:22:23.254699 30220 layer_factory.hpp:76] Creating layer stage2/block4/conv/BN
I1223 21:22:23.254736 30220 net.cpp:106] Creating Layer stage2/block4/conv/BN
I1223 21:22:23.254744 30220 net.cpp:454] stage2/block4/conv/BN <- stage2/block4/conv
I1223 21:22:23.254753 30220 net.cpp:411] stage2/block4/conv/BN -> stage2/block4/conv/BN
I1223 21:22:23.255113 30220 net.cpp:150] Setting up stage2/block4/conv/BN
I1223 21:22:23.255123 30220 net.cpp:157] Top shape: 256 128 4 4 (524288)
I1223 21:22:23.255127 30220 net.cpp:165] Memory required for data: 1668293632
I1223 21:22:23.255157 30220 layer_factory.hpp:76] Creating layer stage2/block4/conv_restore
I1223 21:22:23.255170 30220 net.cpp:106] Creating Layer stage2/block4/conv_restore
I1223 21:22:23.255193 30220 net.cpp:454] stage2/block4/conv_restore <- stage2/block4/conv/BN
I1223 21:22:23.255221 30220 net.cpp:411] stage2/block4/conv_restore -> stage2/block4/conv_restore
I1223 21:22:23.259251 30220 cudnn_conv_layer.cpp:194] Reallocating workspace storage: 6672
I1223 21:22:23.259385 30220 net.cpp:150] Setting up stage2/block4/conv_restore
I1223 21:22:23.259438 30220 net.cpp:157] Top shape: 256 384 4 4 (1572864)
I1223 21:22:23.259443 30220 net.cpp:165] Memory required for data: 1674585088
I1223 21:22:23.259472 30220 layer_factory.hpp:76] Creating layer stage2/block4/sum
I1223 21:22:23.259503 30220 net.cpp:106] Creating Layer stage2/block4/sum
I1223 21:22:23.259546 30220 net.cpp:454] stage2/block4/sum <- stage2/block4/conv_restore
I1223 21:22:23.259557 30220 net.cpp:454] stage2/block4/sum <- stage2/block3/sum/BN_stage2/block3/sum/BN_0_split_1
I1223 21:22:23.259584 30220 net.cpp:411] stage2/block4/sum -> stage2/block4/sum
I1223 21:22:23.259649 30220 net.cpp:150] Setting up stage2/block4/sum
I1223 21:22:23.259659 30220 net.cpp:157] Top shape: 256 384 4 4 (1572864)
I1223 21:22:23.259662 30220 net.cpp:165] Memory required for data: 1680876544
I1223 21:22:23.259666 30220 layer_factory.hpp:76] Creating layer stage2/block4/sum/nl
I1223 21:22:23.259721 30220 net.cpp:106] Creating Layer stage2/block4/sum/nl
I1223 21:22:23.259728 30220 net.cpp:454] stage2/block4/sum/nl <- stage2/block4/sum
I1223 21:22:23.259752 30220 net.cpp:397] stage2/block4/sum/nl -> stage2/block4/sum (in-place)
I1223 21:22:23.260553 30220 net.cpp:150] Setting up stage2/block4/sum/nl
I1223 21:22:23.260565 30220 net.cpp:157] Top shape: 256 384 4 4 (1572864)
I1223 21:22:23.260568 30220 net.cpp:165] Memory required for data: 1687168000
I1223 21:22:23.260596 30220 layer_factory.hpp:76] Creating layer stage2/block4/sum/BN
I1223 21:22:23.260627 30220 net.cpp:106] Creating Layer stage2/block4/sum/BN
I1223 21:22:23.260632 30220 net.cpp:454] stage2/block4/sum/BN <- stage2/block4/sum
I1223 21:22:23.260660 30220 net.cpp:411] stage2/block4/sum/BN -> stage2/block4/sum/BN
I1223 21:22:23.261018 30220 net.cpp:150] Setting up stage2/block4/sum/BN
I1223 21:22:23.261029 30220 net.cpp:157] Top shape: 256 384 4 4 (1572864)
I1223 21:22:23.261032 30220 net.cpp:165] Memory required for data: 1693459456
I1223 21:22:23.261080 30220 layer_factory.hpp:76] Creating layer stage2/block4/sum/BN_stage2/block4/sum/BN_0_split
I1223 21:22:23.261090 30220 net.cpp:106] Creating Layer stage2/block4/sum/BN_stage2/block4/sum/BN_0_split
I1223 21:22:23.261111 30220 net.cpp:454] stage2/block4/sum/BN_stage2/block4/sum/BN_0_split <- stage2/block4/sum/BN
I1223 21:22:23.261152 30220 net.cpp:411] stage2/block4/sum/BN_stage2/block4/sum/BN_0_split -> stage2/block4/sum/BN_stage2/block4/sum/BN_0_split_0
I1223 21:22:23.261178 30220 net.cpp:411] stage2/block4/sum/BN_stage2/block4/sum/BN_0_split -> stage2/block4/sum/BN_stage2/block4/sum/BN_0_split_1
I1223 21:22:23.261250 30220 net.cpp:150] Setting up stage2/block4/sum/BN_stage2/block4/sum/BN_0_split
I1223 21:22:23.261258 30220 net.cpp:157] Top shape: 256 384 4 4 (1572864)
I1223 21:22:23.261281 30220 net.cpp:157] Top shape: 256 384 4 4 (1572864)
I1223 21:22:23.261287 30220 net.cpp:165] Memory required for data: 1706042368
I1223 21:22:23.261291 30220 layer_factory.hpp:76] Creating layer stage2/block5/conv_reduce
I1223 21:22:23.261327 30220 net.cpp:106] Creating Layer stage2/block5/conv_reduce
I1223 21:22:23.261333 30220 net.cpp:454] stage2/block5/conv_reduce <- stage2/block4/sum/BN_stage2/block4/sum/BN_0_split_0
…
I1223 21:22:24.858328 30220 net.cpp:150] Setting up stage2/block19/conv
I1223 21:22:24.858340 30220 net.cpp:157] Top shape: 250 128 4 4 (512000)
I1223 21:22:24.858345 30220 net.cpp:165] Memory required for data: 2362380000
I1223 21:22:24.858355 30220 layer_factory.hpp:76] Creating layer stage2/block19/conv/nl
I1223 21:22:24.858392 30220 net.cpp:106] Creating Layer stage2/block19/conv/nl
I1223 21:22:24.858399 30220 net.cpp:454] stage2/block19/conv/nl <- stage2/block19/conv
I1223 21:22:24.858407 30220 net.cpp:397] stage2/block19/conv/nl -> stage2/block19/conv (in-place)
I1223 21:22:24.859495 30220 net.cpp:150] Setting up stage2/block19/conv/nl
I1223 21:22:24.859508 30220 net.cpp:157] Top shape: 250 128 4 4 (512000)
I1223 21:22:24.859513 30220 net.cpp:165] Memory required for data: 2364428000
I1223 21:22:24.859518 30220 layer_factory.hpp:76] Creating layer stage2/block19/conv/BN
I1223 21:22:24.859529 30220 net.cpp:106] Creating Layer stage2/block19/conv/BN
I1223 21:22:24.859534 30220 net.cpp:454] stage2/block19/conv/BN <- stage2/block19/conv
I1223 21:22:24.859542 30220 net.cpp:411] stage2/block19/conv/BN -> stage2/block19/conv/BN
I1223 21:22:24.860121 30220 net.cpp:150] Setting up stage2/block19/conv/BN
I1223 21:22:24.860132 30220 net.cpp:157] Top shape: 250 128 4 4 (512000)
I1223 21:22:24.860136 30220 net.cpp:165] Memory required for data: 2366476000
I1223 21:22:24.860147 30220 layer_factory.hpp:76] Creating layer stage2/block19/conv_restore
I1223 21:22:24.860159 30220 net.cpp:106] Creating Layer stage2/block19/conv_restore
I1223 21:22:24.860165 30220 net.cpp:454] stage2/block19/conv_restore <- stage2/block19/conv/BN
I1223 21:22:24.860172 30220 net.cpp:411] stage2/block19/conv_restore -> stage2/block19/conv_restore
I1223 21:22:24.865545 30220 cudnn_conv_layer.cpp:194] Reallocating workspace storage: 6672
I1223 21:22:24.865617 30220 net.cpp:150] Setting up stage2/block19/conv_restore
I1223 21:22:24.865628 30220 net.cpp:157] Top shape: 250 384 4 4 (1536000)
I1223 21:22:24.865631 30220 net.cpp:165] Memory required for data: 2372620000
I1223 21:22:24.865643 30220 layer_factory.hpp:76] Creating layer stage2/block19/sum
I1223 21:22:24.865654 30220 net.cpp:106] Creating Layer stage2/block19/sum
I1223 21:22:24.865663 30220 net.cpp:454] stage2/block19/sum <- stage2/block19/conv_restore
I1223 21:22:24.865670 30220 net.cpp:454] stage2/block19/sum <- stage2/block18/sum/BN_stage2/block18/sum/BN_0_split_1
I1223 21:22:24.865677 30220 net.cpp:411] stage2/block19/sum -> stage2/block19/sum
I1223 21:22:24.865753 30220 net.cpp:150] Setting up stage2/block19/sum
I1223 21:22:24.865762 30220 net.cpp:157] Top shape: 250 384 4 4 (1536000)
I1223 21:22:24.865766 30220 net.cpp:165] Memory required for data: 2378764000
I1223 21:22:24.865770 30220 layer_factory.hpp:76] Creating layer stage2/block19/sum/nl
I1223 21:22:24.865777 30220 net.cpp:106] Creating Layer stage2/block19/sum/nl
I1223 21:22:24.865782 30220 net.cpp:454] stage2/block19/sum/nl <- stage2/block19/sum
I1223 21:22:24.865789 30220 net.cpp:397] stage2/block19/sum/nl -> stage2/block19/sum (in-place)
I1223 21:22:24.867516 30220 net.cpp:150] Setting up stage2/block19/sum/nl
I1223 21:22:24.867535 30220 net.cpp:157] Top shape: 250 384 4 4 (1536000)
I1223 21:22:24.867542 30220 net.cpp:165] Memory required for data: 2384908000
I1223 21:22:24.867547 30220 layer_factory.hpp:76] Creating layer stage2/block19/sum/BN
I1223 21:22:24.867560 30220 net.cpp:106] Creating Layer stage2/block19/sum/BN
I1223 21:22:24.867568 30220 net.cpp:454] stage2/block19/sum/BN <- stage2/block19/sum
I1223 21:22:24.867575 30220 net.cpp:411] stage2/block19/sum/BN -> stage2/block19/sum/BN
I1223 21:22:24.868402 30220 net.cpp:150] Setting up stage2/block19/sum/BN
I1223 21:22:24.868438 30220 net.cpp:157] Top shape: 250 384 4 4 (1536000)
I1223 21:22:24.868454 30220 net.cpp:165] Memory required for data: 2391052000
I1223 21:22:24.868489 30220 layer_factory.hpp:76] Creating layer stage2/block19/sum/BN_stage2/block19/sum/BN_0_split
I1223 21:22:24.868511 30220 net.cpp:106] Creating Layer stage2/block19/sum/BN_stage2/block19/sum/BN_0_split
I1223 21:22:24.868527 30220 net.cpp:454] stage2/block19/sum/BN_stage2/block19/sum/BN_0_split <- stage2/block19/sum/BN
I1223 21:22:24.868556 30220 net.cpp:411] stage2/block19/sum/BN_stage2/block19/sum/BN_0_split -> stage2/block19/sum/BN_stage2/block19/sum/BN_0_split_0
I1223 21:22:24.868582 30220 net.cpp:411] stage2/block19/sum/BN_stage2/block19/sum/BN_0_split -> stage2/block19/sum/BN_stage2/block19/sum/BN_0_split_1
I1223 21:22:24.868724 30220 net.cpp:150] Setting up stage2/block19/sum/BN_stage2/block19/sum/BN_0_split
I1223 21:22:24.868752 30220 net.cpp:157] Top shape: 250 384 4 4 (1536000)
I1223 21:22:24.868772 30220 net.cpp:157] Top shape: 250 384 4 4 (1536000)
I1223 21:22:24.868788 30220 net.cpp:165] Memory required for data: 2403340000
I1223 21:22:24.868806 30220 layer_factory.hpp:76] Creating layer stage2/block20/conv_reduce
I1223 21:22:24.868831 30220 net.cpp:106] Creating Layer stage2/block20/conv_reduce
I1223 21:22:24.868850 30220 net.cpp:454] stage2/block20/conv_reduce <- stage2/block19/sum/BN_stage2/block19/sum/BN_0_split_0
I1223 21:22:24.868875 30220 net.cpp:411] stage2/block20/conv_reduce -> stage2/block20/conv_reduce
I1223 21:22:24.873760 30220 cudnn_conv_layer.cpp:194] Reallocating workspace storage: 6672
I1223 21:22:24.873831 30220 net.cpp:150] Setting up stage2/block20/conv_reduce
I1223 21:22:24.873842 30220 net.cpp:157] Top shape: 250 128 4 4 (512000)
I1223 21:22:24.873845 30220 net.cpp:165] Memory required for data: 2405388000
I1223 21:22:24.873855 30220 layer_factory.hpp:76] Creating layer stage2/block20/conv_reduce/nl
I1223 21:22:24.873865 30220 net.cpp:106] Creating Layer stage2/block20/conv_reduce/nl
I1223 21:22:24.873878 30220 net.cpp:454] stage2/block20/conv_reduce/nl <- stage2/block20/conv_reduce
I1223 21:22:24.873888 30220 net.cpp:397] stage2/block20/conv_reduce/nl -> stage2/block20/conv_reduce (in-place)
I1223 21:22:24.874876 30220 net.cpp:150] Setting up stage2/block20/conv_reduce/nl
I1223 21:22:24.874889 30220 net.cpp:157] Top shape: 250 128 4 4 (512000)
I1223 21:22:24.874893 30220 net.cpp:165] Memory required for data: 2407436000
I1223 21:22:24.874897 30220 layer_factory.hpp:76] Creating layer stage2/block20/conv_reduce/BN
I1223 21:22:24.874909 30220 net.cpp:106] Creating Layer stage2/block20/conv_reduce/BN
I1223 21:22:24.874914 30220 net.cpp:454] stage2/block20/conv_reduce/BN <- stage2/block20/conv_reduce
I1223 21:22:24.874923 30220 net.cpp:411] stage2/block20/conv_reduce/BN -> stage2/block20/conv_reduce/BN
I1223 21:22:24.875450 30220 net.cpp:150] Setting up stage2/block20/conv_reduce/BN
I1223 21:22:24.875463 30220 net.cpp:157] Top shape: 250 128 4 4 (512000)
I1223 21:22:24.875468 30220 net.cpp:165] Memory required for data: 2409484000
I1223 21:22:24.875478 30220 layer_factory.hpp:76] Creating layer stage2/block20/conv
I1223 21:22:24.875490 30220 net.cpp:106] Creating Layer stage2/block20/conv
I1223 21:22:24.875495 30220 net.cpp:454] stage2/block20/conv <- stage2/block20/conv_reduce/BN
I1223 21:22:24.875504 30220 net.cpp:411] stage2/block20/conv -> stage2/block20/conv
I1223 21:22:24.886740 30220 cudnn_conv_layer.cpp:194] Reallocating workspace storage: 7248
I1223 21:22:24.886853 30220 net.cpp:150] Setting up stage2/block20/conv
I1223 21:22:24.886883 30220 net.cpp:157] Top shape: 250 128 4 4 (512000)
I1223 21:22:24.886900 30220 net.cpp:165] Memory required for data: 2411532000
I1223 21:22:24.886924 30220 layer_factory.hpp:76] Creating layer stage2/block20/conv/nl
I1223 21:22:24.886951 30220 net.cpp:106] Creating Layer stage2/block20/conv/nl
I1223 21:22:24.886973 30220 net.cpp:454] stage2/block20/conv/nl <- stage2/block20/conv
I1223 21:22:24.886996 30220 net.cpp:397] stage2/block20/conv/nl -> stage2/block20/conv (in-place)
I1223 21:22:24.888643 30220 net.cpp:150] Setting up stage2/block20/conv/nl
I1223 21:22:24.888664 30220 net.cpp:157] Top shape: 250 128 4 4 (512000)
I1223 21:22:24.888669 30220 net.cpp:165] Memory required for data: 2413580000
I1223 21:22:24.888674 30220 layer_factory.hpp:76] Creating layer stage2/block20/conv/BN
I1223 21:22:24.888687 30220 net.cpp:106] Creating Layer stage2/block20/conv/BN
I1223 21:22:24.888748 30220 net.cpp:454] stage2/block20/conv/BN <- stage2/block20/conv
I1223 21:22:24.888761 30220 net.cpp:411] stage2/block20/conv/BN -> stage2/block20/conv/BN
I1223 21:22:24.889364 30220 net.cpp:150] Setting up stage2/block20/conv/BN
I1223 21:22:24.889374 30220 net.cpp:157] Top shape: 250 128 4 4 (512000)
I1223 21:22:24.889413 30220 net.cpp:165] Memory required for data: 2415628000
I1223 21:22:24.889446 30220 layer_factory.hpp:76] Creating layer stage2/block20/conv_restore
I1223 21:22:24.889459 30220 net.cpp:106] Creating Layer stage2/block20/conv_restore
I1223 21:22:24.889464 30220 net.cpp:454] stage2/block20/conv_restore <- stage2/block20/conv/BN
I1223 21:22:24.889495 30220 net.cpp:411] stage2/block20/conv_restore -> stage2/block20/conv_restore
I1223 21:22:24.895668 30220 cudnn_conv_layer.cpp:194] Reallocating workspace storage: 6672
I1223 21:22:24.895802 30220 net.cpp:150] Setting up stage2/block20/conv_restore
I1223 21:22:24.895814 30220 net.cpp:157] Top shape: 250 384 4 4 (1536000)
I1223 21:22:24.895819 30220 net.cpp:165] Memory required for data: 2421772000
I1223 21:22:24.895859 30220 layer_factory.hpp:76] Creating layer stage2/block20/sum
I1223 21:22:24.895874 30220 net.cpp:106] Creating Layer stage2/block20/sum
I1223 21:22:24.895901 30220 net.cpp:454] stage2/block20/sum <- stage2/block20/conv_restore
I1223 21:22:24.895911 30220 net.cpp:454] stage2/block20/sum <- stage2/block19/sum/BN_stage2/block19/sum/BN_0_split_1
I1223 21:22:24.895937 30220 net.cpp:411] stage2/block20/sum -> stage2/block20/sum
I1223 21:22:24.895998 30220 net.cpp:150] Setting up stage2/block20/sum
I1223 21:22:24.896005 30220 net.cpp:157] Top shape: 250 384 4 4 (1536000)
I1223 21:22:24.896009 30220 net.cpp:165] Memory required for data: 2427916000
I1223 21:22:24.896013 30220 layer_factory.hpp:76] Creating layer stage2/block20/sum/nl
I1223 21:22:24.896049 30220 net.cpp:106] Creating Layer stage2/block20/sum/nl
I1223 21:22:24.896073 30220 net.cpp:454] stage2/block20/sum/nl <- stage2/block20/sum
I1223 21:22:24.896082 30220 net.cpp:397] stage2/block20/sum/nl -> stage2/block20/sum (in-place)
I1223 21:22:24.897626 30220 net.cpp:150] Setting up stage2/block20/sum/nl
I1223 21:22:24.897649 30220 net.cpp:157] Top shape: 250 384 4 4 (1536000)
I1223 21:22:24.897652 30220 net.cpp:165] Memory required for data: 2434060000
I1223 21:22:24.897658 30220 layer_factory.hpp:76] Creating layer stage2/block20/sum/BN
I1223 21:22:24.897671 30220 net.cpp:106] Creating Layer stage2/block20/sum/BN
I1223 21:22:24.897730 30220 net.cpp:454] stage2/block20/sum/BN <- stage2/block20/sum
I1223 21:22:24.897744 30220 net.cpp:411] stage2/block20/sum/BN -> stage2/block20/sum/BN
I1223 21:22:24.898303 30220 net.cpp:150] Setting up stage2/block20/sum/BN
I1223 21:22:24.898314 30220 net.cpp:157] Top shape: 250 384 4 4 (1536000)
I1223 21:22:24.898318 30220 net.cpp:165] Memory required for data: 2440204000
I1223 21:22:24.898329 30220 layer_factory.hpp:76] Creating layer stage2/block20/sum/BN_stage2/block20/sum/BN_0_split
I1223 21:22:24.898367 30220 net.cpp:106] Creating Layer stage2/block20/sum/BN_stage2/block20/sum/BN_0_split
I1223 21:22:24.898375 30220 net.cpp:454] stage2/block20/sum/BN_stage2/block20/sum/BN_0_split <- stage2/block20/sum/BN
I1223 21:22:24.898402 30220 net.cpp:411] stage2/block20/sum/BN_stage2/block20/sum/BN_0_split -> stage2/block20/sum/BN_stage2/block20/sum/BN_0_split_0
I1223 21:22:24.898430 30220 net.cpp:411] stage2/block20/sum/BN_stage2/block20/sum/BN_0_split -> stage2/block20/sum/BN_stage2/block20/sum/BN_0_split_1
I1223 21:22:24.898494 30220 net.cpp:150] Setting up stage2/block20/sum/BN_stage2/block20/sum/BN_0_split
I1223 21:22:24.898504 30220 net.cpp:157] Top shape: 250 384 4 4 (1536000)
I1223 21:22:24.898509 30220 net.cpp:157] Top shape: 250 384 4 4 (1536000)
I1223 21:22:24.898512 30220 net.cpp:165] Memory required for data: 2452492000
I1223 21:22:24.898543 30220 layer_factory.hpp:76] Creating layer stage2/block21/conv_reduce
I1223 21:22:24.898573 30220 net.cpp:106] Creating Layer stage2/block21/conv_reduce
I1223 21:22:24.898581 30220 net.cpp:454] stage2/block21/conv_reduce <- stage2/block20/sum/BN_stage2/block20/sum/BN_0_split_0
I1223 21:22:24.898614 30220 net.cpp:411] stage2/block21/conv_reduce -> stage2/block21/conv_reduce
I1223 21:22:24.903419 30220 cudnn_conv_layer.cpp:194] Reallocating workspace storage: 6672
I1223 21:22:24.903573 30220 net.cpp:150] Setting up stage2/block21/conv_reduce
I1223 21:22:24.903584 30220 net.cpp:157] Top shape: 250 128 4 4 (512000)
I1223 21:22:24.903589 30220 net.cpp:165] Memory required for data: 2454540000
I1223 21:22:24.903628 30220 layer_factory.hpp:76] Creating layer stage2/block21/conv_reduce/nl
I1223 21:22:24.903643 30220 net.cpp:106] Creating Layer stage2/block21/conv_reduce/nl
I1223 21:22:24.903669 30220 net.cpp:454] stage2/block21/conv_reduce/nl <- stage2/block21/conv_reduce
I1223 21:22:24.903679 30220 net.cpp:397] stage2/block21/conv_reduce/nl -> stage2/block21/conv_reduce (in-place)
I1223 21:22:24.904968 30220 net.cpp:150] Setting up stage2/block21/conv_reduce/nl
I1223 21:22:24.904984 30220 net.cpp:157] Top shape: 250 128 4 4 (512000)
I1223 21:22:24.904989 30220 net.cpp:165] Memory required for data: 2456588000
I1223 21:22:24.904992 30220 layer_factory.hpp:76] Creating layer stage2/block21/conv_reduce/BN
I1223 21:22:24.905002 30220 net.cpp:106] Creating Layer stage2/block21/conv_reduce/BN
I1223 21:22:24.905050 30220 net.cpp:454] stage2/block21/conv_reduce/BN <- stage2/block21/conv_reduce
I1223 21:22:24.905081 30220 net.cpp:411] stage2/block21/conv_reduce/BN -> stage2/block21/conv_reduce/BN
I1223 21:22:24.905298 30220 net.cpp:150] Setting up stage2/block21/conv_reduce/BN
I1223 21:22:24.905306 30220 net.cpp:157] Top shape: 250 128 4 4 (512000)
I1223 21:22:24.905310 30220 net.cpp:165] Memory required for data: 2458636000
I1223 21:22:24.905341 30220 layer_factory.hpp:76] Creating layer stage2/block21/conv
I1223 21:22:24.905370 30220 net.cpp:106] Creating Layer stage2/block21/conv
I1223 21:22:24.905380 30220 net.cpp:454] stage2/block21/conv <- stage2/block21/conv_reduce/BN
I1223 21:22:24.905405 30220 net.cpp:411] stage2/block21/conv -> stage2/block21/conv
I1223 21:22:24.913174 30220 cudnn_conv_layer.cpp:194] Reallocating workspace storage: 7248
I1223 21:22:24.913306 30220 net.cpp:150] Setting up stage2/block21/conv
I1223 21:22:24.913319 30220 net.cpp:157] Top shape: 250 128 4 4 (512000)
I1223 21:22:24.913323 30220 net.cpp:165] Memory required for data: 2460684000
I1223 21:22:24.913362 30220 layer_factory.hpp:76] Creating layer stage2/block21/conv/nl
I1223 21:22:24.913375 30220 net.cpp:106] Creating Layer stage2/block21/conv/nl
I1223 21:22:24.913401 30220 net.cpp:454] stage2/block21/conv/nl <- stage2/block21/conv
I1223 21:22:24.913414 30220 net.cpp:397] stage2/block21/conv/nl -> stage2/block21/conv (in-place)
I1223 21:22:24.915205 30220 net.cpp:150] Setting up stage2/block21/conv/nl
I1223 21:22:24.915331 30220 net.cpp:157] Top shape: 250 128 4 4 (512000)
I1223 21:22:24.915375 30220 net.cpp:165] Memory required for data: 2462732000
I1223 21:22:24.915417 30220 layer_factory.hpp:76] Creating layer stage2/block21/conv/BN
I1223 21:22:24.915468 30220 net.cpp:106] Creating Layer stage2/block21/conv/BN
I1223 21:22:24.915518 30220 net.cpp:454] stage2/block21/conv/BN <- stage2/block21/conv
I1223 21:22:24.915567 30220 net.cpp:411] stage2/block21/conv/BN -> stage2/block21/conv/BN
I1223 21:22:24.915909 30220 net.cpp:150] Setting up stage2/block21/conv/BN
I1223 21:22:24.915962 30220 net.cpp:157] Top shape: 250 128 4 4 (512000)
I1223 21:22:24.916004 30220 net.cpp:165] Memory required for data: 2464780000
I1223 21:22:24.916054 30220 layer_factory.hpp:76] Creating layer stage2/block21/conv_restore
I1223 21:22:24.916100 30220 net.cpp:106] Creating Layer stage2/block21/conv_restore
I1223 21:22:24.916136 30220 net.cpp:454] stage2/block21/conv_restore <- stage2/block21/conv/BN
I1223 21:22:24.916177 30220 net.cpp:411] stage2/block21/conv_restore -> stage2/block21/conv_restore
I1223 21:22:24.922655 30220 cudnn_conv_layer.cpp:194] Reallocating workspace storage: 6672
I1223 21:22:24.922736 30220 net.cpp:150] Setting up stage2/block21/conv_restore
I1223 21:22:24.922750 30220 net.cpp:157] Top shape: 250 384 4 4 (1536000)
I1223 21:22:24.922755 30220 net.cpp:165] Memory required for data: 2470924000
I1223 21:22:24.922766 30220 layer_factory.hpp:76] Creating layer stage2/block21/sum
I1223 21:22:24.922776 30220 net.cpp:106] Creating Layer stage2/block21/sum
I1223 21:22:24.922860 30220 net.cpp:454] stage2/block21/sum <- stage2/block21/conv_restore
I1223 21:22:24.922870 30220 net.cpp:454] stage2/block21/sum <- stage2/block20/sum/BN_stage2/block20/sum/BN_0_split_1
I1223 21:22:24.922878 30220 net.cpp:411] stage2/block21/sum -> stage2/block21/sum
I1223 21:22:24.922924 30220 net.cpp:150] Setting up stage2/block21/sum
I1223 21:22:24.922932 30220 net.cpp:157] Top shape: 250 384 4 4 (1536000)
I1223 21:22:24.922935 30220 net.cpp:165] Memory required for data: 2477068000
I1223 21:22:24.922966 30220 layer_factory.hpp:76] Creating layer stage2/block21/sum/nl
I1223 21:22:24.922977 30220 net.cpp:106] Creating Layer stage2/block21/sum/nl
I1223 21:22:24.922982 30220 net.cpp:454] stage2/block21/sum/nl <- stage2/block21/sum
I1223 21:22:24.922988 30220 net.cpp:397] stage2/block21/sum/nl -> stage2/block21/sum (in-place)
I1223 21:22:24.924110 30220 net.cpp:150] Setting up stage2/block21/sum/nl
I1223 21:22:24.924125 30220 net.cpp:157] Top shape: 250 384 4 4 (1536000)
I1223 21:22:24.924130 30220 net.cpp:165] Memory required for data: 2483212000
I1223 21:22:24.924134 30220 layer_factory.hpp:76] Creating layer stage2/block21/sum/BN
I1223 21:22:24.924171 30220 net.cpp:106] Creating Layer stage2/block21/sum/BN
I1223 21:22:24.924180 30220 net.cpp:454] stage2/block21/sum/BN <- stage2/block21/sum
I1223 21:22:24.924209 30220 net.cpp:411] stage2/block21/sum/BN -> stage2/block21/sum/BN
I1223 21:22:24.924638 30220 net.cpp:150] Setting up stage2/block21/sum/BN
I1223 21:22:24.924648 30220 net.cpp:157] Top shape: 250 384 4 4 (1536000)
I1223 21:22:24.924651 30220 net.cpp:165] Memory required for data: 2489356000
I1223 21:22:24.924685 30220 layer_factory.hpp:76] Creating layer stage2/block21/sum/BN_stage2/block21/sum/BN_0_split
I1223 21:22:24.924695 30220 net.cpp:106] Creating Layer stage2/block21/sum/BN_stage2/block21/sum/BN_0_split
I1223 21:22:24.924701 30220 net.cpp:454] stage2/block21/sum/BN_stage2/block21/sum/BN_0_split <- stage2/block21/sum/BN
I1223 21:22:24.924729 30220 net.cpp:411] stage2/block21/sum/BN_stage2/block21/sum/BN_0_split -> stage2/block21/sum/BN_stage2/block21/sum/BN_0_split_0
I1223 21:22:24.924757 30220 net.cpp:411] stage2/block21/sum/BN_stage2/block21/sum/BN_0_split -> stage2/block21/sum/BN_stage2/block21/sum/BN_0_split_1
I1223 21:22:24.924820 30220 net.cpp:150] Setting up stage2/block21/sum/BN_stage2/block21/sum/BN_0_split
I1223 21:22:24.924829 30220 net.cpp:157] Top shape: 250 384 4 4 (1536000)
I1223 21:22:24.924834 30220 net.cpp:157] Top shape: 250 384 4 4 (1536000)
I1223 21:22:24.924863 30220 net.cpp:165] Memory required for data: 2501644000
I1223 21:22:24.924870 30220 layer_factory.hpp:76] Creating layer stage2/block22/conv_reduce
I1223 21:22:24.924898 30220 net.cpp:106] Creating Layer stage2/block22/conv_reduce
I1223 21:22:24.924906 30220 net.cpp:454] stage2/block22/conv_reduce <- stage2/block21/sum/BN_stage2/block21/sum/BN_0_split_0
I1223 21:22:24.924932 30220 net.cpp:411] stage2/block22/conv_reduce -> stage2/block22/conv_reduce
I1223 21:22:24.930058 30220 cudnn_conv_layer.cpp:194] Reallocating workspace storage: 6672
I1223 21:22:24.930132 30220 net.cpp:150] Setting up stage2/block22/conv_reduce
I1223 21:22:24.930145 30220 net.cpp:157] Top shape: 250 128 4 4 (512000)
I1223 21:22:24.930148 30220 net.cpp:165] Memory required for data: 2503692000
I1223 21:22:24.930160 30220 layer_factory.hpp:76] Creating layer stage2/block22/conv_reduce/nl
I1223 21:22:24.930171 30220 net.cpp:106] Creating Layer stage2/block22/conv_reduce/nl
I1223 21:22:24.930178 30220 net.cpp:454] stage2/block22/conv_reduce/nl <- stage2/block22/conv_reduce
I1223 21:22:24.930186 30220 net.cpp:397] stage2/block22/conv_reduce/nl -> stage2/block22/conv_reduce (in-place)
I1223 21:22:24.931648 30220 net.cpp:150] Setting up stage2/block22/conv_reduce/nl
I1223 21:22:24.931715 30220 net.cpp:157] Top shape: 250 128 4 4 (512000)
I1223 21:22:24.931742 30220 net.cpp:165] Memory required for data: 2505740000
I1223 21:22:24.931761 30220 layer_factory.hpp:76] Creating layer stage2/block22/conv_reduce/BN
I1223 21:22:24.931802 30220 net.cpp:106] Creating Layer stage2/block22/conv_reduce/BN
I1223 21:22:24.931823 30220 net.cpp:454] stage2/block22/conv_reduce/BN <- stage2/block22/conv_reduce
I1223 21:22:24.931845 30220 net.cpp:411] stage2/block22/conv_reduce/BN -> stage2/block22/conv_reduce/BN
I1223 21:22:24.932153 30220 net.cpp:150] Setting up stage2/block22/conv_reduce/BN
I1223 21:22:24.932178 30220 net.cpp:157] Top shape: 250 128 4 4 (512000)
I1223 21:22:24.932193 30220 net.cpp:165] Memory required for data: 2507788000
I1223 21:22:24.932214 30220 layer_factory.hpp:76] Creating layer stage2/block22/conv
I1223 21:22:24.932236 30220 net.cpp:106] Creating Layer stage2/block22/conv
I1223 21:22:24.932253 30220 net.cpp:454] stage2/block22/conv <- stage2/block22/conv_reduce/BN
I1223 21:22:24.932273 30220 net.cpp:411] stage2/block22/conv -> stage2/block22/conv
I1223 21:22:24.942605 30220 cudnn_conv_layer.cpp:194] Reallocating workspace storage: 7248
I1223 21:22:24.942713 30220 net.cpp:150] Setting up stage2/block22/conv
I1223 21:22:24.942740 30220 net.cpp:157] Top shape: 250 128 4 4 (512000)
I1223 21:22:24.942757 30220 net.cpp:165] Memory required for data: 2509836000
I1223 21:22:24.942780 30220 layer_factory.hpp:76] Creating layer stage2/block22/conv/nl
I1223 21:22:24.942803 30220 net.cpp:106] Creating Layer stage2/block22/conv/nl
I1223 21:22:24.942822 30220 net.cpp:454] stage2/block22/conv/nl <- stage2/block22/conv
I1223 21:22:24.942842 30220 net.cpp:397] stage2/block22/conv/nl -> stage2/block22/conv (in-place)
I1223 21:22:24.944429 30220 net.cpp:150] Setting up stage2/block22/conv/nl
I1223 21:22:24.944486 30220 net.cpp:157] Top shape: 250 128 4 4 (512000)
I1223 21:22:24.944504 30220 net.cpp:165] Memory required for data: 2511884000
I1223 21:22:24.944520 30220 layer_factory.hpp:76] Creating layer stage2/block22/conv/BN
I1223 21:22:24.944545 30220 net.cpp:106] Creating Layer stage2/block22/conv/BN
I1223 21:22:24.944564 30220 net.cpp:454] stage2/block22/conv/BN <- stage2/block22/conv
I1223 21:22:24.944587 30220 net.cpp:411] stage2/block22/conv/BN -> stage2/block22/conv/BN
I1223 21:22:24.944888 30220 net.cpp:150] Setting up stage2/block22/conv/BN
I1223 21:22:24.944912 30220 net.cpp:157] Top shape: 250 128 4 4 (512000)
I1223 21:22:24.944928 30220 net.cpp:165] Memory required for data: 2513932000
I1223 21:22:24.944952 30220 layer_factory.hpp:76] Creating layer stage2/block22/conv_restore
I1223 21:22:24.944974 30220 net.cpp:106] Creating Layer stage2/block22/conv_restore
I1223 21:22:24.944990 30220 net.cpp:454] stage2/block22/conv_restore <- stage2/block22/conv/BN
I1223 21:22:24.945009 30220 net.cpp:411] stage2/block22/conv_restore -> stage2/block22/conv_restore
I1223 21:22:24.952412 30220 cudnn_conv_layer.cpp:194] Reallocating workspace storage: 6672
I1223 21:22:24.952536 30220 net.cpp:150] Setting up stage2/block22/conv_restore
I1223 21:22:24.952549 30220 net.cpp:157] Top shape: 250 384 4 4 (1536000)
I1223 21:22:24.952553 30220 net.cpp:165] Memory required for data: 2520076000
I1223 21:22:24.952564 30220 layer_factory.hpp:76] Creating layer stage2/block22/sum
I1223 21:22:24.952576 30220 net.cpp:106] Creating Layer stage2/block22/sum
I1223 21:22:24.952584 30220 net.cpp:454] stage2/block22/sum <- stage2/block22/conv_restore
I1223 21:22:24.952591 30220 net.cpp:454] stage2/block22/sum <- stage2/block21/sum/BN_stage2/block21/sum/BN_0_split_1
I1223 21:22:24.952597 30220 net.cpp:411] stage2/block22/sum -> stage2/block22/sum
I1223 21:22:24.952641 30220 net.cpp:150] Setting up stage2/block22/sum
I1223 21:22:24.952648 30220 net.cpp:157] Top shape: 250 384 4 4 (1536000)
I1223 21:22:24.952651 30220 net.cpp:165] Memory required for data: 2526220000
I1223 21:22:24.952656 30220 layer_factory.hpp:76] Creating layer stage2/block22/sum/nl
I1223 21:22:24.952662 30220 net.cpp:106] Creating Layer stage2/block22/sum/nl
I1223 21:22:24.952666 30220 net.cpp:454] stage2/block22/sum/nl <- stage2/block22/sum
I1223 21:22:24.952674 30220 net.cpp:397] stage2/block22/sum/nl -> stage2/block22/sum (in-place)
I1223 21:22:24.954278 30220 net.cpp:150] Setting up stage2/block22/sum/nl
I1223 21:22:24.954321 30220 net.cpp:157] Top shape: 250 384 4 4 (1536000)
I1223 21:22:24.954326 30220 net.cpp:165] Memory required for data: 2532364000
I1223 21:22:24.954332 30220 layer_factory.hpp:76] Creating layer stage2/block22/sum/BN
I1223 21:22:24.954345 30220 net.cpp:106] Creating Layer stage2/block22/sum/BN
I1223 21:22:24.954351 30220 net.cpp:454] stage2/block22/sum/BN <- stage2/block22/sum
I1223 21:22:24.954362 30220 net.cpp:411] stage2/block22/sum/BN -> stage2/block22/sum/BN
I1223 21:22:24.954983 30220 net.cpp:150] Setting up stage2/block22/sum/BN
I1223 21:22:24.954994 30220 net.cpp:157] Top shape: 250 384 4 4 (1536000)
I1223 21:22:24.954998 30220 net.cpp:165] Memory required for data: 2538508000
I1223 21:22:24.955009 30220 layer_factory.hpp:76] Creating layer stage2/block22/sum/BN_stage2/block22/sum/BN_0_split
I1223 21:22:24.955018 30220 net.cpp:106] Creating Layer stage2/block22/sum/BN_stage2/block22/sum/BN_0_split
I1223 21:22:24.955023 30220 net.cpp:454] stage2/block22/sum/BN_stage2/block22/sum/BN_0_split <- stage2/block22/sum/BN
I1223 21:22:24.955029 30220 net.cpp:411] stage2/block22/sum/BN_stage2/block22/sum/BN_0_split -> stage2/block22/sum/BN_stage2/block22/sum/BN_0_split_0
I1223 21:22:24.955039 30220 net.cpp:411] stage2/block22/sum/BN_stage2/block22/sum/BN_0_split -> stage2/block22/sum/BN_stage2/block22/sum/BN_0_split_1
I1223 21:22:24.955093 30220 net.cpp:150] Setting up stage2/block22/sum/BN_stage2/block22/sum/BN_0_split
I1223 21:22:24.955121 30220 net.cpp:157] Top shape: 250 384 4 4 (1536000)
I1223 21:22:24.955139 30220 net.cpp:157] Top shape: 250 384 4 4 (1536000)
I1223 21:22:24.955154 30220 net.cpp:165] Memory required for data: 2550796000
I1223 21:22:24.955169 30220 layer_factory.hpp:76] Creating layer stage3/block0/conv_reduce
I1223 21:22:24.955193 30220 net.cpp:106] Creating Layer stage3/block0/conv_reduce
I1223 21:22:24.955200 30220 net.cpp:454] stage3/block0/conv_reduce <- stage2/block22/sum/BN_stage2/block22/sum/BN_0_split_0
I1223 21:22:24.955207 30220 net.cpp:411] stage3/block0/conv_reduce -> stage3/block0/conv_reduce
I1223 21:22:24.962913 30220 cudnn_conv_layer.cpp:194] Reallocating workspace storage: 6672
I1223 21:22:24.962985 30220 net.cpp:150] Setting up stage3/block0/conv_reduce
I1223 21:22:24.962997 30220 net.cpp:157] Top shape: 250 256 4 4 (1024000)
I1223 21:22:24.963002 30220 net.cpp:165] Memory required for data: 2554892000
I1223 21:22:24.963013 30220 layer_factory.hpp:76] Creating layer stage3/block0/conv_reduce/nl
I1223 21:22:24.963023 30220 net.cpp:106] Creating Layer stage3/block0/conv_reduce/nl
I1223 21:22:24.963032 30220 net.cpp:454] stage3/block0/conv_reduce/nl <- stage3/block0/conv_reduce
I1223 21:22:24.963038 30220 net.cpp:397] stage3/block0/conv_reduce/nl -> stage3/block0/conv_reduce (in-place)
I1223 21:22:24.964459 30220 net.cpp:150] Setting up stage3/block0/conv_reduce/nl
I1223 21:22:24.964483 30220 net.cpp:157] Top shape: 250 256 4 4 (1024000)
I1223 21:22:24.964488 30220 net.cpp:165] Memory required for data: 2558988000
I1223 21:22:24.964494 30220 layer_factory.hpp:76] Creating layer stage3/block0/conv_reduce/BN
I1223 21:22:24.964507 30220 net.cpp:106] Creating Layer stage3/block0/conv_reduce/BN
I1223 21:22:24.964514 30220 net.cpp:454] stage3/block0/conv_reduce/BN <- stage3/block0/conv_reduce
I1223 21:22:24.964524 30220 net.cpp:411] stage3/block0/conv_reduce/BN -> stage3/block0/conv_reduce/BN
I1223 21:22:24.964815 30220 net.cpp:150] Setting up stage3/block0/conv_reduce/BN
I1223 21:22:24.964849 30220 net.cpp:157] Top shape: 250 256 4 4 (1024000)
I1223 21:22:24.964865 30220 net.cpp:165] Memory required for data: 2563084000
I1223 21:22:24.964890 30220 layer_factory.hpp:76] Creating layer stage3/block0/conv
I1223 21:22:24.964913 30220 net.cpp:106] Creating Layer stage3/block0/conv
I1223 21:22:24.964931 30220 net.cpp:454] stage3/block0/conv <- stage3/block0/conv_reduce/BN
I1223 21:22:24.964958 30220 net.cpp:411] stage3/block0/conv -> stage3/block0/conv
I1223 21:22:24.991094 30220 cudnn_conv_layer.cpp:194] Reallocating workspace storage: 6840
I1223 21:22:24.991166 30220 net.cpp:150] Setting up stage3/block0/conv
I1223 21:22:24.991220 30220 net.cpp:157] Top shape: 250 256 2 2 (256000)
I1223 21:22:24.991238 30220 net.cpp:165] Memory required for data: 2564108000
I1223 21:22:24.991262 30220 layer_factory.hpp:76] Creating layer stage3/block0/conv/nl
I1223 21:22:24.991274 30220 net.cpp:106] Creating Layer stage3/block0/conv/nl
I1223 21:22:24.991293 30220 net.cpp:454] stage3/block0/conv/nl <- stage3/block0/conv
I1223 21:22:24.991315 30220 net.cpp:397] stage3/block0/conv/nl -> stage3/block0/conv (in-place)
I1223 21:22:24.992815 30220 net.cpp:150] Setting up stage3/block0/conv/nl
I1223 21:22:24.992830 30220 net.cpp:157] Top shape: 250 256 2 2 (256000)
I1223 21:22:24.992835 30220 net.cpp:165] Memory required for data: 2565132000
I1223 21:22:24.992840 30220 layer_factory.hpp:76] Creating layer stage3/block0/conv/BN
I1223 21:22:24.992851 30220 net.cpp:106] Creating Layer stage3/block0/conv/BN
I1223 21:22:24.992877 30220 net.cpp:454] stage3/block0/conv/BN <- stage3/block0/conv
I1223 21:22:24.992900 30220 net.cpp:411] stage3/block0/conv/BN -> stage3/block0/conv/BN
I1223 21:22:24.993187 30220 net.cpp:150] Setting up stage3/block0/conv/BN
I1223 21:22:24.993196 30220 net.cpp:157] Top shape: 250 256 2 2 (256000)
I1223 21:22:24.993201 30220 net.cpp:165] Memory required for data: 2566156000
I1223 21:22:24.993209 30220 layer_factory.hpp:76] Creating layer stage3/block0/conv_restore
I1223 21:22:24.993237 30220 net.cpp:106] Creating Layer stage3/block0/conv_restore
I1223 21:22:24.993242 30220 net.cpp:454] stage3/block0/conv_restore <- stage3/block0/conv/BN
I1223 21:22:24.993250 30220 net.cpp:411] stage3/block0/conv_restore -> stage3/block0/conv_restore
I1223 21:22:25.006285 30220 cudnn_conv_layer.cpp:194] Reallocating workspace storage: 3072
I1223 21:22:25.006444 30220 net.cpp:150] Setting up stage3/block0/conv_restore
I1223 21:22:25.006458 30220 net.cpp:157] Top shape: 250 768 2 2 (768000)
I1223 21:22:25.006463 30220 net.cpp:165] Memory required for data: 2569228000
I1223 21:22:25.006474 30220 layer_factory.hpp:76] Creating layer stage3/block0/shortcut
I1223 21:22:25.006513 30220 net.cpp:106] Creating Layer stage3/block0/shortcut
I1223 21:22:25.006536 30220 net.cpp:454] stage3/block0/shortcut <- stage2/block22/sum/BN_stage2/block22/sum/BN_0_split_1
I1223 21:22:25.006561 30220 net.cpp:411] stage3/block0/shortcut -> stage3/block0/shortcut
I1223 21:22:25.023279 30220 cudnn_conv_layer.cpp:194] Reallocating workspace storage: 4608000
I1223 21:22:25.023794 30220 net.cpp:150] Setting up stage3/block0/shortcut
I1223 21:22:25.023833 30220 net.cpp:157] Top shape: 250 768 2 2 (768000)
I1223 21:22:25.023850 30220 net.cpp:165] Memory required for data: 2572300000
I1223 21:22:25.023875 30220 layer_factory.hpp:76] Creating layer stage3/block0/sum
I1223 21:22:25.023902 30220 net.cpp:106] Creating Layer stage3/block0/sum
I1223 21:22:25.023922 30220 net.cpp:454] stage3/block0/sum <- stage3/block0/conv_restore
I1223 21:22:25.023941 30220 net.cpp:454] stage3/block0/sum <- stage3/block0/shortcut
I1223 21:22:25.023960 30220 net.cpp:411] stage3/block0/sum -> stage3/block0/sum
I1223 21:22:25.024027 30220 net.cpp:150] Setting up stage3/block0/sum
I1223 21:22:25.024049 30220 net.cpp:157] Top shape: 250 768 2 2 (768000)
I1223 21:22:25.024062 30220 net.cpp:165] Memory required for data: 2575372000
I1223 21:22:25.024076 30220 layer_factory.hpp:76] Creating layer stage3/block0/sum/nl
I1223 21:22:25.024094 30220 net.cpp:106] Creating Layer stage3/block0/sum/nl
I1223 21:22:25.024109 30220 net.cpp:454] stage3/block0/sum/nl <- stage3/block0/sum
I1223 21:22:25.024127 30220 net.cpp:397] stage3/block0/sum/nl -> stage3/block0/sum (in-place)
I1223 21:22:25.026044 30220 net.cpp:150] Setting up stage3/block0/sum/nl
I1223 21:22:25.026115 30220 net.cpp:157] Top shape: 250 768 2 2 (768000)
I1223 21:22:25.026132 30220 net.cpp:165] Memory required for data: 2578444000
I1223 21:22:25.026163 30220 layer_factory.hpp:76] Creating layer stage3/block0/sum/BN
I1223 21:22:25.026190 30220 net.cpp:106] Creating Layer stage3/block0/sum/BN
I1223 21:22:25.026208 30220 net.cpp:454] stage3/block0/sum/BN <- stage3/block0/sum
I1223 21:22:25.026242 30220 net.cpp:411] stage3/block0/sum/BN -> stage3/block0/sum/BN
I1223 21:22:25.027040 30220 net.cpp:150] Setting up stage3/block0/sum/BN
I1223 21:22:25.027083 30220 net.cpp:157] Top shape: 250 768 2 2 (768000)
I1223 21:22:25.027103 30220 net.cpp:165] Memory required for data: 2581516000
I1223 21:22:25.027130 30220 layer_factory.hpp:76] Creating layer stage3/block0/sum/BN_stage3/block0/sum/BN_0_split
I1223 21:22:25.027153 30220 net.cpp:106] Creating Layer stage3/block0/sum/BN_stage3/block0/sum/BN_0_split
I1223 21:22:25.027169 30220 net.cpp:454] stage3/block0/sum/BN_stage3/block0/sum/BN_0_split <- stage3/block0/sum/BN
I1223 21:22:25.027189 30220 net.cpp:411] stage3/block0/sum/BN_stage3/block0/sum/BN_0_split -> stage3/block0/sum/BN_stage3/block0/sum/BN_0_split_0
I1223 21:22:25.027212 30220 net.cpp:411] stage3/block0/sum/BN_stage3/block0/sum/BN_0_split -> stage3/block0/sum/BN_stage3/block0/sum/BN_0_split_1
I1223 21:22:25.027287 30220 net.cpp:150] Setting up stage3/block0/sum/BN_stage3/block0/sum/BN_0_split
I1223 21:22:25.027310 30220 net.cpp:157] Top shape: 250 768 2 2 (768000)
I1223 21:22:25.027328 30220 net.cpp:157] Top shape: 250 768 2 2 (768000)
I1223 21:22:25.027343 30220 net.cpp:165] Memory required for data: 2587660000
I1223 21:22:25.027357 30220 layer_factory.hpp:76] Creating layer stage3/block1/conv_reduce
I1223 21:22:25.027382 30220 net.cpp:106] Creating Layer stage3/block1/conv_reduce
I1223 21:22:25.027400 30220 net.cpp:454] stage3/block1/conv_reduce <- stage3/block0/sum/BN_stage3/block0/sum/BN_0_split_0
I1223 21:22:25.027417 30220 net.cpp:411] stage3/block1/conv_reduce -> stage3/block1/conv_reduce
I1223 21:22:25.049010 30220 cudnn_conv_layer.cpp:194] Reallocating workspace storage: 9216
I1223 21:22:25.049160 30220 net.cpp:150] Setting up stage3/block1/conv_reduce
I1223 21:22:25.049190 30220 net.cpp:157] Top shape: 250 256 2 2 (256000)
I1223 21:22:25.049207 30220 net.cpp:165] Memory required for data: 2588684000
I1223 21:22:25.049232 30220 layer_factory.hpp:76] Creating layer stage3/block1/conv_reduce/nl
I1223 21:22:25.049257 30220 net.cpp:106] Creating Layer stage3/block1/conv_reduce/nl
I1223 21:22:25.049276 30220 net.cpp:454] stage3/block1/conv_reduce/nl <- stage3/block1/conv_reduce
I1223 21:22:25.049295 30220 net.cpp:397] stage3/block1/conv_reduce/nl -> stage3/block1/conv_reduce (in-place)
I1223 21:22:25.051525 30220 net.cpp:150] Setting up stage3/block1/conv_reduce/nl
I1223 21:22:25.051594 30220 net.cpp:157] Top shape: 250 256 2 2 (256000)
I1223 21:22:25.051612 30220 net.cpp:165] Memory required for data: 2589708000
I1223 21:22:25.051630 30220 layer_factory.hpp:76] Creating layer stage3/block1/conv_reduce/BN
I1223 21:22:25.051656 30220 net.cpp:106] Creating Layer stage3/block1/conv_reduce/BN
I1223 21:22:25.051677 30220 net.cpp:454] stage3/block1/conv_reduce/BN <- stage3/block1/conv_reduce
I1223 21:22:25.051699 30220 net.cpp:411] stage3/block1/conv_reduce/BN -> stage3/block1/conv_reduce/BN
I1223 21:22:25.052534 30220 net.cpp:150] Setting up stage3/block1/conv_reduce/BN
I1223 21:22:25.052569 30220 net.cpp:157] Top shape: 250 256 2 2 (256000)
I1223 21:22:25.052589 30220 net.cpp:165] Memory required for data: 2590732000
I1223 21:22:25.052614 30220 layer_factory.hpp:76] Creating layer stage3/block1/conv
I1223 21:22:25.052642 30220 net.cpp:106] Creating Layer stage3/block1/conv
I1223 21:22:25.052662 30220 net.cpp:454] stage3/block1/conv <- stage3/block1/conv_reduce/BN
I1223 21:22:25.052685 30220 net.cpp:411] stage3/block1/conv -> stage3/block1/conv
I1223 21:22:25.085789 30220 cudnn_conv_layer.cpp:194] Reallocating workspace storage: 6624
I1223 21:22:25.085950 30220 net.cpp:150] Setting up stage3/block1/conv
I1223 21:22:25.085981 30220 net.cpp:157] Top shape: 250 256 2 2 (256000)
I1223 21:22:25.085999 30220 net.cpp:165] Memory required for data: 2591756000
I1223 21:22:25.086031 30220 layer_factory.hpp:76] Creating layer stage3/block1/conv/nl
I1223 21:22:25.086058 30220 net.cpp:106] Creating Layer stage3/block1/conv/nl
I1223 21:22:25.086089 30220 net.cpp:454] stage3/block1/conv/nl <- stage3/block1/conv
I1223 21:22:25.086108 30220 net.cpp:397] stage3/block1/conv/nl -> stage3/block1/conv (in-place)
I1223 21:22:25.088279 30220 net.cpp:150] Setting up stage3/block1/conv/nl
I1223 21:22:25.088353 30220 net.cpp:157] Top shape: 250 256 2 2 (256000)
I1223 21:22:25.088371 30220 net.cpp:165] Memory required for data: 2592780000
I1223 21:22:25.088387 30220 layer_factory.hpp:76] Creating layer stage3/block1/conv/BN
I1223 21:22:25.088413 30220 net.cpp:106] Creating Layer stage3/block1/conv/BN
I1223 21:22:25.088433 30220 net.cpp:454] stage3/block1/conv/BN <- stage3/block1/conv
I1223 21:22:25.088456 30220 net.cpp:411] stage3/block1/conv/BN -> stage3/block1/conv/BN
I1223 21:22:25.088804 30220 net.cpp:150] Setting up stage3/block1/conv/BN
I1223 21:22:25.088832 30220 net.cpp:157] Top shape: 250 256 2 2 (256000)
I1223 21:22:25.088847 30220 net.cpp:165] Memory required for data: 2593804000
I1223 21:22:25.088871 30220 layer_factory.hpp:76] Creating layer stage3/block1/conv_restore
I1223 21:22:25.088894 30220 net.cpp:106] Creating Layer stage3/block1/conv_restore
I1223 21:22:25.088912 30220 net.cpp:454] stage3/block1/conv_restore <- stage3/block1/conv/BN
I1223 21:22:25.088932 30220 net.cpp:411] stage3/block1/conv_restore -> stage3/block1/conv_restore
I1223 21:22:25.104786 30220 cudnn_conv_layer.cpp:194] Reallocating workspace storage: 3072
I1223 21:22:25.105025 30220 net.cpp:150] Setting up stage3/block1/conv_restore
I1223 21:22:25.105056 30220 net.cpp:157] Top shape: 250 768 2 2 (768000)
I1223 21:22:25.105072 30220 net.cpp:165] Memory required for data: 2596876000
I1223 21:22:25.105098 30220 layer_factory.hpp:76] Creating layer stage3/block1/sum
I1223 21:22:25.105120 30220 net.cpp:106] Creating Layer stage3/block1/sum
I1223 21:22:25.105139 30220 net.cpp:454] stage3/block1/sum <- stage3/block1/conv_restore
I1223 21:22:25.105157 30220 net.cpp:454] stage3/block1/sum <- stage3/block0/sum/BN_stage3/block0/sum/BN_0_split_1
I1223 21:22:25.105180 30220 net.cpp:411] stage3/block1/sum -> stage3/block1/sum
I1223 21:22:25.105237 30220 net.cpp:150] Setting up stage3/block1/sum
I1223 21:22:25.105260 30220 net.cpp:157] Top shape: 250 768 2 2 (768000)
I1223 21:22:25.105275 30220 net.cpp:165] Memory required for data: 2599948000
I1223 21:22:25.105293 30220 layer_factory.hpp:76] Creating layer stage3/block1/sum/nl
I1223 21:22:25.105311 30220 net.cpp:106] Creating Layer stage3/block1/sum/nl
I1223 21:22:25.105329 30220 net.cpp:454] stage3/block1/sum/nl <- stage3/block1/sum
I1223 21:22:25.105345 30220 net.cpp:397] stage3/block1/sum/nl -> stage3/block1/sum (in-place)
I1223 21:22:25.107477 30220 net.cpp:150] Setting up stage3/block1/sum/nl
I1223 21:22:25.107547 30220 net.cpp:157] Top shape: 250 768 2 2 (768000)
I1223 21:22:25.107566 30220 net.cpp:165] Memory required for data: 2603020000
I1223 21:22:25.107584 30220 layer_factory.hpp:76] Creating layer stage3/block1/sum/BN
I1223 21:22:25.107609 30220 net.cpp:106] Creating Layer stage3/block1/sum/BN
I1223 21:22:25.107630 30220 net.cpp:454] stage3/block1/sum/BN <- stage3/block1/sum
I1223 21:22:25.107650 30220 net.cpp:411] stage3/block1/sum/BN -> stage3/block1/sum/BN
I1223 21:22:25.108382 30220 net.cpp:150] Setting up stage3/block1/sum/BN
I1223 21:22:25.108394 30220 net.cpp:157] Top shape: 250 768 2 2 (768000)
I1223 21:22:25.108398 30220 net.cpp:165] Memory required for data: 2606092000
I1223 21:22:25.108410 30220 layer_factory.hpp:76] Creating layer stage3/block1/sum/BN_stage3/block1/sum/BN_0_split
I1223 21:22:25.108436 30220 net.cpp:106] Creating Layer stage3/block1/sum/BN_stage3/block1/sum/BN_0_split
I1223 21:22:25.108455 30220 net.cpp:454] stage3/block1/sum/BN_stage3/block1/sum/BN_0_split <- stage3/block1/sum/BN
I1223 21:22:25.108475 30220 net.cpp:411] stage3/block1/sum/BN_stage3/block1/sum/BN_0_split -> stage3/block1/sum/BN_stage3/block1/sum/BN_0_split_0
I1223 21:22:25.108505 30220 net.cpp:411] stage3/block1/sum/BN_stage3/block1/sum/BN_0_split -> stage3/block1/sum/BN_stage3/block1/sum/BN_0_split_1
I1223 21:22:25.108580 30220 net.cpp:150] Setting up stage3/block1/sum/BN_stage3/block1/sum/BN_0_split
I1223 21:22:25.108600 30220 net.cpp:157] Top shape: 250 768 2 2 (768000)
I1223 21:22:25.108605 30220 net.cpp:157] Top shape: 250 768 2 2 (768000)
I1223 21:22:25.108611 30220 net.cpp:165] Memory required for data: 2612236000
I1223 21:22:25.108615 30220 layer_factory.hpp:76] Creating layer stage3/block2/conv_reduce
I1223 21:22:25.108626 30220 net.cpp:106] Creating Layer stage3/block2/conv_reduce
I1223 21:22:25.108647 30220 net.cpp:454] stage3/block2/conv_reduce <- stage3/block1/sum/BN_stage3/block1/sum/BN_0_split_0
I1223 21:22:25.108672 30220 net.cpp:411] stage3/block2/conv_reduce -> stage3/block2/conv_reduce
I1223 21:22:25.123142 30220 cudnn_conv_layer.cpp:194] Reallocating workspace storage: 9216
I1223 21:22:25.123328 30220 net.cpp:150] Setting up stage3/block2/conv_reduce
I1223 21:22:25.123363 30220 net.cpp:157] Top shape: 250 256 2 2 (256000)
I1223 21:22:25.123380 30220 net.cpp:165] Memory required for data: 2613260000
I1223 21:22:25.123404 30220 layer_factory.hpp:76] Creating layer stage3/block2/conv_reduce/nl
I1223 21:22:25.123425 30220 net.cpp:106] Creating Layer stage3/block2/conv_reduce/nl
I1223 21:22:25.123445 30220 net.cpp:454] stage3/block2/conv_reduce/nl <- stage3/block2/conv_reduce
I1223 21:22:25.123464 30220 net.cpp:397] stage3/block2/conv_reduce/nl -> stage3/block2/conv_reduce (in-place)
I1223 21:22:25.125128 30220 net.cpp:150] Setting up stage3/block2/conv_reduce/nl
I1223 21:22:25.125174 30220 net.cpp:157] Top shape: 250 256 2 2 (256000)
I1223 21:22:25.125191 30220 net.cpp:165] Memory required for data: 2614284000
I1223 21:22:25.125207 30220 layer_factory.hpp:76] Creating layer stage3/block2/conv_reduce/BN
I1223 21:22:25.125229 30220 net.cpp:106] Creating Layer stage3/block2/conv_reduce/BN
I1223 21:22:25.125248 30220 net.cpp:454] stage3/block2/conv_reduce/BN <- stage3/block2/conv_reduce
I1223 21:22:25.125270 30220 net.cpp:411] stage3/block2/conv_reduce/BN -> stage3/block2/conv_reduce/BN
I1223 21:22:25.125591 30220 net.cpp:150] Setting up stage3/block2/conv_reduce/BN
I1223 21:22:25.125614 30220 net.cpp:157] Top shape: 250 256 2 2 (256000)
I1223 21:22:25.125629 30220 net.cpp:165] Memory required for data: 2615308000
I1223 21:22:25.125653 30220 layer_factory.hpp:76] Creating layer stage3/block2/conv
I1223 21:22:25.125675 30220 net.cpp:106] Creating Layer stage3/block2/conv
I1223 21:22:25.125690 30220 net.cpp:454] stage3/block2/conv <- stage3/block2/conv_reduce/BN
I1223 21:22:25.125710 30220 net.cpp:411] stage3/block2/conv -> stage3/block2/conv
I1223 21:22:25.151968 30220 cudnn_conv_layer.cpp:194] Reallocating workspace storage: 6624
I1223 21:22:25.152127 30220 net.cpp:150] Setting up stage3/block2/conv
I1223 21:22:25.152155 30220 net.cpp:157] Top shape: 250 256 2 2 (256000)
I1223 21:22:25.152173 30220 net.cpp:165] Memory required for data: 2616332000
I1223 21:22:25.152197 30220 layer_factory.hpp:76] Creating layer stage3/block2/conv/nl
I1223 21:22:25.152221 30220 net.cpp:106] Creating Layer stage3/block2/conv/nl
I1223 21:22:25.152242 30220 net.cpp:454] stage3/block2/conv/nl <- stage3/block2/conv
I1223 21:22:25.152262 30220 net.cpp:397] stage3/block2/conv/nl -> stage3/block2/conv (in-place)
I1223 21:22:25.158184 30220 net.cpp:150] Setting up stage3/block2/conv/nl
I1223 21:22:25.158247 30220 net.cpp:157] Top shape: 250 256 2 2 (256000)
I1223 21:22:25.158264 30220 net.cpp:165] Memory required for data: 2617356000
I1223 21:22:25.158280 30220 layer_factory.hpp:76] Creating layer stage3/block2/conv/BN
I1223 21:22:25.158306 30220 net.cpp:106] Creating Layer stage3/block2/conv/BN
I1223 21:22:25.158325 30220 net.cpp:454] stage3/block2/conv/BN <- stage3/block2/conv
I1223 21:22:25.158349 30220 net.cpp:411] stage3/block2/conv/BN -> stage3/block2/conv/BN
I1223 21:22:25.158684 30220 net.cpp:150] Setting up stage3/block2/conv/BN
I1223 21:22:25.158706 30220 net.cpp:157] Top shape: 250 256 2 2 (256000)
I1223 21:22:25.158735 30220 net.cpp:165] Memory required for data: 2618380000
I1223 21:22:25.158759 30220 layer_factory.hpp:76] Creating layer stage3/block2/conv_restore
I1223 21:22:25.158792 30220 net.cpp:106] Creating Layer stage3/block2/conv_restore
I1223 21:22:25.158808 30220 net.cpp:454] stage3/block2/conv_restore <- stage3/block2/conv/BN
I1223 21:22:25.158829 30220 net.cpp:411] stage3/block2/conv_restore -> stage3/block2/conv_restore
I1223 21:22:25.173141 30220 cudnn_conv_layer.cpp:194] Reallocating workspace storage: 3072
I1223 21:22:25.173352 30220 net.cpp:150] Setting up stage3/block2/conv_restore
I1223 21:22:25.173367 30220 net.cpp:157] Top shape: 250 768 2 2 (768000)
I1223 21:22:25.173372 30220 net.cpp:165] Memory required for data: 2621452000
I1223 21:22:25.173408 30220 layer_factory.hpp:76] Creating layer stage3/block2/sum
I1223 21:22:25.173424 30220 net.cpp:106] Creating Layer stage3/block2/sum
I1223 21:22:25.173455 30220 net.cpp:454] stage3/block2/sum <- stage3/block2/conv_restore
I1223 21:22:25.173490 30220 net.cpp:454] stage3/block2/sum <- stage3/block1/sum/BN_stage3/block1/sum/BN_0_split_1
I1223 21:22:25.173522 30220 net.cpp:411] stage3/block2/sum -> stage3/block2/sum
I1223 21:22:25.173612 30220 net.cpp:150] Setting up stage3/block2/sum
I1223 21:22:25.173662 30220 net.cpp:157] Top shape: 250 768 2 2 (768000)
I1223 21:22:25.173681 30220 net.cpp:165] Memory required for data: 2624524000
I1223 21:22:25.173701 30220 layer_factory.hpp:76] Creating layer stage3/block2/sum/nl
I1223 21:22:25.173720 30220 net.cpp:106] Creating Layer stage3/block2/sum/nl
I1223 21:22:25.173738 30220 net.cpp:454] stage3/block2/sum/nl <- stage3/block2/sum
I1223 21:22:25.173760 30220 net.cpp:397] stage3/block2/sum/nl -> stage3/block2/sum (in-place)
I1223 21:22:25.176306 30220 net.cpp:150] Setting up stage3/block2/sum/nl
I1223 21:22:25.176332 30220 net.cpp:157] Top shape: 250 768 2 2 (768000)
I1223 21:22:25.176337 30220 net.cpp:165] Memory required for data: 2627596000
I1223 21:22:25.176342 30220 layer_factory.hpp:76] Creating layer stage3/block2/sum/BN
I1223 21:22:25.176357 30220 net.cpp:106] Creating Layer stage3/block2/sum/BN
I1223 21:22:25.176363 30220 net.cpp:454] stage3/block2/sum/BN <- stage3/block2/sum
I1223 21:22:25.176374 30220 net.cpp:411] stage3/block2/sum/BN -> stage3/block2/sum/BN
I1223 21:22:25.177014 30220 net.cpp:150] Setting up stage3/block2/sum/BN
I1223 21:22:25.177026 30220 net.cpp:157] Top shape: 250 768 2 2 (768000)
I1223 21:22:25.177031 30220 net.cpp:165] Memory required for data: 2630668000
I1223 21:22:25.177042 30220 layer_factory.hpp:76] Creating layer global_pool
I1223 21:22:25.177068 30220 net.cpp:106] Creating Layer global_pool
I1223 21:22:25.177088 30220 net.cpp:454] global_pool <- stage3/block2/sum/BN
I1223 21:22:25.177111 30220 net.cpp:411] global_pool -> global_pool
I1223 21:22:25.179328 30220 net.cpp:150] Setting up global_pool
I1223 21:22:25.179404 30220 net.cpp:157] Top shape: 250 768 1 1 (192000)
I1223 21:22:25.179424 30220 net.cpp:165] Memory required for data: 2631436000
I1223 21:22:25.179443 30220 layer_factory.hpp:76] Creating layer classifier
I1223 21:22:25.179471 30220 net.cpp:106] Creating Layer classifier
I1223 21:22:25.179491 30220 net.cpp:454] classifier <- global_pool
I1223 21:22:25.179610 30220 net.cpp:411] classifier -> classifier
I1223 21:22:25.203255 30220 net.cpp:150] Setting up classifier
I1223 21:22:25.203279 30220 net.cpp:157] Top shape: 250 1000 (250000)
I1223 21:22:25.203284 30220 net.cpp:165] Memory required for data: 2632436000
I1223 21:22:25.203294 30220 layer_factory.hpp:76] Creating layer classifier_classifier_0_split
I1223 21:22:25.203304 30220 net.cpp:106] Creating Layer classifier_classifier_0_split
I1223 21:22:25.203310 30220 net.cpp:454] classifier_classifier_0_split <- classifier
I1223 21:22:25.203318 30220 net.cpp:411] classifier_classifier_0_split -> classifier_classifier_0_split_0
I1223 21:22:25.203349 30220 net.cpp:411] classifier_classifier_0_split -> classifier_classifier_0_split_1
I1223 21:22:25.203372 30220 net.cpp:411] classifier_classifier_0_split -> classifier_classifier_0_split_2
I1223 21:22:25.203483 30220 net.cpp:150] Setting up classifier_classifier_0_split
I1223 21:22:25.203492 30220 net.cpp:157] Top shape: 250 1000 (250000)
I1223 21:22:25.203522 30220 net.cpp:157] Top shape: 250 1000 (250000)
I1223 21:22:25.203543 30220 net.cpp:157] Top shape: 250 1000 (250000)
I1223 21:22:25.203559 30220 net.cpp:165] Memory required for data: 2635436000
I1223 21:22:25.203577 30220 layer_factory.hpp:76] Creating layer acc
I1223 21:22:25.203604 30220 net.cpp:106] Creating Layer acc
I1223 21:22:25.203624 30220 net.cpp:454] acc <- classifier_classifier_0_split_0
I1223 21:22:25.203642 30220 net.cpp:454] acc <- label_data_1_split_0
I1223 21:22:25.203662 30220 net.cpp:411] acc -> acc
…
