…
      crop_size: 120
      mean_value: 104
      mean_value: 117
      mean_value: 123
      force_color: true
      resize_param {
        prob: 1
        resize_mode: FIT_SMALL_SIZE
        height: 144
        width: 144
        pad_mode: MIRRORED
        pad_value: 104
        pad_value: 117
        pad_value: 124
        interp_mode: CUBIC
        center_object: false
        max_angle: 0
      }
    }
    data_param {
      source: "/home/share/storage/datasets/imagenet/lmdb/ilsvrc12_val_lmdb"
      batch_size: 50
      backend: LMDB
    }
  }
  layer {
    name: "conv0"
    type: "Convolution"
    bottom: "data"
    top: "conv0"
    param {
      lr_mult: 1
      decay_mult: 1
    }
    param {
      lr_mult: 2
      decay_mult: 0
    }
    convolution_param {
      num_output: 96
      kernel_size: 11
      stride: 2
      weight_filler {
        type: "msra"
      }
      bias_filler {
        type: "constant"
      }
    }
  }
  layer {
    name: "conv0/nl"
    type: "ReLU"
    bottom: "conv0"
    top: "conv0"
  }
  layer {
    name: "pool0"
    type: "Pooling"
    bottom: "conv0"
    top: "pool0"
    pooling_param {
      pool: MAX
      kernel_size: 3
      stride: 2
      pad: 1
    }
  }
  layer {
    name: "stage0/block0/conv_reduce"
    type: "Convolution"
    bottom: "pool0"
    top: "stage0/block0/conv_reduce"
    param {
      lr_mult: 1
      decay_mult: 1
    }
    param {
      lr_mult: 2
      decay_mult: 0
    }
    convolution_param {
      num_output: 24
      kernel_size: 1
      stride: 1
      weight_filler {
        type: "msra"
      }
      bias_filler {
        type: "constant"
      }
    }
  }
  layer {
    name: "stage0/block0/conv_reduce/nl"
    type: "ReLU"
    bottom: "stage0/block0/conv_reduce"
    top: "stage0/block0/conv_reduce"
  }
  layer {
    name: "stage0/block0/conv"
    type: "Convolution"
    bottom: "stage0/block0/conv_reduce"
    top: "stage0/block0/conv"
    param {
      lr_mult: 1
      decay_mult: 1
    }
    param {
      lr_mult: 2
      decay_mult: 0
    }
    convolution_param {
      num_output: 24
      pad: 1
      kernel_size: 3
      stride: 1
      weight_filler {
        type: "msra"
      }
      bias_filler {
        type: "constant"
      }
    }
  }
  layer {
    name: "stage0/block0/conv/nl"
    type: "ReLU"
    bottom: "stage0/block0/conv"
    top: "stage0/block0/conv"
  }
  layer {
    name: "stage0/block0/conv_restore"
    type: "Convolution"
    bottom: "stage0/block0/conv"
    top: "stage0/block0/conv_restore"
    param {
      lr_mult: 1
      decay_mult: 1
    }
    param {
      lr_mult: 2
      decay_mult: 0
    }
    convolution_param {
      num_output: 80
      kernel_size: 1
      stride: 1
      weight_filler {
        type: "msra"
      }
      bias_filler {
        type: "constant"
      }
    }
  }
  layer {
    name: "stage0/block0/shortcut"
    type: "Convolution"
    bottom: "pool0"
    top: "stage0/block0/shortcut"
    param {
      lr_mult: 1
      decay_mult: 1
    }
    param {
      lr_mult: 2
      decay_mult: 0
    }
    convolution_param {
      num_output: 80
      kernel_size: 1
      stride: 1
      weight_filler {
        type: "msra"
      }
      bias_filler {
        type: "constant"
      }
    }
  }
  layer {
    name: "stage0/block0/sum"
    type: "Eltwise"
    bottom: "stage0/block0/conv_restore"
    bottom: "stage0/block0/shortcut"
    top: "stage0/block0/sum"
    eltwise_param {
      operation: SUM
    }
  }
  layer {
    name: "stage0/block0/sum/nl"
    type: "ReLU"
    bottom: "stage0/block0/sum"
    top: "stage0/block0/sum"
  }
  layer {
    name: "stage0/block1/conv_reduce"
    type: "Convolution"
    bottom: "stage0/block0/sum"
    top: "stage0/block1/conv_reduce"
    param {
      lr_mult: 1
      decay_mult: 1
    }
    param {
      lr_mult: 2
      decay_mult: 0
    }
    convolution_param {
      num_output: 24
      kernel_size: 1
      stride: 1
      weight_filler {
        type: "msra"
      }
      bias_filler {
        type: "constant"
      }
    }
  }
  layer {
    name: "stage0/block1/conv_reduce/nl"
    type: "ReLU"
    bottom: "stage0/block1/conv_reduce"
    top: "stage0/block1/conv_reduce"
  }
  layer {
    name: "stage0/block1/conv"
    type: "Convolution"
    bottom: "stage0/block1/conv_reduce"
    top: "stage0/block1/conv"
    param {
      lr_mult: 1
      decay_mult: 1
    }
    param {
      lr_mult: 2
      decay_mult: 0
    }
    convolution_param {
      num_output: 24
      pad: 1
      kernel_size: 3
      stride: 1
      weight_filler {
        type: "msra"
      }
      bias_filler {
        type: "constant"
      }
    }
  }
  layer {
    name: "stage0/block1/conv/nl"
    type: "ReLU"
    bottom: "stage0/block1/conv"
    top: "stage0/block1/conv"
  }
  layer {
    name: "stage0/block1/conv_restore"
    type: "Convolution"
    bottom: "stage0/block1/conv"
    top: "stage0/block1/conv_restore"
    param {
      lr_mult: 1
      decay_mult: 1
    }
    param {
      lr_mult: 2
      decay_mult: 0
    }
    convolution_param {
      num_output: 80
      kernel_size: 1
      stride: 1
      weight_filler {
        type: "msra"
      }
      bias_filler {
        type: "constant"
      }
    }
  }
  layer {
    name: "stage0/block1/sum"
    type: "Eltwise"
    bottom: "stage0/block1/conv_restore"
    bottom: "stage0/block0/sum"
    top: "stage0/block1/sum"
    eltwise_param {
      operation: SUM
    }
  }
  layer {
    name: "stage0/block1/sum/nl"
    type: "ReLU"
    bottom: "stage0/block1/sum"
    top: "stage0/block1/sum"
  }
  layer {
    name: "stage0/block2/conv_reduce"
    type: "Convolution"
    bottom: "stage0/block1/sum"
    top: "stage0/block2/conv_reduce"
    param {
      lr_mult: 1
      decay_mult: 1
    }
    param {
      lr_mult: 2
      decay_mult: 0
    }
    convolution_param {
      num_output: 24
      kernel_size: 1
      stride: 1
      weight_filler {
        type: "msra"
      }
      bias_filler {
        type: "constant"
      }
    }
  }
  layer {
    name: "stage0/block2/conv_reduce/nl"
    type: "ReLU"
    bottom: "stage0/block2/conv_reduce"
    top: "stage0/block2/conv_reduce"
  }
  layer {
    name: "stage0/block2/conv"
    type: "Convolution"
    bottom: "stage0/block2/conv_reduce"
    top: "stage0/block2/conv"
    param {
      lr_mult: 1
      decay_mult: 1
    }
    param {
      lr_mult: 2
      decay_mult: 0
    }
    convolution_param {
      num_output: 24
      pad: 1
      kernel_size: 3
      stride: 1
      weight_filler {
        type: "msra"
      }
      bias_filler {
        type: "constant"
      }
    }
  }
  layer {
    name: "stage0/block2/conv/nl"
    type: "ReLU"
    bottom: "stage0/block2/conv"
    top: "stage0/block2/conv"
  }
  layer {
    name: "stage0/block2/conv_restore"
    type: "Convolution"
    bottom: "stage0/block2/conv"
    top: "stage0/block2/conv_restore"
    param {
      lr_mult: 1
      decay_mult: 1
    }
    param {
      lr_mult: 2
      decay_mult: 0
    }
    convolution_param {
      num_output: 80
      kernel_size: 1
      stride: 1
      weight_filler {
        type: "msra"
      }
      bias_filler {
        type: "constant"
      }
    }
  }
  layer {
    name: "stage0/block2/sum"
    type: "Eltwise"
    bottom: "stage0/block2/conv_restore"
    bottom: "stage0/block1/sum"
    top: "stage0/block2/sum"
    eltwise_param {
      operation: SUM
    }
  }
  layer {
    name: "stage0/block2/sum/nl"
    type: "ReLU"
    bottom: "stage0/block2/sum"
    top: "stage0/block2/sum"
  }
  layer {
    name: "stage1/block0/conv_reduce"
    type: "Convolution"
    bottom: "stage0/block2/sum"
    top: "stage1/block0/conv_reduce"
    param {
      lr_mult: 1
      decay_mult: 1
    }
    param {
      lr_mult: 2
      decay_mult: 0
    }
    convolution_param {
      num_output: 48
      kernel_size: 1
      stride: 1
      weight_filler {
        type: "msra"
      }
      bias_filler {
        type: "constant"
      }
    }
  }
  layer {
    name: "stage1/block0/conv_reduce/nl"
    type: "ReLU"
    bottom: "stage1/block0/conv_reduce"
    top: "stage1/block0/conv_reduce"
  }
  layer {
    name: "stage1/block0/conv"
    type: "Convolution"
    bottom: "stage1/block0/conv_reduce"
    top: "stage1/block0/conv"
    param {
      lr_mult: 1
      decay_mult: 1
    }
    param {
      lr_mult: 2
      decay_mult: 0
    }
    convolution_param {
      num_output: 48
      pad: 1
      kernel_size: 3
      stride: 2
      weight_filler {
        type: "msra"
      }
      bias_filler {
        type: "constant"
      }
    }
  }
  layer {
    name: "stage1/block0/conv/nl"
    type: "ReLU"
    bottom: "stage1/block0/conv"
    top: "stage1/block0/conv"
  }
  layer {
    name: "stage1/block0/conv_restore"
    type: "Convolution"
    bottom: "stage1/block0/conv"
    top: "stage1/block0/conv_restore"
    param {
      lr_mult: 1
      decay_mult: 1
    }
    param {
      lr_mult: 2
      decay_mult: 0
    }
    convolution_param {
      num_output: 160
      kernel_size: 1
      stride: 1
      weight_filler {
        type: "msra"
      }
      bias_filler {
        type: "constant"
      }
    }
  }
  layer {
    name: "stage1/block0/shortcut"
    type: "Convolution"
    bottom: "stage0/block2/sum"
    top: "stage1/block0/shortcut"
    param {
      lr_mult: 1
      decay_mult: 1
    }
    param {
      lr_mult: 2
      decay_mult: 0
    }
    convolution_param {
      num_output: 160
      kernel_size: 1
      stride: 2
      weight_filler {
        type: "msra"
      }
      bias_filler {
        type: "constant"
      }
    }
  }
  layer {
    name: "stage1/block0/sum"
    type: "Eltwise"
    bottom: "stage1/block0/conv_restore"
    bottom: "stage1/block0/shortcut"
    top: "stage1/block0/sum"
    eltwise_param {
      operation: SUM
    }
  }
  layer {
    name: "stage1/block0/sum/nl"
    type: "ReLU"
    bottom: "stage1/block0/sum"
    top: "stage1/block0/sum"
  }
  layer {
    name: "stage1/block1/conv_reduce"
    type: "Convolution"
    bottom: "stage1/block0/sum"
    top: "stage1/block1/conv_reduce"
    param {
      lr_mult: 1
      decay_mult: 1
    }
    param {
      lr_mult: 2
      decay_mult: 0
    }
    convolution_param {
      num_output: 48
      kernel_size: 1
      stride: 1
      weight_filler {
        type: "msra"
      }
      bias_filler {
        type: "constant"
      }
    }
  }
  layer {
    name: "stage1/block1/conv_reduce/nl"
    type: "ReLU"
    bottom: "stage1/block1/conv_reduce"
    top: "stage1/block1/conv_reduce"
  }
  layer {
    name: "stage1/block1/conv"
    type: "Convolution"
    bottom: "stage1/block1/conv_reduce"
    top: "stage1/block1/conv"
    param {
      lr_mult: 1
      decay_mult: 1
    }
    param {
      lr_mult: 2
      decay_mult: 0
    }
    convolution_param {
      num_output: 48
      pad: 1
      kernel_size: 3
      stride: 1
      weight_filler {
        type: "msra"
      }
      bias_filler {
        type: "constant"
      }
    }
  }
  layer {
    name: "stage1/block1/conv/nl"
    type: "ReLU"
    bottom: "stage1/block1/conv"
    top: "stage1/block1/conv"
  }
  layer {
    name: "stage1/block1/conv_restore"
    type: "Convolution"
    bottom: "stage1/block1/conv"
    top: "stage1/block1/conv_restore"
    param {
      lr_mult: 1
      decay_mult: 1
    }
    param {
      lr_mult: 2
      decay_mult: 0
    }
    convolution_param {
      num_output: 160
      kernel_size: 1
      stride: 1
      weight_filler {
        type: "msra"
      }
      bias_filler {
        type: "constant"
      }
    }
  }
  layer {
    name: "stage1/block1/sum"
    type: "Eltwise"
    bottom: "stage1/block1/conv_restore"
    bottom: "stage1/block0/sum"
    top: "stage1/block1/sum"
    eltwise_param {
      operation: SUM
    }
  }
  layer {
    name: "stage1/block1/sum/nl"
    type: "ReLU"
    bottom: "stage1/block1/sum"
    top: "stage1/block1/sum"
  }
  layer {
    name: "stage1/block2/conv_reduce"
    type: "Convolution"
    bottom: "stage1/block1/sum"
    top: "stage1/block2/conv_reduce"
    param {
      lr_mult: 1
      decay_mult: 1
    }
    param {
      lr_mult: 2
      decay_mult: 0
    }
    convolution_param {
      num_output: 48
      kernel_size: 1
      stride: 1
      weight_filler {
        type: "msra"
      }
      bias_filler {
        type: "constant"
      }
    }
  }
  layer {
    name: "stage1/block2/conv_reduce/nl"
    type: "ReLU"
    bottom: "stage1/block2/conv_reduce"
    top: "stage1/block2/conv_reduce"
  }
  layer {
    name: "stage1/block2/conv"
    type: "Convolution"
    bottom: "stage1/block2/conv_reduce"
    top: "stage1/block2/conv"
    param {
      lr_mult: 1
      decay_mult: 1
    }
    param {
      lr_mult: 2
      decay_mult: 0
    }
    convolution_param {
      num_output: 48
      pad: 1
      kernel_size: 3
      stride: 1
      weight_filler {
        type: "msra"
      }
      bias_filler {
        type: "constant"
      }
    }
  }
  layer {
    name: "stage1/block2/conv/nl"
    type: "ReLU"
    bottom: "stage1/block2/conv"
    top: "stage1/block2/conv"
  }
  layer {
    name: "stage1/block2/conv_restore"
    type: "Convolution"
    bottom: "stage1/block2/conv"
    top: "stage1/block2/conv_restore"
    param {
      lr_mult: 1
      decay_mult: 1
    }
    param {
      lr_mult: 2
      decay_mult: 0
    }
    convolution_param {
      num_output: 160
      kernel_size: 1
      stride: 1
      weight_filler {
        type: "msra"
      }
      bias_filler {
        type: "constant"
      }
    }
  }
  layer {
    name: "stage1/block2/sum"
    type: "Eltwise"
    bottom: "stage1/block2/conv_restore"
    bottom: "stage1/block1/sum"
    top: "stage1/block2/sum"
    eltwise_param {
      operation: SUM
    }
  }
  layer {
    name: "stage1/block2/sum/nl"
    type: "ReLU"
    bottom: "stage1/block2/sum"
    top: "stage1/block2/sum"
  }
  layer {
    name: "stage1/block3/conv_reduce"
    type: "Convolution"
    bottom: "stage1/block2/sum"
    top: "stage1/block3/conv_reduce"
    param {
      lr_mult: 1
      decay_mult: 1
    }
    param {
      lr_mult: 2
      decay_mult: 0
    }
    convolution_param {
      num_output: 48
      kernel_size: 1
      stride: 1
      weight_filler {
        type: "msra"
      }
      bias_filler {
        type: "constant"
      }
    }
  }
  layer {
    name: "stage1/block3/conv_reduce/nl"
    type: "ReLU"
    bottom: "stage1/block3/conv_reduce"
    top: "stage1/block3/conv_reduce"
  }
  layer {
    name: "stage1/block3/conv"
    type: "Convolution"
    bottom: "stage1/block3/conv_reduce"
    top: "stage1/block3/conv"
    param {
      lr_mult: 1
      decay_mult: 1
    }
    param {
      lr_mult: 2
      decay_mult: 0
    }
    convolution_param {
      num_output: 48
      pad: 1
      kernel_size: 3
      stride: 1
      weight_filler {
        type: "msra"
      }
      bias_filler {
        type: "constant"
      }
    }
  }
  layer {
    name: "stage1/block3/conv/nl"
    type: "ReLU"
    bottom: "stage1/block3/conv"
    top: "stage1/block3/conv"
  }
  layer {
    name: "stage1/block3/conv_restore"
    type: "Convolution"
    bottom: "stage1/block3/conv"
    top: "stage1/block3/conv_restore"
    param {
      lr_mult: 1
      decay_mult: 1
    }
    param {
      lr_mult: 2
      decay_mult: 0
    }
    convolution_param {
      num_output: 160
      kernel_size: 1
      stride: 1
      weight_filler {
        type: "msra"
      }
      bias_filler {
        type: "constant"
      }
    }
  }
  layer {
    name: "stage1/block3/sum"
    type: "Eltwise"
    bottom: "stage1/block3/conv_restore"
    bottom: "stage1/block2/sum"
    top: "stage1/block3/sum"
    eltwise_param {
      operation: SUM
    }
  }
  layer {
    name: "stage1/block3/sum/nl"
    type: "ReLU"
    bottom: "stage1/block3/sum"
    top: "stage1/block3/sum"
  }
  layer {
    name: "stage2/block0/conv_reduce"
    type: "Convolution"
    bottom: "stage1/block3/sum"
    top: "stage2/block0/conv_reduce"
    param {
      lr_mult: 1
      decay_mult: 1
    }
    param {
      lr_mult: 2
      decay_mult: 0
    }
    convolution_param {
      num_output: 72
      kernel_size: 1
      stride: 1
      weight_filler {
        type: "msra"
      }
      bias_filler {
        type: "constant"
      }
    }
  }
  layer {
    name: "stage2/block0/conv_reduce/nl"
    type: "ReLU"
    bottom: "stage2/block0/conv_reduce"
    top: "stage2/block0/conv_reduce"
  }
  layer {
    name: "stage2/block0/conv"
    type: "Convolution"
    bottom: "stage2/block0/conv_reduce"
    top: "stage2/block0/conv"
    param {
      lr_mult: 1
      decay_mult: 1
    }
    param {
      lr_mult: 2
      decay_mult: 0
    }
    convolution_param {
      num_output: 72
      pad: 1
      kernel_size: 3
      stride: 2
      weight_filler {
        type: "msra"
      }
      bias_filler {
        type: "constant"
      }
    }
  }
  layer {
    name: "stage2/block0/conv/nl"
    type: "ReLU"
    bottom: "stage2/block0/conv"
    top: "stage2/block0/conv"
  }
  layer {
    name: "stage2/block0/conv_restore"
    type: "Convolution"
    bottom: "stage2/block0/conv"
    top: "stage2/block0/conv_restore"
    param {
      lr_mult: 1
      decay_mult: 1
    }
    param {
      lr_mult: 2
      decay_mult: 0
    }
    convolution_param {
      num_output: 288
      kernel_size: 1
      stride: 1
      weight_filler {
        type: "msra"
      }
      bias_filler {
        type: "constant"
      }
    }
  }
  layer {
    name: "stage2/block0/shortcut"
    type: "Convolution"
    bottom: "stage1/block3/sum"
    top: "stage2/block0/shortcut"
    param {
      lr_mult: 1
      decay_mult: 1
    }
    param {
      lr_mult: 2
      decay_mult: 0
    }
    convolution_param {
      num_output: 288
      kernel_size: 1
      stride: 2
      weight_filler {
        type: "msra"
      }
      bias_filler {
        type: "constant"
      }
    }
  }
  layer {
    name: "stage2/block0/sum"
    type: "Eltwise"
    bottom: "stage2/block0/conv_restore"
    bottom: "stage2/block0/shortcut"
    top: "stage2/block0/sum"
    eltwise_param {
      operation: SUM
    }
  }
  layer {
    name: "stage2/block0/sum/nl"
    type: "ReLU"
    bottom: "stage2/block0/sum"
    top: "stage2/block0/sum"
  }
  layer {
    name: "stage2/block1/conv_reduce"
    type: "Convolution"
    bottom: "stage2/block0/sum"
    top: "stage2/block1/conv_reduce"
    param {
      lr_mult: 1
      decay_mult: 1
    }
    param {
      lr_mult: 2
      decay_mult: 0
    }
    convolution_param {
      num_output: 72
      kernel_size: 1
      stride: 1
      weight_filler {
        type: "msra"
      }
      bias_filler {
        type: "constant"
      }
    }
  }
  layer {
    name: "stage2/block1/conv_reduce/nl"
    type: "ReLU"
    bottom: "stage2/block1/conv_reduce"
    top: "stage2/block1/conv_reduce"
  }
  layer {
    name: "stage2/block1/conv"
    type: "Convolution"
    bottom: "stage2/block1/conv_reduce"
    top: "stage2/block1/conv"
    param {
      lr_mult: 1
      decay_mult: 1
    }
    param {
      lr_mult: 2
      decay_mult: 0
    }
    convolution_param {
      num_output: 72
      pad: 1
      kernel_size: 3
      stride: 1
      weight_filler {
        type: "msra"
      }
      bias_filler {
        type: "constant"
      }
    }
  }
  layer {
    name: "stage2/block1/conv/nl"
    type: "ReLU"
    bottom: "stage2/block1/conv"
    top: "stage2/block1/conv"
  }
  layer {
    name: "stage2/block1/conv_restore"
    type: "Convolution"
    bottom: "stage2/block1/conv"
    top: "stage2/block1/conv_restore"
    param {
      lr_mult: 1
      decay_mult: 1
    }
    param {
      lr_mult: 2
      decay_mult: 0
    }
    convolution_param {
      num_output: 288
      kernel_size: 1
      stride: 1
      weight_filler {
        type: "msra"
      }
      bias_filler {
        type: "constant"
      }
    }
  }
  layer {
    name: "stage2/block1/sum"
    type: "Eltwise"
    bottom: "stage2/block1/conv_restore"
    bottom: "stage2/block0/sum"
    top: "stage2/block1/sum"
    eltwise_param {
      operation: SUM
    }
  }
  layer {
    name: "stage2/block1/sum/nl"
    type: "ReLU"
    bottom: "stage2/block1/sum"
    top: "stage2/block1/sum"
  }
  layer {
    name: "stage2/block2/conv_reduce"
    type: "Convolution"
    bottom: "stage2/block1/sum"
    top: "stage2/block2/conv_reduce"
    param {
      lr_mult: 1
      decay_mult: 1
    }
    param {
      lr_mult: 2
      decay_mult: 0
    }
    convolution_param {
      num_output: 72
      kernel_size: 1
      stride: 1
      weight_filler {
        type: "msra"
      }
      bias_filler {
        type: "constant"
      }
    }
  }
  layer {
    name: "stage2/block2/conv_reduce/nl"
    type: "ReLU"
    bottom: "stage2/block2/conv_reduce"
    top: "stage2/block2/conv_reduce"
  }
  layer {
    name: "stage2/block2/conv"
    type: "Convolution"
    bottom: "stage2/block2/conv_reduce"
    top: "stage2/block2/conv"
    param {
      lr_mult: 1
      decay_mult: 1
    }
    param {
      lr_mult: 2
      decay_mult: 0
    }
    convolution_param {
      num_output: 72
      pad: 1
      kernel_size: 3
      stride: 1
      weight_filler {
        type: "msra"
      }
      bias_filler {
        type: "constant"
      }
    }
  }
  layer {
    name: "stage2/block2/conv/nl"
    type: "ReLU"
    bottom: "stage2/block2/conv"
    top: "stage2/block2/conv"
  }
  layer {
    name: "stage2/block2/conv_restore"
    type: "Convolution"
    bottom: "stage2/block2/conv"
    top: "stage2/block2/conv_restore"
    param {
      lr_mult: 1
      decay_mult: 1
    }
    param {
      lr_mult: 2
      decay_mult: 0
    }
    convolution_param {
      num_output: 288
      kernel_size: 1
      stride: 1
      weight_filler {
        type: "msra"
      }
      bias_filler {
        type: "constant"
      }
    }
  }
  layer {
    name: "stage2/block2/sum"
    type: "Eltwise"
    bottom: "stage2/block2/conv_restore"
    bottom: "stage2/block1/sum"
    top: "stage2/block2/sum"
    eltwise_param {
      operation: SUM
    }
  }
  layer {
    name: "stage2/block2/sum/nl"
    type: "ReLU"
    bottom: "stage2/block2/sum"
    top: "stage2/block2/sum"
  }
  layer {
    name: "stage2/block3/conv_reduce"
    type: "Convolution"
    bottom: "stage2/block2/sum"
    top: "stage2/block3/conv_reduce"
    param {
      lr_mult: 1
      decay_mult: 1
    }
    param {
      lr_mult: 2
      decay_mult: 0
    }
    convolution_param {
      num_output: 72
      kernel_size: 1
      stride: 1
      weight_filler {
        type: "msra"
      }
      bias_filler {
        type: "constant"
      }
    }
  }
  layer {
    name: "stage2/block3/conv_reduce/nl"
    type: "ReLU"
    bottom: "stage2/block3/conv_reduce"
    top: "stage2/block3/conv_reduce"
  }
  layer {
    name: "stage2/block3/conv"
    type: "Convolution"
    bottom: "stage2/block3/conv_reduce"
    top: "stage2/block3/conv"
    param {
      lr_mult: 1
      decay_mult: 1
    }
    param {
      lr_mult: 2
      decay_mult: 0
    }
    convolution_param {
      num_output: 72
      pad: 1
      kernel_size: 3
      stride: 1
      weight_filler {
        type: "msra"
      }
      bias_filler {
        type: "constant"
      }
    }
  }
  layer {
    name: "stage2/block3/conv/nl"
    type: "ReLU"
    bottom: "stage2/block3/conv"
    top: "stage2/block3/conv"
  }
  layer {
    name: "stage2/block3/conv_restore"
    type: "Convolution"
    bottom: "stage2/block3/conv"
    top: "stage2/block3/conv_restore"
    param {
      lr_mult: 1
      decay_mult: 1
    }
    param {
      lr_mult: 2
      decay_mult: 0
    }
    convolution_param {
      num_output: 288
      kernel_size: 1
      stride: 1
      weight_filler {
        type: "msra"
      }
      bias_filler {
        type: "constant"
      }
    }
  }
  layer {
    name: "stage2/block3/sum"
    type: "Eltwise"
    bottom: "stage2/block3/conv_restore"
    bottom: "stage2/block2/sum"
    top: "stage2/block3/sum"
    eltwise_param {
      operation: SUM
    }
  }
  layer {
    name: "stage2/block3/sum/nl"
    type: "ReLU"
    bottom: "stage2/block3/sum"
    top: "stage2/block3/sum"
  }
  layer {
    name: "stage2/block4/conv_reduce"
    type: "Convolution"
    bottom: "stage2/block3/sum"
    top: "stage2/block4/conv_reduce"
    param {
      lr_mult: 1
      decay_mult: 1
    }
    param {
      lr_mult: 2
      decay_mult: 0
    }
    convolution_param {
      num_output: 72
      kernel_size: 1
      stride: 1
      weight_filler {
        type: "msra"
      }
      bias_filler {
        type: "constant"
      }
    }
  }
  layer {
    name: "stage2/block4/conv_reduce/nl"
    type: "ReLU"
    bottom: "stage2/block4/conv_reduce"
    top: "stage2/block4/conv_reduce"
  }
  layer {
    name: "stage2/block4/conv"
    type: "Convolution"
    bottom: "stage2/block4/conv_reduce"
    top: "stage2/block4/conv"
    param {
      lr_mult: 1
      decay_mult: 1
    }
    param {
      lr_mult: 2
      decay_mult: 0
    }
    convolution_param {
      num_output: 72
      pad: 1
      kernel_size: 3
      stride: 1
      weight_filler {
        type: "msra"
      }
      bias_filler {
        type: "constant"
      }
    }
  }
  layer {
    name: "stage2/block4/conv/nl"
    type: "ReLU"
    bottom: "stage2/block4/conv"
    top: "stage2/block4/conv"
  }
  layer {
    name: "stage2/block4/conv_restore"
    type: "Convolution"
    bottom: "stage2/block4/conv"
    top: "stage2/block4/conv_restore"
    param {
      lr_mult: 1
      decay_mult: 1
    }
    param {
      lr_mult: 2
      decay_mult: 0
    }
    convolution_param {
      num_output: 288
      kernel_size: 1
      stride: 1
      weight_filler {
        type: "msra"
      }
      bias_filler {
        type: "constant"
      }
    }
  }
  layer {
    name: "stage2/block4/sum"
    type: "Eltwise"
    bottom: "stage2/block4/conv_restore"
    bottom: "stage2/block3/sum"
    top: "stage2/block4/sum"
    eltwise_param {
      operation: SUM
    }
  }
  layer {
    name: "stage2/block4/sum/nl"
    type: "ReLU"
    bottom: "stage2/block4/sum"
    top: "stage2/block4/sum"
  }
  layer {
    name: "stage2/block5/conv_reduce"
    type: "Convolution"
    bottom: "stage2/block4/sum"
    top: "stage2/block5/conv_reduce"
    param {
      lr_mult: 1
      decay_mult: 1
    }
    param {
      lr_mult: 2
      decay_mult: 0
    }
    convolution_param {
      num_output: 72
      kernel_size: 1
      stride: 1
      weight_filler {
        type: "msra"
      }
      bias_filler {
        type: "constant"
      }
    }
  }
  layer {
    name: "stage2/block5/conv_reduce/nl"
    type: "ReLU"
    bottom: "stage2/block5/conv_reduce"
    top: "stage2/block5/conv_reduce"
  }
  layer {
    name: "stage2/block5/conv"
    type: "Convolution"
    bottom: "stage2/block5/conv_reduce"
    top: "stage2/block5/conv"
    param {
      lr_mult: 1
      decay_mult: 1
    }
    param {
      lr_mult: 2
      decay_mult: 0
    }
    convolution_param {
      num_output: 72
      pad: 1
      kernel_size: 3
      stride: 1
      weight_filler {
        type: "msra"
      }
      bias_filler {
        type: "constant"
      }
    }
  }
  layer {
    name: "stage2/block5/conv/nl"
    type: "ReLU"
    bottom: "stage2/block5/conv"
    top: "stage2/block5/conv"
  }
  layer {
    name: "stage2/block5/conv_restore"
    type: "Convolution"
    bottom: "stage2/block5/conv"
    top: "stage2/block5/conv_restore"
    param {
      lr_mult: 1
      decay_mult: 1
    }
    param {
      lr_mult: 2
      decay_mult: 0
    }
    convolution_param {
      num_output: 288
      kernel_size: 1
      stride: 1
      weight_filler {
        type: "msra"
      }
      bias_filler {
        type: "constant"
      }
    }
  }
  layer {
    name: "stage2/block5/sum"
    type: "Eltwise"
    bottom: "stage2/block5/conv_restore"
    bottom: "stage2/block4/sum"
    top: "stage2/block5/sum"
    eltwise_param {
      operation: SUM
    }
  }
  layer {
    name: "stage2/block5/sum/nl"
    type: "ReLU"
    bottom: "stage2/block5/sum"
    top: "stage2/block5/sum"
  }
  layer {
    name: "stage2/block6/conv_reduce"
    type: "Convolution"
    bottom: "stage2/block5/sum"
    top: "stage2/block6/conv_reduce"
    param {
      lr_mult: 1
      decay_mult: 1
    }
    param {
      lr_mult: 2
      decay_mult: 0
    }
    convolution_param {
      num_output: 72
      kernel_size: 1
      stride: 1
      weight_filler {
        type: "msra"
      }
      bias_filler {
        type: "constant"
      }
    }
  }
  layer {
    name: "stage2/block6/conv_reduce/nl"
    type: "ReLU"
    bottom: "stage2/block6/conv_reduce"
    top: "stage2/block6/conv_reduce"
  }
  layer {
    name
I1229 10:55:07.402631  3137 solver.cpp:86] Creating training net specified in net_param.
I1229 10:55:07.403184  3137 net.cpp:322] The NetState phase (0) differed from the phase (1) specified by a rule in layer data
I1229 10:55:07.403317  3137 net.cpp:322] The NetState phase (0) differed from the phase (1) specified by a rule in layer acc
I1229 10:55:07.403321  3137 net.cpp:322] The NetState phase (0) differed from the phase (1) specified by a rule in layer loss/top-5
I1229 10:55:07.404317  3137 net.cpp:49] Initializing net from parameters: 
name: "ThinResNet-101"
state {
  phase: TRAIN
}
layer {
  name: "data"
  type: "Data"
  top: "data"
  top: "label"
  include {
    phase: TRAIN
  }
  transform_param {
    scale: 0.04
    mirror: true
    crop_size: 120
    mean_value: 104
    mean_value: 117
    mean_value: 124
    force_color: true
    resize_param {
      prob: 1
      resize_mode: FIT_SMALL_SIZE
      height: 144
      width: 144
      pad_mode: MIRRORED
      pad_value: 104
      pad_value: 117
      pad_value: 124
      interp_mode: CUBIC
      center_object: false
      max_angle: 0
    }
  }
  data_param {
    source: "/home/share/storage/datasets/imagenet/lmdb/ilsvrc12_train_lmdb"
    batch_size: 64
    backend: LMDB
  }
}
layer {
  name: "conv0"
  type: "Convolution"
  bottom: "data"
  top: "conv0"
  param {
    lr_mult: 1
    decay_mult: 1
  }
  param {
    lr_mult: 2
    decay_mult: 0
  }
  convolution_param {
    num_output: 96
    kernel_size: 11
    stride: 2
    weight_filler {
      type: "msra"
    }
    bias_filler {
      type: "constant"
    }
  }
}
layer {
  name: "conv0/nl"
  type: "ReLU"
  bottom: "conv0"
  top: "conv0"
}
layer {
  name: "pool0"
  type: "Pooling"
  bottom: "conv0"
  top: "pool0"
  pooling_param {
    pool: MAX
    kernel_size: 3
    stride: 2
    pad: 1
  }
}
layer {
  name: "stage0/block0/conv_reduce"
  type: "Convolution"
  bottom: "pool0"
  top: "stage0/block0/conv_reduce"
  param {
    lr_mult: 1
    decay_mult: 1
  }
  param {
    lr_mult: 2
    decay_mult: 0
  }
  convolution_param {
    num_output: 24
    kernel_size: 1
    stride: 1
    weight_filler {
      type: "msra"
    }
    bias_filler {
      type: "constant"
    }
  }
}
layer {
  name: "stage0/block0/conv_reduce/nl"
  type: "ReLU"
  bottom: "stage0/block0/conv_reduce"
  top: "stage0/block0/conv_reduce"
}
layer {
  name: "stage0/block0/conv"
  type: "Convolution"
  bottom: "stage0/block0/conv_reduce"
  top: "stage0/block0/conv"
  param {
    lr_mult: 1
    decay_mult: 1
  }
  param {
    lr_mult: 2
    decay_mult: 0
  }
  convolution_param {
    num_output: 24
    pad: 1
    kernel_size: 3
    stride: 1
    weight_filler {
      type: "msra"
    }
    bias_filler {
      type: "constant"
    }
  }
}
layer {
  name: "stage0/block0/conv/nl"
  type: "ReLU"
  bottom: "stage0/block0/conv"
  top: "stage0/block0/conv"
}
layer {
  name: "stage0/block0/conv_restore"
  type: "Convolution"
  bottom: "stage0/block0/conv"
  top: "stage0/block0/conv_restore"
  param {
    lr_mult: 1
    decay_mult: 1
  }
  param {
    lr_mult: 2
    decay_mult: 0
  }
  convolution_param {
    num_output: 80
    kernel_size: 1
    stride: 1
    weight_filler {
      type: "msra"
    }
    bias_filler {
      type: "constant"
    }
  }
}
layer {
  name: "stage0/block0/shortcut"
  type: "Convolution"
  bottom: "pool0"
  top: "stage0/block0/shortcut"
  param {
    lr_mult: 1
    decay_mult: 1
  }
  param {
    lr_mult: 2
    decay_mult: 0
  }
  convolution_param {
    num_output: 80
    kernel_size: 1
    stride: 1
    weight_filler {
      type: "msra"
    }
    bias_filler {
      type: "constant"
    }
  }
}
layer {
  name: "stage0/block0/sum"
  type: "Eltwise"
  bottom: "stage0/block0/conv_restore"
  bottom: "stage0/block0/shortcut"
  top: "stage0/block0/sum"
  eltwise_param {
    operation: SUM
  }
}
layer {
  name: "stage0/block0/sum/nl"
  type: "ReLU"
  bottom: "stage0/block0/sum"
  top: "stage0/block0/sum"
}
layer {
  name: "stage0/block1/conv_reduce"
  type: "Convolution"
  bottom: "stage0/block0/sum"
  top: "stage0/block1/conv_reduce"
  param {
    lr_mult: 1
    decay_mult: 1
  }
  param {
    lr_mult: 2
    decay_mult: 0
  }
  convolution_param {
    num_output: 24
    kernel_size: 1
    stride: 1
    weight_filler {
      type: "msra"
    }
    bias_filler {
      type: "constant"
    }
  }
}
layer {
  name: "stage0/block1/conv_reduce/nl"
  type: "ReLU"
  bottom: "stage0/block1/conv_reduce"
  top: "stage0/block1/conv_reduce"
}
layer {
  name: "stage0/block1/conv"
  type: "Convolution"
  bottom: "stage0/block1/conv_reduce"
  top: "stage0/block1/conv"
  param {
    lr_mult: 1
    decay_mult: 1
  }
  param {
    lr_mult: 2
    decay_mult: 0
  }
  convolution_param {
    num_output: 24
    pad: 1
    kernel_size: 3
    stride: 1
    weight_filler {
      type: "msra"
    }
    bias_filler {
      type: "constant"
    }
  }
}
layer {
  name: "stage0/block1/conv/nl"
  type: "ReLU"
  bottom: "stage0/block1/conv"
  top: "stage0/block1/conv"
}
layer {
  name: "stage0/block1/conv_restore"
  type: "Convolution"
  bottom: "stage0/block1/conv"
  top: "stage0/block1/conv_restore"
  param {
    lr_mult: 1
    decay_mult: 1
  }
  param {
    lr_mult: 2
    decay_mult: 0
  }
  convolution_param {
    num_output: 80
    kernel_size: 1
    stride: 1
    weight_filler {
      type: "msra"
    }
    bias_filler {
      type: "constant"
    }
  }
}
layer {
  name: "stage0/block1/sum"
  type: "Eltwise"
  bottom: "stage0/block1/conv_restore"
  bottom: "stage0/block0/sum"
  top: "stage0/block1/sum"
  eltwise_param {
    operation: SUM
  }
}
layer {
  name: "stage0/block1/sum/nl"
  type: "ReLU"
  bottom: "stage0/block1/sum"
  top: "stage0/block1/sum"
}
layer {
  name: "stage0/block2/conv_reduce"
  type: "Convolution"
  bottom: "stage0/block1/sum"
  top: "stage0/block2/conv_reduce"
  param {
    lr_mult: 1
    decay_mult: 1
  }
  param {
    lr_mult: 2
    decay_mult: 0
  }
  convolution_param {
    num_output: 24
    kernel_size: 1
    stride: 1
    weight_filler {
      type: "msra"
    }
    bias_filler {
      type: "constant"
    }
  }
}
layer {
  name: "stage0/block2/conv_reduce/nl"
  type: "ReLU"
  bottom: "stage0/block2/conv_reduce"
  top: "stage0/block2/conv_reduce"
}
layer {
  name: "stage0/block2/conv"
  type: "Convolution"
  bottom: "stage0/block2/conv_reduce"
  top: "stage0/block2/conv"
  param {
    lr_mult: 1
    decay_mult: 1
  }
  param {
    lr_mult: 2
    decay_mult: 0
  }
  convolution_param {
    num_output: 24
    pad: 1
    kernel_size: 3
    stride: 1
    weight_filler {
      type: "msra"
    }
    bias_filler {
      type: "constant"
    }
  }
}
layer {
  name: "stage0/block2/conv/nl"
  type: "ReLU"
  bottom: "stage0/block2/conv"
  top: "stage0/block2/conv"
}
layer {
  name: "stage0/block2/conv_restore"
  type: "Convolution"
  bottom: "stage0/block2/conv"
  top: "stage0/block2/conv_restore"
  param {
    lr_mult: 1
    decay_mult: 1
  }
  param {
    lr_mult: 2
    decay_mult: 0
  }
  convolution_param {
    num_output: 80
    kernel_size: 1
    stride: 1
    weight_filler {
      type: "msra"
    }
    bias_filler {
      type: "constant"
    }
  }
}
layer {
  name: "stage0/block2/sum"
  type: "Eltwise"
  bottom: "stage0/block2/conv_restore"
  bottom: "stage0/block1/sum"
  top: "stage0/block2/sum"
  eltwise_param {
    operation: SUM
  }
}
layer {
  name: "stage0/block2/sum/nl"
  type: "ReLU"
  bottom: "stage0/block2/sum"
  top: "stage0/block2/sum"
}
layer {
  name: "stage1/block0/conv_reduce"
  type: "Convolution"
  bottom: "stage0/block2/sum"
  top: "stage1/block0/conv_reduce"
  param {
    lr_mult: 1
    decay_mult: 1
  }
  param {
    lr_mult: 2
    decay_mult: 0
  }
  convolution_param {
    num_output: 48
    kernel_size: 1
    stride: 1
    weight_filler {
      type: "msra"
    }
    bias_filler {
      type: "constant"
    }
  }
}
layer {
  name: "stage1/block0/conv_reduce/nl"
  type: "ReLU"
  bottom: "stage1/block0/conv_reduce"
  top: "stage1/block0/conv_reduce"
}
layer {
  name: "stage1/block0/conv"
  type: "Convolution"
  bottom: "stage1/block0/conv_reduce"
  top: "stage1/block0/conv"
  param {
    lr_mult: 1
    decay_mult: 1
  }
  param {
    lr_mult: 2
    decay_mult: 0
  }
  convolution_param {
    num_output: 48
    pad: 1
    kernel_size: 3
    stride: 2
    weight_filler {
      type: "msra"
    }
    bias_filler {
      type: "constant"
    }
  }
}
layer {
  name: "stage1/block0/conv/nl"
  type: "ReLU"
  bottom: "stage1/block0/conv"
  top: "stage1/block0/conv"
}
layer {
  name: "stage1/block0/conv_restore"
  type: "Convolution"
  bottom: "stage1/block0/conv"
  top: "stage1/block0/conv_restore"
  param {
    lr_mult: 1
    decay_mult: 1
  }
  param {
    lr_mult: 2
    decay_mult: 0
  }
  convolution_param {
    num_output: 160
    kernel_size: 1
    stride: 1
    weight_filler {
      type: "msra"
    }
    bias_filler {
      type: "constant"
    }
  }
}
layer {
  name: "stage1/block0/shortcut"
  type: "Convolution"
  bottom: "stage0/block2/sum"
  top: "stage1/block0/shortcut"
  param {
    lr_mult: 1
    decay_mult: 1
  }
  param {
    lr_mult: 2
    decay_mult: 0
  }
  convolution_param {
    num_output: 160
    kernel_size: 1
    stride: 2
    weight_filler {
      type: "msra"
    }
    bias_filler {
      type: "constant"
    }
  }
}
layer {
  name: "stage1/block0/sum"
  type: "Eltwise"
  bottom: "stage1/block0/conv_restore"
  bottom: "stage1/block0/shortcut"
  top: "stage1/block0/sum"
  eltwise_param {
    operation: SUM
  }
}
layer {
  name: "stage1/block0/sum/nl"
  type: "ReLU"
  bottom: "stage1/block0/sum"
  top: "stage1/block0/sum"
}
layer {
  name: "stage1/block1/conv_reduce"
  type: "Convolution"
  bottom: "stage1/block0/sum"
  top: "stage1/block1/conv_reduce"
  param {
    lr_mult: 1
    decay_mult: 1
  }
  param {
    lr_mult: 2
    decay_mult: 0
  }
  convolution_param {
    num_output: 48
    kernel_size: 1
    stride: 1
    weight_filler {
      type: "msra"
    }
    bias_filler {
      type: "constant"
    }
  }
}
layer {
  name: "stage1/block1/conv_reduce/nl"
  type: "ReLU"
  bottom: "stage1/block1/conv_reduce"
  top: "stage1/block1/conv_reduce"
}
layer {
  name: "stage1/block1/conv"
  type: "Convolution"
  bottom: "stage1/block1/conv_reduce"
  top: "stage1/block1/conv"
  param {
    lr_mult: 1
    decay_mult: 1
  }
  param {
    lr_mult: 2
    decay_mult: 0
  }
  convolution_param {
    num_output: 48
    pad: 1
    kernel_size: 3
    stride: 1
    weight_filler {
      type: "msra"
    }
    bias_filler {
      type: "constant"
    }
  }
}
layer {
  name: "stage1/block1/conv/nl"
  type: "ReLU"
  bottom: "stage1/block1/conv"
  top: "stage1/block1/conv"
}
layer {
  name: "stage1/block1/conv_restore"
  type: "Convolution"
  bottom: "stage1/block1/conv"
  top: "stage1/block1/conv_restore"
  param {
    lr_mult: 1
    decay_mult: 1
  }
  param {
    lr_mult: 2
    decay_mult: 0
  }
  convolution_param {
    num_output: 160
    kernel_size: 1
    stride: 1
    weight_filler {
      type: "msra"
    }
    bias_filler {
      type: "constant"
    }
  }
}
layer {
  name: "stage1/block1/sum"
  type: "Eltwise"
  bottom: "stage1/block1/conv_restore"
  bottom: "stage1/block0/sum"
  top: "stage1/block1/sum"
  eltwise_param {
    operation: SUM
  }
}
layer {
  name: "stage1/block1/sum/nl"
  type: "ReLU"
  bottom: "stage1/block1/sum"
  top: "stage1/block1/sum"
}
layer {
  name: "stage1/block2/conv_reduce"
  type: "Convolution"
  bottom: "stage1/block1/sum"
  top: "stage1/block2/conv_reduce"
  param {
    lr_mult: 1
    decay_mult: 1
  }
  param {
    lr_mult: 2
    decay_mult: 0
  }
  convolution_param {
    num_output: 48
    kernel_size: 1
    stride: 1
    weight_filler {
      type: "msra"
    }
    bias_filler {
      type: "constant"
    }
  }
}
layer {
  name: "stage1/block2/conv_reduce/nl"
  type: "ReLU"
  bottom: "stage1/block2/conv_reduce"
  top: "stage1/block2/conv_reduce"
}
layer {
  name: "stage1/block2/conv"
  type: "Convolution"
  bottom: "stage1/block2/conv_reduce"
  top: "stage1/block2/conv"
  param {
    lr_mult: 1
    decay_mult: 1
  }
  param {
    lr_mult: 2
    decay_mult: 0
  }
  convolution_param {
    num_output: 48
    pad: 1
    kernel_size: 3
    stride: 1
    weight_filler {
      type: "msra"
    }
    bias_filler {
      type: "constant"
    }
  }
}
layer {
  name: "stage1/block2/conv/nl"
  type: "ReLU"
  bottom: "stage1/block2/conv"
  top: "stage1/block2/conv"
}
layer {
  name: "stage1/block2/conv_restore"
  type: "Convolution"
  bottom: "stage1/block2/conv"
  top: "stage1/block2/conv_restore"
  param {
    lr_mult: 1
    decay_mult: 1
  }
  param {
    lr_mult: 2
    decay_mult: 0
  }
  convolution_param {
    num_output: 160
    kernel_size: 1
    stride: 1
    weight_filler {
      type: "msra"
    }
    bias_filler {
      type: "constant"
    }
  }
}
layer {
  name: "stage1/block2/sum"
  type: "Eltwise"
  bottom: "stage1/block2/conv_restore"
  bottom: "stage1/block1/sum"
  top: "stage1/block2/sum"
  eltwise_param {
    operation: SUM
  }
}
layer {
  name: "stage1/block2/sum/nl"
  type: "ReLU"
  bottom: "stage1/block2/sum"
  top: "stage1/block2/sum"
}
layer {
  name: "stage1/block3/conv_reduce"
  type: "Convolution"
  bottom: "stage1/block2/sum"
  top: "stage1/block3/conv_reduce"
  param {
    lr_mult: 1
    decay_mult: 1
  }
  param {
    lr_mult: 2
    decay_mult: 0
  }
  convolution_param {
    num_output: 48
    kernel_size: 1
    stride: 1
    weight_filler {
      type: "msra"
    }
    bias_filler {
      type: "constant"
    }
  }
}
layer {
  name: "stage1/block3/conv_reduce/nl"
  type: "ReLU"
  bottom: "stage1/block3/conv_reduce"
  top: "stage1/block3/conv_reduce"
}
layer {
  name: "stage1/block3/conv"
  type: "Convolution"
  bottom: "stage1/block3/conv_reduce"
  top: "stage1/block3/conv"
  param {
    lr_mult: 1
    decay_mult: 1
  }
  param {
    lr_mult: 2
    decay_mult: 0
  }
  convolution_param {
    num_output: 48
    pad: 1
    kernel_size: 3
    stride: 1
    weight_filler {
      type: "msra"
    }
    bias_filler {
      type: "constant"
    }
  }
}
layer {
  name: "stage1/block3/conv/nl"
  type: "ReLU"
  bottom: "stage1/block3/conv"
  top: "stage1/block3/conv"
}
layer {
  name: "stage1/block3/conv_restore"
  type: "Convolution"
  bottom: "stage1/block3/conv"
  top: "stage1/block3/conv_restore"
  param {
    lr_mult: 1
    decay_mult: 1
  }
  param {
    lr_mult: 2
    decay_mult: 0
  }
  convolution_param {
    num_output: 160
    kernel_size: 1
    stride: 1
    weight_filler {
      type: "msra"
    }
    bias_filler {
      type: "constant"
    }
  }
}
layer {
  name: "stage1/block3/sum"
  type: "Eltwise"
  bottom: "stage1/block3/conv_restore"
  bottom: "stage1/block2/sum"
  top: "stage1/block3/sum"
  eltwise_param {
    operation: SUM
  }
}
layer {
  name: "stage1/block3/sum/nl"
  type: "ReLU"
  bottom: "stage1/block3/sum"
  top: "stage1/block3/sum"
}
layer {
  name: "stage2/block0/conv_reduce"
  type: "Convolution"
  bottom: "stage1/block3/sum"
  top: "stage2/block0/conv_reduce"
  param {
    lr_mult: 1
    decay_mult: 1
  }
  param {
    lr_mult: 2
    decay_mult: 0
  }
  convolution_param {
    num_output: 72
    kernel_size: 1
    stride: 1
    weight_filler {
      type: "msra"
    }
    bias_filler {
      type: "constant"
    }
  }
}
layer {
  name: "stage2/block0/conv_reduce/nl"
  type: "ReLU"
  bottom: "stage2/block0/conv_reduce"
  top: "stage2/block0/conv_reduce"
}
layer {
  name: "stage2/block0/conv"
  type: "Convolution"
  bottom: "stage2/block0/conv_reduce"
  top: "stage2/block0/conv"
  param {
    lr_mult: 1
    decay_mult: 1
  }
  param {
    lr_mult: 2
    decay_mult: 0
  }
  convolution_param {
    num_output: 72
    pad: 1
    kernel_size: 3
    stride: 2
    weight_filler {
      type: "msra"
    }
    bias_filler {
      type: "constant"
    }
  }
}
layer {
  name: "stage2/block0/conv/nl"
  type: "ReLU"
  bottom: "stage2/block0/conv"
  top: "stage2/block0/conv"
}
layer {
  name: "stage2/block0/conv_restore"
  type: "Convolution"
  bottom: "stage2/block0/conv"
  top: "stage2/block0/conv_restore"
  param {
    lr_mult: 1
    decay_mult: 1
  }
  param {
    lr_mult: 2
    decay_mult: 0
  }
  convolution_param {
    num_output: 288
    kernel_size: 1
    stride: 1
    weight_filler {
      type: "msra"
    }
    bias_filler {
      type: "constant"
    }
  }
}
layer {
  name: "stage2/block0/shortcut"
  type: "Convolution"
  bottom: "stage1/block3/sum"
  top: "stage2/block0/shortcut"
  param {
    lr_mult: 1
    decay_mult: 1
  }
  param {
    lr_mult: 2
    decay_mult: 0
  }
  convolution_param {
    num_output: 288
    kernel_size: 1
    stride: 2
    weight_filler {
      type: "msra"
    }
    bias_filler {
      type: "constant"
    }
  }
}
layer {
  name: "stage2/block0/sum"
  type: "Eltwise"
  bottom: "stage2/block0/conv_restore"
  bottom: "stage2/block0/shortcut"
  top: "stage2/block0/sum"
  eltwise_param {
    operation: SUM
  }
}
layer {
  name: "stage2/block0/sum/nl"
  type: "ReLU"
  bottom: "stage2/block0/sum"
  top: "stage2/block0/sum"
}
layer {
  name: "stage2/block1/conv_reduce"
  type: "Convolution"
  bottom: "stage2/block0/sum"
  top: "stage2/block1/conv_reduce"
  param {
    lr_mult: 1
    decay_mult: 1
  }
  param {
    lr_mult: 2
    decay_mult: 0
  }
  convolution_param {
    num_output: 72
    kernel_size: 1
    stride: 1
    weight_filler {
      type: "msra"
    }
    bias_filler {
      type: "constant"
    }
  }
}
layer {
  name: "stage2/block1/conv_reduce/nl"
  type: "ReLU"
  bottom: "stage2/block1/conv_reduce"
  top: "stage2/block1/conv_reduce"
}
layer {
  name: "stage2/block1/conv"
  type: "Convolution"
  bottom: "stage2/block1/conv_reduce"
  top: "stage2/block1/conv"
  param {
    lr_mult: 1
    decay_mult: 1
  }
  param {
    lr_mult: 2
    decay_mult: 0
  }
  convolution_param {
    num_output: 72
    pad: 1
    kernel_size: 3
    stride: 1
    weight_filler {
      type: "msra"
    }
    bias_filler {
      type: "constant"
    }
  }
}
layer {
  name: "stage2/block1/conv/nl"
  type: "ReLU"
  bottom: "stage2/block1/conv"
  top: "stage2/block1/conv"
}
layer {
  name: "stage2/block1/conv_restore"
  type: "Convolution"
  bottom: "stage2/block1/conv"
  top: "stage2/block1/conv_restore"
  param {
    lr_mult: 1
    decay_mult: 1
  }
  param {
    lr_mult: 2
    decay_mult: 0
  }
  convolution_param {
    num_output: 288
    kernel_size: 1
    stride: 1
    weight_filler {
      type: "msra"
    }
    bias_filler {
      type: "constant"
    }
  }
}
layer {
  name: "stage2/block1/sum"
  type: "Eltwise"
  bottom: "stage2/block1/conv_restore"
  bottom: "stage2/block0/sum"
  top: "stage2/block1/sum"
  eltwise_param {
    operation: SUM
  }
}
layer {
  name: "stage2/block1/sum/nl"
  type: "ReLU"
  bottom: "stage2/block1/sum"
  top: "stage2/block1/sum"
}
layer {
  name: "stage2/block2/conv_reduce"
  type: "Convolution"
  bottom: "stage2/block1/sum"
  top: "stage2/block2/conv_reduce"
  param {
    lr_mult: 1
    decay_mult: 1
  }
  param {
    lr_mult: 2
    decay_mult: 0
  }
  convolution_param {
    num_output: 72
    kernel_size: 1
    stride: 1
    weight_filler {
      type: "msra"
    }
    bias_filler {
      type: "constant"
    }
  }
}
layer {
  name: "stage2/block2/conv_reduce/nl"
  type: "ReLU"
  bottom: "stage2/block2/conv_reduce"
  top: "stage2/block2/conv_reduce"
}
layer {
  name: "stage2/block2/conv"
  type: "Convolution"
  bottom: "stage2/block2/conv_reduce"
  top: "stage2/block2/conv"
  param {
    lr_mult: 1
    decay_mult: 1
  }
  param {
    lr_mult: 2
    decay_mult: 0
  }
  convolution_param {
    num_output: 72
    pad: 1
    kernel_size: 3
    stride: 1
    weight_filler {
      type: "msra"
    }
    bias_filler {
      type: "constant"
    }
  }
}
layer {
  name: "stage2/block2/conv/nl"
  type: "ReLU"
  bottom: "stage2/block2/conv"
  top: "stage2/block2/conv"
}
layer {
  name: "stage2/block2/conv_restore"
  type: "Convolution"
  bottom: "stage2/block2/conv"
  top: "stage2/block2/conv_restore"
  param {
    lr_mult: 1
    decay_mult: 1
  }
  param {
    lr_mult: 2
    decay_mult: 0
  }
  convolution_param {
    num_output: 288
    kernel_size: 1
    stride: 1
    weight_filler {
      type: "msra"
    }
    bias_filler {
      type: "constant"
    }
  }
}
layer {
  name: "stage2/block2/sum"
  type: "Eltwise"
  bottom: "stage2/block2/conv_restore"
  bottom: "stage2/block1/sum"
  top: "stage2/block2/sum"
  eltwise_param {
    operation: SUM
  }
}
layer {
  name: "stage2/block2/sum/nl"
  type: "ReLU"
  bottom: "stage2/block2/sum"
  top: "stage2/block2/sum"
}
layer {
  name: "stage2/block3/conv_reduce"
  type: "Convolution"
  bottom: "stage2/block2/sum"
  top: "stage2/block3/conv_reduce"
  param {
    lr_mult: 1
    decay_mult: 1
  }
  param {
    lr_mult: 2
    decay_mult: 0
  }
  convolution_param {
    num_output: 72
    kernel_size: 1
    stride: 1
    weight_filler {
      type: "msra"
    }
    bias_filler {
      type: "constant"
    }
  }
}
layer {
  name: "stage2/block3/conv_reduce/nl"
  type: "ReLU"
  bottom: "stage2/block3/conv_reduce"
  top: "stage2/block3/conv_reduce"
}
layer {
  name: "stage2/block3/conv"
  type: "Convolution"
  bottom: "stage2/block3/conv_reduce"
  top: "stage2/block3/conv"
  param {
    lr_mult: 1
    decay_mult: 1
  }
  param {
    lr_mult: 2
    decay_mult: 0
  }
  convolution_param {
    num_output: 72
    pad: 1
    kernel_size: 3
    stride: 1
    weight_filler {
      type: "msra"
    }
    bias_filler {
      type: "constant"
    }
  }
}
layer {
  name: "stage2/block3/conv/nl"
  type: "ReLU"
  bottom: "stage2/block3/conv"
  top: "stage2/block3/conv"
}
layer {
  name: "stage2/block3/conv_restore"
  type: "Convolution"
  bottom: "stage2/block3/conv"
  top: "stage2/block3/conv_restore"
  param {
    lr_mult: 1
    decay_mult: 1
  }
  param {
    lr_mult: 2
    decay_mult: 0
  }
  convolution_param {
    num_output: 288
    kernel_size: 1
    stride: 1
    weight_filler {
      type: "msra"
    }
    bias_filler {
      type: "constant"
    }
  }
}
layer {
  name: "stage2/block3/sum"
  type: "Eltwise"
  bottom: "stage2/block3/conv_restore"
  bottom: "stage2/block2/sum"
  top: "stage2/block3/sum"
  eltwise_param {
    operation: SUM
  }
}
layer {
  name: "stage2/block3/sum/nl"
  type: "ReLU"
  bottom: "stage2/block3/sum"
  top: "stage2/block3/sum"
}
layer {
  name: "stage2/block4/conv_reduce"
  type: "Convolution"
  bottom: "stage2/block3/sum"
  top: "stage2/block4/conv_reduce"
  param {
    lr_mult: 1
    decay_mult: 1
  }
  param {
    lr_mult: 2
    decay_mult: 0
  }
  convolution_param {
    num_output: 72
    kernel_size: 1
    stride: 1
    weight_filler {
      type: "msra"
    }
    bias_filler {
      type: "constant"
    }
  }
}
layer {
  name: "stage2/block4/conv_reduce/nl"
  type: "ReLU"
  bottom: "stage2/block4/conv_reduce"
  top: "stage2/block4/conv_reduce"
}
layer {
  name: "stage2/block4/conv"
  type: "Convolution"
  bottom: "stage2/block4/conv_reduce"
  top: "stage2/block4/conv"
  param {
    lr_mult: 1
    decay_mult: 1
  }
  param {
    lr_mult: 2
    decay_mult: 0
  }
  convolution_param {
    num_output: 72
    pad: 1
    kernel_size: 3
    stride: 1
    weight_filler {
      type: "msra"
    }
    bias_filler {
      type: "constant"
    }
  }
}
layer {
  name: "stage2/block4/conv/nl"
  type: "ReLU"
  bottom: "stage2/block4/conv"
  top: "stage2/block4/conv"
}
layer {
  name: "stage2/block4/conv_restore"
  type: "Convolution"
  bottom: "stage2/block4/conv"
  top: "stage2/block4/conv_restore"
  param {
    lr_mult: 1
    decay_mult: 1
  }
  param {
    lr_mult: 2
    decay_mult: 0
  }
  convolution_param {
    num_output: 288
    kernel_size: 1
    stride: 1
    weight_filler {
      type: "msra"
    }
    bias_filler {
      type: "constant"
    }
  }
}
layer {
  name: "stage2/block4/sum"
  type: "Eltwise"
  bottom: "stage2/block4/conv_restore"
  bottom: "stage2/block3/sum"
  top: "stage2/block4/sum"
  eltwise_param {
    operation: SUM
  }
}
layer {
  name: "stage2/block4/sum/nl"
  type: "ReLU"
  bottom: "stage2/block4/sum"
  top: "stage2/block4/sum"
}
layer {
  name: "stage2/block5/conv_reduce"
  type: "Convolution"
  bottom: "stage2/block4/sum"
  top: "stage2/block5/conv_reduce"
  param {
    lr_mult: 1
    decay_mult: 1
  }
  param {
    lr_mult: 2
    decay_mult: 0
  }
  convolution_param {
    num_output: 72
    kernel_size: 1
    stride: 1
    weight_filler {
      type: "msra"
    }
    bias_filler {
      type: "constant"
    }
  }
}
layer {
  name: "stage2/block5/conv_reduce/nl"
  type: "ReLU"
  bottom: "stage2/block5/conv_reduce"
  top: "stage2/block5/conv_reduce"
}
layer {
  name: "stage2/block5/conv"
  type: "Convolution"
  bottom: "stage2/block5/conv_reduce"
  top: "stage2/block5/conv"
  param {
    lr_mult: 1
    decay_mult: 1
  }
  param {
    lr_mult: 2
    decay_mult: 0
  }
  convolution_param {
    num_output: 72
    pad: 1
    kernel_size: 3
    stride: 1
    weight_filler {
      type: "msra"
    }
    bias_filler {
      type: "constant"
    }
  }
}
layer {
  name: "stage2/block5/conv/nl"
  type: "ReLU"
  bottom: "stage2/block5/conv"
  top: "stage2/block5/conv"
}
layer {
  name: "stage2/block5/conv_restore"
  type: "Convolution"
  bottom: "stage2/block5/conv"
  top: "stage2/block5/conv_restore"
  param {
    lr_mult: 1
    decay_mult: 1
  }
  param {
    lr_mult: 2
    decay_mult: 0
  }
  convolution_param {
    num_output: 288
    kernel_size: 1
    stride: 1
    weight_filler {
      type: "msra"
    }
    bias_filler {
      type: "constant"
    }
  }
}
layer {
  name: "stage2/block5/sum"
  type: "Eltwise"
  bottom: "stage2/block5/conv_restore"
  bottom: "stage2/block4/sum"
  top: "stage2/block5/sum"
  eltwise_param {
    operation: SUM
  }
}
layer {
  name: "stage2/block5/sum/nl"
  type: "ReLU"
  bottom: "stage2/block5/sum"
  top: "stage2/block5/sum"
}
layer {
  name: "stage2/block6/conv_reduce"
  type: "Convolution"
  bottom: "stage2/block5/sum"
  top: "stage2/block6/conv_reduce"
  param {
    lr_mult: 1
    decay_mult: 1
  }
  param {
    lr_mult: 2
    decay_mult: 0
  }
  convolution_param {
    num_output: 72
    kernel_size: 1
    stride: 1
    weight_filler {
      type: "msra"
    }
    bias_filler {
      type: "constant"
    }
  }
}
layer {
  name: "stage2/block6/conv_reduce/nl"
  type: "ReLU"
  bottom: "stage2/block6/conv_reduce"
  top: "stage2/block6/conv_reduce"
}
layer {
  name: "stage2/block6/conv"
  type: "Convolution"
  bottom: "stage2/block6/conv_reduce"
  top: "stage2/block6/conv"
  param {
    lr_mult: 1
    decay_mult: 1
  }
  param {
    lr_mult: 2
    decay_mult: 0
  }
  convolution_param {
    num_output: 72
    pad: 1
    kernel_size: 3
    stride: 1
    weight_filler {
      type: "msra"
    }
    bias_filler {
      type: "constant"
    }
  }
}
layer {
  name: "stage2/block6/conv/nl"
  type: "ReLU"
  bottom: "stage2/block6/conv"
  top: "stage2/block6/conv"
}
layer {
  name: "stage2/block6/conv_restore"
  type: "Convolution"
  bottom: "stage2/block6/conv"
  top: "stage2/block6/conv_restore"
  param {
    lr_mult: 1
    decay_mult: 1
  }
  param {
    lr_mult: 2
    decay_mult: 0
  }
  convolution_param {
    num_output: 288
    kernel_size: 1
    stride: 1
    weight_filler {
      type: "msra"
    }
    bias_filler {
      type: "constant"
    }
  }
}
layer {
  name: "stage2/block6/sum"
  type: "Eltwise"
  bottom: "stage2/block6/conv_restore"
  bottom: "stage2/block5/sum"
  top: "stage2/block6/sum"
  eltwise_param {
    operation: SUM
  }
}
layer {
  name: "stage2/block6/sum/nl"
  type: "ReLU"
  bottom: "stage2/block6/sum"
  top: "stage2/block6/sum"
}
layer {
  name: "stage2/block7/conv_reduce"
  type: "Convolution"
  bottom: "stage2/block6/sum"
  top: "stage2/block7/conv_reduce"
  param {
    lr_mult: 1
    decay_mult: 1
  }
  param {
    lr_mult: 2
    decay_mult: 0
  }
  convolution_param {
    num_output: 72
    kernel_size: 1
    stride: 1
    weight_filler {
      type: "msra"
    }
    bias_filler {
      type: "constant"
    }
  }
}
layer {
  name: "stage2/block7/conv_reduce/nl"
  type: "ReLU"
  bottom: "stage2/block7/conv_reduce"
  top: "stage2/block7/conv_reduce"
}
layer {
  name: "stage2/block7/conv"
  type: "Convolution"
  bottom: "stage2/block7/conv_reduce"
  top: "stage2/block7/conv"
  param {
    lr_mult: 1
    decay_mult: 1
  }
  param {
    lr_mult: 2
    decay_mult: 0
  }
  convolution_param {
    num_output: 72
    pad: 1
    kernel_size: 3
    stride: 1
    weight_filler {
      type: "msra"
    }
    bias_filler {
      type: "constant"
    }
  }
}
layer {
  name: "stage2/block7/conv/nl"
  type: "ReLU"
  bottom: "stage2/block7/conv"
  top: "stage2/block7/conv"
}
layer {
  name: "stage2/block7/conv_restore"
  type: "Convolution"
  bottom: "stage2/block7/conv"
  top: "stage2/block7/conv_restore"
  param {
    lr_mult: 1
    decay_mult: 1
  }
  param {
    lr_mult: 2
    decay_mult: 0
  }
  convolution_param {
    num_output: 288
    kernel_size: 1
    stride: 1
    weight_filler {
      type: "msra"
    }
    bias_filler {
      type: "constant"
    }
  }
}
layer {
  name: "stage2/block7/sum"
  type: "Eltwise"
  bottom: "stage2/block7/conv_restore"
  bottom: "stage2/block6/sum"
  top: "stage2/block7/sum"
  eltwise_param {
    operation: SUM
  }
}
layer {
  name: "stage2/block7/sum/nl"
  type: "ReLU"
  bottom: "stage2/block7/sum"
  top: "stage2/block7/sum"
}
layer {
  name: "stage2/block8/conv_reduce"
  type: "Convolution"
  bottom: "stage2/block7/sum"
  top: "stage2/block8/conv_reduce"
  param {
    lr_mult: 1
    decay_mult: 1
  }
  param {
    lr_mult: 2
    decay_mult: 0
  }
  convolution_param {
    num_output: 72
    kernel_size: 1
    stride: 1
    weight_filler {
      type: "msra"
    }
    bias_filler {
      type: "constant"
    }
  }
}
layer {
  name: "stage2/block8/conv_reduce/nl"
  type: "ReLU"
  bottom: "stage2/block8/conv_reduce"
  top: "stage2/block8/conv_reduce"
}
layer {
  name: "stage2/block8/conv"
  type: "Convolution"
  bottom: "stage2/block8/conv_reduce"
  top: "stage2/block8/conv"
  param {
    lr_mult: 1
    decay_mult: 1
  }
  param {
    lr_mult: 2
    decay_mult: 0
  }
  convolution_param {
    num_output: 72
    pad: 1
    kernel_size: 3
    stride: 1
    weight_filler {
      type: "msra"
    }
    bias_filler {
      type: "constant"
    }
  }
}
layer {
  name: "stage2/block8/conv/nl"
  type: "ReLU"
  bottom: "stage2/block8/conv"
  top: "stage2/block8/conv"
}
layer {
  name: "stage2/block8/conv_
I1229 10:55:07.405128  3137 layer_factory.hpp:76] Creating layer data
I1229 10:55:07.415712  3137 net.cpp:106] Creating Layer data
I1229 10:55:07.415731  3137 net.cpp:411] data -> data
I1229 10:55:07.416745  3137 net.cpp:411] data -> label
I1229 10:55:07.503808  3148 db_lmdb.cpp:38] Opened lmdb /home/share/storage/datasets/imagenet/lmdb/ilsvrc12_train_lmdb
I1229 10:55:07.660419  3137 data_layer.cpp:41] output data size: 64,3,120,120
I1229 10:55:07.676905  3137 net.cpp:150] Setting up data
I1229 10:55:07.676940  3137 net.cpp:157] Top shape: 64 3 120 120 (2764800)
I1229 10:55:07.676944  3137 net.cpp:157] Top shape: 64 (64)
I1229 10:55:07.676981  3137 net.cpp:165] Memory required for data: 11059456
I1229 10:55:07.676990  3137 layer_factory.hpp:76] Creating layer conv0
I1229 10:55:07.677016  3137 net.cpp:106] Creating Layer conv0
I1229 10:55:07.677031  3137 net.cpp:454] conv0 <- data
I1229 10:55:07.677052  3137 net.cpp:411] conv0 -> conv0
I1229 10:55:10.423444  3137 net.cpp:150] Setting up conv0
I1229 10:55:10.423468  3137 net.cpp:157] Top shape: 64 96 55 55 (18585600)
I1229 10:55:10.423471  3137 net.cpp:165] Memory required for data: 85401856
I1229 10:55:10.423488  3137 layer_factory.hpp:76] Creating layer conv0/nl
I1229 10:55:10.423497  3137 net.cpp:106] Creating Layer conv0/nl
I1229 10:55:10.423501  3137 net.cpp:454] conv0/nl <- conv0
I1229 10:55:10.423504  3137 net.cpp:397] conv0/nl -> conv0 (in-place)
I1229 10:55:10.429833  3137 net.cpp:150] Setting up conv0/nl
I1229 10:55:10.429858  3137 net.cpp:157] Top shape: 64 96 55 55 (18585600)
I1229 10:55:10.429862  3137 net.cpp:165] Memory required for data: 159744256
I1229 10:55:10.429867  3137 layer_factory.hpp:76] Creating layer pool0
I1229 10:55:10.429877  3137 net.cpp:106] Creating Layer pool0
I1229 10:55:10.429880  3137 net.cpp:454] pool0 <- conv0
I1229 10:55:10.429886  3137 net.cpp:411] pool0 -> pool0
I1229 10:55:10.430217  3137 net.cpp:150] Setting up pool0
I1229 10:55:10.430225  3137 net.cpp:157] Top shape: 64 96 28 28 (4816896)
I1229 10:55:10.430227  3137 net.cpp:165] Memory required for data: 179011840
I1229 10:55:10.430229  3137 layer_factory.hpp:76] Creating layer pool0_pool0_0_split
I1229 10:55:10.430253  3137 net.cpp:106] Creating Layer pool0_pool0_0_split
I1229 10:55:10.430254  3137 net.cpp:454] pool0_pool0_0_split <- pool0
I1229 10:55:10.430258  3137 net.cpp:411] pool0_pool0_0_split -> pool0_pool0_0_split_0
I1229 10:55:10.430264  3137 net.cpp:411] pool0_pool0_0_split -> pool0_pool0_0_split_1
I1229 10:55:10.430289  3137 net.cpp:150] Setting up pool0_pool0_0_split
I1229 10:55:10.430294  3137 net.cpp:157] Top shape: 64 96 28 28 (4816896)
I1229 10:55:10.430297  3137 net.cpp:157] Top shape: 64 96 28 28 (4816896)
I1229 10:55:10.430299  3137 net.cpp:165] Memory required for data: 217547008
I1229 10:55:10.430301  3137 layer_factory.hpp:76] Creating layer stage0/block0/conv_reduce
I1229 10:55:10.430308  3137 net.cpp:106] Creating Layer stage0/block0/conv_reduce
I1229 10:55:10.430310  3137 net.cpp:454] stage0/block0/conv_reduce <- pool0_pool0_0_split_0
I1229 10:55:10.430315  3137 net.cpp:411] stage0/block0/conv_reduce -> stage0/block0/conv_reduce
I1229 10:55:10.431375  3137 net.cpp:150] Setting up stage0/block0/conv_reduce
I1229 10:55:10.431383  3137 net.cpp:157] Top shape: 64 24 28 28 (1204224)
I1229 10:55:10.431385  3137 net.cpp:165] Memory required for data: 222363904
I1229 10:55:10.431392  3137 layer_factory.hpp:76] Creating layer stage0/block0/conv_reduce/nl
I1229 10:55:10.431396  3137 net.cpp:106] Creating Layer stage0/block0/conv_reduce/nl
I1229 10:55:10.431399  3137 net.cpp:454] stage0/block0/conv_reduce/nl <- stage0/block0/conv_reduce
I1229 10:55:10.431402  3137 net.cpp:397] stage0/block0/conv_reduce/nl -> stage0/block0/conv_reduce (in-place)
I1229 10:55:10.431550  3137 net.cpp:150] Setting up stage0/block0/conv_reduce/nl
I1229 10:55:10.431555  3137 net.cpp:157] Top shape: 64 24 28 28 (1204224)
I1229 10:55:10.431557  3137 net.cpp:165] Memory required for data: 227180800
I1229 10:55:10.431560  3137 layer_factory.hpp:76] Creating layer stage0/block0/conv
I1229 10:55:10.431565  3137 net.cpp:106] Creating Layer stage0/block0/conv
I1229 10:55:10.431566  3137 net.cpp:454] stage0/block0/conv <- stage0/block0/conv_reduce
I1229 10:55:10.431571  3137 net.cpp:411] stage0/block0/conv -> stage0/block0/conv
I1229 10:55:10.432720  3137 net.cpp:150] Setting up stage0/block0/conv
I1229 10:55:10.432729  3137 net.cpp:157] Top shape: 64 24 28 28 (1204224)
I1229 10:55:10.432731  3137 net.cpp:165] Memory required for data: 231997696
I1229 10:55:10.432737  3137 layer_factory.hpp:76] Creating layer stage0/block0/conv/nl
I1229 10:55:10.432741  3137 net.cpp:106] Creating Layer stage0/block0/conv/nl
I1229 10:55:10.432770  3137 net.cpp:454] stage0/block0/conv/nl <- stage0/block0/conv
I1229 10:55:10.432783  3137 net.cpp:397] stage0/block0/conv/nl -> stage0/block0/conv (in-place)
I1229 10:55:10.433032  3137 net.cpp:150] Setting up stage0/block0/conv/nl
I1229 10:55:10.433040  3137 net.cpp:157] Top shape: 64 24 28 28 (1204224)
I1229 10:55:10.433051  3137 net.cpp:165] Memory required for data: 236814592
I1229 10:55:10.433053  3137 layer_factory.hpp:76] Creating layer stage0/block0/conv_restore
I1229 10:55:10.433059  3137 net.cpp:106] Creating Layer stage0/block0/conv_restore
I1229 10:55:10.433061  3137 net.cpp:454] stage0/block0/conv_restore <- stage0/block0/conv
I1229 10:55:10.433065  3137 net.cpp:411] stage0/block0/conv_restore -> stage0/block0/conv_restore
I1229 10:55:10.433702  3137 net.cpp:150] Setting up stage0/block0/conv_restore
I1229 10:55:10.433711  3137 net.cpp:157] Top shape: 64 80 28 28 (4014080)
I1229 10:55:10.433722  3137 net.cpp:165] Memory required for data: 252870912
I1229 10:55:10.433727  3137 layer_factory.hpp:76] Creating layer stage0/block0/shortcut
I1229 10:55:10.433733  3137 net.cpp:106] Creating Layer stage0/block0/shortcut
I1229 10:55:10.433735  3137 net.cpp:454] stage0/block0/shortcut <- pool0_pool0_0_split_1
I1229 10:55:10.433739  3137 net.cpp:411] stage0/block0/shortcut -> stage0/block0/shortcut
I1229 10:55:10.434648  3137 net.cpp:150] Setting up stage0/block0/shortcut
I1229 10:55:10.434675  3137 net.cpp:157] Top shape: 64 80 28 28 (4014080)
I1229 10:55:10.434685  3137 net.cpp:165] Memory required for data: 268927232
I1229 10:55:10.434701  3137 layer_factory.hpp:76] Creating layer stage0/block0/sum
I1229 10:55:10.434711  3137 net.cpp:106] Creating Layer stage0/block0/sum
I1229 10:55:10.434713  3137 net.cpp:454] stage0/block0/sum <- stage0/block0/conv_restore
I1229 10:55:10.434716  3137 net.cpp:454] stage0/block0/sum <- stage0/block0/shortcut
I1229 10:55:10.434722  3137 net.cpp:411] stage0/block0/sum -> stage0/block0/sum
I1229 10:55:10.434748  3137 net.cpp:150] Setting up stage0/block0/sum
I1229 10:55:10.434752  3137 net.cpp:157] Top shape: 64 80 28 28 (4014080)
I1229 10:55:10.434754  3137 net.cpp:165] Memory required for data: 284983552
I1229 10:55:10.434756  3137 layer_factory.hpp:76] Creating layer stage0/block0/sum/nl
I1229 10:55:10.434762  3137 net.cpp:106] Creating Layer stage0/block0/sum/nl
I1229 10:55:10.434763  3137 net.cpp:454] stage0/block0/sum/nl <- stage0/block0/sum
I1229 10:55:10.434767  3137 net.cpp:397] stage0/block0/sum/nl -> stage0/block0/sum (in-place)
I1229 10:55:10.435034  3137 net.cpp:150] Setting up stage0/block0/sum/nl
I1229 10:55:10.435053  3137 net.cpp:157] Top shape: 64 80 28 28 (4014080)
I1229 10:55:10.435063  3137 net.cpp:165] Memory required for data: 301039872
I1229 10:55:10.435072  3137 layer_factory.hpp:76] Creating layer stage0/block0/sum_stage0/block0/sum/nl_0_split
I1229 10:55:10.435083  3137 net.cpp:106] Creating Layer stage0/block0/sum_stage0/block0/sum/nl_0_split
I1229 10:55:10.435091  3137 net.cpp:454] stage0/block0/sum_stage0/block0/sum/nl_0_split <- stage0/block0/sum
I1229 10:55:10.435102  3137 net.cpp:411] stage0/block0/sum_stage0/block0/sum/nl_0_split -> stage0/block0/sum_stage0/block0/sum/nl_0_split_0
I1229 10:55:10.435114  3137 net.cpp:411] stage0/block0/sum_stage0/block0/sum/nl_0_split -> stage0/block0/sum_stage0/block0/sum/nl_0_split_1
I1229 10:55:10.435153  3137 net.cpp:150] Setting up stage0/block0/sum_stage0/block0/sum/nl_0_split
I1229 10:55:10.435165  3137 net.cpp:157] Top shape: 64 80 28 28 (4014080)
I1229 10:55:10.435174  3137 net.cpp:157] Top shape: 64 80 28 28 (4014080)
I1229 10:55:10.435183  3137 net.cpp:165] Memory required for data: 333152512
I1229 10:55:10.435190  3137 layer_factory.hpp:76] Creating layer stage0/block1/conv_reduce
I1229 10:55:10.435204  3137 net.cpp:106] Creating Layer stage0/block1/conv_reduce
I1229 10:55:10.435211  3137 net.cpp:454] stage0/block1/conv_reduce <- stage0/block0/sum_stage0/block0/sum/nl_0_split_0
I1229 10:55:10.435227  3137 net.cpp:411] stage0/block1/conv_reduce -> stage0/block1/conv_reduce
I1229 10:55:10.436061  3137 net.cpp:150] Setting up stage0/block1/conv_reduce
I1229 10:55:10.436080  3137 net.cpp:157] Top shape: 64 24 28 28 (1204224)
I1229 10:55:10.436094  3137 net.cpp:165] Memory required for data: 337969408
I1229 10:55:10.436099  3137 layer_factory.hpp:76] Creating layer stage0/block1/conv_reduce/nl
I1229 10:55:10.436102  3137 net.cpp:106] Creating Layer stage0/block1/conv_reduce/nl
I1229 10:55:10.436105  3137 net.cpp:454] stage0/block1/conv_reduce/nl <- stage0/block1/conv_reduce
I1229 10:55:10.436108  3137 net.cpp:397] stage0/block1/conv_reduce/nl -> stage0/block1/conv_reduce (in-place)
I1229 10:55:10.436357  3137 net.cpp:150] Setting up stage0/block1/conv_reduce/nl
I1229 10:55:10.436363  3137 net.cpp:157] Top shape: 64 24 28 28 (1204224)
I1229 10:55:10.436375  3137 net.cpp:165] Memory required for data: 342786304
I1229 10:55:10.436378  3137 layer_factory.hpp:76] Creating layer stage0/block1/conv
I1229 10:55:10.436393  3137 net.cpp:106] Creating Layer stage0/block1/conv
I1229 10:55:10.436395  3137 net.cpp:454] stage0/block1/conv <- stage0/block1/conv_reduce
I1229 10:55:10.436400  3137 net.cpp:411] stage0/block1/conv -> stage0/block1/conv
I1229 10:55:10.437357  3137 net.cpp:150] Setting up stage0/block1/conv
I1229 10:55:10.437364  3137 net.cpp:157] Top shape: 64 24 28 28 (1204224)
I1229 10:55:10.437366  3137 net.cpp:165] Memory required for data: 347603200
I1229 10:55:10.437371  3137 layer_factory.hpp:76] Creating layer stage0/block1/conv/nl
I1229 10:55:10.437374  3137 net.cpp:106] Creating Layer stage0/block1/conv/nl
I1229 10:55:10.437377  3137 net.cpp:454] stage0/block1/conv/nl <- stage0/block1/conv
I1229 10:55:10.437381  3137 net.cpp:397] stage0/block1/conv/nl -> stage0/block1/conv (in-place)
I1229 10:55:10.437554  3137 net.cpp:150] Setting up stage0/block1/conv/nl
I1229 10:55:10.437561  3137 net.cpp:157] Top shape: 64 24 28 28 (1204224)
I1229 10:55:10.437562  3137 net.cpp:165] Memory required for data: 352420096
I1229 10:55:10.437574  3137 layer_factory.hpp:76] Creating layer stage0/block1/conv_restore
I1229 10:55:10.437580  3137 net.cpp:106] Creating Layer stage0/block1/conv_restore
I1229 10:55:10.437582  3137 net.cpp:454] stage0/block1/conv_restore <- stage0/block1/conv
I1229 10:55:10.437585  3137 net.cpp:411] stage0/block1/conv_restore -> stage0/block1/conv_restore
I1229 10:55:10.438555  3137 net.cpp:150] Setting up stage0/block1/conv_restore
I1229 10:55:10.438565  3137 net.cpp:157] Top shape: 64 80 28 28 (4014080)
I1229 10:55:10.438567  3137 net.cpp:165] Memory required for data: 368476416
I1229 10:55:10.438571  3137 layer_factory.hpp:76] Creating layer stage0/block1/sum
I1229 10:55:10.438578  3137 net.cpp:106] Creating Layer stage0/block1/sum
I1229 10:55:10.438580  3137 net.cpp:454] stage0/block1/sum <- stage0/block1/conv_restore
I1229 10:55:10.438583  3137 net.cpp:454] stage0/block1/sum <- stage0/block0/sum_stage0/block0/sum/nl_0_split_1
I1229 10:55:10.438597  3137 net.cpp:411] stage0/block1/sum -> stage0/block1/sum
I1229 10:55:10.438637  3137 net.cpp:150] Setting up stage0/block1/sum
I1229 10:55:10.438642  3137 net.cpp:157] Top shape: 64 80 28 28 (4014080)
I1229 10:55:10.438643  3137 net.cpp:165] Memory required for data: 384532736
I1229 10:55:10.438659  3137 layer_factory.hpp:76] Creating layer stage0/block1/sum/nl
I1229 10:55:10.438663  3137 net.cpp:106] Creating Layer stage0/block1/sum/nl
I1229 10:55:10.438665  3137 net.cpp:454] stage0/block1/sum/nl <- stage0/block1/sum
I1229 10:55:10.438678  3137 net.cpp:397] stage0/block1/sum/nl -> stage0/block1/sum (in-place)
I1229 10:55:10.438918  3137 net.cpp:150] Setting up stage0/block1/sum/nl
I1229 10:55:10.438925  3137 net.cpp:157] Top shape: 64 80 28 28 (4014080)
I1229 10:55:10.438927  3137 net.cpp:165] Memory required for data: 400589056
I1229 10:55:10.438930  3137 layer_factory.hpp:76] Creating layer stage0/block1/sum_stage0/block1/sum/nl_0_split
I1229 10:55:10.438932  3137 net.cpp:106] Creating Layer stage0/block1/sum_stage0/block1/sum/nl_0_split
I1229 10:55:10.438935  3137 net.cpp:454] stage0/block1/sum_stage0/block1/sum/nl_0_split <- stage0/block1/sum
I1229 10:55:10.438948  3137 net.cpp:411] stage0/block1/sum_stage0/block1/sum/nl_0_split -> stage0/block1/sum_stage0/block1/sum/nl_0_split_0
I1229 10:55:10.438962  3137 net.cpp:411] stage0/block1/sum_stage0/block1/sum/nl_0_split -> stage0/block1/sum_stage0/block1/sum/nl_0_split_1
I1229 10:55:10.439013  3137 net.cpp:150] Setting up stage0/block1/sum_stage0/block1/sum/nl_0_split
I1229 10:55:10.439018  3137 net.cpp:157] Top shape: 64 80 28 28 (4014080)
I1229 10:55:10.439020  3137 net.cpp:157] Top shape: 64 80 28 28 (4014080)
I1229 10:55:10.439023  3137 net.cpp:165] Memory required for data: 432701696
I1229 10:55:10.439024  3137 layer_factory.hpp:76] Creating layer stage0/block2/conv_reduce
I1229 10:55:10.439040  3137 net.cpp:106] Creating Layer stage0/block2/conv_reduce
I1229 10:55:10.439043  3137 net.cpp:454] stage0/block2/conv_reduce <- stage0/block1/sum_stage0/block1/sum/nl_0_split_0
I1229 10:55:10.439057  3137 net.cpp:411] stage0/block2/conv_reduce -> stage0/block2/conv_reduce
I1229 10:55:10.439684  3137 net.cpp:150] Setting up stage0/block2/conv_reduce
I1229 10:55:10.439693  3137 net.cpp:157] Top shape: 64 24 28 28 (1204224)
I1229 10:55:10.439695  3137 net.cpp:165] Memory required for data: 437518592
I1229 10:55:10.439700  3137 layer_factory.hpp:76] Creating layer stage0/block2/conv_reduce/nl
I1229 10:55:10.439704  3137 net.cpp:106] Creating Layer stage0/block2/conv_reduce/nl
I1229 10:55:10.439707  3137 net.cpp:454] stage0/block2/conv_reduce/nl <- stage0/block2/conv_reduce
I1229 10:55:10.439710  3137 net.cpp:397] stage0/block2/conv_reduce/nl -> stage0/block2/conv_reduce (in-place)
I1229 10:55:10.439939  3137 net.cpp:150] Setting up stage0/block2/conv_reduce/nl
I1229 10:55:10.439946  3137 net.cpp:157] Top shape: 64 24 28 28 (1204224)
I1229 10:55:10.439947  3137 net.cpp:165] Memory required for data: 442335488
I1229 10:55:10.439949  3137 layer_factory.hpp:76] Creating layer stage0/block2/conv
I1229 10:55:10.439956  3137 net.cpp:106] Creating Layer stage0/block2/conv
I1229 10:55:10.439959  3137 net.cpp:454] stage0/block2/conv <- stage0/block2/conv_reduce
I1229 10:55:10.439962  3137 net.cpp:411] stage0/block2/conv -> stage0/block2/conv
I1229 10:55:10.440768  3137 net.cpp:150] Setting up stage0/block2/conv
I1229 10:55:10.440775  3137 net.cpp:157] Top shape: 64 24 28 28 (1204224)
I1229 10:55:10.440778  3137 net.cpp:165] Memory required for data: 447152384
I1229 10:55:10.440781  3137 layer_factory.hpp:76] Creating layer stage0/block2/conv/nl
I1229 10:55:10.440784  3137 net.cpp:106] Creating Layer stage0/block2/conv/nl
I1229 10:55:10.440786  3137 net.cpp:454] stage0/block2/conv/nl <- stage0/block2/conv
I1229 10:55:10.440790  3137 net.cpp:397] stage0/block2/conv/nl -> stage0/block2/conv (in-place)
I1229 10:55:10.440942  3137 net.cpp:150] Setting up stage0/block2/conv/nl
I1229 10:55:10.440946  3137 net.cpp:157] Top shape: 64 24 28 28 (1204224)
I1229 10:55:10.440948  3137 net.cpp:165] Memory required for data: 451969280
I1229 10:55:10.440950  3137 layer_factory.hpp:76] Creating layer stage0/block2/conv_restore
I1229 10:55:10.440955  3137 net.cpp:106] Creating Layer stage0/block2/conv_restore
I1229 10:55:10.440958  3137 net.cpp:454] stage0/block2/conv_restore <- stage0/block2/conv
I1229 10:55:10.440961  3137 net.cpp:411] stage0/block2/conv_restore -> stage0/block2/conv_restore
I1229 10:55:10.441692  3137 net.cpp:150] Setting up stage0/block2/conv_restore
I1229 10:55:10.441699  3137 net.cpp:157] Top shape: 64 80 28 28 (4014080)
I1229 10:55:10.441701  3137 net.cpp:165] Memory required for data: 468025600
I1229 10:55:10.441705  3137 layer_factory.hpp:76] Creating layer stage0/block2/sum
I1229 10:55:10.441710  3137 net.cpp:106] Creating Layer stage0/block2/sum
I1229 10:55:10.441712  3137 net.cpp:454] stage0/block2/sum <- stage0/block2/conv_restore
I1229 10:55:10.441715  3137 net.cpp:454] stage0/block2/sum <- stage0/block1/sum_stage0/block1/sum/nl_0_split_1
I1229 10:55:10.441718  3137 net.cpp:411] stage0/block2/sum -> stage0/block2/sum
I1229 10:55:10.441746  3137 net.cpp:150] Setting up stage0/block2/sum
I1229 10:55:10.441751  3137 net.cpp:157] Top shape: 64 80 28 28 (4014080)
I1229 10:55:10.441769  3137 net.cpp:165] Memory required for data: 484081920
I1229 10:55:10.441783  3137 layer_factory.hpp:76] Creating layer stage0/block2/sum/nl
I1229 10:55:10.441787  3137 net.cpp:106] Creating Layer stage0/block2/sum/nl
I1229 10:55:10.441788  3137 net.cpp:454] stage0/block2/sum/nl <- stage0/block2/sum
I1229 10:55:10.441802  3137 net.cpp:397] stage0/block2/sum/nl -> stage0/block2/sum (in-place)
I1229 10:55:10.442033  3137 net.cpp:150] Setting up stage0/block2/sum/nl
I1229 10:55:10.442039  3137 net.cpp:157] Top shape: 64 80 28 28 (4014080)
I1229 10:55:10.442041  3137 net.cpp:165] Memory required for data: 500138240
I1229 10:55:10.442044  3137 layer_factory.hpp:76] Creating layer stage0/block2/sum_stage0/block2/sum/nl_0_split
I1229 10:55:10.442047  3137 net.cpp:106] Creating Layer stage0/block2/sum_stage0/block2/sum/nl_0_split
I1229 10:55:10.442049  3137 net.cpp:454] stage0/block2/sum_stage0/block2/sum/nl_0_split <- stage0/block2/sum
I1229 10:55:10.442054  3137 net.cpp:411] stage0/block2/sum_stage0/block2/sum/nl_0_split -> stage0/block2/sum_stage0/block2/sum/nl_0_split_0
I1229 10:55:10.442057  3137 net.cpp:411] stage0/block2/sum_stage0/block2/sum/nl_0_split -> stage0/block2/sum_stage0/block2/sum/nl_0_split_1
I1229 10:55:10.442101  3137 net.cpp:150] Setting up stage0/block2/sum_stage0/block2/sum/nl_0_split
I1229 10:55:10.442106  3137 net.cpp:157] Top shape: 64 80 28 28 (4014080)
I1229 10:55:10.442121  3137 net.cpp:157] Top shape: 64 80 28 28 (4014080)
I1229 10:55:10.442122  3137 net.cpp:165] Memory required for data: 532250880
I1229 10:55:10.442123  3137 layer_factory.hpp:76] Creating layer stage1/block0/conv_reduce
I1229 10:55:10.442129  3137 net.cpp:106] Creating Layer stage1/block0/conv_reduce
I1229 10:55:10.442140  3137 net.cpp:454] stage1/block0/conv_reduce <- stage0/block2/sum_stage0/block2/sum/nl_0_split_0
I1229 10:55:10.442144  3137 net.cpp:411] stage1/block0/conv_reduce -> stage1/block0/conv_reduce
I1229 10:55:10.442834  3137 net.cpp:150] Setting up stage1/block0/conv_reduce
I1229 10:55:10.442842  3137 net.cpp:157] Top shape: 64 48 28 28 (2408448)
I1229 10:55:10.442844  3137 net.cpp:165] Memory required for data: 541884672
I1229 10:55:10.442848  3137 layer_factory.hpp:76] Creating layer stage1/block0/conv_reduce/nl
I1229 10:55:10.442852  3137 net.cpp:106] Creating Layer stage1/block0/conv_reduce/nl
I1229 10:55:10.442855  3137 net.cpp:454] stage1/block0/conv_reduce/nl <- stage1/block0/conv_reduce
I1229 10:55:10.442857  3137 net.cpp:397] stage1/block0/conv_reduce/nl -> stage1/block0/conv_reduce (in-place)
I1229 10:55:10.443104  3137 net.cpp:150] Setting up stage1/block0/conv_reduce/nl
I1229 10:55:10.443112  3137 net.cpp:157] Top shape: 64 48 28 28 (2408448)
I1229 10:55:10.443114  3137 net.cpp:165] Memory required for data: 551518464
I1229 10:55:10.443116  3137 layer_factory.hpp:76] Creating layer stage1/block0/conv
I1229 10:55:10.443123  3137 net.cpp:106] Creating Layer stage1/block0/conv
I1229 10:55:10.443125  3137 net.cpp:454] stage1/block0/conv <- stage1/block0/conv_reduce
I1229 10:55:10.443130  3137 net.cpp:411] stage1/block0/conv -> stage1/block0/conv
I1229 10:55:10.444280  3137 net.cpp:150] Setting up stage1/block0/conv
I1229 10:55:10.444288  3137 net.cpp:157] Top shape: 64 48 14 14 (602112)
I1229 10:55:10.444290  3137 net.cpp:165] Memory required for data: 553926912
I1229 10:55:10.444294  3137 layer_factory.hpp:76] Creating layer stage1/block0/conv/nl
I1229 10:55:10.444298  3137 net.cpp:106] Creating Layer stage1/block0/conv/nl
I1229 10:55:10.444301  3137 net.cpp:454] stage1/block0/conv/nl <- stage1/block0/conv
I1229 10:55:10.444304  3137 net.cpp:397] stage1/block0/conv/nl -> stage1/block0/conv (in-place)
I1229 10:55:10.444439  3137 net.cpp:150] Setting up stage1/block0/conv/nl
I1229 10:55:10.444445  3137 net.cpp:157] Top shape: 64 48 14 14 (602112)
I1229 10:55:10.444447  3137 net.cpp:165] Memory required for data: 556335360
I1229 10:55:10.444448  3137 layer_factory.hpp:76] Creating layer stage1/block0/conv_restore
I1229 10:55:10.444454  3137 net.cpp:106] Creating Layer stage1/block0/conv_restore
I1229 10:55:10.444465  3137 net.cpp:454] stage1/block0/conv_restore <- stage1/block0/conv
I1229 10:55:10.444469  3137 net.cpp:411] stage1/block0/conv_restore -> stage1/block0/conv_restore
I1229 10:55:10.445514  3137 net.cpp:150] Setting up stage1/block0/conv_restore
I1229 10:55:10.445521  3137 net.cpp:157] Top shape: 64 160 14 14 (2007040)
I1229 10:55:10.445524  3137 net.cpp:165] Memory required for data: 564363520
I1229 10:55:10.445528  3137 layer_factory.hpp:76] Creating layer stage1/block0/shortcut
I1229 10:55:10.445533  3137 net.cpp:106] Creating Layer stage1/block0/shortcut
I1229 10:55:10.445536  3137 net.cpp:454] stage1/block0/shortcut <- stage0/block2/sum_stage0/block2/sum/nl_0_split_1
I1229 10:55:10.445541  3137 net.cpp:411] stage1/block0/shortcut -> stage1/block0/shortcut
I1229 10:55:10.446558  3137 net.cpp:150] Setting up stage1/block0/shortcut
I1229 10:55:10.446566  3137 net.cpp:157] Top shape: 64 160 14 14 (2007040)
I1229 10:55:10.446568  3137 net.cpp:165] Memory required for data: 572391680
I1229 10:55:10.446573  3137 layer_factory.hpp:76] Creating layer stage1/block0/sum
I1229 10:55:10.446576  3137 net.cpp:106] Creating Layer stage1/block0/sum
I1229 10:55:10.446578  3137 net.cpp:454] stage1/block0/sum <- stage1/block0/conv_restore
I1229 10:55:10.446583  3137 net.cpp:454] stage1/block0/sum <- stage1/block0/shortcut
I1229 10:55:10.446585  3137 net.cpp:411] stage1/block0/sum -> stage1/block0/sum
I1229 10:55:10.446611  3137 net.cpp:150] Setting up stage1/block0/sum
I1229 10:55:10.446630  3137 net.cpp:157] Top shape: 64 160 14 14 (2007040)
I1229 10:55:10.446631  3137 net.cpp:165] Memory required for data: 580419840
I1229 10:55:10.446632  3137 layer_factory.hpp:76] Creating layer stage1/block0/sum/nl
I1229 10:55:10.446635  3137 net.cpp:106] Creating Layer stage1/block0/sum/nl
I1229 10:55:10.446637  3137 net.cpp:454] stage1/block0/sum/nl <- stage1/block0/sum
I1229 10:55:10.446640  3137 net.cpp:397] stage1/block0/sum/nl -> stage1/block0/sum (in-place)
I1229 10:55:10.446771  3137 net.cpp:150] Setting up stage1/block0/sum/nl
I1229 10:55:10.446776  3137 net.cpp:157] Top shape: 64 160 14 14 (2007040)
I1229 10:55:10.446779  3137 net.cpp:165] Memory required for data: 588448000
I1229 10:55:10.446780  3137 layer_factory.hpp:76] Creating layer stage1/block0/sum_stage1/block0/sum/nl_0_split
I1229 10:55:10.446784  3137 net.cpp:106] Creating Layer stage1/block0/sum_stage1/block0/sum/nl_0_split
I1229 10:55:10.446786  3137 net.cpp:454] stage1/block0/sum_stage1/block0/sum/nl_0_split <- stage1/block0/sum
I1229 10:55:10.446789  3137 net.cpp:411] stage1/block0/sum_stage1/block0/sum/nl_0_split -> stage1/block0/sum_stage1/block0/sum/nl_0_split_0
I1229 10:55:10.446792  3137 net.cpp:411] stage1/block0/sum_stage1/block0/sum/nl_0_split -> stage1/block0/sum_stage1/block0/sum/nl_0_split_1
I1229 10:55:10.446849  3137 net.cpp:150] Setting up stage1/block0/sum_stage1/block0/sum/nl_0_split
I1229 10:55:10.446863  3137 net.cpp:157] Top shape: 64 160 14 14 (2007040)
I1229 10:55:10.446866  3137 net.cpp:157] Top shape: 64 160 14 14 (2007040)
I1229 10:55:10.446867  3137 net.cpp:165] Memory required for data: 604504320
I1229 10:55:10.446878  3137 layer_factory.hpp:76] Creating layer stage1/block1/conv_reduce
I1229 10:55:10.446883  3137 net.cpp:106] Creating Layer stage1/block1/conv_reduce
I1229 10:55:10.446887  3137 net.cpp:454] stage1/block1/conv_reduce <- stage1/block0/sum_stage1/block0/sum/nl_0_split_0
I1229 10:55:10.446890  3137 net.cpp:411] stage1/block1/conv_reduce -> stage1/block1/conv_reduce
I1229 10:55:10.447777  3137 net.cpp:150] Setting up stage1/block1/conv_reduce
I1229 10:55:10.447787  3137 net.cpp:157] Top shape: 64 48 14 14 (602112)
I1229 10:55:10.447788  3137 net.cpp:165] Memory required for data: 606912768
I1229 10:55:10.447793  3137 layer_factory.hpp:76] Creating layer stage1/block1/conv_reduce/nl
I1229 10:55:10.447795  3137 net.cpp:106] Creating Layer stage1/block1/conv_reduce/nl
I1229 10:55:10.447798  3137 net.cpp:454] stage1/block1/conv_reduce/nl <- stage1/block1/conv_reduce
I1229 10:55:10.447819  3137 net.cpp:397] stage1/block1/conv_reduce/nl -> stage1/block1/conv_reduce (in-place)
I1229 10:55:10.448045  3137 net.cpp:150] Setting up stage1/block1/conv_reduce/nl
I1229 10:55:10.448051  3137 net.cpp:157] Top shape: 64 48 14 14 (602112)
I1229 10:55:10.448053  3137 net.cpp:165] Memory required for data: 609321216
I1229 10:55:10.448055  3137 layer_factory.hpp:76] Creating layer stage1/block1/conv
I1229 10:55:10.448061  3137 net.cpp:106] Creating Layer stage1/block1/conv
I1229 10:55:10.448063  3137 net.cpp:454] stage1/block1/conv <- stage1/block1/conv_reduce
I1229 10:55:10.448067  3137 net.cpp:411] stage1/block1/conv -> stage1/block1/conv
I1229 10:55:10.449234  3137 net.cpp:150] Setting up stage1/block1/conv
I1229 10:55:10.449242  3137 net.cpp:157] Top shape: 64 48 14 14 (602112)
I1229 10:55:10.449244  3137 net.cpp:165] Memory required for data: 611729664
I1229 10:55:10.449251  3137 layer_factory.hpp:76] Creating layer stage1/block1/conv/nl
I1229 10:55:10.449255  3137 net.cpp:106] Creating Layer stage1/block1/conv/nl
I1229 10:55:10.449257  3137 net.cpp:454] stage1/block1/conv/nl <- stage1/block1/conv
I1229 10:55:10.449270  3137 net.cpp:397] stage1/block1/conv/nl -> stage1/block1/conv (in-place)
I1229 10:55:10.449393  3137 net.cpp:150] Setting up stage1/block1/conv/nl
I1229 10:55:10.449398  3137 net.cpp:157] Top shape: 64 48 14 14 (602112)
I1229 10:55:10.449399  3137 net.cpp:165] Memory required for data: 614138112
I1229 10:55:10.449401  3137 layer_factory.hpp:76] Creating layer stage1/block1/conv_restore
I1229 10:55:10.449406  3137 net.cpp:106] Creating Layer stage1/block1/conv_restore
I1229 10:55:10.449409  3137 net.cpp:454] stage1/block1/conv_restore <- stage1/block1/conv
I1229 10:55:10.449412  3137 net.cpp:411] stage1/block1/conv_restore -> stage1/block1/conv_restore
I1229 10:55:10.450388  3137 net.cpp:150] Setting up stage1/block1/conv_restore
I1229 10:55:10.450397  3137 net.cpp:157] Top shape: 64 160 14 14 (2007040)
I1229 10:55:10.450409  3137 net.cpp:165] Memory required for data: 622166272
I1229 10:55:10.450413  3137 layer_factory.hpp:76] Creating layer stage1/block1/sum
I1229 10:55:10.450418  3137 net.cpp:106] Creating Layer stage1/block1/sum
I1229 10:55:10.450422  3137 net.cpp:454] stage1/block1/sum <- stage1/block1/conv_restore
I1229 10:55:10.450424  3137 net.cpp:454] stage1/block1/sum <- stage1/block0/sum_stage1/block0/sum/nl_0_split_1
I1229 10:55:10.450435  3137 net.cpp:411] stage1/block1/sum -> stage1/block1/sum
I1229 10:55:10.450454  3137 net.cpp:150] Setting up stage1/block1/sum
I1229 10:55:10.450459  3137 net.cpp:157] Top shape: 64 160 14 14 (2007040)
I1229 10:55:10.450459  3137 net.cpp:165] Memory required for data: 630194432
I1229 10:55:10.450461  3137 layer_factory.hpp:76] Creating layer stage1/block1/sum/nl
I1229 10:55:10.450464  3137 net.cpp:106] Creating Layer stage1/block1/sum/nl
I1229 10:55:10.450466  3137 net.cpp:454] stage1/block1/sum/nl <- stage1/block1/sum
I1229 10:55:10.450469  3137 net.cpp:397] stage1/block1/sum/nl -> stage1/block1/sum (in-place)
I1229 10:55:10.450598  3137 net.cpp:150] Setting up stage1/block1/sum/nl
I1229 10:55:10.450605  3137 net.cpp:157] Top shape: 64 160 14 14 (2007040)
I1229 10:55:10.450608  3137 net.cpp:165] Memory required for data: 638222592
I1229 10:55:10.450609  3137 layer_factory.hpp:76] Creating layer stage1/block1/sum_stage1/block1/sum/nl_0_split
I1229 10:55:10.450613  3137 net.cpp:106] Creating Layer stage1/block1/sum_stage1/block1/sum/nl_0_split
I1229 10:55:10.450614  3137 net.cpp:454] stage1/block1/sum_stage1/block1/sum/nl_0_split <- stage1/block1/sum
I1229 10:55:10.450618  3137 net.cpp:411] stage1/block1/sum_stage1/block1/sum/nl_0_split -> stage1/block1/sum_stage1/block1/sum/nl_0_split_0
I1229 10:55:10.450621  3137 net.cpp:411] stage1/block1/sum_stage1/block1/sum/nl_0_split -> stage1/block1/sum_stage1/block1/sum/nl_0_split_1
I1229 10:55:10.450649  3137 net.cpp:150] Setting up stage1/block1/sum_stage1/block1/sum/nl_0_split
I1229 10:55:10.450652  3137 net.cpp:157] Top shape: 64 160 14 14 (2007040)
I1229 10:55:10.450654  3137 net.cpp:157] Top shape: 64 160 14 14 (2007040)
I1229 10:55:10.450664  3137 net.cpp:165] Memory required for data: 654278912
I1229 10:55:10.450667  3137 layer_factory.hpp:76] Creating layer stage1/block2/conv_reduce
I1229 10:55:10.450672  3137 net.cpp:106] Creating Layer stage1/block2/conv_reduce
I1229 10:55:10.450675  3137 net.cpp:454] stage1/block2/conv_reduce <- stage1/block1/sum_stage1/block1/sum/nl_0_split_0
I1229 10:55:10.450680  3137 net.cpp:411] stage1/block2/conv_reduce -> stage1/block2/conv_reduce
I1229 10:55:10.451889  3137 net.cpp:150] Setting up stage1/block2/conv_reduce
I1229 10:55:10.451897  3137 net.cpp:157] Top shape: 64 48 14 14 (602112)
I1229 10:55:10.451900  3137 net.cpp:165] Memory required for data: 656687360
I1229 10:55:10.451903  3137 layer_factory.hpp:76] Creating layer stage1/block2/conv_reduce/nl
I1229 10:55:10.451908  3137 net.cpp:106] Creating Layer stage1/block2/conv_reduce/nl
I1229 10:55:10.451910  3137 net.cpp:454] stage1/block2/conv_reduce/nl <- stage1/block2/conv_reduce
I1229 10:55:10.451913  3137 net.cpp:397] stage1/block2/conv_reduce/nl -> stage1/block2/conv_reduce (in-place)
I1229 10:55:10.452143  3137 net.cpp:150] Setting up stage1/block2/conv_reduce/nl
I1229 10:55:10.452150  3137 net.cpp:157] Top shape: 64 48 14 14 (602112)
I1229 10:55:10.452152  3137 net.cpp:165] Memory required for data: 659095808
I1229 10:55:10.452154  3137 layer_factory.hpp:76] Creating layer stage1/block2/conv
I1229 10:55:10.452159  3137 net.cpp:106] Creating Layer stage1/block2/conv
I1229 10:55:10.452162  3137 net.cpp:454] stage1/block2/conv <- stage1/block2/conv_reduce
I1229 10:55:10.452167  3137 net.cpp:411] stage1/block2/conv -> stage1/block2/conv
I1229 10:55:10.453337  3137 net.cpp:150] Setting up stage1/block2/conv
I1229 10:55:10.453346  3137 net.cpp:157] Top shape: 64 48 14 14 (602112)
I1229 10:55:10.453347  3137 net.cpp:165] Memory required for data: 661504256
I1229 10:55:10.453351  3137 layer_factory.hpp:76] Creating layer stage1/block2/conv/nl
I1229 10:55:10.453356  3137 net.cpp:106] Creating Layer stage1/block2/conv/nl
I1229 10:55:10.453358  3137 net.cpp:454] stage1/block2/conv/nl <- stage1/block2/conv
I1229 10:55:10.453361  3137 net.cpp:397] stage1/block2/conv/nl -> stage1/block2/conv (in-place)
I1229 10:55:10.453495  3137 net.cpp:150] Setting up stage1/block2/conv/nl
I1229 10:55:10.453500  3137 net.cpp:157] Top shape: 64 48 14 14 (602112)
I1229 10:55:10.453501  3137 net.cpp:165] Memory required for data: 663912704
I1229 10:55:10.453503  3137 layer_factory.hpp:76] Creating layer stage1/block2/conv_restore
I1229 10:55:10.453508  3137 net.cpp:106] Creating Layer stage1/block2/conv_restore
I1229 10:55:10.453510  3137 net.cpp:454] stage1/block2/conv_restore <- stage1/block2/conv
I1229 10:55:10.453515  3137 net.cpp:411] stage1/block2/conv_restore -> stage1/block2/conv_restore
I1229 10:55:10.454509  3137 net.cpp:150] Setting up stage1/block2/conv_restore
I1229 10:55:10.454529  3137 net.cpp:157] Top shape: 64 160 14 14 (2007040)
I1229 10:55:10.454530  3137 net.cpp:165] Memory required for data: 671940864
I1229 10:55:10.454543  3137 layer_factory.hpp:76] Creating layer stage1/block2/sum
I1229 10:55:10.454548  3137 net.cpp:106] Creating Layer stage1/block2/sum
I1229 10:55:10.454551  3137 net.cpp:454] stage1/block2/sum <- stage1/block2/conv_restore
I1229 10:55:10.454553  3137 net.cpp:454] stage1/block2/sum <- stage1/block1/sum_stage1/block1/sum/nl_0_split_1
I1229 10:55:10.454557  3137 net.cpp:411] stage1/block2/sum -> stage1/block2/sum
I1229 10:55:10.454584  3137 net.cpp:150] Setting up stage1/block2/sum
I1229 10:55:10.454588  3137 net.cpp:157] Top shape: 64 160 14 14 (2007040)
I1229 10:55:10.454589  3137 net.cpp:165] Memory required for data: 679969024
I1229 10:55:10.454591  3137 layer_factory.hpp:76] Creating layer stage1/block2/sum/nl
I1229 10:55:10.454594  3137 net.cpp:106] Creating Layer stage1/block2/sum/nl
I1229 10:55:10.454596  3137 net.cpp:454] stage1/block2/sum/nl <- stage1/block2/sum
I1229 10:55:10.454599  3137 net.cpp:397] stage1/block2/sum/nl -> stage1/block2/sum (in-place)
I1229 10:55:10.454736  3137 net.cpp:150] Setting up stage1/block2/sum/nl
I1229 10:55:10.454751  3137 net.cpp:157] Top shape: 64 160 14 14 (2007040)
I1229 10:55:10.454753  3137 net.cpp:165] Memory required for data: 687997184
I1229 10:55:10.454756  3137 layer_factory.hpp:76] Creating layer stage1/block2/sum_stage1/block2/sum/nl_0_split
I1229 10:55:10.454777  3137 net.cpp:106] Creating Layer stage1/block2/sum_stage1/block2/sum/nl_0_split
I1229 10:55:10.454778  3137 net.cpp:454] stage1/block2/sum_stage1/block2/sum/nl_0_split <- stage1/block2/sum
I1229 10:55:10.454782  3137 net.cpp:411] stage1/block2/sum_stage1/block2/sum/nl_0_split -> stage1/block2/sum_stage1/block2/sum/nl_0_split_0
I1229 10:55:10.454785  3137 net.cpp:411] stage1/block2/sum_stage1/block2/sum/nl_0_split -> stage1/block2/sum_stage1/block2/sum/nl_0_split_1
I1229 10:55:10.454844  3137 net.cpp:150] Setting up stage1/block2/sum_stage1/block2/sum/nl_0_split
I1229 10:55:10.454849  3137 net.cpp:157] Top shape: 64 160 14 14 (2007040)
I1229 10:55:10.454850  3137 net.cpp:157] Top shape: 64 160 14 14 (2007040)
I1229 10:55:10.454862  3137 net.cpp:165] Memory required for data: 704053504
I1229 10:55:10.454864  3137 layer_factory.hpp:76] Creating layer stage1/block3/conv_reduce
I1229 10:55:10.454870  3137 net.cpp:106] Creating Layer stage1/block3/conv_reduce
I1229 10:55:10.454881  3137 net.cpp:454] stage1/block3/conv_reduce <- stage1/block2/sum_stage1/block2/sum/nl_0_split_0
I1229 10:55:10.454885  3137 net.cpp:411] stage1/block3/conv_reduce -> stage1/block3/conv_reduce
I1229 10:55:10.455765  3137 net.cpp:150] Setting up stage1/block3/conv_reduce
I1229 10:55:10.455773  3137 net.cpp:157] Top shape: 64 48 14 14 (602112)
I1229 10:55:10.455775  3137 net.cpp:165] Memory required for data: 706461952
I1229 10:55:10.455780  3137 layer_factory.hpp:76] Creating layer stage1/block3/conv_reduce/nl
I1229 10:55:10.455783  3137 net.cpp:106] Creating Layer stage1/block3/conv_reduce/nl
I1229 10:55:10.455785  3137 net.cpp:454] stage1/block3/conv_reduce/nl <- stage1/block3/conv_reduce
I1229 10:55:10.455788  3137 net.cpp:397] stage1/block3/conv_reduce/nl -> stage1/block3/conv_reduce (in-place)
I1229 10:55:10.456110  3137 net.cpp:150] Setting up stage1/block3/conv_reduce/nl
I1229 10:55:10.456117  3137 net.cpp:157] Top shape: 64 48 14 14 (602112)
I1229 10:55:10.456120  3137 net.cpp:165] Memory required for data: 708870400
I1229 10:55:10.456121  3137 layer_factory.hpp:76] Creating layer stage1/block3/conv
I1229 10:55:10.456127  3137 net.cpp:106] Creating Layer stage1/block3/conv
I1229 10:55:10.456130  3137 net.cpp:454] stage1/block3/conv <- stage1/block3/conv_reduce
I1229 10:55:10.456133  3137 net.cpp:411] stage1/block3/conv -> stage1/block3/conv
I1229 10:55:10.457325  3137 net.cpp:150] Setting up stage1/block3/conv
I1229 10:55:10.457334  3137 net.cpp:157] Top shape: 64 48 14 14 (602112)
I1229 10:55:10.457335  3137 net.cpp:165] Memory required for data: 711278848
I1229 10:55:10.457340  3137 layer_factory.hpp:76] Creating layer stage1/block3/conv/nl
I1229 10:55:10.457342  3137 net.cpp:106] Creating Layer stage1/block3/conv/nl
I1229 10:55:10.457345  3137 net.cpp:454] stage1/block3/conv/nl <- stage1/block3/conv
I1229 10:55:10.457347  3137 net.cpp:397] stage1/block3/conv/nl -> stage1/block3/conv (in-place)
I1229 10:55:10.457480  3137 net.cpp:150] Setting up stage1/block3/conv/nl
I1229 10:55:10.457486  3137 net.cpp:157] Top shape: 64 48 14 14 (602112)
I1229 10:55:10.457487  3137 net.cpp:165] Memory required for data: 713687296
I1229 10:55:10.457489  3137 layer_factory.hpp:76] Creating layer stage1/block3/conv_restore
I1229 10:55:10.457495  3137 net.cpp:106] Creating Layer stage1/block3/conv_restore
I1229 10:55:10.457497  3137 net.cpp:454] stage1/block3/conv_restore <- stage1/block3/conv
I1229 10:55:10.457500  3137 net.cpp:411] stage1/block3/conv_restore -> stage1/block3/conv_restore
I1229 10:55:10.458395  3137 net.cpp:150] Setting up stage1/block3/conv_restore
I1229 10:55:10.458402  3137 net.cpp:157] Top shape: 64 160 14 14 (2007040)
I1229 10:55:10.458405  3137 net.cpp:165] Memory required for data: 721715456
I1229 10:55:10.458410  3137 layer_factory.hpp:76] Creating layer stage1/block3/sum
I1229 10:55:10.458422  3137 net.cpp:106] Creating Layer stage1/block3/sum
I1229 10:55:10.458425  3137 net.cpp:454] stage1/block3/sum <- stage1/block3/conv_restore
I1229 10:55:10.458427  3137 net.cpp:454] stage1/block3/sum <- stage1/block2/sum_stage1/block2/sum/nl_0_split_1
I1229 10:55:10.458431  3137 net.cpp:411] stage1/block3/sum -> stage1/block3/sum
I1229 10:55:10.458459  3137 net.cpp:150] Setting up stage1/block3/sum
I1229 10:55:10.458464  3137 net.cpp:157] Top shape: 64 160 14 14 (2007040)
I1229 10:55:10.458466  3137 net.cpp:165] Memory required for data: 729743616
I1229 10:55:10.458479  3137 layer_factory.hpp:76] Creating layer stage1/block3/sum/nl
I1229 10:55:10.458482  3137 net.cpp:106] Creating Layer stage1/block3/sum/nl
I1229 10:55:10.458484  3137 net.cpp:454] stage1/block3/sum/nl <- stage1/block3/sum
I1229 10:55:10.458487  3137 net.cpp:397] stage1/block3/sum/nl -> stage1/block3/sum (in-place)
I1229 10:55:10.458623  3137 net.cpp:150] Setting up stage1/block3/sum/nl
I1229 10:55:10.458629  3137 net.cpp:157] Top shape: 64 160 14 14 (2007040)
I1229 10:55:10.458631  3137 net.cpp:165] Memory required for data: 737771776
I1229 10:55:10.458632  3137 layer_factory.hpp:76] Creating layer stage1/block3/sum_stage1/block3/sum/nl_0_split
I1229 10:55:10.458636  3137 net.cpp:106] Creating Layer stage1/block3/sum_stage1/block3/sum/nl_0_split
I1229 10:55:10.458637  3137 net.cpp:454] stage1/block3/sum_stage1/block3/sum/nl_0_split <- stage1/block3/sum
I1229 10:55:10.458641  3137 net.cpp:411] stage1/block3/sum_stage1/block3/sum/nl_0_split -> stage1/block3/sum_stage1/block3/sum/nl_0_split_0
I1229 10:55:10.458647  3137 net.cpp:411] stage1/block3/sum_stage1/block3/sum/nl_0_split -> stage1/block3/sum_stage1/block3/sum/nl_0_split_1
I1229 10:55:10.458683  3137 net.cpp:150] Setting up stage1/block3/sum_stage1/block3/sum/nl_0_split
I1229 10:55:10.458686  3137 net.cpp:157] Top shape: 64 160 14 14 (2007040)
I1229 10:55:10.458688  3137 net.cpp:157] Top shape: 64 160 14 14 (2007040)
I1229 10:55:10.458690  3137 net.cpp:165] Memory required for data: 753828096
I1229 10:55:10.458691  3137 layer_factory.hpp:76] Creating layer stage2/block0/conv_reduce
I1229 10:55:10.458705  3137 net.cpp:106] Creating Layer stage2/block0/conv_reduce
I1229 10:55:10.458709  3137 net.cpp:454] stage2/block0/conv_reduce <- stage1/block3/sum_stage1/block3/sum/nl_0_split_0
I1229 10:55:10.458711  3137 net.cpp:411] stage2/block0/conv_reduce -> stage2/block0/conv_reduce
I1229 10:55:10.459682  3137 net.cpp:150] Setting up stage2/block0/conv_reduce
I1229 10:55:10.459689  3137 net.cpp:157] Top shape: 64 72 14 14 (903168)
I1229 10:55:10.459692  3137 net.cpp:165] Memory required for data: 757440768
I1229 10:55:10.459697  3137 layer_factory.hpp:76] Creating layer stage2/block0/conv_reduce/nl
I1229 10:55:10.459702  3137 net.cpp:106] Creating Layer stage2/block0/conv_reduce/nl
I1229 10:55:10.459703  3137 net.cpp:454] stage2/block0/conv_reduce/nl <- stage2/block0/conv_reduce
I1229 10:55:10.459707  3137 net.cpp:397] stage2/block0/conv_reduce/nl -> stage2/block0/conv_reduce (in-place)
I1229 10:55:10.459940  3137 net.cpp:150] Setting up stage2/block0/conv_reduce/nl
I1229 10:55:10.459947  3137 net.cpp:157] Top shape: 64 72 14 14 (903168)
I1229 10:55:10.459949  3137 net.cpp:165] Memory required for data: 761053440
I1229 10:55:10.459951  3137 layer_factory.hpp:76] Creating layer stage2/block0/conv
I1229 10:55:10.459957  3137 net.cpp:106] Creating Layer stage2/block0/conv
I1229 10:55:10.459960  3137 net.cpp:454] stage2/block0/conv <- stage2/block0/conv_reduce
I1229 10:55:10.459964  3137 net.cpp:411] stage2/block0/conv -> stage2/block0/conv
I1229 10:55:10.461714  3137 net.cpp:150] Setting up stage2/block0/conv
I1229 10:55:10.461721  3137 net.cpp:157] Top shape: 64 72 7 7 (225792)
I1229 10:55:10.461732  3137 net.cpp:165] Memory required for data: 761956608
I1229 10:55:10.461736  3137 layer_factory.hpp:76] Creating layer stage2/block0/conv/nl
I1229 10:55:10.461750  3137 net.cpp:106] Creating Layer stage2/block0/conv/nl
I1229 10:55:10.461752  3137 net.cpp:454] stage2/block0/conv/nl <- stage2/block0/conv
I1229 10:55:10.461772  3137 net.cpp:397] stage2/block0/conv/nl -> stage2/block0/conv (in-place)
I1229 10:55:10.461902  3137 net.cpp:150] Setting up stage2/block0/conv/nl
I1229 10:55:10.461907  3137 net.cpp:157] Top shape: 64 72 7 7 (225792)
I1229 10:55:10.461910  3137 net.cpp:165] Memory required for data: 762859776
I1229 10:55:10.461911  3137 layer_factory.hpp:76] Creating layer stage2/block0/conv_restore
I1229 10:55:10.461916  3137 net.cpp:106] Creating Layer stage2/block0/conv_restore
I1229 10:55:10.461918  3137 net.cpp:454] stage2/block0/conv_restore <- stage2/block0/conv
I1229 10:55:10.461922  3137 net.cpp:411] stage2/block0/conv_restore -> stage2/block0/conv_restore
I1229 10:55:10.463126  3137 net.cpp:150] Setting up stage2/block0/conv_restore
I1229 10:55:10.463135  3137 net.cpp:157] Top shape: 64 288 7 7 (903168)
I1229 10:55:10.463136  3137 net.cpp:165] Memory required for data: 766472448
I1229 10:55:10.463140  3137 layer_factory.hpp:76] Creating layer stage2/block0/shortcut
I1229 10:55:10.463146  3137 net.cpp:106] Creating Layer stage2/block0/shortcut
I1229 10:55:10.463150  3137 net.cpp:454] stage2/block0/shortcut <- stage1/block3/sum_stage1/block3/sum/nl_0_split_1
I1229 10:55:10.463153  3137 net.cpp:411] stage2/block0/shortcut -> stage2/block0/shortcut
I1229 10:55:10.464889  3137 net.cpp:150] Setting up stage2/block0/shortcut
I1229 10:55:10.464896  3137 net.cpp:157] Top shape: 64 288 7 7 (903168)
I1229 10:55:10.464898  3137 net.cpp:165] Memory required for data: 770085120
I1229 10:55:10.464902  3137 layer_factory.hpp:76] Creating layer stage2/block0/sum
I1229 10:55:10.464906  3137 net.cpp:106] Creating Layer stage2/block0/sum
I1229 10:55:10.464910  3137 net.cpp:454] stage2/block0/sum <- stage2/block0/conv_restore
I1229 10:55:10.464911  3137 net.cpp:454] stage2/block0/sum <- stage2/block0/shortcut
I1229 10:55:10.464915  3137 net.cpp:411] stage2/block0/sum -> stage2/block0/sum
I1229 10:55:10.464943  3137 net.cpp:150] Setting up stage2/block0/sum
I1229 10:55:10.464948  3137 net.cpp:157] Top shape: 64 288 7 7 (903168)
I1229 10:55:10.464949  3137 net.cpp:165] Memory required for data: 773697792
I1229 10:55:10.464951  3137 layer_factory.hpp:76] Creating layer stage2/block0/sum/nl
I1229 10:55:10.464956  3137 net.cpp:106] Creating Layer stage2/block0/sum/nl
I1229 10:55:10.464956  3137 net.cpp:454] stage2/block0/sum/nl <- stage2/block0/sum
I1229 10:55:10.464961  3137 net.cpp:397] stage2/block0/sum/nl -> stage2/block0/sum (in-place)
I1229 10:55:10.465086  3137 net.cpp:150] Setting up stage2/block0/sum/nl
I1229 10:55:10.465091  3137 net.cpp:157] Top shape: 64 288 7 7 (903168)
I1229 10:55:10.465093  3137 net.cpp:165] Memory required for data: 777310464
I1229 10:55:10.465095  3137 layer_factory.hpp:76] Creating layer stage2/block0/sum_stage2/block0/sum/nl_0_split
I1229 10:55:10.465100  3137 net.cpp:106] Creating Layer stage2/block0/sum_stage2/block0/sum/nl_0_split
I1229 10:55:10.465101  3137 net.cpp:454] stage2/block0/sum_stage2/block0/sum/nl_0_split <- stage2/block0/sum
I1229 10:55:10.465103  3137 net.cpp:411] stage2/block0/sum_stage2/block0/sum/nl_0_split -> stage2/block0/sum_stage2/block0/sum/nl_0_split_0
I1229 10:55:10.465107  3137 net.cpp:411] stage2/block0/sum_stage2/block0/sum/nl_0_split -> stage2/block0/sum_stage2/block0/sum/nl_0_split_1
I1229 10:55:10.465144  3137 net.cpp:150] Setting up stage2/block0/sum_stage2/block0/sum/nl_0_split
I1229 10:55:10.465148  3137 net.cpp:157] Top shape: 64 288 7 7 (903168)
I1229 10:55:10.465152  3137 net.cpp:157] Top shape: 64 288 7 7 (903168)
I1229 10:55:10.465152  3137 net.cpp:165] Memory required for data: 784535808
I1229 10:55:10.465154  3137 layer_factory.hpp:76] Creating layer stage2/block1/conv_reduce
I1229 10:55:10.465159  3137 net.cpp:106] Creating Layer stage2/block1/conv_reduce
I1229 10:55:10.465170  3137 net.cpp:454] stage2/block1/conv_reduce <- stage2/block0/sum_stage2/block0/sum/nl_0_split_0
I1229 10:55:10.465174  3137 net.cpp:411] stage2/block1/conv_reduce -> stage2/block1/conv_reduce
I1229 10:55:10.466356  3137 net.cpp:150] Setting up stage2/block1/conv_reduce
I1229 10:55:10.466372  3137 net.cpp:157] Top shape: 64 72 7 7 (225792)
I1229 10:55:10.466374  3137 net.cpp:165] Memory required for data: 785438976
I1229 10:55:10.466394  3137 layer_factory.hpp:76] Creating layer stage2/block1/conv_reduce/nl
I1229 10:55:10.466399  3137 net.cpp:106] Creating Layer stage2/block1/conv_reduce/nl
I1229 10:55:10.466401  3137 net.cpp:454] stage2/block1/conv_reduce/nl <- stage2/block1/conv_reduce
I1229 10:55:10.466404  3137 net.cpp:397] stage2/block1/conv_reduce/nl -> stage2/block1/conv_reduce (in-place)
I1229 10:55:10.466651  3137 net.cpp:150] Setting up stage2/block1/conv_reduce/nl
I1229 10:55:10.466658  3137 net.cpp:157] Top shape: 64 72 7 7 (225792)
I1229 10:55:10.466660  3137 net.cpp:165] Memory required for data: 786342144
I1229 10:55:10.466662  3137 layer_factory.hpp:76] Creating layer stage2/block1/conv
I1229 10:55:10.466668  3137 net.cpp:106] Creating Layer stage2/block1/conv
I1229 10:55:10.466670  3137 net.cpp:454] stage2/block1/conv <- stage2/block1/conv_reduce
I1229 10:55:10.466675  3137 net.cpp:411] stage2/block1/conv -> stage2/block1/conv
I1229 10:55:10.468644  3137 net.cpp:150] Setting up stage2/block1/conv
I1229 10:55:10.468653  3137 net.cpp:157] Top shape: 64 72 7 7 (225792)
I1229 10:55:10.468655  3137 net.cpp:165] Memory required for data: 787245312
I1229 10:55:10.468659  3137 layer_factory.hpp:76] Creating layer stage2/block1/conv/nl
I1229 10:55:10.468663  3137 net.cpp:106] Creating Layer stage2/block1/conv/nl
I1229 10:55:10.468665  3137 net.cpp:454] stage2/block1/conv/nl <- stage2/block1/conv
I1229 10:55:10.468668  3137 net.cpp:397] stage2/block1/conv/nl -> stage2/block1/conv (in-place)
I1229 10:55:10.468899  3137 net.cpp:150] Setting up stage2/block1/conv/nl
I1229 10:55:10.468906  3137 net.cpp:157] Top shape: 64 72 7 7 (225792)
I1229 10:55:10.468909  3137 net.cpp:165] Memory required for data: 788148480
I1229 10:55:10.468910  3137 layer_factory.hpp:76] Creating layer stage2/block1/conv_restore
I1229 10:55:10.468915  3137 net.cpp:106] Creating Layer stage2/block1/conv_restore
I1229 10:55:10.468917  3137 net.cpp:454] stage2/block1/conv_restore <- stage2/block1/conv
I1229 10:55:10.468921  3137 net.cpp:411] stage2/block1/conv_restore -> stage2/block1/conv_restore
I1229 10:55:10.470216  3137 net.cpp:150] Setting up stage2/block1/conv_restore
I1229 10:55:10.470224  3137 net.cpp:157] Top shape: 64 288 7 7 (903168)
I1229 10:55:10.470227  3137 net.cpp:165] Memory required for data: 791761152
I1229 10:55:10.470230  3137 layer_factory.hpp:76] Creating layer stage2/block1/sum
I1229 10:55:10.470234  3137 net.cpp:106] Creating Layer stage2/block1/sum
I1229 10:55:10.470240  3137 net.cpp:454] stage2/block1/sum <- stage2/block1/conv_restore
I1229 10:55:10.470243  3137 net.cpp:454] stage2/block1/sum <- stage2/block0/sum_stage2/block0/sum/nl_0_split_1
I1229 10:55:10.470247  3137 net.cpp:411] stage2/block1/sum -> stage2/block1/sum
I1229 10:55:10.470276  3137 net.cpp:150] Setting up stage2/block1/sum
I1229 10:55:10.470283  3137 net.cpp:157] Top shape: 64 288 7 7 (903168)
I1229 10:55:10.470284  3137 net.cpp:165] Memory required for data: 795373824
I1229 10:55:10.470286  3137 layer_factory.hpp:76] Creating layer stage2/block1/sum/nl
I1229 10:55:10.470289  3137 net.cpp:106] Creating Layer stage2/block1/sum/nl
I1229 10:55:10.470291  3137 net.cpp:454] stage2/block1/sum/nl <- stage2/block1/sum
I1229 10:55:10.470293  3137 net.cpp:397] stage2/block1/sum/nl -> stage2/block1/sum (in-place)
I1229 10:55:10.470425  3137 net.cpp:150] Setting up stage2/block1/sum/nl
I1229 10:55:10.470430  3137 net.cpp:157] Top shape: 64 288 7 7 (903168)
I1229 10:55:10.470432  3137 net.cpp:165] Memory required for data: 798986496
I1229 10:55:10.470433  3137 layer_factory.hpp:76] Creating layer stage2/block1/sum_stage2/block1/sum/nl_0_split
I1229 10:55:10.470437  3137 net.cpp:106] Creating Layer stage2/block1/sum_stage2/block1/sum/nl_0_split
I1229 10:55:10.470440  3137 net.cpp:454] stage2/block1/sum_stage2/block1/sum/nl_0_split <- stage2/block1/sum
I1229 10:55:10.470443  3137 net.cpp:411] stage2/block1/sum_stage2/block1/sum/nl_0_split -> stage2/block1/sum_stage2/block1/sum/nl_0_split_0
I1229 10:55:10.470455  3137 net.cpp:411] stage2/block1/sum_stage2/block1/sum/nl_0_split -> stage2/block1/sum_stage2/block1/sum/nl_0_split_1
I1229 10:55:10.470495  3137 net.cpp:150] Setting up stage2/block1/sum_stage2/block1/sum/nl_0_split
I1229 10:55:10.470509  3137 net.cpp:157] Top shape: 64 288 7 7 (903168)
I1229 10:55:10.470510  3137 net.cpp:157] Top shape: 64 288 7 7 (903168)
I1229 10:55:10.470512  3137 net.cpp:165] Memory required for data: 806211840
I1229 10:55:10.470528  3137 layer_factory.hpp:76] Creating layer stage2/block2/conv_reduce
I1229 10:55:10.470533  3137 net.cpp:106] Creating Layer stage2/block2/conv_reduce
I1229 10:55:10.470535  3137 net.cpp:454] stage2/block2/conv_reduce <- stage2/block1/sum_stage2/block1/sum/nl_0_split_0
I1229 10:55:10.470548  3137 net.cpp:411] stage2/block2/conv_reduce -> stage2/block2/conv_reduce
I1229 10:55:10.471724  3137 net.cpp:150] Setting up stage2/block2/conv_reduce
I1229 10:55:10.471730  3137 net.cpp:157] Top shape: 64 72 7 7 (225792)
I1229 10:55:10.471732  3137 net.cpp:165] Memory required for data: 807115008
I1229 10:55:10.471737  3137 layer_factory.hpp:76] Creating layer stage2/block2/conv_reduce/nl
I1229 10:55:10.471740  3137 net.cpp:106] Creating Layer stage2/block2/conv_reduce/nl
I1229 10:55:10.471742  3137 net.cpp:454] stage2/block2/conv_reduce/nl <- stage2/block2/conv_reduce
I1229 10:55:10.471746  3137 net.cpp:397] stage2/block2/conv_reduce/nl -> stage2/block2/conv_reduce (in-place)
I1229 10:55:10.471981  3137 net.cpp:150] Setting up stage2/block2/conv_reduce/nl
I1229 10:55:10.471987  3137 net.cpp:157] Top shape: 64 72 7 7 (225792)
I1229 10:55:10.471988  3137 net.cpp:165] Memory required for data: 808018176
I1229 10:55:10.471992  3137 layer_factory.hpp:76] Creating layer stage2/block2/conv
I1229 10:55:10.471997  3137 net.cpp:106] Creating Layer stage2/block2/conv
I1229 10:55:10.471999  3137 net.cpp:454] stage2/block2/conv <- stage2/block2/conv_reduce
I1229 10:55:10.472003  3137 net.cpp:411] stage2/block2/conv -> stage2/block2/conv
I1229 10:55:10.473660  3137 net.cpp:150] Setting up stage2/block2/conv
I1229 10:55:10.473670  3137 net.cpp:157] Top shape: 64 72 7 7 (225792)
I1229 10:55:10.473671  3137 net.cpp:165] Memory required for data: 808921344
I1229 10:55:10.473680  3137 layer_factory.hpp:76] Creating layer stage2/block2/conv/nl
I1229 10:55:10.473685  3137 net.cpp:106] Creating Layer stage2/block2/conv/nl
I1229 10:55:10.473686  3137 net.cpp:454] stage2/block2/conv/nl <- stage2/block2/conv
I1229 10:55:10.473690  3137 net.cpp:397] stage2/block2/conv/nl -> stage2/block2/conv (in-place)
I1229 10:55:10.473923  3137 net.cpp:150] Setting up stage2/block2/conv/nl
I1229 10:55:10.473930  3137 net.cpp:157] Top shape: 64 72 7 7 (225792)
I1229 10:55:10.473932  3137 net.cpp:165] Memory required for data: 809824512
I1229 10:55:10.473934  3137 layer_factory.hpp:76] Creating layer stage2/block2/conv_restore
I1229 10:55:10.473939  3137 net.cpp:106] Creating Layer stage2/block2/conv_restore
I1229 10:55:10.473942  3137 net.cpp:454] stage2/block2/conv_restore <- stage2/block2/conv
I1229 10:55:10.473947  3137 net.cpp:411] stage2/block2/conv_restore -> stage2/block2/conv_restore
I1229 10:55:10.475142  3137 net.cpp:150] Setting up stage2/block2/conv_restore
I1229 10:55:10.475152  3137 net.cpp:157] Top shape: 64 288 7 7 (903168)
I1229 10:55:10.475153  3137 net.cpp:165] Memory required for data: 813437184
I1229 10:55:10.475157  3137 layer_factory.hpp:76] Creating layer stage2/block2/sum
I1229 10:55:10.475162  3137 net.cpp:106] Creating Layer stage2/block2/sum
I1229 10:55:10.475163  3137 net.cpp:454] stage2/block2/sum <- stage2/block2/conv_restore
I1229 10:55:10.475167  3137 net.cpp:454] stage2/block2/sum <- stage2/block1/sum_stage2/block1/sum/nl_0_split_1
I1229 10:55:10.475169  3137 net.cpp:411] stage2/block2/sum -> stage2/block2/sum
I1229 10:55:10.475199  3137 net.cpp:150] Setting up stage2/block2/sum
I1229 10:55:10.475203  3137 net.cpp:157] Top shape: 64 288 7 7 (903168)
I1229 10:55:10.475214  3137 net.cpp:165] Memory required for data: 817049856
I1229 10:55:10.475215  3137 layer_factory.hpp:76] Creating layer stage2/block2/sum/nl
I1229 10:55:10.475220  3137 net.cpp:106] Creating Layer stage2/block2/sum/nl
I1229 10:55:10.475222  3137 net.cpp:454] stage2/block2/sum/nl <- stage2/block2/sum
I1229 10:55:10.475225  3137 net.cpp:397] stage2/block2/sum/nl -> stage2/block2/sum (in-place)
I1229 10:55:10.475358  3137 net.cpp:150] Setting up stage2/block2/sum/nl
I1229 10:55:10.475363  3137 net.cpp:157] Top shape: 64 288 7 7 (903168)
I1229 10:55:10.475365  3137 net.cpp:165] Memory required for data: 820662528
I1229 10:55:10.475366  3137 layer_factory.hpp:76] Creating layer stage2/block2/sum_stage2/block2/sum/nl_0_split
I1229 10:55:10.475370  3137 net.cpp:106] Creating Layer stage2/block2/sum_stage2/block2/sum/nl_0_split
I1229 10:55:10.475371  3137 net.cpp:454] stage2/block2/sum_stage2/block2/sum/nl_0_split <- stage2/block2/sum
I1229 10:55:10.475375  3137 net.cpp:411] stage2/block2/sum_stage2/block2/sum/nl_0_split -> stage2/block2/sum_stage2/block2/sum/nl_0_split_0
I1229 10:55:10.475379  3137 net.cpp:411] stage2/block2/sum_stage2/block2/sum/nl_0_split -> stage2/block2/sum_stage2/block2/sum/nl_0_split_1
I1229 10:55:10.475426  3137 net.cpp:150] Setting up stage2/block2/sum_stage2/block2/sum/nl_0_split
I1229 10:55:10.475430  3137 net.cpp:157] Top shape: 64 288 7 7 (903168)
I1229 10:55:10.475442  3137 net.cpp:157] Top shape: 64 288 7 7 (903168)
I1229 10:55:10.475445  3137 net.cpp:165] Memory required for data: 827887872
I1229 10:55:10.475445  3137 layer_factory.hpp:76] Creating layer stage2/block3/conv_reduce
I1229 10:55:10.475450  3137 net.cpp:106] Creating Layer stage2/block3/conv_reduce
I1229 10:55:10.475452  3137 net.cpp:454] stage2/block3/conv_reduce <- stage2/block2/sum_stage2/block2/sum/nl_0_split_0
I1229 10:55:10.475466  3137 net.cpp:411] stage2/block3/conv_reduce -> stage2/block3/conv_reduce
I1229 10:55:10.476644  3137 net.cpp:150] Setting up stage2/block3/conv_reduce
I1229 10:55:10.476650  3137 net.cpp:157] Top shape: 64 72 7 7 (225792)
I1229 10:55:10.476652  3137 net.cpp:165] Memory required for data: 828791040
I1229 10:55:10.476656  3137 layer_factory.hpp:76] Creating layer stage2/block3/conv_reduce/nl
I1229 10:55:10.476661  3137 net.cpp:106] Creating Layer stage2/block3/conv_reduce/nl
I1229 10:55:10.476663  3137 net.cpp:454] stage2/block3/conv_reduce/nl <- stage2/block3/conv_reduce
I1229 10:55:10.476667  3137 net.cpp:397] stage2/block3/conv_reduce/nl -> stage2/block3/conv_reduce (in-place)
I1229 10:55:10.476902  3137 net.cpp:150] Setting up stage2/block3/conv_reduce/nl
I1229 10:55:10.476908  3137 net.cpp:157] Top shape: 64 72 7 7 (225792)
I1229 10:55:10.476910  3137 net.cpp:165] Memory required for data: 829694208
I1229 10:55:10.476912  3137 layer_factory.hpp:76] Creating layer stage2/block3/conv
I1229 10:55:10.476918  3137 net.cpp:106] Creating Layer stage2/block3/conv
I1229 10:55:10.476920  3137 net.cpp:454] stage2/block3/conv <- stage2/block3/conv_reduce
I1229 10:55:10.476924  3137 net.cpp:411] stage2/block3/conv -> stage2/block3/conv
I1229 10:55:10.478586  3137 net.cpp:150] Setting up stage2/block3/conv
I1229 10:55:10.478595  3137 net.cpp:157] Top shape: 64 72 7 7 (225792)
I1229 10:55:10.478596  3137 net.cpp:165] Memory required for data: 830597376
I1229 10:55:10.478600  3137 layer_factory.hpp:76] Creating layer stage2/block3/conv/nl
I1229 10:55:10.478605  3137 net.cpp:106] Creating Layer stage2/block3/conv/nl
I1229 10:55:10.478607  3137 net.cpp:454] stage2/block3/conv/nl <- stage2/block3/conv
I1229 10:55:10.478610  3137 net.cpp:397] stage2/block3/conv/nl -> stage2/block3/conv (in-place)
I1229 10:55:10.478845  3137 net.cpp:150] Setting up stage2/block3/conv/nl
I1229 10:55:10.478852  3137 net.cpp:157] Top shape: 64 72 7 7 (225792)
I1229 10:55:10.478854  3137 net.cpp:165] Memory required for data: 831500544
I1229 10:55:10.478857  3137 layer_factory.hpp:76] Creating layer stage2/block3/conv_restore
I1229 10:55:10.478863  3137 net.cpp:106] Creating Layer stage2/block3/conv_restore
I1229 10:55:10.478864  3137 net.cpp:454] stage2/block3/conv_restore <- stage2/block3/conv
I1229 10:55:10.478888  3137 net.cpp:411] stage2/block3/conv_restore -> stage2/block3/conv_restore
I1229 10:55:10.480092  3137 net.cpp:150] Setting up stage2/block3/conv_restore
I1229 10:55:10.480099  3137 net.cpp:157] Top shape: 64 288 7 7 (903168)
I1229 10:55:10.480101  3137 net.cpp:165] Memory required for data: 835113216
I1229 10:55:10.480105  3137 layer_factory.hpp:76] Creating layer stage2/block3/sum
I1229 10:55:10.480109  3137 net.cpp:106] Creating Layer stage2/block3/sum
I1229 10:55:10.480113  3137 net.cpp:454] stage2/block3/sum <- stage2/block3/conv_restore
I1229 10:55:10.480114  3137 net.cpp:454] stage2/block3/sum <- stage2/block2/sum_stage2/block2/sum/nl_0_split_1
I1229 10:55:10.480118  3137 net.cpp:411] stage2/block3/sum -> stage2/block3/sum
I1229 10:55:10.480146  3137 net.cpp:150] Setting up stage2/block3/sum
I1229 10:55:10.480151  3137 net.cpp:157] Top shape: 64 288 7 7 (903168)
I1229 10:55:10.480152  3137 net.cpp:165] Memory required for data: 838725888
I1229 10:55:10.480154  3137 layer_factory.hpp:76] Creating layer stage2/block3/sum/nl
I1229 10:55:10.480159  3137 net.cpp:106] Creating Layer stage2/block3/sum/nl
I1229 10:55:10.480160  3137 net.cpp:454] stage2/block3/sum/nl <- stage2/block3/sum
I1229 10:55:10.480164  3137 net.cpp:397] stage2/block3/sum/nl -> stage2/block3/sum (in-place)
I1229 10:55:10.480291  3137 net.cpp:150] Setting up stage2/block3/sum/nl
I1229 10:55:10.480296  3137 net.cpp:157] Top shape: 64 288 7 7 (903168)
I1229 10:55:10.480298  3137 net.cpp:165] Memory required for data: 842338560
I1229 10:55:10.480300  3137 layer_factory.hpp:76] Creating layer stage2/block3/sum_stage2/block3/sum/nl_0_split
I1229 10:55:10.480304  3137 net.cpp:106] Creating Layer stage2/block3/sum_stage2/block3/sum/nl_0_split
I1229 10:55:10.480305  3137 net.cpp:454] stage2/block3/sum_stage2/block3/sum/nl_0_split <- stage2/block3/sum
I1229 10:55:10.480309  3137 net.cpp:411] stage2/block3/sum_stage2/block3/sum/nl_0_split -> stage2/block3/sum_stage2/block3/sum/nl_0_split_0
I1229 10:55:10.480312  3137 net.cpp:411] stage2/block3/sum_stage2/block3/sum/nl_0_split -> stage2/block3/sum_stage2/block3/sum/nl_0_split_1
I1229 10:55:10.480350  3137 net.cpp:150] Setting up stage2/block3/sum_stage2/block3/sum/nl_0_split
I1229 10:55:10.480353  3137 net.cpp:157] Top shape: 64 288 7 7 (903168)
I1229 10:55:10.480356  3137 net.cpp:157] Top shape: 64 288 7 7 (903168)
I1229 10:55:10.480357  3137 net.cpp:165] Memory required for data: 849563904
I1229 10:55:10.480360  3137 layer_factory.hpp:76] Creating layer stage2/block4/conv_reduce
I1229 10:55:10.480376  3137 net.cpp:106] Creating Layer stage2/block4/conv_reduce
I1229 10:55:10.480377  3137 net.cpp:454] stage2/block4/conv_reduce <- stage2/block3/sum_stage2/block3/sum/nl_0_split_0
I1229 10:55:10.480381  3137 net.cpp:411] stage2/block4/conv_reduce -> stage2/block4/conv_reduce
I1229 10:55:10.481917  3137 net.cpp:150] Setting up stage2/block4/conv_reduce
I1229 10:55:10.481925  3137 net.cpp:157] Top shape: 64 72 7 7 (225792)
I1229 10:55:10.481937  3137 net.cpp:165] Memory required for data: 850467072
I1229 10:55:10.481941  3137 layer_factory.hpp:76] Creating layer stage2/block4/conv_reduce/nl
I1229 10:55:10.481946  3137 net.cpp:106] Creating Layer stage2/block4/conv_reduce/nl
I1229 10:55:10.481950  3137 net.cpp:454] stage2/block4/conv_reduce/nl <- stage2/block4/conv_reduce
I1229 10:55:10.481952  3137 net.cpp:397] stage2/block4/conv_reduce/nl -> stage2/block4/conv_reduce (in-place)
I1229 10:55:10.482197  3137 net.cpp:150] Setting up stage2/block4/conv_reduce/nl
I1229 10:55:10.482203  3137 net.cpp:157] Top shape: 64 72 7 7 (225792)
I1229 10:55:10.482214  3137 net.cpp:165] Memory required for data: 851370240
I1229 10:55:10.482216  3137 layer_factory.hpp:76] Creating layer stage2/block4/conv
I1229 10:55:10.482223  3137 net.cpp:106] Creating Layer stage2/block4/conv
I1229 10:55:10.482225  3137 net.cpp:454] stage2/block4/conv <- stage2/block4/conv_reduce
I1229 10:55:10.482229  3137 net.cpp:411] stage2/block4/conv -> stage2/block4/conv
I1229 10:55:10.484374  3137 net.cpp:150] Setting up stage2/block4/conv
I1229 10:55:10.484382  3137 net.cpp:157] Top shape: 64 72 7 7 (225792)
I1229 10:55:10.484385  3137 net.cpp:165] Memory required for data: 852273408
I1229 10:55:10.484388  3137 layer_factory.hpp:76] Creating layer stage2/block4/conv/nl
I1229 10:55:10.484392  3137 net.cpp:106] Creating Layer stage2/block4/conv/nl
I1229 10:55:10.484395  3137 net.cpp:454] stage2/block4/conv/nl <- stage2/block4/conv
I1229 10:55:10.484398  3137 net.cpp:397] stage2/block4/conv/nl -> stage2/block4/conv (in-place)
I1229 10:55:10.484637  3137 net.cpp:150] Setting up stage2/block4/conv/nl
I1229 10:55:10.484644  3137 net.cpp:157] Top shape: 64 72 7 7 (225792)
I1229 10:55:10.484645  3137 net.cpp:165] Memory required for data: 853176576
I1229 10:55:10.484647  3137 layer_factory.hpp:76] Creating layer stage2/block4/conv_restore
I1229 10:55:10.484653  3137 net.cpp:106] Creating Layer stage2/block4/conv_restore
I1229 10:55:10.484655  3137 net.cpp:454] stage2/block4/conv_restore <- stage2/block4/conv
I1229 10:55:10.484660  3137 net.cpp:411] stage2/block4/conv_restore -> stage2/block4/conv_restore
I1229 10:55:10.485940  3137 net.cpp:150] Setting up stage2/block4/conv_restore
I1229 10:55:10.485949  3137 net.cpp:157] Top shape: 64 288 7 7 (903168)
I1229 10:55:10.485951  3137 net.cpp:165] Memory required for data: 856789248
I1229 10:55:10.485955  3137 layer_factory.hpp:76] Creating layer stage2/block4/sum
I1229 10:55:10.485961  3137 net.cpp:106] Creating Layer stage2/block4/sum
I1229 10:55:10.485963  3137 net.cpp:454] stage2/block4/sum <- stage2/block4/conv_restore
I1229 10:55:10.485966  3137 net.cpp:454] stage2/block4/sum <- stage2/block3/sum_stage2/block3/sum/nl_0_split_1
I1229 10:55:10.485970  3137 net.cpp:411] stage2/block4/sum -> stage2/block4/sum
I1229 10:55:10.485992  3137 net.cpp:150] Setting up stage2/block4/sum
I1229 10:55:10.485996  3137 net.cpp:157] Top shape: 64 288 7 7 (903168)
I1229 10:55:10.485997  3137 net.cpp:165] Memory required for data: 860401920
I1229 10:55:10.485999  3137 layer_factory.hpp:76] Creating layer stage2/block4/sum/nl
I1229 10:55:10.486002  3137 net.cpp:106] Creating Layer stage2/block4/sum/nl
I1229 10:55:10.486004  3137 net.cpp:454] stage2/block4/sum/nl <- stage2/block4/sum
I1229 10:55:10.486007  3137 net.cpp:397] stage2/block4/sum/nl -> stage2/block4/sum (in-place)
I1229 10:55:10.486127  3137 net.cpp:150] Setting up stage2/block4/sum/nl
I1229 10:55:10.486134  3137 net.cpp:157] Top shape: 64 288 7 7 (903168)
I1229 10:55:10.486135  3137 net.cpp:165] Memory required for data: 864014592
I1229 10:55:10.486137  3137 layer_factory.hpp:76] Creating layer stage2/block4/sum_stage2/block4/sum/nl_0_split
I1229 10:55:10.486141  3137 net.cpp:106] Creating Layer stage2/block4/sum_stage2/block4/sum/nl_0_split
I1229 10:55:10.486143  3137 net.cpp:454] stage2/block4/sum_stage2/block4/sum/nl_0_split <- stage2/block4/sum
I1229 10:55:10.486146  3137 net.cpp:411] stage2/block4/sum_stage2/block4/sum/nl_0_split -> stage2/block4/sum_stage2/block4/sum/nl_0_split_0
I1229 10:55:10.486151  3137 net.cpp:411] stage2/block4/sum_stage2/block4/sum/nl_0_split -> stage2/block4/sum_stage2/block4/sum/nl_0_split_1
I1229 10:55:10.486181  3137 net.cpp:150] Setting up stage2/block4/sum_stage2/block4/sum/nl_0_split
I1229 10:55:10.486186  3137 net.cpp:157] Top shape: 64 288 7 7 (903168)
I1229 10:55:10.486188  3137 net.cpp:157] Top shape: 64 288 7 7 (903168)
I1229 10:55:10.486189  3137 net.cpp:165] Memory required for data: 871239936
I1229 10:55:10.486191  3137 layer_factory.hpp:76] Creating layer stage2/block5/conv_reduce
I1229 10:55:10.486197  3137 net.cpp:106] Creating Layer stage2/block5/conv_reduce
I1229 10:55:10.486201  3137 net.cpp:454] stage2/block5/conv_reduce <- stage2/block4/sum_stage2/block4/sum/nl_0_split_0
I1229 10:55:10.486203  3137 net.cpp:411] stage2/block5/conv_reduce -> stage2/block5/conv_reduce
I1229 10:55:10.487413  3137 net.cpp:150] Setting up stage2/block5/conv_reduce
I1229 10:55:10.487422  3137 net.cpp:157] Top shape: 64 72 7 7 (225792)
I1229 10:55:10.487424  3137 net.cpp:165] Memory required for data: 872143104
I1229 10:55:10.487437  3137 layer_factory.hpp:76] Creating layer stage2/block5/conv_reduce/nl
I1229 10:55:10.487442  3137 net.cpp:106] Creating Layer stage2/block5/conv_reduce/nl
I1229 10:55:10.487444  3137 net.cpp:454] stage2/block5/conv_reduce/nl <- stage2/block5/conv_reduce
I1229 10:55:10.487447  3137 net.cpp:397] stage2/block5/conv_reduce/nl -> stage2/block5/conv_reduce (in-place)
I1229 10:55:10.487686  3137 net.cpp:150] Setting up stage2/block5/conv_reduce/nl
I1229 10:55:10.487694  3137 net.cpp:157] Top shape: 64 72 7 7 (225792)
I1229 10:55:10.487695  3137 net.cpp:165] Memory required for data: 873046272
I1229 10:55:10.487697  3137 layer_factory.hpp:76] Creating layer stage2/block5/conv
I1229 10:55:10.487704  3137 net.cpp:106] Creating Layer stage2/block5/conv
I1229 10:55:10.487706  3137 net.cpp:454] stage2/block5/conv <- stage2/block5/conv_reduce
I1229 10:55:10.487710  3137 net.cpp:411] stage2/block5/conv -> stage2/block5/conv
I1229 10:55:10.489392  3137 net.cpp:150] Setting up stage2/block5/conv
I1229 10:55:10.489399  3137 net.cpp:157] Top shape: 64 72 7 7 (225792)
I1229 10:55:10.489401  3137 net.cpp:165] Memory required for data: 873949440
I1229 10:55:10.489405  3137 layer_factory.hpp:76] Creating layer stage2/block5/conv/nl
I1229 10:55:10.489409  3137 net.cpp:106] Creating Layer stage2/block5/conv/nl
I1229 10:55:10.489411  3137 net.cpp:454] stage2/block5/conv/nl <- stage2/block5/conv
I1229 10:55:10.489415  3137 net.cpp:397] stage2/block5/conv/nl -> stage2/block5/conv (in-place)
I1229 10:55:10.489650  3137 net.cpp:150] Setting up stage2/block5/conv/nl
I1229 10:55:10.489657  3137 net.cpp:157] Top shape: 64 72 7 7 (225792)
I1229 10:55:10.489660  3137 net.cpp:165] Memory required for data: 874852608
I1229 10:55:10.489661  3137 layer_factory.hpp:76] Creating layer stage2/block5/conv_restore
I1229 10:55:10.489667  3137 net.cpp:106] Creating Layer stage2/block5/conv_restore
I1229 10:55:10.489670  3137 net.cpp:454] stage2/block5/conv_restore <- stage2/block5/conv
I1229 10:55:10.489673  3137 net.cpp:411] stage2/block5/conv_restore -> stage2/block5/conv_restore
I1229 10:55:10.490893  3137 net.cpp:150] Setting up stage2/block5/conv_restore
I1229 10:55:10.490901  3137 net.cpp:157] Top shape: 64 288 7 7 (903168)
I1229 10:55:10.490903  3137 net.cpp:165] Memory required for data: 878465280
I1229 10:55:10.490907  3137 layer_factory.hpp:76] Creating layer stage2/block5/sum
I1229 10:55:10.490912  3137 net.cpp:106] Creating Layer stage2/block5/sum
I1229 10:55:10.490914  3137 net.cpp:454] stage2/block5/sum <- stage2/block5/conv_restore
I1229 10:55:10.490917  3137 net.cpp:454] stage2/block5/sum <- stage2/block4/sum_stage2/block4/sum/nl_0_split_1
I1229 10:55:10.490921  3137 net.cpp:411] stage2/block5/sum -> stage2/block5/sum
I1229 10:55:10.490950  3137 net.cpp:150] Setting up stage2/block5/sum
I1229 10:55:10.490955  3137 net.cpp:157] Top shape: 64 288 7 7 (903168)
I1229 10:55:10.490957  3137 net.cpp:165] Memory required for data: 882077952
I1229 10:55:10.490958  3137 layer_factory.hpp:76] Creating layer stage2/block5/sum/nl
I1229 10:55:10.490962  3137 net.cpp:106] Creating Layer stage2/block5/sum/nl
I1229 10:55:10.490963  3137 net.cpp:454] stage2/block5/sum/nl <- stage2/block5/sum
I1229 10:55:10.490967  3137 net.cpp:397] stage2/block5/sum/nl -> stage2/block5/sum (in-place)
I1229 10:55:10.491098  3137 net.cpp:150] Setting up stage2/block5/sum/nl
I1229 10:55:10.491104  3137 net.cpp:157] Top shape: 64 288 7 7 (903168)
I1229 10:55:10.491106  3137 net.cpp:165] Memory required for data: 885690624
I1229 10:55:10.491107  3137 layer_factory.hpp:76] Creating layer stage2/block5/sum_stage2/block5/sum/nl_0_split
I1229 10:55:10.491111  3137 net.cpp:106] Creating Layer stage2/block5/sum_stage2/block5/sum/nl_0_split
I1229 10:55:10.491113  3137 net.cpp:454] stage2/block5/sum_stage2/block5/sum/nl_0_split <- stage2/block5/sum
I1229 10:55:10.491116  3137 net.cpp:411] stage2/block5/sum_stage2/block5/sum/nl_0_split -> stage2/block5/sum_stage2/block5/sum/nl_0_split_0
I1229 10:55:10.491120  3137 net.cpp:411] stage2/block5/sum_stage2/block5/sum/nl_0_split -> stage2/block5/sum_stage2/block5/sum/nl_0_split_1
I1229 10:55:10.491179  3137 net.cpp:150] Setting up stage2/block5/sum_stage2/block5/sum/nl_0_split
I1229 10:55:10.491183  3137 net.cpp:157] Top shape: 64 288 7 7 (903168)
I1229 10:55:10.491200  3137 net.cpp:157] Top shape: 64 288 7 7 (903168)
I1229 10:55:10.491201  3137 net.cpp:165] Memory required for data: 892915968
I1229 10:55:10.491204  3137 layer_factory.hpp:76] Creating layer stage2/block6/conv_reduce
I1229 10:55:10.491209  3137 net.cpp:106] Creating Layer stage2/block6/conv_reduce
I1229 10:55:10.491220  3137 net.cpp:454] stage2/block6/conv_reduce <- stage2/block5/sum_stage2/block5/sum/nl_0_split_0
I1229 10:55:10.491224  3137 net.cpp:411] stage2/block6/conv_reduce -> stage2/block6/conv_reduce
I1229 10:55:10.492455  3137 net.cpp:150] Setting up stage2/block6/conv_reduce
I1229 10:55:10.492461  3137 net.cpp:157] Top shape: 64 72 7 7 (225792)
I1229 10:55:10.492463  3137 net.cpp:165] Memory required for data: 893819136
I1229 10:55:10.492467  3137 layer_factory.hpp:76] Creating layer stage2/block6/conv_reduce/nl
I1229 10:55:10.492472  3137 net.cpp:106] Creating Layer stage2/block6/conv_reduce/nl
I1229 10:55:10.492475  3137 net.cpp:454] stage2/block6/conv_reduce/nl <- stage2/block6/conv_reduce
I1229 10:55:10.492477  3137 net.cpp:397] stage2/block6/conv_reduce/nl -> stage2/block6/conv_reduce (in-place)
I1229 10:55:10.492714  3137 net.cpp:150] Setting up stage2/block6/conv_reduce/nl
I1229 10:55:10.492722  3137 net.cpp:157] Top shape: 64 72 7 7 (225792)
I1229 10:55:10.492723  3137 net.cpp:165] Memory required for data: 894722304
I1229 10:55:10.492725  3137 layer_factory.hpp:76] Creating layer stage2/block6/conv
I1229 10:55:10.492732  3137 net.cpp:106] Creating Layer stage2/block6/conv
I1229 10:55:10.492733  3137 net.cpp:454] stage2/block6/conv <- stage2/block6/conv_reduce
I1229 10:55:10.492738  3137 net.cpp:411] stage2/block6/conv -> stage2/block6/conv
I1229 10:55:10.494427  3137 net.cpp:150] Setting up stage2/block6/conv
I1229 10:55:10.494434  3137 net.cpp:157] Top shape: 64 72 7 7 (225792)
I1229 10:55:10.494436  3137 net.cpp:165] Memory required for data: 895625472
I1229 10:55:10.494441  3137 layer_factory.hpp:76] Creating layer stage2/block6/conv/nl
I1229 10:55:10.494444  3137 net.cpp:106] Creating Layer stage2/block6/conv/nl
I1229 10:55:10.494446  3137 net.cpp:454] stage2/block6/conv/nl <- stage2/block6/conv
I1229 10:55:10.494451  3137 net.cpp:397] stage2/block6/conv/nl -> stage2/block6/conv (in-place)
I1229 10:55:10.494688  3137 net.cpp:150] Setting up stage2/block6/conv/nl
I1229 10:55:10.494695  3137 net.cpp:157] Top shape: 64 72 7 7 (225792)
I1229 10:55:10.494696  3137 net.cpp:165] Memory required for data: 896528640
I1229 10:55:10.494699  3137 layer_factory.hpp:76] Creating layer stage2/block6/conv_restore
I1229 10:55:10.494705  3137 net.cpp:106] Creating Layer stage2/block6/conv_restore
I1229 10:55:10.494707  3137 net.cpp:454] stage2/block6/conv_restore <- stage2/block6/conv
I1229 10:55:10.494711  3137 net.cpp:411] stage2/block6/conv_restore -> stage2/block6/conv_restore
I1229 10:55:10.496222  3137 net.cpp:150] Setting up stage2/block6/conv_restore
I1229 10:55:10.496230  3137 net.cpp:157] Top shape: 64 288 7 7 (903168)
I1229 10:55:10.496232  3137 net.cpp:165] Memory required for data: 900141312
I1229 10:55:10.496237  3137 layer_factory.hpp:76] Creating layer stage2/block6/sum
I1229 10:55:10.496240  3137 net.cpp:106] Creating Layer stage2/block6/sum
I1229 10:55:10.496243  3137 net.cpp:454] stage2/block6/sum <- stage2/block6/conv_restore
I1229 10:55:10.496247  3137 net.cpp:454] stage2/block6/sum <- stage2/block5/sum_stage2/block5/sum/nl_0_split_1
I1229 10:55:10.496249  3137 net.cpp:411] stage2/block6/sum -> stage2/block6/sum
I1229 10:55:10.496279  3137 net.cpp:150] Setting up stage2/block6/sum
I1229 10:55:10.496285  3137 net.cpp:157] Top shape: 64 288 7 7 (903168)
I1229 10:55:10.496286  3137 net.cpp:165] Memory required for data: 903753984
I1229 10:55:10.496289  3137 layer_factory.hpp:76] Creating layer stage2/block6/sum/nl
I1229 10:55:10.496300  3137 net.cpp:106] Creating Layer stage2/block6/sum/nl
I1229 10:55:10.496302  3137 net.cpp:454] stage2/block6/sum/nl <- stage2/block6/sum
I1229 10:55:10.496305  3137 net.cpp:397] stage2/block6/sum/nl -> stage2/block6/sum (in-place)
I1229 10:55:10.496454  3137 net.cpp:150] Setting up stage2/block6/sum/nl
I1229 10:55:10.496459  3137 net.cpp:157] Top shape: 64 288 7 7 (903168)
I1229 10:55:10.496461  3137 net.cpp:165] Memory required for data: 907366656
I1229 10:55:10.496462  3137 layer_factory.hpp:76] Creating layer stage2/block6/sum_stage2/block6/sum/nl_0_split
I1229 10:55:10.496466  3137 net.cpp:106] Creating Layer stage2/block6/sum_stage2/block6/sum/nl_0_split
I1229 10:55:10.496469  3137 net.cpp:454] stage2/block6/sum_stage2/block6/sum/nl_0_split <- stage2/block6/sum
I1229 10:55:10.496471  3137 net.cpp:411] stage2/block6/sum_stage2/block6/sum/nl_0_split -> stage2/block6/sum_stage2/block6/sum/nl_0_split_0
I1229 10:55:10.496475  3137 net.cpp:411] stage2/block6/sum_stage2/block6/sum/nl_0_split -> stage2/block6/sum_stage2/block6/sum/nl_0_split_1
I1229 10:55:10.496516  3137 net.cpp:150] Setting up stage2/block6/sum_stage2/block6/sum/nl_0_split
I1229 10:55:10.496520  3137 net.cpp:157] Top shape: 64 288 7 7 (903168)
I1229 10:55:10.496536  3137 net.cpp:157] Top shape: 64 288 7 7 (903168)
I1229 10:55:10.496536  3137 net.cpp:165] Memory required for data: 914592000
I1229 10:55:10.496538  3137 layer_factory.hpp:76] Creating layer stage2/block7/conv_reduce
I1229 10:55:10.496543  3137 net.cpp:106] Creating Layer stage2/block7/conv_reduce
I1229 10:55:10.496544  3137 net.cpp:454] stage2/block7/conv_reduce <- stage2/block6/sum_stage2/block6/sum/nl_0_split_0
I1229 10:55:10.496548  3137 net.cpp:411] stage2/block7/conv_reduce -> stage2/block7/conv_reduce
I1229 10:55:10.497859  3137 net.cpp:150] Setting up stage2/block7/conv_reduce
I1229 10:55:10.497867  3137 net.cpp:157] Top shape: 64 72 7 7 (225792)
I1229 10:55:10.497869  3137 net.cpp:165] Memory required for data: 915495168
I1229 10:55:10.497874  3137 layer_factory.hpp:76] Creating layer stage2/block7/conv_reduce/nl
I1229 10:55:10.497877  3137 net.cpp:106] Creating Layer stage2/block7/conv_reduce/nl
I1229 10:55:10.497879  3137 net.cpp:454] stage2/block7/conv_reduce/nl <- stage2/block7/conv_reduce
I1229 10:55:10.497882  3137 net.cpp:397] stage2/block7/conv_reduce/nl -> stage2/block7/conv_reduce (in-place)
I1229 10:55:10.498122  3137 net.cpp:150] Setting up stage2/block7/conv_reduce/nl
I1229 10:55:10.498131  3137 net.cpp:157] Top shape: 64 72 7 7 (225792)
I1229 10:55:10.498131  3137 net.cpp:165] Memory required for data: 916398336
I1229 10:55:10.498133  3137 layer_factory.hpp:76] Creating layer stage2/block7/conv
I1229 10:55:10.498139  3137 net.cpp:106] Creating Layer stage2/block7/conv
I1229 10:55:10.498142  3137 net.cpp:454] stage2/block7/conv <- stage2/block7/conv_reduce
I1229 10:55:10.498147  3137 net.cpp:411] stage2/block7/conv -> stage2/block7/conv
I1229 10:55:10.499845  3137 net.cpp:150] Setting up stage2/block7/conv
I1229 10:55:10.499852  3137 net.cpp:157] Top shape: 64 72 7 7 (225792)
I1229 10:55:10.499855  3137 net.cpp:165] Memory required for data: 917301504
I1229 10:55:10.499874  3137 layer_factory.hpp:76] Creating layer stage2/block7/conv/nl
I1229 10:55:10.499879  3137 net.cpp:106] Creating Layer stage2/block7/conv/nl
I1229 10:55:10.499881  3137 net.cpp:454] stage2/block7/conv/nl <- stage2/block7/conv
I1229 10:55:10.499884  3137 net.cpp:397] stage2/block7/conv/nl -> stage2/block7/conv (in-place)
I1229 10:55:10.500134  3137 net.cpp:150] Setting up stage2/block7/conv/nl
I1229 10:55:10.500141  3137 net.cpp:157] Top shape: 64 72 7 7 (225792)
I1229 10:55:10.500144  3137 net.cpp:165] Memory required for data: 918204672
I1229 10:55:10.500145  3137 layer_factory.hpp:76] Creating layer stage2/block7/conv_restore
I1229 10:55:10.500151  3137 net.cpp:106] Creating Layer stage2/block7/conv_restore
I1229 10:55:10.500154  3137 net.cpp:454] stage2/block7/conv_restore <- stage2/block7/conv
I1229 10:55:10.500157  3137 net.cpp:411] stage2/block7/conv_restore -> stage2/block7/conv_restore
I1229 10:55:10.501415  3137 net.cpp:150] Setting up stage2/block7/conv_restore
I1229 10:55:10.501422  3137 net.cpp:157] Top shape: 64 288 7 7 (903168)
I1229 10:55:10.501425  3137 net.cpp:165] Memory required for data: 921817344
I1229 10:55:10.501428  3137 layer_factory.hpp:76] Creating layer stage2/block7/sum
I1229 10:55:10.501432  3137 net.cpp:106] Creating Layer stage2/block7/sum
I1229 10:55:10.501435  3137 net.cpp:454] stage2/block7/sum <- stage2/block7/conv_restore
I1229 10:55:10.501437  3137 net.cpp:454] stage2/block7/sum <- stage2/block6/sum_stage2/block6/sum/nl_0_split_1
I1229 10:55:10.501441  3137 net.cpp:411] stage2/block7/sum -> stage2/block7/sum
I1229 10:55:10.501472  3137 net.cpp:150] Setting up stage2/block7/sum
I1229 10:55:10.501477  3137 net.cpp:157] Top shape: 64 288 7 7 (903168)
I1229 10:55:10.501478  3137 net.cpp:165] Memory required for data: 925430016
I1229 10:55:10.501479  3137 layer_factory.hpp:76] Creating layer stage2/block7/sum/nl
I1229 10:55:10.501483  3137 net.cpp:106] Creating Layer stage2/block7/sum/nl
I1229 10:55:10.501485  3137 net.cpp:454] stage2/block7/sum/nl <- stage2/block7/sum
I1229 10:55:10.501488  3137 net.cpp:397] stage2/block7/sum/nl -> stage2/block7/sum (in-place)
I1229 10:55:10.501619  3137 net.cpp:150] Setting up stage2/block7/sum/nl
I1229 10:55:10.501626  3137 net.cpp:157] Top shape: 64 288 7 7 (903168)
I1229 10:55:10.501626  3137 net.cpp:165] Memory required for data: 929042688
I1229 10:55:10.501628  3137 layer_factory.hpp:76] Creating layer stage2/block7/sum_stage2/block7/sum/nl_0_split
I1229 10:55:10.501632  3137 net.cpp:106] Creating Layer stage2/block7/sum_stage2/block7/sum/nl_0_split
I1229 10:55:10.501634  3137 net.cpp:454] stage2/block7/sum_stage2/block7/sum/nl_0_split <- stage2/block7/sum
I1229 10:55:10.501638  3137 net.cpp:411] stage2/block7/sum_stage2/block7/sum/nl_0_split -> stage2/block7/sum_stage2/block7/sum/nl_0_split_0
I1229 10:55:10.501642  3137 net.cpp:411] stage2/block7/sum_stage2/block7/sum/nl_0_split -> stage2/block7/sum_stage2/block7/sum/nl_0_split_1
I1229 10:55:10.501683  3137 net.cpp:150] Setting up stage2/block7/sum_stage2/block7/sum/nl_0_split
I1229 10:55:10.501698  3137 net.cpp:157] Top shape: 64 288 7 7 (903168)
I1229 10:55:10.501699  3137 net.cpp:157] Top shape: 64 288 7 7 (903168)
I1229 10:55:10.501700  3137 net.cpp:165] Memory required for data: 936268032
I1229 10:55:10.501703  3137 layer_factory.hpp:76] Creating layer stage2/block8/conv_reduce
I1229 10:55:10.501724  3137 net.cpp:106] Creating Layer stage2/block8/conv_reduce
I1229 10:55:10.501727  3137 net.cpp:454] stage2/block8/conv_reduce <- stage2/block7/sum_stage2/block7/sum/nl_0_split_0
I1229 10:55:10.501739  3137 net.cpp:411] stage2/block8/conv_reduce -> stage2/block8/conv_reduce
I1229 10:55:10.502962  3137 net.cpp:150] Setting up stage2/block8/conv_reduce
I1229 10:55:10.502970  3137 net.cpp:157] Top shape: 64 72 7 7 (225792)
I1229 10:55:10.502972  3137 net.cpp:165] Memory required for data: 937171200
I1229 10:55:10.502977  3137 layer_factory.hpp:76] Creating layer stage2/block8/conv_reduce/nl
I1229 10:55:10.502980  3137 net.cpp:106] Creating Layer stage2/block8/conv_reduce/nl
I1229 10:55:10.502982  3137 net.cpp:454] stage2/block8/conv_reduce/nl <- stage2/block8/conv_reduce
I1229 10:55:10.502986  3137 net.cpp:397] stage2/block8/conv_reduce/nl -> stage2/block8/conv_reduce (in-place)
I1229 10:55:10.503229  3137 net.cpp:150] Setting up stage2/block8/conv_reduce/nl
I1229 10:55:10.503237  3137 net.cpp:157] Top shape: 64 72 7 7 (225792)
I1229 10:55:10.503238  3137 net.cpp:165] Memory required for data: 938074368
I1229 10:55:10.503240  3137 layer_factory.hpp:76] Creating layer stage2/block8/conv
I1229 10:55:10.503247  3137 net.cpp:106] Creating Layer stage2/block8/conv
I1229 10:55:10.503249  3137 net.cpp:454] stage2/block8/conv <- stage2/block8/conv_reduce
I1229 10:55:10.503253  3137 net.cpp:411] stage2/block8/conv -> stage2/block8/conv
I1229 10:55:10.504941  3137 net.cpp:150] Setting up stage2/block8/conv
I1229 10:55:10.504948  3137 net.cpp:157] Top shape: 64 72 7 7 (225792)
I1229 10:55:10.504958  3137 net.cpp:165] Memory required for data: 938977536
I1229 10:55:10.504963  3137 layer_factory.hpp:76] Creating layer stage2/block8/conv/nl
I1229 10:55:10.504966  3137 net.cpp:106] Creating Layer stage2/block8/conv/nl
I1229 10:55:10.504969  3137 net.cpp:454] stage2/block8/conv/nl <- stage2/block8/conv
I1229 10:55:10.504972  3137 net.cpp:397] stage2/block8/conv/nl -> stage2/block8/conv (in-place)
I1229 10:55:10.505214  3137 net.cpp:150] Setting up stage2/block8/conv/nl
I1229 10:55:10.505221  3137 net.cpp:157] Top shape: 64 72 7 7 (225792)
I1229 10:55:10.505223  3137 net.cpp:165] Memory required for data: 939880704
I1229 10:55:10.505225  3137 layer_factory.hpp:76] Creating layer stage2/block8/conv_restore
I1229 10:55:10.505233  3137 net.cpp:106] Creating Layer stage2/block8/conv_restore
I1229 10:55:10.505234  3137 net.cpp:454] stage2/block8/conv_restore <- stage2/block8/conv
I1229 10:55:10.505239  3137 net.cpp:411] stage2/block8/conv_restore -> stage2/block8/conv_restore
I1229 10:55:10.506472  3137 net.cpp:150] Setting up stage2/block8/conv_restore
I1229 10:55:10.506480  3137 net.cpp:157] Top shape: 64 288 7 7 (903168)
I1229 10:55:10.506484  3137 net.cpp:165] Memory required for data: 943493376
I1229 10:55:10.506487  3137 layer_factory.hpp:76] Creating layer stage2/block8/sum
I1229 10:55:10.506491  3137 net.cpp:106] Creating Layer stage2/block8/sum
I1229 10:55:10.506494  3137 net.cpp:454] stage2/block8/sum <- stage2/block8/conv_restore
I1229 10:55:10.506496  3137 net.cpp:454] stage2/block8/sum <- stage2/block7/sum_stage2/block7/sum/nl_0_split_1
I1229 10:55:10.506500  3137 net.cpp:411] stage2/block8/sum -> stage2/block8/sum
I1229 10:55:10.506531  3137 net.cpp:150] Setting up stage2/block8/sum
I1229 10:55:10.506536  3137 net.cpp:157] Top shape: 64 288 7 7 (903168)
I1229 10:55:10.506537  3137 net.cpp:165] Memory required for data: 947106048
I1229 10:55:10.506539  3137 layer_factory.hpp:76] Creating layer stage2/block8/sum/nl
I1229 10:55:10.506542  3137 net.cpp:106] Creating Layer stage2/block8/sum/nl
I1229 10:55:10.506544  3137 net.cpp:454] stage2/block8/sum/nl <- stage2/block8/sum
I1229 10:55:10.506547  3137 net.cpp:397] stage2/block8/sum/nl -> stage2/block8/sum (in-place)
I1229 10:55:10.506680  3137 net.cpp:150] Setting up stage2/block8/sum/nl
I1229 10:55:10.506685  3137 net.cpp:157] Top shape: 64 288 7 7 (903168)
I1229 10:55:10.506688  3137 net.cpp:165] Memory required for data: 950718720
I1229 10:55:10.506690  3137 layer_factory.hpp:76] Creating layer stage2/block8/sum_stage2/block8/sum/nl_0_split
I1229 10:55:10.506693  3137 net.cpp:106] Creating Layer stage2/block8/sum_stage2/block8/sum/nl_0_split
I1229 10:55:10.506695  3137 net.cpp:454] stage2/block8/sum_stage2/block8/sum/nl_0_split <- stage2/block8/sum
I1229 10:55:10.506700  3137 net.cpp:411] stage2/block8/sum_stage2/block8/sum/nl_0_split -> stage2/block8/sum_stage2/block8/sum/nl_0_split_0
I1229 10:55:10.506702  3137 net.cpp:411] stage2/block8/sum_stage2/block8/sum/nl_0_split -> stage2/block8/sum_stage2/block8/sum/nl_0_split_1
I1229 10:55:10.506745  3137 net.cpp:150] Setting up stage2/block8/sum_stage2/block8/sum/nl_0_split
I1229 10:55:10.506757  3137 net.cpp:157] Top shape: 64 288 7 7 (903168)
I1229 10:55:10.506760  3137 net.cpp:157] Top shape: 64 288 7 7 (903168)
I1229 10:55:10.506762  3137 net.cpp:165] Memory required for data: 957944064
I1229 10:55:10.506763  3137 layer_factory.hpp:76] Creating layer stage2/block9/conv_reduce
I1229 10:55:10.506781  3137 net.cpp:106] Creating Layer stage2/block9/conv_reduce
I1229 10:55:10.506783  3137 net.cpp:454] stage2/block9/conv_reduce <- stage2/block8/sum_stage2/block8/sum/nl_0_split_0
I1229 10:55:10.506788  3137 net.cpp:411] stage2/block9/conv_reduce -> stage2/block9/conv_reduce
I1229 10:55:10.508008  3137 net.cpp:150] Setting up stage2/block9/conv_reduce
I1229 10:55:10.508014  3137 net.cpp:157] Top shape: 64 72 7 7 (225792)
I1229 10:55:10.508016  3137 net.cpp:165] Memory required for data: 958847232
I1229 10:55:10.508021  3137 layer_factory.hpp:76] Creating layer stage2/block9/conv_reduce/nl
I1229 10:55:10.508025  3137 net.cpp:106] Creating Layer stage2/block9/conv_reduce/nl
I1229 10:55:10.508035  3137 net.cpp:454] stage2/block9/conv_reduce/nl <- stage2/block9/conv_reduce
I1229 10:55:10.508039  3137 net.cpp:397] stage2/block9/conv_reduce/nl -> stage2/block9/conv_reduce (in-place)
I1229 10:55:10.508282  3137 net.cpp:150] Setting up stage2/block9/conv_reduce/nl
I1229 10:55:10.508291  3137 net.cpp:157] Top shape: 64 72 7 7 (225792)
I1229 10:55:10.508293  3137 net.cpp:165] Memory required for data: 959750400
I1229 10:55:10.508296  3137 layer_factory.hpp:76] Creating layer stage2/block9/conv
I1229 10:55:10.508301  3137 net.cpp:106] Creating Layer stage2/block9/conv
I1229 10:55:10.508302  3137 net.cpp:454] stage2/block9/conv <- stage2/block9/conv_reduce
I1229 10:55:10.508306  3137 net.cpp:411] stage2/block9/conv -> stage2/block9/conv
I1229 10:55:10.510301  3137 net.cpp:150] Setting up stage2/block9/conv
I1229 10:55:10.510309  3137 net.cpp:157] Top shape: 64 72 7 7 (225792)
I1229 10:55:10.510311  3137 net.cpp:165] Memory required for data: 960653568
I1229 10:55:10.510315  3137 layer_factory.hpp:76] Creating layer stage2/block9/conv/nl
I1229 10:55:10.510320  3137 net.cpp:106] Creating Layer stage2/block9/conv/nl
I1229 10:55:10.510323  3137 net.cpp:454] stage2/block9/conv/nl <- stage2/block9/conv
I1229 10:55:10.510325  3137 net.cpp:397] stage2/block9/conv/nl -> stage2/block9/conv (in-place)
I1229 10:55:10.510570  3137 net.cpp:150] Setting up stage2/block9/conv/nl
I1229 10:55:10.510576  3137 net.cpp:157] Top shape: 64 72 7 7 (225792)
I1229 10:55:10.510578  3137 net.cpp:165] Memory required for data: 961556736
I1229 10:55:10.510581  3137 layer_factory.hpp:76] Creating layer stage2/block9/conv_restore
I1229 10:55:10.510586  3137 net.cpp:106] Creating Layer stage2/block9/conv_restore
I1229 10:55:10.510589  3137 net.cpp:454] stage2/block9/conv_restore <- stage2/block9/conv
I1229 10:55:10.510592  3137 net.cpp:411] stage2/block9/conv_restore -> stage2/block9/conv_restore
I1229 10:55:10.511939  3137 net.cpp:150] Setting up stage2/block9/conv_restore
I1229 10:55:10.511946  3137 net.cpp:157] Top shape: 64 288 7 7 (903168)
I1229 10:55:10.511950  3137 net.cpp:165] Memory required for data: 965169408
I1229 10:55:10.511953  3137 layer_factory.hpp:76] Creating layer stage2/block9/sum
I1229 10:55:10.511956  3137 net.cpp:106] Creating Layer stage2/block9/sum
I1229 10:55:10.511960  3137 net.cpp:454] stage2/block9/sum <- stage2/block9/conv_restore
I1229 10:55:10.511962  3137 net.cpp:454] stage2/block9/sum <- stage2/block8/sum_stage2/block8/sum/nl_0_split_1
I1229 10:55:10.511965  3137 net.cpp:411] stage2/block9/sum -> stage2/block9/sum
I1229 10:55:10.511996  3137 net.cpp:150] Setting up stage2/block9/sum
I1229 10:55:10.512001  3137 net.cpp:157] Top shape: 64 288 7 7 (903168)
I1229 10:55:10.512002  3137 net.cpp:165] Memory required for data: 968782080
I1229 10:55:10.512003  3137 layer_factory.hpp:76] Creating layer stage2/block9/sum/nl
I1229 10:55:10.512008  3137 net.cpp:106] Creating Layer stage2/block9/sum/nl
I1229 10:55:10.512011  3137 net.cpp:454] stage2/block9/sum/nl <- stage2/block9/sum
I1229 10:55:10.512022  3137 net.cpp:397] stage2/block9/sum/nl -> stage2/block9/sum (in-place)
I1229 10:55:10.512163  3137 net.cpp:150] Setting up stage2/block9/sum/nl
I1229 10:55:10.512169  3137 net.cpp:157] Top shape: 64 288 7 7 (903168)
I1229 10:55:10.512181  3137 net.cpp:165] Memory required for data: 972394752
I1229 10:55:10.512182  3137 layer_factory.hpp:76] Creating layer stage2/block9/sum_stage2/block9/sum/nl_0_split
I1229 10:55:10.512186  3137 net.cpp:106] Creating Layer stage2/block9/sum_stage2/block9/sum/nl_0_split
I1229 10:55:10.512187  3137 net.cpp:454] stage2/block9/sum_stage2/block9/sum/nl_0_split <- stage2/block9/sum
I1229 10:55:10.512192  3137 net.cpp:411] stage2/block9/sum_stage2/block9/sum/nl_0_split -> stage2/block9/sum_stage2/block9/sum/nl_0_split_0
I1229 10:55:10.512195  3137 net.cpp:411] stage2/block9/sum_stage2/block9/sum/nl_0_split -> stage2/block9/sum_stage2/block9/sum/nl_0_split_1
I1229 10:55:10.512248  3137 net.cpp:150] Setting up stage2/block9/sum_stage2/block9/sum/nl_0_split
…
I1229 10:55:11.221521  3137 net.cpp:454] stage2/block16/sum <- stage2/block15/sum_stage2/block15/sum/nl_0_split_1
I1229 10:55:11.221525  3137 net.cpp:411] stage2/block16/sum -> stage2/block16/sum
I1229 10:55:11.221550  3137 net.cpp:150] Setting up stage2/block16/sum
I1229 10:55:11.221554  3137 net.cpp:157] Top shape: 50 288 7 7 (705600)
I1229 10:55:11.221555  3137 net.cpp:165] Memory required for data: 875402400
I1229 10:55:11.221557  3137 layer_factory.hpp:76] Creating layer stage2/block16/sum/nl
I1229 10:55:11.221560  3137 net.cpp:106] Creating Layer stage2/block16/sum/nl
I1229 10:55:11.221562  3137 net.cpp:454] stage2/block16/sum/nl <- stage2/block16/sum
I1229 10:55:11.221565  3137 net.cpp:397] stage2/block16/sum/nl -> stage2/block16/sum (in-place)
I1229 10:55:11.221684  3137 net.cpp:150] Setting up stage2/block16/sum/nl
I1229 10:55:11.221688  3137 net.cpp:157] Top shape: 50 288 7 7 (705600)
I1229 10:55:11.221690  3137 net.cpp:165] Memory required for data: 878224800
I1229 10:55:11.221693  3137 layer_factory.hpp:76] Creating layer stage2/block16/sum_stage2/block16/sum/nl_0_split
I1229 10:55:11.221696  3137 net.cpp:106] Creating Layer stage2/block16/sum_stage2/block16/sum/nl_0_split
I1229 10:55:11.221698  3137 net.cpp:454] stage2/block16/sum_stage2/block16/sum/nl_0_split <- stage2/block16/sum
I1229 10:55:11.221701  3137 net.cpp:411] stage2/block16/sum_stage2/block16/sum/nl_0_split -> stage2/block16/sum_stage2/block16/sum/nl_0_split_0
I1229 10:55:11.221705  3137 net.cpp:411] stage2/block16/sum_stage2/block16/sum/nl_0_split -> stage2/block16/sum_stage2/block16/sum/nl_0_split_1
I1229 10:55:11.221737  3137 net.cpp:150] Setting up stage2/block16/sum_stage2/block16/sum/nl_0_split
I1229 10:55:11.221740  3137 net.cpp:157] Top shape: 50 288 7 7 (705600)
I1229 10:55:11.221743  3137 net.cpp:157] Top shape: 50 288 7 7 (705600)
I1229 10:55:11.221745  3137 net.cpp:165] Memory required for data: 883869600
I1229 10:55:11.221746  3137 layer_factory.hpp:76] Creating layer stage2/block17/conv_reduce
I1229 10:55:11.221752  3137 net.cpp:106] Creating Layer stage2/block17/conv_reduce
I1229 10:55:11.221755  3137 net.cpp:454] stage2/block17/conv_reduce <- stage2/block16/sum_stage2/block16/sum/nl_0_split_0
I1229 10:55:11.221758  3137 net.cpp:411] stage2/block17/conv_reduce -> stage2/block17/conv_reduce
I1229 10:55:11.223170  3137 net.cpp:150] Setting up stage2/block17/conv_reduce
I1229 10:55:11.223176  3137 net.cpp:157] Top shape: 50 72 7 7 (176400)
I1229 10:55:11.223179  3137 net.cpp:165] Memory required for data: 884575200
I1229 10:55:11.223183  3137 layer_factory.hpp:76] Creating layer stage2/block17/conv_reduce/nl
I1229 10:55:11.223186  3137 net.cpp:106] Creating Layer stage2/block17/conv_reduce/nl
I1229 10:55:11.223189  3137 net.cpp:454] stage2/block17/conv_reduce/nl <- stage2/block17/conv_reduce
I1229 10:55:11.223193  3137 net.cpp:397] stage2/block17/conv_reduce/nl -> stage2/block17/conv_reduce (in-place)
I1229 10:55:11.223433  3137 net.cpp:150] Setting up stage2/block17/conv_reduce/nl
I1229 10:55:11.223439  3137 net.cpp:157] Top shape: 50 72 7 7 (176400)
I1229 10:55:11.223441  3137 net.cpp:165] Memory required for data: 885280800
I1229 10:55:11.223443  3137 layer_factory.hpp:76] Creating layer stage2/block17/conv
I1229 10:55:11.223449  3137 net.cpp:106] Creating Layer stage2/block17/conv
I1229 10:55:11.223451  3137 net.cpp:454] stage2/block17/conv <- stage2/block17/conv_reduce
I1229 10:55:11.223456  3137 net.cpp:411] stage2/block17/conv -> stage2/block17/conv
I1229 10:55:11.225563  3137 net.cpp:150] Setting up stage2/block17/conv
I1229 10:55:11.225570  3137 net.cpp:157] Top shape: 50 72 7 7 (176400)
I1229 10:55:11.225572  3137 net.cpp:165] Memory required for data: 885986400
I1229 10:55:11.225576  3137 layer_factory.hpp:76] Creating layer stage2/block17/conv/nl
I1229 10:55:11.225579  3137 net.cpp:106] Creating Layer stage2/block17/conv/nl
I1229 10:55:11.225584  3137 net.cpp:454] stage2/block17/conv/nl <- stage2/block17/conv
I1229 10:55:11.225586  3137 net.cpp:397] stage2/block17/conv/nl -> stage2/block17/conv (in-place)
I1229 10:55:11.225723  3137 net.cpp:150] Setting up stage2/block17/conv/nl
I1229 10:55:11.225728  3137 net.cpp:157] Top shape: 50 72 7 7 (176400)
I1229 10:55:11.225728  3137 net.cpp:165] Memory required for data: 886692000
I1229 10:55:11.225730  3137 layer_factory.hpp:76] Creating layer stage2/block17/conv_restore
I1229 10:55:11.225736  3137 net.cpp:106] Creating Layer stage2/block17/conv_restore
I1229 10:55:11.225739  3137 net.cpp:454] stage2/block17/conv_restore <- stage2/block17/conv
I1229 10:55:11.225742  3137 net.cpp:411] stage2/block17/conv_restore -> stage2/block17/conv_restore
I1229 10:55:11.227246  3137 net.cpp:150] Setting up stage2/block17/conv_restore
I1229 10:55:11.227254  3137 net.cpp:157] Top shape: 50 288 7 7 (705600)
I1229 10:55:11.227257  3137 net.cpp:165] Memory required for data: 889514400
I1229 10:55:11.227262  3137 layer_factory.hpp:76] Creating layer stage2/block17/sum
I1229 10:55:11.227267  3137 net.cpp:106] Creating Layer stage2/block17/sum
I1229 10:55:11.227269  3137 net.cpp:454] stage2/block17/sum <- stage2/block17/conv_restore
I1229 10:55:11.227272  3137 net.cpp:454] stage2/block17/sum <- stage2/block16/sum_stage2/block16/sum/nl_0_split_1
I1229 10:55:11.227277  3137 net.cpp:411] stage2/block17/sum -> stage2/block17/sum
I1229 10:55:11.227309  3137 net.cpp:150] Setting up stage2/block17/sum
I1229 10:55:11.227314  3137 net.cpp:157] Top shape: 50 288 7 7 (705600)
I1229 10:55:11.227316  3137 net.cpp:165] Memory required for data: 892336800
I1229 10:55:11.227319  3137 layer_factory.hpp:76] Creating layer stage2/block17/sum/nl
I1229 10:55:11.227322  3137 net.cpp:106] Creating Layer stage2/block17/sum/nl
I1229 10:55:11.227324  3137 net.cpp:454] stage2/block17/sum/nl <- stage2/block17/sum
I1229 10:55:11.227326  3137 net.cpp:397] stage2/block17/sum/nl -> stage2/block17/sum (in-place)
I1229 10:55:11.227459  3137 net.cpp:150] Setting up stage2/block17/sum/nl
I1229 10:55:11.227464  3137 net.cpp:157] Top shape: 50 288 7 7 (705600)
I1229 10:55:11.227466  3137 net.cpp:165] Memory required for data: 895159200
I1229 10:55:11.227478  3137 layer_factory.hpp:76] Creating layer stage2/block17/sum_stage2/block17/sum/nl_0_split
I1229 10:55:11.227483  3137 net.cpp:106] Creating Layer stage2/block17/sum_stage2/block17/sum/nl_0_split
I1229 10:55:11.227484  3137 net.cpp:454] stage2/block17/sum_stage2/block17/sum/nl_0_split <- stage2/block17/sum
I1229 10:55:11.227488  3137 net.cpp:411] stage2/block17/sum_stage2/block17/sum/nl_0_split -> stage2/block17/sum_stage2/block17/sum/nl_0_split_0
I1229 10:55:11.227491  3137 net.cpp:411] stage2/block17/sum_stage2/block17/sum/nl_0_split -> stage2/block17/sum_stage2/block17/sum/nl_0_split_1
I1229 10:55:11.227535  3137 net.cpp:150] Setting up stage2/block17/sum_stage2/block17/sum/nl_0_split
I1229 10:55:11.227538  3137 net.cpp:157] Top shape: 50 288 7 7 (705600)
I1229 10:55:11.227550  3137 net.cpp:157] Top shape: 50 288 7 7 (705600)
I1229 10:55:11.227551  3137 net.cpp:165] Memory required for data: 900804000
I1229 10:55:11.227553  3137 layer_factory.hpp:76] Creating layer stage2/block18/conv_reduce
I1229 10:55:11.227560  3137 net.cpp:106] Creating Layer stage2/block18/conv_reduce
I1229 10:55:11.227561  3137 net.cpp:454] stage2/block18/conv_reduce <- stage2/block17/sum_stage2/block17/sum/nl_0_split_0
I1229 10:55:11.227566  3137 net.cpp:411] stage2/block18/conv_reduce -> stage2/block18/conv_reduce
I1229 10:55:11.229295  3137 net.cpp:150] Setting up stage2/block18/conv_reduce
I1229 10:55:11.229305  3137 net.cpp:157] Top shape: 50 72 7 7 (176400)
I1229 10:55:11.229316  3137 net.cpp:165] Memory required for data: 901509600
I1229 10:55:11.229321  3137 layer_factory.hpp:76] Creating layer stage2/block18/conv_reduce/nl
I1229 10:55:11.229337  3137 net.cpp:106] Creating Layer stage2/block18/conv_reduce/nl
I1229 10:55:11.229341  3137 net.cpp:454] stage2/block18/conv_reduce/nl <- stage2/block18/conv_reduce
I1229 10:55:11.229344  3137 net.cpp:397] stage2/block18/conv_reduce/nl -> stage2/block18/conv_reduce (in-place)
I1229 10:55:11.229625  3137 net.cpp:150] Setting up stage2/block18/conv_reduce/nl
I1229 10:55:11.229643  3137 net.cpp:157] Top shape: 50 72 7 7 (176400)
I1229 10:55:11.229655  3137 net.cpp:165] Memory required for data: 902215200
I1229 10:55:11.229657  3137 layer_factory.hpp:76] Creating layer stage2/block18/conv
I1229 10:55:11.229665  3137 net.cpp:106] Creating Layer stage2/block18/conv
I1229 10:55:11.229667  3137 net.cpp:454] stage2/block18/conv <- stage2/block18/conv_reduce
I1229 10:55:11.229672  3137 net.cpp:411] stage2/block18/conv -> stage2/block18/conv
I1229 10:55:11.231602  3137 net.cpp:150] Setting up stage2/block18/conv
I1229 10:55:11.231611  3137 net.cpp:157] Top shape: 50 72 7 7 (176400)
I1229 10:55:11.231613  3137 net.cpp:165] Memory required for data: 902920800
I1229 10:55:11.231617  3137 layer_factory.hpp:76] Creating layer stage2/block18/conv/nl
I1229 10:55:11.231622  3137 net.cpp:106] Creating Layer stage2/block18/conv/nl
I1229 10:55:11.231624  3137 net.cpp:454] stage2/block18/conv/nl <- stage2/block18/conv
I1229 10:55:11.231627  3137 net.cpp:397] stage2/block18/conv/nl -> stage2/block18/conv (in-place)
I1229 10:55:11.231750  3137 net.cpp:150] Setting up stage2/block18/conv/nl
I1229 10:55:11.231755  3137 net.cpp:157] Top shape: 50 72 7 7 (176400)
I1229 10:55:11.231756  3137 net.cpp:165] Memory required for data: 903626400
I1229 10:55:11.231758  3137 layer_factory.hpp:76] Creating layer stage2/block18/conv_restore
I1229 10:55:11.231765  3137 net.cpp:106] Creating Layer stage2/block18/conv_restore
I1229 10:55:11.231766  3137 net.cpp:454] stage2/block18/conv_restore <- stage2/block18/conv
I1229 10:55:11.231770  3137 net.cpp:411] stage2/block18/conv_restore -> stage2/block18/conv_restore
I1229 10:55:11.233067  3137 net.cpp:150] Setting up stage2/block18/conv_restore
I1229 10:55:11.233074  3137 net.cpp:157] Top shape: 50 288 7 7 (705600)
I1229 10:55:11.233077  3137 net.cpp:165] Memory required for data: 906448800
I1229 10:55:11.233080  3137 layer_factory.hpp:76] Creating layer stage2/block18/sum
I1229 10:55:11.233085  3137 net.cpp:106] Creating Layer stage2/block18/sum
I1229 10:55:11.233088  3137 net.cpp:454] stage2/block18/sum <- stage2/block18/conv_restore
I1229 10:55:11.233091  3137 net.cpp:454] stage2/block18/sum <- stage2/block17/sum_stage2/block17/sum/nl_0_split_1
I1229 10:55:11.233095  3137 net.cpp:411] stage2/block18/sum -> stage2/block18/sum
I1229 10:55:11.233117  3137 net.cpp:150] Setting up stage2/block18/sum
I1229 10:55:11.233120  3137 net.cpp:157] Top shape: 50 288 7 7 (705600)
I1229 10:55:11.233122  3137 net.cpp:165] Memory required for data: 909271200
I1229 10:55:11.233124  3137 layer_factory.hpp:76] Creating layer stage2/block18/sum/nl
I1229 10:55:11.233127  3137 net.cpp:106] Creating Layer stage2/block18/sum/nl
I1229 10:55:11.233129  3137 net.cpp:454] stage2/block18/sum/nl <- stage2/block18/sum
I1229 10:55:11.233132  3137 net.cpp:397] stage2/block18/sum/nl -> stage2/block18/sum (in-place)
I1229 10:55:11.233253  3137 net.cpp:150] Setting up stage2/block18/sum/nl
I1229 10:55:11.233258  3137 net.cpp:157] Top shape: 50 288 7 7 (705600)
I1229 10:55:11.233259  3137 net.cpp:165] Memory required for data: 912093600
I1229 10:55:11.233261  3137 layer_factory.hpp:76] Creating layer stage2/block18/sum_stage2/block18/sum/nl_0_split
I1229 10:55:11.233265  3137 net.cpp:106] Creating Layer stage2/block18/sum_stage2/block18/sum/nl_0_split
I1229 10:55:11.233268  3137 net.cpp:454] stage2/block18/sum_stage2/block18/sum/nl_0_split <- stage2/block18/sum
I1229 10:55:11.233270  3137 net.cpp:411] stage2/block18/sum_stage2/block18/sum/nl_0_split -> stage2/block18/sum_stage2/block18/sum/nl_0_split_0
I1229 10:55:11.233273  3137 net.cpp:411] stage2/block18/sum_stage2/block18/sum/nl_0_split -> stage2/block18/sum_stage2/block18/sum/nl_0_split_1
I1229 10:55:11.233307  3137 net.cpp:150] Setting up stage2/block18/sum_stage2/block18/sum/nl_0_split
I1229 10:55:11.233310  3137 net.cpp:157] Top shape: 50 288 7 7 (705600)
I1229 10:55:11.233312  3137 net.cpp:157] Top shape: 50 288 7 7 (705600)
I1229 10:55:11.233314  3137 net.cpp:165] Memory required for data: 917738400
I1229 10:55:11.233325  3137 layer_factory.hpp:76] Creating layer stage2/block19/conv_reduce
I1229 10:55:11.233330  3137 net.cpp:106] Creating Layer stage2/block19/conv_reduce
I1229 10:55:11.233332  3137 net.cpp:454] stage2/block19/conv_reduce <- stage2/block18/sum_stage2/block18/sum/nl_0_split_0
I1229 10:55:11.233336  3137 net.cpp:411] stage2/block19/conv_reduce -> stage2/block19/conv_reduce
I1229 10:55:11.234606  3137 net.cpp:150] Setting up stage2/block19/conv_reduce
I1229 10:55:11.234613  3137 net.cpp:157] Top shape: 50 72 7 7 (176400)
I1229 10:55:11.234616  3137 net.cpp:165] Memory required for data: 918444000
I1229 10:55:11.234619  3137 layer_factory.hpp:76] Creating layer stage2/block19/conv_reduce/nl
I1229 10:55:11.234622  3137 net.cpp:106] Creating Layer stage2/block19/conv_reduce/nl
I1229 10:55:11.234625  3137 net.cpp:454] stage2/block19/conv_reduce/nl <- stage2/block19/conv_reduce
I1229 10:55:11.234629  3137 net.cpp:397] stage2/block19/conv_reduce/nl -> stage2/block19/conv_reduce (in-place)
I1229 10:55:11.234874  3137 net.cpp:150] Setting up stage2/block19/conv_reduce/nl
I1229 10:55:11.234879  3137 net.cpp:157] Top shape: 50 72 7 7 (176400)
I1229 10:55:11.234881  3137 net.cpp:165] Memory required for data: 919149600
I1229 10:55:11.234884  3137 layer_factory.hpp:76] Creating layer stage2/block19/conv
I1229 10:55:11.234889  3137 net.cpp:106] Creating Layer stage2/block19/conv
I1229 10:55:11.234891  3137 net.cpp:454] stage2/block19/conv <- stage2/block19/conv_reduce
I1229 10:55:11.234895  3137 net.cpp:411] stage2/block19/conv -> stage2/block19/conv
I1229 10:55:11.236836  3137 net.cpp:150] Setting up stage2/block19/conv
I1229 10:55:11.236842  3137 net.cpp:157] Top shape: 50 72 7 7 (176400)
I1229 10:55:11.236845  3137 net.cpp:165] Memory required for data: 919855200
I1229 10:55:11.236848  3137 layer_factory.hpp:76] Creating layer stage2/block19/conv/nl
I1229 10:55:11.236853  3137 net.cpp:106] Creating Layer stage2/block19/conv/nl
I1229 10:55:11.236855  3137 net.cpp:454] stage2/block19/conv/nl <- stage2/block19/conv
I1229 10:55:11.236860  3137 net.cpp:397] stage2/block19/conv/nl -> stage2/block19/conv (in-place)
I1229 10:55:11.237020  3137 net.cpp:150] Setting up stage2/block19/conv/nl
I1229 10:55:11.237025  3137 net.cpp:157] Top shape: 50 72 7 7 (176400)
I1229 10:55:11.237026  3137 net.cpp:165] Memory required for data: 920560800
I1229 10:55:11.237028  3137 layer_factory.hpp:76] Creating layer stage2/block19/conv_restore
I1229 10:55:11.237033  3137 net.cpp:106] Creating Layer stage2/block19/conv_restore
I1229 10:55:11.237035  3137 net.cpp:454] stage2/block19/conv_restore <- stage2/block19/conv
I1229 10:55:11.237040  3137 net.cpp:411] stage2/block19/conv_restore -> stage2/block19/conv_restore
I1229 10:55:11.238627  3137 net.cpp:150] Setting up stage2/block19/conv_restore
I1229 10:55:11.238636  3137 net.cpp:157] Top shape: 50 288 7 7 (705600)
I1229 10:55:11.238637  3137 net.cpp:165] Memory required for data: 923383200
I1229 10:55:11.238642  3137 layer_factory.hpp:76] Creating layer stage2/block19/sum
I1229 10:55:11.238646  3137 net.cpp:106] Creating Layer stage2/block19/sum
I1229 10:55:11.238649  3137 net.cpp:454] stage2/block19/sum <- stage2/block19/conv_restore
I1229 10:55:11.238653  3137 net.cpp:454] stage2/block19/sum <- stage2/block18/sum_stage2/block18/sum/nl_0_split_1
I1229 10:55:11.238657  3137 net.cpp:411] stage2/block19/sum -> stage2/block19/sum
I1229 10:55:11.238680  3137 net.cpp:150] Setting up stage2/block19/sum
I1229 10:55:11.238684  3137 net.cpp:157] Top shape: 50 288 7 7 (705600)
I1229 10:55:11.238687  3137 net.cpp:165] Memory required for data: 926205600
I1229 10:55:11.238687  3137 layer_factory.hpp:76] Creating layer stage2/block19/sum/nl
I1229 10:55:11.238692  3137 net.cpp:106] Creating Layer stage2/block19/sum/nl
I1229 10:55:11.238693  3137 net.cpp:454] stage2/block19/sum/nl <- stage2/block19/sum
I1229 10:55:11.238695  3137 net.cpp:397] stage2/block19/sum/nl -> stage2/block19/sum (in-place)
I1229 10:55:11.238829  3137 net.cpp:150] Setting up stage2/block19/sum/nl
I1229 10:55:11.238833  3137 net.cpp:157] Top shape: 50 288 7 7 (705600)
I1229 10:55:11.238848  3137 net.cpp:165] Memory required for data: 929028000
I1229 10:55:11.238852  3137 layer_factory.hpp:76] Creating layer stage2/block19/sum_stage2/block19/sum/nl_0_split
I1229 10:55:11.238854  3137 net.cpp:106] Creating Layer stage2/block19/sum_stage2/block19/sum/nl_0_split
I1229 10:55:11.238857  3137 net.cpp:454] stage2/block19/sum_stage2/block19/sum/nl_0_split <- stage2/block19/sum
I1229 10:55:11.238860  3137 net.cpp:411] stage2/block19/sum_stage2/block19/sum/nl_0_split -> stage2/block19/sum_stage2/block19/sum/nl_0_split_0
I1229 10:55:11.238864  3137 net.cpp:411] stage2/block19/sum_stage2/block19/sum/nl_0_split -> stage2/block19/sum_stage2/block19/sum/nl_0_split_1
I1229 10:55:11.238910  3137 net.cpp:150] Setting up stage2/block19/sum_stage2/block19/sum/nl_0_split
I1229 10:55:11.238924  3137 net.cpp:157] Top shape: 50 288 7 7 (705600)
I1229 10:55:11.238925  3137 net.cpp:157] Top shape: 50 288 7 7 (705600)
I1229 10:55:11.238926  3137 net.cpp:165] Memory required for data: 934672800
I1229 10:55:11.238929  3137 layer_factory.hpp:76] Creating layer stage2/block20/conv_reduce
I1229 10:55:11.238934  3137 net.cpp:106] Creating Layer stage2/block20/conv_reduce
I1229 10:55:11.238936  3137 net.cpp:454] stage2/block20/conv_reduce <- stage2/block19/sum_stage2/block19/sum/nl_0_split_0
I1229 10:55:11.238940  3137 net.cpp:411] stage2/block20/conv_reduce -> stage2/block20/conv_reduce
I1229 10:55:11.240224  3137 net.cpp:150] Setting up stage2/block20/conv_reduce
I1229 10:55:11.240231  3137 net.cpp:157] Top shape: 50 72 7 7 (176400)
I1229 10:55:11.240232  3137 net.cpp:165] Memory required for data: 935378400
I1229 10:55:11.240236  3137 layer_factory.hpp:76] Creating layer stage2/block20/conv_reduce/nl
I1229 10:55:11.240242  3137 net.cpp:106] Creating Layer stage2/block20/conv_reduce/nl
I1229 10:55:11.240243  3137 net.cpp:454] stage2/block20/conv_reduce/nl <- stage2/block20/conv_reduce
I1229 10:55:11.240247  3137 net.cpp:397] stage2/block20/conv_reduce/nl -> stage2/block20/conv_reduce (in-place)
I1229 10:55:11.240490  3137 net.cpp:150] Setting up stage2/block20/conv_reduce/nl
I1229 10:55:11.240496  3137 net.cpp:157] Top shape: 50 72 7 7 (176400)
I1229 10:55:11.240499  3137 net.cpp:165] Memory required for data: 936084000
I1229 10:55:11.240500  3137 layer_factory.hpp:76] Creating layer stage2/block20/conv
I1229 10:55:11.240506  3137 net.cpp:106] Creating Layer stage2/block20/conv
I1229 10:55:11.240509  3137 net.cpp:454] stage2/block20/conv <- stage2/block20/conv_reduce
I1229 10:55:11.240512  3137 net.cpp:411] stage2/block20/conv -> stage2/block20/conv
I1229 10:55:11.242833  3137 net.cpp:150] Setting up stage2/block20/conv
I1229 10:55:11.242853  3137 net.cpp:157] Top shape: 50 72 7 7 (176400)
I1229 10:55:11.242856  3137 net.cpp:165] Memory required for data: 936789600
I1229 10:55:11.242861  3137 layer_factory.hpp:76] Creating layer stage2/block20/conv/nl
I1229 10:55:11.242866  3137 net.cpp:106] Creating Layer stage2/block20/conv/nl
I1229 10:55:11.242869  3137 net.cpp:454] stage2/block20/conv/nl <- stage2/block20/conv
I1229 10:55:11.242873  3137 net.cpp:397] stage2/block20/conv/nl -> stage2/block20/conv (in-place)
I1229 10:55:11.242997  3137 net.cpp:150] Setting up stage2/block20/conv/nl
I1229 10:55:11.243001  3137 net.cpp:157] Top shape: 50 72 7 7 (176400)
I1229 10:55:11.243005  3137 net.cpp:165] Memory required for data: 937495200
I1229 10:55:11.243006  3137 layer_factory.hpp:76] Creating layer stage2/block20/conv_restore
I1229 10:55:11.243011  3137 net.cpp:106] Creating Layer stage2/block20/conv_restore
I1229 10:55:11.243013  3137 net.cpp:454] stage2/block20/conv_restore <- stage2/block20/conv
I1229 10:55:11.243017  3137 net.cpp:411] stage2/block20/conv_restore -> stage2/block20/conv_restore
I1229 10:55:11.244848  3137 net.cpp:150] Setting up stage2/block20/conv_restore
I1229 10:55:11.244858  3137 net.cpp:157] Top shape: 50 288 7 7 (705600)
I1229 10:55:11.244869  3137 net.cpp:165] Memory required for data: 940317600
I1229 10:55:11.244874  3137 layer_factory.hpp:76] Creating layer stage2/block20/sum
I1229 10:55:11.244892  3137 net.cpp:106] Creating Layer stage2/block20/sum
I1229 10:55:11.244896  3137 net.cpp:454] stage2/block20/sum <- stage2/block20/conv_restore
I1229 10:55:11.244899  3137 net.cpp:454] stage2/block20/sum <- stage2/block19/sum_stage2/block19/sum/nl_0_split_1
I1229 10:55:11.244904  3137 net.cpp:411] stage2/block20/sum -> stage2/block20/sum
I1229 10:55:11.244945  3137 net.cpp:150] Setting up stage2/block20/sum
I1229 10:55:11.244948  3137 net.cpp:157] Top shape: 50 288 7 7 (705600)
I1229 10:55:11.244951  3137 net.cpp:165] Memory required for data: 943140000
I1229 10:55:11.244952  3137 layer_factory.hpp:76] Creating layer stage2/block20/sum/nl
I1229 10:55:11.244957  3137 net.cpp:106] Creating Layer stage2/block20/sum/nl
I1229 10:55:11.244961  3137 net.cpp:454] stage2/block20/sum/nl <- stage2/block20/sum
I1229 10:55:11.244963  3137 net.cpp:397] stage2/block20/sum/nl -> stage2/block20/sum (in-place)
I1229 10:55:11.245148  3137 net.cpp:150] Setting up stage2/block20/sum/nl
I1229 10:55:11.245153  3137 net.cpp:157] Top shape: 50 288 7 7 (705600)
I1229 10:55:11.245164  3137 net.cpp:165] Memory required for data: 945962400
I1229 10:55:11.245167  3137 layer_factory.hpp:76] Creating layer stage2/block20/sum_stage2/block20/sum/nl_0_split
I1229 10:55:11.245169  3137 net.cpp:106] Creating Layer stage2/block20/sum_stage2/block20/sum/nl_0_split
I1229 10:55:11.245172  3137 net.cpp:454] stage2/block20/sum_stage2/block20/sum/nl_0_split <- stage2/block20/sum
I1229 10:55:11.245175  3137 net.cpp:411] stage2/block20/sum_stage2/block20/sum/nl_0_split -> stage2/block20/sum_stage2/block20/sum/nl_0_split_0
I1229 10:55:11.245179  3137 net.cpp:411] stage2/block20/sum_stage2/block20/sum/nl_0_split -> stage2/block20/sum_stage2/block20/sum/nl_0_split_1
I1229 10:55:11.245223  3137 net.cpp:150] Setting up stage2/block20/sum_stage2/block20/sum/nl_0_split
I1229 10:55:11.245228  3137 net.cpp:157] Top shape: 50 288 7 7 (705600)
I1229 10:55:11.245229  3137 net.cpp:157] Top shape: 50 288 7 7 (705600)
I1229 10:55:11.245231  3137 net.cpp:165] Memory required for data: 951607200
I1229 10:55:11.245232  3137 layer_factory.hpp:76] Creating layer stage2/block21/conv_reduce
I1229 10:55:11.245239  3137 net.cpp:106] Creating Layer stage2/block21/conv_reduce
I1229 10:55:11.245249  3137 net.cpp:454] stage2/block21/conv_reduce <- stage2/block20/sum_stage2/block20/sum/nl_0_split_0
I1229 10:55:11.245254  3137 net.cpp:411] stage2/block21/conv_reduce -> stage2/block21/conv_reduce
I1229 10:55:11.246657  3137 net.cpp:150] Setting up stage2/block21/conv_reduce
I1229 10:55:11.246665  3137 net.cpp:157] Top shape: 50 72 7 7 (176400)
I1229 10:55:11.246666  3137 net.cpp:165] Memory required for data: 952312800
I1229 10:55:11.246670  3137 layer_factory.hpp:76] Creating layer stage2/block21/conv_reduce/nl
I1229 10:55:11.246675  3137 net.cpp:106] Creating Layer stage2/block21/conv_reduce/nl
I1229 10:55:11.246677  3137 net.cpp:454] stage2/block21/conv_reduce/nl <- stage2/block21/conv_reduce
I1229 10:55:11.246680  3137 net.cpp:397] stage2/block21/conv_reduce/nl -> stage2/block21/conv_reduce (in-place)
I1229 10:55:11.246927  3137 net.cpp:150] Setting up stage2/block21/conv_reduce/nl
I1229 10:55:11.246932  3137 net.cpp:157] Top shape: 50 72 7 7 (176400)
I1229 10:55:11.246934  3137 net.cpp:165] Memory required for data: 953018400
I1229 10:55:11.246937  3137 layer_factory.hpp:76] Creating layer stage2/block21/conv
I1229 10:55:11.246943  3137 net.cpp:106] Creating Layer stage2/block21/conv
I1229 10:55:11.246945  3137 net.cpp:454] stage2/block21/conv <- stage2/block21/conv_reduce
I1229 10:55:11.246949  3137 net.cpp:411] stage2/block21/conv -> stage2/block21/conv
I1229 10:55:11.248800  3137 net.cpp:150] Setting up stage2/block21/conv
I1229 10:55:11.248805  3137 net.cpp:157] Top shape: 50 72 7 7 (176400)
I1229 10:55:11.248807  3137 net.cpp:165] Memory required for data: 953724000
I1229 10:55:11.248811  3137 layer_factory.hpp:76] Creating layer stage2/block21/conv/nl
I1229 10:55:11.248816  3137 net.cpp:106] Creating Layer stage2/block21/conv/nl
I1229 10:55:11.248817  3137 net.cpp:454] stage2/block21/conv/nl <- stage2/block21/conv
I1229 10:55:11.248831  3137 net.cpp:397] stage2/block21/conv/nl -> stage2/block21/conv (in-place)
I1229 10:55:11.248976  3137 net.cpp:150] Setting up stage2/block21/conv/nl
I1229 10:55:11.248980  3137 net.cpp:157] Top shape: 50 72 7 7 (176400)
I1229 10:55:11.248982  3137 net.cpp:165] Memory required for data: 954429600
I1229 10:55:11.248985  3137 layer_factory.hpp:76] Creating layer stage2/block21/conv_restore
I1229 10:55:11.248989  3137 net.cpp:106] Creating Layer stage2/block21/conv_restore
I1229 10:55:11.248992  3137 net.cpp:454] stage2/block21/conv_restore <- stage2/block21/conv
I1229 10:55:11.248996  3137 net.cpp:411] stage2/block21/conv_restore -> stage2/block21/conv_restore
I1229 10:55:11.250372  3137 net.cpp:150] Setting up stage2/block21/conv_restore
I1229 10:55:11.250380  3137 net.cpp:157] Top shape: 50 288 7 7 (705600)
I1229 10:55:11.250381  3137 net.cpp:165] Memory required for data: 957252000
I1229 10:55:11.250385  3137 layer_factory.hpp:76] Creating layer stage2/block21/sum
I1229 10:55:11.250391  3137 net.cpp:106] Creating Layer stage2/block21/sum
I1229 10:55:11.250392  3137 net.cpp:454] stage2/block21/sum <- stage2/block21/conv_restore
I1229 10:55:11.250396  3137 net.cpp:454] stage2/block21/sum <- stage2/block20/sum_stage2/block20/sum/nl_0_split_1
I1229 10:55:11.250399  3137 net.cpp:411] stage2/block21/sum -> stage2/block21/sum
I1229 10:55:11.250422  3137 net.cpp:150] Setting up stage2/block21/sum
I1229 10:55:11.250424  3137 net.cpp:157] Top shape: 50 288 7 7 (705600)
I1229 10:55:11.250427  3137 net.cpp:165] Memory required for data: 960074400
I1229 10:55:11.250428  3137 layer_factory.hpp:76] Creating layer stage2/block21/sum/nl
I1229 10:55:11.250432  3137 net.cpp:106] Creating Layer stage2/block21/sum/nl
I1229 10:55:11.250433  3137 net.cpp:454] stage2/block21/sum/nl <- stage2/block21/sum
I1229 10:55:11.250437  3137 net.cpp:397] stage2/block21/sum/nl -> stage2/block21/sum (in-place)
I1229 10:55:11.250560  3137 net.cpp:150] Setting up stage2/block21/sum/nl
I1229 10:55:11.250565  3137 net.cpp:157] Top shape: 50 288 7 7 (705600)
I1229 10:55:11.250566  3137 net.cpp:165] Memory required for data: 962896800
I1229 10:55:11.250568  3137 layer_factory.hpp:76] Creating layer stage2/block21/sum_stage2/block21/sum/nl_0_split
I1229 10:55:11.250571  3137 net.cpp:106] Creating Layer stage2/block21/sum_stage2/block21/sum/nl_0_split
I1229 10:55:11.250573  3137 net.cpp:454] stage2/block21/sum_stage2/block21/sum/nl_0_split <- stage2/block21/sum
I1229 10:55:11.250576  3137 net.cpp:411] stage2/block21/sum_stage2/block21/sum/nl_0_split -> stage2/block21/sum_stage2/block21/sum/nl_0_split_0
I1229 10:55:11.250581  3137 net.cpp:411] stage2/block21/sum_stage2/block21/sum/nl_0_split -> stage2/block21/sum_stage2/block21/sum/nl_0_split_1
I1229 10:55:11.250614  3137 net.cpp:150] Setting up stage2/block21/sum_stage2/block21/sum/nl_0_split
I1229 10:55:11.250618  3137 net.cpp:157] Top shape: 50 288 7 7 (705600)
I1229 10:55:11.250620  3137 net.cpp:157] Top shape: 50 288 7 7 (705600)
I1229 10:55:11.250622  3137 net.cpp:165] Memory required for data: 968541600
I1229 10:55:11.250623  3137 layer_factory.hpp:76] Creating layer stage2/block22/conv_reduce
I1229 10:55:11.250628  3137 net.cpp:106] Creating Layer stage2/block22/conv_reduce
I1229 10:55:11.250630  3137 net.cpp:454] stage2/block22/conv_reduce <- stage2/block21/sum_stage2/block21/sum/nl_0_split_0
I1229 10:55:11.250634  3137 net.cpp:411] stage2/block22/conv_reduce -> stage2/block22/conv_reduce
I1229 10:55:11.251905  3137 net.cpp:150] Setting up stage2/block22/conv_reduce
I1229 10:55:11.251912  3137 net.cpp:157] Top shape: 50 72 7 7 (176400)
I1229 10:55:11.251914  3137 net.cpp:165] Memory required for data: 969247200
I1229 10:55:11.251919  3137 layer_factory.hpp:76] Creating layer stage2/block22/conv_reduce/nl
I1229 10:55:11.251922  3137 net.cpp:106] Creating Layer stage2/block22/conv_reduce/nl
I1229 10:55:11.251924  3137 net.cpp:454] stage2/block22/conv_reduce/nl <- stage2/block22/conv_reduce
I1229 10:55:11.251927  3137 net.cpp:397] stage2/block22/conv_reduce/nl -> stage2/block22/conv_reduce (in-place)
I1229 10:55:11.252182  3137 net.cpp:150] Setting up stage2/block22/conv_reduce/nl
I1229 10:55:11.252188  3137 net.cpp:157] Top shape: 50 72 7 7 (176400)
I1229 10:55:11.252190  3137 net.cpp:165] Memory required for data: 969952800
I1229 10:55:11.252192  3137 layer_factory.hpp:76] Creating layer stage2/block22/conv
I1229 10:55:11.252197  3137 net.cpp:106] Creating Layer stage2/block22/conv
I1229 10:55:11.252200  3137 net.cpp:454] stage2/block22/conv <- stage2/block22/conv_reduce
I1229 10:55:11.252204  3137 net.cpp:411] stage2/block22/conv -> stage2/block22/conv
I1229 10:55:11.254426  3137 net.cpp:150] Setting up stage2/block22/conv
I1229 10:55:11.254433  3137 net.cpp:157] Top shape: 50 72 7 7 (176400)
I1229 10:55:11.254436  3137 net.cpp:165] Memory required for data: 970658400
I1229 10:55:11.254441  3137 layer_factory.hpp:76] Creating layer stage2/block22/conv/nl
I1229 10:55:11.254444  3137 net.cpp:106] Creating Layer stage2/block22/conv/nl
I1229 10:55:11.254446  3137 net.cpp:454] stage2/block22/conv/nl <- stage2/block22/conv
I1229 10:55:11.254449  3137 net.cpp:397] stage2/block22/conv/nl -> stage2/block22/conv (in-place)
I1229 10:55:11.254575  3137 net.cpp:150] Setting up stage2/block22/conv/nl
I1229 10:55:11.254580  3137 net.cpp:157] Top shape: 50 72 7 7 (176400)
I1229 10:55:11.254581  3137 net.cpp:165] Memory required for data: 971364000
I1229 10:55:11.254583  3137 layer_factory.hpp:76] Creating layer stage2/block22/conv_restore
I1229 10:55:11.254588  3137 net.cpp:106] Creating Layer stage2/block22/conv_restore
I1229 10:55:11.254590  3137 net.cpp:454] stage2/block22/conv_restore <- stage2/block22/conv
I1229 10:55:11.254595  3137 net.cpp:411] stage2/block22/conv_restore -> stage2/block22/conv_restore
I1229 10:55:11.255903  3137 net.cpp:150] Setting up stage2/block22/conv_restore
I1229 10:55:11.255908  3137 net.cpp:157] Top shape: 50 288 7 7 (705600)
I1229 10:55:11.255910  3137 net.cpp:165] Memory required for data: 974186400
I1229 10:55:11.255914  3137 layer_factory.hpp:76] Creating layer stage2/block22/sum
I1229 10:55:11.255918  3137 net.cpp:106] Creating Layer stage2/block22/sum
I1229 10:55:11.255921  3137 net.cpp:454] stage2/block22/sum <- stage2/block22/conv_restore
I1229 10:55:11.255923  3137 net.cpp:454] stage2/block22/sum <- stage2/block21/sum_stage2/block21/sum/nl_0_split_1
I1229 10:55:11.255928  3137 net.cpp:411] stage2/block22/sum -> stage2/block22/sum
I1229 10:55:11.255950  3137 net.cpp:150] Setting up stage2/block22/sum
I1229 10:55:11.255954  3137 net.cpp:157] Top shape: 50 288 7 7 (705600)
I1229 10:55:11.255955  3137 net.cpp:165] Memory required for data: 977008800
I1229 10:55:11.255956  3137 layer_factory.hpp:76] Creating layer stage2/block22/sum/nl
I1229 10:55:11.255959  3137 net.cpp:106] Creating Layer stage2/block22/sum/nl
I1229 10:55:11.255961  3137 net.cpp:454] stage2/block22/sum/nl <- stage2/block22/sum
I1229 10:55:11.255964  3137 net.cpp:397] stage2/block22/sum/nl -> stage2/block22/sum (in-place)
I1229 10:55:11.256088  3137 net.cpp:150] Setting up stage2/block22/sum/nl
I1229 10:55:11.256093  3137 net.cpp:157] Top shape: 50 288 7 7 (705600)
I1229 10:55:11.256094  3137 net.cpp:165] Memory required for data: 979831200
I1229 10:55:11.256096  3137 layer_factory.hpp:76] Creating layer stage2/block22/sum_stage2/block22/sum/nl_0_split
I1229 10:55:11.256100  3137 net.cpp:106] Creating Layer stage2/block22/sum_stage2/block22/sum/nl_0_split
I1229 10:55:11.256103  3137 net.cpp:454] stage2/block22/sum_stage2/block22/sum/nl_0_split <- stage2/block22/sum
I1229 10:55:11.256105  3137 net.cpp:411] stage2/block22/sum_stage2/block22/sum/nl_0_split -> stage2/block22/sum_stage2/block22/sum/nl_0_split_0
I1229 10:55:11.256109  3137 net.cpp:411] stage2/block22/sum_stage2/block22/sum/nl_0_split -> stage2/block22/sum_stage2/block22/sum/nl_0_split_1
I1229 10:55:11.256145  3137 net.cpp:150] Setting up stage2/block22/sum_stage2/block22/sum/nl_0_split
I1229 10:55:11.256147  3137 net.cpp:157] Top shape: 50 288 7 7 (705600)
I1229 10:55:11.256150  3137 net.cpp:157] Top shape: 50 288 7 7 (705600)
I1229 10:55:11.256160  3137 net.cpp:165] Memory required for data: 985476000
I1229 10:55:11.256162  3137 layer_factory.hpp:76] Creating layer stage3/block0/conv_reduce
I1229 10:55:11.256167  3137 net.cpp:106] Creating Layer stage3/block0/conv_reduce
I1229 10:55:11.256170  3137 net.cpp:454] stage3/block0/conv_reduce <- stage2/block22/sum_stage2/block22/sum/nl_0_split_0
I1229 10:55:11.256175  3137 net.cpp:411] stage3/block0/conv_reduce -> stage3/block0/conv_reduce
I1229 10:55:11.258802  3137 net.cpp:150] Setting up stage3/block0/conv_reduce
I1229 10:55:11.258810  3137 net.cpp:157] Top shape: 50 256 7 7 (627200)
I1229 10:55:11.258812  3137 net.cpp:165] Memory required for data: 987984800
I1229 10:55:11.258816  3137 layer_factory.hpp:76] Creating layer stage3/block0/conv_reduce/nl
I1229 10:55:11.258821  3137 net.cpp:106] Creating Layer stage3/block0/conv_reduce/nl
I1229 10:55:11.258823  3137 net.cpp:454] stage3/block0/conv_reduce/nl <- stage3/block0/conv_reduce
I1229 10:55:11.258827  3137 net.cpp:397] stage3/block0/conv_reduce/nl -> stage3/block0/conv_reduce (in-place)
I1229 10:55:11.259075  3137 net.cpp:150] Setting up stage3/block0/conv_reduce/nl
I1229 10:55:11.259081  3137 net.cpp:157] Top shape: 50 256 7 7 (627200)
I1229 10:55:11.259083  3137 net.cpp:165] Memory required for data: 990493600
I1229 10:55:11.259085  3137 layer_factory.hpp:76] Creating layer stage3/block0/conv
I1229 10:55:11.259091  3137 net.cpp:106] Creating Layer stage3/block0/conv
I1229 10:55:11.259094  3137 net.cpp:454] stage3/block0/conv <- stage3/block0/conv_reduce
I1229 10:55:11.259099  3137 net.cpp:411] stage3/block0/conv -> stage3/block0/conv
I1229 10:55:11.273823  3137 net.cpp:150] Setting up stage3/block0/conv
I1229 10:55:11.273836  3137 net.cpp:157] Top shape: 50 256 4 4 (204800)
I1229 10:55:11.273839  3137 net.cpp:165] Memory required for data: 991312800
I1229 10:55:11.273845  3137 layer_factory.hpp:76] Creating layer stage3/block0/conv/nl
I1229 10:55:11.273851  3137 net.cpp:106] Creating Layer stage3/block0/conv/nl
I1229 10:55:11.273854  3137 net.cpp:454] stage3/block0/conv/nl <- stage3/block0/conv
I1229 10:55:11.273860  3137 net.cpp:397] stage3/block0/conv/nl -> stage3/block0/conv (in-place)
I1229 10:55:11.274006  3137 net.cpp:150] Setting up stage3/block0/conv/nl
I1229 10:55:11.274011  3137 net.cpp:157] Top shape: 50 256 4 4 (204800)
I1229 10:55:11.274013  3137 net.cpp:165] Memory required for data: 992132000
I1229 10:55:11.274015  3137 layer_factory.hpp:76] Creating layer stage3/block0/conv_restore
I1229 10:55:11.274022  3137 net.cpp:106] Creating Layer stage3/block0/conv_restore
I1229 10:55:11.274024  3137 net.cpp:454] stage3/block0/conv_restore <- stage3/block0/conv
I1229 10:55:11.274029  3137 net.cpp:411] stage3/block0/conv_restore -> stage3/block0/conv_restore
I1229 10:55:11.278846  3137 net.cpp:150] Setting up stage3/block0/conv_restore
I1229 10:55:11.278861  3137 net.cpp:157] Top shape: 50 512 4 4 (409600)
I1229 10:55:11.278863  3137 net.cpp:165] Memory required for data: 993770400
I1229 10:55:11.278869  3137 layer_factory.hpp:76] Creating layer stage3/block0/shortcut
I1229 10:55:11.278878  3137 net.cpp:106] Creating Layer stage3/block0/shortcut
I1229 10:55:11.278882  3137 net.cpp:454] stage3/block0/shortcut <- stage2/block22/sum_stage2/block22/sum/nl_0_split_1
I1229 10:55:11.278888  3137 net.cpp:411] stage3/block0/shortcut -> stage3/block0/shortcut
I1229 10:55:11.283298  3137 net.cpp:150] Setting up stage3/block0/shortcut
I1229 10:55:11.283306  3137 net.cpp:157] Top shape: 50 512 4 4 (409600)
I1229 10:55:11.283308  3137 net.cpp:165] Memory required for data: 995408800
I1229 10:55:11.283313  3137 layer_factory.hpp:76] Creating layer stage3/block0/sum
I1229 10:55:11.283316  3137 net.cpp:106] Creating Layer stage3/block0/sum
I1229 10:55:11.283319  3137 net.cpp:454] stage3/block0/sum <- stage3/block0/conv_restore
I1229 10:55:11.283323  3137 net.cpp:454] stage3/block0/sum <- stage3/block0/shortcut
I1229 10:55:11.283326  3137 net.cpp:411] stage3/block0/sum -> stage3/block0/sum
I1229 10:55:11.283350  3137 net.cpp:150] Setting up stage3/block0/sum
I1229 10:55:11.283370  3137 net.cpp:157] Top shape: 50 512 4 4 (409600)
I1229 10:55:11.283372  3137 net.cpp:165] Memory required for data: 997047200
I1229 10:55:11.283375  3137 layer_factory.hpp:76] Creating layer stage3/block0/sum/nl
I1229 10:55:11.283382  3137 net.cpp:106] Creating Layer stage3/block0/sum/nl
I1229 10:55:11.283385  3137 net.cpp:454] stage3/block0/sum/nl <- stage3/block0/sum
I1229 10:55:11.283387  3137 net.cpp:397] stage3/block0/sum/nl -> stage3/block0/sum (in-place)
I1229 10:55:11.283514  3137 net.cpp:150] Setting up stage3/block0/sum/nl
I1229 10:55:11.283519  3137 net.cpp:157] Top shape: 50 512 4 4 (409600)
I1229 10:55:11.283519  3137 net.cpp:165] Memory required for data: 998685600
I1229 10:55:11.283522  3137 layer_factory.hpp:76] Creating layer stage3/block0/sum_stage3/block0/sum/nl_0_split
I1229 10:55:11.283525  3137 net.cpp:106] Creating Layer stage3/block0/sum_stage3/block0/sum/nl_0_split
I1229 10:55:11.283527  3137 net.cpp:454] stage3/block0/sum_stage3/block0/sum/nl_0_split <- stage3/block0/sum
I1229 10:55:11.283531  3137 net.cpp:411] stage3/block0/sum_stage3/block0/sum/nl_0_split -> stage3/block0/sum_stage3/block0/sum/nl_0_split_0
I1229 10:55:11.283535  3137 net.cpp:411] stage3/block0/sum_stage3/block0/sum/nl_0_split -> stage3/block0/sum_stage3/block0/sum/nl_0_split_1
I1229 10:55:11.283572  3137 net.cpp:150] Setting up stage3/block0/sum_stage3/block0/sum/nl_0_split
I1229 10:55:11.283576  3137 net.cpp:157] Top shape: 50 512 4 4 (409600)
I1229 10:55:11.283578  3137 net.cpp:157] Top shape: 50 512 4 4 (409600)
I1229 10:55:11.283579  3137 net.cpp:165] Memory required for data: 1001962400
I1229 10:55:11.283581  3137 layer_factory.hpp:76] Creating layer stage3/block1/conv_reduce
I1229 10:55:11.283587  3137 net.cpp:106] Creating Layer stage3/block1/conv_reduce
I1229 10:55:11.283589  3137 net.cpp:454] stage3/block1/conv_reduce <- stage3/block0/sum_stage3/block0/sum/nl_0_split_0
I1229 10:55:11.283592  3137 net.cpp:411] stage3/block1/conv_reduce -> stage3/block1/conv_reduce
I1229 10:55:11.287516  3137 net.cpp:150] Setting up stage3/block1/conv_reduce
I1229 10:55:11.287525  3137 net.cpp:157] Top shape: 50 256 4 4 (204800)
I1229 10:55:11.287528  3137 net.cpp:165] Memory required for data: 1002781600
I1229 10:55:11.287533  3137 layer_factory.hpp:76] Creating layer stage3/block1/conv_reduce/nl
I1229 10:55:11.287536  3137 net.cpp:106] Creating Layer stage3/block1/conv_reduce/nl
I1229 10:55:11.287539  3137 net.cpp:454] stage3/block1/conv_reduce/nl <- stage3/block1/conv_reduce
I1229 10:55:11.287544  3137 net.cpp:397] stage3/block1/conv_reduce/nl -> stage3/block1/conv_reduce (in-place)
I1229 10:55:11.287796  3137 net.cpp:150] Setting up stage3/block1/conv_reduce/nl
I1229 10:55:11.287802  3137 net.cpp:157] Top shape: 50 256 4 4 (204800)
I1229 10:55:11.287804  3137 net.cpp:165] Memory required for data: 1003600800
I1229 10:55:11.287806  3137 layer_factory.hpp:76] Creating layer stage3/block1/conv
I1229 10:55:11.287812  3137 net.cpp:106] Creating Layer stage3/block1/conv
I1229 10:55:11.287814  3137 net.cpp:454] stage3/block1/conv <- stage3/block1/conv_reduce
I1229 10:55:11.287818  3137 net.cpp:411] stage3/block1/conv -> stage3/block1/conv
I1229 10:55:11.302733  3137 net.cpp:150] Setting up stage3/block1/conv
I1229 10:55:11.302749  3137 net.cpp:157] Top shape: 50 256 4 4 (204800)
I1229 10:55:11.302752  3137 net.cpp:165] Memory required for data: 1004420000
I1229 10:55:11.302757  3137 layer_factory.hpp:76] Creating layer stage3/block1/conv/nl
I1229 10:55:11.302764  3137 net.cpp:106] Creating Layer stage3/block1/conv/nl
I1229 10:55:11.302768  3137 net.cpp:454] stage3/block1/conv/nl <- stage3/block1/conv
I1229 10:55:11.302773  3137 net.cpp:397] stage3/block1/conv/nl -> stage3/block1/conv (in-place)
I1229 10:55:11.303035  3137 net.cpp:150] Setting up stage3/block1/conv/nl
I1229 10:55:11.303040  3137 net.cpp:157] Top shape: 50 256 4 4 (204800)
I1229 10:55:11.303042  3137 net.cpp:165] Memory required for data: 1005239200
I1229 10:55:11.303045  3137 layer_factory.hpp:76] Creating layer stage3/block1/conv_restore
I1229 10:55:11.303071  3137 net.cpp:106] Creating Layer stage3/block1/conv_restore
I1229 10:55:11.303073  3137 net.cpp:454] stage3/block1/conv_restore <- stage3/block1/conv
I1229 10:55:11.303078  3137 net.cpp:411] stage3/block1/conv_restore -> stage3/block1/conv_restore
I1229 10:55:11.307639  3137 net.cpp:150] Setting up stage3/block1/conv_restore
I1229 10:55:11.307651  3137 net.cpp:157] Top shape: 50 512 4 4 (409600)
I1229 10:55:11.307653  3137 net.cpp:165] Memory required for data: 1006877600
I1229 10:55:11.307658  3137 layer_factory.hpp:76] Creating layer stage3/block1/sum
I1229 10:55:11.307664  3137 net.cpp:106] Creating Layer stage3/block1/sum
I1229 10:55:11.307669  3137 net.cpp:454] stage3/block1/sum <- stage3/block1/conv_restore
I1229 10:55:11.307673  3137 net.cpp:454] stage3/block1/sum <- stage3/block0/sum_stage3/block0/sum/nl_0_split_1
I1229 10:55:11.307677  3137 net.cpp:411] stage3/block1/sum -> stage3/block1/sum
I1229 10:55:11.307704  3137 net.cpp:150] Setting up stage3/block1/sum
I1229 10:55:11.307708  3137 net.cpp:157] Top shape: 50 512 4 4 (409600)
I1229 10:55:11.307710  3137 net.cpp:165] Memory required for data: 1008516000
I1229 10:55:11.307713  3137 layer_factory.hpp:76] Creating layer stage3/block1/sum/nl
I1229 10:55:11.307715  3137 net.cpp:106] Creating Layer stage3/block1/sum/nl
I1229 10:55:11.307718  3137 net.cpp:454] stage3/block1/sum/nl <- stage3/block1/sum
I1229 10:55:11.307720  3137 net.cpp:397] stage3/block1/sum/nl -> stage3/block1/sum (in-place)
I1229 10:55:11.307847  3137 net.cpp:150] Setting up stage3/block1/sum/nl
I1229 10:55:11.307852  3137 net.cpp:157] Top shape: 50 512 4 4 (409600)
I1229 10:55:11.307852  3137 net.cpp:165] Memory required for data: 1010154400
I1229 10:55:11.307854  3137 layer_factory.hpp:76] Creating layer stage3/block1/sum_stage3/block1/sum/nl_0_split
I1229 10:55:11.307858  3137 net.cpp:106] Creating Layer stage3/block1/sum_stage3/block1/sum/nl_0_split
I1229 10:55:11.307860  3137 net.cpp:454] stage3/block1/sum_stage3/block1/sum/nl_0_split <- stage3/block1/sum
I1229 10:55:11.307863  3137 net.cpp:411] stage3/block1/sum_stage3/block1/sum/nl_0_split -> stage3/block1/sum_stage3/block1/sum/nl_0_split_0
I1229 10:55:11.307869  3137 net.cpp:411] stage3/block1/sum_stage3/block1/sum/nl_0_split -> stage3/block1/sum_stage3/block1/sum/nl_0_split_1
I1229 10:55:11.307907  3137 net.cpp:150] Setting up stage3/block1/sum_stage3/block1/sum/nl_0_split
I1229 10:55:11.307911  3137 net.cpp:157] Top shape: 50 512 4 4 (409600)
I1229 10:55:11.307914  3137 net.cpp:157] Top shape: 50 512 4 4 (409600)
I1229 10:55:11.307914  3137 net.cpp:165] Memory required for data: 1013431200
I1229 10:55:11.307916  3137 layer_factory.hpp:76] Creating layer stage3/block2/conv_reduce
I1229 10:55:11.307922  3137 net.cpp:106] Creating Layer stage3/block2/conv_reduce
I1229 10:55:11.307925  3137 net.cpp:454] stage3/block2/conv_reduce <- stage3/block1/sum_stage3/block1/sum/nl_0_split_0
I1229 10:55:11.307929  3137 net.cpp:411] stage3/block2/conv_reduce -> stage3/block2/conv_reduce
I1229 10:55:11.312180  3137 net.cpp:150] Setting up stage3/block2/conv_reduce
I1229 10:55:11.312192  3137 net.cpp:157] Top shape: 50 256 4 4 (204800)
I1229 10:55:11.312194  3137 net.cpp:165] Memory required for data: 1014250400
I1229 10:55:11.312201  3137 layer_factory.hpp:76] Creating layer stage3/block2/conv_reduce/nl
I1229 10:55:11.312206  3137 net.cpp:106] Creating Layer stage3/block2/conv_reduce/nl
I1229 10:55:11.312209  3137 net.cpp:454] stage3/block2/conv_reduce/nl <- stage3/block2/conv_reduce
I1229 10:55:11.312213  3137 net.cpp:397] stage3/block2/conv_reduce/nl -> stage3/block2/conv_reduce (in-place)
I1229 10:55:11.312464  3137 net.cpp:150] Setting up stage3/block2/conv_reduce/nl
I1229 10:55:11.312471  3137 net.cpp:157] Top shape: 50 256 4 4 (204800)
I1229 10:55:11.312474  3137 net.cpp:165] Memory required for data: 1015069600
I1229 10:55:11.312475  3137 layer_factory.hpp:76] Creating layer stage3/block2/conv
I1229 10:55:11.312482  3137 net.cpp:106] Creating Layer stage3/block2/conv
I1229 10:55:11.312484  3137 net.cpp:454] stage3/block2/conv <- stage3/block2/conv_reduce
I1229 10:55:11.312515  3137 net.cpp:411] stage3/block2/conv -> stage3/block2/conv
I1229 10:55:11.327241  3137 net.cpp:150] Setting up stage3/block2/conv
I1229 10:55:11.327260  3137 net.cpp:157] Top shape: 50 256 4 4 (204800)
I1229 10:55:11.327261  3137 net.cpp:165] Memory required for data: 1015888800
I1229 10:55:11.327267  3137 layer_factory.hpp:76] Creating layer stage3/block2/conv/nl
I1229 10:55:11.327275  3137 net.cpp:106] Creating Layer stage3/block2/conv/nl
I1229 10:55:11.327278  3137 net.cpp:454] stage3/block2/conv/nl <- stage3/block2/conv
I1229 10:55:11.327283  3137 net.cpp:397] stage3/block2/conv/nl -> stage3/block2/conv (in-place)
I1229 10:55:11.327544  3137 net.cpp:150] Setting up stage3/block2/conv/nl
I1229 10:55:11.327551  3137 net.cpp:157] Top shape: 50 256 4 4 (204800)
I1229 10:55:11.327553  3137 net.cpp:165] Memory required for data: 1016708000
I1229 10:55:11.327555  3137 layer_factory.hpp:76] Creating layer stage3/block2/conv_restore
I1229 10:55:11.327564  3137 net.cpp:106] Creating Layer stage3/block2/conv_restore
I1229 10:55:11.327565  3137 net.cpp:454] stage3/block2/conv_restore <- stage3/block2/conv
I1229 10:55:11.327570  3137 net.cpp:411] stage3/block2/conv_restore -> stage3/block2/conv_restore
I1229 10:55:11.331607  3137 net.cpp:150] Setting up stage3/block2/conv_restore
I1229 10:55:11.331614  3137 net.cpp:157] Top shape: 50 512 4 4 (409600)
I1229 10:55:11.331616  3137 net.cpp:165] Memory required for data: 1018346400
I1229 10:55:11.331620  3137 layer_factory.hpp:76] Creating layer stage3/block2/sum
I1229 10:55:11.331625  3137 net.cpp:106] Creating Layer stage3/block2/sum
I1229 10:55:11.331629  3137 net.cpp:454] stage3/block2/sum <- stage3/block2/conv_restore
I1229 10:55:11.331631  3137 net.cpp:454] stage3/block2/sum <- stage3/block1/sum_stage3/block1/sum/nl_0_split_1
I1229 10:55:11.331634  3137 net.cpp:411] stage3/block2/sum -> stage3/block2/sum
I1229 10:55:11.331660  3137 net.cpp:150] Setting up stage3/block2/sum
I1229 10:55:11.331662  3137 net.cpp:157] Top shape: 50 512 4 4 (409600)
I1229 10:55:11.331665  3137 net.cpp:165] Memory required for data: 1019984800
I1229 10:55:11.331665  3137 layer_factory.hpp:76] Creating layer stage3/block2/sum/nl
I1229 10:55:11.331670  3137 net.cpp:106] Creating Layer stage3/block2/sum/nl
I1229 10:55:11.331671  3137 net.cpp:454] stage3/block2/sum/nl <- stage3/block2/sum
I1229 10:55:11.331673  3137 net.cpp:397] stage3/block2/sum/nl -> stage3/block2/sum (in-place)
I1229 10:55:11.331800  3137 net.cpp:150] Setting up stage3/block2/sum/nl
I1229 10:55:11.331804  3137 net.cpp:157] Top shape: 50 512 4 4 (409600)
I1229 10:55:11.331806  3137 net.cpp:165] Memory required for data: 1021623200
I1229 10:55:11.331809  3137 layer_factory.hpp:76] Creating layer global_pool
I1229 10:55:11.331812  3137 net.cpp:106] Creating Layer global_pool
I1229 10:55:11.331815  3137 net.cpp:454] global_pool <- stage3/block2/sum
I1229 10:55:11.331818  3137 net.cpp:411] global_pool -> global_pool
I1229 10:55:11.332085  3137 net.cpp:150] Setting up global_pool
I1229 10:55:11.332092  3137 net.cpp:157] Top shape: 50 512 1 1 (25600)
I1229 10:55:11.332093  3137 net.cpp:165] Memory required for data: 1021725600
I1229 10:55:11.332095  3137 layer_factory.hpp:76] Creating layer classifier
I1229 10:55:11.332100  3137 net.cpp:106] Creating Layer classifier
I1229 10:55:11.332103  3137 net.cpp:454] classifier <- global_pool
I1229 10:55:11.332106  3137 net.cpp:411] classifier -> classifier
I1229 10:55:11.344877  3137 net.cpp:150] Setting up classifier
I1229 10:55:11.344893  3137 net.cpp:157] Top shape: 50 1000 (50000)
I1229 10:55:11.344895  3137 net.cpp:165] Memory required for data: 1021925600
I1229 10:55:11.344902  3137 layer_factory.hpp:76] Creating layer classifier_classifier_0_split
I1229 10:55:11.344909  3137 net.cpp:106] Creating Layer classifier_classifier_0_split
I1229 10:55:11.344913  3137 net.cpp:454] classifier_classifier_0_split <- classifier
I1229 10:55:11.344918  3137 net.cpp:411] classifier_classifier_0_split -> classifier_classifier_0_split_0
I1229 10:55:11.344952  3137 net.cpp:411] classifier_classifier_0_split -> classifier_classifier_0_split_1
I1229 10:55:11.344966  3137 net.cpp:411] classifier_classifier_0_split -> classifier_classifier_0_split_2
I1229 10:55:11.345037  3137 net.cpp:150] Setting up classifier_classifier_0_split
I1229 10:55:11.345042  3137 net.cpp:157] Top shape: 50 1000 (50000)
I1229 10:55:11.345044  3137 net.cpp:157] Top shape: 50 1000 (50000)
I1229 10:55:11.345046  3137 net.cpp:157] Top shape: 50 1000 (50000)
I1229 10:55:11.345048  3137 net.cpp:165] Memory required for data: 1022525600
I1229 10:55:11.345049  3137 layer_factory.hpp:76] Creating layer loss/loss
I1229 10:55:11.345053  3137 net.cpp:106] Creating Layer loss/loss
I1229 10:55:11.345055  3137 net.cpp:454] loss/loss <- classifier_classifier_0_split_0
I1229 10:55:11.345058  3137 net.cpp:454] loss/loss <- label_data_1_split_0
I1229 10:55:11.345062  3137 net.cpp:411] loss/loss -> loss/loss
…
