…
      source: "/home/old-ufo/storage/datasets/imagenet/imgs128/lmdb/ilsvrc12_128_train_lmdb"
      batch_size: 256
      backend: LMDB
    }
  }
  layer {
    name: "data"
    type: "Data"
    top: "data"
    top: "label"
    include {
      phase: TEST
    }
    transform_param {
      scale: 0.04
      mirror: false
      crop_size: 128
      mean_value: 104
      mean_value: 117
      mean_value: 123
      force_color: true
    }
    data_param {
      source: "/home/old-ufo/storage/datasets/imagenet/imgs128/lmdb/ilsvrc12_128_val_lmdb"
      batch_size: 50
      backend: LMDB
    }
  }
  layer {
    name: "conv1"
    type: "Convolution"
    bottom: "data"
    top: "conv1"
    param {
      lr_mult: 1
      decay_mult: 1
    }
    param {
      lr_mult: 2
      decay_mult: 0
    }
    convolution_param {
      num_output: 272
      kernel_size: 11
      stride: 4
      weight_filler {
        type: "gaussian"
        std: 0.01
      }
      bias_filler {
        type: "constant"
      }
    }
  }
  layer {
    name: "relu1"
    type: "ReLU"
    bottom: "conv1"
    top: "relu1"
  }
  layer {
    name: "pool1"
    type: "Pooling"
    bottom: "relu1"
    top: "pool1"
    pooling_param {
      pool: MAX
      kernel_size: 3
      stride: 2
    }
  }
  layer {
    name: "conv2"
    type: "Convolution"
    bottom: "pool1"
    top: "conv2"
    param {
      lr_mult: 1
      decay_mult: 1
    }
    param {
      lr_mult: 2
      decay_mult: 0
    }
    convolution_param {
      num_output: 724
      pad: 2
      kernel_size: 5
      group: 2
      weight_filler {
        type: "gaussian"
        std: 0.01
      }
      bias_filler {
        type: "constant"
      }
    }
  }
  layer {
    name: "relu2"
    type: "ReLU"
    bottom: "conv2"
    top: "relu2"
  }
  layer {
    name: "pool2"
    type: "Pooling"
    bottom: "relu2"
    top: "pool2"
    pooling_param {
      pool: MAX
      kernel_size: 3
      stride: 2
    }
  }
  layer {
    name: "conv3"
    type: "Convolution"
    bottom: "pool2"
    top: "conv3"
    param {
      lr_mult: 1
      decay_mult: 1
    }
    param {
      lr_mult: 2
      decay_mult: 0
    }
    convolution_param {
      num_output: 1086
      pad: 1
      kernel_size: 3
      weight_filler {
        type: "gaussian"
        std: 0.01
      }
      bias_filler {
        type: "constant"
      }
    }
  }
  layer {
    name: "relu3"
    type: "ReLU"
    bottom: "conv3"
    top: "relu3"
  }
  layer {
    name: "conv4"
    type: "Convolution"
    bottom: "relu3"
    top: "conv4"
    param {
      lr_mult: 1
      decay_mult: 1
    }
    param {
      lr_mult: 2
      decay_mult: 0
    }
    convolution_param {
      num_output: 1086
      pad: 1
      kernel_size: 3
      group: 2
      weight_filler {
        type: "gaussian"
        std: 0.01
      }
      bias_filler {
        type: "constant"
      }
    }
  }
  layer {
    name: "relu4"
    type: "ReLU"
    bottom: "conv4"
    top: "relu4"
  }
  layer {
    name: "conv5"
    type: "Convolution"
    bottom: "relu4"
    top: "conv5"
    param {
      lr_mult: 1
      decay_mult: 1
    }
    param {
      lr_mult: 2
      decay_mult: 0
    }
    convolution_param {
      num_output: 724
      pad: 1
      kernel_size: 3
      group: 2
      weight_filler {
        type: "gaussian"
        std: 0.01
      }
      bias_filler {
        type: "constant"
      }
    }
  }
  layer {
    name: "relu5"
    type: "ReLU"
    bottom: "conv5"
    top: "relu5"
  }
  layer {
    name: "pool5"
    type: "Pooling"
    bottom: "relu5"
    top: "pool5"
    pooling_param {
      pool: MAX
      kernel_size: 3
      stride: 2
    }
  }
  layer {
    name: "fc6"
    type: "InnerProduct"
    bottom: "pool5"
    top: "fc6"
    param {
      lr_mult: 1
      decay_mult: 1
    }
    param {
      lr_mult: 2
      decay_mult: 0
    }
    inner_product_param {
      num_output: 5792
      weight_filler {
        type: "gaussian"
        std: 0.005
      }
      bias_filler {
        type: "constant"
      }
    }
  }
  layer {
    name: "relu6"
    type: "ReLU"
    bottom: "fc6"
    top: "relu6"
  }
  layer {
    name: "drop6"
    type: "Dropout"
    bottom: "relu6"
    top: "drop6"
    dropout_param {
      dropout_ratio: 0.5
    }
  }
  layer {
    name: "fc7"
    type: "InnerProduct"
    bottom: "drop6"
    top: "fc7"
    param {
      lr_mult: 1
      decay_mult: 1
    }
    param {
      lr_mult: 2
      decay_mult: 0
    }
    inner_product_param {
      num_output: 5792
      weight_filler {
        type: "gaussian"
        std: 0.005
      }
      bias_filler {
        type: "constant"
      }
    }
  }
  layer {
    name: "relu7"
    type: "ReLU"
    bottom: "fc7"
    top: "relu7"
  }
  layer {
    name: "drop7"
    type: "Dropout"
    bottom: "relu7"
    top: "drop7"
    dropout_param {
      dropout_ratio: 0.5
    }
  }
  layer {
    name: "fc8"
    type: "InnerProduct"
    bottom: "drop7"
    top: "fc8"
    param {
      lr_mult: 1
      decay_mult: 1
    }
    param {
      lr_mult: 2
      decay_mult: 0
    }
    inner_product_param {
      num_output: 1000
      weight_filler {
        type: "gaussian"
        std: 0.01
      }
      bias_filler {
        type: "constant"
      }
    }
  }
  layer {
    name: "accuracy"
    type: "Accuracy"
    bottom: "fc8"
    bottom: "label"
    top: "accuracy"
    include {
      phase: TEST
    }
  }
  layer {
    name: "loss"
    type: "SoftmaxWithLoss"
    bottom: "fc8"
    bottom: "label"
    top: "loss"
  }
}
test_initialization: true
iter_size: 1
type: "SGD"
I0425 01:06:31.958456 20495 solver.cpp:86] Creating training net specified in net_param.
I0425 01:06:31.958520 20495 net.cpp:313] The NetState phase (0) differed from the phase (1) specified by a rule in layer data
I0425 01:06:31.958536 20495 net.cpp:313] The NetState phase (0) differed from the phase (1) specified by a rule in layer accuracy
I0425 01:06:31.958652 20495 net.cpp:49] Initializing net from parameters: 
name: "CaffeNet"
state {
  phase: TRAIN
}
layer {
  name: "data"
  type: "Data"
  top: "data"
  top: "label"
  include {
    phase: TRAIN
  }
  transform_param {
    scale: 0.04
    mirror: true
    crop_size: 128
    mean_value: 104
    mean_value: 117
    mean_value: 124
    force_color: true
  }
  data_param {
    source: "/home/old-ufo/storage/datasets/imagenet/imgs128/lmdb/ilsvrc12_128_train_lmdb"
    batch_size: 256
    backend: LMDB
  }
}
layer {
  name: "conv1"
  type: "Convolution"
  bottom: "data"
  top: "conv1"
  param {
    lr_mult: 1
    decay_mult: 1
  }
  param {
    lr_mult: 2
    decay_mult: 0
  }
  convolution_param {
    num_output: 272
    kernel_size: 11
    stride: 4
    weight_filler {
      type: "gaussian"
      std: 0.01
    }
    bias_filler {
      type: "constant"
    }
  }
}
layer {
  name: "relu1"
  type: "ReLU"
  bottom: "conv1"
  top: "relu1"
}
layer {
  name: "pool1"
  type: "Pooling"
  bottom: "relu1"
  top: "pool1"
  pooling_param {
    pool: MAX
    kernel_size: 3
    stride: 2
  }
}
layer {
  name: "conv2"
  type: "Convolution"
  bottom: "pool1"
  top: "conv2"
  param {
    lr_mult: 1
    decay_mult: 1
  }
  param {
    lr_mult: 2
    decay_mult: 0
  }
  convolution_param {
    num_output: 724
    pad: 2
    kernel_size: 5
    group: 2
    weight_filler {
      type: "gaussian"
      std: 0.01
    }
    bias_filler {
      type: "constant"
    }
  }
}
layer {
  name: "relu2"
  type: "ReLU"
  bottom: "conv2"
  top: "relu2"
}
layer {
  name: "pool2"
  type: "Pooling"
  bottom: "relu2"
  top: "pool2"
  pooling_param {
    pool: MAX
    kernel_size: 3
    stride: 2
  }
}
layer {
  name: "conv3"
  type: "Convolution"
  bottom: "pool2"
  top: "conv3"
  param {
    lr_mult: 1
    decay_mult: 1
  }
  param {
    lr_mult: 2
    decay_mult: 0
  }
  convolution_param {
    num_output: 1086
    pad: 1
    kernel_size: 3
    weight_filler {
      type: "gaussian"
      std: 0.01
    }
    bias_filler {
      type: "constant"
    }
  }
}
layer {
  name: "relu3"
  type: "ReLU"
  bottom: "conv3"
  top: "relu3"
}
layer {
  name: "conv4"
  type: "Convolution"
  bottom: "relu3"
  top: "conv4"
  param {
    lr_mult: 1
    decay_mult: 1
  }
  param {
    lr_mult: 2
    decay_mult: 0
  }
  convolution_param {
    num_output: 1086
    pad: 1
    kernel_size: 3
    group: 2
    weight_filler {
      type: "gaussian"
      std: 0.01
    }
    bias_filler {
      type: "constant"
    }
  }
}
layer {
  name: "relu4"
  type: "ReLU"
  bottom: "conv4"
  top: "relu4"
}
layer {
  name: "conv5"
  type: "Convolution"
  bottom: "relu4"
  top: "conv5"
  param {
    lr_mult: 1
    decay_mult: 1
  }
  param {
    lr_mult: 2
    decay_mult: 0
  }
  convolution_param {
    num_output: 724
    pad: 1
    kernel_size: 3
    group: 2
    weight_filler {
      type: "gaussian"
      std: 0.01
    }
    bias_filler {
      type: "constant"
    }
  }
}
layer {
  name: "relu5"
  type: "ReLU"
  bottom: "conv5"
  top: "relu5"
}
layer {
  name: "pool5"
  type: "Pooling"
  bottom: "relu5"
  top: "pool5"
  pooling_param {
    pool: MAX
    kernel_size: 3
    stride: 2
  }
}
layer {
  name: "fc6"
  type: "InnerProduct"
  bottom: "pool5"
  top: "fc6"
  param {
    lr_mult: 1
    decay_mult: 1
  }
  param {
    lr_mult: 2
    decay_mult: 0
  }
  inner_product_param {
    num_output: 5792
    weight_filler {
      type: "gaussian"
      std: 0.005
    }
    bias_filler {
      type: "constant"
    }
  }
}
layer {
  name: "relu6"
  type: "ReLU"
  bottom: "fc6"
  top: "relu6"
}
layer {
  name: "drop6"
  type: "Dropout"
  bottom: "relu6"
  top: "drop6"
  dropout_param {
    dropout_ratio: 0.5
  }
}
layer {
  name: "fc7"
  type: "InnerProduct"
  bottom: "drop6"
  top: "fc7"
  param {
    lr_mult: 1
    decay_mult: 1
  }
  param {
    lr_mult: 2
    decay_mult: 0
  }
  inner_product_param {
    num_output: 5792
    weight_filler {
      type: "gaussian"
      std: 0.005
    }
    bias_filler {
      type: "constant"
    }
  }
}
layer {
  name: "relu7"
  type: "ReLU"
  bottom: "fc7"
  top: "relu7"
}
layer {
  name: "drop7"
  type: "Dropout"
  bottom: "relu7"
  top: "drop7"
  dropout_param {
    dropout_ratio: 0.5
  }
}
layer {
  name: "fc8"
  type: "InnerProduct"
  bottom: "drop7"
  top: "fc8"
  param {
    lr_mult: 1
    decay_mult: 1
  }
  param {
    lr_mult: 2
    decay_mult: 0
  }
  inner_product_param {
    num_output: 1000
    weight_filler {
      type: "gaussian"
      std: 0.01
    }
    bias_filler {
      type: "constant"
    }
  }
}
layer {
  name: "loss"
  type: "SoftmaxWithLoss"
  bottom: "fc8"
  bottom: "label"
  top: "loss"
}
I0425 01:06:31.958744 20495 layer_factory.hpp:77] Creating layer data
I0425 01:06:31.959272 20495 net.cpp:91] Creating Layer data
I0425 01:06:31.959283 20495 net.cpp:399] data -> data
I0425 01:06:31.959302 20495 net.cpp:399] data -> label
I0425 01:06:31.960198 20501 db_lmdb.cpp:38] Opened lmdb /home/old-ufo/storage/datasets/imagenet/imgs128/lmdb/ilsvrc12_128_train_lmdb
I0425 01:06:31.967618 20495 data_layer.cpp:41] output data size: 256,3,128,128
I0425 01:06:32.028318 20495 net.cpp:141] Setting up data
I0425 01:06:32.028342 20495 net.cpp:148] Top shape: 256 3 128 128 (12582912)
I0425 01:06:32.028347 20495 net.cpp:148] Top shape: 256 (256)
I0425 01:06:32.028367 20495 net.cpp:156] Memory required for data: 50332672
I0425 01:06:32.028376 20495 layer_factory.hpp:77] Creating layer conv1
I0425 01:06:32.028395 20495 net.cpp:91] Creating Layer conv1
I0425 01:06:32.028399 20495 net.cpp:425] conv1 <- data
I0425 01:06:32.028410 20495 net.cpp:399] conv1 -> conv1
I0425 01:06:32.167634 20495 net.cpp:141] Setting up conv1
I0425 01:06:32.167664 20495 net.cpp:148] Top shape: 256 272 30 30 (62668800)
I0425 01:06:32.167666 20495 net.cpp:156] Memory required for data: 301007872
I0425 01:06:32.167687 20495 layer_factory.hpp:77] Creating layer relu1
I0425 01:06:32.167706 20495 net.cpp:91] Creating Layer relu1
I0425 01:06:32.167711 20495 net.cpp:425] relu1 <- conv1
I0425 01:06:32.167719 20495 net.cpp:399] relu1 -> relu1
I0425 01:06:32.167971 20495 net.cpp:141] Setting up relu1
I0425 01:06:32.167981 20495 net.cpp:148] Top shape: 256 272 30 30 (62668800)
I0425 01:06:32.167984 20495 net.cpp:156] Memory required for data: 551683072
I0425 01:06:32.167989 20495 layer_factory.hpp:77] Creating layer pool1
I0425 01:06:32.167997 20495 net.cpp:91] Creating Layer pool1
I0425 01:06:32.168002 20495 net.cpp:425] pool1 <- relu1
I0425 01:06:32.168009 20495 net.cpp:399] pool1 -> pool1
I0425 01:06:32.168056 20495 net.cpp:141] Setting up pool1
I0425 01:06:32.168063 20495 net.cpp:148] Top shape: 256 272 15 15 (15667200)
I0425 01:06:32.168066 20495 net.cpp:156] Memory required for data: 614351872
I0425 01:06:32.168071 20495 layer_factory.hpp:77] Creating layer conv2
I0425 01:06:32.168086 20495 net.cpp:91] Creating Layer conv2
I0425 01:06:32.168090 20495 net.cpp:425] conv2 <- pool1
I0425 01:06:32.168097 20495 net.cpp:399] conv2 -> conv2
I0425 01:06:32.233937 20495 net.cpp:141] Setting up conv2
I0425 01:06:32.233960 20495 net.cpp:148] Top shape: 256 724 15 15 (41702400)
I0425 01:06:32.233969 20495 net.cpp:156] Memory required for data: 781161472
I0425 01:06:32.233979 20495 layer_factory.hpp:77] Creating layer relu2
I0425 01:06:32.233988 20495 net.cpp:91] Creating Layer relu2
I0425 01:06:32.233991 20495 net.cpp:425] relu2 <- conv2
I0425 01:06:32.233996 20495 net.cpp:399] relu2 -> relu2
I0425 01:06:32.234223 20495 net.cpp:141] Setting up relu2
I0425 01:06:32.234231 20495 net.cpp:148] Top shape: 256 724 15 15 (41702400)
I0425 01:06:32.234235 20495 net.cpp:156] Memory required for data: 947971072
I0425 01:06:32.234237 20495 layer_factory.hpp:77] Creating layer pool2
I0425 01:06:32.234243 20495 net.cpp:91] Creating Layer pool2
I0425 01:06:32.234246 20495 net.cpp:425] pool2 <- relu2
I0425 01:06:32.234251 20495 net.cpp:399] pool2 -> pool2
I0425 01:06:32.234278 20495 net.cpp:141] Setting up pool2
I0425 01:06:32.234282 20495 net.cpp:148] Top shape: 256 724 7 7 (9081856)
I0425 01:06:32.234285 20495 net.cpp:156] Memory required for data: 984298496
I0425 01:06:32.234287 20495 layer_factory.hpp:77] Creating layer conv3
I0425 01:06:32.234295 20495 net.cpp:91] Creating Layer conv3
I0425 01:06:32.234298 20495 net.cpp:425] conv3 <- pool2
I0425 01:06:32.234302 20495 net.cpp:399] conv3 -> conv3
I0425 01:06:32.419144 20495 net.cpp:141] Setting up conv3
I0425 01:06:32.419169 20495 net.cpp:148] Top shape: 256 1086 7 7 (13622784)
I0425 01:06:32.419173 20495 net.cpp:156] Memory required for data: 1038789632
I0425 01:06:32.419188 20495 layer_factory.hpp:77] Creating layer relu3
I0425 01:06:32.419203 20495 net.cpp:91] Creating Layer relu3
I0425 01:06:32.419209 20495 net.cpp:425] relu3 <- conv3
I0425 01:06:32.419217 20495 net.cpp:399] relu3 -> relu3
I0425 01:06:32.419405 20495 net.cpp:141] Setting up relu3
I0425 01:06:32.419415 20495 net.cpp:148] Top shape: 256 1086 7 7 (13622784)
I0425 01:06:32.419419 20495 net.cpp:156] Memory required for data: 1093280768
I0425 01:06:32.419422 20495 layer_factory.hpp:77] Creating layer conv4
I0425 01:06:32.419440 20495 net.cpp:91] Creating Layer conv4
I0425 01:06:32.419445 20495 net.cpp:425] conv4 <- relu3
I0425 01:06:32.419456 20495 net.cpp:399] conv4 -> conv4
I0425 01:06:32.557358 20495 net.cpp:141] Setting up conv4
I0425 01:06:32.557394 20495 net.cpp:148] Top shape: 256 1086 7 7 (13622784)
I0425 01:06:32.557430 20495 net.cpp:156] Memory required for data: 1147771904
I0425 01:06:32.557448 20495 layer_factory.hpp:77] Creating layer relu4
I0425 01:06:32.557464 20495 net.cpp:91] Creating Layer relu4
I0425 01:06:32.557473 20495 net.cpp:425] relu4 <- conv4
I0425 01:06:32.557483 20495 net.cpp:399] relu4 -> relu4
I0425 01:06:32.557718 20495 net.cpp:141] Setting up relu4
I0425 01:06:32.557730 20495 net.cpp:148] Top shape: 256 1086 7 7 (13622784)
I0425 01:06:32.557736 20495 net.cpp:156] Memory required for data: 1202263040
I0425 01:06:32.557741 20495 layer_factory.hpp:77] Creating layer conv5
I0425 01:06:32.557756 20495 net.cpp:91] Creating Layer conv5
I0425 01:06:32.557762 20495 net.cpp:425] conv5 <- relu4
I0425 01:06:32.557772 20495 net.cpp:399] conv5 -> conv5
I0425 01:06:32.650195 20495 net.cpp:141] Setting up conv5
I0425 01:06:32.650221 20495 net.cpp:148] Top shape: 256 724 7 7 (9081856)
I0425 01:06:32.650226 20495 net.cpp:156] Memory required for data: 1238590464
I0425 01:06:32.650241 20495 layer_factory.hpp:77] Creating layer relu5
I0425 01:06:32.650255 20495 net.cpp:91] Creating Layer relu5
I0425 01:06:32.650262 20495 net.cpp:425] relu5 <- conv5
I0425 01:06:32.650271 20495 net.cpp:399] relu5 -> relu5
I0425 01:06:32.650456 20495 net.cpp:141] Setting up relu5
I0425 01:06:32.650465 20495 net.cpp:148] Top shape: 256 724 7 7 (9081856)
I0425 01:06:32.650468 20495 net.cpp:156] Memory required for data: 1274917888
I0425 01:06:32.650472 20495 layer_factory.hpp:77] Creating layer pool5
I0425 01:06:32.650478 20495 net.cpp:91] Creating Layer pool5
I0425 01:06:32.650481 20495 net.cpp:425] pool5 <- relu5
I0425 01:06:32.650490 20495 net.cpp:399] pool5 -> pool5
I0425 01:06:32.650535 20495 net.cpp:141] Setting up pool5
I0425 01:06:32.650542 20495 net.cpp:148] Top shape: 256 724 3 3 (1668096)
I0425 01:06:32.650544 20495 net.cpp:156] Memory required for data: 1281590272
I0425 01:06:32.650547 20495 layer_factory.hpp:77] Creating layer fc6
I0425 01:06:32.650562 20495 net.cpp:91] Creating Layer fc6
I0425 01:06:32.650565 20495 net.cpp:425] fc6 <- pool5
I0425 01:06:32.650573 20495 net.cpp:399] fc6 -> fc6
I0425 01:06:33.612184 20495 net.cpp:141] Setting up fc6
I0425 01:06:33.612210 20495 net.cpp:148] Top shape: 256 5792 (1482752)
I0425 01:06:33.612215 20495 net.cpp:156] Memory required for data: 1287521280
I0425 01:06:33.612226 20495 layer_factory.hpp:77] Creating layer relu6
I0425 01:06:33.612239 20495 net.cpp:91] Creating Layer relu6
I0425 01:06:33.612246 20495 net.cpp:425] relu6 <- fc6
I0425 01:06:33.612280 20495 net.cpp:399] relu6 -> relu6
I0425 01:06:33.612633 20495 net.cpp:141] Setting up relu6
I0425 01:06:33.612644 20495 net.cpp:148] Top shape: 256 5792 (1482752)
I0425 01:06:33.612648 20495 net.cpp:156] Memory required for data: 1293452288
I0425 01:06:33.612651 20495 layer_factory.hpp:77] Creating layer drop6
I0425 01:06:33.612668 20495 net.cpp:91] Creating Layer drop6
I0425 01:06:33.612673 20495 net.cpp:425] drop6 <- relu6
I0425 01:06:33.612678 20495 net.cpp:399] drop6 -> drop6
I0425 01:06:33.612720 20495 net.cpp:141] Setting up drop6
I0425 01:06:33.612725 20495 net.cpp:148] Top shape: 256 5792 (1482752)
I0425 01:06:33.612727 20495 net.cpp:156] Memory required for data: 1299383296
I0425 01:06:33.612731 20495 layer_factory.hpp:77] Creating layer fc7
I0425 01:06:33.612738 20495 net.cpp:91] Creating Layer fc7
I0425 01:06:33.612740 20495 net.cpp:425] fc7 <- drop6
I0425 01:06:33.612746 20495 net.cpp:399] fc7 -> fc7
I0425 01:06:34.465792 20495 net.cpp:141] Setting up fc7
I0425 01:06:34.465821 20495 net.cpp:148] Top shape: 256 5792 (1482752)
I0425 01:06:34.465824 20495 net.cpp:156] Memory required for data: 1305314304
I0425 01:06:34.465834 20495 layer_factory.hpp:77] Creating layer relu7
I0425 01:06:34.465847 20495 net.cpp:91] Creating Layer relu7
I0425 01:06:34.465853 20495 net.cpp:425] relu7 <- fc7
I0425 01:06:34.465860 20495 net.cpp:399] relu7 -> relu7
I0425 01:06:34.466104 20495 net.cpp:141] Setting up relu7
I0425 01:06:34.466114 20495 net.cpp:148] Top shape: 256 5792 (1482752)
I0425 01:06:34.466128 20495 net.cpp:156] Memory required for data: 1311245312
I0425 01:06:34.466132 20495 layer_factory.hpp:77] Creating layer drop7
I0425 01:06:34.466140 20495 net.cpp:91] Creating Layer drop7
I0425 01:06:34.466146 20495 net.cpp:425] drop7 <- relu7
I0425 01:06:34.466155 20495 net.cpp:399] drop7 -> drop7
I0425 01:06:34.466202 20495 net.cpp:141] Setting up drop7
I0425 01:06:34.466209 20495 net.cpp:148] Top shape: 256 5792 (1482752)
I0425 01:06:34.466213 20495 net.cpp:156] Memory required for data: 1317176320
I0425 01:06:34.466218 20495 layer_factory.hpp:77] Creating layer fc8
I0425 01:06:34.466231 20495 net.cpp:91] Creating Layer fc8
I0425 01:06:34.466236 20495 net.cpp:425] fc8 <- drop7
I0425 01:06:34.466243 20495 net.cpp:399] fc8 -> fc8
I0425 01:06:34.614253 20495 net.cpp:141] Setting up fc8
I0425 01:06:34.614336 20495 net.cpp:148] Top shape: 256 1000 (256000)
I0425 01:06:34.614365 20495 net.cpp:156] Memory required for data: 1318200320
I0425 01:06:34.614382 20495 layer_factory.hpp:77] Creating layer loss
I0425 01:06:34.614408 20495 net.cpp:91] Creating Layer loss
I0425 01:06:34.614415 20495 net.cpp:425] loss <- fc8
I0425 01:06:34.614423 20495 net.cpp:425] loss <- label
I0425 01:06:34.614444 20495 net.cpp:399] loss -> loss
I0425 01:06:34.614460 20495 layer_factory.hpp:77] Creating layer loss
…
I0425 01:06:34.615859 20495 net.cpp:313] The NetState phase (1) differed from the phase (0) specified by a rule in layer data
I0425 01:06:34.616019 20495 net.cpp:49] Initializing net from parameters: 
name: "CaffeNet"
state {
  phase: TEST
}
layer {
  name: "data"
  type: "Data"
  top: "data"
  top: "label"
  include {
    phase: TEST
  }
  transform_param {
    scale: 0.04
    mirror: false
    crop_size: 128
    mean_value: 104
    mean_value: 117
    mean_value: 123
    force_color: true
  }
  data_param {
    source: "/home/old-ufo/storage/datasets/imagenet/imgs128/lmdb/ilsvrc12_128_val_lmdb"
    batch_size: 50
    backend: LMDB
  }
}
layer {
  name: "conv1"
  type: "Convolution"
  bottom: "data"
  top: "conv1"
  param {
    lr_mult: 1
    decay_mult: 1
  }
  param {
    lr_mult: 2
    decay_mult: 0
  }
  convolution_param {
    num_output: 272
    kernel_size: 11
    stride: 4
    weight_filler {
      type: "gaussian"
      std: 0.01
    }
    bias_filler {
      type: "constant"
    }
  }
}
layer {
  name: "relu1"
  type: "ReLU"
  bottom: "conv1"
  top: "relu1"
}
layer {
  name: "pool1"
  type: "Pooling"
  bottom: "relu1"
  top: "pool1"
  pooling_param {
    pool: MAX
    kernel_size: 3
    stride: 2
  }
}
layer {
  name: "conv2"
  type: "Convolution"
  bottom: "pool1"
  top: "conv2"
  param {
    lr_mult: 1
    decay_mult: 1
  }
  param {
    lr_mult: 2
    decay_mult: 0
  }
  convolution_param {
    num_output: 724
    pad: 2
    kernel_size: 5
    group: 2
    weight_filler {
      type: "gaussian"
      std: 0.01
    }
    bias_filler {
      type: "constant"
    }
  }
}
layer {
  name: "relu2"
  type: "ReLU"
  bottom: "conv2"
  top: "relu2"
}
layer {
  name: "pool2"
  type: "Pooling"
  bottom: "relu2"
  top: "pool2"
  pooling_param {
    pool: MAX
    kernel_size: 3
    stride: 2
  }
}
layer {
  name: "conv3"
  type: "Convolution"
  bottom: "pool2"
  top: "conv3"
  param {
    lr_mult: 1
    decay_mult: 1
  }
  param {
    lr_mult: 2
    decay_mult: 0
  }
  convolution_param {
    num_output: 1086
    pad: 1
    kernel_size: 3
    weight_filler {
      type: "gaussian"
      std: 0.01
    }
    bias_filler {
      type: "constant"
    }
  }
}
layer {
  name: "relu3"
  type: "ReLU"
  bottom: "conv3"
  top: "relu3"
}
layer {
  name: "conv4"
  type: "Convolution"
  bottom: "relu3"
  top: "conv4"
  param {
    lr_mult: 1
    decay_mult: 1
  }
  param {
    lr_mult: 2
    decay_mult: 0
  }
  convolution_param {
    num_output: 1086
    pad: 1
    kernel_size: 3
    group: 2
    weight_filler {
      type: "gaussian"
      std: 0.01
    }
    bias_filler {
      type: "constant"
    }
  }
}
layer {
  name: "relu4"
  type: "ReLU"
  bottom: "conv4"
  top: "relu4"
}
layer {
  name: "conv5"
  type: "Convolution"
  bottom: "relu4"
  top: "conv5"
  param {
    lr_mult: 1
    decay_mult: 1
  }
  param {
    lr_mult: 2
    decay_mult: 0
  }
  convolution_param {
    num_output: 724
    pad: 1
    kernel_size: 3
    group: 2
    weight_filler {
      type: "gaussian"
      std: 0.01
    }
    bias_filler {
      type: "constant"
    }
  }
}
layer {
  name: "relu5"
  type: "ReLU"
  bottom: "conv5"
  top: "relu5"
}
layer {
  name: "pool5"
  type: "Pooling"
  bottom: "relu5"
  top: "pool5"
  pooling_param {
    pool: MAX
    kernel_size: 3
    stride: 2
  }
}
layer {
  name: "fc6"
  type: "InnerProduct"
  bottom: "pool5"
  top: "fc6"
  param {
    lr_mult: 1
    decay_mult: 1
  }
  param {
    lr_mult: 2
    decay_mult: 0
  }
  inner_product_param {
    num_output: 5792
    weight_filler {
      type: "gaussian"
      std: 0.005
    }
    bias_filler {
      type: "constant"
    }
  }
}
layer {
  name: "relu6"
  type: "ReLU"
  bottom: "fc6"
  top: "relu6"
}
layer {
  name: "drop6"
  type: "Dropout"
  bottom: "relu6"
  top: "drop6"
  dropout_param {
    dropout_ratio: 0.5
  }
}
layer {
  name: "fc7"
  type: "InnerProduct"
  bottom: "drop6"
  top: "fc7"
  param {
    lr_mult: 1
    decay_mult: 1
  }
  param {
    lr_mult: 2
    decay_mult: 0
  }
  inner_product_param {
    num_output: 5792
    weight_filler {
      type: "gaussian"
      std: 0.005
    }
    bias_filler {
      type: "constant"
    }
  }
}
layer {
  name: "relu7"
  type: "ReLU"
  bottom: "fc7"
  top: "relu7"
}
layer {
  name: "drop7"
  type: "Dropout"
  bottom: "relu7"
  top: "drop7"
  dropout_param {
    dropout_ratio: 0.5
  }
}
layer {
  name: "fc8"
  type: "InnerProduct"
  bottom: "drop7"
  top: "fc8"
  param {
    lr_mult: 1
    decay_mult: 1
  }
  param {
    lr_mult: 2
    decay_mult: 0
  }
  inner_product_param {
    num_output: 1000
    weight_filler {
      type: "gaussian"
      std: 0.01
    }
    bias_filler {
      type: "constant"
    }
  }
}
layer {
  name: "accuracy"
  type: "Accuracy"
  bottom: "fc8"
  bottom: "label"
  top: "accuracy"
  include {
    phase: TEST
  }
}
layer {
  name: "loss"
  type: "SoftmaxWithLoss"
  bottom: "fc8"
  bottom: "label"
  top: "loss"
}
I0425 01:06:34.616171 20495 layer_factory.hpp:77] Creating layer data
I0425 01:06:34.616250 20495 net.cpp:91] Creating Layer data
I0425 01:06:34.616258 20495 net.cpp:399] data -> data
I0425 01:06:34.616271 20495 net.cpp:399] data -> label
I0425 01:06:34.616922 20503 db_lmdb.cpp:38] Opened lmdb /home/old-ufo/storage/datasets/imagenet/imgs128/lmdb/ilsvrc12_128_val_lmdb
I0425 01:06:34.617533 20495 data_layer.cpp:41] output data size: 50,3,128,128
I0425 01:06:34.630138 20495 net.cpp:141] Setting up data
I0425 01:06:34.630168 20495 net.cpp:148] Top shape: 50 3 128 128 (2457600)
I0425 01:06:34.630179 20495 net.cpp:148] Top shape: 50 (50)
I0425 01:06:34.630184 20495 net.cpp:156] Memory required for data: 9830600
I0425 01:06:34.630213 20495 layer_factory.hpp:77] Creating layer label_data_1_split
I0425 01:06:34.630228 20495 net.cpp:91] Creating Layer label_data_1_split
I0425 01:06:34.630236 20495 net.cpp:425] label_data_1_split <- label
I0425 01:06:34.630245 20495 net.cpp:399] label_data_1_split -> label_data_1_split_0
I0425 01:06:34.630259 20495 net.cpp:399] label_data_1_split -> label_data_1_split_1
I0425 01:06:34.630345 20495 net.cpp:141] Setting up label_data_1_split
I0425 01:06:34.630355 20495 net.cpp:148] Top shape: 50 (50)
I0425 01:06:34.630362 20495 net.cpp:148] Top shape: 50 (50)
I0425 01:06:34.630367 20495 net.cpp:156] Memory required for data: 9831000
I0425 01:06:34.630373 20495 layer_factory.hpp:77] Creating layer conv1
I0425 01:06:34.630388 20495 net.cpp:91] Creating Layer conv1
I0425 01:06:34.630393 20495 net.cpp:425] conv1 <- data
I0425 01:06:34.630401 20495 net.cpp:399] conv1 -> conv1
I0425 01:06:34.634075 20495 net.cpp:141] Setting up conv1
I0425 01:06:34.634098 20495 net.cpp:148] Top shape: 50 272 30 30 (12240000)
I0425 01:06:34.634102 20495 net.cpp:156] Memory required for data: 58791000
I0425 01:06:34.634119 20495 layer_factory.hpp:77] Creating layer relu1
I0425 01:06:34.634145 20495 net.cpp:91] Creating Layer relu1
I0425 01:06:34.634152 20495 net.cpp:425] relu1 <- conv1
I0425 01:06:34.634160 20495 net.cpp:399] relu1 -> relu1
I0425 01:06:34.634341 20495 net.cpp:141] Setting up relu1
I0425 01:06:34.634352 20495 net.cpp:148] Top shape: 50 272 30 30 (12240000)
I0425 01:06:34.634356 20495 net.cpp:156] Memory required for data: 107751000
I0425 01:06:34.634361 20495 layer_factory.hpp:77] Creating layer pool1
I0425 01:06:34.634383 20495 net.cpp:91] Creating Layer pool1
I0425 01:06:34.634388 20495 net.cpp:425] pool1 <- relu1
I0425 01:06:34.634397 20495 net.cpp:399] pool1 -> pool1
I0425 01:06:34.634449 20495 net.cpp:141] Setting up pool1
I0425 01:06:34.634457 20495 net.cpp:148] Top shape: 50 272 15 15 (3060000)
I0425 01:06:34.634461 20495 net.cpp:156] Memory required for data: 119991000
I0425 01:06:34.634465 20495 layer_factory.hpp:77] Creating layer conv2
I0425 01:06:34.634479 20495 net.cpp:91] Creating Layer conv2
I0425 01:06:34.634485 20495 net.cpp:425] conv2 <- pool1
I0425 01:06:34.634492 20495 net.cpp:399] conv2 -> conv2
I0425 01:06:34.699884 20495 net.cpp:141] Setting up conv2
I0425 01:06:34.699911 20495 net.cpp:148] Top shape: 50 724 15 15 (8145000)
I0425 01:06:34.699918 20495 net.cpp:156] Memory required for data: 152571000
I0425 01:06:34.699935 20495 layer_factory.hpp:77] Creating layer relu2
I0425 01:06:34.699951 20495 net.cpp:91] Creating Layer relu2
I0425 01:06:34.699959 20495 net.cpp:425] relu2 <- conv2
I0425 01:06:34.699971 20495 net.cpp:399] relu2 -> relu2
I0425 01:06:34.700268 20495 net.cpp:141] Setting up relu2
I0425 01:06:34.700283 20495 net.cpp:148] Top shape: 50 724 15 15 (8145000)
I0425 01:06:34.700287 20495 net.cpp:156] Memory required for data: 185151000
I0425 01:06:34.700292 20495 layer_factory.hpp:77] Creating layer pool2
I0425 01:06:34.700301 20495 net.cpp:91] Creating Layer pool2
I0425 01:06:34.700306 20495 net.cpp:425] pool2 <- relu2
I0425 01:06:34.700315 20495 net.cpp:399] pool2 -> pool2
I0425 01:06:34.700371 20495 net.cpp:141] Setting up pool2
I0425 01:06:34.700379 20495 net.cpp:148] Top shape: 50 724 7 7 (1773800)
I0425 01:06:34.700383 20495 net.cpp:156] Memory required for data: 192246200
I0425 01:06:34.700387 20495 layer_factory.hpp:77] Creating layer conv3
I0425 01:06:34.700405 20495 net.cpp:91] Creating Layer conv3
I0425 01:06:34.700412 20495 net.cpp:425] conv3 <- pool2
I0425 01:06:34.700419 20495 net.cpp:399] conv3 -> conv3
I0425 01:06:34.882526 20495 net.cpp:141] Setting up conv3
I0425 01:06:34.882557 20495 net.cpp:148] Top shape: 50 1086 7 7 (2660700)
I0425 01:06:34.882565 20495 net.cpp:156] Memory required for data: 202889000
I0425 01:06:34.882582 20495 layer_factory.hpp:77] Creating layer relu3
I0425 01:06:34.882598 20495 net.cpp:91] Creating Layer relu3
I0425 01:06:34.882606 20495 net.cpp:425] relu3 <- conv3
I0425 01:06:34.882616 20495 net.cpp:399] relu3 -> relu3
I0425 01:06:34.882927 20495 net.cpp:141] Setting up relu3
I0425 01:06:34.882941 20495 net.cpp:148] Top shape: 50 1086 7 7 (2660700)
I0425 01:06:34.882946 20495 net.cpp:156] Memory required for data: 213531800
I0425 01:06:34.882953 20495 layer_factory.hpp:77] Creating layer conv4
I0425 01:06:34.882966 20495 net.cpp:91] Creating Layer conv4
I0425 01:06:34.882971 20495 net.cpp:425] conv4 <- relu3
I0425 01:06:34.882977 20495 net.cpp:399] conv4 -> conv4
I0425 01:06:35.020246 20495 net.cpp:141] Setting up conv4
I0425 01:06:35.020269 20495 net.cpp:148] Top shape: 50 1086 7 7 (2660700)
I0425 01:06:35.020274 20495 net.cpp:156] Memory required for data: 224174600
I0425 01:06:35.020284 20495 layer_factory.hpp:77] Creating layer relu4
I0425 01:06:35.020294 20495 net.cpp:91] Creating Layer relu4
I0425 01:06:35.020299 20495 net.cpp:425] relu4 <- conv4
I0425 01:06:35.020306 20495 net.cpp:399] relu4 -> relu4
I0425 01:06:35.020695 20495 net.cpp:141] Setting up relu4
I0425 01:06:35.020709 20495 net.cpp:148] Top shape: 50 1086 7 7 (2660700)
I0425 01:06:35.020711 20495 net.cpp:156] Memory required for data: 234817400
I0425 01:06:35.020714 20495 layer_factory.hpp:77] Creating layer conv5
I0425 01:06:35.020725 20495 net.cpp:91] Creating Layer conv5
I0425 01:06:35.020731 20495 net.cpp:425] conv5 <- relu4
I0425 01:06:35.020740 20495 net.cpp:399] conv5 -> conv5
I0425 01:06:35.112952 20495 net.cpp:141] Setting up conv5
I0425 01:06:35.112982 20495 net.cpp:148] Top shape: 50 724 7 7 (1773800)
I0425 01:06:35.112988 20495 net.cpp:156] Memory required for data: 241912600
I0425 01:06:35.113009 20495 layer_factory.hpp:77] Creating layer relu5
I0425 01:06:35.113024 20495 net.cpp:91] Creating Layer relu5
I0425 01:06:35.113031 20495 net.cpp:425] relu5 <- conv5
I0425 01:06:35.113042 20495 net.cpp:399] relu5 -> relu5
I0425 01:06:35.113222 20495 net.cpp:141] Setting up relu5
I0425 01:06:35.113234 20495 net.cpp:148] Top shape: 50 724 7 7 (1773800)
I0425 01:06:35.113239 20495 net.cpp:156] Memory required for data: 249007800
I0425 01:06:35.113243 20495 layer_factory.hpp:77] Creating layer pool5
I0425 01:06:35.113270 20495 net.cpp:91] Creating Layer pool5
I0425 01:06:35.113276 20495 net.cpp:425] pool5 <- relu5
I0425 01:06:35.113283 20495 net.cpp:399] pool5 -> pool5
I0425 01:06:35.113334 20495 net.cpp:141] Setting up pool5
I0425 01:06:35.113342 20495 net.cpp:148] Top shape: 50 724 3 3 (325800)
I0425 01:06:35.113343 20495 net.cpp:156] Memory required for data: 250311000
I0425 01:06:35.113346 20495 layer_factory.hpp:77] Creating layer fc6
I0425 01:06:35.113354 20495 net.cpp:91] Creating Layer fc6
I0425 01:06:35.113358 20495 net.cpp:425] fc6 <- pool5
I0425 01:06:35.113365 20495 net.cpp:399] fc6 -> fc6
I0425 01:06:36.074708 20495 net.cpp:141] Setting up fc6
I0425 01:06:36.074739 20495 net.cpp:148] Top shape: 50 5792 (289600)
I0425 01:06:36.074745 20495 net.cpp:156] Memory required for data: 251469400
I0425 01:06:36.074759 20495 layer_factory.hpp:77] Creating layer relu6
I0425 01:06:36.074779 20495 net.cpp:91] Creating Layer relu6
I0425 01:06:36.074786 20495 net.cpp:425] relu6 <- fc6
I0425 01:06:36.074798 20495 net.cpp:399] relu6 -> relu6
I0425 01:06:36.075220 20495 net.cpp:141] Setting up relu6
I0425 01:06:36.075243 20495 net.cpp:148] Top shape: 50 5792 (289600)
I0425 01:06:36.075247 20495 net.cpp:156] Memory required for data: 252627800
I0425 01:06:36.075250 20495 layer_factory.hpp:77] Creating layer drop6
I0425 01:06:36.075258 20495 net.cpp:91] Creating Layer drop6
I0425 01:06:36.075263 20495 net.cpp:425] drop6 <- relu6
I0425 01:06:36.075268 20495 net.cpp:399] drop6 -> drop6
I0425 01:06:36.075341 20495 net.cpp:141] Setting up drop6
I0425 01:06:36.075350 20495 net.cpp:148] Top shape: 50 5792 (289600)
I0425 01:06:36.075351 20495 net.cpp:156] Memory required for data: 253786200
I0425 01:06:36.075355 20495 layer_factory.hpp:77] Creating layer fc7
I0425 01:06:36.075361 20495 net.cpp:91] Creating Layer fc7
I0425 01:06:36.075364 20495 net.cpp:425] fc7 <- drop6
I0425 01:06:36.075369 20495 net.cpp:399] fc7 -> fc7
I0425 01:06:36.923930 20495 net.cpp:141] Setting up fc7
I0425 01:06:36.923957 20495 net.cpp:148] Top shape: 50 5792 (289600)
I0425 01:06:36.923960 20495 net.cpp:156] Memory required for data: 254944600
I0425 01:06:36.923969 20495 layer_factory.hpp:77] Creating layer relu7
I0425 01:06:36.923979 20495 net.cpp:91] Creating Layer relu7
I0425 01:06:36.923982 20495 net.cpp:425] relu7 <- fc7
I0425 01:06:36.923988 20495 net.cpp:399] relu7 -> relu7
I0425 01:06:36.924216 20495 net.cpp:141] Setting up relu7
I0425 01:06:36.924224 20495 net.cpp:148] Top shape: 50 5792 (289600)
I0425 01:06:36.924226 20495 net.cpp:156] Memory required for data: 256103000
I0425 01:06:36.924229 20495 layer_factory.hpp:77] Creating layer drop7
I0425 01:06:36.924235 20495 net.cpp:91] Creating Layer drop7
I0425 01:06:36.924238 20495 net.cpp:425] drop7 <- relu7
I0425 01:06:36.924243 20495 net.cpp:399] drop7 -> drop7
I0425 01:06:36.924285 20495 net.cpp:141] Setting up drop7
I0425 01:06:36.924293 20495 net.cpp:148] Top shape: 50 5792 (289600)
I0425 01:06:36.924294 20495 net.cpp:156] Memory required for data: 257261400
I0425 01:06:36.924298 20495 layer_factory.hpp:77] Creating layer fc8
I0425 01:06:36.924305 20495 net.cpp:91] Creating Layer fc8
I0425 01:06:36.924309 20495 net.cpp:425] fc8 <- drop7
I0425 01:06:36.924314 20495 net.cpp:399] fc8 -> fc8
I0425 01:06:37.071599 20495 net.cpp:141] Setting up fc8
I0425 01:06:37.071629 20495 net.cpp:148] Top shape: 50 1000 (50000)
I0425 01:06:37.071635 20495 net.cpp:156] Memory required for data: 257461400
I0425 01:06:37.071648 20495 layer_factory.hpp:77] Creating layer fc8_fc8_0_split
I0425 01:06:37.071666 20495 net.cpp:91] Creating Layer fc8_fc8_0_split
I0425 01:06:37.071673 20495 net.cpp:425] fc8_fc8_0_split <- fc8
I0425 01:06:37.071683 20495 net.cpp:399] fc8_fc8_0_split -> fc8_fc8_0_split_0
I0425 01:06:37.071698 20495 net.cpp:399] fc8_fc8_0_split -> fc8_fc8_0_split_1
I0425 01:06:37.071771 20495 net.cpp:141] Setting up fc8_fc8_0_split
I0425 01:06:37.071779 20495 net.cpp:148] Top shape: 50 1000 (50000)
I0425 01:06:37.071784 20495 net.cpp:148] Top shape: 50 1000 (50000)
I0425 01:06:37.071785 20495 net.cpp:156] Memory required for data: 257861400
I0425 01:06:37.071787 20495 layer_factory.hpp:77] Creating layer accuracy
I0425 01:06:37.071800 20495 net.cpp:91] Creating Layer accuracy
I0425 01:06:37.071805 20495 net.cpp:425] accuracy <- fc8_fc8_0_split_0
I0425 01:06:37.071811 20495 net.cpp:425] accuracy <- label_data_1_split_0
I0425 01:06:37.071818 20495 net.cpp:399] accuracy -> accuracy
…
