…
      source: "/home/old-ufo/storage/datasets/imagenet/imgs128/lmdb/ilsvrc12_128_train_lmdb"
      batch_size: 128
      backend: LMDB
    }
  }
  layer {
    name: "data"
    type: "Data"
    top: "data"
    top: "label"
    include {
      phase: TEST
    }
    transform_param {
      scale: 0.04
      mirror: true
      crop_size: 128
      mean_value: 104
      mean_value: 117
      mean_value: 124
      force_color: true
    }
    data_param {
      source: "/home/old-ufo/storage/datasets/imagenet/imgs128/lmdb/ilsvrc12_128_val_lmdb"
      batch_size: 50
      backend: LMDB
    }
  }
  layer {
    name: "conv1"
    type: "Convolution"
    bottom: "data"
    top: "conv1"
    param {
      lr_mult: 1
      decay_mult: 1
    }
    param {
      lr_mult: 2
      decay_mult: 0
    }
    convolution_param {
      num_output: 544
      kernel_size: 11
      stride: 4
      weight_filler {
        type: "gaussian"
        std: 0.01
      }
      bias_filler {
        type: "constant"
      }
    }
  }
  layer {
    name: "relu1"
    type: "ReLU"
    bottom: "conv1"
    top: "relu1"
  }
  layer {
    name: "pool1"
    type: "Pooling"
    bottom: "relu1"
    top: "pool1"
    pooling_param {
      pool: MAX
      kernel_size: 3
      stride: 2
    }
  }
  layer {
    name: "conv2"
    type: "Convolution"
    bottom: "pool1"
    top: "conv2"
    param {
      lr_mult: 1
      decay_mult: 1
    }
    param {
      lr_mult: 2
      decay_mult: 0
    }
    convolution_param {
      num_output: 1448
      pad: 2
      kernel_size: 5
      group: 2
      weight_filler {
        type: "gaussian"
        std: 0.01
      }
      bias_filler {
        type: "constant"
      }
    }
  }
  layer {
    name: "relu2"
    type: "ReLU"
    bottom: "conv2"
    top: "conv2"
  }
  layer {
    name: "pool2"
    type: "Pooling"
    bottom: "conv2"
    top: "pool2"
    pooling_param {
      pool: MAX
      kernel_size: 3
      stride: 2
    }
  }
  layer {
    name: "conv3"
    type: "Convolution"
    bottom: "pool2"
    top: "conv3"
    param {
      lr_mult: 1
      decay_mult: 1
    }
    param {
      lr_mult: 2
      decay_mult: 0
    }
    convolution_param {
      num_output: 2176
      pad: 1
      kernel_size: 3
      weight_filler {
        type: "gaussian"
        std: 0.01
      }
      bias_filler {
        type: "constant"
      }
    }
  }
  layer {
    name: "relu3"
    type: "ReLU"
    bottom: "conv3"
    top: "conv3"
  }
  layer {
    name: "conv4"
    type: "Convolution"
    bottom: "conv3"
    top: "conv4"
    param {
      lr_mult: 1
      decay_mult: 1
    }
    param {
      lr_mult: 2
      decay_mult: 0
    }
    convolution_param {
      num_output: 2176
      pad: 1
      kernel_size: 3
      group: 2
      weight_filler {
        type: "gaussian"
        std: 0.01
      }
      bias_filler {
        type: "constant"
      }
    }
  }
  layer {
    name: "relu4"
    type: "ReLU"
    bottom: "conv4"
    top: "conv4"
  }
  layer {
    name: "conv5"
    type: "Convolution"
    bottom: "conv4"
    top: "conv5"
    param {
      lr_mult: 1
      decay_mult: 1
    }
    param {
      lr_mult: 2
      decay_mult: 0
    }
    convolution_param {
      num_output: 1448
      pad: 1
      kernel_size: 3
      group: 2
      weight_filler {
        type: "gaussian"
        std: 0.01
      }
      bias_filler {
        type: "constant"
      }
    }
  }
  layer {
    name: "relu5"
    type: "ReLU"
    bottom: "conv5"
    top: "conv5"
  }
  layer {
    name: "pool5"
    type: "Pooling"
    bottom: "conv5"
    top: "pool5"
    pooling_param {
      pool: MAX
      kernel_size: 3
      stride: 2
    }
  }
  layer {
    name: "fc6"
    type: "InnerProduct"
    bottom: "pool5"
    top: "fc6"
    param {
      lr_mult: 1
      decay_mult: 1
    }
    param {
      lr_mult: 2
      decay_mult: 0
    }
    inner_product_param {
      num_output: 11584
      weight_filler {
        type: "gaussian"
        std: 0.005
      }
      bias_filler {
        type: "constant"
      }
    }
  }
  layer {
    name: "relu6"
    type: "ReLU"
    bottom: "fc6"
    top: "fc6"
  }
  layer {
    name: "drop6"
    type: "Dropout"
    bottom: "fc6"
    top: "fc6"
    dropout_param {
      dropout_ratio: 0.5
    }
  }
  layer {
    name: "fc7"
    type: "InnerProduct"
    bottom: "fc6"
    top: "fc7"
    param {
      lr_mult: 1
      decay_mult: 1
    }
    param {
      lr_mult: 2
      decay_mult: 0
    }
    inner_product_param {
      num_output: 11584
      weight_filler {
        type: "gaussian"
        std: 0.005
      }
      bias_filler {
        type: "constant"
      }
    }
  }
  layer {
    name: "relu7"
    type: "ReLU"
    bottom: "fc7"
    top: "fc7"
  }
  layer {
    name: "drop7"
    type: "Dropout"
    bottom: "fc7"
    top: "fc7"
    dropout_param {
      dropout_ratio: 0.5
    }
  }
  layer {
    name: "fc8"
    type: "InnerProduct"
    bottom: "fc7"
    top: "fc8"
    param {
      lr_mult: 1
      decay_mult: 1
    }
    param {
      lr_mult: 2
      decay_mult: 0
    }
    inner_product_param {
      num_output: 1000
      weight_filler {
        type: "gaussian"
        std: 0.01
      }
      bias_filler {
        type: "constant"
      }
    }
  }
  layer {
    name: "accuracy"
    type: "Accuracy"
    bottom: "fc8"
    bottom: "label"
    top: "accuracy"
    include {
      phase: TEST
    }
  }
  layer {
    name: "loss"
    type: "SoftmaxWithLoss"
    bottom: "fc8"
    bottom: "label"
    top: "loss"
  }
}
average_loss: 20
iter_size: 2
type: "SGD"
I0509 19:09:29.346035  2162 solver.cpp:86] Creating training net specified in net_param.
I0509 19:09:29.346101  2162 net.cpp:313] The NetState phase (0) differed from the phase (1) specified by a rule in layer data
I0509 19:09:29.346117  2162 net.cpp:313] The NetState phase (0) differed from the phase (1) specified by a rule in layer accuracy
I0509 19:09:29.346231  2162 net.cpp:49] Initializing net from parameters: 
name: "CaffeNet"
state {
  phase: TRAIN
}
layer {
  name: "data"
  type: "Data"
  top: "data"
  top: "label"
  include {
    phase: TRAIN
  }
  transform_param {
    scale: 0.04
    mirror: true
    crop_size: 128
    mean_value: 104
    mean_value: 117
    mean_value: 124
    force_color: true
  }
  data_param {
    source: "/home/old-ufo/storage/datasets/imagenet/imgs128/lmdb/ilsvrc12_128_train_lmdb"
    batch_size: 128
    backend: LMDB
  }
}
layer {
  name: "conv1"
  type: "Convolution"
  bottom: "data"
  top: "conv1"
  param {
    lr_mult: 1
    decay_mult: 1
  }
  param {
    lr_mult: 2
    decay_mult: 0
  }
  convolution_param {
    num_output: 544
    kernel_size: 11
    stride: 4
    weight_filler {
      type: "gaussian"
      std: 0.01
    }
    bias_filler {
      type: "constant"
    }
  }
}
layer {
  name: "relu1"
  type: "ReLU"
  bottom: "conv1"
  top: "relu1"
}
layer {
  name: "pool1"
  type: "Pooling"
  bottom: "relu1"
  top: "pool1"
  pooling_param {
    pool: MAX
    kernel_size: 3
    stride: 2
  }
}
layer {
  name: "conv2"
  type: "Convolution"
  bottom: "pool1"
  top: "conv2"
  param {
    lr_mult: 1
    decay_mult: 1
  }
  param {
    lr_mult: 2
    decay_mult: 0
  }
  convolution_param {
    num_output: 1448
    pad: 2
    kernel_size: 5
    group: 2
    weight_filler {
      type: "gaussian"
      std: 0.01
    }
    bias_filler {
      type: "constant"
    }
  }
}
layer {
  name: "relu2"
  type: "ReLU"
  bottom: "conv2"
  top: "conv2"
}
layer {
  name: "pool2"
  type: "Pooling"
  bottom: "conv2"
  top: "pool2"
  pooling_param {
    pool: MAX
    kernel_size: 3
    stride: 2
  }
}
layer {
  name: "conv3"
  type: "Convolution"
  bottom: "pool2"
  top: "conv3"
  param {
    lr_mult: 1
    decay_mult: 1
  }
  param {
    lr_mult: 2
    decay_mult: 0
  }
  convolution_param {
    num_output: 2176
    pad: 1
    kernel_size: 3
    weight_filler {
      type: "gaussian"
      std: 0.01
    }
    bias_filler {
      type: "constant"
    }
  }
}
layer {
  name: "relu3"
  type: "ReLU"
  bottom: "conv3"
  top: "conv3"
}
layer {
  name: "conv4"
  type: "Convolution"
  bottom: "conv3"
  top: "conv4"
  param {
    lr_mult: 1
    decay_mult: 1
  }
  param {
    lr_mult: 2
    decay_mult: 0
  }
  convolution_param {
    num_output: 2176
    pad: 1
    kernel_size: 3
    group: 2
    weight_filler {
      type: "gaussian"
      std: 0.01
    }
    bias_filler {
      type: "constant"
    }
  }
}
layer {
  name: "relu4"
  type: "ReLU"
  bottom: "conv4"
  top: "conv4"
}
layer {
  name: "conv5"
  type: "Convolution"
  bottom: "conv4"
  top: "conv5"
  param {
    lr_mult: 1
    decay_mult: 1
  }
  param {
    lr_mult: 2
    decay_mult: 0
  }
  convolution_param {
    num_output: 1448
    pad: 1
    kernel_size: 3
    group: 2
    weight_filler {
      type: "gaussian"
      std: 0.01
    }
    bias_filler {
      type: "constant"
    }
  }
}
layer {
  name: "relu5"
  type: "ReLU"
  bottom: "conv5"
  top: "conv5"
}
layer {
  name: "pool5"
  type: "Pooling"
  bottom: "conv5"
  top: "pool5"
  pooling_param {
    pool: MAX
    kernel_size: 3
    stride: 2
  }
}
layer {
  name: "fc6"
  type: "InnerProduct"
  bottom: "pool5"
  top: "fc6"
  param {
    lr_mult: 1
    decay_mult: 1
  }
  param {
    lr_mult: 2
    decay_mult: 0
  }
  inner_product_param {
    num_output: 11584
    weight_filler {
      type: "gaussian"
      std: 0.005
    }
    bias_filler {
      type: "constant"
    }
  }
}
layer {
  name: "relu6"
  type: "ReLU"
  bottom: "fc6"
  top: "fc6"
}
layer {
  name: "drop6"
  type: "Dropout"
  bottom: "fc6"
  top: "fc6"
  dropout_param {
    dropout_ratio: 0.5
  }
}
layer {
  name: "fc7"
  type: "InnerProduct"
  bottom: "fc6"
  top: "fc7"
  param {
    lr_mult: 1
    decay_mult: 1
  }
  param {
    lr_mult: 2
    decay_mult: 0
  }
  inner_product_param {
    num_output: 11584
    weight_filler {
      type: "gaussian"
      std: 0.005
    }
    bias_filler {
      type: "constant"
    }
  }
}
layer {
  name: "relu7"
  type: "ReLU"
  bottom: "fc7"
  top: "fc7"
}
layer {
  name: "drop7"
  type: "Dropout"
  bottom: "fc7"
  top: "fc7"
  dropout_param {
    dropout_ratio: 0.5
  }
}
layer {
  name: "fc8"
  type: "InnerProduct"
  bottom: "fc7"
  top: "fc8"
  param {
    lr_mult: 1
    decay_mult: 1
  }
  param {
    lr_mult: 2
    decay_mult: 0
  }
  inner_product_param {
    num_output: 1000
    weight_filler {
      type: "gaussian"
      std: 0.01
    }
    bias_filler {
      type: "constant"
    }
  }
}
layer {
  name: "loss"
  type: "SoftmaxWithLoss"
  bottom: "fc8"
  bottom: "label"
  top: "loss"
}
I0509 19:09:29.346321  2162 layer_factory.hpp:77] Creating layer data
I0509 19:09:29.346779  2162 net.cpp:91] Creating Layer data
I0509 19:09:29.346791  2162 net.cpp:399] data -> data
I0509 19:09:29.346809  2162 net.cpp:399] data -> label
I0509 19:09:29.347436  2167 db_lmdb.cpp:38] Opened lmdb /home/old-ufo/storage/datasets/imagenet/imgs128/lmdb/ilsvrc12_128_train_lmdb
I0509 19:09:29.354432  2162 data_layer.cpp:41] output data size: 128,3,128,128
I0509 19:09:29.383322  2162 net.cpp:141] Setting up data
I0509 19:09:29.383348  2162 net.cpp:148] Top shape: 128 3 128 128 (6291456)
I0509 19:09:29.383352  2162 net.cpp:148] Top shape: 128 (128)
I0509 19:09:29.383355  2162 net.cpp:156] Memory required for data: 25166336
I0509 19:09:29.383364  2162 layer_factory.hpp:77] Creating layer conv1
I0509 19:09:29.383388  2162 net.cpp:91] Creating Layer conv1
I0509 19:09:29.383394  2162 net.cpp:425] conv1 <- data
I0509 19:09:29.383404  2162 net.cpp:399] conv1 -> conv1
I0509 19:09:29.521262  2162 net.cpp:141] Setting up conv1
I0509 19:09:29.521308  2162 net.cpp:148] Top shape: 128 544 30 30 (62668800)
I0509 19:09:29.521312  2162 net.cpp:156] Memory required for data: 275841536
I0509 19:09:29.521329  2162 layer_factory.hpp:77] Creating layer relu1
I0509 19:09:29.521342  2162 net.cpp:91] Creating Layer relu1
I0509 19:09:29.521347  2162 net.cpp:425] relu1 <- conv1
I0509 19:09:29.521353  2162 net.cpp:399] relu1 -> relu1
I0509 19:09:29.521606  2162 net.cpp:141] Setting up relu1
I0509 19:09:29.521617  2162 net.cpp:148] Top shape: 128 544 30 30 (62668800)
I0509 19:09:29.521620  2162 net.cpp:156] Memory required for data: 526516736
I0509 19:09:29.521623  2162 layer_factory.hpp:77] Creating layer pool1
I0509 19:09:29.521631  2162 net.cpp:91] Creating Layer pool1
I0509 19:09:29.521636  2162 net.cpp:425] pool1 <- relu1
I0509 19:09:29.521641  2162 net.cpp:399] pool1 -> pool1
I0509 19:09:29.521683  2162 net.cpp:141] Setting up pool1
I0509 19:09:29.521689  2162 net.cpp:148] Top shape: 128 544 15 15 (15667200)
I0509 19:09:29.521692  2162 net.cpp:156] Memory required for data: 589185536
I0509 19:09:29.521695  2162 layer_factory.hpp:77] Creating layer conv2
I0509 19:09:29.521708  2162 net.cpp:91] Creating Layer conv2
I0509 19:09:29.521710  2162 net.cpp:425] conv2 <- pool1
I0509 19:09:29.521715  2162 net.cpp:399] conv2 -> conv2
I0509 19:09:29.773567  2162 net.cpp:141] Setting up conv2
I0509 19:09:29.773592  2162 net.cpp:148] Top shape: 128 1448 15 15 (41702400)
I0509 19:09:29.773597  2162 net.cpp:156] Memory required for data: 755995136
I0509 19:09:29.773607  2162 layer_factory.hpp:77] Creating layer relu2
I0509 19:09:29.773617  2162 net.cpp:91] Creating Layer relu2
I0509 19:09:29.773622  2162 net.cpp:425] relu2 <- conv2
I0509 19:09:29.773630  2162 net.cpp:386] relu2 -> conv2 (in-place)
I0509 19:09:29.773841  2162 net.cpp:141] Setting up relu2
I0509 19:09:29.773851  2162 net.cpp:148] Top shape: 128 1448 15 15 (41702400)
I0509 19:09:29.773854  2162 net.cpp:156] Memory required for data: 922804736
I0509 19:09:29.773856  2162 layer_factory.hpp:77] Creating layer pool2
I0509 19:09:29.773862  2162 net.cpp:91] Creating Layer pool2
I0509 19:09:29.773865  2162 net.cpp:425] pool2 <- conv2
I0509 19:09:29.773869  2162 net.cpp:399] pool2 -> pool2
I0509 19:09:29.773902  2162 net.cpp:141] Setting up pool2
I0509 19:09:29.773907  2162 net.cpp:148] Top shape: 128 1448 7 7 (9081856)
I0509 19:09:29.773910  2162 net.cpp:156] Memory required for data: 959132160
I0509 19:09:29.773912  2162 layer_factory.hpp:77] Creating layer conv3
I0509 19:09:29.773921  2162 net.cpp:91] Creating Layer conv3
I0509 19:09:29.773924  2162 net.cpp:425] conv3 <- pool2
I0509 19:09:29.773933  2162 net.cpp:399] conv3 -> conv3
I0509 19:09:30.489195  2162 net.cpp:141] Setting up conv3
I0509 19:09:30.489223  2162 net.cpp:148] Top shape: 128 2176 7 7 (13647872)
I0509 19:09:30.489226  2162 net.cpp:156] Memory required for data: 1013723648
I0509 19:09:30.489238  2162 layer_factory.hpp:77] Creating layer relu3
I0509 19:09:30.489250  2162 net.cpp:91] Creating Layer relu3
I0509 19:09:30.489256  2162 net.cpp:425] relu3 <- conv3
I0509 19:09:30.489264  2162 net.cpp:386] relu3 -> conv3 (in-place)
I0509 19:09:30.489415  2162 net.cpp:141] Setting up relu3
I0509 19:09:30.489423  2162 net.cpp:148] Top shape: 128 2176 7 7 (13647872)
I0509 19:09:30.489426  2162 net.cpp:156] Memory required for data: 1068315136
I0509 19:09:30.489429  2162 layer_factory.hpp:77] Creating layer conv4
I0509 19:09:30.489439  2162 net.cpp:91] Creating Layer conv4
I0509 19:09:30.489441  2162 net.cpp:425] conv4 <- conv3
I0509 19:09:30.489446  2162 net.cpp:399] conv4 -> conv4
I0509 19:09:31.027962  2162 net.cpp:141] Setting up conv4
I0509 19:09:31.027988  2162 net.cpp:148] Top shape: 128 2176 7 7 (13647872)
I0509 19:09:31.027992  2162 net.cpp:156] Memory required for data: 1122906624
I0509 19:09:31.027999  2162 layer_factory.hpp:77] Creating layer relu4
I0509 19:09:31.028009  2162 net.cpp:91] Creating Layer relu4
I0509 19:09:31.028013  2162 net.cpp:425] relu4 <- conv4
I0509 19:09:31.028023  2162 net.cpp:386] relu4 -> conv4 (in-place)
I0509 19:09:31.028163  2162 net.cpp:141] Setting up relu4
I0509 19:09:31.028170  2162 net.cpp:148] Top shape: 128 2176 7 7 (13647872)
I0509 19:09:31.028173  2162 net.cpp:156] Memory required for data: 1177498112
I0509 19:09:31.028177  2162 layer_factory.hpp:77] Creating layer conv5
I0509 19:09:31.028185  2162 net.cpp:91] Creating Layer conv5
I0509 19:09:31.028188  2162 net.cpp:425] conv5 <- conv4
I0509 19:09:31.028195  2162 net.cpp:399] conv5 -> conv5
I0509 19:09:31.387213  2162 net.cpp:141] Setting up conv5
I0509 19:09:31.387241  2162 net.cpp:148] Top shape: 128 1448 7 7 (9081856)
I0509 19:09:31.387245  2162 net.cpp:156] Memory required for data: 1213825536
I0509 19:09:31.387258  2162 layer_factory.hpp:77] Creating layer relu5
I0509 19:09:31.387269  2162 net.cpp:91] Creating Layer relu5
I0509 19:09:31.387272  2162 net.cpp:425] relu5 <- conv5
I0509 19:09:31.387282  2162 net.cpp:386] relu5 -> conv5 (in-place)
I0509 19:09:31.387429  2162 net.cpp:141] Setting up relu5
I0509 19:09:31.387436  2162 net.cpp:148] Top shape: 128 1448 7 7 (9081856)
I0509 19:09:31.387439  2162 net.cpp:156] Memory required for data: 1250152960
I0509 19:09:31.387441  2162 layer_factory.hpp:77] Creating layer pool5
I0509 19:09:31.387447  2162 net.cpp:91] Creating Layer pool5
I0509 19:09:31.387449  2162 net.cpp:425] pool5 <- conv5
I0509 19:09:31.387455  2162 net.cpp:399] pool5 -> pool5
I0509 19:09:31.387492  2162 net.cpp:141] Setting up pool5
I0509 19:09:31.387497  2162 net.cpp:148] Top shape: 128 1448 3 3 (1668096)
I0509 19:09:31.387500  2162 net.cpp:156] Memory required for data: 1256825344
I0509 19:09:31.387502  2162 layer_factory.hpp:77] Creating layer fc6
I0509 19:09:31.387509  2162 net.cpp:91] Creating Layer fc6
I0509 19:09:31.387512  2162 net.cpp:425] fc6 <- pool5
I0509 19:09:31.387516  2162 net.cpp:399] fc6 -> fc6
I0509 19:09:35.206526  2162 net.cpp:141] Setting up fc6
I0509 19:09:35.206553  2162 net.cpp:148] Top shape: 128 11584 (1482752)
I0509 19:09:35.206557  2162 net.cpp:156] Memory required for data: 1262756352
I0509 19:09:35.206565  2162 layer_factory.hpp:77] Creating layer relu6
I0509 19:09:35.206576  2162 net.cpp:91] Creating Layer relu6
I0509 19:09:35.206580  2162 net.cpp:425] relu6 <- fc6
I0509 19:09:35.206590  2162 net.cpp:386] relu6 -> fc6 (in-place)
I0509 19:09:35.206866  2162 net.cpp:141] Setting up relu6
I0509 19:09:35.206876  2162 net.cpp:148] Top shape: 128 11584 (1482752)
I0509 19:09:35.206878  2162 net.cpp:156] Memory required for data: 1268687360
I0509 19:09:35.206881  2162 layer_factory.hpp:77] Creating layer drop6
I0509 19:09:35.206892  2162 net.cpp:91] Creating Layer drop6
I0509 19:09:35.206897  2162 net.cpp:425] drop6 <- fc6
I0509 19:09:35.206902  2162 net.cpp:386] drop6 -> fc6 (in-place)
I0509 19:09:35.206923  2162 net.cpp:141] Setting up drop6
I0509 19:09:35.206928  2162 net.cpp:148] Top shape: 128 11584 (1482752)
I0509 19:09:35.206930  2162 net.cpp:156] Memory required for data: 1274618368
I0509 19:09:35.206933  2162 layer_factory.hpp:77] Creating layer fc7
I0509 19:09:35.206943  2162 net.cpp:91] Creating Layer fc7
I0509 19:09:35.206949  2162 net.cpp:425] fc7 <- fc6
I0509 19:09:35.206959  2162 net.cpp:399] fc7 -> fc7
I0509 19:09:38.602083  2162 net.cpp:141] Setting up fc7
I0509 19:09:38.602111  2162 net.cpp:148] Top shape: 128 11584 (1482752)
I0509 19:09:38.602114  2162 net.cpp:156] Memory required for data: 1280549376
I0509 19:09:38.602123  2162 layer_factory.hpp:77] Creating layer relu7
I0509 19:09:38.602134  2162 net.cpp:91] Creating Layer relu7
I0509 19:09:38.602138  2162 net.cpp:425] relu7 <- fc7
I0509 19:09:38.602144  2162 net.cpp:386] relu7 -> fc7 (in-place)
I0509 19:09:38.602335  2162 net.cpp:141] Setting up relu7
I0509 19:09:38.602344  2162 net.cpp:148] Top shape: 128 11584 (1482752)
I0509 19:09:38.602345  2162 net.cpp:156] Memory required for data: 1286480384
I0509 19:09:38.602349  2162 layer_factory.hpp:77] Creating layer drop7
I0509 19:09:38.602354  2162 net.cpp:91] Creating Layer drop7
I0509 19:09:38.602356  2162 net.cpp:425] drop7 <- fc7
I0509 19:09:38.602361  2162 net.cpp:386] drop7 -> fc7 (in-place)
I0509 19:09:38.602391  2162 net.cpp:141] Setting up drop7
I0509 19:09:38.602396  2162 net.cpp:148] Top shape: 128 11584 (1482752)
I0509 19:09:38.602398  2162 net.cpp:156] Memory required for data: 1292411392
I0509 19:09:38.602401  2162 layer_factory.hpp:77] Creating layer fc8
I0509 19:09:38.602408  2162 net.cpp:91] Creating Layer fc8
I0509 19:09:38.602411  2162 net.cpp:425] fc8 <- fc7
I0509 19:09:38.602416  2162 net.cpp:399] fc8 -> fc8
I0509 19:09:38.894568  2162 net.cpp:141] Setting up fc8
I0509 19:09:38.894598  2162 net.cpp:148] Top shape: 128 1000 (128000)
I0509 19:09:38.894601  2162 net.cpp:156] Memory required for data: 1292923392
I0509 19:09:38.894610  2162 layer_factory.hpp:77] Creating layer loss
I0509 19:09:38.894618  2162 net.cpp:91] Creating Layer loss
I0509 19:09:38.894624  2162 net.cpp:425] loss <- fc8
I0509 19:09:38.894629  2162 net.cpp:425] loss <- label
I0509 19:09:38.894640  2162 net.cpp:399] loss -> loss
I0509 19:09:38.894654  2162 layer_factory.hpp:77] Creating layer loss
…
I0509 19:09:38.895658  2162 net.cpp:313] The NetState phase (1) differed from the phase (0) specified by a rule in layer data
I0509 19:09:38.895802  2162 net.cpp:49] Initializing net from parameters: 
name: "CaffeNet"
state {
  phase: TEST
}
layer {
  name: "data"
  type: "Data"
  top: "data"
  top: "label"
  include {
    phase: TEST
  }
  transform_param {
    scale: 0.04
    mirror: true
    crop_size: 128
    mean_value: 104
    mean_value: 117
    mean_value: 124
    force_color: true
  }
  data_param {
    source: "/home/old-ufo/storage/datasets/imagenet/imgs128/lmdb/ilsvrc12_128_val_lmdb"
    batch_size: 50
    backend: LMDB
  }
}
layer {
  name: "conv1"
  type: "Convolution"
  bottom: "data"
  top: "conv1"
  param {
    lr_mult: 1
    decay_mult: 1
  }
  param {
    lr_mult: 2
    decay_mult: 0
  }
  convolution_param {
    num_output: 544
    kernel_size: 11
    stride: 4
    weight_filler {
      type: "gaussian"
      std: 0.01
    }
    bias_filler {
      type: "constant"
    }
  }
}
layer {
  name: "relu1"
  type: "ReLU"
  bottom: "conv1"
  top: "relu1"
}
layer {
  name: "pool1"
  type: "Pooling"
  bottom: "relu1"
  top: "pool1"
  pooling_param {
    pool: MAX
    kernel_size: 3
    stride: 2
  }
}
layer {
  name: "conv2"
  type: "Convolution"
  bottom: "pool1"
  top: "conv2"
  param {
    lr_mult: 1
    decay_mult: 1
  }
  param {
    lr_mult: 2
    decay_mult: 0
  }
  convolution_param {
    num_output: 1448
    pad: 2
    kernel_size: 5
    group: 2
    weight_filler {
      type: "gaussian"
      std: 0.01
    }
    bias_filler {
      type: "constant"
    }
  }
}
layer {
  name: "relu2"
  type: "ReLU"
  bottom: "conv2"
  top: "conv2"
}
layer {
  name: "pool2"
  type: "Pooling"
  bottom: "conv2"
  top: "pool2"
  pooling_param {
    pool: MAX
    kernel_size: 3
    stride: 2
  }
}
layer {
  name: "conv3"
  type: "Convolution"
  bottom: "pool2"
  top: "conv3"
  param {
    lr_mult: 1
    decay_mult: 1
  }
  param {
    lr_mult: 2
    decay_mult: 0
  }
  convolution_param {
    num_output: 2176
    pad: 1
    kernel_size: 3
    weight_filler {
      type: "gaussian"
      std: 0.01
    }
    bias_filler {
      type: "constant"
    }
  }
}
layer {
  name: "relu3"
  type: "ReLU"
  bottom: "conv3"
  top: "conv3"
}
layer {
  name: "conv4"
  type: "Convolution"
  bottom: "conv3"
  top: "conv4"
  param {
    lr_mult: 1
    decay_mult: 1
  }
  param {
    lr_mult: 2
    decay_mult: 0
  }
  convolution_param {
    num_output: 2176
    pad: 1
    kernel_size: 3
    group: 2
    weight_filler {
      type: "gaussian"
      std: 0.01
    }
    bias_filler {
      type: "constant"
    }
  }
}
layer {
  name: "relu4"
  type: "ReLU"
  bottom: "conv4"
  top: "conv4"
}
layer {
  name: "conv5"
  type: "Convolution"
  bottom: "conv4"
  top: "conv5"
  param {
    lr_mult: 1
    decay_mult: 1
  }
  param {
    lr_mult: 2
    decay_mult: 0
  }
  convolution_param {
    num_output: 1448
    pad: 1
    kernel_size: 3
    group: 2
    weight_filler {
      type: "gaussian"
      std: 0.01
    }
    bias_filler {
      type: "constant"
    }
  }
}
layer {
  name: "relu5"
  type: "ReLU"
  bottom: "conv5"
  top: "conv5"
}
layer {
  name: "pool5"
  type: "Pooling"
  bottom: "conv5"
  top: "pool5"
  pooling_param {
    pool: MAX
    kernel_size: 3
    stride: 2
  }
}
layer {
  name: "fc6"
  type: "InnerProduct"
  bottom: "pool5"
  top: "fc6"
  param {
    lr_mult: 1
    decay_mult: 1
  }
  param {
    lr_mult: 2
    decay_mult: 0
  }
  inner_product_param {
    num_output: 11584
    weight_filler {
      type: "gaussian"
      std: 0.005
    }
    bias_filler {
      type: "constant"
    }
  }
}
layer {
  name: "relu6"
  type: "ReLU"
  bottom: "fc6"
  top: "fc6"
}
layer {
  name: "drop6"
  type: "Dropout"
  bottom: "fc6"
  top: "fc6"
  dropout_param {
    dropout_ratio: 0.5
  }
}
layer {
  name: "fc7"
  type: "InnerProduct"
  bottom: "fc6"
  top: "fc7"
  param {
    lr_mult: 1
    decay_mult: 1
  }
  param {
    lr_mult: 2
    decay_mult: 0
  }
  inner_product_param {
    num_output: 11584
    weight_filler {
      type: "gaussian"
      std: 0.005
    }
    bias_filler {
      type: "constant"
    }
  }
}
layer {
  name: "relu7"
  type: "ReLU"
  bottom: "fc7"
  top: "fc7"
}
layer {
  name: "drop7"
  type: "Dropout"
  bottom: "fc7"
  top: "fc7"
  dropout_param {
    dropout_ratio: 0.5
  }
}
layer {
  name: "fc8"
  type: "InnerProduct"
  bottom: "fc7"
  top: "fc8"
  param {
    lr_mult: 1
    decay_mult: 1
  }
  param {
    lr_mult: 2
    decay_mult: 0
  }
  inner_product_param {
    num_output: 1000
    weight_filler {
      type: "gaussian"
      std: 0.01
    }
    bias_filler {
      type: "constant"
    }
  }
}
layer {
  name: "accuracy"
  type: "Accuracy"
  bottom: "fc8"
  bottom: "label"
  top: "accuracy"
  include {
    phase: TEST
  }
}
layer {
  name: "loss"
  type: "SoftmaxWithLoss"
  bottom: "fc8"
  bottom: "label"
  top: "loss"
}
I0509 19:09:38.895901  2162 layer_factory.hpp:77] Creating layer data
I0509 19:09:38.895975  2162 net.cpp:91] Creating Layer data
I0509 19:09:38.895998  2162 net.cpp:399] data -> data
I0509 19:09:38.896008  2162 net.cpp:399] data -> label
I0509 19:09:38.896636  2169 db_lmdb.cpp:38] Opened lmdb /home/old-ufo/storage/datasets/imagenet/imgs128/lmdb/ilsvrc12_128_val_lmdb
I0509 19:09:38.897202  2162 data_layer.cpp:41] output data size: 50,3,128,128
I0509 19:09:38.912503  2162 net.cpp:141] Setting up data
I0509 19:09:38.912530  2162 net.cpp:148] Top shape: 50 3 128 128 (2457600)
I0509 19:09:38.912535  2162 net.cpp:148] Top shape: 50 (50)
I0509 19:09:38.912538  2162 net.cpp:156] Memory required for data: 9830600
I0509 19:09:38.912544  2162 layer_factory.hpp:77] Creating layer label_data_1_split
I0509 19:09:38.912561  2162 net.cpp:91] Creating Layer label_data_1_split
I0509 19:09:38.912565  2162 net.cpp:425] label_data_1_split <- label
I0509 19:09:38.912571  2162 net.cpp:399] label_data_1_split -> label_data_1_split_0
I0509 19:09:38.912580  2162 net.cpp:399] label_data_1_split -> label_data_1_split_1
I0509 19:09:38.912624  2162 net.cpp:141] Setting up label_data_1_split
I0509 19:09:38.912629  2162 net.cpp:148] Top shape: 50 (50)
I0509 19:09:38.912632  2162 net.cpp:148] Top shape: 50 (50)
I0509 19:09:38.912636  2162 net.cpp:156] Memory required for data: 9831000
I0509 19:09:38.912639  2162 layer_factory.hpp:77] Creating layer conv1
I0509 19:09:38.912650  2162 net.cpp:91] Creating Layer conv1
I0509 19:09:38.912653  2162 net.cpp:425] conv1 <- data
I0509 19:09:38.912658  2162 net.cpp:399] conv1 -> conv1
I0509 19:09:38.918644  2162 net.cpp:141] Setting up conv1
I0509 19:09:38.918663  2162 net.cpp:148] Top shape: 50 544 30 30 (24480000)
I0509 19:09:38.918668  2162 net.cpp:156] Memory required for data: 107751000
I0509 19:09:38.918678  2162 layer_factory.hpp:77] Creating layer relu1
I0509 19:09:38.918685  2162 net.cpp:91] Creating Layer relu1
I0509 19:09:38.918689  2162 net.cpp:425] relu1 <- conv1
I0509 19:09:38.918696  2162 net.cpp:399] relu1 -> relu1
I0509 19:09:38.918843  2162 net.cpp:141] Setting up relu1
I0509 19:09:38.918850  2162 net.cpp:148] Top shape: 50 544 30 30 (24480000)
I0509 19:09:38.918854  2162 net.cpp:156] Memory required for data: 205671000
I0509 19:09:38.918858  2162 layer_factory.hpp:77] Creating layer pool1
I0509 19:09:38.918865  2162 net.cpp:91] Creating Layer pool1
I0509 19:09:38.918869  2162 net.cpp:425] pool1 <- relu1
I0509 19:09:38.918872  2162 net.cpp:399] pool1 -> pool1
I0509 19:09:38.918905  2162 net.cpp:141] Setting up pool1
I0509 19:09:38.918910  2162 net.cpp:148] Top shape: 50 544 15 15 (6120000)
I0509 19:09:38.918911  2162 net.cpp:156] Memory required for data: 230151000
I0509 19:09:38.918913  2162 layer_factory.hpp:77] Creating layer conv2
I0509 19:09:38.918923  2162 net.cpp:91] Creating Layer conv2
I0509 19:09:38.918927  2162 net.cpp:425] conv2 <- pool1
I0509 19:09:38.918932  2162 net.cpp:399] conv2 -> conv2
I0509 19:09:39.169175  2162 net.cpp:141] Setting up conv2
I0509 19:09:39.169203  2162 net.cpp:148] Top shape: 50 1448 15 15 (16290000)
I0509 19:09:39.169205  2162 net.cpp:156] Memory required for data: 295311000
I0509 19:09:39.169217  2162 layer_factory.hpp:77] Creating layer relu2
I0509 19:09:39.169226  2162 net.cpp:91] Creating Layer relu2
I0509 19:09:39.169230  2162 net.cpp:425] relu2 <- conv2
I0509 19:09:39.169245  2162 net.cpp:386] relu2 -> conv2 (in-place)
I0509 19:09:39.169464  2162 net.cpp:141] Setting up relu2
I0509 19:09:39.169473  2162 net.cpp:148] Top shape: 50 1448 15 15 (16290000)
I0509 19:09:39.169476  2162 net.cpp:156] Memory required for data: 360471000
I0509 19:09:39.169478  2162 layer_factory.hpp:77] Creating layer pool2
I0509 19:09:39.169486  2162 net.cpp:91] Creating Layer pool2
I0509 19:09:39.169488  2162 net.cpp:425] pool2 <- conv2
I0509 19:09:39.169492  2162 net.cpp:399] pool2 -> pool2
I0509 19:09:39.169531  2162 net.cpp:141] Setting up pool2
I0509 19:09:39.169538  2162 net.cpp:148] Top shape: 50 1448 7 7 (3547600)
I0509 19:09:39.169539  2162 net.cpp:156] Memory required for data: 374661400
I0509 19:09:39.169541  2162 layer_factory.hpp:77] Creating layer conv3
I0509 19:09:39.169553  2162 net.cpp:91] Creating Layer conv3
I0509 19:09:39.169567  2162 net.cpp:425] conv3 <- pool2
I0509 19:09:39.169574  2162 net.cpp:399] conv3 -> conv3
I0509 19:09:39.885009  2162 net.cpp:141] Setting up conv3
I0509 19:09:39.885033  2162 net.cpp:148] Top shape: 50 2176 7 7 (5331200)
I0509 19:09:39.885037  2162 net.cpp:156] Memory required for data: 395986200
I0509 19:09:39.885048  2162 layer_factory.hpp:77] Creating layer relu3
I0509 19:09:39.885058  2162 net.cpp:91] Creating Layer relu3
I0509 19:09:39.885064  2162 net.cpp:425] relu3 <- conv3
I0509 19:09:39.885071  2162 net.cpp:386] relu3 -> conv3 (in-place)
I0509 19:09:39.885293  2162 net.cpp:141] Setting up relu3
I0509 19:09:39.885303  2162 net.cpp:148] Top shape: 50 2176 7 7 (5331200)
I0509 19:09:39.885305  2162 net.cpp:156] Memory required for data: 417311000
I0509 19:09:39.885308  2162 layer_factory.hpp:77] Creating layer conv4
I0509 19:09:39.885319  2162 net.cpp:91] Creating Layer conv4
I0509 19:09:39.885324  2162 net.cpp:425] conv4 <- conv3
I0509 19:09:39.885329  2162 net.cpp:399] conv4 -> conv4
I0509 19:09:40.423658  2162 net.cpp:141] Setting up conv4
I0509 19:09:40.423687  2162 net.cpp:148] Top shape: 50 2176 7 7 (5331200)
I0509 19:09:40.423691  2162 net.cpp:156] Memory required for data: 438635800
I0509 19:09:40.423698  2162 layer_factory.hpp:77] Creating layer relu4
I0509 19:09:40.423708  2162 net.cpp:91] Creating Layer relu4
I0509 19:09:40.423713  2162 net.cpp:425] relu4 <- conv4
I0509 19:09:40.423718  2162 net.cpp:386] relu4 -> conv4 (in-place)
I0509 19:09:40.423949  2162 net.cpp:141] Setting up relu4
I0509 19:09:40.423959  2162 net.cpp:148] Top shape: 50 2176 7 7 (5331200)
I0509 19:09:40.423962  2162 net.cpp:156] Memory required for data: 459960600
I0509 19:09:40.423965  2162 layer_factory.hpp:77] Creating layer conv5
I0509 19:09:40.423976  2162 net.cpp:91] Creating Layer conv5
I0509 19:09:40.423981  2162 net.cpp:425] conv5 <- conv4
I0509 19:09:40.423986  2162 net.cpp:399] conv5 -> conv5
I0509 19:09:40.782802  2162 net.cpp:141] Setting up conv5
I0509 19:09:40.782829  2162 net.cpp:148] Top shape: 50 1448 7 7 (3547600)
I0509 19:09:40.782831  2162 net.cpp:156] Memory required for data: 474151000
I0509 19:09:40.782843  2162 layer_factory.hpp:77] Creating layer relu5
I0509 19:09:40.782855  2162 net.cpp:91] Creating Layer relu5
I0509 19:09:40.782860  2162 net.cpp:425] relu5 <- conv5
I0509 19:09:40.782868  2162 net.cpp:386] relu5 -> conv5 (in-place)
I0509 19:09:40.783032  2162 net.cpp:141] Setting up relu5
I0509 19:09:40.783042  2162 net.cpp:148] Top shape: 50 1448 7 7 (3547600)
I0509 19:09:40.783044  2162 net.cpp:156] Memory required for data: 488341400
I0509 19:09:40.783047  2162 layer_factory.hpp:77] Creating layer pool5
I0509 19:09:40.783052  2162 net.cpp:91] Creating Layer pool5
I0509 19:09:40.783056  2162 net.cpp:425] pool5 <- conv5
I0509 19:09:40.783061  2162 net.cpp:399] pool5 -> pool5
I0509 19:09:40.783100  2162 net.cpp:141] Setting up pool5
I0509 19:09:40.783105  2162 net.cpp:148] Top shape: 50 1448 3 3 (651600)
I0509 19:09:40.783108  2162 net.cpp:156] Memory required for data: 490947800
I0509 19:09:40.783110  2162 layer_factory.hpp:77] Creating layer fc6
I0509 19:09:40.783116  2162 net.cpp:91] Creating Layer fc6
I0509 19:09:40.783119  2162 net.cpp:425] fc6 <- pool5
I0509 19:09:40.783123  2162 net.cpp:399] fc6 -> fc6
I0509 19:09:44.585669  2162 net.cpp:141] Setting up fc6
I0509 19:09:44.585697  2162 net.cpp:148] Top shape: 50 11584 (579200)
I0509 19:09:44.585700  2162 net.cpp:156] Memory required for data: 493264600
I0509 19:09:44.585710  2162 layer_factory.hpp:77] Creating layer relu6
I0509 19:09:44.585722  2162 net.cpp:91] Creating Layer relu6
I0509 19:09:44.585726  2162 net.cpp:425] relu6 <- fc6
I0509 19:09:44.585739  2162 net.cpp:386] relu6 -> fc6 (in-place)
I0509 19:09:44.586077  2162 net.cpp:141] Setting up relu6
I0509 19:09:44.586087  2162 net.cpp:148] Top shape: 50 11584 (579200)
I0509 19:09:44.586091  2162 net.cpp:156] Memory required for data: 495581400
I0509 19:09:44.586093  2162 layer_factory.hpp:77] Creating layer drop6
I0509 19:09:44.586099  2162 net.cpp:91] Creating Layer drop6
I0509 19:09:44.586117  2162 net.cpp:425] drop6 <- fc6
I0509 19:09:44.586124  2162 net.cpp:386] drop6 -> fc6 (in-place)
I0509 19:09:44.586149  2162 net.cpp:141] Setting up drop6
I0509 19:09:44.586154  2162 net.cpp:148] Top shape: 50 11584 (579200)
I0509 19:09:44.586156  2162 net.cpp:156] Memory required for data: 497898200
I0509 19:09:44.586158  2162 layer_factory.hpp:77] Creating layer fc7
I0509 19:09:44.586166  2162 net.cpp:91] Creating Layer fc7
I0509 19:09:44.586169  2162 net.cpp:425] fc7 <- fc6
I0509 19:09:44.586174  2162 net.cpp:399] fc7 -> fc7
I0509 19:09:47.967111  2162 net.cpp:141] Setting up fc7
I0509 19:09:47.967139  2162 net.cpp:148] Top shape: 50 11584 (579200)
I0509 19:09:47.967141  2162 net.cpp:156] Memory required for data: 500215000
I0509 19:09:47.967149  2162 layer_factory.hpp:77] Creating layer relu7
I0509 19:09:47.967159  2162 net.cpp:91] Creating Layer relu7
I0509 19:09:47.967164  2162 net.cpp:425] relu7 <- fc7
I0509 19:09:47.967170  2162 net.cpp:386] relu7 -> fc7 (in-place)
I0509 19:09:47.967360  2162 net.cpp:141] Setting up relu7
I0509 19:09:47.967367  2162 net.cpp:148] Top shape: 50 11584 (579200)
I0509 19:09:47.967370  2162 net.cpp:156] Memory required for data: 502531800
I0509 19:09:47.967372  2162 layer_factory.hpp:77] Creating layer drop7
I0509 19:09:47.967378  2162 net.cpp:91] Creating Layer drop7
I0509 19:09:47.967381  2162 net.cpp:425] drop7 <- fc7
I0509 19:09:47.967384  2162 net.cpp:386] drop7 -> fc7 (in-place)
I0509 19:09:47.967412  2162 net.cpp:141] Setting up drop7
I0509 19:09:47.967418  2162 net.cpp:148] Top shape: 50 11584 (579200)
I0509 19:09:47.967420  2162 net.cpp:156] Memory required for data: 504848600
I0509 19:09:47.967422  2162 layer_factory.hpp:77] Creating layer fc8
I0509 19:09:47.967430  2162 net.cpp:91] Creating Layer fc8
I0509 19:09:47.967432  2162 net.cpp:425] fc8 <- fc7
I0509 19:09:47.967437  2162 net.cpp:399] fc8 -> fc8
I0509 19:09:48.259507  2162 net.cpp:141] Setting up fc8
I0509 19:09:48.259532  2162 net.cpp:148] Top shape: 50 1000 (50000)
I0509 19:09:48.259536  2162 net.cpp:156] Memory required for data: 505048600
I0509 19:09:48.259543  2162 layer_factory.hpp:77] Creating layer fc8_fc8_0_split
I0509 19:09:48.259552  2162 net.cpp:91] Creating Layer fc8_fc8_0_split
I0509 19:09:48.259557  2162 net.cpp:425] fc8_fc8_0_split <- fc8
I0509 19:09:48.259567  2162 net.cpp:399] fc8_fc8_0_split -> fc8_fc8_0_split_0
I0509 19:09:48.259577  2162 net.cpp:399] fc8_fc8_0_split -> fc8_fc8_0_split_1
I0509 19:09:48.259613  2162 net.cpp:141] Setting up fc8_fc8_0_split
I0509 19:09:48.259619  2162 net.cpp:148] Top shape: 50 1000 (50000)
I0509 19:09:48.259623  2162 net.cpp:148] Top shape: 50 1000 (50000)
I0509 19:09:48.259624  2162 net.cpp:156] Memory required for data: 505448600
I0509 19:09:48.259627  2162 layer_factory.hpp:77] Creating layer accuracy
I0509 19:09:48.259637  2162 net.cpp:91] Creating Layer accuracy
I0509 19:09:48.259640  2162 net.cpp:425] accuracy <- fc8_fc8_0_split_0
I0509 19:09:48.259645  2162 net.cpp:425] accuracy <- label_data_1_split_0
I0509 19:09:48.259651  2162 net.cpp:399] accuracy -> accuracy
…
