…
      source: "/home/old-ufo/storage/datasets/imagenet/imgs128/lmdb/ilsvrc12_128_train_lmdb"
      batch_size: 1
      backend: LMDB
    }
  }
  layer {
    name: "data"
    type: "Data"
    top: "data"
    top: "label"
    include {
      phase: TEST
    }
    transform_param {
      scale: 0.04
      mirror: false
      crop_size: 128
      mean_value: 104
      mean_value: 117
      mean_value: 123
      force_color: true
    }
    data_param {
      source: "/home/old-ufo/storage/datasets/imagenet/imgs128/lmdb/ilsvrc12_128_val_lmdb"
      batch_size: 50
      backend: LMDB
    }
  }
  layer {
    name: "conv1"
    type: "Convolution"
    bottom: "data"
    top: "conv1"
    param {
      lr_mult: 1
      decay_mult: 1
    }
    param {
      lr_mult: 2
      decay_mult: 0
    }
    convolution_param {
      num_output: 96
      kernel_size: 11
      stride: 4
      weight_filler {
        type: "gaussian"
        std: 0.01
      }
      bias_filler {
        type: "constant"
      }
    }
  }
  layer {
    name: "relu1"
    type: "ReLU"
    bottom: "conv1"
    top: "relu1"
  }
  layer {
    name: "pool1"
    type: "Pooling"
    bottom: "relu1"
    top: "pool1"
    pooling_param {
      pool: MAX
      kernel_size: 3
      stride: 2
    }
  }
  layer {
    name: "conv2"
    type: "Convolution"
    bottom: "pool1"
    top: "conv2"
    param {
      lr_mult: 1
      decay_mult: 1
    }
    param {
      lr_mult: 2
      decay_mult: 0
    }
    convolution_param {
      num_output: 256
      pad: 2
      kernel_size: 5
      group: 2
      weight_filler {
        type: "gaussian"
        std: 0.01
      }
      bias_filler {
        type: "constant"
      }
    }
  }
  layer {
    name: "relu2"
    type: "ReLU"
    bottom: "conv2"
    top: "relu2"
  }
  layer {
    name: "pool2"
    type: "Pooling"
    bottom: "relu2"
    top: "pool2"
    pooling_param {
      pool: MAX
      kernel_size: 3
      stride: 2
    }
  }
  layer {
    name: "conv3"
    type: "Convolution"
    bottom: "pool2"
    top: "conv3"
    param {
      lr_mult: 1
      decay_mult: 1
    }
    param {
      lr_mult: 2
      decay_mult: 0
    }
    convolution_param {
      num_output: 384
      pad: 1
      kernel_size: 3
      weight_filler {
        type: "gaussian"
        std: 0.01
      }
      bias_filler {
        type: "constant"
      }
    }
  }
  layer {
    name: "relu3"
    type: "ReLU"
    bottom: "conv3"
    top: "relu3"
  }
  layer {
    name: "conv4"
    type: "Convolution"
    bottom: "relu3"
    top: "conv4"
    param {
      lr_mult: 1
      decay_mult: 1
    }
    param {
      lr_mult: 2
      decay_mult: 0
    }
    convolution_param {
      num_output: 384
      pad: 1
      kernel_size: 3
      group: 2
      weight_filler {
        type: "gaussian"
        std: 0.01
      }
      bias_filler {
        type: "constant"
      }
    }
  }
  layer {
    name: "relu4"
    type: "ReLU"
    bottom: "conv4"
    top: "relu4"
  }
  layer {
    name: "conv5"
    type: "Convolution"
    bottom: "relu4"
    top: "conv5"
    param {
      lr_mult: 1
      decay_mult: 1
    }
    param {
      lr_mult: 2
      decay_mult: 0
    }
    convolution_param {
      num_output: 256
      pad: 1
      kernel_size: 3
      group: 2
      weight_filler {
        type: "gaussian"
        std: 0.01
      }
      bias_filler {
        type: "constant"
      }
    }
  }
  layer {
    name: "relu5"
    type: "ReLU"
    bottom: "conv5"
    top: "relu5"
  }
  layer {
    name: "pool5"
    type: "Pooling"
    bottom: "relu5"
    top: "pool5"
    pooling_param {
      pool: MAX
      kernel_size: 3
      stride: 2
    }
  }
  layer {
    name: "fc6"
    type: "InnerProduct"
    bottom: "pool5"
    top: "fc6"
    param {
      lr_mult: 1
      decay_mult: 1
    }
    param {
      lr_mult: 2
      decay_mult: 0
    }
    inner_product_param {
      num_output: 2048
      weight_filler {
        type: "gaussian"
        std: 0.005
      }
      bias_filler {
        type: "constant"
      }
    }
  }
  layer {
    name: "relu6"
    type: "ReLU"
    bottom: "fc6"
    top: "relu6"
  }
  layer {
    name: "drop6"
    type: "Dropout"
    bottom: "relu6"
    top: "drop6"
    dropout_param {
      dropout_ratio: 0.5
    }
  }
  layer {
    name: "fc7"
    type: "InnerProduct"
    bottom: "drop6"
    top: "fc7"
    param {
      lr_mult: 1
      decay_mult: 1
    }
    param {
      lr_mult: 2
      decay_mult: 0
    }
    inner_product_param {
      num_output: 2048
      weight_filler {
        type: "gaussian"
        std: 0.005
      }
      bias_filler {
        type: "constant"
      }
    }
  }
  layer {
    name: "relu7"
    type: "ReLU"
    bottom: "fc7"
    top: "relu7"
  }
  layer {
    name: "drop7"
    type: "Dropout"
    bottom: "relu7"
    top: "drop7"
    dropout_param {
      dropout_ratio: 0.5
    }
  }
  layer {
    name: "fc8"
    type: "InnerProduct"
    bottom: "drop7"
    top: "fc8"
    param {
      lr_mult: 1
      decay_mult: 1
    }
    param {
      lr_mult: 2
      decay_mult: 0
    }
    inner_product_param {
      num_output: 1000
      weight_filler {
        type: "gaussian"
        std: 0.01
      }
      bias_filler {
        type: "constant"
      }
    }
  }
  layer {
    name: "accuracy"
    type: "Accuracy"
    bottom: "fc8"
    bottom: "label"
    top: "accuracy"
    include {
      phase: TEST
    }
  }
  layer {
    name: "loss"
    type: "SoftmaxWithLoss"
    bottom: "fc8"
    bottom: "label"
    top: "loss"
  }
}
test_initialization: true
average_loss: 51200
iter_size: 1
type: "SGD"
I0414 16:13:20.173499 12023 solver.cpp:86] Creating training net specified in net_param.
I0414 16:13:20.173560 12023 net.cpp:322] The NetState phase (0) differed from the phase (1) specified by a rule in layer data
I0414 16:13:20.173576 12023 net.cpp:322] The NetState phase (0) differed from the phase (1) specified by a rule in layer accuracy
I0414 16:13:20.173692 12023 net.cpp:49] Initializing net from parameters: 
name: "CaffeNet"
state {
  phase: TRAIN
}
layer {
  name: "data"
  type: "Data"
  top: "data"
  top: "label"
  include {
    phase: TRAIN
  }
  transform_param {
    scale: 0.04
    mirror: true
    crop_size: 128
    mean_value: 104
    mean_value: 117
    mean_value: 124
    force_color: true
  }
  data_param {
    source: "/home/old-ufo/storage/datasets/imagenet/imgs128/lmdb/ilsvrc12_128_train_lmdb"
    batch_size: 1
    backend: LMDB
  }
}
layer {
  name: "conv1"
  type: "Convolution"
  bottom: "data"
  top: "conv1"
  param {
    lr_mult: 1
    decay_mult: 1
  }
  param {
    lr_mult: 2
    decay_mult: 0
  }
  convolution_param {
    num_output: 96
    kernel_size: 11
    stride: 4
    weight_filler {
      type: "gaussian"
      std: 0.01
    }
    bias_filler {
      type: "constant"
    }
  }
}
layer {
  name: "relu1"
  type: "ReLU"
  bottom: "conv1"
  top: "relu1"
}
layer {
  name: "pool1"
  type: "Pooling"
  bottom: "relu1"
  top: "pool1"
  pooling_param {
    pool: MAX
    kernel_size: 3
    stride: 2
  }
}
layer {
  name: "conv2"
  type: "Convolution"
  bottom: "pool1"
  top: "conv2"
  param {
    lr_mult: 1
    decay_mult: 1
  }
  param {
    lr_mult: 2
    decay_mult: 0
  }
  convolution_param {
    num_output: 256
    pad: 2
    kernel_size: 5
    group: 2
    weight_filler {
      type: "gaussian"
      std: 0.01
    }
    bias_filler {
      type: "constant"
    }
  }
}
layer {
  name: "relu2"
  type: "ReLU"
  bottom: "conv2"
  top: "relu2"
}
layer {
  name: "pool2"
  type: "Pooling"
  bottom: "relu2"
  top: "pool2"
  pooling_param {
    pool: MAX
    kernel_size: 3
    stride: 2
  }
}
layer {
  name: "conv3"
  type: "Convolution"
  bottom: "pool2"
  top: "conv3"
  param {
    lr_mult: 1
    decay_mult: 1
  }
  param {
    lr_mult: 2
    decay_mult: 0
  }
  convolution_param {
    num_output: 384
    pad: 1
    kernel_size: 3
    weight_filler {
      type: "gaussian"
      std: 0.01
    }
    bias_filler {
      type: "constant"
    }
  }
}
layer {
  name: "relu3"
  type: "ReLU"
  bottom: "conv3"
  top: "relu3"
}
layer {
  name: "conv4"
  type: "Convolution"
  bottom: "relu3"
  top: "conv4"
  param {
    lr_mult: 1
    decay_mult: 1
  }
  param {
    lr_mult: 2
    decay_mult: 0
  }
  convolution_param {
    num_output: 384
    pad: 1
    kernel_size: 3
    group: 2
    weight_filler {
      type: "gaussian"
      std: 0.01
    }
    bias_filler {
      type: "constant"
    }
  }
}
layer {
  name: "relu4"
  type: "ReLU"
  bottom: "conv4"
  top: "relu4"
}
layer {
  name: "conv5"
  type: "Convolution"
  bottom: "relu4"
  top: "conv5"
  param {
    lr_mult: 1
    decay_mult: 1
  }
  param {
    lr_mult: 2
    decay_mult: 0
  }
  convolution_param {
    num_output: 256
    pad: 1
    kernel_size: 3
    group: 2
    weight_filler {
      type: "gaussian"
      std: 0.01
    }
    bias_filler {
      type: "constant"
    }
  }
}
layer {
  name: "relu5"
  type: "ReLU"
  bottom: "conv5"
  top: "relu5"
}
layer {
  name: "pool5"
  type: "Pooling"
  bottom: "relu5"
  top: "pool5"
  pooling_param {
    pool: MAX
    kernel_size: 3
    stride: 2
  }
}
layer {
  name: "fc6"
  type: "InnerProduct"
  bottom: "pool5"
  top: "fc6"
  param {
    lr_mult: 1
    decay_mult: 1
  }
  param {
    lr_mult: 2
    decay_mult: 0
  }
  inner_product_param {
    num_output: 2048
    weight_filler {
      type: "gaussian"
      std: 0.005
    }
    bias_filler {
      type: "constant"
    }
  }
}
layer {
  name: "relu6"
  type: "ReLU"
  bottom: "fc6"
  top: "relu6"
}
layer {
  name: "drop6"
  type: "Dropout"
  bottom: "relu6"
  top: "drop6"
  dropout_param {
    dropout_ratio: 0.5
  }
}
layer {
  name: "fc7"
  type: "InnerProduct"
  bottom: "drop6"
  top: "fc7"
  param {
    lr_mult: 1
    decay_mult: 1
  }
  param {
    lr_mult: 2
    decay_mult: 0
  }
  inner_product_param {
    num_output: 2048
    weight_filler {
      type: "gaussian"
      std: 0.005
    }
    bias_filler {
      type: "constant"
    }
  }
}
layer {
  name: "relu7"
  type: "ReLU"
  bottom: "fc7"
  top: "relu7"
}
layer {
  name: "drop7"
  type: "Dropout"
  bottom: "relu7"
  top: "drop7"
  dropout_param {
    dropout_ratio: 0.5
  }
}
layer {
  name: "fc8"
  type: "InnerProduct"
  bottom: "drop7"
  top: "fc8"
  param {
    lr_mult: 1
    decay_mult: 1
  }
  param {
    lr_mult: 2
    decay_mult: 0
  }
  inner_product_param {
    num_output: 1000
    weight_filler {
      type: "gaussian"
      std: 0.01
    }
    bias_filler {
      type: "constant"
    }
  }
}
layer {
  name: "loss"
  type: "SoftmaxWithLoss"
  bottom: "fc8"
  bottom: "label"
  top: "loss"
}
I0414 16:13:20.173777 12023 layer_factory.hpp:76] Creating layer data
I0414 16:13:20.174180 12023 net.cpp:106] Creating Layer data
I0414 16:13:20.174188 12023 net.cpp:411] data -> data
I0414 16:13:20.174213 12023 net.cpp:411] data -> label
I0414 16:13:20.174870 12029 db_lmdb.cpp:38] Opened lmdb /home/old-ufo/storage/datasets/imagenet/imgs128/lmdb/ilsvrc12_128_train_lmdb
I0414 16:13:20.183531 12023 data_layer.cpp:41] output data size: 1,3,128,128
I0414 16:13:20.184170 12023 net.cpp:150] Setting up data
I0414 16:13:20.184186 12023 net.cpp:157] Top shape: 1 3 128 128 (49152)
I0414 16:13:20.184195 12023 net.cpp:157] Top shape: 1 (1)
I0414 16:13:20.184213 12023 net.cpp:165] Memory required for data: 196612
I0414 16:13:20.184227 12023 layer_factory.hpp:76] Creating layer conv1
I0414 16:13:20.184248 12023 net.cpp:106] Creating Layer conv1
I0414 16:13:20.184255 12023 net.cpp:454] conv1 <- data
I0414 16:13:20.184273 12023 net.cpp:411] conv1 -> conv1
I0414 16:13:20.290333 12023 net.cpp:150] Setting up conv1
I0414 16:13:20.290360 12023 net.cpp:157] Top shape: 1 96 30 30 (86400)
I0414 16:13:20.290365 12023 net.cpp:165] Memory required for data: 542212
I0414 16:13:20.290388 12023 layer_factory.hpp:76] Creating layer relu1
I0414 16:13:20.290405 12023 net.cpp:106] Creating Layer relu1
I0414 16:13:20.290413 12023 net.cpp:454] relu1 <- conv1
I0414 16:13:20.290422 12023 net.cpp:411] relu1 -> relu1
I0414 16:13:20.290979 12023 net.cpp:150] Setting up relu1
I0414 16:13:20.290990 12023 net.cpp:157] Top shape: 1 96 30 30 (86400)
I0414 16:13:20.290995 12023 net.cpp:165] Memory required for data: 887812
I0414 16:13:20.290999 12023 layer_factory.hpp:76] Creating layer pool1
I0414 16:13:20.291009 12023 net.cpp:106] Creating Layer pool1
I0414 16:13:20.291014 12023 net.cpp:454] pool1 <- relu1
I0414 16:13:20.291023 12023 net.cpp:411] pool1 -> pool1
I0414 16:13:20.291584 12023 net.cpp:150] Setting up pool1
I0414 16:13:20.291595 12023 net.cpp:157] Top shape: 1 96 15 15 (21600)
I0414 16:13:20.291600 12023 net.cpp:165] Memory required for data: 974212
I0414 16:13:20.291604 12023 layer_factory.hpp:76] Creating layer conv2
I0414 16:13:20.291618 12023 net.cpp:106] Creating Layer conv2
I0414 16:13:20.291625 12023 net.cpp:454] conv2 <- pool1
I0414 16:13:20.291633 12023 net.cpp:411] conv2 -> conv2
I0414 16:13:20.302799 12023 net.cpp:150] Setting up conv2
I0414 16:13:20.302819 12023 net.cpp:157] Top shape: 1 256 15 15 (57600)
I0414 16:13:20.302824 12023 net.cpp:165] Memory required for data: 1204612
I0414 16:13:20.302837 12023 layer_factory.hpp:76] Creating layer relu2
I0414 16:13:20.302847 12023 net.cpp:106] Creating Layer relu2
I0414 16:13:20.302852 12023 net.cpp:454] relu2 <- conv2
I0414 16:13:20.302865 12023 net.cpp:411] relu2 -> relu2
I0414 16:13:20.303431 12023 net.cpp:150] Setting up relu2
I0414 16:13:20.303442 12023 net.cpp:157] Top shape: 1 256 15 15 (57600)
I0414 16:13:20.303447 12023 net.cpp:165] Memory required for data: 1435012
I0414 16:13:20.303452 12023 layer_factory.hpp:76] Creating layer pool2
I0414 16:13:20.303462 12023 net.cpp:106] Creating Layer pool2
I0414 16:13:20.303467 12023 net.cpp:454] pool2 <- relu2
I0414 16:13:20.303473 12023 net.cpp:411] pool2 -> pool2
I0414 16:13:20.304105 12023 net.cpp:150] Setting up pool2
I0414 16:13:20.304116 12023 net.cpp:157] Top shape: 1 256 7 7 (12544)
I0414 16:13:20.304121 12023 net.cpp:165] Memory required for data: 1485188
I0414 16:13:20.304126 12023 layer_factory.hpp:76] Creating layer conv3
I0414 16:13:20.304138 12023 net.cpp:106] Creating Layer conv3
I0414 16:13:20.304143 12023 net.cpp:454] conv3 <- pool2
I0414 16:13:20.304152 12023 net.cpp:411] conv3 -> conv3
I0414 16:13:20.328440 12023 net.cpp:150] Setting up conv3
I0414 16:13:20.328469 12023 net.cpp:157] Top shape: 1 384 7 7 (18816)
I0414 16:13:20.328474 12023 net.cpp:165] Memory required for data: 1560452
I0414 16:13:20.328490 12023 layer_factory.hpp:76] Creating layer relu3
I0414 16:13:20.328502 12023 net.cpp:106] Creating Layer relu3
I0414 16:13:20.328510 12023 net.cpp:454] relu3 <- conv3
I0414 16:13:20.328522 12023 net.cpp:411] relu3 -> relu3
I0414 16:13:20.329087 12023 net.cpp:150] Setting up relu3
I0414 16:13:20.329098 12023 net.cpp:157] Top shape: 1 384 7 7 (18816)
I0414 16:13:20.329104 12023 net.cpp:165] Memory required for data: 1635716
I0414 16:13:20.329109 12023 layer_factory.hpp:76] Creating layer conv4
I0414 16:13:20.329120 12023 net.cpp:106] Creating Layer conv4
I0414 16:13:20.329125 12023 net.cpp:454] conv4 <- relu3
I0414 16:13:20.329135 12023 net.cpp:411] conv4 -> conv4
I0414 16:13:20.349424 12023 net.cpp:150] Setting up conv4
I0414 16:13:20.349452 12023 net.cpp:157] Top shape: 1 384 7 7 (18816)
I0414 16:13:20.349455 12023 net.cpp:165] Memory required for data: 1710980
I0414 16:13:20.349496 12023 layer_factory.hpp:76] Creating layer relu4
I0414 16:13:20.349510 12023 net.cpp:106] Creating Layer relu4
I0414 16:13:20.349519 12023 net.cpp:454] relu4 <- conv4
I0414 16:13:20.349530 12023 net.cpp:411] relu4 -> relu4
I0414 16:13:20.350114 12023 net.cpp:150] Setting up relu4
I0414 16:13:20.350126 12023 net.cpp:157] Top shape: 1 384 7 7 (18816)
I0414 16:13:20.350131 12023 net.cpp:165] Memory required for data: 1786244
I0414 16:13:20.350136 12023 layer_factory.hpp:76] Creating layer conv5
I0414 16:13:20.350147 12023 net.cpp:106] Creating Layer conv5
I0414 16:13:20.350153 12023 net.cpp:454] conv5 <- relu4
I0414 16:13:20.350162 12023 net.cpp:411] conv5 -> conv5
I0414 16:13:20.364920 12023 net.cpp:150] Setting up conv5
I0414 16:13:20.364943 12023 net.cpp:157] Top shape: 1 256 7 7 (12544)
I0414 16:13:20.364948 12023 net.cpp:165] Memory required for data: 1836420
I0414 16:13:20.364965 12023 layer_factory.hpp:76] Creating layer relu5
I0414 16:13:20.364976 12023 net.cpp:106] Creating Layer relu5
I0414 16:13:20.364982 12023 net.cpp:454] relu5 <- conv5
I0414 16:13:20.364992 12023 net.cpp:411] relu5 -> relu5
I0414 16:13:20.365579 12023 net.cpp:150] Setting up relu5
I0414 16:13:20.365592 12023 net.cpp:157] Top shape: 1 256 7 7 (12544)
I0414 16:13:20.365597 12023 net.cpp:165] Memory required for data: 1886596
I0414 16:13:20.365600 12023 layer_factory.hpp:76] Creating layer pool5
I0414 16:13:20.365608 12023 net.cpp:106] Creating Layer pool5
I0414 16:13:20.365613 12023 net.cpp:454] pool5 <- relu5
I0414 16:13:20.365622 12023 net.cpp:411] pool5 -> pool5
I0414 16:13:20.366217 12023 net.cpp:150] Setting up pool5
I0414 16:13:20.366228 12023 net.cpp:157] Top shape: 1 256 3 3 (2304)
I0414 16:13:20.366232 12023 net.cpp:165] Memory required for data: 1895812
I0414 16:13:20.366237 12023 layer_factory.hpp:76] Creating layer fc6
I0414 16:13:20.366255 12023 net.cpp:106] Creating Layer fc6
I0414 16:13:20.366262 12023 net.cpp:454] fc6 <- pool5
I0414 16:13:20.366271 12023 net.cpp:411] fc6 -> fc6
I0414 16:13:20.485448 12023 net.cpp:150] Setting up fc6
I0414 16:13:20.485478 12023 net.cpp:157] Top shape: 1 2048 (2048)
I0414 16:13:20.485482 12023 net.cpp:165] Memory required for data: 1904004
I0414 16:13:20.485493 12023 layer_factory.hpp:76] Creating layer relu6
I0414 16:13:20.485505 12023 net.cpp:106] Creating Layer relu6
I0414 16:13:20.485512 12023 net.cpp:454] relu6 <- fc6
I0414 16:13:20.485523 12023 net.cpp:411] relu6 -> relu6
I0414 16:13:20.486166 12023 net.cpp:150] Setting up relu6
I0414 16:13:20.486179 12023 net.cpp:157] Top shape: 1 2048 (2048)
I0414 16:13:20.486183 12023 net.cpp:165] Memory required for data: 1912196
I0414 16:13:20.486188 12023 layer_factory.hpp:76] Creating layer drop6
I0414 16:13:20.486201 12023 net.cpp:106] Creating Layer drop6
I0414 16:13:20.486207 12023 net.cpp:454] drop6 <- relu6
I0414 16:13:20.486213 12023 net.cpp:411] drop6 -> drop6
I0414 16:13:20.486258 12023 net.cpp:150] Setting up drop6
I0414 16:13:20.486265 12023 net.cpp:157] Top shape: 1 2048 (2048)
I0414 16:13:20.486269 12023 net.cpp:165] Memory required for data: 1920388
I0414 16:13:20.486274 12023 layer_factory.hpp:76] Creating layer fc7
I0414 16:13:20.486284 12023 net.cpp:106] Creating Layer fc7
I0414 16:13:20.486289 12023 net.cpp:454] fc7 <- drop6
I0414 16:13:20.486297 12023 net.cpp:411] fc7 -> fc7
I0414 16:13:20.591985 12023 net.cpp:150] Setting up fc7
I0414 16:13:20.592012 12023 net.cpp:157] Top shape: 1 2048 (2048)
I0414 16:13:20.592016 12023 net.cpp:165] Memory required for data: 1928580
I0414 16:13:20.592030 12023 layer_factory.hpp:76] Creating layer relu7
I0414 16:13:20.592042 12023 net.cpp:106] Creating Layer relu7
I0414 16:13:20.592049 12023 net.cpp:454] relu7 <- fc7
I0414 16:13:20.592059 12023 net.cpp:411] relu7 -> relu7
I0414 16:13:20.592756 12023 net.cpp:150] Setting up relu7
I0414 16:13:20.592767 12023 net.cpp:157] Top shape: 1 2048 (2048)
I0414 16:13:20.592772 12023 net.cpp:165] Memory required for data: 1936772
I0414 16:13:20.592775 12023 layer_factory.hpp:76] Creating layer drop7
I0414 16:13:20.592784 12023 net.cpp:106] Creating Layer drop7
I0414 16:13:20.592806 12023 net.cpp:454] drop7 <- relu7
I0414 16:13:20.592816 12023 net.cpp:411] drop7 -> drop7
I0414 16:13:20.592857 12023 net.cpp:150] Setting up drop7
I0414 16:13:20.592864 12023 net.cpp:157] Top shape: 1 2048 (2048)
I0414 16:13:20.592869 12023 net.cpp:165] Memory required for data: 1944964
I0414 16:13:20.592874 12023 layer_factory.hpp:76] Creating layer fc8
I0414 16:13:20.592885 12023 net.cpp:106] Creating Layer fc8
I0414 16:13:20.592890 12023 net.cpp:454] fc8 <- drop7
I0414 16:13:20.592900 12023 net.cpp:411] fc8 -> fc8
I0414 16:13:20.644659 12023 net.cpp:150] Setting up fc8
I0414 16:13:20.644688 12023 net.cpp:157] Top shape: 1 1000 (1000)
I0414 16:13:20.644692 12023 net.cpp:165] Memory required for data: 1948964
I0414 16:13:20.644704 12023 layer_factory.hpp:76] Creating layer loss
I0414 16:13:20.644714 12023 net.cpp:106] Creating Layer loss
I0414 16:13:20.644721 12023 net.cpp:454] loss <- fc8
I0414 16:13:20.644727 12023 net.cpp:454] loss <- label
I0414 16:13:20.644737 12023 net.cpp:411] loss -> loss
I0414 16:13:20.644753 12023 layer_factory.hpp:76] Creating layer loss
…
I0414 16:13:20.645915 12023 net.cpp:322] The NetState phase (1) differed from the phase (0) specified by a rule in layer data
I0414 16:13:20.646070 12023 net.cpp:49] Initializing net from parameters: 
name: "CaffeNet"
state {
  phase: TEST
}
layer {
  name: "data"
  type: "Data"
  top: "data"
  top: "label"
  include {
    phase: TEST
  }
  transform_param {
    scale: 0.04
    mirror: false
    crop_size: 128
    mean_value: 104
    mean_value: 117
    mean_value: 123
    force_color: true
  }
  data_param {
    source: "/home/old-ufo/storage/datasets/imagenet/imgs128/lmdb/ilsvrc12_128_val_lmdb"
    batch_size: 50
    backend: LMDB
  }
}
layer {
  name: "conv1"
  type: "Convolution"
  bottom: "data"
  top: "conv1"
  param {
    lr_mult: 1
    decay_mult: 1
  }
  param {
    lr_mult: 2
    decay_mult: 0
  }
  convolution_param {
    num_output: 96
    kernel_size: 11
    stride: 4
    weight_filler {
      type: "gaussian"
      std: 0.01
    }
    bias_filler {
      type: "constant"
    }
  }
}
layer {
  name: "relu1"
  type: "ReLU"
  bottom: "conv1"
  top: "relu1"
}
layer {
  name: "pool1"
  type: "Pooling"
  bottom: "relu1"
  top: "pool1"
  pooling_param {
    pool: MAX
    kernel_size: 3
    stride: 2
  }
}
layer {
  name: "conv2"
  type: "Convolution"
  bottom: "pool1"
  top: "conv2"
  param {
    lr_mult: 1
    decay_mult: 1
  }
  param {
    lr_mult: 2
    decay_mult: 0
  }
  convolution_param {
    num_output: 256
    pad: 2
    kernel_size: 5
    group: 2
    weight_filler {
      type: "gaussian"
      std: 0.01
    }
    bias_filler {
      type: "constant"
    }
  }
}
layer {
  name: "relu2"
  type: "ReLU"
  bottom: "conv2"
  top: "relu2"
}
layer {
  name: "pool2"
  type: "Pooling"
  bottom: "relu2"
  top: "pool2"
  pooling_param {
    pool: MAX
    kernel_size: 3
    stride: 2
  }
}
layer {
  name: "conv3"
  type: "Convolution"
  bottom: "pool2"
  top: "conv3"
  param {
    lr_mult: 1
    decay_mult: 1
  }
  param {
    lr_mult: 2
    decay_mult: 0
  }
  convolution_param {
    num_output: 384
    pad: 1
    kernel_size: 3
    weight_filler {
      type: "gaussian"
      std: 0.01
    }
    bias_filler {
      type: "constant"
    }
  }
}
layer {
  name: "relu3"
  type: "ReLU"
  bottom: "conv3"
  top: "relu3"
}
layer {
  name: "conv4"
  type: "Convolution"
  bottom: "relu3"
  top: "conv4"
  param {
    lr_mult: 1
    decay_mult: 1
  }
  param {
    lr_mult: 2
    decay_mult: 0
  }
  convolution_param {
    num_output: 384
    pad: 1
    kernel_size: 3
    group: 2
    weight_filler {
      type: "gaussian"
      std: 0.01
    }
    bias_filler {
      type: "constant"
    }
  }
}
layer {
  name: "relu4"
  type: "ReLU"
  bottom: "conv4"
  top: "relu4"
}
layer {
  name: "conv5"
  type: "Convolution"
  bottom: "relu4"
  top: "conv5"
  param {
    lr_mult: 1
    decay_mult: 1
  }
  param {
    lr_mult: 2
    decay_mult: 0
  }
  convolution_param {
    num_output: 256
    pad: 1
    kernel_size: 3
    group: 2
    weight_filler {
      type: "gaussian"
      std: 0.01
    }
    bias_filler {
      type: "constant"
    }
  }
}
layer {
  name: "relu5"
  type: "ReLU"
  bottom: "conv5"
  top: "relu5"
}
layer {
  name: "pool5"
  type: "Pooling"
  bottom: "relu5"
  top: "pool5"
  pooling_param {
    pool: MAX
    kernel_size: 3
    stride: 2
  }
}
layer {
  name: "fc6"
  type: "InnerProduct"
  bottom: "pool5"
  top: "fc6"
  param {
    lr_mult: 1
    decay_mult: 1
  }
  param {
    lr_mult: 2
    decay_mult: 0
  }
  inner_product_param {
    num_output: 2048
    weight_filler {
      type: "gaussian"
      std: 0.005
    }
    bias_filler {
      type: "constant"
    }
  }
}
layer {
  name: "relu6"
  type: "ReLU"
  bottom: "fc6"
  top: "relu6"
}
layer {
  name: "drop6"
  type: "Dropout"
  bottom: "relu6"
  top: "drop6"
  dropout_param {
    dropout_ratio: 0.5
  }
}
layer {
  name: "fc7"
  type: "InnerProduct"
  bottom: "drop6"
  top: "fc7"
  param {
    lr_mult: 1
    decay_mult: 1
  }
  param {
    lr_mult: 2
    decay_mult: 0
  }
  inner_product_param {
    num_output: 2048
    weight_filler {
      type: "gaussian"
      std: 0.005
    }
    bias_filler {
      type: "constant"
    }
  }
}
layer {
  name: "relu7"
  type: "ReLU"
  bottom: "fc7"
  top: "relu7"
}
layer {
  name: "drop7"
  type: "Dropout"
  bottom: "relu7"
  top: "drop7"
  dropout_param {
    dropout_ratio: 0.5
  }
}
layer {
  name: "fc8"
  type: "InnerProduct"
  bottom: "drop7"
  top: "fc8"
  param {
    lr_mult: 1
    decay_mult: 1
  }
  param {
    lr_mult: 2
    decay_mult: 0
  }
  inner_product_param {
    num_output: 1000
    weight_filler {
      type: "gaussian"
      std: 0.01
    }
    bias_filler {
      type: "constant"
    }
  }
}
layer {
  name: "accuracy"
  type: "Accuracy"
  bottom: "fc8"
  bottom: "label"
  top: "accuracy"
  include {
    phase: TEST
  }
}
layer {
  name: "loss"
  type: "SoftmaxWithLoss"
  bottom: "fc8"
  bottom: "label"
  top: "loss"
}
I0414 16:13:20.646229 12023 layer_factory.hpp:76] Creating layer data
I0414 16:13:20.646327 12023 net.cpp:106] Creating Layer data
I0414 16:13:20.646348 12023 net.cpp:411] data -> data
I0414 16:13:20.646361 12023 net.cpp:411] data -> label
I0414 16:13:20.647136 12031 db_lmdb.cpp:38] Opened lmdb /home/old-ufo/storage/datasets/imagenet/imgs128/lmdb/ilsvrc12_128_val_lmdb
I0414 16:13:20.647735 12023 data_layer.cpp:41] output data size: 50,3,128,128
I0414 16:13:20.660248 12023 net.cpp:150] Setting up data
I0414 16:13:20.660276 12023 net.cpp:157] Top shape: 50 3 128 128 (2457600)
I0414 16:13:20.660284 12023 net.cpp:157] Top shape: 50 (50)
I0414 16:13:20.660289 12023 net.cpp:165] Memory required for data: 9830600
I0414 16:13:20.660295 12023 layer_factory.hpp:76] Creating layer label_data_1_split
I0414 16:13:20.660308 12023 net.cpp:106] Creating Layer label_data_1_split
I0414 16:13:20.660315 12023 net.cpp:454] label_data_1_split <- label
I0414 16:13:20.660325 12023 net.cpp:411] label_data_1_split -> label_data_1_split_0
I0414 16:13:20.660337 12023 net.cpp:411] label_data_1_split -> label_data_1_split_1
I0414 16:13:20.660410 12023 net.cpp:150] Setting up label_data_1_split
I0414 16:13:20.660421 12023 net.cpp:157] Top shape: 50 (50)
I0414 16:13:20.660428 12023 net.cpp:157] Top shape: 50 (50)
I0414 16:13:20.660431 12023 net.cpp:165] Memory required for data: 9831000
I0414 16:13:20.660435 12023 layer_factory.hpp:76] Creating layer conv1
I0414 16:13:20.660449 12023 net.cpp:106] Creating Layer conv1
I0414 16:13:20.660452 12023 net.cpp:454] conv1 <- data
I0414 16:13:20.660460 12023 net.cpp:411] conv1 -> conv1
I0414 16:13:20.664140 12023 net.cpp:150] Setting up conv1
I0414 16:13:20.664157 12023 net.cpp:157] Top shape: 50 96 30 30 (4320000)
I0414 16:13:20.664162 12023 net.cpp:165] Memory required for data: 27111000
I0414 16:13:20.664176 12023 layer_factory.hpp:76] Creating layer relu1
I0414 16:13:20.664186 12023 net.cpp:106] Creating Layer relu1
I0414 16:13:20.664191 12023 net.cpp:454] relu1 <- conv1
I0414 16:13:20.664197 12023 net.cpp:411] relu1 -> relu1
I0414 16:13:20.664782 12023 net.cpp:150] Setting up relu1
I0414 16:13:20.664793 12023 net.cpp:157] Top shape: 50 96 30 30 (4320000)
I0414 16:13:20.664798 12023 net.cpp:165] Memory required for data: 44391000
I0414 16:13:20.664803 12023 layer_factory.hpp:76] Creating layer pool1
I0414 16:13:20.664813 12023 net.cpp:106] Creating Layer pool1
I0414 16:13:20.664819 12023 net.cpp:454] pool1 <- relu1
I0414 16:13:20.664826 12023 net.cpp:411] pool1 -> pool1
I0414 16:13:20.665460 12023 net.cpp:150] Setting up pool1
I0414 16:13:20.665472 12023 net.cpp:157] Top shape: 50 96 15 15 (1080000)
I0414 16:13:20.665478 12023 net.cpp:165] Memory required for data: 48711000
I0414 16:13:20.665483 12023 layer_factory.hpp:76] Creating layer conv2
I0414 16:13:20.665494 12023 net.cpp:106] Creating Layer conv2
I0414 16:13:20.665498 12023 net.cpp:454] conv2 <- pool1
I0414 16:13:20.665508 12023 net.cpp:411] conv2 -> conv2
I0414 16:13:20.677129 12023 net.cpp:150] Setting up conv2
I0414 16:13:20.677152 12023 net.cpp:157] Top shape: 50 256 15 15 (2880000)
I0414 16:13:20.677156 12023 net.cpp:165] Memory required for data: 60231000
I0414 16:13:20.677175 12023 layer_factory.hpp:76] Creating layer relu2
I0414 16:13:20.677186 12023 net.cpp:106] Creating Layer relu2
I0414 16:13:20.677191 12023 net.cpp:454] relu2 <- conv2
I0414 16:13:20.677201 12023 net.cpp:411] relu2 -> relu2
I0414 16:13:20.677816 12023 net.cpp:150] Setting up relu2
I0414 16:13:20.677830 12023 net.cpp:157] Top shape: 50 256 15 15 (2880000)
I0414 16:13:20.677834 12023 net.cpp:165] Memory required for data: 71751000
I0414 16:13:20.677839 12023 layer_factory.hpp:76] Creating layer pool2
I0414 16:13:20.677848 12023 net.cpp:106] Creating Layer pool2
I0414 16:13:20.677852 12023 net.cpp:454] pool2 <- relu2
I0414 16:13:20.677861 12023 net.cpp:411] pool2 -> pool2
I0414 16:13:20.678493 12023 net.cpp:150] Setting up pool2
I0414 16:13:20.678505 12023 net.cpp:157] Top shape: 50 256 7 7 (627200)
I0414 16:13:20.678510 12023 net.cpp:165] Memory required for data: 74259800
I0414 16:13:20.678527 12023 layer_factory.hpp:76] Creating layer conv3
I0414 16:13:20.678542 12023 net.cpp:106] Creating Layer conv3
I0414 16:13:20.678549 12023 net.cpp:454] conv3 <- pool2
I0414 16:13:20.678558 12023 net.cpp:411] conv3 -> conv3
I0414 16:13:20.703135 12023 net.cpp:150] Setting up conv3
I0414 16:13:20.703160 12023 net.cpp:157] Top shape: 50 384 7 7 (940800)
I0414 16:13:20.703164 12023 net.cpp:165] Memory required for data: 78023000
I0414 16:13:20.703181 12023 layer_factory.hpp:76] Creating layer relu3
I0414 16:13:20.703192 12023 net.cpp:106] Creating Layer relu3
I0414 16:13:20.703199 12023 net.cpp:454] relu3 <- conv3
I0414 16:13:20.703209 12023 net.cpp:411] relu3 -> relu3
I0414 16:13:20.703807 12023 net.cpp:150] Setting up relu3
I0414 16:13:20.703819 12023 net.cpp:157] Top shape: 50 384 7 7 (940800)
I0414 16:13:20.703824 12023 net.cpp:165] Memory required for data: 81786200
I0414 16:13:20.703829 12023 layer_factory.hpp:76] Creating layer conv4
I0414 16:13:20.703841 12023 net.cpp:106] Creating Layer conv4
I0414 16:13:20.703847 12023 net.cpp:454] conv4 <- relu3
I0414 16:13:20.703856 12023 net.cpp:411] conv4 -> conv4
I0414 16:13:20.724380 12023 net.cpp:150] Setting up conv4
I0414 16:13:20.724405 12023 net.cpp:157] Top shape: 50 384 7 7 (940800)
I0414 16:13:20.724409 12023 net.cpp:165] Memory required for data: 85549400
I0414 16:13:20.724421 12023 layer_factory.hpp:76] Creating layer relu4
I0414 16:13:20.724431 12023 net.cpp:106] Creating Layer relu4
I0414 16:13:20.724437 12023 net.cpp:454] relu4 <- conv4
I0414 16:13:20.724447 12023 net.cpp:411] relu4 -> relu4
I0414 16:13:20.725124 12023 net.cpp:150] Setting up relu4
I0414 16:13:20.725136 12023 net.cpp:157] Top shape: 50 384 7 7 (940800)
I0414 16:13:20.725141 12023 net.cpp:165] Memory required for data: 89312600
I0414 16:13:20.725144 12023 layer_factory.hpp:76] Creating layer conv5
I0414 16:13:20.725159 12023 net.cpp:106] Creating Layer conv5
I0414 16:13:20.725164 12023 net.cpp:454] conv5 <- relu4
I0414 16:13:20.725174 12023 net.cpp:411] conv5 -> conv5
I0414 16:13:20.740221 12023 net.cpp:150] Setting up conv5
I0414 16:13:20.740245 12023 net.cpp:157] Top shape: 50 256 7 7 (627200)
I0414 16:13:20.740250 12023 net.cpp:165] Memory required for data: 91821400
I0414 16:13:20.740265 12023 layer_factory.hpp:76] Creating layer relu5
I0414 16:13:20.740277 12023 net.cpp:106] Creating Layer relu5
I0414 16:13:20.740283 12023 net.cpp:454] relu5 <- conv5
I0414 16:13:20.740293 12023 net.cpp:411] relu5 -> relu5
I0414 16:13:20.740890 12023 net.cpp:150] Setting up relu5
I0414 16:13:20.740901 12023 net.cpp:157] Top shape: 50 256 7 7 (627200)
I0414 16:13:20.740906 12023 net.cpp:165] Memory required for data: 94330200
I0414 16:13:20.740909 12023 layer_factory.hpp:76] Creating layer pool5
I0414 16:13:20.740919 12023 net.cpp:106] Creating Layer pool5
I0414 16:13:20.740924 12023 net.cpp:454] pool5 <- relu5
I0414 16:13:20.740931 12023 net.cpp:411] pool5 -> pool5
I0414 16:13:20.741549 12023 net.cpp:150] Setting up pool5
I0414 16:13:20.741560 12023 net.cpp:157] Top shape: 50 256 3 3 (115200)
I0414 16:13:20.741565 12023 net.cpp:165] Memory required for data: 94791000
I0414 16:13:20.741570 12023 layer_factory.hpp:76] Creating layer fc6
I0414 16:13:20.741580 12023 net.cpp:106] Creating Layer fc6
I0414 16:13:20.741585 12023 net.cpp:454] fc6 <- pool5
I0414 16:13:20.741595 12023 net.cpp:411] fc6 -> fc6
I0414 16:13:20.861078 12023 net.cpp:150] Setting up fc6
I0414 16:13:20.861105 12023 net.cpp:157] Top shape: 50 2048 (102400)
I0414 16:13:20.861110 12023 net.cpp:165] Memory required for data: 95200600
I0414 16:13:20.861122 12023 layer_factory.hpp:76] Creating layer relu6
I0414 16:13:20.861136 12023 net.cpp:106] Creating Layer relu6
I0414 16:13:20.861141 12023 net.cpp:454] relu6 <- fc6
I0414 16:13:20.861151 12023 net.cpp:411] relu6 -> relu6
I0414 16:13:20.861995 12023 net.cpp:150] Setting up relu6
I0414 16:13:20.862009 12023 net.cpp:157] Top shape: 50 2048 (102400)
I0414 16:13:20.862013 12023 net.cpp:165] Memory required for data: 95610200
I0414 16:13:20.862018 12023 layer_factory.hpp:76] Creating layer drop6
I0414 16:13:20.862041 12023 net.cpp:106] Creating Layer drop6
I0414 16:13:20.862046 12023 net.cpp:454] drop6 <- relu6
I0414 16:13:20.862054 12023 net.cpp:411] drop6 -> drop6
I0414 16:13:20.862104 12023 net.cpp:150] Setting up drop6
I0414 16:13:20.862112 12023 net.cpp:157] Top shape: 50 2048 (102400)
I0414 16:13:20.862117 12023 net.cpp:165] Memory required for data: 96019800
I0414 16:13:20.862121 12023 layer_factory.hpp:76] Creating layer fc7
I0414 16:13:20.862133 12023 net.cpp:106] Creating Layer fc7
I0414 16:13:20.862138 12023 net.cpp:454] fc7 <- drop6
I0414 16:13:20.862145 12023 net.cpp:411] fc7 -> fc7
I0414 16:13:20.967846 12023 net.cpp:150] Setting up fc7
I0414 16:13:20.967876 12023 net.cpp:157] Top shape: 50 2048 (102400)
I0414 16:13:20.967881 12023 net.cpp:165] Memory required for data: 96429400
I0414 16:13:20.967893 12023 layer_factory.hpp:76] Creating layer relu7
I0414 16:13:20.967905 12023 net.cpp:106] Creating Layer relu7
I0414 16:13:20.967911 12023 net.cpp:454] relu7 <- fc7
I0414 16:13:20.967919 12023 net.cpp:411] relu7 -> relu7
I0414 16:13:20.968669 12023 net.cpp:150] Setting up relu7
I0414 16:13:20.968682 12023 net.cpp:157] Top shape: 50 2048 (102400)
I0414 16:13:20.968685 12023 net.cpp:165] Memory required for data: 96839000
I0414 16:13:20.968690 12023 layer_factory.hpp:76] Creating layer drop7
I0414 16:13:20.968699 12023 net.cpp:106] Creating Layer drop7
I0414 16:13:20.968705 12023 net.cpp:454] drop7 <- relu7
I0414 16:13:20.968713 12023 net.cpp:411] drop7 -> drop7
I0414 16:13:20.968761 12023 net.cpp:150] Setting up drop7
I0414 16:13:20.968770 12023 net.cpp:157] Top shape: 50 2048 (102400)
I0414 16:13:20.968773 12023 net.cpp:165] Memory required for data: 97248600
I0414 16:13:20.968778 12023 layer_factory.hpp:76] Creating layer fc8
I0414 16:13:20.968789 12023 net.cpp:106] Creating Layer fc8
I0414 16:13:20.968794 12023 net.cpp:454] fc8 <- drop7
I0414 16:13:20.968801 12023 net.cpp:411] fc8 -> fc8
I0414 16:13:21.020666 12023 net.cpp:150] Setting up fc8
I0414 16:13:21.020696 12023 net.cpp:157] Top shape: 50 1000 (50000)
I0414 16:13:21.020700 12023 net.cpp:165] Memory required for data: 97448600
I0414 16:13:21.020712 12023 layer_factory.hpp:76] Creating layer fc8_fc8_0_split
I0414 16:13:21.020726 12023 net.cpp:106] Creating Layer fc8_fc8_0_split
I0414 16:13:21.020731 12023 net.cpp:454] fc8_fc8_0_split <- fc8
I0414 16:13:21.020741 12023 net.cpp:411] fc8_fc8_0_split -> fc8_fc8_0_split_0
I0414 16:13:21.020752 12023 net.cpp:411] fc8_fc8_0_split -> fc8_fc8_0_split_1
I0414 16:13:21.020804 12023 net.cpp:150] Setting up fc8_fc8_0_split
I0414 16:13:21.020812 12023 net.cpp:157] Top shape: 50 1000 (50000)
I0414 16:13:21.020817 12023 net.cpp:157] Top shape: 50 1000 (50000)
I0414 16:13:21.020823 12023 net.cpp:165] Memory required for data: 97848600
I0414 16:13:21.020826 12023 layer_factory.hpp:76] Creating layer accuracy
I0414 16:13:21.020841 12023 net.cpp:106] Creating Layer accuracy
I0414 16:13:21.020849 12023 net.cpp:454] accuracy <- fc8_fc8_0_split_0
I0414 16:13:21.020855 12023 net.cpp:454] accuracy <- label_data_1_split_0
I0414 16:13:21.020862 12023 net.cpp:411] accuracy -> accuracy
…
