…
      source: "/home/old-ufo/storage/datasets/imagenet/imgs128/lmdb/ilsvrc12_128_train_lmdb"
      batch_size: 512
      backend: LMDB
    }
  }
  layer {
    name: "data"
    type: "Data"
    top: "data"
    top: "label"
    include {
      phase: TEST
    }
    transform_param {
      scale: 0.04
      mirror: false
      crop_size: 128
      mean_value: 104
      mean_value: 117
      mean_value: 123
      force_color: true
    }
    data_param {
      source: "/home/old-ufo/storage/datasets/imagenet/imgs128/lmdb/ilsvrc12_128_val_lmdb"
      batch_size: 50
      backend: LMDB
    }
  }
  layer {
    name: "conv1"
    type: "Convolution"
    bottom: "data"
    top: "conv1"
    param {
      lr_mult: 1
      decay_mult: 1
    }
    param {
      lr_mult: 2
      decay_mult: 0
    }
    convolution_param {
      num_output: 96
      kernel_size: 11
      stride: 4
      weight_filler {
        type: "gaussian"
        std: 0.01
      }
      bias_filler {
        type: "constant"
      }
    }
  }
  layer {
    name: "relu1"
    type: "ReLU"
    bottom: "conv1"
    top: "relu1"
  }
  layer {
    name: "pool1"
    type: "Pooling"
    bottom: "relu1"
    top: "pool1"
    pooling_param {
      pool: MAX
      kernel_size: 3
      stride: 2
    }
  }
  layer {
    name: "conv2"
    type: "Convolution"
    bottom: "pool1"
    top: "conv2"
    param {
      lr_mult: 1
      decay_mult: 1
    }
    param {
      lr_mult: 2
      decay_mult: 0
    }
    convolution_param {
      num_output: 256
      pad: 2
      kernel_size: 5
      group: 2
      weight_filler {
        type: "gaussian"
        std: 0.01
      }
      bias_filler {
        type: "constant"
      }
    }
  }
  layer {
    name: "relu2"
    type: "ReLU"
    bottom: "conv2"
    top: "relu2"
  }
  layer {
    name: "pool2"
    type: "Pooling"
    bottom: "relu2"
    top: "pool2"
    pooling_param {
      pool: MAX
      kernel_size: 3
      stride: 2
    }
  }
  layer {
    name: "conv3"
    type: "Convolution"
    bottom: "pool2"
    top: "conv3"
    param {
      lr_mult: 1
      decay_mult: 1
    }
    param {
      lr_mult: 2
      decay_mult: 0
    }
    convolution_param {
      num_output: 384
      pad: 1
      kernel_size: 3
      weight_filler {
        type: "gaussian"
        std: 0.01
      }
      bias_filler {
        type: "constant"
      }
    }
  }
  layer {
    name: "relu3"
    type: "ReLU"
    bottom: "conv3"
    top: "relu3"
  }
  layer {
    name: "conv4"
    type: "Convolution"
    bottom: "relu3"
    top: "conv4"
    param {
      lr_mult: 1
      decay_mult: 1
    }
    param {
      lr_mult: 2
      decay_mult: 0
    }
    convolution_param {
      num_output: 384
      pad: 1
      kernel_size: 3
      group: 2
      weight_filler {
        type: "gaussian"
        std: 0.01
      }
      bias_filler {
        type: "constant"
      }
    }
  }
  layer {
    name: "relu4"
    type: "ReLU"
    bottom: "conv4"
    top: "relu4"
  }
  layer {
    name: "conv5"
    type: "Convolution"
    bottom: "relu4"
    top: "conv5"
    param {
      lr_mult: 1
      decay_mult: 1
    }
    param {
      lr_mult: 2
      decay_mult: 0
    }
    convolution_param {
      num_output: 256
      pad: 1
      kernel_size: 3
      group: 2
      weight_filler {
        type: "gaussian"
        std: 0.01
      }
      bias_filler {
        type: "constant"
      }
    }
  }
  layer {
    name: "relu5"
    type: "ReLU"
    bottom: "conv5"
    top: "relu5"
  }
  layer {
    name: "pool5"
    type: "Pooling"
    bottom: "relu5"
    top: "pool5"
    pooling_param {
      pool: MAX
      kernel_size: 3
      stride: 2
    }
  }
  layer {
    name: "fc6"
    type: "InnerProduct"
    bottom: "pool5"
    top: "fc6"
    param {
      lr_mult: 1
      decay_mult: 1
    }
    param {
      lr_mult: 2
      decay_mult: 0
    }
    inner_product_param {
      num_output: 2048
      weight_filler {
        type: "gaussian"
        std: 0.005
      }
      bias_filler {
        type: "constant"
      }
    }
  }
  layer {
    name: "relu6"
    type: "ReLU"
    bottom: "fc6"
    top: "relu6"
  }
  layer {
    name: "drop6"
    type: "Dropout"
    bottom: "relu6"
    top: "drop6"
    dropout_param {
      dropout_ratio: 0.5
    }
  }
  layer {
    name: "fc7"
    type: "InnerProduct"
    bottom: "drop6"
    top: "fc7"
    param {
      lr_mult: 1
      decay_mult: 1
    }
    param {
      lr_mult: 2
      decay_mult: 0
    }
    inner_product_param {
      num_output: 2048
      weight_filler {
        type: "gaussian"
        std: 0.005
      }
      bias_filler {
        type: "constant"
      }
    }
  }
  layer {
    name: "relu7"
    type: "ReLU"
    bottom: "fc7"
    top: "relu7"
  }
  layer {
    name: "drop7"
    type: "Dropout"
    bottom: "relu7"
    top: "drop7"
    dropout_param {
      dropout_ratio: 0.5
    }
  }
  layer {
    name: "fc8"
    type: "InnerProduct"
    bottom: "drop7"
    top: "fc8"
    param {
      lr_mult: 1
      decay_mult: 1
    }
    param {
      lr_mult: 2
      decay_mult: 0
    }
    inner_product_param {
      num_output: 1000
      weight_filler {
        type: "gaussian"
        std: 0.01
      }
      bias_filler {
        type: "constant"
      }
    }
  }
  layer {
    name: "accuracy"
    type: "Accuracy"
    bottom: "fc8"
    bottom: "label"
    top: "accuracy"
    include {
      phase: TEST
    }
  }
  layer {
    name: "loss"
    type: "SoftmaxWithLoss"
    bottom: "fc8"
    bottom: "label"
    top: "loss"
  }
}
test_initialization: true
iter_size: 1
type: "SGD"
I0406 04:34:53.601626  8382 solver.cpp:86] Creating training net specified in net_param.
I0406 04:34:53.601732  8382 net.cpp:322] The NetState phase (0) differed from the phase (1) specified by a rule in layer data
I0406 04:34:53.601773  8382 net.cpp:322] The NetState phase (0) differed from the phase (1) specified by a rule in layer accuracy
I0406 04:34:53.601979  8382 net.cpp:49] Initializing net from parameters: 
name: "CaffeNet"
state {
  phase: TRAIN
}
layer {
  name: "data"
  type: "Data"
  top: "data"
  top: "label"
  include {
    phase: TRAIN
  }
  transform_param {
    scale: 0.04
    mirror: true
    crop_size: 128
    mean_value: 104
    mean_value: 117
    mean_value: 124
    force_color: true
  }
  data_param {
    source: "/home/old-ufo/storage/datasets/imagenet/imgs128/lmdb/ilsvrc12_128_train_lmdb"
    batch_size: 512
    backend: LMDB
  }
}
layer {
  name: "conv1"
  type: "Convolution"
  bottom: "data"
  top: "conv1"
  param {
    lr_mult: 1
    decay_mult: 1
  }
  param {
    lr_mult: 2
    decay_mult: 0
  }
  convolution_param {
    num_output: 96
    kernel_size: 11
    stride: 4
    weight_filler {
      type: "gaussian"
      std: 0.01
    }
    bias_filler {
      type: "constant"
    }
  }
}
layer {
  name: "relu1"
  type: "ReLU"
  bottom: "conv1"
  top: "relu1"
}
layer {
  name: "pool1"
  type: "Pooling"
  bottom: "relu1"
  top: "pool1"
  pooling_param {
    pool: MAX
    kernel_size: 3
    stride: 2
  }
}
layer {
  name: "conv2"
  type: "Convolution"
  bottom: "pool1"
  top: "conv2"
  param {
    lr_mult: 1
    decay_mult: 1
  }
  param {
    lr_mult: 2
    decay_mult: 0
  }
  convolution_param {
    num_output: 256
    pad: 2
    kernel_size: 5
    group: 2
    weight_filler {
      type: "gaussian"
      std: 0.01
    }
    bias_filler {
      type: "constant"
    }
  }
}
layer {
  name: "relu2"
  type: "ReLU"
  bottom: "conv2"
  top: "relu2"
}
layer {
  name: "pool2"
  type: "Pooling"
  bottom: "relu2"
  top: "pool2"
  pooling_param {
    pool: MAX
    kernel_size: 3
    stride: 2
  }
}
layer {
  name: "conv3"
  type: "Convolution"
  bottom: "pool2"
  top: "conv3"
  param {
    lr_mult: 1
    decay_mult: 1
  }
  param {
    lr_mult: 2
    decay_mult: 0
  }
  convolution_param {
    num_output: 384
    pad: 1
    kernel_size: 3
    weight_filler {
      type: "gaussian"
      std: 0.01
    }
    bias_filler {
      type: "constant"
    }
  }
}
layer {
  name: "relu3"
  type: "ReLU"
  bottom: "conv3"
  top: "relu3"
}
layer {
  name: "conv4"
  type: "Convolution"
  bottom: "relu3"
  top: "conv4"
  param {
    lr_mult: 1
    decay_mult: 1
  }
  param {
    lr_mult: 2
    decay_mult: 0
  }
  convolution_param {
    num_output: 384
    pad: 1
    kernel_size: 3
    group: 2
    weight_filler {
      type: "gaussian"
      std: 0.01
    }
    bias_filler {
      type: "constant"
    }
  }
}
layer {
  name: "relu4"
  type: "ReLU"
  bottom: "conv4"
  top: "relu4"
}
layer {
  name: "conv5"
  type: "Convolution"
  bottom: "relu4"
  top: "conv5"
  param {
    lr_mult: 1
    decay_mult: 1
  }
  param {
    lr_mult: 2
    decay_mult: 0
  }
  convolution_param {
    num_output: 256
    pad: 1
    kernel_size: 3
    group: 2
    weight_filler {
      type: "gaussian"
      std: 0.01
    }
    bias_filler {
      type: "constant"
    }
  }
}
layer {
  name: "relu5"
  type: "ReLU"
  bottom: "conv5"
  top: "relu5"
}
layer {
  name: "pool5"
  type: "Pooling"
  bottom: "relu5"
  top: "pool5"
  pooling_param {
    pool: MAX
    kernel_size: 3
    stride: 2
  }
}
layer {
  name: "fc6"
  type: "InnerProduct"
  bottom: "pool5"
  top: "fc6"
  param {
    lr_mult: 1
    decay_mult: 1
  }
  param {
    lr_mult: 2
    decay_mult: 0
  }
  inner_product_param {
    num_output: 2048
    weight_filler {
      type: "gaussian"
      std: 0.005
    }
    bias_filler {
      type: "constant"
    }
  }
}
layer {
  name: "relu6"
  type: "ReLU"
  bottom: "fc6"
  top: "relu6"
}
layer {
  name: "drop6"
  type: "Dropout"
  bottom: "relu6"
  top: "drop6"
  dropout_param {
    dropout_ratio: 0.5
  }
}
layer {
  name: "fc7"
  type: "InnerProduct"
  bottom: "drop6"
  top: "fc7"
  param {
    lr_mult: 1
    decay_mult: 1
  }
  param {
    lr_mult: 2
    decay_mult: 0
  }
  inner_product_param {
    num_output: 2048
    weight_filler {
      type: "gaussian"
      std: 0.005
    }
    bias_filler {
      type: "constant"
    }
  }
}
layer {
  name: "relu7"
  type: "ReLU"
  bottom: "fc7"
  top: "relu7"
}
layer {
  name: "drop7"
  type: "Dropout"
  bottom: "relu7"
  top: "drop7"
  dropout_param {
    dropout_ratio: 0.5
  }
}
layer {
  name: "fc8"
  type: "InnerProduct"
  bottom: "drop7"
  top: "fc8"
  param {
    lr_mult: 1
    decay_mult: 1
  }
  param {
    lr_mult: 2
    decay_mult: 0
  }
  inner_product_param {
    num_output: 1000
    weight_filler {
      type: "gaussian"
      std: 0.01
    }
    bias_filler {
      type: "constant"
    }
  }
}
layer {
  name: "loss"
  type: "SoftmaxWithLoss"
  bottom: "fc8"
  bottom: "label"
  top: "loss"
}
I0406 04:34:53.602115  8382 layer_factory.hpp:76] Creating layer data
I0406 04:34:53.603117  8382 net.cpp:106] Creating Layer data
I0406 04:34:53.603130  8382 net.cpp:411] data -> data
I0406 04:34:53.603168  8382 net.cpp:411] data -> label
I0406 04:34:53.603898  8387 db_lmdb.cpp:38] Opened lmdb /home/old-ufo/storage/datasets/imagenet/imgs128/lmdb/ilsvrc12_128_train_lmdb
I0406 04:34:53.613973  8382 data_layer.cpp:41] output data size: 512,3,128,128
I0406 04:34:53.743512  8382 net.cpp:150] Setting up data
I0406 04:34:53.743543  8382 net.cpp:157] Top shape: 512 3 128 128 (25165824)
I0406 04:34:53.743554  8382 net.cpp:157] Top shape: 512 (512)
I0406 04:34:53.743559  8382 net.cpp:165] Memory required for data: 100665344
I0406 04:34:53.743587  8382 layer_factory.hpp:76] Creating layer conv1
I0406 04:34:53.743620  8382 net.cpp:106] Creating Layer conv1
I0406 04:34:53.743630  8382 net.cpp:454] conv1 <- data
I0406 04:34:53.743649  8382 net.cpp:411] conv1 -> conv1
I0406 04:34:53.868263  8382 net.cpp:150] Setting up conv1
I0406 04:34:53.868290  8382 net.cpp:157] Top shape: 512 96 30 30 (44236800)
I0406 04:34:53.868295  8382 net.cpp:165] Memory required for data: 277612544
I0406 04:34:53.868316  8382 layer_factory.hpp:76] Creating layer relu1
I0406 04:34:53.868330  8382 net.cpp:106] Creating Layer relu1
I0406 04:34:53.868337  8382 net.cpp:454] relu1 <- conv1
I0406 04:34:53.868345  8382 net.cpp:411] relu1 -> relu1
I0406 04:34:53.868875  8382 net.cpp:150] Setting up relu1
I0406 04:34:53.868886  8382 net.cpp:157] Top shape: 512 96 30 30 (44236800)
I0406 04:34:53.868891  8382 net.cpp:165] Memory required for data: 454559744
I0406 04:34:53.868896  8382 layer_factory.hpp:76] Creating layer pool1
I0406 04:34:53.868904  8382 net.cpp:106] Creating Layer pool1
I0406 04:34:53.868909  8382 net.cpp:454] pool1 <- relu1
I0406 04:34:53.868916  8382 net.cpp:411] pool1 -> pool1
I0406 04:34:53.869447  8382 net.cpp:150] Setting up pool1
I0406 04:34:53.869458  8382 net.cpp:157] Top shape: 512 96 15 15 (11059200)
I0406 04:34:53.869463  8382 net.cpp:165] Memory required for data: 498796544
I0406 04:34:53.869468  8382 layer_factory.hpp:76] Creating layer conv2
I0406 04:34:53.869482  8382 net.cpp:106] Creating Layer conv2
I0406 04:34:53.869487  8382 net.cpp:454] conv2 <- pool1
I0406 04:34:53.869494  8382 net.cpp:411] conv2 -> conv2
I0406 04:34:53.880576  8382 net.cpp:150] Setting up conv2
I0406 04:34:53.880602  8382 net.cpp:157] Top shape: 512 256 15 15 (29491200)
I0406 04:34:53.880607  8382 net.cpp:165] Memory required for data: 616761344
I0406 04:34:53.880621  8382 layer_factory.hpp:76] Creating layer relu2
I0406 04:34:53.880633  8382 net.cpp:106] Creating Layer relu2
I0406 04:34:53.880640  8382 net.cpp:454] relu2 <- conv2
I0406 04:34:53.880648  8382 net.cpp:411] relu2 -> relu2
I0406 04:34:53.881175  8382 net.cpp:150] Setting up relu2
I0406 04:34:53.881186  8382 net.cpp:157] Top shape: 512 256 15 15 (29491200)
I0406 04:34:53.881191  8382 net.cpp:165] Memory required for data: 734726144
I0406 04:34:53.881196  8382 layer_factory.hpp:76] Creating layer pool2
I0406 04:34:53.881204  8382 net.cpp:106] Creating Layer pool2
I0406 04:34:53.881209  8382 net.cpp:454] pool2 <- relu2
I0406 04:34:53.881217  8382 net.cpp:411] pool2 -> pool2
I0406 04:34:53.881814  8382 net.cpp:150] Setting up pool2
I0406 04:34:53.881826  8382 net.cpp:157] Top shape: 512 256 7 7 (6422528)
I0406 04:34:53.881831  8382 net.cpp:165] Memory required for data: 760416256
I0406 04:34:53.881836  8382 layer_factory.hpp:76] Creating layer conv3
I0406 04:34:53.881849  8382 net.cpp:106] Creating Layer conv3
I0406 04:34:53.881853  8382 net.cpp:454] conv3 <- pool2
I0406 04:34:53.881861  8382 net.cpp:411] conv3 -> conv3
I0406 04:34:53.906323  8382 net.cpp:150] Setting up conv3
I0406 04:34:53.906348  8382 net.cpp:157] Top shape: 512 384 7 7 (9633792)
I0406 04:34:53.906353  8382 net.cpp:165] Memory required for data: 798951424
I0406 04:34:53.906368  8382 layer_factory.hpp:76] Creating layer relu3
I0406 04:34:53.906380  8382 net.cpp:106] Creating Layer relu3
I0406 04:34:53.906386  8382 net.cpp:454] relu3 <- conv3
I0406 04:34:53.906394  8382 net.cpp:411] relu3 -> relu3
I0406 04:34:53.906934  8382 net.cpp:150] Setting up relu3
I0406 04:34:53.906945  8382 net.cpp:157] Top shape: 512 384 7 7 (9633792)
I0406 04:34:53.906949  8382 net.cpp:165] Memory required for data: 837486592
I0406 04:34:53.906955  8382 layer_factory.hpp:76] Creating layer conv4
I0406 04:34:53.906965  8382 net.cpp:106] Creating Layer conv4
I0406 04:34:53.906971  8382 net.cpp:454] conv4 <- relu3
I0406 04:34:53.906980  8382 net.cpp:411] conv4 -> conv4
I0406 04:34:53.927546  8382 net.cpp:150] Setting up conv4
I0406 04:34:53.927572  8382 net.cpp:157] Top shape: 512 384 7 7 (9633792)
I0406 04:34:53.927575  8382 net.cpp:165] Memory required for data: 876021760
I0406 04:34:53.927623  8382 layer_factory.hpp:76] Creating layer relu4
I0406 04:34:53.927639  8382 net.cpp:106] Creating Layer relu4
I0406 04:34:53.927644  8382 net.cpp:454] relu4 <- conv4
I0406 04:34:53.927654  8382 net.cpp:411] relu4 -> relu4
I0406 04:34:53.928227  8382 net.cpp:150] Setting up relu4
I0406 04:34:53.928238  8382 net.cpp:157] Top shape: 512 384 7 7 (9633792)
I0406 04:34:53.928243  8382 net.cpp:165] Memory required for data: 914556928
I0406 04:34:53.928248  8382 layer_factory.hpp:76] Creating layer conv5
I0406 04:34:53.928261  8382 net.cpp:106] Creating Layer conv5
I0406 04:34:53.928267  8382 net.cpp:454] conv5 <- relu4
I0406 04:34:53.928274  8382 net.cpp:411] conv5 -> conv5
I0406 04:34:53.943295  8382 net.cpp:150] Setting up conv5
I0406 04:34:53.943320  8382 net.cpp:157] Top shape: 512 256 7 7 (6422528)
I0406 04:34:53.943325  8382 net.cpp:165] Memory required for data: 940247040
I0406 04:34:53.943343  8382 layer_factory.hpp:76] Creating layer relu5
I0406 04:34:53.943354  8382 net.cpp:106] Creating Layer relu5
I0406 04:34:53.943361  8382 net.cpp:454] relu5 <- conv5
I0406 04:34:53.943370  8382 net.cpp:411] relu5 -> relu5
I0406 04:34:53.943939  8382 net.cpp:150] Setting up relu5
I0406 04:34:53.943951  8382 net.cpp:157] Top shape: 512 256 7 7 (6422528)
I0406 04:34:53.943955  8382 net.cpp:165] Memory required for data: 965937152
I0406 04:34:53.943959  8382 layer_factory.hpp:76] Creating layer pool5
I0406 04:34:53.943967  8382 net.cpp:106] Creating Layer pool5
I0406 04:34:53.943972  8382 net.cpp:454] pool5 <- relu5
I0406 04:34:53.943985  8382 net.cpp:411] pool5 -> pool5
I0406 04:34:53.944586  8382 net.cpp:150] Setting up pool5
I0406 04:34:53.944597  8382 net.cpp:157] Top shape: 512 256 3 3 (1179648)
I0406 04:34:53.944602  8382 net.cpp:165] Memory required for data: 970655744
I0406 04:34:53.944607  8382 layer_factory.hpp:76] Creating layer fc6
I0406 04:34:53.944625  8382 net.cpp:106] Creating Layer fc6
I0406 04:34:53.944631  8382 net.cpp:454] fc6 <- pool5
I0406 04:34:53.944641  8382 net.cpp:411] fc6 -> fc6
I0406 04:34:54.069092  8382 net.cpp:150] Setting up fc6
I0406 04:34:54.069116  8382 net.cpp:157] Top shape: 512 2048 (1048576)
I0406 04:34:54.069120  8382 net.cpp:165] Memory required for data: 974850048
I0406 04:34:54.069131  8382 layer_factory.hpp:76] Creating layer relu6
I0406 04:34:54.069144  8382 net.cpp:106] Creating Layer relu6
I0406 04:34:54.069150  8382 net.cpp:454] relu6 <- fc6
I0406 04:34:54.069159  8382 net.cpp:411] relu6 -> relu6
I0406 04:34:54.069823  8382 net.cpp:150] Setting up relu6
I0406 04:34:54.069835  8382 net.cpp:157] Top shape: 512 2048 (1048576)
I0406 04:34:54.069840  8382 net.cpp:165] Memory required for data: 979044352
I0406 04:34:54.069845  8382 layer_factory.hpp:76] Creating layer drop6
I0406 04:34:54.069856  8382 net.cpp:106] Creating Layer drop6
I0406 04:34:54.069861  8382 net.cpp:454] drop6 <- relu6
I0406 04:34:54.069870  8382 net.cpp:411] drop6 -> drop6
I0406 04:34:54.069916  8382 net.cpp:150] Setting up drop6
I0406 04:34:54.069922  8382 net.cpp:157] Top shape: 512 2048 (1048576)
I0406 04:34:54.069927  8382 net.cpp:165] Memory required for data: 983238656
I0406 04:34:54.069931  8382 layer_factory.hpp:76] Creating layer fc7
I0406 04:34:54.069943  8382 net.cpp:106] Creating Layer fc7
I0406 04:34:54.069948  8382 net.cpp:454] fc7 <- drop6
I0406 04:34:54.069960  8382 net.cpp:411] fc7 -> fc7
I0406 04:34:54.180238  8382 net.cpp:150] Setting up fc7
I0406 04:34:54.180264  8382 net.cpp:157] Top shape: 512 2048 (1048576)
I0406 04:34:54.180269  8382 net.cpp:165] Memory required for data: 987432960
I0406 04:34:54.180279  8382 layer_factory.hpp:76] Creating layer relu7
I0406 04:34:54.180290  8382 net.cpp:106] Creating Layer relu7
I0406 04:34:54.180295  8382 net.cpp:454] relu7 <- fc7
I0406 04:34:54.180305  8382 net.cpp:411] relu7 -> relu7
I0406 04:34:54.181066  8382 net.cpp:150] Setting up relu7
I0406 04:34:54.181077  8382 net.cpp:157] Top shape: 512 2048 (1048576)
I0406 04:34:54.181082  8382 net.cpp:165] Memory required for data: 991627264
I0406 04:34:54.181108  8382 layer_factory.hpp:76] Creating layer drop7
I0406 04:34:54.181120  8382 net.cpp:106] Creating Layer drop7
I0406 04:34:54.181125  8382 net.cpp:454] drop7 <- relu7
I0406 04:34:54.181133  8382 net.cpp:411] drop7 -> drop7
I0406 04:34:54.181188  8382 net.cpp:150] Setting up drop7
I0406 04:34:54.181196  8382 net.cpp:157] Top shape: 512 2048 (1048576)
I0406 04:34:54.181201  8382 net.cpp:165] Memory required for data: 995821568
I0406 04:34:54.181205  8382 layer_factory.hpp:76] Creating layer fc8
I0406 04:34:54.181216  8382 net.cpp:106] Creating Layer fc8
I0406 04:34:54.181221  8382 net.cpp:454] fc8 <- drop7
I0406 04:34:54.181229  8382 net.cpp:411] fc8 -> fc8
I0406 04:34:54.235358  8382 net.cpp:150] Setting up fc8
I0406 04:34:54.235384  8382 net.cpp:157] Top shape: 512 1000 (512000)
I0406 04:34:54.235388  8382 net.cpp:165] Memory required for data: 997869568
I0406 04:34:54.235400  8382 layer_factory.hpp:76] Creating layer loss
I0406 04:34:54.235411  8382 net.cpp:106] Creating Layer loss
I0406 04:34:54.235416  8382 net.cpp:454] loss <- fc8
I0406 04:34:54.235424  8382 net.cpp:454] loss <- label
I0406 04:34:54.235431  8382 net.cpp:411] loss -> loss
I0406 04:34:54.235445  8382 layer_factory.hpp:76] Creating layer loss
…
I0406 04:34:54.237643  8382 net.cpp:322] The NetState phase (1) differed from the phase (0) specified by a rule in layer data
I0406 04:34:54.237903  8382 net.cpp:49] Initializing net from parameters: 
name: "CaffeNet"
state {
  phase: TEST
}
layer {
  name: "data"
  type: "Data"
  top: "data"
  top: "label"
  include {
    phase: TEST
  }
  transform_param {
    scale: 0.04
    mirror: false
    crop_size: 128
    mean_value: 104
    mean_value: 117
    mean_value: 123
    force_color: true
  }
  data_param {
    source: "/home/old-ufo/storage/datasets/imagenet/imgs128/lmdb/ilsvrc12_128_val_lmdb"
    batch_size: 50
    backend: LMDB
  }
}
layer {
  name: "conv1"
  type: "Convolution"
  bottom: "data"
  top: "conv1"
  param {
    lr_mult: 1
    decay_mult: 1
  }
  param {
    lr_mult: 2
    decay_mult: 0
  }
  convolution_param {
    num_output: 96
    kernel_size: 11
    stride: 4
    weight_filler {
      type: "gaussian"
      std: 0.01
    }
    bias_filler {
      type: "constant"
    }
  }
}
layer {
  name: "relu1"
  type: "ReLU"
  bottom: "conv1"
  top: "relu1"
}
layer {
  name: "pool1"
  type: "Pooling"
  bottom: "relu1"
  top: "pool1"
  pooling_param {
    pool: MAX
    kernel_size: 3
    stride: 2
  }
}
layer {
  name: "conv2"
  type: "Convolution"
  bottom: "pool1"
  top: "conv2"
  param {
    lr_mult: 1
    decay_mult: 1
  }
  param {
    lr_mult: 2
    decay_mult: 0
  }
  convolution_param {
    num_output: 256
    pad: 2
    kernel_size: 5
    group: 2
    weight_filler {
      type: "gaussian"
      std: 0.01
    }
    bias_filler {
      type: "constant"
    }
  }
}
layer {
  name: "relu2"
  type: "ReLU"
  bottom: "conv2"
  top: "relu2"
}
layer {
  name: "pool2"
  type: "Pooling"
  bottom: "relu2"
  top: "pool2"
  pooling_param {
    pool: MAX
    kernel_size: 3
    stride: 2
  }
}
layer {
  name: "conv3"
  type: "Convolution"
  bottom: "pool2"
  top: "conv3"
  param {
    lr_mult: 1
    decay_mult: 1
  }
  param {
    lr_mult: 2
    decay_mult: 0
  }
  convolution_param {
    num_output: 384
    pad: 1
    kernel_size: 3
    weight_filler {
      type: "gaussian"
      std: 0.01
    }
    bias_filler {
      type: "constant"
    }
  }
}
layer {
  name: "relu3"
  type: "ReLU"
  bottom: "conv3"
  top: "relu3"
}
layer {
  name: "conv4"
  type: "Convolution"
  bottom: "relu3"
  top: "conv4"
  param {
    lr_mult: 1
    decay_mult: 1
  }
  param {
    lr_mult: 2
    decay_mult: 0
  }
  convolution_param {
    num_output: 384
    pad: 1
    kernel_size: 3
    group: 2
    weight_filler {
      type: "gaussian"
      std: 0.01
    }
    bias_filler {
      type: "constant"
    }
  }
}
layer {
  name: "relu4"
  type: "ReLU"
  bottom: "conv4"
  top: "relu4"
}
layer {
  name: "conv5"
  type: "Convolution"
  bottom: "relu4"
  top: "conv5"
  param {
    lr_mult: 1
    decay_mult: 1
  }
  param {
    lr_mult: 2
    decay_mult: 0
  }
  convolution_param {
    num_output: 256
    pad: 1
    kernel_size: 3
    group: 2
    weight_filler {
      type: "gaussian"
      std: 0.01
    }
    bias_filler {
      type: "constant"
    }
  }
}
layer {
  name: "relu5"
  type: "ReLU"
  bottom: "conv5"
  top: "relu5"
}
layer {
  name: "pool5"
  type: "Pooling"
  bottom: "relu5"
  top: "pool5"
  pooling_param {
    pool: MAX
    kernel_size: 3
    stride: 2
  }
}
layer {
  name: "fc6"
  type: "InnerProduct"
  bottom: "pool5"
  top: "fc6"
  param {
    lr_mult: 1
    decay_mult: 1
  }
  param {
    lr_mult: 2
    decay_mult: 0
  }
  inner_product_param {
    num_output: 2048
    weight_filler {
      type: "gaussian"
      std: 0.005
    }
    bias_filler {
      type: "constant"
    }
  }
}
layer {
  name: "relu6"
  type: "ReLU"
  bottom: "fc6"
  top: "relu6"
}
layer {
  name: "drop6"
  type: "Dropout"
  bottom: "relu6"
  top: "drop6"
  dropout_param {
    dropout_ratio: 0.5
  }
}
layer {
  name: "fc7"
  type: "InnerProduct"
  bottom: "drop6"
  top: "fc7"
  param {
    lr_mult: 1
    decay_mult: 1
  }
  param {
    lr_mult: 2
    decay_mult: 0
  }
  inner_product_param {
    num_output: 2048
    weight_filler {
      type: "gaussian"
      std: 0.005
    }
    bias_filler {
      type: "constant"
    }
  }
}
layer {
  name: "relu7"
  type: "ReLU"
  bottom: "fc7"
  top: "relu7"
}
layer {
  name: "drop7"
  type: "Dropout"
  bottom: "relu7"
  top: "drop7"
  dropout_param {
    dropout_ratio: 0.5
  }
}
layer {
  name: "fc8"
  type: "InnerProduct"
  bottom: "drop7"
  top: "fc8"
  param {
    lr_mult: 1
    decay_mult: 1
  }
  param {
    lr_mult: 2
    decay_mult: 0
  }
  inner_product_param {
    num_output: 1000
    weight_filler {
      type: "gaussian"
      std: 0.01
    }
    bias_filler {
      type: "constant"
    }
  }
}
layer {
  name: "accuracy"
  type: "Accuracy"
  bottom: "fc8"
  bottom: "label"
  top: "accuracy"
  include {
    phase: TEST
  }
}
layer {
  name: "loss"
  type: "SoftmaxWithLoss"
  bottom: "fc8"
  bottom: "label"
  top: "loss"
}
I0406 04:34:54.238078  8382 layer_factory.hpp:76] Creating layer data
I0406 04:34:54.238181  8382 net.cpp:106] Creating Layer data
I0406 04:34:54.238193  8382 net.cpp:411] data -> data
I0406 04:34:54.238205  8382 net.cpp:411] data -> label
I0406 04:34:54.239956  8389 db_lmdb.cpp:38] Opened lmdb /home/old-ufo/storage/datasets/imagenet/imgs128/lmdb/ilsvrc12_128_val_lmdb
I0406 04:34:54.240809  8382 data_layer.cpp:41] output data size: 50,3,128,128
I0406 04:34:54.255219  8382 net.cpp:150] Setting up data
I0406 04:34:54.255285  8382 net.cpp:157] Top shape: 50 3 128 128 (2457600)
I0406 04:34:54.255308  8382 net.cpp:157] Top shape: 50 (50)
I0406 04:34:54.255327  8382 net.cpp:165] Memory required for data: 9830600
I0406 04:34:54.255348  8382 layer_factory.hpp:76] Creating layer label_data_1_split
I0406 04:34:54.255375  8382 net.cpp:106] Creating Layer label_data_1_split
I0406 04:34:54.255396  8382 net.cpp:454] label_data_1_split <- label
I0406 04:34:54.255419  8382 net.cpp:411] label_data_1_split -> label_data_1_split_0
I0406 04:34:54.255445  8382 net.cpp:411] label_data_1_split -> label_data_1_split_1
I0406 04:34:54.255522  8382 net.cpp:150] Setting up label_data_1_split
I0406 04:34:54.255547  8382 net.cpp:157] Top shape: 50 (50)
I0406 04:34:54.255565  8382 net.cpp:157] Top shape: 50 (50)
I0406 04:34:54.255583  8382 net.cpp:165] Memory required for data: 9831000
I0406 04:34:54.255599  8382 layer_factory.hpp:76] Creating layer conv1
I0406 04:34:54.255623  8382 net.cpp:106] Creating Layer conv1
I0406 04:34:54.255641  8382 net.cpp:454] conv1 <- data
I0406 04:34:54.255661  8382 net.cpp:411] conv1 -> conv1
I0406 04:34:54.260437  8382 net.cpp:150] Setting up conv1
I0406 04:34:54.260499  8382 net.cpp:157] Top shape: 50 96 30 30 (4320000)
I0406 04:34:54.260519  8382 net.cpp:165] Memory required for data: 27111000
I0406 04:34:54.260550  8382 layer_factory.hpp:76] Creating layer relu1
I0406 04:34:54.260576  8382 net.cpp:106] Creating Layer relu1
I0406 04:34:54.260594  8382 net.cpp:454] relu1 <- conv1
I0406 04:34:54.260614  8382 net.cpp:411] relu1 -> relu1
I0406 04:34:54.261466  8382 net.cpp:150] Setting up relu1
I0406 04:34:54.261497  8382 net.cpp:157] Top shape: 50 96 30 30 (4320000)
I0406 04:34:54.261517  8382 net.cpp:165] Memory required for data: 44391000
I0406 04:34:54.261534  8382 layer_factory.hpp:76] Creating layer pool1
I0406 04:34:54.261560  8382 net.cpp:106] Creating Layer pool1
I0406 04:34:54.261579  8382 net.cpp:454] pool1 <- relu1
I0406 04:34:54.261600  8382 net.cpp:411] pool1 -> pool1
I0406 04:34:54.262459  8382 net.cpp:150] Setting up pool1
I0406 04:34:54.262491  8382 net.cpp:157] Top shape: 50 96 15 15 (1080000)
I0406 04:34:54.262511  8382 net.cpp:165] Memory required for data: 48711000
I0406 04:34:54.262528  8382 layer_factory.hpp:76] Creating layer conv2
I0406 04:34:54.262554  8382 net.cpp:106] Creating Layer conv2
I0406 04:34:54.262573  8382 net.cpp:454] conv2 <- pool1
I0406 04:34:54.262595  8382 net.cpp:411] conv2 -> conv2
I0406 04:34:54.279213  8382 net.cpp:150] Setting up conv2
I0406 04:34:54.279284  8382 net.cpp:157] Top shape: 50 256 15 15 (2880000)
I0406 04:34:54.279301  8382 net.cpp:165] Memory required for data: 60231000
I0406 04:34:54.279331  8382 layer_factory.hpp:76] Creating layer relu2
I0406 04:34:54.279356  8382 net.cpp:106] Creating Layer relu2
I0406 04:34:54.279376  8382 net.cpp:454] relu2 <- conv2
I0406 04:34:54.279399  8382 net.cpp:411] relu2 -> relu2
I0406 04:34:54.280257  8382 net.cpp:150] Setting up relu2
I0406 04:34:54.280289  8382 net.cpp:157] Top shape: 50 256 15 15 (2880000)
I0406 04:34:54.280309  8382 net.cpp:165] Memory required for data: 71751000
I0406 04:34:54.280328  8382 layer_factory.hpp:76] Creating layer pool2
I0406 04:34:54.280350  8382 net.cpp:106] Creating Layer pool2
I0406 04:34:54.280378  8382 net.cpp:454] pool2 <- relu2
I0406 04:34:54.280401  8382 net.cpp:411] pool2 -> pool2
I0406 04:34:54.281258  8382 net.cpp:150] Setting up pool2
I0406 04:34:54.281289  8382 net.cpp:157] Top shape: 50 256 7 7 (627200)
I0406 04:34:54.281318  8382 net.cpp:165] Memory required for data: 74259800
I0406 04:34:54.281337  8382 layer_factory.hpp:76] Creating layer conv3
I0406 04:34:54.281365  8382 net.cpp:106] Creating Layer conv3
I0406 04:34:54.281384  8382 net.cpp:454] conv3 <- pool2
I0406 04:34:54.281407  8382 net.cpp:411] conv3 -> conv3
I0406 04:34:54.318954  8382 net.cpp:150] Setting up conv3
I0406 04:34:54.319025  8382 net.cpp:157] Top shape: 50 384 7 7 (940800)
I0406 04:34:54.319041  8382 net.cpp:165] Memory required for data: 78023000
I0406 04:34:54.319072  8382 layer_factory.hpp:76] Creating layer relu3
I0406 04:34:54.319099  8382 net.cpp:106] Creating Layer relu3
I0406 04:34:54.319119  8382 net.cpp:454] relu3 <- conv3
I0406 04:34:54.319140  8382 net.cpp:411] relu3 -> relu3
I0406 04:34:54.319996  8382 net.cpp:150] Setting up relu3
I0406 04:34:54.320029  8382 net.cpp:157] Top shape: 50 384 7 7 (940800)
I0406 04:34:54.320049  8382 net.cpp:165] Memory required for data: 81786200
I0406 04:34:54.320066  8382 layer_factory.hpp:76] Creating layer conv4
I0406 04:34:54.320093  8382 net.cpp:106] Creating Layer conv4
I0406 04:34:54.320112  8382 net.cpp:454] conv4 <- relu3
I0406 04:34:54.320135  8382 net.cpp:411] conv4 -> conv4
I0406 04:34:54.349670  8382 net.cpp:150] Setting up conv4
I0406 04:34:54.349746  8382 net.cpp:157] Top shape: 50 384 7 7 (940800)
I0406 04:34:54.349768  8382 net.cpp:165] Memory required for data: 85549400
I0406 04:34:54.349795  8382 layer_factory.hpp:76] Creating layer relu4
I0406 04:34:54.349820  8382 net.cpp:106] Creating Layer relu4
I0406 04:34:54.349839  8382 net.cpp:454] relu4 <- conv4
I0406 04:34:54.349864  8382 net.cpp:411] relu4 -> relu4
I0406 04:34:54.350721  8382 net.cpp:150] Setting up relu4
I0406 04:34:54.350755  8382 net.cpp:157] Top shape: 50 384 7 7 (940800)
I0406 04:34:54.350775  8382 net.cpp:165] Memory required for data: 89312600
I0406 04:34:54.350793  8382 layer_factory.hpp:76] Creating layer conv5
I0406 04:34:54.350817  8382 net.cpp:106] Creating Layer conv5
I0406 04:34:54.350836  8382 net.cpp:454] conv5 <- relu4
I0406 04:34:54.350859  8382 net.cpp:411] conv5 -> conv5
I0406 04:34:54.372434  8382 net.cpp:150] Setting up conv5
I0406 04:34:54.372532  8382 net.cpp:157] Top shape: 50 256 7 7 (627200)
I0406 04:34:54.372550  8382 net.cpp:165] Memory required for data: 91821400
I0406 04:34:54.372582  8382 layer_factory.hpp:76] Creating layer relu5
I0406 04:34:54.372609  8382 net.cpp:106] Creating Layer relu5
I0406 04:34:54.372629  8382 net.cpp:454] relu5 <- conv5
I0406 04:34:54.372651  8382 net.cpp:411] relu5 -> relu5
I0406 04:34:54.373347  8382 net.cpp:150] Setting up relu5
I0406 04:34:54.373359  8382 net.cpp:157] Top shape: 50 256 7 7 (627200)
I0406 04:34:54.373363  8382 net.cpp:165] Memory required for data: 94330200
I0406 04:34:54.373368  8382 layer_factory.hpp:76] Creating layer pool5
I0406 04:34:54.373381  8382 net.cpp:106] Creating Layer pool5
I0406 04:34:54.373386  8382 net.cpp:454] pool5 <- relu5
I0406 04:34:54.373394  8382 net.cpp:411] pool5 -> pool5
I0406 04:34:54.374047  8382 net.cpp:150] Setting up pool5
I0406 04:34:54.374060  8382 net.cpp:157] Top shape: 50 256 3 3 (115200)
I0406 04:34:54.374065  8382 net.cpp:165] Memory required for data: 94791000
I0406 04:34:54.374069  8382 layer_factory.hpp:76] Creating layer fc6
I0406 04:34:54.374080  8382 net.cpp:106] Creating Layer fc6
I0406 04:34:54.374085  8382 net.cpp:454] fc6 <- pool5
I0406 04:34:54.374095  8382 net.cpp:411] fc6 -> fc6
I0406 04:34:54.494181  8382 net.cpp:150] Setting up fc6
I0406 04:34:54.494205  8382 net.cpp:157] Top shape: 50 2048 (102400)
I0406 04:34:54.494210  8382 net.cpp:165] Memory required for data: 95200600
I0406 04:34:54.494221  8382 layer_factory.hpp:76] Creating layer relu6
I0406 04:34:54.494235  8382 net.cpp:106] Creating Layer relu6
I0406 04:34:54.494240  8382 net.cpp:454] relu6 <- fc6
I0406 04:34:54.494248  8382 net.cpp:411] relu6 -> relu6
I0406 04:34:54.495118  8382 net.cpp:150] Setting up relu6
I0406 04:34:54.495131  8382 net.cpp:157] Top shape: 50 2048 (102400)
I0406 04:34:54.495148  8382 net.cpp:165] Memory required for data: 95610200
I0406 04:34:54.495154  8382 layer_factory.hpp:76] Creating layer drop6
I0406 04:34:54.495165  8382 net.cpp:106] Creating Layer drop6
I0406 04:34:54.495170  8382 net.cpp:454] drop6 <- relu6
I0406 04:34:54.495177  8382 net.cpp:411] drop6 -> drop6
I0406 04:34:54.495245  8382 net.cpp:150] Setting up drop6
I0406 04:34:54.495254  8382 net.cpp:157] Top shape: 50 2048 (102400)
I0406 04:34:54.495260  8382 net.cpp:165] Memory required for data: 96019800
I0406 04:34:54.495265  8382 layer_factory.hpp:76] Creating layer fc7
I0406 04:34:54.495275  8382 net.cpp:106] Creating Layer fc7
I0406 04:34:54.495280  8382 net.cpp:454] fc7 <- drop6
I0406 04:34:54.495288  8382 net.cpp:411] fc7 -> fc7
I0406 04:34:54.601945  8382 net.cpp:150] Setting up fc7
I0406 04:34:54.601970  8382 net.cpp:157] Top shape: 50 2048 (102400)
I0406 04:34:54.601974  8382 net.cpp:165] Memory required for data: 96429400
I0406 04:34:54.601985  8382 layer_factory.hpp:76] Creating layer relu7
I0406 04:34:54.601997  8382 net.cpp:106] Creating Layer relu7
I0406 04:34:54.602005  8382 net.cpp:454] relu7 <- fc7
I0406 04:34:54.602012  8382 net.cpp:411] relu7 -> relu7
I0406 04:34:54.602759  8382 net.cpp:150] Setting up relu7
I0406 04:34:54.602771  8382 net.cpp:157] Top shape: 50 2048 (102400)
I0406 04:34:54.602776  8382 net.cpp:165] Memory required for data: 96839000
I0406 04:34:54.602780  8382 layer_factory.hpp:76] Creating layer drop7
I0406 04:34:54.602790  8382 net.cpp:106] Creating Layer drop7
I0406 04:34:54.602797  8382 net.cpp:454] drop7 <- relu7
I0406 04:34:54.602803  8382 net.cpp:411] drop7 -> drop7
I0406 04:34:54.602855  8382 net.cpp:150] Setting up drop7
I0406 04:34:54.602862  8382 net.cpp:157] Top shape: 50 2048 (102400)
I0406 04:34:54.602866  8382 net.cpp:165] Memory required for data: 97248600
I0406 04:34:54.602871  8382 layer_factory.hpp:76] Creating layer fc8
I0406 04:34:54.602882  8382 net.cpp:106] Creating Layer fc8
I0406 04:34:54.602887  8382 net.cpp:454] fc8 <- drop7
I0406 04:34:54.602895  8382 net.cpp:411] fc8 -> fc8
I0406 04:34:54.655109  8382 net.cpp:150] Setting up fc8
I0406 04:34:54.655138  8382 net.cpp:157] Top shape: 50 1000 (50000)
I0406 04:34:54.655144  8382 net.cpp:165] Memory required for data: 97448600
I0406 04:34:54.655158  8382 layer_factory.hpp:76] Creating layer fc8_fc8_0_split
I0406 04:34:54.655170  8382 net.cpp:106] Creating Layer fc8_fc8_0_split
I0406 04:34:54.655179  8382 net.cpp:454] fc8_fc8_0_split <- fc8
I0406 04:34:54.655191  8382 net.cpp:411] fc8_fc8_0_split -> fc8_fc8_0_split_0
I0406 04:34:54.655206  8382 net.cpp:411] fc8_fc8_0_split -> fc8_fc8_0_split_1
I0406 04:34:54.655289  8382 net.cpp:150] Setting up fc8_fc8_0_split
I0406 04:34:54.655298  8382 net.cpp:157] Top shape: 50 1000 (50000)
I0406 04:34:54.655304  8382 net.cpp:157] Top shape: 50 1000 (50000)
I0406 04:34:54.655309  8382 net.cpp:165] Memory required for data: 97848600
I0406 04:34:54.655314  8382 layer_factory.hpp:76] Creating layer accuracy
I0406 04:34:54.655333  8382 net.cpp:106] Creating Layer accuracy
I0406 04:34:54.655339  8382 net.cpp:454] accuracy <- fc8_fc8_0_split_0
I0406 04:34:54.655344  8382 net.cpp:454] accuracy <- label_data_1_split_0
I0406 04:34:54.655352  8382 net.cpp:411] accuracy -> accuracy
…
