…
      source: "/home/old-ufo/storage/datasets/imagenet/imgs128/lmdb/ilsvrc12_128_train_lmdb"
      batch_size: 1024
      backend: LMDB
    }
  }
  layer {
    name: "data"
    type: "Data"
    top: "data"
    top: "label"
    include {
      phase: TEST
    }
    transform_param {
      scale: 0.04
      mirror: false
      crop_size: 128
      mean_value: 104
      mean_value: 117
      mean_value: 123
      force_color: true
    }
    data_param {
      source: "/home/old-ufo/storage/datasets/imagenet/imgs128/lmdb/ilsvrc12_128_val_lmdb"
      batch_size: 50
      backend: LMDB
    }
  }
  layer {
    name: "conv1"
    type: "Convolution"
    bottom: "data"
    top: "conv1"
    param {
      lr_mult: 1
      decay_mult: 1
    }
    param {
      lr_mult: 2
      decay_mult: 0
    }
    convolution_param {
      num_output: 96
      kernel_size: 11
      stride: 4
      weight_filler {
        type: "gaussian"
        std: 0.01
      }
      bias_filler {
        type: "constant"
      }
    }
  }
  layer {
    name: "relu1"
    type: "ReLU"
    bottom: "conv1"
    top: "relu1"
  }
  layer {
    name: "pool1"
    type: "Pooling"
    bottom: "relu1"
    top: "pool1"
    pooling_param {
      pool: MAX
      kernel_size: 3
      stride: 2
    }
  }
  layer {
    name: "conv2"
    type: "Convolution"
    bottom: "pool1"
    top: "conv2"
    param {
      lr_mult: 1
      decay_mult: 1
    }
    param {
      lr_mult: 2
      decay_mult: 0
    }
    convolution_param {
      num_output: 256
      pad: 2
      kernel_size: 5
      group: 2
      weight_filler {
        type: "gaussian"
        std: 0.01
      }
      bias_filler {
        type: "constant"
      }
    }
  }
  layer {
    name: "relu2"
    type: "ReLU"
    bottom: "conv2"
    top: "relu2"
  }
  layer {
    name: "pool2"
    type: "Pooling"
    bottom: "relu2"
    top: "pool2"
    pooling_param {
      pool: MAX
      kernel_size: 3
      stride: 2
    }
  }
  layer {
    name: "conv3"
    type: "Convolution"
    bottom: "pool2"
    top: "conv3"
    param {
      lr_mult: 1
      decay_mult: 1
    }
    param {
      lr_mult: 2
      decay_mult: 0
    }
    convolution_param {
      num_output: 384
      pad: 1
      kernel_size: 3
      weight_filler {
        type: "gaussian"
        std: 0.01
      }
      bias_filler {
        type: "constant"
      }
    }
  }
  layer {
    name: "relu3"
    type: "ReLU"
    bottom: "conv3"
    top: "relu3"
  }
  layer {
    name: "conv4"
    type: "Convolution"
    bottom: "relu3"
    top: "conv4"
    param {
      lr_mult: 1
      decay_mult: 1
    }
    param {
      lr_mult: 2
      decay_mult: 0
    }
    convolution_param {
      num_output: 384
      pad: 1
      kernel_size: 3
      group: 2
      weight_filler {
        type: "gaussian"
        std: 0.01
      }
      bias_filler {
        type: "constant"
      }
    }
  }
  layer {
    name: "relu4"
    type: "ReLU"
    bottom: "conv4"
    top: "relu4"
  }
  layer {
    name: "conv5"
    type: "Convolution"
    bottom: "relu4"
    top: "conv5"
    param {
      lr_mult: 1
      decay_mult: 1
    }
    param {
      lr_mult: 2
      decay_mult: 0
    }
    convolution_param {
      num_output: 256
      pad: 1
      kernel_size: 3
      group: 2
      weight_filler {
        type: "gaussian"
        std: 0.01
      }
      bias_filler {
        type: "constant"
      }
    }
  }
  layer {
    name: "relu5"
    type: "ReLU"
    bottom: "conv5"
    top: "relu5"
  }
  layer {
    name: "pool5"
    type: "Pooling"
    bottom: "relu5"
    top: "pool5"
    pooling_param {
      pool: MAX
      kernel_size: 3
      stride: 2
    }
  }
  layer {
    name: "fc6"
    type: "InnerProduct"
    bottom: "pool5"
    top: "fc6"
    param {
      lr_mult: 1
      decay_mult: 1
    }
    param {
      lr_mult: 2
      decay_mult: 0
    }
    inner_product_param {
      num_output: 2048
      weight_filler {
        type: "gaussian"
        std: 0.005
      }
      bias_filler {
        type: "constant"
      }
    }
  }
  layer {
    name: "relu6"
    type: "ReLU"
    bottom: "fc6"
    top: "relu6"
  }
  layer {
    name: "drop6"
    type: "Dropout"
    bottom: "relu6"
    top: "drop6"
    dropout_param {
      dropout_ratio: 0.5
    }
  }
  layer {
    name: "fc7"
    type: "InnerProduct"
    bottom: "drop6"
    top: "fc7"
    param {
      lr_mult: 1
      decay_mult: 1
    }
    param {
      lr_mult: 2
      decay_mult: 0
    }
    inner_product_param {
      num_output: 2048
      weight_filler {
        type: "gaussian"
        std: 0.005
      }
      bias_filler {
        type: "constant"
      }
    }
  }
  layer {
    name: "relu7"
    type: "ReLU"
    bottom: "fc7"
    top: "relu7"
  }
  layer {
    name: "drop7"
    type: "Dropout"
    bottom: "relu7"
    top: "drop7"
    dropout_param {
      dropout_ratio: 0.5
    }
  }
  layer {
    name: "fc8"
    type: "InnerProduct"
    bottom: "drop7"
    top: "fc8"
    param {
      lr_mult: 1
      decay_mult: 1
    }
    param {
      lr_mult: 2
      decay_mult: 0
    }
    inner_product_param {
      num_output: 1000
      weight_filler {
        type: "gaussian"
        std: 0.01
      }
      bias_filler {
        type: "constant"
      }
    }
  }
  layer {
    name: "accuracy"
    type: "Accuracy"
    bottom: "fc8"
    bottom: "label"
    top: "accuracy"
    include {
      phase: TEST
    }
  }
  layer {
    name: "loss"
    type: "SoftmaxWithLoss"
    bottom: "fc8"
    bottom: "label"
    top: "loss"
  }
}
test_initialization: true
iter_size: 1
type: "SGD"
I0411 08:54:06.350615 10647 solver.cpp:86] Creating training net specified in net_param.
I0411 08:54:06.350689 10647 net.cpp:322] The NetState phase (0) differed from the phase (1) specified by a rule in layer data
I0411 08:54:06.350713 10647 net.cpp:322] The NetState phase (0) differed from the phase (1) specified by a rule in layer accuracy
I0411 08:54:06.350834 10647 net.cpp:49] Initializing net from parameters: 
name: "CaffeNet"
state {
  phase: TRAIN
}
layer {
  name: "data"
  type: "Data"
  top: "data"
  top: "label"
  include {
    phase: TRAIN
  }
  transform_param {
    scale: 0.04
    mirror: true
    crop_size: 128
    mean_value: 104
    mean_value: 117
    mean_value: 124
    force_color: true
  }
  data_param {
    source: "/home/old-ufo/storage/datasets/imagenet/imgs128/lmdb/ilsvrc12_128_train_lmdb"
    batch_size: 1024
    backend: LMDB
  }
}
layer {
  name: "conv1"
  type: "Convolution"
  bottom: "data"
  top: "conv1"
  param {
    lr_mult: 1
    decay_mult: 1
  }
  param {
    lr_mult: 2
    decay_mult: 0
  }
  convolution_param {
    num_output: 96
    kernel_size: 11
    stride: 4
    weight_filler {
      type: "gaussian"
      std: 0.01
    }
    bias_filler {
      type: "constant"
    }
  }
}
layer {
  name: "relu1"
  type: "ReLU"
  bottom: "conv1"
  top: "relu1"
}
layer {
  name: "pool1"
  type: "Pooling"
  bottom: "relu1"
  top: "pool1"
  pooling_param {
    pool: MAX
    kernel_size: 3
    stride: 2
  }
}
layer {
  name: "conv2"
  type: "Convolution"
  bottom: "pool1"
  top: "conv2"
  param {
    lr_mult: 1
    decay_mult: 1
  }
  param {
    lr_mult: 2
    decay_mult: 0
  }
  convolution_param {
    num_output: 256
    pad: 2
    kernel_size: 5
    group: 2
    weight_filler {
      type: "gaussian"
      std: 0.01
    }
    bias_filler {
      type: "constant"
    }
  }
}
layer {
  name: "relu2"
  type: "ReLU"
  bottom: "conv2"
  top: "relu2"
}
layer {
  name: "pool2"
  type: "Pooling"
  bottom: "relu2"
  top: "pool2"
  pooling_param {
    pool: MAX
    kernel_size: 3
    stride: 2
  }
}
layer {
  name: "conv3"
  type: "Convolution"
  bottom: "pool2"
  top: "conv3"
  param {
    lr_mult: 1
    decay_mult: 1
  }
  param {
    lr_mult: 2
    decay_mult: 0
  }
  convolution_param {
    num_output: 384
    pad: 1
    kernel_size: 3
    weight_filler {
      type: "gaussian"
      std: 0.01
    }
    bias_filler {
      type: "constant"
    }
  }
}
layer {
  name: "relu3"
  type: "ReLU"
  bottom: "conv3"
  top: "relu3"
}
layer {
  name: "conv4"
  type: "Convolution"
  bottom: "relu3"
  top: "conv4"
  param {
    lr_mult: 1
    decay_mult: 1
  }
  param {
    lr_mult: 2
    decay_mult: 0
  }
  convolution_param {
    num_output: 384
    pad: 1
    kernel_size: 3
    group: 2
    weight_filler {
      type: "gaussian"
      std: 0.01
    }
    bias_filler {
      type: "constant"
    }
  }
}
layer {
  name: "relu4"
  type: "ReLU"
  bottom: "conv4"
  top: "relu4"
}
layer {
  name: "conv5"
  type: "Convolution"
  bottom: "relu4"
  top: "conv5"
  param {
    lr_mult: 1
    decay_mult: 1
  }
  param {
    lr_mult: 2
    decay_mult: 0
  }
  convolution_param {
    num_output: 256
    pad: 1
    kernel_size: 3
    group: 2
    weight_filler {
      type: "gaussian"
      std: 0.01
    }
    bias_filler {
      type: "constant"
    }
  }
}
layer {
  name: "relu5"
  type: "ReLU"
  bottom: "conv5"
  top: "relu5"
}
layer {
  name: "pool5"
  type: "Pooling"
  bottom: "relu5"
  top: "pool5"
  pooling_param {
    pool: MAX
    kernel_size: 3
    stride: 2
  }
}
layer {
  name: "fc6"
  type: "InnerProduct"
  bottom: "pool5"
  top: "fc6"
  param {
    lr_mult: 1
    decay_mult: 1
  }
  param {
    lr_mult: 2
    decay_mult: 0
  }
  inner_product_param {
    num_output: 2048
    weight_filler {
      type: "gaussian"
      std: 0.005
    }
    bias_filler {
      type: "constant"
    }
  }
}
layer {
  name: "relu6"
  type: "ReLU"
  bottom: "fc6"
  top: "relu6"
}
layer {
  name: "drop6"
  type: "Dropout"
  bottom: "relu6"
  top: "drop6"
  dropout_param {
    dropout_ratio: 0.5
  }
}
layer {
  name: "fc7"
  type: "InnerProduct"
  bottom: "drop6"
  top: "fc7"
  param {
    lr_mult: 1
    decay_mult: 1
  }
  param {
    lr_mult: 2
    decay_mult: 0
  }
  inner_product_param {
    num_output: 2048
    weight_filler {
      type: "gaussian"
      std: 0.005
    }
    bias_filler {
      type: "constant"
    }
  }
}
layer {
  name: "relu7"
  type: "ReLU"
  bottom: "fc7"
  top: "relu7"
}
layer {
  name: "drop7"
  type: "Dropout"
  bottom: "relu7"
  top: "drop7"
  dropout_param {
    dropout_ratio: 0.5
  }
}
layer {
  name: "fc8"
  type: "InnerProduct"
  bottom: "drop7"
  top: "fc8"
  param {
    lr_mult: 1
    decay_mult: 1
  }
  param {
    lr_mult: 2
    decay_mult: 0
  }
  inner_product_param {
    num_output: 1000
    weight_filler {
      type: "gaussian"
      std: 0.01
    }
    bias_filler {
      type: "constant"
    }
  }
}
layer {
  name: "loss"
  type: "SoftmaxWithLoss"
  bottom: "fc8"
  bottom: "label"
  top: "loss"
}
I0411 08:54:06.350930 10647 layer_factory.hpp:76] Creating layer data
I0411 08:54:06.351915 10647 net.cpp:106] Creating Layer data
I0411 08:54:06.351928 10647 net.cpp:411] data -> data
I0411 08:54:06.351972 10647 net.cpp:411] data -> label
I0411 08:54:06.352624 10652 db_lmdb.cpp:38] Opened lmdb /home/old-ufo/storage/datasets/imagenet/imgs128/lmdb/ilsvrc12_128_train_lmdb
I0411 08:54:06.362980 10647 data_layer.cpp:41] output data size: 1024,3,128,128
I0411 08:54:06.622373 10647 net.cpp:150] Setting up data
I0411 08:54:06.622402 10647 net.cpp:157] Top shape: 1024 3 128 128 (50331648)
I0411 08:54:06.622408 10647 net.cpp:157] Top shape: 1024 (1024)
I0411 08:54:06.622412 10647 net.cpp:165] Memory required for data: 201330688
I0411 08:54:06.622438 10647 layer_factory.hpp:76] Creating layer conv1
I0411 08:54:06.622457 10647 net.cpp:106] Creating Layer conv1
I0411 08:54:06.622464 10647 net.cpp:454] conv1 <- data
I0411 08:54:06.622478 10647 net.cpp:411] conv1 -> conv1
I0411 08:54:06.755513 10647 net.cpp:150] Setting up conv1
I0411 08:54:06.755539 10647 net.cpp:157] Top shape: 1024 96 30 30 (88473600)
I0411 08:54:06.755543 10647 net.cpp:165] Memory required for data: 555225088
I0411 08:54:06.755565 10647 layer_factory.hpp:76] Creating layer relu1
I0411 08:54:06.755579 10647 net.cpp:106] Creating Layer relu1
I0411 08:54:06.755584 10647 net.cpp:454] relu1 <- conv1
I0411 08:54:06.755594 10647 net.cpp:411] relu1 -> relu1
I0411 08:54:06.756131 10647 net.cpp:150] Setting up relu1
I0411 08:54:06.756142 10647 net.cpp:157] Top shape: 1024 96 30 30 (88473600)
I0411 08:54:06.756151 10647 net.cpp:165] Memory required for data: 909119488
I0411 08:54:06.756157 10647 layer_factory.hpp:76] Creating layer pool1
I0411 08:54:06.756167 10647 net.cpp:106] Creating Layer pool1
I0411 08:54:06.756173 10647 net.cpp:454] pool1 <- relu1
I0411 08:54:06.756181 10647 net.cpp:411] pool1 -> pool1
I0411 08:54:06.756707 10647 net.cpp:150] Setting up pool1
I0411 08:54:06.756719 10647 net.cpp:157] Top shape: 1024 96 15 15 (22118400)
I0411 08:54:06.756726 10647 net.cpp:165] Memory required for data: 997593088
I0411 08:54:06.756731 10647 layer_factory.hpp:76] Creating layer conv2
I0411 08:54:06.756744 10647 net.cpp:106] Creating Layer conv2
I0411 08:54:06.756749 10647 net.cpp:454] conv2 <- pool1
I0411 08:54:06.756758 10647 net.cpp:411] conv2 -> conv2
I0411 08:54:06.768244 10647 net.cpp:150] Setting up conv2
I0411 08:54:06.768270 10647 net.cpp:157] Top shape: 1024 256 15 15 (58982400)
I0411 08:54:06.768275 10647 net.cpp:165] Memory required for data: 1233522688
I0411 08:54:06.768291 10647 layer_factory.hpp:76] Creating layer relu2
I0411 08:54:06.768306 10647 net.cpp:106] Creating Layer relu2
I0411 08:54:06.768312 10647 net.cpp:454] relu2 <- conv2
I0411 08:54:06.768322 10647 net.cpp:411] relu2 -> relu2
I0411 08:54:06.768903 10647 net.cpp:150] Setting up relu2
I0411 08:54:06.768914 10647 net.cpp:157] Top shape: 1024 256 15 15 (58982400)
I0411 08:54:06.768923 10647 net.cpp:165] Memory required for data: 1469452288
I0411 08:54:06.768929 10647 layer_factory.hpp:76] Creating layer pool2
I0411 08:54:06.768937 10647 net.cpp:106] Creating Layer pool2
I0411 08:54:06.768942 10647 net.cpp:454] pool2 <- relu2
I0411 08:54:06.768952 10647 net.cpp:411] pool2 -> pool2
I0411 08:54:06.769609 10647 net.cpp:150] Setting up pool2
I0411 08:54:06.769621 10647 net.cpp:157] Top shape: 1024 256 7 7 (12845056)
I0411 08:54:06.769628 10647 net.cpp:165] Memory required for data: 1520832512
I0411 08:54:06.769634 10647 layer_factory.hpp:76] Creating layer conv3
I0411 08:54:06.769646 10647 net.cpp:106] Creating Layer conv3
I0411 08:54:06.769651 10647 net.cpp:454] conv3 <- pool2
I0411 08:54:06.769662 10647 net.cpp:411] conv3 -> conv3
I0411 08:54:06.794580 10647 net.cpp:150] Setting up conv3
I0411 08:54:06.794607 10647 net.cpp:157] Top shape: 1024 384 7 7 (19267584)
I0411 08:54:06.794612 10647 net.cpp:165] Memory required for data: 1597902848
I0411 08:54:06.794630 10647 layer_factory.hpp:76] Creating layer relu3
I0411 08:54:06.794644 10647 net.cpp:106] Creating Layer relu3
I0411 08:54:06.794651 10647 net.cpp:454] relu3 <- conv3
I0411 08:54:06.794662 10647 net.cpp:411] relu3 -> relu3
I0411 08:54:06.795269 10647 net.cpp:150] Setting up relu3
I0411 08:54:06.795281 10647 net.cpp:157] Top shape: 1024 384 7 7 (19267584)
I0411 08:54:06.795289 10647 net.cpp:165] Memory required for data: 1674973184
I0411 08:54:06.795295 10647 layer_factory.hpp:76] Creating layer conv4
I0411 08:54:06.795307 10647 net.cpp:106] Creating Layer conv4
I0411 08:54:06.795313 10647 net.cpp:454] conv4 <- relu3
I0411 08:54:06.795325 10647 net.cpp:411] conv4 -> conv4
I0411 08:54:06.816314 10647 net.cpp:150] Setting up conv4
I0411 08:54:06.816340 10647 net.cpp:157] Top shape: 1024 384 7 7 (19267584)
I0411 08:54:06.816368 10647 net.cpp:165] Memory required for data: 1752043520
I0411 08:54:06.816383 10647 layer_factory.hpp:76] Creating layer relu4
I0411 08:54:06.816395 10647 net.cpp:106] Creating Layer relu4
I0411 08:54:06.816401 10647 net.cpp:454] relu4 <- conv4
I0411 08:54:06.816418 10647 net.cpp:411] relu4 -> relu4
I0411 08:54:06.817005 10647 net.cpp:150] Setting up relu4
I0411 08:54:06.817019 10647 net.cpp:157] Top shape: 1024 384 7 7 (19267584)
I0411 08:54:06.817025 10647 net.cpp:165] Memory required for data: 1829113856
I0411 08:54:06.817031 10647 layer_factory.hpp:76] Creating layer conv5
I0411 08:54:06.817044 10647 net.cpp:106] Creating Layer conv5
I0411 08:54:06.817049 10647 net.cpp:454] conv5 <- relu4
I0411 08:54:06.817060 10647 net.cpp:411] conv5 -> conv5
I0411 08:54:06.832607 10647 net.cpp:150] Setting up conv5
I0411 08:54:06.832633 10647 net.cpp:157] Top shape: 1024 256 7 7 (12845056)
I0411 08:54:06.832638 10647 net.cpp:165] Memory required for data: 1880494080
I0411 08:54:06.832653 10647 layer_factory.hpp:76] Creating layer relu5
I0411 08:54:06.832669 10647 net.cpp:106] Creating Layer relu5
I0411 08:54:06.832675 10647 net.cpp:454] relu5 <- conv5
I0411 08:54:06.832684 10647 net.cpp:411] relu5 -> relu5
I0411 08:54:06.833281 10647 net.cpp:150] Setting up relu5
I0411 08:54:06.833294 10647 net.cpp:157] Top shape: 1024 256 7 7 (12845056)
I0411 08:54:06.833302 10647 net.cpp:165] Memory required for data: 1931874304
I0411 08:54:06.833308 10647 layer_factory.hpp:76] Creating layer pool5
I0411 08:54:06.833318 10647 net.cpp:106] Creating Layer pool5
I0411 08:54:06.833323 10647 net.cpp:454] pool5 <- relu5
I0411 08:54:06.833333 10647 net.cpp:411] pool5 -> pool5
I0411 08:54:06.833976 10647 net.cpp:150] Setting up pool5
I0411 08:54:06.833987 10647 net.cpp:157] Top shape: 1024 256 3 3 (2359296)
I0411 08:54:06.833994 10647 net.cpp:165] Memory required for data: 1941311488
I0411 08:54:06.834000 10647 layer_factory.hpp:76] Creating layer fc6
I0411 08:54:06.834013 10647 net.cpp:106] Creating Layer fc6
I0411 08:54:06.834018 10647 net.cpp:454] fc6 <- pool5
I0411 08:54:06.834028 10647 net.cpp:411] fc6 -> fc6
I0411 08:54:06.954812 10647 net.cpp:150] Setting up fc6
I0411 08:54:06.954838 10647 net.cpp:157] Top shape: 1024 2048 (2097152)
I0411 08:54:06.954843 10647 net.cpp:165] Memory required for data: 1949700096
I0411 08:54:06.954855 10647 layer_factory.hpp:76] Creating layer relu6
I0411 08:54:06.954869 10647 net.cpp:106] Creating Layer relu6
I0411 08:54:06.954875 10647 net.cpp:454] relu6 <- fc6
I0411 08:54:06.954888 10647 net.cpp:411] relu6 -> relu6
I0411 08:54:06.955656 10647 net.cpp:150] Setting up relu6
I0411 08:54:06.955669 10647 net.cpp:157] Top shape: 1024 2048 (2097152)
I0411 08:54:06.955677 10647 net.cpp:165] Memory required for data: 1958088704
I0411 08:54:06.955683 10647 layer_factory.hpp:76] Creating layer drop6
I0411 08:54:06.955695 10647 net.cpp:106] Creating Layer drop6
I0411 08:54:06.955700 10647 net.cpp:454] drop6 <- relu6
I0411 08:54:06.955709 10647 net.cpp:411] drop6 -> drop6
I0411 08:54:06.955761 10647 net.cpp:150] Setting up drop6
I0411 08:54:06.955768 10647 net.cpp:157] Top shape: 1024 2048 (2097152)
I0411 08:54:06.955775 10647 net.cpp:165] Memory required for data: 1966477312
I0411 08:54:06.955780 10647 layer_factory.hpp:76] Creating layer fc7
I0411 08:54:06.955790 10647 net.cpp:106] Creating Layer fc7
I0411 08:54:06.955796 10647 net.cpp:454] fc7 <- drop6
I0411 08:54:06.955804 10647 net.cpp:411] fc7 -> fc7
I0411 08:54:07.062954 10647 net.cpp:150] Setting up fc7
I0411 08:54:07.062979 10647 net.cpp:157] Top shape: 1024 2048 (2097152)
I0411 08:54:07.062984 10647 net.cpp:165] Memory required for data: 1974865920
I0411 08:54:07.062996 10647 layer_factory.hpp:76] Creating layer relu7
I0411 08:54:07.063011 10647 net.cpp:106] Creating Layer relu7
I0411 08:54:07.063019 10647 net.cpp:454] relu7 <- fc7
I0411 08:54:07.063029 10647 net.cpp:411] relu7 -> relu7
I0411 08:54:07.063817 10647 net.cpp:150] Setting up relu7
I0411 08:54:07.063830 10647 net.cpp:157] Top shape: 1024 2048 (2097152)
I0411 08:54:07.063838 10647 net.cpp:165] Memory required for data: 1983254528
I0411 08:54:07.063853 10647 layer_factory.hpp:76] Creating layer drop7
I0411 08:54:07.063864 10647 net.cpp:106] Creating Layer drop7
I0411 08:54:07.063870 10647 net.cpp:454] drop7 <- relu7
I0411 08:54:07.063879 10647 net.cpp:411] drop7 -> drop7
I0411 08:54:07.063925 10647 net.cpp:150] Setting up drop7
I0411 08:54:07.063931 10647 net.cpp:157] Top shape: 1024 2048 (2097152)
I0411 08:54:07.063937 10647 net.cpp:165] Memory required for data: 1991643136
I0411 08:54:07.063942 10647 layer_factory.hpp:76] Creating layer fc8
I0411 08:54:07.063952 10647 net.cpp:106] Creating Layer fc8
I0411 08:54:07.063956 10647 net.cpp:454] fc8 <- drop7
I0411 08:54:07.063966 10647 net.cpp:411] fc8 -> fc8
I0411 08:54:07.116549 10647 net.cpp:150] Setting up fc8
I0411 08:54:07.116571 10647 net.cpp:157] Top shape: 1024 1000 (1024000)
I0411 08:54:07.116575 10647 net.cpp:165] Memory required for data: 1995739136
I0411 08:54:07.116587 10647 layer_factory.hpp:76] Creating layer loss
I0411 08:54:07.116598 10647 net.cpp:106] Creating Layer loss
I0411 08:54:07.116605 10647 net.cpp:454] loss <- fc8
I0411 08:54:07.116612 10647 net.cpp:454] loss <- label
I0411 08:54:07.116622 10647 net.cpp:411] loss -> loss
I0411 08:54:07.116636 10647 layer_factory.hpp:76] Creating layer loss
…
I0411 08:54:07.119797 10647 net.cpp:322] The NetState phase (1) differed from the phase (0) specified by a rule in layer data
I0411 08:54:07.119942 10647 net.cpp:49] Initializing net from parameters: 
name: "CaffeNet"
state {
  phase: TEST
}
layer {
  name: "data"
  type: "Data"
  top: "data"
  top: "label"
  include {
    phase: TEST
  }
  transform_param {
    scale: 0.04
    mirror: false
    crop_size: 128
    mean_value: 104
    mean_value: 117
    mean_value: 123
    force_color: true
  }
  data_param {
    source: "/home/old-ufo/storage/datasets/imagenet/imgs128/lmdb/ilsvrc12_128_val_lmdb"
    batch_size: 50
    backend: LMDB
  }
}
layer {
  name: "conv1"
  type: "Convolution"
  bottom: "data"
  top: "conv1"
  param {
    lr_mult: 1
    decay_mult: 1
  }
  param {
    lr_mult: 2
    decay_mult: 0
  }
  convolution_param {
    num_output: 96
    kernel_size: 11
    stride: 4
    weight_filler {
      type: "gaussian"
      std: 0.01
    }
    bias_filler {
      type: "constant"
    }
  }
}
layer {
  name: "relu1"
  type: "ReLU"
  bottom: "conv1"
  top: "relu1"
}
layer {
  name: "pool1"
  type: "Pooling"
  bottom: "relu1"
  top: "pool1"
  pooling_param {
    pool: MAX
    kernel_size: 3
    stride: 2
  }
}
layer {
  name: "conv2"
  type: "Convolution"
  bottom: "pool1"
  top: "conv2"
  param {
    lr_mult: 1
    decay_mult: 1
  }
  param {
    lr_mult: 2
    decay_mult: 0
  }
  convolution_param {
    num_output: 256
    pad: 2
    kernel_size: 5
    group: 2
    weight_filler {
      type: "gaussian"
      std: 0.01
    }
    bias_filler {
      type: "constant"
    }
  }
}
layer {
  name: "relu2"
  type: "ReLU"
  bottom: "conv2"
  top: "relu2"
}
layer {
  name: "pool2"
  type: "Pooling"
  bottom: "relu2"
  top: "pool2"
  pooling_param {
    pool: MAX
    kernel_size: 3
    stride: 2
  }
}
layer {
  name: "conv3"
  type: "Convolution"
  bottom: "pool2"
  top: "conv3"
  param {
    lr_mult: 1
    decay_mult: 1
  }
  param {
    lr_mult: 2
    decay_mult: 0
  }
  convolution_param {
    num_output: 384
    pad: 1
    kernel_size: 3
    weight_filler {
      type: "gaussian"
      std: 0.01
    }
    bias_filler {
      type: "constant"
    }
  }
}
layer {
  name: "relu3"
  type: "ReLU"
  bottom: "conv3"
  top: "relu3"
}
layer {
  name: "conv4"
  type: "Convolution"
  bottom: "relu3"
  top: "conv4"
  param {
    lr_mult: 1
    decay_mult: 1
  }
  param {
    lr_mult: 2
    decay_mult: 0
  }
  convolution_param {
    num_output: 384
    pad: 1
    kernel_size: 3
    group: 2
    weight_filler {
      type: "gaussian"
      std: 0.01
    }
    bias_filler {
      type: "constant"
    }
  }
}
layer {
  name: "relu4"
  type: "ReLU"
  bottom: "conv4"
  top: "relu4"
}
layer {
  name: "conv5"
  type: "Convolution"
  bottom: "relu4"
  top: "conv5"
  param {
    lr_mult: 1
    decay_mult: 1
  }
  param {
    lr_mult: 2
    decay_mult: 0
  }
  convolution_param {
    num_output: 256
    pad: 1
    kernel_size: 3
    group: 2
    weight_filler {
      type: "gaussian"
      std: 0.01
    }
    bias_filler {
      type: "constant"
    }
  }
}
layer {
  name: "relu5"
  type: "ReLU"
  bottom: "conv5"
  top: "relu5"
}
layer {
  name: "pool5"
  type: "Pooling"
  bottom: "relu5"
  top: "pool5"
  pooling_param {
    pool: MAX
    kernel_size: 3
    stride: 2
  }
}
layer {
  name: "fc6"
  type: "InnerProduct"
  bottom: "pool5"
  top: "fc6"
  param {
    lr_mult: 1
    decay_mult: 1
  }
  param {
    lr_mult: 2
    decay_mult: 0
  }
  inner_product_param {
    num_output: 2048
    weight_filler {
      type: "gaussian"
      std: 0.005
    }
    bias_filler {
      type: "constant"
    }
  }
}
layer {
  name: "relu6"
  type: "ReLU"
  bottom: "fc6"
  top: "relu6"
}
layer {
  name: "drop6"
  type: "Dropout"
  bottom: "relu6"
  top: "drop6"
  dropout_param {
    dropout_ratio: 0.5
  }
}
layer {
  name: "fc7"
  type: "InnerProduct"
  bottom: "drop6"
  top: "fc7"
  param {
    lr_mult: 1
    decay_mult: 1
  }
  param {
    lr_mult: 2
    decay_mult: 0
  }
  inner_product_param {
    num_output: 2048
    weight_filler {
      type: "gaussian"
      std: 0.005
    }
    bias_filler {
      type: "constant"
    }
  }
}
layer {
  name: "relu7"
  type: "ReLU"
  bottom: "fc7"
  top: "relu7"
}
layer {
  name: "drop7"
  type: "Dropout"
  bottom: "relu7"
  top: "drop7"
  dropout_param {
    dropout_ratio: 0.5
  }
}
layer {
  name: "fc8"
  type: "InnerProduct"
  bottom: "drop7"
  top: "fc8"
  param {
    lr_mult: 1
    decay_mult: 1
  }
  param {
    lr_mult: 2
    decay_mult: 0
  }
  inner_product_param {
    num_output: 1000
    weight_filler {
      type: "gaussian"
      std: 0.01
    }
    bias_filler {
      type: "constant"
    }
  }
}
layer {
  name: "accuracy"
  type: "Accuracy"
  bottom: "fc8"
  bottom: "label"
  top: "accuracy"
  include {
    phase: TEST
  }
}
layer {
  name: "loss"
  type: "SoftmaxWithLoss"
  bottom: "fc8"
  bottom: "label"
  top: "loss"
}
I0411 08:54:07.120053 10647 layer_factory.hpp:76] Creating layer data
I0411 08:54:07.120126 10647 net.cpp:106] Creating Layer data
I0411 08:54:07.120136 10647 net.cpp:411] data -> data
I0411 08:54:07.120148 10647 net.cpp:411] data -> label
I0411 08:54:07.120843 10654 db_lmdb.cpp:38] Opened lmdb /home/old-ufo/storage/datasets/imagenet/imgs128/lmdb/ilsvrc12_128_val_lmdb
I0411 08:54:07.121714 10647 data_layer.cpp:41] output data size: 50,3,128,128
I0411 08:54:07.136360 10647 net.cpp:150] Setting up data
I0411 08:54:07.136386 10647 net.cpp:157] Top shape: 50 3 128 128 (2457600)
I0411 08:54:07.136394 10647 net.cpp:157] Top shape: 50 (50)
I0411 08:54:07.136397 10647 net.cpp:165] Memory required for data: 9830600
I0411 08:54:07.136405 10647 layer_factory.hpp:76] Creating layer label_data_1_split
I0411 08:54:07.136420 10647 net.cpp:106] Creating Layer label_data_1_split
I0411 08:54:07.136425 10647 net.cpp:454] label_data_1_split <- label
I0411 08:54:07.136435 10647 net.cpp:411] label_data_1_split -> label_data_1_split_0
I0411 08:54:07.136447 10647 net.cpp:411] label_data_1_split -> label_data_1_split_1
I0411 08:54:07.136538 10647 net.cpp:150] Setting up label_data_1_split
I0411 08:54:07.136548 10647 net.cpp:157] Top shape: 50 (50)
I0411 08:54:07.136555 10647 net.cpp:157] Top shape: 50 (50)
I0411 08:54:07.136560 10647 net.cpp:165] Memory required for data: 9831000
I0411 08:54:07.136565 10647 layer_factory.hpp:76] Creating layer conv1
I0411 08:54:07.136577 10647 net.cpp:106] Creating Layer conv1
I0411 08:54:07.136582 10647 net.cpp:454] conv1 <- data
I0411 08:54:07.136590 10647 net.cpp:411] conv1 -> conv1
I0411 08:54:07.140414 10647 net.cpp:150] Setting up conv1
I0411 08:54:07.140430 10647 net.cpp:157] Top shape: 50 96 30 30 (4320000)
I0411 08:54:07.140435 10647 net.cpp:165] Memory required for data: 27111000
I0411 08:54:07.140452 10647 layer_factory.hpp:76] Creating layer relu1
I0411 08:54:07.140475 10647 net.cpp:106] Creating Layer relu1
I0411 08:54:07.140480 10647 net.cpp:454] relu1 <- conv1
I0411 08:54:07.140487 10647 net.cpp:411] relu1 -> relu1
I0411 08:54:07.141129 10647 net.cpp:150] Setting up relu1
I0411 08:54:07.141140 10647 net.cpp:157] Top shape: 50 96 30 30 (4320000)
I0411 08:54:07.141146 10647 net.cpp:165] Memory required for data: 44391000
I0411 08:54:07.141152 10647 layer_factory.hpp:76] Creating layer pool1
I0411 08:54:07.141165 10647 net.cpp:106] Creating Layer pool1
I0411 08:54:07.141170 10647 net.cpp:454] pool1 <- relu1
I0411 08:54:07.141178 10647 net.cpp:411] pool1 -> pool1
I0411 08:54:07.141824 10647 net.cpp:150] Setting up pool1
I0411 08:54:07.141835 10647 net.cpp:157] Top shape: 50 96 15 15 (1080000)
I0411 08:54:07.141840 10647 net.cpp:165] Memory required for data: 48711000
I0411 08:54:07.141846 10647 layer_factory.hpp:76] Creating layer conv2
I0411 08:54:07.141860 10647 net.cpp:106] Creating Layer conv2
I0411 08:54:07.141865 10647 net.cpp:454] conv2 <- pool1
I0411 08:54:07.141873 10647 net.cpp:411] conv2 -> conv2
I0411 08:54:07.154320 10647 net.cpp:150] Setting up conv2
I0411 08:54:07.154345 10647 net.cpp:157] Top shape: 50 256 15 15 (2880000)
I0411 08:54:07.154351 10647 net.cpp:165] Memory required for data: 60231000
I0411 08:54:07.154369 10647 layer_factory.hpp:76] Creating layer relu2
I0411 08:54:07.154382 10647 net.cpp:106] Creating Layer relu2
I0411 08:54:07.154388 10647 net.cpp:454] relu2 <- conv2
I0411 08:54:07.154399 10647 net.cpp:411] relu2 -> relu2
I0411 08:54:07.155033 10647 net.cpp:150] Setting up relu2
I0411 08:54:07.155047 10647 net.cpp:157] Top shape: 50 256 15 15 (2880000)
I0411 08:54:07.155053 10647 net.cpp:165] Memory required for data: 71751000
I0411 08:54:07.155060 10647 layer_factory.hpp:76] Creating layer pool2
I0411 08:54:07.155071 10647 net.cpp:106] Creating Layer pool2
I0411 08:54:07.155076 10647 net.cpp:454] pool2 <- relu2
I0411 08:54:07.155083 10647 net.cpp:411] pool2 -> pool2
I0411 08:54:07.155719 10647 net.cpp:150] Setting up pool2
I0411 08:54:07.155742 10647 net.cpp:157] Top shape: 50 256 7 7 (627200)
I0411 08:54:07.155748 10647 net.cpp:165] Memory required for data: 74259800
I0411 08:54:07.155755 10647 layer_factory.hpp:76] Creating layer conv3
I0411 08:54:07.155769 10647 net.cpp:106] Creating Layer conv3
I0411 08:54:07.155774 10647 net.cpp:454] conv3 <- pool2
I0411 08:54:07.155784 10647 net.cpp:411] conv3 -> conv3
I0411 08:54:07.181429 10647 net.cpp:150] Setting up conv3
I0411 08:54:07.181457 10647 net.cpp:157] Top shape: 50 384 7 7 (940800)
I0411 08:54:07.181462 10647 net.cpp:165] Memory required for data: 78023000
I0411 08:54:07.181478 10647 layer_factory.hpp:76] Creating layer relu3
I0411 08:54:07.181488 10647 net.cpp:106] Creating Layer relu3
I0411 08:54:07.181494 10647 net.cpp:454] relu3 <- conv3
I0411 08:54:07.181505 10647 net.cpp:411] relu3 -> relu3
I0411 08:54:07.182188 10647 net.cpp:150] Setting up relu3
I0411 08:54:07.182199 10647 net.cpp:157] Top shape: 50 384 7 7 (940800)
I0411 08:54:07.182206 10647 net.cpp:165] Memory required for data: 81786200
I0411 08:54:07.182212 10647 layer_factory.hpp:76] Creating layer conv4
I0411 08:54:07.182226 10647 net.cpp:106] Creating Layer conv4
I0411 08:54:07.182231 10647 net.cpp:454] conv4 <- relu3
I0411 08:54:07.182240 10647 net.cpp:411] conv4 -> conv4
I0411 08:54:07.204012 10647 net.cpp:150] Setting up conv4
I0411 08:54:07.204040 10647 net.cpp:157] Top shape: 50 384 7 7 (940800)
I0411 08:54:07.204046 10647 net.cpp:165] Memory required for data: 85549400
I0411 08:54:07.204058 10647 layer_factory.hpp:76] Creating layer relu4
I0411 08:54:07.204073 10647 net.cpp:106] Creating Layer relu4
I0411 08:54:07.204080 10647 net.cpp:454] relu4 <- conv4
I0411 08:54:07.204092 10647 net.cpp:411] relu4 -> relu4
I0411 08:54:07.220670 10647 net.cpp:150] Setting up relu4
I0411 08:54:07.220691 10647 net.cpp:157] Top shape: 50 384 7 7 (940800)
I0411 08:54:07.220696 10647 net.cpp:165] Memory required for data: 89312600
I0411 08:54:07.220702 10647 layer_factory.hpp:76] Creating layer conv5
I0411 08:54:07.220720 10647 net.cpp:106] Creating Layer conv5
I0411 08:54:07.220726 10647 net.cpp:454] conv5 <- relu4
I0411 08:54:07.220737 10647 net.cpp:411] conv5 -> conv5
I0411 08:54:07.237006 10647 net.cpp:150] Setting up conv5
I0411 08:54:07.237033 10647 net.cpp:157] Top shape: 50 256 7 7 (627200)
I0411 08:54:07.237038 10647 net.cpp:165] Memory required for data: 91821400
I0411 08:54:07.237056 10647 layer_factory.hpp:76] Creating layer relu5
I0411 08:54:07.237071 10647 net.cpp:106] Creating Layer relu5
I0411 08:54:07.237077 10647 net.cpp:454] relu5 <- conv5
I0411 08:54:07.237088 10647 net.cpp:411] relu5 -> relu5
I0411 08:54:07.237751 10647 net.cpp:150] Setting up relu5
I0411 08:54:07.237763 10647 net.cpp:157] Top shape: 50 256 7 7 (627200)
I0411 08:54:07.237768 10647 net.cpp:165] Memory required for data: 94330200
I0411 08:54:07.237776 10647 layer_factory.hpp:76] Creating layer pool5
I0411 08:54:07.237785 10647 net.cpp:106] Creating Layer pool5
I0411 08:54:07.237790 10647 net.cpp:454] pool5 <- relu5
I0411 08:54:07.237800 10647 net.cpp:411] pool5 -> pool5
I0411 08:54:07.238458 10647 net.cpp:150] Setting up pool5
I0411 08:54:07.238472 10647 net.cpp:157] Top shape: 50 256 3 3 (115200)
I0411 08:54:07.238478 10647 net.cpp:165] Memory required for data: 94791000
I0411 08:54:07.238484 10647 layer_factory.hpp:76] Creating layer fc6
I0411 08:54:07.238495 10647 net.cpp:106] Creating Layer fc6
I0411 08:54:07.238500 10647 net.cpp:454] fc6 <- pool5
I0411 08:54:07.238510 10647 net.cpp:411] fc6 -> fc6
I0411 08:54:07.361335 10647 net.cpp:150] Setting up fc6
I0411 08:54:07.361362 10647 net.cpp:157] Top shape: 50 2048 (102400)
I0411 08:54:07.361367 10647 net.cpp:165] Memory required for data: 95200600
I0411 08:54:07.361379 10647 layer_factory.hpp:76] Creating layer relu6
I0411 08:54:07.361395 10647 net.cpp:106] Creating Layer relu6
I0411 08:54:07.361402 10647 net.cpp:454] relu6 <- fc6
I0411 08:54:07.361413 10647 net.cpp:411] relu6 -> relu6
I0411 08:54:07.362437 10647 net.cpp:150] Setting up relu6
I0411 08:54:07.362450 10647 net.cpp:157] Top shape: 50 2048 (102400)
I0411 08:54:07.362468 10647 net.cpp:165] Memory required for data: 95610200
I0411 08:54:07.362475 10647 layer_factory.hpp:76] Creating layer drop6
I0411 08:54:07.362488 10647 net.cpp:106] Creating Layer drop6
I0411 08:54:07.362493 10647 net.cpp:454] drop6 <- relu6
I0411 08:54:07.362501 10647 net.cpp:411] drop6 -> drop6
I0411 08:54:07.362560 10647 net.cpp:150] Setting up drop6
I0411 08:54:07.362568 10647 net.cpp:157] Top shape: 50 2048 (102400)
I0411 08:54:07.362584 10647 net.cpp:165] Memory required for data: 96019800
I0411 08:54:07.362591 10647 layer_factory.hpp:76] Creating layer fc7
I0411 08:54:07.362601 10647 net.cpp:106] Creating Layer fc7
I0411 08:54:07.362604 10647 net.cpp:454] fc7 <- drop6
I0411 08:54:07.362614 10647 net.cpp:411] fc7 -> fc7
I0411 08:54:07.471402 10647 net.cpp:150] Setting up fc7
I0411 08:54:07.471431 10647 net.cpp:157] Top shape: 50 2048 (102400)
I0411 08:54:07.471436 10647 net.cpp:165] Memory required for data: 96429400
I0411 08:54:07.471448 10647 layer_factory.hpp:76] Creating layer relu7
I0411 08:54:07.471460 10647 net.cpp:106] Creating Layer relu7
I0411 08:54:07.471467 10647 net.cpp:454] relu7 <- fc7
I0411 08:54:07.471480 10647 net.cpp:411] relu7 -> relu7
I0411 08:54:07.472378 10647 net.cpp:150] Setting up relu7
I0411 08:54:07.472390 10647 net.cpp:157] Top shape: 50 2048 (102400)
I0411 08:54:07.472396 10647 net.cpp:165] Memory required for data: 96839000
I0411 08:54:07.472404 10647 layer_factory.hpp:76] Creating layer drop7
I0411 08:54:07.472414 10647 net.cpp:106] Creating Layer drop7
I0411 08:54:07.472419 10647 net.cpp:454] drop7 <- relu7
I0411 08:54:07.472429 10647 net.cpp:411] drop7 -> drop7
I0411 08:54:07.472487 10647 net.cpp:150] Setting up drop7
I0411 08:54:07.472496 10647 net.cpp:157] Top shape: 50 2048 (102400)
I0411 08:54:07.472501 10647 net.cpp:165] Memory required for data: 97248600
I0411 08:54:07.472506 10647 layer_factory.hpp:76] Creating layer fc8
I0411 08:54:07.472515 10647 net.cpp:106] Creating Layer fc8
I0411 08:54:07.472520 10647 net.cpp:454] fc8 <- drop7
I0411 08:54:07.472529 10647 net.cpp:411] fc8 -> fc8
I0411 08:54:07.526229 10647 net.cpp:150] Setting up fc8
I0411 08:54:07.526255 10647 net.cpp:157] Top shape: 50 1000 (50000)
I0411 08:54:07.526262 10647 net.cpp:165] Memory required for data: 97448600
I0411 08:54:07.526273 10647 layer_factory.hpp:76] Creating layer fc8_fc8_0_split
I0411 08:54:07.526288 10647 net.cpp:106] Creating Layer fc8_fc8_0_split
I0411 08:54:07.526294 10647 net.cpp:454] fc8_fc8_0_split <- fc8
I0411 08:54:07.526305 10647 net.cpp:411] fc8_fc8_0_split -> fc8_fc8_0_split_0
I0411 08:54:07.526317 10647 net.cpp:411] fc8_fc8_0_split -> fc8_fc8_0_split_1
I0411 08:54:07.526391 10647 net.cpp:150] Setting up fc8_fc8_0_split
I0411 08:54:07.526399 10647 net.cpp:157] Top shape: 50 1000 (50000)
I0411 08:54:07.526407 10647 net.cpp:157] Top shape: 50 1000 (50000)
I0411 08:54:07.526412 10647 net.cpp:165] Memory required for data: 97848600
I0411 08:54:07.526417 10647 layer_factory.hpp:76] Creating layer accuracy
I0411 08:54:07.526435 10647 net.cpp:106] Creating Layer accuracy
I0411 08:54:07.526440 10647 net.cpp:454] accuracy <- fc8_fc8_0_split_0
I0411 08:54:07.526446 10647 net.cpp:454] accuracy <- label_data_1_split_0
I0411 08:54:07.526454 10647 net.cpp:411] accuracy -> accuracy
…
