…
      source: "/home/old-ufo/storage/datasets/imagenet/imgs128/lmdb/ilsvrc12_128_train_lmdb"
      batch_size: 512
      backend: LMDB
    }
  }
  layer {
    name: "data"
    type: "Data"
    top: "data"
    top: "label"
    include {
      phase: TEST
    }
    transform_param {
      scale: 0.04
      mirror: false
      crop_size: 128
      mean_value: 104
      mean_value: 117
      mean_value: 123
      force_color: true
    }
    data_param {
      source: "/home/old-ufo/storage/datasets/imagenet/imgs128/lmdb/ilsvrc12_128_val_lmdb"
      batch_size: 50
      backend: LMDB
    }
  }
  layer {
    name: "conv1"
    type: "Convolution"
    bottom: "data"
    top: "conv1"
    param {
      lr_mult: 1
      decay_mult: 1
    }
    param {
      lr_mult: 2
      decay_mult: 0
    }
    convolution_param {
      num_output: 96
      kernel_size: 11
      stride: 4
      weight_filler {
        type: "gaussian"
        std: 0.01
      }
      bias_filler {
        type: "constant"
      }
    }
  }
  layer {
    name: "relu1"
    type: "ReLU"
    bottom: "conv1"
    top: "relu1"
  }
  layer {
    name: "pool1"
    type: "Pooling"
    bottom: "relu1"
    top: "pool1"
    pooling_param {
      pool: MAX
      kernel_size: 3
      stride: 2
    }
  }
  layer {
    name: "conv2"
    type: "Convolution"
    bottom: "pool1"
    top: "conv2"
    param {
      lr_mult: 1
      decay_mult: 1
    }
    param {
      lr_mult: 2
      decay_mult: 0
    }
    convolution_param {
      num_output: 256
      pad: 2
      kernel_size: 5
      group: 2
      weight_filler {
        type: "gaussian"
        std: 0.01
      }
      bias_filler {
        type: "constant"
      }
    }
  }
  layer {
    name: "relu2"
    type: "ReLU"
    bottom: "conv2"
    top: "relu2"
  }
  layer {
    name: "pool2"
    type: "Pooling"
    bottom: "relu2"
    top: "pool2"
    pooling_param {
      pool: MAX
      kernel_size: 3
      stride: 2
    }
  }
  layer {
    name: "conv3"
    type: "Convolution"
    bottom: "pool2"
    top: "conv3"
    param {
      lr_mult: 1
      decay_mult: 1
    }
    param {
      lr_mult: 2
      decay_mult: 0
    }
    convolution_param {
      num_output: 384
      pad: 1
      kernel_size: 3
      weight_filler {
        type: "gaussian"
        std: 0.01
      }
      bias_filler {
        type: "constant"
      }
    }
  }
  layer {
    name: "relu3"
    type: "ReLU"
    bottom: "conv3"
    top: "relu3"
  }
  layer {
    name: "conv4"
    type: "Convolution"
    bottom: "relu3"
    top: "conv4"
    param {
      lr_mult: 1
      decay_mult: 1
    }
    param {
      lr_mult: 2
      decay_mult: 0
    }
    convolution_param {
      num_output: 384
      pad: 1
      kernel_size: 3
      group: 2
      weight_filler {
        type: "gaussian"
        std: 0.01
      }
      bias_filler {
        type: "constant"
      }
    }
  }
  layer {
    name: "relu4"
    type: "ReLU"
    bottom: "conv4"
    top: "relu4"
  }
  layer {
    name: "conv5"
    type: "Convolution"
    bottom: "relu4"
    top: "conv5"
    param {
      lr_mult: 1
      decay_mult: 1
    }
    param {
      lr_mult: 2
      decay_mult: 0
    }
    convolution_param {
      num_output: 256
      pad: 1
      kernel_size: 3
      group: 2
      weight_filler {
        type: "gaussian"
        std: 0.01
      }
      bias_filler {
        type: "constant"
      }
    }
  }
  layer {
    name: "relu5"
    type: "ReLU"
    bottom: "conv5"
    top: "relu5"
  }
  layer {
    name: "pool5"
    type: "Pooling"
    bottom: "relu5"
    top: "pool5"
    pooling_param {
      pool: MAX
      kernel_size: 3
      stride: 2
    }
  }
  layer {
    name: "fc6"
    type: "InnerProduct"
    bottom: "pool5"
    top: "fc6"
    param {
      lr_mult: 1
      decay_mult: 1
    }
    param {
      lr_mult: 2
      decay_mult: 0
    }
    inner_product_param {
      num_output: 2048
      weight_filler {
        type: "gaussian"
        std: 0.005
      }
      bias_filler {
        type: "constant"
      }
    }
  }
  layer {
    name: "relu6"
    type: "ReLU"
    bottom: "fc6"
    top: "relu6"
  }
  layer {
    name: "drop6"
    type: "Dropout"
    bottom: "relu6"
    top: "drop6"
    dropout_param {
      dropout_ratio: 0.5
    }
  }
  layer {
    name: "fc7"
    type: "InnerProduct"
    bottom: "drop6"
    top: "fc7"
    param {
      lr_mult: 1
      decay_mult: 1
    }
    param {
      lr_mult: 2
      decay_mult: 0
    }
    inner_product_param {
      num_output: 2048
      weight_filler {
        type: "gaussian"
        std: 0.005
      }
      bias_filler {
        type: "constant"
      }
    }
  }
  layer {
    name: "relu7"
    type: "ReLU"
    bottom: "fc7"
    top: "relu7"
  }
  layer {
    name: "drop7"
    type: "Dropout"
    bottom: "relu7"
    top: "drop7"
    dropout_param {
      dropout_ratio: 0.5
    }
  }
  layer {
    name: "fc8"
    type: "InnerProduct"
    bottom: "drop7"
    top: "fc8"
    param {
      lr_mult: 1
      decay_mult: 1
    }
    param {
      lr_mult: 2
      decay_mult: 0
    }
    inner_product_param {
      num_output: 1000
      weight_filler {
        type: "gaussian"
        std: 0.01
      }
      bias_filler {
        type: "constant"
      }
    }
  }
  layer {
    name: "accuracy"
    type: "Accuracy"
    bottom: "fc8"
    bottom: "label"
    top: "accuracy"
    include {
      phase: TEST
    }
  }
  layer {
    name: "loss"
    type: "SoftmaxWithLoss"
    bottom: "fc8"
    bottom: "label"
    top: "loss"
  }
}
test_initialization: true
iter_size: 1
type: "SGD"
I0421 13:03:26.113509 21831 solver.cpp:86] Creating training net specified in net_param.
I0421 13:03:26.113646 21831 net.cpp:313] The NetState phase (0) differed from the phase (1) specified by a rule in layer data
I0421 13:03:26.113692 21831 net.cpp:313] The NetState phase (0) differed from the phase (1) specified by a rule in layer accuracy
I0421 13:03:26.113879 21831 net.cpp:49] Initializing net from parameters: 
name: "CaffeNet"
state {
  phase: TRAIN
}
layer {
  name: "data"
  type: "Data"
  top: "data"
  top: "label"
  include {
    phase: TRAIN
  }
  transform_param {
    scale: 0.04
    mirror: true
    crop_size: 128
    mean_value: 104
    mean_value: 117
    mean_value: 124
    force_color: true
  }
  data_param {
    source: "/home/old-ufo/storage/datasets/imagenet/imgs128/lmdb/ilsvrc12_128_train_lmdb"
    batch_size: 512
    backend: LMDB
  }
}
layer {
  name: "conv1"
  type: "Convolution"
  bottom: "data"
  top: "conv1"
  param {
    lr_mult: 1
    decay_mult: 1
  }
  param {
    lr_mult: 2
    decay_mult: 0
  }
  convolution_param {
    num_output: 96
    kernel_size: 11
    stride: 4
    weight_filler {
      type: "gaussian"
      std: 0.01
    }
    bias_filler {
      type: "constant"
    }
  }
}
layer {
  name: "relu1"
  type: "ReLU"
  bottom: "conv1"
  top: "relu1"
}
layer {
  name: "pool1"
  type: "Pooling"
  bottom: "relu1"
  top: "pool1"
  pooling_param {
    pool: MAX
    kernel_size: 3
    stride: 2
  }
}
layer {
  name: "conv2"
  type: "Convolution"
  bottom: "pool1"
  top: "conv2"
  param {
    lr_mult: 1
    decay_mult: 1
  }
  param {
    lr_mult: 2
    decay_mult: 0
  }
  convolution_param {
    num_output: 256
    pad: 2
    kernel_size: 5
    group: 2
    weight_filler {
      type: "gaussian"
      std: 0.01
    }
    bias_filler {
      type: "constant"
    }
  }
}
layer {
  name: "relu2"
  type: "ReLU"
  bottom: "conv2"
  top: "relu2"
}
layer {
  name: "pool2"
  type: "Pooling"
  bottom: "relu2"
  top: "pool2"
  pooling_param {
    pool: MAX
    kernel_size: 3
    stride: 2
  }
}
layer {
  name: "conv3"
  type: "Convolution"
  bottom: "pool2"
  top: "conv3"
  param {
    lr_mult: 1
    decay_mult: 1
  }
  param {
    lr_mult: 2
    decay_mult: 0
  }
  convolution_param {
    num_output: 384
    pad: 1
    kernel_size: 3
    weight_filler {
      type: "gaussian"
      std: 0.01
    }
    bias_filler {
      type: "constant"
    }
  }
}
layer {
  name: "relu3"
  type: "ReLU"
  bottom: "conv3"
  top: "relu3"
}
layer {
  name: "conv4"
  type: "Convolution"
  bottom: "relu3"
  top: "conv4"
  param {
    lr_mult: 1
    decay_mult: 1
  }
  param {
    lr_mult: 2
    decay_mult: 0
  }
  convolution_param {
    num_output: 384
    pad: 1
    kernel_size: 3
    group: 2
    weight_filler {
      type: "gaussian"
      std: 0.01
    }
    bias_filler {
      type: "constant"
    }
  }
}
layer {
  name: "relu4"
  type: "ReLU"
  bottom: "conv4"
  top: "relu4"
}
layer {
  name: "conv5"
  type: "Convolution"
  bottom: "relu4"
  top: "conv5"
  param {
    lr_mult: 1
    decay_mult: 1
  }
  param {
    lr_mult: 2
    decay_mult: 0
  }
  convolution_param {
    num_output: 256
    pad: 1
    kernel_size: 3
    group: 2
    weight_filler {
      type: "gaussian"
      std: 0.01
    }
    bias_filler {
      type: "constant"
    }
  }
}
layer {
  name: "relu5"
  type: "ReLU"
  bottom: "conv5"
  top: "relu5"
}
layer {
  name: "pool5"
  type: "Pooling"
  bottom: "relu5"
  top: "pool5"
  pooling_param {
    pool: MAX
    kernel_size: 3
    stride: 2
  }
}
layer {
  name: "fc6"
  type: "InnerProduct"
  bottom: "pool5"
  top: "fc6"
  param {
    lr_mult: 1
    decay_mult: 1
  }
  param {
    lr_mult: 2
    decay_mult: 0
  }
  inner_product_param {
    num_output: 2048
    weight_filler {
      type: "gaussian"
      std: 0.005
    }
    bias_filler {
      type: "constant"
    }
  }
}
layer {
  name: "relu6"
  type: "ReLU"
  bottom: "fc6"
  top: "relu6"
}
layer {
  name: "drop6"
  type: "Dropout"
  bottom: "relu6"
  top: "drop6"
  dropout_param {
    dropout_ratio: 0.5
  }
}
layer {
  name: "fc7"
  type: "InnerProduct"
  bottom: "drop6"
  top: "fc7"
  param {
    lr_mult: 1
    decay_mult: 1
  }
  param {
    lr_mult: 2
    decay_mult: 0
  }
  inner_product_param {
    num_output: 2048
    weight_filler {
      type: "gaussian"
      std: 0.005
    }
    bias_filler {
      type: "constant"
    }
  }
}
layer {
  name: "relu7"
  type: "ReLU"
  bottom: "fc7"
  top: "relu7"
}
layer {
  name: "drop7"
  type: "Dropout"
  bottom: "relu7"
  top: "drop7"
  dropout_param {
    dropout_ratio: 0.5
  }
}
layer {
  name: "fc8"
  type: "InnerProduct"
  bottom: "drop7"
  top: "fc8"
  param {
    lr_mult: 1
    decay_mult: 1
  }
  param {
    lr_mult: 2
    decay_mult: 0
  }
  inner_product_param {
    num_output: 1000
    weight_filler {
      type: "gaussian"
      std: 0.01
    }
    bias_filler {
      type: "constant"
    }
  }
}
layer {
  name: "loss"
  type: "SoftmaxWithLoss"
  bottom: "fc8"
  bottom: "label"
  top: "loss"
}
I0421 13:03:26.114017 21831 layer_factory.hpp:77] Creating layer data
I0421 13:03:26.114683 21831 net.cpp:91] Creating Layer data
I0421 13:03:26.114696 21831 net.cpp:399] data -> data
I0421 13:03:26.114724 21831 net.cpp:399] data -> label
I0421 13:03:26.115581 21836 db_lmdb.cpp:38] Opened lmdb /home/old-ufo/storage/datasets/imagenet/imgs128/lmdb/ilsvrc12_128_train_lmdb
I0421 13:03:26.147650 21831 data_layer.cpp:41] output data size: 512,3,128,128
I0421 13:03:26.293201 21831 net.cpp:141] Setting up data
I0421 13:03:26.293236 21831 net.cpp:148] Top shape: 512 3 128 128 (25165824)
I0421 13:03:26.293272 21831 net.cpp:148] Top shape: 512 (512)
I0421 13:03:26.293277 21831 net.cpp:156] Memory required for data: 100665344
I0421 13:03:26.293288 21831 layer_factory.hpp:77] Creating layer conv1
I0421 13:03:26.293318 21831 net.cpp:91] Creating Layer conv1
I0421 13:03:26.293325 21831 net.cpp:425] conv1 <- data
I0421 13:03:26.293340 21831 net.cpp:399] conv1 -> conv1
I0421 13:03:26.678046 21831 net.cpp:141] Setting up conv1
I0421 13:03:26.678077 21831 net.cpp:148] Top shape: 512 96 30 30 (44236800)
I0421 13:03:26.678083 21831 net.cpp:156] Memory required for data: 277612544
I0421 13:03:26.678107 21831 layer_factory.hpp:77] Creating layer relu1
I0421 13:03:26.678123 21831 net.cpp:91] Creating Layer relu1
I0421 13:03:26.678129 21831 net.cpp:425] relu1 <- conv1
I0421 13:03:26.678138 21831 net.cpp:399] relu1 -> relu1
I0421 13:03:26.678498 21831 net.cpp:141] Setting up relu1
I0421 13:03:26.678516 21831 net.cpp:148] Top shape: 512 96 30 30 (44236800)
I0421 13:03:26.678524 21831 net.cpp:156] Memory required for data: 454559744
I0421 13:03:26.678529 21831 layer_factory.hpp:77] Creating layer pool1
I0421 13:03:26.678539 21831 net.cpp:91] Creating Layer pool1
I0421 13:03:26.678546 21831 net.cpp:425] pool1 <- relu1
I0421 13:03:26.678555 21831 net.cpp:399] pool1 -> pool1
I0421 13:03:26.678620 21831 net.cpp:141] Setting up pool1
I0421 13:03:26.678633 21831 net.cpp:148] Top shape: 512 96 15 15 (11059200)
I0421 13:03:26.678638 21831 net.cpp:156] Memory required for data: 498796544
I0421 13:03:26.678644 21831 layer_factory.hpp:77] Creating layer conv2
I0421 13:03:26.678660 21831 net.cpp:91] Creating Layer conv2
I0421 13:03:26.678668 21831 net.cpp:425] conv2 <- pool1
I0421 13:03:26.678676 21831 net.cpp:399] conv2 -> conv2
I0421 13:03:26.692595 21831 net.cpp:141] Setting up conv2
I0421 13:03:26.692621 21831 net.cpp:148] Top shape: 512 256 15 15 (29491200)
I0421 13:03:26.692626 21831 net.cpp:156] Memory required for data: 616761344
I0421 13:03:26.692641 21831 layer_factory.hpp:77] Creating layer relu2
I0421 13:03:26.692656 21831 net.cpp:91] Creating Layer relu2
I0421 13:03:26.692661 21831 net.cpp:425] relu2 <- conv2
I0421 13:03:26.692669 21831 net.cpp:399] relu2 -> relu2
I0421 13:03:26.692994 21831 net.cpp:141] Setting up relu2
I0421 13:03:26.693008 21831 net.cpp:148] Top shape: 512 256 15 15 (29491200)
I0421 13:03:26.693017 21831 net.cpp:156] Memory required for data: 734726144
I0421 13:03:26.693022 21831 layer_factory.hpp:77] Creating layer pool2
I0421 13:03:26.693032 21831 net.cpp:91] Creating Layer pool2
I0421 13:03:26.693037 21831 net.cpp:425] pool2 <- relu2
I0421 13:03:26.693043 21831 net.cpp:399] pool2 -> pool2
I0421 13:03:26.693089 21831 net.cpp:141] Setting up pool2
I0421 13:03:26.693100 21831 net.cpp:148] Top shape: 512 256 7 7 (6422528)
I0421 13:03:26.693106 21831 net.cpp:156] Memory required for data: 760416256
I0421 13:03:26.693111 21831 layer_factory.hpp:77] Creating layer conv3
I0421 13:03:26.693125 21831 net.cpp:91] Creating Layer conv3
I0421 13:03:26.693130 21831 net.cpp:425] conv3 <- pool2
I0421 13:03:26.693140 21831 net.cpp:399] conv3 -> conv3
I0421 13:03:26.726629 21831 net.cpp:141] Setting up conv3
I0421 13:03:26.726665 21831 net.cpp:148] Top shape: 512 384 7 7 (9633792)
I0421 13:03:26.726671 21831 net.cpp:156] Memory required for data: 798951424
I0421 13:03:26.726691 21831 layer_factory.hpp:77] Creating layer relu3
I0421 13:03:26.726709 21831 net.cpp:91] Creating Layer relu3
I0421 13:03:26.726716 21831 net.cpp:425] relu3 <- conv3
I0421 13:03:26.726727 21831 net.cpp:399] relu3 -> relu3
I0421 13:03:26.726963 21831 net.cpp:141] Setting up relu3
I0421 13:03:26.726976 21831 net.cpp:148] Top shape: 512 384 7 7 (9633792)
I0421 13:03:26.726981 21831 net.cpp:156] Memory required for data: 837486592
I0421 13:03:26.726986 21831 layer_factory.hpp:77] Creating layer conv4
I0421 13:03:26.727004 21831 net.cpp:91] Creating Layer conv4
I0421 13:03:26.727008 21831 net.cpp:425] conv4 <- relu3
I0421 13:03:26.727017 21831 net.cpp:399] conv4 -> conv4
I0421 13:03:26.755551 21831 net.cpp:141] Setting up conv4
I0421 13:03:26.755579 21831 net.cpp:148] Top shape: 512 384 7 7 (9633792)
I0421 13:03:26.755612 21831 net.cpp:156] Memory required for data: 876021760
I0421 13:03:26.755625 21831 layer_factory.hpp:77] Creating layer relu4
I0421 13:03:26.755637 21831 net.cpp:91] Creating Layer relu4
I0421 13:03:26.755643 21831 net.cpp:425] relu4 <- conv4
I0421 13:03:26.755656 21831 net.cpp:399] relu4 -> relu4
I0421 13:03:26.755882 21831 net.cpp:141] Setting up relu4
I0421 13:03:26.755894 21831 net.cpp:148] Top shape: 512 384 7 7 (9633792)
I0421 13:03:26.755902 21831 net.cpp:156] Memory required for data: 914556928
I0421 13:03:26.755908 21831 layer_factory.hpp:77] Creating layer conv5
I0421 13:03:26.755923 21831 net.cpp:91] Creating Layer conv5
I0421 13:03:26.755928 21831 net.cpp:425] conv5 <- relu4
I0421 13:03:26.755935 21831 net.cpp:399] conv5 -> conv5
I0421 13:03:26.774885 21831 net.cpp:141] Setting up conv5
I0421 13:03:26.774916 21831 net.cpp:148] Top shape: 512 256 7 7 (6422528)
I0421 13:03:26.774922 21831 net.cpp:156] Memory required for data: 940247040
I0421 13:03:26.774943 21831 layer_factory.hpp:77] Creating layer relu5
I0421 13:03:26.774960 21831 net.cpp:91] Creating Layer relu5
I0421 13:03:26.774972 21831 net.cpp:425] relu5 <- conv5
I0421 13:03:26.774982 21831 net.cpp:399] relu5 -> relu5
I0421 13:03:26.775800 21831 net.cpp:141] Setting up relu5
I0421 13:03:26.775815 21831 net.cpp:148] Top shape: 512 256 7 7 (6422528)
I0421 13:03:26.775820 21831 net.cpp:156] Memory required for data: 965937152
I0421 13:03:26.775825 21831 layer_factory.hpp:77] Creating layer pool5
I0421 13:03:26.775835 21831 net.cpp:91] Creating Layer pool5
I0421 13:03:26.775840 21831 net.cpp:425] pool5 <- relu5
I0421 13:03:26.775847 21831 net.cpp:399] pool5 -> pool5
I0421 13:03:26.775895 21831 net.cpp:141] Setting up pool5
I0421 13:03:26.775903 21831 net.cpp:148] Top shape: 512 256 3 3 (1179648)
I0421 13:03:26.775907 21831 net.cpp:156] Memory required for data: 970655744
I0421 13:03:26.775912 21831 layer_factory.hpp:77] Creating layer fc6
I0421 13:03:26.775931 21831 net.cpp:91] Creating Layer fc6
I0421 13:03:26.775936 21831 net.cpp:425] fc6 <- pool5
I0421 13:03:26.775945 21831 net.cpp:399] fc6 -> fc6
I0421 13:03:26.945037 21831 net.cpp:141] Setting up fc6
I0421 13:03:26.945065 21831 net.cpp:148] Top shape: 512 2048 (1048576)
I0421 13:03:26.945071 21831 net.cpp:156] Memory required for data: 974850048
I0421 13:03:26.945083 21831 layer_factory.hpp:77] Creating layer relu6
I0421 13:03:26.945096 21831 net.cpp:91] Creating Layer relu6
I0421 13:03:26.945103 21831 net.cpp:425] relu6 <- fc6
I0421 13:03:26.945114 21831 net.cpp:399] relu6 -> relu6
I0421 13:03:26.945582 21831 net.cpp:141] Setting up relu6
I0421 13:03:26.945598 21831 net.cpp:148] Top shape: 512 2048 (1048576)
I0421 13:03:26.945603 21831 net.cpp:156] Memory required for data: 979044352
I0421 13:03:26.945610 21831 layer_factory.hpp:77] Creating layer drop6
I0421 13:03:26.945623 21831 net.cpp:91] Creating Layer drop6
I0421 13:03:26.945628 21831 net.cpp:425] drop6 <- relu6
I0421 13:03:26.945636 21831 net.cpp:399] drop6 -> drop6
I0421 13:03:26.945703 21831 net.cpp:141] Setting up drop6
I0421 13:03:26.945742 21831 net.cpp:148] Top shape: 512 2048 (1048576)
I0421 13:03:26.945758 21831 net.cpp:156] Memory required for data: 983238656
I0421 13:03:26.945775 21831 layer_factory.hpp:77] Creating layer fc7
I0421 13:03:26.945801 21831 net.cpp:91] Creating Layer fc7
I0421 13:03:26.945822 21831 net.cpp:425] fc7 <- drop6
I0421 13:03:26.945847 21831 net.cpp:399] fc7 -> fc7
I0421 13:03:27.103278 21831 net.cpp:141] Setting up fc7
I0421 13:03:27.103353 21831 net.cpp:148] Top shape: 512 2048 (1048576)
I0421 13:03:27.103375 21831 net.cpp:156] Memory required for data: 987432960
I0421 13:03:27.103399 21831 layer_factory.hpp:77] Creating layer relu7
I0421 13:03:27.103425 21831 net.cpp:91] Creating Layer relu7
I0421 13:03:27.103442 21831 net.cpp:425] relu7 <- fc7
I0421 13:03:27.103462 21831 net.cpp:399] relu7 -> relu7
I0421 13:03:27.103775 21831 net.cpp:141] Setting up relu7
I0421 13:03:27.103807 21831 net.cpp:148] Top shape: 512 2048 (1048576)
I0421 13:03:27.103826 21831 net.cpp:156] Memory required for data: 991627264
I0421 13:03:27.103854 21831 layer_factory.hpp:77] Creating layer drop7
I0421 13:03:27.103875 21831 net.cpp:91] Creating Layer drop7
I0421 13:03:27.103894 21831 net.cpp:425] drop7 <- relu7
I0421 13:03:27.103916 21831 net.cpp:399] drop7 -> drop7
I0421 13:03:27.103992 21831 net.cpp:141] Setting up drop7
I0421 13:03:27.104022 21831 net.cpp:148] Top shape: 512 2048 (1048576)
I0421 13:03:27.104040 21831 net.cpp:156] Memory required for data: 995821568
I0421 13:03:27.104059 21831 layer_factory.hpp:77] Creating layer fc8
I0421 13:03:27.104086 21831 net.cpp:91] Creating Layer fc8
I0421 13:03:27.104107 21831 net.cpp:425] fc8 <- drop7
I0421 13:03:27.104132 21831 net.cpp:399] fc8 -> fc8
I0421 13:03:27.177109 21831 net.cpp:141] Setting up fc8
I0421 13:03:27.177186 21831 net.cpp:148] Top shape: 512 1000 (512000)
I0421 13:03:27.177211 21831 net.cpp:156] Memory required for data: 997869568
I0421 13:03:27.177237 21831 layer_factory.hpp:77] Creating layer loss
I0421 13:03:27.177263 21831 net.cpp:91] Creating Layer loss
I0421 13:03:27.177280 21831 net.cpp:425] loss <- fc8
I0421 13:03:27.177300 21831 net.cpp:425] loss <- label
I0421 13:03:27.177321 21831 net.cpp:399] loss -> loss
I0421 13:03:27.177346 21831 layer_factory.hpp:77] Creating layer loss
…
I0421 13:03:27.179986 21831 net.cpp:313] The NetState phase (1) differed from the phase (0) specified by a rule in layer data
I0421 13:03:27.180250 21831 net.cpp:49] Initializing net from parameters: 
name: "CaffeNet"
state {
  phase: TEST
}
layer {
  name: "data"
  type: "Data"
  top: "data"
  top: "label"
  include {
    phase: TEST
  }
  transform_param {
    scale: 0.04
    mirror: false
    crop_size: 128
    mean_value: 104
    mean_value: 117
    mean_value: 123
    force_color: true
  }
  data_param {
    source: "/home/old-ufo/storage/datasets/imagenet/imgs128/lmdb/ilsvrc12_128_val_lmdb"
    batch_size: 50
    backend: LMDB
  }
}
layer {
  name: "conv1"
  type: "Convolution"
  bottom: "data"
  top: "conv1"
  param {
    lr_mult: 1
    decay_mult: 1
  }
  param {
    lr_mult: 2
    decay_mult: 0
  }
  convolution_param {
    num_output: 96
    kernel_size: 11
    stride: 4
    weight_filler {
      type: "gaussian"
      std: 0.01
    }
    bias_filler {
      type: "constant"
    }
  }
}
layer {
  name: "relu1"
  type: "ReLU"
  bottom: "conv1"
  top: "relu1"
}
layer {
  name: "pool1"
  type: "Pooling"
  bottom: "relu1"
  top: "pool1"
  pooling_param {
    pool: MAX
    kernel_size: 3
    stride: 2
  }
}
layer {
  name: "conv2"
  type: "Convolution"
  bottom: "pool1"
  top: "conv2"
  param {
    lr_mult: 1
    decay_mult: 1
  }
  param {
    lr_mult: 2
    decay_mult: 0
  }
  convolution_param {
    num_output: 256
    pad: 2
    kernel_size: 5
    group: 2
    weight_filler {
      type: "gaussian"
      std: 0.01
    }
    bias_filler {
      type: "constant"
    }
  }
}
layer {
  name: "relu2"
  type: "ReLU"
  bottom: "conv2"
  top: "relu2"
}
layer {
  name: "pool2"
  type: "Pooling"
  bottom: "relu2"
  top: "pool2"
  pooling_param {
    pool: MAX
    kernel_size: 3
    stride: 2
  }
}
layer {
  name: "conv3"
  type: "Convolution"
  bottom: "pool2"
  top: "conv3"
  param {
    lr_mult: 1
    decay_mult: 1
  }
  param {
    lr_mult: 2
    decay_mult: 0
  }
  convolution_param {
    num_output: 384
    pad: 1
    kernel_size: 3
    weight_filler {
      type: "gaussian"
      std: 0.01
    }
    bias_filler {
      type: "constant"
    }
  }
}
layer {
  name: "relu3"
  type: "ReLU"
  bottom: "conv3"
  top: "relu3"
}
layer {
  name: "conv4"
  type: "Convolution"
  bottom: "relu3"
  top: "conv4"
  param {
    lr_mult: 1
    decay_mult: 1
  }
  param {
    lr_mult: 2
    decay_mult: 0
  }
  convolution_param {
    num_output: 384
    pad: 1
    kernel_size: 3
    group: 2
    weight_filler {
      type: "gaussian"
      std: 0.01
    }
    bias_filler {
      type: "constant"
    }
  }
}
layer {
  name: "relu4"
  type: "ReLU"
  bottom: "conv4"
  top: "relu4"
}
layer {
  name: "conv5"
  type: "Convolution"
  bottom: "relu4"
  top: "conv5"
  param {
    lr_mult: 1
    decay_mult: 1
  }
  param {
    lr_mult: 2
    decay_mult: 0
  }
  convolution_param {
    num_output: 256
    pad: 1
    kernel_size: 3
    group: 2
    weight_filler {
      type: "gaussian"
      std: 0.01
    }
    bias_filler {
      type: "constant"
    }
  }
}
layer {
  name: "relu5"
  type: "ReLU"
  bottom: "conv5"
  top: "relu5"
}
layer {
  name: "pool5"
  type: "Pooling"
  bottom: "relu5"
  top: "pool5"
  pooling_param {
    pool: MAX
    kernel_size: 3
    stride: 2
  }
}
layer {
  name: "fc6"
  type: "InnerProduct"
  bottom: "pool5"
  top: "fc6"
  param {
    lr_mult: 1
    decay_mult: 1
  }
  param {
    lr_mult: 2
    decay_mult: 0
  }
  inner_product_param {
    num_output: 2048
    weight_filler {
      type: "gaussian"
      std: 0.005
    }
    bias_filler {
      type: "constant"
    }
  }
}
layer {
  name: "relu6"
  type: "ReLU"
  bottom: "fc6"
  top: "relu6"
}
layer {
  name: "drop6"
  type: "Dropout"
  bottom: "relu6"
  top: "drop6"
  dropout_param {
    dropout_ratio: 0.5
  }
}
layer {
  name: "fc7"
  type: "InnerProduct"
  bottom: "drop6"
  top: "fc7"
  param {
    lr_mult: 1
    decay_mult: 1
  }
  param {
    lr_mult: 2
    decay_mult: 0
  }
  inner_product_param {
    num_output: 2048
    weight_filler {
      type: "gaussian"
      std: 0.005
    }
    bias_filler {
      type: "constant"
    }
  }
}
layer {
  name: "relu7"
  type: "ReLU"
  bottom: "fc7"
  top: "relu7"
}
layer {
  name: "drop7"
  type: "Dropout"
  bottom: "relu7"
  top: "drop7"
  dropout_param {
    dropout_ratio: 0.5
  }
}
layer {
  name: "fc8"
  type: "InnerProduct"
  bottom: "drop7"
  top: "fc8"
  param {
    lr_mult: 1
    decay_mult: 1
  }
  param {
    lr_mult: 2
    decay_mult: 0
  }
  inner_product_param {
    num_output: 1000
    weight_filler {
      type: "gaussian"
      std: 0.01
    }
    bias_filler {
      type: "constant"
    }
  }
}
layer {
  name: "accuracy"
  type: "Accuracy"
  bottom: "fc8"
  bottom: "label"
  top: "accuracy"
  include {
    phase: TEST
  }
}
layer {
  name: "loss"
  type: "SoftmaxWithLoss"
  bottom: "fc8"
  bottom: "label"
  top: "loss"
}
I0421 13:03:27.181567 21831 layer_factory.hpp:77] Creating layer data
I0421 13:03:27.181712 21831 net.cpp:91] Creating Layer data
I0421 13:03:27.181740 21831 net.cpp:399] data -> data
I0421 13:03:27.181766 21831 net.cpp:399] data -> label
I0421 13:03:27.182667 21838 db_lmdb.cpp:38] Opened lmdb /home/old-ufo/storage/datasets/imagenet/imgs128/lmdb/ilsvrc12_128_val_lmdb
I0421 13:03:27.183740 21831 data_layer.cpp:41] output data size: 50,3,128,128
I0421 13:03:27.202039 21831 net.cpp:141] Setting up data
I0421 13:03:27.202183 21831 net.cpp:148] Top shape: 50 3 128 128 (2457600)
I0421 13:03:27.202239 21831 net.cpp:148] Top shape: 50 (50)
I0421 13:03:27.202289 21831 net.cpp:156] Memory required for data: 9830600
I0421 13:03:27.202332 21831 layer_factory.hpp:77] Creating layer label_data_1_split
I0421 13:03:27.202381 21831 net.cpp:91] Creating Layer label_data_1_split
I0421 13:03:27.202425 21831 net.cpp:425] label_data_1_split <- label
I0421 13:03:27.202471 21831 net.cpp:399] label_data_1_split -> label_data_1_split_0
I0421 13:03:27.202520 21831 net.cpp:399] label_data_1_split -> label_data_1_split_1
I0421 13:03:27.202633 21831 net.cpp:141] Setting up label_data_1_split
I0421 13:03:27.202683 21831 net.cpp:148] Top shape: 50 (50)
I0421 13:03:27.202726 21831 net.cpp:148] Top shape: 50 (50)
I0421 13:03:27.202766 21831 net.cpp:156] Memory required for data: 9831000
I0421 13:03:27.202808 21831 layer_factory.hpp:77] Creating layer conv1
I0421 13:03:27.202860 21831 net.cpp:91] Creating Layer conv1
I0421 13:03:27.202903 21831 net.cpp:425] conv1 <- data
I0421 13:03:27.202950 21831 net.cpp:399] conv1 -> conv1
I0421 13:03:27.206539 21831 net.cpp:141] Setting up conv1
I0421 13:03:27.206641 21831 net.cpp:148] Top shape: 50 96 30 30 (4320000)
I0421 13:03:27.206696 21831 net.cpp:156] Memory required for data: 27111000
I0421 13:03:27.206750 21831 layer_factory.hpp:77] Creating layer relu1
I0421 13:03:27.206799 21831 net.cpp:91] Creating Layer relu1
I0421 13:03:27.206840 21831 net.cpp:425] relu1 <- conv1
I0421 13:03:27.206882 21831 net.cpp:399] relu1 -> relu1
I0421 13:03:27.207165 21831 net.cpp:141] Setting up relu1
I0421 13:03:27.207216 21831 net.cpp:148] Top shape: 50 96 30 30 (4320000)
I0421 13:03:27.207249 21831 net.cpp:156] Memory required for data: 44391000
I0421 13:03:27.207281 21831 layer_factory.hpp:77] Creating layer pool1
I0421 13:03:27.207326 21831 net.cpp:91] Creating Layer pool1
I0421 13:03:27.207361 21831 net.cpp:425] pool1 <- relu1
I0421 13:03:27.207397 21831 net.cpp:399] pool1 -> pool1
I0421 13:03:27.207479 21831 net.cpp:141] Setting up pool1
I0421 13:03:27.207520 21831 net.cpp:148] Top shape: 50 96 15 15 (1080000)
I0421 13:03:27.207551 21831 net.cpp:156] Memory required for data: 48711000
I0421 13:03:27.207584 21831 layer_factory.hpp:77] Creating layer conv2
I0421 13:03:27.207628 21831 net.cpp:91] Creating Layer conv2
I0421 13:03:27.207660 21831 net.cpp:425] conv2 <- pool1
I0421 13:03:27.207698 21831 net.cpp:399] conv2 -> conv2
I0421 13:03:27.222143 21831 net.cpp:141] Setting up conv2
I0421 13:03:27.222306 21831 net.cpp:148] Top shape: 50 256 15 15 (2880000)
I0421 13:03:27.222367 21831 net.cpp:156] Memory required for data: 60231000
I0421 13:03:27.222421 21831 layer_factory.hpp:77] Creating layer relu2
I0421 13:03:27.222465 21831 net.cpp:91] Creating Layer relu2
I0421 13:03:27.222501 21831 net.cpp:425] relu2 <- conv2
I0421 13:03:27.222542 21831 net.cpp:399] relu2 -> relu2
I0421 13:03:27.223176 21831 net.cpp:141] Setting up relu2
I0421 13:03:27.223230 21831 net.cpp:148] Top shape: 50 256 15 15 (2880000)
I0421 13:03:27.223265 21831 net.cpp:156] Memory required for data: 71751000
I0421 13:03:27.223299 21831 layer_factory.hpp:77] Creating layer pool2
I0421 13:03:27.223338 21831 net.cpp:91] Creating Layer pool2
I0421 13:03:27.223384 21831 net.cpp:425] pool2 <- relu2
I0421 13:03:27.223423 21831 net.cpp:399] pool2 -> pool2
I0421 13:03:27.223511 21831 net.cpp:141] Setting up pool2
I0421 13:03:27.223563 21831 net.cpp:148] Top shape: 50 256 7 7 (627200)
I0421 13:03:27.223595 21831 net.cpp:156] Memory required for data: 74259800
I0421 13:03:27.223628 21831 layer_factory.hpp:77] Creating layer conv3
I0421 13:03:27.223675 21831 net.cpp:91] Creating Layer conv3
I0421 13:03:27.223708 21831 net.cpp:425] conv3 <- pool2
I0421 13:03:27.223747 21831 net.cpp:399] conv3 -> conv3
I0421 13:03:27.257300 21831 net.cpp:141] Setting up conv3
I0421 13:03:27.257472 21831 net.cpp:148] Top shape: 50 384 7 7 (940800)
I0421 13:03:27.257534 21831 net.cpp:156] Memory required for data: 78023000
I0421 13:03:27.257591 21831 layer_factory.hpp:77] Creating layer relu3
I0421 13:03:27.257637 21831 net.cpp:91] Creating Layer relu3
I0421 13:03:27.257675 21831 net.cpp:425] relu3 <- conv3
I0421 13:03:27.257712 21831 net.cpp:399] relu3 -> relu3
I0421 13:03:27.258174 21831 net.cpp:141] Setting up relu3
I0421 13:03:27.258239 21831 net.cpp:148] Top shape: 50 384 7 7 (940800)
I0421 13:03:27.258290 21831 net.cpp:156] Memory required for data: 81786200
I0421 13:03:27.258334 21831 layer_factory.hpp:77] Creating layer conv4
I0421 13:03:27.258389 21831 net.cpp:91] Creating Layer conv4
I0421 13:03:27.258432 21831 net.cpp:425] conv4 <- relu3
I0421 13:03:27.258481 21831 net.cpp:399] conv4 -> conv4
I0421 13:03:27.286449 21831 net.cpp:141] Setting up conv4
I0421 13:03:27.286612 21831 net.cpp:148] Top shape: 50 384 7 7 (940800)
I0421 13:03:27.286671 21831 net.cpp:156] Memory required for data: 85549400
I0421 13:03:27.286720 21831 layer_factory.hpp:77] Creating layer relu4
I0421 13:03:27.286766 21831 net.cpp:91] Creating Layer relu4
I0421 13:03:27.286803 21831 net.cpp:425] relu4 <- conv4
I0421 13:03:27.286840 21831 net.cpp:399] relu4 -> relu4
I0421 13:03:27.287344 21831 net.cpp:141] Setting up relu4
I0421 13:03:27.287405 21831 net.cpp:148] Top shape: 50 384 7 7 (940800)
I0421 13:03:27.287439 21831 net.cpp:156] Memory required for data: 89312600
I0421 13:03:27.287473 21831 layer_factory.hpp:77] Creating layer conv5
I0421 13:03:27.287518 21831 net.cpp:91] Creating Layer conv5
I0421 13:03:27.287557 21831 net.cpp:425] conv5 <- relu4
I0421 13:03:27.287607 21831 net.cpp:399] conv5 -> conv5
I0421 13:03:27.307765 21831 net.cpp:141] Setting up conv5
I0421 13:03:27.307921 21831 net.cpp:148] Top shape: 50 256 7 7 (627200)
I0421 13:03:27.307981 21831 net.cpp:156] Memory required for data: 91821400
I0421 13:03:27.308042 21831 layer_factory.hpp:77] Creating layer relu5
I0421 13:03:27.308085 21831 net.cpp:91] Creating Layer relu5
I0421 13:03:27.308121 21831 net.cpp:425] relu5 <- conv5
I0421 13:03:27.308159 21831 net.cpp:399] relu5 -> relu5
I0421 13:03:27.308787 21831 net.cpp:141] Setting up relu5
I0421 13:03:27.308838 21831 net.cpp:148] Top shape: 50 256 7 7 (627200)
I0421 13:03:27.308872 21831 net.cpp:156] Memory required for data: 94330200
I0421 13:03:27.308905 21831 layer_factory.hpp:77] Creating layer pool5
I0421 13:03:27.308943 21831 net.cpp:91] Creating Layer pool5
I0421 13:03:27.308976 21831 net.cpp:425] pool5 <- relu5
I0421 13:03:27.309017 21831 net.cpp:399] pool5 -> pool5
I0421 13:03:27.309113 21831 net.cpp:141] Setting up pool5
I0421 13:03:27.309155 21831 net.cpp:148] Top shape: 50 256 3 3 (115200)
I0421 13:03:27.309188 21831 net.cpp:156] Memory required for data: 94791000
I0421 13:03:27.309221 21831 layer_factory.hpp:77] Creating layer fc6
I0421 13:03:27.309258 21831 net.cpp:91] Creating Layer fc6
I0421 13:03:27.309291 21831 net.cpp:425] fc6 <- pool5
I0421 13:03:27.309330 21831 net.cpp:399] fc6 -> fc6
I0421 13:03:27.477066 21831 net.cpp:141] Setting up fc6
I0421 13:03:27.477097 21831 net.cpp:148] Top shape: 50 2048 (102400)
I0421 13:03:27.477102 21831 net.cpp:156] Memory required for data: 95200600
I0421 13:03:27.477114 21831 layer_factory.hpp:77] Creating layer relu6
I0421 13:03:27.477133 21831 net.cpp:91] Creating Layer relu6
I0421 13:03:27.477140 21831 net.cpp:425] relu6 <- fc6
I0421 13:03:27.477150 21831 net.cpp:399] relu6 -> relu6
I0421 13:03:27.477658 21831 net.cpp:141] Setting up relu6
I0421 13:03:27.477674 21831 net.cpp:148] Top shape: 50 2048 (102400)
I0421 13:03:27.477695 21831 net.cpp:156] Memory required for data: 95610200
I0421 13:03:27.477701 21831 layer_factory.hpp:77] Creating layer drop6
I0421 13:03:27.477710 21831 net.cpp:91] Creating Layer drop6
I0421 13:03:27.477715 21831 net.cpp:425] drop6 <- relu6
I0421 13:03:27.477722 21831 net.cpp:399] drop6 -> drop6
I0421 13:03:27.477780 21831 net.cpp:141] Setting up drop6
I0421 13:03:27.477788 21831 net.cpp:148] Top shape: 50 2048 (102400)
I0421 13:03:27.477792 21831 net.cpp:156] Memory required for data: 96019800
I0421 13:03:27.477797 21831 layer_factory.hpp:77] Creating layer fc7
I0421 13:03:27.477807 21831 net.cpp:91] Creating Layer fc7
I0421 13:03:27.477813 21831 net.cpp:425] fc7 <- drop6
I0421 13:03:27.477820 21831 net.cpp:399] fc7 -> fc7
I0421 13:03:27.626482 21831 net.cpp:141] Setting up fc7
I0421 13:03:27.626513 21831 net.cpp:148] Top shape: 50 2048 (102400)
I0421 13:03:27.626518 21831 net.cpp:156] Memory required for data: 96429400
I0421 13:03:27.626528 21831 layer_factory.hpp:77] Creating layer relu7
I0421 13:03:27.626540 21831 net.cpp:91] Creating Layer relu7
I0421 13:03:27.626546 21831 net.cpp:425] relu7 <- fc7
I0421 13:03:27.626555 21831 net.cpp:399] relu7 -> relu7
I0421 13:03:27.626833 21831 net.cpp:141] Setting up relu7
I0421 13:03:27.626844 21831 net.cpp:148] Top shape: 50 2048 (102400)
I0421 13:03:27.626849 21831 net.cpp:156] Memory required for data: 96839000
I0421 13:03:27.626853 21831 layer_factory.hpp:77] Creating layer drop7
I0421 13:03:27.626863 21831 net.cpp:91] Creating Layer drop7
I0421 13:03:27.626866 21831 net.cpp:425] drop7 <- relu7
I0421 13:03:27.626873 21831 net.cpp:399] drop7 -> drop7
I0421 13:03:27.626919 21831 net.cpp:141] Setting up drop7
I0421 13:03:27.626926 21831 net.cpp:148] Top shape: 50 2048 (102400)
I0421 13:03:27.626930 21831 net.cpp:156] Memory required for data: 97248600
I0421 13:03:27.626935 21831 layer_factory.hpp:77] Creating layer fc8
I0421 13:03:27.626945 21831 net.cpp:91] Creating Layer fc8
I0421 13:03:27.626950 21831 net.cpp:425] fc8 <- drop7
I0421 13:03:27.626957 21831 net.cpp:399] fc8 -> fc8
I0421 13:03:27.699861 21831 net.cpp:141] Setting up fc8
I0421 13:03:27.699892 21831 net.cpp:148] Top shape: 50 1000 (50000)
I0421 13:03:27.699897 21831 net.cpp:156] Memory required for data: 97448600
I0421 13:03:27.699908 21831 layer_factory.hpp:77] Creating layer fc8_fc8_0_split
I0421 13:03:27.699918 21831 net.cpp:91] Creating Layer fc8_fc8_0_split
I0421 13:03:27.699925 21831 net.cpp:425] fc8_fc8_0_split <- fc8
I0421 13:03:27.699934 21831 net.cpp:399] fc8_fc8_0_split -> fc8_fc8_0_split_0
I0421 13:03:27.699944 21831 net.cpp:399] fc8_fc8_0_split -> fc8_fc8_0_split_1
I0421 13:03:27.699996 21831 net.cpp:141] Setting up fc8_fc8_0_split
I0421 13:03:27.700004 21831 net.cpp:148] Top shape: 50 1000 (50000)
I0421 13:03:27.700009 21831 net.cpp:148] Top shape: 50 1000 (50000)
I0421 13:03:27.700012 21831 net.cpp:156] Memory required for data: 97848600
I0421 13:03:27.700016 21831 layer_factory.hpp:77] Creating layer accuracy
I0421 13:03:27.700033 21831 net.cpp:91] Creating Layer accuracy
I0421 13:03:27.700040 21831 net.cpp:425] accuracy <- fc8_fc8_0_split_0
I0421 13:03:27.700047 21831 net.cpp:425] accuracy <- label_data_1_split_0
I0421 13:03:27.700058 21831 net.cpp:399] accuracy -> accuracy
…
