…
      source: "/home/old-ufo/storage/datasets/imagenet/imgs128/lmdb/ilsvrc12_128_train_lmdb"
      batch_size: 1024
      backend: LMDB
    }
  }
  layer {
    name: "data"
    type: "Data"
    top: "data"
    top: "label"
    include {
      phase: TEST
    }
    transform_param {
      scale: 0.04
      mirror: false
      crop_size: 128
      mean_value: 104
      mean_value: 117
      mean_value: 123
      force_color: true
    }
    data_param {
      source: "/home/old-ufo/storage/datasets/imagenet/imgs128/lmdb/ilsvrc12_128_val_lmdb"
      batch_size: 50
      backend: LMDB
    }
  }
  layer {
    name: "conv1"
    type: "Convolution"
    bottom: "data"
    top: "conv1"
    param {
      lr_mult: 1
      decay_mult: 1
    }
    param {
      lr_mult: 2
      decay_mult: 0
    }
    convolution_param {
      num_output: 96
      kernel_size: 11
      stride: 4
      weight_filler {
        type: "gaussian"
        std: 0.01
      }
      bias_filler {
        type: "constant"
      }
    }
  }
  layer {
    name: "relu1"
    type: "ReLU"
    bottom: "conv1"
    top: "relu1"
  }
  layer {
    name: "pool1"
    type: "Pooling"
    bottom: "relu1"
    top: "pool1"
    pooling_param {
      pool: MAX
      kernel_size: 3
      stride: 2
    }
  }
  layer {
    name: "conv2"
    type: "Convolution"
    bottom: "pool1"
    top: "conv2"
    param {
      lr_mult: 1
      decay_mult: 1
    }
    param {
      lr_mult: 2
      decay_mult: 0
    }
    convolution_param {
      num_output: 256
      pad: 2
      kernel_size: 5
      group: 2
      weight_filler {
        type: "gaussian"
        std: 0.01
      }
      bias_filler {
        type: "constant"
      }
    }
  }
  layer {
    name: "relu2"
    type: "ReLU"
    bottom: "conv2"
    top: "relu2"
  }
  layer {
    name: "pool2"
    type: "Pooling"
    bottom: "relu2"
    top: "pool2"
    pooling_param {
      pool: MAX
      kernel_size: 3
      stride: 2
    }
  }
  layer {
    name: "conv3"
    type: "Convolution"
    bottom: "pool2"
    top: "conv3"
    param {
      lr_mult: 1
      decay_mult: 1
    }
    param {
      lr_mult: 2
      decay_mult: 0
    }
    convolution_param {
      num_output: 384
      pad: 1
      kernel_size: 3
      weight_filler {
        type: "gaussian"
        std: 0.01
      }
      bias_filler {
        type: "constant"
      }
    }
  }
  layer {
    name: "relu3"
    type: "ReLU"
    bottom: "conv3"
    top: "relu3"
  }
  layer {
    name: "conv4"
    type: "Convolution"
    bottom: "relu3"
    top: "conv4"
    param {
      lr_mult: 1
      decay_mult: 1
    }
    param {
      lr_mult: 2
      decay_mult: 0
    }
    convolution_param {
      num_output: 384
      pad: 1
      kernel_size: 3
      group: 2
      weight_filler {
        type: "gaussian"
        std: 0.01
      }
      bias_filler {
        type: "constant"
      }
    }
  }
  layer {
    name: "relu4"
    type: "ReLU"
    bottom: "conv4"
    top: "relu4"
  }
  layer {
    name: "conv5"
    type: "Convolution"
    bottom: "relu4"
    top: "conv5"
    param {
      lr_mult: 1
      decay_mult: 1
    }
    param {
      lr_mult: 2
      decay_mult: 0
    }
    convolution_param {
      num_output: 256
      pad: 1
      kernel_size: 3
      group: 2
      weight_filler {
        type: "gaussian"
        std: 0.01
      }
      bias_filler {
        type: "constant"
      }
    }
  }
  layer {
    name: "relu5"
    type: "ReLU"
    bottom: "conv5"
    top: "relu5"
  }
  layer {
    name: "pool5"
    type: "Pooling"
    bottom: "relu5"
    top: "pool5"
    pooling_param {
      pool: MAX
      kernel_size: 3
      stride: 2
    }
  }
  layer {
    name: "fc6"
    type: "InnerProduct"
    bottom: "pool5"
    top: "fc6"
    param {
      lr_mult: 1
      decay_mult: 1
    }
    param {
      lr_mult: 2
      decay_mult: 0
    }
    inner_product_param {
      num_output: 2048
      weight_filler {
        type: "gaussian"
        std: 0.005
      }
      bias_filler {
        type: "constant"
      }
    }
  }
  layer {
    name: "relu6"
    type: "ReLU"
    bottom: "fc6"
    top: "relu6"
  }
  layer {
    name: "drop6"
    type: "Dropout"
    bottom: "relu6"
    top: "drop6"
    dropout_param {
      dropout_ratio: 0.5
    }
  }
  layer {
    name: "fc7"
    type: "InnerProduct"
    bottom: "drop6"
    top: "fc7"
    param {
      lr_mult: 1
      decay_mult: 1
    }
    param {
      lr_mult: 2
      decay_mult: 0
    }
    inner_product_param {
      num_output: 2048
      weight_filler {
        type: "gaussian"
        std: 0.005
      }
      bias_filler {
        type: "constant"
      }
    }
  }
  layer {
    name: "relu7"
    type: "ReLU"
    bottom: "fc7"
    top: "relu7"
  }
  layer {
    name: "drop7"
    type: "Dropout"
    bottom: "relu7"
    top: "drop7"
    dropout_param {
      dropout_ratio: 0.5
    }
  }
  layer {
    name: "fc8"
    type: "InnerProduct"
    bottom: "drop7"
    top: "fc8"
    param {
      lr_mult: 1
      decay_mult: 1
    }
    param {
      lr_mult: 2
      decay_mult: 0
    }
    inner_product_param {
      num_output: 1000
      weight_filler {
        type: "gaussian"
        std: 0.01
      }
      bias_filler {
        type: "constant"
      }
    }
  }
  layer {
    name: "accuracy"
    type: "Accuracy"
    bottom: "fc8"
    bottom: "label"
    top: "accuracy"
    include {
      phase: TEST
    }
  }
  layer {
    name: "loss"
    type: "SoftmaxWithLoss"
    bottom: "fc8"
    bottom: "label"
    top: "loss"
  }
}
test_initialization: true
iter_size: 1
type: "SGD"
I0420 13:58:39.732177 11150 solver.cpp:86] Creating training net specified in net_param.
I0420 13:58:39.732332 11150 net.cpp:313] The NetState phase (0) differed from the phase (1) specified by a rule in layer data
I0420 13:58:39.732384 11150 net.cpp:313] The NetState phase (0) differed from the phase (1) specified by a rule in layer accuracy
I0420 13:58:39.732616 11150 net.cpp:49] Initializing net from parameters: 
name: "CaffeNet"
state {
  phase: TRAIN
}
layer {
  name: "data"
  type: "Data"
  top: "data"
  top: "label"
  include {
    phase: TRAIN
  }
  transform_param {
    scale: 0.04
    mirror: true
    crop_size: 128
    mean_value: 104
    mean_value: 117
    mean_value: 124
    force_color: true
  }
  data_param {
    source: "/home/old-ufo/storage/datasets/imagenet/imgs128/lmdb/ilsvrc12_128_train_lmdb"
    batch_size: 1024
    backend: LMDB
  }
}
layer {
  name: "conv1"
  type: "Convolution"
  bottom: "data"
  top: "conv1"
  param {
    lr_mult: 1
    decay_mult: 1
  }
  param {
    lr_mult: 2
    decay_mult: 0
  }
  convolution_param {
    num_output: 96
    kernel_size: 11
    stride: 4
    weight_filler {
      type: "gaussian"
      std: 0.01
    }
    bias_filler {
      type: "constant"
    }
  }
}
layer {
  name: "relu1"
  type: "ReLU"
  bottom: "conv1"
  top: "relu1"
}
layer {
  name: "pool1"
  type: "Pooling"
  bottom: "relu1"
  top: "pool1"
  pooling_param {
    pool: MAX
    kernel_size: 3
    stride: 2
  }
}
layer {
  name: "conv2"
  type: "Convolution"
  bottom: "pool1"
  top: "conv2"
  param {
    lr_mult: 1
    decay_mult: 1
  }
  param {
    lr_mult: 2
    decay_mult: 0
  }
  convolution_param {
    num_output: 256
    pad: 2
    kernel_size: 5
    group: 2
    weight_filler {
      type: "gaussian"
      std: 0.01
    }
    bias_filler {
      type: "constant"
    }
  }
}
layer {
  name: "relu2"
  type: "ReLU"
  bottom: "conv2"
  top: "relu2"
}
layer {
  name: "pool2"
  type: "Pooling"
  bottom: "relu2"
  top: "pool2"
  pooling_param {
    pool: MAX
    kernel_size: 3
    stride: 2
  }
}
layer {
  name: "conv3"
  type: "Convolution"
  bottom: "pool2"
  top: "conv3"
  param {
    lr_mult: 1
    decay_mult: 1
  }
  param {
    lr_mult: 2
    decay_mult: 0
  }
  convolution_param {
    num_output: 384
    pad: 1
    kernel_size: 3
    weight_filler {
      type: "gaussian"
      std: 0.01
    }
    bias_filler {
      type: "constant"
    }
  }
}
layer {
  name: "relu3"
  type: "ReLU"
  bottom: "conv3"
  top: "relu3"
}
layer {
  name: "conv4"
  type: "Convolution"
  bottom: "relu3"
  top: "conv4"
  param {
    lr_mult: 1
    decay_mult: 1
  }
  param {
    lr_mult: 2
    decay_mult: 0
  }
  convolution_param {
    num_output: 384
    pad: 1
    kernel_size: 3
    group: 2
    weight_filler {
      type: "gaussian"
      std: 0.01
    }
    bias_filler {
      type: "constant"
    }
  }
}
layer {
  name: "relu4"
  type: "ReLU"
  bottom: "conv4"
  top: "relu4"
}
layer {
  name: "conv5"
  type: "Convolution"
  bottom: "relu4"
  top: "conv5"
  param {
    lr_mult: 1
    decay_mult: 1
  }
  param {
    lr_mult: 2
    decay_mult: 0
  }
  convolution_param {
    num_output: 256
    pad: 1
    kernel_size: 3
    group: 2
    weight_filler {
      type: "gaussian"
      std: 0.01
    }
    bias_filler {
      type: "constant"
    }
  }
}
layer {
  name: "relu5"
  type: "ReLU"
  bottom: "conv5"
  top: "relu5"
}
layer {
  name: "pool5"
  type: "Pooling"
  bottom: "relu5"
  top: "pool5"
  pooling_param {
    pool: MAX
    kernel_size: 3
    stride: 2
  }
}
layer {
  name: "fc6"
  type: "InnerProduct"
  bottom: "pool5"
  top: "fc6"
  param {
    lr_mult: 1
    decay_mult: 1
  }
  param {
    lr_mult: 2
    decay_mult: 0
  }
  inner_product_param {
    num_output: 2048
    weight_filler {
      type: "gaussian"
      std: 0.005
    }
    bias_filler {
      type: "constant"
    }
  }
}
layer {
  name: "relu6"
  type: "ReLU"
  bottom: "fc6"
  top: "relu6"
}
layer {
  name: "drop6"
  type: "Dropout"
  bottom: "relu6"
  top: "drop6"
  dropout_param {
    dropout_ratio: 0.5
  }
}
layer {
  name: "fc7"
  type: "InnerProduct"
  bottom: "drop6"
  top: "fc7"
  param {
    lr_mult: 1
    decay_mult: 1
  }
  param {
    lr_mult: 2
    decay_mult: 0
  }
  inner_product_param {
    num_output: 2048
    weight_filler {
      type: "gaussian"
      std: 0.005
    }
    bias_filler {
      type: "constant"
    }
  }
}
layer {
  name: "relu7"
  type: "ReLU"
  bottom: "fc7"
  top: "relu7"
}
layer {
  name: "drop7"
  type: "Dropout"
  bottom: "relu7"
  top: "drop7"
  dropout_param {
    dropout_ratio: 0.5
  }
}
layer {
  name: "fc8"
  type: "InnerProduct"
  bottom: "drop7"
  top: "fc8"
  param {
    lr_mult: 1
    decay_mult: 1
  }
  param {
    lr_mult: 2
    decay_mult: 0
  }
  inner_product_param {
    num_output: 1000
    weight_filler {
      type: "gaussian"
      std: 0.01
    }
    bias_filler {
      type: "constant"
    }
  }
}
layer {
  name: "loss"
  type: "SoftmaxWithLoss"
  bottom: "fc8"
  bottom: "label"
  top: "loss"
}
I0420 13:58:39.733871 11150 layer_factory.hpp:77] Creating layer data
I0420 13:58:39.735332 11150 net.cpp:91] Creating Layer data
I0420 13:58:39.735373 11150 net.cpp:399] data -> data
I0420 13:58:39.735419 11150 net.cpp:399] data -> label
I0420 13:58:39.736007 11155 db_lmdb.cpp:38] Opened lmdb /home/old-ufo/storage/datasets/imagenet/imgs128/lmdb/ilsvrc12_128_train_lmdb
I0420 13:58:39.768061 11150 data_layer.cpp:41] output data size: 1024,3,128,128
I0420 13:58:40.085360 11150 net.cpp:141] Setting up data
I0420 13:58:40.085391 11150 net.cpp:148] Top shape: 1024 3 128 128 (50331648)
I0420 13:58:40.085445 11150 net.cpp:148] Top shape: 1024 (1024)
I0420 13:58:40.085469 11150 net.cpp:156] Memory required for data: 201330688
I0420 13:58:40.085501 11150 layer_factory.hpp:77] Creating layer conv1
I0420 13:58:40.085548 11150 net.cpp:91] Creating Layer conv1
I0420 13:58:40.085572 11150 net.cpp:425] conv1 <- data
I0420 13:58:40.085603 11150 net.cpp:399] conv1 -> conv1
I0420 13:58:40.297652 11150 net.cpp:141] Setting up conv1
I0420 13:58:40.297677 11150 net.cpp:148] Top shape: 1024 96 30 30 (88473600)
I0420 13:58:40.297683 11150 net.cpp:156] Memory required for data: 555225088
I0420 13:58:40.297703 11150 layer_factory.hpp:77] Creating layer relu1
I0420 13:58:40.297719 11150 net.cpp:91] Creating Layer relu1
I0420 13:58:40.297726 11150 net.cpp:425] relu1 <- conv1
I0420 13:58:40.297734 11150 net.cpp:399] relu1 -> relu1
I0420 13:58:40.298046 11150 net.cpp:141] Setting up relu1
I0420 13:58:40.298058 11150 net.cpp:148] Top shape: 1024 96 30 30 (88473600)
I0420 13:58:40.298063 11150 net.cpp:156] Memory required for data: 909119488
I0420 13:58:40.298069 11150 layer_factory.hpp:77] Creating layer pool1
I0420 13:58:40.298079 11150 net.cpp:91] Creating Layer pool1
I0420 13:58:40.298084 11150 net.cpp:425] pool1 <- relu1
I0420 13:58:40.298090 11150 net.cpp:399] pool1 -> pool1
I0420 13:58:40.298151 11150 net.cpp:141] Setting up pool1
I0420 13:58:40.298163 11150 net.cpp:148] Top shape: 1024 96 15 15 (22118400)
I0420 13:58:40.298167 11150 net.cpp:156] Memory required for data: 997593088
I0420 13:58:40.298171 11150 layer_factory.hpp:77] Creating layer conv2
I0420 13:58:40.298187 11150 net.cpp:91] Creating Layer conv2
I0420 13:58:40.298195 11150 net.cpp:425] conv2 <- pool1
I0420 13:58:40.298203 11150 net.cpp:399] conv2 -> conv2
I0420 13:58:40.309413 11150 net.cpp:141] Setting up conv2
I0420 13:58:40.309440 11150 net.cpp:148] Top shape: 1024 256 15 15 (58982400)
I0420 13:58:40.309445 11150 net.cpp:156] Memory required for data: 1233522688
I0420 13:58:40.309460 11150 layer_factory.hpp:77] Creating layer relu2
I0420 13:58:40.309474 11150 net.cpp:91] Creating Layer relu2
I0420 13:58:40.309480 11150 net.cpp:425] relu2 <- conv2
I0420 13:58:40.309487 11150 net.cpp:399] relu2 -> relu2
I0420 13:58:40.309805 11150 net.cpp:141] Setting up relu2
I0420 13:58:40.309818 11150 net.cpp:148] Top shape: 1024 256 15 15 (58982400)
I0420 13:58:40.309823 11150 net.cpp:156] Memory required for data: 1469452288
I0420 13:58:40.309828 11150 layer_factory.hpp:77] Creating layer pool2
I0420 13:58:40.309839 11150 net.cpp:91] Creating Layer pool2
I0420 13:58:40.309844 11150 net.cpp:425] pool2 <- relu2
I0420 13:58:40.309851 11150 net.cpp:399] pool2 -> pool2
I0420 13:58:40.309897 11150 net.cpp:141] Setting up pool2
I0420 13:58:40.309908 11150 net.cpp:148] Top shape: 1024 256 7 7 (12845056)
I0420 13:58:40.309912 11150 net.cpp:156] Memory required for data: 1520832512
I0420 13:58:40.309917 11150 layer_factory.hpp:77] Creating layer conv3
I0420 13:58:40.309931 11150 net.cpp:91] Creating Layer conv3
I0420 13:58:40.309936 11150 net.cpp:425] conv3 <- pool2
I0420 13:58:40.309943 11150 net.cpp:399] conv3 -> conv3
I0420 13:58:40.337846 11150 net.cpp:141] Setting up conv3
I0420 13:58:40.337875 11150 net.cpp:148] Top shape: 1024 384 7 7 (19267584)
I0420 13:58:40.337882 11150 net.cpp:156] Memory required for data: 1597902848
I0420 13:58:40.337900 11150 layer_factory.hpp:77] Creating layer relu3
I0420 13:58:40.337918 11150 net.cpp:91] Creating Layer relu3
I0420 13:58:40.337924 11150 net.cpp:425] relu3 <- conv3
I0420 13:58:40.337931 11150 net.cpp:399] relu3 -> relu3
I0420 13:58:40.338192 11150 net.cpp:141] Setting up relu3
I0420 13:58:40.338206 11150 net.cpp:148] Top shape: 1024 384 7 7 (19267584)
I0420 13:58:40.338210 11150 net.cpp:156] Memory required for data: 1674973184
I0420 13:58:40.338215 11150 layer_factory.hpp:77] Creating layer conv4
I0420 13:58:40.338232 11150 net.cpp:91] Creating Layer conv4
I0420 13:58:40.338238 11150 net.cpp:425] conv4 <- relu3
I0420 13:58:40.338249 11150 net.cpp:399] conv4 -> conv4
I0420 13:58:40.366852 11150 net.cpp:141] Setting up conv4
I0420 13:58:40.366912 11150 net.cpp:148] Top shape: 1024 384 7 7 (19267584)
I0420 13:58:40.366920 11150 net.cpp:156] Memory required for data: 1752043520
I0420 13:58:40.366933 11150 layer_factory.hpp:77] Creating layer relu4
I0420 13:58:40.366945 11150 net.cpp:91] Creating Layer relu4
I0420 13:58:40.366951 11150 net.cpp:425] relu4 <- conv4
I0420 13:58:40.366963 11150 net.cpp:399] relu4 -> relu4
I0420 13:58:40.367214 11150 net.cpp:141] Setting up relu4
I0420 13:58:40.367229 11150 net.cpp:148] Top shape: 1024 384 7 7 (19267584)
I0420 13:58:40.367234 11150 net.cpp:156] Memory required for data: 1829113856
I0420 13:58:40.367240 11150 layer_factory.hpp:77] Creating layer conv5
I0420 13:58:40.367257 11150 net.cpp:91] Creating Layer conv5
I0420 13:58:40.367264 11150 net.cpp:425] conv5 <- relu4
I0420 13:58:40.367274 11150 net.cpp:399] conv5 -> conv5
I0420 13:58:40.386222 11150 net.cpp:141] Setting up conv5
I0420 13:58:40.386252 11150 net.cpp:148] Top shape: 1024 256 7 7 (12845056)
I0420 13:58:40.386260 11150 net.cpp:156] Memory required for data: 1880494080
I0420 13:58:40.386284 11150 layer_factory.hpp:77] Creating layer relu5
I0420 13:58:40.386297 11150 net.cpp:91] Creating Layer relu5
I0420 13:58:40.386303 11150 net.cpp:425] relu5 <- conv5
I0420 13:58:40.386312 11150 net.cpp:399] relu5 -> relu5
I0420 13:58:40.386680 11150 net.cpp:141] Setting up relu5
I0420 13:58:40.386695 11150 net.cpp:148] Top shape: 1024 256 7 7 (12845056)
I0420 13:58:40.386700 11150 net.cpp:156] Memory required for data: 1931874304
I0420 13:58:40.386705 11150 layer_factory.hpp:77] Creating layer pool5
I0420 13:58:40.386714 11150 net.cpp:91] Creating Layer pool5
I0420 13:58:40.386720 11150 net.cpp:425] pool5 <- relu5
I0420 13:58:40.386732 11150 net.cpp:399] pool5 -> pool5
I0420 13:58:40.386786 11150 net.cpp:141] Setting up pool5
I0420 13:58:40.386796 11150 net.cpp:148] Top shape: 1024 256 3 3 (2359296)
I0420 13:58:40.386801 11150 net.cpp:156] Memory required for data: 1941311488
I0420 13:58:40.386806 11150 layer_factory.hpp:77] Creating layer fc6
I0420 13:58:40.386823 11150 net.cpp:91] Creating Layer fc6
I0420 13:58:40.386828 11150 net.cpp:425] fc6 <- pool5
I0420 13:58:40.386837 11150 net.cpp:399] fc6 -> fc6
I0420 13:58:40.527983 11150 net.cpp:141] Setting up fc6
I0420 13:58:40.528013 11150 net.cpp:148] Top shape: 1024 2048 (2097152)
I0420 13:58:40.528019 11150 net.cpp:156] Memory required for data: 1949700096
I0420 13:58:40.528031 11150 layer_factory.hpp:77] Creating layer relu6
I0420 13:58:40.528045 11150 net.cpp:91] Creating Layer relu6
I0420 13:58:40.528053 11150 net.cpp:425] relu6 <- fc6
I0420 13:58:40.528061 11150 net.cpp:399] relu6 -> relu6
I0420 13:58:40.528524 11150 net.cpp:141] Setting up relu6
I0420 13:58:40.528538 11150 net.cpp:148] Top shape: 1024 2048 (2097152)
I0420 13:58:40.528542 11150 net.cpp:156] Memory required for data: 1958088704
I0420 13:58:40.528548 11150 layer_factory.hpp:77] Creating layer drop6
I0420 13:58:40.528568 11150 net.cpp:91] Creating Layer drop6
I0420 13:58:40.528573 11150 net.cpp:425] drop6 <- relu6
I0420 13:58:40.528580 11150 net.cpp:399] drop6 -> drop6
I0420 13:58:40.528638 11150 net.cpp:141] Setting up drop6
I0420 13:58:40.528672 11150 net.cpp:148] Top shape: 1024 2048 (2097152)
I0420 13:58:40.528692 11150 net.cpp:156] Memory required for data: 1966477312
I0420 13:58:40.528712 11150 layer_factory.hpp:77] Creating layer fc7
I0420 13:58:40.528740 11150 net.cpp:91] Creating Layer fc7
I0420 13:58:40.528760 11150 net.cpp:425] fc7 <- drop6
I0420 13:58:40.528782 11150 net.cpp:399] fc7 -> fc7
I0420 13:58:40.677470 11150 net.cpp:141] Setting up fc7
I0420 13:58:40.677544 11150 net.cpp:148] Top shape: 1024 2048 (2097152)
I0420 13:58:40.677570 11150 net.cpp:156] Memory required for data: 1974865920
I0420 13:58:40.677600 11150 layer_factory.hpp:77] Creating layer relu7
I0420 13:58:40.677634 11150 net.cpp:91] Creating Layer relu7
I0420 13:58:40.677655 11150 net.cpp:425] relu7 <- fc7
I0420 13:58:40.677690 11150 net.cpp:399] relu7 -> relu7
I0420 13:58:40.678001 11150 net.cpp:141] Setting up relu7
I0420 13:58:40.678032 11150 net.cpp:148] Top shape: 1024 2048 (2097152)
I0420 13:58:40.678064 11150 net.cpp:156] Memory required for data: 1983254528
I0420 13:58:40.678083 11150 layer_factory.hpp:77] Creating layer drop7
I0420 13:58:40.678107 11150 net.cpp:91] Creating Layer drop7
I0420 13:58:40.678124 11150 net.cpp:425] drop7 <- relu7
I0420 13:58:40.678148 11150 net.cpp:399] drop7 -> drop7
I0420 13:58:40.678225 11150 net.cpp:141] Setting up drop7
I0420 13:58:40.678252 11150 net.cpp:148] Top shape: 1024 2048 (2097152)
I0420 13:58:40.678274 11150 net.cpp:156] Memory required for data: 1991643136
I0420 13:58:40.678297 11150 layer_factory.hpp:77] Creating layer fc8
I0420 13:58:40.678321 11150 net.cpp:91] Creating Layer fc8
I0420 13:58:40.678339 11150 net.cpp:425] fc8 <- drop7
I0420 13:58:40.678364 11150 net.cpp:399] fc8 -> fc8
I0420 13:58:40.751827 11150 net.cpp:141] Setting up fc8
I0420 13:58:40.751899 11150 net.cpp:148] Top shape: 1024 1000 (1024000)
I0420 13:58:40.751924 11150 net.cpp:156] Memory required for data: 1995739136
I0420 13:58:40.751960 11150 layer_factory.hpp:77] Creating layer loss
I0420 13:58:40.751988 11150 net.cpp:91] Creating Layer loss
I0420 13:58:40.752010 11150 net.cpp:425] loss <- fc8
I0420 13:58:40.752033 11150 net.cpp:425] loss <- label
I0420 13:58:40.752058 11150 net.cpp:399] loss -> loss
I0420 13:58:40.752089 11150 layer_factory.hpp:77] Creating layer loss
…
I0420 13:58:40.755983 11150 net.cpp:313] The NetState phase (1) differed from the phase (0) specified by a rule in layer data
I0420 13:58:40.756252 11150 net.cpp:49] Initializing net from parameters: 
name: "CaffeNet"
state {
  phase: TEST
}
layer {
  name: "data"
  type: "Data"
  top: "data"
  top: "label"
  include {
    phase: TEST
  }
  transform_param {
    scale: 0.04
    mirror: false
    crop_size: 128
    mean_value: 104
    mean_value: 117
    mean_value: 123
    force_color: true
  }
  data_param {
    source: "/home/old-ufo/storage/datasets/imagenet/imgs128/lmdb/ilsvrc12_128_val_lmdb"
    batch_size: 50
    backend: LMDB
  }
}
layer {
  name: "conv1"
  type: "Convolution"
  bottom: "data"
  top: "conv1"
  param {
    lr_mult: 1
    decay_mult: 1
  }
  param {
    lr_mult: 2
    decay_mult: 0
  }
  convolution_param {
    num_output: 96
    kernel_size: 11
    stride: 4
    weight_filler {
      type: "gaussian"
      std: 0.01
    }
    bias_filler {
      type: "constant"
    }
  }
}
layer {
  name: "relu1"
  type: "ReLU"
  bottom: "conv1"
  top: "relu1"
}
layer {
  name: "pool1"
  type: "Pooling"
  bottom: "relu1"
  top: "pool1"
  pooling_param {
    pool: MAX
    kernel_size: 3
    stride: 2
  }
}
layer {
  name: "conv2"
  type: "Convolution"
  bottom: "pool1"
  top: "conv2"
  param {
    lr_mult: 1
    decay_mult: 1
  }
  param {
    lr_mult: 2
    decay_mult: 0
  }
  convolution_param {
    num_output: 256
    pad: 2
    kernel_size: 5
    group: 2
    weight_filler {
      type: "gaussian"
      std: 0.01
    }
    bias_filler {
      type: "constant"
    }
  }
}
layer {
  name: "relu2"
  type: "ReLU"
  bottom: "conv2"
  top: "relu2"
}
layer {
  name: "pool2"
  type: "Pooling"
  bottom: "relu2"
  top: "pool2"
  pooling_param {
    pool: MAX
    kernel_size: 3
    stride: 2
  }
}
layer {
  name: "conv3"
  type: "Convolution"
  bottom: "pool2"
  top: "conv3"
  param {
    lr_mult: 1
    decay_mult: 1
  }
  param {
    lr_mult: 2
    decay_mult: 0
  }
  convolution_param {
    num_output: 384
    pad: 1
    kernel_size: 3
    weight_filler {
      type: "gaussian"
      std: 0.01
    }
    bias_filler {
      type: "constant"
    }
  }
}
layer {
  name: "relu3"
  type: "ReLU"
  bottom: "conv3"
  top: "relu3"
}
layer {
  name: "conv4"
  type: "Convolution"
  bottom: "relu3"
  top: "conv4"
  param {
    lr_mult: 1
    decay_mult: 1
  }
  param {
    lr_mult: 2
    decay_mult: 0
  }
  convolution_param {
    num_output: 384
    pad: 1
    kernel_size: 3
    group: 2
    weight_filler {
      type: "gaussian"
      std: 0.01
    }
    bias_filler {
      type: "constant"
    }
  }
}
layer {
  name: "relu4"
  type: "ReLU"
  bottom: "conv4"
  top: "relu4"
}
layer {
  name: "conv5"
  type: "Convolution"
  bottom: "relu4"
  top: "conv5"
  param {
    lr_mult: 1
    decay_mult: 1
  }
  param {
    lr_mult: 2
    decay_mult: 0
  }
  convolution_param {
    num_output: 256
    pad: 1
    kernel_size: 3
    group: 2
    weight_filler {
      type: "gaussian"
      std: 0.01
    }
    bias_filler {
      type: "constant"
    }
  }
}
layer {
  name: "relu5"
  type: "ReLU"
  bottom: "conv5"
  top: "relu5"
}
layer {
  name: "pool5"
  type: "Pooling"
  bottom: "relu5"
  top: "pool5"
  pooling_param {
    pool: MAX
    kernel_size: 3
    stride: 2
  }
}
layer {
  name: "fc6"
  type: "InnerProduct"
  bottom: "pool5"
  top: "fc6"
  param {
    lr_mult: 1
    decay_mult: 1
  }
  param {
    lr_mult: 2
    decay_mult: 0
  }
  inner_product_param {
    num_output: 2048
    weight_filler {
      type: "gaussian"
      std: 0.005
    }
    bias_filler {
      type: "constant"
    }
  }
}
layer {
  name: "relu6"
  type: "ReLU"
  bottom: "fc6"
  top: "relu6"
}
layer {
  name: "drop6"
  type: "Dropout"
  bottom: "relu6"
  top: "drop6"
  dropout_param {
    dropout_ratio: 0.5
  }
}
layer {
  name: "fc7"
  type: "InnerProduct"
  bottom: "drop6"
  top: "fc7"
  param {
    lr_mult: 1
    decay_mult: 1
  }
  param {
    lr_mult: 2
    decay_mult: 0
  }
  inner_product_param {
    num_output: 2048
    weight_filler {
      type: "gaussian"
      std: 0.005
    }
    bias_filler {
      type: "constant"
    }
  }
}
layer {
  name: "relu7"
  type: "ReLU"
  bottom: "fc7"
  top: "relu7"
}
layer {
  name: "drop7"
  type: "Dropout"
  bottom: "relu7"
  top: "drop7"
  dropout_param {
    dropout_ratio: 0.5
  }
}
layer {
  name: "fc8"
  type: "InnerProduct"
  bottom: "drop7"
  top: "fc8"
  param {
    lr_mult: 1
    decay_mult: 1
  }
  param {
    lr_mult: 2
    decay_mult: 0
  }
  inner_product_param {
    num_output: 1000
    weight_filler {
      type: "gaussian"
      std: 0.01
    }
    bias_filler {
      type: "constant"
    }
  }
}
layer {
  name: "accuracy"
  type: "Accuracy"
  bottom: "fc8"
  bottom: "label"
  top: "accuracy"
  include {
    phase: TEST
  }
}
layer {
  name: "loss"
  type: "SoftmaxWithLoss"
  bottom: "fc8"
  bottom: "label"
  top: "loss"
}
I0420 13:58:40.757506 11150 layer_factory.hpp:77] Creating layer data
I0420 13:58:40.757627 11150 net.cpp:91] Creating Layer data
I0420 13:58:40.757654 11150 net.cpp:399] data -> data
I0420 13:58:40.757680 11150 net.cpp:399] data -> label
I0420 13:58:40.758564 11157 db_lmdb.cpp:38] Opened lmdb /home/old-ufo/storage/datasets/imagenet/imgs128/lmdb/ilsvrc12_128_val_lmdb
I0420 13:58:40.759546 11150 data_layer.cpp:41] output data size: 50,3,128,128
I0420 13:58:40.777062 11150 net.cpp:141] Setting up data
I0420 13:58:40.777216 11150 net.cpp:148] Top shape: 50 3 128 128 (2457600)
I0420 13:58:40.777277 11150 net.cpp:148] Top shape: 50 (50)
I0420 13:58:40.777321 11150 net.cpp:156] Memory required for data: 9830600
I0420 13:58:40.777367 11150 layer_factory.hpp:77] Creating layer label_data_1_split
I0420 13:58:40.777416 11150 net.cpp:91] Creating Layer label_data_1_split
I0420 13:58:40.777465 11150 net.cpp:425] label_data_1_split <- label
I0420 13:58:40.777509 11150 net.cpp:399] label_data_1_split -> label_data_1_split_0
I0420 13:58:40.777561 11150 net.cpp:399] label_data_1_split -> label_data_1_split_1
I0420 13:58:40.777660 11150 net.cpp:141] Setting up label_data_1_split
I0420 13:58:40.777707 11150 net.cpp:148] Top shape: 50 (50)
I0420 13:58:40.777745 11150 net.cpp:148] Top shape: 50 (50)
I0420 13:58:40.777782 11150 net.cpp:156] Memory required for data: 9831000
I0420 13:58:40.777819 11150 layer_factory.hpp:77] Creating layer conv1
I0420 13:58:40.777868 11150 net.cpp:91] Creating Layer conv1
I0420 13:58:40.777915 11150 net.cpp:425] conv1 <- data
I0420 13:58:40.777966 11150 net.cpp:399] conv1 -> conv1
I0420 13:58:40.781577 11150 net.cpp:141] Setting up conv1
I0420 13:58:40.781673 11150 net.cpp:148] Top shape: 50 96 30 30 (4320000)
I0420 13:58:40.781713 11150 net.cpp:156] Memory required for data: 27111000
I0420 13:58:40.781759 11150 layer_factory.hpp:77] Creating layer relu1
I0420 13:58:40.781797 11150 net.cpp:91] Creating Layer relu1
I0420 13:58:40.781831 11150 net.cpp:425] relu1 <- conv1
I0420 13:58:40.781867 11150 net.cpp:399] relu1 -> relu1
I0420 13:58:40.782137 11150 net.cpp:141] Setting up relu1
I0420 13:58:40.782191 11150 net.cpp:148] Top shape: 50 96 30 30 (4320000)
I0420 13:58:40.782225 11150 net.cpp:156] Memory required for data: 44391000
I0420 13:58:40.782258 11150 layer_factory.hpp:77] Creating layer pool1
I0420 13:58:40.782312 11150 net.cpp:91] Creating Layer pool1
I0420 13:58:40.782347 11150 net.cpp:425] pool1 <- relu1
I0420 13:58:40.782382 11150 net.cpp:399] pool1 -> pool1
I0420 13:58:40.782466 11150 net.cpp:141] Setting up pool1
I0420 13:58:40.782506 11150 net.cpp:148] Top shape: 50 96 15 15 (1080000)
I0420 13:58:40.782537 11150 net.cpp:156] Memory required for data: 48711000
I0420 13:58:40.782572 11150 layer_factory.hpp:77] Creating layer conv2
I0420 13:58:40.782620 11150 net.cpp:91] Creating Layer conv2
I0420 13:58:40.782655 11150 net.cpp:425] conv2 <- pool1
I0420 13:58:40.782692 11150 net.cpp:399] conv2 -> conv2
I0420 13:58:40.796636 11150 net.cpp:141] Setting up conv2
I0420 13:58:40.796792 11150 net.cpp:148] Top shape: 50 256 15 15 (2880000)
I0420 13:58:40.796849 11150 net.cpp:156] Memory required for data: 60231000
I0420 13:58:40.796911 11150 layer_factory.hpp:77] Creating layer relu2
I0420 13:58:40.796962 11150 net.cpp:91] Creating Layer relu2
I0420 13:58:40.797005 11150 net.cpp:425] relu2 <- conv2
I0420 13:58:40.797052 11150 net.cpp:399] relu2 -> relu2
I0420 13:58:40.797706 11150 net.cpp:141] Setting up relu2
I0420 13:58:40.797775 11150 net.cpp:148] Top shape: 50 256 15 15 (2880000)
I0420 13:58:40.797821 11150 net.cpp:156] Memory required for data: 71751000
I0420 13:58:40.797863 11150 layer_factory.hpp:77] Creating layer pool2
I0420 13:58:40.797917 11150 net.cpp:91] Creating Layer pool2
I0420 13:58:40.797958 11150 net.cpp:425] pool2 <- relu2
I0420 13:58:40.798002 11150 net.cpp:399] pool2 -> pool2
I0420 13:58:40.798111 11150 net.cpp:141] Setting up pool2
I0420 13:58:40.798159 11150 net.cpp:148] Top shape: 50 256 7 7 (627200)
I0420 13:58:40.798198 11150 net.cpp:156] Memory required for data: 74259800
I0420 13:58:40.798239 11150 layer_factory.hpp:77] Creating layer conv3
I0420 13:58:40.798305 11150 net.cpp:91] Creating Layer conv3
I0420 13:58:40.798344 11150 net.cpp:425] conv3 <- pool2
I0420 13:58:40.798382 11150 net.cpp:399] conv3 -> conv3
I0420 13:58:40.832942 11150 net.cpp:141] Setting up conv3
I0420 13:58:40.833096 11150 net.cpp:148] Top shape: 50 384 7 7 (940800)
I0420 13:58:40.833151 11150 net.cpp:156] Memory required for data: 78023000
I0420 13:58:40.833209 11150 layer_factory.hpp:77] Creating layer relu3
I0420 13:58:40.833258 11150 net.cpp:91] Creating Layer relu3
I0420 13:58:40.833305 11150 net.cpp:425] relu3 <- conv3
I0420 13:58:40.833353 11150 net.cpp:399] relu3 -> relu3
I0420 13:58:40.833881 11150 net.cpp:141] Setting up relu3
I0420 13:58:40.833948 11150 net.cpp:148] Top shape: 50 384 7 7 (940800)
I0420 13:58:40.833991 11150 net.cpp:156] Memory required for data: 81786200
I0420 13:58:40.834030 11150 layer_factory.hpp:77] Creating layer conv4
I0420 13:58:40.834084 11150 net.cpp:91] Creating Layer conv4
I0420 13:58:40.834126 11150 net.cpp:425] conv4 <- relu3
I0420 13:58:40.834170 11150 net.cpp:399] conv4 -> conv4
I0420 13:58:40.870913 11150 net.cpp:141] Setting up conv4
I0420 13:58:40.871110 11150 net.cpp:148] Top shape: 50 384 7 7 (940800)
I0420 13:58:40.871207 11150 net.cpp:156] Memory required for data: 85549400
I0420 13:58:40.871268 11150 layer_factory.hpp:77] Creating layer relu4
I0420 13:58:40.871317 11150 net.cpp:91] Creating Layer relu4
I0420 13:58:40.871359 11150 net.cpp:425] relu4 <- conv4
I0420 13:58:40.871402 11150 net.cpp:399] relu4 -> relu4
I0420 13:58:40.873762 11150 net.cpp:141] Setting up relu4
I0420 13:58:40.873836 11150 net.cpp:148] Top shape: 50 384 7 7 (940800)
I0420 13:58:40.873880 11150 net.cpp:156] Memory required for data: 89312600
I0420 13:58:40.873920 11150 layer_factory.hpp:77] Creating layer conv5
I0420 13:58:40.873971 11150 net.cpp:91] Creating Layer conv5
I0420 13:58:40.874012 11150 net.cpp:425] conv5 <- relu4
I0420 13:58:40.874058 11150 net.cpp:399] conv5 -> conv5
I0420 13:58:40.901654 11150 net.cpp:141] Setting up conv5
I0420 13:58:40.901828 11150 net.cpp:148] Top shape: 50 256 7 7 (627200)
I0420 13:58:40.901880 11150 net.cpp:156] Memory required for data: 91821400
I0420 13:58:40.901937 11150 layer_factory.hpp:77] Creating layer relu5
I0420 13:58:40.901986 11150 net.cpp:91] Creating Layer relu5
I0420 13:58:40.902029 11150 net.cpp:425] relu5 <- conv5
I0420 13:58:40.902075 11150 net.cpp:399] relu5 -> relu5
I0420 13:58:40.902369 11150 net.cpp:141] Setting up relu5
I0420 13:58:40.902432 11150 net.cpp:148] Top shape: 50 256 7 7 (627200)
I0420 13:58:40.902474 11150 net.cpp:156] Memory required for data: 94330200
I0420 13:58:40.902514 11150 layer_factory.hpp:77] Creating layer pool5
I0420 13:58:40.902560 11150 net.cpp:91] Creating Layer pool5
I0420 13:58:40.902601 11150 net.cpp:425] pool5 <- relu5
I0420 13:58:40.902643 11150 net.cpp:399] pool5 -> pool5
I0420 13:58:40.902758 11150 net.cpp:141] Setting up pool5
I0420 13:58:40.902809 11150 net.cpp:148] Top shape: 50 256 3 3 (115200)
I0420 13:58:40.902849 11150 net.cpp:156] Memory required for data: 94791000
I0420 13:58:40.902889 11150 layer_factory.hpp:77] Creating layer fc6
I0420 13:58:40.902928 11150 net.cpp:91] Creating Layer fc6
I0420 13:58:40.902961 11150 net.cpp:425] fc6 <- pool5
I0420 13:58:40.903000 11150 net.cpp:399] fc6 -> fc6
I0420 13:58:41.065930 11150 net.cpp:141] Setting up fc6
I0420 13:58:41.066087 11150 net.cpp:148] Top shape: 50 2048 (102400)
I0420 13:58:41.066131 11150 net.cpp:156] Memory required for data: 95200600
I0420 13:58:41.066179 11150 layer_factory.hpp:77] Creating layer relu6
I0420 13:58:41.066233 11150 net.cpp:91] Creating Layer relu6
I0420 13:58:41.066289 11150 net.cpp:425] relu6 <- fc6
I0420 13:58:41.066339 11150 net.cpp:399] relu6 -> relu6
I0420 13:58:41.066857 11150 net.cpp:141] Setting up relu6
I0420 13:58:41.066928 11150 net.cpp:148] Top shape: 50 2048 (102400)
I0420 13:58:41.066969 11150 net.cpp:156] Memory required for data: 95610200
I0420 13:58:41.067010 11150 layer_factory.hpp:77] Creating layer drop6
I0420 13:58:41.067055 11150 net.cpp:91] Creating Layer drop6
I0420 13:58:41.067095 11150 net.cpp:425] drop6 <- relu6
I0420 13:58:41.067139 11150 net.cpp:399] drop6 -> drop6
I0420 13:58:41.067229 11150 net.cpp:141] Setting up drop6
I0420 13:58:41.067277 11150 net.cpp:148] Top shape: 50 2048 (102400)
I0420 13:58:41.067317 11150 net.cpp:156] Memory required for data: 96019800
I0420 13:58:41.067356 11150 layer_factory.hpp:77] Creating layer fc7
I0420 13:58:41.067399 11150 net.cpp:91] Creating Layer fc7
I0420 13:58:41.067432 11150 net.cpp:425] fc7 <- drop6
I0420 13:58:41.067469 11150 net.cpp:399] fc7 -> fc7
I0420 13:58:41.217135 11150 net.cpp:141] Setting up fc7
I0420 13:58:41.217298 11150 net.cpp:148] Top shape: 50 2048 (102400)
I0420 13:58:41.217360 11150 net.cpp:156] Memory required for data: 96429400
I0420 13:58:41.217425 11150 layer_factory.hpp:77] Creating layer relu7
I0420 13:58:41.217480 11150 net.cpp:91] Creating Layer relu7
I0420 13:58:41.217525 11150 net.cpp:425] relu7 <- fc7
I0420 13:58:41.217571 11150 net.cpp:399] relu7 -> relu7
I0420 13:58:41.217916 11150 net.cpp:141] Setting up relu7
I0420 13:58:41.217978 11150 net.cpp:148] Top shape: 50 2048 (102400)
I0420 13:58:41.218020 11150 net.cpp:156] Memory required for data: 96839000
I0420 13:58:41.218061 11150 layer_factory.hpp:77] Creating layer drop7
I0420 13:58:41.218107 11150 net.cpp:91] Creating Layer drop7
I0420 13:58:41.218158 11150 net.cpp:425] drop7 <- relu7
I0420 13:58:41.218204 11150 net.cpp:399] drop7 -> drop7
I0420 13:58:41.218312 11150 net.cpp:141] Setting up drop7
I0420 13:58:41.218364 11150 net.cpp:148] Top shape: 50 2048 (102400)
I0420 13:58:41.218407 11150 net.cpp:156] Memory required for data: 97248600
I0420 13:58:41.218446 11150 layer_factory.hpp:77] Creating layer fc8
I0420 13:58:41.218485 11150 net.cpp:91] Creating Layer fc8
I0420 13:58:41.218518 11150 net.cpp:425] fc8 <- drop7
I0420 13:58:41.218555 11150 net.cpp:399] fc8 -> fc8
I0420 13:58:41.291934 11150 net.cpp:141] Setting up fc8
I0420 13:58:41.292068 11150 net.cpp:148] Top shape: 50 1000 (50000)
I0420 13:58:41.292110 11150 net.cpp:156] Memory required for data: 97448600
I0420 13:58:41.292155 11150 layer_factory.hpp:77] Creating layer fc8_fc8_0_split
I0420 13:58:41.292201 11150 net.cpp:91] Creating Layer fc8_fc8_0_split
I0420 13:58:41.292243 11150 net.cpp:425] fc8_fc8_0_split <- fc8
I0420 13:58:41.292286 11150 net.cpp:399] fc8_fc8_0_split -> fc8_fc8_0_split_0
I0420 13:58:41.292335 11150 net.cpp:399] fc8_fc8_0_split -> fc8_fc8_0_split_1
I0420 13:58:41.292429 11150 net.cpp:141] Setting up fc8_fc8_0_split
I0420 13:58:41.292476 11150 net.cpp:148] Top shape: 50 1000 (50000)
I0420 13:58:41.292517 11150 net.cpp:148] Top shape: 50 1000 (50000)
I0420 13:58:41.292559 11150 net.cpp:156] Memory required for data: 97848600
I0420 13:58:41.292598 11150 layer_factory.hpp:77] Creating layer accuracy
I0420 13:58:41.292645 11150 net.cpp:91] Creating Layer accuracy
I0420 13:58:41.292685 11150 net.cpp:425] accuracy <- fc8_fc8_0_split_0
I0420 13:58:41.292726 11150 net.cpp:425] accuracy <- label_data_1_split_0
I0420 13:58:41.292768 11150 net.cpp:399] accuracy -> accuracy
…
