…
      source: "/home/old-ufo/storage/datasets/imagenet/imgs128/lmdb/ilsvrc12_128_train_lmdb"
      batch_size: 32
      backend: LMDB
    }
  }
  layer {
    name: "data"
    type: "Data"
    top: "data"
    top: "label"
    include {
      phase: TEST
    }
    transform_param {
      scale: 0.04
      mirror: false
      crop_size: 128
      mean_value: 104
      mean_value: 117
      mean_value: 123
      force_color: true
    }
    data_param {
      source: "/home/old-ufo/storage/datasets/imagenet/imgs128/lmdb/ilsvrc12_128_val_lmdb"
      batch_size: 50
      backend: LMDB
    }
  }
  layer {
    name: "conv1"
    type: "Convolution"
    bottom: "data"
    top: "conv1"
    param {
      lr_mult: 1
      decay_mult: 1
    }
    param {
      lr_mult: 2
      decay_mult: 0
    }
    convolution_param {
      num_output: 96
      kernel_size: 11
      stride: 4
      weight_filler {
        type: "gaussian"
        std: 0.01
      }
      bias_filler {
        type: "constant"
      }
    }
  }
  layer {
    name: "relu1"
    type: "TanH"
    bottom: "conv1"
    top: "relu1"
  }
  layer {
    name: "pool1"
    type: "Pooling"
    bottom: "relu1"
    top: "pool1"
    pooling_param {
      pool: MAX
      kernel_size: 3
      stride: 2
    }
  }
  layer {
    name: "conv2"
    type: "Convolution"
    bottom: "pool1"
    top: "conv2"
    param {
      lr_mult: 1
      decay_mult: 1
    }
    param {
      lr_mult: 2
      decay_mult: 0
    }
    convolution_param {
      num_output: 256
      pad: 2
      kernel_size: 5
      group: 2
      weight_filler {
        type: "gaussian"
        std: 0.01
      }
      bias_filler {
        type: "constant"
      }
    }
  }
  layer {
    name: "relu2"
    type: "TanH"
    bottom: "conv2"
    top: "relu2"
  }
  layer {
    name: "pool2"
    type: "Pooling"
    bottom: "relu2"
    top: "pool2"
    pooling_param {
      pool: MAX
      kernel_size: 3
      stride: 2
    }
  }
  layer {
    name: "conv3"
    type: "Convolution"
    bottom: "pool2"
    top: "conv3"
    param {
      lr_mult: 1
      decay_mult: 1
    }
    param {
      lr_mult: 2
      decay_mult: 0
    }
    convolution_param {
      num_output: 384
      pad: 1
      kernel_size: 3
      weight_filler {
        type: "gaussian"
        std: 0.01
      }
      bias_filler {
        type: "constant"
      }
    }
  }
  layer {
    name: "relu3"
    type: "TanH"
    bottom: "conv3"
    top: "relu3"
  }
  layer {
    name: "conv4"
    type: "Convolution"
    bottom: "relu3"
    top: "conv4"
    param {
      lr_mult: 1
      decay_mult: 1
    }
    param {
      lr_mult: 2
      decay_mult: 0
    }
    convolution_param {
      num_output: 384
      pad: 1
      kernel_size: 3
      group: 2
      weight_filler {
        type: "gaussian"
        std: 0.01
      }
      bias_filler {
        type: "constant"
      }
    }
  }
  layer {
    name: "relu4"
    type: "TanH"
    bottom: "conv4"
    top: "relu4"
  }
  layer {
    name: "conv5"
    type: "Convolution"
    bottom: "relu4"
    top: "conv5"
    param {
      lr_mult: 1
      decay_mult: 1
    }
    param {
      lr_mult: 2
      decay_mult: 0
    }
    convolution_param {
      num_output: 256
      pad: 1
      kernel_size: 3
      group: 2
      weight_filler {
        type: "gaussian"
        std: 0.01
      }
      bias_filler {
        type: "constant"
      }
    }
  }
  layer {
    name: "relu5"
    type: "TanH"
    bottom: "conv5"
    top: "relu5"
  }
  layer {
    name: "pool5"
    type: "Pooling"
    bottom: "relu5"
    top: "pool5"
    pooling_param {
      pool: MAX
      kernel_size: 3
      stride: 2
    }
  }
  layer {
    name: "fc6"
    type: "InnerProduct"
    bottom: "pool5"
    top: "fc6"
    param {
      lr_mult: 1
      decay_mult: 1
    }
    param {
      lr_mult: 2
      decay_mult: 0
    }
    inner_product_param {
      num_output: 2048
      weight_filler {
        type: "gaussian"
        std: 0.005
      }
      bias_filler {
        type: "constant"
      }
    }
  }
  layer {
    name: "relu6"
    type: "TanH"
    bottom: "fc6"
    top: "relu6"
  }
  layer {
    name: "drop6"
    type: "Dropout"
    bottom: "relu6"
    top: "drop6"
    dropout_param {
      dropout_ratio: 0.5
    }
  }
  layer {
    name: "fc7"
    type: "InnerProduct"
    bottom: "drop6"
    top: "fc7"
    param {
      lr_mult: 1
      decay_mult: 1
    }
    param {
      lr_mult: 2
      decay_mult: 0
    }
    inner_product_param {
      num_output: 2048
      weight_filler {
        type: "gaussian"
        std: 0.005
      }
      bias_filler {
        type: "constant"
      }
    }
  }
  layer {
    name: "relu7"
    type: "TanH"
    bottom: "fc7"
    top: "relu7"
  }
  layer {
    name: "drop7"
    type: "Dropout"
    bottom: "relu7"
    top: "drop7"
    dropout_param {
      dropout_ratio: 0.5
    }
  }
  layer {
    name: "fc8"
    type: "InnerProduct"
    bottom: "drop7"
    top: "fc8"
    param {
      lr_mult: 1
      decay_mult: 1
    }
    param {
      lr_mult: 2
      decay_mult: 0
    }
    inner_product_param {
      num_output: 1000
      weight_filler {
        type: "gaussian"
        std: 0.01
      }
      bias_filler {
        type: "constant"
      }
    }
  }
  layer {
    name: "accuracy"
    type: "Accuracy"
    bottom: "fc8"
    bottom: "label"
    top: "accuracy"
    include {
      phase: TEST
    }
  }
  layer {
    name: "loss"
    type: "SoftmaxWithLoss"
    bottom: "fc8"
    bottom: "label"
    top: "loss"
  }
}
test_initialization: true
iter_size: 1
type: "SGD"
I0402 07:38:10.506460 28499 solver.cpp:86] Creating training net specified in net_param.
I0402 07:38:10.506578 28499 net.cpp:322] The NetState phase (0) differed from the phase (1) specified by a rule in layer data
I0402 07:38:10.506629 28499 net.cpp:322] The NetState phase (0) differed from the phase (1) specified by a rule in layer accuracy
I0402 07:38:10.506826 28499 net.cpp:49] Initializing net from parameters: 
name: "CaffeNet"
state {
  phase: TRAIN
}
layer {
  name: "data"
  type: "Data"
  top: "data"
  top: "label"
  include {
    phase: TRAIN
  }
  transform_param {
    scale: 0.04
    mirror: true
    crop_size: 128
    mean_value: 104
    mean_value: 117
    mean_value: 124
    force_color: true
  }
  data_param {
    source: "/home/old-ufo/storage/datasets/imagenet/imgs128/lmdb/ilsvrc12_128_train_lmdb"
    batch_size: 32
    backend: LMDB
  }
}
layer {
  name: "conv1"
  type: "Convolution"
  bottom: "data"
  top: "conv1"
  param {
    lr_mult: 1
    decay_mult: 1
  }
  param {
    lr_mult: 2
    decay_mult: 0
  }
  convolution_param {
    num_output: 96
    kernel_size: 11
    stride: 4
    weight_filler {
      type: "gaussian"
      std: 0.01
    }
    bias_filler {
      type: "constant"
    }
  }
}
layer {
  name: "relu1"
  type: "TanH"
  bottom: "conv1"
  top: "relu1"
}
layer {
  name: "pool1"
  type: "Pooling"
  bottom: "relu1"
  top: "pool1"
  pooling_param {
    pool: MAX
    kernel_size: 3
    stride: 2
  }
}
layer {
  name: "conv2"
  type: "Convolution"
  bottom: "pool1"
  top: "conv2"
  param {
    lr_mult: 1
    decay_mult: 1
  }
  param {
    lr_mult: 2
    decay_mult: 0
  }
  convolution_param {
    num_output: 256
    pad: 2
    kernel_size: 5
    group: 2
    weight_filler {
      type: "gaussian"
      std: 0.01
    }
    bias_filler {
      type: "constant"
    }
  }
}
layer {
  name: "relu2"
  type: "TanH"
  bottom: "conv2"
  top: "relu2"
}
layer {
  name: "pool2"
  type: "Pooling"
  bottom: "relu2"
  top: "pool2"
  pooling_param {
    pool: MAX
    kernel_size: 3
    stride: 2
  }
}
layer {
  name: "conv3"
  type: "Convolution"
  bottom: "pool2"
  top: "conv3"
  param {
    lr_mult: 1
    decay_mult: 1
  }
  param {
    lr_mult: 2
    decay_mult: 0
  }
  convolution_param {
    num_output: 384
    pad: 1
    kernel_size: 3
    weight_filler {
      type: "gaussian"
      std: 0.01
    }
    bias_filler {
      type: "constant"
    }
  }
}
layer {
  name: "relu3"
  type: "TanH"
  bottom: "conv3"
  top: "relu3"
}
layer {
  name: "conv4"
  type: "Convolution"
  bottom: "relu3"
  top: "conv4"
  param {
    lr_mult: 1
    decay_mult: 1
  }
  param {
    lr_mult: 2
    decay_mult: 0
  }
  convolution_param {
    num_output: 384
    pad: 1
    kernel_size: 3
    group: 2
    weight_filler {
      type: "gaussian"
      std: 0.01
    }
    bias_filler {
      type: "constant"
    }
  }
}
layer {
  name: "relu4"
  type: "TanH"
  bottom: "conv4"
  top: "relu4"
}
layer {
  name: "conv5"
  type: "Convolution"
  bottom: "relu4"
  top: "conv5"
  param {
    lr_mult: 1
    decay_mult: 1
  }
  param {
    lr_mult: 2
    decay_mult: 0
  }
  convolution_param {
    num_output: 256
    pad: 1
    kernel_size: 3
    group: 2
    weight_filler {
      type: "gaussian"
      std: 0.01
    }
    bias_filler {
      type: "constant"
    }
  }
}
layer {
  name: "relu5"
  type: "TanH"
  bottom: "conv5"
  top: "relu5"
}
layer {
  name: "pool5"
  type: "Pooling"
  bottom: "relu5"
  top: "pool5"
  pooling_param {
    pool: MAX
    kernel_size: 3
    stride: 2
  }
}
layer {
  name: "fc6"
  type: "InnerProduct"
  bottom: "pool5"
  top: "fc6"
  param {
    lr_mult: 1
    decay_mult: 1
  }
  param {
    lr_mult: 2
    decay_mult: 0
  }
  inner_product_param {
    num_output: 2048
    weight_filler {
      type: "gaussian"
      std: 0.005
    }
    bias_filler {
      type: "constant"
    }
  }
}
layer {
  name: "relu6"
  type: "TanH"
  bottom: "fc6"
  top: "relu6"
}
layer {
  name: "drop6"
  type: "Dropout"
  bottom: "relu6"
  top: "drop6"
  dropout_param {
    dropout_ratio: 0.5
  }
}
layer {
  name: "fc7"
  type: "InnerProduct"
  bottom: "drop6"
  top: "fc7"
  param {
    lr_mult: 1
    decay_mult: 1
  }
  param {
    lr_mult: 2
    decay_mult: 0
  }
  inner_product_param {
    num_output: 2048
    weight_filler {
      type: "gaussian"
      std: 0.005
    }
    bias_filler {
      type: "constant"
    }
  }
}
layer {
  name: "relu7"
  type: "TanH"
  bottom: "fc7"
  top: "relu7"
}
layer {
  name: "drop7"
  type: "Dropout"
  bottom: "relu7"
  top: "drop7"
  dropout_param {
    dropout_ratio: 0.5
  }
}
layer {
  name: "fc8"
  type: "InnerProduct"
  bottom: "drop7"
  top: "fc8"
  param {
    lr_mult: 1
    decay_mult: 1
  }
  param {
    lr_mult: 2
    decay_mult: 0
  }
  inner_product_param {
    num_output: 1000
    weight_filler {
      type: "gaussian"
      std: 0.01
    }
    bias_filler {
      type: "constant"
    }
  }
}
layer {
  name: "loss"
  type: "SoftmaxWithLoss"
  bottom: "fc8"
  bottom: "label"
  top: "loss"
}
I0402 07:38:10.506964 28499 layer_factory.hpp:76] Creating layer data
I0402 07:38:10.507441 28499 net.cpp:106] Creating Layer data
I0402 07:38:10.507472 28499 net.cpp:411] data -> data
I0402 07:38:10.507520 28499 net.cpp:411] data -> label
I0402 07:38:10.508098 28504 db_lmdb.cpp:38] Opened lmdb /home/old-ufo/storage/datasets/imagenet/imgs128/lmdb/ilsvrc12_128_train_lmdb
I0402 07:38:10.518282 28499 data_layer.cpp:41] output data size: 32,3,128,128
I0402 07:38:10.527515 28499 net.cpp:150] Setting up data
I0402 07:38:10.527629 28499 net.cpp:157] Top shape: 32 3 128 128 (1572864)
I0402 07:38:10.527665 28499 net.cpp:157] Top shape: 32 (32)
I0402 07:38:10.527688 28499 net.cpp:165] Memory required for data: 6291584
I0402 07:38:10.527729 28499 layer_factory.hpp:76] Creating layer conv1
I0402 07:38:10.527767 28499 net.cpp:106] Creating Layer conv1
I0402 07:38:10.527791 28499 net.cpp:454] conv1 <- data
I0402 07:38:10.527828 28499 net.cpp:411] conv1 -> conv1
I0402 07:38:10.694905 28499 net.cpp:150] Setting up conv1
I0402 07:38:10.694934 28499 net.cpp:157] Top shape: 32 96 30 30 (2764800)
I0402 07:38:10.694939 28499 net.cpp:165] Memory required for data: 17350784
I0402 07:38:10.694962 28499 layer_factory.hpp:76] Creating layer relu1
I0402 07:38:10.694977 28499 net.cpp:106] Creating Layer relu1
I0402 07:38:10.694982 28499 net.cpp:454] relu1 <- conv1
I0402 07:38:10.694988 28499 net.cpp:411] relu1 -> relu1
I0402 07:38:10.695716 28499 net.cpp:150] Setting up relu1
I0402 07:38:10.695730 28499 net.cpp:157] Top shape: 32 96 30 30 (2764800)
I0402 07:38:10.695735 28499 net.cpp:165] Memory required for data: 28409984
I0402 07:38:10.695740 28499 layer_factory.hpp:76] Creating layer pool1
I0402 07:38:10.695749 28499 net.cpp:106] Creating Layer pool1
I0402 07:38:10.695755 28499 net.cpp:454] pool1 <- relu1
I0402 07:38:10.695761 28499 net.cpp:411] pool1 -> pool1
I0402 07:38:10.696413 28499 net.cpp:150] Setting up pool1
I0402 07:38:10.696425 28499 net.cpp:157] Top shape: 32 96 15 15 (691200)
I0402 07:38:10.696431 28499 net.cpp:165] Memory required for data: 31174784
I0402 07:38:10.696435 28499 layer_factory.hpp:76] Creating layer conv2
I0402 07:38:10.696449 28499 net.cpp:106] Creating Layer conv2
I0402 07:38:10.696455 28499 net.cpp:454] conv2 <- pool1
I0402 07:38:10.696463 28499 net.cpp:411] conv2 -> conv2
I0402 07:38:10.707869 28499 net.cpp:150] Setting up conv2
I0402 07:38:10.707901 28499 net.cpp:157] Top shape: 32 256 15 15 (1843200)
I0402 07:38:10.707906 28499 net.cpp:165] Memory required for data: 38547584
I0402 07:38:10.707924 28499 layer_factory.hpp:76] Creating layer relu2
I0402 07:38:10.707938 28499 net.cpp:106] Creating Layer relu2
I0402 07:38:10.707944 28499 net.cpp:454] relu2 <- conv2
I0402 07:38:10.707952 28499 net.cpp:411] relu2 -> relu2
I0402 07:38:10.708655 28499 net.cpp:150] Setting up relu2
I0402 07:38:10.708667 28499 net.cpp:157] Top shape: 32 256 15 15 (1843200)
I0402 07:38:10.708673 28499 net.cpp:165] Memory required for data: 45920384
I0402 07:38:10.708678 28499 layer_factory.hpp:76] Creating layer pool2
I0402 07:38:10.708686 28499 net.cpp:106] Creating Layer pool2
I0402 07:38:10.708691 28499 net.cpp:454] pool2 <- relu2
I0402 07:38:10.708698 28499 net.cpp:411] pool2 -> pool2
I0402 07:38:10.709461 28499 net.cpp:150] Setting up pool2
I0402 07:38:10.709473 28499 net.cpp:157] Top shape: 32 256 7 7 (401408)
I0402 07:38:10.709478 28499 net.cpp:165] Memory required for data: 47526016
I0402 07:38:10.709482 28499 layer_factory.hpp:76] Creating layer conv3
I0402 07:38:10.709494 28499 net.cpp:106] Creating Layer conv3
I0402 07:38:10.709501 28499 net.cpp:454] conv3 <- pool2
I0402 07:38:10.709508 28499 net.cpp:411] conv3 -> conv3
I0402 07:38:10.734652 28499 net.cpp:150] Setting up conv3
I0402 07:38:10.734680 28499 net.cpp:157] Top shape: 32 384 7 7 (602112)
I0402 07:38:10.734685 28499 net.cpp:165] Memory required for data: 49934464
I0402 07:38:10.734700 28499 layer_factory.hpp:76] Creating layer relu3
I0402 07:38:10.734714 28499 net.cpp:106] Creating Layer relu3
I0402 07:38:10.734719 28499 net.cpp:454] relu3 <- conv3
I0402 07:38:10.734726 28499 net.cpp:411] relu3 -> relu3
I0402 07:38:10.735437 28499 net.cpp:150] Setting up relu3
I0402 07:38:10.735450 28499 net.cpp:157] Top shape: 32 384 7 7 (602112)
I0402 07:38:10.735455 28499 net.cpp:165] Memory required for data: 52342912
I0402 07:38:10.735458 28499 layer_factory.hpp:76] Creating layer conv4
I0402 07:38:10.735474 28499 net.cpp:106] Creating Layer conv4
I0402 07:38:10.735481 28499 net.cpp:454] conv4 <- relu3
I0402 07:38:10.735491 28499 net.cpp:411] conv4 -> conv4
I0402 07:38:10.756439 28499 net.cpp:150] Setting up conv4
I0402 07:38:10.756465 28499 net.cpp:157] Top shape: 32 384 7 7 (602112)
I0402 07:38:10.756470 28499 net.cpp:165] Memory required for data: 54751360
I0402 07:38:10.756506 28499 layer_factory.hpp:76] Creating layer relu4
I0402 07:38:10.756518 28499 net.cpp:106] Creating Layer relu4
I0402 07:38:10.756525 28499 net.cpp:454] relu4 <- conv4
I0402 07:38:10.756538 28499 net.cpp:411] relu4 -> relu4
I0402 07:38:10.757297 28499 net.cpp:150] Setting up relu4
I0402 07:38:10.757309 28499 net.cpp:157] Top shape: 32 384 7 7 (602112)
I0402 07:38:10.757314 28499 net.cpp:165] Memory required for data: 57159808
I0402 07:38:10.757318 28499 layer_factory.hpp:76] Creating layer conv5
I0402 07:38:10.757333 28499 net.cpp:106] Creating Layer conv5
I0402 07:38:10.757339 28499 net.cpp:454] conv5 <- relu4
I0402 07:38:10.757349 28499 net.cpp:411] conv5 -> conv5
I0402 07:38:10.774760 28499 net.cpp:150] Setting up conv5
I0402 07:38:10.774786 28499 net.cpp:157] Top shape: 32 256 7 7 (401408)
I0402 07:38:10.774791 28499 net.cpp:165] Memory required for data: 58765440
I0402 07:38:10.774807 28499 layer_factory.hpp:76] Creating layer relu5
I0402 07:38:10.774821 28499 net.cpp:106] Creating Layer relu5
I0402 07:38:10.774827 28499 net.cpp:454] relu5 <- conv5
I0402 07:38:10.774834 28499 net.cpp:411] relu5 -> relu5
I0402 07:38:10.775589 28499 net.cpp:150] Setting up relu5
I0402 07:38:10.775602 28499 net.cpp:157] Top shape: 32 256 7 7 (401408)
I0402 07:38:10.775607 28499 net.cpp:165] Memory required for data: 60371072
I0402 07:38:10.775611 28499 layer_factory.hpp:76] Creating layer pool5
I0402 07:38:10.775620 28499 net.cpp:106] Creating Layer pool5
I0402 07:38:10.775625 28499 net.cpp:454] pool5 <- relu5
I0402 07:38:10.775635 28499 net.cpp:411] pool5 -> pool5
I0402 07:38:10.776409 28499 net.cpp:150] Setting up pool5
I0402 07:38:10.776422 28499 net.cpp:157] Top shape: 32 256 3 3 (73728)
I0402 07:38:10.776427 28499 net.cpp:165] Memory required for data: 60665984
I0402 07:38:10.776430 28499 layer_factory.hpp:76] Creating layer fc6
I0402 07:38:10.776449 28499 net.cpp:106] Creating Layer fc6
I0402 07:38:10.776456 28499 net.cpp:454] fc6 <- pool5
I0402 07:38:10.776464 28499 net.cpp:411] fc6 -> fc6
I0402 07:38:10.897855 28499 net.cpp:150] Setting up fc6
I0402 07:38:10.897882 28499 net.cpp:157] Top shape: 32 2048 (65536)
I0402 07:38:10.897887 28499 net.cpp:165] Memory required for data: 60928128
I0402 07:38:10.897899 28499 layer_factory.hpp:76] Creating layer relu6
I0402 07:38:10.897912 28499 net.cpp:106] Creating Layer relu6
I0402 07:38:10.897917 28499 net.cpp:454] relu6 <- fc6
I0402 07:38:10.897924 28499 net.cpp:411] relu6 -> relu6
I0402 07:38:10.898769 28499 net.cpp:150] Setting up relu6
I0402 07:38:10.898783 28499 net.cpp:157] Top shape: 32 2048 (65536)
I0402 07:38:10.898788 28499 net.cpp:165] Memory required for data: 61190272
I0402 07:38:10.898792 28499 layer_factory.hpp:76] Creating layer drop6
I0402 07:38:10.898802 28499 net.cpp:106] Creating Layer drop6
I0402 07:38:10.898808 28499 net.cpp:454] drop6 <- relu6
I0402 07:38:10.898816 28499 net.cpp:411] drop6 -> drop6
I0402 07:38:10.898875 28499 net.cpp:150] Setting up drop6
I0402 07:38:10.898885 28499 net.cpp:157] Top shape: 32 2048 (65536)
I0402 07:38:10.898890 28499 net.cpp:165] Memory required for data: 61452416
I0402 07:38:10.898895 28499 layer_factory.hpp:76] Creating layer fc7
I0402 07:38:10.898906 28499 net.cpp:106] Creating Layer fc7
I0402 07:38:10.898911 28499 net.cpp:454] fc7 <- drop6
I0402 07:38:10.898921 28499 net.cpp:411] fc7 -> fc7
I0402 07:38:11.006685 28499 net.cpp:150] Setting up fc7
I0402 07:38:11.006713 28499 net.cpp:157] Top shape: 32 2048 (65536)
I0402 07:38:11.006717 28499 net.cpp:165] Memory required for data: 61714560
I0402 07:38:11.006728 28499 layer_factory.hpp:76] Creating layer relu7
I0402 07:38:11.006739 28499 net.cpp:106] Creating Layer relu7
I0402 07:38:11.006764 28499 net.cpp:454] relu7 <- fc7
I0402 07:38:11.006788 28499 net.cpp:411] relu7 -> relu7
I0402 07:38:11.007534 28499 net.cpp:150] Setting up relu7
I0402 07:38:11.007545 28499 net.cpp:157] Top shape: 32 2048 (65536)
I0402 07:38:11.007550 28499 net.cpp:165] Memory required for data: 61976704
I0402 07:38:11.007555 28499 layer_factory.hpp:76] Creating layer drop7
I0402 07:38:11.007596 28499 net.cpp:106] Creating Layer drop7
I0402 07:38:11.007618 28499 net.cpp:454] drop7 <- relu7
I0402 07:38:11.007639 28499 net.cpp:411] drop7 -> drop7
I0402 07:38:11.007709 28499 net.cpp:150] Setting up drop7
I0402 07:38:11.007719 28499 net.cpp:157] Top shape: 32 2048 (65536)
I0402 07:38:11.007724 28499 net.cpp:165] Memory required for data: 62238848
I0402 07:38:11.007728 28499 layer_factory.hpp:76] Creating layer fc8
I0402 07:38:11.007753 28499 net.cpp:106] Creating Layer fc8
I0402 07:38:11.007774 28499 net.cpp:454] fc8 <- drop7
I0402 07:38:11.007797 28499 net.cpp:411] fc8 -> fc8
I0402 07:38:11.060577 28499 net.cpp:150] Setting up fc8
I0402 07:38:11.060606 28499 net.cpp:157] Top shape: 32 1000 (32000)
I0402 07:38:11.060611 28499 net.cpp:165] Memory required for data: 62366848
I0402 07:38:11.060621 28499 layer_factory.hpp:76] Creating layer loss
I0402 07:38:11.060633 28499 net.cpp:106] Creating Layer loss
I0402 07:38:11.060660 28499 net.cpp:454] loss <- fc8
I0402 07:38:11.060679 28499 net.cpp:454] loss <- label
I0402 07:38:11.060699 28499 net.cpp:411] loss -> loss
I0402 07:38:11.060736 28499 layer_factory.hpp:76] Creating layer loss
…
I0402 07:38:11.062372 28499 net.cpp:322] The NetState phase (1) differed from the phase (0) specified by a rule in layer data
I0402 07:38:11.062541 28499 net.cpp:49] Initializing net from parameters: 
name: "CaffeNet"
state {
  phase: TEST
}
layer {
  name: "data"
  type: "Data"
  top: "data"
  top: "label"
  include {
    phase: TEST
  }
  transform_param {
    scale: 0.04
    mirror: false
    crop_size: 128
    mean_value: 104
    mean_value: 117
    mean_value: 123
    force_color: true
  }
  data_param {
    source: "/home/old-ufo/storage/datasets/imagenet/imgs128/lmdb/ilsvrc12_128_val_lmdb"
    batch_size: 50
    backend: LMDB
  }
}
layer {
  name: "conv1"
  type: "Convolution"
  bottom: "data"
  top: "conv1"
  param {
    lr_mult: 1
    decay_mult: 1
  }
  param {
    lr_mult: 2
    decay_mult: 0
  }
  convolution_param {
    num_output: 96
    kernel_size: 11
    stride: 4
    weight_filler {
      type: "gaussian"
      std: 0.01
    }
    bias_filler {
      type: "constant"
    }
  }
}
layer {
  name: "relu1"
  type: "TanH"
  bottom: "conv1"
  top: "relu1"
}
layer {
  name: "pool1"
  type: "Pooling"
  bottom: "relu1"
  top: "pool1"
  pooling_param {
    pool: MAX
    kernel_size: 3
    stride: 2
  }
}
layer {
  name: "conv2"
  type: "Convolution"
  bottom: "pool1"
  top: "conv2"
  param {
    lr_mult: 1
    decay_mult: 1
  }
  param {
    lr_mult: 2
    decay_mult: 0
  }
  convolution_param {
    num_output: 256
    pad: 2
    kernel_size: 5
    group: 2
    weight_filler {
      type: "gaussian"
      std: 0.01
    }
    bias_filler {
      type: "constant"
    }
  }
}
layer {
  name: "relu2"
  type: "TanH"
  bottom: "conv2"
  top: "relu2"
}
layer {
  name: "pool2"
  type: "Pooling"
  bottom: "relu2"
  top: "pool2"
  pooling_param {
    pool: MAX
    kernel_size: 3
    stride: 2
  }
}
layer {
  name: "conv3"
  type: "Convolution"
  bottom: "pool2"
  top: "conv3"
  param {
    lr_mult: 1
    decay_mult: 1
  }
  param {
    lr_mult: 2
    decay_mult: 0
  }
  convolution_param {
    num_output: 384
    pad: 1
    kernel_size: 3
    weight_filler {
      type: "gaussian"
      std: 0.01
    }
    bias_filler {
      type: "constant"
    }
  }
}
layer {
  name: "relu3"
  type: "TanH"
  bottom: "conv3"
  top: "relu3"
}
layer {
  name: "conv4"
  type: "Convolution"
  bottom: "relu3"
  top: "conv4"
  param {
    lr_mult: 1
    decay_mult: 1
  }
  param {
    lr_mult: 2
    decay_mult: 0
  }
  convolution_param {
    num_output: 384
    pad: 1
    kernel_size: 3
    group: 2
    weight_filler {
      type: "gaussian"
      std: 0.01
    }
    bias_filler {
      type: "constant"
    }
  }
}
layer {
  name: "relu4"
  type: "TanH"
  bottom: "conv4"
  top: "relu4"
}
layer {
  name: "conv5"
  type: "Convolution"
  bottom: "relu4"
  top: "conv5"
  param {
    lr_mult: 1
    decay_mult: 1
  }
  param {
    lr_mult: 2
    decay_mult: 0
  }
  convolution_param {
    num_output: 256
    pad: 1
    kernel_size: 3
    group: 2
    weight_filler {
      type: "gaussian"
      std: 0.01
    }
    bias_filler {
      type: "constant"
    }
  }
}
layer {
  name: "relu5"
  type: "TanH"
  bottom: "conv5"
  top: "relu5"
}
layer {
  name: "pool5"
  type: "Pooling"
  bottom: "relu5"
  top: "pool5"
  pooling_param {
    pool: MAX
    kernel_size: 3
    stride: 2
  }
}
layer {
  name: "fc6"
  type: "InnerProduct"
  bottom: "pool5"
  top: "fc6"
  param {
    lr_mult: 1
    decay_mult: 1
  }
  param {
    lr_mult: 2
    decay_mult: 0
  }
  inner_product_param {
    num_output: 2048
    weight_filler {
      type: "gaussian"
      std: 0.005
    }
    bias_filler {
      type: "constant"
    }
  }
}
layer {
  name: "relu6"
  type: "TanH"
  bottom: "fc6"
  top: "relu6"
}
layer {
  name: "drop6"
  type: "Dropout"
  bottom: "relu6"
  top: "drop6"
  dropout_param {
    dropout_ratio: 0.5
  }
}
layer {
  name: "fc7"
  type: "InnerProduct"
  bottom: "drop6"
  top: "fc7"
  param {
    lr_mult: 1
    decay_mult: 1
  }
  param {
    lr_mult: 2
    decay_mult: 0
  }
  inner_product_param {
    num_output: 2048
    weight_filler {
      type: "gaussian"
      std: 0.005
    }
    bias_filler {
      type: "constant"
    }
  }
}
layer {
  name: "relu7"
  type: "TanH"
  bottom: "fc7"
  top: "relu7"
}
layer {
  name: "drop7"
  type: "Dropout"
  bottom: "relu7"
  top: "drop7"
  dropout_param {
    dropout_ratio: 0.5
  }
}
layer {
  name: "fc8"
  type: "InnerProduct"
  bottom: "drop7"
  top: "fc8"
  param {
    lr_mult: 1
    decay_mult: 1
  }
  param {
    lr_mult: 2
    decay_mult: 0
  }
  inner_product_param {
    num_output: 1000
    weight_filler {
      type: "gaussian"
      std: 0.01
    }
    bias_filler {
      type: "constant"
    }
  }
}
layer {
  name: "accuracy"
  type: "Accuracy"
  bottom: "fc8"
  bottom: "label"
  top: "accuracy"
  include {
    phase: TEST
  }
}
layer {
  name: "loss"
  type: "SoftmaxWithLoss"
  bottom: "fc8"
  bottom: "label"
  top: "loss"
}
I0402 07:38:11.062702 28499 layer_factory.hpp:76] Creating layer data
I0402 07:38:11.062826 28499 net.cpp:106] Creating Layer data
I0402 07:38:11.062855 28499 net.cpp:411] data -> data
I0402 07:38:11.062882 28499 net.cpp:411] data -> label
I0402 07:38:11.063524 28506 db_lmdb.cpp:38] Opened lmdb /home/old-ufo/storage/datasets/imagenet/imgs128/lmdb/ilsvrc12_128_val_lmdb
I0402 07:38:11.064347 28499 data_layer.cpp:41] output data size: 50,3,128,128
I0402 07:38:11.079030 28499 net.cpp:150] Setting up data
I0402 07:38:11.079103 28499 net.cpp:157] Top shape: 50 3 128 128 (2457600)
I0402 07:38:11.079123 28499 net.cpp:157] Top shape: 50 (50)
I0402 07:38:11.079140 28499 net.cpp:165] Memory required for data: 9830600
I0402 07:38:11.079161 28499 layer_factory.hpp:76] Creating layer label_data_1_split
I0402 07:38:11.079185 28499 net.cpp:106] Creating Layer label_data_1_split
I0402 07:38:11.079201 28499 net.cpp:454] label_data_1_split <- label
I0402 07:38:11.079221 28499 net.cpp:411] label_data_1_split -> label_data_1_split_0
I0402 07:38:11.079248 28499 net.cpp:411] label_data_1_split -> label_data_1_split_1
I0402 07:38:11.079401 28499 net.cpp:150] Setting up label_data_1_split
I0402 07:38:11.079429 28499 net.cpp:157] Top shape: 50 (50)
I0402 07:38:11.079475 28499 net.cpp:157] Top shape: 50 (50)
I0402 07:38:11.079493 28499 net.cpp:165] Memory required for data: 9831000
I0402 07:38:11.079545 28499 layer_factory.hpp:76] Creating layer conv1
I0402 07:38:11.079602 28499 net.cpp:106] Creating Layer conv1
I0402 07:38:11.079622 28499 net.cpp:454] conv1 <- data
I0402 07:38:11.079668 28499 net.cpp:411] conv1 -> conv1
I0402 07:38:11.084496 28499 net.cpp:150] Setting up conv1
I0402 07:38:11.084553 28499 net.cpp:157] Top shape: 50 96 30 30 (4320000)
I0402 07:38:11.084631 28499 net.cpp:165] Memory required for data: 27111000
I0402 07:38:11.084691 28499 layer_factory.hpp:76] Creating layer relu1
I0402 07:38:11.084743 28499 net.cpp:106] Creating Layer relu1
I0402 07:38:11.084796 28499 net.cpp:454] relu1 <- conv1
I0402 07:38:11.084867 28499 net.cpp:411] relu1 -> relu1
I0402 07:38:11.085727 28499 net.cpp:150] Setting up relu1
I0402 07:38:11.085768 28499 net.cpp:157] Top shape: 50 96 30 30 (4320000)
I0402 07:38:11.085816 28499 net.cpp:165] Memory required for data: 44391000
I0402 07:38:11.085858 28499 layer_factory.hpp:76] Creating layer pool1
I0402 07:38:11.085927 28499 net.cpp:106] Creating Layer pool1
I0402 07:38:11.085949 28499 net.cpp:454] pool1 <- relu1
I0402 07:38:11.086011 28499 net.cpp:411] pool1 -> pool1
I0402 07:38:11.086887 28499 net.cpp:150] Setting up pool1
I0402 07:38:11.086917 28499 net.cpp:157] Top shape: 50 96 15 15 (1080000)
I0402 07:38:11.086964 28499 net.cpp:165] Memory required for data: 48711000
I0402 07:38:11.087007 28499 layer_factory.hpp:76] Creating layer conv2
I0402 07:38:11.087079 28499 net.cpp:106] Creating Layer conv2
I0402 07:38:11.087100 28499 net.cpp:454] conv2 <- pool1
I0402 07:38:11.087164 28499 net.cpp:411] conv2 -> conv2
I0402 07:38:11.103824 28499 net.cpp:150] Setting up conv2
I0402 07:38:11.103890 28499 net.cpp:157] Top shape: 50 256 15 15 (2880000)
I0402 07:38:11.103907 28499 net.cpp:165] Memory required for data: 60231000
I0402 07:38:11.104034 28499 layer_factory.hpp:76] Creating layer relu2
I0402 07:38:11.104086 28499 net.cpp:106] Creating Layer relu2
I0402 07:38:11.104110 28499 net.cpp:454] relu2 <- conv2
I0402 07:38:11.104174 28499 net.cpp:411] relu2 -> relu2
I0402 07:38:11.105046 28499 net.cpp:150] Setting up relu2
I0402 07:38:11.105078 28499 net.cpp:157] Top shape: 50 256 15 15 (2880000)
I0402 07:38:11.105126 28499 net.cpp:165] Memory required for data: 71751000
I0402 07:38:11.105167 28499 layer_factory.hpp:76] Creating layer pool2
I0402 07:38:11.105231 28499 net.cpp:106] Creating Layer pool2
I0402 07:38:11.105252 28499 net.cpp:454] pool2 <- relu2
I0402 07:38:11.105315 28499 net.cpp:411] pool2 -> pool2
I0402 07:38:11.106215 28499 net.cpp:150] Setting up pool2
I0402 07:38:11.106248 28499 net.cpp:157] Top shape: 50 256 7 7 (627200)
I0402 07:38:11.106297 28499 net.cpp:165] Memory required for data: 74259800
I0402 07:38:11.106348 28499 layer_factory.hpp:76] Creating layer conv3
I0402 07:38:11.106421 28499 net.cpp:106] Creating Layer conv3
I0402 07:38:11.106443 28499 net.cpp:454] conv3 <- pool2
I0402 07:38:11.106508 28499 net.cpp:411] conv3 -> conv3
I0402 07:38:11.141679 28499 net.cpp:150] Setting up conv3
I0402 07:38:11.141752 28499 net.cpp:157] Top shape: 50 384 7 7 (940800)
I0402 07:38:11.141770 28499 net.cpp:165] Memory required for data: 78023000
I0402 07:38:11.141898 28499 layer_factory.hpp:76] Creating layer relu3
I0402 07:38:11.141947 28499 net.cpp:106] Creating Layer relu3
I0402 07:38:11.141970 28499 net.cpp:454] relu3 <- conv3
I0402 07:38:11.142036 28499 net.cpp:411] relu3 -> relu3
I0402 07:38:11.142917 28499 net.cpp:150] Setting up relu3
I0402 07:38:11.142951 28499 net.cpp:157] Top shape: 50 384 7 7 (940800)
I0402 07:38:11.142999 28499 net.cpp:165] Memory required for data: 81786200
I0402 07:38:11.143043 28499 layer_factory.hpp:76] Creating layer conv4
I0402 07:38:11.143110 28499 net.cpp:106] Creating Layer conv4
I0402 07:38:11.143132 28499 net.cpp:454] conv4 <- relu3
I0402 07:38:11.143196 28499 net.cpp:411] conv4 -> conv4
I0402 07:38:11.172752 28499 net.cpp:150] Setting up conv4
I0402 07:38:11.172824 28499 net.cpp:157] Top shape: 50 384 7 7 (940800)
I0402 07:38:11.172842 28499 net.cpp:165] Memory required for data: 85549400
I0402 07:38:11.172965 28499 layer_factory.hpp:76] Creating layer relu4
I0402 07:38:11.173012 28499 net.cpp:106] Creating Layer relu4
I0402 07:38:11.173035 28499 net.cpp:454] relu4 <- conv4
I0402 07:38:11.173099 28499 net.cpp:411] relu4 -> relu4
I0402 07:38:11.173998 28499 net.cpp:150] Setting up relu4
I0402 07:38:11.174031 28499 net.cpp:157] Top shape: 50 384 7 7 (940800)
I0402 07:38:11.174079 28499 net.cpp:165] Memory required for data: 89312600
I0402 07:38:11.174121 28499 layer_factory.hpp:76] Creating layer conv5
I0402 07:38:11.174190 28499 net.cpp:106] Creating Layer conv5
I0402 07:38:11.174214 28499 net.cpp:454] conv5 <- relu4
I0402 07:38:11.174286 28499 net.cpp:411] conv5 -> conv5
I0402 07:38:11.195878 28499 net.cpp:150] Setting up conv5
I0402 07:38:11.195945 28499 net.cpp:157] Top shape: 50 256 7 7 (627200)
I0402 07:38:11.195961 28499 net.cpp:165] Memory required for data: 91821400
I0402 07:38:11.196090 28499 layer_factory.hpp:76] Creating layer relu5
I0402 07:38:11.196142 28499 net.cpp:106] Creating Layer relu5
I0402 07:38:11.196166 28499 net.cpp:454] relu5 <- conv5
I0402 07:38:11.196230 28499 net.cpp:411] relu5 -> relu5
I0402 07:38:11.197119 28499 net.cpp:150] Setting up relu5
I0402 07:38:11.197152 28499 net.cpp:157] Top shape: 50 256 7 7 (627200)
I0402 07:38:11.197201 28499 net.cpp:165] Memory required for data: 94330200
I0402 07:38:11.197242 28499 layer_factory.hpp:76] Creating layer pool5
I0402 07:38:11.197309 28499 net.cpp:106] Creating Layer pool5
I0402 07:38:11.197330 28499 net.cpp:454] pool5 <- relu5
I0402 07:38:11.197394 28499 net.cpp:411] pool5 -> pool5
I0402 07:38:11.198305 28499 net.cpp:150] Setting up pool5
I0402 07:38:11.198339 28499 net.cpp:157] Top shape: 50 256 3 3 (115200)
I0402 07:38:11.198388 28499 net.cpp:165] Memory required for data: 94791000
I0402 07:38:11.198431 28499 layer_factory.hpp:76] Creating layer fc6
I0402 07:38:11.198508 28499 net.cpp:106] Creating Layer fc6
I0402 07:38:11.198529 28499 net.cpp:454] fc6 <- pool5
I0402 07:38:11.198592 28499 net.cpp:411] fc6 -> fc6
I0402 07:38:11.319160 28499 net.cpp:150] Setting up fc6
I0402 07:38:11.319190 28499 net.cpp:157] Top shape: 50 2048 (102400)
I0402 07:38:11.319195 28499 net.cpp:165] Memory required for data: 95200600
I0402 07:38:11.319206 28499 layer_factory.hpp:76] Creating layer relu6
I0402 07:38:11.319219 28499 net.cpp:106] Creating Layer relu6
I0402 07:38:11.319224 28499 net.cpp:454] relu6 <- fc6
I0402 07:38:11.319236 28499 net.cpp:411] relu6 -> relu6
I0402 07:38:11.320245 28499 net.cpp:150] Setting up relu6
I0402 07:38:11.320258 28499 net.cpp:157] Top shape: 50 2048 (102400)
I0402 07:38:11.320262 28499 net.cpp:165] Memory required for data: 95610200
I0402 07:38:11.320287 28499 layer_factory.hpp:76] Creating layer drop6
I0402 07:38:11.320298 28499 net.cpp:106] Creating Layer drop6
I0402 07:38:11.320303 28499 net.cpp:454] drop6 <- relu6
I0402 07:38:11.320312 28499 net.cpp:411] drop6 -> drop6
I0402 07:38:11.320380 28499 net.cpp:150] Setting up drop6
I0402 07:38:11.320391 28499 net.cpp:157] Top shape: 50 2048 (102400)
I0402 07:38:11.320396 28499 net.cpp:165] Memory required for data: 96019800
I0402 07:38:11.320400 28499 layer_factory.hpp:76] Creating layer fc7
I0402 07:38:11.320410 28499 net.cpp:106] Creating Layer fc7
I0402 07:38:11.320416 28499 net.cpp:454] fc7 <- drop6
I0402 07:38:11.320426 28499 net.cpp:411] fc7 -> fc7
I0402 07:38:11.461004 28499 net.cpp:150] Setting up fc7
I0402 07:38:11.461036 28499 net.cpp:157] Top shape: 50 2048 (102400)
I0402 07:38:11.461043 28499 net.cpp:165] Memory required for data: 96429400
I0402 07:38:11.461055 28499 layer_factory.hpp:76] Creating layer relu7
I0402 07:38:11.461071 28499 net.cpp:106] Creating Layer relu7
I0402 07:38:11.461081 28499 net.cpp:454] relu7 <- fc7
I0402 07:38:11.461112 28499 net.cpp:411] relu7 -> relu7
I0402 07:38:11.461987 28499 net.cpp:150] Setting up relu7
I0402 07:38:11.462002 28499 net.cpp:157] Top shape: 50 2048 (102400)
I0402 07:38:11.462007 28499 net.cpp:165] Memory required for data: 96839000
I0402 07:38:11.462012 28499 layer_factory.hpp:76] Creating layer drop7
I0402 07:38:11.462023 28499 net.cpp:106] Creating Layer drop7
I0402 07:38:11.462028 28499 net.cpp:454] drop7 <- relu7
I0402 07:38:11.462039 28499 net.cpp:411] drop7 -> drop7
I0402 07:38:11.462091 28499 net.cpp:150] Setting up drop7
I0402 07:38:11.462098 28499 net.cpp:157] Top shape: 50 2048 (102400)
I0402 07:38:11.462100 28499 net.cpp:165] Memory required for data: 97248600
I0402 07:38:11.462103 28499 layer_factory.hpp:76] Creating layer fc8
I0402 07:38:11.462111 28499 net.cpp:106] Creating Layer fc8
I0402 07:38:11.462116 28499 net.cpp:454] fc8 <- drop7
I0402 07:38:11.462126 28499 net.cpp:411] fc8 -> fc8
I0402 07:38:11.514233 28499 net.cpp:150] Setting up fc8
I0402 07:38:11.514266 28499 net.cpp:157] Top shape: 50 1000 (50000)
I0402 07:38:11.514271 28499 net.cpp:165] Memory required for data: 97448600
I0402 07:38:11.514286 28499 layer_factory.hpp:76] Creating layer fc8_fc8_0_split
I0402 07:38:11.514297 28499 net.cpp:106] Creating Layer fc8_fc8_0_split
I0402 07:38:11.514324 28499 net.cpp:454] fc8_fc8_0_split <- fc8
I0402 07:38:11.514338 28499 net.cpp:411] fc8_fc8_0_split -> fc8_fc8_0_split_0
I0402 07:38:11.514364 28499 net.cpp:411] fc8_fc8_0_split -> fc8_fc8_0_split_1
I0402 07:38:11.514459 28499 net.cpp:150] Setting up fc8_fc8_0_split
I0402 07:38:11.514468 28499 net.cpp:157] Top shape: 50 1000 (50000)
I0402 07:38:11.514474 28499 net.cpp:157] Top shape: 50 1000 (50000)
I0402 07:38:11.514490 28499 net.cpp:165] Memory required for data: 97848600
I0402 07:38:11.514497 28499 layer_factory.hpp:76] Creating layer accuracy
I0402 07:38:11.514508 28499 net.cpp:106] Creating Layer accuracy
I0402 07:38:11.514514 28499 net.cpp:454] accuracy <- fc8_fc8_0_split_0
I0402 07:38:11.514520 28499 net.cpp:454] accuracy <- label_data_1_split_0
I0402 07:38:11.514536 28499 net.cpp:411] accuracy -> accuracy
…
