…
I0106 16:11:28.253613  2435 net.cpp:322] The NetState phase (0) differed from the phase (1) specified by a rule in layer accuracy
I0106 16:11:28.254004  2435 net.cpp:49] Initializing net from parameters: 
name: "CaffeNet"
state {
  phase: TRAIN
}
layer {
  name: "data"
  type: "Data"
  top: "data"
  top: "label"
  include {
    phase: TRAIN
  }
  transform_param {
    mirror: true
    crop_size: 128
    mean_value: 104
    mean_value: 117
    mean_value: 124
  }
  data_param {
    source: "/media/dereyly/data_one/data/CAFFE_DATA/ilsvrc12_train_lmdb_144"
    batch_size: 256
    backend: LMDB
  }
}
layer {
  name: "conv1"
  type: "Convolution"
  bottom: "data"
  top: "conv1"
  param {
    lr_mult: 1
    decay_mult: 1
  }
  param {
    lr_mult: 2
    decay_mult: 0
  }
  convolution_param {
    num_output: 96
    kernel_size: 11
    stride: 4
    weight_filler {
      type: "msra"
      std: 0.01
    }
    bias_filler {
      type: "constant"
    }
  }
}
layer {
  name: "relu1"
  type: "PReLU"
  bottom: "conv1"
  top: "conv1"
  prelu_param {
    filler {
      type: "constant"
      value: 0.3
    }
    channel_shared: false
  }
}
layer {
  name: "pool1"
  type: "Pooling"
  bottom: "conv1"
  top: "pool1"
  pooling_param {
    pool: MAX
    kernel_size: 3
    stride: 2
  }
}
layer {
  name: "conv1_BN"
  type: "BatchNorm"
  bottom: "pool1"
  top: "conv1_BN"
}
layer {
  name: "conv2"
  type: "Convolution"
  bottom: "conv1_BN"
  top: "conv2"
  param {
    lr_mult: 1
    decay_mult: 1
  }
  param {
    lr_mult: 2
    decay_mult: 0
  }
  convolution_param {
    num_output: 256
    weight_filler {
      type: "msra"
      std: 0.01
    }
    bias_filler {
      type: "constant"
    }
    pad_h: 0
    pad_w: 1
    kernel_h: 1
    kernel_w: 3
  }
}
layer {
  name: "relu2"
  type: "PReLU"
  bottom: "conv2"
  top: "conv2"
  prelu_param {
    filler {
      type: "constant"
      value: 0.3
    }
    channel_shared: false
  }
}
layer {
  name: "conv2_1_BN"
  type: "BatchNorm"
  bottom: "conv2"
  top: "conv2_1_BN"
}
layer {
  name: "conv2_1"
  type: "Convolution"
  bottom: "conv2_1_BN"
  top: "conv2_1"
  param {
    lr_mult: 1
    decay_mult: 1
  }
  param {
    lr_mult: 2
    decay_mult: 0
  }
  convolution_param {
    num_output: 256
    weight_filler {
      type: "msra"
      std: 0.01
    }
    bias_filler {
      type: "constant"
    }
    pad_h: 1
    pad_w: 0
    kernel_h: 3
    kernel_w: 1
  }
}
layer {
  name: "relu2_1"
  type: "PReLU"
  bottom: "conv2_1"
  top: "conv2_1"
  prelu_param {
    filler {
      type: "constant"
      value: 0.3
    }
    channel_shared: false
  }
}
layer {
  name: "conv2_2_BN"
  type: "BatchNorm"
  bottom: "conv2_1"
  top: "conv2_2_BN"
}
layer {
  name: "conv2_2"
  type: "Convolution"
  bottom: "conv2_2_BN"
  top: "conv2_2"
  param {
    lr_mult: 1
    decay_mult: 1
  }
  param {
    lr_mult: 2
    decay_mult: 0
  }
  convolution_param {
    num_output: 256
    weight_filler {
      type: "msra"
      std: 0.01
    }
    bias_filler {
      type: "constant"
    }
    pad_h: 0
    pad_w: 1
    kernel_h: 1
    kernel_w: 3
  }
}
layer {
  name: "relu2_2"
  type: "PReLU"
  bottom: "conv2_2"
  top: "conv2_2"
  prelu_param {
    filler {
      type: "constant"
      value: 0.3
    }
    channel_shared: false
  }
}
layer {
  name: "conv2_3_BN"
  type: "BatchNorm"
  bottom: "conv2_2"
  top: "conv2_3_BN"
}
layer {
  name: "conv2_3"
  type: "Convolution"
  bottom: "conv2_3_BN"
  top: "conv2_3"
  param {
    lr_mult: 1
    decay_mult: 1
  }
  param {
    lr_mult: 2
    decay_mult: 0
  }
  convolution_param {
    num_output: 256
    weight_filler {
      type: "msra"
      std: 0.01
    }
    bias_filler {
      type: "constant"
    }
    pad_h: 1
    pad_w: 0
    kernel_h: 3
    kernel_w: 1
  }
}
layer {
  name: "relu2_3"
  type: "PReLU"
  bottom: "conv2_3"
  top: "conv2_3"
  prelu_param {
    filler {
      type: "constant"
      value: 0.3
    }
    channel_shared: false
  }
}
layer {
  name: "pool2"
  type: "Pooling"
  bottom: "conv2_3"
  top: "pool2"
  pooling_param {
    pool: MAX
    kernel_size: 3
    stride: 2
  }
}
layer {
  name: "conv2_BN"
  type: "BatchNorm"
  bottom: "pool2"
  top: "conv2_BN"
}
layer {
  name: "conv3"
  type: "Convolution"
  bottom: "conv2_BN"
  top: "conv3"
  param {
    lr_mult: 1
    decay_mult: 1
  }
  param {
    lr_mult: 2
    decay_mult: 0
  }
  convolution_param {
    num_output: 384
    weight_filler {
      type: "msra"
      std: 0.01
    }
    bias_filler {
      type: "constant"
    }
    pad_h: 0
    pad_w: 1
    kernel_h: 1
    kernel_w: 3
  }
}
layer {
  name: "relu3"
  type: "PReLU"
  bottom: "conv3"
  top: "conv3"
  prelu_param {
    filler {
      type: "constant"
      value: 0.3
    }
    channel_shared: false
  }
}
layer {
  name: "conv3_BN"
  type: "BatchNorm"
  bottom: "conv3"
  top: "conv3_BN"
}
layer {
  name: "conv3_1"
  type: "Convolution"
  bottom: "conv3_BN"
  top: "conv3_1"
  param {
    lr_mult: 1
    decay_mult: 1
  }
  param {
    lr_mult: 2
    decay_mult: 0
  }
  convolution_param {
    num_output: 384
    weight_filler {
      type: "msra"
      std: 0.01
    }
    bias_filler {
      type: "constant"
    }
    pad_h: 1
    pad_w: 0
    kernel_h: 3
    kernel_w: 1
  }
}
layer {
  name: "relu3_1"
  type: "PReLU"
  bottom: "conv3_1"
  top: "conv3_1"
  prelu_param {
    filler {
      type: "constant"
      value: 0.3
    }
    channel_shared: false
  }
}
layer {
  name: "conv3_1_BN"
  type: "BatchNorm"
  bottom: "conv3_1"
  top: "conv3_1_BN"
}
layer {
  name: "conv4"
  type: "Convolution"
  bottom: "conv3_1_BN"
  top: "conv4"
  param {
    lr_mult: 1
    decay_mult: 1
  }
  param {
    lr_mult: 2
    decay_mult: 0
  }
  convolution_param {
    num_output: 384
    weight_filler {
      type: "msra"
      std: 0.01
    }
    bias_filler {
      type: "constant"
    }
    pad_h: 0
    pad_w: 1
    kernel_h: 1
    kernel_w: 3
  }
}
layer {
  name: "relu4"
  type: "PReLU"
  bottom: "conv4"
  top: "conv4"
  prelu_param {
    filler {
      type: "constant"
      value: 0.3
    }
    channel_shared: false
  }
}
layer {
  name: "conv4_BN"
  type: "BatchNorm"
  bottom: "conv4"
  top: "conv4_BN"
}
layer {
  name: "conv4_1"
  type: "Convolution"
  bottom: "conv4_BN"
  top: "conv4_1"
  param {
    lr_mult: 1
    decay_mult: 1
  }
  param {
    lr_mult: 2
    decay_mult: 0
  }
  convolution_param {
    num_output: 384
    weight_filler {
      type: "msra"
      std: 0.01
    }
    bias_filler {
      type: "constant"
    }
    pad_h: 1
    pad_w: 0
    kernel_h: 3
    kernel_w: 1
  }
}
layer {
  name: "relu4_1"
  type: "PReLU"
  bottom: "conv4_1"
  top: "conv4_1"
  prelu_param {
    filler {
      type: "constant"
      value: 0.3
    }
    channel_shared: false
  }
}
layer {
  name: "conv4_1_BN"
  type: "BatchNorm"
  bottom: "conv4_1"
  top: "conv4_1_BN"
}
layer {
  name: "conv5"
  type: "Convolution"
  bottom: "conv4_1_BN"
  top: "conv5"
  param {
    lr_mult: 1
    decay_mult: 1
  }
  param {
    lr_mult: 2
    decay_mult: 0
  }
  convolution_param {
    num_output: 256
    weight_filler {
      type: "msra"
      std: 0.01
    }
    bias_filler {
      type: "constant"
    }
    pad_h: 0
    pad_w: 1
    kernel_h: 1
    kernel_w: 3
  }
}
layer {
  name: "relu5"
  type: "PReLU"
  bottom: "conv5"
  top: "conv5"
  prelu_param {
    filler {
      type: "constant"
      value: 0.3
    }
    channel_shared: false
  }
}
layer {
  name: "conv5_BN"
  type: "BatchNorm"
  bottom: "conv5"
  top: "conv5_BN"
}
layer {
  name: "conv5_1"
  type: "Convolution"
  bottom: "conv5_BN"
  top: "conv5_1"
  param {
    lr_mult: 1
    decay_mult: 1
  }
  param {
    lr_mult: 2
    decay_mult: 0
  }
  convolution_param {
    num_output: 256
    weight_filler {
      type: "msra"
      std: 0.01
    }
    bias_filler {
      type: "constant"
    }
    pad_h: 1
    pad_w: 0
    kernel_h: 3
    kernel_w: 1
  }
}
layer {
  name: "relu5_1"
  type: "PReLU"
  bottom: "conv5_1"
  top: "conv5_1"
  prelu_param {
    filler {
      type: "constant"
      value: 0.3
    }
    channel_shared: false
  }
}
layer {
  name: "conv5_1_BN"
  type: "BatchNorm"
  bottom: "conv5_1"
  top: "conv5_1_BN"
}
layer {
  name: "pool5"
  type: "Pooling"
  bottom: "conv5_1_BN"
  top: "pool5"
  pooling_param {
    pool: MAX
    kernel_size: 3
    stride: 2
  }
}
layer {
  name: "fc6"
  type: "InnerProduct"
  bottom: "pool5"
  top: "fc6"
  param {
    lr_mult: 1
    decay_mult: 1
  }
  param {
    lr_mult: 2
    decay_mult: 0
  }
  inner_product_param {
    num_output: 2048
    weight_filler {
      type: "gaussian"
      std: 0.005
    }
    bias_filler {
      type: "constant"
    }
  }
}
layer {
  name: "relu6"
  type: "PReLU"
  bottom: "fc6"
  top: "fc6"
  prelu_param {
    filler {
      type: "constant"
      value: 0.3
    }
    channel_shared: false
  }
}
layer {
  name: "fc6_BN"
  type: "BatchNorm"
  bottom: "fc6"
  top: "fc6_BN"
}
layer {
  name: "drop6"
  type: "Dropout"
  bottom: "fc6_BN"
  top: "drop6"
  dropout_param {
    dropout_ratio: 0.2
  }
}
layer {
  name: "fc7"
  type: "InnerProduct"
  bottom: "drop6"
  top: "fc7"
  param {
    lr_mult: 1
    decay_mult: 1
  }
  param {
    lr_mult: 2
    decay_mult: 0
  }
  inner_product_param {
    num_output: 2048
    weight_filler {
      type: "gaussian"
      std: 0.005
    }
    bias_filler {
      type: "constant"
    }
  }
}
layer {
  name: "relu7"
  type: "PReLU"
  bottom: "fc7"
  top: "fc7"
  prelu_param {
    filler {
      type: "constant"
      value: 0.3
    }
    channel_shared: false
  }
}
layer {
  name: "fc7_BN"
  type: "BatchNorm"
  bottom: "fc7"
  top: "fc7_BN"
}
layer {
  name: "drop7"
  type: "Dropout"
  bottom: "fc7_BN"
  top: "drop7"
  dropout_param {
    dropout_ratio: 0.2
  }
}
layer {
  name: "fc8"
  type: "InnerProduct"
  bottom: "drop7"
  top: "fc8"
  param {
    lr_mult: 1
    decay_mult: 1
  }
  param {
    lr_mult: 2
    decay_mult: 0
  }
  inner_product_param {
    num_output: 1000
    weight_filler {
      type: "gaussian"
      std: 0.01
    }
    bias_filler {
      type: "constant"
    }
  }
}
layer {
  name: "loss"
  type: "SoftmaxWithLoss"
  bottom: "fc8"
  bottom: "label"
  top: "loss"
}
I0106 16:11:28.254151  2435 layer_factory.hpp:76] Creating layer data
I0106 16:11:28.272202  2435 net.cpp:106] Creating Layer data
I0106 16:11:28.272245  2435 net.cpp:411] data -> data
I0106 16:11:28.272285  2435 net.cpp:411] data -> label
I0106 16:11:28.306722  2447 db_lmdb.cpp:38] Opened lmdb /media/dereyly/data_one/data/CAFFE_DATA/ilsvrc12_train_lmdb_144
I0106 16:11:28.402209  2435 data_layer.cpp:41] output data size: 256,3,128,128
I0106 16:11:28.457545  2435 net.cpp:150] Setting up data
I0106 16:11:28.457581  2435 net.cpp:157] Top shape: 256 3 128 128 (12582912)
I0106 16:11:28.457587  2435 net.cpp:157] Top shape: 256 (256)
I0106 16:11:28.457592  2435 net.cpp:165] Memory required for data: 50332672
I0106 16:11:28.457600  2435 layer_factory.hpp:76] Creating layer conv1
I0106 16:11:28.457629  2435 net.cpp:106] Creating Layer conv1
I0106 16:11:28.457634  2435 net.cpp:454] conv1 <- data
I0106 16:11:28.457645  2435 net.cpp:411] conv1 -> conv1
I0106 16:11:28.471199  2448 blocking_queue.cpp:50] Waiting for data
I0106 16:11:29.329756  2435 net.cpp:150] Setting up conv1
I0106 16:11:29.329777  2435 net.cpp:157] Top shape: 256 96 30 30 (22118400)
I0106 16:11:29.329780  2435 net.cpp:165] Memory required for data: 138806272
I0106 16:11:29.329797  2435 layer_factory.hpp:76] Creating layer relu1
I0106 16:11:29.329809  2435 net.cpp:106] Creating Layer relu1
I0106 16:11:29.329826  2435 net.cpp:454] relu1 <- conv1
I0106 16:11:29.329831  2435 net.cpp:397] relu1 -> conv1 (in-place)
I0106 16:11:29.330286  2435 net.cpp:150] Setting up relu1
I0106 16:11:29.330296  2435 net.cpp:157] Top shape: 256 96 30 30 (22118400)
I0106 16:11:29.330299  2435 net.cpp:165] Memory required for data: 227279872
I0106 16:11:29.330307  2435 layer_factory.hpp:76] Creating layer pool1
I0106 16:11:29.330312  2435 net.cpp:106] Creating Layer pool1
I0106 16:11:29.330317  2435 net.cpp:454] pool1 <- conv1
I0106 16:11:29.330333  2435 net.cpp:411] pool1 -> pool1
I0106 16:11:29.330886  2435 net.cpp:150] Setting up pool1
I0106 16:11:29.330895  2435 net.cpp:157] Top shape: 256 96 15 15 (5529600)
I0106 16:11:29.330899  2435 net.cpp:165] Memory required for data: 249398272
I0106 16:11:29.330903  2435 layer_factory.hpp:76] Creating layer conv1_BN
I0106 16:11:29.330910  2435 net.cpp:106] Creating Layer conv1_BN
I0106 16:11:29.330914  2435 net.cpp:454] conv1_BN <- pool1
I0106 16:11:29.330919  2435 net.cpp:411] conv1_BN -> conv1_BN
I0106 16:11:29.331064  2435 net.cpp:150] Setting up conv1_BN
I0106 16:11:29.331071  2435 net.cpp:157] Top shape: 256 96 15 15 (5529600)
I0106 16:11:29.331074  2435 net.cpp:165] Memory required for data: 271516672
I0106 16:11:29.331082  2435 layer_factory.hpp:76] Creating layer conv2
I0106 16:11:29.331089  2435 net.cpp:106] Creating Layer conv2
I0106 16:11:29.331092  2435 net.cpp:454] conv2 <- conv1_BN
I0106 16:11:29.331097  2435 net.cpp:411] conv2 -> conv2
I0106 16:11:29.333555  2435 net.cpp:150] Setting up conv2
I0106 16:11:29.333567  2435 net.cpp:157] Top shape: 256 256 15 15 (14745600)
I0106 16:11:29.333571  2435 net.cpp:165] Memory required for data: 330499072
I0106 16:11:29.333577  2435 layer_factory.hpp:76] Creating layer relu2
I0106 16:11:29.333583  2435 net.cpp:106] Creating Layer relu2
I0106 16:11:29.333586  2435 net.cpp:454] relu2 <- conv2
I0106 16:11:29.333591  2435 net.cpp:397] relu2 -> conv2 (in-place)
I0106 16:11:29.333696  2435 net.cpp:150] Setting up relu2
I0106 16:11:29.333703  2435 net.cpp:157] Top shape: 256 256 15 15 (14745600)
I0106 16:11:29.333706  2435 net.cpp:165] Memory required for data: 389481472
I0106 16:11:29.333714  2435 layer_factory.hpp:76] Creating layer conv2_1_BN
I0106 16:11:29.333719  2435 net.cpp:106] Creating Layer conv2_1_BN
I0106 16:11:29.333721  2435 net.cpp:454] conv2_1_BN <- conv2
I0106 16:11:29.333725  2435 net.cpp:411] conv2_1_BN -> conv2_1_BN
I0106 16:11:29.333861  2435 net.cpp:150] Setting up conv2_1_BN
I0106 16:11:29.333868  2435 net.cpp:157] Top shape: 256 256 15 15 (14745600)
I0106 16:11:29.333870  2435 net.cpp:165] Memory required for data: 448463872
I0106 16:11:29.333875  2435 layer_factory.hpp:76] Creating layer conv2_1
I0106 16:11:29.333883  2435 net.cpp:106] Creating Layer conv2_1
I0106 16:11:29.333886  2435 net.cpp:454] conv2_1 <- conv2_1_BN
I0106 16:11:29.333891  2435 net.cpp:411] conv2_1 -> conv2_1
I0106 16:11:29.338625  2435 net.cpp:150] Setting up conv2_1
I0106 16:11:29.338636  2435 net.cpp:157] Top shape: 256 256 15 15 (14745600)
I0106 16:11:29.338639  2435 net.cpp:165] Memory required for data: 507446272
I0106 16:11:29.338645  2435 layer_factory.hpp:76] Creating layer relu2_1
I0106 16:11:29.338652  2435 net.cpp:106] Creating Layer relu2_1
I0106 16:11:29.338655  2435 net.cpp:454] relu2_1 <- conv2_1
I0106 16:11:29.338660  2435 net.cpp:397] relu2_1 -> conv2_1 (in-place)
I0106 16:11:29.338788  2435 net.cpp:150] Setting up relu2_1
I0106 16:11:29.338793  2435 net.cpp:157] Top shape: 256 256 15 15 (14745600)
I0106 16:11:29.338796  2435 net.cpp:165] Memory required for data: 566428672
I0106 16:11:29.338800  2435 layer_factory.hpp:76] Creating layer conv2_2_BN
I0106 16:11:29.338806  2435 net.cpp:106] Creating Layer conv2_2_BN
I0106 16:11:29.338809  2435 net.cpp:454] conv2_2_BN <- conv2_1
I0106 16:11:29.338814  2435 net.cpp:411] conv2_2_BN -> conv2_2_BN
I0106 16:11:29.338958  2435 net.cpp:150] Setting up conv2_2_BN
I0106 16:11:29.338964  2435 net.cpp:157] Top shape: 256 256 15 15 (14745600)
I0106 16:11:29.338968  2435 net.cpp:165] Memory required for data: 625411072
I0106 16:11:29.338975  2435 layer_factory.hpp:76] Creating layer conv2_2
I0106 16:11:29.338981  2435 net.cpp:106] Creating Layer conv2_2
I0106 16:11:29.338995  2435 net.cpp:454] conv2_2 <- conv2_2_BN
I0106 16:11:29.339014  2435 net.cpp:411] conv2_2 -> conv2_2
I0106 16:11:29.344714  2435 net.cpp:150] Setting up conv2_2
I0106 16:11:29.344744  2435 net.cpp:157] Top shape: 256 256 15 15 (14745600)
I0106 16:11:29.344748  2435 net.cpp:165] Memory required for data: 684393472
I0106 16:11:29.344755  2435 layer_factory.hpp:76] Creating layer relu2_2
I0106 16:11:29.344766  2435 net.cpp:106] Creating Layer relu2_2
I0106 16:11:29.344784  2435 net.cpp:454] relu2_2 <- conv2_2
I0106 16:11:29.344790  2435 net.cpp:397] relu2_2 -> conv2_2 (in-place)
I0106 16:11:29.344898  2435 net.cpp:150] Setting up relu2_2
I0106 16:11:29.344904  2435 net.cpp:157] Top shape: 256 256 15 15 (14745600)
I0106 16:11:29.344907  2435 net.cpp:165] Memory required for data: 743375872
I0106 16:11:29.344912  2435 layer_factory.hpp:76] Creating layer conv2_3_BN
I0106 16:11:29.344918  2435 net.cpp:106] Creating Layer conv2_3_BN
I0106 16:11:29.344920  2435 net.cpp:454] conv2_3_BN <- conv2_2
I0106 16:11:29.344924  2435 net.cpp:411] conv2_3_BN -> conv2_3_BN
I0106 16:11:29.345067  2435 net.cpp:150] Setting up conv2_3_BN
I0106 16:11:29.345072  2435 net.cpp:157] Top shape: 256 256 15 15 (14745600)
I0106 16:11:29.345075  2435 net.cpp:165] Memory required for data: 802358272
I0106 16:11:29.345082  2435 layer_factory.hpp:76] Creating layer conv2_3
I0106 16:11:29.345088  2435 net.cpp:106] Creating Layer conv2_3
I0106 16:11:29.345093  2435 net.cpp:454] conv2_3 <- conv2_3_BN
I0106 16:11:29.345096  2435 net.cpp:411] conv2_3 -> conv2_3
I0106 16:11:29.349838  2435 net.cpp:150] Setting up conv2_3
I0106 16:11:29.349848  2435 net.cpp:157] Top shape: 256 256 15 15 (14745600)
I0106 16:11:29.349851  2435 net.cpp:165] Memory required for data: 861340672
I0106 16:11:29.349858  2435 layer_factory.hpp:76] Creating layer relu2_3
I0106 16:11:29.349864  2435 net.cpp:106] Creating Layer relu2_3
I0106 16:11:29.349867  2435 net.cpp:454] relu2_3 <- conv2_3
I0106 16:11:29.349872  2435 net.cpp:397] relu2_3 -> conv2_3 (in-place)
I0106 16:11:29.350237  2435 net.cpp:150] Setting up relu2_3
I0106 16:11:29.350246  2435 net.cpp:157] Top shape: 256 256 15 15 (14745600)
I0106 16:11:29.350250  2435 net.cpp:165] Memory required for data: 920323072
I0106 16:11:29.350253  2435 layer_factory.hpp:76] Creating layer pool2
I0106 16:11:29.350261  2435 net.cpp:106] Creating Layer pool2
I0106 16:11:29.350265  2435 net.cpp:454] pool2 <- conv2_3
I0106 16:11:29.350270  2435 net.cpp:411] pool2 -> pool2
I0106 16:11:29.350530  2435 net.cpp:150] Setting up pool2
I0106 16:11:29.350539  2435 net.cpp:157] Top shape: 256 256 7 7 (3211264)
I0106 16:11:29.350543  2435 net.cpp:165] Memory required for data: 933168128
I0106 16:11:29.350546  2435 layer_factory.hpp:76] Creating layer conv2_BN
I0106 16:11:29.350550  2435 net.cpp:106] Creating Layer conv2_BN
I0106 16:11:29.350554  2435 net.cpp:454] conv2_BN <- pool2
I0106 16:11:29.350559  2435 net.cpp:411] conv2_BN -> conv2_BN
I0106 16:11:29.350710  2435 net.cpp:150] Setting up conv2_BN
I0106 16:11:29.350716  2435 net.cpp:157] Top shape: 256 256 7 7 (3211264)
I0106 16:11:29.350719  2435 net.cpp:165] Memory required for data: 946013184
I0106 16:11:29.350725  2435 layer_factory.hpp:76] Creating layer conv3
I0106 16:11:29.350733  2435 net.cpp:106] Creating Layer conv3
I0106 16:11:29.350735  2435 net.cpp:454] conv3 <- conv2_BN
I0106 16:11:29.350740  2435 net.cpp:411] conv3 -> conv3
I0106 16:11:29.357692  2435 net.cpp:150] Setting up conv3
I0106 16:11:29.357735  2435 net.cpp:157] Top shape: 256 384 7 7 (4816896)
I0106 16:11:29.357754  2435 net.cpp:165] Memory required for data: 965280768
I0106 16:11:29.357776  2435 layer_factory.hpp:76] Creating layer relu3
I0106 16:11:29.357789  2435 net.cpp:106] Creating Layer relu3
I0106 16:11:29.357821  2435 net.cpp:454] relu3 <- conv3
I0106 16:11:29.357858  2435 net.cpp:397] relu3 -> conv3 (in-place)
I0106 16:11:29.357978  2435 net.cpp:150] Setting up relu3
I0106 16:11:29.357986  2435 net.cpp:157] Top shape: 256 384 7 7 (4816896)
I0106 16:11:29.358001  2435 net.cpp:165] Memory required for data: 984548352
I0106 16:11:29.358021  2435 layer_factory.hpp:76] Creating layer conv3_BN
I0106 16:11:29.358031  2435 net.cpp:106] Creating Layer conv3_BN
I0106 16:11:29.358036  2435 net.cpp:454] conv3_BN <- conv3
I0106 16:11:29.358054  2435 net.cpp:411] conv3_BN -> conv3_BN
I0106 16:11:29.358198  2435 net.cpp:150] Setting up conv3_BN
I0106 16:11:29.358207  2435 net.cpp:157] Top shape: 256 384 7 7 (4816896)
I0106 16:11:29.358223  2435 net.cpp:165] Memory required for data: 1003815936
I0106 16:11:29.358234  2435 layer_factory.hpp:76] Creating layer conv3_1
I0106 16:11:29.358245  2435 net.cpp:106] Creating Layer conv3_1
I0106 16:11:29.358265  2435 net.cpp:454] conv3_1 <- conv3_BN
I0106 16:11:29.358286  2435 net.cpp:411] conv3_1 -> conv3_1
I0106 16:11:29.368573  2435 net.cpp:150] Setting up conv3_1
I0106 16:11:29.368592  2435 net.cpp:157] Top shape: 256 384 7 7 (4816896)
I0106 16:11:29.368597  2435 net.cpp:165] Memory required for data: 1023083520
I0106 16:11:29.368607  2435 layer_factory.hpp:76] Creating layer relu3_1
I0106 16:11:29.368621  2435 net.cpp:106] Creating Layer relu3_1
I0106 16:11:29.368628  2435 net.cpp:454] relu3_1 <- conv3_1
I0106 16:11:29.368638  2435 net.cpp:397] relu3_1 -> conv3_1 (in-place)
I0106 16:11:29.368713  2435 net.cpp:150] Setting up relu3_1
I0106 16:11:29.368722  2435 net.cpp:157] Top shape: 256 384 7 7 (4816896)
I0106 16:11:29.368727  2435 net.cpp:165] Memory required for data: 1042351104
I0106 16:11:29.368734  2435 layer_factory.hpp:76] Creating layer conv3_1_BN
I0106 16:11:29.368746  2435 net.cpp:106] Creating Layer conv3_1_BN
I0106 16:11:29.368753  2435 net.cpp:454] conv3_1_BN <- conv3_1
I0106 16:11:29.368762  2435 net.cpp:411] conv3_1_BN -> conv3_1_BN
I0106 16:11:29.368898  2435 net.cpp:150] Setting up conv3_1_BN
I0106 16:11:29.368907  2435 net.cpp:157] Top shape: 256 384 7 7 (4816896)
I0106 16:11:29.368913  2435 net.cpp:165] Memory required for data: 1061618688
I0106 16:11:29.368923  2435 layer_factory.hpp:76] Creating layer conv4
I0106 16:11:29.368934  2435 net.cpp:106] Creating Layer conv4
I0106 16:11:29.368942  2435 net.cpp:454] conv4 <- conv3_1_BN
I0106 16:11:29.368952  2435 net.cpp:411] conv4 -> conv4
I0106 16:11:29.378851  2435 net.cpp:150] Setting up conv4
I0106 16:11:29.378867  2435 net.cpp:157] Top shape: 256 384 7 7 (4816896)
I0106 16:11:29.378873  2435 net.cpp:165] Memory required for data: 1080886272
I0106 16:11:29.378883  2435 layer_factory.hpp:76] Creating layer relu4
I0106 16:11:29.378895  2435 net.cpp:106] Creating Layer relu4
I0106 16:11:29.378901  2435 net.cpp:454] relu4 <- conv4
I0106 16:11:29.378908  2435 net.cpp:397] relu4 -> conv4 (in-place)
I0106 16:11:29.378988  2435 net.cpp:150] Setting up relu4
I0106 16:11:29.378996  2435 net.cpp:157] Top shape: 256 384 7 7 (4816896)
I0106 16:11:29.379001  2435 net.cpp:165] Memory required for data: 1100153856
I0106 16:11:29.379009  2435 layer_factory.hpp:76] Creating layer conv4_BN
I0106 16:11:29.379019  2435 net.cpp:106] Creating Layer conv4_BN
I0106 16:11:29.379024  2435 net.cpp:454] conv4_BN <- conv4
I0106 16:11:29.379031  2435 net.cpp:411] conv4_BN -> conv4_BN
I0106 16:11:29.379168  2435 net.cpp:150] Setting up conv4_BN
I0106 16:11:29.379176  2435 net.cpp:157] Top shape: 256 384 7 7 (4816896)
I0106 16:11:29.379181  2435 net.cpp:165] Memory required for data: 1119421440
I0106 16:11:29.379192  2435 layer_factory.hpp:76] Creating layer conv4_1
I0106 16:11:29.379204  2435 net.cpp:106] Creating Layer conv4_1
I0106 16:11:29.379211  2435 net.cpp:454] conv4_1 <- conv4_BN
I0106 16:11:29.379222  2435 net.cpp:411] conv4_1 -> conv4_1
I0106 16:11:29.389418  2435 net.cpp:150] Setting up conv4_1
I0106 16:11:29.389438  2435 net.cpp:157] Top shape: 256 384 7 7 (4816896)
I0106 16:11:29.389444  2435 net.cpp:165] Memory required for data: 1138689024
I0106 16:11:29.389454  2435 layer_factory.hpp:76] Creating layer relu4_1
I0106 16:11:29.389468  2435 net.cpp:106] Creating Layer relu4_1
I0106 16:11:29.389475  2435 net.cpp:454] relu4_1 <- conv4_1
I0106 16:11:29.389485  2435 net.cpp:397] relu4_1 -> conv4_1 (in-place)
I0106 16:11:29.389580  2435 net.cpp:150] Setting up relu4_1
I0106 16:11:29.389590  2435 net.cpp:157] Top shape: 256 384 7 7 (4816896)
I0106 16:11:29.389595  2435 net.cpp:165] Memory required for data: 1157956608
I0106 16:11:29.389601  2435 layer_factory.hpp:76] Creating layer conv4_1_BN
I0106 16:11:29.389611  2435 net.cpp:106] Creating Layer conv4_1_BN
I0106 16:11:29.389617  2435 net.cpp:454] conv4_1_BN <- conv4_1
I0106 16:11:29.389627  2435 net.cpp:411] conv4_1_BN -> conv4_1_BN
I0106 16:11:29.389777  2435 net.cpp:150] Setting up conv4_1_BN
I0106 16:11:29.389786  2435 net.cpp:157] Top shape: 256 384 7 7 (4816896)
I0106 16:11:29.389791  2435 net.cpp:165] Memory required for data: 1177224192
I0106 16:11:29.389801  2435 layer_factory.hpp:76] Creating layer conv5
I0106 16:11:29.389812  2435 net.cpp:106] Creating Layer conv5
I0106 16:11:29.389819  2435 net.cpp:454] conv5 <- conv4_1_BN
I0106 16:11:29.389830  2435 net.cpp:411] conv5 -> conv5
I0106 16:11:29.397536  2435 net.cpp:150] Setting up conv5
I0106 16:11:29.397552  2435 net.cpp:157] Top shape: 256 256 7 7 (3211264)
I0106 16:11:29.397557  2435 net.cpp:165] Memory required for data: 1190069248
I0106 16:11:29.397567  2435 layer_factory.hpp:76] Creating layer relu5
I0106 16:11:29.397580  2435 net.cpp:106] Creating Layer relu5
I0106 16:11:29.397588  2435 net.cpp:454] relu5 <- conv5
I0106 16:11:29.397596  2435 net.cpp:397] relu5 -> conv5 (in-place)
I0106 16:11:29.397927  2435 net.cpp:150] Setting up relu5
I0106 16:11:29.397939  2435 net.cpp:157] Top shape: 256 256 7 7 (3211264)
I0106 16:11:29.397944  2435 net.cpp:165] Memory required for data: 1202914304
I0106 16:11:29.397951  2435 layer_factory.hpp:76] Creating layer conv5_BN
I0106 16:11:29.397969  2435 net.cpp:106] Creating Layer conv5_BN
I0106 16:11:29.397976  2435 net.cpp:454] conv5_BN <- conv5
I0106 16:11:29.397984  2435 net.cpp:411] conv5_BN -> conv5_BN
I0106 16:11:29.398123  2435 net.cpp:150] Setting up conv5_BN
I0106 16:11:29.398133  2435 net.cpp:157] Top shape: 256 256 7 7 (3211264)
I0106 16:11:29.398139  2435 net.cpp:165] Memory required for data: 1215759360
I0106 16:11:29.398150  2435 layer_factory.hpp:76] Creating layer conv5_1
I0106 16:11:29.398160  2435 net.cpp:106] Creating Layer conv5_1
I0106 16:11:29.398169  2435 net.cpp:454] conv5_1 <- conv5_BN
I0106 16:11:29.398180  2435 net.cpp:411] conv5_1 -> conv5_1
I0106 16:11:29.403044  2435 net.cpp:150] Setting up conv5_1
I0106 16:11:29.403058  2435 net.cpp:157] Top shape: 256 256 7 7 (3211264)
I0106 16:11:29.403064  2435 net.cpp:165] Memory required for data: 1228604416
I0106 16:11:29.403074  2435 layer_factory.hpp:76] Creating layer relu5_1
I0106 16:11:29.403082  2435 net.cpp:106] Creating Layer relu5_1
I0106 16:11:29.403089  2435 net.cpp:454] relu5_1 <- conv5_1
I0106 16:11:29.403098  2435 net.cpp:397] relu5_1 -> conv5_1 (in-place)
I0106 16:11:29.403172  2435 net.cpp:150] Setting up relu5_1
I0106 16:11:29.403182  2435 net.cpp:157] Top shape: 256 256 7 7 (3211264)
I0106 16:11:29.403187  2435 net.cpp:165] Memory required for data: 1241449472
I0106 16:11:29.403193  2435 layer_factory.hpp:76] Creating layer conv5_1_BN
I0106 16:11:29.403203  2435 net.cpp:106] Creating Layer conv5_1_BN
I0106 16:11:29.403209  2435 net.cpp:454] conv5_1_BN <- conv5_1
I0106 16:11:29.403216  2435 net.cpp:411] conv5_1_BN -> conv5_1_BN
I0106 16:11:29.403357  2435 net.cpp:150] Setting up conv5_1_BN
I0106 16:11:29.403367  2435 net.cpp:157] Top shape: 256 256 7 7 (3211264)
I0106 16:11:29.403372  2435 net.cpp:165] Memory required for data: 1254294528
I0106 16:11:29.403394  2435 layer_factory.hpp:76] Creating layer pool5
I0106 16:11:29.403404  2435 net.cpp:106] Creating Layer pool5
I0106 16:11:29.403409  2435 net.cpp:454] pool5 <- conv5_1_BN
I0106 16:11:29.403417  2435 net.cpp:411] pool5 -> pool5
I0106 16:11:29.403573  2435 net.cpp:150] Setting up pool5
I0106 16:11:29.403584  2435 net.cpp:157] Top shape: 256 256 3 3 (589824)
I0106 16:11:29.403589  2435 net.cpp:165] Memory required for data: 1256653824
I0106 16:11:29.403594  2435 layer_factory.hpp:76] Creating layer fc6
I0106 16:11:29.403609  2435 net.cpp:106] Creating Layer fc6
I0106 16:11:29.403627  2435 net.cpp:454] fc6 <- pool5
I0106 16:11:29.403640  2435 net.cpp:411] fc6 -> fc6
I0106 16:11:29.502997  2435 net.cpp:150] Setting up fc6
I0106 16:11:29.503022  2435 net.cpp:157] Top shape: 256 2048 (524288)
I0106 16:11:29.503028  2435 net.cpp:165] Memory required for data: 1258750976
I0106 16:11:29.503039  2435 layer_factory.hpp:76] Creating layer relu6
I0106 16:11:29.503054  2435 net.cpp:106] Creating Layer relu6
I0106 16:11:29.503062  2435 net.cpp:454] relu6 <- fc6
I0106 16:11:29.503070  2435 net.cpp:397] relu6 -> fc6 (in-place)
I0106 16:11:29.503135  2435 net.cpp:150] Setting up relu6
I0106 16:11:29.503144  2435 net.cpp:157] Top shape: 256 2048 (524288)
I0106 16:11:29.503149  2435 net.cpp:165] Memory required for data: 1260848128
I0106 16:11:29.503157  2435 layer_factory.hpp:76] Creating layer fc6_BN
I0106 16:11:29.503165  2435 net.cpp:106] Creating Layer fc6_BN
I0106 16:11:29.503170  2435 net.cpp:454] fc6_BN <- fc6
I0106 16:11:29.503178  2435 net.cpp:411] fc6_BN -> fc6_BN
I0106 16:11:29.503317  2435 net.cpp:150] Setting up fc6_BN
I0106 16:11:29.503326  2435 net.cpp:157] Top shape: 256 2048 (524288)
I0106 16:11:29.503331  2435 net.cpp:165] Memory required for data: 1262945280
I0106 16:11:29.503342  2435 layer_factory.hpp:76] Creating layer drop6
I0106 16:11:29.503353  2435 net.cpp:106] Creating Layer drop6
I0106 16:11:29.503360  2435 net.cpp:454] drop6 <- fc6_BN
I0106 16:11:29.503371  2435 net.cpp:411] drop6 -> drop6
I0106 16:11:29.503407  2435 net.cpp:150] Setting up drop6
I0106 16:11:29.503417  2435 net.cpp:157] Top shape: 256 2048 (524288)
I0106 16:11:29.503422  2435 net.cpp:165] Memory required for data: 1265042432
I0106 16:11:29.503427  2435 layer_factory.hpp:76] Creating layer fc7
I0106 16:11:29.503439  2435 net.cpp:106] Creating Layer fc7
I0106 16:11:29.503445  2435 net.cpp:454] fc7 <- drop6
I0106 16:11:29.503455  2435 net.cpp:411] fc7 -> fc7
I0106 16:11:29.591667  2435 net.cpp:150] Setting up fc7
I0106 16:11:29.591692  2435 net.cpp:157] Top shape: 256 2048 (524288)
I0106 16:11:29.591697  2435 net.cpp:165] Memory required for data: 1267139584
I0106 16:11:29.591709  2435 layer_factory.hpp:76] Creating layer relu7
I0106 16:11:29.591722  2435 net.cpp:106] Creating Layer relu7
I0106 16:11:29.591728  2435 net.cpp:454] relu7 <- fc7
I0106 16:11:29.591738  2435 net.cpp:397] relu7 -> fc7 (in-place)
I0106 16:11:29.591804  2435 net.cpp:150] Setting up relu7
I0106 16:11:29.591812  2435 net.cpp:157] Top shape: 256 2048 (524288)
I0106 16:11:29.591817  2435 net.cpp:165] Memory required for data: 1269236736
I0106 16:11:29.591825  2435 layer_factory.hpp:76] Creating layer fc7_BN
I0106 16:11:29.591835  2435 net.cpp:106] Creating Layer fc7_BN
I0106 16:11:29.591841  2435 net.cpp:454] fc7_BN <- fc7
I0106 16:11:29.591850  2435 net.cpp:411] fc7_BN -> fc7_BN
I0106 16:11:29.591989  2435 net.cpp:150] Setting up fc7_BN
I0106 16:11:29.591998  2435 net.cpp:157] Top shape: 256 2048 (524288)
I0106 16:11:29.592003  2435 net.cpp:165] Memory required for data: 1271333888
I0106 16:11:29.592015  2435 layer_factory.hpp:76] Creating layer drop7
I0106 16:11:29.592023  2435 net.cpp:106] Creating Layer drop7
I0106 16:11:29.592032  2435 net.cpp:454] drop7 <- fc7_BN
I0106 16:11:29.592041  2435 net.cpp:411] drop7 -> drop7
I0106 16:11:29.592077  2435 net.cpp:150] Setting up drop7
I0106 16:11:29.592085  2435 net.cpp:157] Top shape: 256 2048 (524288)
I0106 16:11:29.592090  2435 net.cpp:165] Memory required for data: 1273431040
I0106 16:11:29.592095  2435 layer_factory.hpp:76] Creating layer fc8
I0106 16:11:29.592105  2435 net.cpp:106] Creating Layer fc8
I0106 16:11:29.592110  2435 net.cpp:454] fc8 <- drop7
I0106 16:11:29.592120  2435 net.cpp:411] fc8 -> fc8
I0106 16:11:29.635499  2435 net.cpp:150] Setting up fc8
I0106 16:11:29.635524  2435 net.cpp:157] Top shape: 256 1000 (256000)
I0106 16:11:29.635529  2435 net.cpp:165] Memory required for data: 1274455040
I0106 16:11:29.635550  2435 layer_factory.hpp:76] Creating layer loss
I0106 16:11:29.635565  2435 net.cpp:106] Creating Layer loss
I0106 16:11:29.635572  2435 net.cpp:454] loss <- fc8
I0106 16:11:29.635597  2435 net.cpp:454] loss <- label
I0106 16:11:29.635614  2435 net.cpp:411] loss -> loss
I0106 16:11:29.639998  2435 layer_factory.hpp:76] Creating layer loss
…
I0106 16:11:29.643878  2435 net.cpp:322] The NetState phase (1) differed from the phase (0) specified by a rule in layer data
I0106 16:11:29.644232  2435 net.cpp:49] Initializing net from parameters: 
name: "CaffeNet"
state {
  phase: TEST
}
layer {
  name: "data"
  type: "Data"
  top: "data"
  top: "label"
  include {
    phase: TEST
  }
  transform_param {
    mirror: false
    crop_size: 128
    mean_value: 104
    mean_value: 117
    mean_value: 124
  }
  data_param {
    source: "/media/dereyly/data_one/data/CAFFE_DATA/ilsvrc12_val_lmdb_144"
    batch_size: 100
    backend: LMDB
  }
}
layer {
  name: "conv1"
  type: "Convolution"
  bottom: "data"
  top: "conv1"
  param {
    lr_mult: 1
    decay_mult: 1
  }
  param {
    lr_mult: 2
    decay_mult: 0
  }
  convolution_param {
    num_output: 96
    kernel_size: 11
    stride: 4
    weight_filler {
      type: "msra"
      std: 0.01
    }
    bias_filler {
      type: "constant"
    }
  }
}
layer {
  name: "relu1"
  type: "PReLU"
  bottom: "conv1"
  top: "conv1"
  prelu_param {
    filler {
      type: "constant"
      value: 0.3
    }
    channel_shared: false
  }
}
layer {
  name: "pool1"
  type: "Pooling"
  bottom: "conv1"
  top: "pool1"
  pooling_param {
    pool: MAX
    kernel_size: 3
    stride: 2
  }
}
layer {
  name: "conv1_BN"
  type: "BatchNorm"
  bottom: "pool1"
  top: "conv1_BN"
}
layer {
  name: "conv2"
  type: "Convolution"
  bottom: "conv1_BN"
  top: "conv2"
  param {
    lr_mult: 1
    decay_mult: 1
  }
  param {
    lr_mult: 2
    decay_mult: 0
  }
  convolution_param {
    num_output: 256
    weight_filler {
      type: "msra"
      std: 0.01
    }
    bias_filler {
      type: "constant"
    }
    pad_h: 0
    pad_w: 1
    kernel_h: 1
    kernel_w: 3
  }
}
layer {
  name: "relu2"
  type: "PReLU"
  bottom: "conv2"
  top: "conv2"
  prelu_param {
    filler {
      type: "constant"
      value: 0.3
    }
    channel_shared: false
  }
}
layer {
  name: "conv2_1_BN"
  type: "BatchNorm"
  bottom: "conv2"
  top: "conv2_1_BN"
}
layer {
  name: "conv2_1"
  type: "Convolution"
  bottom: "conv2_1_BN"
  top: "conv2_1"
  param {
    lr_mult: 1
    decay_mult: 1
  }
  param {
    lr_mult: 2
    decay_mult: 0
  }
  convolution_param {
    num_output: 256
    weight_filler {
      type: "msra"
      std: 0.01
    }
    bias_filler {
      type: "constant"
    }
    pad_h: 1
    pad_w: 0
    kernel_h: 3
    kernel_w: 1
  }
}
layer {
  name: "relu2_1"
  type: "PReLU"
  bottom: "conv2_1"
  top: "conv2_1"
  prelu_param {
    filler {
      type: "constant"
      value: 0.3
    }
    channel_shared: false
  }
}
layer {
  name: "conv2_2_BN"
  type: "BatchNorm"
  bottom: "conv2_1"
  top: "conv2_2_BN"
}
layer {
  name: "conv2_2"
  type: "Convolution"
  bottom: "conv2_2_BN"
  top: "conv2_2"
  param {
    lr_mult: 1
    decay_mult: 1
  }
  param {
    lr_mult: 2
    decay_mult: 0
  }
  convolution_param {
    num_output: 256
    weight_filler {
      type: "msra"
      std: 0.01
    }
    bias_filler {
      type: "constant"
    }
    pad_h: 0
    pad_w: 1
    kernel_h: 1
    kernel_w: 3
  }
}
layer {
  name: "relu2_2"
  type: "PReLU"
  bottom: "conv2_2"
  top: "conv2_2"
  prelu_param {
    filler {
      type: "constant"
      value: 0.3
    }
    channel_shared: false
  }
}
layer {
  name: "conv2_3_BN"
  type: "BatchNorm"
  bottom: "conv2_2"
  top: "conv2_3_BN"
}
layer {
  name: "conv2_3"
  type: "Convolution"
  bottom: "conv2_3_BN"
  top: "conv2_3"
  param {
    lr_mult: 1
    decay_mult: 1
  }
  param {
    lr_mult: 2
    decay_mult: 0
  }
  convolution_param {
    num_output: 256
    weight_filler {
      type: "msra"
      std: 0.01
    }
    bias_filler {
      type: "constant"
    }
    pad_h: 1
    pad_w: 0
    kernel_h: 3
    kernel_w: 1
  }
}
layer {
  name: "relu2_3"
  type: "PReLU"
  bottom: "conv2_3"
  top: "conv2_3"
  prelu_param {
    filler {
      type: "constant"
      value: 0.3
    }
    channel_shared: false
  }
}
layer {
  name: "pool2"
  type: "Pooling"
  bottom: "conv2_3"
  top: "pool2"
  pooling_param {
    pool: MAX
    kernel_size: 3
    stride: 2
  }
}
layer {
  name: "conv2_BN"
  type: "BatchNorm"
  bottom: "pool2"
  top: "conv2_BN"
}
layer {
  name: "conv3"
  type: "Convolution"
  bottom: "conv2_BN"
  top: "conv3"
  param {
    lr_mult: 1
    decay_mult: 1
  }
  param {
    lr_mult: 2
    decay_mult: 0
  }
  convolution_param {
    num_output: 384
    weight_filler {
      type: "msra"
      std: 0.01
    }
    bias_filler {
      type: "constant"
    }
    pad_h: 0
    pad_w: 1
    kernel_h: 1
    kernel_w: 3
  }
}
layer {
  name: "relu3"
  type: "PReLU"
  bottom: "conv3"
  top: "conv3"
  prelu_param {
    filler {
      type: "constant"
      value: 0.3
    }
    channel_shared: false
  }
}
layer {
  name: "conv3_BN"
  type: "BatchNorm"
  bottom: "conv3"
  top: "conv3_BN"
}
layer {
  name: "conv3_1"
  type: "Convolution"
  bottom: "conv3_BN"
  top: "conv3_1"
  param {
    lr_mult: 1
    decay_mult: 1
  }
  param {
    lr_mult: 2
    decay_mult: 0
  }
  convolution_param {
    num_output: 384
    weight_filler {
      type: "msra"
      std: 0.01
    }
    bias_filler {
      type: "constant"
    }
    pad_h: 1
    pad_w: 0
    kernel_h: 3
    kernel_w: 1
  }
}
layer {
  name: "relu3_1"
  type: "PReLU"
  bottom: "conv3_1"
  top: "conv3_1"
  prelu_param {
    filler {
      type: "constant"
      value: 0.3
    }
    channel_shared: false
  }
}
layer {
  name: "conv3_1_BN"
  type: "BatchNorm"
  bottom: "conv3_1"
  top: "conv3_1_BN"
}
layer {
  name: "conv4"
  type: "Convolution"
  bottom: "conv3_1_BN"
  top: "conv4"
  param {
    lr_mult: 1
    decay_mult: 1
  }
  param {
    lr_mult: 2
    decay_mult: 0
  }
  convolution_param {
    num_output: 384
    weight_filler {
      type: "msra"
      std: 0.01
    }
    bias_filler {
      type: "constant"
    }
    pad_h: 0
    pad_w: 1
    kernel_h: 1
    kernel_w: 3
  }
}
layer {
  name: "relu4"
  type: "PReLU"
  bottom: "conv4"
  top: "conv4"
  prelu_param {
    filler {
      type: "constant"
      value: 0.3
    }
    channel_shared: false
  }
}
layer {
  name: "conv4_BN"
  type: "BatchNorm"
  bottom: "conv4"
  top: "conv4_BN"
}
layer {
  name: "conv4_1"
  type: "Convolution"
  bottom: "conv4_BN"
  top: "conv4_1"
  param {
    lr_mult: 1
    decay_mult: 1
  }
  param {
    lr_mult: 2
    decay_mult: 0
  }
  convolution_param {
    num_output: 384
    weight_filler {
      type: "msra"
      std: 0.01
    }
    bias_filler {
      type: "constant"
    }
    pad_h: 1
    pad_w: 0
    kernel_h: 3
    kernel_w: 1
  }
}
layer {
  name: "relu4_1"
  type: "PReLU"
  bottom: "conv4_1"
  top: "conv4_1"
  prelu_param {
    filler {
      type: "constant"
      value: 0.3
    }
    channel_shared: false
  }
}
layer {
  name: "conv4_1_BN"
  type: "BatchNorm"
  bottom: "conv4_1"
  top: "conv4_1_BN"
}
layer {
  name: "conv5"
  type: "Convolution"
  bottom: "conv4_1_BN"
  top: "conv5"
  param {
    lr_mult: 1
    decay_mult: 1
  }
  param {
    lr_mult: 2
    decay_mult: 0
  }
  convolution_param {
    num_output: 256
    weight_filler {
      type: "msra"
      std: 0.01
    }
    bias_filler {
      type: "constant"
    }
    pad_h: 0
    pad_w: 1
    kernel_h: 1
    kernel_w: 3
  }
}
layer {
  name: "relu5"
  type: "PReLU"
  bottom: "conv5"
  top: "conv5"
  prelu_param {
    filler {
      type: "constant"
      value: 0.3
    }
    channel_shared: false
  }
}
layer {
  name: "conv5_BN"
  type: "BatchNorm"
  bottom: "conv5"
  top: "conv5_BN"
}
layer {
  name: "conv5_1"
  type: "Convolution"
  bottom: "conv5_BN"
  top: "conv5_1"
  param {
    lr_mult: 1
    decay_mult: 1
  }
  param {
    lr_mult: 2
    decay_mult: 0
  }
  convolution_param {
    num_output: 256
    weight_filler {
      type: "msra"
      std: 0.01
    }
    bias_filler {
      type: "constant"
    }
    pad_h: 1
    pad_w: 0
    kernel_h: 3
    kernel_w: 1
  }
}
layer {
  name: "relu5_1"
  type: "PReLU"
  bottom: "conv5_1"
  top: "conv5_1"
  prelu_param {
    filler {
      type: "constant"
      value: 0.3
    }
    channel_shared: false
  }
}
layer {
  name: "conv5_1_BN"
  type: "BatchNorm"
  bottom: "conv5_1"
  top: "conv5_1_BN"
}
layer {
  name: "pool5"
  type: "Pooling"
  bottom: "conv5_1_BN"
  top: "pool5"
  pooling_param {
    pool: MAX
    kernel_size: 3
    stride: 2
  }
}
layer {
  name: "fc6"
  type: "InnerProduct"
  bottom: "pool5"
  top: "fc6"
  param {
    lr_mult: 1
    decay_mult: 1
  }
  param {
    lr_mult: 2
    decay_mult: 0
  }
  inner_product_param {
    num_output: 2048
    weight_filler {
      type: "gaussian"
      std: 0.005
    }
    bias_filler {
      type: "constant"
    }
  }
}
layer {
  name: "relu6"
  type: "PReLU"
  bottom: "fc6"
  top: "fc6"
  prelu_param {
    filler {
      type: "constant"
      value: 0.3
    }
    channel_shared: false
  }
}
layer {
  name: "fc6_BN"
  type: "BatchNorm"
  bottom: "fc6"
  top: "fc6_BN"
}
layer {
  name: "drop6"
  type: "Dropout"
  bottom: "fc6_BN"
  top: "drop6"
  dropout_param {
    dropout_ratio: 0.2
  }
}
layer {
  name: "fc7"
  type: "InnerProduct"
  bottom: "drop6"
  top: "fc7"
  param {
    lr_mult: 1
    decay_mult: 1
  }
  param {
    lr_mult: 2
    decay_mult: 0
  }
  inner_product_param {
    num_output: 2048
    weight_filler {
      type: "gaussian"
      std: 0.005
    }
    bias_filler {
      type: "constant"
    }
  }
}
layer {
  name: "relu7"
  type: "PReLU"
  bottom: "fc7"
  top: "fc7"
  prelu_param {
    filler {
      type: "constant"
      value: 0.3
    }
    channel_shared: false
  }
}
layer {
  name: "fc7_BN"
  type: "BatchNorm"
  bottom: "fc7"
  top: "fc7_BN"
}
layer {
  name: "drop7"
  type: "Dropout"
  bottom: "fc7_BN"
  top: "drop7"
  dropout_param {
    dropout_ratio: 0.2
  }
}
layer {
  name: "fc8"
  type: "InnerProduct"
  bottom: "drop7"
  top: "fc8"
  param {
    lr_mult: 1
    decay_mult: 1
  }
  param {
    lr_mult: 2
    decay_mult: 0
  }
  inner_product_param {
    num_output: 1000
    weight_filler {
      type: "gaussian"
      std: 0.01
    }
    bias_filler {
      type: "constant"
    }
  }
}
layer {
  name: "accuracy"
  type: "Accuracy"
  bottom: "fc8"
  bottom: "label"
  top: "accuracy"
  include {
    phase: TEST
  }
}
layer {
  name: "loss"
  type: "SoftmaxWithLoss"
  bottom: "fc8"
  bottom: "label"
  top: "loss"
}
I0106 16:11:29.644381  2435 layer_factory.hpp:76] Creating layer data
I0106 16:11:29.644477  2435 net.cpp:106] Creating Layer data
I0106 16:11:29.644496  2435 net.cpp:411] data -> data
I0106 16:11:29.644505  2435 net.cpp:411] data -> label
I0106 16:11:29.741988  2449 db_lmdb.cpp:38] Opened lmdb /media/dereyly/data_one/data/CAFFE_DATA/ilsvrc12_val_lmdb_144
I0106 16:11:29.806365  2435 data_layer.cpp:41] output data size: 100,3,128,128
I0106 16:11:29.829002  2435 net.cpp:150] Setting up data
I0106 16:11:29.829037  2435 net.cpp:157] Top shape: 100 3 128 128 (4915200)
I0106 16:11:29.829042  2435 net.cpp:157] Top shape: 100 (100)
I0106 16:11:29.829046  2435 net.cpp:165] Memory required for data: 19661200
I0106 16:11:29.829052  2435 layer_factory.hpp:76] Creating layer label_data_1_split
I0106 16:11:29.829064  2435 net.cpp:106] Creating Layer label_data_1_split
I0106 16:11:29.829072  2435 net.cpp:454] label_data_1_split <- label
I0106 16:11:29.829095  2435 net.cpp:411] label_data_1_split -> label_data_1_split_0
I0106 16:11:29.829134  2435 net.cpp:411] label_data_1_split -> label_data_1_split_1
I0106 16:11:29.829200  2435 net.cpp:150] Setting up label_data_1_split
I0106 16:11:29.829207  2435 net.cpp:157] Top shape: 100 (100)
I0106 16:11:29.829222  2435 net.cpp:157] Top shape: 100 (100)
I0106 16:11:29.829226  2435 net.cpp:165] Memory required for data: 19662000
I0106 16:11:29.829228  2435 layer_factory.hpp:76] Creating layer conv1
I0106 16:11:29.829242  2435 net.cpp:106] Creating Layer conv1
I0106 16:11:29.829248  2435 net.cpp:454] conv1 <- data
I0106 16:11:29.829259  2435 net.cpp:411] conv1 -> conv1
I0106 16:11:29.832058  2435 net.cpp:150] Setting up conv1
I0106 16:11:29.832082  2435 net.cpp:157] Top shape: 100 96 30 30 (8640000)
I0106 16:11:29.832100  2435 net.cpp:165] Memory required for data: 54222000
I0106 16:11:29.832115  2435 layer_factory.hpp:76] Creating layer relu1
I0106 16:11:29.832126  2435 net.cpp:106] Creating Layer relu1
I0106 16:11:29.832131  2435 net.cpp:454] relu1 <- conv1
I0106 16:11:29.832141  2435 net.cpp:397] relu1 -> conv1 (in-place)
I0106 16:11:29.832296  2435 net.cpp:150] Setting up relu1
I0106 16:11:29.832320  2435 net.cpp:157] Top shape: 100 96 30 30 (8640000)
I0106 16:11:29.832324  2435 net.cpp:165] Memory required for data: 88782000
I0106 16:11:29.832334  2435 layer_factory.hpp:76] Creating layer pool1
I0106 16:11:29.832342  2435 net.cpp:106] Creating Layer pool1
I0106 16:11:29.832347  2435 net.cpp:454] pool1 <- conv1
I0106 16:11:29.832355  2435 net.cpp:411] pool1 -> pool1
I0106 16:11:29.832705  2435 net.cpp:150] Setting up pool1
I0106 16:11:29.832731  2435 net.cpp:157] Top shape: 100 96 15 15 (2160000)
I0106 16:11:29.832737  2435 net.cpp:165] Memory required for data: 97422000
I0106 16:11:29.832743  2435 layer_factory.hpp:76] Creating layer conv1_BN
I0106 16:11:29.832751  2435 net.cpp:106] Creating Layer conv1_BN
I0106 16:11:29.832756  2435 net.cpp:454] conv1_BN <- pool1
I0106 16:11:29.832762  2435 net.cpp:411] conv1_BN -> conv1_BN
I0106 16:11:29.833027  2435 net.cpp:150] Setting up conv1_BN
I0106 16:11:29.833073  2435 net.cpp:157] Top shape: 100 96 15 15 (2160000)
I0106 16:11:29.833094  2435 net.cpp:165] Memory required for data: 106062000
I0106 16:11:29.833143  2435 layer_factory.hpp:76] Creating layer conv2
I0106 16:11:29.833173  2435 net.cpp:106] Creating Layer conv2
I0106 16:11:29.833195  2435 net.cpp:454] conv2 <- conv1_BN
I0106 16:11:29.833221  2435 net.cpp:411] conv2 -> conv2
I0106 16:11:29.836119  2435 net.cpp:150] Setting up conv2
I0106 16:11:29.836141  2435 net.cpp:157] Top shape: 100 256 15 15 (5760000)
I0106 16:11:29.836148  2435 net.cpp:165] Memory required for data: 129102000
I0106 16:11:29.836158  2435 layer_factory.hpp:76] Creating layer relu2
I0106 16:11:29.836179  2435 net.cpp:106] Creating Layer relu2
I0106 16:11:29.836199  2435 net.cpp:454] relu2 <- conv2
I0106 16:11:29.836206  2435 net.cpp:397] relu2 -> conv2 (in-place)
I0106 16:11:29.836334  2435 net.cpp:150] Setting up relu2
I0106 16:11:29.836344  2435 net.cpp:157] Top shape: 100 256 15 15 (5760000)
I0106 16:11:29.836346  2435 net.cpp:165] Memory required for data: 152142000
I0106 16:11:29.836364  2435 layer_factory.hpp:76] Creating layer conv2_1_BN
I0106 16:11:29.836371  2435 net.cpp:106] Creating Layer conv2_1_BN
I0106 16:11:29.836375  2435 net.cpp:454] conv2_1_BN <- conv2
I0106 16:11:29.836380  2435 net.cpp:411] conv2_1_BN -> conv2_1_BN
I0106 16:11:29.836567  2435 net.cpp:150] Setting up conv2_1_BN
I0106 16:11:29.836576  2435 net.cpp:157] Top shape: 100 256 15 15 (5760000)
I0106 16:11:29.836580  2435 net.cpp:165] Memory required for data: 175182000
I0106 16:11:29.836585  2435 layer_factory.hpp:76] Creating layer conv2_1
I0106 16:11:29.836603  2435 net.cpp:106] Creating Layer conv2_1
I0106 16:11:29.836607  2435 net.cpp:454] conv2_1 <- conv2_1_BN
I0106 16:11:29.836613  2435 net.cpp:411] conv2_1 -> conv2_1
I0106 16:11:29.841569  2435 net.cpp:150] Setting up conv2_1
I0106 16:11:29.841581  2435 net.cpp:157] Top shape: 100 256 15 15 (5760000)
I0106 16:11:29.841585  2435 net.cpp:165] Memory required for data: 198222000
I0106 16:11:29.841590  2435 layer_factory.hpp:76] Creating layer relu2_1
I0106 16:11:29.841598  2435 net.cpp:106] Creating Layer relu2_1
I0106 16:11:29.841603  2435 net.cpp:454] relu2_1 <- conv2_1
I0106 16:11:29.841619  2435 net.cpp:397] relu2_1 -> conv2_1 (in-place)
I0106 16:11:29.841963  2435 net.cpp:150] Setting up relu2_1
I0106 16:11:29.841971  2435 net.cpp:157] Top shape: 100 256 15 15 (5760000)
I0106 16:11:29.841974  2435 net.cpp:165] Memory required for data: 221262000
I0106 16:11:29.841979  2435 layer_factory.hpp:76] Creating layer conv2_2_BN
I0106 16:11:29.841984  2435 net.cpp:106] Creating Layer conv2_2_BN
I0106 16:11:29.841989  2435 net.cpp:454] conv2_2_BN <- conv2_1
I0106 16:11:29.841992  2435 net.cpp:411] conv2_2_BN -> conv2_2_BN
I0106 16:11:29.842162  2435 net.cpp:150] Setting up conv2_2_BN
I0106 16:11:29.842170  2435 net.cpp:157] Top shape: 100 256 15 15 (5760000)
I0106 16:11:29.842172  2435 net.cpp:165] Memory required for data: 244302000
I0106 16:11:29.842181  2435 layer_factory.hpp:76] Creating layer conv2_2
I0106 16:11:29.842188  2435 net.cpp:106] Creating Layer conv2_2
I0106 16:11:29.842192  2435 net.cpp:454] conv2_2 <- conv2_2_BN
I0106 16:11:29.842198  2435 net.cpp:411] conv2_2 -> conv2_2
I0106 16:11:29.846878  2435 net.cpp:150] Setting up conv2_2
I0106 16:11:29.846887  2435 net.cpp:157] Top shape: 100 256 15 15 (5760000)
I0106 16:11:29.846891  2435 net.cpp:165] Memory required for data: 267342000
I0106 16:11:29.846896  2435 layer_factory.hpp:76] Creating layer relu2_2
I0106 16:11:29.846902  2435 net.cpp:106] Creating Layer relu2_2
I0106 16:11:29.846905  2435 net.cpp:454] relu2_2 <- conv2_2
I0106 16:11:29.846911  2435 net.cpp:397] relu2_2 -> conv2_2 (in-place)
I0106 16:11:29.846990  2435 net.cpp:150] Setting up relu2_2
I0106 16:11:29.846997  2435 net.cpp:157] Top shape: 100 256 15 15 (5760000)
I0106 16:11:29.847002  2435 net.cpp:165] Memory required for data: 290382000
I0106 16:11:29.847005  2435 layer_factory.hpp:76] Creating layer conv2_3_BN
I0106 16:11:29.847009  2435 net.cpp:106] Creating Layer conv2_3_BN
I0106 16:11:29.847012  2435 net.cpp:454] conv2_3_BN <- conv2_2
I0106 16:11:29.847017  2435 net.cpp:411] conv2_3_BN -> conv2_3_BN
I0106 16:11:29.847158  2435 net.cpp:150] Setting up conv2_3_BN
I0106 16:11:29.847164  2435 net.cpp:157] Top shape: 100 256 15 15 (5760000)
I0106 16:11:29.847167  2435 net.cpp:165] Memory required for data: 313422000
I0106 16:11:29.847173  2435 layer_factory.hpp:76] Creating layer conv2_3
I0106 16:11:29.847180  2435 net.cpp:106] Creating Layer conv2_3
I0106 16:11:29.847183  2435 net.cpp:454] conv2_3 <- conv2_3_BN
I0106 16:11:29.847189  2435 net.cpp:411] conv2_3 -> conv2_3
I0106 16:11:29.852095  2435 net.cpp:150] Setting up conv2_3
I0106 16:11:29.852107  2435 net.cpp:157] Top shape: 100 256 15 15 (5760000)
I0106 16:11:29.852110  2435 net.cpp:165] Memory required for data: 336462000
I0106 16:11:29.852116  2435 layer_factory.hpp:76] Creating layer relu2_3
I0106 16:11:29.852125  2435 net.cpp:106] Creating Layer relu2_3
I0106 16:11:29.852129  2435 net.cpp:454] relu2_3 <- conv2_3
I0106 16:11:29.852134  2435 net.cpp:397] relu2_3 -> conv2_3 (in-place)
I0106 16:11:29.852221  2435 net.cpp:150] Setting up relu2_3
I0106 16:11:29.852226  2435 net.cpp:157] Top shape: 100 256 15 15 (5760000)
I0106 16:11:29.852229  2435 net.cpp:165] Memory required for data: 359502000
I0106 16:11:29.852233  2435 layer_factory.hpp:76] Creating layer pool2
I0106 16:11:29.852241  2435 net.cpp:106] Creating Layer pool2
I0106 16:11:29.852243  2435 net.cpp:454] pool2 <- conv2_3
I0106 16:11:29.852247  2435 net.cpp:411] pool2 -> pool2
I0106 16:11:29.852476  2435 net.cpp:150] Setting up pool2
I0106 16:11:29.852486  2435 net.cpp:157] Top shape: 100 256 7 7 (1254400)
I0106 16:11:29.852489  2435 net.cpp:165] Memory required for data: 364519600
I0106 16:11:29.852493  2435 layer_factory.hpp:76] Creating layer conv2_BN
I0106 16:11:29.852499  2435 net.cpp:106] Creating Layer conv2_BN
I0106 16:11:29.852501  2435 net.cpp:454] conv2_BN <- pool2
I0106 16:11:29.852507  2435 net.cpp:411] conv2_BN -> conv2_BN
I0106 16:11:29.852656  2435 net.cpp:150] Setting up conv2_BN
I0106 16:11:29.852663  2435 net.cpp:157] Top shape: 100 256 7 7 (1254400)
I0106 16:11:29.852665  2435 net.cpp:165] Memory required for data: 369537200
I0106 16:11:29.852671  2435 layer_factory.hpp:76] Creating layer conv3
I0106 16:11:29.852677  2435 net.cpp:106] Creating Layer conv3
I0106 16:11:29.852680  2435 net.cpp:454] conv3 <- conv2_BN
I0106 16:11:29.852685  2435 net.cpp:411] conv3 -> conv3
I0106 16:11:29.859413  2435 net.cpp:150] Setting up conv3
I0106 16:11:29.859426  2435 net.cpp:157] Top shape: 100 384 7 7 (1881600)
I0106 16:11:29.859429  2435 net.cpp:165] Memory required for data: 377063600
I0106 16:11:29.859436  2435 layer_factory.hpp:76] Creating layer relu3
I0106 16:11:29.859450  2435 net.cpp:106] Creating Layer relu3
I0106 16:11:29.859454  2435 net.cpp:454] relu3 <- conv3
I0106 16:11:29.859460  2435 net.cpp:397] relu3 -> conv3 (in-place)
I0106 16:11:29.859534  2435 net.cpp:150] Setting up relu3
I0106 16:11:29.859541  2435 net.cpp:157] Top shape: 100 384 7 7 (1881600)
I0106 16:11:29.859544  2435 net.cpp:165] Memory required for data: 384590000
I0106 16:11:29.859552  2435 layer_factory.hpp:76] Creating layer conv3_BN
I0106 16:11:29.859558  2435 net.cpp:106] Creating Layer conv3_BN
I0106 16:11:29.859562  2435 net.cpp:454] conv3_BN <- conv3
I0106 16:11:29.859566  2435 net.cpp:411] conv3_BN -> conv3_BN
I0106 16:11:29.859711  2435 net.cpp:150] Setting up conv3_BN
I0106 16:11:29.859717  2435 net.cpp:157] Top shape: 100 384 7 7 (1881600)
I0106 16:11:29.859720  2435 net.cpp:165] Memory required for data: 392116400
I0106 16:11:29.859726  2435 layer_factory.hpp:76] Creating layer conv3_1
I0106 16:11:29.859735  2435 net.cpp:106] Creating Layer conv3_1
I0106 16:11:29.859737  2435 net.cpp:454] conv3_1 <- conv3_BN
I0106 16:11:29.859742  2435 net.cpp:411] conv3_1 -> conv3_1
I0106 16:11:29.870344  2435 net.cpp:150] Setting up conv3_1
I0106 16:11:29.870362  2435 net.cpp:157] Top shape: 100 384 7 7 (1881600)
I0106 16:11:29.870367  2435 net.cpp:165] Memory required for data: 399642800
I0106 16:11:29.870374  2435 layer_factory.hpp:76] Creating layer relu3_1
I0106 16:11:29.870383  2435 net.cpp:106] Creating Layer relu3_1
I0106 16:11:29.870389  2435 net.cpp:454] relu3_1 <- conv3_1
I0106 16:11:29.870399  2435 net.cpp:397] relu3_1 -> conv3_1 (in-place)
I0106 16:11:29.870491  2435 net.cpp:150] Setting up relu3_1
I0106 16:11:29.870499  2435 net.cpp:157] Top shape: 100 384 7 7 (1881600)
I0106 16:11:29.870502  2435 net.cpp:165] Memory required for data: 407169200
I0106 16:11:29.870507  2435 layer_factory.hpp:76] Creating layer conv3_1_BN
I0106 16:11:29.870512  2435 net.cpp:106] Creating Layer conv3_1_BN
I0106 16:11:29.870517  2435 net.cpp:454] conv3_1_BN <- conv3_1
I0106 16:11:29.870522  2435 net.cpp:411] conv3_1_BN -> conv3_1_BN
I0106 16:11:29.870685  2435 net.cpp:150] Setting up conv3_1_BN
I0106 16:11:29.870693  2435 net.cpp:157] Top shape: 100 384 7 7 (1881600)
I0106 16:11:29.870697  2435 net.cpp:165] Memory required for data: 414695600
I0106 16:11:29.870703  2435 layer_factory.hpp:76] Creating layer conv4
I0106 16:11:29.870710  2435 net.cpp:106] Creating Layer conv4
I0106 16:11:29.870715  2435 net.cpp:454] conv4 <- conv3_1_BN
I0106 16:11:29.870723  2435 net.cpp:411] conv4 -> conv4
I0106 16:11:29.880548  2435 net.cpp:150] Setting up conv4
I0106 16:11:29.880559  2435 net.cpp:157] Top shape: 100 384 7 7 (1881600)
I0106 16:11:29.880563  2435 net.cpp:165] Memory required for data: 422222000
I0106 16:11:29.880568  2435 layer_factory.hpp:76] Creating layer relu4
I0106 16:11:29.880576  2435 net.cpp:106] Creating Layer relu4
I0106 16:11:29.880580  2435 net.cpp:454] relu4 <- conv4
I0106 16:11:29.880589  2435 net.cpp:397] relu4 -> conv4 (in-place)
I0106 16:11:29.880676  2435 net.cpp:150] Setting up relu4
I0106 16:11:29.880683  2435 net.cpp:157] Top shape: 100 384 7 7 (1881600)
I0106 16:11:29.880686  2435 net.cpp:165] Memory required for data: 429748400
I0106 16:11:29.880691  2435 layer_factory.hpp:76] Creating layer conv4_BN
I0106 16:11:29.880697  2435 net.cpp:106] Creating Layer conv4_BN
I0106 16:11:29.880699  2435 net.cpp:454] conv4_BN <- conv4
I0106 16:11:29.880707  2435 net.cpp:411] conv4_BN -> conv4_BN
I0106 16:11:29.880868  2435 net.cpp:150] Setting up conv4_BN
I0106 16:11:29.880877  2435 net.cpp:157] Top shape: 100 384 7 7 (1881600)
I0106 16:11:29.880879  2435 net.cpp:165] Memory required for data: 437274800
I0106 16:11:29.880885  2435 layer_factory.hpp:76] Creating layer conv4_1
I0106 16:11:29.880892  2435 net.cpp:106] Creating Layer conv4_1
I0106 16:11:29.880895  2435 net.cpp:454] conv4_1 <- conv4_BN
I0106 16:11:29.880903  2435 net.cpp:411] conv4_1 -> conv4_1
I0106 16:11:29.890897  2435 net.cpp:150] Setting up conv4_1
I0106 16:11:29.890908  2435 net.cpp:157] Top shape: 100 384 7 7 (1881600)
I0106 16:11:29.890923  2435 net.cpp:165] Memory required for data: 444801200
I0106 16:11:29.890929  2435 layer_factory.hpp:76] Creating layer relu4_1
I0106 16:11:29.890935  2435 net.cpp:106] Creating Layer relu4_1
I0106 16:11:29.890938  2435 net.cpp:454] relu4_1 <- conv4_1
I0106 16:11:29.890945  2435 net.cpp:397] relu4_1 -> conv4_1 (in-place)
I0106 16:11:29.891023  2435 net.cpp:150] Setting up relu4_1
I0106 16:11:29.891031  2435 net.cpp:157] Top shape: 100 384 7 7 (1881600)
I0106 16:11:29.891033  2435 net.cpp:165] Memory required for data: 452327600
I0106 16:11:29.891037  2435 layer_factory.hpp:76] Creating layer conv4_1_BN
I0106 16:11:29.891043  2435 net.cpp:106] Creating Layer conv4_1_BN
I0106 16:11:29.891047  2435 net.cpp:454] conv4_1_BN <- conv4_1
I0106 16:11:29.891050  2435 net.cpp:411] conv4_1_BN -> conv4_1_BN
I0106 16:11:29.891198  2435 net.cpp:150] Setting up conv4_1_BN
I0106 16:11:29.891206  2435 net.cpp:157] Top shape: 100 384 7 7 (1881600)
I0106 16:11:29.891208  2435 net.cpp:165] Memory required for data: 459854000
I0106 16:11:29.891213  2435 layer_factory.hpp:76] Creating layer conv5
I0106 16:11:29.891219  2435 net.cpp:106] Creating Layer conv5
I0106 16:11:29.891222  2435 net.cpp:454] conv5 <- conv4_1_BN
I0106 16:11:29.891228  2435 net.cpp:411] conv5 -> conv5
I0106 16:11:29.899008  2435 net.cpp:150] Setting up conv5
I0106 16:11:29.899025  2435 net.cpp:157] Top shape: 100 256 7 7 (1254400)
I0106 16:11:29.899029  2435 net.cpp:165] Memory required for data: 464871600
I0106 16:11:29.899037  2435 layer_factory.hpp:76] Creating layer relu5
I0106 16:11:29.899054  2435 net.cpp:106] Creating Layer relu5
I0106 16:11:29.899060  2435 net.cpp:454] relu5 <- conv5
I0106 16:11:29.899071  2435 net.cpp:397] relu5 -> conv5 (in-place)
I0106 16:11:29.899171  2435 net.cpp:150] Setting up relu5
I0106 16:11:29.899179  2435 net.cpp:157] Top shape: 100 256 7 7 (1254400)
I0106 16:11:29.899183  2435 net.cpp:165] Memory required for data: 469889200
I0106 16:11:29.899188  2435 layer_factory.hpp:76] Creating layer conv5_BN
I0106 16:11:29.899196  2435 net.cpp:106] Creating Layer conv5_BN
I0106 16:11:29.899201  2435 net.cpp:454] conv5_BN <- conv5
I0106 16:11:29.899209  2435 net.cpp:411] conv5_BN -> conv5_BN
I0106 16:11:29.899430  2435 net.cpp:150] Setting up conv5_BN
I0106 16:11:29.899449  2435 net.cpp:157] Top shape: 100 256 7 7 (1254400)
I0106 16:11:29.899452  2435 net.cpp:165] Memory required for data: 474906800
I0106 16:11:29.899469  2435 layer_factory.hpp:76] Creating layer conv5_1
I0106 16:11:29.899489  2435 net.cpp:106] Creating Layer conv5_1
I0106 16:11:29.899494  2435 net.cpp:454] conv5_1 <- conv5_BN
I0106 16:11:29.899591  2435 net.cpp:411] conv5_1 -> conv5_1
I0106 16:11:29.904420  2435 net.cpp:150] Setting up conv5_1
I0106 16:11:29.904431  2435 net.cpp:157] Top shape: 100 256 7 7 (1254400)
I0106 16:11:29.904434  2435 net.cpp:165] Memory required for data: 479924400
I0106 16:11:29.904440  2435 layer_factory.hpp:76] Creating layer relu5_1
I0106 16:11:29.904448  2435 net.cpp:106] Creating Layer relu5_1
I0106 16:11:29.904453  2435 net.cpp:454] relu5_1 <- conv5_1
I0106 16:11:29.904461  2435 net.cpp:397] relu5_1 -> conv5_1 (in-place)
I0106 16:11:29.904573  2435 net.cpp:150] Setting up relu5_1
I0106 16:11:29.904582  2435 net.cpp:157] Top shape: 100 256 7 7 (1254400)
I0106 16:11:29.904585  2435 net.cpp:165] Memory required for data: 484942000
I0106 16:11:29.904589  2435 layer_factory.hpp:76] Creating layer conv5_1_BN
I0106 16:11:29.904595  2435 net.cpp:106] Creating Layer conv5_1_BN
I0106 16:11:29.904599  2435 net.cpp:454] conv5_1_BN <- conv5_1
I0106 16:11:29.904604  2435 net.cpp:411] conv5_1_BN -> conv5_1_BN
I0106 16:11:29.904769  2435 net.cpp:150] Setting up conv5_1_BN
I0106 16:11:29.904778  2435 net.cpp:157] Top shape: 100 256 7 7 (1254400)
I0106 16:11:29.904780  2435 net.cpp:165] Memory required for data: 489959600
I0106 16:11:29.904793  2435 layer_factory.hpp:76] Creating layer pool5
I0106 16:11:29.904804  2435 net.cpp:106] Creating Layer pool5
I0106 16:11:29.904810  2435 net.cpp:454] pool5 <- conv5_1_BN
I0106 16:11:29.904820  2435 net.cpp:411] pool5 -> pool5
I0106 16:11:29.904999  2435 net.cpp:150] Setting up pool5
I0106 16:11:29.905009  2435 net.cpp:157] Top shape: 100 256 3 3 (230400)
I0106 16:11:29.905011  2435 net.cpp:165] Memory required for data: 490881200
I0106 16:11:29.905015  2435 layer_factory.hpp:76] Creating layer fc6
I0106 16:11:29.905021  2435 net.cpp:106] Creating Layer fc6
I0106 16:11:29.905025  2435 net.cpp:454] fc6 <- pool5
I0106 16:11:29.905033  2435 net.cpp:411] fc6 -> fc6
I0106 16:11:30.006840  2435 net.cpp:150] Setting up fc6
I0106 16:11:30.006891  2435 net.cpp:157] Top shape: 100 2048 (204800)
I0106 16:11:30.006906  2435 net.cpp:165] Memory required for data: 491700400
I0106 16:11:30.006919  2435 layer_factory.hpp:76] Creating layer relu6
I0106 16:11:30.006944  2435 net.cpp:106] Creating Layer relu6
I0106 16:11:30.006949  2435 net.cpp:454] relu6 <- fc6
I0106 16:11:30.006958  2435 net.cpp:397] relu6 -> fc6 (in-place)
I0106 16:11:30.007060  2435 net.cpp:150] Setting up relu6
I0106 16:11:30.007066  2435 net.cpp:157] Top shape: 100 2048 (204800)
I0106 16:11:30.007079  2435 net.cpp:165] Memory required for data: 492519600
I0106 16:11:30.007083  2435 layer_factory.hpp:76] Creating layer fc6_BN
I0106 16:11:30.007089  2435 net.cpp:106] Creating Layer fc6_BN
I0106 16:11:30.007092  2435 net.cpp:454] fc6_BN <- fc6
I0106 16:11:30.007097  2435 net.cpp:411] fc6_BN -> fc6_BN
I0106 16:11:30.007254  2435 net.cpp:150] Setting up fc6_BN
I0106 16:11:30.007261  2435 net.cpp:157] Top shape: 100 2048 (204800)
I0106 16:11:30.007274  2435 net.cpp:165] Memory required for data: 493338800
I0106 16:11:30.007280  2435 layer_factory.hpp:76] Creating layer drop6
I0106 16:11:30.007288  2435 net.cpp:106] Creating Layer drop6
I0106 16:11:30.007292  2435 net.cpp:454] drop6 <- fc6_BN
I0106 16:11:30.007297  2435 net.cpp:411] drop6 -> drop6
I0106 16:11:30.007339  2435 net.cpp:150] Setting up drop6
I0106 16:11:30.007344  2435 net.cpp:157] Top shape: 100 2048 (204800)
I0106 16:11:30.007347  2435 net.cpp:165] Memory required for data: 494158000
I0106 16:11:30.007350  2435 layer_factory.hpp:76] Creating layer fc7
I0106 16:11:30.007357  2435 net.cpp:106] Creating Layer fc7
I0106 16:11:30.007360  2435 net.cpp:454] fc7 <- drop6
I0106 16:11:30.007365  2435 net.cpp:411] fc7 -> fc7
I0106 16:11:30.094861  2435 net.cpp:150] Setting up fc7
I0106 16:11:30.094880  2435 net.cpp:157] Top shape: 100 2048 (204800)
I0106 16:11:30.094883  2435 net.cpp:165] Memory required for data: 494977200
I0106 16:11:30.094892  2435 layer_factory.hpp:76] Creating layer relu7
I0106 16:11:30.094915  2435 net.cpp:106] Creating Layer relu7
I0106 16:11:30.094920  2435 net.cpp:454] relu7 <- fc7
I0106 16:11:30.094926  2435 net.cpp:397] relu7 -> fc7 (in-place)
I0106 16:11:30.095010  2435 net.cpp:150] Setting up relu7
I0106 16:11:30.095016  2435 net.cpp:157] Top shape: 100 2048 (204800)
I0106 16:11:30.095019  2435 net.cpp:165] Memory required for data: 495796400
I0106 16:11:30.095023  2435 layer_factory.hpp:76] Creating layer fc7_BN
I0106 16:11:30.095028  2435 net.cpp:106] Creating Layer fc7_BN
I0106 16:11:30.095031  2435 net.cpp:454] fc7_BN <- fc7
I0106 16:11:30.095036  2435 net.cpp:411] fc7_BN -> fc7_BN
I0106 16:11:30.095206  2435 net.cpp:150] Setting up fc7_BN
I0106 16:11:30.095211  2435 net.cpp:157] Top shape: 100 2048 (204800)
I0106 16:11:30.095214  2435 net.cpp:165] Memory required for data: 496615600
I0106 16:11:30.095221  2435 layer_factory.hpp:76] Creating layer drop7
I0106 16:11:30.095227  2435 net.cpp:106] Creating Layer drop7
I0106 16:11:30.095230  2435 net.cpp:454] drop7 <- fc7_BN
I0106 16:11:30.095245  2435 net.cpp:411] drop7 -> drop7
I0106 16:11:30.095275  2435 net.cpp:150] Setting up drop7
I0106 16:11:30.095293  2435 net.cpp:157] Top shape: 100 2048 (204800)
I0106 16:11:30.095295  2435 net.cpp:165] Memory required for data: 497434800
I0106 16:11:30.095299  2435 layer_factory.hpp:76] Creating layer fc8
I0106 16:11:30.095314  2435 net.cpp:106] Creating Layer fc8
I0106 16:11:30.095319  2435 net.cpp:454] fc8 <- drop7
I0106 16:11:30.095334  2435 net.cpp:411] fc8 -> fc8
I0106 16:11:30.137843  2435 net.cpp:150] Setting up fc8
I0106 16:11:30.137877  2435 net.cpp:157] Top shape: 100 1000 (100000)
I0106 16:11:30.137881  2435 net.cpp:165] Memory required for data: 497834800
I0106 16:11:30.137889  2435 layer_factory.hpp:76] Creating layer fc8_fc8_0_split
I0106 16:11:30.137897  2435 net.cpp:106] Creating Layer fc8_fc8_0_split
I0106 16:11:30.137902  2435 net.cpp:454] fc8_fc8_0_split <- fc8
I0106 16:11:30.137919  2435 net.cpp:411] fc8_fc8_0_split -> fc8_fc8_0_split_0
I0106 16:11:30.137926  2435 net.cpp:411] fc8_fc8_0_split -> fc8_fc8_0_split_1
I0106 16:11:30.137972  2435 net.cpp:150] Setting up fc8_fc8_0_split
I0106 16:11:30.137979  2435 net.cpp:157] Top shape: 100 1000 (100000)
I0106 16:11:30.137992  2435 net.cpp:157] Top shape: 100 1000 (100000)
I0106 16:11:30.137995  2435 net.cpp:165] Memory required for data: 498634800
I0106 16:11:30.137998  2435 layer_factory.hpp:76] Creating layer accuracy
I0106 16:11:30.138028  2435 net.cpp:106] Creating Layer accuracy
I0106 16:11:30.138031  2435 net.cpp:454] accuracy <- fc8_fc8_0_split_0
I0106 16:11:30.138036  2435 net.cpp:454] accuracy <- label_data_1_split_0
I0106 16:11:30.138041  2435 net.cpp:411] accuracy -> accuracy
…
