…
I0105 13:55:36.184675  2454 net.cpp:322] The NetState phase (0) differed from the phase (1) specified by a rule in layer accuracy
I0105 13:55:36.185006  2454 net.cpp:49] Initializing net from parameters: 
name: "CaffeNet"
state {
  phase: TRAIN
}
layer {
  name: "data"
  type: "Data"
  top: "data"
  top: "label"
  include {
    phase: TRAIN
  }
  transform_param {
    mirror: true
    crop_size: 128
    mean_value: 104
    mean_value: 117
    mean_value: 124
  }
  data_param {
    source: "/media/dereyly/data_one/data/CAFFE_DATA/ilsvrc12_train_lmdb_144"
    batch_size: 256
    backend: LMDB
  }
}
layer {
  name: "conv1"
  type: "Convolution"
  bottom: "data"
  top: "conv1"
  param {
    lr_mult: 1
    decay_mult: 1
  }
  param {
    lr_mult: 2
    decay_mult: 0
  }
  convolution_param {
    num_output: 96
    kernel_size: 11
    stride: 4
    weight_filler {
      type: "msra"
      std: 0.01
    }
    bias_filler {
      type: "constant"
    }
  }
}
layer {
  name: "relu1"
  type: "PReLU"
  bottom: "conv1"
  top: "conv1"
  prelu_param {
    filler {
      type: "constant"
      value: 0.3
    }
    channel_shared: false
  }
}
layer {
  name: "pool1"
  type: "Pooling"
  bottom: "conv1"
  top: "pool1"
  pooling_param {
    pool: MAX
    kernel_size: 3
    stride: 2
  }
}
layer {
  name: "conv1_BN"
  type: "BatchNorm"
  bottom: "pool1"
  top: "conv1_BN"
}
layer {
  name: "conv2"
  type: "Convolution"
  bottom: "conv1_BN"
  top: "conv2"
  param {
    lr_mult: 1
    decay_mult: 1
  }
  param {
    lr_mult: 2
    decay_mult: 0
  }
  convolution_param {
    num_output: 256
    weight_filler {
      type: "msra"
      std: 0.01
    }
    bias_filler {
      type: "constant"
    }
    pad_h: 0
    pad_w: 2
    kernel_h: 1
    kernel_w: 5
  }
}
layer {
  name: "relu2"
  type: "PReLU"
  bottom: "conv2"
  top: "conv2"
  prelu_param {
    filler {
      type: "constant"
      value: 0.3
    }
    channel_shared: false
  }
}
layer {
  name: "conv2_1_BN"
  type: "BatchNorm"
  bottom: "conv2"
  top: "conv2_1_BN"
}
layer {
  name: "conv2_1"
  type: "Convolution"
  bottom: "conv2_1_BN"
  top: "conv2_1"
  param {
    lr_mult: 1
    decay_mult: 1
  }
  param {
    lr_mult: 2
    decay_mult: 0
  }
  convolution_param {
    num_output: 256
    weight_filler {
      type: "msra"
      std: 0.01
    }
    bias_filler {
      type: "constant"
    }
    pad_h: 2
    pad_w: 0
    kernel_h: 5
    kernel_w: 1
  }
}
layer {
  name: "relu2_1"
  type: "PReLU"
  bottom: "conv2_1"
  top: "conv2_1"
  prelu_param {
    filler {
      type: "constant"
      value: 0.3
    }
    channel_shared: false
  }
}
layer {
  name: "pool2"
  type: "Pooling"
  bottom: "conv2_1"
  top: "pool2"
  pooling_param {
    pool: MAX
    kernel_size: 3
    stride: 2
  }
}
layer {
  name: "conv2_BN"
  type: "BatchNorm"
  bottom: "pool2"
  top: "conv2_BN"
}
layer {
  name: "conv3"
  type: "Convolution"
  bottom: "conv2_BN"
  top: "conv3"
  param {
    lr_mult: 1
    decay_mult: 1
  }
  param {
    lr_mult: 2
    decay_mult: 0
  }
  convolution_param {
    num_output: 384
    weight_filler {
      type: "msra"
      std: 0.01
    }
    bias_filler {
      type: "constant"
    }
    pad_h: 0
    pad_w: 1
    kernel_h: 1
    kernel_w: 3
  }
}
layer {
  name: "relu3"
  type: "PReLU"
  bottom: "conv3"
  top: "conv3"
  prelu_param {
    filler {
      type: "constant"
      value: 0.3
    }
    channel_shared: false
  }
}
layer {
  name: "conv3_BN"
  type: "BatchNorm"
  bottom: "conv3"
  top: "conv3_BN"
}
layer {
  name: "conv3_1"
  type: "Convolution"
  bottom: "conv3_BN"
  top: "conv3_1"
  param {
    lr_mult: 1
    decay_mult: 1
  }
  param {
    lr_mult: 2
    decay_mult: 0
  }
  convolution_param {
    num_output: 384
    weight_filler {
      type: "msra"
      std: 0.01
    }
    bias_filler {
      type: "constant"
    }
    pad_h: 1
    pad_w: 0
    kernel_h: 3
    kernel_w: 1
  }
}
layer {
  name: "relu3_1"
  type: "PReLU"
  bottom: "conv3_1"
  top: "conv3_1"
  prelu_param {
    filler {
      type: "constant"
      value: 0.3
    }
    channel_shared: false
  }
}
layer {
  name: "conv3_1_BN"
  type: "BatchNorm"
  bottom: "conv3_1"
  top: "conv3_1_BN"
}
layer {
  name: "conv4"
  type: "Convolution"
  bottom: "conv3_1_BN"
  top: "conv4"
  param {
    lr_mult: 1
    decay_mult: 1
  }
  param {
    lr_mult: 2
    decay_mult: 0
  }
  convolution_param {
    num_output: 384
    weight_filler {
      type: "msra"
      std: 0.01
    }
    bias_filler {
      type: "constant"
    }
    pad_h: 0
    pad_w: 1
    kernel_h: 1
    kernel_w: 3
  }
}
layer {
  name: "relu4"
  type: "PReLU"
  bottom: "conv4"
  top: "conv4"
  prelu_param {
    filler {
      type: "constant"
      value: 0.3
    }
    channel_shared: false
  }
}
layer {
  name: "conv4_BN"
  type: "BatchNorm"
  bottom: "conv4"
  top: "conv4_BN"
}
layer {
  name: "conv4_1"
  type: "Convolution"
  bottom: "conv4_BN"
  top: "conv4_1"
  param {
    lr_mult: 1
    decay_mult: 1
  }
  param {
    lr_mult: 2
    decay_mult: 0
  }
  convolution_param {
    num_output: 384
    weight_filler {
      type: "msra"
      std: 0.01
    }
    bias_filler {
      type: "constant"
    }
    pad_h: 1
    pad_w: 0
    kernel_h: 3
    kernel_w: 1
  }
}
layer {
  name: "relu4_1"
  type: "PReLU"
  bottom: "conv4_1"
  top: "conv4_1"
  prelu_param {
    filler {
      type: "constant"
      value: 0.3
    }
    channel_shared: false
  }
}
layer {
  name: "conv4_1_BN"
  type: "BatchNorm"
  bottom: "conv4_1"
  top: "conv4_1_BN"
}
layer {
  name: "conv5"
  type: "Convolution"
  bottom: "conv4_1_BN"
  top: "conv5"
  param {
    lr_mult: 1
    decay_mult: 1
  }
  param {
    lr_mult: 2
    decay_mult: 0
  }
  convolution_param {
    num_output: 256
    weight_filler {
      type: "msra"
      std: 0.01
    }
    bias_filler {
      type: "constant"
    }
    pad_h: 0
    pad_w: 1
    kernel_h: 1
    kernel_w: 3
  }
}
layer {
  name: "relu5"
  type: "PReLU"
  bottom: "conv5"
  top: "conv5"
  prelu_param {
    filler {
      type: "constant"
      value: 0.3
    }
    channel_shared: false
  }
}
layer {
  name: "conv5_BN"
  type: "BatchNorm"
  bottom: "conv5"
  top: "conv5_BN"
}
layer {
  name: "conv5_1"
  type: "Convolution"
  bottom: "conv5_BN"
  top: "conv5_1"
  param {
    lr_mult: 1
    decay_mult: 1
  }
  param {
    lr_mult: 2
    decay_mult: 0
  }
  convolution_param {
    num_output: 256
    weight_filler {
      type: "msra"
      std: 0.01
    }
    bias_filler {
      type: "constant"
    }
    pad_h: 1
    pad_w: 0
    kernel_h: 3
    kernel_w: 1
  }
}
layer {
  name: "relu5_1"
  type: "PReLU"
  bottom: "conv5_1"
  top: "conv5_1"
  prelu_param {
    filler {
      type: "constant"
      value: 0.3
    }
    channel_shared: false
  }
}
layer {
  name: "conv5_1_BN"
  type: "BatchNorm"
  bottom: "conv5_1"
  top: "conv5_1_BN"
}
layer {
  name: "pool5"
  type: "Pooling"
  bottom: "conv5_1_BN"
  top: "pool5"
  pooling_param {
    pool: MAX
    kernel_size: 3
    stride: 2
  }
}
layer {
  name: "fc6"
  type: "InnerProduct"
  bottom: "pool5"
  top: "fc6"
  param {
    lr_mult: 1
    decay_mult: 1
  }
  param {
    lr_mult: 2
    decay_mult: 0
  }
  inner_product_param {
    num_output: 2048
    weight_filler {
      type: "gaussian"
      std: 0.005
    }
    bias_filler {
      type: "constant"
    }
  }
}
layer {
  name: "relu6"
  type: "PReLU"
  bottom: "fc6"
  top: "fc6"
  prelu_param {
    filler {
      type: "constant"
      value: 0.3
    }
    channel_shared: false
  }
}
layer {
  name: "fc6_BN"
  type: "BatchNorm"
  bottom: "fc6"
  top: "fc6_BN"
}
layer {
  name: "drop6"
  type: "Dropout"
  bottom: "fc6_BN"
  top: "drop6"
  dropout_param {
    dropout_ratio: 0.2
  }
}
layer {
  name: "fc7"
  type: "InnerProduct"
  bottom: "drop6"
  top: "fc7"
  param {
    lr_mult: 1
    decay_mult: 1
  }
  param {
    lr_mult: 2
    decay_mult: 0
  }
  inner_product_param {
    num_output: 2048
    weight_filler {
      type: "gaussian"
      std: 0.005
    }
    bias_filler {
      type: "constant"
    }
  }
}
layer {
  name: "relu7"
  type: "PReLU"
  bottom: "fc7"
  top: "fc7"
  prelu_param {
    filler {
      type: "constant"
      value: 0.3
    }
    channel_shared: false
  }
}
layer {
  name: "fc7_BN"
  type: "BatchNorm"
  bottom: "fc7"
  top: "fc7_BN"
}
layer {
  name: "drop7"
  type: "Dropout"
  bottom: "fc7_BN"
  top: "drop7"
  dropout_param {
    dropout_ratio: 0.2
  }
}
layer {
  name: "fc8"
  type: "InnerProduct"
  bottom: "drop7"
  top: "fc8"
  param {
    lr_mult: 1
    decay_mult: 1
  }
  param {
    lr_mult: 2
    decay_mult: 0
  }
  inner_product_param {
    num_output: 1000
    weight_filler {
      type: "gaussian"
      std: 0.01
    }
    bias_filler {
      type: "constant"
    }
  }
}
layer {
  name: "loss"
  type: "SoftmaxWithLoss"
  bottom: "fc8"
  bottom: "label"
  top: "loss"
}
I0105 13:55:36.185137  2454 layer_factory.hpp:76] Creating layer data
I0105 13:55:36.204753  2454 net.cpp:106] Creating Layer data
I0105 13:55:36.204785  2454 net.cpp:411] data -> data
I0105 13:55:36.204816  2454 net.cpp:411] data -> label
I0105 13:55:36.239467  2459 db_lmdb.cpp:38] Opened lmdb /media/dereyly/data_one/data/CAFFE_DATA/ilsvrc12_train_lmdb_144
I0105 13:55:36.313354  2454 data_layer.cpp:41] output data size: 256,3,128,128
I0105 13:55:36.369070  2454 net.cpp:150] Setting up data
I0105 13:55:36.369105  2454 net.cpp:157] Top shape: 256 3 128 128 (12582912)
I0105 13:55:36.369112  2454 net.cpp:157] Top shape: 256 (256)
I0105 13:55:36.369114  2454 net.cpp:165] Memory required for data: 50332672
I0105 13:55:36.369123  2454 layer_factory.hpp:76] Creating layer conv1
I0105 13:55:36.369141  2454 net.cpp:106] Creating Layer conv1
I0105 13:55:36.369148  2454 net.cpp:454] conv1 <- data
I0105 13:55:36.369156  2454 net.cpp:411] conv1 -> conv1
I0105 13:55:36.383019  2460 blocking_queue.cpp:50] Waiting for data
I0105 13:55:37.237300  2454 net.cpp:150] Setting up conv1
I0105 13:55:37.237319  2454 net.cpp:157] Top shape: 256 96 30 30 (22118400)
I0105 13:55:37.237323  2454 net.cpp:165] Memory required for data: 138806272
I0105 13:55:37.237340  2454 layer_factory.hpp:76] Creating layer relu1
I0105 13:55:37.237362  2454 net.cpp:106] Creating Layer relu1
I0105 13:55:37.237367  2454 net.cpp:454] relu1 <- conv1
I0105 13:55:37.237372  2454 net.cpp:397] relu1 -> conv1 (in-place)
I0105 13:55:37.237789  2454 net.cpp:150] Setting up relu1
I0105 13:55:37.237809  2454 net.cpp:157] Top shape: 256 96 30 30 (22118400)
I0105 13:55:37.237813  2454 net.cpp:165] Memory required for data: 227279872
I0105 13:55:37.237820  2454 layer_factory.hpp:76] Creating layer pool1
I0105 13:55:37.237826  2454 net.cpp:106] Creating Layer pool1
I0105 13:55:37.237830  2454 net.cpp:454] pool1 <- conv1
I0105 13:55:37.237834  2454 net.cpp:411] pool1 -> pool1
I0105 13:55:37.238391  2454 net.cpp:150] Setting up pool1
I0105 13:55:37.238400  2454 net.cpp:157] Top shape: 256 96 15 15 (5529600)
I0105 13:55:37.238404  2454 net.cpp:165] Memory required for data: 249398272
I0105 13:55:37.238407  2454 layer_factory.hpp:76] Creating layer conv1_BN
I0105 13:55:37.238415  2454 net.cpp:106] Creating Layer conv1_BN
I0105 13:55:37.238420  2454 net.cpp:454] conv1_BN <- pool1
I0105 13:55:37.238435  2454 net.cpp:411] conv1_BN -> conv1_BN
I0105 13:55:37.238577  2454 net.cpp:150] Setting up conv1_BN
I0105 13:55:37.238584  2454 net.cpp:157] Top shape: 256 96 15 15 (5529600)
I0105 13:55:37.238586  2454 net.cpp:165] Memory required for data: 271516672
I0105 13:55:37.238595  2454 layer_factory.hpp:76] Creating layer conv2
I0105 13:55:37.238602  2454 net.cpp:106] Creating Layer conv2
I0105 13:55:37.238605  2454 net.cpp:454] conv2 <- conv1_BN
I0105 13:55:37.238620  2454 net.cpp:411] conv2 -> conv2
I0105 13:55:37.241914  2454 net.cpp:150] Setting up conv2
I0105 13:55:37.241925  2454 net.cpp:157] Top shape: 256 256 15 15 (14745600)
I0105 13:55:37.241927  2454 net.cpp:165] Memory required for data: 330499072
I0105 13:55:37.241933  2454 layer_factory.hpp:76] Creating layer relu2
I0105 13:55:37.241940  2454 net.cpp:106] Creating Layer relu2
I0105 13:55:37.241953  2454 net.cpp:454] relu2 <- conv2
I0105 13:55:37.241960  2454 net.cpp:397] relu2 -> conv2 (in-place)
I0105 13:55:37.242058  2454 net.cpp:150] Setting up relu2
I0105 13:55:37.242063  2454 net.cpp:157] Top shape: 256 256 15 15 (14745600)
I0105 13:55:37.242066  2454 net.cpp:165] Memory required for data: 389481472
I0105 13:55:37.242074  2454 layer_factory.hpp:76] Creating layer conv2_1_BN
I0105 13:55:37.242090  2454 net.cpp:106] Creating Layer conv2_1_BN
I0105 13:55:37.242094  2454 net.cpp:454] conv2_1_BN <- conv2
I0105 13:55:37.242097  2454 net.cpp:411] conv2_1_BN -> conv2_1_BN
I0105 13:55:37.242239  2454 net.cpp:150] Setting up conv2_1_BN
I0105 13:55:37.242246  2454 net.cpp:157] Top shape: 256 256 15 15 (14745600)
I0105 13:55:37.242249  2454 net.cpp:165] Memory required for data: 448463872
I0105 13:55:37.242255  2454 layer_factory.hpp:76] Creating layer conv2_1
I0105 13:55:37.242274  2454 net.cpp:106] Creating Layer conv2_1
I0105 13:55:37.242276  2454 net.cpp:454] conv2_1 <- conv2_1_BN
I0105 13:55:37.242283  2454 net.cpp:411] conv2_1 -> conv2_1
I0105 13:55:37.249825  2454 net.cpp:150] Setting up conv2_1
I0105 13:55:37.249846  2454 net.cpp:157] Top shape: 256 256 15 15 (14745600)
I0105 13:55:37.249851  2454 net.cpp:165] Memory required for data: 507446272
I0105 13:55:37.249856  2454 layer_factory.hpp:76] Creating layer relu2_1
I0105 13:55:37.249862  2454 net.cpp:106] Creating Layer relu2_1
I0105 13:55:37.249866  2454 net.cpp:454] relu2_1 <- conv2_1
I0105 13:55:37.249872  2454 net.cpp:397] relu2_1 -> conv2_1 (in-place)
I0105 13:55:37.249969  2454 net.cpp:150] Setting up relu2_1
I0105 13:55:37.249980  2454 net.cpp:157] Top shape: 256 256 15 15 (14745600)
I0105 13:55:37.249985  2454 net.cpp:165] Memory required for data: 566428672
I0105 13:55:37.249994  2454 layer_factory.hpp:76] Creating layer pool2
I0105 13:55:37.250011  2454 net.cpp:106] Creating Layer pool2
I0105 13:55:37.250017  2454 net.cpp:454] pool2 <- conv2_1
I0105 13:55:37.250027  2454 net.cpp:411] pool2 -> pool2
I0105 13:55:37.250262  2454 net.cpp:150] Setting up pool2
I0105 13:55:37.250283  2454 net.cpp:157] Top shape: 256 256 7 7 (3211264)
I0105 13:55:37.250286  2454 net.cpp:165] Memory required for data: 579273728
I0105 13:55:37.250289  2454 layer_factory.hpp:76] Creating layer conv2_BN
I0105 13:55:37.250296  2454 net.cpp:106] Creating Layer conv2_BN
I0105 13:55:37.250299  2454 net.cpp:454] conv2_BN <- pool2
I0105 13:55:37.250304  2454 net.cpp:411] conv2_BN -> conv2_BN
I0105 13:55:37.250442  2454 net.cpp:150] Setting up conv2_BN
I0105 13:55:37.250448  2454 net.cpp:157] Top shape: 256 256 7 7 (3211264)
I0105 13:55:37.250463  2454 net.cpp:165] Memory required for data: 592118784
I0105 13:55:37.250471  2454 layer_factory.hpp:76] Creating layer conv3
I0105 13:55:37.250490  2454 net.cpp:106] Creating Layer conv3
I0105 13:55:37.250494  2454 net.cpp:454] conv3 <- conv2_BN
I0105 13:55:37.250499  2454 net.cpp:411] conv3 -> conv3
I0105 13:55:37.257539  2454 net.cpp:150] Setting up conv3
I0105 13:55:37.257551  2454 net.cpp:157] Top shape: 256 384 7 7 (4816896)
I0105 13:55:37.257555  2454 net.cpp:165] Memory required for data: 611386368
I0105 13:55:37.257560  2454 layer_factory.hpp:76] Creating layer relu3
I0105 13:55:37.257567  2454 net.cpp:106] Creating Layer relu3
I0105 13:55:37.257570  2454 net.cpp:454] relu3 <- conv3
I0105 13:55:37.257587  2454 net.cpp:397] relu3 -> conv3 (in-place)
I0105 13:55:37.257666  2454 net.cpp:150] Setting up relu3
I0105 13:55:37.257673  2454 net.cpp:157] Top shape: 256 384 7 7 (4816896)
I0105 13:55:37.257675  2454 net.cpp:165] Memory required for data: 630653952
I0105 13:55:37.257679  2454 layer_factory.hpp:76] Creating layer conv3_BN
I0105 13:55:37.257705  2454 net.cpp:106] Creating Layer conv3_BN
I0105 13:55:37.257709  2454 net.cpp:454] conv3_BN <- conv3
I0105 13:55:37.257714  2454 net.cpp:411] conv3_BN -> conv3_BN
I0105 13:55:37.257851  2454 net.cpp:150] Setting up conv3_BN
I0105 13:55:37.257858  2454 net.cpp:157] Top shape: 256 384 7 7 (4816896)
I0105 13:55:37.257860  2454 net.cpp:165] Memory required for data: 649921536
I0105 13:55:37.257866  2454 layer_factory.hpp:76] Creating layer conv3_1
I0105 13:55:37.257874  2454 net.cpp:106] Creating Layer conv3_1
I0105 13:55:37.257877  2454 net.cpp:454] conv3_1 <- conv3_BN
I0105 13:55:37.257894  2454 net.cpp:411] conv3_1 -> conv3_1
I0105 13:55:37.268198  2454 net.cpp:150] Setting up conv3_1
I0105 13:55:37.268227  2454 net.cpp:157] Top shape: 256 384 7 7 (4816896)
I0105 13:55:37.268231  2454 net.cpp:165] Memory required for data: 669189120
I0105 13:55:37.268239  2454 layer_factory.hpp:76] Creating layer relu3_1
I0105 13:55:37.268263  2454 net.cpp:106] Creating Layer relu3_1
I0105 13:55:37.268268  2454 net.cpp:454] relu3_1 <- conv3_1
I0105 13:55:37.268275  2454 net.cpp:397] relu3_1 -> conv3_1 (in-place)
I0105 13:55:37.268388  2454 net.cpp:150] Setting up relu3_1
I0105 13:55:37.268395  2454 net.cpp:157] Top shape: 256 384 7 7 (4816896)
I0105 13:55:37.268409  2454 net.cpp:165] Memory required for data: 688456704
I0105 13:55:37.268414  2454 layer_factory.hpp:76] Creating layer conv3_1_BN
I0105 13:55:37.268429  2454 net.cpp:106] Creating Layer conv3_1_BN
I0105 13:55:37.268432  2454 net.cpp:454] conv3_1_BN <- conv3_1
I0105 13:55:37.268448  2454 net.cpp:411] conv3_1_BN -> conv3_1_BN
I0105 13:55:37.268604  2454 net.cpp:150] Setting up conv3_1_BN
I0105 13:55:37.268609  2454 net.cpp:157] Top shape: 256 384 7 7 (4816896)
I0105 13:55:37.268622  2454 net.cpp:165] Memory required for data: 707724288
I0105 13:55:37.268628  2454 layer_factory.hpp:76] Creating layer conv4
I0105 13:55:37.268636  2454 net.cpp:106] Creating Layer conv4
I0105 13:55:37.268641  2454 net.cpp:454] conv4 <- conv3_1_BN
I0105 13:55:37.268646  2454 net.cpp:411] conv4 -> conv4
I0105 13:55:37.278558  2454 net.cpp:150] Setting up conv4
I0105 13:55:37.278570  2454 net.cpp:157] Top shape: 256 384 7 7 (4816896)
I0105 13:55:37.278573  2454 net.cpp:165] Memory required for data: 726991872
I0105 13:55:37.278579  2454 layer_factory.hpp:76] Creating layer relu4
I0105 13:55:37.278586  2454 net.cpp:106] Creating Layer relu4
I0105 13:55:37.278589  2454 net.cpp:454] relu4 <- conv4
I0105 13:55:37.278606  2454 net.cpp:397] relu4 -> conv4 (in-place)
I0105 13:55:37.278688  2454 net.cpp:150] Setting up relu4
I0105 13:55:37.278695  2454 net.cpp:157] Top shape: 256 384 7 7 (4816896)
I0105 13:55:37.278698  2454 net.cpp:165] Memory required for data: 746259456
I0105 13:55:37.278707  2454 layer_factory.hpp:76] Creating layer conv4_BN
I0105 13:55:37.278714  2454 net.cpp:106] Creating Layer conv4_BN
I0105 13:55:37.278728  2454 net.cpp:454] conv4_BN <- conv4
I0105 13:55:37.278733  2454 net.cpp:411] conv4_BN -> conv4_BN
I0105 13:55:37.278872  2454 net.cpp:150] Setting up conv4_BN
I0105 13:55:37.278878  2454 net.cpp:157] Top shape: 256 384 7 7 (4816896)
I0105 13:55:37.278882  2454 net.cpp:165] Memory required for data: 765527040
I0105 13:55:37.278887  2454 layer_factory.hpp:76] Creating layer conv4_1
I0105 13:55:37.278893  2454 net.cpp:106] Creating Layer conv4_1
I0105 13:55:37.278897  2454 net.cpp:454] conv4_1 <- conv4_BN
I0105 13:55:37.278911  2454 net.cpp:411] conv4_1 -> conv4_1
I0105 13:55:37.288827  2454 net.cpp:150] Setting up conv4_1
I0105 13:55:37.288844  2454 net.cpp:157] Top shape: 256 384 7 7 (4816896)
I0105 13:55:37.288847  2454 net.cpp:165] Memory required for data: 784794624
I0105 13:55:37.288854  2454 layer_factory.hpp:76] Creating layer relu4_1
I0105 13:55:37.288861  2454 net.cpp:106] Creating Layer relu4_1
I0105 13:55:37.288866  2454 net.cpp:454] relu4_1 <- conv4_1
I0105 13:55:37.288882  2454 net.cpp:397] relu4_1 -> conv4_1 (in-place)
I0105 13:55:37.288965  2454 net.cpp:150] Setting up relu4_1
I0105 13:55:37.288971  2454 net.cpp:157] Top shape: 256 384 7 7 (4816896)
I0105 13:55:37.288985  2454 net.cpp:165] Memory required for data: 804062208
I0105 13:55:37.288990  2454 layer_factory.hpp:76] Creating layer conv4_1_BN
I0105 13:55:37.289006  2454 net.cpp:106] Creating Layer conv4_1_BN
I0105 13:55:37.289011  2454 net.cpp:454] conv4_1_BN <- conv4_1
I0105 13:55:37.289014  2454 net.cpp:411] conv4_1_BN -> conv4_1_BN
I0105 13:55:37.289152  2454 net.cpp:150] Setting up conv4_1_BN
I0105 13:55:37.289158  2454 net.cpp:157] Top shape: 256 384 7 7 (4816896)
I0105 13:55:37.289161  2454 net.cpp:165] Memory required for data: 823329792
I0105 13:55:37.289168  2454 layer_factory.hpp:76] Creating layer conv5
I0105 13:55:37.289175  2454 net.cpp:106] Creating Layer conv5
I0105 13:55:37.289178  2454 net.cpp:454] conv5 <- conv4_1_BN
I0105 13:55:37.289193  2454 net.cpp:411] conv5 -> conv5
I0105 13:55:37.296079  2454 net.cpp:150] Setting up conv5
I0105 13:55:37.296090  2454 net.cpp:157] Top shape: 256 256 7 7 (3211264)
I0105 13:55:37.296094  2454 net.cpp:165] Memory required for data: 836174848
I0105 13:55:37.296099  2454 layer_factory.hpp:76] Creating layer relu5
I0105 13:55:37.296108  2454 net.cpp:106] Creating Layer relu5
I0105 13:55:37.296110  2454 net.cpp:454] relu5 <- conv5
I0105 13:55:37.296115  2454 net.cpp:397] relu5 -> conv5 (in-place)
I0105 13:55:37.296507  2454 net.cpp:150] Setting up relu5
I0105 13:55:37.296520  2454 net.cpp:157] Top shape: 256 256 7 7 (3211264)
I0105 13:55:37.296526  2454 net.cpp:165] Memory required for data: 849019904
I0105 13:55:37.296535  2454 layer_factory.hpp:76] Creating layer conv5_BN
I0105 13:55:37.296545  2454 net.cpp:106] Creating Layer conv5_BN
I0105 13:55:37.296550  2454 net.cpp:454] conv5_BN <- conv5
I0105 13:55:37.296557  2454 net.cpp:411] conv5_BN -> conv5_BN
I0105 13:55:37.296705  2454 net.cpp:150] Setting up conv5_BN
I0105 13:55:37.296711  2454 net.cpp:157] Top shape: 256 256 7 7 (3211264)
I0105 13:55:37.296715  2454 net.cpp:165] Memory required for data: 861864960
I0105 13:55:37.296721  2454 layer_factory.hpp:76] Creating layer conv5_1
I0105 13:55:37.296730  2454 net.cpp:106] Creating Layer conv5_1
I0105 13:55:37.296733  2454 net.cpp:454] conv5_1 <- conv5_BN
I0105 13:55:37.296738  2454 net.cpp:411] conv5_1 -> conv5_1
I0105 13:55:37.302017  2454 net.cpp:150] Setting up conv5_1
I0105 13:55:37.302032  2454 net.cpp:157] Top shape: 256 256 7 7 (3211264)
I0105 13:55:37.302036  2454 net.cpp:165] Memory required for data: 874710016
I0105 13:55:37.302042  2454 layer_factory.hpp:76] Creating layer relu5_1
I0105 13:55:37.302048  2454 net.cpp:106] Creating Layer relu5_1
I0105 13:55:37.302062  2454 net.cpp:454] relu5_1 <- conv5_1
I0105 13:55:37.302067  2454 net.cpp:397] relu5_1 -> conv5_1 (in-place)
I0105 13:55:37.302147  2454 net.cpp:150] Setting up relu5_1
I0105 13:55:37.302165  2454 net.cpp:157] Top shape: 256 256 7 7 (3211264)
I0105 13:55:37.302167  2454 net.cpp:165] Memory required for data: 887555072
I0105 13:55:37.302172  2454 layer_factory.hpp:76] Creating layer conv5_1_BN
I0105 13:55:37.302178  2454 net.cpp:106] Creating Layer conv5_1_BN
I0105 13:55:37.302182  2454 net.cpp:454] conv5_1_BN <- conv5_1
I0105 13:55:37.302186  2454 net.cpp:411] conv5_1_BN -> conv5_1_BN
I0105 13:55:37.302338  2454 net.cpp:150] Setting up conv5_1_BN
I0105 13:55:37.302345  2454 net.cpp:157] Top shape: 256 256 7 7 (3211264)
I0105 13:55:37.302347  2454 net.cpp:165] Memory required for data: 900400128
I0105 13:55:37.302353  2454 layer_factory.hpp:76] Creating layer pool5
I0105 13:55:37.302359  2454 net.cpp:106] Creating Layer pool5
I0105 13:55:37.302362  2454 net.cpp:454] pool5 <- conv5_1_BN
I0105 13:55:37.302366  2454 net.cpp:411] pool5 -> pool5
I0105 13:55:37.302610  2454 net.cpp:150] Setting up pool5
I0105 13:55:37.302620  2454 net.cpp:157] Top shape: 256 256 3 3 (589824)
I0105 13:55:37.302623  2454 net.cpp:165] Memory required for data: 902759424
I0105 13:55:37.302626  2454 layer_factory.hpp:76] Creating layer fc6
I0105 13:55:37.302635  2454 net.cpp:106] Creating Layer fc6
I0105 13:55:37.302639  2454 net.cpp:454] fc6 <- pool5
I0105 13:55:37.302655  2454 net.cpp:411] fc6 -> fc6
I0105 13:55:37.401126  2454 net.cpp:150] Setting up fc6
I0105 13:55:37.401165  2454 net.cpp:157] Top shape: 256 2048 (524288)
I0105 13:55:37.401168  2454 net.cpp:165] Memory required for data: 904856576
I0105 13:55:37.401176  2454 layer_factory.hpp:76] Creating layer relu6
I0105 13:55:37.401201  2454 net.cpp:106] Creating Layer relu6
I0105 13:55:37.401204  2454 net.cpp:454] relu6 <- fc6
I0105 13:55:37.401211  2454 net.cpp:397] relu6 -> fc6 (in-place)
I0105 13:55:37.401281  2454 net.cpp:150] Setting up relu6
I0105 13:55:37.401288  2454 net.cpp:157] Top shape: 256 2048 (524288)
I0105 13:55:37.401290  2454 net.cpp:165] Memory required for data: 906953728
I0105 13:55:37.401294  2454 layer_factory.hpp:76] Creating layer fc6_BN
I0105 13:55:37.401299  2454 net.cpp:106] Creating Layer fc6_BN
I0105 13:55:37.401303  2454 net.cpp:454] fc6_BN <- fc6
I0105 13:55:37.401306  2454 net.cpp:411] fc6_BN -> fc6_BN
I0105 13:55:37.401460  2454 net.cpp:150] Setting up fc6_BN
I0105 13:55:37.401469  2454 net.cpp:157] Top shape: 256 2048 (524288)
I0105 13:55:37.401474  2454 net.cpp:165] Memory required for data: 909050880
I0105 13:55:37.401487  2454 layer_factory.hpp:76] Creating layer drop6
I0105 13:55:37.401509  2454 net.cpp:106] Creating Layer drop6
I0105 13:55:37.401515  2454 net.cpp:454] drop6 <- fc6_BN
I0105 13:55:37.401538  2454 net.cpp:411] drop6 -> drop6
I0105 13:55:37.401604  2454 net.cpp:150] Setting up drop6
I0105 13:55:37.401626  2454 net.cpp:157] Top shape: 256 2048 (524288)
I0105 13:55:37.401631  2454 net.cpp:165] Memory required for data: 911148032
I0105 13:55:37.401638  2454 layer_factory.hpp:76] Creating layer fc7
I0105 13:55:37.401659  2454 net.cpp:106] Creating Layer fc7
I0105 13:55:37.401665  2454 net.cpp:454] fc7 <- drop6
I0105 13:55:37.401682  2454 net.cpp:411] fc7 -> fc7
I0105 13:55:37.489204  2454 net.cpp:150] Setting up fc7
I0105 13:55:37.489226  2454 net.cpp:157] Top shape: 256 2048 (524288)
I0105 13:55:37.489229  2454 net.cpp:165] Memory required for data: 913245184
I0105 13:55:37.489238  2454 layer_factory.hpp:76] Creating layer relu7
I0105 13:55:37.489246  2454 net.cpp:106] Creating Layer relu7
I0105 13:55:37.489250  2454 net.cpp:454] relu7 <- fc7
I0105 13:55:37.489267  2454 net.cpp:397] relu7 -> fc7 (in-place)
I0105 13:55:37.489336  2454 net.cpp:150] Setting up relu7
I0105 13:55:37.489342  2454 net.cpp:157] Top shape: 256 2048 (524288)
I0105 13:55:37.489346  2454 net.cpp:165] Memory required for data: 915342336
I0105 13:55:37.489348  2454 layer_factory.hpp:76] Creating layer fc7_BN
I0105 13:55:37.489353  2454 net.cpp:106] Creating Layer fc7_BN
I0105 13:55:37.489356  2454 net.cpp:454] fc7_BN <- fc7
I0105 13:55:37.489362  2454 net.cpp:411] fc7_BN -> fc7_BN
I0105 13:55:37.489516  2454 net.cpp:150] Setting up fc7_BN
I0105 13:55:37.489524  2454 net.cpp:157] Top shape: 256 2048 (524288)
I0105 13:55:37.489529  2454 net.cpp:165] Memory required for data: 917439488
I0105 13:55:37.489567  2454 layer_factory.hpp:76] Creating layer drop7
I0105 13:55:37.489580  2454 net.cpp:106] Creating Layer drop7
I0105 13:55:37.489598  2454 net.cpp:454] drop7 <- fc7_BN
I0105 13:55:37.489604  2454 net.cpp:411] drop7 -> drop7
I0105 13:55:37.489648  2454 net.cpp:150] Setting up drop7
I0105 13:55:37.489668  2454 net.cpp:157] Top shape: 256 2048 (524288)
I0105 13:55:37.489683  2454 net.cpp:165] Memory required for data: 919536640
I0105 13:55:37.489688  2454 layer_factory.hpp:76] Creating layer fc8
I0105 13:55:37.489713  2454 net.cpp:106] Creating Layer fc8
I0105 13:55:37.489725  2454 net.cpp:454] fc8 <- drop7
I0105 13:55:37.489737  2454 net.cpp:411] fc8 -> fc8
I0105 13:55:37.532608  2454 net.cpp:150] Setting up fc8
I0105 13:55:37.532630  2454 net.cpp:157] Top shape: 256 1000 (256000)
I0105 13:55:37.532634  2454 net.cpp:165] Memory required for data: 920560640
I0105 13:55:37.532642  2454 layer_factory.hpp:76] Creating layer loss
I0105 13:55:37.532652  2454 net.cpp:106] Creating Layer loss
I0105 13:55:37.532667  2454 net.cpp:454] loss <- fc8
I0105 13:55:37.532672  2454 net.cpp:454] loss <- label
I0105 13:55:37.532678  2454 net.cpp:411] loss -> loss
I0105 13:55:37.665765  2454 layer_factory.hpp:76] Creating layer loss
…
I0105 13:55:37.668273  2454 net.cpp:322] The NetState phase (1) differed from the phase (0) specified by a rule in layer data
I0105 13:55:37.668614  2454 net.cpp:49] Initializing net from parameters: 
name: "CaffeNet"
state {
  phase: TEST
}
layer {
  name: "data"
  type: "Data"
  top: "data"
  top: "label"
  include {
    phase: TEST
  }
  transform_param {
    mirror: false
    crop_size: 128
    mean_value: 104
    mean_value: 117
    mean_value: 124
  }
  data_param {
    source: "/media/dereyly/data_one/data/CAFFE_DATA/ilsvrc12_val_lmdb_144"
    batch_size: 100
    backend: LMDB
  }
}
layer {
  name: "conv1"
  type: "Convolution"
  bottom: "data"
  top: "conv1"
  param {
    lr_mult: 1
    decay_mult: 1
  }
  param {
    lr_mult: 2
    decay_mult: 0
  }
  convolution_param {
    num_output: 96
    kernel_size: 11
    stride: 4
    weight_filler {
      type: "msra"
      std: 0.01
    }
    bias_filler {
      type: "constant"
    }
  }
}
layer {
  name: "relu1"
  type: "PReLU"
  bottom: "conv1"
  top: "conv1"
  prelu_param {
    filler {
      type: "constant"
      value: 0.3
    }
    channel_shared: false
  }
}
layer {
  name: "pool1"
  type: "Pooling"
  bottom: "conv1"
  top: "pool1"
  pooling_param {
    pool: MAX
    kernel_size: 3
    stride: 2
  }
}
layer {
  name: "conv1_BN"
  type: "BatchNorm"
  bottom: "pool1"
  top: "conv1_BN"
}
layer {
  name: "conv2"
  type: "Convolution"
  bottom: "conv1_BN"
  top: "conv2"
  param {
    lr_mult: 1
    decay_mult: 1
  }
  param {
    lr_mult: 2
    decay_mult: 0
  }
  convolution_param {
    num_output: 256
    weight_filler {
      type: "msra"
      std: 0.01
    }
    bias_filler {
      type: "constant"
    }
    pad_h: 0
    pad_w: 2
    kernel_h: 1
    kernel_w: 5
  }
}
layer {
  name: "relu2"
  type: "PReLU"
  bottom: "conv2"
  top: "conv2"
  prelu_param {
    filler {
      type: "constant"
      value: 0.3
    }
    channel_shared: false
  }
}
layer {
  name: "conv2_1_BN"
  type: "BatchNorm"
  bottom: "conv2"
  top: "conv2_1_BN"
}
layer {
  name: "conv2_1"
  type: "Convolution"
  bottom: "conv2_1_BN"
  top: "conv2_1"
  param {
    lr_mult: 1
    decay_mult: 1
  }
  param {
    lr_mult: 2
    decay_mult: 0
  }
  convolution_param {
    num_output: 256
    weight_filler {
      type: "msra"
      std: 0.01
    }
    bias_filler {
      type: "constant"
    }
    pad_h: 2
    pad_w: 0
    kernel_h: 5
    kernel_w: 1
  }
}
layer {
  name: "relu2_1"
  type: "PReLU"
  bottom: "conv2_1"
  top: "conv2_1"
  prelu_param {
    filler {
      type: "constant"
      value: 0.3
    }
    channel_shared: false
  }
}
layer {
  name: "pool2"
  type: "Pooling"
  bottom: "conv2_1"
  top: "pool2"
  pooling_param {
    pool: MAX
    kernel_size: 3
    stride: 2
  }
}
layer {
  name: "conv2_BN"
  type: "BatchNorm"
  bottom: "pool2"
  top: "conv2_BN"
}
layer {
  name: "conv3"
  type: "Convolution"
  bottom: "conv2_BN"
  top: "conv3"
  param {
    lr_mult: 1
    decay_mult: 1
  }
  param {
    lr_mult: 2
    decay_mult: 0
  }
  convolution_param {
    num_output: 384
    weight_filler {
      type: "msra"
      std: 0.01
    }
    bias_filler {
      type: "constant"
    }
    pad_h: 0
    pad_w: 1
    kernel_h: 1
    kernel_w: 3
  }
}
layer {
  name: "relu3"
  type: "PReLU"
  bottom: "conv3"
  top: "conv3"
  prelu_param {
    filler {
      type: "constant"
      value: 0.3
    }
    channel_shared: false
  }
}
layer {
  name: "conv3_BN"
  type: "BatchNorm"
  bottom: "conv3"
  top: "conv3_BN"
}
layer {
  name: "conv3_1"
  type: "Convolution"
  bottom: "conv3_BN"
  top: "conv3_1"
  param {
    lr_mult: 1
    decay_mult: 1
  }
  param {
    lr_mult: 2
    decay_mult: 0
  }
  convolution_param {
    num_output: 384
    weight_filler {
      type: "msra"
      std: 0.01
    }
    bias_filler {
      type: "constant"
    }
    pad_h: 1
    pad_w: 0
    kernel_h: 3
    kernel_w: 1
  }
}
layer {
  name: "relu3_1"
  type: "PReLU"
  bottom: "conv3_1"
  top: "conv3_1"
  prelu_param {
    filler {
      type: "constant"
      value: 0.3
    }
    channel_shared: false
  }
}
layer {
  name: "conv3_1_BN"
  type: "BatchNorm"
  bottom: "conv3_1"
  top: "conv3_1_BN"
}
layer {
  name: "conv4"
  type: "Convolution"
  bottom: "conv3_1_BN"
  top: "conv4"
  param {
    lr_mult: 1
    decay_mult: 1
  }
  param {
    lr_mult: 2
    decay_mult: 0
  }
  convolution_param {
    num_output: 384
    weight_filler {
      type: "msra"
      std: 0.01
    }
    bias_filler {
      type: "constant"
    }
    pad_h: 0
    pad_w: 1
    kernel_h: 1
    kernel_w: 3
  }
}
layer {
  name: "relu4"
  type: "PReLU"
  bottom: "conv4"
  top: "conv4"
  prelu_param {
    filler {
      type: "constant"
      value: 0.3
    }
    channel_shared: false
  }
}
layer {
  name: "conv4_BN"
  type: "BatchNorm"
  bottom: "conv4"
  top: "conv4_BN"
}
layer {
  name: "conv4_1"
  type: "Convolution"
  bottom: "conv4_BN"
  top: "conv4_1"
  param {
    lr_mult: 1
    decay_mult: 1
  }
  param {
    lr_mult: 2
    decay_mult: 0
  }
  convolution_param {
    num_output: 384
    weight_filler {
      type: "msra"
      std: 0.01
    }
    bias_filler {
      type: "constant"
    }
    pad_h: 1
    pad_w: 0
    kernel_h: 3
    kernel_w: 1
  }
}
layer {
  name: "relu4_1"
  type: "PReLU"
  bottom: "conv4_1"
  top: "conv4_1"
  prelu_param {
    filler {
      type: "constant"
      value: 0.3
    }
    channel_shared: false
  }
}
layer {
  name: "conv4_1_BN"
  type: "BatchNorm"
  bottom: "conv4_1"
  top: "conv4_1_BN"
}
layer {
  name: "conv5"
  type: "Convolution"
  bottom: "conv4_1_BN"
  top: "conv5"
  param {
    lr_mult: 1
    decay_mult: 1
  }
  param {
    lr_mult: 2
    decay_mult: 0
  }
  convolution_param {
    num_output: 256
    weight_filler {
      type: "msra"
      std: 0.01
    }
    bias_filler {
      type: "constant"
    }
    pad_h: 0
    pad_w: 1
    kernel_h: 1
    kernel_w: 3
  }
}
layer {
  name: "relu5"
  type: "PReLU"
  bottom: "conv5"
  top: "conv5"
  prelu_param {
    filler {
      type: "constant"
      value: 0.3
    }
    channel_shared: false
  }
}
layer {
  name: "conv5_BN"
  type: "BatchNorm"
  bottom: "conv5"
  top: "conv5_BN"
}
layer {
  name: "conv5_1"
  type: "Convolution"
  bottom: "conv5_BN"
  top: "conv5_1"
  param {
    lr_mult: 1
    decay_mult: 1
  }
  param {
    lr_mult: 2
    decay_mult: 0
  }
  convolution_param {
    num_output: 256
    weight_filler {
      type: "msra"
      std: 0.01
    }
    bias_filler {
      type: "constant"
    }
    pad_h: 1
    pad_w: 0
    kernel_h: 3
    kernel_w: 1
  }
}
layer {
  name: "relu5_1"
  type: "PReLU"
  bottom: "conv5_1"
  top: "conv5_1"
  prelu_param {
    filler {
      type: "constant"
      value: 0.3
    }
    channel_shared: false
  }
}
layer {
  name: "conv5_1_BN"
  type: "BatchNorm"
  bottom: "conv5_1"
  top: "conv5_1_BN"
}
layer {
  name: "pool5"
  type: "Pooling"
  bottom: "conv5_1_BN"
  top: "pool5"
  pooling_param {
    pool: MAX
    kernel_size: 3
    stride: 2
  }
}
layer {
  name: "fc6"
  type: "InnerProduct"
  bottom: "pool5"
  top: "fc6"
  param {
    lr_mult: 1
    decay_mult: 1
  }
  param {
    lr_mult: 2
    decay_mult: 0
  }
  inner_product_param {
    num_output: 2048
    weight_filler {
      type: "gaussian"
      std: 0.005
    }
    bias_filler {
      type: "constant"
    }
  }
}
layer {
  name: "relu6"
  type: "PReLU"
  bottom: "fc6"
  top: "fc6"
  prelu_param {
    filler {
      type: "constant"
      value: 0.3
    }
    channel_shared: false
  }
}
layer {
  name: "fc6_BN"
  type: "BatchNorm"
  bottom: "fc6"
  top: "fc6_BN"
}
layer {
  name: "drop6"
  type: "Dropout"
  bottom: "fc6_BN"
  top: "drop6"
  dropout_param {
    dropout_ratio: 0.2
  }
}
layer {
  name: "fc7"
  type: "InnerProduct"
  bottom: "drop6"
  top: "fc7"
  param {
    lr_mult: 1
    decay_mult: 1
  }
  param {
    lr_mult: 2
    decay_mult: 0
  }
  inner_product_param {
    num_output: 2048
    weight_filler {
      type: "gaussian"
      std: 0.005
    }
    bias_filler {
      type: "constant"
    }
  }
}
layer {
  name: "relu7"
  type: "PReLU"
  bottom: "fc7"
  top: "fc7"
  prelu_param {
    filler {
      type: "constant"
      value: 0.3
    }
    channel_shared: false
  }
}
layer {
  name: "fc7_BN"
  type: "BatchNorm"
  bottom: "fc7"
  top: "fc7_BN"
}
layer {
  name: "drop7"
  type: "Dropout"
  bottom: "fc7_BN"
  top: "drop7"
  dropout_param {
    dropout_ratio: 0.2
  }
}
layer {
  name: "fc8"
  type: "InnerProduct"
  bottom: "drop7"
  top: "fc8"
  param {
    lr_mult: 1
    decay_mult: 1
  }
  param {
    lr_mult: 2
    decay_mult: 0
  }
  inner_product_param {
    num_output: 1000
    weight_filler {
      type: "gaussian"
      std: 0.01
    }
    bias_filler {
      type: "constant"
    }
  }
}
layer {
  name: "accuracy"
  type: "Accuracy"
  bottom: "fc8"
  bottom: "label"
  top: "accuracy"
  include {
    phase: TEST
  }
}
layer {
  name: "loss"
  type: "SoftmaxWithLoss"
  bottom: "fc8"
  bottom: "label"
  top: "loss"
}
I0105 13:55:37.668833  2454 layer_factory.hpp:76] Creating layer data
I0105 13:55:37.668941  2454 net.cpp:106] Creating Layer data
I0105 13:55:37.668956  2454 net.cpp:411] data -> data
I0105 13:55:37.668965  2454 net.cpp:411] data -> label
I0105 13:55:37.807956  2461 db_lmdb.cpp:38] Opened lmdb /media/dereyly/data_one/data/CAFFE_DATA/ilsvrc12_val_lmdb_144
I0105 13:55:37.893335  2454 data_layer.cpp:41] output data size: 100,3,128,128
I0105 13:55:37.916550  2454 net.cpp:150] Setting up data
I0105 13:55:37.916571  2454 net.cpp:157] Top shape: 100 3 128 128 (4915200)
I0105 13:55:37.916576  2454 net.cpp:157] Top shape: 100 (100)
I0105 13:55:37.916579  2454 net.cpp:165] Memory required for data: 19661200
I0105 13:55:37.916584  2454 layer_factory.hpp:76] Creating layer label_data_1_split
I0105 13:55:37.916609  2454 net.cpp:106] Creating Layer label_data_1_split
I0105 13:55:37.916612  2454 net.cpp:454] label_data_1_split <- label
I0105 13:55:37.916618  2454 net.cpp:411] label_data_1_split -> label_data_1_split_0
I0105 13:55:37.916627  2454 net.cpp:411] label_data_1_split -> label_data_1_split_1
I0105 13:55:37.916681  2454 net.cpp:150] Setting up label_data_1_split
I0105 13:55:37.916687  2454 net.cpp:157] Top shape: 100 (100)
I0105 13:55:37.916689  2454 net.cpp:157] Top shape: 100 (100)
I0105 13:55:37.916692  2454 net.cpp:165] Memory required for data: 19662000
I0105 13:55:37.916695  2454 layer_factory.hpp:76] Creating layer conv1
I0105 13:55:37.916707  2454 net.cpp:106] Creating Layer conv1
I0105 13:55:37.916720  2454 net.cpp:454] conv1 <- data
I0105 13:55:37.916725  2454 net.cpp:411] conv1 -> conv1
I0105 13:55:37.920156  2454 net.cpp:150] Setting up conv1
I0105 13:55:37.920168  2454 net.cpp:157] Top shape: 100 96 30 30 (8640000)
I0105 13:55:37.920172  2454 net.cpp:165] Memory required for data: 54222000
I0105 13:55:37.920192  2454 layer_factory.hpp:76] Creating layer relu1
I0105 13:55:37.920202  2454 net.cpp:106] Creating Layer relu1
I0105 13:55:37.920207  2454 net.cpp:454] relu1 <- conv1
I0105 13:55:37.920213  2454 net.cpp:397] relu1 -> conv1 (in-place)
I0105 13:55:37.920591  2454 net.cpp:150] Setting up relu1
I0105 13:55:37.920601  2454 net.cpp:157] Top shape: 100 96 30 30 (8640000)
I0105 13:55:37.920604  2454 net.cpp:165] Memory required for data: 88782000
I0105 13:55:37.920621  2454 layer_factory.hpp:76] Creating layer pool1
I0105 13:55:37.920629  2454 net.cpp:106] Creating Layer pool1
I0105 13:55:37.920634  2454 net.cpp:454] pool1 <- conv1
I0105 13:55:37.920639  2454 net.cpp:411] pool1 -> pool1
I0105 13:55:37.920799  2454 net.cpp:150] Setting up pool1
I0105 13:55:37.920806  2454 net.cpp:157] Top shape: 100 96 15 15 (2160000)
I0105 13:55:37.920809  2454 net.cpp:165] Memory required for data: 97422000
I0105 13:55:37.920822  2454 layer_factory.hpp:76] Creating layer conv1_BN
I0105 13:55:37.920830  2454 net.cpp:106] Creating Layer conv1_BN
I0105 13:55:37.920833  2454 net.cpp:454] conv1_BN <- pool1
I0105 13:55:37.920838  2454 net.cpp:411] conv1_BN -> conv1_BN
I0105 13:55:37.920989  2454 net.cpp:150] Setting up conv1_BN
I0105 13:55:37.920996  2454 net.cpp:157] Top shape: 100 96 15 15 (2160000)
I0105 13:55:37.921000  2454 net.cpp:165] Memory required for data: 106062000
I0105 13:55:37.921007  2454 layer_factory.hpp:76] Creating layer conv2
I0105 13:55:37.921015  2454 net.cpp:106] Creating Layer conv2
I0105 13:55:37.921018  2454 net.cpp:454] conv2 <- conv1_BN
I0105 13:55:37.921025  2454 net.cpp:411] conv2 -> conv2
I0105 13:55:37.924180  2454 net.cpp:150] Setting up conv2
I0105 13:55:37.924190  2454 net.cpp:157] Top shape: 100 256 15 15 (5760000)
I0105 13:55:37.924193  2454 net.cpp:165] Memory required for data: 129102000
I0105 13:55:37.924209  2454 layer_factory.hpp:76] Creating layer relu2
I0105 13:55:37.924227  2454 net.cpp:106] Creating Layer relu2
I0105 13:55:37.924232  2454 net.cpp:454] relu2 <- conv2
I0105 13:55:37.924238  2454 net.cpp:397] relu2 -> conv2 (in-place)
I0105 13:55:37.924581  2454 net.cpp:150] Setting up relu2
I0105 13:55:37.924589  2454 net.cpp:157] Top shape: 100 256 15 15 (5760000)
I0105 13:55:37.924592  2454 net.cpp:165] Memory required for data: 152142000
I0105 13:55:37.924609  2454 layer_factory.hpp:76] Creating layer conv2_1_BN
I0105 13:55:37.924617  2454 net.cpp:106] Creating Layer conv2_1_BN
I0105 13:55:37.924620  2454 net.cpp:454] conv2_1_BN <- conv2
I0105 13:55:37.924625  2454 net.cpp:411] conv2_1_BN -> conv2_1_BN
I0105 13:55:37.924774  2454 net.cpp:150] Setting up conv2_1_BN
I0105 13:55:37.924780  2454 net.cpp:157] Top shape: 100 256 15 15 (5760000)
I0105 13:55:37.924783  2454 net.cpp:165] Memory required for data: 175182000
I0105 13:55:37.924799  2454 layer_factory.hpp:76] Creating layer conv2_1
I0105 13:55:37.924808  2454 net.cpp:106] Creating Layer conv2_1
I0105 13:55:37.924811  2454 net.cpp:454] conv2_1 <- conv2_1_BN
I0105 13:55:37.924818  2454 net.cpp:411] conv2_1 -> conv2_1
I0105 13:55:37.933634  2454 net.cpp:150] Setting up conv2_1
I0105 13:55:37.933648  2454 net.cpp:157] Top shape: 100 256 15 15 (5760000)
I0105 13:55:37.933653  2454 net.cpp:165] Memory required for data: 198222000
I0105 13:55:37.933660  2454 layer_factory.hpp:76] Creating layer relu2_1
I0105 13:55:37.933668  2454 net.cpp:106] Creating Layer relu2_1
I0105 13:55:37.933673  2454 net.cpp:454] relu2_1 <- conv2_1
I0105 13:55:37.933678  2454 net.cpp:397] relu2_1 -> conv2_1 (in-place)
I0105 13:55:37.933809  2454 net.cpp:150] Setting up relu2_1
I0105 13:55:37.933822  2454 net.cpp:157] Top shape: 100 256 15 15 (5760000)
I0105 13:55:37.933830  2454 net.cpp:165] Memory required for data: 221262000
I0105 13:55:37.933837  2454 layer_factory.hpp:76] Creating layer pool2
I0105 13:55:37.933848  2454 net.cpp:106] Creating Layer pool2
I0105 13:55:37.933858  2454 net.cpp:454] pool2 <- conv2_1
I0105 13:55:37.933864  2454 net.cpp:411] pool2 -> pool2
I0105 13:55:37.934134  2454 net.cpp:150] Setting up pool2
I0105 13:55:37.934146  2454 net.cpp:157] Top shape: 100 256 7 7 (1254400)
I0105 13:55:37.934155  2454 net.cpp:165] Memory required for data: 226279600
I0105 13:55:37.934159  2454 layer_factory.hpp:76] Creating layer conv2_BN
I0105 13:55:37.934165  2454 net.cpp:106] Creating Layer conv2_BN
I0105 13:55:37.934170  2454 net.cpp:454] conv2_BN <- pool2
I0105 13:55:37.934176  2454 net.cpp:411] conv2_BN -> conv2_BN
I0105 13:55:37.934376  2454 net.cpp:150] Setting up conv2_BN
I0105 13:55:37.934386  2454 net.cpp:157] Top shape: 100 256 7 7 (1254400)
I0105 13:55:37.934389  2454 net.cpp:165] Memory required for data: 231297200
I0105 13:55:37.934401  2454 layer_factory.hpp:76] Creating layer conv3
I0105 13:55:37.934412  2454 net.cpp:106] Creating Layer conv3
I0105 13:55:37.934417  2454 net.cpp:454] conv3 <- conv2_BN
I0105 13:55:37.934422  2454 net.cpp:411] conv3 -> conv3
I0105 13:55:37.941781  2454 net.cpp:150] Setting up conv3
I0105 13:55:37.941792  2454 net.cpp:157] Top shape: 100 384 7 7 (1881600)
I0105 13:55:37.941794  2454 net.cpp:165] Memory required for data: 238823600
I0105 13:55:37.941800  2454 layer_factory.hpp:76] Creating layer relu3
I0105 13:55:37.941805  2454 net.cpp:106] Creating Layer relu3
I0105 13:55:37.941809  2454 net.cpp:454] relu3 <- conv3
I0105 13:55:37.941814  2454 net.cpp:397] relu3 -> conv3 (in-place)
I0105 13:55:37.941887  2454 net.cpp:150] Setting up relu3
I0105 13:55:37.941895  2454 net.cpp:157] Top shape: 100 384 7 7 (1881600)
I0105 13:55:37.941897  2454 net.cpp:165] Memory required for data: 246350000
I0105 13:55:37.941901  2454 layer_factory.hpp:76] Creating layer conv3_BN
I0105 13:55:37.941907  2454 net.cpp:106] Creating Layer conv3_BN
I0105 13:55:37.941910  2454 net.cpp:454] conv3_BN <- conv3
I0105 13:55:37.941915  2454 net.cpp:411] conv3_BN -> conv3_BN
I0105 13:55:37.942049  2454 net.cpp:150] Setting up conv3_BN
I0105 13:55:37.942055  2454 net.cpp:157] Top shape: 100 384 7 7 (1881600)
I0105 13:55:37.942068  2454 net.cpp:165] Memory required for data: 253876400
I0105 13:55:37.942075  2454 layer_factory.hpp:76] Creating layer conv3_1
I0105 13:55:37.942083  2454 net.cpp:106] Creating Layer conv3_1
I0105 13:55:37.942088  2454 net.cpp:454] conv3_1 <- conv3_BN
I0105 13:55:37.942093  2454 net.cpp:411] conv3_1 -> conv3_1
I0105 13:55:37.951797  2454 net.cpp:150] Setting up conv3_1
I0105 13:55:37.951808  2454 net.cpp:157] Top shape: 100 384 7 7 (1881600)
I0105 13:55:37.951812  2454 net.cpp:165] Memory required for data: 261402800
I0105 13:55:37.951818  2454 layer_factory.hpp:76] Creating layer relu3_1
I0105 13:55:37.951824  2454 net.cpp:106] Creating Layer relu3_1
I0105 13:55:37.951833  2454 net.cpp:454] relu3_1 <- conv3_1
I0105 13:55:37.951838  2454 net.cpp:397] relu3_1 -> conv3_1 (in-place)
I0105 13:55:37.951933  2454 net.cpp:150] Setting up relu3_1
I0105 13:55:37.951941  2454 net.cpp:157] Top shape: 100 384 7 7 (1881600)
I0105 13:55:37.951943  2454 net.cpp:165] Memory required for data: 268929200
I0105 13:55:37.951947  2454 layer_factory.hpp:76] Creating layer conv3_1_BN
I0105 13:55:37.951954  2454 net.cpp:106] Creating Layer conv3_1_BN
I0105 13:55:37.951957  2454 net.cpp:454] conv3_1_BN <- conv3_1
I0105 13:55:37.951961  2454 net.cpp:411] conv3_1_BN -> conv3_1_BN
I0105 13:55:37.952105  2454 net.cpp:150] Setting up conv3_1_BN
I0105 13:55:37.952111  2454 net.cpp:157] Top shape: 100 384 7 7 (1881600)
I0105 13:55:37.952114  2454 net.cpp:165] Memory required for data: 276455600
I0105 13:55:37.952122  2454 layer_factory.hpp:76] Creating layer conv4
I0105 13:55:37.952129  2454 net.cpp:106] Creating Layer conv4
I0105 13:55:37.952132  2454 net.cpp:454] conv4 <- conv3_1_BN
I0105 13:55:37.952137  2454 net.cpp:411] conv4 -> conv4
I0105 13:55:37.962448  2454 net.cpp:150] Setting up conv4
I0105 13:55:37.962466  2454 net.cpp:157] Top shape: 100 384 7 7 (1881600)
I0105 13:55:37.962468  2454 net.cpp:165] Memory required for data: 283982000
I0105 13:55:37.962476  2454 layer_factory.hpp:76] Creating layer relu4
I0105 13:55:37.962483  2454 net.cpp:106] Creating Layer relu4
I0105 13:55:37.962498  2454 net.cpp:454] relu4 <- conv4
I0105 13:55:37.962504  2454 net.cpp:397] relu4 -> conv4 (in-place)
I0105 13:55:37.962592  2454 net.cpp:150] Setting up relu4
I0105 13:55:37.962599  2454 net.cpp:157] Top shape: 100 384 7 7 (1881600)
I0105 13:55:37.962602  2454 net.cpp:165] Memory required for data: 291508400
I0105 13:55:37.962612  2454 layer_factory.hpp:76] Creating layer conv4_BN
I0105 13:55:37.962618  2454 net.cpp:106] Creating Layer conv4_BN
I0105 13:55:37.962632  2454 net.cpp:454] conv4_BN <- conv4
I0105 13:55:37.962636  2454 net.cpp:411] conv4_BN -> conv4_BN
I0105 13:55:37.962792  2454 net.cpp:150] Setting up conv4_BN
I0105 13:55:37.962798  2454 net.cpp:157] Top shape: 100 384 7 7 (1881600)
I0105 13:55:37.962801  2454 net.cpp:165] Memory required for data: 299034800
I0105 13:55:37.962807  2454 layer_factory.hpp:76] Creating layer conv4_1
I0105 13:55:37.962815  2454 net.cpp:106] Creating Layer conv4_1
I0105 13:55:37.962818  2454 net.cpp:454] conv4_1 <- conv4_BN
I0105 13:55:37.962833  2454 net.cpp:411] conv4_1 -> conv4_1
I0105 13:55:37.972581  2454 net.cpp:150] Setting up conv4_1
I0105 13:55:37.972592  2454 net.cpp:157] Top shape: 100 384 7 7 (1881600)
I0105 13:55:37.972595  2454 net.cpp:165] Memory required for data: 306561200
I0105 13:55:37.972600  2454 layer_factory.hpp:76] Creating layer relu4_1
I0105 13:55:37.972609  2454 net.cpp:106] Creating Layer relu4_1
I0105 13:55:37.972611  2454 net.cpp:454] relu4_1 <- conv4_1
I0105 13:55:37.972627  2454 net.cpp:397] relu4_1 -> conv4_1 (in-place)
I0105 13:55:37.972712  2454 net.cpp:150] Setting up relu4_1
I0105 13:55:37.972718  2454 net.cpp:157] Top shape: 100 384 7 7 (1881600)
I0105 13:55:37.972720  2454 net.cpp:165] Memory required for data: 314087600
I0105 13:55:37.972724  2454 layer_factory.hpp:76] Creating layer conv4_1_BN
I0105 13:55:37.972728  2454 net.cpp:106] Creating Layer conv4_1_BN
I0105 13:55:37.972733  2454 net.cpp:454] conv4_1_BN <- conv4_1
I0105 13:55:37.972756  2454 net.cpp:411] conv4_1_BN -> conv4_1_BN
I0105 13:55:37.972909  2454 net.cpp:150] Setting up conv4_1_BN
I0105 13:55:37.972915  2454 net.cpp:157] Top shape: 100 384 7 7 (1881600)
I0105 13:55:37.972918  2454 net.cpp:165] Memory required for data: 321614000
I0105 13:55:37.972924  2454 layer_factory.hpp:76] Creating layer conv5
I0105 13:55:37.972930  2454 net.cpp:106] Creating Layer conv5
I0105 13:55:37.972934  2454 net.cpp:454] conv5 <- conv4_1_BN
I0105 13:55:37.972950  2454 net.cpp:411] conv5 -> conv5
I0105 13:55:37.979902  2454 net.cpp:150] Setting up conv5
I0105 13:55:37.979918  2454 net.cpp:157] Top shape: 100 256 7 7 (1254400)
I0105 13:55:37.979920  2454 net.cpp:165] Memory required for data: 326631600
I0105 13:55:37.979928  2454 layer_factory.hpp:76] Creating layer relu5
I0105 13:55:37.979933  2454 net.cpp:106] Creating Layer relu5
I0105 13:55:37.979936  2454 net.cpp:454] relu5 <- conv5
I0105 13:55:37.979941  2454 net.cpp:397] relu5 -> conv5 (in-place)
I0105 13:55:37.980015  2454 net.cpp:150] Setting up relu5
I0105 13:55:37.980021  2454 net.cpp:157] Top shape: 100 256 7 7 (1254400)
I0105 13:55:37.980023  2454 net.cpp:165] Memory required for data: 331649200
I0105 13:55:37.980027  2454 layer_factory.hpp:76] Creating layer conv5_BN
I0105 13:55:37.980033  2454 net.cpp:106] Creating Layer conv5_BN
I0105 13:55:37.980036  2454 net.cpp:454] conv5_BN <- conv5
I0105 13:55:37.980041  2454 net.cpp:411] conv5_BN -> conv5_BN
I0105 13:55:37.980185  2454 net.cpp:150] Setting up conv5_BN
I0105 13:55:37.980190  2454 net.cpp:157] Top shape: 100 256 7 7 (1254400)
I0105 13:55:37.980193  2454 net.cpp:165] Memory required for data: 336666800
I0105 13:55:37.980198  2454 layer_factory.hpp:76] Creating layer conv5_1
I0105 13:55:37.980206  2454 net.cpp:106] Creating Layer conv5_1
I0105 13:55:37.980208  2454 net.cpp:454] conv5_1 <- conv5_BN
I0105 13:55:37.980213  2454 net.cpp:411] conv5_1 -> conv5_1
I0105 13:55:37.985362  2454 net.cpp:150] Setting up conv5_1
I0105 13:55:37.985376  2454 net.cpp:157] Top shape: 100 256 7 7 (1254400)
I0105 13:55:37.985379  2454 net.cpp:165] Memory required for data: 341684400
I0105 13:55:37.985396  2454 layer_factory.hpp:76] Creating layer relu5_1
I0105 13:55:37.985402  2454 net.cpp:106] Creating Layer relu5_1
I0105 13:55:37.985406  2454 net.cpp:454] relu5_1 <- conv5_1
I0105 13:55:37.985412  2454 net.cpp:397] relu5_1 -> conv5_1 (in-place)
I0105 13:55:37.985498  2454 net.cpp:150] Setting up relu5_1
I0105 13:55:37.985504  2454 net.cpp:157] Top shape: 100 256 7 7 (1254400)
I0105 13:55:37.985507  2454 net.cpp:165] Memory required for data: 346702000
I0105 13:55:37.985522  2454 layer_factory.hpp:76] Creating layer conv5_1_BN
I0105 13:55:37.985527  2454 net.cpp:106] Creating Layer conv5_1_BN
I0105 13:55:37.985532  2454 net.cpp:454] conv5_1_BN <- conv5_1
I0105 13:55:37.985535  2454 net.cpp:411] conv5_1_BN -> conv5_1_BN
I0105 13:55:37.985689  2454 net.cpp:150] Setting up conv5_1_BN
I0105 13:55:37.985697  2454 net.cpp:157] Top shape: 100 256 7 7 (1254400)
I0105 13:55:37.985699  2454 net.cpp:165] Memory required for data: 351719600
I0105 13:55:37.985715  2454 layer_factory.hpp:76] Creating layer pool5
I0105 13:55:37.985721  2454 net.cpp:106] Creating Layer pool5
I0105 13:55:37.985724  2454 net.cpp:454] pool5 <- conv5_1_BN
I0105 13:55:37.985730  2454 net.cpp:411] pool5 -> pool5
I0105 13:55:37.985975  2454 net.cpp:150] Setting up pool5
I0105 13:55:37.985983  2454 net.cpp:157] Top shape: 100 256 3 3 (230400)
I0105 13:55:37.985987  2454 net.cpp:165] Memory required for data: 352641200
I0105 13:55:37.985991  2454 layer_factory.hpp:76] Creating layer fc6
I0105 13:55:37.986001  2454 net.cpp:106] Creating Layer fc6
I0105 13:55:37.986004  2454 net.cpp:454] fc6 <- pool5
I0105 13:55:37.986019  2454 net.cpp:411] fc6 -> fc6
I0105 13:55:38.083423  2454 net.cpp:150] Setting up fc6
I0105 13:55:38.083443  2454 net.cpp:157] Top shape: 100 2048 (204800)
I0105 13:55:38.083446  2454 net.cpp:165] Memory required for data: 353460400
I0105 13:55:38.083456  2454 layer_factory.hpp:76] Creating layer relu6
I0105 13:55:38.083464  2454 net.cpp:106] Creating Layer relu6
I0105 13:55:38.083494  2454 net.cpp:454] relu6 <- fc6
I0105 13:55:38.083500  2454 net.cpp:397] relu6 -> fc6 (in-place)
I0105 13:55:38.083585  2454 net.cpp:150] Setting up relu6
I0105 13:55:38.083590  2454 net.cpp:157] Top shape: 100 2048 (204800)
I0105 13:55:38.083593  2454 net.cpp:165] Memory required for data: 354279600
I0105 13:55:38.083597  2454 layer_factory.hpp:76] Creating layer fc6_BN
I0105 13:55:38.083602  2454 net.cpp:106] Creating Layer fc6_BN
I0105 13:55:38.083606  2454 net.cpp:454] fc6_BN <- fc6
I0105 13:55:38.083609  2454 net.cpp:411] fc6_BN -> fc6_BN
I0105 13:55:38.083775  2454 net.cpp:150] Setting up fc6_BN
I0105 13:55:38.083781  2454 net.cpp:157] Top shape: 100 2048 (204800)
I0105 13:55:38.083784  2454 net.cpp:165] Memory required for data: 355098800
I0105 13:55:38.083791  2454 layer_factory.hpp:76] Creating layer drop6
I0105 13:55:38.083796  2454 net.cpp:106] Creating Layer drop6
I0105 13:55:38.083799  2454 net.cpp:454] drop6 <- fc6_BN
I0105 13:55:38.083803  2454 net.cpp:411] drop6 -> drop6
I0105 13:55:38.083843  2454 net.cpp:150] Setting up drop6
I0105 13:55:38.083849  2454 net.cpp:157] Top shape: 100 2048 (204800)
I0105 13:55:38.083863  2454 net.cpp:165] Memory required for data: 355918000
I0105 13:55:38.083865  2454 layer_factory.hpp:76] Creating layer fc7
I0105 13:55:38.083883  2454 net.cpp:106] Creating Layer fc7
I0105 13:55:38.083885  2454 net.cpp:454] fc7 <- drop6
I0105 13:55:38.083901  2454 net.cpp:411] fc7 -> fc7
I0105 13:55:38.170774  2454 net.cpp:150] Setting up fc7
I0105 13:55:38.170792  2454 net.cpp:157] Top shape: 100 2048 (204800)
I0105 13:55:38.170795  2454 net.cpp:165] Memory required for data: 356737200
I0105 13:55:38.170804  2454 layer_factory.hpp:76] Creating layer relu7
I0105 13:55:38.170811  2454 net.cpp:106] Creating Layer relu7
I0105 13:55:38.170816  2454 net.cpp:454] relu7 <- fc7
I0105 13:55:38.170833  2454 net.cpp:397] relu7 -> fc7 (in-place)
I0105 13:55:38.170917  2454 net.cpp:150] Setting up relu7
I0105 13:55:38.170922  2454 net.cpp:157] Top shape: 100 2048 (204800)
I0105 13:55:38.170925  2454 net.cpp:165] Memory required for data: 357556400
I0105 13:55:38.170929  2454 layer_factory.hpp:76] Creating layer fc7_BN
I0105 13:55:38.170935  2454 net.cpp:106] Creating Layer fc7_BN
I0105 13:55:38.170938  2454 net.cpp:454] fc7_BN <- fc7
I0105 13:55:38.170943  2454 net.cpp:411] fc7_BN -> fc7_BN
I0105 13:55:38.171113  2454 net.cpp:150] Setting up fc7_BN
I0105 13:55:38.171118  2454 net.cpp:157] Top shape: 100 2048 (204800)
I0105 13:55:38.171121  2454 net.cpp:165] Memory required for data: 358375600
I0105 13:55:38.171138  2454 layer_factory.hpp:76] Creating layer drop7
I0105 13:55:38.171155  2454 net.cpp:106] Creating Layer drop7
I0105 13:55:38.171159  2454 net.cpp:454] drop7 <- fc7_BN
I0105 13:55:38.171164  2454 net.cpp:411] drop7 -> drop7
I0105 13:55:38.171195  2454 net.cpp:150] Setting up drop7
I0105 13:55:38.171211  2454 net.cpp:157] Top shape: 100 2048 (204800)
I0105 13:55:38.171213  2454 net.cpp:165] Memory required for data: 359194800
I0105 13:55:38.171216  2454 layer_factory.hpp:76] Creating layer fc8
I0105 13:55:38.171223  2454 net.cpp:106] Creating Layer fc8
I0105 13:55:38.171226  2454 net.cpp:454] fc8 <- drop7
I0105 13:55:38.171231  2454 net.cpp:411] fc8 -> fc8
I0105 13:55:38.213878  2454 net.cpp:150] Setting up fc8
I0105 13:55:38.213896  2454 net.cpp:157] Top shape: 100 1000 (100000)
I0105 13:55:38.213901  2454 net.cpp:165] Memory required for data: 359594800
I0105 13:55:38.213917  2454 layer_factory.hpp:76] Creating layer fc8_fc8_0_split
I0105 13:55:38.213925  2454 net.cpp:106] Creating Layer fc8_fc8_0_split
I0105 13:55:38.213930  2454 net.cpp:454] fc8_fc8_0_split <- fc8
I0105 13:55:38.213937  2454 net.cpp:411] fc8_fc8_0_split -> fc8_fc8_0_split_0
I0105 13:55:38.213948  2454 net.cpp:411] fc8_fc8_0_split -> fc8_fc8_0_split_1
I0105 13:55:38.213981  2454 net.cpp:150] Setting up fc8_fc8_0_split
I0105 13:55:38.213999  2454 net.cpp:157] Top shape: 100 1000 (100000)
I0105 13:55:38.214002  2454 net.cpp:157] Top shape: 100 1000 (100000)
I0105 13:55:38.214027  2454 net.cpp:165] Memory required for data: 360394800
I0105 13:55:38.214030  2454 layer_factory.hpp:76] Creating layer accuracy
I0105 13:55:38.214040  2454 net.cpp:106] Creating Layer accuracy
I0105 13:55:38.214043  2454 net.cpp:454] accuracy <- fc8_fc8_0_split_0
I0105 13:55:38.214047  2454 net.cpp:454] accuracy <- label_data_1_split_0
I0105 13:55:38.214051  2454 net.cpp:411] accuracy -> accuracy
…
I0105 21:25:58.537169  2442 net.cpp:322] The NetState phase (0) differed from the phase (1) specified by a rule in layer accuracy
I0105 21:25:58.537499  2442 net.cpp:49] Initializing net from parameters: 
name: "CaffeNet"
state {
  phase: TRAIN
}
layer {
  name: "data"
  type: "Data"
  top: "data"
  top: "label"
  include {
    phase: TRAIN
  }
  transform_param {
    mirror: true
    crop_size: 128
    mean_value: 104
    mean_value: 117
    mean_value: 124
  }
  data_param {
    source: "/media/dereyly/data_one/data/CAFFE_DATA/ilsvrc12_train_lmdb_144"
    batch_size: 256
    backend: LMDB
  }
}
layer {
  name: "conv1"
  type: "Convolution"
  bottom: "data"
  top: "conv1"
  param {
    lr_mult: 1
    decay_mult: 1
  }
  param {
    lr_mult: 2
    decay_mult: 0
  }
  convolution_param {
    num_output: 96
    kernel_size: 11
    stride: 4
    weight_filler {
      type: "msra"
      std: 0.01
    }
    bias_filler {
      type: "constant"
    }
  }
}
layer {
  name: "relu1"
  type: "PReLU"
  bottom: "conv1"
  top: "conv1"
  prelu_param {
    filler {
      type: "constant"
      value: 0.3
    }
    channel_shared: false
  }
}
layer {
  name: "pool1"
  type: "Pooling"
  bottom: "conv1"
  top: "pool1"
  pooling_param {
    pool: MAX
    kernel_size: 3
    stride: 2
  }
}
layer {
  name: "conv1_BN"
  type: "BatchNorm"
  bottom: "pool1"
  top: "conv1_BN"
}
layer {
  name: "conv2"
  type: "Convolution"
  bottom: "conv1_BN"
  top: "conv2"
  param {
    lr_mult: 1
    decay_mult: 1
  }
  param {
    lr_mult: 2
    decay_mult: 0
  }
  convolution_param {
    num_output: 256
    weight_filler {
      type: "msra"
      std: 0.01
    }
    bias_filler {
      type: "constant"
    }
    pad_h: 0
    pad_w: 2
    kernel_h: 1
    kernel_w: 5
  }
}
layer {
  name: "relu2"
  type: "PReLU"
  bottom: "conv2"
  top: "conv2"
  prelu_param {
    filler {
      type: "constant"
      value: 0.3
    }
    channel_shared: false
  }
}
layer {
  name: "conv2_1_BN"
  type: "BatchNorm"
  bottom: "conv2"
  top: "conv2_1_BN"
}
layer {
  name: "conv2_1"
  type: "Convolution"
  bottom: "conv2_1_BN"
  top: "conv2_1"
  param {
    lr_mult: 1
    decay_mult: 1
  }
  param {
    lr_mult: 2
    decay_mult: 0
  }
  convolution_param {
    num_output: 256
    weight_filler {
      type: "msra"
      std: 0.01
    }
    bias_filler {
      type: "constant"
    }
    pad_h: 2
    pad_w: 0
    kernel_h: 5
    kernel_w: 1
  }
}
layer {
  name: "relu2_1"
  type: "PReLU"
  bottom: "conv2_1"
  top: "conv2_1"
  prelu_param {
    filler {
      type: "constant"
      value: 0.3
    }
    channel_shared: false
  }
}
layer {
  name: "pool2"
  type: "Pooling"
  bottom: "conv2_1"
  top: "pool2"
  pooling_param {
    pool: MAX
    kernel_size: 3
    stride: 2
  }
}
layer {
  name: "conv2_BN"
  type: "BatchNorm"
  bottom: "pool2"
  top: "conv2_BN"
}
layer {
  name: "conv3"
  type: "Convolution"
  bottom: "conv2_BN"
  top: "conv3"
  param {
    lr_mult: 1
    decay_mult: 1
  }
  param {
    lr_mult: 2
    decay_mult: 0
  }
  convolution_param {
    num_output: 384
    weight_filler {
      type: "msra"
      std: 0.01
    }
    bias_filler {
      type: "constant"
    }
    pad_h: 0
    pad_w: 1
    kernel_h: 1
    kernel_w: 3
  }
}
layer {
  name: "relu3"
  type: "PReLU"
  bottom: "conv3"
  top: "conv3"
  prelu_param {
    filler {
      type: "constant"
      value: 0.3
    }
    channel_shared: false
  }
}
layer {
  name: "conv3_BN"
  type: "BatchNorm"
  bottom: "conv3"
  top: "conv3_BN"
}
layer {
  name: "conv3_1"
  type: "Convolution"
  bottom: "conv3_BN"
  top: "conv3_1"
  param {
    lr_mult: 1
    decay_mult: 1
  }
  param {
    lr_mult: 2
    decay_mult: 0
  }
  convolution_param {
    num_output: 384
    weight_filler {
      type: "msra"
      std: 0.01
    }
    bias_filler {
      type: "constant"
    }
    pad_h: 1
    pad_w: 0
    kernel_h: 3
    kernel_w: 1
  }
}
layer {
  name: "relu3_1"
  type: "PReLU"
  bottom: "conv3_1"
  top: "conv3_1"
  prelu_param {
    filler {
      type: "constant"
      value: 0.3
    }
    channel_shared: false
  }
}
layer {
  name: "conv3_1_BN"
  type: "BatchNorm"
  bottom: "conv3_1"
  top: "conv3_1_BN"
}
layer {
  name: "conv4"
  type: "Convolution"
  bottom: "conv3_1_BN"
  top: "conv4"
  param {
    lr_mult: 1
    decay_mult: 1
  }
  param {
    lr_mult: 2
    decay_mult: 0
  }
  convolution_param {
    num_output: 384
    weight_filler {
      type: "msra"
      std: 0.01
    }
    bias_filler {
      type: "constant"
    }
    pad_h: 0
    pad_w: 1
    kernel_h: 1
    kernel_w: 3
  }
}
layer {
  name: "relu4"
  type: "PReLU"
  bottom: "conv4"
  top: "conv4"
  prelu_param {
    filler {
      type: "constant"
      value: 0.3
    }
    channel_shared: false
  }
}
layer {
  name: "conv4_BN"
  type: "BatchNorm"
  bottom: "conv4"
  top: "conv4_BN"
}
layer {
  name: "conv4_1"
  type: "Convolution"
  bottom: "conv4_BN"
  top: "conv4_1"
  param {
    lr_mult: 1
    decay_mult: 1
  }
  param {
    lr_mult: 2
    decay_mult: 0
  }
  convolution_param {
    num_output: 384
    weight_filler {
      type: "msra"
      std: 0.01
    }
    bias_filler {
      type: "constant"
    }
    pad_h: 1
    pad_w: 0
    kernel_h: 3
    kernel_w: 1
  }
}
layer {
  name: "relu4_1"
  type: "PReLU"
  bottom: "conv4_1"
  top: "conv4_1"
  prelu_param {
    filler {
      type: "constant"
      value: 0.3
    }
    channel_shared: false
  }
}
layer {
  name: "conv4_1_BN"
  type: "BatchNorm"
  bottom: "conv4_1"
  top: "conv4_1_BN"
}
layer {
  name: "conv5"
  type: "Convolution"
  bottom: "conv4_1_BN"
  top: "conv5"
  param {
    lr_mult: 1
    decay_mult: 1
  }
  param {
    lr_mult: 2
    decay_mult: 0
  }
  convolution_param {
    num_output: 256
    weight_filler {
      type: "msra"
      std: 0.01
    }
    bias_filler {
      type: "constant"
    }
    pad_h: 0
    pad_w: 1
    kernel_h: 1
    kernel_w: 3
  }
}
layer {
  name: "relu5"
  type: "PReLU"
  bottom: "conv5"
  top: "conv5"
  prelu_param {
    filler {
      type: "constant"
      value: 0.3
    }
    channel_shared: false
  }
}
layer {
  name: "conv5_BN"
  type: "BatchNorm"
  bottom: "conv5"
  top: "conv5_BN"
}
layer {
  name: "conv5_1"
  type: "Convolution"
  bottom: "conv5_BN"
  top: "conv5_1"
  param {
    lr_mult: 1
    decay_mult: 1
  }
  param {
    lr_mult: 2
    decay_mult: 0
  }
  convolution_param {
    num_output: 256
    weight_filler {
      type: "msra"
      std: 0.01
    }
    bias_filler {
      type: "constant"
    }
    pad_h: 1
    pad_w: 0
    kernel_h: 3
    kernel_w: 1
  }
}
layer {
  name: "relu5_1"
  type: "PReLU"
  bottom: "conv5_1"
  top: "conv5_1"
  prelu_param {
    filler {
      type: "constant"
      value: 0.3
    }
    channel_shared: false
  }
}
layer {
  name: "conv5_1_BN"
  type: "BatchNorm"
  bottom: "conv5_1"
  top: "conv5_1_BN"
}
layer {
  name: "pool5"
  type: "Pooling"
  bottom: "conv5_1_BN"
  top: "pool5"
  pooling_param {
    pool: MAX
    kernel_size: 3
    stride: 2
  }
}
layer {
  name: "fc6"
  type: "InnerProduct"
  bottom: "pool5"
  top: "fc6"
  param {
    lr_mult: 1
    decay_mult: 1
  }
  param {
    lr_mult: 2
    decay_mult: 0
  }
  inner_product_param {
    num_output: 2048
    weight_filler {
      type: "gaussian"
      std: 0.005
    }
    bias_filler {
      type: "constant"
    }
  }
}
layer {
  name: "relu6"
  type: "PReLU"
  bottom: "fc6"
  top: "fc6"
  prelu_param {
    filler {
      type: "constant"
      value: 0.3
    }
    channel_shared: false
  }
}
layer {
  name: "fc6_BN"
  type: "BatchNorm"
  bottom: "fc6"
  top: "fc6_BN"
}
layer {
  name: "drop6"
  type: "Dropout"
  bottom: "fc6_BN"
  top: "drop6"
  dropout_param {
    dropout_ratio: 0.2
  }
}
layer {
  name: "fc7"
  type: "InnerProduct"
  bottom: "drop6"
  top: "fc7"
  param {
    lr_mult: 1
    decay_mult: 1
  }
  param {
    lr_mult: 2
    decay_mult: 0
  }
  inner_product_param {
    num_output: 2048
    weight_filler {
      type: "gaussian"
      std: 0.005
    }
    bias_filler {
      type: "constant"
    }
  }
}
layer {
  name: "relu7"
  type: "PReLU"
  bottom: "fc7"
  top: "fc7"
  prelu_param {
    filler {
      type: "constant"
      value: 0.3
    }
    channel_shared: false
  }
}
layer {
  name: "fc7_BN"
  type: "BatchNorm"
  bottom: "fc7"
  top: "fc7_BN"
}
layer {
  name: "drop7"
  type: "Dropout"
  bottom: "fc7_BN"
  top: "drop7"
  dropout_param {
    dropout_ratio: 0.2
  }
}
layer {
  name: "fc8"
  type: "InnerProduct"
  bottom: "drop7"
  top: "fc8"
  param {
    lr_mult: 1
    decay_mult: 1
  }
  param {
    lr_mult: 2
    decay_mult: 0
  }
  inner_product_param {
    num_output: 1000
    weight_filler {
      type: "gaussian"
      std: 0.01
    }
    bias_filler {
      type: "constant"
    }
  }
}
layer {
  name: "loss"
  type: "SoftmaxWithLoss"
  bottom: "fc8"
  bottom: "label"
  top: "loss"
}
I0105 21:25:58.537631  2442 layer_factory.hpp:76] Creating layer data
I0105 21:25:58.555891  2442 net.cpp:106] Creating Layer data
I0105 21:25:58.555929  2442 net.cpp:411] data -> data
I0105 21:25:58.555959  2442 net.cpp:411] data -> label
I0105 21:25:58.585412  2454 db_lmdb.cpp:38] Opened lmdb /media/dereyly/data_one/data/CAFFE_DATA/ilsvrc12_train_lmdb_144
I0105 21:25:58.659983  2442 data_layer.cpp:41] output data size: 256,3,128,128
I0105 21:25:58.715018  2442 net.cpp:150] Setting up data
I0105 21:25:58.715065  2442 net.cpp:157] Top shape: 256 3 128 128 (12582912)
I0105 21:25:58.715071  2442 net.cpp:157] Top shape: 256 (256)
I0105 21:25:58.715075  2442 net.cpp:165] Memory required for data: 50332672
I0105 21:25:58.715085  2442 layer_factory.hpp:76] Creating layer conv1
I0105 21:25:58.715101  2442 net.cpp:106] Creating Layer conv1
I0105 21:25:58.715107  2442 net.cpp:454] conv1 <- data
I0105 21:25:58.715118  2442 net.cpp:411] conv1 -> conv1
I0105 21:25:58.729651  2455 blocking_queue.cpp:50] Waiting for data
I0105 21:25:59.546950  2442 net.cpp:150] Setting up conv1
I0105 21:25:59.546993  2442 net.cpp:157] Top shape: 256 96 30 30 (22118400)
I0105 21:25:59.546998  2442 net.cpp:165] Memory required for data: 138806272
I0105 21:25:59.547016  2442 layer_factory.hpp:76] Creating layer relu1
I0105 21:25:59.547029  2442 net.cpp:106] Creating Layer relu1
I0105 21:25:59.547034  2442 net.cpp:454] relu1 <- conv1
I0105 21:25:59.547039  2442 net.cpp:397] relu1 -> conv1 (in-place)
I0105 21:25:59.547412  2442 net.cpp:150] Setting up relu1
I0105 21:25:59.547422  2442 net.cpp:157] Top shape: 256 96 30 30 (22118400)
I0105 21:25:59.547436  2442 net.cpp:165] Memory required for data: 227279872
I0105 21:25:59.547442  2442 layer_factory.hpp:76] Creating layer pool1
I0105 21:25:59.547461  2442 net.cpp:106] Creating Layer pool1
I0105 21:25:59.547464  2442 net.cpp:454] pool1 <- conv1
I0105 21:25:59.547468  2442 net.cpp:411] pool1 -> pool1
I0105 21:25:59.548043  2442 net.cpp:150] Setting up pool1
I0105 21:25:59.548054  2442 net.cpp:157] Top shape: 256 96 15 15 (5529600)
I0105 21:25:59.548059  2442 net.cpp:165] Memory required for data: 249398272
I0105 21:25:59.548063  2442 layer_factory.hpp:76] Creating layer conv1_BN
I0105 21:25:59.548071  2442 net.cpp:106] Creating Layer conv1_BN
I0105 21:25:59.548074  2442 net.cpp:454] conv1_BN <- pool1
I0105 21:25:59.548090  2442 net.cpp:411] conv1_BN -> conv1_BN
I0105 21:25:59.548239  2442 net.cpp:150] Setting up conv1_BN
I0105 21:25:59.548252  2442 net.cpp:157] Top shape: 256 96 15 15 (5529600)
I0105 21:25:59.548256  2442 net.cpp:165] Memory required for data: 271516672
I0105 21:25:59.548275  2442 layer_factory.hpp:76] Creating layer conv2
I0105 21:25:59.548285  2442 net.cpp:106] Creating Layer conv2
I0105 21:25:59.548291  2442 net.cpp:454] conv2 <- conv1_BN
I0105 21:25:59.548296  2442 net.cpp:411] conv2 -> conv2
I0105 21:25:59.551553  2442 net.cpp:150] Setting up conv2
I0105 21:25:59.551565  2442 net.cpp:157] Top shape: 256 256 15 15 (14745600)
I0105 21:25:59.551569  2442 net.cpp:165] Memory required for data: 330499072
I0105 21:25:59.551574  2442 layer_factory.hpp:76] Creating layer relu2
I0105 21:25:59.551590  2442 net.cpp:106] Creating Layer relu2
I0105 21:25:59.551594  2442 net.cpp:454] relu2 <- conv2
I0105 21:25:59.551600  2442 net.cpp:397] relu2 -> conv2 (in-place)
I0105 21:25:59.551709  2442 net.cpp:150] Setting up relu2
I0105 21:25:59.551726  2442 net.cpp:157] Top shape: 256 256 15 15 (14745600)
I0105 21:25:59.551729  2442 net.cpp:165] Memory required for data: 389481472
I0105 21:25:59.551750  2442 layer_factory.hpp:76] Creating layer conv2_1_BN
I0105 21:25:59.551765  2442 net.cpp:106] Creating Layer conv2_1_BN
I0105 21:25:59.551769  2442 net.cpp:454] conv2_1_BN <- conv2
I0105 21:25:59.551785  2442 net.cpp:411] conv2_1_BN -> conv2_1_BN
I0105 21:25:59.551930  2442 net.cpp:150] Setting up conv2_1_BN
I0105 21:25:59.551939  2442 net.cpp:157] Top shape: 256 256 15 15 (14745600)
I0105 21:25:59.551944  2442 net.cpp:165] Memory required for data: 448463872
I0105 21:25:59.551954  2442 layer_factory.hpp:76] Creating layer conv2_1
I0105 21:25:59.551975  2442 net.cpp:106] Creating Layer conv2_1
I0105 21:25:59.551991  2442 net.cpp:454] conv2_1 <- conv2_1_BN
I0105 21:25:59.552001  2442 net.cpp:411] conv2_1 -> conv2_1
I0105 21:25:59.559767  2442 net.cpp:150] Setting up conv2_1
I0105 21:25:59.559782  2442 net.cpp:157] Top shape: 256 256 15 15 (14745600)
I0105 21:25:59.559787  2442 net.cpp:165] Memory required for data: 507446272
I0105 21:25:59.559797  2442 layer_factory.hpp:76] Creating layer relu2_1
I0105 21:25:59.559806  2442 net.cpp:106] Creating Layer relu2_1
I0105 21:25:59.559813  2442 net.cpp:454] relu2_1 <- conv2_1
I0105 21:25:59.559823  2442 net.cpp:397] relu2_1 -> conv2_1 (in-place)
I0105 21:25:59.559917  2442 net.cpp:150] Setting up relu2_1
I0105 21:25:59.559927  2442 net.cpp:157] Top shape: 256 256 15 15 (14745600)
I0105 21:25:59.559933  2442 net.cpp:165] Memory required for data: 566428672
I0105 21:25:59.559941  2442 layer_factory.hpp:76] Creating layer pool2
I0105 21:25:59.559948  2442 net.cpp:106] Creating Layer pool2
I0105 21:25:59.559954  2442 net.cpp:454] pool2 <- conv2_1
I0105 21:25:59.559962  2442 net.cpp:411] pool2 -> pool2
I0105 21:25:59.560111  2442 net.cpp:150] Setting up pool2
I0105 21:25:59.560122  2442 net.cpp:157] Top shape: 256 256 7 7 (3211264)
I0105 21:25:59.560127  2442 net.cpp:165] Memory required for data: 579273728
I0105 21:25:59.560132  2442 layer_factory.hpp:76] Creating layer conv2_BN
I0105 21:25:59.560142  2442 net.cpp:106] Creating Layer conv2_BN
I0105 21:25:59.560148  2442 net.cpp:454] conv2_BN <- pool2
I0105 21:25:59.560165  2442 net.cpp:411] conv2_BN -> conv2_BN
I0105 21:25:59.560529  2442 net.cpp:150] Setting up conv2_BN
I0105 21:25:59.560540  2442 net.cpp:157] Top shape: 256 256 7 7 (3211264)
I0105 21:25:59.560545  2442 net.cpp:165] Memory required for data: 592118784
I0105 21:25:59.560560  2442 layer_factory.hpp:76] Creating layer conv3
I0105 21:25:59.560585  2442 net.cpp:106] Creating Layer conv3
I0105 21:25:59.560590  2442 net.cpp:454] conv3 <- conv2_BN
I0105 21:25:59.560600  2442 net.cpp:411] conv3 -> conv3
I0105 21:25:59.567766  2442 net.cpp:150] Setting up conv3
I0105 21:25:59.567780  2442 net.cpp:157] Top shape: 256 384 7 7 (4816896)
I0105 21:25:59.567786  2442 net.cpp:165] Memory required for data: 611386368
I0105 21:25:59.567795  2442 layer_factory.hpp:76] Creating layer relu3
I0105 21:25:59.567806  2442 net.cpp:106] Creating Layer relu3
I0105 21:25:59.567812  2442 net.cpp:454] relu3 <- conv3
I0105 21:25:59.567823  2442 net.cpp:397] relu3 -> conv3 (in-place)
I0105 21:25:59.567899  2442 net.cpp:150] Setting up relu3
I0105 21:25:59.567909  2442 net.cpp:157] Top shape: 256 384 7 7 (4816896)
I0105 21:25:59.567914  2442 net.cpp:165] Memory required for data: 630653952
I0105 21:25:59.567920  2442 layer_factory.hpp:76] Creating layer conv3_BN
I0105 21:25:59.567944  2442 net.cpp:106] Creating Layer conv3_BN
I0105 21:25:59.567951  2442 net.cpp:454] conv3_BN <- conv3
I0105 21:25:59.567960  2442 net.cpp:411] conv3_BN -> conv3_BN
I0105 21:25:59.568092  2442 net.cpp:150] Setting up conv3_BN
I0105 21:25:59.568101  2442 net.cpp:157] Top shape: 256 384 7 7 (4816896)
I0105 21:25:59.568106  2442 net.cpp:165] Memory required for data: 649921536
I0105 21:25:59.568117  2442 layer_factory.hpp:76] Creating layer conv3_1
I0105 21:25:59.568130  2442 net.cpp:106] Creating Layer conv3_1
I0105 21:25:59.568136  2442 net.cpp:454] conv3_1 <- conv3_BN
I0105 21:25:59.568145  2442 net.cpp:411] conv3_1 -> conv3_1
I0105 21:25:59.578501  2442 net.cpp:150] Setting up conv3_1
I0105 21:25:59.578519  2442 net.cpp:157] Top shape: 256 384 7 7 (4816896)
I0105 21:25:59.578526  2442 net.cpp:165] Memory required for data: 669189120
I0105 21:25:59.578536  2442 layer_factory.hpp:76] Creating layer relu3_1
I0105 21:25:59.578552  2442 net.cpp:106] Creating Layer relu3_1
I0105 21:25:59.578559  2442 net.cpp:454] relu3_1 <- conv3_1
I0105 21:25:59.578568  2442 net.cpp:397] relu3_1 -> conv3_1 (in-place)
I0105 21:25:59.578650  2442 net.cpp:150] Setting up relu3_1
I0105 21:25:59.578660  2442 net.cpp:157] Top shape: 256 384 7 7 (4816896)
I0105 21:25:59.578666  2442 net.cpp:165] Memory required for data: 688456704
I0105 21:25:59.578673  2442 layer_factory.hpp:76] Creating layer conv3_1_BN
I0105 21:25:59.578711  2442 net.cpp:106] Creating Layer conv3_1_BN
I0105 21:25:59.578717  2442 net.cpp:454] conv3_1_BN <- conv3_1
I0105 21:25:59.578726  2442 net.cpp:411] conv3_1_BN -> conv3_1_BN
I0105 21:25:59.578881  2442 net.cpp:150] Setting up conv3_1_BN
I0105 21:25:59.578889  2442 net.cpp:157] Top shape: 256 384 7 7 (4816896)
I0105 21:25:59.578894  2442 net.cpp:165] Memory required for data: 707724288
I0105 21:25:59.578905  2442 layer_factory.hpp:76] Creating layer conv4
I0105 21:25:59.578918  2442 net.cpp:106] Creating Layer conv4
I0105 21:25:59.578927  2442 net.cpp:454] conv4 <- conv3_1_BN
I0105 21:25:59.578936  2442 net.cpp:411] conv4 -> conv4
I0105 21:25:59.588963  2442 net.cpp:150] Setting up conv4
I0105 21:25:59.588978  2442 net.cpp:157] Top shape: 256 384 7 7 (4816896)
I0105 21:25:59.588982  2442 net.cpp:165] Memory required for data: 726991872
I0105 21:25:59.588992  2442 layer_factory.hpp:76] Creating layer relu4
I0105 21:25:59.589002  2442 net.cpp:106] Creating Layer relu4
I0105 21:25:59.589009  2442 net.cpp:454] relu4 <- conv4
I0105 21:25:59.589020  2442 net.cpp:397] relu4 -> conv4 (in-place)
I0105 21:25:59.589097  2442 net.cpp:150] Setting up relu4
I0105 21:25:59.589107  2442 net.cpp:157] Top shape: 256 384 7 7 (4816896)
I0105 21:25:59.589113  2442 net.cpp:165] Memory required for data: 746259456
I0105 21:25:59.589126  2442 layer_factory.hpp:76] Creating layer conv4_BN
I0105 21:25:59.589139  2442 net.cpp:106] Creating Layer conv4_BN
I0105 21:25:59.589146  2442 net.cpp:454] conv4_BN <- conv4
I0105 21:25:59.589154  2442 net.cpp:411] conv4_BN -> conv4_BN
I0105 21:25:59.589290  2442 net.cpp:150] Setting up conv4_BN
I0105 21:25:59.589299  2442 net.cpp:157] Top shape: 256 384 7 7 (4816896)
I0105 21:25:59.589304  2442 net.cpp:165] Memory required for data: 765527040
I0105 21:25:59.589318  2442 layer_factory.hpp:76] Creating layer conv4_1
I0105 21:25:59.589331  2442 net.cpp:106] Creating Layer conv4_1
I0105 21:25:59.589337  2442 net.cpp:454] conv4_1 <- conv4_BN
I0105 21:25:59.589346  2442 net.cpp:411] conv4_1 -> conv4_1
I0105 21:25:59.599315  2442 net.cpp:150] Setting up conv4_1
I0105 21:25:59.599344  2442 net.cpp:157] Top shape: 256 384 7 7 (4816896)
I0105 21:25:59.599349  2442 net.cpp:165] Memory required for data: 784794624
I0105 21:25:59.599370  2442 layer_factory.hpp:76] Creating layer relu4_1
I0105 21:25:59.599382  2442 net.cpp:106] Creating Layer relu4_1
I0105 21:25:59.599390  2442 net.cpp:454] relu4_1 <- conv4_1
I0105 21:25:59.599400  2442 net.cpp:397] relu4_1 -> conv4_1 (in-place)
I0105 21:25:59.599478  2442 net.cpp:150] Setting up relu4_1
I0105 21:25:59.599488  2442 net.cpp:157] Top shape: 256 384 7 7 (4816896)
I0105 21:25:59.599506  2442 net.cpp:165] Memory required for data: 804062208
I0105 21:25:59.599514  2442 layer_factory.hpp:76] Creating layer conv4_1_BN
I0105 21:25:59.599522  2442 net.cpp:106] Creating Layer conv4_1_BN
I0105 21:25:59.599529  2442 net.cpp:454] conv4_1_BN <- conv4_1
I0105 21:25:59.599537  2442 net.cpp:411] conv4_1_BN -> conv4_1_BN
I0105 21:25:59.599673  2442 net.cpp:150] Setting up conv4_1_BN
I0105 21:25:59.599680  2442 net.cpp:157] Top shape: 256 384 7 7 (4816896)
I0105 21:25:59.599685  2442 net.cpp:165] Memory required for data: 823329792
I0105 21:25:59.599696  2442 layer_factory.hpp:76] Creating layer conv5
I0105 21:25:59.599709  2442 net.cpp:106] Creating Layer conv5
I0105 21:25:59.599715  2442 net.cpp:454] conv5 <- conv4_1_BN
I0105 21:25:59.599725  2442 net.cpp:411] conv5 -> conv5
I0105 21:25:59.606784  2442 net.cpp:150] Setting up conv5
I0105 21:25:59.606801  2442 net.cpp:157] Top shape: 256 256 7 7 (3211264)
I0105 21:25:59.606806  2442 net.cpp:165] Memory required for data: 836174848
I0105 21:25:59.606817  2442 layer_factory.hpp:76] Creating layer relu5
I0105 21:25:59.606827  2442 net.cpp:106] Creating Layer relu5
I0105 21:25:59.606833  2442 net.cpp:454] relu5 <- conv5
I0105 21:25:59.606844  2442 net.cpp:397] relu5 -> conv5 (in-place)
I0105 21:25:59.607178  2442 net.cpp:150] Setting up relu5
I0105 21:25:59.607189  2442 net.cpp:157] Top shape: 256 256 7 7 (3211264)
I0105 21:25:59.607194  2442 net.cpp:165] Memory required for data: 849019904
I0105 21:25:59.607213  2442 layer_factory.hpp:76] Creating layer conv5_BN
I0105 21:25:59.607223  2442 net.cpp:106] Creating Layer conv5_BN
I0105 21:25:59.607229  2442 net.cpp:454] conv5_BN <- conv5
I0105 21:25:59.607237  2442 net.cpp:411] conv5_BN -> conv5_BN
I0105 21:25:59.607383  2442 net.cpp:150] Setting up conv5_BN
I0105 21:25:59.607393  2442 net.cpp:157] Top shape: 256 256 7 7 (3211264)
I0105 21:25:59.607398  2442 net.cpp:165] Memory required for data: 861864960
I0105 21:25:59.607419  2442 layer_factory.hpp:76] Creating layer conv5_1
I0105 21:25:59.607440  2442 net.cpp:106] Creating Layer conv5_1
I0105 21:25:59.607448  2442 net.cpp:454] conv5_1 <- conv5_BN
I0105 21:25:59.607460  2442 net.cpp:411] conv5_1 -> conv5_1
I0105 21:25:59.612635  2442 net.cpp:150] Setting up conv5_1
I0105 21:25:59.612648  2442 net.cpp:157] Top shape: 256 256 7 7 (3211264)
I0105 21:25:59.612654  2442 net.cpp:165] Memory required for data: 874710016
I0105 21:25:59.612673  2442 layer_factory.hpp:76] Creating layer relu5_1
I0105 21:25:59.612685  2442 net.cpp:106] Creating Layer relu5_1
I0105 21:25:59.612691  2442 net.cpp:454] relu5_1 <- conv5_1
I0105 21:25:59.612699  2442 net.cpp:397] relu5_1 -> conv5_1 (in-place)
I0105 21:25:59.612782  2442 net.cpp:150] Setting up relu5_1
I0105 21:25:59.612792  2442 net.cpp:157] Top shape: 256 256 7 7 (3211264)
I0105 21:25:59.612797  2442 net.cpp:165] Memory required for data: 887555072
I0105 21:25:59.612813  2442 layer_factory.hpp:76] Creating layer conv5_1_BN
I0105 21:25:59.612823  2442 net.cpp:106] Creating Layer conv5_1_BN
I0105 21:25:59.612829  2442 net.cpp:454] conv5_1_BN <- conv5_1
I0105 21:25:59.612838  2442 net.cpp:411] conv5_1_BN -> conv5_1_BN
I0105 21:25:59.612989  2442 net.cpp:150] Setting up conv5_1_BN
I0105 21:25:59.612998  2442 net.cpp:157] Top shape: 256 256 7 7 (3211264)
I0105 21:25:59.613003  2442 net.cpp:165] Memory required for data: 900400128
I0105 21:25:59.613023  2442 layer_factory.hpp:76] Creating layer pool5
I0105 21:25:59.613032  2442 net.cpp:106] Creating Layer pool5
I0105 21:25:59.613039  2442 net.cpp:454] pool5 <- conv5_1_BN
I0105 21:25:59.613046  2442 net.cpp:411] pool5 -> pool5
I0105 21:25:59.613286  2442 net.cpp:150] Setting up pool5
I0105 21:25:59.613296  2442 net.cpp:157] Top shape: 256 256 3 3 (589824)
I0105 21:25:59.613302  2442 net.cpp:165] Memory required for data: 902759424
I0105 21:25:59.613317  2442 layer_factory.hpp:76] Creating layer fc6
I0105 21:25:59.613332  2442 net.cpp:106] Creating Layer fc6
I0105 21:25:59.613338  2442 net.cpp:454] fc6 <- pool5
I0105 21:25:59.613346  2442 net.cpp:411] fc6 -> fc6
I0105 21:25:59.713546  2442 net.cpp:150] Setting up fc6
I0105 21:25:59.713582  2442 net.cpp:157] Top shape: 256 2048 (524288)
I0105 21:25:59.713588  2442 net.cpp:165] Memory required for data: 904856576
I0105 21:25:59.713610  2442 layer_factory.hpp:76] Creating layer relu6
I0105 21:25:59.713629  2442 net.cpp:106] Creating Layer relu6
I0105 21:25:59.713639  2442 net.cpp:454] relu6 <- fc6
I0105 21:25:59.713649  2442 net.cpp:397] relu6 -> fc6 (in-place)
I0105 21:25:59.713726  2442 net.cpp:150] Setting up relu6
I0105 21:25:59.713734  2442 net.cpp:157] Top shape: 256 2048 (524288)
I0105 21:25:59.713739  2442 net.cpp:165] Memory required for data: 906953728
I0105 21:25:59.713757  2442 layer_factory.hpp:76] Creating layer fc6_BN
I0105 21:25:59.713767  2442 net.cpp:106] Creating Layer fc6_BN
I0105 21:25:59.713773  2442 net.cpp:454] fc6_BN <- fc6
I0105 21:25:59.713780  2442 net.cpp:411] fc6_BN -> fc6_BN
I0105 21:25:59.713932  2442 net.cpp:150] Setting up fc6_BN
I0105 21:25:59.713939  2442 net.cpp:157] Top shape: 256 2048 (524288)
I0105 21:25:59.713944  2442 net.cpp:165] Memory required for data: 909050880
I0105 21:25:59.713965  2442 layer_factory.hpp:76] Creating layer drop6
I0105 21:25:59.714006  2442 net.cpp:106] Creating Layer drop6
I0105 21:25:59.714022  2442 net.cpp:454] drop6 <- fc6_BN
I0105 21:25:59.714030  2442 net.cpp:411] drop6 -> drop6
I0105 21:25:59.714107  2442 net.cpp:150] Setting up drop6
I0105 21:25:59.714125  2442 net.cpp:157] Top shape: 256 2048 (524288)
I0105 21:25:59.714130  2442 net.cpp:165] Memory required for data: 911148032
I0105 21:25:59.714148  2442 layer_factory.hpp:76] Creating layer fc7
I0105 21:25:59.714159  2442 net.cpp:106] Creating Layer fc7
I0105 21:25:59.714165  2442 net.cpp:454] fc7 <- drop6
I0105 21:25:59.714174  2442 net.cpp:411] fc7 -> fc7
I0105 21:25:59.802172  2442 net.cpp:150] Setting up fc7
I0105 21:25:59.802197  2442 net.cpp:157] Top shape: 256 2048 (524288)
I0105 21:25:59.802202  2442 net.cpp:165] Memory required for data: 913245184
I0105 21:25:59.802213  2442 layer_factory.hpp:76] Creating layer relu7
I0105 21:25:59.802227  2442 net.cpp:106] Creating Layer relu7
I0105 21:25:59.802235  2442 net.cpp:454] relu7 <- fc7
I0105 21:25:59.802244  2442 net.cpp:397] relu7 -> fc7 (in-place)
I0105 21:25:59.802352  2442 net.cpp:150] Setting up relu7
I0105 21:25:59.802361  2442 net.cpp:157] Top shape: 256 2048 (524288)
I0105 21:25:59.802366  2442 net.cpp:165] Memory required for data: 915342336
I0105 21:25:59.802383  2442 layer_factory.hpp:76] Creating layer fc7_BN
I0105 21:25:59.802392  2442 net.cpp:106] Creating Layer fc7_BN
I0105 21:25:59.802398  2442 net.cpp:454] fc7_BN <- fc7
I0105 21:25:59.802407  2442 net.cpp:411] fc7_BN -> fc7_BN
I0105 21:25:59.802557  2442 net.cpp:150] Setting up fc7_BN
I0105 21:25:59.802567  2442 net.cpp:157] Top shape: 256 2048 (524288)
I0105 21:25:59.802572  2442 net.cpp:165] Memory required for data: 917439488
I0105 21:25:59.802606  2442 layer_factory.hpp:76] Creating layer drop7
I0105 21:25:59.802616  2442 net.cpp:106] Creating Layer drop7
I0105 21:25:59.802623  2442 net.cpp:454] drop7 <- fc7_BN
I0105 21:25:59.802631  2442 net.cpp:411] drop7 -> drop7
I0105 21:25:59.802667  2442 net.cpp:150] Setting up drop7
I0105 21:25:59.802685  2442 net.cpp:157] Top shape: 256 2048 (524288)
I0105 21:25:59.802690  2442 net.cpp:165] Memory required for data: 919536640
I0105 21:25:59.802706  2442 layer_factory.hpp:76] Creating layer fc8
I0105 21:25:59.802718  2442 net.cpp:106] Creating Layer fc8
I0105 21:25:59.802723  2442 net.cpp:454] fc8 <- drop7
I0105 21:25:59.802731  2442 net.cpp:411] fc8 -> fc8
I0105 21:26:04.218813  2458 caffe.cpp:184] Using GPUs 0
I0105 21:26:04.375654  2458 solver.cpp:48] Initializing solver from parameters: 
…
