…
I0110 03:53:56.646013  2541 net.cpp:322] The NetState phase (0) differed from the phase (1) specified by a rule in layer accuracy
I0110 03:53:56.646399  2541 net.cpp:49] Initializing net from parameters: 
name: "CaffeNet"
state {
  phase: TRAIN
}
layer {
  name: "data"
  type: "Data"
  top: "data"
  top: "label"
  include {
    phase: TRAIN
  }
  transform_param {
    mirror: true
    crop_size: 128
    mean_value: 104
    mean_value: 117
    mean_value: 124
  }
  data_param {
    source: "/media/dereyly/data_one/data/CAFFE_DATA/ilsvrc12_train_lmdb_144"
    batch_size: 256
    backend: LMDB
  }
}
layer {
  name: "conv1"
  type: "Convolution"
  bottom: "data"
  top: "conv1"
  param {
    lr_mult: 1
    decay_mult: 1
  }
  param {
    lr_mult: 2
    decay_mult: 0
  }
  convolution_param {
    num_output: 96
    kernel_size: 11
    stride: 4
    weight_filler {
      type: "msra"
      std: 0.01
    }
    bias_filler {
      type: "constant"
    }
  }
}
layer {
  name: "relu1"
  type: "PReLU"
  bottom: "conv1"
  top: "conv1"
  prelu_param {
    filler {
      type: "constant"
      value: 0.3
    }
    channel_shared: false
  }
}
layer {
  name: "pool1"
  type: "Pooling"
  bottom: "conv1"
  top: "pool1"
  pooling_param {
    pool: MAX
    kernel_size: 3
    stride: 2
  }
}
layer {
  name: "conv1_BN"
  type: "BatchNorm"
  bottom: "pool1"
  top: "conv1_BN"
}
layer {
  name: "conv2"
  type: "Convolution"
  bottom: "conv1_BN"
  top: "conv2"
  param {
    lr_mult: 1
    decay_mult: 1
  }
  param {
    lr_mult: 2
    decay_mult: 0
  }
  convolution_param {
    num_output: 256
    pad: 1
    kernel_size: 3
    weight_filler {
      type: "msra"
      std: 0.01
    }
    bias_filler {
      type: "constant"
    }
  }
}
layer {
  name: "relu2"
  type: "PReLU"
  bottom: "conv2"
  top: "conv2"
  prelu_param {
    filler {
      type: "constant"
      value: 0.3
    }
    channel_shared: false
  }
}
layer {
  name: "conv2_1_BN"
  type: "BatchNorm"
  bottom: "conv2"
  top: "conv2_1_BN"
}
layer {
  name: "conv2_1"
  type: "Convolution"
  bottom: "conv2_1_BN"
  top: "conv2_1"
  param {
    lr_mult: 1
    decay_mult: 1
  }
  param {
    lr_mult: 2
    decay_mult: 0
  }
  convolution_param {
    num_output: 256
    pad: 0
    kernel_size: 1
    weight_filler {
      type: "msra"
      std: 0.01
    }
    bias_filler {
      type: "constant"
    }
  }
}
layer {
  name: "relu2_1"
  type: "PReLU"
  bottom: "conv2_1"
  top: "conv2_1"
  prelu_param {
    filler {
      type: "constant"
      value: 0.3
    }
    channel_shared: false
  }
}
layer {
  name: "conv2_2_BN"
  type: "BatchNorm"
  bottom: "conv2_1"
  top: "conv2_2_BN"
}
layer {
  name: "conv2_2"
  type: "Convolution"
  bottom: "conv2_2_BN"
  top: "conv2_2"
  param {
    lr_mult: 1
    decay_mult: 1
  }
  param {
    lr_mult: 2
    decay_mult: 0
  }
  convolution_param {
    num_output: 256
    pad: 1
    kernel_size: 3
    weight_filler {
      type: "msra"
      std: 0.01
    }
    bias_filler {
      type: "constant"
    }
  }
}
layer {
  name: "relu2_2"
  type: "PReLU"
  bottom: "conv2_2"
  top: "conv2_2"
  prelu_param {
    filler {
      type: "constant"
      value: 0.3
    }
    channel_shared: false
  }
}
layer {
  name: "conv2_3_BN"
  type: "BatchNorm"
  bottom: "conv2_2"
  top: "conv2_3_BN"
}
layer {
  name: "conv2_3"
  type: "Convolution"
  bottom: "conv2_3_BN"
  top: "conv2_3"
  param {
    lr_mult: 1
    decay_mult: 1
  }
  param {
    lr_mult: 2
    decay_mult: 0
  }
  convolution_param {
    num_output: 256
    pad: 0
    kernel_size: 1
    weight_filler {
      type: "msra"
      std: 0.01
    }
    bias_filler {
      type: "constant"
    }
  }
}
layer {
  name: "relu2_3"
  type: "PReLU"
  bottom: "conv2_3"
  top: "conv2_3"
  prelu_param {
    filler {
      type: "constant"
      value: 0.3
    }
    channel_shared: false
  }
}
layer {
  name: "pool2"
  type: "Pooling"
  bottom: "conv2_3"
  top: "pool2"
  pooling_param {
    pool: MAX
    kernel_size: 3
    stride: 2
  }
}
layer {
  name: "conv2_BN"
  type: "BatchNorm"
  bottom: "pool2"
  top: "conv2_BN"
}
layer {
  name: "conv3"
  type: "Convolution"
  bottom: "conv2_BN"
  top: "conv3"
  param {
    lr_mult: 1
    decay_mult: 1
  }
  param {
    lr_mult: 2
    decay_mult: 0
  }
  convolution_param {
    num_output: 384
    pad: 1
    kernel_size: 3
    weight_filler {
      type: "msra"
      std: 0.01
    }
    bias_filler {
      type: "constant"
    }
  }
}
layer {
  name: "relu3"
  type: "PReLU"
  bottom: "conv3"
  top: "conv3"
  prelu_param {
    filler {
      type: "constant"
      value: 0.3
    }
    channel_shared: false
  }
}
layer {
  name: "conv3_BN"
  type: "BatchNorm"
  bottom: "conv3"
  top: "conv3_BN"
}
layer {
  name: "conv3_1"
  type: "Convolution"
  bottom: "conv3_BN"
  top: "conv3_1"
  param {
    lr_mult: 1
    decay_mult: 1
  }
  param {
    lr_mult: 2
    decay_mult: 0
  }
  convolution_param {
    num_output: 384
    pad: 0
    kernel_size: 1
    weight_filler {
      type: "msra"
      std: 0.01
    }
    bias_filler {
      type: "constant"
    }
  }
}
layer {
  name: "relu3_1"
  type: "PReLU"
  bottom: "conv3_1"
  top: "conv3_1"
  prelu_param {
    filler {
      type: "constant"
      value: 0.3
    }
    channel_shared: false
  }
}
layer {
  name: "conv3_1_BN"
  type: "BatchNorm"
  bottom: "conv3_1"
  top: "conv3_1_BN"
}
layer {
  name: "conv4"
  type: "Convolution"
  bottom: "conv3_1_BN"
  top: "conv4"
  param {
    lr_mult: 1
    decay_mult: 1
  }
  param {
    lr_mult: 2
    decay_mult: 0
  }
  convolution_param {
    num_output: 384
    pad: 1
    kernel_size: 3
    group: 2
    weight_filler {
      type: "msra"
      std: 0.01
    }
    bias_filler {
      type: "constant"
    }
  }
}
layer {
  name: "relu4"
  type: "PReLU"
  bottom: "conv4"
  top: "conv4"
  prelu_param {
    filler {
      type: "constant"
      value: 0.3
    }
    channel_shared: false
  }
}
layer {
  name: "conv4_BN"
  type: "BatchNorm"
  bottom: "conv4"
  top: "conv4_BN"
}
layer {
  name: "conv4_1"
  type: "Convolution"
  bottom: "conv4_BN"
  top: "conv4_1"
  param {
    lr_mult: 1
    decay_mult: 1
  }
  param {
    lr_mult: 2
    decay_mult: 0
  }
  convolution_param {
    num_output: 384
    pad: 0
    kernel_size: 1
    weight_filler {
      type: "msra"
      std: 0.01
    }
    bias_filler {
      type: "constant"
    }
  }
}
layer {
  name: "relu4_1"
  type: "PReLU"
  bottom: "conv4_1"
  top: "conv4_1"
  prelu_param {
    filler {
      type: "constant"
      value: 0.3
    }
    channel_shared: false
  }
}
layer {
  name: "conv4_1_BN"
  type: "BatchNorm"
  bottom: "conv4_1"
  top: "conv4_1_BN"
}
layer {
  name: "conv5"
  type: "Convolution"
  bottom: "conv4_1_BN"
  top: "conv5"
  param {
    lr_mult: 1
    decay_mult: 1
  }
  param {
    lr_mult: 2
    decay_mult: 0
  }
  convolution_param {
    num_output: 256
    pad: 1
    kernel_size: 3
    group: 2
    weight_filler {
      type: "msra"
      std: 0.01
    }
    bias_filler {
      type: "constant"
    }
  }
}
layer {
  name: "relu5"
  type: "PReLU"
  bottom: "conv5"
  top: "conv5"
  prelu_param {
    filler {
      type: "constant"
      value: 0.3
    }
    channel_shared: false
  }
}
layer {
  name: "conv5_BN"
  type: "BatchNorm"
  bottom: "conv5"
  top: "conv5_BN"
}
layer {
  name: "conv5_1"
  type: "Convolution"
  bottom: "conv5_BN"
  top: "conv5_1"
  param {
    lr_mult: 1
    decay_mult: 1
  }
  param {
    lr_mult: 2
    decay_mult: 0
  }
  convolution_param {
    num_output: 256
    pad: 0
    kernel_size: 1
    weight_filler {
      type: "msra"
      std: 0.01
    }
    bias_filler {
      type: "constant"
    }
  }
}
layer {
  name: "relu5_1"
  type: "PReLU"
  bottom: "conv5_1"
  top: "conv5_1"
  prelu_param {
    filler {
      type: "constant"
      value: 0.3
    }
    channel_shared: false
  }
}
layer {
  name: "conv5_1_BN"
  type: "BatchNorm"
  bottom: "conv5_1"
  top: "conv5_1_BN"
}
layer {
  name: "pool5"
  type: "Pooling"
  bottom: "conv5_1_BN"
  top: "pool5"
  pooling_param {
    pool: MAX
    kernel_size: 3
    stride: 2
  }
}
layer {
  name: "fc6"
  type: "InnerProduct"
  bottom: "pool5"
  top: "fc6"
  param {
    lr_mult: 1
    decay_mult: 1
  }
  param {
    lr_mult: 2
    decay_mult: 0
  }
  inner_product_param {
    num_output: 2048
    weight_filler {
      type: "gaussian"
      std: 0.005
    }
    bias_filler {
      type: "constant"
    }
  }
}
layer {
  name: "relu6"
  type: "PReLU"
  bottom: "fc6"
  top: "fc6"
  prelu_param {
    filler {
      type: "constant"
      value: 0.3
    }
    channel_shared: false
  }
}
layer {
  name: "fc6_BN"
  type: "BatchNorm"
  bottom: "fc6"
  top: "fc6_BN"
}
layer {
  name: "drop6"
  type: "Dropout"
  bottom: "fc6_BN"
  top: "drop6"
  dropout_param {
    dropout_ratio: 0.2
  }
}
layer {
  name: "fc7"
  type: "InnerProduct"
  bottom: "drop6"
  top: "fc7"
  param {
    lr_mult: 1
    decay_mult: 1
  }
  param {
    lr_mult: 2
    decay_mult: 0
  }
  inner_product_param {
    num_output: 2048
    weight_filler {
      type: "gaussian"
      std: 0.005
    }
    bias_filler {
      type: "constant"
    }
  }
}
layer {
  name: "relu7"
  type: "PReLU"
  bottom: "fc7"
  top: "fc7"
  prelu_param {
    filler {
      type: "constant"
      value: 0.3
    }
    channel_shared: false
  }
}
layer {
  name: "fc7_BN"
  type: "BatchNorm"
  bottom: "fc7"
  top: "fc7_BN"
}
layer {
  name: "drop7"
  type: "Dropout"
  bottom: "fc7_BN"
  top: "drop7"
  dropout_param {
    dropout_ratio: 0.2
  }
}
layer {
  name: "fc8"
  type: "InnerProduct"
  bottom: "drop7"
  top: "fc8"
  param {
    lr_mult: 1
    decay_mult: 1
  }
  param {
    lr_mult: 2
    decay_mult: 0
  }
  inner_product_param {
    num_output: 1000
    weight_filler {
      type: "gaussian"
      std: 0.01
    }
    bias_filler {
      type: "constant"
    }
  }
}
layer {
  name: "loss"
  type: "SoftmaxWithLoss"
  bottom: "fc8"
  bottom: "label"
  top: "loss"
}
I0110 03:53:56.646539  2541 layer_factory.hpp:76] Creating layer data
I0110 03:53:56.666666  2541 net.cpp:106] Creating Layer data
I0110 03:53:56.666682  2541 net.cpp:411] data -> data
I0110 03:53:56.666717  2541 net.cpp:411] data -> label
I0110 03:53:56.712000  2554 db_lmdb.cpp:38] Opened lmdb /media/dereyly/data_one/data/CAFFE_DATA/ilsvrc12_train_lmdb_144
I0110 03:53:56.825111  2541 data_layer.cpp:41] output data size: 256,3,128,128
I0110 03:53:56.880149  2541 net.cpp:150] Setting up data
I0110 03:53:56.880174  2541 net.cpp:157] Top shape: 256 3 128 128 (12582912)
I0110 03:53:56.880179  2541 net.cpp:157] Top shape: 256 (256)
I0110 03:53:56.880182  2541 net.cpp:165] Memory required for data: 50332672
I0110 03:53:56.880194  2541 layer_factory.hpp:76] Creating layer conv1
I0110 03:53:56.880234  2541 net.cpp:106] Creating Layer conv1
I0110 03:53:56.880277  2541 net.cpp:454] conv1 <- data
I0110 03:53:56.880312  2541 net.cpp:411] conv1 -> conv1
I0110 03:53:56.899075  2555 blocking_queue.cpp:50] Waiting for data
I0110 03:53:57.724726  2541 net.cpp:150] Setting up conv1
I0110 03:53:57.724746  2541 net.cpp:157] Top shape: 256 96 30 30 (22118400)
I0110 03:53:57.724751  2541 net.cpp:165] Memory required for data: 138806272
I0110 03:53:57.724768  2541 layer_factory.hpp:76] Creating layer relu1
I0110 03:53:57.724779  2541 net.cpp:106] Creating Layer relu1
I0110 03:53:57.724786  2541 net.cpp:454] relu1 <- conv1
I0110 03:53:57.724802  2541 net.cpp:397] relu1 -> conv1 (in-place)
I0110 03:53:57.725154  2541 net.cpp:150] Setting up relu1
I0110 03:53:57.725164  2541 net.cpp:157] Top shape: 256 96 30 30 (22118400)
I0110 03:53:57.725167  2541 net.cpp:165] Memory required for data: 227279872
I0110 03:53:57.725173  2541 layer_factory.hpp:76] Creating layer pool1
I0110 03:53:57.725201  2541 net.cpp:106] Creating Layer pool1
I0110 03:53:57.725205  2541 net.cpp:454] pool1 <- conv1
I0110 03:53:57.725210  2541 net.cpp:411] pool1 -> pool1
I0110 03:53:57.725774  2541 net.cpp:150] Setting up pool1
I0110 03:53:57.725783  2541 net.cpp:157] Top shape: 256 96 15 15 (5529600)
I0110 03:53:57.725787  2541 net.cpp:165] Memory required for data: 249398272
I0110 03:53:57.725791  2541 layer_factory.hpp:76] Creating layer conv1_BN
I0110 03:53:57.725800  2541 net.cpp:106] Creating Layer conv1_BN
I0110 03:53:57.725803  2541 net.cpp:454] conv1_BN <- pool1
I0110 03:53:57.725818  2541 net.cpp:411] conv1_BN -> conv1_BN
I0110 03:53:57.725967  2541 net.cpp:150] Setting up conv1_BN
I0110 03:53:57.725975  2541 net.cpp:157] Top shape: 256 96 15 15 (5529600)
I0110 03:53:57.725978  2541 net.cpp:165] Memory required for data: 271516672
I0110 03:53:57.725986  2541 layer_factory.hpp:76] Creating layer conv2
I0110 03:53:57.725994  2541 net.cpp:106] Creating Layer conv2
I0110 03:53:57.726008  2541 net.cpp:454] conv2 <- conv1_BN
I0110 03:53:57.726013  2541 net.cpp:411] conv2 -> conv2
I0110 03:53:57.731521  2541 net.cpp:150] Setting up conv2
I0110 03:53:57.731534  2541 net.cpp:157] Top shape: 256 256 15 15 (14745600)
I0110 03:53:57.731537  2541 net.cpp:165] Memory required for data: 330499072
I0110 03:53:57.731544  2541 layer_factory.hpp:76] Creating layer relu2
I0110 03:53:57.731549  2541 net.cpp:106] Creating Layer relu2
I0110 03:53:57.731552  2541 net.cpp:454] relu2 <- conv2
I0110 03:53:57.731569  2541 net.cpp:397] relu2 -> conv2 (in-place)
I0110 03:53:57.731672  2541 net.cpp:150] Setting up relu2
I0110 03:53:57.731678  2541 net.cpp:157] Top shape: 256 256 15 15 (14745600)
I0110 03:53:57.731681  2541 net.cpp:165] Memory required for data: 389481472
I0110 03:53:57.731688  2541 layer_factory.hpp:76] Creating layer conv2_1_BN
I0110 03:53:57.731693  2541 net.cpp:106] Creating Layer conv2_1_BN
I0110 03:53:57.731696  2541 net.cpp:454] conv2_1_BN <- conv2
I0110 03:53:57.731712  2541 net.cpp:411] conv2_1_BN -> conv2_1_BN
I0110 03:53:57.731847  2541 net.cpp:150] Setting up conv2_1_BN
I0110 03:53:57.731851  2541 net.cpp:157] Top shape: 256 256 15 15 (14745600)
I0110 03:53:57.731854  2541 net.cpp:165] Memory required for data: 448463872
I0110 03:53:57.731861  2541 layer_factory.hpp:76] Creating layer conv2_1
I0110 03:53:57.731869  2541 net.cpp:106] Creating Layer conv2_1
I0110 03:53:57.731873  2541 net.cpp:454] conv2_1 <- conv2_1_BN
I0110 03:53:57.731889  2541 net.cpp:411] conv2_1 -> conv2_1
I0110 03:53:57.733916  2541 net.cpp:150] Setting up conv2_1
I0110 03:53:57.733927  2541 net.cpp:157] Top shape: 256 256 15 15 (14745600)
I0110 03:53:57.733930  2541 net.cpp:165] Memory required for data: 507446272
I0110 03:53:57.733935  2541 layer_factory.hpp:76] Creating layer relu2_1
I0110 03:53:57.733942  2541 net.cpp:106] Creating Layer relu2_1
I0110 03:53:57.733947  2541 net.cpp:454] relu2_1 <- conv2_1
I0110 03:53:57.733973  2541 net.cpp:397] relu2_1 -> conv2_1 (in-place)
I0110 03:53:57.734071  2541 net.cpp:150] Setting up relu2_1
I0110 03:53:57.734078  2541 net.cpp:157] Top shape: 256 256 15 15 (14745600)
I0110 03:53:57.734081  2541 net.cpp:165] Memory required for data: 566428672
I0110 03:53:57.734086  2541 layer_factory.hpp:76] Creating layer conv2_2_BN
I0110 03:53:57.734091  2541 net.cpp:106] Creating Layer conv2_2_BN
I0110 03:53:57.734094  2541 net.cpp:454] conv2_2_BN <- conv2_1
I0110 03:53:57.734098  2541 net.cpp:411] conv2_2_BN -> conv2_2_BN
I0110 03:53:57.734244  2541 net.cpp:150] Setting up conv2_2_BN
I0110 03:53:57.734251  2541 net.cpp:157] Top shape: 256 256 15 15 (14745600)
I0110 03:53:57.734254  2541 net.cpp:165] Memory required for data: 625411072
I0110 03:53:57.734263  2541 layer_factory.hpp:76] Creating layer conv2_2
I0110 03:53:57.734269  2541 net.cpp:106] Creating Layer conv2_2
I0110 03:53:57.734272  2541 net.cpp:454] conv2_2 <- conv2_2_BN
I0110 03:53:57.734278  2541 net.cpp:411] conv2_2 -> conv2_2
I0110 03:53:57.747439  2541 net.cpp:150] Setting up conv2_2
I0110 03:53:57.747457  2541 net.cpp:157] Top shape: 256 256 15 15 (14745600)
I0110 03:53:57.747473  2541 net.cpp:165] Memory required for data: 684393472
I0110 03:53:57.747491  2541 layer_factory.hpp:76] Creating layer relu2_2
I0110 03:53:57.747501  2541 net.cpp:106] Creating Layer relu2_2
I0110 03:53:57.747505  2541 net.cpp:454] relu2_2 <- conv2_2
I0110 03:53:57.747511  2541 net.cpp:397] relu2_2 -> conv2_2 (in-place)
I0110 03:53:57.747856  2541 net.cpp:150] Setting up relu2_2
I0110 03:53:57.747866  2541 net.cpp:157] Top shape: 256 256 15 15 (14745600)
I0110 03:53:57.747869  2541 net.cpp:165] Memory required for data: 743375872
I0110 03:53:57.747874  2541 layer_factory.hpp:76] Creating layer conv2_3_BN
I0110 03:53:57.747880  2541 net.cpp:106] Creating Layer conv2_3_BN
I0110 03:53:57.747884  2541 net.cpp:454] conv2_3_BN <- conv2_2
I0110 03:53:57.747900  2541 net.cpp:411] conv2_3_BN -> conv2_3_BN
I0110 03:53:57.748037  2541 net.cpp:150] Setting up conv2_3_BN
I0110 03:53:57.748044  2541 net.cpp:157] Top shape: 256 256 15 15 (14745600)
I0110 03:53:57.748046  2541 net.cpp:165] Memory required for data: 802358272
I0110 03:53:57.748052  2541 layer_factory.hpp:76] Creating layer conv2_3
I0110 03:53:57.748060  2541 net.cpp:106] Creating Layer conv2_3
I0110 03:53:57.748064  2541 net.cpp:454] conv2_3 <- conv2_3_BN
I0110 03:53:57.748080  2541 net.cpp:411] conv2_3 -> conv2_3
I0110 03:53:57.750043  2541 net.cpp:150] Setting up conv2_3
I0110 03:53:57.750054  2541 net.cpp:157] Top shape: 256 256 15 15 (14745600)
I0110 03:53:57.750058  2541 net.cpp:165] Memory required for data: 861340672
I0110 03:53:57.750063  2541 layer_factory.hpp:76] Creating layer relu2_3
I0110 03:53:57.750071  2541 net.cpp:106] Creating Layer relu2_3
I0110 03:53:57.750073  2541 net.cpp:454] relu2_3 <- conv2_3
I0110 03:53:57.750089  2541 net.cpp:397] relu2_3 -> conv2_3 (in-place)
I0110 03:53:57.750187  2541 net.cpp:150] Setting up relu2_3
I0110 03:53:57.750216  2541 net.cpp:157] Top shape: 256 256 15 15 (14745600)
I0110 03:53:57.750218  2541 net.cpp:165] Memory required for data: 920323072
I0110 03:53:57.750223  2541 layer_factory.hpp:76] Creating layer pool2
I0110 03:53:57.750244  2541 net.cpp:106] Creating Layer pool2
I0110 03:53:57.750250  2541 net.cpp:454] pool2 <- conv2_3
I0110 03:53:57.750258  2541 net.cpp:411] pool2 -> pool2
I0110 03:53:57.750537  2541 net.cpp:150] Setting up pool2
I0110 03:53:57.750547  2541 net.cpp:157] Top shape: 256 256 7 7 (3211264)
I0110 03:53:57.750551  2541 net.cpp:165] Memory required for data: 933168128
I0110 03:53:57.750555  2541 layer_factory.hpp:76] Creating layer conv2_BN
I0110 03:53:57.750560  2541 net.cpp:106] Creating Layer conv2_BN
I0110 03:53:57.750563  2541 net.cpp:454] conv2_BN <- pool2
I0110 03:53:57.750568  2541 net.cpp:411] conv2_BN -> conv2_BN
I0110 03:53:57.750725  2541 net.cpp:150] Setting up conv2_BN
I0110 03:53:57.750741  2541 net.cpp:157] Top shape: 256 256 7 7 (3211264)
I0110 03:53:57.750744  2541 net.cpp:165] Memory required for data: 946013184
I0110 03:53:57.750762  2541 layer_factory.hpp:76] Creating layer conv3
I0110 03:53:57.750769  2541 net.cpp:106] Creating Layer conv3
I0110 03:53:57.750772  2541 net.cpp:454] conv3 <- conv2_BN
I0110 03:53:57.750777  2541 net.cpp:411] conv3 -> conv3
I0110 03:53:57.770681  2541 net.cpp:150] Setting up conv3
I0110 03:53:57.770710  2541 net.cpp:157] Top shape: 256 384 7 7 (4816896)
I0110 03:53:57.770714  2541 net.cpp:165] Memory required for data: 965280768
I0110 03:53:57.770722  2541 layer_factory.hpp:76] Creating layer relu3
I0110 03:53:57.770733  2541 net.cpp:106] Creating Layer relu3
I0110 03:53:57.770737  2541 net.cpp:454] relu3 <- conv3
I0110 03:53:57.770743  2541 net.cpp:397] relu3 -> conv3 (in-place)
I0110 03:53:57.770823  2541 net.cpp:150] Setting up relu3
I0110 03:53:57.770829  2541 net.cpp:157] Top shape: 256 384 7 7 (4816896)
I0110 03:53:57.770843  2541 net.cpp:165] Memory required for data: 984548352
I0110 03:53:57.770853  2541 layer_factory.hpp:76] Creating layer conv3_BN
I0110 03:53:57.770859  2541 net.cpp:106] Creating Layer conv3_BN
I0110 03:53:57.770861  2541 net.cpp:454] conv3_BN <- conv3
I0110 03:53:57.770877  2541 net.cpp:411] conv3_BN -> conv3_BN
I0110 03:53:57.771013  2541 net.cpp:150] Setting up conv3_BN
I0110 03:53:57.771019  2541 net.cpp:157] Top shape: 256 384 7 7 (4816896)
I0110 03:53:57.771033  2541 net.cpp:165] Memory required for data: 1003815936
I0110 03:53:57.771039  2541 layer_factory.hpp:76] Creating layer conv3_1
I0110 03:53:57.771047  2541 net.cpp:106] Creating Layer conv3_1
I0110 03:53:57.771051  2541 net.cpp:454] conv3_1 <- conv3_BN
I0110 03:53:57.771057  2541 net.cpp:411] conv3_1 -> conv3_1
I0110 03:53:57.774785  2541 net.cpp:150] Setting up conv3_1
I0110 03:53:57.774806  2541 net.cpp:157] Top shape: 256 384 7 7 (4816896)
I0110 03:53:57.774811  2541 net.cpp:165] Memory required for data: 1023083520
I0110 03:53:57.774816  2541 layer_factory.hpp:76] Creating layer relu3_1
I0110 03:53:57.774824  2541 net.cpp:106] Creating Layer relu3_1
I0110 03:53:57.774827  2541 net.cpp:454] relu3_1 <- conv3_1
I0110 03:53:57.774832  2541 net.cpp:397] relu3_1 -> conv3_1 (in-place)
I0110 03:53:57.774910  2541 net.cpp:150] Setting up relu3_1
I0110 03:53:57.774916  2541 net.cpp:157] Top shape: 256 384 7 7 (4816896)
I0110 03:53:57.774930  2541 net.cpp:165] Memory required for data: 1042351104
I0110 03:53:57.774935  2541 layer_factory.hpp:76] Creating layer conv3_1_BN
I0110 03:53:57.774940  2541 net.cpp:106] Creating Layer conv3_1_BN
I0110 03:53:57.774942  2541 net.cpp:454] conv3_1_BN <- conv3_1
I0110 03:53:57.774947  2541 net.cpp:411] conv3_1_BN -> conv3_1_BN
I0110 03:53:57.775085  2541 net.cpp:150] Setting up conv3_1_BN
I0110 03:53:57.775091  2541 net.cpp:157] Top shape: 256 384 7 7 (4816896)
I0110 03:53:57.775105  2541 net.cpp:165] Memory required for data: 1061618688
I0110 03:53:57.775111  2541 layer_factory.hpp:76] Creating layer conv4
I0110 03:53:57.775117  2541 net.cpp:106] Creating Layer conv4
I0110 03:53:57.775120  2541 net.cpp:454] conv4 <- conv3_1_BN
I0110 03:53:57.775126  2541 net.cpp:411] conv4 -> conv4
I0110 03:53:57.791080  2541 net.cpp:150] Setting up conv4
I0110 03:53:57.791110  2541 net.cpp:157] Top shape: 256 384 7 7 (4816896)
I0110 03:53:57.791113  2541 net.cpp:165] Memory required for data: 1080886272
I0110 03:53:57.791121  2541 layer_factory.hpp:76] Creating layer relu4
I0110 03:53:57.791131  2541 net.cpp:106] Creating Layer relu4
I0110 03:53:57.791136  2541 net.cpp:454] relu4 <- conv4
I0110 03:53:57.791141  2541 net.cpp:397] relu4 -> conv4 (in-place)
I0110 03:53:57.791227  2541 net.cpp:150] Setting up relu4
I0110 03:53:57.791234  2541 net.cpp:157] Top shape: 256 384 7 7 (4816896)
I0110 03:53:57.791246  2541 net.cpp:165] Memory required for data: 1100153856
I0110 03:53:57.791251  2541 layer_factory.hpp:76] Creating layer conv4_BN
I0110 03:53:57.791256  2541 net.cpp:106] Creating Layer conv4_BN
I0110 03:53:57.791260  2541 net.cpp:454] conv4_BN <- conv4
I0110 03:53:57.791265  2541 net.cpp:411] conv4_BN -> conv4_BN
I0110 03:53:57.791404  2541 net.cpp:150] Setting up conv4_BN
I0110 03:53:57.791410  2541 net.cpp:157] Top shape: 256 384 7 7 (4816896)
I0110 03:53:57.791424  2541 net.cpp:165] Memory required for data: 1119421440
I0110 03:53:57.791429  2541 layer_factory.hpp:76] Creating layer conv4_1
I0110 03:53:57.791438  2541 net.cpp:106] Creating Layer conv4_1
I0110 03:53:57.791441  2541 net.cpp:454] conv4_1 <- conv4_BN
I0110 03:53:57.791446  2541 net.cpp:411] conv4_1 -> conv4_1
I0110 03:53:57.795415  2541 net.cpp:150] Setting up conv4_1
I0110 03:53:57.795436  2541 net.cpp:157] Top shape: 256 384 7 7 (4816896)
I0110 03:53:57.795440  2541 net.cpp:165] Memory required for data: 1138689024
I0110 03:53:57.795446  2541 layer_factory.hpp:76] Creating layer relu4_1
I0110 03:53:57.795454  2541 net.cpp:106] Creating Layer relu4_1
I0110 03:53:57.795457  2541 net.cpp:454] relu4_1 <- conv4_1
I0110 03:53:57.795462  2541 net.cpp:397] relu4_1 -> conv4_1 (in-place)
I0110 03:53:57.795542  2541 net.cpp:150] Setting up relu4_1
I0110 03:53:57.795547  2541 net.cpp:157] Top shape: 256 384 7 7 (4816896)
I0110 03:53:57.795562  2541 net.cpp:165] Memory required for data: 1157956608
I0110 03:53:57.795565  2541 layer_factory.hpp:76] Creating layer conv4_1_BN
I0110 03:53:57.795583  2541 net.cpp:106] Creating Layer conv4_1_BN
I0110 03:53:57.795586  2541 net.cpp:454] conv4_1_BN <- conv4_1
I0110 03:53:57.795590  2541 net.cpp:411] conv4_1_BN -> conv4_1_BN
I0110 03:53:57.795735  2541 net.cpp:150] Setting up conv4_1_BN
I0110 03:53:57.795754  2541 net.cpp:157] Top shape: 256 384 7 7 (4816896)
I0110 03:53:57.795761  2541 net.cpp:165] Memory required for data: 1177224192
I0110 03:53:57.795773  2541 layer_factory.hpp:76] Creating layer conv5
I0110 03:53:57.795788  2541 net.cpp:106] Creating Layer conv5
I0110 03:53:57.795809  2541 net.cpp:454] conv5 <- conv4_1_BN
I0110 03:53:57.795817  2541 net.cpp:411] conv5 -> conv5
I0110 03:53:57.806382  2541 net.cpp:150] Setting up conv5
I0110 03:53:57.806407  2541 net.cpp:157] Top shape: 256 256 7 7 (3211264)
I0110 03:53:57.806411  2541 net.cpp:165] Memory required for data: 1190069248
I0110 03:53:57.806418  2541 layer_factory.hpp:76] Creating layer relu5
I0110 03:53:57.806427  2541 net.cpp:106] Creating Layer relu5
I0110 03:53:57.806432  2541 net.cpp:454] relu5 <- conv5
I0110 03:53:57.806437  2541 net.cpp:397] relu5 -> conv5 (in-place)
I0110 03:53:57.806773  2541 net.cpp:150] Setting up relu5
I0110 03:53:57.806782  2541 net.cpp:157] Top shape: 256 256 7 7 (3211264)
I0110 03:53:57.806797  2541 net.cpp:165] Memory required for data: 1202914304
I0110 03:53:57.806802  2541 layer_factory.hpp:76] Creating layer conv5_BN
I0110 03:53:57.806810  2541 net.cpp:106] Creating Layer conv5_BN
I0110 03:53:57.806813  2541 net.cpp:454] conv5_BN <- conv5
I0110 03:53:57.806818  2541 net.cpp:411] conv5_BN -> conv5_BN
I0110 03:53:57.806960  2541 net.cpp:150] Setting up conv5_BN
I0110 03:53:57.806967  2541 net.cpp:157] Top shape: 256 256 7 7 (3211264)
I0110 03:53:57.806980  2541 net.cpp:165] Memory required for data: 1215759360
I0110 03:53:57.806987  2541 layer_factory.hpp:76] Creating layer conv5_1
I0110 03:53:57.806994  2541 net.cpp:106] Creating Layer conv5_1
I0110 03:53:57.806998  2541 net.cpp:454] conv5_1 <- conv5_BN
I0110 03:53:57.807003  2541 net.cpp:411] conv5_1 -> conv5_1
I0110 03:53:57.809198  2541 net.cpp:150] Setting up conv5_1
I0110 03:53:57.809208  2541 net.cpp:157] Top shape: 256 256 7 7 (3211264)
I0110 03:53:57.809222  2541 net.cpp:165] Memory required for data: 1228604416
I0110 03:53:57.809228  2541 layer_factory.hpp:76] Creating layer relu5_1
I0110 03:53:57.809234  2541 net.cpp:106] Creating Layer relu5_1
I0110 03:53:57.809238  2541 net.cpp:454] relu5_1 <- conv5_1
I0110 03:53:57.809243  2541 net.cpp:397] relu5_1 -> conv5_1 (in-place)
I0110 03:53:57.809316  2541 net.cpp:150] Setting up relu5_1
I0110 03:53:57.809322  2541 net.cpp:157] Top shape: 256 256 7 7 (3211264)
I0110 03:53:57.809335  2541 net.cpp:165] Memory required for data: 1241449472
I0110 03:53:57.809340  2541 layer_factory.hpp:76] Creating layer conv5_1_BN
I0110 03:53:57.809345  2541 net.cpp:106] Creating Layer conv5_1_BN
I0110 03:53:57.809347  2541 net.cpp:454] conv5_1_BN <- conv5_1
I0110 03:53:57.809352  2541 net.cpp:411] conv5_1_BN -> conv5_1_BN
I0110 03:53:57.809494  2541 net.cpp:150] Setting up conv5_1_BN
I0110 03:53:57.809499  2541 net.cpp:157] Top shape: 256 256 7 7 (3211264)
I0110 03:53:57.809512  2541 net.cpp:165] Memory required for data: 1254294528
I0110 03:53:57.809526  2541 layer_factory.hpp:76] Creating layer pool5
I0110 03:53:57.809533  2541 net.cpp:106] Creating Layer pool5
I0110 03:53:57.809536  2541 net.cpp:454] pool5 <- conv5_1_BN
I0110 03:53:57.809541  2541 net.cpp:411] pool5 -> pool5
I0110 03:53:57.809772  2541 net.cpp:150] Setting up pool5
I0110 03:53:57.809782  2541 net.cpp:157] Top shape: 256 256 3 3 (589824)
I0110 03:53:57.809794  2541 net.cpp:165] Memory required for data: 1256653824
I0110 03:53:57.809798  2541 layer_factory.hpp:76] Creating layer fc6
I0110 03:53:57.809808  2541 net.cpp:106] Creating Layer fc6
I0110 03:53:57.809810  2541 net.cpp:454] fc6 <- pool5
I0110 03:53:57.809818  2541 net.cpp:411] fc6 -> fc6
I0110 03:53:57.908890  2541 net.cpp:150] Setting up fc6
I0110 03:53:57.908926  2541 net.cpp:157] Top shape: 256 2048 (524288)
I0110 03:53:57.908967  2541 net.cpp:165] Memory required for data: 1258750976
I0110 03:53:57.908980  2541 layer_factory.hpp:76] Creating layer relu6
I0110 03:53:57.908994  2541 net.cpp:106] Creating Layer relu6
I0110 03:53:57.908998  2541 net.cpp:454] relu6 <- fc6
I0110 03:53:57.909008  2541 net.cpp:397] relu6 -> fc6 (in-place)
I0110 03:53:57.909092  2541 net.cpp:150] Setting up relu6
I0110 03:53:57.909098  2541 net.cpp:157] Top shape: 256 2048 (524288)
I0110 03:53:57.909111  2541 net.cpp:165] Memory required for data: 1260848128
I0110 03:53:57.909116  2541 layer_factory.hpp:76] Creating layer fc6_BN
I0110 03:53:57.909121  2541 net.cpp:106] Creating Layer fc6_BN
I0110 03:53:57.909124  2541 net.cpp:454] fc6_BN <- fc6
I0110 03:53:57.909139  2541 net.cpp:411] fc6_BN -> fc6_BN
I0110 03:53:57.909294  2541 net.cpp:150] Setting up fc6_BN
I0110 03:53:57.909299  2541 net.cpp:157] Top shape: 256 2048 (524288)
I0110 03:53:57.909313  2541 net.cpp:165] Memory required for data: 1262945280
I0110 03:53:57.909319  2541 layer_factory.hpp:76] Creating layer drop6
I0110 03:53:57.909337  2541 net.cpp:106] Creating Layer drop6
I0110 03:53:57.909342  2541 net.cpp:454] drop6 <- fc6_BN
I0110 03:53:57.909345  2541 net.cpp:411] drop6 -> drop6
I0110 03:53:57.909389  2541 net.cpp:150] Setting up drop6
I0110 03:53:57.909394  2541 net.cpp:157] Top shape: 256 2048 (524288)
I0110 03:53:57.909407  2541 net.cpp:165] Memory required for data: 1265042432
I0110 03:53:57.909410  2541 layer_factory.hpp:76] Creating layer fc7
I0110 03:53:57.909426  2541 net.cpp:106] Creating Layer fc7
I0110 03:53:57.909430  2541 net.cpp:454] fc7 <- drop6
I0110 03:53:57.909436  2541 net.cpp:411] fc7 -> fc7
I0110 03:53:57.997416  2541 net.cpp:150] Setting up fc7
I0110 03:53:57.997452  2541 net.cpp:157] Top shape: 256 2048 (524288)
I0110 03:53:57.997457  2541 net.cpp:165] Memory required for data: 1267139584
I0110 03:53:57.997464  2541 layer_factory.hpp:76] Creating layer relu7
I0110 03:53:57.997485  2541 net.cpp:106] Creating Layer relu7
I0110 03:53:57.997490  2541 net.cpp:454] relu7 <- fc7
I0110 03:53:57.997498  2541 net.cpp:397] relu7 -> fc7 (in-place)
I0110 03:53:57.997578  2541 net.cpp:150] Setting up relu7
I0110 03:53:57.997584  2541 net.cpp:157] Top shape: 256 2048 (524288)
I0110 03:53:57.997597  2541 net.cpp:165] Memory required for data: 1269236736
I0110 03:53:57.997601  2541 layer_factory.hpp:76] Creating layer fc7_BN
I0110 03:53:57.997606  2541 net.cpp:106] Creating Layer fc7_BN
I0110 03:53:57.997609  2541 net.cpp:454] fc7_BN <- fc7
I0110 03:53:57.997627  2541 net.cpp:411] fc7_BN -> fc7_BN
I0110 03:53:57.997779  2541 net.cpp:150] Setting up fc7_BN
I0110 03:53:57.997786  2541 net.cpp:157] Top shape: 256 2048 (524288)
I0110 03:53:57.997798  2541 net.cpp:165] Memory required for data: 1271333888
I0110 03:53:57.997805  2541 layer_factory.hpp:76] Creating layer drop7
I0110 03:53:57.997810  2541 net.cpp:106] Creating Layer drop7
I0110 03:53:57.997825  2541 net.cpp:454] drop7 <- fc7_BN
I0110 03:53:57.997831  2541 net.cpp:411] drop7 -> drop7
I0110 03:53:57.997859  2541 net.cpp:150] Setting up drop7
I0110 03:53:57.997877  2541 net.cpp:157] Top shape: 256 2048 (524288)
I0110 03:53:57.997880  2541 net.cpp:165] Memory required for data: 1273431040
I0110 03:53:57.997884  2541 layer_factory.hpp:76] Creating layer fc8
I0110 03:53:57.997889  2541 net.cpp:106] Creating Layer fc8
I0110 03:53:57.997892  2541 net.cpp:454] fc8 <- drop7
I0110 03:53:57.997897  2541 net.cpp:411] fc8 -> fc8
I0110 03:53:58.040726  2541 net.cpp:150] Setting up fc8
I0110 03:53:58.040748  2541 net.cpp:157] Top shape: 256 1000 (256000)
I0110 03:53:58.040751  2541 net.cpp:165] Memory required for data: 1274455040
I0110 03:53:58.040760  2541 layer_factory.hpp:76] Creating layer loss
I0110 03:53:58.040771  2541 net.cpp:106] Creating Layer loss
I0110 03:53:58.040786  2541 net.cpp:454] loss <- fc8
I0110 03:53:58.040791  2541 net.cpp:454] loss <- label
I0110 03:53:58.040797  2541 net.cpp:411] loss -> loss
I0110 03:53:58.126889  2541 layer_factory.hpp:76] Creating layer loss
…
I0110 03:53:58.130646  2541 net.cpp:322] The NetState phase (1) differed from the phase (0) specified by a rule in layer data
I0110 03:53:58.130995  2541 net.cpp:49] Initializing net from parameters: 
name: "CaffeNet"
state {
  phase: TEST
}
layer {
  name: "data"
  type: "Data"
  top: "data"
  top: "label"
  include {
    phase: TEST
  }
  transform_param {
    mirror: false
    crop_size: 128
    mean_value: 104
    mean_value: 117
    mean_value: 124
  }
  data_param {
    source: "/media/dereyly/data_one/data/CAFFE_DATA/ilsvrc12_val_lmdb_144"
    batch_size: 100
    backend: LMDB
  }
}
layer {
  name: "conv1"
  type: "Convolution"
  bottom: "data"
  top: "conv1"
  param {
    lr_mult: 1
    decay_mult: 1
  }
  param {
    lr_mult: 2
    decay_mult: 0
  }
  convolution_param {
    num_output: 96
    kernel_size: 11
    stride: 4
    weight_filler {
      type: "msra"
      std: 0.01
    }
    bias_filler {
      type: "constant"
    }
  }
}
layer {
  name: "relu1"
  type: "PReLU"
  bottom: "conv1"
  top: "conv1"
  prelu_param {
    filler {
      type: "constant"
      value: 0.3
    }
    channel_shared: false
  }
}
layer {
  name: "pool1"
  type: "Pooling"
  bottom: "conv1"
  top: "pool1"
  pooling_param {
    pool: MAX
    kernel_size: 3
    stride: 2
  }
}
layer {
  name: "conv1_BN"
  type: "BatchNorm"
  bottom: "pool1"
  top: "conv1_BN"
}
layer {
  name: "conv2"
  type: "Convolution"
  bottom: "conv1_BN"
  top: "conv2"
  param {
    lr_mult: 1
    decay_mult: 1
  }
  param {
    lr_mult: 2
    decay_mult: 0
  }
  convolution_param {
    num_output: 256
    pad: 1
    kernel_size: 3
    weight_filler {
      type: "msra"
      std: 0.01
    }
    bias_filler {
      type: "constant"
    }
  }
}
layer {
  name: "relu2"
  type: "PReLU"
  bottom: "conv2"
  top: "conv2"
  prelu_param {
    filler {
      type: "constant"
      value: 0.3
    }
    channel_shared: false
  }
}
layer {
  name: "conv2_1_BN"
  type: "BatchNorm"
  bottom: "conv2"
  top: "conv2_1_BN"
}
layer {
  name: "conv2_1"
  type: "Convolution"
  bottom: "conv2_1_BN"
  top: "conv2_1"
  param {
    lr_mult: 1
    decay_mult: 1
  }
  param {
    lr_mult: 2
    decay_mult: 0
  }
  convolution_param {
    num_output: 256
    pad: 0
    kernel_size: 1
    weight_filler {
      type: "msra"
      std: 0.01
    }
    bias_filler {
      type: "constant"
    }
  }
}
layer {
  name: "relu2_1"
  type: "PReLU"
  bottom: "conv2_1"
  top: "conv2_1"
  prelu_param {
    filler {
      type: "constant"
      value: 0.3
    }
    channel_shared: false
  }
}
layer {
  name: "conv2_2_BN"
  type: "BatchNorm"
  bottom: "conv2_1"
  top: "conv2_2_BN"
}
layer {
  name: "conv2_2"
  type: "Convolution"
  bottom: "conv2_2_BN"
  top: "conv2_2"
  param {
    lr_mult: 1
    decay_mult: 1
  }
  param {
    lr_mult: 2
    decay_mult: 0
  }
  convolution_param {
    num_output: 256
    pad: 1
    kernel_size: 3
    weight_filler {
      type: "msra"
      std: 0.01
    }
    bias_filler {
      type: "constant"
    }
  }
}
layer {
  name: "relu2_2"
  type: "PReLU"
  bottom: "conv2_2"
  top: "conv2_2"
  prelu_param {
    filler {
      type: "constant"
      value: 0.3
    }
    channel_shared: false
  }
}
layer {
  name: "conv2_3_BN"
  type: "BatchNorm"
  bottom: "conv2_2"
  top: "conv2_3_BN"
}
layer {
  name: "conv2_3"
  type: "Convolution"
  bottom: "conv2_3_BN"
  top: "conv2_3"
  param {
    lr_mult: 1
    decay_mult: 1
  }
  param {
    lr_mult: 2
    decay_mult: 0
  }
  convolution_param {
    num_output: 256
    pad: 0
    kernel_size: 1
    weight_filler {
      type: "msra"
      std: 0.01
    }
    bias_filler {
      type: "constant"
    }
  }
}
layer {
  name: "relu2_3"
  type: "PReLU"
  bottom: "conv2_3"
  top: "conv2_3"
  prelu_param {
    filler {
      type: "constant"
      value: 0.3
    }
    channel_shared: false
  }
}
layer {
  name: "pool2"
  type: "Pooling"
  bottom: "conv2_3"
  top: "pool2"
  pooling_param {
    pool: MAX
    kernel_size: 3
    stride: 2
  }
}
layer {
  name: "conv2_BN"
  type: "BatchNorm"
  bottom: "pool2"
  top: "conv2_BN"
}
layer {
  name: "conv3"
  type: "Convolution"
  bottom: "conv2_BN"
  top: "conv3"
  param {
    lr_mult: 1
    decay_mult: 1
  }
  param {
    lr_mult: 2
    decay_mult: 0
  }
  convolution_param {
    num_output: 384
    pad: 1
    kernel_size: 3
    weight_filler {
      type: "msra"
      std: 0.01
    }
    bias_filler {
      type: "constant"
    }
  }
}
layer {
  name: "relu3"
  type: "PReLU"
  bottom: "conv3"
  top: "conv3"
  prelu_param {
    filler {
      type: "constant"
      value: 0.3
    }
    channel_shared: false
  }
}
layer {
  name: "conv3_BN"
  type: "BatchNorm"
  bottom: "conv3"
  top: "conv3_BN"
}
layer {
  name: "conv3_1"
  type: "Convolution"
  bottom: "conv3_BN"
  top: "conv3_1"
  param {
    lr_mult: 1
    decay_mult: 1
  }
  param {
    lr_mult: 2
    decay_mult: 0
  }
  convolution_param {
    num_output: 384
    pad: 0
    kernel_size: 1
    weight_filler {
      type: "msra"
      std: 0.01
    }
    bias_filler {
      type: "constant"
    }
  }
}
layer {
  name: "relu3_1"
  type: "PReLU"
  bottom: "conv3_1"
  top: "conv3_1"
  prelu_param {
    filler {
      type: "constant"
      value: 0.3
    }
    channel_shared: false
  }
}
layer {
  name: "conv3_1_BN"
  type: "BatchNorm"
  bottom: "conv3_1"
  top: "conv3_1_BN"
}
layer {
  name: "conv4"
  type: "Convolution"
  bottom: "conv3_1_BN"
  top: "conv4"
  param {
    lr_mult: 1
    decay_mult: 1
  }
  param {
    lr_mult: 2
    decay_mult: 0
  }
  convolution_param {
    num_output: 384
    pad: 1
    kernel_size: 3
    group: 2
    weight_filler {
      type: "msra"
      std: 0.01
    }
    bias_filler {
      type: "constant"
    }
  }
}
layer {
  name: "relu4"
  type: "PReLU"
  bottom: "conv4"
  top: "conv4"
  prelu_param {
    filler {
      type: "constant"
      value: 0.3
    }
    channel_shared: false
  }
}
layer {
  name: "conv4_BN"
  type: "BatchNorm"
  bottom: "conv4"
  top: "conv4_BN"
}
layer {
  name: "conv4_1"
  type: "Convolution"
  bottom: "conv4_BN"
  top: "conv4_1"
  param {
    lr_mult: 1
    decay_mult: 1
  }
  param {
    lr_mult: 2
    decay_mult: 0
  }
  convolution_param {
    num_output: 384
    pad: 0
    kernel_size: 1
    weight_filler {
      type: "msra"
      std: 0.01
    }
    bias_filler {
      type: "constant"
    }
  }
}
layer {
  name: "relu4_1"
  type: "PReLU"
  bottom: "conv4_1"
  top: "conv4_1"
  prelu_param {
    filler {
      type: "constant"
      value: 0.3
    }
    channel_shared: false
  }
}
layer {
  name: "conv4_1_BN"
  type: "BatchNorm"
  bottom: "conv4_1"
  top: "conv4_1_BN"
}
layer {
  name: "conv5"
  type: "Convolution"
  bottom: "conv4_1_BN"
  top: "conv5"
  param {
    lr_mult: 1
    decay_mult: 1
  }
  param {
    lr_mult: 2
    decay_mult: 0
  }
  convolution_param {
    num_output: 256
    pad: 1
    kernel_size: 3
    group: 2
    weight_filler {
      type: "msra"
      std: 0.01
    }
    bias_filler {
      type: "constant"
    }
  }
}
layer {
  name: "relu5"
  type: "PReLU"
  bottom: "conv5"
  top: "conv5"
  prelu_param {
    filler {
      type: "constant"
      value: 0.3
    }
    channel_shared: false
  }
}
layer {
  name: "conv5_BN"
  type: "BatchNorm"
  bottom: "conv5"
  top: "conv5_BN"
}
layer {
  name: "conv5_1"
  type: "Convolution"
  bottom: "conv5_BN"
  top: "conv5_1"
  param {
    lr_mult: 1
    decay_mult: 1
  }
  param {
    lr_mult: 2
    decay_mult: 0
  }
  convolution_param {
    num_output: 256
    pad: 0
    kernel_size: 1
    weight_filler {
      type: "msra"
      std: 0.01
    }
    bias_filler {
      type: "constant"
    }
  }
}
layer {
  name: "relu5_1"
  type: "PReLU"
  bottom: "conv5_1"
  top: "conv5_1"
  prelu_param {
    filler {
      type: "constant"
      value: 0.3
    }
    channel_shared: false
  }
}
layer {
  name: "conv5_1_BN"
  type: "BatchNorm"
  bottom: "conv5_1"
  top: "conv5_1_BN"
}
layer {
  name: "pool5"
  type: "Pooling"
  bottom: "conv5_1_BN"
  top: "pool5"
  pooling_param {
    pool: MAX
    kernel_size: 3
    stride: 2
  }
}
layer {
  name: "fc6"
  type: "InnerProduct"
  bottom: "pool5"
  top: "fc6"
  param {
    lr_mult: 1
    decay_mult: 1
  }
  param {
    lr_mult: 2
    decay_mult: 0
  }
  inner_product_param {
    num_output: 2048
    weight_filler {
      type: "gaussian"
      std: 0.005
    }
    bias_filler {
      type: "constant"
    }
  }
}
layer {
  name: "relu6"
  type: "PReLU"
  bottom: "fc6"
  top: "fc6"
  prelu_param {
    filler {
      type: "constant"
      value: 0.3
    }
    channel_shared: false
  }
}
layer {
  name: "fc6_BN"
  type: "BatchNorm"
  bottom: "fc6"
  top: "fc6_BN"
}
layer {
  name: "drop6"
  type: "Dropout"
  bottom: "fc6_BN"
  top: "drop6"
  dropout_param {
    dropout_ratio: 0.2
  }
}
layer {
  name: "fc7"
  type: "InnerProduct"
  bottom: "drop6"
  top: "fc7"
  param {
    lr_mult: 1
    decay_mult: 1
  }
  param {
    lr_mult: 2
    decay_mult: 0
  }
  inner_product_param {
    num_output: 2048
    weight_filler {
      type: "gaussian"
      std: 0.005
    }
    bias_filler {
      type: "constant"
    }
  }
}
layer {
  name: "relu7"
  type: "PReLU"
  bottom: "fc7"
  top: "fc7"
  prelu_param {
    filler {
      type: "constant"
      value: 0.3
    }
    channel_shared: false
  }
}
layer {
  name: "fc7_BN"
  type: "BatchNorm"
  bottom: "fc7"
  top: "fc7_BN"
}
layer {
  name: "drop7"
  type: "Dropout"
  bottom: "fc7_BN"
  top: "drop7"
  dropout_param {
    dropout_ratio: 0.2
  }
}
layer {
  name: "fc8"
  type: "InnerProduct"
  bottom: "drop7"
  top: "fc8"
  param {
    lr_mult: 1
    decay_mult: 1
  }
  param {
    lr_mult: 2
    decay_mult: 0
  }
  inner_product_param {
    num_output: 1000
    weight_filler {
      type: "gaussian"
      std: 0.01
    }
    bias_filler {
      type: "constant"
    }
  }
}
layer {
  name: "accuracy"
  type: "Accuracy"
  bottom: "fc8"
  bottom: "label"
  top: "accuracy"
  include {
    phase: TEST
  }
}
layer {
  name: "loss"
  type: "SoftmaxWithLoss"
  bottom: "fc8"
  bottom: "label"
  top: "loss"
}
I0110 03:53:58.131144  2541 layer_factory.hpp:76] Creating layer data
I0110 03:53:58.131252  2541 net.cpp:106] Creating Layer data
I0110 03:53:58.131260  2541 net.cpp:411] data -> data
I0110 03:53:58.131268  2541 net.cpp:411] data -> label
I0110 03:53:58.248030  2556 db_lmdb.cpp:38] Opened lmdb /media/dereyly/data_one/data/CAFFE_DATA/ilsvrc12_val_lmdb_144
I0110 03:53:58.306304  2541 data_layer.cpp:41] output data size: 100,3,128,128
I0110 03:53:58.328974  2541 net.cpp:150] Setting up data
I0110 03:53:58.328996  2541 net.cpp:157] Top shape: 100 3 128 128 (4915200)
I0110 03:53:58.329001  2541 net.cpp:157] Top shape: 100 (100)
I0110 03:53:58.329005  2541 net.cpp:165] Memory required for data: 19661200
I0110 03:53:58.329010  2541 layer_factory.hpp:76] Creating layer label_data_1_split
I0110 03:53:58.329035  2541 net.cpp:106] Creating Layer label_data_1_split
I0110 03:53:58.329038  2541 net.cpp:454] label_data_1_split <- label
I0110 03:53:58.329044  2541 net.cpp:411] label_data_1_split -> label_data_1_split_0
I0110 03:53:58.329051  2541 net.cpp:411] label_data_1_split -> label_data_1_split_1
I0110 03:53:58.329167  2541 net.cpp:150] Setting up label_data_1_split
I0110 03:53:58.329180  2541 net.cpp:157] Top shape: 100 (100)
I0110 03:53:58.329183  2541 net.cpp:157] Top shape: 100 (100)
I0110 03:53:58.329186  2541 net.cpp:165] Memory required for data: 19662000
I0110 03:53:58.329200  2541 layer_factory.hpp:76] Creating layer conv1
I0110 03:53:58.329211  2541 net.cpp:106] Creating Layer conv1
I0110 03:53:58.329216  2541 net.cpp:454] conv1 <- data
I0110 03:53:58.329221  2541 net.cpp:411] conv1 -> conv1
I0110 03:53:58.332192  2541 net.cpp:150] Setting up conv1
I0110 03:53:58.332204  2541 net.cpp:157] Top shape: 100 96 30 30 (8640000)
I0110 03:53:58.332208  2541 net.cpp:165] Memory required for data: 54222000
I0110 03:53:58.332228  2541 layer_factory.hpp:76] Creating layer relu1
I0110 03:53:58.332237  2541 net.cpp:106] Creating Layer relu1
I0110 03:53:58.332240  2541 net.cpp:454] relu1 <- conv1
I0110 03:53:58.332245  2541 net.cpp:397] relu1 -> conv1 (in-place)
I0110 03:53:58.332356  2541 net.cpp:150] Setting up relu1
I0110 03:53:58.332363  2541 net.cpp:157] Top shape: 100 96 30 30 (8640000)
I0110 03:53:58.332377  2541 net.cpp:165] Memory required for data: 88782000
I0110 03:53:58.332384  2541 layer_factory.hpp:76] Creating layer pool1
I0110 03:53:58.332392  2541 net.cpp:106] Creating Layer pool1
I0110 03:53:58.332396  2541 net.cpp:454] pool1 <- conv1
I0110 03:53:58.332401  2541 net.cpp:411] pool1 -> pool1
I0110 03:53:58.332679  2541 net.cpp:150] Setting up pool1
I0110 03:53:58.332689  2541 net.cpp:157] Top shape: 100 96 15 15 (2160000)
I0110 03:53:58.332702  2541 net.cpp:165] Memory required for data: 97422000
I0110 03:53:58.332706  2541 layer_factory.hpp:76] Creating layer conv1_BN
I0110 03:53:58.332712  2541 net.cpp:106] Creating Layer conv1_BN
I0110 03:53:58.332715  2541 net.cpp:454] conv1_BN <- pool1
I0110 03:53:58.332721  2541 net.cpp:411] conv1_BN -> conv1_BN
I0110 03:53:58.332892  2541 net.cpp:150] Setting up conv1_BN
I0110 03:53:58.332900  2541 net.cpp:157] Top shape: 100 96 15 15 (2160000)
I0110 03:53:58.332914  2541 net.cpp:165] Memory required for data: 106062000
I0110 03:53:58.332922  2541 layer_factory.hpp:76] Creating layer conv2
I0110 03:53:58.332931  2541 net.cpp:106] Creating Layer conv2
I0110 03:53:58.332936  2541 net.cpp:454] conv2 <- conv1_BN
I0110 03:53:58.332945  2541 net.cpp:411] conv2 -> conv2
I0110 03:53:58.338927  2541 net.cpp:150] Setting up conv2
I0110 03:53:58.338944  2541 net.cpp:157] Top shape: 100 256 15 15 (5760000)
I0110 03:53:58.338949  2541 net.cpp:165] Memory required for data: 129102000
I0110 03:53:58.338970  2541 layer_factory.hpp:76] Creating layer relu2
I0110 03:53:58.338984  2541 net.cpp:106] Creating Layer relu2
I0110 03:53:58.338989  2541 net.cpp:454] relu2 <- conv2
I0110 03:53:58.338999  2541 net.cpp:397] relu2 -> conv2 (in-place)
I0110 03:53:58.339117  2541 net.cpp:150] Setting up relu2
I0110 03:53:58.339126  2541 net.cpp:157] Top shape: 100 256 15 15 (5760000)
I0110 03:53:58.339131  2541 net.cpp:165] Memory required for data: 152142000
I0110 03:53:58.339154  2541 layer_factory.hpp:76] Creating layer conv2_1_BN
I0110 03:53:58.339165  2541 net.cpp:106] Creating Layer conv2_1_BN
I0110 03:53:58.339172  2541 net.cpp:454] conv2_1_BN <- conv2
I0110 03:53:58.339180  2541 net.cpp:411] conv2_1_BN -> conv2_1_BN
I0110 03:53:58.339339  2541 net.cpp:150] Setting up conv2_1_BN
I0110 03:53:58.339349  2541 net.cpp:157] Top shape: 100 256 15 15 (5760000)
I0110 03:53:58.339354  2541 net.cpp:165] Memory required for data: 175182000
I0110 03:53:58.339375  2541 layer_factory.hpp:76] Creating layer conv2_1
I0110 03:53:58.339392  2541 net.cpp:106] Creating Layer conv2_1
I0110 03:53:58.339398  2541 net.cpp:454] conv2_1 <- conv2_1_BN
I0110 03:53:58.339407  2541 net.cpp:411] conv2_1 -> conv2_1
I0110 03:53:58.341413  2541 net.cpp:150] Setting up conv2_1
I0110 03:53:58.341425  2541 net.cpp:157] Top shape: 100 256 15 15 (5760000)
I0110 03:53:58.341441  2541 net.cpp:165] Memory required for data: 198222000
I0110 03:53:58.341451  2541 layer_factory.hpp:76] Creating layer relu2_1
I0110 03:53:58.341460  2541 net.cpp:106] Creating Layer relu2_1
I0110 03:53:58.341466  2541 net.cpp:454] relu2_1 <- conv2_1
I0110 03:53:58.341475  2541 net.cpp:397] relu2_1 -> conv2_1 (in-place)
I0110 03:53:58.341840  2541 net.cpp:150] Setting up relu2_1
I0110 03:53:58.341851  2541 net.cpp:157] Top shape: 100 256 15 15 (5760000)
I0110 03:53:58.341856  2541 net.cpp:165] Memory required for data: 221262000
I0110 03:53:58.341874  2541 layer_factory.hpp:76] Creating layer conv2_2_BN
I0110 03:53:58.341882  2541 net.cpp:106] Creating Layer conv2_2_BN
I0110 03:53:58.341888  2541 net.cpp:454] conv2_2_BN <- conv2_1
I0110 03:53:58.341898  2541 net.cpp:411] conv2_2_BN -> conv2_2_BN
I0110 03:53:58.342067  2541 net.cpp:150] Setting up conv2_2_BN
I0110 03:53:58.342075  2541 net.cpp:157] Top shape: 100 256 15 15 (5760000)
I0110 03:53:58.342080  2541 net.cpp:165] Memory required for data: 244302000
I0110 03:53:58.342108  2541 layer_factory.hpp:76] Creating layer conv2_2
I0110 03:53:58.342120  2541 net.cpp:106] Creating Layer conv2_2
I0110 03:53:58.342128  2541 net.cpp:454] conv2_2 <- conv2_2_BN
I0110 03:53:58.342149  2541 net.cpp:411] conv2_2 -> conv2_2
I0110 03:53:58.355300  2541 net.cpp:150] Setting up conv2_2
I0110 03:53:58.355315  2541 net.cpp:157] Top shape: 100 256 15 15 (5760000)
I0110 03:53:58.355321  2541 net.cpp:165] Memory required for data: 267342000
I0110 03:53:58.355330  2541 layer_factory.hpp:76] Creating layer relu2_2
I0110 03:53:58.355341  2541 net.cpp:106] Creating Layer relu2_2
I0110 03:53:58.355347  2541 net.cpp:454] relu2_2 <- conv2_2
I0110 03:53:58.355361  2541 net.cpp:397] relu2_2 -> conv2_2 (in-place)
I0110 03:53:58.355463  2541 net.cpp:150] Setting up relu2_2
I0110 03:53:58.355473  2541 net.cpp:157] Top shape: 100 256 15 15 (5760000)
I0110 03:53:58.355479  2541 net.cpp:165] Memory required for data: 290382000
I0110 03:53:58.355485  2541 layer_factory.hpp:76] Creating layer conv2_3_BN
I0110 03:53:58.355494  2541 net.cpp:106] Creating Layer conv2_3_BN
I0110 03:53:58.355499  2541 net.cpp:454] conv2_3_BN <- conv2_2
I0110 03:53:58.355506  2541 net.cpp:411] conv2_3_BN -> conv2_3_BN
I0110 03:53:58.355659  2541 net.cpp:150] Setting up conv2_3_BN
I0110 03:53:58.355669  2541 net.cpp:157] Top shape: 100 256 15 15 (5760000)
I0110 03:53:58.355674  2541 net.cpp:165] Memory required for data: 313422000
I0110 03:53:58.355684  2541 layer_factory.hpp:76] Creating layer conv2_3
I0110 03:53:58.355700  2541 net.cpp:106] Creating Layer conv2_3
I0110 03:53:58.355707  2541 net.cpp:454] conv2_3 <- conv2_3_BN
I0110 03:53:58.355717  2541 net.cpp:411] conv2_3 -> conv2_3
I0110 03:53:58.357805  2541 net.cpp:150] Setting up conv2_3
I0110 03:53:58.357817  2541 net.cpp:157] Top shape: 100 256 15 15 (5760000)
I0110 03:53:58.357823  2541 net.cpp:165] Memory required for data: 336462000
I0110 03:53:58.357832  2541 layer_factory.hpp:76] Creating layer relu2_3
I0110 03:53:58.357846  2541 net.cpp:106] Creating Layer relu2_3
I0110 03:53:58.357853  2541 net.cpp:454] relu2_3 <- conv2_3
I0110 03:53:58.357861  2541 net.cpp:397] relu2_3 -> conv2_3 (in-place)
I0110 03:53:58.357970  2541 net.cpp:150] Setting up relu2_3
I0110 03:53:58.357981  2541 net.cpp:157] Top shape: 100 256 15 15 (5760000)
I0110 03:53:58.357986  2541 net.cpp:165] Memory required for data: 359502000
I0110 03:53:58.357995  2541 layer_factory.hpp:76] Creating layer pool2
I0110 03:53:58.358002  2541 net.cpp:106] Creating Layer pool2
I0110 03:53:58.358008  2541 net.cpp:454] pool2 <- conv2_3
I0110 03:53:58.358016  2541 net.cpp:411] pool2 -> pool2
I0110 03:53:58.358171  2541 net.cpp:150] Setting up pool2
I0110 03:53:58.358181  2541 net.cpp:157] Top shape: 100 256 7 7 (1254400)
I0110 03:53:58.358187  2541 net.cpp:165] Memory required for data: 364519600
I0110 03:53:58.358192  2541 layer_factory.hpp:76] Creating layer conv2_BN
I0110 03:53:58.358201  2541 net.cpp:106] Creating Layer conv2_BN
I0110 03:53:58.358207  2541 net.cpp:454] conv2_BN <- pool2
I0110 03:53:58.358216  2541 net.cpp:411] conv2_BN -> conv2_BN
I0110 03:53:58.358372  2541 net.cpp:150] Setting up conv2_BN
I0110 03:53:58.358381  2541 net.cpp:157] Top shape: 100 256 7 7 (1254400)
I0110 03:53:58.358386  2541 net.cpp:165] Memory required for data: 369537200
I0110 03:53:58.358397  2541 layer_factory.hpp:76] Creating layer conv3
I0110 03:53:58.358407  2541 net.cpp:106] Creating Layer conv3
I0110 03:53:58.358412  2541 net.cpp:454] conv3 <- conv2_BN
I0110 03:53:58.358424  2541 net.cpp:411] conv3 -> conv3
I0110 03:53:58.377760  2541 net.cpp:150] Setting up conv3
I0110 03:53:58.377780  2541 net.cpp:157] Top shape: 100 384 7 7 (1881600)
I0110 03:53:58.377786  2541 net.cpp:165] Memory required for data: 377063600
I0110 03:53:58.377797  2541 layer_factory.hpp:76] Creating layer relu3
I0110 03:53:58.377810  2541 net.cpp:106] Creating Layer relu3
I0110 03:53:58.377816  2541 net.cpp:454] relu3 <- conv3
I0110 03:53:58.377830  2541 net.cpp:397] relu3 -> conv3 (in-place)
I0110 03:53:58.377917  2541 net.cpp:150] Setting up relu3
I0110 03:53:58.377925  2541 net.cpp:157] Top shape: 100 384 7 7 (1881600)
I0110 03:53:58.377930  2541 net.cpp:165] Memory required for data: 384590000
I0110 03:53:58.377946  2541 layer_factory.hpp:76] Creating layer conv3_BN
I0110 03:53:58.377962  2541 net.cpp:106] Creating Layer conv3_BN
I0110 03:53:58.377979  2541 net.cpp:454] conv3_BN <- conv3
I0110 03:53:58.377988  2541 net.cpp:411] conv3_BN -> conv3_BN
I0110 03:53:58.378146  2541 net.cpp:150] Setting up conv3_BN
I0110 03:53:58.378155  2541 net.cpp:157] Top shape: 100 384 7 7 (1881600)
I0110 03:53:58.378160  2541 net.cpp:165] Memory required for data: 392116400
I0110 03:53:58.378171  2541 layer_factory.hpp:76] Creating layer conv3_1
I0110 03:53:58.378185  2541 net.cpp:106] Creating Layer conv3_1
I0110 03:53:58.378191  2541 net.cpp:454] conv3_1 <- conv3_BN
I0110 03:53:58.378201  2541 net.cpp:411] conv3_1 -> conv3_1
I0110 03:53:58.382237  2541 net.cpp:150] Setting up conv3_1
I0110 03:53:58.382249  2541 net.cpp:157] Top shape: 100 384 7 7 (1881600)
I0110 03:53:58.382256  2541 net.cpp:165] Memory required for data: 399642800
I0110 03:53:58.382264  2541 layer_factory.hpp:76] Creating layer relu3_1
I0110 03:53:58.382277  2541 net.cpp:106] Creating Layer relu3_1
I0110 03:53:58.382282  2541 net.cpp:454] relu3_1 <- conv3_1
I0110 03:53:58.382290  2541 net.cpp:397] relu3_1 -> conv3_1 (in-place)
I0110 03:53:58.382375  2541 net.cpp:150] Setting up relu3_1
I0110 03:53:58.382385  2541 net.cpp:157] Top shape: 100 384 7 7 (1881600)
I0110 03:53:58.382390  2541 net.cpp:165] Memory required for data: 407169200
I0110 03:53:58.382397  2541 layer_factory.hpp:76] Creating layer conv3_1_BN
I0110 03:53:58.382406  2541 net.cpp:106] Creating Layer conv3_1_BN
I0110 03:53:58.382412  2541 net.cpp:454] conv3_1_BN <- conv3_1
I0110 03:53:58.382421  2541 net.cpp:411] conv3_1_BN -> conv3_1_BN
I0110 03:53:58.382575  2541 net.cpp:150] Setting up conv3_1_BN
I0110 03:53:58.382585  2541 net.cpp:157] Top shape: 100 384 7 7 (1881600)
I0110 03:53:58.382589  2541 net.cpp:165] Memory required for data: 414695600
I0110 03:53:58.382601  2541 layer_factory.hpp:76] Creating layer conv4
I0110 03:53:58.382611  2541 net.cpp:106] Creating Layer conv4
I0110 03:53:58.382618  2541 net.cpp:454] conv4 <- conv3_1_BN
I0110 03:53:58.382629  2541 net.cpp:411] conv4 -> conv4
I0110 03:53:58.397943  2541 net.cpp:150] Setting up conv4
I0110 03:53:58.397969  2541 net.cpp:157] Top shape: 100 384 7 7 (1881600)
I0110 03:53:58.397974  2541 net.cpp:165] Memory required for data: 422222000
I0110 03:53:58.397995  2541 layer_factory.hpp:76] Creating layer relu4
I0110 03:53:58.398008  2541 net.cpp:106] Creating Layer relu4
I0110 03:53:58.398015  2541 net.cpp:454] relu4 <- conv4
I0110 03:53:58.398027  2541 net.cpp:397] relu4 -> conv4 (in-place)
I0110 03:53:58.398143  2541 net.cpp:150] Setting up relu4
I0110 03:53:58.398152  2541 net.cpp:157] Top shape: 100 384 7 7 (1881600)
I0110 03:53:58.398157  2541 net.cpp:165] Memory required for data: 429748400
I0110 03:53:58.398164  2541 layer_factory.hpp:76] Creating layer conv4_BN
I0110 03:53:58.398174  2541 net.cpp:106] Creating Layer conv4_BN
I0110 03:53:58.398178  2541 net.cpp:454] conv4_BN <- conv4
I0110 03:53:58.398185  2541 net.cpp:411] conv4_BN -> conv4_BN
I0110 03:53:58.398378  2541 net.cpp:150] Setting up conv4_BN
I0110 03:53:58.398388  2541 net.cpp:157] Top shape: 100 384 7 7 (1881600)
I0110 03:53:58.398393  2541 net.cpp:165] Memory required for data: 437274800
I0110 03:53:58.398404  2541 layer_factory.hpp:76] Creating layer conv4_1
I0110 03:53:58.398421  2541 net.cpp:106] Creating Layer conv4_1
I0110 03:53:58.398427  2541 net.cpp:454] conv4_1 <- conv4_BN
I0110 03:53:58.398435  2541 net.cpp:411] conv4_1 -> conv4_1
I0110 03:53:58.402204  2541 net.cpp:150] Setting up conv4_1
I0110 03:53:58.402216  2541 net.cpp:157] Top shape: 100 384 7 7 (1881600)
I0110 03:53:58.402222  2541 net.cpp:165] Memory required for data: 444801200
I0110 03:53:58.402231  2541 layer_factory.hpp:76] Creating layer relu4_1
I0110 03:53:58.402240  2541 net.cpp:106] Creating Layer relu4_1
I0110 03:53:58.402246  2541 net.cpp:454] relu4_1 <- conv4_1
I0110 03:53:58.402256  2541 net.cpp:397] relu4_1 -> conv4_1 (in-place)
I0110 03:53:58.402343  2541 net.cpp:150] Setting up relu4_1
I0110 03:53:58.402353  2541 net.cpp:157] Top shape: 100 384 7 7 (1881600)
I0110 03:53:58.402357  2541 net.cpp:165] Memory required for data: 452327600
I0110 03:53:58.402377  2541 layer_factory.hpp:76] Creating layer conv4_1_BN
I0110 03:53:58.402391  2541 net.cpp:106] Creating Layer conv4_1_BN
I0110 03:53:58.402400  2541 net.cpp:454] conv4_1_BN <- conv4_1
I0110 03:53:58.402407  2541 net.cpp:411] conv4_1_BN -> conv4_1_BN
I0110 03:53:58.402565  2541 net.cpp:150] Setting up conv4_1_BN
I0110 03:53:58.402573  2541 net.cpp:157] Top shape: 100 384 7 7 (1881600)
I0110 03:53:58.402578  2541 net.cpp:165] Memory required for data: 459854000
I0110 03:53:58.402588  2541 layer_factory.hpp:76] Creating layer conv5
I0110 03:53:58.402611  2541 net.cpp:106] Creating Layer conv5
I0110 03:53:58.402616  2541 net.cpp:454] conv5 <- conv4_1_BN
I0110 03:53:58.402626  2541 net.cpp:411] conv5 -> conv5
I0110 03:53:58.412942  2541 net.cpp:150] Setting up conv5
I0110 03:53:58.412956  2541 net.cpp:157] Top shape: 100 256 7 7 (1254400)
I0110 03:53:58.412962  2541 net.cpp:165] Memory required for data: 464871600
I0110 03:53:58.412971  2541 layer_factory.hpp:76] Creating layer relu5
I0110 03:53:58.412987  2541 net.cpp:106] Creating Layer relu5
I0110 03:53:58.412997  2541 net.cpp:454] relu5 <- conv5
I0110 03:53:58.413007  2541 net.cpp:397] relu5 -> conv5 (in-place)
I0110 03:53:58.413094  2541 net.cpp:150] Setting up relu5
I0110 03:53:58.413102  2541 net.cpp:157] Top shape: 100 256 7 7 (1254400)
I0110 03:53:58.413107  2541 net.cpp:165] Memory required for data: 469889200
I0110 03:53:58.413115  2541 layer_factory.hpp:76] Creating layer conv5_BN
I0110 03:53:58.413125  2541 net.cpp:106] Creating Layer conv5_BN
I0110 03:53:58.413130  2541 net.cpp:454] conv5_BN <- conv5
I0110 03:53:58.413137  2541 net.cpp:411] conv5_BN -> conv5_BN
I0110 03:53:58.413349  2541 net.cpp:150] Setting up conv5_BN
I0110 03:53:58.413358  2541 net.cpp:157] Top shape: 100 256 7 7 (1254400)
I0110 03:53:58.413364  2541 net.cpp:165] Memory required for data: 474906800
I0110 03:53:58.413374  2541 layer_factory.hpp:76] Creating layer conv5_1
I0110 03:53:58.413389  2541 net.cpp:106] Creating Layer conv5_1
I0110 03:53:58.413396  2541 net.cpp:454] conv5_1 <- conv5_BN
I0110 03:53:58.413405  2541 net.cpp:411] conv5_1 -> conv5_1
I0110 03:53:58.415734  2541 net.cpp:150] Setting up conv5_1
I0110 03:53:58.415746  2541 net.cpp:157] Top shape: 100 256 7 7 (1254400)
I0110 03:53:58.415752  2541 net.cpp:165] Memory required for data: 479924400
I0110 03:53:58.415761  2541 layer_factory.hpp:76] Creating layer relu5_1
I0110 03:53:58.415772  2541 net.cpp:106] Creating Layer relu5_1
I0110 03:53:58.415779  2541 net.cpp:454] relu5_1 <- conv5_1
I0110 03:53:58.415787  2541 net.cpp:397] relu5_1 -> conv5_1 (in-place)
I0110 03:53:58.415868  2541 net.cpp:150] Setting up relu5_1
I0110 03:53:58.415877  2541 net.cpp:157] Top shape: 100 256 7 7 (1254400)
I0110 03:53:58.415882  2541 net.cpp:165] Memory required for data: 484942000
I0110 03:53:58.415890  2541 layer_factory.hpp:76] Creating layer conv5_1_BN
I0110 03:53:58.415897  2541 net.cpp:106] Creating Layer conv5_1_BN
I0110 03:53:58.415905  2541 net.cpp:454] conv5_1_BN <- conv5_1
I0110 03:53:58.415912  2541 net.cpp:411] conv5_1_BN -> conv5_1_BN
I0110 03:53:58.416072  2541 net.cpp:150] Setting up conv5_1_BN
I0110 03:53:58.416081  2541 net.cpp:157] Top shape: 100 256 7 7 (1254400)
I0110 03:53:58.416086  2541 net.cpp:165] Memory required for data: 489959600
I0110 03:53:58.416108  2541 layer_factory.hpp:76] Creating layer pool5
I0110 03:53:58.416118  2541 net.cpp:106] Creating Layer pool5
I0110 03:53:58.416124  2541 net.cpp:454] pool5 <- conv5_1_BN
I0110 03:53:58.416132  2541 net.cpp:411] pool5 -> pool5
I0110 03:53:58.416384  2541 net.cpp:150] Setting up pool5
I0110 03:53:58.416395  2541 net.cpp:157] Top shape: 100 256 3 3 (230400)
I0110 03:53:58.416401  2541 net.cpp:165] Memory required for data: 490881200
I0110 03:53:58.416406  2541 layer_factory.hpp:76] Creating layer fc6
I0110 03:53:58.416419  2541 net.cpp:106] Creating Layer fc6
I0110 03:53:58.416425  2541 net.cpp:454] fc6 <- pool5
I0110 03:53:58.416435  2541 net.cpp:411] fc6 -> fc6
I0110 03:53:58.513864  2541 net.cpp:150] Setting up fc6
I0110 03:53:58.513900  2541 net.cpp:157] Top shape: 100 2048 (204800)
I0110 03:53:58.513906  2541 net.cpp:165] Memory required for data: 491700400
I0110 03:53:58.513916  2541 layer_factory.hpp:76] Creating layer relu6
I0110 03:53:58.513929  2541 net.cpp:106] Creating Layer relu6
I0110 03:53:58.513936  2541 net.cpp:454] relu6 <- fc6
I0110 03:53:58.513948  2541 net.cpp:397] relu6 -> fc6 (in-place)
I0110 03:53:58.514040  2541 net.cpp:150] Setting up relu6
I0110 03:53:58.514050  2541 net.cpp:157] Top shape: 100 2048 (204800)
I0110 03:53:58.514055  2541 net.cpp:165] Memory required for data: 492519600
I0110 03:53:58.514062  2541 layer_factory.hpp:76] Creating layer fc6_BN
I0110 03:53:58.514073  2541 net.cpp:106] Creating Layer fc6_BN
I0110 03:53:58.514080  2541 net.cpp:454] fc6_BN <- fc6
I0110 03:53:58.514087  2541 net.cpp:411] fc6_BN -> fc6_BN
I0110 03:53:58.514252  2541 net.cpp:150] Setting up fc6_BN
I0110 03:53:58.514261  2541 net.cpp:157] Top shape: 100 2048 (204800)
I0110 03:53:58.514266  2541 net.cpp:165] Memory required for data: 493338800
I0110 03:53:58.514276  2541 layer_factory.hpp:76] Creating layer drop6
I0110 03:53:58.514287  2541 net.cpp:106] Creating Layer drop6
I0110 03:53:58.514295  2541 net.cpp:454] drop6 <- fc6_BN
I0110 03:53:58.514303  2541 net.cpp:411] drop6 -> drop6
I0110 03:53:58.514341  2541 net.cpp:150] Setting up drop6
I0110 03:53:58.514349  2541 net.cpp:157] Top shape: 100 2048 (204800)
I0110 03:53:58.514354  2541 net.cpp:165] Memory required for data: 494158000
I0110 03:53:58.514359  2541 layer_factory.hpp:76] Creating layer fc7
I0110 03:53:58.514370  2541 net.cpp:106] Creating Layer fc7
I0110 03:53:58.514376  2541 net.cpp:454] fc7 <- drop6
I0110 03:53:58.514384  2541 net.cpp:411] fc7 -> fc7
I0110 03:53:58.601091  2541 net.cpp:150] Setting up fc7
I0110 03:53:58.601112  2541 net.cpp:157] Top shape: 100 2048 (204800)
I0110 03:53:58.601117  2541 net.cpp:165] Memory required for data: 494977200
I0110 03:53:58.601128  2541 layer_factory.hpp:76] Creating layer relu7
I0110 03:53:58.601143  2541 net.cpp:106] Creating Layer relu7
I0110 03:53:58.601150  2541 net.cpp:454] relu7 <- fc7
I0110 03:53:58.601161  2541 net.cpp:397] relu7 -> fc7 (in-place)
I0110 03:53:58.601241  2541 net.cpp:150] Setting up relu7
I0110 03:53:58.601250  2541 net.cpp:157] Top shape: 100 2048 (204800)
I0110 03:53:58.601255  2541 net.cpp:165] Memory required for data: 495796400
I0110 03:53:58.601263  2541 layer_factory.hpp:76] Creating layer fc7_BN
I0110 03:53:58.601270  2541 net.cpp:106] Creating Layer fc7_BN
I0110 03:53:58.601276  2541 net.cpp:454] fc7_BN <- fc7
I0110 03:53:58.601286  2541 net.cpp:411] fc7_BN -> fc7_BN
I0110 03:53:58.601444  2541 net.cpp:150] Setting up fc7_BN
I0110 03:53:58.601454  2541 net.cpp:157] Top shape: 100 2048 (204800)
I0110 03:53:58.601459  2541 net.cpp:165] Memory required for data: 496615600
I0110 03:53:58.601469  2541 layer_factory.hpp:76] Creating layer drop7
I0110 03:53:58.601480  2541 net.cpp:106] Creating Layer drop7
I0110 03:53:58.601487  2541 net.cpp:454] drop7 <- fc7_BN
I0110 03:53:58.601495  2541 net.cpp:411] drop7 -> drop7
I0110 03:53:58.601533  2541 net.cpp:150] Setting up drop7
I0110 03:53:58.601541  2541 net.cpp:157] Top shape: 100 2048 (204800)
I0110 03:53:58.601547  2541 net.cpp:165] Memory required for data: 497434800
I0110 03:53:58.601552  2541 layer_factory.hpp:76] Creating layer fc8
I0110 03:53:58.601563  2541 net.cpp:106] Creating Layer fc8
I0110 03:53:58.601569  2541 net.cpp:454] fc8 <- drop7
I0110 03:53:58.601577  2541 net.cpp:411] fc8 -> fc8
I0110 03:53:58.643879  2541 net.cpp:150] Setting up fc8
I0110 03:53:58.643899  2541 net.cpp:157] Top shape: 100 1000 (100000)
I0110 03:53:58.643904  2541 net.cpp:165] Memory required for data: 497834800
I0110 03:53:58.643926  2541 layer_factory.hpp:76] Creating layer fc8_fc8_0_split
I0110 03:53:58.643937  2541 net.cpp:106] Creating Layer fc8_fc8_0_split
I0110 03:53:58.643944  2541 net.cpp:454] fc8_fc8_0_split <- fc8
I0110 03:53:58.643954  2541 net.cpp:411] fc8_fc8_0_split -> fc8_fc8_0_split_0
I0110 03:53:58.643965  2541 net.cpp:411] fc8_fc8_0_split -> fc8_fc8_0_split_1
I0110 03:53:58.644032  2541 net.cpp:150] Setting up fc8_fc8_0_split
I0110 03:53:58.644042  2541 net.cpp:157] Top shape: 100 1000 (100000)
I0110 03:53:58.644058  2541 net.cpp:157] Top shape: 100 1000 (100000)
I0110 03:53:58.644063  2541 net.cpp:165] Memory required for data: 498634800
I0110 03:53:58.644069  2541 layer_factory.hpp:76] Creating layer accuracy
I0110 03:53:58.644083  2541 net.cpp:106] Creating Layer accuracy
I0110 03:53:58.644088  2541 net.cpp:454] accuracy <- fc8_fc8_0_split_0
I0110 03:53:58.644098  2541 net.cpp:454] accuracy <- label_data_1_split_0
I0110 03:53:58.644106  2541 net.cpp:411] accuracy -> accuracy
…
